…
snapshot_prefix: "/media/Med_2T2/data2/models/snapshots/joint:1e-5x10,1e-5x10,20/FD0:XI3_1_20180715_091940,XJ3_1_20180715_203512/train"
test_initialization: false
average_loss: 20
stepvalue: 50000
stepvalue: 60000
stepvalue: 70000
iter_size: 1
I0715 20:35:13.088156 14456 solver.cpp:77] Creating training net from train_net file: /media/Med_2T2/data2/prototxts/training_J3x10.prototxt
I0715 20:35:13.090952 14456 net.cpp:51] Initializing net from parameters: 
state {
  phase: TRAIN
}
layer {
  name: "data"
  type: "Python"
  top: "data"
  top: "label"
  top: "crop_margin"
  top: "crop_prob"
  top: "crop_sample_batch"
  python_param {
    module: "Data"
    layer: "DataLayer"
  }
}
layer {
  name: "conv1_1"
  type: "Convolution"
  bottom: "data"
  top: "conv1_1"
  param {
    lr_mult: 1
    decay_mult: 1
  }
  param {
    lr_mult: 2
    decay_mult: 0
  }
  convolution_param {
    num_output: 64
    pad: 100
    kernel_size: 3
    stride: 1
  }
}
layer {
  name: "relu1_1"
  type: "ReLU"
  bottom: "conv1_1"
  top: "conv1_1"
}
layer {
  name: "conv1_2"
  type: "Convolution"
  bottom: "conv1_1"
  top: "conv1_2"
  param {
    lr_mult: 1
    decay_mult: 1
  }
  param {
    lr_mult: 2
    decay_mult: 0
  }
  convolution_param {
    num_output: 64
    pad: 1
    kernel_size: 3
    stride: 1
  }
}
layer {
  name: "relu1_2"
  type: "ReLU"
  bottom: "conv1_2"
  top: "conv1_2"
}
layer {
  name: "pool1"
  type: "Pooling"
  bottom: "conv1_2"
  top: "pool1"
  pooling_param {
    pool: MAX
    kernel_size: 2
    stride: 2
  }
}
layer {
  name: "conv2_1"
  type: "Convolution"
  bottom: "pool1"
  top: "conv2_1"
  param {
    lr_mult: 1
    decay_mult: 1
  }
  param {
    lr_mult: 2
    decay_mult: 0
  }
  convolution_param {
    num_output: 128
    pad: 1
    kernel_size: 3
    stride: 1
  }
}
layer {
  name: "relu2_1"
  type: "ReLU"
  bottom: "conv2_1"
  top: "conv2_1"
}
layer {
  name: "conv2_2"
  type: "Convolution"
  bottom: "conv2_1"
  top: "conv2_2"
  param {
    lr_mult: 1
    decay_mult: 1
  }
  param {
    lr_mult: 2
    decay_mult: 0
  }
  convolution_param {
    num_output: 128
    pad: 1
    kernel_size: 3
    stride: 1
  }
}
layer {
  name: "relu2_2"
  type: "ReLU"
  bottom: "conv2_2"
  top: "conv2_2"
}
layer {
  name: "pool2"
  type: "Pooling"
  bottom: "conv2_2"
  top: "pool2"
  pooling_param {
    pool: MAX
    kernel_size: 2
    stride: 2
  }
}
layer {
  name: "conv3_1"
  type: "Convolution"
  bottom: "pool2"
  top: "conv3_1"
  param {
    lr_mult: 1
    decay_mult: 1
  }
  param {
    lr_mult: 2
    decay_mult: 0
  }
  convolution_param {
    num_output: 256
    pad: 1
    kernel_size: 3
    stride: 1
  }
}
layer {
  name: "relu3_1"
  type: "ReLU"
  bottom: "conv3_1"
  top: "conv3_1"
}
layer {
  name: "conv3_2"
  type: "Convolution"
  bottom: "conv3_1"
  top: "conv3_2"
  param {
    lr_mult: 1
    decay_mult: 1
  }
  param {
    lr_mult: 2
    decay_mult: 0
  }
  convolution_param {
    num_output: 256
    pad: 1
    kernel_size: 3
    stride: 1
  }
}
layer {
  name: "relu3_2"
  type: "ReLU"
  bottom: "conv3_2"
  top: "conv3_2"
}
layer {
  name: "conv3_3"
  type: "Convolution"
  bottom: "conv3_2"
  top: "conv3_3"
  param {
    lr_mult: 1
    decay_mult: 1
  }
  param {
    lr_mult: 2
    decay_mult: 0
  }
  convolution_param {
    num_output: 256
    pad: 1
    kernel_size: 3
    stride: 1
  }
}
layer {
  name: "relu3_3"
  type: "ReLU"
  bottom: "conv3_3"
  top: "conv3_3"
}
layer {
  name: "pool3"
  type: "Pooling"
  bottom: "conv3_3"
  top: "pool3"
  pooling_param {
    pool: MAX
    kernel_size: 2
    stride: 2
  }
}
layer {
  name: "conv4_1"
  type: "Convolution"
  bottom: "pool3"
  top: "conv4_1"
  param {
    lr_mult: 1
    decay_mult: 1
  }
  param {
    lr_mult: 2
    decay_mult: 0
  }
  convolution_param {
    num_output: 512
    pad: 1
    kernel_size: 3
    stride: 1
  }
}
layer {
  name: "relu4_1"
  type: "ReLU"
  bottom: "conv4_1"
  top: "conv4_1"
}
layer {
  name: "conv4_2"
  type: "Convolution"
  bottom: "conv4_1"
  top: "conv4_2"
  param {
    lr_mult: 1
    decay_mult: 1
  }
  param {
    lr_mult: 2
    decay_mult: 0
  }
  convolution_param {
    num_output: 512
    pad: 1
    kernel_size: 3
    stride: 1
  }
}
layer {
  name: "relu4_2"
  type: "ReLU"
  bottom: "conv4_2"
  top: "conv4_2"
}
layer {
  name: "conv4_3"
  type: "Convolution"
  bottom: "conv4_2"
  top: "conv4_3"
  param {
    lr_mult: 1
    decay_mult: 1
  }
  param {
    lr_mult: 2
    decay_mult: 0
  }
  convolution_param {
    num_output: 512
    pad: 1
    kernel_size: 3
    stride: 1
  }
}
layer {
  name: "relu4_3"
  type: "ReLU"
  bottom: "conv4_3"
  top: "conv4_3"
}
layer {
  name: "pool4"
  type: "Pooling"
  bottom: "conv4_3"
  top: "pool4"
  pooling_param {
    pool: MAX
    kernel_size: 2
    stride: 2
  }
}
layer {
  name: "conv5_1"
  type: "Convolution"
  bottom: "pool4"
  top: "conv5_1"
  param {
    lr_mult: 1
    decay_mult: 1
  }
  param {
    lr_mult: 2
    decay_mult: 0
  }
  convolution_param {
    num_output: 512
    pad: 1
    kernel_size: 3
    stride: 1
  }
}
layer {
  name: "relu5_1"
  type: "ReLU"
  bottom: "conv5_1"
  top: "conv5_1"
}
layer {
  name: "conv5_2"
  type: "Convolution"
  bottom: "conv5_1"
  top: "conv5_2"
  param {
    lr_mult: 1
    decay_mult: 1
  }
  param {
    lr_mult: 2
    decay_mult: 0
  }
  convolution_param {
    num_output: 512
    pad: 1
    kernel_size: 3
    stride: 1
  }
}
layer {
  name: "relu5_2"
  type: "ReLU"
  bottom: "conv5_2"
  top: "conv5_2"
}
layer {
  name: "conv5_3"
  type: "Convolution"
  bottom: "conv5_2"
  top: "conv5_3"
  param {
    lr_mult: 1
    decay_mult: 1
  }
  param {
    lr_mult: 2
    decay_mult: 0
  }
  convolution_param {
    num_output: 512
    pad: 1
    kernel_size: 3
    stride: 1
  }
}
layer {
  name: "relu5_3"
  type: "ReLU"
  bottom: "conv5_3"
  top: "conv5_3"
}
layer {
  name: "pool5"
  type: "Pooling"
  bottom: "conv5_3"
  top: "pool5"
  pooling_param {
    pool: MAX
    kernel_size: 2
    stride: 2
  }
}
layer {
  name: "fc6"
  type: "Convolution"
  bottom: "pool5"
  top: "fc6"
  param {
    lr_mult: 1
    decay_mult: 1
  }
  param {
    lr_mult: 2
    decay_mult: 0
  }
  convolution_param {
    num_output: 4096
    pad: 0
    kernel_size: 7
    stride: 1
  }
}
layer {
  name: "relu6"
  type: "ReLU"
  bottom: "fc6"
  top: "fc6"
}
layer {
  name: "drop6"
  type: "Dropout"
  bottom: "fc6"
  top: "fc6"
  dropout_param {
    dropout_ratio: 0.5
  }
}
layer {
  name: "fc7"
  type: "Convolution"
  bottom: "fc6"
  top: "fc7"
  param {
    lr_mult: 1
    decay_mult: 1
  }
  param {
    lr_mult: 2
    decay_mult: 0
  }
  convolution_param {
    num_output: 4096
    pad: 0
    kernel_size: 1
    stride: 1
  }
}
layer {
  name: "relu7"
  type: "ReLU"
  bottom: "fc7"
  top: "fc7"
}
layer {
  name: "drop7"
  type: "Dropout"
  bottom: "fc7"
  top: "fc7"
  dropout_param {
    dropout_ratio: 0.5
  }
}
layer {
  name: "score_fr-new"
  type: "Convolution"
  bottom: "fc7"
  top: "score_fr-new"
  param {
    lr_mult: 1
    decay_mult: 1
  }
  param {
    lr_mult: 2
    decay_mult: 0
  }
  convolution_param {
    num_output: 3
    kernel_size: 1
  }
}
layer {
  name: "upscore2-new"
  type: "Deconvolution"
  bottom: "score_fr-new"
  top: "upscore2-new"
  param {
    lr_mult: 0
  }
  convolution_param {
    num_output: 3
    bias_term: false
    kernel_size: 4
    stride: 2
  }
}
layer {
  name: "score_pool4-new"
  type: "Convolution"
  bottom: "pool4"
  top: "score_pool4-new"
  param {
    lr_mult: 1
    decay_mult: 1
  }
  param {
    lr_mult: 2
    decay_mult: 0
  }
  convolution_param {
    num_output: 3
    pad: 0
    kernel_size: 1
  }
}
layer {
  name: "score_pool4c"
  type: "Crop"
  bottom: "score_pool4-new"
  bottom: "upscore2-new"
  top: "score_pool4c"
  crop_param {
    axis: 2
    offset: 5
  }
}
layer {
  name: "fuse_pool4"
  type: "Eltwise"
  bottom: "upscore2-new"
  bottom: "score_pool4c"
  top: "fuse_pool4"
  eltwise_param {
    operation: SUM
  }
}
layer {
  name: "upscore_pool4-new"
  type: "Deconvolution"
  bottom: "fuse_pool4"
  top: "upscore_pool4-new"
  param {
    lr_mult: 0
  }
  convolution_param {
    num_output: 3
    bias_term: false
    kernel_size: 4
    stride: 2
  }
}
layer {
  name: "score_pool3-new"
  type: "Convolution"
  bottom: "pool3"
  top: "score_pool3-new"
  param {
    lr_mult: 1
    decay_mult: 1
  }
  param {
    lr_mult: 2
    decay_mult: 0
  }
  convolution_param {
    num_output: 3
    pad: 0
    kernel_size: 1
  }
}
layer {
  name: "score_pool3c"
  type: "Crop"
  bottom: "score_pool3-new"
  bottom: "upscore_pool4-new"
  top: "score_pool3c"
  crop_param {
    axis: 2
    offset: 9
  }
}
layer {
  name: "fuse_pool3"
  type: "Eltwise"
  bottom: "upscore_pool4-new"
  bottom: "score_pool3c"
  top: "fuse_pool3"
  eltwise_param {
    operation: SUM
  }
}
layer {
  name: "upscore8-new"
  type: "Deconvolution"
  bottom: "fuse_pool3"
  top: "upscore8-new"
  param {
    lr_mult: 0
  }
  convolution_param {
    num_output: 3
    bias_term: false
    kernel_size: 16
    stride: 8
  }
}
layer {
  name: "upscore8_cropped"
  type: "Crop"
  bottom: "upscore8-new"
  bottom: "data"
  top: "upscore8_cropped"
  crop_param {
    axis: 2
    offset: 31
  }
}
layer {
  name: "prob"
  type: "Sigmoid"
  bottom: "upscore8_cropped"
  top: "prob"
}
layer {
  name: "saliency1"
  type: "Convolution"
  bottom: "prob"
  top: "saliency1"
  param {
    lr_mult: 10
    decay_mult: 1
  }
  param {
    lr_mult: 20
    decay_mult: 0
  }
  convolution_param {
    num_output: 3
    pad: 1
    kernel_size: 3
    stride: 1
    weight_filler {
      type: "xavier"
    }
    bias_filler {
      type: "constant"
      value: 1
    }
  }
}
layer {
  name: "relu_saliency1"
  type: "ReLU"
  bottom: "saliency1"
  top: "saliency1"
}
layer {
  name: "saliency"
  type: "Convolution"
  bottom: "saliency1"
  top: "saliency"
  param {
    lr_mult: 10
    decay_mult: 1
  }
  param {
    lr_mult: 20
    decay_mult: 0
  }
  convolution_param {
    num_output: 3
    pad: 2
    kernel_size: 5
    stride: 1
    weight_filler {
      type: "xavier"
    }
    bias_filler {
      type: "constant"
      value: 1
    }
  }
}
layer {
  name: "saliency_data"
  type: "Eltwise"
  bottom: "data"
  bottom: "saliency"
  top: "saliency_data"
  eltwise_param {
    operation: PROD
  }
}
layer {
  name: "crop"
  type: "Python"
  bottom: "prob"
  bottom: "saliency_data"
  bottom: "crop_margin"
  bottom: "crop_prob"
  bottom: "crop_sample_batch"
  bottom: "label"
  top: "data-R"
  top: "crop_info"
  python_param {
    module: "Crop"
    layer: "CropLayer"
    param_str: "{\"TEST\": 0}"
  }
}
layer {
  name: "conv1_1-R"
  type: "Convolution"
  bottom: "data-R"
  top: "conv1_1-R"
  param {
    lr_mult: 10
    decay_mult: 1
  }
  param {
    lr_mult: 20
    decay_mult: 0
  }
  convolution_param {
    num_output: 64
    pad: 100
    kernel_size: 3
    stride: 1
  }
}
layer {
  name: "relu1_1-R"
  type: "ReLU"
  bottom: "conv1_1-R"
  top: "conv1_1-R"
}
layer {
  name: "conv1_2-R"
  type: "Convolution"
  bottom: "conv1_1-R"
  top: "conv1_2-R"
  param {
    lr_mult: 10
    decay_mult: 1
  }
  param {
    lr_mult: 20
    decay_mult: 0
  }
  convolution_param {
    num_output: 64
    pad: 1
    kernel_size: 3
    stride: 1
  }
}
layer {
  name: "relu1_2-R"
  type: "ReLU"
  bottom: "conv1_2-R"
  top: "conv1_2-R"
}
layer {
  name: "pool1-R"
  type: "Pooling"
  bottom: "conv1_2-R"
  top: "pool1-R"
  pooling_param {
    pool: MAX
    kernel_size: 2
    stride: 2
  }
}
layer {
  name: "conv2_1-R"
  type: "Convolution"
  bottom: "pool1-R"
  top: "conv2_1-R"
  param {
    lr_mult: 10
    decay_mult: 1
  }
  param {
    lr_mult: 20
    decay_mult: 0
  }
  convolution_param {
    num_output: 128
    pad: 1
    kernel_size: 3
    stride: 1
  }
}
layer {
  name: "relu2_1-R"
  type: "ReLU"
  bottom: "conv2_1-R"
  top: "conv2_1-R"
}
layer {
  name: "conv2_2-R"
  type: "Convolution"
  bottom: "conv2_1-R"
  top: "conv2_2-R"
  param {
    lr_mult: 10
    decay_mult: 1
  }
  param {
    lr_mult: 20
    decay_mult: 0
  }
  convolution_param {
    num_output: 128
    pad: 1
    kernel_size: 3
    stride: 1
  }
}
layer {
  name: "relu2_2-R"
  type: "ReLU"
  bottom: "conv2_2-R"
  top: "conv2_2-R"
}
layer {
  name: "pool2-R"
  type: "Pooling"
  bottom: "conv2_2-R"
  top: "pool2-R"
  pooling_param {
    pool: MAX
    kernel_size: 2
    stride: 2
  }
}
layer {
  name: "conv3_1-R"
  type: "Convolution"
  bottom: "pool2-R"
  top: "conv3_1-R"
  param {
    lr_mult: 10
    decay_mult: 1
  }
  param {
    lr_mult: 20
    decay_mult: 0
  }
  convolution_param {
    num_output: 256
    pad: 1
    kernel_size: 3
    stride: 1
  }
}
layer {
  name: "relu3_1-R"
  type: "ReLU"
  bottom: "conv3_1-R"
  top: "conv3_1-R"
}
layer {
  name: "conv3_2-R"
  type: "Convolution"
  bottom: "conv3_1-R"
  top: "conv3_2-R"
  param {
    lr_mult: 10
    decay_mult: 1
  }
  param {
    lr_mult: 20
    decay_mult: 0
  }
  convolution_param {
    num_output: 256
    pad: 1
    kernel_size: 3
    stride: 1
  }
}
layer {
  name: "relu3_2-R"
  type: "ReLU"
  bottom: "conv3_2-R"
  top: "conv3_2-R"
}
layer {
  name: "conv3_3-R"
  type: "Convolution"
  bottom: "conv3_2-R"
  top: "conv3_3-R"
  param {
    lr_mult: 10
    decay_mult: 1
  }
  param {
    lr_mult: 20
    decay_mult: 0
  }
  convolution_param {
    num_output: 256
    pad: 1
    kernel_size: 3
    stride: 1
  }
}
layer {
  name: "relu3_3-R"
  type: "ReLU"
  bottom: "conv3_3-R"
  top: "conv3_3-R"
}
layer {
  name: "pool3-R"
  type: "Pooling"
  bottom: "conv3_3-R"
  top: "pool3-R"
  pooling_param {
    pool: MAX
    kernel_size: 2
    stride: 2
  }
}
layer {
  name: "conv4_1-R"
  type: "Convolution"
  bottom: "pool3-R"
  top: "conv4_1-R"
  param {
    lr_mult: 10
    decay_mult: 1
  }
  param {
    lr_mult: 20
    decay_mult: 0
  }
  convolution_param {
    num_output: 512
    pad: 1
    kernel_size: 3
    stride: 1
  }
}
layer {
  name: "relu4_1-R"
  type: "ReLU"
  bottom: "conv4_1-R"
  top: "conv4_1-R"
}
layer {
  name: "conv4_2-R"
  type: "Convolution"
  bottom: "conv4_1-R"
  top: "conv4_2-R"
  param {
    lr_mult: 10
    decay_mult: 1
  }
  param {
    lr_mult: 20
    decay_mult: 0
  }
  convolution_param {
    num_output: 512
    pad: 1
    kernel_size: 3
    stride: 1
  }
}
layer {
  name: "relu4_2-R"
  type: "ReLU"
  bottom: "conv4_2-R"
  top: "conv4_2-R"
}
layer {
  name: "conv4_3-R"
  type: "Convolution"
  bottom: "conv4_2-R"
  top: "conv4_3-R"
  param {
    lr_mult: 10
    decay_mult: 1
  }
  param {
    lr_mult: 20
    decay_mult: 0
  }
  convolution_param {
    num_output: 512
    pad: 1
    kernel_size: 3
    stride: 1
  }
}
layer {
  name: "relu4_3-R"
  type: "ReLU"
  bottom: "conv4_3-R"
  top: "conv4_3-R"
}
layer {
  name: "pool4-R"
  type: "Pooling"
  bottom: "conv4_3-R"
  top: "pool4-R"
  pooling_param {
    pool: MAX
    kernel_size: 2
    stride: 2
  }
}
layer {
  name: "conv5_1-R"
  type: "Convolution"
  bottom: "pool4-R"
  top: "conv5_1-R"
  param {
    lr_mult: 10
    decay_mult: 1
  }
  param {
    lr_mult: 20
    decay_mult: 0
  }
  convolution_param {
    num_output: 512
    pad: 1
    kernel_size: 3
    stride: 1
  }
}
layer {
  name: "relu5_1-R"
  type: "ReLU"
  bottom: "conv5_1-R"
  top: "conv5_1-R"
}
layer {
  name: "conv5_2-R"
  type: "Convolution"
  bottom: "conv5_1-R"
  top: "conv5_2-R"
  param {
    lr_mult: 10
    decay_mult: 1
  }
  param {
    lr_mult: 20
    decay_mult: 0
  }
  convolution_param {
    num_output: 512
    pad: 1
    kernel_size: 3
    stride: 1
  }
}
layer {
  name: "relu5_2-R"
  type: "ReLU"
  bottom: "conv5_2-R"
  top: "conv5_2-R"
}
layer {
  name: "conv5_3-R"
  type: "Convolution"
  bottom: "conv5_2-R"
  top: "conv5_3-R"
  param {
    lr_mult: 10
    decay_mult: 1
  }
  param {
    lr_mult: 20
    decay_mult: 0
  }
  convolution_param {
    num_output: 512
    pad: 1
    kernel_size: 3
    stride: 1
  }
}
layer {
  name: "relu5_3-R"
  type: "ReLU"
  bottom: "conv5_3-R"
  top: "conv5_3-R"
}
layer {
  name: "pool5-R"
  type: "Pooling"
  bottom: "conv5_3-R"
  top: "pool5-R"
  pooling_param {
    pool: MAX
    kernel_size: 2
    stride: 2
  }
}
layer {
  name: "fc6-R"
  type: "Convolution"
  bottom: "pool5-R"
  top: "fc6-R"
  param {
    lr_mult: 10
    decay_mult: 1
  }
  param {
    lr_mult: 20
    decay_mult: 0
  }
  convolution_param {
    num_output: 4096
    pad: 0
    kernel_size: 7
    stride: 1
  }
}
layer {
  name: "relu6-R"
  type: "ReLU"
  bottom: "fc6-R"
  top: "fc6-R"
}
layer {
  name: "drop6-R"
  type: "Dropout"
  bottom: "fc6-R"
  top: "fc6-R"
  dropout_param {
    dropout_ratio: 0.5
  }
}
layer {
  name: "fc7-R"
  type: "Convolution"
  bottom: "fc6-R"
  top: "fc7-R"
  param {
    lr_mult: 10
    decay_mult: 1
  }
  param {
    lr_mult: 20
    decay_mult: 0
  }
  convolution_param {
    num_output: 4096
    pad: 0
    kernel_size: 1
    stride: 1
  }
}
layer {
  name: "relu7-R"
  type: "ReLU"
  bottom: "fc7-R"
  top: "fc7-R"
}
layer {
  name: "drop7-R"
  type: "Dropout"
  bottom: "fc7-R"
  top: "fc7-R"
  dropout_param {
    dropout_ratio: 0.5
  }
}
layer {
  name: "score_fr-new-R"
  type: "Convolution"
  bottom: "fc7-R"
  top: "score_fr-new-R"
  param {
    lr_mult: 10
    decay_mult: 1
  }
  param {
    lr_mult: 20
    decay_mult: 0
  }
  convolution_param {
    num_output: 3
    kernel_size: 1
  }
}
layer {
  name: "upscore2-new-R"
  type: "Deconvolution"
  bottom: "score_fr-new-R"
  top: "upscore2-new-R"
  param {
    lr_mult: 0
  }
  convolution_param {
    num_output: 3
    bias_term: false
    kernel_size: 4
    stride: 2
  }
}
layer {
  name: "score_pool4-new-R"
  type: "Convolution"
  bottom: "pool4-R"
  top: "score_pool4-new-R"
  param {
    lr_mult: 10
    decay_mult: 1
  }
  param {
    lr_mult: 20
    decay_mult: 0
  }
  convolution_param {
    num_output: 3
    pad: 0
    kernel_size: 1
  }
}
layer {
  name: "score_pool4c-R"
  type: "Crop"
  bottom: "score_pool4-new-R"
  bottom: "upscore2-new-R"
  top: "score_pool4c-R"
  crop_param {
    axis: 2
    offset: 5
  }
}
layer {
  name: "fuse_pool4-R"
  type: "Eltwise"
  bottom: "upscore2-new-R"
  bottom: "score_pool4c-R"
  top: "fuse_pool4-R"
  eltwise_param {
    operation: SUM
  }
}
layer {
  name: "upscore_pool4-new-R"
  type: "Deconvolution"
  bottom: "fuse_pool4-R"
  top: "upscore_pool4-new-R"
  param {
    lr_mult: 0
  }
  convolution_param {
    num_output: 3
    bias_term: false
    kernel_size: 4
    stride: 2
  }
}
layer {
  name: "score_pool3-new-R"
  type: "Convolution"
  bottom: "pool3-R"
  top: "score_pool3-new-R"
  param {
    lr_mult: 10
    decay_mult: 1
  }
  param {
    lr_mult: 20
    decay_mult: 0
  }
  convolution_param {
    num_output: 3
    pad: 0
    kernel_size: 1
  }
}
layer {
  name: "score_pool3c-R"
  type: "Crop"
  bottom: "score_pool3-new-R"
  bottom: "upscore_pool4-new-R"
  top: "score_pool3c-R"
  crop_param {
    axis: 2
    offset: 9
  }
}
layer {
  name: "fuse_pool3-R"
  type: "Eltwise"
  bottom: "upscore_pool4-new-R"
  bottom: "score_pool3c-R"
  top: "fuse_pool3-R"
  eltwise_param {
    operation: SUM
  }
}
layer {
  name: "upscore8-new-R"
  type: "Deconvolution"
  bottom: "fuse_pool3-R"
  top: "upscore8-new-R"
  param {
    lr_mult: 0
  }
  convolution_param {
    num_output: 3
    bias_term: false
    kernel_size: 16
    stride: 8
  }
}
layer {
  name: "upscore8_cropped-R"
  type: "Crop"
  bottom: "upscore8-new-R"
  bottom: "data-R"
  top: "upscore8_cropped-R"
  crop_param {
    axis: 2
    offset: 31
  }
}
layer {
  name: "upscore8_uncropped-R"
  type: "Python"
  bottom: "crop_info"
  bottom: "upscore8_cropped-R"
  bottom: "data"
  top: "upscore8_uncropped-R"
  python_param {
    module: "Uncrop"
    layer: "UncropLayer"
  }
}
layer {
  name: "loss1"
  type: "DiceLoss"
  bottom: "upscore8_cropped"
  bottom: "label"
  top: "loss1"
  loss_weight: 0.333333
}
layer {
  name: "loss2"
  type: "DiceLoss"
  bottom: "upscore8_uncropped-R"
  bottom: "label"
  top: "loss2"
  loss_weight: 0.666667
}
I0715 20:35:13.091563 14456 layer_factory.hpp:77] Creating layer data
I0715 20:35:13.091979 14456 net.cpp:84] Creating Layer data
I0715 20:35:13.091995 14456 net.cpp:380] data -> data
I0715 20:35:13.092011 14456 net.cpp:380] data -> label
I0715 20:35:13.092020 14456 net.cpp:380] data -> crop_margin
I0715 20:35:13.092026 14456 net.cpp:380] data -> crop_prob
I0715 20:35:13.092033 14456 net.cpp:380] data -> crop_sample_batch
I0715 20:35:13.289974 14456 net.cpp:122] Setting up data
I0715 20:35:13.290056 14456 net.cpp:129] Top shape: 1 3 512 211 (324096)
I0715 20:35:13.290064 14456 net.cpp:129] Top shape: 1 3 512 211 (324096)
I0715 20:35:13.290069 14456 net.cpp:129] Top shape: 1 (1)
I0715 20:35:13.290074 14456 net.cpp:129] Top shape: 1 (1)
I0715 20:35:13.290079 14456 net.cpp:129] Top shape: 1 (1)
I0715 20:35:13.290083 14456 net.cpp:137] Memory required for data: 2592780
I0715 20:35:13.290096 14456 layer_factory.hpp:77] Creating layer data_data_0_split
I0715 20:35:13.290138 14456 net.cpp:84] Creating Layer data_data_0_split
I0715 20:35:13.290144 14456 net.cpp:406] data_data_0_split <- data
I0715 20:35:13.290160 14456 net.cpp:380] data_data_0_split -> data_data_0_split_0
I0715 20:35:13.290182 14456 net.cpp:380] data_data_0_split -> data_data_0_split_1
I0715 20:35:13.290189 14456 net.cpp:380] data_data_0_split -> data_data_0_split_2
I0715 20:35:13.290196 14456 net.cpp:380] data_data_0_split -> data_data_0_split_3
I0715 20:35:13.290256 14456 net.cpp:122] Setting up data_data_0_split
I0715 20:35:13.290269 14456 net.cpp:129] Top shape: 1 3 512 211 (324096)
I0715 20:35:13.290275 14456 net.cpp:129] Top shape: 1 3 512 211 (324096)
I0715 20:35:13.290279 14456 net.cpp:129] Top shape: 1 3 512 211 (324096)
I0715 20:35:13.290284 14456 net.cpp:129] Top shape: 1 3 512 211 (324096)
I0715 20:35:13.290288 14456 net.cpp:137] Memory required for data: 7778316
I0715 20:35:13.290292 14456 layer_factory.hpp:77] Creating layer label_data_1_split
I0715 20:35:13.290299 14456 net.cpp:84] Creating Layer label_data_1_split
I0715 20:35:13.290303 14456 net.cpp:406] label_data_1_split <- label
I0715 20:35:13.290310 14456 net.cpp:380] label_data_1_split -> label_data_1_split_0
I0715 20:35:13.290316 14456 net.cpp:380] label_data_1_split -> label_data_1_split_1
I0715 20:35:13.290323 14456 net.cpp:380] label_data_1_split -> label_data_1_split_2
I0715 20:35:13.290364 14456 net.cpp:122] Setting up label_data_1_split
I0715 20:35:13.290370 14456 net.cpp:129] Top shape: 1 3 512 211 (324096)
I0715 20:35:13.290375 14456 net.cpp:129] Top shape: 1 3 512 211 (324096)
I0715 20:35:13.290380 14456 net.cpp:129] Top shape: 1 3 512 211 (324096)
I0715 20:35:13.290385 14456 net.cpp:137] Memory required for data: 11667468
I0715 20:35:13.290388 14456 layer_factory.hpp:77] Creating layer conv1_1
I0715 20:35:13.290423 14456 net.cpp:84] Creating Layer conv1_1
I0715 20:35:13.290428 14456 net.cpp:406] conv1_1 <- data_data_0_split_0
I0715 20:35:13.290434 14456 net.cpp:380] conv1_1 -> conv1_1
I0715 20:35:13.664281 14456 net.cpp:122] Setting up conv1_1
I0715 20:35:13.664340 14456 net.cpp:129] Top shape: 1 64 710 409 (18584960)
I0715 20:35:13.664346 14456 net.cpp:137] Memory required for data: 86007308
I0715 20:35:13.664388 14456 layer_factory.hpp:77] Creating layer relu1_1
I0715 20:35:13.664418 14456 net.cpp:84] Creating Layer relu1_1
I0715 20:35:13.664423 14456 net.cpp:406] relu1_1 <- conv1_1
I0715 20:35:13.664432 14456 net.cpp:367] relu1_1 -> conv1_1 (in-place)
I0715 20:35:13.664611 14456 net.cpp:122] Setting up relu1_1
I0715 20:35:13.664623 14456 net.cpp:129] Top shape: 1 64 710 409 (18584960)
I0715 20:35:13.664626 14456 net.cpp:137] Memory required for data: 160347148
I0715 20:35:13.664629 14456 layer_factory.hpp:77] Creating layer conv1_2
I0715 20:35:13.664640 14456 net.cpp:84] Creating Layer conv1_2
I0715 20:35:13.664644 14456 net.cpp:406] conv1_2 <- conv1_1
I0715 20:35:13.664650 14456 net.cpp:380] conv1_2 -> conv1_2
I0715 20:35:13.669634 14456 net.cpp:122] Setting up conv1_2
I0715 20:35:13.669651 14456 net.cpp:129] Top shape: 1 64 710 409 (18584960)
I0715 20:35:13.669669 14456 net.cpp:137] Memory required for data: 234686988
I0715 20:35:13.669680 14456 layer_factory.hpp:77] Creating layer relu1_2
I0715 20:35:13.669689 14456 net.cpp:84] Creating Layer relu1_2
I0715 20:35:13.669693 14456 net.cpp:406] relu1_2 <- conv1_2
I0715 20:35:13.669698 14456 net.cpp:367] relu1_2 -> conv1_2 (in-place)
I0715 20:35:13.669870 14456 net.cpp:122] Setting up relu1_2
I0715 20:35:13.669881 14456 net.cpp:129] Top shape: 1 64 710 409 (18584960)
I0715 20:35:13.669884 14456 net.cpp:137] Memory required for data: 309026828
I0715 20:35:13.669888 14456 layer_factory.hpp:77] Creating layer pool1
I0715 20:35:13.669898 14456 net.cpp:84] Creating Layer pool1
I0715 20:35:13.669901 14456 net.cpp:406] pool1 <- conv1_2
I0715 20:35:13.669908 14456 net.cpp:380] pool1 -> pool1
I0715 20:35:13.669963 14456 net.cpp:122] Setting up pool1
I0715 20:35:13.669975 14456 net.cpp:129] Top shape: 1 64 355 205 (4657600)
I0715 20:35:13.669978 14456 net.cpp:137] Memory required for data: 327657228
I0715 20:35:13.669983 14456 layer_factory.hpp:77] Creating layer conv2_1
I0715 20:35:13.669993 14456 net.cpp:84] Creating Layer conv2_1
I0715 20:35:13.669996 14456 net.cpp:406] conv2_1 <- pool1
I0715 20:35:13.670003 14456 net.cpp:380] conv2_1 -> conv2_1
I0715 20:35:13.674007 14456 net.cpp:122] Setting up conv2_1
I0715 20:35:13.674043 14456 net.cpp:129] Top shape: 1 128 355 205 (9315200)
I0715 20:35:13.674059 14456 net.cpp:137] Memory required for data: 364918028
I0715 20:35:13.674080 14456 layer_factory.hpp:77] Creating layer relu2_1
I0715 20:35:13.674095 14456 net.cpp:84] Creating Layer relu2_1
I0715 20:35:13.674101 14456 net.cpp:406] relu2_1 <- conv2_1
I0715 20:35:13.674110 14456 net.cpp:367] relu2_1 -> conv2_1 (in-place)
I0715 20:35:13.674338 14456 net.cpp:122] Setting up relu2_1
I0715 20:35:13.674361 14456 net.cpp:129] Top shape: 1 128 355 205 (9315200)
I0715 20:35:13.674366 14456 net.cpp:137] Memory required for data: 402178828
I0715 20:35:13.674373 14456 layer_factory.hpp:77] Creating layer conv2_2
I0715 20:35:13.674407 14456 net.cpp:84] Creating Layer conv2_2
I0715 20:35:13.674412 14456 net.cpp:406] conv2_2 <- conv2_1
I0715 20:35:13.674420 14456 net.cpp:380] conv2_2 -> conv2_2
I0715 20:35:13.677400 14456 net.cpp:122] Setting up conv2_2
I0715 20:35:13.677434 14456 net.cpp:129] Top shape: 1 128 355 205 (9315200)
I0715 20:35:13.677443 14456 net.cpp:137] Memory required for data: 439439628
I0715 20:35:13.677459 14456 layer_factory.hpp:77] Creating layer relu2_2
I0715 20:35:13.677506 14456 net.cpp:84] Creating Layer relu2_2
I0715 20:35:13.677516 14456 net.cpp:406] relu2_2 <- conv2_2
I0715 20:35:13.677528 14456 net.cpp:367] relu2_2 -> conv2_2 (in-place)
I0715 20:35:13.677901 14456 net.cpp:122] Setting up relu2_2
I0715 20:35:13.677919 14456 net.cpp:129] Top shape: 1 128 355 205 (9315200)
I0715 20:35:13.677927 14456 net.cpp:137] Memory required for data: 476700428
I0715 20:35:13.677944 14456 layer_factory.hpp:77] Creating layer pool2
I0715 20:35:13.677973 14456 net.cpp:84] Creating Layer pool2
I0715 20:35:13.677991 14456 net.cpp:406] pool2 <- conv2_2
I0715 20:35:13.678004 14456 net.cpp:380] pool2 -> pool2
I0715 20:35:13.678094 14456 net.cpp:122] Setting up pool2
I0715 20:35:13.678108 14456 net.cpp:129] Top shape: 1 128 178 103 (2346752)
I0715 20:35:13.678115 14456 net.cpp:137] Memory required for data: 486087436
I0715 20:35:13.678122 14456 layer_factory.hpp:77] Creating layer conv3_1
I0715 20:35:13.678138 14456 net.cpp:84] Creating Layer conv3_1
I0715 20:35:13.678148 14456 net.cpp:406] conv3_1 <- pool2
I0715 20:35:13.678159 14456 net.cpp:380] conv3_1 -> conv3_1
I0715 20:35:13.683964 14456 net.cpp:122] Setting up conv3_1
I0715 20:35:13.683996 14456 net.cpp:129] Top shape: 1 256 178 103 (4693504)
I0715 20:35:13.684001 14456 net.cpp:137] Memory required for data: 504861452
I0715 20:35:13.684015 14456 layer_factory.hpp:77] Creating layer relu3_1
I0715 20:35:13.684021 14456 net.cpp:84] Creating Layer relu3_1
I0715 20:35:13.684037 14456 net.cpp:406] relu3_1 <- conv3_1
I0715 20:35:13.684046 14456 net.cpp:367] relu3_1 -> conv3_1 (in-place)
I0715 20:35:13.684787 14456 net.cpp:122] Setting up relu3_1
I0715 20:35:13.684803 14456 net.cpp:129] Top shape: 1 256 178 103 (4693504)
I0715 20:35:13.684818 14456 net.cpp:137] Memory required for data: 523635468
I0715 20:35:13.684823 14456 layer_factory.hpp:77] Creating layer conv3_2
I0715 20:35:13.684844 14456 net.cpp:84] Creating Layer conv3_2
I0715 20:35:13.684849 14456 net.cpp:406] conv3_2 <- conv3_1
I0715 20:35:13.684866 14456 net.cpp:380] conv3_2 -> conv3_2
I0715 20:35:13.691463 14456 net.cpp:122] Setting up conv3_2
I0715 20:35:13.691506 14456 net.cpp:129] Top shape: 1 256 178 103 (4693504)
I0715 20:35:13.691510 14456 net.cpp:137] Memory required for data: 542409484
I0715 20:35:13.691522 14456 layer_factory.hpp:77] Creating layer relu3_2
I0715 20:35:13.691537 14456 net.cpp:84] Creating Layer relu3_2
I0715 20:35:13.691542 14456 net.cpp:406] relu3_2 <- conv3_2
I0715 20:35:13.691563 14456 net.cpp:367] relu3_2 -> conv3_2 (in-place)
I0715 20:35:13.692170 14456 net.cpp:122] Setting up relu3_2
I0715 20:35:13.692184 14456 net.cpp:129] Top shape: 1 256 178 103 (4693504)
I0715 20:35:13.692203 14456 net.cpp:137] Memory required for data: 561183500
I0715 20:35:13.692207 14456 layer_factory.hpp:77] Creating layer conv3_3
I0715 20:35:13.692219 14456 net.cpp:84] Creating Layer conv3_3
I0715 20:35:13.692222 14456 net.cpp:406] conv3_3 <- conv3_2
I0715 20:35:13.692230 14456 net.cpp:380] conv3_3 -> conv3_3
I0715 20:35:13.695706 14456 net.cpp:122] Setting up conv3_3
I0715 20:35:13.695747 14456 net.cpp:129] Top shape: 1 256 178 103 (4693504)
I0715 20:35:13.695755 14456 net.cpp:137] Memory required for data: 579957516
I0715 20:35:13.695773 14456 layer_factory.hpp:77] Creating layer relu3_3
I0715 20:35:13.695791 14456 net.cpp:84] Creating Layer relu3_3
I0715 20:35:13.695798 14456 net.cpp:406] relu3_3 <- conv3_3
I0715 20:35:13.695811 14456 net.cpp:367] relu3_3 -> conv3_3 (in-place)
I0715 20:35:13.696203 14456 net.cpp:122] Setting up relu3_3
I0715 20:35:13.696221 14456 net.cpp:129] Top shape: 1 256 178 103 (4693504)
I0715 20:35:13.696239 14456 net.cpp:137] Memory required for data: 598731532
I0715 20:35:13.696246 14456 layer_factory.hpp:77] Creating layer pool3
I0715 20:35:13.696262 14456 net.cpp:84] Creating Layer pool3
I0715 20:35:13.696269 14456 net.cpp:406] pool3 <- conv3_3
I0715 20:35:13.696285 14456 net.cpp:380] pool3 -> pool3
I0715 20:35:13.696372 14456 net.cpp:122] Setting up pool3
I0715 20:35:13.696386 14456 net.cpp:129] Top shape: 1 256 89 52 (1184768)
I0715 20:35:13.696393 14456 net.cpp:137] Memory required for data: 603470604
I0715 20:35:13.696403 14456 layer_factory.hpp:77] Creating layer pool3_pool3_0_split
I0715 20:35:13.696420 14456 net.cpp:84] Creating Layer pool3_pool3_0_split
I0715 20:35:13.696427 14456 net.cpp:406] pool3_pool3_0_split <- pool3
I0715 20:35:13.696442 14456 net.cpp:380] pool3_pool3_0_split -> pool3_pool3_0_split_0
I0715 20:35:13.696455 14456 net.cpp:380] pool3_pool3_0_split -> pool3_pool3_0_split_1
I0715 20:35:13.696523 14456 net.cpp:122] Setting up pool3_pool3_0_split
I0715 20:35:13.696537 14456 net.cpp:129] Top shape: 1 256 89 52 (1184768)
I0715 20:35:13.696547 14456 net.cpp:129] Top shape: 1 256 89 52 (1184768)
I0715 20:35:13.696552 14456 net.cpp:137] Memory required for data: 612948748
I0715 20:35:13.696559 14456 layer_factory.hpp:77] Creating layer conv4_1
I0715 20:35:13.696576 14456 net.cpp:84] Creating Layer conv4_1
I0715 20:35:13.696584 14456 net.cpp:406] conv4_1 <- pool3_pool3_0_split_0
I0715 20:35:13.696599 14456 net.cpp:380] conv4_1 -> conv4_1
I0715 20:35:13.711583 14456 net.cpp:122] Setting up conv4_1
I0715 20:35:13.711630 14456 net.cpp:129] Top shape: 1 512 89 52 (2369536)
I0715 20:35:13.711634 14456 net.cpp:137] Memory required for data: 622426892
I0715 20:35:13.711645 14456 layer_factory.hpp:77] Creating layer relu4_1
I0715 20:35:13.711673 14456 net.cpp:84] Creating Layer relu4_1
I0715 20:35:13.711678 14456 net.cpp:406] relu4_1 <- conv4_1
I0715 20:35:13.711686 14456 net.cpp:367] relu4_1 -> conv4_1 (in-place)
I0715 20:35:13.711897 14456 net.cpp:122] Setting up relu4_1
I0715 20:35:13.711908 14456 net.cpp:129] Top shape: 1 512 89 52 (2369536)
I0715 20:35:13.711911 14456 net.cpp:137] Memory required for data: 631905036
I0715 20:35:13.711915 14456 layer_factory.hpp:77] Creating layer conv4_2
I0715 20:35:13.711925 14456 net.cpp:84] Creating Layer conv4_2
I0715 20:35:13.711928 14456 net.cpp:406] conv4_2 <- conv4_1
I0715 20:35:13.711936 14456 net.cpp:380] conv4_2 -> conv4_2
I0715 20:35:13.723065 14456 net.cpp:122] Setting up conv4_2
I0715 20:35:13.723084 14456 net.cpp:129] Top shape: 1 512 89 52 (2369536)
I0715 20:35:13.723089 14456 net.cpp:137] Memory required for data: 641383180
I0715 20:35:13.723106 14456 layer_factory.hpp:77] Creating layer relu4_2
I0715 20:35:13.723117 14456 net.cpp:84] Creating Layer relu4_2
I0715 20:35:13.723122 14456 net.cpp:406] relu4_2 <- conv4_2
I0715 20:35:13.723129 14456 net.cpp:367] relu4_2 -> conv4_2 (in-place)
I0715 20:35:13.723389 14456 net.cpp:122] Setting up relu4_2
I0715 20:35:13.723403 14456 net.cpp:129] Top shape: 1 512 89 52 (2369536)
I0715 20:35:13.723407 14456 net.cpp:137] Memory required for data: 650861324
I0715 20:35:13.723412 14456 layer_factory.hpp:77] Creating layer conv4_3
I0715 20:35:13.723425 14456 net.cpp:84] Creating Layer conv4_3
I0715 20:35:13.723430 14456 net.cpp:406] conv4_3 <- conv4_2
I0715 20:35:13.723439 14456 net.cpp:380] conv4_3 -> conv4_3
I0715 20:35:13.736539 14456 net.cpp:122] Setting up conv4_3
I0715 20:35:13.736567 14456 net.cpp:129] Top shape: 1 512 89 52 (2369536)
I0715 20:35:13.736577 14456 net.cpp:137] Memory required for data: 660339468
I0715 20:35:13.736588 14456 layer_factory.hpp:77] Creating layer relu4_3
I0715 20:35:13.736600 14456 net.cpp:84] Creating Layer relu4_3
I0715 20:35:13.736606 14456 net.cpp:406] relu4_3 <- conv4_3
I0715 20:35:13.736615 14456 net.cpp:367] relu4_3 -> conv4_3 (in-place)
I0715 20:35:13.736871 14456 net.cpp:122] Setting up relu4_3
I0715 20:35:13.736884 14456 net.cpp:129] Top shape: 1 512 89 52 (2369536)
I0715 20:35:13.736889 14456 net.cpp:137] Memory required for data: 669817612
I0715 20:35:13.736894 14456 layer_factory.hpp:77] Creating layer pool4
I0715 20:35:13.736907 14456 net.cpp:84] Creating Layer pool4
I0715 20:35:13.736912 14456 net.cpp:406] pool4 <- conv4_3
I0715 20:35:13.736922 14456 net.cpp:380] pool4 -> pool4
I0715 20:35:13.736985 14456 net.cpp:122] Setting up pool4
I0715 20:35:13.736996 14456 net.cpp:129] Top shape: 1 512 45 26 (599040)
I0715 20:35:13.737000 14456 net.cpp:137] Memory required for data: 672213772
I0715 20:35:13.737007 14456 layer_factory.hpp:77] Creating layer pool4_pool4_0_split
I0715 20:35:13.737028 14456 net.cpp:84] Creating Layer pool4_pool4_0_split
I0715 20:35:13.737033 14456 net.cpp:406] pool4_pool4_0_split <- pool4
I0715 20:35:13.737043 14456 net.cpp:380] pool4_pool4_0_split -> pool4_pool4_0_split_0
I0715 20:35:13.737051 14456 net.cpp:380] pool4_pool4_0_split -> pool4_pool4_0_split_1
I0715 20:35:13.737098 14456 net.cpp:122] Setting up pool4_pool4_0_split
I0715 20:35:13.737108 14456 net.cpp:129] Top shape: 1 512 45 26 (599040)
I0715 20:35:13.737114 14456 net.cpp:129] Top shape: 1 512 45 26 (599040)
I0715 20:35:13.737119 14456 net.cpp:137] Memory required for data: 677006092
I0715 20:35:13.737123 14456 layer_factory.hpp:77] Creating layer conv5_1
I0715 20:35:13.737138 14456 net.cpp:84] Creating Layer conv5_1
I0715 20:35:13.737143 14456 net.cpp:406] conv5_1 <- pool4_pool4_0_split_0
I0715 20:35:13.737151 14456 net.cpp:380] conv5_1 -> conv5_1
I0715 20:35:13.745787 14456 net.cpp:122] Setting up conv5_1
I0715 20:35:13.745821 14456 net.cpp:129] Top shape: 1 512 45 26 (599040)
I0715 20:35:13.745826 14456 net.cpp:137] Memory required for data: 679402252
I0715 20:35:13.745833 14456 layer_factory.hpp:77] Creating layer relu5_1
I0715 20:35:13.745844 14456 net.cpp:84] Creating Layer relu5_1
I0715 20:35:13.745848 14456 net.cpp:406] relu5_1 <- conv5_1
I0715 20:35:13.745854 14456 net.cpp:367] relu5_1 -> conv5_1 (in-place)
I0715 20:35:13.746489 14456 net.cpp:122] Setting up relu5_1
I0715 20:35:13.746502 14456 net.cpp:129] Top shape: 1 512 45 26 (599040)
I0715 20:35:13.746522 14456 net.cpp:137] Memory required for data: 681798412
I0715 20:35:13.746526 14456 layer_factory.hpp:77] Creating layer conv5_2
I0715 20:35:13.746537 14456 net.cpp:84] Creating Layer conv5_2
I0715 20:35:13.746541 14456 net.cpp:406] conv5_2 <- conv5_1
I0715 20:35:13.746549 14456 net.cpp:380] conv5_2 -> conv5_2
I0715 20:35:13.754117 14456 net.cpp:122] Setting up conv5_2
I0715 20:35:13.754153 14456 net.cpp:129] Top shape: 1 512 45 26 (599040)
I0715 20:35:13.754156 14456 net.cpp:137] Memory required for data: 684194572
I0715 20:35:13.754168 14456 layer_factory.hpp:77] Creating layer relu5_2
I0715 20:35:13.754184 14456 net.cpp:84] Creating Layer relu5_2
I0715 20:35:13.754187 14456 net.cpp:406] relu5_2 <- conv5_2
I0715 20:35:13.754194 14456 net.cpp:367] relu5_2 -> conv5_2 (in-place)
I0715 20:35:13.754870 14456 net.cpp:122] Setting up relu5_2
I0715 20:35:13.754885 14456 net.cpp:129] Top shape: 1 512 45 26 (599040)
I0715 20:35:13.754904 14456 net.cpp:137] Memory required for data: 686590732
I0715 20:35:13.754909 14456 layer_factory.hpp:77] Creating layer conv5_3
I0715 20:35:13.754921 14456 net.cpp:84] Creating Layer conv5_3
I0715 20:35:13.754925 14456 net.cpp:406] conv5_3 <- conv5_2
I0715 20:35:13.754933 14456 net.cpp:380] conv5_3 -> conv5_3
I0715 20:35:13.763526 14456 net.cpp:122] Setting up conv5_3
I0715 20:35:13.763547 14456 net.cpp:129] Top shape: 1 512 45 26 (599040)
I0715 20:35:13.763552 14456 net.cpp:137] Memory required for data: 688986892
I0715 20:35:13.763561 14456 layer_factory.hpp:77] Creating layer relu5_3
I0715 20:35:13.763573 14456 net.cpp:84] Creating Layer relu5_3
I0715 20:35:13.763578 14456 net.cpp:406] relu5_3 <- conv5_3
I0715 20:35:13.763588 14456 net.cpp:367] relu5_3 -> conv5_3 (in-place)
I0715 20:35:13.763836 14456 net.cpp:122] Setting up relu5_3
I0715 20:35:13.763849 14456 net.cpp:129] Top shape: 1 512 45 26 (599040)
I0715 20:35:13.763854 14456 net.cpp:137] Memory required for data: 691383052
I0715 20:35:13.763859 14456 layer_factory.hpp:77] Creating layer pool5
I0715 20:35:13.763870 14456 net.cpp:84] Creating Layer pool5
I0715 20:35:13.763875 14456 net.cpp:406] pool5 <- conv5_3
I0715 20:35:13.763881 14456 net.cpp:380] pool5 -> pool5
I0715 20:35:13.763939 14456 net.cpp:122] Setting up pool5
I0715 20:35:13.763955 14456 net.cpp:129] Top shape: 1 512 23 13 (153088)
I0715 20:35:13.763959 14456 net.cpp:137] Memory required for data: 691995404
I0715 20:35:13.763965 14456 layer_factory.hpp:77] Creating layer fc6
I0715 20:35:13.763978 14456 net.cpp:84] Creating Layer fc6
I0715 20:35:13.763983 14456 net.cpp:406] fc6 <- pool5
I0715 20:35:13.763991 14456 net.cpp:380] fc6 -> fc6
I0715 20:35:14.094103 14456 net.cpp:122] Setting up fc6
I0715 20:35:14.094156 14456 net.cpp:129] Top shape: 1 4096 17 7 (487424)
I0715 20:35:14.094161 14456 net.cpp:137] Memory required for data: 693945100
I0715 20:35:14.094177 14456 layer_factory.hpp:77] Creating layer relu6
I0715 20:35:14.094193 14456 net.cpp:84] Creating Layer relu6
I0715 20:35:14.094199 14456 net.cpp:406] relu6 <- fc6
I0715 20:35:14.094208 14456 net.cpp:367] relu6 -> fc6 (in-place)
I0715 20:35:14.094468 14456 net.cpp:122] Setting up relu6
I0715 20:35:14.094480 14456 net.cpp:129] Top shape: 1 4096 17 7 (487424)
I0715 20:35:14.094485 14456 net.cpp:137] Memory required for data: 695894796
I0715 20:35:14.094489 14456 layer_factory.hpp:77] Creating layer drop6
I0715 20:35:14.094504 14456 net.cpp:84] Creating Layer drop6
I0715 20:35:14.094512 14456 net.cpp:406] drop6 <- fc6
I0715 20:35:14.094521 14456 net.cpp:367] drop6 -> fc6 (in-place)
I0715 20:35:14.094575 14456 net.cpp:122] Setting up drop6
I0715 20:35:14.094584 14456 net.cpp:129] Top shape: 1 4096 17 7 (487424)
I0715 20:35:14.094588 14456 net.cpp:137] Memory required for data: 697844492
I0715 20:35:14.094593 14456 layer_factory.hpp:77] Creating layer fc7
I0715 20:35:14.094609 14456 net.cpp:84] Creating Layer fc7
I0715 20:35:14.094617 14456 net.cpp:406] fc7 <- fc6
I0715 20:35:14.094624 14456 net.cpp:380] fc7 -> fc7
I0715 20:35:14.152297 14456 net.cpp:122] Setting up fc7
I0715 20:35:14.152349 14456 net.cpp:129] Top shape: 1 4096 17 7 (487424)
I0715 20:35:14.152355 14456 net.cpp:137] Memory required for data: 699794188
I0715 20:35:14.152380 14456 layer_factory.hpp:77] Creating layer relu7
I0715 20:35:14.152405 14456 net.cpp:84] Creating Layer relu7
I0715 20:35:14.152415 14456 net.cpp:406] relu7 <- fc7
I0715 20:35:14.152429 14456 net.cpp:367] relu7 -> fc7 (in-place)
I0715 20:35:14.152691 14456 net.cpp:122] Setting up relu7
I0715 20:35:14.152704 14456 net.cpp:129] Top shape: 1 4096 17 7 (487424)
I0715 20:35:14.152707 14456 net.cpp:137] Memory required for data: 701743884
I0715 20:35:14.152711 14456 layer_factory.hpp:77] Creating layer drop7
I0715 20:35:14.152726 14456 net.cpp:84] Creating Layer drop7
I0715 20:35:14.152731 14456 net.cpp:406] drop7 <- fc7
I0715 20:35:14.152736 14456 net.cpp:367] drop7 -> fc7 (in-place)
I0715 20:35:14.152815 14456 net.cpp:122] Setting up drop7
I0715 20:35:14.152825 14456 net.cpp:129] Top shape: 1 4096 17 7 (487424)
I0715 20:35:14.152829 14456 net.cpp:137] Memory required for data: 703693580
I0715 20:35:14.152840 14456 layer_factory.hpp:77] Creating layer score_fr-new
I0715 20:35:14.152858 14456 net.cpp:84] Creating Layer score_fr-new
I0715 20:35:14.152863 14456 net.cpp:406] score_fr-new <- fc7
I0715 20:35:14.152885 14456 net.cpp:380] score_fr-new -> score_fr-new
I0715 20:35:14.155714 14456 net.cpp:122] Setting up score_fr-new
I0715 20:35:14.155733 14456 net.cpp:129] Top shape: 1 3 17 7 (357)
I0715 20:35:14.155738 14456 net.cpp:137] Memory required for data: 703695008
I0715 20:35:14.155747 14456 layer_factory.hpp:77] Creating layer upscore2-new
I0715 20:35:14.155773 14456 net.cpp:84] Creating Layer upscore2-new
I0715 20:35:14.155778 14456 net.cpp:406] upscore2-new <- score_fr-new
I0715 20:35:14.155787 14456 net.cpp:380] upscore2-new -> upscore2-new
I0715 20:35:14.156047 14456 net.cpp:122] Setting up upscore2-new
I0715 20:35:14.156059 14456 net.cpp:129] Top shape: 1 3 36 16 (1728)
I0715 20:35:14.156062 14456 net.cpp:137] Memory required for data: 703701920
I0715 20:35:14.156123 14456 layer_factory.hpp:77] Creating layer upscore2-new_upscore2-new_0_split
I0715 20:35:14.156136 14456 net.cpp:84] Creating Layer upscore2-new_upscore2-new_0_split
I0715 20:35:14.156141 14456 net.cpp:406] upscore2-new_upscore2-new_0_split <- upscore2-new
I0715 20:35:14.156152 14456 net.cpp:380] upscore2-new_upscore2-new_0_split -> upscore2-new_upscore2-new_0_split_0
I0715 20:35:14.156159 14456 net.cpp:380] upscore2-new_upscore2-new_0_split -> upscore2-new_upscore2-new_0_split_1
I0715 20:35:14.156206 14456 net.cpp:122] Setting up upscore2-new_upscore2-new_0_split
I0715 20:35:14.156215 14456 net.cpp:129] Top shape: 1 3 36 16 (1728)
I0715 20:35:14.156222 14456 net.cpp:129] Top shape: 1 3 36 16 (1728)
I0715 20:35:14.156226 14456 net.cpp:137] Memory required for data: 703715744
I0715 20:35:14.156230 14456 layer_factory.hpp:77] Creating layer score_pool4-new
I0715 20:35:14.156241 14456 net.cpp:84] Creating Layer score_pool4-new
I0715 20:35:14.156245 14456 net.cpp:406] score_pool4-new <- pool4_pool4_0_split_1
I0715 20:35:14.156257 14456 net.cpp:380] score_pool4-new -> score_pool4-new
I0715 20:35:14.161514 14456 net.cpp:122] Setting up score_pool4-new
I0715 20:35:14.161533 14456 net.cpp:129] Top shape: 1 3 45 26 (3510)
I0715 20:35:14.161538 14456 net.cpp:137] Memory required for data: 703729784
I0715 20:35:14.161546 14456 layer_factory.hpp:77] Creating layer score_pool4c
I0715 20:35:14.161559 14456 net.cpp:84] Creating Layer score_pool4c
I0715 20:35:14.161566 14456 net.cpp:406] score_pool4c <- score_pool4-new
I0715 20:35:14.161571 14456 net.cpp:406] score_pool4c <- upscore2-new_upscore2-new_0_split_0
I0715 20:35:14.161581 14456 net.cpp:380] score_pool4c -> score_pool4c
I0715 20:35:14.161623 14456 net.cpp:122] Setting up score_pool4c
I0715 20:35:14.161633 14456 net.cpp:129] Top shape: 1 3 36 16 (1728)
I0715 20:35:14.161636 14456 net.cpp:137] Memory required for data: 703736696
I0715 20:35:14.161640 14456 layer_factory.hpp:77] Creating layer fuse_pool4
I0715 20:35:14.161650 14456 net.cpp:84] Creating Layer fuse_pool4
I0715 20:35:14.161654 14456 net.cpp:406] fuse_pool4 <- upscore2-new_upscore2-new_0_split_1
I0715 20:35:14.161659 14456 net.cpp:406] fuse_pool4 <- score_pool4c
I0715 20:35:14.161666 14456 net.cpp:380] fuse_pool4 -> fuse_pool4
I0715 20:35:14.161701 14456 net.cpp:122] Setting up fuse_pool4
I0715 20:35:14.161707 14456 net.cpp:129] Top shape: 1 3 36 16 (1728)
I0715 20:35:14.161710 14456 net.cpp:137] Memory required for data: 703743608
I0715 20:35:14.161722 14456 layer_factory.hpp:77] Creating layer upscore_pool4-new
I0715 20:35:14.161736 14456 net.cpp:84] Creating Layer upscore_pool4-new
I0715 20:35:14.161739 14456 net.cpp:406] upscore_pool4-new <- fuse_pool4
I0715 20:35:14.161746 14456 net.cpp:380] upscore_pool4-new -> upscore_pool4-new
I0715 20:35:14.161983 14456 net.cpp:122] Setting up upscore_pool4-new
I0715 20:35:14.161993 14456 net.cpp:129] Top shape: 1 3 74 34 (7548)
I0715 20:35:14.161996 14456 net.cpp:137] Memory required for data: 703773800
I0715 20:35:14.162003 14456 layer_factory.hpp:77] Creating layer upscore_pool4-new_upscore_pool4-new_0_split
I0715 20:35:14.162010 14456 net.cpp:84] Creating Layer upscore_pool4-new_upscore_pool4-new_0_split
I0715 20:35:14.162015 14456 net.cpp:406] upscore_pool4-new_upscore_pool4-new_0_split <- upscore_pool4-new
I0715 20:35:14.162021 14456 net.cpp:380] upscore_pool4-new_upscore_pool4-new_0_split -> upscore_pool4-new_upscore_pool4-new_0_split_0
I0715 20:35:14.162029 14456 net.cpp:380] upscore_pool4-new_upscore_pool4-new_0_split -> upscore_pool4-new_upscore_pool4-new_0_split_1
I0715 20:35:14.162071 14456 net.cpp:122] Setting up upscore_pool4-new_upscore_pool4-new_0_split
I0715 20:35:14.162089 14456 net.cpp:129] Top shape: 1 3 74 34 (7548)
I0715 20:35:14.162094 14456 net.cpp:129] Top shape: 1 3 74 34 (7548)
I0715 20:35:14.162106 14456 net.cpp:137] Memory required for data: 703834184
I0715 20:35:14.162109 14456 layer_factory.hpp:77] Creating layer score_pool3-new
I0715 20:35:14.162127 14456 net.cpp:84] Creating Layer score_pool3-new
I0715 20:35:14.162130 14456 net.cpp:406] score_pool3-new <- pool3_pool3_0_split_1
I0715 20:35:14.162144 14456 net.cpp:380] score_pool3-new -> score_pool3-new
I0715 20:35:14.163841 14456 net.cpp:122] Setting up score_pool3-new
I0715 20:35:14.163863 14456 net.cpp:129] Top shape: 1 3 89 52 (13884)
I0715 20:35:14.163871 14456 net.cpp:137] Memory required for data: 703889720
I0715 20:35:14.163888 14456 layer_factory.hpp:77] Creating layer score_pool3c
I0715 20:35:14.163900 14456 net.cpp:84] Creating Layer score_pool3c
I0715 20:35:14.163908 14456 net.cpp:406] score_pool3c <- score_pool3-new
I0715 20:35:14.163918 14456 net.cpp:406] score_pool3c <- upscore_pool4-new_upscore_pool4-new_0_split_0
I0715 20:35:14.163928 14456 net.cpp:380] score_pool3c -> score_pool3c
I0715 20:35:14.163987 14456 net.cpp:122] Setting up score_pool3c
I0715 20:35:14.163996 14456 net.cpp:129] Top shape: 1 3 74 34 (7548)
I0715 20:35:14.164001 14456 net.cpp:137] Memory required for data: 703919912
I0715 20:35:14.164006 14456 layer_factory.hpp:77] Creating layer fuse_pool3
I0715 20:35:14.164016 14456 net.cpp:84] Creating Layer fuse_pool3
I0715 20:35:14.164023 14456 net.cpp:406] fuse_pool3 <- upscore_pool4-new_upscore_pool4-new_0_split_1
I0715 20:35:14.164031 14456 net.cpp:406] fuse_pool3 <- score_pool3c
I0715 20:35:14.164041 14456 net.cpp:380] fuse_pool3 -> fuse_pool3
I0715 20:35:14.164078 14456 net.cpp:122] Setting up fuse_pool3
I0715 20:35:14.164103 14456 net.cpp:129] Top shape: 1 3 74 34 (7548)
I0715 20:35:14.164108 14456 net.cpp:137] Memory required for data: 703950104
I0715 20:35:14.164113 14456 layer_factory.hpp:77] Creating layer upscore8-new
I0715 20:35:14.164124 14456 net.cpp:84] Creating Layer upscore8-new
I0715 20:35:14.164129 14456 net.cpp:406] upscore8-new <- fuse_pool3
I0715 20:35:14.164144 14456 net.cpp:380] upscore8-new -> upscore8-new
I0715 20:35:14.164481 14456 net.cpp:122] Setting up upscore8-new
I0715 20:35:14.164494 14456 net.cpp:129] Top shape: 1 3 600 280 (504000)
I0715 20:35:14.164500 14456 net.cpp:137] Memory required for data: 705966104
I0715 20:35:14.164507 14456 layer_factory.hpp:77] Creating layer upscore8_cropped
I0715 20:35:14.164525 14456 net.cpp:84] Creating Layer upscore8_cropped
I0715 20:35:14.164530 14456 net.cpp:406] upscore8_cropped <- upscore8-new
I0715 20:35:14.164548 14456 net.cpp:406] upscore8_cropped <- data_data_0_split_1
I0715 20:35:14.164557 14456 net.cpp:380] upscore8_cropped -> upscore8_cropped
I0715 20:35:14.164595 14456 net.cpp:122] Setting up upscore8_cropped
I0715 20:35:14.164603 14456 net.cpp:129] Top shape: 1 3 512 211 (324096)
I0715 20:35:14.164608 14456 net.cpp:137] Memory required for data: 707262488
I0715 20:35:14.164620 14456 layer_factory.hpp:77] Creating layer upscore8_cropped_upscore8_cropped_0_split
I0715 20:35:14.164631 14456 net.cpp:84] Creating Layer upscore8_cropped_upscore8_cropped_0_split
I0715 20:35:14.164638 14456 net.cpp:406] upscore8_cropped_upscore8_cropped_0_split <- upscore8_cropped
I0715 20:35:14.164645 14456 net.cpp:380] upscore8_cropped_upscore8_cropped_0_split -> upscore8_cropped_upscore8_cropped_0_split_0
I0715 20:35:14.164655 14456 net.cpp:380] upscore8_cropped_upscore8_cropped_0_split -> upscore8_cropped_upscore8_cropped_0_split_1
I0715 20:35:14.164711 14456 net.cpp:122] Setting up upscore8_cropped_upscore8_cropped_0_split
I0715 20:35:14.164726 14456 net.cpp:129] Top shape: 1 3 512 211 (324096)
I0715 20:35:14.164732 14456 net.cpp:129] Top shape: 1 3 512 211 (324096)
I0715 20:35:14.164737 14456 net.cpp:137] Memory required for data: 709855256
I0715 20:35:14.164742 14456 layer_factory.hpp:77] Creating layer prob
I0715 20:35:14.164758 14456 net.cpp:84] Creating Layer prob
I0715 20:35:14.164764 14456 net.cpp:406] prob <- upscore8_cropped_upscore8_cropped_0_split_0
I0715 20:35:14.164772 14456 net.cpp:380] prob -> prob
I0715 20:35:14.165117 14456 net.cpp:122] Setting up prob
I0715 20:35:14.165132 14456 net.cpp:129] Top shape: 1 3 512 211 (324096)
I0715 20:35:14.165136 14456 net.cpp:137] Memory required for data: 711151640
I0715 20:35:14.165143 14456 layer_factory.hpp:77] Creating layer prob_prob_0_split
I0715 20:35:14.165150 14456 net.cpp:84] Creating Layer prob_prob_0_split
I0715 20:35:14.165156 14456 net.cpp:406] prob_prob_0_split <- prob
I0715 20:35:14.165168 14456 net.cpp:380] prob_prob_0_split -> prob_prob_0_split_0
I0715 20:35:14.165177 14456 net.cpp:380] prob_prob_0_split -> prob_prob_0_split_1
I0715 20:35:14.165235 14456 net.cpp:122] Setting up prob_prob_0_split
I0715 20:35:14.165246 14456 net.cpp:129] Top shape: 1 3 512 211 (324096)
I0715 20:35:14.165253 14456 net.cpp:129] Top shape: 1 3 512 211 (324096)
I0715 20:35:14.165258 14456 net.cpp:137] Memory required for data: 713744408
I0715 20:35:14.165263 14456 layer_factory.hpp:77] Creating layer saliency1
I0715 20:35:14.165283 14456 net.cpp:84] Creating Layer saliency1
I0715 20:35:14.165289 14456 net.cpp:406] saliency1 <- prob_prob_0_split_0
I0715 20:35:14.165299 14456 net.cpp:380] saliency1 -> saliency1
I0715 20:35:14.170325 14456 net.cpp:122] Setting up saliency1
I0715 20:35:14.170351 14456 net.cpp:129] Top shape: 1 3 512 211 (324096)
I0715 20:35:14.170357 14456 net.cpp:137] Memory required for data: 715040792
I0715 20:35:14.170382 14456 layer_factory.hpp:77] Creating layer relu_saliency1
I0715 20:35:14.170397 14456 net.cpp:84] Creating Layer relu_saliency1
I0715 20:35:14.170404 14456 net.cpp:406] relu_saliency1 <- saliency1
I0715 20:35:14.170416 14456 net.cpp:367] relu_saliency1 -> saliency1 (in-place)
I0715 20:35:14.170754 14456 net.cpp:122] Setting up relu_saliency1
I0715 20:35:14.170781 14456 net.cpp:129] Top shape: 1 3 512 211 (324096)
I0715 20:35:14.170788 14456 net.cpp:137] Memory required for data: 716337176
I0715 20:35:14.170792 14456 layer_factory.hpp:77] Creating layer saliency
I0715 20:35:14.170810 14456 net.cpp:84] Creating Layer saliency
I0715 20:35:14.170816 14456 net.cpp:406] saliency <- saliency1
I0715 20:35:14.170832 14456 net.cpp:380] saliency -> saliency
I0715 20:35:14.173843 14456 net.cpp:122] Setting up saliency
I0715 20:35:14.173866 14456 net.cpp:129] Top shape: 1 3 512 211 (324096)
I0715 20:35:14.173872 14456 net.cpp:137] Memory required for data: 717633560
I0715 20:35:14.173885 14456 layer_factory.hpp:77] Creating layer saliency_data
I0715 20:35:14.173907 14456 net.cpp:84] Creating Layer saliency_data
I0715 20:35:14.173914 14456 net.cpp:406] saliency_data <- data_data_0_split_2
I0715 20:35:14.173923 14456 net.cpp:406] saliency_data <- saliency
I0715 20:35:14.173936 14456 net.cpp:380] saliency_data -> saliency_data
I0715 20:35:14.174002 14456 net.cpp:122] Setting up saliency_data
I0715 20:35:14.174011 14456 net.cpp:129] Top shape: 1 3 512 211 (324096)
I0715 20:35:14.174017 14456 net.cpp:137] Memory required for data: 718929944
I0715 20:35:14.174022 14456 layer_factory.hpp:77] Creating layer crop
I0715 20:35:14.174657 14456 net.cpp:84] Creating Layer crop
I0715 20:35:14.174674 14456 net.cpp:406] crop <- prob_prob_0_split_1
I0715 20:35:14.174685 14456 net.cpp:406] crop <- saliency_data
I0715 20:35:14.174703 14456 net.cpp:406] crop <- crop_margin
I0715 20:35:14.174712 14456 net.cpp:406] crop <- crop_prob
I0715 20:35:14.174718 14456 net.cpp:406] crop <- crop_sample_batch
I0715 20:35:14.174726 14456 net.cpp:406] crop <- label_data_1_split_0
I0715 20:35:14.174736 14456 net.cpp:380] crop -> data-R
I0715 20:35:14.174749 14456 net.cpp:380] crop -> crop_info
I0715 20:35:14.184643 14456 net.cpp:122] Setting up crop
I0715 20:35:14.184664 14456 net.cpp:129] Top shape: 1 3 512 211 (324096)
I0715 20:35:14.184671 14456 net.cpp:129] Top shape: 1 2 4 (8)
I0715 20:35:14.184676 14456 net.cpp:137] Memory required for data: 720226360
I0715 20:35:14.184691 14456 layer_factory.hpp:77] Creating layer data-R_crop_0_split
I0715 20:35:14.184707 14456 net.cpp:84] Creating Layer data-R_crop_0_split
I0715 20:35:14.184712 14456 net.cpp:406] data-R_crop_0_split <- data-R
I0715 20:35:14.184721 14456 net.cpp:380] data-R_crop_0_split -> data-R_crop_0_split_0
I0715 20:35:14.184732 14456 net.cpp:380] data-R_crop_0_split -> data-R_crop_0_split_1
I0715 20:35:14.184788 14456 net.cpp:122] Setting up data-R_crop_0_split
I0715 20:35:14.184795 14456 net.cpp:129] Top shape: 1 3 512 211 (324096)
I0715 20:35:14.184801 14456 net.cpp:129] Top shape: 1 3 512 211 (324096)
I0715 20:35:14.184805 14456 net.cpp:137] Memory required for data: 722819128
I0715 20:35:14.184810 14456 layer_factory.hpp:77] Creating layer conv1_1-R
I0715 20:35:14.184893 14456 net.cpp:84] Creating Layer conv1_1-R
I0715 20:35:14.184903 14456 net.cpp:406] conv1_1-R <- data-R_crop_0_split_0
I0715 20:35:14.184916 14456 net.cpp:380] conv1_1-R -> conv1_1-R
I0715 20:35:14.190301 14456 net.cpp:122] Setting up conv1_1-R
I0715 20:35:14.190321 14456 net.cpp:129] Top shape: 1 64 710 409 (18584960)
I0715 20:35:14.190326 14456 net.cpp:137] Memory required for data: 797158968
I0715 20:35:14.190336 14456 layer_factory.hpp:77] Creating layer relu1_1-R
I0715 20:35:14.190345 14456 net.cpp:84] Creating Layer relu1_1-R
I0715 20:35:14.190349 14456 net.cpp:406] relu1_1-R <- conv1_1-R
I0715 20:35:14.190356 14456 net.cpp:367] relu1_1-R -> conv1_1-R (in-place)
I0715 20:35:14.190589 14456 net.cpp:122] Setting up relu1_1-R
I0715 20:35:14.190603 14456 net.cpp:129] Top shape: 1 64 710 409 (18584960)
I0715 20:35:14.190606 14456 net.cpp:137] Memory required for data: 871498808
I0715 20:35:14.190611 14456 layer_factory.hpp:77] Creating layer conv1_2-R
I0715 20:35:14.190620 14456 net.cpp:84] Creating Layer conv1_2-R
I0715 20:35:14.190625 14456 net.cpp:406] conv1_2-R <- conv1_1-R
I0715 20:35:14.190632 14456 net.cpp:380] conv1_2-R -> conv1_2-R
I0715 20:35:14.197778 14456 net.cpp:122] Setting up conv1_2-R
I0715 20:35:14.197799 14456 net.cpp:129] Top shape: 1 64 710 409 (18584960)
I0715 20:35:14.197804 14456 net.cpp:137] Memory required for data: 945838648
I0715 20:35:14.197824 14456 layer_factory.hpp:77] Creating layer relu1_2-R
I0715 20:35:14.197832 14456 net.cpp:84] Creating Layer relu1_2-R
I0715 20:35:14.197837 14456 net.cpp:406] relu1_2-R <- conv1_2-R
I0715 20:35:14.197844 14456 net.cpp:367] relu1_2-R -> conv1_2-R (in-place)
I0715 20:35:14.198633 14456 net.cpp:122] Setting up relu1_2-R
I0715 20:35:14.198650 14456 net.cpp:129] Top shape: 1 64 710 409 (18584960)
I0715 20:35:14.198654 14456 net.cpp:137] Memory required for data: 1020178488
I0715 20:35:14.198659 14456 layer_factory.hpp:77] Creating layer pool1-R
I0715 20:35:14.198679 14456 net.cpp:84] Creating Layer pool1-R
I0715 20:35:14.198686 14456 net.cpp:406] pool1-R <- conv1_2-R
I0715 20:35:14.198693 14456 net.cpp:380] pool1-R -> pool1-R
I0715 20:35:14.198755 14456 net.cpp:122] Setting up pool1-R
I0715 20:35:14.198761 14456 net.cpp:129] Top shape: 1 64 355 205 (4657600)
I0715 20:35:14.198765 14456 net.cpp:137] Memory required for data: 1038808888
I0715 20:35:14.198770 14456 layer_factory.hpp:77] Creating layer conv2_1-R
I0715 20:35:14.198778 14456 net.cpp:84] Creating Layer conv2_1-R
I0715 20:35:14.198782 14456 net.cpp:406] conv2_1-R <- pool1-R
I0715 20:35:14.198789 14456 net.cpp:380] conv2_1-R -> conv2_1-R
I0715 20:35:14.200925 14456 net.cpp:122] Setting up conv2_1-R
I0715 20:35:14.200950 14456 net.cpp:129] Top shape: 1 128 355 205 (9315200)
I0715 20:35:14.200958 14456 net.cpp:137] Memory required for data: 1076069688
I0715 20:35:14.200973 14456 layer_factory.hpp:77] Creating layer relu2_1-R
I0715 20:35:14.200984 14456 net.cpp:84] Creating Layer relu2_1-R
I0715 20:35:14.200991 14456 net.cpp:406] relu2_1-R <- conv2_1-R
I0715 20:35:14.201001 14456 net.cpp:367] relu2_1-R -> conv2_1-R (in-place)
I0715 20:35:14.202138 14456 net.cpp:122] Setting up relu2_1-R
I0715 20:35:14.202162 14456 net.cpp:129] Top shape: 1 128 355 205 (9315200)
I0715 20:35:14.202170 14456 net.cpp:137] Memory required for data: 1113330488
I0715 20:35:14.202193 14456 layer_factory.hpp:77] Creating layer conv2_2-R
I0715 20:35:14.202215 14456 net.cpp:84] Creating Layer conv2_2-R
I0715 20:35:14.202229 14456 net.cpp:406] conv2_2-R <- conv2_1-R
I0715 20:35:14.202242 14456 net.cpp:380] conv2_2-R -> conv2_2-R
I0715 20:35:14.205793 14456 net.cpp:122] Setting up conv2_2-R
I0715 20:35:14.205819 14456 net.cpp:129] Top shape: 1 128 355 205 (9315200)
I0715 20:35:14.205827 14456 net.cpp:137] Memory required for data: 1150591288
I0715 20:35:14.205842 14456 layer_factory.hpp:77] Creating layer relu2_2-R
I0715 20:35:14.205853 14456 net.cpp:84] Creating Layer relu2_2-R
I0715 20:35:14.205862 14456 net.cpp:406] relu2_2-R <- conv2_2-R
I0715 20:35:14.205871 14456 net.cpp:367] relu2_2-R -> conv2_2-R (in-place)
I0715 20:35:14.206223 14456 net.cpp:122] Setting up relu2_2-R
I0715 20:35:14.206238 14456 net.cpp:129] Top shape: 1 128 355 205 (9315200)
I0715 20:35:14.206244 14456 net.cpp:137] Memory required for data: 1187852088
I0715 20:35:14.206251 14456 layer_factory.hpp:77] Creating layer pool2-R
I0715 20:35:14.206266 14456 net.cpp:84] Creating Layer pool2-R
I0715 20:35:14.206275 14456 net.cpp:406] pool2-R <- conv2_2-R
I0715 20:35:14.206285 14456 net.cpp:380] pool2-R -> pool2-R
I0715 20:35:14.206387 14456 net.cpp:122] Setting up pool2-R
I0715 20:35:14.206398 14456 net.cpp:129] Top shape: 1 128 178 103 (2346752)
I0715 20:35:14.206403 14456 net.cpp:137] Memory required for data: 1197239096
I0715 20:35:14.206409 14456 layer_factory.hpp:77] Creating layer conv3_1-R
I0715 20:35:14.206434 14456 net.cpp:84] Creating Layer conv3_1-R
I0715 20:35:14.206442 14456 net.cpp:406] conv3_1-R <- pool2-R
I0715 20:35:14.206454 14456 net.cpp:380] conv3_1-R -> conv3_1-R
I0715 20:35:14.213186 14456 net.cpp:122] Setting up conv3_1-R
I0715 20:35:14.213207 14456 net.cpp:129] Top shape: 1 256 178 103 (4693504)
I0715 20:35:14.213212 14456 net.cpp:137] Memory required for data: 1216013112
I0715 20:35:14.213223 14456 layer_factory.hpp:77] Creating layer relu3_1-R
I0715 20:35:14.213243 14456 net.cpp:84] Creating Layer relu3_1-R
I0715 20:35:14.213248 14456 net.cpp:406] relu3_1-R <- conv3_1-R
I0715 20:35:14.213256 14456 net.cpp:367] relu3_1-R -> conv3_1-R (in-place)
I0715 20:35:14.213515 14456 net.cpp:122] Setting up relu3_1-R
I0715 20:35:14.213528 14456 net.cpp:129] Top shape: 1 256 178 103 (4693504)
I0715 20:35:14.213533 14456 net.cpp:137] Memory required for data: 1234787128
I0715 20:35:14.213538 14456 layer_factory.hpp:77] Creating layer conv3_2-R
I0715 20:35:14.213551 14456 net.cpp:84] Creating Layer conv3_2-R
I0715 20:35:14.213557 14456 net.cpp:406] conv3_2-R <- conv3_1-R
I0715 20:35:14.213567 14456 net.cpp:380] conv3_2-R -> conv3_2-R
I0715 20:35:14.222574 14456 net.cpp:122] Setting up conv3_2-R
I0715 20:35:14.222595 14456 net.cpp:129] Top shape: 1 256 178 103 (4693504)
I0715 20:35:14.222601 14456 net.cpp:137] Memory required for data: 1253561144
I0715 20:35:14.222611 14456 layer_factory.hpp:77] Creating layer relu3_2-R
I0715 20:35:14.222620 14456 net.cpp:84] Creating Layer relu3_2-R
I0715 20:35:14.222625 14456 net.cpp:406] relu3_2-R <- conv3_2-R
I0715 20:35:14.222632 14456 net.cpp:367] relu3_2-R -> conv3_2-R (in-place)
I0715 20:35:14.222889 14456 net.cpp:122] Setting up relu3_2-R
I0715 20:35:14.222903 14456 net.cpp:129] Top shape: 1 256 178 103 (4693504)
I0715 20:35:14.222906 14456 net.cpp:137] Memory required for data: 1272335160
I0715 20:35:14.222911 14456 layer_factory.hpp:77] Creating layer conv3_3-R
I0715 20:35:14.222944 14456 net.cpp:84] Creating Layer conv3_3-R
I0715 20:35:14.222950 14456 net.cpp:406] conv3_3-R <- conv3_2-R
I0715 20:35:14.222959 14456 net.cpp:380] conv3_3-R -> conv3_3-R
I0715 20:35:14.228816 14456 net.cpp:122] Setting up conv3_3-R
I0715 20:35:14.228842 14456 net.cpp:129] Top shape: 1 256 178 103 (4693504)
I0715 20:35:14.228850 14456 net.cpp:137] Memory required for data: 1291109176
I0715 20:35:14.228878 14456 layer_factory.hpp:77] Creating layer relu3_3-R
I0715 20:35:14.228889 14456 net.cpp:84] Creating Layer relu3_3-R
I0715 20:35:14.228896 14456 net.cpp:406] relu3_3-R <- conv3_3-R
I0715 20:35:14.228906 14456 net.cpp:367] relu3_3-R -> conv3_3-R (in-place)
I0715 20:35:14.229250 14456 net.cpp:122] Setting up relu3_3-R
I0715 20:35:14.229266 14456 net.cpp:129] Top shape: 1 256 178 103 (4693504)
I0715 20:35:14.229272 14456 net.cpp:137] Memory required for data: 1309883192
I0715 20:35:14.229279 14456 layer_factory.hpp:77] Creating layer pool3-R
I0715 20:35:14.229290 14456 net.cpp:84] Creating Layer pool3-R
I0715 20:35:14.229296 14456 net.cpp:406] pool3-R <- conv3_3-R
I0715 20:35:14.229306 14456 net.cpp:380] pool3-R -> pool3-R
I0715 20:35:14.229400 14456 net.cpp:122] Setting up pool3-R
I0715 20:35:14.229409 14456 net.cpp:129] Top shape: 1 256 89 52 (1184768)
I0715 20:35:14.229415 14456 net.cpp:137] Memory required for data: 1314622264
I0715 20:35:14.229421 14456 layer_factory.hpp:77] Creating layer pool3-R_pool3-R_0_split
I0715 20:35:14.229430 14456 net.cpp:84] Creating Layer pool3-R_pool3-R_0_split
I0715 20:35:14.229436 14456 net.cpp:406] pool3-R_pool3-R_0_split <- pool3-R
I0715 20:35:14.229446 14456 net.cpp:380] pool3-R_pool3-R_0_split -> pool3-R_pool3-R_0_split_0
I0715 20:35:14.229457 14456 net.cpp:380] pool3-R_pool3-R_0_split -> pool3-R_pool3-R_0_split_1
I0715 20:35:14.229519 14456 net.cpp:122] Setting up pool3-R_pool3-R_0_split
I0715 20:35:14.229532 14456 net.cpp:129] Top shape: 1 256 89 52 (1184768)
I0715 20:35:14.229539 14456 net.cpp:129] Top shape: 1 256 89 52 (1184768)
I0715 20:35:14.229544 14456 net.cpp:137] Memory required for data: 1324100408
I0715 20:35:14.229552 14456 layer_factory.hpp:77] Creating layer conv4_1-R
I0715 20:35:14.229566 14456 net.cpp:84] Creating Layer conv4_1-R
I0715 20:35:14.229573 14456 net.cpp:406] conv4_1-R <- pool3-R_pool3-R_0_split_0
I0715 20:35:14.229583 14456 net.cpp:380] conv4_1-R -> conv4_1-R
I0715 20:35:14.242921 14456 net.cpp:122] Setting up conv4_1-R
I0715 20:35:14.242949 14456 net.cpp:129] Top shape: 1 512 89 52 (2369536)
I0715 20:35:14.242955 14456 net.cpp:137] Memory required for data: 1333578552
I0715 20:35:14.242981 14456 layer_factory.hpp:77] Creating layer relu4_1-R
I0715 20:35:14.242992 14456 net.cpp:84] Creating Layer relu4_1-R
I0715 20:35:14.243000 14456 net.cpp:406] relu4_1-R <- conv4_1-R
I0715 20:35:14.243010 14456 net.cpp:367] relu4_1-R -> conv4_1-R (in-place)
I0715 20:35:14.244093 14456 net.cpp:122] Setting up relu4_1-R
I0715 20:35:14.244114 14456 net.cpp:129] Top shape: 1 512 89 52 (2369536)
I0715 20:35:14.244122 14456 net.cpp:137] Memory required for data: 1343056696
I0715 20:35:14.244127 14456 layer_factory.hpp:77] Creating layer conv4_2-R
I0715 20:35:14.244143 14456 net.cpp:84] Creating Layer conv4_2-R
I0715 20:35:14.244149 14456 net.cpp:406] conv4_2-R <- conv4_1-R
I0715 20:35:14.244161 14456 net.cpp:380] conv4_2-R -> conv4_2-R
I0715 20:35:14.253052 14456 net.cpp:122] Setting up conv4_2-R
I0715 20:35:14.253072 14456 net.cpp:129] Top shape: 1 512 89 52 (2369536)
I0715 20:35:14.253077 14456 net.cpp:137] Memory required for data: 1352534840
I0715 20:35:14.253088 14456 layer_factory.hpp:77] Creating layer relu4_2-R
I0715 20:35:14.253096 14456 net.cpp:84] Creating Layer relu4_2-R
I0715 20:35:14.253101 14456 net.cpp:406] relu4_2-R <- conv4_2-R
I0715 20:35:14.253108 14456 net.cpp:367] relu4_2-R -> conv4_2-R (in-place)
I0715 20:35:14.261255 14456 net.cpp:122] Setting up relu4_2-R
I0715 20:35:14.261278 14456 net.cpp:129] Top shape: 1 512 89 52 (2369536)
I0715 20:35:14.261283 14456 net.cpp:137] Memory required for data: 1362012984
I0715 20:35:14.261292 14456 layer_factory.hpp:77] Creating layer conv4_3-R
I0715 20:35:14.261371 14456 net.cpp:84] Creating Layer conv4_3-R
I0715 20:35:14.261379 14456 net.cpp:406] conv4_3-R <- conv4_2-R
I0715 20:35:14.261389 14456 net.cpp:380] conv4_3-R -> conv4_3-R
I0715 20:35:14.274832 14456 net.cpp:122] Setting up conv4_3-R
I0715 20:35:14.274899 14456 net.cpp:129] Top shape: 1 512 89 52 (2369536)
I0715 20:35:14.274907 14456 net.cpp:137] Memory required for data: 1371491128
I0715 20:35:14.274927 14456 layer_factory.hpp:77] Creating layer relu4_3-R
I0715 20:35:14.274956 14456 net.cpp:84] Creating Layer relu4_3-R
I0715 20:35:14.274967 14456 net.cpp:406] relu4_3-R <- conv4_3-R
I0715 20:35:14.274981 14456 net.cpp:367] relu4_3-R -> conv4_3-R (in-place)
I0715 20:35:14.275419 14456 net.cpp:122] Setting up relu4_3-R
I0715 20:35:14.275454 14456 net.cpp:129] Top shape: 1 512 89 52 (2369536)
I0715 20:35:14.275460 14456 net.cpp:137] Memory required for data: 1380969272
I0715 20:35:14.275482 14456 layer_factory.hpp:77] Creating layer pool4-R
I0715 20:35:14.275504 14456 net.cpp:84] Creating Layer pool4-R
I0715 20:35:14.275512 14456 net.cpp:406] pool4-R <- conv4_3-R
I0715 20:35:14.275534 14456 net.cpp:380] pool4-R -> pool4-R
I0715 20:35:14.275635 14456 net.cpp:122] Setting up pool4-R
I0715 20:35:14.275650 14456 net.cpp:129] Top shape: 1 512 45 26 (599040)
I0715 20:35:14.275656 14456 net.cpp:137] Memory required for data: 1383365432
I0715 20:35:14.275663 14456 layer_factory.hpp:77] Creating layer pool4-R_pool4-R_0_split
I0715 20:35:14.275676 14456 net.cpp:84] Creating Layer pool4-R_pool4-R_0_split
I0715 20:35:14.275683 14456 net.cpp:406] pool4-R_pool4-R_0_split <- pool4-R
I0715 20:35:14.275696 14456 net.cpp:380] pool4-R_pool4-R_0_split -> pool4-R_pool4-R_0_split_0
I0715 20:35:14.275710 14456 net.cpp:380] pool4-R_pool4-R_0_split -> pool4-R_pool4-R_0_split_1
I0715 20:35:14.275789 14456 net.cpp:122] Setting up pool4-R_pool4-R_0_split
I0715 20:35:14.275802 14456 net.cpp:129] Top shape: 1 512 45 26 (599040)
I0715 20:35:14.275811 14456 net.cpp:129] Top shape: 1 512 45 26 (599040)
I0715 20:35:14.275820 14456 net.cpp:137] Memory required for data: 1388157752
I0715 20:35:14.275825 14456 layer_factory.hpp:77] Creating layer conv5_1-R
I0715 20:35:14.275846 14456 net.cpp:84] Creating Layer conv5_1-R
I0715 20:35:14.275853 14456 net.cpp:406] conv5_1-R <- pool4-R_pool4-R_0_split_0
I0715 20:35:14.275866 14456 net.cpp:380] conv5_1-R -> conv5_1-R
I0715 20:35:14.287331 14456 net.cpp:122] Setting up conv5_1-R
I0715 20:35:14.287353 14456 net.cpp:129] Top shape: 1 512 45 26 (599040)
I0715 20:35:14.287369 14456 net.cpp:137] Memory required for data: 1390553912
I0715 20:35:14.287401 14456 layer_factory.hpp:77] Creating layer relu5_1-R
I0715 20:35:14.287411 14456 net.cpp:84] Creating Layer relu5_1-R
I0715 20:35:14.287416 14456 net.cpp:406] relu5_1-R <- conv5_1-R
I0715 20:35:14.287425 14456 net.cpp:367] relu5_1-R -> conv5_1-R (in-place)
I0715 20:35:14.287683 14456 net.cpp:122] Setting up relu5_1-R
I0715 20:35:14.287695 14456 net.cpp:129] Top shape: 1 512 45 26 (599040)
I0715 20:35:14.287699 14456 net.cpp:137] Memory required for data: 1392950072
I0715 20:35:14.287704 14456 layer_factory.hpp:77] Creating layer conv5_2-R
I0715 20:35:14.287717 14456 net.cpp:84] Creating Layer conv5_2-R
I0715 20:35:14.287721 14456 net.cpp:406] conv5_2-R <- conv5_1-R
I0715 20:35:14.287730 14456 net.cpp:380] conv5_2-R -> conv5_2-R
I0715 20:35:14.298354 14456 net.cpp:122] Setting up conv5_2-R
I0715 20:35:14.298403 14456 net.cpp:129] Top shape: 1 512 45 26 (599040)
I0715 20:35:14.298408 14456 net.cpp:137] Memory required for data: 1395346232
I0715 20:35:14.298424 14456 layer_factory.hpp:77] Creating layer relu5_2-R
I0715 20:35:14.298435 14456 net.cpp:84] Creating Layer relu5_2-R
I0715 20:35:14.298442 14456 net.cpp:406] relu5_2-R <- conv5_2-R
I0715 20:35:14.298454 14456 net.cpp:367] relu5_2-R -> conv5_2-R (in-place)
I0715 20:35:14.298718 14456 net.cpp:122] Setting up relu5_2-R
I0715 20:35:14.298732 14456 net.cpp:129] Top shape: 1 512 45 26 (599040)
I0715 20:35:14.298735 14456 net.cpp:137] Memory required for data: 1397742392
I0715 20:35:14.298740 14456 layer_factory.hpp:77] Creating layer conv5_3-R
I0715 20:35:14.298758 14456 net.cpp:84] Creating Layer conv5_3-R
I0715 20:35:14.298763 14456 net.cpp:406] conv5_3-R <- conv5_2-R
I0715 20:35:14.298771 14456 net.cpp:380] conv5_3-R -> conv5_3-R
I0715 20:35:14.307781 14456 net.cpp:122] Setting up conv5_3-R
I0715 20:35:14.307817 14456 net.cpp:129] Top shape: 1 512 45 26 (599040)
I0715 20:35:14.307822 14456 net.cpp:137] Memory required for data: 1400138552
I0715 20:35:14.307832 14456 layer_factory.hpp:77] Creating layer relu5_3-R
I0715 20:35:14.307842 14456 net.cpp:84] Creating Layer relu5_3-R
I0715 20:35:14.307848 14456 net.cpp:406] relu5_3-R <- conv5_3-R
I0715 20:35:14.307854 14456 net.cpp:367] relu5_3-R -> conv5_3-R (in-place)
I0715 20:35:14.308105 14456 net.cpp:122] Setting up relu5_3-R
I0715 20:35:14.308117 14456 net.cpp:129] Top shape: 1 512 45 26 (599040)
I0715 20:35:14.308121 14456 net.cpp:137] Memory required for data: 1402534712
I0715 20:35:14.308126 14456 layer_factory.hpp:77] Creating layer pool5-R
I0715 20:35:14.308145 14456 net.cpp:84] Creating Layer pool5-R
I0715 20:35:14.308151 14456 net.cpp:406] pool5-R <- conv5_3-R
I0715 20:35:14.308161 14456 net.cpp:380] pool5-R -> pool5-R
I0715 20:35:14.308221 14456 net.cpp:122] Setting up pool5-R
I0715 20:35:14.308234 14456 net.cpp:129] Top shape: 1 512 23 13 (153088)
I0715 20:35:14.308238 14456 net.cpp:137] Memory required for data: 1403147064
I0715 20:35:14.308241 14456 layer_factory.hpp:77] Creating layer fc6-R
I0715 20:35:14.308255 14456 net.cpp:84] Creating Layer fc6-R
I0715 20:35:14.308260 14456 net.cpp:406] fc6-R <- pool5-R
I0715 20:35:14.308270 14456 net.cpp:380] fc6-R -> fc6-R
I0715 20:35:14.592833 14456 net.cpp:122] Setting up fc6-R
I0715 20:35:14.592888 14456 net.cpp:129] Top shape: 1 4096 17 7 (487424)
I0715 20:35:14.592895 14456 net.cpp:137] Memory required for data: 1405096760
I0715 20:35:14.592905 14456 layer_factory.hpp:77] Creating layer relu6-R
I0715 20:35:14.592919 14456 net.cpp:84] Creating Layer relu6-R
I0715 20:35:14.592926 14456 net.cpp:406] relu6-R <- fc6-R
I0715 20:35:14.592933 14456 net.cpp:367] relu6-R -> fc6-R (in-place)
I0715 20:35:14.595430 14456 net.cpp:122] Setting up relu6-R
I0715 20:35:14.595482 14456 net.cpp:129] Top shape: 1 4096 17 7 (487424)
I0715 20:35:14.595489 14456 net.cpp:137] Memory required for data: 1407046456
I0715 20:35:14.595496 14456 layer_factory.hpp:77] Creating layer drop6-R
I0715 20:35:14.595515 14456 net.cpp:84] Creating Layer drop6-R
I0715 20:35:14.595521 14456 net.cpp:406] drop6-R <- fc6-R
I0715 20:35:14.595531 14456 net.cpp:367] drop6-R -> fc6-R (in-place)
I0715 20:35:14.595618 14456 net.cpp:122] Setting up drop6-R
I0715 20:35:14.595628 14456 net.cpp:129] Top shape: 1 4096 17 7 (487424)
I0715 20:35:14.595633 14456 net.cpp:137] Memory required for data: 1408996152
I0715 20:35:14.595674 14456 layer_factory.hpp:77] Creating layer fc7-R
I0715 20:35:14.595706 14456 net.cpp:84] Creating Layer fc7-R
I0715 20:35:14.595713 14456 net.cpp:406] fc7-R <- fc6-R
I0715 20:35:14.595726 14456 net.cpp:380] fc7-R -> fc7-R
I0715 20:35:14.664741 14456 net.cpp:122] Setting up fc7-R
I0715 20:35:14.664793 14456 net.cpp:129] Top shape: 1 4096 17 7 (487424)
I0715 20:35:14.664799 14456 net.cpp:137] Memory required for data: 1410945848
I0715 20:35:14.664819 14456 layer_factory.hpp:77] Creating layer relu7-R
I0715 20:35:14.664834 14456 net.cpp:84] Creating Layer relu7-R
I0715 20:35:14.664840 14456 net.cpp:406] relu7-R <- fc7-R
I0715 20:35:14.664861 14456 net.cpp:367] relu7-R -> fc7-R (in-place)
I0715 20:35:14.666043 14456 net.cpp:122] Setting up relu7-R
I0715 20:35:14.666059 14456 net.cpp:129] Top shape: 1 4096 17 7 (487424)
I0715 20:35:14.666074 14456 net.cpp:137] Memory required for data: 1412895544
I0715 20:35:14.666079 14456 layer_factory.hpp:77] Creating layer drop7-R
I0715 20:35:14.666091 14456 net.cpp:84] Creating Layer drop7-R
I0715 20:35:14.666096 14456 net.cpp:406] drop7-R <- fc7-R
I0715 20:35:14.666102 14456 net.cpp:367] drop7-R -> fc7-R (in-place)
I0715 20:35:14.666180 14456 net.cpp:122] Setting up drop7-R
I0715 20:35:14.666214 14456 net.cpp:129] Top shape: 1 4096 17 7 (487424)
I0715 20:35:14.666218 14456 net.cpp:137] Memory required for data: 1414845240
I0715 20:35:14.666223 14456 layer_factory.hpp:77] Creating layer score_fr-new-R
I0715 20:35:14.666257 14456 net.cpp:84] Creating Layer score_fr-new-R
I0715 20:35:14.666262 14456 net.cpp:406] score_fr-new-R <- fc7-R
I0715 20:35:14.666272 14456 net.cpp:380] score_fr-new-R -> score_fr-new-R
I0715 20:35:14.668606 14456 net.cpp:122] Setting up score_fr-new-R
I0715 20:35:14.668637 14456 net.cpp:129] Top shape: 1 3 17 7 (357)
I0715 20:35:14.668653 14456 net.cpp:137] Memory required for data: 1414846668
I0715 20:35:14.668666 14456 layer_factory.hpp:77] Creating layer upscore2-new-R
I0715 20:35:14.668682 14456 net.cpp:84] Creating Layer upscore2-new-R
I0715 20:35:14.668690 14456 net.cpp:406] upscore2-new-R <- score_fr-new-R
I0715 20:35:14.668715 14456 net.cpp:380] upscore2-new-R -> upscore2-new-R
I0715 20:35:14.669219 14456 net.cpp:122] Setting up upscore2-new-R
I0715 20:35:14.669235 14456 net.cpp:129] Top shape: 1 3 36 16 (1728)
I0715 20:35:14.669250 14456 net.cpp:137] Memory required for data: 1414853580
I0715 20:35:14.669260 14456 layer_factory.hpp:77] Creating layer upscore2-new-R_upscore2-new-R_0_split
I0715 20:35:14.669272 14456 net.cpp:84] Creating Layer upscore2-new-R_upscore2-new-R_0_split
I0715 20:35:14.669281 14456 net.cpp:406] upscore2-new-R_upscore2-new-R_0_split <- upscore2-new-R
I0715 20:35:14.669291 14456 net.cpp:380] upscore2-new-R_upscore2-new-R_0_split -> upscore2-new-R_upscore2-new-R_0_split_0
I0715 20:35:14.669314 14456 net.cpp:380] upscore2-new-R_upscore2-new-R_0_split -> upscore2-new-R_upscore2-new-R_0_split_1
I0715 20:35:14.669407 14456 net.cpp:122] Setting up upscore2-new-R_upscore2-new-R_0_split
I0715 20:35:14.669421 14456 net.cpp:129] Top shape: 1 3 36 16 (1728)
I0715 20:35:14.669430 14456 net.cpp:129] Top shape: 1 3 36 16 (1728)
I0715 20:35:14.669437 14456 net.cpp:137] Memory required for data: 1414867404
I0715 20:35:14.669447 14456 layer_factory.hpp:77] Creating layer score_pool4-new-R
I0715 20:35:14.669466 14456 net.cpp:84] Creating Layer score_pool4-new-R
I0715 20:35:14.669476 14456 net.cpp:406] score_pool4-new-R <- pool4-R_pool4-R_0_split_1
I0715 20:35:14.669487 14456 net.cpp:380] score_pool4-new-R -> score_pool4-new-R
I0715 20:35:14.672842 14456 net.cpp:122] Setting up score_pool4-new-R
I0715 20:35:14.672881 14456 net.cpp:129] Top shape: 1 3 45 26 (3510)
I0715 20:35:14.672889 14456 net.cpp:137] Memory required for data: 1414881444
I0715 20:35:14.672904 14456 layer_factory.hpp:77] Creating layer score_pool4c-R
I0715 20:35:14.672921 14456 net.cpp:84] Creating Layer score_pool4c-R
I0715 20:35:14.672940 14456 net.cpp:406] score_pool4c-R <- score_pool4-new-R
I0715 20:35:14.672950 14456 net.cpp:406] score_pool4c-R <- upscore2-new-R_upscore2-new-R_0_split_0
I0715 20:35:14.672961 14456 net.cpp:380] score_pool4c-R -> score_pool4c-R
I0715 20:35:14.673036 14456 net.cpp:122] Setting up score_pool4c-R
I0715 20:35:14.673051 14456 net.cpp:129] Top shape: 1 3 36 16 (1728)
I0715 20:35:14.673058 14456 net.cpp:137] Memory required for data: 1414888356
I0715 20:35:14.673065 14456 layer_factory.hpp:77] Creating layer fuse_pool4-R
I0715 20:35:14.673077 14456 net.cpp:84] Creating Layer fuse_pool4-R
I0715 20:35:14.673085 14456 net.cpp:406] fuse_pool4-R <- upscore2-new-R_upscore2-new-R_0_split_1
I0715 20:35:14.673094 14456 net.cpp:406] fuse_pool4-R <- score_pool4c-R
I0715 20:35:14.673115 14456 net.cpp:380] fuse_pool4-R -> fuse_pool4-R
I0715 20:35:14.673166 14456 net.cpp:122] Setting up fuse_pool4-R
I0715 20:35:14.673183 14456 net.cpp:129] Top shape: 1 3 36 16 (1728)
I0715 20:35:14.673189 14456 net.cpp:137] Memory required for data: 1414895268
I0715 20:35:14.673195 14456 layer_factory.hpp:77] Creating layer upscore_pool4-new-R
I0715 20:35:14.673208 14456 net.cpp:84] Creating Layer upscore_pool4-new-R
I0715 20:35:14.673216 14456 net.cpp:406] upscore_pool4-new-R <- fuse_pool4-R
I0715 20:35:14.673231 14456 net.cpp:380] upscore_pool4-new-R -> upscore_pool4-new-R
I0715 20:35:14.673692 14456 net.cpp:122] Setting up upscore_pool4-new-R
I0715 20:35:14.673707 14456 net.cpp:129] Top shape: 1 3 74 34 (7548)
I0715 20:35:14.673722 14456 net.cpp:137] Memory required for data: 1414925460
I0715 20:35:14.673732 14456 layer_factory.hpp:77] Creating layer upscore_pool4-new-R_upscore_pool4-new-R_0_split
I0715 20:35:14.673748 14456 net.cpp:84] Creating Layer upscore_pool4-new-R_upscore_pool4-new-R_0_split
I0715 20:35:14.673756 14456 net.cpp:406] upscore_pool4-new-R_upscore_pool4-new-R_0_split <- upscore_pool4-new-R
I0715 20:35:14.673768 14456 net.cpp:380] upscore_pool4-new-R_upscore_pool4-new-R_0_split -> upscore_pool4-new-R_upscore_pool4-new-R_0_split_0
I0715 20:35:14.673786 14456 net.cpp:380] upscore_pool4-new-R_upscore_pool4-new-R_0_split -> upscore_pool4-new-R_upscore_pool4-new-R_0_split_1
I0715 20:35:14.673866 14456 net.cpp:122] Setting up upscore_pool4-new-R_upscore_pool4-new-R_0_split
I0715 20:35:14.673880 14456 net.cpp:129] Top shape: 1 3 74 34 (7548)
I0715 20:35:14.673889 14456 net.cpp:129] Top shape: 1 3 74 34 (7548)
I0715 20:35:14.673897 14456 net.cpp:137] Memory required for data: 1414985844
I0715 20:35:14.673902 14456 layer_factory.hpp:77] Creating layer score_pool3-new-R
I0715 20:35:14.673931 14456 net.cpp:84] Creating Layer score_pool3-new-R
I0715 20:35:14.673940 14456 net.cpp:406] score_pool3-new-R <- pool3-R_pool3-R_0_split_1
I0715 20:35:14.673956 14456 net.cpp:380] score_pool3-new-R -> score_pool3-new-R
I0715 20:35:14.675878 14456 net.cpp:122] Setting up score_pool3-new-R
I0715 20:35:14.675918 14456 net.cpp:129] Top shape: 1 3 89 52 (13884)
I0715 20:35:14.675926 14456 net.cpp:137] Memory required for data: 1415041380
I0715 20:35:14.675940 14456 layer_factory.hpp:77] Creating layer score_pool3c-R
I0715 20:35:14.675952 14456 net.cpp:84] Creating Layer score_pool3c-R
I0715 20:35:14.675971 14456 net.cpp:406] score_pool3c-R <- score_pool3-new-R
I0715 20:35:14.675981 14456 net.cpp:406] score_pool3c-R <- upscore_pool4-new-R_upscore_pool4-new-R_0_split_0
I0715 20:35:14.675992 14456 net.cpp:380] score_pool3c-R -> score_pool3c-R
I0715 20:35:14.676074 14456 net.cpp:122] Setting up score_pool3c-R
I0715 20:35:14.676093 14456 net.cpp:129] Top shape: 1 3 74 34 (7548)
I0715 20:35:14.676100 14456 net.cpp:137] Memory required for data: 1415071572
I0715 20:35:14.676105 14456 layer_factory.hpp:77] Creating layer fuse_pool3-R
I0715 20:35:14.676120 14456 net.cpp:84] Creating Layer fuse_pool3-R
I0715 20:35:14.676127 14456 net.cpp:406] fuse_pool3-R <- upscore_pool4-new-R_upscore_pool4-new-R_0_split_1
I0715 20:35:14.676136 14456 net.cpp:406] fuse_pool3-R <- score_pool3c-R
I0715 20:35:14.676146 14456 net.cpp:380] fuse_pool3-R -> fuse_pool3-R
I0715 20:35:14.676199 14456 net.cpp:122] Setting up fuse_pool3-R
I0715 20:35:14.676213 14456 net.cpp:129] Top shape: 1 3 74 34 (7548)
I0715 20:35:14.676219 14456 net.cpp:137] Memory required for data: 1415101764
I0715 20:35:14.676226 14456 layer_factory.hpp:77] Creating layer upscore8-new-R
I0715 20:35:14.676254 14456 net.cpp:84] Creating Layer upscore8-new-R
I0715 20:35:14.676262 14456 net.cpp:406] upscore8-new-R <- fuse_pool3-R
I0715 20:35:14.676273 14456 net.cpp:380] upscore8-new-R -> upscore8-new-R
I0715 20:35:14.676785 14456 net.cpp:122] Setting up upscore8-new-R
I0715 20:35:14.676803 14456 net.cpp:129] Top shape: 1 3 600 280 (504000)
I0715 20:35:14.676820 14456 net.cpp:137] Memory required for data: 1417117764
I0715 20:35:14.676841 14456 layer_factory.hpp:77] Creating layer upscore8_cropped-R
I0715 20:35:14.676853 14456 net.cpp:84] Creating Layer upscore8_cropped-R
I0715 20:35:14.676862 14456 net.cpp:406] upscore8_cropped-R <- upscore8-new-R
I0715 20:35:14.676873 14456 net.cpp:406] upscore8_cropped-R <- data-R_crop_0_split_1
I0715 20:35:14.676887 14456 net.cpp:380] upscore8_cropped-R -> upscore8_cropped-R
I0715 20:35:14.676941 14456 net.cpp:122] Setting up upscore8_cropped-R
I0715 20:35:14.676951 14456 net.cpp:129] Top shape: 1 3 512 211 (324096)
I0715 20:35:14.676957 14456 net.cpp:137] Memory required for data: 1418414148
I0715 20:35:14.676964 14456 layer_factory.hpp:77] Creating layer upscore8_uncropped-R
I0715 20:35:14.677340 14456 net.cpp:84] Creating Layer upscore8_uncropped-R
I0715 20:35:14.677361 14456 net.cpp:406] upscore8_uncropped-R <- crop_info
I0715 20:35:14.677378 14456 net.cpp:406] upscore8_uncropped-R <- upscore8_cropped-R
I0715 20:35:14.677398 14456 net.cpp:406] upscore8_uncropped-R <- data_data_0_split_3
I0715 20:35:14.677410 14456 net.cpp:380] upscore8_uncropped-R -> upscore8_uncropped-R
I0715 20:35:14.680063 14456 net.cpp:122] Setting up upscore8_uncropped-R
I0715 20:35:14.680081 14456 net.cpp:129] Top shape: 1 3 512 211 (324096)
I0715 20:35:14.680097 14456 net.cpp:137] Memory required for data: 1419710532
I0715 20:35:14.680102 14456 layer_factory.hpp:77] Creating layer loss1
I0715 20:35:14.680119 14456 net.cpp:84] Creating Layer loss1
I0715 20:35:14.680124 14456 net.cpp:406] loss1 <- upscore8_cropped_upscore8_cropped_0_split_1
I0715 20:35:14.680130 14456 net.cpp:406] loss1 <- label_data_1_split_1
I0715 20:35:14.680137 14456 net.cpp:380] loss1 -> loss1
…
