…
snapshot_prefix: "/media/Med_2T2/data2/models/snapshots/joint:1e-5x10,1e-5x10,20/FD0:ZI3_1_20180715_091940,ZJ3_1_20180715_203512/train"
test_initialization: false
average_loss: 20
stepvalue: 50000
stepvalue: 60000
stepvalue: 70000
iter_size: 1
I0716 03:44:33.819957 15421 solver.cpp:77] Creating training net from train_net file: /media/Med_2T2/data2/prototxts/training_J3x10.prototxt
I0716 03:44:33.821986 15421 net.cpp:51] Initializing net from parameters: 
state {
  phase: TRAIN
}
layer {
  name: "data"
  type: "Python"
  top: "data"
  top: "label"
  top: "crop_margin"
  top: "crop_prob"
  top: "crop_sample_batch"
  python_param {
    module: "Data"
    layer: "DataLayer"
  }
}
layer {
  name: "conv1_1"
  type: "Convolution"
  bottom: "data"
  top: "conv1_1"
  param {
    lr_mult: 1
    decay_mult: 1
  }
  param {
    lr_mult: 2
    decay_mult: 0
  }
  convolution_param {
    num_output: 64
    pad: 100
    kernel_size: 3
    stride: 1
  }
}
layer {
  name: "relu1_1"
  type: "ReLU"
  bottom: "conv1_1"
  top: "conv1_1"
}
layer {
  name: "conv1_2"
  type: "Convolution"
  bottom: "conv1_1"
  top: "conv1_2"
  param {
    lr_mult: 1
    decay_mult: 1
  }
  param {
    lr_mult: 2
    decay_mult: 0
  }
  convolution_param {
    num_output: 64
    pad: 1
    kernel_size: 3
    stride: 1
  }
}
layer {
  name: "relu1_2"
  type: "ReLU"
  bottom: "conv1_2"
  top: "conv1_2"
}
layer {
  name: "pool1"
  type: "Pooling"
  bottom: "conv1_2"
  top: "pool1"
  pooling_param {
    pool: MAX
    kernel_size: 2
    stride: 2
  }
}
layer {
  name: "conv2_1"
  type: "Convolution"
  bottom: "pool1"
  top: "conv2_1"
  param {
    lr_mult: 1
    decay_mult: 1
  }
  param {
    lr_mult: 2
    decay_mult: 0
  }
  convolution_param {
    num_output: 128
    pad: 1
    kernel_size: 3
    stride: 1
  }
}
layer {
  name: "relu2_1"
  type: "ReLU"
  bottom: "conv2_1"
  top: "conv2_1"
}
layer {
  name: "conv2_2"
  type: "Convolution"
  bottom: "conv2_1"
  top: "conv2_2"
  param {
    lr_mult: 1
    decay_mult: 1
  }
  param {
    lr_mult: 2
    decay_mult: 0
  }
  convolution_param {
    num_output: 128
    pad: 1
    kernel_size: 3
    stride: 1
  }
}
layer {
  name: "relu2_2"
  type: "ReLU"
  bottom: "conv2_2"
  top: "conv2_2"
}
layer {
  name: "pool2"
  type: "Pooling"
  bottom: "conv2_2"
  top: "pool2"
  pooling_param {
    pool: MAX
    kernel_size: 2
    stride: 2
  }
}
layer {
  name: "conv3_1"
  type: "Convolution"
  bottom: "pool2"
  top: "conv3_1"
  param {
    lr_mult: 1
    decay_mult: 1
  }
  param {
    lr_mult: 2
    decay_mult: 0
  }
  convolution_param {
    num_output: 256
    pad: 1
    kernel_size: 3
    stride: 1
  }
}
layer {
  name: "relu3_1"
  type: "ReLU"
  bottom: "conv3_1"
  top: "conv3_1"
}
layer {
  name: "conv3_2"
  type: "Convolution"
  bottom: "conv3_1"
  top: "conv3_2"
  param {
    lr_mult: 1
    decay_mult: 1
  }
  param {
    lr_mult: 2
    decay_mult: 0
  }
  convolution_param {
    num_output: 256
    pad: 1
    kernel_size: 3
    stride: 1
  }
}
layer {
  name: "relu3_2"
  type: "ReLU"
  bottom: "conv3_2"
  top: "conv3_2"
}
layer {
  name: "conv3_3"
  type: "Convolution"
  bottom: "conv3_2"
  top: "conv3_3"
  param {
    lr_mult: 1
    decay_mult: 1
  }
  param {
    lr_mult: 2
    decay_mult: 0
  }
  convolution_param {
    num_output: 256
    pad: 1
    kernel_size: 3
    stride: 1
  }
}
layer {
  name: "relu3_3"
  type: "ReLU"
  bottom: "conv3_3"
  top: "conv3_3"
}
layer {
  name: "pool3"
  type: "Pooling"
  bottom: "conv3_3"
  top: "pool3"
  pooling_param {
    pool: MAX
    kernel_size: 2
    stride: 2
  }
}
layer {
  name: "conv4_1"
  type: "Convolution"
  bottom: "pool3"
  top: "conv4_1"
  param {
    lr_mult: 1
    decay_mult: 1
  }
  param {
    lr_mult: 2
    decay_mult: 0
  }
  convolution_param {
    num_output: 512
    pad: 1
    kernel_size: 3
    stride: 1
  }
}
layer {
  name: "relu4_1"
  type: "ReLU"
  bottom: "conv4_1"
  top: "conv4_1"
}
layer {
  name: "conv4_2"
  type: "Convolution"
  bottom: "conv4_1"
  top: "conv4_2"
  param {
    lr_mult: 1
    decay_mult: 1
  }
  param {
    lr_mult: 2
    decay_mult: 0
  }
  convolution_param {
    num_output: 512
    pad: 1
    kernel_size: 3
    stride: 1
  }
}
layer {
  name: "relu4_2"
  type: "ReLU"
  bottom: "conv4_2"
  top: "conv4_2"
}
layer {
  name: "conv4_3"
  type: "Convolution"
  bottom: "conv4_2"
  top: "conv4_3"
  param {
    lr_mult: 1
    decay_mult: 1
  }
  param {
    lr_mult: 2
    decay_mult: 0
  }
  convolution_param {
    num_output: 512
    pad: 1
    kernel_size: 3
    stride: 1
  }
}
layer {
  name: "relu4_3"
  type: "ReLU"
  bottom: "conv4_3"
  top: "conv4_3"
}
layer {
  name: "pool4"
  type: "Pooling"
  bottom: "conv4_3"
  top: "pool4"
  pooling_param {
    pool: MAX
    kernel_size: 2
    stride: 2
  }
}
layer {
  name: "conv5_1"
  type: "Convolution"
  bottom: "pool4"
  top: "conv5_1"
  param {
    lr_mult: 1
    decay_mult: 1
  }
  param {
    lr_mult: 2
    decay_mult: 0
  }
  convolution_param {
    num_output: 512
    pad: 1
    kernel_size: 3
    stride: 1
  }
}
layer {
  name: "relu5_1"
  type: "ReLU"
  bottom: "conv5_1"
  top: "conv5_1"
}
layer {
  name: "conv5_2"
  type: "Convolution"
  bottom: "conv5_1"
  top: "conv5_2"
  param {
    lr_mult: 1
    decay_mult: 1
  }
  param {
    lr_mult: 2
    decay_mult: 0
  }
  convolution_param {
    num_output: 512
    pad: 1
    kernel_size: 3
    stride: 1
  }
}
layer {
  name: "relu5_2"
  type: "ReLU"
  bottom: "conv5_2"
  top: "conv5_2"
}
layer {
  name: "conv5_3"
  type: "Convolution"
  bottom: "conv5_2"
  top: "conv5_3"
  param {
    lr_mult: 1
    decay_mult: 1
  }
  param {
    lr_mult: 2
    decay_mult: 0
  }
  convolution_param {
    num_output: 512
    pad: 1
    kernel_size: 3
    stride: 1
  }
}
layer {
  name: "relu5_3"
  type: "ReLU"
  bottom: "conv5_3"
  top: "conv5_3"
}
layer {
  name: "pool5"
  type: "Pooling"
  bottom: "conv5_3"
  top: "pool5"
  pooling_param {
    pool: MAX
    kernel_size: 2
    stride: 2
  }
}
layer {
  name: "fc6"
  type: "Convolution"
  bottom: "pool5"
  top: "fc6"
  param {
    lr_mult: 1
    decay_mult: 1
  }
  param {
    lr_mult: 2
    decay_mult: 0
  }
  convolution_param {
    num_output: 4096
    pad: 0
    kernel_size: 7
    stride: 1
  }
}
layer {
  name: "relu6"
  type: "ReLU"
  bottom: "fc6"
  top: "fc6"
}
layer {
  name: "drop6"
  type: "Dropout"
  bottom: "fc6"
  top: "fc6"
  dropout_param {
    dropout_ratio: 0.5
  }
}
layer {
  name: "fc7"
  type: "Convolution"
  bottom: "fc6"
  top: "fc7"
  param {
    lr_mult: 1
    decay_mult: 1
  }
  param {
    lr_mult: 2
    decay_mult: 0
  }
  convolution_param {
    num_output: 4096
    pad: 0
    kernel_size: 1
    stride: 1
  }
}
layer {
  name: "relu7"
  type: "ReLU"
  bottom: "fc7"
  top: "fc7"
}
layer {
  name: "drop7"
  type: "Dropout"
  bottom: "fc7"
  top: "fc7"
  dropout_param {
    dropout_ratio: 0.5
  }
}
layer {
  name: "score_fr-new"
  type: "Convolution"
  bottom: "fc7"
  top: "score_fr-new"
  param {
    lr_mult: 1
    decay_mult: 1
  }
  param {
    lr_mult: 2
    decay_mult: 0
  }
  convolution_param {
    num_output: 3
    kernel_size: 1
  }
}
layer {
  name: "upscore2-new"
  type: "Deconvolution"
  bottom: "score_fr-new"
  top: "upscore2-new"
  param {
    lr_mult: 0
  }
  convolution_param {
    num_output: 3
    bias_term: false
    kernel_size: 4
    stride: 2
  }
}
layer {
  name: "score_pool4-new"
  type: "Convolution"
  bottom: "pool4"
  top: "score_pool4-new"
  param {
    lr_mult: 1
    decay_mult: 1
  }
  param {
    lr_mult: 2
    decay_mult: 0
  }
  convolution_param {
    num_output: 3
    pad: 0
    kernel_size: 1
  }
}
layer {
  name: "score_pool4c"
  type: "Crop"
  bottom: "score_pool4-new"
  bottom: "upscore2-new"
  top: "score_pool4c"
  crop_param {
    axis: 2
    offset: 5
  }
}
layer {
  name: "fuse_pool4"
  type: "Eltwise"
  bottom: "upscore2-new"
  bottom: "score_pool4c"
  top: "fuse_pool4"
  eltwise_param {
    operation: SUM
  }
}
layer {
  name: "upscore_pool4-new"
  type: "Deconvolution"
  bottom: "fuse_pool4"
  top: "upscore_pool4-new"
  param {
    lr_mult: 0
  }
  convolution_param {
    num_output: 3
    bias_term: false
    kernel_size: 4
    stride: 2
  }
}
layer {
  name: "score_pool3-new"
  type: "Convolution"
  bottom: "pool3"
  top: "score_pool3-new"
  param {
    lr_mult: 1
    decay_mult: 1
  }
  param {
    lr_mult: 2
    decay_mult: 0
  }
  convolution_param {
    num_output: 3
    pad: 0
    kernel_size: 1
  }
}
layer {
  name: "score_pool3c"
  type: "Crop"
  bottom: "score_pool3-new"
  bottom: "upscore_pool4-new"
  top: "score_pool3c"
  crop_param {
    axis: 2
    offset: 9
  }
}
layer {
  name: "fuse_pool3"
  type: "Eltwise"
  bottom: "upscore_pool4-new"
  bottom: "score_pool3c"
  top: "fuse_pool3"
  eltwise_param {
    operation: SUM
  }
}
layer {
  name: "upscore8-new"
  type: "Deconvolution"
  bottom: "fuse_pool3"
  top: "upscore8-new"
  param {
    lr_mult: 0
  }
  convolution_param {
    num_output: 3
    bias_term: false
    kernel_size: 16
    stride: 8
  }
}
layer {
  name: "upscore8_cropped"
  type: "Crop"
  bottom: "upscore8-new"
  bottom: "data"
  top: "upscore8_cropped"
  crop_param {
    axis: 2
    offset: 31
  }
}
layer {
  name: "prob"
  type: "Sigmoid"
  bottom: "upscore8_cropped"
  top: "prob"
}
layer {
  name: "saliency1"
  type: "Convolution"
  bottom: "prob"
  top: "saliency1"
  param {
    lr_mult: 10
    decay_mult: 1
  }
  param {
    lr_mult: 20
    decay_mult: 0
  }
  convolution_param {
    num_output: 3
    pad: 1
    kernel_size: 3
    stride: 1
    weight_filler {
      type: "xavier"
    }
    bias_filler {
      type: "constant"
      value: 1
    }
  }
}
layer {
  name: "relu_saliency1"
  type: "ReLU"
  bottom: "saliency1"
  top: "saliency1"
}
layer {
  name: "saliency"
  type: "Convolution"
  bottom: "saliency1"
  top: "saliency"
  param {
    lr_mult: 10
    decay_mult: 1
  }
  param {
    lr_mult: 20
    decay_mult: 0
  }
  convolution_param {
    num_output: 3
    pad: 2
    kernel_size: 5
    stride: 1
    weight_filler {
      type: "xavier"
    }
    bias_filler {
      type: "constant"
      value: 1
    }
  }
}
layer {
  name: "saliency_data"
  type: "Eltwise"
  bottom: "data"
  bottom: "saliency"
  top: "saliency_data"
  eltwise_param {
    operation: PROD
  }
}
layer {
  name: "crop"
  type: "Python"
  bottom: "prob"
  bottom: "saliency_data"
  bottom: "crop_margin"
  bottom: "crop_prob"
  bottom: "crop_sample_batch"
  bottom: "label"
  top: "data-R"
  top: "crop_info"
  python_param {
    module: "Crop"
    layer: "CropLayer"
    param_str: "{\"TEST\": 0}"
  }
}
layer {
  name: "conv1_1-R"
  type: "Convolution"
  bottom: "data-R"
  top: "conv1_1-R"
  param {
    lr_mult: 10
    decay_mult: 1
  }
  param {
    lr_mult: 20
    decay_mult: 0
  }
  convolution_param {
    num_output: 64
    pad: 100
    kernel_size: 3
    stride: 1
  }
}
layer {
  name: "relu1_1-R"
  type: "ReLU"
  bottom: "conv1_1-R"
  top: "conv1_1-R"
}
layer {
  name: "conv1_2-R"
  type: "Convolution"
  bottom: "conv1_1-R"
  top: "conv1_2-R"
  param {
    lr_mult: 10
    decay_mult: 1
  }
  param {
    lr_mult: 20
    decay_mult: 0
  }
  convolution_param {
    num_output: 64
    pad: 1
    kernel_size: 3
    stride: 1
  }
}
layer {
  name: "relu1_2-R"
  type: "ReLU"
  bottom: "conv1_2-R"
  top: "conv1_2-R"
}
layer {
  name: "pool1-R"
  type: "Pooling"
  bottom: "conv1_2-R"
  top: "pool1-R"
  pooling_param {
    pool: MAX
    kernel_size: 2
    stride: 2
  }
}
layer {
  name: "conv2_1-R"
  type: "Convolution"
  bottom: "pool1-R"
  top: "conv2_1-R"
  param {
    lr_mult: 10
    decay_mult: 1
  }
  param {
    lr_mult: 20
    decay_mult: 0
  }
  convolution_param {
    num_output: 128
    pad: 1
    kernel_size: 3
    stride: 1
  }
}
layer {
  name: "relu2_1-R"
  type: "ReLU"
  bottom: "conv2_1-R"
  top: "conv2_1-R"
}
layer {
  name: "conv2_2-R"
  type: "Convolution"
  bottom: "conv2_1-R"
  top: "conv2_2-R"
  param {
    lr_mult: 10
    decay_mult: 1
  }
  param {
    lr_mult: 20
    decay_mult: 0
  }
  convolution_param {
    num_output: 128
    pad: 1
    kernel_size: 3
    stride: 1
  }
}
layer {
  name: "relu2_2-R"
  type: "ReLU"
  bottom: "conv2_2-R"
  top: "conv2_2-R"
}
layer {
  name: "pool2-R"
  type: "Pooling"
  bottom: "conv2_2-R"
  top: "pool2-R"
  pooling_param {
    pool: MAX
    kernel_size: 2
    stride: 2
  }
}
layer {
  name: "conv3_1-R"
  type: "Convolution"
  bottom: "pool2-R"
  top: "conv3_1-R"
  param {
    lr_mult: 10
    decay_mult: 1
  }
  param {
    lr_mult: 20
    decay_mult: 0
  }
  convolution_param {
    num_output: 256
    pad: 1
    kernel_size: 3
    stride: 1
  }
}
layer {
  name: "relu3_1-R"
  type: "ReLU"
  bottom: "conv3_1-R"
  top: "conv3_1-R"
}
layer {
  name: "conv3_2-R"
  type: "Convolution"
  bottom: "conv3_1-R"
  top: "conv3_2-R"
  param {
    lr_mult: 10
    decay_mult: 1
  }
  param {
    lr_mult: 20
    decay_mult: 0
  }
  convolution_param {
    num_output: 256
    pad: 1
    kernel_size: 3
    stride: 1
  }
}
layer {
  name: "relu3_2-R"
  type: "ReLU"
  bottom: "conv3_2-R"
  top: "conv3_2-R"
}
layer {
  name: "conv3_3-R"
  type: "Convolution"
  bottom: "conv3_2-R"
  top: "conv3_3-R"
  param {
    lr_mult: 10
    decay_mult: 1
  }
  param {
    lr_mult: 20
    decay_mult: 0
  }
  convolution_param {
    num_output: 256
    pad: 1
    kernel_size: 3
    stride: 1
  }
}
layer {
  name: "relu3_3-R"
  type: "ReLU"
  bottom: "conv3_3-R"
  top: "conv3_3-R"
}
layer {
  name: "pool3-R"
  type: "Pooling"
  bottom: "conv3_3-R"
  top: "pool3-R"
  pooling_param {
    pool: MAX
    kernel_size: 2
    stride: 2
  }
}
layer {
  name: "conv4_1-R"
  type: "Convolution"
  bottom: "pool3-R"
  top: "conv4_1-R"
  param {
    lr_mult: 10
    decay_mult: 1
  }
  param {
    lr_mult: 20
    decay_mult: 0
  }
  convolution_param {
    num_output: 512
    pad: 1
    kernel_size: 3
    stride: 1
  }
}
layer {
  name: "relu4_1-R"
  type: "ReLU"
  bottom: "conv4_1-R"
  top: "conv4_1-R"
}
layer {
  name: "conv4_2-R"
  type: "Convolution"
  bottom: "conv4_1-R"
  top: "conv4_2-R"
  param {
    lr_mult: 10
    decay_mult: 1
  }
  param {
    lr_mult: 20
    decay_mult: 0
  }
  convolution_param {
    num_output: 512
    pad: 1
    kernel_size: 3
    stride: 1
  }
}
layer {
  name: "relu4_2-R"
  type: "ReLU"
  bottom: "conv4_2-R"
  top: "conv4_2-R"
}
layer {
  name: "conv4_3-R"
  type: "Convolution"
  bottom: "conv4_2-R"
  top: "conv4_3-R"
  param {
    lr_mult: 10
    decay_mult: 1
  }
  param {
    lr_mult: 20
    decay_mult: 0
  }
  convolution_param {
    num_output: 512
    pad: 1
    kernel_size: 3
    stride: 1
  }
}
layer {
  name: "relu4_3-R"
  type: "ReLU"
  bottom: "conv4_3-R"
  top: "conv4_3-R"
}
layer {
  name: "pool4-R"
  type: "Pooling"
  bottom: "conv4_3-R"
  top: "pool4-R"
  pooling_param {
    pool: MAX
    kernel_size: 2
    stride: 2
  }
}
layer {
  name: "conv5_1-R"
  type: "Convolution"
  bottom: "pool4-R"
  top: "conv5_1-R"
  param {
    lr_mult: 10
    decay_mult: 1
  }
  param {
    lr_mult: 20
    decay_mult: 0
  }
  convolution_param {
    num_output: 512
    pad: 1
    kernel_size: 3
    stride: 1
  }
}
layer {
  name: "relu5_1-R"
  type: "ReLU"
  bottom: "conv5_1-R"
  top: "conv5_1-R"
}
layer {
  name: "conv5_2-R"
  type: "Convolution"
  bottom: "conv5_1-R"
  top: "conv5_2-R"
  param {
    lr_mult: 10
    decay_mult: 1
  }
  param {
    lr_mult: 20
    decay_mult: 0
  }
  convolution_param {
    num_output: 512
    pad: 1
    kernel_size: 3
    stride: 1
  }
}
layer {
  name: "relu5_2-R"
  type: "ReLU"
  bottom: "conv5_2-R"
  top: "conv5_2-R"
}
layer {
  name: "conv5_3-R"
  type: "Convolution"
  bottom: "conv5_2-R"
  top: "conv5_3-R"
  param {
    lr_mult: 10
    decay_mult: 1
  }
  param {
    lr_mult: 20
    decay_mult: 0
  }
  convolution_param {
    num_output: 512
    pad: 1
    kernel_size: 3
    stride: 1
  }
}
layer {
  name: "relu5_3-R"
  type: "ReLU"
  bottom: "conv5_3-R"
  top: "conv5_3-R"
}
layer {
  name: "pool5-R"
  type: "Pooling"
  bottom: "conv5_3-R"
  top: "pool5-R"
  pooling_param {
    pool: MAX
    kernel_size: 2
    stride: 2
  }
}
layer {
  name: "fc6-R"
  type: "Convolution"
  bottom: "pool5-R"
  top: "fc6-R"
  param {
    lr_mult: 10
    decay_mult: 1
  }
  param {
    lr_mult: 20
    decay_mult: 0
  }
  convolution_param {
    num_output: 4096
    pad: 0
    kernel_size: 7
    stride: 1
  }
}
layer {
  name: "relu6-R"
  type: "ReLU"
  bottom: "fc6-R"
  top: "fc6-R"
}
layer {
  name: "drop6-R"
  type: "Dropout"
  bottom: "fc6-R"
  top: "fc6-R"
  dropout_param {
    dropout_ratio: 0.5
  }
}
layer {
  name: "fc7-R"
  type: "Convolution"
  bottom: "fc6-R"
  top: "fc7-R"
  param {
    lr_mult: 10
    decay_mult: 1
  }
  param {
    lr_mult: 20
    decay_mult: 0
  }
  convolution_param {
    num_output: 4096
    pad: 0
    kernel_size: 1
    stride: 1
  }
}
layer {
  name: "relu7-R"
  type: "ReLU"
  bottom: "fc7-R"
  top: "fc7-R"
}
layer {
  name: "drop7-R"
  type: "Dropout"
  bottom: "fc7-R"
  top: "fc7-R"
  dropout_param {
    dropout_ratio: 0.5
  }
}
layer {
  name: "score_fr-new-R"
  type: "Convolution"
  bottom: "fc7-R"
  top: "score_fr-new-R"
  param {
    lr_mult: 10
    decay_mult: 1
  }
  param {
    lr_mult: 20
    decay_mult: 0
  }
  convolution_param {
    num_output: 3
    kernel_size: 1
  }
}
layer {
  name: "upscore2-new-R"
  type: "Deconvolution"
  bottom: "score_fr-new-R"
  top: "upscore2-new-R"
  param {
    lr_mult: 0
  }
  convolution_param {
    num_output: 3
    bias_term: false
    kernel_size: 4
    stride: 2
  }
}
layer {
  name: "score_pool4-new-R"
  type: "Convolution"
  bottom: "pool4-R"
  top: "score_pool4-new-R"
  param {
    lr_mult: 10
    decay_mult: 1
  }
  param {
    lr_mult: 20
    decay_mult: 0
  }
  convolution_param {
    num_output: 3
    pad: 0
    kernel_size: 1
  }
}
layer {
  name: "score_pool4c-R"
  type: "Crop"
  bottom: "score_pool4-new-R"
  bottom: "upscore2-new-R"
  top: "score_pool4c-R"
  crop_param {
    axis: 2
    offset: 5
  }
}
layer {
  name: "fuse_pool4-R"
  type: "Eltwise"
  bottom: "upscore2-new-R"
  bottom: "score_pool4c-R"
  top: "fuse_pool4-R"
  eltwise_param {
    operation: SUM
  }
}
layer {
  name: "upscore_pool4-new-R"
  type: "Deconvolution"
  bottom: "fuse_pool4-R"
  top: "upscore_pool4-new-R"
  param {
    lr_mult: 0
  }
  convolution_param {
    num_output: 3
    bias_term: false
    kernel_size: 4
    stride: 2
  }
}
layer {
  name: "score_pool3-new-R"
  type: "Convolution"
  bottom: "pool3-R"
  top: "score_pool3-new-R"
  param {
    lr_mult: 10
    decay_mult: 1
  }
  param {
    lr_mult: 20
    decay_mult: 0
  }
  convolution_param {
    num_output: 3
    pad: 0
    kernel_size: 1
  }
}
layer {
  name: "score_pool3c-R"
  type: "Crop"
  bottom: "score_pool3-new-R"
  bottom: "upscore_pool4-new-R"
  top: "score_pool3c-R"
  crop_param {
    axis: 2
    offset: 9
  }
}
layer {
  name: "fuse_pool3-R"
  type: "Eltwise"
  bottom: "upscore_pool4-new-R"
  bottom: "score_pool3c-R"
  top: "fuse_pool3-R"
  eltwise_param {
    operation: SUM
  }
}
layer {
  name: "upscore8-new-R"
  type: "Deconvolution"
  bottom: "fuse_pool3-R"
  top: "upscore8-new-R"
  param {
    lr_mult: 0
  }
  convolution_param {
    num_output: 3
    bias_term: false
    kernel_size: 16
    stride: 8
  }
}
layer {
  name: "upscore8_cropped-R"
  type: "Crop"
  bottom: "upscore8-new-R"
  bottom: "data-R"
  top: "upscore8_cropped-R"
  crop_param {
    axis: 2
    offset: 31
  }
}
layer {
  name: "upscore8_uncropped-R"
  type: "Python"
  bottom: "crop_info"
  bottom: "upscore8_cropped-R"
  bottom: "data"
  top: "upscore8_uncropped-R"
  python_param {
    module: "Uncrop"
    layer: "UncropLayer"
  }
}
layer {
  name: "loss1"
  type: "DiceLoss"
  bottom: "upscore8_cropped"
  bottom: "label"
  top: "loss1"
  loss_weight: 0.333333
}
layer {
  name: "loss2"
  type: "DiceLoss"
  bottom: "upscore8_uncropped-R"
  bottom: "label"
  top: "loss2"
  loss_weight: 0.666667
}
I0716 03:44:33.822585 15421 layer_factory.hpp:77] Creating layer data
I0716 03:44:33.822908 15421 net.cpp:84] Creating Layer data
I0716 03:44:33.822926 15421 net.cpp:380] data -> data
I0716 03:44:33.822947 15421 net.cpp:380] data -> label
I0716 03:44:33.822957 15421 net.cpp:380] data -> crop_margin
I0716 03:44:33.822966 15421 net.cpp:380] data -> crop_prob
I0716 03:44:33.822993 15421 net.cpp:380] data -> crop_sample_batch
I0716 03:44:33.897141 15421 net.cpp:122] Setting up data
I0716 03:44:33.897179 15421 net.cpp:129] Top shape: 1 3 512 512 (786432)
I0716 03:44:33.897187 15421 net.cpp:129] Top shape: 1 3 512 512 (786432)
I0716 03:44:33.897192 15421 net.cpp:129] Top shape: 1 (1)
I0716 03:44:33.897194 15421 net.cpp:129] Top shape: 1 (1)
I0716 03:44:33.897198 15421 net.cpp:129] Top shape: 1 (1)
I0716 03:44:33.897202 15421 net.cpp:137] Memory required for data: 6291468
I0716 03:44:33.897209 15421 layer_factory.hpp:77] Creating layer data_data_0_split
I0716 03:44:33.897245 15421 net.cpp:84] Creating Layer data_data_0_split
I0716 03:44:33.897251 15421 net.cpp:406] data_data_0_split <- data
I0716 03:44:33.897261 15421 net.cpp:380] data_data_0_split -> data_data_0_split_0
I0716 03:44:33.897272 15421 net.cpp:380] data_data_0_split -> data_data_0_split_1
I0716 03:44:33.897279 15421 net.cpp:380] data_data_0_split -> data_data_0_split_2
I0716 03:44:33.897284 15421 net.cpp:380] data_data_0_split -> data_data_0_split_3
I0716 03:44:33.897331 15421 net.cpp:122] Setting up data_data_0_split
I0716 03:44:33.897339 15421 net.cpp:129] Top shape: 1 3 512 512 (786432)
I0716 03:44:33.897343 15421 net.cpp:129] Top shape: 1 3 512 512 (786432)
I0716 03:44:33.897347 15421 net.cpp:129] Top shape: 1 3 512 512 (786432)
I0716 03:44:33.897351 15421 net.cpp:129] Top shape: 1 3 512 512 (786432)
I0716 03:44:33.897354 15421 net.cpp:137] Memory required for data: 18874380
I0716 03:44:33.897357 15421 layer_factory.hpp:77] Creating layer label_data_1_split
I0716 03:44:33.897364 15421 net.cpp:84] Creating Layer label_data_1_split
I0716 03:44:33.897368 15421 net.cpp:406] label_data_1_split <- label
I0716 03:44:33.897372 15421 net.cpp:380] label_data_1_split -> label_data_1_split_0
I0716 03:44:33.897378 15421 net.cpp:380] label_data_1_split -> label_data_1_split_1
I0716 03:44:33.897383 15421 net.cpp:380] label_data_1_split -> label_data_1_split_2
I0716 03:44:33.897433 15421 net.cpp:122] Setting up label_data_1_split
I0716 03:44:33.897439 15421 net.cpp:129] Top shape: 1 3 512 512 (786432)
I0716 03:44:33.897444 15421 net.cpp:129] Top shape: 1 3 512 512 (786432)
I0716 03:44:33.897447 15421 net.cpp:129] Top shape: 1 3 512 512 (786432)
I0716 03:44:33.897450 15421 net.cpp:137] Memory required for data: 28311564
I0716 03:44:33.897455 15421 layer_factory.hpp:77] Creating layer conv1_1
I0716 03:44:33.897475 15421 net.cpp:84] Creating Layer conv1_1
I0716 03:44:33.897497 15421 net.cpp:406] conv1_1 <- data_data_0_split_0
I0716 03:44:33.897502 15421 net.cpp:380] conv1_1 -> conv1_1
I0716 03:44:34.265413 15421 net.cpp:122] Setting up conv1_1
I0716 03:44:34.265470 15421 net.cpp:129] Top shape: 1 64 710 710 (32262400)
I0716 03:44:34.265476 15421 net.cpp:137] Memory required for data: 157361164
I0716 03:44:34.265513 15421 layer_factory.hpp:77] Creating layer relu1_1
I0716 03:44:34.265547 15421 net.cpp:84] Creating Layer relu1_1
I0716 03:44:34.265553 15421 net.cpp:406] relu1_1 <- conv1_1
I0716 03:44:34.265563 15421 net.cpp:367] relu1_1 -> conv1_1 (in-place)
I0716 03:44:34.265794 15421 net.cpp:122] Setting up relu1_1
I0716 03:44:34.265805 15421 net.cpp:129] Top shape: 1 64 710 710 (32262400)
I0716 03:44:34.265810 15421 net.cpp:137] Memory required for data: 286410764
I0716 03:44:34.265815 15421 layer_factory.hpp:77] Creating layer conv1_2
I0716 03:44:34.265836 15421 net.cpp:84] Creating Layer conv1_2
I0716 03:44:34.265842 15421 net.cpp:406] conv1_2 <- conv1_1
I0716 03:44:34.265849 15421 net.cpp:380] conv1_2 -> conv1_2
I0716 03:44:34.271067 15421 net.cpp:122] Setting up conv1_2
I0716 03:44:34.271102 15421 net.cpp:129] Top shape: 1 64 710 710 (32262400)
I0716 03:44:34.271108 15421 net.cpp:137] Memory required for data: 415460364
I0716 03:44:34.271122 15421 layer_factory.hpp:77] Creating layer relu1_2
I0716 03:44:34.271144 15421 net.cpp:84] Creating Layer relu1_2
I0716 03:44:34.271150 15421 net.cpp:406] relu1_2 <- conv1_2
I0716 03:44:34.271158 15421 net.cpp:367] relu1_2 -> conv1_2 (in-place)
I0716 03:44:34.271428 15421 net.cpp:122] Setting up relu1_2
I0716 03:44:34.271445 15421 net.cpp:129] Top shape: 1 64 710 710 (32262400)
I0716 03:44:34.271450 15421 net.cpp:137] Memory required for data: 544509964
I0716 03:44:34.271463 15421 layer_factory.hpp:77] Creating layer pool1
I0716 03:44:34.271489 15421 net.cpp:84] Creating Layer pool1
I0716 03:44:34.271495 15421 net.cpp:406] pool1 <- conv1_2
I0716 03:44:34.271503 15421 net.cpp:380] pool1 -> pool1
I0716 03:44:34.271570 15421 net.cpp:122] Setting up pool1
I0716 03:44:34.271582 15421 net.cpp:129] Top shape: 1 64 355 355 (8065600)
I0716 03:44:34.271586 15421 net.cpp:137] Memory required for data: 576772364
I0716 03:44:34.271591 15421 layer_factory.hpp:77] Creating layer conv2_1
I0716 03:44:34.271613 15421 net.cpp:84] Creating Layer conv2_1
I0716 03:44:34.271620 15421 net.cpp:406] conv2_1 <- pool1
I0716 03:44:34.271636 15421 net.cpp:380] conv2_1 -> conv2_1
I0716 03:44:34.275606 15421 net.cpp:122] Setting up conv2_1
I0716 03:44:34.275625 15421 net.cpp:129] Top shape: 1 128 355 355 (16131200)
I0716 03:44:34.275640 15421 net.cpp:137] Memory required for data: 641297164
I0716 03:44:34.275651 15421 layer_factory.hpp:77] Creating layer relu2_1
I0716 03:44:34.275669 15421 net.cpp:84] Creating Layer relu2_1
I0716 03:44:34.275674 15421 net.cpp:406] relu2_1 <- conv2_1
I0716 03:44:34.275681 15421 net.cpp:367] relu2_1 -> conv2_1 (in-place)
I0716 03:44:34.275887 15421 net.cpp:122] Setting up relu2_1
I0716 03:44:34.275898 15421 net.cpp:129] Top shape: 1 128 355 355 (16131200)
I0716 03:44:34.275903 15421 net.cpp:137] Memory required for data: 705821964
I0716 03:44:34.275907 15421 layer_factory.hpp:77] Creating layer conv2_2
I0716 03:44:34.275925 15421 net.cpp:84] Creating Layer conv2_2
I0716 03:44:34.275930 15421 net.cpp:406] conv2_2 <- conv2_1
I0716 03:44:34.275949 15421 net.cpp:380] conv2_2 -> conv2_2
I0716 03:44:34.278020 15421 net.cpp:122] Setting up conv2_2
I0716 03:44:34.278038 15421 net.cpp:129] Top shape: 1 128 355 355 (16131200)
I0716 03:44:34.278043 15421 net.cpp:137] Memory required for data: 770346764
I0716 03:44:34.278065 15421 layer_factory.hpp:77] Creating layer relu2_2
I0716 03:44:34.278079 15421 net.cpp:84] Creating Layer relu2_2
I0716 03:44:34.278084 15421 net.cpp:406] relu2_2 <- conv2_2
I0716 03:44:34.278090 15421 net.cpp:367] relu2_2 -> conv2_2 (in-place)
I0716 03:44:34.278322 15421 net.cpp:122] Setting up relu2_2
I0716 03:44:34.278334 15421 net.cpp:129] Top shape: 1 128 355 355 (16131200)
I0716 03:44:34.278339 15421 net.cpp:137] Memory required for data: 834871564
I0716 03:44:34.278343 15421 layer_factory.hpp:77] Creating layer pool2
I0716 03:44:34.278367 15421 net.cpp:84] Creating Layer pool2
I0716 03:44:34.278370 15421 net.cpp:406] pool2 <- conv2_2
I0716 03:44:34.278379 15421 net.cpp:380] pool2 -> pool2
I0716 03:44:34.278431 15421 net.cpp:122] Setting up pool2
I0716 03:44:34.278443 15421 net.cpp:129] Top shape: 1 128 178 178 (4055552)
I0716 03:44:34.278447 15421 net.cpp:137] Memory required for data: 851093772
I0716 03:44:34.278451 15421 layer_factory.hpp:77] Creating layer conv3_1
I0716 03:44:34.278466 15421 net.cpp:84] Creating Layer conv3_1
I0716 03:44:34.278471 15421 net.cpp:406] conv3_1 <- pool2
I0716 03:44:34.278481 15421 net.cpp:380] conv3_1 -> conv3_1
I0716 03:44:34.282990 15421 net.cpp:122] Setting up conv3_1
I0716 03:44:34.283010 15421 net.cpp:129] Top shape: 1 256 178 178 (8111104)
I0716 03:44:34.283015 15421 net.cpp:137] Memory required for data: 883538188
I0716 03:44:34.283030 15421 layer_factory.hpp:77] Creating layer relu3_1
I0716 03:44:34.283051 15421 net.cpp:84] Creating Layer relu3_1
I0716 03:44:34.283056 15421 net.cpp:406] relu3_1 <- conv3_1
I0716 03:44:34.283062 15421 net.cpp:367] relu3_1 -> conv3_1 (in-place)
I0716 03:44:34.284616 15421 net.cpp:122] Setting up relu3_1
I0716 03:44:34.284636 15421 net.cpp:129] Top shape: 1 256 178 178 (8111104)
I0716 03:44:34.284641 15421 net.cpp:137] Memory required for data: 915982604
I0716 03:44:34.284663 15421 layer_factory.hpp:77] Creating layer conv3_2
I0716 03:44:34.284685 15421 net.cpp:84] Creating Layer conv3_2
I0716 03:44:34.284690 15421 net.cpp:406] conv3_2 <- conv3_1
I0716 03:44:34.284701 15421 net.cpp:380] conv3_2 -> conv3_2
I0716 03:44:34.288475 15421 net.cpp:122] Setting up conv3_2
I0716 03:44:34.288496 15421 net.cpp:129] Top shape: 1 256 178 178 (8111104)
I0716 03:44:34.288512 15421 net.cpp:137] Memory required for data: 948427020
I0716 03:44:34.288522 15421 layer_factory.hpp:77] Creating layer relu3_2
I0716 03:44:34.288540 15421 net.cpp:84] Creating Layer relu3_2
I0716 03:44:34.288545 15421 net.cpp:406] relu3_2 <- conv3_2
I0716 03:44:34.288556 15421 net.cpp:367] relu3_2 -> conv3_2 (in-place)
I0716 03:44:34.289326 15421 net.cpp:122] Setting up relu3_2
I0716 03:44:34.289345 15421 net.cpp:129] Top shape: 1 256 178 178 (8111104)
I0716 03:44:34.289350 15421 net.cpp:137] Memory required for data: 980871436
I0716 03:44:34.289355 15421 layer_factory.hpp:77] Creating layer conv3_3
I0716 03:44:34.289367 15421 net.cpp:84] Creating Layer conv3_3
I0716 03:44:34.289373 15421 net.cpp:406] conv3_3 <- conv3_2
I0716 03:44:34.289381 15421 net.cpp:380] conv3_3 -> conv3_3
I0716 03:44:34.294610 15421 net.cpp:122] Setting up conv3_3
I0716 03:44:34.294633 15421 net.cpp:129] Top shape: 1 256 178 178 (8111104)
I0716 03:44:34.294651 15421 net.cpp:137] Memory required for data: 1013315852
I0716 03:44:34.294664 15421 layer_factory.hpp:77] Creating layer relu3_3
I0716 03:44:34.294673 15421 net.cpp:84] Creating Layer relu3_3
I0716 03:44:34.294679 15421 net.cpp:406] relu3_3 <- conv3_3
I0716 03:44:34.294703 15421 net.cpp:367] relu3_3 -> conv3_3 (in-place)
I0716 03:44:34.294977 15421 net.cpp:122] Setting up relu3_3
I0716 03:44:34.294991 15421 net.cpp:129] Top shape: 1 256 178 178 (8111104)
I0716 03:44:34.294996 15421 net.cpp:137] Memory required for data: 1045760268
I0716 03:44:34.295011 15421 layer_factory.hpp:77] Creating layer pool3
I0716 03:44:34.295025 15421 net.cpp:84] Creating Layer pool3
I0716 03:44:34.295032 15421 net.cpp:406] pool3 <- conv3_3
I0716 03:44:34.295040 15421 net.cpp:380] pool3 -> pool3
I0716 03:44:34.295102 15421 net.cpp:122] Setting up pool3
I0716 03:44:34.295114 15421 net.cpp:129] Top shape: 1 256 89 89 (2027776)
I0716 03:44:34.295117 15421 net.cpp:137] Memory required for data: 1053871372
I0716 03:44:34.295122 15421 layer_factory.hpp:77] Creating layer pool3_pool3_0_split
I0716 03:44:34.295130 15421 net.cpp:84] Creating Layer pool3_pool3_0_split
I0716 03:44:34.295135 15421 net.cpp:406] pool3_pool3_0_split <- pool3
I0716 03:44:34.295141 15421 net.cpp:380] pool3_pool3_0_split -> pool3_pool3_0_split_0
I0716 03:44:34.295150 15421 net.cpp:380] pool3_pool3_0_split -> pool3_pool3_0_split_1
I0716 03:44:34.295197 15421 net.cpp:122] Setting up pool3_pool3_0_split
I0716 03:44:34.295207 15421 net.cpp:129] Top shape: 1 256 89 89 (2027776)
I0716 03:44:34.295212 15421 net.cpp:129] Top shape: 1 256 89 89 (2027776)
I0716 03:44:34.295217 15421 net.cpp:137] Memory required for data: 1070093580
I0716 03:44:34.295222 15421 layer_factory.hpp:77] Creating layer conv4_1
I0716 03:44:34.295233 15421 net.cpp:84] Creating Layer conv4_1
I0716 03:44:34.295238 15421 net.cpp:406] conv4_1 <- pool3_pool3_0_split_0
I0716 03:44:34.295246 15421 net.cpp:380] conv4_1 -> conv4_1
I0716 03:44:34.305511 15421 net.cpp:122] Setting up conv4_1
I0716 03:44:34.305553 15421 net.cpp:129] Top shape: 1 512 89 89 (4055552)
I0716 03:44:34.305559 15421 net.cpp:137] Memory required for data: 1086315788
I0716 03:44:34.305570 15421 layer_factory.hpp:77] Creating layer relu4_1
I0716 03:44:34.305582 15421 net.cpp:84] Creating Layer relu4_1
I0716 03:44:34.305588 15421 net.cpp:406] relu4_1 <- conv4_1
I0716 03:44:34.305609 15421 net.cpp:367] relu4_1 -> conv4_1 (in-place)
I0716 03:44:34.305876 15421 net.cpp:122] Setting up relu4_1
I0716 03:44:34.305889 15421 net.cpp:129] Top shape: 1 512 89 89 (4055552)
I0716 03:44:34.305893 15421 net.cpp:137] Memory required for data: 1102537996
I0716 03:44:34.305917 15421 layer_factory.hpp:77] Creating layer conv4_2
I0716 03:44:34.305938 15421 net.cpp:84] Creating Layer conv4_2
I0716 03:44:34.305956 15421 net.cpp:406] conv4_2 <- conv4_1
I0716 03:44:34.305964 15421 net.cpp:380] conv4_2 -> conv4_2
I0716 03:44:34.318506 15421 net.cpp:122] Setting up conv4_2
I0716 03:44:34.318562 15421 net.cpp:129] Top shape: 1 512 89 89 (4055552)
I0716 03:44:34.318568 15421 net.cpp:137] Memory required for data: 1118760204
I0716 03:44:34.318593 15421 layer_factory.hpp:77] Creating layer relu4_2
I0716 03:44:34.318608 15421 net.cpp:84] Creating Layer relu4_2
I0716 03:44:34.318614 15421 net.cpp:406] relu4_2 <- conv4_2
I0716 03:44:34.318625 15421 net.cpp:367] relu4_2 -> conv4_2 (in-place)
I0716 03:44:34.318899 15421 net.cpp:122] Setting up relu4_2
I0716 03:44:34.318913 15421 net.cpp:129] Top shape: 1 512 89 89 (4055552)
I0716 03:44:34.318917 15421 net.cpp:137] Memory required for data: 1134982412
I0716 03:44:34.318922 15421 layer_factory.hpp:77] Creating layer conv4_3
I0716 03:44:34.318939 15421 net.cpp:84] Creating Layer conv4_3
I0716 03:44:34.318944 15421 net.cpp:406] conv4_3 <- conv4_2
I0716 03:44:34.318953 15421 net.cpp:380] conv4_3 -> conv4_3
I0716 03:44:34.330008 15421 net.cpp:122] Setting up conv4_3
I0716 03:44:34.330066 15421 net.cpp:129] Top shape: 1 512 89 89 (4055552)
I0716 03:44:34.330072 15421 net.cpp:137] Memory required for data: 1151204620
I0716 03:44:34.330087 15421 layer_factory.hpp:77] Creating layer relu4_3
I0716 03:44:34.330106 15421 net.cpp:84] Creating Layer relu4_3
I0716 03:44:34.330116 15421 net.cpp:406] relu4_3 <- conv4_3
I0716 03:44:34.330127 15421 net.cpp:367] relu4_3 -> conv4_3 (in-place)
I0716 03:44:34.330400 15421 net.cpp:122] Setting up relu4_3
I0716 03:44:34.330417 15421 net.cpp:129] Top shape: 1 512 89 89 (4055552)
I0716 03:44:34.330423 15421 net.cpp:137] Memory required for data: 1167426828
I0716 03:44:34.330449 15421 layer_factory.hpp:77] Creating layer pool4
I0716 03:44:34.330472 15421 net.cpp:84] Creating Layer pool4
I0716 03:44:34.330478 15421 net.cpp:406] pool4 <- conv4_3
I0716 03:44:34.330487 15421 net.cpp:380] pool4 -> pool4
I0716 03:44:34.330560 15421 net.cpp:122] Setting up pool4
I0716 03:44:34.330571 15421 net.cpp:129] Top shape: 1 512 45 45 (1036800)
I0716 03:44:34.330576 15421 net.cpp:137] Memory required for data: 1171574028
I0716 03:44:34.330581 15421 layer_factory.hpp:77] Creating layer pool4_pool4_0_split
I0716 03:44:34.330590 15421 net.cpp:84] Creating Layer pool4_pool4_0_split
I0716 03:44:34.330595 15421 net.cpp:406] pool4_pool4_0_split <- pool4
I0716 03:44:34.330605 15421 net.cpp:380] pool4_pool4_0_split -> pool4_pool4_0_split_0
I0716 03:44:34.330615 15421 net.cpp:380] pool4_pool4_0_split -> pool4_pool4_0_split_1
I0716 03:44:34.330668 15421 net.cpp:122] Setting up pool4_pool4_0_split
I0716 03:44:34.330679 15421 net.cpp:129] Top shape: 1 512 45 45 (1036800)
I0716 03:44:34.330687 15421 net.cpp:129] Top shape: 1 512 45 45 (1036800)
I0716 03:44:34.330690 15421 net.cpp:137] Memory required for data: 1179868428
I0716 03:44:34.330695 15421 layer_factory.hpp:77] Creating layer conv5_1
I0716 03:44:34.330713 15421 net.cpp:84] Creating Layer conv5_1
I0716 03:44:34.330719 15421 net.cpp:406] conv5_1 <- pool4_pool4_0_split_0
I0716 03:44:34.330727 15421 net.cpp:380] conv5_1 -> conv5_1
I0716 03:44:34.342182 15421 net.cpp:122] Setting up conv5_1
I0716 03:44:34.342236 15421 net.cpp:129] Top shape: 1 512 45 45 (1036800)
I0716 03:44:34.342241 15421 net.cpp:137] Memory required for data: 1184015628
I0716 03:44:34.342252 15421 layer_factory.hpp:77] Creating layer relu5_1
I0716 03:44:34.342286 15421 net.cpp:84] Creating Layer relu5_1
I0716 03:44:34.342293 15421 net.cpp:406] relu5_1 <- conv5_1
I0716 03:44:34.342301 15421 net.cpp:367] relu5_1 -> conv5_1 (in-place)
I0716 03:44:34.343195 15421 net.cpp:122] Setting up relu5_1
I0716 03:44:34.343211 15421 net.cpp:129] Top shape: 1 512 45 45 (1036800)
I0716 03:44:34.343226 15421 net.cpp:137] Memory required for data: 1188162828
I0716 03:44:34.343231 15421 layer_factory.hpp:77] Creating layer conv5_2
I0716 03:44:34.343250 15421 net.cpp:84] Creating Layer conv5_2
I0716 03:44:34.343255 15421 net.cpp:406] conv5_2 <- conv5_1
I0716 03:44:34.343262 15421 net.cpp:380] conv5_2 -> conv5_2
I0716 03:44:34.351836 15421 net.cpp:122] Setting up conv5_2
I0716 03:44:34.351861 15421 net.cpp:129] Top shape: 1 512 45 45 (1036800)
I0716 03:44:34.351874 15421 net.cpp:137] Memory required for data: 1192310028
I0716 03:44:34.351886 15421 layer_factory.hpp:77] Creating layer relu5_2
I0716 03:44:34.351904 15421 net.cpp:84] Creating Layer relu5_2
I0716 03:44:34.351910 15421 net.cpp:406] relu5_2 <- conv5_2
I0716 03:44:34.351917 15421 net.cpp:367] relu5_2 -> conv5_2 (in-place)
I0716 03:44:34.352815 15421 net.cpp:122] Setting up relu5_2
I0716 03:44:34.352833 15421 net.cpp:129] Top shape: 1 512 45 45 (1036800)
I0716 03:44:34.352849 15421 net.cpp:137] Memory required for data: 1196457228
I0716 03:44:34.352854 15421 layer_factory.hpp:77] Creating layer conv5_3
I0716 03:44:34.352883 15421 net.cpp:84] Creating Layer conv5_3
I0716 03:44:34.352890 15421 net.cpp:406] conv5_3 <- conv5_2
I0716 03:44:34.352910 15421 net.cpp:380] conv5_3 -> conv5_3
I0716 03:44:34.367748 15421 net.cpp:122] Setting up conv5_3
I0716 03:44:34.367776 15421 net.cpp:129] Top shape: 1 512 45 45 (1036800)
I0716 03:44:34.367789 15421 net.cpp:137] Memory required for data: 1200604428
I0716 03:44:34.367800 15421 layer_factory.hpp:77] Creating layer relu5_3
I0716 03:44:34.367810 15421 net.cpp:84] Creating Layer relu5_3
I0716 03:44:34.367815 15421 net.cpp:406] relu5_3 <- conv5_3
I0716 03:44:34.367827 15421 net.cpp:367] relu5_3 -> conv5_3 (in-place)
I0716 03:44:34.368067 15421 net.cpp:122] Setting up relu5_3
I0716 03:44:34.368078 15421 net.cpp:129] Top shape: 1 512 45 45 (1036800)
I0716 03:44:34.368083 15421 net.cpp:137] Memory required for data: 1204751628
I0716 03:44:34.368103 15421 layer_factory.hpp:77] Creating layer pool5
I0716 03:44:34.368115 15421 net.cpp:84] Creating Layer pool5
I0716 03:44:34.368120 15421 net.cpp:406] pool5 <- conv5_3
I0716 03:44:34.368127 15421 net.cpp:380] pool5 -> pool5
I0716 03:44:34.368183 15421 net.cpp:122] Setting up pool5
I0716 03:44:34.368193 15421 net.cpp:129] Top shape: 1 512 23 23 (270848)
I0716 03:44:34.368197 15421 net.cpp:137] Memory required for data: 1205835020
I0716 03:44:34.368201 15421 layer_factory.hpp:77] Creating layer fc6
I0716 03:44:34.368214 15421 net.cpp:84] Creating Layer fc6
I0716 03:44:34.368219 15421 net.cpp:406] fc6 <- pool5
I0716 03:44:34.368227 15421 net.cpp:380] fc6 -> fc6
I0716 03:44:34.665765 15421 net.cpp:122] Setting up fc6
I0716 03:44:34.665866 15421 net.cpp:129] Top shape: 1 4096 17 17 (1183744)
I0716 03:44:34.665879 15421 net.cpp:137] Memory required for data: 1210569996
I0716 03:44:34.665910 15421 layer_factory.hpp:77] Creating layer relu6
I0716 03:44:34.665943 15421 net.cpp:84] Creating Layer relu6
I0716 03:44:34.665972 15421 net.cpp:406] relu6 <- fc6
I0716 03:44:34.665998 15421 net.cpp:367] relu6 -> fc6 (in-place)
I0716 03:44:34.666518 15421 net.cpp:122] Setting up relu6
I0716 03:44:34.666538 15421 net.cpp:129] Top shape: 1 4096 17 17 (1183744)
I0716 03:44:34.666545 15421 net.cpp:137] Memory required for data: 1215304972
I0716 03:44:34.666553 15421 layer_factory.hpp:77] Creating layer drop6
I0716 03:44:34.666587 15421 net.cpp:84] Creating Layer drop6
I0716 03:44:34.666595 15421 net.cpp:406] drop6 <- fc6
I0716 03:44:34.666606 15421 net.cpp:367] drop6 -> fc6 (in-place)
I0716 03:44:34.666692 15421 net.cpp:122] Setting up drop6
I0716 03:44:34.666707 15421 net.cpp:129] Top shape: 1 4096 17 17 (1183744)
I0716 03:44:34.666714 15421 net.cpp:137] Memory required for data: 1220039948
I0716 03:44:34.666743 15421 layer_factory.hpp:77] Creating layer fc7
I0716 03:44:34.666764 15421 net.cpp:84] Creating Layer fc7
I0716 03:44:34.666770 15421 net.cpp:406] fc7 <- fc6
I0716 03:44:34.666782 15421 net.cpp:380] fc7 -> fc7
I0716 03:44:34.730871 15421 net.cpp:122] Setting up fc7
I0716 03:44:34.730909 15421 net.cpp:129] Top shape: 1 4096 17 17 (1183744)
I0716 03:44:34.730914 15421 net.cpp:137] Memory required for data: 1224774924
I0716 03:44:34.730924 15421 layer_factory.hpp:77] Creating layer relu7
I0716 03:44:34.730938 15421 net.cpp:84] Creating Layer relu7
I0716 03:44:34.730942 15421 net.cpp:406] relu7 <- fc7
I0716 03:44:34.730967 15421 net.cpp:367] relu7 -> fc7 (in-place)
I0716 03:44:34.732348 15421 net.cpp:122] Setting up relu7
I0716 03:44:34.732367 15421 net.cpp:129] Top shape: 1 4096 17 17 (1183744)
I0716 03:44:34.732370 15421 net.cpp:137] Memory required for data: 1229509900
I0716 03:44:34.732374 15421 layer_factory.hpp:77] Creating layer drop7
I0716 03:44:34.732381 15421 net.cpp:84] Creating Layer drop7
I0716 03:44:34.732385 15421 net.cpp:406] drop7 <- fc7
I0716 03:44:34.732389 15421 net.cpp:367] drop7 -> fc7 (in-place)
I0716 03:44:34.732437 15421 net.cpp:122] Setting up drop7
I0716 03:44:34.732444 15421 net.cpp:129] Top shape: 1 4096 17 17 (1183744)
I0716 03:44:34.732446 15421 net.cpp:137] Memory required for data: 1234244876
I0716 03:44:34.732450 15421 layer_factory.hpp:77] Creating layer score_fr-new
I0716 03:44:34.732463 15421 net.cpp:84] Creating Layer score_fr-new
I0716 03:44:34.732471 15421 net.cpp:406] score_fr-new <- fc7
I0716 03:44:34.732496 15421 net.cpp:380] score_fr-new -> score_fr-new
I0716 03:44:34.733758 15421 net.cpp:122] Setting up score_fr-new
I0716 03:44:34.733772 15421 net.cpp:129] Top shape: 1 3 17 17 (867)
I0716 03:44:34.733774 15421 net.cpp:137] Memory required for data: 1234248344
I0716 03:44:34.733780 15421 layer_factory.hpp:77] Creating layer upscore2-new
I0716 03:44:34.733798 15421 net.cpp:84] Creating Layer upscore2-new
I0716 03:44:34.733804 15421 net.cpp:406] upscore2-new <- score_fr-new
I0716 03:44:34.733825 15421 net.cpp:380] upscore2-new -> upscore2-new
I0716 03:44:34.734071 15421 net.cpp:122] Setting up upscore2-new
I0716 03:44:34.734081 15421 net.cpp:129] Top shape: 1 3 36 36 (3888)
I0716 03:44:34.734083 15421 net.cpp:137] Memory required for data: 1234263896
I0716 03:44:34.734098 15421 layer_factory.hpp:77] Creating layer upscore2-new_upscore2-new_0_split
I0716 03:44:34.734105 15421 net.cpp:84] Creating Layer upscore2-new_upscore2-new_0_split
I0716 03:44:34.734109 15421 net.cpp:406] upscore2-new_upscore2-new_0_split <- upscore2-new
I0716 03:44:34.734117 15421 net.cpp:380] upscore2-new_upscore2-new_0_split -> upscore2-new_upscore2-new_0_split_0
I0716 03:44:34.734122 15421 net.cpp:380] upscore2-new_upscore2-new_0_split -> upscore2-new_upscore2-new_0_split_1
I0716 03:44:34.734160 15421 net.cpp:122] Setting up upscore2-new_upscore2-new_0_split
I0716 03:44:34.734167 15421 net.cpp:129] Top shape: 1 3 36 36 (3888)
I0716 03:44:34.734172 15421 net.cpp:129] Top shape: 1 3 36 36 (3888)
I0716 03:44:34.734175 15421 net.cpp:137] Memory required for data: 1234295000
I0716 03:44:34.734179 15421 layer_factory.hpp:77] Creating layer score_pool4-new
I0716 03:44:34.734185 15421 net.cpp:84] Creating Layer score_pool4-new
I0716 03:44:34.734189 15421 net.cpp:406] score_pool4-new <- pool4_pool4_0_split_1
I0716 03:44:34.734197 15421 net.cpp:380] score_pool4-new -> score_pool4-new
I0716 03:44:34.735500 15421 net.cpp:122] Setting up score_pool4-new
I0716 03:44:34.735514 15421 net.cpp:129] Top shape: 1 3 45 45 (6075)
I0716 03:44:34.735534 15421 net.cpp:137] Memory required for data: 1234319300
I0716 03:44:34.735541 15421 layer_factory.hpp:77] Creating layer score_pool4c
I0716 03:44:34.735553 15421 net.cpp:84] Creating Layer score_pool4c
I0716 03:44:34.735574 15421 net.cpp:406] score_pool4c <- score_pool4-new
I0716 03:44:34.735579 15421 net.cpp:406] score_pool4c <- upscore2-new_upscore2-new_0_split_0
I0716 03:44:34.735587 15421 net.cpp:380] score_pool4c -> score_pool4c
I0716 03:44:34.735637 15421 net.cpp:122] Setting up score_pool4c
I0716 03:44:34.735661 15421 net.cpp:129] Top shape: 1 3 36 36 (3888)
I0716 03:44:34.735666 15421 net.cpp:137] Memory required for data: 1234334852
I0716 03:44:34.735668 15421 layer_factory.hpp:77] Creating layer fuse_pool4
I0716 03:44:34.735677 15421 net.cpp:84] Creating Layer fuse_pool4
I0716 03:44:34.735680 15421 net.cpp:406] fuse_pool4 <- upscore2-new_upscore2-new_0_split_1
I0716 03:44:34.735685 15421 net.cpp:406] fuse_pool4 <- score_pool4c
I0716 03:44:34.735690 15421 net.cpp:380] fuse_pool4 -> fuse_pool4
I0716 03:44:34.735720 15421 net.cpp:122] Setting up fuse_pool4
I0716 03:44:34.735728 15421 net.cpp:129] Top shape: 1 3 36 36 (3888)
I0716 03:44:34.735730 15421 net.cpp:137] Memory required for data: 1234350404
I0716 03:44:34.735734 15421 layer_factory.hpp:77] Creating layer upscore_pool4-new
I0716 03:44:34.735743 15421 net.cpp:84] Creating Layer upscore_pool4-new
I0716 03:44:34.735746 15421 net.cpp:406] upscore_pool4-new <- fuse_pool4
I0716 03:44:34.735754 15421 net.cpp:380] upscore_pool4-new -> upscore_pool4-new
I0716 03:44:34.735952 15421 net.cpp:122] Setting up upscore_pool4-new
I0716 03:44:34.735960 15421 net.cpp:129] Top shape: 1 3 74 74 (16428)
I0716 03:44:34.735965 15421 net.cpp:137] Memory required for data: 1234416116
I0716 03:44:34.735970 15421 layer_factory.hpp:77] Creating layer upscore_pool4-new_upscore_pool4-new_0_split
I0716 03:44:34.735975 15421 net.cpp:84] Creating Layer upscore_pool4-new_upscore_pool4-new_0_split
I0716 03:44:34.735978 15421 net.cpp:406] upscore_pool4-new_upscore_pool4-new_0_split <- upscore_pool4-new
I0716 03:44:34.735983 15421 net.cpp:380] upscore_pool4-new_upscore_pool4-new_0_split -> upscore_pool4-new_upscore_pool4-new_0_split_0
I0716 03:44:34.735990 15421 net.cpp:380] upscore_pool4-new_upscore_pool4-new_0_split -> upscore_pool4-new_upscore_pool4-new_0_split_1
I0716 03:44:34.736026 15421 net.cpp:122] Setting up upscore_pool4-new_upscore_pool4-new_0_split
I0716 03:44:34.736040 15421 net.cpp:129] Top shape: 1 3 74 74 (16428)
I0716 03:44:34.736045 15421 net.cpp:129] Top shape: 1 3 74 74 (16428)
I0716 03:44:34.736048 15421 net.cpp:137] Memory required for data: 1234547540
I0716 03:44:34.736052 15421 layer_factory.hpp:77] Creating layer score_pool3-new
I0716 03:44:34.736062 15421 net.cpp:84] Creating Layer score_pool3-new
I0716 03:44:34.736065 15421 net.cpp:406] score_pool3-new <- pool3_pool3_0_split_1
I0716 03:44:34.736073 15421 net.cpp:380] score_pool3-new -> score_pool3-new
I0716 03:44:34.737401 15421 net.cpp:122] Setting up score_pool3-new
I0716 03:44:34.737413 15421 net.cpp:129] Top shape: 1 3 89 89 (23763)
I0716 03:44:34.737416 15421 net.cpp:137] Memory required for data: 1234642592
I0716 03:44:34.737422 15421 layer_factory.hpp:77] Creating layer score_pool3c
I0716 03:44:34.737432 15421 net.cpp:84] Creating Layer score_pool3c
I0716 03:44:34.737435 15421 net.cpp:406] score_pool3c <- score_pool3-new
I0716 03:44:34.737439 15421 net.cpp:406] score_pool3c <- upscore_pool4-new_upscore_pool4-new_0_split_0
I0716 03:44:34.737447 15421 net.cpp:380] score_pool3c -> score_pool3c
I0716 03:44:34.737489 15421 net.cpp:122] Setting up score_pool3c
I0716 03:44:34.737504 15421 net.cpp:129] Top shape: 1 3 74 74 (16428)
I0716 03:44:34.737505 15421 net.cpp:137] Memory required for data: 1234708304
I0716 03:44:34.737509 15421 layer_factory.hpp:77] Creating layer fuse_pool3
I0716 03:44:34.737516 15421 net.cpp:84] Creating Layer fuse_pool3
I0716 03:44:34.737520 15421 net.cpp:406] fuse_pool3 <- upscore_pool4-new_upscore_pool4-new_0_split_1
I0716 03:44:34.737524 15421 net.cpp:406] fuse_pool3 <- score_pool3c
I0716 03:44:34.737545 15421 net.cpp:380] fuse_pool3 -> fuse_pool3
I0716 03:44:34.737570 15421 net.cpp:122] Setting up fuse_pool3
I0716 03:44:34.737576 15421 net.cpp:129] Top shape: 1 3 74 74 (16428)
I0716 03:44:34.737579 15421 net.cpp:137] Memory required for data: 1234774016
I0716 03:44:34.737583 15421 layer_factory.hpp:77] Creating layer upscore8-new
I0716 03:44:34.737591 15421 net.cpp:84] Creating Layer upscore8-new
I0716 03:44:34.737594 15421 net.cpp:406] upscore8-new <- fuse_pool3
I0716 03:44:34.737599 15421 net.cpp:380] upscore8-new -> upscore8-new
I0716 03:44:34.737818 15421 net.cpp:122] Setting up upscore8-new
I0716 03:44:34.737826 15421 net.cpp:129] Top shape: 1 3 600 600 (1080000)
I0716 03:44:34.737829 15421 net.cpp:137] Memory required for data: 1239094016
I0716 03:44:34.737836 15421 layer_factory.hpp:77] Creating layer upscore8_cropped
I0716 03:44:34.737843 15421 net.cpp:84] Creating Layer upscore8_cropped
I0716 03:44:34.737848 15421 net.cpp:406] upscore8_cropped <- upscore8-new
I0716 03:44:34.737852 15421 net.cpp:406] upscore8_cropped <- data_data_0_split_1
I0716 03:44:34.737857 15421 net.cpp:380] upscore8_cropped -> upscore8_cropped
I0716 03:44:34.737884 15421 net.cpp:122] Setting up upscore8_cropped
I0716 03:44:34.737888 15421 net.cpp:129] Top shape: 1 3 512 512 (786432)
I0716 03:44:34.737891 15421 net.cpp:137] Memory required for data: 1242239744
I0716 03:44:34.737895 15421 layer_factory.hpp:77] Creating layer upscore8_cropped_upscore8_cropped_0_split
I0716 03:44:34.737900 15421 net.cpp:84] Creating Layer upscore8_cropped_upscore8_cropped_0_split
I0716 03:44:34.737903 15421 net.cpp:406] upscore8_cropped_upscore8_cropped_0_split <- upscore8_cropped
I0716 03:44:34.737908 15421 net.cpp:380] upscore8_cropped_upscore8_cropped_0_split -> upscore8_cropped_upscore8_cropped_0_split_0
I0716 03:44:34.737915 15421 net.cpp:380] upscore8_cropped_upscore8_cropped_0_split -> upscore8_cropped_upscore8_cropped_0_split_1
I0716 03:44:34.737947 15421 net.cpp:122] Setting up upscore8_cropped_upscore8_cropped_0_split
I0716 03:44:34.737956 15421 net.cpp:129] Top shape: 1 3 512 512 (786432)
I0716 03:44:34.737959 15421 net.cpp:129] Top shape: 1 3 512 512 (786432)
I0716 03:44:34.737962 15421 net.cpp:137] Memory required for data: 1248531200
I0716 03:44:34.737965 15421 layer_factory.hpp:77] Creating layer prob
I0716 03:44:34.737972 15421 net.cpp:84] Creating Layer prob
I0716 03:44:34.737975 15421 net.cpp:406] prob <- upscore8_cropped_upscore8_cropped_0_split_0
I0716 03:44:34.737979 15421 net.cpp:380] prob -> prob
I0716 03:44:34.738188 15421 net.cpp:122] Setting up prob
I0716 03:44:34.738200 15421 net.cpp:129] Top shape: 1 3 512 512 (786432)
I0716 03:44:34.738204 15421 net.cpp:137] Memory required for data: 1251676928
I0716 03:44:34.738207 15421 layer_factory.hpp:77] Creating layer prob_prob_0_split
I0716 03:44:34.738212 15421 net.cpp:84] Creating Layer prob_prob_0_split
I0716 03:44:34.738216 15421 net.cpp:406] prob_prob_0_split <- prob
I0716 03:44:34.738221 15421 net.cpp:380] prob_prob_0_split -> prob_prob_0_split_0
I0716 03:44:34.738227 15421 net.cpp:380] prob_prob_0_split -> prob_prob_0_split_1
I0716 03:44:34.738265 15421 net.cpp:122] Setting up prob_prob_0_split
I0716 03:44:34.738270 15421 net.cpp:129] Top shape: 1 3 512 512 (786432)
I0716 03:44:34.738274 15421 net.cpp:129] Top shape: 1 3 512 512 (786432)
I0716 03:44:34.738277 15421 net.cpp:137] Memory required for data: 1257968384
I0716 03:44:34.738282 15421 layer_factory.hpp:77] Creating layer saliency1
I0716 03:44:34.738296 15421 net.cpp:84] Creating Layer saliency1
I0716 03:44:34.738301 15421 net.cpp:406] saliency1 <- prob_prob_0_split_0
I0716 03:44:34.738308 15421 net.cpp:380] saliency1 -> saliency1
I0716 03:44:34.741905 15421 net.cpp:122] Setting up saliency1
I0716 03:44:34.741935 15421 net.cpp:129] Top shape: 1 3 512 512 (786432)
I0716 03:44:34.741938 15421 net.cpp:137] Memory required for data: 1261114112
I0716 03:44:34.741947 15421 layer_factory.hpp:77] Creating layer relu_saliency1
I0716 03:44:34.741953 15421 net.cpp:84] Creating Layer relu_saliency1
I0716 03:44:34.741974 15421 net.cpp:406] relu_saliency1 <- saliency1
I0716 03:44:34.741981 15421 net.cpp:367] relu_saliency1 -> saliency1 (in-place)
I0716 03:44:34.742203 15421 net.cpp:122] Setting up relu_saliency1
I0716 03:44:34.742216 15421 net.cpp:129] Top shape: 1 3 512 512 (786432)
I0716 03:44:34.742219 15421 net.cpp:137] Memory required for data: 1264259840
I0716 03:44:34.742223 15421 layer_factory.hpp:77] Creating layer saliency
I0716 03:44:34.742235 15421 net.cpp:84] Creating Layer saliency
I0716 03:44:34.742239 15421 net.cpp:406] saliency <- saliency1
I0716 03:44:34.742245 15421 net.cpp:380] saliency -> saliency
I0716 03:44:34.745653 15421 net.cpp:122] Setting up saliency
I0716 03:44:34.745684 15421 net.cpp:129] Top shape: 1 3 512 512 (786432)
I0716 03:44:34.745688 15421 net.cpp:137] Memory required for data: 1267405568
I0716 03:44:34.745697 15421 layer_factory.hpp:77] Creating layer saliency_data
I0716 03:44:34.745704 15421 net.cpp:84] Creating Layer saliency_data
I0716 03:44:34.745724 15421 net.cpp:406] saliency_data <- data_data_0_split_2
I0716 03:44:34.745730 15421 net.cpp:406] saliency_data <- saliency
I0716 03:44:34.745735 15421 net.cpp:380] saliency_data -> saliency_data
I0716 03:44:34.745769 15421 net.cpp:122] Setting up saliency_data
I0716 03:44:34.745777 15421 net.cpp:129] Top shape: 1 3 512 512 (786432)
I0716 03:44:34.745797 15421 net.cpp:137] Memory required for data: 1270551296
I0716 03:44:34.745802 15421 layer_factory.hpp:77] Creating layer crop
I0716 03:44:34.746207 15421 net.cpp:84] Creating Layer crop
I0716 03:44:34.746217 15421 net.cpp:406] crop <- prob_prob_0_split_1
I0716 03:44:34.746222 15421 net.cpp:406] crop <- saliency_data
I0716 03:44:34.746227 15421 net.cpp:406] crop <- crop_margin
I0716 03:44:34.746229 15421 net.cpp:406] crop <- crop_prob
I0716 03:44:34.746233 15421 net.cpp:406] crop <- crop_sample_batch
I0716 03:44:34.746237 15421 net.cpp:406] crop <- label_data_1_split_0
I0716 03:44:34.746243 15421 net.cpp:380] crop -> data-R
I0716 03:44:34.746249 15421 net.cpp:380] crop -> crop_info
I0716 03:44:34.761454 15421 net.cpp:122] Setting up crop
I0716 03:44:34.761481 15421 net.cpp:129] Top shape: 1 3 512 512 (786432)
I0716 03:44:34.761485 15421 net.cpp:129] Top shape: 1 2 4 (8)
I0716 03:44:34.761488 15421 net.cpp:137] Memory required for data: 1273697056
I0716 03:44:34.761493 15421 layer_factory.hpp:77] Creating layer data-R_crop_0_split
I0716 03:44:34.761504 15421 net.cpp:84] Creating Layer data-R_crop_0_split
I0716 03:44:34.761509 15421 net.cpp:406] data-R_crop_0_split <- data-R
I0716 03:44:34.761517 15421 net.cpp:380] data-R_crop_0_split -> data-R_crop_0_split_0
I0716 03:44:34.761541 15421 net.cpp:380] data-R_crop_0_split -> data-R_crop_0_split_1
I0716 03:44:34.761587 15421 net.cpp:122] Setting up data-R_crop_0_split
I0716 03:44:34.761595 15421 net.cpp:129] Top shape: 1 3 512 512 (786432)
I0716 03:44:34.761600 15421 net.cpp:129] Top shape: 1 3 512 512 (786432)
I0716 03:44:34.761602 15421 net.cpp:137] Memory required for data: 1279988512
I0716 03:44:34.761606 15421 layer_factory.hpp:77] Creating layer conv1_1-R
I0716 03:44:34.761656 15421 net.cpp:84] Creating Layer conv1_1-R
I0716 03:44:34.761663 15421 net.cpp:406] conv1_1-R <- data-R_crop_0_split_0
I0716 03:44:34.761669 15421 net.cpp:380] conv1_1-R -> conv1_1-R
I0716 03:44:34.765137 15421 net.cpp:122] Setting up conv1_1-R
I0716 03:44:34.765151 15421 net.cpp:129] Top shape: 1 64 710 710 (32262400)
I0716 03:44:34.765156 15421 net.cpp:137] Memory required for data: 1409038112
I0716 03:44:34.765163 15421 layer_factory.hpp:77] Creating layer relu1_1-R
I0716 03:44:34.765172 15421 net.cpp:84] Creating Layer relu1_1-R
I0716 03:44:34.765177 15421 net.cpp:406] relu1_1-R <- conv1_1-R
I0716 03:44:34.765182 15421 net.cpp:367] relu1_1-R -> conv1_1-R (in-place)
I0716 03:44:34.765429 15421 net.cpp:122] Setting up relu1_1-R
I0716 03:44:34.765441 15421 net.cpp:129] Top shape: 1 64 710 710 (32262400)
I0716 03:44:34.765445 15421 net.cpp:137] Memory required for data: 1538087712
I0716 03:44:34.765451 15421 layer_factory.hpp:77] Creating layer conv1_2-R
I0716 03:44:34.765462 15421 net.cpp:84] Creating Layer conv1_2-R
I0716 03:44:34.765466 15421 net.cpp:406] conv1_2-R <- conv1_1-R
I0716 03:44:34.765473 15421 net.cpp:380] conv1_2-R -> conv1_2-R
I0716 03:44:34.768414 15421 net.cpp:122] Setting up conv1_2-R
I0716 03:44:34.768445 15421 net.cpp:129] Top shape: 1 64 710 710 (32262400)
I0716 03:44:34.768448 15421 net.cpp:137] Memory required for data: 1667137312
I0716 03:44:34.768457 15421 layer_factory.hpp:77] Creating layer relu1_2-R
I0716 03:44:34.768465 15421 net.cpp:84] Creating Layer relu1_2-R
I0716 03:44:34.768486 15421 net.cpp:406] relu1_2-R <- conv1_2-R
I0716 03:44:34.768491 15421 net.cpp:367] relu1_2-R -> conv1_2-R (in-place)
I0716 03:44:34.769176 15421 net.cpp:122] Setting up relu1_2-R
I0716 03:44:34.769188 15421 net.cpp:129] Top shape: 1 64 710 710 (32262400)
I0716 03:44:34.769207 15421 net.cpp:137] Memory required for data: 1796186912
I0716 03:44:34.769212 15421 layer_factory.hpp:77] Creating layer pool1-R
I0716 03:44:34.769220 15421 net.cpp:84] Creating Layer pool1-R
I0716 03:44:34.769224 15421 net.cpp:406] pool1-R <- conv1_2-R
I0716 03:44:34.769232 15421 net.cpp:380] pool1-R -> pool1-R
I0716 03:44:34.769300 15421 net.cpp:122] Setting up pool1-R
I0716 03:44:34.769306 15421 net.cpp:129] Top shape: 1 64 355 355 (8065600)
I0716 03:44:34.769309 15421 net.cpp:137] Memory required for data: 1828449312
I0716 03:44:34.769312 15421 layer_factory.hpp:77] Creating layer conv2_1-R
I0716 03:44:34.769325 15421 net.cpp:84] Creating Layer conv2_1-R
I0716 03:44:34.769330 15421 net.cpp:406] conv2_1-R <- pool1-R
I0716 03:44:34.769335 15421 net.cpp:380] conv2_1-R -> conv2_1-R
I0716 03:44:34.770771 15421 net.cpp:122] Setting up conv2_1-R
I0716 03:44:34.770784 15421 net.cpp:129] Top shape: 1 128 355 355 (16131200)
I0716 03:44:34.770787 15421 net.cpp:137] Memory required for data: 1892974112
I0716 03:44:34.770794 15421 layer_factory.hpp:77] Creating layer relu2_1-R
I0716 03:44:34.770802 15421 net.cpp:84] Creating Layer relu2_1-R
I0716 03:44:34.770807 15421 net.cpp:406] relu2_1-R <- conv2_1-R
I0716 03:44:34.770812 15421 net.cpp:367] relu2_1-R -> conv2_1-R (in-place)
I0716 03:44:34.771631 15421 net.cpp:122] Setting up relu2_1-R
I0716 03:44:34.771648 15421 net.cpp:129] Top shape: 1 128 355 355 (16131200)
I0716 03:44:34.771654 15421 net.cpp:137] Memory required for data: 1957498912
I0716 03:44:34.771661 15421 layer_factory.hpp:77] Creating layer conv2_2-R
I0716 03:44:34.771677 15421 net.cpp:84] Creating Layer conv2_2-R
I0716 03:44:34.771699 15421 net.cpp:406] conv2_2-R <- conv2_1-R
I0716 03:44:34.771709 15421 net.cpp:380] conv2_2-R -> conv2_2-R
I0716 03:44:34.775178 15421 net.cpp:122] Setting up conv2_2-R
I0716 03:44:34.775192 15421 net.cpp:129] Top shape: 1 128 355 355 (16131200)
I0716 03:44:34.775195 15421 net.cpp:137] Memory required for data: 2022023712
I0716 03:44:34.775202 15421 layer_factory.hpp:77] Creating layer relu2_2-R
I0716 03:44:34.775208 15421 net.cpp:84] Creating Layer relu2_2-R
I0716 03:44:34.775213 15421 net.cpp:406] relu2_2-R <- conv2_2-R
I0716 03:44:34.775218 15421 net.cpp:367] relu2_2-R -> conv2_2-R (in-place)
I0716 03:44:34.775440 15421 net.cpp:122] Setting up relu2_2-R
I0716 03:44:34.775451 15421 net.cpp:129] Top shape: 1 128 355 355 (16131200)
I0716 03:44:34.775454 15421 net.cpp:137] Memory required for data: 2086548512
I0716 03:44:34.775458 15421 layer_factory.hpp:77] Creating layer pool2-R
I0716 03:44:34.775485 15421 net.cpp:84] Creating Layer pool2-R
I0716 03:44:34.775487 15421 net.cpp:406] pool2-R <- conv2_2-R
I0716 03:44:34.775494 15421 net.cpp:380] pool2-R -> pool2-R
I0716 03:44:34.775542 15421 net.cpp:122] Setting up pool2-R
I0716 03:44:34.775550 15421 net.cpp:129] Top shape: 1 128 178 178 (4055552)
I0716 03:44:34.775554 15421 net.cpp:137] Memory required for data: 2102770720
I0716 03:44:34.775558 15421 layer_factory.hpp:77] Creating layer conv3_1-R
I0716 03:44:34.775568 15421 net.cpp:84] Creating Layer conv3_1-R
I0716 03:44:34.775571 15421 net.cpp:406] conv3_1-R <- pool2-R
I0716 03:44:34.775576 15421 net.cpp:380] conv3_1-R -> conv3_1-R
I0716 03:44:34.778760 15421 net.cpp:122] Setting up conv3_1-R
I0716 03:44:34.778774 15421 net.cpp:129] Top shape: 1 256 178 178 (8111104)
I0716 03:44:34.778777 15421 net.cpp:137] Memory required for data: 2135215136
I0716 03:44:34.778784 15421 layer_factory.hpp:77] Creating layer relu3_1-R
I0716 03:44:34.778791 15421 net.cpp:84] Creating Layer relu3_1-R
I0716 03:44:34.778796 15421 net.cpp:406] relu3_1-R <- conv3_1-R
I0716 03:44:34.778800 15421 net.cpp:367] relu3_1-R -> conv3_1-R (in-place)
I0716 03:44:34.779032 15421 net.cpp:122] Setting up relu3_1-R
I0716 03:44:34.779042 15421 net.cpp:129] Top shape: 1 256 178 178 (8111104)
I0716 03:44:34.779047 15421 net.cpp:137] Memory required for data: 2167659552
I0716 03:44:34.779050 15421 layer_factory.hpp:77] Creating layer conv3_2-R
I0716 03:44:34.779058 15421 net.cpp:84] Creating Layer conv3_2-R
I0716 03:44:34.779062 15421 net.cpp:406] conv3_2-R <- conv3_1-R
I0716 03:44:34.779068 15421 net.cpp:380] conv3_2-R -> conv3_2-R
I0716 03:44:34.782574 15421 net.cpp:122] Setting up conv3_2-R
I0716 03:44:34.782604 15421 net.cpp:129] Top shape: 1 256 178 178 (8111104)
I0716 03:44:34.782608 15421 net.cpp:137] Memory required for data: 2200103968
I0716 03:44:34.782615 15421 layer_factory.hpp:77] Creating layer relu3_2-R
I0716 03:44:34.782624 15421 net.cpp:84] Creating Layer relu3_2-R
I0716 03:44:34.782645 15421 net.cpp:406] relu3_2-R <- conv3_2-R
I0716 03:44:34.782651 15421 net.cpp:367] relu3_2-R -> conv3_2-R (in-place)
I0716 03:44:34.782860 15421 net.cpp:122] Setting up relu3_2-R
I0716 03:44:34.782871 15421 net.cpp:129] Top shape: 1 256 178 178 (8111104)
I0716 03:44:34.782874 15421 net.cpp:137] Memory required for data: 2232548384
I0716 03:44:34.782878 15421 layer_factory.hpp:77] Creating layer conv3_3-R
I0716 03:44:34.782886 15421 net.cpp:84] Creating Layer conv3_3-R
I0716 03:44:34.782891 15421 net.cpp:406] conv3_3-R <- conv3_2-R
I0716 03:44:34.782896 15421 net.cpp:380] conv3_3-R -> conv3_3-R
I0716 03:44:34.786453 15421 net.cpp:122] Setting up conv3_3-R
I0716 03:44:34.786483 15421 net.cpp:129] Top shape: 1 256 178 178 (8111104)
I0716 03:44:34.786486 15421 net.cpp:137] Memory required for data: 2264992800
I0716 03:44:34.786494 15421 layer_factory.hpp:77] Creating layer relu3_3-R
I0716 03:44:34.786501 15421 net.cpp:84] Creating Layer relu3_3-R
I0716 03:44:34.786505 15421 net.cpp:406] relu3_3-R <- conv3_3-R
I0716 03:44:34.786526 15421 net.cpp:367] relu3_3-R -> conv3_3-R (in-place)
I0716 03:44:34.786741 15421 net.cpp:122] Setting up relu3_3-R
I0716 03:44:34.786751 15421 net.cpp:129] Top shape: 1 256 178 178 (8111104)
I0716 03:44:34.786756 15421 net.cpp:137] Memory required for data: 2297437216
I0716 03:44:34.786759 15421 layer_factory.hpp:77] Creating layer pool3-R
I0716 03:44:34.786769 15421 net.cpp:84] Creating Layer pool3-R
I0716 03:44:34.786773 15421 net.cpp:406] pool3-R <- conv3_3-R
I0716 03:44:34.786780 15421 net.cpp:380] pool3-R -> pool3-R
I0716 03:44:34.786830 15421 net.cpp:122] Setting up pool3-R
I0716 03:44:34.786839 15421 net.cpp:129] Top shape: 1 256 89 89 (2027776)
I0716 03:44:34.786842 15421 net.cpp:137] Memory required for data: 2305548320
I0716 03:44:34.786846 15421 layer_factory.hpp:77] Creating layer pool3-R_pool3-R_0_split
I0716 03:44:34.786854 15421 net.cpp:84] Creating Layer pool3-R_pool3-R_0_split
I0716 03:44:34.786857 15421 net.cpp:406] pool3-R_pool3-R_0_split <- pool3-R
I0716 03:44:34.786864 15421 net.cpp:380] pool3-R_pool3-R_0_split -> pool3-R_pool3-R_0_split_0
I0716 03:44:34.786882 15421 net.cpp:380] pool3-R_pool3-R_0_split -> pool3-R_pool3-R_0_split_1
I0716 03:44:34.786922 15421 net.cpp:122] Setting up pool3-R_pool3-R_0_split
I0716 03:44:34.786931 15421 net.cpp:129] Top shape: 1 256 89 89 (2027776)
I0716 03:44:34.786936 15421 net.cpp:129] Top shape: 1 256 89 89 (2027776)
I0716 03:44:34.786939 15421 net.cpp:137] Memory required for data: 2321770528
I0716 03:44:34.786942 15421 layer_factory.hpp:77] Creating layer conv4_1-R
I0716 03:44:34.786950 15421 net.cpp:84] Creating Layer conv4_1-R
I0716 03:44:34.786954 15421 net.cpp:406] conv4_1-R <- pool3-R_pool3-R_0_split_0
I0716 03:44:34.786962 15421 net.cpp:380] conv4_1-R -> conv4_1-R
I0716 03:44:34.792595 15421 net.cpp:122] Setting up conv4_1-R
I0716 03:44:34.792629 15421 net.cpp:129] Top shape: 1 512 89 89 (4055552)
I0716 03:44:34.792632 15421 net.cpp:137] Memory required for data: 2337992736
I0716 03:44:34.792640 15421 layer_factory.hpp:77] Creating layer relu4_1-R
I0716 03:44:34.792649 15421 net.cpp:84] Creating Layer relu4_1-R
I0716 03:44:34.792668 15421 net.cpp:406] relu4_1-R <- conv4_1-R
I0716 03:44:34.792675 15421 net.cpp:367] relu4_1-R -> conv4_1-R (in-place)
I0716 03:44:34.793411 15421 net.cpp:122] Setting up relu4_1-R
I0716 03:44:34.793422 15421 net.cpp:129] Top shape: 1 512 89 89 (4055552)
I0716 03:44:34.793443 15421 net.cpp:137] Memory required for data: 2354214944
I0716 03:44:34.793447 15421 layer_factory.hpp:77] Creating layer conv4_2-R
I0716 03:44:34.793457 15421 net.cpp:84] Creating Layer conv4_2-R
I0716 03:44:34.793462 15421 net.cpp:406] conv4_2-R <- conv4_1-R
I0716 03:44:34.793484 15421 net.cpp:380] conv4_2-R -> conv4_2-R
I0716 03:44:34.800099 15421 net.cpp:122] Setting up conv4_2-R
I0716 03:44:34.800114 15421 net.cpp:129] Top shape: 1 512 89 89 (4055552)
I0716 03:44:34.800118 15421 net.cpp:137] Memory required for data: 2370437152
I0716 03:44:34.800125 15421 layer_factory.hpp:77] Creating layer relu4_2-R
I0716 03:44:34.800132 15421 net.cpp:84] Creating Layer relu4_2-R
I0716 03:44:34.800137 15421 net.cpp:406] relu4_2-R <- conv4_2-R
I0716 03:44:34.800143 15421 net.cpp:367] relu4_2-R -> conv4_2-R (in-place)
I0716 03:44:34.800882 15421 net.cpp:122] Setting up relu4_2-R
I0716 03:44:34.800895 15421 net.cpp:129] Top shape: 1 512 89 89 (4055552)
I0716 03:44:34.800899 15421 net.cpp:137] Memory required for data: 2386659360
I0716 03:44:34.800904 15421 layer_factory.hpp:77] Creating layer conv4_3-R
I0716 03:44:34.800915 15421 net.cpp:84] Creating Layer conv4_3-R
I0716 03:44:34.800918 15421 net.cpp:406] conv4_3-R <- conv4_2-R
I0716 03:44:34.800925 15421 net.cpp:380] conv4_3-R -> conv4_3-R
I0716 03:44:34.809586 15421 net.cpp:122] Setting up conv4_3-R
I0716 03:44:34.809608 15421 net.cpp:129] Top shape: 1 512 89 89 (4055552)
I0716 03:44:34.809613 15421 net.cpp:137] Memory required for data: 2402881568
I0716 03:44:34.809623 15421 layer_factory.hpp:77] Creating layer relu4_3-R
I0716 03:44:34.809633 15421 net.cpp:84] Creating Layer relu4_3-R
I0716 03:44:34.809638 15421 net.cpp:406] relu4_3-R <- conv4_3-R
I0716 03:44:34.809646 15421 net.cpp:367] relu4_3-R -> conv4_3-R (in-place)
I0716 03:44:34.809890 15421 net.cpp:122] Setting up relu4_3-R
I0716 03:44:34.809901 15421 net.cpp:129] Top shape: 1 512 89 89 (4055552)
I0716 03:44:34.809906 15421 net.cpp:137] Memory required for data: 2419103776
I0716 03:44:34.809911 15421 layer_factory.hpp:77] Creating layer pool4-R
I0716 03:44:34.809926 15421 net.cpp:84] Creating Layer pool4-R
I0716 03:44:34.809933 15421 net.cpp:406] pool4-R <- conv4_3-R
I0716 03:44:34.809942 15421 net.cpp:380] pool4-R -> pool4-R
I0716 03:44:34.810009 15421 net.cpp:122] Setting up pool4-R
I0716 03:44:34.810019 15421 net.cpp:129] Top shape: 1 512 45 45 (1036800)
I0716 03:44:34.810024 15421 net.cpp:137] Memory required for data: 2423250976
I0716 03:44:34.810027 15421 layer_factory.hpp:77] Creating layer pool4-R_pool4-R_0_split
I0716 03:44:34.810035 15421 net.cpp:84] Creating Layer pool4-R_pool4-R_0_split
I0716 03:44:34.810040 15421 net.cpp:406] pool4-R_pool4-R_0_split <- pool4-R
I0716 03:44:34.810047 15421 net.cpp:380] pool4-R_pool4-R_0_split -> pool4-R_pool4-R_0_split_0
I0716 03:44:34.810056 15421 net.cpp:380] pool4-R_pool4-R_0_split -> pool4-R_pool4-R_0_split_1
I0716 03:44:34.810111 15421 net.cpp:122] Setting up pool4-R_pool4-R_0_split
I0716 03:44:34.810120 15421 net.cpp:129] Top shape: 1 512 45 45 (1036800)
I0716 03:44:34.810127 15421 net.cpp:129] Top shape: 1 512 45 45 (1036800)
I0716 03:44:34.810130 15421 net.cpp:137] Memory required for data: 2431545376
I0716 03:44:34.810137 15421 layer_factory.hpp:77] Creating layer conv5_1-R
I0716 03:44:34.810148 15421 net.cpp:84] Creating Layer conv5_1-R
I0716 03:44:34.810153 15421 net.cpp:406] conv5_1-R <- pool4-R_pool4-R_0_split_0
I0716 03:44:34.810161 15421 net.cpp:380] conv5_1-R -> conv5_1-R
I0716 03:44:34.820456 15421 net.cpp:122] Setting up conv5_1-R
I0716 03:44:34.820492 15421 net.cpp:129] Top shape: 1 512 45 45 (1036800)
I0716 03:44:34.820495 15421 net.cpp:137] Memory required for data: 2435692576
I0716 03:44:34.820533 15421 layer_factory.hpp:77] Creating layer relu5_1-R
I0716 03:44:34.820541 15421 net.cpp:84] Creating Layer relu5_1-R
I0716 03:44:34.820546 15421 net.cpp:406] relu5_1-R <- conv5_1-R
I0716 03:44:34.820552 15421 net.cpp:367] relu5_1-R -> conv5_1-R (in-place)
I0716 03:44:34.822826 15421 net.cpp:122] Setting up relu5_1-R
I0716 03:44:34.822896 15421 net.cpp:129] Top shape: 1 512 45 45 (1036800)
I0716 03:44:34.822906 15421 net.cpp:137] Memory required for data: 2439839776
I0716 03:44:34.822916 15421 layer_factory.hpp:77] Creating layer conv5_2-R
I0716 03:44:34.822947 15421 net.cpp:84] Creating Layer conv5_2-R
I0716 03:44:34.822958 15421 net.cpp:406] conv5_2-R <- conv5_1-R
I0716 03:44:34.822978 15421 net.cpp:380] conv5_2-R -> conv5_2-R
I0716 03:44:34.834969 15421 net.cpp:122] Setting up conv5_2-R
I0716 03:44:34.835023 15421 net.cpp:129] Top shape: 1 512 45 45 (1036800)
I0716 03:44:34.835029 15421 net.cpp:137] Memory required for data: 2443986976
I0716 03:44:34.835041 15421 layer_factory.hpp:77] Creating layer relu5_2-R
I0716 03:44:34.835072 15421 net.cpp:84] Creating Layer relu5_2-R
I0716 03:44:34.835080 15421 net.cpp:406] relu5_2-R <- conv5_2-R
I0716 03:44:34.835090 15421 net.cpp:367] relu5_2-R -> conv5_2-R (in-place)
I0716 03:44:34.835377 15421 net.cpp:122] Setting up relu5_2-R
I0716 03:44:34.835392 15421 net.cpp:129] Top shape: 1 512 45 45 (1036800)
I0716 03:44:34.835397 15421 net.cpp:137] Memory required for data: 2448134176
I0716 03:44:34.835409 15421 layer_factory.hpp:77] Creating layer conv5_3-R
I0716 03:44:34.835438 15421 net.cpp:84] Creating Layer conv5_3-R
I0716 03:44:34.835443 15421 net.cpp:406] conv5_3-R <- conv5_2-R
I0716 03:44:34.835451 15421 net.cpp:380] conv5_3-R -> conv5_3-R
I0716 03:44:34.849238 15421 net.cpp:122] Setting up conv5_3-R
I0716 03:44:34.849292 15421 net.cpp:129] Top shape: 1 512 45 45 (1036800)
I0716 03:44:34.849299 15421 net.cpp:137] Memory required for data: 2452281376
I0716 03:44:34.849313 15421 layer_factory.hpp:77] Creating layer relu5_3-R
I0716 03:44:34.849328 15421 net.cpp:84] Creating Layer relu5_3-R
I0716 03:44:34.849336 15421 net.cpp:406] relu5_3-R <- conv5_3-R
I0716 03:44:34.849346 15421 net.cpp:367] relu5_3-R -> conv5_3-R (in-place)
I0716 03:44:34.849584 15421 net.cpp:122] Setting up relu5_3-R
I0716 03:44:34.849597 15421 net.cpp:129] Top shape: 1 512 45 45 (1036800)
I0716 03:44:34.849601 15421 net.cpp:137] Memory required for data: 2456428576
I0716 03:44:34.849606 15421 layer_factory.hpp:77] Creating layer pool5-R
I0716 03:44:34.849634 15421 net.cpp:84] Creating Layer pool5-R
I0716 03:44:34.849639 15421 net.cpp:406] pool5-R <- conv5_3-R
I0716 03:44:34.849649 15421 net.cpp:380] pool5-R -> pool5-R
I0716 03:44:34.849715 15421 net.cpp:122] Setting up pool5-R
I0716 03:44:34.849725 15421 net.cpp:129] Top shape: 1 512 23 23 (270848)
I0716 03:44:34.849730 15421 net.cpp:137] Memory required for data: 2457511968
I0716 03:44:34.849735 15421 layer_factory.hpp:77] Creating layer fc6-R
I0716 03:44:34.849756 15421 net.cpp:84] Creating Layer fc6-R
I0716 03:44:34.849761 15421 net.cpp:406] fc6-R <- pool5-R
I0716 03:44:34.849771 15421 net.cpp:380] fc6-R -> fc6-R
I0716 03:44:35.176570 15421 net.cpp:122] Setting up fc6-R
I0716 03:44:35.176645 15421 net.cpp:129] Top shape: 1 4096 17 17 (1183744)
I0716 03:44:35.176658 15421 net.cpp:137] Memory required for data: 2462246944
I0716 03:44:35.176709 15421 layer_factory.hpp:77] Creating layer relu6-R
I0716 03:44:35.176753 15421 net.cpp:84] Creating Layer relu6-R
I0716 03:44:35.176793 15421 net.cpp:406] relu6-R <- fc6-R
I0716 03:44:35.176829 15421 net.cpp:367] relu6-R -> fc6-R (in-place)
I0716 03:44:35.178457 15421 net.cpp:122] Setting up relu6-R
I0716 03:44:35.178483 15421 net.cpp:129] Top shape: 1 4096 17 17 (1183744)
I0716 03:44:35.178493 15421 net.cpp:137] Memory required for data: 2466981920
I0716 03:44:35.178501 15421 layer_factory.hpp:77] Creating layer drop6-R
I0716 03:44:35.178524 15421 net.cpp:84] Creating Layer drop6-R
I0716 03:44:35.178531 15421 net.cpp:406] drop6-R <- fc6-R
I0716 03:44:35.178556 15421 net.cpp:367] drop6-R -> fc6-R (in-place)
I0716 03:44:35.178639 15421 net.cpp:122] Setting up drop6-R
I0716 03:44:35.178655 15421 net.cpp:129] Top shape: 1 4096 17 17 (1183744)
I0716 03:44:35.178663 15421 net.cpp:137] Memory required for data: 2471716896
I0716 03:44:35.178671 15421 layer_factory.hpp:77] Creating layer fc7-R
I0716 03:44:35.178694 15421 net.cpp:84] Creating Layer fc7-R
I0716 03:44:35.178702 15421 net.cpp:406] fc7-R <- fc6-R
I0716 03:44:35.178728 15421 net.cpp:380] fc7-R -> fc7-R
I0716 03:44:35.231034 15421 net.cpp:122] Setting up fc7-R
I0716 03:44:35.231081 15421 net.cpp:129] Top shape: 1 4096 17 17 (1183744)
I0716 03:44:35.231086 15421 net.cpp:137] Memory required for data: 2476451872
I0716 03:44:35.231096 15421 layer_factory.hpp:77] Creating layer relu7-R
I0716 03:44:35.231112 15421 net.cpp:84] Creating Layer relu7-R
I0716 03:44:35.231118 15421 net.cpp:406] relu7-R <- fc7-R
I0716 03:44:35.231127 15421 net.cpp:367] relu7-R -> fc7-R (in-place)
I0716 03:44:35.231930 15421 net.cpp:122] Setting up relu7-R
I0716 03:44:35.231941 15421 net.cpp:129] Top shape: 1 4096 17 17 (1183744)
I0716 03:44:35.231945 15421 net.cpp:137] Memory required for data: 2481186848
I0716 03:44:35.231956 15421 layer_factory.hpp:77] Creating layer drop7-R
I0716 03:44:35.231967 15421 net.cpp:84] Creating Layer drop7-R
I0716 03:44:35.231971 15421 net.cpp:406] drop7-R <- fc7-R
I0716 03:44:35.231978 15421 net.cpp:367] drop7-R -> fc7-R (in-place)
I0716 03:44:35.232028 15421 net.cpp:122] Setting up drop7-R
I0716 03:44:35.232033 15421 net.cpp:129] Top shape: 1 4096 17 17 (1183744)
I0716 03:44:35.232036 15421 net.cpp:137] Memory required for data: 2485921824
I0716 03:44:35.232040 15421 layer_factory.hpp:77] Creating layer score_fr-new-R
I0716 03:44:35.232051 15421 net.cpp:84] Creating Layer score_fr-new-R
I0716 03:44:35.232054 15421 net.cpp:406] score_fr-new-R <- fc7-R
I0716 03:44:35.232069 15421 net.cpp:380] score_fr-new-R -> score_fr-new-R
I0716 03:44:35.233836 15421 net.cpp:122] Setting up score_fr-new-R
I0716 03:44:35.233851 15421 net.cpp:129] Top shape: 1 3 17 17 (867)
I0716 03:44:35.233872 15421 net.cpp:137] Memory required for data: 2485925292
I0716 03:44:35.233880 15421 layer_factory.hpp:77] Creating layer upscore2-new-R
I0716 03:44:35.233889 15421 net.cpp:84] Creating Layer upscore2-new-R
I0716 03:44:35.233893 15421 net.cpp:406] upscore2-new-R <- score_fr-new-R
I0716 03:44:35.233901 15421 net.cpp:380] upscore2-new-R -> upscore2-new-R
I0716 03:44:35.234194 15421 net.cpp:122] Setting up upscore2-new-R
I0716 03:44:35.234205 15421 net.cpp:129] Top shape: 1 3 36 36 (3888)
I0716 03:44:35.234210 15421 net.cpp:137] Memory required for data: 2485940844
I0716 03:44:35.234215 15421 layer_factory.hpp:77] Creating layer upscore2-new-R_upscore2-new-R_0_split
I0716 03:44:35.234223 15421 net.cpp:84] Creating Layer upscore2-new-R_upscore2-new-R_0_split
I0716 03:44:35.234228 15421 net.cpp:406] upscore2-new-R_upscore2-new-R_0_split <- upscore2-new-R
I0716 03:44:35.234235 15421 net.cpp:380] upscore2-new-R_upscore2-new-R_0_split -> upscore2-new-R_upscore2-new-R_0_split_0
I0716 03:44:35.234242 15421 net.cpp:380] upscore2-new-R_upscore2-new-R_0_split -> upscore2-new-R_upscore2-new-R_0_split_1
I0716 03:44:35.234288 15421 net.cpp:122] Setting up upscore2-new-R_upscore2-new-R_0_split
I0716 03:44:35.234303 15421 net.cpp:129] Top shape: 1 3 36 36 (3888)
I0716 03:44:35.234308 15421 net.cpp:129] Top shape: 1 3 36 36 (3888)
I0716 03:44:35.234311 15421 net.cpp:137] Memory required for data: 2485971948
I0716 03:44:35.234316 15421 layer_factory.hpp:77] Creating layer score_pool4-new-R
I0716 03:44:35.234328 15421 net.cpp:84] Creating Layer score_pool4-new-R
I0716 03:44:35.234349 15421 net.cpp:406] score_pool4-new-R <- pool4-R_pool4-R_0_split_1
I0716 03:44:35.234360 15421 net.cpp:380] score_pool4-new-R -> score_pool4-new-R
I0716 03:44:35.235915 15421 net.cpp:122] Setting up score_pool4-new-R
I0716 03:44:35.235931 15421 net.cpp:129] Top shape: 1 3 45 45 (6075)
I0716 03:44:35.235952 15421 net.cpp:137] Memory required for data: 2485996248
I0716 03:44:35.235960 15421 layer_factory.hpp:77] Creating layer score_pool4c-R
I0716 03:44:35.235970 15421 net.cpp:84] Creating Layer score_pool4c-R
I0716 03:44:35.235975 15421 net.cpp:406] score_pool4c-R <- score_pool4-new-R
I0716 03:44:35.235996 15421 net.cpp:406] score_pool4c-R <- upscore2-new-R_upscore2-new-R_0_split_0
I0716 03:44:35.236007 15421 net.cpp:380] score_pool4c-R -> score_pool4c-R
I0716 03:44:35.236060 15421 net.cpp:122] Setting up score_pool4c-R
I0716 03:44:35.236069 15421 net.cpp:129] Top shape: 1 3 36 36 (3888)
I0716 03:44:35.236073 15421 net.cpp:137] Memory required for data: 2486011800
I0716 03:44:35.236079 15421 layer_factory.hpp:77] Creating layer fuse_pool4-R
I0716 03:44:35.236088 15421 net.cpp:84] Creating Layer fuse_pool4-R
I0716 03:44:35.236093 15421 net.cpp:406] fuse_pool4-R <- upscore2-new-R_upscore2-new-R_0_split_1
I0716 03:44:35.236097 15421 net.cpp:406] fuse_pool4-R <- score_pool4c-R
I0716 03:44:35.236106 15421 net.cpp:380] fuse_pool4-R -> fuse_pool4-R
I0716 03:44:35.236137 15421 net.cpp:122] Setting up fuse_pool4-R
I0716 03:44:35.236145 15421 net.cpp:129] Top shape: 1 3 36 36 (3888)
I0716 03:44:35.236150 15421 net.cpp:137] Memory required for data: 2486027352
I0716 03:44:35.236153 15421 layer_factory.hpp:77] Creating layer upscore_pool4-new-R
I0716 03:44:35.236161 15421 net.cpp:84] Creating Layer upscore_pool4-new-R
I0716 03:44:35.236166 15421 net.cpp:406] upscore_pool4-new-R <- fuse_pool4-R
I0716 03:44:35.236177 15421 net.cpp:380] upscore_pool4-new-R -> upscore_pool4-new-R
I0716 03:44:35.236423 15421 net.cpp:122] Setting up upscore_pool4-new-R
I0716 03:44:35.236433 15421 net.cpp:129] Top shape: 1 3 74 74 (16428)
I0716 03:44:35.236436 15421 net.cpp:137] Memory required for data: 2486093064
I0716 03:44:35.236441 15421 layer_factory.hpp:77] Creating layer upscore_pool4-new-R_upscore_pool4-new-R_0_split
I0716 03:44:35.236448 15421 net.cpp:84] Creating Layer upscore_pool4-new-R_upscore_pool4-new-R_0_split
I0716 03:44:35.236452 15421 net.cpp:406] upscore_pool4-new-R_upscore_pool4-new-R_0_split <- upscore_pool4-new-R
I0716 03:44:35.236457 15421 net.cpp:380] upscore_pool4-new-R_upscore_pool4-new-R_0_split -> upscore_pool4-new-R_upscore_pool4-new-R_0_split_0
I0716 03:44:35.236464 15421 net.cpp:380] upscore_pool4-new-R_upscore_pool4-new-R_0_split -> upscore_pool4-new-R_upscore_pool4-new-R_0_split_1
I0716 03:44:35.236508 15421 net.cpp:122] Setting up upscore_pool4-new-R_upscore_pool4-new-R_0_split
I0716 03:44:35.236515 15421 net.cpp:129] Top shape: 1 3 74 74 (16428)
I0716 03:44:35.236518 15421 net.cpp:129] Top shape: 1 3 74 74 (16428)
I0716 03:44:35.236522 15421 net.cpp:137] Memory required for data: 2486224488
I0716 03:44:35.236526 15421 layer_factory.hpp:77] Creating layer score_pool3-new-R
I0716 03:44:35.236536 15421 net.cpp:84] Creating Layer score_pool3-new-R
I0716 03:44:35.236554 15421 net.cpp:406] score_pool3-new-R <- pool3-R_pool3-R_0_split_1
I0716 03:44:35.236560 15421 net.cpp:380] score_pool3-new-R -> score_pool3-new-R
I0716 03:44:35.237630 15421 net.cpp:122] Setting up score_pool3-new-R
I0716 03:44:35.237643 15421 net.cpp:129] Top shape: 1 3 89 89 (23763)
I0716 03:44:35.237664 15421 net.cpp:137] Memory required for data: 2486319540
I0716 03:44:35.237671 15421 layer_factory.hpp:77] Creating layer score_pool3c-R
I0716 03:44:35.237694 15421 net.cpp:84] Creating Layer score_pool3c-R
I0716 03:44:35.237699 15421 net.cpp:406] score_pool3c-R <- score_pool3-new-R
I0716 03:44:35.237722 15421 net.cpp:406] score_pool3c-R <- upscore_pool4-new-R_upscore_pool4-new-R_0_split_0
I0716 03:44:35.237728 15421 net.cpp:380] score_pool3c-R -> score_pool3c-R
I0716 03:44:35.237778 15421 net.cpp:122] Setting up score_pool3c-R
I0716 03:44:35.237787 15421 net.cpp:129] Top shape: 1 3 74 74 (16428)
I0716 03:44:35.237789 15421 net.cpp:137] Memory required for data: 2486385252
I0716 03:44:35.237795 15421 layer_factory.hpp:77] Creating layer fuse_pool3-R
I0716 03:44:35.237819 15421 net.cpp:84] Creating Layer fuse_pool3-R
I0716 03:44:35.237823 15421 net.cpp:406] fuse_pool3-R <- upscore_pool4-new-R_upscore_pool4-new-R_0_split_1
I0716 03:44:35.237828 15421 net.cpp:406] fuse_pool3-R <- score_pool3c-R
I0716 03:44:35.237834 15421 net.cpp:380] fuse_pool3-R -> fuse_pool3-R
I0716 03:44:35.237865 15421 net.cpp:122] Setting up fuse_pool3-R
I0716 03:44:35.237874 15421 net.cpp:129] Top shape: 1 3 74 74 (16428)
I0716 03:44:35.237877 15421 net.cpp:137] Memory required for data: 2486450964
I0716 03:44:35.237880 15421 layer_factory.hpp:77] Creating layer upscore8-new-R
I0716 03:44:35.237890 15421 net.cpp:84] Creating Layer upscore8-new-R
I0716 03:44:35.237905 15421 net.cpp:406] upscore8-new-R <- fuse_pool3-R
I0716 03:44:35.237913 15421 net.cpp:380] upscore8-new-R -> upscore8-new-R
I0716 03:44:35.238162 15421 net.cpp:122] Setting up upscore8-new-R
I0716 03:44:35.238173 15421 net.cpp:129] Top shape: 1 3 600 600 (1080000)
I0716 03:44:35.238175 15421 net.cpp:137] Memory required for data: 2490770964
I0716 03:44:35.238181 15421 layer_factory.hpp:77] Creating layer upscore8_cropped-R
I0716 03:44:35.238188 15421 net.cpp:84] Creating Layer upscore8_cropped-R
I0716 03:44:35.238191 15421 net.cpp:406] upscore8_cropped-R <- upscore8-new-R
I0716 03:44:35.238205 15421 net.cpp:406] upscore8_cropped-R <- data-R_crop_0_split_1
I0716 03:44:35.238211 15421 net.cpp:380] upscore8_cropped-R -> upscore8_cropped-R
I0716 03:44:35.238240 15421 net.cpp:122] Setting up upscore8_cropped-R
I0716 03:44:35.238246 15421 net.cpp:129] Top shape: 1 3 512 512 (786432)
I0716 03:44:35.238250 15421 net.cpp:137] Memory required for data: 2493916692
I0716 03:44:35.238253 15421 layer_factory.hpp:77] Creating layer upscore8_uncropped-R
I0716 03:44:35.238602 15421 net.cpp:84] Creating Layer upscore8_uncropped-R
I0716 03:44:35.238636 15421 net.cpp:406] upscore8_uncropped-R <- crop_info
I0716 03:44:35.238643 15421 net.cpp:406] upscore8_uncropped-R <- upscore8_cropped-R
I0716 03:44:35.238648 15421 net.cpp:406] upscore8_uncropped-R <- data_data_0_split_3
I0716 03:44:35.238654 15421 net.cpp:380] upscore8_uncropped-R -> upscore8_uncropped-R
I0716 03:44:35.240967 15421 net.cpp:122] Setting up upscore8_uncropped-R
I0716 03:44:35.240983 15421 net.cpp:129] Top shape: 1 3 512 512 (786432)
I0716 03:44:35.241003 15421 net.cpp:137] Memory required for data: 2497062420
I0716 03:44:35.241008 15421 layer_factory.hpp:77] Creating layer loss1
I0716 03:44:35.241024 15421 net.cpp:84] Creating Layer loss1
I0716 03:44:35.241044 15421 net.cpp:406] loss1 <- upscore8_cropped_upscore8_cropped_0_split_1
I0716 03:44:35.241050 15421 net.cpp:406] loss1 <- label_data_1_split_1
I0716 03:44:35.241063 15421 net.cpp:380] loss1 -> loss1
…
