…
snapshot_prefix: "/media/Med_2T2/data2/models/snapshots/indiv:1e-5x10,20/FD0:ZI3_1_20180418_201415/train"
test_initialization: false
average_loss: 20
stepvalue: 40000
iter_size: 1
I0419 03:26:16.305374 23811 solver.cpp:77] Creating training net from train_net file: /media/Med_2T2/data2/prototxts/training_S3x10.prototxt
I0419 03:26:16.307471 23811 net.cpp:51] Initializing net from parameters: 
state {
  phase: TRAIN
}
layer {
  name: "data"
  type: "Python"
  top: "data"
  top: "label"
  top: "crop_margin"
  top: "crop_prob"
  top: "crop_sample_batch"
  python_param {
    module: "Data"
    layer: "DataLayer"
  }
}
layer {
  name: "conv1_1"
  type: "Convolution"
  bottom: "data"
  top: "conv1_1"
  param {
    lr_mult: 1
    decay_mult: 1
  }
  param {
    lr_mult: 2
    decay_mult: 0
  }
  convolution_param {
    num_output: 64
    pad: 100
    kernel_size: 3
    stride: 1
  }
}
layer {
  name: "relu1_1"
  type: "ReLU"
  bottom: "conv1_1"
  top: "conv1_1"
}
layer {
  name: "conv1_2"
  type: "Convolution"
  bottom: "conv1_1"
  top: "conv1_2"
  param {
    lr_mult: 1
    decay_mult: 1
  }
  param {
    lr_mult: 2
    decay_mult: 0
  }
  convolution_param {
    num_output: 64
    pad: 1
    kernel_size: 3
    stride: 1
  }
}
layer {
  name: "relu1_2"
  type: "ReLU"
  bottom: "conv1_2"
  top: "conv1_2"
}
layer {
  name: "pool1"
  type: "Pooling"
  bottom: "conv1_2"
  top: "pool1"
  pooling_param {
    pool: MAX
    kernel_size: 2
    stride: 2
  }
}
layer {
  name: "conv2_1"
  type: "Convolution"
  bottom: "pool1"
  top: "conv2_1"
  param {
    lr_mult: 1
    decay_mult: 1
  }
  param {
    lr_mult: 2
    decay_mult: 0
  }
  convolution_param {
    num_output: 128
    pad: 1
    kernel_size: 3
    stride: 1
  }
}
layer {
  name: "relu2_1"
  type: "ReLU"
  bottom: "conv2_1"
  top: "conv2_1"
}
layer {
  name: "conv2_2"
  type: "Convolution"
  bottom: "conv2_1"
  top: "conv2_2"
  param {
    lr_mult: 1
    decay_mult: 1
  }
  param {
    lr_mult: 2
    decay_mult: 0
  }
  convolution_param {
    num_output: 128
    pad: 1
    kernel_size: 3
    stride: 1
  }
}
layer {
  name: "relu2_2"
  type: "ReLU"
  bottom: "conv2_2"
  top: "conv2_2"
}
layer {
  name: "pool2"
  type: "Pooling"
  bottom: "conv2_2"
  top: "pool2"
  pooling_param {
    pool: MAX
    kernel_size: 2
    stride: 2
  }
}
layer {
  name: "conv3_1"
  type: "Convolution"
  bottom: "pool2"
  top: "conv3_1"
  param {
    lr_mult: 1
    decay_mult: 1
  }
  param {
    lr_mult: 2
    decay_mult: 0
  }
  convolution_param {
    num_output: 256
    pad: 1
    kernel_size: 3
    stride: 1
  }
}
layer {
  name: "relu3_1"
  type: "ReLU"
  bottom: "conv3_1"
  top: "conv3_1"
}
layer {
  name: "conv3_2"
  type: "Convolution"
  bottom: "conv3_1"
  top: "conv3_2"
  param {
    lr_mult: 1
    decay_mult: 1
  }
  param {
    lr_mult: 2
    decay_mult: 0
  }
  convolution_param {
    num_output: 256
    pad: 1
    kernel_size: 3
    stride: 1
  }
}
layer {
  name: "relu3_2"
  type: "ReLU"
  bottom: "conv3_2"
  top: "conv3_2"
}
layer {
  name: "conv3_3"
  type: "Convolution"
  bottom: "conv3_2"
  top: "conv3_3"
  param {
    lr_mult: 1
    decay_mult: 1
  }
  param {
    lr_mult: 2
    decay_mult: 0
  }
  convolution_param {
    num_output: 256
    pad: 1
    kernel_size: 3
    stride: 1
  }
}
layer {
  name: "relu3_3"
  type: "ReLU"
  bottom: "conv3_3"
  top: "conv3_3"
}
layer {
  name: "pool3"
  type: "Pooling"
  bottom: "conv3_3"
  top: "pool3"
  pooling_param {
    pool: MAX
    kernel_size: 2
    stride: 2
  }
}
layer {
  name: "conv4_1"
  type: "Convolution"
  bottom: "pool3"
  top: "conv4_1"
  param {
    lr_mult: 1
    decay_mult: 1
  }
  param {
    lr_mult: 2
    decay_mult: 0
  }
  convolution_param {
    num_output: 512
    pad: 1
    kernel_size: 3
    stride: 1
  }
}
layer {
  name: "relu4_1"
  type: "ReLU"
  bottom: "conv4_1"
  top: "conv4_1"
}
layer {
  name: "conv4_2"
  type: "Convolution"
  bottom: "conv4_1"
  top: "conv4_2"
  param {
    lr_mult: 1
    decay_mult: 1
  }
  param {
    lr_mult: 2
    decay_mult: 0
  }
  convolution_param {
    num_output: 512
    pad: 1
    kernel_size: 3
    stride: 1
  }
}
layer {
  name: "relu4_2"
  type: "ReLU"
  bottom: "conv4_2"
  top: "conv4_2"
}
layer {
  name: "conv4_3"
  type: "Convolution"
  bottom: "conv4_2"
  top: "conv4_3"
  param {
    lr_mult: 1
    decay_mult: 1
  }
  param {
    lr_mult: 2
    decay_mult: 0
  }
  convolution_param {
    num_output: 512
    pad: 1
    kernel_size: 3
    stride: 1
  }
}
layer {
  name: "relu4_3"
  type: "ReLU"
  bottom: "conv4_3"
  top: "conv4_3"
}
layer {
  name: "pool4"
  type: "Pooling"
  bottom: "conv4_3"
  top: "pool4"
  pooling_param {
    pool: MAX
    kernel_size: 2
    stride: 2
  }
}
layer {
  name: "conv5_1"
  type: "Convolution"
  bottom: "pool4"
  top: "conv5_1"
  param {
    lr_mult: 1
    decay_mult: 1
  }
  param {
    lr_mult: 2
    decay_mult: 0
  }
  convolution_param {
    num_output: 512
    pad: 1
    kernel_size: 3
    stride: 1
  }
}
layer {
  name: "relu5_1"
  type: "ReLU"
  bottom: "conv5_1"
  top: "conv5_1"
}
layer {
  name: "conv5_2"
  type: "Convolution"
  bottom: "conv5_1"
  top: "conv5_2"
  param {
    lr_mult: 1
    decay_mult: 1
  }
  param {
    lr_mult: 2
    decay_mult: 0
  }
  convolution_param {
    num_output: 512
    pad: 1
    kernel_size: 3
    stride: 1
  }
}
layer {
  name: "relu5_2"
  type: "ReLU"
  bottom: "conv5_2"
  top: "conv5_2"
}
layer {
  name: "conv5_3"
  type: "Convolution"
  bottom: "conv5_2"
  top: "conv5_3"
  param {
    lr_mult: 1
    decay_mult: 1
  }
  param {
    lr_mult: 2
    decay_mult: 0
  }
  convolution_param {
    num_output: 512
    pad: 1
    kernel_size: 3
    stride: 1
  }
}
layer {
  name: "relu5_3"
  type: "ReLU"
  bottom: "conv5_3"
  top: "conv5_3"
}
layer {
  name: "pool5"
  type: "Pooling"
  bottom: "conv5_3"
  top: "pool5"
  pooling_param {
    pool: MAX
    kernel_size: 2
    stride: 2
  }
}
layer {
  name: "fc6"
  type: "Convolution"
  bottom: "pool5"
  top: "fc6"
  param {
    lr_mult: 1
    decay_mult: 1
  }
  param {
    lr_mult: 2
    decay_mult: 0
  }
  convolution_param {
    num_output: 4096
    pad: 0
    kernel_size: 7
    stride: 1
  }
}
layer {
  name: "relu6"
  type: "ReLU"
  bottom: "fc6"
  top: "fc6"
}
layer {
  name: "drop6"
  type: "Dropout"
  bottom: "fc6"
  top: "fc6"
  dropout_param {
    dropout_ratio: 0.5
  }
}
layer {
  name: "fc7"
  type: "Convolution"
  bottom: "fc6"
  top: "fc7"
  param {
    lr_mult: 1
    decay_mult: 1
  }
  param {
    lr_mult: 2
    decay_mult: 0
  }
  convolution_param {
    num_output: 4096
    pad: 0
    kernel_size: 1
    stride: 1
  }
}
layer {
  name: "relu7"
  type: "ReLU"
  bottom: "fc7"
  top: "fc7"
}
layer {
  name: "drop7"
  type: "Dropout"
  bottom: "fc7"
  top: "fc7"
  dropout_param {
    dropout_ratio: 0.5
  }
}
layer {
  name: "score_fr-new"
  type: "Convolution"
  bottom: "fc7"
  top: "score_fr-new"
  param {
    lr_mult: 1
    decay_mult: 1
  }
  param {
    lr_mult: 2
    decay_mult: 0
  }
  convolution_param {
    num_output: 3
    kernel_size: 1
  }
}
layer {
  name: "upscore2-new"
  type: "Deconvolution"
  bottom: "score_fr-new"
  top: "upscore2-new"
  param {
    lr_mult: 0
  }
  convolution_param {
    num_output: 3
    bias_term: false
    kernel_size: 4
    stride: 2
  }
}
layer {
  name: "score_pool4-new"
  type: "Convolution"
  bottom: "pool4"
  top: "score_pool4-new"
  param {
    lr_mult: 1
    decay_mult: 1
  }
  param {
    lr_mult: 2
    decay_mult: 0
  }
  convolution_param {
    num_output: 3
    pad: 0
    kernel_size: 1
  }
}
layer {
  name: "score_pool4c"
  type: "Crop"
  bottom: "score_pool4-new"
  bottom: "upscore2-new"
  top: "score_pool4c"
  crop_param {
    axis: 2
    offset: 5
  }
}
layer {
  name: "fuse_pool4"
  type: "Eltwise"
  bottom: "upscore2-new"
  bottom: "score_pool4c"
  top: "fuse_pool4"
  eltwise_param {
    operation: SUM
  }
}
layer {
  name: "upscore_pool4-new"
  type: "Deconvolution"
  bottom: "fuse_pool4"
  top: "upscore_pool4-new"
  param {
    lr_mult: 0
  }
  convolution_param {
    num_output: 3
    bias_term: false
    kernel_size: 4
    stride: 2
  }
}
layer {
  name: "score_pool3-new"
  type: "Convolution"
  bottom: "pool3"
  top: "score_pool3-new"
  param {
    lr_mult: 1
    decay_mult: 1
  }
  param {
    lr_mult: 2
    decay_mult: 0
  }
  convolution_param {
    num_output: 3
    pad: 0
    kernel_size: 1
  }
}
layer {
  name: "score_pool3c"
  type: "Crop"
  bottom: "score_pool3-new"
  bottom: "upscore_pool4-new"
  top: "score_pool3c"
  crop_param {
    axis: 2
    offset: 9
  }
}
layer {
  name: "fuse_pool3"
  type: "Eltwise"
  bottom: "upscore_pool4-new"
  bottom: "score_pool3c"
  top: "fuse_pool3"
  eltwise_param {
    operation: SUM
  }
}
layer {
  name: "upscore8-new"
  type: "Deconvolution"
  bottom: "fuse_pool3"
  top: "upscore8-new"
  param {
    lr_mult: 0
  }
  convolution_param {
    num_output: 3
    bias_term: false
    kernel_size: 16
    stride: 8
  }
}
layer {
  name: "upscore8_cropped"
  type: "Crop"
  bottom: "upscore8-new"
  bottom: "data"
  top: "upscore8_cropped"
  crop_param {
    axis: 2
    offset: 31
  }
}
layer {
  name: "score"
  type: "Convolution"
  bottom: "upscore8_cropped"
  top: "score"
  param {
    lr_mult: 1
    decay_mult: 1
  }
  param {
    lr_mult: 2
    decay_mult: 0
  }
  convolution_param {
    num_output: 3
    pad: 1
    kernel_size: 3
    stride: 1
    weight_filler {
      type: "xavier"
    }
    bias_filler {
      type: "constant"
      value: 0
    }
  }
}
layer {
  name: "prob"
  type: "Sigmoid"
  bottom: "score"
  top: "prob"
}
layer {
  name: "saliency"
  type: "Convolution"
  bottom: "prob"
  top: "saliency"
  param {
    lr_mult: 10
    decay_mult: 1
  }
  param {
    lr_mult: 20
    decay_mult: 0
  }
  convolution_param {
    num_output: 3
    pad: 2
    kernel_size: 5
    stride: 1
    weight_filler {
      type: "xavier"
    }
    bias_filler {
      type: "constant"
      value: 1
    }
  }
}
layer {
  name: "silence_saliency"
  type: "Silence"
  bottom: "saliency"
}
layer {
  name: "crop"
  type: "Python"
  bottom: "label"
  bottom: "data"
  bottom: "crop_margin"
  bottom: "crop_prob"
  bottom: "crop_sample_batch"
  top: "data-R"
  top: "crop_info"
  python_param {
    module: "Crop"
    layer: "CropLayer"
    param_str: "{\"TEST\": 0}"
  }
}
layer {
  name: "conv1_1-R"
  type: "Convolution"
  bottom: "data-R"
  top: "conv1_1-R"
  param {
    lr_mult: 10
    decay_mult: 1
  }
  param {
    lr_mult: 20
    decay_mult: 0
  }
  convolution_param {
    num_output: 64
    pad: 100
    kernel_size: 3
    stride: 1
  }
}
layer {
  name: "relu1_1-R"
  type: "ReLU"
  bottom: "conv1_1-R"
  top: "conv1_1-R"
}
layer {
  name: "conv1_2-R"
  type: "Convolution"
  bottom: "conv1_1-R"
  top: "conv1_2-R"
  param {
    lr_mult: 10
    decay_mult: 1
  }
  param {
    lr_mult: 20
    decay_mult: 0
  }
  convolution_param {
    num_output: 64
    pad: 1
    kernel_size: 3
    stride: 1
  }
}
layer {
  name: "relu1_2-R"
  type: "ReLU"
  bottom: "conv1_2-R"
  top: "conv1_2-R"
}
layer {
  name: "pool1-R"
  type: "Pooling"
  bottom: "conv1_2-R"
  top: "pool1-R"
  pooling_param {
    pool: MAX
    kernel_size: 2
    stride: 2
  }
}
layer {
  name: "conv2_1-R"
  type: "Convolution"
  bottom: "pool1-R"
  top: "conv2_1-R"
  param {
    lr_mult: 10
    decay_mult: 1
  }
  param {
    lr_mult: 20
    decay_mult: 0
  }
  convolution_param {
    num_output: 128
    pad: 1
    kernel_size: 3
    stride: 1
  }
}
layer {
  name: "relu2_1-R"
  type: "ReLU"
  bottom: "conv2_1-R"
  top: "conv2_1-R"
}
layer {
  name: "conv2_2-R"
  type: "Convolution"
  bottom: "conv2_1-R"
  top: "conv2_2-R"
  param {
    lr_mult: 10
    decay_mult: 1
  }
  param {
    lr_mult: 20
    decay_mult: 0
  }
  convolution_param {
    num_output: 128
    pad: 1
    kernel_size: 3
    stride: 1
  }
}
layer {
  name: "relu2_2-R"
  type: "ReLU"
  bottom: "conv2_2-R"
  top: "conv2_2-R"
}
layer {
  name: "pool2-R"
  type: "Pooling"
  bottom: "conv2_2-R"
  top: "pool2-R"
  pooling_param {
    pool: MAX
    kernel_size: 2
    stride: 2
  }
}
layer {
  name: "conv3_1-R"
  type: "Convolution"
  bottom: "pool2-R"
  top: "conv3_1-R"
  param {
    lr_mult: 10
    decay_mult: 1
  }
  param {
    lr_mult: 20
    decay_mult: 0
  }
  convolution_param {
    num_output: 256
    pad: 1
    kernel_size: 3
    stride: 1
  }
}
layer {
  name: "relu3_1-R"
  type: "ReLU"
  bottom: "conv3_1-R"
  top: "conv3_1-R"
}
layer {
  name: "conv3_2-R"
  type: "Convolution"
  bottom: "conv3_1-R"
  top: "conv3_2-R"
  param {
    lr_mult: 10
    decay_mult: 1
  }
  param {
    lr_mult: 20
    decay_mult: 0
  }
  convolution_param {
    num_output: 256
    pad: 1
    kernel_size: 3
    stride: 1
  }
}
layer {
  name: "relu3_2-R"
  type: "ReLU"
  bottom: "conv3_2-R"
  top: "conv3_2-R"
}
layer {
  name: "conv3_3-R"
  type: "Convolution"
  bottom: "conv3_2-R"
  top: "conv3_3-R"
  param {
    lr_mult: 10
    decay_mult: 1
  }
  param {
    lr_mult: 20
    decay_mult: 0
  }
  convolution_param {
    num_output: 256
    pad: 1
    kernel_size: 3
    stride: 1
  }
}
layer {
  name: "relu3_3-R"
  type: "ReLU"
  bottom: "conv3_3-R"
  top: "conv3_3-R"
}
layer {
  name: "pool3-R"
  type: "Pooling"
  bottom: "conv3_3-R"
  top: "pool3-R"
  pooling_param {
    pool: MAX
    kernel_size: 2
    stride: 2
  }
}
layer {
  name: "conv4_1-R"
  type: "Convolution"
  bottom: "pool3-R"
  top: "conv4_1-R"
  param {
    lr_mult: 10
    decay_mult: 1
  }
  param {
    lr_mult: 20
    decay_mult: 0
  }
  convolution_param {
    num_output: 512
    pad: 1
    kernel_size: 3
    stride: 1
  }
}
layer {
  name: "relu4_1-R"
  type: "ReLU"
  bottom: "conv4_1-R"
  top: "conv4_1-R"
}
layer {
  name: "conv4_2-R"
  type: "Convolution"
  bottom: "conv4_1-R"
  top: "conv4_2-R"
  param {
    lr_mult: 10
    decay_mult: 1
  }
  param {
    lr_mult: 20
    decay_mult: 0
  }
  convolution_param {
    num_output: 512
    pad: 1
    kernel_size: 3
    stride: 1
  }
}
layer {
  name: "relu4_2-R"
  type: "ReLU"
  bottom: "conv4_2-R"
  top: "conv4_2-R"
}
layer {
  name: "conv4_3-R"
  type: "Convolution"
  bottom: "conv4_2-R"
  top: "conv4_3-R"
  param {
    lr_mult: 10
    decay_mult: 1
  }
  param {
    lr_mult: 20
    decay_mult: 0
  }
  convolution_param {
    num_output: 512
    pad: 1
    kernel_size: 3
    stride: 1
  }
}
layer {
  name: "relu4_3-R"
  type: "ReLU"
  bottom: "conv4_3-R"
  top: "conv4_3-R"
}
layer {
  name: "pool4-R"
  type: "Pooling"
  bottom: "conv4_3-R"
  top: "pool4-R"
  pooling_param {
    pool: MAX
    kernel_size: 2
    stride: 2
  }
}
layer {
  name: "conv5_1-R"
  type: "Convolution"
  bottom: "pool4-R"
  top: "conv5_1-R"
  param {
    lr_mult: 10
    decay_mult: 1
  }
  param {
    lr_mult: 20
    decay_mult: 0
  }
  convolution_param {
    num_output: 512
    pad: 1
    kernel_size: 3
    stride: 1
  }
}
layer {
  name: "relu5_1-R"
  type: "ReLU"
  bottom: "conv5_1-R"
  top: "conv5_1-R"
}
layer {
  name: "conv5_2-R"
  type: "Convolution"
  bottom: "conv5_1-R"
  top: "conv5_2-R"
  param {
    lr_mult: 10
    decay_mult: 1
  }
  param {
    lr_mult: 20
    decay_mult: 0
  }
  convolution_param {
    num_output: 512
    pad: 1
    kernel_size: 3
    stride: 1
  }
}
layer {
  name: "relu5_2-R"
  type: "ReLU"
  bottom: "conv5_2-R"
  top: "conv5_2-R"
}
layer {
  name: "conv5_3-R"
  type: "Convolution"
  bottom: "conv5_2-R"
  top: "conv5_3-R"
  param {
    lr_mult: 10
    decay_mult: 1
  }
  param {
    lr_mult: 20
    decay_mult: 0
  }
  convolution_param {
    num_output: 512
    pad: 1
    kernel_size: 3
    stride: 1
  }
}
layer {
  name: "relu5_3-R"
  type: "ReLU"
  bottom: "conv5_3-R"
  top: "conv5_3-R"
}
layer {
  name: "pool5-R"
  type: "Pooling"
  bottom: "conv5_3-R"
  top: "pool5-R"
  pooling_param {
    pool: MAX
    kernel_size: 2
    stride: 2
  }
}
layer {
  name: "fc6-R"
  type: "Convolution"
  bottom: "pool5-R"
  top: "fc6-R"
  param {
    lr_mult: 10
    decay_mult: 1
  }
  param {
    lr_mult: 20
    decay_mult: 0
  }
  convolution_param {
    num_output: 4096
    pad: 0
    kernel_size: 7
    stride: 1
  }
}
layer {
  name: "relu6-R"
  type: "ReLU"
  bottom: "fc6-R"
  top: "fc6-R"
}
layer {
  name: "drop6-R"
  type: "Dropout"
  bottom: "fc6-R"
  top: "fc6-R"
  dropout_param {
    dropout_ratio: 0.5
  }
}
layer {
  name: "fc7-R"
  type: "Convolution"
  bottom: "fc6-R"
  top: "fc7-R"
  param {
    lr_mult: 10
    decay_mult: 1
  }
  param {
    lr_mult: 20
    decay_mult: 0
  }
  convolution_param {
    num_output: 4096
    pad: 0
    kernel_size: 1
    stride: 1
  }
}
layer {
  name: "relu7-R"
  type: "ReLU"
  bottom: "fc7-R"
  top: "fc7-R"
}
layer {
  name: "drop7-R"
  type: "Dropout"
  bottom: "fc7-R"
  top: "fc7-R"
  dropout_param {
    dropout_ratio: 0.5
  }
}
layer {
  name: "score_fr-new-R"
  type: "Convolution"
  bottom: "fc7-R"
  top: "score_fr-new-R"
  param {
    lr_mult: 10
    decay_mult: 1
  }
  param {
    lr_mult: 20
    decay_mult: 0
  }
  convolution_param {
    num_output: 3
    kernel_size: 1
  }
}
layer {
  name: "upscore2-new-R"
  type: "Deconvolution"
  bottom: "score_fr-new-R"
  top: "upscore2-new-R"
  param {
    lr_mult: 0
  }
  convolution_param {
    num_output: 3
    bias_term: false
    kernel_size: 4
    stride: 2
  }
}
layer {
  name: "score_pool4-new-R"
  type: "Convolution"
  bottom: "pool4-R"
  top: "score_pool4-new-R"
  param {
    lr_mult: 10
    decay_mult: 1
  }
  param {
    lr_mult: 20
    decay_mult: 0
  }
  convolution_param {
    num_output: 3
    pad: 0
    kernel_size: 1
  }
}
layer {
  name: "score_pool4c-R"
  type: "Crop"
  bottom: "score_pool4-new-R"
  bottom: "upscore2-new-R"
  top: "score_pool4c-R"
  crop_param {
    axis: 2
    offset: 5
  }
}
layer {
  name: "fuse_pool4-R"
  type: "Eltwise"
  bottom: "upscore2-new-R"
  bottom: "score_pool4c-R"
  top: "fuse_pool4-R"
  eltwise_param {
    operation: SUM
  }
}
layer {
  name: "upscore_pool4-new-R"
  type: "Deconvolution"
  bottom: "fuse_pool4-R"
  top: "upscore_pool4-new-R"
  param {
    lr_mult: 0
  }
  convolution_param {
    num_output: 3
    bias_term: false
    kernel_size: 4
    stride: 2
  }
}
layer {
  name: "score_pool3-new-R"
  type: "Convolution"
  bottom: "pool3-R"
  top: "score_pool3-new-R"
  param {
    lr_mult: 10
    decay_mult: 1
  }
  param {
    lr_mult: 20
    decay_mult: 0
  }
  convolution_param {
    num_output: 3
    pad: 0
    kernel_size: 1
  }
}
layer {
  name: "score_pool3c-R"
  type: "Crop"
  bottom: "score_pool3-new-R"
  bottom: "upscore_pool4-new-R"
  top: "score_pool3c-R"
  crop_param {
    axis: 2
    offset: 9
  }
}
layer {
  name: "fuse_pool3-R"
  type: "Eltwise"
  bottom: "upscore_pool4-new-R"
  bottom: "score_pool3c-R"
  top: "fuse_pool3-R"
  eltwise_param {
    operation: SUM
  }
}
layer {
  name: "upscore8-new-R"
  type: "Deconvolution"
  bottom: "fuse_pool3-R"
  top: "upscore8-new-R"
  param {
    lr_mult: 0
  }
  convolution_param {
    num_output: 3
    bias_term: false
    kernel_size: 16
    stride: 8
  }
}
layer {
  name: "upscore8_cropped-R"
  type: "Crop"
  bottom: "upscore8-new-R"
  bottom: "data-R"
  top: "upscore8_cropped-R"
  crop_param {
    axis: 2
    offset: 31
  }
}
layer {
  name: "score-R"
  type: "Convolution"
  bottom: "upscore8_cropped-R"
  top: "score-R"
  param {
    lr_mult: 10
    decay_mult: 1
  }
  param {
    lr_mult: 20
    decay_mult: 0
  }
  convolution_param {
    num_output: 3
    pad: 1
    kernel_size: 3
    stride: 1
    weight_filler {
      type: "xavier"
    }
    bias_filler {
      type: "constant"
      value: 0
    }
  }
}
layer {
  name: "score_uncropped-R"
  type: "Python"
  bottom: "crop_info"
  bottom: "score-R"
  bottom: "data"
  top: "score_uncropped-R"
  python_param {
    module: "Uncrop"
    layer: "UncropLayer"
  }
}
layer {
  name: "loss1"
  type: "DiceLoss"
  bottom: "score"
  bottom: "label"
  top: "loss1"
  loss_weight: 0.333333
}
layer {
  name: "loss2"
  type: "DiceLoss"
  bottom: "score_uncropped-R"
  bottom: "label"
  top: "loss2"
  loss_weight: 0.666667
}
I0419 03:26:16.308085 23811 layer_factory.hpp:77] Creating layer data
I0419 03:26:16.308624 23811 net.cpp:84] Creating Layer data
I0419 03:26:16.308655 23811 net.cpp:380] data -> data
I0419 03:26:16.308670 23811 net.cpp:380] data -> label
I0419 03:26:16.308676 23811 net.cpp:380] data -> crop_margin
I0419 03:26:16.308681 23811 net.cpp:380] data -> crop_prob
I0419 03:26:16.308686 23811 net.cpp:380] data -> crop_sample_batch
I0419 03:26:16.381520 23811 net.cpp:122] Setting up data
I0419 03:26:16.381597 23811 net.cpp:129] Top shape: 1 3 512 512 (786432)
I0419 03:26:16.381609 23811 net.cpp:129] Top shape: 1 3 512 512 (786432)
I0419 03:26:16.381619 23811 net.cpp:129] Top shape: 1 (1)
I0419 03:26:16.381628 23811 net.cpp:129] Top shape: 1 (1)
I0419 03:26:16.381636 23811 net.cpp:129] Top shape: 1 (1)
I0419 03:26:16.381644 23811 net.cpp:137] Memory required for data: 6291468
I0419 03:26:16.381654 23811 layer_factory.hpp:77] Creating layer data_data_0_split
I0419 03:26:16.381682 23811 net.cpp:84] Creating Layer data_data_0_split
I0419 03:26:16.381691 23811 net.cpp:406] data_data_0_split <- data
I0419 03:26:16.381712 23811 net.cpp:380] data_data_0_split -> data_data_0_split_0
I0419 03:26:16.381733 23811 net.cpp:380] data_data_0_split -> data_data_0_split_1
I0419 03:26:16.381747 23811 net.cpp:380] data_data_0_split -> data_data_0_split_2
I0419 03:26:16.381758 23811 net.cpp:380] data_data_0_split -> data_data_0_split_3
I0419 03:26:16.381865 23811 net.cpp:122] Setting up data_data_0_split
I0419 03:26:16.381881 23811 net.cpp:129] Top shape: 1 3 512 512 (786432)
I0419 03:26:16.381889 23811 net.cpp:129] Top shape: 1 3 512 512 (786432)
I0419 03:26:16.381898 23811 net.cpp:129] Top shape: 1 3 512 512 (786432)
I0419 03:26:16.381906 23811 net.cpp:129] Top shape: 1 3 512 512 (786432)
I0419 03:26:16.381913 23811 net.cpp:137] Memory required for data: 18874380
I0419 03:26:16.381920 23811 layer_factory.hpp:77] Creating layer label_data_1_split
I0419 03:26:16.381932 23811 net.cpp:84] Creating Layer label_data_1_split
I0419 03:26:16.381939 23811 net.cpp:406] label_data_1_split <- label
I0419 03:26:16.381950 23811 net.cpp:380] label_data_1_split -> label_data_1_split_0
I0419 03:26:16.381963 23811 net.cpp:380] label_data_1_split -> label_data_1_split_1
I0419 03:26:16.381973 23811 net.cpp:380] label_data_1_split -> label_data_1_split_2
I0419 03:26:16.382041 23811 net.cpp:122] Setting up label_data_1_split
I0419 03:26:16.382053 23811 net.cpp:129] Top shape: 1 3 512 512 (786432)
I0419 03:26:16.382062 23811 net.cpp:129] Top shape: 1 3 512 512 (786432)
I0419 03:26:16.382071 23811 net.cpp:129] Top shape: 1 3 512 512 (786432)
I0419 03:26:16.382077 23811 net.cpp:137] Memory required for data: 28311564
I0419 03:26:16.382084 23811 layer_factory.hpp:77] Creating layer conv1_1
I0419 03:26:16.382112 23811 net.cpp:84] Creating Layer conv1_1
I0419 03:26:16.382123 23811 net.cpp:406] conv1_1 <- data_data_0_split_0
I0419 03:26:16.382136 23811 net.cpp:380] conv1_1 -> conv1_1
I0419 03:26:16.695156 23811 net.cpp:122] Setting up conv1_1
I0419 03:26:16.695209 23811 net.cpp:129] Top shape: 1 64 710 710 (32262400)
I0419 03:26:16.695215 23811 net.cpp:137] Memory required for data: 157361164
I0419 03:26:16.695240 23811 layer_factory.hpp:77] Creating layer relu1_1
I0419 03:26:16.695271 23811 net.cpp:84] Creating Layer relu1_1
I0419 03:26:16.695276 23811 net.cpp:406] relu1_1 <- conv1_1
I0419 03:26:16.695282 23811 net.cpp:367] relu1_1 -> conv1_1 (in-place)
I0419 03:26:16.695478 23811 net.cpp:122] Setting up relu1_1
I0419 03:26:16.695489 23811 net.cpp:129] Top shape: 1 64 710 710 (32262400)
I0419 03:26:16.695493 23811 net.cpp:137] Memory required for data: 286410764
I0419 03:26:16.695497 23811 layer_factory.hpp:77] Creating layer conv1_2
I0419 03:26:16.695508 23811 net.cpp:84] Creating Layer conv1_2
I0419 03:26:16.695513 23811 net.cpp:406] conv1_2 <- conv1_1
I0419 03:26:16.695519 23811 net.cpp:380] conv1_2 -> conv1_2
I0419 03:26:16.704453 23811 net.cpp:122] Setting up conv1_2
I0419 03:26:16.704469 23811 net.cpp:129] Top shape: 1 64 710 710 (32262400)
I0419 03:26:16.704489 23811 net.cpp:137] Memory required for data: 415460364
I0419 03:26:16.704499 23811 layer_factory.hpp:77] Creating layer relu1_2
I0419 03:26:16.704505 23811 net.cpp:84] Creating Layer relu1_2
I0419 03:26:16.704509 23811 net.cpp:406] relu1_2 <- conv1_2
I0419 03:26:16.704514 23811 net.cpp:367] relu1_2 -> conv1_2 (in-place)
I0419 03:26:16.704715 23811 net.cpp:122] Setting up relu1_2
I0419 03:26:16.704725 23811 net.cpp:129] Top shape: 1 64 710 710 (32262400)
I0419 03:26:16.704728 23811 net.cpp:137] Memory required for data: 544509964
I0419 03:26:16.704731 23811 layer_factory.hpp:77] Creating layer pool1
I0419 03:26:16.704740 23811 net.cpp:84] Creating Layer pool1
I0419 03:26:16.704742 23811 net.cpp:406] pool1 <- conv1_2
I0419 03:26:16.704749 23811 net.cpp:380] pool1 -> pool1
I0419 03:26:16.704798 23811 net.cpp:122] Setting up pool1
I0419 03:26:16.704807 23811 net.cpp:129] Top shape: 1 64 355 355 (8065600)
I0419 03:26:16.704809 23811 net.cpp:137] Memory required for data: 576772364
I0419 03:26:16.704813 23811 layer_factory.hpp:77] Creating layer conv2_1
I0419 03:26:16.704823 23811 net.cpp:84] Creating Layer conv2_1
I0419 03:26:16.704826 23811 net.cpp:406] conv2_1 <- pool1
I0419 03:26:16.704833 23811 net.cpp:380] conv2_1 -> conv2_1
I0419 03:26:16.709326 23811 net.cpp:122] Setting up conv2_1
I0419 03:26:16.709357 23811 net.cpp:129] Top shape: 1 128 355 355 (16131200)
I0419 03:26:16.709364 23811 net.cpp:137] Memory required for data: 641297164
I0419 03:26:16.709384 23811 layer_factory.hpp:77] Creating layer relu2_1
I0419 03:26:16.709398 23811 net.cpp:84] Creating Layer relu2_1
I0419 03:26:16.709405 23811 net.cpp:406] relu2_1 <- conv2_1
I0419 03:26:16.709417 23811 net.cpp:367] relu2_1 -> conv2_1 (in-place)
I0419 03:26:16.709774 23811 net.cpp:122] Setting up relu2_1
I0419 03:26:16.709791 23811 net.cpp:129] Top shape: 1 128 355 355 (16131200)
I0419 03:26:16.709798 23811 net.cpp:137] Memory required for data: 705821964
I0419 03:26:16.709805 23811 layer_factory.hpp:77] Creating layer conv2_2
I0419 03:26:16.709821 23811 net.cpp:84] Creating Layer conv2_2
I0419 03:26:16.709830 23811 net.cpp:406] conv2_2 <- conv2_1
I0419 03:26:16.709841 23811 net.cpp:380] conv2_2 -> conv2_2
I0419 03:26:16.713045 23811 net.cpp:122] Setting up conv2_2
I0419 03:26:16.713076 23811 net.cpp:129] Top shape: 1 128 355 355 (16131200)
I0419 03:26:16.713084 23811 net.cpp:137] Memory required for data: 770346764
I0419 03:26:16.713099 23811 layer_factory.hpp:77] Creating layer relu2_2
I0419 03:26:16.713111 23811 net.cpp:84] Creating Layer relu2_2
I0419 03:26:16.713119 23811 net.cpp:406] relu2_2 <- conv2_2
I0419 03:26:16.713131 23811 net.cpp:367] relu2_2 -> conv2_2 (in-place)
I0419 03:26:16.713479 23811 net.cpp:122] Setting up relu2_2
I0419 03:26:16.713496 23811 net.cpp:129] Top shape: 1 128 355 355 (16131200)
I0419 03:26:16.713503 23811 net.cpp:137] Memory required for data: 834871564
I0419 03:26:16.713510 23811 layer_factory.hpp:77] Creating layer pool2
I0419 03:26:16.713522 23811 net.cpp:84] Creating Layer pool2
I0419 03:26:16.713531 23811 net.cpp:406] pool2 <- conv2_2
I0419 03:26:16.713541 23811 net.cpp:380] pool2 -> pool2
I0419 03:26:16.713623 23811 net.cpp:122] Setting up pool2
I0419 03:26:16.713636 23811 net.cpp:129] Top shape: 1 128 178 178 (4055552)
I0419 03:26:16.713644 23811 net.cpp:137] Memory required for data: 851093772
I0419 03:26:16.713650 23811 layer_factory.hpp:77] Creating layer conv3_1
I0419 03:26:16.713665 23811 net.cpp:84] Creating Layer conv3_1
I0419 03:26:16.713673 23811 net.cpp:406] conv3_1 <- pool2
I0419 03:26:16.713685 23811 net.cpp:380] conv3_1 -> conv3_1
I0419 03:26:16.723501 23811 net.cpp:122] Setting up conv3_1
I0419 03:26:16.723516 23811 net.cpp:129] Top shape: 1 256 178 178 (8111104)
I0419 03:26:16.723536 23811 net.cpp:137] Memory required for data: 883538188
I0419 03:26:16.723546 23811 layer_factory.hpp:77] Creating layer relu3_1
I0419 03:26:16.723553 23811 net.cpp:84] Creating Layer relu3_1
I0419 03:26:16.723556 23811 net.cpp:406] relu3_1 <- conv3_1
I0419 03:26:16.723562 23811 net.cpp:367] relu3_1 -> conv3_1 (in-place)
I0419 03:26:16.724155 23811 net.cpp:122] Setting up relu3_1
I0419 03:26:16.724169 23811 net.cpp:129] Top shape: 1 256 178 178 (8111104)
I0419 03:26:16.724187 23811 net.cpp:137] Memory required for data: 915982604
I0419 03:26:16.724190 23811 layer_factory.hpp:77] Creating layer conv3_2
I0419 03:26:16.724200 23811 net.cpp:84] Creating Layer conv3_2
I0419 03:26:16.724203 23811 net.cpp:406] conv3_2 <- conv3_1
I0419 03:26:16.724210 23811 net.cpp:380] conv3_2 -> conv3_2
I0419 03:26:16.730397 23811 net.cpp:122] Setting up conv3_2
I0419 03:26:16.730432 23811 net.cpp:129] Top shape: 1 256 178 178 (8111104)
I0419 03:26:16.730435 23811 net.cpp:137] Memory required for data: 948427020
I0419 03:26:16.730443 23811 layer_factory.hpp:77] Creating layer relu3_2
I0419 03:26:16.730468 23811 net.cpp:84] Creating Layer relu3_2
I0419 03:26:16.730471 23811 net.cpp:406] relu3_2 <- conv3_2
I0419 03:26:16.730492 23811 net.cpp:367] relu3_2 -> conv3_2 (in-place)
I0419 03:26:16.731467 23811 net.cpp:122] Setting up relu3_2
I0419 03:26:16.731508 23811 net.cpp:129] Top shape: 1 256 178 178 (8111104)
I0419 03:26:16.731515 23811 net.cpp:137] Memory required for data: 980871436
I0419 03:26:16.731523 23811 layer_factory.hpp:77] Creating layer conv3_3
I0419 03:26:16.731552 23811 net.cpp:84] Creating Layer conv3_3
I0419 03:26:16.731560 23811 net.cpp:406] conv3_3 <- conv3_2
I0419 03:26:16.731575 23811 net.cpp:380] conv3_3 -> conv3_3
I0419 03:26:16.737751 23811 net.cpp:122] Setting up conv3_3
I0419 03:26:16.737803 23811 net.cpp:129] Top shape: 1 256 178 178 (8111104)
I0419 03:26:16.737813 23811 net.cpp:137] Memory required for data: 1013315852
I0419 03:26:16.737830 23811 layer_factory.hpp:77] Creating layer relu3_3
I0419 03:26:16.737856 23811 net.cpp:84] Creating Layer relu3_3
I0419 03:26:16.737865 23811 net.cpp:406] relu3_3 <- conv3_3
I0419 03:26:16.737877 23811 net.cpp:367] relu3_3 -> conv3_3 (in-place)
I0419 03:26:16.738284 23811 net.cpp:122] Setting up relu3_3
I0419 03:26:16.738306 23811 net.cpp:129] Top shape: 1 256 178 178 (8111104)
I0419 03:26:16.738313 23811 net.cpp:137] Memory required for data: 1045760268
I0419 03:26:16.738328 23811 layer_factory.hpp:77] Creating layer pool3
I0419 03:26:16.738342 23811 net.cpp:84] Creating Layer pool3
I0419 03:26:16.738348 23811 net.cpp:406] pool3 <- conv3_3
I0419 03:26:16.738368 23811 net.cpp:380] pool3 -> pool3
I0419 03:26:16.738472 23811 net.cpp:122] Setting up pool3
I0419 03:26:16.738485 23811 net.cpp:129] Top shape: 1 256 89 89 (2027776)
I0419 03:26:16.738492 23811 net.cpp:137] Memory required for data: 1053871372
I0419 03:26:16.738510 23811 layer_factory.hpp:77] Creating layer pool3_pool3_0_split
I0419 03:26:16.738528 23811 net.cpp:84] Creating Layer pool3_pool3_0_split
I0419 03:26:16.738541 23811 net.cpp:406] pool3_pool3_0_split <- pool3
I0419 03:26:16.738553 23811 net.cpp:380] pool3_pool3_0_split -> pool3_pool3_0_split_0
I0419 03:26:16.738580 23811 net.cpp:380] pool3_pool3_0_split -> pool3_pool3_0_split_1
I0419 03:26:16.738654 23811 net.cpp:122] Setting up pool3_pool3_0_split
I0419 03:26:16.738667 23811 net.cpp:129] Top shape: 1 256 89 89 (2027776)
I0419 03:26:16.738675 23811 net.cpp:129] Top shape: 1 256 89 89 (2027776)
I0419 03:26:16.738684 23811 net.cpp:137] Memory required for data: 1070093580
I0419 03:26:16.738690 23811 layer_factory.hpp:77] Creating layer conv4_1
I0419 03:26:16.738706 23811 net.cpp:84] Creating Layer conv4_1
I0419 03:26:16.738716 23811 net.cpp:406] conv4_1 <- pool3_pool3_0_split_0
I0419 03:26:16.738729 23811 net.cpp:380] conv4_1 -> conv4_1
I0419 03:26:16.748564 23811 net.cpp:122] Setting up conv4_1
I0419 03:26:16.748579 23811 net.cpp:129] Top shape: 1 512 89 89 (4055552)
I0419 03:26:16.748584 23811 net.cpp:137] Memory required for data: 1086315788
I0419 03:26:16.748607 23811 layer_factory.hpp:77] Creating layer relu4_1
I0419 03:26:16.748615 23811 net.cpp:84] Creating Layer relu4_1
I0419 03:26:16.748620 23811 net.cpp:406] relu4_1 <- conv4_1
I0419 03:26:16.748625 23811 net.cpp:367] relu4_1 -> conv4_1 (in-place)
I0419 03:26:16.748826 23811 net.cpp:122] Setting up relu4_1
I0419 03:26:16.748836 23811 net.cpp:129] Top shape: 1 512 89 89 (4055552)
I0419 03:26:16.748841 23811 net.cpp:137] Memory required for data: 1102537996
I0419 03:26:16.748844 23811 layer_factory.hpp:77] Creating layer conv4_2
I0419 03:26:16.748853 23811 net.cpp:84] Creating Layer conv4_2
I0419 03:26:16.748857 23811 net.cpp:406] conv4_2 <- conv4_1
I0419 03:26:16.748863 23811 net.cpp:380] conv4_2 -> conv4_2
I0419 03:26:16.756208 23811 net.cpp:122] Setting up conv4_2
I0419 03:26:16.756248 23811 net.cpp:129] Top shape: 1 512 89 89 (4055552)
I0419 03:26:16.756254 23811 net.cpp:137] Memory required for data: 1118760204
I0419 03:26:16.756273 23811 layer_factory.hpp:77] Creating layer relu4_2
I0419 03:26:16.756283 23811 net.cpp:84] Creating Layer relu4_2
I0419 03:26:16.756301 23811 net.cpp:406] relu4_2 <- conv4_2
I0419 03:26:16.756309 23811 net.cpp:367] relu4_2 -> conv4_2 (in-place)
I0419 03:26:16.756574 23811 net.cpp:122] Setting up relu4_2
I0419 03:26:16.756588 23811 net.cpp:129] Top shape: 1 512 89 89 (4055552)
I0419 03:26:16.756592 23811 net.cpp:137] Memory required for data: 1134982412
I0419 03:26:16.756597 23811 layer_factory.hpp:77] Creating layer conv4_3
I0419 03:26:16.756611 23811 net.cpp:84] Creating Layer conv4_3
I0419 03:26:16.756616 23811 net.cpp:406] conv4_3 <- conv4_2
I0419 03:26:16.756625 23811 net.cpp:380] conv4_3 -> conv4_3
I0419 03:26:16.771451 23811 net.cpp:122] Setting up conv4_3
I0419 03:26:16.771493 23811 net.cpp:129] Top shape: 1 512 89 89 (4055552)
I0419 03:26:16.771499 23811 net.cpp:137] Memory required for data: 1151204620
I0419 03:26:16.771512 23811 layer_factory.hpp:77] Creating layer relu4_3
I0419 03:26:16.771522 23811 net.cpp:84] Creating Layer relu4_3
I0419 03:26:16.771539 23811 net.cpp:406] relu4_3 <- conv4_3
I0419 03:26:16.771548 23811 net.cpp:367] relu4_3 -> conv4_3 (in-place)
I0419 03:26:16.771778 23811 net.cpp:122] Setting up relu4_3
I0419 03:26:16.771791 23811 net.cpp:129] Top shape: 1 512 89 89 (4055552)
I0419 03:26:16.771796 23811 net.cpp:137] Memory required for data: 1167426828
I0419 03:26:16.771801 23811 layer_factory.hpp:77] Creating layer pool4
I0419 03:26:16.771811 23811 net.cpp:84] Creating Layer pool4
I0419 03:26:16.771816 23811 net.cpp:406] pool4 <- conv4_3
I0419 03:26:16.771823 23811 net.cpp:380] pool4 -> pool4
I0419 03:26:16.771880 23811 net.cpp:122] Setting up pool4
I0419 03:26:16.771890 23811 net.cpp:129] Top shape: 1 512 45 45 (1036800)
I0419 03:26:16.771894 23811 net.cpp:137] Memory required for data: 1171574028
I0419 03:26:16.771898 23811 layer_factory.hpp:77] Creating layer pool4_pool4_0_split
I0419 03:26:16.771906 23811 net.cpp:84] Creating Layer pool4_pool4_0_split
I0419 03:26:16.771911 23811 net.cpp:406] pool4_pool4_0_split <- pool4
I0419 03:26:16.771930 23811 net.cpp:380] pool4_pool4_0_split -> pool4_pool4_0_split_0
I0419 03:26:16.771939 23811 net.cpp:380] pool4_pool4_0_split -> pool4_pool4_0_split_1
I0419 03:26:16.771982 23811 net.cpp:122] Setting up pool4_pool4_0_split
I0419 03:26:16.771992 23811 net.cpp:129] Top shape: 1 512 45 45 (1036800)
I0419 03:26:16.771997 23811 net.cpp:129] Top shape: 1 512 45 45 (1036800)
I0419 03:26:16.772001 23811 net.cpp:137] Memory required for data: 1179868428
I0419 03:26:16.772006 23811 layer_factory.hpp:77] Creating layer conv5_1
I0419 03:26:16.772017 23811 net.cpp:84] Creating Layer conv5_1
I0419 03:26:16.772022 23811 net.cpp:406] conv5_1 <- pool4_pool4_0_split_0
I0419 03:26:16.772030 23811 net.cpp:380] conv5_1 -> conv5_1
I0419 03:26:16.784996 23811 net.cpp:122] Setting up conv5_1
I0419 03:26:16.785058 23811 net.cpp:129] Top shape: 1 512 45 45 (1036800)
I0419 03:26:16.785066 23811 net.cpp:137] Memory required for data: 1184015628
I0419 03:26:16.785084 23811 layer_factory.hpp:77] Creating layer relu5_1
I0419 03:26:16.785104 23811 net.cpp:84] Creating Layer relu5_1
I0419 03:26:16.785115 23811 net.cpp:406] relu5_1 <- conv5_1
I0419 03:26:16.785128 23811 net.cpp:367] relu5_1 -> conv5_1 (in-place)
I0419 03:26:16.786829 23811 net.cpp:122] Setting up relu5_1
I0419 03:26:16.786859 23811 net.cpp:129] Top shape: 1 512 45 45 (1036800)
I0419 03:26:16.786873 23811 net.cpp:137] Memory required for data: 1188162828
I0419 03:26:16.786880 23811 layer_factory.hpp:77] Creating layer conv5_2
I0419 03:26:16.786895 23811 net.cpp:84] Creating Layer conv5_2
I0419 03:26:16.786903 23811 net.cpp:406] conv5_2 <- conv5_1
I0419 03:26:16.786922 23811 net.cpp:380] conv5_2 -> conv5_2
I0419 03:26:16.800436 23811 net.cpp:122] Setting up conv5_2
I0419 03:26:16.800467 23811 net.cpp:129] Top shape: 1 512 45 45 (1036800)
I0419 03:26:16.800475 23811 net.cpp:137] Memory required for data: 1192310028
I0419 03:26:16.800490 23811 layer_factory.hpp:77] Creating layer relu5_2
I0419 03:26:16.800525 23811 net.cpp:84] Creating Layer relu5_2
I0419 03:26:16.800534 23811 net.cpp:406] relu5_2 <- conv5_2
I0419 03:26:16.800545 23811 net.cpp:367] relu5_2 -> conv5_2 (in-place)
I0419 03:26:16.801663 23811 net.cpp:122] Setting up relu5_2
I0419 03:26:16.801704 23811 net.cpp:129] Top shape: 1 512 45 45 (1036800)
I0419 03:26:16.801712 23811 net.cpp:137] Memory required for data: 1196457228
I0419 03:26:16.801720 23811 layer_factory.hpp:77] Creating layer conv5_3
I0419 03:26:16.801745 23811 net.cpp:84] Creating Layer conv5_3
I0419 03:26:16.801753 23811 net.cpp:406] conv5_3 <- conv5_2
I0419 03:26:16.801769 23811 net.cpp:380] conv5_3 -> conv5_3
I0419 03:26:16.814431 23811 net.cpp:122] Setting up conv5_3
I0419 03:26:16.814467 23811 net.cpp:129] Top shape: 1 512 45 45 (1036800)
I0419 03:26:16.814472 23811 net.cpp:137] Memory required for data: 1200604428
I0419 03:26:16.814481 23811 layer_factory.hpp:77] Creating layer relu5_3
I0419 03:26:16.814491 23811 net.cpp:84] Creating Layer relu5_3
I0419 03:26:16.814496 23811 net.cpp:406] relu5_3 <- conv5_3
I0419 03:26:16.814502 23811 net.cpp:367] relu5_3 -> conv5_3 (in-place)
I0419 03:26:16.814841 23811 net.cpp:122] Setting up relu5_3
I0419 03:26:16.814857 23811 net.cpp:129] Top shape: 1 512 45 45 (1036800)
I0419 03:26:16.814862 23811 net.cpp:137] Memory required for data: 1204751628
I0419 03:26:16.814867 23811 layer_factory.hpp:77] Creating layer pool5
I0419 03:26:16.814877 23811 net.cpp:84] Creating Layer pool5
I0419 03:26:16.814883 23811 net.cpp:406] pool5 <- conv5_3
I0419 03:26:16.814895 23811 net.cpp:380] pool5 -> pool5
I0419 03:26:16.814980 23811 net.cpp:122] Setting up pool5
I0419 03:26:16.814993 23811 net.cpp:129] Top shape: 1 512 23 23 (270848)
I0419 03:26:16.814998 23811 net.cpp:137] Memory required for data: 1205835020
I0419 03:26:16.815004 23811 layer_factory.hpp:77] Creating layer fc6
I0419 03:26:16.815016 23811 net.cpp:84] Creating Layer fc6
I0419 03:26:16.815022 23811 net.cpp:406] fc6 <- pool5
I0419 03:26:16.815034 23811 net.cpp:380] fc6 -> fc6
I0419 03:26:17.126720 23811 net.cpp:122] Setting up fc6
I0419 03:26:17.126758 23811 net.cpp:129] Top shape: 1 4096 17 17 (1183744)
I0419 03:26:17.126765 23811 net.cpp:137] Memory required for data: 1210569996
I0419 03:26:17.126778 23811 layer_factory.hpp:77] Creating layer relu6
I0419 03:26:17.126793 23811 net.cpp:84] Creating Layer relu6
I0419 03:26:17.126801 23811 net.cpp:406] relu6 <- fc6
I0419 03:26:17.126813 23811 net.cpp:367] relu6 -> fc6 (in-place)
I0419 03:26:17.127063 23811 net.cpp:122] Setting up relu6
I0419 03:26:17.127076 23811 net.cpp:129] Top shape: 1 4096 17 17 (1183744)
I0419 03:26:17.127080 23811 net.cpp:137] Memory required for data: 1215304972
I0419 03:26:17.127091 23811 layer_factory.hpp:77] Creating layer drop6
I0419 03:26:17.127107 23811 net.cpp:84] Creating Layer drop6
I0419 03:26:17.127115 23811 net.cpp:406] drop6 <- fc6
I0419 03:26:17.127125 23811 net.cpp:367] drop6 -> fc6 (in-place)
I0419 03:26:17.127173 23811 net.cpp:122] Setting up drop6
I0419 03:26:17.127180 23811 net.cpp:129] Top shape: 1 4096 17 17 (1183744)
I0419 03:26:17.127183 23811 net.cpp:137] Memory required for data: 1220039948
I0419 03:26:17.127187 23811 layer_factory.hpp:77] Creating layer fc7
I0419 03:26:17.127214 23811 net.cpp:84] Creating Layer fc7
I0419 03:26:17.127218 23811 net.cpp:406] fc7 <- fc6
I0419 03:26:17.127225 23811 net.cpp:380] fc7 -> fc7
I0419 03:26:17.182451 23811 net.cpp:122] Setting up fc7
I0419 03:26:17.182500 23811 net.cpp:129] Top shape: 1 4096 17 17 (1183744)
I0419 03:26:17.182505 23811 net.cpp:137] Memory required for data: 1224774924
I0419 03:26:17.182523 23811 layer_factory.hpp:77] Creating layer relu7
I0419 03:26:17.182539 23811 net.cpp:84] Creating Layer relu7
I0419 03:26:17.182546 23811 net.cpp:406] relu7 <- fc7
I0419 03:26:17.182559 23811 net.cpp:367] relu7 -> fc7 (in-place)
I0419 03:26:17.183245 23811 net.cpp:122] Setting up relu7
I0419 03:26:17.183262 23811 net.cpp:129] Top shape: 1 4096 17 17 (1183744)
I0419 03:26:17.183266 23811 net.cpp:137] Memory required for data: 1229509900
I0419 03:26:17.183271 23811 layer_factory.hpp:77] Creating layer drop7
I0419 03:26:17.183284 23811 net.cpp:84] Creating Layer drop7
I0419 03:26:17.183288 23811 net.cpp:406] drop7 <- fc7
I0419 03:26:17.183295 23811 net.cpp:367] drop7 -> fc7 (in-place)
I0419 03:26:17.183339 23811 net.cpp:122] Setting up drop7
I0419 03:26:17.183346 23811 net.cpp:129] Top shape: 1 4096 17 17 (1183744)
I0419 03:26:17.183358 23811 net.cpp:137] Memory required for data: 1234244876
I0419 03:26:17.183363 23811 layer_factory.hpp:77] Creating layer score_fr-new
I0419 03:26:17.183375 23811 net.cpp:84] Creating Layer score_fr-new
I0419 03:26:17.183379 23811 net.cpp:406] score_fr-new <- fc7
I0419 03:26:17.183387 23811 net.cpp:380] score_fr-new -> score_fr-new
I0419 03:26:17.184923 23811 net.cpp:122] Setting up score_fr-new
I0419 03:26:17.184942 23811 net.cpp:129] Top shape: 1 3 17 17 (867)
I0419 03:26:17.184957 23811 net.cpp:137] Memory required for data: 1234248344
I0419 03:26:17.184965 23811 layer_factory.hpp:77] Creating layer upscore2-new
I0419 03:26:17.184988 23811 net.cpp:84] Creating Layer upscore2-new
I0419 03:26:17.184993 23811 net.cpp:406] upscore2-new <- score_fr-new
I0419 03:26:17.185014 23811 net.cpp:380] upscore2-new -> upscore2-new
I0419 03:26:17.185267 23811 net.cpp:122] Setting up upscore2-new
I0419 03:26:17.185277 23811 net.cpp:129] Top shape: 1 3 36 36 (3888)
I0419 03:26:17.185281 23811 net.cpp:137] Memory required for data: 1234263896
I0419 03:26:17.185299 23811 layer_factory.hpp:77] Creating layer upscore2-new_upscore2-new_0_split
I0419 03:26:17.185308 23811 net.cpp:84] Creating Layer upscore2-new_upscore2-new_0_split
I0419 03:26:17.185312 23811 net.cpp:406] upscore2-new_upscore2-new_0_split <- upscore2-new
I0419 03:26:17.185318 23811 net.cpp:380] upscore2-new_upscore2-new_0_split -> upscore2-new_upscore2-new_0_split_0
I0419 03:26:17.185326 23811 net.cpp:380] upscore2-new_upscore2-new_0_split -> upscore2-new_upscore2-new_0_split_1
I0419 03:26:17.185370 23811 net.cpp:122] Setting up upscore2-new_upscore2-new_0_split
I0419 03:26:17.185379 23811 net.cpp:129] Top shape: 1 3 36 36 (3888)
I0419 03:26:17.185384 23811 net.cpp:129] Top shape: 1 3 36 36 (3888)
I0419 03:26:17.185389 23811 net.cpp:137] Memory required for data: 1234295000
I0419 03:26:17.185392 23811 layer_factory.hpp:77] Creating layer score_pool4-new
I0419 03:26:17.185403 23811 net.cpp:84] Creating Layer score_pool4-new
I0419 03:26:17.185407 23811 net.cpp:406] score_pool4-new <- pool4_pool4_0_split_1
I0419 03:26:17.185416 23811 net.cpp:380] score_pool4-new -> score_pool4-new
I0419 03:26:17.186934 23811 net.cpp:122] Setting up score_pool4-new
I0419 03:26:17.186952 23811 net.cpp:129] Top shape: 1 3 45 45 (6075)
I0419 03:26:17.186956 23811 net.cpp:137] Memory required for data: 1234319300
I0419 03:26:17.186966 23811 layer_factory.hpp:77] Creating layer score_pool4c
I0419 03:26:17.186978 23811 net.cpp:84] Creating Layer score_pool4c
I0419 03:26:17.186985 23811 net.cpp:406] score_pool4c <- score_pool4-new
I0419 03:26:17.186990 23811 net.cpp:406] score_pool4c <- upscore2-new_upscore2-new_0_split_0
I0419 03:26:17.187000 23811 net.cpp:380] score_pool4c -> score_pool4c
I0419 03:26:17.187050 23811 net.cpp:122] Setting up score_pool4c
I0419 03:26:17.187060 23811 net.cpp:129] Top shape: 1 3 36 36 (3888)
I0419 03:26:17.187064 23811 net.cpp:137] Memory required for data: 1234334852
I0419 03:26:17.187067 23811 layer_factory.hpp:77] Creating layer fuse_pool4
I0419 03:26:17.187078 23811 net.cpp:84] Creating Layer fuse_pool4
I0419 03:26:17.187083 23811 net.cpp:406] fuse_pool4 <- upscore2-new_upscore2-new_0_split_1
I0419 03:26:17.187088 23811 net.cpp:406] fuse_pool4 <- score_pool4c
I0419 03:26:17.187093 23811 net.cpp:380] fuse_pool4 -> fuse_pool4
I0419 03:26:17.187129 23811 net.cpp:122] Setting up fuse_pool4
I0419 03:26:17.187134 23811 net.cpp:129] Top shape: 1 3 36 36 (3888)
I0419 03:26:17.187137 23811 net.cpp:137] Memory required for data: 1234350404
I0419 03:26:17.187141 23811 layer_factory.hpp:77] Creating layer upscore_pool4-new
I0419 03:26:17.187151 23811 net.cpp:84] Creating Layer upscore_pool4-new
I0419 03:26:17.187156 23811 net.cpp:406] upscore_pool4-new <- fuse_pool4
I0419 03:26:17.187162 23811 net.cpp:380] upscore_pool4-new -> upscore_pool4-new
I0419 03:26:17.187403 23811 net.cpp:122] Setting up upscore_pool4-new
I0419 03:26:17.187412 23811 net.cpp:129] Top shape: 1 3 74 74 (16428)
I0419 03:26:17.187417 23811 net.cpp:137] Memory required for data: 1234416116
I0419 03:26:17.187422 23811 layer_factory.hpp:77] Creating layer upscore_pool4-new_upscore_pool4-new_0_split
I0419 03:26:17.187431 23811 net.cpp:84] Creating Layer upscore_pool4-new_upscore_pool4-new_0_split
I0419 03:26:17.187435 23811 net.cpp:406] upscore_pool4-new_upscore_pool4-new_0_split <- upscore_pool4-new
I0419 03:26:17.187441 23811 net.cpp:380] upscore_pool4-new_upscore_pool4-new_0_split -> upscore_pool4-new_upscore_pool4-new_0_split_0
I0419 03:26:17.187448 23811 net.cpp:380] upscore_pool4-new_upscore_pool4-new_0_split -> upscore_pool4-new_upscore_pool4-new_0_split_1
I0419 03:26:17.187489 23811 net.cpp:122] Setting up upscore_pool4-new_upscore_pool4-new_0_split
I0419 03:26:17.187500 23811 net.cpp:129] Top shape: 1 3 74 74 (16428)
I0419 03:26:17.187505 23811 net.cpp:129] Top shape: 1 3 74 74 (16428)
I0419 03:26:17.187508 23811 net.cpp:137] Memory required for data: 1234547540
I0419 03:26:17.187512 23811 layer_factory.hpp:77] Creating layer score_pool3-new
I0419 03:26:17.187523 23811 net.cpp:84] Creating Layer score_pool3-new
I0419 03:26:17.187528 23811 net.cpp:406] score_pool3-new <- pool3_pool3_0_split_1
I0419 03:26:17.187536 23811 net.cpp:380] score_pool3-new -> score_pool3-new
I0419 03:26:17.192781 23811 net.cpp:122] Setting up score_pool3-new
I0419 03:26:17.192800 23811 net.cpp:129] Top shape: 1 3 89 89 (23763)
I0419 03:26:17.192816 23811 net.cpp:137] Memory required for data: 1234642592
I0419 03:26:17.192826 23811 layer_factory.hpp:77] Creating layer score_pool3c
I0419 03:26:17.192837 23811 net.cpp:84] Creating Layer score_pool3c
I0419 03:26:17.192842 23811 net.cpp:406] score_pool3c <- score_pool3-new
I0419 03:26:17.192848 23811 net.cpp:406] score_pool3c <- upscore_pool4-new_upscore_pool4-new_0_split_0
I0419 03:26:17.192854 23811 net.cpp:380] score_pool3c -> score_pool3c
I0419 03:26:17.192905 23811 net.cpp:122] Setting up score_pool3c
I0419 03:26:17.192911 23811 net.cpp:129] Top shape: 1 3 74 74 (16428)
I0419 03:26:17.192915 23811 net.cpp:137] Memory required for data: 1234708304
I0419 03:26:17.192919 23811 layer_factory.hpp:77] Creating layer fuse_pool3
I0419 03:26:17.192926 23811 net.cpp:84] Creating Layer fuse_pool3
I0419 03:26:17.192930 23811 net.cpp:406] fuse_pool3 <- upscore_pool4-new_upscore_pool4-new_0_split_1
I0419 03:26:17.192935 23811 net.cpp:406] fuse_pool3 <- score_pool3c
I0419 03:26:17.192944 23811 net.cpp:380] fuse_pool3 -> fuse_pool3
I0419 03:26:17.192975 23811 net.cpp:122] Setting up fuse_pool3
I0419 03:26:17.192981 23811 net.cpp:129] Top shape: 1 3 74 74 (16428)
I0419 03:26:17.192984 23811 net.cpp:137] Memory required for data: 1234774016
I0419 03:26:17.192987 23811 layer_factory.hpp:77] Creating layer upscore8-new
I0419 03:26:17.193007 23811 net.cpp:84] Creating Layer upscore8-new
I0419 03:26:17.193011 23811 net.cpp:406] upscore8-new <- fuse_pool3
I0419 03:26:17.193019 23811 net.cpp:380] upscore8-new -> upscore8-new
I0419 03:26:17.193272 23811 net.cpp:122] Setting up upscore8-new
I0419 03:26:17.193284 23811 net.cpp:129] Top shape: 1 3 600 600 (1080000)
I0419 03:26:17.193286 23811 net.cpp:137] Memory required for data: 1239094016
I0419 03:26:17.193292 23811 layer_factory.hpp:77] Creating layer upscore8_cropped
I0419 03:26:17.193300 23811 net.cpp:84] Creating Layer upscore8_cropped
I0419 03:26:17.193303 23811 net.cpp:406] upscore8_cropped <- upscore8-new
I0419 03:26:17.193310 23811 net.cpp:406] upscore8_cropped <- data_data_0_split_1
I0419 03:26:17.193316 23811 net.cpp:380] upscore8_cropped -> upscore8_cropped
I0419 03:26:17.193343 23811 net.cpp:122] Setting up upscore8_cropped
I0419 03:26:17.193348 23811 net.cpp:129] Top shape: 1 3 512 512 (786432)
I0419 03:26:17.193352 23811 net.cpp:137] Memory required for data: 1242239744
I0419 03:26:17.193356 23811 layer_factory.hpp:77] Creating layer score
I0419 03:26:17.193370 23811 net.cpp:84] Creating Layer score
I0419 03:26:17.193374 23811 net.cpp:406] score <- upscore8_cropped
I0419 03:26:17.193382 23811 net.cpp:380] score -> score
I0419 03:26:17.198498 23811 net.cpp:122] Setting up score
I0419 03:26:17.198530 23811 net.cpp:129] Top shape: 1 3 512 512 (786432)
I0419 03:26:17.198536 23811 net.cpp:137] Memory required for data: 1245385472
I0419 03:26:17.198560 23811 layer_factory.hpp:77] Creating layer score_score_0_split
I0419 03:26:17.198582 23811 net.cpp:84] Creating Layer score_score_0_split
I0419 03:26:17.198586 23811 net.cpp:406] score_score_0_split <- score
I0419 03:26:17.198592 23811 net.cpp:380] score_score_0_split -> score_score_0_split_0
I0419 03:26:17.198599 23811 net.cpp:380] score_score_0_split -> score_score_0_split_1
I0419 03:26:17.198667 23811 net.cpp:122] Setting up score_score_0_split
I0419 03:26:17.198673 23811 net.cpp:129] Top shape: 1 3 512 512 (786432)
I0419 03:26:17.198676 23811 net.cpp:129] Top shape: 1 3 512 512 (786432)
I0419 03:26:17.198679 23811 net.cpp:137] Memory required for data: 1251676928
I0419 03:26:17.198683 23811 layer_factory.hpp:77] Creating layer prob
I0419 03:26:17.198689 23811 net.cpp:84] Creating Layer prob
I0419 03:26:17.198693 23811 net.cpp:406] prob <- score_score_0_split_0
I0419 03:26:17.198699 23811 net.cpp:380] prob -> prob
I0419 03:26:17.199167 23811 net.cpp:122] Setting up prob
I0419 03:26:17.199184 23811 net.cpp:129] Top shape: 1 3 512 512 (786432)
I0419 03:26:17.199199 23811 net.cpp:137] Memory required for data: 1254822656
I0419 03:26:17.199205 23811 layer_factory.hpp:77] Creating layer saliency
I0419 03:26:17.199226 23811 net.cpp:84] Creating Layer saliency
I0419 03:26:17.199234 23811 net.cpp:406] saliency <- prob
I0419 03:26:17.199261 23811 net.cpp:380] saliency -> saliency
I0419 03:26:17.202657 23811 net.cpp:122] Setting up saliency
I0419 03:26:17.202695 23811 net.cpp:129] Top shape: 1 3 512 512 (786432)
I0419 03:26:17.202702 23811 net.cpp:137] Memory required for data: 1257968384
I0419 03:26:17.202716 23811 layer_factory.hpp:77] Creating layer silence_saliency
I0419 03:26:17.202733 23811 net.cpp:84] Creating Layer silence_saliency
I0419 03:26:17.202750 23811 net.cpp:406] silence_saliency <- saliency
I0419 03:26:17.202762 23811 net.cpp:122] Setting up silence_saliency
I0419 03:26:17.202769 23811 net.cpp:137] Memory required for data: 1257968384
I0419 03:26:17.202775 23811 layer_factory.hpp:77] Creating layer crop
I0419 03:26:17.203663 23811 net.cpp:84] Creating Layer crop
I0419 03:26:17.203683 23811 net.cpp:406] crop <- label_data_1_split_0
I0419 03:26:17.203706 23811 net.cpp:406] crop <- data_data_0_split_2
I0419 03:26:17.203716 23811 net.cpp:406] crop <- crop_margin
I0419 03:26:17.203724 23811 net.cpp:406] crop <- crop_prob
I0419 03:26:17.203732 23811 net.cpp:406] crop <- crop_sample_batch
I0419 03:26:17.203754 23811 net.cpp:380] crop -> data-R
I0419 03:26:17.203769 23811 net.cpp:380] crop -> crop_info
I0419 03:26:17.223358 23811 net.cpp:122] Setting up crop
I0419 03:26:17.223386 23811 net.cpp:129] Top shape: 1 3 512 512 (786432)
I0419 03:26:17.223392 23811 net.cpp:129] Top shape: 1 2 4 (8)
I0419 03:26:17.223394 23811 net.cpp:137] Memory required for data: 1261114144
I0419 03:26:17.223399 23811 layer_factory.hpp:77] Creating layer data-R_crop_0_split
I0419 03:26:17.223425 23811 net.cpp:84] Creating Layer data-R_crop_0_split
I0419 03:26:17.223430 23811 net.cpp:406] data-R_crop_0_split <- data-R
I0419 03:26:17.223439 23811 net.cpp:380] data-R_crop_0_split -> data-R_crop_0_split_0
I0419 03:26:17.223448 23811 net.cpp:380] data-R_crop_0_split -> data-R_crop_0_split_1
I0419 03:26:17.223498 23811 net.cpp:122] Setting up data-R_crop_0_split
I0419 03:26:17.223503 23811 net.cpp:129] Top shape: 1 3 512 512 (786432)
I0419 03:26:17.223507 23811 net.cpp:129] Top shape: 1 3 512 512 (786432)
I0419 03:26:17.223511 23811 net.cpp:137] Memory required for data: 1267405600
I0419 03:26:17.223515 23811 layer_factory.hpp:77] Creating layer conv1_1-R
I0419 03:26:17.223526 23811 net.cpp:84] Creating Layer conv1_1-R
I0419 03:26:17.223531 23811 net.cpp:406] conv1_1-R <- data-R_crop_0_split_0
I0419 03:26:17.223537 23811 net.cpp:380] conv1_1-R -> conv1_1-R
I0419 03:26:17.227031 23811 net.cpp:122] Setting up conv1_1-R
I0419 03:26:17.227046 23811 net.cpp:129] Top shape: 1 64 710 710 (32262400)
I0419 03:26:17.227064 23811 net.cpp:137] Memory required for data: 1396455200
I0419 03:26:17.227075 23811 layer_factory.hpp:77] Creating layer relu1_1-R
I0419 03:26:17.227084 23811 net.cpp:84] Creating Layer relu1_1-R
I0419 03:26:17.227088 23811 net.cpp:406] relu1_1-R <- conv1_1-R
I0419 03:26:17.227093 23811 net.cpp:367] relu1_1-R -> conv1_1-R (in-place)
I0419 03:26:17.227340 23811 net.cpp:122] Setting up relu1_1-R
I0419 03:26:17.227351 23811 net.cpp:129] Top shape: 1 64 710 710 (32262400)
I0419 03:26:17.227355 23811 net.cpp:137] Memory required for data: 1525504800
I0419 03:26:17.227360 23811 layer_factory.hpp:77] Creating layer conv1_2-R
I0419 03:26:17.227382 23811 net.cpp:84] Creating Layer conv1_2-R
I0419 03:26:17.227387 23811 net.cpp:406] conv1_2-R <- conv1_1-R
I0419 03:26:17.227393 23811 net.cpp:380] conv1_2-R -> conv1_2-R
I0419 03:26:17.236106 23811 net.cpp:122] Setting up conv1_2-R
I0419 03:26:17.236173 23811 net.cpp:129] Top shape: 1 64 710 710 (32262400)
I0419 03:26:17.236182 23811 net.cpp:137] Memory required for data: 1654554400
I0419 03:26:17.236204 23811 layer_factory.hpp:77] Creating layer relu1_2-R
I0419 03:26:17.236222 23811 net.cpp:84] Creating Layer relu1_2-R
I0419 03:26:17.236233 23811 net.cpp:406] relu1_2-R <- conv1_2-R
I0419 03:26:17.236245 23811 net.cpp:367] relu1_2-R -> conv1_2-R (in-place)
I0419 03:26:17.236726 23811 net.cpp:122] Setting up relu1_2-R
I0419 03:26:17.236758 23811 net.cpp:129] Top shape: 1 64 710 710 (32262400)
I0419 03:26:17.236765 23811 net.cpp:137] Memory required for data: 1783604000
I0419 03:26:17.236773 23811 layer_factory.hpp:77] Creating layer pool1-R
I0419 03:26:17.236786 23811 net.cpp:84] Creating Layer pool1-R
I0419 03:26:17.236794 23811 net.cpp:406] pool1-R <- conv1_2-R
I0419 03:26:17.236807 23811 net.cpp:380] pool1-R -> pool1-R
I0419 03:26:17.236928 23811 net.cpp:122] Setting up pool1-R
I0419 03:26:17.236943 23811 net.cpp:129] Top shape: 1 64 355 355 (8065600)
I0419 03:26:17.236950 23811 net.cpp:137] Memory required for data: 1815866400
I0419 03:26:17.236958 23811 layer_factory.hpp:77] Creating layer conv2_1-R
I0419 03:26:17.236976 23811 net.cpp:84] Creating Layer conv2_1-R
I0419 03:26:17.236984 23811 net.cpp:406] conv2_1-R <- pool1-R
I0419 03:26:17.237002 23811 net.cpp:380] conv2_1-R -> conv2_1-R
I0419 03:26:17.240762 23811 net.cpp:122] Setting up conv2_1-R
I0419 03:26:17.240804 23811 net.cpp:129] Top shape: 1 128 355 355 (16131200)
I0419 03:26:17.240813 23811 net.cpp:137] Memory required for data: 1880391200
I0419 03:26:17.240829 23811 layer_factory.hpp:77] Creating layer relu2_1-R
I0419 03:26:17.240842 23811 net.cpp:84] Creating Layer relu2_1-R
I0419 03:26:17.240850 23811 net.cpp:406] relu2_1-R <- conv2_1-R
I0419 03:26:17.240866 23811 net.cpp:367] relu2_1-R -> conv2_1-R (in-place)
I0419 03:26:17.241264 23811 net.cpp:122] Setting up relu2_1-R
I0419 03:26:17.241295 23811 net.cpp:129] Top shape: 1 128 355 355 (16131200)
I0419 03:26:17.241302 23811 net.cpp:137] Memory required for data: 1944916000
I0419 03:26:17.241309 23811 layer_factory.hpp:77] Creating layer conv2_2-R
I0419 03:26:17.241327 23811 net.cpp:84] Creating Layer conv2_2-R
I0419 03:26:17.241333 23811 net.cpp:406] conv2_2-R <- conv2_1-R
I0419 03:26:17.241346 23811 net.cpp:380] conv2_2-R -> conv2_2-R
I0419 03:26:17.246953 23811 net.cpp:122] Setting up conv2_2-R
I0419 03:26:17.246985 23811 net.cpp:129] Top shape: 1 128 355 355 (16131200)
I0419 03:26:17.246991 23811 net.cpp:137] Memory required for data: 2009440800
I0419 03:26:17.247000 23811 layer_factory.hpp:77] Creating layer relu2_2-R
I0419 03:26:17.247009 23811 net.cpp:84] Creating Layer relu2_2-R
I0419 03:26:17.247014 23811 net.cpp:406] relu2_2-R <- conv2_2-R
I0419 03:26:17.247021 23811 net.cpp:367] relu2_2-R -> conv2_2-R (in-place)
I0419 03:26:17.247735 23811 net.cpp:122] Setting up relu2_2-R
I0419 03:26:17.247750 23811 net.cpp:129] Top shape: 1 128 355 355 (16131200)
I0419 03:26:17.247766 23811 net.cpp:137] Memory required for data: 2073965600
I0419 03:26:17.247771 23811 layer_factory.hpp:77] Creating layer pool2-R
I0419 03:26:17.247782 23811 net.cpp:84] Creating Layer pool2-R
I0419 03:26:17.247788 23811 net.cpp:406] pool2-R <- conv2_2-R
I0419 03:26:17.247797 23811 net.cpp:380] pool2-R -> pool2-R
I0419 03:26:17.247879 23811 net.cpp:122] Setting up pool2-R
I0419 03:26:17.247885 23811 net.cpp:129] Top shape: 1 128 178 178 (4055552)
I0419 03:26:17.247889 23811 net.cpp:137] Memory required for data: 2090187808
I0419 03:26:17.247894 23811 layer_factory.hpp:77] Creating layer conv3_1-R
I0419 03:26:17.247905 23811 net.cpp:84] Creating Layer conv3_1-R
I0419 03:26:17.247910 23811 net.cpp:406] conv3_1-R <- pool2-R
I0419 03:26:17.247917 23811 net.cpp:380] conv3_1-R -> conv3_1-R
I0419 03:26:17.251627 23811 net.cpp:122] Setting up conv3_1-R
I0419 03:26:17.251658 23811 net.cpp:129] Top shape: 1 256 178 178 (8111104)
I0419 03:26:17.251663 23811 net.cpp:137] Memory required for data: 2122632224
I0419 03:26:17.251673 23811 layer_factory.hpp:77] Creating layer relu3_1-R
I0419 03:26:17.251682 23811 net.cpp:84] Creating Layer relu3_1-R
I0419 03:26:17.251688 23811 net.cpp:406] relu3_1-R <- conv3_1-R
I0419 03:26:17.251694 23811 net.cpp:367] relu3_1-R -> conv3_1-R (in-place)
I0419 03:26:17.251931 23811 net.cpp:122] Setting up relu3_1-R
I0419 03:26:17.251945 23811 net.cpp:129] Top shape: 1 256 178 178 (8111104)
I0419 03:26:17.251950 23811 net.cpp:137] Memory required for data: 2155076640
I0419 03:26:17.251953 23811 layer_factory.hpp:77] Creating layer conv3_2-R
I0419 03:26:17.251965 23811 net.cpp:84] Creating Layer conv3_2-R
I0419 03:26:17.251969 23811 net.cpp:406] conv3_2-R <- conv3_1-R
I0419 03:26:17.251977 23811 net.cpp:380] conv3_2-R -> conv3_2-R
I0419 03:26:17.258138 23811 net.cpp:122] Setting up conv3_2-R
I0419 03:26:17.258222 23811 net.cpp:129] Top shape: 1 256 178 178 (8111104)
I0419 03:26:17.258227 23811 net.cpp:137] Memory required for data: 2187521056
I0419 03:26:17.258244 23811 layer_factory.hpp:77] Creating layer relu3_2-R
I0419 03:26:17.258260 23811 net.cpp:84] Creating Layer relu3_2-R
I0419 03:26:17.258266 23811 net.cpp:406] relu3_2-R <- conv3_2-R
I0419 03:26:17.258275 23811 net.cpp:367] relu3_2-R -> conv3_2-R (in-place)
I0419 03:26:17.258680 23811 net.cpp:122] Setting up relu3_2-R
I0419 03:26:17.258713 23811 net.cpp:129] Top shape: 1 256 178 178 (8111104)
I0419 03:26:17.258720 23811 net.cpp:137] Memory required for data: 2219965472
I0419 03:26:17.258728 23811 layer_factory.hpp:77] Creating layer conv3_3-R
I0419 03:26:17.258746 23811 net.cpp:84] Creating Layer conv3_3-R
I0419 03:26:17.258754 23811 net.cpp:406] conv3_3-R <- conv3_2-R
I0419 03:26:17.258767 23811 net.cpp:380] conv3_3-R -> conv3_3-R
I0419 03:26:17.271371 23811 net.cpp:122] Setting up conv3_3-R
I0419 03:26:17.271467 23811 net.cpp:129] Top shape: 1 256 178 178 (8111104)
I0419 03:26:17.271477 23811 net.cpp:137] Memory required for data: 2252409888
I0419 03:26:17.271556 23811 layer_factory.hpp:77] Creating layer relu3_3-R
I0419 03:26:17.271610 23811 net.cpp:84] Creating Layer relu3_3-R
I0419 03:26:17.271688 23811 net.cpp:406] relu3_3-R <- conv3_3-R
I0419 03:26:17.271721 23811 net.cpp:367] relu3_3-R -> conv3_3-R (in-place)
I0419 03:26:17.272189 23811 net.cpp:122] Setting up relu3_3-R
I0419 03:26:17.272218 23811 net.cpp:129] Top shape: 1 256 178 178 (8111104)
I0419 03:26:17.272225 23811 net.cpp:137] Memory required for data: 2284854304
I0419 03:26:17.272233 23811 layer_factory.hpp:77] Creating layer pool3-R
I0419 03:26:17.272251 23811 net.cpp:84] Creating Layer pool3-R
I0419 03:26:17.272259 23811 net.cpp:406] pool3-R <- conv3_3-R
I0419 03:26:17.272301 23811 net.cpp:380] pool3-R -> pool3-R
I0419 03:26:17.272449 23811 net.cpp:122] Setting up pool3-R
I0419 03:26:17.272465 23811 net.cpp:129] Top shape: 1 256 89 89 (2027776)
I0419 03:26:17.272472 23811 net.cpp:137] Memory required for data: 2292965408
I0419 03:26:17.272488 23811 layer_factory.hpp:77] Creating layer pool3-R_pool3-R_0_split
I0419 03:26:17.272503 23811 net.cpp:84] Creating Layer pool3-R_pool3-R_0_split
I0419 03:26:17.272511 23811 net.cpp:406] pool3-R_pool3-R_0_split <- pool3-R
I0419 03:26:17.272522 23811 net.cpp:380] pool3-R_pool3-R_0_split -> pool3-R_pool3-R_0_split_0
I0419 03:26:17.272541 23811 net.cpp:380] pool3-R_pool3-R_0_split -> pool3-R_pool3-R_0_split_1
I0419 03:26:17.272622 23811 net.cpp:122] Setting up pool3-R_pool3-R_0_split
I0419 03:26:17.272635 23811 net.cpp:129] Top shape: 1 256 89 89 (2027776)
I0419 03:26:17.272644 23811 net.cpp:129] Top shape: 1 256 89 89 (2027776)
I0419 03:26:17.272650 23811 net.cpp:137] Memory required for data: 2309187616
I0419 03:26:17.272657 23811 layer_factory.hpp:77] Creating layer conv4_1-R
I0419 03:26:17.272681 23811 net.cpp:84] Creating Layer conv4_1-R
I0419 03:26:17.272699 23811 net.cpp:406] conv4_1-R <- pool3-R_pool3-R_0_split_0
I0419 03:26:17.272734 23811 net.cpp:380] conv4_1-R -> conv4_1-R
I0419 03:26:17.281282 23811 net.cpp:122] Setting up conv4_1-R
I0419 03:26:17.281316 23811 net.cpp:129] Top shape: 1 512 89 89 (4055552)
I0419 03:26:17.281322 23811 net.cpp:137] Memory required for data: 2325409824
I0419 03:26:17.281332 23811 layer_factory.hpp:77] Creating layer relu4_1-R
I0419 03:26:17.281340 23811 net.cpp:84] Creating Layer relu4_1-R
I0419 03:26:17.281347 23811 net.cpp:406] relu4_1-R <- conv4_1-R
I0419 03:26:17.281354 23811 net.cpp:367] relu4_1-R -> conv4_1-R (in-place)
I0419 03:26:17.281635 23811 net.cpp:122] Setting up relu4_1-R
I0419 03:26:17.281647 23811 net.cpp:129] Top shape: 1 512 89 89 (4055552)
I0419 03:26:17.281652 23811 net.cpp:137] Memory required for data: 2341632032
I0419 03:26:17.281656 23811 layer_factory.hpp:77] Creating layer conv4_2-R
I0419 03:26:17.281677 23811 net.cpp:84] Creating Layer conv4_2-R
I0419 03:26:17.281682 23811 net.cpp:406] conv4_2-R <- conv4_1-R
I0419 03:26:17.281692 23811 net.cpp:380] conv4_2-R -> conv4_2-R
I0419 03:26:17.291877 23811 net.cpp:122] Setting up conv4_2-R
I0419 03:26:17.291913 23811 net.cpp:129] Top shape: 1 512 89 89 (4055552)
I0419 03:26:17.291919 23811 net.cpp:137] Memory required for data: 2357854240
I0419 03:26:17.291939 23811 layer_factory.hpp:77] Creating layer relu4_2-R
I0419 03:26:17.291950 23811 net.cpp:84] Creating Layer relu4_2-R
I0419 03:26:17.291957 23811 net.cpp:406] relu4_2-R <- conv4_2-R
I0419 03:26:17.291978 23811 net.cpp:367] relu4_2-R -> conv4_2-R (in-place)
I0419 03:26:17.292271 23811 net.cpp:122] Setting up relu4_2-R
I0419 03:26:17.292286 23811 net.cpp:129] Top shape: 1 512 89 89 (4055552)
I0419 03:26:17.292291 23811 net.cpp:137] Memory required for data: 2374076448
I0419 03:26:17.292296 23811 layer_factory.hpp:77] Creating layer conv4_3-R
I0419 03:26:17.292330 23811 net.cpp:84] Creating Layer conv4_3-R
I0419 03:26:17.292340 23811 net.cpp:406] conv4_3-R <- conv4_2-R
I0419 03:26:17.292356 23811 net.cpp:380] conv4_3-R -> conv4_3-R
I0419 03:26:17.301192 23811 net.cpp:122] Setting up conv4_3-R
I0419 03:26:17.301229 23811 net.cpp:129] Top shape: 1 512 89 89 (4055552)
I0419 03:26:17.301232 23811 net.cpp:137] Memory required for data: 2390298656
I0419 03:26:17.301241 23811 layer_factory.hpp:77] Creating layer relu4_3-R
I0419 03:26:17.301252 23811 net.cpp:84] Creating Layer relu4_3-R
I0419 03:26:17.301256 23811 net.cpp:406] relu4_3-R <- conv4_3-R
I0419 03:26:17.301265 23811 net.cpp:367] relu4_3-R -> conv4_3-R (in-place)
I0419 03:26:17.301973 23811 net.cpp:122] Setting up relu4_3-R
I0419 03:26:17.301986 23811 net.cpp:129] Top shape: 1 512 89 89 (4055552)
I0419 03:26:17.302006 23811 net.cpp:137] Memory required for data: 2406520864
I0419 03:26:17.302009 23811 layer_factory.hpp:77] Creating layer pool4-R
I0419 03:26:17.302016 23811 net.cpp:84] Creating Layer pool4-R
I0419 03:26:17.302022 23811 net.cpp:406] pool4-R <- conv4_3-R
I0419 03:26:17.302073 23811 net.cpp:380] pool4-R -> pool4-R
I0419 03:26:17.302129 23811 net.cpp:122] Setting up pool4-R
I0419 03:26:17.302134 23811 net.cpp:129] Top shape: 1 512 45 45 (1036800)
I0419 03:26:17.302137 23811 net.cpp:137] Memory required for data: 2410668064
I0419 03:26:17.302146 23811 layer_factory.hpp:77] Creating layer pool4-R_pool4-R_0_split
I0419 03:26:17.302153 23811 net.cpp:84] Creating Layer pool4-R_pool4-R_0_split
I0419 03:26:17.302158 23811 net.cpp:406] pool4-R_pool4-R_0_split <- pool4-R
I0419 03:26:17.302188 23811 net.cpp:380] pool4-R_pool4-R_0_split -> pool4-R_pool4-R_0_split_0
I0419 03:26:17.302196 23811 net.cpp:380] pool4-R_pool4-R_0_split -> pool4-R_pool4-R_0_split_1
I0419 03:26:17.302240 23811 net.cpp:122] Setting up pool4-R_pool4-R_0_split
I0419 03:26:17.302259 23811 net.cpp:129] Top shape: 1 512 45 45 (1036800)
I0419 03:26:17.302263 23811 net.cpp:129] Top shape: 1 512 45 45 (1036800)
I0419 03:26:17.302266 23811 net.cpp:137] Memory required for data: 2418962464
I0419 03:26:17.302270 23811 layer_factory.hpp:77] Creating layer conv5_1-R
I0419 03:26:17.302285 23811 net.cpp:84] Creating Layer conv5_1-R
I0419 03:26:17.302290 23811 net.cpp:406] conv5_1-R <- pool4-R_pool4-R_0_split_0
I0419 03:26:17.302296 23811 net.cpp:380] conv5_1-R -> conv5_1-R
I0419 03:26:17.310693 23811 net.cpp:122] Setting up conv5_1-R
I0419 03:26:17.310717 23811 net.cpp:129] Top shape: 1 512 45 45 (1036800)
I0419 03:26:17.310722 23811 net.cpp:137] Memory required for data: 2423109664
I0419 03:26:17.310788 23811 layer_factory.hpp:77] Creating layer relu5_1-R
I0419 03:26:17.310799 23811 net.cpp:84] Creating Layer relu5_1-R
I0419 03:26:17.310806 23811 net.cpp:406] relu5_1-R <- conv5_1-R
I0419 03:26:17.310814 23811 net.cpp:367] relu5_1-R -> conv5_1-R (in-place)
I0419 03:26:17.311058 23811 net.cpp:122] Setting up relu5_1-R
I0419 03:26:17.311070 23811 net.cpp:129] Top shape: 1 512 45 45 (1036800)
I0419 03:26:17.311075 23811 net.cpp:137] Memory required for data: 2427256864
I0419 03:26:17.311079 23811 layer_factory.hpp:77] Creating layer conv5_2-R
I0419 03:26:17.311091 23811 net.cpp:84] Creating Layer conv5_2-R
I0419 03:26:17.311096 23811 net.cpp:406] conv5_2-R <- conv5_1-R
I0419 03:26:17.311113 23811 net.cpp:380] conv5_2-R -> conv5_2-R
I0419 03:26:17.320117 23811 net.cpp:122] Setting up conv5_2-R
I0419 03:26:17.320152 23811 net.cpp:129] Top shape: 1 512 45 45 (1036800)
I0419 03:26:17.320156 23811 net.cpp:137] Memory required for data: 2431404064
I0419 03:26:17.320171 23811 layer_factory.hpp:77] Creating layer relu5_2-R
I0419 03:26:17.320183 23811 net.cpp:84] Creating Layer relu5_2-R
I0419 03:26:17.320189 23811 net.cpp:406] relu5_2-R <- conv5_2-R
I0419 03:26:17.320195 23811 net.cpp:367] relu5_2-R -> conv5_2-R (in-place)
I0419 03:26:17.320417 23811 net.cpp:122] Setting up relu5_2-R
I0419 03:26:17.320428 23811 net.cpp:129] Top shape: 1 512 45 45 (1036800)
I0419 03:26:17.320432 23811 net.cpp:137] Memory required for data: 2435551264
I0419 03:26:17.320436 23811 layer_factory.hpp:77] Creating layer conv5_3-R
I0419 03:26:17.320456 23811 net.cpp:84] Creating Layer conv5_3-R
I0419 03:26:17.320461 23811 net.cpp:406] conv5_3-R <- conv5_2-R
I0419 03:26:17.320468 23811 net.cpp:380] conv5_3-R -> conv5_3-R
I0419 03:26:17.327875 23811 net.cpp:122] Setting up conv5_3-R
I0419 03:26:17.327909 23811 net.cpp:129] Top shape: 1 512 45 45 (1036800)
I0419 03:26:17.327913 23811 net.cpp:137] Memory required for data: 2439698464
I0419 03:26:17.327921 23811 layer_factory.hpp:77] Creating layer relu5_3-R
I0419 03:26:17.327929 23811 net.cpp:84] Creating Layer relu5_3-R
I0419 03:26:17.327934 23811 net.cpp:406] relu5_3-R <- conv5_3-R
I0419 03:26:17.327940 23811 net.cpp:367] relu5_3-R -> conv5_3-R (in-place)
I0419 03:26:17.328157 23811 net.cpp:122] Setting up relu5_3-R
I0419 03:26:17.328167 23811 net.cpp:129] Top shape: 1 512 45 45 (1036800)
I0419 03:26:17.328171 23811 net.cpp:137] Memory required for data: 2443845664
I0419 03:26:17.328176 23811 layer_factory.hpp:77] Creating layer pool5-R
I0419 03:26:17.328183 23811 net.cpp:84] Creating Layer pool5-R
I0419 03:26:17.328187 23811 net.cpp:406] pool5-R <- conv5_3-R
I0419 03:26:17.328212 23811 net.cpp:380] pool5-R -> pool5-R
I0419 03:26:17.328267 23811 net.cpp:122] Setting up pool5-R
I0419 03:26:17.328275 23811 net.cpp:129] Top shape: 1 512 23 23 (270848)
I0419 03:26:17.328279 23811 net.cpp:137] Memory required for data: 2444929056
I0419 03:26:17.328290 23811 layer_factory.hpp:77] Creating layer fc6-R
I0419 03:26:17.328300 23811 net.cpp:84] Creating Layer fc6-R
I0419 03:26:17.328305 23811 net.cpp:406] fc6-R <- pool5-R
I0419 03:26:17.328316 23811 net.cpp:380] fc6-R -> fc6-R
I0419 03:26:17.607451 23811 net.cpp:122] Setting up fc6-R
I0419 03:26:17.607502 23811 net.cpp:129] Top shape: 1 4096 17 17 (1183744)
I0419 03:26:17.607507 23811 net.cpp:137] Memory required for data: 2449664032
I0419 03:26:17.607520 23811 layer_factory.hpp:77] Creating layer relu6-R
I0419 03:26:17.607534 23811 net.cpp:84] Creating Layer relu6-R
I0419 03:26:17.607540 23811 net.cpp:406] relu6-R <- fc6-R
I0419 03:26:17.607547 23811 net.cpp:367] relu6-R -> fc6-R (in-place)
I0419 03:26:17.607753 23811 net.cpp:122] Setting up relu6-R
I0419 03:26:17.607779 23811 net.cpp:129] Top shape: 1 4096 17 17 (1183744)
I0419 03:26:17.607782 23811 net.cpp:137] Memory required for data: 2454399008
I0419 03:26:17.607786 23811 layer_factory.hpp:77] Creating layer drop6-R
I0419 03:26:17.607805 23811 net.cpp:84] Creating Layer drop6-R
I0419 03:26:17.607808 23811 net.cpp:406] drop6-R <- fc6-R
I0419 03:26:17.607815 23811 net.cpp:367] drop6-R -> fc6-R (in-place)
I0419 03:26:17.607848 23811 net.cpp:122] Setting up drop6-R
I0419 03:26:17.607858 23811 net.cpp:129] Top shape: 1 4096 17 17 (1183744)
I0419 03:26:17.607862 23811 net.cpp:137] Memory required for data: 2459133984
I0419 03:26:17.607866 23811 layer_factory.hpp:77] Creating layer fc7-R
I0419 03:26:17.607882 23811 net.cpp:84] Creating Layer fc7-R
I0419 03:26:17.607887 23811 net.cpp:406] fc7-R <- fc6-R
I0419 03:26:17.607902 23811 net.cpp:380] fc7-R -> fc7-R
I0419 03:26:17.654968 23811 net.cpp:122] Setting up fc7-R
I0419 03:26:17.655021 23811 net.cpp:129] Top shape: 1 4096 17 17 (1183744)
I0419 03:26:17.655026 23811 net.cpp:137] Memory required for data: 2463868960
I0419 03:26:17.655040 23811 layer_factory.hpp:77] Creating layer relu7-R
I0419 03:26:17.655055 23811 net.cpp:84] Creating Layer relu7-R
I0419 03:26:17.655059 23811 net.cpp:406] relu7-R <- fc7-R
I0419 03:26:17.655068 23811 net.cpp:367] relu7-R -> fc7-R (in-place)
I0419 03:26:17.655323 23811 net.cpp:122] Setting up relu7-R
I0419 03:26:17.655333 23811 net.cpp:129] Top shape: 1 4096 17 17 (1183744)
I0419 03:26:17.655336 23811 net.cpp:137] Memory required for data: 2468603936
I0419 03:26:17.655340 23811 layer_factory.hpp:77] Creating layer drop7-R
I0419 03:26:17.655364 23811 net.cpp:84] Creating Layer drop7-R
I0419 03:26:17.655369 23811 net.cpp:406] drop7-R <- fc7-R
I0419 03:26:17.655375 23811 net.cpp:367] drop7-R -> fc7-R (in-place)
I0419 03:26:17.655409 23811 net.cpp:122] Setting up drop7-R
I0419 03:26:17.655418 23811 net.cpp:129] Top shape: 1 4096 17 17 (1183744)
I0419 03:26:17.655422 23811 net.cpp:137] Memory required for data: 2473338912
I0419 03:26:17.655426 23811 layer_factory.hpp:77] Creating layer score_fr-new-R
I0419 03:26:17.655436 23811 net.cpp:84] Creating Layer score_fr-new-R
I0419 03:26:17.655439 23811 net.cpp:406] score_fr-new-R <- fc7-R
I0419 03:26:17.655449 23811 net.cpp:380] score_fr-new-R -> score_fr-new-R
I0419 03:26:17.656852 23811 net.cpp:122] Setting up score_fr-new-R
I0419 03:26:17.656864 23811 net.cpp:129] Top shape: 1 3 17 17 (867)
I0419 03:26:17.656884 23811 net.cpp:137] Memory required for data: 2473342380
I0419 03:26:17.656890 23811 layer_factory.hpp:77] Creating layer upscore2-new-R
I0419 03:26:17.656899 23811 net.cpp:84] Creating Layer upscore2-new-R
I0419 03:26:17.656903 23811 net.cpp:406] upscore2-new-R <- score_fr-new-R
I0419 03:26:17.656911 23811 net.cpp:380] upscore2-new-R -> upscore2-new-R
I0419 03:26:17.657168 23811 net.cpp:122] Setting up upscore2-new-R
I0419 03:26:17.657177 23811 net.cpp:129] Top shape: 1 3 36 36 (3888)
I0419 03:26:17.657181 23811 net.cpp:137] Memory required for data: 2473357932
I0419 03:26:17.657186 23811 layer_factory.hpp:77] Creating layer upscore2-new-R_upscore2-new-R_0_split
I0419 03:26:17.657192 23811 net.cpp:84] Creating Layer upscore2-new-R_upscore2-new-R_0_split
I0419 03:26:17.657197 23811 net.cpp:406] upscore2-new-R_upscore2-new-R_0_split <- upscore2-new-R
I0419 03:26:17.657202 23811 net.cpp:380] upscore2-new-R_upscore2-new-R_0_split -> upscore2-new-R_upscore2-new-R_0_split_0
I0419 03:26:17.657209 23811 net.cpp:380] upscore2-new-R_upscore2-new-R_0_split -> upscore2-new-R_upscore2-new-R_0_split_1
I0419 03:26:17.657253 23811 net.cpp:122] Setting up upscore2-new-R_upscore2-new-R_0_split
I0419 03:26:17.657263 23811 net.cpp:129] Top shape: 1 3 36 36 (3888)
I0419 03:26:17.657269 23811 net.cpp:129] Top shape: 1 3 36 36 (3888)
I0419 03:26:17.657271 23811 net.cpp:137] Memory required for data: 2473389036
I0419 03:26:17.657274 23811 layer_factory.hpp:77] Creating layer score_pool4-new-R
I0419 03:26:17.657289 23811 net.cpp:84] Creating Layer score_pool4-new-R
I0419 03:26:17.657294 23811 net.cpp:406] score_pool4-new-R <- pool4-R_pool4-R_0_split_1
I0419 03:26:17.657301 23811 net.cpp:380] score_pool4-new-R -> score_pool4-new-R
I0419 03:26:17.660079 23811 net.cpp:122] Setting up score_pool4-new-R
I0419 03:26:17.660095 23811 net.cpp:129] Top shape: 1 3 45 45 (6075)
I0419 03:26:17.660115 23811 net.cpp:137] Memory required for data: 2473413336
I0419 03:26:17.660121 23811 layer_factory.hpp:77] Creating layer score_pool4c-R
I0419 03:26:17.660130 23811 net.cpp:84] Creating Layer score_pool4c-R
I0419 03:26:17.660135 23811 net.cpp:406] score_pool4c-R <- score_pool4-new-R
I0419 03:26:17.660140 23811 net.cpp:406] score_pool4c-R <- upscore2-new-R_upscore2-new-R_0_split_0
I0419 03:26:17.660145 23811 net.cpp:380] score_pool4c-R -> score_pool4c-R
I0419 03:26:17.660193 23811 net.cpp:122] Setting up score_pool4c-R
I0419 03:26:17.660199 23811 net.cpp:129] Top shape: 1 3 36 36 (3888)
I0419 03:26:17.660202 23811 net.cpp:137] Memory required for data: 2473428888
I0419 03:26:17.660205 23811 layer_factory.hpp:77] Creating layer fuse_pool4-R
I0419 03:26:17.660213 23811 net.cpp:84] Creating Layer fuse_pool4-R
I0419 03:26:17.660218 23811 net.cpp:406] fuse_pool4-R <- upscore2-new-R_upscore2-new-R_0_split_1
I0419 03:26:17.660223 23811 net.cpp:406] fuse_pool4-R <- score_pool4c-R
I0419 03:26:17.660228 23811 net.cpp:380] fuse_pool4-R -> fuse_pool4-R
I0419 03:26:17.660255 23811 net.cpp:122] Setting up fuse_pool4-R
I0419 03:26:17.660260 23811 net.cpp:129] Top shape: 1 3 36 36 (3888)
I0419 03:26:17.660262 23811 net.cpp:137] Memory required for data: 2473444440
I0419 03:26:17.660266 23811 layer_factory.hpp:77] Creating layer upscore_pool4-new-R
I0419 03:26:17.660284 23811 net.cpp:84] Creating Layer upscore_pool4-new-R
I0419 03:26:17.660286 23811 net.cpp:406] upscore_pool4-new-R <- fuse_pool4-R
I0419 03:26:17.660295 23811 net.cpp:380] upscore_pool4-new-R -> upscore_pool4-new-R
I0419 03:26:17.660537 23811 net.cpp:122] Setting up upscore_pool4-new-R
I0419 03:26:17.660547 23811 net.cpp:129] Top shape: 1 3 74 74 (16428)
I0419 03:26:17.660550 23811 net.cpp:137] Memory required for data: 2473510152
I0419 03:26:17.660562 23811 layer_factory.hpp:77] Creating layer upscore_pool4-new-R_upscore_pool4-new-R_0_split
I0419 03:26:17.660569 23811 net.cpp:84] Creating Layer upscore_pool4-new-R_upscore_pool4-new-R_0_split
I0419 03:26:17.660573 23811 net.cpp:406] upscore_pool4-new-R_upscore_pool4-new-R_0_split <- upscore_pool4-new-R
I0419 03:26:17.660578 23811 net.cpp:380] upscore_pool4-new-R_upscore_pool4-new-R_0_split -> upscore_pool4-new-R_upscore_pool4-new-R_0_split_0
I0419 03:26:17.660585 23811 net.cpp:380] upscore_pool4-new-R_upscore_pool4-new-R_0_split -> upscore_pool4-new-R_upscore_pool4-new-R_0_split_1
I0419 03:26:17.660629 23811 net.cpp:122] Setting up upscore_pool4-new-R_upscore_pool4-new-R_0_split
I0419 03:26:17.660636 23811 net.cpp:129] Top shape: 1 3 74 74 (16428)
I0419 03:26:17.660641 23811 net.cpp:129] Top shape: 1 3 74 74 (16428)
I0419 03:26:17.660645 23811 net.cpp:137] Memory required for data: 2473641576
I0419 03:26:17.660653 23811 layer_factory.hpp:77] Creating layer score_pool3-new-R
I0419 03:26:17.660662 23811 net.cpp:84] Creating Layer score_pool3-new-R
I0419 03:26:17.660667 23811 net.cpp:406] score_pool3-new-R <- pool3-R_pool3-R_0_split_1
I0419 03:26:17.660675 23811 net.cpp:380] score_pool3-new-R -> score_pool3-new-R
I0419 03:26:17.662012 23811 net.cpp:122] Setting up score_pool3-new-R
I0419 03:26:17.662027 23811 net.cpp:129] Top shape: 1 3 89 89 (23763)
I0419 03:26:17.662046 23811 net.cpp:137] Memory required for data: 2473736628
I0419 03:26:17.662053 23811 layer_factory.hpp:77] Creating layer score_pool3c-R
I0419 03:26:17.662070 23811 net.cpp:84] Creating Layer score_pool3c-R
I0419 03:26:17.662075 23811 net.cpp:406] score_pool3c-R <- score_pool3-new-R
I0419 03:26:17.662080 23811 net.cpp:406] score_pool3c-R <- upscore_pool4-new-R_upscore_pool4-new-R_0_split_0
I0419 03:26:17.662101 23811 net.cpp:380] score_pool3c-R -> score_pool3c-R
I0419 03:26:17.662135 23811 net.cpp:122] Setting up score_pool3c-R
I0419 03:26:17.662142 23811 net.cpp:129] Top shape: 1 3 74 74 (16428)
I0419 03:26:17.662144 23811 net.cpp:137] Memory required for data: 2473802340
I0419 03:26:17.662147 23811 layer_factory.hpp:77] Creating layer fuse_pool3-R
I0419 03:26:17.662153 23811 net.cpp:84] Creating Layer fuse_pool3-R
I0419 03:26:17.662158 23811 net.cpp:406] fuse_pool3-R <- upscore_pool4-new-R_upscore_pool4-new-R_0_split_1
I0419 03:26:17.662170 23811 net.cpp:406] fuse_pool3-R <- score_pool3c-R
I0419 03:26:17.662191 23811 net.cpp:380] fuse_pool3-R -> fuse_pool3-R
I0419 03:26:17.662221 23811 net.cpp:122] Setting up fuse_pool3-R
I0419 03:26:17.662227 23811 net.cpp:129] Top shape: 1 3 74 74 (16428)
I0419 03:26:17.662230 23811 net.cpp:137] Memory required for data: 2473868052
I0419 03:26:17.662233 23811 layer_factory.hpp:77] Creating layer upscore8-new-R
I0419 03:26:17.662240 23811 net.cpp:84] Creating Layer upscore8-new-R
I0419 03:26:17.662245 23811 net.cpp:406] upscore8-new-R <- fuse_pool3-R
I0419 03:26:17.662261 23811 net.cpp:380] upscore8-new-R -> upscore8-new-R
I0419 03:26:17.662526 23811 net.cpp:122] Setting up upscore8-new-R
I0419 03:26:17.662535 23811 net.cpp:129] Top shape: 1 3 600 600 (1080000)
I0419 03:26:17.662539 23811 net.cpp:137] Memory required for data: 2478188052
I0419 03:26:17.662544 23811 layer_factory.hpp:77] Creating layer upscore8_cropped-R
I0419 03:26:17.662560 23811 net.cpp:84] Creating Layer upscore8_cropped-R
I0419 03:26:17.662565 23811 net.cpp:406] upscore8_cropped-R <- upscore8-new-R
I0419 03:26:17.662576 23811 net.cpp:406] upscore8_cropped-R <- data-R_crop_0_split_1
I0419 03:26:17.662582 23811 net.cpp:380] upscore8_cropped-R -> upscore8_cropped-R
I0419 03:26:17.662611 23811 net.cpp:122] Setting up upscore8_cropped-R
I0419 03:26:17.662621 23811 net.cpp:129] Top shape: 1 3 512 512 (786432)
I0419 03:26:17.662624 23811 net.cpp:137] Memory required for data: 2481333780
I0419 03:26:17.662627 23811 layer_factory.hpp:77] Creating layer score-R
I0419 03:26:17.662637 23811 net.cpp:84] Creating Layer score-R
I0419 03:26:17.662641 23811 net.cpp:406] score-R <- upscore8_cropped-R
I0419 03:26:17.662650 23811 net.cpp:380] score-R -> score-R
I0419 03:26:17.665904 23811 net.cpp:122] Setting up score-R
I0419 03:26:17.665918 23811 net.cpp:129] Top shape: 1 3 512 512 (786432)
I0419 03:26:17.665938 23811 net.cpp:137] Memory required for data: 2484479508
I0419 03:26:17.665946 23811 layer_factory.hpp:77] Creating layer score_uncropped-R
I0419 03:26:17.666378 23811 net.cpp:84] Creating Layer score_uncropped-R
I0419 03:26:17.666390 23811 net.cpp:406] score_uncropped-R <- crop_info
I0419 03:26:17.666412 23811 net.cpp:406] score_uncropped-R <- score-R
I0419 03:26:17.666435 23811 net.cpp:406] score_uncropped-R <- data_data_0_split_3
I0419 03:26:17.666441 23811 net.cpp:380] score_uncropped-R -> score_uncropped-R
I0419 03:26:17.668923 23811 net.cpp:122] Setting up score_uncropped-R
I0419 03:26:17.668942 23811 net.cpp:129] Top shape: 1 3 512 512 (786432)
I0419 03:26:17.668959 23811 net.cpp:137] Memory required for data: 2487625236
I0419 03:26:17.668964 23811 layer_factory.hpp:77] Creating layer loss1
I0419 03:26:17.668983 23811 net.cpp:84] Creating Layer loss1
I0419 03:26:17.668989 23811 net.cpp:406] loss1 <- score_score_0_split_1
I0419 03:26:17.668997 23811 net.cpp:406] loss1 <- label_data_1_split_1
I0419 03:26:17.669015 23811 net.cpp:380] loss1 -> loss1
…
snapshot_prefix: "/media/Med_2T2/data2/models/snapshots/indiv:1e-5x10,20/FD0:ZI3_1_20180418_201415/train"
test_initialization: false
average_loss: 20
stepvalue: 40000
iter_size: 1
I0419 05:28:25.946982 23811 solver.cpp:77] Creating training net from train_net file: /media/Med_2T2/data2/prototxts/training_I3x10.prototxt
I0419 05:28:25.949296 23811 net.cpp:51] Initializing net from parameters: 
state {
  phase: TRAIN
}
layer {
  name: "data"
  type: "Python"
  top: "data"
  top: "label"
  top: "crop_margin"
  top: "crop_prob"
  top: "crop_sample_batch"
  python_param {
    module: "Data"
    layer: "DataLayer"
  }
}
layer {
  name: "conv1_1"
  type: "Convolution"
  bottom: "data"
  top: "conv1_1"
  param {
    lr_mult: 1
    decay_mult: 1
  }
  param {
    lr_mult: 2
    decay_mult: 0
  }
  convolution_param {
    num_output: 64
    pad: 100
    kernel_size: 3
    stride: 1
  }
}
layer {
  name: "relu1_1"
  type: "ReLU"
  bottom: "conv1_1"
  top: "conv1_1"
}
layer {
  name: "conv1_2"
  type: "Convolution"
  bottom: "conv1_1"
  top: "conv1_2"
  param {
    lr_mult: 1
    decay_mult: 1
  }
  param {
    lr_mult: 2
    decay_mult: 0
  }
  convolution_param {
    num_output: 64
    pad: 1
    kernel_size: 3
    stride: 1
  }
}
layer {
  name: "relu1_2"
  type: "ReLU"
  bottom: "conv1_2"
  top: "conv1_2"
}
layer {
  name: "pool1"
  type: "Pooling"
  bottom: "conv1_2"
  top: "pool1"
  pooling_param {
    pool: MAX
    kernel_size: 2
    stride: 2
  }
}
layer {
  name: "conv2_1"
  type: "Convolution"
  bottom: "pool1"
  top: "conv2_1"
  param {
    lr_mult: 1
    decay_mult: 1
  }
  param {
    lr_mult: 2
    decay_mult: 0
  }
  convolution_param {
    num_output: 128
    pad: 1
    kernel_size: 3
    stride: 1
  }
}
layer {
  name: "relu2_1"
  type: "ReLU"
  bottom: "conv2_1"
  top: "conv2_1"
}
layer {
  name: "conv2_2"
  type: "Convolution"
  bottom: "conv2_1"
  top: "conv2_2"
  param {
    lr_mult: 1
    decay_mult: 1
  }
  param {
    lr_mult: 2
    decay_mult: 0
  }
  convolution_param {
    num_output: 128
    pad: 1
    kernel_size: 3
    stride: 1
  }
}
layer {
  name: "relu2_2"
  type: "ReLU"
  bottom: "conv2_2"
  top: "conv2_2"
}
layer {
  name: "pool2"
  type: "Pooling"
  bottom: "conv2_2"
  top: "pool2"
  pooling_param {
    pool: MAX
    kernel_size: 2
    stride: 2
  }
}
layer {
  name: "conv3_1"
  type: "Convolution"
  bottom: "pool2"
  top: "conv3_1"
  param {
    lr_mult: 1
    decay_mult: 1
  }
  param {
    lr_mult: 2
    decay_mult: 0
  }
  convolution_param {
    num_output: 256
    pad: 1
    kernel_size: 3
    stride: 1
  }
}
layer {
  name: "relu3_1"
  type: "ReLU"
  bottom: "conv3_1"
  top: "conv3_1"
}
layer {
  name: "conv3_2"
  type: "Convolution"
  bottom: "conv3_1"
  top: "conv3_2"
  param {
    lr_mult: 1
    decay_mult: 1
  }
  param {
    lr_mult: 2
    decay_mult: 0
  }
  convolution_param {
    num_output: 256
    pad: 1
    kernel_size: 3
    stride: 1
  }
}
layer {
  name: "relu3_2"
  type: "ReLU"
  bottom: "conv3_2"
  top: "conv3_2"
}
layer {
  name: "conv3_3"
  type: "Convolution"
  bottom: "conv3_2"
  top: "conv3_3"
  param {
    lr_mult: 1
    decay_mult: 1
  }
  param {
    lr_mult: 2
    decay_mult: 0
  }
  convolution_param {
    num_output: 256
    pad: 1
    kernel_size: 3
    stride: 1
  }
}
layer {
  name: "relu3_3"
  type: "ReLU"
  bottom: "conv3_3"
  top: "conv3_3"
}
layer {
  name: "pool3"
  type: "Pooling"
  bottom: "conv3_3"
  top: "pool3"
  pooling_param {
    pool: MAX
    kernel_size: 2
    stride: 2
  }
}
layer {
  name: "conv4_1"
  type: "Convolution"
  bottom: "pool3"
  top: "conv4_1"
  param {
    lr_mult: 1
    decay_mult: 1
  }
  param {
    lr_mult: 2
    decay_mult: 0
  }
  convolution_param {
    num_output: 512
    pad: 1
    kernel_size: 3
    stride: 1
  }
}
layer {
  name: "relu4_1"
  type: "ReLU"
  bottom: "conv4_1"
  top: "conv4_1"
}
layer {
  name: "conv4_2"
  type: "Convolution"
  bottom: "conv4_1"
  top: "conv4_2"
  param {
    lr_mult: 1
    decay_mult: 1
  }
  param {
    lr_mult: 2
    decay_mult: 0
  }
  convolution_param {
    num_output: 512
    pad: 1
    kernel_size: 3
    stride: 1
  }
}
layer {
  name: "relu4_2"
  type: "ReLU"
  bottom: "conv4_2"
  top: "conv4_2"
}
layer {
  name: "conv4_3"
  type: "Convolution"
  bottom: "conv4_2"
  top: "conv4_3"
  param {
    lr_mult: 1
    decay_mult: 1
  }
  param {
    lr_mult: 2
    decay_mult: 0
  }
  convolution_param {
    num_output: 512
    pad: 1
    kernel_size: 3
    stride: 1
  }
}
layer {
  name: "relu4_3"
  type: "ReLU"
  bottom: "conv4_3"
  top: "conv4_3"
}
layer {
  name: "pool4"
  type: "Pooling"
  bottom: "conv4_3"
  top: "pool4"
  pooling_param {
    pool: MAX
    kernel_size: 2
    stride: 2
  }
}
layer {
  name: "conv5_1"
  type: "Convolution"
  bottom: "pool4"
  top: "conv5_1"
  param {
    lr_mult: 1
    decay_mult: 1
  }
  param {
    lr_mult: 2
    decay_mult: 0
  }
  convolution_param {
    num_output: 512
    pad: 1
    kernel_size: 3
    stride: 1
  }
}
layer {
  name: "relu5_1"
  type: "ReLU"
  bottom: "conv5_1"
  top: "conv5_1"
}
layer {
  name: "conv5_2"
  type: "Convolution"
  bottom: "conv5_1"
  top: "conv5_2"
  param {
    lr_mult: 1
    decay_mult: 1
  }
  param {
    lr_mult: 2
    decay_mult: 0
  }
  convolution_param {
    num_output: 512
    pad: 1
    kernel_size: 3
    stride: 1
  }
}
layer {
  name: "relu5_2"
  type: "ReLU"
  bottom: "conv5_2"
  top: "conv5_2"
}
layer {
  name: "conv5_3"
  type: "Convolution"
  bottom: "conv5_2"
  top: "conv5_3"
  param {
    lr_mult: 1
    decay_mult: 1
  }
  param {
    lr_mult: 2
    decay_mult: 0
  }
  convolution_param {
    num_output: 512
    pad: 1
    kernel_size: 3
    stride: 1
  }
}
layer {
  name: "relu5_3"
  type: "ReLU"
  bottom: "conv5_3"
  top: "conv5_3"
}
layer {
  name: "pool5"
  type: "Pooling"
  bottom: "conv5_3"
  top: "pool5"
  pooling_param {
    pool: MAX
    kernel_size: 2
    stride: 2
  }
}
layer {
  name: "fc6"
  type: "Convolution"
  bottom: "pool5"
  top: "fc6"
  param {
    lr_mult: 1
    decay_mult: 1
  }
  param {
    lr_mult: 2
    decay_mult: 0
  }
  convolution_param {
    num_output: 4096
    pad: 0
    kernel_size: 7
    stride: 1
  }
}
layer {
  name: "relu6"
  type: "ReLU"
  bottom: "fc6"
  top: "fc6"
}
layer {
  name: "drop6"
  type: "Dropout"
  bottom: "fc6"
  top: "fc6"
  dropout_param {
    dropout_ratio: 0.5
  }
}
layer {
  name: "fc7"
  type: "Convolution"
  bottom: "fc6"
  top: "fc7"
  param {
    lr_mult: 1
    decay_mult: 1
  }
  param {
    lr_mult: 2
    decay_mult: 0
  }
  convolution_param {
    num_output: 4096
    pad: 0
    kernel_size: 1
    stride: 1
  }
}
layer {
  name: "relu7"
  type: "ReLU"
  bottom: "fc7"
  top: "fc7"
}
layer {
  name: "drop7"
  type: "Dropout"
  bottom: "fc7"
  top: "fc7"
  dropout_param {
    dropout_ratio: 0.5
  }
}
layer {
  name: "score_fr-new"
  type: "Convolution"
  bottom: "fc7"
  top: "score_fr-new"
  param {
    lr_mult: 1
    decay_mult: 1
  }
  param {
    lr_mult: 2
    decay_mult: 0
  }
  convolution_param {
    num_output: 3
    kernel_size: 1
  }
}
layer {
  name: "upscore2-new"
  type: "Deconvolution"
  bottom: "score_fr-new"
  top: "upscore2-new"
  param {
    lr_mult: 0
  }
  convolution_param {
    num_output: 3
    bias_term: false
    kernel_size: 4
    stride: 2
  }
}
layer {
  name: "score_pool4-new"
  type: "Convolution"
  bottom: "pool4"
  top: "score_pool4-new"
  param {
    lr_mult: 1
    decay_mult: 1
  }
  param {
    lr_mult: 2
    decay_mult: 0
  }
  convolution_param {
    num_output: 3
    pad: 0
    kernel_size: 1
  }
}
layer {
  name: "score_pool4c"
  type: "Crop"
  bottom: "score_pool4-new"
  bottom: "upscore2-new"
  top: "score_pool4c"
  crop_param {
    axis: 2
    offset: 5
  }
}
layer {
  name: "fuse_pool4"
  type: "Eltwise"
  bottom: "upscore2-new"
  bottom: "score_pool4c"
  top: "fuse_pool4"
  eltwise_param {
    operation: SUM
  }
}
layer {
  name: "upscore_pool4-new"
  type: "Deconvolution"
  bottom: "fuse_pool4"
  top: "upscore_pool4-new"
  param {
    lr_mult: 0
  }
  convolution_param {
    num_output: 3
    bias_term: false
    kernel_size: 4
    stride: 2
  }
}
layer {
  name: "score_pool3-new"
  type: "Convolution"
  bottom: "pool3"
  top: "score_pool3-new"
  param {
    lr_mult: 1
    decay_mult: 1
  }
  param {
    lr_mult: 2
    decay_mult: 0
  }
  convolution_param {
    num_output: 3
    pad: 0
    kernel_size: 1
  }
}
layer {
  name: "score_pool3c"
  type: "Crop"
  bottom: "score_pool3-new"
  bottom: "upscore_pool4-new"
  top: "score_pool3c"
  crop_param {
    axis: 2
    offset: 9
  }
}
layer {
  name: "fuse_pool3"
  type: "Eltwise"
  bottom: "upscore_pool4-new"
  bottom: "score_pool3c"
  top: "fuse_pool3"
  eltwise_param {
    operation: SUM
  }
}
layer {
  name: "upscore8-new"
  type: "Deconvolution"
  bottom: "fuse_pool3"
  top: "upscore8-new"
  param {
    lr_mult: 0
  }
  convolution_param {
    num_output: 3
    bias_term: false
    kernel_size: 16
    stride: 8
  }
}
layer {
  name: "upscore8_cropped"
  type: "Crop"
  bottom: "upscore8-new"
  bottom: "data"
  top: "upscore8_cropped"
  crop_param {
    axis: 2
    offset: 31
  }
}
layer {
  name: "score"
  type: "Convolution"
  bottom: "upscore8_cropped"
  top: "score"
  param {
    lr_mult: 1
    decay_mult: 1
  }
  param {
    lr_mult: 2
    decay_mult: 0
  }
  convolution_param {
    num_output: 3
    pad: 1
    kernel_size: 3
    stride: 1
    weight_filler {
      type: "xavier"
    }
    bias_filler {
      type: "constant"
      value: 0
    }
  }
}
layer {
  name: "prob"
  type: "Sigmoid"
  bottom: "score"
  top: "prob"
}
layer {
  name: "saliency"
  type: "Convolution"
  bottom: "prob"
  top: "saliency"
  param {
    lr_mult: 10
    decay_mult: 1
  }
  param {
    lr_mult: 20
    decay_mult: 0
  }
  convolution_param {
    num_output: 3
    pad: 2
    kernel_size: 5
    stride: 1
    weight_filler {
      type: "xavier"
    }
    bias_filler {
      type: "constant"
      value: 1
    }
  }
}
layer {
  name: "saliency_data"
  type: "Eltwise"
  bottom: "data"
  bottom: "saliency"
  top: "saliency_data"
  eltwise_param {
    operation: PROD
  }
}
layer {
  name: "crop"
  type: "Python"
  bottom: "label"
  bottom: "saliency_data"
  bottom: "crop_margin"
  bottom: "crop_prob"
  bottom: "crop_sample_batch"
  top: "data-R"
  top: "crop_info"
  python_param {
    module: "Crop"
    layer: "CropLayer"
    param_str: "{\"TEST\": 0}"
  }
}
layer {
  name: "conv1_1-R"
  type: "Convolution"
  bottom: "data-R"
  top: "conv1_1-R"
  param {
    lr_mult: 10
    decay_mult: 1
  }
  param {
    lr_mult: 20
    decay_mult: 0
  }
  convolution_param {
    num_output: 64
    pad: 100
    kernel_size: 3
    stride: 1
  }
}
layer {
  name: "relu1_1-R"
  type: "ReLU"
  bottom: "conv1_1-R"
  top: "conv1_1-R"
}
layer {
  name: "conv1_2-R"
  type: "Convolution"
  bottom: "conv1_1-R"
  top: "conv1_2-R"
  param {
    lr_mult: 10
    decay_mult: 1
  }
  param {
    lr_mult: 20
    decay_mult: 0
  }
  convolution_param {
    num_output: 64
    pad: 1
    kernel_size: 3
    stride: 1
  }
}
layer {
  name: "relu1_2-R"
  type: "ReLU"
  bottom: "conv1_2-R"
  top: "conv1_2-R"
}
layer {
  name: "pool1-R"
  type: "Pooling"
  bottom: "conv1_2-R"
  top: "pool1-R"
  pooling_param {
    pool: MAX
    kernel_size: 2
    stride: 2
  }
}
layer {
  name: "conv2_1-R"
  type: "Convolution"
  bottom: "pool1-R"
  top: "conv2_1-R"
  param {
    lr_mult: 10
    decay_mult: 1
  }
  param {
    lr_mult: 20
    decay_mult: 0
  }
  convolution_param {
    num_output: 128
    pad: 1
    kernel_size: 3
    stride: 1
  }
}
layer {
  name: "relu2_1-R"
  type: "ReLU"
  bottom: "conv2_1-R"
  top: "conv2_1-R"
}
layer {
  name: "conv2_2-R"
  type: "Convolution"
  bottom: "conv2_1-R"
  top: "conv2_2-R"
  param {
    lr_mult: 10
    decay_mult: 1
  }
  param {
    lr_mult: 20
    decay_mult: 0
  }
  convolution_param {
    num_output: 128
    pad: 1
    kernel_size: 3
    stride: 1
  }
}
layer {
  name: "relu2_2-R"
  type: "ReLU"
  bottom: "conv2_2-R"
  top: "conv2_2-R"
}
layer {
  name: "pool2-R"
  type: "Pooling"
  bottom: "conv2_2-R"
  top: "pool2-R"
  pooling_param {
    pool: MAX
    kernel_size: 2
    stride: 2
  }
}
layer {
  name: "conv3_1-R"
  type: "Convolution"
  bottom: "pool2-R"
  top: "conv3_1-R"
  param {
    lr_mult: 10
    decay_mult: 1
  }
  param {
    lr_mult: 20
    decay_mult: 0
  }
  convolution_param {
    num_output: 256
    pad: 1
    kernel_size: 3
    stride: 1
  }
}
layer {
  name: "relu3_1-R"
  type: "ReLU"
  bottom: "conv3_1-R"
  top: "conv3_1-R"
}
layer {
  name: "conv3_2-R"
  type: "Convolution"
  bottom: "conv3_1-R"
  top: "conv3_2-R"
  param {
    lr_mult: 10
    decay_mult: 1
  }
  param {
    lr_mult: 20
    decay_mult: 0
  }
  convolution_param {
    num_output: 256
    pad: 1
    kernel_size: 3
    stride: 1
  }
}
layer {
  name: "relu3_2-R"
  type: "ReLU"
  bottom: "conv3_2-R"
  top: "conv3_2-R"
}
layer {
  name: "conv3_3-R"
  type: "Convolution"
  bottom: "conv3_2-R"
  top: "conv3_3-R"
  param {
    lr_mult: 10
    decay_mult: 1
  }
  param {
    lr_mult: 20
    decay_mult: 0
  }
  convolution_param {
    num_output: 256
    pad: 1
    kernel_size: 3
    stride: 1
  }
}
layer {
  name: "relu3_3-R"
  type: "ReLU"
  bottom: "conv3_3-R"
  top: "conv3_3-R"
}
layer {
  name: "pool3-R"
  type: "Pooling"
  bottom: "conv3_3-R"
  top: "pool3-R"
  pooling_param {
    pool: MAX
    kernel_size: 2
    stride: 2
  }
}
layer {
  name: "conv4_1-R"
  type: "Convolution"
  bottom: "pool3-R"
  top: "conv4_1-R"
  param {
    lr_mult: 10
    decay_mult: 1
  }
  param {
    lr_mult: 20
    decay_mult: 0
  }
  convolution_param {
    num_output: 512
    pad: 1
    kernel_size: 3
    stride: 1
  }
}
layer {
  name: "relu4_1-R"
  type: "ReLU"
  bottom: "conv4_1-R"
  top: "conv4_1-R"
}
layer {
  name: "conv4_2-R"
  type: "Convolution"
  bottom: "conv4_1-R"
  top: "conv4_2-R"
  param {
    lr_mult: 10
    decay_mult: 1
  }
  param {
    lr_mult: 20
    decay_mult: 0
  }
  convolution_param {
    num_output: 512
    pad: 1
    kernel_size: 3
    stride: 1
  }
}
layer {
  name: "relu4_2-R"
  type: "ReLU"
  bottom: "conv4_2-R"
  top: "conv4_2-R"
}
layer {
  name: "conv4_3-R"
  type: "Convolution"
  bottom: "conv4_2-R"
  top: "conv4_3-R"
  param {
    lr_mult: 10
    decay_mult: 1
  }
  param {
    lr_mult: 20
    decay_mult: 0
  }
  convolution_param {
    num_output: 512
    pad: 1
    kernel_size: 3
    stride: 1
  }
}
layer {
  name: "relu4_3-R"
  type: "ReLU"
  bottom: "conv4_3-R"
  top: "conv4_3-R"
}
layer {
  name: "pool4-R"
  type: "Pooling"
  bottom: "conv4_3-R"
  top: "pool4-R"
  pooling_param {
    pool: MAX
    kernel_size: 2
    stride: 2
  }
}
layer {
  name: "conv5_1-R"
  type: "Convolution"
  bottom: "pool4-R"
  top: "conv5_1-R"
  param {
    lr_mult: 10
    decay_mult: 1
  }
  param {
    lr_mult: 20
    decay_mult: 0
  }
  convolution_param {
    num_output: 512
    pad: 1
    kernel_size: 3
    stride: 1
  }
}
layer {
  name: "relu5_1-R"
  type: "ReLU"
  bottom: "conv5_1-R"
  top: "conv5_1-R"
}
layer {
  name: "conv5_2-R"
  type: "Convolution"
  bottom: "conv5_1-R"
  top: "conv5_2-R"
  param {
    lr_mult: 10
    decay_mult: 1
  }
  param {
    lr_mult: 20
    decay_mult: 0
  }
  convolution_param {
    num_output: 512
    pad: 1
    kernel_size: 3
    stride: 1
  }
}
layer {
  name: "relu5_2-R"
  type: "ReLU"
  bottom: "conv5_2-R"
  top: "conv5_2-R"
}
layer {
  name: "conv5_3-R"
  type: "Convolution"
  bottom: "conv5_2-R"
  top: "conv5_3-R"
  param {
    lr_mult: 10
    decay_mult: 1
  }
  param {
    lr_mult: 20
    decay_mult: 0
  }
  convolution_param {
    num_output: 512
    pad: 1
    kernel_size: 3
    stride: 1
  }
}
layer {
  name: "relu5_3-R"
  type: "ReLU"
  bottom: "conv5_3-R"
  top: "conv5_3-R"
}
layer {
  name: "pool5-R"
  type: "Pooling"
  bottom: "conv5_3-R"
  top: "pool5-R"
  pooling_param {
    pool: MAX
    kernel_size: 2
    stride: 2
  }
}
layer {
  name: "fc6-R"
  type: "Convolution"
  bottom: "pool5-R"
  top: "fc6-R"
  param {
    lr_mult: 10
    decay_mult: 1
  }
  param {
    lr_mult: 20
    decay_mult: 0
  }
  convolution_param {
    num_output: 4096
    pad: 0
    kernel_size: 7
    stride: 1
  }
}
layer {
  name: "relu6-R"
  type: "ReLU"
  bottom: "fc6-R"
  top: "fc6-R"
}
layer {
  name: "drop6-R"
  type: "Dropout"
  bottom: "fc6-R"
  top: "fc6-R"
  dropout_param {
    dropout_ratio: 0.5
  }
}
layer {
  name: "fc7-R"
  type: "Convolution"
  bottom: "fc6-R"
  top: "fc7-R"
  param {
    lr_mult: 10
    decay_mult: 1
  }
  param {
    lr_mult: 20
    decay_mult: 0
  }
  convolution_param {
    num_output: 4096
    pad: 0
    kernel_size: 1
    stride: 1
  }
}
layer {
  name: "relu7-R"
  type: "ReLU"
  bottom: "fc7-R"
  top: "fc7-R"
}
layer {
  name: "drop7-R"
  type: "Dropout"
  bottom: "fc7-R"
  top: "fc7-R"
  dropout_param {
    dropout_ratio: 0.5
  }
}
layer {
  name: "score_fr-new-R"
  type: "Convolution"
  bottom: "fc7-R"
  top: "score_fr-new-R"
  param {
    lr_mult: 10
    decay_mult: 1
  }
  param {
    lr_mult: 20
    decay_mult: 0
  }
  convolution_param {
    num_output: 3
    kernel_size: 1
  }
}
layer {
  name: "upscore2-new-R"
  type: "Deconvolution"
  bottom: "score_fr-new-R"
  top: "upscore2-new-R"
  param {
    lr_mult: 0
  }
  convolution_param {
    num_output: 3
    bias_term: false
    kernel_size: 4
    stride: 2
  }
}
layer {
  name: "score_pool4-new-R"
  type: "Convolution"
  bottom: "pool4-R"
  top: "score_pool4-new-R"
  param {
    lr_mult: 10
    decay_mult: 1
  }
  param {
    lr_mult: 20
    decay_mult: 0
  }
  convolution_param {
    num_output: 3
    pad: 0
    kernel_size: 1
  }
}
layer {
  name: "score_pool4c-R"
  type: "Crop"
  bottom: "score_pool4-new-R"
  bottom: "upscore2-new-R"
  top: "score_pool4c-R"
  crop_param {
    axis: 2
    offset: 5
  }
}
layer {
  name: "fuse_pool4-R"
  type: "Eltwise"
  bottom: "upscore2-new-R"
  bottom: "score_pool4c-R"
  top: "fuse_pool4-R"
  eltwise_param {
    operation: SUM
  }
}
layer {
  name: "upscore_pool4-new-R"
  type: "Deconvolution"
  bottom: "fuse_pool4-R"
  top: "upscore_pool4-new-R"
  param {
    lr_mult: 0
  }
  convolution_param {
    num_output: 3
    bias_term: false
    kernel_size: 4
    stride: 2
  }
}
layer {
  name: "score_pool3-new-R"
  type: "Convolution"
  bottom: "pool3-R"
  top: "score_pool3-new-R"
  param {
    lr_mult: 10
    decay_mult: 1
  }
  param {
    lr_mult: 20
    decay_mult: 0
  }
  convolution_param {
    num_output: 3
    pad: 0
    kernel_size: 1
  }
}
layer {
  name: "score_pool3c-R"
  type: "Crop"
  bottom: "score_pool3-new-R"
  bottom: "upscore_pool4-new-R"
  top: "score_pool3c-R"
  crop_param {
    axis: 2
    offset: 9
  }
}
layer {
  name: "fuse_pool3-R"
  type: "Eltwise"
  bottom: "upscore_pool4-new-R"
  bottom: "score_pool3c-R"
  top: "fuse_pool3-R"
  eltwise_param {
    operation: SUM
  }
}
layer {
  name: "upscore8-new-R"
  type: "Deconvolution"
  bottom: "fuse_pool3-R"
  top: "upscore8-new-R"
  param {
    lr_mult: 0
  }
  convolution_param {
    num_output: 3
    bias_term: false
    kernel_size: 16
    stride: 8
  }
}
layer {
  name: "upscore8_cropped-R"
  type: "Crop"
  bottom: "upscore8-new-R"
  bottom: "data-R"
  top: "upscore8_cropped-R"
  crop_param {
    axis: 2
    offset: 31
  }
}
layer {
  name: "score-R"
  type: "Convolution"
  bottom: "upscore8_cropped-R"
  top: "score-R"
  param {
    lr_mult: 10
    decay_mult: 1
  }
  param {
    lr_mult: 20
    decay_mult: 0
  }
  convolution_param {
    num_output: 3
    pad: 1
    kernel_size: 3
    stride: 1
    weight_filler {
      type: "xavier"
    }
    bias_filler {
      type: "constant"
      value: 0
    }
  }
}
layer {
  name: "score_uncropped-R"
  type: "Python"
  bottom: "crop_info"
  bottom: "score-R"
  bottom: "data"
  top: "score_uncropped-R"
  python_param {
    module: "Uncrop"
    layer: "UncropLayer"
  }
}
layer {
  name: "loss1"
  type: "DiceLoss"
  bottom: "score"
  bottom: "label"
  top: "loss1"
  loss_weight: 0.333333
}
layer {
  name: "loss2"
  type: "DiceLoss"
  bottom: "score_uncropped-R"
  bottom: "label"
  top: "loss2"
  loss_weight: 0.666667
}
I0419 05:28:25.949755 23811 layer_factory.hpp:77] Creating layer data
I0419 05:28:25.949811 23811 net.cpp:84] Creating Layer data
I0419 05:28:25.949818 23811 net.cpp:380] data -> data
I0419 05:28:25.949827 23811 net.cpp:380] data -> label
I0419 05:28:25.949833 23811 net.cpp:380] data -> crop_margin
I0419 05:28:25.949838 23811 net.cpp:380] data -> crop_prob
I0419 05:28:25.949843 23811 net.cpp:380] data -> crop_sample_batch
I0419 05:28:26.040015 23811 net.cpp:122] Setting up data
I0419 05:28:26.040066 23811 net.cpp:129] Top shape: 1 3 512 512 (786432)
I0419 05:28:26.040073 23811 net.cpp:129] Top shape: 1 3 512 512 (786432)
I0419 05:28:26.040078 23811 net.cpp:129] Top shape: 1 (1)
I0419 05:28:26.040084 23811 net.cpp:129] Top shape: 1 (1)
I0419 05:28:26.040089 23811 net.cpp:129] Top shape: 1 (1)
I0419 05:28:26.040093 23811 net.cpp:137] Memory required for data: 6291468
I0419 05:28:26.040102 23811 layer_factory.hpp:77] Creating layer data_data_0_split
I0419 05:28:26.040132 23811 net.cpp:84] Creating Layer data_data_0_split
I0419 05:28:26.040136 23811 net.cpp:406] data_data_0_split <- data
I0419 05:28:26.040148 23811 net.cpp:380] data_data_0_split -> data_data_0_split_0
I0419 05:28:26.040161 23811 net.cpp:380] data_data_0_split -> data_data_0_split_1
I0419 05:28:26.040169 23811 net.cpp:380] data_data_0_split -> data_data_0_split_2
I0419 05:28:26.040175 23811 net.cpp:380] data_data_0_split -> data_data_0_split_3
I0419 05:28:26.040300 23811 net.cpp:122] Setting up data_data_0_split
I0419 05:28:26.040310 23811 net.cpp:129] Top shape: 1 3 512 512 (786432)
I0419 05:28:26.040316 23811 net.cpp:129] Top shape: 1 3 512 512 (786432)
I0419 05:28:26.040321 23811 net.cpp:129] Top shape: 1 3 512 512 (786432)
I0419 05:28:26.040326 23811 net.cpp:129] Top shape: 1 3 512 512 (786432)
I0419 05:28:26.040330 23811 net.cpp:137] Memory required for data: 18874380
I0419 05:28:26.040334 23811 layer_factory.hpp:77] Creating layer label_data_1_split
I0419 05:28:26.040343 23811 net.cpp:84] Creating Layer label_data_1_split
I0419 05:28:26.040346 23811 net.cpp:406] label_data_1_split <- label
I0419 05:28:26.040352 23811 net.cpp:380] label_data_1_split -> label_data_1_split_0
I0419 05:28:26.040359 23811 net.cpp:380] label_data_1_split -> label_data_1_split_1
I0419 05:28:26.040365 23811 net.cpp:380] label_data_1_split -> label_data_1_split_2
I0419 05:28:26.040455 23811 net.cpp:122] Setting up label_data_1_split
I0419 05:28:26.040463 23811 net.cpp:129] Top shape: 1 3 512 512 (786432)
I0419 05:28:26.040469 23811 net.cpp:129] Top shape: 1 3 512 512 (786432)
I0419 05:28:26.040473 23811 net.cpp:129] Top shape: 1 3 512 512 (786432)
I0419 05:28:26.040477 23811 net.cpp:137] Memory required for data: 28311564
I0419 05:28:26.040482 23811 layer_factory.hpp:77] Creating layer conv1_1
I0419 05:28:26.040494 23811 net.cpp:84] Creating Layer conv1_1
I0419 05:28:26.040499 23811 net.cpp:406] conv1_1 <- data_data_0_split_0
I0419 05:28:26.040518 23811 net.cpp:380] conv1_1 -> conv1_1
I0419 05:28:26.045902 23811 net.cpp:122] Setting up conv1_1
I0419 05:28:26.045923 23811 net.cpp:129] Top shape: 1 64 710 710 (32262400)
I0419 05:28:26.045928 23811 net.cpp:137] Memory required for data: 157361164
I0419 05:28:26.045948 23811 layer_factory.hpp:77] Creating layer relu1_1
I0419 05:28:26.045959 23811 net.cpp:84] Creating Layer relu1_1
I0419 05:28:26.045964 23811 net.cpp:406] relu1_1 <- conv1_1
I0419 05:28:26.045971 23811 net.cpp:367] relu1_1 -> conv1_1 (in-place)
I0419 05:28:26.046486 23811 net.cpp:122] Setting up relu1_1
I0419 05:28:26.046510 23811 net.cpp:129] Top shape: 1 64 710 710 (32262400)
I0419 05:28:26.046514 23811 net.cpp:137] Memory required for data: 286410764
I0419 05:28:26.046526 23811 layer_factory.hpp:77] Creating layer conv1_2
I0419 05:28:26.046550 23811 net.cpp:84] Creating Layer conv1_2
I0419 05:28:26.046553 23811 net.cpp:406] conv1_2 <- conv1_1
I0419 05:28:26.046561 23811 net.cpp:380] conv1_2 -> conv1_2
I0419 05:28:26.060181 23811 net.cpp:122] Setting up conv1_2
I0419 05:28:26.060243 23811 net.cpp:129] Top shape: 1 64 710 710 (32262400)
I0419 05:28:26.060252 23811 net.cpp:137] Memory required for data: 415460364
I0419 05:28:26.060278 23811 layer_factory.hpp:77] Creating layer relu1_2
I0419 05:28:26.060303 23811 net.cpp:84] Creating Layer relu1_2
I0419 05:28:26.060313 23811 net.cpp:406] relu1_2 <- conv1_2
I0419 05:28:26.060325 23811 net.cpp:367] relu1_2 -> conv1_2 (in-place)
I0419 05:28:26.060825 23811 net.cpp:122] Setting up relu1_2
I0419 05:28:26.060858 23811 net.cpp:129] Top shape: 1 64 710 710 (32262400)
I0419 05:28:26.060864 23811 net.cpp:137] Memory required for data: 544509964
I0419 05:28:26.060871 23811 layer_factory.hpp:77] Creating layer pool1
I0419 05:28:26.060885 23811 net.cpp:84] Creating Layer pool1
I0419 05:28:26.060892 23811 net.cpp:406] pool1 <- conv1_2
I0419 05:28:26.060904 23811 net.cpp:380] pool1 -> pool1
I0419 05:28:26.061033 23811 net.cpp:122] Setting up pool1
I0419 05:28:26.061048 23811 net.cpp:129] Top shape: 1 64 355 355 (8065600)
I0419 05:28:26.061055 23811 net.cpp:137] Memory required for data: 576772364
I0419 05:28:26.061062 23811 layer_factory.hpp:77] Creating layer conv2_1
I0419 05:28:26.061084 23811 net.cpp:84] Creating Layer conv2_1
I0419 05:28:26.061090 23811 net.cpp:406] conv2_1 <- pool1
I0419 05:28:26.061110 23811 net.cpp:380] conv2_1 -> conv2_1
I0419 05:28:26.064646 23811 net.cpp:122] Setting up conv2_1
I0419 05:28:26.064688 23811 net.cpp:129] Top shape: 1 128 355 355 (16131200)
I0419 05:28:26.064697 23811 net.cpp:137] Memory required for data: 641297164
I0419 05:28:26.064716 23811 layer_factory.hpp:77] Creating layer relu2_1
I0419 05:28:26.064729 23811 net.cpp:84] Creating Layer relu2_1
I0419 05:28:26.064738 23811 net.cpp:406] relu2_1 <- conv2_1
I0419 05:28:26.064749 23811 net.cpp:367] relu2_1 -> conv2_1 (in-place)
I0419 05:28:26.066133 23811 net.cpp:122] Setting up relu2_1
I0419 05:28:26.066160 23811 net.cpp:129] Top shape: 1 128 355 355 (16131200)
I0419 05:28:26.066211 23811 net.cpp:137] Memory required for data: 705821964
I0419 05:28:26.066220 23811 layer_factory.hpp:77] Creating layer conv2_2
I0419 05:28:26.066241 23811 net.cpp:84] Creating Layer conv2_2
I0419 05:28:26.066248 23811 net.cpp:406] conv2_2 <- conv2_1
I0419 05:28:26.066262 23811 net.cpp:380] conv2_2 -> conv2_2
I0419 05:28:26.069743 23811 net.cpp:122] Setting up conv2_2
I0419 05:28:26.069785 23811 net.cpp:129] Top shape: 1 128 355 355 (16131200)
I0419 05:28:26.069793 23811 net.cpp:137] Memory required for data: 770346764
I0419 05:28:26.069808 23811 layer_factory.hpp:77] Creating layer relu2_2
I0419 05:28:26.069821 23811 net.cpp:84] Creating Layer relu2_2
I0419 05:28:26.069830 23811 net.cpp:406] relu2_2 <- conv2_2
I0419 05:28:26.069842 23811 net.cpp:367] relu2_2 -> conv2_2 (in-place)
I0419 05:28:26.072914 23811 net.cpp:122] Setting up relu2_2
I0419 05:28:26.072947 23811 net.cpp:129] Top shape: 1 128 355 355 (16131200)
I0419 05:28:26.072952 23811 net.cpp:137] Memory required for data: 834871564
I0419 05:28:26.072957 23811 layer_factory.hpp:77] Creating layer pool2
I0419 05:28:26.072968 23811 net.cpp:84] Creating Layer pool2
I0419 05:28:26.072973 23811 net.cpp:406] pool2 <- conv2_2
I0419 05:28:26.072981 23811 net.cpp:380] pool2 -> pool2
I0419 05:28:26.073067 23811 net.cpp:122] Setting up pool2
I0419 05:28:26.073081 23811 net.cpp:129] Top shape: 1 128 178 178 (4055552)
I0419 05:28:26.073086 23811 net.cpp:137] Memory required for data: 851093772
I0419 05:28:26.073089 23811 layer_factory.hpp:77] Creating layer conv3_1
I0419 05:28:26.073101 23811 net.cpp:84] Creating Layer conv3_1
I0419 05:28:26.073105 23811 net.cpp:406] conv3_1 <- pool2
I0419 05:28:26.073112 23811 net.cpp:380] conv3_1 -> conv3_1
I0419 05:28:26.082015 23811 net.cpp:122] Setting up conv3_1
I0419 05:28:26.082046 23811 net.cpp:129] Top shape: 1 256 178 178 (8111104)
I0419 05:28:26.082051 23811 net.cpp:137] Memory required for data: 883538188
I0419 05:28:26.082063 23811 layer_factory.hpp:77] Creating layer relu3_1
I0419 05:28:26.082072 23811 net.cpp:84] Creating Layer relu3_1
I0419 05:28:26.082077 23811 net.cpp:406] relu3_1 <- conv3_1
I0419 05:28:26.082084 23811 net.cpp:367] relu3_1 -> conv3_1 (in-place)
I0419 05:28:26.082458 23811 net.cpp:122] Setting up relu3_1
I0419 05:28:26.082479 23811 net.cpp:129] Top shape: 1 256 178 178 (8111104)
I0419 05:28:26.082486 23811 net.cpp:137] Memory required for data: 915982604
I0419 05:28:26.082494 23811 layer_factory.hpp:77] Creating layer conv3_2
I0419 05:28:26.082510 23811 net.cpp:84] Creating Layer conv3_2
I0419 05:28:26.082518 23811 net.cpp:406] conv3_2 <- conv3_1
I0419 05:28:26.082531 23811 net.cpp:380] conv3_2 -> conv3_2
I0419 05:28:26.095016 23811 net.cpp:122] Setting up conv3_2
I0419 05:28:26.095049 23811 net.cpp:129] Top shape: 1 256 178 178 (8111104)
I0419 05:28:26.095058 23811 net.cpp:137] Memory required for data: 948427020
I0419 05:28:26.095074 23811 layer_factory.hpp:77] Creating layer relu3_2
I0419 05:28:26.095098 23811 net.cpp:84] Creating Layer relu3_2
I0419 05:28:26.095106 23811 net.cpp:406] relu3_2 <- conv3_2
I0419 05:28:26.095124 23811 net.cpp:367] relu3_2 -> conv3_2 (in-place)
I0419 05:28:26.095677 23811 net.cpp:122] Setting up relu3_2
I0419 05:28:26.095697 23811 net.cpp:129] Top shape: 1 256 178 178 (8111104)
I0419 05:28:26.095705 23811 net.cpp:137] Memory required for data: 980871436
I0419 05:28:26.095711 23811 layer_factory.hpp:77] Creating layer conv3_3
I0419 05:28:26.095727 23811 net.cpp:84] Creating Layer conv3_3
I0419 05:28:26.095736 23811 net.cpp:406] conv3_3 <- conv3_2
I0419 05:28:26.095747 23811 net.cpp:380] conv3_3 -> conv3_3
I0419 05:28:26.103570 23811 net.cpp:122] Setting up conv3_3
I0419 05:28:26.103605 23811 net.cpp:129] Top shape: 1 256 178 178 (8111104)
I0419 05:28:26.103611 23811 net.cpp:137] Memory required for data: 1013315852
I0419 05:28:26.103622 23811 layer_factory.hpp:77] Creating layer relu3_3
I0419 05:28:26.103632 23811 net.cpp:84] Creating Layer relu3_3
I0419 05:28:26.103637 23811 net.cpp:406] relu3_3 <- conv3_3
I0419 05:28:26.103646 23811 net.cpp:367] relu3_3 -> conv3_3 (in-place)
I0419 05:28:26.103982 23811 net.cpp:122] Setting up relu3_3
I0419 05:28:26.103996 23811 net.cpp:129] Top shape: 1 256 178 178 (8111104)
I0419 05:28:26.104001 23811 net.cpp:137] Memory required for data: 1045760268
I0419 05:28:26.104005 23811 layer_factory.hpp:77] Creating layer pool3
I0419 05:28:26.104014 23811 net.cpp:84] Creating Layer pool3
I0419 05:28:26.104019 23811 net.cpp:406] pool3 <- conv3_3
I0419 05:28:26.104027 23811 net.cpp:380] pool3 -> pool3
I0419 05:28:26.104120 23811 net.cpp:122] Setting up pool3
I0419 05:28:26.104130 23811 net.cpp:129] Top shape: 1 256 89 89 (2027776)
I0419 05:28:26.104133 23811 net.cpp:137] Memory required for data: 1053871372
I0419 05:28:26.104138 23811 layer_factory.hpp:77] Creating layer pool3_pool3_0_split
I0419 05:28:26.104146 23811 net.cpp:84] Creating Layer pool3_pool3_0_split
I0419 05:28:26.104151 23811 net.cpp:406] pool3_pool3_0_split <- pool3
I0419 05:28:26.104157 23811 net.cpp:380] pool3_pool3_0_split -> pool3_pool3_0_split_0
I0419 05:28:26.104166 23811 net.cpp:380] pool3_pool3_0_split -> pool3_pool3_0_split_1
I0419 05:28:26.104239 23811 net.cpp:122] Setting up pool3_pool3_0_split
I0419 05:28:26.104249 23811 net.cpp:129] Top shape: 1 256 89 89 (2027776)
I0419 05:28:26.104255 23811 net.cpp:129] Top shape: 1 256 89 89 (2027776)
I0419 05:28:26.104259 23811 net.cpp:137] Memory required for data: 1070093580
I0419 05:28:26.104264 23811 layer_factory.hpp:77] Creating layer conv4_1
I0419 05:28:26.104275 23811 net.cpp:84] Creating Layer conv4_1
I0419 05:28:26.104280 23811 net.cpp:406] conv4_1 <- pool3_pool3_0_split_0
I0419 05:28:26.104287 23811 net.cpp:380] conv4_1 -> conv4_1
I0419 05:28:26.116252 23811 net.cpp:122] Setting up conv4_1
I0419 05:28:26.116297 23811 net.cpp:129] Top shape: 1 512 89 89 (4055552)
I0419 05:28:26.116305 23811 net.cpp:137] Memory required for data: 1086315788
I0419 05:28:26.116323 23811 layer_factory.hpp:77] Creating layer relu4_1
I0419 05:28:26.116346 23811 net.cpp:84] Creating Layer relu4_1
I0419 05:28:26.116353 23811 net.cpp:406] relu4_1 <- conv4_1
I0419 05:28:26.116372 23811 net.cpp:367] relu4_1 -> conv4_1 (in-place)
I0419 05:28:26.116780 23811 net.cpp:122] Setting up relu4_1
I0419 05:28:26.116794 23811 net.cpp:129] Top shape: 1 512 89 89 (4055552)
I0419 05:28:26.116808 23811 net.cpp:137] Memory required for data: 1102537996
I0419 05:28:26.116813 23811 layer_factory.hpp:77] Creating layer conv4_2
I0419 05:28:26.116827 23811 net.cpp:84] Creating Layer conv4_2
I0419 05:28:26.116833 23811 net.cpp:406] conv4_2 <- conv4_1
I0419 05:28:26.116848 23811 net.cpp:380] conv4_2 -> conv4_2
I0419 05:28:26.128221 23811 net.cpp:122] Setting up conv4_2
I0419 05:28:26.128249 23811 net.cpp:129] Top shape: 1 512 89 89 (4055552)
I0419 05:28:26.128264 23811 net.cpp:137] Memory required for data: 1118760204
I0419 05:28:26.128283 23811 layer_factory.hpp:77] Creating layer relu4_2
I0419 05:28:26.128293 23811 net.cpp:84] Creating Layer relu4_2
I0419 05:28:26.128299 23811 net.cpp:406] relu4_2 <- conv4_2
I0419 05:28:26.128307 23811 net.cpp:367] relu4_2 -> conv4_2 (in-place)
I0419 05:28:26.129426 23811 net.cpp:122] Setting up relu4_2
I0419 05:28:26.129442 23811 net.cpp:129] Top shape: 1 512 89 89 (4055552)
I0419 05:28:26.129457 23811 net.cpp:137] Memory required for data: 1134982412
I0419 05:28:26.129462 23811 layer_factory.hpp:77] Creating layer conv4_3
I0419 05:28:26.129474 23811 net.cpp:84] Creating Layer conv4_3
I0419 05:28:26.129479 23811 net.cpp:406] conv4_3 <- conv4_2
I0419 05:28:26.129488 23811 net.cpp:380] conv4_3 -> conv4_3
I0419 05:28:26.138563 23811 net.cpp:122] Setting up conv4_3
I0419 05:28:26.138584 23811 net.cpp:129] Top shape: 1 512 89 89 (4055552)
I0419 05:28:26.138600 23811 net.cpp:137] Memory required for data: 1151204620
I0419 05:28:26.138609 23811 layer_factory.hpp:77] Creating layer relu4_3
I0419 05:28:26.138618 23811 net.cpp:84] Creating Layer relu4_3
I0419 05:28:26.138623 23811 net.cpp:406] relu4_3 <- conv4_3
I0419 05:28:26.138631 23811 net.cpp:367] relu4_3 -> conv4_3 (in-place)
I0419 05:28:26.139587 23811 net.cpp:122] Setting up relu4_3
I0419 05:28:26.139605 23811 net.cpp:129] Top shape: 1 512 89 89 (4055552)
I0419 05:28:26.139621 23811 net.cpp:137] Memory required for data: 1167426828
I0419 05:28:26.139626 23811 layer_factory.hpp:77] Creating layer pool4
I0419 05:28:26.139634 23811 net.cpp:84] Creating Layer pool4
I0419 05:28:26.139639 23811 net.cpp:406] pool4 <- conv4_3
I0419 05:28:26.139647 23811 net.cpp:380] pool4 -> pool4
I0419 05:28:26.139734 23811 net.cpp:122] Setting up pool4
I0419 05:28:26.139744 23811 net.cpp:129] Top shape: 1 512 45 45 (1036800)
I0419 05:28:26.139746 23811 net.cpp:137] Memory required for data: 1171574028
I0419 05:28:26.139751 23811 layer_factory.hpp:77] Creating layer pool4_pool4_0_split
I0419 05:28:26.139758 23811 net.cpp:84] Creating Layer pool4_pool4_0_split
I0419 05:28:26.139763 23811 net.cpp:406] pool4_pool4_0_split <- pool4
I0419 05:28:26.139770 23811 net.cpp:380] pool4_pool4_0_split -> pool4_pool4_0_split_0
I0419 05:28:26.139776 23811 net.cpp:380] pool4_pool4_0_split -> pool4_pool4_0_split_1
I0419 05:28:26.139855 23811 net.cpp:122] Setting up pool4_pool4_0_split
I0419 05:28:26.139863 23811 net.cpp:129] Top shape: 1 512 45 45 (1036800)
I0419 05:28:26.139868 23811 net.cpp:129] Top shape: 1 512 45 45 (1036800)
I0419 05:28:26.139873 23811 net.cpp:137] Memory required for data: 1179868428
I0419 05:28:26.139876 23811 layer_factory.hpp:77] Creating layer conv5_1
I0419 05:28:26.139888 23811 net.cpp:84] Creating Layer conv5_1
I0419 05:28:26.139891 23811 net.cpp:406] conv5_1 <- pool4_pool4_0_split_0
I0419 05:28:26.139899 23811 net.cpp:380] conv5_1 -> conv5_1
I0419 05:28:26.149262 23811 net.cpp:122] Setting up conv5_1
I0419 05:28:26.149286 23811 net.cpp:129] Top shape: 1 512 45 45 (1036800)
I0419 05:28:26.149298 23811 net.cpp:137] Memory required for data: 1184015628
I0419 05:28:26.149308 23811 layer_factory.hpp:77] Creating layer relu5_1
I0419 05:28:26.149317 23811 net.cpp:84] Creating Layer relu5_1
I0419 05:28:26.149323 23811 net.cpp:406] relu5_1 <- conv5_1
I0419 05:28:26.149329 23811 net.cpp:367] relu5_1 -> conv5_1 (in-place)
I0419 05:28:26.149626 23811 net.cpp:122] Setting up relu5_1
I0419 05:28:26.149639 23811 net.cpp:129] Top shape: 1 512 45 45 (1036800)
I0419 05:28:26.149643 23811 net.cpp:137] Memory required for data: 1188162828
I0419 05:28:26.149648 23811 layer_factory.hpp:77] Creating layer conv5_2
I0419 05:28:26.149659 23811 net.cpp:84] Creating Layer conv5_2
I0419 05:28:26.149664 23811 net.cpp:406] conv5_2 <- conv5_1
I0419 05:28:26.149672 23811 net.cpp:380] conv5_2 -> conv5_2
I0419 05:28:26.159184 23811 net.cpp:122] Setting up conv5_2
I0419 05:28:26.159206 23811 net.cpp:129] Top shape: 1 512 45 45 (1036800)
I0419 05:28:26.159211 23811 net.cpp:137] Memory required for data: 1192310028
I0419 05:28:26.159220 23811 layer_factory.hpp:77] Creating layer relu5_2
I0419 05:28:26.159235 23811 net.cpp:84] Creating Layer relu5_2
I0419 05:28:26.159242 23811 net.cpp:406] relu5_2 <- conv5_2
I0419 05:28:26.159250 23811 net.cpp:367] relu5_2 -> conv5_2 (in-place)
I0419 05:28:26.159543 23811 net.cpp:122] Setting up relu5_2
I0419 05:28:26.159554 23811 net.cpp:129] Top shape: 1 512 45 45 (1036800)
I0419 05:28:26.159559 23811 net.cpp:137] Memory required for data: 1196457228
I0419 05:28:26.159564 23811 layer_factory.hpp:77] Creating layer conv5_3
I0419 05:28:26.159575 23811 net.cpp:84] Creating Layer conv5_3
I0419 05:28:26.159579 23811 net.cpp:406] conv5_3 <- conv5_2
I0419 05:28:26.159588 23811 net.cpp:380] conv5_3 -> conv5_3
I0419 05:28:26.176302 23811 net.cpp:122] Setting up conv5_3
I0419 05:28:26.176363 23811 net.cpp:129] Top shape: 1 512 45 45 (1036800)
I0419 05:28:26.176371 23811 net.cpp:137] Memory required for data: 1200604428
I0419 05:28:26.176389 23811 layer_factory.hpp:77] Creating layer relu5_3
I0419 05:28:26.176407 23811 net.cpp:84] Creating Layer relu5_3
I0419 05:28:26.176416 23811 net.cpp:406] relu5_3 <- conv5_3
I0419 05:28:26.176427 23811 net.cpp:367] relu5_3 -> conv5_3 (in-place)
I0419 05:28:26.176864 23811 net.cpp:122] Setting up relu5_3
I0419 05:28:26.176880 23811 net.cpp:129] Top shape: 1 512 45 45 (1036800)
I0419 05:28:26.176898 23811 net.cpp:137] Memory required for data: 1204751628
I0419 05:28:26.176903 23811 layer_factory.hpp:77] Creating layer pool5
I0419 05:28:26.176923 23811 net.cpp:84] Creating Layer pool5
I0419 05:28:26.176929 23811 net.cpp:406] pool5 <- conv5_3
I0419 05:28:26.176940 23811 net.cpp:380] pool5 -> pool5
I0419 05:28:26.177063 23811 net.cpp:122] Setting up pool5
I0419 05:28:26.177078 23811 net.cpp:129] Top shape: 1 512 23 23 (270848)
I0419 05:28:26.177083 23811 net.cpp:137] Memory required for data: 1205835020
I0419 05:28:26.177088 23811 layer_factory.hpp:77] Creating layer fc6
I0419 05:28:26.177105 23811 net.cpp:84] Creating Layer fc6
I0419 05:28:26.177112 23811 net.cpp:406] fc6 <- pool5
I0419 05:28:26.177129 23811 net.cpp:380] fc6 -> fc6
I0419 05:28:26.491153 23811 net.cpp:122] Setting up fc6
I0419 05:28:26.491204 23811 net.cpp:129] Top shape: 1 4096 17 17 (1183744)
I0419 05:28:26.491210 23811 net.cpp:137] Memory required for data: 1210569996
I0419 05:28:26.491225 23811 layer_factory.hpp:77] Creating layer relu6
I0419 05:28:26.491238 23811 net.cpp:84] Creating Layer relu6
I0419 05:28:26.491243 23811 net.cpp:406] relu6 <- fc6
I0419 05:28:26.491251 23811 net.cpp:367] relu6 -> fc6 (in-place)
I0419 05:28:26.491528 23811 net.cpp:122] Setting up relu6
I0419 05:28:26.491538 23811 net.cpp:129] Top shape: 1 4096 17 17 (1183744)
I0419 05:28:26.491541 23811 net.cpp:137] Memory required for data: 1215304972
I0419 05:28:26.491545 23811 layer_factory.hpp:77] Creating layer drop6
I0419 05:28:26.491554 23811 net.cpp:84] Creating Layer drop6
I0419 05:28:26.491557 23811 net.cpp:406] drop6 <- fc6
I0419 05:28:26.491564 23811 net.cpp:367] drop6 -> fc6 (in-place)
I0419 05:28:26.491608 23811 net.cpp:122] Setting up drop6
I0419 05:28:26.491632 23811 net.cpp:129] Top shape: 1 4096 17 17 (1183744)
I0419 05:28:26.491636 23811 net.cpp:137] Memory required for data: 1220039948
I0419 05:28:26.491639 23811 layer_factory.hpp:77] Creating layer fc7
I0419 05:28:26.491650 23811 net.cpp:84] Creating Layer fc7
I0419 05:28:26.491654 23811 net.cpp:406] fc7 <- fc6
I0419 05:28:26.491660 23811 net.cpp:380] fc7 -> fc7
I0419 05:28:26.541398 23811 net.cpp:122] Setting up fc7
I0419 05:28:26.541450 23811 net.cpp:129] Top shape: 1 4096 17 17 (1183744)
I0419 05:28:26.541455 23811 net.cpp:137] Memory required for data: 1224774924
I0419 05:28:26.541468 23811 layer_factory.hpp:77] Creating layer relu7
I0419 05:28:26.541481 23811 net.cpp:84] Creating Layer relu7
I0419 05:28:26.541487 23811 net.cpp:406] relu7 <- fc7
I0419 05:28:26.541496 23811 net.cpp:367] relu7 -> fc7 (in-place)
I0419 05:28:26.542371 23811 net.cpp:122] Setting up relu7
I0419 05:28:26.542384 23811 net.cpp:129] Top shape: 1 4096 17 17 (1183744)
I0419 05:28:26.542387 23811 net.cpp:137] Memory required for data: 1229509900
I0419 05:28:26.542392 23811 layer_factory.hpp:77] Creating layer drop7
I0419 05:28:26.542399 23811 net.cpp:84] Creating Layer drop7
I0419 05:28:26.542403 23811 net.cpp:406] drop7 <- fc7
I0419 05:28:26.542424 23811 net.cpp:367] drop7 -> fc7 (in-place)
I0419 05:28:26.542469 23811 net.cpp:122] Setting up drop7
I0419 05:28:26.542475 23811 net.cpp:129] Top shape: 1 4096 17 17 (1183744)
I0419 05:28:26.542479 23811 net.cpp:137] Memory required for data: 1234244876
I0419 05:28:26.542481 23811 layer_factory.hpp:77] Creating layer score_fr-new
I0419 05:28:26.542492 23811 net.cpp:84] Creating Layer score_fr-new
I0419 05:28:26.542495 23811 net.cpp:406] score_fr-new <- fc7
I0419 05:28:26.542501 23811 net.cpp:380] score_fr-new -> score_fr-new
I0419 05:28:26.543810 23811 net.cpp:122] Setting up score_fr-new
I0419 05:28:26.543836 23811 net.cpp:129] Top shape: 1 3 17 17 (867)
I0419 05:28:26.543839 23811 net.cpp:137] Memory required for data: 1234248344
I0419 05:28:26.543845 23811 layer_factory.hpp:77] Creating layer upscore2-new
I0419 05:28:26.543854 23811 net.cpp:84] Creating Layer upscore2-new
I0419 05:28:26.543859 23811 net.cpp:406] upscore2-new <- score_fr-new
I0419 05:28:26.543865 23811 net.cpp:380] upscore2-new -> upscore2-new
I0419 05:28:26.544286 23811 net.cpp:122] Setting up upscore2-new
I0419 05:28:26.544294 23811 net.cpp:129] Top shape: 1 3 36 36 (3888)
I0419 05:28:26.544313 23811 net.cpp:137] Memory required for data: 1234263896
I0419 05:28:26.544328 23811 layer_factory.hpp:77] Creating layer upscore2-new_upscore2-new_0_split
I0419 05:28:26.544337 23811 net.cpp:84] Creating Layer upscore2-new_upscore2-new_0_split
I0419 05:28:26.544340 23811 net.cpp:406] upscore2-new_upscore2-new_0_split <- upscore2-new
I0419 05:28:26.544347 23811 net.cpp:380] upscore2-new_upscore2-new_0_split -> upscore2-new_upscore2-new_0_split_0
I0419 05:28:26.544366 23811 net.cpp:380] upscore2-new_upscore2-new_0_split -> upscore2-new_upscore2-new_0_split_1
I0419 05:28:26.544471 23811 net.cpp:122] Setting up upscore2-new_upscore2-new_0_split
I0419 05:28:26.544481 23811 net.cpp:129] Top shape: 1 3 36 36 (3888)
I0419 05:28:26.544484 23811 net.cpp:129] Top shape: 1 3 36 36 (3888)
I0419 05:28:26.544487 23811 net.cpp:137] Memory required for data: 1234295000
I0419 05:28:26.544490 23811 layer_factory.hpp:77] Creating layer score_pool4-new
I0419 05:28:26.544500 23811 net.cpp:84] Creating Layer score_pool4-new
I0419 05:28:26.544504 23811 net.cpp:406] score_pool4-new <- pool4_pool4_0_split_1
I0419 05:28:26.544510 23811 net.cpp:380] score_pool4-new -> score_pool4-new
I0419 05:28:26.546568 23811 net.cpp:122] Setting up score_pool4-new
I0419 05:28:26.546600 23811 net.cpp:129] Top shape: 1 3 45 45 (6075)
I0419 05:28:26.546607 23811 net.cpp:137] Memory required for data: 1234319300
I0419 05:28:26.546617 23811 layer_factory.hpp:77] Creating layer score_pool4c
I0419 05:28:26.546627 23811 net.cpp:84] Creating Layer score_pool4c
I0419 05:28:26.546633 23811 net.cpp:406] score_pool4c <- score_pool4-new
I0419 05:28:26.546655 23811 net.cpp:406] score_pool4c <- upscore2-new_upscore2-new_0_split_0
I0419 05:28:26.546663 23811 net.cpp:380] score_pool4c -> score_pool4c
I0419 05:28:26.546722 23811 net.cpp:122] Setting up score_pool4c
I0419 05:28:26.546736 23811 net.cpp:129] Top shape: 1 3 36 36 (3888)
I0419 05:28:26.546741 23811 net.cpp:137] Memory required for data: 1234334852
I0419 05:28:26.546746 23811 layer_factory.hpp:77] Creating layer fuse_pool4
I0419 05:28:26.546756 23811 net.cpp:84] Creating Layer fuse_pool4
I0419 05:28:26.546762 23811 net.cpp:406] fuse_pool4 <- upscore2-new_upscore2-new_0_split_1
I0419 05:28:26.546769 23811 net.cpp:406] fuse_pool4 <- score_pool4c
I0419 05:28:26.546792 23811 net.cpp:380] fuse_pool4 -> fuse_pool4
I0419 05:28:26.546849 23811 net.cpp:122] Setting up fuse_pool4
I0419 05:28:26.546860 23811 net.cpp:129] Top shape: 1 3 36 36 (3888)
I0419 05:28:26.546865 23811 net.cpp:137] Memory required for data: 1234350404
I0419 05:28:26.546870 23811 layer_factory.hpp:77] Creating layer upscore_pool4-new
I0419 05:28:26.546896 23811 net.cpp:84] Creating Layer upscore_pool4-new
I0419 05:28:26.546902 23811 net.cpp:406] upscore_pool4-new <- fuse_pool4
I0419 05:28:26.546911 23811 net.cpp:380] upscore_pool4-new -> upscore_pool4-new
I0419 05:28:26.547449 23811 net.cpp:122] Setting up upscore_pool4-new
I0419 05:28:26.547475 23811 net.cpp:129] Top shape: 1 3 74 74 (16428)
I0419 05:28:26.547480 23811 net.cpp:137] Memory required for data: 1234416116
I0419 05:28:26.547487 23811 layer_factory.hpp:77] Creating layer upscore_pool4-new_upscore_pool4-new_0_split
I0419 05:28:26.547497 23811 net.cpp:84] Creating Layer upscore_pool4-new_upscore_pool4-new_0_split
I0419 05:28:26.547502 23811 net.cpp:406] upscore_pool4-new_upscore_pool4-new_0_split <- upscore_pool4-new
I0419 05:28:26.547510 23811 net.cpp:380] upscore_pool4-new_upscore_pool4-new_0_split -> upscore_pool4-new_upscore_pool4-new_0_split_0
I0419 05:28:26.547535 23811 net.cpp:380] upscore_pool4-new_upscore_pool4-new_0_split -> upscore_pool4-new_upscore_pool4-new_0_split_1
I0419 05:28:26.547641 23811 net.cpp:122] Setting up upscore_pool4-new_upscore_pool4-new_0_split
I0419 05:28:26.547653 23811 net.cpp:129] Top shape: 1 3 74 74 (16428)
I0419 05:28:26.547660 23811 net.cpp:129] Top shape: 1 3 74 74 (16428)
I0419 05:28:26.547667 23811 net.cpp:137] Memory required for data: 1234547540
I0419 05:28:26.547672 23811 layer_factory.hpp:77] Creating layer score_pool3-new
I0419 05:28:26.547685 23811 net.cpp:84] Creating Layer score_pool3-new
I0419 05:28:26.547691 23811 net.cpp:406] score_pool3-new <- pool3_pool3_0_split_1
I0419 05:28:26.547703 23811 net.cpp:380] score_pool3-new -> score_pool3-new
I0419 05:28:26.551172 23811 net.cpp:122] Setting up score_pool3-new
I0419 05:28:26.551201 23811 net.cpp:129] Top shape: 1 3 89 89 (23763)
I0419 05:28:26.551206 23811 net.cpp:137] Memory required for data: 1234642592
I0419 05:28:26.551213 23811 layer_factory.hpp:77] Creating layer score_pool3c
I0419 05:28:26.551221 23811 net.cpp:84] Creating Layer score_pool3c
I0419 05:28:26.551225 23811 net.cpp:406] score_pool3c <- score_pool3-new
I0419 05:28:26.551231 23811 net.cpp:406] score_pool3c <- upscore_pool4-new_upscore_pool4-new_0_split_0
I0419 05:28:26.551237 23811 net.cpp:380] score_pool3c -> score_pool3c
I0419 05:28:26.551295 23811 net.cpp:122] Setting up score_pool3c
I0419 05:28:26.551301 23811 net.cpp:129] Top shape: 1 3 74 74 (16428)
I0419 05:28:26.551304 23811 net.cpp:137] Memory required for data: 1234708304
I0419 05:28:26.551307 23811 layer_factory.hpp:77] Creating layer fuse_pool3
I0419 05:28:26.551314 23811 net.cpp:84] Creating Layer fuse_pool3
I0419 05:28:26.551318 23811 net.cpp:406] fuse_pool3 <- upscore_pool4-new_upscore_pool4-new_0_split_1
I0419 05:28:26.551323 23811 net.cpp:406] fuse_pool3 <- score_pool3c
I0419 05:28:26.551329 23811 net.cpp:380] fuse_pool3 -> fuse_pool3
I0419 05:28:26.551367 23811 net.cpp:122] Setting up fuse_pool3
I0419 05:28:26.551373 23811 net.cpp:129] Top shape: 1 3 74 74 (16428)
I0419 05:28:26.551376 23811 net.cpp:137] Memory required for data: 1234774016
I0419 05:28:26.551379 23811 layer_factory.hpp:77] Creating layer upscore8-new
I0419 05:28:26.551403 23811 net.cpp:84] Creating Layer upscore8-new
I0419 05:28:26.551407 23811 net.cpp:406] upscore8-new <- fuse_pool3
I0419 05:28:26.551412 23811 net.cpp:380] upscore8-new -> upscore8-new
I0419 05:28:26.551777 23811 net.cpp:122] Setting up upscore8-new
I0419 05:28:26.551786 23811 net.cpp:129] Top shape: 1 3 600 600 (1080000)
I0419 05:28:26.551805 23811 net.cpp:137] Memory required for data: 1239094016
I0419 05:28:26.551810 23811 layer_factory.hpp:77] Creating layer upscore8_cropped
I0419 05:28:26.551816 23811 net.cpp:84] Creating Layer upscore8_cropped
I0419 05:28:26.551822 23811 net.cpp:406] upscore8_cropped <- upscore8-new
I0419 05:28:26.551828 23811 net.cpp:406] upscore8_cropped <- data_data_0_split_1
I0419 05:28:26.551833 23811 net.cpp:380] upscore8_cropped -> upscore8_cropped
I0419 05:28:26.551870 23811 net.cpp:122] Setting up upscore8_cropped
I0419 05:28:26.551877 23811 net.cpp:129] Top shape: 1 3 512 512 (786432)
I0419 05:28:26.551879 23811 net.cpp:137] Memory required for data: 1242239744
I0419 05:28:26.551882 23811 layer_factory.hpp:77] Creating layer score
I0419 05:28:26.551895 23811 net.cpp:84] Creating Layer score
I0419 05:28:26.551899 23811 net.cpp:406] score <- upscore8_cropped
I0419 05:28:26.551905 23811 net.cpp:380] score -> score
I0419 05:28:26.562804 23811 net.cpp:122] Setting up score
I0419 05:28:26.562851 23811 net.cpp:129] Top shape: 1 3 512 512 (786432)
I0419 05:28:26.562860 23811 net.cpp:137] Memory required for data: 1245385472
I0419 05:28:26.562882 23811 layer_factory.hpp:77] Creating layer score_score_0_split
I0419 05:28:26.562902 23811 net.cpp:84] Creating Layer score_score_0_split
I0419 05:28:26.562912 23811 net.cpp:406] score_score_0_split <- score
I0419 05:28:26.562927 23811 net.cpp:380] score_score_0_split -> score_score_0_split_0
I0419 05:28:26.562947 23811 net.cpp:380] score_score_0_split -> score_score_0_split_1
I0419 05:28:26.563100 23811 net.cpp:122] Setting up score_score_0_split
I0419 05:28:26.563117 23811 net.cpp:129] Top shape: 1 3 512 512 (786432)
I0419 05:28:26.563125 23811 net.cpp:129] Top shape: 1 3 512 512 (786432)
I0419 05:28:26.563133 23811 net.cpp:137] Memory required for data: 1251676928
I0419 05:28:26.563139 23811 layer_factory.hpp:77] Creating layer prob
I0419 05:28:26.563153 23811 net.cpp:84] Creating Layer prob
I0419 05:28:26.563160 23811 net.cpp:406] prob <- score_score_0_split_0
I0419 05:28:26.563171 23811 net.cpp:380] prob -> prob
I0419 05:28:26.563758 23811 net.cpp:122] Setting up prob
I0419 05:28:26.563776 23811 net.cpp:129] Top shape: 1 3 512 512 (786432)
I0419 05:28:26.563784 23811 net.cpp:137] Memory required for data: 1254822656
I0419 05:28:26.563791 23811 layer_factory.hpp:77] Creating layer saliency
I0419 05:28:26.563824 23811 net.cpp:84] Creating Layer saliency
I0419 05:28:26.563832 23811 net.cpp:406] saliency <- prob
I0419 05:28:26.563846 23811 net.cpp:380] saliency -> saliency
I0419 05:28:26.569300 23811 net.cpp:122] Setting up saliency
I0419 05:28:26.569347 23811 net.cpp:129] Top shape: 1 3 512 512 (786432)
I0419 05:28:26.569356 23811 net.cpp:137] Memory required for data: 1257968384
I0419 05:28:26.569372 23811 layer_factory.hpp:77] Creating layer saliency_data
I0419 05:28:26.569388 23811 net.cpp:84] Creating Layer saliency_data
I0419 05:28:26.569397 23811 net.cpp:406] saliency_data <- data_data_0_split_2
I0419 05:28:26.569408 23811 net.cpp:406] saliency_data <- saliency
I0419 05:28:26.569428 23811 net.cpp:380] saliency_data -> saliency_data
I0419 05:28:26.569538 23811 net.cpp:122] Setting up saliency_data
I0419 05:28:26.569555 23811 net.cpp:129] Top shape: 1 3 512 512 (786432)
I0419 05:28:26.569561 23811 net.cpp:137] Memory required for data: 1261114112
I0419 05:28:26.569568 23811 layer_factory.hpp:77] Creating layer crop
I0419 05:28:26.569784 23811 net.cpp:84] Creating Layer crop
I0419 05:28:26.569800 23811 net.cpp:406] crop <- label_data_1_split_0
I0419 05:28:26.569811 23811 net.cpp:406] crop <- saliency_data
I0419 05:28:26.569821 23811 net.cpp:406] crop <- crop_margin
I0419 05:28:26.569830 23811 net.cpp:406] crop <- crop_prob
I0419 05:28:26.569839 23811 net.cpp:406] crop <- crop_sample_batch
I0419 05:28:26.569850 23811 net.cpp:380] crop -> data-R
I0419 05:28:26.569865 23811 net.cpp:380] crop -> crop_info
I0419 05:28:26.578480 23811 net.cpp:122] Setting up crop
I0419 05:28:26.578524 23811 net.cpp:129] Top shape: 1 3 512 512 (786432)
I0419 05:28:26.578531 23811 net.cpp:129] Top shape: 1 2 4 (8)
I0419 05:28:26.578536 23811 net.cpp:137] Memory required for data: 1264259872
I0419 05:28:26.578543 23811 layer_factory.hpp:77] Creating layer data-R_crop_0_split
I0419 05:28:26.578554 23811 net.cpp:84] Creating Layer data-R_crop_0_split
I0419 05:28:26.578562 23811 net.cpp:406] data-R_crop_0_split <- data-R
I0419 05:28:26.578572 23811 net.cpp:380] data-R_crop_0_split -> data-R_crop_0_split_0
I0419 05:28:26.578594 23811 net.cpp:380] data-R_crop_0_split -> data-R_crop_0_split_1
I0419 05:28:26.578680 23811 net.cpp:122] Setting up data-R_crop_0_split
I0419 05:28:26.578699 23811 net.cpp:129] Top shape: 1 3 512 512 (786432)
I0419 05:28:26.578704 23811 net.cpp:129] Top shape: 1 3 512 512 (786432)
I0419 05:28:26.578708 23811 net.cpp:137] Memory required for data: 1270551328
I0419 05:28:26.578712 23811 layer_factory.hpp:77] Creating layer conv1_1-R
I0419 05:28:26.578725 23811 net.cpp:84] Creating Layer conv1_1-R
I0419 05:28:26.578730 23811 net.cpp:406] conv1_1-R <- data-R_crop_0_split_0
I0419 05:28:26.578738 23811 net.cpp:380] conv1_1-R -> conv1_1-R
I0419 05:28:26.590574 23811 net.cpp:122] Setting up conv1_1-R
I0419 05:28:26.590622 23811 net.cpp:129] Top shape: 1 64 710 710 (32262400)
I0419 05:28:26.590628 23811 net.cpp:137] Memory required for data: 1399600928
I0419 05:28:26.590644 23811 layer_factory.hpp:77] Creating layer relu1_1-R
I0419 05:28:26.590658 23811 net.cpp:84] Creating Layer relu1_1-R
I0419 05:28:26.590667 23811 net.cpp:406] relu1_1-R <- conv1_1-R
I0419 05:28:26.590674 23811 net.cpp:367] relu1_1-R -> conv1_1-R (in-place)
I0419 05:28:26.591100 23811 net.cpp:122] Setting up relu1_1-R
I0419 05:28:26.591114 23811 net.cpp:129] Top shape: 1 64 710 710 (32262400)
I0419 05:28:26.591128 23811 net.cpp:137] Memory required for data: 1528650528
I0419 05:28:26.591133 23811 layer_factory.hpp:77] Creating layer conv1_2-R
I0419 05:28:26.591161 23811 net.cpp:84] Creating Layer conv1_2-R
I0419 05:28:26.591166 23811 net.cpp:406] conv1_2-R <- conv1_1-R
I0419 05:28:26.591176 23811 net.cpp:380] conv1_2-R -> conv1_2-R
I0419 05:28:26.596341 23811 net.cpp:122] Setting up conv1_2-R
I0419 05:28:26.596388 23811 net.cpp:129] Top shape: 1 64 710 710 (32262400)
I0419 05:28:26.596396 23811 net.cpp:137] Memory required for data: 1657700128
I0419 05:28:26.596413 23811 layer_factory.hpp:77] Creating layer relu1_2-R
I0419 05:28:26.596429 23811 net.cpp:84] Creating Layer relu1_2-R
I0419 05:28:26.596447 23811 net.cpp:406] relu1_2-R <- conv1_2-R
I0419 05:28:26.596459 23811 net.cpp:367] relu1_2-R -> conv1_2-R (in-place)
I0419 05:28:26.598124 23811 net.cpp:122] Setting up relu1_2-R
I0419 05:28:26.598151 23811 net.cpp:129] Top shape: 1 64 710 710 (32262400)
I0419 05:28:26.598179 23811 net.cpp:137] Memory required for data: 1786749728
I0419 05:28:26.598198 23811 layer_factory.hpp:77] Creating layer pool1-R
I0419 05:28:26.598214 23811 net.cpp:84] Creating Layer pool1-R
I0419 05:28:26.598222 23811 net.cpp:406] pool1-R <- conv1_2-R
I0419 05:28:26.598246 23811 net.cpp:380] pool1-R -> pool1-R
I0419 05:28:26.598414 23811 net.cpp:122] Setting up pool1-R
I0419 05:28:26.598430 23811 net.cpp:129] Top shape: 1 64 355 355 (8065600)
I0419 05:28:26.598438 23811 net.cpp:137] Memory required for data: 1819012128
I0419 05:28:26.598444 23811 layer_factory.hpp:77] Creating layer conv2_1-R
I0419 05:28:26.598462 23811 net.cpp:84] Creating Layer conv2_1-R
I0419 05:28:26.598470 23811 net.cpp:406] conv2_1-R <- pool1-R
I0419 05:28:26.598484 23811 net.cpp:380] conv2_1-R -> conv2_1-R
I0419 05:28:26.602324 23811 net.cpp:122] Setting up conv2_1-R
I0419 05:28:26.602372 23811 net.cpp:129] Top shape: 1 128 355 355 (16131200)
I0419 05:28:26.602382 23811 net.cpp:137] Memory required for data: 1883536928
I0419 05:28:26.602399 23811 layer_factory.hpp:77] Creating layer relu2_1-R
I0419 05:28:26.602416 23811 net.cpp:84] Creating Layer relu2_1-R
I0419 05:28:26.602435 23811 net.cpp:406] relu2_1-R <- conv2_1-R
I0419 05:28:26.602448 23811 net.cpp:367] relu2_1-R -> conv2_1-R (in-place)
I0419 05:28:26.602960 23811 net.cpp:122] Setting up relu2_1-R
I0419 05:28:26.602978 23811 net.cpp:129] Top shape: 1 128 355 355 (16131200)
I0419 05:28:26.602998 23811 net.cpp:137] Memory required for data: 1948061728
I0419 05:28:26.603004 23811 layer_factory.hpp:77] Creating layer conv2_2-R
I0419 05:28:26.603024 23811 net.cpp:84] Creating Layer conv2_2-R
I0419 05:28:26.603031 23811 net.cpp:406] conv2_2-R <- conv2_1-R
I0419 05:28:26.603056 23811 net.cpp:380] conv2_2-R -> conv2_2-R
I0419 05:28:26.613149 23811 net.cpp:122] Setting up conv2_2-R
I0419 05:28:26.613189 23811 net.cpp:129] Top shape: 1 128 355 355 (16131200)
I0419 05:28:26.613195 23811 net.cpp:137] Memory required for data: 2012586528
I0419 05:28:26.613207 23811 layer_factory.hpp:77] Creating layer relu2_2-R
I0419 05:28:26.613219 23811 net.cpp:84] Creating Layer relu2_2-R
I0419 05:28:26.613225 23811 net.cpp:406] relu2_2-R <- conv2_2-R
I0419 05:28:26.613234 23811 net.cpp:367] relu2_2-R -> conv2_2-R (in-place)
I0419 05:28:26.613564 23811 net.cpp:122] Setting up relu2_2-R
I0419 05:28:26.613577 23811 net.cpp:129] Top shape: 1 128 355 355 (16131200)
I0419 05:28:26.613582 23811 net.cpp:137] Memory required for data: 2077111328
I0419 05:28:26.613586 23811 layer_factory.hpp:77] Creating layer pool2-R
I0419 05:28:26.613596 23811 net.cpp:84] Creating Layer pool2-R
I0419 05:28:26.613601 23811 net.cpp:406] pool2-R <- conv2_2-R
I0419 05:28:26.613610 23811 net.cpp:380] pool2-R -> pool2-R
I0419 05:28:26.613703 23811 net.cpp:122] Setting up pool2-R
I0419 05:28:26.613711 23811 net.cpp:129] Top shape: 1 128 178 178 (4055552)
I0419 05:28:26.613715 23811 net.cpp:137] Memory required for data: 2093333536
I0419 05:28:26.613719 23811 layer_factory.hpp:77] Creating layer conv3_1-R
I0419 05:28:26.613734 23811 net.cpp:84] Creating Layer conv3_1-R
I0419 05:28:26.613737 23811 net.cpp:406] conv3_1-R <- pool2-R
I0419 05:28:26.613746 23811 net.cpp:380] conv3_1-R -> conv3_1-R
I0419 05:28:26.618408 23811 net.cpp:122] Setting up conv3_1-R
I0419 05:28:26.618428 23811 net.cpp:129] Top shape: 1 256 178 178 (8111104)
I0419 05:28:26.618444 23811 net.cpp:137] Memory required for data: 2125777952
I0419 05:28:26.618454 23811 layer_factory.hpp:77] Creating layer relu3_1-R
I0419 05:28:26.618463 23811 net.cpp:84] Creating Layer relu3_1-R
I0419 05:28:26.618468 23811 net.cpp:406] relu3_1-R <- conv3_1-R
I0419 05:28:26.618475 23811 net.cpp:367] relu3_1-R -> conv3_1-R (in-place)
I0419 05:28:26.618821 23811 net.cpp:122] Setting up relu3_1-R
I0419 05:28:26.618839 23811 net.cpp:129] Top shape: 1 256 178 178 (8111104)
I0419 05:28:26.618845 23811 net.cpp:137] Memory required for data: 2158222368
I0419 05:28:26.618851 23811 layer_factory.hpp:77] Creating layer conv3_2-R
I0419 05:28:26.618866 23811 net.cpp:84] Creating Layer conv3_2-R
I0419 05:28:26.618873 23811 net.cpp:406] conv3_2-R <- conv3_1-R
I0419 05:28:26.618885 23811 net.cpp:380] conv3_2-R -> conv3_2-R
I0419 05:28:26.625767 23811 net.cpp:122] Setting up conv3_2-R
I0419 05:28:26.625808 23811 net.cpp:129] Top shape: 1 256 178 178 (8111104)
I0419 05:28:26.625815 23811 net.cpp:137] Memory required for data: 2190666784
I0419 05:28:26.625829 23811 layer_factory.hpp:77] Creating layer relu3_2-R
I0419 05:28:26.625840 23811 net.cpp:84] Creating Layer relu3_2-R
I0419 05:28:26.625849 23811 net.cpp:406] relu3_2-R <- conv3_2-R
I0419 05:28:26.625859 23811 net.cpp:367] relu3_2-R -> conv3_2-R (in-place)
I0419 05:28:26.626340 23811 net.cpp:122] Setting up relu3_2-R
I0419 05:28:26.626359 23811 net.cpp:129] Top shape: 1 256 178 178 (8111104)
I0419 05:28:26.626365 23811 net.cpp:137] Memory required for data: 2223111200
I0419 05:28:26.626374 23811 layer_factory.hpp:77] Creating layer conv3_3-R
I0419 05:28:26.626399 23811 net.cpp:84] Creating Layer conv3_3-R
I0419 05:28:26.626406 23811 net.cpp:406] conv3_3-R <- conv3_2-R
I0419 05:28:26.626418 23811 net.cpp:380] conv3_3-R -> conv3_3-R
I0419 05:28:26.638442 23811 net.cpp:122] Setting up conv3_3-R
I0419 05:28:26.638474 23811 net.cpp:129] Top shape: 1 256 178 178 (8111104)
I0419 05:28:26.638484 23811 net.cpp:137] Memory required for data: 2255555616
I0419 05:28:26.638506 23811 layer_factory.hpp:77] Creating layer relu3_3-R
I0419 05:28:26.638520 23811 net.cpp:84] Creating Layer relu3_3-R
I0419 05:28:26.638530 23811 net.cpp:406] relu3_3-R <- conv3_3-R
I0419 05:28:26.638542 23811 net.cpp:367] relu3_3-R -> conv3_3-R (in-place)
I0419 05:28:26.639101 23811 net.cpp:122] Setting up relu3_3-R
I0419 05:28:26.639118 23811 net.cpp:129] Top shape: 1 256 178 178 (8111104)
I0419 05:28:26.639127 23811 net.cpp:137] Memory required for data: 2288000032
I0419 05:28:26.639133 23811 layer_factory.hpp:77] Creating layer pool3-R
I0419 05:28:26.639147 23811 net.cpp:84] Creating Layer pool3-R
I0419 05:28:26.639155 23811 net.cpp:406] pool3-R <- conv3_3-R
I0419 05:28:26.639168 23811 net.cpp:380] pool3-R -> pool3-R
I0419 05:28:26.639312 23811 net.cpp:122] Setting up pool3-R
I0419 05:28:26.639325 23811 net.cpp:129] Top shape: 1 256 89 89 (2027776)
I0419 05:28:26.639333 23811 net.cpp:137] Memory required for data: 2296111136
I0419 05:28:26.639344 23811 layer_factory.hpp:77] Creating layer pool3-R_pool3-R_0_split
I0419 05:28:26.639355 23811 net.cpp:84] Creating Layer pool3-R_pool3-R_0_split
I0419 05:28:26.639364 23811 net.cpp:406] pool3-R_pool3-R_0_split <- pool3-R
I0419 05:28:26.639374 23811 net.cpp:380] pool3-R_pool3-R_0_split -> pool3-R_pool3-R_0_split_0
I0419 05:28:26.639386 23811 net.cpp:380] pool3-R_pool3-R_0_split -> pool3-R_pool3-R_0_split_1
I0419 05:28:26.639506 23811 net.cpp:122] Setting up pool3-R_pool3-R_0_split
I0419 05:28:26.639519 23811 net.cpp:129] Top shape: 1 256 89 89 (2027776)
I0419 05:28:26.639528 23811 net.cpp:129] Top shape: 1 256 89 89 (2027776)
I0419 05:28:26.639540 23811 net.cpp:137] Memory required for data: 2312333344
I0419 05:28:26.639547 23811 layer_factory.hpp:77] Creating layer conv4_1-R
I0419 05:28:26.639564 23811 net.cpp:84] Creating Layer conv4_1-R
I0419 05:28:26.639570 23811 net.cpp:406] conv4_1-R <- pool3-R_pool3-R_0_split_0
I0419 05:28:26.639583 23811 net.cpp:380] conv4_1-R -> conv4_1-R
I0419 05:28:26.647022 23811 net.cpp:122] Setting up conv4_1-R
I0419 05:28:26.647040 23811 net.cpp:129] Top shape: 1 512 89 89 (4055552)
I0419 05:28:26.647045 23811 net.cpp:137] Memory required for data: 2328555552
I0419 05:28:26.647054 23811 layer_factory.hpp:77] Creating layer relu4_1-R
I0419 05:28:26.647063 23811 net.cpp:84] Creating Layer relu4_1-R
I0419 05:28:26.647068 23811 net.cpp:406] relu4_1-R <- conv4_1-R
I0419 05:28:26.647074 23811 net.cpp:367] relu4_1-R -> conv4_1-R (in-place)
I0419 05:28:26.649657 23811 net.cpp:122] Setting up relu4_1-R
I0419 05:28:26.649691 23811 net.cpp:129] Top shape: 1 512 89 89 (4055552)
I0419 05:28:26.649698 23811 net.cpp:137] Memory required for data: 2344777760
I0419 05:28:26.649703 23811 layer_factory.hpp:77] Creating layer conv4_2-R
I0419 05:28:26.649715 23811 net.cpp:84] Creating Layer conv4_2-R
I0419 05:28:26.649722 23811 net.cpp:406] conv4_2-R <- conv4_1-R
I0419 05:28:26.649731 23811 net.cpp:380] conv4_2-R -> conv4_2-R
I0419 05:28:26.660414 23811 net.cpp:122] Setting up conv4_2-R
I0419 05:28:26.660439 23811 net.cpp:129] Top shape: 1 512 89 89 (4055552)
I0419 05:28:26.660451 23811 net.cpp:137] Memory required for data: 2360999968
I0419 05:28:26.660461 23811 layer_factory.hpp:77] Creating layer relu4_2-R
I0419 05:28:26.660470 23811 net.cpp:84] Creating Layer relu4_2-R
I0419 05:28:26.660475 23811 net.cpp:406] relu4_2-R <- conv4_2-R
I0419 05:28:26.660482 23811 net.cpp:367] relu4_2-R -> conv4_2-R (in-place)
I0419 05:28:26.660782 23811 net.cpp:122] Setting up relu4_2-R
I0419 05:28:26.660796 23811 net.cpp:129] Top shape: 1 512 89 89 (4055552)
I0419 05:28:26.660801 23811 net.cpp:137] Memory required for data: 2377222176
I0419 05:28:26.660805 23811 layer_factory.hpp:77] Creating layer conv4_3-R
I0419 05:28:26.660817 23811 net.cpp:84] Creating Layer conv4_3-R
I0419 05:28:26.660822 23811 net.cpp:406] conv4_3-R <- conv4_2-R
I0419 05:28:26.660830 23811 net.cpp:380] conv4_3-R -> conv4_3-R
I0419 05:28:26.670251 23811 net.cpp:122] Setting up conv4_3-R
I0419 05:28:26.670285 23811 net.cpp:129] Top shape: 1 512 89 89 (4055552)
I0419 05:28:26.670290 23811 net.cpp:137] Memory required for data: 2393444384
I0419 05:28:26.670300 23811 layer_factory.hpp:77] Creating layer relu4_3-R
I0419 05:28:26.670310 23811 net.cpp:84] Creating Layer relu4_3-R
I0419 05:28:26.670315 23811 net.cpp:406] relu4_3-R <- conv4_3-R
I0419 05:28:26.670322 23811 net.cpp:367] relu4_3-R -> conv4_3-R (in-place)
I0419 05:28:26.670622 23811 net.cpp:122] Setting up relu4_3-R
I0419 05:28:26.670635 23811 net.cpp:129] Top shape: 1 512 89 89 (4055552)
I0419 05:28:26.670639 23811 net.cpp:137] Memory required for data: 2409666592
I0419 05:28:26.670644 23811 layer_factory.hpp:77] Creating layer pool4-R
I0419 05:28:26.670653 23811 net.cpp:84] Creating Layer pool4-R
I0419 05:28:26.670658 23811 net.cpp:406] pool4-R <- conv4_3-R
I0419 05:28:26.670667 23811 net.cpp:380] pool4-R -> pool4-R
I0419 05:28:26.670758 23811 net.cpp:122] Setting up pool4-R
I0419 05:28:26.670768 23811 net.cpp:129] Top shape: 1 512 45 45 (1036800)
I0419 05:28:26.670773 23811 net.cpp:137] Memory required for data: 2413813792
I0419 05:28:26.670776 23811 layer_factory.hpp:77] Creating layer pool4-R_pool4-R_0_split
I0419 05:28:26.670784 23811 net.cpp:84] Creating Layer pool4-R_pool4-R_0_split
I0419 05:28:26.670789 23811 net.cpp:406] pool4-R_pool4-R_0_split <- pool4-R
I0419 05:28:26.670795 23811 net.cpp:380] pool4-R_pool4-R_0_split -> pool4-R_pool4-R_0_split_0
I0419 05:28:26.670804 23811 net.cpp:380] pool4-R_pool4-R_0_split -> pool4-R_pool4-R_0_split_1
I0419 05:28:26.670876 23811 net.cpp:122] Setting up pool4-R_pool4-R_0_split
I0419 05:28:26.670886 23811 net.cpp:129] Top shape: 1 512 45 45 (1036800)
I0419 05:28:26.670891 23811 net.cpp:129] Top shape: 1 512 45 45 (1036800)
I0419 05:28:26.670894 23811 net.cpp:137] Memory required for data: 2422108192
I0419 05:28:26.670898 23811 layer_factory.hpp:77] Creating layer conv5_1-R
I0419 05:28:26.670910 23811 net.cpp:84] Creating Layer conv5_1-R
I0419 05:28:26.670914 23811 net.cpp:406] conv5_1-R <- pool4-R_pool4-R_0_split_0
I0419 05:28:26.670923 23811 net.cpp:380] conv5_1-R -> conv5_1-R
I0419 05:28:26.680533 23811 net.cpp:122] Setting up conv5_1-R
I0419 05:28:26.680559 23811 net.cpp:129] Top shape: 1 512 45 45 (1036800)
I0419 05:28:26.680574 23811 net.cpp:137] Memory required for data: 2426255392
I0419 05:28:26.680603 23811 layer_factory.hpp:77] Creating layer relu5_1-R
I0419 05:28:26.680613 23811 net.cpp:84] Creating Layer relu5_1-R
I0419 05:28:26.680619 23811 net.cpp:406] relu5_1-R <- conv5_1-R
I0419 05:28:26.680626 23811 net.cpp:367] relu5_1-R -> conv5_1-R (in-place)
I0419 05:28:26.680925 23811 net.cpp:122] Setting up relu5_1-R
I0419 05:28:26.680939 23811 net.cpp:129] Top shape: 1 512 45 45 (1036800)
I0419 05:28:26.680943 23811 net.cpp:137] Memory required for data: 2430402592
I0419 05:28:26.680948 23811 layer_factory.hpp:77] Creating layer conv5_2-R
I0419 05:28:26.680960 23811 net.cpp:84] Creating Layer conv5_2-R
I0419 05:28:26.680965 23811 net.cpp:406] conv5_2-R <- conv5_1-R
I0419 05:28:26.680974 23811 net.cpp:380] conv5_2-R -> conv5_2-R
I0419 05:28:26.691123 23811 net.cpp:122] Setting up conv5_2-R
I0419 05:28:26.691169 23811 net.cpp:129] Top shape: 1 512 45 45 (1036800)
I0419 05:28:26.691174 23811 net.cpp:137] Memory required for data: 2434549792
I0419 05:28:26.691187 23811 layer_factory.hpp:77] Creating layer relu5_2-R
I0419 05:28:26.691200 23811 net.cpp:84] Creating Layer relu5_2-R
I0419 05:28:26.691207 23811 net.cpp:406] relu5_2-R <- conv5_2-R
I0419 05:28:26.691215 23811 net.cpp:367] relu5_2-R -> conv5_2-R (in-place)
I0419 05:28:26.691510 23811 net.cpp:122] Setting up relu5_2-R
I0419 05:28:26.691522 23811 net.cpp:129] Top shape: 1 512 45 45 (1036800)
I0419 05:28:26.691527 23811 net.cpp:137] Memory required for data: 2438696992
I0419 05:28:26.691531 23811 layer_factory.hpp:77] Creating layer conv5_3-R
I0419 05:28:26.691545 23811 net.cpp:84] Creating Layer conv5_3-R
I0419 05:28:26.691548 23811 net.cpp:406] conv5_3-R <- conv5_2-R
I0419 05:28:26.691557 23811 net.cpp:380] conv5_3-R -> conv5_3-R
I0419 05:28:26.700918 23811 net.cpp:122] Setting up conv5_3-R
I0419 05:28:26.700942 23811 net.cpp:129] Top shape: 1 512 45 45 (1036800)
I0419 05:28:26.700955 23811 net.cpp:137] Memory required for data: 2442844192
I0419 05:28:26.700964 23811 layer_factory.hpp:77] Creating layer relu5_3-R
I0419 05:28:26.700973 23811 net.cpp:84] Creating Layer relu5_3-R
I0419 05:28:26.700978 23811 net.cpp:406] relu5_3-R <- conv5_3-R
I0419 05:28:26.700985 23811 net.cpp:367] relu5_3-R -> conv5_3-R (in-place)
I0419 05:28:26.701278 23811 net.cpp:122] Setting up relu5_3-R
I0419 05:28:26.701292 23811 net.cpp:129] Top shape: 1 512 45 45 (1036800)
I0419 05:28:26.701295 23811 net.cpp:137] Memory required for data: 2446991392
I0419 05:28:26.701299 23811 layer_factory.hpp:77] Creating layer pool5-R
I0419 05:28:26.701309 23811 net.cpp:84] Creating Layer pool5-R
I0419 05:28:26.701314 23811 net.cpp:406] pool5-R <- conv5_3-R
I0419 05:28:26.701321 23811 net.cpp:380] pool5-R -> pool5-R
I0419 05:28:26.701411 23811 net.cpp:122] Setting up pool5-R
I0419 05:28:26.701422 23811 net.cpp:129] Top shape: 1 512 23 23 (270848)
I0419 05:28:26.701426 23811 net.cpp:137] Memory required for data: 2448074784
I0419 05:28:26.701431 23811 layer_factory.hpp:77] Creating layer fc6-R
I0419 05:28:26.701442 23811 net.cpp:84] Creating Layer fc6-R
I0419 05:28:26.701445 23811 net.cpp:406] fc6-R <- pool5-R
I0419 05:28:26.701453 23811 net.cpp:380] fc6-R -> fc6-R
I0419 05:28:27.092571 23811 net.cpp:122] Setting up fc6-R
I0419 05:28:27.092623 23811 net.cpp:129] Top shape: 1 4096 17 17 (1183744)
I0419 05:28:27.092630 23811 net.cpp:137] Memory required for data: 2452809760
I0419 05:28:27.092643 23811 layer_factory.hpp:77] Creating layer relu6-R
I0419 05:28:27.092660 23811 net.cpp:84] Creating Layer relu6-R
I0419 05:28:27.092669 23811 net.cpp:406] relu6-R <- fc6-R
I0419 05:28:27.092679 23811 net.cpp:367] relu6-R -> fc6-R (in-place)
I0419 05:28:27.093857 23811 net.cpp:122] Setting up relu6-R
I0419 05:28:27.093873 23811 net.cpp:129] Top shape: 1 4096 17 17 (1183744)
I0419 05:28:27.093886 23811 net.cpp:137] Memory required for data: 2457544736
I0419 05:28:27.093890 23811 layer_factory.hpp:77] Creating layer drop6-R
I0419 05:28:27.093901 23811 net.cpp:84] Creating Layer drop6-R
I0419 05:28:27.093907 23811 net.cpp:406] drop6-R <- fc6-R
I0419 05:28:27.093915 23811 net.cpp:367] drop6-R -> fc6-R (in-place)
I0419 05:28:27.093984 23811 net.cpp:122] Setting up drop6-R
I0419 05:28:27.093996 23811 net.cpp:129] Top shape: 1 4096 17 17 (1183744)
I0419 05:28:27.093999 23811 net.cpp:137] Memory required for data: 2462279712
I0419 05:28:27.094003 23811 layer_factory.hpp:77] Creating layer fc7-R
I0419 05:28:27.094015 23811 net.cpp:84] Creating Layer fc7-R
I0419 05:28:27.094020 23811 net.cpp:406] fc7-R <- fc6-R
I0419 05:28:27.094028 23811 net.cpp:380] fc7-R -> fc7-R
I0419 05:28:27.156136 23811 net.cpp:122] Setting up fc7-R
I0419 05:28:27.156188 23811 net.cpp:129] Top shape: 1 4096 17 17 (1183744)
I0419 05:28:27.156194 23811 net.cpp:137] Memory required for data: 2467014688
I0419 05:28:27.156210 23811 layer_factory.hpp:77] Creating layer relu7-R
I0419 05:28:27.156226 23811 net.cpp:84] Creating Layer relu7-R
I0419 05:28:27.156234 23811 net.cpp:406] relu7-R <- fc7-R
I0419 05:28:27.156242 23811 net.cpp:367] relu7-R -> fc7-R (in-place)
I0419 05:28:27.156584 23811 net.cpp:122] Setting up relu7-R
I0419 05:28:27.156595 23811 net.cpp:129] Top shape: 1 4096 17 17 (1183744)
I0419 05:28:27.156599 23811 net.cpp:137] Memory required for data: 2471749664
I0419 05:28:27.156603 23811 layer_factory.hpp:77] Creating layer drop7-R
I0419 05:28:27.156615 23811 net.cpp:84] Creating Layer drop7-R
I0419 05:28:27.156618 23811 net.cpp:406] drop7-R <- fc7-R
I0419 05:28:27.156626 23811 net.cpp:367] drop7-R -> fc7-R (in-place)
I0419 05:28:27.156682 23811 net.cpp:122] Setting up drop7-R
I0419 05:28:27.156692 23811 net.cpp:129] Top shape: 1 4096 17 17 (1183744)
I0419 05:28:27.156697 23811 net.cpp:137] Memory required for data: 2476484640
I0419 05:28:27.156700 23811 layer_factory.hpp:77] Creating layer score_fr-new-R
I0419 05:28:27.156713 23811 net.cpp:84] Creating Layer score_fr-new-R
I0419 05:28:27.156718 23811 net.cpp:406] score_fr-new-R <- fc7-R
I0419 05:28:27.156726 23811 net.cpp:380] score_fr-new-R -> score_fr-new-R
I0419 05:28:27.159147 23811 net.cpp:122] Setting up score_fr-new-R
I0419 05:28:27.159166 23811 net.cpp:129] Top shape: 1 3 17 17 (867)
I0419 05:28:27.159181 23811 net.cpp:137] Memory required for data: 2476488108
I0419 05:28:27.159189 23811 layer_factory.hpp:77] Creating layer upscore2-new-R
I0419 05:28:27.159201 23811 net.cpp:84] Creating Layer upscore2-new-R
I0419 05:28:27.159206 23811 net.cpp:406] upscore2-new-R <- score_fr-new-R
I0419 05:28:27.159216 23811 net.cpp:380] upscore2-new-R -> upscore2-new-R
I0419 05:28:27.159699 23811 net.cpp:122] Setting up upscore2-new-R
I0419 05:28:27.159709 23811 net.cpp:129] Top shape: 1 3 36 36 (3888)
I0419 05:28:27.159713 23811 net.cpp:137] Memory required for data: 2476503660
I0419 05:28:27.159725 23811 layer_factory.hpp:77] Creating layer upscore2-new-R_upscore2-new-R_0_split
I0419 05:28:27.159734 23811 net.cpp:84] Creating Layer upscore2-new-R_upscore2-new-R_0_split
I0419 05:28:27.159749 23811 net.cpp:406] upscore2-new-R_upscore2-new-R_0_split <- upscore2-new-R
I0419 05:28:27.159755 23811 net.cpp:380] upscore2-new-R_upscore2-new-R_0_split -> upscore2-new-R_upscore2-new-R_0_split_0
I0419 05:28:27.159765 23811 net.cpp:380] upscore2-new-R_upscore2-new-R_0_split -> upscore2-new-R_upscore2-new-R_0_split_1
I0419 05:28:27.159845 23811 net.cpp:122] Setting up upscore2-new-R_upscore2-new-R_0_split
I0419 05:28:27.159852 23811 net.cpp:129] Top shape: 1 3 36 36 (3888)
I0419 05:28:27.159857 23811 net.cpp:129] Top shape: 1 3 36 36 (3888)
I0419 05:28:27.159862 23811 net.cpp:137] Memory required for data: 2476534764
I0419 05:28:27.159865 23811 layer_factory.hpp:77] Creating layer score_pool4-new-R
I0419 05:28:27.159876 23811 net.cpp:84] Creating Layer score_pool4-new-R
I0419 05:28:27.159881 23811 net.cpp:406] score_pool4-new-R <- pool4-R_pool4-R_0_split_1
I0419 05:28:27.159889 23811 net.cpp:380] score_pool4-new-R -> score_pool4-new-R
I0419 05:28:27.162081 23811 net.cpp:122] Setting up score_pool4-new-R
I0419 05:28:27.162098 23811 net.cpp:129] Top shape: 1 3 45 45 (6075)
I0419 05:28:27.162103 23811 net.cpp:137] Memory required for data: 2476559064
I0419 05:28:27.162114 23811 layer_factory.hpp:77] Creating layer score_pool4c-R
I0419 05:28:27.162124 23811 net.cpp:84] Creating Layer score_pool4c-R
I0419 05:28:27.162129 23811 net.cpp:406] score_pool4c-R <- score_pool4-new-R
I0419 05:28:27.162137 23811 net.cpp:406] score_pool4c-R <- upscore2-new-R_upscore2-new-R_0_split_0
I0419 05:28:27.162144 23811 net.cpp:380] score_pool4c-R -> score_pool4c-R
I0419 05:28:27.162225 23811 net.cpp:122] Setting up score_pool4c-R
I0419 05:28:27.162235 23811 net.cpp:129] Top shape: 1 3 36 36 (3888)
I0419 05:28:27.162237 23811 net.cpp:137] Memory required for data: 2476574616
I0419 05:28:27.162241 23811 layer_factory.hpp:77] Creating layer fuse_pool4-R
I0419 05:28:27.162252 23811 net.cpp:84] Creating Layer fuse_pool4-R
I0419 05:28:27.162257 23811 net.cpp:406] fuse_pool4-R <- upscore2-new-R_upscore2-new-R_0_split_1
I0419 05:28:27.162263 23811 net.cpp:406] fuse_pool4-R <- score_pool4c-R
I0419 05:28:27.162271 23811 net.cpp:380] fuse_pool4-R -> fuse_pool4-R
I0419 05:28:27.162320 23811 net.cpp:122] Setting up fuse_pool4-R
I0419 05:28:27.162333 23811 net.cpp:129] Top shape: 1 3 36 36 (3888)
I0419 05:28:27.162338 23811 net.cpp:137] Memory required for data: 2476590168
I0419 05:28:27.162341 23811 layer_factory.hpp:77] Creating layer upscore_pool4-new-R
I0419 05:28:27.162350 23811 net.cpp:84] Creating Layer upscore_pool4-new-R
I0419 05:28:27.162355 23811 net.cpp:406] upscore_pool4-new-R <- fuse_pool4-R
I0419 05:28:27.162364 23811 net.cpp:380] upscore_pool4-new-R -> upscore_pool4-new-R
I0419 05:28:27.162818 23811 net.cpp:122] Setting up upscore_pool4-new-R
I0419 05:28:27.162827 23811 net.cpp:129] Top shape: 1 3 74 74 (16428)
I0419 05:28:27.162832 23811 net.cpp:137] Memory required for data: 2476655880
I0419 05:28:27.162847 23811 layer_factory.hpp:77] Creating layer upscore_pool4-new-R_upscore_pool4-new-R_0_split
I0419 05:28:27.162854 23811 net.cpp:84] Creating Layer upscore_pool4-new-R_upscore_pool4-new-R_0_split
I0419 05:28:27.162858 23811 net.cpp:406] upscore_pool4-new-R_upscore_pool4-new-R_0_split <- upscore_pool4-new-R
I0419 05:28:27.162865 23811 net.cpp:380] upscore_pool4-new-R_upscore_pool4-new-R_0_split -> upscore_pool4-new-R_upscore_pool4-new-R_0_split_0
I0419 05:28:27.162873 23811 net.cpp:380] upscore_pool4-new-R_upscore_pool4-new-R_0_split -> upscore_pool4-new-R_upscore_pool4-new-R_0_split_1
I0419 05:28:27.162947 23811 net.cpp:122] Setting up upscore_pool4-new-R_upscore_pool4-new-R_0_split
I0419 05:28:27.162977 23811 net.cpp:129] Top shape: 1 3 74 74 (16428)
I0419 05:28:27.162982 23811 net.cpp:129] Top shape: 1 3 74 74 (16428)
I0419 05:28:27.162986 23811 net.cpp:137] Memory required for data: 2476787304
I0419 05:28:27.162991 23811 layer_factory.hpp:77] Creating layer score_pool3-new-R
I0419 05:28:27.163000 23811 net.cpp:84] Creating Layer score_pool3-new-R
I0419 05:28:27.163005 23811 net.cpp:406] score_pool3-new-R <- pool3-R_pool3-R_0_split_1
I0419 05:28:27.163014 23811 net.cpp:380] score_pool3-new-R -> score_pool3-new-R
I0419 05:28:27.165241 23811 net.cpp:122] Setting up score_pool3-new-R
I0419 05:28:27.165275 23811 net.cpp:129] Top shape: 1 3 89 89 (23763)
I0419 05:28:27.165280 23811 net.cpp:137] Memory required for data: 2476882356
I0419 05:28:27.165289 23811 layer_factory.hpp:77] Creating layer score_pool3c-R
I0419 05:28:27.165298 23811 net.cpp:84] Creating Layer score_pool3c-R
I0419 05:28:27.165303 23811 net.cpp:406] score_pool3c-R <- score_pool3-new-R
I0419 05:28:27.165309 23811 net.cpp:406] score_pool3c-R <- upscore_pool4-new-R_upscore_pool4-new-R_0_split_0
I0419 05:28:27.165318 23811 net.cpp:380] score_pool3c-R -> score_pool3c-R
I0419 05:28:27.165374 23811 net.cpp:122] Setting up score_pool3c-R
I0419 05:28:27.165396 23811 net.cpp:129] Top shape: 1 3 74 74 (16428)
I0419 05:28:27.165400 23811 net.cpp:137] Memory required for data: 2476948068
I0419 05:28:27.165405 23811 layer_factory.hpp:77] Creating layer fuse_pool3-R
I0419 05:28:27.165412 23811 net.cpp:84] Creating Layer fuse_pool3-R
I0419 05:28:27.165417 23811 net.cpp:406] fuse_pool3-R <- upscore_pool4-new-R_upscore_pool4-new-R_0_split_1
I0419 05:28:27.165423 23811 net.cpp:406] fuse_pool3-R <- score_pool3c-R
I0419 05:28:27.165428 23811 net.cpp:380] fuse_pool3-R -> fuse_pool3-R
I0419 05:28:27.165486 23811 net.cpp:122] Setting up fuse_pool3-R
I0419 05:28:27.165495 23811 net.cpp:129] Top shape: 1 3 74 74 (16428)
I0419 05:28:27.165499 23811 net.cpp:137] Memory required for data: 2477013780
I0419 05:28:27.165503 23811 layer_factory.hpp:77] Creating layer upscore8-new-R
I0419 05:28:27.165511 23811 net.cpp:84] Creating Layer upscore8-new-R
I0419 05:28:27.165516 23811 net.cpp:406] upscore8-new-R <- fuse_pool3-R
I0419 05:28:27.165524 23811 net.cpp:380] upscore8-new-R -> upscore8-new-R
I0419 05:28:27.165987 23811 net.cpp:122] Setting up upscore8-new-R
I0419 05:28:27.165997 23811 net.cpp:129] Top shape: 1 3 600 600 (1080000)
I0419 05:28:27.166000 23811 net.cpp:137] Memory required for data: 2481333780
I0419 05:28:27.166010 23811 layer_factory.hpp:77] Creating layer upscore8_cropped-R
I0419 05:28:27.166018 23811 net.cpp:84] Creating Layer upscore8_cropped-R
I0419 05:28:27.166023 23811 net.cpp:406] upscore8_cropped-R <- upscore8-new-R
I0419 05:28:27.166030 23811 net.cpp:406] upscore8_cropped-R <- data-R_crop_0_split_1
I0419 05:28:27.166038 23811 net.cpp:380] upscore8_cropped-R -> upscore8_cropped-R
I0419 05:28:27.166085 23811 net.cpp:122] Setting up upscore8_cropped-R
I0419 05:28:27.166091 23811 net.cpp:129] Top shape: 1 3 512 512 (786432)
I0419 05:28:27.166095 23811 net.cpp:137] Memory required for data: 2484479508
I0419 05:28:27.166100 23811 layer_factory.hpp:77] Creating layer score-R
I0419 05:28:27.166112 23811 net.cpp:84] Creating Layer score-R
I0419 05:28:27.166117 23811 net.cpp:406] score-R <- upscore8_cropped-R
I0419 05:28:27.166126 23811 net.cpp:380] score-R -> score-R
I0419 05:28:27.172406 23811 net.cpp:122] Setting up score-R
I0419 05:28:27.172426 23811 net.cpp:129] Top shape: 1 3 512 512 (786432)
I0419 05:28:27.172431 23811 net.cpp:137] Memory required for data: 2487625236
I0419 05:28:27.172441 23811 layer_factory.hpp:77] Creating layer score_uncropped-R
I0419 05:28:27.172549 23811 net.cpp:84] Creating Layer score_uncropped-R
I0419 05:28:27.172559 23811 net.cpp:406] score_uncropped-R <- crop_info
I0419 05:28:27.172565 23811 net.cpp:406] score_uncropped-R <- score-R
I0419 05:28:27.172570 23811 net.cpp:406] score_uncropped-R <- data_data_0_split_3
I0419 05:28:27.172577 23811 net.cpp:380] score_uncropped-R -> score_uncropped-R
I0419 05:28:27.175150 23811 net.cpp:122] Setting up score_uncropped-R
I0419 05:28:27.175169 23811 net.cpp:129] Top shape: 1 3 512 512 (786432)
I0419 05:28:27.175174 23811 net.cpp:137] Memory required for data: 2490770964
I0419 05:28:27.175180 23811 layer_factory.hpp:77] Creating layer loss1
I0419 05:28:27.175194 23811 net.cpp:84] Creating Layer loss1
I0419 05:28:27.175199 23811 net.cpp:406] loss1 <- score_score_0_split_1
I0419 05:28:27.175205 23811 net.cpp:406] loss1 <- label_data_1_split_1
I0419 05:28:27.175213 23811 net.cpp:380] loss1 -> loss1
…
