…
snapshot_prefix: "/media/Med_2T2/data2/models/snapshots/joint:1e-5x10,1e-5x10,20/FD0:ZI3_1_20180418_201415,ZJ3_1_20180419_085537/train"
test_initialization: false
average_loss: 20
stepvalue: 45000
stepvalue: 50000
stepvalue: 55000
iter_size: 1
I0419 12:35:05.109050 32100 solver.cpp:77] Creating training net from train_net file: /media/Med_2T2/data2/prototxts/training_J3x10.prototxt
I0419 12:35:05.111877 32100 net.cpp:51] Initializing net from parameters: 
state {
  phase: TRAIN
}
layer {
  name: "data"
  type: "Python"
  top: "data"
  top: "label"
  top: "crop_margin"
  top: "crop_prob"
  top: "crop_sample_batch"
  python_param {
    module: "Data"
    layer: "DataLayer"
  }
}
layer {
  name: "conv1_1"
  type: "Convolution"
  bottom: "data"
  top: "conv1_1"
  param {
    lr_mult: 1
    decay_mult: 1
  }
  param {
    lr_mult: 2
    decay_mult: 0
  }
  convolution_param {
    num_output: 64
    pad: 100
    kernel_size: 3
    stride: 1
  }
}
layer {
  name: "relu1_1"
  type: "ReLU"
  bottom: "conv1_1"
  top: "conv1_1"
}
layer {
  name: "conv1_2"
  type: "Convolution"
  bottom: "conv1_1"
  top: "conv1_2"
  param {
    lr_mult: 1
    decay_mult: 1
  }
  param {
    lr_mult: 2
    decay_mult: 0
  }
  convolution_param {
    num_output: 64
    pad: 1
    kernel_size: 3
    stride: 1
  }
}
layer {
  name: "relu1_2"
  type: "ReLU"
  bottom: "conv1_2"
  top: "conv1_2"
}
layer {
  name: "pool1"
  type: "Pooling"
  bottom: "conv1_2"
  top: "pool1"
  pooling_param {
    pool: MAX
    kernel_size: 2
    stride: 2
  }
}
layer {
  name: "conv2_1"
  type: "Convolution"
  bottom: "pool1"
  top: "conv2_1"
  param {
    lr_mult: 1
    decay_mult: 1
  }
  param {
    lr_mult: 2
    decay_mult: 0
  }
  convolution_param {
    num_output: 128
    pad: 1
    kernel_size: 3
    stride: 1
  }
}
layer {
  name: "relu2_1"
  type: "ReLU"
  bottom: "conv2_1"
  top: "conv2_1"
}
layer {
  name: "conv2_2"
  type: "Convolution"
  bottom: "conv2_1"
  top: "conv2_2"
  param {
    lr_mult: 1
    decay_mult: 1
  }
  param {
    lr_mult: 2
    decay_mult: 0
  }
  convolution_param {
    num_output: 128
    pad: 1
    kernel_size: 3
    stride: 1
  }
}
layer {
  name: "relu2_2"
  type: "ReLU"
  bottom: "conv2_2"
  top: "conv2_2"
}
layer {
  name: "pool2"
  type: "Pooling"
  bottom: "conv2_2"
  top: "pool2"
  pooling_param {
    pool: MAX
    kernel_size: 2
    stride: 2
  }
}
layer {
  name: "conv3_1"
  type: "Convolution"
  bottom: "pool2"
  top: "conv3_1"
  param {
    lr_mult: 1
    decay_mult: 1
  }
  param {
    lr_mult: 2
    decay_mult: 0
  }
  convolution_param {
    num_output: 256
    pad: 1
    kernel_size: 3
    stride: 1
  }
}
layer {
  name: "relu3_1"
  type: "ReLU"
  bottom: "conv3_1"
  top: "conv3_1"
}
layer {
  name: "conv3_2"
  type: "Convolution"
  bottom: "conv3_1"
  top: "conv3_2"
  param {
    lr_mult: 1
    decay_mult: 1
  }
  param {
    lr_mult: 2
    decay_mult: 0
  }
  convolution_param {
    num_output: 256
    pad: 1
    kernel_size: 3
    stride: 1
  }
}
layer {
  name: "relu3_2"
  type: "ReLU"
  bottom: "conv3_2"
  top: "conv3_2"
}
layer {
  name: "conv3_3"
  type: "Convolution"
  bottom: "conv3_2"
  top: "conv3_3"
  param {
    lr_mult: 1
    decay_mult: 1
  }
  param {
    lr_mult: 2
    decay_mult: 0
  }
  convolution_param {
    num_output: 256
    pad: 1
    kernel_size: 3
    stride: 1
  }
}
layer {
  name: "relu3_3"
  type: "ReLU"
  bottom: "conv3_3"
  top: "conv3_3"
}
layer {
  name: "pool3"
  type: "Pooling"
  bottom: "conv3_3"
  top: "pool3"
  pooling_param {
    pool: MAX
    kernel_size: 2
    stride: 2
  }
}
layer {
  name: "conv4_1"
  type: "Convolution"
  bottom: "pool3"
  top: "conv4_1"
  param {
    lr_mult: 1
    decay_mult: 1
  }
  param {
    lr_mult: 2
    decay_mult: 0
  }
  convolution_param {
    num_output: 512
    pad: 1
    kernel_size: 3
    stride: 1
  }
}
layer {
  name: "relu4_1"
  type: "ReLU"
  bottom: "conv4_1"
  top: "conv4_1"
}
layer {
  name: "conv4_2"
  type: "Convolution"
  bottom: "conv4_1"
  top: "conv4_2"
  param {
    lr_mult: 1
    decay_mult: 1
  }
  param {
    lr_mult: 2
    decay_mult: 0
  }
  convolution_param {
    num_output: 512
    pad: 1
    kernel_size: 3
    stride: 1
  }
}
layer {
  name: "relu4_2"
  type: "ReLU"
  bottom: "conv4_2"
  top: "conv4_2"
}
layer {
  name: "conv4_3"
  type: "Convolution"
  bottom: "conv4_2"
  top: "conv4_3"
  param {
    lr_mult: 1
    decay_mult: 1
  }
  param {
    lr_mult: 2
    decay_mult: 0
  }
  convolution_param {
    num_output: 512
    pad: 1
    kernel_size: 3
    stride: 1
  }
}
layer {
  name: "relu4_3"
  type: "ReLU"
  bottom: "conv4_3"
  top: "conv4_3"
}
layer {
  name: "pool4"
  type: "Pooling"
  bottom: "conv4_3"
  top: "pool4"
  pooling_param {
    pool: MAX
    kernel_size: 2
    stride: 2
  }
}
layer {
  name: "conv5_1"
  type: "Convolution"
  bottom: "pool4"
  top: "conv5_1"
  param {
    lr_mult: 1
    decay_mult: 1
  }
  param {
    lr_mult: 2
    decay_mult: 0
  }
  convolution_param {
    num_output: 512
    pad: 1
    kernel_size: 3
    stride: 1
  }
}
layer {
  name: "relu5_1"
  type: "ReLU"
  bottom: "conv5_1"
  top: "conv5_1"
}
layer {
  name: "conv5_2"
  type: "Convolution"
  bottom: "conv5_1"
  top: "conv5_2"
  param {
    lr_mult: 1
    decay_mult: 1
  }
  param {
    lr_mult: 2
    decay_mult: 0
  }
  convolution_param {
    num_output: 512
    pad: 1
    kernel_size: 3
    stride: 1
  }
}
layer {
  name: "relu5_2"
  type: "ReLU"
  bottom: "conv5_2"
  top: "conv5_2"
}
layer {
  name: "conv5_3"
  type: "Convolution"
  bottom: "conv5_2"
  top: "conv5_3"
  param {
    lr_mult: 1
    decay_mult: 1
  }
  param {
    lr_mult: 2
    decay_mult: 0
  }
  convolution_param {
    num_output: 512
    pad: 1
    kernel_size: 3
    stride: 1
  }
}
layer {
  name: "relu5_3"
  type: "ReLU"
  bottom: "conv5_3"
  top: "conv5_3"
}
layer {
  name: "pool5"
  type: "Pooling"
  bottom: "conv5_3"
  top: "pool5"
  pooling_param {
    pool: MAX
    kernel_size: 2
    stride: 2
  }
}
layer {
  name: "fc6"
  type: "Convolution"
  bottom: "pool5"
  top: "fc6"
  param {
    lr_mult: 1
    decay_mult: 1
  }
  param {
    lr_mult: 2
    decay_mult: 0
  }
  convolution_param {
    num_output: 4096
    pad: 0
    kernel_size: 7
    stride: 1
  }
}
layer {
  name: "relu6"
  type: "ReLU"
  bottom: "fc6"
  top: "fc6"
}
layer {
  name: "drop6"
  type: "Dropout"
  bottom: "fc6"
  top: "fc6"
  dropout_param {
    dropout_ratio: 0.5
  }
}
layer {
  name: "fc7"
  type: "Convolution"
  bottom: "fc6"
  top: "fc7"
  param {
    lr_mult: 1
    decay_mult: 1
  }
  param {
    lr_mult: 2
    decay_mult: 0
  }
  convolution_param {
    num_output: 4096
    pad: 0
    kernel_size: 1
    stride: 1
  }
}
layer {
  name: "relu7"
  type: "ReLU"
  bottom: "fc7"
  top: "fc7"
}
layer {
  name: "drop7"
  type: "Dropout"
  bottom: "fc7"
  top: "fc7"
  dropout_param {
    dropout_ratio: 0.5
  }
}
layer {
  name: "score_fr-new"
  type: "Convolution"
  bottom: "fc7"
  top: "score_fr-new"
  param {
    lr_mult: 1
    decay_mult: 1
  }
  param {
    lr_mult: 2
    decay_mult: 0
  }
  convolution_param {
    num_output: 3
    kernel_size: 1
  }
}
layer {
  name: "upscore2-new"
  type: "Deconvolution"
  bottom: "score_fr-new"
  top: "upscore2-new"
  param {
    lr_mult: 0
  }
  convolution_param {
    num_output: 3
    bias_term: false
    kernel_size: 4
    stride: 2
  }
}
layer {
  name: "score_pool4-new"
  type: "Convolution"
  bottom: "pool4"
  top: "score_pool4-new"
  param {
    lr_mult: 1
    decay_mult: 1
  }
  param {
    lr_mult: 2
    decay_mult: 0
  }
  convolution_param {
    num_output: 3
    pad: 0
    kernel_size: 1
  }
}
layer {
  name: "score_pool4c"
  type: "Crop"
  bottom: "score_pool4-new"
  bottom: "upscore2-new"
  top: "score_pool4c"
  crop_param {
    axis: 2
    offset: 5
  }
}
layer {
  name: "fuse_pool4"
  type: "Eltwise"
  bottom: "upscore2-new"
  bottom: "score_pool4c"
  top: "fuse_pool4"
  eltwise_param {
    operation: SUM
  }
}
layer {
  name: "upscore_pool4-new"
  type: "Deconvolution"
  bottom: "fuse_pool4"
  top: "upscore_pool4-new"
  param {
    lr_mult: 0
  }
  convolution_param {
    num_output: 3
    bias_term: false
    kernel_size: 4
    stride: 2
  }
}
layer {
  name: "score_pool3-new"
  type: "Convolution"
  bottom: "pool3"
  top: "score_pool3-new"
  param {
    lr_mult: 1
    decay_mult: 1
  }
  param {
    lr_mult: 2
    decay_mult: 0
  }
  convolution_param {
    num_output: 3
    pad: 0
    kernel_size: 1
  }
}
layer {
  name: "score_pool3c"
  type: "Crop"
  bottom: "score_pool3-new"
  bottom: "upscore_pool4-new"
  top: "score_pool3c"
  crop_param {
    axis: 2
    offset: 9
  }
}
layer {
  name: "fuse_pool3"
  type: "Eltwise"
  bottom: "upscore_pool4-new"
  bottom: "score_pool3c"
  top: "fuse_pool3"
  eltwise_param {
    operation: SUM
  }
}
layer {
  name: "upscore8-new"
  type: "Deconvolution"
  bottom: "fuse_pool3"
  top: "upscore8-new"
  param {
    lr_mult: 0
  }
  convolution_param {
    num_output: 3
    bias_term: false
    kernel_size: 16
    stride: 8
  }
}
layer {
  name: "upscore8_cropped"
  type: "Crop"
  bottom: "upscore8-new"
  bottom: "data"
  top: "upscore8_cropped"
  crop_param {
    axis: 2
    offset: 31
  }
}
layer {
  name: "score"
  type: "Convolution"
  bottom: "upscore8_cropped"
  top: "score"
  param {
    lr_mult: 1
    decay_mult: 1
  }
  param {
    lr_mult: 2
    decay_mult: 0
  }
  convolution_param {
    num_output: 3
    pad: 1
    kernel_size: 3
    stride: 1
  }
}
layer {
  name: "prob"
  type: "Sigmoid"
  bottom: "score"
  top: "prob"
}
layer {
  name: "saliency"
  type: "Convolution"
  bottom: "prob"
  top: "saliency"
  param {
    lr_mult: 10
    decay_mult: 1
  }
  param {
    lr_mult: 20
    decay_mult: 0
  }
  convolution_param {
    num_output: 3
    pad: 2
    kernel_size: 5
    stride: 1
  }
}
layer {
  name: "saliency_data"
  type: "Eltwise"
  bottom: "data"
  bottom: "saliency"
  top: "saliency_data"
  eltwise_param {
    operation: PROD
  }
}
layer {
  name: "crop"
  type: "Python"
  bottom: "prob"
  bottom: "saliency_data"
  bottom: "crop_margin"
  bottom: "crop_prob"
  bottom: "crop_sample_batch"
  bottom: "label"
  top: "data-R"
  top: "crop_info"
  python_param {
    module: "Crop"
    layer: "CropLayer"
    param_str: "{\"TEST\": 0}"
  }
}
layer {
  name: "conv1_1-R"
  type: "Convolution"
  bottom: "data-R"
  top: "conv1_1-R"
  param {
    lr_mult: 10
    decay_mult: 1
  }
  param {
    lr_mult: 20
    decay_mult: 0
  }
  convolution_param {
    num_output: 64
    pad: 100
    kernel_size: 3
    stride: 1
  }
}
layer {
  name: "relu1_1-R"
  type: "ReLU"
  bottom: "conv1_1-R"
  top: "conv1_1-R"
}
layer {
  name: "conv1_2-R"
  type: "Convolution"
  bottom: "conv1_1-R"
  top: "conv1_2-R"
  param {
    lr_mult: 10
    decay_mult: 1
  }
  param {
    lr_mult: 20
    decay_mult: 0
  }
  convolution_param {
    num_output: 64
    pad: 1
    kernel_size: 3
    stride: 1
  }
}
layer {
  name: "relu1_2-R"
  type: "ReLU"
  bottom: "conv1_2-R"
  top: "conv1_2-R"
}
layer {
  name: "pool1-R"
  type: "Pooling"
  bottom: "conv1_2-R"
  top: "pool1-R"
  pooling_param {
    pool: MAX
    kernel_size: 2
    stride: 2
  }
}
layer {
  name: "conv2_1-R"
  type: "Convolution"
  bottom: "pool1-R"
  top: "conv2_1-R"
  param {
    lr_mult: 10
    decay_mult: 1
  }
  param {
    lr_mult: 20
    decay_mult: 0
  }
  convolution_param {
    num_output: 128
    pad: 1
    kernel_size: 3
    stride: 1
  }
}
layer {
  name: "relu2_1-R"
  type: "ReLU"
  bottom: "conv2_1-R"
  top: "conv2_1-R"
}
layer {
  name: "conv2_2-R"
  type: "Convolution"
  bottom: "conv2_1-R"
  top: "conv2_2-R"
  param {
    lr_mult: 10
    decay_mult: 1
  }
  param {
    lr_mult: 20
    decay_mult: 0
  }
  convolution_param {
    num_output: 128
    pad: 1
    kernel_size: 3
    stride: 1
  }
}
layer {
  name: "relu2_2-R"
  type: "ReLU"
  bottom: "conv2_2-R"
  top: "conv2_2-R"
}
layer {
  name: "pool2-R"
  type: "Pooling"
  bottom: "conv2_2-R"
  top: "pool2-R"
  pooling_param {
    pool: MAX
    kernel_size: 2
    stride: 2
  }
}
layer {
  name: "conv3_1-R"
  type: "Convolution"
  bottom: "pool2-R"
  top: "conv3_1-R"
  param {
    lr_mult: 10
    decay_mult: 1
  }
  param {
    lr_mult: 20
    decay_mult: 0
  }
  convolution_param {
    num_output: 256
    pad: 1
    kernel_size: 3
    stride: 1
  }
}
layer {
  name: "relu3_1-R"
  type: "ReLU"
  bottom: "conv3_1-R"
  top: "conv3_1-R"
}
layer {
  name: "conv3_2-R"
  type: "Convolution"
  bottom: "conv3_1-R"
  top: "conv3_2-R"
  param {
    lr_mult: 10
    decay_mult: 1
  }
  param {
    lr_mult: 20
    decay_mult: 0
  }
  convolution_param {
    num_output: 256
    pad: 1
    kernel_size: 3
    stride: 1
  }
}
layer {
  name: "relu3_2-R"
  type: "ReLU"
  bottom: "conv3_2-R"
  top: "conv3_2-R"
}
layer {
  name: "conv3_3-R"
  type: "Convolution"
  bottom: "conv3_2-R"
  top: "conv3_3-R"
  param {
    lr_mult: 10
    decay_mult: 1
  }
  param {
    lr_mult: 20
    decay_mult: 0
  }
  convolution_param {
    num_output: 256
    pad: 1
    kernel_size: 3
    stride: 1
  }
}
layer {
  name: "relu3_3-R"
  type: "ReLU"
  bottom: "conv3_3-R"
  top: "conv3_3-R"
}
layer {
  name: "pool3-R"
  type: "Pooling"
  bottom: "conv3_3-R"
  top: "pool3-R"
  pooling_param {
    pool: MAX
    kernel_size: 2
    stride: 2
  }
}
layer {
  name: "conv4_1-R"
  type: "Convolution"
  bottom: "pool3-R"
  top: "conv4_1-R"
  param {
    lr_mult: 10
    decay_mult: 1
  }
  param {
    lr_mult: 20
    decay_mult: 0
  }
  convolution_param {
    num_output: 512
    pad: 1
    kernel_size: 3
    stride: 1
  }
}
layer {
  name: "relu4_1-R"
  type: "ReLU"
  bottom: "conv4_1-R"
  top: "conv4_1-R"
}
layer {
  name: "conv4_2-R"
  type: "Convolution"
  bottom: "conv4_1-R"
  top: "conv4_2-R"
  param {
    lr_mult: 10
    decay_mult: 1
  }
  param {
    lr_mult: 20
    decay_mult: 0
  }
  convolution_param {
    num_output: 512
    pad: 1
    kernel_size: 3
    stride: 1
  }
}
layer {
  name: "relu4_2-R"
  type: "ReLU"
  bottom: "conv4_2-R"
  top: "conv4_2-R"
}
layer {
  name: "conv4_3-R"
  type: "Convolution"
  bottom: "conv4_2-R"
  top: "conv4_3-R"
  param {
    lr_mult: 10
    decay_mult: 1
  }
  param {
    lr_mult: 20
    decay_mult: 0
  }
  convolution_param {
    num_output: 512
    pad: 1
    kernel_size: 3
    stride: 1
  }
}
layer {
  name: "relu4_3-R"
  type: "ReLU"
  bottom: "conv4_3-R"
  top: "conv4_3-R"
}
layer {
  name: "pool4-R"
  type: "Pooling"
  bottom: "conv4_3-R"
  top: "pool4-R"
  pooling_param {
    pool: MAX
    kernel_size: 2
    stride: 2
  }
}
layer {
  name: "conv5_1-R"
  type: "Convolution"
  bottom: "pool4-R"
  top: "conv5_1-R"
  param {
    lr_mult: 10
    decay_mult: 1
  }
  param {
    lr_mult: 20
    decay_mult: 0
  }
  convolution_param {
    num_output: 512
    pad: 1
    kernel_size: 3
    stride: 1
  }
}
layer {
  name: "relu5_1-R"
  type: "ReLU"
  bottom: "conv5_1-R"
  top: "conv5_1-R"
}
layer {
  name: "conv5_2-R"
  type: "Convolution"
  bottom: "conv5_1-R"
  top: "conv5_2-R"
  param {
    lr_mult: 10
    decay_mult: 1
  }
  param {
    lr_mult: 20
    decay_mult: 0
  }
  convolution_param {
    num_output: 512
    pad: 1
    kernel_size: 3
    stride: 1
  }
}
layer {
  name: "relu5_2-R"
  type: "ReLU"
  bottom: "conv5_2-R"
  top: "conv5_2-R"
}
layer {
  name: "conv5_3-R"
  type: "Convolution"
  bottom: "conv5_2-R"
  top: "conv5_3-R"
  param {
    lr_mult: 10
    decay_mult: 1
  }
  param {
    lr_mult: 20
    decay_mult: 0
  }
  convolution_param {
    num_output: 512
    pad: 1
    kernel_size: 3
    stride: 1
  }
}
layer {
  name: "relu5_3-R"
  type: "ReLU"
  bottom: "conv5_3-R"
  top: "conv5_3-R"
}
layer {
  name: "pool5-R"
  type: "Pooling"
  bottom: "conv5_3-R"
  top: "pool5-R"
  pooling_param {
    pool: MAX
    kernel_size: 2
    stride: 2
  }
}
layer {
  name: "fc6-R"
  type: "Convolution"
  bottom: "pool5-R"
  top: "fc6-R"
  param {
    lr_mult: 10
    decay_mult: 1
  }
  param {
    lr_mult: 20
    decay_mult: 0
  }
  convolution_param {
    num_output: 4096
    pad: 0
    kernel_size: 7
    stride: 1
  }
}
layer {
  name: "relu6-R"
  type: "ReLU"
  bottom: "fc6-R"
  top: "fc6-R"
}
layer {
  name: "drop6-R"
  type: "Dropout"
  bottom: "fc6-R"
  top: "fc6-R"
  dropout_param {
    dropout_ratio: 0.5
  }
}
layer {
  name: "fc7-R"
  type: "Convolution"
  bottom: "fc6-R"
  top: "fc7-R"
  param {
    lr_mult: 10
    decay_mult: 1
  }
  param {
    lr_mult: 20
    decay_mult: 0
  }
  convolution_param {
    num_output: 4096
    pad: 0
    kernel_size: 1
    stride: 1
  }
}
layer {
  name: "relu7-R"
  type: "ReLU"
  bottom: "fc7-R"
  top: "fc7-R"
}
layer {
  name: "drop7-R"
  type: "Dropout"
  bottom: "fc7-R"
  top: "fc7-R"
  dropout_param {
    dropout_ratio: 0.5
  }
}
layer {
  name: "score_fr-new-R"
  type: "Convolution"
  bottom: "fc7-R"
  top: "score_fr-new-R"
  param {
    lr_mult: 10
    decay_mult: 1
  }
  param {
    lr_mult: 20
    decay_mult: 0
  }
  convolution_param {
    num_output: 3
    kernel_size: 1
  }
}
layer {
  name: "upscore2-new-R"
  type: "Deconvolution"
  bottom: "score_fr-new-R"
  top: "upscore2-new-R"
  param {
    lr_mult: 0
  }
  convolution_param {
    num_output: 3
    bias_term: false
    kernel_size: 4
    stride: 2
  }
}
layer {
  name: "score_pool4-new-R"
  type: "Convolution"
  bottom: "pool4-R"
  top: "score_pool4-new-R"
  param {
    lr_mult: 10
    decay_mult: 1
  }
  param {
    lr_mult: 20
    decay_mult: 0
  }
  convolution_param {
    num_output: 3
    pad: 0
    kernel_size: 1
  }
}
layer {
  name: "score_pool4c-R"
  type: "Crop"
  bottom: "score_pool4-new-R"
  bottom: "upscore2-new-R"
  top: "score_pool4c-R"
  crop_param {
    axis: 2
    offset: 5
  }
}
layer {
  name: "fuse_pool4-R"
  type: "Eltwise"
  bottom: "upscore2-new-R"
  bottom: "score_pool4c-R"
  top: "fuse_pool4-R"
  eltwise_param {
    operation: SUM
  }
}
layer {
  name: "upscore_pool4-new-R"
  type: "Deconvolution"
  bottom: "fuse_pool4-R"
  top: "upscore_pool4-new-R"
  param {
    lr_mult: 0
  }
  convolution_param {
    num_output: 3
    bias_term: false
    kernel_size: 4
    stride: 2
  }
}
layer {
  name: "score_pool3-new-R"
  type: "Convolution"
  bottom: "pool3-R"
  top: "score_pool3-new-R"
  param {
    lr_mult: 10
    decay_mult: 1
  }
  param {
    lr_mult: 20
    decay_mult: 0
  }
  convolution_param {
    num_output: 3
    pad: 0
    kernel_size: 1
  }
}
layer {
  name: "score_pool3c-R"
  type: "Crop"
  bottom: "score_pool3-new-R"
  bottom: "upscore_pool4-new-R"
  top: "score_pool3c-R"
  crop_param {
    axis: 2
    offset: 9
  }
}
layer {
  name: "fuse_pool3-R"
  type: "Eltwise"
  bottom: "upscore_pool4-new-R"
  bottom: "score_pool3c-R"
  top: "fuse_pool3-R"
  eltwise_param {
    operation: SUM
  }
}
layer {
  name: "upscore8-new-R"
  type: "Deconvolution"
  bottom: "fuse_pool3-R"
  top: "upscore8-new-R"
  param {
    lr_mult: 0
  }
  convolution_param {
    num_output: 3
    bias_term: false
    kernel_size: 16
    stride: 8
  }
}
layer {
  name: "upscore8_cropped-R"
  type: "Crop"
  bottom: "upscore8-new-R"
  bottom: "data-R"
  top: "upscore8_cropped-R"
  crop_param {
    axis: 2
    offset: 31
  }
}
layer {
  name: "score-R"
  type: "Convolution"
  bottom: "upscore8_cropped-R"
  top: "score-R"
  param {
    lr_mult: 10
    decay_mult: 1
  }
  param {
    lr_mult: 20
    decay_mult: 0
  }
  convolution_param {
    num_output: 3
    pad: 1
    kernel_size: 3
    stride: 1
  }
}
layer {
  name: "score_uncropped-R"
  type: "Python"
  bottom: "crop_info"
  bottom: "score-R"
  bottom: "data"
  top: "score_uncropped-R"
  python_param {
    module: "Uncrop"
    layer: "UncropLayer"
  }
}
layer {
  name: "loss1"
  type: "DiceLoss"
  bottom: "score"
  bottom: "label"
  top: "loss1"
  loss_weight: 0.333333
}
layer {
  name: "loss2"
  type: "DiceLoss"
  bottom: "score_uncropped-R"
  bottom: "label"
  top: "loss2"
  loss_weight: 0.666667
}
I0419 12:35:05.112466 32100 layer_factory.hpp:77] Creating layer data
I0419 12:35:05.113338 32100 net.cpp:84] Creating Layer data
I0419 12:35:05.113355 32100 net.cpp:380] data -> data
I0419 12:35:05.113376 32100 net.cpp:380] data -> label
I0419 12:35:05.113384 32100 net.cpp:380] data -> crop_margin
I0419 12:35:05.113391 32100 net.cpp:380] data -> crop_prob
I0419 12:35:05.113399 32100 net.cpp:380] data -> crop_sample_batch
I0419 12:35:05.212750 32100 net.cpp:122] Setting up data
I0419 12:35:05.212800 32100 net.cpp:129] Top shape: 1 3 512 512 (786432)
I0419 12:35:05.212807 32100 net.cpp:129] Top shape: 1 3 512 512 (786432)
I0419 12:35:05.212812 32100 net.cpp:129] Top shape: 1 (1)
I0419 12:35:05.212817 32100 net.cpp:129] Top shape: 1 (1)
I0419 12:35:05.212822 32100 net.cpp:129] Top shape: 1 (1)
I0419 12:35:05.212826 32100 net.cpp:137] Memory required for data: 6291468
I0419 12:35:05.212836 32100 layer_factory.hpp:77] Creating layer data_data_0_split
I0419 12:35:05.212855 32100 net.cpp:84] Creating Layer data_data_0_split
I0419 12:35:05.212862 32100 net.cpp:406] data_data_0_split <- data
I0419 12:35:05.212874 32100 net.cpp:380] data_data_0_split -> data_data_0_split_0
I0419 12:35:05.212888 32100 net.cpp:380] data_data_0_split -> data_data_0_split_1
I0419 12:35:05.212895 32100 net.cpp:380] data_data_0_split -> data_data_0_split_2
I0419 12:35:05.212903 32100 net.cpp:380] data_data_0_split -> data_data_0_split_3
I0419 12:35:05.212962 32100 net.cpp:122] Setting up data_data_0_split
I0419 12:35:05.212970 32100 net.cpp:129] Top shape: 1 3 512 512 (786432)
I0419 12:35:05.212975 32100 net.cpp:129] Top shape: 1 3 512 512 (786432)
I0419 12:35:05.212980 32100 net.cpp:129] Top shape: 1 3 512 512 (786432)
I0419 12:35:05.212985 32100 net.cpp:129] Top shape: 1 3 512 512 (786432)
I0419 12:35:05.212988 32100 net.cpp:137] Memory required for data: 18874380
I0419 12:35:05.212992 32100 layer_factory.hpp:77] Creating layer label_data_1_split
I0419 12:35:05.212999 32100 net.cpp:84] Creating Layer label_data_1_split
I0419 12:35:05.213004 32100 net.cpp:406] label_data_1_split <- label
I0419 12:35:05.213011 32100 net.cpp:380] label_data_1_split -> label_data_1_split_0
I0419 12:35:05.213017 32100 net.cpp:380] label_data_1_split -> label_data_1_split_1
I0419 12:35:05.213024 32100 net.cpp:380] label_data_1_split -> label_data_1_split_2
I0419 12:35:05.213063 32100 net.cpp:122] Setting up label_data_1_split
I0419 12:35:05.213068 32100 net.cpp:129] Top shape: 1 3 512 512 (786432)
I0419 12:35:05.213074 32100 net.cpp:129] Top shape: 1 3 512 512 (786432)
I0419 12:35:05.213078 32100 net.cpp:129] Top shape: 1 3 512 512 (786432)
I0419 12:35:05.213083 32100 net.cpp:137] Memory required for data: 28311564
I0419 12:35:05.213086 32100 layer_factory.hpp:77] Creating layer conv1_1
I0419 12:35:05.213104 32100 net.cpp:84] Creating Layer conv1_1
I0419 12:35:05.213109 32100 net.cpp:406] conv1_1 <- data_data_0_split_0
I0419 12:35:05.213114 32100 net.cpp:380] conv1_1 -> conv1_1
I0419 12:35:05.572626 32100 net.cpp:122] Setting up conv1_1
I0419 12:35:05.572680 32100 net.cpp:129] Top shape: 1 64 710 710 (32262400)
I0419 12:35:05.572685 32100 net.cpp:137] Memory required for data: 157361164
I0419 12:35:05.572710 32100 layer_factory.hpp:77] Creating layer relu1_1
I0419 12:35:05.572728 32100 net.cpp:84] Creating Layer relu1_1
I0419 12:35:05.572751 32100 net.cpp:406] relu1_1 <- conv1_1
I0419 12:35:05.572757 32100 net.cpp:367] relu1_1 -> conv1_1 (in-place)
I0419 12:35:05.572950 32100 net.cpp:122] Setting up relu1_1
I0419 12:35:05.572962 32100 net.cpp:129] Top shape: 1 64 710 710 (32262400)
I0419 12:35:05.572965 32100 net.cpp:137] Memory required for data: 286410764
I0419 12:35:05.572969 32100 layer_factory.hpp:77] Creating layer conv1_2
I0419 12:35:05.572983 32100 net.cpp:84] Creating Layer conv1_2
I0419 12:35:05.572986 32100 net.cpp:406] conv1_2 <- conv1_1
I0419 12:35:05.572993 32100 net.cpp:380] conv1_2 -> conv1_2
I0419 12:35:05.580808 32100 net.cpp:122] Setting up conv1_2
I0419 12:35:05.580852 32100 net.cpp:129] Top shape: 1 64 710 710 (32262400)
I0419 12:35:05.580859 32100 net.cpp:137] Memory required for data: 415460364
I0419 12:35:05.580880 32100 layer_factory.hpp:77] Creating layer relu1_2
I0419 12:35:05.580894 32100 net.cpp:84] Creating Layer relu1_2
I0419 12:35:05.580906 32100 net.cpp:406] relu1_2 <- conv1_2
I0419 12:35:05.580917 32100 net.cpp:367] relu1_2 -> conv1_2 (in-place)
I0419 12:35:05.581249 32100 net.cpp:122] Setting up relu1_2
I0419 12:35:05.581266 32100 net.cpp:129] Top shape: 1 64 710 710 (32262400)
I0419 12:35:05.581279 32100 net.cpp:137] Memory required for data: 544509964
I0419 12:35:05.581285 32100 layer_factory.hpp:77] Creating layer pool1
I0419 12:35:05.581307 32100 net.cpp:84] Creating Layer pool1
I0419 12:35:05.581315 32100 net.cpp:406] pool1 <- conv1_2
I0419 12:35:05.581326 32100 net.cpp:380] pool1 -> pool1
I0419 12:35:05.581413 32100 net.cpp:122] Setting up pool1
I0419 12:35:05.581426 32100 net.cpp:129] Top shape: 1 64 355 355 (8065600)
I0419 12:35:05.581432 32100 net.cpp:137] Memory required for data: 576772364
I0419 12:35:05.581439 32100 layer_factory.hpp:77] Creating layer conv2_1
I0419 12:35:05.581457 32100 net.cpp:84] Creating Layer conv2_1
I0419 12:35:05.581465 32100 net.cpp:406] conv2_1 <- pool1
I0419 12:35:05.581475 32100 net.cpp:380] conv2_1 -> conv2_1
I0419 12:35:05.587095 32100 net.cpp:122] Setting up conv2_1
I0419 12:35:05.587134 32100 net.cpp:129] Top shape: 1 128 355 355 (16131200)
I0419 12:35:05.587141 32100 net.cpp:137] Memory required for data: 641297164
I0419 12:35:05.587157 32100 layer_factory.hpp:77] Creating layer relu2_1
I0419 12:35:05.587169 32100 net.cpp:84] Creating Layer relu2_1
I0419 12:35:05.587175 32100 net.cpp:406] relu2_1 <- conv2_1
I0419 12:35:05.587196 32100 net.cpp:367] relu2_1 -> conv2_1 (in-place)
I0419 12:35:05.587471 32100 net.cpp:122] Setting up relu2_1
I0419 12:35:05.587486 32100 net.cpp:129] Top shape: 1 128 355 355 (16131200)
I0419 12:35:05.587491 32100 net.cpp:137] Memory required for data: 705821964
I0419 12:35:05.587496 32100 layer_factory.hpp:77] Creating layer conv2_2
I0419 12:35:05.587510 32100 net.cpp:84] Creating Layer conv2_2
I0419 12:35:05.587517 32100 net.cpp:406] conv2_2 <- conv2_1
I0419 12:35:05.587524 32100 net.cpp:380] conv2_2 -> conv2_2
I0419 12:35:05.594399 32100 net.cpp:122] Setting up conv2_2
I0419 12:35:05.594434 32100 net.cpp:129] Top shape: 1 128 355 355 (16131200)
I0419 12:35:05.594440 32100 net.cpp:137] Memory required for data: 770346764
I0419 12:35:05.594451 32100 layer_factory.hpp:77] Creating layer relu2_2
I0419 12:35:05.594460 32100 net.cpp:84] Creating Layer relu2_2
I0419 12:35:05.594470 32100 net.cpp:406] relu2_2 <- conv2_2
I0419 12:35:05.594477 32100 net.cpp:367] relu2_2 -> conv2_2 (in-place)
I0419 12:35:05.594879 32100 net.cpp:122] Setting up relu2_2
I0419 12:35:05.594902 32100 net.cpp:129] Top shape: 1 128 355 355 (16131200)
I0419 12:35:05.594919 32100 net.cpp:137] Memory required for data: 834871564
I0419 12:35:05.594926 32100 layer_factory.hpp:77] Creating layer pool2
I0419 12:35:05.594940 32100 net.cpp:84] Creating Layer pool2
I0419 12:35:05.594947 32100 net.cpp:406] pool2 <- conv2_2
I0419 12:35:05.594957 32100 net.cpp:380] pool2 -> pool2
I0419 12:35:05.595048 32100 net.cpp:122] Setting up pool2
I0419 12:35:05.595062 32100 net.cpp:129] Top shape: 1 128 178 178 (4055552)
I0419 12:35:05.595068 32100 net.cpp:137] Memory required for data: 851093772
I0419 12:35:05.595077 32100 layer_factory.hpp:77] Creating layer conv3_1
I0419 12:35:05.595094 32100 net.cpp:84] Creating Layer conv3_1
I0419 12:35:05.595103 32100 net.cpp:406] conv3_1 <- pool2
I0419 12:35:05.595113 32100 net.cpp:380] conv3_1 -> conv3_1
I0419 12:35:05.600709 32100 net.cpp:122] Setting up conv3_1
I0419 12:35:05.600764 32100 net.cpp:129] Top shape: 1 256 178 178 (8111104)
I0419 12:35:05.600774 32100 net.cpp:137] Memory required for data: 883538188
I0419 12:35:05.600798 32100 layer_factory.hpp:77] Creating layer relu3_1
I0419 12:35:05.600831 32100 net.cpp:84] Creating Layer relu3_1
I0419 12:35:05.600841 32100 net.cpp:406] relu3_1 <- conv3_1
I0419 12:35:05.600852 32100 net.cpp:367] relu3_1 -> conv3_1 (in-place)
I0419 12:35:05.601841 32100 net.cpp:122] Setting up relu3_1
I0419 12:35:05.601877 32100 net.cpp:129] Top shape: 1 256 178 178 (8111104)
I0419 12:35:05.601884 32100 net.cpp:137] Memory required for data: 915982604
I0419 12:35:05.601892 32100 layer_factory.hpp:77] Creating layer conv3_2
I0419 12:35:05.601917 32100 net.cpp:84] Creating Layer conv3_2
I0419 12:35:05.601934 32100 net.cpp:406] conv3_2 <- conv3_1
I0419 12:35:05.601946 32100 net.cpp:380] conv3_2 -> conv3_2
I0419 12:35:05.607466 32100 net.cpp:122] Setting up conv3_2
I0419 12:35:05.607503 32100 net.cpp:129] Top shape: 1 256 178 178 (8111104)
I0419 12:35:05.607508 32100 net.cpp:137] Memory required for data: 948427020
I0419 12:35:05.607519 32100 layer_factory.hpp:77] Creating layer relu3_2
I0419 12:35:05.607533 32100 net.cpp:84] Creating Layer relu3_2
I0419 12:35:05.607537 32100 net.cpp:406] relu3_2 <- conv3_2
I0419 12:35:05.607545 32100 net.cpp:367] relu3_2 -> conv3_2 (in-place)
I0419 12:35:05.608126 32100 net.cpp:122] Setting up relu3_2
I0419 12:35:05.608139 32100 net.cpp:129] Top shape: 1 256 178 178 (8111104)
I0419 12:35:05.608158 32100 net.cpp:137] Memory required for data: 980871436
I0419 12:35:05.608162 32100 layer_factory.hpp:77] Creating layer conv3_3
I0419 12:35:05.608180 32100 net.cpp:84] Creating Layer conv3_3
I0419 12:35:05.608184 32100 net.cpp:406] conv3_3 <- conv3_2
I0419 12:35:05.608191 32100 net.cpp:380] conv3_3 -> conv3_3
I0419 12:35:05.612907 32100 net.cpp:122] Setting up conv3_3
I0419 12:35:05.612923 32100 net.cpp:129] Top shape: 1 256 178 178 (8111104)
I0419 12:35:05.612942 32100 net.cpp:137] Memory required for data: 1013315852
I0419 12:35:05.612952 32100 layer_factory.hpp:77] Creating layer relu3_3
I0419 12:35:05.612960 32100 net.cpp:84] Creating Layer relu3_3
I0419 12:35:05.612964 32100 net.cpp:406] relu3_3 <- conv3_3
I0419 12:35:05.612969 32100 net.cpp:367] relu3_3 -> conv3_3 (in-place)
I0419 12:35:05.613179 32100 net.cpp:122] Setting up relu3_3
I0419 12:35:05.613189 32100 net.cpp:129] Top shape: 1 256 178 178 (8111104)
I0419 12:35:05.613193 32100 net.cpp:137] Memory required for data: 1045760268
I0419 12:35:05.613196 32100 layer_factory.hpp:77] Creating layer pool3
I0419 12:35:05.613206 32100 net.cpp:84] Creating Layer pool3
I0419 12:35:05.613210 32100 net.cpp:406] pool3 <- conv3_3
I0419 12:35:05.613216 32100 net.cpp:380] pool3 -> pool3
I0419 12:35:05.613265 32100 net.cpp:122] Setting up pool3
I0419 12:35:05.613272 32100 net.cpp:129] Top shape: 1 256 89 89 (2027776)
I0419 12:35:05.613276 32100 net.cpp:137] Memory required for data: 1053871372
I0419 12:35:05.613278 32100 layer_factory.hpp:77] Creating layer pool3_pool3_0_split
I0419 12:35:05.613284 32100 net.cpp:84] Creating Layer pool3_pool3_0_split
I0419 12:35:05.613287 32100 net.cpp:406] pool3_pool3_0_split <- pool3
I0419 12:35:05.613296 32100 net.cpp:380] pool3_pool3_0_split -> pool3_pool3_0_split_0
I0419 12:35:05.613301 32100 net.cpp:380] pool3_pool3_0_split -> pool3_pool3_0_split_1
I0419 12:35:05.613335 32100 net.cpp:122] Setting up pool3_pool3_0_split
I0419 12:35:05.613343 32100 net.cpp:129] Top shape: 1 256 89 89 (2027776)
I0419 12:35:05.613346 32100 net.cpp:129] Top shape: 1 256 89 89 (2027776)
I0419 12:35:05.613349 32100 net.cpp:137] Memory required for data: 1070093580
I0419 12:35:05.613353 32100 layer_factory.hpp:77] Creating layer conv4_1
I0419 12:35:05.613360 32100 net.cpp:84] Creating Layer conv4_1
I0419 12:35:05.613363 32100 net.cpp:406] conv4_1 <- pool3_pool3_0_split_0
I0419 12:35:05.613370 32100 net.cpp:380] conv4_1 -> conv4_1
I0419 12:35:05.621433 32100 net.cpp:122] Setting up conv4_1
I0419 12:35:05.621469 32100 net.cpp:129] Top shape: 1 512 89 89 (4055552)
I0419 12:35:05.621475 32100 net.cpp:137] Memory required for data: 1086315788
I0419 12:35:05.621486 32100 layer_factory.hpp:77] Creating layer relu4_1
I0419 12:35:05.621500 32100 net.cpp:84] Creating Layer relu4_1
I0419 12:35:05.621505 32100 net.cpp:406] relu4_1 <- conv4_1
I0419 12:35:05.621512 32100 net.cpp:367] relu4_1 -> conv4_1 (in-place)
I0419 12:35:05.621788 32100 net.cpp:122] Setting up relu4_1
I0419 12:35:05.621801 32100 net.cpp:129] Top shape: 1 512 89 89 (4055552)
I0419 12:35:05.621806 32100 net.cpp:137] Memory required for data: 1102537996
I0419 12:35:05.621810 32100 layer_factory.hpp:77] Creating layer conv4_2
I0419 12:35:05.621824 32100 net.cpp:84] Creating Layer conv4_2
I0419 12:35:05.621829 32100 net.cpp:406] conv4_2 <- conv4_1
I0419 12:35:05.621840 32100 net.cpp:380] conv4_2 -> conv4_2
I0419 12:35:05.631899 32100 net.cpp:122] Setting up conv4_2
I0419 12:35:05.631937 32100 net.cpp:129] Top shape: 1 512 89 89 (4055552)
I0419 12:35:05.631940 32100 net.cpp:137] Memory required for data: 1118760204
I0419 12:35:05.631954 32100 layer_factory.hpp:77] Creating layer relu4_2
I0419 12:35:05.631963 32100 net.cpp:84] Creating Layer relu4_2
I0419 12:35:05.631968 32100 net.cpp:406] relu4_2 <- conv4_2
I0419 12:35:05.631976 32100 net.cpp:367] relu4_2 -> conv4_2 (in-place)
I0419 12:35:05.632189 32100 net.cpp:122] Setting up relu4_2
I0419 12:35:05.632200 32100 net.cpp:129] Top shape: 1 512 89 89 (4055552)
I0419 12:35:05.632203 32100 net.cpp:137] Memory required for data: 1134982412
I0419 12:35:05.632207 32100 layer_factory.hpp:77] Creating layer conv4_3
I0419 12:35:05.632218 32100 net.cpp:84] Creating Layer conv4_3
I0419 12:35:05.632222 32100 net.cpp:406] conv4_3 <- conv4_2
I0419 12:35:05.632230 32100 net.cpp:380] conv4_3 -> conv4_3
I0419 12:35:05.639605 32100 net.cpp:122] Setting up conv4_3
I0419 12:35:05.639637 32100 net.cpp:129] Top shape: 1 512 89 89 (4055552)
I0419 12:35:05.639642 32100 net.cpp:137] Memory required for data: 1151204620
I0419 12:35:05.639649 32100 layer_factory.hpp:77] Creating layer relu4_3
I0419 12:35:05.639659 32100 net.cpp:84] Creating Layer relu4_3
I0419 12:35:05.639663 32100 net.cpp:406] relu4_3 <- conv4_3
I0419 12:35:05.639668 32100 net.cpp:367] relu4_3 -> conv4_3 (in-place)
I0419 12:35:05.639863 32100 net.cpp:122] Setting up relu4_3
I0419 12:35:05.639871 32100 net.cpp:129] Top shape: 1 512 89 89 (4055552)
I0419 12:35:05.639875 32100 net.cpp:137] Memory required for data: 1167426828
I0419 12:35:05.639878 32100 layer_factory.hpp:77] Creating layer pool4
I0419 12:35:05.639888 32100 net.cpp:84] Creating Layer pool4
I0419 12:35:05.639890 32100 net.cpp:406] pool4 <- conv4_3
I0419 12:35:05.639899 32100 net.cpp:380] pool4 -> pool4
I0419 12:35:05.639950 32100 net.cpp:122] Setting up pool4
I0419 12:35:05.639957 32100 net.cpp:129] Top shape: 1 512 45 45 (1036800)
I0419 12:35:05.639961 32100 net.cpp:137] Memory required for data: 1171574028
I0419 12:35:05.639963 32100 layer_factory.hpp:77] Creating layer pool4_pool4_0_split
I0419 12:35:05.639971 32100 net.cpp:84] Creating Layer pool4_pool4_0_split
I0419 12:35:05.639974 32100 net.cpp:406] pool4_pool4_0_split <- pool4
I0419 12:35:05.639981 32100 net.cpp:380] pool4_pool4_0_split -> pool4_pool4_0_split_0
I0419 12:35:05.639986 32100 net.cpp:380] pool4_pool4_0_split -> pool4_pool4_0_split_1
I0419 12:35:05.640019 32100 net.cpp:122] Setting up pool4_pool4_0_split
I0419 12:35:05.640024 32100 net.cpp:129] Top shape: 1 512 45 45 (1036800)
I0419 12:35:05.640028 32100 net.cpp:129] Top shape: 1 512 45 45 (1036800)
I0419 12:35:05.640031 32100 net.cpp:137] Memory required for data: 1179868428
I0419 12:35:05.640034 32100 layer_factory.hpp:77] Creating layer conv5_1
I0419 12:35:05.640046 32100 net.cpp:84] Creating Layer conv5_1
I0419 12:35:05.640049 32100 net.cpp:406] conv5_1 <- pool4_pool4_0_split_0
I0419 12:35:05.640056 32100 net.cpp:380] conv5_1 -> conv5_1
I0419 12:35:05.649185 32100 net.cpp:122] Setting up conv5_1
I0419 12:35:05.649221 32100 net.cpp:129] Top shape: 1 512 45 45 (1036800)
I0419 12:35:05.649226 32100 net.cpp:137] Memory required for data: 1184015628
I0419 12:35:05.649237 32100 layer_factory.hpp:77] Creating layer relu5_1
I0419 12:35:05.649250 32100 net.cpp:84] Creating Layer relu5_1
I0419 12:35:05.649255 32100 net.cpp:406] relu5_1 <- conv5_1
I0419 12:35:05.649263 32100 net.cpp:367] relu5_1 -> conv5_1 (in-place)
I0419 12:35:05.649977 32100 net.cpp:122] Setting up relu5_1
I0419 12:35:05.649996 32100 net.cpp:129] Top shape: 1 512 45 45 (1036800)
I0419 12:35:05.650010 32100 net.cpp:137] Memory required for data: 1188162828
I0419 12:35:05.650015 32100 layer_factory.hpp:77] Creating layer conv5_2
I0419 12:35:05.650030 32100 net.cpp:84] Creating Layer conv5_2
I0419 12:35:05.650035 32100 net.cpp:406] conv5_2 <- conv5_1
I0419 12:35:05.650045 32100 net.cpp:380] conv5_2 -> conv5_2
I0419 12:35:05.658758 32100 net.cpp:122] Setting up conv5_2
I0419 12:35:05.658792 32100 net.cpp:129] Top shape: 1 512 45 45 (1036800)
I0419 12:35:05.658797 32100 net.cpp:137] Memory required for data: 1192310028
I0419 12:35:05.658804 32100 layer_factory.hpp:77] Creating layer relu5_2
I0419 12:35:05.658821 32100 net.cpp:84] Creating Layer relu5_2
I0419 12:35:05.658825 32100 net.cpp:406] relu5_2 <- conv5_2
I0419 12:35:05.658831 32100 net.cpp:367] relu5_2 -> conv5_2 (in-place)
I0419 12:35:05.659451 32100 net.cpp:122] Setting up relu5_2
I0419 12:35:05.659464 32100 net.cpp:129] Top shape: 1 512 45 45 (1036800)
I0419 12:35:05.659484 32100 net.cpp:137] Memory required for data: 1196457228
I0419 12:35:05.659488 32100 layer_factory.hpp:77] Creating layer conv5_3
I0419 12:35:05.659502 32100 net.cpp:84] Creating Layer conv5_3
I0419 12:35:05.659507 32100 net.cpp:406] conv5_3 <- conv5_2
I0419 12:35:05.659512 32100 net.cpp:380] conv5_3 -> conv5_3
I0419 12:35:05.668788 32100 net.cpp:122] Setting up conv5_3
I0419 12:35:05.668831 32100 net.cpp:129] Top shape: 1 512 45 45 (1036800)
I0419 12:35:05.668838 32100 net.cpp:137] Memory required for data: 1200604428
I0419 12:35:05.668849 32100 layer_factory.hpp:77] Creating layer relu5_3
I0419 12:35:05.668860 32100 net.cpp:84] Creating Layer relu5_3
I0419 12:35:05.668866 32100 net.cpp:406] relu5_3 <- conv5_3
I0419 12:35:05.668889 32100 net.cpp:367] relu5_3 -> conv5_3 (in-place)
I0419 12:35:05.669152 32100 net.cpp:122] Setting up relu5_3
I0419 12:35:05.669165 32100 net.cpp:129] Top shape: 1 512 45 45 (1036800)
I0419 12:35:05.669170 32100 net.cpp:137] Memory required for data: 1204751628
I0419 12:35:05.669175 32100 layer_factory.hpp:77] Creating layer pool5
I0419 12:35:05.669185 32100 net.cpp:84] Creating Layer pool5
I0419 12:35:05.669190 32100 net.cpp:406] pool5 <- conv5_3
I0419 12:35:05.669201 32100 net.cpp:380] pool5 -> pool5
I0419 12:35:05.669262 32100 net.cpp:122] Setting up pool5
I0419 12:35:05.669272 32100 net.cpp:129] Top shape: 1 512 23 23 (270848)
I0419 12:35:05.669276 32100 net.cpp:137] Memory required for data: 1205835020
I0419 12:35:05.669281 32100 layer_factory.hpp:77] Creating layer fc6
I0419 12:35:05.669297 32100 net.cpp:84] Creating Layer fc6
I0419 12:35:05.669302 32100 net.cpp:406] fc6 <- pool5
I0419 12:35:05.669312 32100 net.cpp:380] fc6 -> fc6
I0419 12:35:05.961515 32100 net.cpp:122] Setting up fc6
I0419 12:35:05.961565 32100 net.cpp:129] Top shape: 1 4096 17 17 (1183744)
I0419 12:35:05.961568 32100 net.cpp:137] Memory required for data: 1210569996
I0419 12:35:05.961580 32100 layer_factory.hpp:77] Creating layer relu6
I0419 12:35:05.961592 32100 net.cpp:84] Creating Layer relu6
I0419 12:35:05.961599 32100 net.cpp:406] relu6 <- fc6
I0419 12:35:05.961606 32100 net.cpp:367] relu6 -> fc6 (in-place)
I0419 12:35:05.961832 32100 net.cpp:122] Setting up relu6
I0419 12:35:05.961843 32100 net.cpp:129] Top shape: 1 4096 17 17 (1183744)
I0419 12:35:05.961846 32100 net.cpp:137] Memory required for data: 1215304972
I0419 12:35:05.961850 32100 layer_factory.hpp:77] Creating layer drop6
I0419 12:35:05.961863 32100 net.cpp:84] Creating Layer drop6
I0419 12:35:05.961866 32100 net.cpp:406] drop6 <- fc6
I0419 12:35:05.961871 32100 net.cpp:367] drop6 -> fc6 (in-place)
I0419 12:35:05.961906 32100 net.cpp:122] Setting up drop6
I0419 12:35:05.961911 32100 net.cpp:129] Top shape: 1 4096 17 17 (1183744)
I0419 12:35:05.961915 32100 net.cpp:137] Memory required for data: 1220039948
I0419 12:35:05.961917 32100 layer_factory.hpp:77] Creating layer fc7
I0419 12:35:05.961927 32100 net.cpp:84] Creating Layer fc7
I0419 12:35:05.961930 32100 net.cpp:406] fc7 <- fc6
I0419 12:35:05.961935 32100 net.cpp:380] fc7 -> fc7
I0419 12:35:06.017644 32100 net.cpp:122] Setting up fc7
I0419 12:35:06.017696 32100 net.cpp:129] Top shape: 1 4096 17 17 (1183744)
I0419 12:35:06.017701 32100 net.cpp:137] Memory required for data: 1224774924
I0419 12:35:06.017712 32100 layer_factory.hpp:77] Creating layer relu7
I0419 12:35:06.017725 32100 net.cpp:84] Creating Layer relu7
I0419 12:35:06.017731 32100 net.cpp:406] relu7 <- fc7
I0419 12:35:06.017740 32100 net.cpp:367] relu7 -> fc7 (in-place)
I0419 12:35:06.018340 32100 net.cpp:122] Setting up relu7
I0419 12:35:06.018354 32100 net.cpp:129] Top shape: 1 4096 17 17 (1183744)
I0419 12:35:06.018374 32100 net.cpp:137] Memory required for data: 1229509900
I0419 12:35:06.018378 32100 layer_factory.hpp:77] Creating layer drop7
I0419 12:35:06.018401 32100 net.cpp:84] Creating Layer drop7
I0419 12:35:06.018405 32100 net.cpp:406] drop7 <- fc7
I0419 12:35:06.018412 32100 net.cpp:367] drop7 -> fc7 (in-place)
I0419 12:35:06.018461 32100 net.cpp:122] Setting up drop7
I0419 12:35:06.018466 32100 net.cpp:129] Top shape: 1 4096 17 17 (1183744)
I0419 12:35:06.018470 32100 net.cpp:137] Memory required for data: 1234244876
I0419 12:35:06.018472 32100 layer_factory.hpp:77] Creating layer score_fr-new
I0419 12:35:06.018483 32100 net.cpp:84] Creating Layer score_fr-new
I0419 12:35:06.018487 32100 net.cpp:406] score_fr-new <- fc7
I0419 12:35:06.018493 32100 net.cpp:380] score_fr-new -> score_fr-new
I0419 12:35:06.019731 32100 net.cpp:122] Setting up score_fr-new
I0419 12:35:06.019764 32100 net.cpp:129] Top shape: 1 3 17 17 (867)
I0419 12:35:06.019768 32100 net.cpp:137] Memory required for data: 1234248344
I0419 12:35:06.019774 32100 layer_factory.hpp:77] Creating layer upscore2-new
I0419 12:35:06.019793 32100 net.cpp:84] Creating Layer upscore2-new
I0419 12:35:06.019798 32100 net.cpp:406] upscore2-new <- score_fr-new
I0419 12:35:06.019805 32100 net.cpp:380] upscore2-new -> upscore2-new
I0419 12:35:06.020030 32100 net.cpp:122] Setting up upscore2-new
I0419 12:35:06.020038 32100 net.cpp:129] Top shape: 1 3 36 36 (3888)
I0419 12:35:06.020041 32100 net.cpp:137] Memory required for data: 1234263896
I0419 12:35:06.020056 32100 layer_factory.hpp:77] Creating layer upscore2-new_upscore2-new_0_split
I0419 12:35:06.020062 32100 net.cpp:84] Creating Layer upscore2-new_upscore2-new_0_split
I0419 12:35:06.020066 32100 net.cpp:406] upscore2-new_upscore2-new_0_split <- upscore2-new
I0419 12:35:06.020071 32100 net.cpp:380] upscore2-new_upscore2-new_0_split -> upscore2-new_upscore2-new_0_split_0
I0419 12:35:06.020078 32100 net.cpp:380] upscore2-new_upscore2-new_0_split -> upscore2-new_upscore2-new_0_split_1
I0419 12:35:06.020114 32100 net.cpp:122] Setting up upscore2-new_upscore2-new_0_split
I0419 12:35:06.020128 32100 net.cpp:129] Top shape: 1 3 36 36 (3888)
I0419 12:35:06.020133 32100 net.cpp:129] Top shape: 1 3 36 36 (3888)
I0419 12:35:06.020135 32100 net.cpp:137] Memory required for data: 1234295000
I0419 12:35:06.020138 32100 layer_factory.hpp:77] Creating layer score_pool4-new
I0419 12:35:06.020148 32100 net.cpp:84] Creating Layer score_pool4-new
I0419 12:35:06.020153 32100 net.cpp:406] score_pool4-new <- pool4_pool4_0_split_1
I0419 12:35:06.020159 32100 net.cpp:380] score_pool4-new -> score_pool4-new
I0419 12:35:06.021360 32100 net.cpp:122] Setting up score_pool4-new
I0419 12:35:06.021374 32100 net.cpp:129] Top shape: 1 3 45 45 (6075)
I0419 12:35:06.021394 32100 net.cpp:137] Memory required for data: 1234319300
I0419 12:35:06.021401 32100 layer_factory.hpp:77] Creating layer score_pool4c
I0419 12:35:06.021414 32100 net.cpp:84] Creating Layer score_pool4c
I0419 12:35:06.021417 32100 net.cpp:406] score_pool4c <- score_pool4-new
I0419 12:35:06.021423 32100 net.cpp:406] score_pool4c <- upscore2-new_upscore2-new_0_split_0
I0419 12:35:06.021430 32100 net.cpp:380] score_pool4c -> score_pool4c
I0419 12:35:06.021478 32100 net.cpp:122] Setting up score_pool4c
I0419 12:35:06.021484 32100 net.cpp:129] Top shape: 1 3 36 36 (3888)
I0419 12:35:06.021487 32100 net.cpp:137] Memory required for data: 1234334852
I0419 12:35:06.021490 32100 layer_factory.hpp:77] Creating layer fuse_pool4
I0419 12:35:06.021502 32100 net.cpp:84] Creating Layer fuse_pool4
I0419 12:35:06.021507 32100 net.cpp:406] fuse_pool4 <- upscore2-new_upscore2-new_0_split_1
I0419 12:35:06.021512 32100 net.cpp:406] fuse_pool4 <- score_pool4c
I0419 12:35:06.021517 32100 net.cpp:380] fuse_pool4 -> fuse_pool4
I0419 12:35:06.021544 32100 net.cpp:122] Setting up fuse_pool4
I0419 12:35:06.021549 32100 net.cpp:129] Top shape: 1 3 36 36 (3888)
I0419 12:35:06.021553 32100 net.cpp:137] Memory required for data: 1234350404
I0419 12:35:06.021555 32100 layer_factory.hpp:77] Creating layer upscore_pool4-new
I0419 12:35:06.021564 32100 net.cpp:84] Creating Layer upscore_pool4-new
I0419 12:35:06.021569 32100 net.cpp:406] upscore_pool4-new <- fuse_pool4
I0419 12:35:06.021574 32100 net.cpp:380] upscore_pool4-new -> upscore_pool4-new
I0419 12:35:06.021764 32100 net.cpp:122] Setting up upscore_pool4-new
I0419 12:35:06.021771 32100 net.cpp:129] Top shape: 1 3 74 74 (16428)
I0419 12:35:06.021775 32100 net.cpp:137] Memory required for data: 1234416116
I0419 12:35:06.021780 32100 layer_factory.hpp:77] Creating layer upscore_pool4-new_upscore_pool4-new_0_split
I0419 12:35:06.021785 32100 net.cpp:84] Creating Layer upscore_pool4-new_upscore_pool4-new_0_split
I0419 12:35:06.021790 32100 net.cpp:406] upscore_pool4-new_upscore_pool4-new_0_split <- upscore_pool4-new
I0419 12:35:06.021793 32100 net.cpp:380] upscore_pool4-new_upscore_pool4-new_0_split -> upscore_pool4-new_upscore_pool4-new_0_split_0
I0419 12:35:06.021800 32100 net.cpp:380] upscore_pool4-new_upscore_pool4-new_0_split -> upscore_pool4-new_upscore_pool4-new_0_split_1
I0419 12:35:06.021833 32100 net.cpp:122] Setting up upscore_pool4-new_upscore_pool4-new_0_split
I0419 12:35:06.021838 32100 net.cpp:129] Top shape: 1 3 74 74 (16428)
I0419 12:35:06.021842 32100 net.cpp:129] Top shape: 1 3 74 74 (16428)
I0419 12:35:06.021845 32100 net.cpp:137] Memory required for data: 1234547540
I0419 12:35:06.021848 32100 layer_factory.hpp:77] Creating layer score_pool3-new
I0419 12:35:06.021858 32100 net.cpp:84] Creating Layer score_pool3-new
I0419 12:35:06.021862 32100 net.cpp:406] score_pool3-new <- pool3_pool3_0_split_1
I0419 12:35:06.021872 32100 net.cpp:380] score_pool3-new -> score_pool3-new
I0419 12:35:06.023125 32100 net.cpp:122] Setting up score_pool3-new
I0419 12:35:06.023141 32100 net.cpp:129] Top shape: 1 3 89 89 (23763)
I0419 12:35:06.023160 32100 net.cpp:137] Memory required for data: 1234642592
I0419 12:35:06.023167 32100 layer_factory.hpp:77] Creating layer score_pool3c
I0419 12:35:06.023177 32100 net.cpp:84] Creating Layer score_pool3c
I0419 12:35:06.023181 32100 net.cpp:406] score_pool3c <- score_pool3-new
I0419 12:35:06.023186 32100 net.cpp:406] score_pool3c <- upscore_pool4-new_upscore_pool4-new_0_split_0
I0419 12:35:06.023191 32100 net.cpp:380] score_pool3c -> score_pool3c
I0419 12:35:06.023238 32100 net.cpp:122] Setting up score_pool3c
I0419 12:35:06.023243 32100 net.cpp:129] Top shape: 1 3 74 74 (16428)
I0419 12:35:06.023247 32100 net.cpp:137] Memory required for data: 1234708304
I0419 12:35:06.023249 32100 layer_factory.hpp:77] Creating layer fuse_pool3
I0419 12:35:06.023255 32100 net.cpp:84] Creating Layer fuse_pool3
I0419 12:35:06.023259 32100 net.cpp:406] fuse_pool3 <- upscore_pool4-new_upscore_pool4-new_0_split_1
I0419 12:35:06.023263 32100 net.cpp:406] fuse_pool3 <- score_pool3c
I0419 12:35:06.023270 32100 net.cpp:380] fuse_pool3 -> fuse_pool3
I0419 12:35:06.023293 32100 net.cpp:122] Setting up fuse_pool3
I0419 12:35:06.023298 32100 net.cpp:129] Top shape: 1 3 74 74 (16428)
I0419 12:35:06.023300 32100 net.cpp:137] Memory required for data: 1234774016
I0419 12:35:06.023303 32100 layer_factory.hpp:77] Creating layer upscore8-new
I0419 12:35:06.023313 32100 net.cpp:84] Creating Layer upscore8-new
I0419 12:35:06.023319 32100 net.cpp:406] upscore8-new <- fuse_pool3
I0419 12:35:06.023324 32100 net.cpp:380] upscore8-new -> upscore8-new
I0419 12:35:06.023527 32100 net.cpp:122] Setting up upscore8-new
I0419 12:35:06.023536 32100 net.cpp:129] Top shape: 1 3 600 600 (1080000)
I0419 12:35:06.023540 32100 net.cpp:137] Memory required for data: 1239094016
I0419 12:35:06.023545 32100 layer_factory.hpp:77] Creating layer upscore8_cropped
I0419 12:35:06.023550 32100 net.cpp:84] Creating Layer upscore8_cropped
I0419 12:35:06.023555 32100 net.cpp:406] upscore8_cropped <- upscore8-new
I0419 12:35:06.023560 32100 net.cpp:406] upscore8_cropped <- data_data_0_split_1
I0419 12:35:06.023567 32100 net.cpp:380] upscore8_cropped -> upscore8_cropped
I0419 12:35:06.023589 32100 net.cpp:122] Setting up upscore8_cropped
I0419 12:35:06.023594 32100 net.cpp:129] Top shape: 1 3 512 512 (786432)
I0419 12:35:06.023597 32100 net.cpp:137] Memory required for data: 1242239744
I0419 12:35:06.023600 32100 layer_factory.hpp:77] Creating layer score
I0419 12:35:06.023609 32100 net.cpp:84] Creating Layer score
I0419 12:35:06.023613 32100 net.cpp:406] score <- upscore8_cropped
I0419 12:35:06.023618 32100 net.cpp:380] score -> score
I0419 12:35:06.032671 32100 net.cpp:122] Setting up score
I0419 12:35:06.032718 32100 net.cpp:129] Top shape: 1 3 512 512 (786432)
I0419 12:35:06.032726 32100 net.cpp:137] Memory required for data: 1245385472
I0419 12:35:06.032740 32100 layer_factory.hpp:77] Creating layer score_score_0_split
I0419 12:35:06.032754 32100 net.cpp:84] Creating Layer score_score_0_split
I0419 12:35:06.032761 32100 net.cpp:406] score_score_0_split <- score
I0419 12:35:06.032786 32100 net.cpp:380] score_score_0_split -> score_score_0_split_0
I0419 12:35:06.032799 32100 net.cpp:380] score_score_0_split -> score_score_0_split_1
I0419 12:35:06.032879 32100 net.cpp:122] Setting up score_score_0_split
I0419 12:35:06.032894 32100 net.cpp:129] Top shape: 1 3 512 512 (786432)
I0419 12:35:06.032902 32100 net.cpp:129] Top shape: 1 3 512 512 (786432)
I0419 12:35:06.032907 32100 net.cpp:137] Memory required for data: 1251676928
I0419 12:35:06.032913 32100 layer_factory.hpp:77] Creating layer prob
I0419 12:35:06.032923 32100 net.cpp:84] Creating Layer prob
I0419 12:35:06.032929 32100 net.cpp:406] prob <- score_score_0_split_0
I0419 12:35:06.032938 32100 net.cpp:380] prob -> prob
I0419 12:35:06.033308 32100 net.cpp:122] Setting up prob
I0419 12:35:06.033339 32100 net.cpp:129] Top shape: 1 3 512 512 (786432)
I0419 12:35:06.033345 32100 net.cpp:137] Memory required for data: 1254822656
I0419 12:35:06.033351 32100 layer_factory.hpp:77] Creating layer prob_prob_0_split
I0419 12:35:06.033361 32100 net.cpp:84] Creating Layer prob_prob_0_split
I0419 12:35:06.033367 32100 net.cpp:406] prob_prob_0_split <- prob
I0419 12:35:06.033376 32100 net.cpp:380] prob_prob_0_split -> prob_prob_0_split_0
I0419 12:35:06.033386 32100 net.cpp:380] prob_prob_0_split -> prob_prob_0_split_1
I0419 12:35:06.033452 32100 net.cpp:122] Setting up prob_prob_0_split
I0419 12:35:06.033463 32100 net.cpp:129] Top shape: 1 3 512 512 (786432)
I0419 12:35:06.033470 32100 net.cpp:129] Top shape: 1 3 512 512 (786432)
I0419 12:35:06.033475 32100 net.cpp:137] Memory required for data: 1261114112
I0419 12:35:06.033480 32100 layer_factory.hpp:77] Creating layer saliency
I0419 12:35:06.033496 32100 net.cpp:84] Creating Layer saliency
I0419 12:35:06.033502 32100 net.cpp:406] saliency <- prob_prob_0_split_0
I0419 12:35:06.033514 32100 net.cpp:380] saliency -> saliency
I0419 12:35:06.036430 32100 net.cpp:122] Setting up saliency
I0419 12:35:06.036465 32100 net.cpp:129] Top shape: 1 3 512 512 (786432)
I0419 12:35:06.036473 32100 net.cpp:137] Memory required for data: 1264259840
I0419 12:35:06.036484 32100 layer_factory.hpp:77] Creating layer saliency_data
I0419 12:35:06.036497 32100 net.cpp:84] Creating Layer saliency_data
I0419 12:35:06.036504 32100 net.cpp:406] saliency_data <- data_data_0_split_2
I0419 12:35:06.036512 32100 net.cpp:406] saliency_data <- saliency
I0419 12:35:06.036531 32100 net.cpp:380] saliency_data -> saliency_data
I0419 12:35:06.036583 32100 net.cpp:122] Setting up saliency_data
I0419 12:35:06.036599 32100 net.cpp:129] Top shape: 1 3 512 512 (786432)
I0419 12:35:06.036619 32100 net.cpp:137] Memory required for data: 1267405568
I0419 12:35:06.036625 32100 layer_factory.hpp:77] Creating layer crop
I0419 12:35:06.037227 32100 net.cpp:84] Creating Layer crop
I0419 12:35:06.037245 32100 net.cpp:406] crop <- prob_prob_0_split_1
I0419 12:35:06.037263 32100 net.cpp:406] crop <- saliency_data
I0419 12:35:06.037271 32100 net.cpp:406] crop <- crop_margin
I0419 12:35:06.037281 32100 net.cpp:406] crop <- crop_prob
I0419 12:35:06.037287 32100 net.cpp:406] crop <- crop_sample_batch
I0419 12:35:06.037295 32100 net.cpp:406] crop <- label_data_1_split_0
I0419 12:35:06.037317 32100 net.cpp:380] crop -> data-R
I0419 12:35:06.037329 32100 net.cpp:380] crop -> crop_info
I0419 12:35:06.053630 32100 net.cpp:122] Setting up crop
I0419 12:35:06.053681 32100 net.cpp:129] Top shape: 1 3 512 512 (786432)
I0419 12:35:06.053689 32100 net.cpp:129] Top shape: 1 2 4 (8)
I0419 12:35:06.053696 32100 net.cpp:137] Memory required for data: 1270551328
I0419 12:35:06.053705 32100 layer_factory.hpp:77] Creating layer data-R_crop_0_split
I0419 12:35:06.053719 32100 net.cpp:84] Creating Layer data-R_crop_0_split
I0419 12:35:06.053726 32100 net.cpp:406] data-R_crop_0_split <- data-R
I0419 12:35:06.053750 32100 net.cpp:380] data-R_crop_0_split -> data-R_crop_0_split_0
I0419 12:35:06.053762 32100 net.cpp:380] data-R_crop_0_split -> data-R_crop_0_split_1
I0419 12:35:06.053827 32100 net.cpp:122] Setting up data-R_crop_0_split
I0419 12:35:06.053848 32100 net.cpp:129] Top shape: 1 3 512 512 (786432)
I0419 12:35:06.053854 32100 net.cpp:129] Top shape: 1 3 512 512 (786432)
I0419 12:35:06.053859 32100 net.cpp:137] Memory required for data: 1276842784
I0419 12:35:06.053864 32100 layer_factory.hpp:77] Creating layer conv1_1-R
I0419 12:35:06.053884 32100 net.cpp:84] Creating Layer conv1_1-R
I0419 12:35:06.053889 32100 net.cpp:406] conv1_1-R <- data-R_crop_0_split_0
I0419 12:35:06.053900 32100 net.cpp:380] conv1_1-R -> conv1_1-R
I0419 12:35:06.063509 32100 net.cpp:122] Setting up conv1_1-R
I0419 12:35:06.063570 32100 net.cpp:129] Top shape: 1 64 710 710 (32262400)
I0419 12:35:06.063580 32100 net.cpp:137] Memory required for data: 1405892384
I0419 12:35:06.063603 32100 layer_factory.hpp:77] Creating layer relu1_1-R
I0419 12:35:06.063653 32100 net.cpp:84] Creating Layer relu1_1-R
I0419 12:35:06.063664 32100 net.cpp:406] relu1_1-R <- conv1_1-R
I0419 12:35:06.063678 32100 net.cpp:367] relu1_1-R -> conv1_1-R (in-place)
I0419 12:35:06.064126 32100 net.cpp:122] Setting up relu1_1-R
I0419 12:35:06.064146 32100 net.cpp:129] Top shape: 1 64 710 710 (32262400)
I0419 12:35:06.064162 32100 net.cpp:137] Memory required for data: 1534941984
I0419 12:35:06.064172 32100 layer_factory.hpp:77] Creating layer conv1_2-R
I0419 12:35:06.064194 32100 net.cpp:84] Creating Layer conv1_2-R
I0419 12:35:06.064201 32100 net.cpp:406] conv1_2-R <- conv1_1-R
I0419 12:35:06.064214 32100 net.cpp:380] conv1_2-R -> conv1_2-R
I0419 12:35:06.071386 32100 net.cpp:122] Setting up conv1_2-R
I0419 12:35:06.071432 32100 net.cpp:129] Top shape: 1 64 710 710 (32262400)
I0419 12:35:06.071441 32100 net.cpp:137] Memory required for data: 1663991584
I0419 12:35:06.071457 32100 layer_factory.hpp:77] Creating layer relu1_2-R
I0419 12:35:06.071483 32100 net.cpp:84] Creating Layer relu1_2-R
I0419 12:35:06.071492 32100 net.cpp:406] relu1_2-R <- conv1_2-R
I0419 12:35:06.071504 32100 net.cpp:367] relu1_2-R -> conv1_2-R (in-place)
I0419 12:35:06.071907 32100 net.cpp:122] Setting up relu1_2-R
I0419 12:35:06.071928 32100 net.cpp:129] Top shape: 1 64 710 710 (32262400)
I0419 12:35:06.071940 32100 net.cpp:137] Memory required for data: 1793041184
I0419 12:35:06.071949 32100 layer_factory.hpp:77] Creating layer pool1-R
I0419 12:35:06.071962 32100 net.cpp:84] Creating Layer pool1-R
I0419 12:35:06.071970 32100 net.cpp:406] pool1-R <- conv1_2-R
I0419 12:35:06.071983 32100 net.cpp:380] pool1-R -> pool1-R
I0419 12:35:06.072103 32100 net.cpp:122] Setting up pool1-R
I0419 12:35:06.072116 32100 net.cpp:129] Top shape: 1 64 355 355 (8065600)
I0419 12:35:06.072124 32100 net.cpp:137] Memory required for data: 1825303584
I0419 12:35:06.072131 32100 layer_factory.hpp:77] Creating layer conv2_1-R
I0419 12:35:06.072147 32100 net.cpp:84] Creating Layer conv2_1-R
I0419 12:35:06.072155 32100 net.cpp:406] conv2_1-R <- pool1-R
I0419 12:35:06.072166 32100 net.cpp:380] conv2_1-R -> conv2_1-R
I0419 12:35:06.075264 32100 net.cpp:122] Setting up conv2_1-R
I0419 12:35:06.075284 32100 net.cpp:129] Top shape: 1 128 355 355 (16131200)
I0419 12:35:06.075289 32100 net.cpp:137] Memory required for data: 1889828384
I0419 12:35:06.075300 32100 layer_factory.hpp:77] Creating layer relu2_1-R
I0419 12:35:06.075309 32100 net.cpp:84] Creating Layer relu2_1-R
I0419 12:35:06.075326 32100 net.cpp:406] relu2_1-R <- conv2_1-R
I0419 12:35:06.075335 32100 net.cpp:367] relu2_1-R -> conv2_1-R (in-place)
I0419 12:35:06.075594 32100 net.cpp:122] Setting up relu2_1-R
I0419 12:35:06.075608 32100 net.cpp:129] Top shape: 1 128 355 355 (16131200)
I0419 12:35:06.075613 32100 net.cpp:137] Memory required for data: 1954353184
I0419 12:35:06.075618 32100 layer_factory.hpp:77] Creating layer conv2_2-R
I0419 12:35:06.075628 32100 net.cpp:84] Creating Layer conv2_2-R
I0419 12:35:06.075634 32100 net.cpp:406] conv2_2-R <- conv2_1-R
I0419 12:35:06.075642 32100 net.cpp:380] conv2_2-R -> conv2_2-R
I0419 12:35:06.089608 32100 net.cpp:122] Setting up conv2_2-R
I0419 12:35:06.089671 32100 net.cpp:129] Top shape: 1 128 355 355 (16131200)
I0419 12:35:06.089680 32100 net.cpp:137] Memory required for data: 2018877984
I0419 12:35:06.089711 32100 layer_factory.hpp:77] Creating layer relu2_2-R
I0419 12:35:06.089740 32100 net.cpp:84] Creating Layer relu2_2-R
I0419 12:35:06.089781 32100 net.cpp:406] relu2_2-R <- conv2_2-R
I0419 12:35:06.089807 32100 net.cpp:367] relu2_2-R -> conv2_2-R (in-place)
I0419 12:35:06.090852 32100 net.cpp:122] Setting up relu2_2-R
I0419 12:35:06.090878 32100 net.cpp:129] Top shape: 1 128 355 355 (16131200)
I0419 12:35:06.090884 32100 net.cpp:137] Memory required for data: 2083402784
I0419 12:35:06.090891 32100 layer_factory.hpp:77] Creating layer pool2-R
I0419 12:35:06.090914 32100 net.cpp:84] Creating Layer pool2-R
I0419 12:35:06.090921 32100 net.cpp:406] pool2-R <- conv2_2-R
I0419 12:35:06.090978 32100 net.cpp:380] pool2-R -> pool2-R
I0419 12:35:06.091094 32100 net.cpp:122] Setting up pool2-R
I0419 12:35:06.091109 32100 net.cpp:129] Top shape: 1 128 178 178 (4055552)
I0419 12:35:06.091115 32100 net.cpp:137] Memory required for data: 2099624992
I0419 12:35:06.091123 32100 layer_factory.hpp:77] Creating layer conv3_1-R
I0419 12:35:06.091156 32100 net.cpp:84] Creating Layer conv3_1-R
I0419 12:35:06.091166 32100 net.cpp:406] conv3_1-R <- pool2-R
I0419 12:35:06.091182 32100 net.cpp:380] conv3_1-R -> conv3_1-R
I0419 12:35:06.096655 32100 net.cpp:122] Setting up conv3_1-R
I0419 12:35:06.096681 32100 net.cpp:129] Top shape: 1 256 178 178 (8111104)
I0419 12:35:06.096695 32100 net.cpp:137] Memory required for data: 2132069408
I0419 12:35:06.096716 32100 layer_factory.hpp:77] Creating layer relu3_1-R
I0419 12:35:06.096731 32100 net.cpp:84] Creating Layer relu3_1-R
I0419 12:35:06.096740 32100 net.cpp:406] relu3_1-R <- conv3_1-R
I0419 12:35:06.096755 32100 net.cpp:367] relu3_1-R -> conv3_1-R (in-place)
I0419 12:35:06.097172 32100 net.cpp:122] Setting up relu3_1-R
I0419 12:35:06.097190 32100 net.cpp:129] Top shape: 1 256 178 178 (8111104)
I0419 12:35:06.097198 32100 net.cpp:137] Memory required for data: 2164513824
I0419 12:35:06.097203 32100 layer_factory.hpp:77] Creating layer conv3_2-R
I0419 12:35:06.097228 32100 net.cpp:84] Creating Layer conv3_2-R
I0419 12:35:06.097234 32100 net.cpp:406] conv3_2-R <- conv3_1-R
I0419 12:35:06.097254 32100 net.cpp:380] conv3_2-R -> conv3_2-R
I0419 12:35:06.102676 32100 net.cpp:122] Setting up conv3_2-R
I0419 12:35:06.102695 32100 net.cpp:129] Top shape: 1 256 178 178 (8111104)
I0419 12:35:06.102700 32100 net.cpp:137] Memory required for data: 2196958240
I0419 12:35:06.102710 32100 layer_factory.hpp:77] Creating layer relu3_2-R
I0419 12:35:06.102717 32100 net.cpp:84] Creating Layer relu3_2-R
I0419 12:35:06.102722 32100 net.cpp:406] relu3_2-R <- conv3_2-R
I0419 12:35:06.102735 32100 net.cpp:367] relu3_2-R -> conv3_2-R (in-place)
I0419 12:35:06.103008 32100 net.cpp:122] Setting up relu3_2-R
I0419 12:35:06.103021 32100 net.cpp:129] Top shape: 1 256 178 178 (8111104)
I0419 12:35:06.103026 32100 net.cpp:137] Memory required for data: 2229402656
I0419 12:35:06.103032 32100 layer_factory.hpp:77] Creating layer conv3_3-R
I0419 12:35:06.103055 32100 net.cpp:84] Creating Layer conv3_3-R
I0419 12:35:06.103060 32100 net.cpp:406] conv3_3-R <- conv3_2-R
I0419 12:35:06.103066 32100 net.cpp:380] conv3_3-R -> conv3_3-R
I0419 12:35:06.110769 32100 net.cpp:122] Setting up conv3_3-R
I0419 12:35:06.110817 32100 net.cpp:129] Top shape: 1 256 178 178 (8111104)
I0419 12:35:06.110821 32100 net.cpp:137] Memory required for data: 2261847072
I0419 12:35:06.110834 32100 layer_factory.hpp:77] Creating layer relu3_3-R
I0419 12:35:06.110858 32100 net.cpp:84] Creating Layer relu3_3-R
I0419 12:35:06.110865 32100 net.cpp:406] relu3_3-R <- conv3_3-R
I0419 12:35:06.110873 32100 net.cpp:367] relu3_3-R -> conv3_3-R (in-place)
I0419 12:35:06.111083 32100 net.cpp:122] Setting up relu3_3-R
I0419 12:35:06.111094 32100 net.cpp:129] Top shape: 1 256 178 178 (8111104)
I0419 12:35:06.111097 32100 net.cpp:137] Memory required for data: 2294291488
I0419 12:35:06.111101 32100 layer_factory.hpp:77] Creating layer pool3-R
I0419 12:35:06.111111 32100 net.cpp:84] Creating Layer pool3-R
I0419 12:35:06.111115 32100 net.cpp:406] pool3-R <- conv3_3-R
I0419 12:35:06.111122 32100 net.cpp:380] pool3-R -> pool3-R
I0419 12:35:06.111176 32100 net.cpp:122] Setting up pool3-R
I0419 12:35:06.111184 32100 net.cpp:129] Top shape: 1 256 89 89 (2027776)
I0419 12:35:06.111187 32100 net.cpp:137] Memory required for data: 2302402592
I0419 12:35:06.111191 32100 layer_factory.hpp:77] Creating layer pool3-R_pool3-R_0_split
I0419 12:35:06.111201 32100 net.cpp:84] Creating Layer pool3-R_pool3-R_0_split
I0419 12:35:06.111204 32100 net.cpp:406] pool3-R_pool3-R_0_split <- pool3-R
I0419 12:35:06.111212 32100 net.cpp:380] pool3-R_pool3-R_0_split -> pool3-R_pool3-R_0_split_0
I0419 12:35:06.111218 32100 net.cpp:380] pool3-R_pool3-R_0_split -> pool3-R_pool3-R_0_split_1
I0419 12:35:06.111256 32100 net.cpp:122] Setting up pool3-R_pool3-R_0_split
I0419 12:35:06.111269 32100 net.cpp:129] Top shape: 1 256 89 89 (2027776)
I0419 12:35:06.111274 32100 net.cpp:129] Top shape: 1 256 89 89 (2027776)
I0419 12:35:06.111277 32100 net.cpp:137] Memory required for data: 2318624800
I0419 12:35:06.111287 32100 layer_factory.hpp:77] Creating layer conv4_1-R
I0419 12:35:06.111304 32100 net.cpp:84] Creating Layer conv4_1-R
I0419 12:35:06.111308 32100 net.cpp:406] conv4_1-R <- pool3-R_pool3-R_0_split_0
I0419 12:35:06.111318 32100 net.cpp:380] conv4_1-R -> conv4_1-R
I0419 12:35:06.116343 32100 net.cpp:122] Setting up conv4_1-R
I0419 12:35:06.116375 32100 net.cpp:129] Top shape: 1 512 89 89 (4055552)
I0419 12:35:06.116379 32100 net.cpp:137] Memory required for data: 2334847008
I0419 12:35:06.116389 32100 layer_factory.hpp:77] Creating layer relu4_1-R
I0419 12:35:06.116405 32100 net.cpp:84] Creating Layer relu4_1-R
I0419 12:35:06.116408 32100 net.cpp:406] relu4_1-R <- conv4_1-R
I0419 12:35:06.116415 32100 net.cpp:367] relu4_1-R -> conv4_1-R (in-place)
I0419 12:35:06.116623 32100 net.cpp:122] Setting up relu4_1-R
I0419 12:35:06.116634 32100 net.cpp:129] Top shape: 1 512 89 89 (4055552)
I0419 12:35:06.116637 32100 net.cpp:137] Memory required for data: 2351069216
I0419 12:35:06.116641 32100 layer_factory.hpp:77] Creating layer conv4_2-R
I0419 12:35:06.116662 32100 net.cpp:84] Creating Layer conv4_2-R
I0419 12:35:06.116667 32100 net.cpp:406] conv4_2-R <- conv4_1-R
I0419 12:35:06.116672 32100 net.cpp:380] conv4_2-R -> conv4_2-R
I0419 12:35:06.124128 32100 net.cpp:122] Setting up conv4_2-R
I0419 12:35:06.124163 32100 net.cpp:129] Top shape: 1 512 89 89 (4055552)
I0419 12:35:06.124168 32100 net.cpp:137] Memory required for data: 2367291424
I0419 12:35:06.124176 32100 layer_factory.hpp:77] Creating layer relu4_2-R
I0419 12:35:06.124188 32100 net.cpp:84] Creating Layer relu4_2-R
I0419 12:35:06.124194 32100 net.cpp:406] relu4_2-R <- conv4_2-R
I0419 12:35:06.124202 32100 net.cpp:367] relu4_2-R -> conv4_2-R (in-place)
I0419 12:35:06.124397 32100 net.cpp:122] Setting up relu4_2-R
I0419 12:35:06.124410 32100 net.cpp:129] Top shape: 1 512 89 89 (4055552)
I0419 12:35:06.124414 32100 net.cpp:137] Memory required for data: 2383513632
I0419 12:35:06.124424 32100 layer_factory.hpp:77] Creating layer conv4_3-R
I0419 12:35:06.124450 32100 net.cpp:84] Creating Layer conv4_3-R
I0419 12:35:06.124454 32100 net.cpp:406] conv4_3-R <- conv4_2-R
I0419 12:35:06.124477 32100 net.cpp:380] conv4_3-R -> conv4_3-R
I0419 12:35:06.132024 32100 net.cpp:122] Setting up conv4_3-R
I0419 12:35:06.132062 32100 net.cpp:129] Top shape: 1 512 89 89 (4055552)
I0419 12:35:06.132066 32100 net.cpp:137] Memory required for data: 2399735840
I0419 12:35:06.132076 32100 layer_factory.hpp:77] Creating layer relu4_3-R
I0419 12:35:06.132093 32100 net.cpp:84] Creating Layer relu4_3-R
I0419 12:35:06.132099 32100 net.cpp:406] relu4_3-R <- conv4_3-R
I0419 12:35:06.132107 32100 net.cpp:367] relu4_3-R -> conv4_3-R (in-place)
I0419 12:35:06.132756 32100 net.cpp:122] Setting up relu4_3-R
I0419 12:35:06.132769 32100 net.cpp:129] Top shape: 1 512 89 89 (4055552)
I0419 12:35:06.132789 32100 net.cpp:137] Memory required for data: 2415958048
I0419 12:35:06.132793 32100 layer_factory.hpp:77] Creating layer pool4-R
I0419 12:35:06.132809 32100 net.cpp:84] Creating Layer pool4-R
I0419 12:35:06.132814 32100 net.cpp:406] pool4-R <- conv4_3-R
I0419 12:35:06.132834 32100 net.cpp:380] pool4-R -> pool4-R
I0419 12:35:06.132887 32100 net.cpp:122] Setting up pool4-R
I0419 12:35:06.132905 32100 net.cpp:129] Top shape: 1 512 45 45 (1036800)
I0419 12:35:06.132908 32100 net.cpp:137] Memory required for data: 2420105248
I0419 12:35:06.132911 32100 layer_factory.hpp:77] Creating layer pool4-R_pool4-R_0_split
I0419 12:35:06.132917 32100 net.cpp:84] Creating Layer pool4-R_pool4-R_0_split
I0419 12:35:06.132921 32100 net.cpp:406] pool4-R_pool4-R_0_split <- pool4-R
I0419 12:35:06.132932 32100 net.cpp:380] pool4-R_pool4-R_0_split -> pool4-R_pool4-R_0_split_0
I0419 12:35:06.132939 32100 net.cpp:380] pool4-R_pool4-R_0_split -> pool4-R_pool4-R_0_split_1
I0419 12:35:06.132978 32100 net.cpp:122] Setting up pool4-R_pool4-R_0_split
I0419 12:35:06.132992 32100 net.cpp:129] Top shape: 1 512 45 45 (1036800)
I0419 12:35:06.132995 32100 net.cpp:129] Top shape: 1 512 45 45 (1036800)
I0419 12:35:06.132998 32100 net.cpp:137] Memory required for data: 2428399648
I0419 12:35:06.133007 32100 layer_factory.hpp:77] Creating layer conv5_1-R
I0419 12:35:06.133015 32100 net.cpp:84] Creating Layer conv5_1-R
I0419 12:35:06.133019 32100 net.cpp:406] conv5_1-R <- pool4-R_pool4-R_0_split_0
I0419 12:35:06.133025 32100 net.cpp:380] conv5_1-R -> conv5_1-R
I0419 12:35:06.147567 32100 net.cpp:122] Setting up conv5_1-R
I0419 12:35:06.147603 32100 net.cpp:129] Top shape: 1 512 45 45 (1036800)
I0419 12:35:06.147606 32100 net.cpp:137] Memory required for data: 2432546848
I0419 12:35:06.147670 32100 layer_factory.hpp:77] Creating layer relu5_1-R
I0419 12:35:06.147678 32100 net.cpp:84] Creating Layer relu5_1-R
I0419 12:35:06.147683 32100 net.cpp:406] relu5_1-R <- conv5_1-R
I0419 12:35:06.147691 32100 net.cpp:367] relu5_1-R -> conv5_1-R (in-place)
I0419 12:35:06.147903 32100 net.cpp:122] Setting up relu5_1-R
I0419 12:35:06.147914 32100 net.cpp:129] Top shape: 1 512 45 45 (1036800)
I0419 12:35:06.147917 32100 net.cpp:137] Memory required for data: 2436694048
I0419 12:35:06.147922 32100 layer_factory.hpp:77] Creating layer conv5_2-R
I0419 12:35:06.147945 32100 net.cpp:84] Creating Layer conv5_2-R
I0419 12:35:06.147950 32100 net.cpp:406] conv5_2-R <- conv5_1-R
I0419 12:35:06.147963 32100 net.cpp:380] conv5_2-R -> conv5_2-R
I0419 12:35:06.161128 32100 net.cpp:122] Setting up conv5_2-R
I0419 12:35:06.161166 32100 net.cpp:129] Top shape: 1 512 45 45 (1036800)
I0419 12:35:06.161172 32100 net.cpp:137] Memory required for data: 2440841248
I0419 12:35:06.161183 32100 layer_factory.hpp:77] Creating layer relu5_2-R
I0419 12:35:06.161195 32100 net.cpp:84] Creating Layer relu5_2-R
I0419 12:35:06.161201 32100 net.cpp:406] relu5_2-R <- conv5_2-R
I0419 12:35:06.161211 32100 net.cpp:367] relu5_2-R -> conv5_2-R (in-place)
I0419 12:35:06.161500 32100 net.cpp:122] Setting up relu5_2-R
I0419 12:35:06.161514 32100 net.cpp:129] Top shape: 1 512 45 45 (1036800)
I0419 12:35:06.161520 32100 net.cpp:137] Memory required for data: 2444988448
I0419 12:35:06.161537 32100 layer_factory.hpp:77] Creating layer conv5_3-R
I0419 12:35:06.161558 32100 net.cpp:84] Creating Layer conv5_3-R
I0419 12:35:06.161563 32100 net.cpp:406] conv5_3-R <- conv5_2-R
I0419 12:35:06.161574 32100 net.cpp:380] conv5_3-R -> conv5_3-R
I0419 12:35:06.171589 32100 net.cpp:122] Setting up conv5_3-R
I0419 12:35:06.171624 32100 net.cpp:129] Top shape: 1 512 45 45 (1036800)
I0419 12:35:06.171629 32100 net.cpp:137] Memory required for data: 2449135648
I0419 12:35:06.171636 32100 layer_factory.hpp:77] Creating layer relu5_3-R
I0419 12:35:06.171645 32100 net.cpp:84] Creating Layer relu5_3-R
I0419 12:35:06.171650 32100 net.cpp:406] relu5_3-R <- conv5_3-R
I0419 12:35:06.171656 32100 net.cpp:367] relu5_3-R -> conv5_3-R (in-place)
I0419 12:35:06.171852 32100 net.cpp:122] Setting up relu5_3-R
I0419 12:35:06.171864 32100 net.cpp:129] Top shape: 1 512 45 45 (1036800)
I0419 12:35:06.171866 32100 net.cpp:137] Memory required for data: 2453282848
I0419 12:35:06.171870 32100 layer_factory.hpp:77] Creating layer pool5-R
I0419 12:35:06.171890 32100 net.cpp:84] Creating Layer pool5-R
I0419 12:35:06.171892 32100 net.cpp:406] pool5-R <- conv5_3-R
I0419 12:35:06.171903 32100 net.cpp:380] pool5-R -> pool5-R
I0419 12:35:06.171957 32100 net.cpp:122] Setting up pool5-R
I0419 12:35:06.171967 32100 net.cpp:129] Top shape: 1 512 23 23 (270848)
I0419 12:35:06.171969 32100 net.cpp:137] Memory required for data: 2454366240
I0419 12:35:06.171973 32100 layer_factory.hpp:77] Creating layer fc6-R
I0419 12:35:06.171983 32100 net.cpp:84] Creating Layer fc6-R
I0419 12:35:06.171988 32100 net.cpp:406] fc6-R <- pool5-R
I0419 12:35:06.172003 32100 net.cpp:380] fc6-R -> fc6-R
I0419 12:35:06.460369 32100 net.cpp:122] Setting up fc6-R
I0419 12:35:06.460419 32100 net.cpp:129] Top shape: 1 4096 17 17 (1183744)
I0419 12:35:06.460424 32100 net.cpp:137] Memory required for data: 2459101216
I0419 12:35:06.460449 32100 layer_factory.hpp:77] Creating layer relu6-R
I0419 12:35:06.460465 32100 net.cpp:84] Creating Layer relu6-R
I0419 12:35:06.460471 32100 net.cpp:406] relu6-R <- fc6-R
I0419 12:35:06.460479 32100 net.cpp:367] relu6-R -> fc6-R (in-place)
I0419 12:35:06.460670 32100 net.cpp:122] Setting up relu6-R
I0419 12:35:06.460680 32100 net.cpp:129] Top shape: 1 4096 17 17 (1183744)
I0419 12:35:06.460685 32100 net.cpp:137] Memory required for data: 2463836192
I0419 12:35:06.460687 32100 layer_factory.hpp:77] Creating layer drop6-R
I0419 12:35:06.460705 32100 net.cpp:84] Creating Layer drop6-R
I0419 12:35:06.460708 32100 net.cpp:406] drop6-R <- fc6-R
I0419 12:35:06.460713 32100 net.cpp:367] drop6-R -> fc6-R (in-place)
I0419 12:35:06.460744 32100 net.cpp:122] Setting up drop6-R
I0419 12:35:06.460749 32100 net.cpp:129] Top shape: 1 4096 17 17 (1183744)
I0419 12:35:06.460752 32100 net.cpp:137] Memory required for data: 2468571168
I0419 12:35:06.460755 32100 layer_factory.hpp:77] Creating layer fc7-R
I0419 12:35:06.460767 32100 net.cpp:84] Creating Layer fc7-R
I0419 12:35:06.460772 32100 net.cpp:406] fc7-R <- fc6-R
I0419 12:35:06.460783 32100 net.cpp:380] fc7-R -> fc7-R
I0419 12:35:06.508888 32100 net.cpp:122] Setting up fc7-R
I0419 12:35:06.508935 32100 net.cpp:129] Top shape: 1 4096 17 17 (1183744)
I0419 12:35:06.508940 32100 net.cpp:137] Memory required for data: 2473306144
I0419 12:35:06.508952 32100 layer_factory.hpp:77] Creating layer relu7-R
I0419 12:35:06.508965 32100 net.cpp:84] Creating Layer relu7-R
I0419 12:35:06.508972 32100 net.cpp:406] relu7-R <- fc7-R
I0419 12:35:06.508980 32100 net.cpp:367] relu7-R -> fc7-R (in-place)
I0419 12:35:06.509196 32100 net.cpp:122] Setting up relu7-R
I0419 12:35:06.509207 32100 net.cpp:129] Top shape: 1 4096 17 17 (1183744)
I0419 12:35:06.509210 32100 net.cpp:137] Memory required for data: 2478041120
I0419 12:35:06.509228 32100 layer_factory.hpp:77] Creating layer drop7-R
I0419 12:35:06.509248 32100 net.cpp:84] Creating Layer drop7-R
I0419 12:35:06.509253 32100 net.cpp:406] drop7-R <- fc7-R
I0419 12:35:06.509258 32100 net.cpp:367] drop7-R -> fc7-R (in-place)
I0419 12:35:06.509294 32100 net.cpp:122] Setting up drop7-R
I0419 12:35:06.509306 32100 net.cpp:129] Top shape: 1 4096 17 17 (1183744)
I0419 12:35:06.509310 32100 net.cpp:137] Memory required for data: 2482776096
I0419 12:35:06.509312 32100 layer_factory.hpp:77] Creating layer score_fr-new-R
I0419 12:35:06.509322 32100 net.cpp:84] Creating Layer score_fr-new-R
I0419 12:35:06.509326 32100 net.cpp:406] score_fr-new-R <- fc7-R
I0419 12:35:06.509335 32100 net.cpp:380] score_fr-new-R -> score_fr-new-R
I0419 12:35:06.515583 32100 net.cpp:122] Setting up score_fr-new-R
I0419 12:35:06.515626 32100 net.cpp:129] Top shape: 1 3 17 17 (867)
I0419 12:35:06.515630 32100 net.cpp:137] Memory required for data: 2482779564
I0419 12:35:06.515640 32100 layer_factory.hpp:77] Creating layer upscore2-new-R
I0419 12:35:06.515652 32100 net.cpp:84] Creating Layer upscore2-new-R
I0419 12:35:06.515657 32100 net.cpp:406] upscore2-new-R <- score_fr-new-R
I0419 12:35:06.515666 32100 net.cpp:380] upscore2-new-R -> upscore2-new-R
I0419 12:35:06.515909 32100 net.cpp:122] Setting up upscore2-new-R
I0419 12:35:06.515919 32100 net.cpp:129] Top shape: 1 3 36 36 (3888)
I0419 12:35:06.515923 32100 net.cpp:137] Memory required for data: 2482795116
I0419 12:35:06.515928 32100 layer_factory.hpp:77] Creating layer upscore2-new-R_upscore2-new-R_0_split
I0419 12:35:06.515935 32100 net.cpp:84] Creating Layer upscore2-new-R_upscore2-new-R_0_split
I0419 12:35:06.515939 32100 net.cpp:406] upscore2-new-R_upscore2-new-R_0_split <- upscore2-new-R
I0419 12:35:06.515944 32100 net.cpp:380] upscore2-new-R_upscore2-new-R_0_split -> upscore2-new-R_upscore2-new-R_0_split_0
I0419 12:35:06.515951 32100 net.cpp:380] upscore2-new-R_upscore2-new-R_0_split -> upscore2-new-R_upscore2-new-R_0_split_1
I0419 12:35:06.515993 32100 net.cpp:122] Setting up upscore2-new-R_upscore2-new-R_0_split
I0419 12:35:06.516000 32100 net.cpp:129] Top shape: 1 3 36 36 (3888)
I0419 12:35:06.516003 32100 net.cpp:129] Top shape: 1 3 36 36 (3888)
I0419 12:35:06.516006 32100 net.cpp:137] Memory required for data: 2482826220
I0419 12:35:06.516010 32100 layer_factory.hpp:77] Creating layer score_pool4-new-R
I0419 12:35:06.516036 32100 net.cpp:84] Creating Layer score_pool4-new-R
I0419 12:35:06.516041 32100 net.cpp:406] score_pool4-new-R <- pool4-R_pool4-R_0_split_1
I0419 12:35:06.516048 32100 net.cpp:380] score_pool4-new-R -> score_pool4-new-R
I0419 12:35:06.517400 32100 net.cpp:122] Setting up score_pool4-new-R
I0419 12:35:06.517415 32100 net.cpp:129] Top shape: 1 3 45 45 (6075)
I0419 12:35:06.517433 32100 net.cpp:137] Memory required for data: 2482850520
I0419 12:35:06.517441 32100 layer_factory.hpp:77] Creating layer score_pool4c-R
I0419 12:35:06.517448 32100 net.cpp:84] Creating Layer score_pool4c-R
I0419 12:35:06.517453 32100 net.cpp:406] score_pool4c-R <- score_pool4-new-R
I0419 12:35:06.517458 32100 net.cpp:406] score_pool4c-R <- upscore2-new-R_upscore2-new-R_0_split_0
I0419 12:35:06.517465 32100 net.cpp:380] score_pool4c-R -> score_pool4c-R
I0419 12:35:06.517499 32100 net.cpp:122] Setting up score_pool4c-R
I0419 12:35:06.517505 32100 net.cpp:129] Top shape: 1 3 36 36 (3888)
I0419 12:35:06.517508 32100 net.cpp:137] Memory required for data: 2482866072
I0419 12:35:06.517511 32100 layer_factory.hpp:77] Creating layer fuse_pool4-R
I0419 12:35:06.517519 32100 net.cpp:84] Creating Layer fuse_pool4-R
I0419 12:35:06.517524 32100 net.cpp:406] fuse_pool4-R <- upscore2-new-R_upscore2-new-R_0_split_1
I0419 12:35:06.517527 32100 net.cpp:406] fuse_pool4-R <- score_pool4c-R
I0419 12:35:06.517534 32100 net.cpp:380] fuse_pool4-R -> fuse_pool4-R
I0419 12:35:06.517561 32100 net.cpp:122] Setting up fuse_pool4-R
I0419 12:35:06.517566 32100 net.cpp:129] Top shape: 1 3 36 36 (3888)
I0419 12:35:06.517570 32100 net.cpp:137] Memory required for data: 2482881624
I0419 12:35:06.517572 32100 layer_factory.hpp:77] Creating layer upscore_pool4-new-R
I0419 12:35:06.517581 32100 net.cpp:84] Creating Layer upscore_pool4-new-R
I0419 12:35:06.517585 32100 net.cpp:406] upscore_pool4-new-R <- fuse_pool4-R
I0419 12:35:06.517592 32100 net.cpp:380] upscore_pool4-new-R -> upscore_pool4-new-R
I0419 12:35:06.517812 32100 net.cpp:122] Setting up upscore_pool4-new-R
I0419 12:35:06.517820 32100 net.cpp:129] Top shape: 1 3 74 74 (16428)
I0419 12:35:06.517823 32100 net.cpp:137] Memory required for data: 2482947336
I0419 12:35:06.517829 32100 layer_factory.hpp:77] Creating layer upscore_pool4-new-R_upscore_pool4-new-R_0_split
I0419 12:35:06.517837 32100 net.cpp:84] Creating Layer upscore_pool4-new-R_upscore_pool4-new-R_0_split
I0419 12:35:06.517839 32100 net.cpp:406] upscore_pool4-new-R_upscore_pool4-new-R_0_split <- upscore_pool4-new-R
I0419 12:35:06.517845 32100 net.cpp:380] upscore_pool4-new-R_upscore_pool4-new-R_0_split -> upscore_pool4-new-R_upscore_pool4-new-R_0_split_0
I0419 12:35:06.517853 32100 net.cpp:380] upscore_pool4-new-R_upscore_pool4-new-R_0_split -> upscore_pool4-new-R_upscore_pool4-new-R_0_split_1
I0419 12:35:06.517894 32100 net.cpp:122] Setting up upscore_pool4-new-R_upscore_pool4-new-R_0_split
I0419 12:35:06.517899 32100 net.cpp:129] Top shape: 1 3 74 74 (16428)
I0419 12:35:06.517904 32100 net.cpp:129] Top shape: 1 3 74 74 (16428)
I0419 12:35:06.517906 32100 net.cpp:137] Memory required for data: 2483078760
I0419 12:35:06.517918 32100 layer_factory.hpp:77] Creating layer score_pool3-new-R
I0419 12:35:06.517926 32100 net.cpp:84] Creating Layer score_pool3-new-R
I0419 12:35:06.517931 32100 net.cpp:406] score_pool3-new-R <- pool3-R_pool3-R_0_split_1
I0419 12:35:06.517940 32100 net.cpp:380] score_pool3-new-R -> score_pool3-new-R
I0419 12:35:06.520922 32100 net.cpp:122] Setting up score_pool3-new-R
I0419 12:35:06.520984 32100 net.cpp:129] Top shape: 1 3 89 89 (23763)
I0419 12:35:06.520995 32100 net.cpp:137] Memory required for data: 2483173812
I0419 12:35:06.521016 32100 layer_factory.hpp:77] Creating layer score_pool3c-R
I0419 12:35:06.521046 32100 net.cpp:84] Creating Layer score_pool3c-R
I0419 12:35:06.521059 32100 net.cpp:406] score_pool3c-R <- score_pool3-new-R
I0419 12:35:06.521075 32100 net.cpp:406] score_pool3c-R <- upscore_pool4-new-R_upscore_pool4-new-R_0_split_0
I0419 12:35:06.521100 32100 net.cpp:380] score_pool3c-R -> score_pool3c-R
I0419 12:35:06.521173 32100 net.cpp:122] Setting up score_pool3c-R
I0419 12:35:06.521193 32100 net.cpp:129] Top shape: 1 3 74 74 (16428)
I0419 12:35:06.521209 32100 net.cpp:137] Memory required for data: 2483239524
I0419 12:35:06.521215 32100 layer_factory.hpp:77] Creating layer fuse_pool3-R
I0419 12:35:06.521234 32100 net.cpp:84] Creating Layer fuse_pool3-R
I0419 12:35:06.521241 32100 net.cpp:406] fuse_pool3-R <- upscore_pool4-new-R_upscore_pool4-new-R_0_split_1
I0419 12:35:06.521272 32100 net.cpp:406] fuse_pool3-R <- score_pool3c-R
I0419 12:35:06.521288 32100 net.cpp:380] fuse_pool3-R -> fuse_pool3-R
I0419 12:35:06.521356 32100 net.cpp:122] Setting up fuse_pool3-R
I0419 12:35:06.521370 32100 net.cpp:129] Top shape: 1 3 74 74 (16428)
I0419 12:35:06.521378 32100 net.cpp:137] Memory required for data: 2483305236
I0419 12:35:06.521385 32100 layer_factory.hpp:77] Creating layer upscore8-new-R
I0419 12:35:06.521407 32100 net.cpp:84] Creating Layer upscore8-new-R
I0419 12:35:06.521416 32100 net.cpp:406] upscore8-new-R <- fuse_pool3-R
I0419 12:35:06.521440 32100 net.cpp:380] upscore8-new-R -> upscore8-new-R
I0419 12:35:06.522003 32100 net.cpp:122] Setting up upscore8-new-R
I0419 12:35:06.522020 32100 net.cpp:129] Top shape: 1 3 600 600 (1080000)
I0419 12:35:06.522027 32100 net.cpp:137] Memory required for data: 2487625236
I0419 12:35:06.522042 32100 layer_factory.hpp:77] Creating layer upscore8_cropped-R
I0419 12:35:06.522053 32100 net.cpp:84] Creating Layer upscore8_cropped-R
I0419 12:35:06.522061 32100 net.cpp:406] upscore8_cropped-R <- upscore8-new-R
I0419 12:35:06.522073 32100 net.cpp:406] upscore8_cropped-R <- data-R_crop_0_split_1
I0419 12:35:06.522084 32100 net.cpp:380] upscore8_cropped-R -> upscore8_cropped-R
I0419 12:35:06.522147 32100 net.cpp:122] Setting up upscore8_cropped-R
I0419 12:35:06.522186 32100 net.cpp:129] Top shape: 1 3 512 512 (786432)
I0419 12:35:06.522194 32100 net.cpp:137] Memory required for data: 2490770964
I0419 12:35:06.522202 32100 layer_factory.hpp:77] Creating layer score-R
I0419 12:35:06.522219 32100 net.cpp:84] Creating Layer score-R
I0419 12:35:06.522228 32100 net.cpp:406] score-R <- upscore8_cropped-R
I0419 12:35:06.522258 32100 net.cpp:380] score-R -> score-R
I0419 12:35:06.532837 32100 net.cpp:122] Setting up score-R
I0419 12:35:06.532883 32100 net.cpp:129] Top shape: 1 3 512 512 (786432)
I0419 12:35:06.532891 32100 net.cpp:137] Memory required for data: 2493916692
I0419 12:35:06.532908 32100 layer_factory.hpp:77] Creating layer score_uncropped-R
I0419 12:35:06.533474 32100 net.cpp:84] Creating Layer score_uncropped-R
I0419 12:35:06.533495 32100 net.cpp:406] score_uncropped-R <- crop_info
I0419 12:35:06.533519 32100 net.cpp:406] score_uncropped-R <- score-R
I0419 12:35:06.533529 32100 net.cpp:406] score_uncropped-R <- data_data_0_split_3
I0419 12:35:06.533540 32100 net.cpp:380] score_uncropped-R -> score_uncropped-R
I0419 12:35:06.537075 32100 net.cpp:122] Setting up score_uncropped-R
I0419 12:35:06.537117 32100 net.cpp:129] Top shape: 1 3 512 512 (786432)
I0419 12:35:06.537125 32100 net.cpp:137] Memory required for data: 2497062420
I0419 12:35:06.537133 32100 layer_factory.hpp:77] Creating layer loss1
I0419 12:35:06.537159 32100 net.cpp:84] Creating Layer loss1
I0419 12:35:06.537176 32100 net.cpp:406] loss1 <- score_score_0_split_1
I0419 12:35:06.537189 32100 net.cpp:406] loss1 <- label_data_1_split_1
I0419 12:35:06.537199 32100 net.cpp:380] loss1 -> loss1
…
