…
snapshot_prefix: "/media/Med_2T2/data2/models/snapshots/joint:1e-5x10,1e-5x10,20/FD0:XI3_1_20180418_201415,XJ3_1_20180419_085537/train"
test_initialization: false
average_loss: 20
stepvalue: 45000
stepvalue: 50000
stepvalue: 55000
iter_size: 1
I0419 08:55:38.491916 28917 solver.cpp:77] Creating training net from train_net file: /media/Med_2T2/data2/prototxts/training_J3x10.prototxt
I0419 08:55:38.494757 28917 net.cpp:51] Initializing net from parameters: 
state {
  phase: TRAIN
}
layer {
  name: "data"
  type: "Python"
  top: "data"
  top: "label"
  top: "crop_margin"
  top: "crop_prob"
  top: "crop_sample_batch"
  python_param {
    module: "Data"
    layer: "DataLayer"
  }
}
layer {
  name: "conv1_1"
  type: "Convolution"
  bottom: "data"
  top: "conv1_1"
  param {
    lr_mult: 1
    decay_mult: 1
  }
  param {
    lr_mult: 2
    decay_mult: 0
  }
  convolution_param {
    num_output: 64
    pad: 100
    kernel_size: 3
    stride: 1
  }
}
layer {
  name: "relu1_1"
  type: "ReLU"
  bottom: "conv1_1"
  top: "conv1_1"
}
layer {
  name: "conv1_2"
  type: "Convolution"
  bottom: "conv1_1"
  top: "conv1_2"
  param {
    lr_mult: 1
    decay_mult: 1
  }
  param {
    lr_mult: 2
    decay_mult: 0
  }
  convolution_param {
    num_output: 64
    pad: 1
    kernel_size: 3
    stride: 1
  }
}
layer {
  name: "relu1_2"
  type: "ReLU"
  bottom: "conv1_2"
  top: "conv1_2"
}
layer {
  name: "pool1"
  type: "Pooling"
  bottom: "conv1_2"
  top: "pool1"
  pooling_param {
    pool: MAX
    kernel_size: 2
    stride: 2
  }
}
layer {
  name: "conv2_1"
  type: "Convolution"
  bottom: "pool1"
  top: "conv2_1"
  param {
    lr_mult: 1
    decay_mult: 1
  }
  param {
    lr_mult: 2
    decay_mult: 0
  }
  convolution_param {
    num_output: 128
    pad: 1
    kernel_size: 3
    stride: 1
  }
}
layer {
  name: "relu2_1"
  type: "ReLU"
  bottom: "conv2_1"
  top: "conv2_1"
}
layer {
  name: "conv2_2"
  type: "Convolution"
  bottom: "conv2_1"
  top: "conv2_2"
  param {
    lr_mult: 1
    decay_mult: 1
  }
  param {
    lr_mult: 2
    decay_mult: 0
  }
  convolution_param {
    num_output: 128
    pad: 1
    kernel_size: 3
    stride: 1
  }
}
layer {
  name: "relu2_2"
  type: "ReLU"
  bottom: "conv2_2"
  top: "conv2_2"
}
layer {
  name: "pool2"
  type: "Pooling"
  bottom: "conv2_2"
  top: "pool2"
  pooling_param {
    pool: MAX
    kernel_size: 2
    stride: 2
  }
}
layer {
  name: "conv3_1"
  type: "Convolution"
  bottom: "pool2"
  top: "conv3_1"
  param {
    lr_mult: 1
    decay_mult: 1
  }
  param {
    lr_mult: 2
    decay_mult: 0
  }
  convolution_param {
    num_output: 256
    pad: 1
    kernel_size: 3
    stride: 1
  }
}
layer {
  name: "relu3_1"
  type: "ReLU"
  bottom: "conv3_1"
  top: "conv3_1"
}
layer {
  name: "conv3_2"
  type: "Convolution"
  bottom: "conv3_1"
  top: "conv3_2"
  param {
    lr_mult: 1
    decay_mult: 1
  }
  param {
    lr_mult: 2
    decay_mult: 0
  }
  convolution_param {
    num_output: 256
    pad: 1
    kernel_size: 3
    stride: 1
  }
}
layer {
  name: "relu3_2"
  type: "ReLU"
  bottom: "conv3_2"
  top: "conv3_2"
}
layer {
  name: "conv3_3"
  type: "Convolution"
  bottom: "conv3_2"
  top: "conv3_3"
  param {
    lr_mult: 1
    decay_mult: 1
  }
  param {
    lr_mult: 2
    decay_mult: 0
  }
  convolution_param {
    num_output: 256
    pad: 1
    kernel_size: 3
    stride: 1
  }
}
layer {
  name: "relu3_3"
  type: "ReLU"
  bottom: "conv3_3"
  top: "conv3_3"
}
layer {
  name: "pool3"
  type: "Pooling"
  bottom: "conv3_3"
  top: "pool3"
  pooling_param {
    pool: MAX
    kernel_size: 2
    stride: 2
  }
}
layer {
  name: "conv4_1"
  type: "Convolution"
  bottom: "pool3"
  top: "conv4_1"
  param {
    lr_mult: 1
    decay_mult: 1
  }
  param {
    lr_mult: 2
    decay_mult: 0
  }
  convolution_param {
    num_output: 512
    pad: 1
    kernel_size: 3
    stride: 1
  }
}
layer {
  name: "relu4_1"
  type: "ReLU"
  bottom: "conv4_1"
  top: "conv4_1"
}
layer {
  name: "conv4_2"
  type: "Convolution"
  bottom: "conv4_1"
  top: "conv4_2"
  param {
    lr_mult: 1
    decay_mult: 1
  }
  param {
    lr_mult: 2
    decay_mult: 0
  }
  convolution_param {
    num_output: 512
    pad: 1
    kernel_size: 3
    stride: 1
  }
}
layer {
  name: "relu4_2"
  type: "ReLU"
  bottom: "conv4_2"
  top: "conv4_2"
}
layer {
  name: "conv4_3"
  type: "Convolution"
  bottom: "conv4_2"
  top: "conv4_3"
  param {
    lr_mult: 1
    decay_mult: 1
  }
  param {
    lr_mult: 2
    decay_mult: 0
  }
  convolution_param {
    num_output: 512
    pad: 1
    kernel_size: 3
    stride: 1
  }
}
layer {
  name: "relu4_3"
  type: "ReLU"
  bottom: "conv4_3"
  top: "conv4_3"
}
layer {
  name: "pool4"
  type: "Pooling"
  bottom: "conv4_3"
  top: "pool4"
  pooling_param {
    pool: MAX
    kernel_size: 2
    stride: 2
  }
}
layer {
  name: "conv5_1"
  type: "Convolution"
  bottom: "pool4"
  top: "conv5_1"
  param {
    lr_mult: 1
    decay_mult: 1
  }
  param {
    lr_mult: 2
    decay_mult: 0
  }
  convolution_param {
    num_output: 512
    pad: 1
    kernel_size: 3
    stride: 1
  }
}
layer {
  name: "relu5_1"
  type: "ReLU"
  bottom: "conv5_1"
  top: "conv5_1"
}
layer {
  name: "conv5_2"
  type: "Convolution"
  bottom: "conv5_1"
  top: "conv5_2"
  param {
    lr_mult: 1
    decay_mult: 1
  }
  param {
    lr_mult: 2
    decay_mult: 0
  }
  convolution_param {
    num_output: 512
    pad: 1
    kernel_size: 3
    stride: 1
  }
}
layer {
  name: "relu5_2"
  type: "ReLU"
  bottom: "conv5_2"
  top: "conv5_2"
}
layer {
  name: "conv5_3"
  type: "Convolution"
  bottom: "conv5_2"
  top: "conv5_3"
  param {
    lr_mult: 1
    decay_mult: 1
  }
  param {
    lr_mult: 2
    decay_mult: 0
  }
  convolution_param {
    num_output: 512
    pad: 1
    kernel_size: 3
    stride: 1
  }
}
layer {
  name: "relu5_3"
  type: "ReLU"
  bottom: "conv5_3"
  top: "conv5_3"
}
layer {
  name: "pool5"
  type: "Pooling"
  bottom: "conv5_3"
  top: "pool5"
  pooling_param {
    pool: MAX
    kernel_size: 2
    stride: 2
  }
}
layer {
  name: "fc6"
  type: "Convolution"
  bottom: "pool5"
  top: "fc6"
  param {
    lr_mult: 1
    decay_mult: 1
  }
  param {
    lr_mult: 2
    decay_mult: 0
  }
  convolution_param {
    num_output: 4096
    pad: 0
    kernel_size: 7
    stride: 1
  }
}
layer {
  name: "relu6"
  type: "ReLU"
  bottom: "fc6"
  top: "fc6"
}
layer {
  name: "drop6"
  type: "Dropout"
  bottom: "fc6"
  top: "fc6"
  dropout_param {
    dropout_ratio: 0.5
  }
}
layer {
  name: "fc7"
  type: "Convolution"
  bottom: "fc6"
  top: "fc7"
  param {
    lr_mult: 1
    decay_mult: 1
  }
  param {
    lr_mult: 2
    decay_mult: 0
  }
  convolution_param {
    num_output: 4096
    pad: 0
    kernel_size: 1
    stride: 1
  }
}
layer {
  name: "relu7"
  type: "ReLU"
  bottom: "fc7"
  top: "fc7"
}
layer {
  name: "drop7"
  type: "Dropout"
  bottom: "fc7"
  top: "fc7"
  dropout_param {
    dropout_ratio: 0.5
  }
}
layer {
  name: "score_fr-new"
  type: "Convolution"
  bottom: "fc7"
  top: "score_fr-new"
  param {
    lr_mult: 1
    decay_mult: 1
  }
  param {
    lr_mult: 2
    decay_mult: 0
  }
  convolution_param {
    num_output: 3
    kernel_size: 1
  }
}
layer {
  name: "upscore2-new"
  type: "Deconvolution"
  bottom: "score_fr-new"
  top: "upscore2-new"
  param {
    lr_mult: 0
  }
  convolution_param {
    num_output: 3
    bias_term: false
    kernel_size: 4
    stride: 2
  }
}
layer {
  name: "score_pool4-new"
  type: "Convolution"
  bottom: "pool4"
  top: "score_pool4-new"
  param {
    lr_mult: 1
    decay_mult: 1
  }
  param {
    lr_mult: 2
    decay_mult: 0
  }
  convolution_param {
    num_output: 3
    pad: 0
    kernel_size: 1
  }
}
layer {
  name: "score_pool4c"
  type: "Crop"
  bottom: "score_pool4-new"
  bottom: "upscore2-new"
  top: "score_pool4c"
  crop_param {
    axis: 2
    offset: 5
  }
}
layer {
  name: "fuse_pool4"
  type: "Eltwise"
  bottom: "upscore2-new"
  bottom: "score_pool4c"
  top: "fuse_pool4"
  eltwise_param {
    operation: SUM
  }
}
layer {
  name: "upscore_pool4-new"
  type: "Deconvolution"
  bottom: "fuse_pool4"
  top: "upscore_pool4-new"
  param {
    lr_mult: 0
  }
  convolution_param {
    num_output: 3
    bias_term: false
    kernel_size: 4
    stride: 2
  }
}
layer {
  name: "score_pool3-new"
  type: "Convolution"
  bottom: "pool3"
  top: "score_pool3-new"
  param {
    lr_mult: 1
    decay_mult: 1
  }
  param {
    lr_mult: 2
    decay_mult: 0
  }
  convolution_param {
    num_output: 3
    pad: 0
    kernel_size: 1
  }
}
layer {
  name: "score_pool3c"
  type: "Crop"
  bottom: "score_pool3-new"
  bottom: "upscore_pool4-new"
  top: "score_pool3c"
  crop_param {
    axis: 2
    offset: 9
  }
}
layer {
  name: "fuse_pool3"
  type: "Eltwise"
  bottom: "upscore_pool4-new"
  bottom: "score_pool3c"
  top: "fuse_pool3"
  eltwise_param {
    operation: SUM
  }
}
layer {
  name: "upscore8-new"
  type: "Deconvolution"
  bottom: "fuse_pool3"
  top: "upscore8-new"
  param {
    lr_mult: 0
  }
  convolution_param {
    num_output: 3
    bias_term: false
    kernel_size: 16
    stride: 8
  }
}
layer {
  name: "upscore8_cropped"
  type: "Crop"
  bottom: "upscore8-new"
  bottom: "data"
  top: "upscore8_cropped"
  crop_param {
    axis: 2
    offset: 31
  }
}
layer {
  name: "score"
  type: "Convolution"
  bottom: "upscore8_cropped"
  top: "score"
  param {
    lr_mult: 1
    decay_mult: 1
  }
  param {
    lr_mult: 2
    decay_mult: 0
  }
  convolution_param {
    num_output: 3
    pad: 1
    kernel_size: 3
    stride: 1
  }
}
layer {
  name: "prob"
  type: "Sigmoid"
  bottom: "score"
  top: "prob"
}
layer {
  name: "saliency"
  type: "Convolution"
  bottom: "prob"
  top: "saliency"
  param {
    lr_mult: 10
    decay_mult: 1
  }
  param {
    lr_mult: 20
    decay_mult: 0
  }
  convolution_param {
    num_output: 3
    pad: 2
    kernel_size: 5
    stride: 1
  }
}
layer {
  name: "saliency_data"
  type: "Eltwise"
  bottom: "data"
  bottom: "saliency"
  top: "saliency_data"
  eltwise_param {
    operation: PROD
  }
}
layer {
  name: "crop"
  type: "Python"
  bottom: "prob"
  bottom: "saliency_data"
  bottom: "crop_margin"
  bottom: "crop_prob"
  bottom: "crop_sample_batch"
  bottom: "label"
  top: "data-R"
  top: "crop_info"
  python_param {
    module: "Crop"
    layer: "CropLayer"
    param_str: "{\"TEST\": 0}"
  }
}
layer {
  name: "conv1_1-R"
  type: "Convolution"
  bottom: "data-R"
  top: "conv1_1-R"
  param {
    lr_mult: 10
    decay_mult: 1
  }
  param {
    lr_mult: 20
    decay_mult: 0
  }
  convolution_param {
    num_output: 64
    pad: 100
    kernel_size: 3
    stride: 1
  }
}
layer {
  name: "relu1_1-R"
  type: "ReLU"
  bottom: "conv1_1-R"
  top: "conv1_1-R"
}
layer {
  name: "conv1_2-R"
  type: "Convolution"
  bottom: "conv1_1-R"
  top: "conv1_2-R"
  param {
    lr_mult: 10
    decay_mult: 1
  }
  param {
    lr_mult: 20
    decay_mult: 0
  }
  convolution_param {
    num_output: 64
    pad: 1
    kernel_size: 3
    stride: 1
  }
}
layer {
  name: "relu1_2-R"
  type: "ReLU"
  bottom: "conv1_2-R"
  top: "conv1_2-R"
}
layer {
  name: "pool1-R"
  type: "Pooling"
  bottom: "conv1_2-R"
  top: "pool1-R"
  pooling_param {
    pool: MAX
    kernel_size: 2
    stride: 2
  }
}
layer {
  name: "conv2_1-R"
  type: "Convolution"
  bottom: "pool1-R"
  top: "conv2_1-R"
  param {
    lr_mult: 10
    decay_mult: 1
  }
  param {
    lr_mult: 20
    decay_mult: 0
  }
  convolution_param {
    num_output: 128
    pad: 1
    kernel_size: 3
    stride: 1
  }
}
layer {
  name: "relu2_1-R"
  type: "ReLU"
  bottom: "conv2_1-R"
  top: "conv2_1-R"
}
layer {
  name: "conv2_2-R"
  type: "Convolution"
  bottom: "conv2_1-R"
  top: "conv2_2-R"
  param {
    lr_mult: 10
    decay_mult: 1
  }
  param {
    lr_mult: 20
    decay_mult: 0
  }
  convolution_param {
    num_output: 128
    pad: 1
    kernel_size: 3
    stride: 1
  }
}
layer {
  name: "relu2_2-R"
  type: "ReLU"
  bottom: "conv2_2-R"
  top: "conv2_2-R"
}
layer {
  name: "pool2-R"
  type: "Pooling"
  bottom: "conv2_2-R"
  top: "pool2-R"
  pooling_param {
    pool: MAX
    kernel_size: 2
    stride: 2
  }
}
layer {
  name: "conv3_1-R"
  type: "Convolution"
  bottom: "pool2-R"
  top: "conv3_1-R"
  param {
    lr_mult: 10
    decay_mult: 1
  }
  param {
    lr_mult: 20
    decay_mult: 0
  }
  convolution_param {
    num_output: 256
    pad: 1
    kernel_size: 3
    stride: 1
  }
}
layer {
  name: "relu3_1-R"
  type: "ReLU"
  bottom: "conv3_1-R"
  top: "conv3_1-R"
}
layer {
  name: "conv3_2-R"
  type: "Convolution"
  bottom: "conv3_1-R"
  top: "conv3_2-R"
  param {
    lr_mult: 10
    decay_mult: 1
  }
  param {
    lr_mult: 20
    decay_mult: 0
  }
  convolution_param {
    num_output: 256
    pad: 1
    kernel_size: 3
    stride: 1
  }
}
layer {
  name: "relu3_2-R"
  type: "ReLU"
  bottom: "conv3_2-R"
  top: "conv3_2-R"
}
layer {
  name: "conv3_3-R"
  type: "Convolution"
  bottom: "conv3_2-R"
  top: "conv3_3-R"
  param {
    lr_mult: 10
    decay_mult: 1
  }
  param {
    lr_mult: 20
    decay_mult: 0
  }
  convolution_param {
    num_output: 256
    pad: 1
    kernel_size: 3
    stride: 1
  }
}
layer {
  name: "relu3_3-R"
  type: "ReLU"
  bottom: "conv3_3-R"
  top: "conv3_3-R"
}
layer {
  name: "pool3-R"
  type: "Pooling"
  bottom: "conv3_3-R"
  top: "pool3-R"
  pooling_param {
    pool: MAX
    kernel_size: 2
    stride: 2
  }
}
layer {
  name: "conv4_1-R"
  type: "Convolution"
  bottom: "pool3-R"
  top: "conv4_1-R"
  param {
    lr_mult: 10
    decay_mult: 1
  }
  param {
    lr_mult: 20
    decay_mult: 0
  }
  convolution_param {
    num_output: 512
    pad: 1
    kernel_size: 3
    stride: 1
  }
}
layer {
  name: "relu4_1-R"
  type: "ReLU"
  bottom: "conv4_1-R"
  top: "conv4_1-R"
}
layer {
  name: "conv4_2-R"
  type: "Convolution"
  bottom: "conv4_1-R"
  top: "conv4_2-R"
  param {
    lr_mult: 10
    decay_mult: 1
  }
  param {
    lr_mult: 20
    decay_mult: 0
  }
  convolution_param {
    num_output: 512
    pad: 1
    kernel_size: 3
    stride: 1
  }
}
layer {
  name: "relu4_2-R"
  type: "ReLU"
  bottom: "conv4_2-R"
  top: "conv4_2-R"
}
layer {
  name: "conv4_3-R"
  type: "Convolution"
  bottom: "conv4_2-R"
  top: "conv4_3-R"
  param {
    lr_mult: 10
    decay_mult: 1
  }
  param {
    lr_mult: 20
    decay_mult: 0
  }
  convolution_param {
    num_output: 512
    pad: 1
    kernel_size: 3
    stride: 1
  }
}
layer {
  name: "relu4_3-R"
  type: "ReLU"
  bottom: "conv4_3-R"
  top: "conv4_3-R"
}
layer {
  name: "pool4-R"
  type: "Pooling"
  bottom: "conv4_3-R"
  top: "pool4-R"
  pooling_param {
    pool: MAX
    kernel_size: 2
    stride: 2
  }
}
layer {
  name: "conv5_1-R"
  type: "Convolution"
  bottom: "pool4-R"
  top: "conv5_1-R"
  param {
    lr_mult: 10
    decay_mult: 1
  }
  param {
    lr_mult: 20
    decay_mult: 0
  }
  convolution_param {
    num_output: 512
    pad: 1
    kernel_size: 3
    stride: 1
  }
}
layer {
  name: "relu5_1-R"
  type: "ReLU"
  bottom: "conv5_1-R"
  top: "conv5_1-R"
}
layer {
  name: "conv5_2-R"
  type: "Convolution"
  bottom: "conv5_1-R"
  top: "conv5_2-R"
  param {
    lr_mult: 10
    decay_mult: 1
  }
  param {
    lr_mult: 20
    decay_mult: 0
  }
  convolution_param {
    num_output: 512
    pad: 1
    kernel_size: 3
    stride: 1
  }
}
layer {
  name: "relu5_2-R"
  type: "ReLU"
  bottom: "conv5_2-R"
  top: "conv5_2-R"
}
layer {
  name: "conv5_3-R"
  type: "Convolution"
  bottom: "conv5_2-R"
  top: "conv5_3-R"
  param {
    lr_mult: 10
    decay_mult: 1
  }
  param {
    lr_mult: 20
    decay_mult: 0
  }
  convolution_param {
    num_output: 512
    pad: 1
    kernel_size: 3
    stride: 1
  }
}
layer {
  name: "relu5_3-R"
  type: "ReLU"
  bottom: "conv5_3-R"
  top: "conv5_3-R"
}
layer {
  name: "pool5-R"
  type: "Pooling"
  bottom: "conv5_3-R"
  top: "pool5-R"
  pooling_param {
    pool: MAX
    kernel_size: 2
    stride: 2
  }
}
layer {
  name: "fc6-R"
  type: "Convolution"
  bottom: "pool5-R"
  top: "fc6-R"
  param {
    lr_mult: 10
    decay_mult: 1
  }
  param {
    lr_mult: 20
    decay_mult: 0
  }
  convolution_param {
    num_output: 4096
    pad: 0
    kernel_size: 7
    stride: 1
  }
}
layer {
  name: "relu6-R"
  type: "ReLU"
  bottom: "fc6-R"
  top: "fc6-R"
}
layer {
  name: "drop6-R"
  type: "Dropout"
  bottom: "fc6-R"
  top: "fc6-R"
  dropout_param {
    dropout_ratio: 0.5
  }
}
layer {
  name: "fc7-R"
  type: "Convolution"
  bottom: "fc6-R"
  top: "fc7-R"
  param {
    lr_mult: 10
    decay_mult: 1
  }
  param {
    lr_mult: 20
    decay_mult: 0
  }
  convolution_param {
    num_output: 4096
    pad: 0
    kernel_size: 1
    stride: 1
  }
}
layer {
  name: "relu7-R"
  type: "ReLU"
  bottom: "fc7-R"
  top: "fc7-R"
}
layer {
  name: "drop7-R"
  type: "Dropout"
  bottom: "fc7-R"
  top: "fc7-R"
  dropout_param {
    dropout_ratio: 0.5
  }
}
layer {
  name: "score_fr-new-R"
  type: "Convolution"
  bottom: "fc7-R"
  top: "score_fr-new-R"
  param {
    lr_mult: 10
    decay_mult: 1
  }
  param {
    lr_mult: 20
    decay_mult: 0
  }
  convolution_param {
    num_output: 3
    kernel_size: 1
  }
}
layer {
  name: "upscore2-new-R"
  type: "Deconvolution"
  bottom: "score_fr-new-R"
  top: "upscore2-new-R"
  param {
    lr_mult: 0
  }
  convolution_param {
    num_output: 3
    bias_term: false
    kernel_size: 4
    stride: 2
  }
}
layer {
  name: "score_pool4-new-R"
  type: "Convolution"
  bottom: "pool4-R"
  top: "score_pool4-new-R"
  param {
    lr_mult: 10
    decay_mult: 1
  }
  param {
    lr_mult: 20
    decay_mult: 0
  }
  convolution_param {
    num_output: 3
    pad: 0
    kernel_size: 1
  }
}
layer {
  name: "score_pool4c-R"
  type: "Crop"
  bottom: "score_pool4-new-R"
  bottom: "upscore2-new-R"
  top: "score_pool4c-R"
  crop_param {
    axis: 2
    offset: 5
  }
}
layer {
  name: "fuse_pool4-R"
  type: "Eltwise"
  bottom: "upscore2-new-R"
  bottom: "score_pool4c-R"
  top: "fuse_pool4-R"
  eltwise_param {
    operation: SUM
  }
}
layer {
  name: "upscore_pool4-new-R"
  type: "Deconvolution"
  bottom: "fuse_pool4-R"
  top: "upscore_pool4-new-R"
  param {
    lr_mult: 0
  }
  convolution_param {
    num_output: 3
    bias_term: false
    kernel_size: 4
    stride: 2
  }
}
layer {
  name: "score_pool3-new-R"
  type: "Convolution"
  bottom: "pool3-R"
  top: "score_pool3-new-R"
  param {
    lr_mult: 10
    decay_mult: 1
  }
  param {
    lr_mult: 20
    decay_mult: 0
  }
  convolution_param {
    num_output: 3
    pad: 0
    kernel_size: 1
  }
}
layer {
  name: "score_pool3c-R"
  type: "Crop"
  bottom: "score_pool3-new-R"
  bottom: "upscore_pool4-new-R"
  top: "score_pool3c-R"
  crop_param {
    axis: 2
    offset: 9
  }
}
layer {
  name: "fuse_pool3-R"
  type: "Eltwise"
  bottom: "upscore_pool4-new-R"
  bottom: "score_pool3c-R"
  top: "fuse_pool3-R"
  eltwise_param {
    operation: SUM
  }
}
layer {
  name: "upscore8-new-R"
  type: "Deconvolution"
  bottom: "fuse_pool3-R"
  top: "upscore8-new-R"
  param {
    lr_mult: 0
  }
  convolution_param {
    num_output: 3
    bias_term: false
    kernel_size: 16
    stride: 8
  }
}
layer {
  name: "upscore8_cropped-R"
  type: "Crop"
  bottom: "upscore8-new-R"
  bottom: "data-R"
  top: "upscore8_cropped-R"
  crop_param {
    axis: 2
    offset: 31
  }
}
layer {
  name: "score-R"
  type: "Convolution"
  bottom: "upscore8_cropped-R"
  top: "score-R"
  param {
    lr_mult: 10
    decay_mult: 1
  }
  param {
    lr_mult: 20
    decay_mult: 0
  }
  convolution_param {
    num_output: 3
    pad: 1
    kernel_size: 3
    stride: 1
  }
}
layer {
  name: "score_uncropped-R"
  type: "Python"
  bottom: "crop_info"
  bottom: "score-R"
  bottom: "data"
  top: "score_uncropped-R"
  python_param {
    module: "Uncrop"
    layer: "UncropLayer"
  }
}
layer {
  name: "loss1"
  type: "DiceLoss"
  bottom: "score"
  bottom: "label"
  top: "loss1"
  loss_weight: 0.333333
}
layer {
  name: "loss2"
  type: "DiceLoss"
  bottom: "score_uncropped-R"
  bottom: "label"
  top: "loss2"
  loss_weight: 0.666667
}
I0419 08:55:38.495657 28917 layer_factory.hpp:77] Creating layer data
I0419 08:55:38.496510 28917 net.cpp:84] Creating Layer data
I0419 08:55:38.496532 28917 net.cpp:380] data -> data
I0419 08:55:38.496559 28917 net.cpp:380] data -> label
I0419 08:55:38.496572 28917 net.cpp:380] data -> crop_margin
I0419 08:55:38.496583 28917 net.cpp:380] data -> crop_prob
I0419 08:55:38.496594 28917 net.cpp:380] data -> crop_sample_batch
I0419 08:55:38.680531 28917 net.cpp:122] Setting up data
I0419 08:55:38.680575 28917 net.cpp:129] Top shape: 1 3 512 310 (476160)
I0419 08:55:38.680585 28917 net.cpp:129] Top shape: 1 3 512 310 (476160)
I0419 08:55:38.680593 28917 net.cpp:129] Top shape: 1 (1)
I0419 08:55:38.680611 28917 net.cpp:129] Top shape: 1 (1)
I0419 08:55:38.680618 28917 net.cpp:129] Top shape: 1 (1)
I0419 08:55:38.680624 28917 net.cpp:137] Memory required for data: 3809292
I0419 08:55:38.680634 28917 layer_factory.hpp:77] Creating layer data_data_0_split
I0419 08:55:38.680658 28917 net.cpp:84] Creating Layer data_data_0_split
I0419 08:55:38.680667 28917 net.cpp:406] data_data_0_split <- data
I0419 08:55:38.680685 28917 net.cpp:380] data_data_0_split -> data_data_0_split_0
I0419 08:55:38.680704 28917 net.cpp:380] data_data_0_split -> data_data_0_split_1
I0419 08:55:38.680722 28917 net.cpp:380] data_data_0_split -> data_data_0_split_2
I0419 08:55:38.680733 28917 net.cpp:380] data_data_0_split -> data_data_0_split_3
I0419 08:55:38.680814 28917 net.cpp:122] Setting up data_data_0_split
I0419 08:55:38.680825 28917 net.cpp:129] Top shape: 1 3 512 310 (476160)
I0419 08:55:38.680833 28917 net.cpp:129] Top shape: 1 3 512 310 (476160)
I0419 08:55:38.680842 28917 net.cpp:129] Top shape: 1 3 512 310 (476160)
I0419 08:55:38.680850 28917 net.cpp:129] Top shape: 1 3 512 310 (476160)
I0419 08:55:38.680856 28917 net.cpp:137] Memory required for data: 11427852
I0419 08:55:38.680865 28917 layer_factory.hpp:77] Creating layer label_data_1_split
I0419 08:55:38.680874 28917 net.cpp:84] Creating Layer label_data_1_split
I0419 08:55:38.680881 28917 net.cpp:406] label_data_1_split <- label
I0419 08:55:38.680892 28917 net.cpp:380] label_data_1_split -> label_data_1_split_0
I0419 08:55:38.680903 28917 net.cpp:380] label_data_1_split -> label_data_1_split_1
I0419 08:55:38.680914 28917 net.cpp:380] label_data_1_split -> label_data_1_split_2
I0419 08:55:38.680966 28917 net.cpp:122] Setting up label_data_1_split
I0419 08:55:38.680977 28917 net.cpp:129] Top shape: 1 3 512 310 (476160)
I0419 08:55:38.680986 28917 net.cpp:129] Top shape: 1 3 512 310 (476160)
I0419 08:55:38.680994 28917 net.cpp:129] Top shape: 1 3 512 310 (476160)
I0419 08:55:38.681001 28917 net.cpp:137] Memory required for data: 17141772
I0419 08:55:38.681008 28917 layer_factory.hpp:77] Creating layer conv1_1
I0419 08:55:38.681031 28917 net.cpp:84] Creating Layer conv1_1
I0419 08:55:38.681041 28917 net.cpp:406] conv1_1 <- data_data_0_split_0
I0419 08:55:38.681052 28917 net.cpp:380] conv1_1 -> conv1_1
I0419 08:55:39.083716 28917 net.cpp:122] Setting up conv1_1
I0419 08:55:39.083760 28917 net.cpp:129] Top shape: 1 64 710 508 (23083520)
I0419 08:55:39.083765 28917 net.cpp:137] Memory required for data: 109475852
I0419 08:55:39.083796 28917 layer_factory.hpp:77] Creating layer relu1_1
I0419 08:55:39.083825 28917 net.cpp:84] Creating Layer relu1_1
I0419 08:55:39.083833 28917 net.cpp:406] relu1_1 <- conv1_1
I0419 08:55:39.083842 28917 net.cpp:367] relu1_1 -> conv1_1 (in-place)
I0419 08:55:39.084062 28917 net.cpp:122] Setting up relu1_1
I0419 08:55:39.084075 28917 net.cpp:129] Top shape: 1 64 710 508 (23083520)
I0419 08:55:39.084079 28917 net.cpp:137] Memory required for data: 201809932
I0419 08:55:39.084084 28917 layer_factory.hpp:77] Creating layer conv1_2
I0419 08:55:39.084097 28917 net.cpp:84] Creating Layer conv1_2
I0419 08:55:39.084102 28917 net.cpp:406] conv1_2 <- conv1_1
I0419 08:55:39.084110 28917 net.cpp:380] conv1_2 -> conv1_2
I0419 08:55:39.088688 28917 net.cpp:122] Setting up conv1_2
I0419 08:55:39.088707 28917 net.cpp:129] Top shape: 1 64 710 508 (23083520)
I0419 08:55:39.088712 28917 net.cpp:137] Memory required for data: 294144012
I0419 08:55:39.088726 28917 layer_factory.hpp:77] Creating layer relu1_2
I0419 08:55:39.088733 28917 net.cpp:84] Creating Layer relu1_2
I0419 08:55:39.088738 28917 net.cpp:406] relu1_2 <- conv1_2
I0419 08:55:39.088745 28917 net.cpp:367] relu1_2 -> conv1_2 (in-place)
I0419 08:55:39.088964 28917 net.cpp:122] Setting up relu1_2
I0419 08:55:39.088976 28917 net.cpp:129] Top shape: 1 64 710 508 (23083520)
I0419 08:55:39.088980 28917 net.cpp:137] Memory required for data: 386478092
I0419 08:55:39.088985 28917 layer_factory.hpp:77] Creating layer pool1
I0419 08:55:39.088995 28917 net.cpp:84] Creating Layer pool1
I0419 08:55:39.088999 28917 net.cpp:406] pool1 <- conv1_2
I0419 08:55:39.089006 28917 net.cpp:380] pool1 -> pool1
I0419 08:55:39.089063 28917 net.cpp:122] Setting up pool1
I0419 08:55:39.089072 28917 net.cpp:129] Top shape: 1 64 355 254 (5770880)
I0419 08:55:39.089076 28917 net.cpp:137] Memory required for data: 409561612
I0419 08:55:39.089081 28917 layer_factory.hpp:77] Creating layer conv2_1
I0419 08:55:39.089092 28917 net.cpp:84] Creating Layer conv2_1
I0419 08:55:39.089097 28917 net.cpp:406] conv2_1 <- pool1
I0419 08:55:39.089103 28917 net.cpp:380] conv2_1 -> conv2_1
I0419 08:55:39.092681 28917 net.cpp:122] Setting up conv2_1
I0419 08:55:39.092701 28917 net.cpp:129] Top shape: 1 128 355 254 (11541760)
I0419 08:55:39.092706 28917 net.cpp:137] Memory required for data: 455728652
I0419 08:55:39.092721 28917 layer_factory.hpp:77] Creating layer relu2_1
I0419 08:55:39.092730 28917 net.cpp:84] Creating Layer relu2_1
I0419 08:55:39.092734 28917 net.cpp:406] relu2_1 <- conv2_1
I0419 08:55:39.092741 28917 net.cpp:367] relu2_1 -> conv2_1 (in-place)
I0419 08:55:39.092998 28917 net.cpp:122] Setting up relu2_1
I0419 08:55:39.093009 28917 net.cpp:129] Top shape: 1 128 355 254 (11541760)
I0419 08:55:39.093014 28917 net.cpp:137] Memory required for data: 501895692
I0419 08:55:39.093019 28917 layer_factory.hpp:77] Creating layer conv2_2
I0419 08:55:39.093029 28917 net.cpp:84] Creating Layer conv2_2
I0419 08:55:39.093032 28917 net.cpp:406] conv2_2 <- conv2_1
I0419 08:55:39.093039 28917 net.cpp:380] conv2_2 -> conv2_2
I0419 08:55:39.096519 28917 net.cpp:122] Setting up conv2_2
I0419 08:55:39.096539 28917 net.cpp:129] Top shape: 1 128 355 254 (11541760)
I0419 08:55:39.096544 28917 net.cpp:137] Memory required for data: 548062732
I0419 08:55:39.096559 28917 layer_factory.hpp:77] Creating layer relu2_2
I0419 08:55:39.096565 28917 net.cpp:84] Creating Layer relu2_2
I0419 08:55:39.096571 28917 net.cpp:406] relu2_2 <- conv2_2
I0419 08:55:39.096577 28917 net.cpp:367] relu2_2 -> conv2_2 (in-place)
I0419 08:55:39.096793 28917 net.cpp:122] Setting up relu2_2
I0419 08:55:39.096804 28917 net.cpp:129] Top shape: 1 128 355 254 (11541760)
I0419 08:55:39.096808 28917 net.cpp:137] Memory required for data: 594229772
I0419 08:55:39.096813 28917 layer_factory.hpp:77] Creating layer pool2
I0419 08:55:39.096822 28917 net.cpp:84] Creating Layer pool2
I0419 08:55:39.096827 28917 net.cpp:406] pool2 <- conv2_2
I0419 08:55:39.096832 28917 net.cpp:380] pool2 -> pool2
I0419 08:55:39.096884 28917 net.cpp:122] Setting up pool2
I0419 08:55:39.096894 28917 net.cpp:129] Top shape: 1 128 178 127 (2893568)
I0419 08:55:39.096897 28917 net.cpp:137] Memory required for data: 605804044
I0419 08:55:39.096901 28917 layer_factory.hpp:77] Creating layer conv3_1
I0419 08:55:39.096911 28917 net.cpp:84] Creating Layer conv3_1
I0419 08:55:39.096915 28917 net.cpp:406] conv3_1 <- pool2
I0419 08:55:39.096921 28917 net.cpp:380] conv3_1 -> conv3_1
I0419 08:55:39.100857 28917 net.cpp:122] Setting up conv3_1
I0419 08:55:39.100880 28917 net.cpp:129] Top shape: 1 256 178 127 (5787136)
I0419 08:55:39.100895 28917 net.cpp:137] Memory required for data: 628952588
I0419 08:55:39.100909 28917 layer_factory.hpp:77] Creating layer relu3_1
I0419 08:55:39.100919 28917 net.cpp:84] Creating Layer relu3_1
I0419 08:55:39.100925 28917 net.cpp:406] relu3_1 <- conv3_1
I0419 08:55:39.100941 28917 net.cpp:367] relu3_1 -> conv3_1 (in-place)
I0419 08:55:39.101675 28917 net.cpp:122] Setting up relu3_1
I0419 08:55:39.101694 28917 net.cpp:129] Top shape: 1 256 178 127 (5787136)
I0419 08:55:39.101699 28917 net.cpp:137] Memory required for data: 652101132
I0419 08:55:39.101706 28917 layer_factory.hpp:77] Creating layer conv3_2
I0419 08:55:39.101727 28917 net.cpp:84] Creating Layer conv3_2
I0419 08:55:39.101732 28917 net.cpp:406] conv3_2 <- conv3_1
I0419 08:55:39.101742 28917 net.cpp:380] conv3_2 -> conv3_2
I0419 08:55:39.105906 28917 net.cpp:122] Setting up conv3_2
I0419 08:55:39.105927 28917 net.cpp:129] Top shape: 1 256 178 127 (5787136)
I0419 08:55:39.105933 28917 net.cpp:137] Memory required for data: 675249676
I0419 08:55:39.105948 28917 layer_factory.hpp:77] Creating layer relu3_2
I0419 08:55:39.105963 28917 net.cpp:84] Creating Layer relu3_2
I0419 08:55:39.105969 28917 net.cpp:406] relu3_2 <- conv3_2
I0419 08:55:39.105988 28917 net.cpp:367] relu3_2 -> conv3_2 (in-place)
I0419 08:55:39.106784 28917 net.cpp:122] Setting up relu3_2
I0419 08:55:39.106806 28917 net.cpp:129] Top shape: 1 256 178 127 (5787136)
I0419 08:55:39.106811 28917 net.cpp:137] Memory required for data: 698398220
I0419 08:55:39.106818 28917 layer_factory.hpp:77] Creating layer conv3_3
I0419 08:55:39.106833 28917 net.cpp:84] Creating Layer conv3_3
I0419 08:55:39.106839 28917 net.cpp:406] conv3_3 <- conv3_2
I0419 08:55:39.106861 28917 net.cpp:380] conv3_3 -> conv3_3
I0419 08:55:39.126292 28917 net.cpp:122] Setting up conv3_3
I0419 08:55:39.126315 28917 net.cpp:129] Top shape: 1 256 178 127 (5787136)
I0419 08:55:39.126322 28917 net.cpp:137] Memory required for data: 721546764
I0419 08:55:39.126336 28917 layer_factory.hpp:77] Creating layer relu3_3
I0419 08:55:39.126346 28917 net.cpp:84] Creating Layer relu3_3
I0419 08:55:39.126353 28917 net.cpp:406] relu3_3 <- conv3_3
I0419 08:55:39.126360 28917 net.cpp:367] relu3_3 -> conv3_3 (in-place)
I0419 08:55:39.126675 28917 net.cpp:122] Setting up relu3_3
I0419 08:55:39.126703 28917 net.cpp:129] Top shape: 1 256 178 127 (5787136)
I0419 08:55:39.126708 28917 net.cpp:137] Memory required for data: 744695308
I0419 08:55:39.126716 28917 layer_factory.hpp:77] Creating layer pool3
I0419 08:55:39.126729 28917 net.cpp:84] Creating Layer pool3
I0419 08:55:39.126736 28917 net.cpp:406] pool3 <- conv3_3
I0419 08:55:39.126750 28917 net.cpp:380] pool3 -> pool3
I0419 08:55:39.126842 28917 net.cpp:122] Setting up pool3
I0419 08:55:39.126855 28917 net.cpp:129] Top shape: 1 256 89 64 (1458176)
I0419 08:55:39.126863 28917 net.cpp:137] Memory required for data: 750528012
I0419 08:55:39.126868 28917 layer_factory.hpp:77] Creating layer pool3_pool3_0_split
I0419 08:55:39.126880 28917 net.cpp:84] Creating Layer pool3_pool3_0_split
I0419 08:55:39.126888 28917 net.cpp:406] pool3_pool3_0_split <- pool3
I0419 08:55:39.126901 28917 net.cpp:380] pool3_pool3_0_split -> pool3_pool3_0_split_0
I0419 08:55:39.126914 28917 net.cpp:380] pool3_pool3_0_split -> pool3_pool3_0_split_1
I0419 08:55:39.126983 28917 net.cpp:122] Setting up pool3_pool3_0_split
I0419 08:55:39.126996 28917 net.cpp:129] Top shape: 1 256 89 64 (1458176)
I0419 08:55:39.127005 28917 net.cpp:129] Top shape: 1 256 89 64 (1458176)
I0419 08:55:39.127012 28917 net.cpp:137] Memory required for data: 762193420
I0419 08:55:39.127017 28917 layer_factory.hpp:77] Creating layer conv4_1
I0419 08:55:39.127037 28917 net.cpp:84] Creating Layer conv4_1
I0419 08:55:39.127043 28917 net.cpp:406] conv4_1 <- pool3_pool3_0_split_0
I0419 08:55:39.127058 28917 net.cpp:380] conv4_1 -> conv4_1
I0419 08:55:39.148478 28917 net.cpp:122] Setting up conv4_1
I0419 08:55:39.148512 28917 net.cpp:129] Top shape: 1 512 89 64 (2916352)
I0419 08:55:39.148520 28917 net.cpp:137] Memory required for data: 773858828
I0419 08:55:39.148536 28917 layer_factory.hpp:77] Creating layer relu4_1
I0419 08:55:39.148553 28917 net.cpp:84] Creating Layer relu4_1
I0419 08:55:39.148562 28917 net.cpp:406] relu4_1 <- conv4_1
I0419 08:55:39.148574 28917 net.cpp:367] relu4_1 -> conv4_1 (in-place)
I0419 08:55:39.148975 28917 net.cpp:122] Setting up relu4_1
I0419 08:55:39.148994 28917 net.cpp:129] Top shape: 1 512 89 64 (2916352)
I0419 08:55:39.149001 28917 net.cpp:137] Memory required for data: 785524236
I0419 08:55:39.149008 28917 layer_factory.hpp:77] Creating layer conv4_2
I0419 08:55:39.149027 28917 net.cpp:84] Creating Layer conv4_2
I0419 08:55:39.149035 28917 net.cpp:406] conv4_2 <- conv4_1
I0419 08:55:39.149049 28917 net.cpp:380] conv4_2 -> conv4_2
I0419 08:55:39.161319 28917 net.cpp:122] Setting up conv4_2
I0419 08:55:39.161355 28917 net.cpp:129] Top shape: 1 512 89 64 (2916352)
I0419 08:55:39.161360 28917 net.cpp:137] Memory required for data: 797189644
I0419 08:55:39.161377 28917 layer_factory.hpp:77] Creating layer relu4_2
I0419 08:55:39.161401 28917 net.cpp:84] Creating Layer relu4_2
I0419 08:55:39.161408 28917 net.cpp:406] relu4_2 <- conv4_2
I0419 08:55:39.161415 28917 net.cpp:367] relu4_2 -> conv4_2 (in-place)
I0419 08:55:39.161659 28917 net.cpp:122] Setting up relu4_2
I0419 08:55:39.161672 28917 net.cpp:129] Top shape: 1 512 89 64 (2916352)
I0419 08:55:39.161676 28917 net.cpp:137] Memory required for data: 808855052
I0419 08:55:39.161680 28917 layer_factory.hpp:77] Creating layer conv4_3
I0419 08:55:39.161694 28917 net.cpp:84] Creating Layer conv4_3
I0419 08:55:39.161697 28917 net.cpp:406] conv4_3 <- conv4_2
I0419 08:55:39.161706 28917 net.cpp:380] conv4_3 -> conv4_3
I0419 08:55:39.170701 28917 net.cpp:122] Setting up conv4_3
I0419 08:55:39.170737 28917 net.cpp:129] Top shape: 1 512 89 64 (2916352)
I0419 08:55:39.170742 28917 net.cpp:137] Memory required for data: 820520460
I0419 08:55:39.170752 28917 layer_factory.hpp:77] Creating layer relu4_3
I0419 08:55:39.170764 28917 net.cpp:84] Creating Layer relu4_3
I0419 08:55:39.170770 28917 net.cpp:406] relu4_3 <- conv4_3
I0419 08:55:39.170789 28917 net.cpp:367] relu4_3 -> conv4_3 (in-place)
I0419 08:55:39.171015 28917 net.cpp:122] Setting up relu4_3
I0419 08:55:39.171027 28917 net.cpp:129] Top shape: 1 512 89 64 (2916352)
I0419 08:55:39.171031 28917 net.cpp:137] Memory required for data: 832185868
I0419 08:55:39.171036 28917 layer_factory.hpp:77] Creating layer pool4
I0419 08:55:39.171052 28917 net.cpp:84] Creating Layer pool4
I0419 08:55:39.171056 28917 net.cpp:406] pool4 <- conv4_3
I0419 08:55:39.171066 28917 net.cpp:380] pool4 -> pool4
I0419 08:55:39.171120 28917 net.cpp:122] Setting up pool4
I0419 08:55:39.171129 28917 net.cpp:129] Top shape: 1 512 45 32 (737280)
I0419 08:55:39.171133 28917 net.cpp:137] Memory required for data: 835134988
I0419 08:55:39.171138 28917 layer_factory.hpp:77] Creating layer pool4_pool4_0_split
I0419 08:55:39.171146 28917 net.cpp:84] Creating Layer pool4_pool4_0_split
I0419 08:55:39.171151 28917 net.cpp:406] pool4_pool4_0_split <- pool4
I0419 08:55:39.171157 28917 net.cpp:380] pool4_pool4_0_split -> pool4_pool4_0_split_0
I0419 08:55:39.171166 28917 net.cpp:380] pool4_pool4_0_split -> pool4_pool4_0_split_1
I0419 08:55:39.171207 28917 net.cpp:122] Setting up pool4_pool4_0_split
I0419 08:55:39.171216 28917 net.cpp:129] Top shape: 1 512 45 32 (737280)
I0419 08:55:39.171221 28917 net.cpp:129] Top shape: 1 512 45 32 (737280)
I0419 08:55:39.171224 28917 net.cpp:137] Memory required for data: 841033228
I0419 08:55:39.171227 28917 layer_factory.hpp:77] Creating layer conv5_1
I0419 08:55:39.171241 28917 net.cpp:84] Creating Layer conv5_1
I0419 08:55:39.171245 28917 net.cpp:406] conv5_1 <- pool4_pool4_0_split_0
I0419 08:55:39.171253 28917 net.cpp:380] conv5_1 -> conv5_1
I0419 08:55:39.180403 28917 net.cpp:122] Setting up conv5_1
I0419 08:55:39.180428 28917 net.cpp:129] Top shape: 1 512 45 32 (737280)
I0419 08:55:39.180443 28917 net.cpp:137] Memory required for data: 843982348
I0419 08:55:39.180451 28917 layer_factory.hpp:77] Creating layer relu5_1
I0419 08:55:39.180465 28917 net.cpp:84] Creating Layer relu5_1
I0419 08:55:39.180470 28917 net.cpp:406] relu5_1 <- conv5_1
I0419 08:55:39.180490 28917 net.cpp:367] relu5_1 -> conv5_1 (in-place)
I0419 08:55:39.181198 28917 net.cpp:122] Setting up relu5_1
I0419 08:55:39.181216 28917 net.cpp:129] Top shape: 1 512 45 32 (737280)
I0419 08:55:39.181231 28917 net.cpp:137] Memory required for data: 846931468
I0419 08:55:39.181234 28917 layer_factory.hpp:77] Creating layer conv5_2
I0419 08:55:39.181248 28917 net.cpp:84] Creating Layer conv5_2
I0419 08:55:39.181253 28917 net.cpp:406] conv5_2 <- conv5_1
I0419 08:55:39.181274 28917 net.cpp:380] conv5_2 -> conv5_2
I0419 08:55:39.189503 28917 net.cpp:122] Setting up conv5_2
I0419 08:55:39.189527 28917 net.cpp:129] Top shape: 1 512 45 32 (737280)
I0419 08:55:39.189541 28917 net.cpp:137] Memory required for data: 849880588
I0419 08:55:39.189550 28917 layer_factory.hpp:77] Creating layer relu5_2
I0419 08:55:39.189570 28917 net.cpp:84] Creating Layer relu5_2
I0419 08:55:39.189576 28917 net.cpp:406] relu5_2 <- conv5_2
I0419 08:55:39.189592 28917 net.cpp:367] relu5_2 -> conv5_2 (in-place)
I0419 08:55:39.190331 28917 net.cpp:122] Setting up relu5_2
I0419 08:55:39.190348 28917 net.cpp:129] Top shape: 1 512 45 32 (737280)
I0419 08:55:39.190353 28917 net.cpp:137] Memory required for data: 852829708
I0419 08:55:39.190366 28917 layer_factory.hpp:77] Creating layer conv5_3
I0419 08:55:39.190379 28917 net.cpp:84] Creating Layer conv5_3
I0419 08:55:39.190387 28917 net.cpp:406] conv5_3 <- conv5_2
I0419 08:55:39.190394 28917 net.cpp:380] conv5_3 -> conv5_3
I0419 08:55:39.199488 28917 net.cpp:122] Setting up conv5_3
I0419 08:55:39.199527 28917 net.cpp:129] Top shape: 1 512 45 32 (737280)
I0419 08:55:39.199532 28917 net.cpp:137] Memory required for data: 855778828
I0419 08:55:39.199543 28917 layer_factory.hpp:77] Creating layer relu5_3
I0419 08:55:39.199555 28917 net.cpp:84] Creating Layer relu5_3
I0419 08:55:39.199561 28917 net.cpp:406] relu5_3 <- conv5_3
I0419 08:55:39.199579 28917 net.cpp:367] relu5_3 -> conv5_3 (in-place)
I0419 08:55:39.199811 28917 net.cpp:122] Setting up relu5_3
I0419 08:55:39.199836 28917 net.cpp:129] Top shape: 1 512 45 32 (737280)
I0419 08:55:39.199841 28917 net.cpp:137] Memory required for data: 858727948
I0419 08:55:39.199844 28917 layer_factory.hpp:77] Creating layer pool5
I0419 08:55:39.199853 28917 net.cpp:84] Creating Layer pool5
I0419 08:55:39.199857 28917 net.cpp:406] pool5 <- conv5_3
I0419 08:55:39.199875 28917 net.cpp:380] pool5 -> pool5
I0419 08:55:39.199940 28917 net.cpp:122] Setting up pool5
I0419 08:55:39.199949 28917 net.cpp:129] Top shape: 1 512 23 16 (188416)
I0419 08:55:39.199954 28917 net.cpp:137] Memory required for data: 859481612
I0419 08:55:39.199957 28917 layer_factory.hpp:77] Creating layer fc6
I0419 08:55:39.199971 28917 net.cpp:84] Creating Layer fc6
I0419 08:55:39.199975 28917 net.cpp:406] fc6 <- pool5
I0419 08:55:39.199986 28917 net.cpp:380] fc6 -> fc6
I0419 08:55:39.541177 28917 net.cpp:122] Setting up fc6
I0419 08:55:39.541225 28917 net.cpp:129] Top shape: 1 4096 17 10 (696320)
I0419 08:55:39.541231 28917 net.cpp:137] Memory required for data: 862266892
I0419 08:55:39.541247 28917 layer_factory.hpp:77] Creating layer relu6
I0419 08:55:39.541261 28917 net.cpp:84] Creating Layer relu6
I0419 08:55:39.541267 28917 net.cpp:406] relu6 <- fc6
I0419 08:55:39.541276 28917 net.cpp:367] relu6 -> fc6 (in-place)
I0419 08:55:39.541543 28917 net.cpp:122] Setting up relu6
I0419 08:55:39.541554 28917 net.cpp:129] Top shape: 1 4096 17 10 (696320)
I0419 08:55:39.541558 28917 net.cpp:137] Memory required for data: 865052172
I0419 08:55:39.541563 28917 layer_factory.hpp:77] Creating layer drop6
I0419 08:55:39.541577 28917 net.cpp:84] Creating Layer drop6
I0419 08:55:39.541581 28917 net.cpp:406] drop6 <- fc6
I0419 08:55:39.541590 28917 net.cpp:367] drop6 -> fc6 (in-place)
I0419 08:55:39.541637 28917 net.cpp:122] Setting up drop6
I0419 08:55:39.541646 28917 net.cpp:129] Top shape: 1 4096 17 10 (696320)
I0419 08:55:39.541649 28917 net.cpp:137] Memory required for data: 867837452
I0419 08:55:39.541653 28917 layer_factory.hpp:77] Creating layer fc7
I0419 08:55:39.541666 28917 net.cpp:84] Creating Layer fc7
I0419 08:55:39.541671 28917 net.cpp:406] fc7 <- fc6
I0419 08:55:39.541677 28917 net.cpp:380] fc7 -> fc7
I0419 08:55:39.590708 28917 net.cpp:122] Setting up fc7
I0419 08:55:39.590754 28917 net.cpp:129] Top shape: 1 4096 17 10 (696320)
I0419 08:55:39.590757 28917 net.cpp:137] Memory required for data: 870622732
I0419 08:55:39.590768 28917 layer_factory.hpp:77] Creating layer relu7
I0419 08:55:39.590782 28917 net.cpp:84] Creating Layer relu7
I0419 08:55:39.590788 28917 net.cpp:406] relu7 <- fc7
I0419 08:55:39.590796 28917 net.cpp:367] relu7 -> fc7 (in-place)
I0419 08:55:39.590998 28917 net.cpp:122] Setting up relu7
I0419 08:55:39.591008 28917 net.cpp:129] Top shape: 1 4096 17 10 (696320)
I0419 08:55:39.591012 28917 net.cpp:137] Memory required for data: 873408012
I0419 08:55:39.591014 28917 layer_factory.hpp:77] Creating layer drop7
I0419 08:55:39.591022 28917 net.cpp:84] Creating Layer drop7
I0419 08:55:39.591025 28917 net.cpp:406] drop7 <- fc7
I0419 08:55:39.591032 28917 net.cpp:367] drop7 -> fc7 (in-place)
I0419 08:55:39.591063 28917 net.cpp:122] Setting up drop7
I0419 08:55:39.591068 28917 net.cpp:129] Top shape: 1 4096 17 10 (696320)
I0419 08:55:39.591070 28917 net.cpp:137] Memory required for data: 876193292
I0419 08:55:39.591073 28917 layer_factory.hpp:77] Creating layer score_fr-new
I0419 08:55:39.591084 28917 net.cpp:84] Creating Layer score_fr-new
I0419 08:55:39.591089 28917 net.cpp:406] score_fr-new <- fc7
I0419 08:55:39.591095 28917 net.cpp:380] score_fr-new -> score_fr-new
I0419 08:55:39.595376 28917 net.cpp:122] Setting up score_fr-new
I0419 08:55:39.595410 28917 net.cpp:129] Top shape: 1 3 17 10 (510)
I0419 08:55:39.595415 28917 net.cpp:137] Memory required for data: 876195332
I0419 08:55:39.595422 28917 layer_factory.hpp:77] Creating layer upscore2-new
I0419 08:55:39.595438 28917 net.cpp:84] Creating Layer upscore2-new
I0419 08:55:39.595443 28917 net.cpp:406] upscore2-new <- score_fr-new
I0419 08:55:39.595448 28917 net.cpp:380] upscore2-new -> upscore2-new
I0419 08:55:39.595666 28917 net.cpp:122] Setting up upscore2-new
I0419 08:55:39.595676 28917 net.cpp:129] Top shape: 1 3 36 22 (2376)
I0419 08:55:39.595679 28917 net.cpp:137] Memory required for data: 876204836
I0419 08:55:39.595693 28917 layer_factory.hpp:77] Creating layer upscore2-new_upscore2-new_0_split
I0419 08:55:39.595702 28917 net.cpp:84] Creating Layer upscore2-new_upscore2-new_0_split
I0419 08:55:39.595706 28917 net.cpp:406] upscore2-new_upscore2-new_0_split <- upscore2-new
I0419 08:55:39.595711 28917 net.cpp:380] upscore2-new_upscore2-new_0_split -> upscore2-new_upscore2-new_0_split_0
I0419 08:55:39.595719 28917 net.cpp:380] upscore2-new_upscore2-new_0_split -> upscore2-new_upscore2-new_0_split_1
I0419 08:55:39.595762 28917 net.cpp:122] Setting up upscore2-new_upscore2-new_0_split
I0419 08:55:39.595794 28917 net.cpp:129] Top shape: 1 3 36 22 (2376)
I0419 08:55:39.595798 28917 net.cpp:129] Top shape: 1 3 36 22 (2376)
I0419 08:55:39.595801 28917 net.cpp:137] Memory required for data: 876223844
I0419 08:55:39.595804 28917 layer_factory.hpp:77] Creating layer score_pool4-new
I0419 08:55:39.595811 28917 net.cpp:84] Creating Layer score_pool4-new
I0419 08:55:39.595815 28917 net.cpp:406] score_pool4-new <- pool4_pool4_0_split_1
I0419 08:55:39.595823 28917 net.cpp:380] score_pool4-new -> score_pool4-new
I0419 08:55:39.599339 28917 net.cpp:122] Setting up score_pool4-new
I0419 08:55:39.599404 28917 net.cpp:129] Top shape: 1 3 45 32 (4320)
I0419 08:55:39.599413 28917 net.cpp:137] Memory required for data: 876241124
I0419 08:55:39.599431 28917 layer_factory.hpp:77] Creating layer score_pool4c
I0419 08:55:39.599469 28917 net.cpp:84] Creating Layer score_pool4c
I0419 08:55:39.599480 28917 net.cpp:406] score_pool4c <- score_pool4-new
I0419 08:55:39.599493 28917 net.cpp:406] score_pool4c <- upscore2-new_upscore2-new_0_split_0
I0419 08:55:39.599503 28917 net.cpp:380] score_pool4c -> score_pool4c
I0419 08:55:39.599576 28917 net.cpp:122] Setting up score_pool4c
I0419 08:55:39.599592 28917 net.cpp:129] Top shape: 1 3 36 22 (2376)
I0419 08:55:39.599598 28917 net.cpp:137] Memory required for data: 876250628
I0419 08:55:39.599606 28917 layer_factory.hpp:77] Creating layer fuse_pool4
I0419 08:55:39.599625 28917 net.cpp:84] Creating Layer fuse_pool4
I0419 08:55:39.599632 28917 net.cpp:406] fuse_pool4 <- upscore2-new_upscore2-new_0_split_1
I0419 08:55:39.599642 28917 net.cpp:406] fuse_pool4 <- score_pool4c
I0419 08:55:39.599660 28917 net.cpp:380] fuse_pool4 -> fuse_pool4
I0419 08:55:39.599717 28917 net.cpp:122] Setting up fuse_pool4
I0419 08:55:39.599730 28917 net.cpp:129] Top shape: 1 3 36 22 (2376)
I0419 08:55:39.599736 28917 net.cpp:137] Memory required for data: 876260132
I0419 08:55:39.599745 28917 layer_factory.hpp:77] Creating layer upscore_pool4-new
I0419 08:55:39.599761 28917 net.cpp:84] Creating Layer upscore_pool4-new
I0419 08:55:39.599768 28917 net.cpp:406] upscore_pool4-new <- fuse_pool4
I0419 08:55:39.599779 28917 net.cpp:380] upscore_pool4-new -> upscore_pool4-new
I0419 08:55:39.600205 28917 net.cpp:122] Setting up upscore_pool4-new
I0419 08:55:39.600219 28917 net.cpp:129] Top shape: 1 3 74 46 (10212)
I0419 08:55:39.600235 28917 net.cpp:137] Memory required for data: 876300980
I0419 08:55:39.600255 28917 layer_factory.hpp:77] Creating layer upscore_pool4-new_upscore_pool4-new_0_split
I0419 08:55:39.600281 28917 net.cpp:84] Creating Layer upscore_pool4-new_upscore_pool4-new_0_split
I0419 08:55:39.600288 28917 net.cpp:406] upscore_pool4-new_upscore_pool4-new_0_split <- upscore_pool4-new
I0419 08:55:39.600298 28917 net.cpp:380] upscore_pool4-new_upscore_pool4-new_0_split -> upscore_pool4-new_upscore_pool4-new_0_split_0
I0419 08:55:39.600311 28917 net.cpp:380] upscore_pool4-new_upscore_pool4-new_0_split -> upscore_pool4-new_upscore_pool4-new_0_split_1
I0419 08:55:39.600390 28917 net.cpp:122] Setting up upscore_pool4-new_upscore_pool4-new_0_split
I0419 08:55:39.600404 28917 net.cpp:129] Top shape: 1 3 74 46 (10212)
I0419 08:55:39.600412 28917 net.cpp:129] Top shape: 1 3 74 46 (10212)
I0419 08:55:39.600419 28917 net.cpp:137] Memory required for data: 876382676
I0419 08:55:39.600425 28917 layer_factory.hpp:77] Creating layer score_pool3-new
I0419 08:55:39.600443 28917 net.cpp:84] Creating Layer score_pool3-new
I0419 08:55:39.600450 28917 net.cpp:406] score_pool3-new <- pool3_pool3_0_split_1
I0419 08:55:39.600472 28917 net.cpp:380] score_pool3-new -> score_pool3-new
I0419 08:55:39.603209 28917 net.cpp:122] Setting up score_pool3-new
I0419 08:55:39.603250 28917 net.cpp:129] Top shape: 1 3 89 64 (17088)
I0419 08:55:39.603257 28917 net.cpp:137] Memory required for data: 876451028
I0419 08:55:39.603271 28917 layer_factory.hpp:77] Creating layer score_pool3c
I0419 08:55:39.603286 28917 net.cpp:84] Creating Layer score_pool3c
I0419 08:55:39.603294 28917 net.cpp:406] score_pool3c <- score_pool3-new
I0419 08:55:39.603313 28917 net.cpp:406] score_pool3c <- upscore_pool4-new_upscore_pool4-new_0_split_0
I0419 08:55:39.603329 28917 net.cpp:380] score_pool3c -> score_pool3c
I0419 08:55:39.603385 28917 net.cpp:122] Setting up score_pool3c
I0419 08:55:39.603404 28917 net.cpp:129] Top shape: 1 3 74 46 (10212)
I0419 08:55:39.603410 28917 net.cpp:137] Memory required for data: 876491876
I0419 08:55:39.603416 28917 layer_factory.hpp:77] Creating layer fuse_pool3
I0419 08:55:39.603428 28917 net.cpp:84] Creating Layer fuse_pool3
I0419 08:55:39.603435 28917 net.cpp:406] fuse_pool3 <- upscore_pool4-new_upscore_pool4-new_0_split_1
I0419 08:55:39.603444 28917 net.cpp:406] fuse_pool3 <- score_pool3c
I0419 08:55:39.603454 28917 net.cpp:380] fuse_pool3 -> fuse_pool3
I0419 08:55:39.603514 28917 net.cpp:122] Setting up fuse_pool3
I0419 08:55:39.603528 28917 net.cpp:129] Top shape: 1 3 74 46 (10212)
I0419 08:55:39.603533 28917 net.cpp:137] Memory required for data: 876532724
I0419 08:55:39.603539 28917 layer_factory.hpp:77] Creating layer upscore8-new
I0419 08:55:39.603555 28917 net.cpp:84] Creating Layer upscore8-new
I0419 08:55:39.603562 28917 net.cpp:406] upscore8-new <- fuse_pool3
I0419 08:55:39.603575 28917 net.cpp:380] upscore8-new -> upscore8-new
I0419 08:55:39.604003 28917 net.cpp:122] Setting up upscore8-new
I0419 08:55:39.604017 28917 net.cpp:129] Top shape: 1 3 600 376 (676800)
I0419 08:55:39.604032 28917 net.cpp:137] Memory required for data: 879239924
I0419 08:55:39.604041 28917 layer_factory.hpp:77] Creating layer upscore8_cropped
I0419 08:55:39.604055 28917 net.cpp:84] Creating Layer upscore8_cropped
I0419 08:55:39.604069 28917 net.cpp:406] upscore8_cropped <- upscore8-new
I0419 08:55:39.604079 28917 net.cpp:406] upscore8_cropped <- data_data_0_split_1
I0419 08:55:39.604101 28917 net.cpp:380] upscore8_cropped -> upscore8_cropped
I0419 08:55:39.604154 28917 net.cpp:122] Setting up upscore8_cropped
I0419 08:55:39.604177 28917 net.cpp:129] Top shape: 1 3 512 310 (476160)
I0419 08:55:39.604183 28917 net.cpp:137] Memory required for data: 881144564
I0419 08:55:39.604189 28917 layer_factory.hpp:77] Creating layer score
I0419 08:55:39.604207 28917 net.cpp:84] Creating Layer score
I0419 08:55:39.604214 28917 net.cpp:406] score <- upscore8_cropped
I0419 08:55:39.604224 28917 net.cpp:380] score -> score
I0419 08:55:39.607733 28917 net.cpp:122] Setting up score
I0419 08:55:39.607772 28917 net.cpp:129] Top shape: 1 3 512 310 (476160)
I0419 08:55:39.607780 28917 net.cpp:137] Memory required for data: 883049204
I0419 08:55:39.607795 28917 layer_factory.hpp:77] Creating layer score_score_0_split
I0419 08:55:39.607811 28917 net.cpp:84] Creating Layer score_score_0_split
I0419 08:55:39.607828 28917 net.cpp:406] score_score_0_split <- score
I0419 08:55:39.607841 28917 net.cpp:380] score_score_0_split -> score_score_0_split_0
I0419 08:55:39.607854 28917 net.cpp:380] score_score_0_split -> score_score_0_split_1
I0419 08:55:39.607955 28917 net.cpp:122] Setting up score_score_0_split
I0419 08:55:39.607970 28917 net.cpp:129] Top shape: 1 3 512 310 (476160)
I0419 08:55:39.607980 28917 net.cpp:129] Top shape: 1 3 512 310 (476160)
I0419 08:55:39.607985 28917 net.cpp:137] Memory required for data: 886858484
I0419 08:55:39.607992 28917 layer_factory.hpp:77] Creating layer prob
I0419 08:55:39.608005 28917 net.cpp:84] Creating Layer prob
I0419 08:55:39.608011 28917 net.cpp:406] prob <- score_score_0_split_0
I0419 08:55:39.608033 28917 net.cpp:380] prob -> prob
I0419 08:55:39.608497 28917 net.cpp:122] Setting up prob
I0419 08:55:39.608530 28917 net.cpp:129] Top shape: 1 3 512 310 (476160)
I0419 08:55:39.608536 28917 net.cpp:137] Memory required for data: 888763124
I0419 08:55:39.608543 28917 layer_factory.hpp:77] Creating layer prob_prob_0_split
I0419 08:55:39.608554 28917 net.cpp:84] Creating Layer prob_prob_0_split
I0419 08:55:39.608562 28917 net.cpp:406] prob_prob_0_split <- prob
I0419 08:55:39.608588 28917 net.cpp:380] prob_prob_0_split -> prob_prob_0_split_0
I0419 08:55:39.608602 28917 net.cpp:380] prob_prob_0_split -> prob_prob_0_split_1
I0419 08:55:39.608676 28917 net.cpp:122] Setting up prob_prob_0_split
I0419 08:55:39.608690 28917 net.cpp:129] Top shape: 1 3 512 310 (476160)
I0419 08:55:39.608701 28917 net.cpp:129] Top shape: 1 3 512 310 (476160)
I0419 08:55:39.608708 28917 net.cpp:137] Memory required for data: 892572404
I0419 08:55:39.608724 28917 layer_factory.hpp:77] Creating layer saliency
I0419 08:55:39.608738 28917 net.cpp:84] Creating Layer saliency
I0419 08:55:39.608747 28917 net.cpp:406] saliency <- prob_prob_0_split_0
I0419 08:55:39.608760 28917 net.cpp:380] saliency -> saliency
I0419 08:55:39.621040 28917 net.cpp:122] Setting up saliency
I0419 08:55:39.621079 28917 net.cpp:129] Top shape: 1 3 512 310 (476160)
I0419 08:55:39.621088 28917 net.cpp:137] Memory required for data: 894477044
I0419 08:55:39.621109 28917 layer_factory.hpp:77] Creating layer saliency_data
I0419 08:55:39.621124 28917 net.cpp:84] Creating Layer saliency_data
I0419 08:55:39.621136 28917 net.cpp:406] saliency_data <- data_data_0_split_2
I0419 08:55:39.621148 28917 net.cpp:406] saliency_data <- saliency
I0419 08:55:39.621162 28917 net.cpp:380] saliency_data -> saliency_data
I0419 08:55:39.621248 28917 net.cpp:122] Setting up saliency_data
I0419 08:55:39.621263 28917 net.cpp:129] Top shape: 1 3 512 310 (476160)
I0419 08:55:39.621273 28917 net.cpp:137] Memory required for data: 896381684
I0419 08:55:39.621280 28917 layer_factory.hpp:77] Creating layer crop
I0419 08:55:39.621978 28917 net.cpp:84] Creating Layer crop
I0419 08:55:39.621999 28917 net.cpp:406] crop <- prob_prob_0_split_1
I0419 08:55:39.622011 28917 net.cpp:406] crop <- saliency_data
I0419 08:55:39.622026 28917 net.cpp:406] crop <- crop_margin
I0419 08:55:39.622038 28917 net.cpp:406] crop <- crop_prob
I0419 08:55:39.622048 28917 net.cpp:406] crop <- crop_sample_batch
I0419 08:55:39.622057 28917 net.cpp:406] crop <- label_data_1_split_0
I0419 08:55:39.622072 28917 net.cpp:380] crop -> data-R
I0419 08:55:39.622089 28917 net.cpp:380] crop -> crop_info
I0419 08:55:39.634702 28917 net.cpp:122] Setting up crop
I0419 08:55:39.634735 28917 net.cpp:129] Top shape: 1 3 512 310 (476160)
I0419 08:55:39.634742 28917 net.cpp:129] Top shape: 1 2 4 (8)
I0419 08:55:39.634758 28917 net.cpp:137] Memory required for data: 898286356
I0419 08:55:39.634765 28917 layer_factory.hpp:77] Creating layer data-R_crop_0_split
I0419 08:55:39.634779 28917 net.cpp:84] Creating Layer data-R_crop_0_split
I0419 08:55:39.634788 28917 net.cpp:406] data-R_crop_0_split <- data-R
I0419 08:55:39.634799 28917 net.cpp:380] data-R_crop_0_split -> data-R_crop_0_split_0
I0419 08:55:39.634815 28917 net.cpp:380] data-R_crop_0_split -> data-R_crop_0_split_1
I0419 08:55:39.634872 28917 net.cpp:122] Setting up data-R_crop_0_split
I0419 08:55:39.634882 28917 net.cpp:129] Top shape: 1 3 512 310 (476160)
I0419 08:55:39.634887 28917 net.cpp:129] Top shape: 1 3 512 310 (476160)
I0419 08:55:39.634891 28917 net.cpp:137] Memory required for data: 902095636
I0419 08:55:39.634896 28917 layer_factory.hpp:77] Creating layer conv1_1-R
I0419 08:55:39.634919 28917 net.cpp:84] Creating Layer conv1_1-R
I0419 08:55:39.634927 28917 net.cpp:406] conv1_1-R <- data-R_crop_0_split_0
I0419 08:55:39.634935 28917 net.cpp:380] conv1_1-R -> conv1_1-R
I0419 08:55:39.638938 28917 net.cpp:122] Setting up conv1_1-R
I0419 08:55:39.638963 28917 net.cpp:129] Top shape: 1 64 710 508 (23083520)
I0419 08:55:39.638976 28917 net.cpp:137] Memory required for data: 994429716
I0419 08:55:39.638999 28917 layer_factory.hpp:77] Creating layer relu1_1-R
I0419 08:55:39.639027 28917 net.cpp:84] Creating Layer relu1_1-R
I0419 08:55:39.639035 28917 net.cpp:406] relu1_1-R <- conv1_1-R
I0419 08:55:39.639045 28917 net.cpp:367] relu1_1-R -> conv1_1-R (in-place)
I0419 08:55:39.639302 28917 net.cpp:122] Setting up relu1_1-R
I0419 08:55:39.639314 28917 net.cpp:129] Top shape: 1 64 710 508 (23083520)
I0419 08:55:39.639318 28917 net.cpp:137] Memory required for data: 1086763796
I0419 08:55:39.639324 28917 layer_factory.hpp:77] Creating layer conv1_2-R
I0419 08:55:39.639336 28917 net.cpp:84] Creating Layer conv1_2-R
I0419 08:55:39.639341 28917 net.cpp:406] conv1_2-R <- conv1_1-R
I0419 08:55:39.639348 28917 net.cpp:380] conv1_2-R -> conv1_2-R
I0419 08:55:39.642750 28917 net.cpp:122] Setting up conv1_2-R
I0419 08:55:39.642771 28917 net.cpp:129] Top shape: 1 64 710 508 (23083520)
I0419 08:55:39.642776 28917 net.cpp:137] Memory required for data: 1179097876
I0419 08:55:39.642797 28917 layer_factory.hpp:77] Creating layer relu1_2-R
I0419 08:55:39.642807 28917 net.cpp:84] Creating Layer relu1_2-R
I0419 08:55:39.642814 28917 net.cpp:406] relu1_2-R <- conv1_2-R
I0419 08:55:39.642822 28917 net.cpp:367] relu1_2-R -> conv1_2-R (in-place)
I0419 08:55:39.643070 28917 net.cpp:122] Setting up relu1_2-R
I0419 08:55:39.643081 28917 net.cpp:129] Top shape: 1 64 710 508 (23083520)
I0419 08:55:39.643086 28917 net.cpp:137] Memory required for data: 1271431956
I0419 08:55:39.643090 28917 layer_factory.hpp:77] Creating layer pool1-R
I0419 08:55:39.643101 28917 net.cpp:84] Creating Layer pool1-R
I0419 08:55:39.643106 28917 net.cpp:406] pool1-R <- conv1_2-R
I0419 08:55:39.643115 28917 net.cpp:380] pool1-R -> pool1-R
I0419 08:55:39.643185 28917 net.cpp:122] Setting up pool1-R
I0419 08:55:39.643194 28917 net.cpp:129] Top shape: 1 64 355 254 (5770880)
I0419 08:55:39.643198 28917 net.cpp:137] Memory required for data: 1294515476
I0419 08:55:39.643203 28917 layer_factory.hpp:77] Creating layer conv2_1-R
I0419 08:55:39.643214 28917 net.cpp:84] Creating Layer conv2_1-R
I0419 08:55:39.643224 28917 net.cpp:406] conv2_1-R <- pool1-R
I0419 08:55:39.643230 28917 net.cpp:380] conv2_1-R -> conv2_1-R
I0419 08:55:39.645304 28917 net.cpp:122] Setting up conv2_1-R
I0419 08:55:39.645320 28917 net.cpp:129] Top shape: 1 128 355 254 (11541760)
I0419 08:55:39.645326 28917 net.cpp:137] Memory required for data: 1340682516
I0419 08:55:39.645341 28917 layer_factory.hpp:77] Creating layer relu2_1-R
I0419 08:55:39.645349 28917 net.cpp:84] Creating Layer relu2_1-R
I0419 08:55:39.645355 28917 net.cpp:406] relu2_1-R <- conv2_1-R
I0419 08:55:39.645362 28917 net.cpp:367] relu2_1-R -> conv2_1-R (in-place)
I0419 08:55:39.645614 28917 net.cpp:122] Setting up relu2_1-R
I0419 08:55:39.645625 28917 net.cpp:129] Top shape: 1 128 355 254 (11541760)
I0419 08:55:39.645630 28917 net.cpp:137] Memory required for data: 1386849556
I0419 08:55:39.645634 28917 layer_factory.hpp:77] Creating layer conv2_2-R
I0419 08:55:39.645647 28917 net.cpp:84] Creating Layer conv2_2-R
I0419 08:55:39.645651 28917 net.cpp:406] conv2_2-R <- conv2_1-R
I0419 08:55:39.645659 28917 net.cpp:380] conv2_2-R -> conv2_2-R
I0419 08:55:39.649292 28917 net.cpp:122] Setting up conv2_2-R
I0419 08:55:39.649309 28917 net.cpp:129] Top shape: 1 128 355 254 (11541760)
I0419 08:55:39.649314 28917 net.cpp:137] Memory required for data: 1433016596
I0419 08:55:39.649330 28917 layer_factory.hpp:77] Creating layer relu2_2-R
I0419 08:55:39.649338 28917 net.cpp:84] Creating Layer relu2_2-R
I0419 08:55:39.649343 28917 net.cpp:406] relu2_2-R <- conv2_2-R
I0419 08:55:39.649353 28917 net.cpp:367] relu2_2-R -> conv2_2-R (in-place)
I0419 08:55:39.650051 28917 net.cpp:122] Setting up relu2_2-R
I0419 08:55:39.650066 28917 net.cpp:129] Top shape: 1 128 355 254 (11541760)
I0419 08:55:39.650071 28917 net.cpp:137] Memory required for data: 1479183636
I0419 08:55:39.650076 28917 layer_factory.hpp:77] Creating layer pool2-R
I0419 08:55:39.650087 28917 net.cpp:84] Creating Layer pool2-R
I0419 08:55:39.650092 28917 net.cpp:406] pool2-R <- conv2_2-R
I0419 08:55:39.650102 28917 net.cpp:380] pool2-R -> pool2-R
I0419 08:55:39.650210 28917 net.cpp:122] Setting up pool2-R
I0419 08:55:39.650229 28917 net.cpp:129] Top shape: 1 128 178 127 (2893568)
I0419 08:55:39.650233 28917 net.cpp:137] Memory required for data: 1490757908
I0419 08:55:39.650238 28917 layer_factory.hpp:77] Creating layer conv3_1-R
I0419 08:55:39.650250 28917 net.cpp:84] Creating Layer conv3_1-R
I0419 08:55:39.650261 28917 net.cpp:406] conv3_1-R <- pool2-R
I0419 08:55:39.650270 28917 net.cpp:380] conv3_1-R -> conv3_1-R
I0419 08:55:39.663401 28917 net.cpp:122] Setting up conv3_1-R
I0419 08:55:39.663450 28917 net.cpp:129] Top shape: 1 256 178 127 (5787136)
I0419 08:55:39.663460 28917 net.cpp:137] Memory required for data: 1513906452
I0419 08:55:39.663476 28917 layer_factory.hpp:77] Creating layer relu3_1-R
I0419 08:55:39.663508 28917 net.cpp:84] Creating Layer relu3_1-R
I0419 08:55:39.663519 28917 net.cpp:406] relu3_1-R <- conv3_1-R
I0419 08:55:39.663532 28917 net.cpp:367] relu3_1-R -> conv3_1-R (in-place)
I0419 08:55:39.663988 28917 net.cpp:122] Setting up relu3_1-R
I0419 08:55:39.664011 28917 net.cpp:129] Top shape: 1 256 178 127 (5787136)
I0419 08:55:39.664017 28917 net.cpp:137] Memory required for data: 1537054996
I0419 08:55:39.664024 28917 layer_factory.hpp:77] Creating layer conv3_2-R
I0419 08:55:39.664044 28917 net.cpp:84] Creating Layer conv3_2-R
I0419 08:55:39.664052 28917 net.cpp:406] conv3_2-R <- conv3_1-R
I0419 08:55:39.664064 28917 net.cpp:380] conv3_2-R -> conv3_2-R
I0419 08:55:39.670994 28917 net.cpp:122] Setting up conv3_2-R
I0419 08:55:39.671034 28917 net.cpp:129] Top shape: 1 256 178 127 (5787136)
I0419 08:55:39.671042 28917 net.cpp:137] Memory required for data: 1560203540
I0419 08:55:39.671057 28917 layer_factory.hpp:77] Creating layer relu3_2-R
I0419 08:55:39.671073 28917 net.cpp:84] Creating Layer relu3_2-R
I0419 08:55:39.671083 28917 net.cpp:406] relu3_2-R <- conv3_2-R
I0419 08:55:39.671097 28917 net.cpp:367] relu3_2-R -> conv3_2-R (in-place)
I0419 08:55:39.671531 28917 net.cpp:122] Setting up relu3_2-R
I0419 08:55:39.671551 28917 net.cpp:129] Top shape: 1 256 178 127 (5787136)
I0419 08:55:39.671558 28917 net.cpp:137] Memory required for data: 1583352084
I0419 08:55:39.671566 28917 layer_factory.hpp:77] Creating layer conv3_3-R
I0419 08:55:39.671586 28917 net.cpp:84] Creating Layer conv3_3-R
I0419 08:55:39.671593 28917 net.cpp:406] conv3_3-R <- conv3_2-R
I0419 08:55:39.671608 28917 net.cpp:380] conv3_3-R -> conv3_3-R
I0419 08:55:39.676815 28917 net.cpp:122] Setting up conv3_3-R
I0419 08:55:39.676846 28917 net.cpp:129] Top shape: 1 256 178 127 (5787136)
I0419 08:55:39.676851 28917 net.cpp:137] Memory required for data: 1606500628
I0419 08:55:39.676861 28917 layer_factory.hpp:77] Creating layer relu3_3-R
I0419 08:55:39.676869 28917 net.cpp:84] Creating Layer relu3_3-R
I0419 08:55:39.676875 28917 net.cpp:406] relu3_3-R <- conv3_3-R
I0419 08:55:39.676882 28917 net.cpp:367] relu3_3-R -> conv3_3-R (in-place)
I0419 08:55:39.677146 28917 net.cpp:122] Setting up relu3_3-R
I0419 08:55:39.677160 28917 net.cpp:129] Top shape: 1 256 178 127 (5787136)
I0419 08:55:39.677163 28917 net.cpp:137] Memory required for data: 1629649172
I0419 08:55:39.677167 28917 layer_factory.hpp:77] Creating layer pool3-R
I0419 08:55:39.677177 28917 net.cpp:84] Creating Layer pool3-R
I0419 08:55:39.677182 28917 net.cpp:406] pool3-R <- conv3_3-R
I0419 08:55:39.677191 28917 net.cpp:380] pool3-R -> pool3-R
I0419 08:55:39.677254 28917 net.cpp:122] Setting up pool3-R
I0419 08:55:39.677264 28917 net.cpp:129] Top shape: 1 256 89 64 (1458176)
I0419 08:55:39.677268 28917 net.cpp:137] Memory required for data: 1635481876
I0419 08:55:39.677273 28917 layer_factory.hpp:77] Creating layer pool3-R_pool3-R_0_split
I0419 08:55:39.677280 28917 net.cpp:84] Creating Layer pool3-R_pool3-R_0_split
I0419 08:55:39.677285 28917 net.cpp:406] pool3-R_pool3-R_0_split <- pool3-R
I0419 08:55:39.677292 28917 net.cpp:380] pool3-R_pool3-R_0_split -> pool3-R_pool3-R_0_split_0
I0419 08:55:39.677300 28917 net.cpp:380] pool3-R_pool3-R_0_split -> pool3-R_pool3-R_0_split_1
I0419 08:55:39.677348 28917 net.cpp:122] Setting up pool3-R_pool3-R_0_split
I0419 08:55:39.677357 28917 net.cpp:129] Top shape: 1 256 89 64 (1458176)
I0419 08:55:39.677362 28917 net.cpp:129] Top shape: 1 256 89 64 (1458176)
I0419 08:55:39.677366 28917 net.cpp:137] Memory required for data: 1647147284
I0419 08:55:39.677371 28917 layer_factory.hpp:77] Creating layer conv4_1-R
I0419 08:55:39.677381 28917 net.cpp:84] Creating Layer conv4_1-R
I0419 08:55:39.677386 28917 net.cpp:406] conv4_1-R <- pool3-R_pool3-R_0_split_0
I0419 08:55:39.677394 28917 net.cpp:380] conv4_1-R -> conv4_1-R
I0419 08:55:39.683321 28917 net.cpp:122] Setting up conv4_1-R
I0419 08:55:39.683352 28917 net.cpp:129] Top shape: 1 512 89 64 (2916352)
I0419 08:55:39.683357 28917 net.cpp:137] Memory required for data: 1658812692
I0419 08:55:39.683367 28917 layer_factory.hpp:77] Creating layer relu4_1-R
I0419 08:55:39.683377 28917 net.cpp:84] Creating Layer relu4_1-R
I0419 08:55:39.683382 28917 net.cpp:406] relu4_1-R <- conv4_1-R
I0419 08:55:39.683389 28917 net.cpp:367] relu4_1-R -> conv4_1-R (in-place)
I0419 08:55:39.683634 28917 net.cpp:122] Setting up relu4_1-R
I0419 08:55:39.683646 28917 net.cpp:129] Top shape: 1 512 89 64 (2916352)
I0419 08:55:39.683650 28917 net.cpp:137] Memory required for data: 1670478100
I0419 08:55:39.683655 28917 layer_factory.hpp:77] Creating layer conv4_2-R
I0419 08:55:39.683666 28917 net.cpp:84] Creating Layer conv4_2-R
I0419 08:55:39.683671 28917 net.cpp:406] conv4_2-R <- conv4_1-R
I0419 08:55:39.683681 28917 net.cpp:380] conv4_2-R -> conv4_2-R
I0419 08:55:39.692428 28917 net.cpp:122] Setting up conv4_2-R
I0419 08:55:39.692461 28917 net.cpp:129] Top shape: 1 512 89 64 (2916352)
I0419 08:55:39.692466 28917 net.cpp:137] Memory required for data: 1682143508
I0419 08:55:39.692474 28917 layer_factory.hpp:77] Creating layer relu4_2-R
I0419 08:55:39.692483 28917 net.cpp:84] Creating Layer relu4_2-R
I0419 08:55:39.692488 28917 net.cpp:406] relu4_2-R <- conv4_2-R
I0419 08:55:39.692495 28917 net.cpp:367] relu4_2-R -> conv4_2-R (in-place)
I0419 08:55:39.692742 28917 net.cpp:122] Setting up relu4_2-R
I0419 08:55:39.692759 28917 net.cpp:129] Top shape: 1 512 89 64 (2916352)
I0419 08:55:39.692765 28917 net.cpp:137] Memory required for data: 1693808916
I0419 08:55:39.692771 28917 layer_factory.hpp:77] Creating layer conv4_3-R
I0419 08:55:39.692786 28917 net.cpp:84] Creating Layer conv4_3-R
I0419 08:55:39.692792 28917 net.cpp:406] conv4_3-R <- conv4_2-R
I0419 08:55:39.692801 28917 net.cpp:380] conv4_3-R -> conv4_3-R
I0419 08:55:39.702638 28917 net.cpp:122] Setting up conv4_3-R
I0419 08:55:39.702662 28917 net.cpp:129] Top shape: 1 512 89 64 (2916352)
I0419 08:55:39.702677 28917 net.cpp:137] Memory required for data: 1705474324
I0419 08:55:39.702687 28917 layer_factory.hpp:77] Creating layer relu4_3-R
I0419 08:55:39.702698 28917 net.cpp:84] Creating Layer relu4_3-R
I0419 08:55:39.702704 28917 net.cpp:406] relu4_3-R <- conv4_3-R
I0419 08:55:39.702713 28917 net.cpp:367] relu4_3-R -> conv4_3-R (in-place)
I0419 08:55:39.703491 28917 net.cpp:122] Setting up relu4_3-R
I0419 08:55:39.703508 28917 net.cpp:129] Top shape: 1 512 89 64 (2916352)
I0419 08:55:39.703524 28917 net.cpp:137] Memory required for data: 1717139732
I0419 08:55:39.703529 28917 layer_factory.hpp:77] Creating layer pool4-R
I0419 08:55:39.703539 28917 net.cpp:84] Creating Layer pool4-R
I0419 08:55:39.703546 28917 net.cpp:406] pool4-R <- conv4_3-R
I0419 08:55:39.703554 28917 net.cpp:380] pool4-R -> pool4-R
I0419 08:55:39.703619 28917 net.cpp:122] Setting up pool4-R
I0419 08:55:39.703640 28917 net.cpp:129] Top shape: 1 512 45 32 (737280)
I0419 08:55:39.703652 28917 net.cpp:137] Memory required for data: 1720088852
I0419 08:55:39.703657 28917 layer_factory.hpp:77] Creating layer pool4-R_pool4-R_0_split
I0419 08:55:39.703665 28917 net.cpp:84] Creating Layer pool4-R_pool4-R_0_split
I0419 08:55:39.703668 28917 net.cpp:406] pool4-R_pool4-R_0_split <- pool4-R
I0419 08:55:39.703675 28917 net.cpp:380] pool4-R_pool4-R_0_split -> pool4-R_pool4-R_0_split_0
I0419 08:55:39.703685 28917 net.cpp:380] pool4-R_pool4-R_0_split -> pool4-R_pool4-R_0_split_1
I0419 08:55:39.703734 28917 net.cpp:122] Setting up pool4-R_pool4-R_0_split
I0419 08:55:39.703743 28917 net.cpp:129] Top shape: 1 512 45 32 (737280)
I0419 08:55:39.703749 28917 net.cpp:129] Top shape: 1 512 45 32 (737280)
I0419 08:55:39.703753 28917 net.cpp:137] Memory required for data: 1725987092
I0419 08:55:39.703758 28917 layer_factory.hpp:77] Creating layer conv5_1-R
I0419 08:55:39.703773 28917 net.cpp:84] Creating Layer conv5_1-R
I0419 08:55:39.703778 28917 net.cpp:406] conv5_1-R <- pool4-R_pool4-R_0_split_0
I0419 08:55:39.703784 28917 net.cpp:380] conv5_1-R -> conv5_1-R
I0419 08:55:39.712651 28917 net.cpp:122] Setting up conv5_1-R
I0419 08:55:39.712671 28917 net.cpp:129] Top shape: 1 512 45 32 (737280)
I0419 08:55:39.712685 28917 net.cpp:137] Memory required for data: 1728936212
I0419 08:55:39.712719 28917 layer_factory.hpp:77] Creating layer relu5_1-R
I0419 08:55:39.712731 28917 net.cpp:84] Creating Layer relu5_1-R
I0419 08:55:39.712738 28917 net.cpp:406] relu5_1-R <- conv5_1-R
I0419 08:55:39.712744 28917 net.cpp:367] relu5_1-R -> conv5_1-R (in-place)
I0419 08:55:39.712982 28917 net.cpp:122] Setting up relu5_1-R
I0419 08:55:39.712996 28917 net.cpp:129] Top shape: 1 512 45 32 (737280)
I0419 08:55:39.712999 28917 net.cpp:137] Memory required for data: 1731885332
I0419 08:55:39.713004 28917 layer_factory.hpp:77] Creating layer conv5_2-R
I0419 08:55:39.713014 28917 net.cpp:84] Creating Layer conv5_2-R
I0419 08:55:39.713019 28917 net.cpp:406] conv5_2-R <- conv5_1-R
I0419 08:55:39.713027 28917 net.cpp:380] conv5_2-R -> conv5_2-R
I0419 08:55:39.723011 28917 net.cpp:122] Setting up conv5_2-R
I0419 08:55:39.723047 28917 net.cpp:129] Top shape: 1 512 45 32 (737280)
I0419 08:55:39.723052 28917 net.cpp:137] Memory required for data: 1734834452
I0419 08:55:39.723062 28917 layer_factory.hpp:77] Creating layer relu5_2-R
I0419 08:55:39.723073 28917 net.cpp:84] Creating Layer relu5_2-R
I0419 08:55:39.723078 28917 net.cpp:406] relu5_2-R <- conv5_2-R
I0419 08:55:39.723086 28917 net.cpp:367] relu5_2-R -> conv5_2-R (in-place)
I0419 08:55:39.723350 28917 net.cpp:122] Setting up relu5_2-R
I0419 08:55:39.723363 28917 net.cpp:129] Top shape: 1 512 45 32 (737280)
I0419 08:55:39.723368 28917 net.cpp:137] Memory required for data: 1737783572
I0419 08:55:39.723372 28917 layer_factory.hpp:77] Creating layer conv5_3-R
I0419 08:55:39.723386 28917 net.cpp:84] Creating Layer conv5_3-R
I0419 08:55:39.723390 28917 net.cpp:406] conv5_3-R <- conv5_2-R
I0419 08:55:39.723399 28917 net.cpp:380] conv5_3-R -> conv5_3-R
I0419 08:55:39.732311 28917 net.cpp:122] Setting up conv5_3-R
I0419 08:55:39.732334 28917 net.cpp:129] Top shape: 1 512 45 32 (737280)
I0419 08:55:39.732339 28917 net.cpp:137] Memory required for data: 1740732692
I0419 08:55:39.732349 28917 layer_factory.hpp:77] Creating layer relu5_3-R
I0419 08:55:39.732359 28917 net.cpp:84] Creating Layer relu5_3-R
I0419 08:55:39.732367 28917 net.cpp:406] relu5_3-R <- conv5_3-R
I0419 08:55:39.732374 28917 net.cpp:367] relu5_3-R -> conv5_3-R (in-place)
I0419 08:55:39.732631 28917 net.cpp:122] Setting up relu5_3-R
I0419 08:55:39.732645 28917 net.cpp:129] Top shape: 1 512 45 32 (737280)
I0419 08:55:39.732650 28917 net.cpp:137] Memory required for data: 1743681812
I0419 08:55:39.732653 28917 layer_factory.hpp:77] Creating layer pool5-R
I0419 08:55:39.732664 28917 net.cpp:84] Creating Layer pool5-R
I0419 08:55:39.732671 28917 net.cpp:406] pool5-R <- conv5_3-R
I0419 08:55:39.732679 28917 net.cpp:380] pool5-R -> pool5-R
I0419 08:55:39.732743 28917 net.cpp:122] Setting up pool5-R
I0419 08:55:39.732753 28917 net.cpp:129] Top shape: 1 512 23 16 (188416)
I0419 08:55:39.732758 28917 net.cpp:137] Memory required for data: 1744435476
I0419 08:55:39.732761 28917 layer_factory.hpp:77] Creating layer fc6-R
I0419 08:55:39.732774 28917 net.cpp:84] Creating Layer fc6-R
I0419 08:55:39.732779 28917 net.cpp:406] fc6-R <- pool5-R
I0419 08:55:39.732789 28917 net.cpp:380] fc6-R -> fc6-R
I0419 08:55:40.033309 28917 net.cpp:122] Setting up fc6-R
I0419 08:55:40.033360 28917 net.cpp:129] Top shape: 1 4096 17 10 (696320)
I0419 08:55:40.033365 28917 net.cpp:137] Memory required for data: 1747220756
I0419 08:55:40.033375 28917 layer_factory.hpp:77] Creating layer relu6-R
I0419 08:55:40.033388 28917 net.cpp:84] Creating Layer relu6-R
I0419 08:55:40.033396 28917 net.cpp:406] relu6-R <- fc6-R
I0419 08:55:40.033403 28917 net.cpp:367] relu6-R -> fc6-R (in-place)
I0419 08:55:40.033604 28917 net.cpp:122] Setting up relu6-R
I0419 08:55:40.033614 28917 net.cpp:129] Top shape: 1 4096 17 10 (696320)
I0419 08:55:40.033618 28917 net.cpp:137] Memory required for data: 1750006036
I0419 08:55:40.033622 28917 layer_factory.hpp:77] Creating layer drop6-R
I0419 08:55:40.033635 28917 net.cpp:84] Creating Layer drop6-R
I0419 08:55:40.033639 28917 net.cpp:406] drop6-R <- fc6-R
I0419 08:55:40.033644 28917 net.cpp:367] drop6-R -> fc6-R (in-place)
I0419 08:55:40.033677 28917 net.cpp:122] Setting up drop6-R
I0419 08:55:40.033684 28917 net.cpp:129] Top shape: 1 4096 17 10 (696320)
I0419 08:55:40.033686 28917 net.cpp:137] Memory required for data: 1752791316
I0419 08:55:40.033689 28917 layer_factory.hpp:77] Creating layer fc7-R
I0419 08:55:40.033699 28917 net.cpp:84] Creating Layer fc7-R
I0419 08:55:40.033704 28917 net.cpp:406] fc7-R <- fc6-R
I0419 08:55:40.033710 28917 net.cpp:380] fc7-R -> fc7-R
I0419 08:55:40.091020 28917 net.cpp:122] Setting up fc7-R
I0419 08:55:40.091071 28917 net.cpp:129] Top shape: 1 4096 17 10 (696320)
I0419 08:55:40.091076 28917 net.cpp:137] Memory required for data: 1755576596
I0419 08:55:40.091089 28917 layer_factory.hpp:77] Creating layer relu7-R
I0419 08:55:40.091102 28917 net.cpp:84] Creating Layer relu7-R
I0419 08:55:40.091109 28917 net.cpp:406] relu7-R <- fc7-R
I0419 08:55:40.091118 28917 net.cpp:367] relu7-R -> fc7-R (in-place)
I0419 08:55:40.091326 28917 net.cpp:122] Setting up relu7-R
I0419 08:55:40.091336 28917 net.cpp:129] Top shape: 1 4096 17 10 (696320)
I0419 08:55:40.091339 28917 net.cpp:137] Memory required for data: 1758361876
I0419 08:55:40.091343 28917 layer_factory.hpp:77] Creating layer drop7-R
I0419 08:55:40.091352 28917 net.cpp:84] Creating Layer drop7-R
I0419 08:55:40.091356 28917 net.cpp:406] drop7-R <- fc7-R
I0419 08:55:40.091362 28917 net.cpp:367] drop7-R -> fc7-R (in-place)
I0419 08:55:40.091400 28917 net.cpp:122] Setting up drop7-R
I0419 08:55:40.091428 28917 net.cpp:129] Top shape: 1 4096 17 10 (696320)
I0419 08:55:40.091430 28917 net.cpp:137] Memory required for data: 1761147156
I0419 08:55:40.091434 28917 layer_factory.hpp:77] Creating layer score_fr-new-R
I0419 08:55:40.091445 28917 net.cpp:84] Creating Layer score_fr-new-R
I0419 08:55:40.091449 28917 net.cpp:406] score_fr-new-R <- fc7-R
I0419 08:55:40.091456 28917 net.cpp:380] score_fr-new-R -> score_fr-new-R
I0419 08:55:40.092918 28917 net.cpp:122] Setting up score_fr-new-R
I0419 08:55:40.092949 28917 net.cpp:129] Top shape: 1 3 17 10 (510)
I0419 08:55:40.092953 28917 net.cpp:137] Memory required for data: 1761149196
I0419 08:55:40.092960 28917 layer_factory.hpp:77] Creating layer upscore2-new-R
I0419 08:55:40.092969 28917 net.cpp:84] Creating Layer upscore2-new-R
I0419 08:55:40.092974 28917 net.cpp:406] upscore2-new-R <- score_fr-new-R
I0419 08:55:40.092981 28917 net.cpp:380] upscore2-new-R -> upscore2-new-R
I0419 08:55:40.093260 28917 net.cpp:122] Setting up upscore2-new-R
I0419 08:55:40.093271 28917 net.cpp:129] Top shape: 1 3 36 22 (2376)
I0419 08:55:40.093273 28917 net.cpp:137] Memory required for data: 1761158700
I0419 08:55:40.093278 28917 layer_factory.hpp:77] Creating layer upscore2-new-R_upscore2-new-R_0_split
I0419 08:55:40.093286 28917 net.cpp:84] Creating Layer upscore2-new-R_upscore2-new-R_0_split
I0419 08:55:40.093291 28917 net.cpp:406] upscore2-new-R_upscore2-new-R_0_split <- upscore2-new-R
I0419 08:55:40.093297 28917 net.cpp:380] upscore2-new-R_upscore2-new-R_0_split -> upscore2-new-R_upscore2-new-R_0_split_0
I0419 08:55:40.093304 28917 net.cpp:380] upscore2-new-R_upscore2-new-R_0_split -> upscore2-new-R_upscore2-new-R_0_split_1
I0419 08:55:40.093348 28917 net.cpp:122] Setting up upscore2-new-R_upscore2-new-R_0_split
I0419 08:55:40.093358 28917 net.cpp:129] Top shape: 1 3 36 22 (2376)
I0419 08:55:40.093361 28917 net.cpp:129] Top shape: 1 3 36 22 (2376)
I0419 08:55:40.093364 28917 net.cpp:137] Memory required for data: 1761177708
I0419 08:55:40.093369 28917 layer_factory.hpp:77] Creating layer score_pool4-new-R
I0419 08:55:40.093376 28917 net.cpp:84] Creating Layer score_pool4-new-R
I0419 08:55:40.093381 28917 net.cpp:406] score_pool4-new-R <- pool4-R_pool4-R_0_split_1
I0419 08:55:40.093389 28917 net.cpp:380] score_pool4-new-R -> score_pool4-new-R
I0419 08:55:40.094811 28917 net.cpp:122] Setting up score_pool4-new-R
I0419 08:55:40.094841 28917 net.cpp:129] Top shape: 1 3 45 32 (4320)
I0419 08:55:40.094846 28917 net.cpp:137] Memory required for data: 1761194988
I0419 08:55:40.094852 28917 layer_factory.hpp:77] Creating layer score_pool4c-R
I0419 08:55:40.094861 28917 net.cpp:84] Creating Layer score_pool4c-R
I0419 08:55:40.094866 28917 net.cpp:406] score_pool4c-R <- score_pool4-new-R
I0419 08:55:40.094871 28917 net.cpp:406] score_pool4c-R <- upscore2-new-R_upscore2-new-R_0_split_0
I0419 08:55:40.094877 28917 net.cpp:380] score_pool4c-R -> score_pool4c-R
I0419 08:55:40.094910 28917 net.cpp:122] Setting up score_pool4c-R
I0419 08:55:40.094916 28917 net.cpp:129] Top shape: 1 3 36 22 (2376)
I0419 08:55:40.094919 28917 net.cpp:137] Memory required for data: 1761204492
I0419 08:55:40.094923 28917 layer_factory.hpp:77] Creating layer fuse_pool4-R
I0419 08:55:40.094931 28917 net.cpp:84] Creating Layer fuse_pool4-R
I0419 08:55:40.094935 28917 net.cpp:406] fuse_pool4-R <- upscore2-new-R_upscore2-new-R_0_split_1
I0419 08:55:40.094939 28917 net.cpp:406] fuse_pool4-R <- score_pool4c-R
I0419 08:55:40.094945 28917 net.cpp:380] fuse_pool4-R -> fuse_pool4-R
I0419 08:55:40.094980 28917 net.cpp:122] Setting up fuse_pool4-R
I0419 08:55:40.094985 28917 net.cpp:129] Top shape: 1 3 36 22 (2376)
I0419 08:55:40.094988 28917 net.cpp:137] Memory required for data: 1761213996
I0419 08:55:40.094991 28917 layer_factory.hpp:77] Creating layer upscore_pool4-new-R
I0419 08:55:40.095000 28917 net.cpp:84] Creating Layer upscore_pool4-new-R
I0419 08:55:40.095002 28917 net.cpp:406] upscore_pool4-new-R <- fuse_pool4-R
I0419 08:55:40.095010 28917 net.cpp:380] upscore_pool4-new-R -> upscore_pool4-new-R
I0419 08:55:40.095255 28917 net.cpp:122] Setting up upscore_pool4-new-R
I0419 08:55:40.095265 28917 net.cpp:129] Top shape: 1 3 74 46 (10212)
I0419 08:55:40.095268 28917 net.cpp:137] Memory required for data: 1761254844
I0419 08:55:40.095273 28917 layer_factory.hpp:77] Creating layer upscore_pool4-new-R_upscore_pool4-new-R_0_split
I0419 08:55:40.095279 28917 net.cpp:84] Creating Layer upscore_pool4-new-R_upscore_pool4-new-R_0_split
I0419 08:55:40.095283 28917 net.cpp:406] upscore_pool4-new-R_upscore_pool4-new-R_0_split <- upscore_pool4-new-R
I0419 08:55:40.095289 28917 net.cpp:380] upscore_pool4-new-R_upscore_pool4-new-R_0_split -> upscore_pool4-new-R_upscore_pool4-new-R_0_split_0
I0419 08:55:40.095296 28917 net.cpp:380] upscore_pool4-new-R_upscore_pool4-new-R_0_split -> upscore_pool4-new-R_upscore_pool4-new-R_0_split_1
I0419 08:55:40.095338 28917 net.cpp:122] Setting up upscore_pool4-new-R_upscore_pool4-new-R_0_split
I0419 08:55:40.095345 28917 net.cpp:129] Top shape: 1 3 74 46 (10212)
I0419 08:55:40.095348 28917 net.cpp:129] Top shape: 1 3 74 46 (10212)
I0419 08:55:40.095352 28917 net.cpp:137] Memory required for data: 1761336540
I0419 08:55:40.095356 28917 layer_factory.hpp:77] Creating layer score_pool3-new-R
I0419 08:55:40.095365 28917 net.cpp:84] Creating Layer score_pool3-new-R
I0419 08:55:40.095369 28917 net.cpp:406] score_pool3-new-R <- pool3-R_pool3-R_0_split_1
I0419 08:55:40.095376 28917 net.cpp:380] score_pool3-new-R -> score_pool3-new-R
I0419 08:55:40.099622 28917 net.cpp:122] Setting up score_pool3-new-R
I0419 08:55:40.099687 28917 net.cpp:129] Top shape: 1 3 89 64 (17088)
I0419 08:55:40.099699 28917 net.cpp:137] Memory required for data: 1761404892
I0419 08:55:40.099720 28917 layer_factory.hpp:77] Creating layer score_pool3c-R
I0419 08:55:40.099741 28917 net.cpp:84] Creating Layer score_pool3c-R
I0419 08:55:40.099753 28917 net.cpp:406] score_pool3c-R <- score_pool3-new-R
I0419 08:55:40.099767 28917 net.cpp:406] score_pool3c-R <- upscore_pool4-new-R_upscore_pool4-new-R_0_split_0
I0419 08:55:40.099779 28917 net.cpp:380] score_pool3c-R -> score_pool3c-R
I0419 08:55:40.099848 28917 net.cpp:122] Setting up score_pool3c-R
I0419 08:55:40.099864 28917 net.cpp:129] Top shape: 1 3 74 46 (10212)
I0419 08:55:40.099870 28917 net.cpp:137] Memory required for data: 1761445740
I0419 08:55:40.099879 28917 layer_factory.hpp:77] Creating layer fuse_pool3-R
I0419 08:55:40.099892 28917 net.cpp:84] Creating Layer fuse_pool3-R
I0419 08:55:40.099900 28917 net.cpp:406] fuse_pool3-R <- upscore_pool4-new-R_upscore_pool4-new-R_0_split_1
I0419 08:55:40.099910 28917 net.cpp:406] fuse_pool3-R <- score_pool3c-R
I0419 08:55:40.099921 28917 net.cpp:380] fuse_pool3-R -> fuse_pool3-R
I0419 08:55:40.099977 28917 net.cpp:122] Setting up fuse_pool3-R
I0419 08:55:40.099989 28917 net.cpp:129] Top shape: 1 3 74 46 (10212)
I0419 08:55:40.099997 28917 net.cpp:137] Memory required for data: 1761486588
I0419 08:55:40.100003 28917 layer_factory.hpp:77] Creating layer upscore8-new-R
I0419 08:55:40.100019 28917 net.cpp:84] Creating Layer upscore8-new-R
I0419 08:55:40.100028 28917 net.cpp:406] upscore8-new-R <- fuse_pool3-R
I0419 08:55:40.100039 28917 net.cpp:380] upscore8-new-R -> upscore8-new-R
I0419 08:55:40.100534 28917 net.cpp:122] Setting up upscore8-new-R
I0419 08:55:40.100550 28917 net.cpp:129] Top shape: 1 3 600 376 (676800)
I0419 08:55:40.100556 28917 net.cpp:137] Memory required for data: 1764193788
I0419 08:55:40.100569 28917 layer_factory.hpp:77] Creating layer upscore8_cropped-R
I0419 08:55:40.100581 28917 net.cpp:84] Creating Layer upscore8_cropped-R
I0419 08:55:40.100589 28917 net.cpp:406] upscore8_cropped-R <- upscore8-new-R
I0419 08:55:40.100601 28917 net.cpp:406] upscore8_cropped-R <- data-R_crop_0_split_1
I0419 08:55:40.100612 28917 net.cpp:380] upscore8_cropped-R -> upscore8_cropped-R
I0419 08:55:40.100662 28917 net.cpp:122] Setting up upscore8_cropped-R
I0419 08:55:40.100672 28917 net.cpp:129] Top shape: 1 3 512 310 (476160)
I0419 08:55:40.100679 28917 net.cpp:137] Memory required for data: 1766098428
I0419 08:55:40.100685 28917 layer_factory.hpp:77] Creating layer score-R
I0419 08:55:40.100702 28917 net.cpp:84] Creating Layer score-R
I0419 08:55:40.100709 28917 net.cpp:406] score-R <- upscore8_cropped-R
I0419 08:55:40.100721 28917 net.cpp:380] score-R -> score-R
I0419 08:55:40.108372 28917 net.cpp:122] Setting up score-R
I0419 08:55:40.108414 28917 net.cpp:129] Top shape: 1 3 512 310 (476160)
I0419 08:55:40.108423 28917 net.cpp:137] Memory required for data: 1768003068
I0419 08:55:40.108441 28917 layer_factory.hpp:77] Creating layer score_uncropped-R
I0419 08:55:40.108845 28917 net.cpp:84] Creating Layer score_uncropped-R
I0419 08:55:40.108867 28917 net.cpp:406] score_uncropped-R <- crop_info
I0419 08:55:40.108886 28917 net.cpp:406] score_uncropped-R <- score-R
I0419 08:55:40.108896 28917 net.cpp:406] score_uncropped-R <- data_data_0_split_3
I0419 08:55:40.108913 28917 net.cpp:380] score_uncropped-R -> score_uncropped-R
I0419 08:55:40.111544 28917 net.cpp:122] Setting up score_uncropped-R
I0419 08:55:40.111569 28917 net.cpp:129] Top shape: 1 3 512 310 (476160)
I0419 08:55:40.111583 28917 net.cpp:137] Memory required for data: 1769907708
I0419 08:55:40.111589 28917 layer_factory.hpp:77] Creating layer loss1
I0419 08:55:40.111613 28917 net.cpp:84] Creating Layer loss1
I0419 08:55:40.111620 28917 net.cpp:406] loss1 <- score_score_0_split_1
I0419 08:55:40.111629 28917 net.cpp:406] loss1 <- label_data_1_split_1
I0419 08:55:40.111639 28917 net.cpp:380] loss1 -> loss1
…
