…
snapshot_prefix: "/media/Med_2T2/data2/models/snapshots/joint:1e-5x10,1e-5x10,20/FD0:YI3_1_20180418_201415,YJ3_1_20180419_085537/train"
test_initialization: false
average_loss: 20
stepvalue: 45000
stepvalue: 50000
stepvalue: 55000
iter_size: 1
I0419 10:45:09.873421 30498 solver.cpp:77] Creating training net from train_net file: /media/Med_2T2/data2/prototxts/training_J3x10.prototxt
I0419 10:45:09.877244 30498 net.cpp:51] Initializing net from parameters: 
state {
  phase: TRAIN
}
layer {
  name: "data"
  type: "Python"
  top: "data"
  top: "label"
  top: "crop_margin"
  top: "crop_prob"
  top: "crop_sample_batch"
  python_param {
    module: "Data"
    layer: "DataLayer"
  }
}
layer {
  name: "conv1_1"
  type: "Convolution"
  bottom: "data"
  top: "conv1_1"
  param {
    lr_mult: 1
    decay_mult: 1
  }
  param {
    lr_mult: 2
    decay_mult: 0
  }
  convolution_param {
    num_output: 64
    pad: 100
    kernel_size: 3
    stride: 1
  }
}
layer {
  name: "relu1_1"
  type: "ReLU"
  bottom: "conv1_1"
  top: "conv1_1"
}
layer {
  name: "conv1_2"
  type: "Convolution"
  bottom: "conv1_1"
  top: "conv1_2"
  param {
    lr_mult: 1
    decay_mult: 1
  }
  param {
    lr_mult: 2
    decay_mult: 0
  }
  convolution_param {
    num_output: 64
    pad: 1
    kernel_size: 3
    stride: 1
  }
}
layer {
  name: "relu1_2"
  type: "ReLU"
  bottom: "conv1_2"
  top: "conv1_2"
}
layer {
  name: "pool1"
  type: "Pooling"
  bottom: "conv1_2"
  top: "pool1"
  pooling_param {
    pool: MAX
    kernel_size: 2
    stride: 2
  }
}
layer {
  name: "conv2_1"
  type: "Convolution"
  bottom: "pool1"
  top: "conv2_1"
  param {
    lr_mult: 1
    decay_mult: 1
  }
  param {
    lr_mult: 2
    decay_mult: 0
  }
  convolution_param {
    num_output: 128
    pad: 1
    kernel_size: 3
    stride: 1
  }
}
layer {
  name: "relu2_1"
  type: "ReLU"
  bottom: "conv2_1"
  top: "conv2_1"
}
layer {
  name: "conv2_2"
  type: "Convolution"
  bottom: "conv2_1"
  top: "conv2_2"
  param {
    lr_mult: 1
    decay_mult: 1
  }
  param {
    lr_mult: 2
    decay_mult: 0
  }
  convolution_param {
    num_output: 128
    pad: 1
    kernel_size: 3
    stride: 1
  }
}
layer {
  name: "relu2_2"
  type: "ReLU"
  bottom: "conv2_2"
  top: "conv2_2"
}
layer {
  name: "pool2"
  type: "Pooling"
  bottom: "conv2_2"
  top: "pool2"
  pooling_param {
    pool: MAX
    kernel_size: 2
    stride: 2
  }
}
layer {
  name: "conv3_1"
  type: "Convolution"
  bottom: "pool2"
  top: "conv3_1"
  param {
    lr_mult: 1
    decay_mult: 1
  }
  param {
    lr_mult: 2
    decay_mult: 0
  }
  convolution_param {
    num_output: 256
    pad: 1
    kernel_size: 3
    stride: 1
  }
}
layer {
  name: "relu3_1"
  type: "ReLU"
  bottom: "conv3_1"
  top: "conv3_1"
}
layer {
  name: "conv3_2"
  type: "Convolution"
  bottom: "conv3_1"
  top: "conv3_2"
  param {
    lr_mult: 1
    decay_mult: 1
  }
  param {
    lr_mult: 2
    decay_mult: 0
  }
  convolution_param {
    num_output: 256
    pad: 1
    kernel_size: 3
    stride: 1
  }
}
layer {
  name: "relu3_2"
  type: "ReLU"
  bottom: "conv3_2"
  top: "conv3_2"
}
layer {
  name: "conv3_3"
  type: "Convolution"
  bottom: "conv3_2"
  top: "conv3_3"
  param {
    lr_mult: 1
    decay_mult: 1
  }
  param {
    lr_mult: 2
    decay_mult: 0
  }
  convolution_param {
    num_output: 256
    pad: 1
    kernel_size: 3
    stride: 1
  }
}
layer {
  name: "relu3_3"
  type: "ReLU"
  bottom: "conv3_3"
  top: "conv3_3"
}
layer {
  name: "pool3"
  type: "Pooling"
  bottom: "conv3_3"
  top: "pool3"
  pooling_param {
    pool: MAX
    kernel_size: 2
    stride: 2
  }
}
layer {
  name: "conv4_1"
  type: "Convolution"
  bottom: "pool3"
  top: "conv4_1"
  param {
    lr_mult: 1
    decay_mult: 1
  }
  param {
    lr_mult: 2
    decay_mult: 0
  }
  convolution_param {
    num_output: 512
    pad: 1
    kernel_size: 3
    stride: 1
  }
}
layer {
  name: "relu4_1"
  type: "ReLU"
  bottom: "conv4_1"
  top: "conv4_1"
}
layer {
  name: "conv4_2"
  type: "Convolution"
  bottom: "conv4_1"
  top: "conv4_2"
  param {
    lr_mult: 1
    decay_mult: 1
  }
  param {
    lr_mult: 2
    decay_mult: 0
  }
  convolution_param {
    num_output: 512
    pad: 1
    kernel_size: 3
    stride: 1
  }
}
layer {
  name: "relu4_2"
  type: "ReLU"
  bottom: "conv4_2"
  top: "conv4_2"
}
layer {
  name: "conv4_3"
  type: "Convolution"
  bottom: "conv4_2"
  top: "conv4_3"
  param {
    lr_mult: 1
    decay_mult: 1
  }
  param {
    lr_mult: 2
    decay_mult: 0
  }
  convolution_param {
    num_output: 512
    pad: 1
    kernel_size: 3
    stride: 1
  }
}
layer {
  name: "relu4_3"
  type: "ReLU"
  bottom: "conv4_3"
  top: "conv4_3"
}
layer {
  name: "pool4"
  type: "Pooling"
  bottom: "conv4_3"
  top: "pool4"
  pooling_param {
    pool: MAX
    kernel_size: 2
    stride: 2
  }
}
layer {
  name: "conv5_1"
  type: "Convolution"
  bottom: "pool4"
  top: "conv5_1"
  param {
    lr_mult: 1
    decay_mult: 1
  }
  param {
    lr_mult: 2
    decay_mult: 0
  }
  convolution_param {
    num_output: 512
    pad: 1
    kernel_size: 3
    stride: 1
  }
}
layer {
  name: "relu5_1"
  type: "ReLU"
  bottom: "conv5_1"
  top: "conv5_1"
}
layer {
  name: "conv5_2"
  type: "Convolution"
  bottom: "conv5_1"
  top: "conv5_2"
  param {
    lr_mult: 1
    decay_mult: 1
  }
  param {
    lr_mult: 2
    decay_mult: 0
  }
  convolution_param {
    num_output: 512
    pad: 1
    kernel_size: 3
    stride: 1
  }
}
layer {
  name: "relu5_2"
  type: "ReLU"
  bottom: "conv5_2"
  top: "conv5_2"
}
layer {
  name: "conv5_3"
  type: "Convolution"
  bottom: "conv5_2"
  top: "conv5_3"
  param {
    lr_mult: 1
    decay_mult: 1
  }
  param {
    lr_mult: 2
    decay_mult: 0
  }
  convolution_param {
    num_output: 512
    pad: 1
    kernel_size: 3
    stride: 1
  }
}
layer {
  name: "relu5_3"
  type: "ReLU"
  bottom: "conv5_3"
  top: "conv5_3"
}
layer {
  name: "pool5"
  type: "Pooling"
  bottom: "conv5_3"
  top: "pool5"
  pooling_param {
    pool: MAX
    kernel_size: 2
    stride: 2
  }
}
layer {
  name: "fc6"
  type: "Convolution"
  bottom: "pool5"
  top: "fc6"
  param {
    lr_mult: 1
    decay_mult: 1
  }
  param {
    lr_mult: 2
    decay_mult: 0
  }
  convolution_param {
    num_output: 4096
    pad: 0
    kernel_size: 7
    stride: 1
  }
}
layer {
  name: "relu6"
  type: "ReLU"
  bottom: "fc6"
  top: "fc6"
}
layer {
  name: "drop6"
  type: "Dropout"
  bottom: "fc6"
  top: "fc6"
  dropout_param {
    dropout_ratio: 0.5
  }
}
layer {
  name: "fc7"
  type: "Convolution"
  bottom: "fc6"
  top: "fc7"
  param {
    lr_mult: 1
    decay_mult: 1
  }
  param {
    lr_mult: 2
    decay_mult: 0
  }
  convolution_param {
    num_output: 4096
    pad: 0
    kernel_size: 1
    stride: 1
  }
}
layer {
  name: "relu7"
  type: "ReLU"
  bottom: "fc7"
  top: "fc7"
}
layer {
  name: "drop7"
  type: "Dropout"
  bottom: "fc7"
  top: "fc7"
  dropout_param {
    dropout_ratio: 0.5
  }
}
layer {
  name: "score_fr-new"
  type: "Convolution"
  bottom: "fc7"
  top: "score_fr-new"
  param {
    lr_mult: 1
    decay_mult: 1
  }
  param {
    lr_mult: 2
    decay_mult: 0
  }
  convolution_param {
    num_output: 3
    kernel_size: 1
  }
}
layer {
  name: "upscore2-new"
  type: "Deconvolution"
  bottom: "score_fr-new"
  top: "upscore2-new"
  param {
    lr_mult: 0
  }
  convolution_param {
    num_output: 3
    bias_term: false
    kernel_size: 4
    stride: 2
  }
}
layer {
  name: "score_pool4-new"
  type: "Convolution"
  bottom: "pool4"
  top: "score_pool4-new"
  param {
    lr_mult: 1
    decay_mult: 1
  }
  param {
    lr_mult: 2
    decay_mult: 0
  }
  convolution_param {
    num_output: 3
    pad: 0
    kernel_size: 1
  }
}
layer {
  name: "score_pool4c"
  type: "Crop"
  bottom: "score_pool4-new"
  bottom: "upscore2-new"
  top: "score_pool4c"
  crop_param {
    axis: 2
    offset: 5
  }
}
layer {
  name: "fuse_pool4"
  type: "Eltwise"
  bottom: "upscore2-new"
  bottom: "score_pool4c"
  top: "fuse_pool4"
  eltwise_param {
    operation: SUM
  }
}
layer {
  name: "upscore_pool4-new"
  type: "Deconvolution"
  bottom: "fuse_pool4"
  top: "upscore_pool4-new"
  param {
    lr_mult: 0
  }
  convolution_param {
    num_output: 3
    bias_term: false
    kernel_size: 4
    stride: 2
  }
}
layer {
  name: "score_pool3-new"
  type: "Convolution"
  bottom: "pool3"
  top: "score_pool3-new"
  param {
    lr_mult: 1
    decay_mult: 1
  }
  param {
    lr_mult: 2
    decay_mult: 0
  }
  convolution_param {
    num_output: 3
    pad: 0
    kernel_size: 1
  }
}
layer {
  name: "score_pool3c"
  type: "Crop"
  bottom: "score_pool3-new"
  bottom: "upscore_pool4-new"
  top: "score_pool3c"
  crop_param {
    axis: 2
    offset: 9
  }
}
layer {
  name: "fuse_pool3"
  type: "Eltwise"
  bottom: "upscore_pool4-new"
  bottom: "score_pool3c"
  top: "fuse_pool3"
  eltwise_param {
    operation: SUM
  }
}
layer {
  name: "upscore8-new"
  type: "Deconvolution"
  bottom: "fuse_pool3"
  top: "upscore8-new"
  param {
    lr_mult: 0
  }
  convolution_param {
    num_output: 3
    bias_term: false
    kernel_size: 16
    stride: 8
  }
}
layer {
  name: "upscore8_cropped"
  type: "Crop"
  bottom: "upscore8-new"
  bottom: "data"
  top: "upscore8_cropped"
  crop_param {
    axis: 2
    offset: 31
  }
}
layer {
  name: "score"
  type: "Convolution"
  bottom: "upscore8_cropped"
  top: "score"
  param {
    lr_mult: 1
    decay_mult: 1
  }
  param {
    lr_mult: 2
    decay_mult: 0
  }
  convolution_param {
    num_output: 3
    pad: 1
    kernel_size: 3
    stride: 1
  }
}
layer {
  name: "prob"
  type: "Sigmoid"
  bottom: "score"
  top: "prob"
}
layer {
  name: "saliency"
  type: "Convolution"
  bottom: "prob"
  top: "saliency"
  param {
    lr_mult: 10
    decay_mult: 1
  }
  param {
    lr_mult: 20
    decay_mult: 0
  }
  convolution_param {
    num_output: 3
    pad: 2
    kernel_size: 5
    stride: 1
  }
}
layer {
  name: "saliency_data"
  type: "Eltwise"
  bottom: "data"
  bottom: "saliency"
  top: "saliency_data"
  eltwise_param {
    operation: PROD
  }
}
layer {
  name: "crop"
  type: "Python"
  bottom: "prob"
  bottom: "saliency_data"
  bottom: "crop_margin"
  bottom: "crop_prob"
  bottom: "crop_sample_batch"
  bottom: "label"
  top: "data-R"
  top: "crop_info"
  python_param {
    module: "Crop"
    layer: "CropLayer"
    param_str: "{\"TEST\": 0}"
  }
}
layer {
  name: "conv1_1-R"
  type: "Convolution"
  bottom: "data-R"
  top: "conv1_1-R"
  param {
    lr_mult: 10
    decay_mult: 1
  }
  param {
    lr_mult: 20
    decay_mult: 0
  }
  convolution_param {
    num_output: 64
    pad: 100
    kernel_size: 3
    stride: 1
  }
}
layer {
  name: "relu1_1-R"
  type: "ReLU"
  bottom: "conv1_1-R"
  top: "conv1_1-R"
}
layer {
  name: "conv1_2-R"
  type: "Convolution"
  bottom: "conv1_1-R"
  top: "conv1_2-R"
  param {
    lr_mult: 10
    decay_mult: 1
  }
  param {
    lr_mult: 20
    decay_mult: 0
  }
  convolution_param {
    num_output: 64
    pad: 1
    kernel_size: 3
    stride: 1
  }
}
layer {
  name: "relu1_2-R"
  type: "ReLU"
  bottom: "conv1_2-R"
  top: "conv1_2-R"
}
layer {
  name: "pool1-R"
  type: "Pooling"
  bottom: "conv1_2-R"
  top: "pool1-R"
  pooling_param {
    pool: MAX
    kernel_size: 2
    stride: 2
  }
}
layer {
  name: "conv2_1-R"
  type: "Convolution"
  bottom: "pool1-R"
  top: "conv2_1-R"
  param {
    lr_mult: 10
    decay_mult: 1
  }
  param {
    lr_mult: 20
    decay_mult: 0
  }
  convolution_param {
    num_output: 128
    pad: 1
    kernel_size: 3
    stride: 1
  }
}
layer {
  name: "relu2_1-R"
  type: "ReLU"
  bottom: "conv2_1-R"
  top: "conv2_1-R"
}
layer {
  name: "conv2_2-R"
  type: "Convolution"
  bottom: "conv2_1-R"
  top: "conv2_2-R"
  param {
    lr_mult: 10
    decay_mult: 1
  }
  param {
    lr_mult: 20
    decay_mult: 0
  }
  convolution_param {
    num_output: 128
    pad: 1
    kernel_size: 3
    stride: 1
  }
}
layer {
  name: "relu2_2-R"
  type: "ReLU"
  bottom: "conv2_2-R"
  top: "conv2_2-R"
}
layer {
  name: "pool2-R"
  type: "Pooling"
  bottom: "conv2_2-R"
  top: "pool2-R"
  pooling_param {
    pool: MAX
    kernel_size: 2
    stride: 2
  }
}
layer {
  name: "conv3_1-R"
  type: "Convolution"
  bottom: "pool2-R"
  top: "conv3_1-R"
  param {
    lr_mult: 10
    decay_mult: 1
  }
  param {
    lr_mult: 20
    decay_mult: 0
  }
  convolution_param {
    num_output: 256
    pad: 1
    kernel_size: 3
    stride: 1
  }
}
layer {
  name: "relu3_1-R"
  type: "ReLU"
  bottom: "conv3_1-R"
  top: "conv3_1-R"
}
layer {
  name: "conv3_2-R"
  type: "Convolution"
  bottom: "conv3_1-R"
  top: "conv3_2-R"
  param {
    lr_mult: 10
    decay_mult: 1
  }
  param {
    lr_mult: 20
    decay_mult: 0
  }
  convolution_param {
    num_output: 256
    pad: 1
    kernel_size: 3
    stride: 1
  }
}
layer {
  name: "relu3_2-R"
  type: "ReLU"
  bottom: "conv3_2-R"
  top: "conv3_2-R"
}
layer {
  name: "conv3_3-R"
  type: "Convolution"
  bottom: "conv3_2-R"
  top: "conv3_3-R"
  param {
    lr_mult: 10
    decay_mult: 1
  }
  param {
    lr_mult: 20
    decay_mult: 0
  }
  convolution_param {
    num_output: 256
    pad: 1
    kernel_size: 3
    stride: 1
  }
}
layer {
  name: "relu3_3-R"
  type: "ReLU"
  bottom: "conv3_3-R"
  top: "conv3_3-R"
}
layer {
  name: "pool3-R"
  type: "Pooling"
  bottom: "conv3_3-R"
  top: "pool3-R"
  pooling_param {
    pool: MAX
    kernel_size: 2
    stride: 2
  }
}
layer {
  name: "conv4_1-R"
  type: "Convolution"
  bottom: "pool3-R"
  top: "conv4_1-R"
  param {
    lr_mult: 10
    decay_mult: 1
  }
  param {
    lr_mult: 20
    decay_mult: 0
  }
  convolution_param {
    num_output: 512
    pad: 1
    kernel_size: 3
    stride: 1
  }
}
layer {
  name: "relu4_1-R"
  type: "ReLU"
  bottom: "conv4_1-R"
  top: "conv4_1-R"
}
layer {
  name: "conv4_2-R"
  type: "Convolution"
  bottom: "conv4_1-R"
  top: "conv4_2-R"
  param {
    lr_mult: 10
    decay_mult: 1
  }
  param {
    lr_mult: 20
    decay_mult: 0
  }
  convolution_param {
    num_output: 512
    pad: 1
    kernel_size: 3
    stride: 1
  }
}
layer {
  name: "relu4_2-R"
  type: "ReLU"
  bottom: "conv4_2-R"
  top: "conv4_2-R"
}
layer {
  name: "conv4_3-R"
  type: "Convolution"
  bottom: "conv4_2-R"
  top: "conv4_3-R"
  param {
    lr_mult: 10
    decay_mult: 1
  }
  param {
    lr_mult: 20
    decay_mult: 0
  }
  convolution_param {
    num_output: 512
    pad: 1
    kernel_size: 3
    stride: 1
  }
}
layer {
  name: "relu4_3-R"
  type: "ReLU"
  bottom: "conv4_3-R"
  top: "conv4_3-R"
}
layer {
  name: "pool4-R"
  type: "Pooling"
  bottom: "conv4_3-R"
  top: "pool4-R"
  pooling_param {
    pool: MAX
    kernel_size: 2
    stride: 2
  }
}
layer {
  name: "conv5_1-R"
  type: "Convolution"
  bottom: "pool4-R"
  top: "conv5_1-R"
  param {
    lr_mult: 10
    decay_mult: 1
  }
  param {
    lr_mult: 20
    decay_mult: 0
  }
  convolution_param {
    num_output: 512
    pad: 1
    kernel_size: 3
    stride: 1
  }
}
layer {
  name: "relu5_1-R"
  type: "ReLU"
  bottom: "conv5_1-R"
  top: "conv5_1-R"
}
layer {
  name: "conv5_2-R"
  type: "Convolution"
  bottom: "conv5_1-R"
  top: "conv5_2-R"
  param {
    lr_mult: 10
    decay_mult: 1
  }
  param {
    lr_mult: 20
    decay_mult: 0
  }
  convolution_param {
    num_output: 512
    pad: 1
    kernel_size: 3
    stride: 1
  }
}
layer {
  name: "relu5_2-R"
  type: "ReLU"
  bottom: "conv5_2-R"
  top: "conv5_2-R"
}
layer {
  name: "conv5_3-R"
  type: "Convolution"
  bottom: "conv5_2-R"
  top: "conv5_3-R"
  param {
    lr_mult: 10
    decay_mult: 1
  }
  param {
    lr_mult: 20
    decay_mult: 0
  }
  convolution_param {
    num_output: 512
    pad: 1
    kernel_size: 3
    stride: 1
  }
}
layer {
  name: "relu5_3-R"
  type: "ReLU"
  bottom: "conv5_3-R"
  top: "conv5_3-R"
}
layer {
  name: "pool5-R"
  type: "Pooling"
  bottom: "conv5_3-R"
  top: "pool5-R"
  pooling_param {
    pool: MAX
    kernel_size: 2
    stride: 2
  }
}
layer {
  name: "fc6-R"
  type: "Convolution"
  bottom: "pool5-R"
  top: "fc6-R"
  param {
    lr_mult: 10
    decay_mult: 1
  }
  param {
    lr_mult: 20
    decay_mult: 0
  }
  convolution_param {
    num_output: 4096
    pad: 0
    kernel_size: 7
    stride: 1
  }
}
layer {
  name: "relu6-R"
  type: "ReLU"
  bottom: "fc6-R"
  top: "fc6-R"
}
layer {
  name: "drop6-R"
  type: "Dropout"
  bottom: "fc6-R"
  top: "fc6-R"
  dropout_param {
    dropout_ratio: 0.5
  }
}
layer {
  name: "fc7-R"
  type: "Convolution"
  bottom: "fc6-R"
  top: "fc7-R"
  param {
    lr_mult: 10
    decay_mult: 1
  }
  param {
    lr_mult: 20
    decay_mult: 0
  }
  convolution_param {
    num_output: 4096
    pad: 0
    kernel_size: 1
    stride: 1
  }
}
layer {
  name: "relu7-R"
  type: "ReLU"
  bottom: "fc7-R"
  top: "fc7-R"
}
layer {
  name: "drop7-R"
  type: "Dropout"
  bottom: "fc7-R"
  top: "fc7-R"
  dropout_param {
    dropout_ratio: 0.5
  }
}
layer {
  name: "score_fr-new-R"
  type: "Convolution"
  bottom: "fc7-R"
  top: "score_fr-new-R"
  param {
    lr_mult: 10
    decay_mult: 1
  }
  param {
    lr_mult: 20
    decay_mult: 0
  }
  convolution_param {
    num_output: 3
    kernel_size: 1
  }
}
layer {
  name: "upscore2-new-R"
  type: "Deconvolution"
  bottom: "score_fr-new-R"
  top: "upscore2-new-R"
  param {
    lr_mult: 0
  }
  convolution_param {
    num_output: 3
    bias_term: false
    kernel_size: 4
    stride: 2
  }
}
layer {
  name: "score_pool4-new-R"
  type: "Convolution"
  bottom: "pool4-R"
  top: "score_pool4-new-R"
  param {
    lr_mult: 10
    decay_mult: 1
  }
  param {
    lr_mult: 20
    decay_mult: 0
  }
  convolution_param {
    num_output: 3
    pad: 0
    kernel_size: 1
  }
}
layer {
  name: "score_pool4c-R"
  type: "Crop"
  bottom: "score_pool4-new-R"
  bottom: "upscore2-new-R"
  top: "score_pool4c-R"
  crop_param {
    axis: 2
    offset: 5
  }
}
layer {
  name: "fuse_pool4-R"
  type: "Eltwise"
  bottom: "upscore2-new-R"
  bottom: "score_pool4c-R"
  top: "fuse_pool4-R"
  eltwise_param {
    operation: SUM
  }
}
layer {
  name: "upscore_pool4-new-R"
  type: "Deconvolution"
  bottom: "fuse_pool4-R"
  top: "upscore_pool4-new-R"
  param {
    lr_mult: 0
  }
  convolution_param {
    num_output: 3
    bias_term: false
    kernel_size: 4
    stride: 2
  }
}
layer {
  name: "score_pool3-new-R"
  type: "Convolution"
  bottom: "pool3-R"
  top: "score_pool3-new-R"
  param {
    lr_mult: 10
    decay_mult: 1
  }
  param {
    lr_mult: 20
    decay_mult: 0
  }
  convolution_param {
    num_output: 3
    pad: 0
    kernel_size: 1
  }
}
layer {
  name: "score_pool3c-R"
  type: "Crop"
  bottom: "score_pool3-new-R"
  bottom: "upscore_pool4-new-R"
  top: "score_pool3c-R"
  crop_param {
    axis: 2
    offset: 9
  }
}
layer {
  name: "fuse_pool3-R"
  type: "Eltwise"
  bottom: "upscore_pool4-new-R"
  bottom: "score_pool3c-R"
  top: "fuse_pool3-R"
  eltwise_param {
    operation: SUM
  }
}
layer {
  name: "upscore8-new-R"
  type: "Deconvolution"
  bottom: "fuse_pool3-R"
  top: "upscore8-new-R"
  param {
    lr_mult: 0
  }
  convolution_param {
    num_output: 3
    bias_term: false
    kernel_size: 16
    stride: 8
  }
}
layer {
  name: "upscore8_cropped-R"
  type: "Crop"
  bottom: "upscore8-new-R"
  bottom: "data-R"
  top: "upscore8_cropped-R"
  crop_param {
    axis: 2
    offset: 31
  }
}
layer {
  name: "score-R"
  type: "Convolution"
  bottom: "upscore8_cropped-R"
  top: "score-R"
  param {
    lr_mult: 10
    decay_mult: 1
  }
  param {
    lr_mult: 20
    decay_mult: 0
  }
  convolution_param {
    num_output: 3
    pad: 1
    kernel_size: 3
    stride: 1
  }
}
layer {
  name: "score_uncropped-R"
  type: "Python"
  bottom: "crop_info"
  bottom: "score-R"
  bottom: "data"
  top: "score_uncropped-R"
  python_param {
    module: "Uncrop"
    layer: "UncropLayer"
  }
}
layer {
  name: "loss1"
  type: "DiceLoss"
  bottom: "score"
  bottom: "label"
  top: "loss1"
  loss_weight: 0.333333
}
layer {
  name: "loss2"
  type: "DiceLoss"
  bottom: "score_uncropped-R"
  bottom: "label"
  top: "loss2"
  loss_weight: 0.666667
}
I0419 10:45:09.877830 30498 layer_factory.hpp:77] Creating layer data
I0419 10:45:09.879276 30498 net.cpp:84] Creating Layer data
I0419 10:45:09.879293 30498 net.cpp:380] data -> data
I0419 10:45:09.879312 30498 net.cpp:380] data -> label
I0419 10:45:09.879320 30498 net.cpp:380] data -> crop_margin
I0419 10:45:09.879328 30498 net.cpp:380] data -> crop_prob
I0419 10:45:09.879335 30498 net.cpp:380] data -> crop_sample_batch
I0419 10:45:10.083328 30498 net.cpp:122] Setting up data
I0419 10:45:10.083381 30498 net.cpp:129] Top shape: 1 3 512 310 (476160)
I0419 10:45:10.083389 30498 net.cpp:129] Top shape: 1 3 512 310 (476160)
I0419 10:45:10.083395 30498 net.cpp:129] Top shape: 1 (1)
I0419 10:45:10.083400 30498 net.cpp:129] Top shape: 1 (1)
I0419 10:45:10.083405 30498 net.cpp:129] Top shape: 1 (1)
I0419 10:45:10.083408 30498 net.cpp:137] Memory required for data: 3809292
I0419 10:45:10.083416 30498 layer_factory.hpp:77] Creating layer data_data_0_split
I0419 10:45:10.083444 30498 net.cpp:84] Creating Layer data_data_0_split
I0419 10:45:10.083449 30498 net.cpp:406] data_data_0_split <- data
I0419 10:45:10.083462 30498 net.cpp:380] data_data_0_split -> data_data_0_split_0
I0419 10:45:10.083474 30498 net.cpp:380] data_data_0_split -> data_data_0_split_1
I0419 10:45:10.083482 30498 net.cpp:380] data_data_0_split -> data_data_0_split_2
I0419 10:45:10.083489 30498 net.cpp:380] data_data_0_split -> data_data_0_split_3
I0419 10:45:10.083547 30498 net.cpp:122] Setting up data_data_0_split
I0419 10:45:10.083570 30498 net.cpp:129] Top shape: 1 3 512 310 (476160)
I0419 10:45:10.083576 30498 net.cpp:129] Top shape: 1 3 512 310 (476160)
I0419 10:45:10.083581 30498 net.cpp:129] Top shape: 1 3 512 310 (476160)
I0419 10:45:10.083586 30498 net.cpp:129] Top shape: 1 3 512 310 (476160)
I0419 10:45:10.083590 30498 net.cpp:137] Memory required for data: 11427852
I0419 10:45:10.083595 30498 layer_factory.hpp:77] Creating layer label_data_1_split
I0419 10:45:10.083601 30498 net.cpp:84] Creating Layer label_data_1_split
I0419 10:45:10.083606 30498 net.cpp:406] label_data_1_split <- label
I0419 10:45:10.083611 30498 net.cpp:380] label_data_1_split -> label_data_1_split_0
I0419 10:45:10.083617 30498 net.cpp:380] label_data_1_split -> label_data_1_split_1
I0419 10:45:10.083624 30498 net.cpp:380] label_data_1_split -> label_data_1_split_2
I0419 10:45:10.083663 30498 net.cpp:122] Setting up label_data_1_split
I0419 10:45:10.083672 30498 net.cpp:129] Top shape: 1 3 512 310 (476160)
I0419 10:45:10.083676 30498 net.cpp:129] Top shape: 1 3 512 310 (476160)
I0419 10:45:10.083681 30498 net.cpp:129] Top shape: 1 3 512 310 (476160)
I0419 10:45:10.083686 30498 net.cpp:137] Memory required for data: 17141772
I0419 10:45:10.083689 30498 layer_factory.hpp:77] Creating layer conv1_1
I0419 10:45:10.083704 30498 net.cpp:84] Creating Layer conv1_1
I0419 10:45:10.083709 30498 net.cpp:406] conv1_1 <- data_data_0_split_0
I0419 10:45:10.083715 30498 net.cpp:380] conv1_1 -> conv1_1
I0419 10:45:10.481791 30498 net.cpp:122] Setting up conv1_1
I0419 10:45:10.481847 30498 net.cpp:129] Top shape: 1 64 710 508 (23083520)
I0419 10:45:10.481853 30498 net.cpp:137] Memory required for data: 109475852
I0419 10:45:10.481899 30498 layer_factory.hpp:77] Creating layer relu1_1
I0419 10:45:10.481922 30498 net.cpp:84] Creating Layer relu1_1
I0419 10:45:10.481930 30498 net.cpp:406] relu1_1 <- conv1_1
I0419 10:45:10.481941 30498 net.cpp:367] relu1_1 -> conv1_1 (in-place)
I0419 10:45:10.482288 30498 net.cpp:122] Setting up relu1_1
I0419 10:45:10.482303 30498 net.cpp:129] Top shape: 1 64 710 508 (23083520)
I0419 10:45:10.482308 30498 net.cpp:137] Memory required for data: 201809932
I0419 10:45:10.482313 30498 layer_factory.hpp:77] Creating layer conv1_2
I0419 10:45:10.482336 30498 net.cpp:84] Creating Layer conv1_2
I0419 10:45:10.482342 30498 net.cpp:406] conv1_2 <- conv1_1
I0419 10:45:10.482350 30498 net.cpp:380] conv1_2 -> conv1_2
I0419 10:45:10.487372 30498 net.cpp:122] Setting up conv1_2
I0419 10:45:10.487406 30498 net.cpp:129] Top shape: 1 64 710 508 (23083520)
I0419 10:45:10.487412 30498 net.cpp:137] Memory required for data: 294144012
I0419 10:45:10.487426 30498 layer_factory.hpp:77] Creating layer relu1_2
I0419 10:45:10.487435 30498 net.cpp:84] Creating Layer relu1_2
I0419 10:45:10.487440 30498 net.cpp:406] relu1_2 <- conv1_2
I0419 10:45:10.487448 30498 net.cpp:367] relu1_2 -> conv1_2 (in-place)
I0419 10:45:10.487705 30498 net.cpp:122] Setting up relu1_2
I0419 10:45:10.487718 30498 net.cpp:129] Top shape: 1 64 710 508 (23083520)
I0419 10:45:10.487723 30498 net.cpp:137] Memory required for data: 386478092
I0419 10:45:10.487728 30498 layer_factory.hpp:77] Creating layer pool1
I0419 10:45:10.487737 30498 net.cpp:84] Creating Layer pool1
I0419 10:45:10.487742 30498 net.cpp:406] pool1 <- conv1_2
I0419 10:45:10.487749 30498 net.cpp:380] pool1 -> pool1
I0419 10:45:10.487814 30498 net.cpp:122] Setting up pool1
I0419 10:45:10.487824 30498 net.cpp:129] Top shape: 1 64 355 254 (5770880)
I0419 10:45:10.487828 30498 net.cpp:137] Memory required for data: 409561612
I0419 10:45:10.487833 30498 layer_factory.hpp:77] Creating layer conv2_1
I0419 10:45:10.487845 30498 net.cpp:84] Creating Layer conv2_1
I0419 10:45:10.487850 30498 net.cpp:406] conv2_1 <- pool1
I0419 10:45:10.487859 30498 net.cpp:380] conv2_1 -> conv2_1
I0419 10:45:10.490942 30498 net.cpp:122] Setting up conv2_1
I0419 10:45:10.490977 30498 net.cpp:129] Top shape: 1 128 355 254 (11541760)
I0419 10:45:10.490983 30498 net.cpp:137] Memory required for data: 455728652
I0419 10:45:10.490996 30498 layer_factory.hpp:77] Creating layer relu2_1
I0419 10:45:10.491005 30498 net.cpp:84] Creating Layer relu2_1
I0419 10:45:10.491011 30498 net.cpp:406] relu2_1 <- conv2_1
I0419 10:45:10.491019 30498 net.cpp:367] relu2_1 -> conv2_1 (in-place)
I0419 10:45:10.491276 30498 net.cpp:122] Setting up relu2_1
I0419 10:45:10.491291 30498 net.cpp:129] Top shape: 1 128 355 254 (11541760)
I0419 10:45:10.491295 30498 net.cpp:137] Memory required for data: 501895692
I0419 10:45:10.491300 30498 layer_factory.hpp:77] Creating layer conv2_2
I0419 10:45:10.491312 30498 net.cpp:84] Creating Layer conv2_2
I0419 10:45:10.491317 30498 net.cpp:406] conv2_2 <- conv2_1
I0419 10:45:10.491324 30498 net.cpp:380] conv2_2 -> conv2_2
I0419 10:45:10.495146 30498 net.cpp:122] Setting up conv2_2
I0419 10:45:10.495182 30498 net.cpp:129] Top shape: 1 128 355 254 (11541760)
I0419 10:45:10.495187 30498 net.cpp:137] Memory required for data: 548062732
I0419 10:45:10.495198 30498 layer_factory.hpp:77] Creating layer relu2_2
I0419 10:45:10.495206 30498 net.cpp:84] Creating Layer relu2_2
I0419 10:45:10.495213 30498 net.cpp:406] relu2_2 <- conv2_2
I0419 10:45:10.495220 30498 net.cpp:367] relu2_2 -> conv2_2 (in-place)
I0419 10:45:10.495491 30498 net.cpp:122] Setting up relu2_2
I0419 10:45:10.495506 30498 net.cpp:129] Top shape: 1 128 355 254 (11541760)
I0419 10:45:10.495510 30498 net.cpp:137] Memory required for data: 594229772
I0419 10:45:10.495515 30498 layer_factory.hpp:77] Creating layer pool2
I0419 10:45:10.495523 30498 net.cpp:84] Creating Layer pool2
I0419 10:45:10.495528 30498 net.cpp:406] pool2 <- conv2_2
I0419 10:45:10.495537 30498 net.cpp:380] pool2 -> pool2
I0419 10:45:10.495591 30498 net.cpp:122] Setting up pool2
I0419 10:45:10.495601 30498 net.cpp:129] Top shape: 1 128 178 127 (2893568)
I0419 10:45:10.495605 30498 net.cpp:137] Memory required for data: 605804044
I0419 10:45:10.495610 30498 layer_factory.hpp:77] Creating layer conv3_1
I0419 10:45:10.495621 30498 net.cpp:84] Creating Layer conv3_1
I0419 10:45:10.495626 30498 net.cpp:406] conv3_1 <- pool2
I0419 10:45:10.495633 30498 net.cpp:380] conv3_1 -> conv3_1
I0419 10:45:10.504837 30498 net.cpp:122] Setting up conv3_1
I0419 10:45:10.504878 30498 net.cpp:129] Top shape: 1 256 178 127 (5787136)
I0419 10:45:10.504887 30498 net.cpp:137] Memory required for data: 628952588
I0419 10:45:10.504909 30498 layer_factory.hpp:77] Creating layer relu3_1
I0419 10:45:10.504921 30498 net.cpp:84] Creating Layer relu3_1
I0419 10:45:10.504940 30498 net.cpp:406] relu3_1 <- conv3_1
I0419 10:45:10.504951 30498 net.cpp:367] relu3_1 -> conv3_1 (in-place)
I0419 10:45:10.505901 30498 net.cpp:122] Setting up relu3_1
I0419 10:45:10.505939 30498 net.cpp:129] Top shape: 1 256 178 127 (5787136)
I0419 10:45:10.505946 30498 net.cpp:137] Memory required for data: 652101132
I0419 10:45:10.505954 30498 layer_factory.hpp:77] Creating layer conv3_2
I0419 10:45:10.505970 30498 net.cpp:84] Creating Layer conv3_2
I0419 10:45:10.505977 30498 net.cpp:406] conv3_2 <- conv3_1
I0419 10:45:10.505998 30498 net.cpp:380] conv3_2 -> conv3_2
I0419 10:45:10.512922 30498 net.cpp:122] Setting up conv3_2
I0419 10:45:10.512984 30498 net.cpp:129] Top shape: 1 256 178 127 (5787136)
I0419 10:45:10.512995 30498 net.cpp:137] Memory required for data: 675249676
I0419 10:45:10.513016 30498 layer_factory.hpp:77] Creating layer relu3_2
I0419 10:45:10.513053 30498 net.cpp:84] Creating Layer relu3_2
I0419 10:45:10.513063 30498 net.cpp:406] relu3_2 <- conv3_2
I0419 10:45:10.513077 30498 net.cpp:367] relu3_2 -> conv3_2 (in-place)
I0419 10:45:10.514124 30498 net.cpp:122] Setting up relu3_2
I0419 10:45:10.514215 30498 net.cpp:129] Top shape: 1 256 178 127 (5787136)
I0419 10:45:10.514226 30498 net.cpp:137] Memory required for data: 698398220
I0419 10:45:10.514245 30498 layer_factory.hpp:77] Creating layer conv3_3
I0419 10:45:10.514266 30498 net.cpp:84] Creating Layer conv3_3
I0419 10:45:10.514274 30498 net.cpp:406] conv3_3 <- conv3_2
I0419 10:45:10.514288 30498 net.cpp:380] conv3_3 -> conv3_3
I0419 10:45:10.518432 30498 net.cpp:122] Setting up conv3_3
I0419 10:45:10.518461 30498 net.cpp:129] Top shape: 1 256 178 127 (5787136)
I0419 10:45:10.518467 30498 net.cpp:137] Memory required for data: 721546764
I0419 10:45:10.518477 30498 layer_factory.hpp:77] Creating layer relu3_3
I0419 10:45:10.518486 30498 net.cpp:84] Creating Layer relu3_3
I0419 10:45:10.518492 30498 net.cpp:406] relu3_3 <- conv3_3
I0419 10:45:10.518499 30498 net.cpp:367] relu3_3 -> conv3_3 (in-place)
I0419 10:45:10.518764 30498 net.cpp:122] Setting up relu3_3
I0419 10:45:10.518776 30498 net.cpp:129] Top shape: 1 256 178 127 (5787136)
I0419 10:45:10.518780 30498 net.cpp:137] Memory required for data: 744695308
I0419 10:45:10.518785 30498 layer_factory.hpp:77] Creating layer pool3
I0419 10:45:10.518795 30498 net.cpp:84] Creating Layer pool3
I0419 10:45:10.518800 30498 net.cpp:406] pool3 <- conv3_3
I0419 10:45:10.518808 30498 net.cpp:380] pool3 -> pool3
I0419 10:45:10.518872 30498 net.cpp:122] Setting up pool3
I0419 10:45:10.518880 30498 net.cpp:129] Top shape: 1 256 89 64 (1458176)
I0419 10:45:10.518884 30498 net.cpp:137] Memory required for data: 750528012
I0419 10:45:10.518888 30498 layer_factory.hpp:77] Creating layer pool3_pool3_0_split
I0419 10:45:10.518896 30498 net.cpp:84] Creating Layer pool3_pool3_0_split
I0419 10:45:10.518900 30498 net.cpp:406] pool3_pool3_0_split <- pool3
I0419 10:45:10.518908 30498 net.cpp:380] pool3_pool3_0_split -> pool3_pool3_0_split_0
I0419 10:45:10.518914 30498 net.cpp:380] pool3_pool3_0_split -> pool3_pool3_0_split_1
I0419 10:45:10.518955 30498 net.cpp:122] Setting up pool3_pool3_0_split
I0419 10:45:10.518963 30498 net.cpp:129] Top shape: 1 256 89 64 (1458176)
I0419 10:45:10.518970 30498 net.cpp:129] Top shape: 1 256 89 64 (1458176)
I0419 10:45:10.518972 30498 net.cpp:137] Memory required for data: 762193420
I0419 10:45:10.518976 30498 layer_factory.hpp:77] Creating layer conv4_1
I0419 10:45:10.518988 30498 net.cpp:84] Creating Layer conv4_1
I0419 10:45:10.518992 30498 net.cpp:406] conv4_1 <- pool3_pool3_0_split_0
I0419 10:45:10.518999 30498 net.cpp:380] conv4_1 -> conv4_1
I0419 10:45:10.527796 30498 net.cpp:122] Setting up conv4_1
I0419 10:45:10.527829 30498 net.cpp:129] Top shape: 1 512 89 64 (2916352)
I0419 10:45:10.527834 30498 net.cpp:137] Memory required for data: 773858828
I0419 10:45:10.527844 30498 layer_factory.hpp:77] Creating layer relu4_1
I0419 10:45:10.527855 30498 net.cpp:84] Creating Layer relu4_1
I0419 10:45:10.527860 30498 net.cpp:406] relu4_1 <- conv4_1
I0419 10:45:10.527868 30498 net.cpp:367] relu4_1 -> conv4_1 (in-place)
I0419 10:45:10.528133 30498 net.cpp:122] Setting up relu4_1
I0419 10:45:10.528146 30498 net.cpp:129] Top shape: 1 512 89 64 (2916352)
I0419 10:45:10.528151 30498 net.cpp:137] Memory required for data: 785524236
I0419 10:45:10.528154 30498 layer_factory.hpp:77] Creating layer conv4_2
I0419 10:45:10.528167 30498 net.cpp:84] Creating Layer conv4_2
I0419 10:45:10.528172 30498 net.cpp:406] conv4_2 <- conv4_1
I0419 10:45:10.528180 30498 net.cpp:380] conv4_2 -> conv4_2
I0419 10:45:10.543284 30498 net.cpp:122] Setting up conv4_2
I0419 10:45:10.543318 30498 net.cpp:129] Top shape: 1 512 89 64 (2916352)
I0419 10:45:10.543323 30498 net.cpp:137] Memory required for data: 797189644
I0419 10:45:10.543342 30498 layer_factory.hpp:77] Creating layer relu4_2
I0419 10:45:10.543354 30498 net.cpp:84] Creating Layer relu4_2
I0419 10:45:10.543360 30498 net.cpp:406] relu4_2 <- conv4_2
I0419 10:45:10.543380 30498 net.cpp:367] relu4_2 -> conv4_2 (in-place)
I0419 10:45:10.543632 30498 net.cpp:122] Setting up relu4_2
I0419 10:45:10.543643 30498 net.cpp:129] Top shape: 1 512 89 64 (2916352)
I0419 10:45:10.543648 30498 net.cpp:137] Memory required for data: 808855052
I0419 10:45:10.543653 30498 layer_factory.hpp:77] Creating layer conv4_3
I0419 10:45:10.543665 30498 net.cpp:84] Creating Layer conv4_3
I0419 10:45:10.543670 30498 net.cpp:406] conv4_3 <- conv4_2
I0419 10:45:10.543679 30498 net.cpp:380] conv4_3 -> conv4_3
I0419 10:45:10.556413 30498 net.cpp:122] Setting up conv4_3
I0419 10:45:10.556458 30498 net.cpp:129] Top shape: 1 512 89 64 (2916352)
I0419 10:45:10.556468 30498 net.cpp:137] Memory required for data: 820520460
I0419 10:45:10.556483 30498 layer_factory.hpp:77] Creating layer relu4_3
I0419 10:45:10.556497 30498 net.cpp:84] Creating Layer relu4_3
I0419 10:45:10.556517 30498 net.cpp:406] relu4_3 <- conv4_3
I0419 10:45:10.556529 30498 net.cpp:367] relu4_3 -> conv4_3 (in-place)
I0419 10:45:10.556892 30498 net.cpp:122] Setting up relu4_3
I0419 10:45:10.556922 30498 net.cpp:129] Top shape: 1 512 89 64 (2916352)
I0419 10:45:10.556929 30498 net.cpp:137] Memory required for data: 832185868
I0419 10:45:10.556936 30498 layer_factory.hpp:77] Creating layer pool4
I0419 10:45:10.556958 30498 net.cpp:84] Creating Layer pool4
I0419 10:45:10.556975 30498 net.cpp:406] pool4 <- conv4_3
I0419 10:45:10.556988 30498 net.cpp:380] pool4 -> pool4
I0419 10:45:10.557081 30498 net.cpp:122] Setting up pool4
I0419 10:45:10.557096 30498 net.cpp:129] Top shape: 1 512 45 32 (737280)
I0419 10:45:10.557101 30498 net.cpp:137] Memory required for data: 835134988
I0419 10:45:10.557108 30498 layer_factory.hpp:77] Creating layer pool4_pool4_0_split
I0419 10:45:10.557121 30498 net.cpp:84] Creating Layer pool4_pool4_0_split
I0419 10:45:10.557128 30498 net.cpp:406] pool4_pool4_0_split <- pool4
I0419 10:45:10.557139 30498 net.cpp:380] pool4_pool4_0_split -> pool4_pool4_0_split_0
I0419 10:45:10.557152 30498 net.cpp:380] pool4_pool4_0_split -> pool4_pool4_0_split_1
I0419 10:45:10.557224 30498 net.cpp:122] Setting up pool4_pool4_0_split
I0419 10:45:10.557236 30498 net.cpp:129] Top shape: 1 512 45 32 (737280)
I0419 10:45:10.557245 30498 net.cpp:129] Top shape: 1 512 45 32 (737280)
I0419 10:45:10.557251 30498 net.cpp:137] Memory required for data: 841033228
I0419 10:45:10.557257 30498 layer_factory.hpp:77] Creating layer conv5_1
I0419 10:45:10.557274 30498 net.cpp:84] Creating Layer conv5_1
I0419 10:45:10.557281 30498 net.cpp:406] conv5_1 <- pool4_pool4_0_split_0
I0419 10:45:10.557296 30498 net.cpp:380] conv5_1 -> conv5_1
I0419 10:45:10.567512 30498 net.cpp:122] Setting up conv5_1
I0419 10:45:10.567543 30498 net.cpp:129] Top shape: 1 512 45 32 (737280)
I0419 10:45:10.567549 30498 net.cpp:137] Memory required for data: 843982348
I0419 10:45:10.567560 30498 layer_factory.hpp:77] Creating layer relu5_1
I0419 10:45:10.567572 30498 net.cpp:84] Creating Layer relu5_1
I0419 10:45:10.567577 30498 net.cpp:406] relu5_1 <- conv5_1
I0419 10:45:10.567585 30498 net.cpp:367] relu5_1 -> conv5_1 (in-place)
I0419 10:45:10.568235 30498 net.cpp:122] Setting up relu5_1
I0419 10:45:10.568251 30498 net.cpp:129] Top shape: 1 512 45 32 (737280)
I0419 10:45:10.568256 30498 net.cpp:137] Memory required for data: 846931468
I0419 10:45:10.568260 30498 layer_factory.hpp:77] Creating layer conv5_2
I0419 10:45:10.568274 30498 net.cpp:84] Creating Layer conv5_2
I0419 10:45:10.568279 30498 net.cpp:406] conv5_2 <- conv5_1
I0419 10:45:10.568289 30498 net.cpp:380] conv5_2 -> conv5_2
I0419 10:45:10.579293 30498 net.cpp:122] Setting up conv5_2
I0419 10:45:10.579324 30498 net.cpp:129] Top shape: 1 512 45 32 (737280)
I0419 10:45:10.579330 30498 net.cpp:137] Memory required for data: 849880588
I0419 10:45:10.579341 30498 layer_factory.hpp:77] Creating layer relu5_2
I0419 10:45:10.579360 30498 net.cpp:84] Creating Layer relu5_2
I0419 10:45:10.579366 30498 net.cpp:406] relu5_2 <- conv5_2
I0419 10:45:10.579377 30498 net.cpp:367] relu5_2 -> conv5_2 (in-place)
I0419 10:45:10.580982 30498 net.cpp:122] Setting up relu5_2
I0419 10:45:10.581027 30498 net.cpp:129] Top shape: 1 512 45 32 (737280)
I0419 10:45:10.581032 30498 net.cpp:137] Memory required for data: 852829708
I0419 10:45:10.581038 30498 layer_factory.hpp:77] Creating layer conv5_3
I0419 10:45:10.581058 30498 net.cpp:84] Creating Layer conv5_3
I0419 10:45:10.581064 30498 net.cpp:406] conv5_3 <- conv5_2
I0419 10:45:10.581075 30498 net.cpp:380] conv5_3 -> conv5_3
I0419 10:45:10.595188 30498 net.cpp:122] Setting up conv5_3
I0419 10:45:10.595232 30498 net.cpp:129] Top shape: 1 512 45 32 (737280)
I0419 10:45:10.595238 30498 net.cpp:137] Memory required for data: 855778828
I0419 10:45:10.595255 30498 layer_factory.hpp:77] Creating layer relu5_3
I0419 10:45:10.595270 30498 net.cpp:84] Creating Layer relu5_3
I0419 10:45:10.595279 30498 net.cpp:406] relu5_3 <- conv5_3
I0419 10:45:10.595289 30498 net.cpp:367] relu5_3 -> conv5_3 (in-place)
I0419 10:45:10.595602 30498 net.cpp:122] Setting up relu5_3
I0419 10:45:10.595618 30498 net.cpp:129] Top shape: 1 512 45 32 (737280)
I0419 10:45:10.595631 30498 net.cpp:137] Memory required for data: 858727948
I0419 10:45:10.595638 30498 layer_factory.hpp:77] Creating layer pool5
I0419 10:45:10.595662 30498 net.cpp:84] Creating Layer pool5
I0419 10:45:10.595669 30498 net.cpp:406] pool5 <- conv5_3
I0419 10:45:10.595679 30498 net.cpp:380] pool5 -> pool5
I0419 10:45:10.595757 30498 net.cpp:122] Setting up pool5
I0419 10:45:10.595770 30498 net.cpp:129] Top shape: 1 512 23 16 (188416)
I0419 10:45:10.595777 30498 net.cpp:137] Memory required for data: 859481612
I0419 10:45:10.595782 30498 layer_factory.hpp:77] Creating layer fc6
I0419 10:45:10.595798 30498 net.cpp:84] Creating Layer fc6
I0419 10:45:10.595805 30498 net.cpp:406] fc6 <- pool5
I0419 10:45:10.595818 30498 net.cpp:380] fc6 -> fc6
I0419 10:45:10.918509 30498 net.cpp:122] Setting up fc6
I0419 10:45:10.918565 30498 net.cpp:129] Top shape: 1 4096 17 10 (696320)
I0419 10:45:10.918570 30498 net.cpp:137] Memory required for data: 862266892
I0419 10:45:10.918592 30498 layer_factory.hpp:77] Creating layer relu6
I0419 10:45:10.918612 30498 net.cpp:84] Creating Layer relu6
I0419 10:45:10.918633 30498 net.cpp:406] relu6 <- fc6
I0419 10:45:10.918643 30498 net.cpp:367] relu6 -> fc6 (in-place)
I0419 10:45:10.918850 30498 net.cpp:122] Setting up relu6
I0419 10:45:10.918861 30498 net.cpp:129] Top shape: 1 4096 17 10 (696320)
I0419 10:45:10.918864 30498 net.cpp:137] Memory required for data: 865052172
I0419 10:45:10.918869 30498 layer_factory.hpp:77] Creating layer drop6
I0419 10:45:10.918884 30498 net.cpp:84] Creating Layer drop6
I0419 10:45:10.918887 30498 net.cpp:406] drop6 <- fc6
I0419 10:45:10.918891 30498 net.cpp:367] drop6 -> fc6 (in-place)
I0419 10:45:10.918926 30498 net.cpp:122] Setting up drop6
I0419 10:45:10.918937 30498 net.cpp:129] Top shape: 1 4096 17 10 (696320)
I0419 10:45:10.918939 30498 net.cpp:137] Memory required for data: 867837452
I0419 10:45:10.918942 30498 layer_factory.hpp:77] Creating layer fc7
I0419 10:45:10.918956 30498 net.cpp:84] Creating Layer fc7
I0419 10:45:10.918961 30498 net.cpp:406] fc7 <- fc6
I0419 10:45:10.918967 30498 net.cpp:380] fc7 -> fc7
I0419 10:45:10.971999 30498 net.cpp:122] Setting up fc7
I0419 10:45:10.972048 30498 net.cpp:129] Top shape: 1 4096 17 10 (696320)
I0419 10:45:10.972052 30498 net.cpp:137] Memory required for data: 870622732
I0419 10:45:10.972062 30498 layer_factory.hpp:77] Creating layer relu7
I0419 10:45:10.972077 30498 net.cpp:84] Creating Layer relu7
I0419 10:45:10.972082 30498 net.cpp:406] relu7 <- fc7
I0419 10:45:10.972090 30498 net.cpp:367] relu7 -> fc7 (in-place)
I0419 10:45:10.972301 30498 net.cpp:122] Setting up relu7
I0419 10:45:10.972311 30498 net.cpp:129] Top shape: 1 4096 17 10 (696320)
I0419 10:45:10.972314 30498 net.cpp:137] Memory required for data: 873408012
I0419 10:45:10.972318 30498 layer_factory.hpp:77] Creating layer drop7
I0419 10:45:10.972328 30498 net.cpp:84] Creating Layer drop7
I0419 10:45:10.972332 30498 net.cpp:406] drop7 <- fc7
I0419 10:45:10.972337 30498 net.cpp:367] drop7 -> fc7 (in-place)
I0419 10:45:10.972370 30498 net.cpp:122] Setting up drop7
I0419 10:45:10.972376 30498 net.cpp:129] Top shape: 1 4096 17 10 (696320)
I0419 10:45:10.972378 30498 net.cpp:137] Memory required for data: 876193292
I0419 10:45:10.972383 30498 layer_factory.hpp:77] Creating layer score_fr-new
I0419 10:45:10.972393 30498 net.cpp:84] Creating Layer score_fr-new
I0419 10:45:10.972398 30498 net.cpp:406] score_fr-new <- fc7
I0419 10:45:10.972409 30498 net.cpp:380] score_fr-new -> score_fr-new
I0419 10:45:10.974356 30498 net.cpp:122] Setting up score_fr-new
I0419 10:45:10.974372 30498 net.cpp:129] Top shape: 1 3 17 10 (510)
I0419 10:45:10.974391 30498 net.cpp:137] Memory required for data: 876195332
I0419 10:45:10.974398 30498 layer_factory.hpp:77] Creating layer upscore2-new
I0419 10:45:10.974416 30498 net.cpp:84] Creating Layer upscore2-new
I0419 10:45:10.974419 30498 net.cpp:406] upscore2-new <- score_fr-new
I0419 10:45:10.974426 30498 net.cpp:380] upscore2-new -> upscore2-new
I0419 10:45:10.974661 30498 net.cpp:122] Setting up upscore2-new
I0419 10:45:10.974670 30498 net.cpp:129] Top shape: 1 3 36 22 (2376)
I0419 10:45:10.974678 30498 net.cpp:137] Memory required for data: 876204836
I0419 10:45:10.974691 30498 layer_factory.hpp:77] Creating layer upscore2-new_upscore2-new_0_split
I0419 10:45:10.974700 30498 net.cpp:84] Creating Layer upscore2-new_upscore2-new_0_split
I0419 10:45:10.974704 30498 net.cpp:406] upscore2-new_upscore2-new_0_split <- upscore2-new
I0419 10:45:10.974711 30498 net.cpp:380] upscore2-new_upscore2-new_0_split -> upscore2-new_upscore2-new_0_split_0
I0419 10:45:10.974717 30498 net.cpp:380] upscore2-new_upscore2-new_0_split -> upscore2-new_upscore2-new_0_split_1
I0419 10:45:10.974751 30498 net.cpp:122] Setting up upscore2-new_upscore2-new_0_split
I0419 10:45:10.974757 30498 net.cpp:129] Top shape: 1 3 36 22 (2376)
I0419 10:45:10.974761 30498 net.cpp:129] Top shape: 1 3 36 22 (2376)
I0419 10:45:10.974764 30498 net.cpp:137] Memory required for data: 876223844
I0419 10:45:10.974767 30498 layer_factory.hpp:77] Creating layer score_pool4-new
I0419 10:45:10.974781 30498 net.cpp:84] Creating Layer score_pool4-new
I0419 10:45:10.974784 30498 net.cpp:406] score_pool4-new <- pool4_pool4_0_split_1
I0419 10:45:10.974791 30498 net.cpp:380] score_pool4-new -> score_pool4-new
I0419 10:45:10.976001 30498 net.cpp:122] Setting up score_pool4-new
I0419 10:45:10.976016 30498 net.cpp:129] Top shape: 1 3 45 32 (4320)
I0419 10:45:10.976035 30498 net.cpp:137] Memory required for data: 876241124
I0419 10:45:10.976042 30498 layer_factory.hpp:77] Creating layer score_pool4c
I0419 10:45:10.976054 30498 net.cpp:84] Creating Layer score_pool4c
I0419 10:45:10.976058 30498 net.cpp:406] score_pool4c <- score_pool4-new
I0419 10:45:10.976063 30498 net.cpp:406] score_pool4c <- upscore2-new_upscore2-new_0_split_0
I0419 10:45:10.976068 30498 net.cpp:380] score_pool4c -> score_pool4c
I0419 10:45:10.976119 30498 net.cpp:122] Setting up score_pool4c
I0419 10:45:10.976124 30498 net.cpp:129] Top shape: 1 3 36 22 (2376)
I0419 10:45:10.976126 30498 net.cpp:137] Memory required for data: 876250628
I0419 10:45:10.976130 30498 layer_factory.hpp:77] Creating layer fuse_pool4
I0419 10:45:10.976137 30498 net.cpp:84] Creating Layer fuse_pool4
I0419 10:45:10.976141 30498 net.cpp:406] fuse_pool4 <- upscore2-new_upscore2-new_0_split_1
I0419 10:45:10.976145 30498 net.cpp:406] fuse_pool4 <- score_pool4c
I0419 10:45:10.976152 30498 net.cpp:380] fuse_pool4 -> fuse_pool4
I0419 10:45:10.976179 30498 net.cpp:122] Setting up fuse_pool4
I0419 10:45:10.976197 30498 net.cpp:129] Top shape: 1 3 36 22 (2376)
I0419 10:45:10.976199 30498 net.cpp:137] Memory required for data: 876260132
I0419 10:45:10.976202 30498 layer_factory.hpp:77] Creating layer upscore_pool4-new
I0419 10:45:10.976212 30498 net.cpp:84] Creating Layer upscore_pool4-new
I0419 10:45:10.976215 30498 net.cpp:406] upscore_pool4-new <- fuse_pool4
I0419 10:45:10.976222 30498 net.cpp:380] upscore_pool4-new -> upscore_pool4-new
I0419 10:45:10.976414 30498 net.cpp:122] Setting up upscore_pool4-new
I0419 10:45:10.976423 30498 net.cpp:129] Top shape: 1 3 74 46 (10212)
I0419 10:45:10.976426 30498 net.cpp:137] Memory required for data: 876300980
I0419 10:45:10.976430 30498 layer_factory.hpp:77] Creating layer upscore_pool4-new_upscore_pool4-new_0_split
I0419 10:45:10.976438 30498 net.cpp:84] Creating Layer upscore_pool4-new_upscore_pool4-new_0_split
I0419 10:45:10.976441 30498 net.cpp:406] upscore_pool4-new_upscore_pool4-new_0_split <- upscore_pool4-new
I0419 10:45:10.976447 30498 net.cpp:380] upscore_pool4-new_upscore_pool4-new_0_split -> upscore_pool4-new_upscore_pool4-new_0_split_0
I0419 10:45:10.976454 30498 net.cpp:380] upscore_pool4-new_upscore_pool4-new_0_split -> upscore_pool4-new_upscore_pool4-new_0_split_1
I0419 10:45:10.976487 30498 net.cpp:122] Setting up upscore_pool4-new_upscore_pool4-new_0_split
I0419 10:45:10.976500 30498 net.cpp:129] Top shape: 1 3 74 46 (10212)
I0419 10:45:10.976503 30498 net.cpp:129] Top shape: 1 3 74 46 (10212)
I0419 10:45:10.976506 30498 net.cpp:137] Memory required for data: 876382676
I0419 10:45:10.976510 30498 layer_factory.hpp:77] Creating layer score_pool3-new
I0419 10:45:10.976521 30498 net.cpp:84] Creating Layer score_pool3-new
I0419 10:45:10.976523 30498 net.cpp:406] score_pool3-new <- pool3_pool3_0_split_1
I0419 10:45:10.976531 30498 net.cpp:380] score_pool3-new -> score_pool3-new
I0419 10:45:10.977771 30498 net.cpp:122] Setting up score_pool3-new
I0419 10:45:10.977802 30498 net.cpp:129] Top shape: 1 3 89 64 (17088)
I0419 10:45:10.977807 30498 net.cpp:137] Memory required for data: 876451028
I0419 10:45:10.977813 30498 layer_factory.hpp:77] Creating layer score_pool3c
I0419 10:45:10.977821 30498 net.cpp:84] Creating Layer score_pool3c
I0419 10:45:10.977825 30498 net.cpp:406] score_pool3c <- score_pool3-new
I0419 10:45:10.977829 30498 net.cpp:406] score_pool3c <- upscore_pool4-new_upscore_pool4-new_0_split_0
I0419 10:45:10.977834 30498 net.cpp:380] score_pool3c -> score_pool3c
I0419 10:45:10.977880 30498 net.cpp:122] Setting up score_pool3c
I0419 10:45:10.977886 30498 net.cpp:129] Top shape: 1 3 74 46 (10212)
I0419 10:45:10.977890 30498 net.cpp:137] Memory required for data: 876491876
I0419 10:45:10.977892 30498 layer_factory.hpp:77] Creating layer fuse_pool3
I0419 10:45:10.977900 30498 net.cpp:84] Creating Layer fuse_pool3
I0419 10:45:10.977903 30498 net.cpp:406] fuse_pool3 <- upscore_pool4-new_upscore_pool4-new_0_split_1
I0419 10:45:10.977907 30498 net.cpp:406] fuse_pool3 <- score_pool3c
I0419 10:45:10.977912 30498 net.cpp:380] fuse_pool3 -> fuse_pool3
I0419 10:45:10.977936 30498 net.cpp:122] Setting up fuse_pool3
I0419 10:45:10.977941 30498 net.cpp:129] Top shape: 1 3 74 46 (10212)
I0419 10:45:10.977944 30498 net.cpp:137] Memory required for data: 876532724
I0419 10:45:10.977947 30498 layer_factory.hpp:77] Creating layer upscore8-new
I0419 10:45:10.977957 30498 net.cpp:84] Creating Layer upscore8-new
I0419 10:45:10.977962 30498 net.cpp:406] upscore8-new <- fuse_pool3
I0419 10:45:10.977967 30498 net.cpp:380] upscore8-new -> upscore8-new
I0419 10:45:10.978185 30498 net.cpp:122] Setting up upscore8-new
I0419 10:45:10.978211 30498 net.cpp:129] Top shape: 1 3 600 376 (676800)
I0419 10:45:10.978214 30498 net.cpp:137] Memory required for data: 879239924
I0419 10:45:10.978219 30498 layer_factory.hpp:77] Creating layer upscore8_cropped
I0419 10:45:10.978229 30498 net.cpp:84] Creating Layer upscore8_cropped
I0419 10:45:10.978233 30498 net.cpp:406] upscore8_cropped <- upscore8-new
I0419 10:45:10.978240 30498 net.cpp:406] upscore8_cropped <- data_data_0_split_1
I0419 10:45:10.978246 30498 net.cpp:380] upscore8_cropped -> upscore8_cropped
I0419 10:45:10.978269 30498 net.cpp:122] Setting up upscore8_cropped
I0419 10:45:10.978276 30498 net.cpp:129] Top shape: 1 3 512 310 (476160)
I0419 10:45:10.978277 30498 net.cpp:137] Memory required for data: 881144564
I0419 10:45:10.978281 30498 layer_factory.hpp:77] Creating layer score
I0419 10:45:10.978291 30498 net.cpp:84] Creating Layer score
I0419 10:45:10.978294 30498 net.cpp:406] score <- upscore8_cropped
I0419 10:45:10.978302 30498 net.cpp:380] score -> score
I0419 10:45:10.980029 30498 net.cpp:122] Setting up score
I0419 10:45:10.980043 30498 net.cpp:129] Top shape: 1 3 512 310 (476160)
I0419 10:45:10.980063 30498 net.cpp:137] Memory required for data: 883049204
I0419 10:45:10.980069 30498 layer_factory.hpp:77] Creating layer score_score_0_split
I0419 10:45:10.980077 30498 net.cpp:84] Creating Layer score_score_0_split
I0419 10:45:10.980080 30498 net.cpp:406] score_score_0_split <- score
I0419 10:45:10.980087 30498 net.cpp:380] score_score_0_split -> score_score_0_split_0
I0419 10:45:10.980093 30498 net.cpp:380] score_score_0_split -> score_score_0_split_1
I0419 10:45:10.980155 30498 net.cpp:122] Setting up score_score_0_split
I0419 10:45:10.980168 30498 net.cpp:129] Top shape: 1 3 512 310 (476160)
I0419 10:45:10.980172 30498 net.cpp:129] Top shape: 1 3 512 310 (476160)
I0419 10:45:10.980175 30498 net.cpp:137] Memory required for data: 886858484
I0419 10:45:10.980180 30498 layer_factory.hpp:77] Creating layer prob
I0419 10:45:10.980190 30498 net.cpp:84] Creating Layer prob
I0419 10:45:10.980192 30498 net.cpp:406] prob <- score_score_0_split_0
I0419 10:45:10.980197 30498 net.cpp:380] prob -> prob
I0419 10:45:10.980422 30498 net.cpp:122] Setting up prob
I0419 10:45:10.980433 30498 net.cpp:129] Top shape: 1 3 512 310 (476160)
I0419 10:45:10.980437 30498 net.cpp:137] Memory required for data: 888763124
I0419 10:45:10.980439 30498 layer_factory.hpp:77] Creating layer prob_prob_0_split
I0419 10:45:10.980446 30498 net.cpp:84] Creating Layer prob_prob_0_split
I0419 10:45:10.980450 30498 net.cpp:406] prob_prob_0_split <- prob
I0419 10:45:10.980455 30498 net.cpp:380] prob_prob_0_split -> prob_prob_0_split_0
I0419 10:45:10.980461 30498 net.cpp:380] prob_prob_0_split -> prob_prob_0_split_1
I0419 10:45:10.980501 30498 net.cpp:122] Setting up prob_prob_0_split
I0419 10:45:10.980509 30498 net.cpp:129] Top shape: 1 3 512 310 (476160)
I0419 10:45:10.980514 30498 net.cpp:129] Top shape: 1 3 512 310 (476160)
I0419 10:45:10.980516 30498 net.cpp:137] Memory required for data: 892572404
I0419 10:45:10.980520 30498 layer_factory.hpp:77] Creating layer saliency
I0419 10:45:10.980530 30498 net.cpp:84] Creating Layer saliency
I0419 10:45:10.980535 30498 net.cpp:406] saliency <- prob_prob_0_split_0
I0419 10:45:10.980540 30498 net.cpp:380] saliency -> saliency
I0419 10:45:10.983490 30498 net.cpp:122] Setting up saliency
I0419 10:45:10.983506 30498 net.cpp:129] Top shape: 1 3 512 310 (476160)
I0419 10:45:10.983525 30498 net.cpp:137] Memory required for data: 894477044
I0419 10:45:10.983536 30498 layer_factory.hpp:77] Creating layer saliency_data
I0419 10:45:10.983542 30498 net.cpp:84] Creating Layer saliency_data
I0419 10:45:10.983546 30498 net.cpp:406] saliency_data <- data_data_0_split_2
I0419 10:45:10.983551 30498 net.cpp:406] saliency_data <- saliency
I0419 10:45:10.983556 30498 net.cpp:380] saliency_data -> saliency_data
I0419 10:45:10.983606 30498 net.cpp:122] Setting up saliency_data
I0419 10:45:10.983613 30498 net.cpp:129] Top shape: 1 3 512 310 (476160)
I0419 10:45:10.983615 30498 net.cpp:137] Memory required for data: 896381684
I0419 10:45:10.983621 30498 layer_factory.hpp:77] Creating layer crop
I0419 10:45:10.984306 30498 net.cpp:84] Creating Layer crop
I0419 10:45:10.984318 30498 net.cpp:406] crop <- prob_prob_0_split_1
I0419 10:45:10.984338 30498 net.cpp:406] crop <- saliency_data
I0419 10:45:10.984342 30498 net.cpp:406] crop <- crop_margin
I0419 10:45:10.984346 30498 net.cpp:406] crop <- crop_prob
I0419 10:45:10.984352 30498 net.cpp:406] crop <- crop_sample_batch
I0419 10:45:10.984356 30498 net.cpp:406] crop <- label_data_1_split_0
I0419 10:45:10.984361 30498 net.cpp:380] crop -> data-R
I0419 10:45:10.984369 30498 net.cpp:380] crop -> crop_info
I0419 10:45:10.995558 30498 net.cpp:122] Setting up crop
I0419 10:45:10.995599 30498 net.cpp:129] Top shape: 1 3 512 310 (476160)
I0419 10:45:10.995604 30498 net.cpp:129] Top shape: 1 2 4 (8)
I0419 10:45:10.995607 30498 net.cpp:137] Memory required for data: 898286356
I0419 10:45:10.995615 30498 layer_factory.hpp:77] Creating layer data-R_crop_0_split
I0419 10:45:10.995626 30498 net.cpp:84] Creating Layer data-R_crop_0_split
I0419 10:45:10.995631 30498 net.cpp:406] data-R_crop_0_split <- data-R
I0419 10:45:10.995638 30498 net.cpp:380] data-R_crop_0_split -> data-R_crop_0_split_0
I0419 10:45:10.995663 30498 net.cpp:380] data-R_crop_0_split -> data-R_crop_0_split_1
I0419 10:45:10.995712 30498 net.cpp:122] Setting up data-R_crop_0_split
I0419 10:45:10.995718 30498 net.cpp:129] Top shape: 1 3 512 310 (476160)
I0419 10:45:10.995721 30498 net.cpp:129] Top shape: 1 3 512 310 (476160)
I0419 10:45:10.995724 30498 net.cpp:137] Memory required for data: 902095636
I0419 10:45:10.995728 30498 layer_factory.hpp:77] Creating layer conv1_1-R
I0419 10:45:10.995740 30498 net.cpp:84] Creating Layer conv1_1-R
I0419 10:45:10.995744 30498 net.cpp:406] conv1_1-R <- data-R_crop_0_split_0
I0419 10:45:10.995750 30498 net.cpp:380] conv1_1-R -> conv1_1-R
I0419 10:45:10.998890 30498 net.cpp:122] Setting up conv1_1-R
I0419 10:45:10.998905 30498 net.cpp:129] Top shape: 1 64 710 508 (23083520)
I0419 10:45:10.998925 30498 net.cpp:137] Memory required for data: 994429716
I0419 10:45:10.998934 30498 layer_factory.hpp:77] Creating layer relu1_1-R
I0419 10:45:10.998960 30498 net.cpp:84] Creating Layer relu1_1-R
I0419 10:45:10.998980 30498 net.cpp:406] relu1_1-R <- conv1_1-R
I0419 10:45:10.998984 30498 net.cpp:367] relu1_1-R -> conv1_1-R (in-place)
I0419 10:45:10.999174 30498 net.cpp:122] Setting up relu1_1-R
I0419 10:45:10.999186 30498 net.cpp:129] Top shape: 1 64 710 508 (23083520)
I0419 10:45:10.999188 30498 net.cpp:137] Memory required for data: 1086763796
I0419 10:45:10.999194 30498 layer_factory.hpp:77] Creating layer conv1_2-R
I0419 10:45:10.999203 30498 net.cpp:84] Creating Layer conv1_2-R
I0419 10:45:10.999207 30498 net.cpp:406] conv1_2-R <- conv1_1-R
I0419 10:45:10.999213 30498 net.cpp:380] conv1_2-R -> conv1_2-R
I0419 10:45:11.007625 30498 net.cpp:122] Setting up conv1_2-R
I0419 10:45:11.007663 30498 net.cpp:129] Top shape: 1 64 710 508 (23083520)
I0419 10:45:11.007668 30498 net.cpp:137] Memory required for data: 1179097876
I0419 10:45:11.007675 30498 layer_factory.hpp:77] Creating layer relu1_2-R
I0419 10:45:11.007683 30498 net.cpp:84] Creating Layer relu1_2-R
I0419 10:45:11.007688 30498 net.cpp:406] relu1_2-R <- conv1_2-R
I0419 10:45:11.007692 30498 net.cpp:367] relu1_2-R -> conv1_2-R (in-place)
I0419 10:45:11.007907 30498 net.cpp:122] Setting up relu1_2-R
I0419 10:45:11.007917 30498 net.cpp:129] Top shape: 1 64 710 508 (23083520)
I0419 10:45:11.007921 30498 net.cpp:137] Memory required for data: 1271431956
I0419 10:45:11.007925 30498 layer_factory.hpp:77] Creating layer pool1-R
I0419 10:45:11.007937 30498 net.cpp:84] Creating Layer pool1-R
I0419 10:45:11.007942 30498 net.cpp:406] pool1-R <- conv1_2-R
I0419 10:45:11.007948 30498 net.cpp:380] pool1-R -> pool1-R
I0419 10:45:11.007999 30498 net.cpp:122] Setting up pool1-R
I0419 10:45:11.008008 30498 net.cpp:129] Top shape: 1 64 355 254 (5770880)
I0419 10:45:11.008011 30498 net.cpp:137] Memory required for data: 1294515476
I0419 10:45:11.008014 30498 layer_factory.hpp:77] Creating layer conv2_1-R
I0419 10:45:11.008023 30498 net.cpp:84] Creating Layer conv2_1-R
I0419 10:45:11.008026 30498 net.cpp:406] conv2_1-R <- pool1-R
I0419 10:45:11.008033 30498 net.cpp:380] conv2_1-R -> conv2_1-R
I0419 10:45:11.010635 30498 net.cpp:122] Setting up conv2_1-R
I0419 10:45:11.010651 30498 net.cpp:129] Top shape: 1 128 355 254 (11541760)
I0419 10:45:11.010671 30498 net.cpp:137] Memory required for data: 1340682516
I0419 10:45:11.010680 30498 layer_factory.hpp:77] Creating layer relu2_1-R
I0419 10:45:11.010699 30498 net.cpp:84] Creating Layer relu2_1-R
I0419 10:45:11.010704 30498 net.cpp:406] relu2_1-R <- conv2_1-R
I0419 10:45:11.010710 30498 net.cpp:367] relu2_1-R -> conv2_1-R (in-place)
I0419 10:45:11.010924 30498 net.cpp:122] Setting up relu2_1-R
I0419 10:45:11.010936 30498 net.cpp:129] Top shape: 1 128 355 254 (11541760)
I0419 10:45:11.010938 30498 net.cpp:137] Memory required for data: 1386849556
I0419 10:45:11.010942 30498 layer_factory.hpp:77] Creating layer conv2_2-R
I0419 10:45:11.010952 30498 net.cpp:84] Creating Layer conv2_2-R
I0419 10:45:11.010957 30498 net.cpp:406] conv2_2-R <- conv2_1-R
I0419 10:45:11.010962 30498 net.cpp:380] conv2_2-R -> conv2_2-R
I0419 10:45:11.013929 30498 net.cpp:122] Setting up conv2_2-R
I0419 10:45:11.013943 30498 net.cpp:129] Top shape: 1 128 355 254 (11541760)
I0419 10:45:11.013963 30498 net.cpp:137] Memory required for data: 1433016596
I0419 10:45:11.013970 30498 layer_factory.hpp:77] Creating layer relu2_2-R
I0419 10:45:11.013976 30498 net.cpp:84] Creating Layer relu2_2-R
I0419 10:45:11.013981 30498 net.cpp:406] relu2_2-R <- conv2_2-R
I0419 10:45:11.013986 30498 net.cpp:367] relu2_2-R -> conv2_2-R (in-place)
I0419 10:45:11.014755 30498 net.cpp:122] Setting up relu2_2-R
I0419 10:45:11.014801 30498 net.cpp:129] Top shape: 1 128 355 254 (11541760)
I0419 10:45:11.014808 30498 net.cpp:137] Memory required for data: 1479183636
I0419 10:45:11.014818 30498 layer_factory.hpp:77] Creating layer pool2-R
I0419 10:45:11.014830 30498 net.cpp:84] Creating Layer pool2-R
I0419 10:45:11.014837 30498 net.cpp:406] pool2-R <- conv2_2-R
I0419 10:45:11.014858 30498 net.cpp:380] pool2-R -> pool2-R
I0419 10:45:11.014940 30498 net.cpp:122] Setting up pool2-R
I0419 10:45:11.014951 30498 net.cpp:129] Top shape: 1 128 178 127 (2893568)
I0419 10:45:11.014957 30498 net.cpp:137] Memory required for data: 1490757908
I0419 10:45:11.014964 30498 layer_factory.hpp:77] Creating layer conv3_1-R
I0419 10:45:11.014979 30498 net.cpp:84] Creating Layer conv3_1-R
I0419 10:45:11.014986 30498 net.cpp:406] conv3_1-R <- pool2-R
I0419 10:45:11.014995 30498 net.cpp:380] conv3_1-R -> conv3_1-R
I0419 10:45:11.019309 30498 net.cpp:122] Setting up conv3_1-R
I0419 10:45:11.019325 30498 net.cpp:129] Top shape: 1 256 178 127 (5787136)
I0419 10:45:11.019345 30498 net.cpp:137] Memory required for data: 1513906452
I0419 10:45:11.019351 30498 layer_factory.hpp:77] Creating layer relu3_1-R
I0419 10:45:11.019358 30498 net.cpp:84] Creating Layer relu3_1-R
I0419 10:45:11.019362 30498 net.cpp:406] relu3_1-R <- conv3_1-R
I0419 10:45:11.019368 30498 net.cpp:367] relu3_1-R -> conv3_1-R (in-place)
I0419 10:45:11.019582 30498 net.cpp:122] Setting up relu3_1-R
I0419 10:45:11.019592 30498 net.cpp:129] Top shape: 1 256 178 127 (5787136)
I0419 10:45:11.019595 30498 net.cpp:137] Memory required for data: 1537054996
I0419 10:45:11.019598 30498 layer_factory.hpp:77] Creating layer conv3_2-R
I0419 10:45:11.019609 30498 net.cpp:84] Creating Layer conv3_2-R
I0419 10:45:11.019613 30498 net.cpp:406] conv3_2-R <- conv3_1-R
I0419 10:45:11.019620 30498 net.cpp:380] conv3_2-R -> conv3_2-R
I0419 10:45:11.023115 30498 net.cpp:122] Setting up conv3_2-R
I0419 10:45:11.023131 30498 net.cpp:129] Top shape: 1 256 178 127 (5787136)
I0419 10:45:11.023151 30498 net.cpp:137] Memory required for data: 1560203540
I0419 10:45:11.023159 30498 layer_factory.hpp:77] Creating layer relu3_2-R
I0419 10:45:11.023166 30498 net.cpp:84] Creating Layer relu3_2-R
I0419 10:45:11.023170 30498 net.cpp:406] relu3_2-R <- conv3_2-R
I0419 10:45:11.023175 30498 net.cpp:367] relu3_2-R -> conv3_2-R (in-place)
I0419 10:45:11.023386 30498 net.cpp:122] Setting up relu3_2-R
I0419 10:45:11.023397 30498 net.cpp:129] Top shape: 1 256 178 127 (5787136)
I0419 10:45:11.023401 30498 net.cpp:137] Memory required for data: 1583352084
I0419 10:45:11.023406 30498 layer_factory.hpp:77] Creating layer conv3_3-R
I0419 10:45:11.023416 30498 net.cpp:84] Creating Layer conv3_3-R
I0419 10:45:11.023421 30498 net.cpp:406] conv3_3-R <- conv3_2-R
I0419 10:45:11.023427 30498 net.cpp:380] conv3_3-R -> conv3_3-R
I0419 10:45:11.026849 30498 net.cpp:122] Setting up conv3_3-R
I0419 10:45:11.026863 30498 net.cpp:129] Top shape: 1 256 178 127 (5787136)
I0419 10:45:11.026883 30498 net.cpp:137] Memory required for data: 1606500628
I0419 10:45:11.026890 30498 layer_factory.hpp:77] Creating layer relu3_3-R
I0419 10:45:11.026899 30498 net.cpp:84] Creating Layer relu3_3-R
I0419 10:45:11.026903 30498 net.cpp:406] relu3_3-R <- conv3_3-R
I0419 10:45:11.026908 30498 net.cpp:367] relu3_3-R -> conv3_3-R (in-place)
I0419 10:45:11.027115 30498 net.cpp:122] Setting up relu3_3-R
I0419 10:45:11.027125 30498 net.cpp:129] Top shape: 1 256 178 127 (5787136)
I0419 10:45:11.027129 30498 net.cpp:137] Memory required for data: 1629649172
I0419 10:45:11.027132 30498 layer_factory.hpp:77] Creating layer pool3-R
I0419 10:45:11.027139 30498 net.cpp:84] Creating Layer pool3-R
I0419 10:45:11.027143 30498 net.cpp:406] pool3-R <- conv3_3-R
I0419 10:45:11.027149 30498 net.cpp:380] pool3-R -> pool3-R
I0419 10:45:11.027199 30498 net.cpp:122] Setting up pool3-R
I0419 10:45:11.027212 30498 net.cpp:129] Top shape: 1 256 89 64 (1458176)
I0419 10:45:11.027215 30498 net.cpp:137] Memory required for data: 1635481876
I0419 10:45:11.027220 30498 layer_factory.hpp:77] Creating layer pool3-R_pool3-R_0_split
I0419 10:45:11.027225 30498 net.cpp:84] Creating Layer pool3-R_pool3-R_0_split
I0419 10:45:11.027230 30498 net.cpp:406] pool3-R_pool3-R_0_split <- pool3-R
I0419 10:45:11.027235 30498 net.cpp:380] pool3-R_pool3-R_0_split -> pool3-R_pool3-R_0_split_0
I0419 10:45:11.027240 30498 net.cpp:380] pool3-R_pool3-R_0_split -> pool3-R_pool3-R_0_split_1
I0419 10:45:11.027277 30498 net.cpp:122] Setting up pool3-R_pool3-R_0_split
I0419 10:45:11.027290 30498 net.cpp:129] Top shape: 1 256 89 64 (1458176)
I0419 10:45:11.027294 30498 net.cpp:129] Top shape: 1 256 89 64 (1458176)
I0419 10:45:11.027297 30498 net.cpp:137] Memory required for data: 1647147284
I0419 10:45:11.027303 30498 layer_factory.hpp:77] Creating layer conv4_1-R
I0419 10:45:11.027312 30498 net.cpp:84] Creating Layer conv4_1-R
I0419 10:45:11.027315 30498 net.cpp:406] conv4_1-R <- pool3-R_pool3-R_0_split_0
I0419 10:45:11.027321 30498 net.cpp:380] conv4_1-R -> conv4_1-R
I0419 10:45:11.036360 30498 net.cpp:122] Setting up conv4_1-R
I0419 10:45:11.036425 30498 net.cpp:129] Top shape: 1 512 89 64 (2916352)
I0419 10:45:11.036434 30498 net.cpp:137] Memory required for data: 1658812692
I0419 10:45:11.036456 30498 layer_factory.hpp:77] Creating layer relu4_1-R
I0419 10:45:11.036484 30498 net.cpp:84] Creating Layer relu4_1-R
I0419 10:45:11.036495 30498 net.cpp:406] relu4_1-R <- conv4_1-R
I0419 10:45:11.036509 30498 net.cpp:367] relu4_1-R -> conv4_1-R (in-place)
I0419 10:45:11.036934 30498 net.cpp:122] Setting up relu4_1-R
I0419 10:45:11.036954 30498 net.cpp:129] Top shape: 1 512 89 64 (2916352)
I0419 10:45:11.036972 30498 net.cpp:137] Memory required for data: 1670478100
I0419 10:45:11.036979 30498 layer_factory.hpp:77] Creating layer conv4_2-R
I0419 10:45:11.037001 30498 net.cpp:84] Creating Layer conv4_2-R
I0419 10:45:11.037009 30498 net.cpp:406] conv4_2-R <- conv4_1-R
I0419 10:45:11.037025 30498 net.cpp:380] conv4_2-R -> conv4_2-R
I0419 10:45:11.058779 30498 net.cpp:122] Setting up conv4_2-R
I0419 10:45:11.058830 30498 net.cpp:129] Top shape: 1 512 89 64 (2916352)
I0419 10:45:11.058840 30498 net.cpp:137] Memory required for data: 1682143508
I0419 10:45:11.058856 30498 layer_factory.hpp:77] Creating layer relu4_2-R
I0419 10:45:11.058868 30498 net.cpp:84] Creating Layer relu4_2-R
I0419 10:45:11.058888 30498 net.cpp:406] relu4_2-R <- conv4_2-R
I0419 10:45:11.058900 30498 net.cpp:367] relu4_2-R -> conv4_2-R (in-place)
I0419 10:45:11.059274 30498 net.cpp:122] Setting up relu4_2-R
I0419 10:45:11.059305 30498 net.cpp:129] Top shape: 1 512 89 64 (2916352)
I0419 10:45:11.059312 30498 net.cpp:137] Memory required for data: 1693808916
I0419 10:45:11.059325 30498 layer_factory.hpp:77] Creating layer conv4_3-R
I0419 10:45:11.059342 30498 net.cpp:84] Creating Layer conv4_3-R
I0419 10:45:11.059350 30498 net.cpp:406] conv4_3-R <- conv4_2-R
I0419 10:45:11.059363 30498 net.cpp:380] conv4_3-R -> conv4_3-R
I0419 10:45:11.070138 30498 net.cpp:122] Setting up conv4_3-R
I0419 10:45:11.070179 30498 net.cpp:129] Top shape: 1 512 89 64 (2916352)
I0419 10:45:11.070184 30498 net.cpp:137] Memory required for data: 1705474324
I0419 10:45:11.070194 30498 layer_factory.hpp:77] Creating layer relu4_3-R
I0419 10:45:11.070219 30498 net.cpp:84] Creating Layer relu4_3-R
I0419 10:45:11.070225 30498 net.cpp:406] relu4_3-R <- conv4_3-R
I0419 10:45:11.070231 30498 net.cpp:367] relu4_3-R -> conv4_3-R (in-place)
I0419 10:45:11.072614 30498 net.cpp:122] Setting up relu4_3-R
I0419 10:45:11.072633 30498 net.cpp:129] Top shape: 1 512 89 64 (2916352)
I0419 10:45:11.072649 30498 net.cpp:137] Memory required for data: 1717139732
I0419 10:45:11.072654 30498 layer_factory.hpp:77] Creating layer pool4-R
I0419 10:45:11.072667 30498 net.cpp:84] Creating Layer pool4-R
I0419 10:45:11.072672 30498 net.cpp:406] pool4-R <- conv4_3-R
I0419 10:45:11.072680 30498 net.cpp:380] pool4-R -> pool4-R
I0419 10:45:11.072747 30498 net.cpp:122] Setting up pool4-R
I0419 10:45:11.072765 30498 net.cpp:129] Top shape: 1 512 45 32 (737280)
I0419 10:45:11.072769 30498 net.cpp:137] Memory required for data: 1720088852
I0419 10:45:11.072774 30498 layer_factory.hpp:77] Creating layer pool4-R_pool4-R_0_split
I0419 10:45:11.072782 30498 net.cpp:84] Creating Layer pool4-R_pool4-R_0_split
I0419 10:45:11.072787 30498 net.cpp:406] pool4-R_pool4-R_0_split <- pool4-R
I0419 10:45:11.072793 30498 net.cpp:380] pool4-R_pool4-R_0_split -> pool4-R_pool4-R_0_split_0
I0419 10:45:11.072799 30498 net.cpp:380] pool4-R_pool4-R_0_split -> pool4-R_pool4-R_0_split_1
I0419 10:45:11.072844 30498 net.cpp:122] Setting up pool4-R_pool4-R_0_split
I0419 10:45:11.072852 30498 net.cpp:129] Top shape: 1 512 45 32 (737280)
I0419 10:45:11.072859 30498 net.cpp:129] Top shape: 1 512 45 32 (737280)
I0419 10:45:11.072861 30498 net.cpp:137] Memory required for data: 1725987092
I0419 10:45:11.072867 30498 layer_factory.hpp:77] Creating layer conv5_1-R
I0419 10:45:11.072877 30498 net.cpp:84] Creating Layer conv5_1-R
I0419 10:45:11.072881 30498 net.cpp:406] conv5_1-R <- pool4-R_pool4-R_0_split_0
I0419 10:45:11.072888 30498 net.cpp:380] conv5_1-R -> conv5_1-R
I0419 10:45:11.082731 30498 net.cpp:122] Setting up conv5_1-R
I0419 10:45:11.082772 30498 net.cpp:129] Top shape: 1 512 45 32 (737280)
I0419 10:45:11.082777 30498 net.cpp:137] Memory required for data: 1728936212
I0419 10:45:11.082803 30498 layer_factory.hpp:77] Creating layer relu5_1-R
I0419 10:45:11.082813 30498 net.cpp:84] Creating Layer relu5_1-R
I0419 10:45:11.082820 30498 net.cpp:406] relu5_1-R <- conv5_1-R
I0419 10:45:11.082836 30498 net.cpp:367] relu5_1-R -> conv5_1-R (in-place)
I0419 10:45:11.083087 30498 net.cpp:122] Setting up relu5_1-R
I0419 10:45:11.083101 30498 net.cpp:129] Top shape: 1 512 45 32 (737280)
I0419 10:45:11.083106 30498 net.cpp:137] Memory required for data: 1731885332
I0419 10:45:11.083111 30498 layer_factory.hpp:77] Creating layer conv5_2-R
I0419 10:45:11.083122 30498 net.cpp:84] Creating Layer conv5_2-R
I0419 10:45:11.083127 30498 net.cpp:406] conv5_2-R <- conv5_1-R
I0419 10:45:11.083135 30498 net.cpp:380] conv5_2-R -> conv5_2-R
I0419 10:45:11.093232 30498 net.cpp:122] Setting up conv5_2-R
I0419 10:45:11.093276 30498 net.cpp:129] Top shape: 1 512 45 32 (737280)
I0419 10:45:11.093281 30498 net.cpp:137] Memory required for data: 1734834452
I0419 10:45:11.093292 30498 layer_factory.hpp:77] Creating layer relu5_2-R
I0419 10:45:11.093304 30498 net.cpp:84] Creating Layer relu5_2-R
I0419 10:45:11.093310 30498 net.cpp:406] relu5_2-R <- conv5_2-R
I0419 10:45:11.093319 30498 net.cpp:367] relu5_2-R -> conv5_2-R (in-place)
I0419 10:45:11.093580 30498 net.cpp:122] Setting up relu5_2-R
I0419 10:45:11.093592 30498 net.cpp:129] Top shape: 1 512 45 32 (737280)
I0419 10:45:11.093597 30498 net.cpp:137] Memory required for data: 1737783572
I0419 10:45:11.093606 30498 layer_factory.hpp:77] Creating layer conv5_3-R
I0419 10:45:11.093619 30498 net.cpp:84] Creating Layer conv5_3-R
I0419 10:45:11.093624 30498 net.cpp:406] conv5_3-R <- conv5_2-R
I0419 10:45:11.093632 30498 net.cpp:380] conv5_3-R -> conv5_3-R
I0419 10:45:11.102496 30498 net.cpp:122] Setting up conv5_3-R
I0419 10:45:11.102538 30498 net.cpp:129] Top shape: 1 512 45 32 (737280)
I0419 10:45:11.102553 30498 net.cpp:137] Memory required for data: 1740732692
I0419 10:45:11.102562 30498 layer_factory.hpp:77] Creating layer relu5_3-R
I0419 10:45:11.102571 30498 net.cpp:84] Creating Layer relu5_3-R
I0419 10:45:11.102576 30498 net.cpp:406] relu5_3-R <- conv5_3-R
I0419 10:45:11.102583 30498 net.cpp:367] relu5_3-R -> conv5_3-R (in-place)
I0419 10:45:11.102809 30498 net.cpp:122] Setting up relu5_3-R
I0419 10:45:11.102821 30498 net.cpp:129] Top shape: 1 512 45 32 (737280)
I0419 10:45:11.102825 30498 net.cpp:137] Memory required for data: 1743681812
I0419 10:45:11.102829 30498 layer_factory.hpp:77] Creating layer pool5-R
I0419 10:45:11.102843 30498 net.cpp:84] Creating Layer pool5-R
I0419 10:45:11.102847 30498 net.cpp:406] pool5-R <- conv5_3-R
I0419 10:45:11.102865 30498 net.cpp:380] pool5-R -> pool5-R
I0419 10:45:11.102927 30498 net.cpp:122] Setting up pool5-R
I0419 10:45:11.102937 30498 net.cpp:129] Top shape: 1 512 23 16 (188416)
I0419 10:45:11.102941 30498 net.cpp:137] Memory required for data: 1744435476
I0419 10:45:11.102944 30498 layer_factory.hpp:77] Creating layer fc6-R
I0419 10:45:11.102954 30498 net.cpp:84] Creating Layer fc6-R
I0419 10:45:11.102959 30498 net.cpp:406] fc6-R <- pool5-R
I0419 10:45:11.102967 30498 net.cpp:380] fc6-R -> fc6-R
I0419 10:45:11.409138 30498 net.cpp:122] Setting up fc6-R
I0419 10:45:11.409185 30498 net.cpp:129] Top shape: 1 4096 17 10 (696320)
I0419 10:45:11.409190 30498 net.cpp:137] Memory required for data: 1747220756
I0419 10:45:11.409204 30498 layer_factory.hpp:77] Creating layer relu6-R
I0419 10:45:11.409217 30498 net.cpp:84] Creating Layer relu6-R
I0419 10:45:11.409224 30498 net.cpp:406] relu6-R <- fc6-R
I0419 10:45:11.409232 30498 net.cpp:367] relu6-R -> fc6-R (in-place)
I0419 10:45:11.409467 30498 net.cpp:122] Setting up relu6-R
I0419 10:45:11.409479 30498 net.cpp:129] Top shape: 1 4096 17 10 (696320)
I0419 10:45:11.409483 30498 net.cpp:137] Memory required for data: 1750006036
I0419 10:45:11.409487 30498 layer_factory.hpp:77] Creating layer drop6-R
I0419 10:45:11.409498 30498 net.cpp:84] Creating Layer drop6-R
I0419 10:45:11.409503 30498 net.cpp:406] drop6-R <- fc6-R
I0419 10:45:11.409510 30498 net.cpp:367] drop6-R -> fc6-R (in-place)
I0419 10:45:11.409548 30498 net.cpp:122] Setting up drop6-R
I0419 10:45:11.409559 30498 net.cpp:129] Top shape: 1 4096 17 10 (696320)
I0419 10:45:11.409564 30498 net.cpp:137] Memory required for data: 1752791316
I0419 10:45:11.409566 30498 layer_factory.hpp:77] Creating layer fc7-R
I0419 10:45:11.409579 30498 net.cpp:84] Creating Layer fc7-R
I0419 10:45:11.409582 30498 net.cpp:406] fc7-R <- fc6-R
I0419 10:45:11.409590 30498 net.cpp:380] fc7-R -> fc7-R
I0419 10:45:11.465636 30498 net.cpp:122] Setting up fc7-R
I0419 10:45:11.465685 30498 net.cpp:129] Top shape: 1 4096 17 10 (696320)
I0419 10:45:11.465690 30498 net.cpp:137] Memory required for data: 1755576596
I0419 10:45:11.465703 30498 layer_factory.hpp:77] Creating layer relu7-R
I0419 10:45:11.465716 30498 net.cpp:84] Creating Layer relu7-R
I0419 10:45:11.465723 30498 net.cpp:406] relu7-R <- fc7-R
I0419 10:45:11.465732 30498 net.cpp:367] relu7-R -> fc7-R (in-place)
I0419 10:45:11.465982 30498 net.cpp:122] Setting up relu7-R
I0419 10:45:11.465996 30498 net.cpp:129] Top shape: 1 4096 17 10 (696320)
I0419 10:45:11.465999 30498 net.cpp:137] Memory required for data: 1758361876
I0419 10:45:11.466006 30498 layer_factory.hpp:77] Creating layer drop7-R
I0419 10:45:11.466017 30498 net.cpp:84] Creating Layer drop7-R
I0419 10:45:11.466022 30498 net.cpp:406] drop7-R <- fc7-R
I0419 10:45:11.466028 30498 net.cpp:367] drop7-R -> fc7-R (in-place)
I0419 10:45:11.466084 30498 net.cpp:122] Setting up drop7-R
I0419 10:45:11.466092 30498 net.cpp:129] Top shape: 1 4096 17 10 (696320)
I0419 10:45:11.466096 30498 net.cpp:137] Memory required for data: 1761147156
I0419 10:45:11.466100 30498 layer_factory.hpp:77] Creating layer score_fr-new-R
I0419 10:45:11.466111 30498 net.cpp:84] Creating Layer score_fr-new-R
I0419 10:45:11.466115 30498 net.cpp:406] score_fr-new-R <- fc7-R
I0419 10:45:11.466123 30498 net.cpp:380] score_fr-new-R -> score_fr-new-R
I0419 10:45:11.467730 30498 net.cpp:122] Setting up score_fr-new-R
I0419 10:45:11.467749 30498 net.cpp:129] Top shape: 1 3 17 10 (510)
I0419 10:45:11.467753 30498 net.cpp:137] Memory required for data: 1761149196
I0419 10:45:11.467764 30498 layer_factory.hpp:77] Creating layer upscore2-new-R
I0419 10:45:11.467774 30498 net.cpp:84] Creating Layer upscore2-new-R
I0419 10:45:11.467779 30498 net.cpp:406] upscore2-new-R <- score_fr-new-R
I0419 10:45:11.467787 30498 net.cpp:380] upscore2-new-R -> upscore2-new-R
I0419 10:45:11.468070 30498 net.cpp:122] Setting up upscore2-new-R
I0419 10:45:11.468080 30498 net.cpp:129] Top shape: 1 3 36 22 (2376)
I0419 10:45:11.468084 30498 net.cpp:137] Memory required for data: 1761158700
I0419 10:45:11.468091 30498 layer_factory.hpp:77] Creating layer upscore2-new-R_upscore2-new-R_0_split
I0419 10:45:11.468098 30498 net.cpp:84] Creating Layer upscore2-new-R_upscore2-new-R_0_split
I0419 10:45:11.468103 30498 net.cpp:406] upscore2-new-R_upscore2-new-R_0_split <- upscore2-new-R
I0419 10:45:11.468111 30498 net.cpp:380] upscore2-new-R_upscore2-new-R_0_split -> upscore2-new-R_upscore2-new-R_0_split_0
I0419 10:45:11.468118 30498 net.cpp:380] upscore2-new-R_upscore2-new-R_0_split -> upscore2-new-R_upscore2-new-R_0_split_1
I0419 10:45:11.468165 30498 net.cpp:122] Setting up upscore2-new-R_upscore2-new-R_0_split
I0419 10:45:11.468174 30498 net.cpp:129] Top shape: 1 3 36 22 (2376)
I0419 10:45:11.468179 30498 net.cpp:129] Top shape: 1 3 36 22 (2376)
I0419 10:45:11.468183 30498 net.cpp:137] Memory required for data: 1761177708
I0419 10:45:11.468188 30498 layer_factory.hpp:77] Creating layer score_pool4-new-R
I0419 10:45:11.468199 30498 net.cpp:84] Creating Layer score_pool4-new-R
I0419 10:45:11.468204 30498 net.cpp:406] score_pool4-new-R <- pool4-R_pool4-R_0_split_1
I0419 10:45:11.468211 30498 net.cpp:380] score_pool4-new-R -> score_pool4-new-R
I0419 10:45:11.469739 30498 net.cpp:122] Setting up score_pool4-new-R
I0419 10:45:11.469758 30498 net.cpp:129] Top shape: 1 3 45 32 (4320)
I0419 10:45:11.469772 30498 net.cpp:137] Memory required for data: 1761194988
I0419 10:45:11.469780 30498 layer_factory.hpp:77] Creating layer score_pool4c-R
I0419 10:45:11.469792 30498 net.cpp:84] Creating Layer score_pool4c-R
I0419 10:45:11.469799 30498 net.cpp:406] score_pool4c-R <- score_pool4-new-R
I0419 10:45:11.469805 30498 net.cpp:406] score_pool4c-R <- upscore2-new-R_upscore2-new-R_0_split_0
I0419 10:45:11.469812 30498 net.cpp:380] score_pool4c-R -> score_pool4c-R
I0419 10:45:11.469851 30498 net.cpp:122] Setting up score_pool4c-R
I0419 10:45:11.469858 30498 net.cpp:129] Top shape: 1 3 36 22 (2376)
I0419 10:45:11.469861 30498 net.cpp:137] Memory required for data: 1761204492
I0419 10:45:11.469866 30498 layer_factory.hpp:77] Creating layer fuse_pool4-R
I0419 10:45:11.469873 30498 net.cpp:84] Creating Layer fuse_pool4-R
I0419 10:45:11.469877 30498 net.cpp:406] fuse_pool4-R <- upscore2-new-R_upscore2-new-R_0_split_1
I0419 10:45:11.469884 30498 net.cpp:406] fuse_pool4-R <- score_pool4c-R
I0419 10:45:11.469892 30498 net.cpp:380] fuse_pool4-R -> fuse_pool4-R
I0419 10:45:11.469923 30498 net.cpp:122] Setting up fuse_pool4-R
I0419 10:45:11.469929 30498 net.cpp:129] Top shape: 1 3 36 22 (2376)
I0419 10:45:11.469933 30498 net.cpp:137] Memory required for data: 1761213996
I0419 10:45:11.469936 30498 layer_factory.hpp:77] Creating layer upscore_pool4-new-R
I0419 10:45:11.469945 30498 net.cpp:84] Creating Layer upscore_pool4-new-R
I0419 10:45:11.469950 30498 net.cpp:406] upscore_pool4-new-R <- fuse_pool4-R
I0419 10:45:11.469957 30498 net.cpp:380] upscore_pool4-new-R -> upscore_pool4-new-R
I0419 10:45:11.470232 30498 net.cpp:122] Setting up upscore_pool4-new-R
I0419 10:45:11.470243 30498 net.cpp:129] Top shape: 1 3 74 46 (10212)
I0419 10:45:11.470247 30498 net.cpp:137] Memory required for data: 1761254844
I0419 10:45:11.470253 30498 layer_factory.hpp:77] Creating layer upscore_pool4-new-R_upscore_pool4-new-R_0_split
I0419 10:45:11.470260 30498 net.cpp:84] Creating Layer upscore_pool4-new-R_upscore_pool4-new-R_0_split
I0419 10:45:11.470266 30498 net.cpp:406] upscore_pool4-new-R_upscore_pool4-new-R_0_split <- upscore_pool4-new-R
I0419 10:45:11.470273 30498 net.cpp:380] upscore_pool4-new-R_upscore_pool4-new-R_0_split -> upscore_pool4-new-R_upscore_pool4-new-R_0_split_0
I0419 10:45:11.470280 30498 net.cpp:380] upscore_pool4-new-R_upscore_pool4-new-R_0_split -> upscore_pool4-new-R_upscore_pool4-new-R_0_split_1
I0419 10:45:11.470330 30498 net.cpp:122] Setting up upscore_pool4-new-R_upscore_pool4-new-R_0_split
I0419 10:45:11.470350 30498 net.cpp:129] Top shape: 1 3 74 46 (10212)
I0419 10:45:11.470355 30498 net.cpp:129] Top shape: 1 3 74 46 (10212)
I0419 10:45:11.470358 30498 net.cpp:137] Memory required for data: 1761336540
I0419 10:45:11.470362 30498 layer_factory.hpp:77] Creating layer score_pool3-new-R
I0419 10:45:11.470371 30498 net.cpp:84] Creating Layer score_pool3-new-R
I0419 10:45:11.470376 30498 net.cpp:406] score_pool3-new-R <- pool3-R_pool3-R_0_split_1
I0419 10:45:11.470386 30498 net.cpp:380] score_pool3-new-R -> score_pool3-new-R
I0419 10:45:11.472002 30498 net.cpp:122] Setting up score_pool3-new-R
I0419 10:45:11.472019 30498 net.cpp:129] Top shape: 1 3 89 64 (17088)
I0419 10:45:11.472023 30498 net.cpp:137] Memory required for data: 1761404892
I0419 10:45:11.472034 30498 layer_factory.hpp:77] Creating layer score_pool3c-R
I0419 10:45:11.472046 30498 net.cpp:84] Creating Layer score_pool3c-R
I0419 10:45:11.472051 30498 net.cpp:406] score_pool3c-R <- score_pool3-new-R
I0419 10:45:11.472059 30498 net.cpp:406] score_pool3c-R <- upscore_pool4-new-R_upscore_pool4-new-R_0_split_0
I0419 10:45:11.472064 30498 net.cpp:380] score_pool3c-R -> score_pool3c-R
I0419 10:45:11.472117 30498 net.cpp:122] Setting up score_pool3c-R
I0419 10:45:11.472124 30498 net.cpp:129] Top shape: 1 3 74 46 (10212)
I0419 10:45:11.472127 30498 net.cpp:137] Memory required for data: 1761445740
I0419 10:45:11.472134 30498 layer_factory.hpp:77] Creating layer fuse_pool3-R
I0419 10:45:11.472142 30498 net.cpp:84] Creating Layer fuse_pool3-R
I0419 10:45:11.472146 30498 net.cpp:406] fuse_pool3-R <- upscore_pool4-new-R_upscore_pool4-new-R_0_split_1
I0419 10:45:11.472151 30498 net.cpp:406] fuse_pool3-R <- score_pool3c-R
I0419 10:45:11.472159 30498 net.cpp:380] fuse_pool3-R -> fuse_pool3-R
I0419 10:45:11.472196 30498 net.cpp:122] Setting up fuse_pool3-R
I0419 10:45:11.472203 30498 net.cpp:129] Top shape: 1 3 74 46 (10212)
I0419 10:45:11.472205 30498 net.cpp:137] Memory required for data: 1761486588
I0419 10:45:11.472209 30498 layer_factory.hpp:77] Creating layer upscore8-new-R
I0419 10:45:11.472216 30498 net.cpp:84] Creating Layer upscore8-new-R
I0419 10:45:11.472220 30498 net.cpp:406] upscore8-new-R <- fuse_pool3-R
I0419 10:45:11.472229 30498 net.cpp:380] upscore8-new-R -> upscore8-new-R
I0419 10:45:11.472512 30498 net.cpp:122] Setting up upscore8-new-R
I0419 10:45:11.472523 30498 net.cpp:129] Top shape: 1 3 600 376 (676800)
I0419 10:45:11.472527 30498 net.cpp:137] Memory required for data: 1764193788
I0419 10:45:11.472532 30498 layer_factory.hpp:77] Creating layer upscore8_cropped-R
I0419 10:45:11.472538 30498 net.cpp:84] Creating Layer upscore8_cropped-R
I0419 10:45:11.472543 30498 net.cpp:406] upscore8_cropped-R <- upscore8-new-R
I0419 10:45:11.472549 30498 net.cpp:406] upscore8_cropped-R <- data-R_crop_0_split_1
I0419 10:45:11.472555 30498 net.cpp:380] upscore8_cropped-R -> upscore8_cropped-R
I0419 10:45:11.472587 30498 net.cpp:122] Setting up upscore8_cropped-R
I0419 10:45:11.472594 30498 net.cpp:129] Top shape: 1 3 512 310 (476160)
I0419 10:45:11.472597 30498 net.cpp:137] Memory required for data: 1766098428
I0419 10:45:11.472601 30498 layer_factory.hpp:77] Creating layer score-R
I0419 10:45:11.472610 30498 net.cpp:84] Creating Layer score-R
I0419 10:45:11.472615 30498 net.cpp:406] score-R <- upscore8_cropped-R
I0419 10:45:11.472621 30498 net.cpp:380] score-R -> score-R
I0419 10:45:11.479780 30498 net.cpp:122] Setting up score-R
I0419 10:45:11.479816 30498 net.cpp:129] Top shape: 1 3 512 310 (476160)
I0419 10:45:11.479822 30498 net.cpp:137] Memory required for data: 1768003068
I0419 10:45:11.479833 30498 layer_factory.hpp:77] Creating layer score_uncropped-R
I0419 10:45:11.480301 30498 net.cpp:84] Creating Layer score_uncropped-R
I0419 10:45:11.480319 30498 net.cpp:406] score_uncropped-R <- crop_info
I0419 10:45:11.480340 30498 net.cpp:406] score_uncropped-R <- score-R
I0419 10:45:11.480345 30498 net.cpp:406] score_uncropped-R <- data_data_0_split_3
I0419 10:45:11.480355 30498 net.cpp:380] score_uncropped-R -> score_uncropped-R
I0419 10:45:11.483175 30498 net.cpp:122] Setting up score_uncropped-R
I0419 10:45:11.483201 30498 net.cpp:129] Top shape: 1 3 512 310 (476160)
I0419 10:45:11.483214 30498 net.cpp:137] Memory required for data: 1769907708
I0419 10:45:11.483220 30498 layer_factory.hpp:77] Creating layer loss1
I0419 10:45:11.483242 30498 net.cpp:84] Creating Layer loss1
I0419 10:45:11.483248 30498 net.cpp:406] loss1 <- score_score_0_split_1
I0419 10:45:11.483256 30498 net.cpp:406] loss1 <- label_data_1_split_1
I0419 10:45:11.483274 30498 net.cpp:380] loss1 -> loss1
…
