…
snapshot_prefix: "/media/Med_2T2/data2/models/snapshots/indiv:1e-5x10,20/FD0:XI3_1_20180715_091940/train"
test_initialization: false
average_loss: 20
stepvalue: 40000
iter_size: 1
I0715 09:19:44.872947 12889 solver.cpp:77] Creating training net from train_net file: /media/Med_2T2/data2/prototxts/training_S3x10.prototxt
I0715 09:19:44.878141 12889 net.cpp:51] Initializing net from parameters: 
state {
  phase: TRAIN
}
layer {
  name: "data"
  type: "Python"
  top: "data"
  top: "label"
  top: "crop_margin"
  top: "crop_prob"
  top: "crop_sample_batch"
  python_param {
    module: "Data"
    layer: "DataLayer"
  }
}
layer {
  name: "conv1_1"
  type: "Convolution"
  bottom: "data"
  top: "conv1_1"
  param {
    lr_mult: 1
    decay_mult: 1
  }
  param {
    lr_mult: 2
    decay_mult: 0
  }
  convolution_param {
    num_output: 64
    pad: 100
    kernel_size: 3
    stride: 1
  }
}
layer {
  name: "relu1_1"
  type: "ReLU"
  bottom: "conv1_1"
  top: "conv1_1"
}
layer {
  name: "conv1_2"
  type: "Convolution"
  bottom: "conv1_1"
  top: "conv1_2"
  param {
    lr_mult: 1
    decay_mult: 1
  }
  param {
    lr_mult: 2
    decay_mult: 0
  }
  convolution_param {
    num_output: 64
    pad: 1
    kernel_size: 3
    stride: 1
  }
}
layer {
  name: "relu1_2"
  type: "ReLU"
  bottom: "conv1_2"
  top: "conv1_2"
}
layer {
  name: "pool1"
  type: "Pooling"
  bottom: "conv1_2"
  top: "pool1"
  pooling_param {
    pool: MAX
    kernel_size: 2
    stride: 2
  }
}
layer {
  name: "conv2_1"
  type: "Convolution"
  bottom: "pool1"
  top: "conv2_1"
  param {
    lr_mult: 1
    decay_mult: 1
  }
  param {
    lr_mult: 2
    decay_mult: 0
  }
  convolution_param {
    num_output: 128
    pad: 1
    kernel_size: 3
    stride: 1
  }
}
layer {
  name: "relu2_1"
  type: "ReLU"
  bottom: "conv2_1"
  top: "conv2_1"
}
layer {
  name: "conv2_2"
  type: "Convolution"
  bottom: "conv2_1"
  top: "conv2_2"
  param {
    lr_mult: 1
    decay_mult: 1
  }
  param {
    lr_mult: 2
    decay_mult: 0
  }
  convolution_param {
    num_output: 128
    pad: 1
    kernel_size: 3
    stride: 1
  }
}
layer {
  name: "relu2_2"
  type: "ReLU"
  bottom: "conv2_2"
  top: "conv2_2"
}
layer {
  name: "pool2"
  type: "Pooling"
  bottom: "conv2_2"
  top: "pool2"
  pooling_param {
    pool: MAX
    kernel_size: 2
    stride: 2
  }
}
layer {
  name: "conv3_1"
  type: "Convolution"
  bottom: "pool2"
  top: "conv3_1"
  param {
    lr_mult: 1
    decay_mult: 1
  }
  param {
    lr_mult: 2
    decay_mult: 0
  }
  convolution_param {
    num_output: 256
    pad: 1
    kernel_size: 3
    stride: 1
  }
}
layer {
  name: "relu3_1"
  type: "ReLU"
  bottom: "conv3_1"
  top: "conv3_1"
}
layer {
  name: "conv3_2"
  type: "Convolution"
  bottom: "conv3_1"
  top: "conv3_2"
  param {
    lr_mult: 1
    decay_mult: 1
  }
  param {
    lr_mult: 2
    decay_mult: 0
  }
  convolution_param {
    num_output: 256
    pad: 1
    kernel_size: 3
    stride: 1
  }
}
layer {
  name: "relu3_2"
  type: "ReLU"
  bottom: "conv3_2"
  top: "conv3_2"
}
layer {
  name: "conv3_3"
  type: "Convolution"
  bottom: "conv3_2"
  top: "conv3_3"
  param {
    lr_mult: 1
    decay_mult: 1
  }
  param {
    lr_mult: 2
    decay_mult: 0
  }
  convolution_param {
    num_output: 256
    pad: 1
    kernel_size: 3
    stride: 1
  }
}
layer {
  name: "relu3_3"
  type: "ReLU"
  bottom: "conv3_3"
  top: "conv3_3"
}
layer {
  name: "pool3"
  type: "Pooling"
  bottom: "conv3_3"
  top: "pool3"
  pooling_param {
    pool: MAX
    kernel_size: 2
    stride: 2
  }
}
layer {
  name: "conv4_1"
  type: "Convolution"
  bottom: "pool3"
  top: "conv4_1"
  param {
    lr_mult: 1
    decay_mult: 1
  }
  param {
    lr_mult: 2
    decay_mult: 0
  }
  convolution_param {
    num_output: 512
    pad: 1
    kernel_size: 3
    stride: 1
  }
}
layer {
  name: "relu4_1"
  type: "ReLU"
  bottom: "conv4_1"
  top: "conv4_1"
}
layer {
  name: "conv4_2"
  type: "Convolution"
  bottom: "conv4_1"
  top: "conv4_2"
  param {
    lr_mult: 1
    decay_mult: 1
  }
  param {
    lr_mult: 2
    decay_mult: 0
  }
  convolution_param {
    num_output: 512
    pad: 1
    kernel_size: 3
    stride: 1
  }
}
layer {
  name: "relu4_2"
  type: "ReLU"
  bottom: "conv4_2"
  top: "conv4_2"
}
layer {
  name: "conv4_3"
  type: "Convolution"
  bottom: "conv4_2"
  top: "conv4_3"
  param {
    lr_mult: 1
    decay_mult: 1
  }
  param {
    lr_mult: 2
    decay_mult: 0
  }
  convolution_param {
    num_output: 512
    pad: 1
    kernel_size: 3
    stride: 1
  }
}
layer {
  name: "relu4_3"
  type: "ReLU"
  bottom: "conv4_3"
  top: "conv4_3"
}
layer {
  name: "pool4"
  type: "Pooling"
  bottom: "conv4_3"
  top: "pool4"
  pooling_param {
    pool: MAX
    kernel_size: 2
    stride: 2
  }
}
layer {
  name: "conv5_1"
  type: "Convolution"
  bottom: "pool4"
  top: "conv5_1"
  param {
    lr_mult: 1
    decay_mult: 1
  }
  param {
    lr_mult: 2
    decay_mult: 0
  }
  convolution_param {
    num_output: 512
    pad: 1
    kernel_size: 3
    stride: 1
  }
}
layer {
  name: "relu5_1"
  type: "ReLU"
  bottom: "conv5_1"
  top: "conv5_1"
}
layer {
  name: "conv5_2"
  type: "Convolution"
  bottom: "conv5_1"
  top: "conv5_2"
  param {
    lr_mult: 1
    decay_mult: 1
  }
  param {
    lr_mult: 2
    decay_mult: 0
  }
  convolution_param {
    num_output: 512
    pad: 1
    kernel_size: 3
    stride: 1
  }
}
layer {
  name: "relu5_2"
  type: "ReLU"
  bottom: "conv5_2"
  top: "conv5_2"
}
layer {
  name: "conv5_3"
  type: "Convolution"
  bottom: "conv5_2"
  top: "conv5_3"
  param {
    lr_mult: 1
    decay_mult: 1
  }
  param {
    lr_mult: 2
    decay_mult: 0
  }
  convolution_param {
    num_output: 512
    pad: 1
    kernel_size: 3
    stride: 1
  }
}
layer {
  name: "relu5_3"
  type: "ReLU"
  bottom: "conv5_3"
  top: "conv5_3"
}
layer {
  name: "pool5"
  type: "Pooling"
  bottom: "conv5_3"
  top: "pool5"
  pooling_param {
    pool: MAX
    kernel_size: 2
    stride: 2
  }
}
layer {
  name: "fc6"
  type: "Convolution"
  bottom: "pool5"
  top: "fc6"
  param {
    lr_mult: 1
    decay_mult: 1
  }
  param {
    lr_mult: 2
    decay_mult: 0
  }
  convolution_param {
    num_output: 4096
    pad: 0
    kernel_size: 7
    stride: 1
  }
}
layer {
  name: "relu6"
  type: "ReLU"
  bottom: "fc6"
  top: "fc6"
}
layer {
  name: "drop6"
  type: "Dropout"
  bottom: "fc6"
  top: "fc6"
  dropout_param {
    dropout_ratio: 0.5
  }
}
layer {
  name: "fc7"
  type: "Convolution"
  bottom: "fc6"
  top: "fc7"
  param {
    lr_mult: 1
    decay_mult: 1
  }
  param {
    lr_mult: 2
    decay_mult: 0
  }
  convolution_param {
    num_output: 4096
    pad: 0
    kernel_size: 1
    stride: 1
  }
}
layer {
  name: "relu7"
  type: "ReLU"
  bottom: "fc7"
  top: "fc7"
}
layer {
  name: "drop7"
  type: "Dropout"
  bottom: "fc7"
  top: "fc7"
  dropout_param {
    dropout_ratio: 0.5
  }
}
layer {
  name: "score_fr-new"
  type: "Convolution"
  bottom: "fc7"
  top: "score_fr-new"
  param {
    lr_mult: 1
    decay_mult: 1
  }
  param {
    lr_mult: 2
    decay_mult: 0
  }
  convolution_param {
    num_output: 3
    kernel_size: 1
  }
}
layer {
  name: "upscore2-new"
  type: "Deconvolution"
  bottom: "score_fr-new"
  top: "upscore2-new"
  param {
    lr_mult: 0
  }
  convolution_param {
    num_output: 3
    bias_term: false
    kernel_size: 4
    stride: 2
  }
}
layer {
  name: "score_pool4-new"
  type: "Convolution"
  bottom: "pool4"
  top: "score_pool4-new"
  param {
    lr_mult: 1
    decay_mult: 1
  }
  param {
    lr_mult: 2
    decay_mult: 0
  }
  convolution_param {
    num_output: 3
    pad: 0
    kernel_size: 1
  }
}
layer {
  name: "score_pool4c"
  type: "Crop"
  bottom: "score_pool4-new"
  bottom: "upscore2-new"
  top: "score_pool4c"
  crop_param {
    axis: 2
    offset: 5
  }
}
layer {
  name: "fuse_pool4"
  type: "Eltwise"
  bottom: "upscore2-new"
  bottom: "score_pool4c"
  top: "fuse_pool4"
  eltwise_param {
    operation: SUM
  }
}
layer {
  name: "upscore_pool4-new"
  type: "Deconvolution"
  bottom: "fuse_pool4"
  top: "upscore_pool4-new"
  param {
    lr_mult: 0
  }
  convolution_param {
    num_output: 3
    bias_term: false
    kernel_size: 4
    stride: 2
  }
}
layer {
  name: "score_pool3-new"
  type: "Convolution"
  bottom: "pool3"
  top: "score_pool3-new"
  param {
    lr_mult: 1
    decay_mult: 1
  }
  param {
    lr_mult: 2
    decay_mult: 0
  }
  convolution_param {
    num_output: 3
    pad: 0
    kernel_size: 1
  }
}
layer {
  name: "score_pool3c"
  type: "Crop"
  bottom: "score_pool3-new"
  bottom: "upscore_pool4-new"
  top: "score_pool3c"
  crop_param {
    axis: 2
    offset: 9
  }
}
layer {
  name: "fuse_pool3"
  type: "Eltwise"
  bottom: "upscore_pool4-new"
  bottom: "score_pool3c"
  top: "fuse_pool3"
  eltwise_param {
    operation: SUM
  }
}
layer {
  name: "upscore8-new"
  type: "Deconvolution"
  bottom: "fuse_pool3"
  top: "upscore8-new"
  param {
    lr_mult: 0
  }
  convolution_param {
    num_output: 3
    bias_term: false
    kernel_size: 16
    stride: 8
  }
}
layer {
  name: "upscore8_cropped"
  type: "Crop"
  bottom: "upscore8-new"
  bottom: "data"
  top: "upscore8_cropped"
  crop_param {
    axis: 2
    offset: 31
  }
}
layer {
  name: "prob"
  type: "Sigmoid"
  bottom: "upscore8_cropped"
  top: "prob"
}
layer {
  name: "saliency1"
  type: "Convolution"
  bottom: "prob"
  top: "saliency1"
  param {
    lr_mult: 10
    decay_mult: 1
  }
  param {
    lr_mult: 20
    decay_mult: 0
  }
  convolution_param {
    num_output: 3
    pad: 1
    kernel_size: 3
    stride: 1
    weight_filler {
      type: "xavier"
    }
    bias_filler {
      type: "constant"
      value: 1
    }
  }
}
layer {
  name: "relu_saliency1"
  type: "ReLU"
  bottom: "saliency1"
  top: "saliency1"
}
layer {
  name: "saliency"
  type: "Convolution"
  bottom: "saliency1"
  top: "saliency"
  param {
    lr_mult: 10
    decay_mult: 1
  }
  param {
    lr_mult: 20
    decay_mult: 0
  }
  convolution_param {
    num_output: 3
    pad: 2
    kernel_size: 5
    stride: 1
    weight_filler {
      type: "xavier"
    }
    bias_filler {
      type: "constant"
      value: 1
    }
  }
}
layer {
  name: "silence_saliency"
  type: "Silence"
  bottom: "saliency"
}
layer {
  name: "crop"
  type: "Python"
  bottom: "label"
  bottom: "data"
  bottom: "crop_margin"
  bottom: "crop_prob"
  bottom: "crop_sample_batch"
  top: "data-R"
  top: "crop_info"
  python_param {
    module: "Crop"
    layer: "CropLayer"
    param_str: "{\"TEST\": 0}"
  }
}
layer {
  name: "conv1_1-R"
  type: "Convolution"
  bottom: "data-R"
  top: "conv1_1-R"
  param {
    lr_mult: 10
    decay_mult: 1
  }
  param {
    lr_mult: 20
    decay_mult: 0
  }
  convolution_param {
    num_output: 64
    pad: 100
    kernel_size: 3
    stride: 1
  }
}
layer {
  name: "relu1_1-R"
  type: "ReLU"
  bottom: "conv1_1-R"
  top: "conv1_1-R"
}
layer {
  name: "conv1_2-R"
  type: "Convolution"
  bottom: "conv1_1-R"
  top: "conv1_2-R"
  param {
    lr_mult: 10
    decay_mult: 1
  }
  param {
    lr_mult: 20
    decay_mult: 0
  }
  convolution_param {
    num_output: 64
    pad: 1
    kernel_size: 3
    stride: 1
  }
}
layer {
  name: "relu1_2-R"
  type: "ReLU"
  bottom: "conv1_2-R"
  top: "conv1_2-R"
}
layer {
  name: "pool1-R"
  type: "Pooling"
  bottom: "conv1_2-R"
  top: "pool1-R"
  pooling_param {
    pool: MAX
    kernel_size: 2
    stride: 2
  }
}
layer {
  name: "conv2_1-R"
  type: "Convolution"
  bottom: "pool1-R"
  top: "conv2_1-R"
  param {
    lr_mult: 10
    decay_mult: 1
  }
  param {
    lr_mult: 20
    decay_mult: 0
  }
  convolution_param {
    num_output: 128
    pad: 1
    kernel_size: 3
    stride: 1
  }
}
layer {
  name: "relu2_1-R"
  type: "ReLU"
  bottom: "conv2_1-R"
  top: "conv2_1-R"
}
layer {
  name: "conv2_2-R"
  type: "Convolution"
  bottom: "conv2_1-R"
  top: "conv2_2-R"
  param {
    lr_mult: 10
    decay_mult: 1
  }
  param {
    lr_mult: 20
    decay_mult: 0
  }
  convolution_param {
    num_output: 128
    pad: 1
    kernel_size: 3
    stride: 1
  }
}
layer {
  name: "relu2_2-R"
  type: "ReLU"
  bottom: "conv2_2-R"
  top: "conv2_2-R"
}
layer {
  name: "pool2-R"
  type: "Pooling"
  bottom: "conv2_2-R"
  top: "pool2-R"
  pooling_param {
    pool: MAX
    kernel_size: 2
    stride: 2
  }
}
layer {
  name: "conv3_1-R"
  type: "Convolution"
  bottom: "pool2-R"
  top: "conv3_1-R"
  param {
    lr_mult: 10
    decay_mult: 1
  }
  param {
    lr_mult: 20
    decay_mult: 0
  }
  convolution_param {
    num_output: 256
    pad: 1
    kernel_size: 3
    stride: 1
  }
}
layer {
  name: "relu3_1-R"
  type: "ReLU"
  bottom: "conv3_1-R"
  top: "conv3_1-R"
}
layer {
  name: "conv3_2-R"
  type: "Convolution"
  bottom: "conv3_1-R"
  top: "conv3_2-R"
  param {
    lr_mult: 10
    decay_mult: 1
  }
  param {
    lr_mult: 20
    decay_mult: 0
  }
  convolution_param {
    num_output: 256
    pad: 1
    kernel_size: 3
    stride: 1
  }
}
layer {
  name: "relu3_2-R"
  type: "ReLU"
  bottom: "conv3_2-R"
  top: "conv3_2-R"
}
layer {
  name: "conv3_3-R"
  type: "Convolution"
  bottom: "conv3_2-R"
  top: "conv3_3-R"
  param {
    lr_mult: 10
    decay_mult: 1
  }
  param {
    lr_mult: 20
    decay_mult: 0
  }
  convolution_param {
    num_output: 256
    pad: 1
    kernel_size: 3
    stride: 1
  }
}
layer {
  name: "relu3_3-R"
  type: "ReLU"
  bottom: "conv3_3-R"
  top: "conv3_3-R"
}
layer {
  name: "pool3-R"
  type: "Pooling"
  bottom: "conv3_3-R"
  top: "pool3-R"
  pooling_param {
    pool: MAX
    kernel_size: 2
    stride: 2
  }
}
layer {
  name: "conv4_1-R"
  type: "Convolution"
  bottom: "pool3-R"
  top: "conv4_1-R"
  param {
    lr_mult: 10
    decay_mult: 1
  }
  param {
    lr_mult: 20
    decay_mult: 0
  }
  convolution_param {
    num_output: 512
    pad: 1
    kernel_size: 3
    stride: 1
  }
}
layer {
  name: "relu4_1-R"
  type: "ReLU"
  bottom: "conv4_1-R"
  top: "conv4_1-R"
}
layer {
  name: "conv4_2-R"
  type: "Convolution"
  bottom: "conv4_1-R"
  top: "conv4_2-R"
  param {
    lr_mult: 10
    decay_mult: 1
  }
  param {
    lr_mult: 20
    decay_mult: 0
  }
  convolution_param {
    num_output: 512
    pad: 1
    kernel_size: 3
    stride: 1
  }
}
layer {
  name: "relu4_2-R"
  type: "ReLU"
  bottom: "conv4_2-R"
  top: "conv4_2-R"
}
layer {
  name: "conv4_3-R"
  type: "Convolution"
  bottom: "conv4_2-R"
  top: "conv4_3-R"
  param {
    lr_mult: 10
    decay_mult: 1
  }
  param {
    lr_mult: 20
    decay_mult: 0
  }
  convolution_param {
    num_output: 512
    pad: 1
    kernel_size: 3
    stride: 1
  }
}
layer {
  name: "relu4_3-R"
  type: "ReLU"
  bottom: "conv4_3-R"
  top: "conv4_3-R"
}
layer {
  name: "pool4-R"
  type: "Pooling"
  bottom: "conv4_3-R"
  top: "pool4-R"
  pooling_param {
    pool: MAX
    kernel_size: 2
    stride: 2
  }
}
layer {
  name: "conv5_1-R"
  type: "Convolution"
  bottom: "pool4-R"
  top: "conv5_1-R"
  param {
    lr_mult: 10
    decay_mult: 1
  }
  param {
    lr_mult: 20
    decay_mult: 0
  }
  convolution_param {
    num_output: 512
    pad: 1
    kernel_size: 3
    stride: 1
  }
}
layer {
  name: "relu5_1-R"
  type: "ReLU"
  bottom: "conv5_1-R"
  top: "conv5_1-R"
}
layer {
  name: "conv5_2-R"
  type: "Convolution"
  bottom: "conv5_1-R"
  top: "conv5_2-R"
  param {
    lr_mult: 10
    decay_mult: 1
  }
  param {
    lr_mult: 20
    decay_mult: 0
  }
  convolution_param {
    num_output: 512
    pad: 1
    kernel_size: 3
    stride: 1
  }
}
layer {
  name: "relu5_2-R"
  type: "ReLU"
  bottom: "conv5_2-R"
  top: "conv5_2-R"
}
layer {
  name: "conv5_3-R"
  type: "Convolution"
  bottom: "conv5_2-R"
  top: "conv5_3-R"
  param {
    lr_mult: 10
    decay_mult: 1
  }
  param {
    lr_mult: 20
    decay_mult: 0
  }
  convolution_param {
    num_output: 512
    pad: 1
    kernel_size: 3
    stride: 1
  }
}
layer {
  name: "relu5_3-R"
  type: "ReLU"
  bottom: "conv5_3-R"
  top: "conv5_3-R"
}
layer {
  name: "pool5-R"
  type: "Pooling"
  bottom: "conv5_3-R"
  top: "pool5-R"
  pooling_param {
    pool: MAX
    kernel_size: 2
    stride: 2
  }
}
layer {
  name: "fc6-R"
  type: "Convolution"
  bottom: "pool5-R"
  top: "fc6-R"
  param {
    lr_mult: 10
    decay_mult: 1
  }
  param {
    lr_mult: 20
    decay_mult: 0
  }
  convolution_param {
    num_output: 4096
    pad: 0
    kernel_size: 7
    stride: 1
  }
}
layer {
  name: "relu6-R"
  type: "ReLU"
  bottom: "fc6-R"
  top: "fc6-R"
}
layer {
  name: "drop6-R"
  type: "Dropout"
  bottom: "fc6-R"
  top: "fc6-R"
  dropout_param {
    dropout_ratio: 0.5
  }
}
layer {
  name: "fc7-R"
  type: "Convolution"
  bottom: "fc6-R"
  top: "fc7-R"
  param {
    lr_mult: 10
    decay_mult: 1
  }
  param {
    lr_mult: 20
    decay_mult: 0
  }
  convolution_param {
    num_output: 4096
    pad: 0
    kernel_size: 1
    stride: 1
  }
}
layer {
  name: "relu7-R"
  type: "ReLU"
  bottom: "fc7-R"
  top: "fc7-R"
}
layer {
  name: "drop7-R"
  type: "Dropout"
  bottom: "fc7-R"
  top: "fc7-R"
  dropout_param {
    dropout_ratio: 0.5
  }
}
layer {
  name: "score_fr-new-R"
  type: "Convolution"
  bottom: "fc7-R"
  top: "score_fr-new-R"
  param {
    lr_mult: 10
    decay_mult: 1
  }
  param {
    lr_mult: 20
    decay_mult: 0
  }
  convolution_param {
    num_output: 3
    kernel_size: 1
  }
}
layer {
  name: "upscore2-new-R"
  type: "Deconvolution"
  bottom: "score_fr-new-R"
  top: "upscore2-new-R"
  param {
    lr_mult: 0
  }
  convolution_param {
    num_output: 3
    bias_term: false
    kernel_size: 4
    stride: 2
  }
}
layer {
  name: "score_pool4-new-R"
  type: "Convolution"
  bottom: "pool4-R"
  top: "score_pool4-new-R"
  param {
    lr_mult: 10
    decay_mult: 1
  }
  param {
    lr_mult: 20
    decay_mult: 0
  }
  convolution_param {
    num_output: 3
    pad: 0
    kernel_size: 1
  }
}
layer {
  name: "score_pool4c-R"
  type: "Crop"
  bottom: "score_pool4-new-R"
  bottom: "upscore2-new-R"
  top: "score_pool4c-R"
  crop_param {
    axis: 2
    offset: 5
  }
}
layer {
  name: "fuse_pool4-R"
  type: "Eltwise"
  bottom: "upscore2-new-R"
  bottom: "score_pool4c-R"
  top: "fuse_pool4-R"
  eltwise_param {
    operation: SUM
  }
}
layer {
  name: "upscore_pool4-new-R"
  type: "Deconvolution"
  bottom: "fuse_pool4-R"
  top: "upscore_pool4-new-R"
  param {
    lr_mult: 0
  }
  convolution_param {
    num_output: 3
    bias_term: false
    kernel_size: 4
    stride: 2
  }
}
layer {
  name: "score_pool3-new-R"
  type: "Convolution"
  bottom: "pool3-R"
  top: "score_pool3-new-R"
  param {
    lr_mult: 10
    decay_mult: 1
  }
  param {
    lr_mult: 20
    decay_mult: 0
  }
  convolution_param {
    num_output: 3
    pad: 0
    kernel_size: 1
  }
}
layer {
  name: "score_pool3c-R"
  type: "Crop"
  bottom: "score_pool3-new-R"
  bottom: "upscore_pool4-new-R"
  top: "score_pool3c-R"
  crop_param {
    axis: 2
    offset: 9
  }
}
layer {
  name: "fuse_pool3-R"
  type: "Eltwise"
  bottom: "upscore_pool4-new-R"
  bottom: "score_pool3c-R"
  top: "fuse_pool3-R"
  eltwise_param {
    operation: SUM
  }
}
layer {
  name: "upscore8-new-R"
  type: "Deconvolution"
  bottom: "fuse_pool3-R"
  top: "upscore8-new-R"
  param {
    lr_mult: 0
  }
  convolution_param {
    num_output: 3
    bias_term: false
    kernel_size: 16
    stride: 8
  }
}
layer {
  name: "upscore8_cropped-R"
  type: "Crop"
  bottom: "upscore8-new-R"
  bottom: "data-R"
  top: "upscore8_cropped-R"
  crop_param {
    axis: 2
    offset: 31
  }
}
layer {
  name: "upscore8_uncropped-R"
  type: "Python"
  bottom: "crop_info"
  bottom: "upscore8_cropped-R"
  bottom: "data"
  top: "upscore8_uncropped-R"
  python_param {
    module: "Uncrop"
    layer: "UncropLayer"
  }
}
layer {
  name: "loss1"
  type: "DiceLoss"
  bottom: "upscore8_cropped"
  bottom: "label"
  top: "loss1"
  loss_weight: 0.333333
}
layer {
  name: "loss2"
  type: "DiceLoss"
  bottom: "upscore8_uncropped-R"
  bottom: "label"
  top: "loss2"
  loss_weight: 0.666667
}
I0715 09:19:44.878924 12889 layer_factory.hpp:77] Creating layer data
I0715 09:19:44.879343 12889 net.cpp:84] Creating Layer data
I0715 09:19:44.879361 12889 net.cpp:380] data -> data
I0715 09:19:44.879381 12889 net.cpp:380] data -> label
I0715 09:19:44.879392 12889 net.cpp:380] data -> crop_margin
I0715 09:19:44.879401 12889 net.cpp:380] data -> crop_prob
I0715 09:19:44.879411 12889 net.cpp:380] data -> crop_sample_batch
I0715 09:19:45.025060 12889 net.cpp:122] Setting up data
I0715 09:19:45.025113 12889 net.cpp:129] Top shape: 1 3 512 206 (316416)
I0715 09:19:45.025120 12889 net.cpp:129] Top shape: 1 3 512 206 (316416)
I0715 09:19:45.025125 12889 net.cpp:129] Top shape: 1 (1)
I0715 09:19:45.025130 12889 net.cpp:129] Top shape: 1 (1)
I0715 09:19:45.025133 12889 net.cpp:129] Top shape: 1 (1)
I0715 09:19:45.025136 12889 net.cpp:137] Memory required for data: 2531340
I0715 09:19:45.025144 12889 layer_factory.hpp:77] Creating layer data_data_0_split
I0715 09:19:45.025162 12889 net.cpp:84] Creating Layer data_data_0_split
I0715 09:19:45.025167 12889 net.cpp:406] data_data_0_split <- data
I0715 09:19:45.025178 12889 net.cpp:380] data_data_0_split -> data_data_0_split_0
I0715 09:19:45.025190 12889 net.cpp:380] data_data_0_split -> data_data_0_split_1
I0715 09:19:45.025197 12889 net.cpp:380] data_data_0_split -> data_data_0_split_2
I0715 09:19:45.025202 12889 net.cpp:380] data_data_0_split -> data_data_0_split_3
I0715 09:19:45.025250 12889 net.cpp:122] Setting up data_data_0_split
I0715 09:19:45.025255 12889 net.cpp:129] Top shape: 1 3 512 206 (316416)
I0715 09:19:45.025259 12889 net.cpp:129] Top shape: 1 3 512 206 (316416)
I0715 09:19:45.025264 12889 net.cpp:129] Top shape: 1 3 512 206 (316416)
I0715 09:19:45.025267 12889 net.cpp:129] Top shape: 1 3 512 206 (316416)
I0715 09:19:45.025270 12889 net.cpp:137] Memory required for data: 7593996
I0715 09:19:45.025274 12889 layer_factory.hpp:77] Creating layer label_data_1_split
I0715 09:19:45.025279 12889 net.cpp:84] Creating Layer label_data_1_split
I0715 09:19:45.025283 12889 net.cpp:406] label_data_1_split <- label
I0715 09:19:45.025288 12889 net.cpp:380] label_data_1_split -> label_data_1_split_0
I0715 09:19:45.025295 12889 net.cpp:380] label_data_1_split -> label_data_1_split_1
I0715 09:19:45.025300 12889 net.cpp:380] label_data_1_split -> label_data_1_split_2
I0715 09:19:45.025331 12889 net.cpp:122] Setting up label_data_1_split
I0715 09:19:45.025336 12889 net.cpp:129] Top shape: 1 3 512 206 (316416)
I0715 09:19:45.025341 12889 net.cpp:129] Top shape: 1 3 512 206 (316416)
I0715 09:19:45.025344 12889 net.cpp:129] Top shape: 1 3 512 206 (316416)
I0715 09:19:45.025347 12889 net.cpp:137] Memory required for data: 11390988
I0715 09:19:45.025351 12889 layer_factory.hpp:77] Creating layer conv1_1
I0715 09:19:45.025365 12889 net.cpp:84] Creating Layer conv1_1
I0715 09:19:45.025369 12889 net.cpp:406] conv1_1 <- data_data_0_split_0
I0715 09:19:45.025374 12889 net.cpp:380] conv1_1 -> conv1_1
I0715 09:19:45.341339 12889 net.cpp:122] Setting up conv1_1
I0715 09:19:45.341388 12889 net.cpp:129] Top shape: 1 64 710 404 (18357760)
I0715 09:19:45.341393 12889 net.cpp:137] Memory required for data: 84822028
I0715 09:19:45.341419 12889 layer_factory.hpp:77] Creating layer relu1_1
I0715 09:19:45.341454 12889 net.cpp:84] Creating Layer relu1_1
I0715 09:19:45.341460 12889 net.cpp:406] relu1_1 <- conv1_1
I0715 09:19:45.341466 12889 net.cpp:367] relu1_1 -> conv1_1 (in-place)
I0715 09:19:45.341670 12889 net.cpp:122] Setting up relu1_1
I0715 09:19:45.341687 12889 net.cpp:129] Top shape: 1 64 710 404 (18357760)
I0715 09:19:45.341692 12889 net.cpp:137] Memory required for data: 158253068
I0715 09:19:45.341698 12889 layer_factory.hpp:77] Creating layer conv1_2
I0715 09:19:45.341730 12889 net.cpp:84] Creating Layer conv1_2
I0715 09:19:45.341737 12889 net.cpp:406] conv1_2 <- conv1_1
I0715 09:19:45.341747 12889 net.cpp:380] conv1_2 -> conv1_2
I0715 09:19:45.345983 12889 net.cpp:122] Setting up conv1_2
I0715 09:19:45.346014 12889 net.cpp:129] Top shape: 1 64 710 404 (18357760)
I0715 09:19:45.346016 12889 net.cpp:137] Memory required for data: 231684108
I0715 09:19:45.346029 12889 layer_factory.hpp:77] Creating layer relu1_2
I0715 09:19:45.346035 12889 net.cpp:84] Creating Layer relu1_2
I0715 09:19:45.346040 12889 net.cpp:406] relu1_2 <- conv1_2
I0715 09:19:45.346045 12889 net.cpp:367] relu1_2 -> conv1_2 (in-place)
I0715 09:19:45.346266 12889 net.cpp:122] Setting up relu1_2
I0715 09:19:45.346282 12889 net.cpp:129] Top shape: 1 64 710 404 (18357760)
I0715 09:19:45.346288 12889 net.cpp:137] Memory required for data: 305115148
I0715 09:19:45.346294 12889 layer_factory.hpp:77] Creating layer pool1
I0715 09:19:45.346307 12889 net.cpp:84] Creating Layer pool1
I0715 09:19:45.346310 12889 net.cpp:406] pool1 <- conv1_2
I0715 09:19:45.346318 12889 net.cpp:380] pool1 -> pool1
I0715 09:19:45.346382 12889 net.cpp:122] Setting up pool1
I0715 09:19:45.346395 12889 net.cpp:129] Top shape: 1 64 355 202 (4589440)
I0715 09:19:45.346400 12889 net.cpp:137] Memory required for data: 323472908
I0715 09:19:45.346402 12889 layer_factory.hpp:77] Creating layer conv2_1
I0715 09:19:45.346413 12889 net.cpp:84] Creating Layer conv2_1
I0715 09:19:45.346417 12889 net.cpp:406] conv2_1 <- pool1
I0715 09:19:45.346423 12889 net.cpp:380] conv2_1 -> conv2_1
I0715 09:19:45.348081 12889 net.cpp:122] Setting up conv2_1
I0715 09:19:45.348111 12889 net.cpp:129] Top shape: 1 128 355 202 (9178880)
I0715 09:19:45.348115 12889 net.cpp:137] Memory required for data: 360188428
I0715 09:19:45.348124 12889 layer_factory.hpp:77] Creating layer relu2_1
I0715 09:19:45.348134 12889 net.cpp:84] Creating Layer relu2_1
I0715 09:19:45.348137 12889 net.cpp:406] relu2_1 <- conv2_1
I0715 09:19:45.348142 12889 net.cpp:367] relu2_1 -> conv2_1 (in-place)
I0715 09:19:45.348348 12889 net.cpp:122] Setting up relu2_1
I0715 09:19:45.348366 12889 net.cpp:129] Top shape: 1 128 355 202 (9178880)
I0715 09:19:45.348371 12889 net.cpp:137] Memory required for data: 396903948
I0715 09:19:45.348376 12889 layer_factory.hpp:77] Creating layer conv2_2
I0715 09:19:45.348387 12889 net.cpp:84] Creating Layer conv2_2
I0715 09:19:45.348390 12889 net.cpp:406] conv2_2 <- conv2_1
I0715 09:19:45.348397 12889 net.cpp:380] conv2_2 -> conv2_2
I0715 09:19:45.350085 12889 net.cpp:122] Setting up conv2_2
I0715 09:19:45.350114 12889 net.cpp:129] Top shape: 1 128 355 202 (9178880)
I0715 09:19:45.350119 12889 net.cpp:137] Memory required for data: 433619468
I0715 09:19:45.350126 12889 layer_factory.hpp:77] Creating layer relu2_2
I0715 09:19:45.350132 12889 net.cpp:84] Creating Layer relu2_2
I0715 09:19:45.350136 12889 net.cpp:406] relu2_2 <- conv2_2
I0715 09:19:45.350142 12889 net.cpp:367] relu2_2 -> conv2_2 (in-place)
I0715 09:19:45.350345 12889 net.cpp:122] Setting up relu2_2
I0715 09:19:45.350361 12889 net.cpp:129] Top shape: 1 128 355 202 (9178880)
I0715 09:19:45.350368 12889 net.cpp:137] Memory required for data: 470334988
I0715 09:19:45.350373 12889 layer_factory.hpp:77] Creating layer pool2
I0715 09:19:45.350380 12889 net.cpp:84] Creating Layer pool2
I0715 09:19:45.350384 12889 net.cpp:406] pool2 <- conv2_2
I0715 09:19:45.350390 12889 net.cpp:380] pool2 -> pool2
I0715 09:19:45.350442 12889 net.cpp:122] Setting up pool2
I0715 09:19:45.350452 12889 net.cpp:129] Top shape: 1 128 178 101 (2301184)
I0715 09:19:45.350456 12889 net.cpp:137] Memory required for data: 479539724
I0715 09:19:45.350461 12889 layer_factory.hpp:77] Creating layer conv3_1
I0715 09:19:45.350473 12889 net.cpp:84] Creating Layer conv3_1
I0715 09:19:45.350478 12889 net.cpp:406] conv3_1 <- pool2
I0715 09:19:45.350487 12889 net.cpp:380] conv3_1 -> conv3_1
I0715 09:19:45.353723 12889 net.cpp:122] Setting up conv3_1
I0715 09:19:45.353752 12889 net.cpp:129] Top shape: 1 256 178 101 (4602368)
I0715 09:19:45.353756 12889 net.cpp:137] Memory required for data: 497949196
I0715 09:19:45.353767 12889 layer_factory.hpp:77] Creating layer relu3_1
I0715 09:19:45.353775 12889 net.cpp:84] Creating Layer relu3_1
I0715 09:19:45.353778 12889 net.cpp:406] relu3_1 <- conv3_1
I0715 09:19:45.353785 12889 net.cpp:367] relu3_1 -> conv3_1 (in-place)
I0715 09:19:45.354426 12889 net.cpp:122] Setting up relu3_1
I0715 09:19:45.354456 12889 net.cpp:129] Top shape: 1 256 178 101 (4602368)
I0715 09:19:45.354460 12889 net.cpp:137] Memory required for data: 516358668
I0715 09:19:45.354463 12889 layer_factory.hpp:77] Creating layer conv3_2
I0715 09:19:45.354473 12889 net.cpp:84] Creating Layer conv3_2
I0715 09:19:45.354477 12889 net.cpp:406] conv3_2 <- conv3_1
I0715 09:19:45.354485 12889 net.cpp:380] conv3_2 -> conv3_2
I0715 09:19:45.358227 12889 net.cpp:122] Setting up conv3_2
I0715 09:19:45.358275 12889 net.cpp:129] Top shape: 1 256 178 101 (4602368)
I0715 09:19:45.358279 12889 net.cpp:137] Memory required for data: 534768140
I0715 09:19:45.358291 12889 layer_factory.hpp:77] Creating layer relu3_2
I0715 09:19:45.358309 12889 net.cpp:84] Creating Layer relu3_2
I0715 09:19:45.358314 12889 net.cpp:406] relu3_2 <- conv3_2
I0715 09:19:45.358335 12889 net.cpp:367] relu3_2 -> conv3_2 (in-place)
I0715 09:19:45.358867 12889 net.cpp:122] Setting up relu3_2
I0715 09:19:45.358881 12889 net.cpp:129] Top shape: 1 256 178 101 (4602368)
I0715 09:19:45.358885 12889 net.cpp:137] Memory required for data: 553177612
I0715 09:19:45.358896 12889 layer_factory.hpp:77] Creating layer conv3_3
I0715 09:19:45.358906 12889 net.cpp:84] Creating Layer conv3_3
I0715 09:19:45.358919 12889 net.cpp:406] conv3_3 <- conv3_2
I0715 09:19:45.358928 12889 net.cpp:380] conv3_3 -> conv3_3
I0715 09:19:45.362380 12889 net.cpp:122] Setting up conv3_3
I0715 09:19:45.362395 12889 net.cpp:129] Top shape: 1 256 178 101 (4602368)
I0715 09:19:45.362398 12889 net.cpp:137] Memory required for data: 571587084
I0715 09:19:45.362406 12889 layer_factory.hpp:77] Creating layer relu3_3
I0715 09:19:45.362414 12889 net.cpp:84] Creating Layer relu3_3
I0715 09:19:45.362418 12889 net.cpp:406] relu3_3 <- conv3_3
I0715 09:19:45.362424 12889 net.cpp:367] relu3_3 -> conv3_3 (in-place)
I0715 09:19:45.362596 12889 net.cpp:122] Setting up relu3_3
I0715 09:19:45.362607 12889 net.cpp:129] Top shape: 1 256 178 101 (4602368)
I0715 09:19:45.362609 12889 net.cpp:137] Memory required for data: 589996556
I0715 09:19:45.362612 12889 layer_factory.hpp:77] Creating layer pool3
I0715 09:19:45.362622 12889 net.cpp:84] Creating Layer pool3
I0715 09:19:45.362624 12889 net.cpp:406] pool3 <- conv3_3
I0715 09:19:45.362632 12889 net.cpp:380] pool3 -> pool3
I0715 09:19:45.362685 12889 net.cpp:122] Setting up pool3
I0715 09:19:45.362691 12889 net.cpp:129] Top shape: 1 256 89 51 (1161984)
I0715 09:19:45.362694 12889 net.cpp:137] Memory required for data: 594644492
I0715 09:19:45.362699 12889 layer_factory.hpp:77] Creating layer pool3_pool3_0_split
I0715 09:19:45.362704 12889 net.cpp:84] Creating Layer pool3_pool3_0_split
I0715 09:19:45.362709 12889 net.cpp:406] pool3_pool3_0_split <- pool3
I0715 09:19:45.362713 12889 net.cpp:380] pool3_pool3_0_split -> pool3_pool3_0_split_0
I0715 09:19:45.362720 12889 net.cpp:380] pool3_pool3_0_split -> pool3_pool3_0_split_1
I0715 09:19:45.362751 12889 net.cpp:122] Setting up pool3_pool3_0_split
I0715 09:19:45.362756 12889 net.cpp:129] Top shape: 1 256 89 51 (1161984)
I0715 09:19:45.362761 12889 net.cpp:129] Top shape: 1 256 89 51 (1161984)
I0715 09:19:45.362763 12889 net.cpp:137] Memory required for data: 603940364
I0715 09:19:45.362766 12889 layer_factory.hpp:77] Creating layer conv4_1
I0715 09:19:45.362776 12889 net.cpp:84] Creating Layer conv4_1
I0715 09:19:45.362779 12889 net.cpp:406] conv4_1 <- pool3_pool3_0_split_0
I0715 09:19:45.362787 12889 net.cpp:380] conv4_1 -> conv4_1
I0715 09:19:45.370653 12889 net.cpp:122] Setting up conv4_1
I0715 09:19:45.370671 12889 net.cpp:129] Top shape: 1 512 89 51 (2323968)
I0715 09:19:45.370674 12889 net.cpp:137] Memory required for data: 613236236
I0715 09:19:45.370683 12889 layer_factory.hpp:77] Creating layer relu4_1
I0715 09:19:45.370692 12889 net.cpp:84] Creating Layer relu4_1
I0715 09:19:45.370695 12889 net.cpp:406] relu4_1 <- conv4_1
I0715 09:19:45.370702 12889 net.cpp:367] relu4_1 -> conv4_1 (in-place)
I0715 09:19:45.370877 12889 net.cpp:122] Setting up relu4_1
I0715 09:19:45.370887 12889 net.cpp:129] Top shape: 1 512 89 51 (2323968)
I0715 09:19:45.370890 12889 net.cpp:137] Memory required for data: 622532108
I0715 09:19:45.370893 12889 layer_factory.hpp:77] Creating layer conv4_2
I0715 09:19:45.370903 12889 net.cpp:84] Creating Layer conv4_2
I0715 09:19:45.370906 12889 net.cpp:406] conv4_2 <- conv4_1
I0715 09:19:45.370914 12889 net.cpp:380] conv4_2 -> conv4_2
I0715 09:19:45.379148 12889 net.cpp:122] Setting up conv4_2
I0715 09:19:45.379168 12889 net.cpp:129] Top shape: 1 512 89 51 (2323968)
I0715 09:19:45.379171 12889 net.cpp:137] Memory required for data: 631827980
I0715 09:19:45.379186 12889 layer_factory.hpp:77] Creating layer relu4_2
I0715 09:19:45.379194 12889 net.cpp:84] Creating Layer relu4_2
I0715 09:19:45.379199 12889 net.cpp:406] relu4_2 <- conv4_2
I0715 09:19:45.379204 12889 net.cpp:367] relu4_2 -> conv4_2 (in-place)
I0715 09:19:45.379415 12889 net.cpp:122] Setting up relu4_2
I0715 09:19:45.379429 12889 net.cpp:129] Top shape: 1 512 89 51 (2323968)
I0715 09:19:45.379433 12889 net.cpp:137] Memory required for data: 641123852
I0715 09:19:45.379436 12889 layer_factory.hpp:77] Creating layer conv4_3
I0715 09:19:45.379446 12889 net.cpp:84] Creating Layer conv4_3
I0715 09:19:45.379451 12889 net.cpp:406] conv4_3 <- conv4_2
I0715 09:19:45.379458 12889 net.cpp:380] conv4_3 -> conv4_3
I0715 09:19:45.387261 12889 net.cpp:122] Setting up conv4_3
I0715 09:19:45.387291 12889 net.cpp:129] Top shape: 1 512 89 51 (2323968)
I0715 09:19:45.387311 12889 net.cpp:137] Memory required for data: 650419724
I0715 09:19:45.387320 12889 layer_factory.hpp:77] Creating layer relu4_3
I0715 09:19:45.387329 12889 net.cpp:84] Creating Layer relu4_3
I0715 09:19:45.387333 12889 net.cpp:406] relu4_3 <- conv4_3
I0715 09:19:45.387341 12889 net.cpp:367] relu4_3 -> conv4_3 (in-place)
I0715 09:19:45.387506 12889 net.cpp:122] Setting up relu4_3
I0715 09:19:45.387517 12889 net.cpp:129] Top shape: 1 512 89 51 (2323968)
I0715 09:19:45.387521 12889 net.cpp:137] Memory required for data: 659715596
I0715 09:19:45.387524 12889 layer_factory.hpp:77] Creating layer pool4
I0715 09:19:45.387533 12889 net.cpp:84] Creating Layer pool4
I0715 09:19:45.387537 12889 net.cpp:406] pool4 <- conv4_3
I0715 09:19:45.387545 12889 net.cpp:380] pool4 -> pool4
I0715 09:19:45.387591 12889 net.cpp:122] Setting up pool4
I0715 09:19:45.387600 12889 net.cpp:129] Top shape: 1 512 45 26 (599040)
I0715 09:19:45.387603 12889 net.cpp:137] Memory required for data: 662111756
I0715 09:19:45.387606 12889 layer_factory.hpp:77] Creating layer pool4_pool4_0_split
I0715 09:19:45.387614 12889 net.cpp:84] Creating Layer pool4_pool4_0_split
I0715 09:19:45.387617 12889 net.cpp:406] pool4_pool4_0_split <- pool4
I0715 09:19:45.387624 12889 net.cpp:380] pool4_pool4_0_split -> pool4_pool4_0_split_0
I0715 09:19:45.387629 12889 net.cpp:380] pool4_pool4_0_split -> pool4_pool4_0_split_1
I0715 09:19:45.387677 12889 net.cpp:122] Setting up pool4_pool4_0_split
I0715 09:19:45.387684 12889 net.cpp:129] Top shape: 1 512 45 26 (599040)
I0715 09:19:45.387688 12889 net.cpp:129] Top shape: 1 512 45 26 (599040)
I0715 09:19:45.387691 12889 net.cpp:137] Memory required for data: 666904076
I0715 09:19:45.387693 12889 layer_factory.hpp:77] Creating layer conv5_1
I0715 09:19:45.387703 12889 net.cpp:84] Creating Layer conv5_1
I0715 09:19:45.387706 12889 net.cpp:406] conv5_1 <- pool4_pool4_0_split_0
I0715 09:19:45.387713 12889 net.cpp:380] conv5_1 -> conv5_1
I0715 09:19:45.395543 12889 net.cpp:122] Setting up conv5_1
I0715 09:19:45.395563 12889 net.cpp:129] Top shape: 1 512 45 26 (599040)
I0715 09:19:45.395567 12889 net.cpp:137] Memory required for data: 669300236
I0715 09:19:45.395576 12889 layer_factory.hpp:77] Creating layer relu5_1
I0715 09:19:45.395584 12889 net.cpp:84] Creating Layer relu5_1
I0715 09:19:45.395588 12889 net.cpp:406] relu5_1 <- conv5_1
I0715 09:19:45.395596 12889 net.cpp:367] relu5_1 -> conv5_1 (in-place)
I0715 09:19:45.396246 12889 net.cpp:122] Setting up relu5_1
I0715 09:19:45.396260 12889 net.cpp:129] Top shape: 1 512 45 26 (599040)
I0715 09:19:45.396279 12889 net.cpp:137] Memory required for data: 671696396
I0715 09:19:45.396283 12889 layer_factory.hpp:77] Creating layer conv5_2
I0715 09:19:45.396293 12889 net.cpp:84] Creating Layer conv5_2
I0715 09:19:45.396297 12889 net.cpp:406] conv5_2 <- conv5_1
I0715 09:19:45.396320 12889 net.cpp:380] conv5_2 -> conv5_2
I0715 09:19:45.403781 12889 net.cpp:122] Setting up conv5_2
I0715 09:19:45.403800 12889 net.cpp:129] Top shape: 1 512 45 26 (599040)
I0715 09:19:45.403802 12889 net.cpp:137] Memory required for data: 674092556
I0715 09:19:45.403810 12889 layer_factory.hpp:77] Creating layer relu5_2
I0715 09:19:45.403827 12889 net.cpp:84] Creating Layer relu5_2
I0715 09:19:45.403831 12889 net.cpp:406] relu5_2 <- conv5_2
I0715 09:19:45.403836 12889 net.cpp:367] relu5_2 -> conv5_2 (in-place)
I0715 09:19:45.404508 12889 net.cpp:122] Setting up relu5_2
I0715 09:19:45.404525 12889 net.cpp:129] Top shape: 1 512 45 26 (599040)
I0715 09:19:45.404527 12889 net.cpp:137] Memory required for data: 676488716
I0715 09:19:45.404531 12889 layer_factory.hpp:77] Creating layer conv5_3
I0715 09:19:45.404539 12889 net.cpp:84] Creating Layer conv5_3
I0715 09:19:45.404542 12889 net.cpp:406] conv5_3 <- conv5_2
I0715 09:19:45.404551 12889 net.cpp:380] conv5_3 -> conv5_3
I0715 09:19:45.412837 12889 net.cpp:122] Setting up conv5_3
I0715 09:19:45.412853 12889 net.cpp:129] Top shape: 1 512 45 26 (599040)
I0715 09:19:45.412858 12889 net.cpp:137] Memory required for data: 678884876
I0715 09:19:45.412865 12889 layer_factory.hpp:77] Creating layer relu5_3
I0715 09:19:45.412873 12889 net.cpp:84] Creating Layer relu5_3
I0715 09:19:45.412876 12889 net.cpp:406] relu5_3 <- conv5_3
I0715 09:19:45.412890 12889 net.cpp:367] relu5_3 -> conv5_3 (in-place)
I0715 09:19:45.413096 12889 net.cpp:122] Setting up relu5_3
I0715 09:19:45.413107 12889 net.cpp:129] Top shape: 1 512 45 26 (599040)
I0715 09:19:45.413110 12889 net.cpp:137] Memory required for data: 681281036
I0715 09:19:45.413113 12889 layer_factory.hpp:77] Creating layer pool5
I0715 09:19:45.413122 12889 net.cpp:84] Creating Layer pool5
I0715 09:19:45.413125 12889 net.cpp:406] pool5 <- conv5_3
I0715 09:19:45.413137 12889 net.cpp:380] pool5 -> pool5
I0715 09:19:45.413198 12889 net.cpp:122] Setting up pool5
I0715 09:19:45.413209 12889 net.cpp:129] Top shape: 1 512 23 13 (153088)
I0715 09:19:45.413213 12889 net.cpp:137] Memory required for data: 681893388
I0715 09:19:45.413215 12889 layer_factory.hpp:77] Creating layer fc6
I0715 09:19:45.413224 12889 net.cpp:84] Creating Layer fc6
I0715 09:19:45.413228 12889 net.cpp:406] fc6 <- pool5
I0715 09:19:45.413236 12889 net.cpp:380] fc6 -> fc6
I0715 09:19:45.734102 12889 net.cpp:122] Setting up fc6
I0715 09:19:45.734140 12889 net.cpp:129] Top shape: 1 4096 17 7 (487424)
I0715 09:19:45.734144 12889 net.cpp:137] Memory required for data: 683843084
I0715 09:19:45.734155 12889 layer_factory.hpp:77] Creating layer relu6
I0715 09:19:45.734171 12889 net.cpp:84] Creating Layer relu6
I0715 09:19:45.734176 12889 net.cpp:406] relu6 <- fc6
I0715 09:19:45.734184 12889 net.cpp:367] relu6 -> fc6 (in-place)
I0715 09:19:45.734406 12889 net.cpp:122] Setting up relu6
I0715 09:19:45.734417 12889 net.cpp:129] Top shape: 1 4096 17 7 (487424)
I0715 09:19:45.734421 12889 net.cpp:137] Memory required for data: 685792780
I0715 09:19:45.734424 12889 layer_factory.hpp:77] Creating layer drop6
I0715 09:19:45.734441 12889 net.cpp:84] Creating Layer drop6
I0715 09:19:45.734446 12889 net.cpp:406] drop6 <- fc6
I0715 09:19:45.734450 12889 net.cpp:367] drop6 -> fc6 (in-place)
I0715 09:19:45.734490 12889 net.cpp:122] Setting up drop6
I0715 09:19:45.734496 12889 net.cpp:129] Top shape: 1 4096 17 7 (487424)
I0715 09:19:45.734499 12889 net.cpp:137] Memory required for data: 687742476
I0715 09:19:45.734503 12889 layer_factory.hpp:77] Creating layer fc7
I0715 09:19:45.734513 12889 net.cpp:84] Creating Layer fc7
I0715 09:19:45.734517 12889 net.cpp:406] fc7 <- fc6
I0715 09:19:45.734522 12889 net.cpp:380] fc7 -> fc7
I0715 09:19:45.789762 12889 net.cpp:122] Setting up fc7
I0715 09:19:45.789800 12889 net.cpp:129] Top shape: 1 4096 17 7 (487424)
I0715 09:19:45.789805 12889 net.cpp:137] Memory required for data: 689692172
I0715 09:19:45.789816 12889 layer_factory.hpp:77] Creating layer relu7
I0715 09:19:45.789829 12889 net.cpp:84] Creating Layer relu7
I0715 09:19:45.789834 12889 net.cpp:406] relu7 <- fc7
I0715 09:19:45.789841 12889 net.cpp:367] relu7 -> fc7 (in-place)
I0715 09:19:45.790071 12889 net.cpp:122] Setting up relu7
I0715 09:19:45.790082 12889 net.cpp:129] Top shape: 1 4096 17 7 (487424)
I0715 09:19:45.790086 12889 net.cpp:137] Memory required for data: 691641868
I0715 09:19:45.790089 12889 layer_factory.hpp:77] Creating layer drop7
I0715 09:19:45.790099 12889 net.cpp:84] Creating Layer drop7
I0715 09:19:45.790102 12889 net.cpp:406] drop7 <- fc7
I0715 09:19:45.790107 12889 net.cpp:367] drop7 -> fc7 (in-place)
I0715 09:19:45.790144 12889 net.cpp:122] Setting up drop7
I0715 09:19:45.790149 12889 net.cpp:129] Top shape: 1 4096 17 7 (487424)
I0715 09:19:45.790153 12889 net.cpp:137] Memory required for data: 693591564
I0715 09:19:45.790156 12889 layer_factory.hpp:77] Creating layer score_fr-new
I0715 09:19:45.790169 12889 net.cpp:84] Creating Layer score_fr-new
I0715 09:19:45.790172 12889 net.cpp:406] score_fr-new <- fc7
I0715 09:19:45.790179 12889 net.cpp:380] score_fr-new -> score_fr-new
I0715 09:19:45.792254 12889 net.cpp:122] Setting up score_fr-new
I0715 09:19:45.792270 12889 net.cpp:129] Top shape: 1 3 17 7 (357)
I0715 09:19:45.792273 12889 net.cpp:137] Memory required for data: 693592992
I0715 09:19:45.792280 12889 layer_factory.hpp:77] Creating layer upscore2-new
I0715 09:19:45.792297 12889 net.cpp:84] Creating Layer upscore2-new
I0715 09:19:45.792301 12889 net.cpp:406] upscore2-new <- score_fr-new
I0715 09:19:45.792309 12889 net.cpp:380] upscore2-new -> upscore2-new
I0715 09:19:45.792549 12889 net.cpp:122] Setting up upscore2-new
I0715 09:19:45.792559 12889 net.cpp:129] Top shape: 1 3 36 16 (1728)
I0715 09:19:45.792562 12889 net.cpp:137] Memory required for data: 693599904
I0715 09:19:45.792577 12889 layer_factory.hpp:77] Creating layer upscore2-new_upscore2-new_0_split
I0715 09:19:45.792584 12889 net.cpp:84] Creating Layer upscore2-new_upscore2-new_0_split
I0715 09:19:45.792587 12889 net.cpp:406] upscore2-new_upscore2-new_0_split <- upscore2-new
I0715 09:19:45.792595 12889 net.cpp:380] upscore2-new_upscore2-new_0_split -> upscore2-new_upscore2-new_0_split_0
I0715 09:19:45.792603 12889 net.cpp:380] upscore2-new_upscore2-new_0_split -> upscore2-new_upscore2-new_0_split_1
I0715 09:19:45.792637 12889 net.cpp:122] Setting up upscore2-new_upscore2-new_0_split
I0715 09:19:45.792644 12889 net.cpp:129] Top shape: 1 3 36 16 (1728)
I0715 09:19:45.792647 12889 net.cpp:129] Top shape: 1 3 36 16 (1728)
I0715 09:19:45.792650 12889 net.cpp:137] Memory required for data: 693613728
I0715 09:19:45.792654 12889 layer_factory.hpp:77] Creating layer score_pool4-new
I0715 09:19:45.792665 12889 net.cpp:84] Creating Layer score_pool4-new
I0715 09:19:45.792671 12889 net.cpp:406] score_pool4-new <- pool4_pool4_0_split_1
I0715 09:19:45.792677 12889 net.cpp:380] score_pool4-new -> score_pool4-new
I0715 09:19:45.793900 12889 net.cpp:122] Setting up score_pool4-new
I0715 09:19:45.793913 12889 net.cpp:129] Top shape: 1 3 45 26 (3510)
I0715 09:19:45.793917 12889 net.cpp:137] Memory required for data: 693627768
I0715 09:19:45.793923 12889 layer_factory.hpp:77] Creating layer score_pool4c
I0715 09:19:45.793933 12889 net.cpp:84] Creating Layer score_pool4c
I0715 09:19:45.793941 12889 net.cpp:406] score_pool4c <- score_pool4-new
I0715 09:19:45.793946 12889 net.cpp:406] score_pool4c <- upscore2-new_upscore2-new_0_split_0
I0715 09:19:45.793951 12889 net.cpp:380] score_pool4c -> score_pool4c
I0715 09:19:45.794000 12889 net.cpp:122] Setting up score_pool4c
I0715 09:19:45.794006 12889 net.cpp:129] Top shape: 1 3 36 16 (1728)
I0715 09:19:45.794008 12889 net.cpp:137] Memory required for data: 693634680
I0715 09:19:45.794011 12889 layer_factory.hpp:77] Creating layer fuse_pool4
I0715 09:19:45.794023 12889 net.cpp:84] Creating Layer fuse_pool4
I0715 09:19:45.794028 12889 net.cpp:406] fuse_pool4 <- upscore2-new_upscore2-new_0_split_1
I0715 09:19:45.794031 12889 net.cpp:406] fuse_pool4 <- score_pool4c
I0715 09:19:45.794039 12889 net.cpp:380] fuse_pool4 -> fuse_pool4
I0715 09:19:45.794066 12889 net.cpp:122] Setting up fuse_pool4
I0715 09:19:45.794071 12889 net.cpp:129] Top shape: 1 3 36 16 (1728)
I0715 09:19:45.794075 12889 net.cpp:137] Memory required for data: 693641592
I0715 09:19:45.794077 12889 layer_factory.hpp:77] Creating layer upscore_pool4-new
I0715 09:19:45.794091 12889 net.cpp:84] Creating Layer upscore_pool4-new
I0715 09:19:45.794095 12889 net.cpp:406] upscore_pool4-new <- fuse_pool4
I0715 09:19:45.794118 12889 net.cpp:380] upscore_pool4-new -> upscore_pool4-new
I0715 09:19:45.794312 12889 net.cpp:122] Setting up upscore_pool4-new
I0715 09:19:45.794320 12889 net.cpp:129] Top shape: 1 3 74 34 (7548)
I0715 09:19:45.794323 12889 net.cpp:137] Memory required for data: 693671784
I0715 09:19:45.794327 12889 layer_factory.hpp:77] Creating layer upscore_pool4-new_upscore_pool4-new_0_split
I0715 09:19:45.794333 12889 net.cpp:84] Creating Layer upscore_pool4-new_upscore_pool4-new_0_split
I0715 09:19:45.794337 12889 net.cpp:406] upscore_pool4-new_upscore_pool4-new_0_split <- upscore_pool4-new
I0715 09:19:45.794342 12889 net.cpp:380] upscore_pool4-new_upscore_pool4-new_0_split -> upscore_pool4-new_upscore_pool4-new_0_split_0
I0715 09:19:45.794353 12889 net.cpp:380] upscore_pool4-new_upscore_pool4-new_0_split -> upscore_pool4-new_upscore_pool4-new_0_split_1
I0715 09:19:45.794385 12889 net.cpp:122] Setting up upscore_pool4-new_upscore_pool4-new_0_split
I0715 09:19:45.794391 12889 net.cpp:129] Top shape: 1 3 74 34 (7548)
I0715 09:19:45.794395 12889 net.cpp:129] Top shape: 1 3 74 34 (7548)
I0715 09:19:45.794399 12889 net.cpp:137] Memory required for data: 693732168
I0715 09:19:45.794401 12889 layer_factory.hpp:77] Creating layer score_pool3-new
I0715 09:19:45.794412 12889 net.cpp:84] Creating Layer score_pool3-new
I0715 09:19:45.794415 12889 net.cpp:406] score_pool3-new <- pool3_pool3_0_split_1
I0715 09:19:45.794425 12889 net.cpp:380] score_pool3-new -> score_pool3-new
I0715 09:19:45.795687 12889 net.cpp:122] Setting up score_pool3-new
I0715 09:19:45.795701 12889 net.cpp:129] Top shape: 1 3 89 51 (13617)
I0715 09:19:45.795704 12889 net.cpp:137] Memory required for data: 693786636
I0715 09:19:45.795711 12889 layer_factory.hpp:77] Creating layer score_pool3c
I0715 09:19:45.795720 12889 net.cpp:84] Creating Layer score_pool3c
I0715 09:19:45.795724 12889 net.cpp:406] score_pool3c <- score_pool3-new
I0715 09:19:45.795729 12889 net.cpp:406] score_pool3c <- upscore_pool4-new_upscore_pool4-new_0_split_0
I0715 09:19:45.795735 12889 net.cpp:380] score_pool3c -> score_pool3c
I0715 09:19:45.795781 12889 net.cpp:122] Setting up score_pool3c
I0715 09:19:45.795788 12889 net.cpp:129] Top shape: 1 3 74 34 (7548)
I0715 09:19:45.795789 12889 net.cpp:137] Memory required for data: 693816828
I0715 09:19:45.795794 12889 layer_factory.hpp:77] Creating layer fuse_pool3
I0715 09:19:45.795799 12889 net.cpp:84] Creating Layer fuse_pool3
I0715 09:19:45.795802 12889 net.cpp:406] fuse_pool3 <- upscore_pool4-new_upscore_pool4-new_0_split_1
I0715 09:19:45.795809 12889 net.cpp:406] fuse_pool3 <- score_pool3c
I0715 09:19:45.795814 12889 net.cpp:380] fuse_pool3 -> fuse_pool3
I0715 09:19:45.795836 12889 net.cpp:122] Setting up fuse_pool3
I0715 09:19:45.795841 12889 net.cpp:129] Top shape: 1 3 74 34 (7548)
I0715 09:19:45.795843 12889 net.cpp:137] Memory required for data: 693847020
I0715 09:19:45.795846 12889 layer_factory.hpp:77] Creating layer upscore8-new
I0715 09:19:45.795858 12889 net.cpp:84] Creating Layer upscore8-new
I0715 09:19:45.795861 12889 net.cpp:406] upscore8-new <- fuse_pool3
I0715 09:19:45.795866 12889 net.cpp:380] upscore8-new -> upscore8-new
I0715 09:19:45.796077 12889 net.cpp:122] Setting up upscore8-new
I0715 09:19:45.796087 12889 net.cpp:129] Top shape: 1 3 600 280 (504000)
I0715 09:19:45.796090 12889 net.cpp:137] Memory required for data: 695863020
I0715 09:19:45.796094 12889 layer_factory.hpp:77] Creating layer upscore8_cropped
I0715 09:19:45.796102 12889 net.cpp:84] Creating Layer upscore8_cropped
I0715 09:19:45.796104 12889 net.cpp:406] upscore8_cropped <- upscore8-new
I0715 09:19:45.796110 12889 net.cpp:406] upscore8_cropped <- data_data_0_split_1
I0715 09:19:45.796118 12889 net.cpp:380] upscore8_cropped -> upscore8_cropped
I0715 09:19:45.796141 12889 net.cpp:122] Setting up upscore8_cropped
I0715 09:19:45.796146 12889 net.cpp:129] Top shape: 1 3 512 206 (316416)
I0715 09:19:45.796149 12889 net.cpp:137] Memory required for data: 697128684
I0715 09:19:45.796152 12889 layer_factory.hpp:77] Creating layer upscore8_cropped_upscore8_cropped_0_split
I0715 09:19:45.796157 12889 net.cpp:84] Creating Layer upscore8_cropped_upscore8_cropped_0_split
I0715 09:19:45.796160 12889 net.cpp:406] upscore8_cropped_upscore8_cropped_0_split <- upscore8_cropped
I0715 09:19:45.796165 12889 net.cpp:380] upscore8_cropped_upscore8_cropped_0_split -> upscore8_cropped_upscore8_cropped_0_split_0
I0715 09:19:45.796171 12889 net.cpp:380] upscore8_cropped_upscore8_cropped_0_split -> upscore8_cropped_upscore8_cropped_0_split_1
I0715 09:19:45.796208 12889 net.cpp:122] Setting up upscore8_cropped_upscore8_cropped_0_split
I0715 09:19:45.796213 12889 net.cpp:129] Top shape: 1 3 512 206 (316416)
I0715 09:19:45.796217 12889 net.cpp:129] Top shape: 1 3 512 206 (316416)
I0715 09:19:45.796221 12889 net.cpp:137] Memory required for data: 699660012
I0715 09:19:45.796223 12889 layer_factory.hpp:77] Creating layer prob
I0715 09:19:45.796232 12889 net.cpp:84] Creating Layer prob
I0715 09:19:45.796236 12889 net.cpp:406] prob <- upscore8_cropped_upscore8_cropped_0_split_0
I0715 09:19:45.796241 12889 net.cpp:380] prob -> prob
I0715 09:19:45.796447 12889 net.cpp:122] Setting up prob
I0715 09:19:45.796458 12889 net.cpp:129] Top shape: 1 3 512 206 (316416)
I0715 09:19:45.796460 12889 net.cpp:137] Memory required for data: 700925676
I0715 09:19:45.796463 12889 layer_factory.hpp:77] Creating layer saliency1
I0715 09:19:45.796476 12889 net.cpp:84] Creating Layer saliency1
I0715 09:19:45.796480 12889 net.cpp:406] saliency1 <- prob
I0715 09:19:45.796489 12889 net.cpp:380] saliency1 -> saliency1
I0715 09:19:45.798615 12889 net.cpp:122] Setting up saliency1
I0715 09:19:45.798630 12889 net.cpp:129] Top shape: 1 3 512 206 (316416)
I0715 09:19:45.798633 12889 net.cpp:137] Memory required for data: 702191340
I0715 09:19:45.798640 12889 layer_factory.hpp:77] Creating layer relu_saliency1
I0715 09:19:45.798646 12889 net.cpp:84] Creating Layer relu_saliency1
I0715 09:19:45.798650 12889 net.cpp:406] relu_saliency1 <- saliency1
I0715 09:19:45.798655 12889 net.cpp:367] relu_saliency1 -> saliency1 (in-place)
I0715 09:19:45.798874 12889 net.cpp:122] Setting up relu_saliency1
I0715 09:19:45.798885 12889 net.cpp:129] Top shape: 1 3 512 206 (316416)
I0715 09:19:45.798888 12889 net.cpp:137] Memory required for data: 703457004
I0715 09:19:45.798892 12889 layer_factory.hpp:77] Creating layer saliency
I0715 09:19:45.798907 12889 net.cpp:84] Creating Layer saliency
I0715 09:19:45.798910 12889 net.cpp:406] saliency <- saliency1
I0715 09:19:45.798916 12889 net.cpp:380] saliency -> saliency
I0715 09:19:45.800714 12889 net.cpp:122] Setting up saliency
I0715 09:19:45.800727 12889 net.cpp:129] Top shape: 1 3 512 206 (316416)
I0715 09:19:45.800730 12889 net.cpp:137] Memory required for data: 704722668
I0715 09:19:45.800737 12889 layer_factory.hpp:77] Creating layer silence_saliency
I0715 09:19:45.800746 12889 net.cpp:84] Creating Layer silence_saliency
I0715 09:19:45.800750 12889 net.cpp:406] silence_saliency <- saliency
I0715 09:19:45.800757 12889 net.cpp:122] Setting up silence_saliency
I0715 09:19:45.800760 12889 net.cpp:137] Memory required for data: 704722668
I0715 09:19:45.800763 12889 layer_factory.hpp:77] Creating layer crop
I0715 09:19:45.801090 12889 net.cpp:84] Creating Layer crop
I0715 09:19:45.801100 12889 net.cpp:406] crop <- label_data_1_split_0
I0715 09:19:45.801106 12889 net.cpp:406] crop <- data_data_0_split_2
I0715 09:19:45.801111 12889 net.cpp:406] crop <- crop_margin
I0715 09:19:45.801115 12889 net.cpp:406] crop <- crop_prob
I0715 09:19:45.801120 12889 net.cpp:406] crop <- crop_sample_batch
I0715 09:19:45.801126 12889 net.cpp:380] crop -> data-R
I0715 09:19:45.801133 12889 net.cpp:380] crop -> crop_info
I0715 09:19:45.807195 12889 net.cpp:122] Setting up crop
I0715 09:19:45.807225 12889 net.cpp:129] Top shape: 1 3 512 206 (316416)
I0715 09:19:45.807231 12889 net.cpp:129] Top shape: 1 2 4 (8)
I0715 09:19:45.807235 12889 net.cpp:137] Memory required for data: 705988364
I0715 09:19:45.807237 12889 layer_factory.hpp:77] Creating layer data-R_crop_0_split
I0715 09:19:45.807243 12889 net.cpp:84] Creating Layer data-R_crop_0_split
I0715 09:19:45.807247 12889 net.cpp:406] data-R_crop_0_split <- data-R
I0715 09:19:45.807253 12889 net.cpp:380] data-R_crop_0_split -> data-R_crop_0_split_0
I0715 09:19:45.807260 12889 net.cpp:380] data-R_crop_0_split -> data-R_crop_0_split_1
I0715 09:19:45.807345 12889 net.cpp:122] Setting up data-R_crop_0_split
I0715 09:19:45.807353 12889 net.cpp:129] Top shape: 1 3 512 206 (316416)
I0715 09:19:45.807358 12889 net.cpp:129] Top shape: 1 3 512 206 (316416)
I0715 09:19:45.807360 12889 net.cpp:137] Memory required for data: 708519692
I0715 09:19:45.807364 12889 layer_factory.hpp:77] Creating layer conv1_1-R
I0715 09:19:45.807374 12889 net.cpp:84] Creating Layer conv1_1-R
I0715 09:19:45.807377 12889 net.cpp:406] conv1_1-R <- data-R_crop_0_split_0
I0715 09:19:45.807384 12889 net.cpp:380] conv1_1-R -> conv1_1-R
I0715 09:19:45.810796 12889 net.cpp:122] Setting up conv1_1-R
I0715 09:19:45.810811 12889 net.cpp:129] Top shape: 1 64 710 404 (18357760)
I0715 09:19:45.810814 12889 net.cpp:137] Memory required for data: 781950732
I0715 09:19:45.810822 12889 layer_factory.hpp:77] Creating layer relu1_1-R
I0715 09:19:45.810837 12889 net.cpp:84] Creating Layer relu1_1-R
I0715 09:19:45.810842 12889 net.cpp:406] relu1_1-R <- conv1_1-R
I0715 09:19:45.810847 12889 net.cpp:367] relu1_1-R -> conv1_1-R (in-place)
I0715 09:19:45.811058 12889 net.cpp:122] Setting up relu1_1-R
I0715 09:19:45.811069 12889 net.cpp:129] Top shape: 1 64 710 404 (18357760)
I0715 09:19:45.811072 12889 net.cpp:137] Memory required for data: 855381772
I0715 09:19:45.811076 12889 layer_factory.hpp:77] Creating layer conv1_2-R
I0715 09:19:45.811084 12889 net.cpp:84] Creating Layer conv1_2-R
I0715 09:19:45.811089 12889 net.cpp:406] conv1_2-R <- conv1_1-R
I0715 09:19:45.811094 12889 net.cpp:380] conv1_2-R -> conv1_2-R
I0715 09:19:45.813961 12889 net.cpp:122] Setting up conv1_2-R
I0715 09:19:45.813976 12889 net.cpp:129] Top shape: 1 64 710 404 (18357760)
I0715 09:19:45.813979 12889 net.cpp:137] Memory required for data: 928812812
I0715 09:19:45.813987 12889 layer_factory.hpp:77] Creating layer relu1_2-R
I0715 09:19:45.813992 12889 net.cpp:84] Creating Layer relu1_2-R
I0715 09:19:45.813997 12889 net.cpp:406] relu1_2-R <- conv1_2-R
I0715 09:19:45.814002 12889 net.cpp:367] relu1_2-R -> conv1_2-R (in-place)
I0715 09:19:45.814672 12889 net.cpp:122] Setting up relu1_2-R
I0715 09:19:45.814685 12889 net.cpp:129] Top shape: 1 64 710 404 (18357760)
I0715 09:19:45.814688 12889 net.cpp:137] Memory required for data: 1002243852
I0715 09:19:45.814692 12889 layer_factory.hpp:77] Creating layer pool1-R
I0715 09:19:45.814699 12889 net.cpp:84] Creating Layer pool1-R
I0715 09:19:45.814703 12889 net.cpp:406] pool1-R <- conv1_2-R
I0715 09:19:45.814708 12889 net.cpp:380] pool1-R -> pool1-R
I0715 09:19:45.814771 12889 net.cpp:122] Setting up pool1-R
I0715 09:19:45.814777 12889 net.cpp:129] Top shape: 1 64 355 202 (4589440)
I0715 09:19:45.814780 12889 net.cpp:137] Memory required for data: 1020601612
I0715 09:19:45.814783 12889 layer_factory.hpp:77] Creating layer conv2_1-R
I0715 09:19:45.814791 12889 net.cpp:84] Creating Layer conv2_1-R
I0715 09:19:45.814795 12889 net.cpp:406] conv2_1-R <- pool1-R
I0715 09:19:45.814800 12889 net.cpp:380] conv2_1-R -> conv2_1-R
I0715 09:19:45.816053 12889 net.cpp:122] Setting up conv2_1-R
I0715 09:19:45.816068 12889 net.cpp:129] Top shape: 1 128 355 202 (9178880)
I0715 09:19:45.816072 12889 net.cpp:137] Memory required for data: 1057317132
I0715 09:19:45.816078 12889 layer_factory.hpp:77] Creating layer relu2_1-R
I0715 09:19:45.816085 12889 net.cpp:84] Creating Layer relu2_1-R
I0715 09:19:45.816089 12889 net.cpp:406] relu2_1-R <- conv2_1-R
I0715 09:19:45.816093 12889 net.cpp:367] relu2_1-R -> conv2_1-R (in-place)
I0715 09:19:45.816745 12889 net.cpp:122] Setting up relu2_1-R
I0715 09:19:45.816756 12889 net.cpp:129] Top shape: 1 128 355 202 (9178880)
I0715 09:19:45.816761 12889 net.cpp:137] Memory required for data: 1094032652
I0715 09:19:45.816763 12889 layer_factory.hpp:77] Creating layer conv2_2-R
I0715 09:19:45.816774 12889 net.cpp:84] Creating Layer conv2_2-R
I0715 09:19:45.816778 12889 net.cpp:406] conv2_2-R <- conv2_1-R
I0715 09:19:45.816784 12889 net.cpp:380] conv2_2-R -> conv2_2-R
I0715 09:19:45.818631 12889 net.cpp:122] Setting up conv2_2-R
I0715 09:19:45.818648 12889 net.cpp:129] Top shape: 1 128 355 202 (9178880)
I0715 09:19:45.818651 12889 net.cpp:137] Memory required for data: 1130748172
I0715 09:19:45.818658 12889 layer_factory.hpp:77] Creating layer relu2_2-R
I0715 09:19:45.818665 12889 net.cpp:84] Creating Layer relu2_2-R
I0715 09:19:45.818668 12889 net.cpp:406] relu2_2-R <- conv2_2-R
I0715 09:19:45.818673 12889 net.cpp:367] relu2_2-R -> conv2_2-R (in-place)
I0715 09:19:45.818902 12889 net.cpp:122] Setting up relu2_2-R
I0715 09:19:45.818912 12889 net.cpp:129] Top shape: 1 128 355 202 (9178880)
I0715 09:19:45.818917 12889 net.cpp:137] Memory required for data: 1167463692
I0715 09:19:45.818919 12889 layer_factory.hpp:77] Creating layer pool2-R
I0715 09:19:45.818929 12889 net.cpp:84] Creating Layer pool2-R
I0715 09:19:45.818933 12889 net.cpp:406] pool2-R <- conv2_2-R
I0715 09:19:45.818939 12889 net.cpp:380] pool2-R -> pool2-R
I0715 09:19:45.818990 12889 net.cpp:122] Setting up pool2-R
I0715 09:19:45.819000 12889 net.cpp:129] Top shape: 1 128 178 101 (2301184)
I0715 09:19:45.819003 12889 net.cpp:137] Memory required for data: 1176668428
I0715 09:19:45.819007 12889 layer_factory.hpp:77] Creating layer conv3_1-R
I0715 09:19:45.819020 12889 net.cpp:84] Creating Layer conv3_1-R
I0715 09:19:45.819025 12889 net.cpp:406] conv3_1-R <- pool2-R
I0715 09:19:45.819032 12889 net.cpp:380] conv3_1-R -> conv3_1-R
I0715 09:19:45.822445 12889 net.cpp:122] Setting up conv3_1-R
I0715 09:19:45.822459 12889 net.cpp:129] Top shape: 1 256 178 101 (4602368)
I0715 09:19:45.822463 12889 net.cpp:137] Memory required for data: 1195077900
I0715 09:19:45.822470 12889 layer_factory.hpp:77] Creating layer relu3_1-R
I0715 09:19:45.822477 12889 net.cpp:84] Creating Layer relu3_1-R
I0715 09:19:45.822481 12889 net.cpp:406] relu3_1-R <- conv3_1-R
I0715 09:19:45.822489 12889 net.cpp:367] relu3_1-R -> conv3_1-R (in-place)
I0715 09:19:45.822715 12889 net.cpp:122] Setting up relu3_1-R
I0715 09:19:45.822727 12889 net.cpp:129] Top shape: 1 256 178 101 (4602368)
I0715 09:19:45.822731 12889 net.cpp:137] Memory required for data: 1213487372
I0715 09:19:45.822734 12889 layer_factory.hpp:77] Creating layer conv3_2-R
I0715 09:19:45.822746 12889 net.cpp:84] Creating Layer conv3_2-R
I0715 09:19:45.822751 12889 net.cpp:406] conv3_2-R <- conv3_1-R
I0715 09:19:45.822757 12889 net.cpp:380] conv3_2-R -> conv3_2-R
I0715 09:19:45.826445 12889 net.cpp:122] Setting up conv3_2-R
I0715 09:19:45.826459 12889 net.cpp:129] Top shape: 1 256 178 101 (4602368)
I0715 09:19:45.826462 12889 net.cpp:137] Memory required for data: 1231896844
I0715 09:19:45.826470 12889 layer_factory.hpp:77] Creating layer relu3_2-R
I0715 09:19:45.826476 12889 net.cpp:84] Creating Layer relu3_2-R
I0715 09:19:45.826480 12889 net.cpp:406] relu3_2-R <- conv3_2-R
I0715 09:19:45.826485 12889 net.cpp:367] relu3_2-R -> conv3_2-R (in-place)
I0715 09:19:45.826690 12889 net.cpp:122] Setting up relu3_2-R
I0715 09:19:45.826702 12889 net.cpp:129] Top shape: 1 256 178 101 (4602368)
I0715 09:19:45.826705 12889 net.cpp:137] Memory required for data: 1250306316
I0715 09:19:45.826709 12889 layer_factory.hpp:77] Creating layer conv3_3-R
I0715 09:19:45.826717 12889 net.cpp:84] Creating Layer conv3_3-R
I0715 09:19:45.826721 12889 net.cpp:406] conv3_3-R <- conv3_2-R
I0715 09:19:45.826727 12889 net.cpp:380] conv3_3-R -> conv3_3-R
I0715 09:19:45.830478 12889 net.cpp:122] Setting up conv3_3-R
I0715 09:19:45.830492 12889 net.cpp:129] Top shape: 1 256 178 101 (4602368)
I0715 09:19:45.830513 12889 net.cpp:137] Memory required for data: 1268715788
I0715 09:19:45.830520 12889 layer_factory.hpp:77] Creating layer relu3_3-R
I0715 09:19:45.830526 12889 net.cpp:84] Creating Layer relu3_3-R
I0715 09:19:45.830530 12889 net.cpp:406] relu3_3-R <- conv3_3-R
I0715 09:19:45.830536 12889 net.cpp:367] relu3_3-R -> conv3_3-R (in-place)
I0715 09:19:45.830730 12889 net.cpp:122] Setting up relu3_3-R
I0715 09:19:45.830741 12889 net.cpp:129] Top shape: 1 256 178 101 (4602368)
I0715 09:19:45.830745 12889 net.cpp:137] Memory required for data: 1287125260
I0715 09:19:45.830749 12889 layer_factory.hpp:77] Creating layer pool3-R
I0715 09:19:45.830763 12889 net.cpp:84] Creating Layer pool3-R
I0715 09:19:45.830767 12889 net.cpp:406] pool3-R <- conv3_3-R
I0715 09:19:45.830773 12889 net.cpp:380] pool3-R -> pool3-R
I0715 09:19:45.830821 12889 net.cpp:122] Setting up pool3-R
I0715 09:19:45.830827 12889 net.cpp:129] Top shape: 1 256 89 51 (1161984)
I0715 09:19:45.830830 12889 net.cpp:137] Memory required for data: 1291773196
I0715 09:19:45.830833 12889 layer_factory.hpp:77] Creating layer pool3-R_pool3-R_0_split
I0715 09:19:45.830839 12889 net.cpp:84] Creating Layer pool3-R_pool3-R_0_split
I0715 09:19:45.830842 12889 net.cpp:406] pool3-R_pool3-R_0_split <- pool3-R
I0715 09:19:45.830848 12889 net.cpp:380] pool3-R_pool3-R_0_split -> pool3-R_pool3-R_0_split_0
I0715 09:19:45.830854 12889 net.cpp:380] pool3-R_pool3-R_0_split -> pool3-R_pool3-R_0_split_1
I0715 09:19:45.830890 12889 net.cpp:122] Setting up pool3-R_pool3-R_0_split
I0715 09:19:45.830895 12889 net.cpp:129] Top shape: 1 256 89 51 (1161984)
I0715 09:19:45.830899 12889 net.cpp:129] Top shape: 1 256 89 51 (1161984)
I0715 09:19:45.830902 12889 net.cpp:137] Memory required for data: 1301069068
I0715 09:19:45.830906 12889 layer_factory.hpp:77] Creating layer conv4_1-R
I0715 09:19:45.830914 12889 net.cpp:84] Creating Layer conv4_1-R
I0715 09:19:45.830917 12889 net.cpp:406] conv4_1-R <- pool3-R_pool3-R_0_split_0
I0715 09:19:45.830924 12889 net.cpp:380] conv4_1-R -> conv4_1-R
I0715 09:19:45.836087 12889 net.cpp:122] Setting up conv4_1-R
I0715 09:19:45.836118 12889 net.cpp:129] Top shape: 1 512 89 51 (2323968)
I0715 09:19:45.836122 12889 net.cpp:137] Memory required for data: 1310364940
I0715 09:19:45.836130 12889 layer_factory.hpp:77] Creating layer relu4_1-R
I0715 09:19:45.836138 12889 net.cpp:84] Creating Layer relu4_1-R
I0715 09:19:45.836141 12889 net.cpp:406] relu4_1-R <- conv4_1-R
I0715 09:19:45.836148 12889 net.cpp:367] relu4_1-R -> conv4_1-R (in-place)
I0715 09:19:45.836803 12889 net.cpp:122] Setting up relu4_1-R
I0715 09:19:45.836833 12889 net.cpp:129] Top shape: 1 512 89 51 (2323968)
I0715 09:19:45.836836 12889 net.cpp:137] Memory required for data: 1319660812
I0715 09:19:45.836840 12889 layer_factory.hpp:77] Creating layer conv4_2-R
I0715 09:19:45.836850 12889 net.cpp:84] Creating Layer conv4_2-R
I0715 09:19:45.836854 12889 net.cpp:406] conv4_2-R <- conv4_1-R
I0715 09:19:45.836860 12889 net.cpp:380] conv4_2-R -> conv4_2-R
I0715 09:19:45.844506 12889 net.cpp:122] Setting up conv4_2-R
I0715 09:19:45.844525 12889 net.cpp:129] Top shape: 1 512 89 51 (2323968)
I0715 09:19:45.844529 12889 net.cpp:137] Memory required for data: 1328956684
I0715 09:19:45.844537 12889 layer_factory.hpp:77] Creating layer relu4_2-R
I0715 09:19:45.844544 12889 net.cpp:84] Creating Layer relu4_2-R
I0715 09:19:45.844548 12889 net.cpp:406] relu4_2-R <- conv4_2-R
I0715 09:19:45.844554 12889 net.cpp:367] relu4_2-R -> conv4_2-R (in-place)
I0715 09:19:45.845361 12889 net.cpp:122] Setting up relu4_2-R
I0715 09:19:45.845374 12889 net.cpp:129] Top shape: 1 512 89 51 (2323968)
I0715 09:19:45.845378 12889 net.cpp:137] Memory required for data: 1338252556
I0715 09:19:45.845382 12889 layer_factory.hpp:77] Creating layer conv4_3-R
I0715 09:19:45.845392 12889 net.cpp:84] Creating Layer conv4_3-R
I0715 09:19:45.845396 12889 net.cpp:406] conv4_3-R <- conv4_2-R
I0715 09:19:45.845405 12889 net.cpp:380] conv4_3-R -> conv4_3-R
I0715 09:19:45.853637 12889 net.cpp:122] Setting up conv4_3-R
I0715 09:19:45.853654 12889 net.cpp:129] Top shape: 1 512 89 51 (2323968)
I0715 09:19:45.853658 12889 net.cpp:137] Memory required for data: 1347548428
I0715 09:19:45.853665 12889 layer_factory.hpp:77] Creating layer relu4_3-R
I0715 09:19:45.853673 12889 net.cpp:84] Creating Layer relu4_3-R
I0715 09:19:45.853677 12889 net.cpp:406] relu4_3-R <- conv4_3-R
I0715 09:19:45.853682 12889 net.cpp:367] relu4_3-R -> conv4_3-R (in-place)
I0715 09:19:45.853870 12889 net.cpp:122] Setting up relu4_3-R
I0715 09:19:45.853898 12889 net.cpp:129] Top shape: 1 512 89 51 (2323968)
I0715 09:19:45.853901 12889 net.cpp:137] Memory required for data: 1356844300
I0715 09:19:45.853904 12889 layer_factory.hpp:77] Creating layer pool4-R
I0715 09:19:45.853912 12889 net.cpp:84] Creating Layer pool4-R
I0715 09:19:45.853916 12889 net.cpp:406] pool4-R <- conv4_3-R
I0715 09:19:45.853924 12889 net.cpp:380] pool4-R -> pool4-R
I0715 09:19:45.853976 12889 net.cpp:122] Setting up pool4-R
I0715 09:19:45.853991 12889 net.cpp:129] Top shape: 1 512 45 26 (599040)
I0715 09:19:45.853994 12889 net.cpp:137] Memory required for data: 1359240460
I0715 09:19:45.853997 12889 layer_factory.hpp:77] Creating layer pool4-R_pool4-R_0_split
I0715 09:19:45.854004 12889 net.cpp:84] Creating Layer pool4-R_pool4-R_0_split
I0715 09:19:45.854009 12889 net.cpp:406] pool4-R_pool4-R_0_split <- pool4-R
I0715 09:19:45.854017 12889 net.cpp:380] pool4-R_pool4-R_0_split -> pool4-R_pool4-R_0_split_0
I0715 09:19:45.854023 12889 net.cpp:380] pool4-R_pool4-R_0_split -> pool4-R_pool4-R_0_split_1
I0715 09:19:45.854061 12889 net.cpp:122] Setting up pool4-R_pool4-R_0_split
I0715 09:19:45.854068 12889 net.cpp:129] Top shape: 1 512 45 26 (599040)
I0715 09:19:45.854073 12889 net.cpp:129] Top shape: 1 512 45 26 (599040)
I0715 09:19:45.854075 12889 net.cpp:137] Memory required for data: 1364032780
I0715 09:19:45.854079 12889 layer_factory.hpp:77] Creating layer conv5_1-R
I0715 09:19:45.854089 12889 net.cpp:84] Creating Layer conv5_1-R
I0715 09:19:45.854092 12889 net.cpp:406] conv5_1-R <- pool4-R_pool4-R_0_split_0
I0715 09:19:45.854100 12889 net.cpp:380] conv5_1-R -> conv5_1-R
I0715 09:19:45.862263 12889 net.cpp:122] Setting up conv5_1-R
I0715 09:19:45.862283 12889 net.cpp:129] Top shape: 1 512 45 26 (599040)
I0715 09:19:45.862287 12889 net.cpp:137] Memory required for data: 1366428940
I0715 09:19:45.862309 12889 layer_factory.hpp:77] Creating layer relu5_1-R
I0715 09:19:45.862319 12889 net.cpp:84] Creating Layer relu5_1-R
I0715 09:19:45.862323 12889 net.cpp:406] relu5_1-R <- conv5_1-R
I0715 09:19:45.862329 12889 net.cpp:367] relu5_1-R -> conv5_1-R (in-place)
I0715 09:19:45.862558 12889 net.cpp:122] Setting up relu5_1-R
I0715 09:19:45.862571 12889 net.cpp:129] Top shape: 1 512 45 26 (599040)
I0715 09:19:45.862573 12889 net.cpp:137] Memory required for data: 1368825100
I0715 09:19:45.862577 12889 layer_factory.hpp:77] Creating layer conv5_2-R
I0715 09:19:45.862589 12889 net.cpp:84] Creating Layer conv5_2-R
I0715 09:19:45.862594 12889 net.cpp:406] conv5_2-R <- conv5_1-R
I0715 09:19:45.862602 12889 net.cpp:380] conv5_2-R -> conv5_2-R
I0715 09:19:45.871227 12889 net.cpp:122] Setting up conv5_2-R
I0715 09:19:45.871248 12889 net.cpp:129] Top shape: 1 512 45 26 (599040)
I0715 09:19:45.871251 12889 net.cpp:137] Memory required for data: 1371221260
I0715 09:19:45.871259 12889 layer_factory.hpp:77] Creating layer relu5_2-R
I0715 09:19:45.871268 12889 net.cpp:84] Creating Layer relu5_2-R
I0715 09:19:45.871270 12889 net.cpp:406] relu5_2-R <- conv5_2-R
I0715 09:19:45.871299 12889 net.cpp:367] relu5_2-R -> conv5_2-R (in-place)
I0715 09:19:45.871553 12889 net.cpp:122] Setting up relu5_2-R
I0715 09:19:45.871565 12889 net.cpp:129] Top shape: 1 512 45 26 (599040)
I0715 09:19:45.871568 12889 net.cpp:137] Memory required for data: 1373617420
I0715 09:19:45.871572 12889 layer_factory.hpp:77] Creating layer conv5_3-R
I0715 09:19:45.871587 12889 net.cpp:84] Creating Layer conv5_3-R
I0715 09:19:45.871592 12889 net.cpp:406] conv5_3-R <- conv5_2-R
I0715 09:19:45.871598 12889 net.cpp:380] conv5_3-R -> conv5_3-R
I0715 09:19:45.879773 12889 net.cpp:122] Setting up conv5_3-R
I0715 09:19:45.879791 12889 net.cpp:129] Top shape: 1 512 45 26 (599040)
I0715 09:19:45.879796 12889 net.cpp:137] Memory required for data: 1376013580
I0715 09:19:45.879802 12889 layer_factory.hpp:77] Creating layer relu5_3-R
I0715 09:19:45.879812 12889 net.cpp:84] Creating Layer relu5_3-R
I0715 09:19:45.879817 12889 net.cpp:406] relu5_3-R <- conv5_3-R
I0715 09:19:45.879823 12889 net.cpp:367] relu5_3-R -> conv5_3-R (in-place)
I0715 09:19:45.880046 12889 net.cpp:122] Setting up relu5_3-R
I0715 09:19:45.880057 12889 net.cpp:129] Top shape: 1 512 45 26 (599040)
I0715 09:19:45.880064 12889 net.cpp:137] Memory required for data: 1378409740
I0715 09:19:45.880067 12889 layer_factory.hpp:77] Creating layer pool5-R
I0715 09:19:45.880075 12889 net.cpp:84] Creating Layer pool5-R
I0715 09:19:45.880079 12889 net.cpp:406] pool5-R <- conv5_3-R
I0715 09:19:45.880085 12889 net.cpp:380] pool5-R -> pool5-R
I0715 09:19:45.880141 12889 net.cpp:122] Setting up pool5-R
I0715 09:19:45.880148 12889 net.cpp:129] Top shape: 1 512 23 13 (153088)
I0715 09:19:45.880151 12889 net.cpp:137] Memory required for data: 1379022092
I0715 09:19:45.880154 12889 layer_factory.hpp:77] Creating layer fc6-R
I0715 09:19:45.880167 12889 net.cpp:84] Creating Layer fc6-R
I0715 09:19:45.880170 12889 net.cpp:406] fc6-R <- pool5-R
I0715 09:19:45.880180 12889 net.cpp:380] fc6-R -> fc6-R
I0715 09:19:46.221870 12889 net.cpp:122] Setting up fc6-R
I0715 09:19:46.221911 12889 net.cpp:129] Top shape: 1 4096 17 7 (487424)
I0715 09:19:46.221915 12889 net.cpp:137] Memory required for data: 1380971788
I0715 09:19:46.221926 12889 layer_factory.hpp:77] Creating layer relu6-R
I0715 09:19:46.221938 12889 net.cpp:84] Creating Layer relu6-R
I0715 09:19:46.221945 12889 net.cpp:406] relu6-R <- fc6-R
I0715 09:19:46.221954 12889 net.cpp:367] relu6-R -> fc6-R (in-place)
I0715 09:19:46.222684 12889 net.cpp:122] Setting up relu6-R
I0715 09:19:46.222698 12889 net.cpp:129] Top shape: 1 4096 17 7 (487424)
I0715 09:19:46.222702 12889 net.cpp:137] Memory required for data: 1382921484
I0715 09:19:46.222705 12889 layer_factory.hpp:77] Creating layer drop6-R
I0715 09:19:46.222713 12889 net.cpp:84] Creating Layer drop6-R
I0715 09:19:46.222717 12889 net.cpp:406] drop6-R <- fc6-R
I0715 09:19:46.222724 12889 net.cpp:367] drop6-R -> fc6-R (in-place)
I0715 09:19:46.222779 12889 net.cpp:122] Setting up drop6-R
I0715 09:19:46.222791 12889 net.cpp:129] Top shape: 1 4096 17 7 (487424)
I0715 09:19:46.222795 12889 net.cpp:137] Memory required for data: 1384871180
I0715 09:19:46.222798 12889 layer_factory.hpp:77] Creating layer fc7-R
I0715 09:19:46.222808 12889 net.cpp:84] Creating Layer fc7-R
I0715 09:19:46.222811 12889 net.cpp:406] fc7-R <- fc6-R
I0715 09:19:46.222820 12889 net.cpp:380] fc7-R -> fc7-R
I0715 09:19:46.277870 12889 net.cpp:122] Setting up fc7-R
I0715 09:19:46.277912 12889 net.cpp:129] Top shape: 1 4096 17 7 (487424)
I0715 09:19:46.277916 12889 net.cpp:137] Memory required for data: 1386820876
I0715 09:19:46.277928 12889 layer_factory.hpp:77] Creating layer relu7-R
I0715 09:19:46.277943 12889 net.cpp:84] Creating Layer relu7-R
I0715 09:19:46.277951 12889 net.cpp:406] relu7-R <- fc7-R
I0715 09:19:46.277957 12889 net.cpp:367] relu7-R -> fc7-R (in-place)
I0715 09:19:46.278672 12889 net.cpp:122] Setting up relu7-R
I0715 09:19:46.278687 12889 net.cpp:129] Top shape: 1 4096 17 7 (487424)
I0715 09:19:46.278690 12889 net.cpp:137] Memory required for data: 1388770572
I0715 09:19:46.278694 12889 layer_factory.hpp:77] Creating layer drop7-R
I0715 09:19:46.278702 12889 net.cpp:84] Creating Layer drop7-R
I0715 09:19:46.278705 12889 net.cpp:406] drop7-R <- fc7-R
I0715 09:19:46.278712 12889 net.cpp:367] drop7-R -> fc7-R (in-place)
I0715 09:19:46.278766 12889 net.cpp:122] Setting up drop7-R
I0715 09:19:46.278781 12889 net.cpp:129] Top shape: 1 4096 17 7 (487424)
I0715 09:19:46.278784 12889 net.cpp:137] Memory required for data: 1390720268
I0715 09:19:46.278787 12889 layer_factory.hpp:77] Creating layer score_fr-new-R
I0715 09:19:46.278798 12889 net.cpp:84] Creating Layer score_fr-new-R
I0715 09:19:46.278805 12889 net.cpp:406] score_fr-new-R <- fc7-R
I0715 09:19:46.278811 12889 net.cpp:380] score_fr-new-R -> score_fr-new-R
I0715 09:19:46.280218 12889 net.cpp:122] Setting up score_fr-new-R
I0715 09:19:46.280233 12889 net.cpp:129] Top shape: 1 3 17 7 (357)
I0715 09:19:46.280237 12889 net.cpp:137] Memory required for data: 1390721696
I0715 09:19:46.280243 12889 layer_factory.hpp:77] Creating layer upscore2-new-R
I0715 09:19:46.280254 12889 net.cpp:84] Creating Layer upscore2-new-R
I0715 09:19:46.280258 12889 net.cpp:406] upscore2-new-R <- score_fr-new-R
I0715 09:19:46.280267 12889 net.cpp:380] upscore2-new-R -> upscore2-new-R
I0715 09:19:46.280503 12889 net.cpp:122] Setting up upscore2-new-R
I0715 09:19:46.280513 12889 net.cpp:129] Top shape: 1 3 36 16 (1728)
I0715 09:19:46.280515 12889 net.cpp:137] Memory required for data: 1390728608
I0715 09:19:46.280520 12889 layer_factory.hpp:77] Creating layer upscore2-new-R_upscore2-new-R_0_split
I0715 09:19:46.280526 12889 net.cpp:84] Creating Layer upscore2-new-R_upscore2-new-R_0_split
I0715 09:19:46.280530 12889 net.cpp:406] upscore2-new-R_upscore2-new-R_0_split <- upscore2-new-R
I0715 09:19:46.280535 12889 net.cpp:380] upscore2-new-R_upscore2-new-R_0_split -> upscore2-new-R_upscore2-new-R_0_split_0
I0715 09:19:46.280542 12889 net.cpp:380] upscore2-new-R_upscore2-new-R_0_split -> upscore2-new-R_upscore2-new-R_0_split_1
I0715 09:19:46.280583 12889 net.cpp:122] Setting up upscore2-new-R_upscore2-new-R_0_split
I0715 09:19:46.280591 12889 net.cpp:129] Top shape: 1 3 36 16 (1728)
I0715 09:19:46.280594 12889 net.cpp:129] Top shape: 1 3 36 16 (1728)
I0715 09:19:46.280597 12889 net.cpp:137] Memory required for data: 1390742432
I0715 09:19:46.280601 12889 layer_factory.hpp:77] Creating layer score_pool4-new-R
I0715 09:19:46.280611 12889 net.cpp:84] Creating Layer score_pool4-new-R
I0715 09:19:46.280616 12889 net.cpp:406] score_pool4-new-R <- pool4-R_pool4-R_0_split_1
I0715 09:19:46.280624 12889 net.cpp:380] score_pool4-new-R -> score_pool4-new-R
I0715 09:19:46.281899 12889 net.cpp:122] Setting up score_pool4-new-R
I0715 09:19:46.281915 12889 net.cpp:129] Top shape: 1 3 45 26 (3510)
I0715 09:19:46.281919 12889 net.cpp:137] Memory required for data: 1390756472
I0715 09:19:46.281925 12889 layer_factory.hpp:77] Creating layer score_pool4c-R
I0715 09:19:46.281934 12889 net.cpp:84] Creating Layer score_pool4c-R
I0715 09:19:46.281937 12889 net.cpp:406] score_pool4c-R <- score_pool4-new-R
I0715 09:19:46.281942 12889 net.cpp:406] score_pool4c-R <- upscore2-new-R_upscore2-new-R_0_split_0
I0715 09:19:46.281972 12889 net.cpp:380] score_pool4c-R -> score_pool4c-R
I0715 09:19:46.282004 12889 net.cpp:122] Setting up score_pool4c-R
I0715 09:19:46.282016 12889 net.cpp:129] Top shape: 1 3 36 16 (1728)
I0715 09:19:46.282019 12889 net.cpp:137] Memory required for data: 1390763384
I0715 09:19:46.282023 12889 layer_factory.hpp:77] Creating layer fuse_pool4-R
I0715 09:19:46.282034 12889 net.cpp:84] Creating Layer fuse_pool4-R
I0715 09:19:46.282037 12889 net.cpp:406] fuse_pool4-R <- upscore2-new-R_upscore2-new-R_0_split_1
I0715 09:19:46.282042 12889 net.cpp:406] fuse_pool4-R <- score_pool4c-R
I0715 09:19:46.282047 12889 net.cpp:380] fuse_pool4-R -> fuse_pool4-R
I0715 09:19:46.282076 12889 net.cpp:122] Setting up fuse_pool4-R
I0715 09:19:46.282083 12889 net.cpp:129] Top shape: 1 3 36 16 (1728)
I0715 09:19:46.282086 12889 net.cpp:137] Memory required for data: 1390770296
I0715 09:19:46.282089 12889 layer_factory.hpp:77] Creating layer upscore_pool4-new-R
I0715 09:19:46.282099 12889 net.cpp:84] Creating Layer upscore_pool4-new-R
I0715 09:19:46.282102 12889 net.cpp:406] upscore_pool4-new-R <- fuse_pool4-R
I0715 09:19:46.282111 12889 net.cpp:380] upscore_pool4-new-R -> upscore_pool4-new-R
I0715 09:19:46.282323 12889 net.cpp:122] Setting up upscore_pool4-new-R
I0715 09:19:46.282333 12889 net.cpp:129] Top shape: 1 3 74 34 (7548)
I0715 09:19:46.282336 12889 net.cpp:137] Memory required for data: 1390800488
I0715 09:19:46.282341 12889 layer_factory.hpp:77] Creating layer upscore_pool4-new-R_upscore_pool4-new-R_0_split
I0715 09:19:46.282346 12889 net.cpp:84] Creating Layer upscore_pool4-new-R_upscore_pool4-new-R_0_split
I0715 09:19:46.282351 12889 net.cpp:406] upscore_pool4-new-R_upscore_pool4-new-R_0_split <- upscore_pool4-new-R
I0715 09:19:46.282356 12889 net.cpp:380] upscore_pool4-new-R_upscore_pool4-new-R_0_split -> upscore_pool4-new-R_upscore_pool4-new-R_0_split_0
I0715 09:19:46.282361 12889 net.cpp:380] upscore_pool4-new-R_upscore_pool4-new-R_0_split -> upscore_pool4-new-R_upscore_pool4-new-R_0_split_1
I0715 09:19:46.282400 12889 net.cpp:122] Setting up upscore_pool4-new-R_upscore_pool4-new-R_0_split
I0715 09:19:46.282407 12889 net.cpp:129] Top shape: 1 3 74 34 (7548)
I0715 09:19:46.282421 12889 net.cpp:129] Top shape: 1 3 74 34 (7548)
I0715 09:19:46.282424 12889 net.cpp:137] Memory required for data: 1390860872
I0715 09:19:46.282428 12889 layer_factory.hpp:77] Creating layer score_pool3-new-R
I0715 09:19:46.282438 12889 net.cpp:84] Creating Layer score_pool3-new-R
I0715 09:19:46.282443 12889 net.cpp:406] score_pool3-new-R <- pool3-R_pool3-R_0_split_1
I0715 09:19:46.282450 12889 net.cpp:380] score_pool3-new-R -> score_pool3-new-R
I0715 09:19:46.283335 12889 net.cpp:122] Setting up score_pool3-new-R
I0715 09:19:46.283347 12889 net.cpp:129] Top shape: 1 3 89 51 (13617)
I0715 09:19:46.283367 12889 net.cpp:137] Memory required for data: 1390915340
I0715 09:19:46.283375 12889 layer_factory.hpp:77] Creating layer score_pool3c-R
I0715 09:19:46.283381 12889 net.cpp:84] Creating Layer score_pool3c-R
I0715 09:19:46.283385 12889 net.cpp:406] score_pool3c-R <- score_pool3-new-R
I0715 09:19:46.283390 12889 net.cpp:406] score_pool3c-R <- upscore_pool4-new-R_upscore_pool4-new-R_0_split_0
I0715 09:19:46.283413 12889 net.cpp:380] score_pool3c-R -> score_pool3c-R
I0715 09:19:46.283447 12889 net.cpp:122] Setting up score_pool3c-R
I0715 09:19:46.283457 12889 net.cpp:129] Top shape: 1 3 74 34 (7548)
I0715 09:19:46.283460 12889 net.cpp:137] Memory required for data: 1390945532
I0715 09:19:46.283463 12889 layer_factory.hpp:77] Creating layer fuse_pool3-R
I0715 09:19:46.283470 12889 net.cpp:84] Creating Layer fuse_pool3-R
I0715 09:19:46.283473 12889 net.cpp:406] fuse_pool3-R <- upscore_pool4-new-R_upscore_pool4-new-R_0_split_1
I0715 09:19:46.283478 12889 net.cpp:406] fuse_pool3-R <- score_pool3c-R
I0715 09:19:46.283483 12889 net.cpp:380] fuse_pool3-R -> fuse_pool3-R
I0715 09:19:46.283511 12889 net.cpp:122] Setting up fuse_pool3-R
I0715 09:19:46.283516 12889 net.cpp:129] Top shape: 1 3 74 34 (7548)
I0715 09:19:46.283519 12889 net.cpp:137] Memory required for data: 1390975724
I0715 09:19:46.283524 12889 layer_factory.hpp:77] Creating layer upscore8-new-R
I0715 09:19:46.283532 12889 net.cpp:84] Creating Layer upscore8-new-R
I0715 09:19:46.283535 12889 net.cpp:406] upscore8-new-R <- fuse_pool3-R
I0715 09:19:46.283545 12889 net.cpp:380] upscore8-new-R -> upscore8-new-R
I0715 09:19:46.283792 12889 net.cpp:122] Setting up upscore8-new-R
I0715 09:19:46.283802 12889 net.cpp:129] Top shape: 1 3 600 280 (504000)
I0715 09:19:46.283805 12889 net.cpp:137] Memory required for data: 1392991724
I0715 09:19:46.283809 12889 layer_factory.hpp:77] Creating layer upscore8_cropped-R
I0715 09:19:46.283816 12889 net.cpp:84] Creating Layer upscore8_cropped-R
I0715 09:19:46.283819 12889 net.cpp:406] upscore8_cropped-R <- upscore8-new-R
I0715 09:19:46.283824 12889 net.cpp:406] upscore8_cropped-R <- data-R_crop_0_split_1
I0715 09:19:46.283829 12889 net.cpp:380] upscore8_cropped-R -> upscore8_cropped-R
I0715 09:19:46.283854 12889 net.cpp:122] Setting up upscore8_cropped-R
I0715 09:19:46.283859 12889 net.cpp:129] Top shape: 1 3 512 206 (316416)
I0715 09:19:46.283862 12889 net.cpp:137] Memory required for data: 1394257388
I0715 09:19:46.283865 12889 layer_factory.hpp:77] Creating layer upscore8_uncropped-R
I0715 09:19:46.284138 12889 net.cpp:84] Creating Layer upscore8_uncropped-R
I0715 09:19:46.284149 12889 net.cpp:406] upscore8_uncropped-R <- crop_info
I0715 09:19:46.284155 12889 net.cpp:406] upscore8_uncropped-R <- upscore8_cropped-R
I0715 09:19:46.284159 12889 net.cpp:406] upscore8_uncropped-R <- data_data_0_split_3
I0715 09:19:46.284164 12889 net.cpp:380] upscore8_uncropped-R -> upscore8_uncropped-R
I0715 09:19:46.285957 12889 net.cpp:122] Setting up upscore8_uncropped-R
I0715 09:19:46.285971 12889 net.cpp:129] Top shape: 1 3 512 206 (316416)
I0715 09:19:46.285974 12889 net.cpp:137] Memory required for data: 1395523052
I0715 09:19:46.285979 12889 layer_factory.hpp:77] Creating layer loss1
I0715 09:19:46.285993 12889 net.cpp:84] Creating Layer loss1
I0715 09:19:46.285996 12889 net.cpp:406] loss1 <- upscore8_cropped_upscore8_cropped_0_split_1
I0715 09:19:46.286001 12889 net.cpp:406] loss1 <- label_data_1_split_1
I0715 09:19:46.286006 12889 net.cpp:380] loss1 -> loss1
…
snapshot_prefix: "/media/Med_2T2/data2/models/snapshots/indiv:1e-5x10,20/FD0:XI3_1_20180715_091940/train"
test_initialization: false
average_loss: 20
stepvalue: 40000
iter_size: 1
I0715 10:18:58.295186 12889 solver.cpp:77] Creating training net from train_net file: /media/Med_2T2/data2/prototxts/training_I3x10.prototxt
I0715 10:18:58.297457 12889 net.cpp:51] Initializing net from parameters: 
state {
  phase: TRAIN
}
layer {
  name: "data"
  type: "Python"
  top: "data"
  top: "label"
  top: "crop_margin"
  top: "crop_prob"
  top: "crop_sample_batch"
  python_param {
    module: "Data"
    layer: "DataLayer"
  }
}
layer {
  name: "conv1_1"
  type: "Convolution"
  bottom: "data"
  top: "conv1_1"
  param {
    lr_mult: 1
    decay_mult: 1
  }
  param {
    lr_mult: 2
    decay_mult: 0
  }
  convolution_param {
    num_output: 64
    pad: 100
    kernel_size: 3
    stride: 1
  }
}
layer {
  name: "relu1_1"
  type: "ReLU"
  bottom: "conv1_1"
  top: "conv1_1"
}
layer {
  name: "conv1_2"
  type: "Convolution"
  bottom: "conv1_1"
  top: "conv1_2"
  param {
    lr_mult: 1
    decay_mult: 1
  }
  param {
    lr_mult: 2
    decay_mult: 0
  }
  convolution_param {
    num_output: 64
    pad: 1
    kernel_size: 3
    stride: 1
  }
}
layer {
  name: "relu1_2"
  type: "ReLU"
  bottom: "conv1_2"
  top: "conv1_2"
}
layer {
  name: "pool1"
  type: "Pooling"
  bottom: "conv1_2"
  top: "pool1"
  pooling_param {
    pool: MAX
    kernel_size: 2
    stride: 2
  }
}
layer {
  name: "conv2_1"
  type: "Convolution"
  bottom: "pool1"
  top: "conv2_1"
  param {
    lr_mult: 1
    decay_mult: 1
  }
  param {
    lr_mult: 2
    decay_mult: 0
  }
  convolution_param {
    num_output: 128
    pad: 1
    kernel_size: 3
    stride: 1
  }
}
layer {
  name: "relu2_1"
  type: "ReLU"
  bottom: "conv2_1"
  top: "conv2_1"
}
layer {
  name: "conv2_2"
  type: "Convolution"
  bottom: "conv2_1"
  top: "conv2_2"
  param {
    lr_mult: 1
    decay_mult: 1
  }
  param {
    lr_mult: 2
    decay_mult: 0
  }
  convolution_param {
    num_output: 128
    pad: 1
    kernel_size: 3
    stride: 1
  }
}
layer {
  name: "relu2_2"
  type: "ReLU"
  bottom: "conv2_2"
  top: "conv2_2"
}
layer {
  name: "pool2"
  type: "Pooling"
  bottom: "conv2_2"
  top: "pool2"
  pooling_param {
    pool: MAX
    kernel_size: 2
    stride: 2
  }
}
layer {
  name: "conv3_1"
  type: "Convolution"
  bottom: "pool2"
  top: "conv3_1"
  param {
    lr_mult: 1
    decay_mult: 1
  }
  param {
    lr_mult: 2
    decay_mult: 0
  }
  convolution_param {
    num_output: 256
    pad: 1
    kernel_size: 3
    stride: 1
  }
}
layer {
  name: "relu3_1"
  type: "ReLU"
  bottom: "conv3_1"
  top: "conv3_1"
}
layer {
  name: "conv3_2"
  type: "Convolution"
  bottom: "conv3_1"
  top: "conv3_2"
  param {
    lr_mult: 1
    decay_mult: 1
  }
  param {
    lr_mult: 2
    decay_mult: 0
  }
  convolution_param {
    num_output: 256
    pad: 1
    kernel_size: 3
    stride: 1
  }
}
layer {
  name: "relu3_2"
  type: "ReLU"
  bottom: "conv3_2"
  top: "conv3_2"
}
layer {
  name: "conv3_3"
  type: "Convolution"
  bottom: "conv3_2"
  top: "conv3_3"
  param {
    lr_mult: 1
    decay_mult: 1
  }
  param {
    lr_mult: 2
    decay_mult: 0
  }
  convolution_param {
    num_output: 256
    pad: 1
    kernel_size: 3
    stride: 1
  }
}
layer {
  name: "relu3_3"
  type: "ReLU"
  bottom: "conv3_3"
  top: "conv3_3"
}
layer {
  name: "pool3"
  type: "Pooling"
  bottom: "conv3_3"
  top: "pool3"
  pooling_param {
    pool: MAX
    kernel_size: 2
    stride: 2
  }
}
layer {
  name: "conv4_1"
  type: "Convolution"
  bottom: "pool3"
  top: "conv4_1"
  param {
    lr_mult: 1
    decay_mult: 1
  }
  param {
    lr_mult: 2
    decay_mult: 0
  }
  convolution_param {
    num_output: 512
    pad: 1
    kernel_size: 3
    stride: 1
  }
}
layer {
  name: "relu4_1"
  type: "ReLU"
  bottom: "conv4_1"
  top: "conv4_1"
}
layer {
  name: "conv4_2"
  type: "Convolution"
  bottom: "conv4_1"
  top: "conv4_2"
  param {
    lr_mult: 1
    decay_mult: 1
  }
  param {
    lr_mult: 2
    decay_mult: 0
  }
  convolution_param {
    num_output: 512
    pad: 1
    kernel_size: 3
    stride: 1
  }
}
layer {
  name: "relu4_2"
  type: "ReLU"
  bottom: "conv4_2"
  top: "conv4_2"
}
layer {
  name: "conv4_3"
  type: "Convolution"
  bottom: "conv4_2"
  top: "conv4_3"
  param {
    lr_mult: 1
    decay_mult: 1
  }
  param {
    lr_mult: 2
    decay_mult: 0
  }
  convolution_param {
    num_output: 512
    pad: 1
    kernel_size: 3
    stride: 1
  }
}
layer {
  name: "relu4_3"
  type: "ReLU"
  bottom: "conv4_3"
  top: "conv4_3"
}
layer {
  name: "pool4"
  type: "Pooling"
  bottom: "conv4_3"
  top: "pool4"
  pooling_param {
    pool: MAX
    kernel_size: 2
    stride: 2
  }
}
layer {
  name: "conv5_1"
  type: "Convolution"
  bottom: "pool4"
  top: "conv5_1"
  param {
    lr_mult: 1
    decay_mult: 1
  }
  param {
    lr_mult: 2
    decay_mult: 0
  }
  convolution_param {
    num_output: 512
    pad: 1
    kernel_size: 3
    stride: 1
  }
}
layer {
  name: "relu5_1"
  type: "ReLU"
  bottom: "conv5_1"
  top: "conv5_1"
}
layer {
  name: "conv5_2"
  type: "Convolution"
  bottom: "conv5_1"
  top: "conv5_2"
  param {
    lr_mult: 1
    decay_mult: 1
  }
  param {
    lr_mult: 2
    decay_mult: 0
  }
  convolution_param {
    num_output: 512
    pad: 1
    kernel_size: 3
    stride: 1
  }
}
layer {
  name: "relu5_2"
  type: "ReLU"
  bottom: "conv5_2"
  top: "conv5_2"
}
layer {
  name: "conv5_3"
  type: "Convolution"
  bottom: "conv5_2"
  top: "conv5_3"
  param {
    lr_mult: 1
    decay_mult: 1
  }
  param {
    lr_mult: 2
    decay_mult: 0
  }
  convolution_param {
    num_output: 512
    pad: 1
    kernel_size: 3
    stride: 1
  }
}
layer {
  name: "relu5_3"
  type: "ReLU"
  bottom: "conv5_3"
  top: "conv5_3"
}
layer {
  name: "pool5"
  type: "Pooling"
  bottom: "conv5_3"
  top: "pool5"
  pooling_param {
    pool: MAX
    kernel_size: 2
    stride: 2
  }
}
layer {
  name: "fc6"
  type: "Convolution"
  bottom: "pool5"
  top: "fc6"
  param {
    lr_mult: 1
    decay_mult: 1
  }
  param {
    lr_mult: 2
    decay_mult: 0
  }
  convolution_param {
    num_output: 4096
    pad: 0
    kernel_size: 7
    stride: 1
  }
}
layer {
  name: "relu6"
  type: "ReLU"
  bottom: "fc6"
  top: "fc6"
}
layer {
  name: "drop6"
  type: "Dropout"
  bottom: "fc6"
  top: "fc6"
  dropout_param {
    dropout_ratio: 0.5
  }
}
layer {
  name: "fc7"
  type: "Convolution"
  bottom: "fc6"
  top: "fc7"
  param {
    lr_mult: 1
    decay_mult: 1
  }
  param {
    lr_mult: 2
    decay_mult: 0
  }
  convolution_param {
    num_output: 4096
    pad: 0
    kernel_size: 1
    stride: 1
  }
}
layer {
  name: "relu7"
  type: "ReLU"
  bottom: "fc7"
  top: "fc7"
}
layer {
  name: "drop7"
  type: "Dropout"
  bottom: "fc7"
  top: "fc7"
  dropout_param {
    dropout_ratio: 0.5
  }
}
layer {
  name: "score_fr-new"
  type: "Convolution"
  bottom: "fc7"
  top: "score_fr-new"
  param {
    lr_mult: 1
    decay_mult: 1
  }
  param {
    lr_mult: 2
    decay_mult: 0
  }
  convolution_param {
    num_output: 3
    kernel_size: 1
  }
}
layer {
  name: "upscore2-new"
  type: "Deconvolution"
  bottom: "score_fr-new"
  top: "upscore2-new"
  param {
    lr_mult: 0
  }
  convolution_param {
    num_output: 3
    bias_term: false
    kernel_size: 4
    stride: 2
  }
}
layer {
  name: "score_pool4-new"
  type: "Convolution"
  bottom: "pool4"
  top: "score_pool4-new"
  param {
    lr_mult: 1
    decay_mult: 1
  }
  param {
    lr_mult: 2
    decay_mult: 0
  }
  convolution_param {
    num_output: 3
    pad: 0
    kernel_size: 1
  }
}
layer {
  name: "score_pool4c"
  type: "Crop"
  bottom: "score_pool4-new"
  bottom: "upscore2-new"
  top: "score_pool4c"
  crop_param {
    axis: 2
    offset: 5
  }
}
layer {
  name: "fuse_pool4"
  type: "Eltwise"
  bottom: "upscore2-new"
  bottom: "score_pool4c"
  top: "fuse_pool4"
  eltwise_param {
    operation: SUM
  }
}
layer {
  name: "upscore_pool4-new"
  type: "Deconvolution"
  bottom: "fuse_pool4"
  top: "upscore_pool4-new"
  param {
    lr_mult: 0
  }
  convolution_param {
    num_output: 3
    bias_term: false
    kernel_size: 4
    stride: 2
  }
}
layer {
  name: "score_pool3-new"
  type: "Convolution"
  bottom: "pool3"
  top: "score_pool3-new"
  param {
    lr_mult: 1
    decay_mult: 1
  }
  param {
    lr_mult: 2
    decay_mult: 0
  }
  convolution_param {
    num_output: 3
    pad: 0
    kernel_size: 1
  }
}
layer {
  name: "score_pool3c"
  type: "Crop"
  bottom: "score_pool3-new"
  bottom: "upscore_pool4-new"
  top: "score_pool3c"
  crop_param {
    axis: 2
    offset: 9
  }
}
layer {
  name: "fuse_pool3"
  type: "Eltwise"
  bottom: "upscore_pool4-new"
  bottom: "score_pool3c"
  top: "fuse_pool3"
  eltwise_param {
    operation: SUM
  }
}
layer {
  name: "upscore8-new"
  type: "Deconvolution"
  bottom: "fuse_pool3"
  top: "upscore8-new"
  param {
    lr_mult: 0
  }
  convolution_param {
    num_output: 3
    bias_term: false
    kernel_size: 16
    stride: 8
  }
}
layer {
  name: "upscore8_cropped"
  type: "Crop"
  bottom: "upscore8-new"
  bottom: "data"
  top: "upscore8_cropped"
  crop_param {
    axis: 2
    offset: 31
  }
}
layer {
  name: "prob"
  type: "Sigmoid"
  bottom: "upscore8_cropped"
  top: "prob"
}
layer {
  name: "saliency1"
  type: "Convolution"
  bottom: "prob"
  top: "saliency1"
  param {
    lr_mult: 10
    decay_mult: 1
  }
  param {
    lr_mult: 20
    decay_mult: 0
  }
  convolution_param {
    num_output: 3
    pad: 1
    kernel_size: 3
    stride: 1
    weight_filler {
      type: "xavier"
    }
    bias_filler {
      type: "constant"
      value: 1
    }
  }
}
layer {
  name: "relu_saliency1"
  type: "ReLU"
  bottom: "saliency1"
  top: "saliency1"
}
layer {
  name: "saliency"
  type: "Convolution"
  bottom: "saliency1"
  top: "saliency"
  param {
    lr_mult: 10
    decay_mult: 1
  }
  param {
    lr_mult: 20
    decay_mult: 0
  }
  convolution_param {
    num_output: 3
    pad: 2
    kernel_size: 5
    stride: 1
    weight_filler {
      type: "xavier"
    }
    bias_filler {
      type: "constant"
      value: 1
    }
  }
}
layer {
  name: "saliency_data"
  type: "Eltwise"
  bottom: "data"
  bottom: "saliency"
  top: "saliency_data"
  eltwise_param {
    operation: PROD
  }
}
layer {
  name: "crop"
  type: "Python"
  bottom: "label"
  bottom: "saliency_data"
  bottom: "crop_margin"
  bottom: "crop_prob"
  bottom: "crop_sample_batch"
  top: "data-R"
  top: "crop_info"
  python_param {
    module: "Crop"
    layer: "CropLayer"
    param_str: "{\"TEST\": 0}"
  }
}
layer {
  name: "conv1_1-R"
  type: "Convolution"
  bottom: "data-R"
  top: "conv1_1-R"
  param {
    lr_mult: 10
    decay_mult: 1
  }
  param {
    lr_mult: 20
    decay_mult: 0
  }
  convolution_param {
    num_output: 64
    pad: 100
    kernel_size: 3
    stride: 1
  }
}
layer {
  name: "relu1_1-R"
  type: "ReLU"
  bottom: "conv1_1-R"
  top: "conv1_1-R"
}
layer {
  name: "conv1_2-R"
  type: "Convolution"
  bottom: "conv1_1-R"
  top: "conv1_2-R"
  param {
    lr_mult: 10
    decay_mult: 1
  }
  param {
    lr_mult: 20
    decay_mult: 0
  }
  convolution_param {
    num_output: 64
    pad: 1
    kernel_size: 3
    stride: 1
  }
}
layer {
  name: "relu1_2-R"
  type: "ReLU"
  bottom: "conv1_2-R"
  top: "conv1_2-R"
}
layer {
  name: "pool1-R"
  type: "Pooling"
  bottom: "conv1_2-R"
  top: "pool1-R"
  pooling_param {
    pool: MAX
    kernel_size: 2
    stride: 2
  }
}
layer {
  name: "conv2_1-R"
  type: "Convolution"
  bottom: "pool1-R"
  top: "conv2_1-R"
  param {
    lr_mult: 10
    decay_mult: 1
  }
  param {
    lr_mult: 20
    decay_mult: 0
  }
  convolution_param {
    num_output: 128
    pad: 1
    kernel_size: 3
    stride: 1
  }
}
layer {
  name: "relu2_1-R"
  type: "ReLU"
  bottom: "conv2_1-R"
  top: "conv2_1-R"
}
layer {
  name: "conv2_2-R"
  type: "Convolution"
  bottom: "conv2_1-R"
  top: "conv2_2-R"
  param {
    lr_mult: 10
    decay_mult: 1
  }
  param {
    lr_mult: 20
    decay_mult: 0
  }
  convolution_param {
    num_output: 128
    pad: 1
    kernel_size: 3
    stride: 1
  }
}
layer {
  name: "relu2_2-R"
  type: "ReLU"
  bottom: "conv2_2-R"
  top: "conv2_2-R"
}
layer {
  name: "pool2-R"
  type: "Pooling"
  bottom: "conv2_2-R"
  top: "pool2-R"
  pooling_param {
    pool: MAX
    kernel_size: 2
    stride: 2
  }
}
layer {
  name: "conv3_1-R"
  type: "Convolution"
  bottom: "pool2-R"
  top: "conv3_1-R"
  param {
    lr_mult: 10
    decay_mult: 1
  }
  param {
    lr_mult: 20
    decay_mult: 0
  }
  convolution_param {
    num_output: 256
    pad: 1
    kernel_size: 3
    stride: 1
  }
}
layer {
  name: "relu3_1-R"
  type: "ReLU"
  bottom: "conv3_1-R"
  top: "conv3_1-R"
}
layer {
  name: "conv3_2-R"
  type: "Convolution"
  bottom: "conv3_1-R"
  top: "conv3_2-R"
  param {
    lr_mult: 10
    decay_mult: 1
  }
  param {
    lr_mult: 20
    decay_mult: 0
  }
  convolution_param {
    num_output: 256
    pad: 1
    kernel_size: 3
    stride: 1
  }
}
layer {
  name: "relu3_2-R"
  type: "ReLU"
  bottom: "conv3_2-R"
  top: "conv3_2-R"
}
layer {
  name: "conv3_3-R"
  type: "Convolution"
  bottom: "conv3_2-R"
  top: "conv3_3-R"
  param {
    lr_mult: 10
    decay_mult: 1
  }
  param {
    lr_mult: 20
    decay_mult: 0
  }
  convolution_param {
    num_output: 256
    pad: 1
    kernel_size: 3
    stride: 1
  }
}
layer {
  name: "relu3_3-R"
  type: "ReLU"
  bottom: "conv3_3-R"
  top: "conv3_3-R"
}
layer {
  name: "pool3-R"
  type: "Pooling"
  bottom: "conv3_3-R"
  top: "pool3-R"
  pooling_param {
    pool: MAX
    kernel_size: 2
    stride: 2
  }
}
layer {
  name: "conv4_1-R"
  type: "Convolution"
  bottom: "pool3-R"
  top: "conv4_1-R"
  param {
    lr_mult: 10
    decay_mult: 1
  }
  param {
    lr_mult: 20
    decay_mult: 0
  }
  convolution_param {
    num_output: 512
    pad: 1
    kernel_size: 3
    stride: 1
  }
}
layer {
  name: "relu4_1-R"
  type: "ReLU"
  bottom: "conv4_1-R"
  top: "conv4_1-R"
}
layer {
  name: "conv4_2-R"
  type: "Convolution"
  bottom: "conv4_1-R"
  top: "conv4_2-R"
  param {
    lr_mult: 10
    decay_mult: 1
  }
  param {
    lr_mult: 20
    decay_mult: 0
  }
  convolution_param {
    num_output: 512
    pad: 1
    kernel_size: 3
    stride: 1
  }
}
layer {
  name: "relu4_2-R"
  type: "ReLU"
  bottom: "conv4_2-R"
  top: "conv4_2-R"
}
layer {
  name: "conv4_3-R"
  type: "Convolution"
  bottom: "conv4_2-R"
  top: "conv4_3-R"
  param {
    lr_mult: 10
    decay_mult: 1
  }
  param {
    lr_mult: 20
    decay_mult: 0
  }
  convolution_param {
    num_output: 512
    pad: 1
    kernel_size: 3
    stride: 1
  }
}
layer {
  name: "relu4_3-R"
  type: "ReLU"
  bottom: "conv4_3-R"
  top: "conv4_3-R"
}
layer {
  name: "pool4-R"
  type: "Pooling"
  bottom: "conv4_3-R"
  top: "pool4-R"
  pooling_param {
    pool: MAX
    kernel_size: 2
    stride: 2
  }
}
layer {
  name: "conv5_1-R"
  type: "Convolution"
  bottom: "pool4-R"
  top: "conv5_1-R"
  param {
    lr_mult: 10
    decay_mult: 1
  }
  param {
    lr_mult: 20
    decay_mult: 0
  }
  convolution_param {
    num_output: 512
    pad: 1
    kernel_size: 3
    stride: 1
  }
}
layer {
  name: "relu5_1-R"
  type: "ReLU"
  bottom: "conv5_1-R"
  top: "conv5_1-R"
}
layer {
  name: "conv5_2-R"
  type: "Convolution"
  bottom: "conv5_1-R"
  top: "conv5_2-R"
  param {
    lr_mult: 10
    decay_mult: 1
  }
  param {
    lr_mult: 20
    decay_mult: 0
  }
  convolution_param {
    num_output: 512
    pad: 1
    kernel_size: 3
    stride: 1
  }
}
layer {
  name: "relu5_2-R"
  type: "ReLU"
  bottom: "conv5_2-R"
  top: "conv5_2-R"
}
layer {
  name: "conv5_3-R"
  type: "Convolution"
  bottom: "conv5_2-R"
  top: "conv5_3-R"
  param {
    lr_mult: 10
    decay_mult: 1
  }
  param {
    lr_mult: 20
    decay_mult: 0
  }
  convolution_param {
    num_output: 512
    pad: 1
    kernel_size: 3
    stride: 1
  }
}
layer {
  name: "relu5_3-R"
  type: "ReLU"
  bottom: "conv5_3-R"
  top: "conv5_3-R"
}
layer {
  name: "pool5-R"
  type: "Pooling"
  bottom: "conv5_3-R"
  top: "pool5-R"
  pooling_param {
    pool: MAX
    kernel_size: 2
    stride: 2
  }
}
layer {
  name: "fc6-R"
  type: "Convolution"
  bottom: "pool5-R"
  top: "fc6-R"
  param {
    lr_mult: 10
    decay_mult: 1
  }
  param {
    lr_mult: 20
    decay_mult: 0
  }
  convolution_param {
    num_output: 4096
    pad: 0
    kernel_size: 7
    stride: 1
  }
}
layer {
  name: "relu6-R"
  type: "ReLU"
  bottom: "fc6-R"
  top: "fc6-R"
}
layer {
  name: "drop6-R"
  type: "Dropout"
  bottom: "fc6-R"
  top: "fc6-R"
  dropout_param {
    dropout_ratio: 0.5
  }
}
layer {
  name: "fc7-R"
  type: "Convolution"
  bottom: "fc6-R"
  top: "fc7-R"
  param {
    lr_mult: 10
    decay_mult: 1
  }
  param {
    lr_mult: 20
    decay_mult: 0
  }
  convolution_param {
    num_output: 4096
    pad: 0
    kernel_size: 1
    stride: 1
  }
}
layer {
  name: "relu7-R"
  type: "ReLU"
  bottom: "fc7-R"
  top: "fc7-R"
}
layer {
  name: "drop7-R"
  type: "Dropout"
  bottom: "fc7-R"
  top: "fc7-R"
  dropout_param {
    dropout_ratio: 0.5
  }
}
layer {
  name: "score_fr-new-R"
  type: "Convolution"
  bottom: "fc7-R"
  top: "score_fr-new-R"
  param {
    lr_mult: 10
    decay_mult: 1
  }
  param {
    lr_mult: 20
    decay_mult: 0
  }
  convolution_param {
    num_output: 3
    kernel_size: 1
  }
}
layer {
  name: "upscore2-new-R"
  type: "Deconvolution"
  bottom: "score_fr-new-R"
  top: "upscore2-new-R"
  param {
    lr_mult: 0
  }
  convolution_param {
    num_output: 3
    bias_term: false
    kernel_size: 4
    stride: 2
  }
}
layer {
  name: "score_pool4-new-R"
  type: "Convolution"
  bottom: "pool4-R"
  top: "score_pool4-new-R"
  param {
    lr_mult: 10
    decay_mult: 1
  }
  param {
    lr_mult: 20
    decay_mult: 0
  }
  convolution_param {
    num_output: 3
    pad: 0
    kernel_size: 1
  }
}
layer {
  name: "score_pool4c-R"
  type: "Crop"
  bottom: "score_pool4-new-R"
  bottom: "upscore2-new-R"
  top: "score_pool4c-R"
  crop_param {
    axis: 2
    offset: 5
  }
}
layer {
  name: "fuse_pool4-R"
  type: "Eltwise"
  bottom: "upscore2-new-R"
  bottom: "score_pool4c-R"
  top: "fuse_pool4-R"
  eltwise_param {
    operation: SUM
  }
}
layer {
  name: "upscore_pool4-new-R"
  type: "Deconvolution"
  bottom: "fuse_pool4-R"
  top: "upscore_pool4-new-R"
  param {
    lr_mult: 0
  }
  convolution_param {
    num_output: 3
    bias_term: false
    kernel_size: 4
    stride: 2
  }
}
layer {
  name: "score_pool3-new-R"
  type: "Convolution"
  bottom: "pool3-R"
  top: "score_pool3-new-R"
  param {
    lr_mult: 10
    decay_mult: 1
  }
  param {
    lr_mult: 20
    decay_mult: 0
  }
  convolution_param {
    num_output: 3
    pad: 0
    kernel_size: 1
  }
}
layer {
  name: "score_pool3c-R"
  type: "Crop"
  bottom: "score_pool3-new-R"
  bottom: "upscore_pool4-new-R"
  top: "score_pool3c-R"
  crop_param {
    axis: 2
    offset: 9
  }
}
layer {
  name: "fuse_pool3-R"
  type: "Eltwise"
  bottom: "upscore_pool4-new-R"
  bottom: "score_pool3c-R"
  top: "fuse_pool3-R"
  eltwise_param {
    operation: SUM
  }
}
layer {
  name: "upscore8-new-R"
  type: "Deconvolution"
  bottom: "fuse_pool3-R"
  top: "upscore8-new-R"
  param {
    lr_mult: 0
  }
  convolution_param {
    num_output: 3
    bias_term: false
    kernel_size: 16
    stride: 8
  }
}
layer {
  name: "upscore8_cropped-R"
  type: "Crop"
  bottom: "upscore8-new-R"
  bottom: "data-R"
  top: "upscore8_cropped-R"
  crop_param {
    axis: 2
    offset: 31
  }
}
layer {
  name: "upscore8_uncropped-R"
  type: "Python"
  bottom: "crop_info"
  bottom: "upscore8_cropped-R"
  bottom: "data"
  top: "upscore8_uncropped-R"
  python_param {
    module: "Uncrop"
    layer: "UncropLayer"
  }
}
layer {
  name: "loss1"
  type: "DiceLoss"
  bottom: "upscore8_cropped"
  bottom: "label"
  top: "loss1"
  loss_weight: 0.333333
}
layer {
  name: "loss2"
  type: "DiceLoss"
  bottom: "upscore8_uncropped-R"
  bottom: "label"
  top: "loss2"
  loss_weight: 0.666667
}
I0715 10:18:58.297948 12889 layer_factory.hpp:77] Creating layer data
I0715 10:18:58.297998 12889 net.cpp:84] Creating Layer data
I0715 10:18:58.298004 12889 net.cpp:380] data -> data
I0715 10:18:58.298015 12889 net.cpp:380] data -> label
I0715 10:18:58.298022 12889 net.cpp:380] data -> crop_margin
I0715 10:18:58.298027 12889 net.cpp:380] data -> crop_prob
I0715 10:18:58.298033 12889 net.cpp:380] data -> crop_sample_batch
I0715 10:18:58.437127 12889 net.cpp:122] Setting up data
I0715 10:18:58.437176 12889 net.cpp:129] Top shape: 1 3 512 310 (476160)
I0715 10:18:58.437182 12889 net.cpp:129] Top shape: 1 3 512 310 (476160)
I0715 10:18:58.437187 12889 net.cpp:129] Top shape: 1 (1)
I0715 10:18:58.437191 12889 net.cpp:129] Top shape: 1 (1)
I0715 10:18:58.437196 12889 net.cpp:129] Top shape: 1 (1)
I0715 10:18:58.437199 12889 net.cpp:137] Memory required for data: 3809292
I0715 10:18:58.437206 12889 layer_factory.hpp:77] Creating layer data_data_0_split
I0715 10:18:58.437222 12889 net.cpp:84] Creating Layer data_data_0_split
I0715 10:18:58.437243 12889 net.cpp:406] data_data_0_split <- data
I0715 10:18:58.437254 12889 net.cpp:380] data_data_0_split -> data_data_0_split_0
I0715 10:18:58.437265 12889 net.cpp:380] data_data_0_split -> data_data_0_split_1
I0715 10:18:58.437271 12889 net.cpp:380] data_data_0_split -> data_data_0_split_2
I0715 10:18:58.437278 12889 net.cpp:380] data_data_0_split -> data_data_0_split_3
I0715 10:18:58.437376 12889 net.cpp:122] Setting up data_data_0_split
I0715 10:18:58.437381 12889 net.cpp:129] Top shape: 1 3 512 310 (476160)
I0715 10:18:58.437386 12889 net.cpp:129] Top shape: 1 3 512 310 (476160)
I0715 10:18:58.437389 12889 net.cpp:129] Top shape: 1 3 512 310 (476160)
I0715 10:18:58.437393 12889 net.cpp:129] Top shape: 1 3 512 310 (476160)
I0715 10:18:58.437397 12889 net.cpp:137] Memory required for data: 11427852
I0715 10:18:58.437399 12889 layer_factory.hpp:77] Creating layer label_data_1_split
I0715 10:18:58.437405 12889 net.cpp:84] Creating Layer label_data_1_split
I0715 10:18:58.437408 12889 net.cpp:406] label_data_1_split <- label
I0715 10:18:58.437413 12889 net.cpp:380] label_data_1_split -> label_data_1_split_0
I0715 10:18:58.437419 12889 net.cpp:380] label_data_1_split -> label_data_1_split_1
I0715 10:18:58.437424 12889 net.cpp:380] label_data_1_split -> label_data_1_split_2
I0715 10:18:58.437495 12889 net.cpp:122] Setting up label_data_1_split
I0715 10:18:58.437500 12889 net.cpp:129] Top shape: 1 3 512 310 (476160)
I0715 10:18:58.437505 12889 net.cpp:129] Top shape: 1 3 512 310 (476160)
I0715 10:18:58.437507 12889 net.cpp:129] Top shape: 1 3 512 310 (476160)
I0715 10:18:58.437511 12889 net.cpp:137] Memory required for data: 17141772
I0715 10:18:58.437515 12889 layer_factory.hpp:77] Creating layer conv1_1
I0715 10:18:58.437525 12889 net.cpp:84] Creating Layer conv1_1
I0715 10:18:58.437530 12889 net.cpp:406] conv1_1 <- data_data_0_split_0
I0715 10:18:58.437536 12889 net.cpp:380] conv1_1 -> conv1_1
I0715 10:18:58.441360 12889 net.cpp:122] Setting up conv1_1
I0715 10:18:58.441393 12889 net.cpp:129] Top shape: 1 64 710 508 (23083520)
I0715 10:18:58.441397 12889 net.cpp:137] Memory required for data: 109475852
I0715 10:18:58.441411 12889 layer_factory.hpp:77] Creating layer relu1_1
I0715 10:18:58.441419 12889 net.cpp:84] Creating Layer relu1_1
I0715 10:18:58.441423 12889 net.cpp:406] relu1_1 <- conv1_1
I0715 10:18:58.441428 12889 net.cpp:367] relu1_1 -> conv1_1 (in-place)
I0715 10:18:58.442289 12889 net.cpp:122] Setting up relu1_1
I0715 10:18:58.442303 12889 net.cpp:129] Top shape: 1 64 710 508 (23083520)
I0715 10:18:58.442306 12889 net.cpp:137] Memory required for data: 201809932
I0715 10:18:58.442311 12889 layer_factory.hpp:77] Creating layer conv1_2
I0715 10:18:58.442322 12889 net.cpp:84] Creating Layer conv1_2
I0715 10:18:58.442324 12889 net.cpp:406] conv1_2 <- conv1_1
I0715 10:18:58.442332 12889 net.cpp:380] conv1_2 -> conv1_2
I0715 10:18:58.446647 12889 net.cpp:122] Setting up conv1_2
I0715 10:18:58.446702 12889 net.cpp:129] Top shape: 1 64 710 508 (23083520)
I0715 10:18:58.446707 12889 net.cpp:137] Memory required for data: 294144012
I0715 10:18:58.446725 12889 layer_factory.hpp:77] Creating layer relu1_2
I0715 10:18:58.446738 12889 net.cpp:84] Creating Layer relu1_2
I0715 10:18:58.446754 12889 net.cpp:406] relu1_2 <- conv1_2
I0715 10:18:58.446763 12889 net.cpp:367] relu1_2 -> conv1_2 (in-place)
I0715 10:18:58.447147 12889 net.cpp:122] Setting up relu1_2
I0715 10:18:58.447158 12889 net.cpp:129] Top shape: 1 64 710 508 (23083520)
I0715 10:18:58.447178 12889 net.cpp:137] Memory required for data: 386478092
I0715 10:18:58.447182 12889 layer_factory.hpp:77] Creating layer pool1
I0715 10:18:58.447190 12889 net.cpp:84] Creating Layer pool1
I0715 10:18:58.447193 12889 net.cpp:406] pool1 <- conv1_2
I0715 10:18:58.447199 12889 net.cpp:380] pool1 -> pool1
I0715 10:18:58.447348 12889 net.cpp:122] Setting up pool1
I0715 10:18:58.447357 12889 net.cpp:129] Top shape: 1 64 355 254 (5770880)
I0715 10:18:58.447360 12889 net.cpp:137] Memory required for data: 409561612
I0715 10:18:58.447363 12889 layer_factory.hpp:77] Creating layer conv2_1
I0715 10:18:58.447384 12889 net.cpp:84] Creating Layer conv2_1
I0715 10:18:58.447387 12889 net.cpp:406] conv2_1 <- pool1
I0715 10:18:58.447394 12889 net.cpp:380] conv2_1 -> conv2_1
I0715 10:18:58.451270 12889 net.cpp:122] Setting up conv2_1
I0715 10:18:58.451328 12889 net.cpp:129] Top shape: 1 128 355 254 (11541760)
I0715 10:18:58.451337 12889 net.cpp:137] Memory required for data: 455728652
I0715 10:18:58.451370 12889 layer_factory.hpp:77] Creating layer relu2_1
I0715 10:18:58.451385 12889 net.cpp:84] Creating Layer relu2_1
I0715 10:18:58.451392 12889 net.cpp:406] relu2_1 <- conv2_1
I0715 10:18:58.451414 12889 net.cpp:367] relu2_1 -> conv2_1 (in-place)
I0715 10:18:58.451869 12889 net.cpp:122] Setting up relu2_1
I0715 10:18:58.451900 12889 net.cpp:129] Top shape: 1 128 355 254 (11541760)
I0715 10:18:58.451907 12889 net.cpp:137] Memory required for data: 501895692
I0715 10:18:58.451915 12889 layer_factory.hpp:77] Creating layer conv2_2
I0715 10:18:58.451941 12889 net.cpp:84] Creating Layer conv2_2
I0715 10:18:58.451949 12889 net.cpp:406] conv2_2 <- conv2_1
I0715 10:18:58.451961 12889 net.cpp:380] conv2_2 -> conv2_2
I0715 10:18:58.455926 12889 net.cpp:122] Setting up conv2_2
I0715 10:18:58.455972 12889 net.cpp:129] Top shape: 1 128 355 254 (11541760)
I0715 10:18:58.455981 12889 net.cpp:137] Memory required for data: 548062732
I0715 10:18:58.455997 12889 layer_factory.hpp:77] Creating layer relu2_2
I0715 10:18:58.456010 12889 net.cpp:84] Creating Layer relu2_2
I0715 10:18:58.456018 12889 net.cpp:406] relu2_2 <- conv2_2
I0715 10:18:58.456030 12889 net.cpp:367] relu2_2 -> conv2_2 (in-place)
I0715 10:18:58.456470 12889 net.cpp:122] Setting up relu2_2
I0715 10:18:58.456501 12889 net.cpp:129] Top shape: 1 128 355 254 (11541760)
I0715 10:18:58.456508 12889 net.cpp:137] Memory required for data: 594229772
I0715 10:18:58.456516 12889 layer_factory.hpp:77] Creating layer pool2
I0715 10:18:58.456529 12889 net.cpp:84] Creating Layer pool2
I0715 10:18:58.456537 12889 net.cpp:406] pool2 <- conv2_2
I0715 10:18:58.456548 12889 net.cpp:380] pool2 -> pool2
I0715 10:18:58.456671 12889 net.cpp:122] Setting up pool2
I0715 10:18:58.456686 12889 net.cpp:129] Top shape: 1 128 178 127 (2893568)
I0715 10:18:58.456701 12889 net.cpp:137] Memory required for data: 605804044
I0715 10:18:58.456707 12889 layer_factory.hpp:77] Creating layer conv3_1
I0715 10:18:58.456724 12889 net.cpp:84] Creating Layer conv3_1
I0715 10:18:58.456734 12889 net.cpp:406] conv3_1 <- pool2
I0715 10:18:58.456745 12889 net.cpp:380] conv3_1 -> conv3_1
I0715 10:18:58.461498 12889 net.cpp:122] Setting up conv3_1
I0715 10:18:58.461531 12889 net.cpp:129] Top shape: 1 256 178 127 (5787136)
I0715 10:18:58.461535 12889 net.cpp:137] Memory required for data: 628952588
I0715 10:18:58.461547 12889 layer_factory.hpp:77] Creating layer relu3_1
I0715 10:18:58.461555 12889 net.cpp:84] Creating Layer relu3_1
I0715 10:18:58.461558 12889 net.cpp:406] relu3_1 <- conv3_1
I0715 10:18:58.461565 12889 net.cpp:367] relu3_1 -> conv3_1 (in-place)
I0715 10:18:58.461767 12889 net.cpp:122] Setting up relu3_1
I0715 10:18:58.461778 12889 net.cpp:129] Top shape: 1 256 178 127 (5787136)
I0715 10:18:58.461781 12889 net.cpp:137] Memory required for data: 652101132
I0715 10:18:58.461784 12889 layer_factory.hpp:77] Creating layer conv3_2
I0715 10:18:58.461794 12889 net.cpp:84] Creating Layer conv3_2
I0715 10:18:58.461797 12889 net.cpp:406] conv3_2 <- conv3_1
I0715 10:18:58.461803 12889 net.cpp:380] conv3_2 -> conv3_2
I0715 10:18:58.467722 12889 net.cpp:122] Setting up conv3_2
I0715 10:18:58.467756 12889 net.cpp:129] Top shape: 1 256 178 127 (5787136)
I0715 10:18:58.467761 12889 net.cpp:137] Memory required for data: 675249676
I0715 10:18:58.467768 12889 layer_factory.hpp:77] Creating layer relu3_2
I0715 10:18:58.467779 12889 net.cpp:84] Creating Layer relu3_2
I0715 10:18:58.467783 12889 net.cpp:406] relu3_2 <- conv3_2
I0715 10:18:58.467789 12889 net.cpp:367] relu3_2 -> conv3_2 (in-place)
I0715 10:18:58.468022 12889 net.cpp:122] Setting up relu3_2
I0715 10:18:58.468034 12889 net.cpp:129] Top shape: 1 256 178 127 (5787136)
I0715 10:18:58.468036 12889 net.cpp:137] Memory required for data: 698398220
I0715 10:18:58.468039 12889 layer_factory.hpp:77] Creating layer conv3_3
I0715 10:18:58.468049 12889 net.cpp:84] Creating Layer conv3_3
I0715 10:18:58.468052 12889 net.cpp:406] conv3_3 <- conv3_2
I0715 10:18:58.468058 12889 net.cpp:380] conv3_3 -> conv3_3
I0715 10:18:58.472877 12889 net.cpp:122] Setting up conv3_3
I0715 10:18:58.472911 12889 net.cpp:129] Top shape: 1 256 178 127 (5787136)
I0715 10:18:58.472918 12889 net.cpp:137] Memory required for data: 721546764
I0715 10:18:58.472929 12889 layer_factory.hpp:77] Creating layer relu3_3
I0715 10:18:58.472939 12889 net.cpp:84] Creating Layer relu3_3
I0715 10:18:58.472944 12889 net.cpp:406] relu3_3 <- conv3_3
I0715 10:18:58.472951 12889 net.cpp:367] relu3_3 -> conv3_3 (in-place)
I0715 10:18:58.474078 12889 net.cpp:122] Setting up relu3_3
I0715 10:18:58.474097 12889 net.cpp:129] Top shape: 1 256 178 127 (5787136)
I0715 10:18:58.474112 12889 net.cpp:137] Memory required for data: 744695308
I0715 10:18:58.474117 12889 layer_factory.hpp:77] Creating layer pool3
I0715 10:18:58.474126 12889 net.cpp:84] Creating Layer pool3
I0715 10:18:58.474131 12889 net.cpp:406] pool3 <- conv3_3
I0715 10:18:58.474139 12889 net.cpp:380] pool3 -> pool3
I0715 10:18:58.474228 12889 net.cpp:122] Setting up pool3
I0715 10:18:58.474238 12889 net.cpp:129] Top shape: 1 256 89 64 (1458176)
I0715 10:18:58.474242 12889 net.cpp:137] Memory required for data: 750528012
I0715 10:18:58.474247 12889 layer_factory.hpp:77] Creating layer pool3_pool3_0_split
I0715 10:18:58.474256 12889 net.cpp:84] Creating Layer pool3_pool3_0_split
I0715 10:18:58.474259 12889 net.cpp:406] pool3_pool3_0_split <- pool3
I0715 10:18:58.474267 12889 net.cpp:380] pool3_pool3_0_split -> pool3_pool3_0_split_0
I0715 10:18:58.474274 12889 net.cpp:380] pool3_pool3_0_split -> pool3_pool3_0_split_1
I0715 10:18:58.474344 12889 net.cpp:122] Setting up pool3_pool3_0_split
I0715 10:18:58.474352 12889 net.cpp:129] Top shape: 1 256 89 64 (1458176)
I0715 10:18:58.474359 12889 net.cpp:129] Top shape: 1 256 89 64 (1458176)
I0715 10:18:58.474362 12889 net.cpp:137] Memory required for data: 762193420
I0715 10:18:58.474366 12889 layer_factory.hpp:77] Creating layer conv4_1
I0715 10:18:58.474378 12889 net.cpp:84] Creating Layer conv4_1
I0715 10:18:58.474386 12889 net.cpp:406] conv4_1 <- pool3_pool3_0_split_0
I0715 10:18:58.474395 12889 net.cpp:380] conv4_1 -> conv4_1
I0715 10:18:58.482251 12889 net.cpp:122] Setting up conv4_1
I0715 10:18:58.482290 12889 net.cpp:129] Top shape: 1 512 89 64 (2916352)
I0715 10:18:58.482295 12889 net.cpp:137] Memory required for data: 773858828
I0715 10:18:58.482307 12889 layer_factory.hpp:77] Creating layer relu4_1
I0715 10:18:58.482317 12889 net.cpp:84] Creating Layer relu4_1
I0715 10:18:58.482323 12889 net.cpp:406] relu4_1 <- conv4_1
I0715 10:18:58.482331 12889 net.cpp:367] relu4_1 -> conv4_1 (in-place)
I0715 10:18:58.482643 12889 net.cpp:122] Setting up relu4_1
I0715 10:18:58.482657 12889 net.cpp:129] Top shape: 1 512 89 64 (2916352)
I0715 10:18:58.482661 12889 net.cpp:137] Memory required for data: 785524236
I0715 10:18:58.482666 12889 layer_factory.hpp:77] Creating layer conv4_2
I0715 10:18:58.482684 12889 net.cpp:84] Creating Layer conv4_2
I0715 10:18:58.482689 12889 net.cpp:406] conv4_2 <- conv4_1
I0715 10:18:58.482698 12889 net.cpp:380] conv4_2 -> conv4_2
I0715 10:18:58.492216 12889 net.cpp:122] Setting up conv4_2
I0715 10:18:58.492262 12889 net.cpp:129] Top shape: 1 512 89 64 (2916352)
I0715 10:18:58.492266 12889 net.cpp:137] Memory required for data: 797189644
I0715 10:18:58.492285 12889 layer_factory.hpp:77] Creating layer relu4_2
I0715 10:18:58.492295 12889 net.cpp:84] Creating Layer relu4_2
I0715 10:18:58.492300 12889 net.cpp:406] relu4_2 <- conv4_2
I0715 10:18:58.492312 12889 net.cpp:367] relu4_2 -> conv4_2 (in-place)
I0715 10:18:58.492552 12889 net.cpp:122] Setting up relu4_2
I0715 10:18:58.492563 12889 net.cpp:129] Top shape: 1 512 89 64 (2916352)
I0715 10:18:58.492566 12889 net.cpp:137] Memory required for data: 808855052
I0715 10:18:58.492569 12889 layer_factory.hpp:77] Creating layer conv4_3
I0715 10:18:58.492580 12889 net.cpp:84] Creating Layer conv4_3
I0715 10:18:58.492584 12889 net.cpp:406] conv4_3 <- conv4_2
I0715 10:18:58.492590 12889 net.cpp:380] conv4_3 -> conv4_3
I0715 10:18:58.501829 12889 net.cpp:122] Setting up conv4_3
I0715 10:18:58.501876 12889 net.cpp:129] Top shape: 1 512 89 64 (2916352)
I0715 10:18:58.501880 12889 net.cpp:137] Memory required for data: 820520460
I0715 10:18:58.501890 12889 layer_factory.hpp:77] Creating layer relu4_3
I0715 10:18:58.501900 12889 net.cpp:84] Creating Layer relu4_3
I0715 10:18:58.501906 12889 net.cpp:406] relu4_3 <- conv4_3
I0715 10:18:58.501914 12889 net.cpp:367] relu4_3 -> conv4_3 (in-place)
I0715 10:18:58.502135 12889 net.cpp:122] Setting up relu4_3
I0715 10:18:58.502146 12889 net.cpp:129] Top shape: 1 512 89 64 (2916352)
I0715 10:18:58.502149 12889 net.cpp:137] Memory required for data: 832185868
I0715 10:18:58.502152 12889 layer_factory.hpp:77] Creating layer pool4
I0715 10:18:58.502161 12889 net.cpp:84] Creating Layer pool4
I0715 10:18:58.502164 12889 net.cpp:406] pool4 <- conv4_3
I0715 10:18:58.502171 12889 net.cpp:380] pool4 -> pool4
I0715 10:18:58.502239 12889 net.cpp:122] Setting up pool4
I0715 10:18:58.502249 12889 net.cpp:129] Top shape: 1 512 45 32 (737280)
I0715 10:18:58.502251 12889 net.cpp:137] Memory required for data: 835134988
I0715 10:18:58.502254 12889 layer_factory.hpp:77] Creating layer pool4_pool4_0_split
I0715 10:18:58.502261 12889 net.cpp:84] Creating Layer pool4_pool4_0_split
I0715 10:18:58.502265 12889 net.cpp:406] pool4_pool4_0_split <- pool4
I0715 10:18:58.502271 12889 net.cpp:380] pool4_pool4_0_split -> pool4_pool4_0_split_0
I0715 10:18:58.502277 12889 net.cpp:380] pool4_pool4_0_split -> pool4_pool4_0_split_1
I0715 10:18:58.502331 12889 net.cpp:122] Setting up pool4_pool4_0_split
I0715 10:18:58.502341 12889 net.cpp:129] Top shape: 1 512 45 32 (737280)
I0715 10:18:58.502344 12889 net.cpp:129] Top shape: 1 512 45 32 (737280)
I0715 10:18:58.502347 12889 net.cpp:137] Memory required for data: 841033228
I0715 10:18:58.502351 12889 layer_factory.hpp:77] Creating layer conv5_1
I0715 10:18:58.502362 12889 net.cpp:84] Creating Layer conv5_1
I0715 10:18:58.502364 12889 net.cpp:406] conv5_1 <- pool4_pool4_0_split_0
I0715 10:18:58.502370 12889 net.cpp:380] conv5_1 -> conv5_1
I0715 10:18:58.511723 12889 net.cpp:122] Setting up conv5_1
I0715 10:18:58.511770 12889 net.cpp:129] Top shape: 1 512 45 32 (737280)
I0715 10:18:58.511773 12889 net.cpp:137] Memory required for data: 843982348
I0715 10:18:58.511783 12889 layer_factory.hpp:77] Creating layer relu5_1
I0715 10:18:58.511795 12889 net.cpp:84] Creating Layer relu5_1
I0715 10:18:58.511799 12889 net.cpp:406] relu5_1 <- conv5_1
I0715 10:18:58.511806 12889 net.cpp:367] relu5_1 -> conv5_1 (in-place)
I0715 10:18:58.512033 12889 net.cpp:122] Setting up relu5_1
I0715 10:18:58.512043 12889 net.cpp:129] Top shape: 1 512 45 32 (737280)
I0715 10:18:58.512046 12889 net.cpp:137] Memory required for data: 846931468
I0715 10:18:58.512050 12889 layer_factory.hpp:77] Creating layer conv5_2
I0715 10:18:58.512063 12889 net.cpp:84] Creating Layer conv5_2
I0715 10:18:58.512065 12889 net.cpp:406] conv5_2 <- conv5_1
I0715 10:18:58.512073 12889 net.cpp:380] conv5_2 -> conv5_2
I0715 10:18:58.521342 12889 net.cpp:122] Setting up conv5_2
I0715 10:18:58.521385 12889 net.cpp:129] Top shape: 1 512 45 32 (737280)
I0715 10:18:58.521389 12889 net.cpp:137] Memory required for data: 849880588
I0715 10:18:58.521399 12889 layer_factory.hpp:77] Creating layer relu5_2
I0715 10:18:58.521415 12889 net.cpp:84] Creating Layer relu5_2
I0715 10:18:58.521421 12889 net.cpp:406] relu5_2 <- conv5_2
I0715 10:18:58.521430 12889 net.cpp:367] relu5_2 -> conv5_2 (in-place)
I0715 10:18:58.521651 12889 net.cpp:122] Setting up relu5_2
I0715 10:18:58.521661 12889 net.cpp:129] Top shape: 1 512 45 32 (737280)
I0715 10:18:58.521680 12889 net.cpp:137] Memory required for data: 852829708
I0715 10:18:58.521684 12889 layer_factory.hpp:77] Creating layer conv5_3
I0715 10:18:58.521697 12889 net.cpp:84] Creating Layer conv5_3
I0715 10:18:58.521700 12889 net.cpp:406] conv5_3 <- conv5_2
I0715 10:18:58.521706 12889 net.cpp:380] conv5_3 -> conv5_3
I0715 10:18:58.533483 12889 net.cpp:122] Setting up conv5_3
I0715 10:18:58.533536 12889 net.cpp:129] Top shape: 1 512 45 32 (737280)
I0715 10:18:58.533543 12889 net.cpp:137] Memory required for data: 855778828
I0715 10:18:58.533555 12889 layer_factory.hpp:77] Creating layer relu5_3
I0715 10:18:58.533568 12889 net.cpp:84] Creating Layer relu5_3
I0715 10:18:58.533576 12889 net.cpp:406] relu5_3 <- conv5_3
I0715 10:18:58.533591 12889 net.cpp:367] relu5_3 -> conv5_3 (in-place)
I0715 10:18:58.534739 12889 net.cpp:122] Setting up relu5_3
I0715 10:18:58.534756 12889 net.cpp:129] Top shape: 1 512 45 32 (737280)
I0715 10:18:58.534771 12889 net.cpp:137] Memory required for data: 858727948
I0715 10:18:58.534776 12889 layer_factory.hpp:77] Creating layer pool5
I0715 10:18:58.534787 12889 net.cpp:84] Creating Layer pool5
I0715 10:18:58.534792 12889 net.cpp:406] pool5 <- conv5_3
I0715 10:18:58.534808 12889 net.cpp:380] pool5 -> pool5
I0715 10:18:58.534896 12889 net.cpp:122] Setting up pool5
I0715 10:18:58.534906 12889 net.cpp:129] Top shape: 1 512 23 16 (188416)
I0715 10:18:58.534910 12889 net.cpp:137] Memory required for data: 859481612
I0715 10:18:58.534914 12889 layer_factory.hpp:77] Creating layer fc6
I0715 10:18:58.534929 12889 net.cpp:84] Creating Layer fc6
I0715 10:18:58.534937 12889 net.cpp:406] fc6 <- pool5
I0715 10:18:58.534946 12889 net.cpp:380] fc6 -> fc6
I0715 10:18:58.986074 12889 net.cpp:122] Setting up fc6
I0715 10:18:58.986156 12889 net.cpp:129] Top shape: 1 4096 17 10 (696320)
I0715 10:18:58.986163 12889 net.cpp:137] Memory required for data: 862266892
I0715 10:18:58.986208 12889 layer_factory.hpp:77] Creating layer relu6
I0715 10:18:58.986237 12889 net.cpp:84] Creating Layer relu6
I0715 10:18:58.986258 12889 net.cpp:406] relu6 <- fc6
I0715 10:18:58.986279 12889 net.cpp:367] relu6 -> fc6 (in-place)
I0715 10:18:58.986883 12889 net.cpp:122] Setting up relu6
I0715 10:18:58.986898 12889 net.cpp:129] Top shape: 1 4096 17 10 (696320)
I0715 10:18:58.986904 12889 net.cpp:137] Memory required for data: 865052172
I0715 10:18:58.986910 12889 layer_factory.hpp:77] Creating layer drop6
I0715 10:18:58.986940 12889 net.cpp:84] Creating Layer drop6
I0715 10:18:58.986951 12889 net.cpp:406] drop6 <- fc6
I0715 10:18:58.986963 12889 net.cpp:367] drop6 -> fc6 (in-place)
I0715 10:18:58.987052 12889 net.cpp:122] Setting up drop6
I0715 10:18:58.987066 12889 net.cpp:129] Top shape: 1 4096 17 10 (696320)
I0715 10:18:58.987072 12889 net.cpp:137] Memory required for data: 867837452
I0715 10:18:58.987076 12889 layer_factory.hpp:77] Creating layer fc7
I0715 10:18:58.987094 12889 net.cpp:84] Creating Layer fc7
I0715 10:18:58.987105 12889 net.cpp:406] fc7 <- fc6
I0715 10:18:58.987136 12889 net.cpp:380] fc7 -> fc7
I0715 10:18:59.084687 12889 net.cpp:122] Setting up fc7
I0715 10:18:59.084749 12889 net.cpp:129] Top shape: 1 4096 17 10 (696320)
I0715 10:18:59.084756 12889 net.cpp:137] Memory required for data: 870622732
I0715 10:18:59.084789 12889 layer_factory.hpp:77] Creating layer relu7
I0715 10:18:59.084815 12889 net.cpp:84] Creating Layer relu7
I0715 10:18:59.084831 12889 net.cpp:406] relu7 <- fc7
I0715 10:18:59.084849 12889 net.cpp:367] relu7 -> fc7 (in-place)
I0715 10:18:59.085397 12889 net.cpp:122] Setting up relu7
I0715 10:18:59.085430 12889 net.cpp:129] Top shape: 1 4096 17 10 (696320)
I0715 10:18:59.085435 12889 net.cpp:137] Memory required for data: 873408012
I0715 10:18:59.085460 12889 layer_factory.hpp:77] Creating layer drop7
I0715 10:18:59.085479 12889 net.cpp:84] Creating Layer drop7
I0715 10:18:59.085501 12889 net.cpp:406] drop7 <- fc7
I0715 10:18:59.085531 12889 net.cpp:367] drop7 -> fc7 (in-place)
I0715 10:18:59.085630 12889 net.cpp:122] Setting up drop7
I0715 10:18:59.085654 12889 net.cpp:129] Top shape: 1 4096 17 10 (696320)
I0715 10:18:59.085659 12889 net.cpp:137] Memory required for data: 876193292
I0715 10:18:59.085666 12889 layer_factory.hpp:77] Creating layer score_fr-new
I0715 10:18:59.085685 12889 net.cpp:84] Creating Layer score_fr-new
I0715 10:18:59.085691 12889 net.cpp:406] score_fr-new <- fc7
I0715 10:18:59.085705 12889 net.cpp:380] score_fr-new -> score_fr-new
I0715 10:18:59.090319 12889 net.cpp:122] Setting up score_fr-new
I0715 10:18:59.090371 12889 net.cpp:129] Top shape: 1 3 17 10 (510)
I0715 10:18:59.090384 12889 net.cpp:137] Memory required for data: 876195332
I0715 10:18:59.090399 12889 layer_factory.hpp:77] Creating layer upscore2-new
I0715 10:18:59.090440 12889 net.cpp:84] Creating Layer upscore2-new
I0715 10:18:59.090448 12889 net.cpp:406] upscore2-new <- score_fr-new
I0715 10:18:59.090471 12889 net.cpp:380] upscore2-new -> upscore2-new
I0715 10:18:59.091310 12889 net.cpp:122] Setting up upscore2-new
I0715 10:18:59.091342 12889 net.cpp:129] Top shape: 1 3 36 22 (2376)
I0715 10:18:59.091346 12889 net.cpp:137] Memory required for data: 876204836
I0715 10:18:59.091368 12889 layer_factory.hpp:77] Creating layer upscore2-new_upscore2-new_0_split
I0715 10:18:59.091401 12889 net.cpp:84] Creating Layer upscore2-new_upscore2-new_0_split
I0715 10:18:59.091410 12889 net.cpp:406] upscore2-new_upscore2-new_0_split <- upscore2-new
I0715 10:18:59.091424 12889 net.cpp:380] upscore2-new_upscore2-new_0_split -> upscore2-new_upscore2-new_0_split_0
I0715 10:18:59.091441 12889 net.cpp:380] upscore2-new_upscore2-new_0_split -> upscore2-new_upscore2-new_0_split_1
I0715 10:18:59.091601 12889 net.cpp:122] Setting up upscore2-new_upscore2-new_0_split
I0715 10:18:59.091619 12889 net.cpp:129] Top shape: 1 3 36 22 (2376)
I0715 10:18:59.091634 12889 net.cpp:129] Top shape: 1 3 36 22 (2376)
I0715 10:18:59.091645 12889 net.cpp:137] Memory required for data: 876223844
I0715 10:18:59.091653 12889 layer_factory.hpp:77] Creating layer score_pool4-new
I0715 10:18:59.091678 12889 net.cpp:84] Creating Layer score_pool4-new
I0715 10:18:59.091687 12889 net.cpp:406] score_pool4-new <- pool4_pool4_0_split_1
I0715 10:18:59.091699 12889 net.cpp:380] score_pool4-new -> score_pool4-new
I0715 10:18:59.095237 12889 net.cpp:122] Setting up score_pool4-new
I0715 10:18:59.095312 12889 net.cpp:129] Top shape: 1 3 45 32 (4320)
I0715 10:18:59.095319 12889 net.cpp:137] Memory required for data: 876241124
I0715 10:18:59.095340 12889 layer_factory.hpp:77] Creating layer score_pool4c
I0715 10:18:59.095358 12889 net.cpp:84] Creating Layer score_pool4c
I0715 10:18:59.095368 12889 net.cpp:406] score_pool4c <- score_pool4-new
I0715 10:18:59.095402 12889 net.cpp:406] score_pool4c <- upscore2-new_upscore2-new_0_split_0
I0715 10:18:59.095418 12889 net.cpp:380] score_pool4c -> score_pool4c
I0715 10:18:59.095530 12889 net.cpp:122] Setting up score_pool4c
I0715 10:18:59.095547 12889 net.cpp:129] Top shape: 1 3 36 22 (2376)
I0715 10:18:59.095556 12889 net.cpp:137] Memory required for data: 876250628
I0715 10:18:59.095564 12889 layer_factory.hpp:77] Creating layer fuse_pool4
I0715 10:18:59.095587 12889 net.cpp:84] Creating Layer fuse_pool4
I0715 10:18:59.095599 12889 net.cpp:406] fuse_pool4 <- upscore2-new_upscore2-new_0_split_1
I0715 10:18:59.095610 12889 net.cpp:406] fuse_pool4 <- score_pool4c
I0715 10:18:59.095651 12889 net.cpp:380] fuse_pool4 -> fuse_pool4
I0715 10:18:59.095751 12889 net.cpp:122] Setting up fuse_pool4
I0715 10:18:59.095762 12889 net.cpp:129] Top shape: 1 3 36 22 (2376)
I0715 10:18:59.095767 12889 net.cpp:137] Memory required for data: 876260132
I0715 10:18:59.095774 12889 layer_factory.hpp:77] Creating layer upscore_pool4-new
I0715 10:18:59.095788 12889 net.cpp:84] Creating Layer upscore_pool4-new
I0715 10:18:59.095795 12889 net.cpp:406] upscore_pool4-new <- fuse_pool4
I0715 10:18:59.095804 12889 net.cpp:380] upscore_pool4-new -> upscore_pool4-new
I0715 10:18:59.096429 12889 net.cpp:122] Setting up upscore_pool4-new
I0715 10:18:59.096457 12889 net.cpp:129] Top shape: 1 3 74 46 (10212)
I0715 10:18:59.096465 12889 net.cpp:137] Memory required for data: 876300980
I0715 10:18:59.096483 12889 layer_factory.hpp:77] Creating layer upscore_pool4-new_upscore_pool4-new_0_split
I0715 10:18:59.096500 12889 net.cpp:84] Creating Layer upscore_pool4-new_upscore_pool4-new_0_split
I0715 10:18:59.096516 12889 net.cpp:406] upscore_pool4-new_upscore_pool4-new_0_split <- upscore_pool4-new
I0715 10:18:59.096530 12889 net.cpp:380] upscore_pool4-new_upscore_pool4-new_0_split -> upscore_pool4-new_upscore_pool4-new_0_split_0
I0715 10:18:59.096554 12889 net.cpp:380] upscore_pool4-new_upscore_pool4-new_0_split -> upscore_pool4-new_upscore_pool4-new_0_split_1
I0715 10:18:59.096685 12889 net.cpp:122] Setting up upscore_pool4-new_upscore_pool4-new_0_split
I0715 10:18:59.096701 12889 net.cpp:129] Top shape: 1 3 74 46 (10212)
I0715 10:18:59.096710 12889 net.cpp:129] Top shape: 1 3 74 46 (10212)
I0715 10:18:59.096717 12889 net.cpp:137] Memory required for data: 876382676
I0715 10:18:59.096724 12889 layer_factory.hpp:77] Creating layer score_pool3-new
I0715 10:18:59.096745 12889 net.cpp:84] Creating Layer score_pool3-new
I0715 10:18:59.096753 12889 net.cpp:406] score_pool3-new <- pool3_pool3_0_split_1
I0715 10:18:59.096768 12889 net.cpp:380] score_pool3-new -> score_pool3-new
I0715 10:18:59.100366 12889 net.cpp:122] Setting up score_pool3-new
I0715 10:18:59.100407 12889 net.cpp:129] Top shape: 1 3 89 64 (17088)
I0715 10:18:59.100414 12889 net.cpp:137] Memory required for data: 876451028
I0715 10:18:59.100428 12889 layer_factory.hpp:77] Creating layer score_pool3c
I0715 10:18:59.100445 12889 net.cpp:84] Creating Layer score_pool3c
I0715 10:18:59.100451 12889 net.cpp:406] score_pool3c <- score_pool3-new
I0715 10:18:59.100461 12889 net.cpp:406] score_pool3c <- upscore_pool4-new_upscore_pool4-new_0_split_0
I0715 10:18:59.100472 12889 net.cpp:380] score_pool3c -> score_pool3c
I0715 10:18:59.100561 12889 net.cpp:122] Setting up score_pool3c
I0715 10:18:59.100574 12889 net.cpp:129] Top shape: 1 3 74 46 (10212)
I0715 10:18:59.100579 12889 net.cpp:137] Memory required for data: 876491876
I0715 10:18:59.100585 12889 layer_factory.hpp:77] Creating layer fuse_pool3
I0715 10:18:59.100598 12889 net.cpp:84] Creating Layer fuse_pool3
I0715 10:18:59.100605 12889 net.cpp:406] fuse_pool3 <- upscore_pool4-new_upscore_pool4-new_0_split_1
I0715 10:18:59.100613 12889 net.cpp:406] fuse_pool3 <- score_pool3c
I0715 10:18:59.100623 12889 net.cpp:380] fuse_pool3 -> fuse_pool3
I0715 10:18:59.100706 12889 net.cpp:122] Setting up fuse_pool3
I0715 10:18:59.100721 12889 net.cpp:129] Top shape: 1 3 74 46 (10212)
I0715 10:18:59.100728 12889 net.cpp:137] Memory required for data: 876532724
I0715 10:18:59.100733 12889 layer_factory.hpp:77] Creating layer upscore8-new
I0715 10:18:59.100750 12889 net.cpp:84] Creating Layer upscore8-new
I0715 10:18:59.100761 12889 net.cpp:406] upscore8-new <- fuse_pool3
I0715 10:18:59.100774 12889 net.cpp:380] upscore8-new -> upscore8-new
I0715 10:18:59.101516 12889 net.cpp:122] Setting up upscore8-new
I0715 10:18:59.101547 12889 net.cpp:129] Top shape: 1 3 600 376 (676800)
I0715 10:18:59.101550 12889 net.cpp:137] Memory required for data: 879239924
I0715 10:18:59.101562 12889 layer_factory.hpp:77] Creating layer upscore8_cropped
I0715 10:18:59.101574 12889 net.cpp:84] Creating Layer upscore8_cropped
I0715 10:18:59.101583 12889 net.cpp:406] upscore8_cropped <- upscore8-new
I0715 10:18:59.101590 12889 net.cpp:406] upscore8_cropped <- data_data_0_split_1
I0715 10:18:59.101600 12889 net.cpp:380] upscore8_cropped -> upscore8_cropped
I0715 10:18:59.101672 12889 net.cpp:122] Setting up upscore8_cropped
I0715 10:18:59.101685 12889 net.cpp:129] Top shape: 1 3 512 310 (476160)
I0715 10:18:59.101691 12889 net.cpp:137] Memory required for data: 881144564
I0715 10:18:59.101701 12889 layer_factory.hpp:77] Creating layer upscore8_cropped_upscore8_cropped_0_split
I0715 10:18:59.101712 12889 net.cpp:84] Creating Layer upscore8_cropped_upscore8_cropped_0_split
I0715 10:18:59.101719 12889 net.cpp:406] upscore8_cropped_upscore8_cropped_0_split <- upscore8_cropped
I0715 10:18:59.101732 12889 net.cpp:380] upscore8_cropped_upscore8_cropped_0_split -> upscore8_cropped_upscore8_cropped_0_split_0
I0715 10:18:59.101743 12889 net.cpp:380] upscore8_cropped_upscore8_cropped_0_split -> upscore8_cropped_upscore8_cropped_0_split_1
I0715 10:18:59.101858 12889 net.cpp:122] Setting up upscore8_cropped_upscore8_cropped_0_split
I0715 10:18:59.101869 12889 net.cpp:129] Top shape: 1 3 512 310 (476160)
I0715 10:18:59.101878 12889 net.cpp:129] Top shape: 1 3 512 310 (476160)
I0715 10:18:59.101884 12889 net.cpp:137] Memory required for data: 884953844
I0715 10:18:59.101891 12889 layer_factory.hpp:77] Creating layer prob
I0715 10:18:59.101902 12889 net.cpp:84] Creating Layer prob
I0715 10:18:59.101912 12889 net.cpp:406] prob <- upscore8_cropped_upscore8_cropped_0_split_0
I0715 10:18:59.101922 12889 net.cpp:380] prob -> prob
I0715 10:18:59.102429 12889 net.cpp:122] Setting up prob
I0715 10:18:59.102464 12889 net.cpp:129] Top shape: 1 3 512 310 (476160)
I0715 10:18:59.102470 12889 net.cpp:137] Memory required for data: 886858484
I0715 10:18:59.102480 12889 layer_factory.hpp:77] Creating layer saliency1
I0715 10:18:59.102504 12889 net.cpp:84] Creating Layer saliency1
I0715 10:18:59.102512 12889 net.cpp:406] saliency1 <- prob
I0715 10:18:59.102529 12889 net.cpp:380] saliency1 -> saliency1
I0715 10:18:59.106590 12889 net.cpp:122] Setting up saliency1
I0715 10:18:59.106637 12889 net.cpp:129] Top shape: 1 3 512 310 (476160)
I0715 10:18:59.106640 12889 net.cpp:137] Memory required for data: 888763124
I0715 10:18:59.106657 12889 layer_factory.hpp:77] Creating layer relu_saliency1
I0715 10:18:59.106675 12889 net.cpp:84] Creating Layer relu_saliency1
I0715 10:18:59.106684 12889 net.cpp:406] relu_saliency1 <- saliency1
I0715 10:18:59.106696 12889 net.cpp:367] relu_saliency1 -> saliency1 (in-place)
I0715 10:18:59.107230 12889 net.cpp:122] Setting up relu_saliency1
I0715 10:18:59.107264 12889 net.cpp:129] Top shape: 1 3 512 310 (476160)
I0715 10:18:59.107297 12889 net.cpp:137] Memory required for data: 890667764
I0715 10:18:59.107303 12889 layer_factory.hpp:77] Creating layer saliency
I0715 10:18:59.107328 12889 net.cpp:84] Creating Layer saliency
I0715 10:18:59.107338 12889 net.cpp:406] saliency <- saliency1
I0715 10:18:59.107353 12889 net.cpp:380] saliency -> saliency
I0715 10:18:59.111196 12889 net.cpp:122] Setting up saliency
I0715 10:18:59.111240 12889 net.cpp:129] Top shape: 1 3 512 310 (476160)
I0715 10:18:59.111250 12889 net.cpp:137] Memory required for data: 892572404
I0715 10:18:59.111263 12889 layer_factory.hpp:77] Creating layer saliency_data
I0715 10:18:59.111305 12889 net.cpp:84] Creating Layer saliency_data
I0715 10:18:59.111315 12889 net.cpp:406] saliency_data <- data_data_0_split_2
I0715 10:18:59.111344 12889 net.cpp:406] saliency_data <- saliency
I0715 10:18:59.111358 12889 net.cpp:380] saliency_data -> saliency_data
I0715 10:18:59.111490 12889 net.cpp:122] Setting up saliency_data
I0715 10:18:59.111508 12889 net.cpp:129] Top shape: 1 3 512 310 (476160)
I0715 10:18:59.111516 12889 net.cpp:137] Memory required for data: 894477044
I0715 10:18:59.111526 12889 layer_factory.hpp:77] Creating layer crop
I0715 10:18:59.111665 12889 net.cpp:84] Creating Layer crop
I0715 10:18:59.111677 12889 net.cpp:406] crop <- label_data_1_split_0
I0715 10:18:59.111685 12889 net.cpp:406] crop <- saliency_data
I0715 10:18:59.111694 12889 net.cpp:406] crop <- crop_margin
I0715 10:18:59.111702 12889 net.cpp:406] crop <- crop_prob
I0715 10:18:59.111709 12889 net.cpp:406] crop <- crop_sample_batch
I0715 10:18:59.111723 12889 net.cpp:380] crop -> data-R
I0715 10:18:59.111738 12889 net.cpp:380] crop -> crop_info
I0715 10:18:59.121871 12889 net.cpp:122] Setting up crop
I0715 10:18:59.121919 12889 net.cpp:129] Top shape: 1 3 512 310 (476160)
I0715 10:18:59.121934 12889 net.cpp:129] Top shape: 1 2 4 (8)
I0715 10:18:59.121938 12889 net.cpp:137] Memory required for data: 896381716
I0715 10:18:59.121950 12889 layer_factory.hpp:77] Creating layer data-R_crop_0_split
I0715 10:18:59.121961 12889 net.cpp:84] Creating Layer data-R_crop_0_split
I0715 10:18:59.121971 12889 net.cpp:406] data-R_crop_0_split <- data-R
I0715 10:18:59.121981 12889 net.cpp:380] data-R_crop_0_split -> data-R_crop_0_split_0
I0715 10:18:59.122000 12889 net.cpp:380] data-R_crop_0_split -> data-R_crop_0_split_1
I0715 10:18:59.122120 12889 net.cpp:122] Setting up data-R_crop_0_split
I0715 10:18:59.122136 12889 net.cpp:129] Top shape: 1 3 512 310 (476160)
I0715 10:18:59.122145 12889 net.cpp:129] Top shape: 1 3 512 310 (476160)
I0715 10:18:59.122153 12889 net.cpp:137] Memory required for data: 900190996
I0715 10:18:59.122159 12889 layer_factory.hpp:77] Creating layer conv1_1-R
I0715 10:18:59.122177 12889 net.cpp:84] Creating Layer conv1_1-R
I0715 10:18:59.122186 12889 net.cpp:406] conv1_1-R <- data-R_crop_0_split_0
I0715 10:18:59.122200 12889 net.cpp:380] conv1_1-R -> conv1_1-R
I0715 10:18:59.130949 12889 net.cpp:122] Setting up conv1_1-R
I0715 10:18:59.130993 12889 net.cpp:129] Top shape: 1 64 710 508 (23083520)
I0715 10:18:59.131003 12889 net.cpp:137] Memory required for data: 992525076
I0715 10:18:59.131021 12889 layer_factory.hpp:77] Creating layer relu1_1-R
I0715 10:18:59.131058 12889 net.cpp:84] Creating Layer relu1_1-R
I0715 10:18:59.131065 12889 net.cpp:406] relu1_1-R <- conv1_1-R
I0715 10:18:59.131075 12889 net.cpp:367] relu1_1-R -> conv1_1-R (in-place)
I0715 10:18:59.131582 12889 net.cpp:122] Setting up relu1_1-R
I0715 10:18:59.131603 12889 net.cpp:129] Top shape: 1 64 710 508 (23083520)
I0715 10:18:59.131608 12889 net.cpp:137] Memory required for data: 1084859156
I0715 10:18:59.131621 12889 layer_factory.hpp:77] Creating layer conv1_2-R
I0715 10:18:59.131640 12889 net.cpp:84] Creating Layer conv1_2-R
I0715 10:18:59.131649 12889 net.cpp:406] conv1_2-R <- conv1_1-R
I0715 10:18:59.131661 12889 net.cpp:380] conv1_2-R -> conv1_2-R
I0715 10:18:59.139261 12889 net.cpp:122] Setting up conv1_2-R
I0715 10:18:59.139314 12889 net.cpp:129] Top shape: 1 64 710 508 (23083520)
I0715 10:18:59.139323 12889 net.cpp:137] Memory required for data: 1177193236
I0715 10:18:59.139338 12889 layer_factory.hpp:77] Creating layer relu1_2-R
I0715 10:18:59.139351 12889 net.cpp:84] Creating Layer relu1_2-R
I0715 10:18:59.139358 12889 net.cpp:406] relu1_2-R <- conv1_2-R
I0715 10:18:59.139372 12889 net.cpp:367] relu1_2-R -> conv1_2-R (in-place)
I0715 10:18:59.139835 12889 net.cpp:122] Setting up relu1_2-R
I0715 10:18:59.139868 12889 net.cpp:129] Top shape: 1 64 710 508 (23083520)
I0715 10:18:59.139876 12889 net.cpp:137] Memory required for data: 1269527316
I0715 10:18:59.139886 12889 layer_factory.hpp:77] Creating layer pool1-R
I0715 10:18:59.139901 12889 net.cpp:84] Creating Layer pool1-R
I0715 10:18:59.139909 12889 net.cpp:406] pool1-R <- conv1_2-R
I0715 10:18:59.139919 12889 net.cpp:380] pool1-R -> pool1-R
I0715 10:18:59.140058 12889 net.cpp:122] Setting up pool1-R
I0715 10:18:59.140072 12889 net.cpp:129] Top shape: 1 64 355 254 (5770880)
I0715 10:18:59.140081 12889 net.cpp:137] Memory required for data: 1292610836
I0715 10:18:59.140086 12889 layer_factory.hpp:77] Creating layer conv2_1-R
I0715 10:18:59.140105 12889 net.cpp:84] Creating Layer conv2_1-R
I0715 10:18:59.140110 12889 net.cpp:406] conv2_1-R <- pool1-R
I0715 10:18:59.140120 12889 net.cpp:380] conv2_1-R -> conv2_1-R
I0715 10:18:59.143743 12889 net.cpp:122] Setting up conv2_1-R
I0715 10:18:59.143787 12889 net.cpp:129] Top shape: 1 128 355 254 (11541760)
I0715 10:18:59.143796 12889 net.cpp:137] Memory required for data: 1338777876
I0715 10:18:59.143810 12889 layer_factory.hpp:77] Creating layer relu2_1-R
I0715 10:18:59.143821 12889 net.cpp:84] Creating Layer relu2_1-R
I0715 10:18:59.143829 12889 net.cpp:406] relu2_1-R <- conv2_1-R
I0715 10:18:59.143837 12889 net.cpp:367] relu2_1-R -> conv2_1-R (in-place)
I0715 10:18:59.144264 12889 net.cpp:122] Setting up relu2_1-R
I0715 10:18:59.144296 12889 net.cpp:129] Top shape: 1 128 355 254 (11541760)
I0715 10:18:59.144305 12889 net.cpp:137] Memory required for data: 1384944916
I0715 10:18:59.144313 12889 layer_factory.hpp:77] Creating layer conv2_2-R
I0715 10:18:59.144330 12889 net.cpp:84] Creating Layer conv2_2-R
I0715 10:18:59.144335 12889 net.cpp:406] conv2_2-R <- conv2_1-R
I0715 10:18:59.144345 12889 net.cpp:380] conv2_2-R -> conv2_2-R
I0715 10:18:59.149438 12889 net.cpp:122] Setting up conv2_2-R
I0715 10:18:59.149478 12889 net.cpp:129] Top shape: 1 128 355 254 (11541760)
I0715 10:18:59.149484 12889 net.cpp:137] Memory required for data: 1431111956
I0715 10:18:59.149502 12889 layer_factory.hpp:77] Creating layer relu2_2-R
I0715 10:18:59.149514 12889 net.cpp:84] Creating Layer relu2_2-R
I0715 10:18:59.149523 12889 net.cpp:406] relu2_2-R <- conv2_2-R
I0715 10:18:59.149535 12889 net.cpp:367] relu2_2-R -> conv2_2-R (in-place)
I0715 10:18:59.151191 12889 net.cpp:122] Setting up relu2_2-R
I0715 10:18:59.151229 12889 net.cpp:129] Top shape: 1 128 355 254 (11541760)
I0715 10:18:59.151237 12889 net.cpp:137] Memory required for data: 1477278996
I0715 10:18:59.151247 12889 layer_factory.hpp:77] Creating layer pool2-R
I0715 10:18:59.151265 12889 net.cpp:84] Creating Layer pool2-R
I0715 10:18:59.151273 12889 net.cpp:406] pool2-R <- conv2_2-R
I0715 10:18:59.151299 12889 net.cpp:380] pool2-R -> pool2-R
I0715 10:18:59.151404 12889 net.cpp:122] Setting up pool2-R
I0715 10:18:59.151418 12889 net.cpp:129] Top shape: 1 128 178 127 (2893568)
I0715 10:18:59.151424 12889 net.cpp:137] Memory required for data: 1488853268
I0715 10:18:59.151428 12889 layer_factory.hpp:77] Creating layer conv3_1-R
I0715 10:18:59.151454 12889 net.cpp:84] Creating Layer conv3_1-R
I0715 10:18:59.151464 12889 net.cpp:406] conv3_1-R <- pool2-R
I0715 10:18:59.151479 12889 net.cpp:380] conv3_1-R -> conv3_1-R
I0715 10:18:59.159807 12889 net.cpp:122] Setting up conv3_1-R
I0715 10:18:59.159852 12889 net.cpp:129] Top shape: 1 256 178 127 (5787136)
I0715 10:18:59.159857 12889 net.cpp:137] Memory required for data: 1512001812
I0715 10:18:59.159874 12889 layer_factory.hpp:77] Creating layer relu3_1-R
I0715 10:18:59.159893 12889 net.cpp:84] Creating Layer relu3_1-R
I0715 10:18:59.159899 12889 net.cpp:406] relu3_1-R <- conv3_1-R
I0715 10:18:59.159912 12889 net.cpp:367] relu3_1-R -> conv3_1-R (in-place)
I0715 10:18:59.160449 12889 net.cpp:122] Setting up relu3_1-R
I0715 10:18:59.160487 12889 net.cpp:129] Top shape: 1 256 178 127 (5787136)
I0715 10:18:59.160496 12889 net.cpp:137] Memory required for data: 1535150356
I0715 10:18:59.160504 12889 layer_factory.hpp:77] Creating layer conv3_2-R
I0715 10:18:59.160518 12889 net.cpp:84] Creating Layer conv3_2-R
I0715 10:18:59.160526 12889 net.cpp:406] conv3_2-R <- conv3_1-R
I0715 10:18:59.160540 12889 net.cpp:380] conv3_2-R -> conv3_2-R
I0715 10:18:59.170308 12889 net.cpp:122] Setting up conv3_2-R
I0715 10:18:59.170356 12889 net.cpp:129] Top shape: 1 256 178 127 (5787136)
I0715 10:18:59.170364 12889 net.cpp:137] Memory required for data: 1558298900
I0715 10:18:59.170383 12889 layer_factory.hpp:77] Creating layer relu3_2-R
I0715 10:18:59.170399 12889 net.cpp:84] Creating Layer relu3_2-R
I0715 10:18:59.170408 12889 net.cpp:406] relu3_2-R <- conv3_2-R
I0715 10:18:59.170418 12889 net.cpp:367] relu3_2-R -> conv3_2-R (in-place)
I0715 10:18:59.170935 12889 net.cpp:122] Setting up relu3_2-R
I0715 10:18:59.170974 12889 net.cpp:129] Top shape: 1 256 178 127 (5787136)
I0715 10:18:59.170979 12889 net.cpp:137] Memory required for data: 1581447444
I0715 10:18:59.170986 12889 layer_factory.hpp:77] Creating layer conv3_3-R
I0715 10:18:59.171005 12889 net.cpp:84] Creating Layer conv3_3-R
I0715 10:18:59.171031 12889 net.cpp:406] conv3_3-R <- conv3_2-R
I0715 10:18:59.171046 12889 net.cpp:380] conv3_3-R -> conv3_3-R
I0715 10:18:59.180016 12889 net.cpp:122] Setting up conv3_3-R
I0715 10:18:59.180053 12889 net.cpp:129] Top shape: 1 256 178 127 (5787136)
I0715 10:18:59.180060 12889 net.cpp:137] Memory required for data: 1604595988
I0715 10:18:59.180074 12889 layer_factory.hpp:77] Creating layer relu3_3-R
I0715 10:18:59.180088 12889 net.cpp:84] Creating Layer relu3_3-R
I0715 10:18:59.180109 12889 net.cpp:406] relu3_3-R <- conv3_3-R
I0715 10:18:59.180121 12889 net.cpp:367] relu3_3-R -> conv3_3-R (in-place)
I0715 10:18:59.180549 12889 net.cpp:122] Setting up relu3_3-R
I0715 10:18:59.180596 12889 net.cpp:129] Top shape: 1 256 178 127 (5787136)
I0715 10:18:59.180603 12889 net.cpp:137] Memory required for data: 1627744532
I0715 10:18:59.180624 12889 layer_factory.hpp:77] Creating layer pool3-R
I0715 10:18:59.180649 12889 net.cpp:84] Creating Layer pool3-R
I0715 10:18:59.180658 12889 net.cpp:406] pool3-R <- conv3_3-R
I0715 10:18:59.180687 12889 net.cpp:380] pool3-R -> pool3-R
I0715 10:18:59.180851 12889 net.cpp:122] Setting up pool3-R
I0715 10:18:59.180871 12889 net.cpp:129] Top shape: 1 256 89 64 (1458176)
I0715 10:18:59.180876 12889 net.cpp:137] Memory required for data: 1633577236
I0715 10:18:59.180902 12889 layer_factory.hpp:77] Creating layer pool3-R_pool3-R_0_split
I0715 10:18:59.180918 12889 net.cpp:84] Creating Layer pool3-R_pool3-R_0_split
I0715 10:18:59.180925 12889 net.cpp:406] pool3-R_pool3-R_0_split <- pool3-R
I0715 10:18:59.180941 12889 net.cpp:380] pool3-R_pool3-R_0_split -> pool3-R_pool3-R_0_split_0
I0715 10:18:59.180955 12889 net.cpp:380] pool3-R_pool3-R_0_split -> pool3-R_pool3-R_0_split_1
I0715 10:18:59.181078 12889 net.cpp:122] Setting up pool3-R_pool3-R_0_split
I0715 10:18:59.181090 12889 net.cpp:129] Top shape: 1 256 89 64 (1458176)
I0715 10:18:59.181102 12889 net.cpp:129] Top shape: 1 256 89 64 (1458176)
I0715 10:18:59.181110 12889 net.cpp:137] Memory required for data: 1645242644
I0715 10:18:59.181114 12889 layer_factory.hpp:77] Creating layer conv4_1-R
I0715 10:18:59.181135 12889 net.cpp:84] Creating Layer conv4_1-R
I0715 10:18:59.181143 12889 net.cpp:406] conv4_1-R <- pool3-R_pool3-R_0_split_0
I0715 10:18:59.181156 12889 net.cpp:380] conv4_1-R -> conv4_1-R
I0715 10:18:59.197434 12889 net.cpp:122] Setting up conv4_1-R
I0715 10:18:59.197502 12889 net.cpp:129] Top shape: 1 512 89 64 (2916352)
I0715 10:18:59.197515 12889 net.cpp:137] Memory required for data: 1656908052
I0715 10:18:59.197546 12889 layer_factory.hpp:77] Creating layer relu4_1-R
I0715 10:18:59.197589 12889 net.cpp:84] Creating Layer relu4_1-R
I0715 10:18:59.197610 12889 net.cpp:406] relu4_1-R <- conv4_1-R
I0715 10:18:59.197626 12889 net.cpp:367] relu4_1-R -> conv4_1-R (in-place)
I0715 10:18:59.198918 12889 net.cpp:122] Setting up relu4_1-R
I0715 10:18:59.198959 12889 net.cpp:129] Top shape: 1 512 89 64 (2916352)
I0715 10:18:59.198966 12889 net.cpp:137] Memory required for data: 1668573460
I0715 10:18:59.198978 12889 layer_factory.hpp:77] Creating layer conv4_2-R
I0715 10:18:59.199053 12889 net.cpp:84] Creating Layer conv4_2-R
I0715 10:18:59.199076 12889 net.cpp:406] conv4_2-R <- conv4_1-R
I0715 10:18:59.199107 12889 net.cpp:380] conv4_2-R -> conv4_2-R
I0715 10:18:59.226091 12889 net.cpp:122] Setting up conv4_2-R
I0715 10:18:59.226140 12889 net.cpp:129] Top shape: 1 512 89 64 (2916352)
I0715 10:18:59.226153 12889 net.cpp:137] Memory required for data: 1680238868
I0715 10:18:59.226176 12889 layer_factory.hpp:77] Creating layer relu4_2-R
I0715 10:18:59.226222 12889 net.cpp:84] Creating Layer relu4_2-R
I0715 10:18:59.226234 12889 net.cpp:406] relu4_2-R <- conv4_2-R
I0715 10:18:59.226241 12889 net.cpp:367] relu4_2-R -> conv4_2-R (in-place)
I0715 10:18:59.226909 12889 net.cpp:122] Setting up relu4_2-R
I0715 10:18:59.226967 12889 net.cpp:129] Top shape: 1 512 89 64 (2916352)
I0715 10:18:59.226974 12889 net.cpp:137] Memory required for data: 1691904276
I0715 10:18:59.227005 12889 layer_factory.hpp:77] Creating layer conv4_3-R
I0715 10:18:59.227039 12889 net.cpp:84] Creating Layer conv4_3-R
I0715 10:18:59.227044 12889 net.cpp:406] conv4_3-R <- conv4_2-R
I0715 10:18:59.227058 12889 net.cpp:380] conv4_3-R -> conv4_3-R
I0715 10:18:59.247248 12889 net.cpp:122] Setting up conv4_3-R
I0715 10:18:59.247325 12889 net.cpp:129] Top shape: 1 512 89 64 (2916352)
I0715 10:18:59.247364 12889 net.cpp:137] Memory required for data: 1703569684
I0715 10:18:59.247386 12889 layer_factory.hpp:77] Creating layer relu4_3-R
I0715 10:18:59.247423 12889 net.cpp:84] Creating Layer relu4_3-R
I0715 10:18:59.247444 12889 net.cpp:406] relu4_3-R <- conv4_3-R
I0715 10:18:59.247463 12889 net.cpp:367] relu4_3-R -> conv4_3-R (in-place)
I0715 10:18:59.249797 12889 net.cpp:122] Setting up relu4_3-R
I0715 10:18:59.249812 12889 net.cpp:129] Top shape: 1 512 89 64 (2916352)
I0715 10:18:59.249840 12889 net.cpp:137] Memory required for data: 1715235092
I0715 10:18:59.249845 12889 layer_factory.hpp:77] Creating layer pool4-R
I0715 10:18:59.249871 12889 net.cpp:84] Creating Layer pool4-R
I0715 10:18:59.249897 12889 net.cpp:406] pool4-R <- conv4_3-R
I0715 10:18:59.249922 12889 net.cpp:380] pool4-R -> pool4-R
I0715 10:18:59.250139 12889 net.cpp:122] Setting up pool4-R
I0715 10:18:59.250161 12889 net.cpp:129] Top shape: 1 512 45 32 (737280)
I0715 10:18:59.250167 12889 net.cpp:137] Memory required for data: 1718184212
I0715 10:18:59.250176 12889 layer_factory.hpp:77] Creating layer pool4-R_pool4-R_0_split
I0715 10:18:59.250193 12889 net.cpp:84] Creating Layer pool4-R_pool4-R_0_split
I0715 10:18:59.250207 12889 net.cpp:406] pool4-R_pool4-R_0_split <- pool4-R
I0715 10:18:59.250226 12889 net.cpp:380] pool4-R_pool4-R_0_split -> pool4-R_pool4-R_0_split_0
I0715 10:18:59.250259 12889 net.cpp:380] pool4-R_pool4-R_0_split -> pool4-R_pool4-R_0_split_1
I0715 10:18:59.250430 12889 net.cpp:122] Setting up pool4-R_pool4-R_0_split
I0715 10:18:59.250448 12889 net.cpp:129] Top shape: 1 512 45 32 (737280)
I0715 10:18:59.250463 12889 net.cpp:129] Top shape: 1 512 45 32 (737280)
I0715 10:18:59.250468 12889 net.cpp:137] Memory required for data: 1724082452
I0715 10:18:59.250473 12889 layer_factory.hpp:77] Creating layer conv5_1-R
I0715 10:18:59.250494 12889 net.cpp:84] Creating Layer conv5_1-R
I0715 10:18:59.250501 12889 net.cpp:406] conv5_1-R <- pool4-R_pool4-R_0_split_0
I0715 10:18:59.250521 12889 net.cpp:380] conv5_1-R -> conv5_1-R
I0715 10:18:59.275707 12889 net.cpp:122] Setting up conv5_1-R
I0715 10:18:59.275897 12889 net.cpp:129] Top shape: 1 512 45 32 (737280)
I0715 10:18:59.275935 12889 net.cpp:137] Memory required for data: 1727031572
I0715 10:18:59.276198 12889 layer_factory.hpp:77] Creating layer relu5_1-R
I0715 10:18:59.276278 12889 net.cpp:84] Creating Layer relu5_1-R
I0715 10:18:59.276336 12889 net.cpp:406] relu5_1-R <- conv5_1-R
I0715 10:18:59.276401 12889 net.cpp:367] relu5_1-R -> conv5_1-R (in-place)
I0715 10:18:59.278306 12889 net.cpp:122] Setting up relu5_1-R
I0715 10:18:59.278363 12889 net.cpp:129] Top shape: 1 512 45 32 (737280)
I0715 10:18:59.278389 12889 net.cpp:137] Memory required for data: 1729980692
I0715 10:18:59.278431 12889 layer_factory.hpp:77] Creating layer conv5_2-R
I0715 10:18:59.278527 12889 net.cpp:84] Creating Layer conv5_2-R
I0715 10:18:59.278568 12889 net.cpp:406] conv5_2-R <- conv5_1-R
I0715 10:18:59.278667 12889 net.cpp:380] conv5_2-R -> conv5_2-R
I0715 10:18:59.300808 12889 net.cpp:122] Setting up conv5_2-R
I0715 10:18:59.300875 12889 net.cpp:129] Top shape: 1 512 45 32 (737280)
I0715 10:18:59.300879 12889 net.cpp:137] Memory required for data: 1732929812
I0715 10:18:59.300920 12889 layer_factory.hpp:77] Creating layer relu5_2-R
I0715 10:18:59.300942 12889 net.cpp:84] Creating Layer relu5_2-R
I0715 10:18:59.300959 12889 net.cpp:406] relu5_2-R <- conv5_2-R
I0715 10:18:59.300981 12889 net.cpp:367] relu5_2-R -> conv5_2-R (in-place)
I0715 10:18:59.301600 12889 net.cpp:122] Setting up relu5_2-R
I0715 10:18:59.301642 12889 net.cpp:129] Top shape: 1 512 45 32 (737280)
I0715 10:18:59.301650 12889 net.cpp:137] Memory required for data: 1735878932
I0715 10:18:59.301657 12889 layer_factory.hpp:77] Creating layer conv5_3-R
I0715 10:18:59.301681 12889 net.cpp:84] Creating Layer conv5_3-R
I0715 10:18:59.301687 12889 net.cpp:406] conv5_3-R <- conv5_2-R
I0715 10:18:59.301702 12889 net.cpp:380] conv5_3-R -> conv5_3-R
I0715 10:18:59.319376 12889 net.cpp:122] Setting up conv5_3-R
I0715 10:18:59.319442 12889 net.cpp:129] Top shape: 1 512 45 32 (737280)
I0715 10:18:59.319450 12889 net.cpp:137] Memory required for data: 1738828052
I0715 10:18:59.319488 12889 layer_factory.hpp:77] Creating layer relu5_3-R
I0715 10:18:59.319502 12889 net.cpp:84] Creating Layer relu5_3-R
I0715 10:18:59.319509 12889 net.cpp:406] relu5_3-R <- conv5_3-R
I0715 10:18:59.319522 12889 net.cpp:367] relu5_3-R -> conv5_3-R (in-place)
I0715 10:18:59.320118 12889 net.cpp:122] Setting up relu5_3-R
I0715 10:18:59.320155 12889 net.cpp:129] Top shape: 1 512 45 32 (737280)
I0715 10:18:59.320168 12889 net.cpp:137] Memory required for data: 1741777172
I0715 10:18:59.320199 12889 layer_factory.hpp:77] Creating layer pool5-R
I0715 10:18:59.320224 12889 net.cpp:84] Creating Layer pool5-R
I0715 10:18:59.320238 12889 net.cpp:406] pool5-R <- conv5_3-R
I0715 10:18:59.320263 12889 net.cpp:380] pool5-R -> pool5-R
I0715 10:18:59.320446 12889 net.cpp:122] Setting up pool5-R
I0715 10:18:59.320456 12889 net.cpp:129] Top shape: 1 512 23 16 (188416)
I0715 10:18:59.320463 12889 net.cpp:137] Memory required for data: 1742530836
I0715 10:18:59.320469 12889 layer_factory.hpp:77] Creating layer fc6-R
I0715 10:18:59.320494 12889 net.cpp:84] Creating Layer fc6-R
I0715 10:18:59.320530 12889 net.cpp:406] fc6-R <- pool5-R
I0715 10:18:59.320549 12889 net.cpp:380] fc6-R -> fc6-R
I0715 10:18:59.918640 12889 net.cpp:122] Setting up fc6-R
I0715 10:18:59.918704 12889 net.cpp:129] Top shape: 1 4096 17 10 (696320)
I0715 10:18:59.918711 12889 net.cpp:137] Memory required for data: 1745316116
I0715 10:18:59.918731 12889 layer_factory.hpp:77] Creating layer relu6-R
I0715 10:18:59.918754 12889 net.cpp:84] Creating Layer relu6-R
I0715 10:18:59.918766 12889 net.cpp:406] relu6-R <- fc6-R
I0715 10:18:59.918802 12889 net.cpp:367] relu6-R -> fc6-R (in-place)
I0715 10:18:59.919368 12889 net.cpp:122] Setting up relu6-R
I0715 10:18:59.919389 12889 net.cpp:129] Top shape: 1 4096 17 10 (696320)
I0715 10:18:59.919394 12889 net.cpp:137] Memory required for data: 1748101396
I0715 10:18:59.919401 12889 layer_factory.hpp:77] Creating layer drop6-R
I0715 10:18:59.919435 12889 net.cpp:84] Creating Layer drop6-R
I0715 10:18:59.919467 12889 net.cpp:406] drop6-R <- fc6-R
I0715 10:18:59.919486 12889 net.cpp:367] drop6-R -> fc6-R (in-place)
I0715 10:18:59.919589 12889 net.cpp:122] Setting up drop6-R
I0715 10:18:59.919600 12889 net.cpp:129] Top shape: 1 4096 17 10 (696320)
I0715 10:18:59.919605 12889 net.cpp:137] Memory required for data: 1750886676
I0715 10:18:59.919611 12889 layer_factory.hpp:77] Creating layer fc7-R
I0715 10:18:59.919639 12889 net.cpp:84] Creating Layer fc7-R
I0715 10:18:59.919647 12889 net.cpp:406] fc7-R <- fc6-R
I0715 10:18:59.919672 12889 net.cpp:380] fc7-R -> fc7-R
I0715 10:19:00.018244 12889 net.cpp:122] Setting up fc7-R
I0715 10:19:00.018328 12889 net.cpp:129] Top shape: 1 4096 17 10 (696320)
I0715 10:19:00.018338 12889 net.cpp:137] Memory required for data: 1753671956
I0715 10:19:00.018386 12889 layer_factory.hpp:77] Creating layer relu7-R
I0715 10:19:00.018409 12889 net.cpp:84] Creating Layer relu7-R
I0715 10:19:00.018426 12889 net.cpp:406] relu7-R <- fc7-R
I0715 10:19:00.018446 12889 net.cpp:367] relu7-R -> fc7-R (in-place)
I0715 10:19:00.019028 12889 net.cpp:122] Setting up relu7-R
I0715 10:19:00.019037 12889 net.cpp:129] Top shape: 1 4096 17 10 (696320)
I0715 10:19:00.019057 12889 net.cpp:137] Memory required for data: 1756457236
I0715 10:19:00.019063 12889 layer_factory.hpp:77] Creating layer drop7-R
I0715 10:19:00.019098 12889 net.cpp:84] Creating Layer drop7-R
I0715 10:19:00.019104 12889 net.cpp:406] drop7-R <- fc7-R
I0715 10:19:00.019115 12889 net.cpp:367] drop7-R -> fc7-R (in-place)
I0715 10:19:00.019232 12889 net.cpp:122] Setting up drop7-R
I0715 10:19:00.019248 12889 net.cpp:129] Top shape: 1 4096 17 10 (696320)
I0715 10:19:00.019260 12889 net.cpp:137] Memory required for data: 1759242516
I0715 10:19:00.019264 12889 layer_factory.hpp:77] Creating layer score_fr-new-R
I0715 10:19:00.019296 12889 net.cpp:84] Creating Layer score_fr-new-R
I0715 10:19:00.019309 12889 net.cpp:406] score_fr-new-R <- fc7-R
I0715 10:19:00.019328 12889 net.cpp:380] score_fr-new-R -> score_fr-new-R
I0715 10:19:00.022966 12889 net.cpp:122] Setting up score_fr-new-R
I0715 10:19:00.023013 12889 net.cpp:129] Top shape: 1 3 17 10 (510)
I0715 10:19:00.023021 12889 net.cpp:137] Memory required for data: 1759244556
I0715 10:19:00.023052 12889 layer_factory.hpp:77] Creating layer upscore2-new-R
I0715 10:19:00.023074 12889 net.cpp:84] Creating Layer upscore2-new-R
I0715 10:19:00.023085 12889 net.cpp:406] upscore2-new-R <- score_fr-new-R
I0715 10:19:00.023105 12889 net.cpp:380] upscore2-new-R -> upscore2-new-R
I0715 10:19:00.023977 12889 net.cpp:122] Setting up upscore2-new-R
I0715 10:19:00.024009 12889 net.cpp:129] Top shape: 1 3 36 22 (2376)
I0715 10:19:00.024015 12889 net.cpp:137] Memory required for data: 1759254060
I0715 10:19:00.024025 12889 layer_factory.hpp:77] Creating layer upscore2-new-R_upscore2-new-R_0_split
I0715 10:19:00.024055 12889 net.cpp:84] Creating Layer upscore2-new-R_upscore2-new-R_0_split
I0715 10:19:00.024065 12889 net.cpp:406] upscore2-new-R_upscore2-new-R_0_split <- upscore2-new-R
I0715 10:19:00.024078 12889 net.cpp:380] upscore2-new-R_upscore2-new-R_0_split -> upscore2-new-R_upscore2-new-R_0_split_0
I0715 10:19:00.024099 12889 net.cpp:380] upscore2-new-R_upscore2-new-R_0_split -> upscore2-new-R_upscore2-new-R_0_split_1
I0715 10:19:00.024255 12889 net.cpp:122] Setting up upscore2-new-R_upscore2-new-R_0_split
I0715 10:19:00.024267 12889 net.cpp:129] Top shape: 1 3 36 22 (2376)
I0715 10:19:00.024276 12889 net.cpp:129] Top shape: 1 3 36 22 (2376)
I0715 10:19:00.024288 12889 net.cpp:137] Memory required for data: 1759273068
I0715 10:19:00.024292 12889 layer_factory.hpp:77] Creating layer score_pool4-new-R
I0715 10:19:00.024314 12889 net.cpp:84] Creating Layer score_pool4-new-R
I0715 10:19:00.024332 12889 net.cpp:406] score_pool4-new-R <- pool4-R_pool4-R_0_split_1
I0715 10:19:00.024350 12889 net.cpp:380] score_pool4-new-R -> score_pool4-new-R
I0715 10:19:00.028195 12889 net.cpp:122] Setting up score_pool4-new-R
I0715 10:19:00.028226 12889 net.cpp:129] Top shape: 1 3 45 32 (4320)
I0715 10:19:00.028261 12889 net.cpp:137] Memory required for data: 1759290348
I0715 10:19:00.028276 12889 layer_factory.hpp:77] Creating layer score_pool4c-R
I0715 10:19:00.028292 12889 net.cpp:84] Creating Layer score_pool4c-R
I0715 10:19:00.028302 12889 net.cpp:406] score_pool4c-R <- score_pool4-new-R
I0715 10:19:00.028318 12889 net.cpp:406] score_pool4c-R <- upscore2-new-R_upscore2-new-R_0_split_0
I0715 10:19:00.028331 12889 net.cpp:380] score_pool4c-R -> score_pool4c-R
I0715 10:19:00.028461 12889 net.cpp:122] Setting up score_pool4c-R
I0715 10:19:00.028477 12889 net.cpp:129] Top shape: 1 3 36 22 (2376)
I0715 10:19:00.028486 12889 net.cpp:137] Memory required for data: 1759299852
I0715 10:19:00.028491 12889 layer_factory.hpp:77] Creating layer fuse_pool4-R
I0715 10:19:00.028509 12889 net.cpp:84] Creating Layer fuse_pool4-R
I0715 10:19:00.028518 12889 net.cpp:406] fuse_pool4-R <- upscore2-new-R_upscore2-new-R_0_split_1
I0715 10:19:00.028532 12889 net.cpp:406] fuse_pool4-R <- score_pool4c-R
I0715 10:19:00.028545 12889 net.cpp:380] fuse_pool4-R -> fuse_pool4-R
I0715 10:19:00.028636 12889 net.cpp:122] Setting up fuse_pool4-R
I0715 10:19:00.028656 12889 net.cpp:129] Top shape: 1 3 36 22 (2376)
I0715 10:19:00.028664 12889 net.cpp:137] Memory required for data: 1759309356
I0715 10:19:00.028671 12889 layer_factory.hpp:77] Creating layer upscore_pool4-new-R
I0715 10:19:00.028689 12889 net.cpp:84] Creating Layer upscore_pool4-new-R
I0715 10:19:00.028697 12889 net.cpp:406] upscore_pool4-new-R <- fuse_pool4-R
I0715 10:19:00.028705 12889 net.cpp:380] upscore_pool4-new-R -> upscore_pool4-new-R
I0715 10:19:00.029613 12889 net.cpp:122] Setting up upscore_pool4-new-R
I0715 10:19:00.029649 12889 net.cpp:129] Top shape: 1 3 74 46 (10212)
I0715 10:19:00.029657 12889 net.cpp:137] Memory required for data: 1759350204
I0715 10:19:00.029672 12889 layer_factory.hpp:77] Creating layer upscore_pool4-new-R_upscore_pool4-new-R_0_split
I0715 10:19:00.029701 12889 net.cpp:84] Creating Layer upscore_pool4-new-R_upscore_pool4-new-R_0_split
I0715 10:19:00.029713 12889 net.cpp:406] upscore_pool4-new-R_upscore_pool4-new-R_0_split <- upscore_pool4-new-R
I0715 10:19:00.029739 12889 net.cpp:380] upscore_pool4-new-R_upscore_pool4-new-R_0_split -> upscore_pool4-new-R_upscore_pool4-new-R_0_split_0
I0715 10:19:00.029772 12889 net.cpp:380] upscore_pool4-new-R_upscore_pool4-new-R_0_split -> upscore_pool4-new-R_upscore_pool4-new-R_0_split_1
I0715 10:19:00.029939 12889 net.cpp:122] Setting up upscore_pool4-new-R_upscore_pool4-new-R_0_split
I0715 10:19:00.029953 12889 net.cpp:129] Top shape: 1 3 74 46 (10212)
I0715 10:19:00.029960 12889 net.cpp:129] Top shape: 1 3 74 46 (10212)
I0715 10:19:00.029968 12889 net.cpp:137] Memory required for data: 1759431900
I0715 10:19:00.029974 12889 layer_factory.hpp:77] Creating layer score_pool3-new-R
I0715 10:19:00.030002 12889 net.cpp:84] Creating Layer score_pool3-new-R
I0715 10:19:00.030011 12889 net.cpp:406] score_pool3-new-R <- pool3-R_pool3-R_0_split_1
I0715 10:19:00.030025 12889 net.cpp:380] score_pool3-new-R -> score_pool3-new-R
I0715 10:19:00.037505 12889 net.cpp:122] Setting up score_pool3-new-R
I0715 10:19:00.037565 12889 net.cpp:129] Top shape: 1 3 89 64 (17088)
I0715 10:19:00.037570 12889 net.cpp:137] Memory required for data: 1759500252
I0715 10:19:00.037607 12889 layer_factory.hpp:77] Creating layer score_pool3c-R
I0715 10:19:00.037626 12889 net.cpp:84] Creating Layer score_pool3c-R
I0715 10:19:00.037634 12889 net.cpp:406] score_pool3c-R <- score_pool3-new-R
I0715 10:19:00.037647 12889 net.cpp:406] score_pool3c-R <- upscore_pool4-new-R_upscore_pool4-new-R_0_split_0
I0715 10:19:00.037662 12889 net.cpp:380] score_pool3c-R -> score_pool3c-R
I0715 10:19:00.037753 12889 net.cpp:122] Setting up score_pool3c-R
I0715 10:19:00.037768 12889 net.cpp:129] Top shape: 1 3 74 46 (10212)
I0715 10:19:00.037775 12889 net.cpp:137] Memory required for data: 1759541100
I0715 10:19:00.037781 12889 layer_factory.hpp:77] Creating layer fuse_pool3-R
I0715 10:19:00.037793 12889 net.cpp:84] Creating Layer fuse_pool3-R
I0715 10:19:00.037806 12889 net.cpp:406] fuse_pool3-R <- upscore_pool4-new-R_upscore_pool4-new-R_0_split_1
I0715 10:19:00.037812 12889 net.cpp:406] fuse_pool3-R <- score_pool3c-R
I0715 10:19:00.037824 12889 net.cpp:380] fuse_pool3-R -> fuse_pool3-R
I0715 10:19:00.037914 12889 net.cpp:122] Setting up fuse_pool3-R
I0715 10:19:00.037940 12889 net.cpp:129] Top shape: 1 3 74 46 (10212)
I0715 10:19:00.037942 12889 net.cpp:137] Memory required for data: 1759581948
I0715 10:19:00.037946 12889 layer_factory.hpp:77] Creating layer upscore8-new-R
I0715 10:19:00.037961 12889 net.cpp:84] Creating Layer upscore8-new-R
I0715 10:19:00.037966 12889 net.cpp:406] upscore8-new-R <- fuse_pool3-R
I0715 10:19:00.037977 12889 net.cpp:380] upscore8-new-R -> upscore8-new-R
I0715 10:19:00.038789 12889 net.cpp:122] Setting up upscore8-new-R
I0715 10:19:00.038821 12889 net.cpp:129] Top shape: 1 3 600 376 (676800)
I0715 10:19:00.038830 12889 net.cpp:137] Memory required for data: 1762289148
I0715 10:19:00.038859 12889 layer_factory.hpp:77] Creating layer upscore8_cropped-R
I0715 10:19:00.038874 12889 net.cpp:84] Creating Layer upscore8_cropped-R
I0715 10:19:00.038889 12889 net.cpp:406] upscore8_cropped-R <- upscore8-new-R
I0715 10:19:00.038908 12889 net.cpp:406] upscore8_cropped-R <- data-R_crop_0_split_1
I0715 10:19:00.038919 12889 net.cpp:380] upscore8_cropped-R -> upscore8_cropped-R
I0715 10:19:00.039007 12889 net.cpp:122] Setting up upscore8_cropped-R
I0715 10:19:00.039021 12889 net.cpp:129] Top shape: 1 3 512 310 (476160)
I0715 10:19:00.039028 12889 net.cpp:137] Memory required for data: 1764193788
I0715 10:19:00.039034 12889 layer_factory.hpp:77] Creating layer upscore8_uncropped-R
I0715 10:19:00.039140 12889 net.cpp:84] Creating Layer upscore8_uncropped-R
I0715 10:19:00.039157 12889 net.cpp:406] upscore8_uncropped-R <- crop_info
I0715 10:19:00.039168 12889 net.cpp:406] upscore8_uncropped-R <- upscore8_cropped-R
I0715 10:19:00.039181 12889 net.cpp:406] upscore8_uncropped-R <- data_data_0_split_3
I0715 10:19:00.039193 12889 net.cpp:380] upscore8_uncropped-R -> upscore8_uncropped-R
I0715 10:19:00.046083 12889 net.cpp:122] Setting up upscore8_uncropped-R
I0715 10:19:00.046134 12889 net.cpp:129] Top shape: 1 3 512 310 (476160)
I0715 10:19:00.046154 12889 net.cpp:137] Memory required for data: 1766098428
I0715 10:19:00.046186 12889 layer_factory.hpp:77] Creating layer loss1
I0715 10:19:00.046221 12889 net.cpp:84] Creating Layer loss1
I0715 10:19:00.046243 12889 net.cpp:406] loss1 <- upscore8_cropped_upscore8_cropped_0_split_1
I0715 10:19:00.046272 12889 net.cpp:406] loss1 <- label_data_1_split_1
I0715 10:19:00.046304 12889 net.cpp:380] loss1 -> loss1
…
