…
snapshot_prefix: "/media/Med_2T2/data2/models/snapshots/indiv:1e-5x10,20/FD0:YI3_1_20180715_091940/train"
test_initialization: false
average_loss: 20
stepvalue: 40000
iter_size: 1
I0715 12:55:41.596806 13441 solver.cpp:77] Creating training net from train_net file: /media/Med_2T2/data2/prototxts/training_S3x10.prototxt
I0715 12:55:41.599629 13441 net.cpp:51] Initializing net from parameters: 
state {
  phase: TRAIN
}
layer {
  name: "data"
  type: "Python"
  top: "data"
  top: "label"
  top: "crop_margin"
  top: "crop_prob"
  top: "crop_sample_batch"
  python_param {
    module: "Data"
    layer: "DataLayer"
  }
}
layer {
  name: "conv1_1"
  type: "Convolution"
  bottom: "data"
  top: "conv1_1"
  param {
    lr_mult: 1
    decay_mult: 1
  }
  param {
    lr_mult: 2
    decay_mult: 0
  }
  convolution_param {
    num_output: 64
    pad: 100
    kernel_size: 3
    stride: 1
  }
}
layer {
  name: "relu1_1"
  type: "ReLU"
  bottom: "conv1_1"
  top: "conv1_1"
}
layer {
  name: "conv1_2"
  type: "Convolution"
  bottom: "conv1_1"
  top: "conv1_2"
  param {
    lr_mult: 1
    decay_mult: 1
  }
  param {
    lr_mult: 2
    decay_mult: 0
  }
  convolution_param {
    num_output: 64
    pad: 1
    kernel_size: 3
    stride: 1
  }
}
layer {
  name: "relu1_2"
  type: "ReLU"
  bottom: "conv1_2"
  top: "conv1_2"
}
layer {
  name: "pool1"
  type: "Pooling"
  bottom: "conv1_2"
  top: "pool1"
  pooling_param {
    pool: MAX
    kernel_size: 2
    stride: 2
  }
}
layer {
  name: "conv2_1"
  type: "Convolution"
  bottom: "pool1"
  top: "conv2_1"
  param {
    lr_mult: 1
    decay_mult: 1
  }
  param {
    lr_mult: 2
    decay_mult: 0
  }
  convolution_param {
    num_output: 128
    pad: 1
    kernel_size: 3
    stride: 1
  }
}
layer {
  name: "relu2_1"
  type: "ReLU"
  bottom: "conv2_1"
  top: "conv2_1"
}
layer {
  name: "conv2_2"
  type: "Convolution"
  bottom: "conv2_1"
  top: "conv2_2"
  param {
    lr_mult: 1
    decay_mult: 1
  }
  param {
    lr_mult: 2
    decay_mult: 0
  }
  convolution_param {
    num_output: 128
    pad: 1
    kernel_size: 3
    stride: 1
  }
}
layer {
  name: "relu2_2"
  type: "ReLU"
  bottom: "conv2_2"
  top: "conv2_2"
}
layer {
  name: "pool2"
  type: "Pooling"
  bottom: "conv2_2"
  top: "pool2"
  pooling_param {
    pool: MAX
    kernel_size: 2
    stride: 2
  }
}
layer {
  name: "conv3_1"
  type: "Convolution"
  bottom: "pool2"
  top: "conv3_1"
  param {
    lr_mult: 1
    decay_mult: 1
  }
  param {
    lr_mult: 2
    decay_mult: 0
  }
  convolution_param {
    num_output: 256
    pad: 1
    kernel_size: 3
    stride: 1
  }
}
layer {
  name: "relu3_1"
  type: "ReLU"
  bottom: "conv3_1"
  top: "conv3_1"
}
layer {
  name: "conv3_2"
  type: "Convolution"
  bottom: "conv3_1"
  top: "conv3_2"
  param {
    lr_mult: 1
    decay_mult: 1
  }
  param {
    lr_mult: 2
    decay_mult: 0
  }
  convolution_param {
    num_output: 256
    pad: 1
    kernel_size: 3
    stride: 1
  }
}
layer {
  name: "relu3_2"
  type: "ReLU"
  bottom: "conv3_2"
  top: "conv3_2"
}
layer {
  name: "conv3_3"
  type: "Convolution"
  bottom: "conv3_2"
  top: "conv3_3"
  param {
    lr_mult: 1
    decay_mult: 1
  }
  param {
    lr_mult: 2
    decay_mult: 0
  }
  convolution_param {
    num_output: 256
    pad: 1
    kernel_size: 3
    stride: 1
  }
}
layer {
  name: "relu3_3"
  type: "ReLU"
  bottom: "conv3_3"
  top: "conv3_3"
}
layer {
  name: "pool3"
  type: "Pooling"
  bottom: "conv3_3"
  top: "pool3"
  pooling_param {
    pool: MAX
    kernel_size: 2
    stride: 2
  }
}
layer {
  name: "conv4_1"
  type: "Convolution"
  bottom: "pool3"
  top: "conv4_1"
  param {
    lr_mult: 1
    decay_mult: 1
  }
  param {
    lr_mult: 2
    decay_mult: 0
  }
  convolution_param {
    num_output: 512
    pad: 1
    kernel_size: 3
    stride: 1
  }
}
layer {
  name: "relu4_1"
  type: "ReLU"
  bottom: "conv4_1"
  top: "conv4_1"
}
layer {
  name: "conv4_2"
  type: "Convolution"
  bottom: "conv4_1"
  top: "conv4_2"
  param {
    lr_mult: 1
    decay_mult: 1
  }
  param {
    lr_mult: 2
    decay_mult: 0
  }
  convolution_param {
    num_output: 512
    pad: 1
    kernel_size: 3
    stride: 1
  }
}
layer {
  name: "relu4_2"
  type: "ReLU"
  bottom: "conv4_2"
  top: "conv4_2"
}
layer {
  name: "conv4_3"
  type: "Convolution"
  bottom: "conv4_2"
  top: "conv4_3"
  param {
    lr_mult: 1
    decay_mult: 1
  }
  param {
    lr_mult: 2
    decay_mult: 0
  }
  convolution_param {
    num_output: 512
    pad: 1
    kernel_size: 3
    stride: 1
  }
}
layer {
  name: "relu4_3"
  type: "ReLU"
  bottom: "conv4_3"
  top: "conv4_3"
}
layer {
  name: "pool4"
  type: "Pooling"
  bottom: "conv4_3"
  top: "pool4"
  pooling_param {
    pool: MAX
    kernel_size: 2
    stride: 2
  }
}
layer {
  name: "conv5_1"
  type: "Convolution"
  bottom: "pool4"
  top: "conv5_1"
  param {
    lr_mult: 1
    decay_mult: 1
  }
  param {
    lr_mult: 2
    decay_mult: 0
  }
  convolution_param {
    num_output: 512
    pad: 1
    kernel_size: 3
    stride: 1
  }
}
layer {
  name: "relu5_1"
  type: "ReLU"
  bottom: "conv5_1"
  top: "conv5_1"
}
layer {
  name: "conv5_2"
  type: "Convolution"
  bottom: "conv5_1"
  top: "conv5_2"
  param {
    lr_mult: 1
    decay_mult: 1
  }
  param {
    lr_mult: 2
    decay_mult: 0
  }
  convolution_param {
    num_output: 512
    pad: 1
    kernel_size: 3
    stride: 1
  }
}
layer {
  name: "relu5_2"
  type: "ReLU"
  bottom: "conv5_2"
  top: "conv5_2"
}
layer {
  name: "conv5_3"
  type: "Convolution"
  bottom: "conv5_2"
  top: "conv5_3"
  param {
    lr_mult: 1
    decay_mult: 1
  }
  param {
    lr_mult: 2
    decay_mult: 0
  }
  convolution_param {
    num_output: 512
    pad: 1
    kernel_size: 3
    stride: 1
  }
}
layer {
  name: "relu5_3"
  type: "ReLU"
  bottom: "conv5_3"
  top: "conv5_3"
}
layer {
  name: "pool5"
  type: "Pooling"
  bottom: "conv5_3"
  top: "pool5"
  pooling_param {
    pool: MAX
    kernel_size: 2
    stride: 2
  }
}
layer {
  name: "fc6"
  type: "Convolution"
  bottom: "pool5"
  top: "fc6"
  param {
    lr_mult: 1
    decay_mult: 1
  }
  param {
    lr_mult: 2
    decay_mult: 0
  }
  convolution_param {
    num_output: 4096
    pad: 0
    kernel_size: 7
    stride: 1
  }
}
layer {
  name: "relu6"
  type: "ReLU"
  bottom: "fc6"
  top: "fc6"
}
layer {
  name: "drop6"
  type: "Dropout"
  bottom: "fc6"
  top: "fc6"
  dropout_param {
    dropout_ratio: 0.5
  }
}
layer {
  name: "fc7"
  type: "Convolution"
  bottom: "fc6"
  top: "fc7"
  param {
    lr_mult: 1
    decay_mult: 1
  }
  param {
    lr_mult: 2
    decay_mult: 0
  }
  convolution_param {
    num_output: 4096
    pad: 0
    kernel_size: 1
    stride: 1
  }
}
layer {
  name: "relu7"
  type: "ReLU"
  bottom: "fc7"
  top: "fc7"
}
layer {
  name: "drop7"
  type: "Dropout"
  bottom: "fc7"
  top: "fc7"
  dropout_param {
    dropout_ratio: 0.5
  }
}
layer {
  name: "score_fr-new"
  type: "Convolution"
  bottom: "fc7"
  top: "score_fr-new"
  param {
    lr_mult: 1
    decay_mult: 1
  }
  param {
    lr_mult: 2
    decay_mult: 0
  }
  convolution_param {
    num_output: 3
    kernel_size: 1
  }
}
layer {
  name: "upscore2-new"
  type: "Deconvolution"
  bottom: "score_fr-new"
  top: "upscore2-new"
  param {
    lr_mult: 0
  }
  convolution_param {
    num_output: 3
    bias_term: false
    kernel_size: 4
    stride: 2
  }
}
layer {
  name: "score_pool4-new"
  type: "Convolution"
  bottom: "pool4"
  top: "score_pool4-new"
  param {
    lr_mult: 1
    decay_mult: 1
  }
  param {
    lr_mult: 2
    decay_mult: 0
  }
  convolution_param {
    num_output: 3
    pad: 0
    kernel_size: 1
  }
}
layer {
  name: "score_pool4c"
  type: "Crop"
  bottom: "score_pool4-new"
  bottom: "upscore2-new"
  top: "score_pool4c"
  crop_param {
    axis: 2
    offset: 5
  }
}
layer {
  name: "fuse_pool4"
  type: "Eltwise"
  bottom: "upscore2-new"
  bottom: "score_pool4c"
  top: "fuse_pool4"
  eltwise_param {
    operation: SUM
  }
}
layer {
  name: "upscore_pool4-new"
  type: "Deconvolution"
  bottom: "fuse_pool4"
  top: "upscore_pool4-new"
  param {
    lr_mult: 0
  }
  convolution_param {
    num_output: 3
    bias_term: false
    kernel_size: 4
    stride: 2
  }
}
layer {
  name: "score_pool3-new"
  type: "Convolution"
  bottom: "pool3"
  top: "score_pool3-new"
  param {
    lr_mult: 1
    decay_mult: 1
  }
  param {
    lr_mult: 2
    decay_mult: 0
  }
  convolution_param {
    num_output: 3
    pad: 0
    kernel_size: 1
  }
}
layer {
  name: "score_pool3c"
  type: "Crop"
  bottom: "score_pool3-new"
  bottom: "upscore_pool4-new"
  top: "score_pool3c"
  crop_param {
    axis: 2
    offset: 9
  }
}
layer {
  name: "fuse_pool3"
  type: "Eltwise"
  bottom: "upscore_pool4-new"
  bottom: "score_pool3c"
  top: "fuse_pool3"
  eltwise_param {
    operation: SUM
  }
}
layer {
  name: "upscore8-new"
  type: "Deconvolution"
  bottom: "fuse_pool3"
  top: "upscore8-new"
  param {
    lr_mult: 0
  }
  convolution_param {
    num_output: 3
    bias_term: false
    kernel_size: 16
    stride: 8
  }
}
layer {
  name: "upscore8_cropped"
  type: "Crop"
  bottom: "upscore8-new"
  bottom: "data"
  top: "upscore8_cropped"
  crop_param {
    axis: 2
    offset: 31
  }
}
layer {
  name: "prob"
  type: "Sigmoid"
  bottom: "upscore8_cropped"
  top: "prob"
}
layer {
  name: "saliency1"
  type: "Convolution"
  bottom: "prob"
  top: "saliency1"
  param {
    lr_mult: 10
    decay_mult: 1
  }
  param {
    lr_mult: 20
    decay_mult: 0
  }
  convolution_param {
    num_output: 3
    pad: 1
    kernel_size: 3
    stride: 1
    weight_filler {
      type: "xavier"
    }
    bias_filler {
      type: "constant"
      value: 1
    }
  }
}
layer {
  name: "relu_saliency1"
  type: "ReLU"
  bottom: "saliency1"
  top: "saliency1"
}
layer {
  name: "saliency"
  type: "Convolution"
  bottom: "saliency1"
  top: "saliency"
  param {
    lr_mult: 10
    decay_mult: 1
  }
  param {
    lr_mult: 20
    decay_mult: 0
  }
  convolution_param {
    num_output: 3
    pad: 2
    kernel_size: 5
    stride: 1
    weight_filler {
      type: "xavier"
    }
    bias_filler {
      type: "constant"
      value: 1
    }
  }
}
layer {
  name: "silence_saliency"
  type: "Silence"
  bottom: "saliency"
}
layer {
  name: "crop"
  type: "Python"
  bottom: "label"
  bottom: "data"
  bottom: "crop_margin"
  bottom: "crop_prob"
  bottom: "crop_sample_batch"
  top: "data-R"
  top: "crop_info"
  python_param {
    module: "Crop"
    layer: "CropLayer"
    param_str: "{\"TEST\": 0}"
  }
}
layer {
  name: "conv1_1-R"
  type: "Convolution"
  bottom: "data-R"
  top: "conv1_1-R"
  param {
    lr_mult: 10
    decay_mult: 1
  }
  param {
    lr_mult: 20
    decay_mult: 0
  }
  convolution_param {
    num_output: 64
    pad: 100
    kernel_size: 3
    stride: 1
  }
}
layer {
  name: "relu1_1-R"
  type: "ReLU"
  bottom: "conv1_1-R"
  top: "conv1_1-R"
}
layer {
  name: "conv1_2-R"
  type: "Convolution"
  bottom: "conv1_1-R"
  top: "conv1_2-R"
  param {
    lr_mult: 10
    decay_mult: 1
  }
  param {
    lr_mult: 20
    decay_mult: 0
  }
  convolution_param {
    num_output: 64
    pad: 1
    kernel_size: 3
    stride: 1
  }
}
layer {
  name: "relu1_2-R"
  type: "ReLU"
  bottom: "conv1_2-R"
  top: "conv1_2-R"
}
layer {
  name: "pool1-R"
  type: "Pooling"
  bottom: "conv1_2-R"
  top: "pool1-R"
  pooling_param {
    pool: MAX
    kernel_size: 2
    stride: 2
  }
}
layer {
  name: "conv2_1-R"
  type: "Convolution"
  bottom: "pool1-R"
  top: "conv2_1-R"
  param {
    lr_mult: 10
    decay_mult: 1
  }
  param {
    lr_mult: 20
    decay_mult: 0
  }
  convolution_param {
    num_output: 128
    pad: 1
    kernel_size: 3
    stride: 1
  }
}
layer {
  name: "relu2_1-R"
  type: "ReLU"
  bottom: "conv2_1-R"
  top: "conv2_1-R"
}
layer {
  name: "conv2_2-R"
  type: "Convolution"
  bottom: "conv2_1-R"
  top: "conv2_2-R"
  param {
    lr_mult: 10
    decay_mult: 1
  }
  param {
    lr_mult: 20
    decay_mult: 0
  }
  convolution_param {
    num_output: 128
    pad: 1
    kernel_size: 3
    stride: 1
  }
}
layer {
  name: "relu2_2-R"
  type: "ReLU"
  bottom: "conv2_2-R"
  top: "conv2_2-R"
}
layer {
  name: "pool2-R"
  type: "Pooling"
  bottom: "conv2_2-R"
  top: "pool2-R"
  pooling_param {
    pool: MAX
    kernel_size: 2
    stride: 2
  }
}
layer {
  name: "conv3_1-R"
  type: "Convolution"
  bottom: "pool2-R"
  top: "conv3_1-R"
  param {
    lr_mult: 10
    decay_mult: 1
  }
  param {
    lr_mult: 20
    decay_mult: 0
  }
  convolution_param {
    num_output: 256
    pad: 1
    kernel_size: 3
    stride: 1
  }
}
layer {
  name: "relu3_1-R"
  type: "ReLU"
  bottom: "conv3_1-R"
  top: "conv3_1-R"
}
layer {
  name: "conv3_2-R"
  type: "Convolution"
  bottom: "conv3_1-R"
  top: "conv3_2-R"
  param {
    lr_mult: 10
    decay_mult: 1
  }
  param {
    lr_mult: 20
    decay_mult: 0
  }
  convolution_param {
    num_output: 256
    pad: 1
    kernel_size: 3
    stride: 1
  }
}
layer {
  name: "relu3_2-R"
  type: "ReLU"
  bottom: "conv3_2-R"
  top: "conv3_2-R"
}
layer {
  name: "conv3_3-R"
  type: "Convolution"
  bottom: "conv3_2-R"
  top: "conv3_3-R"
  param {
    lr_mult: 10
    decay_mult: 1
  }
  param {
    lr_mult: 20
    decay_mult: 0
  }
  convolution_param {
    num_output: 256
    pad: 1
    kernel_size: 3
    stride: 1
  }
}
layer {
  name: "relu3_3-R"
  type: "ReLU"
  bottom: "conv3_3-R"
  top: "conv3_3-R"
}
layer {
  name: "pool3-R"
  type: "Pooling"
  bottom: "conv3_3-R"
  top: "pool3-R"
  pooling_param {
    pool: MAX
    kernel_size: 2
    stride: 2
  }
}
layer {
  name: "conv4_1-R"
  type: "Convolution"
  bottom: "pool3-R"
  top: "conv4_1-R"
  param {
    lr_mult: 10
    decay_mult: 1
  }
  param {
    lr_mult: 20
    decay_mult: 0
  }
  convolution_param {
    num_output: 512
    pad: 1
    kernel_size: 3
    stride: 1
  }
}
layer {
  name: "relu4_1-R"
  type: "ReLU"
  bottom: "conv4_1-R"
  top: "conv4_1-R"
}
layer {
  name: "conv4_2-R"
  type: "Convolution"
  bottom: "conv4_1-R"
  top: "conv4_2-R"
  param {
    lr_mult: 10
    decay_mult: 1
  }
  param {
    lr_mult: 20
    decay_mult: 0
  }
  convolution_param {
    num_output: 512
    pad: 1
    kernel_size: 3
    stride: 1
  }
}
layer {
  name: "relu4_2-R"
  type: "ReLU"
  bottom: "conv4_2-R"
  top: "conv4_2-R"
}
layer {
  name: "conv4_3-R"
  type: "Convolution"
  bottom: "conv4_2-R"
  top: "conv4_3-R"
  param {
    lr_mult: 10
    decay_mult: 1
  }
  param {
    lr_mult: 20
    decay_mult: 0
  }
  convolution_param {
    num_output: 512
    pad: 1
    kernel_size: 3
    stride: 1
  }
}
layer {
  name: "relu4_3-R"
  type: "ReLU"
  bottom: "conv4_3-R"
  top: "conv4_3-R"
}
layer {
  name: "pool4-R"
  type: "Pooling"
  bottom: "conv4_3-R"
  top: "pool4-R"
  pooling_param {
    pool: MAX
    kernel_size: 2
    stride: 2
  }
}
layer {
  name: "conv5_1-R"
  type: "Convolution"
  bottom: "pool4-R"
  top: "conv5_1-R"
  param {
    lr_mult: 10
    decay_mult: 1
  }
  param {
    lr_mult: 20
    decay_mult: 0
  }
  convolution_param {
    num_output: 512
    pad: 1
    kernel_size: 3
    stride: 1
  }
}
layer {
  name: "relu5_1-R"
  type: "ReLU"
  bottom: "conv5_1-R"
  top: "conv5_1-R"
}
layer {
  name: "conv5_2-R"
  type: "Convolution"
  bottom: "conv5_1-R"
  top: "conv5_2-R"
  param {
    lr_mult: 10
    decay_mult: 1
  }
  param {
    lr_mult: 20
    decay_mult: 0
  }
  convolution_param {
    num_output: 512
    pad: 1
    kernel_size: 3
    stride: 1
  }
}
layer {
  name: "relu5_2-R"
  type: "ReLU"
  bottom: "conv5_2-R"
  top: "conv5_2-R"
}
layer {
  name: "conv5_3-R"
  type: "Convolution"
  bottom: "conv5_2-R"
  top: "conv5_3-R"
  param {
    lr_mult: 10
    decay_mult: 1
  }
  param {
    lr_mult: 20
    decay_mult: 0
  }
  convolution_param {
    num_output: 512
    pad: 1
    kernel_size: 3
    stride: 1
  }
}
layer {
  name: "relu5_3-R"
  type: "ReLU"
  bottom: "conv5_3-R"
  top: "conv5_3-R"
}
layer {
  name: "pool5-R"
  type: "Pooling"
  bottom: "conv5_3-R"
  top: "pool5-R"
  pooling_param {
    pool: MAX
    kernel_size: 2
    stride: 2
  }
}
layer {
  name: "fc6-R"
  type: "Convolution"
  bottom: "pool5-R"
  top: "fc6-R"
  param {
    lr_mult: 10
    decay_mult: 1
  }
  param {
    lr_mult: 20
    decay_mult: 0
  }
  convolution_param {
    num_output: 4096
    pad: 0
    kernel_size: 7
    stride: 1
  }
}
layer {
  name: "relu6-R"
  type: "ReLU"
  bottom: "fc6-R"
  top: "fc6-R"
}
layer {
  name: "drop6-R"
  type: "Dropout"
  bottom: "fc6-R"
  top: "fc6-R"
  dropout_param {
    dropout_ratio: 0.5
  }
}
layer {
  name: "fc7-R"
  type: "Convolution"
  bottom: "fc6-R"
  top: "fc7-R"
  param {
    lr_mult: 10
    decay_mult: 1
  }
  param {
    lr_mult: 20
    decay_mult: 0
  }
  convolution_param {
    num_output: 4096
    pad: 0
    kernel_size: 1
    stride: 1
  }
}
layer {
  name: "relu7-R"
  type: "ReLU"
  bottom: "fc7-R"
  top: "fc7-R"
}
layer {
  name: "drop7-R"
  type: "Dropout"
  bottom: "fc7-R"
  top: "fc7-R"
  dropout_param {
    dropout_ratio: 0.5
  }
}
layer {
  name: "score_fr-new-R"
  type: "Convolution"
  bottom: "fc7-R"
  top: "score_fr-new-R"
  param {
    lr_mult: 10
    decay_mult: 1
  }
  param {
    lr_mult: 20
    decay_mult: 0
  }
  convolution_param {
    num_output: 3
    kernel_size: 1
  }
}
layer {
  name: "upscore2-new-R"
  type: "Deconvolution"
  bottom: "score_fr-new-R"
  top: "upscore2-new-R"
  param {
    lr_mult: 0
  }
  convolution_param {
    num_output: 3
    bias_term: false
    kernel_size: 4
    stride: 2
  }
}
layer {
  name: "score_pool4-new-R"
  type: "Convolution"
  bottom: "pool4-R"
  top: "score_pool4-new-R"
  param {
    lr_mult: 10
    decay_mult: 1
  }
  param {
    lr_mult: 20
    decay_mult: 0
  }
  convolution_param {
    num_output: 3
    pad: 0
    kernel_size: 1
  }
}
layer {
  name: "score_pool4c-R"
  type: "Crop"
  bottom: "score_pool4-new-R"
  bottom: "upscore2-new-R"
  top: "score_pool4c-R"
  crop_param {
    axis: 2
    offset: 5
  }
}
layer {
  name: "fuse_pool4-R"
  type: "Eltwise"
  bottom: "upscore2-new-R"
  bottom: "score_pool4c-R"
  top: "fuse_pool4-R"
  eltwise_param {
    operation: SUM
  }
}
layer {
  name: "upscore_pool4-new-R"
  type: "Deconvolution"
  bottom: "fuse_pool4-R"
  top: "upscore_pool4-new-R"
  param {
    lr_mult: 0
  }
  convolution_param {
    num_output: 3
    bias_term: false
    kernel_size: 4
    stride: 2
  }
}
layer {
  name: "score_pool3-new-R"
  type: "Convolution"
  bottom: "pool3-R"
  top: "score_pool3-new-R"
  param {
    lr_mult: 10
    decay_mult: 1
  }
  param {
    lr_mult: 20
    decay_mult: 0
  }
  convolution_param {
    num_output: 3
    pad: 0
    kernel_size: 1
  }
}
layer {
  name: "score_pool3c-R"
  type: "Crop"
  bottom: "score_pool3-new-R"
  bottom: "upscore_pool4-new-R"
  top: "score_pool3c-R"
  crop_param {
    axis: 2
    offset: 9
  }
}
layer {
  name: "fuse_pool3-R"
  type: "Eltwise"
  bottom: "upscore_pool4-new-R"
  bottom: "score_pool3c-R"
  top: "fuse_pool3-R"
  eltwise_param {
    operation: SUM
  }
}
layer {
  name: "upscore8-new-R"
  type: "Deconvolution"
  bottom: "fuse_pool3-R"
  top: "upscore8-new-R"
  param {
    lr_mult: 0
  }
  convolution_param {
    num_output: 3
    bias_term: false
    kernel_size: 16
    stride: 8
  }
}
layer {
  name: "upscore8_cropped-R"
  type: "Crop"
  bottom: "upscore8-new-R"
  bottom: "data-R"
  top: "upscore8_cropped-R"
  crop_param {
    axis: 2
    offset: 31
  }
}
layer {
  name: "upscore8_uncropped-R"
  type: "Python"
  bottom: "crop_info"
  bottom: "upscore8_cropped-R"
  bottom: "data"
  top: "upscore8_uncropped-R"
  python_param {
    module: "Uncrop"
    layer: "UncropLayer"
  }
}
layer {
  name: "loss1"
  type: "DiceLoss"
  bottom: "upscore8_cropped"
  bottom: "label"
  top: "loss1"
  loss_weight: 0.333333
}
layer {
  name: "loss2"
  type: "DiceLoss"
  bottom: "upscore8_uncropped-R"
  bottom: "label"
  top: "loss2"
  loss_weight: 0.666667
}
I0715 12:55:41.600205 13441 layer_factory.hpp:77] Creating layer data
I0715 12:55:41.600605 13441 net.cpp:84] Creating Layer data
I0715 12:55:41.600620 13441 net.cpp:380] data -> data
I0715 12:55:41.600636 13441 net.cpp:380] data -> label
I0715 12:55:41.600644 13441 net.cpp:380] data -> crop_margin
I0715 12:55:41.600651 13441 net.cpp:380] data -> crop_prob
I0715 12:55:41.600657 13441 net.cpp:380] data -> crop_sample_batch
I0715 12:55:41.802507 13441 net.cpp:122] Setting up data
I0715 12:55:41.802568 13441 net.cpp:129] Top shape: 1 3 512 310 (476160)
I0715 12:55:41.802583 13441 net.cpp:129] Top shape: 1 3 512 310 (476160)
I0715 12:55:41.802588 13441 net.cpp:129] Top shape: 1 (1)
I0715 12:55:41.802592 13441 net.cpp:129] Top shape: 1 (1)
I0715 12:55:41.802595 13441 net.cpp:129] Top shape: 1 (1)
I0715 12:55:41.802598 13441 net.cpp:137] Memory required for data: 3809292
I0715 12:55:41.802630 13441 layer_factory.hpp:77] Creating layer data_data_0_split
I0715 12:55:41.802660 13441 net.cpp:84] Creating Layer data_data_0_split
I0715 12:55:41.802670 13441 net.cpp:406] data_data_0_split <- data
I0715 12:55:41.802682 13441 net.cpp:380] data_data_0_split -> data_data_0_split_0
I0715 12:55:41.802693 13441 net.cpp:380] data_data_0_split -> data_data_0_split_1
I0715 12:55:41.802700 13441 net.cpp:380] data_data_0_split -> data_data_0_split_2
I0715 12:55:41.802705 13441 net.cpp:380] data_data_0_split -> data_data_0_split_3
I0715 12:55:41.802754 13441 net.cpp:122] Setting up data_data_0_split
I0715 12:55:41.802759 13441 net.cpp:129] Top shape: 1 3 512 310 (476160)
I0715 12:55:41.802763 13441 net.cpp:129] Top shape: 1 3 512 310 (476160)
I0715 12:55:41.802767 13441 net.cpp:129] Top shape: 1 3 512 310 (476160)
I0715 12:55:41.802788 13441 net.cpp:129] Top shape: 1 3 512 310 (476160)
I0715 12:55:41.802790 13441 net.cpp:137] Memory required for data: 11427852
I0715 12:55:41.802794 13441 layer_factory.hpp:77] Creating layer label_data_1_split
I0715 12:55:41.802804 13441 net.cpp:84] Creating Layer label_data_1_split
I0715 12:55:41.802809 13441 net.cpp:406] label_data_1_split <- label
I0715 12:55:41.802814 13441 net.cpp:380] label_data_1_split -> label_data_1_split_0
I0715 12:55:41.802819 13441 net.cpp:380] label_data_1_split -> label_data_1_split_1
I0715 12:55:41.802824 13441 net.cpp:380] label_data_1_split -> label_data_1_split_2
I0715 12:55:41.802857 13441 net.cpp:122] Setting up label_data_1_split
I0715 12:55:41.802862 13441 net.cpp:129] Top shape: 1 3 512 310 (476160)
I0715 12:55:41.802865 13441 net.cpp:129] Top shape: 1 3 512 310 (476160)
I0715 12:55:41.802870 13441 net.cpp:129] Top shape: 1 3 512 310 (476160)
I0715 12:55:41.802872 13441 net.cpp:137] Memory required for data: 17141772
I0715 12:55:41.802875 13441 layer_factory.hpp:77] Creating layer conv1_1
I0715 12:55:41.802899 13441 net.cpp:84] Creating Layer conv1_1
I0715 12:55:41.802903 13441 net.cpp:406] conv1_1 <- data_data_0_split_0
I0715 12:55:41.802908 13441 net.cpp:380] conv1_1 -> conv1_1
I0715 12:55:42.168828 13441 net.cpp:122] Setting up conv1_1
I0715 12:55:42.168890 13441 net.cpp:129] Top shape: 1 64 710 508 (23083520)
I0715 12:55:42.168896 13441 net.cpp:137] Memory required for data: 109475852
I0715 12:55:42.168933 13441 layer_factory.hpp:77] Creating layer relu1_1
I0715 12:55:42.168992 13441 net.cpp:84] Creating Layer relu1_1
I0715 12:55:42.169001 13441 net.cpp:406] relu1_1 <- conv1_1
I0715 12:55:42.169009 13441 net.cpp:367] relu1_1 -> conv1_1 (in-place)
I0715 12:55:42.169307 13441 net.cpp:122] Setting up relu1_1
I0715 12:55:42.169319 13441 net.cpp:129] Top shape: 1 64 710 508 (23083520)
I0715 12:55:42.169323 13441 net.cpp:137] Memory required for data: 201809932
I0715 12:55:42.169337 13441 layer_factory.hpp:77] Creating layer conv1_2
I0715 12:55:42.169354 13441 net.cpp:84] Creating Layer conv1_2
I0715 12:55:42.169359 13441 net.cpp:406] conv1_2 <- conv1_1
I0715 12:55:42.169366 13441 net.cpp:380] conv1_2 -> conv1_2
I0715 12:55:42.175639 13441 net.cpp:122] Setting up conv1_2
I0715 12:55:42.175678 13441 net.cpp:129] Top shape: 1 64 710 508 (23083520)
I0715 12:55:42.175685 13441 net.cpp:137] Memory required for data: 294144012
I0715 12:55:42.175706 13441 layer_factory.hpp:77] Creating layer relu1_2
I0715 12:55:42.175732 13441 net.cpp:84] Creating Layer relu1_2
I0715 12:55:42.175740 13441 net.cpp:406] relu1_2 <- conv1_2
I0715 12:55:42.175750 13441 net.cpp:367] relu1_2 -> conv1_2 (in-place)
I0715 12:55:42.176096 13441 net.cpp:122] Setting up relu1_2
I0715 12:55:42.176115 13441 net.cpp:129] Top shape: 1 64 710 508 (23083520)
I0715 12:55:42.176128 13441 net.cpp:137] Memory required for data: 386478092
I0715 12:55:42.176138 13441 layer_factory.hpp:77] Creating layer pool1
I0715 12:55:42.176152 13441 net.cpp:84] Creating Layer pool1
I0715 12:55:42.176159 13441 net.cpp:406] pool1 <- conv1_2
I0715 12:55:42.176170 13441 net.cpp:380] pool1 -> pool1
I0715 12:55:42.176259 13441 net.cpp:122] Setting up pool1
I0715 12:55:42.176271 13441 net.cpp:129] Top shape: 1 64 355 254 (5770880)
I0715 12:55:42.176277 13441 net.cpp:137] Memory required for data: 409561612
I0715 12:55:42.176283 13441 layer_factory.hpp:77] Creating layer conv2_1
I0715 12:55:42.176302 13441 net.cpp:84] Creating Layer conv2_1
I0715 12:55:42.176312 13441 net.cpp:406] conv2_1 <- pool1
I0715 12:55:42.176326 13441 net.cpp:380] conv2_1 -> conv2_1
I0715 12:55:42.181128 13441 net.cpp:122] Setting up conv2_1
I0715 12:55:42.181193 13441 net.cpp:129] Top shape: 1 128 355 254 (11541760)
I0715 12:55:42.181202 13441 net.cpp:137] Memory required for data: 455728652
I0715 12:55:42.181238 13441 layer_factory.hpp:77] Creating layer relu2_1
I0715 12:55:42.181258 13441 net.cpp:84] Creating Layer relu2_1
I0715 12:55:42.181274 13441 net.cpp:406] relu2_1 <- conv2_1
I0715 12:55:42.181288 13441 net.cpp:367] relu2_1 -> conv2_1 (in-place)
I0715 12:55:42.181668 13441 net.cpp:122] Setting up relu2_1
I0715 12:55:42.181686 13441 net.cpp:129] Top shape: 1 128 355 254 (11541760)
I0715 12:55:42.181694 13441 net.cpp:137] Memory required for data: 501895692
I0715 12:55:42.181704 13441 layer_factory.hpp:77] Creating layer conv2_2
I0715 12:55:42.181761 13441 net.cpp:84] Creating Layer conv2_2
I0715 12:55:42.181771 13441 net.cpp:406] conv2_2 <- conv2_1
I0715 12:55:42.181793 13441 net.cpp:380] conv2_2 -> conv2_2
I0715 12:55:42.192322 13441 net.cpp:122] Setting up conv2_2
I0715 12:55:42.192370 13441 net.cpp:129] Top shape: 1 128 355 254 (11541760)
I0715 12:55:42.192380 13441 net.cpp:137] Memory required for data: 548062732
I0715 12:55:42.192400 13441 layer_factory.hpp:77] Creating layer relu2_2
I0715 12:55:42.192414 13441 net.cpp:84] Creating Layer relu2_2
I0715 12:55:42.192432 13441 net.cpp:406] relu2_2 <- conv2_2
I0715 12:55:42.192443 13441 net.cpp:367] relu2_2 -> conv2_2 (in-place)
I0715 12:55:42.192809 13441 net.cpp:122] Setting up relu2_2
I0715 12:55:42.192826 13441 net.cpp:129] Top shape: 1 128 355 254 (11541760)
I0715 12:55:42.192843 13441 net.cpp:137] Memory required for data: 594229772
I0715 12:55:42.192850 13441 layer_factory.hpp:77] Creating layer pool2
I0715 12:55:42.192867 13441 net.cpp:84] Creating Layer pool2
I0715 12:55:42.192874 13441 net.cpp:406] pool2 <- conv2_2
I0715 12:55:42.192886 13441 net.cpp:380] pool2 -> pool2
I0715 12:55:42.192975 13441 net.cpp:122] Setting up pool2
I0715 12:55:42.192988 13441 net.cpp:129] Top shape: 1 128 178 127 (2893568)
I0715 12:55:42.192996 13441 net.cpp:137] Memory required for data: 605804044
I0715 12:55:42.193002 13441 layer_factory.hpp:77] Creating layer conv3_1
I0715 12:55:42.193017 13441 net.cpp:84] Creating Layer conv3_1
I0715 12:55:42.193030 13441 net.cpp:406] conv3_1 <- pool2
I0715 12:55:42.193042 13441 net.cpp:380] conv3_1 -> conv3_1
I0715 12:55:42.197451 13441 net.cpp:122] Setting up conv3_1
I0715 12:55:42.197484 13441 net.cpp:129] Top shape: 1 256 178 127 (5787136)
I0715 12:55:42.197489 13441 net.cpp:137] Memory required for data: 628952588
I0715 12:55:42.197502 13441 layer_factory.hpp:77] Creating layer relu3_1
I0715 12:55:42.197515 13441 net.cpp:84] Creating Layer relu3_1
I0715 12:55:42.197520 13441 net.cpp:406] relu3_1 <- conv3_1
I0715 12:55:42.197527 13441 net.cpp:367] relu3_1 -> conv3_1 (in-place)
I0715 12:55:42.199551 13441 net.cpp:122] Setting up relu3_1
I0715 12:55:42.199575 13441 net.cpp:129] Top shape: 1 256 178 127 (5787136)
I0715 12:55:42.199580 13441 net.cpp:137] Memory required for data: 652101132
I0715 12:55:42.199586 13441 layer_factory.hpp:77] Creating layer conv3_2
I0715 12:55:42.199656 13441 net.cpp:84] Creating Layer conv3_2
I0715 12:55:42.199667 13441 net.cpp:406] conv3_2 <- conv3_1
I0715 12:55:42.199676 13441 net.cpp:380] conv3_2 -> conv3_2
I0715 12:55:42.206590 13441 net.cpp:122] Setting up conv3_2
I0715 12:55:42.206624 13441 net.cpp:129] Top shape: 1 256 178 127 (5787136)
I0715 12:55:42.206629 13441 net.cpp:137] Memory required for data: 675249676
I0715 12:55:42.206640 13441 layer_factory.hpp:77] Creating layer relu3_2
I0715 12:55:42.206651 13441 net.cpp:84] Creating Layer relu3_2
I0715 12:55:42.206656 13441 net.cpp:406] relu3_2 <- conv3_2
I0715 12:55:42.206665 13441 net.cpp:367] relu3_2 -> conv3_2 (in-place)
I0715 12:55:42.207466 13441 net.cpp:122] Setting up relu3_2
I0715 12:55:42.207504 13441 net.cpp:129] Top shape: 1 256 178 127 (5787136)
I0715 12:55:42.207512 13441 net.cpp:137] Memory required for data: 698398220
I0715 12:55:42.207520 13441 layer_factory.hpp:77] Creating layer conv3_3
I0715 12:55:42.207553 13441 net.cpp:84] Creating Layer conv3_3
I0715 12:55:42.207568 13441 net.cpp:406] conv3_3 <- conv3_2
I0715 12:55:42.207585 13441 net.cpp:380] conv3_3 -> conv3_3
I0715 12:55:42.214155 13441 net.cpp:122] Setting up conv3_3
I0715 12:55:42.214197 13441 net.cpp:129] Top shape: 1 256 178 127 (5787136)
I0715 12:55:42.214205 13441 net.cpp:137] Memory required for data: 721546764
I0715 12:55:42.214221 13441 layer_factory.hpp:77] Creating layer relu3_3
I0715 12:55:42.214233 13441 net.cpp:84] Creating Layer relu3_3
I0715 12:55:42.214241 13441 net.cpp:406] relu3_3 <- conv3_3
I0715 12:55:42.214269 13441 net.cpp:367] relu3_3 -> conv3_3 (in-place)
I0715 12:55:42.214671 13441 net.cpp:122] Setting up relu3_3
I0715 12:55:42.214689 13441 net.cpp:129] Top shape: 1 256 178 127 (5787136)
I0715 12:55:42.214704 13441 net.cpp:137] Memory required for data: 744695308
I0715 12:55:42.214715 13441 layer_factory.hpp:77] Creating layer pool3
I0715 12:55:42.214731 13441 net.cpp:84] Creating Layer pool3
I0715 12:55:42.214738 13441 net.cpp:406] pool3 <- conv3_3
I0715 12:55:42.214753 13441 net.cpp:380] pool3 -> pool3
I0715 12:55:42.214849 13441 net.cpp:122] Setting up pool3
I0715 12:55:42.214865 13441 net.cpp:129] Top shape: 1 256 89 64 (1458176)
I0715 12:55:42.214875 13441 net.cpp:137] Memory required for data: 750528012
I0715 12:55:42.214881 13441 layer_factory.hpp:77] Creating layer pool3_pool3_0_split
I0715 12:55:42.214893 13441 net.cpp:84] Creating Layer pool3_pool3_0_split
I0715 12:55:42.214902 13441 net.cpp:406] pool3_pool3_0_split <- pool3
I0715 12:55:42.214913 13441 net.cpp:380] pool3_pool3_0_split -> pool3_pool3_0_split_0
I0715 12:55:42.214926 13441 net.cpp:380] pool3_pool3_0_split -> pool3_pool3_0_split_1
I0715 12:55:42.215013 13441 net.cpp:122] Setting up pool3_pool3_0_split
I0715 12:55:42.215026 13441 net.cpp:129] Top shape: 1 256 89 64 (1458176)
I0715 12:55:42.215034 13441 net.cpp:129] Top shape: 1 256 89 64 (1458176)
I0715 12:55:42.215040 13441 net.cpp:137] Memory required for data: 762193420
I0715 12:55:42.215046 13441 layer_factory.hpp:77] Creating layer conv4_1
I0715 12:55:42.215065 13441 net.cpp:84] Creating Layer conv4_1
I0715 12:55:42.215075 13441 net.cpp:406] conv4_1 <- pool3_pool3_0_split_0
I0715 12:55:42.215085 13441 net.cpp:380] conv4_1 -> conv4_1
I0715 12:55:42.226711 13441 net.cpp:122] Setting up conv4_1
I0715 12:55:42.226733 13441 net.cpp:129] Top shape: 1 512 89 64 (2916352)
I0715 12:55:42.226738 13441 net.cpp:137] Memory required for data: 773858828
I0715 12:55:42.226747 13441 layer_factory.hpp:77] Creating layer relu4_1
I0715 12:55:42.226766 13441 net.cpp:84] Creating Layer relu4_1
I0715 12:55:42.226775 13441 net.cpp:406] relu4_1 <- conv4_1
I0715 12:55:42.226783 13441 net.cpp:367] relu4_1 -> conv4_1 (in-place)
I0715 12:55:42.227027 13441 net.cpp:122] Setting up relu4_1
I0715 12:55:42.227039 13441 net.cpp:129] Top shape: 1 512 89 64 (2916352)
I0715 12:55:42.227043 13441 net.cpp:137] Memory required for data: 785524236
I0715 12:55:42.227047 13441 layer_factory.hpp:77] Creating layer conv4_2
I0715 12:55:42.227062 13441 net.cpp:84] Creating Layer conv4_2
I0715 12:55:42.227071 13441 net.cpp:406] conv4_2 <- conv4_1
I0715 12:55:42.227080 13441 net.cpp:380] conv4_2 -> conv4_2
I0715 12:55:42.240413 13441 net.cpp:122] Setting up conv4_2
I0715 12:55:42.240437 13441 net.cpp:129] Top shape: 1 512 89 64 (2916352)
I0715 12:55:42.240453 13441 net.cpp:137] Memory required for data: 797189644
I0715 12:55:42.240470 13441 layer_factory.hpp:77] Creating layer relu4_2
I0715 12:55:42.240486 13441 net.cpp:84] Creating Layer relu4_2
I0715 12:55:42.240491 13441 net.cpp:406] relu4_2 <- conv4_2
I0715 12:55:42.240499 13441 net.cpp:367] relu4_2 -> conv4_2 (in-place)
I0715 12:55:42.240756 13441 net.cpp:122] Setting up relu4_2
I0715 12:55:42.240772 13441 net.cpp:129] Top shape: 1 512 89 64 (2916352)
I0715 12:55:42.240775 13441 net.cpp:137] Memory required for data: 808855052
I0715 12:55:42.240780 13441 layer_factory.hpp:77] Creating layer conv4_3
I0715 12:55:42.240795 13441 net.cpp:84] Creating Layer conv4_3
I0715 12:55:42.240806 13441 net.cpp:406] conv4_3 <- conv4_2
I0715 12:55:42.240816 13441 net.cpp:380] conv4_3 -> conv4_3
I0715 12:55:42.251188 13441 net.cpp:122] Setting up conv4_3
I0715 12:55:42.251214 13441 net.cpp:129] Top shape: 1 512 89 64 (2916352)
I0715 12:55:42.251220 13441 net.cpp:137] Memory required for data: 820520460
I0715 12:55:42.251232 13441 layer_factory.hpp:77] Creating layer relu4_3
I0715 12:55:42.251246 13441 net.cpp:84] Creating Layer relu4_3
I0715 12:55:42.251253 13441 net.cpp:406] relu4_3 <- conv4_3
I0715 12:55:42.251267 13441 net.cpp:367] relu4_3 -> conv4_3 (in-place)
I0715 12:55:42.251572 13441 net.cpp:122] Setting up relu4_3
I0715 12:55:42.251591 13441 net.cpp:129] Top shape: 1 512 89 64 (2916352)
I0715 12:55:42.251596 13441 net.cpp:137] Memory required for data: 832185868
I0715 12:55:42.251601 13441 layer_factory.hpp:77] Creating layer pool4
I0715 12:55:42.251613 13441 net.cpp:84] Creating Layer pool4
I0715 12:55:42.251619 13441 net.cpp:406] pool4 <- conv4_3
I0715 12:55:42.251629 13441 net.cpp:380] pool4 -> pool4
I0715 12:55:42.251700 13441 net.cpp:122] Setting up pool4
I0715 12:55:42.251714 13441 net.cpp:129] Top shape: 1 512 45 32 (737280)
I0715 12:55:42.251718 13441 net.cpp:137] Memory required for data: 835134988
I0715 12:55:42.251724 13441 layer_factory.hpp:77] Creating layer pool4_pool4_0_split
I0715 12:55:42.251732 13441 net.cpp:84] Creating Layer pool4_pool4_0_split
I0715 12:55:42.251737 13441 net.cpp:406] pool4_pool4_0_split <- pool4
I0715 12:55:42.251745 13441 net.cpp:380] pool4_pool4_0_split -> pool4_pool4_0_split_0
I0715 12:55:42.251754 13441 net.cpp:380] pool4_pool4_0_split -> pool4_pool4_0_split_1
I0715 12:55:42.251809 13441 net.cpp:122] Setting up pool4_pool4_0_split
I0715 12:55:42.251819 13441 net.cpp:129] Top shape: 1 512 45 32 (737280)
I0715 12:55:42.251826 13441 net.cpp:129] Top shape: 1 512 45 32 (737280)
I0715 12:55:42.251830 13441 net.cpp:137] Memory required for data: 841033228
I0715 12:55:42.251835 13441 layer_factory.hpp:77] Creating layer conv5_1
I0715 12:55:42.251848 13441 net.cpp:84] Creating Layer conv5_1
I0715 12:55:42.251854 13441 net.cpp:406] conv5_1 <- pool4_pool4_0_split_0
I0715 12:55:42.251865 13441 net.cpp:380] conv5_1 -> conv5_1
I0715 12:55:42.268110 13441 net.cpp:122] Setting up conv5_1
I0715 12:55:42.268169 13441 net.cpp:129] Top shape: 1 512 45 32 (737280)
I0715 12:55:42.268178 13441 net.cpp:137] Memory required for data: 843982348
I0715 12:55:42.268195 13441 layer_factory.hpp:77] Creating layer relu5_1
I0715 12:55:42.268229 13441 net.cpp:84] Creating Layer relu5_1
I0715 12:55:42.268239 13441 net.cpp:406] relu5_1 <- conv5_1
I0715 12:55:42.268255 13441 net.cpp:367] relu5_1 -> conv5_1 (in-place)
I0715 12:55:42.269500 13441 net.cpp:122] Setting up relu5_1
I0715 12:55:42.269538 13441 net.cpp:129] Top shape: 1 512 45 32 (737280)
I0715 12:55:42.269546 13441 net.cpp:137] Memory required for data: 846931468
I0715 12:55:42.269554 13441 layer_factory.hpp:77] Creating layer conv5_2
I0715 12:55:42.269588 13441 net.cpp:84] Creating Layer conv5_2
I0715 12:55:42.269600 13441 net.cpp:406] conv5_2 <- conv5_1
I0715 12:55:42.269618 13441 net.cpp:380] conv5_2 -> conv5_2
I0715 12:55:42.281230 13441 net.cpp:122] Setting up conv5_2
I0715 12:55:42.281251 13441 net.cpp:129] Top shape: 1 512 45 32 (737280)
I0715 12:55:42.281266 13441 net.cpp:137] Memory required for data: 849880588
I0715 12:55:42.281275 13441 layer_factory.hpp:77] Creating layer relu5_2
I0715 12:55:42.281296 13441 net.cpp:84] Creating Layer relu5_2
I0715 12:55:42.281299 13441 net.cpp:406] relu5_2 <- conv5_2
I0715 12:55:42.281309 13441 net.cpp:367] relu5_2 -> conv5_2 (in-place)
I0715 12:55:42.283183 13441 net.cpp:122] Setting up relu5_2
I0715 12:55:42.283202 13441 net.cpp:129] Top shape: 1 512 45 32 (737280)
I0715 12:55:42.283219 13441 net.cpp:137] Memory required for data: 852829708
I0715 12:55:42.283223 13441 layer_factory.hpp:77] Creating layer conv5_3
I0715 12:55:42.283239 13441 net.cpp:84] Creating Layer conv5_3
I0715 12:55:42.283244 13441 net.cpp:406] conv5_3 <- conv5_2
I0715 12:55:42.283254 13441 net.cpp:380] conv5_3 -> conv5_3
I0715 12:55:42.292377 13441 net.cpp:122] Setting up conv5_3
I0715 12:55:42.292419 13441 net.cpp:129] Top shape: 1 512 45 32 (737280)
I0715 12:55:42.292424 13441 net.cpp:137] Memory required for data: 855778828
I0715 12:55:42.292433 13441 layer_factory.hpp:77] Creating layer relu5_3
I0715 12:55:42.292443 13441 net.cpp:84] Creating Layer relu5_3
I0715 12:55:42.292448 13441 net.cpp:406] relu5_3 <- conv5_3
I0715 12:55:42.292455 13441 net.cpp:367] relu5_3 -> conv5_3 (in-place)
I0715 12:55:42.292696 13441 net.cpp:122] Setting up relu5_3
I0715 12:55:42.292709 13441 net.cpp:129] Top shape: 1 512 45 32 (737280)
I0715 12:55:42.292713 13441 net.cpp:137] Memory required for data: 858727948
I0715 12:55:42.292721 13441 layer_factory.hpp:77] Creating layer pool5
I0715 12:55:42.292745 13441 net.cpp:84] Creating Layer pool5
I0715 12:55:42.292750 13441 net.cpp:406] pool5 <- conv5_3
I0715 12:55:42.292758 13441 net.cpp:380] pool5 -> pool5
I0715 12:55:42.292819 13441 net.cpp:122] Setting up pool5
I0715 12:55:42.292829 13441 net.cpp:129] Top shape: 1 512 23 16 (188416)
I0715 12:55:42.292832 13441 net.cpp:137] Memory required for data: 859481612
I0715 12:55:42.292836 13441 layer_factory.hpp:77] Creating layer fc6
I0715 12:55:42.292848 13441 net.cpp:84] Creating Layer fc6
I0715 12:55:42.292853 13441 net.cpp:406] fc6 <- pool5
I0715 12:55:42.292862 13441 net.cpp:380] fc6 -> fc6
I0715 12:55:42.616793 13441 net.cpp:122] Setting up fc6
I0715 12:55:42.616847 13441 net.cpp:129] Top shape: 1 4096 17 10 (696320)
I0715 12:55:42.616852 13441 net.cpp:137] Memory required for data: 862266892
I0715 12:55:42.616865 13441 layer_factory.hpp:77] Creating layer relu6
I0715 12:55:42.616879 13441 net.cpp:84] Creating Layer relu6
I0715 12:55:42.616885 13441 net.cpp:406] relu6 <- fc6
I0715 12:55:42.616904 13441 net.cpp:367] relu6 -> fc6 (in-place)
I0715 12:55:42.617158 13441 net.cpp:122] Setting up relu6
I0715 12:55:42.617171 13441 net.cpp:129] Top shape: 1 4096 17 10 (696320)
I0715 12:55:42.617174 13441 net.cpp:137] Memory required for data: 865052172
I0715 12:55:42.617178 13441 layer_factory.hpp:77] Creating layer drop6
I0715 12:55:42.617194 13441 net.cpp:84] Creating Layer drop6
I0715 12:55:42.617204 13441 net.cpp:406] drop6 <- fc6
I0715 12:55:42.617213 13441 net.cpp:367] drop6 -> fc6 (in-place)
I0715 12:55:42.617251 13441 net.cpp:122] Setting up drop6
I0715 12:55:42.617260 13441 net.cpp:129] Top shape: 1 4096 17 10 (696320)
I0715 12:55:42.617264 13441 net.cpp:137] Memory required for data: 867837452
I0715 12:55:42.617270 13441 layer_factory.hpp:77] Creating layer fc7
I0715 12:55:42.617283 13441 net.cpp:84] Creating Layer fc7
I0715 12:55:42.617290 13441 net.cpp:406] fc7 <- fc6
I0715 12:55:42.617300 13441 net.cpp:380] fc7 -> fc7
I0715 12:55:42.680712 13441 net.cpp:122] Setting up fc7
I0715 12:55:42.680775 13441 net.cpp:129] Top shape: 1 4096 17 10 (696320)
I0715 12:55:42.680783 13441 net.cpp:137] Memory required for data: 870622732
I0715 12:55:42.680801 13441 layer_factory.hpp:77] Creating layer relu7
I0715 12:55:42.680829 13441 net.cpp:84] Creating Layer relu7
I0715 12:55:42.680837 13441 net.cpp:406] relu7 <- fc7
I0715 12:55:42.680847 13441 net.cpp:367] relu7 -> fc7 (in-place)
I0715 12:55:42.681109 13441 net.cpp:122] Setting up relu7
I0715 12:55:42.681123 13441 net.cpp:129] Top shape: 1 4096 17 10 (696320)
I0715 12:55:42.681128 13441 net.cpp:137] Memory required for data: 873408012
I0715 12:55:42.681131 13441 layer_factory.hpp:77] Creating layer drop7
I0715 12:55:42.681144 13441 net.cpp:84] Creating Layer drop7
I0715 12:55:42.681149 13441 net.cpp:406] drop7 <- fc7
I0715 12:55:42.681154 13441 net.cpp:367] drop7 -> fc7 (in-place)
I0715 12:55:42.681211 13441 net.cpp:122] Setting up drop7
I0715 12:55:42.681217 13441 net.cpp:129] Top shape: 1 4096 17 10 (696320)
I0715 12:55:42.681221 13441 net.cpp:137] Memory required for data: 876193292
I0715 12:55:42.681224 13441 layer_factory.hpp:77] Creating layer score_fr-new
I0715 12:55:42.681239 13441 net.cpp:84] Creating Layer score_fr-new
I0715 12:55:42.681243 13441 net.cpp:406] score_fr-new <- fc7
I0715 12:55:42.681257 13441 net.cpp:380] score_fr-new -> score_fr-new
I0715 12:55:42.684015 13441 net.cpp:122] Setting up score_fr-new
I0715 12:55:42.684034 13441 net.cpp:129] Top shape: 1 3 17 10 (510)
I0715 12:55:42.684051 13441 net.cpp:137] Memory required for data: 876195332
I0715 12:55:42.684059 13441 layer_factory.hpp:77] Creating layer upscore2-new
I0715 12:55:42.684089 13441 net.cpp:84] Creating Layer upscore2-new
I0715 12:55:42.684094 13441 net.cpp:406] upscore2-new <- score_fr-new
I0715 12:55:42.684101 13441 net.cpp:380] upscore2-new -> upscore2-new
I0715 12:55:42.684363 13441 net.cpp:122] Setting up upscore2-new
I0715 12:55:42.684375 13441 net.cpp:129] Top shape: 1 3 36 22 (2376)
I0715 12:55:42.684378 13441 net.cpp:137] Memory required for data: 876204836
I0715 12:55:42.684398 13441 layer_factory.hpp:77] Creating layer upscore2-new_upscore2-new_0_split
I0715 12:55:42.684406 13441 net.cpp:84] Creating Layer upscore2-new_upscore2-new_0_split
I0715 12:55:42.684412 13441 net.cpp:406] upscore2-new_upscore2-new_0_split <- upscore2-new
I0715 12:55:42.684417 13441 net.cpp:380] upscore2-new_upscore2-new_0_split -> upscore2-new_upscore2-new_0_split_0
I0715 12:55:42.684424 13441 net.cpp:380] upscore2-new_upscore2-new_0_split -> upscore2-new_upscore2-new_0_split_1
I0715 12:55:42.684473 13441 net.cpp:122] Setting up upscore2-new_upscore2-new_0_split
I0715 12:55:42.684484 13441 net.cpp:129] Top shape: 1 3 36 22 (2376)
I0715 12:55:42.684489 13441 net.cpp:129] Top shape: 1 3 36 22 (2376)
I0715 12:55:42.684492 13441 net.cpp:137] Memory required for data: 876223844
I0715 12:55:42.684496 13441 layer_factory.hpp:77] Creating layer score_pool4-new
I0715 12:55:42.684509 13441 net.cpp:84] Creating Layer score_pool4-new
I0715 12:55:42.684514 13441 net.cpp:406] score_pool4-new <- pool4_pool4_0_split_1
I0715 12:55:42.684520 13441 net.cpp:380] score_pool4-new -> score_pool4-new
I0715 12:55:42.686096 13441 net.cpp:122] Setting up score_pool4-new
I0715 12:55:42.686113 13441 net.cpp:129] Top shape: 1 3 45 32 (4320)
I0715 12:55:42.686117 13441 net.cpp:137] Memory required for data: 876241124
I0715 12:55:42.686130 13441 layer_factory.hpp:77] Creating layer score_pool4c
I0715 12:55:42.686146 13441 net.cpp:84] Creating Layer score_pool4c
I0715 12:55:42.686151 13441 net.cpp:406] score_pool4c <- score_pool4-new
I0715 12:55:42.686157 13441 net.cpp:406] score_pool4c <- upscore2-new_upscore2-new_0_split_0
I0715 12:55:42.686164 13441 net.cpp:380] score_pool4c -> score_pool4c
I0715 12:55:42.686216 13441 net.cpp:122] Setting up score_pool4c
I0715 12:55:42.686225 13441 net.cpp:129] Top shape: 1 3 36 22 (2376)
I0715 12:55:42.686229 13441 net.cpp:137] Memory required for data: 876250628
I0715 12:55:42.686233 13441 layer_factory.hpp:77] Creating layer fuse_pool4
I0715 12:55:42.686244 13441 net.cpp:84] Creating Layer fuse_pool4
I0715 12:55:42.686247 13441 net.cpp:406] fuse_pool4 <- upscore2-new_upscore2-new_0_split_1
I0715 12:55:42.686252 13441 net.cpp:406] fuse_pool4 <- score_pool4c
I0715 12:55:42.686261 13441 net.cpp:380] fuse_pool4 -> fuse_pool4
I0715 12:55:42.686296 13441 net.cpp:122] Setting up fuse_pool4
I0715 12:55:42.686301 13441 net.cpp:129] Top shape: 1 3 36 22 (2376)
I0715 12:55:42.686305 13441 net.cpp:137] Memory required for data: 876260132
I0715 12:55:42.686308 13441 layer_factory.hpp:77] Creating layer upscore_pool4-new
I0715 12:55:42.686316 13441 net.cpp:84] Creating Layer upscore_pool4-new
I0715 12:55:42.686321 13441 net.cpp:406] upscore_pool4-new <- fuse_pool4
I0715 12:55:42.686328 13441 net.cpp:380] upscore_pool4-new -> upscore_pool4-new
I0715 12:55:42.686580 13441 net.cpp:122] Setting up upscore_pool4-new
I0715 12:55:42.686592 13441 net.cpp:129] Top shape: 1 3 74 46 (10212)
I0715 12:55:42.686596 13441 net.cpp:137] Memory required for data: 876300980
I0715 12:55:42.686602 13441 layer_factory.hpp:77] Creating layer upscore_pool4-new_upscore_pool4-new_0_split
I0715 12:55:42.686609 13441 net.cpp:84] Creating Layer upscore_pool4-new_upscore_pool4-new_0_split
I0715 12:55:42.686614 13441 net.cpp:406] upscore_pool4-new_upscore_pool4-new_0_split <- upscore_pool4-new
I0715 12:55:42.686619 13441 net.cpp:380] upscore_pool4-new_upscore_pool4-new_0_split -> upscore_pool4-new_upscore_pool4-new_0_split_0
I0715 12:55:42.686627 13441 net.cpp:380] upscore_pool4-new_upscore_pool4-new_0_split -> upscore_pool4-new_upscore_pool4-new_0_split_1
I0715 12:55:42.686669 13441 net.cpp:122] Setting up upscore_pool4-new_upscore_pool4-new_0_split
I0715 12:55:42.686676 13441 net.cpp:129] Top shape: 1 3 74 46 (10212)
I0715 12:55:42.686681 13441 net.cpp:129] Top shape: 1 3 74 46 (10212)
I0715 12:55:42.686684 13441 net.cpp:137] Memory required for data: 876382676
I0715 12:55:42.686688 13441 layer_factory.hpp:77] Creating layer score_pool3-new
I0715 12:55:42.686699 13441 net.cpp:84] Creating Layer score_pool3-new
I0715 12:55:42.686703 13441 net.cpp:406] score_pool3-new <- pool3_pool3_0_split_1
I0715 12:55:42.686709 13441 net.cpp:380] score_pool3-new -> score_pool3-new
I0715 12:55:42.688403 13441 net.cpp:122] Setting up score_pool3-new
I0715 12:55:42.688423 13441 net.cpp:129] Top shape: 1 3 89 64 (17088)
I0715 12:55:42.688428 13441 net.cpp:137] Memory required for data: 876451028
I0715 12:55:42.688444 13441 layer_factory.hpp:77] Creating layer score_pool3c
I0715 12:55:42.688458 13441 net.cpp:84] Creating Layer score_pool3c
I0715 12:55:42.688464 13441 net.cpp:406] score_pool3c <- score_pool3-new
I0715 12:55:42.688470 13441 net.cpp:406] score_pool3c <- upscore_pool4-new_upscore_pool4-new_0_split_0
I0715 12:55:42.688479 13441 net.cpp:380] score_pool3c -> score_pool3c
I0715 12:55:42.688515 13441 net.cpp:122] Setting up score_pool3c
I0715 12:55:42.688525 13441 net.cpp:129] Top shape: 1 3 74 46 (10212)
I0715 12:55:42.688529 13441 net.cpp:137] Memory required for data: 876491876
I0715 12:55:42.688534 13441 layer_factory.hpp:77] Creating layer fuse_pool3
I0715 12:55:42.688542 13441 net.cpp:84] Creating Layer fuse_pool3
I0715 12:55:42.688547 13441 net.cpp:406] fuse_pool3 <- upscore_pool4-new_upscore_pool4-new_0_split_1
I0715 12:55:42.688554 13441 net.cpp:406] fuse_pool3 <- score_pool3c
I0715 12:55:42.688558 13441 net.cpp:380] fuse_pool3 -> fuse_pool3
I0715 12:55:42.688590 13441 net.cpp:122] Setting up fuse_pool3
I0715 12:55:42.688597 13441 net.cpp:129] Top shape: 1 3 74 46 (10212)
I0715 12:55:42.688601 13441 net.cpp:137] Memory required for data: 876532724
I0715 12:55:42.688606 13441 layer_factory.hpp:77] Creating layer upscore8-new
I0715 12:55:42.688616 13441 net.cpp:84] Creating Layer upscore8-new
I0715 12:55:42.688619 13441 net.cpp:406] upscore8-new <- fuse_pool3
I0715 12:55:42.688625 13441 net.cpp:380] upscore8-new -> upscore8-new
I0715 12:55:42.688879 13441 net.cpp:122] Setting up upscore8-new
I0715 12:55:42.688890 13441 net.cpp:129] Top shape: 1 3 600 376 (676800)
I0715 12:55:42.688894 13441 net.cpp:137] Memory required for data: 879239924
I0715 12:55:42.688901 13441 layer_factory.hpp:77] Creating layer upscore8_cropped
I0715 12:55:42.688910 13441 net.cpp:84] Creating Layer upscore8_cropped
I0715 12:55:42.688915 13441 net.cpp:406] upscore8_cropped <- upscore8-new
I0715 12:55:42.688925 13441 net.cpp:406] upscore8_cropped <- data_data_0_split_1
I0715 12:55:42.688930 13441 net.cpp:380] upscore8_cropped -> upscore8_cropped
I0715 12:55:42.688961 13441 net.cpp:122] Setting up upscore8_cropped
I0715 12:55:42.688966 13441 net.cpp:129] Top shape: 1 3 512 310 (476160)
I0715 12:55:42.688971 13441 net.cpp:137] Memory required for data: 881144564
I0715 12:55:42.688973 13441 layer_factory.hpp:77] Creating layer upscore8_cropped_upscore8_cropped_0_split
I0715 12:55:42.688980 13441 net.cpp:84] Creating Layer upscore8_cropped_upscore8_cropped_0_split
I0715 12:55:42.688984 13441 net.cpp:406] upscore8_cropped_upscore8_cropped_0_split <- upscore8_cropped
I0715 12:55:42.688990 13441 net.cpp:380] upscore8_cropped_upscore8_cropped_0_split -> upscore8_cropped_upscore8_cropped_0_split_0
I0715 12:55:42.688997 13441 net.cpp:380] upscore8_cropped_upscore8_cropped_0_split -> upscore8_cropped_upscore8_cropped_0_split_1
I0715 12:55:42.689038 13441 net.cpp:122] Setting up upscore8_cropped_upscore8_cropped_0_split
I0715 12:55:42.689045 13441 net.cpp:129] Top shape: 1 3 512 310 (476160)
I0715 12:55:42.689051 13441 net.cpp:129] Top shape: 1 3 512 310 (476160)
I0715 12:55:42.689054 13441 net.cpp:137] Memory required for data: 884953844
I0715 12:55:42.689059 13441 layer_factory.hpp:77] Creating layer prob
I0715 12:55:42.689066 13441 net.cpp:84] Creating Layer prob
I0715 12:55:42.689071 13441 net.cpp:406] prob <- upscore8_cropped_upscore8_cropped_0_split_0
I0715 12:55:42.689077 13441 net.cpp:380] prob -> prob
I0715 12:55:42.689334 13441 net.cpp:122] Setting up prob
I0715 12:55:42.689347 13441 net.cpp:129] Top shape: 1 3 512 310 (476160)
I0715 12:55:42.689353 13441 net.cpp:137] Memory required for data: 886858484
I0715 12:55:42.689357 13441 layer_factory.hpp:77] Creating layer saliency1
I0715 12:55:42.689373 13441 net.cpp:84] Creating Layer saliency1
I0715 12:55:42.689378 13441 net.cpp:406] saliency1 <- prob
I0715 12:55:42.689386 13441 net.cpp:380] saliency1 -> saliency1
I0715 12:55:42.692332 13441 net.cpp:122] Setting up saliency1
I0715 12:55:42.692353 13441 net.cpp:129] Top shape: 1 3 512 310 (476160)
I0715 12:55:42.692358 13441 net.cpp:137] Memory required for data: 888763124
I0715 12:55:42.692373 13441 layer_factory.hpp:77] Creating layer relu_saliency1
I0715 12:55:42.692381 13441 net.cpp:84] Creating Layer relu_saliency1
I0715 12:55:42.692386 13441 net.cpp:406] relu_saliency1 <- saliency1
I0715 12:55:42.692395 13441 net.cpp:367] relu_saliency1 -> saliency1 (in-place)
I0715 12:55:42.692653 13441 net.cpp:122] Setting up relu_saliency1
I0715 12:55:42.692667 13441 net.cpp:129] Top shape: 1 3 512 310 (476160)
I0715 12:55:42.692670 13441 net.cpp:137] Memory required for data: 890667764
I0715 12:55:42.692674 13441 layer_factory.hpp:77] Creating layer saliency
I0715 12:55:42.692688 13441 net.cpp:84] Creating Layer saliency
I0715 12:55:42.692693 13441 net.cpp:406] saliency <- saliency1
I0715 12:55:42.692703 13441 net.cpp:380] saliency -> saliency
I0715 12:55:42.696775 13441 net.cpp:122] Setting up saliency
I0715 12:55:42.696796 13441 net.cpp:129] Top shape: 1 3 512 310 (476160)
I0715 12:55:42.696801 13441 net.cpp:137] Memory required for data: 892572404
I0715 12:55:42.696817 13441 layer_factory.hpp:77] Creating layer silence_saliency
I0715 12:55:42.696828 13441 net.cpp:84] Creating Layer silence_saliency
I0715 12:55:42.696835 13441 net.cpp:406] silence_saliency <- saliency
I0715 12:55:42.696842 13441 net.cpp:122] Setting up silence_saliency
I0715 12:55:42.696851 13441 net.cpp:137] Memory required for data: 892572404
I0715 12:55:42.696854 13441 layer_factory.hpp:77] Creating layer crop
I0715 12:55:42.698009 13441 net.cpp:84] Creating Layer crop
I0715 12:55:42.698032 13441 net.cpp:406] crop <- label_data_1_split_0
I0715 12:55:42.698045 13441 net.cpp:406] crop <- data_data_0_split_2
I0715 12:55:42.698052 13441 net.cpp:406] crop <- crop_margin
I0715 12:55:42.698058 13441 net.cpp:406] crop <- crop_prob
I0715 12:55:42.698062 13441 net.cpp:406] crop <- crop_sample_batch
I0715 12:55:42.698071 13441 net.cpp:380] crop -> data-R
I0715 12:55:42.698087 13441 net.cpp:380] crop -> crop_info
I0715 12:55:42.708127 13441 net.cpp:122] Setting up crop
I0715 12:55:42.708150 13441 net.cpp:129] Top shape: 1 3 512 310 (476160)
I0715 12:55:42.708163 13441 net.cpp:129] Top shape: 1 2 4 (8)
I0715 12:55:42.708166 13441 net.cpp:137] Memory required for data: 894477076
I0715 12:55:42.708174 13441 layer_factory.hpp:77] Creating layer data-R_crop_0_split
I0715 12:55:42.708186 13441 net.cpp:84] Creating Layer data-R_crop_0_split
I0715 12:55:42.708192 13441 net.cpp:406] data-R_crop_0_split <- data-R
I0715 12:55:42.708200 13441 net.cpp:380] data-R_crop_0_split -> data-R_crop_0_split_0
I0715 12:55:42.708210 13441 net.cpp:380] data-R_crop_0_split -> data-R_crop_0_split_1
I0715 12:55:42.708278 13441 net.cpp:122] Setting up data-R_crop_0_split
I0715 12:55:42.708294 13441 net.cpp:129] Top shape: 1 3 512 310 (476160)
I0715 12:55:42.708299 13441 net.cpp:129] Top shape: 1 3 512 310 (476160)
I0715 12:55:42.708304 13441 net.cpp:137] Memory required for data: 898286356
I0715 12:55:42.708308 13441 layer_factory.hpp:77] Creating layer conv1_1-R
I0715 12:55:42.708320 13441 net.cpp:84] Creating Layer conv1_1-R
I0715 12:55:42.708326 13441 net.cpp:406] conv1_1-R <- data-R_crop_0_split_0
I0715 12:55:42.708339 13441 net.cpp:380] conv1_1-R -> conv1_1-R
I0715 12:55:42.712697 13441 net.cpp:122] Setting up conv1_1-R
I0715 12:55:42.712718 13441 net.cpp:129] Top shape: 1 64 710 508 (23083520)
I0715 12:55:42.712730 13441 net.cpp:137] Memory required for data: 990620436
I0715 12:55:42.712740 13441 layer_factory.hpp:77] Creating layer relu1_1-R
I0715 12:55:42.712785 13441 net.cpp:84] Creating Layer relu1_1-R
I0715 12:55:42.712792 13441 net.cpp:406] relu1_1-R <- conv1_1-R
I0715 12:55:42.712800 13441 net.cpp:367] relu1_1-R -> conv1_1-R (in-place)
I0715 12:55:42.713068 13441 net.cpp:122] Setting up relu1_1-R
I0715 12:55:42.713079 13441 net.cpp:129] Top shape: 1 64 710 508 (23083520)
I0715 12:55:42.713084 13441 net.cpp:137] Memory required for data: 1082954516
I0715 12:55:42.713089 13441 layer_factory.hpp:77] Creating layer conv1_2-R
I0715 12:55:42.713119 13441 net.cpp:84] Creating Layer conv1_2-R
I0715 12:55:42.713124 13441 net.cpp:406] conv1_2-R <- conv1_1-R
I0715 12:55:42.713131 13441 net.cpp:380] conv1_2-R -> conv1_2-R
I0715 12:55:42.718391 13441 net.cpp:122] Setting up conv1_2-R
I0715 12:55:42.718412 13441 net.cpp:129] Top shape: 1 64 710 508 (23083520)
I0715 12:55:42.718430 13441 net.cpp:137] Memory required for data: 1175288596
I0715 12:55:42.718438 13441 layer_factory.hpp:77] Creating layer relu1_2-R
I0715 12:55:42.718449 13441 net.cpp:84] Creating Layer relu1_2-R
I0715 12:55:42.718454 13441 net.cpp:406] relu1_2-R <- conv1_2-R
I0715 12:55:42.718464 13441 net.cpp:367] relu1_2-R -> conv1_2-R (in-place)
I0715 12:55:42.721014 13441 net.cpp:122] Setting up relu1_2-R
I0715 12:55:42.721033 13441 net.cpp:129] Top shape: 1 64 710 508 (23083520)
I0715 12:55:42.721050 13441 net.cpp:137] Memory required for data: 1267622676
I0715 12:55:42.721055 13441 layer_factory.hpp:77] Creating layer pool1-R
I0715 12:55:42.721065 13441 net.cpp:84] Creating Layer pool1-R
I0715 12:55:42.721071 13441 net.cpp:406] pool1-R <- conv1_2-R
I0715 12:55:42.721081 13441 net.cpp:380] pool1-R -> pool1-R
I0715 12:55:42.721148 13441 net.cpp:122] Setting up pool1-R
I0715 12:55:42.721158 13441 net.cpp:129] Top shape: 1 64 355 254 (5770880)
I0715 12:55:42.721161 13441 net.cpp:137] Memory required for data: 1290706196
I0715 12:55:42.721166 13441 layer_factory.hpp:77] Creating layer conv2_1-R
I0715 12:55:42.721180 13441 net.cpp:84] Creating Layer conv2_1-R
I0715 12:55:42.721186 13441 net.cpp:406] conv2_1-R <- pool1-R
I0715 12:55:42.721194 13441 net.cpp:380] conv2_1-R -> conv2_1-R
I0715 12:55:42.722970 13441 net.cpp:122] Setting up conv2_1-R
I0715 12:55:42.722990 13441 net.cpp:129] Top shape: 1 128 355 254 (11541760)
I0715 12:55:42.722995 13441 net.cpp:137] Memory required for data: 1336873236
I0715 12:55:42.723008 13441 layer_factory.hpp:77] Creating layer relu2_1-R
I0715 12:55:42.723016 13441 net.cpp:84] Creating Layer relu2_1-R
I0715 12:55:42.723021 13441 net.cpp:406] relu2_1-R <- conv2_1-R
I0715 12:55:42.723028 13441 net.cpp:367] relu2_1-R -> conv2_1-R (in-place)
I0715 12:55:42.723966 13441 net.cpp:122] Setting up relu2_1-R
I0715 12:55:42.723989 13441 net.cpp:129] Top shape: 1 128 355 254 (11541760)
I0715 12:55:42.724005 13441 net.cpp:137] Memory required for data: 1383040276
I0715 12:55:42.724015 13441 layer_factory.hpp:77] Creating layer conv2_2-R
I0715 12:55:42.724030 13441 net.cpp:84] Creating Layer conv2_2-R
I0715 12:55:42.724035 13441 net.cpp:406] conv2_2-R <- conv2_1-R
I0715 12:55:42.724056 13441 net.cpp:380] conv2_2-R -> conv2_2-R
I0715 12:55:42.733491 13441 net.cpp:122] Setting up conv2_2-R
I0715 12:55:42.733530 13441 net.cpp:129] Top shape: 1 128 355 254 (11541760)
I0715 12:55:42.733536 13441 net.cpp:137] Memory required for data: 1429207316
I0715 12:55:42.733548 13441 layer_factory.hpp:77] Creating layer relu2_2-R
I0715 12:55:42.733558 13441 net.cpp:84] Creating Layer relu2_2-R
I0715 12:55:42.733564 13441 net.cpp:406] relu2_2-R <- conv2_2-R
I0715 12:55:42.733573 13441 net.cpp:367] relu2_2-R -> conv2_2-R (in-place)
I0715 12:55:42.733883 13441 net.cpp:122] Setting up relu2_2-R
I0715 12:55:42.733899 13441 net.cpp:129] Top shape: 1 128 355 254 (11541760)
I0715 12:55:42.733906 13441 net.cpp:137] Memory required for data: 1475374356
I0715 12:55:42.733911 13441 layer_factory.hpp:77] Creating layer pool2-R
I0715 12:55:42.733920 13441 net.cpp:84] Creating Layer pool2-R
I0715 12:55:42.733927 13441 net.cpp:406] pool2-R <- conv2_2-R
I0715 12:55:42.733935 13441 net.cpp:380] pool2-R -> pool2-R
I0715 12:55:42.734009 13441 net.cpp:122] Setting up pool2-R
I0715 12:55:42.734020 13441 net.cpp:129] Top shape: 1 128 178 127 (2893568)
I0715 12:55:42.734025 13441 net.cpp:137] Memory required for data: 1486948628
I0715 12:55:42.734030 13441 layer_factory.hpp:77] Creating layer conv3_1-R
I0715 12:55:42.734042 13441 net.cpp:84] Creating Layer conv3_1-R
I0715 12:55:42.734048 13441 net.cpp:406] conv3_1-R <- pool2-R
I0715 12:55:42.734056 13441 net.cpp:380] conv3_1-R -> conv3_1-R
I0715 12:55:42.741943 13441 net.cpp:122] Setting up conv3_1-R
I0715 12:55:42.742007 13441 net.cpp:129] Top shape: 1 256 178 127 (5787136)
I0715 12:55:42.742015 13441 net.cpp:137] Memory required for data: 1510097172
I0715 12:55:42.742105 13441 layer_factory.hpp:77] Creating layer relu3_1-R
I0715 12:55:42.742151 13441 net.cpp:84] Creating Layer relu3_1-R
I0715 12:55:42.742161 13441 net.cpp:406] relu3_1-R <- conv3_1-R
I0715 12:55:42.742174 13441 net.cpp:367] relu3_1-R -> conv3_1-R (in-place)
I0715 12:55:42.742694 13441 net.cpp:122] Setting up relu3_1-R
I0715 12:55:42.742725 13441 net.cpp:129] Top shape: 1 256 178 127 (5787136)
I0715 12:55:42.742733 13441 net.cpp:137] Memory required for data: 1533245716
I0715 12:55:42.742739 13441 layer_factory.hpp:77] Creating layer conv3_2-R
I0715 12:55:42.742771 13441 net.cpp:84] Creating Layer conv3_2-R
I0715 12:55:42.742779 13441 net.cpp:406] conv3_2-R <- conv3_1-R
I0715 12:55:42.742794 13441 net.cpp:380] conv3_2-R -> conv3_2-R
I0715 12:55:42.750953 13441 net.cpp:122] Setting up conv3_2-R
I0715 12:55:42.751001 13441 net.cpp:129] Top shape: 1 256 178 127 (5787136)
I0715 12:55:42.751013 13441 net.cpp:137] Memory required for data: 1556394260
I0715 12:55:42.751029 13441 layer_factory.hpp:77] Creating layer relu3_2-R
I0715 12:55:42.751042 13441 net.cpp:84] Creating Layer relu3_2-R
I0715 12:55:42.751052 13441 net.cpp:406] relu3_2-R <- conv3_2-R
I0715 12:55:42.751075 13441 net.cpp:367] relu3_2-R -> conv3_2-R (in-place)
I0715 12:55:42.751485 13441 net.cpp:122] Setting up relu3_2-R
I0715 12:55:42.751519 13441 net.cpp:129] Top shape: 1 256 178 127 (5787136)
I0715 12:55:42.751526 13441 net.cpp:137] Memory required for data: 1579542804
I0715 12:55:42.751538 13441 layer_factory.hpp:77] Creating layer conv3_3-R
I0715 12:55:42.751566 13441 net.cpp:84] Creating Layer conv3_3-R
I0715 12:55:42.751583 13441 net.cpp:406] conv3_3-R <- conv3_2-R
I0715 12:55:42.751596 13441 net.cpp:380] conv3_3-R -> conv3_3-R
I0715 12:55:42.767313 13441 net.cpp:122] Setting up conv3_3-R
I0715 12:55:42.767372 13441 net.cpp:129] Top shape: 1 256 178 127 (5787136)
I0715 12:55:42.767380 13441 net.cpp:137] Memory required for data: 1602691348
I0715 12:55:42.767395 13441 layer_factory.hpp:77] Creating layer relu3_3-R
I0715 12:55:42.767407 13441 net.cpp:84] Creating Layer relu3_3-R
I0715 12:55:42.767416 13441 net.cpp:406] relu3_3-R <- conv3_3-R
I0715 12:55:42.767437 13441 net.cpp:367] relu3_3-R -> conv3_3-R (in-place)
I0715 12:55:42.767832 13441 net.cpp:122] Setting up relu3_3-R
I0715 12:55:42.767851 13441 net.cpp:129] Top shape: 1 256 178 127 (5787136)
I0715 12:55:42.767869 13441 net.cpp:137] Memory required for data: 1625839892
I0715 12:55:42.767877 13441 layer_factory.hpp:77] Creating layer pool3-R
I0715 12:55:42.767904 13441 net.cpp:84] Creating Layer pool3-R
I0715 12:55:42.767910 13441 net.cpp:406] pool3-R <- conv3_3-R
I0715 12:55:42.767922 13441 net.cpp:380] pool3-R -> pool3-R
I0715 12:55:42.768026 13441 net.cpp:122] Setting up pool3-R
I0715 12:55:42.768040 13441 net.cpp:129] Top shape: 1 256 89 64 (1458176)
I0715 12:55:42.768046 13441 net.cpp:137] Memory required for data: 1631672596
I0715 12:55:42.768052 13441 layer_factory.hpp:77] Creating layer pool3-R_pool3-R_0_split
I0715 12:55:42.768062 13441 net.cpp:84] Creating Layer pool3-R_pool3-R_0_split
I0715 12:55:42.768069 13441 net.cpp:406] pool3-R_pool3-R_0_split <- pool3-R
I0715 12:55:42.768079 13441 net.cpp:380] pool3-R_pool3-R_0_split -> pool3-R_pool3-R_0_split_0
I0715 12:55:42.768091 13441 net.cpp:380] pool3-R_pool3-R_0_split -> pool3-R_pool3-R_0_split_1
I0715 12:55:42.768158 13441 net.cpp:122] Setting up pool3-R_pool3-R_0_split
I0715 12:55:42.768170 13441 net.cpp:129] Top shape: 1 256 89 64 (1458176)
I0715 12:55:42.768178 13441 net.cpp:129] Top shape: 1 256 89 64 (1458176)
I0715 12:55:42.768184 13441 net.cpp:137] Memory required for data: 1643338004
I0715 12:55:42.768190 13441 layer_factory.hpp:77] Creating layer conv4_1-R
I0715 12:55:42.768208 13441 net.cpp:84] Creating Layer conv4_1-R
I0715 12:55:42.768215 13441 net.cpp:406] conv4_1-R <- pool3-R_pool3-R_0_split_0
I0715 12:55:42.768226 13441 net.cpp:380] conv4_1-R -> conv4_1-R
I0715 12:55:42.776571 13441 net.cpp:122] Setting up conv4_1-R
I0715 12:55:42.776604 13441 net.cpp:129] Top shape: 1 512 89 64 (2916352)
I0715 12:55:42.776609 13441 net.cpp:137] Memory required for data: 1655003412
I0715 12:55:42.776618 13441 layer_factory.hpp:77] Creating layer relu4_1-R
I0715 12:55:42.776628 13441 net.cpp:84] Creating Layer relu4_1-R
I0715 12:55:42.776633 13441 net.cpp:406] relu4_1-R <- conv4_1-R
I0715 12:55:42.776639 13441 net.cpp:367] relu4_1-R -> conv4_1-R (in-place)
I0715 12:55:42.781821 13441 net.cpp:122] Setting up relu4_1-R
I0715 12:55:42.781852 13441 net.cpp:129] Top shape: 1 512 89 64 (2916352)
I0715 12:55:42.781857 13441 net.cpp:137] Memory required for data: 1666668820
I0715 12:55:42.781862 13441 layer_factory.hpp:77] Creating layer conv4_2-R
I0715 12:55:42.781873 13441 net.cpp:84] Creating Layer conv4_2-R
I0715 12:55:42.781878 13441 net.cpp:406] conv4_2-R <- conv4_1-R
I0715 12:55:42.781903 13441 net.cpp:380] conv4_2-R -> conv4_2-R
I0715 12:55:42.793643 13441 net.cpp:122] Setting up conv4_2-R
I0715 12:55:42.793678 13441 net.cpp:129] Top shape: 1 512 89 64 (2916352)
I0715 12:55:42.793686 13441 net.cpp:137] Memory required for data: 1678334228
I0715 12:55:42.793701 13441 layer_factory.hpp:77] Creating layer relu4_2-R
I0715 12:55:42.793715 13441 net.cpp:84] Creating Layer relu4_2-R
I0715 12:55:42.793722 13441 net.cpp:406] relu4_2-R <- conv4_2-R
I0715 12:55:42.793733 13441 net.cpp:367] relu4_2-R -> conv4_2-R (in-place)
I0715 12:55:42.795644 13441 net.cpp:122] Setting up relu4_2-R
I0715 12:55:42.795675 13441 net.cpp:129] Top shape: 1 512 89 64 (2916352)
I0715 12:55:42.795680 13441 net.cpp:137] Memory required for data: 1689999636
I0715 12:55:42.795693 13441 layer_factory.hpp:77] Creating layer conv4_3-R
I0715 12:55:42.795712 13441 net.cpp:84] Creating Layer conv4_3-R
I0715 12:55:42.795718 13441 net.cpp:406] conv4_3-R <- conv4_2-R
I0715 12:55:42.795728 13441 net.cpp:380] conv4_3-R -> conv4_3-R
I0715 12:55:42.812300 13441 net.cpp:122] Setting up conv4_3-R
I0715 12:55:42.812362 13441 net.cpp:129] Top shape: 1 512 89 64 (2916352)
I0715 12:55:42.812371 13441 net.cpp:137] Memory required for data: 1701665044
I0715 12:55:42.812422 13441 layer_factory.hpp:77] Creating layer relu4_3-R
I0715 12:55:42.812441 13441 net.cpp:84] Creating Layer relu4_3-R
I0715 12:55:42.812455 13441 net.cpp:406] relu4_3-R <- conv4_3-R
I0715 12:55:42.812469 13441 net.cpp:367] relu4_3-R -> conv4_3-R (in-place)
I0715 12:55:42.812863 13441 net.cpp:122] Setting up relu4_3-R
I0715 12:55:42.812881 13441 net.cpp:129] Top shape: 1 512 89 64 (2916352)
I0715 12:55:42.812888 13441 net.cpp:137] Memory required for data: 1713330452
I0715 12:55:42.812896 13441 layer_factory.hpp:77] Creating layer pool4-R
I0715 12:55:42.812921 13441 net.cpp:84] Creating Layer pool4-R
I0715 12:55:42.812937 13441 net.cpp:406] pool4-R <- conv4_3-R
I0715 12:55:42.812963 13441 net.cpp:380] pool4-R -> pool4-R
I0715 12:55:42.813060 13441 net.cpp:122] Setting up pool4-R
I0715 12:55:42.813088 13441 net.cpp:129] Top shape: 1 512 45 32 (737280)
I0715 12:55:42.813094 13441 net.cpp:137] Memory required for data: 1716279572
I0715 12:55:42.813102 13441 layer_factory.hpp:77] Creating layer pool4-R_pool4-R_0_split
I0715 12:55:42.813112 13441 net.cpp:84] Creating Layer pool4-R_pool4-R_0_split
I0715 12:55:42.813120 13441 net.cpp:406] pool4-R_pool4-R_0_split <- pool4-R
I0715 12:55:42.813133 13441 net.cpp:380] pool4-R_pool4-R_0_split -> pool4-R_pool4-R_0_split_0
I0715 12:55:42.813145 13441 net.cpp:380] pool4-R_pool4-R_0_split -> pool4-R_pool4-R_0_split_1
I0715 12:55:42.813233 13441 net.cpp:122] Setting up pool4-R_pool4-R_0_split
I0715 12:55:42.813246 13441 net.cpp:129] Top shape: 1 512 45 32 (737280)
I0715 12:55:42.813256 13441 net.cpp:129] Top shape: 1 512 45 32 (737280)
I0715 12:55:42.813261 13441 net.cpp:137] Memory required for data: 1722177812
I0715 12:55:42.813267 13441 layer_factory.hpp:77] Creating layer conv5_1-R
I0715 12:55:42.813298 13441 net.cpp:84] Creating Layer conv5_1-R
I0715 12:55:42.813315 13441 net.cpp:406] conv5_1-R <- pool4-R_pool4-R_0_split_0
I0715 12:55:42.813328 13441 net.cpp:380] conv5_1-R -> conv5_1-R
I0715 12:55:42.825897 13441 net.cpp:122] Setting up conv5_1-R
I0715 12:55:42.825938 13441 net.cpp:129] Top shape: 1 512 45 32 (737280)
I0715 12:55:42.825944 13441 net.cpp:137] Memory required for data: 1725126932
I0715 12:55:42.825970 13441 layer_factory.hpp:77] Creating layer relu5_1-R
I0715 12:55:42.825980 13441 net.cpp:84] Creating Layer relu5_1-R
I0715 12:55:42.825987 13441 net.cpp:406] relu5_1-R <- conv5_1-R
I0715 12:55:42.825995 13441 net.cpp:367] relu5_1-R -> conv5_1-R (in-place)
I0715 12:55:42.826237 13441 net.cpp:122] Setting up relu5_1-R
I0715 12:55:42.826249 13441 net.cpp:129] Top shape: 1 512 45 32 (737280)
I0715 12:55:42.826254 13441 net.cpp:137] Memory required for data: 1728076052
I0715 12:55:42.826258 13441 layer_factory.hpp:77] Creating layer conv5_2-R
I0715 12:55:42.826270 13441 net.cpp:84] Creating Layer conv5_2-R
I0715 12:55:42.826274 13441 net.cpp:406] conv5_2-R <- conv5_1-R
I0715 12:55:42.826283 13441 net.cpp:380] conv5_2-R -> conv5_2-R
I0715 12:55:42.839031 13441 net.cpp:122] Setting up conv5_2-R
I0715 12:55:42.839073 13441 net.cpp:129] Top shape: 1 512 45 32 (737280)
I0715 12:55:42.839079 13441 net.cpp:137] Memory required for data: 1731025172
I0715 12:55:42.839089 13441 layer_factory.hpp:77] Creating layer relu5_2-R
I0715 12:55:42.839099 13441 net.cpp:84] Creating Layer relu5_2-R
I0715 12:55:42.839107 13441 net.cpp:406] relu5_2-R <- conv5_2-R
I0715 12:55:42.839114 13441 net.cpp:367] relu5_2-R -> conv5_2-R (in-place)
I0715 12:55:42.839365 13441 net.cpp:122] Setting up relu5_2-R
I0715 12:55:42.839391 13441 net.cpp:129] Top shape: 1 512 45 32 (737280)
I0715 12:55:42.839396 13441 net.cpp:137] Memory required for data: 1733974292
I0715 12:55:42.839401 13441 layer_factory.hpp:77] Creating layer conv5_3-R
I0715 12:55:42.839417 13441 net.cpp:84] Creating Layer conv5_3-R
I0715 12:55:42.839422 13441 net.cpp:406] conv5_3-R <- conv5_2-R
I0715 12:55:42.839431 13441 net.cpp:380] conv5_3-R -> conv5_3-R
I0715 12:55:42.853999 13441 net.cpp:122] Setting up conv5_3-R
I0715 12:55:42.854056 13441 net.cpp:129] Top shape: 1 512 45 32 (737280)
I0715 12:55:42.854066 13441 net.cpp:137] Memory required for data: 1736923412
I0715 12:55:42.854084 13441 layer_factory.hpp:77] Creating layer relu5_3-R
I0715 12:55:42.854112 13441 net.cpp:84] Creating Layer relu5_3-R
I0715 12:55:42.854135 13441 net.cpp:406] relu5_3-R <- conv5_3-R
I0715 12:55:42.854158 13441 net.cpp:367] relu5_3-R -> conv5_3-R (in-place)
I0715 12:55:42.854641 13441 net.cpp:122] Setting up relu5_3-R
I0715 12:55:42.854665 13441 net.cpp:129] Top shape: 1 512 45 32 (737280)
I0715 12:55:42.854672 13441 net.cpp:137] Memory required for data: 1739872532
I0715 12:55:42.854681 13441 layer_factory.hpp:77] Creating layer pool5-R
I0715 12:55:42.854727 13441 net.cpp:84] Creating Layer pool5-R
I0715 12:55:42.854739 13441 net.cpp:406] pool5-R <- conv5_3-R
I0715 12:55:42.854761 13441 net.cpp:380] pool5-R -> pool5-R
I0715 12:55:42.854917 13441 net.cpp:122] Setting up pool5-R
I0715 12:55:42.854943 13441 net.cpp:129] Top shape: 1 512 23 16 (188416)
I0715 12:55:42.854954 13441 net.cpp:137] Memory required for data: 1740626196
I0715 12:55:42.854964 13441 layer_factory.hpp:77] Creating layer fc6-R
I0715 12:55:42.855031 13441 net.cpp:84] Creating Layer fc6-R
I0715 12:55:42.855051 13441 net.cpp:406] fc6-R <- pool5-R
I0715 12:55:42.855072 13441 net.cpp:380] fc6-R -> fc6-R
I0715 12:55:43.180500 13441 net.cpp:122] Setting up fc6-R
I0715 12:55:43.180536 13441 net.cpp:129] Top shape: 1 4096 17 10 (696320)
I0715 12:55:43.180542 13441 net.cpp:137] Memory required for data: 1743411476
I0715 12:55:43.180555 13441 layer_factory.hpp:77] Creating layer relu6-R
I0715 12:55:43.180583 13441 net.cpp:84] Creating Layer relu6-R
I0715 12:55:43.180591 13441 net.cpp:406] relu6-R <- fc6-R
I0715 12:55:43.180608 13441 net.cpp:367] relu6-R -> fc6-R (in-place)
I0715 12:55:43.181586 13441 net.cpp:122] Setting up relu6-R
I0715 12:55:43.181603 13441 net.cpp:129] Top shape: 1 4096 17 10 (696320)
I0715 12:55:43.181608 13441 net.cpp:137] Memory required for data: 1746196756
I0715 12:55:43.181613 13441 layer_factory.hpp:77] Creating layer drop6-R
I0715 12:55:43.181633 13441 net.cpp:84] Creating Layer drop6-R
I0715 12:55:43.181638 13441 net.cpp:406] drop6-R <- fc6-R
I0715 12:55:43.181646 13441 net.cpp:367] drop6-R -> fc6-R (in-place)
I0715 12:55:43.181704 13441 net.cpp:122] Setting up drop6-R
I0715 12:55:43.181715 13441 net.cpp:129] Top shape: 1 4096 17 10 (696320)
I0715 12:55:43.181721 13441 net.cpp:137] Memory required for data: 1748982036
I0715 12:55:43.181727 13441 layer_factory.hpp:77] Creating layer fc7-R
I0715 12:55:43.181746 13441 net.cpp:84] Creating Layer fc7-R
I0715 12:55:43.181752 13441 net.cpp:406] fc7-R <- fc6-R
I0715 12:55:43.181766 13441 net.cpp:380] fc7-R -> fc7-R
I0715 12:55:43.231436 13441 net.cpp:122] Setting up fc7-R
I0715 12:55:43.231483 13441 net.cpp:129] Top shape: 1 4096 17 10 (696320)
I0715 12:55:43.231488 13441 net.cpp:137] Memory required for data: 1751767316
I0715 12:55:43.231501 13441 layer_factory.hpp:77] Creating layer relu7-R
I0715 12:55:43.231514 13441 net.cpp:84] Creating Layer relu7-R
I0715 12:55:43.231521 13441 net.cpp:406] relu7-R <- fc7-R
I0715 12:55:43.231530 13441 net.cpp:367] relu7-R -> fc7-R (in-place)
I0715 12:55:43.232416 13441 net.cpp:122] Setting up relu7-R
I0715 12:55:43.232446 13441 net.cpp:129] Top shape: 1 4096 17 10 (696320)
I0715 12:55:43.232450 13441 net.cpp:137] Memory required for data: 1754552596
I0715 12:55:43.232453 13441 layer_factory.hpp:77] Creating layer drop7-R
I0715 12:55:43.232482 13441 net.cpp:84] Creating Layer drop7-R
I0715 12:55:43.232488 13441 net.cpp:406] drop7-R <- fc7-R
I0715 12:55:43.232498 13441 net.cpp:367] drop7-R -> fc7-R (in-place)
I0715 12:55:43.232569 13441 net.cpp:122] Setting up drop7-R
I0715 12:55:43.232583 13441 net.cpp:129] Top shape: 1 4096 17 10 (696320)
I0715 12:55:43.232589 13441 net.cpp:137] Memory required for data: 1757337876
I0715 12:55:43.232594 13441 layer_factory.hpp:77] Creating layer score_fr-new-R
I0715 12:55:43.232609 13441 net.cpp:84] Creating Layer score_fr-new-R
I0715 12:55:43.232615 13441 net.cpp:406] score_fr-new-R <- fc7-R
I0715 12:55:43.232627 13441 net.cpp:380] score_fr-new-R -> score_fr-new-R
I0715 12:55:43.234208 13441 net.cpp:122] Setting up score_fr-new-R
I0715 12:55:43.234222 13441 net.cpp:129] Top shape: 1 3 17 10 (510)
I0715 12:55:43.234242 13441 net.cpp:137] Memory required for data: 1757339916
I0715 12:55:43.234249 13441 layer_factory.hpp:77] Creating layer upscore2-new-R
I0715 12:55:43.234258 13441 net.cpp:84] Creating Layer upscore2-new-R
I0715 12:55:43.234262 13441 net.cpp:406] upscore2-new-R <- score_fr-new-R
I0715 12:55:43.234271 13441 net.cpp:380] upscore2-new-R -> upscore2-new-R
I0715 12:55:43.234603 13441 net.cpp:122] Setting up upscore2-new-R
I0715 12:55:43.234614 13441 net.cpp:129] Top shape: 1 3 36 22 (2376)
I0715 12:55:43.234617 13441 net.cpp:137] Memory required for data: 1757349420
I0715 12:55:43.234624 13441 layer_factory.hpp:77] Creating layer upscore2-new-R_upscore2-new-R_0_split
I0715 12:55:43.234633 13441 net.cpp:84] Creating Layer upscore2-new-R_upscore2-new-R_0_split
I0715 12:55:43.234640 13441 net.cpp:406] upscore2-new-R_upscore2-new-R_0_split <- upscore2-new-R
I0715 12:55:43.234649 13441 net.cpp:380] upscore2-new-R_upscore2-new-R_0_split -> upscore2-new-R_upscore2-new-R_0_split_0
I0715 12:55:43.234660 13441 net.cpp:380] upscore2-new-R_upscore2-new-R_0_split -> upscore2-new-R_upscore2-new-R_0_split_1
I0715 12:55:43.234727 13441 net.cpp:122] Setting up upscore2-new-R_upscore2-new-R_0_split
I0715 12:55:43.234740 13441 net.cpp:129] Top shape: 1 3 36 22 (2376)
I0715 12:55:43.234747 13441 net.cpp:129] Top shape: 1 3 36 22 (2376)
I0715 12:55:43.234753 13441 net.cpp:137] Memory required for data: 1757368428
I0715 12:55:43.234758 13441 layer_factory.hpp:77] Creating layer score_pool4-new-R
I0715 12:55:43.234781 13441 net.cpp:84] Creating Layer score_pool4-new-R
I0715 12:55:43.234789 13441 net.cpp:406] score_pool4-new-R <- pool4-R_pool4-R_0_split_1
I0715 12:55:43.234802 13441 net.cpp:380] score_pool4-new-R -> score_pool4-new-R
I0715 12:55:43.236415 13441 net.cpp:122] Setting up score_pool4-new-R
I0715 12:55:43.236445 13441 net.cpp:129] Top shape: 1 3 45 32 (4320)
I0715 12:55:43.236449 13441 net.cpp:137] Memory required for data: 1757385708
I0715 12:55:43.236456 13441 layer_factory.hpp:77] Creating layer score_pool4c-R
I0715 12:55:43.236466 13441 net.cpp:84] Creating Layer score_pool4c-R
I0715 12:55:43.236470 13441 net.cpp:406] score_pool4c-R <- score_pool4-new-R
I0715 12:55:43.236476 13441 net.cpp:406] score_pool4c-R <- upscore2-new-R_upscore2-new-R_0_split_0
I0715 12:55:43.236481 13441 net.cpp:380] score_pool4c-R -> score_pool4c-R
I0715 12:55:43.236533 13441 net.cpp:122] Setting up score_pool4c-R
I0715 12:55:43.236563 13441 net.cpp:129] Top shape: 1 3 36 22 (2376)
I0715 12:55:43.236569 13441 net.cpp:137] Memory required for data: 1757395212
I0715 12:55:43.236575 13441 layer_factory.hpp:77] Creating layer fuse_pool4-R
I0715 12:55:43.236590 13441 net.cpp:84] Creating Layer fuse_pool4-R
I0715 12:55:43.236598 13441 net.cpp:406] fuse_pool4-R <- upscore2-new-R_upscore2-new-R_0_split_1
I0715 12:55:43.236605 13441 net.cpp:406] fuse_pool4-R <- score_pool4c-R
I0715 12:55:43.236616 13441 net.cpp:380] fuse_pool4-R -> fuse_pool4-R
I0715 12:55:43.236660 13441 net.cpp:122] Setting up fuse_pool4-R
I0715 12:55:43.236673 13441 net.cpp:129] Top shape: 1 3 36 22 (2376)
I0715 12:55:43.236678 13441 net.cpp:137] Memory required for data: 1757404716
I0715 12:55:43.236687 13441 layer_factory.hpp:77] Creating layer upscore_pool4-new-R
I0715 12:55:43.236706 13441 net.cpp:84] Creating Layer upscore_pool4-new-R
I0715 12:55:43.236711 13441 net.cpp:406] upscore_pool4-new-R <- fuse_pool4-R
I0715 12:55:43.236722 13441 net.cpp:380] upscore_pool4-new-R -> upscore_pool4-new-R
I0715 12:55:43.237056 13441 net.cpp:122] Setting up upscore_pool4-new-R
I0715 12:55:43.237066 13441 net.cpp:129] Top shape: 1 3 74 46 (10212)
I0715 12:55:43.237083 13441 net.cpp:137] Memory required for data: 1757445564
I0715 12:55:43.237103 13441 layer_factory.hpp:77] Creating layer upscore_pool4-new-R_upscore_pool4-new-R_0_split
I0715 12:55:43.237112 13441 net.cpp:84] Creating Layer upscore_pool4-new-R_upscore_pool4-new-R_0_split
I0715 12:55:43.237115 13441 net.cpp:406] upscore_pool4-new-R_upscore_pool4-new-R_0_split <- upscore_pool4-new-R
I0715 12:55:43.237121 13441 net.cpp:380] upscore_pool4-new-R_upscore_pool4-new-R_0_split -> upscore_pool4-new-R_upscore_pool4-new-R_0_split_0
I0715 12:55:43.237129 13441 net.cpp:380] upscore_pool4-new-R_upscore_pool4-new-R_0_split -> upscore_pool4-new-R_upscore_pool4-new-R_0_split_1
I0715 12:55:43.237191 13441 net.cpp:122] Setting up upscore_pool4-new-R_upscore_pool4-new-R_0_split
I0715 12:55:43.237201 13441 net.cpp:129] Top shape: 1 3 74 46 (10212)
I0715 12:55:43.237208 13441 net.cpp:129] Top shape: 1 3 74 46 (10212)
I0715 12:55:43.237215 13441 net.cpp:137] Memory required for data: 1757527260
I0715 12:55:43.237220 13441 layer_factory.hpp:77] Creating layer score_pool3-new-R
I0715 12:55:43.237249 13441 net.cpp:84] Creating Layer score_pool3-new-R
I0715 12:55:43.237257 13441 net.cpp:406] score_pool3-new-R <- pool3-R_pool3-R_0_split_1
I0715 12:55:43.237272 13441 net.cpp:380] score_pool3-new-R -> score_pool3-new-R
I0715 12:55:43.238343 13441 net.cpp:122] Setting up score_pool3-new-R
I0715 12:55:43.238355 13441 net.cpp:129] Top shape: 1 3 89 64 (17088)
I0715 12:55:43.238375 13441 net.cpp:137] Memory required for data: 1757595612
I0715 12:55:43.238381 13441 layer_factory.hpp:77] Creating layer score_pool3c-R
I0715 12:55:43.238390 13441 net.cpp:84] Creating Layer score_pool3c-R
I0715 12:55:43.238395 13441 net.cpp:406] score_pool3c-R <- score_pool3-new-R
I0715 12:55:43.238400 13441 net.cpp:406] score_pool3c-R <- upscore_pool4-new-R_upscore_pool4-new-R_0_split_0
I0715 12:55:43.238405 13441 net.cpp:380] score_pool3c-R -> score_pool3c-R
I0715 12:55:43.238451 13441 net.cpp:122] Setting up score_pool3c-R
I0715 12:55:43.238476 13441 net.cpp:129] Top shape: 1 3 74 46 (10212)
I0715 12:55:43.238481 13441 net.cpp:137] Memory required for data: 1757636460
I0715 12:55:43.238487 13441 layer_factory.hpp:77] Creating layer fuse_pool3-R
I0715 12:55:43.238504 13441 net.cpp:84] Creating Layer fuse_pool3-R
I0715 12:55:43.238512 13441 net.cpp:406] fuse_pool3-R <- upscore_pool4-new-R_upscore_pool4-new-R_0_split_1
I0715 12:55:43.238518 13441 net.cpp:406] fuse_pool3-R <- score_pool3c-R
I0715 12:55:43.238529 13441 net.cpp:380] fuse_pool3-R -> fuse_pool3-R
I0715 12:55:43.238570 13441 net.cpp:122] Setting up fuse_pool3-R
I0715 12:55:43.238595 13441 net.cpp:129] Top shape: 1 3 74 46 (10212)
I0715 12:55:43.238600 13441 net.cpp:137] Memory required for data: 1757677308
I0715 12:55:43.238605 13441 layer_factory.hpp:77] Creating layer upscore8-new-R
I0715 12:55:43.238613 13441 net.cpp:84] Creating Layer upscore8-new-R
I0715 12:55:43.238620 13441 net.cpp:406] upscore8-new-R <- fuse_pool3-R
I0715 12:55:43.238631 13441 net.cpp:380] upscore8-new-R -> upscore8-new-R
I0715 12:55:43.238999 13441 net.cpp:122] Setting up upscore8-new-R
I0715 12:55:43.239009 13441 net.cpp:129] Top shape: 1 3 600 376 (676800)
I0715 12:55:43.239028 13441 net.cpp:137] Memory required for data: 1760384508
I0715 12:55:43.239033 13441 layer_factory.hpp:77] Creating layer upscore8_cropped-R
I0715 12:55:43.239040 13441 net.cpp:84] Creating Layer upscore8_cropped-R
I0715 12:55:43.239044 13441 net.cpp:406] upscore8_cropped-R <- upscore8-new-R
I0715 12:55:43.239050 13441 net.cpp:406] upscore8_cropped-R <- data-R_crop_0_split_1
I0715 12:55:43.239055 13441 net.cpp:380] upscore8_cropped-R -> upscore8_cropped-R
I0715 12:55:43.239092 13441 net.cpp:122] Setting up upscore8_cropped-R
I0715 12:55:43.239101 13441 net.cpp:129] Top shape: 1 3 512 310 (476160)
I0715 12:55:43.239106 13441 net.cpp:137] Memory required for data: 1762289148
I0715 12:55:43.239112 13441 layer_factory.hpp:77] Creating layer upscore8_uncropped-R
I0715 12:55:43.239490 13441 net.cpp:84] Creating Layer upscore8_uncropped-R
I0715 12:55:43.239504 13441 net.cpp:406] upscore8_uncropped-R <- crop_info
I0715 12:55:43.239526 13441 net.cpp:406] upscore8_uncropped-R <- upscore8_cropped-R
I0715 12:55:43.239531 13441 net.cpp:406] upscore8_uncropped-R <- data_data_0_split_3
I0715 12:55:43.239537 13441 net.cpp:380] upscore8_uncropped-R -> upscore8_uncropped-R
I0715 12:55:43.243093 13441 net.cpp:122] Setting up upscore8_uncropped-R
I0715 12:55:43.243124 13441 net.cpp:129] Top shape: 1 3 512 310 (476160)
I0715 12:55:43.243127 13441 net.cpp:137] Memory required for data: 1764193788
I0715 12:55:43.243131 13441 layer_factory.hpp:77] Creating layer loss1
I0715 12:55:43.243146 13441 net.cpp:84] Creating Layer loss1
I0715 12:55:43.243150 13441 net.cpp:406] loss1 <- upscore8_cropped_upscore8_cropped_0_split_1
I0715 12:55:43.243156 13441 net.cpp:406] loss1 <- label_data_1_split_1
I0715 12:55:43.243162 13441 net.cpp:380] loss1 -> loss1
…
snapshot_prefix: "/media/Med_2T2/data2/models/snapshots/indiv:1e-5x10,20/FD0:YI3_1_20180715_091940/train"
test_initialization: false
average_loss: 20
stepvalue: 40000
iter_size: 1
I0715 13:43:57.784916 13441 solver.cpp:77] Creating training net from train_net file: /media/Med_2T2/data2/prototxts/training_I3x10.prototxt
I0715 13:43:57.787133 13441 net.cpp:51] Initializing net from parameters: 
state {
  phase: TRAIN
}
layer {
  name: "data"
  type: "Python"
  top: "data"
  top: "label"
  top: "crop_margin"
  top: "crop_prob"
  top: "crop_sample_batch"
  python_param {
    module: "Data"
    layer: "DataLayer"
  }
}
layer {
  name: "conv1_1"
  type: "Convolution"
  bottom: "data"
  top: "conv1_1"
  param {
    lr_mult: 1
    decay_mult: 1
  }
  param {
    lr_mult: 2
    decay_mult: 0
  }
  convolution_param {
    num_output: 64
    pad: 100
    kernel_size: 3
    stride: 1
  }
}
layer {
  name: "relu1_1"
  type: "ReLU"
  bottom: "conv1_1"
  top: "conv1_1"
}
layer {
  name: "conv1_2"
  type: "Convolution"
  bottom: "conv1_1"
  top: "conv1_2"
  param {
    lr_mult: 1
    decay_mult: 1
  }
  param {
    lr_mult: 2
    decay_mult: 0
  }
  convolution_param {
    num_output: 64
    pad: 1
    kernel_size: 3
    stride: 1
  }
}
layer {
  name: "relu1_2"
  type: "ReLU"
  bottom: "conv1_2"
  top: "conv1_2"
}
layer {
  name: "pool1"
  type: "Pooling"
  bottom: "conv1_2"
  top: "pool1"
  pooling_param {
    pool: MAX
    kernel_size: 2
    stride: 2
  }
}
layer {
  name: "conv2_1"
  type: "Convolution"
  bottom: "pool1"
  top: "conv2_1"
  param {
    lr_mult: 1
    decay_mult: 1
  }
  param {
    lr_mult: 2
    decay_mult: 0
  }
  convolution_param {
    num_output: 128
    pad: 1
    kernel_size: 3
    stride: 1
  }
}
layer {
  name: "relu2_1"
  type: "ReLU"
  bottom: "conv2_1"
  top: "conv2_1"
}
layer {
  name: "conv2_2"
  type: "Convolution"
  bottom: "conv2_1"
  top: "conv2_2"
  param {
    lr_mult: 1
    decay_mult: 1
  }
  param {
    lr_mult: 2
    decay_mult: 0
  }
  convolution_param {
    num_output: 128
    pad: 1
    kernel_size: 3
    stride: 1
  }
}
layer {
  name: "relu2_2"
  type: "ReLU"
  bottom: "conv2_2"
  top: "conv2_2"
}
layer {
  name: "pool2"
  type: "Pooling"
  bottom: "conv2_2"
  top: "pool2"
  pooling_param {
    pool: MAX
    kernel_size: 2
    stride: 2
  }
}
layer {
  name: "conv3_1"
  type: "Convolution"
  bottom: "pool2"
  top: "conv3_1"
  param {
    lr_mult: 1
    decay_mult: 1
  }
  param {
    lr_mult: 2
    decay_mult: 0
  }
  convolution_param {
    num_output: 256
    pad: 1
    kernel_size: 3
    stride: 1
  }
}
layer {
  name: "relu3_1"
  type: "ReLU"
  bottom: "conv3_1"
  top: "conv3_1"
}
layer {
  name: "conv3_2"
  type: "Convolution"
  bottom: "conv3_1"
  top: "conv3_2"
  param {
    lr_mult: 1
    decay_mult: 1
  }
  param {
    lr_mult: 2
    decay_mult: 0
  }
  convolution_param {
    num_output: 256
    pad: 1
    kernel_size: 3
    stride: 1
  }
}
layer {
  name: "relu3_2"
  type: "ReLU"
  bottom: "conv3_2"
  top: "conv3_2"
}
layer {
  name: "conv3_3"
  type: "Convolution"
  bottom: "conv3_2"
  top: "conv3_3"
  param {
    lr_mult: 1
    decay_mult: 1
  }
  param {
    lr_mult: 2
    decay_mult: 0
  }
  convolution_param {
    num_output: 256
    pad: 1
    kernel_size: 3
    stride: 1
  }
}
layer {
  name: "relu3_3"
  type: "ReLU"
  bottom: "conv3_3"
  top: "conv3_3"
}
layer {
  name: "pool3"
  type: "Pooling"
  bottom: "conv3_3"
  top: "pool3"
  pooling_param {
    pool: MAX
    kernel_size: 2
    stride: 2
  }
}
layer {
  name: "conv4_1"
  type: "Convolution"
  bottom: "pool3"
  top: "conv4_1"
  param {
    lr_mult: 1
    decay_mult: 1
  }
  param {
    lr_mult: 2
    decay_mult: 0
  }
  convolution_param {
    num_output: 512
    pad: 1
    kernel_size: 3
    stride: 1
  }
}
layer {
  name: "relu4_1"
  type: "ReLU"
  bottom: "conv4_1"
  top: "conv4_1"
}
layer {
  name: "conv4_2"
  type: "Convolution"
  bottom: "conv4_1"
  top: "conv4_2"
  param {
    lr_mult: 1
    decay_mult: 1
  }
  param {
    lr_mult: 2
    decay_mult: 0
  }
  convolution_param {
    num_output: 512
    pad: 1
    kernel_size: 3
    stride: 1
  }
}
layer {
  name: "relu4_2"
  type: "ReLU"
  bottom: "conv4_2"
  top: "conv4_2"
}
layer {
  name: "conv4_3"
  type: "Convolution"
  bottom: "conv4_2"
  top: "conv4_3"
  param {
    lr_mult: 1
    decay_mult: 1
  }
  param {
    lr_mult: 2
    decay_mult: 0
  }
  convolution_param {
    num_output: 512
    pad: 1
    kernel_size: 3
    stride: 1
  }
}
layer {
  name: "relu4_3"
  type: "ReLU"
  bottom: "conv4_3"
  top: "conv4_3"
}
layer {
  name: "pool4"
  type: "Pooling"
  bottom: "conv4_3"
  top: "pool4"
  pooling_param {
    pool: MAX
    kernel_size: 2
    stride: 2
  }
}
layer {
  name: "conv5_1"
  type: "Convolution"
  bottom: "pool4"
  top: "conv5_1"
  param {
    lr_mult: 1
    decay_mult: 1
  }
  param {
    lr_mult: 2
    decay_mult: 0
  }
  convolution_param {
    num_output: 512
    pad: 1
    kernel_size: 3
    stride: 1
  }
}
layer {
  name: "relu5_1"
  type: "ReLU"
  bottom: "conv5_1"
  top: "conv5_1"
}
layer {
  name: "conv5_2"
  type: "Convolution"
  bottom: "conv5_1"
  top: "conv5_2"
  param {
    lr_mult: 1
    decay_mult: 1
  }
  param {
    lr_mult: 2
    decay_mult: 0
  }
  convolution_param {
    num_output: 512
    pad: 1
    kernel_size: 3
    stride: 1
  }
}
layer {
  name: "relu5_2"
  type: "ReLU"
  bottom: "conv5_2"
  top: "conv5_2"
}
layer {
  name: "conv5_3"
  type: "Convolution"
  bottom: "conv5_2"
  top: "conv5_3"
  param {
    lr_mult: 1
    decay_mult: 1
  }
  param {
    lr_mult: 2
    decay_mult: 0
  }
  convolution_param {
    num_output: 512
    pad: 1
    kernel_size: 3
    stride: 1
  }
}
layer {
  name: "relu5_3"
  type: "ReLU"
  bottom: "conv5_3"
  top: "conv5_3"
}
layer {
  name: "pool5"
  type: "Pooling"
  bottom: "conv5_3"
  top: "pool5"
  pooling_param {
    pool: MAX
    kernel_size: 2
    stride: 2
  }
}
layer {
  name: "fc6"
  type: "Convolution"
  bottom: "pool5"
  top: "fc6"
  param {
    lr_mult: 1
    decay_mult: 1
  }
  param {
    lr_mult: 2
    decay_mult: 0
  }
  convolution_param {
    num_output: 4096
    pad: 0
    kernel_size: 7
    stride: 1
  }
}
layer {
  name: "relu6"
  type: "ReLU"
  bottom: "fc6"
  top: "fc6"
}
layer {
  name: "drop6"
  type: "Dropout"
  bottom: "fc6"
  top: "fc6"
  dropout_param {
    dropout_ratio: 0.5
  }
}
layer {
  name: "fc7"
  type: "Convolution"
  bottom: "fc6"
  top: "fc7"
  param {
    lr_mult: 1
    decay_mult: 1
  }
  param {
    lr_mult: 2
    decay_mult: 0
  }
  convolution_param {
    num_output: 4096
    pad: 0
    kernel_size: 1
    stride: 1
  }
}
layer {
  name: "relu7"
  type: "ReLU"
  bottom: "fc7"
  top: "fc7"
}
layer {
  name: "drop7"
  type: "Dropout"
  bottom: "fc7"
  top: "fc7"
  dropout_param {
    dropout_ratio: 0.5
  }
}
layer {
  name: "score_fr-new"
  type: "Convolution"
  bottom: "fc7"
  top: "score_fr-new"
  param {
    lr_mult: 1
    decay_mult: 1
  }
  param {
    lr_mult: 2
    decay_mult: 0
  }
  convolution_param {
    num_output: 3
    kernel_size: 1
  }
}
layer {
  name: "upscore2-new"
  type: "Deconvolution"
  bottom: "score_fr-new"
  top: "upscore2-new"
  param {
    lr_mult: 0
  }
  convolution_param {
    num_output: 3
    bias_term: false
    kernel_size: 4
    stride: 2
  }
}
layer {
  name: "score_pool4-new"
  type: "Convolution"
  bottom: "pool4"
  top: "score_pool4-new"
  param {
    lr_mult: 1
    decay_mult: 1
  }
  param {
    lr_mult: 2
    decay_mult: 0
  }
  convolution_param {
    num_output: 3
    pad: 0
    kernel_size: 1
  }
}
layer {
  name: "score_pool4c"
  type: "Crop"
  bottom: "score_pool4-new"
  bottom: "upscore2-new"
  top: "score_pool4c"
  crop_param {
    axis: 2
    offset: 5
  }
}
layer {
  name: "fuse_pool4"
  type: "Eltwise"
  bottom: "upscore2-new"
  bottom: "score_pool4c"
  top: "fuse_pool4"
  eltwise_param {
    operation: SUM
  }
}
layer {
  name: "upscore_pool4-new"
  type: "Deconvolution"
  bottom: "fuse_pool4"
  top: "upscore_pool4-new"
  param {
    lr_mult: 0
  }
  convolution_param {
    num_output: 3
    bias_term: false
    kernel_size: 4
    stride: 2
  }
}
layer {
  name: "score_pool3-new"
  type: "Convolution"
  bottom: "pool3"
  top: "score_pool3-new"
  param {
    lr_mult: 1
    decay_mult: 1
  }
  param {
    lr_mult: 2
    decay_mult: 0
  }
  convolution_param {
    num_output: 3
    pad: 0
    kernel_size: 1
  }
}
layer {
  name: "score_pool3c"
  type: "Crop"
  bottom: "score_pool3-new"
  bottom: "upscore_pool4-new"
  top: "score_pool3c"
  crop_param {
    axis: 2
    offset: 9
  }
}
layer {
  name: "fuse_pool3"
  type: "Eltwise"
  bottom: "upscore_pool4-new"
  bottom: "score_pool3c"
  top: "fuse_pool3"
  eltwise_param {
    operation: SUM
  }
}
layer {
  name: "upscore8-new"
  type: "Deconvolution"
  bottom: "fuse_pool3"
  top: "upscore8-new"
  param {
    lr_mult: 0
  }
  convolution_param {
    num_output: 3
    bias_term: false
    kernel_size: 16
    stride: 8
  }
}
layer {
  name: "upscore8_cropped"
  type: "Crop"
  bottom: "upscore8-new"
  bottom: "data"
  top: "upscore8_cropped"
  crop_param {
    axis: 2
    offset: 31
  }
}
layer {
  name: "prob"
  type: "Sigmoid"
  bottom: "upscore8_cropped"
  top: "prob"
}
layer {
  name: "saliency1"
  type: "Convolution"
  bottom: "prob"
  top: "saliency1"
  param {
    lr_mult: 10
    decay_mult: 1
  }
  param {
    lr_mult: 20
    decay_mult: 0
  }
  convolution_param {
    num_output: 3
    pad: 1
    kernel_size: 3
    stride: 1
    weight_filler {
      type: "xavier"
    }
    bias_filler {
      type: "constant"
      value: 1
    }
  }
}
layer {
  name: "relu_saliency1"
  type: "ReLU"
  bottom: "saliency1"
  top: "saliency1"
}
layer {
  name: "saliency"
  type: "Convolution"
  bottom: "saliency1"
  top: "saliency"
  param {
    lr_mult: 10
    decay_mult: 1
  }
  param {
    lr_mult: 20
    decay_mult: 0
  }
  convolution_param {
    num_output: 3
    pad: 2
    kernel_size: 5
    stride: 1
    weight_filler {
      type: "xavier"
    }
    bias_filler {
      type: "constant"
      value: 1
    }
  }
}
layer {
  name: "saliency_data"
  type: "Eltwise"
  bottom: "data"
  bottom: "saliency"
  top: "saliency_data"
  eltwise_param {
    operation: PROD
  }
}
layer {
  name: "crop"
  type: "Python"
  bottom: "label"
  bottom: "saliency_data"
  bottom: "crop_margin"
  bottom: "crop_prob"
  bottom: "crop_sample_batch"
  top: "data-R"
  top: "crop_info"
  python_param {
    module: "Crop"
    layer: "CropLayer"
    param_str: "{\"TEST\": 0}"
  }
}
layer {
  name: "conv1_1-R"
  type: "Convolution"
  bottom: "data-R"
  top: "conv1_1-R"
  param {
    lr_mult: 10
    decay_mult: 1
  }
  param {
    lr_mult: 20
    decay_mult: 0
  }
  convolution_param {
    num_output: 64
    pad: 100
    kernel_size: 3
    stride: 1
  }
}
layer {
  name: "relu1_1-R"
  type: "ReLU"
  bottom: "conv1_1-R"
  top: "conv1_1-R"
}
layer {
  name: "conv1_2-R"
  type: "Convolution"
  bottom: "conv1_1-R"
  top: "conv1_2-R"
  param {
    lr_mult: 10
    decay_mult: 1
  }
  param {
    lr_mult: 20
    decay_mult: 0
  }
  convolution_param {
    num_output: 64
    pad: 1
    kernel_size: 3
    stride: 1
  }
}
layer {
  name: "relu1_2-R"
  type: "ReLU"
  bottom: "conv1_2-R"
  top: "conv1_2-R"
}
layer {
  name: "pool1-R"
  type: "Pooling"
  bottom: "conv1_2-R"
  top: "pool1-R"
  pooling_param {
    pool: MAX
    kernel_size: 2
    stride: 2
  }
}
layer {
  name: "conv2_1-R"
  type: "Convolution"
  bottom: "pool1-R"
  top: "conv2_1-R"
  param {
    lr_mult: 10
    decay_mult: 1
  }
  param {
    lr_mult: 20
    decay_mult: 0
  }
  convolution_param {
    num_output: 128
    pad: 1
    kernel_size: 3
    stride: 1
  }
}
layer {
  name: "relu2_1-R"
  type: "ReLU"
  bottom: "conv2_1-R"
  top: "conv2_1-R"
}
layer {
  name: "conv2_2-R"
  type: "Convolution"
  bottom: "conv2_1-R"
  top: "conv2_2-R"
  param {
    lr_mult: 10
    decay_mult: 1
  }
  param {
    lr_mult: 20
    decay_mult: 0
  }
  convolution_param {
    num_output: 128
    pad: 1
    kernel_size: 3
    stride: 1
  }
}
layer {
  name: "relu2_2-R"
  type: "ReLU"
  bottom: "conv2_2-R"
  top: "conv2_2-R"
}
layer {
  name: "pool2-R"
  type: "Pooling"
  bottom: "conv2_2-R"
  top: "pool2-R"
  pooling_param {
    pool: MAX
    kernel_size: 2
    stride: 2
  }
}
layer {
  name: "conv3_1-R"
  type: "Convolution"
  bottom: "pool2-R"
  top: "conv3_1-R"
  param {
    lr_mult: 10
    decay_mult: 1
  }
  param {
    lr_mult: 20
    decay_mult: 0
  }
  convolution_param {
    num_output: 256
    pad: 1
    kernel_size: 3
    stride: 1
  }
}
layer {
  name: "relu3_1-R"
  type: "ReLU"
  bottom: "conv3_1-R"
  top: "conv3_1-R"
}
layer {
  name: "conv3_2-R"
  type: "Convolution"
  bottom: "conv3_1-R"
  top: "conv3_2-R"
  param {
    lr_mult: 10
    decay_mult: 1
  }
  param {
    lr_mult: 20
    decay_mult: 0
  }
  convolution_param {
    num_output: 256
    pad: 1
    kernel_size: 3
    stride: 1
  }
}
layer {
  name: "relu3_2-R"
  type: "ReLU"
  bottom: "conv3_2-R"
  top: "conv3_2-R"
}
layer {
  name: "conv3_3-R"
  type: "Convolution"
  bottom: "conv3_2-R"
  top: "conv3_3-R"
  param {
    lr_mult: 10
    decay_mult: 1
  }
  param {
    lr_mult: 20
    decay_mult: 0
  }
  convolution_param {
    num_output: 256
    pad: 1
    kernel_size: 3
    stride: 1
  }
}
layer {
  name: "relu3_3-R"
  type: "ReLU"
  bottom: "conv3_3-R"
  top: "conv3_3-R"
}
layer {
  name: "pool3-R"
  type: "Pooling"
  bottom: "conv3_3-R"
  top: "pool3-R"
  pooling_param {
    pool: MAX
    kernel_size: 2
    stride: 2
  }
}
layer {
  name: "conv4_1-R"
  type: "Convolution"
  bottom: "pool3-R"
  top: "conv4_1-R"
  param {
    lr_mult: 10
    decay_mult: 1
  }
  param {
    lr_mult: 20
    decay_mult: 0
  }
  convolution_param {
    num_output: 512
    pad: 1
    kernel_size: 3
    stride: 1
  }
}
layer {
  name: "relu4_1-R"
  type: "ReLU"
  bottom: "conv4_1-R"
  top: "conv4_1-R"
}
layer {
  name: "conv4_2-R"
  type: "Convolution"
  bottom: "conv4_1-R"
  top: "conv4_2-R"
  param {
    lr_mult: 10
    decay_mult: 1
  }
  param {
    lr_mult: 20
    decay_mult: 0
  }
  convolution_param {
    num_output: 512
    pad: 1
    kernel_size: 3
    stride: 1
  }
}
layer {
  name: "relu4_2-R"
  type: "ReLU"
  bottom: "conv4_2-R"
  top: "conv4_2-R"
}
layer {
  name: "conv4_3-R"
  type: "Convolution"
  bottom: "conv4_2-R"
  top: "conv4_3-R"
  param {
    lr_mult: 10
    decay_mult: 1
  }
  param {
    lr_mult: 20
    decay_mult: 0
  }
  convolution_param {
    num_output: 512
    pad: 1
    kernel_size: 3
    stride: 1
  }
}
layer {
  name: "relu4_3-R"
  type: "ReLU"
  bottom: "conv4_3-R"
  top: "conv4_3-R"
}
layer {
  name: "pool4-R"
  type: "Pooling"
  bottom: "conv4_3-R"
  top: "pool4-R"
  pooling_param {
    pool: MAX
    kernel_size: 2
    stride: 2
  }
}
layer {
  name: "conv5_1-R"
  type: "Convolution"
  bottom: "pool4-R"
  top: "conv5_1-R"
  param {
    lr_mult: 10
    decay_mult: 1
  }
  param {
    lr_mult: 20
    decay_mult: 0
  }
  convolution_param {
    num_output: 512
    pad: 1
    kernel_size: 3
    stride: 1
  }
}
layer {
  name: "relu5_1-R"
  type: "ReLU"
  bottom: "conv5_1-R"
  top: "conv5_1-R"
}
layer {
  name: "conv5_2-R"
  type: "Convolution"
  bottom: "conv5_1-R"
  top: "conv5_2-R"
  param {
    lr_mult: 10
    decay_mult: 1
  }
  param {
    lr_mult: 20
    decay_mult: 0
  }
  convolution_param {
    num_output: 512
    pad: 1
    kernel_size: 3
    stride: 1
  }
}
layer {
  name: "relu5_2-R"
  type: "ReLU"
  bottom: "conv5_2-R"
  top: "conv5_2-R"
}
layer {
  name: "conv5_3-R"
  type: "Convolution"
  bottom: "conv5_2-R"
  top: "conv5_3-R"
  param {
    lr_mult: 10
    decay_mult: 1
  }
  param {
    lr_mult: 20
    decay_mult: 0
  }
  convolution_param {
    num_output: 512
    pad: 1
    kernel_size: 3
    stride: 1
  }
}
layer {
  name: "relu5_3-R"
  type: "ReLU"
  bottom: "conv5_3-R"
  top: "conv5_3-R"
}
layer {
  name: "pool5-R"
  type: "Pooling"
  bottom: "conv5_3-R"
  top: "pool5-R"
  pooling_param {
    pool: MAX
    kernel_size: 2
    stride: 2
  }
}
layer {
  name: "fc6-R"
  type: "Convolution"
  bottom: "pool5-R"
  top: "fc6-R"
  param {
    lr_mult: 10
    decay_mult: 1
  }
  param {
    lr_mult: 20
    decay_mult: 0
  }
  convolution_param {
    num_output: 4096
    pad: 0
    kernel_size: 7
    stride: 1
  }
}
layer {
  name: "relu6-R"
  type: "ReLU"
  bottom: "fc6-R"
  top: "fc6-R"
}
layer {
  name: "drop6-R"
  type: "Dropout"
  bottom: "fc6-R"
  top: "fc6-R"
  dropout_param {
    dropout_ratio: 0.5
  }
}
layer {
  name: "fc7-R"
  type: "Convolution"
  bottom: "fc6-R"
  top: "fc7-R"
  param {
    lr_mult: 10
    decay_mult: 1
  }
  param {
    lr_mult: 20
    decay_mult: 0
  }
  convolution_param {
    num_output: 4096
    pad: 0
    kernel_size: 1
    stride: 1
  }
}
layer {
  name: "relu7-R"
  type: "ReLU"
  bottom: "fc7-R"
  top: "fc7-R"
}
layer {
  name: "drop7-R"
  type: "Dropout"
  bottom: "fc7-R"
  top: "fc7-R"
  dropout_param {
    dropout_ratio: 0.5
  }
}
layer {
  name: "score_fr-new-R"
  type: "Convolution"
  bottom: "fc7-R"
  top: "score_fr-new-R"
  param {
    lr_mult: 10
    decay_mult: 1
  }
  param {
    lr_mult: 20
    decay_mult: 0
  }
  convolution_param {
    num_output: 3
    kernel_size: 1
  }
}
layer {
  name: "upscore2-new-R"
  type: "Deconvolution"
  bottom: "score_fr-new-R"
  top: "upscore2-new-R"
  param {
    lr_mult: 0
  }
  convolution_param {
    num_output: 3
    bias_term: false
    kernel_size: 4
    stride: 2
  }
}
layer {
  name: "score_pool4-new-R"
  type: "Convolution"
  bottom: "pool4-R"
  top: "score_pool4-new-R"
  param {
    lr_mult: 10
    decay_mult: 1
  }
  param {
    lr_mult: 20
    decay_mult: 0
  }
  convolution_param {
    num_output: 3
    pad: 0
    kernel_size: 1
  }
}
layer {
  name: "score_pool4c-R"
  type: "Crop"
  bottom: "score_pool4-new-R"
  bottom: "upscore2-new-R"
  top: "score_pool4c-R"
  crop_param {
    axis: 2
    offset: 5
  }
}
layer {
  name: "fuse_pool4-R"
  type: "Eltwise"
  bottom: "upscore2-new-R"
  bottom: "score_pool4c-R"
  top: "fuse_pool4-R"
  eltwise_param {
    operation: SUM
  }
}
layer {
  name: "upscore_pool4-new-R"
  type: "Deconvolution"
  bottom: "fuse_pool4-R"
  top: "upscore_pool4-new-R"
  param {
    lr_mult: 0
  }
  convolution_param {
    num_output: 3
    bias_term: false
    kernel_size: 4
    stride: 2
  }
}
layer {
  name: "score_pool3-new-R"
  type: "Convolution"
  bottom: "pool3-R"
  top: "score_pool3-new-R"
  param {
    lr_mult: 10
    decay_mult: 1
  }
  param {
    lr_mult: 20
    decay_mult: 0
  }
  convolution_param {
    num_output: 3
    pad: 0
    kernel_size: 1
  }
}
layer {
  name: "score_pool3c-R"
  type: "Crop"
  bottom: "score_pool3-new-R"
  bottom: "upscore_pool4-new-R"
  top: "score_pool3c-R"
  crop_param {
    axis: 2
    offset: 9
  }
}
layer {
  name: "fuse_pool3-R"
  type: "Eltwise"
  bottom: "upscore_pool4-new-R"
  bottom: "score_pool3c-R"
  top: "fuse_pool3-R"
  eltwise_param {
    operation: SUM
  }
}
layer {
  name: "upscore8-new-R"
  type: "Deconvolution"
  bottom: "fuse_pool3-R"
  top: "upscore8-new-R"
  param {
    lr_mult: 0
  }
  convolution_param {
    num_output: 3
    bias_term: false
    kernel_size: 16
    stride: 8
  }
}
layer {
  name: "upscore8_cropped-R"
  type: "Crop"
  bottom: "upscore8-new-R"
  bottom: "data-R"
  top: "upscore8_cropped-R"
  crop_param {
    axis: 2
    offset: 31
  }
}
layer {
  name: "upscore8_uncropped-R"
  type: "Python"
  bottom: "crop_info"
  bottom: "upscore8_cropped-R"
  bottom: "data"
  top: "upscore8_uncropped-R"
  python_param {
    module: "Uncrop"
    layer: "UncropLayer"
  }
}
layer {
  name: "loss1"
  type: "DiceLoss"
  bottom: "upscore8_cropped"
  bottom: "label"
  top: "loss1"
  loss_weight: 0.333333
}
layer {
  name: "loss2"
  type: "DiceLoss"
  bottom: "upscore8_uncropped-R"
  bottom: "label"
  top: "loss2"
  loss_weight: 0.666667
}
I0715 13:43:57.787612 13441 layer_factory.hpp:77] Creating layer data
I0715 13:43:57.787720 13441 net.cpp:84] Creating Layer data
I0715 13:43:57.787727 13441 net.cpp:380] data -> data
I0715 13:43:57.787736 13441 net.cpp:380] data -> label
I0715 13:43:57.787744 13441 net.cpp:380] data -> crop_margin
I0715 13:43:57.787748 13441 net.cpp:380] data -> crop_prob
I0715 13:43:57.787755 13441 net.cpp:380] data -> crop_sample_batch
I0715 13:43:57.923569 13441 net.cpp:122] Setting up data
I0715 13:43:57.923617 13441 net.cpp:129] Top shape: 1 3 512 199 (305664)
I0715 13:43:57.923624 13441 net.cpp:129] Top shape: 1 3 512 199 (305664)
I0715 13:43:57.923627 13441 net.cpp:129] Top shape: 1 (1)
I0715 13:43:57.923631 13441 net.cpp:129] Top shape: 1 (1)
I0715 13:43:57.923635 13441 net.cpp:129] Top shape: 1 (1)
I0715 13:43:57.923638 13441 net.cpp:137] Memory required for data: 2445324
I0715 13:43:57.923645 13441 layer_factory.hpp:77] Creating layer data_data_0_split
I0715 13:43:57.923676 13441 net.cpp:84] Creating Layer data_data_0_split
I0715 13:43:57.923696 13441 net.cpp:406] data_data_0_split <- data
I0715 13:43:57.923703 13441 net.cpp:380] data_data_0_split -> data_data_0_split_0
I0715 13:43:57.923713 13441 net.cpp:380] data_data_0_split -> data_data_0_split_1
I0715 13:43:57.923718 13441 net.cpp:380] data_data_0_split -> data_data_0_split_2
I0715 13:43:57.923723 13441 net.cpp:380] data_data_0_split -> data_data_0_split_3
I0715 13:43:57.923813 13441 net.cpp:122] Setting up data_data_0_split
I0715 13:43:57.923818 13441 net.cpp:129] Top shape: 1 3 512 199 (305664)
I0715 13:43:57.923822 13441 net.cpp:129] Top shape: 1 3 512 199 (305664)
I0715 13:43:57.923826 13441 net.cpp:129] Top shape: 1 3 512 199 (305664)
I0715 13:43:57.923830 13441 net.cpp:129] Top shape: 1 3 512 199 (305664)
I0715 13:43:57.923832 13441 net.cpp:137] Memory required for data: 7335948
I0715 13:43:57.923836 13441 layer_factory.hpp:77] Creating layer label_data_1_split
I0715 13:43:57.923841 13441 net.cpp:84] Creating Layer label_data_1_split
I0715 13:43:57.923861 13441 net.cpp:406] label_data_1_split <- label
I0715 13:43:57.923866 13441 net.cpp:380] label_data_1_split -> label_data_1_split_0
I0715 13:43:57.923871 13441 net.cpp:380] label_data_1_split -> label_data_1_split_1
I0715 13:43:57.923876 13441 net.cpp:380] label_data_1_split -> label_data_1_split_2
I0715 13:43:57.923939 13441 net.cpp:122] Setting up label_data_1_split
I0715 13:43:57.923944 13441 net.cpp:129] Top shape: 1 3 512 199 (305664)
I0715 13:43:57.923949 13441 net.cpp:129] Top shape: 1 3 512 199 (305664)
I0715 13:43:57.923952 13441 net.cpp:129] Top shape: 1 3 512 199 (305664)
I0715 13:43:57.923955 13441 net.cpp:137] Memory required for data: 11003916
I0715 13:43:57.923959 13441 layer_factory.hpp:77] Creating layer conv1_1
I0715 13:43:57.923969 13441 net.cpp:84] Creating Layer conv1_1
I0715 13:43:57.923972 13441 net.cpp:406] conv1_1 <- data_data_0_split_0
I0715 13:43:57.923976 13441 net.cpp:380] conv1_1 -> conv1_1
I0715 13:43:57.927232 13441 net.cpp:122] Setting up conv1_1
I0715 13:43:57.927260 13441 net.cpp:129] Top shape: 1 64 710 397 (18039680)
I0715 13:43:57.927264 13441 net.cpp:137] Memory required for data: 83162636
I0715 13:43:57.927304 13441 layer_factory.hpp:77] Creating layer relu1_1
I0715 13:43:57.927314 13441 net.cpp:84] Creating Layer relu1_1
I0715 13:43:57.927316 13441 net.cpp:406] relu1_1 <- conv1_1
I0715 13:43:57.927321 13441 net.cpp:367] relu1_1 -> conv1_1 (in-place)
I0715 13:43:57.928249 13441 net.cpp:122] Setting up relu1_1
I0715 13:43:57.928262 13441 net.cpp:129] Top shape: 1 64 710 397 (18039680)
I0715 13:43:57.928267 13441 net.cpp:137] Memory required for data: 155321356
I0715 13:43:57.928270 13441 layer_factory.hpp:77] Creating layer conv1_2
I0715 13:43:57.928279 13441 net.cpp:84] Creating Layer conv1_2
I0715 13:43:57.928282 13441 net.cpp:406] conv1_2 <- conv1_1
I0715 13:43:57.928289 13441 net.cpp:380] conv1_2 -> conv1_2
I0715 13:43:57.931327 13441 net.cpp:122] Setting up conv1_2
I0715 13:43:57.931341 13441 net.cpp:129] Top shape: 1 64 710 397 (18039680)
I0715 13:43:57.931360 13441 net.cpp:137] Memory required for data: 227480076
I0715 13:43:57.931370 13441 layer_factory.hpp:77] Creating layer relu1_2
I0715 13:43:57.931375 13441 net.cpp:84] Creating Layer relu1_2
I0715 13:43:57.931380 13441 net.cpp:406] relu1_2 <- conv1_2
I0715 13:43:57.931385 13441 net.cpp:367] relu1_2 -> conv1_2 (in-place)
I0715 13:43:57.931633 13441 net.cpp:122] Setting up relu1_2
I0715 13:43:57.931644 13441 net.cpp:129] Top shape: 1 64 710 397 (18039680)
I0715 13:43:57.931663 13441 net.cpp:137] Memory required for data: 299638796
I0715 13:43:57.931665 13441 layer_factory.hpp:77] Creating layer pool1
I0715 13:43:57.931689 13441 net.cpp:84] Creating Layer pool1
I0715 13:43:57.931692 13441 net.cpp:406] pool1 <- conv1_2
I0715 13:43:57.931699 13441 net.cpp:380] pool1 -> pool1
I0715 13:43:57.931764 13441 net.cpp:122] Setting up pool1
I0715 13:43:57.931774 13441 net.cpp:129] Top shape: 1 64 355 199 (4521280)
I0715 13:43:57.931777 13441 net.cpp:137] Memory required for data: 317723916
I0715 13:43:57.931782 13441 layer_factory.hpp:77] Creating layer conv2_1
I0715 13:43:57.931789 13441 net.cpp:84] Creating Layer conv2_1
I0715 13:43:57.931793 13441 net.cpp:406] conv2_1 <- pool1
I0715 13:43:57.931798 13441 net.cpp:380] conv2_1 -> conv2_1
I0715 13:43:57.933544 13441 net.cpp:122] Setting up conv2_1
I0715 13:43:57.933558 13441 net.cpp:129] Top shape: 1 128 355 199 (9042560)
I0715 13:43:57.933562 13441 net.cpp:137] Memory required for data: 353894156
I0715 13:43:57.933571 13441 layer_factory.hpp:77] Creating layer relu2_1
I0715 13:43:57.933578 13441 net.cpp:84] Creating Layer relu2_1
I0715 13:43:57.933580 13441 net.cpp:406] relu2_1 <- conv2_1
I0715 13:43:57.933601 13441 net.cpp:367] relu2_1 -> conv2_1 (in-place)
I0715 13:43:57.933838 13441 net.cpp:122] Setting up relu2_1
I0715 13:43:57.933848 13441 net.cpp:129] Top shape: 1 128 355 199 (9042560)
I0715 13:43:57.933852 13441 net.cpp:137] Memory required for data: 390064396
I0715 13:43:57.933856 13441 layer_factory.hpp:77] Creating layer conv2_2
I0715 13:43:57.933864 13441 net.cpp:84] Creating Layer conv2_2
I0715 13:43:57.933869 13441 net.cpp:406] conv2_2 <- conv2_1
I0715 13:43:57.933876 13441 net.cpp:380] conv2_2 -> conv2_2
I0715 13:43:57.935703 13441 net.cpp:122] Setting up conv2_2
I0715 13:43:57.935732 13441 net.cpp:129] Top shape: 1 128 355 199 (9042560)
I0715 13:43:57.935736 13441 net.cpp:137] Memory required for data: 426234636
I0715 13:43:57.935742 13441 layer_factory.hpp:77] Creating layer relu2_2
I0715 13:43:57.935748 13441 net.cpp:84] Creating Layer relu2_2
I0715 13:43:57.935752 13441 net.cpp:406] relu2_2 <- conv2_2
I0715 13:43:57.935757 13441 net.cpp:367] relu2_2 -> conv2_2 (in-place)
I0715 13:43:57.935983 13441 net.cpp:122] Setting up relu2_2
I0715 13:43:57.935993 13441 net.cpp:129] Top shape: 1 128 355 199 (9042560)
I0715 13:43:57.935997 13441 net.cpp:137] Memory required for data: 462404876
I0715 13:43:57.935999 13441 layer_factory.hpp:77] Creating layer pool2
I0715 13:43:57.936007 13441 net.cpp:84] Creating Layer pool2
I0715 13:43:57.936009 13441 net.cpp:406] pool2 <- conv2_2
I0715 13:43:57.936015 13441 net.cpp:380] pool2 -> pool2
I0715 13:43:57.936096 13441 net.cpp:122] Setting up pool2
I0715 13:43:57.936105 13441 net.cpp:129] Top shape: 1 128 178 100 (2278400)
I0715 13:43:57.936107 13441 net.cpp:137] Memory required for data: 471518476
I0715 13:43:57.936111 13441 layer_factory.hpp:77] Creating layer conv3_1
I0715 13:43:57.936120 13441 net.cpp:84] Creating Layer conv3_1
I0715 13:43:57.936123 13441 net.cpp:406] conv3_1 <- pool2
I0715 13:43:57.936128 13441 net.cpp:380] conv3_1 -> conv3_1
I0715 13:43:57.949928 13441 net.cpp:122] Setting up conv3_1
I0715 13:43:57.949991 13441 net.cpp:129] Top shape: 1 256 178 100 (4556800)
I0715 13:43:57.950001 13441 net.cpp:137] Memory required for data: 489745676
I0715 13:43:57.950027 13441 layer_factory.hpp:77] Creating layer relu3_1
I0715 13:43:57.950045 13441 net.cpp:84] Creating Layer relu3_1
I0715 13:43:57.950054 13441 net.cpp:406] relu3_1 <- conv3_1
I0715 13:43:57.950067 13441 net.cpp:367] relu3_1 -> conv3_1 (in-place)
I0715 13:43:57.950551 13441 net.cpp:122] Setting up relu3_1
I0715 13:43:57.950570 13441 net.cpp:129] Top shape: 1 256 178 100 (4556800)
I0715 13:43:57.950588 13441 net.cpp:137] Memory required for data: 507972876
I0715 13:43:57.950597 13441 layer_factory.hpp:77] Creating layer conv3_2
I0715 13:43:57.950615 13441 net.cpp:84] Creating Layer conv3_2
I0715 13:43:57.950623 13441 net.cpp:406] conv3_2 <- conv3_1
I0715 13:43:57.950649 13441 net.cpp:380] conv3_2 -> conv3_2
I0715 13:43:57.958537 13441 net.cpp:122] Setting up conv3_2
I0715 13:43:57.958570 13441 net.cpp:129] Top shape: 1 256 178 100 (4556800)
I0715 13:43:57.958575 13441 net.cpp:137] Memory required for data: 526200076
I0715 13:43:57.958585 13441 layer_factory.hpp:77] Creating layer relu3_2
I0715 13:43:57.958598 13441 net.cpp:84] Creating Layer relu3_2
I0715 13:43:57.958603 13441 net.cpp:406] relu3_2 <- conv3_2
I0715 13:43:57.958609 13441 net.cpp:367] relu3_2 -> conv3_2 (in-place)
I0715 13:43:57.958914 13441 net.cpp:122] Setting up relu3_2
I0715 13:43:57.958927 13441 net.cpp:129] Top shape: 1 256 178 100 (4556800)
I0715 13:43:57.958931 13441 net.cpp:137] Memory required for data: 544427276
I0715 13:43:57.958936 13441 layer_factory.hpp:77] Creating layer conv3_3
I0715 13:43:57.958947 13441 net.cpp:84] Creating Layer conv3_3
I0715 13:43:57.958951 13441 net.cpp:406] conv3_3 <- conv3_2
I0715 13:43:57.958961 13441 net.cpp:380] conv3_3 -> conv3_3
I0715 13:43:57.969447 13441 net.cpp:122] Setting up conv3_3
I0715 13:43:57.969494 13441 net.cpp:129] Top shape: 1 256 178 100 (4556800)
I0715 13:43:57.969503 13441 net.cpp:137] Memory required for data: 562654476
I0715 13:43:57.969523 13441 layer_factory.hpp:77] Creating layer relu3_3
I0715 13:43:57.969538 13441 net.cpp:84] Creating Layer relu3_3
I0715 13:43:57.969559 13441 net.cpp:406] relu3_3 <- conv3_3
I0715 13:43:57.969571 13441 net.cpp:367] relu3_3 -> conv3_3 (in-place)
I0715 13:43:57.971271 13441 net.cpp:122] Setting up relu3_3
I0715 13:43:57.971320 13441 net.cpp:129] Top shape: 1 256 178 100 (4556800)
I0715 13:43:57.971329 13441 net.cpp:137] Memory required for data: 580881676
I0715 13:43:57.971338 13441 layer_factory.hpp:77] Creating layer pool3
I0715 13:43:57.971354 13441 net.cpp:84] Creating Layer pool3
I0715 13:43:57.971361 13441 net.cpp:406] pool3 <- conv3_3
I0715 13:43:57.971385 13441 net.cpp:380] pool3 -> pool3
I0715 13:43:57.971515 13441 net.cpp:122] Setting up pool3
I0715 13:43:57.971531 13441 net.cpp:129] Top shape: 1 256 89 50 (1139200)
I0715 13:43:57.971537 13441 net.cpp:137] Memory required for data: 585438476
I0715 13:43:57.971545 13441 layer_factory.hpp:77] Creating layer pool3_pool3_0_split
I0715 13:43:57.971557 13441 net.cpp:84] Creating Layer pool3_pool3_0_split
I0715 13:43:57.971565 13441 net.cpp:406] pool3_pool3_0_split <- pool3
I0715 13:43:57.971576 13441 net.cpp:380] pool3_pool3_0_split -> pool3_pool3_0_split_0
I0715 13:43:57.971590 13441 net.cpp:380] pool3_pool3_0_split -> pool3_pool3_0_split_1
I0715 13:43:57.971689 13441 net.cpp:122] Setting up pool3_pool3_0_split
I0715 13:43:57.971704 13441 net.cpp:129] Top shape: 1 256 89 50 (1139200)
I0715 13:43:57.971714 13441 net.cpp:129] Top shape: 1 256 89 50 (1139200)
I0715 13:43:57.971719 13441 net.cpp:137] Memory required for data: 594552076
I0715 13:43:57.971726 13441 layer_factory.hpp:77] Creating layer conv4_1
I0715 13:43:57.971743 13441 net.cpp:84] Creating Layer conv4_1
I0715 13:43:57.971751 13441 net.cpp:406] conv4_1 <- pool3_pool3_0_split_0
I0715 13:43:57.971763 13441 net.cpp:380] conv4_1 -> conv4_1
I0715 13:43:57.984269 13441 net.cpp:122] Setting up conv4_1
I0715 13:43:57.984306 13441 net.cpp:129] Top shape: 1 512 89 50 (2278400)
I0715 13:43:57.984310 13441 net.cpp:137] Memory required for data: 603665676
I0715 13:43:57.984319 13441 layer_factory.hpp:77] Creating layer relu4_1
I0715 13:43:57.984328 13441 net.cpp:84] Creating Layer relu4_1
I0715 13:43:57.984333 13441 net.cpp:406] relu4_1 <- conv4_1
I0715 13:43:57.984340 13441 net.cpp:367] relu4_1 -> conv4_1 (in-place)
I0715 13:43:57.984658 13441 net.cpp:122] Setting up relu4_1
I0715 13:43:57.984668 13441 net.cpp:129] Top shape: 1 512 89 50 (2278400)
I0715 13:43:57.984670 13441 net.cpp:137] Memory required for data: 612779276
I0715 13:43:57.984674 13441 layer_factory.hpp:77] Creating layer conv4_2
I0715 13:43:57.984683 13441 net.cpp:84] Creating Layer conv4_2
I0715 13:43:57.984688 13441 net.cpp:406] conv4_2 <- conv4_1
I0715 13:43:57.984694 13441 net.cpp:380] conv4_2 -> conv4_2
I0715 13:43:57.998189 13441 net.cpp:122] Setting up conv4_2
I0715 13:43:57.998237 13441 net.cpp:129] Top shape: 1 512 89 50 (2278400)
I0715 13:43:57.998246 13441 net.cpp:137] Memory required for data: 621892876
I0715 13:43:57.998271 13441 layer_factory.hpp:77] Creating layer relu4_2
I0715 13:43:57.998297 13441 net.cpp:84] Creating Layer relu4_2
I0715 13:43:57.998306 13441 net.cpp:406] relu4_2 <- conv4_2
I0715 13:43:57.998318 13441 net.cpp:367] relu4_2 -> conv4_2 (in-place)
I0715 13:43:57.998773 13441 net.cpp:122] Setting up relu4_2
I0715 13:43:57.998811 13441 net.cpp:129] Top shape: 1 512 89 50 (2278400)
I0715 13:43:57.998817 13441 net.cpp:137] Memory required for data: 631006476
I0715 13:43:57.998824 13441 layer_factory.hpp:77] Creating layer conv4_3
I0715 13:43:57.998852 13441 net.cpp:84] Creating Layer conv4_3
I0715 13:43:57.998859 13441 net.cpp:406] conv4_3 <- conv4_2
I0715 13:43:57.998880 13441 net.cpp:380] conv4_3 -> conv4_3
I0715 13:43:58.007823 13441 net.cpp:122] Setting up conv4_3
I0715 13:43:58.007869 13441 net.cpp:129] Top shape: 1 512 89 50 (2278400)
I0715 13:43:58.007874 13441 net.cpp:137] Memory required for data: 640120076
I0715 13:43:58.007884 13441 layer_factory.hpp:77] Creating layer relu4_3
I0715 13:43:58.007894 13441 net.cpp:84] Creating Layer relu4_3
I0715 13:43:58.007899 13441 net.cpp:406] relu4_3 <- conv4_3
I0715 13:43:58.007906 13441 net.cpp:367] relu4_3 -> conv4_3 (in-place)
I0715 13:43:58.008136 13441 net.cpp:122] Setting up relu4_3
I0715 13:43:58.008146 13441 net.cpp:129] Top shape: 1 512 89 50 (2278400)
I0715 13:43:58.008148 13441 net.cpp:137] Memory required for data: 649233676
I0715 13:43:58.008152 13441 layer_factory.hpp:77] Creating layer pool4
I0715 13:43:58.008162 13441 net.cpp:84] Creating Layer pool4
I0715 13:43:58.008165 13441 net.cpp:406] pool4 <- conv4_3
I0715 13:43:58.008172 13441 net.cpp:380] pool4 -> pool4
I0715 13:43:58.008239 13441 net.cpp:122] Setting up pool4
I0715 13:43:58.008247 13441 net.cpp:129] Top shape: 1 512 45 25 (576000)
I0715 13:43:58.008250 13441 net.cpp:137] Memory required for data: 651537676
I0715 13:43:58.008253 13441 layer_factory.hpp:77] Creating layer pool4_pool4_0_split
I0715 13:43:58.008260 13441 net.cpp:84] Creating Layer pool4_pool4_0_split
I0715 13:43:58.008263 13441 net.cpp:406] pool4_pool4_0_split <- pool4
I0715 13:43:58.008270 13441 net.cpp:380] pool4_pool4_0_split -> pool4_pool4_0_split_0
I0715 13:43:58.008275 13441 net.cpp:380] pool4_pool4_0_split -> pool4_pool4_0_split_1
I0715 13:43:58.008328 13441 net.cpp:122] Setting up pool4_pool4_0_split
I0715 13:43:58.008339 13441 net.cpp:129] Top shape: 1 512 45 25 (576000)
I0715 13:43:58.008344 13441 net.cpp:129] Top shape: 1 512 45 25 (576000)
I0715 13:43:58.008347 13441 net.cpp:137] Memory required for data: 656145676
I0715 13:43:58.008350 13441 layer_factory.hpp:77] Creating layer conv5_1
I0715 13:43:58.008360 13441 net.cpp:84] Creating Layer conv5_1
I0715 13:43:58.008364 13441 net.cpp:406] conv5_1 <- pool4_pool4_0_split_0
I0715 13:43:58.008370 13441 net.cpp:380] conv5_1 -> conv5_1
I0715 13:43:58.017462 13441 net.cpp:122] Setting up conv5_1
I0715 13:43:58.017498 13441 net.cpp:129] Top shape: 1 512 45 25 (576000)
I0715 13:43:58.017503 13441 net.cpp:137] Memory required for data: 658449676
I0715 13:43:58.017511 13441 layer_factory.hpp:77] Creating layer relu5_1
I0715 13:43:58.017519 13441 net.cpp:84] Creating Layer relu5_1
I0715 13:43:58.017524 13441 net.cpp:406] relu5_1 <- conv5_1
I0715 13:43:58.017530 13441 net.cpp:367] relu5_1 -> conv5_1 (in-place)
I0715 13:43:58.017766 13441 net.cpp:122] Setting up relu5_1
I0715 13:43:58.017777 13441 net.cpp:129] Top shape: 1 512 45 25 (576000)
I0715 13:43:58.017781 13441 net.cpp:137] Memory required for data: 660753676
I0715 13:43:58.017783 13441 layer_factory.hpp:77] Creating layer conv5_2
I0715 13:43:58.017793 13441 net.cpp:84] Creating Layer conv5_2
I0715 13:43:58.017797 13441 net.cpp:406] conv5_2 <- conv5_1
I0715 13:43:58.017804 13441 net.cpp:380] conv5_2 -> conv5_2
I0715 13:43:58.031183 13441 net.cpp:122] Setting up conv5_2
I0715 13:43:58.031222 13441 net.cpp:129] Top shape: 1 512 45 25 (576000)
I0715 13:43:58.031229 13441 net.cpp:137] Memory required for data: 663057676
I0715 13:43:58.031242 13441 layer_factory.hpp:77] Creating layer relu5_2
I0715 13:43:58.031261 13441 net.cpp:84] Creating Layer relu5_2
I0715 13:43:58.031268 13441 net.cpp:406] relu5_2 <- conv5_2
I0715 13:43:58.031303 13441 net.cpp:367] relu5_2 -> conv5_2 (in-place)
I0715 13:43:58.031651 13441 net.cpp:122] Setting up relu5_2
I0715 13:43:58.031667 13441 net.cpp:129] Top shape: 1 512 45 25 (576000)
I0715 13:43:58.031673 13441 net.cpp:137] Memory required for data: 665361676
I0715 13:43:58.031679 13441 layer_factory.hpp:77] Creating layer conv5_3
I0715 13:43:58.031694 13441 net.cpp:84] Creating Layer conv5_3
I0715 13:43:58.031700 13441 net.cpp:406] conv5_3 <- conv5_2
I0715 13:43:58.031711 13441 net.cpp:380] conv5_3 -> conv5_3
I0715 13:43:58.042942 13441 net.cpp:122] Setting up conv5_3
I0715 13:43:58.042992 13441 net.cpp:129] Top shape: 1 512 45 25 (576000)
I0715 13:43:58.042999 13441 net.cpp:137] Memory required for data: 667665676
I0715 13:43:58.043010 13441 layer_factory.hpp:77] Creating layer relu5_3
I0715 13:43:58.043023 13441 net.cpp:84] Creating Layer relu5_3
I0715 13:43:58.043041 13441 net.cpp:406] relu5_3 <- conv5_3
I0715 13:43:58.043049 13441 net.cpp:367] relu5_3 -> conv5_3 (in-place)
I0715 13:43:58.048100 13441 net.cpp:122] Setting up relu5_3
I0715 13:43:58.048135 13441 net.cpp:129] Top shape: 1 512 45 25 (576000)
I0715 13:43:58.048140 13441 net.cpp:137] Memory required for data: 669969676
I0715 13:43:58.048143 13441 layer_factory.hpp:77] Creating layer pool5
I0715 13:43:58.048153 13441 net.cpp:84] Creating Layer pool5
I0715 13:43:58.048158 13441 net.cpp:406] pool5 <- conv5_3
I0715 13:43:58.048166 13441 net.cpp:380] pool5 -> pool5
I0715 13:43:58.048256 13441 net.cpp:122] Setting up pool5
I0715 13:43:58.048279 13441 net.cpp:129] Top shape: 1 512 23 13 (153088)
I0715 13:43:58.048281 13441 net.cpp:137] Memory required for data: 670582028
I0715 13:43:58.048285 13441 layer_factory.hpp:77] Creating layer fc6
I0715 13:43:58.048293 13441 net.cpp:84] Creating Layer fc6
I0715 13:43:58.048297 13441 net.cpp:406] fc6 <- pool5
I0715 13:43:58.048305 13441 net.cpp:380] fc6 -> fc6
I0715 13:43:58.314827 13441 net.cpp:122] Setting up fc6
I0715 13:43:58.314873 13441 net.cpp:129] Top shape: 1 4096 17 7 (487424)
I0715 13:43:58.314878 13441 net.cpp:137] Memory required for data: 672531724
I0715 13:43:58.314888 13441 layer_factory.hpp:77] Creating layer relu6
I0715 13:43:58.314900 13441 net.cpp:84] Creating Layer relu6
I0715 13:43:58.314905 13441 net.cpp:406] relu6 <- fc6
I0715 13:43:58.314913 13441 net.cpp:367] relu6 -> fc6 (in-place)
I0715 13:43:58.315131 13441 net.cpp:122] Setting up relu6
I0715 13:43:58.315156 13441 net.cpp:129] Top shape: 1 4096 17 7 (487424)
I0715 13:43:58.315160 13441 net.cpp:137] Memory required for data: 674481420
I0715 13:43:58.315163 13441 layer_factory.hpp:77] Creating layer drop6
I0715 13:43:58.315186 13441 net.cpp:84] Creating Layer drop6
I0715 13:43:58.315189 13441 net.cpp:406] drop6 <- fc6
I0715 13:43:58.315196 13441 net.cpp:367] drop6 -> fc6 (in-place)
I0715 13:43:58.315237 13441 net.cpp:122] Setting up drop6
I0715 13:43:58.315253 13441 net.cpp:129] Top shape: 1 4096 17 7 (487424)
I0715 13:43:58.315256 13441 net.cpp:137] Memory required for data: 676431116
I0715 13:43:58.315259 13441 layer_factory.hpp:77] Creating layer fc7
I0715 13:43:58.315270 13441 net.cpp:84] Creating Layer fc7
I0715 13:43:58.315274 13441 net.cpp:406] fc7 <- fc6
I0715 13:43:58.315289 13441 net.cpp:380] fc7 -> fc7
I0715 13:43:58.370892 13441 net.cpp:122] Setting up fc7
I0715 13:43:58.370939 13441 net.cpp:129] Top shape: 1 4096 17 7 (487424)
I0715 13:43:58.370944 13441 net.cpp:137] Memory required for data: 678380812
I0715 13:43:58.370955 13441 layer_factory.hpp:77] Creating layer relu7
I0715 13:43:58.370967 13441 net.cpp:84] Creating Layer relu7
I0715 13:43:58.370972 13441 net.cpp:406] relu7 <- fc7
I0715 13:43:58.370980 13441 net.cpp:367] relu7 -> fc7 (in-place)
I0715 13:43:58.371230 13441 net.cpp:122] Setting up relu7
I0715 13:43:58.371240 13441 net.cpp:129] Top shape: 1 4096 17 7 (487424)
I0715 13:43:58.371243 13441 net.cpp:137] Memory required for data: 680330508
I0715 13:43:58.371248 13441 layer_factory.hpp:77] Creating layer drop7
I0715 13:43:58.371255 13441 net.cpp:84] Creating Layer drop7
I0715 13:43:58.371258 13441 net.cpp:406] drop7 <- fc7
I0715 13:43:58.371264 13441 net.cpp:367] drop7 -> fc7 (in-place)
I0715 13:43:58.371348 13441 net.cpp:122] Setting up drop7
I0715 13:43:58.371369 13441 net.cpp:129] Top shape: 1 4096 17 7 (487424)
I0715 13:43:58.371372 13441 net.cpp:137] Memory required for data: 682280204
I0715 13:43:58.371376 13441 layer_factory.hpp:77] Creating layer score_fr-new
I0715 13:43:58.371387 13441 net.cpp:84] Creating Layer score_fr-new
I0715 13:43:58.371390 13441 net.cpp:406] score_fr-new <- fc7
I0715 13:43:58.371398 13441 net.cpp:380] score_fr-new -> score_fr-new
I0715 13:43:58.374220 13441 net.cpp:122] Setting up score_fr-new
I0715 13:43:58.374243 13441 net.cpp:129] Top shape: 1 3 17 7 (357)
I0715 13:43:58.374250 13441 net.cpp:137] Memory required for data: 682281632
I0715 13:43:58.374261 13441 layer_factory.hpp:77] Creating layer upscore2-new
I0715 13:43:58.374275 13441 net.cpp:84] Creating Layer upscore2-new
I0715 13:43:58.374281 13441 net.cpp:406] upscore2-new <- score_fr-new
I0715 13:43:58.374292 13441 net.cpp:380] upscore2-new -> upscore2-new
I0715 13:43:58.374802 13441 net.cpp:122] Setting up upscore2-new
I0715 13:43:58.374815 13441 net.cpp:129] Top shape: 1 3 36 16 (1728)
I0715 13:43:58.374820 13441 net.cpp:137] Memory required for data: 682288544
I0715 13:43:58.374845 13441 layer_factory.hpp:77] Creating layer upscore2-new_upscore2-new_0_split
I0715 13:43:58.374855 13441 net.cpp:84] Creating Layer upscore2-new_upscore2-new_0_split
I0715 13:43:58.374861 13441 net.cpp:406] upscore2-new_upscore2-new_0_split <- upscore2-new
I0715 13:43:58.374871 13441 net.cpp:380] upscore2-new_upscore2-new_0_split -> upscore2-new_upscore2-new_0_split_0
I0715 13:43:58.374881 13441 net.cpp:380] upscore2-new_upscore2-new_0_split -> upscore2-new_upscore2-new_0_split_1
I0715 13:43:58.374965 13441 net.cpp:122] Setting up upscore2-new_upscore2-new_0_split
I0715 13:43:58.374977 13441 net.cpp:129] Top shape: 1 3 36 16 (1728)
I0715 13:43:58.374984 13441 net.cpp:129] Top shape: 1 3 36 16 (1728)
I0715 13:43:58.374989 13441 net.cpp:137] Memory required for data: 682302368
I0715 13:43:58.374995 13441 layer_factory.hpp:77] Creating layer score_pool4-new
I0715 13:43:58.375008 13441 net.cpp:84] Creating Layer score_pool4-new
I0715 13:43:58.375023 13441 net.cpp:406] score_pool4-new <- pool4_pool4_0_split_1
I0715 13:43:58.375033 13441 net.cpp:380] score_pool4-new -> score_pool4-new
I0715 13:43:58.378934 13441 net.cpp:122] Setting up score_pool4-new
I0715 13:43:58.379004 13441 net.cpp:129] Top shape: 1 3 45 25 (3375)
I0715 13:43:58.379012 13441 net.cpp:137] Memory required for data: 682315868
I0715 13:43:58.379032 13441 layer_factory.hpp:77] Creating layer score_pool4c
I0715 13:43:58.379053 13441 net.cpp:84] Creating Layer score_pool4c
I0715 13:43:58.379065 13441 net.cpp:406] score_pool4c <- score_pool4-new
I0715 13:43:58.379077 13441 net.cpp:406] score_pool4c <- upscore2-new_upscore2-new_0_split_0
I0715 13:43:58.379112 13441 net.cpp:380] score_pool4c -> score_pool4c
I0715 13:43:58.379194 13441 net.cpp:122] Setting up score_pool4c
I0715 13:43:58.379209 13441 net.cpp:129] Top shape: 1 3 36 16 (1728)
I0715 13:43:58.379216 13441 net.cpp:137] Memory required for data: 682322780
I0715 13:43:58.379223 13441 layer_factory.hpp:77] Creating layer fuse_pool4
I0715 13:43:58.379238 13441 net.cpp:84] Creating Layer fuse_pool4
I0715 13:43:58.379247 13441 net.cpp:406] fuse_pool4 <- upscore2-new_upscore2-new_0_split_1
I0715 13:43:58.379256 13441 net.cpp:406] fuse_pool4 <- score_pool4c
I0715 13:43:58.379267 13441 net.cpp:380] fuse_pool4 -> fuse_pool4
I0715 13:43:58.379405 13441 net.cpp:122] Setting up fuse_pool4
I0715 13:43:58.379420 13441 net.cpp:129] Top shape: 1 3 36 16 (1728)
I0715 13:43:58.379426 13441 net.cpp:137] Memory required for data: 682329692
I0715 13:43:58.379433 13441 layer_factory.hpp:77] Creating layer upscore_pool4-new
I0715 13:43:58.379449 13441 net.cpp:84] Creating Layer upscore_pool4-new
I0715 13:43:58.379457 13441 net.cpp:406] upscore_pool4-new <- fuse_pool4
I0715 13:43:58.379470 13441 net.cpp:380] upscore_pool4-new -> upscore_pool4-new
I0715 13:43:58.380129 13441 net.cpp:122] Setting up upscore_pool4-new
I0715 13:43:58.380144 13441 net.cpp:129] Top shape: 1 3 74 34 (7548)
I0715 13:43:58.380151 13441 net.cpp:137] Memory required for data: 682359884
I0715 13:43:58.380165 13441 layer_factory.hpp:77] Creating layer upscore_pool4-new_upscore_pool4-new_0_split
I0715 13:43:58.380178 13441 net.cpp:84] Creating Layer upscore_pool4-new_upscore_pool4-new_0_split
I0715 13:43:58.380187 13441 net.cpp:406] upscore_pool4-new_upscore_pool4-new_0_split <- upscore_pool4-new
I0715 13:43:58.380198 13441 net.cpp:380] upscore_pool4-new_upscore_pool4-new_0_split -> upscore_pool4-new_upscore_pool4-new_0_split_0
I0715 13:43:58.380209 13441 net.cpp:380] upscore_pool4-new_upscore_pool4-new_0_split -> upscore_pool4-new_upscore_pool4-new_0_split_1
I0715 13:43:58.380312 13441 net.cpp:122] Setting up upscore_pool4-new_upscore_pool4-new_0_split
I0715 13:43:58.380326 13441 net.cpp:129] Top shape: 1 3 74 34 (7548)
I0715 13:43:58.380334 13441 net.cpp:129] Top shape: 1 3 74 34 (7548)
I0715 13:43:58.380342 13441 net.cpp:137] Memory required for data: 682420268
I0715 13:43:58.380349 13441 layer_factory.hpp:77] Creating layer score_pool3-new
I0715 13:43:58.380365 13441 net.cpp:84] Creating Layer score_pool3-new
I0715 13:43:58.380373 13441 net.cpp:406] score_pool3-new <- pool3_pool3_0_split_1
I0715 13:43:58.380386 13441 net.cpp:380] score_pool3-new -> score_pool3-new
I0715 13:43:58.384069 13441 net.cpp:122] Setting up score_pool3-new
I0715 13:43:58.384088 13441 net.cpp:129] Top shape: 1 3 89 50 (13350)
I0715 13:43:58.384104 13441 net.cpp:137] Memory required for data: 682473668
I0715 13:43:58.384111 13441 layer_factory.hpp:77] Creating layer score_pool3c
I0715 13:43:58.384120 13441 net.cpp:84] Creating Layer score_pool3c
I0715 13:43:58.384126 13441 net.cpp:406] score_pool3c <- score_pool3-new
I0715 13:43:58.384132 13441 net.cpp:406] score_pool3c <- upscore_pool4-new_upscore_pool4-new_0_split_0
I0715 13:43:58.384140 13441 net.cpp:380] score_pool3c -> score_pool3c
I0715 13:43:58.384188 13441 net.cpp:122] Setting up score_pool3c
I0715 13:43:58.384196 13441 net.cpp:129] Top shape: 1 3 74 34 (7548)
I0715 13:43:58.384198 13441 net.cpp:137] Memory required for data: 682503860
I0715 13:43:58.384203 13441 layer_factory.hpp:77] Creating layer fuse_pool3
I0715 13:43:58.384212 13441 net.cpp:84] Creating Layer fuse_pool3
I0715 13:43:58.384215 13441 net.cpp:406] fuse_pool3 <- upscore_pool4-new_upscore_pool4-new_0_split_1
I0715 13:43:58.384222 13441 net.cpp:406] fuse_pool3 <- score_pool3c
I0715 13:43:58.384229 13441 net.cpp:380] fuse_pool3 -> fuse_pool3
I0715 13:43:58.384271 13441 net.cpp:122] Setting up fuse_pool3
I0715 13:43:58.384277 13441 net.cpp:129] Top shape: 1 3 74 34 (7548)
I0715 13:43:58.384280 13441 net.cpp:137] Memory required for data: 682534052
I0715 13:43:58.384284 13441 layer_factory.hpp:77] Creating layer upscore8-new
I0715 13:43:58.384294 13441 net.cpp:84] Creating Layer upscore8-new
I0715 13:43:58.384299 13441 net.cpp:406] upscore8-new <- fuse_pool3
I0715 13:43:58.384305 13441 net.cpp:380] upscore8-new -> upscore8-new
I0715 13:43:58.384699 13441 net.cpp:122] Setting up upscore8-new
I0715 13:43:58.384709 13441 net.cpp:129] Top shape: 1 3 600 280 (504000)
I0715 13:43:58.384713 13441 net.cpp:137] Memory required for data: 684550052
I0715 13:43:58.384727 13441 layer_factory.hpp:77] Creating layer upscore8_cropped
I0715 13:43:58.384735 13441 net.cpp:84] Creating Layer upscore8_cropped
I0715 13:43:58.384740 13441 net.cpp:406] upscore8_cropped <- upscore8-new
I0715 13:43:58.384747 13441 net.cpp:406] upscore8_cropped <- data_data_0_split_1
I0715 13:43:58.384753 13441 net.cpp:380] upscore8_cropped -> upscore8_cropped
I0715 13:43:58.384793 13441 net.cpp:122] Setting up upscore8_cropped
I0715 13:43:58.384799 13441 net.cpp:129] Top shape: 1 3 512 199 (305664)
I0715 13:43:58.384802 13441 net.cpp:137] Memory required for data: 685772708
I0715 13:43:58.384806 13441 layer_factory.hpp:77] Creating layer upscore8_cropped_upscore8_cropped_0_split
I0715 13:43:58.384814 13441 net.cpp:84] Creating Layer upscore8_cropped_upscore8_cropped_0_split
I0715 13:43:58.384819 13441 net.cpp:406] upscore8_cropped_upscore8_cropped_0_split <- upscore8_cropped
I0715 13:43:58.384825 13441 net.cpp:380] upscore8_cropped_upscore8_cropped_0_split -> upscore8_cropped_upscore8_cropped_0_split_0
I0715 13:43:58.384833 13441 net.cpp:380] upscore8_cropped_upscore8_cropped_0_split -> upscore8_cropped_upscore8_cropped_0_split_1
I0715 13:43:58.384905 13441 net.cpp:122] Setting up upscore8_cropped_upscore8_cropped_0_split
I0715 13:43:58.384912 13441 net.cpp:129] Top shape: 1 3 512 199 (305664)
I0715 13:43:58.384917 13441 net.cpp:129] Top shape: 1 3 512 199 (305664)
I0715 13:43:58.384922 13441 net.cpp:137] Memory required for data: 688218020
I0715 13:43:58.384925 13441 layer_factory.hpp:77] Creating layer prob
I0715 13:43:58.384934 13441 net.cpp:84] Creating Layer prob
I0715 13:43:58.384938 13441 net.cpp:406] prob <- upscore8_cropped_upscore8_cropped_0_split_0
I0715 13:43:58.384946 13441 net.cpp:380] prob -> prob
I0715 13:43:58.385233 13441 net.cpp:122] Setting up prob
I0715 13:43:58.385246 13441 net.cpp:129] Top shape: 1 3 512 199 (305664)
I0715 13:43:58.385249 13441 net.cpp:137] Memory required for data: 689440676
I0715 13:43:58.385254 13441 layer_factory.hpp:77] Creating layer saliency1
I0715 13:43:58.385267 13441 net.cpp:84] Creating Layer saliency1
I0715 13:43:58.385272 13441 net.cpp:406] saliency1 <- prob
I0715 13:43:58.385282 13441 net.cpp:380] saliency1 -> saliency1
I0715 13:43:58.392787 13441 net.cpp:122] Setting up saliency1
I0715 13:43:58.392817 13441 net.cpp:129] Top shape: 1 3 512 199 (305664)
I0715 13:43:58.392823 13441 net.cpp:137] Memory required for data: 690663332
I0715 13:43:58.392835 13441 layer_factory.hpp:77] Creating layer relu_saliency1
I0715 13:43:58.392846 13441 net.cpp:84] Creating Layer relu_saliency1
I0715 13:43:58.392854 13441 net.cpp:406] relu_saliency1 <- saliency1
I0715 13:43:58.392863 13441 net.cpp:367] relu_saliency1 -> saliency1 (in-place)
I0715 13:43:58.393193 13441 net.cpp:122] Setting up relu_saliency1
I0715 13:43:58.393209 13441 net.cpp:129] Top shape: 1 3 512 199 (305664)
I0715 13:43:58.393215 13441 net.cpp:137] Memory required for data: 691885988
I0715 13:43:58.393220 13441 layer_factory.hpp:77] Creating layer saliency
I0715 13:43:58.393236 13441 net.cpp:84] Creating Layer saliency
I0715 13:43:58.393244 13441 net.cpp:406] saliency <- saliency1
I0715 13:43:58.393254 13441 net.cpp:380] saliency -> saliency
I0715 13:43:58.396589 13441 net.cpp:122] Setting up saliency
I0715 13:43:58.396617 13441 net.cpp:129] Top shape: 1 3 512 199 (305664)
I0715 13:43:58.396625 13441 net.cpp:137] Memory required for data: 693108644
I0715 13:43:58.396639 13441 layer_factory.hpp:77] Creating layer saliency_data
I0715 13:43:58.396654 13441 net.cpp:84] Creating Layer saliency_data
I0715 13:43:58.396662 13441 net.cpp:406] saliency_data <- data_data_0_split_2
I0715 13:43:58.396685 13441 net.cpp:406] saliency_data <- saliency
I0715 13:43:58.396697 13441 net.cpp:380] saliency_data -> saliency_data
I0715 13:43:58.396773 13441 net.cpp:122] Setting up saliency_data
I0715 13:43:58.396788 13441 net.cpp:129] Top shape: 1 3 512 199 (305664)
I0715 13:43:58.396800 13441 net.cpp:137] Memory required for data: 694331300
I0715 13:43:58.396807 13441 layer_factory.hpp:77] Creating layer crop
I0715 13:43:58.396890 13441 net.cpp:84] Creating Layer crop
I0715 13:43:58.396903 13441 net.cpp:406] crop <- label_data_1_split_0
I0715 13:43:58.396914 13441 net.cpp:406] crop <- saliency_data
I0715 13:43:58.396924 13441 net.cpp:406] crop <- crop_margin
I0715 13:43:58.396932 13441 net.cpp:406] crop <- crop_prob
I0715 13:43:58.396940 13441 net.cpp:406] crop <- crop_sample_batch
I0715 13:43:58.396951 13441 net.cpp:380] crop -> data-R
I0715 13:43:58.396966 13441 net.cpp:380] crop -> crop_info
I0715 13:43:58.405913 13441 net.cpp:122] Setting up crop
I0715 13:43:58.405968 13441 net.cpp:129] Top shape: 1 3 512 199 (305664)
I0715 13:43:58.405979 13441 net.cpp:129] Top shape: 1 2 4 (8)
I0715 13:43:58.405987 13441 net.cpp:137] Memory required for data: 695553988
I0715 13:43:58.405995 13441 layer_factory.hpp:77] Creating layer data-R_crop_0_split
I0715 13:43:58.406016 13441 net.cpp:84] Creating Layer data-R_crop_0_split
I0715 13:43:58.406026 13441 net.cpp:406] data-R_crop_0_split <- data-R
I0715 13:43:58.406041 13441 net.cpp:380] data-R_crop_0_split -> data-R_crop_0_split_0
I0715 13:43:58.406057 13441 net.cpp:380] data-R_crop_0_split -> data-R_crop_0_split_1
I0715 13:43:58.406185 13441 net.cpp:122] Setting up data-R_crop_0_split
I0715 13:43:58.406201 13441 net.cpp:129] Top shape: 1 3 512 199 (305664)
I0715 13:43:58.406210 13441 net.cpp:129] Top shape: 1 3 512 199 (305664)
I0715 13:43:58.406216 13441 net.cpp:137] Memory required for data: 697999300
I0715 13:43:58.406224 13441 layer_factory.hpp:77] Creating layer conv1_1-R
I0715 13:43:58.406241 13441 net.cpp:84] Creating Layer conv1_1-R
I0715 13:43:58.406252 13441 net.cpp:406] conv1_1-R <- data-R_crop_0_split_0
I0715 13:43:58.406265 13441 net.cpp:380] conv1_1-R -> conv1_1-R
I0715 13:43:58.415489 13441 net.cpp:122] Setting up conv1_1-R
I0715 13:43:58.415514 13441 net.cpp:129] Top shape: 1 64 710 397 (18039680)
I0715 13:43:58.415519 13441 net.cpp:137] Memory required for data: 770158020
I0715 13:43:58.415542 13441 layer_factory.hpp:77] Creating layer relu1_1-R
I0715 13:43:58.415566 13441 net.cpp:84] Creating Layer relu1_1-R
I0715 13:43:58.415572 13441 net.cpp:406] relu1_1-R <- conv1_1-R
I0715 13:43:58.415580 13441 net.cpp:367] relu1_1-R -> conv1_1-R (in-place)
I0715 13:43:58.415927 13441 net.cpp:122] Setting up relu1_1-R
I0715 13:43:58.415940 13441 net.cpp:129] Top shape: 1 64 710 397 (18039680)
I0715 13:43:58.415956 13441 net.cpp:137] Memory required for data: 842316740
I0715 13:43:58.415961 13441 layer_factory.hpp:77] Creating layer conv1_2-R
I0715 13:43:58.415973 13441 net.cpp:84] Creating Layer conv1_2-R
I0715 13:43:58.415977 13441 net.cpp:406] conv1_2-R <- conv1_1-R
I0715 13:43:58.415987 13441 net.cpp:380] conv1_2-R -> conv1_2-R
I0715 13:43:58.421548 13441 net.cpp:122] Setting up conv1_2-R
I0715 13:43:58.421583 13441 net.cpp:129] Top shape: 1 64 710 397 (18039680)
I0715 13:43:58.421589 13441 net.cpp:137] Memory required for data: 914475460
I0715 13:43:58.421600 13441 layer_factory.hpp:77] Creating layer relu1_2-R
I0715 13:43:58.421610 13441 net.cpp:84] Creating Layer relu1_2-R
I0715 13:43:58.421617 13441 net.cpp:406] relu1_2-R <- conv1_2-R
I0715 13:43:58.421624 13441 net.cpp:367] relu1_2-R -> conv1_2-R (in-place)
I0715 13:43:58.421965 13441 net.cpp:122] Setting up relu1_2-R
I0715 13:43:58.421980 13441 net.cpp:129] Top shape: 1 64 710 397 (18039680)
I0715 13:43:58.421984 13441 net.cpp:137] Memory required for data: 986634180
I0715 13:43:58.421991 13441 layer_factory.hpp:77] Creating layer pool1-R
I0715 13:43:58.422003 13441 net.cpp:84] Creating Layer pool1-R
I0715 13:43:58.422008 13441 net.cpp:406] pool1-R <- conv1_2-R
I0715 13:43:58.422017 13441 net.cpp:380] pool1-R -> pool1-R
I0715 13:43:58.422119 13441 net.cpp:122] Setting up pool1-R
I0715 13:43:58.422132 13441 net.cpp:129] Top shape: 1 64 355 199 (4521280)
I0715 13:43:58.422137 13441 net.cpp:137] Memory required for data: 1004719300
I0715 13:43:58.422142 13441 layer_factory.hpp:77] Creating layer conv2_1-R
I0715 13:43:58.422155 13441 net.cpp:84] Creating Layer conv2_1-R
I0715 13:43:58.422160 13441 net.cpp:406] conv2_1-R <- pool1-R
I0715 13:43:58.422169 13441 net.cpp:380] conv2_1-R -> conv2_1-R
I0715 13:43:58.425082 13441 net.cpp:122] Setting up conv2_1-R
I0715 13:43:58.425120 13441 net.cpp:129] Top shape: 1 128 355 199 (9042560)
I0715 13:43:58.425127 13441 net.cpp:137] Memory required for data: 1040889540
I0715 13:43:58.425137 13441 layer_factory.hpp:77] Creating layer relu2_1-R
I0715 13:43:58.425148 13441 net.cpp:84] Creating Layer relu2_1-R
I0715 13:43:58.425154 13441 net.cpp:406] relu2_1-R <- conv2_1-R
I0715 13:43:58.425173 13441 net.cpp:367] relu2_1-R -> conv2_1-R (in-place)
I0715 13:43:58.425477 13441 net.cpp:122] Setting up relu2_1-R
I0715 13:43:58.425492 13441 net.cpp:129] Top shape: 1 128 355 199 (9042560)
I0715 13:43:58.425498 13441 net.cpp:137] Memory required for data: 1077059780
I0715 13:43:58.425503 13441 layer_factory.hpp:77] Creating layer conv2_2-R
I0715 13:43:58.425515 13441 net.cpp:84] Creating Layer conv2_2-R
I0715 13:43:58.425520 13441 net.cpp:406] conv2_2-R <- conv2_1-R
I0715 13:43:58.425531 13441 net.cpp:380] conv2_2-R -> conv2_2-R
I0715 13:43:58.428459 13441 net.cpp:122] Setting up conv2_2-R
I0715 13:43:58.428481 13441 net.cpp:129] Top shape: 1 128 355 199 (9042560)
I0715 13:43:58.428495 13441 net.cpp:137] Memory required for data: 1113230020
I0715 13:43:58.428506 13441 layer_factory.hpp:77] Creating layer relu2_2-R
I0715 13:43:58.428519 13441 net.cpp:84] Creating Layer relu2_2-R
I0715 13:43:58.428524 13441 net.cpp:406] relu2_2-R <- conv2_2-R
I0715 13:43:58.428532 13441 net.cpp:367] relu2_2-R -> conv2_2-R (in-place)
I0715 13:43:58.429908 13441 net.cpp:122] Setting up relu2_2-R
I0715 13:43:58.429940 13441 net.cpp:129] Top shape: 1 128 355 199 (9042560)
I0715 13:43:58.429946 13441 net.cpp:137] Memory required for data: 1149400260
I0715 13:43:58.429951 13441 layer_factory.hpp:77] Creating layer pool2-R
I0715 13:43:58.429962 13441 net.cpp:84] Creating Layer pool2-R
I0715 13:43:58.429968 13441 net.cpp:406] pool2-R <- conv2_2-R
I0715 13:43:58.429978 13441 net.cpp:380] pool2-R -> pool2-R
I0715 13:43:58.430081 13441 net.cpp:122] Setting up pool2-R
I0715 13:43:58.430094 13441 net.cpp:129] Top shape: 1 128 178 100 (2278400)
I0715 13:43:58.430099 13441 net.cpp:137] Memory required for data: 1158513860
I0715 13:43:58.430102 13441 layer_factory.hpp:77] Creating layer conv3_1-R
I0715 13:43:58.430117 13441 net.cpp:84] Creating Layer conv3_1-R
I0715 13:43:58.430122 13441 net.cpp:406] conv3_1-R <- pool2-R
I0715 13:43:58.430131 13441 net.cpp:380] conv3_1-R -> conv3_1-R
I0715 13:43:58.435570 13441 net.cpp:122] Setting up conv3_1-R
I0715 13:43:58.435601 13441 net.cpp:129] Top shape: 1 256 178 100 (4556800)
I0715 13:43:58.435606 13441 net.cpp:137] Memory required for data: 1176741060
I0715 13:43:58.435616 13441 layer_factory.hpp:77] Creating layer relu3_1-R
I0715 13:43:58.435626 13441 net.cpp:84] Creating Layer relu3_1-R
I0715 13:43:58.435631 13441 net.cpp:406] relu3_1-R <- conv3_1-R
I0715 13:43:58.435638 13441 net.cpp:367] relu3_1-R -> conv3_1-R (in-place)
I0715 13:43:58.435914 13441 net.cpp:122] Setting up relu3_1-R
I0715 13:43:58.435927 13441 net.cpp:129] Top shape: 1 256 178 100 (4556800)
I0715 13:43:58.435931 13441 net.cpp:137] Memory required for data: 1194968260
I0715 13:43:58.435935 13441 layer_factory.hpp:77] Creating layer conv3_2-R
I0715 13:43:58.435947 13441 net.cpp:84] Creating Layer conv3_2-R
I0715 13:43:58.435952 13441 net.cpp:406] conv3_2-R <- conv3_1-R
I0715 13:43:58.435961 13441 net.cpp:380] conv3_2-R -> conv3_2-R
I0715 13:43:58.442175 13441 net.cpp:122] Setting up conv3_2-R
I0715 13:43:58.442194 13441 net.cpp:129] Top shape: 1 256 178 100 (4556800)
I0715 13:43:58.442210 13441 net.cpp:137] Memory required for data: 1213195460
I0715 13:43:58.442220 13441 layer_factory.hpp:77] Creating layer relu3_2-R
I0715 13:43:58.442229 13441 net.cpp:84] Creating Layer relu3_2-R
I0715 13:43:58.442235 13441 net.cpp:406] relu3_2-R <- conv3_2-R
I0715 13:43:58.442243 13441 net.cpp:367] relu3_2-R -> conv3_2-R (in-place)
I0715 13:43:58.442523 13441 net.cpp:122] Setting up relu3_2-R
I0715 13:43:58.442536 13441 net.cpp:129] Top shape: 1 256 178 100 (4556800)
I0715 13:43:58.442540 13441 net.cpp:137] Memory required for data: 1231422660
I0715 13:43:58.442545 13441 layer_factory.hpp:77] Creating layer conv3_3-R
I0715 13:43:58.442556 13441 net.cpp:84] Creating Layer conv3_3-R
I0715 13:43:58.442561 13441 net.cpp:406] conv3_3-R <- conv3_2-R
I0715 13:43:58.442569 13441 net.cpp:380] conv3_3-R -> conv3_3-R
I0715 13:43:58.448113 13441 net.cpp:122] Setting up conv3_3-R
I0715 13:43:58.448132 13441 net.cpp:129] Top shape: 1 256 178 100 (4556800)
I0715 13:43:58.448145 13441 net.cpp:137] Memory required for data: 1249649860
I0715 13:43:58.448155 13441 layer_factory.hpp:77] Creating layer relu3_3-R
I0715 13:43:58.448164 13441 net.cpp:84] Creating Layer relu3_3-R
I0715 13:43:58.448169 13441 net.cpp:406] relu3_3-R <- conv3_3-R
I0715 13:43:58.448176 13441 net.cpp:367] relu3_3-R -> conv3_3-R (in-place)
I0715 13:43:58.448451 13441 net.cpp:122] Setting up relu3_3-R
I0715 13:43:58.448463 13441 net.cpp:129] Top shape: 1 256 178 100 (4556800)
I0715 13:43:58.448467 13441 net.cpp:137] Memory required for data: 1267877060
I0715 13:43:58.448472 13441 layer_factory.hpp:77] Creating layer pool3-R
I0715 13:43:58.448482 13441 net.cpp:84] Creating Layer pool3-R
I0715 13:43:58.448487 13441 net.cpp:406] pool3-R <- conv3_3-R
I0715 13:43:58.448494 13441 net.cpp:380] pool3-R -> pool3-R
I0715 13:43:58.448580 13441 net.cpp:122] Setting up pool3-R
I0715 13:43:58.448590 13441 net.cpp:129] Top shape: 1 256 89 50 (1139200)
I0715 13:43:58.448595 13441 net.cpp:137] Memory required for data: 1272433860
I0715 13:43:58.448598 13441 layer_factory.hpp:77] Creating layer pool3-R_pool3-R_0_split
I0715 13:43:58.448606 13441 net.cpp:84] Creating Layer pool3-R_pool3-R_0_split
I0715 13:43:58.448611 13441 net.cpp:406] pool3-R_pool3-R_0_split <- pool3-R
I0715 13:43:58.448618 13441 net.cpp:380] pool3-R_pool3-R_0_split -> pool3-R_pool3-R_0_split_0
I0715 13:43:58.448626 13441 net.cpp:380] pool3-R_pool3-R_0_split -> pool3-R_pool3-R_0_split_1
I0715 13:43:58.448698 13441 net.cpp:122] Setting up pool3-R_pool3-R_0_split
I0715 13:43:58.448706 13441 net.cpp:129] Top shape: 1 256 89 50 (1139200)
I0715 13:43:58.448712 13441 net.cpp:129] Top shape: 1 256 89 50 (1139200)
I0715 13:43:58.448715 13441 net.cpp:137] Memory required for data: 1281547460
I0715 13:43:58.448719 13441 layer_factory.hpp:77] Creating layer conv4_1-R
I0715 13:43:58.448730 13441 net.cpp:84] Creating Layer conv4_1-R
I0715 13:43:58.448734 13441 net.cpp:406] conv4_1-R <- pool3-R_pool3-R_0_split_0
I0715 13:43:58.448743 13441 net.cpp:380] conv4_1-R -> conv4_1-R
I0715 13:43:58.456099 13441 net.cpp:122] Setting up conv4_1-R
I0715 13:43:58.456140 13441 net.cpp:129] Top shape: 1 512 89 50 (2278400)
I0715 13:43:58.456146 13441 net.cpp:137] Memory required for data: 1290661060
I0715 13:43:58.456158 13441 layer_factory.hpp:77] Creating layer relu4_1-R
I0715 13:43:58.456171 13441 net.cpp:84] Creating Layer relu4_1-R
I0715 13:43:58.456179 13441 net.cpp:406] relu4_1-R <- conv4_1-R
I0715 13:43:58.456190 13441 net.cpp:367] relu4_1-R -> conv4_1-R (in-place)
I0715 13:43:58.456611 13441 net.cpp:122] Setting up relu4_1-R
I0715 13:43:58.456642 13441 net.cpp:129] Top shape: 1 512 89 50 (2278400)
I0715 13:43:58.456650 13441 net.cpp:137] Memory required for data: 1299774660
I0715 13:43:58.456656 13441 layer_factory.hpp:77] Creating layer conv4_2-R
I0715 13:43:58.456673 13441 net.cpp:84] Creating Layer conv4_2-R
I0715 13:43:58.456681 13441 net.cpp:406] conv4_2-R <- conv4_1-R
I0715 13:43:58.456698 13441 net.cpp:380] conv4_2-R -> conv4_2-R
I0715 13:43:58.468737 13441 net.cpp:122] Setting up conv4_2-R
I0715 13:43:58.468776 13441 net.cpp:129] Top shape: 1 512 89 50 (2278400)
I0715 13:43:58.468782 13441 net.cpp:137] Memory required for data: 1308888260
I0715 13:43:58.468794 13441 layer_factory.hpp:77] Creating layer relu4_2-R
I0715 13:43:58.468806 13441 net.cpp:84] Creating Layer relu4_2-R
I0715 13:43:58.468811 13441 net.cpp:406] relu4_2-R <- conv4_2-R
I0715 13:43:58.468821 13441 net.cpp:367] relu4_2-R -> conv4_2-R (in-place)
I0715 13:43:58.469125 13441 net.cpp:122] Setting up relu4_2-R
I0715 13:43:58.469138 13441 net.cpp:129] Top shape: 1 512 89 50 (2278400)
I0715 13:43:58.469143 13441 net.cpp:137] Memory required for data: 1318001860
I0715 13:43:58.469148 13441 layer_factory.hpp:77] Creating layer conv4_3-R
I0715 13:43:58.469161 13441 net.cpp:84] Creating Layer conv4_3-R
I0715 13:43:58.469167 13441 net.cpp:406] conv4_3-R <- conv4_2-R
I0715 13:43:58.469177 13441 net.cpp:380] conv4_3-R -> conv4_3-R
I0715 13:43:58.489966 13441 net.cpp:122] Setting up conv4_3-R
I0715 13:43:58.490015 13441 net.cpp:129] Top shape: 1 512 89 50 (2278400)
I0715 13:43:58.490023 13441 net.cpp:137] Memory required for data: 1327115460
I0715 13:43:58.490039 13441 layer_factory.hpp:77] Creating layer relu4_3-R
I0715 13:43:58.490056 13441 net.cpp:84] Creating Layer relu4_3-R
I0715 13:43:58.490069 13441 net.cpp:406] relu4_3-R <- conv4_3-R
I0715 13:43:58.490082 13441 net.cpp:367] relu4_3-R -> conv4_3-R (in-place)
I0715 13:43:58.492748 13441 net.cpp:122] Setting up relu4_3-R
I0715 13:43:58.492766 13441 net.cpp:129] Top shape: 1 512 89 50 (2278400)
I0715 13:43:58.492780 13441 net.cpp:137] Memory required for data: 1336229060
I0715 13:43:58.492785 13441 layer_factory.hpp:77] Creating layer pool4-R
I0715 13:43:58.492797 13441 net.cpp:84] Creating Layer pool4-R
I0715 13:43:58.492802 13441 net.cpp:406] pool4-R <- conv4_3-R
I0715 13:43:58.492811 13441 net.cpp:380] pool4-R -> pool4-R
I0715 13:43:58.492903 13441 net.cpp:122] Setting up pool4-R
I0715 13:43:58.492918 13441 net.cpp:129] Top shape: 1 512 45 25 (576000)
I0715 13:43:58.492923 13441 net.cpp:137] Memory required for data: 1338533060
I0715 13:43:58.492928 13441 layer_factory.hpp:77] Creating layer pool4-R_pool4-R_0_split
I0715 13:43:58.492935 13441 net.cpp:84] Creating Layer pool4-R_pool4-R_0_split
I0715 13:43:58.492940 13441 net.cpp:406] pool4-R_pool4-R_0_split <- pool4-R
I0715 13:43:58.492949 13441 net.cpp:380] pool4-R_pool4-R_0_split -> pool4-R_pool4-R_0_split_0
I0715 13:43:58.492956 13441 net.cpp:380] pool4-R_pool4-R_0_split -> pool4-R_pool4-R_0_split_1
I0715 13:43:58.493026 13441 net.cpp:122] Setting up pool4-R_pool4-R_0_split
I0715 13:43:58.493036 13441 net.cpp:129] Top shape: 1 512 45 25 (576000)
I0715 13:43:58.493041 13441 net.cpp:129] Top shape: 1 512 45 25 (576000)
I0715 13:43:58.493046 13441 net.cpp:137] Memory required for data: 1343141060
I0715 13:43:58.493049 13441 layer_factory.hpp:77] Creating layer conv5_1-R
I0715 13:43:58.493062 13441 net.cpp:84] Creating Layer conv5_1-R
I0715 13:43:58.493067 13441 net.cpp:406] conv5_1-R <- pool4-R_pool4-R_0_split_0
I0715 13:43:58.493073 13441 net.cpp:380] conv5_1-R -> conv5_1-R
I0715 13:43:58.502578 13441 net.cpp:122] Setting up conv5_1-R
I0715 13:43:58.502611 13441 net.cpp:129] Top shape: 1 512 45 25 (576000)
I0715 13:43:58.502616 13441 net.cpp:137] Memory required for data: 1345445060
I0715 13:43:58.502643 13441 layer_factory.hpp:77] Creating layer relu5_1-R
I0715 13:43:58.502653 13441 net.cpp:84] Creating Layer relu5_1-R
I0715 13:43:58.502668 13441 net.cpp:406] relu5_1-R <- conv5_1-R
I0715 13:43:58.502676 13441 net.cpp:367] relu5_1-R -> conv5_1-R (in-place)
I0715 13:43:58.502951 13441 net.cpp:122] Setting up relu5_1-R
I0715 13:43:58.502964 13441 net.cpp:129] Top shape: 1 512 45 25 (576000)
I0715 13:43:58.502969 13441 net.cpp:137] Memory required for data: 1347749060
I0715 13:43:58.502972 13441 layer_factory.hpp:77] Creating layer conv5_2-R
I0715 13:43:58.502985 13441 net.cpp:84] Creating Layer conv5_2-R
I0715 13:43:58.502988 13441 net.cpp:406] conv5_2-R <- conv5_1-R
I0715 13:43:58.502997 13441 net.cpp:380] conv5_2-R -> conv5_2-R
I0715 13:43:58.512542 13441 net.cpp:122] Setting up conv5_2-R
I0715 13:43:58.512563 13441 net.cpp:129] Top shape: 1 512 45 25 (576000)
I0715 13:43:58.512575 13441 net.cpp:137] Memory required for data: 1350053060
I0715 13:43:58.512585 13441 layer_factory.hpp:77] Creating layer relu5_2-R
I0715 13:43:58.512594 13441 net.cpp:84] Creating Layer relu5_2-R
I0715 13:43:58.512600 13441 net.cpp:406] relu5_2-R <- conv5_2-R
I0715 13:43:58.512609 13441 net.cpp:367] relu5_2-R -> conv5_2-R (in-place)
I0715 13:43:58.512888 13441 net.cpp:122] Setting up relu5_2-R
I0715 13:43:58.512902 13441 net.cpp:129] Top shape: 1 512 45 25 (576000)
I0715 13:43:58.512907 13441 net.cpp:137] Memory required for data: 1352357060
I0715 13:43:58.512912 13441 layer_factory.hpp:77] Creating layer conv5_3-R
I0715 13:43:58.512923 13441 net.cpp:84] Creating Layer conv5_3-R
I0715 13:43:58.512928 13441 net.cpp:406] conv5_3-R <- conv5_2-R
I0715 13:43:58.512936 13441 net.cpp:380] conv5_3-R -> conv5_3-R
I0715 13:43:58.533246 13441 net.cpp:122] Setting up conv5_3-R
I0715 13:43:58.533270 13441 net.cpp:129] Top shape: 1 512 45 25 (576000)
I0715 13:43:58.533275 13441 net.cpp:137] Memory required for data: 1354661060
I0715 13:43:58.533288 13441 layer_factory.hpp:77] Creating layer relu5_3-R
I0715 13:43:58.533298 13441 net.cpp:84] Creating Layer relu5_3-R
I0715 13:43:58.533305 13441 net.cpp:406] relu5_3-R <- conv5_3-R
I0715 13:43:58.533313 13441 net.cpp:367] relu5_3-R -> conv5_3-R (in-place)
I0715 13:43:58.533581 13441 net.cpp:122] Setting up relu5_3-R
I0715 13:43:58.533594 13441 net.cpp:129] Top shape: 1 512 45 25 (576000)
I0715 13:43:58.533598 13441 net.cpp:137] Memory required for data: 1356965060
I0715 13:43:58.533603 13441 layer_factory.hpp:77] Creating layer pool5-R
I0715 13:43:58.533613 13441 net.cpp:84] Creating Layer pool5-R
I0715 13:43:58.533617 13441 net.cpp:406] pool5-R <- conv5_3-R
I0715 13:43:58.533627 13441 net.cpp:380] pool5-R -> pool5-R
I0715 13:43:58.533712 13441 net.cpp:122] Setting up pool5-R
I0715 13:43:58.533722 13441 net.cpp:129] Top shape: 1 512 23 13 (153088)
I0715 13:43:58.533727 13441 net.cpp:137] Memory required for data: 1357577412
I0715 13:43:58.533731 13441 layer_factory.hpp:77] Creating layer fc6-R
I0715 13:43:58.533743 13441 net.cpp:84] Creating Layer fc6-R
I0715 13:43:58.533747 13441 net.cpp:406] fc6-R <- pool5-R
I0715 13:43:58.533756 13441 net.cpp:380] fc6-R -> fc6-R
I0715 13:43:58.849299 13441 net.cpp:122] Setting up fc6-R
I0715 13:43:58.849354 13441 net.cpp:129] Top shape: 1 4096 17 7 (487424)
I0715 13:43:58.849359 13441 net.cpp:137] Memory required for data: 1359527108
I0715 13:43:58.849372 13441 layer_factory.hpp:77] Creating layer relu6-R
I0715 13:43:58.849388 13441 net.cpp:84] Creating Layer relu6-R
I0715 13:43:58.849396 13441 net.cpp:406] relu6-R <- fc6-R
I0715 13:43:58.849406 13441 net.cpp:367] relu6-R -> fc6-R (in-place)
I0715 13:43:58.849675 13441 net.cpp:122] Setting up relu6-R
I0715 13:43:58.849687 13441 net.cpp:129] Top shape: 1 4096 17 7 (487424)
I0715 13:43:58.849691 13441 net.cpp:137] Memory required for data: 1361476804
I0715 13:43:58.849696 13441 layer_factory.hpp:77] Creating layer drop6-R
I0715 13:43:58.849705 13441 net.cpp:84] Creating Layer drop6-R
I0715 13:43:58.849710 13441 net.cpp:406] drop6-R <- fc6-R
I0715 13:43:58.849717 13441 net.cpp:367] drop6-R -> fc6-R (in-place)
I0715 13:43:58.849774 13441 net.cpp:122] Setting up drop6-R
I0715 13:43:58.849786 13441 net.cpp:129] Top shape: 1 4096 17 7 (487424)
I0715 13:43:58.849788 13441 net.cpp:137] Memory required for data: 1363426500
I0715 13:43:58.849792 13441 layer_factory.hpp:77] Creating layer fc7-R
I0715 13:43:58.849805 13441 net.cpp:84] Creating Layer fc7-R
I0715 13:43:58.849809 13441 net.cpp:406] fc7-R <- fc6-R
I0715 13:43:58.849818 13441 net.cpp:380] fc7-R -> fc7-R
I0715 13:43:58.899092 13441 net.cpp:122] Setting up fc7-R
I0715 13:43:58.899147 13441 net.cpp:129] Top shape: 1 4096 17 7 (487424)
I0715 13:43:58.899152 13441 net.cpp:137] Memory required for data: 1365376196
I0715 13:43:58.899169 13441 layer_factory.hpp:77] Creating layer relu7-R
I0715 13:43:58.899186 13441 net.cpp:84] Creating Layer relu7-R
I0715 13:43:58.899194 13441 net.cpp:406] relu7-R <- fc7-R
I0715 13:43:58.899220 13441 net.cpp:367] relu7-R -> fc7-R (in-place)
I0715 13:43:58.899591 13441 net.cpp:122] Setting up relu7-R
I0715 13:43:58.899622 13441 net.cpp:129] Top shape: 1 4096 17 7 (487424)
I0715 13:43:58.899643 13441 net.cpp:137] Memory required for data: 1367325892
I0715 13:43:58.899649 13441 layer_factory.hpp:77] Creating layer drop7-R
I0715 13:43:58.899662 13441 net.cpp:84] Creating Layer drop7-R
I0715 13:43:58.899674 13441 net.cpp:406] drop7-R <- fc7-R
I0715 13:43:58.899683 13441 net.cpp:367] drop7-R -> fc7-R (in-place)
I0715 13:43:58.899749 13441 net.cpp:122] Setting up drop7-R
I0715 13:43:58.899785 13441 net.cpp:129] Top shape: 1 4096 17 7 (487424)
I0715 13:43:58.899790 13441 net.cpp:137] Memory required for data: 1369275588
I0715 13:43:58.899794 13441 layer_factory.hpp:77] Creating layer score_fr-new-R
I0715 13:43:58.899809 13441 net.cpp:84] Creating Layer score_fr-new-R
I0715 13:43:58.899816 13441 net.cpp:406] score_fr-new-R <- fc7-R
I0715 13:43:58.899827 13441 net.cpp:380] score_fr-new-R -> score_fr-new-R
I0715 13:43:58.902231 13441 net.cpp:122] Setting up score_fr-new-R
I0715 13:43:58.902262 13441 net.cpp:129] Top shape: 1 3 17 7 (357)
I0715 13:43:58.902266 13441 net.cpp:137] Memory required for data: 1369277016
I0715 13:43:58.902273 13441 layer_factory.hpp:77] Creating layer upscore2-new-R
I0715 13:43:58.902283 13441 net.cpp:84] Creating Layer upscore2-new-R
I0715 13:43:58.902287 13441 net.cpp:406] upscore2-new-R <- score_fr-new-R
I0715 13:43:58.902294 13441 net.cpp:380] upscore2-new-R -> upscore2-new-R
I0715 13:43:58.902705 13441 net.cpp:122] Setting up upscore2-new-R
I0715 13:43:58.902714 13441 net.cpp:129] Top shape: 1 3 36 16 (1728)
I0715 13:43:58.902734 13441 net.cpp:137] Memory required for data: 1369283928
I0715 13:43:58.902739 13441 layer_factory.hpp:77] Creating layer upscore2-new-R_upscore2-new-R_0_split
I0715 13:43:58.902745 13441 net.cpp:84] Creating Layer upscore2-new-R_upscore2-new-R_0_split
I0715 13:43:58.902750 13441 net.cpp:406] upscore2-new-R_upscore2-new-R_0_split <- upscore2-new-R
I0715 13:43:58.902755 13441 net.cpp:380] upscore2-new-R_upscore2-new-R_0_split -> upscore2-new-R_upscore2-new-R_0_split_0
I0715 13:43:58.902762 13441 net.cpp:380] upscore2-new-R_upscore2-new-R_0_split -> upscore2-new-R_upscore2-new-R_0_split_1
I0715 13:43:58.902828 13441 net.cpp:122] Setting up upscore2-new-R_upscore2-new-R_0_split
I0715 13:43:58.902834 13441 net.cpp:129] Top shape: 1 3 36 16 (1728)
I0715 13:43:58.902838 13441 net.cpp:129] Top shape: 1 3 36 16 (1728)
I0715 13:43:58.902842 13441 net.cpp:137] Memory required for data: 1369297752
I0715 13:43:58.902844 13441 layer_factory.hpp:77] Creating layer score_pool4-new-R
I0715 13:43:58.902860 13441 net.cpp:84] Creating Layer score_pool4-new-R
I0715 13:43:58.902865 13441 net.cpp:406] score_pool4-new-R <- pool4-R_pool4-R_0_split_1
I0715 13:43:58.902881 13441 net.cpp:380] score_pool4-new-R -> score_pool4-new-R
I0715 13:43:58.906126 13441 net.cpp:122] Setting up score_pool4-new-R
I0715 13:43:58.906141 13441 net.cpp:129] Top shape: 1 3 45 25 (3375)
I0715 13:43:58.906162 13441 net.cpp:137] Memory required for data: 1369311252
I0715 13:43:58.906167 13441 layer_factory.hpp:77] Creating layer score_pool4c-R
I0715 13:43:58.906177 13441 net.cpp:84] Creating Layer score_pool4c-R
I0715 13:43:58.906181 13441 net.cpp:406] score_pool4c-R <- score_pool4-new-R
I0715 13:43:58.906188 13441 net.cpp:406] score_pool4c-R <- upscore2-new-R_upscore2-new-R_0_split_0
I0715 13:43:58.906193 13441 net.cpp:380] score_pool4c-R -> score_pool4c-R
I0715 13:43:58.906255 13441 net.cpp:122] Setting up score_pool4c-R
I0715 13:43:58.906260 13441 net.cpp:129] Top shape: 1 3 36 16 (1728)
I0715 13:43:58.906263 13441 net.cpp:137] Memory required for data: 1369318164
I0715 13:43:58.906266 13441 layer_factory.hpp:77] Creating layer fuse_pool4-R
I0715 13:43:58.906275 13441 net.cpp:84] Creating Layer fuse_pool4-R
I0715 13:43:58.906280 13441 net.cpp:406] fuse_pool4-R <- upscore2-new-R_upscore2-new-R_0_split_1
I0715 13:43:58.906285 13441 net.cpp:406] fuse_pool4-R <- score_pool4c-R
I0715 13:43:58.906291 13441 net.cpp:380] fuse_pool4-R -> fuse_pool4-R
I0715 13:43:58.906330 13441 net.cpp:122] Setting up fuse_pool4-R
I0715 13:43:58.906335 13441 net.cpp:129] Top shape: 1 3 36 16 (1728)
I0715 13:43:58.906338 13441 net.cpp:137] Memory required for data: 1369325076
I0715 13:43:58.906342 13441 layer_factory.hpp:77] Creating layer upscore_pool4-new-R
I0715 13:43:58.906359 13441 net.cpp:84] Creating Layer upscore_pool4-new-R
I0715 13:43:58.906363 13441 net.cpp:406] upscore_pool4-new-R <- fuse_pool4-R
I0715 13:43:58.906370 13441 net.cpp:380] upscore_pool4-new-R -> upscore_pool4-new-R
I0715 13:43:58.906723 13441 net.cpp:122] Setting up upscore_pool4-new-R
I0715 13:43:58.906731 13441 net.cpp:129] Top shape: 1 3 74 34 (7548)
I0715 13:43:58.906734 13441 net.cpp:137] Memory required for data: 1369355268
I0715 13:43:58.906755 13441 layer_factory.hpp:77] Creating layer upscore_pool4-new-R_upscore_pool4-new-R_0_split
I0715 13:43:58.906761 13441 net.cpp:84] Creating Layer upscore_pool4-new-R_upscore_pool4-new-R_0_split
I0715 13:43:58.906765 13441 net.cpp:406] upscore_pool4-new-R_upscore_pool4-new-R_0_split <- upscore_pool4-new-R
I0715 13:43:58.906771 13441 net.cpp:380] upscore_pool4-new-R_upscore_pool4-new-R_0_split -> upscore_pool4-new-R_upscore_pool4-new-R_0_split_0
I0715 13:43:58.906780 13441 net.cpp:380] upscore_pool4-new-R_upscore_pool4-new-R_0_split -> upscore_pool4-new-R_upscore_pool4-new-R_0_split_1
I0715 13:43:58.906838 13441 net.cpp:122] Setting up upscore_pool4-new-R_upscore_pool4-new-R_0_split
I0715 13:43:58.906843 13441 net.cpp:129] Top shape: 1 3 74 34 (7548)
I0715 13:43:58.906847 13441 net.cpp:129] Top shape: 1 3 74 34 (7548)
I0715 13:43:58.906850 13441 net.cpp:137] Memory required for data: 1369415652
I0715 13:43:58.906853 13441 layer_factory.hpp:77] Creating layer score_pool3-new-R
I0715 13:43:58.906863 13441 net.cpp:84] Creating Layer score_pool3-new-R
I0715 13:43:58.906867 13441 net.cpp:406] score_pool3-new-R <- pool3-R_pool3-R_0_split_1
I0715 13:43:58.906874 13441 net.cpp:380] score_pool3-new-R -> score_pool3-new-R
I0715 13:43:58.908773 13441 net.cpp:122] Setting up score_pool3-new-R
I0715 13:43:58.908804 13441 net.cpp:129] Top shape: 1 3 89 50 (13350)
I0715 13:43:58.908808 13441 net.cpp:137] Memory required for data: 1369469052
I0715 13:43:58.908815 13441 layer_factory.hpp:77] Creating layer score_pool3c-R
I0715 13:43:58.908823 13441 net.cpp:84] Creating Layer score_pool3c-R
I0715 13:43:58.908828 13441 net.cpp:406] score_pool3c-R <- score_pool3-new-R
I0715 13:43:58.908833 13441 net.cpp:406] score_pool3c-R <- upscore_pool4-new-R_upscore_pool4-new-R_0_split_0
I0715 13:43:58.908839 13441 net.cpp:380] score_pool3c-R -> score_pool3c-R
I0715 13:43:58.908898 13441 net.cpp:122] Setting up score_pool3c-R
I0715 13:43:58.908905 13441 net.cpp:129] Top shape: 1 3 74 34 (7548)
I0715 13:43:58.908907 13441 net.cpp:137] Memory required for data: 1369499244
I0715 13:43:58.908910 13441 layer_factory.hpp:77] Creating layer fuse_pool3-R
I0715 13:43:58.908918 13441 net.cpp:84] Creating Layer fuse_pool3-R
I0715 13:43:58.908922 13441 net.cpp:406] fuse_pool3-R <- upscore_pool4-new-R_upscore_pool4-new-R_0_split_1
I0715 13:43:58.908926 13441 net.cpp:406] fuse_pool3-R <- score_pool3c-R
I0715 13:43:58.908932 13441 net.cpp:380] fuse_pool3-R -> fuse_pool3-R
I0715 13:43:58.908972 13441 net.cpp:122] Setting up fuse_pool3-R
I0715 13:43:58.908977 13441 net.cpp:129] Top shape: 1 3 74 34 (7548)
I0715 13:43:58.908979 13441 net.cpp:137] Memory required for data: 1369529436
I0715 13:43:58.908982 13441 layer_factory.hpp:77] Creating layer upscore8-new-R
I0715 13:43:58.908991 13441 net.cpp:84] Creating Layer upscore8-new-R
I0715 13:43:58.908994 13441 net.cpp:406] upscore8-new-R <- fuse_pool3-R
I0715 13:43:58.909005 13441 net.cpp:380] upscore8-new-R -> upscore8-new-R
I0715 13:43:58.909373 13441 net.cpp:122] Setting up upscore8-new-R
I0715 13:43:58.909381 13441 net.cpp:129] Top shape: 1 3 600 280 (504000)
I0715 13:43:58.909384 13441 net.cpp:137] Memory required for data: 1371545436
I0715 13:43:58.909404 13441 layer_factory.hpp:77] Creating layer upscore8_cropped-R
I0715 13:43:58.909411 13441 net.cpp:84] Creating Layer upscore8_cropped-R
I0715 13:43:58.909415 13441 net.cpp:406] upscore8_cropped-R <- upscore8-new-R
I0715 13:43:58.909421 13441 net.cpp:406] upscore8_cropped-R <- data-R_crop_0_split_1
I0715 13:43:58.909427 13441 net.cpp:380] upscore8_cropped-R -> upscore8_cropped-R
I0715 13:43:58.909463 13441 net.cpp:122] Setting up upscore8_cropped-R
I0715 13:43:58.909468 13441 net.cpp:129] Top shape: 1 3 512 199 (305664)
I0715 13:43:58.909471 13441 net.cpp:137] Memory required for data: 1372768092
I0715 13:43:58.909474 13441 layer_factory.hpp:77] Creating layer upscore8_uncropped-R
I0715 13:43:58.909585 13441 net.cpp:84] Creating Layer upscore8_uncropped-R
I0715 13:43:58.909615 13441 net.cpp:406] upscore8_uncropped-R <- crop_info
I0715 13:43:58.909626 13441 net.cpp:406] upscore8_uncropped-R <- upscore8_cropped-R
I0715 13:43:58.909631 13441 net.cpp:406] upscore8_uncropped-R <- data_data_0_split_3
I0715 13:43:58.909637 13441 net.cpp:380] upscore8_uncropped-R -> upscore8_uncropped-R
I0715 13:43:58.919719 13441 net.cpp:122] Setting up upscore8_uncropped-R
I0715 13:43:58.919755 13441 net.cpp:129] Top shape: 1 3 512 199 (305664)
I0715 13:43:58.919759 13441 net.cpp:137] Memory required for data: 1373990748
I0715 13:43:58.919764 13441 layer_factory.hpp:77] Creating layer loss1
I0715 13:43:58.919775 13441 net.cpp:84] Creating Layer loss1
I0715 13:43:58.919780 13441 net.cpp:406] loss1 <- upscore8_cropped_upscore8_cropped_0_split_1
I0715 13:43:58.919785 13441 net.cpp:406] loss1 <- label_data_1_split_1
I0715 13:43:58.919790 13441 net.cpp:380] loss1 -> loss1
…
