…
snapshot_prefix: "/media/Med_2T2/data2/models/snapshots/joint:1e-5x10,1e-5x10,20/FD0:YI3_1_20180715_091940,YJ3_1_20180715_203512/train"
test_initialization: false
average_loss: 20
stepvalue: 50000
stepvalue: 60000
stepvalue: 70000
iter_size: 1
I0716 00:14:33.846583 14940 solver.cpp:77] Creating training net from train_net file: /media/Med_2T2/data2/prototxts/training_J3x10.prototxt
I0716 00:14:33.849387 14940 net.cpp:51] Initializing net from parameters: 
state {
  phase: TRAIN
}
layer {
  name: "data"
  type: "Python"
  top: "data"
  top: "label"
  top: "crop_margin"
  top: "crop_prob"
  top: "crop_sample_batch"
  python_param {
    module: "Data"
    layer: "DataLayer"
  }
}
layer {
  name: "conv1_1"
  type: "Convolution"
  bottom: "data"
  top: "conv1_1"
  param {
    lr_mult: 1
    decay_mult: 1
  }
  param {
    lr_mult: 2
    decay_mult: 0
  }
  convolution_param {
    num_output: 64
    pad: 100
    kernel_size: 3
    stride: 1
  }
}
layer {
  name: "relu1_1"
  type: "ReLU"
  bottom: "conv1_1"
  top: "conv1_1"
}
layer {
  name: "conv1_2"
  type: "Convolution"
  bottom: "conv1_1"
  top: "conv1_2"
  param {
    lr_mult: 1
    decay_mult: 1
  }
  param {
    lr_mult: 2
    decay_mult: 0
  }
  convolution_param {
    num_output: 64
    pad: 1
    kernel_size: 3
    stride: 1
  }
}
layer {
  name: "relu1_2"
  type: "ReLU"
  bottom: "conv1_2"
  top: "conv1_2"
}
layer {
  name: "pool1"
  type: "Pooling"
  bottom: "conv1_2"
  top: "pool1"
  pooling_param {
    pool: MAX
    kernel_size: 2
    stride: 2
  }
}
layer {
  name: "conv2_1"
  type: "Convolution"
  bottom: "pool1"
  top: "conv2_1"
  param {
    lr_mult: 1
    decay_mult: 1
  }
  param {
    lr_mult: 2
    decay_mult: 0
  }
  convolution_param {
    num_output: 128
    pad: 1
    kernel_size: 3
    stride: 1
  }
}
layer {
  name: "relu2_1"
  type: "ReLU"
  bottom: "conv2_1"
  top: "conv2_1"
}
layer {
  name: "conv2_2"
  type: "Convolution"
  bottom: "conv2_1"
  top: "conv2_2"
  param {
    lr_mult: 1
    decay_mult: 1
  }
  param {
    lr_mult: 2
    decay_mult: 0
  }
  convolution_param {
    num_output: 128
    pad: 1
    kernel_size: 3
    stride: 1
  }
}
layer {
  name: "relu2_2"
  type: "ReLU"
  bottom: "conv2_2"
  top: "conv2_2"
}
layer {
  name: "pool2"
  type: "Pooling"
  bottom: "conv2_2"
  top: "pool2"
  pooling_param {
    pool: MAX
    kernel_size: 2
    stride: 2
  }
}
layer {
  name: "conv3_1"
  type: "Convolution"
  bottom: "pool2"
  top: "conv3_1"
  param {
    lr_mult: 1
    decay_mult: 1
  }
  param {
    lr_mult: 2
    decay_mult: 0
  }
  convolution_param {
    num_output: 256
    pad: 1
    kernel_size: 3
    stride: 1
  }
}
layer {
  name: "relu3_1"
  type: "ReLU"
  bottom: "conv3_1"
  top: "conv3_1"
}
layer {
  name: "conv3_2"
  type: "Convolution"
  bottom: "conv3_1"
  top: "conv3_2"
  param {
    lr_mult: 1
    decay_mult: 1
  }
  param {
    lr_mult: 2
    decay_mult: 0
  }
  convolution_param {
    num_output: 256
    pad: 1
    kernel_size: 3
    stride: 1
  }
}
layer {
  name: "relu3_2"
  type: "ReLU"
  bottom: "conv3_2"
  top: "conv3_2"
}
layer {
  name: "conv3_3"
  type: "Convolution"
  bottom: "conv3_2"
  top: "conv3_3"
  param {
    lr_mult: 1
    decay_mult: 1
  }
  param {
    lr_mult: 2
    decay_mult: 0
  }
  convolution_param {
    num_output: 256
    pad: 1
    kernel_size: 3
    stride: 1
  }
}
layer {
  name: "relu3_3"
  type: "ReLU"
  bottom: "conv3_3"
  top: "conv3_3"
}
layer {
  name: "pool3"
  type: "Pooling"
  bottom: "conv3_3"
  top: "pool3"
  pooling_param {
    pool: MAX
    kernel_size: 2
    stride: 2
  }
}
layer {
  name: "conv4_1"
  type: "Convolution"
  bottom: "pool3"
  top: "conv4_1"
  param {
    lr_mult: 1
    decay_mult: 1
  }
  param {
    lr_mult: 2
    decay_mult: 0
  }
  convolution_param {
    num_output: 512
    pad: 1
    kernel_size: 3
    stride: 1
  }
}
layer {
  name: "relu4_1"
  type: "ReLU"
  bottom: "conv4_1"
  top: "conv4_1"
}
layer {
  name: "conv4_2"
  type: "Convolution"
  bottom: "conv4_1"
  top: "conv4_2"
  param {
    lr_mult: 1
    decay_mult: 1
  }
  param {
    lr_mult: 2
    decay_mult: 0
  }
  convolution_param {
    num_output: 512
    pad: 1
    kernel_size: 3
    stride: 1
  }
}
layer {
  name: "relu4_2"
  type: "ReLU"
  bottom: "conv4_2"
  top: "conv4_2"
}
layer {
  name: "conv4_3"
  type: "Convolution"
  bottom: "conv4_2"
  top: "conv4_3"
  param {
    lr_mult: 1
    decay_mult: 1
  }
  param {
    lr_mult: 2
    decay_mult: 0
  }
  convolution_param {
    num_output: 512
    pad: 1
    kernel_size: 3
    stride: 1
  }
}
layer {
  name: "relu4_3"
  type: "ReLU"
  bottom: "conv4_3"
  top: "conv4_3"
}
layer {
  name: "pool4"
  type: "Pooling"
  bottom: "conv4_3"
  top: "pool4"
  pooling_param {
    pool: MAX
    kernel_size: 2
    stride: 2
  }
}
layer {
  name: "conv5_1"
  type: "Convolution"
  bottom: "pool4"
  top: "conv5_1"
  param {
    lr_mult: 1
    decay_mult: 1
  }
  param {
    lr_mult: 2
    decay_mult: 0
  }
  convolution_param {
    num_output: 512
    pad: 1
    kernel_size: 3
    stride: 1
  }
}
layer {
  name: "relu5_1"
  type: "ReLU"
  bottom: "conv5_1"
  top: "conv5_1"
}
layer {
  name: "conv5_2"
  type: "Convolution"
  bottom: "conv5_1"
  top: "conv5_2"
  param {
    lr_mult: 1
    decay_mult: 1
  }
  param {
    lr_mult: 2
    decay_mult: 0
  }
  convolution_param {
    num_output: 512
    pad: 1
    kernel_size: 3
    stride: 1
  }
}
layer {
  name: "relu5_2"
  type: "ReLU"
  bottom: "conv5_2"
  top: "conv5_2"
}
layer {
  name: "conv5_3"
  type: "Convolution"
  bottom: "conv5_2"
  top: "conv5_3"
  param {
    lr_mult: 1
    decay_mult: 1
  }
  param {
    lr_mult: 2
    decay_mult: 0
  }
  convolution_param {
    num_output: 512
    pad: 1
    kernel_size: 3
    stride: 1
  }
}
layer {
  name: "relu5_3"
  type: "ReLU"
  bottom: "conv5_3"
  top: "conv5_3"
}
layer {
  name: "pool5"
  type: "Pooling"
  bottom: "conv5_3"
  top: "pool5"
  pooling_param {
    pool: MAX
    kernel_size: 2
    stride: 2
  }
}
layer {
  name: "fc6"
  type: "Convolution"
  bottom: "pool5"
  top: "fc6"
  param {
    lr_mult: 1
    decay_mult: 1
  }
  param {
    lr_mult: 2
    decay_mult: 0
  }
  convolution_param {
    num_output: 4096
    pad: 0
    kernel_size: 7
    stride: 1
  }
}
layer {
  name: "relu6"
  type: "ReLU"
  bottom: "fc6"
  top: "fc6"
}
layer {
  name: "drop6"
  type: "Dropout"
  bottom: "fc6"
  top: "fc6"
  dropout_param {
    dropout_ratio: 0.5
  }
}
layer {
  name: "fc7"
  type: "Convolution"
  bottom: "fc6"
  top: "fc7"
  param {
    lr_mult: 1
    decay_mult: 1
  }
  param {
    lr_mult: 2
    decay_mult: 0
  }
  convolution_param {
    num_output: 4096
    pad: 0
    kernel_size: 1
    stride: 1
  }
}
layer {
  name: "relu7"
  type: "ReLU"
  bottom: "fc7"
  top: "fc7"
}
layer {
  name: "drop7"
  type: "Dropout"
  bottom: "fc7"
  top: "fc7"
  dropout_param {
    dropout_ratio: 0.5
  }
}
layer {
  name: "score_fr-new"
  type: "Convolution"
  bottom: "fc7"
  top: "score_fr-new"
  param {
    lr_mult: 1
    decay_mult: 1
  }
  param {
    lr_mult: 2
    decay_mult: 0
  }
  convolution_param {
    num_output: 3
    kernel_size: 1
  }
}
layer {
  name: "upscore2-new"
  type: "Deconvolution"
  bottom: "score_fr-new"
  top: "upscore2-new"
  param {
    lr_mult: 0
  }
  convolution_param {
    num_output: 3
    bias_term: false
    kernel_size: 4
    stride: 2
  }
}
layer {
  name: "score_pool4-new"
  type: "Convolution"
  bottom: "pool4"
  top: "score_pool4-new"
  param {
    lr_mult: 1
    decay_mult: 1
  }
  param {
    lr_mult: 2
    decay_mult: 0
  }
  convolution_param {
    num_output: 3
    pad: 0
    kernel_size: 1
  }
}
layer {
  name: "score_pool4c"
  type: "Crop"
  bottom: "score_pool4-new"
  bottom: "upscore2-new"
  top: "score_pool4c"
  crop_param {
    axis: 2
    offset: 5
  }
}
layer {
  name: "fuse_pool4"
  type: "Eltwise"
  bottom: "upscore2-new"
  bottom: "score_pool4c"
  top: "fuse_pool4"
  eltwise_param {
    operation: SUM
  }
}
layer {
  name: "upscore_pool4-new"
  type: "Deconvolution"
  bottom: "fuse_pool4"
  top: "upscore_pool4-new"
  param {
    lr_mult: 0
  }
  convolution_param {
    num_output: 3
    bias_term: false
    kernel_size: 4
    stride: 2
  }
}
layer {
  name: "score_pool3-new"
  type: "Convolution"
  bottom: "pool3"
  top: "score_pool3-new"
  param {
    lr_mult: 1
    decay_mult: 1
  }
  param {
    lr_mult: 2
    decay_mult: 0
  }
  convolution_param {
    num_output: 3
    pad: 0
    kernel_size: 1
  }
}
layer {
  name: "score_pool3c"
  type: "Crop"
  bottom: "score_pool3-new"
  bottom: "upscore_pool4-new"
  top: "score_pool3c"
  crop_param {
    axis: 2
    offset: 9
  }
}
layer {
  name: "fuse_pool3"
  type: "Eltwise"
  bottom: "upscore_pool4-new"
  bottom: "score_pool3c"
  top: "fuse_pool3"
  eltwise_param {
    operation: SUM
  }
}
layer {
  name: "upscore8-new"
  type: "Deconvolution"
  bottom: "fuse_pool3"
  top: "upscore8-new"
  param {
    lr_mult: 0
  }
  convolution_param {
    num_output: 3
    bias_term: false
    kernel_size: 16
    stride: 8
  }
}
layer {
  name: "upscore8_cropped"
  type: "Crop"
  bottom: "upscore8-new"
  bottom: "data"
  top: "upscore8_cropped"
  crop_param {
    axis: 2
    offset: 31
  }
}
layer {
  name: "prob"
  type: "Sigmoid"
  bottom: "upscore8_cropped"
  top: "prob"
}
layer {
  name: "saliency1"
  type: "Convolution"
  bottom: "prob"
  top: "saliency1"
  param {
    lr_mult: 10
    decay_mult: 1
  }
  param {
    lr_mult: 20
    decay_mult: 0
  }
  convolution_param {
    num_output: 3
    pad: 1
    kernel_size: 3
    stride: 1
    weight_filler {
      type: "xavier"
    }
    bias_filler {
      type: "constant"
      value: 1
    }
  }
}
layer {
  name: "relu_saliency1"
  type: "ReLU"
  bottom: "saliency1"
  top: "saliency1"
}
layer {
  name: "saliency"
  type: "Convolution"
  bottom: "saliency1"
  top: "saliency"
  param {
    lr_mult: 10
    decay_mult: 1
  }
  param {
    lr_mult: 20
    decay_mult: 0
  }
  convolution_param {
    num_output: 3
    pad: 2
    kernel_size: 5
    stride: 1
    weight_filler {
      type: "xavier"
    }
    bias_filler {
      type: "constant"
      value: 1
    }
  }
}
layer {
  name: "saliency_data"
  type: "Eltwise"
  bottom: "data"
  bottom: "saliency"
  top: "saliency_data"
  eltwise_param {
    operation: PROD
  }
}
layer {
  name: "crop"
  type: "Python"
  bottom: "prob"
  bottom: "saliency_data"
  bottom: "crop_margin"
  bottom: "crop_prob"
  bottom: "crop_sample_batch"
  bottom: "label"
  top: "data-R"
  top: "crop_info"
  python_param {
    module: "Crop"
    layer: "CropLayer"
    param_str: "{\"TEST\": 0}"
  }
}
layer {
  name: "conv1_1-R"
  type: "Convolution"
  bottom: "data-R"
  top: "conv1_1-R"
  param {
    lr_mult: 10
    decay_mult: 1
  }
  param {
    lr_mult: 20
    decay_mult: 0
  }
  convolution_param {
    num_output: 64
    pad: 100
    kernel_size: 3
    stride: 1
  }
}
layer {
  name: "relu1_1-R"
  type: "ReLU"
  bottom: "conv1_1-R"
  top: "conv1_1-R"
}
layer {
  name: "conv1_2-R"
  type: "Convolution"
  bottom: "conv1_1-R"
  top: "conv1_2-R"
  param {
    lr_mult: 10
    decay_mult: 1
  }
  param {
    lr_mult: 20
    decay_mult: 0
  }
  convolution_param {
    num_output: 64
    pad: 1
    kernel_size: 3
    stride: 1
  }
}
layer {
  name: "relu1_2-R"
  type: "ReLU"
  bottom: "conv1_2-R"
  top: "conv1_2-R"
}
layer {
  name: "pool1-R"
  type: "Pooling"
  bottom: "conv1_2-R"
  top: "pool1-R"
  pooling_param {
    pool: MAX
    kernel_size: 2
    stride: 2
  }
}
layer {
  name: "conv2_1-R"
  type: "Convolution"
  bottom: "pool1-R"
  top: "conv2_1-R"
  param {
    lr_mult: 10
    decay_mult: 1
  }
  param {
    lr_mult: 20
    decay_mult: 0
  }
  convolution_param {
    num_output: 128
    pad: 1
    kernel_size: 3
    stride: 1
  }
}
layer {
  name: "relu2_1-R"
  type: "ReLU"
  bottom: "conv2_1-R"
  top: "conv2_1-R"
}
layer {
  name: "conv2_2-R"
  type: "Convolution"
  bottom: "conv2_1-R"
  top: "conv2_2-R"
  param {
    lr_mult: 10
    decay_mult: 1
  }
  param {
    lr_mult: 20
    decay_mult: 0
  }
  convolution_param {
    num_output: 128
    pad: 1
    kernel_size: 3
    stride: 1
  }
}
layer {
  name: "relu2_2-R"
  type: "ReLU"
  bottom: "conv2_2-R"
  top: "conv2_2-R"
}
layer {
  name: "pool2-R"
  type: "Pooling"
  bottom: "conv2_2-R"
  top: "pool2-R"
  pooling_param {
    pool: MAX
    kernel_size: 2
    stride: 2
  }
}
layer {
  name: "conv3_1-R"
  type: "Convolution"
  bottom: "pool2-R"
  top: "conv3_1-R"
  param {
    lr_mult: 10
    decay_mult: 1
  }
  param {
    lr_mult: 20
    decay_mult: 0
  }
  convolution_param {
    num_output: 256
    pad: 1
    kernel_size: 3
    stride: 1
  }
}
layer {
  name: "relu3_1-R"
  type: "ReLU"
  bottom: "conv3_1-R"
  top: "conv3_1-R"
}
layer {
  name: "conv3_2-R"
  type: "Convolution"
  bottom: "conv3_1-R"
  top: "conv3_2-R"
  param {
    lr_mult: 10
    decay_mult: 1
  }
  param {
    lr_mult: 20
    decay_mult: 0
  }
  convolution_param {
    num_output: 256
    pad: 1
    kernel_size: 3
    stride: 1
  }
}
layer {
  name: "relu3_2-R"
  type: "ReLU"
  bottom: "conv3_2-R"
  top: "conv3_2-R"
}
layer {
  name: "conv3_3-R"
  type: "Convolution"
  bottom: "conv3_2-R"
  top: "conv3_3-R"
  param {
    lr_mult: 10
    decay_mult: 1
  }
  param {
    lr_mult: 20
    decay_mult: 0
  }
  convolution_param {
    num_output: 256
    pad: 1
    kernel_size: 3
    stride: 1
  }
}
layer {
  name: "relu3_3-R"
  type: "ReLU"
  bottom: "conv3_3-R"
  top: "conv3_3-R"
}
layer {
  name: "pool3-R"
  type: "Pooling"
  bottom: "conv3_3-R"
  top: "pool3-R"
  pooling_param {
    pool: MAX
    kernel_size: 2
    stride: 2
  }
}
layer {
  name: "conv4_1-R"
  type: "Convolution"
  bottom: "pool3-R"
  top: "conv4_1-R"
  param {
    lr_mult: 10
    decay_mult: 1
  }
  param {
    lr_mult: 20
    decay_mult: 0
  }
  convolution_param {
    num_output: 512
    pad: 1
    kernel_size: 3
    stride: 1
  }
}
layer {
  name: "relu4_1-R"
  type: "ReLU"
  bottom: "conv4_1-R"
  top: "conv4_1-R"
}
layer {
  name: "conv4_2-R"
  type: "Convolution"
  bottom: "conv4_1-R"
  top: "conv4_2-R"
  param {
    lr_mult: 10
    decay_mult: 1
  }
  param {
    lr_mult: 20
    decay_mult: 0
  }
  convolution_param {
    num_output: 512
    pad: 1
    kernel_size: 3
    stride: 1
  }
}
layer {
  name: "relu4_2-R"
  type: "ReLU"
  bottom: "conv4_2-R"
  top: "conv4_2-R"
}
layer {
  name: "conv4_3-R"
  type: "Convolution"
  bottom: "conv4_2-R"
  top: "conv4_3-R"
  param {
    lr_mult: 10
    decay_mult: 1
  }
  param {
    lr_mult: 20
    decay_mult: 0
  }
  convolution_param {
    num_output: 512
    pad: 1
    kernel_size: 3
    stride: 1
  }
}
layer {
  name: "relu4_3-R"
  type: "ReLU"
  bottom: "conv4_3-R"
  top: "conv4_3-R"
}
layer {
  name: "pool4-R"
  type: "Pooling"
  bottom: "conv4_3-R"
  top: "pool4-R"
  pooling_param {
    pool: MAX
    kernel_size: 2
    stride: 2
  }
}
layer {
  name: "conv5_1-R"
  type: "Convolution"
  bottom: "pool4-R"
  top: "conv5_1-R"
  param {
    lr_mult: 10
    decay_mult: 1
  }
  param {
    lr_mult: 20
    decay_mult: 0
  }
  convolution_param {
    num_output: 512
    pad: 1
    kernel_size: 3
    stride: 1
  }
}
layer {
  name: "relu5_1-R"
  type: "ReLU"
  bottom: "conv5_1-R"
  top: "conv5_1-R"
}
layer {
  name: "conv5_2-R"
  type: "Convolution"
  bottom: "conv5_1-R"
  top: "conv5_2-R"
  param {
    lr_mult: 10
    decay_mult: 1
  }
  param {
    lr_mult: 20
    decay_mult: 0
  }
  convolution_param {
    num_output: 512
    pad: 1
    kernel_size: 3
    stride: 1
  }
}
layer {
  name: "relu5_2-R"
  type: "ReLU"
  bottom: "conv5_2-R"
  top: "conv5_2-R"
}
layer {
  name: "conv5_3-R"
  type: "Convolution"
  bottom: "conv5_2-R"
  top: "conv5_3-R"
  param {
    lr_mult: 10
    decay_mult: 1
  }
  param {
    lr_mult: 20
    decay_mult: 0
  }
  convolution_param {
    num_output: 512
    pad: 1
    kernel_size: 3
    stride: 1
  }
}
layer {
  name: "relu5_3-R"
  type: "ReLU"
  bottom: "conv5_3-R"
  top: "conv5_3-R"
}
layer {
  name: "pool5-R"
  type: "Pooling"
  bottom: "conv5_3-R"
  top: "pool5-R"
  pooling_param {
    pool: MAX
    kernel_size: 2
    stride: 2
  }
}
layer {
  name: "fc6-R"
  type: "Convolution"
  bottom: "pool5-R"
  top: "fc6-R"
  param {
    lr_mult: 10
    decay_mult: 1
  }
  param {
    lr_mult: 20
    decay_mult: 0
  }
  convolution_param {
    num_output: 4096
    pad: 0
    kernel_size: 7
    stride: 1
  }
}
layer {
  name: "relu6-R"
  type: "ReLU"
  bottom: "fc6-R"
  top: "fc6-R"
}
layer {
  name: "drop6-R"
  type: "Dropout"
  bottom: "fc6-R"
  top: "fc6-R"
  dropout_param {
    dropout_ratio: 0.5
  }
}
layer {
  name: "fc7-R"
  type: "Convolution"
  bottom: "fc6-R"
  top: "fc7-R"
  param {
    lr_mult: 10
    decay_mult: 1
  }
  param {
    lr_mult: 20
    decay_mult: 0
  }
  convolution_param {
    num_output: 4096
    pad: 0
    kernel_size: 1
    stride: 1
  }
}
layer {
  name: "relu7-R"
  type: "ReLU"
  bottom: "fc7-R"
  top: "fc7-R"
}
layer {
  name: "drop7-R"
  type: "Dropout"
  bottom: "fc7-R"
  top: "fc7-R"
  dropout_param {
    dropout_ratio: 0.5
  }
}
layer {
  name: "score_fr-new-R"
  type: "Convolution"
  bottom: "fc7-R"
  top: "score_fr-new-R"
  param {
    lr_mult: 10
    decay_mult: 1
  }
  param {
    lr_mult: 20
    decay_mult: 0
  }
  convolution_param {
    num_output: 3
    kernel_size: 1
  }
}
layer {
  name: "upscore2-new-R"
  type: "Deconvolution"
  bottom: "score_fr-new-R"
  top: "upscore2-new-R"
  param {
    lr_mult: 0
  }
  convolution_param {
    num_output: 3
    bias_term: false
    kernel_size: 4
    stride: 2
  }
}
layer {
  name: "score_pool4-new-R"
  type: "Convolution"
  bottom: "pool4-R"
  top: "score_pool4-new-R"
  param {
    lr_mult: 10
    decay_mult: 1
  }
  param {
    lr_mult: 20
    decay_mult: 0
  }
  convolution_param {
    num_output: 3
    pad: 0
    kernel_size: 1
  }
}
layer {
  name: "score_pool4c-R"
  type: "Crop"
  bottom: "score_pool4-new-R"
  bottom: "upscore2-new-R"
  top: "score_pool4c-R"
  crop_param {
    axis: 2
    offset: 5
  }
}
layer {
  name: "fuse_pool4-R"
  type: "Eltwise"
  bottom: "upscore2-new-R"
  bottom: "score_pool4c-R"
  top: "fuse_pool4-R"
  eltwise_param {
    operation: SUM
  }
}
layer {
  name: "upscore_pool4-new-R"
  type: "Deconvolution"
  bottom: "fuse_pool4-R"
  top: "upscore_pool4-new-R"
  param {
    lr_mult: 0
  }
  convolution_param {
    num_output: 3
    bias_term: false
    kernel_size: 4
    stride: 2
  }
}
layer {
  name: "score_pool3-new-R"
  type: "Convolution"
  bottom: "pool3-R"
  top: "score_pool3-new-R"
  param {
    lr_mult: 10
    decay_mult: 1
  }
  param {
    lr_mult: 20
    decay_mult: 0
  }
  convolution_param {
    num_output: 3
    pad: 0
    kernel_size: 1
  }
}
layer {
  name: "score_pool3c-R"
  type: "Crop"
  bottom: "score_pool3-new-R"
  bottom: "upscore_pool4-new-R"
  top: "score_pool3c-R"
  crop_param {
    axis: 2
    offset: 9
  }
}
layer {
  name: "fuse_pool3-R"
  type: "Eltwise"
  bottom: "upscore_pool4-new-R"
  bottom: "score_pool3c-R"
  top: "fuse_pool3-R"
  eltwise_param {
    operation: SUM
  }
}
layer {
  name: "upscore8-new-R"
  type: "Deconvolution"
  bottom: "fuse_pool3-R"
  top: "upscore8-new-R"
  param {
    lr_mult: 0
  }
  convolution_param {
    num_output: 3
    bias_term: false
    kernel_size: 16
    stride: 8
  }
}
layer {
  name: "upscore8_cropped-R"
  type: "Crop"
  bottom: "upscore8-new-R"
  bottom: "data-R"
  top: "upscore8_cropped-R"
  crop_param {
    axis: 2
    offset: 31
  }
}
layer {
  name: "upscore8_uncropped-R"
  type: "Python"
  bottom: "crop_info"
  bottom: "upscore8_cropped-R"
  bottom: "data"
  top: "upscore8_uncropped-R"
  python_param {
    module: "Uncrop"
    layer: "UncropLayer"
  }
}
layer {
  name: "loss1"
  type: "DiceLoss"
  bottom: "upscore8_cropped"
  bottom: "label"
  top: "loss1"
  loss_weight: 0.333333
}
layer {
  name: "loss2"
  type: "DiceLoss"
  bottom: "upscore8_uncropped-R"
  bottom: "label"
  top: "loss2"
  loss_weight: 0.666667
}
I0716 00:14:33.849972 14940 layer_factory.hpp:77] Creating layer data
I0716 00:14:33.851064 14940 net.cpp:84] Creating Layer data
I0716 00:14:33.851080 14940 net.cpp:380] data -> data
I0716 00:14:33.851097 14940 net.cpp:380] data -> label
I0716 00:14:33.851105 14940 net.cpp:380] data -> crop_margin
I0716 00:14:33.851111 14940 net.cpp:380] data -> crop_prob
I0716 00:14:33.851119 14940 net.cpp:380] data -> crop_sample_batch
I0716 00:14:34.061681 14940 net.cpp:122] Setting up data
I0716 00:14:34.061734 14940 net.cpp:129] Top shape: 1 3 512 199 (305664)
I0716 00:14:34.061743 14940 net.cpp:129] Top shape: 1 3 512 199 (305664)
I0716 00:14:34.061748 14940 net.cpp:129] Top shape: 1 (1)
I0716 00:14:34.061753 14940 net.cpp:129] Top shape: 1 (1)
I0716 00:14:34.061758 14940 net.cpp:129] Top shape: 1 (1)
I0716 00:14:34.061763 14940 net.cpp:137] Memory required for data: 2445324
I0716 00:14:34.061772 14940 layer_factory.hpp:77] Creating layer data_data_0_split
I0716 00:14:34.061792 14940 net.cpp:84] Creating Layer data_data_0_split
I0716 00:14:34.061800 14940 net.cpp:406] data_data_0_split <- data
I0716 00:14:34.061815 14940 net.cpp:380] data_data_0_split -> data_data_0_split_0
I0716 00:14:34.061828 14940 net.cpp:380] data_data_0_split -> data_data_0_split_1
I0716 00:14:34.061836 14940 net.cpp:380] data_data_0_split -> data_data_0_split_2
I0716 00:14:34.061843 14940 net.cpp:380] data_data_0_split -> data_data_0_split_3
I0716 00:14:34.061920 14940 net.cpp:122] Setting up data_data_0_split
I0716 00:14:34.061928 14940 net.cpp:129] Top shape: 1 3 512 199 (305664)
I0716 00:14:34.061933 14940 net.cpp:129] Top shape: 1 3 512 199 (305664)
I0716 00:14:34.061939 14940 net.cpp:129] Top shape: 1 3 512 199 (305664)
I0716 00:14:34.061944 14940 net.cpp:129] Top shape: 1 3 512 199 (305664)
I0716 00:14:34.061947 14940 net.cpp:137] Memory required for data: 7335948
I0716 00:14:34.061951 14940 layer_factory.hpp:77] Creating layer label_data_1_split
I0716 00:14:34.061960 14940 net.cpp:84] Creating Layer label_data_1_split
I0716 00:14:34.061965 14940 net.cpp:406] label_data_1_split <- label
I0716 00:14:34.061972 14940 net.cpp:380] label_data_1_split -> label_data_1_split_0
I0716 00:14:34.061980 14940 net.cpp:380] label_data_1_split -> label_data_1_split_1
I0716 00:14:34.061987 14940 net.cpp:380] label_data_1_split -> label_data_1_split_2
I0716 00:14:34.062031 14940 net.cpp:122] Setting up label_data_1_split
I0716 00:14:34.062036 14940 net.cpp:129] Top shape: 1 3 512 199 (305664)
I0716 00:14:34.062041 14940 net.cpp:129] Top shape: 1 3 512 199 (305664)
I0716 00:14:34.062047 14940 net.cpp:129] Top shape: 1 3 512 199 (305664)
I0716 00:14:34.062049 14940 net.cpp:137] Memory required for data: 11003916
I0716 00:14:34.062054 14940 layer_factory.hpp:77] Creating layer conv1_1
I0716 00:14:34.062073 14940 net.cpp:84] Creating Layer conv1_1
I0716 00:14:34.062078 14940 net.cpp:406] conv1_1 <- data_data_0_split_0
I0716 00:14:34.062086 14940 net.cpp:380] conv1_1 -> conv1_1
I0716 00:14:34.461241 14940 net.cpp:122] Setting up conv1_1
I0716 00:14:34.461297 14940 net.cpp:129] Top shape: 1 64 710 397 (18039680)
I0716 00:14:34.461302 14940 net.cpp:137] Memory required for data: 83162636
I0716 00:14:34.461329 14940 layer_factory.hpp:77] Creating layer relu1_1
I0716 00:14:34.461351 14940 net.cpp:84] Creating Layer relu1_1
I0716 00:14:34.461357 14940 net.cpp:406] relu1_1 <- conv1_1
I0716 00:14:34.461364 14940 net.cpp:367] relu1_1 -> conv1_1 (in-place)
I0716 00:14:34.461601 14940 net.cpp:122] Setting up relu1_1
I0716 00:14:34.461616 14940 net.cpp:129] Top shape: 1 64 710 397 (18039680)
I0716 00:14:34.461619 14940 net.cpp:137] Memory required for data: 155321356
I0716 00:14:34.461624 14940 layer_factory.hpp:77] Creating layer conv1_2
I0716 00:14:34.461637 14940 net.cpp:84] Creating Layer conv1_2
I0716 00:14:34.461642 14940 net.cpp:406] conv1_2 <- conv1_1
I0716 00:14:34.461649 14940 net.cpp:380] conv1_2 -> conv1_2
I0716 00:14:34.470033 14940 net.cpp:122] Setting up conv1_2
I0716 00:14:34.470069 14940 net.cpp:129] Top shape: 1 64 710 397 (18039680)
I0716 00:14:34.470075 14940 net.cpp:137] Memory required for data: 227480076
I0716 00:14:34.470089 14940 layer_factory.hpp:77] Creating layer relu1_2
I0716 00:14:34.470099 14940 net.cpp:84] Creating Layer relu1_2
I0716 00:14:34.470104 14940 net.cpp:406] relu1_2 <- conv1_2
I0716 00:14:34.470111 14940 net.cpp:367] relu1_2 -> conv1_2 (in-place)
I0716 00:14:34.470330 14940 net.cpp:122] Setting up relu1_2
I0716 00:14:34.470343 14940 net.cpp:129] Top shape: 1 64 710 397 (18039680)
I0716 00:14:34.470347 14940 net.cpp:137] Memory required for data: 299638796
I0716 00:14:34.470352 14940 layer_factory.hpp:77] Creating layer pool1
I0716 00:14:34.470361 14940 net.cpp:84] Creating Layer pool1
I0716 00:14:34.470366 14940 net.cpp:406] pool1 <- conv1_2
I0716 00:14:34.470374 14940 net.cpp:380] pool1 -> pool1
I0716 00:14:34.470433 14940 net.cpp:122] Setting up pool1
I0716 00:14:34.470443 14940 net.cpp:129] Top shape: 1 64 355 199 (4521280)
I0716 00:14:34.470448 14940 net.cpp:137] Memory required for data: 317723916
I0716 00:14:34.470451 14940 layer_factory.hpp:77] Creating layer conv2_1
I0716 00:14:34.470464 14940 net.cpp:84] Creating Layer conv2_1
I0716 00:14:34.470468 14940 net.cpp:406] conv2_1 <- pool1
I0716 00:14:34.470476 14940 net.cpp:380] conv2_1 -> conv2_1
I0716 00:14:34.473970 14940 net.cpp:122] Setting up conv2_1
I0716 00:14:34.474007 14940 net.cpp:129] Top shape: 1 128 355 199 (9042560)
I0716 00:14:34.474014 14940 net.cpp:137] Memory required for data: 353894156
I0716 00:14:34.474030 14940 layer_factory.hpp:77] Creating layer relu2_1
I0716 00:14:34.474040 14940 net.cpp:84] Creating Layer relu2_1
I0716 00:14:34.474045 14940 net.cpp:406] relu2_1 <- conv2_1
I0716 00:14:34.474053 14940 net.cpp:367] relu2_1 -> conv2_1 (in-place)
I0716 00:14:34.474323 14940 net.cpp:122] Setting up relu2_1
I0716 00:14:34.474337 14940 net.cpp:129] Top shape: 1 128 355 199 (9042560)
I0716 00:14:34.474344 14940 net.cpp:137] Memory required for data: 390064396
I0716 00:14:34.474349 14940 layer_factory.hpp:77] Creating layer conv2_2
I0716 00:14:34.474361 14940 net.cpp:84] Creating Layer conv2_2
I0716 00:14:34.474367 14940 net.cpp:406] conv2_2 <- conv2_1
I0716 00:14:34.474376 14940 net.cpp:380] conv2_2 -> conv2_2
I0716 00:14:34.476874 14940 net.cpp:122] Setting up conv2_2
I0716 00:14:34.476909 14940 net.cpp:129] Top shape: 1 128 355 199 (9042560)
I0716 00:14:34.476917 14940 net.cpp:137] Memory required for data: 426234636
I0716 00:14:34.476927 14940 layer_factory.hpp:77] Creating layer relu2_2
I0716 00:14:34.476938 14940 net.cpp:84] Creating Layer relu2_2
I0716 00:14:34.476943 14940 net.cpp:406] relu2_2 <- conv2_2
I0716 00:14:34.476951 14940 net.cpp:367] relu2_2 -> conv2_2 (in-place)
I0716 00:14:34.477203 14940 net.cpp:122] Setting up relu2_2
I0716 00:14:34.477217 14940 net.cpp:129] Top shape: 1 128 355 199 (9042560)
I0716 00:14:34.477223 14940 net.cpp:137] Memory required for data: 462404876
I0716 00:14:34.477228 14940 layer_factory.hpp:77] Creating layer pool2
I0716 00:14:34.477238 14940 net.cpp:84] Creating Layer pool2
I0716 00:14:34.477244 14940 net.cpp:406] pool2 <- conv2_2
I0716 00:14:34.477253 14940 net.cpp:380] pool2 -> pool2
I0716 00:14:34.477311 14940 net.cpp:122] Setting up pool2
I0716 00:14:34.477324 14940 net.cpp:129] Top shape: 1 128 178 100 (2278400)
I0716 00:14:34.477329 14940 net.cpp:137] Memory required for data: 471518476
I0716 00:14:34.477334 14940 layer_factory.hpp:77] Creating layer conv3_1
I0716 00:14:34.477345 14940 net.cpp:84] Creating Layer conv3_1
I0716 00:14:34.477350 14940 net.cpp:406] conv3_1 <- pool2
I0716 00:14:34.477360 14940 net.cpp:380] conv3_1 -> conv3_1
I0716 00:14:34.481596 14940 net.cpp:122] Setting up conv3_1
I0716 00:14:34.481631 14940 net.cpp:129] Top shape: 1 256 178 100 (4556800)
I0716 00:14:34.481637 14940 net.cpp:137] Memory required for data: 489745676
I0716 00:14:34.481652 14940 layer_factory.hpp:77] Creating layer relu3_1
I0716 00:14:34.481662 14940 net.cpp:84] Creating Layer relu3_1
I0716 00:14:34.481668 14940 net.cpp:406] relu3_1 <- conv3_1
I0716 00:14:34.481676 14940 net.cpp:367] relu3_1 -> conv3_1 (in-place)
I0716 00:14:34.482450 14940 net.cpp:122] Setting up relu3_1
I0716 00:14:34.482468 14940 net.cpp:129] Top shape: 1 256 178 100 (4556800)
I0716 00:14:34.482475 14940 net.cpp:137] Memory required for data: 507972876
I0716 00:14:34.482481 14940 layer_factory.hpp:77] Creating layer conv3_2
I0716 00:14:34.482494 14940 net.cpp:84] Creating Layer conv3_2
I0716 00:14:34.482499 14940 net.cpp:406] conv3_2 <- conv3_1
I0716 00:14:34.482509 14940 net.cpp:380] conv3_2 -> conv3_2
I0716 00:14:34.487231 14940 net.cpp:122] Setting up conv3_2
I0716 00:14:34.487253 14940 net.cpp:129] Top shape: 1 256 178 100 (4556800)
I0716 00:14:34.487268 14940 net.cpp:137] Memory required for data: 526200076
I0716 00:14:34.487295 14940 layer_factory.hpp:77] Creating layer relu3_2
I0716 00:14:34.487320 14940 net.cpp:84] Creating Layer relu3_2
I0716 00:14:34.487326 14940 net.cpp:406] relu3_2 <- conv3_2
I0716 00:14:34.487345 14940 net.cpp:367] relu3_2 -> conv3_2 (in-place)
I0716 00:14:34.488169 14940 net.cpp:122] Setting up relu3_2
I0716 00:14:34.488188 14940 net.cpp:129] Top shape: 1 256 178 100 (4556800)
I0716 00:14:34.488194 14940 net.cpp:137] Memory required for data: 544427276
I0716 00:14:34.488199 14940 layer_factory.hpp:77] Creating layer conv3_3
I0716 00:14:34.488214 14940 net.cpp:84] Creating Layer conv3_3
I0716 00:14:34.488220 14940 net.cpp:406] conv3_3 <- conv3_2
I0716 00:14:34.488234 14940 net.cpp:380] conv3_3 -> conv3_3
I0716 00:14:34.492792 14940 net.cpp:122] Setting up conv3_3
I0716 00:14:34.492827 14940 net.cpp:129] Top shape: 1 256 178 100 (4556800)
I0716 00:14:34.492832 14940 net.cpp:137] Memory required for data: 562654476
I0716 00:14:34.492841 14940 layer_factory.hpp:77] Creating layer relu3_3
I0716 00:14:34.492851 14940 net.cpp:84] Creating Layer relu3_3
I0716 00:14:34.492856 14940 net.cpp:406] relu3_3 <- conv3_3
I0716 00:14:34.492866 14940 net.cpp:367] relu3_3 -> conv3_3 (in-place)
I0716 00:14:34.493103 14940 net.cpp:122] Setting up relu3_3
I0716 00:14:34.493118 14940 net.cpp:129] Top shape: 1 256 178 100 (4556800)
I0716 00:14:34.493122 14940 net.cpp:137] Memory required for data: 580881676
I0716 00:14:34.493126 14940 layer_factory.hpp:77] Creating layer pool3
I0716 00:14:34.493135 14940 net.cpp:84] Creating Layer pool3
I0716 00:14:34.493139 14940 net.cpp:406] pool3 <- conv3_3
I0716 00:14:34.493146 14940 net.cpp:380] pool3 -> pool3
I0716 00:14:34.493203 14940 net.cpp:122] Setting up pool3
I0716 00:14:34.493221 14940 net.cpp:129] Top shape: 1 256 89 50 (1139200)
I0716 00:14:34.493224 14940 net.cpp:137] Memory required for data: 585438476
I0716 00:14:34.493228 14940 layer_factory.hpp:77] Creating layer pool3_pool3_0_split
I0716 00:14:34.493237 14940 net.cpp:84] Creating Layer pool3_pool3_0_split
I0716 00:14:34.493240 14940 net.cpp:406] pool3_pool3_0_split <- pool3
I0716 00:14:34.493249 14940 net.cpp:380] pool3_pool3_0_split -> pool3_pool3_0_split_0
I0716 00:14:34.493257 14940 net.cpp:380] pool3_pool3_0_split -> pool3_pool3_0_split_1
I0716 00:14:34.493302 14940 net.cpp:122] Setting up pool3_pool3_0_split
I0716 00:14:34.493315 14940 net.cpp:129] Top shape: 1 256 89 50 (1139200)
I0716 00:14:34.493321 14940 net.cpp:129] Top shape: 1 256 89 50 (1139200)
I0716 00:14:34.493325 14940 net.cpp:137] Memory required for data: 594552076
I0716 00:14:34.493330 14940 layer_factory.hpp:77] Creating layer conv4_1
I0716 00:14:34.493340 14940 net.cpp:84] Creating Layer conv4_1
I0716 00:14:34.493345 14940 net.cpp:406] conv4_1 <- pool3_pool3_0_split_0
I0716 00:14:34.493351 14940 net.cpp:380] conv4_1 -> conv4_1
I0716 00:14:34.502393 14940 net.cpp:122] Setting up conv4_1
I0716 00:14:34.502414 14940 net.cpp:129] Top shape: 1 512 89 50 (2278400)
I0716 00:14:34.502419 14940 net.cpp:137] Memory required for data: 603665676
I0716 00:14:34.502432 14940 layer_factory.hpp:77] Creating layer relu4_1
I0716 00:14:34.502440 14940 net.cpp:84] Creating Layer relu4_1
I0716 00:14:34.502445 14940 net.cpp:406] relu4_1 <- conv4_1
I0716 00:14:34.502455 14940 net.cpp:367] relu4_1 -> conv4_1 (in-place)
I0716 00:14:34.502707 14940 net.cpp:122] Setting up relu4_1
I0716 00:14:34.502722 14940 net.cpp:129] Top shape: 1 512 89 50 (2278400)
I0716 00:14:34.502725 14940 net.cpp:137] Memory required for data: 612779276
I0716 00:14:34.502729 14940 layer_factory.hpp:77] Creating layer conv4_2
I0716 00:14:34.502744 14940 net.cpp:84] Creating Layer conv4_2
I0716 00:14:34.502749 14940 net.cpp:406] conv4_2 <- conv4_1
I0716 00:14:34.502756 14940 net.cpp:380] conv4_2 -> conv4_2
I0716 00:14:34.511734 14940 net.cpp:122] Setting up conv4_2
I0716 00:14:34.511754 14940 net.cpp:129] Top shape: 1 512 89 50 (2278400)
I0716 00:14:34.511770 14940 net.cpp:137] Memory required for data: 621892876
I0716 00:14:34.511785 14940 layer_factory.hpp:77] Creating layer relu4_2
I0716 00:14:34.511793 14940 net.cpp:84] Creating Layer relu4_2
I0716 00:14:34.511797 14940 net.cpp:406] relu4_2 <- conv4_2
I0716 00:14:34.511806 14940 net.cpp:367] relu4_2 -> conv4_2 (in-place)
I0716 00:14:34.512037 14940 net.cpp:122] Setting up relu4_2
I0716 00:14:34.512051 14940 net.cpp:129] Top shape: 1 512 89 50 (2278400)
I0716 00:14:34.512055 14940 net.cpp:137] Memory required for data: 631006476
I0716 00:14:34.512059 14940 layer_factory.hpp:77] Creating layer conv4_3
I0716 00:14:34.512076 14940 net.cpp:84] Creating Layer conv4_3
I0716 00:14:34.512080 14940 net.cpp:406] conv4_3 <- conv4_2
I0716 00:14:34.512087 14940 net.cpp:380] conv4_3 -> conv4_3
I0716 00:14:34.520512 14940 net.cpp:122] Setting up conv4_3
I0716 00:14:34.520534 14940 net.cpp:129] Top shape: 1 512 89 50 (2278400)
I0716 00:14:34.520539 14940 net.cpp:137] Memory required for data: 640120076
I0716 00:14:34.520550 14940 layer_factory.hpp:77] Creating layer relu4_3
I0716 00:14:34.520558 14940 net.cpp:84] Creating Layer relu4_3
I0716 00:14:34.520563 14940 net.cpp:406] relu4_3 <- conv4_3
I0716 00:14:34.520573 14940 net.cpp:367] relu4_3 -> conv4_3 (in-place)
I0716 00:14:34.520787 14940 net.cpp:122] Setting up relu4_3
I0716 00:14:34.520802 14940 net.cpp:129] Top shape: 1 512 89 50 (2278400)
I0716 00:14:34.520807 14940 net.cpp:137] Memory required for data: 649233676
I0716 00:14:34.520810 14940 layer_factory.hpp:77] Creating layer pool4
I0716 00:14:34.520819 14940 net.cpp:84] Creating Layer pool4
I0716 00:14:34.520824 14940 net.cpp:406] pool4 <- conv4_3
I0716 00:14:34.520831 14940 net.cpp:380] pool4 -> pool4
I0716 00:14:34.520886 14940 net.cpp:122] Setting up pool4
I0716 00:14:34.520896 14940 net.cpp:129] Top shape: 1 512 45 25 (576000)
I0716 00:14:34.520900 14940 net.cpp:137] Memory required for data: 651537676
I0716 00:14:34.520905 14940 layer_factory.hpp:77] Creating layer pool4_pool4_0_split
I0716 00:14:34.520911 14940 net.cpp:84] Creating Layer pool4_pool4_0_split
I0716 00:14:34.520915 14940 net.cpp:406] pool4_pool4_0_split <- pool4
I0716 00:14:34.520923 14940 net.cpp:380] pool4_pool4_0_split -> pool4_pool4_0_split_0
I0716 00:14:34.520931 14940 net.cpp:380] pool4_pool4_0_split -> pool4_pool4_0_split_1
I0716 00:14:34.520975 14940 net.cpp:122] Setting up pool4_pool4_0_split
I0716 00:14:34.520982 14940 net.cpp:129] Top shape: 1 512 45 25 (576000)
I0716 00:14:34.520987 14940 net.cpp:129] Top shape: 1 512 45 25 (576000)
I0716 00:14:34.520990 14940 net.cpp:137] Memory required for data: 656145676
I0716 00:14:34.520994 14940 layer_factory.hpp:77] Creating layer conv5_1
I0716 00:14:34.521006 14940 net.cpp:84] Creating Layer conv5_1
I0716 00:14:34.521010 14940 net.cpp:406] conv5_1 <- pool4_pool4_0_split_0
I0716 00:14:34.521018 14940 net.cpp:380] conv5_1 -> conv5_1
I0716 00:14:34.529608 14940 net.cpp:122] Setting up conv5_1
I0716 00:14:34.529642 14940 net.cpp:129] Top shape: 1 512 45 25 (576000)
I0716 00:14:34.529647 14940 net.cpp:137] Memory required for data: 658449676
I0716 00:14:34.529656 14940 layer_factory.hpp:77] Creating layer relu5_1
I0716 00:14:34.529669 14940 net.cpp:84] Creating Layer relu5_1
I0716 00:14:34.529673 14940 net.cpp:406] relu5_1 <- conv5_1
I0716 00:14:34.529682 14940 net.cpp:367] relu5_1 -> conv5_1 (in-place)
I0716 00:14:34.530431 14940 net.cpp:122] Setting up relu5_1
I0716 00:14:34.530449 14940 net.cpp:129] Top shape: 1 512 45 25 (576000)
I0716 00:14:34.530453 14940 net.cpp:137] Memory required for data: 660753676
I0716 00:14:34.530458 14940 layer_factory.hpp:77] Creating layer conv5_2
I0716 00:14:34.530472 14940 net.cpp:84] Creating Layer conv5_2
I0716 00:14:34.530475 14940 net.cpp:406] conv5_2 <- conv5_1
I0716 00:14:34.530484 14940 net.cpp:380] conv5_2 -> conv5_2
I0716 00:14:34.538405 14940 net.cpp:122] Setting up conv5_2
I0716 00:14:34.538439 14940 net.cpp:129] Top shape: 1 512 45 25 (576000)
I0716 00:14:34.538444 14940 net.cpp:137] Memory required for data: 663057676
I0716 00:14:34.538453 14940 layer_factory.hpp:77] Creating layer relu5_2
I0716 00:14:34.538467 14940 net.cpp:84] Creating Layer relu5_2
I0716 00:14:34.538472 14940 net.cpp:406] relu5_2 <- conv5_2
I0716 00:14:34.538482 14940 net.cpp:367] relu5_2 -> conv5_2 (in-place)
I0716 00:14:34.539273 14940 net.cpp:122] Setting up relu5_2
I0716 00:14:34.539315 14940 net.cpp:129] Top shape: 1 512 45 25 (576000)
I0716 00:14:34.539319 14940 net.cpp:137] Memory required for data: 665361676
I0716 00:14:34.539324 14940 layer_factory.hpp:77] Creating layer conv5_3
I0716 00:14:34.539337 14940 net.cpp:84] Creating Layer conv5_3
I0716 00:14:34.539342 14940 net.cpp:406] conv5_3 <- conv5_2
I0716 00:14:34.539351 14940 net.cpp:380] conv5_3 -> conv5_3
I0716 00:14:34.548702 14940 net.cpp:122] Setting up conv5_3
I0716 00:14:34.548725 14940 net.cpp:129] Top shape: 1 512 45 25 (576000)
I0716 00:14:34.548739 14940 net.cpp:137] Memory required for data: 667665676
I0716 00:14:34.548748 14940 layer_factory.hpp:77] Creating layer relu5_3
I0716 00:14:34.548758 14940 net.cpp:84] Creating Layer relu5_3
I0716 00:14:34.548763 14940 net.cpp:406] relu5_3 <- conv5_3
I0716 00:14:34.548771 14940 net.cpp:367] relu5_3 -> conv5_3 (in-place)
I0716 00:14:34.549002 14940 net.cpp:122] Setting up relu5_3
I0716 00:14:34.549015 14940 net.cpp:129] Top shape: 1 512 45 25 (576000)
I0716 00:14:34.549021 14940 net.cpp:137] Memory required for data: 669969676
I0716 00:14:34.549024 14940 layer_factory.hpp:77] Creating layer pool5
I0716 00:14:34.549036 14940 net.cpp:84] Creating Layer pool5
I0716 00:14:34.549041 14940 net.cpp:406] pool5 <- conv5_3
I0716 00:14:34.549047 14940 net.cpp:380] pool5 -> pool5
I0716 00:14:34.549103 14940 net.cpp:122] Setting up pool5
I0716 00:14:34.549113 14940 net.cpp:129] Top shape: 1 512 23 13 (153088)
I0716 00:14:34.549116 14940 net.cpp:137] Memory required for data: 670582028
I0716 00:14:34.549120 14940 layer_factory.hpp:77] Creating layer fc6
I0716 00:14:34.549132 14940 net.cpp:84] Creating Layer fc6
I0716 00:14:34.549137 14940 net.cpp:406] fc6 <- pool5
I0716 00:14:34.549144 14940 net.cpp:380] fc6 -> fc6
I0716 00:14:34.862438 14940 net.cpp:122] Setting up fc6
I0716 00:14:34.862498 14940 net.cpp:129] Top shape: 1 4096 17 7 (487424)
I0716 00:14:34.862504 14940 net.cpp:137] Memory required for data: 672531724
I0716 00:14:34.862525 14940 layer_factory.hpp:77] Creating layer relu6
I0716 00:14:34.862546 14940 net.cpp:84] Creating Layer relu6
I0716 00:14:34.862556 14940 net.cpp:406] relu6 <- fc6
I0716 00:14:34.862576 14940 net.cpp:367] relu6 -> fc6 (in-place)
I0716 00:14:34.862818 14940 net.cpp:122] Setting up relu6
I0716 00:14:34.862830 14940 net.cpp:129] Top shape: 1 4096 17 7 (487424)
I0716 00:14:34.862835 14940 net.cpp:137] Memory required for data: 674481420
I0716 00:14:34.862839 14940 layer_factory.hpp:77] Creating layer drop6
I0716 00:14:34.862855 14940 net.cpp:84] Creating Layer drop6
I0716 00:14:34.862860 14940 net.cpp:406] drop6 <- fc6
I0716 00:14:34.862867 14940 net.cpp:367] drop6 -> fc6 (in-place)
I0716 00:14:34.862926 14940 net.cpp:122] Setting up drop6
I0716 00:14:34.862934 14940 net.cpp:129] Top shape: 1 4096 17 7 (487424)
I0716 00:14:34.862939 14940 net.cpp:137] Memory required for data: 676431116
I0716 00:14:34.862942 14940 layer_factory.hpp:77] Creating layer fc7
I0716 00:14:34.862957 14940 net.cpp:84] Creating Layer fc7
I0716 00:14:34.862962 14940 net.cpp:406] fc7 <- fc6
I0716 00:14:34.862970 14940 net.cpp:380] fc7 -> fc7
I0716 00:14:34.915627 14940 net.cpp:122] Setting up fc7
I0716 00:14:34.915674 14940 net.cpp:129] Top shape: 1 4096 17 7 (487424)
I0716 00:14:34.915679 14940 net.cpp:137] Memory required for data: 678380812
I0716 00:14:34.915691 14940 layer_factory.hpp:77] Creating layer relu7
I0716 00:14:34.915709 14940 net.cpp:84] Creating Layer relu7
I0716 00:14:34.915716 14940 net.cpp:406] relu7 <- fc7
I0716 00:14:34.915727 14940 net.cpp:367] relu7 -> fc7 (in-place)
I0716 00:14:34.915977 14940 net.cpp:122] Setting up relu7
I0716 00:14:34.916003 14940 net.cpp:129] Top shape: 1 4096 17 7 (487424)
I0716 00:14:34.916008 14940 net.cpp:137] Memory required for data: 680330508
I0716 00:14:34.916013 14940 layer_factory.hpp:77] Creating layer drop7
I0716 00:14:34.916023 14940 net.cpp:84] Creating Layer drop7
I0716 00:14:34.916028 14940 net.cpp:406] drop7 <- fc7
I0716 00:14:34.916036 14940 net.cpp:367] drop7 -> fc7 (in-place)
I0716 00:14:34.916074 14940 net.cpp:122] Setting up drop7
I0716 00:14:34.916079 14940 net.cpp:129] Top shape: 1 4096 17 7 (487424)
I0716 00:14:34.916083 14940 net.cpp:137] Memory required for data: 682280204
I0716 00:14:34.916088 14940 layer_factory.hpp:77] Creating layer score_fr-new
I0716 00:14:34.916100 14940 net.cpp:84] Creating Layer score_fr-new
I0716 00:14:34.916105 14940 net.cpp:406] score_fr-new <- fc7
I0716 00:14:34.916118 14940 net.cpp:380] score_fr-new -> score_fr-new
I0716 00:14:34.919486 14940 net.cpp:122] Setting up score_fr-new
I0716 00:14:34.919507 14940 net.cpp:129] Top shape: 1 3 17 7 (357)
I0716 00:14:34.919520 14940 net.cpp:137] Memory required for data: 682281632
I0716 00:14:34.919530 14940 layer_factory.hpp:77] Creating layer upscore2-new
I0716 00:14:34.919553 14940 net.cpp:84] Creating Layer upscore2-new
I0716 00:14:34.919559 14940 net.cpp:406] upscore2-new <- score_fr-new
I0716 00:14:34.919565 14940 net.cpp:380] upscore2-new -> upscore2-new
I0716 00:14:34.919845 14940 net.cpp:122] Setting up upscore2-new
I0716 00:14:34.919858 14940 net.cpp:129] Top shape: 1 3 36 16 (1728)
I0716 00:14:34.919862 14940 net.cpp:137] Memory required for data: 682288544
I0716 00:14:34.919876 14940 layer_factory.hpp:77] Creating layer upscore2-new_upscore2-new_0_split
I0716 00:14:34.919890 14940 net.cpp:84] Creating Layer upscore2-new_upscore2-new_0_split
I0716 00:14:34.919895 14940 net.cpp:406] upscore2-new_upscore2-new_0_split <- upscore2-new
I0716 00:14:34.919903 14940 net.cpp:380] upscore2-new_upscore2-new_0_split -> upscore2-new_upscore2-new_0_split_0
I0716 00:14:34.919910 14940 net.cpp:380] upscore2-new_upscore2-new_0_split -> upscore2-new_upscore2-new_0_split_1
I0716 00:14:34.919956 14940 net.cpp:122] Setting up upscore2-new_upscore2-new_0_split
I0716 00:14:34.919980 14940 net.cpp:129] Top shape: 1 3 36 16 (1728)
I0716 00:14:34.919984 14940 net.cpp:129] Top shape: 1 3 36 16 (1728)
I0716 00:14:34.919988 14940 net.cpp:137] Memory required for data: 682302368
I0716 00:14:34.919992 14940 layer_factory.hpp:77] Creating layer score_pool4-new
I0716 00:14:34.920006 14940 net.cpp:84] Creating Layer score_pool4-new
I0716 00:14:34.920009 14940 net.cpp:406] score_pool4-new <- pool4_pool4_0_split_1
I0716 00:14:34.920017 14940 net.cpp:380] score_pool4-new -> score_pool4-new
I0716 00:14:34.923882 14940 net.cpp:122] Setting up score_pool4-new
I0716 00:14:34.923944 14940 net.cpp:129] Top shape: 1 3 45 25 (3375)
I0716 00:14:34.923957 14940 net.cpp:137] Memory required for data: 682315868
I0716 00:14:34.923988 14940 layer_factory.hpp:77] Creating layer score_pool4c
I0716 00:14:34.924069 14940 net.cpp:84] Creating Layer score_pool4c
I0716 00:14:34.924084 14940 net.cpp:406] score_pool4c <- score_pool4-new
I0716 00:14:34.924103 14940 net.cpp:406] score_pool4c <- upscore2-new_upscore2-new_0_split_0
I0716 00:14:34.924123 14940 net.cpp:380] score_pool4c -> score_pool4c
I0716 00:14:34.924201 14940 net.cpp:122] Setting up score_pool4c
I0716 00:14:34.924216 14940 net.cpp:129] Top shape: 1 3 36 16 (1728)
I0716 00:14:34.924233 14940 net.cpp:137] Memory required for data: 682322780
I0716 00:14:34.924240 14940 layer_factory.hpp:77] Creating layer fuse_pool4
I0716 00:14:34.924262 14940 net.cpp:84] Creating Layer fuse_pool4
I0716 00:14:34.924271 14940 net.cpp:406] fuse_pool4 <- upscore2-new_upscore2-new_0_split_1
I0716 00:14:34.924281 14940 net.cpp:406] fuse_pool4 <- score_pool4c
I0716 00:14:34.924296 14940 net.cpp:380] fuse_pool4 -> fuse_pool4
I0716 00:14:34.924360 14940 net.cpp:122] Setting up fuse_pool4
I0716 00:14:34.924374 14940 net.cpp:129] Top shape: 1 3 36 16 (1728)
I0716 00:14:34.924382 14940 net.cpp:137] Memory required for data: 682329692
I0716 00:14:34.924404 14940 layer_factory.hpp:77] Creating layer upscore_pool4-new
I0716 00:14:34.924429 14940 net.cpp:84] Creating Layer upscore_pool4-new
I0716 00:14:34.924439 14940 net.cpp:406] upscore_pool4-new <- fuse_pool4
I0716 00:14:34.924450 14940 net.cpp:380] upscore_pool4-new -> upscore_pool4-new
I0716 00:14:34.924867 14940 net.cpp:122] Setting up upscore_pool4-new
I0716 00:14:34.924883 14940 net.cpp:129] Top shape: 1 3 74 34 (7548)
I0716 00:14:34.924890 14940 net.cpp:137] Memory required for data: 682359884
I0716 00:14:34.924901 14940 layer_factory.hpp:77] Creating layer upscore_pool4-new_upscore_pool4-new_0_split
I0716 00:14:34.924913 14940 net.cpp:84] Creating Layer upscore_pool4-new_upscore_pool4-new_0_split
I0716 00:14:34.924924 14940 net.cpp:406] upscore_pool4-new_upscore_pool4-new_0_split <- upscore_pool4-new
I0716 00:14:34.924938 14940 net.cpp:380] upscore_pool4-new_upscore_pool4-new_0_split -> upscore_pool4-new_upscore_pool4-new_0_split_0
I0716 00:14:34.924953 14940 net.cpp:380] upscore_pool4-new_upscore_pool4-new_0_split -> upscore_pool4-new_upscore_pool4-new_0_split_1
I0716 00:14:34.925025 14940 net.cpp:122] Setting up upscore_pool4-new_upscore_pool4-new_0_split
I0716 00:14:34.925040 14940 net.cpp:129] Top shape: 1 3 74 34 (7548)
I0716 00:14:34.925050 14940 net.cpp:129] Top shape: 1 3 74 34 (7548)
I0716 00:14:34.925060 14940 net.cpp:137] Memory required for data: 682420268
I0716 00:14:34.925066 14940 layer_factory.hpp:77] Creating layer score_pool3-new
I0716 00:14:34.925101 14940 net.cpp:84] Creating Layer score_pool3-new
I0716 00:14:34.925112 14940 net.cpp:406] score_pool3-new <- pool3_pool3_0_split_1
I0716 00:14:34.925134 14940 net.cpp:380] score_pool3-new -> score_pool3-new
I0716 00:14:34.928052 14940 net.cpp:122] Setting up score_pool3-new
I0716 00:14:34.928081 14940 net.cpp:129] Top shape: 1 3 89 50 (13350)
I0716 00:14:34.928098 14940 net.cpp:137] Memory required for data: 682473668
I0716 00:14:34.928113 14940 layer_factory.hpp:77] Creating layer score_pool3c
I0716 00:14:34.928129 14940 net.cpp:84] Creating Layer score_pool3c
I0716 00:14:34.928140 14940 net.cpp:406] score_pool3c <- score_pool3-new
I0716 00:14:34.928151 14940 net.cpp:406] score_pool3c <- upscore_pool4-new_upscore_pool4-new_0_split_0
I0716 00:14:34.928165 14940 net.cpp:380] score_pool3c -> score_pool3c
I0716 00:14:34.928234 14940 net.cpp:122] Setting up score_pool3c
I0716 00:14:34.928248 14940 net.cpp:129] Top shape: 1 3 74 34 (7548)
I0716 00:14:34.928258 14940 net.cpp:137] Memory required for data: 682503860
I0716 00:14:34.928275 14940 layer_factory.hpp:77] Creating layer fuse_pool3
I0716 00:14:34.928293 14940 net.cpp:84] Creating Layer fuse_pool3
I0716 00:14:34.928304 14940 net.cpp:406] fuse_pool3 <- upscore_pool4-new_upscore_pool4-new_0_split_1
I0716 00:14:34.928313 14940 net.cpp:406] fuse_pool3 <- score_pool3c
I0716 00:14:34.928328 14940 net.cpp:380] fuse_pool3 -> fuse_pool3
I0716 00:14:34.928380 14940 net.cpp:122] Setting up fuse_pool3
I0716 00:14:34.928393 14940 net.cpp:129] Top shape: 1 3 74 34 (7548)
I0716 00:14:34.928402 14940 net.cpp:137] Memory required for data: 682534052
I0716 00:14:34.928409 14940 layer_factory.hpp:77] Creating layer upscore8-new
I0716 00:14:34.928424 14940 net.cpp:84] Creating Layer upscore8-new
I0716 00:14:34.928434 14940 net.cpp:406] upscore8-new <- fuse_pool3
I0716 00:14:34.928445 14940 net.cpp:380] upscore8-new -> upscore8-new
I0716 00:14:34.928874 14940 net.cpp:122] Setting up upscore8-new
I0716 00:14:34.928891 14940 net.cpp:129] Top shape: 1 3 600 280 (504000)
I0716 00:14:34.928900 14940 net.cpp:137] Memory required for data: 684550052
I0716 00:14:34.928910 14940 layer_factory.hpp:77] Creating layer upscore8_cropped
I0716 00:14:34.928956 14940 net.cpp:84] Creating Layer upscore8_cropped
I0716 00:14:34.928966 14940 net.cpp:406] upscore8_cropped <- upscore8-new
I0716 00:14:34.928999 14940 net.cpp:406] upscore8_cropped <- data_data_0_split_1
I0716 00:14:34.929013 14940 net.cpp:380] upscore8_cropped -> upscore8_cropped
I0716 00:14:34.929064 14940 net.cpp:122] Setting up upscore8_cropped
I0716 00:14:34.929078 14940 net.cpp:129] Top shape: 1 3 512 199 (305664)
I0716 00:14:34.929087 14940 net.cpp:137] Memory required for data: 685772708
I0716 00:14:34.929093 14940 layer_factory.hpp:77] Creating layer upscore8_cropped_upscore8_cropped_0_split
I0716 00:14:34.929114 14940 net.cpp:84] Creating Layer upscore8_cropped_upscore8_cropped_0_split
I0716 00:14:34.929126 14940 net.cpp:406] upscore8_cropped_upscore8_cropped_0_split <- upscore8_cropped
I0716 00:14:34.929139 14940 net.cpp:380] upscore8_cropped_upscore8_cropped_0_split -> upscore8_cropped_upscore8_cropped_0_split_0
I0716 00:14:34.929155 14940 net.cpp:380] upscore8_cropped_upscore8_cropped_0_split -> upscore8_cropped_upscore8_cropped_0_split_1
I0716 00:14:34.929229 14940 net.cpp:122] Setting up upscore8_cropped_upscore8_cropped_0_split
I0716 00:14:34.929242 14940 net.cpp:129] Top shape: 1 3 512 199 (305664)
I0716 00:14:34.929255 14940 net.cpp:129] Top shape: 1 3 512 199 (305664)
I0716 00:14:34.929263 14940 net.cpp:137] Memory required for data: 688218020
I0716 00:14:34.929270 14940 layer_factory.hpp:77] Creating layer prob
I0716 00:14:34.929285 14940 net.cpp:84] Creating Layer prob
I0716 00:14:34.929296 14940 net.cpp:406] prob <- upscore8_cropped_upscore8_cropped_0_split_0
I0716 00:14:34.929318 14940 net.cpp:380] prob -> prob
I0716 00:14:34.929752 14940 net.cpp:122] Setting up prob
I0716 00:14:34.929772 14940 net.cpp:129] Top shape: 1 3 512 199 (305664)
I0716 00:14:34.929781 14940 net.cpp:137] Memory required for data: 689440676
I0716 00:14:34.929788 14940 layer_factory.hpp:77] Creating layer prob_prob_0_split
I0716 00:14:34.929801 14940 net.cpp:84] Creating Layer prob_prob_0_split
I0716 00:14:34.929812 14940 net.cpp:406] prob_prob_0_split <- prob
I0716 00:14:34.929823 14940 net.cpp:380] prob_prob_0_split -> prob_prob_0_split_0
I0716 00:14:34.929838 14940 net.cpp:380] prob_prob_0_split -> prob_prob_0_split_1
I0716 00:14:34.929916 14940 net.cpp:122] Setting up prob_prob_0_split
I0716 00:14:34.929930 14940 net.cpp:129] Top shape: 1 3 512 199 (305664)
I0716 00:14:34.929942 14940 net.cpp:129] Top shape: 1 3 512 199 (305664)
I0716 00:14:34.929951 14940 net.cpp:137] Memory required for data: 691885988
I0716 00:14:34.929957 14940 layer_factory.hpp:77] Creating layer saliency1
I0716 00:14:34.929988 14940 net.cpp:84] Creating Layer saliency1
I0716 00:14:34.930001 14940 net.cpp:406] saliency1 <- prob_prob_0_split_0
I0716 00:14:34.930018 14940 net.cpp:380] saliency1 -> saliency1
I0716 00:14:34.935740 14940 net.cpp:122] Setting up saliency1
I0716 00:14:34.935773 14940 net.cpp:129] Top shape: 1 3 512 199 (305664)
I0716 00:14:34.935801 14940 net.cpp:137] Memory required for data: 693108644
I0716 00:14:34.935817 14940 layer_factory.hpp:77] Creating layer relu_saliency1
I0716 00:14:34.935850 14940 net.cpp:84] Creating Layer relu_saliency1
I0716 00:14:34.935863 14940 net.cpp:406] relu_saliency1 <- saliency1
I0716 00:14:34.935874 14940 net.cpp:367] relu_saliency1 -> saliency1 (in-place)
I0716 00:14:34.936321 14940 net.cpp:122] Setting up relu_saliency1
I0716 00:14:34.936339 14940 net.cpp:129] Top shape: 1 3 512 199 (305664)
I0716 00:14:34.936363 14940 net.cpp:137] Memory required for data: 694331300
I0716 00:14:34.936370 14940 layer_factory.hpp:77] Creating layer saliency
I0716 00:14:34.936388 14940 net.cpp:84] Creating Layer saliency
I0716 00:14:34.936399 14940 net.cpp:406] saliency <- saliency1
I0716 00:14:34.936419 14940 net.cpp:380] saliency -> saliency
I0716 00:14:34.940008 14940 net.cpp:122] Setting up saliency
I0716 00:14:34.940028 14940 net.cpp:129] Top shape: 1 3 512 199 (305664)
I0716 00:14:34.940054 14940 net.cpp:137] Memory required for data: 695553956
I0716 00:14:34.940063 14940 layer_factory.hpp:77] Creating layer saliency_data
I0716 00:14:34.940081 14940 net.cpp:84] Creating Layer saliency_data
I0716 00:14:34.940088 14940 net.cpp:406] saliency_data <- data_data_0_split_2
I0716 00:14:34.940095 14940 net.cpp:406] saliency_data <- saliency
I0716 00:14:34.940102 14940 net.cpp:380] saliency_data -> saliency_data
I0716 00:14:34.940145 14940 net.cpp:122] Setting up saliency_data
I0716 00:14:34.940155 14940 net.cpp:129] Top shape: 1 3 512 199 (305664)
I0716 00:14:34.940158 14940 net.cpp:137] Memory required for data: 696776612
I0716 00:14:34.940162 14940 layer_factory.hpp:77] Creating layer crop
I0716 00:14:34.940817 14940 net.cpp:84] Creating Layer crop
I0716 00:14:34.940830 14940 net.cpp:406] crop <- prob_prob_0_split_1
I0716 00:14:34.940837 14940 net.cpp:406] crop <- saliency_data
I0716 00:14:34.940845 14940 net.cpp:406] crop <- crop_margin
I0716 00:14:34.940850 14940 net.cpp:406] crop <- crop_prob
I0716 00:14:34.940855 14940 net.cpp:406] crop <- crop_sample_batch
I0716 00:14:34.940860 14940 net.cpp:406] crop <- label_data_1_split_0
I0716 00:14:34.940867 14940 net.cpp:380] crop -> data-R
I0716 00:14:34.940878 14940 net.cpp:380] crop -> crop_info
I0716 00:14:34.960232 14940 net.cpp:122] Setting up crop
I0716 00:14:34.960294 14940 net.cpp:129] Top shape: 1 3 512 199 (305664)
I0716 00:14:34.960305 14940 net.cpp:129] Top shape: 1 2 4 (8)
I0716 00:14:34.960314 14940 net.cpp:137] Memory required for data: 697999300
I0716 00:14:34.960324 14940 layer_factory.hpp:77] Creating layer data-R_crop_0_split
I0716 00:14:34.960343 14940 net.cpp:84] Creating Layer data-R_crop_0_split
I0716 00:14:34.960353 14940 net.cpp:406] data-R_crop_0_split <- data-R
I0716 00:14:34.960367 14940 net.cpp:380] data-R_crop_0_split -> data-R_crop_0_split_0
I0716 00:14:34.960386 14940 net.cpp:380] data-R_crop_0_split -> data-R_crop_0_split_1
I0716 00:14:34.960479 14940 net.cpp:122] Setting up data-R_crop_0_split
I0716 00:14:34.960495 14940 net.cpp:129] Top shape: 1 3 512 199 (305664)
I0716 00:14:34.960505 14940 net.cpp:129] Top shape: 1 3 512 199 (305664)
I0716 00:14:34.960512 14940 net.cpp:137] Memory required for data: 700444612
I0716 00:14:34.960520 14940 layer_factory.hpp:77] Creating layer conv1_1-R
I0716 00:14:34.960569 14940 net.cpp:84] Creating Layer conv1_1-R
I0716 00:14:34.960582 14940 net.cpp:406] conv1_1-R <- data-R_crop_0_split_0
I0716 00:14:34.960594 14940 net.cpp:380] conv1_1-R -> conv1_1-R
I0716 00:14:34.967075 14940 net.cpp:122] Setting up conv1_1-R
I0716 00:14:34.967123 14940 net.cpp:129] Top shape: 1 64 710 397 (18039680)
I0716 00:14:34.967131 14940 net.cpp:137] Memory required for data: 772603332
I0716 00:14:34.967150 14940 layer_factory.hpp:77] Creating layer relu1_1-R
I0716 00:14:34.967165 14940 net.cpp:84] Creating Layer relu1_1-R
I0716 00:14:34.967175 14940 net.cpp:406] relu1_1-R <- conv1_1-R
I0716 00:14:34.967186 14940 net.cpp:367] relu1_1-R -> conv1_1-R (in-place)
I0716 00:14:34.967612 14940 net.cpp:122] Setting up relu1_1-R
I0716 00:14:34.967645 14940 net.cpp:129] Top shape: 1 64 710 397 (18039680)
I0716 00:14:34.967653 14940 net.cpp:137] Memory required for data: 844762052
I0716 00:14:34.967660 14940 layer_factory.hpp:77] Creating layer conv1_2-R
I0716 00:14:34.967684 14940 net.cpp:84] Creating Layer conv1_2-R
I0716 00:14:34.967692 14940 net.cpp:406] conv1_2-R <- conv1_1-R
I0716 00:14:34.967706 14940 net.cpp:380] conv1_2-R -> conv1_2-R
I0716 00:14:34.976552 14940 net.cpp:122] Setting up conv1_2-R
I0716 00:14:34.976588 14940 net.cpp:129] Top shape: 1 64 710 397 (18039680)
I0716 00:14:34.976593 14940 net.cpp:137] Memory required for data: 916920772
I0716 00:14:34.976603 14940 layer_factory.hpp:77] Creating layer relu1_2-R
I0716 00:14:34.976613 14940 net.cpp:84] Creating Layer relu1_2-R
I0716 00:14:34.976619 14940 net.cpp:406] relu1_2-R <- conv1_2-R
I0716 00:14:34.976625 14940 net.cpp:367] relu1_2-R -> conv1_2-R (in-place)
I0716 00:14:34.977439 14940 net.cpp:122] Setting up relu1_2-R
I0716 00:14:34.977469 14940 net.cpp:129] Top shape: 1 64 710 397 (18039680)
I0716 00:14:34.977474 14940 net.cpp:137] Memory required for data: 989079492
I0716 00:14:34.977479 14940 layer_factory.hpp:77] Creating layer pool1-R
I0716 00:14:34.977499 14940 net.cpp:84] Creating Layer pool1-R
I0716 00:14:34.977504 14940 net.cpp:406] pool1-R <- conv1_2-R
I0716 00:14:34.977514 14940 net.cpp:380] pool1-R -> pool1-R
I0716 00:14:34.977576 14940 net.cpp:122] Setting up pool1-R
I0716 00:14:34.977583 14940 net.cpp:129] Top shape: 1 64 355 199 (4521280)
I0716 00:14:34.977587 14940 net.cpp:137] Memory required for data: 1007164612
I0716 00:14:34.977591 14940 layer_factory.hpp:77] Creating layer conv2_1-R
I0716 00:14:34.977602 14940 net.cpp:84] Creating Layer conv2_1-R
I0716 00:14:34.977607 14940 net.cpp:406] conv2_1-R <- pool1-R
I0716 00:14:34.977614 14940 net.cpp:380] conv2_1-R -> conv2_1-R
I0716 00:14:34.980384 14940 net.cpp:122] Setting up conv2_1-R
I0716 00:14:34.980417 14940 net.cpp:129] Top shape: 1 128 355 199 (9042560)
I0716 00:14:34.980422 14940 net.cpp:137] Memory required for data: 1043334852
I0716 00:14:34.980432 14940 layer_factory.hpp:77] Creating layer relu2_1-R
I0716 00:14:34.980440 14940 net.cpp:84] Creating Layer relu2_1-R
I0716 00:14:34.980445 14940 net.cpp:406] relu2_1-R <- conv2_1-R
I0716 00:14:34.980453 14940 net.cpp:367] relu2_1-R -> conv2_1-R (in-place)
I0716 00:14:34.981248 14940 net.cpp:122] Setting up relu2_1-R
I0716 00:14:34.981266 14940 net.cpp:129] Top shape: 1 128 355 199 (9042560)
I0716 00:14:34.981281 14940 net.cpp:137] Memory required for data: 1079505092
I0716 00:14:34.981287 14940 layer_factory.hpp:77] Creating layer conv2_2-R
I0716 00:14:34.981303 14940 net.cpp:84] Creating Layer conv2_2-R
I0716 00:14:34.981308 14940 net.cpp:406] conv2_2-R <- conv2_1-R
I0716 00:14:34.981317 14940 net.cpp:380] conv2_2-R -> conv2_2-R
I0716 00:14:34.983875 14940 net.cpp:122] Setting up conv2_2-R
I0716 00:14:34.983913 14940 net.cpp:129] Top shape: 1 128 355 199 (9042560)
I0716 00:14:34.983922 14940 net.cpp:137] Memory required for data: 1115675332
I0716 00:14:34.983937 14940 layer_factory.hpp:77] Creating layer relu2_2-R
I0716 00:14:34.983948 14940 net.cpp:84] Creating Layer relu2_2-R
I0716 00:14:34.983956 14940 net.cpp:406] relu2_2-R <- conv2_2-R
I0716 00:14:34.983966 14940 net.cpp:367] relu2_2-R -> conv2_2-R (in-place)
I0716 00:14:34.984338 14940 net.cpp:122] Setting up relu2_2-R
I0716 00:14:34.984357 14940 net.cpp:129] Top shape: 1 128 355 199 (9042560)
I0716 00:14:34.984376 14940 net.cpp:137] Memory required for data: 1151845572
I0716 00:14:34.984383 14940 layer_factory.hpp:77] Creating layer pool2-R
I0716 00:14:34.984402 14940 net.cpp:84] Creating Layer pool2-R
I0716 00:14:34.984410 14940 net.cpp:406] pool2-R <- conv2_2-R
I0716 00:14:34.984422 14940 net.cpp:380] pool2-R -> pool2-R
I0716 00:14:34.984510 14940 net.cpp:122] Setting up pool2-R
I0716 00:14:34.984526 14940 net.cpp:129] Top shape: 1 128 178 100 (2278400)
I0716 00:14:34.984532 14940 net.cpp:137] Memory required for data: 1160959172
I0716 00:14:34.984539 14940 layer_factory.hpp:77] Creating layer conv3_1-R
I0716 00:14:34.984553 14940 net.cpp:84] Creating Layer conv3_1-R
I0716 00:14:34.984566 14940 net.cpp:406] conv3_1-R <- pool2-R
I0716 00:14:34.984577 14940 net.cpp:380] conv3_1-R -> conv3_1-R
I0716 00:14:34.992635 14940 net.cpp:122] Setting up conv3_1-R
I0716 00:14:34.992678 14940 net.cpp:129] Top shape: 1 256 178 100 (4556800)
I0716 00:14:34.992686 14940 net.cpp:137] Memory required for data: 1179186372
I0716 00:14:34.992702 14940 layer_factory.hpp:77] Creating layer relu3_1-R
I0716 00:14:34.992718 14940 net.cpp:84] Creating Layer relu3_1-R
I0716 00:14:34.992727 14940 net.cpp:406] relu3_1-R <- conv3_1-R
I0716 00:14:34.992738 14940 net.cpp:367] relu3_1-R -> conv3_1-R (in-place)
I0716 00:14:34.993108 14940 net.cpp:122] Setting up relu3_1-R
I0716 00:14:34.993125 14940 net.cpp:129] Top shape: 1 256 178 100 (4556800)
I0716 00:14:34.993142 14940 net.cpp:137] Memory required for data: 1197413572
I0716 00:14:34.993149 14940 layer_factory.hpp:77] Creating layer conv3_2-R
I0716 00:14:34.993167 14940 net.cpp:84] Creating Layer conv3_2-R
I0716 00:14:34.993175 14940 net.cpp:406] conv3_2-R <- conv3_1-R
I0716 00:14:34.993187 14940 net.cpp:380] conv3_2-R -> conv3_2-R
I0716 00:14:35.000358 14940 net.cpp:122] Setting up conv3_2-R
I0716 00:14:35.000402 14940 net.cpp:129] Top shape: 1 256 178 100 (4556800)
I0716 00:14:35.000411 14940 net.cpp:137] Memory required for data: 1215640772
I0716 00:14:35.000429 14940 layer_factory.hpp:77] Creating layer relu3_2-R
I0716 00:14:35.000442 14940 net.cpp:84] Creating Layer relu3_2-R
I0716 00:14:35.000452 14940 net.cpp:406] relu3_2-R <- conv3_2-R
I0716 00:14:35.000464 14940 net.cpp:367] relu3_2-R -> conv3_2-R (in-place)
I0716 00:14:35.000793 14940 net.cpp:122] Setting up relu3_2-R
I0716 00:14:35.000808 14940 net.cpp:129] Top shape: 1 256 178 100 (4556800)
I0716 00:14:35.000813 14940 net.cpp:137] Memory required for data: 1233867972
I0716 00:14:35.000819 14940 layer_factory.hpp:77] Creating layer conv3_3-R
I0716 00:14:35.000835 14940 net.cpp:84] Creating Layer conv3_3-R
I0716 00:14:35.000840 14940 net.cpp:406] conv3_3-R <- conv3_2-R
I0716 00:14:35.000850 14940 net.cpp:380] conv3_3-R -> conv3_3-R
I0716 00:14:35.005753 14940 net.cpp:122] Setting up conv3_3-R
I0716 00:14:35.005786 14940 net.cpp:129] Top shape: 1 256 178 100 (4556800)
I0716 00:14:35.005792 14940 net.cpp:137] Memory required for data: 1252095172
I0716 00:14:35.005803 14940 layer_factory.hpp:77] Creating layer relu3_3-R
I0716 00:14:35.005816 14940 net.cpp:84] Creating Layer relu3_3-R
I0716 00:14:35.005823 14940 net.cpp:406] relu3_3-R <- conv3_3-R
I0716 00:14:35.005831 14940 net.cpp:367] relu3_3-R -> conv3_3-R (in-place)
I0716 00:14:35.006098 14940 net.cpp:122] Setting up relu3_3-R
I0716 00:14:35.006112 14940 net.cpp:129] Top shape: 1 256 178 100 (4556800)
I0716 00:14:35.006117 14940 net.cpp:137] Memory required for data: 1270322372
I0716 00:14:35.006124 14940 layer_factory.hpp:77] Creating layer pool3-R
I0716 00:14:35.006132 14940 net.cpp:84] Creating Layer pool3-R
I0716 00:14:35.006137 14940 net.cpp:406] pool3-R <- conv3_3-R
I0716 00:14:35.006146 14940 net.cpp:380] pool3-R -> pool3-R
I0716 00:14:35.006214 14940 net.cpp:122] Setting up pool3-R
I0716 00:14:35.006227 14940 net.cpp:129] Top shape: 1 256 89 50 (1139200)
I0716 00:14:35.006232 14940 net.cpp:137] Memory required for data: 1274879172
I0716 00:14:35.006235 14940 layer_factory.hpp:77] Creating layer pool3-R_pool3-R_0_split
I0716 00:14:35.006244 14940 net.cpp:84] Creating Layer pool3-R_pool3-R_0_split
I0716 00:14:35.006249 14940 net.cpp:406] pool3-R_pool3-R_0_split <- pool3-R
I0716 00:14:35.006258 14940 net.cpp:380] pool3-R_pool3-R_0_split -> pool3-R_pool3-R_0_split_0
I0716 00:14:35.006268 14940 net.cpp:380] pool3-R_pool3-R_0_split -> pool3-R_pool3-R_0_split_1
I0716 00:14:35.006319 14940 net.cpp:122] Setting up pool3-R_pool3-R_0_split
I0716 00:14:35.006330 14940 net.cpp:129] Top shape: 1 256 89 50 (1139200)
I0716 00:14:35.006337 14940 net.cpp:129] Top shape: 1 256 89 50 (1139200)
I0716 00:14:35.006341 14940 net.cpp:137] Memory required for data: 1283992772
I0716 00:14:35.006346 14940 layer_factory.hpp:77] Creating layer conv4_1-R
I0716 00:14:35.006357 14940 net.cpp:84] Creating Layer conv4_1-R
I0716 00:14:35.006362 14940 net.cpp:406] conv4_1-R <- pool3-R_pool3-R_0_split_0
I0716 00:14:35.006371 14940 net.cpp:380] conv4_1-R -> conv4_1-R
I0716 00:14:35.015923 14940 net.cpp:122] Setting up conv4_1-R
I0716 00:14:35.015969 14940 net.cpp:129] Top shape: 1 512 89 50 (2278400)
I0716 00:14:35.015977 14940 net.cpp:137] Memory required for data: 1293106372
I0716 00:14:35.015993 14940 layer_factory.hpp:77] Creating layer relu4_1-R
I0716 00:14:35.016019 14940 net.cpp:84] Creating Layer relu4_1-R
I0716 00:14:35.016028 14940 net.cpp:406] relu4_1-R <- conv4_1-R
I0716 00:14:35.016053 14940 net.cpp:367] relu4_1-R -> conv4_1-R (in-place)
I0716 00:14:35.017050 14940 net.cpp:122] Setting up relu4_1-R
I0716 00:14:35.017069 14940 net.cpp:129] Top shape: 1 512 89 50 (2278400)
I0716 00:14:35.017084 14940 net.cpp:137] Memory required for data: 1302219972
I0716 00:14:35.017091 14940 layer_factory.hpp:77] Creating layer conv4_2-R
I0716 00:14:35.017102 14940 net.cpp:84] Creating Layer conv4_2-R
I0716 00:14:35.017108 14940 net.cpp:406] conv4_2-R <- conv4_1-R
I0716 00:14:35.017117 14940 net.cpp:380] conv4_2-R -> conv4_2-R
I0716 00:14:35.026816 14940 net.cpp:122] Setting up conv4_2-R
I0716 00:14:35.026842 14940 net.cpp:129] Top shape: 1 512 89 50 (2278400)
I0716 00:14:35.026849 14940 net.cpp:137] Memory required for data: 1311333572
I0716 00:14:35.026861 14940 layer_factory.hpp:77] Creating layer relu4_2-R
I0716 00:14:35.026872 14940 net.cpp:84] Creating Layer relu4_2-R
I0716 00:14:35.026880 14940 net.cpp:406] relu4_2-R <- conv4_2-R
I0716 00:14:35.026888 14940 net.cpp:367] relu4_2-R -> conv4_2-R (in-place)
I0716 00:14:35.027945 14940 net.cpp:122] Setting up relu4_2-R
I0716 00:14:35.027967 14940 net.cpp:129] Top shape: 1 512 89 50 (2278400)
I0716 00:14:35.027981 14940 net.cpp:137] Memory required for data: 1320447172
I0716 00:14:35.027987 14940 layer_factory.hpp:77] Creating layer conv4_3-R
I0716 00:14:35.028005 14940 net.cpp:84] Creating Layer conv4_3-R
I0716 00:14:35.028012 14940 net.cpp:406] conv4_3-R <- conv4_2-R
I0716 00:14:35.028023 14940 net.cpp:380] conv4_3-R -> conv4_3-R
I0716 00:14:35.037380 14940 net.cpp:122] Setting up conv4_3-R
I0716 00:14:35.037401 14940 net.cpp:129] Top shape: 1 512 89 50 (2278400)
I0716 00:14:35.037413 14940 net.cpp:137] Memory required for data: 1329560772
I0716 00:14:35.037426 14940 layer_factory.hpp:77] Creating layer relu4_3-R
I0716 00:14:35.037436 14940 net.cpp:84] Creating Layer relu4_3-R
I0716 00:14:35.037441 14940 net.cpp:406] relu4_3-R <- conv4_3-R
I0716 00:14:35.037448 14940 net.cpp:367] relu4_3-R -> conv4_3-R (in-place)
I0716 00:14:35.037669 14940 net.cpp:122] Setting up relu4_3-R
I0716 00:14:35.037683 14940 net.cpp:129] Top shape: 1 512 89 50 (2278400)
I0716 00:14:35.037686 14940 net.cpp:137] Memory required for data: 1338674372
I0716 00:14:35.037691 14940 layer_factory.hpp:77] Creating layer pool4-R
I0716 00:14:35.037701 14940 net.cpp:84] Creating Layer pool4-R
I0716 00:14:35.037706 14940 net.cpp:406] pool4-R <- conv4_3-R
I0716 00:14:35.037715 14940 net.cpp:380] pool4-R -> pool4-R
I0716 00:14:35.037775 14940 net.cpp:122] Setting up pool4-R
I0716 00:14:35.037784 14940 net.cpp:129] Top shape: 1 512 45 25 (576000)
I0716 00:14:35.037789 14940 net.cpp:137] Memory required for data: 1340978372
I0716 00:14:35.037793 14940 layer_factory.hpp:77] Creating layer pool4-R_pool4-R_0_split
I0716 00:14:35.037801 14940 net.cpp:84] Creating Layer pool4-R_pool4-R_0_split
I0716 00:14:35.037806 14940 net.cpp:406] pool4-R_pool4-R_0_split <- pool4-R
I0716 00:14:35.037813 14940 net.cpp:380] pool4-R_pool4-R_0_split -> pool4-R_pool4-R_0_split_0
I0716 00:14:35.037822 14940 net.cpp:380] pool4-R_pool4-R_0_split -> pool4-R_pool4-R_0_split_1
I0716 00:14:35.037866 14940 net.cpp:122] Setting up pool4-R_pool4-R_0_split
I0716 00:14:35.037876 14940 net.cpp:129] Top shape: 1 512 45 25 (576000)
I0716 00:14:35.037881 14940 net.cpp:129] Top shape: 1 512 45 25 (576000)
I0716 00:14:35.037886 14940 net.cpp:137] Memory required for data: 1345586372
I0716 00:14:35.037890 14940 layer_factory.hpp:77] Creating layer conv5_1-R
I0716 00:14:35.037900 14940 net.cpp:84] Creating Layer conv5_1-R
I0716 00:14:35.037905 14940 net.cpp:406] conv5_1-R <- pool4-R_pool4-R_0_split_0
I0716 00:14:35.037914 14940 net.cpp:380] conv5_1-R -> conv5_1-R
I0716 00:14:35.046692 14940 net.cpp:122] Setting up conv5_1-R
I0716 00:14:35.046730 14940 net.cpp:129] Top shape: 1 512 45 25 (576000)
I0716 00:14:35.046736 14940 net.cpp:137] Memory required for data: 1347890372
I0716 00:14:35.046767 14940 layer_factory.hpp:77] Creating layer relu5_1-R
I0716 00:14:35.046790 14940 net.cpp:84] Creating Layer relu5_1-R
I0716 00:14:35.046797 14940 net.cpp:406] relu5_1-R <- conv5_1-R
I0716 00:14:35.046808 14940 net.cpp:367] relu5_1-R -> conv5_1-R (in-place)
I0716 00:14:35.047044 14940 net.cpp:122] Setting up relu5_1-R
I0716 00:14:35.047056 14940 net.cpp:129] Top shape: 1 512 45 25 (576000)
I0716 00:14:35.047061 14940 net.cpp:137] Memory required for data: 1350194372
I0716 00:14:35.047068 14940 layer_factory.hpp:77] Creating layer conv5_2-R
I0716 00:14:35.047086 14940 net.cpp:84] Creating Layer conv5_2-R
I0716 00:14:35.047091 14940 net.cpp:406] conv5_2-R <- conv5_1-R
I0716 00:14:35.047099 14940 net.cpp:380] conv5_2-R -> conv5_2-R
I0716 00:14:35.057269 14940 net.cpp:122] Setting up conv5_2-R
I0716 00:14:35.057312 14940 net.cpp:129] Top shape: 1 512 45 25 (576000)
I0716 00:14:35.057317 14940 net.cpp:137] Memory required for data: 1352498372
I0716 00:14:35.057328 14940 layer_factory.hpp:77] Creating layer relu5_2-R
I0716 00:14:35.057338 14940 net.cpp:84] Creating Layer relu5_2-R
I0716 00:14:35.057344 14940 net.cpp:406] relu5_2-R <- conv5_2-R
I0716 00:14:35.057358 14940 net.cpp:367] relu5_2-R -> conv5_2-R (in-place)
I0716 00:14:35.057621 14940 net.cpp:122] Setting up relu5_2-R
I0716 00:14:35.057633 14940 net.cpp:129] Top shape: 1 512 45 25 (576000)
I0716 00:14:35.057638 14940 net.cpp:137] Memory required for data: 1354802372
I0716 00:14:35.057642 14940 layer_factory.hpp:77] Creating layer conv5_3-R
I0716 00:14:35.057658 14940 net.cpp:84] Creating Layer conv5_3-R
I0716 00:14:35.057663 14940 net.cpp:406] conv5_3-R <- conv5_2-R
I0716 00:14:35.057672 14940 net.cpp:380] conv5_3-R -> conv5_3-R
I0716 00:14:35.067013 14940 net.cpp:122] Setting up conv5_3-R
I0716 00:14:35.067045 14940 net.cpp:129] Top shape: 1 512 45 25 (576000)
I0716 00:14:35.067050 14940 net.cpp:137] Memory required for data: 1357106372
I0716 00:14:35.067065 14940 layer_factory.hpp:77] Creating layer relu5_3-R
I0716 00:14:35.067087 14940 net.cpp:84] Creating Layer relu5_3-R
I0716 00:14:35.067095 14940 net.cpp:406] relu5_3-R <- conv5_3-R
I0716 00:14:35.067103 14940 net.cpp:367] relu5_3-R -> conv5_3-R (in-place)
I0716 00:14:35.067384 14940 net.cpp:122] Setting up relu5_3-R
I0716 00:14:35.067399 14940 net.cpp:129] Top shape: 1 512 45 25 (576000)
I0716 00:14:35.067404 14940 net.cpp:137] Memory required for data: 1359410372
I0716 00:14:35.067409 14940 layer_factory.hpp:77] Creating layer pool5-R
I0716 00:14:35.067420 14940 net.cpp:84] Creating Layer pool5-R
I0716 00:14:35.067425 14940 net.cpp:406] pool5-R <- conv5_3-R
I0716 00:14:35.067432 14940 net.cpp:380] pool5-R -> pool5-R
I0716 00:14:35.067498 14940 net.cpp:122] Setting up pool5-R
I0716 00:14:35.067508 14940 net.cpp:129] Top shape: 1 512 23 13 (153088)
I0716 00:14:35.067512 14940 net.cpp:137] Memory required for data: 1360022724
I0716 00:14:35.067517 14940 layer_factory.hpp:77] Creating layer fc6-R
I0716 00:14:35.067530 14940 net.cpp:84] Creating Layer fc6-R
I0716 00:14:35.067535 14940 net.cpp:406] fc6-R <- pool5-R
I0716 00:14:35.067545 14940 net.cpp:380] fc6-R -> fc6-R
I0716 00:14:35.414142 14940 net.cpp:122] Setting up fc6-R
I0716 00:14:35.414193 14940 net.cpp:129] Top shape: 1 4096 17 7 (487424)
I0716 00:14:35.414199 14940 net.cpp:137] Memory required for data: 1361972420
I0716 00:14:35.414213 14940 layer_factory.hpp:77] Creating layer relu6-R
I0716 00:14:35.414266 14940 net.cpp:84] Creating Layer relu6-R
I0716 00:14:35.414275 14940 net.cpp:406] relu6-R <- fc6-R
I0716 00:14:35.414284 14940 net.cpp:367] relu6-R -> fc6-R (in-place)
I0716 00:14:35.415151 14940 net.cpp:122] Setting up relu6-R
I0716 00:14:35.415168 14940 net.cpp:129] Top shape: 1 4096 17 7 (487424)
I0716 00:14:35.415172 14940 net.cpp:137] Memory required for data: 1363922116
I0716 00:14:35.415186 14940 layer_factory.hpp:77] Creating layer drop6-R
I0716 00:14:35.415196 14940 net.cpp:84] Creating Layer drop6-R
I0716 00:14:35.415201 14940 net.cpp:406] drop6-R <- fc6-R
I0716 00:14:35.415211 14940 net.cpp:367] drop6-R -> fc6-R (in-place)
I0716 00:14:35.415266 14940 net.cpp:122] Setting up drop6-R
I0716 00:14:35.415303 14940 net.cpp:129] Top shape: 1 4096 17 7 (487424)
I0716 00:14:35.415308 14940 net.cpp:137] Memory required for data: 1365871812
I0716 00:14:35.415313 14940 layer_factory.hpp:77] Creating layer fc7-R
I0716 00:14:35.415326 14940 net.cpp:84] Creating Layer fc7-R
I0716 00:14:35.415355 14940 net.cpp:406] fc7-R <- fc6-R
I0716 00:14:35.415364 14940 net.cpp:380] fc7-R -> fc7-R
I0716 00:14:35.481456 14940 net.cpp:122] Setting up fc7-R
I0716 00:14:35.481493 14940 net.cpp:129] Top shape: 1 4096 17 7 (487424)
I0716 00:14:35.481499 14940 net.cpp:137] Memory required for data: 1367821508
I0716 00:14:35.481513 14940 layer_factory.hpp:77] Creating layer relu7-R
I0716 00:14:35.481529 14940 net.cpp:84] Creating Layer relu7-R
I0716 00:14:35.481539 14940 net.cpp:406] relu7-R <- fc7-R
I0716 00:14:35.481559 14940 net.cpp:367] relu7-R -> fc7-R (in-place)
I0716 00:14:35.484736 14940 net.cpp:122] Setting up relu7-R
I0716 00:14:35.484784 14940 net.cpp:129] Top shape: 1 4096 17 7 (487424)
I0716 00:14:35.484789 14940 net.cpp:137] Memory required for data: 1369771204
I0716 00:14:35.484797 14940 layer_factory.hpp:77] Creating layer drop7-R
I0716 00:14:35.484818 14940 net.cpp:84] Creating Layer drop7-R
I0716 00:14:35.484825 14940 net.cpp:406] drop7-R <- fc7-R
I0716 00:14:35.484848 14940 net.cpp:367] drop7-R -> fc7-R (in-place)
I0716 00:14:35.485646 14940 net.cpp:122] Setting up drop7-R
I0716 00:14:35.485661 14940 net.cpp:129] Top shape: 1 4096 17 7 (487424)
I0716 00:14:35.485677 14940 net.cpp:137] Memory required for data: 1371720900
I0716 00:14:35.485682 14940 layer_factory.hpp:77] Creating layer score_fr-new-R
I0716 00:14:35.485694 14940 net.cpp:84] Creating Layer score_fr-new-R
I0716 00:14:35.485699 14940 net.cpp:406] score_fr-new-R <- fc7-R
I0716 00:14:35.485709 14940 net.cpp:380] score_fr-new-R -> score_fr-new-R
I0716 00:14:35.488164 14940 net.cpp:122] Setting up score_fr-new-R
I0716 00:14:35.488205 14940 net.cpp:129] Top shape: 1 3 17 7 (357)
I0716 00:14:35.488214 14940 net.cpp:137] Memory required for data: 1371722328
I0716 00:14:35.488241 14940 layer_factory.hpp:77] Creating layer upscore2-new-R
I0716 00:14:35.488283 14940 net.cpp:84] Creating Layer upscore2-new-R
I0716 00:14:35.488296 14940 net.cpp:406] upscore2-new-R <- score_fr-new-R
I0716 00:14:35.488308 14940 net.cpp:380] upscore2-new-R -> upscore2-new-R
I0716 00:14:35.488852 14940 net.cpp:122] Setting up upscore2-new-R
I0716 00:14:35.488869 14940 net.cpp:129] Top shape: 1 3 36 16 (1728)
I0716 00:14:35.488885 14940 net.cpp:137] Memory required for data: 1371729240
I0716 00:14:35.488895 14940 layer_factory.hpp:77] Creating layer upscore2-new-R_upscore2-new-R_0_split
I0716 00:14:35.488922 14940 net.cpp:84] Creating Layer upscore2-new-R_upscore2-new-R_0_split
I0716 00:14:35.488931 14940 net.cpp:406] upscore2-new-R_upscore2-new-R_0_split <- upscore2-new-R
I0716 00:14:35.488941 14940 net.cpp:380] upscore2-new-R_upscore2-new-R_0_split -> upscore2-new-R_upscore2-new-R_0_split_0
I0716 00:14:35.488955 14940 net.cpp:380] upscore2-new-R_upscore2-new-R_0_split -> upscore2-new-R_upscore2-new-R_0_split_1
I0716 00:14:35.489040 14940 net.cpp:122] Setting up upscore2-new-R_upscore2-new-R_0_split
I0716 00:14:35.489054 14940 net.cpp:129] Top shape: 1 3 36 16 (1728)
I0716 00:14:35.489068 14940 net.cpp:129] Top shape: 1 3 36 16 (1728)
I0716 00:14:35.489078 14940 net.cpp:137] Memory required for data: 1371743064
I0716 00:14:35.489094 14940 layer_factory.hpp:77] Creating layer score_pool4-new-R
I0716 00:14:35.489114 14940 net.cpp:84] Creating Layer score_pool4-new-R
I0716 00:14:35.489138 14940 net.cpp:406] score_pool4-new-R <- pool4-R_pool4-R_0_split_1
I0716 00:14:35.489153 14940 net.cpp:380] score_pool4-new-R -> score_pool4-new-R
I0716 00:14:35.492100 14940 net.cpp:122] Setting up score_pool4-new-R
I0716 00:14:35.492128 14940 net.cpp:129] Top shape: 1 3 45 25 (3375)
I0716 00:14:35.492136 14940 net.cpp:137] Memory required for data: 1371756564
I0716 00:14:35.492161 14940 layer_factory.hpp:77] Creating layer score_pool4c-R
I0716 00:14:35.492174 14940 net.cpp:84] Creating Layer score_pool4c-R
I0716 00:14:35.492183 14940 net.cpp:406] score_pool4c-R <- score_pool4-new-R
I0716 00:14:35.492193 14940 net.cpp:406] score_pool4c-R <- upscore2-new-R_upscore2-new-R_0_split_0
I0716 00:14:35.492209 14940 net.cpp:380] score_pool4c-R -> score_pool4c-R
I0716 00:14:35.492280 14940 net.cpp:122] Setting up score_pool4c-R
I0716 00:14:35.492300 14940 net.cpp:129] Top shape: 1 3 36 16 (1728)
I0716 00:14:35.492306 14940 net.cpp:137] Memory required for data: 1371763476
I0716 00:14:35.492313 14940 layer_factory.hpp:77] Creating layer fuse_pool4-R
I0716 00:14:35.492326 14940 net.cpp:84] Creating Layer fuse_pool4-R
I0716 00:14:35.492333 14940 net.cpp:406] fuse_pool4-R <- upscore2-new-R_upscore2-new-R_0_split_1
I0716 00:14:35.492343 14940 net.cpp:406] fuse_pool4-R <- score_pool4c-R
I0716 00:14:35.492353 14940 net.cpp:380] fuse_pool4-R -> fuse_pool4-R
I0716 00:14:35.492419 14940 net.cpp:122] Setting up fuse_pool4-R
I0716 00:14:35.492434 14940 net.cpp:129] Top shape: 1 3 36 16 (1728)
I0716 00:14:35.492440 14940 net.cpp:137] Memory required for data: 1371770388
I0716 00:14:35.492447 14940 layer_factory.hpp:77] Creating layer upscore_pool4-new-R
I0716 00:14:35.492466 14940 net.cpp:84] Creating Layer upscore_pool4-new-R
I0716 00:14:35.492475 14940 net.cpp:406] upscore_pool4-new-R <- fuse_pool4-R
I0716 00:14:35.492486 14940 net.cpp:380] upscore_pool4-new-R -> upscore_pool4-new-R
I0716 00:14:35.492969 14940 net.cpp:122] Setting up upscore_pool4-new-R
I0716 00:14:35.492986 14940 net.cpp:129] Top shape: 1 3 74 34 (7548)
I0716 00:14:35.492993 14940 net.cpp:137] Memory required for data: 1371800580
I0716 00:14:35.493003 14940 layer_factory.hpp:77] Creating layer upscore_pool4-new-R_upscore_pool4-new-R_0_split
I0716 00:14:35.493016 14940 net.cpp:84] Creating Layer upscore_pool4-new-R_upscore_pool4-new-R_0_split
I0716 00:14:35.493023 14940 net.cpp:406] upscore_pool4-new-R_upscore_pool4-new-R_0_split <- upscore_pool4-new-R
I0716 00:14:35.493034 14940 net.cpp:380] upscore_pool4-new-R_upscore_pool4-new-R_0_split -> upscore_pool4-new-R_upscore_pool4-new-R_0_split_0
I0716 00:14:35.493059 14940 net.cpp:380] upscore_pool4-new-R_upscore_pool4-new-R_0_split -> upscore_pool4-new-R_upscore_pool4-new-R_0_split_1
I0716 00:14:35.493139 14940 net.cpp:122] Setting up upscore_pool4-new-R_upscore_pool4-new-R_0_split
I0716 00:14:35.493154 14940 net.cpp:129] Top shape: 1 3 74 34 (7548)
I0716 00:14:35.493162 14940 net.cpp:129] Top shape: 1 3 74 34 (7548)
I0716 00:14:35.493170 14940 net.cpp:137] Memory required for data: 1371860964
I0716 00:14:35.493176 14940 layer_factory.hpp:77] Creating layer score_pool3-new-R
I0716 00:14:35.493207 14940 net.cpp:84] Creating Layer score_pool3-new-R
I0716 00:14:35.493221 14940 net.cpp:406] score_pool3-new-R <- pool3-R_pool3-R_0_split_1
I0716 00:14:35.493232 14940 net.cpp:380] score_pool3-new-R -> score_pool3-new-R
I0716 00:14:35.495167 14940 net.cpp:122] Setting up score_pool3-new-R
I0716 00:14:35.495190 14940 net.cpp:129] Top shape: 1 3 89 50 (13350)
I0716 00:14:35.495198 14940 net.cpp:137] Memory required for data: 1371914364
I0716 00:14:35.495218 14940 layer_factory.hpp:77] Creating layer score_pool3c-R
I0716 00:14:35.495234 14940 net.cpp:84] Creating Layer score_pool3c-R
I0716 00:14:35.495242 14940 net.cpp:406] score_pool3c-R <- score_pool3-new-R
I0716 00:14:35.495252 14940 net.cpp:406] score_pool3c-R <- upscore_pool4-new-R_upscore_pool4-new-R_0_split_0
I0716 00:14:35.495263 14940 net.cpp:380] score_pool3c-R -> score_pool3c-R
I0716 00:14:35.495344 14940 net.cpp:122] Setting up score_pool3c-R
I0716 00:14:35.495360 14940 net.cpp:129] Top shape: 1 3 74 34 (7548)
I0716 00:14:35.495366 14940 net.cpp:137] Memory required for data: 1371944556
I0716 00:14:35.495374 14940 layer_factory.hpp:77] Creating layer fuse_pool3-R
I0716 00:14:35.495391 14940 net.cpp:84] Creating Layer fuse_pool3-R
I0716 00:14:35.495399 14940 net.cpp:406] fuse_pool3-R <- upscore_pool4-new-R_upscore_pool4-new-R_0_split_1
I0716 00:14:35.495409 14940 net.cpp:406] fuse_pool3-R <- score_pool3c-R
I0716 00:14:35.495422 14940 net.cpp:380] fuse_pool3-R -> fuse_pool3-R
I0716 00:14:35.495472 14940 net.cpp:122] Setting up fuse_pool3-R
I0716 00:14:35.495486 14940 net.cpp:129] Top shape: 1 3 74 34 (7548)
I0716 00:14:35.495492 14940 net.cpp:137] Memory required for data: 1371974748
I0716 00:14:35.495499 14940 layer_factory.hpp:77] Creating layer upscore8-new-R
I0716 00:14:35.495527 14940 net.cpp:84] Creating Layer upscore8-new-R
I0716 00:14:35.495538 14940 net.cpp:406] upscore8-new-R <- fuse_pool3-R
I0716 00:14:35.495553 14940 net.cpp:380] upscore8-new-R -> upscore8-new-R
I0716 00:14:35.496033 14940 net.cpp:122] Setting up upscore8-new-R
I0716 00:14:35.496050 14940 net.cpp:129] Top shape: 1 3 600 280 (504000)
I0716 00:14:35.496057 14940 net.cpp:137] Memory required for data: 1373990748
I0716 00:14:35.496067 14940 layer_factory.hpp:77] Creating layer upscore8_cropped-R
I0716 00:14:35.496078 14940 net.cpp:84] Creating Layer upscore8_cropped-R
I0716 00:14:35.496085 14940 net.cpp:406] upscore8_cropped-R <- upscore8-new-R
I0716 00:14:35.496095 14940 net.cpp:406] upscore8_cropped-R <- data-R_crop_0_split_1
I0716 00:14:35.496109 14940 net.cpp:380] upscore8_cropped-R -> upscore8_cropped-R
I0716 00:14:35.496160 14940 net.cpp:122] Setting up upscore8_cropped-R
I0716 00:14:35.496173 14940 net.cpp:129] Top shape: 1 3 512 199 (305664)
I0716 00:14:35.496181 14940 net.cpp:137] Memory required for data: 1375213404
I0716 00:14:35.496187 14940 layer_factory.hpp:77] Creating layer upscore8_uncropped-R
I0716 00:14:35.496713 14940 net.cpp:84] Creating Layer upscore8_uncropped-R
I0716 00:14:35.496734 14940 net.cpp:406] upscore8_uncropped-R <- crop_info
I0716 00:14:35.496745 14940 net.cpp:406] upscore8_uncropped-R <- upscore8_cropped-R
I0716 00:14:35.496763 14940 net.cpp:406] upscore8_uncropped-R <- data_data_0_split_3
I0716 00:14:35.496775 14940 net.cpp:380] upscore8_uncropped-R -> upscore8_uncropped-R
I0716 00:14:35.499697 14940 net.cpp:122] Setting up upscore8_uncropped-R
I0716 00:14:35.499714 14940 net.cpp:129] Top shape: 1 3 512 199 (305664)
I0716 00:14:35.499719 14940 net.cpp:137] Memory required for data: 1376436060
I0716 00:14:35.499723 14940 layer_factory.hpp:77] Creating layer loss1
I0716 00:14:35.499742 14940 net.cpp:84] Creating Layer loss1
I0716 00:14:35.499748 14940 net.cpp:406] loss1 <- upscore8_cropped_upscore8_cropped_0_split_1
I0716 00:14:35.499755 14940 net.cpp:406] loss1 <- label_data_1_split_1
I0716 00:14:35.499761 14940 net.cpp:380] loss1 -> loss1
…
