…
snapshot_prefix: "/media/Med_2T2/data2/models/snapshots/indiv:1e-5x10,20/FD0:YI3_1_20180418_201415/train"
test_initialization: false
average_loss: 20
stepvalue: 40000
iter_size: 1
I0418 23:59:51.932327 20818 solver.cpp:77] Creating training net from train_net file: /media/Med_2T2/data2/prototxts/training_S3x10.prototxt
I0418 23:59:51.935137 20818 net.cpp:51] Initializing net from parameters: 
state {
  phase: TRAIN
}
layer {
  name: "data"
  type: "Python"
  top: "data"
  top: "label"
  top: "crop_margin"
  top: "crop_prob"
  top: "crop_sample_batch"
  python_param {
    module: "Data"
    layer: "DataLayer"
  }
}
layer {
  name: "conv1_1"
  type: "Convolution"
  bottom: "data"
  top: "conv1_1"
  param {
    lr_mult: 1
    decay_mult: 1
  }
  param {
    lr_mult: 2
    decay_mult: 0
  }
  convolution_param {
    num_output: 64
    pad: 100
    kernel_size: 3
    stride: 1
  }
}
layer {
  name: "relu1_1"
  type: "ReLU"
  bottom: "conv1_1"
  top: "conv1_1"
}
layer {
  name: "conv1_2"
  type: "Convolution"
  bottom: "conv1_1"
  top: "conv1_2"
  param {
    lr_mult: 1
    decay_mult: 1
  }
  param {
    lr_mult: 2
    decay_mult: 0
  }
  convolution_param {
    num_output: 64
    pad: 1
    kernel_size: 3
    stride: 1
  }
}
layer {
  name: "relu1_2"
  type: "ReLU"
  bottom: "conv1_2"
  top: "conv1_2"
}
layer {
  name: "pool1"
  type: "Pooling"
  bottom: "conv1_2"
  top: "pool1"
  pooling_param {
    pool: MAX
    kernel_size: 2
    stride: 2
  }
}
layer {
  name: "conv2_1"
  type: "Convolution"
  bottom: "pool1"
  top: "conv2_1"
  param {
    lr_mult: 1
    decay_mult: 1
  }
  param {
    lr_mult: 2
    decay_mult: 0
  }
  convolution_param {
    num_output: 128
    pad: 1
    kernel_size: 3
    stride: 1
  }
}
layer {
  name: "relu2_1"
  type: "ReLU"
  bottom: "conv2_1"
  top: "conv2_1"
}
layer {
  name: "conv2_2"
  type: "Convolution"
  bottom: "conv2_1"
  top: "conv2_2"
  param {
    lr_mult: 1
    decay_mult: 1
  }
  param {
    lr_mult: 2
    decay_mult: 0
  }
  convolution_param {
    num_output: 128
    pad: 1
    kernel_size: 3
    stride: 1
  }
}
layer {
  name: "relu2_2"
  type: "ReLU"
  bottom: "conv2_2"
  top: "conv2_2"
}
layer {
  name: "pool2"
  type: "Pooling"
  bottom: "conv2_2"
  top: "pool2"
  pooling_param {
    pool: MAX
    kernel_size: 2
    stride: 2
  }
}
layer {
  name: "conv3_1"
  type: "Convolution"
  bottom: "pool2"
  top: "conv3_1"
  param {
    lr_mult: 1
    decay_mult: 1
  }
  param {
    lr_mult: 2
    decay_mult: 0
  }
  convolution_param {
    num_output: 256
    pad: 1
    kernel_size: 3
    stride: 1
  }
}
layer {
  name: "relu3_1"
  type: "ReLU"
  bottom: "conv3_1"
  top: "conv3_1"
}
layer {
  name: "conv3_2"
  type: "Convolution"
  bottom: "conv3_1"
  top: "conv3_2"
  param {
    lr_mult: 1
    decay_mult: 1
  }
  param {
    lr_mult: 2
    decay_mult: 0
  }
  convolution_param {
    num_output: 256
    pad: 1
    kernel_size: 3
    stride: 1
  }
}
layer {
  name: "relu3_2"
  type: "ReLU"
  bottom: "conv3_2"
  top: "conv3_2"
}
layer {
  name: "conv3_3"
  type: "Convolution"
  bottom: "conv3_2"
  top: "conv3_3"
  param {
    lr_mult: 1
    decay_mult: 1
  }
  param {
    lr_mult: 2
    decay_mult: 0
  }
  convolution_param {
    num_output: 256
    pad: 1
    kernel_size: 3
    stride: 1
  }
}
layer {
  name: "relu3_3"
  type: "ReLU"
  bottom: "conv3_3"
  top: "conv3_3"
}
layer {
  name: "pool3"
  type: "Pooling"
  bottom: "conv3_3"
  top: "pool3"
  pooling_param {
    pool: MAX
    kernel_size: 2
    stride: 2
  }
}
layer {
  name: "conv4_1"
  type: "Convolution"
  bottom: "pool3"
  top: "conv4_1"
  param {
    lr_mult: 1
    decay_mult: 1
  }
  param {
    lr_mult: 2
    decay_mult: 0
  }
  convolution_param {
    num_output: 512
    pad: 1
    kernel_size: 3
    stride: 1
  }
}
layer {
  name: "relu4_1"
  type: "ReLU"
  bottom: "conv4_1"
  top: "conv4_1"
}
layer {
  name: "conv4_2"
  type: "Convolution"
  bottom: "conv4_1"
  top: "conv4_2"
  param {
    lr_mult: 1
    decay_mult: 1
  }
  param {
    lr_mult: 2
    decay_mult: 0
  }
  convolution_param {
    num_output: 512
    pad: 1
    kernel_size: 3
    stride: 1
  }
}
layer {
  name: "relu4_2"
  type: "ReLU"
  bottom: "conv4_2"
  top: "conv4_2"
}
layer {
  name: "conv4_3"
  type: "Convolution"
  bottom: "conv4_2"
  top: "conv4_3"
  param {
    lr_mult: 1
    decay_mult: 1
  }
  param {
    lr_mult: 2
    decay_mult: 0
  }
  convolution_param {
    num_output: 512
    pad: 1
    kernel_size: 3
    stride: 1
  }
}
layer {
  name: "relu4_3"
  type: "ReLU"
  bottom: "conv4_3"
  top: "conv4_3"
}
layer {
  name: "pool4"
  type: "Pooling"
  bottom: "conv4_3"
  top: "pool4"
  pooling_param {
    pool: MAX
    kernel_size: 2
    stride: 2
  }
}
layer {
  name: "conv5_1"
  type: "Convolution"
  bottom: "pool4"
  top: "conv5_1"
  param {
    lr_mult: 1
    decay_mult: 1
  }
  param {
    lr_mult: 2
    decay_mult: 0
  }
  convolution_param {
    num_output: 512
    pad: 1
    kernel_size: 3
    stride: 1
  }
}
layer {
  name: "relu5_1"
  type: "ReLU"
  bottom: "conv5_1"
  top: "conv5_1"
}
layer {
  name: "conv5_2"
  type: "Convolution"
  bottom: "conv5_1"
  top: "conv5_2"
  param {
    lr_mult: 1
    decay_mult: 1
  }
  param {
    lr_mult: 2
    decay_mult: 0
  }
  convolution_param {
    num_output: 512
    pad: 1
    kernel_size: 3
    stride: 1
  }
}
layer {
  name: "relu5_2"
  type: "ReLU"
  bottom: "conv5_2"
  top: "conv5_2"
}
layer {
  name: "conv5_3"
  type: "Convolution"
  bottom: "conv5_2"
  top: "conv5_3"
  param {
    lr_mult: 1
    decay_mult: 1
  }
  param {
    lr_mult: 2
    decay_mult: 0
  }
  convolution_param {
    num_output: 512
    pad: 1
    kernel_size: 3
    stride: 1
  }
}
layer {
  name: "relu5_3"
  type: "ReLU"
  bottom: "conv5_3"
  top: "conv5_3"
}
layer {
  name: "pool5"
  type: "Pooling"
  bottom: "conv5_3"
  top: "pool5"
  pooling_param {
    pool: MAX
    kernel_size: 2
    stride: 2
  }
}
layer {
  name: "fc6"
  type: "Convolution"
  bottom: "pool5"
  top: "fc6"
  param {
    lr_mult: 1
    decay_mult: 1
  }
  param {
    lr_mult: 2
    decay_mult: 0
  }
  convolution_param {
    num_output: 4096
    pad: 0
    kernel_size: 7
    stride: 1
  }
}
layer {
  name: "relu6"
  type: "ReLU"
  bottom: "fc6"
  top: "fc6"
}
layer {
  name: "drop6"
  type: "Dropout"
  bottom: "fc6"
  top: "fc6"
  dropout_param {
    dropout_ratio: 0.5
  }
}
layer {
  name: "fc7"
  type: "Convolution"
  bottom: "fc6"
  top: "fc7"
  param {
    lr_mult: 1
    decay_mult: 1
  }
  param {
    lr_mult: 2
    decay_mult: 0
  }
  convolution_param {
    num_output: 4096
    pad: 0
    kernel_size: 1
    stride: 1
  }
}
layer {
  name: "relu7"
  type: "ReLU"
  bottom: "fc7"
  top: "fc7"
}
layer {
  name: "drop7"
  type: "Dropout"
  bottom: "fc7"
  top: "fc7"
  dropout_param {
    dropout_ratio: 0.5
  }
}
layer {
  name: "score_fr-new"
  type: "Convolution"
  bottom: "fc7"
  top: "score_fr-new"
  param {
    lr_mult: 1
    decay_mult: 1
  }
  param {
    lr_mult: 2
    decay_mult: 0
  }
  convolution_param {
    num_output: 3
    kernel_size: 1
  }
}
layer {
  name: "upscore2-new"
  type: "Deconvolution"
  bottom: "score_fr-new"
  top: "upscore2-new"
  param {
    lr_mult: 0
  }
  convolution_param {
    num_output: 3
    bias_term: false
    kernel_size: 4
    stride: 2
  }
}
layer {
  name: "score_pool4-new"
  type: "Convolution"
  bottom: "pool4"
  top: "score_pool4-new"
  param {
    lr_mult: 1
    decay_mult: 1
  }
  param {
    lr_mult: 2
    decay_mult: 0
  }
  convolution_param {
    num_output: 3
    pad: 0
    kernel_size: 1
  }
}
layer {
  name: "score_pool4c"
  type: "Crop"
  bottom: "score_pool4-new"
  bottom: "upscore2-new"
  top: "score_pool4c"
  crop_param {
    axis: 2
    offset: 5
  }
}
layer {
  name: "fuse_pool4"
  type: "Eltwise"
  bottom: "upscore2-new"
  bottom: "score_pool4c"
  top: "fuse_pool4"
  eltwise_param {
    operation: SUM
  }
}
layer {
  name: "upscore_pool4-new"
  type: "Deconvolution"
  bottom: "fuse_pool4"
  top: "upscore_pool4-new"
  param {
    lr_mult: 0
  }
  convolution_param {
    num_output: 3
    bias_term: false
    kernel_size: 4
    stride: 2
  }
}
layer {
  name: "score_pool3-new"
  type: "Convolution"
  bottom: "pool3"
  top: "score_pool3-new"
  param {
    lr_mult: 1
    decay_mult: 1
  }
  param {
    lr_mult: 2
    decay_mult: 0
  }
  convolution_param {
    num_output: 3
    pad: 0
    kernel_size: 1
  }
}
layer {
  name: "score_pool3c"
  type: "Crop"
  bottom: "score_pool3-new"
  bottom: "upscore_pool4-new"
  top: "score_pool3c"
  crop_param {
    axis: 2
    offset: 9
  }
}
layer {
  name: "fuse_pool3"
  type: "Eltwise"
  bottom: "upscore_pool4-new"
  bottom: "score_pool3c"
  top: "fuse_pool3"
  eltwise_param {
    operation: SUM
  }
}
layer {
  name: "upscore8-new"
  type: "Deconvolution"
  bottom: "fuse_pool3"
  top: "upscore8-new"
  param {
    lr_mult: 0
  }
  convolution_param {
    num_output: 3
    bias_term: false
    kernel_size: 16
    stride: 8
  }
}
layer {
  name: "upscore8_cropped"
  type: "Crop"
  bottom: "upscore8-new"
  bottom: "data"
  top: "upscore8_cropped"
  crop_param {
    axis: 2
    offset: 31
  }
}
layer {
  name: "score"
  type: "Convolution"
  bottom: "upscore8_cropped"
  top: "score"
  param {
    lr_mult: 1
    decay_mult: 1
  }
  param {
    lr_mult: 2
    decay_mult: 0
  }
  convolution_param {
    num_output: 3
    pad: 1
    kernel_size: 3
    stride: 1
    weight_filler {
      type: "xavier"
    }
    bias_filler {
      type: "constant"
      value: 0
    }
  }
}
layer {
  name: "prob"
  type: "Sigmoid"
  bottom: "score"
  top: "prob"
}
layer {
  name: "saliency"
  type: "Convolution"
  bottom: "prob"
  top: "saliency"
  param {
    lr_mult: 10
    decay_mult: 1
  }
  param {
    lr_mult: 20
    decay_mult: 0
  }
  convolution_param {
    num_output: 3
    pad: 2
    kernel_size: 5
    stride: 1
    weight_filler {
      type: "xavier"
    }
    bias_filler {
      type: "constant"
      value: 1
    }
  }
}
layer {
  name: "silence_saliency"
  type: "Silence"
  bottom: "saliency"
}
layer {
  name: "crop"
  type: "Python"
  bottom: "label"
  bottom: "data"
  bottom: "crop_margin"
  bottom: "crop_prob"
  bottom: "crop_sample_batch"
  top: "data-R"
  top: "crop_info"
  python_param {
    module: "Crop"
    layer: "CropLayer"
    param_str: "{\"TEST\": 0}"
  }
}
layer {
  name: "conv1_1-R"
  type: "Convolution"
  bottom: "data-R"
  top: "conv1_1-R"
  param {
    lr_mult: 10
    decay_mult: 1
  }
  param {
    lr_mult: 20
    decay_mult: 0
  }
  convolution_param {
    num_output: 64
    pad: 100
    kernel_size: 3
    stride: 1
  }
}
layer {
  name: "relu1_1-R"
  type: "ReLU"
  bottom: "conv1_1-R"
  top: "conv1_1-R"
}
layer {
  name: "conv1_2-R"
  type: "Convolution"
  bottom: "conv1_1-R"
  top: "conv1_2-R"
  param {
    lr_mult: 10
    decay_mult: 1
  }
  param {
    lr_mult: 20
    decay_mult: 0
  }
  convolution_param {
    num_output: 64
    pad: 1
    kernel_size: 3
    stride: 1
  }
}
layer {
  name: "relu1_2-R"
  type: "ReLU"
  bottom: "conv1_2-R"
  top: "conv1_2-R"
}
layer {
  name: "pool1-R"
  type: "Pooling"
  bottom: "conv1_2-R"
  top: "pool1-R"
  pooling_param {
    pool: MAX
    kernel_size: 2
    stride: 2
  }
}
layer {
  name: "conv2_1-R"
  type: "Convolution"
  bottom: "pool1-R"
  top: "conv2_1-R"
  param {
    lr_mult: 10
    decay_mult: 1
  }
  param {
    lr_mult: 20
    decay_mult: 0
  }
  convolution_param {
    num_output: 128
    pad: 1
    kernel_size: 3
    stride: 1
  }
}
layer {
  name: "relu2_1-R"
  type: "ReLU"
  bottom: "conv2_1-R"
  top: "conv2_1-R"
}
layer {
  name: "conv2_2-R"
  type: "Convolution"
  bottom: "conv2_1-R"
  top: "conv2_2-R"
  param {
    lr_mult: 10
    decay_mult: 1
  }
  param {
    lr_mult: 20
    decay_mult: 0
  }
  convolution_param {
    num_output: 128
    pad: 1
    kernel_size: 3
    stride: 1
  }
}
layer {
  name: "relu2_2-R"
  type: "ReLU"
  bottom: "conv2_2-R"
  top: "conv2_2-R"
}
layer {
  name: "pool2-R"
  type: "Pooling"
  bottom: "conv2_2-R"
  top: "pool2-R"
  pooling_param {
    pool: MAX
    kernel_size: 2
    stride: 2
  }
}
layer {
  name: "conv3_1-R"
  type: "Convolution"
  bottom: "pool2-R"
  top: "conv3_1-R"
  param {
    lr_mult: 10
    decay_mult: 1
  }
  param {
    lr_mult: 20
    decay_mult: 0
  }
  convolution_param {
    num_output: 256
    pad: 1
    kernel_size: 3
    stride: 1
  }
}
layer {
  name: "relu3_1-R"
  type: "ReLU"
  bottom: "conv3_1-R"
  top: "conv3_1-R"
}
layer {
  name: "conv3_2-R"
  type: "Convolution"
  bottom: "conv3_1-R"
  top: "conv3_2-R"
  param {
    lr_mult: 10
    decay_mult: 1
  }
  param {
    lr_mult: 20
    decay_mult: 0
  }
  convolution_param {
    num_output: 256
    pad: 1
    kernel_size: 3
    stride: 1
  }
}
layer {
  name: "relu3_2-R"
  type: "ReLU"
  bottom: "conv3_2-R"
  top: "conv3_2-R"
}
layer {
  name: "conv3_3-R"
  type: "Convolution"
  bottom: "conv3_2-R"
  top: "conv3_3-R"
  param {
    lr_mult: 10
    decay_mult: 1
  }
  param {
    lr_mult: 20
    decay_mult: 0
  }
  convolution_param {
    num_output: 256
    pad: 1
    kernel_size: 3
    stride: 1
  }
}
layer {
  name: "relu3_3-R"
  type: "ReLU"
  bottom: "conv3_3-R"
  top: "conv3_3-R"
}
layer {
  name: "pool3-R"
  type: "Pooling"
  bottom: "conv3_3-R"
  top: "pool3-R"
  pooling_param {
    pool: MAX
    kernel_size: 2
    stride: 2
  }
}
layer {
  name: "conv4_1-R"
  type: "Convolution"
  bottom: "pool3-R"
  top: "conv4_1-R"
  param {
    lr_mult: 10
    decay_mult: 1
  }
  param {
    lr_mult: 20
    decay_mult: 0
  }
  convolution_param {
    num_output: 512
    pad: 1
    kernel_size: 3
    stride: 1
  }
}
layer {
  name: "relu4_1-R"
  type: "ReLU"
  bottom: "conv4_1-R"
  top: "conv4_1-R"
}
layer {
  name: "conv4_2-R"
  type: "Convolution"
  bottom: "conv4_1-R"
  top: "conv4_2-R"
  param {
    lr_mult: 10
    decay_mult: 1
  }
  param {
    lr_mult: 20
    decay_mult: 0
  }
  convolution_param {
    num_output: 512
    pad: 1
    kernel_size: 3
    stride: 1
  }
}
layer {
  name: "relu4_2-R"
  type: "ReLU"
  bottom: "conv4_2-R"
  top: "conv4_2-R"
}
layer {
  name: "conv4_3-R"
  type: "Convolution"
  bottom: "conv4_2-R"
  top: "conv4_3-R"
  param {
    lr_mult: 10
    decay_mult: 1
  }
  param {
    lr_mult: 20
    decay_mult: 0
  }
  convolution_param {
    num_output: 512
    pad: 1
    kernel_size: 3
    stride: 1
  }
}
layer {
  name: "relu4_3-R"
  type: "ReLU"
  bottom: "conv4_3-R"
  top: "conv4_3-R"
}
layer {
  name: "pool4-R"
  type: "Pooling"
  bottom: "conv4_3-R"
  top: "pool4-R"
  pooling_param {
    pool: MAX
    kernel_size: 2
    stride: 2
  }
}
layer {
  name: "conv5_1-R"
  type: "Convolution"
  bottom: "pool4-R"
  top: "conv5_1-R"
  param {
    lr_mult: 10
    decay_mult: 1
  }
  param {
    lr_mult: 20
    decay_mult: 0
  }
  convolution_param {
    num_output: 512
    pad: 1
    kernel_size: 3
    stride: 1
  }
}
layer {
  name: "relu5_1-R"
  type: "ReLU"
  bottom: "conv5_1-R"
  top: "conv5_1-R"
}
layer {
  name: "conv5_2-R"
  type: "Convolution"
  bottom: "conv5_1-R"
  top: "conv5_2-R"
  param {
    lr_mult: 10
    decay_mult: 1
  }
  param {
    lr_mult: 20
    decay_mult: 0
  }
  convolution_param {
    num_output: 512
    pad: 1
    kernel_size: 3
    stride: 1
  }
}
layer {
  name: "relu5_2-R"
  type: "ReLU"
  bottom: "conv5_2-R"
  top: "conv5_2-R"
}
layer {
  name: "conv5_3-R"
  type: "Convolution"
  bottom: "conv5_2-R"
  top: "conv5_3-R"
  param {
    lr_mult: 10
    decay_mult: 1
  }
  param {
    lr_mult: 20
    decay_mult: 0
  }
  convolution_param {
    num_output: 512
    pad: 1
    kernel_size: 3
    stride: 1
  }
}
layer {
  name: "relu5_3-R"
  type: "ReLU"
  bottom: "conv5_3-R"
  top: "conv5_3-R"
}
layer {
  name: "pool5-R"
  type: "Pooling"
  bottom: "conv5_3-R"
  top: "pool5-R"
  pooling_param {
    pool: MAX
    kernel_size: 2
    stride: 2
  }
}
layer {
  name: "fc6-R"
  type: "Convolution"
  bottom: "pool5-R"
  top: "fc6-R"
  param {
    lr_mult: 10
    decay_mult: 1
  }
  param {
    lr_mult: 20
    decay_mult: 0
  }
  convolution_param {
    num_output: 4096
    pad: 0
    kernel_size: 7
    stride: 1
  }
}
layer {
  name: "relu6-R"
  type: "ReLU"
  bottom: "fc6-R"
  top: "fc6-R"
}
layer {
  name: "drop6-R"
  type: "Dropout"
  bottom: "fc6-R"
  top: "fc6-R"
  dropout_param {
    dropout_ratio: 0.5
  }
}
layer {
  name: "fc7-R"
  type: "Convolution"
  bottom: "fc6-R"
  top: "fc7-R"
  param {
    lr_mult: 10
    decay_mult: 1
  }
  param {
    lr_mult: 20
    decay_mult: 0
  }
  convolution_param {
    num_output: 4096
    pad: 0
    kernel_size: 1
    stride: 1
  }
}
layer {
  name: "relu7-R"
  type: "ReLU"
  bottom: "fc7-R"
  top: "fc7-R"
}
layer {
  name: "drop7-R"
  type: "Dropout"
  bottom: "fc7-R"
  top: "fc7-R"
  dropout_param {
    dropout_ratio: 0.5
  }
}
layer {
  name: "score_fr-new-R"
  type: "Convolution"
  bottom: "fc7-R"
  top: "score_fr-new-R"
  param {
    lr_mult: 10
    decay_mult: 1
  }
  param {
    lr_mult: 20
    decay_mult: 0
  }
  convolution_param {
    num_output: 3
    kernel_size: 1
  }
}
layer {
  name: "upscore2-new-R"
  type: "Deconvolution"
  bottom: "score_fr-new-R"
  top: "upscore2-new-R"
  param {
    lr_mult: 0
  }
  convolution_param {
    num_output: 3
    bias_term: false
    kernel_size: 4
    stride: 2
  }
}
layer {
  name: "score_pool4-new-R"
  type: "Convolution"
  bottom: "pool4-R"
  top: "score_pool4-new-R"
  param {
    lr_mult: 10
    decay_mult: 1
  }
  param {
    lr_mult: 20
    decay_mult: 0
  }
  convolution_param {
    num_output: 3
    pad: 0
    kernel_size: 1
  }
}
layer {
  name: "score_pool4c-R"
  type: "Crop"
  bottom: "score_pool4-new-R"
  bottom: "upscore2-new-R"
  top: "score_pool4c-R"
  crop_param {
    axis: 2
    offset: 5
  }
}
layer {
  name: "fuse_pool4-R"
  type: "Eltwise"
  bottom: "upscore2-new-R"
  bottom: "score_pool4c-R"
  top: "fuse_pool4-R"
  eltwise_param {
    operation: SUM
  }
}
layer {
  name: "upscore_pool4-new-R"
  type: "Deconvolution"
  bottom: "fuse_pool4-R"
  top: "upscore_pool4-new-R"
  param {
    lr_mult: 0
  }
  convolution_param {
    num_output: 3
    bias_term: false
    kernel_size: 4
    stride: 2
  }
}
layer {
  name: "score_pool3-new-R"
  type: "Convolution"
  bottom: "pool3-R"
  top: "score_pool3-new-R"
  param {
    lr_mult: 10
    decay_mult: 1
  }
  param {
    lr_mult: 20
    decay_mult: 0
  }
  convolution_param {
    num_output: 3
    pad: 0
    kernel_size: 1
  }
}
layer {
  name: "score_pool3c-R"
  type: "Crop"
  bottom: "score_pool3-new-R"
  bottom: "upscore_pool4-new-R"
  top: "score_pool3c-R"
  crop_param {
    axis: 2
    offset: 9
  }
}
layer {
  name: "fuse_pool3-R"
  type: "Eltwise"
  bottom: "upscore_pool4-new-R"
  bottom: "score_pool3c-R"
  top: "fuse_pool3-R"
  eltwise_param {
    operation: SUM
  }
}
layer {
  name: "upscore8-new-R"
  type: "Deconvolution"
  bottom: "fuse_pool3-R"
  top: "upscore8-new-R"
  param {
    lr_mult: 0
  }
  convolution_param {
    num_output: 3
    bias_term: false
    kernel_size: 16
    stride: 8
  }
}
layer {
  name: "upscore8_cropped-R"
  type: "Crop"
  bottom: "upscore8-new-R"
  bottom: "data-R"
  top: "upscore8_cropped-R"
  crop_param {
    axis: 2
    offset: 31
  }
}
layer {
  name: "score-R"
  type: "Convolution"
  bottom: "upscore8_cropped-R"
  top: "score-R"
  param {
    lr_mult: 10
    decay_mult: 1
  }
  param {
    lr_mult: 20
    decay_mult: 0
  }
  convolution_param {
    num_output: 3
    pad: 1
    kernel_size: 3
    stride: 1
    weight_filler {
      type: "xavier"
    }
    bias_filler {
      type: "constant"
      value: 0
    }
  }
}
layer {
  name: "score_uncropped-R"
  type: "Python"
  bottom: "crop_info"
  bottom: "score-R"
  bottom: "data"
  top: "score_uncropped-R"
  python_param {
    module: "Uncrop"
    layer: "UncropLayer"
  }
}
layer {
  name: "loss1"
  type: "DiceLoss"
  bottom: "score"
  bottom: "label"
  top: "loss1"
  loss_weight: 0.333333
}
layer {
  name: "loss2"
  type: "DiceLoss"
  bottom: "score_uncropped-R"
  bottom: "label"
  top: "loss2"
  loss_weight: 0.666667
}
I0418 23:59:51.935683 20818 layer_factory.hpp:77] Creating layer data
I0418 23:59:51.937144 20818 net.cpp:84] Creating Layer data
I0418 23:59:51.937161 20818 net.cpp:380] data -> data
I0418 23:59:51.937180 20818 net.cpp:380] data -> label
I0418 23:59:51.937189 20818 net.cpp:380] data -> crop_margin
I0418 23:59:51.937197 20818 net.cpp:380] data -> crop_prob
I0418 23:59:51.937204 20818 net.cpp:380] data -> crop_sample_batch
I0418 23:59:52.127110 20818 net.cpp:122] Setting up data
I0418 23:59:52.127148 20818 net.cpp:129] Top shape: 1 3 512 310 (476160)
I0418 23:59:52.127156 20818 net.cpp:129] Top shape: 1 3 512 310 (476160)
I0418 23:59:52.127161 20818 net.cpp:129] Top shape: 1 (1)
I0418 23:59:52.127166 20818 net.cpp:129] Top shape: 1 (1)
I0418 23:59:52.127171 20818 net.cpp:129] Top shape: 1 (1)
I0418 23:59:52.127174 20818 net.cpp:137] Memory required for data: 3809292
I0418 23:59:52.127182 20818 layer_factory.hpp:77] Creating layer data_data_0_split
I0418 23:59:52.127212 20818 net.cpp:84] Creating Layer data_data_0_split
I0418 23:59:52.127218 20818 net.cpp:406] data_data_0_split <- data
I0418 23:59:52.127231 20818 net.cpp:380] data_data_0_split -> data_data_0_split_0
I0418 23:59:52.127244 20818 net.cpp:380] data_data_0_split -> data_data_0_split_1
I0418 23:59:52.127252 20818 net.cpp:380] data_data_0_split -> data_data_0_split_2
I0418 23:59:52.127259 20818 net.cpp:380] data_data_0_split -> data_data_0_split_3
I0418 23:59:52.127318 20818 net.cpp:122] Setting up data_data_0_split
I0418 23:59:52.127331 20818 net.cpp:129] Top shape: 1 3 512 310 (476160)
I0418 23:59:52.127336 20818 net.cpp:129] Top shape: 1 3 512 310 (476160)
I0418 23:59:52.127341 20818 net.cpp:129] Top shape: 1 3 512 310 (476160)
I0418 23:59:52.127351 20818 net.cpp:129] Top shape: 1 3 512 310 (476160)
I0418 23:59:52.127354 20818 net.cpp:137] Memory required for data: 11427852
I0418 23:59:52.127358 20818 layer_factory.hpp:77] Creating layer label_data_1_split
I0418 23:59:52.127367 20818 net.cpp:84] Creating Layer label_data_1_split
I0418 23:59:52.127370 20818 net.cpp:406] label_data_1_split <- label
I0418 23:59:52.127377 20818 net.cpp:380] label_data_1_split -> label_data_1_split_0
I0418 23:59:52.127383 20818 net.cpp:380] label_data_1_split -> label_data_1_split_1
I0418 23:59:52.127389 20818 net.cpp:380] label_data_1_split -> label_data_1_split_2
I0418 23:59:52.127429 20818 net.cpp:122] Setting up label_data_1_split
I0418 23:59:52.127436 20818 net.cpp:129] Top shape: 1 3 512 310 (476160)
I0418 23:59:52.127440 20818 net.cpp:129] Top shape: 1 3 512 310 (476160)
I0418 23:59:52.127445 20818 net.cpp:129] Top shape: 1 3 512 310 (476160)
I0418 23:59:52.127449 20818 net.cpp:137] Memory required for data: 17141772
I0418 23:59:52.127454 20818 layer_factory.hpp:77] Creating layer conv1_1
I0418 23:59:52.127470 20818 net.cpp:84] Creating Layer conv1_1
I0418 23:59:52.127486 20818 net.cpp:406] conv1_1 <- data_data_0_split_0
I0418 23:59:52.127493 20818 net.cpp:380] conv1_1 -> conv1_1
I0418 23:59:52.505934 20818 net.cpp:122] Setting up conv1_1
I0418 23:59:52.505990 20818 net.cpp:129] Top shape: 1 64 710 508 (23083520)
I0418 23:59:52.505993 20818 net.cpp:137] Memory required for data: 109475852
I0418 23:59:52.506021 20818 layer_factory.hpp:77] Creating layer relu1_1
I0418 23:59:52.506052 20818 net.cpp:84] Creating Layer relu1_1
I0418 23:59:52.506057 20818 net.cpp:406] relu1_1 <- conv1_1
I0418 23:59:52.506064 20818 net.cpp:367] relu1_1 -> conv1_1 (in-place)
I0418 23:59:52.506254 20818 net.cpp:122] Setting up relu1_1
I0418 23:59:52.506266 20818 net.cpp:129] Top shape: 1 64 710 508 (23083520)
I0418 23:59:52.506269 20818 net.cpp:137] Memory required for data: 201809932
I0418 23:59:52.506273 20818 layer_factory.hpp:77] Creating layer conv1_2
I0418 23:59:52.506283 20818 net.cpp:84] Creating Layer conv1_2
I0418 23:59:52.506302 20818 net.cpp:406] conv1_2 <- conv1_1
I0418 23:59:52.506307 20818 net.cpp:380] conv1_2 -> conv1_2
I0418 23:59:52.516626 20818 net.cpp:122] Setting up conv1_2
I0418 23:59:52.516690 20818 net.cpp:129] Top shape: 1 64 710 508 (23083520)
I0418 23:59:52.516700 20818 net.cpp:137] Memory required for data: 294144012
I0418 23:59:52.516726 20818 layer_factory.hpp:77] Creating layer relu1_2
I0418 23:59:52.516757 20818 net.cpp:84] Creating Layer relu1_2
I0418 23:59:52.516767 20818 net.cpp:406] relu1_2 <- conv1_2
I0418 23:59:52.516779 20818 net.cpp:367] relu1_2 -> conv1_2 (in-place)
I0418 23:59:52.517166 20818 net.cpp:122] Setting up relu1_2
I0418 23:59:52.517199 20818 net.cpp:129] Top shape: 1 64 710 508 (23083520)
I0418 23:59:52.517205 20818 net.cpp:137] Memory required for data: 386478092
I0418 23:59:52.517213 20818 layer_factory.hpp:77] Creating layer pool1
I0418 23:59:52.517238 20818 net.cpp:84] Creating Layer pool1
I0418 23:59:52.517246 20818 net.cpp:406] pool1 <- conv1_2
I0418 23:59:52.517269 20818 net.cpp:380] pool1 -> pool1
I0418 23:59:52.517380 20818 net.cpp:122] Setting up pool1
I0418 23:59:52.517396 20818 net.cpp:129] Top shape: 1 64 355 254 (5770880)
I0418 23:59:52.517402 20818 net.cpp:137] Memory required for data: 409561612
I0418 23:59:52.517410 20818 layer_factory.hpp:77] Creating layer conv2_1
I0418 23:59:52.517431 20818 net.cpp:84] Creating Layer conv2_1
I0418 23:59:52.517438 20818 net.cpp:406] conv2_1 <- pool1
I0418 23:59:52.517451 20818 net.cpp:380] conv2_1 -> conv2_1
I0418 23:59:52.521824 20818 net.cpp:122] Setting up conv2_1
I0418 23:59:52.521865 20818 net.cpp:129] Top shape: 1 128 355 254 (11541760)
I0418 23:59:52.521874 20818 net.cpp:137] Memory required for data: 455728652
I0418 23:59:52.521899 20818 layer_factory.hpp:77] Creating layer relu2_1
I0418 23:59:52.521920 20818 net.cpp:84] Creating Layer relu2_1
I0418 23:59:52.521929 20818 net.cpp:406] relu2_1 <- conv2_1
I0418 23:59:52.521941 20818 net.cpp:367] relu2_1 -> conv2_1 (in-place)
I0418 23:59:52.522364 20818 net.cpp:122] Setting up relu2_1
I0418 23:59:52.522385 20818 net.cpp:129] Top shape: 1 128 355 254 (11541760)
I0418 23:59:52.522393 20818 net.cpp:137] Memory required for data: 501895692
I0418 23:59:52.522402 20818 layer_factory.hpp:77] Creating layer conv2_2
I0418 23:59:52.522423 20818 net.cpp:84] Creating Layer conv2_2
I0418 23:59:52.522430 20818 net.cpp:406] conv2_2 <- conv2_1
I0418 23:59:52.522442 20818 net.cpp:380] conv2_2 -> conv2_2
I0418 23:59:52.527339 20818 net.cpp:122] Setting up conv2_2
I0418 23:59:52.527359 20818 net.cpp:129] Top shape: 1 128 355 254 (11541760)
I0418 23:59:52.527364 20818 net.cpp:137] Memory required for data: 548062732
I0418 23:59:52.527374 20818 layer_factory.hpp:77] Creating layer relu2_2
I0418 23:59:52.527381 20818 net.cpp:84] Creating Layer relu2_2
I0418 23:59:52.527386 20818 net.cpp:406] relu2_2 <- conv2_2
I0418 23:59:52.527392 20818 net.cpp:367] relu2_2 -> conv2_2 (in-place)
I0418 23:59:52.527614 20818 net.cpp:122] Setting up relu2_2
I0418 23:59:52.527627 20818 net.cpp:129] Top shape: 1 128 355 254 (11541760)
I0418 23:59:52.527631 20818 net.cpp:137] Memory required for data: 594229772
I0418 23:59:52.527635 20818 layer_factory.hpp:77] Creating layer pool2
I0418 23:59:52.527644 20818 net.cpp:84] Creating Layer pool2
I0418 23:59:52.527648 20818 net.cpp:406] pool2 <- conv2_2
I0418 23:59:52.527655 20818 net.cpp:380] pool2 -> pool2
I0418 23:59:52.527706 20818 net.cpp:122] Setting up pool2
I0418 23:59:52.527714 20818 net.cpp:129] Top shape: 1 128 178 127 (2893568)
I0418 23:59:52.527719 20818 net.cpp:137] Memory required for data: 605804044
I0418 23:59:52.527722 20818 layer_factory.hpp:77] Creating layer conv3_1
I0418 23:59:52.527731 20818 net.cpp:84] Creating Layer conv3_1
I0418 23:59:52.527740 20818 net.cpp:406] conv3_1 <- pool2
I0418 23:59:52.527746 20818 net.cpp:380] conv3_1 -> conv3_1
I0418 23:59:52.536994 20818 net.cpp:122] Setting up conv3_1
I0418 23:59:52.537039 20818 net.cpp:129] Top shape: 1 256 178 127 (5787136)
I0418 23:59:52.537048 20818 net.cpp:137] Memory required for data: 628952588
I0418 23:59:52.537071 20818 layer_factory.hpp:77] Creating layer relu3_1
I0418 23:59:52.537096 20818 net.cpp:84] Creating Layer relu3_1
I0418 23:59:52.537104 20818 net.cpp:406] relu3_1 <- conv3_1
I0418 23:59:52.537117 20818 net.cpp:367] relu3_1 -> conv3_1 (in-place)
I0418 23:59:52.539142 20818 net.cpp:122] Setting up relu3_1
I0418 23:59:52.539173 20818 net.cpp:129] Top shape: 1 256 178 127 (5787136)
I0418 23:59:52.539182 20818 net.cpp:137] Memory required for data: 652101132
I0418 23:59:52.539191 20818 layer_factory.hpp:77] Creating layer conv3_2
I0418 23:59:52.539211 20818 net.cpp:84] Creating Layer conv3_2
I0418 23:59:52.539219 20818 net.cpp:406] conv3_2 <- conv3_1
I0418 23:59:52.539234 20818 net.cpp:380] conv3_2 -> conv3_2
I0418 23:59:52.544790 20818 net.cpp:122] Setting up conv3_2
I0418 23:59:52.544831 20818 net.cpp:129] Top shape: 1 256 178 127 (5787136)
I0418 23:59:52.544838 20818 net.cpp:137] Memory required for data: 675249676
I0418 23:59:52.544862 20818 layer_factory.hpp:77] Creating layer relu3_2
I0418 23:59:52.544890 20818 net.cpp:84] Creating Layer relu3_2
I0418 23:59:52.544899 20818 net.cpp:406] relu3_2 <- conv3_2
I0418 23:59:52.544910 20818 net.cpp:367] relu3_2 -> conv3_2 (in-place)
I0418 23:59:52.545922 20818 net.cpp:122] Setting up relu3_2
I0418 23:59:52.545951 20818 net.cpp:129] Top shape: 1 256 178 127 (5787136)
I0418 23:59:52.545958 20818 net.cpp:137] Memory required for data: 698398220
I0418 23:59:52.545966 20818 layer_factory.hpp:77] Creating layer conv3_3
I0418 23:59:52.545986 20818 net.cpp:84] Creating Layer conv3_3
I0418 23:59:52.545994 20818 net.cpp:406] conv3_3 <- conv3_2
I0418 23:59:52.546020 20818 net.cpp:380] conv3_3 -> conv3_3
I0418 23:59:52.556788 20818 net.cpp:122] Setting up conv3_3
I0418 23:59:52.556833 20818 net.cpp:129] Top shape: 1 256 178 127 (5787136)
I0418 23:59:52.556839 20818 net.cpp:137] Memory required for data: 721546764
I0418 23:59:52.556854 20818 layer_factory.hpp:77] Creating layer relu3_3
I0418 23:59:52.556867 20818 net.cpp:84] Creating Layer relu3_3
I0418 23:59:52.556874 20818 net.cpp:406] relu3_3 <- conv3_3
I0418 23:59:52.556896 20818 net.cpp:367] relu3_3 -> conv3_3 (in-place)
I0418 23:59:52.557255 20818 net.cpp:122] Setting up relu3_3
I0418 23:59:52.557271 20818 net.cpp:129] Top shape: 1 256 178 127 (5787136)
I0418 23:59:52.557278 20818 net.cpp:137] Memory required for data: 744695308
I0418 23:59:52.557286 20818 layer_factory.hpp:77] Creating layer pool3
I0418 23:59:52.557297 20818 net.cpp:84] Creating Layer pool3
I0418 23:59:52.557305 20818 net.cpp:406] pool3 <- conv3_3
I0418 23:59:52.557318 20818 net.cpp:380] pool3 -> pool3
I0418 23:59:52.557396 20818 net.cpp:122] Setting up pool3
I0418 23:59:52.557415 20818 net.cpp:129] Top shape: 1 256 89 64 (1458176)
I0418 23:59:52.557420 20818 net.cpp:137] Memory required for data: 750528012
I0418 23:59:52.557425 20818 layer_factory.hpp:77] Creating layer pool3_pool3_0_split
I0418 23:59:52.557435 20818 net.cpp:84] Creating Layer pool3_pool3_0_split
I0418 23:59:52.557441 20818 net.cpp:406] pool3_pool3_0_split <- pool3
I0418 23:59:52.557451 20818 net.cpp:380] pool3_pool3_0_split -> pool3_pool3_0_split_0
I0418 23:59:52.557459 20818 net.cpp:380] pool3_pool3_0_split -> pool3_pool3_0_split_1
I0418 23:59:52.557524 20818 net.cpp:122] Setting up pool3_pool3_0_split
I0418 23:59:52.557538 20818 net.cpp:129] Top shape: 1 256 89 64 (1458176)
I0418 23:59:52.557544 20818 net.cpp:129] Top shape: 1 256 89 64 (1458176)
I0418 23:59:52.557551 20818 net.cpp:137] Memory required for data: 762193420
I0418 23:59:52.557556 20818 layer_factory.hpp:77] Creating layer conv4_1
I0418 23:59:52.557574 20818 net.cpp:84] Creating Layer conv4_1
I0418 23:59:52.557579 20818 net.cpp:406] conv4_1 <- pool3_pool3_0_split_0
I0418 23:59:52.557592 20818 net.cpp:380] conv4_1 -> conv4_1
I0418 23:59:52.567488 20818 net.cpp:122] Setting up conv4_1
I0418 23:59:52.567522 20818 net.cpp:129] Top shape: 1 512 89 64 (2916352)
I0418 23:59:52.567526 20818 net.cpp:137] Memory required for data: 773858828
I0418 23:59:52.567536 20818 layer_factory.hpp:77] Creating layer relu4_1
I0418 23:59:52.567549 20818 net.cpp:84] Creating Layer relu4_1
I0418 23:59:52.567554 20818 net.cpp:406] relu4_1 <- conv4_1
I0418 23:59:52.567562 20818 net.cpp:367] relu4_1 -> conv4_1 (in-place)
I0418 23:59:52.567816 20818 net.cpp:122] Setting up relu4_1
I0418 23:59:52.567827 20818 net.cpp:129] Top shape: 1 512 89 64 (2916352)
I0418 23:59:52.567832 20818 net.cpp:137] Memory required for data: 785524236
I0418 23:59:52.567836 20818 layer_factory.hpp:77] Creating layer conv4_2
I0418 23:59:52.567848 20818 net.cpp:84] Creating Layer conv4_2
I0418 23:59:52.567853 20818 net.cpp:406] conv4_2 <- conv4_1
I0418 23:59:52.567862 20818 net.cpp:380] conv4_2 -> conv4_2
I0418 23:59:52.576900 20818 net.cpp:122] Setting up conv4_2
I0418 23:59:52.576930 20818 net.cpp:129] Top shape: 1 512 89 64 (2916352)
I0418 23:59:52.576934 20818 net.cpp:137] Memory required for data: 797189644
I0418 23:59:52.576953 20818 layer_factory.hpp:77] Creating layer relu4_2
I0418 23:59:52.576964 20818 net.cpp:84] Creating Layer relu4_2
I0418 23:59:52.576969 20818 net.cpp:406] relu4_2 <- conv4_2
I0418 23:59:52.576977 20818 net.cpp:367] relu4_2 -> conv4_2 (in-place)
I0418 23:59:52.577216 20818 net.cpp:122] Setting up relu4_2
I0418 23:59:52.577239 20818 net.cpp:129] Top shape: 1 512 89 64 (2916352)
I0418 23:59:52.577244 20818 net.cpp:137] Memory required for data: 808855052
I0418 23:59:52.577249 20818 layer_factory.hpp:77] Creating layer conv4_3
I0418 23:59:52.577261 20818 net.cpp:84] Creating Layer conv4_3
I0418 23:59:52.577265 20818 net.cpp:406] conv4_3 <- conv4_2
I0418 23:59:52.577275 20818 net.cpp:380] conv4_3 -> conv4_3
I0418 23:59:52.585958 20818 net.cpp:122] Setting up conv4_3
I0418 23:59:52.585978 20818 net.cpp:129] Top shape: 1 512 89 64 (2916352)
I0418 23:59:52.585991 20818 net.cpp:137] Memory required for data: 820520460
I0418 23:59:52.586000 20818 layer_factory.hpp:77] Creating layer relu4_3
I0418 23:59:52.586009 20818 net.cpp:84] Creating Layer relu4_3
I0418 23:59:52.586014 20818 net.cpp:406] relu4_3 <- conv4_3
I0418 23:59:52.586024 20818 net.cpp:367] relu4_3 -> conv4_3 (in-place)
I0418 23:59:52.586274 20818 net.cpp:122] Setting up relu4_3
I0418 23:59:52.586287 20818 net.cpp:129] Top shape: 1 512 89 64 (2916352)
I0418 23:59:52.586290 20818 net.cpp:137] Memory required for data: 832185868
I0418 23:59:52.586295 20818 layer_factory.hpp:77] Creating layer pool4
I0418 23:59:52.586305 20818 net.cpp:84] Creating Layer pool4
I0418 23:59:52.586310 20818 net.cpp:406] pool4 <- conv4_3
I0418 23:59:52.586319 20818 net.cpp:380] pool4 -> pool4
I0418 23:59:52.586375 20818 net.cpp:122] Setting up pool4
I0418 23:59:52.586387 20818 net.cpp:129] Top shape: 1 512 45 32 (737280)
I0418 23:59:52.586391 20818 net.cpp:137] Memory required for data: 835134988
I0418 23:59:52.586395 20818 layer_factory.hpp:77] Creating layer pool4_pool4_0_split
I0418 23:59:52.586402 20818 net.cpp:84] Creating Layer pool4_pool4_0_split
I0418 23:59:52.586406 20818 net.cpp:406] pool4_pool4_0_split <- pool4
I0418 23:59:52.586412 20818 net.cpp:380] pool4_pool4_0_split -> pool4_pool4_0_split_0
I0418 23:59:52.586419 20818 net.cpp:380] pool4_pool4_0_split -> pool4_pool4_0_split_1
I0418 23:59:52.586465 20818 net.cpp:122] Setting up pool4_pool4_0_split
I0418 23:59:52.586474 20818 net.cpp:129] Top shape: 1 512 45 32 (737280)
I0418 23:59:52.586479 20818 net.cpp:129] Top shape: 1 512 45 32 (737280)
I0418 23:59:52.586483 20818 net.cpp:137] Memory required for data: 841033228
I0418 23:59:52.586486 20818 layer_factory.hpp:77] Creating layer conv5_1
I0418 23:59:52.586504 20818 net.cpp:84] Creating Layer conv5_1
I0418 23:59:52.586509 20818 net.cpp:406] conv5_1 <- pool4_pool4_0_split_0
I0418 23:59:52.586519 20818 net.cpp:380] conv5_1 -> conv5_1
I0418 23:59:52.607636 20818 net.cpp:122] Setting up conv5_1
I0418 23:59:52.607697 20818 net.cpp:129] Top shape: 1 512 45 32 (737280)
I0418 23:59:52.607705 20818 net.cpp:137] Memory required for data: 843982348
I0418 23:59:52.607722 20818 layer_factory.hpp:77] Creating layer relu5_1
I0418 23:59:52.607740 20818 net.cpp:84] Creating Layer relu5_1
I0418 23:59:52.607750 20818 net.cpp:406] relu5_1 <- conv5_1
I0418 23:59:52.607766 20818 net.cpp:367] relu5_1 -> conv5_1 (in-place)
I0418 23:59:52.609026 20818 net.cpp:122] Setting up relu5_1
I0418 23:59:52.609064 20818 net.cpp:129] Top shape: 1 512 45 32 (737280)
I0418 23:59:52.609072 20818 net.cpp:137] Memory required for data: 846931468
I0418 23:59:52.609079 20818 layer_factory.hpp:77] Creating layer conv5_2
I0418 23:59:52.609102 20818 net.cpp:84] Creating Layer conv5_2
I0418 23:59:52.609109 20818 net.cpp:406] conv5_2 <- conv5_1
I0418 23:59:52.609125 20818 net.cpp:380] conv5_2 -> conv5_2
I0418 23:59:52.621549 20818 net.cpp:122] Setting up conv5_2
I0418 23:59:52.621595 20818 net.cpp:129] Top shape: 1 512 45 32 (737280)
I0418 23:59:52.621603 20818 net.cpp:137] Memory required for data: 849880588
I0418 23:59:52.621618 20818 layer_factory.hpp:77] Creating layer relu5_2
I0418 23:59:52.621644 20818 net.cpp:84] Creating Layer relu5_2
I0418 23:59:52.621652 20818 net.cpp:406] relu5_2 <- conv5_2
I0418 23:59:52.621664 20818 net.cpp:367] relu5_2 -> conv5_2 (in-place)
I0418 23:59:52.622781 20818 net.cpp:122] Setting up relu5_2
I0418 23:59:52.622798 20818 net.cpp:129] Top shape: 1 512 45 32 (737280)
I0418 23:59:52.622814 20818 net.cpp:137] Memory required for data: 852829708
I0418 23:59:52.622818 20818 layer_factory.hpp:77] Creating layer conv5_3
I0418 23:59:52.622831 20818 net.cpp:84] Creating Layer conv5_3
I0418 23:59:52.622836 20818 net.cpp:406] conv5_3 <- conv5_2
I0418 23:59:52.622845 20818 net.cpp:380] conv5_3 -> conv5_3
I0418 23:59:52.632910 20818 net.cpp:122] Setting up conv5_3
I0418 23:59:52.632936 20818 net.cpp:129] Top shape: 1 512 45 32 (737280)
I0418 23:59:52.632941 20818 net.cpp:137] Memory required for data: 855778828
I0418 23:59:52.632951 20818 layer_factory.hpp:77] Creating layer relu5_3
I0418 23:59:52.632959 20818 net.cpp:84] Creating Layer relu5_3
I0418 23:59:52.632966 20818 net.cpp:406] relu5_3 <- conv5_3
I0418 23:59:52.632972 20818 net.cpp:367] relu5_3 -> conv5_3 (in-place)
I0418 23:59:52.633213 20818 net.cpp:122] Setting up relu5_3
I0418 23:59:52.633244 20818 net.cpp:129] Top shape: 1 512 45 32 (737280)
I0418 23:59:52.633249 20818 net.cpp:137] Memory required for data: 858727948
I0418 23:59:52.633255 20818 layer_factory.hpp:77] Creating layer pool5
I0418 23:59:52.633281 20818 net.cpp:84] Creating Layer pool5
I0418 23:59:52.633287 20818 net.cpp:406] pool5 <- conv5_3
I0418 23:59:52.633294 20818 net.cpp:380] pool5 -> pool5
I0418 23:59:52.633355 20818 net.cpp:122] Setting up pool5
I0418 23:59:52.633363 20818 net.cpp:129] Top shape: 1 512 23 16 (188416)
I0418 23:59:52.633368 20818 net.cpp:137] Memory required for data: 859481612
I0418 23:59:52.633373 20818 layer_factory.hpp:77] Creating layer fc6
I0418 23:59:52.633384 20818 net.cpp:84] Creating Layer fc6
I0418 23:59:52.633390 20818 net.cpp:406] fc6 <- pool5
I0418 23:59:52.633399 20818 net.cpp:380] fc6 -> fc6
I0418 23:59:52.975805 20818 net.cpp:122] Setting up fc6
I0418 23:59:52.975855 20818 net.cpp:129] Top shape: 1 4096 17 10 (696320)
I0418 23:59:52.975860 20818 net.cpp:137] Memory required for data: 862266892
I0418 23:59:52.975881 20818 layer_factory.hpp:77] Creating layer relu6
I0418 23:59:52.975904 20818 net.cpp:84] Creating Layer relu6
I0418 23:59:52.975913 20818 net.cpp:406] relu6 <- fc6
I0418 23:59:52.975941 20818 net.cpp:367] relu6 -> fc6 (in-place)
I0418 23:59:52.976227 20818 net.cpp:122] Setting up relu6
I0418 23:59:52.976243 20818 net.cpp:129] Top shape: 1 4096 17 10 (696320)
I0418 23:59:52.976248 20818 net.cpp:137] Memory required for data: 865052172
I0418 23:59:52.976253 20818 layer_factory.hpp:77] Creating layer drop6
I0418 23:59:52.976272 20818 net.cpp:84] Creating Layer drop6
I0418 23:59:52.976277 20818 net.cpp:406] drop6 <- fc6
I0418 23:59:52.976287 20818 net.cpp:367] drop6 -> fc6 (in-place)
I0418 23:59:52.976328 20818 net.cpp:122] Setting up drop6
I0418 23:59:52.976339 20818 net.cpp:129] Top shape: 1 4096 17 10 (696320)
I0418 23:59:52.976344 20818 net.cpp:137] Memory required for data: 867837452
I0418 23:59:52.976348 20818 layer_factory.hpp:77] Creating layer fc7
I0418 23:59:52.976371 20818 net.cpp:84] Creating Layer fc7
I0418 23:59:52.976375 20818 net.cpp:406] fc7 <- fc6
I0418 23:59:52.976382 20818 net.cpp:380] fc7 -> fc7
I0418 23:59:53.033931 20818 net.cpp:122] Setting up fc7
I0418 23:59:53.033973 20818 net.cpp:129] Top shape: 1 4096 17 10 (696320)
I0418 23:59:53.033979 20818 net.cpp:137] Memory required for data: 870622732
I0418 23:59:53.033998 20818 layer_factory.hpp:77] Creating layer relu7
I0418 23:59:53.034014 20818 net.cpp:84] Creating Layer relu7
I0418 23:59:53.034021 20818 net.cpp:406] relu7 <- fc7
I0418 23:59:53.034030 20818 net.cpp:367] relu7 -> fc7 (in-place)
I0418 23:59:53.034327 20818 net.cpp:122] Setting up relu7
I0418 23:59:53.034344 20818 net.cpp:129] Top shape: 1 4096 17 10 (696320)
I0418 23:59:53.034349 20818 net.cpp:137] Memory required for data: 873408012
I0418 23:59:53.034354 20818 layer_factory.hpp:77] Creating layer drop7
I0418 23:59:53.034368 20818 net.cpp:84] Creating Layer drop7
I0418 23:59:53.034373 20818 net.cpp:406] drop7 <- fc7
I0418 23:59:53.034379 20818 net.cpp:367] drop7 -> fc7 (in-place)
I0418 23:59:53.034421 20818 net.cpp:122] Setting up drop7
I0418 23:59:53.034431 20818 net.cpp:129] Top shape: 1 4096 17 10 (696320)
I0418 23:59:53.034436 20818 net.cpp:137] Memory required for data: 876193292
I0418 23:59:53.034441 20818 layer_factory.hpp:77] Creating layer score_fr-new
I0418 23:59:53.034454 20818 net.cpp:84] Creating Layer score_fr-new
I0418 23:59:53.034474 20818 net.cpp:406] score_fr-new <- fc7
I0418 23:59:53.034488 20818 net.cpp:380] score_fr-new -> score_fr-new
I0418 23:59:53.037297 20818 net.cpp:122] Setting up score_fr-new
I0418 23:59:53.037329 20818 net.cpp:129] Top shape: 1 3 17 10 (510)
I0418 23:59:53.037335 20818 net.cpp:137] Memory required for data: 876195332
I0418 23:59:53.037345 20818 layer_factory.hpp:77] Creating layer upscore2-new
I0418 23:59:53.037367 20818 net.cpp:84] Creating Layer upscore2-new
I0418 23:59:53.037374 20818 net.cpp:406] upscore2-new <- score_fr-new
I0418 23:59:53.037381 20818 net.cpp:380] upscore2-new -> upscore2-new
I0418 23:59:53.037660 20818 net.cpp:122] Setting up upscore2-new
I0418 23:59:53.037674 20818 net.cpp:129] Top shape: 1 3 36 22 (2376)
I0418 23:59:53.037678 20818 net.cpp:137] Memory required for data: 876204836
I0418 23:59:53.037716 20818 layer_factory.hpp:77] Creating layer upscore2-new_upscore2-new_0_split
I0418 23:59:53.037734 20818 net.cpp:84] Creating Layer upscore2-new_upscore2-new_0_split
I0418 23:59:53.037739 20818 net.cpp:406] upscore2-new_upscore2-new_0_split <- upscore2-new
I0418 23:59:53.037745 20818 net.cpp:380] upscore2-new_upscore2-new_0_split -> upscore2-new_upscore2-new_0_split_0
I0418 23:59:53.037755 20818 net.cpp:380] upscore2-new_upscore2-new_0_split -> upscore2-new_upscore2-new_0_split_1
I0418 23:59:53.037809 20818 net.cpp:122] Setting up upscore2-new_upscore2-new_0_split
I0418 23:59:53.037822 20818 net.cpp:129] Top shape: 1 3 36 22 (2376)
I0418 23:59:53.037827 20818 net.cpp:129] Top shape: 1 3 36 22 (2376)
I0418 23:59:53.037832 20818 net.cpp:137] Memory required for data: 876223844
I0418 23:59:53.037837 20818 layer_factory.hpp:77] Creating layer score_pool4-new
I0418 23:59:53.037850 20818 net.cpp:84] Creating Layer score_pool4-new
I0418 23:59:53.037855 20818 net.cpp:406] score_pool4-new <- pool4_pool4_0_split_1
I0418 23:59:53.037865 20818 net.cpp:380] score_pool4-new -> score_pool4-new
I0418 23:59:53.039507 20818 net.cpp:122] Setting up score_pool4-new
I0418 23:59:53.039551 20818 net.cpp:129] Top shape: 1 3 45 32 (4320)
I0418 23:59:53.039556 20818 net.cpp:137] Memory required for data: 876241124
I0418 23:59:53.039566 20818 layer_factory.hpp:77] Creating layer score_pool4c
I0418 23:59:53.039582 20818 net.cpp:84] Creating Layer score_pool4c
I0418 23:59:53.039587 20818 net.cpp:406] score_pool4c <- score_pool4-new
I0418 23:59:53.039593 20818 net.cpp:406] score_pool4c <- upscore2-new_upscore2-new_0_split_0
I0418 23:59:53.039602 20818 net.cpp:380] score_pool4c -> score_pool4c
I0418 23:59:53.039645 20818 net.cpp:122] Setting up score_pool4c
I0418 23:59:53.039654 20818 net.cpp:129] Top shape: 1 3 36 22 (2376)
I0418 23:59:53.039659 20818 net.cpp:137] Memory required for data: 876250628
I0418 23:59:53.039664 20818 layer_factory.hpp:77] Creating layer fuse_pool4
I0418 23:59:53.039674 20818 net.cpp:84] Creating Layer fuse_pool4
I0418 23:59:53.039680 20818 net.cpp:406] fuse_pool4 <- upscore2-new_upscore2-new_0_split_1
I0418 23:59:53.039685 20818 net.cpp:406] fuse_pool4 <- score_pool4c
I0418 23:59:53.039695 20818 net.cpp:380] fuse_pool4 -> fuse_pool4
I0418 23:59:53.039732 20818 net.cpp:122] Setting up fuse_pool4
I0418 23:59:53.039741 20818 net.cpp:129] Top shape: 1 3 36 22 (2376)
I0418 23:59:53.039744 20818 net.cpp:137] Memory required for data: 876260132
I0418 23:59:53.039748 20818 layer_factory.hpp:77] Creating layer upscore_pool4-new
I0418 23:59:53.039757 20818 net.cpp:84] Creating Layer upscore_pool4-new
I0418 23:59:53.039762 20818 net.cpp:406] upscore_pool4-new <- fuse_pool4
I0418 23:59:53.039772 20818 net.cpp:380] upscore_pool4-new -> upscore_pool4-new
I0418 23:59:53.040032 20818 net.cpp:122] Setting up upscore_pool4-new
I0418 23:59:53.040045 20818 net.cpp:129] Top shape: 1 3 74 46 (10212)
I0418 23:59:53.040050 20818 net.cpp:137] Memory required for data: 876300980
I0418 23:59:53.040056 20818 layer_factory.hpp:77] Creating layer upscore_pool4-new_upscore_pool4-new_0_split
I0418 23:59:53.040063 20818 net.cpp:84] Creating Layer upscore_pool4-new_upscore_pool4-new_0_split
I0418 23:59:53.040068 20818 net.cpp:406] upscore_pool4-new_upscore_pool4-new_0_split <- upscore_pool4-new
I0418 23:59:53.040076 20818 net.cpp:380] upscore_pool4-new_upscore_pool4-new_0_split -> upscore_pool4-new_upscore_pool4-new_0_split_0
I0418 23:59:53.040083 20818 net.cpp:380] upscore_pool4-new_upscore_pool4-new_0_split -> upscore_pool4-new_upscore_pool4-new_0_split_1
I0418 23:59:53.040130 20818 net.cpp:122] Setting up upscore_pool4-new_upscore_pool4-new_0_split
I0418 23:59:53.040145 20818 net.cpp:129] Top shape: 1 3 74 46 (10212)
I0418 23:59:53.040151 20818 net.cpp:129] Top shape: 1 3 74 46 (10212)
I0418 23:59:53.040156 20818 net.cpp:137] Memory required for data: 876382676
I0418 23:59:53.040160 20818 layer_factory.hpp:77] Creating layer score_pool3-new
I0418 23:59:53.040174 20818 net.cpp:84] Creating Layer score_pool3-new
I0418 23:59:53.040179 20818 net.cpp:406] score_pool3-new <- pool3_pool3_0_split_1
I0418 23:59:53.040186 20818 net.cpp:380] score_pool3-new -> score_pool3-new
I0418 23:59:53.046751 20818 net.cpp:122] Setting up score_pool3-new
I0418 23:59:53.046785 20818 net.cpp:129] Top shape: 1 3 89 64 (17088)
I0418 23:59:53.046790 20818 net.cpp:137] Memory required for data: 876451028
I0418 23:59:53.046802 20818 layer_factory.hpp:77] Creating layer score_pool3c
I0418 23:59:53.046813 20818 net.cpp:84] Creating Layer score_pool3c
I0418 23:59:53.046819 20818 net.cpp:406] score_pool3c <- score_pool3-new
I0418 23:59:53.046826 20818 net.cpp:406] score_pool3c <- upscore_pool4-new_upscore_pool4-new_0_split_0
I0418 23:59:53.046838 20818 net.cpp:380] score_pool3c -> score_pool3c
I0418 23:59:53.046875 20818 net.cpp:122] Setting up score_pool3c
I0418 23:59:53.046883 20818 net.cpp:129] Top shape: 1 3 74 46 (10212)
I0418 23:59:53.046887 20818 net.cpp:137] Memory required for data: 876491876
I0418 23:59:53.046892 20818 layer_factory.hpp:77] Creating layer fuse_pool3
I0418 23:59:53.046907 20818 net.cpp:84] Creating Layer fuse_pool3
I0418 23:59:53.046912 20818 net.cpp:406] fuse_pool3 <- upscore_pool4-new_upscore_pool4-new_0_split_1
I0418 23:59:53.046919 20818 net.cpp:406] fuse_pool3 <- score_pool3c
I0418 23:59:53.046926 20818 net.cpp:380] fuse_pool3 -> fuse_pool3
I0418 23:59:53.046960 20818 net.cpp:122] Setting up fuse_pool3
I0418 23:59:53.046967 20818 net.cpp:129] Top shape: 1 3 74 46 (10212)
I0418 23:59:53.046972 20818 net.cpp:137] Memory required for data: 876532724
I0418 23:59:53.046977 20818 layer_factory.hpp:77] Creating layer upscore8-new
I0418 23:59:53.046988 20818 net.cpp:84] Creating Layer upscore8-new
I0418 23:59:53.046993 20818 net.cpp:406] upscore8-new <- fuse_pool3
I0418 23:59:53.046999 20818 net.cpp:380] upscore8-new -> upscore8-new
I0418 23:59:53.047268 20818 net.cpp:122] Setting up upscore8-new
I0418 23:59:53.047281 20818 net.cpp:129] Top shape: 1 3 600 376 (676800)
I0418 23:59:53.047286 20818 net.cpp:137] Memory required for data: 879239924
I0418 23:59:53.047292 20818 layer_factory.hpp:77] Creating layer upscore8_cropped
I0418 23:59:53.047302 20818 net.cpp:84] Creating Layer upscore8_cropped
I0418 23:59:53.047307 20818 net.cpp:406] upscore8_cropped <- upscore8-new
I0418 23:59:53.047323 20818 net.cpp:406] upscore8_cropped <- data_data_0_split_1
I0418 23:59:53.047330 20818 net.cpp:380] upscore8_cropped -> upscore8_cropped
I0418 23:59:53.047364 20818 net.cpp:122] Setting up upscore8_cropped
I0418 23:59:53.047372 20818 net.cpp:129] Top shape: 1 3 512 310 (476160)
I0418 23:59:53.047377 20818 net.cpp:137] Memory required for data: 881144564
I0418 23:59:53.047382 20818 layer_factory.hpp:77] Creating layer score
I0418 23:59:53.047394 20818 net.cpp:84] Creating Layer score
I0418 23:59:53.047399 20818 net.cpp:406] score <- upscore8_cropped
I0418 23:59:53.047410 20818 net.cpp:380] score -> score
I0418 23:59:53.050295 20818 net.cpp:122] Setting up score
I0418 23:59:53.050329 20818 net.cpp:129] Top shape: 1 3 512 310 (476160)
I0418 23:59:53.050335 20818 net.cpp:137] Memory required for data: 883049204
I0418 23:59:53.050344 20818 layer_factory.hpp:77] Creating layer score_score_0_split
I0418 23:59:53.050355 20818 net.cpp:84] Creating Layer score_score_0_split
I0418 23:59:53.050360 20818 net.cpp:406] score_score_0_split <- score
I0418 23:59:53.050369 20818 net.cpp:380] score_score_0_split -> score_score_0_split_0
I0418 23:59:53.050380 20818 net.cpp:380] score_score_0_split -> score_score_0_split_1
I0418 23:59:53.050439 20818 net.cpp:122] Setting up score_score_0_split
I0418 23:59:53.050447 20818 net.cpp:129] Top shape: 1 3 512 310 (476160)
I0418 23:59:53.050453 20818 net.cpp:129] Top shape: 1 3 512 310 (476160)
I0418 23:59:53.050458 20818 net.cpp:137] Memory required for data: 886858484
I0418 23:59:53.050462 20818 layer_factory.hpp:77] Creating layer prob
I0418 23:59:53.050472 20818 net.cpp:84] Creating Layer prob
I0418 23:59:53.050477 20818 net.cpp:406] prob <- score_score_0_split_0
I0418 23:59:53.050484 20818 net.cpp:380] prob -> prob
I0418 23:59:53.050766 20818 net.cpp:122] Setting up prob
I0418 23:59:53.050782 20818 net.cpp:129] Top shape: 1 3 512 310 (476160)
I0418 23:59:53.050787 20818 net.cpp:137] Memory required for data: 888763124
I0418 23:59:53.050792 20818 layer_factory.hpp:77] Creating layer saliency
I0418 23:59:53.050809 20818 net.cpp:84] Creating Layer saliency
I0418 23:59:53.050814 20818 net.cpp:406] saliency <- prob
I0418 23:59:53.050827 20818 net.cpp:380] saliency -> saliency
I0418 23:59:53.056272 20818 net.cpp:122] Setting up saliency
I0418 23:59:53.056305 20818 net.cpp:129] Top shape: 1 3 512 310 (476160)
I0418 23:59:53.056310 20818 net.cpp:137] Memory required for data: 890667764
I0418 23:59:53.056322 20818 layer_factory.hpp:77] Creating layer silence_saliency
I0418 23:59:53.056334 20818 net.cpp:84] Creating Layer silence_saliency
I0418 23:59:53.056339 20818 net.cpp:406] silence_saliency <- saliency
I0418 23:59:53.056349 20818 net.cpp:122] Setting up silence_saliency
I0418 23:59:53.056352 20818 net.cpp:137] Memory required for data: 890667764
I0418 23:59:53.056357 20818 layer_factory.hpp:77] Creating layer crop
I0418 23:59:53.057313 20818 net.cpp:84] Creating Layer crop
I0418 23:59:53.057327 20818 net.cpp:406] crop <- label_data_1_split_0
I0418 23:59:53.057349 20818 net.cpp:406] crop <- data_data_0_split_2
I0418 23:59:53.057356 20818 net.cpp:406] crop <- crop_margin
I0418 23:59:53.057363 20818 net.cpp:406] crop <- crop_prob
I0418 23:59:53.057368 20818 net.cpp:406] crop <- crop_sample_batch
I0418 23:59:53.057376 20818 net.cpp:380] crop -> data-R
I0418 23:59:53.057386 20818 net.cpp:380] crop -> crop_info
I0418 23:59:53.065955 20818 net.cpp:122] Setting up crop
I0418 23:59:53.065994 20818 net.cpp:129] Top shape: 1 3 512 310 (476160)
I0418 23:59:53.066004 20818 net.cpp:129] Top shape: 1 2 4 (8)
I0418 23:59:53.066009 20818 net.cpp:137] Memory required for data: 892572436
I0418 23:59:53.066015 20818 layer_factory.hpp:77] Creating layer data-R_crop_0_split
I0418 23:59:53.066025 20818 net.cpp:84] Creating Layer data-R_crop_0_split
I0418 23:59:53.066030 20818 net.cpp:406] data-R_crop_0_split <- data-R
I0418 23:59:53.066040 20818 net.cpp:380] data-R_crop_0_split -> data-R_crop_0_split_0
I0418 23:59:53.066049 20818 net.cpp:380] data-R_crop_0_split -> data-R_crop_0_split_1
I0418 23:59:53.066112 20818 net.cpp:122] Setting up data-R_crop_0_split
I0418 23:59:53.066148 20818 net.cpp:129] Top shape: 1 3 512 310 (476160)
I0418 23:59:53.066154 20818 net.cpp:129] Top shape: 1 3 512 310 (476160)
I0418 23:59:53.066159 20818 net.cpp:137] Memory required for data: 896381716
I0418 23:59:53.066192 20818 layer_factory.hpp:77] Creating layer conv1_1-R
I0418 23:59:53.066206 20818 net.cpp:84] Creating Layer conv1_1-R
I0418 23:59:53.066212 20818 net.cpp:406] conv1_1-R <- data-R_crop_0_split_0
I0418 23:59:53.066231 20818 net.cpp:380] conv1_1-R -> conv1_1-R
I0418 23:59:53.070673 20818 net.cpp:122] Setting up conv1_1-R
I0418 23:59:53.070708 20818 net.cpp:129] Top shape: 1 64 710 508 (23083520)
I0418 23:59:53.070713 20818 net.cpp:137] Memory required for data: 988715796
I0418 23:59:53.070727 20818 layer_factory.hpp:77] Creating layer relu1_1-R
I0418 23:59:53.070737 20818 net.cpp:84] Creating Layer relu1_1-R
I0418 23:59:53.070744 20818 net.cpp:406] relu1_1-R <- conv1_1-R
I0418 23:59:53.070750 20818 net.cpp:367] relu1_1-R -> conv1_1-R (in-place)
I0418 23:59:53.070998 20818 net.cpp:122] Setting up relu1_1-R
I0418 23:59:53.071012 20818 net.cpp:129] Top shape: 1 64 710 508 (23083520)
I0418 23:59:53.071018 20818 net.cpp:137] Memory required for data: 1081049876
I0418 23:59:53.071023 20818 layer_factory.hpp:77] Creating layer conv1_2-R
I0418 23:59:53.071086 20818 net.cpp:84] Creating Layer conv1_2-R
I0418 23:59:53.071095 20818 net.cpp:406] conv1_2-R <- conv1_1-R
I0418 23:59:53.071104 20818 net.cpp:380] conv1_2-R -> conv1_2-R
I0418 23:59:53.074626 20818 net.cpp:122] Setting up conv1_2-R
I0418 23:59:53.074661 20818 net.cpp:129] Top shape: 1 64 710 508 (23083520)
I0418 23:59:53.074666 20818 net.cpp:137] Memory required for data: 1173383956
I0418 23:59:53.074676 20818 layer_factory.hpp:77] Creating layer relu1_2-R
I0418 23:59:53.074684 20818 net.cpp:84] Creating Layer relu1_2-R
I0418 23:59:53.074690 20818 net.cpp:406] relu1_2-R <- conv1_2-R
I0418 23:59:53.074697 20818 net.cpp:367] relu1_2-R -> conv1_2-R (in-place)
I0418 23:59:53.074936 20818 net.cpp:122] Setting up relu1_2-R
I0418 23:59:53.074951 20818 net.cpp:129] Top shape: 1 64 710 508 (23083520)
I0418 23:59:53.074956 20818 net.cpp:137] Memory required for data: 1265718036
I0418 23:59:53.074961 20818 layer_factory.hpp:77] Creating layer pool1-R
I0418 23:59:53.074975 20818 net.cpp:84] Creating Layer pool1-R
I0418 23:59:53.074980 20818 net.cpp:406] pool1-R <- conv1_2-R
I0418 23:59:53.074988 20818 net.cpp:380] pool1-R -> pool1-R
I0418 23:59:53.075050 20818 net.cpp:122] Setting up pool1-R
I0418 23:59:53.075062 20818 net.cpp:129] Top shape: 1 64 355 254 (5770880)
I0418 23:59:53.075067 20818 net.cpp:137] Memory required for data: 1288801556
I0418 23:59:53.075073 20818 layer_factory.hpp:77] Creating layer conv2_1-R
I0418 23:59:53.075083 20818 net.cpp:84] Creating Layer conv2_1-R
I0418 23:59:53.075088 20818 net.cpp:406] conv2_1-R <- pool1-R
I0418 23:59:53.075096 20818 net.cpp:380] conv2_1-R -> conv2_1-R
I0418 23:59:53.077260 20818 net.cpp:122] Setting up conv2_1-R
I0418 23:59:53.077292 20818 net.cpp:129] Top shape: 1 128 355 254 (11541760)
I0418 23:59:53.077297 20818 net.cpp:137] Memory required for data: 1334968596
I0418 23:59:53.077307 20818 layer_factory.hpp:77] Creating layer relu2_1-R
I0418 23:59:53.077316 20818 net.cpp:84] Creating Layer relu2_1-R
I0418 23:59:53.077322 20818 net.cpp:406] relu2_1-R <- conv2_1-R
I0418 23:59:53.077329 20818 net.cpp:367] relu2_1-R -> conv2_1-R (in-place)
I0418 23:59:53.077569 20818 net.cpp:122] Setting up relu2_1-R
I0418 23:59:53.077584 20818 net.cpp:129] Top shape: 1 128 355 254 (11541760)
I0418 23:59:53.077589 20818 net.cpp:137] Memory required for data: 1381135636
I0418 23:59:53.077594 20818 layer_factory.hpp:77] Creating layer conv2_2-R
I0418 23:59:53.077606 20818 net.cpp:84] Creating Layer conv2_2-R
I0418 23:59:53.077611 20818 net.cpp:406] conv2_2-R <- conv2_1-R
I0418 23:59:53.077620 20818 net.cpp:380] conv2_2-R -> conv2_2-R
I0418 23:59:53.082226 20818 net.cpp:122] Setting up conv2_2-R
I0418 23:59:53.082260 20818 net.cpp:129] Top shape: 1 128 355 254 (11541760)
I0418 23:59:53.082267 20818 net.cpp:137] Memory required for data: 1427302676
I0418 23:59:53.082278 20818 layer_factory.hpp:77] Creating layer relu2_2-R
I0418 23:59:53.082286 20818 net.cpp:84] Creating Layer relu2_2-R
I0418 23:59:53.082293 20818 net.cpp:406] relu2_2-R <- conv2_2-R
I0418 23:59:53.082300 20818 net.cpp:367] relu2_2-R -> conv2_2-R (in-place)
I0418 23:59:53.083106 20818 net.cpp:122] Setting up relu2_2-R
I0418 23:59:53.083137 20818 net.cpp:129] Top shape: 1 128 355 254 (11541760)
I0418 23:59:53.083142 20818 net.cpp:137] Memory required for data: 1473469716
I0418 23:59:53.083150 20818 layer_factory.hpp:77] Creating layer pool2-R
I0418 23:59:53.083161 20818 net.cpp:84] Creating Layer pool2-R
I0418 23:59:53.083166 20818 net.cpp:406] pool2-R <- conv2_2-R
I0418 23:59:53.083174 20818 net.cpp:380] pool2-R -> pool2-R
I0418 23:59:53.083241 20818 net.cpp:122] Setting up pool2-R
I0418 23:59:53.083254 20818 net.cpp:129] Top shape: 1 128 178 127 (2893568)
I0418 23:59:53.083259 20818 net.cpp:137] Memory required for data: 1485043988
I0418 23:59:53.083264 20818 layer_factory.hpp:77] Creating layer conv3_1-R
I0418 23:59:53.083274 20818 net.cpp:84] Creating Layer conv3_1-R
I0418 23:59:53.083279 20818 net.cpp:406] conv3_1-R <- pool2-R
I0418 23:59:53.083287 20818 net.cpp:380] conv3_1-R -> conv3_1-R
I0418 23:59:53.087206 20818 net.cpp:122] Setting up conv3_1-R
I0418 23:59:53.087240 20818 net.cpp:129] Top shape: 1 256 178 127 (5787136)
I0418 23:59:53.087245 20818 net.cpp:137] Memory required for data: 1508192532
I0418 23:59:53.087256 20818 layer_factory.hpp:77] Creating layer relu3_1-R
I0418 23:59:53.087265 20818 net.cpp:84] Creating Layer relu3_1-R
I0418 23:59:53.087270 20818 net.cpp:406] relu3_1-R <- conv3_1-R
I0418 23:59:53.087277 20818 net.cpp:367] relu3_1-R -> conv3_1-R (in-place)
I0418 23:59:53.087522 20818 net.cpp:122] Setting up relu3_1-R
I0418 23:59:53.087536 20818 net.cpp:129] Top shape: 1 256 178 127 (5787136)
I0418 23:59:53.087541 20818 net.cpp:137] Memory required for data: 1531341076
I0418 23:59:53.087546 20818 layer_factory.hpp:77] Creating layer conv3_2-R
I0418 23:59:53.087561 20818 net.cpp:84] Creating Layer conv3_2-R
I0418 23:59:53.087566 20818 net.cpp:406] conv3_2-R <- conv3_1-R
I0418 23:59:53.087575 20818 net.cpp:380] conv3_2-R -> conv3_2-R
I0418 23:59:53.101982 20818 net.cpp:122] Setting up conv3_2-R
I0418 23:59:53.102038 20818 net.cpp:129] Top shape: 1 256 178 127 (5787136)
I0418 23:59:53.102058 20818 net.cpp:137] Memory required for data: 1554489620
I0418 23:59:53.102074 20818 layer_factory.hpp:77] Creating layer relu3_2-R
I0418 23:59:53.102083 20818 net.cpp:84] Creating Layer relu3_2-R
I0418 23:59:53.102090 20818 net.cpp:406] relu3_2-R <- conv3_2-R
I0418 23:59:53.102098 20818 net.cpp:367] relu3_2-R -> conv3_2-R (in-place)
I0418 23:59:53.102406 20818 net.cpp:122] Setting up relu3_2-R
I0418 23:59:53.102423 20818 net.cpp:129] Top shape: 1 256 178 127 (5787136)
I0418 23:59:53.102428 20818 net.cpp:137] Memory required for data: 1577638164
I0418 23:59:53.102433 20818 layer_factory.hpp:77] Creating layer conv3_3-R
I0418 23:59:53.102447 20818 net.cpp:84] Creating Layer conv3_3-R
I0418 23:59:53.102452 20818 net.cpp:406] conv3_3-R <- conv3_2-R
I0418 23:59:53.102461 20818 net.cpp:380] conv3_3-R -> conv3_3-R
I0418 23:59:53.108667 20818 net.cpp:122] Setting up conv3_3-R
I0418 23:59:53.108702 20818 net.cpp:129] Top shape: 1 256 178 127 (5787136)
I0418 23:59:53.108722 20818 net.cpp:137] Memory required for data: 1600786708
I0418 23:59:53.108734 20818 layer_factory.hpp:77] Creating layer relu3_3-R
I0418 23:59:53.108743 20818 net.cpp:84] Creating Layer relu3_3-R
I0418 23:59:53.108749 20818 net.cpp:406] relu3_3-R <- conv3_3-R
I0418 23:59:53.108757 20818 net.cpp:367] relu3_3-R -> conv3_3-R (in-place)
I0418 23:59:53.109009 20818 net.cpp:122] Setting up relu3_3-R
I0418 23:59:53.109025 20818 net.cpp:129] Top shape: 1 256 178 127 (5787136)
I0418 23:59:53.109030 20818 net.cpp:137] Memory required for data: 1623935252
I0418 23:59:53.109035 20818 layer_factory.hpp:77] Creating layer pool3-R
I0418 23:59:53.109047 20818 net.cpp:84] Creating Layer pool3-R
I0418 23:59:53.109052 20818 net.cpp:406] pool3-R <- conv3_3-R
I0418 23:59:53.109061 20818 net.cpp:380] pool3-R -> pool3-R
I0418 23:59:53.109127 20818 net.cpp:122] Setting up pool3-R
I0418 23:59:53.109138 20818 net.cpp:129] Top shape: 1 256 89 64 (1458176)
I0418 23:59:53.109143 20818 net.cpp:137] Memory required for data: 1629767956
I0418 23:59:53.109149 20818 layer_factory.hpp:77] Creating layer pool3-R_pool3-R_0_split
I0418 23:59:53.109158 20818 net.cpp:84] Creating Layer pool3-R_pool3-R_0_split
I0418 23:59:53.109163 20818 net.cpp:406] pool3-R_pool3-R_0_split <- pool3-R
I0418 23:59:53.109170 20818 net.cpp:380] pool3-R_pool3-R_0_split -> pool3-R_pool3-R_0_split_0
I0418 23:59:53.109179 20818 net.cpp:380] pool3-R_pool3-R_0_split -> pool3-R_pool3-R_0_split_1
I0418 23:59:53.109230 20818 net.cpp:122] Setting up pool3-R_pool3-R_0_split
I0418 23:59:53.109241 20818 net.cpp:129] Top shape: 1 256 89 64 (1458176)
I0418 23:59:53.109247 20818 net.cpp:129] Top shape: 1 256 89 64 (1458176)
I0418 23:59:53.109252 20818 net.cpp:137] Memory required for data: 1641433364
I0418 23:59:53.109256 20818 layer_factory.hpp:77] Creating layer conv4_1-R
I0418 23:59:53.109268 20818 net.cpp:84] Creating Layer conv4_1-R
I0418 23:59:53.109273 20818 net.cpp:406] conv4_1-R <- pool3-R_pool3-R_0_split_0
I0418 23:59:53.109282 20818 net.cpp:380] conv4_1-R -> conv4_1-R
I0418 23:59:53.122519 20818 net.cpp:122] Setting up conv4_1-R
I0418 23:59:53.122565 20818 net.cpp:129] Top shape: 1 512 89 64 (2916352)
I0418 23:59:53.122570 20818 net.cpp:137] Memory required for data: 1653098772
I0418 23:59:53.122583 20818 layer_factory.hpp:77] Creating layer relu4_1-R
I0418 23:59:53.122596 20818 net.cpp:84] Creating Layer relu4_1-R
I0418 23:59:53.122601 20818 net.cpp:406] relu4_1-R <- conv4_1-R
I0418 23:59:53.122611 20818 net.cpp:367] relu4_1-R -> conv4_1-R (in-place)
I0418 23:59:53.122880 20818 net.cpp:122] Setting up relu4_1-R
I0418 23:59:53.122895 20818 net.cpp:129] Top shape: 1 512 89 64 (2916352)
I0418 23:59:53.122900 20818 net.cpp:137] Memory required for data: 1664764180
I0418 23:59:53.122905 20818 layer_factory.hpp:77] Creating layer conv4_2-R
I0418 23:59:53.122920 20818 net.cpp:84] Creating Layer conv4_2-R
I0418 23:59:53.122926 20818 net.cpp:406] conv4_2-R <- conv4_1-R
I0418 23:59:53.122936 20818 net.cpp:380] conv4_2-R -> conv4_2-R
I0418 23:59:53.134671 20818 net.cpp:122] Setting up conv4_2-R
I0418 23:59:53.134737 20818 net.cpp:129] Top shape: 1 512 89 64 (2916352)
I0418 23:59:53.134748 20818 net.cpp:137] Memory required for data: 1676429588
I0418 23:59:53.134768 20818 layer_factory.hpp:77] Creating layer relu4_2-R
I0418 23:59:53.134800 20818 net.cpp:84] Creating Layer relu4_2-R
I0418 23:59:53.134811 20818 net.cpp:406] relu4_2-R <- conv4_2-R
I0418 23:59:53.134827 20818 net.cpp:367] relu4_2-R -> conv4_2-R (in-place)
I0418 23:59:53.135239 20818 net.cpp:122] Setting up relu4_2-R
I0418 23:59:53.135260 20818 net.cpp:129] Top shape: 1 512 89 64 (2916352)
I0418 23:59:53.135275 20818 net.cpp:137] Memory required for data: 1688094996
I0418 23:59:53.135282 20818 layer_factory.hpp:77] Creating layer conv4_3-R
I0418 23:59:53.135363 20818 net.cpp:84] Creating Layer conv4_3-R
I0418 23:59:53.135372 20818 net.cpp:406] conv4_3-R <- conv4_2-R
I0418 23:59:53.135387 20818 net.cpp:380] conv4_3-R -> conv4_3-R
I0418 23:59:53.148799 20818 net.cpp:122] Setting up conv4_3-R
I0418 23:59:53.148860 20818 net.cpp:129] Top shape: 1 512 89 64 (2916352)
I0418 23:59:53.148869 20818 net.cpp:137] Memory required for data: 1699760404
I0418 23:59:53.148888 20818 layer_factory.hpp:77] Creating layer relu4_3-R
I0418 23:59:53.148917 20818 net.cpp:84] Creating Layer relu4_3-R
I0418 23:59:53.148928 20818 net.cpp:406] relu4_3-R <- conv4_3-R
I0418 23:59:53.148941 20818 net.cpp:367] relu4_3-R -> conv4_3-R (in-place)
I0418 23:59:53.150223 20818 net.cpp:122] Setting up relu4_3-R
I0418 23:59:53.150261 20818 net.cpp:129] Top shape: 1 512 89 64 (2916352)
I0418 23:59:53.150269 20818 net.cpp:137] Memory required for data: 1711425812
I0418 23:59:53.150277 20818 layer_factory.hpp:77] Creating layer pool4-R
I0418 23:59:53.150305 20818 net.cpp:84] Creating Layer pool4-R
I0418 23:59:53.150312 20818 net.cpp:406] pool4-R <- conv4_3-R
I0418 23:59:53.150326 20818 net.cpp:380] pool4-R -> pool4-R
I0418 23:59:53.150440 20818 net.cpp:122] Setting up pool4-R
I0418 23:59:53.150456 20818 net.cpp:129] Top shape: 1 512 45 32 (737280)
I0418 23:59:53.150471 20818 net.cpp:137] Memory required for data: 1714374932
I0418 23:59:53.150485 20818 layer_factory.hpp:77] Creating layer pool4-R_pool4-R_0_split
I0418 23:59:53.150497 20818 net.cpp:84] Creating Layer pool4-R_pool4-R_0_split
I0418 23:59:53.150509 20818 net.cpp:406] pool4-R_pool4-R_0_split <- pool4-R
I0418 23:59:53.150521 20818 net.cpp:380] pool4-R_pool4-R_0_split -> pool4-R_pool4-R_0_split_0
I0418 23:59:53.150537 20818 net.cpp:380] pool4-R_pool4-R_0_split -> pool4-R_pool4-R_0_split_1
I0418 23:59:53.150615 20818 net.cpp:122] Setting up pool4-R_pool4-R_0_split
I0418 23:59:53.150629 20818 net.cpp:129] Top shape: 1 512 45 32 (737280)
I0418 23:59:53.150638 20818 net.cpp:129] Top shape: 1 512 45 32 (737280)
I0418 23:59:53.150647 20818 net.cpp:137] Memory required for data: 1720273172
I0418 23:59:53.150655 20818 layer_factory.hpp:77] Creating layer conv5_1-R
I0418 23:59:53.150673 20818 net.cpp:84] Creating Layer conv5_1-R
I0418 23:59:53.150683 20818 net.cpp:406] conv5_1-R <- pool4-R_pool4-R_0_split_0
I0418 23:59:53.150694 20818 net.cpp:380] conv5_1-R -> conv5_1-R
I0418 23:59:53.162405 20818 net.cpp:122] Setting up conv5_1-R
I0418 23:59:53.162426 20818 net.cpp:129] Top shape: 1 512 45 32 (737280)
I0418 23:59:53.162431 20818 net.cpp:137] Memory required for data: 1723222292
I0418 23:59:53.162467 20818 layer_factory.hpp:77] Creating layer relu5_1-R
I0418 23:59:53.162478 20818 net.cpp:84] Creating Layer relu5_1-R
I0418 23:59:53.162489 20818 net.cpp:406] relu5_1-R <- conv5_1-R
I0418 23:59:53.162497 20818 net.cpp:367] relu5_1-R -> conv5_1-R (in-place)
I0418 23:59:53.162803 20818 net.cpp:122] Setting up relu5_1-R
I0418 23:59:53.162818 20818 net.cpp:129] Top shape: 1 512 45 32 (737280)
I0418 23:59:53.162823 20818 net.cpp:137] Memory required for data: 1726171412
I0418 23:59:53.162828 20818 layer_factory.hpp:77] Creating layer conv5_2-R
I0418 23:59:53.162845 20818 net.cpp:84] Creating Layer conv5_2-R
I0418 23:59:53.162853 20818 net.cpp:406] conv5_2-R <- conv5_1-R
I0418 23:59:53.162863 20818 net.cpp:380] conv5_2-R -> conv5_2-R
I0418 23:59:53.173674 20818 net.cpp:122] Setting up conv5_2-R
I0418 23:59:53.173713 20818 net.cpp:129] Top shape: 1 512 45 32 (737280)
I0418 23:59:53.173719 20818 net.cpp:137] Memory required for data: 1729120532
I0418 23:59:53.173735 20818 layer_factory.hpp:77] Creating layer relu5_2-R
I0418 23:59:53.173745 20818 net.cpp:84] Creating Layer relu5_2-R
I0418 23:59:53.173765 20818 net.cpp:406] relu5_2-R <- conv5_2-R
I0418 23:59:53.173774 20818 net.cpp:367] relu5_2-R -> conv5_2-R (in-place)
I0418 23:59:53.174082 20818 net.cpp:122] Setting up relu5_2-R
I0418 23:59:53.174098 20818 net.cpp:129] Top shape: 1 512 45 32 (737280)
I0418 23:59:53.174113 20818 net.cpp:137] Memory required for data: 1732069652
I0418 23:59:53.174118 20818 layer_factory.hpp:77] Creating layer conv5_3-R
I0418 23:59:53.174134 20818 net.cpp:84] Creating Layer conv5_3-R
I0418 23:59:53.174139 20818 net.cpp:406] conv5_3-R <- conv5_2-R
I0418 23:59:53.174149 20818 net.cpp:380] conv5_3-R -> conv5_3-R
I0418 23:59:53.186131 20818 net.cpp:122] Setting up conv5_3-R
I0418 23:59:53.186216 20818 net.cpp:129] Top shape: 1 512 45 32 (737280)
I0418 23:59:53.186223 20818 net.cpp:137] Memory required for data: 1735018772
I0418 23:59:53.186235 20818 layer_factory.hpp:77] Creating layer relu5_3-R
I0418 23:59:53.186261 20818 net.cpp:84] Creating Layer relu5_3-R
I0418 23:59:53.186269 20818 net.cpp:406] relu5_3-R <- conv5_3-R
I0418 23:59:53.186276 20818 net.cpp:367] relu5_3-R -> conv5_3-R (in-place)
I0418 23:59:53.186520 20818 net.cpp:122] Setting up relu5_3-R
I0418 23:59:53.186533 20818 net.cpp:129] Top shape: 1 512 45 32 (737280)
I0418 23:59:53.186537 20818 net.cpp:137] Memory required for data: 1737967892
I0418 23:59:53.186542 20818 layer_factory.hpp:77] Creating layer pool5-R
I0418 23:59:53.186556 20818 net.cpp:84] Creating Layer pool5-R
I0418 23:59:53.186560 20818 net.cpp:406] pool5-R <- conv5_3-R
I0418 23:59:53.186569 20818 net.cpp:380] pool5-R -> pool5-R
I0418 23:59:53.186631 20818 net.cpp:122] Setting up pool5-R
I0418 23:59:53.186641 20818 net.cpp:129] Top shape: 1 512 23 16 (188416)
I0418 23:59:53.186645 20818 net.cpp:137] Memory required for data: 1738721556
I0418 23:59:53.186650 20818 layer_factory.hpp:77] Creating layer fc6-R
I0418 23:59:53.186661 20818 net.cpp:84] Creating Layer fc6-R
I0418 23:59:53.186666 20818 net.cpp:406] fc6-R <- pool5-R
I0418 23:59:53.186673 20818 net.cpp:380] fc6-R -> fc6-R
I0418 23:59:53.525457 20818 net.cpp:122] Setting up fc6-R
I0418 23:59:53.525506 20818 net.cpp:129] Top shape: 1 4096 17 10 (696320)
I0418 23:59:53.525511 20818 net.cpp:137] Memory required for data: 1741506836
I0418 23:59:53.525523 20818 layer_factory.hpp:77] Creating layer relu6-R
I0418 23:59:53.525537 20818 net.cpp:84] Creating Layer relu6-R
I0418 23:59:53.525543 20818 net.cpp:406] relu6-R <- fc6-R
I0418 23:59:53.525552 20818 net.cpp:367] relu6-R -> fc6-R (in-place)
I0418 23:59:53.525795 20818 net.cpp:122] Setting up relu6-R
I0418 23:59:53.525809 20818 net.cpp:129] Top shape: 1 4096 17 10 (696320)
I0418 23:59:53.525812 20818 net.cpp:137] Memory required for data: 1744292116
I0418 23:59:53.525816 20818 layer_factory.hpp:77] Creating layer drop6-R
I0418 23:59:53.525827 20818 net.cpp:84] Creating Layer drop6-R
I0418 23:59:53.525832 20818 net.cpp:406] drop6-R <- fc6-R
I0418 23:59:53.525840 20818 net.cpp:367] drop6-R -> fc6-R (in-place)
I0418 23:59:53.525879 20818 net.cpp:122] Setting up drop6-R
I0418 23:59:53.525889 20818 net.cpp:129] Top shape: 1 4096 17 10 (696320)
I0418 23:59:53.525893 20818 net.cpp:137] Memory required for data: 1747077396
I0418 23:59:53.525898 20818 layer_factory.hpp:77] Creating layer fc7-R
I0418 23:59:53.525919 20818 net.cpp:84] Creating Layer fc7-R
I0418 23:59:53.525923 20818 net.cpp:406] fc7-R <- fc6-R
I0418 23:59:53.525933 20818 net.cpp:380] fc7-R -> fc7-R
I0418 23:59:53.579699 20818 net.cpp:122] Setting up fc7-R
I0418 23:59:53.579747 20818 net.cpp:129] Top shape: 1 4096 17 10 (696320)
I0418 23:59:53.579751 20818 net.cpp:137] Memory required for data: 1749862676
I0418 23:59:53.579761 20818 layer_factory.hpp:77] Creating layer relu7-R
I0418 23:59:53.579777 20818 net.cpp:84] Creating Layer relu7-R
I0418 23:59:53.579782 20818 net.cpp:406] relu7-R <- fc7-R
I0418 23:59:53.579790 20818 net.cpp:367] relu7-R -> fc7-R (in-place)
I0418 23:59:53.580039 20818 net.cpp:122] Setting up relu7-R
I0418 23:59:53.580049 20818 net.cpp:129] Top shape: 1 4096 17 10 (696320)
I0418 23:59:53.580054 20818 net.cpp:137] Memory required for data: 1752647956
I0418 23:59:53.580057 20818 layer_factory.hpp:77] Creating layer drop7-R
I0418 23:59:53.580067 20818 net.cpp:84] Creating Layer drop7-R
I0418 23:59:53.580071 20818 net.cpp:406] drop7-R <- fc7-R
I0418 23:59:53.580076 20818 net.cpp:367] drop7-R -> fc7-R (in-place)
I0418 23:59:53.580116 20818 net.cpp:122] Setting up drop7-R
I0418 23:59:53.580128 20818 net.cpp:129] Top shape: 1 4096 17 10 (696320)
I0418 23:59:53.580132 20818 net.cpp:137] Memory required for data: 1755433236
I0418 23:59:53.580134 20818 layer_factory.hpp:77] Creating layer score_fr-new-R
I0418 23:59:53.580145 20818 net.cpp:84] Creating Layer score_fr-new-R
I0418 23:59:53.580149 20818 net.cpp:406] score_fr-new-R <- fc7-R
I0418 23:59:53.580155 20818 net.cpp:380] score_fr-new-R -> score_fr-new-R
I0418 23:59:53.581593 20818 net.cpp:122] Setting up score_fr-new-R
I0418 23:59:53.581606 20818 net.cpp:129] Top shape: 1 3 17 10 (510)
I0418 23:59:53.581626 20818 net.cpp:137] Memory required for data: 1755435276
I0418 23:59:53.581634 20818 layer_factory.hpp:77] Creating layer upscore2-new-R
I0418 23:59:53.581650 20818 net.cpp:84] Creating Layer upscore2-new-R
I0418 23:59:53.581655 20818 net.cpp:406] upscore2-new-R <- score_fr-new-R
I0418 23:59:53.581661 20818 net.cpp:380] upscore2-new-R -> upscore2-new-R
I0418 23:59:53.581921 20818 net.cpp:122] Setting up upscore2-new-R
I0418 23:59:53.581931 20818 net.cpp:129] Top shape: 1 3 36 22 (2376)
I0418 23:59:53.581934 20818 net.cpp:137] Memory required for data: 1755444780
I0418 23:59:53.581939 20818 layer_factory.hpp:77] Creating layer upscore2-new-R_upscore2-new-R_0_split
I0418 23:59:53.581945 20818 net.cpp:84] Creating Layer upscore2-new-R_upscore2-new-R_0_split
I0418 23:59:53.581949 20818 net.cpp:406] upscore2-new-R_upscore2-new-R_0_split <- upscore2-new-R
I0418 23:59:53.581956 20818 net.cpp:380] upscore2-new-R_upscore2-new-R_0_split -> upscore2-new-R_upscore2-new-R_0_split_0
I0418 23:59:53.581964 20818 net.cpp:380] upscore2-new-R_upscore2-new-R_0_split -> upscore2-new-R_upscore2-new-R_0_split_1
I0418 23:59:53.582005 20818 net.cpp:122] Setting up upscore2-new-R_upscore2-new-R_0_split
I0418 23:59:53.582012 20818 net.cpp:129] Top shape: 1 3 36 22 (2376)
I0418 23:59:53.582016 20818 net.cpp:129] Top shape: 1 3 36 22 (2376)
I0418 23:59:53.582020 20818 net.cpp:137] Memory required for data: 1755463788
I0418 23:59:53.582023 20818 layer_factory.hpp:77] Creating layer score_pool4-new-R
I0418 23:59:53.582036 20818 net.cpp:84] Creating Layer score_pool4-new-R
I0418 23:59:53.582041 20818 net.cpp:406] score_pool4-new-R <- pool4-R_pool4-R_0_split_1
I0418 23:59:53.582046 20818 net.cpp:380] score_pool4-new-R -> score_pool4-new-R
I0418 23:59:53.586809 20818 net.cpp:122] Setting up score_pool4-new-R
I0418 23:59:53.586827 20818 net.cpp:129] Top shape: 1 3 45 32 (4320)
I0418 23:59:53.586845 20818 net.cpp:137] Memory required for data: 1755481068
I0418 23:59:53.586853 20818 layer_factory.hpp:77] Creating layer score_pool4c-R
I0418 23:59:53.586861 20818 net.cpp:84] Creating Layer score_pool4c-R
I0418 23:59:53.586865 20818 net.cpp:406] score_pool4c-R <- score_pool4-new-R
I0418 23:59:53.586870 20818 net.cpp:406] score_pool4c-R <- upscore2-new-R_upscore2-new-R_0_split_0
I0418 23:59:53.586876 20818 net.cpp:380] score_pool4c-R -> score_pool4c-R
I0418 23:59:53.586927 20818 net.cpp:122] Setting up score_pool4c-R
I0418 23:59:53.586933 20818 net.cpp:129] Top shape: 1 3 36 22 (2376)
I0418 23:59:53.586935 20818 net.cpp:137] Memory required for data: 1755490572
I0418 23:59:53.586938 20818 layer_factory.hpp:77] Creating layer fuse_pool4-R
I0418 23:59:53.586946 20818 net.cpp:84] Creating Layer fuse_pool4-R
I0418 23:59:53.586949 20818 net.cpp:406] fuse_pool4-R <- upscore2-new-R_upscore2-new-R_0_split_1
I0418 23:59:53.586953 20818 net.cpp:406] fuse_pool4-R <- score_pool4c-R
I0418 23:59:53.586961 20818 net.cpp:380] fuse_pool4-R -> fuse_pool4-R
I0418 23:59:53.587003 20818 net.cpp:122] Setting up fuse_pool4-R
I0418 23:59:53.587008 20818 net.cpp:129] Top shape: 1 3 36 22 (2376)
I0418 23:59:53.587011 20818 net.cpp:137] Memory required for data: 1755500076
I0418 23:59:53.587014 20818 layer_factory.hpp:77] Creating layer upscore_pool4-new-R
I0418 23:59:53.587033 20818 net.cpp:84] Creating Layer upscore_pool4-new-R
I0418 23:59:53.587036 20818 net.cpp:406] upscore_pool4-new-R <- fuse_pool4-R
I0418 23:59:53.587044 20818 net.cpp:380] upscore_pool4-new-R -> upscore_pool4-new-R
I0418 23:59:53.587272 20818 net.cpp:122] Setting up upscore_pool4-new-R
I0418 23:59:53.587281 20818 net.cpp:129] Top shape: 1 3 74 46 (10212)
I0418 23:59:53.587285 20818 net.cpp:137] Memory required for data: 1755540924
I0418 23:59:53.587291 20818 layer_factory.hpp:77] Creating layer upscore_pool4-new-R_upscore_pool4-new-R_0_split
I0418 23:59:53.587296 20818 net.cpp:84] Creating Layer upscore_pool4-new-R_upscore_pool4-new-R_0_split
I0418 23:59:53.587299 20818 net.cpp:406] upscore_pool4-new-R_upscore_pool4-new-R_0_split <- upscore_pool4-new-R
I0418 23:59:53.587306 20818 net.cpp:380] upscore_pool4-new-R_upscore_pool4-new-R_0_split -> upscore_pool4-new-R_upscore_pool4-new-R_0_split_0
I0418 23:59:53.587312 20818 net.cpp:380] upscore_pool4-new-R_upscore_pool4-new-R_0_split -> upscore_pool4-new-R_upscore_pool4-new-R_0_split_1
I0418 23:59:53.587352 20818 net.cpp:122] Setting up upscore_pool4-new-R_upscore_pool4-new-R_0_split
I0418 23:59:53.587364 20818 net.cpp:129] Top shape: 1 3 74 46 (10212)
I0418 23:59:53.587368 20818 net.cpp:129] Top shape: 1 3 74 46 (10212)
I0418 23:59:53.587371 20818 net.cpp:137] Memory required for data: 1755622620
I0418 23:59:53.587374 20818 layer_factory.hpp:77] Creating layer score_pool3-new-R
I0418 23:59:53.587386 20818 net.cpp:84] Creating Layer score_pool3-new-R
I0418 23:59:53.587391 20818 net.cpp:406] score_pool3-new-R <- pool3-R_pool3-R_0_split_1
I0418 23:59:53.587396 20818 net.cpp:380] score_pool3-new-R -> score_pool3-new-R
I0418 23:59:53.588747 20818 net.cpp:122] Setting up score_pool3-new-R
I0418 23:59:53.588778 20818 net.cpp:129] Top shape: 1 3 89 64 (17088)
I0418 23:59:53.588783 20818 net.cpp:137] Memory required for data: 1755690972
I0418 23:59:53.588788 20818 layer_factory.hpp:77] Creating layer score_pool3c-R
I0418 23:59:53.588799 20818 net.cpp:84] Creating Layer score_pool3c-R
I0418 23:59:53.588804 20818 net.cpp:406] score_pool3c-R <- score_pool3-new-R
I0418 23:59:53.588809 20818 net.cpp:406] score_pool3c-R <- upscore_pool4-new-R_upscore_pool4-new-R_0_split_0
I0418 23:59:53.588814 20818 net.cpp:380] score_pool3c-R -> score_pool3c-R
I0418 23:59:53.588865 20818 net.cpp:122] Setting up score_pool3c-R
I0418 23:59:53.588871 20818 net.cpp:129] Top shape: 1 3 74 46 (10212)
I0418 23:59:53.588873 20818 net.cpp:137] Memory required for data: 1755731820
I0418 23:59:53.588877 20818 layer_factory.hpp:77] Creating layer fuse_pool3-R
I0418 23:59:53.588886 20818 net.cpp:84] Creating Layer fuse_pool3-R
I0418 23:59:53.588889 20818 net.cpp:406] fuse_pool3-R <- upscore_pool4-new-R_upscore_pool4-new-R_0_split_1
I0418 23:59:53.588893 20818 net.cpp:406] fuse_pool3-R <- score_pool3c-R
I0418 23:59:53.588898 20818 net.cpp:380] fuse_pool3-R -> fuse_pool3-R
I0418 23:59:53.588927 20818 net.cpp:122] Setting up fuse_pool3-R
I0418 23:59:53.588932 20818 net.cpp:129] Top shape: 1 3 74 46 (10212)
I0418 23:59:53.588935 20818 net.cpp:137] Memory required for data: 1755772668
I0418 23:59:53.588938 20818 layer_factory.hpp:77] Creating layer upscore8-new-R
I0418 23:59:53.588946 20818 net.cpp:84] Creating Layer upscore8-new-R
I0418 23:59:53.588966 20818 net.cpp:406] upscore8-new-R <- fuse_pool3-R
I0418 23:59:53.588971 20818 net.cpp:380] upscore8-new-R -> upscore8-new-R
I0418 23:59:53.589211 20818 net.cpp:122] Setting up upscore8-new-R
I0418 23:59:53.589221 20818 net.cpp:129] Top shape: 1 3 600 376 (676800)
I0418 23:59:53.589223 20818 net.cpp:137] Memory required for data: 1758479868
I0418 23:59:53.589228 20818 layer_factory.hpp:77] Creating layer upscore8_cropped-R
I0418 23:59:53.589237 20818 net.cpp:84] Creating Layer upscore8_cropped-R
I0418 23:59:53.589241 20818 net.cpp:406] upscore8_cropped-R <- upscore8-new-R
I0418 23:59:53.589246 20818 net.cpp:406] upscore8_cropped-R <- data-R_crop_0_split_1
I0418 23:59:53.589251 20818 net.cpp:380] upscore8_cropped-R -> upscore8_cropped-R
I0418 23:59:53.589278 20818 net.cpp:122] Setting up upscore8_cropped-R
I0418 23:59:53.589283 20818 net.cpp:129] Top shape: 1 3 512 310 (476160)
I0418 23:59:53.589287 20818 net.cpp:137] Memory required for data: 1760384508
I0418 23:59:53.589289 20818 layer_factory.hpp:77] Creating layer score-R
I0418 23:59:53.589308 20818 net.cpp:84] Creating Layer score-R
I0418 23:59:53.589313 20818 net.cpp:406] score-R <- upscore8_cropped-R
I0418 23:59:53.589320 20818 net.cpp:380] score-R -> score-R
I0418 23:59:53.592599 20818 net.cpp:122] Setting up score-R
I0418 23:59:53.592677 20818 net.cpp:129] Top shape: 1 3 512 310 (476160)
I0418 23:59:53.592689 20818 net.cpp:137] Memory required for data: 1762289148
I0418 23:59:53.592710 20818 layer_factory.hpp:77] Creating layer score_uncropped-R
I0418 23:59:53.593426 20818 net.cpp:84] Creating Layer score_uncropped-R
I0418 23:59:53.593463 20818 net.cpp:406] score_uncropped-R <- crop_info
I0418 23:59:53.593478 20818 net.cpp:406] score_uncropped-R <- score-R
I0418 23:59:53.593488 20818 net.cpp:406] score_uncropped-R <- data_data_0_split_3
I0418 23:59:53.593502 20818 net.cpp:380] score_uncropped-R -> score_uncropped-R
I0418 23:59:53.596431 20818 net.cpp:122] Setting up score_uncropped-R
I0418 23:59:53.596472 20818 net.cpp:129] Top shape: 1 3 512 310 (476160)
I0418 23:59:53.596480 20818 net.cpp:137] Memory required for data: 1764193788
I0418 23:59:53.596488 20818 layer_factory.hpp:77] Creating layer loss1
I0418 23:59:53.596514 20818 net.cpp:84] Creating Layer loss1
I0418 23:59:53.596526 20818 net.cpp:406] loss1 <- score_score_0_split_1
I0418 23:59:53.596537 20818 net.cpp:406] loss1 <- label_data_1_split_1
I0418 23:59:53.596549 20818 net.cpp:380] loss1 -> loss1
…
snapshot_prefix: "/media/Med_2T2/data2/models/snapshots/indiv:1e-5x10,20/FD0:YI3_1_20180418_201415/train"
test_initialization: false
average_loss: 20
stepvalue: 40000
iter_size: 1
I0419 00:49:05.265723 20818 solver.cpp:77] Creating training net from train_net file: /media/Med_2T2/data2/prototxts/training_I3x10.prototxt
I0419 00:49:05.268077 20818 net.cpp:51] Initializing net from parameters: 
state {
  phase: TRAIN
}
layer {
  name: "data"
  type: "Python"
  top: "data"
  top: "label"
  top: "crop_margin"
  top: "crop_prob"
  top: "crop_sample_batch"
  python_param {
    module: "Data"
    layer: "DataLayer"
  }
}
layer {
  name: "conv1_1"
  type: "Convolution"
  bottom: "data"
  top: "conv1_1"
  param {
    lr_mult: 1
    decay_mult: 1
  }
  param {
    lr_mult: 2
    decay_mult: 0
  }
  convolution_param {
    num_output: 64
    pad: 100
    kernel_size: 3
    stride: 1
  }
}
layer {
  name: "relu1_1"
  type: "ReLU"
  bottom: "conv1_1"
  top: "conv1_1"
}
layer {
  name: "conv1_2"
  type: "Convolution"
  bottom: "conv1_1"
  top: "conv1_2"
  param {
    lr_mult: 1
    decay_mult: 1
  }
  param {
    lr_mult: 2
    decay_mult: 0
  }
  convolution_param {
    num_output: 64
    pad: 1
    kernel_size: 3
    stride: 1
  }
}
layer {
  name: "relu1_2"
  type: "ReLU"
  bottom: "conv1_2"
  top: "conv1_2"
}
layer {
  name: "pool1"
  type: "Pooling"
  bottom: "conv1_2"
  top: "pool1"
  pooling_param {
    pool: MAX
    kernel_size: 2
    stride: 2
  }
}
layer {
  name: "conv2_1"
  type: "Convolution"
  bottom: "pool1"
  top: "conv2_1"
  param {
    lr_mult: 1
    decay_mult: 1
  }
  param {
    lr_mult: 2
    decay_mult: 0
  }
  convolution_param {
    num_output: 128
    pad: 1
    kernel_size: 3
    stride: 1
  }
}
layer {
  name: "relu2_1"
  type: "ReLU"
  bottom: "conv2_1"
  top: "conv2_1"
}
layer {
  name: "conv2_2"
  type: "Convolution"
  bottom: "conv2_1"
  top: "conv2_2"
  param {
    lr_mult: 1
    decay_mult: 1
  }
  param {
    lr_mult: 2
    decay_mult: 0
  }
  convolution_param {
    num_output: 128
    pad: 1
    kernel_size: 3
    stride: 1
  }
}
layer {
  name: "relu2_2"
  type: "ReLU"
  bottom: "conv2_2"
  top: "conv2_2"
}
layer {
  name: "pool2"
  type: "Pooling"
  bottom: "conv2_2"
  top: "pool2"
  pooling_param {
    pool: MAX
    kernel_size: 2
    stride: 2
  }
}
layer {
  name: "conv3_1"
  type: "Convolution"
  bottom: "pool2"
  top: "conv3_1"
  param {
    lr_mult: 1
    decay_mult: 1
  }
  param {
    lr_mult: 2
    decay_mult: 0
  }
  convolution_param {
    num_output: 256
    pad: 1
    kernel_size: 3
    stride: 1
  }
}
layer {
  name: "relu3_1"
  type: "ReLU"
  bottom: "conv3_1"
  top: "conv3_1"
}
layer {
  name: "conv3_2"
  type: "Convolution"
  bottom: "conv3_1"
  top: "conv3_2"
  param {
    lr_mult: 1
    decay_mult: 1
  }
  param {
    lr_mult: 2
    decay_mult: 0
  }
  convolution_param {
    num_output: 256
    pad: 1
    kernel_size: 3
    stride: 1
  }
}
layer {
  name: "relu3_2"
  type: "ReLU"
  bottom: "conv3_2"
  top: "conv3_2"
}
layer {
  name: "conv3_3"
  type: "Convolution"
  bottom: "conv3_2"
  top: "conv3_3"
  param {
    lr_mult: 1
    decay_mult: 1
  }
  param {
    lr_mult: 2
    decay_mult: 0
  }
  convolution_param {
    num_output: 256
    pad: 1
    kernel_size: 3
    stride: 1
  }
}
layer {
  name: "relu3_3"
  type: "ReLU"
  bottom: "conv3_3"
  top: "conv3_3"
}
layer {
  name: "pool3"
  type: "Pooling"
  bottom: "conv3_3"
  top: "pool3"
  pooling_param {
    pool: MAX
    kernel_size: 2
    stride: 2
  }
}
layer {
  name: "conv4_1"
  type: "Convolution"
  bottom: "pool3"
  top: "conv4_1"
  param {
    lr_mult: 1
    decay_mult: 1
  }
  param {
    lr_mult: 2
    decay_mult: 0
  }
  convolution_param {
    num_output: 512
    pad: 1
    kernel_size: 3
    stride: 1
  }
}
layer {
  name: "relu4_1"
  type: "ReLU"
  bottom: "conv4_1"
  top: "conv4_1"
}
layer {
  name: "conv4_2"
  type: "Convolution"
  bottom: "conv4_1"
  top: "conv4_2"
  param {
    lr_mult: 1
    decay_mult: 1
  }
  param {
    lr_mult: 2
    decay_mult: 0
  }
  convolution_param {
    num_output: 512
    pad: 1
    kernel_size: 3
    stride: 1
  }
}
layer {
  name: "relu4_2"
  type: "ReLU"
  bottom: "conv4_2"
  top: "conv4_2"
}
layer {
  name: "conv4_3"
  type: "Convolution"
  bottom: "conv4_2"
  top: "conv4_3"
  param {
    lr_mult: 1
    decay_mult: 1
  }
  param {
    lr_mult: 2
    decay_mult: 0
  }
  convolution_param {
    num_output: 512
    pad: 1
    kernel_size: 3
    stride: 1
  }
}
layer {
  name: "relu4_3"
  type: "ReLU"
  bottom: "conv4_3"
  top: "conv4_3"
}
layer {
  name: "pool4"
  type: "Pooling"
  bottom: "conv4_3"
  top: "pool4"
  pooling_param {
    pool: MAX
    kernel_size: 2
    stride: 2
  }
}
layer {
  name: "conv5_1"
  type: "Convolution"
  bottom: "pool4"
  top: "conv5_1"
  param {
    lr_mult: 1
    decay_mult: 1
  }
  param {
    lr_mult: 2
    decay_mult: 0
  }
  convolution_param {
    num_output: 512
    pad: 1
    kernel_size: 3
    stride: 1
  }
}
layer {
  name: "relu5_1"
  type: "ReLU"
  bottom: "conv5_1"
  top: "conv5_1"
}
layer {
  name: "conv5_2"
  type: "Convolution"
  bottom: "conv5_1"
  top: "conv5_2"
  param {
    lr_mult: 1
    decay_mult: 1
  }
  param {
    lr_mult: 2
    decay_mult: 0
  }
  convolution_param {
    num_output: 512
    pad: 1
    kernel_size: 3
    stride: 1
  }
}
layer {
  name: "relu5_2"
  type: "ReLU"
  bottom: "conv5_2"
  top: "conv5_2"
}
layer {
  name: "conv5_3"
  type: "Convolution"
  bottom: "conv5_2"
  top: "conv5_3"
  param {
    lr_mult: 1
    decay_mult: 1
  }
  param {
    lr_mult: 2
    decay_mult: 0
  }
  convolution_param {
    num_output: 512
    pad: 1
    kernel_size: 3
    stride: 1
  }
}
layer {
  name: "relu5_3"
  type: "ReLU"
  bottom: "conv5_3"
  top: "conv5_3"
}
layer {
  name: "pool5"
  type: "Pooling"
  bottom: "conv5_3"
  top: "pool5"
  pooling_param {
    pool: MAX
    kernel_size: 2
    stride: 2
  }
}
layer {
  name: "fc6"
  type: "Convolution"
  bottom: "pool5"
  top: "fc6"
  param {
    lr_mult: 1
    decay_mult: 1
  }
  param {
    lr_mult: 2
    decay_mult: 0
  }
  convolution_param {
    num_output: 4096
    pad: 0
    kernel_size: 7
    stride: 1
  }
}
layer {
  name: "relu6"
  type: "ReLU"
  bottom: "fc6"
  top: "fc6"
}
layer {
  name: "drop6"
  type: "Dropout"
  bottom: "fc6"
  top: "fc6"
  dropout_param {
    dropout_ratio: 0.5
  }
}
layer {
  name: "fc7"
  type: "Convolution"
  bottom: "fc6"
  top: "fc7"
  param {
    lr_mult: 1
    decay_mult: 1
  }
  param {
    lr_mult: 2
    decay_mult: 0
  }
  convolution_param {
    num_output: 4096
    pad: 0
    kernel_size: 1
    stride: 1
  }
}
layer {
  name: "relu7"
  type: "ReLU"
  bottom: "fc7"
  top: "fc7"
}
layer {
  name: "drop7"
  type: "Dropout"
  bottom: "fc7"
  top: "fc7"
  dropout_param {
    dropout_ratio: 0.5
  }
}
layer {
  name: "score_fr-new"
  type: "Convolution"
  bottom: "fc7"
  top: "score_fr-new"
  param {
    lr_mult: 1
    decay_mult: 1
  }
  param {
    lr_mult: 2
    decay_mult: 0
  }
  convolution_param {
    num_output: 3
    kernel_size: 1
  }
}
layer {
  name: "upscore2-new"
  type: "Deconvolution"
  bottom: "score_fr-new"
  top: "upscore2-new"
  param {
    lr_mult: 0
  }
  convolution_param {
    num_output: 3
    bias_term: false
    kernel_size: 4
    stride: 2
  }
}
layer {
  name: "score_pool4-new"
  type: "Convolution"
  bottom: "pool4"
  top: "score_pool4-new"
  param {
    lr_mult: 1
    decay_mult: 1
  }
  param {
    lr_mult: 2
    decay_mult: 0
  }
  convolution_param {
    num_output: 3
    pad: 0
    kernel_size: 1
  }
}
layer {
  name: "score_pool4c"
  type: "Crop"
  bottom: "score_pool4-new"
  bottom: "upscore2-new"
  top: "score_pool4c"
  crop_param {
    axis: 2
    offset: 5
  }
}
layer {
  name: "fuse_pool4"
  type: "Eltwise"
  bottom: "upscore2-new"
  bottom: "score_pool4c"
  top: "fuse_pool4"
  eltwise_param {
    operation: SUM
  }
}
layer {
  name: "upscore_pool4-new"
  type: "Deconvolution"
  bottom: "fuse_pool4"
  top: "upscore_pool4-new"
  param {
    lr_mult: 0
  }
  convolution_param {
    num_output: 3
    bias_term: false
    kernel_size: 4
    stride: 2
  }
}
layer {
  name: "score_pool3-new"
  type: "Convolution"
  bottom: "pool3"
  top: "score_pool3-new"
  param {
    lr_mult: 1
    decay_mult: 1
  }
  param {
    lr_mult: 2
    decay_mult: 0
  }
  convolution_param {
    num_output: 3
    pad: 0
    kernel_size: 1
  }
}
layer {
  name: "score_pool3c"
  type: "Crop"
  bottom: "score_pool3-new"
  bottom: "upscore_pool4-new"
  top: "score_pool3c"
  crop_param {
    axis: 2
    offset: 9
  }
}
layer {
  name: "fuse_pool3"
  type: "Eltwise"
  bottom: "upscore_pool4-new"
  bottom: "score_pool3c"
  top: "fuse_pool3"
  eltwise_param {
    operation: SUM
  }
}
layer {
  name: "upscore8-new"
  type: "Deconvolution"
  bottom: "fuse_pool3"
  top: "upscore8-new"
  param {
    lr_mult: 0
  }
  convolution_param {
    num_output: 3
    bias_term: false
    kernel_size: 16
    stride: 8
  }
}
layer {
  name: "upscore8_cropped"
  type: "Crop"
  bottom: "upscore8-new"
  bottom: "data"
  top: "upscore8_cropped"
  crop_param {
    axis: 2
    offset: 31
  }
}
layer {
  name: "score"
  type: "Convolution"
  bottom: "upscore8_cropped"
  top: "score"
  param {
    lr_mult: 1
    decay_mult: 1
  }
  param {
    lr_mult: 2
    decay_mult: 0
  }
  convolution_param {
    num_output: 3
    pad: 1
    kernel_size: 3
    stride: 1
    weight_filler {
      type: "xavier"
    }
    bias_filler {
      type: "constant"
      value: 0
    }
  }
}
layer {
  name: "prob"
  type: "Sigmoid"
  bottom: "score"
  top: "prob"
}
layer {
  name: "saliency"
  type: "Convolution"
  bottom: "prob"
  top: "saliency"
  param {
    lr_mult: 10
    decay_mult: 1
  }
  param {
    lr_mult: 20
    decay_mult: 0
  }
  convolution_param {
    num_output: 3
    pad: 2
    kernel_size: 5
    stride: 1
    weight_filler {
      type: "xavier"
    }
    bias_filler {
      type: "constant"
      value: 1
    }
  }
}
layer {
  name: "saliency_data"
  type: "Eltwise"
  bottom: "data"
  bottom: "saliency"
  top: "saliency_data"
  eltwise_param {
    operation: PROD
  }
}
layer {
  name: "crop"
  type: "Python"
  bottom: "label"
  bottom: "saliency_data"
  bottom: "crop_margin"
  bottom: "crop_prob"
  bottom: "crop_sample_batch"
  top: "data-R"
  top: "crop_info"
  python_param {
    module: "Crop"
    layer: "CropLayer"
    param_str: "{\"TEST\": 0}"
  }
}
layer {
  name: "conv1_1-R"
  type: "Convolution"
  bottom: "data-R"
  top: "conv1_1-R"
  param {
    lr_mult: 10
    decay_mult: 1
  }
  param {
    lr_mult: 20
    decay_mult: 0
  }
  convolution_param {
    num_output: 64
    pad: 100
    kernel_size: 3
    stride: 1
  }
}
layer {
  name: "relu1_1-R"
  type: "ReLU"
  bottom: "conv1_1-R"
  top: "conv1_1-R"
}
layer {
  name: "conv1_2-R"
  type: "Convolution"
  bottom: "conv1_1-R"
  top: "conv1_2-R"
  param {
    lr_mult: 10
    decay_mult: 1
  }
  param {
    lr_mult: 20
    decay_mult: 0
  }
  convolution_param {
    num_output: 64
    pad: 1
    kernel_size: 3
    stride: 1
  }
}
layer {
  name: "relu1_2-R"
  type: "ReLU"
  bottom: "conv1_2-R"
  top: "conv1_2-R"
}
layer {
  name: "pool1-R"
  type: "Pooling"
  bottom: "conv1_2-R"
  top: "pool1-R"
  pooling_param {
    pool: MAX
    kernel_size: 2
    stride: 2
  }
}
layer {
  name: "conv2_1-R"
  type: "Convolution"
  bottom: "pool1-R"
  top: "conv2_1-R"
  param {
    lr_mult: 10
    decay_mult: 1
  }
  param {
    lr_mult: 20
    decay_mult: 0
  }
  convolution_param {
    num_output: 128
    pad: 1
    kernel_size: 3
    stride: 1
  }
}
layer {
  name: "relu2_1-R"
  type: "ReLU"
  bottom: "conv2_1-R"
  top: "conv2_1-R"
}
layer {
  name: "conv2_2-R"
  type: "Convolution"
  bottom: "conv2_1-R"
  top: "conv2_2-R"
  param {
    lr_mult: 10
    decay_mult: 1
  }
  param {
    lr_mult: 20
    decay_mult: 0
  }
  convolution_param {
    num_output: 128
    pad: 1
    kernel_size: 3
    stride: 1
  }
}
layer {
  name: "relu2_2-R"
  type: "ReLU"
  bottom: "conv2_2-R"
  top: "conv2_2-R"
}
layer {
  name: "pool2-R"
  type: "Pooling"
  bottom: "conv2_2-R"
  top: "pool2-R"
  pooling_param {
    pool: MAX
    kernel_size: 2
    stride: 2
  }
}
layer {
  name: "conv3_1-R"
  type: "Convolution"
  bottom: "pool2-R"
  top: "conv3_1-R"
  param {
    lr_mult: 10
    decay_mult: 1
  }
  param {
    lr_mult: 20
    decay_mult: 0
  }
  convolution_param {
    num_output: 256
    pad: 1
    kernel_size: 3
    stride: 1
  }
}
layer {
  name: "relu3_1-R"
  type: "ReLU"
  bottom: "conv3_1-R"
  top: "conv3_1-R"
}
layer {
  name: "conv3_2-R"
  type: "Convolution"
  bottom: "conv3_1-R"
  top: "conv3_2-R"
  param {
    lr_mult: 10
    decay_mult: 1
  }
  param {
    lr_mult: 20
    decay_mult: 0
  }
  convolution_param {
    num_output: 256
    pad: 1
    kernel_size: 3
    stride: 1
  }
}
layer {
  name: "relu3_2-R"
  type: "ReLU"
  bottom: "conv3_2-R"
  top: "conv3_2-R"
}
layer {
  name: "conv3_3-R"
  type: "Convolution"
  bottom: "conv3_2-R"
  top: "conv3_3-R"
  param {
    lr_mult: 10
    decay_mult: 1
  }
  param {
    lr_mult: 20
    decay_mult: 0
  }
  convolution_param {
    num_output: 256
    pad: 1
    kernel_size: 3
    stride: 1
  }
}
layer {
  name: "relu3_3-R"
  type: "ReLU"
  bottom: "conv3_3-R"
  top: "conv3_3-R"
}
layer {
  name: "pool3-R"
  type: "Pooling"
  bottom: "conv3_3-R"
  top: "pool3-R"
  pooling_param {
    pool: MAX
    kernel_size: 2
    stride: 2
  }
}
layer {
  name: "conv4_1-R"
  type: "Convolution"
  bottom: "pool3-R"
  top: "conv4_1-R"
  param {
    lr_mult: 10
    decay_mult: 1
  }
  param {
    lr_mult: 20
    decay_mult: 0
  }
  convolution_param {
    num_output: 512
    pad: 1
    kernel_size: 3
    stride: 1
  }
}
layer {
  name: "relu4_1-R"
  type: "ReLU"
  bottom: "conv4_1-R"
  top: "conv4_1-R"
}
layer {
  name: "conv4_2-R"
  type: "Convolution"
  bottom: "conv4_1-R"
  top: "conv4_2-R"
  param {
    lr_mult: 10
    decay_mult: 1
  }
  param {
    lr_mult: 20
    decay_mult: 0
  }
  convolution_param {
    num_output: 512
    pad: 1
    kernel_size: 3
    stride: 1
  }
}
layer {
  name: "relu4_2-R"
  type: "ReLU"
  bottom: "conv4_2-R"
  top: "conv4_2-R"
}
layer {
  name: "conv4_3-R"
  type: "Convolution"
  bottom: "conv4_2-R"
  top: "conv4_3-R"
  param {
    lr_mult: 10
    decay_mult: 1
  }
  param {
    lr_mult: 20
    decay_mult: 0
  }
  convolution_param {
    num_output: 512
    pad: 1
    kernel_size: 3
    stride: 1
  }
}
layer {
  name: "relu4_3-R"
  type: "ReLU"
  bottom: "conv4_3-R"
  top: "conv4_3-R"
}
layer {
  name: "pool4-R"
  type: "Pooling"
  bottom: "conv4_3-R"
  top: "pool4-R"
  pooling_param {
    pool: MAX
    kernel_size: 2
    stride: 2
  }
}
layer {
  name: "conv5_1-R"
  type: "Convolution"
  bottom: "pool4-R"
  top: "conv5_1-R"
  param {
    lr_mult: 10
    decay_mult: 1
  }
  param {
    lr_mult: 20
    decay_mult: 0
  }
  convolution_param {
    num_output: 512
    pad: 1
    kernel_size: 3
    stride: 1
  }
}
layer {
  name: "relu5_1-R"
  type: "ReLU"
  bottom: "conv5_1-R"
  top: "conv5_1-R"
}
layer {
  name: "conv5_2-R"
  type: "Convolution"
  bottom: "conv5_1-R"
  top: "conv5_2-R"
  param {
    lr_mult: 10
    decay_mult: 1
  }
  param {
    lr_mult: 20
    decay_mult: 0
  }
  convolution_param {
    num_output: 512
    pad: 1
    kernel_size: 3
    stride: 1
  }
}
layer {
  name: "relu5_2-R"
  type: "ReLU"
  bottom: "conv5_2-R"
  top: "conv5_2-R"
}
layer {
  name: "conv5_3-R"
  type: "Convolution"
  bottom: "conv5_2-R"
  top: "conv5_3-R"
  param {
    lr_mult: 10
    decay_mult: 1
  }
  param {
    lr_mult: 20
    decay_mult: 0
  }
  convolution_param {
    num_output: 512
    pad: 1
    kernel_size: 3
    stride: 1
  }
}
layer {
  name: "relu5_3-R"
  type: "ReLU"
  bottom: "conv5_3-R"
  top: "conv5_3-R"
}
layer {
  name: "pool5-R"
  type: "Pooling"
  bottom: "conv5_3-R"
  top: "pool5-R"
  pooling_param {
    pool: MAX
    kernel_size: 2
    stride: 2
  }
}
layer {
  name: "fc6-R"
  type: "Convolution"
  bottom: "pool5-R"
  top: "fc6-R"
  param {
    lr_mult: 10
    decay_mult: 1
  }
  param {
    lr_mult: 20
    decay_mult: 0
  }
  convolution_param {
    num_output: 4096
    pad: 0
    kernel_size: 7
    stride: 1
  }
}
layer {
  name: "relu6-R"
  type: "ReLU"
  bottom: "fc6-R"
  top: "fc6-R"
}
layer {
  name: "drop6-R"
  type: "Dropout"
  bottom: "fc6-R"
  top: "fc6-R"
  dropout_param {
    dropout_ratio: 0.5
  }
}
layer {
  name: "fc7-R"
  type: "Convolution"
  bottom: "fc6-R"
  top: "fc7-R"
  param {
    lr_mult: 10
    decay_mult: 1
  }
  param {
    lr_mult: 20
    decay_mult: 0
  }
  convolution_param {
    num_output: 4096
    pad: 0
    kernel_size: 1
    stride: 1
  }
}
layer {
  name: "relu7-R"
  type: "ReLU"
  bottom: "fc7-R"
  top: "fc7-R"
}
layer {
  name: "drop7-R"
  type: "Dropout"
  bottom: "fc7-R"
  top: "fc7-R"
  dropout_param {
    dropout_ratio: 0.5
  }
}
layer {
  name: "score_fr-new-R"
  type: "Convolution"
  bottom: "fc7-R"
  top: "score_fr-new-R"
  param {
    lr_mult: 10
    decay_mult: 1
  }
  param {
    lr_mult: 20
    decay_mult: 0
  }
  convolution_param {
    num_output: 3
    kernel_size: 1
  }
}
layer {
  name: "upscore2-new-R"
  type: "Deconvolution"
  bottom: "score_fr-new-R"
  top: "upscore2-new-R"
  param {
    lr_mult: 0
  }
  convolution_param {
    num_output: 3
    bias_term: false
    kernel_size: 4
    stride: 2
  }
}
layer {
  name: "score_pool4-new-R"
  type: "Convolution"
  bottom: "pool4-R"
  top: "score_pool4-new-R"
  param {
    lr_mult: 10
    decay_mult: 1
  }
  param {
    lr_mult: 20
    decay_mult: 0
  }
  convolution_param {
    num_output: 3
    pad: 0
    kernel_size: 1
  }
}
layer {
  name: "score_pool4c-R"
  type: "Crop"
  bottom: "score_pool4-new-R"
  bottom: "upscore2-new-R"
  top: "score_pool4c-R"
  crop_param {
    axis: 2
    offset: 5
  }
}
layer {
  name: "fuse_pool4-R"
  type: "Eltwise"
  bottom: "upscore2-new-R"
  bottom: "score_pool4c-R"
  top: "fuse_pool4-R"
  eltwise_param {
    operation: SUM
  }
}
layer {
  name: "upscore_pool4-new-R"
  type: "Deconvolution"
  bottom: "fuse_pool4-R"
  top: "upscore_pool4-new-R"
  param {
    lr_mult: 0
  }
  convolution_param {
    num_output: 3
    bias_term: false
    kernel_size: 4
    stride: 2
  }
}
layer {
  name: "score_pool3-new-R"
  type: "Convolution"
  bottom: "pool3-R"
  top: "score_pool3-new-R"
  param {
    lr_mult: 10
    decay_mult: 1
  }
  param {
    lr_mult: 20
    decay_mult: 0
  }
  convolution_param {
    num_output: 3
    pad: 0
    kernel_size: 1
  }
}
layer {
  name: "score_pool3c-R"
  type: "Crop"
  bottom: "score_pool3-new-R"
  bottom: "upscore_pool4-new-R"
  top: "score_pool3c-R"
  crop_param {
    axis: 2
    offset: 9
  }
}
layer {
  name: "fuse_pool3-R"
  type: "Eltwise"
  bottom: "upscore_pool4-new-R"
  bottom: "score_pool3c-R"
  top: "fuse_pool3-R"
  eltwise_param {
    operation: SUM
  }
}
layer {
  name: "upscore8-new-R"
  type: "Deconvolution"
  bottom: "fuse_pool3-R"
  top: "upscore8-new-R"
  param {
    lr_mult: 0
  }
  convolution_param {
    num_output: 3
    bias_term: false
    kernel_size: 16
    stride: 8
  }
}
layer {
  name: "upscore8_cropped-R"
  type: "Crop"
  bottom: "upscore8-new-R"
  bottom: "data-R"
  top: "upscore8_cropped-R"
  crop_param {
    axis: 2
    offset: 31
  }
}
layer {
  name: "score-R"
  type: "Convolution"
  bottom: "upscore8_cropped-R"
  top: "score-R"
  param {
    lr_mult: 10
    decay_mult: 1
  }
  param {
    lr_mult: 20
    decay_mult: 0
  }
  convolution_param {
    num_output: 3
    pad: 1
    kernel_size: 3
    stride: 1
    weight_filler {
      type: "xavier"
    }
    bias_filler {
      type: "constant"
      value: 0
    }
  }
}
layer {
  name: "score_uncropped-R"
  type: "Python"
  bottom: "crop_info"
  bottom: "score-R"
  bottom: "data"
  top: "score_uncropped-R"
  python_param {
    module: "Uncrop"
    layer: "UncropLayer"
  }
}
layer {
  name: "loss1"
  type: "DiceLoss"
  bottom: "score"
  bottom: "label"
  top: "loss1"
  loss_weight: 0.333333
}
layer {
  name: "loss2"
  type: "DiceLoss"
  bottom: "score_uncropped-R"
  bottom: "label"
  top: "loss2"
  loss_weight: 0.666667
}
I0419 00:49:05.268532 20818 layer_factory.hpp:77] Creating layer data
I0419 00:49:05.268591 20818 net.cpp:84] Creating Layer data
I0419 00:49:05.268599 20818 net.cpp:380] data -> data
I0419 00:49:05.268610 20818 net.cpp:380] data -> label
I0419 00:49:05.268615 20818 net.cpp:380] data -> crop_margin
I0419 00:49:05.268621 20818 net.cpp:380] data -> crop_prob
I0419 00:49:05.268626 20818 net.cpp:380] data -> crop_sample_batch
I0419 00:49:05.409024 20818 net.cpp:122] Setting up data
I0419 00:49:05.409073 20818 net.cpp:129] Top shape: 1 3 512 310 (476160)
I0419 00:49:05.409080 20818 net.cpp:129] Top shape: 1 3 512 310 (476160)
I0419 00:49:05.409083 20818 net.cpp:129] Top shape: 1 (1)
I0419 00:49:05.409086 20818 net.cpp:129] Top shape: 1 (1)
I0419 00:49:05.409090 20818 net.cpp:129] Top shape: 1 (1)
I0419 00:49:05.409092 20818 net.cpp:137] Memory required for data: 3809292
I0419 00:49:05.409101 20818 layer_factory.hpp:77] Creating layer data_data_0_split
I0419 00:49:05.409133 20818 net.cpp:84] Creating Layer data_data_0_split
I0419 00:49:05.409138 20818 net.cpp:406] data_data_0_split <- data
I0419 00:49:05.409147 20818 net.cpp:380] data_data_0_split -> data_data_0_split_0
I0419 00:49:05.409158 20818 net.cpp:380] data_data_0_split -> data_data_0_split_1
I0419 00:49:05.409164 20818 net.cpp:380] data_data_0_split -> data_data_0_split_2
I0419 00:49:05.409169 20818 net.cpp:380] data_data_0_split -> data_data_0_split_3
I0419 00:49:05.409304 20818 net.cpp:122] Setting up data_data_0_split
I0419 00:49:05.409314 20818 net.cpp:129] Top shape: 1 3 512 310 (476160)
I0419 00:49:05.409318 20818 net.cpp:129] Top shape: 1 3 512 310 (476160)
I0419 00:49:05.409322 20818 net.cpp:129] Top shape: 1 3 512 310 (476160)
I0419 00:49:05.409327 20818 net.cpp:129] Top shape: 1 3 512 310 (476160)
I0419 00:49:05.409329 20818 net.cpp:137] Memory required for data: 11427852
I0419 00:49:05.409333 20818 layer_factory.hpp:77] Creating layer label_data_1_split
I0419 00:49:05.409339 20818 net.cpp:84] Creating Layer label_data_1_split
I0419 00:49:05.409343 20818 net.cpp:406] label_data_1_split <- label
I0419 00:49:05.409348 20818 net.cpp:380] label_data_1_split -> label_data_1_split_0
I0419 00:49:05.409358 20818 net.cpp:380] label_data_1_split -> label_data_1_split_1
I0419 00:49:05.409364 20818 net.cpp:380] label_data_1_split -> label_data_1_split_2
I0419 00:49:05.409448 20818 net.cpp:122] Setting up label_data_1_split
I0419 00:49:05.409457 20818 net.cpp:129] Top shape: 1 3 512 310 (476160)
I0419 00:49:05.409461 20818 net.cpp:129] Top shape: 1 3 512 310 (476160)
I0419 00:49:05.409466 20818 net.cpp:129] Top shape: 1 3 512 310 (476160)
I0419 00:49:05.409468 20818 net.cpp:137] Memory required for data: 17141772
I0419 00:49:05.409471 20818 layer_factory.hpp:77] Creating layer conv1_1
I0419 00:49:05.409484 20818 net.cpp:84] Creating Layer conv1_1
I0419 00:49:05.409488 20818 net.cpp:406] conv1_1 <- data_data_0_split_0
I0419 00:49:05.409494 20818 net.cpp:380] conv1_1 -> conv1_1
I0419 00:49:05.422581 20818 net.cpp:122] Setting up conv1_1
I0419 00:49:05.422612 20818 net.cpp:129] Top shape: 1 64 710 508 (23083520)
I0419 00:49:05.422621 20818 net.cpp:137] Memory required for data: 109475852
I0419 00:49:05.422646 20818 layer_factory.hpp:77] Creating layer relu1_1
I0419 00:49:05.422672 20818 net.cpp:84] Creating Layer relu1_1
I0419 00:49:05.422679 20818 net.cpp:406] relu1_1 <- conv1_1
I0419 00:49:05.422690 20818 net.cpp:367] relu1_1 -> conv1_1 (in-place)
I0419 00:49:05.423146 20818 net.cpp:122] Setting up relu1_1
I0419 00:49:05.423172 20818 net.cpp:129] Top shape: 1 64 710 508 (23083520)
I0419 00:49:05.423178 20818 net.cpp:137] Memory required for data: 201809932
I0419 00:49:05.423184 20818 layer_factory.hpp:77] Creating layer conv1_2
I0419 00:49:05.423198 20818 net.cpp:84] Creating Layer conv1_2
I0419 00:49:05.423204 20818 net.cpp:406] conv1_2 <- conv1_1
I0419 00:49:05.423214 20818 net.cpp:380] conv1_2 -> conv1_2
I0419 00:49:05.435127 20818 net.cpp:122] Setting up conv1_2
I0419 00:49:05.435194 20818 net.cpp:129] Top shape: 1 64 710 508 (23083520)
I0419 00:49:05.435204 20818 net.cpp:137] Memory required for data: 294144012
I0419 00:49:05.435230 20818 layer_factory.hpp:77] Creating layer relu1_2
I0419 00:49:05.435250 20818 net.cpp:84] Creating Layer relu1_2
I0419 00:49:05.435259 20818 net.cpp:406] relu1_2 <- conv1_2
I0419 00:49:05.435273 20818 net.cpp:367] relu1_2 -> conv1_2 (in-place)
I0419 00:49:05.435967 20818 net.cpp:122] Setting up relu1_2
I0419 00:49:05.436002 20818 net.cpp:129] Top shape: 1 64 710 508 (23083520)
I0419 00:49:05.436008 20818 net.cpp:137] Memory required for data: 386478092
I0419 00:49:05.436015 20818 layer_factory.hpp:77] Creating layer pool1
I0419 00:49:05.436040 20818 net.cpp:84] Creating Layer pool1
I0419 00:49:05.436048 20818 net.cpp:406] pool1 <- conv1_2
I0419 00:49:05.436058 20818 net.cpp:380] pool1 -> pool1
I0419 00:49:05.436235 20818 net.cpp:122] Setting up pool1
I0419 00:49:05.436264 20818 net.cpp:129] Top shape: 1 64 355 254 (5770880)
I0419 00:49:05.436270 20818 net.cpp:137] Memory required for data: 409561612
I0419 00:49:05.436277 20818 layer_factory.hpp:77] Creating layer conv2_1
I0419 00:49:05.436300 20818 net.cpp:84] Creating Layer conv2_1
I0419 00:49:05.436307 20818 net.cpp:406] conv2_1 <- pool1
I0419 00:49:05.436319 20818 net.cpp:380] conv2_1 -> conv2_1
I0419 00:49:05.440191 20818 net.cpp:122] Setting up conv2_1
I0419 00:49:05.440230 20818 net.cpp:129] Top shape: 1 128 355 254 (11541760)
I0419 00:49:05.440238 20818 net.cpp:137] Memory required for data: 455728652
I0419 00:49:05.440258 20818 layer_factory.hpp:77] Creating layer relu2_1
I0419 00:49:05.440271 20818 net.cpp:84] Creating Layer relu2_1
I0419 00:49:05.440279 20818 net.cpp:406] relu2_1 <- conv2_1
I0419 00:49:05.440290 20818 net.cpp:367] relu2_1 -> conv2_1 (in-place)
I0419 00:49:05.441601 20818 net.cpp:122] Setting up relu2_1
I0419 00:49:05.441638 20818 net.cpp:129] Top shape: 1 128 355 254 (11541760)
I0419 00:49:05.441646 20818 net.cpp:137] Memory required for data: 501895692
I0419 00:49:05.441653 20818 layer_factory.hpp:77] Creating layer conv2_2
I0419 00:49:05.441671 20818 net.cpp:84] Creating Layer conv2_2
I0419 00:49:05.441679 20818 net.cpp:406] conv2_2 <- conv2_1
I0419 00:49:05.441690 20818 net.cpp:380] conv2_2 -> conv2_2
I0419 00:49:05.444161 20818 net.cpp:122] Setting up conv2_2
I0419 00:49:05.444200 20818 net.cpp:129] Top shape: 1 128 355 254 (11541760)
I0419 00:49:05.444207 20818 net.cpp:137] Memory required for data: 548062732
I0419 00:49:05.444221 20818 layer_factory.hpp:77] Creating layer relu2_2
I0419 00:49:05.444232 20818 net.cpp:84] Creating Layer relu2_2
I0419 00:49:05.444239 20818 net.cpp:406] relu2_2 <- conv2_2
I0419 00:49:05.444249 20818 net.cpp:367] relu2_2 -> conv2_2 (in-place)
I0419 00:49:05.445546 20818 net.cpp:122] Setting up relu2_2
I0419 00:49:05.445581 20818 net.cpp:129] Top shape: 1 128 355 254 (11541760)
I0419 00:49:05.445588 20818 net.cpp:137] Memory required for data: 594229772
I0419 00:49:05.445595 20818 layer_factory.hpp:77] Creating layer pool2
I0419 00:49:05.445608 20818 net.cpp:84] Creating Layer pool2
I0419 00:49:05.445616 20818 net.cpp:406] pool2 <- conv2_2
I0419 00:49:05.445628 20818 net.cpp:380] pool2 -> pool2
I0419 00:49:05.445760 20818 net.cpp:122] Setting up pool2
I0419 00:49:05.445775 20818 net.cpp:129] Top shape: 1 128 178 127 (2893568)
I0419 00:49:05.445781 20818 net.cpp:137] Memory required for data: 605804044
I0419 00:49:05.445788 20818 layer_factory.hpp:77] Creating layer conv3_1
I0419 00:49:05.445806 20818 net.cpp:84] Creating Layer conv3_1
I0419 00:49:05.445812 20818 net.cpp:406] conv3_1 <- pool2
I0419 00:49:05.445823 20818 net.cpp:380] conv3_1 -> conv3_1
I0419 00:49:05.460110 20818 net.cpp:122] Setting up conv3_1
I0419 00:49:05.460155 20818 net.cpp:129] Top shape: 1 256 178 127 (5787136)
I0419 00:49:05.460165 20818 net.cpp:137] Memory required for data: 628952588
I0419 00:49:05.460191 20818 layer_factory.hpp:77] Creating layer relu3_1
I0419 00:49:05.460203 20818 net.cpp:84] Creating Layer relu3_1
I0419 00:49:05.460212 20818 net.cpp:406] relu3_1 <- conv3_1
I0419 00:49:05.460233 20818 net.cpp:367] relu3_1 -> conv3_1 (in-place)
I0419 00:49:05.460733 20818 net.cpp:122] Setting up relu3_1
I0419 00:49:05.460752 20818 net.cpp:129] Top shape: 1 256 178 127 (5787136)
I0419 00:49:05.460759 20818 net.cpp:137] Memory required for data: 652101132
I0419 00:49:05.460767 20818 layer_factory.hpp:77] Creating layer conv3_2
I0419 00:49:05.460788 20818 net.cpp:84] Creating Layer conv3_2
I0419 00:49:05.460795 20818 net.cpp:406] conv3_2 <- conv3_1
I0419 00:49:05.460808 20818 net.cpp:380] conv3_2 -> conv3_2
I0419 00:49:05.466423 20818 net.cpp:122] Setting up conv3_2
I0419 00:49:05.466459 20818 net.cpp:129] Top shape: 1 256 178 127 (5787136)
I0419 00:49:05.466476 20818 net.cpp:137] Memory required for data: 675249676
I0419 00:49:05.466504 20818 layer_factory.hpp:77] Creating layer relu3_2
I0419 00:49:05.466521 20818 net.cpp:84] Creating Layer relu3_2
I0419 00:49:05.466531 20818 net.cpp:406] relu3_2 <- conv3_2
I0419 00:49:05.466552 20818 net.cpp:367] relu3_2 -> conv3_2 (in-place)
I0419 00:49:05.467119 20818 net.cpp:122] Setting up relu3_2
I0419 00:49:05.467150 20818 net.cpp:129] Top shape: 1 256 178 127 (5787136)
I0419 00:49:05.467159 20818 net.cpp:137] Memory required for data: 698398220
I0419 00:49:05.467165 20818 layer_factory.hpp:77] Creating layer conv3_3
I0419 00:49:05.467191 20818 net.cpp:84] Creating Layer conv3_3
I0419 00:49:05.467200 20818 net.cpp:406] conv3_3 <- conv3_2
I0419 00:49:05.467223 20818 net.cpp:380] conv3_3 -> conv3_3
I0419 00:49:05.480609 20818 net.cpp:122] Setting up conv3_3
I0419 00:49:05.480656 20818 net.cpp:129] Top shape: 1 256 178 127 (5787136)
I0419 00:49:05.480665 20818 net.cpp:137] Memory required for data: 721546764
I0419 00:49:05.480690 20818 layer_factory.hpp:77] Creating layer relu3_3
I0419 00:49:05.480703 20818 net.cpp:84] Creating Layer relu3_3
I0419 00:49:05.480721 20818 net.cpp:406] relu3_3 <- conv3_3
I0419 00:49:05.480733 20818 net.cpp:367] relu3_3 -> conv3_3 (in-place)
I0419 00:49:05.481259 20818 net.cpp:122] Setting up relu3_3
I0419 00:49:05.481293 20818 net.cpp:129] Top shape: 1 256 178 127 (5787136)
I0419 00:49:05.481302 20818 net.cpp:137] Memory required for data: 744695308
I0419 00:49:05.481308 20818 layer_factory.hpp:77] Creating layer pool3
I0419 00:49:05.481333 20818 net.cpp:84] Creating Layer pool3
I0419 00:49:05.481339 20818 net.cpp:406] pool3 <- conv3_3
I0419 00:49:05.481353 20818 net.cpp:380] pool3 -> pool3
I0419 00:49:05.481511 20818 net.cpp:122] Setting up pool3
I0419 00:49:05.481526 20818 net.cpp:129] Top shape: 1 256 89 64 (1458176)
I0419 00:49:05.481534 20818 net.cpp:137] Memory required for data: 750528012
I0419 00:49:05.481540 20818 layer_factory.hpp:77] Creating layer pool3_pool3_0_split
I0419 00:49:05.481550 20818 net.cpp:84] Creating Layer pool3_pool3_0_split
I0419 00:49:05.481557 20818 net.cpp:406] pool3_pool3_0_split <- pool3
I0419 00:49:05.481568 20818 net.cpp:380] pool3_pool3_0_split -> pool3_pool3_0_split_0
I0419 00:49:05.481586 20818 net.cpp:380] pool3_pool3_0_split -> pool3_pool3_0_split_1
I0419 00:49:05.481725 20818 net.cpp:122] Setting up pool3_pool3_0_split
I0419 00:49:05.481745 20818 net.cpp:129] Top shape: 1 256 89 64 (1458176)
I0419 00:49:05.481755 20818 net.cpp:129] Top shape: 1 256 89 64 (1458176)
I0419 00:49:05.481765 20818 net.cpp:137] Memory required for data: 762193420
I0419 00:49:05.481771 20818 layer_factory.hpp:77] Creating layer conv4_1
I0419 00:49:05.481787 20818 net.cpp:84] Creating Layer conv4_1
I0419 00:49:05.481794 20818 net.cpp:406] conv4_1 <- pool3_pool3_0_split_0
I0419 00:49:05.481807 20818 net.cpp:380] conv4_1 -> conv4_1
I0419 00:49:05.493790 20818 net.cpp:122] Setting up conv4_1
I0419 00:49:05.493824 20818 net.cpp:129] Top shape: 1 512 89 64 (2916352)
I0419 00:49:05.493829 20818 net.cpp:137] Memory required for data: 773858828
I0419 00:49:05.493839 20818 layer_factory.hpp:77] Creating layer relu4_1
I0419 00:49:05.493847 20818 net.cpp:84] Creating Layer relu4_1
I0419 00:49:05.493854 20818 net.cpp:406] relu4_1 <- conv4_1
I0419 00:49:05.493865 20818 net.cpp:367] relu4_1 -> conv4_1 (in-place)
I0419 00:49:05.494230 20818 net.cpp:122] Setting up relu4_1
I0419 00:49:05.494242 20818 net.cpp:129] Top shape: 1 512 89 64 (2916352)
I0419 00:49:05.494256 20818 net.cpp:137] Memory required for data: 785524236
I0419 00:49:05.494261 20818 layer_factory.hpp:77] Creating layer conv4_2
I0419 00:49:05.494271 20818 net.cpp:84] Creating Layer conv4_2
I0419 00:49:05.494277 20818 net.cpp:406] conv4_2 <- conv4_1
I0419 00:49:05.494285 20818 net.cpp:380] conv4_2 -> conv4_2
I0419 00:49:05.504693 20818 net.cpp:122] Setting up conv4_2
I0419 00:49:05.504734 20818 net.cpp:129] Top shape: 1 512 89 64 (2916352)
I0419 00:49:05.504739 20818 net.cpp:137] Memory required for data: 797189644
I0419 00:49:05.504758 20818 layer_factory.hpp:77] Creating layer relu4_2
I0419 00:49:05.504781 20818 net.cpp:84] Creating Layer relu4_2
I0419 00:49:05.504788 20818 net.cpp:406] relu4_2 <- conv4_2
I0419 00:49:05.504797 20818 net.cpp:367] relu4_2 -> conv4_2 (in-place)
I0419 00:49:05.505971 20818 net.cpp:122] Setting up relu4_2
I0419 00:49:05.506003 20818 net.cpp:129] Top shape: 1 512 89 64 (2916352)
I0419 00:49:05.506009 20818 net.cpp:137] Memory required for data: 808855052
I0419 00:49:05.506014 20818 layer_factory.hpp:77] Creating layer conv4_3
I0419 00:49:05.506029 20818 net.cpp:84] Creating Layer conv4_3
I0419 00:49:05.506036 20818 net.cpp:406] conv4_3 <- conv4_2
I0419 00:49:05.506047 20818 net.cpp:380] conv4_3 -> conv4_3
I0419 00:49:05.514367 20818 net.cpp:122] Setting up conv4_3
I0419 00:49:05.514385 20818 net.cpp:129] Top shape: 1 512 89 64 (2916352)
I0419 00:49:05.514389 20818 net.cpp:137] Memory required for data: 820520460
I0419 00:49:05.514396 20818 layer_factory.hpp:77] Creating layer relu4_3
I0419 00:49:05.514413 20818 net.cpp:84] Creating Layer relu4_3
I0419 00:49:05.514417 20818 net.cpp:406] relu4_3 <- conv4_3
I0419 00:49:05.514423 20818 net.cpp:367] relu4_3 -> conv4_3 (in-place)
I0419 00:49:05.515307 20818 net.cpp:122] Setting up relu4_3
I0419 00:49:05.515321 20818 net.cpp:129] Top shape: 1 512 89 64 (2916352)
I0419 00:49:05.515341 20818 net.cpp:137] Memory required for data: 832185868
I0419 00:49:05.515343 20818 layer_factory.hpp:77] Creating layer pool4
I0419 00:49:05.515353 20818 net.cpp:84] Creating Layer pool4
I0419 00:49:05.515357 20818 net.cpp:406] pool4 <- conv4_3
I0419 00:49:05.515364 20818 net.cpp:380] pool4 -> pool4
I0419 00:49:05.515455 20818 net.cpp:122] Setting up pool4
I0419 00:49:05.515465 20818 net.cpp:129] Top shape: 1 512 45 32 (737280)
I0419 00:49:05.515467 20818 net.cpp:137] Memory required for data: 835134988
I0419 00:49:05.515471 20818 layer_factory.hpp:77] Creating layer pool4_pool4_0_split
I0419 00:49:05.515477 20818 net.cpp:84] Creating Layer pool4_pool4_0_split
I0419 00:49:05.515480 20818 net.cpp:406] pool4_pool4_0_split <- pool4
I0419 00:49:05.515486 20818 net.cpp:380] pool4_pool4_0_split -> pool4_pool4_0_split_0
I0419 00:49:05.515492 20818 net.cpp:380] pool4_pool4_0_split -> pool4_pool4_0_split_1
I0419 00:49:05.515552 20818 net.cpp:122] Setting up pool4_pool4_0_split
I0419 00:49:05.515578 20818 net.cpp:129] Top shape: 1 512 45 32 (737280)
I0419 00:49:05.515581 20818 net.cpp:129] Top shape: 1 512 45 32 (737280)
I0419 00:49:05.515584 20818 net.cpp:137] Memory required for data: 841033228
I0419 00:49:05.515592 20818 layer_factory.hpp:77] Creating layer conv5_1
I0419 00:49:05.515602 20818 net.cpp:84] Creating Layer conv5_1
I0419 00:49:05.515605 20818 net.cpp:406] conv5_1 <- pool4_pool4_0_split_0
I0419 00:49:05.515612 20818 net.cpp:380] conv5_1 -> conv5_1
I0419 00:49:05.523728 20818 net.cpp:122] Setting up conv5_1
I0419 00:49:05.523772 20818 net.cpp:129] Top shape: 1 512 45 32 (737280)
I0419 00:49:05.523777 20818 net.cpp:137] Memory required for data: 843982348
I0419 00:49:05.523787 20818 layer_factory.hpp:77] Creating layer relu5_1
I0419 00:49:05.523798 20818 net.cpp:84] Creating Layer relu5_1
I0419 00:49:05.523803 20818 net.cpp:406] relu5_1 <- conv5_1
I0419 00:49:05.523811 20818 net.cpp:367] relu5_1 -> conv5_1 (in-place)
I0419 00:49:05.524068 20818 net.cpp:122] Setting up relu5_1
I0419 00:49:05.524080 20818 net.cpp:129] Top shape: 1 512 45 32 (737280)
I0419 00:49:05.524083 20818 net.cpp:137] Memory required for data: 846931468
I0419 00:49:05.524086 20818 layer_factory.hpp:77] Creating layer conv5_2
I0419 00:49:05.524098 20818 net.cpp:84] Creating Layer conv5_2
I0419 00:49:05.524101 20818 net.cpp:406] conv5_2 <- conv5_1
I0419 00:49:05.524109 20818 net.cpp:380] conv5_2 -> conv5_2
I0419 00:49:05.535637 20818 net.cpp:122] Setting up conv5_2
I0419 00:49:05.535689 20818 net.cpp:129] Top shape: 1 512 45 32 (737280)
I0419 00:49:05.535694 20818 net.cpp:137] Memory required for data: 849880588
I0419 00:49:05.535704 20818 layer_factory.hpp:77] Creating layer relu5_2
I0419 00:49:05.535724 20818 net.cpp:84] Creating Layer relu5_2
I0419 00:49:05.535730 20818 net.cpp:406] relu5_2 <- conv5_2
I0419 00:49:05.535738 20818 net.cpp:367] relu5_2 -> conv5_2 (in-place)
I0419 00:49:05.536025 20818 net.cpp:122] Setting up relu5_2
I0419 00:49:05.536036 20818 net.cpp:129] Top shape: 1 512 45 32 (737280)
I0419 00:49:05.536039 20818 net.cpp:137] Memory required for data: 852829708
I0419 00:49:05.536043 20818 layer_factory.hpp:77] Creating layer conv5_3
I0419 00:49:05.536056 20818 net.cpp:84] Creating Layer conv5_3
I0419 00:49:05.536059 20818 net.cpp:406] conv5_3 <- conv5_2
I0419 00:49:05.536075 20818 net.cpp:380] conv5_3 -> conv5_3
I0419 00:49:05.544795 20818 net.cpp:122] Setting up conv5_3
I0419 00:49:05.544833 20818 net.cpp:129] Top shape: 1 512 45 32 (737280)
I0419 00:49:05.544838 20818 net.cpp:137] Memory required for data: 855778828
I0419 00:49:05.544847 20818 layer_factory.hpp:77] Creating layer relu5_3
I0419 00:49:05.544857 20818 net.cpp:84] Creating Layer relu5_3
I0419 00:49:05.544862 20818 net.cpp:406] relu5_3 <- conv5_3
I0419 00:49:05.544868 20818 net.cpp:367] relu5_3 -> conv5_3 (in-place)
I0419 00:49:05.545696 20818 net.cpp:122] Setting up relu5_3
I0419 00:49:05.545711 20818 net.cpp:129] Top shape: 1 512 45 32 (737280)
I0419 00:49:05.545729 20818 net.cpp:137] Memory required for data: 858727948
I0419 00:49:05.545733 20818 layer_factory.hpp:77] Creating layer pool5
I0419 00:49:05.545743 20818 net.cpp:84] Creating Layer pool5
I0419 00:49:05.545747 20818 net.cpp:406] pool5 <- conv5_3
I0419 00:49:05.545755 20818 net.cpp:380] pool5 -> pool5
I0419 00:49:05.545861 20818 net.cpp:122] Setting up pool5
I0419 00:49:05.545871 20818 net.cpp:129] Top shape: 1 512 23 16 (188416)
I0419 00:49:05.545873 20818 net.cpp:137] Memory required for data: 859481612
I0419 00:49:05.545877 20818 layer_factory.hpp:77] Creating layer fc6
I0419 00:49:05.545888 20818 net.cpp:84] Creating Layer fc6
I0419 00:49:05.545892 20818 net.cpp:406] fc6 <- pool5
I0419 00:49:05.545900 20818 net.cpp:380] fc6 -> fc6
I0419 00:49:05.865309 20818 net.cpp:122] Setting up fc6
I0419 00:49:05.865360 20818 net.cpp:129] Top shape: 1 4096 17 10 (696320)
I0419 00:49:05.865366 20818 net.cpp:137] Memory required for data: 862266892
I0419 00:49:05.865380 20818 layer_factory.hpp:77] Creating layer relu6
I0419 00:49:05.865394 20818 net.cpp:84] Creating Layer relu6
I0419 00:49:05.865409 20818 net.cpp:406] relu6 <- fc6
I0419 00:49:05.865419 20818 net.cpp:367] relu6 -> fc6 (in-place)
I0419 00:49:05.865692 20818 net.cpp:122] Setting up relu6
I0419 00:49:05.865705 20818 net.cpp:129] Top shape: 1 4096 17 10 (696320)
I0419 00:49:05.865710 20818 net.cpp:137] Memory required for data: 865052172
I0419 00:49:05.865715 20818 layer_factory.hpp:77] Creating layer drop6
I0419 00:49:05.865725 20818 net.cpp:84] Creating Layer drop6
I0419 00:49:05.865728 20818 net.cpp:406] drop6 <- fc6
I0419 00:49:05.865736 20818 net.cpp:367] drop6 -> fc6 (in-place)
I0419 00:49:05.865806 20818 net.cpp:122] Setting up drop6
I0419 00:49:05.865818 20818 net.cpp:129] Top shape: 1 4096 17 10 (696320)
I0419 00:49:05.865821 20818 net.cpp:137] Memory required for data: 867837452
I0419 00:49:05.865825 20818 layer_factory.hpp:77] Creating layer fc7
I0419 00:49:05.865837 20818 net.cpp:84] Creating Layer fc7
I0419 00:49:05.865841 20818 net.cpp:406] fc7 <- fc6
I0419 00:49:05.865849 20818 net.cpp:380] fc7 -> fc7
I0419 00:49:05.927297 20818 net.cpp:122] Setting up fc7
I0419 00:49:05.927345 20818 net.cpp:129] Top shape: 1 4096 17 10 (696320)
I0419 00:49:05.927350 20818 net.cpp:137] Memory required for data: 870622732
I0419 00:49:05.927361 20818 layer_factory.hpp:77] Creating layer relu7
I0419 00:49:05.927374 20818 net.cpp:84] Creating Layer relu7
I0419 00:49:05.927390 20818 net.cpp:406] relu7 <- fc7
I0419 00:49:05.927399 20818 net.cpp:367] relu7 -> fc7 (in-place)
I0419 00:49:05.928242 20818 net.cpp:122] Setting up relu7
I0419 00:49:05.928257 20818 net.cpp:129] Top shape: 1 4096 17 10 (696320)
I0419 00:49:05.928275 20818 net.cpp:137] Memory required for data: 873408012
I0419 00:49:05.928279 20818 layer_factory.hpp:77] Creating layer drop7
I0419 00:49:05.928287 20818 net.cpp:84] Creating Layer drop7
I0419 00:49:05.928292 20818 net.cpp:406] drop7 <- fc7
I0419 00:49:05.928298 20818 net.cpp:367] drop7 -> fc7 (in-place)
I0419 00:49:05.928350 20818 net.cpp:122] Setting up drop7
I0419 00:49:05.928356 20818 net.cpp:129] Top shape: 1 4096 17 10 (696320)
I0419 00:49:05.928359 20818 net.cpp:137] Memory required for data: 876193292
I0419 00:49:05.928362 20818 layer_factory.hpp:77] Creating layer score_fr-new
I0419 00:49:05.928372 20818 net.cpp:84] Creating Layer score_fr-new
I0419 00:49:05.928375 20818 net.cpp:406] score_fr-new <- fc7
I0419 00:49:05.928382 20818 net.cpp:380] score_fr-new -> score_fr-new
I0419 00:49:05.929615 20818 net.cpp:122] Setting up score_fr-new
I0419 00:49:05.929627 20818 net.cpp:129] Top shape: 1 3 17 10 (510)
I0419 00:49:05.929646 20818 net.cpp:137] Memory required for data: 876195332
I0419 00:49:05.929653 20818 layer_factory.hpp:77] Creating layer upscore2-new
I0419 00:49:05.929662 20818 net.cpp:84] Creating Layer upscore2-new
I0419 00:49:05.929666 20818 net.cpp:406] upscore2-new <- score_fr-new
I0419 00:49:05.929682 20818 net.cpp:380] upscore2-new -> upscore2-new
I0419 00:49:05.930040 20818 net.cpp:122] Setting up upscore2-new
I0419 00:49:05.930049 20818 net.cpp:129] Top shape: 1 3 36 22 (2376)
I0419 00:49:05.930068 20818 net.cpp:137] Memory required for data: 876204836
I0419 00:49:05.930081 20818 layer_factory.hpp:77] Creating layer upscore2-new_upscore2-new_0_split
I0419 00:49:05.930088 20818 net.cpp:84] Creating Layer upscore2-new_upscore2-new_0_split
I0419 00:49:05.930093 20818 net.cpp:406] upscore2-new_upscore2-new_0_split <- upscore2-new
I0419 00:49:05.930097 20818 net.cpp:380] upscore2-new_upscore2-new_0_split -> upscore2-new_upscore2-new_0_split_0
I0419 00:49:05.930104 20818 net.cpp:380] upscore2-new_upscore2-new_0_split -> upscore2-new_upscore2-new_0_split_1
I0419 00:49:05.930202 20818 net.cpp:122] Setting up upscore2-new_upscore2-new_0_split
I0419 00:49:05.930210 20818 net.cpp:129] Top shape: 1 3 36 22 (2376)
I0419 00:49:05.930230 20818 net.cpp:129] Top shape: 1 3 36 22 (2376)
I0419 00:49:05.930233 20818 net.cpp:137] Memory required for data: 876223844
I0419 00:49:05.930238 20818 layer_factory.hpp:77] Creating layer score_pool4-new
I0419 00:49:05.930248 20818 net.cpp:84] Creating Layer score_pool4-new
I0419 00:49:05.930253 20818 net.cpp:406] score_pool4-new <- pool4_pool4_0_split_1
I0419 00:49:05.930260 20818 net.cpp:380] score_pool4-new -> score_pool4-new
I0419 00:49:05.934837 20818 net.cpp:122] Setting up score_pool4-new
I0419 00:49:05.934877 20818 net.cpp:129] Top shape: 1 3 45 32 (4320)
I0419 00:49:05.934886 20818 net.cpp:137] Memory required for data: 876241124
I0419 00:49:05.934900 20818 layer_factory.hpp:77] Creating layer score_pool4c
I0419 00:49:05.934917 20818 net.cpp:84] Creating Layer score_pool4c
I0419 00:49:05.934934 20818 net.cpp:406] score_pool4c <- score_pool4-new
I0419 00:49:05.934944 20818 net.cpp:406] score_pool4c <- upscore2-new_upscore2-new_0_split_0
I0419 00:49:05.934957 20818 net.cpp:380] score_pool4c -> score_pool4c
I0419 00:49:05.935037 20818 net.cpp:122] Setting up score_pool4c
I0419 00:49:05.935051 20818 net.cpp:129] Top shape: 1 3 36 22 (2376)
I0419 00:49:05.935075 20818 net.cpp:137] Memory required for data: 876250628
I0419 00:49:05.935087 20818 layer_factory.hpp:77] Creating layer fuse_pool4
I0419 00:49:05.935111 20818 net.cpp:84] Creating Layer fuse_pool4
I0419 00:49:05.935117 20818 net.cpp:406] fuse_pool4 <- upscore2-new_upscore2-new_0_split_1
I0419 00:49:05.935127 20818 net.cpp:406] fuse_pool4 <- score_pool4c
I0419 00:49:05.935135 20818 net.cpp:380] fuse_pool4 -> fuse_pool4
I0419 00:49:05.935214 20818 net.cpp:122] Setting up fuse_pool4
I0419 00:49:05.935228 20818 net.cpp:129] Top shape: 1 3 36 22 (2376)
I0419 00:49:05.935235 20818 net.cpp:137] Memory required for data: 876260132
I0419 00:49:05.935240 20818 layer_factory.hpp:77] Creating layer upscore_pool4-new
I0419 00:49:05.935252 20818 net.cpp:84] Creating Layer upscore_pool4-new
I0419 00:49:05.935262 20818 net.cpp:406] upscore_pool4-new <- fuse_pool4
I0419 00:49:05.935272 20818 net.cpp:380] upscore_pool4-new -> upscore_pool4-new
I0419 00:49:05.935891 20818 net.cpp:122] Setting up upscore_pool4-new
I0419 00:49:05.935906 20818 net.cpp:129] Top shape: 1 3 74 46 (10212)
I0419 00:49:05.935912 20818 net.cpp:137] Memory required for data: 876300980
I0419 00:49:05.935921 20818 layer_factory.hpp:77] Creating layer upscore_pool4-new_upscore_pool4-new_0_split
I0419 00:49:05.935940 20818 net.cpp:84] Creating Layer upscore_pool4-new_upscore_pool4-new_0_split
I0419 00:49:05.935946 20818 net.cpp:406] upscore_pool4-new_upscore_pool4-new_0_split <- upscore_pool4-new
I0419 00:49:05.935956 20818 net.cpp:380] upscore_pool4-new_upscore_pool4-new_0_split -> upscore_pool4-new_upscore_pool4-new_0_split_0
I0419 00:49:05.935967 20818 net.cpp:380] upscore_pool4-new_upscore_pool4-new_0_split -> upscore_pool4-new_upscore_pool4-new_0_split_1
I0419 00:49:05.936077 20818 net.cpp:122] Setting up upscore_pool4-new_upscore_pool4-new_0_split
I0419 00:49:05.936090 20818 net.cpp:129] Top shape: 1 3 74 46 (10212)
I0419 00:49:05.936098 20818 net.cpp:129] Top shape: 1 3 74 46 (10212)
I0419 00:49:05.936103 20818 net.cpp:137] Memory required for data: 876382676
I0419 00:49:05.936110 20818 layer_factory.hpp:77] Creating layer score_pool3-new
I0419 00:49:05.936122 20818 net.cpp:84] Creating Layer score_pool3-new
I0419 00:49:05.936130 20818 net.cpp:406] score_pool3-new <- pool3_pool3_0_split_1
I0419 00:49:05.936151 20818 net.cpp:380] score_pool3-new -> score_pool3-new
I0419 00:49:05.939239 20818 net.cpp:122] Setting up score_pool3-new
I0419 00:49:05.939265 20818 net.cpp:129] Top shape: 1 3 89 64 (17088)
I0419 00:49:05.939272 20818 net.cpp:137] Memory required for data: 876451028
I0419 00:49:05.939296 20818 layer_factory.hpp:77] Creating layer score_pool3c
I0419 00:49:05.939307 20818 net.cpp:84] Creating Layer score_pool3c
I0419 00:49:05.939316 20818 net.cpp:406] score_pool3c <- score_pool3-new
I0419 00:49:05.939324 20818 net.cpp:406] score_pool3c <- upscore_pool4-new_upscore_pool4-new_0_split_0
I0419 00:49:05.939335 20818 net.cpp:380] score_pool3c -> score_pool3c
I0419 00:49:05.939409 20818 net.cpp:122] Setting up score_pool3c
I0419 00:49:05.939424 20818 net.cpp:129] Top shape: 1 3 74 46 (10212)
I0419 00:49:05.939430 20818 net.cpp:137] Memory required for data: 876491876
I0419 00:49:05.939436 20818 layer_factory.hpp:77] Creating layer fuse_pool3
I0419 00:49:05.939457 20818 net.cpp:84] Creating Layer fuse_pool3
I0419 00:49:05.939465 20818 net.cpp:406] fuse_pool3 <- upscore_pool4-new_upscore_pool4-new_0_split_1
I0419 00:49:05.939472 20818 net.cpp:406] fuse_pool3 <- score_pool3c
I0419 00:49:05.939481 20818 net.cpp:380] fuse_pool3 -> fuse_pool3
I0419 00:49:05.939548 20818 net.cpp:122] Setting up fuse_pool3
I0419 00:49:05.939561 20818 net.cpp:129] Top shape: 1 3 74 46 (10212)
I0419 00:49:05.939566 20818 net.cpp:137] Memory required for data: 876532724
I0419 00:49:05.939573 20818 layer_factory.hpp:77] Creating layer upscore8-new
I0419 00:49:05.939584 20818 net.cpp:84] Creating Layer upscore8-new
I0419 00:49:05.939590 20818 net.cpp:406] upscore8-new <- fuse_pool3
I0419 00:49:05.939600 20818 net.cpp:380] upscore8-new -> upscore8-new
I0419 00:49:05.940237 20818 net.cpp:122] Setting up upscore8-new
I0419 00:49:05.940251 20818 net.cpp:129] Top shape: 1 3 600 376 (676800)
I0419 00:49:05.940258 20818 net.cpp:137] Memory required for data: 879239924
I0419 00:49:05.940277 20818 layer_factory.hpp:77] Creating layer upscore8_cropped
I0419 00:49:05.940287 20818 net.cpp:84] Creating Layer upscore8_cropped
I0419 00:49:05.940294 20818 net.cpp:406] upscore8_cropped <- upscore8-new
I0419 00:49:05.940304 20818 net.cpp:406] upscore8_cropped <- data_data_0_split_1
I0419 00:49:05.940315 20818 net.cpp:380] upscore8_cropped -> upscore8_cropped
I0419 00:49:05.940376 20818 net.cpp:122] Setting up upscore8_cropped
I0419 00:49:05.940389 20818 net.cpp:129] Top shape: 1 3 512 310 (476160)
I0419 00:49:05.940395 20818 net.cpp:137] Memory required for data: 881144564
I0419 00:49:05.940402 20818 layer_factory.hpp:77] Creating layer score
I0419 00:49:05.940418 20818 net.cpp:84] Creating Layer score
I0419 00:49:05.940424 20818 net.cpp:406] score <- upscore8_cropped
I0419 00:49:05.940435 20818 net.cpp:380] score -> score
I0419 00:49:05.943456 20818 net.cpp:122] Setting up score
I0419 00:49:05.943475 20818 net.cpp:129] Top shape: 1 3 512 310 (476160)
I0419 00:49:05.943480 20818 net.cpp:137] Memory required for data: 883049204
I0419 00:49:05.943490 20818 layer_factory.hpp:77] Creating layer score_score_0_split
I0419 00:49:05.943511 20818 net.cpp:84] Creating Layer score_score_0_split
I0419 00:49:05.943516 20818 net.cpp:406] score_score_0_split <- score
I0419 00:49:05.943524 20818 net.cpp:380] score_score_0_split -> score_score_0_split_0
I0419 00:49:05.943534 20818 net.cpp:380] score_score_0_split -> score_score_0_split_1
I0419 00:49:05.943624 20818 net.cpp:122] Setting up score_score_0_split
I0419 00:49:05.943635 20818 net.cpp:129] Top shape: 1 3 512 310 (476160)
I0419 00:49:05.943641 20818 net.cpp:129] Top shape: 1 3 512 310 (476160)
I0419 00:49:05.943645 20818 net.cpp:137] Memory required for data: 886858484
I0419 00:49:05.943650 20818 layer_factory.hpp:77] Creating layer prob
I0419 00:49:05.943657 20818 net.cpp:84] Creating Layer prob
I0419 00:49:05.943662 20818 net.cpp:406] prob <- score_score_0_split_0
I0419 00:49:05.943670 20818 net.cpp:380] prob -> prob
I0419 00:49:05.944018 20818 net.cpp:122] Setting up prob
I0419 00:49:05.944033 20818 net.cpp:129] Top shape: 1 3 512 310 (476160)
I0419 00:49:05.944038 20818 net.cpp:137] Memory required for data: 888763124
I0419 00:49:05.944042 20818 layer_factory.hpp:77] Creating layer saliency
I0419 00:49:05.944069 20818 net.cpp:84] Creating Layer saliency
I0419 00:49:05.944075 20818 net.cpp:406] saliency <- prob
I0419 00:49:05.944097 20818 net.cpp:380] saliency -> saliency
I0419 00:49:05.950115 20818 net.cpp:122] Setting up saliency
I0419 00:49:05.950212 20818 net.cpp:129] Top shape: 1 3 512 310 (476160)
I0419 00:49:05.950222 20818 net.cpp:137] Memory required for data: 890667764
I0419 00:49:05.950244 20818 layer_factory.hpp:77] Creating layer saliency_data
I0419 00:49:05.950276 20818 net.cpp:84] Creating Layer saliency_data
I0419 00:49:05.950287 20818 net.cpp:406] saliency_data <- data_data_0_split_2
I0419 00:49:05.950304 20818 net.cpp:406] saliency_data <- saliency
I0419 00:49:05.950315 20818 net.cpp:380] saliency_data -> saliency_data
I0419 00:49:05.950569 20818 net.cpp:122] Setting up saliency_data
I0419 00:49:05.950588 20818 net.cpp:129] Top shape: 1 3 512 310 (476160)
I0419 00:49:05.950594 20818 net.cpp:137] Memory required for data: 892572404
I0419 00:49:05.950601 20818 layer_factory.hpp:77] Creating layer crop
I0419 00:49:05.950704 20818 net.cpp:84] Creating Layer crop
I0419 00:49:05.950721 20818 net.cpp:406] crop <- label_data_1_split_0
I0419 00:49:05.950732 20818 net.cpp:406] crop <- saliency_data
I0419 00:49:05.950742 20818 net.cpp:406] crop <- crop_margin
I0419 00:49:05.950750 20818 net.cpp:406] crop <- crop_prob
I0419 00:49:05.950758 20818 net.cpp:406] crop <- crop_sample_batch
I0419 00:49:05.950772 20818 net.cpp:380] crop -> data-R
I0419 00:49:05.950788 20818 net.cpp:380] crop -> crop_info
I0419 00:49:05.959924 20818 net.cpp:122] Setting up crop
I0419 00:49:05.959959 20818 net.cpp:129] Top shape: 1 3 512 310 (476160)
I0419 00:49:05.959969 20818 net.cpp:129] Top shape: 1 2 4 (8)
I0419 00:49:05.959976 20818 net.cpp:137] Memory required for data: 894477076
I0419 00:49:05.959985 20818 layer_factory.hpp:77] Creating layer data-R_crop_0_split
I0419 00:49:05.960002 20818 net.cpp:84] Creating Layer data-R_crop_0_split
I0419 00:49:05.960012 20818 net.cpp:406] data-R_crop_0_split <- data-R
I0419 00:49:05.960036 20818 net.cpp:380] data-R_crop_0_split -> data-R_crop_0_split_0
I0419 00:49:05.960052 20818 net.cpp:380] data-R_crop_0_split -> data-R_crop_0_split_1
I0419 00:49:05.960189 20818 net.cpp:122] Setting up data-R_crop_0_split
I0419 00:49:05.960206 20818 net.cpp:129] Top shape: 1 3 512 310 (476160)
I0419 00:49:05.960214 20818 net.cpp:129] Top shape: 1 3 512 310 (476160)
I0419 00:49:05.960222 20818 net.cpp:137] Memory required for data: 898286356
I0419 00:49:05.960228 20818 layer_factory.hpp:77] Creating layer conv1_1-R
I0419 00:49:05.960245 20818 net.cpp:84] Creating Layer conv1_1-R
I0419 00:49:05.960254 20818 net.cpp:406] conv1_1-R <- data-R_crop_0_split_0
I0419 00:49:05.960273 20818 net.cpp:380] conv1_1-R -> conv1_1-R
I0419 00:49:05.965517 20818 net.cpp:122] Setting up conv1_1-R
I0419 00:49:05.965559 20818 net.cpp:129] Top shape: 1 64 710 508 (23083520)
I0419 00:49:05.965569 20818 net.cpp:137] Memory required for data: 990620436
I0419 00:49:05.965584 20818 layer_factory.hpp:77] Creating layer relu1_1-R
I0419 00:49:05.965598 20818 net.cpp:84] Creating Layer relu1_1-R
I0419 00:49:05.965606 20818 net.cpp:406] relu1_1-R <- conv1_1-R
I0419 00:49:05.965625 20818 net.cpp:367] relu1_1-R -> conv1_1-R (in-place)
I0419 00:49:05.966902 20818 net.cpp:122] Setting up relu1_1-R
I0419 00:49:05.966933 20818 net.cpp:129] Top shape: 1 64 710 508 (23083520)
I0419 00:49:05.966936 20818 net.cpp:137] Memory required for data: 1082954516
I0419 00:49:05.966940 20818 layer_factory.hpp:77] Creating layer conv1_2-R
I0419 00:49:05.966970 20818 net.cpp:84] Creating Layer conv1_2-R
I0419 00:49:05.966974 20818 net.cpp:406] conv1_2-R <- conv1_1-R
I0419 00:49:05.966991 20818 net.cpp:380] conv1_2-R -> conv1_2-R
I0419 00:49:05.969697 20818 net.cpp:122] Setting up conv1_2-R
I0419 00:49:05.969712 20818 net.cpp:129] Top shape: 1 64 710 508 (23083520)
I0419 00:49:05.969732 20818 net.cpp:137] Memory required for data: 1175288596
I0419 00:49:05.969739 20818 layer_factory.hpp:77] Creating layer relu1_2-R
I0419 00:49:05.969745 20818 net.cpp:84] Creating Layer relu1_2-R
I0419 00:49:05.969749 20818 net.cpp:406] relu1_2-R <- conv1_2-R
I0419 00:49:05.969754 20818 net.cpp:367] relu1_2-R -> conv1_2-R (in-place)
I0419 00:49:05.970612 20818 net.cpp:122] Setting up relu1_2-R
I0419 00:49:05.970643 20818 net.cpp:129] Top shape: 1 64 710 508 (23083520)
I0419 00:49:05.970646 20818 net.cpp:137] Memory required for data: 1267622676
I0419 00:49:05.970650 20818 layer_factory.hpp:77] Creating layer pool1-R
I0419 00:49:05.970659 20818 net.cpp:84] Creating Layer pool1-R
I0419 00:49:05.970664 20818 net.cpp:406] pool1-R <- conv1_2-R
I0419 00:49:05.970679 20818 net.cpp:380] pool1-R -> pool1-R
I0419 00:49:05.970762 20818 net.cpp:122] Setting up pool1-R
I0419 00:49:05.970783 20818 net.cpp:129] Top shape: 1 64 355 254 (5770880)
I0419 00:49:05.970787 20818 net.cpp:137] Memory required for data: 1290706196
I0419 00:49:05.970789 20818 layer_factory.hpp:77] Creating layer conv2_1-R
I0419 00:49:05.970798 20818 net.cpp:84] Creating Layer conv2_1-R
I0419 00:49:05.970803 20818 net.cpp:406] conv2_1-R <- pool1-R
I0419 00:49:05.970808 20818 net.cpp:380] conv2_1-R -> conv2_1-R
I0419 00:49:05.973683 20818 net.cpp:122] Setting up conv2_1-R
I0419 00:49:05.973700 20818 net.cpp:129] Top shape: 1 128 355 254 (11541760)
I0419 00:49:05.973719 20818 net.cpp:137] Memory required for data: 1336873236
I0419 00:49:05.973726 20818 layer_factory.hpp:77] Creating layer relu2_1-R
I0419 00:49:05.973732 20818 net.cpp:84] Creating Layer relu2_1-R
I0419 00:49:05.973737 20818 net.cpp:406] relu2_1-R <- conv2_1-R
I0419 00:49:05.973742 20818 net.cpp:367] relu2_1-R -> conv2_1-R (in-place)
I0419 00:49:05.973948 20818 net.cpp:122] Setting up relu2_1-R
I0419 00:49:05.973958 20818 net.cpp:129] Top shape: 1 128 355 254 (11541760)
I0419 00:49:05.973961 20818 net.cpp:137] Memory required for data: 1383040276
I0419 00:49:05.973965 20818 layer_factory.hpp:77] Creating layer conv2_2-R
I0419 00:49:05.973973 20818 net.cpp:84] Creating Layer conv2_2-R
I0419 00:49:05.973976 20818 net.cpp:406] conv2_2-R <- conv2_1-R
I0419 00:49:05.973983 20818 net.cpp:380] conv2_2-R -> conv2_2-R
I0419 00:49:05.977600 20818 net.cpp:122] Setting up conv2_2-R
I0419 00:49:05.977614 20818 net.cpp:129] Top shape: 1 128 355 254 (11541760)
I0419 00:49:05.977634 20818 net.cpp:137] Memory required for data: 1429207316
I0419 00:49:05.977641 20818 layer_factory.hpp:77] Creating layer relu2_2-R
I0419 00:49:05.977648 20818 net.cpp:84] Creating Layer relu2_2-R
I0419 00:49:05.977651 20818 net.cpp:406] relu2_2-R <- conv2_2-R
I0419 00:49:05.977656 20818 net.cpp:367] relu2_2-R -> conv2_2-R (in-place)
I0419 00:49:05.977893 20818 net.cpp:122] Setting up relu2_2-R
I0419 00:49:05.977905 20818 net.cpp:129] Top shape: 1 128 355 254 (11541760)
I0419 00:49:05.977907 20818 net.cpp:137] Memory required for data: 1475374356
I0419 00:49:05.977911 20818 layer_factory.hpp:77] Creating layer pool2-R
I0419 00:49:05.977916 20818 net.cpp:84] Creating Layer pool2-R
I0419 00:49:05.977921 20818 net.cpp:406] pool2-R <- conv2_2-R
I0419 00:49:05.977926 20818 net.cpp:380] pool2-R -> pool2-R
I0419 00:49:05.978005 20818 net.cpp:122] Setting up pool2-R
I0419 00:49:05.978014 20818 net.cpp:129] Top shape: 1 128 178 127 (2893568)
I0419 00:49:05.978018 20818 net.cpp:137] Memory required for data: 1486948628
I0419 00:49:05.978020 20818 layer_factory.hpp:77] Creating layer conv3_1-R
I0419 00:49:05.978029 20818 net.cpp:84] Creating Layer conv3_1-R
I0419 00:49:05.978031 20818 net.cpp:406] conv3_1-R <- pool2-R
I0419 00:49:05.978036 20818 net.cpp:380] conv3_1-R -> conv3_1-R
I0419 00:49:05.983024 20818 net.cpp:122] Setting up conv3_1-R
I0419 00:49:05.983042 20818 net.cpp:129] Top shape: 1 256 178 127 (5787136)
I0419 00:49:05.983057 20818 net.cpp:137] Memory required for data: 1510097172
I0419 00:49:05.983067 20818 layer_factory.hpp:77] Creating layer relu3_1-R
I0419 00:49:05.983074 20818 net.cpp:84] Creating Layer relu3_1-R
I0419 00:49:05.983079 20818 net.cpp:406] relu3_1-R <- conv3_1-R
I0419 00:49:05.983086 20818 net.cpp:367] relu3_1-R -> conv3_1-R (in-place)
I0419 00:49:05.983407 20818 net.cpp:122] Setting up relu3_1-R
I0419 00:49:05.983420 20818 net.cpp:129] Top shape: 1 256 178 127 (5787136)
I0419 00:49:05.983425 20818 net.cpp:137] Memory required for data: 1533245716
I0419 00:49:05.983436 20818 layer_factory.hpp:77] Creating layer conv3_2-R
I0419 00:49:05.983446 20818 net.cpp:84] Creating Layer conv3_2-R
I0419 00:49:05.983451 20818 net.cpp:406] conv3_2-R <- conv3_1-R
I0419 00:49:05.983458 20818 net.cpp:380] conv3_2-R -> conv3_2-R
I0419 00:49:05.988770 20818 net.cpp:122] Setting up conv3_2-R
I0419 00:49:05.988788 20818 net.cpp:129] Top shape: 1 256 178 127 (5787136)
I0419 00:49:05.988801 20818 net.cpp:137] Memory required for data: 1556394260
I0419 00:49:05.988811 20818 layer_factory.hpp:77] Creating layer relu3_2-R
I0419 00:49:05.988819 20818 net.cpp:84] Creating Layer relu3_2-R
I0419 00:49:05.988824 20818 net.cpp:406] relu3_2-R <- conv3_2-R
I0419 00:49:05.988839 20818 net.cpp:367] relu3_2-R -> conv3_2-R (in-place)
I0419 00:49:05.989156 20818 net.cpp:122] Setting up relu3_2-R
I0419 00:49:05.989168 20818 net.cpp:129] Top shape: 1 256 178 127 (5787136)
I0419 00:49:05.989172 20818 net.cpp:137] Memory required for data: 1579542804
I0419 00:49:05.989177 20818 layer_factory.hpp:77] Creating layer conv3_3-R
I0419 00:49:05.989189 20818 net.cpp:84] Creating Layer conv3_3-R
I0419 00:49:05.989194 20818 net.cpp:406] conv3_3-R <- conv3_2-R
I0419 00:49:05.989202 20818 net.cpp:380] conv3_3-R -> conv3_3-R
I0419 00:49:05.994623 20818 net.cpp:122] Setting up conv3_3-R
I0419 00:49:05.994653 20818 net.cpp:129] Top shape: 1 256 178 127 (5787136)
I0419 00:49:05.994657 20818 net.cpp:137] Memory required for data: 1602691348
I0419 00:49:05.994664 20818 layer_factory.hpp:77] Creating layer relu3_3-R
I0419 00:49:05.994671 20818 net.cpp:84] Creating Layer relu3_3-R
I0419 00:49:05.994675 20818 net.cpp:406] relu3_3-R <- conv3_3-R
I0419 00:49:05.994681 20818 net.cpp:367] relu3_3-R -> conv3_3-R (in-place)
I0419 00:49:05.995509 20818 net.cpp:122] Setting up relu3_3-R
I0419 00:49:05.995523 20818 net.cpp:129] Top shape: 1 256 178 127 (5787136)
I0419 00:49:05.995543 20818 net.cpp:137] Memory required for data: 1625839892
I0419 00:49:05.995548 20818 layer_factory.hpp:77] Creating layer pool3-R
I0419 00:49:05.995555 20818 net.cpp:84] Creating Layer pool3-R
I0419 00:49:05.995558 20818 net.cpp:406] pool3-R <- conv3_3-R
I0419 00:49:05.995565 20818 net.cpp:380] pool3-R -> pool3-R
I0419 00:49:05.995647 20818 net.cpp:122] Setting up pool3-R
I0419 00:49:05.995656 20818 net.cpp:129] Top shape: 1 256 89 64 (1458176)
I0419 00:49:05.995659 20818 net.cpp:137] Memory required for data: 1631672596
I0419 00:49:05.995663 20818 layer_factory.hpp:77] Creating layer pool3-R_pool3-R_0_split
I0419 00:49:05.995669 20818 net.cpp:84] Creating Layer pool3-R_pool3-R_0_split
I0419 00:49:05.995672 20818 net.cpp:406] pool3-R_pool3-R_0_split <- pool3-R
I0419 00:49:05.995678 20818 net.cpp:380] pool3-R_pool3-R_0_split -> pool3-R_pool3-R_0_split_0
I0419 00:49:05.995684 20818 net.cpp:380] pool3-R_pool3-R_0_split -> pool3-R_pool3-R_0_split_1
I0419 00:49:05.995774 20818 net.cpp:122] Setting up pool3-R_pool3-R_0_split
I0419 00:49:05.995782 20818 net.cpp:129] Top shape: 1 256 89 64 (1458176)
I0419 00:49:05.995786 20818 net.cpp:129] Top shape: 1 256 89 64 (1458176)
I0419 00:49:05.995790 20818 net.cpp:137] Memory required for data: 1643338004
I0419 00:49:05.995792 20818 layer_factory.hpp:77] Creating layer conv4_1-R
I0419 00:49:05.995801 20818 net.cpp:84] Creating Layer conv4_1-R
I0419 00:49:05.995805 20818 net.cpp:406] conv4_1-R <- pool3-R_pool3-R_0_split_0
I0419 00:49:05.995811 20818 net.cpp:380] conv4_1-R -> conv4_1-R
I0419 00:49:06.000659 20818 net.cpp:122] Setting up conv4_1-R
I0419 00:49:06.000674 20818 net.cpp:129] Top shape: 1 512 89 64 (2916352)
I0419 00:49:06.000694 20818 net.cpp:137] Memory required for data: 1655003412
I0419 00:49:06.000701 20818 layer_factory.hpp:77] Creating layer relu4_1-R
I0419 00:49:06.000708 20818 net.cpp:84] Creating Layer relu4_1-R
I0419 00:49:06.000712 20818 net.cpp:406] relu4_1-R <- conv4_1-R
I0419 00:49:06.000718 20818 net.cpp:367] relu4_1-R -> conv4_1-R (in-place)
I0419 00:49:06.001540 20818 net.cpp:122] Setting up relu4_1-R
I0419 00:49:06.001554 20818 net.cpp:129] Top shape: 1 512 89 64 (2916352)
I0419 00:49:06.001575 20818 net.cpp:137] Memory required for data: 1666668820
I0419 00:49:06.001579 20818 layer_factory.hpp:77] Creating layer conv4_2-R
I0419 00:49:06.001588 20818 net.cpp:84] Creating Layer conv4_2-R
I0419 00:49:06.001592 20818 net.cpp:406] conv4_2-R <- conv4_1-R
I0419 00:49:06.001610 20818 net.cpp:380] conv4_2-R -> conv4_2-R
I0419 00:49:06.013844 20818 net.cpp:122] Setting up conv4_2-R
I0419 00:49:06.013878 20818 net.cpp:129] Top shape: 1 512 89 64 (2916352)
I0419 00:49:06.013885 20818 net.cpp:137] Memory required for data: 1678334228
I0419 00:49:06.013893 20818 layer_factory.hpp:77] Creating layer relu4_2-R
I0419 00:49:06.013903 20818 net.cpp:84] Creating Layer relu4_2-R
I0419 00:49:06.013921 20818 net.cpp:406] relu4_2-R <- conv4_2-R
I0419 00:49:06.013928 20818 net.cpp:367] relu4_2-R -> conv4_2-R (in-place)
I0419 00:49:06.014282 20818 net.cpp:122] Setting up relu4_2-R
I0419 00:49:06.014297 20818 net.cpp:129] Top shape: 1 512 89 64 (2916352)
I0419 00:49:06.014302 20818 net.cpp:137] Memory required for data: 1689999636
I0419 00:49:06.014307 20818 layer_factory.hpp:77] Creating layer conv4_3-R
I0419 00:49:06.014317 20818 net.cpp:84] Creating Layer conv4_3-R
I0419 00:49:06.014334 20818 net.cpp:406] conv4_3-R <- conv4_2-R
I0419 00:49:06.014343 20818 net.cpp:380] conv4_3-R -> conv4_3-R
I0419 00:49:06.026077 20818 net.cpp:122] Setting up conv4_3-R
I0419 00:49:06.026101 20818 net.cpp:129] Top shape: 1 512 89 64 (2916352)
I0419 00:49:06.026106 20818 net.cpp:137] Memory required for data: 1701665044
I0419 00:49:06.026118 20818 layer_factory.hpp:77] Creating layer relu4_3-R
I0419 00:49:06.026129 20818 net.cpp:84] Creating Layer relu4_3-R
I0419 00:49:06.026136 20818 net.cpp:406] relu4_3-R <- conv4_3-R
I0419 00:49:06.026144 20818 net.cpp:367] relu4_3-R -> conv4_3-R (in-place)
I0419 00:49:06.026564 20818 net.cpp:122] Setting up relu4_3-R
I0419 00:49:06.026574 20818 net.cpp:129] Top shape: 1 512 89 64 (2916352)
I0419 00:49:06.026593 20818 net.cpp:137] Memory required for data: 1713330452
I0419 00:49:06.026597 20818 layer_factory.hpp:77] Creating layer pool4-R
I0419 00:49:06.026605 20818 net.cpp:84] Creating Layer pool4-R
I0419 00:49:06.026610 20818 net.cpp:406] pool4-R <- conv4_3-R
I0419 00:49:06.026618 20818 net.cpp:380] pool4-R -> pool4-R
I0419 00:49:06.026710 20818 net.cpp:122] Setting up pool4-R
I0419 00:49:06.026721 20818 net.cpp:129] Top shape: 1 512 45 32 (737280)
I0419 00:49:06.026723 20818 net.cpp:137] Memory required for data: 1716279572
I0419 00:49:06.026726 20818 layer_factory.hpp:77] Creating layer pool4-R_pool4-R_0_split
I0419 00:49:06.026732 20818 net.cpp:84] Creating Layer pool4-R_pool4-R_0_split
I0419 00:49:06.026736 20818 net.cpp:406] pool4-R_pool4-R_0_split <- pool4-R
I0419 00:49:06.026741 20818 net.cpp:380] pool4-R_pool4-R_0_split -> pool4-R_pool4-R_0_split_0
I0419 00:49:06.026747 20818 net.cpp:380] pool4-R_pool4-R_0_split -> pool4-R_pool4-R_0_split_1
I0419 00:49:06.026829 20818 net.cpp:122] Setting up pool4-R_pool4-R_0_split
I0419 00:49:06.026837 20818 net.cpp:129] Top shape: 1 512 45 32 (737280)
I0419 00:49:06.026841 20818 net.cpp:129] Top shape: 1 512 45 32 (737280)
I0419 00:49:06.026844 20818 net.cpp:137] Memory required for data: 1722177812
I0419 00:49:06.026847 20818 layer_factory.hpp:77] Creating layer conv5_1-R
I0419 00:49:06.026863 20818 net.cpp:84] Creating Layer conv5_1-R
I0419 00:49:06.026867 20818 net.cpp:406] conv5_1-R <- pool4-R_pool4-R_0_split_0
I0419 00:49:06.026873 20818 net.cpp:380] conv5_1-R -> conv5_1-R
I0419 00:49:06.037410 20818 net.cpp:122] Setting up conv5_1-R
I0419 00:49:06.037446 20818 net.cpp:129] Top shape: 1 512 45 32 (737280)
I0419 00:49:06.037449 20818 net.cpp:137] Memory required for data: 1725126932
I0419 00:49:06.037470 20818 layer_factory.hpp:77] Creating layer relu5_1-R
I0419 00:49:06.037488 20818 net.cpp:84] Creating Layer relu5_1-R
I0419 00:49:06.037492 20818 net.cpp:406] relu5_1-R <- conv5_1-R
I0419 00:49:06.037497 20818 net.cpp:367] relu5_1-R -> conv5_1-R (in-place)
I0419 00:49:06.037731 20818 net.cpp:122] Setting up relu5_1-R
I0419 00:49:06.037742 20818 net.cpp:129] Top shape: 1 512 45 32 (737280)
I0419 00:49:06.037745 20818 net.cpp:137] Memory required for data: 1728076052
I0419 00:49:06.037750 20818 layer_factory.hpp:77] Creating layer conv5_2-R
I0419 00:49:06.037760 20818 net.cpp:84] Creating Layer conv5_2-R
I0419 00:49:06.037765 20818 net.cpp:406] conv5_2-R <- conv5_1-R
I0419 00:49:06.037772 20818 net.cpp:380] conv5_2-R -> conv5_2-R
I0419 00:49:06.048980 20818 net.cpp:122] Setting up conv5_2-R
I0419 00:49:06.049015 20818 net.cpp:129] Top shape: 1 512 45 32 (737280)
I0419 00:49:06.049021 20818 net.cpp:137] Memory required for data: 1731025172
I0419 00:49:06.049036 20818 layer_factory.hpp:77] Creating layer relu5_2-R
I0419 00:49:06.049046 20818 net.cpp:84] Creating Layer relu5_2-R
I0419 00:49:06.049053 20818 net.cpp:406] relu5_2-R <- conv5_2-R
I0419 00:49:06.049062 20818 net.cpp:367] relu5_2-R -> conv5_2-R (in-place)
I0419 00:49:06.049448 20818 net.cpp:122] Setting up relu5_2-R
I0419 00:49:06.049465 20818 net.cpp:129] Top shape: 1 512 45 32 (737280)
I0419 00:49:06.049470 20818 net.cpp:137] Memory required for data: 1733974292
I0419 00:49:06.049476 20818 layer_factory.hpp:77] Creating layer conv5_3-R
I0419 00:49:06.049489 20818 net.cpp:84] Creating Layer conv5_3-R
I0419 00:49:06.049495 20818 net.cpp:406] conv5_3-R <- conv5_2-R
I0419 00:49:06.049506 20818 net.cpp:380] conv5_3-R -> conv5_3-R
I0419 00:49:06.058689 20818 net.cpp:122] Setting up conv5_3-R
I0419 00:49:06.058723 20818 net.cpp:129] Top shape: 1 512 45 32 (737280)
I0419 00:49:06.058727 20818 net.cpp:137] Memory required for data: 1736923412
I0419 00:49:06.058735 20818 layer_factory.hpp:77] Creating layer relu5_3-R
I0419 00:49:06.058743 20818 net.cpp:84] Creating Layer relu5_3-R
I0419 00:49:06.058748 20818 net.cpp:406] relu5_3-R <- conv5_3-R
I0419 00:49:06.058764 20818 net.cpp:367] relu5_3-R -> conv5_3-R (in-place)
I0419 00:49:06.059622 20818 net.cpp:122] Setting up relu5_3-R
I0419 00:49:06.059636 20818 net.cpp:129] Top shape: 1 512 45 32 (737280)
I0419 00:49:06.059656 20818 net.cpp:137] Memory required for data: 1739872532
I0419 00:49:06.059660 20818 layer_factory.hpp:77] Creating layer pool5-R
I0419 00:49:06.059669 20818 net.cpp:84] Creating Layer pool5-R
I0419 00:49:06.059674 20818 net.cpp:406] pool5-R <- conv5_3-R
I0419 00:49:06.059693 20818 net.cpp:380] pool5-R -> pool5-R
I0419 00:49:06.059780 20818 net.cpp:122] Setting up pool5-R
I0419 00:49:06.059789 20818 net.cpp:129] Top shape: 1 512 23 16 (188416)
I0419 00:49:06.059793 20818 net.cpp:137] Memory required for data: 1740626196
I0419 00:49:06.059797 20818 layer_factory.hpp:77] Creating layer fc6-R
I0419 00:49:06.059805 20818 net.cpp:84] Creating Layer fc6-R
I0419 00:49:06.059809 20818 net.cpp:406] fc6-R <- pool5-R
I0419 00:49:06.059816 20818 net.cpp:380] fc6-R -> fc6-R
I0419 00:49:06.322073 20818 net.cpp:122] Setting up fc6-R
I0419 00:49:06.322131 20818 net.cpp:129] Top shape: 1 4096 17 10 (696320)
I0419 00:49:06.322136 20818 net.cpp:137] Memory required for data: 1743411476
I0419 00:49:06.322146 20818 layer_factory.hpp:77] Creating layer relu6-R
I0419 00:49:06.322160 20818 net.cpp:84] Creating Layer relu6-R
I0419 00:49:06.322190 20818 net.cpp:406] relu6-R <- fc6-R
I0419 00:49:06.322199 20818 net.cpp:367] relu6-R -> fc6-R (in-place)
I0419 00:49:06.323417 20818 net.cpp:122] Setting up relu6-R
I0419 00:49:06.323446 20818 net.cpp:129] Top shape: 1 4096 17 10 (696320)
I0419 00:49:06.323465 20818 net.cpp:137] Memory required for data: 1746196756
I0419 00:49:06.323469 20818 layer_factory.hpp:77] Creating layer drop6-R
I0419 00:49:06.323478 20818 net.cpp:84] Creating Layer drop6-R
I0419 00:49:06.323482 20818 net.cpp:406] drop6-R <- fc6-R
I0419 00:49:06.323504 20818 net.cpp:367] drop6-R -> fc6-R (in-place)
I0419 00:49:06.323559 20818 net.cpp:122] Setting up drop6-R
I0419 00:49:06.323567 20818 net.cpp:129] Top shape: 1 4096 17 10 (696320)
I0419 00:49:06.323570 20818 net.cpp:137] Memory required for data: 1748982036
I0419 00:49:06.323573 20818 layer_factory.hpp:77] Creating layer fc7-R
I0419 00:49:06.323585 20818 net.cpp:84] Creating Layer fc7-R
I0419 00:49:06.323597 20818 net.cpp:406] fc7-R <- fc6-R
I0419 00:49:06.323604 20818 net.cpp:380] fc7-R -> fc7-R
I0419 00:49:06.372045 20818 net.cpp:122] Setting up fc7-R
I0419 00:49:06.372092 20818 net.cpp:129] Top shape: 1 4096 17 10 (696320)
I0419 00:49:06.372100 20818 net.cpp:137] Memory required for data: 1751767316
I0419 00:49:06.372122 20818 layer_factory.hpp:77] Creating layer relu7-R
I0419 00:49:06.372141 20818 net.cpp:84] Creating Layer relu7-R
I0419 00:49:06.372153 20818 net.cpp:406] relu7-R <- fc7-R
I0419 00:49:06.372167 20818 net.cpp:367] relu7-R -> fc7-R (in-place)
I0419 00:49:06.372699 20818 net.cpp:122] Setting up relu7-R
I0419 00:49:06.372720 20818 net.cpp:129] Top shape: 1 4096 17 10 (696320)
I0419 00:49:06.372726 20818 net.cpp:137] Memory required for data: 1754552596
I0419 00:49:06.372735 20818 layer_factory.hpp:77] Creating layer drop7-R
I0419 00:49:06.372756 20818 net.cpp:84] Creating Layer drop7-R
I0419 00:49:06.372766 20818 net.cpp:406] drop7-R <- fc7-R
I0419 00:49:06.372776 20818 net.cpp:367] drop7-R -> fc7-R (in-place)
I0419 00:49:06.372877 20818 net.cpp:122] Setting up drop7-R
I0419 00:49:06.372894 20818 net.cpp:129] Top shape: 1 4096 17 10 (696320)
I0419 00:49:06.372900 20818 net.cpp:137] Memory required for data: 1757337876
I0419 00:49:06.372907 20818 layer_factory.hpp:77] Creating layer score_fr-new-R
I0419 00:49:06.372937 20818 net.cpp:84] Creating Layer score_fr-new-R
I0419 00:49:06.372944 20818 net.cpp:406] score_fr-new-R <- fc7-R
I0419 00:49:06.372958 20818 net.cpp:380] score_fr-new-R -> score_fr-new-R
I0419 00:49:06.382323 20818 net.cpp:122] Setting up score_fr-new-R
I0419 00:49:06.382382 20818 net.cpp:129] Top shape: 1 3 17 10 (510)
I0419 00:49:06.382392 20818 net.cpp:137] Memory required for data: 1757339916
I0419 00:49:06.382411 20818 layer_factory.hpp:77] Creating layer upscore2-new-R
I0419 00:49:06.382442 20818 net.cpp:84] Creating Layer upscore2-new-R
I0419 00:49:06.382462 20818 net.cpp:406] upscore2-new-R <- score_fr-new-R
I0419 00:49:06.382481 20818 net.cpp:380] upscore2-new-R -> upscore2-new-R
I0419 00:49:06.383318 20818 net.cpp:122] Setting up upscore2-new-R
I0419 00:49:06.383337 20818 net.cpp:129] Top shape: 1 3 36 22 (2376)
I0419 00:49:06.383343 20818 net.cpp:137] Memory required for data: 1757349420
I0419 00:49:06.383354 20818 layer_factory.hpp:77] Creating layer upscore2-new-R_upscore2-new-R_0_split
I0419 00:49:06.383368 20818 net.cpp:84] Creating Layer upscore2-new-R_upscore2-new-R_0_split
I0419 00:49:06.383375 20818 net.cpp:406] upscore2-new-R_upscore2-new-R_0_split <- upscore2-new-R
I0419 00:49:06.383397 20818 net.cpp:380] upscore2-new-R_upscore2-new-R_0_split -> upscore2-new-R_upscore2-new-R_0_split_0
I0419 00:49:06.383424 20818 net.cpp:380] upscore2-new-R_upscore2-new-R_0_split -> upscore2-new-R_upscore2-new-R_0_split_1
I0419 00:49:06.383561 20818 net.cpp:122] Setting up upscore2-new-R_upscore2-new-R_0_split
I0419 00:49:06.383577 20818 net.cpp:129] Top shape: 1 3 36 22 (2376)
I0419 00:49:06.383592 20818 net.cpp:129] Top shape: 1 3 36 22 (2376)
I0419 00:49:06.383606 20818 net.cpp:137] Memory required for data: 1757368428
I0419 00:49:06.383615 20818 layer_factory.hpp:77] Creating layer score_pool4-new-R
I0419 00:49:06.383633 20818 net.cpp:84] Creating Layer score_pool4-new-R
I0419 00:49:06.383646 20818 net.cpp:406] score_pool4-new-R <- pool4-R_pool4-R_0_split_1
I0419 00:49:06.383661 20818 net.cpp:380] score_pool4-new-R -> score_pool4-new-R
I0419 00:49:06.387094 20818 net.cpp:122] Setting up score_pool4-new-R
I0419 00:49:06.387109 20818 net.cpp:129] Top shape: 1 3 45 32 (4320)
I0419 00:49:06.387114 20818 net.cpp:137] Memory required for data: 1757385708
I0419 00:49:06.387135 20818 layer_factory.hpp:77] Creating layer score_pool4c-R
I0419 00:49:06.387145 20818 net.cpp:84] Creating Layer score_pool4c-R
I0419 00:49:06.387148 20818 net.cpp:406] score_pool4c-R <- score_pool4-new-R
I0419 00:49:06.387154 20818 net.cpp:406] score_pool4c-R <- upscore2-new-R_upscore2-new-R_0_split_0
I0419 00:49:06.387161 20818 net.cpp:380] score_pool4c-R -> score_pool4c-R
I0419 00:49:06.387210 20818 net.cpp:122] Setting up score_pool4c-R
I0419 00:49:06.387219 20818 net.cpp:129] Top shape: 1 3 36 22 (2376)
I0419 00:49:06.387223 20818 net.cpp:137] Memory required for data: 1757395212
I0419 00:49:06.387225 20818 layer_factory.hpp:77] Creating layer fuse_pool4-R
I0419 00:49:06.387233 20818 net.cpp:84] Creating Layer fuse_pool4-R
I0419 00:49:06.387238 20818 net.cpp:406] fuse_pool4-R <- upscore2-new-R_upscore2-new-R_0_split_1
I0419 00:49:06.387243 20818 net.cpp:406] fuse_pool4-R <- score_pool4c-R
I0419 00:49:06.387254 20818 net.cpp:380] fuse_pool4-R -> fuse_pool4-R
I0419 00:49:06.387300 20818 net.cpp:122] Setting up fuse_pool4-R
I0419 00:49:06.387308 20818 net.cpp:129] Top shape: 1 3 36 22 (2376)
I0419 00:49:06.387311 20818 net.cpp:137] Memory required for data: 1757404716
I0419 00:49:06.387315 20818 layer_factory.hpp:77] Creating layer upscore_pool4-new-R
I0419 00:49:06.387322 20818 net.cpp:84] Creating Layer upscore_pool4-new-R
I0419 00:49:06.387326 20818 net.cpp:406] upscore_pool4-new-R <- fuse_pool4-R
I0419 00:49:06.387332 20818 net.cpp:380] upscore_pool4-new-R -> upscore_pool4-new-R
I0419 00:49:06.387768 20818 net.cpp:122] Setting up upscore_pool4-new-R
I0419 00:49:06.387776 20818 net.cpp:129] Top shape: 1 3 74 46 (10212)
I0419 00:49:06.387779 20818 net.cpp:137] Memory required for data: 1757445564
I0419 00:49:06.387784 20818 layer_factory.hpp:77] Creating layer upscore_pool4-new-R_upscore_pool4-new-R_0_split
I0419 00:49:06.387806 20818 net.cpp:84] Creating Layer upscore_pool4-new-R_upscore_pool4-new-R_0_split
I0419 00:49:06.387810 20818 net.cpp:406] upscore_pool4-new-R_upscore_pool4-new-R_0_split <- upscore_pool4-new-R
I0419 00:49:06.387831 20818 net.cpp:380] upscore_pool4-new-R_upscore_pool4-new-R_0_split -> upscore_pool4-new-R_upscore_pool4-new-R_0_split_0
I0419 00:49:06.387838 20818 net.cpp:380] upscore_pool4-new-R_upscore_pool4-new-R_0_split -> upscore_pool4-new-R_upscore_pool4-new-R_0_split_1
I0419 00:49:06.387912 20818 net.cpp:122] Setting up upscore_pool4-new-R_upscore_pool4-new-R_0_split
I0419 00:49:06.387920 20818 net.cpp:129] Top shape: 1 3 74 46 (10212)
I0419 00:49:06.387924 20818 net.cpp:129] Top shape: 1 3 74 46 (10212)
I0419 00:49:06.387928 20818 net.cpp:137] Memory required for data: 1757527260
I0419 00:49:06.387931 20818 layer_factory.hpp:77] Creating layer score_pool3-new-R
I0419 00:49:06.387950 20818 net.cpp:84] Creating Layer score_pool3-new-R
I0419 00:49:06.387954 20818 net.cpp:406] score_pool3-new-R <- pool3-R_pool3-R_0_split_1
I0419 00:49:06.387964 20818 net.cpp:380] score_pool3-new-R -> score_pool3-new-R
I0419 00:49:06.389968 20818 net.cpp:122] Setting up score_pool3-new-R
I0419 00:49:06.389983 20818 net.cpp:129] Top shape: 1 3 89 64 (17088)
I0419 00:49:06.389987 20818 net.cpp:137] Memory required for data: 1757595612
I0419 00:49:06.389994 20818 layer_factory.hpp:77] Creating layer score_pool3c-R
I0419 00:49:06.390017 20818 net.cpp:84] Creating Layer score_pool3c-R
I0419 00:49:06.390022 20818 net.cpp:406] score_pool3c-R <- score_pool3-new-R
I0419 00:49:06.390028 20818 net.cpp:406] score_pool3c-R <- upscore_pool4-new-R_upscore_pool4-new-R_0_split_0
I0419 00:49:06.390034 20818 net.cpp:380] score_pool3c-R -> score_pool3c-R
I0419 00:49:06.390084 20818 net.cpp:122] Setting up score_pool3c-R
I0419 00:49:06.390100 20818 net.cpp:129] Top shape: 1 3 74 46 (10212)
I0419 00:49:06.390103 20818 net.cpp:137] Memory required for data: 1757636460
I0419 00:49:06.390106 20818 layer_factory.hpp:77] Creating layer fuse_pool3-R
I0419 00:49:06.390113 20818 net.cpp:84] Creating Layer fuse_pool3-R
I0419 00:49:06.390117 20818 net.cpp:406] fuse_pool3-R <- upscore_pool4-new-R_upscore_pool4-new-R_0_split_1
I0419 00:49:06.390122 20818 net.cpp:406] fuse_pool3-R <- score_pool3c-R
I0419 00:49:06.390128 20818 net.cpp:380] fuse_pool3-R -> fuse_pool3-R
I0419 00:49:06.390190 20818 net.cpp:122] Setting up fuse_pool3-R
I0419 00:49:06.390205 20818 net.cpp:129] Top shape: 1 3 74 46 (10212)
I0419 00:49:06.390209 20818 net.cpp:137] Memory required for data: 1757677308
I0419 00:49:06.390213 20818 layer_factory.hpp:77] Creating layer upscore8-new-R
I0419 00:49:06.390219 20818 net.cpp:84] Creating Layer upscore8-new-R
I0419 00:49:06.390225 20818 net.cpp:406] upscore8-new-R <- fuse_pool3-R
I0419 00:49:06.390234 20818 net.cpp:380] upscore8-new-R -> upscore8-new-R
I0419 00:49:06.390727 20818 net.cpp:122] Setting up upscore8-new-R
I0419 00:49:06.390735 20818 net.cpp:129] Top shape: 1 3 600 376 (676800)
I0419 00:49:06.390754 20818 net.cpp:137] Memory required for data: 1760384508
I0419 00:49:06.390759 20818 layer_factory.hpp:77] Creating layer upscore8_cropped-R
I0419 00:49:06.390765 20818 net.cpp:84] Creating Layer upscore8_cropped-R
I0419 00:49:06.390769 20818 net.cpp:406] upscore8_cropped-R <- upscore8-new-R
I0419 00:49:06.390775 20818 net.cpp:406] upscore8_cropped-R <- data-R_crop_0_split_1
I0419 00:49:06.390780 20818 net.cpp:380] upscore8_cropped-R -> upscore8_cropped-R
I0419 00:49:06.390856 20818 net.cpp:122] Setting up upscore8_cropped-R
I0419 00:49:06.390861 20818 net.cpp:129] Top shape: 1 3 512 310 (476160)
I0419 00:49:06.390864 20818 net.cpp:137] Memory required for data: 1762289148
I0419 00:49:06.390867 20818 layer_factory.hpp:77] Creating layer score-R
I0419 00:49:06.390877 20818 net.cpp:84] Creating Layer score-R
I0419 00:49:06.390882 20818 net.cpp:406] score-R <- upscore8_cropped-R
I0419 00:49:06.390888 20818 net.cpp:380] score-R -> score-R
I0419 00:49:06.392976 20818 net.cpp:122] Setting up score-R
I0419 00:49:06.392989 20818 net.cpp:129] Top shape: 1 3 512 310 (476160)
I0419 00:49:06.393009 20818 net.cpp:137] Memory required for data: 1764193788
I0419 00:49:06.393016 20818 layer_factory.hpp:77] Creating layer score_uncropped-R
I0419 00:49:06.393091 20818 net.cpp:84] Creating Layer score_uncropped-R
I0419 00:49:06.393101 20818 net.cpp:406] score_uncropped-R <- crop_info
I0419 00:49:06.393107 20818 net.cpp:406] score_uncropped-R <- score-R
I0419 00:49:06.393111 20818 net.cpp:406] score_uncropped-R <- data_data_0_split_3
I0419 00:49:06.393117 20818 net.cpp:380] score_uncropped-R -> score_uncropped-R
I0419 00:49:06.395264 20818 net.cpp:122] Setting up score_uncropped-R
I0419 00:49:06.395300 20818 net.cpp:129] Top shape: 1 3 512 310 (476160)
I0419 00:49:06.395304 20818 net.cpp:137] Memory required for data: 1766098428
I0419 00:49:06.395324 20818 layer_factory.hpp:77] Creating layer loss1
I0419 00:49:06.395344 20818 net.cpp:84] Creating Layer loss1
I0419 00:49:06.395354 20818 net.cpp:406] loss1 <- score_score_0_split_1
I0419 00:49:06.395366 20818 net.cpp:406] loss1 <- label_data_1_split_1
I0419 00:49:06.395378 20818 net.cpp:380] loss1 -> loss1
…
