…
snapshot_prefix: "/media/Med_2T2/data2/models/snapshots/indiv:1e-5x10,20/FD0:ZI3_1_20180715_091940/train"
test_initialization: false
average_loss: 20
stepvalue: 40000
iter_size: 1
I0715 16:17:08.832298 13892 solver.cpp:77] Creating training net from train_net file: /media/Med_2T2/data2/prototxts/training_S3x10.prototxt
I0715 16:17:08.835049 13892 net.cpp:51] Initializing net from parameters: 
state {
  phase: TRAIN
}
layer {
  name: "data"
  type: "Python"
  top: "data"
  top: "label"
  top: "crop_margin"
  top: "crop_prob"
  top: "crop_sample_batch"
  python_param {
    module: "Data"
    layer: "DataLayer"
  }
}
layer {
  name: "conv1_1"
  type: "Convolution"
  bottom: "data"
  top: "conv1_1"
  param {
    lr_mult: 1
    decay_mult: 1
  }
  param {
    lr_mult: 2
    decay_mult: 0
  }
  convolution_param {
    num_output: 64
    pad: 100
    kernel_size: 3
    stride: 1
  }
}
layer {
  name: "relu1_1"
  type: "ReLU"
  bottom: "conv1_1"
  top: "conv1_1"
}
layer {
  name: "conv1_2"
  type: "Convolution"
  bottom: "conv1_1"
  top: "conv1_2"
  param {
    lr_mult: 1
    decay_mult: 1
  }
  param {
    lr_mult: 2
    decay_mult: 0
  }
  convolution_param {
    num_output: 64
    pad: 1
    kernel_size: 3
    stride: 1
  }
}
layer {
  name: "relu1_2"
  type: "ReLU"
  bottom: "conv1_2"
  top: "conv1_2"
}
layer {
  name: "pool1"
  type: "Pooling"
  bottom: "conv1_2"
  top: "pool1"
  pooling_param {
    pool: MAX
    kernel_size: 2
    stride: 2
  }
}
layer {
  name: "conv2_1"
  type: "Convolution"
  bottom: "pool1"
  top: "conv2_1"
  param {
    lr_mult: 1
    decay_mult: 1
  }
  param {
    lr_mult: 2
    decay_mult: 0
  }
  convolution_param {
    num_output: 128
    pad: 1
    kernel_size: 3
    stride: 1
  }
}
layer {
  name: "relu2_1"
  type: "ReLU"
  bottom: "conv2_1"
  top: "conv2_1"
}
layer {
  name: "conv2_2"
  type: "Convolution"
  bottom: "conv2_1"
  top: "conv2_2"
  param {
    lr_mult: 1
    decay_mult: 1
  }
  param {
    lr_mult: 2
    decay_mult: 0
  }
  convolution_param {
    num_output: 128
    pad: 1
    kernel_size: 3
    stride: 1
  }
}
layer {
  name: "relu2_2"
  type: "ReLU"
  bottom: "conv2_2"
  top: "conv2_2"
}
layer {
  name: "pool2"
  type: "Pooling"
  bottom: "conv2_2"
  top: "pool2"
  pooling_param {
    pool: MAX
    kernel_size: 2
    stride: 2
  }
}
layer {
  name: "conv3_1"
  type: "Convolution"
  bottom: "pool2"
  top: "conv3_1"
  param {
    lr_mult: 1
    decay_mult: 1
  }
  param {
    lr_mult: 2
    decay_mult: 0
  }
  convolution_param {
    num_output: 256
    pad: 1
    kernel_size: 3
    stride: 1
  }
}
layer {
  name: "relu3_1"
  type: "ReLU"
  bottom: "conv3_1"
  top: "conv3_1"
}
layer {
  name: "conv3_2"
  type: "Convolution"
  bottom: "conv3_1"
  top: "conv3_2"
  param {
    lr_mult: 1
    decay_mult: 1
  }
  param {
    lr_mult: 2
    decay_mult: 0
  }
  convolution_param {
    num_output: 256
    pad: 1
    kernel_size: 3
    stride: 1
  }
}
layer {
  name: "relu3_2"
  type: "ReLU"
  bottom: "conv3_2"
  top: "conv3_2"
}
layer {
  name: "conv3_3"
  type: "Convolution"
  bottom: "conv3_2"
  top: "conv3_3"
  param {
    lr_mult: 1
    decay_mult: 1
  }
  param {
    lr_mult: 2
    decay_mult: 0
  }
  convolution_param {
    num_output: 256
    pad: 1
    kernel_size: 3
    stride: 1
  }
}
layer {
  name: "relu3_3"
  type: "ReLU"
  bottom: "conv3_3"
  top: "conv3_3"
}
layer {
  name: "pool3"
  type: "Pooling"
  bottom: "conv3_3"
  top: "pool3"
  pooling_param {
    pool: MAX
    kernel_size: 2
    stride: 2
  }
}
layer {
  name: "conv4_1"
  type: "Convolution"
  bottom: "pool3"
  top: "conv4_1"
  param {
    lr_mult: 1
    decay_mult: 1
  }
  param {
    lr_mult: 2
    decay_mult: 0
  }
  convolution_param {
    num_output: 512
    pad: 1
    kernel_size: 3
    stride: 1
  }
}
layer {
  name: "relu4_1"
  type: "ReLU"
  bottom: "conv4_1"
  top: "conv4_1"
}
layer {
  name: "conv4_2"
  type: "Convolution"
  bottom: "conv4_1"
  top: "conv4_2"
  param {
    lr_mult: 1
    decay_mult: 1
  }
  param {
    lr_mult: 2
    decay_mult: 0
  }
  convolution_param {
    num_output: 512
    pad: 1
    kernel_size: 3
    stride: 1
  }
}
layer {
  name: "relu4_2"
  type: "ReLU"
  bottom: "conv4_2"
  top: "conv4_2"
}
layer {
  name: "conv4_3"
  type: "Convolution"
  bottom: "conv4_2"
  top: "conv4_3"
  param {
    lr_mult: 1
    decay_mult: 1
  }
  param {
    lr_mult: 2
    decay_mult: 0
  }
  convolution_param {
    num_output: 512
    pad: 1
    kernel_size: 3
    stride: 1
  }
}
layer {
  name: "relu4_3"
  type: "ReLU"
  bottom: "conv4_3"
  top: "conv4_3"
}
layer {
  name: "pool4"
  type: "Pooling"
  bottom: "conv4_3"
  top: "pool4"
  pooling_param {
    pool: MAX
    kernel_size: 2
    stride: 2
  }
}
layer {
  name: "conv5_1"
  type: "Convolution"
  bottom: "pool4"
  top: "conv5_1"
  param {
    lr_mult: 1
    decay_mult: 1
  }
  param {
    lr_mult: 2
    decay_mult: 0
  }
  convolution_param {
    num_output: 512
    pad: 1
    kernel_size: 3
    stride: 1
  }
}
layer {
  name: "relu5_1"
  type: "ReLU"
  bottom: "conv5_1"
  top: "conv5_1"
}
layer {
  name: "conv5_2"
  type: "Convolution"
  bottom: "conv5_1"
  top: "conv5_2"
  param {
    lr_mult: 1
    decay_mult: 1
  }
  param {
    lr_mult: 2
    decay_mult: 0
  }
  convolution_param {
    num_output: 512
    pad: 1
    kernel_size: 3
    stride: 1
  }
}
layer {
  name: "relu5_2"
  type: "ReLU"
  bottom: "conv5_2"
  top: "conv5_2"
}
layer {
  name: "conv5_3"
  type: "Convolution"
  bottom: "conv5_2"
  top: "conv5_3"
  param {
    lr_mult: 1
    decay_mult: 1
  }
  param {
    lr_mult: 2
    decay_mult: 0
  }
  convolution_param {
    num_output: 512
    pad: 1
    kernel_size: 3
    stride: 1
  }
}
layer {
  name: "relu5_3"
  type: "ReLU"
  bottom: "conv5_3"
  top: "conv5_3"
}
layer {
  name: "pool5"
  type: "Pooling"
  bottom: "conv5_3"
  top: "pool5"
  pooling_param {
    pool: MAX
    kernel_size: 2
    stride: 2
  }
}
layer {
  name: "fc6"
  type: "Convolution"
  bottom: "pool5"
  top: "fc6"
  param {
    lr_mult: 1
    decay_mult: 1
  }
  param {
    lr_mult: 2
    decay_mult: 0
  }
  convolution_param {
    num_output: 4096
    pad: 0
    kernel_size: 7
    stride: 1
  }
}
layer {
  name: "relu6"
  type: "ReLU"
  bottom: "fc6"
  top: "fc6"
}
layer {
  name: "drop6"
  type: "Dropout"
  bottom: "fc6"
  top: "fc6"
  dropout_param {
    dropout_ratio: 0.5
  }
}
layer {
  name: "fc7"
  type: "Convolution"
  bottom: "fc6"
  top: "fc7"
  param {
    lr_mult: 1
    decay_mult: 1
  }
  param {
    lr_mult: 2
    decay_mult: 0
  }
  convolution_param {
    num_output: 4096
    pad: 0
    kernel_size: 1
    stride: 1
  }
}
layer {
  name: "relu7"
  type: "ReLU"
  bottom: "fc7"
  top: "fc7"
}
layer {
  name: "drop7"
  type: "Dropout"
  bottom: "fc7"
  top: "fc7"
  dropout_param {
    dropout_ratio: 0.5
  }
}
layer {
  name: "score_fr-new"
  type: "Convolution"
  bottom: "fc7"
  top: "score_fr-new"
  param {
    lr_mult: 1
    decay_mult: 1
  }
  param {
    lr_mult: 2
    decay_mult: 0
  }
  convolution_param {
    num_output: 3
    kernel_size: 1
  }
}
layer {
  name: "upscore2-new"
  type: "Deconvolution"
  bottom: "score_fr-new"
  top: "upscore2-new"
  param {
    lr_mult: 0
  }
  convolution_param {
    num_output: 3
    bias_term: false
    kernel_size: 4
    stride: 2
  }
}
layer {
  name: "score_pool4-new"
  type: "Convolution"
  bottom: "pool4"
  top: "score_pool4-new"
  param {
    lr_mult: 1
    decay_mult: 1
  }
  param {
    lr_mult: 2
    decay_mult: 0
  }
  convolution_param {
    num_output: 3
    pad: 0
    kernel_size: 1
  }
}
layer {
  name: "score_pool4c"
  type: "Crop"
  bottom: "score_pool4-new"
  bottom: "upscore2-new"
  top: "score_pool4c"
  crop_param {
    axis: 2
    offset: 5
  }
}
layer {
  name: "fuse_pool4"
  type: "Eltwise"
  bottom: "upscore2-new"
  bottom: "score_pool4c"
  top: "fuse_pool4"
  eltwise_param {
    operation: SUM
  }
}
layer {
  name: "upscore_pool4-new"
  type: "Deconvolution"
  bottom: "fuse_pool4"
  top: "upscore_pool4-new"
  param {
    lr_mult: 0
  }
  convolution_param {
    num_output: 3
    bias_term: false
    kernel_size: 4
    stride: 2
  }
}
layer {
  name: "score_pool3-new"
  type: "Convolution"
  bottom: "pool3"
  top: "score_pool3-new"
  param {
    lr_mult: 1
    decay_mult: 1
  }
  param {
    lr_mult: 2
    decay_mult: 0
  }
  convolution_param {
    num_output: 3
    pad: 0
    kernel_size: 1
  }
}
layer {
  name: "score_pool3c"
  type: "Crop"
  bottom: "score_pool3-new"
  bottom: "upscore_pool4-new"
  top: "score_pool3c"
  crop_param {
    axis: 2
    offset: 9
  }
}
layer {
  name: "fuse_pool3"
  type: "Eltwise"
  bottom: "upscore_pool4-new"
  bottom: "score_pool3c"
  top: "fuse_pool3"
  eltwise_param {
    operation: SUM
  }
}
layer {
  name: "upscore8-new"
  type: "Deconvolution"
  bottom: "fuse_pool3"
  top: "upscore8-new"
  param {
    lr_mult: 0
  }
  convolution_param {
    num_output: 3
    bias_term: false
    kernel_size: 16
    stride: 8
  }
}
layer {
  name: "upscore8_cropped"
  type: "Crop"
  bottom: "upscore8-new"
  bottom: "data"
  top: "upscore8_cropped"
  crop_param {
    axis: 2
    offset: 31
  }
}
layer {
  name: "prob"
  type: "Sigmoid"
  bottom: "upscore8_cropped"
  top: "prob"
}
layer {
  name: "saliency1"
  type: "Convolution"
  bottom: "prob"
  top: "saliency1"
  param {
    lr_mult: 10
    decay_mult: 1
  }
  param {
    lr_mult: 20
    decay_mult: 0
  }
  convolution_param {
    num_output: 3
    pad: 1
    kernel_size: 3
    stride: 1
    weight_filler {
      type: "xavier"
    }
    bias_filler {
      type: "constant"
      value: 1
    }
  }
}
layer {
  name: "relu_saliency1"
  type: "ReLU"
  bottom: "saliency1"
  top: "saliency1"
}
layer {
  name: "saliency"
  type: "Convolution"
  bottom: "saliency1"
  top: "saliency"
  param {
    lr_mult: 10
    decay_mult: 1
  }
  param {
    lr_mult: 20
    decay_mult: 0
  }
  convolution_param {
    num_output: 3
    pad: 2
    kernel_size: 5
    stride: 1
    weight_filler {
      type: "xavier"
    }
    bias_filler {
      type: "constant"
      value: 1
    }
  }
}
layer {
  name: "silence_saliency"
  type: "Silence"
  bottom: "saliency"
}
layer {
  name: "crop"
  type: "Python"
  bottom: "label"
  bottom: "data"
  bottom: "crop_margin"
  bottom: "crop_prob"
  bottom: "crop_sample_batch"
  top: "data-R"
  top: "crop_info"
  python_param {
    module: "Crop"
    layer: "CropLayer"
    param_str: "{\"TEST\": 0}"
  }
}
layer {
  name: "conv1_1-R"
  type: "Convolution"
  bottom: "data-R"
  top: "conv1_1-R"
  param {
    lr_mult: 10
    decay_mult: 1
  }
  param {
    lr_mult: 20
    decay_mult: 0
  }
  convolution_param {
    num_output: 64
    pad: 100
    kernel_size: 3
    stride: 1
  }
}
layer {
  name: "relu1_1-R"
  type: "ReLU"
  bottom: "conv1_1-R"
  top: "conv1_1-R"
}
layer {
  name: "conv1_2-R"
  type: "Convolution"
  bottom: "conv1_1-R"
  top: "conv1_2-R"
  param {
    lr_mult: 10
    decay_mult: 1
  }
  param {
    lr_mult: 20
    decay_mult: 0
  }
  convolution_param {
    num_output: 64
    pad: 1
    kernel_size: 3
    stride: 1
  }
}
layer {
  name: "relu1_2-R"
  type: "ReLU"
  bottom: "conv1_2-R"
  top: "conv1_2-R"
}
layer {
  name: "pool1-R"
  type: "Pooling"
  bottom: "conv1_2-R"
  top: "pool1-R"
  pooling_param {
    pool: MAX
    kernel_size: 2
    stride: 2
  }
}
layer {
  name: "conv2_1-R"
  type: "Convolution"
  bottom: "pool1-R"
  top: "conv2_1-R"
  param {
    lr_mult: 10
    decay_mult: 1
  }
  param {
    lr_mult: 20
    decay_mult: 0
  }
  convolution_param {
    num_output: 128
    pad: 1
    kernel_size: 3
    stride: 1
  }
}
layer {
  name: "relu2_1-R"
  type: "ReLU"
  bottom: "conv2_1-R"
  top: "conv2_1-R"
}
layer {
  name: "conv2_2-R"
  type: "Convolution"
  bottom: "conv2_1-R"
  top: "conv2_2-R"
  param {
    lr_mult: 10
    decay_mult: 1
  }
  param {
    lr_mult: 20
    decay_mult: 0
  }
  convolution_param {
    num_output: 128
    pad: 1
    kernel_size: 3
    stride: 1
  }
}
layer {
  name: "relu2_2-R"
  type: "ReLU"
  bottom: "conv2_2-R"
  top: "conv2_2-R"
}
layer {
  name: "pool2-R"
  type: "Pooling"
  bottom: "conv2_2-R"
  top: "pool2-R"
  pooling_param {
    pool: MAX
    kernel_size: 2
    stride: 2
  }
}
layer {
  name: "conv3_1-R"
  type: "Convolution"
  bottom: "pool2-R"
  top: "conv3_1-R"
  param {
    lr_mult: 10
    decay_mult: 1
  }
  param {
    lr_mult: 20
    decay_mult: 0
  }
  convolution_param {
    num_output: 256
    pad: 1
    kernel_size: 3
    stride: 1
  }
}
layer {
  name: "relu3_1-R"
  type: "ReLU"
  bottom: "conv3_1-R"
  top: "conv3_1-R"
}
layer {
  name: "conv3_2-R"
  type: "Convolution"
  bottom: "conv3_1-R"
  top: "conv3_2-R"
  param {
    lr_mult: 10
    decay_mult: 1
  }
  param {
    lr_mult: 20
    decay_mult: 0
  }
  convolution_param {
    num_output: 256
    pad: 1
    kernel_size: 3
    stride: 1
  }
}
layer {
  name: "relu3_2-R"
  type: "ReLU"
  bottom: "conv3_2-R"
  top: "conv3_2-R"
}
layer {
  name: "conv3_3-R"
  type: "Convolution"
  bottom: "conv3_2-R"
  top: "conv3_3-R"
  param {
    lr_mult: 10
    decay_mult: 1
  }
  param {
    lr_mult: 20
    decay_mult: 0
  }
  convolution_param {
    num_output: 256
    pad: 1
    kernel_size: 3
    stride: 1
  }
}
layer {
  name: "relu3_3-R"
  type: "ReLU"
  bottom: "conv3_3-R"
  top: "conv3_3-R"
}
layer {
  name: "pool3-R"
  type: "Pooling"
  bottom: "conv3_3-R"
  top: "pool3-R"
  pooling_param {
    pool: MAX
    kernel_size: 2
    stride: 2
  }
}
layer {
  name: "conv4_1-R"
  type: "Convolution"
  bottom: "pool3-R"
  top: "conv4_1-R"
  param {
    lr_mult: 10
    decay_mult: 1
  }
  param {
    lr_mult: 20
    decay_mult: 0
  }
  convolution_param {
    num_output: 512
    pad: 1
    kernel_size: 3
    stride: 1
  }
}
layer {
  name: "relu4_1-R"
  type: "ReLU"
  bottom: "conv4_1-R"
  top: "conv4_1-R"
}
layer {
  name: "conv4_2-R"
  type: "Convolution"
  bottom: "conv4_1-R"
  top: "conv4_2-R"
  param {
    lr_mult: 10
    decay_mult: 1
  }
  param {
    lr_mult: 20
    decay_mult: 0
  }
  convolution_param {
    num_output: 512
    pad: 1
    kernel_size: 3
    stride: 1
  }
}
layer {
  name: "relu4_2-R"
  type: "ReLU"
  bottom: "conv4_2-R"
  top: "conv4_2-R"
}
layer {
  name: "conv4_3-R"
  type: "Convolution"
  bottom: "conv4_2-R"
  top: "conv4_3-R"
  param {
    lr_mult: 10
    decay_mult: 1
  }
  param {
    lr_mult: 20
    decay_mult: 0
  }
  convolution_param {
    num_output: 512
    pad: 1
    kernel_size: 3
    stride: 1
  }
}
layer {
  name: "relu4_3-R"
  type: "ReLU"
  bottom: "conv4_3-R"
  top: "conv4_3-R"
}
layer {
  name: "pool4-R"
  type: "Pooling"
  bottom: "conv4_3-R"
  top: "pool4-R"
  pooling_param {
    pool: MAX
    kernel_size: 2
    stride: 2
  }
}
layer {
  name: "conv5_1-R"
  type: "Convolution"
  bottom: "pool4-R"
  top: "conv5_1-R"
  param {
    lr_mult: 10
    decay_mult: 1
  }
  param {
    lr_mult: 20
    decay_mult: 0
  }
  convolution_param {
    num_output: 512
    pad: 1
    kernel_size: 3
    stride: 1
  }
}
layer {
  name: "relu5_1-R"
  type: "ReLU"
  bottom: "conv5_1-R"
  top: "conv5_1-R"
}
layer {
  name: "conv5_2-R"
  type: "Convolution"
  bottom: "conv5_1-R"
  top: "conv5_2-R"
  param {
    lr_mult: 10
    decay_mult: 1
  }
  param {
    lr_mult: 20
    decay_mult: 0
  }
  convolution_param {
    num_output: 512
    pad: 1
    kernel_size: 3
    stride: 1
  }
}
layer {
  name: "relu5_2-R"
  type: "ReLU"
  bottom: "conv5_2-R"
  top: "conv5_2-R"
}
layer {
  name: "conv5_3-R"
  type: "Convolution"
  bottom: "conv5_2-R"
  top: "conv5_3-R"
  param {
    lr_mult: 10
    decay_mult: 1
  }
  param {
    lr_mult: 20
    decay_mult: 0
  }
  convolution_param {
    num_output: 512
    pad: 1
    kernel_size: 3
    stride: 1
  }
}
layer {
  name: "relu5_3-R"
  type: "ReLU"
  bottom: "conv5_3-R"
  top: "conv5_3-R"
}
layer {
  name: "pool5-R"
  type: "Pooling"
  bottom: "conv5_3-R"
  top: "pool5-R"
  pooling_param {
    pool: MAX
    kernel_size: 2
    stride: 2
  }
}
layer {
  name: "fc6-R"
  type: "Convolution"
  bottom: "pool5-R"
  top: "fc6-R"
  param {
    lr_mult: 10
    decay_mult: 1
  }
  param {
    lr_mult: 20
    decay_mult: 0
  }
  convolution_param {
    num_output: 4096
    pad: 0
    kernel_size: 7
    stride: 1
  }
}
layer {
  name: "relu6-R"
  type: "ReLU"
  bottom: "fc6-R"
  top: "fc6-R"
}
layer {
  name: "drop6-R"
  type: "Dropout"
  bottom: "fc6-R"
  top: "fc6-R"
  dropout_param {
    dropout_ratio: 0.5
  }
}
layer {
  name: "fc7-R"
  type: "Convolution"
  bottom: "fc6-R"
  top: "fc7-R"
  param {
    lr_mult: 10
    decay_mult: 1
  }
  param {
    lr_mult: 20
    decay_mult: 0
  }
  convolution_param {
    num_output: 4096
    pad: 0
    kernel_size: 1
    stride: 1
  }
}
layer {
  name: "relu7-R"
  type: "ReLU"
  bottom: "fc7-R"
  top: "fc7-R"
}
layer {
  name: "drop7-R"
  type: "Dropout"
  bottom: "fc7-R"
  top: "fc7-R"
  dropout_param {
    dropout_ratio: 0.5
  }
}
layer {
  name: "score_fr-new-R"
  type: "Convolution"
  bottom: "fc7-R"
  top: "score_fr-new-R"
  param {
    lr_mult: 10
    decay_mult: 1
  }
  param {
    lr_mult: 20
    decay_mult: 0
  }
  convolution_param {
    num_output: 3
    kernel_size: 1
  }
}
layer {
  name: "upscore2-new-R"
  type: "Deconvolution"
  bottom: "score_fr-new-R"
  top: "upscore2-new-R"
  param {
    lr_mult: 0
  }
  convolution_param {
    num_output: 3
    bias_term: false
    kernel_size: 4
    stride: 2
  }
}
layer {
  name: "score_pool4-new-R"
  type: "Convolution"
  bottom: "pool4-R"
  top: "score_pool4-new-R"
  param {
    lr_mult: 10
    decay_mult: 1
  }
  param {
    lr_mult: 20
    decay_mult: 0
  }
  convolution_param {
    num_output: 3
    pad: 0
    kernel_size: 1
  }
}
layer {
  name: "score_pool4c-R"
  type: "Crop"
  bottom: "score_pool4-new-R"
  bottom: "upscore2-new-R"
  top: "score_pool4c-R"
  crop_param {
    axis: 2
    offset: 5
  }
}
layer {
  name: "fuse_pool4-R"
  type: "Eltwise"
  bottom: "upscore2-new-R"
  bottom: "score_pool4c-R"
  top: "fuse_pool4-R"
  eltwise_param {
    operation: SUM
  }
}
layer {
  name: "upscore_pool4-new-R"
  type: "Deconvolution"
  bottom: "fuse_pool4-R"
  top: "upscore_pool4-new-R"
  param {
    lr_mult: 0
  }
  convolution_param {
    num_output: 3
    bias_term: false
    kernel_size: 4
    stride: 2
  }
}
layer {
  name: "score_pool3-new-R"
  type: "Convolution"
  bottom: "pool3-R"
  top: "score_pool3-new-R"
  param {
    lr_mult: 10
    decay_mult: 1
  }
  param {
    lr_mult: 20
    decay_mult: 0
  }
  convolution_param {
    num_output: 3
    pad: 0
    kernel_size: 1
  }
}
layer {
  name: "score_pool3c-R"
  type: "Crop"
  bottom: "score_pool3-new-R"
  bottom: "upscore_pool4-new-R"
  top: "score_pool3c-R"
  crop_param {
    axis: 2
    offset: 9
  }
}
layer {
  name: "fuse_pool3-R"
  type: "Eltwise"
  bottom: "upscore_pool4-new-R"
  bottom: "score_pool3c-R"
  top: "fuse_pool3-R"
  eltwise_param {
    operation: SUM
  }
}
layer {
  name: "upscore8-new-R"
  type: "Deconvolution"
  bottom: "fuse_pool3-R"
  top: "upscore8-new-R"
  param {
    lr_mult: 0
  }
  convolution_param {
    num_output: 3
    bias_term: false
    kernel_size: 16
    stride: 8
  }
}
layer {
  name: "upscore8_cropped-R"
  type: "Crop"
  bottom: "upscore8-new-R"
  bottom: "data-R"
  top: "upscore8_cropped-R"
  crop_param {
    axis: 2
    offset: 31
  }
}
layer {
  name: "upscore8_uncropped-R"
  type: "Python"
  bottom: "crop_info"
  bottom: "upscore8_cropped-R"
  bottom: "data"
  top: "upscore8_uncropped-R"
  python_param {
    module: "Uncrop"
    layer: "UncropLayer"
  }
}
layer {
  name: "loss1"
  type: "DiceLoss"
  bottom: "upscore8_cropped"
  bottom: "label"
  top: "loss1"
  loss_weight: 0.333333
}
layer {
  name: "loss2"
  type: "DiceLoss"
  bottom: "upscore8_uncropped-R"
  bottom: "label"
  top: "loss2"
  loss_weight: 0.666667
}
I0715 16:17:08.835649 13892 layer_factory.hpp:77] Creating layer data
I0715 16:17:08.836055 13892 net.cpp:84] Creating Layer data
I0715 16:17:08.836071 13892 net.cpp:380] data -> data
I0715 16:17:08.836087 13892 net.cpp:380] data -> label
I0715 16:17:08.836096 13892 net.cpp:380] data -> crop_margin
I0715 16:17:08.836103 13892 net.cpp:380] data -> crop_prob
I0715 16:17:08.836109 13892 net.cpp:380] data -> crop_sample_batch
I0715 16:17:08.947486 13892 net.cpp:122] Setting up data
I0715 16:17:08.947547 13892 net.cpp:129] Top shape: 1 3 512 512 (786432)
I0715 16:17:08.947553 13892 net.cpp:129] Top shape: 1 3 512 512 (786432)
I0715 16:17:08.947557 13892 net.cpp:129] Top shape: 1 (1)
I0715 16:17:08.947561 13892 net.cpp:129] Top shape: 1 (1)
I0715 16:17:08.947567 13892 net.cpp:129] Top shape: 1 (1)
I0715 16:17:08.947571 13892 net.cpp:137] Memory required for data: 6291468
I0715 16:17:08.947592 13892 layer_factory.hpp:77] Creating layer data_data_0_split
I0715 16:17:08.947625 13892 net.cpp:84] Creating Layer data_data_0_split
I0715 16:17:08.947664 13892 net.cpp:406] data_data_0_split <- data
I0715 16:17:08.947685 13892 net.cpp:380] data_data_0_split -> data_data_0_split_0
I0715 16:17:08.947697 13892 net.cpp:380] data_data_0_split -> data_data_0_split_1
I0715 16:17:08.947703 13892 net.cpp:380] data_data_0_split -> data_data_0_split_2
I0715 16:17:08.947708 13892 net.cpp:380] data_data_0_split -> data_data_0_split_3
I0715 16:17:08.947754 13892 net.cpp:122] Setting up data_data_0_split
I0715 16:17:08.947777 13892 net.cpp:129] Top shape: 1 3 512 512 (786432)
I0715 16:17:08.947782 13892 net.cpp:129] Top shape: 1 3 512 512 (786432)
I0715 16:17:08.947785 13892 net.cpp:129] Top shape: 1 3 512 512 (786432)
I0715 16:17:08.947789 13892 net.cpp:129] Top shape: 1 3 512 512 (786432)
I0715 16:17:08.947793 13892 net.cpp:137] Memory required for data: 18874380
I0715 16:17:08.947795 13892 layer_factory.hpp:77] Creating layer label_data_1_split
I0715 16:17:08.947800 13892 net.cpp:84] Creating Layer label_data_1_split
I0715 16:17:08.947804 13892 net.cpp:406] label_data_1_split <- label
I0715 16:17:08.947810 13892 net.cpp:380] label_data_1_split -> label_data_1_split_0
I0715 16:17:08.947815 13892 net.cpp:380] label_data_1_split -> label_data_1_split_1
I0715 16:17:08.947820 13892 net.cpp:380] label_data_1_split -> label_data_1_split_2
I0715 16:17:08.947851 13892 net.cpp:122] Setting up label_data_1_split
I0715 16:17:08.947856 13892 net.cpp:129] Top shape: 1 3 512 512 (786432)
I0715 16:17:08.947860 13892 net.cpp:129] Top shape: 1 3 512 512 (786432)
I0715 16:17:08.947863 13892 net.cpp:129] Top shape: 1 3 512 512 (786432)
I0715 16:17:08.947866 13892 net.cpp:137] Memory required for data: 28311564
I0715 16:17:08.947870 13892 layer_factory.hpp:77] Creating layer conv1_1
I0715 16:17:08.947907 13892 net.cpp:84] Creating Layer conv1_1
I0715 16:17:08.947911 13892 net.cpp:406] conv1_1 <- data_data_0_split_0
I0715 16:17:08.947917 13892 net.cpp:380] conv1_1 -> conv1_1
I0715 16:17:09.330394 13892 net.cpp:122] Setting up conv1_1
I0715 16:17:09.330437 13892 net.cpp:129] Top shape: 1 64 710 710 (32262400)
I0715 16:17:09.330446 13892 net.cpp:137] Memory required for data: 157361164
I0715 16:17:09.330490 13892 layer_factory.hpp:77] Creating layer relu1_1
I0715 16:17:09.330541 13892 net.cpp:84] Creating Layer relu1_1
I0715 16:17:09.330554 13892 net.cpp:406] relu1_1 <- conv1_1
I0715 16:17:09.330567 13892 net.cpp:367] relu1_1 -> conv1_1 (in-place)
I0715 16:17:09.330804 13892 net.cpp:122] Setting up relu1_1
I0715 16:17:09.330818 13892 net.cpp:129] Top shape: 1 64 710 710 (32262400)
I0715 16:17:09.330826 13892 net.cpp:137] Memory required for data: 286410764
I0715 16:17:09.330835 13892 layer_factory.hpp:77] Creating layer conv1_2
I0715 16:17:09.330857 13892 net.cpp:84] Creating Layer conv1_2
I0715 16:17:09.330863 13892 net.cpp:406] conv1_2 <- conv1_1
I0715 16:17:09.330875 13892 net.cpp:380] conv1_2 -> conv1_2
I0715 16:17:09.338455 13892 net.cpp:122] Setting up conv1_2
I0715 16:17:09.338490 13892 net.cpp:129] Top shape: 1 64 710 710 (32262400)
I0715 16:17:09.338503 13892 net.cpp:137] Memory required for data: 415460364
I0715 16:17:09.338544 13892 layer_factory.hpp:77] Creating layer relu1_2
I0715 16:17:09.338568 13892 net.cpp:84] Creating Layer relu1_2
I0715 16:17:09.338582 13892 net.cpp:406] relu1_2 <- conv1_2
I0715 16:17:09.338600 13892 net.cpp:367] relu1_2 -> conv1_2 (in-place)
I0715 16:17:09.338971 13892 net.cpp:122] Setting up relu1_2
I0715 16:17:09.338994 13892 net.cpp:129] Top shape: 1 64 710 710 (32262400)
I0715 16:17:09.339006 13892 net.cpp:137] Memory required for data: 544509964
I0715 16:17:09.339017 13892 layer_factory.hpp:77] Creating layer pool1
I0715 16:17:09.339041 13892 net.cpp:84] Creating Layer pool1
I0715 16:17:09.339064 13892 net.cpp:406] pool1 <- conv1_2
I0715 16:17:09.339092 13892 net.cpp:380] pool1 -> pool1
I0715 16:17:09.339213 13892 net.cpp:122] Setting up pool1
I0715 16:17:09.339231 13892 net.cpp:129] Top shape: 1 64 355 355 (8065600)
I0715 16:17:09.339241 13892 net.cpp:137] Memory required for data: 576772364
I0715 16:17:09.339251 13892 layer_factory.hpp:77] Creating layer conv2_1
I0715 16:17:09.339325 13892 net.cpp:84] Creating Layer conv2_1
I0715 16:17:09.339339 13892 net.cpp:406] conv2_1 <- pool1
I0715 16:17:09.339360 13892 net.cpp:380] conv2_1 -> conv2_1
I0715 16:17:09.345418 13892 net.cpp:122] Setting up conv2_1
I0715 16:17:09.345479 13892 net.cpp:129] Top shape: 1 128 355 355 (16131200)
I0715 16:17:09.345489 13892 net.cpp:137] Memory required for data: 641297164
I0715 16:17:09.345516 13892 layer_factory.hpp:77] Creating layer relu2_1
I0715 16:17:09.345599 13892 net.cpp:84] Creating Layer relu2_1
I0715 16:17:09.345610 13892 net.cpp:406] relu2_1 <- conv2_1
I0715 16:17:09.345625 13892 net.cpp:367] relu2_1 -> conv2_1 (in-place)
I0715 16:17:09.346009 13892 net.cpp:122] Setting up relu2_1
I0715 16:17:09.346038 13892 net.cpp:129] Top shape: 1 128 355 355 (16131200)
I0715 16:17:09.346046 13892 net.cpp:137] Memory required for data: 705821964
I0715 16:17:09.346053 13892 layer_factory.hpp:77] Creating layer conv2_2
I0715 16:17:09.346097 13892 net.cpp:84] Creating Layer conv2_2
I0715 16:17:09.346107 13892 net.cpp:406] conv2_2 <- conv2_1
I0715 16:17:09.346120 13892 net.cpp:380] conv2_2 -> conv2_2
I0715 16:17:09.349865 13892 net.cpp:122] Setting up conv2_2
I0715 16:17:09.349911 13892 net.cpp:129] Top shape: 1 128 355 355 (16131200)
I0715 16:17:09.349920 13892 net.cpp:137] Memory required for data: 770346764
I0715 16:17:09.349936 13892 layer_factory.hpp:77] Creating layer relu2_2
I0715 16:17:09.349974 13892 net.cpp:84] Creating Layer relu2_2
I0715 16:17:09.349983 13892 net.cpp:406] relu2_2 <- conv2_2
I0715 16:17:09.349994 13892 net.cpp:367] relu2_2 -> conv2_2 (in-place)
I0715 16:17:09.350402 13892 net.cpp:122] Setting up relu2_2
I0715 16:17:09.350430 13892 net.cpp:129] Top shape: 1 128 355 355 (16131200)
I0715 16:17:09.350445 13892 net.cpp:137] Memory required for data: 834871564
I0715 16:17:09.350452 13892 layer_factory.hpp:77] Creating layer pool2
I0715 16:17:09.350491 13892 net.cpp:84] Creating Layer pool2
I0715 16:17:09.350498 13892 net.cpp:406] pool2 <- conv2_2
I0715 16:17:09.350529 13892 net.cpp:380] pool2 -> pool2
I0715 16:17:09.350621 13892 net.cpp:122] Setting up pool2
I0715 16:17:09.350636 13892 net.cpp:129] Top shape: 1 128 178 178 (4055552)
I0715 16:17:09.350641 13892 net.cpp:137] Memory required for data: 851093772
I0715 16:17:09.350657 13892 layer_factory.hpp:77] Creating layer conv3_1
I0715 16:17:09.350675 13892 net.cpp:84] Creating Layer conv3_1
I0715 16:17:09.350683 13892 net.cpp:406] conv3_1 <- pool2
I0715 16:17:09.350697 13892 net.cpp:380] conv3_1 -> conv3_1
I0715 16:17:09.355017 13892 net.cpp:122] Setting up conv3_1
I0715 16:17:09.355062 13892 net.cpp:129] Top shape: 1 256 178 178 (8111104)
I0715 16:17:09.355067 13892 net.cpp:137] Memory required for data: 883538188
I0715 16:17:09.355085 13892 layer_factory.hpp:77] Creating layer relu3_1
I0715 16:17:09.355098 13892 net.cpp:84] Creating Layer relu3_1
I0715 16:17:09.355105 13892 net.cpp:406] relu3_1 <- conv3_1
I0715 16:17:09.355141 13892 net.cpp:367] relu3_1 -> conv3_1 (in-place)
I0715 16:17:09.355953 13892 net.cpp:122] Setting up relu3_1
I0715 16:17:09.355973 13892 net.cpp:129] Top shape: 1 256 178 178 (8111104)
I0715 16:17:09.355988 13892 net.cpp:137] Memory required for data: 915982604
I0715 16:17:09.355991 13892 layer_factory.hpp:77] Creating layer conv3_2
I0715 16:17:09.356011 13892 net.cpp:84] Creating Layer conv3_2
I0715 16:17:09.356016 13892 net.cpp:406] conv3_2 <- conv3_1
I0715 16:17:09.356026 13892 net.cpp:380] conv3_2 -> conv3_2
I0715 16:17:09.359894 13892 net.cpp:122] Setting up conv3_2
I0715 16:17:09.359928 13892 net.cpp:129] Top shape: 1 256 178 178 (8111104)
I0715 16:17:09.359933 13892 net.cpp:137] Memory required for data: 948427020
I0715 16:17:09.359943 13892 layer_factory.hpp:77] Creating layer relu3_2
I0715 16:17:09.359954 13892 net.cpp:84] Creating Layer relu3_2
I0715 16:17:09.359959 13892 net.cpp:406] relu3_2 <- conv3_2
I0715 16:17:09.359966 13892 net.cpp:367] relu3_2 -> conv3_2 (in-place)
I0715 16:17:09.360707 13892 net.cpp:122] Setting up relu3_2
I0715 16:17:09.360723 13892 net.cpp:129] Top shape: 1 256 178 178 (8111104)
I0715 16:17:09.360738 13892 net.cpp:137] Memory required for data: 980871436
I0715 16:17:09.360751 13892 layer_factory.hpp:77] Creating layer conv3_3
I0715 16:17:09.360764 13892 net.cpp:84] Creating Layer conv3_3
I0715 16:17:09.360769 13892 net.cpp:406] conv3_3 <- conv3_2
I0715 16:17:09.360780 13892 net.cpp:380] conv3_3 -> conv3_3
I0715 16:17:09.365861 13892 net.cpp:122] Setting up conv3_3
I0715 16:17:09.365932 13892 net.cpp:129] Top shape: 1 256 178 178 (8111104)
I0715 16:17:09.365942 13892 net.cpp:137] Memory required for data: 1013315852
I0715 16:17:09.365963 13892 layer_factory.hpp:77] Creating layer relu3_3
I0715 16:17:09.365983 13892 net.cpp:84] Creating Layer relu3_3
I0715 16:17:09.365993 13892 net.cpp:406] relu3_3 <- conv3_3
I0715 16:17:09.366009 13892 net.cpp:367] relu3_3 -> conv3_3 (in-place)
I0715 16:17:09.366364 13892 net.cpp:122] Setting up relu3_3
I0715 16:17:09.366387 13892 net.cpp:129] Top shape: 1 256 178 178 (8111104)
I0715 16:17:09.366392 13892 net.cpp:137] Memory required for data: 1045760268
I0715 16:17:09.366405 13892 layer_factory.hpp:77] Creating layer pool3
I0715 16:17:09.366426 13892 net.cpp:84] Creating Layer pool3
I0715 16:17:09.366431 13892 net.cpp:406] pool3 <- conv3_3
I0715 16:17:09.366438 13892 net.cpp:380] pool3 -> pool3
I0715 16:17:09.366523 13892 net.cpp:122] Setting up pool3
I0715 16:17:09.366534 13892 net.cpp:129] Top shape: 1 256 89 89 (2027776)
I0715 16:17:09.366539 13892 net.cpp:137] Memory required for data: 1053871372
I0715 16:17:09.366544 13892 layer_factory.hpp:77] Creating layer pool3_pool3_0_split
I0715 16:17:09.366560 13892 net.cpp:84] Creating Layer pool3_pool3_0_split
I0715 16:17:09.366564 13892 net.cpp:406] pool3_pool3_0_split <- pool3
I0715 16:17:09.366571 13892 net.cpp:380] pool3_pool3_0_split -> pool3_pool3_0_split_0
I0715 16:17:09.366578 13892 net.cpp:380] pool3_pool3_0_split -> pool3_pool3_0_split_1
I0715 16:17:09.366629 13892 net.cpp:122] Setting up pool3_pool3_0_split
I0715 16:17:09.366636 13892 net.cpp:129] Top shape: 1 256 89 89 (2027776)
I0715 16:17:09.366641 13892 net.cpp:129] Top shape: 1 256 89 89 (2027776)
I0715 16:17:09.366645 13892 net.cpp:137] Memory required for data: 1070093580
I0715 16:17:09.366652 13892 layer_factory.hpp:77] Creating layer conv4_1
I0715 16:17:09.366665 13892 net.cpp:84] Creating Layer conv4_1
I0715 16:17:09.366670 13892 net.cpp:406] conv4_1 <- pool3_pool3_0_split_0
I0715 16:17:09.366679 13892 net.cpp:380] conv4_1 -> conv4_1
I0715 16:17:09.378661 13892 net.cpp:122] Setting up conv4_1
I0715 16:17:09.378695 13892 net.cpp:129] Top shape: 1 512 89 89 (4055552)
I0715 16:17:09.378700 13892 net.cpp:137] Memory required for data: 1086315788
I0715 16:17:09.378715 13892 layer_factory.hpp:77] Creating layer relu4_1
I0715 16:17:09.378726 13892 net.cpp:84] Creating Layer relu4_1
I0715 16:17:09.378731 13892 net.cpp:406] relu4_1 <- conv4_1
I0715 16:17:09.378739 13892 net.cpp:367] relu4_1 -> conv4_1 (in-place)
I0715 16:17:09.378999 13892 net.cpp:122] Setting up relu4_1
I0715 16:17:09.379012 13892 net.cpp:129] Top shape: 1 512 89 89 (4055552)
I0715 16:17:09.379016 13892 net.cpp:137] Memory required for data: 1102537996
I0715 16:17:09.379020 13892 layer_factory.hpp:77] Creating layer conv4_2
I0715 16:17:09.379034 13892 net.cpp:84] Creating Layer conv4_2
I0715 16:17:09.379039 13892 net.cpp:406] conv4_2 <- conv4_1
I0715 16:17:09.379047 13892 net.cpp:380] conv4_2 -> conv4_2
I0715 16:17:09.389897 13892 net.cpp:122] Setting up conv4_2
I0715 16:17:09.389932 13892 net.cpp:129] Top shape: 1 512 89 89 (4055552)
I0715 16:17:09.389937 13892 net.cpp:137] Memory required for data: 1118760204
I0715 16:17:09.389956 13892 layer_factory.hpp:77] Creating layer relu4_2
I0715 16:17:09.389966 13892 net.cpp:84] Creating Layer relu4_2
I0715 16:17:09.389971 13892 net.cpp:406] relu4_2 <- conv4_2
I0715 16:17:09.389978 13892 net.cpp:367] relu4_2 -> conv4_2 (in-place)
I0715 16:17:09.390224 13892 net.cpp:122] Setting up relu4_2
I0715 16:17:09.390238 13892 net.cpp:129] Top shape: 1 512 89 89 (4055552)
I0715 16:17:09.390241 13892 net.cpp:137] Memory required for data: 1134982412
I0715 16:17:09.390249 13892 layer_factory.hpp:77] Creating layer conv4_3
I0715 16:17:09.390264 13892 net.cpp:84] Creating Layer conv4_3
I0715 16:17:09.390269 13892 net.cpp:406] conv4_3 <- conv4_2
I0715 16:17:09.390278 13892 net.cpp:380] conv4_3 -> conv4_3
I0715 16:17:09.399886 13892 net.cpp:122] Setting up conv4_3
I0715 16:17:09.399912 13892 net.cpp:129] Top shape: 1 512 89 89 (4055552)
I0715 16:17:09.399916 13892 net.cpp:137] Memory required for data: 1151204620
I0715 16:17:09.399932 13892 layer_factory.hpp:77] Creating layer relu4_3
I0715 16:17:09.399942 13892 net.cpp:84] Creating Layer relu4_3
I0715 16:17:09.399947 13892 net.cpp:406] relu4_3 <- conv4_3
I0715 16:17:09.399957 13892 net.cpp:367] relu4_3 -> conv4_3 (in-place)
I0715 16:17:09.400193 13892 net.cpp:122] Setting up relu4_3
I0715 16:17:09.400207 13892 net.cpp:129] Top shape: 1 512 89 89 (4055552)
I0715 16:17:09.400209 13892 net.cpp:137] Memory required for data: 1167426828
I0715 16:17:09.400214 13892 layer_factory.hpp:77] Creating layer pool4
I0715 16:17:09.400224 13892 net.cpp:84] Creating Layer pool4
I0715 16:17:09.400229 13892 net.cpp:406] pool4 <- conv4_3
I0715 16:17:09.400238 13892 net.cpp:380] pool4 -> pool4
I0715 16:17:09.400295 13892 net.cpp:122] Setting up pool4
I0715 16:17:09.400301 13892 net.cpp:129] Top shape: 1 512 45 45 (1036800)
I0715 16:17:09.400305 13892 net.cpp:137] Memory required for data: 1171574028
I0715 16:17:09.400310 13892 layer_factory.hpp:77] Creating layer pool4_pool4_0_split
I0715 16:17:09.400315 13892 net.cpp:84] Creating Layer pool4_pool4_0_split
I0715 16:17:09.400321 13892 net.cpp:406] pool4_pool4_0_split <- pool4
I0715 16:17:09.400326 13892 net.cpp:380] pool4_pool4_0_split -> pool4_pool4_0_split_0
I0715 16:17:09.400342 13892 net.cpp:380] pool4_pool4_0_split -> pool4_pool4_0_split_1
I0715 16:17:09.400387 13892 net.cpp:122] Setting up pool4_pool4_0_split
I0715 16:17:09.400393 13892 net.cpp:129] Top shape: 1 512 45 45 (1036800)
I0715 16:17:09.400398 13892 net.cpp:129] Top shape: 1 512 45 45 (1036800)
I0715 16:17:09.400400 13892 net.cpp:137] Memory required for data: 1179868428
I0715 16:17:09.400406 13892 layer_factory.hpp:77] Creating layer conv5_1
I0715 16:17:09.400418 13892 net.cpp:84] Creating Layer conv5_1
I0715 16:17:09.400422 13892 net.cpp:406] conv5_1 <- pool4_pool4_0_split_0
I0715 16:17:09.400431 13892 net.cpp:380] conv5_1 -> conv5_1
I0715 16:17:09.409027 13892 net.cpp:122] Setting up conv5_1
I0715 16:17:09.409049 13892 net.cpp:129] Top shape: 1 512 45 45 (1036800)
I0715 16:17:09.409054 13892 net.cpp:137] Memory required for data: 1184015628
I0715 16:17:09.409068 13892 layer_factory.hpp:77] Creating layer relu5_1
I0715 16:17:09.409076 13892 net.cpp:84] Creating Layer relu5_1
I0715 16:17:09.409083 13892 net.cpp:406] relu5_1 <- conv5_1
I0715 16:17:09.409093 13892 net.cpp:367] relu5_1 -> conv5_1 (in-place)
I0715 16:17:09.409852 13892 net.cpp:122] Setting up relu5_1
I0715 16:17:09.409881 13892 net.cpp:129] Top shape: 1 512 45 45 (1036800)
I0715 16:17:09.409885 13892 net.cpp:137] Memory required for data: 1188162828
I0715 16:17:09.409898 13892 layer_factory.hpp:77] Creating layer conv5_2
I0715 16:17:09.409912 13892 net.cpp:84] Creating Layer conv5_2
I0715 16:17:09.409917 13892 net.cpp:406] conv5_2 <- conv5_1
I0715 16:17:09.409927 13892 net.cpp:380] conv5_2 -> conv5_2
I0715 16:17:09.417881 13892 net.cpp:122] Setting up conv5_2
I0715 16:17:09.417903 13892 net.cpp:129] Top shape: 1 512 45 45 (1036800)
I0715 16:17:09.417908 13892 net.cpp:137] Memory required for data: 1192310028
I0715 16:17:09.417922 13892 layer_factory.hpp:77] Creating layer relu5_2
I0715 16:17:09.417939 13892 net.cpp:84] Creating Layer relu5_2
I0715 16:17:09.417944 13892 net.cpp:406] relu5_2 <- conv5_2
I0715 16:17:09.417951 13892 net.cpp:367] relu5_2 -> conv5_2 (in-place)
I0715 16:17:09.418727 13892 net.cpp:122] Setting up relu5_2
I0715 16:17:09.418743 13892 net.cpp:129] Top shape: 1 512 45 45 (1036800)
I0715 16:17:09.418758 13892 net.cpp:137] Memory required for data: 1196457228
I0715 16:17:09.418766 13892 layer_factory.hpp:77] Creating layer conv5_3
I0715 16:17:09.418778 13892 net.cpp:84] Creating Layer conv5_3
I0715 16:17:09.418783 13892 net.cpp:406] conv5_3 <- conv5_2
I0715 16:17:09.418793 13892 net.cpp:380] conv5_3 -> conv5_3
I0715 16:17:09.429316 13892 net.cpp:122] Setting up conv5_3
I0715 16:17:09.429342 13892 net.cpp:129] Top shape: 1 512 45 45 (1036800)
I0715 16:17:09.429353 13892 net.cpp:137] Memory required for data: 1200604428
I0715 16:17:09.429363 13892 layer_factory.hpp:77] Creating layer relu5_3
I0715 16:17:09.429373 13892 net.cpp:84] Creating Layer relu5_3
I0715 16:17:09.429378 13892 net.cpp:406] relu5_3 <- conv5_3
I0715 16:17:09.429383 13892 net.cpp:367] relu5_3 -> conv5_3 (in-place)
I0715 16:17:09.429622 13892 net.cpp:122] Setting up relu5_3
I0715 16:17:09.429636 13892 net.cpp:129] Top shape: 1 512 45 45 (1036800)
I0715 16:17:09.429639 13892 net.cpp:137] Memory required for data: 1204751628
I0715 16:17:09.429643 13892 layer_factory.hpp:77] Creating layer pool5
I0715 16:17:09.429654 13892 net.cpp:84] Creating Layer pool5
I0715 16:17:09.429658 13892 net.cpp:406] pool5 <- conv5_3
I0715 16:17:09.429667 13892 net.cpp:380] pool5 -> pool5
I0715 16:17:09.429721 13892 net.cpp:122] Setting up pool5
I0715 16:17:09.429730 13892 net.cpp:129] Top shape: 1 512 23 23 (270848)
I0715 16:17:09.429734 13892 net.cpp:137] Memory required for data: 1205835020
I0715 16:17:09.429738 13892 layer_factory.hpp:77] Creating layer fc6
I0715 16:17:09.429750 13892 net.cpp:84] Creating Layer fc6
I0715 16:17:09.429754 13892 net.cpp:406] fc6 <- pool5
I0715 16:17:09.429764 13892 net.cpp:380] fc6 -> fc6
I0715 16:17:09.740177 13892 net.cpp:122] Setting up fc6
I0715 16:17:09.740228 13892 net.cpp:129] Top shape: 1 4096 17 17 (1183744)
I0715 16:17:09.740233 13892 net.cpp:137] Memory required for data: 1210569996
I0715 16:17:09.740249 13892 layer_factory.hpp:77] Creating layer relu6
I0715 16:17:09.740263 13892 net.cpp:84] Creating Layer relu6
I0715 16:17:09.740269 13892 net.cpp:406] relu6 <- fc6
I0715 16:17:09.740281 13892 net.cpp:367] relu6 -> fc6 (in-place)
I0715 16:17:09.740535 13892 net.cpp:122] Setting up relu6
I0715 16:17:09.740551 13892 net.cpp:129] Top shape: 1 4096 17 17 (1183744)
I0715 16:17:09.740556 13892 net.cpp:137] Memory required for data: 1215304972
I0715 16:17:09.740561 13892 layer_factory.hpp:77] Creating layer drop6
I0715 16:17:09.740574 13892 net.cpp:84] Creating Layer drop6
I0715 16:17:09.740579 13892 net.cpp:406] drop6 <- fc6
I0715 16:17:09.740588 13892 net.cpp:367] drop6 -> fc6 (in-place)
I0715 16:17:09.740628 13892 net.cpp:122] Setting up drop6
I0715 16:17:09.740645 13892 net.cpp:129] Top shape: 1 4096 17 17 (1183744)
I0715 16:17:09.740649 13892 net.cpp:137] Memory required for data: 1220039948
I0715 16:17:09.740653 13892 layer_factory.hpp:77] Creating layer fc7
I0715 16:17:09.740666 13892 net.cpp:84] Creating Layer fc7
I0715 16:17:09.740670 13892 net.cpp:406] fc7 <- fc6
I0715 16:17:09.740680 13892 net.cpp:380] fc7 -> fc7
I0715 16:17:09.797358 13892 net.cpp:122] Setting up fc7
I0715 16:17:09.797399 13892 net.cpp:129] Top shape: 1 4096 17 17 (1183744)
I0715 16:17:09.797405 13892 net.cpp:137] Memory required for data: 1224774924
I0715 16:17:09.797418 13892 layer_factory.hpp:77] Creating layer relu7
I0715 16:17:09.797436 13892 net.cpp:84] Creating Layer relu7
I0715 16:17:09.797443 13892 net.cpp:406] relu7 <- fc7
I0715 16:17:09.797454 13892 net.cpp:367] relu7 -> fc7 (in-place)
I0715 16:17:09.798238 13892 net.cpp:122] Setting up relu7
I0715 16:17:09.798254 13892 net.cpp:129] Top shape: 1 4096 17 17 (1183744)
I0715 16:17:09.798259 13892 net.cpp:137] Memory required for data: 1229509900
I0715 16:17:09.798264 13892 layer_factory.hpp:77] Creating layer drop7
I0715 16:17:09.798274 13892 net.cpp:84] Creating Layer drop7
I0715 16:17:09.798280 13892 net.cpp:406] drop7 <- fc7
I0715 16:17:09.798286 13892 net.cpp:367] drop7 -> fc7 (in-place)
I0715 16:17:09.798324 13892 net.cpp:122] Setting up drop7
I0715 16:17:09.798331 13892 net.cpp:129] Top shape: 1 4096 17 17 (1183744)
I0715 16:17:09.798334 13892 net.cpp:137] Memory required for data: 1234244876
I0715 16:17:09.798337 13892 layer_factory.hpp:77] Creating layer score_fr-new
I0715 16:17:09.798353 13892 net.cpp:84] Creating Layer score_fr-new
I0715 16:17:09.798357 13892 net.cpp:406] score_fr-new <- fc7
I0715 16:17:09.798364 13892 net.cpp:380] score_fr-new -> score_fr-new
I0715 16:17:09.799996 13892 net.cpp:122] Setting up score_fr-new
I0715 16:17:09.800015 13892 net.cpp:129] Top shape: 1 3 17 17 (867)
I0715 16:17:09.800030 13892 net.cpp:137] Memory required for data: 1234248344
I0715 16:17:09.800040 13892 layer_factory.hpp:77] Creating layer upscore2-new
I0715 16:17:09.800056 13892 net.cpp:84] Creating Layer upscore2-new
I0715 16:17:09.800062 13892 net.cpp:406] upscore2-new <- score_fr-new
I0715 16:17:09.800070 13892 net.cpp:380] upscore2-new -> upscore2-new
I0715 16:17:09.800323 13892 net.cpp:122] Setting up upscore2-new
I0715 16:17:09.800336 13892 net.cpp:129] Top shape: 1 3 36 36 (3888)
I0715 16:17:09.800340 13892 net.cpp:137] Memory required for data: 1234263896
I0715 16:17:09.800354 13892 layer_factory.hpp:77] Creating layer upscore2-new_upscore2-new_0_split
I0715 16:17:09.800367 13892 net.cpp:84] Creating Layer upscore2-new_upscore2-new_0_split
I0715 16:17:09.800371 13892 net.cpp:406] upscore2-new_upscore2-new_0_split <- upscore2-new
I0715 16:17:09.800379 13892 net.cpp:380] upscore2-new_upscore2-new_0_split -> upscore2-new_upscore2-new_0_split_0
I0715 16:17:09.800386 13892 net.cpp:380] upscore2-new_upscore2-new_0_split -> upscore2-new_upscore2-new_0_split_1
I0715 16:17:09.800433 13892 net.cpp:122] Setting up upscore2-new_upscore2-new_0_split
I0715 16:17:09.800446 13892 net.cpp:129] Top shape: 1 3 36 36 (3888)
I0715 16:17:09.800451 13892 net.cpp:129] Top shape: 1 3 36 36 (3888)
I0715 16:17:09.800454 13892 net.cpp:137] Memory required for data: 1234295000
I0715 16:17:09.800458 13892 layer_factory.hpp:77] Creating layer score_pool4-new
I0715 16:17:09.800467 13892 net.cpp:84] Creating Layer score_pool4-new
I0715 16:17:09.800472 13892 net.cpp:406] score_pool4-new <- pool4_pool4_0_split_1
I0715 16:17:09.800478 13892 net.cpp:380] score_pool4-new -> score_pool4-new
I0715 16:17:09.808735 13892 net.cpp:122] Setting up score_pool4-new
I0715 16:17:09.808758 13892 net.cpp:129] Top shape: 1 3 45 45 (6075)
I0715 16:17:09.808763 13892 net.cpp:137] Memory required for data: 1234319300
I0715 16:17:09.808771 13892 layer_factory.hpp:77] Creating layer score_pool4c
I0715 16:17:09.808782 13892 net.cpp:84] Creating Layer score_pool4c
I0715 16:17:09.808789 13892 net.cpp:406] score_pool4c <- score_pool4-new
I0715 16:17:09.808795 13892 net.cpp:406] score_pool4c <- upscore2-new_upscore2-new_0_split_0
I0715 16:17:09.808802 13892 net.cpp:380] score_pool4c -> score_pool4c
I0715 16:17:09.808853 13892 net.cpp:122] Setting up score_pool4c
I0715 16:17:09.808859 13892 net.cpp:129] Top shape: 1 3 36 36 (3888)
I0715 16:17:09.808862 13892 net.cpp:137] Memory required for data: 1234334852
I0715 16:17:09.808866 13892 layer_factory.hpp:77] Creating layer fuse_pool4
I0715 16:17:09.808881 13892 net.cpp:84] Creating Layer fuse_pool4
I0715 16:17:09.808887 13892 net.cpp:406] fuse_pool4 <- upscore2-new_upscore2-new_0_split_1
I0715 16:17:09.808892 13892 net.cpp:406] fuse_pool4 <- score_pool4c
I0715 16:17:09.808897 13892 net.cpp:380] fuse_pool4 -> fuse_pool4
I0715 16:17:09.808933 13892 net.cpp:122] Setting up fuse_pool4
I0715 16:17:09.808938 13892 net.cpp:129] Top shape: 1 3 36 36 (3888)
I0715 16:17:09.808941 13892 net.cpp:137] Memory required for data: 1234350404
I0715 16:17:09.808948 13892 layer_factory.hpp:77] Creating layer upscore_pool4-new
I0715 16:17:09.808957 13892 net.cpp:84] Creating Layer upscore_pool4-new
I0715 16:17:09.808962 13892 net.cpp:406] upscore_pool4-new <- fuse_pool4
I0715 16:17:09.808969 13892 net.cpp:380] upscore_pool4-new -> upscore_pool4-new
I0715 16:17:09.809211 13892 net.cpp:122] Setting up upscore_pool4-new
I0715 16:17:09.809222 13892 net.cpp:129] Top shape: 1 3 74 74 (16428)
I0715 16:17:09.809226 13892 net.cpp:137] Memory required for data: 1234416116
I0715 16:17:09.809231 13892 layer_factory.hpp:77] Creating layer upscore_pool4-new_upscore_pool4-new_0_split
I0715 16:17:09.809237 13892 net.cpp:84] Creating Layer upscore_pool4-new_upscore_pool4-new_0_split
I0715 16:17:09.809242 13892 net.cpp:406] upscore_pool4-new_upscore_pool4-new_0_split <- upscore_pool4-new
I0715 16:17:09.809250 13892 net.cpp:380] upscore_pool4-new_upscore_pool4-new_0_split -> upscore_pool4-new_upscore_pool4-new_0_split_0
I0715 16:17:09.809257 13892 net.cpp:380] upscore_pool4-new_upscore_pool4-new_0_split -> upscore_pool4-new_upscore_pool4-new_0_split_1
I0715 16:17:09.809299 13892 net.cpp:122] Setting up upscore_pool4-new_upscore_pool4-new_0_split
I0715 16:17:09.809305 13892 net.cpp:129] Top shape: 1 3 74 74 (16428)
I0715 16:17:09.809310 13892 net.cpp:129] Top shape: 1 3 74 74 (16428)
I0715 16:17:09.809314 13892 net.cpp:137] Memory required for data: 1234547540
I0715 16:17:09.809317 13892 layer_factory.hpp:77] Creating layer score_pool3-new
I0715 16:17:09.809330 13892 net.cpp:84] Creating Layer score_pool3-new
I0715 16:17:09.809334 13892 net.cpp:406] score_pool3-new <- pool3_pool3_0_split_1
I0715 16:17:09.809341 13892 net.cpp:380] score_pool3-new -> score_pool3-new
I0715 16:17:09.810925 13892 net.cpp:122] Setting up score_pool3-new
I0715 16:17:09.810942 13892 net.cpp:129] Top shape: 1 3 89 89 (23763)
I0715 16:17:09.810947 13892 net.cpp:137] Memory required for data: 1234642592
I0715 16:17:09.810957 13892 layer_factory.hpp:77] Creating layer score_pool3c
I0715 16:17:09.810966 13892 net.cpp:84] Creating Layer score_pool3c
I0715 16:17:09.810971 13892 net.cpp:406] score_pool3c <- score_pool3-new
I0715 16:17:09.810981 13892 net.cpp:406] score_pool3c <- upscore_pool4-new_upscore_pool4-new_0_split_0
I0715 16:17:09.810987 13892 net.cpp:380] score_pool3c -> score_pool3c
I0715 16:17:09.811024 13892 net.cpp:122] Setting up score_pool3c
I0715 16:17:09.811030 13892 net.cpp:129] Top shape: 1 3 74 74 (16428)
I0715 16:17:09.811034 13892 net.cpp:137] Memory required for data: 1234708304
I0715 16:17:09.811040 13892 layer_factory.hpp:77] Creating layer fuse_pool3
I0715 16:17:09.811048 13892 net.cpp:84] Creating Layer fuse_pool3
I0715 16:17:09.811051 13892 net.cpp:406] fuse_pool3 <- upscore_pool4-new_upscore_pool4-new_0_split_1
I0715 16:17:09.811056 13892 net.cpp:406] fuse_pool3 <- score_pool3c
I0715 16:17:09.811065 13892 net.cpp:380] fuse_pool3 -> fuse_pool3
I0715 16:17:09.811092 13892 net.cpp:122] Setting up fuse_pool3
I0715 16:17:09.811100 13892 net.cpp:129] Top shape: 1 3 74 74 (16428)
I0715 16:17:09.811105 13892 net.cpp:137] Memory required for data: 1234774016
I0715 16:17:09.811108 13892 layer_factory.hpp:77] Creating layer upscore8-new
I0715 16:17:09.811115 13892 net.cpp:84] Creating Layer upscore8-new
I0715 16:17:09.811120 13892 net.cpp:406] upscore8-new <- fuse_pool3
I0715 16:17:09.811127 13892 net.cpp:380] upscore8-new -> upscore8-new
I0715 16:17:09.811460 13892 net.cpp:122] Setting up upscore8-new
I0715 16:17:09.811480 13892 net.cpp:129] Top shape: 1 3 600 600 (1080000)
I0715 16:17:09.811486 13892 net.cpp:137] Memory required for data: 1239094016
I0715 16:17:09.811494 13892 layer_factory.hpp:77] Creating layer upscore8_cropped
I0715 16:17:09.811504 13892 net.cpp:84] Creating Layer upscore8_cropped
I0715 16:17:09.811512 13892 net.cpp:406] upscore8_cropped <- upscore8-new
I0715 16:17:09.811522 13892 net.cpp:406] upscore8_cropped <- data_data_0_split_1
I0715 16:17:09.811532 13892 net.cpp:380] upscore8_cropped -> upscore8_cropped
I0715 16:17:09.811574 13892 net.cpp:122] Setting up upscore8_cropped
I0715 16:17:09.811599 13892 net.cpp:129] Top shape: 1 3 512 512 (786432)
I0715 16:17:09.811604 13892 net.cpp:137] Memory required for data: 1242239744
I0715 16:17:09.811609 13892 layer_factory.hpp:77] Creating layer upscore8_cropped_upscore8_cropped_0_split
I0715 16:17:09.811622 13892 net.cpp:84] Creating Layer upscore8_cropped_upscore8_cropped_0_split
I0715 16:17:09.811630 13892 net.cpp:406] upscore8_cropped_upscore8_cropped_0_split <- upscore8_cropped
I0715 16:17:09.811640 13892 net.cpp:380] upscore8_cropped_upscore8_cropped_0_split -> upscore8_cropped_upscore8_cropped_0_split_0
I0715 16:17:09.811650 13892 net.cpp:380] upscore8_cropped_upscore8_cropped_0_split -> upscore8_cropped_upscore8_cropped_0_split_1
I0715 16:17:09.811714 13892 net.cpp:122] Setting up upscore8_cropped_upscore8_cropped_0_split
I0715 16:17:09.811733 13892 net.cpp:129] Top shape: 1 3 512 512 (786432)
I0715 16:17:09.811741 13892 net.cpp:129] Top shape: 1 3 512 512 (786432)
I0715 16:17:09.811748 13892 net.cpp:137] Memory required for data: 1248531200
I0715 16:17:09.811758 13892 layer_factory.hpp:77] Creating layer prob
I0715 16:17:09.811767 13892 net.cpp:84] Creating Layer prob
I0715 16:17:09.811779 13892 net.cpp:406] prob <- upscore8_cropped_upscore8_cropped_0_split_0
I0715 16:17:09.811787 13892 net.cpp:380] prob -> prob
I0715 16:17:09.812181 13892 net.cpp:122] Setting up prob
I0715 16:17:09.812199 13892 net.cpp:129] Top shape: 1 3 512 512 (786432)
I0715 16:17:09.812206 13892 net.cpp:137] Memory required for data: 1251676928
I0715 16:17:09.812212 13892 layer_factory.hpp:77] Creating layer saliency1
I0715 16:17:09.812234 13892 net.cpp:84] Creating Layer saliency1
I0715 16:17:09.812242 13892 net.cpp:406] saliency1 <- prob
I0715 16:17:09.812259 13892 net.cpp:380] saliency1 -> saliency1
I0715 16:17:09.818763 13892 net.cpp:122] Setting up saliency1
I0715 16:17:09.818797 13892 net.cpp:129] Top shape: 1 3 512 512 (786432)
I0715 16:17:09.818804 13892 net.cpp:137] Memory required for data: 1254822656
I0715 16:17:09.818819 13892 layer_factory.hpp:77] Creating layer relu_saliency1
I0715 16:17:09.818835 13892 net.cpp:84] Creating Layer relu_saliency1
I0715 16:17:09.818841 13892 net.cpp:406] relu_saliency1 <- saliency1
I0715 16:17:09.818852 13892 net.cpp:367] relu_saliency1 -> saliency1 (in-place)
I0715 16:17:09.819257 13892 net.cpp:122] Setting up relu_saliency1
I0715 16:17:09.819320 13892 net.cpp:129] Top shape: 1 3 512 512 (786432)
I0715 16:17:09.819344 13892 net.cpp:137] Memory required for data: 1257968384
I0715 16:17:09.819348 13892 layer_factory.hpp:77] Creating layer saliency
I0715 16:17:09.819363 13892 net.cpp:84] Creating Layer saliency
I0715 16:17:09.819368 13892 net.cpp:406] saliency <- saliency1
I0715 16:17:09.819386 13892 net.cpp:380] saliency -> saliency
I0715 16:17:09.823557 13892 net.cpp:122] Setting up saliency
I0715 16:17:09.823609 13892 net.cpp:129] Top shape: 1 3 512 512 (786432)
I0715 16:17:09.823616 13892 net.cpp:137] Memory required for data: 1261114112
I0715 16:17:09.823702 13892 layer_factory.hpp:77] Creating layer silence_saliency
I0715 16:17:09.823729 13892 net.cpp:84] Creating Layer silence_saliency
I0715 16:17:09.823740 13892 net.cpp:406] silence_saliency <- saliency
I0715 16:17:09.823765 13892 net.cpp:122] Setting up silence_saliency
I0715 16:17:09.823770 13892 net.cpp:137] Memory required for data: 1261114112
I0715 16:17:09.823773 13892 layer_factory.hpp:77] Creating layer crop
I0715 16:17:09.824304 13892 net.cpp:84] Creating Layer crop
I0715 16:17:09.824317 13892 net.cpp:406] crop <- label_data_1_split_0
I0715 16:17:09.824335 13892 net.cpp:406] crop <- data_data_0_split_2
I0715 16:17:09.824342 13892 net.cpp:406] crop <- crop_margin
I0715 16:17:09.824347 13892 net.cpp:406] crop <- crop_prob
I0715 16:17:09.824363 13892 net.cpp:406] crop <- crop_sample_batch
I0715 16:17:09.824371 13892 net.cpp:380] crop -> data-R
I0715 16:17:09.824383 13892 net.cpp:380] crop -> crop_info
I0715 16:17:09.837030 13892 net.cpp:122] Setting up crop
I0715 16:17:09.837066 13892 net.cpp:129] Top shape: 1 3 512 512 (786432)
I0715 16:17:09.837074 13892 net.cpp:129] Top shape: 1 2 4 (8)
I0715 16:17:09.837077 13892 net.cpp:137] Memory required for data: 1264259872
I0715 16:17:09.837083 13892 layer_factory.hpp:77] Creating layer data-R_crop_0_split
I0715 16:17:09.837095 13892 net.cpp:84] Creating Layer data-R_crop_0_split
I0715 16:17:09.837100 13892 net.cpp:406] data-R_crop_0_split <- data-R
I0715 16:17:09.837108 13892 net.cpp:380] data-R_crop_0_split -> data-R_crop_0_split_0
I0715 16:17:09.837131 13892 net.cpp:380] data-R_crop_0_split -> data-R_crop_0_split_1
I0715 16:17:09.837182 13892 net.cpp:122] Setting up data-R_crop_0_split
I0715 16:17:09.837189 13892 net.cpp:129] Top shape: 1 3 512 512 (786432)
I0715 16:17:09.837194 13892 net.cpp:129] Top shape: 1 3 512 512 (786432)
I0715 16:17:09.837198 13892 net.cpp:137] Memory required for data: 1270551328
I0715 16:17:09.837203 13892 layer_factory.hpp:77] Creating layer conv1_1-R
I0715 16:17:09.837215 13892 net.cpp:84] Creating Layer conv1_1-R
I0715 16:17:09.837219 13892 net.cpp:406] conv1_1-R <- data-R_crop_0_split_0
I0715 16:17:09.837227 13892 net.cpp:380] conv1_1-R -> conv1_1-R
I0715 16:17:09.843674 13892 net.cpp:122] Setting up conv1_1-R
I0715 16:17:09.843704 13892 net.cpp:129] Top shape: 1 64 710 710 (32262400)
I0715 16:17:09.843719 13892 net.cpp:137] Memory required for data: 1399600928
I0715 16:17:09.843747 13892 layer_factory.hpp:77] Creating layer relu1_1-R
I0715 16:17:09.843786 13892 net.cpp:84] Creating Layer relu1_1-R
I0715 16:17:09.843791 13892 net.cpp:406] relu1_1-R <- conv1_1-R
I0715 16:17:09.843801 13892 net.cpp:367] relu1_1-R -> conv1_1-R (in-place)
I0715 16:17:09.844056 13892 net.cpp:122] Setting up relu1_1-R
I0715 16:17:09.844069 13892 net.cpp:129] Top shape: 1 64 710 710 (32262400)
I0715 16:17:09.844074 13892 net.cpp:137] Memory required for data: 1528650528
I0715 16:17:09.844079 13892 layer_factory.hpp:77] Creating layer conv1_2-R
I0715 16:17:09.844089 13892 net.cpp:84] Creating Layer conv1_2-R
I0715 16:17:09.844092 13892 net.cpp:406] conv1_2-R <- conv1_1-R
I0715 16:17:09.844100 13892 net.cpp:380] conv1_2-R -> conv1_2-R
I0715 16:17:09.847759 13892 net.cpp:122] Setting up conv1_2-R
I0715 16:17:09.847777 13892 net.cpp:129] Top shape: 1 64 710 710 (32262400)
I0715 16:17:09.847792 13892 net.cpp:137] Memory required for data: 1657700128
I0715 16:17:09.847801 13892 layer_factory.hpp:77] Creating layer relu1_2-R
I0715 16:17:09.847810 13892 net.cpp:84] Creating Layer relu1_2-R
I0715 16:17:09.847826 13892 net.cpp:406] relu1_2-R <- conv1_2-R
I0715 16:17:09.847833 13892 net.cpp:367] relu1_2-R -> conv1_2-R (in-place)
I0715 16:17:09.848709 13892 net.cpp:122] Setting up relu1_2-R
I0715 16:17:09.848727 13892 net.cpp:129] Top shape: 1 64 710 710 (32262400)
I0715 16:17:09.848742 13892 net.cpp:137] Memory required for data: 1786749728
I0715 16:17:09.848747 13892 layer_factory.hpp:77] Creating layer pool1-R
I0715 16:17:09.848757 13892 net.cpp:84] Creating Layer pool1-R
I0715 16:17:09.848762 13892 net.cpp:406] pool1-R <- conv1_2-R
I0715 16:17:09.848770 13892 net.cpp:380] pool1-R -> pool1-R
I0715 16:17:09.848835 13892 net.cpp:122] Setting up pool1-R
I0715 16:17:09.848843 13892 net.cpp:129] Top shape: 1 64 355 355 (8065600)
I0715 16:17:09.848847 13892 net.cpp:137] Memory required for data: 1819012128
I0715 16:17:09.848863 13892 layer_factory.hpp:77] Creating layer conv2_1-R
I0715 16:17:09.848889 13892 net.cpp:84] Creating Layer conv2_1-R
I0715 16:17:09.848894 13892 net.cpp:406] conv2_1-R <- pool1-R
I0715 16:17:09.848902 13892 net.cpp:380] conv2_1-R -> conv2_1-R
I0715 16:17:09.850780 13892 net.cpp:122] Setting up conv2_1-R
I0715 16:17:09.850797 13892 net.cpp:129] Top shape: 1 128 355 355 (16131200)
I0715 16:17:09.850809 13892 net.cpp:137] Memory required for data: 1883536928
I0715 16:17:09.850818 13892 layer_factory.hpp:77] Creating layer relu2_1-R
I0715 16:17:09.850826 13892 net.cpp:84] Creating Layer relu2_1-R
I0715 16:17:09.850832 13892 net.cpp:406] relu2_1-R <- conv2_1-R
I0715 16:17:09.850839 13892 net.cpp:367] relu2_1-R -> conv2_1-R (in-place)
I0715 16:17:09.851716 13892 net.cpp:122] Setting up relu2_1-R
I0715 16:17:09.851733 13892 net.cpp:129] Top shape: 1 128 355 355 (16131200)
I0715 16:17:09.851747 13892 net.cpp:137] Memory required for data: 1948061728
I0715 16:17:09.851752 13892 layer_factory.hpp:77] Creating layer conv2_2-R
I0715 16:17:09.851763 13892 net.cpp:84] Creating Layer conv2_2-R
I0715 16:17:09.851768 13892 net.cpp:406] conv2_2-R <- conv2_1-R
I0715 16:17:09.851776 13892 net.cpp:380] conv2_2-R -> conv2_2-R
I0715 16:17:09.856148 13892 net.cpp:122] Setting up conv2_2-R
I0715 16:17:09.856178 13892 net.cpp:129] Top shape: 1 128 355 355 (16131200)
I0715 16:17:09.856184 13892 net.cpp:137] Memory required for data: 2012586528
I0715 16:17:09.856192 13892 layer_factory.hpp:77] Creating layer relu2_2-R
I0715 16:17:09.856199 13892 net.cpp:84] Creating Layer relu2_2-R
I0715 16:17:09.856204 13892 net.cpp:406] relu2_2-R <- conv2_2-R
I0715 16:17:09.856211 13892 net.cpp:367] relu2_2-R -> conv2_2-R (in-place)
I0715 16:17:09.856457 13892 net.cpp:122] Setting up relu2_2-R
I0715 16:17:09.856469 13892 net.cpp:129] Top shape: 1 128 355 355 (16131200)
I0715 16:17:09.856473 13892 net.cpp:137] Memory required for data: 2077111328
I0715 16:17:09.856488 13892 layer_factory.hpp:77] Creating layer pool2-R
I0715 16:17:09.856495 13892 net.cpp:84] Creating Layer pool2-R
I0715 16:17:09.856500 13892 net.cpp:406] pool2-R <- conv2_2-R
I0715 16:17:09.856508 13892 net.cpp:380] pool2-R -> pool2-R
I0715 16:17:09.856564 13892 net.cpp:122] Setting up pool2-R
I0715 16:17:09.856573 13892 net.cpp:129] Top shape: 1 128 178 178 (4055552)
I0715 16:17:09.856577 13892 net.cpp:137] Memory required for data: 2093333536
I0715 16:17:09.856581 13892 layer_factory.hpp:77] Creating layer conv3_1-R
I0715 16:17:09.856590 13892 net.cpp:84] Creating Layer conv3_1-R
I0715 16:17:09.856595 13892 net.cpp:406] conv3_1-R <- pool2-R
I0715 16:17:09.856602 13892 net.cpp:380] conv3_1-R -> conv3_1-R
I0715 16:17:09.861420 13892 net.cpp:122] Setting up conv3_1-R
I0715 16:17:09.861493 13892 net.cpp:129] Top shape: 1 256 178 178 (8111104)
I0715 16:17:09.861502 13892 net.cpp:137] Memory required for data: 2125777952
I0715 16:17:09.861523 13892 layer_factory.hpp:77] Creating layer relu3_1-R
I0715 16:17:09.861546 13892 net.cpp:84] Creating Layer relu3_1-R
I0715 16:17:09.861557 13892 net.cpp:406] relu3_1-R <- conv3_1-R
I0715 16:17:09.861574 13892 net.cpp:367] relu3_1-R -> conv3_1-R (in-place)
I0715 16:17:09.863780 13892 net.cpp:122] Setting up relu3_1-R
I0715 16:17:09.863824 13892 net.cpp:129] Top shape: 1 256 178 178 (8111104)
I0715 16:17:09.863833 13892 net.cpp:137] Memory required for data: 2158222368
I0715 16:17:09.863842 13892 layer_factory.hpp:77] Creating layer conv3_2-R
I0715 16:17:09.863880 13892 net.cpp:84] Creating Layer conv3_2-R
I0715 16:17:09.863905 13892 net.cpp:406] conv3_2-R <- conv3_1-R
I0715 16:17:09.863920 13892 net.cpp:380] conv3_2-R -> conv3_2-R
I0715 16:17:09.871541 13892 net.cpp:122] Setting up conv3_2-R
I0715 16:17:09.871582 13892 net.cpp:129] Top shape: 1 256 178 178 (8111104)
I0715 16:17:09.871590 13892 net.cpp:137] Memory required for data: 2190666784
I0715 16:17:09.871616 13892 layer_factory.hpp:77] Creating layer relu3_2-R
I0715 16:17:09.871631 13892 net.cpp:84] Creating Layer relu3_2-R
I0715 16:17:09.871640 13892 net.cpp:406] relu3_2-R <- conv3_2-R
I0715 16:17:09.871652 13892 net.cpp:367] relu3_2-R -> conv3_2-R (in-place)
I0715 16:17:09.872095 13892 net.cpp:122] Setting up relu3_2-R
I0715 16:17:09.872118 13892 net.cpp:129] Top shape: 1 256 178 178 (8111104)
I0715 16:17:09.872134 13892 net.cpp:137] Memory required for data: 2223111200
I0715 16:17:09.872143 13892 layer_factory.hpp:77] Creating layer conv3_3-R
I0715 16:17:09.872162 13892 net.cpp:84] Creating Layer conv3_3-R
I0715 16:17:09.872171 13892 net.cpp:406] conv3_3-R <- conv3_2-R
I0715 16:17:09.872189 13892 net.cpp:380] conv3_3-R -> conv3_3-R
I0715 16:17:09.879333 13892 net.cpp:122] Setting up conv3_3-R
I0715 16:17:09.879376 13892 net.cpp:129] Top shape: 1 256 178 178 (8111104)
I0715 16:17:09.879385 13892 net.cpp:137] Memory required for data: 2255555616
I0715 16:17:09.879402 13892 layer_factory.hpp:77] Creating layer relu3_3-R
I0715 16:17:09.879417 13892 net.cpp:84] Creating Layer relu3_3-R
I0715 16:17:09.879426 13892 net.cpp:406] relu3_3-R <- conv3_3-R
I0715 16:17:09.879438 13892 net.cpp:367] relu3_3-R -> conv3_3-R (in-place)
I0715 16:17:09.879765 13892 net.cpp:122] Setting up relu3_3-R
I0715 16:17:09.879778 13892 net.cpp:129] Top shape: 1 256 178 178 (8111104)
I0715 16:17:09.879783 13892 net.cpp:137] Memory required for data: 2288000032
I0715 16:17:09.879788 13892 layer_factory.hpp:77] Creating layer pool3-R
I0715 16:17:09.879798 13892 net.cpp:84] Creating Layer pool3-R
I0715 16:17:09.879804 13892 net.cpp:406] pool3-R <- conv3_3-R
I0715 16:17:09.879813 13892 net.cpp:380] pool3-R -> pool3-R
I0715 16:17:09.879905 13892 net.cpp:122] Setting up pool3-R
I0715 16:17:09.879923 13892 net.cpp:129] Top shape: 1 256 89 89 (2027776)
I0715 16:17:09.879938 13892 net.cpp:137] Memory required for data: 2296111136
I0715 16:17:09.879950 13892 layer_factory.hpp:77] Creating layer pool3-R_pool3-R_0_split
I0715 16:17:09.879974 13892 net.cpp:84] Creating Layer pool3-R_pool3-R_0_split
I0715 16:17:09.879987 13892 net.cpp:406] pool3-R_pool3-R_0_split <- pool3-R
I0715 16:17:09.880000 13892 net.cpp:380] pool3-R_pool3-R_0_split -> pool3-R_pool3-R_0_split_0
I0715 16:17:09.880022 13892 net.cpp:380] pool3-R_pool3-R_0_split -> pool3-R_pool3-R_0_split_1
I0715 16:17:09.880102 13892 net.cpp:122] Setting up pool3-R_pool3-R_0_split
I0715 16:17:09.880118 13892 net.cpp:129] Top shape: 1 256 89 89 (2027776)
I0715 16:17:09.880129 13892 net.cpp:129] Top shape: 1 256 89 89 (2027776)
I0715 16:17:09.880136 13892 net.cpp:137] Memory required for data: 2312333344
I0715 16:17:09.880146 13892 layer_factory.hpp:77] Creating layer conv4_1-R
I0715 16:17:09.880162 13892 net.cpp:84] Creating Layer conv4_1-R
I0715 16:17:09.880173 13892 net.cpp:406] conv4_1-R <- pool3-R_pool3-R_0_split_0
I0715 16:17:09.880188 13892 net.cpp:380] conv4_1-R -> conv4_1-R
I0715 16:17:09.886751 13892 net.cpp:122] Setting up conv4_1-R
I0715 16:17:09.886771 13892 net.cpp:129] Top shape: 1 512 89 89 (4055552)
I0715 16:17:09.886777 13892 net.cpp:137] Memory required for data: 2328555552
I0715 16:17:09.886793 13892 layer_factory.hpp:77] Creating layer relu4_1-R
I0715 16:17:09.886811 13892 net.cpp:84] Creating Layer relu4_1-R
I0715 16:17:09.886822 13892 net.cpp:406] relu4_1-R <- conv4_1-R
I0715 16:17:09.886831 13892 net.cpp:367] relu4_1-R -> conv4_1-R (in-place)
I0715 16:17:09.892539 13892 net.cpp:122] Setting up relu4_1-R
I0715 16:17:09.892558 13892 net.cpp:129] Top shape: 1 512 89 89 (4055552)
I0715 16:17:09.892565 13892 net.cpp:137] Memory required for data: 2344777760
I0715 16:17:09.892570 13892 layer_factory.hpp:77] Creating layer conv4_2-R
I0715 16:17:09.892586 13892 net.cpp:84] Creating Layer conv4_2-R
I0715 16:17:09.892594 13892 net.cpp:406] conv4_2-R <- conv4_1-R
I0715 16:17:09.892604 13892 net.cpp:380] conv4_2-R -> conv4_2-R
I0715 16:17:09.907027 13892 net.cpp:122] Setting up conv4_2-R
I0715 16:17:09.907094 13892 net.cpp:129] Top shape: 1 512 89 89 (4055552)
I0715 16:17:09.907099 13892 net.cpp:137] Memory required for data: 2360999968
I0715 16:17:09.907126 13892 layer_factory.hpp:77] Creating layer relu4_2-R
I0715 16:17:09.907162 13892 net.cpp:84] Creating Layer relu4_2-R
I0715 16:17:09.907181 13892 net.cpp:406] relu4_2-R <- conv4_2-R
I0715 16:17:09.907189 13892 net.cpp:367] relu4_2-R -> conv4_2-R (in-place)
I0715 16:17:09.908201 13892 net.cpp:122] Setting up relu4_2-R
I0715 16:17:09.908221 13892 net.cpp:129] Top shape: 1 512 89 89 (4055552)
I0715 16:17:09.908226 13892 net.cpp:137] Memory required for data: 2377222176
I0715 16:17:09.908236 13892 layer_factory.hpp:77] Creating layer conv4_3-R
I0715 16:17:09.908257 13892 net.cpp:84] Creating Layer conv4_3-R
I0715 16:17:09.908263 13892 net.cpp:406] conv4_3-R <- conv4_2-R
I0715 16:17:09.908278 13892 net.cpp:380] conv4_3-R -> conv4_3-R
I0715 16:17:09.918431 13892 net.cpp:122] Setting up conv4_3-R
I0715 16:17:09.918503 13892 net.cpp:129] Top shape: 1 512 89 89 (4055552)
I0715 16:17:09.918514 13892 net.cpp:137] Memory required for data: 2393444384
I0715 16:17:09.918534 13892 layer_factory.hpp:77] Creating layer relu4_3-R
I0715 16:17:09.918556 13892 net.cpp:84] Creating Layer relu4_3-R
I0715 16:17:09.918570 13892 net.cpp:406] relu4_3-R <- conv4_3-R
I0715 16:17:09.918586 13892 net.cpp:367] relu4_3-R -> conv4_3-R (in-place)
I0715 16:17:09.918936 13892 net.cpp:122] Setting up relu4_3-R
I0715 16:17:09.918957 13892 net.cpp:129] Top shape: 1 512 89 89 (4055552)
I0715 16:17:09.918965 13892 net.cpp:137] Memory required for data: 2409666592
I0715 16:17:09.918973 13892 layer_factory.hpp:77] Creating layer pool4-R
I0715 16:17:09.918993 13892 net.cpp:84] Creating Layer pool4-R
I0715 16:17:09.919001 13892 net.cpp:406] pool4-R <- conv4_3-R
I0715 16:17:09.919034 13892 net.cpp:380] pool4-R -> pool4-R
I0715 16:17:09.919144 13892 net.cpp:122] Setting up pool4-R
I0715 16:17:09.919164 13892 net.cpp:129] Top shape: 1 512 45 45 (1036800)
I0715 16:17:09.919172 13892 net.cpp:137] Memory required for data: 2413813792
I0715 16:17:09.919181 13892 layer_factory.hpp:77] Creating layer pool4-R_pool4-R_0_split
I0715 16:17:09.919194 13892 net.cpp:84] Creating Layer pool4-R_pool4-R_0_split
I0715 16:17:09.919203 13892 net.cpp:406] pool4-R_pool4-R_0_split <- pool4-R
I0715 16:17:09.919214 13892 net.cpp:380] pool4-R_pool4-R_0_split -> pool4-R_pool4-R_0_split_0
I0715 16:17:09.919229 13892 net.cpp:380] pool4-R_pool4-R_0_split -> pool4-R_pool4-R_0_split_1
I0715 16:17:09.919319 13892 net.cpp:122] Setting up pool4-R_pool4-R_0_split
I0715 16:17:09.919337 13892 net.cpp:129] Top shape: 1 512 45 45 (1036800)
I0715 16:17:09.919348 13892 net.cpp:129] Top shape: 1 512 45 45 (1036800)
I0715 16:17:09.919354 13892 net.cpp:137] Memory required for data: 2422108192
I0715 16:17:09.919363 13892 layer_factory.hpp:77] Creating layer conv5_1-R
I0715 16:17:09.919384 13892 net.cpp:84] Creating Layer conv5_1-R
I0715 16:17:09.919392 13892 net.cpp:406] conv5_1-R <- pool4-R_pool4-R_0_split_0
I0715 16:17:09.919407 13892 net.cpp:380] conv5_1-R -> conv5_1-R
I0715 16:17:09.931754 13892 net.cpp:122] Setting up conv5_1-R
I0715 16:17:09.931793 13892 net.cpp:129] Top shape: 1 512 45 45 (1036800)
I0715 16:17:09.931798 13892 net.cpp:137] Memory required for data: 2426255392
I0715 16:17:09.931890 13892 layer_factory.hpp:77] Creating layer relu5_1-R
I0715 16:17:09.931905 13892 net.cpp:84] Creating Layer relu5_1-R
I0715 16:17:09.931911 13892 net.cpp:406] relu5_1-R <- conv5_1-R
I0715 16:17:09.931918 13892 net.cpp:367] relu5_1-R -> conv5_1-R (in-place)
I0715 16:17:09.932780 13892 net.cpp:122] Setting up relu5_1-R
I0715 16:17:09.932798 13892 net.cpp:129] Top shape: 1 512 45 45 (1036800)
I0715 16:17:09.932812 13892 net.cpp:137] Memory required for data: 2430402592
I0715 16:17:09.932817 13892 layer_factory.hpp:77] Creating layer conv5_2-R
I0715 16:17:09.932838 13892 net.cpp:84] Creating Layer conv5_2-R
I0715 16:17:09.932844 13892 net.cpp:406] conv5_2-R <- conv5_1-R
I0715 16:17:09.932854 13892 net.cpp:380] conv5_2-R -> conv5_2-R
I0715 16:17:09.950300 13892 net.cpp:122] Setting up conv5_2-R
I0715 16:17:09.950348 13892 net.cpp:129] Top shape: 1 512 45 45 (1036800)
I0715 16:17:09.950356 13892 net.cpp:137] Memory required for data: 2434549792
I0715 16:17:09.950373 13892 layer_factory.hpp:77] Creating layer relu5_2-R
I0715 16:17:09.950388 13892 net.cpp:84] Creating Layer relu5_2-R
I0715 16:17:09.950395 13892 net.cpp:406] relu5_2-R <- conv5_2-R
I0715 16:17:09.950404 13892 net.cpp:367] relu5_2-R -> conv5_2-R (in-place)
I0715 16:17:09.950774 13892 net.cpp:122] Setting up relu5_2-R
I0715 16:17:09.950791 13892 net.cpp:129] Top shape: 1 512 45 45 (1036800)
I0715 16:17:09.950798 13892 net.cpp:137] Memory required for data: 2438696992
I0715 16:17:09.950803 13892 layer_factory.hpp:77] Creating layer conv5_3-R
I0715 16:17:09.950832 13892 net.cpp:84] Creating Layer conv5_3-R
I0715 16:17:09.950840 13892 net.cpp:406] conv5_3-R <- conv5_2-R
I0715 16:17:09.950850 13892 net.cpp:380] conv5_3-R -> conv5_3-R
I0715 16:17:09.965502 13892 net.cpp:122] Setting up conv5_3-R
I0715 16:17:09.965526 13892 net.cpp:129] Top shape: 1 512 45 45 (1036800)
I0715 16:17:09.965540 13892 net.cpp:137] Memory required for data: 2442844192
I0715 16:17:09.965551 13892 layer_factory.hpp:77] Creating layer relu5_3-R
I0715 16:17:09.965567 13892 net.cpp:84] Creating Layer relu5_3-R
I0715 16:17:09.965574 13892 net.cpp:406] relu5_3-R <- conv5_3-R
I0715 16:17:09.965581 13892 net.cpp:367] relu5_3-R -> conv5_3-R (in-place)
I0715 16:17:09.965849 13892 net.cpp:122] Setting up relu5_3-R
I0715 16:17:09.965864 13892 net.cpp:129] Top shape: 1 512 45 45 (1036800)
I0715 16:17:09.965868 13892 net.cpp:137] Memory required for data: 2446991392
I0715 16:17:09.965873 13892 layer_factory.hpp:77] Creating layer pool5-R
I0715 16:17:09.965888 13892 net.cpp:84] Creating Layer pool5-R
I0715 16:17:09.965893 13892 net.cpp:406] pool5-R <- conv5_3-R
I0715 16:17:09.965906 13892 net.cpp:380] pool5-R -> pool5-R
I0715 16:17:09.965981 13892 net.cpp:122] Setting up pool5-R
I0715 16:17:09.965992 13892 net.cpp:129] Top shape: 1 512 23 23 (270848)
I0715 16:17:09.965996 13892 net.cpp:137] Memory required for data: 2448074784
I0715 16:17:09.966002 13892 layer_factory.hpp:77] Creating layer fc6-R
I0715 16:17:09.966022 13892 net.cpp:84] Creating Layer fc6-R
I0715 16:17:09.966027 13892 net.cpp:406] fc6-R <- pool5-R
I0715 16:17:09.966042 13892 net.cpp:380] fc6-R -> fc6-R
I0715 16:17:10.282883 13892 net.cpp:122] Setting up fc6-R
I0715 16:17:10.282948 13892 net.cpp:129] Top shape: 1 4096 17 17 (1183744)
I0715 16:17:10.282958 13892 net.cpp:137] Memory required for data: 2452809760
I0715 16:17:10.282979 13892 layer_factory.hpp:77] Creating layer relu6-R
I0715 16:17:10.283010 13892 net.cpp:84] Creating Layer relu6-R
I0715 16:17:10.283021 13892 net.cpp:406] relu6-R <- fc6-R
I0715 16:17:10.283035 13892 net.cpp:367] relu6-R -> fc6-R (in-place)
I0715 16:17:10.286078 13892 net.cpp:122] Setting up relu6-R
I0715 16:17:10.286118 13892 net.cpp:129] Top shape: 1 4096 17 17 (1183744)
I0715 16:17:10.286123 13892 net.cpp:137] Memory required for data: 2457544736
I0715 16:17:10.286128 13892 layer_factory.hpp:77] Creating layer drop6-R
I0715 16:17:10.286139 13892 net.cpp:84] Creating Layer drop6-R
I0715 16:17:10.286144 13892 net.cpp:406] drop6-R <- fc6-R
I0715 16:17:10.286152 13892 net.cpp:367] drop6-R -> fc6-R (in-place)
I0715 16:17:10.286203 13892 net.cpp:122] Setting up drop6-R
I0715 16:17:10.286211 13892 net.cpp:129] Top shape: 1 4096 17 17 (1183744)
I0715 16:17:10.286216 13892 net.cpp:137] Memory required for data: 2462279712
I0715 16:17:10.286221 13892 layer_factory.hpp:77] Creating layer fc7-R
I0715 16:17:10.286242 13892 net.cpp:84] Creating Layer fc7-R
I0715 16:17:10.286247 13892 net.cpp:406] fc7-R <- fc6-R
I0715 16:17:10.286259 13892 net.cpp:380] fc7-R -> fc7-R
I0715 16:17:10.344372 13892 net.cpp:122] Setting up fc7-R
I0715 16:17:10.344424 13892 net.cpp:129] Top shape: 1 4096 17 17 (1183744)
I0715 16:17:10.344430 13892 net.cpp:137] Memory required for data: 2467014688
I0715 16:17:10.344445 13892 layer_factory.hpp:77] Creating layer relu7-R
I0715 16:17:10.344465 13892 net.cpp:84] Creating Layer relu7-R
I0715 16:17:10.344473 13892 net.cpp:406] relu7-R <- fc7-R
I0715 16:17:10.344493 13892 net.cpp:367] relu7-R -> fc7-R (in-place)
I0715 16:17:10.345424 13892 net.cpp:122] Setting up relu7-R
I0715 16:17:10.345459 13892 net.cpp:129] Top shape: 1 4096 17 17 (1183744)
I0715 16:17:10.345465 13892 net.cpp:137] Memory required for data: 2471749664
I0715 16:17:10.345470 13892 layer_factory.hpp:77] Creating layer drop7-R
I0715 16:17:10.345481 13892 net.cpp:84] Creating Layer drop7-R
I0715 16:17:10.345487 13892 net.cpp:406] drop7-R <- fc7-R
I0715 16:17:10.345496 13892 net.cpp:367] drop7-R -> fc7-R (in-place)
I0715 16:17:10.345551 13892 net.cpp:122] Setting up drop7-R
I0715 16:17:10.345558 13892 net.cpp:129] Top shape: 1 4096 17 17 (1183744)
I0715 16:17:10.345562 13892 net.cpp:137] Memory required for data: 2476484640
I0715 16:17:10.345567 13892 layer_factory.hpp:77] Creating layer score_fr-new-R
I0715 16:17:10.345578 13892 net.cpp:84] Creating Layer score_fr-new-R
I0715 16:17:10.345583 13892 net.cpp:406] score_fr-new-R <- fc7-R
I0715 16:17:10.345594 13892 net.cpp:380] score_fr-new-R -> score_fr-new-R
I0715 16:17:10.347565 13892 net.cpp:122] Setting up score_fr-new-R
I0715 16:17:10.347597 13892 net.cpp:129] Top shape: 1 3 17 17 (867)
I0715 16:17:10.347602 13892 net.cpp:137] Memory required for data: 2476488108
I0715 16:17:10.347613 13892 layer_factory.hpp:77] Creating layer upscore2-new-R
I0715 16:17:10.347630 13892 net.cpp:84] Creating Layer upscore2-new-R
I0715 16:17:10.347636 13892 net.cpp:406] upscore2-new-R <- score_fr-new-R
I0715 16:17:10.347646 13892 net.cpp:380] upscore2-new-R -> upscore2-new-R
I0715 16:17:10.347923 13892 net.cpp:122] Setting up upscore2-new-R
I0715 16:17:10.347935 13892 net.cpp:129] Top shape: 1 3 36 36 (3888)
I0715 16:17:10.347939 13892 net.cpp:137] Memory required for data: 2476503660
I0715 16:17:10.347946 13892 layer_factory.hpp:77] Creating layer upscore2-new-R_upscore2-new-R_0_split
I0715 16:17:10.347955 13892 net.cpp:84] Creating Layer upscore2-new-R_upscore2-new-R_0_split
I0715 16:17:10.347961 13892 net.cpp:406] upscore2-new-R_upscore2-new-R_0_split <- upscore2-new-R
I0715 16:17:10.347968 13892 net.cpp:380] upscore2-new-R_upscore2-new-R_0_split -> upscore2-new-R_upscore2-new-R_0_split_0
I0715 16:17:10.347977 13892 net.cpp:380] upscore2-new-R_upscore2-new-R_0_split -> upscore2-new-R_upscore2-new-R_0_split_1
I0715 16:17:10.348029 13892 net.cpp:122] Setting up upscore2-new-R_upscore2-new-R_0_split
I0715 16:17:10.348044 13892 net.cpp:129] Top shape: 1 3 36 36 (3888)
I0715 16:17:10.348050 13892 net.cpp:129] Top shape: 1 3 36 36 (3888)
I0715 16:17:10.348054 13892 net.cpp:137] Memory required for data: 2476534764
I0715 16:17:10.348058 13892 layer_factory.hpp:77] Creating layer score_pool4-new-R
I0715 16:17:10.348068 13892 net.cpp:84] Creating Layer score_pool4-new-R
I0715 16:17:10.348074 13892 net.cpp:406] score_pool4-new-R <- pool4-R_pool4-R_0_split_1
I0715 16:17:10.348085 13892 net.cpp:380] score_pool4-new-R -> score_pool4-new-R
I0715 16:17:10.349759 13892 net.cpp:122] Setting up score_pool4-new-R
I0715 16:17:10.349792 13892 net.cpp:129] Top shape: 1 3 45 45 (6075)
I0715 16:17:10.349797 13892 net.cpp:137] Memory required for data: 2476559064
I0715 16:17:10.349805 13892 layer_factory.hpp:77] Creating layer score_pool4c-R
I0715 16:17:10.349819 13892 net.cpp:84] Creating Layer score_pool4c-R
I0715 16:17:10.349825 13892 net.cpp:406] score_pool4c-R <- score_pool4-new-R
I0715 16:17:10.349833 13892 net.cpp:406] score_pool4c-R <- upscore2-new-R_upscore2-new-R_0_split_0
I0715 16:17:10.349839 13892 net.cpp:380] score_pool4c-R -> score_pool4c-R
I0715 16:17:10.349881 13892 net.cpp:122] Setting up score_pool4c-R
I0715 16:17:10.349889 13892 net.cpp:129] Top shape: 1 3 36 36 (3888)
I0715 16:17:10.349894 13892 net.cpp:137] Memory required for data: 2476574616
I0715 16:17:10.349897 13892 layer_factory.hpp:77] Creating layer fuse_pool4-R
I0715 16:17:10.349906 13892 net.cpp:84] Creating Layer fuse_pool4-R
I0715 16:17:10.349911 13892 net.cpp:406] fuse_pool4-R <- upscore2-new-R_upscore2-new-R_0_split_1
I0715 16:17:10.349917 13892 net.cpp:406] fuse_pool4-R <- score_pool4c-R
I0715 16:17:10.349926 13892 net.cpp:380] fuse_pool4-R -> fuse_pool4-R
I0715 16:17:10.349961 13892 net.cpp:122] Setting up fuse_pool4-R
I0715 16:17:10.349968 13892 net.cpp:129] Top shape: 1 3 36 36 (3888)
I0715 16:17:10.349972 13892 net.cpp:137] Memory required for data: 2476590168
I0715 16:17:10.349978 13892 layer_factory.hpp:77] Creating layer upscore_pool4-new-R
I0715 16:17:10.349988 13892 net.cpp:84] Creating Layer upscore_pool4-new-R
I0715 16:17:10.349993 13892 net.cpp:406] upscore_pool4-new-R <- fuse_pool4-R
I0715 16:17:10.350003 13892 net.cpp:380] upscore_pool4-new-R -> upscore_pool4-new-R
I0715 16:17:10.350273 13892 net.cpp:122] Setting up upscore_pool4-new-R
I0715 16:17:10.350286 13892 net.cpp:129] Top shape: 1 3 74 74 (16428)
I0715 16:17:10.350289 13892 net.cpp:137] Memory required for data: 2476655880
I0715 16:17:10.350296 13892 layer_factory.hpp:77] Creating layer upscore_pool4-new-R_upscore_pool4-new-R_0_split
I0715 16:17:10.350303 13892 net.cpp:84] Creating Layer upscore_pool4-new-R_upscore_pool4-new-R_0_split
I0715 16:17:10.350308 13892 net.cpp:406] upscore_pool4-new-R_upscore_pool4-new-R_0_split <- upscore_pool4-new-R
I0715 16:17:10.350316 13892 net.cpp:380] upscore_pool4-new-R_upscore_pool4-new-R_0_split -> upscore_pool4-new-R_upscore_pool4-new-R_0_split_0
I0715 16:17:10.350324 13892 net.cpp:380] upscore_pool4-new-R_upscore_pool4-new-R_0_split -> upscore_pool4-new-R_upscore_pool4-new-R_0_split_1
I0715 16:17:10.350374 13892 net.cpp:122] Setting up upscore_pool4-new-R_upscore_pool4-new-R_0_split
I0715 16:17:10.350381 13892 net.cpp:129] Top shape: 1 3 74 74 (16428)
I0715 16:17:10.350387 13892 net.cpp:129] Top shape: 1 3 74 74 (16428)
I0715 16:17:10.350391 13892 net.cpp:137] Memory required for data: 2476787304
I0715 16:17:10.350395 13892 layer_factory.hpp:77] Creating layer score_pool3-new-R
I0715 16:17:10.350406 13892 net.cpp:84] Creating Layer score_pool3-new-R
I0715 16:17:10.350416 13892 net.cpp:406] score_pool3-new-R <- pool3-R_pool3-R_0_split_1
I0715 16:17:10.350425 13892 net.cpp:380] score_pool3-new-R -> score_pool3-new-R
I0715 16:17:10.351491 13892 net.cpp:122] Setting up score_pool3-new-R
I0715 16:17:10.351508 13892 net.cpp:129] Top shape: 1 3 89 89 (23763)
I0715 16:17:10.351524 13892 net.cpp:137] Memory required for data: 2476882356
I0715 16:17:10.351536 13892 layer_factory.hpp:77] Creating layer score_pool3c-R
I0715 16:17:10.351546 13892 net.cpp:84] Creating Layer score_pool3c-R
I0715 16:17:10.351550 13892 net.cpp:406] score_pool3c-R <- score_pool3-new-R
I0715 16:17:10.351557 13892 net.cpp:406] score_pool3c-R <- upscore_pool4-new-R_upscore_pool4-new-R_0_split_0
I0715 16:17:10.351564 13892 net.cpp:380] score_pool3c-R -> score_pool3c-R
I0715 16:17:10.351603 13892 net.cpp:122] Setting up score_pool3c-R
I0715 16:17:10.351610 13892 net.cpp:129] Top shape: 1 3 74 74 (16428)
I0715 16:17:10.351614 13892 net.cpp:137] Memory required for data: 2476948068
I0715 16:17:10.351619 13892 layer_factory.hpp:77] Creating layer fuse_pool3-R
I0715 16:17:10.351626 13892 net.cpp:84] Creating Layer fuse_pool3-R
I0715 16:17:10.351631 13892 net.cpp:406] fuse_pool3-R <- upscore_pool4-new-R_upscore_pool4-new-R_0_split_1
I0715 16:17:10.351637 13892 net.cpp:406] fuse_pool3-R <- score_pool3c-R
I0715 16:17:10.351644 13892 net.cpp:380] fuse_pool3-R -> fuse_pool3-R
I0715 16:17:10.351676 13892 net.cpp:122] Setting up fuse_pool3-R
I0715 16:17:10.351683 13892 net.cpp:129] Top shape: 1 3 74 74 (16428)
I0715 16:17:10.351687 13892 net.cpp:137] Memory required for data: 2477013780
I0715 16:17:10.351691 13892 layer_factory.hpp:77] Creating layer upscore8-new-R
I0715 16:17:10.351699 13892 net.cpp:84] Creating Layer upscore8-new-R
I0715 16:17:10.351704 13892 net.cpp:406] upscore8-new-R <- fuse_pool3-R
I0715 16:17:10.351712 13892 net.cpp:380] upscore8-new-R -> upscore8-new-R
I0715 16:17:10.351990 13892 net.cpp:122] Setting up upscore8-new-R
I0715 16:17:10.352001 13892 net.cpp:129] Top shape: 1 3 600 600 (1080000)
I0715 16:17:10.352005 13892 net.cpp:137] Memory required for data: 2481333780
I0715 16:17:10.352012 13892 layer_factory.hpp:77] Creating layer upscore8_cropped-R
I0715 16:17:10.352021 13892 net.cpp:84] Creating Layer upscore8_cropped-R
I0715 16:17:10.352026 13892 net.cpp:406] upscore8_cropped-R <- upscore8-new-R
I0715 16:17:10.352035 13892 net.cpp:406] upscore8_cropped-R <- data-R_crop_0_split_1
I0715 16:17:10.352042 13892 net.cpp:380] upscore8_cropped-R -> upscore8_cropped-R
I0715 16:17:10.352075 13892 net.cpp:122] Setting up upscore8_cropped-R
I0715 16:17:10.352082 13892 net.cpp:129] Top shape: 1 3 512 512 (786432)
I0715 16:17:10.352087 13892 net.cpp:137] Memory required for data: 2484479508
I0715 16:17:10.352092 13892 layer_factory.hpp:77] Creating layer upscore8_uncropped-R
I0715 16:17:10.352681 13892 net.cpp:84] Creating Layer upscore8_uncropped-R
I0715 16:17:10.352695 13892 net.cpp:406] upscore8_uncropped-R <- crop_info
I0715 16:17:10.352702 13892 net.cpp:406] upscore8_uncropped-R <- upscore8_cropped-R
I0715 16:17:10.352715 13892 net.cpp:406] upscore8_uncropped-R <- data_data_0_split_3
I0715 16:17:10.352723 13892 net.cpp:380] upscore8_uncropped-R -> upscore8_uncropped-R
I0715 16:17:10.355245 13892 net.cpp:122] Setting up upscore8_uncropped-R
I0715 16:17:10.355264 13892 net.cpp:129] Top shape: 1 3 512 512 (786432)
I0715 16:17:10.355268 13892 net.cpp:137] Memory required for data: 2487625236
I0715 16:17:10.355288 13892 layer_factory.hpp:77] Creating layer loss1
I0715 16:17:10.355310 13892 net.cpp:84] Creating Layer loss1
I0715 16:17:10.355315 13892 net.cpp:406] loss1 <- upscore8_cropped_upscore8_cropped_0_split_1
I0715 16:17:10.355322 13892 net.cpp:406] loss1 <- label_data_1_split_1
I0715 16:17:10.355334 13892 net.cpp:380] loss1 -> loss1
…
snapshot_prefix: "/media/Med_2T2/data2/models/snapshots/indiv:1e-5x10,20/FD0:ZI3_1_20180715_091940/train"
test_initialization: false
average_loss: 20
stepvalue: 40000
iter_size: 1
I0715 17:16:37.122112 13892 solver.cpp:77] Creating training net from train_net file: /media/Med_2T2/data2/prototxts/training_I3x10.prototxt
I0715 17:16:37.124267 13892 net.cpp:51] Initializing net from parameters: 
state {
  phase: TRAIN
}
layer {
  name: "data"
  type: "Python"
  top: "data"
  top: "label"
  top: "crop_margin"
  top: "crop_prob"
  top: "crop_sample_batch"
  python_param {
    module: "Data"
    layer: "DataLayer"
  }
}
layer {
  name: "conv1_1"
  type: "Convolution"
  bottom: "data"
  top: "conv1_1"
  param {
    lr_mult: 1
    decay_mult: 1
  }
  param {
    lr_mult: 2
    decay_mult: 0
  }
  convolution_param {
    num_output: 64
    pad: 100
    kernel_size: 3
    stride: 1
  }
}
layer {
  name: "relu1_1"
  type: "ReLU"
  bottom: "conv1_1"
  top: "conv1_1"
}
layer {
  name: "conv1_2"
  type: "Convolution"
  bottom: "conv1_1"
  top: "conv1_2"
  param {
    lr_mult: 1
    decay_mult: 1
  }
  param {
    lr_mult: 2
    decay_mult: 0
  }
  convolution_param {
    num_output: 64
    pad: 1
    kernel_size: 3
    stride: 1
  }
}
layer {
  name: "relu1_2"
  type: "ReLU"
  bottom: "conv1_2"
  top: "conv1_2"
}
layer {
  name: "pool1"
  type: "Pooling"
  bottom: "conv1_2"
  top: "pool1"
  pooling_param {
    pool: MAX
    kernel_size: 2
    stride: 2
  }
}
layer {
  name: "conv2_1"
  type: "Convolution"
  bottom: "pool1"
  top: "conv2_1"
  param {
    lr_mult: 1
    decay_mult: 1
  }
  param {
    lr_mult: 2
    decay_mult: 0
  }
  convolution_param {
    num_output: 128
    pad: 1
    kernel_size: 3
    stride: 1
  }
}
layer {
  name: "relu2_1"
  type: "ReLU"
  bottom: "conv2_1"
  top: "conv2_1"
}
layer {
  name: "conv2_2"
  type: "Convolution"
  bottom: "conv2_1"
  top: "conv2_2"
  param {
    lr_mult: 1
    decay_mult: 1
  }
  param {
    lr_mult: 2
    decay_mult: 0
  }
  convolution_param {
    num_output: 128
    pad: 1
    kernel_size: 3
    stride: 1
  }
}
layer {
  name: "relu2_2"
  type: "ReLU"
  bottom: "conv2_2"
  top: "conv2_2"
}
layer {
  name: "pool2"
  type: "Pooling"
  bottom: "conv2_2"
  top: "pool2"
  pooling_param {
    pool: MAX
    kernel_size: 2
    stride: 2
  }
}
layer {
  name: "conv3_1"
  type: "Convolution"
  bottom: "pool2"
  top: "conv3_1"
  param {
    lr_mult: 1
    decay_mult: 1
  }
  param {
    lr_mult: 2
    decay_mult: 0
  }
  convolution_param {
    num_output: 256
    pad: 1
    kernel_size: 3
    stride: 1
  }
}
layer {
  name: "relu3_1"
  type: "ReLU"
  bottom: "conv3_1"
  top: "conv3_1"
}
layer {
  name: "conv3_2"
  type: "Convolution"
  bottom: "conv3_1"
  top: "conv3_2"
  param {
    lr_mult: 1
    decay_mult: 1
  }
  param {
    lr_mult: 2
    decay_mult: 0
  }
  convolution_param {
    num_output: 256
    pad: 1
    kernel_size: 3
    stride: 1
  }
}
layer {
  name: "relu3_2"
  type: "ReLU"
  bottom: "conv3_2"
  top: "conv3_2"
}
layer {
  name: "conv3_3"
  type: "Convolution"
  bottom: "conv3_2"
  top: "conv3_3"
  param {
    lr_mult: 1
    decay_mult: 1
  }
  param {
    lr_mult: 2
    decay_mult: 0
  }
  convolution_param {
    num_output: 256
    pad: 1
    kernel_size: 3
    stride: 1
  }
}
layer {
  name: "relu3_3"
  type: "ReLU"
  bottom: "conv3_3"
  top: "conv3_3"
}
layer {
  name: "pool3"
  type: "Pooling"
  bottom: "conv3_3"
  top: "pool3"
  pooling_param {
    pool: MAX
    kernel_size: 2
    stride: 2
  }
}
layer {
  name: "conv4_1"
  type: "Convolution"
  bottom: "pool3"
  top: "conv4_1"
  param {
    lr_mult: 1
    decay_mult: 1
  }
  param {
    lr_mult: 2
    decay_mult: 0
  }
  convolution_param {
    num_output: 512
    pad: 1
    kernel_size: 3
    stride: 1
  }
}
layer {
  name: "relu4_1"
  type: "ReLU"
  bottom: "conv4_1"
  top: "conv4_1"
}
layer {
  name: "conv4_2"
  type: "Convolution"
  bottom: "conv4_1"
  top: "conv4_2"
  param {
    lr_mult: 1
    decay_mult: 1
  }
  param {
    lr_mult: 2
    decay_mult: 0
  }
  convolution_param {
    num_output: 512
    pad: 1
    kernel_size: 3
    stride: 1
  }
}
layer {
  name: "relu4_2"
  type: "ReLU"
  bottom: "conv4_2"
  top: "conv4_2"
}
layer {
  name: "conv4_3"
  type: "Convolution"
  bottom: "conv4_2"
  top: "conv4_3"
  param {
    lr_mult: 1
    decay_mult: 1
  }
  param {
    lr_mult: 2
    decay_mult: 0
  }
  convolution_param {
    num_output: 512
    pad: 1
    kernel_size: 3
    stride: 1
  }
}
layer {
  name: "relu4_3"
  type: "ReLU"
  bottom: "conv4_3"
  top: "conv4_3"
}
layer {
  name: "pool4"
  type: "Pooling"
  bottom: "conv4_3"
  top: "pool4"
  pooling_param {
    pool: MAX
    kernel_size: 2
    stride: 2
  }
}
layer {
  name: "conv5_1"
  type: "Convolution"
  bottom: "pool4"
  top: "conv5_1"
  param {
    lr_mult: 1
    decay_mult: 1
  }
  param {
    lr_mult: 2
    decay_mult: 0
  }
  convolution_param {
    num_output: 512
    pad: 1
    kernel_size: 3
    stride: 1
  }
}
layer {
  name: "relu5_1"
  type: "ReLU"
  bottom: "conv5_1"
  top: "conv5_1"
}
layer {
  name: "conv5_2"
  type: "Convolution"
  bottom: "conv5_1"
  top: "conv5_2"
  param {
    lr_mult: 1
    decay_mult: 1
  }
  param {
    lr_mult: 2
    decay_mult: 0
  }
  convolution_param {
    num_output: 512
    pad: 1
    kernel_size: 3
    stride: 1
  }
}
layer {
  name: "relu5_2"
  type: "ReLU"
  bottom: "conv5_2"
  top: "conv5_2"
}
layer {
  name: "conv5_3"
  type: "Convolution"
  bottom: "conv5_2"
  top: "conv5_3"
  param {
    lr_mult: 1
    decay_mult: 1
  }
  param {
    lr_mult: 2
    decay_mult: 0
  }
  convolution_param {
    num_output: 512
    pad: 1
    kernel_size: 3
    stride: 1
  }
}
layer {
  name: "relu5_3"
  type: "ReLU"
  bottom: "conv5_3"
  top: "conv5_3"
}
layer {
  name: "pool5"
  type: "Pooling"
  bottom: "conv5_3"
  top: "pool5"
  pooling_param {
    pool: MAX
    kernel_size: 2
    stride: 2
  }
}
layer {
  name: "fc6"
  type: "Convolution"
  bottom: "pool5"
  top: "fc6"
  param {
    lr_mult: 1
    decay_mult: 1
  }
  param {
    lr_mult: 2
    decay_mult: 0
  }
  convolution_param {
    num_output: 4096
    pad: 0
    kernel_size: 7
    stride: 1
  }
}
layer {
  name: "relu6"
  type: "ReLU"
  bottom: "fc6"
  top: "fc6"
}
layer {
  name: "drop6"
  type: "Dropout"
  bottom: "fc6"
  top: "fc6"
  dropout_param {
    dropout_ratio: 0.5
  }
}
layer {
  name: "fc7"
  type: "Convolution"
  bottom: "fc6"
  top: "fc7"
  param {
    lr_mult: 1
    decay_mult: 1
  }
  param {
    lr_mult: 2
    decay_mult: 0
  }
  convolution_param {
    num_output: 4096
    pad: 0
    kernel_size: 1
    stride: 1
  }
}
layer {
  name: "relu7"
  type: "ReLU"
  bottom: "fc7"
  top: "fc7"
}
layer {
  name: "drop7"
  type: "Dropout"
  bottom: "fc7"
  top: "fc7"
  dropout_param {
    dropout_ratio: 0.5
  }
}
layer {
  name: "score_fr-new"
  type: "Convolution"
  bottom: "fc7"
  top: "score_fr-new"
  param {
    lr_mult: 1
    decay_mult: 1
  }
  param {
    lr_mult: 2
    decay_mult: 0
  }
  convolution_param {
    num_output: 3
    kernel_size: 1
  }
}
layer {
  name: "upscore2-new"
  type: "Deconvolution"
  bottom: "score_fr-new"
  top: "upscore2-new"
  param {
    lr_mult: 0
  }
  convolution_param {
    num_output: 3
    bias_term: false
    kernel_size: 4
    stride: 2
  }
}
layer {
  name: "score_pool4-new"
  type: "Convolution"
  bottom: "pool4"
  top: "score_pool4-new"
  param {
    lr_mult: 1
    decay_mult: 1
  }
  param {
    lr_mult: 2
    decay_mult: 0
  }
  convolution_param {
    num_output: 3
    pad: 0
    kernel_size: 1
  }
}
layer {
  name: "score_pool4c"
  type: "Crop"
  bottom: "score_pool4-new"
  bottom: "upscore2-new"
  top: "score_pool4c"
  crop_param {
    axis: 2
    offset: 5
  }
}
layer {
  name: "fuse_pool4"
  type: "Eltwise"
  bottom: "upscore2-new"
  bottom: "score_pool4c"
  top: "fuse_pool4"
  eltwise_param {
    operation: SUM
  }
}
layer {
  name: "upscore_pool4-new"
  type: "Deconvolution"
  bottom: "fuse_pool4"
  top: "upscore_pool4-new"
  param {
    lr_mult: 0
  }
  convolution_param {
    num_output: 3
    bias_term: false
    kernel_size: 4
    stride: 2
  }
}
layer {
  name: "score_pool3-new"
  type: "Convolution"
  bottom: "pool3"
  top: "score_pool3-new"
  param {
    lr_mult: 1
    decay_mult: 1
  }
  param {
    lr_mult: 2
    decay_mult: 0
  }
  convolution_param {
    num_output: 3
    pad: 0
    kernel_size: 1
  }
}
layer {
  name: "score_pool3c"
  type: "Crop"
  bottom: "score_pool3-new"
  bottom: "upscore_pool4-new"
  top: "score_pool3c"
  crop_param {
    axis: 2
    offset: 9
  }
}
layer {
  name: "fuse_pool3"
  type: "Eltwise"
  bottom: "upscore_pool4-new"
  bottom: "score_pool3c"
  top: "fuse_pool3"
  eltwise_param {
    operation: SUM
  }
}
layer {
  name: "upscore8-new"
  type: "Deconvolution"
  bottom: "fuse_pool3"
  top: "upscore8-new"
  param {
    lr_mult: 0
  }
  convolution_param {
    num_output: 3
    bias_term: false
    kernel_size: 16
    stride: 8
  }
}
layer {
  name: "upscore8_cropped"
  type: "Crop"
  bottom: "upscore8-new"
  bottom: "data"
  top: "upscore8_cropped"
  crop_param {
    axis: 2
    offset: 31
  }
}
layer {
  name: "prob"
  type: "Sigmoid"
  bottom: "upscore8_cropped"
  top: "prob"
}
layer {
  name: "saliency1"
  type: "Convolution"
  bottom: "prob"
  top: "saliency1"
  param {
    lr_mult: 10
    decay_mult: 1
  }
  param {
    lr_mult: 20
    decay_mult: 0
  }
  convolution_param {
    num_output: 3
    pad: 1
    kernel_size: 3
    stride: 1
    weight_filler {
      type: "xavier"
    }
    bias_filler {
      type: "constant"
      value: 1
    }
  }
}
layer {
  name: "relu_saliency1"
  type: "ReLU"
  bottom: "saliency1"
  top: "saliency1"
}
layer {
  name: "saliency"
  type: "Convolution"
  bottom: "saliency1"
  top: "saliency"
  param {
    lr_mult: 10
    decay_mult: 1
  }
  param {
    lr_mult: 20
    decay_mult: 0
  }
  convolution_param {
    num_output: 3
    pad: 2
    kernel_size: 5
    stride: 1
    weight_filler {
      type: "xavier"
    }
    bias_filler {
      type: "constant"
      value: 1
    }
  }
}
layer {
  name: "saliency_data"
  type: "Eltwise"
  bottom: "data"
  bottom: "saliency"
  top: "saliency_data"
  eltwise_param {
    operation: PROD
  }
}
layer {
  name: "crop"
  type: "Python"
  bottom: "label"
  bottom: "saliency_data"
  bottom: "crop_margin"
  bottom: "crop_prob"
  bottom: "crop_sample_batch"
  top: "data-R"
  top: "crop_info"
  python_param {
    module: "Crop"
    layer: "CropLayer"
    param_str: "{\"TEST\": 0}"
  }
}
layer {
  name: "conv1_1-R"
  type: "Convolution"
  bottom: "data-R"
  top: "conv1_1-R"
  param {
    lr_mult: 10
    decay_mult: 1
  }
  param {
    lr_mult: 20
    decay_mult: 0
  }
  convolution_param {
    num_output: 64
    pad: 100
    kernel_size: 3
    stride: 1
  }
}
layer {
  name: "relu1_1-R"
  type: "ReLU"
  bottom: "conv1_1-R"
  top: "conv1_1-R"
}
layer {
  name: "conv1_2-R"
  type: "Convolution"
  bottom: "conv1_1-R"
  top: "conv1_2-R"
  param {
    lr_mult: 10
    decay_mult: 1
  }
  param {
    lr_mult: 20
    decay_mult: 0
  }
  convolution_param {
    num_output: 64
    pad: 1
    kernel_size: 3
    stride: 1
  }
}
layer {
  name: "relu1_2-R"
  type: "ReLU"
  bottom: "conv1_2-R"
  top: "conv1_2-R"
}
layer {
  name: "pool1-R"
  type: "Pooling"
  bottom: "conv1_2-R"
  top: "pool1-R"
  pooling_param {
    pool: MAX
    kernel_size: 2
    stride: 2
  }
}
layer {
  name: "conv2_1-R"
  type: "Convolution"
  bottom: "pool1-R"
  top: "conv2_1-R"
  param {
    lr_mult: 10
    decay_mult: 1
  }
  param {
    lr_mult: 20
    decay_mult: 0
  }
  convolution_param {
    num_output: 128
    pad: 1
    kernel_size: 3
    stride: 1
  }
}
layer {
  name: "relu2_1-R"
  type: "ReLU"
  bottom: "conv2_1-R"
  top: "conv2_1-R"
}
layer {
  name: "conv2_2-R"
  type: "Convolution"
  bottom: "conv2_1-R"
  top: "conv2_2-R"
  param {
    lr_mult: 10
    decay_mult: 1
  }
  param {
    lr_mult: 20
    decay_mult: 0
  }
  convolution_param {
    num_output: 128
    pad: 1
    kernel_size: 3
    stride: 1
  }
}
layer {
  name: "relu2_2-R"
  type: "ReLU"
  bottom: "conv2_2-R"
  top: "conv2_2-R"
}
layer {
  name: "pool2-R"
  type: "Pooling"
  bottom: "conv2_2-R"
  top: "pool2-R"
  pooling_param {
    pool: MAX
    kernel_size: 2
    stride: 2
  }
}
layer {
  name: "conv3_1-R"
  type: "Convolution"
  bottom: "pool2-R"
  top: "conv3_1-R"
  param {
    lr_mult: 10
    decay_mult: 1
  }
  param {
    lr_mult: 20
    decay_mult: 0
  }
  convolution_param {
    num_output: 256
    pad: 1
    kernel_size: 3
    stride: 1
  }
}
layer {
  name: "relu3_1-R"
  type: "ReLU"
  bottom: "conv3_1-R"
  top: "conv3_1-R"
}
layer {
  name: "conv3_2-R"
  type: "Convolution"
  bottom: "conv3_1-R"
  top: "conv3_2-R"
  param {
    lr_mult: 10
    decay_mult: 1
  }
  param {
    lr_mult: 20
    decay_mult: 0
  }
  convolution_param {
    num_output: 256
    pad: 1
    kernel_size: 3
    stride: 1
  }
}
layer {
  name: "relu3_2-R"
  type: "ReLU"
  bottom: "conv3_2-R"
  top: "conv3_2-R"
}
layer {
  name: "conv3_3-R"
  type: "Convolution"
  bottom: "conv3_2-R"
  top: "conv3_3-R"
  param {
    lr_mult: 10
    decay_mult: 1
  }
  param {
    lr_mult: 20
    decay_mult: 0
  }
  convolution_param {
    num_output: 256
    pad: 1
    kernel_size: 3
    stride: 1
  }
}
layer {
  name: "relu3_3-R"
  type: "ReLU"
  bottom: "conv3_3-R"
  top: "conv3_3-R"
}
layer {
  name: "pool3-R"
  type: "Pooling"
  bottom: "conv3_3-R"
  top: "pool3-R"
  pooling_param {
    pool: MAX
    kernel_size: 2
    stride: 2
  }
}
layer {
  name: "conv4_1-R"
  type: "Convolution"
  bottom: "pool3-R"
  top: "conv4_1-R"
  param {
    lr_mult: 10
    decay_mult: 1
  }
  param {
    lr_mult: 20
    decay_mult: 0
  }
  convolution_param {
    num_output: 512
    pad: 1
    kernel_size: 3
    stride: 1
  }
}
layer {
  name: "relu4_1-R"
  type: "ReLU"
  bottom: "conv4_1-R"
  top: "conv4_1-R"
}
layer {
  name: "conv4_2-R"
  type: "Convolution"
  bottom: "conv4_1-R"
  top: "conv4_2-R"
  param {
    lr_mult: 10
    decay_mult: 1
  }
  param {
    lr_mult: 20
    decay_mult: 0
  }
  convolution_param {
    num_output: 512
    pad: 1
    kernel_size: 3
    stride: 1
  }
}
layer {
  name: "relu4_2-R"
  type: "ReLU"
  bottom: "conv4_2-R"
  top: "conv4_2-R"
}
layer {
  name: "conv4_3-R"
  type: "Convolution"
  bottom: "conv4_2-R"
  top: "conv4_3-R"
  param {
    lr_mult: 10
    decay_mult: 1
  }
  param {
    lr_mult: 20
    decay_mult: 0
  }
  convolution_param {
    num_output: 512
    pad: 1
    kernel_size: 3
    stride: 1
  }
}
layer {
  name: "relu4_3-R"
  type: "ReLU"
  bottom: "conv4_3-R"
  top: "conv4_3-R"
}
layer {
  name: "pool4-R"
  type: "Pooling"
  bottom: "conv4_3-R"
  top: "pool4-R"
  pooling_param {
    pool: MAX
    kernel_size: 2
    stride: 2
  }
}
layer {
  name: "conv5_1-R"
  type: "Convolution"
  bottom: "pool4-R"
  top: "conv5_1-R"
  param {
    lr_mult: 10
    decay_mult: 1
  }
  param {
    lr_mult: 20
    decay_mult: 0
  }
  convolution_param {
    num_output: 512
    pad: 1
    kernel_size: 3
    stride: 1
  }
}
layer {
  name: "relu5_1-R"
  type: "ReLU"
  bottom: "conv5_1-R"
  top: "conv5_1-R"
}
layer {
  name: "conv5_2-R"
  type: "Convolution"
  bottom: "conv5_1-R"
  top: "conv5_2-R"
  param {
    lr_mult: 10
    decay_mult: 1
  }
  param {
    lr_mult: 20
    decay_mult: 0
  }
  convolution_param {
    num_output: 512
    pad: 1
    kernel_size: 3
    stride: 1
  }
}
layer {
  name: "relu5_2-R"
  type: "ReLU"
  bottom: "conv5_2-R"
  top: "conv5_2-R"
}
layer {
  name: "conv5_3-R"
  type: "Convolution"
  bottom: "conv5_2-R"
  top: "conv5_3-R"
  param {
    lr_mult: 10
    decay_mult: 1
  }
  param {
    lr_mult: 20
    decay_mult: 0
  }
  convolution_param {
    num_output: 512
    pad: 1
    kernel_size: 3
    stride: 1
  }
}
layer {
  name: "relu5_3-R"
  type: "ReLU"
  bottom: "conv5_3-R"
  top: "conv5_3-R"
}
layer {
  name: "pool5-R"
  type: "Pooling"
  bottom: "conv5_3-R"
  top: "pool5-R"
  pooling_param {
    pool: MAX
    kernel_size: 2
    stride: 2
  }
}
layer {
  name: "fc6-R"
  type: "Convolution"
  bottom: "pool5-R"
  top: "fc6-R"
  param {
    lr_mult: 10
    decay_mult: 1
  }
  param {
    lr_mult: 20
    decay_mult: 0
  }
  convolution_param {
    num_output: 4096
    pad: 0
    kernel_size: 7
    stride: 1
  }
}
layer {
  name: "relu6-R"
  type: "ReLU"
  bottom: "fc6-R"
  top: "fc6-R"
}
layer {
  name: "drop6-R"
  type: "Dropout"
  bottom: "fc6-R"
  top: "fc6-R"
  dropout_param {
    dropout_ratio: 0.5
  }
}
layer {
  name: "fc7-R"
  type: "Convolution"
  bottom: "fc6-R"
  top: "fc7-R"
  param {
    lr_mult: 10
    decay_mult: 1
  }
  param {
    lr_mult: 20
    decay_mult: 0
  }
  convolution_param {
    num_output: 4096
    pad: 0
    kernel_size: 1
    stride: 1
  }
}
layer {
  name: "relu7-R"
  type: "ReLU"
  bottom: "fc7-R"
  top: "fc7-R"
}
layer {
  name: "drop7-R"
  type: "Dropout"
  bottom: "fc7-R"
  top: "fc7-R"
  dropout_param {
    dropout_ratio: 0.5
  }
}
layer {
  name: "score_fr-new-R"
  type: "Convolution"
  bottom: "fc7-R"
  top: "score_fr-new-R"
  param {
    lr_mult: 10
    decay_mult: 1
  }
  param {
    lr_mult: 20
    decay_mult: 0
  }
  convolution_param {
    num_output: 3
    kernel_size: 1
  }
}
layer {
  name: "upscore2-new-R"
  type: "Deconvolution"
  bottom: "score_fr-new-R"
  top: "upscore2-new-R"
  param {
    lr_mult: 0
  }
  convolution_param {
    num_output: 3
    bias_term: false
    kernel_size: 4
    stride: 2
  }
}
layer {
  name: "score_pool4-new-R"
  type: "Convolution"
  bottom: "pool4-R"
  top: "score_pool4-new-R"
  param {
    lr_mult: 10
    decay_mult: 1
  }
  param {
    lr_mult: 20
    decay_mult: 0
  }
  convolution_param {
    num_output: 3
    pad: 0
    kernel_size: 1
  }
}
layer {
  name: "score_pool4c-R"
  type: "Crop"
  bottom: "score_pool4-new-R"
  bottom: "upscore2-new-R"
  top: "score_pool4c-R"
  crop_param {
    axis: 2
    offset: 5
  }
}
layer {
  name: "fuse_pool4-R"
  type: "Eltwise"
  bottom: "upscore2-new-R"
  bottom: "score_pool4c-R"
  top: "fuse_pool4-R"
  eltwise_param {
    operation: SUM
  }
}
layer {
  name: "upscore_pool4-new-R"
  type: "Deconvolution"
  bottom: "fuse_pool4-R"
  top: "upscore_pool4-new-R"
  param {
    lr_mult: 0
  }
  convolution_param {
    num_output: 3
    bias_term: false
    kernel_size: 4
    stride: 2
  }
}
layer {
  name: "score_pool3-new-R"
  type: "Convolution"
  bottom: "pool3-R"
  top: "score_pool3-new-R"
  param {
    lr_mult: 10
    decay_mult: 1
  }
  param {
    lr_mult: 20
    decay_mult: 0
  }
  convolution_param {
    num_output: 3
    pad: 0
    kernel_size: 1
  }
}
layer {
  name: "score_pool3c-R"
  type: "Crop"
  bottom: "score_pool3-new-R"
  bottom: "upscore_pool4-new-R"
  top: "score_pool3c-R"
  crop_param {
    axis: 2
    offset: 9
  }
}
layer {
  name: "fuse_pool3-R"
  type: "Eltwise"
  bottom: "upscore_pool4-new-R"
  bottom: "score_pool3c-R"
  top: "fuse_pool3-R"
  eltwise_param {
    operation: SUM
  }
}
layer {
  name: "upscore8-new-R"
  type: "Deconvolution"
  bottom: "fuse_pool3-R"
  top: "upscore8-new-R"
  param {
    lr_mult: 0
  }
  convolution_param {
    num_output: 3
    bias_term: false
    kernel_size: 16
    stride: 8
  }
}
layer {
  name: "upscore8_cropped-R"
  type: "Crop"
  bottom: "upscore8-new-R"
  bottom: "data-R"
  top: "upscore8_cropped-R"
  crop_param {
    axis: 2
    offset: 31
  }
}
layer {
  name: "upscore8_uncropped-R"
  type: "Python"
  bottom: "crop_info"
  bottom: "upscore8_cropped-R"
  bottom: "data"
  top: "upscore8_uncropped-R"
  python_param {
    module: "Uncrop"
    layer: "UncropLayer"
  }
}
layer {
  name: "loss1"
  type: "DiceLoss"
  bottom: "upscore8_cropped"
  bottom: "label"
  top: "loss1"
  loss_weight: 0.333333
}
layer {
  name: "loss2"
  type: "DiceLoss"
  bottom: "upscore8_uncropped-R"
  bottom: "label"
  top: "loss2"
  loss_weight: 0.666667
}
I0715 17:16:37.124639 13892 layer_factory.hpp:77] Creating layer data
I0715 17:16:37.124687 13892 net.cpp:84] Creating Layer data
I0715 17:16:37.124694 13892 net.cpp:380] data -> data
I0715 17:16:37.124703 13892 net.cpp:380] data -> label
I0715 17:16:37.124709 13892 net.cpp:380] data -> crop_margin
I0715 17:16:37.124714 13892 net.cpp:380] data -> crop_prob
I0715 17:16:37.124720 13892 net.cpp:380] data -> crop_sample_batch
I0715 17:16:37.191253 13892 net.cpp:122] Setting up data
I0715 17:16:37.191326 13892 net.cpp:129] Top shape: 1 3 512 512 (786432)
I0715 17:16:37.191332 13892 net.cpp:129] Top shape: 1 3 512 512 (786432)
I0715 17:16:37.191336 13892 net.cpp:129] Top shape: 1 (1)
I0715 17:16:37.191340 13892 net.cpp:129] Top shape: 1 (1)
I0715 17:16:37.191344 13892 net.cpp:129] Top shape: 1 (1)
I0715 17:16:37.191347 13892 net.cpp:137] Memory required for data: 6291468
I0715 17:16:37.191354 13892 layer_factory.hpp:77] Creating layer data_data_0_split
I0715 17:16:37.191372 13892 net.cpp:84] Creating Layer data_data_0_split
I0715 17:16:37.191380 13892 net.cpp:406] data_data_0_split <- data
I0715 17:16:37.191390 13892 net.cpp:380] data_data_0_split -> data_data_0_split_0
I0715 17:16:37.191403 13892 net.cpp:380] data_data_0_split -> data_data_0_split_1
I0715 17:16:37.191413 13892 net.cpp:380] data_data_0_split -> data_data_0_split_2
I0715 17:16:37.191421 13892 net.cpp:380] data_data_0_split -> data_data_0_split_3
I0715 17:16:37.191593 13892 net.cpp:122] Setting up data_data_0_split
I0715 17:16:37.191606 13892 net.cpp:129] Top shape: 1 3 512 512 (786432)
I0715 17:16:37.191614 13892 net.cpp:129] Top shape: 1 3 512 512 (786432)
I0715 17:16:37.191620 13892 net.cpp:129] Top shape: 1 3 512 512 (786432)
I0715 17:16:37.191627 13892 net.cpp:129] Top shape: 1 3 512 512 (786432)
I0715 17:16:37.191632 13892 net.cpp:137] Memory required for data: 18874380
I0715 17:16:37.191637 13892 layer_factory.hpp:77] Creating layer label_data_1_split
I0715 17:16:37.191646 13892 net.cpp:84] Creating Layer label_data_1_split
I0715 17:16:37.191666 13892 net.cpp:406] label_data_1_split <- label
I0715 17:16:37.191675 13892 net.cpp:380] label_data_1_split -> label_data_1_split_0
I0715 17:16:37.191684 13892 net.cpp:380] label_data_1_split -> label_data_1_split_1
I0715 17:16:37.191694 13892 net.cpp:380] label_data_1_split -> label_data_1_split_2
I0715 17:16:37.191800 13892 net.cpp:122] Setting up label_data_1_split
I0715 17:16:37.191812 13892 net.cpp:129] Top shape: 1 3 512 512 (786432)
I0715 17:16:37.191819 13892 net.cpp:129] Top shape: 1 3 512 512 (786432)
I0715 17:16:37.191825 13892 net.cpp:129] Top shape: 1 3 512 512 (786432)
I0715 17:16:37.191830 13892 net.cpp:137] Memory required for data: 28311564
I0715 17:16:37.191835 13892 layer_factory.hpp:77] Creating layer conv1_1
I0715 17:16:37.191850 13892 net.cpp:84] Creating Layer conv1_1
I0715 17:16:37.191856 13892 net.cpp:406] conv1_1 <- data_data_0_split_0
I0715 17:16:37.191864 13892 net.cpp:380] conv1_1 -> conv1_1
I0715 17:16:37.198827 13892 net.cpp:122] Setting up conv1_1
I0715 17:16:37.198891 13892 net.cpp:129] Top shape: 1 64 710 710 (32262400)
I0715 17:16:37.198900 13892 net.cpp:137] Memory required for data: 157361164
I0715 17:16:37.198928 13892 layer_factory.hpp:77] Creating layer relu1_1
I0715 17:16:37.198964 13892 net.cpp:84] Creating Layer relu1_1
I0715 17:16:37.198973 13892 net.cpp:406] relu1_1 <- conv1_1
I0715 17:16:37.198987 13892 net.cpp:367] relu1_1 -> conv1_1 (in-place)
I0715 17:16:37.200963 13892 net.cpp:122] Setting up relu1_1
I0715 17:16:37.201004 13892 net.cpp:129] Top shape: 1 64 710 710 (32262400)
I0715 17:16:37.201012 13892 net.cpp:137] Memory required for data: 286410764
I0715 17:16:37.201020 13892 layer_factory.hpp:77] Creating layer conv1_2
I0715 17:16:37.201042 13892 net.cpp:84] Creating Layer conv1_2
I0715 17:16:37.201050 13892 net.cpp:406] conv1_2 <- conv1_1
I0715 17:16:37.201064 13892 net.cpp:380] conv1_2 -> conv1_2
I0715 17:16:37.206432 13892 net.cpp:122] Setting up conv1_2
I0715 17:16:37.206451 13892 net.cpp:129] Top shape: 1 64 710 710 (32262400)
I0715 17:16:37.206468 13892 net.cpp:137] Memory required for data: 415460364
I0715 17:16:37.206481 13892 layer_factory.hpp:77] Creating layer relu1_2
I0715 17:16:37.206490 13892 net.cpp:84] Creating Layer relu1_2
I0715 17:16:37.206495 13892 net.cpp:406] relu1_2 <- conv1_2
I0715 17:16:37.206502 13892 net.cpp:367] relu1_2 -> conv1_2 (in-place)
I0715 17:16:37.206795 13892 net.cpp:122] Setting up relu1_2
I0715 17:16:37.206809 13892 net.cpp:129] Top shape: 1 64 710 710 (32262400)
I0715 17:16:37.206815 13892 net.cpp:137] Memory required for data: 544509964
I0715 17:16:37.206818 13892 layer_factory.hpp:77] Creating layer pool1
I0715 17:16:37.206828 13892 net.cpp:84] Creating Layer pool1
I0715 17:16:37.206832 13892 net.cpp:406] pool1 <- conv1_2
I0715 17:16:37.206840 13892 net.cpp:380] pool1 -> pool1
I0715 17:16:37.206919 13892 net.cpp:122] Setting up pool1
I0715 17:16:37.206926 13892 net.cpp:129] Top shape: 1 64 355 355 (8065600)
I0715 17:16:37.206931 13892 net.cpp:137] Memory required for data: 576772364
I0715 17:16:37.206935 13892 layer_factory.hpp:77] Creating layer conv2_1
I0715 17:16:37.206948 13892 net.cpp:84] Creating Layer conv2_1
I0715 17:16:37.206954 13892 net.cpp:406] conv2_1 <- pool1
I0715 17:16:37.206960 13892 net.cpp:380] conv2_1 -> conv2_1
I0715 17:16:37.209369 13892 net.cpp:122] Setting up conv2_1
I0715 17:16:37.209401 13892 net.cpp:129] Top shape: 1 128 355 355 (16131200)
I0715 17:16:37.209406 13892 net.cpp:137] Memory required for data: 641297164
I0715 17:16:37.209419 13892 layer_factory.hpp:77] Creating layer relu2_1
I0715 17:16:37.209427 13892 net.cpp:84] Creating Layer relu2_1
I0715 17:16:37.209432 13892 net.cpp:406] relu2_1 <- conv2_1
I0715 17:16:37.209439 13892 net.cpp:367] relu2_1 -> conv2_1 (in-place)
I0715 17:16:37.209705 13892 net.cpp:122] Setting up relu2_1
I0715 17:16:37.209717 13892 net.cpp:129] Top shape: 1 128 355 355 (16131200)
I0715 17:16:37.209722 13892 net.cpp:137] Memory required for data: 705821964
I0715 17:16:37.209727 13892 layer_factory.hpp:77] Creating layer conv2_2
I0715 17:16:37.209738 13892 net.cpp:84] Creating Layer conv2_2
I0715 17:16:37.209743 13892 net.cpp:406] conv2_2 <- conv2_1
I0715 17:16:37.209749 13892 net.cpp:380] conv2_2 -> conv2_2
I0715 17:16:37.214687 13892 net.cpp:122] Setting up conv2_2
I0715 17:16:37.214720 13892 net.cpp:129] Top shape: 1 128 355 355 (16131200)
I0715 17:16:37.214725 13892 net.cpp:137] Memory required for data: 770346764
I0715 17:16:37.214735 13892 layer_factory.hpp:77] Creating layer relu2_2
I0715 17:16:37.214745 13892 net.cpp:84] Creating Layer relu2_2
I0715 17:16:37.214751 13892 net.cpp:406] relu2_2 <- conv2_2
I0715 17:16:37.214757 13892 net.cpp:367] relu2_2 -> conv2_2 (in-place)
I0715 17:16:37.215899 13892 net.cpp:122] Setting up relu2_2
I0715 17:16:37.215917 13892 net.cpp:129] Top shape: 1 128 355 355 (16131200)
I0715 17:16:37.215934 13892 net.cpp:137] Memory required for data: 834871564
I0715 17:16:37.215937 13892 layer_factory.hpp:77] Creating layer pool2
I0715 17:16:37.215946 13892 net.cpp:84] Creating Layer pool2
I0715 17:16:37.215952 13892 net.cpp:406] pool2 <- conv2_2
I0715 17:16:37.215960 13892 net.cpp:380] pool2 -> pool2
I0715 17:16:37.216066 13892 net.cpp:122] Setting up pool2
I0715 17:16:37.216099 13892 net.cpp:129] Top shape: 1 128 178 178 (4055552)
I0715 17:16:37.216104 13892 net.cpp:137] Memory required for data: 851093772
I0715 17:16:37.216107 13892 layer_factory.hpp:77] Creating layer conv3_1
I0715 17:16:37.216118 13892 net.cpp:84] Creating Layer conv3_1
I0715 17:16:37.216122 13892 net.cpp:406] conv3_1 <- pool2
I0715 17:16:37.216130 13892 net.cpp:380] conv3_1 -> conv3_1
I0715 17:16:37.221765 13892 net.cpp:122] Setting up conv3_1
I0715 17:16:37.221796 13892 net.cpp:129] Top shape: 1 256 178 178 (8111104)
I0715 17:16:37.221801 13892 net.cpp:137] Memory required for data: 883538188
I0715 17:16:37.221814 13892 layer_factory.hpp:77] Creating layer relu3_1
I0715 17:16:37.221823 13892 net.cpp:84] Creating Layer relu3_1
I0715 17:16:37.221827 13892 net.cpp:406] relu3_1 <- conv3_1
I0715 17:16:37.221835 13892 net.cpp:367] relu3_1 -> conv3_1 (in-place)
I0715 17:16:37.222120 13892 net.cpp:122] Setting up relu3_1
I0715 17:16:37.222133 13892 net.cpp:129] Top shape: 1 256 178 178 (8111104)
I0715 17:16:37.222137 13892 net.cpp:137] Memory required for data: 915982604
I0715 17:16:37.222142 13892 layer_factory.hpp:77] Creating layer conv3_2
I0715 17:16:37.222153 13892 net.cpp:84] Creating Layer conv3_2
I0715 17:16:37.222157 13892 net.cpp:406] conv3_2 <- conv3_1
I0715 17:16:37.222165 13892 net.cpp:380] conv3_2 -> conv3_2
I0715 17:16:37.227743 13892 net.cpp:122] Setting up conv3_2
I0715 17:16:37.227778 13892 net.cpp:129] Top shape: 1 256 178 178 (8111104)
I0715 17:16:37.227784 13892 net.cpp:137] Memory required for data: 948427020
I0715 17:16:37.227797 13892 layer_factory.hpp:77] Creating layer relu3_2
I0715 17:16:37.227808 13892 net.cpp:84] Creating Layer relu3_2
I0715 17:16:37.227814 13892 net.cpp:406] relu3_2 <- conv3_2
I0715 17:16:37.227823 13892 net.cpp:367] relu3_2 -> conv3_2 (in-place)
I0715 17:16:37.228157 13892 net.cpp:122] Setting up relu3_2
I0715 17:16:37.228171 13892 net.cpp:129] Top shape: 1 256 178 178 (8111104)
I0715 17:16:37.228176 13892 net.cpp:137] Memory required for data: 980871436
I0715 17:16:37.228183 13892 layer_factory.hpp:77] Creating layer conv3_3
I0715 17:16:37.228195 13892 net.cpp:84] Creating Layer conv3_3
I0715 17:16:37.228200 13892 net.cpp:406] conv3_3 <- conv3_2
I0715 17:16:37.228211 13892 net.cpp:380] conv3_3 -> conv3_3
I0715 17:16:37.234567 13892 net.cpp:122] Setting up conv3_3
I0715 17:16:37.234601 13892 net.cpp:129] Top shape: 1 256 178 178 (8111104)
I0715 17:16:37.234607 13892 net.cpp:137] Memory required for data: 1013315852
I0715 17:16:37.234619 13892 layer_factory.hpp:77] Creating layer relu3_3
I0715 17:16:37.234629 13892 net.cpp:84] Creating Layer relu3_3
I0715 17:16:37.234637 13892 net.cpp:406] relu3_3 <- conv3_3
I0715 17:16:37.234644 13892 net.cpp:367] relu3_3 -> conv3_3 (in-place)
I0715 17:16:37.236006 13892 net.cpp:122] Setting up relu3_3
I0715 17:16:37.236039 13892 net.cpp:129] Top shape: 1 256 178 178 (8111104)
I0715 17:16:37.236045 13892 net.cpp:137] Memory required for data: 1045760268
I0715 17:16:37.236052 13892 layer_factory.hpp:77] Creating layer pool3
I0715 17:16:37.236062 13892 net.cpp:84] Creating Layer pool3
I0715 17:16:37.236068 13892 net.cpp:406] pool3 <- conv3_3
I0715 17:16:37.236076 13892 net.cpp:380] pool3 -> pool3
I0715 17:16:37.236186 13892 net.cpp:122] Setting up pool3
I0715 17:16:37.236198 13892 net.cpp:129] Top shape: 1 256 89 89 (2027776)
I0715 17:16:37.236203 13892 net.cpp:137] Memory required for data: 1053871372
I0715 17:16:37.236208 13892 layer_factory.hpp:77] Creating layer pool3_pool3_0_split
I0715 17:16:37.236217 13892 net.cpp:84] Creating Layer pool3_pool3_0_split
I0715 17:16:37.236222 13892 net.cpp:406] pool3_pool3_0_split <- pool3
I0715 17:16:37.236232 13892 net.cpp:380] pool3_pool3_0_split -> pool3_pool3_0_split_0
I0715 17:16:37.236240 13892 net.cpp:380] pool3_pool3_0_split -> pool3_pool3_0_split_1
I0715 17:16:37.236317 13892 net.cpp:122] Setting up pool3_pool3_0_split
I0715 17:16:37.236328 13892 net.cpp:129] Top shape: 1 256 89 89 (2027776)
I0715 17:16:37.236335 13892 net.cpp:129] Top shape: 1 256 89 89 (2027776)
I0715 17:16:37.236340 13892 net.cpp:137] Memory required for data: 1070093580
I0715 17:16:37.236344 13892 layer_factory.hpp:77] Creating layer conv4_1
I0715 17:16:37.236356 13892 net.cpp:84] Creating Layer conv4_1
I0715 17:16:37.236361 13892 net.cpp:406] conv4_1 <- pool3_pool3_0_split_0
I0715 17:16:37.236371 13892 net.cpp:380] conv4_1 -> conv4_1
I0715 17:16:37.248796 13892 net.cpp:122] Setting up conv4_1
I0715 17:16:37.248847 13892 net.cpp:129] Top shape: 1 512 89 89 (4055552)
I0715 17:16:37.248852 13892 net.cpp:137] Memory required for data: 1086315788
I0715 17:16:37.248864 13892 layer_factory.hpp:77] Creating layer relu4_1
I0715 17:16:37.248879 13892 net.cpp:84] Creating Layer relu4_1
I0715 17:16:37.248885 13892 net.cpp:406] relu4_1 <- conv4_1
I0715 17:16:37.248894 13892 net.cpp:367] relu4_1 -> conv4_1 (in-place)
I0715 17:16:37.249167 13892 net.cpp:122] Setting up relu4_1
I0715 17:16:37.249181 13892 net.cpp:129] Top shape: 1 512 89 89 (4055552)
I0715 17:16:37.249186 13892 net.cpp:137] Memory required for data: 1102537996
I0715 17:16:37.249191 13892 layer_factory.hpp:77] Creating layer conv4_2
I0715 17:16:37.249203 13892 net.cpp:84] Creating Layer conv4_2
I0715 17:16:37.249208 13892 net.cpp:406] conv4_2 <- conv4_1
I0715 17:16:37.249217 13892 net.cpp:380] conv4_2 -> conv4_2
I0715 17:16:37.262614 13892 net.cpp:122] Setting up conv4_2
I0715 17:16:37.262672 13892 net.cpp:129] Top shape: 1 512 89 89 (4055552)
I0715 17:16:37.262681 13892 net.cpp:137] Memory required for data: 1118760204
I0715 17:16:37.262709 13892 layer_factory.hpp:77] Creating layer relu4_2
I0715 17:16:37.262727 13892 net.cpp:84] Creating Layer relu4_2
I0715 17:16:37.262737 13892 net.cpp:406] relu4_2 <- conv4_2
I0715 17:16:37.262748 13892 net.cpp:367] relu4_2 -> conv4_2 (in-place)
I0715 17:16:37.263118 13892 net.cpp:122] Setting up relu4_2
I0715 17:16:37.263136 13892 net.cpp:129] Top shape: 1 512 89 89 (4055552)
I0715 17:16:37.263144 13892 net.cpp:137] Memory required for data: 1134982412
I0715 17:16:37.263149 13892 layer_factory.hpp:77] Creating layer conv4_3
I0715 17:16:37.263168 13892 net.cpp:84] Creating Layer conv4_3
I0715 17:16:37.263175 13892 net.cpp:406] conv4_3 <- conv4_2
I0715 17:16:37.263187 13892 net.cpp:380] conv4_3 -> conv4_3
I0715 17:16:37.278751 13892 net.cpp:122] Setting up conv4_3
I0715 17:16:37.278807 13892 net.cpp:129] Top shape: 1 512 89 89 (4055552)
I0715 17:16:37.278815 13892 net.cpp:137] Memory required for data: 1151204620
I0715 17:16:37.278841 13892 layer_factory.hpp:77] Creating layer relu4_3
I0715 17:16:37.278857 13892 net.cpp:84] Creating Layer relu4_3
I0715 17:16:37.278865 13892 net.cpp:406] relu4_3 <- conv4_3
I0715 17:16:37.278875 13892 net.cpp:367] relu4_3 -> conv4_3 (in-place)
I0715 17:16:37.279239 13892 net.cpp:122] Setting up relu4_3
I0715 17:16:37.279264 13892 net.cpp:129] Top shape: 1 512 89 89 (4055552)
I0715 17:16:37.279289 13892 net.cpp:137] Memory required for data: 1167426828
I0715 17:16:37.279295 13892 layer_factory.hpp:77] Creating layer pool4
I0715 17:16:37.279323 13892 net.cpp:84] Creating Layer pool4
I0715 17:16:37.279328 13892 net.cpp:406] pool4 <- conv4_3
I0715 17:16:37.279351 13892 net.cpp:380] pool4 -> pool4
I0715 17:16:37.279465 13892 net.cpp:122] Setting up pool4
I0715 17:16:37.279476 13892 net.cpp:129] Top shape: 1 512 45 45 (1036800)
I0715 17:16:37.279481 13892 net.cpp:137] Memory required for data: 1171574028
I0715 17:16:37.279486 13892 layer_factory.hpp:77] Creating layer pool4_pool4_0_split
I0715 17:16:37.279495 13892 net.cpp:84] Creating Layer pool4_pool4_0_split
I0715 17:16:37.279500 13892 net.cpp:406] pool4_pool4_0_split <- pool4
I0715 17:16:37.279510 13892 net.cpp:380] pool4_pool4_0_split -> pool4_pool4_0_split_0
I0715 17:16:37.279517 13892 net.cpp:380] pool4_pool4_0_split -> pool4_pool4_0_split_1
I0715 17:16:37.279592 13892 net.cpp:122] Setting up pool4_pool4_0_split
I0715 17:16:37.279603 13892 net.cpp:129] Top shape: 1 512 45 45 (1036800)
I0715 17:16:37.279609 13892 net.cpp:129] Top shape: 1 512 45 45 (1036800)
I0715 17:16:37.279613 13892 net.cpp:137] Memory required for data: 1179868428
I0715 17:16:37.279618 13892 layer_factory.hpp:77] Creating layer conv5_1
I0715 17:16:37.279633 13892 net.cpp:84] Creating Layer conv5_1
I0715 17:16:37.279639 13892 net.cpp:406] conv5_1 <- pool4_pool4_0_split_0
I0715 17:16:37.279647 13892 net.cpp:380] conv5_1 -> conv5_1
I0715 17:16:37.290287 13892 net.cpp:122] Setting up conv5_1
I0715 17:16:37.290321 13892 net.cpp:129] Top shape: 1 512 45 45 (1036800)
I0715 17:16:37.290328 13892 net.cpp:137] Memory required for data: 1184015628
I0715 17:16:37.290338 13892 layer_factory.hpp:77] Creating layer relu5_1
I0715 17:16:37.290349 13892 net.cpp:84] Creating Layer relu5_1
I0715 17:16:37.290354 13892 net.cpp:406] relu5_1 <- conv5_1
I0715 17:16:37.290362 13892 net.cpp:367] relu5_1 -> conv5_1 (in-place)
I0715 17:16:37.290642 13892 net.cpp:122] Setting up relu5_1
I0715 17:16:37.290655 13892 net.cpp:129] Top shape: 1 512 45 45 (1036800)
I0715 17:16:37.290659 13892 net.cpp:137] Memory required for data: 1188162828
I0715 17:16:37.290664 13892 layer_factory.hpp:77] Creating layer conv5_2
I0715 17:16:37.290678 13892 net.cpp:84] Creating Layer conv5_2
I0715 17:16:37.290683 13892 net.cpp:406] conv5_2 <- conv5_1
I0715 17:16:37.290690 13892 net.cpp:380] conv5_2 -> conv5_2
I0715 17:16:37.300654 13892 net.cpp:122] Setting up conv5_2
I0715 17:16:37.300676 13892 net.cpp:129] Top shape: 1 512 45 45 (1036800)
I0715 17:16:37.300693 13892 net.cpp:137] Memory required for data: 1192310028
I0715 17:16:37.300703 13892 layer_factory.hpp:77] Creating layer relu5_2
I0715 17:16:37.300722 13892 net.cpp:84] Creating Layer relu5_2
I0715 17:16:37.300727 13892 net.cpp:406] relu5_2 <- conv5_2
I0715 17:16:37.300735 13892 net.cpp:367] relu5_2 -> conv5_2 (in-place)
I0715 17:16:37.301007 13892 net.cpp:122] Setting up relu5_2
I0715 17:16:37.301019 13892 net.cpp:129] Top shape: 1 512 45 45 (1036800)
I0715 17:16:37.301024 13892 net.cpp:137] Memory required for data: 1196457228
I0715 17:16:37.301029 13892 layer_factory.hpp:77] Creating layer conv5_3
I0715 17:16:37.301040 13892 net.cpp:84] Creating Layer conv5_3
I0715 17:16:37.301046 13892 net.cpp:406] conv5_3 <- conv5_2
I0715 17:16:37.301054 13892 net.cpp:380] conv5_3 -> conv5_3
I0715 17:16:37.319880 13892 net.cpp:122] Setting up conv5_3
I0715 17:16:37.319914 13892 net.cpp:129] Top shape: 1 512 45 45 (1036800)
I0715 17:16:37.319928 13892 net.cpp:137] Memory required for data: 1200604428
I0715 17:16:37.319944 13892 layer_factory.hpp:77] Creating layer relu5_3
I0715 17:16:37.319958 13892 net.cpp:84] Creating Layer relu5_3
I0715 17:16:37.319967 13892 net.cpp:406] relu5_3 <- conv5_3
I0715 17:16:37.319984 13892 net.cpp:367] relu5_3 -> conv5_3 (in-place)
I0715 17:16:37.322031 13892 net.cpp:122] Setting up relu5_3
I0715 17:16:37.322058 13892 net.cpp:129] Top shape: 1 512 45 45 (1036800)
I0715 17:16:37.322072 13892 net.cpp:137] Memory required for data: 1204751628
I0715 17:16:37.322080 13892 layer_factory.hpp:77] Creating layer pool5
I0715 17:16:37.322096 13892 net.cpp:84] Creating Layer pool5
I0715 17:16:37.322104 13892 net.cpp:406] pool5 <- conv5_3
I0715 17:16:37.322129 13892 net.cpp:380] pool5 -> pool5
I0715 17:16:37.322266 13892 net.cpp:122] Setting up pool5
I0715 17:16:37.322289 13892 net.cpp:129] Top shape: 1 512 23 23 (270848)
I0715 17:16:37.322296 13892 net.cpp:137] Memory required for data: 1205835020
I0715 17:16:37.322304 13892 layer_factory.hpp:77] Creating layer fc6
I0715 17:16:37.322321 13892 net.cpp:84] Creating Layer fc6
I0715 17:16:37.322329 13892 net.cpp:406] fc6 <- pool5
I0715 17:16:37.322341 13892 net.cpp:380] fc6 -> fc6
I0715 17:16:37.637677 13892 net.cpp:122] Setting up fc6
I0715 17:16:37.637722 13892 net.cpp:129] Top shape: 1 4096 17 17 (1183744)
I0715 17:16:37.637729 13892 net.cpp:137] Memory required for data: 1210569996
I0715 17:16:37.637742 13892 layer_factory.hpp:77] Creating layer relu6
I0715 17:16:37.637756 13892 net.cpp:84] Creating Layer relu6
I0715 17:16:37.637763 13892 net.cpp:406] relu6 <- fc6
I0715 17:16:37.637773 13892 net.cpp:367] relu6 -> fc6 (in-place)
I0715 17:16:37.638051 13892 net.cpp:122] Setting up relu6
I0715 17:16:37.638070 13892 net.cpp:129] Top shape: 1 4096 17 17 (1183744)
I0715 17:16:37.638088 13892 net.cpp:137] Memory required for data: 1215304972
I0715 17:16:37.638094 13892 layer_factory.hpp:77] Creating layer drop6
I0715 17:16:37.638106 13892 net.cpp:84] Creating Layer drop6
I0715 17:16:37.638113 13892 net.cpp:406] drop6 <- fc6
I0715 17:16:37.638123 13892 net.cpp:367] drop6 -> fc6 (in-place)
I0715 17:16:37.638202 13892 net.cpp:122] Setting up drop6
I0715 17:16:37.638213 13892 net.cpp:129] Top shape: 1 4096 17 17 (1183744)
I0715 17:16:37.638217 13892 net.cpp:137] Memory required for data: 1220039948
I0715 17:16:37.638221 13892 layer_factory.hpp:77] Creating layer fc7
I0715 17:16:37.638234 13892 net.cpp:84] Creating Layer fc7
I0715 17:16:37.638242 13892 net.cpp:406] fc7 <- fc6
I0715 17:16:37.638262 13892 net.cpp:380] fc7 -> fc7
I0715 17:16:37.696363 13892 net.cpp:122] Setting up fc7
I0715 17:16:37.696403 13892 net.cpp:129] Top shape: 1 4096 17 17 (1183744)
I0715 17:16:37.696410 13892 net.cpp:137] Memory required for data: 1224774924
I0715 17:16:37.696425 13892 layer_factory.hpp:77] Creating layer relu7
I0715 17:16:37.696441 13892 net.cpp:84] Creating Layer relu7
I0715 17:16:37.696449 13892 net.cpp:406] relu7 <- fc7
I0715 17:16:37.696460 13892 net.cpp:367] relu7 -> fc7 (in-place)
I0715 17:16:37.696873 13892 net.cpp:122] Setting up relu7
I0715 17:16:37.696890 13892 net.cpp:129] Top shape: 1 4096 17 17 (1183744)
I0715 17:16:37.696897 13892 net.cpp:137] Memory required for data: 1229509900
I0715 17:16:37.696902 13892 layer_factory.hpp:77] Creating layer drop7
I0715 17:16:37.696913 13892 net.cpp:84] Creating Layer drop7
I0715 17:16:37.696919 13892 net.cpp:406] drop7 <- fc7
I0715 17:16:37.696928 13892 net.cpp:367] drop7 -> fc7 (in-place)
I0715 17:16:37.696993 13892 net.cpp:122] Setting up drop7
I0715 17:16:37.697002 13892 net.cpp:129] Top shape: 1 4096 17 17 (1183744)
I0715 17:16:37.697007 13892 net.cpp:137] Memory required for data: 1234244876
I0715 17:16:37.697013 13892 layer_factory.hpp:77] Creating layer score_fr-new
I0715 17:16:37.697026 13892 net.cpp:84] Creating Layer score_fr-new
I0715 17:16:37.697031 13892 net.cpp:406] score_fr-new <- fc7
I0715 17:16:37.697041 13892 net.cpp:380] score_fr-new -> score_fr-new
I0715 17:16:37.700894 13892 net.cpp:122] Setting up score_fr-new
I0715 17:16:37.700918 13892 net.cpp:129] Top shape: 1 3 17 17 (867)
I0715 17:16:37.700925 13892 net.cpp:137] Memory required for data: 1234248344
I0715 17:16:37.700937 13892 layer_factory.hpp:77] Creating layer upscore2-new
I0715 17:16:37.700950 13892 net.cpp:84] Creating Layer upscore2-new
I0715 17:16:37.700958 13892 net.cpp:406] upscore2-new <- score_fr-new
I0715 17:16:37.700968 13892 net.cpp:380] upscore2-new -> upscore2-new
I0715 17:16:37.701535 13892 net.cpp:122] Setting up upscore2-new
I0715 17:16:37.701550 13892 net.cpp:129] Top shape: 1 3 36 36 (3888)
I0715 17:16:37.701556 13892 net.cpp:137] Memory required for data: 1234263896
I0715 17:16:37.701575 13892 layer_factory.hpp:77] Creating layer upscore2-new_upscore2-new_0_split
I0715 17:16:37.701584 13892 net.cpp:84] Creating Layer upscore2-new_upscore2-new_0_split
I0715 17:16:37.701591 13892 net.cpp:406] upscore2-new_upscore2-new_0_split <- upscore2-new
I0715 17:16:37.701601 13892 net.cpp:380] upscore2-new_upscore2-new_0_split -> upscore2-new_upscore2-new_0_split_0
I0715 17:16:37.701611 13892 net.cpp:380] upscore2-new_upscore2-new_0_split -> upscore2-new_upscore2-new_0_split_1
I0715 17:16:37.701700 13892 net.cpp:122] Setting up upscore2-new_upscore2-new_0_split
I0715 17:16:37.701711 13892 net.cpp:129] Top shape: 1 3 36 36 (3888)
I0715 17:16:37.701719 13892 net.cpp:129] Top shape: 1 3 36 36 (3888)
I0715 17:16:37.701723 13892 net.cpp:137] Memory required for data: 1234295000
I0715 17:16:37.701728 13892 layer_factory.hpp:77] Creating layer score_pool4-new
I0715 17:16:37.701740 13892 net.cpp:84] Creating Layer score_pool4-new
I0715 17:16:37.701747 13892 net.cpp:406] score_pool4-new <- pool4_pool4_0_split_1
I0715 17:16:37.701756 13892 net.cpp:380] score_pool4-new -> score_pool4-new
I0715 17:16:37.705684 13892 net.cpp:122] Setting up score_pool4-new
I0715 17:16:37.705721 13892 net.cpp:129] Top shape: 1 3 45 45 (6075)
I0715 17:16:37.705729 13892 net.cpp:137] Memory required for data: 1234319300
I0715 17:16:37.705739 13892 layer_factory.hpp:77] Creating layer score_pool4c
I0715 17:16:37.705751 13892 net.cpp:84] Creating Layer score_pool4c
I0715 17:16:37.705763 13892 net.cpp:406] score_pool4c <- score_pool4-new
I0715 17:16:37.705772 13892 net.cpp:406] score_pool4c <- upscore2-new_upscore2-new_0_split_0
I0715 17:16:37.705781 13892 net.cpp:380] score_pool4c -> score_pool4c
I0715 17:16:37.705847 13892 net.cpp:122] Setting up score_pool4c
I0715 17:16:37.705858 13892 net.cpp:129] Top shape: 1 3 36 36 (3888)
I0715 17:16:37.705875 13892 net.cpp:137] Memory required for data: 1234334852
I0715 17:16:37.705880 13892 layer_factory.hpp:77] Creating layer fuse_pool4
I0715 17:16:37.705891 13892 net.cpp:84] Creating Layer fuse_pool4
I0715 17:16:37.705898 13892 net.cpp:406] fuse_pool4 <- upscore2-new_upscore2-new_0_split_1
I0715 17:16:37.705904 13892 net.cpp:406] fuse_pool4 <- score_pool4c
I0715 17:16:37.705914 13892 net.cpp:380] fuse_pool4 -> fuse_pool4
I0715 17:16:37.705996 13892 net.cpp:122] Setting up fuse_pool4
I0715 17:16:37.706010 13892 net.cpp:129] Top shape: 1 3 36 36 (3888)
I0715 17:16:37.706015 13892 net.cpp:137] Memory required for data: 1234350404
I0715 17:16:37.706020 13892 layer_factory.hpp:77] Creating layer upscore_pool4-new
I0715 17:16:37.706034 13892 net.cpp:84] Creating Layer upscore_pool4-new
I0715 17:16:37.706044 13892 net.cpp:406] upscore_pool4-new <- fuse_pool4
I0715 17:16:37.706058 13892 net.cpp:380] upscore_pool4-new -> upscore_pool4-new
I0715 17:16:37.706670 13892 net.cpp:122] Setting up upscore_pool4-new
I0715 17:16:37.706686 13892 net.cpp:129] Top shape: 1 3 74 74 (16428)
I0715 17:16:37.706691 13892 net.cpp:137] Memory required for data: 1234416116
I0715 17:16:37.706698 13892 layer_factory.hpp:77] Creating layer upscore_pool4-new_upscore_pool4-new_0_split
I0715 17:16:37.706707 13892 net.cpp:84] Creating Layer upscore_pool4-new_upscore_pool4-new_0_split
I0715 17:16:37.706714 13892 net.cpp:406] upscore_pool4-new_upscore_pool4-new_0_split <- upscore_pool4-new
I0715 17:16:37.706722 13892 net.cpp:380] upscore_pool4-new_upscore_pool4-new_0_split -> upscore_pool4-new_upscore_pool4-new_0_split_0
I0715 17:16:37.706733 13892 net.cpp:380] upscore_pool4-new_upscore_pool4-new_0_split -> upscore_pool4-new_upscore_pool4-new_0_split_1
I0715 17:16:37.706856 13892 net.cpp:122] Setting up upscore_pool4-new_upscore_pool4-new_0_split
I0715 17:16:37.706869 13892 net.cpp:129] Top shape: 1 3 74 74 (16428)
I0715 17:16:37.706876 13892 net.cpp:129] Top shape: 1 3 74 74 (16428)
I0715 17:16:37.706881 13892 net.cpp:137] Memory required for data: 1234547540
I0715 17:16:37.706887 13892 layer_factory.hpp:77] Creating layer score_pool3-new
I0715 17:16:37.706899 13892 net.cpp:84] Creating Layer score_pool3-new
I0715 17:16:37.706904 13892 net.cpp:406] score_pool3-new <- pool3_pool3_0_split_1
I0715 17:16:37.706918 13892 net.cpp:380] score_pool3-new -> score_pool3-new
I0715 17:16:37.709611 13892 net.cpp:122] Setting up score_pool3-new
I0715 17:16:37.709630 13892 net.cpp:129] Top shape: 1 3 89 89 (23763)
I0715 17:16:37.709636 13892 net.cpp:137] Memory required for data: 1234642592
I0715 17:16:37.709645 13892 layer_factory.hpp:77] Creating layer score_pool3c
I0715 17:16:37.709655 13892 net.cpp:84] Creating Layer score_pool3c
I0715 17:16:37.709661 13892 net.cpp:406] score_pool3c <- score_pool3-new
I0715 17:16:37.709667 13892 net.cpp:406] score_pool3c <- upscore_pool4-new_upscore_pool4-new_0_split_0
I0715 17:16:37.709676 13892 net.cpp:380] score_pool3c -> score_pool3c
I0715 17:16:37.709736 13892 net.cpp:122] Setting up score_pool3c
I0715 17:16:37.709753 13892 net.cpp:129] Top shape: 1 3 74 74 (16428)
I0715 17:16:37.709769 13892 net.cpp:137] Memory required for data: 1234708304
I0715 17:16:37.709776 13892 layer_factory.hpp:77] Creating layer fuse_pool3
I0715 17:16:37.709784 13892 net.cpp:84] Creating Layer fuse_pool3
I0715 17:16:37.709790 13892 net.cpp:406] fuse_pool3 <- upscore_pool4-new_upscore_pool4-new_0_split_1
I0715 17:16:37.709796 13892 net.cpp:406] fuse_pool3 <- score_pool3c
I0715 17:16:37.709805 13892 net.cpp:380] fuse_pool3 -> fuse_pool3
I0715 17:16:37.709870 13892 net.cpp:122] Setting up fuse_pool3
I0715 17:16:37.709882 13892 net.cpp:129] Top shape: 1 3 74 74 (16428)
I0715 17:16:37.709885 13892 net.cpp:137] Memory required for data: 1234774016
I0715 17:16:37.709890 13892 layer_factory.hpp:77] Creating layer upscore8-new
I0715 17:16:37.709900 13892 net.cpp:84] Creating Layer upscore8-new
I0715 17:16:37.709905 13892 net.cpp:406] upscore8-new <- fuse_pool3
I0715 17:16:37.709913 13892 net.cpp:380] upscore8-new -> upscore8-new
I0715 17:16:37.710463 13892 net.cpp:122] Setting up upscore8-new
I0715 17:16:37.710475 13892 net.cpp:129] Top shape: 1 3 600 600 (1080000)
I0715 17:16:37.710480 13892 net.cpp:137] Memory required for data: 1239094016
I0715 17:16:37.710490 13892 layer_factory.hpp:77] Creating layer upscore8_cropped
I0715 17:16:37.710500 13892 net.cpp:84] Creating Layer upscore8_cropped
I0715 17:16:37.710505 13892 net.cpp:406] upscore8_cropped <- upscore8-new
I0715 17:16:37.710513 13892 net.cpp:406] upscore8_cropped <- data_data_0_split_1
I0715 17:16:37.710520 13892 net.cpp:380] upscore8_cropped -> upscore8_cropped
I0715 17:16:37.710577 13892 net.cpp:122] Setting up upscore8_cropped
I0715 17:16:37.710587 13892 net.cpp:129] Top shape: 1 3 512 512 (786432)
I0715 17:16:37.710592 13892 net.cpp:137] Memory required for data: 1242239744
I0715 17:16:37.710595 13892 layer_factory.hpp:77] Creating layer upscore8_cropped_upscore8_cropped_0_split
I0715 17:16:37.710603 13892 net.cpp:84] Creating Layer upscore8_cropped_upscore8_cropped_0_split
I0715 17:16:37.710609 13892 net.cpp:406] upscore8_cropped_upscore8_cropped_0_split <- upscore8_cropped
I0715 17:16:37.710620 13892 net.cpp:380] upscore8_cropped_upscore8_cropped_0_split -> upscore8_cropped_upscore8_cropped_0_split_0
I0715 17:16:37.710631 13892 net.cpp:380] upscore8_cropped_upscore8_cropped_0_split -> upscore8_cropped_upscore8_cropped_0_split_1
I0715 17:16:37.710710 13892 net.cpp:122] Setting up upscore8_cropped_upscore8_cropped_0_split
I0715 17:16:37.710724 13892 net.cpp:129] Top shape: 1 3 512 512 (786432)
I0715 17:16:37.710737 13892 net.cpp:129] Top shape: 1 3 512 512 (786432)
I0715 17:16:37.710743 13892 net.cpp:137] Memory required for data: 1248531200
I0715 17:16:37.710752 13892 layer_factory.hpp:77] Creating layer prob
I0715 17:16:37.710763 13892 net.cpp:84] Creating Layer prob
I0715 17:16:37.710774 13892 net.cpp:406] prob <- upscore8_cropped_upscore8_cropped_0_split_0
I0715 17:16:37.710785 13892 net.cpp:380] prob -> prob
I0715 17:16:37.711169 13892 net.cpp:122] Setting up prob
I0715 17:16:37.711182 13892 net.cpp:129] Top shape: 1 3 512 512 (786432)
I0715 17:16:37.711187 13892 net.cpp:137] Memory required for data: 1251676928
I0715 17:16:37.711192 13892 layer_factory.hpp:77] Creating layer saliency1
I0715 17:16:37.711210 13892 net.cpp:84] Creating Layer saliency1
I0715 17:16:37.711217 13892 net.cpp:406] saliency1 <- prob
I0715 17:16:37.711230 13892 net.cpp:380] saliency1 -> saliency1
I0715 17:16:37.717964 13892 net.cpp:122] Setting up saliency1
I0715 17:16:37.718039 13892 net.cpp:129] Top shape: 1 3 512 512 (786432)
I0715 17:16:37.718050 13892 net.cpp:137] Memory required for data: 1254822656
I0715 17:16:37.718072 13892 layer_factory.hpp:77] Creating layer relu_saliency1
I0715 17:16:37.718120 13892 net.cpp:84] Creating Layer relu_saliency1
I0715 17:16:37.718128 13892 net.cpp:406] relu_saliency1 <- saliency1
I0715 17:16:37.718138 13892 net.cpp:367] relu_saliency1 -> saliency1 (in-place)
I0715 17:16:37.720221 13892 net.cpp:122] Setting up relu_saliency1
I0715 17:16:37.720259 13892 net.cpp:129] Top shape: 1 3 512 512 (786432)
I0715 17:16:37.720268 13892 net.cpp:137] Memory required for data: 1257968384
I0715 17:16:37.720275 13892 layer_factory.hpp:77] Creating layer saliency
I0715 17:16:37.720301 13892 net.cpp:84] Creating Layer saliency
I0715 17:16:37.720321 13892 net.cpp:406] saliency <- saliency1
I0715 17:16:37.720337 13892 net.cpp:380] saliency -> saliency
I0715 17:16:37.726212 13892 net.cpp:122] Setting up saliency
I0715 17:16:37.726255 13892 net.cpp:129] Top shape: 1 3 512 512 (786432)
I0715 17:16:37.726263 13892 net.cpp:137] Memory required for data: 1261114112
I0715 17:16:37.726280 13892 layer_factory.hpp:77] Creating layer saliency_data
I0715 17:16:37.726297 13892 net.cpp:84] Creating Layer saliency_data
I0715 17:16:37.726315 13892 net.cpp:406] saliency_data <- data_data_0_split_2
I0715 17:16:37.726338 13892 net.cpp:406] saliency_data <- saliency
I0715 17:16:37.726351 13892 net.cpp:380] saliency_data -> saliency_data
I0715 17:16:37.726455 13892 net.cpp:122] Setting up saliency_data
I0715 17:16:37.726471 13892 net.cpp:129] Top shape: 1 3 512 512 (786432)
I0715 17:16:37.726478 13892 net.cpp:137] Memory required for data: 1264259840
I0715 17:16:37.726485 13892 layer_factory.hpp:77] Creating layer crop
I0715 17:16:37.726583 13892 net.cpp:84] Creating Layer crop
I0715 17:16:37.726596 13892 net.cpp:406] crop <- label_data_1_split_0
I0715 17:16:37.726608 13892 net.cpp:406] crop <- saliency_data
I0715 17:16:37.726616 13892 net.cpp:406] crop <- crop_margin
I0715 17:16:37.726625 13892 net.cpp:406] crop <- crop_prob
I0715 17:16:37.726634 13892 net.cpp:406] crop <- crop_sample_batch
I0715 17:16:37.726646 13892 net.cpp:380] crop -> data-R
I0715 17:16:37.726661 13892 net.cpp:380] crop -> crop_info
I0715 17:16:37.736945 13892 net.cpp:122] Setting up crop
I0715 17:16:37.736968 13892 net.cpp:129] Top shape: 1 3 512 512 (786432)
I0715 17:16:37.736984 13892 net.cpp:129] Top shape: 1 2 4 (8)
I0715 17:16:37.736989 13892 net.cpp:137] Memory required for data: 1267405600
I0715 17:16:37.736994 13892 layer_factory.hpp:77] Creating layer data-R_crop_0_split
I0715 17:16:37.737004 13892 net.cpp:84] Creating Layer data-R_crop_0_split
I0715 17:16:37.737009 13892 net.cpp:406] data-R_crop_0_split <- data-R
I0715 17:16:37.737016 13892 net.cpp:380] data-R_crop_0_split -> data-R_crop_0_split_0
I0715 17:16:37.737025 13892 net.cpp:380] data-R_crop_0_split -> data-R_crop_0_split_1
I0715 17:16:37.737113 13892 net.cpp:122] Setting up data-R_crop_0_split
I0715 17:16:37.737119 13892 net.cpp:129] Top shape: 1 3 512 512 (786432)
I0715 17:16:37.737125 13892 net.cpp:129] Top shape: 1 3 512 512 (786432)
I0715 17:16:37.737128 13892 net.cpp:137] Memory required for data: 1273697056
I0715 17:16:37.737133 13892 layer_factory.hpp:77] Creating layer conv1_1-R
I0715 17:16:37.737145 13892 net.cpp:84] Creating Layer conv1_1-R
I0715 17:16:37.737150 13892 net.cpp:406] conv1_1-R <- data-R_crop_0_split_0
I0715 17:16:37.737157 13892 net.cpp:380] conv1_1-R -> conv1_1-R
I0715 17:16:37.745050 13892 net.cpp:122] Setting up conv1_1-R
I0715 17:16:37.745118 13892 net.cpp:129] Top shape: 1 64 710 710 (32262400)
I0715 17:16:37.745127 13892 net.cpp:137] Memory required for data: 1402746656
I0715 17:16:37.745151 13892 layer_factory.hpp:77] Creating layer relu1_1-R
I0715 17:16:37.745195 13892 net.cpp:84] Creating Layer relu1_1-R
I0715 17:16:37.745206 13892 net.cpp:406] relu1_1-R <- conv1_1-R
I0715 17:16:37.745219 13892 net.cpp:367] relu1_1-R -> conv1_1-R (in-place)
I0715 17:16:37.745892 13892 net.cpp:122] Setting up relu1_1-R
I0715 17:16:37.745923 13892 net.cpp:129] Top shape: 1 64 710 710 (32262400)
I0715 17:16:37.745930 13892 net.cpp:137] Memory required for data: 1531796256
I0715 17:16:37.745939 13892 layer_factory.hpp:77] Creating layer conv1_2-R
I0715 17:16:37.745959 13892 net.cpp:84] Creating Layer conv1_2-R
I0715 17:16:37.745967 13892 net.cpp:406] conv1_2-R <- conv1_1-R
I0715 17:16:37.745980 13892 net.cpp:380] conv1_2-R -> conv1_2-R
I0715 17:16:37.753806 13892 net.cpp:122] Setting up conv1_2-R
I0715 17:16:37.753849 13892 net.cpp:129] Top shape: 1 64 710 710 (32262400)
I0715 17:16:37.753856 13892 net.cpp:137] Memory required for data: 1660845856
I0715 17:16:37.753871 13892 layer_factory.hpp:77] Creating layer relu1_2-R
I0715 17:16:37.753885 13892 net.cpp:84] Creating Layer relu1_2-R
I0715 17:16:37.753904 13892 net.cpp:406] relu1_2-R <- conv1_2-R
I0715 17:16:37.753916 13892 net.cpp:367] relu1_2-R -> conv1_2-R (in-place)
I0715 17:16:37.754405 13892 net.cpp:122] Setting up relu1_2-R
I0715 17:16:37.754437 13892 net.cpp:129] Top shape: 1 64 710 710 (32262400)
I0715 17:16:37.754444 13892 net.cpp:137] Memory required for data: 1789895456
I0715 17:16:37.754460 13892 layer_factory.hpp:77] Creating layer pool1-R
I0715 17:16:37.754477 13892 net.cpp:84] Creating Layer pool1-R
I0715 17:16:37.754484 13892 net.cpp:406] pool1-R <- conv1_2-R
I0715 17:16:37.754510 13892 net.cpp:380] pool1-R -> pool1-R
I0715 17:16:37.754657 13892 net.cpp:122] Setting up pool1-R
I0715 17:16:37.754670 13892 net.cpp:129] Top shape: 1 64 355 355 (8065600)
I0715 17:16:37.754678 13892 net.cpp:137] Memory required for data: 1822157856
I0715 17:16:37.754684 13892 layer_factory.hpp:77] Creating layer conv2_1-R
I0715 17:16:37.754701 13892 net.cpp:84] Creating Layer conv2_1-R
I0715 17:16:37.754709 13892 net.cpp:406] conv2_1-R <- pool1-R
I0715 17:16:37.754732 13892 net.cpp:380] conv2_1-R -> conv2_1-R
I0715 17:16:37.761926 13892 net.cpp:122] Setting up conv2_1-R
I0715 17:16:37.761983 13892 net.cpp:129] Top shape: 1 128 355 355 (16131200)
I0715 17:16:37.761993 13892 net.cpp:137] Memory required for data: 1886682656
I0715 17:16:37.762012 13892 layer_factory.hpp:77] Creating layer relu2_1-R
I0715 17:16:37.762027 13892 net.cpp:84] Creating Layer relu2_1-R
I0715 17:16:37.762037 13892 net.cpp:406] relu2_1-R <- conv2_1-R
I0715 17:16:37.762050 13892 net.cpp:367] relu2_1-R -> conv2_1-R (in-place)
I0715 17:16:37.762543 13892 net.cpp:122] Setting up relu2_1-R
I0715 17:16:37.762562 13892 net.cpp:129] Top shape: 1 128 355 355 (16131200)
I0715 17:16:37.762570 13892 net.cpp:137] Memory required for data: 1951207456
I0715 17:16:37.762579 13892 layer_factory.hpp:77] Creating layer conv2_2-R
I0715 17:16:37.762598 13892 net.cpp:84] Creating Layer conv2_2-R
I0715 17:16:37.762605 13892 net.cpp:406] conv2_2-R <- conv2_1-R
I0715 17:16:37.762619 13892 net.cpp:380] conv2_2-R -> conv2_2-R
I0715 17:16:37.767673 13892 net.cpp:122] Setting up conv2_2-R
I0715 17:16:37.767730 13892 net.cpp:129] Top shape: 1 128 355 355 (16131200)
I0715 17:16:37.767750 13892 net.cpp:137] Memory required for data: 2015732256
I0715 17:16:37.767767 13892 layer_factory.hpp:77] Creating layer relu2_2-R
I0715 17:16:37.767782 13892 net.cpp:84] Creating Layer relu2_2-R
I0715 17:16:37.767791 13892 net.cpp:406] relu2_2-R <- conv2_2-R
I0715 17:16:37.767812 13892 net.cpp:367] relu2_2-R -> conv2_2-R (in-place)
I0715 17:16:37.773556 13892 net.cpp:122] Setting up relu2_2-R
I0715 17:16:37.773600 13892 net.cpp:129] Top shape: 1 128 355 355 (16131200)
I0715 17:16:37.773609 13892 net.cpp:137] Memory required for data: 2080257056
I0715 17:16:37.773617 13892 layer_factory.hpp:77] Creating layer pool2-R
I0715 17:16:37.773633 13892 net.cpp:84] Creating Layer pool2-R
I0715 17:16:37.773643 13892 net.cpp:406] pool2-R <- conv2_2-R
I0715 17:16:37.773656 13892 net.cpp:380] pool2-R -> pool2-R
I0715 17:16:37.773828 13892 net.cpp:122] Setting up pool2-R
I0715 17:16:37.773844 13892 net.cpp:129] Top shape: 1 128 178 178 (4055552)
I0715 17:16:37.773850 13892 net.cpp:137] Memory required for data: 2096479264
I0715 17:16:37.773859 13892 layer_factory.hpp:77] Creating layer conv3_1-R
I0715 17:16:37.773881 13892 net.cpp:84] Creating Layer conv3_1-R
I0715 17:16:37.773890 13892 net.cpp:406] conv3_1-R <- pool2-R
I0715 17:16:37.773901 13892 net.cpp:380] conv3_1-R -> conv3_1-R
I0715 17:16:37.790218 13892 net.cpp:122] Setting up conv3_1-R
I0715 17:16:37.790251 13892 net.cpp:129] Top shape: 1 256 178 178 (8111104)
I0715 17:16:37.790257 13892 net.cpp:137] Memory required for data: 2128923680
I0715 17:16:37.790271 13892 layer_factory.hpp:77] Creating layer relu3_1-R
I0715 17:16:37.790280 13892 net.cpp:84] Creating Layer relu3_1-R
I0715 17:16:37.790287 13892 net.cpp:406] relu3_1-R <- conv3_1-R
I0715 17:16:37.790295 13892 net.cpp:367] relu3_1-R -> conv3_1-R (in-place)
I0715 17:16:37.790648 13892 net.cpp:122] Setting up relu3_1-R
I0715 17:16:37.790661 13892 net.cpp:129] Top shape: 1 256 178 178 (8111104)
I0715 17:16:37.790666 13892 net.cpp:137] Memory required for data: 2161368096
I0715 17:16:37.790673 13892 layer_factory.hpp:77] Creating layer conv3_2-R
I0715 17:16:37.790685 13892 net.cpp:84] Creating Layer conv3_2-R
I0715 17:16:37.790690 13892 net.cpp:406] conv3_2-R <- conv3_1-R
I0715 17:16:37.790700 13892 net.cpp:380] conv3_2-R -> conv3_2-R
I0715 17:16:37.802670 13892 net.cpp:122] Setting up conv3_2-R
I0715 17:16:37.802727 13892 net.cpp:129] Top shape: 1 256 178 178 (8111104)
I0715 17:16:37.802736 13892 net.cpp:137] Memory required for data: 2193812512
I0715 17:16:37.802753 13892 layer_factory.hpp:77] Creating layer relu3_2-R
I0715 17:16:37.802772 13892 net.cpp:84] Creating Layer relu3_2-R
I0715 17:16:37.802781 13892 net.cpp:406] relu3_2-R <- conv3_2-R
I0715 17:16:37.802799 13892 net.cpp:367] relu3_2-R -> conv3_2-R (in-place)
I0715 17:16:37.803242 13892 net.cpp:122] Setting up relu3_2-R
I0715 17:16:37.803270 13892 net.cpp:129] Top shape: 1 256 178 178 (8111104)
I0715 17:16:37.803318 13892 net.cpp:137] Memory required for data: 2226256928
I0715 17:16:37.803329 13892 layer_factory.hpp:77] Creating layer conv3_3-R
I0715 17:16:37.803359 13892 net.cpp:84] Creating Layer conv3_3-R
I0715 17:16:37.803366 13892 net.cpp:406] conv3_3-R <- conv3_2-R
I0715 17:16:37.803378 13892 net.cpp:380] conv3_3-R -> conv3_3-R
I0715 17:16:37.813467 13892 net.cpp:122] Setting up conv3_3-R
I0715 17:16:37.813513 13892 net.cpp:129] Top shape: 1 256 178 178 (8111104)
I0715 17:16:37.813522 13892 net.cpp:137] Memory required for data: 2258701344
I0715 17:16:37.813540 13892 layer_factory.hpp:77] Creating layer relu3_3-R
I0715 17:16:37.813563 13892 net.cpp:84] Creating Layer relu3_3-R
I0715 17:16:37.813583 13892 net.cpp:406] relu3_3-R <- conv3_3-R
I0715 17:16:37.813596 13892 net.cpp:367] relu3_3-R -> conv3_3-R (in-place)
I0715 17:16:37.814119 13892 net.cpp:122] Setting up relu3_3-R
I0715 17:16:37.814151 13892 net.cpp:129] Top shape: 1 256 178 178 (8111104)
I0715 17:16:37.814158 13892 net.cpp:137] Memory required for data: 2291145760
I0715 17:16:37.814165 13892 layer_factory.hpp:77] Creating layer pool3-R
I0715 17:16:37.814178 13892 net.cpp:84] Creating Layer pool3-R
I0715 17:16:37.814187 13892 net.cpp:406] pool3-R <- conv3_3-R
I0715 17:16:37.814211 13892 net.cpp:380] pool3-R -> pool3-R
I0715 17:16:37.814365 13892 net.cpp:122] Setting up pool3-R
I0715 17:16:37.814380 13892 net.cpp:129] Top shape: 1 256 89 89 (2027776)
I0715 17:16:37.814388 13892 net.cpp:137] Memory required for data: 2299256864
I0715 17:16:37.814394 13892 layer_factory.hpp:77] Creating layer pool3-R_pool3-R_0_split
I0715 17:16:37.814405 13892 net.cpp:84] Creating Layer pool3-R_pool3-R_0_split
I0715 17:16:37.814414 13892 net.cpp:406] pool3-R_pool3-R_0_split <- pool3-R
I0715 17:16:37.814426 13892 net.cpp:380] pool3-R_pool3-R_0_split -> pool3-R_pool3-R_0_split_0
I0715 17:16:37.814440 13892 net.cpp:380] pool3-R_pool3-R_0_split -> pool3-R_pool3-R_0_split_1
I0715 17:16:37.814551 13892 net.cpp:122] Setting up pool3-R_pool3-R_0_split
I0715 17:16:37.814565 13892 net.cpp:129] Top shape: 1 256 89 89 (2027776)
I0715 17:16:37.814574 13892 net.cpp:129] Top shape: 1 256 89 89 (2027776)
I0715 17:16:37.814581 13892 net.cpp:137] Memory required for data: 2315479072
I0715 17:16:37.814587 13892 layer_factory.hpp:77] Creating layer conv4_1-R
I0715 17:16:37.814604 13892 net.cpp:84] Creating Layer conv4_1-R
I0715 17:16:37.814611 13892 net.cpp:406] conv4_1-R <- pool3-R_pool3-R_0_split_0
I0715 17:16:37.814625 13892 net.cpp:380] conv4_1-R -> conv4_1-R
I0715 17:16:37.827117 13892 net.cpp:122] Setting up conv4_1-R
I0715 17:16:37.827159 13892 net.cpp:129] Top shape: 1 512 89 89 (4055552)
I0715 17:16:37.827168 13892 net.cpp:137] Memory required for data: 2331701280
I0715 17:16:37.827186 13892 layer_factory.hpp:77] Creating layer relu4_1-R
I0715 17:16:37.827214 13892 net.cpp:84] Creating Layer relu4_1-R
I0715 17:16:37.827222 13892 net.cpp:406] relu4_1-R <- conv4_1-R
I0715 17:16:37.827234 13892 net.cpp:367] relu4_1-R -> conv4_1-R (in-place)
I0715 17:16:37.827780 13892 net.cpp:122] Setting up relu4_1-R
I0715 17:16:37.827812 13892 net.cpp:129] Top shape: 1 512 89 89 (4055552)
I0715 17:16:37.827834 13892 net.cpp:137] Memory required for data: 2347923488
I0715 17:16:37.827841 13892 layer_factory.hpp:77] Creating layer conv4_2-R
I0715 17:16:37.827852 13892 net.cpp:84] Creating Layer conv4_2-R
I0715 17:16:37.827857 13892 net.cpp:406] conv4_2-R <- conv4_1-R
I0715 17:16:37.827877 13892 net.cpp:380] conv4_2-R -> conv4_2-R
I0715 17:16:37.839524 13892 net.cpp:122] Setting up conv4_2-R
I0715 17:16:37.839573 13892 net.cpp:129] Top shape: 1 512 89 89 (4055552)
I0715 17:16:37.839582 13892 net.cpp:137] Memory required for data: 2364145696
I0715 17:16:37.839599 13892 layer_factory.hpp:77] Creating layer relu4_2-R
I0715 17:16:37.839614 13892 net.cpp:84] Creating Layer relu4_2-R
I0715 17:16:37.839634 13892 net.cpp:406] relu4_2-R <- conv4_2-R
I0715 17:16:37.839646 13892 net.cpp:367] relu4_2-R -> conv4_2-R (in-place)
I0715 17:16:37.840106 13892 net.cpp:122] Setting up relu4_2-R
I0715 17:16:37.840137 13892 net.cpp:129] Top shape: 1 512 89 89 (4055552)
I0715 17:16:37.840144 13892 net.cpp:137] Memory required for data: 2380367904
I0715 17:16:37.840152 13892 layer_factory.hpp:77] Creating layer conv4_3-R
I0715 17:16:37.840169 13892 net.cpp:84] Creating Layer conv4_3-R
I0715 17:16:37.840178 13892 net.cpp:406] conv4_3-R <- conv4_2-R
I0715 17:16:37.840191 13892 net.cpp:380] conv4_3-R -> conv4_3-R
I0715 17:16:37.856611 13892 net.cpp:122] Setting up conv4_3-R
I0715 17:16:37.856673 13892 net.cpp:129] Top shape: 1 512 89 89 (4055552)
I0715 17:16:37.856681 13892 net.cpp:137] Memory required for data: 2396590112
I0715 17:16:37.856700 13892 layer_factory.hpp:77] Creating layer relu4_3-R
I0715 17:16:37.856731 13892 net.cpp:84] Creating Layer relu4_3-R
I0715 17:16:37.856742 13892 net.cpp:406] relu4_3-R <- conv4_3-R
I0715 17:16:37.856756 13892 net.cpp:367] relu4_3-R -> conv4_3-R (in-place)
I0715 17:16:37.861155 13892 net.cpp:122] Setting up relu4_3-R
I0715 17:16:37.861198 13892 net.cpp:129] Top shape: 1 512 89 89 (4055552)
I0715 17:16:37.861207 13892 net.cpp:137] Memory required for data: 2412812320
I0715 17:16:37.861217 13892 layer_factory.hpp:77] Creating layer pool4-R
I0715 17:16:37.861232 13892 net.cpp:84] Creating Layer pool4-R
I0715 17:16:37.861250 13892 net.cpp:406] pool4-R <- conv4_3-R
I0715 17:16:37.861264 13892 net.cpp:380] pool4-R -> pool4-R
I0715 17:16:37.861412 13892 net.cpp:122] Setting up pool4-R
I0715 17:16:37.861428 13892 net.cpp:129] Top shape: 1 512 45 45 (1036800)
I0715 17:16:37.861446 13892 net.cpp:137] Memory required for data: 2416959520
I0715 17:16:37.861454 13892 layer_factory.hpp:77] Creating layer pool4-R_pool4-R_0_split
I0715 17:16:37.861465 13892 net.cpp:84] Creating Layer pool4-R_pool4-R_0_split
I0715 17:16:37.861474 13892 net.cpp:406] pool4-R_pool4-R_0_split <- pool4-R
I0715 17:16:37.861485 13892 net.cpp:380] pool4-R_pool4-R_0_split -> pool4-R_pool4-R_0_split_0
I0715 17:16:37.861498 13892 net.cpp:380] pool4-R_pool4-R_0_split -> pool4-R_pool4-R_0_split_1
I0715 17:16:37.861613 13892 net.cpp:122] Setting up pool4-R_pool4-R_0_split
I0715 17:16:37.861627 13892 net.cpp:129] Top shape: 1 512 45 45 (1036800)
I0715 17:16:37.861636 13892 net.cpp:129] Top shape: 1 512 45 45 (1036800)
I0715 17:16:37.861642 13892 net.cpp:137] Memory required for data: 2425253920
I0715 17:16:37.861649 13892 layer_factory.hpp:77] Creating layer conv5_1-R
I0715 17:16:37.861667 13892 net.cpp:84] Creating Layer conv5_1-R
I0715 17:16:37.861676 13892 net.cpp:406] conv5_1-R <- pool4-R_pool4-R_0_split_0
I0715 17:16:37.861690 13892 net.cpp:380] conv5_1-R -> conv5_1-R
I0715 17:16:37.873620 13892 net.cpp:122] Setting up conv5_1-R
I0715 17:16:37.873662 13892 net.cpp:129] Top shape: 1 512 45 45 (1036800)
I0715 17:16:37.873668 13892 net.cpp:137] Memory required for data: 2429401120
I0715 17:16:37.873700 13892 layer_factory.hpp:77] Creating layer relu5_1-R
I0715 17:16:37.873724 13892 net.cpp:84] Creating Layer relu5_1-R
I0715 17:16:37.873731 13892 net.cpp:406] relu5_1-R <- conv5_1-R
I0715 17:16:37.873740 13892 net.cpp:367] relu5_1-R -> conv5_1-R (in-place)
I0715 17:16:37.874053 13892 net.cpp:122] Setting up relu5_1-R
I0715 17:16:37.874068 13892 net.cpp:129] Top shape: 1 512 45 45 (1036800)
I0715 17:16:37.874073 13892 net.cpp:137] Memory required for data: 2433548320
I0715 17:16:37.874078 13892 layer_factory.hpp:77] Creating layer conv5_2-R
I0715 17:16:37.874091 13892 net.cpp:84] Creating Layer conv5_2-R
I0715 17:16:37.874096 13892 net.cpp:406] conv5_2-R <- conv5_1-R
I0715 17:16:37.874105 13892 net.cpp:380] conv5_2-R -> conv5_2-R
I0715 17:16:37.884369 13892 net.cpp:122] Setting up conv5_2-R
I0715 17:16:37.884416 13892 net.cpp:129] Top shape: 1 512 45 45 (1036800)
I0715 17:16:37.884420 13892 net.cpp:137] Memory required for data: 2437695520
I0715 17:16:37.884430 13892 layer_factory.hpp:77] Creating layer relu5_2-R
I0715 17:16:37.884443 13892 net.cpp:84] Creating Layer relu5_2-R
I0715 17:16:37.884449 13892 net.cpp:406] relu5_2-R <- conv5_2-R
I0715 17:16:37.884456 13892 net.cpp:367] relu5_2-R -> conv5_2-R (in-place)
I0715 17:16:37.884698 13892 net.cpp:122] Setting up relu5_2-R
I0715 17:16:37.884708 13892 net.cpp:129] Top shape: 1 512 45 45 (1036800)
I0715 17:16:37.884711 13892 net.cpp:137] Memory required for data: 2441842720
I0715 17:16:37.884716 13892 layer_factory.hpp:77] Creating layer conv5_3-R
I0715 17:16:37.884727 13892 net.cpp:84] Creating Layer conv5_3-R
I0715 17:16:37.884730 13892 net.cpp:406] conv5_3-R <- conv5_2-R
I0715 17:16:37.884737 13892 net.cpp:380] conv5_3-R -> conv5_3-R
I0715 17:16:37.894613 13892 net.cpp:122] Setting up conv5_3-R
I0715 17:16:37.894649 13892 net.cpp:129] Top shape: 1 512 45 45 (1036800)
I0715 17:16:37.894655 13892 net.cpp:137] Memory required for data: 2445989920
I0715 17:16:37.894665 13892 layer_factory.hpp:77] Creating layer relu5_3-R
I0715 17:16:37.894676 13892 net.cpp:84] Creating Layer relu5_3-R
I0715 17:16:37.894683 13892 net.cpp:406] relu5_3-R <- conv5_3-R
I0715 17:16:37.894691 13892 net.cpp:367] relu5_3-R -> conv5_3-R (in-place)
I0715 17:16:37.895000 13892 net.cpp:122] Setting up relu5_3-R
I0715 17:16:37.895014 13892 net.cpp:129] Top shape: 1 512 45 45 (1036800)
I0715 17:16:37.895018 13892 net.cpp:137] Memory required for data: 2450137120
I0715 17:16:37.895023 13892 layer_factory.hpp:77] Creating layer pool5-R
I0715 17:16:37.895032 13892 net.cpp:84] Creating Layer pool5-R
I0715 17:16:37.895037 13892 net.cpp:406] pool5-R <- conv5_3-R
I0715 17:16:37.895047 13892 net.cpp:380] pool5-R -> pool5-R
I0715 17:16:37.895143 13892 net.cpp:122] Setting up pool5-R
I0715 17:16:37.895153 13892 net.cpp:129] Top shape: 1 512 23 23 (270848)
I0715 17:16:37.895156 13892 net.cpp:137] Memory required for data: 2451220512
I0715 17:16:37.895161 13892 layer_factory.hpp:77] Creating layer fc6-R
I0715 17:16:37.895174 13892 net.cpp:84] Creating Layer fc6-R
I0715 17:16:37.895179 13892 net.cpp:406] fc6-R <- pool5-R
I0715 17:16:37.895189 13892 net.cpp:380] fc6-R -> fc6-R
I0715 17:16:38.157251 13892 net.cpp:122] Setting up fc6-R
I0715 17:16:38.157299 13892 net.cpp:129] Top shape: 1 4096 17 17 (1183744)
I0715 17:16:38.157302 13892 net.cpp:137] Memory required for data: 2455955488
I0715 17:16:38.157312 13892 layer_factory.hpp:77] Creating layer relu6-R
I0715 17:16:38.157325 13892 net.cpp:84] Creating Layer relu6-R
I0715 17:16:38.157330 13892 net.cpp:406] relu6-R <- fc6-R
I0715 17:16:38.157338 13892 net.cpp:367] relu6-R -> fc6-R (in-place)
I0715 17:16:38.157579 13892 net.cpp:122] Setting up relu6-R
I0715 17:16:38.157588 13892 net.cpp:129] Top shape: 1 4096 17 17 (1183744)
I0715 17:16:38.157593 13892 net.cpp:137] Memory required for data: 2460690464
I0715 17:16:38.157595 13892 layer_factory.hpp:77] Creating layer drop6-R
I0715 17:16:38.157603 13892 net.cpp:84] Creating Layer drop6-R
I0715 17:16:38.157608 13892 net.cpp:406] drop6-R <- fc6-R
I0715 17:16:38.157613 13892 net.cpp:367] drop6-R -> fc6-R (in-place)
I0715 17:16:38.157672 13892 net.cpp:122] Setting up drop6-R
I0715 17:16:38.157680 13892 net.cpp:129] Top shape: 1 4096 17 17 (1183744)
I0715 17:16:38.157685 13892 net.cpp:137] Memory required for data: 2465425440
I0715 17:16:38.157687 13892 layer_factory.hpp:77] Creating layer fc7-R
I0715 17:16:38.157697 13892 net.cpp:84] Creating Layer fc7-R
I0715 17:16:38.157701 13892 net.cpp:406] fc7-R <- fc6-R
I0715 17:16:38.157707 13892 net.cpp:380] fc7-R -> fc7-R
I0715 17:16:38.204681 13892 net.cpp:122] Setting up fc7-R
I0715 17:16:38.204728 13892 net.cpp:129] Top shape: 1 4096 17 17 (1183744)
I0715 17:16:38.204733 13892 net.cpp:137] Memory required for data: 2470160416
I0715 17:16:38.204744 13892 layer_factory.hpp:77] Creating layer relu7-R
I0715 17:16:38.204756 13892 net.cpp:84] Creating Layer relu7-R
I0715 17:16:38.204763 13892 net.cpp:406] relu7-R <- fc7-R
I0715 17:16:38.204771 13892 net.cpp:367] relu7-R -> fc7-R (in-place)
I0715 17:16:38.205044 13892 net.cpp:122] Setting up relu7-R
I0715 17:16:38.205054 13892 net.cpp:129] Top shape: 1 4096 17 17 (1183744)
I0715 17:16:38.205057 13892 net.cpp:137] Memory required for data: 2474895392
I0715 17:16:38.205060 13892 layer_factory.hpp:77] Creating layer drop7-R
I0715 17:16:38.205083 13892 net.cpp:84] Creating Layer drop7-R
I0715 17:16:38.205087 13892 net.cpp:406] drop7-R <- fc7-R
I0715 17:16:38.205093 13892 net.cpp:367] drop7-R -> fc7-R (in-place)
I0715 17:16:38.205140 13892 net.cpp:122] Setting up drop7-R
I0715 17:16:38.205150 13892 net.cpp:129] Top shape: 1 4096 17 17 (1183744)
I0715 17:16:38.205153 13892 net.cpp:137] Memory required for data: 2479630368
I0715 17:16:38.205157 13892 layer_factory.hpp:77] Creating layer score_fr-new-R
I0715 17:16:38.205168 13892 net.cpp:84] Creating Layer score_fr-new-R
I0715 17:16:38.205170 13892 net.cpp:406] score_fr-new-R <- fc7-R
I0715 17:16:38.205178 13892 net.cpp:380] score_fr-new-R -> score_fr-new-R
I0715 17:16:38.207211 13892 net.cpp:122] Setting up score_fr-new-R
I0715 17:16:38.207224 13892 net.cpp:129] Top shape: 1 3 17 17 (867)
I0715 17:16:38.207243 13892 net.cpp:137] Memory required for data: 2479633836
I0715 17:16:38.207250 13892 layer_factory.hpp:77] Creating layer upscore2-new-R
I0715 17:16:38.207258 13892 net.cpp:84] Creating Layer upscore2-new-R
I0715 17:16:38.207263 13892 net.cpp:406] upscore2-new-R <- score_fr-new-R
I0715 17:16:38.207269 13892 net.cpp:380] upscore2-new-R -> upscore2-new-R
I0715 17:16:38.207777 13892 net.cpp:122] Setting up upscore2-new-R
I0715 17:16:38.207785 13892 net.cpp:129] Top shape: 1 3 36 36 (3888)
I0715 17:16:38.207804 13892 net.cpp:137] Memory required for data: 2479649388
I0715 17:16:38.207809 13892 layer_factory.hpp:77] Creating layer upscore2-new-R_upscore2-new-R_0_split
I0715 17:16:38.207816 13892 net.cpp:84] Creating Layer upscore2-new-R_upscore2-new-R_0_split
I0715 17:16:38.207820 13892 net.cpp:406] upscore2-new-R_upscore2-new-R_0_split <- upscore2-new-R
I0715 17:16:38.207828 13892 net.cpp:380] upscore2-new-R_upscore2-new-R_0_split -> upscore2-new-R_upscore2-new-R_0_split_0
I0715 17:16:38.207834 13892 net.cpp:380] upscore2-new-R_upscore2-new-R_0_split -> upscore2-new-R_upscore2-new-R_0_split_1
I0715 17:16:38.207902 13892 net.cpp:122] Setting up upscore2-new-R_upscore2-new-R_0_split
I0715 17:16:38.207908 13892 net.cpp:129] Top shape: 1 3 36 36 (3888)
I0715 17:16:38.207912 13892 net.cpp:129] Top shape: 1 3 36 36 (3888)
I0715 17:16:38.207916 13892 net.cpp:137] Memory required for data: 2479680492
I0715 17:16:38.207919 13892 layer_factory.hpp:77] Creating layer score_pool4-new-R
I0715 17:16:38.207927 13892 net.cpp:84] Creating Layer score_pool4-new-R
I0715 17:16:38.207932 13892 net.cpp:406] score_pool4-new-R <- pool4-R_pool4-R_0_split_1
I0715 17:16:38.207938 13892 net.cpp:380] score_pool4-new-R -> score_pool4-new-R
I0715 17:16:38.209913 13892 net.cpp:122] Setting up score_pool4-new-R
I0715 17:16:38.209942 13892 net.cpp:129] Top shape: 1 3 45 45 (6075)
I0715 17:16:38.209946 13892 net.cpp:137] Memory required for data: 2479704792
I0715 17:16:38.209952 13892 layer_factory.hpp:77] Creating layer score_pool4c-R
I0715 17:16:38.209960 13892 net.cpp:84] Creating Layer score_pool4c-R
I0715 17:16:38.209964 13892 net.cpp:406] score_pool4c-R <- score_pool4-new-R
I0715 17:16:38.209970 13892 net.cpp:406] score_pool4c-R <- upscore2-new-R_upscore2-new-R_0_split_0
I0715 17:16:38.209975 13892 net.cpp:380] score_pool4c-R -> score_pool4c-R
I0715 17:16:38.210036 13892 net.cpp:122] Setting up score_pool4c-R
I0715 17:16:38.210042 13892 net.cpp:129] Top shape: 1 3 36 36 (3888)
I0715 17:16:38.210045 13892 net.cpp:137] Memory required for data: 2479720344
I0715 17:16:38.210048 13892 layer_factory.hpp:77] Creating layer fuse_pool4-R
I0715 17:16:38.210057 13892 net.cpp:84] Creating Layer fuse_pool4-R
I0715 17:16:38.210060 13892 net.cpp:406] fuse_pool4-R <- upscore2-new-R_upscore2-new-R_0_split_1
I0715 17:16:38.210065 13892 net.cpp:406] fuse_pool4-R <- score_pool4c-R
I0715 17:16:38.210072 13892 net.cpp:380] fuse_pool4-R -> fuse_pool4-R
I0715 17:16:38.210113 13892 net.cpp:122] Setting up fuse_pool4-R
I0715 17:16:38.210117 13892 net.cpp:129] Top shape: 1 3 36 36 (3888)
I0715 17:16:38.210120 13892 net.cpp:137] Memory required for data: 2479735896
I0715 17:16:38.210124 13892 layer_factory.hpp:77] Creating layer upscore_pool4-new-R
I0715 17:16:38.210130 13892 net.cpp:84] Creating Layer upscore_pool4-new-R
I0715 17:16:38.210134 13892 net.cpp:406] upscore_pool4-new-R <- fuse_pool4-R
I0715 17:16:38.210140 13892 net.cpp:380] upscore_pool4-new-R -> upscore_pool4-new-R
I0715 17:16:38.210559 13892 net.cpp:122] Setting up upscore_pool4-new-R
I0715 17:16:38.210567 13892 net.cpp:129] Top shape: 1 3 74 74 (16428)
I0715 17:16:38.210587 13892 net.cpp:137] Memory required for data: 2479801608
I0715 17:16:38.210592 13892 layer_factory.hpp:77] Creating layer upscore_pool4-new-R_upscore_pool4-new-R_0_split
I0715 17:16:38.210597 13892 net.cpp:84] Creating Layer upscore_pool4-new-R_upscore_pool4-new-R_0_split
I0715 17:16:38.210602 13892 net.cpp:406] upscore_pool4-new-R_upscore_pool4-new-R_0_split <- upscore_pool4-new-R
I0715 17:16:38.210608 13892 net.cpp:380] upscore_pool4-new-R_upscore_pool4-new-R_0_split -> upscore_pool4-new-R_upscore_pool4-new-R_0_split_0
I0715 17:16:38.210614 13892 net.cpp:380] upscore_pool4-new-R_upscore_pool4-new-R_0_split -> upscore_pool4-new-R_upscore_pool4-new-R_0_split_1
I0715 17:16:38.210682 13892 net.cpp:122] Setting up upscore_pool4-new-R_upscore_pool4-new-R_0_split
I0715 17:16:38.210687 13892 net.cpp:129] Top shape: 1 3 74 74 (16428)
I0715 17:16:38.210692 13892 net.cpp:129] Top shape: 1 3 74 74 (16428)
I0715 17:16:38.210696 13892 net.cpp:137] Memory required for data: 2479933032
I0715 17:16:38.210700 13892 layer_factory.hpp:77] Creating layer score_pool3-new-R
I0715 17:16:38.210708 13892 net.cpp:84] Creating Layer score_pool3-new-R
I0715 17:16:38.210712 13892 net.cpp:406] score_pool3-new-R <- pool3-R_pool3-R_0_split_1
I0715 17:16:38.210719 13892 net.cpp:380] score_pool3-new-R -> score_pool3-new-R
I0715 17:16:38.213584 13892 net.cpp:122] Setting up score_pool3-new-R
I0715 17:16:38.213615 13892 net.cpp:129] Top shape: 1 3 89 89 (23763)
I0715 17:16:38.213619 13892 net.cpp:137] Memory required for data: 2480028084
I0715 17:16:38.213626 13892 layer_factory.hpp:77] Creating layer score_pool3c-R
I0715 17:16:38.213634 13892 net.cpp:84] Creating Layer score_pool3c-R
I0715 17:16:38.213639 13892 net.cpp:406] score_pool3c-R <- score_pool3-new-R
I0715 17:16:38.213644 13892 net.cpp:406] score_pool3c-R <- upscore_pool4-new-R_upscore_pool4-new-R_0_split_0
I0715 17:16:38.213650 13892 net.cpp:380] score_pool3c-R -> score_pool3c-R
I0715 17:16:38.213711 13892 net.cpp:122] Setting up score_pool3c-R
I0715 17:16:38.213717 13892 net.cpp:129] Top shape: 1 3 74 74 (16428)
I0715 17:16:38.213721 13892 net.cpp:137] Memory required for data: 2480093796
I0715 17:16:38.213724 13892 layer_factory.hpp:77] Creating layer fuse_pool3-R
I0715 17:16:38.213730 13892 net.cpp:84] Creating Layer fuse_pool3-R
I0715 17:16:38.213734 13892 net.cpp:406] fuse_pool3-R <- upscore_pool4-new-R_upscore_pool4-new-R_0_split_1
I0715 17:16:38.213739 13892 net.cpp:406] fuse_pool3-R <- score_pool3c-R
I0715 17:16:38.213745 13892 net.cpp:380] fuse_pool3-R -> fuse_pool3-R
I0715 17:16:38.213784 13892 net.cpp:122] Setting up fuse_pool3-R
I0715 17:16:38.213790 13892 net.cpp:129] Top shape: 1 3 74 74 (16428)
I0715 17:16:38.213793 13892 net.cpp:137] Memory required for data: 2480159508
I0715 17:16:38.213796 13892 layer_factory.hpp:77] Creating layer upscore8-new-R
I0715 17:16:38.213804 13892 net.cpp:84] Creating Layer upscore8-new-R
I0715 17:16:38.213807 13892 net.cpp:406] upscore8-new-R <- fuse_pool3-R
I0715 17:16:38.213814 13892 net.cpp:380] upscore8-new-R -> upscore8-new-R
I0715 17:16:38.214220 13892 net.cpp:122] Setting up upscore8-new-R
I0715 17:16:38.214227 13892 net.cpp:129] Top shape: 1 3 600 600 (1080000)
I0715 17:16:38.214246 13892 net.cpp:137] Memory required for data: 2484479508
I0715 17:16:38.214251 13892 layer_factory.hpp:77] Creating layer upscore8_cropped-R
I0715 17:16:38.214258 13892 net.cpp:84] Creating Layer upscore8_cropped-R
I0715 17:16:38.214262 13892 net.cpp:406] upscore8_cropped-R <- upscore8-new-R
I0715 17:16:38.214268 13892 net.cpp:406] upscore8_cropped-R <- data-R_crop_0_split_1
I0715 17:16:38.214274 13892 net.cpp:380] upscore8_cropped-R -> upscore8_cropped-R
I0715 17:16:38.214313 13892 net.cpp:122] Setting up upscore8_cropped-R
I0715 17:16:38.214319 13892 net.cpp:129] Top shape: 1 3 512 512 (786432)
I0715 17:16:38.214323 13892 net.cpp:137] Memory required for data: 2487625236
I0715 17:16:38.214326 13892 layer_factory.hpp:77] Creating layer upscore8_uncropped-R
I0715 17:16:38.214385 13892 net.cpp:84] Creating Layer upscore8_uncropped-R
I0715 17:16:38.214391 13892 net.cpp:406] upscore8_uncropped-R <- crop_info
I0715 17:16:38.214396 13892 net.cpp:406] upscore8_uncropped-R <- upscore8_cropped-R
I0715 17:16:38.214401 13892 net.cpp:406] upscore8_uncropped-R <- data_data_0_split_3
I0715 17:16:38.214407 13892 net.cpp:380] upscore8_uncropped-R -> upscore8_uncropped-R
I0715 17:16:38.216897 13892 net.cpp:122] Setting up upscore8_uncropped-R
I0715 17:16:38.216925 13892 net.cpp:129] Top shape: 1 3 512 512 (786432)
I0715 17:16:38.216929 13892 net.cpp:137] Memory required for data: 2490770964
I0715 17:16:38.216933 13892 layer_factory.hpp:77] Creating layer loss1
I0715 17:16:38.216943 13892 net.cpp:84] Creating Layer loss1
I0715 17:16:38.216946 13892 net.cpp:406] loss1 <- upscore8_cropped_upscore8_cropped_0_split_1
I0715 17:16:38.216951 13892 net.cpp:406] loss1 <- label_data_1_split_1
I0715 17:16:38.216958 13892 net.cpp:380] loss1 -> loss1
…
