…
snapshot_prefix: "/media/Med_2T2/data2/models/snapshots/indiv:1e-5x10,20/FD0:XI3_1_20180418_201415/train"
test_initialization: false
average_loss: 20
stepvalue: 40000
iter_size: 1
I0418 20:14:16.229727 17061 solver.cpp:77] Creating training net from train_net file: /media/Med_2T2/data2/prototxts/training_S3x10.prototxt
I0418 20:14:16.232578 17061 net.cpp:51] Initializing net from parameters: 
state {
  phase: TRAIN
}
layer {
  name: "data"
  type: "Python"
  top: "data"
  top: "label"
  top: "crop_margin"
  top: "crop_prob"
  top: "crop_sample_batch"
  python_param {
    module: "Data"
    layer: "DataLayer"
  }
}
layer {
  name: "conv1_1"
  type: "Convolution"
  bottom: "data"
  top: "conv1_1"
  param {
    lr_mult: 1
    decay_mult: 1
  }
  param {
    lr_mult: 2
    decay_mult: 0
  }
  convolution_param {
    num_output: 64
    pad: 100
    kernel_size: 3
    stride: 1
  }
}
layer {
  name: "relu1_1"
  type: "ReLU"
  bottom: "conv1_1"
  top: "conv1_1"
}
layer {
  name: "conv1_2"
  type: "Convolution"
  bottom: "conv1_1"
  top: "conv1_2"
  param {
    lr_mult: 1
    decay_mult: 1
  }
  param {
    lr_mult: 2
    decay_mult: 0
  }
  convolution_param {
    num_output: 64
    pad: 1
    kernel_size: 3
    stride: 1
  }
}
layer {
  name: "relu1_2"
  type: "ReLU"
  bottom: "conv1_2"
  top: "conv1_2"
}
layer {
  name: "pool1"
  type: "Pooling"
  bottom: "conv1_2"
  top: "pool1"
  pooling_param {
    pool: MAX
    kernel_size: 2
    stride: 2
  }
}
layer {
  name: "conv2_1"
  type: "Convolution"
  bottom: "pool1"
  top: "conv2_1"
  param {
    lr_mult: 1
    decay_mult: 1
  }
  param {
    lr_mult: 2
    decay_mult: 0
  }
  convolution_param {
    num_output: 128
    pad: 1
    kernel_size: 3
    stride: 1
  }
}
layer {
  name: "relu2_1"
  type: "ReLU"
  bottom: "conv2_1"
  top: "conv2_1"
}
layer {
  name: "conv2_2"
  type: "Convolution"
  bottom: "conv2_1"
  top: "conv2_2"
  param {
    lr_mult: 1
    decay_mult: 1
  }
  param {
    lr_mult: 2
    decay_mult: 0
  }
  convolution_param {
    num_output: 128
    pad: 1
    kernel_size: 3
    stride: 1
  }
}
layer {
  name: "relu2_2"
  type: "ReLU"
  bottom: "conv2_2"
  top: "conv2_2"
}
layer {
  name: "pool2"
  type: "Pooling"
  bottom: "conv2_2"
  top: "pool2"
  pooling_param {
    pool: MAX
    kernel_size: 2
    stride: 2
  }
}
layer {
  name: "conv3_1"
  type: "Convolution"
  bottom: "pool2"
  top: "conv3_1"
  param {
    lr_mult: 1
    decay_mult: 1
  }
  param {
    lr_mult: 2
    decay_mult: 0
  }
  convolution_param {
    num_output: 256
    pad: 1
    kernel_size: 3
    stride: 1
  }
}
layer {
  name: "relu3_1"
  type: "ReLU"
  bottom: "conv3_1"
  top: "conv3_1"
}
layer {
  name: "conv3_2"
  type: "Convolution"
  bottom: "conv3_1"
  top: "conv3_2"
  param {
    lr_mult: 1
    decay_mult: 1
  }
  param {
    lr_mult: 2
    decay_mult: 0
  }
  convolution_param {
    num_output: 256
    pad: 1
    kernel_size: 3
    stride: 1
  }
}
layer {
  name: "relu3_2"
  type: "ReLU"
  bottom: "conv3_2"
  top: "conv3_2"
}
layer {
  name: "conv3_3"
  type: "Convolution"
  bottom: "conv3_2"
  top: "conv3_3"
  param {
    lr_mult: 1
    decay_mult: 1
  }
  param {
    lr_mult: 2
    decay_mult: 0
  }
  convolution_param {
    num_output: 256
    pad: 1
    kernel_size: 3
    stride: 1
  }
}
layer {
  name: "relu3_3"
  type: "ReLU"
  bottom: "conv3_3"
  top: "conv3_3"
}
layer {
  name: "pool3"
  type: "Pooling"
  bottom: "conv3_3"
  top: "pool3"
  pooling_param {
    pool: MAX
    kernel_size: 2
    stride: 2
  }
}
layer {
  name: "conv4_1"
  type: "Convolution"
  bottom: "pool3"
  top: "conv4_1"
  param {
    lr_mult: 1
    decay_mult: 1
  }
  param {
    lr_mult: 2
    decay_mult: 0
  }
  convolution_param {
    num_output: 512
    pad: 1
    kernel_size: 3
    stride: 1
  }
}
layer {
  name: "relu4_1"
  type: "ReLU"
  bottom: "conv4_1"
  top: "conv4_1"
}
layer {
  name: "conv4_2"
  type: "Convolution"
  bottom: "conv4_1"
  top: "conv4_2"
  param {
    lr_mult: 1
    decay_mult: 1
  }
  param {
    lr_mult: 2
    decay_mult: 0
  }
  convolution_param {
    num_output: 512
    pad: 1
    kernel_size: 3
    stride: 1
  }
}
layer {
  name: "relu4_2"
  type: "ReLU"
  bottom: "conv4_2"
  top: "conv4_2"
}
layer {
  name: "conv4_3"
  type: "Convolution"
  bottom: "conv4_2"
  top: "conv4_3"
  param {
    lr_mult: 1
    decay_mult: 1
  }
  param {
    lr_mult: 2
    decay_mult: 0
  }
  convolution_param {
    num_output: 512
    pad: 1
    kernel_size: 3
    stride: 1
  }
}
layer {
  name: "relu4_3"
  type: "ReLU"
  bottom: "conv4_3"
  top: "conv4_3"
}
layer {
  name: "pool4"
  type: "Pooling"
  bottom: "conv4_3"
  top: "pool4"
  pooling_param {
    pool: MAX
    kernel_size: 2
    stride: 2
  }
}
layer {
  name: "conv5_1"
  type: "Convolution"
  bottom: "pool4"
  top: "conv5_1"
  param {
    lr_mult: 1
    decay_mult: 1
  }
  param {
    lr_mult: 2
    decay_mult: 0
  }
  convolution_param {
    num_output: 512
    pad: 1
    kernel_size: 3
    stride: 1
  }
}
layer {
  name: "relu5_1"
  type: "ReLU"
  bottom: "conv5_1"
  top: "conv5_1"
}
layer {
  name: "conv5_2"
  type: "Convolution"
  bottom: "conv5_1"
  top: "conv5_2"
  param {
    lr_mult: 1
    decay_mult: 1
  }
  param {
    lr_mult: 2
    decay_mult: 0
  }
  convolution_param {
    num_output: 512
    pad: 1
    kernel_size: 3
    stride: 1
  }
}
layer {
  name: "relu5_2"
  type: "ReLU"
  bottom: "conv5_2"
  top: "conv5_2"
}
layer {
  name: "conv5_3"
  type: "Convolution"
  bottom: "conv5_2"
  top: "conv5_3"
  param {
    lr_mult: 1
    decay_mult: 1
  }
  param {
    lr_mult: 2
    decay_mult: 0
  }
  convolution_param {
    num_output: 512
    pad: 1
    kernel_size: 3
    stride: 1
  }
}
layer {
  name: "relu5_3"
  type: "ReLU"
  bottom: "conv5_3"
  top: "conv5_3"
}
layer {
  name: "pool5"
  type: "Pooling"
  bottom: "conv5_3"
  top: "pool5"
  pooling_param {
    pool: MAX
    kernel_size: 2
    stride: 2
  }
}
layer {
  name: "fc6"
  type: "Convolution"
  bottom: "pool5"
  top: "fc6"
  param {
    lr_mult: 1
    decay_mult: 1
  }
  param {
    lr_mult: 2
    decay_mult: 0
  }
  convolution_param {
    num_output: 4096
    pad: 0
    kernel_size: 7
    stride: 1
  }
}
layer {
  name: "relu6"
  type: "ReLU"
  bottom: "fc6"
  top: "fc6"
}
layer {
  name: "drop6"
  type: "Dropout"
  bottom: "fc6"
  top: "fc6"
  dropout_param {
    dropout_ratio: 0.5
  }
}
layer {
  name: "fc7"
  type: "Convolution"
  bottom: "fc6"
  top: "fc7"
  param {
    lr_mult: 1
    decay_mult: 1
  }
  param {
    lr_mult: 2
    decay_mult: 0
  }
  convolution_param {
    num_output: 4096
    pad: 0
    kernel_size: 1
    stride: 1
  }
}
layer {
  name: "relu7"
  type: "ReLU"
  bottom: "fc7"
  top: "fc7"
}
layer {
  name: "drop7"
  type: "Dropout"
  bottom: "fc7"
  top: "fc7"
  dropout_param {
    dropout_ratio: 0.5
  }
}
layer {
  name: "score_fr-new"
  type: "Convolution"
  bottom: "fc7"
  top: "score_fr-new"
  param {
    lr_mult: 1
    decay_mult: 1
  }
  param {
    lr_mult: 2
    decay_mult: 0
  }
  convolution_param {
    num_output: 3
    kernel_size: 1
  }
}
layer {
  name: "upscore2-new"
  type: "Deconvolution"
  bottom: "score_fr-new"
  top: "upscore2-new"
  param {
    lr_mult: 0
  }
  convolution_param {
    num_output: 3
    bias_term: false
    kernel_size: 4
    stride: 2
  }
}
layer {
  name: "score_pool4-new"
  type: "Convolution"
  bottom: "pool4"
  top: "score_pool4-new"
  param {
    lr_mult: 1
    decay_mult: 1
  }
  param {
    lr_mult: 2
    decay_mult: 0
  }
  convolution_param {
    num_output: 3
    pad: 0
    kernel_size: 1
  }
}
layer {
  name: "score_pool4c"
  type: "Crop"
  bottom: "score_pool4-new"
  bottom: "upscore2-new"
  top: "score_pool4c"
  crop_param {
    axis: 2
    offset: 5
  }
}
layer {
  name: "fuse_pool4"
  type: "Eltwise"
  bottom: "upscore2-new"
  bottom: "score_pool4c"
  top: "fuse_pool4"
  eltwise_param {
    operation: SUM
  }
}
layer {
  name: "upscore_pool4-new"
  type: "Deconvolution"
  bottom: "fuse_pool4"
  top: "upscore_pool4-new"
  param {
    lr_mult: 0
  }
  convolution_param {
    num_output: 3
    bias_term: false
    kernel_size: 4
    stride: 2
  }
}
layer {
  name: "score_pool3-new"
  type: "Convolution"
  bottom: "pool3"
  top: "score_pool3-new"
  param {
    lr_mult: 1
    decay_mult: 1
  }
  param {
    lr_mult: 2
    decay_mult: 0
  }
  convolution_param {
    num_output: 3
    pad: 0
    kernel_size: 1
  }
}
layer {
  name: "score_pool3c"
  type: "Crop"
  bottom: "score_pool3-new"
  bottom: "upscore_pool4-new"
  top: "score_pool3c"
  crop_param {
    axis: 2
    offset: 9
  }
}
layer {
  name: "fuse_pool3"
  type: "Eltwise"
  bottom: "upscore_pool4-new"
  bottom: "score_pool3c"
  top: "fuse_pool3"
  eltwise_param {
    operation: SUM
  }
}
layer {
  name: "upscore8-new"
  type: "Deconvolution"
  bottom: "fuse_pool3"
  top: "upscore8-new"
  param {
    lr_mult: 0
  }
  convolution_param {
    num_output: 3
    bias_term: false
    kernel_size: 16
    stride: 8
  }
}
layer {
  name: "upscore8_cropped"
  type: "Crop"
  bottom: "upscore8-new"
  bottom: "data"
  top: "upscore8_cropped"
  crop_param {
    axis: 2
    offset: 31
  }
}
layer {
  name: "score"
  type: "Convolution"
  bottom: "upscore8_cropped"
  top: "score"
  param {
    lr_mult: 1
    decay_mult: 1
  }
  param {
    lr_mult: 2
    decay_mult: 0
  }
  convolution_param {
    num_output: 3
    pad: 1
    kernel_size: 3
    stride: 1
    weight_filler {
      type: "xavier"
    }
    bias_filler {
      type: "constant"
      value: 0
    }
  }
}
layer {
  name: "prob"
  type: "Sigmoid"
  bottom: "score"
  top: "prob"
}
layer {
  name: "saliency"
  type: "Convolution"
  bottom: "prob"
  top: "saliency"
  param {
    lr_mult: 10
    decay_mult: 1
  }
  param {
    lr_mult: 20
    decay_mult: 0
  }
  convolution_param {
    num_output: 3
    pad: 2
    kernel_size: 5
    stride: 1
    weight_filler {
      type: "xavier"
    }
    bias_filler {
      type: "constant"
      value: 1
    }
  }
}
layer {
  name: "silence_saliency"
  type: "Silence"
  bottom: "saliency"
}
layer {
  name: "crop"
  type: "Python"
  bottom: "label"
  bottom: "data"
  bottom: "crop_margin"
  bottom: "crop_prob"
  bottom: "crop_sample_batch"
  top: "data-R"
  top: "crop_info"
  python_param {
    module: "Crop"
    layer: "CropLayer"
    param_str: "{\"TEST\": 0}"
  }
}
layer {
  name: "conv1_1-R"
  type: "Convolution"
  bottom: "data-R"
  top: "conv1_1-R"
  param {
    lr_mult: 10
    decay_mult: 1
  }
  param {
    lr_mult: 20
    decay_mult: 0
  }
  convolution_param {
    num_output: 64
    pad: 100
    kernel_size: 3
    stride: 1
  }
}
layer {
  name: "relu1_1-R"
  type: "ReLU"
  bottom: "conv1_1-R"
  top: "conv1_1-R"
}
layer {
  name: "conv1_2-R"
  type: "Convolution"
  bottom: "conv1_1-R"
  top: "conv1_2-R"
  param {
    lr_mult: 10
    decay_mult: 1
  }
  param {
    lr_mult: 20
    decay_mult: 0
  }
  convolution_param {
    num_output: 64
    pad: 1
    kernel_size: 3
    stride: 1
  }
}
layer {
  name: "relu1_2-R"
  type: "ReLU"
  bottom: "conv1_2-R"
  top: "conv1_2-R"
}
layer {
  name: "pool1-R"
  type: "Pooling"
  bottom: "conv1_2-R"
  top: "pool1-R"
  pooling_param {
    pool: MAX
    kernel_size: 2
    stride: 2
  }
}
layer {
  name: "conv2_1-R"
  type: "Convolution"
  bottom: "pool1-R"
  top: "conv2_1-R"
  param {
    lr_mult: 10
    decay_mult: 1
  }
  param {
    lr_mult: 20
    decay_mult: 0
  }
  convolution_param {
    num_output: 128
    pad: 1
    kernel_size: 3
    stride: 1
  }
}
layer {
  name: "relu2_1-R"
  type: "ReLU"
  bottom: "conv2_1-R"
  top: "conv2_1-R"
}
layer {
  name: "conv2_2-R"
  type: "Convolution"
  bottom: "conv2_1-R"
  top: "conv2_2-R"
  param {
    lr_mult: 10
    decay_mult: 1
  }
  param {
    lr_mult: 20
    decay_mult: 0
  }
  convolution_param {
    num_output: 128
    pad: 1
    kernel_size: 3
    stride: 1
  }
}
layer {
  name: "relu2_2-R"
  type: "ReLU"
  bottom: "conv2_2-R"
  top: "conv2_2-R"
}
layer {
  name: "pool2-R"
  type: "Pooling"
  bottom: "conv2_2-R"
  top: "pool2-R"
  pooling_param {
    pool: MAX
    kernel_size: 2
    stride: 2
  }
}
layer {
  name: "conv3_1-R"
  type: "Convolution"
  bottom: "pool2-R"
  top: "conv3_1-R"
  param {
    lr_mult: 10
    decay_mult: 1
  }
  param {
    lr_mult: 20
    decay_mult: 0
  }
  convolution_param {
    num_output: 256
    pad: 1
    kernel_size: 3
    stride: 1
  }
}
layer {
  name: "relu3_1-R"
  type: "ReLU"
  bottom: "conv3_1-R"
  top: "conv3_1-R"
}
layer {
  name: "conv3_2-R"
  type: "Convolution"
  bottom: "conv3_1-R"
  top: "conv3_2-R"
  param {
    lr_mult: 10
    decay_mult: 1
  }
  param {
    lr_mult: 20
    decay_mult: 0
  }
  convolution_param {
    num_output: 256
    pad: 1
    kernel_size: 3
    stride: 1
  }
}
layer {
  name: "relu3_2-R"
  type: "ReLU"
  bottom: "conv3_2-R"
  top: "conv3_2-R"
}
layer {
  name: "conv3_3-R"
  type: "Convolution"
  bottom: "conv3_2-R"
  top: "conv3_3-R"
  param {
    lr_mult: 10
    decay_mult: 1
  }
  param {
    lr_mult: 20
    decay_mult: 0
  }
  convolution_param {
    num_output: 256
    pad: 1
    kernel_size: 3
    stride: 1
  }
}
layer {
  name: "relu3_3-R"
  type: "ReLU"
  bottom: "conv3_3-R"
  top: "conv3_3-R"
}
layer {
  name: "pool3-R"
  type: "Pooling"
  bottom: "conv3_3-R"
  top: "pool3-R"
  pooling_param {
    pool: MAX
    kernel_size: 2
    stride: 2
  }
}
layer {
  name: "conv4_1-R"
  type: "Convolution"
  bottom: "pool3-R"
  top: "conv4_1-R"
  param {
    lr_mult: 10
    decay_mult: 1
  }
  param {
    lr_mult: 20
    decay_mult: 0
  }
  convolution_param {
    num_output: 512
    pad: 1
    kernel_size: 3
    stride: 1
  }
}
layer {
  name: "relu4_1-R"
  type: "ReLU"
  bottom: "conv4_1-R"
  top: "conv4_1-R"
}
layer {
  name: "conv4_2-R"
  type: "Convolution"
  bottom: "conv4_1-R"
  top: "conv4_2-R"
  param {
    lr_mult: 10
    decay_mult: 1
  }
  param {
    lr_mult: 20
    decay_mult: 0
  }
  convolution_param {
    num_output: 512
    pad: 1
    kernel_size: 3
    stride: 1
  }
}
layer {
  name: "relu4_2-R"
  type: "ReLU"
  bottom: "conv4_2-R"
  top: "conv4_2-R"
}
layer {
  name: "conv4_3-R"
  type: "Convolution"
  bottom: "conv4_2-R"
  top: "conv4_3-R"
  param {
    lr_mult: 10
    decay_mult: 1
  }
  param {
    lr_mult: 20
    decay_mult: 0
  }
  convolution_param {
    num_output: 512
    pad: 1
    kernel_size: 3
    stride: 1
  }
}
layer {
  name: "relu4_3-R"
  type: "ReLU"
  bottom: "conv4_3-R"
  top: "conv4_3-R"
}
layer {
  name: "pool4-R"
  type: "Pooling"
  bottom: "conv4_3-R"
  top: "pool4-R"
  pooling_param {
    pool: MAX
    kernel_size: 2
    stride: 2
  }
}
layer {
  name: "conv5_1-R"
  type: "Convolution"
  bottom: "pool4-R"
  top: "conv5_1-R"
  param {
    lr_mult: 10
    decay_mult: 1
  }
  param {
    lr_mult: 20
    decay_mult: 0
  }
  convolution_param {
    num_output: 512
    pad: 1
    kernel_size: 3
    stride: 1
  }
}
layer {
  name: "relu5_1-R"
  type: "ReLU"
  bottom: "conv5_1-R"
  top: "conv5_1-R"
}
layer {
  name: "conv5_2-R"
  type: "Convolution"
  bottom: "conv5_1-R"
  top: "conv5_2-R"
  param {
    lr_mult: 10
    decay_mult: 1
  }
  param {
    lr_mult: 20
    decay_mult: 0
  }
  convolution_param {
    num_output: 512
    pad: 1
    kernel_size: 3
    stride: 1
  }
}
layer {
  name: "relu5_2-R"
  type: "ReLU"
  bottom: "conv5_2-R"
  top: "conv5_2-R"
}
layer {
  name: "conv5_3-R"
  type: "Convolution"
  bottom: "conv5_2-R"
  top: "conv5_3-R"
  param {
    lr_mult: 10
    decay_mult: 1
  }
  param {
    lr_mult: 20
    decay_mult: 0
  }
  convolution_param {
    num_output: 512
    pad: 1
    kernel_size: 3
    stride: 1
  }
}
layer {
  name: "relu5_3-R"
  type: "ReLU"
  bottom: "conv5_3-R"
  top: "conv5_3-R"
}
layer {
  name: "pool5-R"
  type: "Pooling"
  bottom: "conv5_3-R"
  top: "pool5-R"
  pooling_param {
    pool: MAX
    kernel_size: 2
    stride: 2
  }
}
layer {
  name: "fc6-R"
  type: "Convolution"
  bottom: "pool5-R"
  top: "fc6-R"
  param {
    lr_mult: 10
    decay_mult: 1
  }
  param {
    lr_mult: 20
    decay_mult: 0
  }
  convolution_param {
    num_output: 4096
    pad: 0
    kernel_size: 7
    stride: 1
  }
}
layer {
  name: "relu6-R"
  type: "ReLU"
  bottom: "fc6-R"
  top: "fc6-R"
}
layer {
  name: "drop6-R"
  type: "Dropout"
  bottom: "fc6-R"
  top: "fc6-R"
  dropout_param {
    dropout_ratio: 0.5
  }
}
layer {
  name: "fc7-R"
  type: "Convolution"
  bottom: "fc6-R"
  top: "fc7-R"
  param {
    lr_mult: 10
    decay_mult: 1
  }
  param {
    lr_mult: 20
    decay_mult: 0
  }
  convolution_param {
    num_output: 4096
    pad: 0
    kernel_size: 1
    stride: 1
  }
}
layer {
  name: "relu7-R"
  type: "ReLU"
  bottom: "fc7-R"
  top: "fc7-R"
}
layer {
  name: "drop7-R"
  type: "Dropout"
  bottom: "fc7-R"
  top: "fc7-R"
  dropout_param {
    dropout_ratio: 0.5
  }
}
layer {
  name: "score_fr-new-R"
  type: "Convolution"
  bottom: "fc7-R"
  top: "score_fr-new-R"
  param {
    lr_mult: 10
    decay_mult: 1
  }
  param {
    lr_mult: 20
    decay_mult: 0
  }
  convolution_param {
    num_output: 3
    kernel_size: 1
  }
}
layer {
  name: "upscore2-new-R"
  type: "Deconvolution"
  bottom: "score_fr-new-R"
  top: "upscore2-new-R"
  param {
    lr_mult: 0
  }
  convolution_param {
    num_output: 3
    bias_term: false
    kernel_size: 4
    stride: 2
  }
}
layer {
  name: "score_pool4-new-R"
  type: "Convolution"
  bottom: "pool4-R"
  top: "score_pool4-new-R"
  param {
    lr_mult: 10
    decay_mult: 1
  }
  param {
    lr_mult: 20
    decay_mult: 0
  }
  convolution_param {
    num_output: 3
    pad: 0
    kernel_size: 1
  }
}
layer {
  name: "score_pool4c-R"
  type: "Crop"
  bottom: "score_pool4-new-R"
  bottom: "upscore2-new-R"
  top: "score_pool4c-R"
  crop_param {
    axis: 2
    offset: 5
  }
}
layer {
  name: "fuse_pool4-R"
  type: "Eltwise"
  bottom: "upscore2-new-R"
  bottom: "score_pool4c-R"
  top: "fuse_pool4-R"
  eltwise_param {
    operation: SUM
  }
}
layer {
  name: "upscore_pool4-new-R"
  type: "Deconvolution"
  bottom: "fuse_pool4-R"
  top: "upscore_pool4-new-R"
  param {
    lr_mult: 0
  }
  convolution_param {
    num_output: 3
    bias_term: false
    kernel_size: 4
    stride: 2
  }
}
layer {
  name: "score_pool3-new-R"
  type: "Convolution"
  bottom: "pool3-R"
  top: "score_pool3-new-R"
  param {
    lr_mult: 10
    decay_mult: 1
  }
  param {
    lr_mult: 20
    decay_mult: 0
  }
  convolution_param {
    num_output: 3
    pad: 0
    kernel_size: 1
  }
}
layer {
  name: "score_pool3c-R"
  type: "Crop"
  bottom: "score_pool3-new-R"
  bottom: "upscore_pool4-new-R"
  top: "score_pool3c-R"
  crop_param {
    axis: 2
    offset: 9
  }
}
layer {
  name: "fuse_pool3-R"
  type: "Eltwise"
  bottom: "upscore_pool4-new-R"
  bottom: "score_pool3c-R"
  top: "fuse_pool3-R"
  eltwise_param {
    operation: SUM
  }
}
layer {
  name: "upscore8-new-R"
  type: "Deconvolution"
  bottom: "fuse_pool3-R"
  top: "upscore8-new-R"
  param {
    lr_mult: 0
  }
  convolution_param {
    num_output: 3
    bias_term: false
    kernel_size: 16
    stride: 8
  }
}
layer {
  name: "upscore8_cropped-R"
  type: "Crop"
  bottom: "upscore8-new-R"
  bottom: "data-R"
  top: "upscore8_cropped-R"
  crop_param {
    axis: 2
    offset: 31
  }
}
layer {
  name: "score-R"
  type: "Convolution"
  bottom: "upscore8_cropped-R"
  top: "score-R"
  param {
    lr_mult: 10
    decay_mult: 1
  }
  param {
    lr_mult: 20
    decay_mult: 0
  }
  convolution_param {
    num_output: 3
    pad: 1
    kernel_size: 3
    stride: 1
    weight_filler {
      type: "xavier"
    }
    bias_filler {
      type: "constant"
      value: 0
    }
  }
}
layer {
  name: "score_uncropped-R"
  type: "Python"
  bottom: "crop_info"
  bottom: "score-R"
  bottom: "data"
  top: "score_uncropped-R"
  python_param {
    module: "Uncrop"
    layer: "UncropLayer"
  }
}
layer {
  name: "loss1"
  type: "DiceLoss"
  bottom: "score"
  bottom: "label"
  top: "loss1"
  loss_weight: 0.333333
}
layer {
  name: "loss2"
  type: "DiceLoss"
  bottom: "score_uncropped-R"
  bottom: "label"
  top: "loss2"
  loss_weight: 0.666667
}
I0418 20:14:16.233166 17061 layer_factory.hpp:77] Creating layer data
I0418 20:14:16.233549 17061 net.cpp:84] Creating Layer data
I0418 20:14:16.233566 17061 net.cpp:380] data -> data
I0418 20:14:16.233585 17061 net.cpp:380] data -> label
I0418 20:14:16.233593 17061 net.cpp:380] data -> crop_margin
I0418 20:14:16.233602 17061 net.cpp:380] data -> crop_prob
I0418 20:14:16.233608 17061 net.cpp:380] data -> crop_sample_batch
I0418 20:14:16.386415 17061 net.cpp:122] Setting up data
I0418 20:14:16.386451 17061 net.cpp:129] Top shape: 1 3 512 310 (476160)
I0418 20:14:16.386456 17061 net.cpp:129] Top shape: 1 3 512 310 (476160)
I0418 20:14:16.386461 17061 net.cpp:129] Top shape: 1 (1)
I0418 20:14:16.386464 17061 net.cpp:129] Top shape: 1 (1)
I0418 20:14:16.386467 17061 net.cpp:129] Top shape: 1 (1)
I0418 20:14:16.386471 17061 net.cpp:137] Memory required for data: 3809292
I0418 20:14:16.386478 17061 layer_factory.hpp:77] Creating layer data_data_0_split
I0418 20:14:16.386495 17061 net.cpp:84] Creating Layer data_data_0_split
I0418 20:14:16.386515 17061 net.cpp:406] data_data_0_split <- data
I0418 20:14:16.386525 17061 net.cpp:380] data_data_0_split -> data_data_0_split_0
I0418 20:14:16.386538 17061 net.cpp:380] data_data_0_split -> data_data_0_split_1
I0418 20:14:16.386543 17061 net.cpp:380] data_data_0_split -> data_data_0_split_2
I0418 20:14:16.386548 17061 net.cpp:380] data_data_0_split -> data_data_0_split_3
I0418 20:14:16.386593 17061 net.cpp:122] Setting up data_data_0_split
I0418 20:14:16.386600 17061 net.cpp:129] Top shape: 1 3 512 310 (476160)
I0418 20:14:16.386602 17061 net.cpp:129] Top shape: 1 3 512 310 (476160)
I0418 20:14:16.386606 17061 net.cpp:129] Top shape: 1 3 512 310 (476160)
I0418 20:14:16.386610 17061 net.cpp:129] Top shape: 1 3 512 310 (476160)
I0418 20:14:16.386612 17061 net.cpp:137] Memory required for data: 11427852
I0418 20:14:16.386616 17061 layer_factory.hpp:77] Creating layer label_data_1_split
I0418 20:14:16.386622 17061 net.cpp:84] Creating Layer label_data_1_split
I0418 20:14:16.386626 17061 net.cpp:406] label_data_1_split <- label
I0418 20:14:16.386631 17061 net.cpp:380] label_data_1_split -> label_data_1_split_0
I0418 20:14:16.386636 17061 net.cpp:380] label_data_1_split -> label_data_1_split_1
I0418 20:14:16.386641 17061 net.cpp:380] label_data_1_split -> label_data_1_split_2
I0418 20:14:16.386669 17061 net.cpp:122] Setting up label_data_1_split
I0418 20:14:16.386674 17061 net.cpp:129] Top shape: 1 3 512 310 (476160)
I0418 20:14:16.386677 17061 net.cpp:129] Top shape: 1 3 512 310 (476160)
I0418 20:14:16.386682 17061 net.cpp:129] Top shape: 1 3 512 310 (476160)
I0418 20:14:16.386683 17061 net.cpp:137] Memory required for data: 17141772
I0418 20:14:16.386687 17061 layer_factory.hpp:77] Creating layer conv1_1
I0418 20:14:16.386703 17061 net.cpp:84] Creating Layer conv1_1
I0418 20:14:16.386705 17061 net.cpp:406] conv1_1 <- data_data_0_split_0
I0418 20:14:16.386711 17061 net.cpp:380] conv1_1 -> conv1_1
I0418 20:14:16.693903 17061 net.cpp:122] Setting up conv1_1
I0418 20:14:16.693938 17061 net.cpp:129] Top shape: 1 64 710 508 (23083520)
I0418 20:14:16.693943 17061 net.cpp:137] Memory required for data: 109475852
I0418 20:14:16.693965 17061 layer_factory.hpp:77] Creating layer relu1_1
I0418 20:14:16.693987 17061 net.cpp:84] Creating Layer relu1_1
I0418 20:14:16.693992 17061 net.cpp:406] relu1_1 <- conv1_1
I0418 20:14:16.694016 17061 net.cpp:367] relu1_1 -> conv1_1 (in-place)
I0418 20:14:16.694218 17061 net.cpp:122] Setting up relu1_1
I0418 20:14:16.694231 17061 net.cpp:129] Top shape: 1 64 710 508 (23083520)
I0418 20:14:16.694236 17061 net.cpp:137] Memory required for data: 201809932
I0418 20:14:16.694238 17061 layer_factory.hpp:77] Creating layer conv1_2
I0418 20:14:16.694252 17061 net.cpp:84] Creating Layer conv1_2
I0418 20:14:16.694255 17061 net.cpp:406] conv1_2 <- conv1_1
I0418 20:14:16.694260 17061 net.cpp:380] conv1_2 -> conv1_2
I0418 20:14:16.698102 17061 net.cpp:122] Setting up conv1_2
I0418 20:14:16.698117 17061 net.cpp:129] Top shape: 1 64 710 508 (23083520)
I0418 20:14:16.698120 17061 net.cpp:137] Memory required for data: 294144012
I0418 20:14:16.698128 17061 layer_factory.hpp:77] Creating layer relu1_2
I0418 20:14:16.698135 17061 net.cpp:84] Creating Layer relu1_2
I0418 20:14:16.698138 17061 net.cpp:406] relu1_2 <- conv1_2
I0418 20:14:16.698143 17061 net.cpp:367] relu1_2 -> conv1_2 (in-place)
I0418 20:14:16.698362 17061 net.cpp:122] Setting up relu1_2
I0418 20:14:16.698374 17061 net.cpp:129] Top shape: 1 64 710 508 (23083520)
I0418 20:14:16.698395 17061 net.cpp:137] Memory required for data: 386478092
I0418 20:14:16.698397 17061 layer_factory.hpp:77] Creating layer pool1
I0418 20:14:16.698405 17061 net.cpp:84] Creating Layer pool1
I0418 20:14:16.698410 17061 net.cpp:406] pool1 <- conv1_2
I0418 20:14:16.698415 17061 net.cpp:380] pool1 -> pool1
I0418 20:14:16.698464 17061 net.cpp:122] Setting up pool1
I0418 20:14:16.698469 17061 net.cpp:129] Top shape: 1 64 355 254 (5770880)
I0418 20:14:16.698472 17061 net.cpp:137] Memory required for data: 409561612
I0418 20:14:16.698477 17061 layer_factory.hpp:77] Creating layer conv2_1
I0418 20:14:16.698500 17061 net.cpp:84] Creating Layer conv2_1
I0418 20:14:16.698504 17061 net.cpp:406] conv2_1 <- pool1
I0418 20:14:16.698509 17061 net.cpp:380] conv2_1 -> conv2_1
I0418 20:14:16.699954 17061 net.cpp:122] Setting up conv2_1
I0418 20:14:16.699967 17061 net.cpp:129] Top shape: 1 128 355 254 (11541760)
I0418 20:14:16.699970 17061 net.cpp:137] Memory required for data: 455728652
I0418 20:14:16.699978 17061 layer_factory.hpp:77] Creating layer relu2_1
I0418 20:14:16.699985 17061 net.cpp:84] Creating Layer relu2_1
I0418 20:14:16.699988 17061 net.cpp:406] relu2_1 <- conv2_1
I0418 20:14:16.699992 17061 net.cpp:367] relu2_1 -> conv2_1 (in-place)
I0418 20:14:16.700165 17061 net.cpp:122] Setting up relu2_1
I0418 20:14:16.700191 17061 net.cpp:129] Top shape: 1 128 355 254 (11541760)
I0418 20:14:16.700193 17061 net.cpp:137] Memory required for data: 501895692
I0418 20:14:16.700197 17061 layer_factory.hpp:77] Creating layer conv2_2
I0418 20:14:16.700206 17061 net.cpp:84] Creating Layer conv2_2
I0418 20:14:16.700208 17061 net.cpp:406] conv2_2 <- conv2_1
I0418 20:14:16.700214 17061 net.cpp:380] conv2_2 -> conv2_2
I0418 20:14:16.703013 17061 net.cpp:122] Setting up conv2_2
I0418 20:14:16.703027 17061 net.cpp:129] Top shape: 1 128 355 254 (11541760)
I0418 20:14:16.703032 17061 net.cpp:137] Memory required for data: 548062732
I0418 20:14:16.703037 17061 layer_factory.hpp:77] Creating layer relu2_2
I0418 20:14:16.703044 17061 net.cpp:84] Creating Layer relu2_2
I0418 20:14:16.703047 17061 net.cpp:406] relu2_2 <- conv2_2
I0418 20:14:16.703052 17061 net.cpp:367] relu2_2 -> conv2_2 (in-place)
I0418 20:14:16.703230 17061 net.cpp:122] Setting up relu2_2
I0418 20:14:16.703256 17061 net.cpp:129] Top shape: 1 128 355 254 (11541760)
I0418 20:14:16.703259 17061 net.cpp:137] Memory required for data: 594229772
I0418 20:14:16.703279 17061 layer_factory.hpp:77] Creating layer pool2
I0418 20:14:16.703284 17061 net.cpp:84] Creating Layer pool2
I0418 20:14:16.703289 17061 net.cpp:406] pool2 <- conv2_2
I0418 20:14:16.703294 17061 net.cpp:380] pool2 -> pool2
I0418 20:14:16.703351 17061 net.cpp:122] Setting up pool2
I0418 20:14:16.703357 17061 net.cpp:129] Top shape: 1 128 178 127 (2893568)
I0418 20:14:16.703361 17061 net.cpp:137] Memory required for data: 605804044
I0418 20:14:16.703364 17061 layer_factory.hpp:77] Creating layer conv3_1
I0418 20:14:16.703372 17061 net.cpp:84] Creating Layer conv3_1
I0418 20:14:16.703377 17061 net.cpp:406] conv3_1 <- pool2
I0418 20:14:16.703382 17061 net.cpp:380] conv3_1 -> conv3_1
I0418 20:14:16.706439 17061 net.cpp:122] Setting up conv3_1
I0418 20:14:16.706467 17061 net.cpp:129] Top shape: 1 256 178 127 (5787136)
I0418 20:14:16.706471 17061 net.cpp:137] Memory required for data: 628952588
I0418 20:14:16.706496 17061 layer_factory.hpp:77] Creating layer relu3_1
I0418 20:14:16.706502 17061 net.cpp:84] Creating Layer relu3_1
I0418 20:14:16.706506 17061 net.cpp:406] relu3_1 <- conv3_1
I0418 20:14:16.706511 17061 net.cpp:367] relu3_1 -> conv3_1 (in-place)
I0418 20:14:16.707062 17061 net.cpp:122] Setting up relu3_1
I0418 20:14:16.707074 17061 net.cpp:129] Top shape: 1 256 178 127 (5787136)
I0418 20:14:16.707078 17061 net.cpp:137] Memory required for data: 652101132
I0418 20:14:16.707082 17061 layer_factory.hpp:77] Creating layer conv3_2
I0418 20:14:16.707090 17061 net.cpp:84] Creating Layer conv3_2
I0418 20:14:16.707093 17061 net.cpp:406] conv3_2 <- conv3_1
I0418 20:14:16.707098 17061 net.cpp:380] conv3_2 -> conv3_2
I0418 20:14:16.710309 17061 net.cpp:122] Setting up conv3_2
I0418 20:14:16.710337 17061 net.cpp:129] Top shape: 1 256 178 127 (5787136)
I0418 20:14:16.710341 17061 net.cpp:137] Memory required for data: 675249676
I0418 20:14:16.710348 17061 layer_factory.hpp:77] Creating layer relu3_2
I0418 20:14:16.710356 17061 net.cpp:84] Creating Layer relu3_2
I0418 20:14:16.710361 17061 net.cpp:406] relu3_2 <- conv3_2
I0418 20:14:16.710366 17061 net.cpp:367] relu3_2 -> conv3_2 (in-place)
I0418 20:14:16.710930 17061 net.cpp:122] Setting up relu3_2
I0418 20:14:16.710943 17061 net.cpp:129] Top shape: 1 256 178 127 (5787136)
I0418 20:14:16.710947 17061 net.cpp:137] Memory required for data: 698398220
I0418 20:14:16.710949 17061 layer_factory.hpp:77] Creating layer conv3_3
I0418 20:14:16.710958 17061 net.cpp:84] Creating Layer conv3_3
I0418 20:14:16.710961 17061 net.cpp:406] conv3_3 <- conv3_2
I0418 20:14:16.710968 17061 net.cpp:380] conv3_3 -> conv3_3
I0418 20:14:16.714174 17061 net.cpp:122] Setting up conv3_3
I0418 20:14:16.714186 17061 net.cpp:129] Top shape: 1 256 178 127 (5787136)
I0418 20:14:16.714190 17061 net.cpp:137] Memory required for data: 721546764
I0418 20:14:16.714216 17061 layer_factory.hpp:77] Creating layer relu3_3
I0418 20:14:16.714226 17061 net.cpp:84] Creating Layer relu3_3
I0418 20:14:16.714231 17061 net.cpp:406] relu3_3 <- conv3_3
I0418 20:14:16.714237 17061 net.cpp:367] relu3_3 -> conv3_3 (in-place)
I0418 20:14:16.714440 17061 net.cpp:122] Setting up relu3_3
I0418 20:14:16.714452 17061 net.cpp:129] Top shape: 1 256 178 127 (5787136)
I0418 20:14:16.714454 17061 net.cpp:137] Memory required for data: 744695308
I0418 20:14:16.714458 17061 layer_factory.hpp:77] Creating layer pool3
I0418 20:14:16.714464 17061 net.cpp:84] Creating Layer pool3
I0418 20:14:16.714468 17061 net.cpp:406] pool3 <- conv3_3
I0418 20:14:16.714474 17061 net.cpp:380] pool3 -> pool3
I0418 20:14:16.714532 17061 net.cpp:122] Setting up pool3
I0418 20:14:16.714540 17061 net.cpp:129] Top shape: 1 256 89 64 (1458176)
I0418 20:14:16.714542 17061 net.cpp:137] Memory required for data: 750528012
I0418 20:14:16.714545 17061 layer_factory.hpp:77] Creating layer pool3_pool3_0_split
I0418 20:14:16.714551 17061 net.cpp:84] Creating Layer pool3_pool3_0_split
I0418 20:14:16.714555 17061 net.cpp:406] pool3_pool3_0_split <- pool3
I0418 20:14:16.714560 17061 net.cpp:380] pool3_pool3_0_split -> pool3_pool3_0_split_0
I0418 20:14:16.714566 17061 net.cpp:380] pool3_pool3_0_split -> pool3_pool3_0_split_1
I0418 20:14:16.714601 17061 net.cpp:122] Setting up pool3_pool3_0_split
I0418 20:14:16.714606 17061 net.cpp:129] Top shape: 1 256 89 64 (1458176)
I0418 20:14:16.714609 17061 net.cpp:129] Top shape: 1 256 89 64 (1458176)
I0418 20:14:16.714612 17061 net.cpp:137] Memory required for data: 762193420
I0418 20:14:16.714615 17061 layer_factory.hpp:77] Creating layer conv4_1
I0418 20:14:16.714625 17061 net.cpp:84] Creating Layer conv4_1
I0418 20:14:16.714628 17061 net.cpp:406] conv4_1 <- pool3_pool3_0_split_0
I0418 20:14:16.714634 17061 net.cpp:380] conv4_1 -> conv4_1
I0418 20:14:16.721943 17061 net.cpp:122] Setting up conv4_1
I0418 20:14:16.721959 17061 net.cpp:129] Top shape: 1 512 89 64 (2916352)
I0418 20:14:16.721963 17061 net.cpp:137] Memory required for data: 773858828
I0418 20:14:16.721971 17061 layer_factory.hpp:77] Creating layer relu4_1
I0418 20:14:16.721977 17061 net.cpp:84] Creating Layer relu4_1
I0418 20:14:16.721982 17061 net.cpp:406] relu4_1 <- conv4_1
I0418 20:14:16.721987 17061 net.cpp:367] relu4_1 -> conv4_1 (in-place)
I0418 20:14:16.722208 17061 net.cpp:122] Setting up relu4_1
I0418 20:14:16.722219 17061 net.cpp:129] Top shape: 1 512 89 64 (2916352)
I0418 20:14:16.722223 17061 net.cpp:137] Memory required for data: 785524236
I0418 20:14:16.722226 17061 layer_factory.hpp:77] Creating layer conv4_2
I0418 20:14:16.722236 17061 net.cpp:84] Creating Layer conv4_2
I0418 20:14:16.722240 17061 net.cpp:406] conv4_2 <- conv4_1
I0418 20:14:16.722249 17061 net.cpp:380] conv4_2 -> conv4_2
I0418 20:14:16.730608 17061 net.cpp:122] Setting up conv4_2
I0418 20:14:16.730640 17061 net.cpp:129] Top shape: 1 512 89 64 (2916352)
I0418 20:14:16.730644 17061 net.cpp:137] Memory required for data: 797189644
I0418 20:14:16.730659 17061 layer_factory.hpp:77] Creating layer relu4_2
I0418 20:14:16.730667 17061 net.cpp:84] Creating Layer relu4_2
I0418 20:14:16.730672 17061 net.cpp:406] relu4_2 <- conv4_2
I0418 20:14:16.730679 17061 net.cpp:367] relu4_2 -> conv4_2 (in-place)
I0418 20:14:16.730903 17061 net.cpp:122] Setting up relu4_2
I0418 20:14:16.730914 17061 net.cpp:129] Top shape: 1 512 89 64 (2916352)
I0418 20:14:16.730918 17061 net.cpp:137] Memory required for data: 808855052
I0418 20:14:16.730922 17061 layer_factory.hpp:77] Creating layer conv4_3
I0418 20:14:16.730932 17061 net.cpp:84] Creating Layer conv4_3
I0418 20:14:16.730937 17061 net.cpp:406] conv4_3 <- conv4_2
I0418 20:14:16.730943 17061 net.cpp:380] conv4_3 -> conv4_3
I0418 20:14:16.738453 17061 net.cpp:122] Setting up conv4_3
I0418 20:14:16.738469 17061 net.cpp:129] Top shape: 1 512 89 64 (2916352)
I0418 20:14:16.738473 17061 net.cpp:137] Memory required for data: 820520460
I0418 20:14:16.738479 17061 layer_factory.hpp:77] Creating layer relu4_3
I0418 20:14:16.738487 17061 net.cpp:84] Creating Layer relu4_3
I0418 20:14:16.738490 17061 net.cpp:406] relu4_3 <- conv4_3
I0418 20:14:16.738497 17061 net.cpp:367] relu4_3 -> conv4_3 (in-place)
I0418 20:14:16.738675 17061 net.cpp:122] Setting up relu4_3
I0418 20:14:16.738685 17061 net.cpp:129] Top shape: 1 512 89 64 (2916352)
I0418 20:14:16.738688 17061 net.cpp:137] Memory required for data: 832185868
I0418 20:14:16.738692 17061 layer_factory.hpp:77] Creating layer pool4
I0418 20:14:16.738700 17061 net.cpp:84] Creating Layer pool4
I0418 20:14:16.738704 17061 net.cpp:406] pool4 <- conv4_3
I0418 20:14:16.738726 17061 net.cpp:380] pool4 -> pool4
I0418 20:14:16.738770 17061 net.cpp:122] Setting up pool4
I0418 20:14:16.738777 17061 net.cpp:129] Top shape: 1 512 45 32 (737280)
I0418 20:14:16.738780 17061 net.cpp:137] Memory required for data: 835134988
I0418 20:14:16.738783 17061 layer_factory.hpp:77] Creating layer pool4_pool4_0_split
I0418 20:14:16.738790 17061 net.cpp:84] Creating Layer pool4_pool4_0_split
I0418 20:14:16.738795 17061 net.cpp:406] pool4_pool4_0_split <- pool4
I0418 20:14:16.738801 17061 net.cpp:380] pool4_pool4_0_split -> pool4_pool4_0_split_0
I0418 20:14:16.738806 17061 net.cpp:380] pool4_pool4_0_split -> pool4_pool4_0_split_1
I0418 20:14:16.738837 17061 net.cpp:122] Setting up pool4_pool4_0_split
I0418 20:14:16.738843 17061 net.cpp:129] Top shape: 1 512 45 32 (737280)
I0418 20:14:16.738847 17061 net.cpp:129] Top shape: 1 512 45 32 (737280)
I0418 20:14:16.738849 17061 net.cpp:137] Memory required for data: 841033228
I0418 20:14:16.738852 17061 layer_factory.hpp:77] Creating layer conv5_1
I0418 20:14:16.738863 17061 net.cpp:84] Creating Layer conv5_1
I0418 20:14:16.738867 17061 net.cpp:406] conv5_1 <- pool4_pool4_0_split_0
I0418 20:14:16.738873 17061 net.cpp:380] conv5_1 -> conv5_1
I0418 20:14:16.746309 17061 net.cpp:122] Setting up conv5_1
I0418 20:14:16.746340 17061 net.cpp:129] Top shape: 1 512 45 32 (737280)
I0418 20:14:16.746345 17061 net.cpp:137] Memory required for data: 843982348
I0418 20:14:16.746351 17061 layer_factory.hpp:77] Creating layer relu5_1
I0418 20:14:16.746359 17061 net.cpp:84] Creating Layer relu5_1
I0418 20:14:16.746363 17061 net.cpp:406] relu5_1 <- conv5_1
I0418 20:14:16.746369 17061 net.cpp:367] relu5_1 -> conv5_1 (in-place)
I0418 20:14:16.746979 17061 net.cpp:122] Setting up relu5_1
I0418 20:14:16.746992 17061 net.cpp:129] Top shape: 1 512 45 32 (737280)
I0418 20:14:16.746995 17061 net.cpp:137] Memory required for data: 846931468
I0418 20:14:16.746999 17061 layer_factory.hpp:77] Creating layer conv5_2
I0418 20:14:16.747007 17061 net.cpp:84] Creating Layer conv5_2
I0418 20:14:16.747011 17061 net.cpp:406] conv5_2 <- conv5_1
I0418 20:14:16.747018 17061 net.cpp:380] conv5_2 -> conv5_2
I0418 20:14:16.754145 17061 net.cpp:122] Setting up conv5_2
I0418 20:14:16.754182 17061 net.cpp:129] Top shape: 1 512 45 32 (737280)
I0418 20:14:16.754202 17061 net.cpp:137] Memory required for data: 849880588
I0418 20:14:16.754210 17061 layer_factory.hpp:77] Creating layer relu5_2
I0418 20:14:16.754225 17061 net.cpp:84] Creating Layer relu5_2
I0418 20:14:16.754228 17061 net.cpp:406] relu5_2 <- conv5_2
I0418 20:14:16.754251 17061 net.cpp:367] relu5_2 -> conv5_2 (in-place)
I0418 20:14:16.754870 17061 net.cpp:122] Setting up relu5_2
I0418 20:14:16.754882 17061 net.cpp:129] Top shape: 1 512 45 32 (737280)
I0418 20:14:16.754886 17061 net.cpp:137] Memory required for data: 852829708
I0418 20:14:16.754889 17061 layer_factory.hpp:77] Creating layer conv5_3
I0418 20:14:16.754899 17061 net.cpp:84] Creating Layer conv5_3
I0418 20:14:16.754904 17061 net.cpp:406] conv5_3 <- conv5_2
I0418 20:14:16.754910 17061 net.cpp:380] conv5_3 -> conv5_3
I0418 20:14:16.762377 17061 net.cpp:122] Setting up conv5_3
I0418 20:14:16.762409 17061 net.cpp:129] Top shape: 1 512 45 32 (737280)
I0418 20:14:16.762413 17061 net.cpp:137] Memory required for data: 855778828
I0418 20:14:16.762420 17061 layer_factory.hpp:77] Creating layer relu5_3
I0418 20:14:16.762428 17061 net.cpp:84] Creating Layer relu5_3
I0418 20:14:16.762432 17061 net.cpp:406] relu5_3 <- conv5_3
I0418 20:14:16.762439 17061 net.cpp:367] relu5_3 -> conv5_3 (in-place)
I0418 20:14:16.762656 17061 net.cpp:122] Setting up relu5_3
I0418 20:14:16.762667 17061 net.cpp:129] Top shape: 1 512 45 32 (737280)
I0418 20:14:16.762670 17061 net.cpp:137] Memory required for data: 858727948
I0418 20:14:16.762673 17061 layer_factory.hpp:77] Creating layer pool5
I0418 20:14:16.762682 17061 net.cpp:84] Creating Layer pool5
I0418 20:14:16.762686 17061 net.cpp:406] pool5 <- conv5_3
I0418 20:14:16.762693 17061 net.cpp:380] pool5 -> pool5
I0418 20:14:16.762737 17061 net.cpp:122] Setting up pool5
I0418 20:14:16.762745 17061 net.cpp:129] Top shape: 1 512 23 16 (188416)
I0418 20:14:16.762748 17061 net.cpp:137] Memory required for data: 859481612
I0418 20:14:16.762751 17061 layer_factory.hpp:77] Creating layer fc6
I0418 20:14:16.762761 17061 net.cpp:84] Creating Layer fc6
I0418 20:14:16.762765 17061 net.cpp:406] fc6 <- pool5
I0418 20:14:16.762770 17061 net.cpp:380] fc6 -> fc6
I0418 20:14:17.069381 17061 net.cpp:122] Setting up fc6
I0418 20:14:17.069417 17061 net.cpp:129] Top shape: 1 4096 17 10 (696320)
I0418 20:14:17.069422 17061 net.cpp:137] Memory required for data: 862266892
I0418 20:14:17.069432 17061 layer_factory.hpp:77] Creating layer relu6
I0418 20:14:17.069445 17061 net.cpp:84] Creating Layer relu6
I0418 20:14:17.069450 17061 net.cpp:406] relu6 <- fc6
I0418 20:14:17.069458 17061 net.cpp:367] relu6 -> fc6 (in-place)
I0418 20:14:17.069666 17061 net.cpp:122] Setting up relu6
I0418 20:14:17.069676 17061 net.cpp:129] Top shape: 1 4096 17 10 (696320)
I0418 20:14:17.069680 17061 net.cpp:137] Memory required for data: 865052172
I0418 20:14:17.069684 17061 layer_factory.hpp:77] Creating layer drop6
I0418 20:14:17.069699 17061 net.cpp:84] Creating Layer drop6
I0418 20:14:17.069702 17061 net.cpp:406] drop6 <- fc6
I0418 20:14:17.069710 17061 net.cpp:367] drop6 -> fc6 (in-place)
I0418 20:14:17.069742 17061 net.cpp:122] Setting up drop6
I0418 20:14:17.069754 17061 net.cpp:129] Top shape: 1 4096 17 10 (696320)
I0418 20:14:17.069757 17061 net.cpp:137] Memory required for data: 867837452
I0418 20:14:17.069761 17061 layer_factory.hpp:77] Creating layer fc7
I0418 20:14:17.069772 17061 net.cpp:84] Creating Layer fc7
I0418 20:14:17.069775 17061 net.cpp:406] fc7 <- fc6
I0418 20:14:17.069782 17061 net.cpp:380] fc7 -> fc7
I0418 20:14:17.121865 17061 net.cpp:122] Setting up fc7
I0418 20:14:17.121898 17061 net.cpp:129] Top shape: 1 4096 17 10 (696320)
I0418 20:14:17.121902 17061 net.cpp:137] Memory required for data: 870622732
I0418 20:14:17.121913 17061 layer_factory.hpp:77] Creating layer relu7
I0418 20:14:17.121927 17061 net.cpp:84] Creating Layer relu7
I0418 20:14:17.121932 17061 net.cpp:406] relu7 <- fc7
I0418 20:14:17.121940 17061 net.cpp:367] relu7 -> fc7 (in-place)
I0418 20:14:17.122148 17061 net.cpp:122] Setting up relu7
I0418 20:14:17.122157 17061 net.cpp:129] Top shape: 1 4096 17 10 (696320)
I0418 20:14:17.122160 17061 net.cpp:137] Memory required for data: 873408012
I0418 20:14:17.122184 17061 layer_factory.hpp:77] Creating layer drop7
I0418 20:14:17.122192 17061 net.cpp:84] Creating Layer drop7
I0418 20:14:17.122196 17061 net.cpp:406] drop7 <- fc7
I0418 20:14:17.122203 17061 net.cpp:367] drop7 -> fc7 (in-place)
I0418 20:14:17.122236 17061 net.cpp:122] Setting up drop7
I0418 20:14:17.122242 17061 net.cpp:129] Top shape: 1 4096 17 10 (696320)
I0418 20:14:17.122246 17061 net.cpp:137] Memory required for data: 876193292
I0418 20:14:17.122248 17061 layer_factory.hpp:77] Creating layer score_fr-new
I0418 20:14:17.122258 17061 net.cpp:84] Creating Layer score_fr-new
I0418 20:14:17.122262 17061 net.cpp:406] score_fr-new <- fc7
I0418 20:14:17.122268 17061 net.cpp:380] score_fr-new -> score_fr-new
I0418 20:14:17.124122 17061 net.cpp:122] Setting up score_fr-new
I0418 20:14:17.124135 17061 net.cpp:129] Top shape: 1 3 17 10 (510)
I0418 20:14:17.124138 17061 net.cpp:137] Memory required for data: 876195332
I0418 20:14:17.124146 17061 layer_factory.hpp:77] Creating layer upscore2-new
I0418 20:14:17.124161 17061 net.cpp:84] Creating Layer upscore2-new
I0418 20:14:17.124166 17061 net.cpp:406] upscore2-new <- score_fr-new
I0418 20:14:17.124172 17061 net.cpp:380] upscore2-new -> upscore2-new
I0418 20:14:17.124397 17061 net.cpp:122] Setting up upscore2-new
I0418 20:14:17.124405 17061 net.cpp:129] Top shape: 1 3 36 22 (2376)
I0418 20:14:17.124408 17061 net.cpp:137] Memory required for data: 876204836
I0418 20:14:17.124423 17061 layer_factory.hpp:77] Creating layer upscore2-new_upscore2-new_0_split
I0418 20:14:17.124431 17061 net.cpp:84] Creating Layer upscore2-new_upscore2-new_0_split
I0418 20:14:17.124434 17061 net.cpp:406] upscore2-new_upscore2-new_0_split <- upscore2-new
I0418 20:14:17.124441 17061 net.cpp:380] upscore2-new_upscore2-new_0_split -> upscore2-new_upscore2-new_0_split_0
I0418 20:14:17.124447 17061 net.cpp:380] upscore2-new_upscore2-new_0_split -> upscore2-new_upscore2-new_0_split_1
I0418 20:14:17.124481 17061 net.cpp:122] Setting up upscore2-new_upscore2-new_0_split
I0418 20:14:17.124493 17061 net.cpp:129] Top shape: 1 3 36 22 (2376)
I0418 20:14:17.124497 17061 net.cpp:129] Top shape: 1 3 36 22 (2376)
I0418 20:14:17.124500 17061 net.cpp:137] Memory required for data: 876223844
I0418 20:14:17.124505 17061 layer_factory.hpp:77] Creating layer score_pool4-new
I0418 20:14:17.124513 17061 net.cpp:84] Creating Layer score_pool4-new
I0418 20:14:17.124517 17061 net.cpp:406] score_pool4-new <- pool4_pool4_0_split_1
I0418 20:14:17.124524 17061 net.cpp:380] score_pool4-new -> score_pool4-new
I0418 20:14:17.125663 17061 net.cpp:122] Setting up score_pool4-new
I0418 20:14:17.125676 17061 net.cpp:129] Top shape: 1 3 45 32 (4320)
I0418 20:14:17.125680 17061 net.cpp:137] Memory required for data: 876241124
I0418 20:14:17.125686 17061 layer_factory.hpp:77] Creating layer score_pool4c
I0418 20:14:17.125696 17061 net.cpp:84] Creating Layer score_pool4c
I0418 20:14:17.125700 17061 net.cpp:406] score_pool4c <- score_pool4-new
I0418 20:14:17.125706 17061 net.cpp:406] score_pool4c <- upscore2-new_upscore2-new_0_split_0
I0418 20:14:17.125711 17061 net.cpp:380] score_pool4c -> score_pool4c
I0418 20:14:17.125758 17061 net.cpp:122] Setting up score_pool4c
I0418 20:14:17.125763 17061 net.cpp:129] Top shape: 1 3 36 22 (2376)
I0418 20:14:17.125766 17061 net.cpp:137] Memory required for data: 876250628
I0418 20:14:17.125769 17061 layer_factory.hpp:77] Creating layer fuse_pool4
I0418 20:14:17.125779 17061 net.cpp:84] Creating Layer fuse_pool4
I0418 20:14:17.125783 17061 net.cpp:406] fuse_pool4 <- upscore2-new_upscore2-new_0_split_1
I0418 20:14:17.125787 17061 net.cpp:406] fuse_pool4 <- score_pool4c
I0418 20:14:17.125792 17061 net.cpp:380] fuse_pool4 -> fuse_pool4
I0418 20:14:17.125818 17061 net.cpp:122] Setting up fuse_pool4
I0418 20:14:17.125823 17061 net.cpp:129] Top shape: 1 3 36 22 (2376)
I0418 20:14:17.125826 17061 net.cpp:137] Memory required for data: 876260132
I0418 20:14:17.125829 17061 layer_factory.hpp:77] Creating layer upscore_pool4-new
I0418 20:14:17.125838 17061 net.cpp:84] Creating Layer upscore_pool4-new
I0418 20:14:17.125840 17061 net.cpp:406] upscore_pool4-new <- fuse_pool4
I0418 20:14:17.125845 17061 net.cpp:380] upscore_pool4-new -> upscore_pool4-new
I0418 20:14:17.126044 17061 net.cpp:122] Setting up upscore_pool4-new
I0418 20:14:17.126051 17061 net.cpp:129] Top shape: 1 3 74 46 (10212)
I0418 20:14:17.126055 17061 net.cpp:137] Memory required for data: 876300980
I0418 20:14:17.126058 17061 layer_factory.hpp:77] Creating layer upscore_pool4-new_upscore_pool4-new_0_split
I0418 20:14:17.126065 17061 net.cpp:84] Creating Layer upscore_pool4-new_upscore_pool4-new_0_split
I0418 20:14:17.126068 17061 net.cpp:406] upscore_pool4-new_upscore_pool4-new_0_split <- upscore_pool4-new
I0418 20:14:17.126075 17061 net.cpp:380] upscore_pool4-new_upscore_pool4-new_0_split -> upscore_pool4-new_upscore_pool4-new_0_split_0
I0418 20:14:17.126080 17061 net.cpp:380] upscore_pool4-new_upscore_pool4-new_0_split -> upscore_pool4-new_upscore_pool4-new_0_split_1
I0418 20:14:17.126112 17061 net.cpp:122] Setting up upscore_pool4-new_upscore_pool4-new_0_split
I0418 20:14:17.126117 17061 net.cpp:129] Top shape: 1 3 74 46 (10212)
I0418 20:14:17.126121 17061 net.cpp:129] Top shape: 1 3 74 46 (10212)
I0418 20:14:17.126124 17061 net.cpp:137] Memory required for data: 876382676
I0418 20:14:17.126127 17061 layer_factory.hpp:77] Creating layer score_pool3-new
I0418 20:14:17.126137 17061 net.cpp:84] Creating Layer score_pool3-new
I0418 20:14:17.126140 17061 net.cpp:406] score_pool3-new <- pool3_pool3_0_split_1
I0418 20:14:17.126147 17061 net.cpp:380] score_pool3-new -> score_pool3-new
I0418 20:14:17.127367 17061 net.cpp:122] Setting up score_pool3-new
I0418 20:14:17.127382 17061 net.cpp:129] Top shape: 1 3 89 64 (17088)
I0418 20:14:17.127385 17061 net.cpp:137] Memory required for data: 876451028
I0418 20:14:17.127391 17061 layer_factory.hpp:77] Creating layer score_pool3c
I0418 20:14:17.127398 17061 net.cpp:84] Creating Layer score_pool3c
I0418 20:14:17.127403 17061 net.cpp:406] score_pool3c <- score_pool3-new
I0418 20:14:17.127408 17061 net.cpp:406] score_pool3c <- upscore_pool4-new_upscore_pool4-new_0_split_0
I0418 20:14:17.127414 17061 net.cpp:380] score_pool3c -> score_pool3c
I0418 20:14:17.127457 17061 net.cpp:122] Setting up score_pool3c
I0418 20:14:17.127462 17061 net.cpp:129] Top shape: 1 3 74 46 (10212)
I0418 20:14:17.127465 17061 net.cpp:137] Memory required for data: 876491876
I0418 20:14:17.127468 17061 layer_factory.hpp:77] Creating layer fuse_pool3
I0418 20:14:17.127475 17061 net.cpp:84] Creating Layer fuse_pool3
I0418 20:14:17.127480 17061 net.cpp:406] fuse_pool3 <- upscore_pool4-new_upscore_pool4-new_0_split_1
I0418 20:14:17.127483 17061 net.cpp:406] fuse_pool3 <- score_pool3c
I0418 20:14:17.127490 17061 net.cpp:380] fuse_pool3 -> fuse_pool3
I0418 20:14:17.127511 17061 net.cpp:122] Setting up fuse_pool3
I0418 20:14:17.127516 17061 net.cpp:129] Top shape: 1 3 74 46 (10212)
I0418 20:14:17.127519 17061 net.cpp:137] Memory required for data: 876532724
I0418 20:14:17.127521 17061 layer_factory.hpp:77] Creating layer upscore8-new
I0418 20:14:17.127530 17061 net.cpp:84] Creating Layer upscore8-new
I0418 20:14:17.127533 17061 net.cpp:406] upscore8-new <- fuse_pool3
I0418 20:14:17.127539 17061 net.cpp:380] upscore8-new -> upscore8-new
I0418 20:14:17.127744 17061 net.cpp:122] Setting up upscore8-new
I0418 20:14:17.127753 17061 net.cpp:129] Top shape: 1 3 600 376 (676800)
I0418 20:14:17.127755 17061 net.cpp:137] Memory required for data: 879239924
I0418 20:14:17.127760 17061 layer_factory.hpp:77] Creating layer upscore8_cropped
I0418 20:14:17.127766 17061 net.cpp:84] Creating Layer upscore8_cropped
I0418 20:14:17.127770 17061 net.cpp:406] upscore8_cropped <- upscore8-new
I0418 20:14:17.127776 17061 net.cpp:406] upscore8_cropped <- data_data_0_split_1
I0418 20:14:17.127782 17061 net.cpp:380] upscore8_cropped -> upscore8_cropped
I0418 20:14:17.127804 17061 net.cpp:122] Setting up upscore8_cropped
I0418 20:14:17.127810 17061 net.cpp:129] Top shape: 1 3 512 310 (476160)
I0418 20:14:17.127812 17061 net.cpp:137] Memory required for data: 881144564
I0418 20:14:17.127815 17061 layer_factory.hpp:77] Creating layer score
I0418 20:14:17.127826 17061 net.cpp:84] Creating Layer score
I0418 20:14:17.127830 17061 net.cpp:406] score <- upscore8_cropped
I0418 20:14:17.127835 17061 net.cpp:380] score -> score
I0418 20:14:17.129848 17061 net.cpp:122] Setting up score
I0418 20:14:17.129861 17061 net.cpp:129] Top shape: 1 3 512 310 (476160)
I0418 20:14:17.129864 17061 net.cpp:137] Memory required for data: 883049204
I0418 20:14:17.129871 17061 layer_factory.hpp:77] Creating layer score_score_0_split
I0418 20:14:17.129878 17061 net.cpp:84] Creating Layer score_score_0_split
I0418 20:14:17.129882 17061 net.cpp:406] score_score_0_split <- score
I0418 20:14:17.129889 17061 net.cpp:380] score_score_0_split -> score_score_0_split_0
I0418 20:14:17.129895 17061 net.cpp:380] score_score_0_split -> score_score_0_split_1
I0418 20:14:17.129952 17061 net.cpp:122] Setting up score_score_0_split
I0418 20:14:17.129958 17061 net.cpp:129] Top shape: 1 3 512 310 (476160)
I0418 20:14:17.129962 17061 net.cpp:129] Top shape: 1 3 512 310 (476160)
I0418 20:14:17.129966 17061 net.cpp:137] Memory required for data: 886858484
I0418 20:14:17.129968 17061 layer_factory.hpp:77] Creating layer prob
I0418 20:14:17.129974 17061 net.cpp:84] Creating Layer prob
I0418 20:14:17.129978 17061 net.cpp:406] prob <- score_score_0_split_0
I0418 20:14:17.129984 17061 net.cpp:380] prob -> prob
I0418 20:14:17.130219 17061 net.cpp:122] Setting up prob
I0418 20:14:17.130231 17061 net.cpp:129] Top shape: 1 3 512 310 (476160)
I0418 20:14:17.130234 17061 net.cpp:137] Memory required for data: 888763124
I0418 20:14:17.130237 17061 layer_factory.hpp:77] Creating layer saliency
I0418 20:14:17.130250 17061 net.cpp:84] Creating Layer saliency
I0418 20:14:17.130254 17061 net.cpp:406] saliency <- prob
I0418 20:14:17.130262 17061 net.cpp:380] saliency -> saliency
I0418 20:14:17.132290 17061 net.cpp:122] Setting up saliency
I0418 20:14:17.132305 17061 net.cpp:129] Top shape: 1 3 512 310 (476160)
I0418 20:14:17.132308 17061 net.cpp:137] Memory required for data: 890667764
I0418 20:14:17.132316 17061 layer_factory.hpp:77] Creating layer silence_saliency
I0418 20:14:17.132326 17061 net.cpp:84] Creating Layer silence_saliency
I0418 20:14:17.132331 17061 net.cpp:406] silence_saliency <- saliency
I0418 20:14:17.132338 17061 net.cpp:122] Setting up silence_saliency
I0418 20:14:17.132340 17061 net.cpp:137] Memory required for data: 890667764
I0418 20:14:17.132344 17061 layer_factory.hpp:77] Creating layer crop
I0418 20:14:17.132628 17061 net.cpp:84] Creating Layer crop
I0418 20:14:17.132639 17061 net.cpp:406] crop <- label_data_1_split_0
I0418 20:14:17.132644 17061 net.cpp:406] crop <- data_data_0_split_2
I0418 20:14:17.132649 17061 net.cpp:406] crop <- crop_margin
I0418 20:14:17.132653 17061 net.cpp:406] crop <- crop_prob
I0418 20:14:17.132658 17061 net.cpp:406] crop <- crop_sample_batch
I0418 20:14:17.132663 17061 net.cpp:380] crop -> data-R
I0418 20:14:17.132671 17061 net.cpp:380] crop -> crop_info
I0418 20:14:17.139567 17061 net.cpp:122] Setting up crop
I0418 20:14:17.139582 17061 net.cpp:129] Top shape: 1 3 512 310 (476160)
I0418 20:14:17.139586 17061 net.cpp:129] Top shape: 1 2 4 (8)
I0418 20:14:17.139590 17061 net.cpp:137] Memory required for data: 892572436
I0418 20:14:17.139592 17061 layer_factory.hpp:77] Creating layer data-R_crop_0_split
I0418 20:14:17.139601 17061 net.cpp:84] Creating Layer data-R_crop_0_split
I0418 20:14:17.139605 17061 net.cpp:406] data-R_crop_0_split <- data-R
I0418 20:14:17.139611 17061 net.cpp:380] data-R_crop_0_split -> data-R_crop_0_split_0
I0418 20:14:17.139616 17061 net.cpp:380] data-R_crop_0_split -> data-R_crop_0_split_1
I0418 20:14:17.139670 17061 net.cpp:122] Setting up data-R_crop_0_split
I0418 20:14:17.139675 17061 net.cpp:129] Top shape: 1 3 512 310 (476160)
I0418 20:14:17.139679 17061 net.cpp:129] Top shape: 1 3 512 310 (476160)
I0418 20:14:17.139681 17061 net.cpp:137] Memory required for data: 896381716
I0418 20:14:17.139684 17061 layer_factory.hpp:77] Creating layer conv1_1-R
I0418 20:14:17.139693 17061 net.cpp:84] Creating Layer conv1_1-R
I0418 20:14:17.139696 17061 net.cpp:406] conv1_1-R <- data-R_crop_0_split_0
I0418 20:14:17.139701 17061 net.cpp:380] conv1_1-R -> conv1_1-R
I0418 20:14:17.142745 17061 net.cpp:122] Setting up conv1_1-R
I0418 20:14:17.142760 17061 net.cpp:129] Top shape: 1 64 710 508 (23083520)
I0418 20:14:17.142762 17061 net.cpp:137] Memory required for data: 988715796
I0418 20:14:17.142769 17061 layer_factory.hpp:77] Creating layer relu1_1-R
I0418 20:14:17.142776 17061 net.cpp:84] Creating Layer relu1_1-R
I0418 20:14:17.142779 17061 net.cpp:406] relu1_1-R <- conv1_1-R
I0418 20:14:17.142784 17061 net.cpp:367] relu1_1-R -> conv1_1-R (in-place)
I0418 20:14:17.142985 17061 net.cpp:122] Setting up relu1_1-R
I0418 20:14:17.142995 17061 net.cpp:129] Top shape: 1 64 710 508 (23083520)
I0418 20:14:17.142999 17061 net.cpp:137] Memory required for data: 1081049876
I0418 20:14:17.143002 17061 layer_factory.hpp:77] Creating layer conv1_2-R
I0418 20:14:17.143018 17061 net.cpp:84] Creating Layer conv1_2-R
I0418 20:14:17.143023 17061 net.cpp:406] conv1_2-R <- conv1_1-R
I0418 20:14:17.143028 17061 net.cpp:380] conv1_2-R -> conv1_2-R
I0418 20:14:17.145709 17061 net.cpp:122] Setting up conv1_2-R
I0418 20:14:17.145723 17061 net.cpp:129] Top shape: 1 64 710 508 (23083520)
I0418 20:14:17.145726 17061 net.cpp:137] Memory required for data: 1173383956
I0418 20:14:17.145733 17061 layer_factory.hpp:77] Creating layer relu1_2-R
I0418 20:14:17.145738 17061 net.cpp:84] Creating Layer relu1_2-R
I0418 20:14:17.145742 17061 net.cpp:406] relu1_2-R <- conv1_2-R
I0418 20:14:17.145746 17061 net.cpp:367] relu1_2-R -> conv1_2-R (in-place)
I0418 20:14:17.145932 17061 net.cpp:122] Setting up relu1_2-R
I0418 20:14:17.145941 17061 net.cpp:129] Top shape: 1 64 710 508 (23083520)
I0418 20:14:17.145946 17061 net.cpp:137] Memory required for data: 1265718036
I0418 20:14:17.145964 17061 layer_factory.hpp:77] Creating layer pool1-R
I0418 20:14:17.145972 17061 net.cpp:84] Creating Layer pool1-R
I0418 20:14:17.145974 17061 net.cpp:406] pool1-R <- conv1_2-R
I0418 20:14:17.145980 17061 net.cpp:380] pool1-R -> pool1-R
I0418 20:14:17.146025 17061 net.cpp:122] Setting up pool1-R
I0418 20:14:17.146033 17061 net.cpp:129] Top shape: 1 64 355 254 (5770880)
I0418 20:14:17.146035 17061 net.cpp:137] Memory required for data: 1288801556
I0418 20:14:17.146039 17061 layer_factory.hpp:77] Creating layer conv2_1-R
I0418 20:14:17.146046 17061 net.cpp:84] Creating Layer conv2_1-R
I0418 20:14:17.146049 17061 net.cpp:406] conv2_1-R <- pool1-R
I0418 20:14:17.146054 17061 net.cpp:380] conv2_1-R -> conv2_1-R
I0418 20:14:17.147608 17061 net.cpp:122] Setting up conv2_1-R
I0418 20:14:17.147621 17061 net.cpp:129] Top shape: 1 128 355 254 (11541760)
I0418 20:14:17.147625 17061 net.cpp:137] Memory required for data: 1334968596
I0418 20:14:17.147631 17061 layer_factory.hpp:77] Creating layer relu2_1-R
I0418 20:14:17.147639 17061 net.cpp:84] Creating Layer relu2_1-R
I0418 20:14:17.147641 17061 net.cpp:406] relu2_1-R <- conv2_1-R
I0418 20:14:17.147646 17061 net.cpp:367] relu2_1-R -> conv2_1-R (in-place)
I0418 20:14:17.147826 17061 net.cpp:122] Setting up relu2_1-R
I0418 20:14:17.147836 17061 net.cpp:129] Top shape: 1 128 355 254 (11541760)
I0418 20:14:17.147840 17061 net.cpp:137] Memory required for data: 1381135636
I0418 20:14:17.147843 17061 layer_factory.hpp:77] Creating layer conv2_2-R
I0418 20:14:17.147867 17061 net.cpp:84] Creating Layer conv2_2-R
I0418 20:14:17.147871 17061 net.cpp:406] conv2_2-R <- conv2_1-R
I0418 20:14:17.147876 17061 net.cpp:380] conv2_2-R -> conv2_2-R
I0418 20:14:17.151443 17061 net.cpp:122] Setting up conv2_2-R
I0418 20:14:17.151474 17061 net.cpp:129] Top shape: 1 128 355 254 (11541760)
I0418 20:14:17.151479 17061 net.cpp:137] Memory required for data: 1427302676
I0418 20:14:17.151485 17061 layer_factory.hpp:77] Creating layer relu2_2-R
I0418 20:14:17.151491 17061 net.cpp:84] Creating Layer relu2_2-R
I0418 20:14:17.151495 17061 net.cpp:406] relu2_2-R <- conv2_2-R
I0418 20:14:17.151501 17061 net.cpp:367] relu2_2-R -> conv2_2-R (in-place)
I0418 20:14:17.152133 17061 net.cpp:122] Setting up relu2_2-R
I0418 20:14:17.152145 17061 net.cpp:129] Top shape: 1 128 355 254 (11541760)
I0418 20:14:17.152149 17061 net.cpp:137] Memory required for data: 1473469716
I0418 20:14:17.152153 17061 layer_factory.hpp:77] Creating layer pool2-R
I0418 20:14:17.152159 17061 net.cpp:84] Creating Layer pool2-R
I0418 20:14:17.152163 17061 net.cpp:406] pool2-R <- conv2_2-R
I0418 20:14:17.152168 17061 net.cpp:380] pool2-R -> pool2-R
I0418 20:14:17.152228 17061 net.cpp:122] Setting up pool2-R
I0418 20:14:17.152235 17061 net.cpp:129] Top shape: 1 128 178 127 (2893568)
I0418 20:14:17.152237 17061 net.cpp:137] Memory required for data: 1485043988
I0418 20:14:17.152240 17061 layer_factory.hpp:77] Creating layer conv3_1-R
I0418 20:14:17.152248 17061 net.cpp:84] Creating Layer conv3_1-R
I0418 20:14:17.152251 17061 net.cpp:406] conv3_1-R <- pool2-R
I0418 20:14:17.152256 17061 net.cpp:380] conv3_1-R -> conv3_1-R
I0418 20:14:17.155283 17061 net.cpp:122] Setting up conv3_1-R
I0418 20:14:17.155297 17061 net.cpp:129] Top shape: 1 256 178 127 (5787136)
I0418 20:14:17.155300 17061 net.cpp:137] Memory required for data: 1508192532
I0418 20:14:17.155308 17061 layer_factory.hpp:77] Creating layer relu3_1-R
I0418 20:14:17.155313 17061 net.cpp:84] Creating Layer relu3_1-R
I0418 20:14:17.155316 17061 net.cpp:406] relu3_1-R <- conv3_1-R
I0418 20:14:17.155321 17061 net.cpp:367] relu3_1-R -> conv3_1-R (in-place)
I0418 20:14:17.155506 17061 net.cpp:122] Setting up relu3_1-R
I0418 20:14:17.155516 17061 net.cpp:129] Top shape: 1 256 178 127 (5787136)
I0418 20:14:17.155535 17061 net.cpp:137] Memory required for data: 1531341076
I0418 20:14:17.155539 17061 layer_factory.hpp:77] Creating layer conv3_2-R
I0418 20:14:17.155546 17061 net.cpp:84] Creating Layer conv3_2-R
I0418 20:14:17.155550 17061 net.cpp:406] conv3_2-R <- conv3_1-R
I0418 20:14:17.155555 17061 net.cpp:380] conv3_2-R -> conv3_2-R
I0418 20:14:17.158896 17061 net.cpp:122] Setting up conv3_2-R
I0418 20:14:17.158910 17061 net.cpp:129] Top shape: 1 256 178 127 (5787136)
I0418 20:14:17.158912 17061 net.cpp:137] Memory required for data: 1554489620
I0418 20:14:17.158920 17061 layer_factory.hpp:77] Creating layer relu3_2-R
I0418 20:14:17.158926 17061 net.cpp:84] Creating Layer relu3_2-R
I0418 20:14:17.158929 17061 net.cpp:406] relu3_2-R <- conv3_2-R
I0418 20:14:17.158933 17061 net.cpp:367] relu3_2-R -> conv3_2-R (in-place)
I0418 20:14:17.159119 17061 net.cpp:122] Setting up relu3_2-R
I0418 20:14:17.159128 17061 net.cpp:129] Top shape: 1 256 178 127 (5787136)
I0418 20:14:17.159147 17061 net.cpp:137] Memory required for data: 1577638164
I0418 20:14:17.159152 17061 layer_factory.hpp:77] Creating layer conv3_3-R
I0418 20:14:17.159159 17061 net.cpp:84] Creating Layer conv3_3-R
I0418 20:14:17.159163 17061 net.cpp:406] conv3_3-R <- conv3_2-R
I0418 20:14:17.159168 17061 net.cpp:380] conv3_3-R -> conv3_3-R
I0418 20:14:17.162562 17061 net.cpp:122] Setting up conv3_3-R
I0418 20:14:17.162576 17061 net.cpp:129] Top shape: 1 256 178 127 (5787136)
I0418 20:14:17.162580 17061 net.cpp:137] Memory required for data: 1600786708
I0418 20:14:17.162586 17061 layer_factory.hpp:77] Creating layer relu3_3-R
I0418 20:14:17.162592 17061 net.cpp:84] Creating Layer relu3_3-R
I0418 20:14:17.162595 17061 net.cpp:406] relu3_3-R <- conv3_3-R
I0418 20:14:17.162600 17061 net.cpp:367] relu3_3-R -> conv3_3-R (in-place)
I0418 20:14:17.162853 17061 net.cpp:122] Setting up relu3_3-R
I0418 20:14:17.162866 17061 net.cpp:129] Top shape: 1 256 178 127 (5787136)
I0418 20:14:17.162871 17061 net.cpp:137] Memory required for data: 1623935252
I0418 20:14:17.162875 17061 layer_factory.hpp:77] Creating layer pool3-R
I0418 20:14:17.162883 17061 net.cpp:84] Creating Layer pool3-R
I0418 20:14:17.162889 17061 net.cpp:406] pool3-R <- conv3_3-R
I0418 20:14:17.162895 17061 net.cpp:380] pool3-R -> pool3-R
I0418 20:14:17.162955 17061 net.cpp:122] Setting up pool3-R
I0418 20:14:17.162964 17061 net.cpp:129] Top shape: 1 256 89 64 (1458176)
I0418 20:14:17.162968 17061 net.cpp:137] Memory required for data: 1629767956
I0418 20:14:17.162973 17061 layer_factory.hpp:77] Creating layer pool3-R_pool3-R_0_split
I0418 20:14:17.162981 17061 net.cpp:84] Creating Layer pool3-R_pool3-R_0_split
I0418 20:14:17.162984 17061 net.cpp:406] pool3-R_pool3-R_0_split <- pool3-R
I0418 20:14:17.162992 17061 net.cpp:380] pool3-R_pool3-R_0_split -> pool3-R_pool3-R_0_split_0
I0418 20:14:17.162999 17061 net.cpp:380] pool3-R_pool3-R_0_split -> pool3-R_pool3-R_0_split_1
I0418 20:14:17.163045 17061 net.cpp:122] Setting up pool3-R_pool3-R_0_split
I0418 20:14:17.163054 17061 net.cpp:129] Top shape: 1 256 89 64 (1458176)
I0418 20:14:17.163059 17061 net.cpp:129] Top shape: 1 256 89 64 (1458176)
I0418 20:14:17.163064 17061 net.cpp:137] Memory required for data: 1641433364
I0418 20:14:17.163069 17061 layer_factory.hpp:77] Creating layer conv4_1-R
I0418 20:14:17.163079 17061 net.cpp:84] Creating Layer conv4_1-R
I0418 20:14:17.163082 17061 net.cpp:406] conv4_1-R <- pool3-R_pool3-R_0_split_0
I0418 20:14:17.163090 17061 net.cpp:380] conv4_1-R -> conv4_1-R
I0418 20:14:17.169334 17061 net.cpp:122] Setting up conv4_1-R
I0418 20:14:17.169354 17061 net.cpp:129] Top shape: 1 512 89 64 (2916352)
I0418 20:14:17.169359 17061 net.cpp:137] Memory required for data: 1653098772
I0418 20:14:17.169368 17061 layer_factory.hpp:77] Creating layer relu4_1-R
I0418 20:14:17.169378 17061 net.cpp:84] Creating Layer relu4_1-R
I0418 20:14:17.169383 17061 net.cpp:406] relu4_1-R <- conv4_1-R
I0418 20:14:17.169390 17061 net.cpp:367] relu4_1-R -> conv4_1-R (in-place)
I0418 20:14:17.169631 17061 net.cpp:122] Setting up relu4_1-R
I0418 20:14:17.169642 17061 net.cpp:129] Top shape: 1 512 89 64 (2916352)
I0418 20:14:17.169646 17061 net.cpp:137] Memory required for data: 1664764180
I0418 20:14:17.169651 17061 layer_factory.hpp:77] Creating layer conv4_2-R
I0418 20:14:17.169661 17061 net.cpp:84] Creating Layer conv4_2-R
I0418 20:14:17.169667 17061 net.cpp:406] conv4_2-R <- conv4_1-R
I0418 20:14:17.169675 17061 net.cpp:380] conv4_2-R -> conv4_2-R
I0418 20:14:17.178027 17061 net.cpp:122] Setting up conv4_2-R
I0418 20:14:17.178045 17061 net.cpp:129] Top shape: 1 512 89 64 (2916352)
I0418 20:14:17.178048 17061 net.cpp:137] Memory required for data: 1676429588
I0418 20:14:17.178055 17061 layer_factory.hpp:77] Creating layer relu4_2-R
I0418 20:14:17.178062 17061 net.cpp:84] Creating Layer relu4_2-R
I0418 20:14:17.178066 17061 net.cpp:406] relu4_2-R <- conv4_2-R
I0418 20:14:17.178072 17061 net.cpp:367] relu4_2-R -> conv4_2-R (in-place)
I0418 20:14:17.178297 17061 net.cpp:122] Setting up relu4_2-R
I0418 20:14:17.178308 17061 net.cpp:129] Top shape: 1 512 89 64 (2916352)
I0418 20:14:17.178311 17061 net.cpp:137] Memory required for data: 1688094996
I0418 20:14:17.178315 17061 layer_factory.hpp:77] Creating layer conv4_3-R
I0418 20:14:17.178325 17061 net.cpp:84] Creating Layer conv4_3-R
I0418 20:14:17.178329 17061 net.cpp:406] conv4_3-R <- conv4_2-R
I0418 20:14:17.178335 17061 net.cpp:380] conv4_3-R -> conv4_3-R
I0418 20:14:17.185945 17061 net.cpp:122] Setting up conv4_3-R
I0418 20:14:17.185962 17061 net.cpp:129] Top shape: 1 512 89 64 (2916352)
I0418 20:14:17.185966 17061 net.cpp:137] Memory required for data: 1699760404
I0418 20:14:17.185973 17061 layer_factory.hpp:77] Creating layer relu4_3-R
I0418 20:14:17.185981 17061 net.cpp:84] Creating Layer relu4_3-R
I0418 20:14:17.185984 17061 net.cpp:406] relu4_3-R <- conv4_3-R
I0418 20:14:17.185989 17061 net.cpp:367] relu4_3-R -> conv4_3-R (in-place)
I0418 20:14:17.186674 17061 net.cpp:122] Setting up relu4_3-R
I0418 20:14:17.186688 17061 net.cpp:129] Top shape: 1 512 89 64 (2916352)
I0418 20:14:17.186691 17061 net.cpp:137] Memory required for data: 1711425812
I0418 20:14:17.186695 17061 layer_factory.hpp:77] Creating layer pool4-R
I0418 20:14:17.186703 17061 net.cpp:84] Creating Layer pool4-R
I0418 20:14:17.186707 17061 net.cpp:406] pool4-R <- conv4_3-R
I0418 20:14:17.186713 17061 net.cpp:380] pool4-R -> pool4-R
I0418 20:14:17.186776 17061 net.cpp:122] Setting up pool4-R
I0418 20:14:17.186781 17061 net.cpp:129] Top shape: 1 512 45 32 (737280)
I0418 20:14:17.186784 17061 net.cpp:137] Memory required for data: 1714374932
I0418 20:14:17.186787 17061 layer_factory.hpp:77] Creating layer pool4-R_pool4-R_0_split
I0418 20:14:17.186794 17061 net.cpp:84] Creating Layer pool4-R_pool4-R_0_split
I0418 20:14:17.186796 17061 net.cpp:406] pool4-R_pool4-R_0_split <- pool4-R
I0418 20:14:17.186801 17061 net.cpp:380] pool4-R_pool4-R_0_split -> pool4-R_pool4-R_0_split_0
I0418 20:14:17.186807 17061 net.cpp:380] pool4-R_pool4-R_0_split -> pool4-R_pool4-R_0_split_1
I0418 20:14:17.186841 17061 net.cpp:122] Setting up pool4-R_pool4-R_0_split
I0418 20:14:17.186846 17061 net.cpp:129] Top shape: 1 512 45 32 (737280)
I0418 20:14:17.186849 17061 net.cpp:129] Top shape: 1 512 45 32 (737280)
I0418 20:14:17.186852 17061 net.cpp:137] Memory required for data: 1720273172
I0418 20:14:17.186856 17061 layer_factory.hpp:77] Creating layer conv5_1-R
I0418 20:14:17.186863 17061 net.cpp:84] Creating Layer conv5_1-R
I0418 20:14:17.186866 17061 net.cpp:406] conv5_1-R <- pool4-R_pool4-R_0_split_0
I0418 20:14:17.186872 17061 net.cpp:380] conv5_1-R -> conv5_1-R
I0418 20:14:17.194480 17061 net.cpp:122] Setting up conv5_1-R
I0418 20:14:17.194499 17061 net.cpp:129] Top shape: 1 512 45 32 (737280)
I0418 20:14:17.194501 17061 net.cpp:137] Memory required for data: 1723222292
I0418 20:14:17.194525 17061 layer_factory.hpp:77] Creating layer relu5_1-R
I0418 20:14:17.194533 17061 net.cpp:84] Creating Layer relu5_1-R
I0418 20:14:17.194538 17061 net.cpp:406] relu5_1-R <- conv5_1-R
I0418 20:14:17.194545 17061 net.cpp:367] relu5_1-R -> conv5_1-R (in-place)
I0418 20:14:17.194763 17061 net.cpp:122] Setting up relu5_1-R
I0418 20:14:17.194773 17061 net.cpp:129] Top shape: 1 512 45 32 (737280)
I0418 20:14:17.194777 17061 net.cpp:137] Memory required for data: 1726171412
I0418 20:14:17.194780 17061 layer_factory.hpp:77] Creating layer conv5_2-R
I0418 20:14:17.194790 17061 net.cpp:84] Creating Layer conv5_2-R
I0418 20:14:17.194794 17061 net.cpp:406] conv5_2-R <- conv5_1-R
I0418 20:14:17.194803 17061 net.cpp:380] conv5_2-R -> conv5_2-R
I0418 20:14:17.202818 17061 net.cpp:122] Setting up conv5_2-R
I0418 20:14:17.202836 17061 net.cpp:129] Top shape: 1 512 45 32 (737280)
I0418 20:14:17.202838 17061 net.cpp:137] Memory required for data: 1729120532
I0418 20:14:17.202845 17061 layer_factory.hpp:77] Creating layer relu5_2-R
I0418 20:14:17.202852 17061 net.cpp:84] Creating Layer relu5_2-R
I0418 20:14:17.202857 17061 net.cpp:406] relu5_2-R <- conv5_2-R
I0418 20:14:17.202862 17061 net.cpp:367] relu5_2-R -> conv5_2-R (in-place)
I0418 20:14:17.203084 17061 net.cpp:122] Setting up relu5_2-R
I0418 20:14:17.203095 17061 net.cpp:129] Top shape: 1 512 45 32 (737280)
I0418 20:14:17.203099 17061 net.cpp:137] Memory required for data: 1732069652
I0418 20:14:17.203101 17061 layer_factory.hpp:77] Creating layer conv5_3-R
I0418 20:14:17.203112 17061 net.cpp:84] Creating Layer conv5_3-R
I0418 20:14:17.203115 17061 net.cpp:406] conv5_3-R <- conv5_2-R
I0418 20:14:17.203124 17061 net.cpp:380] conv5_3-R -> conv5_3-R
I0418 20:14:17.210904 17061 net.cpp:122] Setting up conv5_3-R
I0418 20:14:17.210921 17061 net.cpp:129] Top shape: 1 512 45 32 (737280)
I0418 20:14:17.210942 17061 net.cpp:137] Memory required for data: 1735018772
I0418 20:14:17.210950 17061 layer_factory.hpp:77] Creating layer relu5_3-R
I0418 20:14:17.210958 17061 net.cpp:84] Creating Layer relu5_3-R
I0418 20:14:17.210963 17061 net.cpp:406] relu5_3-R <- conv5_3-R
I0418 20:14:17.210969 17061 net.cpp:367] relu5_3-R -> conv5_3-R (in-place)
I0418 20:14:17.211182 17061 net.cpp:122] Setting up relu5_3-R
I0418 20:14:17.211192 17061 net.cpp:129] Top shape: 1 512 45 32 (737280)
I0418 20:14:17.211195 17061 net.cpp:137] Memory required for data: 1737967892
I0418 20:14:17.211199 17061 layer_factory.hpp:77] Creating layer pool5-R
I0418 20:14:17.211208 17061 net.cpp:84] Creating Layer pool5-R
I0418 20:14:17.211212 17061 net.cpp:406] pool5-R <- conv5_3-R
I0418 20:14:17.211220 17061 net.cpp:380] pool5-R -> pool5-R
I0418 20:14:17.211273 17061 net.cpp:122] Setting up pool5-R
I0418 20:14:17.211278 17061 net.cpp:129] Top shape: 1 512 23 16 (188416)
I0418 20:14:17.211282 17061 net.cpp:137] Memory required for data: 1738721556
I0418 20:14:17.211284 17061 layer_factory.hpp:77] Creating layer fc6-R
I0418 20:14:17.211295 17061 net.cpp:84] Creating Layer fc6-R
I0418 20:14:17.211299 17061 net.cpp:406] fc6-R <- pool5-R
I0418 20:14:17.211305 17061 net.cpp:380] fc6-R -> fc6-R
I0418 20:14:17.516732 17061 net.cpp:122] Setting up fc6-R
I0418 20:14:17.516768 17061 net.cpp:129] Top shape: 1 4096 17 10 (696320)
I0418 20:14:17.516773 17061 net.cpp:137] Memory required for data: 1741506836
I0418 20:14:17.516783 17061 layer_factory.hpp:77] Creating layer relu6-R
I0418 20:14:17.516794 17061 net.cpp:84] Creating Layer relu6-R
I0418 20:14:17.516800 17061 net.cpp:406] relu6-R <- fc6-R
I0418 20:14:17.516808 17061 net.cpp:367] relu6-R -> fc6-R (in-place)
I0418 20:14:17.517014 17061 net.cpp:122] Setting up relu6-R
I0418 20:14:17.517024 17061 net.cpp:129] Top shape: 1 4096 17 10 (696320)
I0418 20:14:17.517029 17061 net.cpp:137] Memory required for data: 1744292116
I0418 20:14:17.517031 17061 layer_factory.hpp:77] Creating layer drop6-R
I0418 20:14:17.517040 17061 net.cpp:84] Creating Layer drop6-R
I0418 20:14:17.517043 17061 net.cpp:406] drop6-R <- fc6-R
I0418 20:14:17.517050 17061 net.cpp:367] drop6-R -> fc6-R (in-place)
I0418 20:14:17.517081 17061 net.cpp:122] Setting up drop6-R
I0418 20:14:17.517087 17061 net.cpp:129] Top shape: 1 4096 17 10 (696320)
I0418 20:14:17.517091 17061 net.cpp:137] Memory required for data: 1747077396
I0418 20:14:17.517093 17061 layer_factory.hpp:77] Creating layer fc7-R
I0418 20:14:17.517103 17061 net.cpp:84] Creating Layer fc7-R
I0418 20:14:17.517107 17061 net.cpp:406] fc7-R <- fc6-R
I0418 20:14:17.517114 17061 net.cpp:380] fc7-R -> fc7-R
I0418 20:14:17.569378 17061 net.cpp:122] Setting up fc7-R
I0418 20:14:17.569427 17061 net.cpp:129] Top shape: 1 4096 17 10 (696320)
I0418 20:14:17.569432 17061 net.cpp:137] Memory required for data: 1749862676
I0418 20:14:17.569447 17061 layer_factory.hpp:77] Creating layer relu7-R
I0418 20:14:17.569463 17061 net.cpp:84] Creating Layer relu7-R
I0418 20:14:17.569468 17061 net.cpp:406] relu7-R <- fc7-R
I0418 20:14:17.569475 17061 net.cpp:367] relu7-R -> fc7-R (in-place)
I0418 20:14:17.569732 17061 net.cpp:122] Setting up relu7-R
I0418 20:14:17.569746 17061 net.cpp:129] Top shape: 1 4096 17 10 (696320)
I0418 20:14:17.569748 17061 net.cpp:137] Memory required for data: 1752647956
I0418 20:14:17.569752 17061 layer_factory.hpp:77] Creating layer drop7-R
I0418 20:14:17.569761 17061 net.cpp:84] Creating Layer drop7-R
I0418 20:14:17.569763 17061 net.cpp:406] drop7-R <- fc7-R
I0418 20:14:17.569768 17061 net.cpp:367] drop7-R -> fc7-R (in-place)
I0418 20:14:17.569808 17061 net.cpp:122] Setting up drop7-R
I0418 20:14:17.569820 17061 net.cpp:129] Top shape: 1 4096 17 10 (696320)
I0418 20:14:17.569824 17061 net.cpp:137] Memory required for data: 1755433236
I0418 20:14:17.569828 17061 layer_factory.hpp:77] Creating layer score_fr-new-R
I0418 20:14:17.569839 17061 net.cpp:84] Creating Layer score_fr-new-R
I0418 20:14:17.569841 17061 net.cpp:406] score_fr-new-R <- fc7-R
I0418 20:14:17.569850 17061 net.cpp:380] score_fr-new-R -> score_fr-new-R
I0418 20:14:17.571534 17061 net.cpp:122] Setting up score_fr-new-R
I0418 20:14:17.571568 17061 net.cpp:129] Top shape: 1 3 17 10 (510)
I0418 20:14:17.571571 17061 net.cpp:137] Memory required for data: 1755435276
I0418 20:14:17.571578 17061 layer_factory.hpp:77] Creating layer upscore2-new-R
I0418 20:14:17.571593 17061 net.cpp:84] Creating Layer upscore2-new-R
I0418 20:14:17.571597 17061 net.cpp:406] upscore2-new-R <- score_fr-new-R
I0418 20:14:17.571604 17061 net.cpp:380] upscore2-new-R -> upscore2-new-R
I0418 20:14:17.571866 17061 net.cpp:122] Setting up upscore2-new-R
I0418 20:14:17.571876 17061 net.cpp:129] Top shape: 1 3 36 22 (2376)
I0418 20:14:17.571878 17061 net.cpp:137] Memory required for data: 1755444780
I0418 20:14:17.571883 17061 layer_factory.hpp:77] Creating layer upscore2-new-R_upscore2-new-R_0_split
I0418 20:14:17.571889 17061 net.cpp:84] Creating Layer upscore2-new-R_upscore2-new-R_0_split
I0418 20:14:17.571893 17061 net.cpp:406] upscore2-new-R_upscore2-new-R_0_split <- upscore2-new-R
I0418 20:14:17.571900 17061 net.cpp:380] upscore2-new-R_upscore2-new-R_0_split -> upscore2-new-R_upscore2-new-R_0_split_0
I0418 20:14:17.571907 17061 net.cpp:380] upscore2-new-R_upscore2-new-R_0_split -> upscore2-new-R_upscore2-new-R_0_split_1
I0418 20:14:17.571952 17061 net.cpp:122] Setting up upscore2-new-R_upscore2-new-R_0_split
I0418 20:14:17.571959 17061 net.cpp:129] Top shape: 1 3 36 22 (2376)
I0418 20:14:17.571962 17061 net.cpp:129] Top shape: 1 3 36 22 (2376)
I0418 20:14:17.571965 17061 net.cpp:137] Memory required for data: 1755463788
I0418 20:14:17.571969 17061 layer_factory.hpp:77] Creating layer score_pool4-new-R
I0418 20:14:17.571979 17061 net.cpp:84] Creating Layer score_pool4-new-R
I0418 20:14:17.571982 17061 net.cpp:406] score_pool4-new-R <- pool4-R_pool4-R_0_split_1
I0418 20:14:17.571988 17061 net.cpp:380] score_pool4-new-R -> score_pool4-new-R
I0418 20:14:17.573247 17061 net.cpp:122] Setting up score_pool4-new-R
I0418 20:14:17.573259 17061 net.cpp:129] Top shape: 1 3 45 32 (4320)
I0418 20:14:17.573264 17061 net.cpp:137] Memory required for data: 1755481068
I0418 20:14:17.573271 17061 layer_factory.hpp:77] Creating layer score_pool4c-R
I0418 20:14:17.573278 17061 net.cpp:84] Creating Layer score_pool4c-R
I0418 20:14:17.573282 17061 net.cpp:406] score_pool4c-R <- score_pool4-new-R
I0418 20:14:17.573285 17061 net.cpp:406] score_pool4c-R <- upscore2-new-R_upscore2-new-R_0_split_0
I0418 20:14:17.573292 17061 net.cpp:380] score_pool4c-R -> score_pool4c-R
I0418 20:14:17.573338 17061 net.cpp:122] Setting up score_pool4c-R
I0418 20:14:17.573343 17061 net.cpp:129] Top shape: 1 3 36 22 (2376)
I0418 20:14:17.573345 17061 net.cpp:137] Memory required for data: 1755490572
I0418 20:14:17.573348 17061 layer_factory.hpp:77] Creating layer fuse_pool4-R
I0418 20:14:17.573355 17061 net.cpp:84] Creating Layer fuse_pool4-R
I0418 20:14:17.573360 17061 net.cpp:406] fuse_pool4-R <- upscore2-new-R_upscore2-new-R_0_split_1
I0418 20:14:17.573364 17061 net.cpp:406] fuse_pool4-R <- score_pool4c-R
I0418 20:14:17.573369 17061 net.cpp:380] fuse_pool4-R -> fuse_pool4-R
I0418 20:14:17.573393 17061 net.cpp:122] Setting up fuse_pool4-R
I0418 20:14:17.573397 17061 net.cpp:129] Top shape: 1 3 36 22 (2376)
I0418 20:14:17.573400 17061 net.cpp:137] Memory required for data: 1755500076
I0418 20:14:17.573403 17061 layer_factory.hpp:77] Creating layer upscore_pool4-new-R
I0418 20:14:17.573413 17061 net.cpp:84] Creating Layer upscore_pool4-new-R
I0418 20:14:17.573417 17061 net.cpp:406] upscore_pool4-new-R <- fuse_pool4-R
I0418 20:14:17.573422 17061 net.cpp:380] upscore_pool4-new-R -> upscore_pool4-new-R
I0418 20:14:17.573650 17061 net.cpp:122] Setting up upscore_pool4-new-R
I0418 20:14:17.573658 17061 net.cpp:129] Top shape: 1 3 74 46 (10212)
I0418 20:14:17.573662 17061 net.cpp:137] Memory required for data: 1755540924
I0418 20:14:17.573665 17061 layer_factory.hpp:77] Creating layer upscore_pool4-new-R_upscore_pool4-new-R_0_split
I0418 20:14:17.573670 17061 net.cpp:84] Creating Layer upscore_pool4-new-R_upscore_pool4-new-R_0_split
I0418 20:14:17.573674 17061 net.cpp:406] upscore_pool4-new-R_upscore_pool4-new-R_0_split <- upscore_pool4-new-R
I0418 20:14:17.573680 17061 net.cpp:380] upscore_pool4-new-R_upscore_pool4-new-R_0_split -> upscore_pool4-new-R_upscore_pool4-new-R_0_split_0
I0418 20:14:17.573686 17061 net.cpp:380] upscore_pool4-new-R_upscore_pool4-new-R_0_split -> upscore_pool4-new-R_upscore_pool4-new-R_0_split_1
I0418 20:14:17.573722 17061 net.cpp:122] Setting up upscore_pool4-new-R_upscore_pool4-new-R_0_split
I0418 20:14:17.573727 17061 net.cpp:129] Top shape: 1 3 74 46 (10212)
I0418 20:14:17.573731 17061 net.cpp:129] Top shape: 1 3 74 46 (10212)
I0418 20:14:17.573734 17061 net.cpp:137] Memory required for data: 1755622620
I0418 20:14:17.573738 17061 layer_factory.hpp:77] Creating layer score_pool3-new-R
I0418 20:14:17.573751 17061 net.cpp:84] Creating Layer score_pool3-new-R
I0418 20:14:17.573755 17061 net.cpp:406] score_pool3-new-R <- pool3-R_pool3-R_0_split_1
I0418 20:14:17.573760 17061 net.cpp:380] score_pool3-new-R -> score_pool3-new-R
I0418 20:14:17.575093 17061 net.cpp:122] Setting up score_pool3-new-R
I0418 20:14:17.575106 17061 net.cpp:129] Top shape: 1 3 89 64 (17088)
I0418 20:14:17.575109 17061 net.cpp:137] Memory required for data: 1755690972
I0418 20:14:17.575115 17061 layer_factory.hpp:77] Creating layer score_pool3c-R
I0418 20:14:17.575122 17061 net.cpp:84] Creating Layer score_pool3c-R
I0418 20:14:17.575125 17061 net.cpp:406] score_pool3c-R <- score_pool3-new-R
I0418 20:14:17.575129 17061 net.cpp:406] score_pool3c-R <- upscore_pool4-new-R_upscore_pool4-new-R_0_split_0
I0418 20:14:17.575134 17061 net.cpp:380] score_pool3c-R -> score_pool3c-R
I0418 20:14:17.575181 17061 net.cpp:122] Setting up score_pool3c-R
I0418 20:14:17.575186 17061 net.cpp:129] Top shape: 1 3 74 46 (10212)
I0418 20:14:17.575188 17061 net.cpp:137] Memory required for data: 1755731820
I0418 20:14:17.575192 17061 layer_factory.hpp:77] Creating layer fuse_pool3-R
I0418 20:14:17.575199 17061 net.cpp:84] Creating Layer fuse_pool3-R
I0418 20:14:17.575203 17061 net.cpp:406] fuse_pool3-R <- upscore_pool4-new-R_upscore_pool4-new-R_0_split_1
I0418 20:14:17.575207 17061 net.cpp:406] fuse_pool3-R <- score_pool3c-R
I0418 20:14:17.575212 17061 net.cpp:380] fuse_pool3-R -> fuse_pool3-R
I0418 20:14:17.575237 17061 net.cpp:122] Setting up fuse_pool3-R
I0418 20:14:17.575242 17061 net.cpp:129] Top shape: 1 3 74 46 (10212)
I0418 20:14:17.575244 17061 net.cpp:137] Memory required for data: 1755772668
I0418 20:14:17.575248 17061 layer_factory.hpp:77] Creating layer upscore8-new-R
I0418 20:14:17.575256 17061 net.cpp:84] Creating Layer upscore8-new-R
I0418 20:14:17.575259 17061 net.cpp:406] upscore8-new-R <- fuse_pool3-R
I0418 20:14:17.575264 17061 net.cpp:380] upscore8-new-R -> upscore8-new-R
I0418 20:14:17.575501 17061 net.cpp:122] Setting up upscore8-new-R
I0418 20:14:17.575510 17061 net.cpp:129] Top shape: 1 3 600 376 (676800)
I0418 20:14:17.575512 17061 net.cpp:137] Memory required for data: 1758479868
I0418 20:14:17.575517 17061 layer_factory.hpp:77] Creating layer upscore8_cropped-R
I0418 20:14:17.575525 17061 net.cpp:84] Creating Layer upscore8_cropped-R
I0418 20:14:17.575528 17061 net.cpp:406] upscore8_cropped-R <- upscore8-new-R
I0418 20:14:17.575534 17061 net.cpp:406] upscore8_cropped-R <- data-R_crop_0_split_1
I0418 20:14:17.575538 17061 net.cpp:380] upscore8_cropped-R -> upscore8_cropped-R
I0418 20:14:17.575562 17061 net.cpp:122] Setting up upscore8_cropped-R
I0418 20:14:17.575567 17061 net.cpp:129] Top shape: 1 3 512 310 (476160)
I0418 20:14:17.575569 17061 net.cpp:137] Memory required for data: 1760384508
I0418 20:14:17.575572 17061 layer_factory.hpp:77] Creating layer score-R
I0418 20:14:17.575583 17061 net.cpp:84] Creating Layer score-R
I0418 20:14:17.575587 17061 net.cpp:406] score-R <- upscore8_cropped-R
I0418 20:14:17.575594 17061 net.cpp:380] score-R -> score-R
I0418 20:14:17.577397 17061 net.cpp:122] Setting up score-R
I0418 20:14:17.577410 17061 net.cpp:129] Top shape: 1 3 512 310 (476160)
I0418 20:14:17.577414 17061 net.cpp:137] Memory required for data: 1762289148
I0418 20:14:17.577419 17061 layer_factory.hpp:77] Creating layer score_uncropped-R
I0418 20:14:17.577706 17061 net.cpp:84] Creating Layer score_uncropped-R
I0418 20:14:17.577718 17061 net.cpp:406] score_uncropped-R <- crop_info
I0418 20:14:17.577723 17061 net.cpp:406] score_uncropped-R <- score-R
I0418 20:14:17.577726 17061 net.cpp:406] score_uncropped-R <- data_data_0_split_3
I0418 20:14:17.577733 17061 net.cpp:380] score_uncropped-R -> score_uncropped-R
I0418 20:14:17.579463 17061 net.cpp:122] Setting up score_uncropped-R
I0418 20:14:17.579476 17061 net.cpp:129] Top shape: 1 3 512 310 (476160)
I0418 20:14:17.579479 17061 net.cpp:137] Memory required for data: 1764193788
I0418 20:14:17.579483 17061 layer_factory.hpp:77] Creating layer loss1
I0418 20:14:17.579497 17061 net.cpp:84] Creating Layer loss1
I0418 20:14:17.579501 17061 net.cpp:406] loss1 <- score_score_0_split_1
I0418 20:14:17.579506 17061 net.cpp:406] loss1 <- label_data_1_split_1
I0418 20:14:17.579510 17061 net.cpp:380] loss1 -> loss1
…
snapshot_prefix: "/media/Med_2T2/data2/models/snapshots/indiv:1e-5x10,20/FD0:XI3_1_20180418_201415/train"
test_initialization: false
average_loss: 20
stepvalue: 40000
iter_size: 1
I0418 21:18:14.777232 17061 solver.cpp:77] Creating training net from train_net file: /media/Med_2T2/data2/prototxts/training_I3x10.prototxt
I0418 21:18:14.779271 17061 net.cpp:51] Initializing net from parameters: 
state {
  phase: TRAIN
}
layer {
  name: "data"
  type: "Python"
  top: "data"
  top: "label"
  top: "crop_margin"
  top: "crop_prob"
  top: "crop_sample_batch"
  python_param {
    module: "Data"
    layer: "DataLayer"
  }
}
layer {
  name: "conv1_1"
  type: "Convolution"
  bottom: "data"
  top: "conv1_1"
  param {
    lr_mult: 1
    decay_mult: 1
  }
  param {
    lr_mult: 2
    decay_mult: 0
  }
  convolution_param {
    num_output: 64
    pad: 100
    kernel_size: 3
    stride: 1
  }
}
layer {
  name: "relu1_1"
  type: "ReLU"
  bottom: "conv1_1"
  top: "conv1_1"
}
layer {
  name: "conv1_2"
  type: "Convolution"
  bottom: "conv1_1"
  top: "conv1_2"
  param {
    lr_mult: 1
    decay_mult: 1
  }
  param {
    lr_mult: 2
    decay_mult: 0
  }
  convolution_param {
    num_output: 64
    pad: 1
    kernel_size: 3
    stride: 1
  }
}
layer {
  name: "relu1_2"
  type: "ReLU"
  bottom: "conv1_2"
  top: "conv1_2"
}
layer {
  name: "pool1"
  type: "Pooling"
  bottom: "conv1_2"
  top: "pool1"
  pooling_param {
    pool: MAX
    kernel_size: 2
    stride: 2
  }
}
layer {
  name: "conv2_1"
  type: "Convolution"
  bottom: "pool1"
  top: "conv2_1"
  param {
    lr_mult: 1
    decay_mult: 1
  }
  param {
    lr_mult: 2
    decay_mult: 0
  }
  convolution_param {
    num_output: 128
    pad: 1
    kernel_size: 3
    stride: 1
  }
}
layer {
  name: "relu2_1"
  type: "ReLU"
  bottom: "conv2_1"
  top: "conv2_1"
}
layer {
  name: "conv2_2"
  type: "Convolution"
  bottom: "conv2_1"
  top: "conv2_2"
  param {
    lr_mult: 1
    decay_mult: 1
  }
  param {
    lr_mult: 2
    decay_mult: 0
  }
  convolution_param {
    num_output: 128
    pad: 1
    kernel_size: 3
    stride: 1
  }
}
layer {
  name: "relu2_2"
  type: "ReLU"
  bottom: "conv2_2"
  top: "conv2_2"
}
layer {
  name: "pool2"
  type: "Pooling"
  bottom: "conv2_2"
  top: "pool2"
  pooling_param {
    pool: MAX
    kernel_size: 2
    stride: 2
  }
}
layer {
  name: "conv3_1"
  type: "Convolution"
  bottom: "pool2"
  top: "conv3_1"
  param {
    lr_mult: 1
    decay_mult: 1
  }
  param {
    lr_mult: 2
    decay_mult: 0
  }
  convolution_param {
    num_output: 256
    pad: 1
    kernel_size: 3
    stride: 1
  }
}
layer {
  name: "relu3_1"
  type: "ReLU"
  bottom: "conv3_1"
  top: "conv3_1"
}
layer {
  name: "conv3_2"
  type: "Convolution"
  bottom: "conv3_1"
  top: "conv3_2"
  param {
    lr_mult: 1
    decay_mult: 1
  }
  param {
    lr_mult: 2
    decay_mult: 0
  }
  convolution_param {
    num_output: 256
    pad: 1
    kernel_size: 3
    stride: 1
  }
}
layer {
  name: "relu3_2"
  type: "ReLU"
  bottom: "conv3_2"
  top: "conv3_2"
}
layer {
  name: "conv3_3"
  type: "Convolution"
  bottom: "conv3_2"
  top: "conv3_3"
  param {
    lr_mult: 1
    decay_mult: 1
  }
  param {
    lr_mult: 2
    decay_mult: 0
  }
  convolution_param {
    num_output: 256
    pad: 1
    kernel_size: 3
    stride: 1
  }
}
layer {
  name: "relu3_3"
  type: "ReLU"
  bottom: "conv3_3"
  top: "conv3_3"
}
layer {
  name: "pool3"
  type: "Pooling"
  bottom: "conv3_3"
  top: "pool3"
  pooling_param {
    pool: MAX
    kernel_size: 2
    stride: 2
  }
}
layer {
  name: "conv4_1"
  type: "Convolution"
  bottom: "pool3"
  top: "conv4_1"
  param {
    lr_mult: 1
    decay_mult: 1
  }
  param {
    lr_mult: 2
    decay_mult: 0
  }
  convolution_param {
    num_output: 512
    pad: 1
    kernel_size: 3
    stride: 1
  }
}
layer {
  name: "relu4_1"
  type: "ReLU"
  bottom: "conv4_1"
  top: "conv4_1"
}
layer {
  name: "conv4_2"
  type: "Convolution"
  bottom: "conv4_1"
  top: "conv4_2"
  param {
    lr_mult: 1
    decay_mult: 1
  }
  param {
    lr_mult: 2
    decay_mult: 0
  }
  convolution_param {
    num_output: 512
    pad: 1
    kernel_size: 3
    stride: 1
  }
}
layer {
  name: "relu4_2"
  type: "ReLU"
  bottom: "conv4_2"
  top: "conv4_2"
}
layer {
  name: "conv4_3"
  type: "Convolution"
  bottom: "conv4_2"
  top: "conv4_3"
  param {
    lr_mult: 1
    decay_mult: 1
  }
  param {
    lr_mult: 2
    decay_mult: 0
  }
  convolution_param {
    num_output: 512
    pad: 1
    kernel_size: 3
    stride: 1
  }
}
layer {
  name: "relu4_3"
  type: "ReLU"
  bottom: "conv4_3"
  top: "conv4_3"
}
layer {
  name: "pool4"
  type: "Pooling"
  bottom: "conv4_3"
  top: "pool4"
  pooling_param {
    pool: MAX
    kernel_size: 2
    stride: 2
  }
}
layer {
  name: "conv5_1"
  type: "Convolution"
  bottom: "pool4"
  top: "conv5_1"
  param {
    lr_mult: 1
    decay_mult: 1
  }
  param {
    lr_mult: 2
    decay_mult: 0
  }
  convolution_param {
    num_output: 512
    pad: 1
    kernel_size: 3
    stride: 1
  }
}
layer {
  name: "relu5_1"
  type: "ReLU"
  bottom: "conv5_1"
  top: "conv5_1"
}
layer {
  name: "conv5_2"
  type: "Convolution"
  bottom: "conv5_1"
  top: "conv5_2"
  param {
    lr_mult: 1
    decay_mult: 1
  }
  param {
    lr_mult: 2
    decay_mult: 0
  }
  convolution_param {
    num_output: 512
    pad: 1
    kernel_size: 3
    stride: 1
  }
}
layer {
  name: "relu5_2"
  type: "ReLU"
  bottom: "conv5_2"
  top: "conv5_2"
}
layer {
  name: "conv5_3"
  type: "Convolution"
  bottom: "conv5_2"
  top: "conv5_3"
  param {
    lr_mult: 1
    decay_mult: 1
  }
  param {
    lr_mult: 2
    decay_mult: 0
  }
  convolution_param {
    num_output: 512
    pad: 1
    kernel_size: 3
    stride: 1
  }
}
layer {
  name: "relu5_3"
  type: "ReLU"
  bottom: "conv5_3"
  top: "conv5_3"
}
layer {
  name: "pool5"
  type: "Pooling"
  bottom: "conv5_3"
  top: "pool5"
  pooling_param {
    pool: MAX
    kernel_size: 2
    stride: 2
  }
}
layer {
  name: "fc6"
  type: "Convolution"
  bottom: "pool5"
  top: "fc6"
  param {
    lr_mult: 1
    decay_mult: 1
  }
  param {
    lr_mult: 2
    decay_mult: 0
  }
  convolution_param {
    num_output: 4096
    pad: 0
    kernel_size: 7
    stride: 1
  }
}
layer {
  name: "relu6"
  type: "ReLU"
  bottom: "fc6"
  top: "fc6"
}
layer {
  name: "drop6"
  type: "Dropout"
  bottom: "fc6"
  top: "fc6"
  dropout_param {
    dropout_ratio: 0.5
  }
}
layer {
  name: "fc7"
  type: "Convolution"
  bottom: "fc6"
  top: "fc7"
  param {
    lr_mult: 1
    decay_mult: 1
  }
  param {
    lr_mult: 2
    decay_mult: 0
  }
  convolution_param {
    num_output: 4096
    pad: 0
    kernel_size: 1
    stride: 1
  }
}
layer {
  name: "relu7"
  type: "ReLU"
  bottom: "fc7"
  top: "fc7"
}
layer {
  name: "drop7"
  type: "Dropout"
  bottom: "fc7"
  top: "fc7"
  dropout_param {
    dropout_ratio: 0.5
  }
}
layer {
  name: "score_fr-new"
  type: "Convolution"
  bottom: "fc7"
  top: "score_fr-new"
  param {
    lr_mult: 1
    decay_mult: 1
  }
  param {
    lr_mult: 2
    decay_mult: 0
  }
  convolution_param {
    num_output: 3
    kernel_size: 1
  }
}
layer {
  name: "upscore2-new"
  type: "Deconvolution"
  bottom: "score_fr-new"
  top: "upscore2-new"
  param {
    lr_mult: 0
  }
  convolution_param {
    num_output: 3
    bias_term: false
    kernel_size: 4
    stride: 2
  }
}
layer {
  name: "score_pool4-new"
  type: "Convolution"
  bottom: "pool4"
  top: "score_pool4-new"
  param {
    lr_mult: 1
    decay_mult: 1
  }
  param {
    lr_mult: 2
    decay_mult: 0
  }
  convolution_param {
    num_output: 3
    pad: 0
    kernel_size: 1
  }
}
layer {
  name: "score_pool4c"
  type: "Crop"
  bottom: "score_pool4-new"
  bottom: "upscore2-new"
  top: "score_pool4c"
  crop_param {
    axis: 2
    offset: 5
  }
}
layer {
  name: "fuse_pool4"
  type: "Eltwise"
  bottom: "upscore2-new"
  bottom: "score_pool4c"
  top: "fuse_pool4"
  eltwise_param {
    operation: SUM
  }
}
layer {
  name: "upscore_pool4-new"
  type: "Deconvolution"
  bottom: "fuse_pool4"
  top: "upscore_pool4-new"
  param {
    lr_mult: 0
  }
  convolution_param {
    num_output: 3
    bias_term: false
    kernel_size: 4
    stride: 2
  }
}
layer {
  name: "score_pool3-new"
  type: "Convolution"
  bottom: "pool3"
  top: "score_pool3-new"
  param {
    lr_mult: 1
    decay_mult: 1
  }
  param {
    lr_mult: 2
    decay_mult: 0
  }
  convolution_param {
    num_output: 3
    pad: 0
    kernel_size: 1
  }
}
layer {
  name: "score_pool3c"
  type: "Crop"
  bottom: "score_pool3-new"
  bottom: "upscore_pool4-new"
  top: "score_pool3c"
  crop_param {
    axis: 2
    offset: 9
  }
}
layer {
  name: "fuse_pool3"
  type: "Eltwise"
  bottom: "upscore_pool4-new"
  bottom: "score_pool3c"
  top: "fuse_pool3"
  eltwise_param {
    operation: SUM
  }
}
layer {
  name: "upscore8-new"
  type: "Deconvolution"
  bottom: "fuse_pool3"
  top: "upscore8-new"
  param {
    lr_mult: 0
  }
  convolution_param {
    num_output: 3
    bias_term: false
    kernel_size: 16
    stride: 8
  }
}
layer {
  name: "upscore8_cropped"
  type: "Crop"
  bottom: "upscore8-new"
  bottom: "data"
  top: "upscore8_cropped"
  crop_param {
    axis: 2
    offset: 31
  }
}
layer {
  name: "score"
  type: "Convolution"
  bottom: "upscore8_cropped"
  top: "score"
  param {
    lr_mult: 1
    decay_mult: 1
  }
  param {
    lr_mult: 2
    decay_mult: 0
  }
  convolution_param {
    num_output: 3
    pad: 1
    kernel_size: 3
    stride: 1
    weight_filler {
      type: "xavier"
    }
    bias_filler {
      type: "constant"
      value: 0
    }
  }
}
layer {
  name: "prob"
  type: "Sigmoid"
  bottom: "score"
  top: "prob"
}
layer {
  name: "saliency"
  type: "Convolution"
  bottom: "prob"
  top: "saliency"
  param {
    lr_mult: 10
    decay_mult: 1
  }
  param {
    lr_mult: 20
    decay_mult: 0
  }
  convolution_param {
    num_output: 3
    pad: 2
    kernel_size: 5
    stride: 1
    weight_filler {
      type: "xavier"
    }
    bias_filler {
      type: "constant"
      value: 1
    }
  }
}
layer {
  name: "saliency_data"
  type: "Eltwise"
  bottom: "data"
  bottom: "saliency"
  top: "saliency_data"
  eltwise_param {
    operation: PROD
  }
}
layer {
  name: "crop"
  type: "Python"
  bottom: "label"
  bottom: "saliency_data"
  bottom: "crop_margin"
  bottom: "crop_prob"
  bottom: "crop_sample_batch"
  top: "data-R"
  top: "crop_info"
  python_param {
    module: "Crop"
    layer: "CropLayer"
    param_str: "{\"TEST\": 0}"
  }
}
layer {
  name: "conv1_1-R"
  type: "Convolution"
  bottom: "data-R"
  top: "conv1_1-R"
  param {
    lr_mult: 10
    decay_mult: 1
  }
  param {
    lr_mult: 20
    decay_mult: 0
  }
  convolution_param {
    num_output: 64
    pad: 100
    kernel_size: 3
    stride: 1
  }
}
layer {
  name: "relu1_1-R"
  type: "ReLU"
  bottom: "conv1_1-R"
  top: "conv1_1-R"
}
layer {
  name: "conv1_2-R"
  type: "Convolution"
  bottom: "conv1_1-R"
  top: "conv1_2-R"
  param {
    lr_mult: 10
    decay_mult: 1
  }
  param {
    lr_mult: 20
    decay_mult: 0
  }
  convolution_param {
    num_output: 64
    pad: 1
    kernel_size: 3
    stride: 1
  }
}
layer {
  name: "relu1_2-R"
  type: "ReLU"
  bottom: "conv1_2-R"
  top: "conv1_2-R"
}
layer {
  name: "pool1-R"
  type: "Pooling"
  bottom: "conv1_2-R"
  top: "pool1-R"
  pooling_param {
    pool: MAX
    kernel_size: 2
    stride: 2
  }
}
layer {
  name: "conv2_1-R"
  type: "Convolution"
  bottom: "pool1-R"
  top: "conv2_1-R"
  param {
    lr_mult: 10
    decay_mult: 1
  }
  param {
    lr_mult: 20
    decay_mult: 0
  }
  convolution_param {
    num_output: 128
    pad: 1
    kernel_size: 3
    stride: 1
  }
}
layer {
  name: "relu2_1-R"
  type: "ReLU"
  bottom: "conv2_1-R"
  top: "conv2_1-R"
}
layer {
  name: "conv2_2-R"
  type: "Convolution"
  bottom: "conv2_1-R"
  top: "conv2_2-R"
  param {
    lr_mult: 10
    decay_mult: 1
  }
  param {
    lr_mult: 20
    decay_mult: 0
  }
  convolution_param {
    num_output: 128
    pad: 1
    kernel_size: 3
    stride: 1
  }
}
layer {
  name: "relu2_2-R"
  type: "ReLU"
  bottom: "conv2_2-R"
  top: "conv2_2-R"
}
layer {
  name: "pool2-R"
  type: "Pooling"
  bottom: "conv2_2-R"
  top: "pool2-R"
  pooling_param {
    pool: MAX
    kernel_size: 2
    stride: 2
  }
}
layer {
  name: "conv3_1-R"
  type: "Convolution"
  bottom: "pool2-R"
  top: "conv3_1-R"
  param {
    lr_mult: 10
    decay_mult: 1
  }
  param {
    lr_mult: 20
    decay_mult: 0
  }
  convolution_param {
    num_output: 256
    pad: 1
    kernel_size: 3
    stride: 1
  }
}
layer {
  name: "relu3_1-R"
  type: "ReLU"
  bottom: "conv3_1-R"
  top: "conv3_1-R"
}
layer {
  name: "conv3_2-R"
  type: "Convolution"
  bottom: "conv3_1-R"
  top: "conv3_2-R"
  param {
    lr_mult: 10
    decay_mult: 1
  }
  param {
    lr_mult: 20
    decay_mult: 0
  }
  convolution_param {
    num_output: 256
    pad: 1
    kernel_size: 3
    stride: 1
  }
}
layer {
  name: "relu3_2-R"
  type: "ReLU"
  bottom: "conv3_2-R"
  top: "conv3_2-R"
}
layer {
  name: "conv3_3-R"
  type: "Convolution"
  bottom: "conv3_2-R"
  top: "conv3_3-R"
  param {
    lr_mult: 10
    decay_mult: 1
  }
  param {
    lr_mult: 20
    decay_mult: 0
  }
  convolution_param {
    num_output: 256
    pad: 1
    kernel_size: 3
    stride: 1
  }
}
layer {
  name: "relu3_3-R"
  type: "ReLU"
  bottom: "conv3_3-R"
  top: "conv3_3-R"
}
layer {
  name: "pool3-R"
  type: "Pooling"
  bottom: "conv3_3-R"
  top: "pool3-R"
  pooling_param {
    pool: MAX
    kernel_size: 2
    stride: 2
  }
}
layer {
  name: "conv4_1-R"
  type: "Convolution"
  bottom: "pool3-R"
  top: "conv4_1-R"
  param {
    lr_mult: 10
    decay_mult: 1
  }
  param {
    lr_mult: 20
    decay_mult: 0
  }
  convolution_param {
    num_output: 512
    pad: 1
    kernel_size: 3
    stride: 1
  }
}
layer {
  name: "relu4_1-R"
  type: "ReLU"
  bottom: "conv4_1-R"
  top: "conv4_1-R"
}
layer {
  name: "conv4_2-R"
  type: "Convolution"
  bottom: "conv4_1-R"
  top: "conv4_2-R"
  param {
    lr_mult: 10
    decay_mult: 1
  }
  param {
    lr_mult: 20
    decay_mult: 0
  }
  convolution_param {
    num_output: 512
    pad: 1
    kernel_size: 3
    stride: 1
  }
}
layer {
  name: "relu4_2-R"
  type: "ReLU"
  bottom: "conv4_2-R"
  top: "conv4_2-R"
}
layer {
  name: "conv4_3-R"
  type: "Convolution"
  bottom: "conv4_2-R"
  top: "conv4_3-R"
  param {
    lr_mult: 10
    decay_mult: 1
  }
  param {
    lr_mult: 20
    decay_mult: 0
  }
  convolution_param {
    num_output: 512
    pad: 1
    kernel_size: 3
    stride: 1
  }
}
layer {
  name: "relu4_3-R"
  type: "ReLU"
  bottom: "conv4_3-R"
  top: "conv4_3-R"
}
layer {
  name: "pool4-R"
  type: "Pooling"
  bottom: "conv4_3-R"
  top: "pool4-R"
  pooling_param {
    pool: MAX
    kernel_size: 2
    stride: 2
  }
}
layer {
  name: "conv5_1-R"
  type: "Convolution"
  bottom: "pool4-R"
  top: "conv5_1-R"
  param {
    lr_mult: 10
    decay_mult: 1
  }
  param {
    lr_mult: 20
    decay_mult: 0
  }
  convolution_param {
    num_output: 512
    pad: 1
    kernel_size: 3
    stride: 1
  }
}
layer {
  name: "relu5_1-R"
  type: "ReLU"
  bottom: "conv5_1-R"
  top: "conv5_1-R"
}
layer {
  name: "conv5_2-R"
  type: "Convolution"
  bottom: "conv5_1-R"
  top: "conv5_2-R"
  param {
    lr_mult: 10
    decay_mult: 1
  }
  param {
    lr_mult: 20
    decay_mult: 0
  }
  convolution_param {
    num_output: 512
    pad: 1
    kernel_size: 3
    stride: 1
  }
}
layer {
  name: "relu5_2-R"
  type: "ReLU"
  bottom: "conv5_2-R"
  top: "conv5_2-R"
}
layer {
  name: "conv5_3-R"
  type: "Convolution"
  bottom: "conv5_2-R"
  top: "conv5_3-R"
  param {
    lr_mult: 10
    decay_mult: 1
  }
  param {
    lr_mult: 20
    decay_mult: 0
  }
  convolution_param {
    num_output: 512
    pad: 1
    kernel_size: 3
    stride: 1
  }
}
layer {
  name: "relu5_3-R"
  type: "ReLU"
  bottom: "conv5_3-R"
  top: "conv5_3-R"
}
layer {
  name: "pool5-R"
  type: "Pooling"
  bottom: "conv5_3-R"
  top: "pool5-R"
  pooling_param {
    pool: MAX
    kernel_size: 2
    stride: 2
  }
}
layer {
  name: "fc6-R"
  type: "Convolution"
  bottom: "pool5-R"
  top: "fc6-R"
  param {
    lr_mult: 10
    decay_mult: 1
  }
  param {
    lr_mult: 20
    decay_mult: 0
  }
  convolution_param {
    num_output: 4096
    pad: 0
    kernel_size: 7
    stride: 1
  }
}
layer {
  name: "relu6-R"
  type: "ReLU"
  bottom: "fc6-R"
  top: "fc6-R"
}
layer {
  name: "drop6-R"
  type: "Dropout"
  bottom: "fc6-R"
  top: "fc6-R"
  dropout_param {
    dropout_ratio: 0.5
  }
}
layer {
  name: "fc7-R"
  type: "Convolution"
  bottom: "fc6-R"
  top: "fc7-R"
  param {
    lr_mult: 10
    decay_mult: 1
  }
  param {
    lr_mult: 20
    decay_mult: 0
  }
  convolution_param {
    num_output: 4096
    pad: 0
    kernel_size: 1
    stride: 1
  }
}
layer {
  name: "relu7-R"
  type: "ReLU"
  bottom: "fc7-R"
  top: "fc7-R"
}
layer {
  name: "drop7-R"
  type: "Dropout"
  bottom: "fc7-R"
  top: "fc7-R"
  dropout_param {
    dropout_ratio: 0.5
  }
}
layer {
  name: "score_fr-new-R"
  type: "Convolution"
  bottom: "fc7-R"
  top: "score_fr-new-R"
  param {
    lr_mult: 10
    decay_mult: 1
  }
  param {
    lr_mult: 20
    decay_mult: 0
  }
  convolution_param {
    num_output: 3
    kernel_size: 1
  }
}
layer {
  name: "upscore2-new-R"
  type: "Deconvolution"
  bottom: "score_fr-new-R"
  top: "upscore2-new-R"
  param {
    lr_mult: 0
  }
  convolution_param {
    num_output: 3
    bias_term: false
    kernel_size: 4
    stride: 2
  }
}
layer {
  name: "score_pool4-new-R"
  type: "Convolution"
  bottom: "pool4-R"
  top: "score_pool4-new-R"
  param {
    lr_mult: 10
    decay_mult: 1
  }
  param {
    lr_mult: 20
    decay_mult: 0
  }
  convolution_param {
    num_output: 3
    pad: 0
    kernel_size: 1
  }
}
layer {
  name: "score_pool4c-R"
  type: "Crop"
  bottom: "score_pool4-new-R"
  bottom: "upscore2-new-R"
  top: "score_pool4c-R"
  crop_param {
    axis: 2
    offset: 5
  }
}
layer {
  name: "fuse_pool4-R"
  type: "Eltwise"
  bottom: "upscore2-new-R"
  bottom: "score_pool4c-R"
  top: "fuse_pool4-R"
  eltwise_param {
    operation: SUM
  }
}
layer {
  name: "upscore_pool4-new-R"
  type: "Deconvolution"
  bottom: "fuse_pool4-R"
  top: "upscore_pool4-new-R"
  param {
    lr_mult: 0
  }
  convolution_param {
    num_output: 3
    bias_term: false
    kernel_size: 4
    stride: 2
  }
}
layer {
  name: "score_pool3-new-R"
  type: "Convolution"
  bottom: "pool3-R"
  top: "score_pool3-new-R"
  param {
    lr_mult: 10
    decay_mult: 1
  }
  param {
    lr_mult: 20
    decay_mult: 0
  }
  convolution_param {
    num_output: 3
    pad: 0
    kernel_size: 1
  }
}
layer {
  name: "score_pool3c-R"
  type: "Crop"
  bottom: "score_pool3-new-R"
  bottom: "upscore_pool4-new-R"
  top: "score_pool3c-R"
  crop_param {
    axis: 2
    offset: 9
  }
}
layer {
  name: "fuse_pool3-R"
  type: "Eltwise"
  bottom: "upscore_pool4-new-R"
  bottom: "score_pool3c-R"
  top: "fuse_pool3-R"
  eltwise_param {
    operation: SUM
  }
}
layer {
  name: "upscore8-new-R"
  type: "Deconvolution"
  bottom: "fuse_pool3-R"
  top: "upscore8-new-R"
  param {
    lr_mult: 0
  }
  convolution_param {
    num_output: 3
    bias_term: false
    kernel_size: 16
    stride: 8
  }
}
layer {
  name: "upscore8_cropped-R"
  type: "Crop"
  bottom: "upscore8-new-R"
  bottom: "data-R"
  top: "upscore8_cropped-R"
  crop_param {
    axis: 2
    offset: 31
  }
}
layer {
  name: "score-R"
  type: "Convolution"
  bottom: "upscore8_cropped-R"
  top: "score-R"
  param {
    lr_mult: 10
    decay_mult: 1
  }
  param {
    lr_mult: 20
    decay_mult: 0
  }
  convolution_param {
    num_output: 3
    pad: 1
    kernel_size: 3
    stride: 1
    weight_filler {
      type: "xavier"
    }
    bias_filler {
      type: "constant"
      value: 0
    }
  }
}
layer {
  name: "score_uncropped-R"
  type: "Python"
  bottom: "crop_info"
  bottom: "score-R"
  bottom: "data"
  top: "score_uncropped-R"
  python_param {
    module: "Uncrop"
    layer: "UncropLayer"
  }
}
layer {
  name: "loss1"
  type: "DiceLoss"
  bottom: "score"
  bottom: "label"
  top: "loss1"
  loss_weight: 0.333333
}
layer {
  name: "loss2"
  type: "DiceLoss"
  bottom: "score_uncropped-R"
  bottom: "label"
  top: "loss2"
  loss_weight: 0.666667
}
I0418 21:18:14.779706 17061 layer_factory.hpp:77] Creating layer data
I0418 21:18:14.779757 17061 net.cpp:84] Creating Layer data
I0418 21:18:14.779762 17061 net.cpp:380] data -> data
I0418 21:18:14.779796 17061 net.cpp:380] data -> label
I0418 21:18:14.779803 17061 net.cpp:380] data -> crop_margin
I0418 21:18:14.779808 17061 net.cpp:380] data -> crop_prob
I0418 21:18:14.779814 17061 net.cpp:380] data -> crop_sample_batch
I0418 21:18:14.913637 17061 net.cpp:122] Setting up data
I0418 21:18:14.913687 17061 net.cpp:129] Top shape: 1 3 512 310 (476160)
I0418 21:18:14.913693 17061 net.cpp:129] Top shape: 1 3 512 310 (476160)
I0418 21:18:14.913697 17061 net.cpp:129] Top shape: 1 (1)
I0418 21:18:14.913702 17061 net.cpp:129] Top shape: 1 (1)
I0418 21:18:14.913704 17061 net.cpp:129] Top shape: 1 (1)
I0418 21:18:14.913707 17061 net.cpp:137] Memory required for data: 3809292
I0418 21:18:14.913713 17061 layer_factory.hpp:77] Creating layer data_data_0_split
I0418 21:18:14.913727 17061 net.cpp:84] Creating Layer data_data_0_split
I0418 21:18:14.913731 17061 net.cpp:406] data_data_0_split <- data
I0418 21:18:14.913744 17061 net.cpp:380] data_data_0_split -> data_data_0_split_0
I0418 21:18:14.913754 17061 net.cpp:380] data_data_0_split -> data_data_0_split_1
I0418 21:18:14.913760 17061 net.cpp:380] data_data_0_split -> data_data_0_split_2
I0418 21:18:14.913764 17061 net.cpp:380] data_data_0_split -> data_data_0_split_3
I0418 21:18:14.913856 17061 net.cpp:122] Setting up data_data_0_split
I0418 21:18:14.913864 17061 net.cpp:129] Top shape: 1 3 512 310 (476160)
I0418 21:18:14.913868 17061 net.cpp:129] Top shape: 1 3 512 310 (476160)
I0418 21:18:14.913872 17061 net.cpp:129] Top shape: 1 3 512 310 (476160)
I0418 21:18:14.913875 17061 net.cpp:129] Top shape: 1 3 512 310 (476160)
I0418 21:18:14.913878 17061 net.cpp:137] Memory required for data: 11427852
I0418 21:18:14.913892 17061 layer_factory.hpp:77] Creating layer label_data_1_split
I0418 21:18:14.913898 17061 net.cpp:84] Creating Layer label_data_1_split
I0418 21:18:14.913902 17061 net.cpp:406] label_data_1_split <- label
I0418 21:18:14.913906 17061 net.cpp:380] label_data_1_split -> label_data_1_split_0
I0418 21:18:14.913911 17061 net.cpp:380] label_data_1_split -> label_data_1_split_1
I0418 21:18:14.913918 17061 net.cpp:380] label_data_1_split -> label_data_1_split_2
I0418 21:18:14.913981 17061 net.cpp:122] Setting up label_data_1_split
I0418 21:18:14.913988 17061 net.cpp:129] Top shape: 1 3 512 310 (476160)
I0418 21:18:14.913991 17061 net.cpp:129] Top shape: 1 3 512 310 (476160)
I0418 21:18:14.913995 17061 net.cpp:129] Top shape: 1 3 512 310 (476160)
I0418 21:18:14.913998 17061 net.cpp:137] Memory required for data: 17141772
I0418 21:18:14.914001 17061 layer_factory.hpp:77] Creating layer conv1_1
I0418 21:18:14.914011 17061 net.cpp:84] Creating Layer conv1_1
I0418 21:18:14.914016 17061 net.cpp:406] conv1_1 <- data_data_0_split_0
I0418 21:18:14.914019 17061 net.cpp:380] conv1_1 -> conv1_1
I0418 21:18:14.918028 17061 net.cpp:122] Setting up conv1_1
I0418 21:18:14.918061 17061 net.cpp:129] Top shape: 1 64 710 508 (23083520)
I0418 21:18:14.918066 17061 net.cpp:137] Memory required for data: 109475852
I0418 21:18:14.918076 17061 layer_factory.hpp:77] Creating layer relu1_1
I0418 21:18:14.918084 17061 net.cpp:84] Creating Layer relu1_1
I0418 21:18:14.918088 17061 net.cpp:406] relu1_1 <- conv1_1
I0418 21:18:14.918093 17061 net.cpp:367] relu1_1 -> conv1_1 (in-place)
I0418 21:18:14.918335 17061 net.cpp:122] Setting up relu1_1
I0418 21:18:14.918349 17061 net.cpp:129] Top shape: 1 64 710 508 (23083520)
I0418 21:18:14.918351 17061 net.cpp:137] Memory required for data: 201809932
I0418 21:18:14.918354 17061 layer_factory.hpp:77] Creating layer conv1_2
I0418 21:18:14.918364 17061 net.cpp:84] Creating Layer conv1_2
I0418 21:18:14.918366 17061 net.cpp:406] conv1_2 <- conv1_1
I0418 21:18:14.918373 17061 net.cpp:380] conv1_2 -> conv1_2
I0418 21:18:14.921605 17061 net.cpp:122] Setting up conv1_2
I0418 21:18:14.921619 17061 net.cpp:129] Top shape: 1 64 710 508 (23083520)
I0418 21:18:14.921639 17061 net.cpp:137] Memory required for data: 294144012
I0418 21:18:14.921648 17061 layer_factory.hpp:77] Creating layer relu1_2
I0418 21:18:14.921655 17061 net.cpp:84] Creating Layer relu1_2
I0418 21:18:14.921658 17061 net.cpp:406] relu1_2 <- conv1_2
I0418 21:18:14.921663 17061 net.cpp:367] relu1_2 -> conv1_2 (in-place)
I0418 21:18:14.921883 17061 net.cpp:122] Setting up relu1_2
I0418 21:18:14.921893 17061 net.cpp:129] Top shape: 1 64 710 508 (23083520)
I0418 21:18:14.921896 17061 net.cpp:137] Memory required for data: 386478092
I0418 21:18:14.921900 17061 layer_factory.hpp:77] Creating layer pool1
I0418 21:18:14.921907 17061 net.cpp:84] Creating Layer pool1
I0418 21:18:14.921911 17061 net.cpp:406] pool1 <- conv1_2
I0418 21:18:14.921916 17061 net.cpp:380] pool1 -> pool1
I0418 21:18:14.921980 17061 net.cpp:122] Setting up pool1
I0418 21:18:14.921988 17061 net.cpp:129] Top shape: 1 64 355 254 (5770880)
I0418 21:18:14.921991 17061 net.cpp:137] Memory required for data: 409561612
I0418 21:18:14.921994 17061 layer_factory.hpp:77] Creating layer conv2_1
I0418 21:18:14.922003 17061 net.cpp:84] Creating Layer conv2_1
I0418 21:18:14.922006 17061 net.cpp:406] conv2_1 <- pool1
I0418 21:18:14.922013 17061 net.cpp:380] conv2_1 -> conv2_1
I0418 21:18:14.923630 17061 net.cpp:122] Setting up conv2_1
I0418 21:18:14.923661 17061 net.cpp:129] Top shape: 1 128 355 254 (11541760)
I0418 21:18:14.923666 17061 net.cpp:137] Memory required for data: 455728652
I0418 21:18:14.923674 17061 layer_factory.hpp:77] Creating layer relu2_1
I0418 21:18:14.923681 17061 net.cpp:84] Creating Layer relu2_1
I0418 21:18:14.923684 17061 net.cpp:406] relu2_1 <- conv2_1
I0418 21:18:14.923689 17061 net.cpp:367] relu2_1 -> conv2_1 (in-place)
I0418 21:18:14.924408 17061 net.cpp:122] Setting up relu2_1
I0418 21:18:14.924422 17061 net.cpp:129] Top shape: 1 128 355 254 (11541760)
I0418 21:18:14.924440 17061 net.cpp:137] Memory required for data: 501895692
I0418 21:18:14.924444 17061 layer_factory.hpp:77] Creating layer conv2_2
I0418 21:18:14.924453 17061 net.cpp:84] Creating Layer conv2_2
I0418 21:18:14.924458 17061 net.cpp:406] conv2_2 <- conv2_1
I0418 21:18:14.924463 17061 net.cpp:380] conv2_2 -> conv2_2
I0418 21:18:14.926156 17061 net.cpp:122] Setting up conv2_2
I0418 21:18:14.926192 17061 net.cpp:129] Top shape: 1 128 355 254 (11541760)
I0418 21:18:14.926195 17061 net.cpp:137] Memory required for data: 548062732
I0418 21:18:14.926203 17061 layer_factory.hpp:77] Creating layer relu2_2
I0418 21:18:14.926208 17061 net.cpp:84] Creating Layer relu2_2
I0418 21:18:14.926213 17061 net.cpp:406] relu2_2 <- conv2_2
I0418 21:18:14.926218 17061 net.cpp:367] relu2_2 -> conv2_2 (in-place)
I0418 21:18:14.926933 17061 net.cpp:122] Setting up relu2_2
I0418 21:18:14.926944 17061 net.cpp:129] Top shape: 1 128 355 254 (11541760)
I0418 21:18:14.926964 17061 net.cpp:137] Memory required for data: 594229772
I0418 21:18:14.926967 17061 layer_factory.hpp:77] Creating layer pool2
I0418 21:18:14.926975 17061 net.cpp:84] Creating Layer pool2
I0418 21:18:14.926978 17061 net.cpp:406] pool2 <- conv2_2
I0418 21:18:14.926985 17061 net.cpp:380] pool2 -> pool2
I0418 21:18:14.927057 17061 net.cpp:122] Setting up pool2
I0418 21:18:14.927065 17061 net.cpp:129] Top shape: 1 128 178 127 (2893568)
I0418 21:18:14.927068 17061 net.cpp:137] Memory required for data: 605804044
I0418 21:18:14.927072 17061 layer_factory.hpp:77] Creating layer conv3_1
I0418 21:18:14.927079 17061 net.cpp:84] Creating Layer conv3_1
I0418 21:18:14.927083 17061 net.cpp:406] conv3_1 <- pool2
I0418 21:18:14.927088 17061 net.cpp:380] conv3_1 -> conv3_1
I0418 21:18:14.931695 17061 net.cpp:122] Setting up conv3_1
I0418 21:18:14.931725 17061 net.cpp:129] Top shape: 1 256 178 127 (5787136)
I0418 21:18:14.931730 17061 net.cpp:137] Memory required for data: 628952588
I0418 21:18:14.931740 17061 layer_factory.hpp:77] Creating layer relu3_1
I0418 21:18:14.931746 17061 net.cpp:84] Creating Layer relu3_1
I0418 21:18:14.931749 17061 net.cpp:406] relu3_1 <- conv3_1
I0418 21:18:14.931756 17061 net.cpp:367] relu3_1 -> conv3_1 (in-place)
I0418 21:18:14.931975 17061 net.cpp:122] Setting up relu3_1
I0418 21:18:14.931985 17061 net.cpp:129] Top shape: 1 256 178 127 (5787136)
I0418 21:18:14.931989 17061 net.cpp:137] Memory required for data: 652101132
I0418 21:18:14.931993 17061 layer_factory.hpp:77] Creating layer conv3_2
I0418 21:18:14.932001 17061 net.cpp:84] Creating Layer conv3_2
I0418 21:18:14.932005 17061 net.cpp:406] conv3_2 <- conv3_1
I0418 21:18:14.932011 17061 net.cpp:380] conv3_2 -> conv3_2
I0418 21:18:14.935963 17061 net.cpp:122] Setting up conv3_2
I0418 21:18:14.935994 17061 net.cpp:129] Top shape: 1 256 178 127 (5787136)
I0418 21:18:14.935998 17061 net.cpp:137] Memory required for data: 675249676
I0418 21:18:14.936007 17061 layer_factory.hpp:77] Creating layer relu3_2
I0418 21:18:14.936015 17061 net.cpp:84] Creating Layer relu3_2
I0418 21:18:14.936019 17061 net.cpp:406] relu3_2 <- conv3_2
I0418 21:18:14.936024 17061 net.cpp:367] relu3_2 -> conv3_2 (in-place)
I0418 21:18:14.936249 17061 net.cpp:122] Setting up relu3_2
I0418 21:18:14.936259 17061 net.cpp:129] Top shape: 1 256 178 127 (5787136)
I0418 21:18:14.936262 17061 net.cpp:137] Memory required for data: 698398220
I0418 21:18:14.936266 17061 layer_factory.hpp:77] Creating layer conv3_3
I0418 21:18:14.936276 17061 net.cpp:84] Creating Layer conv3_3
I0418 21:18:14.936280 17061 net.cpp:406] conv3_3 <- conv3_2
I0418 21:18:14.936286 17061 net.cpp:380] conv3_3 -> conv3_3
I0418 21:18:14.941115 17061 net.cpp:122] Setting up conv3_3
I0418 21:18:14.941146 17061 net.cpp:129] Top shape: 1 256 178 127 (5787136)
I0418 21:18:14.941150 17061 net.cpp:137] Memory required for data: 721546764
I0418 21:18:14.941159 17061 layer_factory.hpp:77] Creating layer relu3_3
I0418 21:18:14.941165 17061 net.cpp:84] Creating Layer relu3_3
I0418 21:18:14.941169 17061 net.cpp:406] relu3_3 <- conv3_3
I0418 21:18:14.941174 17061 net.cpp:367] relu3_3 -> conv3_3 (in-place)
I0418 21:18:14.941428 17061 net.cpp:122] Setting up relu3_3
I0418 21:18:14.941438 17061 net.cpp:129] Top shape: 1 256 178 127 (5787136)
I0418 21:18:14.941442 17061 net.cpp:137] Memory required for data: 744695308
I0418 21:18:14.941445 17061 layer_factory.hpp:77] Creating layer pool3
I0418 21:18:14.941453 17061 net.cpp:84] Creating Layer pool3
I0418 21:18:14.941457 17061 net.cpp:406] pool3 <- conv3_3
I0418 21:18:14.941463 17061 net.cpp:380] pool3 -> pool3
I0418 21:18:14.941534 17061 net.cpp:122] Setting up pool3
I0418 21:18:14.941541 17061 net.cpp:129] Top shape: 1 256 89 64 (1458176)
I0418 21:18:14.941545 17061 net.cpp:137] Memory required for data: 750528012
I0418 21:18:14.941547 17061 layer_factory.hpp:77] Creating layer pool3_pool3_0_split
I0418 21:18:14.941555 17061 net.cpp:84] Creating Layer pool3_pool3_0_split
I0418 21:18:14.941557 17061 net.cpp:406] pool3_pool3_0_split <- pool3
I0418 21:18:14.941563 17061 net.cpp:380] pool3_pool3_0_split -> pool3_pool3_0_split_0
I0418 21:18:14.941568 17061 net.cpp:380] pool3_pool3_0_split -> pool3_pool3_0_split_1
I0418 21:18:14.941627 17061 net.cpp:122] Setting up pool3_pool3_0_split
I0418 21:18:14.941633 17061 net.cpp:129] Top shape: 1 256 89 64 (1458176)
I0418 21:18:14.941637 17061 net.cpp:129] Top shape: 1 256 89 64 (1458176)
I0418 21:18:14.941640 17061 net.cpp:137] Memory required for data: 762193420
I0418 21:18:14.941643 17061 layer_factory.hpp:77] Creating layer conv4_1
I0418 21:18:14.941653 17061 net.cpp:84] Creating Layer conv4_1
I0418 21:18:14.941656 17061 net.cpp:406] conv4_1 <- pool3_pool3_0_split_0
I0418 21:18:14.941663 17061 net.cpp:380] conv4_1 -> conv4_1
I0418 21:18:14.947386 17061 net.cpp:122] Setting up conv4_1
I0418 21:18:14.947420 17061 net.cpp:129] Top shape: 1 512 89 64 (2916352)
I0418 21:18:14.947424 17061 net.cpp:137] Memory required for data: 773858828
I0418 21:18:14.947432 17061 layer_factory.hpp:77] Creating layer relu4_1
I0418 21:18:14.947440 17061 net.cpp:84] Creating Layer relu4_1
I0418 21:18:14.947445 17061 net.cpp:406] relu4_1 <- conv4_1
I0418 21:18:14.947451 17061 net.cpp:367] relu4_1 -> conv4_1 (in-place)
I0418 21:18:14.947715 17061 net.cpp:122] Setting up relu4_1
I0418 21:18:14.947726 17061 net.cpp:129] Top shape: 1 512 89 64 (2916352)
I0418 21:18:14.947728 17061 net.cpp:137] Memory required for data: 785524236
I0418 21:18:14.947732 17061 layer_factory.hpp:77] Creating layer conv4_2
I0418 21:18:14.947741 17061 net.cpp:84] Creating Layer conv4_2
I0418 21:18:14.947746 17061 net.cpp:406] conv4_2 <- conv4_1
I0418 21:18:14.947752 17061 net.cpp:380] conv4_2 -> conv4_2
I0418 21:18:14.957690 17061 net.cpp:122] Setting up conv4_2
I0418 21:18:14.957729 17061 net.cpp:129] Top shape: 1 512 89 64 (2916352)
I0418 21:18:14.957733 17061 net.cpp:137] Memory required for data: 797189644
I0418 21:18:14.957747 17061 layer_factory.hpp:77] Creating layer relu4_2
I0418 21:18:14.957756 17061 net.cpp:84] Creating Layer relu4_2
I0418 21:18:14.957761 17061 net.cpp:406] relu4_2 <- conv4_2
I0418 21:18:14.957777 17061 net.cpp:367] relu4_2 -> conv4_2 (in-place)
I0418 21:18:14.958716 17061 net.cpp:122] Setting up relu4_2
I0418 21:18:14.958731 17061 net.cpp:129] Top shape: 1 512 89 64 (2916352)
I0418 21:18:14.958751 17061 net.cpp:137] Memory required for data: 808855052
I0418 21:18:14.958755 17061 layer_factory.hpp:77] Creating layer conv4_3
I0418 21:18:14.958770 17061 net.cpp:84] Creating Layer conv4_3
I0418 21:18:14.958775 17061 net.cpp:406] conv4_3 <- conv4_2
I0418 21:18:14.958787 17061 net.cpp:380] conv4_3 -> conv4_3
I0418 21:18:14.968679 17061 net.cpp:122] Setting up conv4_3
I0418 21:18:14.968724 17061 net.cpp:129] Top shape: 1 512 89 64 (2916352)
I0418 21:18:14.968729 17061 net.cpp:137] Memory required for data: 820520460
I0418 21:18:14.968740 17061 layer_factory.hpp:77] Creating layer relu4_3
I0418 21:18:14.968750 17061 net.cpp:84] Creating Layer relu4_3
I0418 21:18:14.968755 17061 net.cpp:406] relu4_3 <- conv4_3
I0418 21:18:14.968760 17061 net.cpp:367] relu4_3 -> conv4_3 (in-place)
I0418 21:18:14.970257 17061 net.cpp:122] Setting up relu4_3
I0418 21:18:14.970296 17061 net.cpp:129] Top shape: 1 512 89 64 (2916352)
I0418 21:18:14.970300 17061 net.cpp:137] Memory required for data: 832185868
I0418 21:18:14.970306 17061 layer_factory.hpp:77] Creating layer pool4
I0418 21:18:14.970325 17061 net.cpp:84] Creating Layer pool4
I0418 21:18:14.970330 17061 net.cpp:406] pool4 <- conv4_3
I0418 21:18:14.970340 17061 net.cpp:380] pool4 -> pool4
I0418 21:18:14.970459 17061 net.cpp:122] Setting up pool4
I0418 21:18:14.970469 17061 net.cpp:129] Top shape: 1 512 45 32 (737280)
I0418 21:18:14.970474 17061 net.cpp:137] Memory required for data: 835134988
I0418 21:18:14.970479 17061 layer_factory.hpp:77] Creating layer pool4_pool4_0_split
I0418 21:18:14.970487 17061 net.cpp:84] Creating Layer pool4_pool4_0_split
I0418 21:18:14.970494 17061 net.cpp:406] pool4_pool4_0_split <- pool4
I0418 21:18:14.970504 17061 net.cpp:380] pool4_pool4_0_split -> pool4_pool4_0_split_0
I0418 21:18:14.970510 17061 net.cpp:380] pool4_pool4_0_split -> pool4_pool4_0_split_1
I0418 21:18:14.970618 17061 net.cpp:122] Setting up pool4_pool4_0_split
I0418 21:18:14.970628 17061 net.cpp:129] Top shape: 1 512 45 32 (737280)
I0418 21:18:14.970633 17061 net.cpp:129] Top shape: 1 512 45 32 (737280)
I0418 21:18:14.970635 17061 net.cpp:137] Memory required for data: 841033228
I0418 21:18:14.970638 17061 layer_factory.hpp:77] Creating layer conv5_1
I0418 21:18:14.970656 17061 net.cpp:84] Creating Layer conv5_1
I0418 21:18:14.970669 17061 net.cpp:406] conv5_1 <- pool4_pool4_0_split_0
I0418 21:18:14.970679 17061 net.cpp:380] conv5_1 -> conv5_1
I0418 21:18:14.982300 17061 net.cpp:122] Setting up conv5_1
I0418 21:18:14.982357 17061 net.cpp:129] Top shape: 1 512 45 32 (737280)
I0418 21:18:14.982364 17061 net.cpp:137] Memory required for data: 843982348
I0418 21:18:14.982380 17061 layer_factory.hpp:77] Creating layer relu5_1
I0418 21:18:14.982388 17061 net.cpp:84] Creating Layer relu5_1
I0418 21:18:14.982391 17061 net.cpp:406] relu5_1 <- conv5_1
I0418 21:18:14.982398 17061 net.cpp:367] relu5_1 -> conv5_1 (in-place)
I0418 21:18:14.982728 17061 net.cpp:122] Setting up relu5_1
I0418 21:18:14.982761 17061 net.cpp:129] Top shape: 1 512 45 32 (737280)
I0418 21:18:14.982766 17061 net.cpp:137] Memory required for data: 846931468
I0418 21:18:14.982769 17061 layer_factory.hpp:77] Creating layer conv5_2
I0418 21:18:14.982780 17061 net.cpp:84] Creating Layer conv5_2
I0418 21:18:14.982787 17061 net.cpp:406] conv5_2 <- conv5_1
I0418 21:18:14.982795 17061 net.cpp:380] conv5_2 -> conv5_2
I0418 21:18:14.994273 17061 net.cpp:122] Setting up conv5_2
I0418 21:18:14.994321 17061 net.cpp:129] Top shape: 1 512 45 32 (737280)
I0418 21:18:14.994328 17061 net.cpp:137] Memory required for data: 849880588
I0418 21:18:14.994343 17061 layer_factory.hpp:77] Creating layer relu5_2
I0418 21:18:14.994364 17061 net.cpp:84] Creating Layer relu5_2
I0418 21:18:14.994367 17061 net.cpp:406] relu5_2 <- conv5_2
I0418 21:18:14.994374 17061 net.cpp:367] relu5_2 -> conv5_2 (in-place)
I0418 21:18:14.994714 17061 net.cpp:122] Setting up relu5_2
I0418 21:18:14.994724 17061 net.cpp:129] Top shape: 1 512 45 32 (737280)
I0418 21:18:14.994745 17061 net.cpp:137] Memory required for data: 852829708
I0418 21:18:14.994747 17061 layer_factory.hpp:77] Creating layer conv5_3
I0418 21:18:14.994758 17061 net.cpp:84] Creating Layer conv5_3
I0418 21:18:14.994761 17061 net.cpp:406] conv5_3 <- conv5_2
I0418 21:18:14.994767 17061 net.cpp:380] conv5_3 -> conv5_3
I0418 21:18:15.005779 17061 net.cpp:122] Setting up conv5_3
I0418 21:18:15.005821 17061 net.cpp:129] Top shape: 1 512 45 32 (737280)
I0418 21:18:15.005825 17061 net.cpp:137] Memory required for data: 855778828
I0418 21:18:15.005834 17061 layer_factory.hpp:77] Creating layer relu5_3
I0418 21:18:15.005844 17061 net.cpp:84] Creating Layer relu5_3
I0418 21:18:15.005851 17061 net.cpp:406] relu5_3 <- conv5_3
I0418 21:18:15.005861 17061 net.cpp:367] relu5_3 -> conv5_3 (in-place)
I0418 21:18:15.006953 17061 net.cpp:122] Setting up relu5_3
I0418 21:18:15.006978 17061 net.cpp:129] Top shape: 1 512 45 32 (737280)
I0418 21:18:15.006991 17061 net.cpp:137] Memory required for data: 858727948
I0418 21:18:15.006996 17061 layer_factory.hpp:77] Creating layer pool5
I0418 21:18:15.007006 17061 net.cpp:84] Creating Layer pool5
I0418 21:18:15.007014 17061 net.cpp:406] pool5 <- conv5_3
I0418 21:18:15.007028 17061 net.cpp:380] pool5 -> pool5
I0418 21:18:15.007184 17061 net.cpp:122] Setting up pool5
I0418 21:18:15.007210 17061 net.cpp:129] Top shape: 1 512 23 16 (188416)
I0418 21:18:15.007220 17061 net.cpp:137] Memory required for data: 859481612
I0418 21:18:15.007228 17061 layer_factory.hpp:77] Creating layer fc6
I0418 21:18:15.007246 17061 net.cpp:84] Creating Layer fc6
I0418 21:18:15.007251 17061 net.cpp:406] fc6 <- pool5
I0418 21:18:15.007267 17061 net.cpp:380] fc6 -> fc6
I0418 21:18:15.638459 17061 net.cpp:122] Setting up fc6
I0418 21:18:15.638507 17061 net.cpp:129] Top shape: 1 4096 17 10 (696320)
I0418 21:18:15.638511 17061 net.cpp:137] Memory required for data: 862266892
I0418 21:18:15.638528 17061 layer_factory.hpp:77] Creating layer relu6
I0418 21:18:15.638548 17061 net.cpp:84] Creating Layer relu6
I0418 21:18:15.638557 17061 net.cpp:406] relu6 <- fc6
I0418 21:18:15.638569 17061 net.cpp:367] relu6 -> fc6 (in-place)
I0418 21:18:15.638967 17061 net.cpp:122] Setting up relu6
I0418 21:18:15.638983 17061 net.cpp:129] Top shape: 1 4096 17 10 (696320)
I0418 21:18:15.638988 17061 net.cpp:137] Memory required for data: 865052172
I0418 21:18:15.638994 17061 layer_factory.hpp:77] Creating layer drop6
I0418 21:18:15.639005 17061 net.cpp:84] Creating Layer drop6
I0418 21:18:15.639012 17061 net.cpp:406] drop6 <- fc6
I0418 21:18:15.639026 17061 net.cpp:367] drop6 -> fc6 (in-place)
I0418 21:18:15.639103 17061 net.cpp:122] Setting up drop6
I0418 21:18:15.639119 17061 net.cpp:129] Top shape: 1 4096 17 10 (696320)
I0418 21:18:15.639122 17061 net.cpp:137] Memory required for data: 867837452
I0418 21:18:15.639127 17061 layer_factory.hpp:77] Creating layer fc7
I0418 21:18:15.639142 17061 net.cpp:84] Creating Layer fc7
I0418 21:18:15.639147 17061 net.cpp:406] fc7 <- fc6
I0418 21:18:15.639158 17061 net.cpp:380] fc7 -> fc7
I0418 21:18:15.731422 17061 net.cpp:122] Setting up fc7
I0418 21:18:15.731494 17061 net.cpp:129] Top shape: 1 4096 17 10 (696320)
I0418 21:18:15.731503 17061 net.cpp:137] Memory required for data: 870622732
I0418 21:18:15.731537 17061 layer_factory.hpp:77] Creating layer relu7
I0418 21:18:15.731557 17061 net.cpp:84] Creating Layer relu7
I0418 21:18:15.731566 17061 net.cpp:406] relu7 <- fc7
I0418 21:18:15.731578 17061 net.cpp:367] relu7 -> fc7 (in-place)
I0418 21:18:15.732767 17061 net.cpp:122] Setting up relu7
I0418 21:18:15.732790 17061 net.cpp:129] Top shape: 1 4096 17 10 (696320)
I0418 21:18:15.732796 17061 net.cpp:137] Memory required for data: 873408012
I0418 21:18:15.732802 17061 layer_factory.hpp:77] Creating layer drop7
I0418 21:18:15.732815 17061 net.cpp:84] Creating Layer drop7
I0418 21:18:15.732821 17061 net.cpp:406] drop7 <- fc7
I0418 21:18:15.732831 17061 net.cpp:367] drop7 -> fc7 (in-place)
I0418 21:18:15.732918 17061 net.cpp:122] Setting up drop7
I0418 21:18:15.732933 17061 net.cpp:129] Top shape: 1 4096 17 10 (696320)
I0418 21:18:15.732937 17061 net.cpp:137] Memory required for data: 876193292
I0418 21:18:15.732942 17061 layer_factory.hpp:77] Creating layer score_fr-new
I0418 21:18:15.732959 17061 net.cpp:84] Creating Layer score_fr-new
I0418 21:18:15.732965 17061 net.cpp:406] score_fr-new <- fc7
I0418 21:18:15.732975 17061 net.cpp:380] score_fr-new -> score_fr-new
I0418 21:18:15.734954 17061 net.cpp:122] Setting up score_fr-new
I0418 21:18:15.734977 17061 net.cpp:129] Top shape: 1 3 17 10 (510)
I0418 21:18:15.734984 17061 net.cpp:137] Memory required for data: 876195332
I0418 21:18:15.734995 17061 layer_factory.hpp:77] Creating layer upscore2-new
I0418 21:18:15.735013 17061 net.cpp:84] Creating Layer upscore2-new
I0418 21:18:15.735020 17061 net.cpp:406] upscore2-new <- score_fr-new
I0418 21:18:15.735033 17061 net.cpp:380] upscore2-new -> upscore2-new
I0418 21:18:15.735605 17061 net.cpp:122] Setting up upscore2-new
I0418 21:18:15.735618 17061 net.cpp:129] Top shape: 1 3 36 22 (2376)
I0418 21:18:15.735623 17061 net.cpp:137] Memory required for data: 876204836
I0418 21:18:15.735647 17061 layer_factory.hpp:77] Creating layer upscore2-new_upscore2-new_0_split
I0418 21:18:15.735659 17061 net.cpp:84] Creating Layer upscore2-new_upscore2-new_0_split
I0418 21:18:15.735666 17061 net.cpp:406] upscore2-new_upscore2-new_0_split <- upscore2-new
I0418 21:18:15.735674 17061 net.cpp:380] upscore2-new_upscore2-new_0_split -> upscore2-new_upscore2-new_0_split_0
I0418 21:18:15.735687 17061 net.cpp:380] upscore2-new_upscore2-new_0_split -> upscore2-new_upscore2-new_0_split_1
I0418 21:18:15.735787 17061 net.cpp:122] Setting up upscore2-new_upscore2-new_0_split
I0418 21:18:15.735795 17061 net.cpp:129] Top shape: 1 3 36 22 (2376)
I0418 21:18:15.735798 17061 net.cpp:129] Top shape: 1 3 36 22 (2376)
I0418 21:18:15.735801 17061 net.cpp:137] Memory required for data: 876223844
I0418 21:18:15.735807 17061 layer_factory.hpp:77] Creating layer score_pool4-new
I0418 21:18:15.735821 17061 net.cpp:84] Creating Layer score_pool4-new
I0418 21:18:15.735826 17061 net.cpp:406] score_pool4-new <- pool4_pool4_0_split_1
I0418 21:18:15.735836 17061 net.cpp:380] score_pool4-new -> score_pool4-new
I0418 21:18:15.738554 17061 net.cpp:122] Setting up score_pool4-new
I0418 21:18:15.738579 17061 net.cpp:129] Top shape: 1 3 45 32 (4320)
I0418 21:18:15.738584 17061 net.cpp:137] Memory required for data: 876241124
I0418 21:18:15.738595 17061 layer_factory.hpp:77] Creating layer score_pool4c
I0418 21:18:15.738608 17061 net.cpp:84] Creating Layer score_pool4c
I0418 21:18:15.738615 17061 net.cpp:406] score_pool4c <- score_pool4-new
I0418 21:18:15.738623 17061 net.cpp:406] score_pool4c <- upscore2-new_upscore2-new_0_split_0
I0418 21:18:15.738633 17061 net.cpp:380] score_pool4c -> score_pool4c
I0418 21:18:15.738710 17061 net.cpp:122] Setting up score_pool4c
I0418 21:18:15.738721 17061 net.cpp:129] Top shape: 1 3 36 22 (2376)
I0418 21:18:15.738724 17061 net.cpp:137] Memory required for data: 876250628
I0418 21:18:15.738728 17061 layer_factory.hpp:77] Creating layer fuse_pool4
I0418 21:18:15.738734 17061 net.cpp:84] Creating Layer fuse_pool4
I0418 21:18:15.738740 17061 net.cpp:406] fuse_pool4 <- upscore2-new_upscore2-new_0_split_1
I0418 21:18:15.738747 17061 net.cpp:406] fuse_pool4 <- score_pool4c
I0418 21:18:15.738757 17061 net.cpp:380] fuse_pool4 -> fuse_pool4
I0418 21:18:15.738826 17061 net.cpp:122] Setting up fuse_pool4
I0418 21:18:15.738837 17061 net.cpp:129] Top shape: 1 3 36 22 (2376)
I0418 21:18:15.738842 17061 net.cpp:137] Memory required for data: 876260132
I0418 21:18:15.738847 17061 layer_factory.hpp:77] Creating layer upscore_pool4-new
I0418 21:18:15.738859 17061 net.cpp:84] Creating Layer upscore_pool4-new
I0418 21:18:15.738867 17061 net.cpp:406] upscore_pool4-new <- fuse_pool4
I0418 21:18:15.738874 17061 net.cpp:380] upscore_pool4-new -> upscore_pool4-new
I0418 21:18:15.739400 17061 net.cpp:122] Setting up upscore_pool4-new
I0418 21:18:15.739413 17061 net.cpp:129] Top shape: 1 3 74 46 (10212)
I0418 21:18:15.739419 17061 net.cpp:137] Memory required for data: 876300980
I0418 21:18:15.739428 17061 layer_factory.hpp:77] Creating layer upscore_pool4-new_upscore_pool4-new_0_split
I0418 21:18:15.739435 17061 net.cpp:84] Creating Layer upscore_pool4-new_upscore_pool4-new_0_split
I0418 21:18:15.739441 17061 net.cpp:406] upscore_pool4-new_upscore_pool4-new_0_split <- upscore_pool4-new
I0418 21:18:15.739449 17061 net.cpp:380] upscore_pool4-new_upscore_pool4-new_0_split -> upscore_pool4-new_upscore_pool4-new_0_split_0
I0418 21:18:15.739459 17061 net.cpp:380] upscore_pool4-new_upscore_pool4-new_0_split -> upscore_pool4-new_upscore_pool4-new_0_split_1
I0418 21:18:15.739558 17061 net.cpp:122] Setting up upscore_pool4-new_upscore_pool4-new_0_split
I0418 21:18:15.739569 17061 net.cpp:129] Top shape: 1 3 74 46 (10212)
I0418 21:18:15.739576 17061 net.cpp:129] Top shape: 1 3 74 46 (10212)
I0418 21:18:15.739581 17061 net.cpp:137] Memory required for data: 876382676
I0418 21:18:15.739584 17061 layer_factory.hpp:77] Creating layer score_pool3-new
I0418 21:18:15.739608 17061 net.cpp:84] Creating Layer score_pool3-new
I0418 21:18:15.739614 17061 net.cpp:406] score_pool3-new <- pool3_pool3_0_split_1
I0418 21:18:15.739624 17061 net.cpp:380] score_pool3-new -> score_pool3-new
I0418 21:18:15.742398 17061 net.cpp:122] Setting up score_pool3-new
I0418 21:18:15.742439 17061 net.cpp:129] Top shape: 1 3 89 64 (17088)
I0418 21:18:15.742446 17061 net.cpp:137] Memory required for data: 876451028
I0418 21:18:15.742460 17061 layer_factory.hpp:77] Creating layer score_pool3c
I0418 21:18:15.742473 17061 net.cpp:84] Creating Layer score_pool3c
I0418 21:18:15.742480 17061 net.cpp:406] score_pool3c <- score_pool3-new
I0418 21:18:15.742491 17061 net.cpp:406] score_pool3c <- upscore_pool4-new_upscore_pool4-new_0_split_0
I0418 21:18:15.742502 17061 net.cpp:380] score_pool3c -> score_pool3c
I0418 21:18:15.742588 17061 net.cpp:122] Setting up score_pool3c
I0418 21:18:15.742600 17061 net.cpp:129] Top shape: 1 3 74 46 (10212)
I0418 21:18:15.742606 17061 net.cpp:137] Memory required for data: 876491876
I0418 21:18:15.742610 17061 layer_factory.hpp:77] Creating layer fuse_pool3
I0418 21:18:15.742622 17061 net.cpp:84] Creating Layer fuse_pool3
I0418 21:18:15.742627 17061 net.cpp:406] fuse_pool3 <- upscore_pool4-new_upscore_pool4-new_0_split_1
I0418 21:18:15.742637 17061 net.cpp:406] fuse_pool3 <- score_pool3c
I0418 21:18:15.742648 17061 net.cpp:380] fuse_pool3 -> fuse_pool3
I0418 21:18:15.742717 17061 net.cpp:122] Setting up fuse_pool3
I0418 21:18:15.742728 17061 net.cpp:129] Top shape: 1 3 74 46 (10212)
I0418 21:18:15.742733 17061 net.cpp:137] Memory required for data: 876532724
I0418 21:18:15.742738 17061 layer_factory.hpp:77] Creating layer upscore8-new
I0418 21:18:15.742753 17061 net.cpp:84] Creating Layer upscore8-new
I0418 21:18:15.742759 17061 net.cpp:406] upscore8-new <- fuse_pool3
I0418 21:18:15.742770 17061 net.cpp:380] upscore8-new -> upscore8-new
I0418 21:18:15.743393 17061 net.cpp:122] Setting up upscore8-new
I0418 21:18:15.743422 17061 net.cpp:129] Top shape: 1 3 600 376 (676800)
I0418 21:18:15.743428 17061 net.cpp:137] Memory required for data: 879239924
I0418 21:18:15.743438 17061 layer_factory.hpp:77] Creating layer upscore8_cropped
I0418 21:18:15.743448 17061 net.cpp:84] Creating Layer upscore8_cropped
I0418 21:18:15.743454 17061 net.cpp:406] upscore8_cropped <- upscore8-new
I0418 21:18:15.743464 17061 net.cpp:406] upscore8_cropped <- data_data_0_split_1
I0418 21:18:15.743474 17061 net.cpp:380] upscore8_cropped -> upscore8_cropped
I0418 21:18:15.743540 17061 net.cpp:122] Setting up upscore8_cropped
I0418 21:18:15.743554 17061 net.cpp:129] Top shape: 1 3 512 310 (476160)
I0418 21:18:15.743559 17061 net.cpp:137] Memory required for data: 881144564
I0418 21:18:15.743566 17061 layer_factory.hpp:77] Creating layer score
I0418 21:18:15.743593 17061 net.cpp:84] Creating Layer score
I0418 21:18:15.743599 17061 net.cpp:406] score <- upscore8_cropped
I0418 21:18:15.743611 17061 net.cpp:380] score -> score
I0418 21:18:15.746628 17061 net.cpp:122] Setting up score
I0418 21:18:15.746649 17061 net.cpp:129] Top shape: 1 3 512 310 (476160)
I0418 21:18:15.746656 17061 net.cpp:137] Memory required for data: 883049204
I0418 21:18:15.746666 17061 layer_factory.hpp:77] Creating layer score_score_0_split
I0418 21:18:15.746676 17061 net.cpp:84] Creating Layer score_score_0_split
I0418 21:18:15.746682 17061 net.cpp:406] score_score_0_split <- score
I0418 21:18:15.746691 17061 net.cpp:380] score_score_0_split -> score_score_0_split_0
I0418 21:18:15.746702 17061 net.cpp:380] score_score_0_split -> score_score_0_split_1
I0418 21:18:15.746806 17061 net.cpp:122] Setting up score_score_0_split
I0418 21:18:15.746819 17061 net.cpp:129] Top shape: 1 3 512 310 (476160)
I0418 21:18:15.746824 17061 net.cpp:129] Top shape: 1 3 512 310 (476160)
I0418 21:18:15.746829 17061 net.cpp:137] Memory required for data: 886858484
I0418 21:18:15.746834 17061 layer_factory.hpp:77] Creating layer prob
I0418 21:18:15.746845 17061 net.cpp:84] Creating Layer prob
I0418 21:18:15.746850 17061 net.cpp:406] prob <- score_score_0_split_0
I0418 21:18:15.746858 17061 net.cpp:380] prob -> prob
I0418 21:18:15.747226 17061 net.cpp:122] Setting up prob
I0418 21:18:15.747236 17061 net.cpp:129] Top shape: 1 3 512 310 (476160)
I0418 21:18:15.747238 17061 net.cpp:137] Memory required for data: 888763124
I0418 21:18:15.747243 17061 layer_factory.hpp:77] Creating layer saliency
I0418 21:18:15.747258 17061 net.cpp:84] Creating Layer saliency
I0418 21:18:15.747265 17061 net.cpp:406] saliency <- prob
I0418 21:18:15.747275 17061 net.cpp:380] saliency -> saliency
I0418 21:18:15.752955 17061 net.cpp:122] Setting up saliency
I0418 21:18:15.752979 17061 net.cpp:129] Top shape: 1 3 512 310 (476160)
I0418 21:18:15.752985 17061 net.cpp:137] Memory required for data: 890667764
I0418 21:18:15.752996 17061 layer_factory.hpp:77] Creating layer saliency_data
I0418 21:18:15.753010 17061 net.cpp:84] Creating Layer saliency_data
I0418 21:18:15.753017 17061 net.cpp:406] saliency_data <- data_data_0_split_2
I0418 21:18:15.753026 17061 net.cpp:406] saliency_data <- saliency
I0418 21:18:15.753034 17061 net.cpp:380] saliency_data -> saliency_data
I0418 21:18:15.753108 17061 net.cpp:122] Setting up saliency_data
I0418 21:18:15.753118 17061 net.cpp:129] Top shape: 1 3 512 310 (476160)
I0418 21:18:15.753123 17061 net.cpp:137] Memory required for data: 892572404
I0418 21:18:15.753126 17061 layer_factory.hpp:77] Creating layer crop
I0418 21:18:15.753242 17061 net.cpp:84] Creating Layer crop
I0418 21:18:15.753253 17061 net.cpp:406] crop <- label_data_1_split_0
I0418 21:18:15.753262 17061 net.cpp:406] crop <- saliency_data
I0418 21:18:15.753268 17061 net.cpp:406] crop <- crop_margin
I0418 21:18:15.753271 17061 net.cpp:406] crop <- crop_prob
I0418 21:18:15.753275 17061 net.cpp:406] crop <- crop_sample_batch
I0418 21:18:15.753284 17061 net.cpp:380] crop -> data-R
I0418 21:18:15.753296 17061 net.cpp:380] crop -> crop_info
I0418 21:18:15.760673 17061 net.cpp:122] Setting up crop
I0418 21:18:15.760696 17061 net.cpp:129] Top shape: 1 3 512 310 (476160)
I0418 21:18:15.760704 17061 net.cpp:129] Top shape: 1 2 4 (8)
I0418 21:18:15.760709 17061 net.cpp:137] Memory required for data: 894477076
I0418 21:18:15.760715 17061 layer_factory.hpp:77] Creating layer data-R_crop_0_split
I0418 21:18:15.760725 17061 net.cpp:84] Creating Layer data-R_crop_0_split
I0418 21:18:15.760731 17061 net.cpp:406] data-R_crop_0_split <- data-R
I0418 21:18:15.760742 17061 net.cpp:380] data-R_crop_0_split -> data-R_crop_0_split_0
I0418 21:18:15.760752 17061 net.cpp:380] data-R_crop_0_split -> data-R_crop_0_split_1
I0418 21:18:15.760871 17061 net.cpp:122] Setting up data-R_crop_0_split
I0418 21:18:15.760884 17061 net.cpp:129] Top shape: 1 3 512 310 (476160)
I0418 21:18:15.760892 17061 net.cpp:129] Top shape: 1 3 512 310 (476160)
I0418 21:18:15.760897 17061 net.cpp:137] Memory required for data: 898286356
I0418 21:18:15.760901 17061 layer_factory.hpp:77] Creating layer conv1_1-R
I0418 21:18:15.760913 17061 net.cpp:84] Creating Layer conv1_1-R
I0418 21:18:15.760921 17061 net.cpp:406] conv1_1-R <- data-R_crop_0_split_0
I0418 21:18:15.760933 17061 net.cpp:380] conv1_1-R -> conv1_1-R
I0418 21:18:15.764689 17061 net.cpp:122] Setting up conv1_1-R
I0418 21:18:15.764713 17061 net.cpp:129] Top shape: 1 64 710 508 (23083520)
I0418 21:18:15.764719 17061 net.cpp:137] Memory required for data: 990620436
I0418 21:18:15.764731 17061 layer_factory.hpp:77] Creating layer relu1_1-R
I0418 21:18:15.764742 17061 net.cpp:84] Creating Layer relu1_1-R
I0418 21:18:15.764749 17061 net.cpp:406] relu1_1-R <- conv1_1-R
I0418 21:18:15.764756 17061 net.cpp:367] relu1_1-R -> conv1_1-R (in-place)
I0418 21:18:15.765866 17061 net.cpp:122] Setting up relu1_1-R
I0418 21:18:15.765885 17061 net.cpp:129] Top shape: 1 64 710 508 (23083520)
I0418 21:18:15.765889 17061 net.cpp:137] Memory required for data: 1082954516
I0418 21:18:15.765895 17061 layer_factory.hpp:77] Creating layer conv1_2-R
I0418 21:18:15.765926 17061 net.cpp:84] Creating Layer conv1_2-R
I0418 21:18:15.765933 17061 net.cpp:406] conv1_2-R <- conv1_1-R
I0418 21:18:15.765942 17061 net.cpp:380] conv1_2-R -> conv1_2-R
I0418 21:18:15.770536 17061 net.cpp:122] Setting up conv1_2-R
I0418 21:18:15.770576 17061 net.cpp:129] Top shape: 1 64 710 508 (23083520)
I0418 21:18:15.770582 17061 net.cpp:137] Memory required for data: 1175288596
I0418 21:18:15.770596 17061 layer_factory.hpp:77] Creating layer relu1_2-R
I0418 21:18:15.770606 17061 net.cpp:84] Creating Layer relu1_2-R
I0418 21:18:15.770613 17061 net.cpp:406] relu1_2-R <- conv1_2-R
I0418 21:18:15.770622 17061 net.cpp:367] relu1_2-R -> conv1_2-R (in-place)
I0418 21:18:15.771817 17061 net.cpp:122] Setting up relu1_2-R
I0418 21:18:15.771839 17061 net.cpp:129] Top shape: 1 64 710 508 (23083520)
I0418 21:18:15.771845 17061 net.cpp:137] Memory required for data: 1267622676
I0418 21:18:15.771852 17061 layer_factory.hpp:77] Creating layer pool1-R
I0418 21:18:15.771867 17061 net.cpp:84] Creating Layer pool1-R
I0418 21:18:15.771872 17061 net.cpp:406] pool1-R <- conv1_2-R
I0418 21:18:15.771884 17061 net.cpp:380] pool1-R -> pool1-R
I0418 21:18:15.772001 17061 net.cpp:122] Setting up pool1-R
I0418 21:18:15.772016 17061 net.cpp:129] Top shape: 1 64 355 254 (5770880)
I0418 21:18:15.772020 17061 net.cpp:137] Memory required for data: 1290706196
I0418 21:18:15.772027 17061 layer_factory.hpp:77] Creating layer conv2_1-R
I0418 21:18:15.772056 17061 net.cpp:84] Creating Layer conv2_1-R
I0418 21:18:15.772063 17061 net.cpp:406] conv2_1-R <- pool1-R
I0418 21:18:15.772074 17061 net.cpp:380] conv2_1-R -> conv2_1-R
I0418 21:18:15.775131 17061 net.cpp:122] Setting up conv2_1-R
I0418 21:18:15.775157 17061 net.cpp:129] Top shape: 1 128 355 254 (11541760)
I0418 21:18:15.775164 17061 net.cpp:137] Memory required for data: 1336873236
I0418 21:18:15.775176 17061 layer_factory.hpp:77] Creating layer relu2_1-R
I0418 21:18:15.775185 17061 net.cpp:84] Creating Layer relu2_1-R
I0418 21:18:15.775192 17061 net.cpp:406] relu2_1-R <- conv2_1-R
I0418 21:18:15.775200 17061 net.cpp:367] relu2_1-R -> conv2_1-R (in-place)
I0418 21:18:15.775497 17061 net.cpp:122] Setting up relu2_1-R
I0418 21:18:15.775512 17061 net.cpp:129] Top shape: 1 128 355 254 (11541760)
I0418 21:18:15.775517 17061 net.cpp:137] Memory required for data: 1383040276
I0418 21:18:15.775522 17061 layer_factory.hpp:77] Creating layer conv2_2-R
I0418 21:18:15.775535 17061 net.cpp:84] Creating Layer conv2_2-R
I0418 21:18:15.775539 17061 net.cpp:406] conv2_2-R <- conv2_1-R
I0418 21:18:15.775548 17061 net.cpp:380] conv2_2-R -> conv2_2-R
I0418 21:18:15.781563 17061 net.cpp:122] Setting up conv2_2-R
I0418 21:18:15.781587 17061 net.cpp:129] Top shape: 1 128 355 254 (11541760)
I0418 21:18:15.781594 17061 net.cpp:137] Memory required for data: 1429207316
I0418 21:18:15.781608 17061 layer_factory.hpp:77] Creating layer relu2_2-R
I0418 21:18:15.781620 17061 net.cpp:84] Creating Layer relu2_2-R
I0418 21:18:15.781625 17061 net.cpp:406] relu2_2-R <- conv2_2-R
I0418 21:18:15.781632 17061 net.cpp:367] relu2_2-R -> conv2_2-R (in-place)
I0418 21:18:15.781993 17061 net.cpp:122] Setting up relu2_2-R
I0418 21:18:15.782006 17061 net.cpp:129] Top shape: 1 128 355 254 (11541760)
I0418 21:18:15.782013 17061 net.cpp:137] Memory required for data: 1475374356
I0418 21:18:15.782017 17061 layer_factory.hpp:77] Creating layer pool2-R
I0418 21:18:15.782027 17061 net.cpp:84] Creating Layer pool2-R
I0418 21:18:15.782033 17061 net.cpp:406] pool2-R <- conv2_2-R
I0418 21:18:15.782042 17061 net.cpp:380] pool2-R -> pool2-R
I0418 21:18:15.782140 17061 net.cpp:122] Setting up pool2-R
I0418 21:18:15.782158 17061 net.cpp:129] Top shape: 1 128 178 127 (2893568)
I0418 21:18:15.782189 17061 net.cpp:137] Memory required for data: 1486948628
I0418 21:18:15.782210 17061 layer_factory.hpp:77] Creating layer conv3_1-R
I0418 21:18:15.782223 17061 net.cpp:84] Creating Layer conv3_1-R
I0418 21:18:15.782228 17061 net.cpp:406] conv3_1-R <- pool2-R
I0418 21:18:15.782239 17061 net.cpp:380] conv3_1-R -> conv3_1-R
I0418 21:18:15.789268 17061 net.cpp:122] Setting up conv3_1-R
I0418 21:18:15.789305 17061 net.cpp:129] Top shape: 1 256 178 127 (5787136)
I0418 21:18:15.789312 17061 net.cpp:137] Memory required for data: 1510097172
I0418 21:18:15.789335 17061 layer_factory.hpp:77] Creating layer relu3_1-R
I0418 21:18:15.789347 17061 net.cpp:84] Creating Layer relu3_1-R
I0418 21:18:15.789357 17061 net.cpp:406] relu3_1-R <- conv3_1-R
I0418 21:18:15.789376 17061 net.cpp:367] relu3_1-R -> conv3_1-R (in-place)
I0418 21:18:15.789901 17061 net.cpp:122] Setting up relu3_1-R
I0418 21:18:15.789944 17061 net.cpp:129] Top shape: 1 256 178 127 (5787136)
I0418 21:18:15.789965 17061 net.cpp:137] Memory required for data: 1533245716
I0418 21:18:15.789973 17061 layer_factory.hpp:77] Creating layer conv3_2-R
I0418 21:18:15.789989 17061 net.cpp:84] Creating Layer conv3_2-R
I0418 21:18:15.789997 17061 net.cpp:406] conv3_2-R <- conv3_1-R
I0418 21:18:15.790002 17061 net.cpp:380] conv3_2-R -> conv3_2-R
I0418 21:18:15.805974 17061 net.cpp:122] Setting up conv3_2-R
I0418 21:18:15.806084 17061 net.cpp:129] Top shape: 1 256 178 127 (5787136)
I0418 21:18:15.806088 17061 net.cpp:137] Memory required for data: 1556394260
I0418 21:18:15.806094 17061 layer_factory.hpp:77] Creating layer relu3_2-R
I0418 21:18:15.806135 17061 net.cpp:84] Creating Layer relu3_2-R
I0418 21:18:15.806139 17061 net.cpp:406] relu3_2-R <- conv3_2-R
I0418 21:18:15.806143 17061 net.cpp:367] relu3_2-R -> conv3_2-R (in-place)
I0418 21:18:15.806916 17061 net.cpp:122] Setting up relu3_2-R
I0418 21:18:15.806938 17061 net.cpp:129] Top shape: 1 256 178 127 (5787136)
I0418 21:18:15.806944 17061 net.cpp:137] Memory required for data: 1579542804
I0418 21:18:15.806959 17061 layer_factory.hpp:77] Creating layer conv3_3-R
I0418 21:18:15.806988 17061 net.cpp:84] Creating Layer conv3_3-R
I0418 21:18:15.806994 17061 net.cpp:406] conv3_3-R <- conv3_2-R
I0418 21:18:15.807011 17061 net.cpp:380] conv3_3-R -> conv3_3-R
I0418 21:18:15.824386 17061 net.cpp:122] Setting up conv3_3-R
I0418 21:18:15.824420 17061 net.cpp:129] Top shape: 1 256 178 127 (5787136)
I0418 21:18:15.824445 17061 net.cpp:137] Memory required for data: 1602691348
I0418 21:18:15.824517 17061 layer_factory.hpp:77] Creating layer relu3_3-R
I0418 21:18:15.824563 17061 net.cpp:84] Creating Layer relu3_3-R
I0418 21:18:15.824606 17061 net.cpp:406] relu3_3-R <- conv3_3-R
I0418 21:18:15.824657 17061 net.cpp:367] relu3_3-R -> conv3_3-R (in-place)
I0418 21:18:15.830452 17061 net.cpp:122] Setting up relu3_3-R
I0418 21:18:15.830503 17061 net.cpp:129] Top shape: 1 256 178 127 (5787136)
I0418 21:18:15.830508 17061 net.cpp:137] Memory required for data: 1625839892
I0418 21:18:15.830519 17061 layer_factory.hpp:77] Creating layer pool3-R
I0418 21:18:15.830559 17061 net.cpp:84] Creating Layer pool3-R
I0418 21:18:15.830569 17061 net.cpp:406] pool3-R <- conv3_3-R
I0418 21:18:15.830598 17061 net.cpp:380] pool3-R -> pool3-R
I0418 21:18:15.830834 17061 net.cpp:122] Setting up pool3-R
I0418 21:18:15.830857 17061 net.cpp:129] Top shape: 1 256 89 64 (1458176)
I0418 21:18:15.830865 17061 net.cpp:137] Memory required for data: 1631672596
I0418 21:18:15.830870 17061 layer_factory.hpp:77] Creating layer pool3-R_pool3-R_0_split
I0418 21:18:15.830885 17061 net.cpp:84] Creating Layer pool3-R_pool3-R_0_split
I0418 21:18:15.830900 17061 net.cpp:406] pool3-R_pool3-R_0_split <- pool3-R
I0418 21:18:15.830909 17061 net.cpp:380] pool3-R_pool3-R_0_split -> pool3-R_pool3-R_0_split_0
I0418 21:18:15.830926 17061 net.cpp:380] pool3-R_pool3-R_0_split -> pool3-R_pool3-R_0_split_1
I0418 21:18:15.831171 17061 net.cpp:122] Setting up pool3-R_pool3-R_0_split
I0418 21:18:15.831200 17061 net.cpp:129] Top shape: 1 256 89 64 (1458176)
I0418 21:18:15.831215 17061 net.cpp:129] Top shape: 1 256 89 64 (1458176)
I0418 21:18:15.831225 17061 net.cpp:137] Memory required for data: 1643338004
I0418 21:18:15.831230 17061 layer_factory.hpp:77] Creating layer conv4_1-R
I0418 21:18:15.831254 17061 net.cpp:84] Creating Layer conv4_1-R
I0418 21:18:15.831281 17061 net.cpp:406] conv4_1-R <- pool3-R_pool3-R_0_split_0
I0418 21:18:15.831308 17061 net.cpp:380] conv4_1-R -> conv4_1-R
I0418 21:18:15.842061 17061 net.cpp:122] Setting up conv4_1-R
I0418 21:18:15.842101 17061 net.cpp:129] Top shape: 1 512 89 64 (2916352)
I0418 21:18:15.842108 17061 net.cpp:137] Memory required for data: 1655003412
I0418 21:18:15.842118 17061 layer_factory.hpp:77] Creating layer relu4_1-R
I0418 21:18:15.842128 17061 net.cpp:84] Creating Layer relu4_1-R
I0418 21:18:15.842133 17061 net.cpp:406] relu4_1-R <- conv4_1-R
I0418 21:18:15.842140 17061 net.cpp:367] relu4_1-R -> conv4_1-R (in-place)
I0418 21:18:15.844367 17061 net.cpp:122] Setting up relu4_1-R
I0418 21:18:15.844409 17061 net.cpp:129] Top shape: 1 512 89 64 (2916352)
I0418 21:18:15.844414 17061 net.cpp:137] Memory required for data: 1666668820
I0418 21:18:15.844420 17061 layer_factory.hpp:77] Creating layer conv4_2-R
I0418 21:18:15.844437 17061 net.cpp:84] Creating Layer conv4_2-R
I0418 21:18:15.844444 17061 net.cpp:406] conv4_2-R <- conv4_1-R
I0418 21:18:15.844455 17061 net.cpp:380] conv4_2-R -> conv4_2-R
I0418 21:18:15.860513 17061 net.cpp:122] Setting up conv4_2-R
I0418 21:18:15.860575 17061 net.cpp:129] Top shape: 1 512 89 64 (2916352)
I0418 21:18:15.860584 17061 net.cpp:137] Memory required for data: 1678334228
I0418 21:18:15.860612 17061 layer_factory.hpp:77] Creating layer relu4_2-R
I0418 21:18:15.860630 17061 net.cpp:84] Creating Layer relu4_2-R
I0418 21:18:15.860636 17061 net.cpp:406] relu4_2-R <- conv4_2-R
I0418 21:18:15.860659 17061 net.cpp:367] relu4_2-R -> conv4_2-R (in-place)
I0418 21:18:15.861564 17061 net.cpp:122] Setting up relu4_2-R
I0418 21:18:15.861582 17061 net.cpp:129] Top shape: 1 512 89 64 (2916352)
I0418 21:18:15.861587 17061 net.cpp:137] Memory required for data: 1689999636
I0418 21:18:15.861598 17061 layer_factory.hpp:77] Creating layer conv4_3-R
I0418 21:18:15.861623 17061 net.cpp:84] Creating Layer conv4_3-R
I0418 21:18:15.861634 17061 net.cpp:406] conv4_3-R <- conv4_2-R
I0418 21:18:15.861654 17061 net.cpp:380] conv4_3-R -> conv4_3-R
I0418 21:18:15.878427 17061 net.cpp:122] Setting up conv4_3-R
I0418 21:18:15.878456 17061 net.cpp:129] Top shape: 1 512 89 64 (2916352)
I0418 21:18:15.878463 17061 net.cpp:137] Memory required for data: 1701665044
I0418 21:18:15.878474 17061 layer_factory.hpp:77] Creating layer relu4_3-R
I0418 21:18:15.878494 17061 net.cpp:84] Creating Layer relu4_3-R
I0418 21:18:15.878501 17061 net.cpp:406] relu4_3-R <- conv4_3-R
I0418 21:18:15.878510 17061 net.cpp:367] relu4_3-R -> conv4_3-R (in-place)
I0418 21:18:15.878903 17061 net.cpp:122] Setting up relu4_3-R
I0418 21:18:15.878942 17061 net.cpp:129] Top shape: 1 512 89 64 (2916352)
I0418 21:18:15.878949 17061 net.cpp:137] Memory required for data: 1713330452
I0418 21:18:15.878958 17061 layer_factory.hpp:77] Creating layer pool4-R
I0418 21:18:15.878981 17061 net.cpp:84] Creating Layer pool4-R
I0418 21:18:15.878988 17061 net.cpp:406] pool4-R <- conv4_3-R
I0418 21:18:15.879005 17061 net.cpp:380] pool4-R -> pool4-R
I0418 21:18:15.879155 17061 net.cpp:122] Setting up pool4-R
I0418 21:18:15.879182 17061 net.cpp:129] Top shape: 1 512 45 32 (737280)
I0418 21:18:15.879189 17061 net.cpp:137] Memory required for data: 1716279572
I0418 21:18:15.879192 17061 layer_factory.hpp:77] Creating layer pool4-R_pool4-R_0_split
I0418 21:18:15.879202 17061 net.cpp:84] Creating Layer pool4-R_pool4-R_0_split
I0418 21:18:15.879207 17061 net.cpp:406] pool4-R_pool4-R_0_split <- pool4-R
I0418 21:18:15.879215 17061 net.cpp:380] pool4-R_pool4-R_0_split -> pool4-R_pool4-R_0_split_0
I0418 21:18:15.879222 17061 net.cpp:380] pool4-R_pool4-R_0_split -> pool4-R_pool4-R_0_split_1
I0418 21:18:15.879323 17061 net.cpp:122] Setting up pool4-R_pool4-R_0_split
I0418 21:18:15.879334 17061 net.cpp:129] Top shape: 1 512 45 32 (737280)
I0418 21:18:15.879338 17061 net.cpp:129] Top shape: 1 512 45 32 (737280)
I0418 21:18:15.879343 17061 net.cpp:137] Memory required for data: 1722177812
I0418 21:18:15.879348 17061 layer_factory.hpp:77] Creating layer conv5_1-R
I0418 21:18:15.879360 17061 net.cpp:84] Creating Layer conv5_1-R
I0418 21:18:15.879366 17061 net.cpp:406] conv5_1-R <- pool4-R_pool4-R_0_split_0
I0418 21:18:15.879376 17061 net.cpp:380] conv5_1-R -> conv5_1-R
I0418 21:18:15.893404 17061 net.cpp:122] Setting up conv5_1-R
I0418 21:18:15.893438 17061 net.cpp:129] Top shape: 1 512 45 32 (737280)
I0418 21:18:15.893445 17061 net.cpp:137] Memory required for data: 1725126932
I0418 21:18:15.893479 17061 layer_factory.hpp:77] Creating layer relu5_1-R
I0418 21:18:15.893503 17061 net.cpp:84] Creating Layer relu5_1-R
I0418 21:18:15.893509 17061 net.cpp:406] relu5_1-R <- conv5_1-R
I0418 21:18:15.893517 17061 net.cpp:367] relu5_1-R -> conv5_1-R (in-place)
I0418 21:18:15.894016 17061 net.cpp:122] Setting up relu5_1-R
I0418 21:18:15.894032 17061 net.cpp:129] Top shape: 1 512 45 32 (737280)
I0418 21:18:15.894039 17061 net.cpp:137] Memory required for data: 1728076052
I0418 21:18:15.894044 17061 layer_factory.hpp:77] Creating layer conv5_2-R
I0418 21:18:15.894053 17061 net.cpp:84] Creating Layer conv5_2-R
I0418 21:18:15.894057 17061 net.cpp:406] conv5_2-R <- conv5_1-R
I0418 21:18:15.894076 17061 net.cpp:380] conv5_2-R -> conv5_2-R
I0418 21:18:15.909796 17061 net.cpp:122] Setting up conv5_2-R
I0418 21:18:15.909845 17061 net.cpp:129] Top shape: 1 512 45 32 (737280)
I0418 21:18:15.909850 17061 net.cpp:137] Memory required for data: 1731025172
I0418 21:18:15.909857 17061 layer_factory.hpp:77] Creating layer relu5_2-R
I0418 21:18:15.909865 17061 net.cpp:84] Creating Layer relu5_2-R
I0418 21:18:15.909888 17061 net.cpp:406] relu5_2-R <- conv5_2-R
I0418 21:18:15.909895 17061 net.cpp:367] relu5_2-R -> conv5_2-R (in-place)
I0418 21:18:15.910791 17061 net.cpp:122] Setting up relu5_2-R
I0418 21:18:15.910845 17061 net.cpp:129] Top shape: 1 512 45 32 (737280)
I0418 21:18:15.910862 17061 net.cpp:137] Memory required for data: 1733974292
I0418 21:18:15.910868 17061 layer_factory.hpp:77] Creating layer conv5_3-R
I0418 21:18:15.910881 17061 net.cpp:84] Creating Layer conv5_3-R
I0418 21:18:15.910883 17061 net.cpp:406] conv5_3-R <- conv5_2-R
I0418 21:18:15.910892 17061 net.cpp:380] conv5_3-R -> conv5_3-R
I0418 21:18:15.939230 17061 net.cpp:122] Setting up conv5_3-R
I0418 21:18:15.939296 17061 net.cpp:129] Top shape: 1 512 45 32 (737280)
I0418 21:18:15.939311 17061 net.cpp:137] Memory required for data: 1736923412
I0418 21:18:15.939337 17061 layer_factory.hpp:77] Creating layer relu5_3-R
I0418 21:18:15.939357 17061 net.cpp:84] Creating Layer relu5_3-R
I0418 21:18:15.939363 17061 net.cpp:406] relu5_3-R <- conv5_3-R
I0418 21:18:15.939384 17061 net.cpp:367] relu5_3-R -> conv5_3-R (in-place)
I0418 21:18:15.941895 17061 net.cpp:122] Setting up relu5_3-R
I0418 21:18:15.941946 17061 net.cpp:129] Top shape: 1 512 45 32 (737280)
I0418 21:18:15.941967 17061 net.cpp:137] Memory required for data: 1739872532
I0418 21:18:15.941977 17061 layer_factory.hpp:77] Creating layer pool5-R
I0418 21:18:15.941984 17061 net.cpp:84] Creating Layer pool5-R
I0418 21:18:15.941988 17061 net.cpp:406] pool5-R <- conv5_3-R
I0418 21:18:15.942003 17061 net.cpp:380] pool5-R -> pool5-R
I0418 21:18:15.942291 17061 net.cpp:122] Setting up pool5-R
I0418 21:18:15.942592 17061 net.cpp:129] Top shape: 1 512 23 16 (188416)
I0418 21:18:15.943006 17061 net.cpp:137] Memory required for data: 1740626196
I0418 21:18:15.943253 17061 layer_factory.hpp:77] Creating layer fc6-R
I0418 21:18:15.943516 17061 net.cpp:84] Creating Layer fc6-R
I0418 21:18:15.943557 17061 net.cpp:406] fc6-R <- pool5-R
I0418 21:18:15.943620 17061 net.cpp:380] fc6-R -> fc6-R
I0418 21:18:16.632740 17061 net.cpp:122] Setting up fc6-R
I0418 21:18:16.632825 17061 net.cpp:129] Top shape: 1 4096 17 10 (696320)
I0418 21:18:16.632834 17061 net.cpp:137] Memory required for data: 1743411476
I0418 21:18:16.632879 17061 layer_factory.hpp:77] Creating layer relu6-R
I0418 21:18:16.632918 17061 net.cpp:84] Creating Layer relu6-R
I0418 21:18:16.632958 17061 net.cpp:406] relu6-R <- fc6-R
I0418 21:18:16.632984 17061 net.cpp:367] relu6-R -> fc6-R (in-place)
I0418 21:18:16.635695 17061 net.cpp:122] Setting up relu6-R
I0418 21:18:16.635743 17061 net.cpp:129] Top shape: 1 4096 17 10 (696320)
I0418 21:18:16.635761 17061 net.cpp:137] Memory required for data: 1746196756
I0418 21:18:16.635782 17061 layer_factory.hpp:77] Creating layer drop6-R
I0418 21:18:16.635845 17061 net.cpp:84] Creating Layer drop6-R
I0418 21:18:16.635865 17061 net.cpp:406] drop6-R <- fc6-R
I0418 21:18:16.635908 17061 net.cpp:367] drop6-R -> fc6-R (in-place)
I0418 21:18:16.636046 17061 net.cpp:122] Setting up drop6-R
I0418 21:18:16.636070 17061 net.cpp:129] Top shape: 1 4096 17 10 (696320)
I0418 21:18:16.636077 17061 net.cpp:137] Memory required for data: 1748982036
I0418 21:18:16.636085 17061 layer_factory.hpp:77] Creating layer fc7-R
I0418 21:18:16.636099 17061 net.cpp:84] Creating Layer fc7-R
I0418 21:18:16.636103 17061 net.cpp:406] fc7-R <- fc6-R
I0418 21:18:16.636117 17061 net.cpp:380] fc7-R -> fc7-R
I0418 21:18:16.788666 17061 net.cpp:122] Setting up fc7-R
I0418 21:18:16.788808 17061 net.cpp:129] Top shape: 1 4096 17 10 (696320)
I0418 21:18:16.788851 17061 net.cpp:137] Memory required for data: 1751767316
I0418 21:18:16.788874 17061 layer_factory.hpp:77] Creating layer relu7-R
I0418 21:18:16.788913 17061 net.cpp:84] Creating Layer relu7-R
I0418 21:18:16.788949 17061 net.cpp:406] relu7-R <- fc7-R
I0418 21:18:16.788971 17061 net.cpp:367] relu7-R -> fc7-R (in-place)
I0418 21:18:16.789624 17061 net.cpp:122] Setting up relu7-R
I0418 21:18:16.789635 17061 net.cpp:129] Top shape: 1 4096 17 10 (696320)
I0418 21:18:16.789639 17061 net.cpp:137] Memory required for data: 1754552596
I0418 21:18:16.789650 17061 layer_factory.hpp:77] Creating layer drop7-R
I0418 21:18:16.789660 17061 net.cpp:84] Creating Layer drop7-R
I0418 21:18:16.789667 17061 net.cpp:406] drop7-R <- fc7-R
I0418 21:18:16.789680 17061 net.cpp:367] drop7-R -> fc7-R (in-place)
I0418 21:18:16.789834 17061 net.cpp:122] Setting up drop7-R
I0418 21:18:16.789851 17061 net.cpp:129] Top shape: 1 4096 17 10 (696320)
I0418 21:18:16.789875 17061 net.cpp:137] Memory required for data: 1757337876
I0418 21:18:16.789888 17061 layer_factory.hpp:77] Creating layer score_fr-new-R
I0418 21:18:16.789925 17061 net.cpp:84] Creating Layer score_fr-new-R
I0418 21:18:16.789940 17061 net.cpp:406] score_fr-new-R <- fc7-R
I0418 21:18:16.789949 17061 net.cpp:380] score_fr-new-R -> score_fr-new-R
I0418 21:18:16.795452 17061 net.cpp:122] Setting up score_fr-new-R
I0418 21:18:16.795508 17061 net.cpp:129] Top shape: 1 3 17 10 (510)
I0418 21:18:16.795523 17061 net.cpp:137] Memory required for data: 1757339916
I0418 21:18:16.795541 17061 layer_factory.hpp:77] Creating layer upscore2-new-R
I0418 21:18:16.795550 17061 net.cpp:84] Creating Layer upscore2-new-R
I0418 21:18:16.795559 17061 net.cpp:406] upscore2-new-R <- score_fr-new-R
I0418 21:18:16.795614 17061 net.cpp:380] upscore2-new-R -> upscore2-new-R
I0418 21:18:16.796524 17061 net.cpp:122] Setting up upscore2-new-R
I0418 21:18:16.796540 17061 net.cpp:129] Top shape: 1 3 36 22 (2376)
I0418 21:18:16.796546 17061 net.cpp:137] Memory required for data: 1757349420
I0418 21:18:16.796558 17061 layer_factory.hpp:77] Creating layer upscore2-new-R_upscore2-new-R_0_split
I0418 21:18:16.796574 17061 net.cpp:84] Creating Layer upscore2-new-R_upscore2-new-R_0_split
I0418 21:18:16.796591 17061 net.cpp:406] upscore2-new-R_upscore2-new-R_0_split <- upscore2-new-R
I0418 21:18:16.796595 17061 net.cpp:380] upscore2-new-R_upscore2-new-R_0_split -> upscore2-new-R_upscore2-new-R_0_split_0
I0418 21:18:16.796602 17061 net.cpp:380] upscore2-new-R_upscore2-new-R_0_split -> upscore2-new-R_upscore2-new-R_0_split_1
I0418 21:18:16.796744 17061 net.cpp:122] Setting up upscore2-new-R_upscore2-new-R_0_split
I0418 21:18:16.796766 17061 net.cpp:129] Top shape: 1 3 36 22 (2376)
I0418 21:18:16.796774 17061 net.cpp:129] Top shape: 1 3 36 22 (2376)
I0418 21:18:16.796785 17061 net.cpp:137] Memory required for data: 1757368428
I0418 21:18:16.796793 17061 layer_factory.hpp:77] Creating layer score_pool4-new-R
I0418 21:18:16.796811 17061 net.cpp:84] Creating Layer score_pool4-new-R
I0418 21:18:16.796821 17061 net.cpp:406] score_pool4-new-R <- pool4-R_pool4-R_0_split_1
I0418 21:18:16.796844 17061 net.cpp:380] score_pool4-new-R -> score_pool4-new-R
I0418 21:18:16.802094 17061 net.cpp:122] Setting up score_pool4-new-R
I0418 21:18:16.802134 17061 net.cpp:129] Top shape: 1 3 45 32 (4320)
I0418 21:18:16.802143 17061 net.cpp:137] Memory required for data: 1757385708
I0418 21:18:16.802188 17061 layer_factory.hpp:77] Creating layer score_pool4c-R
I0418 21:18:16.802206 17061 net.cpp:84] Creating Layer score_pool4c-R
I0418 21:18:16.802211 17061 net.cpp:406] score_pool4c-R <- score_pool4-new-R
I0418 21:18:16.802217 17061 net.cpp:406] score_pool4c-R <- upscore2-new-R_upscore2-new-R_0_split_0
I0418 21:18:16.802230 17061 net.cpp:380] score_pool4c-R -> score_pool4c-R
I0418 21:18:16.802342 17061 net.cpp:122] Setting up score_pool4c-R
I0418 21:18:16.802359 17061 net.cpp:129] Top shape: 1 3 36 22 (2376)
I0418 21:18:16.802364 17061 net.cpp:137] Memory required for data: 1757395212
I0418 21:18:16.802376 17061 layer_factory.hpp:77] Creating layer fuse_pool4-R
I0418 21:18:16.802397 17061 net.cpp:84] Creating Layer fuse_pool4-R
I0418 21:18:16.802408 17061 net.cpp:406] fuse_pool4-R <- upscore2-new-R_upscore2-new-R_0_split_1
I0418 21:18:16.802423 17061 net.cpp:406] fuse_pool4-R <- score_pool4c-R
I0418 21:18:16.802438 17061 net.cpp:380] fuse_pool4-R -> fuse_pool4-R
I0418 21:18:16.802528 17061 net.cpp:122] Setting up fuse_pool4-R
I0418 21:18:16.802551 17061 net.cpp:129] Top shape: 1 3 36 22 (2376)
I0418 21:18:16.802556 17061 net.cpp:137] Memory required for data: 1757404716
I0418 21:18:16.802561 17061 layer_factory.hpp:77] Creating layer upscore_pool4-new-R
I0418 21:18:16.802580 17061 net.cpp:84] Creating Layer upscore_pool4-new-R
I0418 21:18:16.802597 17061 net.cpp:406] upscore_pool4-new-R <- fuse_pool4-R
I0418 21:18:16.802621 17061 net.cpp:380] upscore_pool4-new-R -> upscore_pool4-new-R
I0418 21:18:16.803530 17061 net.cpp:122] Setting up upscore_pool4-new-R
I0418 21:18:16.803566 17061 net.cpp:129] Top shape: 1 3 74 46 (10212)
I0418 21:18:16.803578 17061 net.cpp:137] Memory required for data: 1757445564
I0418 21:18:16.803591 17061 layer_factory.hpp:77] Creating layer upscore_pool4-new-R_upscore_pool4-new-R_0_split
I0418 21:18:16.803611 17061 net.cpp:84] Creating Layer upscore_pool4-new-R_upscore_pool4-new-R_0_split
I0418 21:18:16.803627 17061 net.cpp:406] upscore_pool4-new-R_upscore_pool4-new-R_0_split <- upscore_pool4-new-R
I0418 21:18:16.803633 17061 net.cpp:380] upscore_pool4-new-R_upscore_pool4-new-R_0_split -> upscore_pool4-new-R_upscore_pool4-new-R_0_split_0
I0418 21:18:16.803640 17061 net.cpp:380] upscore_pool4-new-R_upscore_pool4-new-R_0_split -> upscore_pool4-new-R_upscore_pool4-new-R_0_split_1
I0418 21:18:16.803800 17061 net.cpp:122] Setting up upscore_pool4-new-R_upscore_pool4-new-R_0_split
I0418 21:18:16.803824 17061 net.cpp:129] Top shape: 1 3 74 46 (10212)
I0418 21:18:16.803828 17061 net.cpp:129] Top shape: 1 3 74 46 (10212)
I0418 21:18:16.803831 17061 net.cpp:137] Memory required for data: 1757527260
I0418 21:18:16.803834 17061 layer_factory.hpp:77] Creating layer score_pool3-new-R
I0418 21:18:16.803848 17061 net.cpp:84] Creating Layer score_pool3-new-R
I0418 21:18:16.803858 17061 net.cpp:406] score_pool3-new-R <- pool3-R_pool3-R_0_split_1
I0418 21:18:16.803876 17061 net.cpp:380] score_pool3-new-R -> score_pool3-new-R
I0418 21:18:16.809094 17061 net.cpp:122] Setting up score_pool3-new-R
I0418 21:18:16.809132 17061 net.cpp:129] Top shape: 1 3 89 64 (17088)
I0418 21:18:16.809141 17061 net.cpp:137] Memory required for data: 1757595612
I0418 21:18:16.809165 17061 layer_factory.hpp:77] Creating layer score_pool3c-R
I0418 21:18:16.809175 17061 net.cpp:84] Creating Layer score_pool3c-R
I0418 21:18:16.809180 17061 net.cpp:406] score_pool3c-R <- score_pool3-new-R
I0418 21:18:16.809185 17061 net.cpp:406] score_pool3c-R <- upscore_pool4-new-R_upscore_pool4-new-R_0_split_0
I0418 21:18:16.809201 17061 net.cpp:380] score_pool3c-R -> score_pool3c-R
I0418 21:18:16.809319 17061 net.cpp:122] Setting up score_pool3c-R
I0418 21:18:16.809341 17061 net.cpp:129] Top shape: 1 3 74 46 (10212)
I0418 21:18:16.809350 17061 net.cpp:137] Memory required for data: 1757636460
I0418 21:18:16.809360 17061 layer_factory.hpp:77] Creating layer fuse_pool3-R
I0418 21:18:16.809396 17061 net.cpp:84] Creating Layer fuse_pool3-R
I0418 21:18:16.809414 17061 net.cpp:406] fuse_pool3-R <- upscore_pool4-new-R_upscore_pool4-new-R_0_split_1
I0418 21:18:16.809424 17061 net.cpp:406] fuse_pool3-R <- score_pool3c-R
I0418 21:18:16.809450 17061 net.cpp:380] fuse_pool3-R -> fuse_pool3-R
I0418 21:18:16.809610 17061 net.cpp:122] Setting up fuse_pool3-R
I0418 21:18:16.809651 17061 net.cpp:129] Top shape: 1 3 74 46 (10212)
I0418 21:18:16.809667 17061 net.cpp:137] Memory required for data: 1757677308
I0418 21:18:16.809671 17061 layer_factory.hpp:77] Creating layer upscore8-new-R
I0418 21:18:16.809679 17061 net.cpp:84] Creating Layer upscore8-new-R
I0418 21:18:16.809690 17061 net.cpp:406] upscore8-new-R <- fuse_pool3-R
I0418 21:18:16.809711 17061 net.cpp:380] upscore8-new-R -> upscore8-new-R
I0418 21:18:16.810801 17061 net.cpp:122] Setting up upscore8-new-R
I0418 21:18:16.810823 17061 net.cpp:129] Top shape: 1 3 600 376 (676800)
I0418 21:18:16.810829 17061 net.cpp:137] Memory required for data: 1760384508
I0418 21:18:16.810844 17061 layer_factory.hpp:77] Creating layer upscore8_cropped-R
I0418 21:18:16.810858 17061 net.cpp:84] Creating Layer upscore8_cropped-R
I0418 21:18:16.810868 17061 net.cpp:406] upscore8_cropped-R <- upscore8-new-R
I0418 21:18:16.810876 17061 net.cpp:406] upscore8_cropped-R <- data-R_crop_0_split_1
I0418 21:18:16.810883 17061 net.cpp:380] upscore8_cropped-R -> upscore8_cropped-R
I0418 21:18:16.810957 17061 net.cpp:122] Setting up upscore8_cropped-R
I0418 21:18:16.810977 17061 net.cpp:129] Top shape: 1 3 512 310 (476160)
I0418 21:18:16.810994 17061 net.cpp:137] Memory required for data: 1762289148
I0418 21:18:16.811002 17061 layer_factory.hpp:77] Creating layer score-R
I0418 21:18:16.811023 17061 net.cpp:84] Creating Layer score-R
I0418 21:18:16.811033 17061 net.cpp:406] score-R <- upscore8_cropped-R
I0418 21:18:16.811049 17061 net.cpp:380] score-R -> score-R
I0418 21:18:16.815881 17061 net.cpp:122] Setting up score-R
I0418 21:18:16.815932 17061 net.cpp:129] Top shape: 1 3 512 310 (476160)
I0418 21:18:16.815937 17061 net.cpp:137] Memory required for data: 1764193788
I0418 21:18:16.815943 17061 layer_factory.hpp:77] Creating layer score_uncropped-R
I0418 21:18:16.816190 17061 net.cpp:84] Creating Layer score_uncropped-R
I0418 21:18:16.816237 17061 net.cpp:406] score_uncropped-R <- crop_info
I0418 21:18:16.816251 17061 net.cpp:406] score_uncropped-R <- score-R
I0418 21:18:16.816290 17061 net.cpp:406] score_uncropped-R <- data_data_0_split_3
I0418 21:18:16.816316 17061 net.cpp:380] score_uncropped-R -> score_uncropped-R
I0418 21:18:16.821624 17061 net.cpp:122] Setting up score_uncropped-R
I0418 21:18:16.821645 17061 net.cpp:129] Top shape: 1 3 512 310 (476160)
I0418 21:18:16.821658 17061 net.cpp:137] Memory required for data: 1766098428
I0418 21:18:16.821671 17061 layer_factory.hpp:77] Creating layer loss1
I0418 21:18:16.821693 17061 net.cpp:84] Creating Layer loss1
I0418 21:18:16.821697 17061 net.cpp:406] loss1 <- score_score_0_split_1
I0418 21:18:16.821702 17061 net.cpp:406] loss1 <- label_data_1_split_1
I0418 21:18:16.821709 17061 net.cpp:380] loss1 -> loss1
…
