…
snapshot_prefix: "/media/Med_2T2/data2/models/snapshots/indiv:1e-5x10,20/FD1:YI3_1_20180418_201418/train"
test_initialization: false
average_loss: 20
stepvalue: 40000
iter_size: 1
I0418 23:55:55.916101 20744 solver.cpp:77] Creating training net from train_net file: /media/Med_2T2/data2/prototxts/training_S3x10.prototxt
I0418 23:55:55.919209 20744 net.cpp:51] Initializing net from parameters: 
state {
  phase: TRAIN
}
layer {
  name: "data"
  type: "Python"
  top: "data"
  top: "label"
  top: "crop_margin"
  top: "crop_prob"
  top: "crop_sample_batch"
  python_param {
    module: "Data"
    layer: "DataLayer"
  }
}
layer {
  name: "conv1_1"
  type: "Convolution"
  bottom: "data"
  top: "conv1_1"
  param {
    lr_mult: 1
    decay_mult: 1
  }
  param {
    lr_mult: 2
    decay_mult: 0
  }
  convolution_param {
    num_output: 64
    pad: 100
    kernel_size: 3
    stride: 1
  }
}
layer {
  name: "relu1_1"
  type: "ReLU"
  bottom: "conv1_1"
  top: "conv1_1"
}
layer {
  name: "conv1_2"
  type: "Convolution"
  bottom: "conv1_1"
  top: "conv1_2"
  param {
    lr_mult: 1
    decay_mult: 1
  }
  param {
    lr_mult: 2
    decay_mult: 0
  }
  convolution_param {
    num_output: 64
    pad: 1
    kernel_size: 3
    stride: 1
  }
}
layer {
  name: "relu1_2"
  type: "ReLU"
  bottom: "conv1_2"
  top: "conv1_2"
}
layer {
  name: "pool1"
  type: "Pooling"
  bottom: "conv1_2"
  top: "pool1"
  pooling_param {
    pool: MAX
    kernel_size: 2
    stride: 2
  }
}
layer {
  name: "conv2_1"
  type: "Convolution"
  bottom: "pool1"
  top: "conv2_1"
  param {
    lr_mult: 1
    decay_mult: 1
  }
  param {
    lr_mult: 2
    decay_mult: 0
  }
  convolution_param {
    num_output: 128
    pad: 1
    kernel_size: 3
    stride: 1
  }
}
layer {
  name: "relu2_1"
  type: "ReLU"
  bottom: "conv2_1"
  top: "conv2_1"
}
layer {
  name: "conv2_2"
  type: "Convolution"
  bottom: "conv2_1"
  top: "conv2_2"
  param {
    lr_mult: 1
    decay_mult: 1
  }
  param {
    lr_mult: 2
    decay_mult: 0
  }
  convolution_param {
    num_output: 128
    pad: 1
    kernel_size: 3
    stride: 1
  }
}
layer {
  name: "relu2_2"
  type: "ReLU"
  bottom: "conv2_2"
  top: "conv2_2"
}
layer {
  name: "pool2"
  type: "Pooling"
  bottom: "conv2_2"
  top: "pool2"
  pooling_param {
    pool: MAX
    kernel_size: 2
    stride: 2
  }
}
layer {
  name: "conv3_1"
  type: "Convolution"
  bottom: "pool2"
  top: "conv3_1"
  param {
    lr_mult: 1
    decay_mult: 1
  }
  param {
    lr_mult: 2
    decay_mult: 0
  }
  convolution_param {
    num_output: 256
    pad: 1
    kernel_size: 3
    stride: 1
  }
}
layer {
  name: "relu3_1"
  type: "ReLU"
  bottom: "conv3_1"
  top: "conv3_1"
}
layer {
  name: "conv3_2"
  type: "Convolution"
  bottom: "conv3_1"
  top: "conv3_2"
  param {
    lr_mult: 1
    decay_mult: 1
  }
  param {
    lr_mult: 2
    decay_mult: 0
  }
  convolution_param {
    num_output: 256
    pad: 1
    kernel_size: 3
    stride: 1
  }
}
layer {
  name: "relu3_2"
  type: "ReLU"
  bottom: "conv3_2"
  top: "conv3_2"
}
layer {
  name: "conv3_3"
  type: "Convolution"
  bottom: "conv3_2"
  top: "conv3_3"
  param {
    lr_mult: 1
    decay_mult: 1
  }
  param {
    lr_mult: 2
    decay_mult: 0
  }
  convolution_param {
    num_output: 256
    pad: 1
    kernel_size: 3
    stride: 1
  }
}
layer {
  name: "relu3_3"
  type: "ReLU"
  bottom: "conv3_3"
  top: "conv3_3"
}
layer {
  name: "pool3"
  type: "Pooling"
  bottom: "conv3_3"
  top: "pool3"
  pooling_param {
    pool: MAX
    kernel_size: 2
    stride: 2
  }
}
layer {
  name: "conv4_1"
  type: "Convolution"
  bottom: "pool3"
  top: "conv4_1"
  param {
    lr_mult: 1
    decay_mult: 1
  }
  param {
    lr_mult: 2
    decay_mult: 0
  }
  convolution_param {
    num_output: 512
    pad: 1
    kernel_size: 3
    stride: 1
  }
}
layer {
  name: "relu4_1"
  type: "ReLU"
  bottom: "conv4_1"
  top: "conv4_1"
}
layer {
  name: "conv4_2"
  type: "Convolution"
  bottom: "conv4_1"
  top: "conv4_2"
  param {
    lr_mult: 1
    decay_mult: 1
  }
  param {
    lr_mult: 2
    decay_mult: 0
  }
  convolution_param {
    num_output: 512
    pad: 1
    kernel_size: 3
    stride: 1
  }
}
layer {
  name: "relu4_2"
  type: "ReLU"
  bottom: "conv4_2"
  top: "conv4_2"
}
layer {
  name: "conv4_3"
  type: "Convolution"
  bottom: "conv4_2"
  top: "conv4_3"
  param {
    lr_mult: 1
    decay_mult: 1
  }
  param {
    lr_mult: 2
    decay_mult: 0
  }
  convolution_param {
    num_output: 512
    pad: 1
    kernel_size: 3
    stride: 1
  }
}
layer {
  name: "relu4_3"
  type: "ReLU"
  bottom: "conv4_3"
  top: "conv4_3"
}
layer {
  name: "pool4"
  type: "Pooling"
  bottom: "conv4_3"
  top: "pool4"
  pooling_param {
    pool: MAX
    kernel_size: 2
    stride: 2
  }
}
layer {
  name: "conv5_1"
  type: "Convolution"
  bottom: "pool4"
  top: "conv5_1"
  param {
    lr_mult: 1
    decay_mult: 1
  }
  param {
    lr_mult: 2
    decay_mult: 0
  }
  convolution_param {
    num_output: 512
    pad: 1
    kernel_size: 3
    stride: 1
  }
}
layer {
  name: "relu5_1"
  type: "ReLU"
  bottom: "conv5_1"
  top: "conv5_1"
}
layer {
  name: "conv5_2"
  type: "Convolution"
  bottom: "conv5_1"
  top: "conv5_2"
  param {
    lr_mult: 1
    decay_mult: 1
  }
  param {
    lr_mult: 2
    decay_mult: 0
  }
  convolution_param {
    num_output: 512
    pad: 1
    kernel_size: 3
    stride: 1
  }
}
layer {
  name: "relu5_2"
  type: "ReLU"
  bottom: "conv5_2"
  top: "conv5_2"
}
layer {
  name: "conv5_3"
  type: "Convolution"
  bottom: "conv5_2"
  top: "conv5_3"
  param {
    lr_mult: 1
    decay_mult: 1
  }
  param {
    lr_mult: 2
    decay_mult: 0
  }
  convolution_param {
    num_output: 512
    pad: 1
    kernel_size: 3
    stride: 1
  }
}
layer {
  name: "relu5_3"
  type: "ReLU"
  bottom: "conv5_3"
  top: "conv5_3"
}
layer {
  name: "pool5"
  type: "Pooling"
  bottom: "conv5_3"
  top: "pool5"
  pooling_param {
    pool: MAX
    kernel_size: 2
    stride: 2
  }
}
layer {
  name: "fc6"
  type: "Convolution"
  bottom: "pool5"
  top: "fc6"
  param {
    lr_mult: 1
    decay_mult: 1
  }
  param {
    lr_mult: 2
    decay_mult: 0
  }
  convolution_param {
    num_output: 4096
    pad: 0
    kernel_size: 7
    stride: 1
  }
}
layer {
  name: "relu6"
  type: "ReLU"
  bottom: "fc6"
  top: "fc6"
}
layer {
  name: "drop6"
  type: "Dropout"
  bottom: "fc6"
  top: "fc6"
  dropout_param {
    dropout_ratio: 0.5
  }
}
layer {
  name: "fc7"
  type: "Convolution"
  bottom: "fc6"
  top: "fc7"
  param {
    lr_mult: 1
    decay_mult: 1
  }
  param {
    lr_mult: 2
    decay_mult: 0
  }
  convolution_param {
    num_output: 4096
    pad: 0
    kernel_size: 1
    stride: 1
  }
}
layer {
  name: "relu7"
  type: "ReLU"
  bottom: "fc7"
  top: "fc7"
}
layer {
  name: "drop7"
  type: "Dropout"
  bottom: "fc7"
  top: "fc7"
  dropout_param {
    dropout_ratio: 0.5
  }
}
layer {
  name: "score_fr-new"
  type: "Convolution"
  bottom: "fc7"
  top: "score_fr-new"
  param {
    lr_mult: 1
    decay_mult: 1
  }
  param {
    lr_mult: 2
    decay_mult: 0
  }
  convolution_param {
    num_output: 3
    kernel_size: 1
  }
}
layer {
  name: "upscore2-new"
  type: "Deconvolution"
  bottom: "score_fr-new"
  top: "upscore2-new"
  param {
    lr_mult: 0
  }
  convolution_param {
    num_output: 3
    bias_term: false
    kernel_size: 4
    stride: 2
  }
}
layer {
  name: "score_pool4-new"
  type: "Convolution"
  bottom: "pool4"
  top: "score_pool4-new"
  param {
    lr_mult: 1
    decay_mult: 1
  }
  param {
    lr_mult: 2
    decay_mult: 0
  }
  convolution_param {
    num_output: 3
    pad: 0
    kernel_size: 1
  }
}
layer {
  name: "score_pool4c"
  type: "Crop"
  bottom: "score_pool4-new"
  bottom: "upscore2-new"
  top: "score_pool4c"
  crop_param {
    axis: 2
    offset: 5
  }
}
layer {
  name: "fuse_pool4"
  type: "Eltwise"
  bottom: "upscore2-new"
  bottom: "score_pool4c"
  top: "fuse_pool4"
  eltwise_param {
    operation: SUM
  }
}
layer {
  name: "upscore_pool4-new"
  type: "Deconvolution"
  bottom: "fuse_pool4"
  top: "upscore_pool4-new"
  param {
    lr_mult: 0
  }
  convolution_param {
    num_output: 3
    bias_term: false
    kernel_size: 4
    stride: 2
  }
}
layer {
  name: "score_pool3-new"
  type: "Convolution"
  bottom: "pool3"
  top: "score_pool3-new"
  param {
    lr_mult: 1
    decay_mult: 1
  }
  param {
    lr_mult: 2
    decay_mult: 0
  }
  convolution_param {
    num_output: 3
    pad: 0
    kernel_size: 1
  }
}
layer {
  name: "score_pool3c"
  type: "Crop"
  bottom: "score_pool3-new"
  bottom: "upscore_pool4-new"
  top: "score_pool3c"
  crop_param {
    axis: 2
    offset: 9
  }
}
layer {
  name: "fuse_pool3"
  type: "Eltwise"
  bottom: "upscore_pool4-new"
  bottom: "score_pool3c"
  top: "fuse_pool3"
  eltwise_param {
    operation: SUM
  }
}
layer {
  name: "upscore8-new"
  type: "Deconvolution"
  bottom: "fuse_pool3"
  top: "upscore8-new"
  param {
    lr_mult: 0
  }
  convolution_param {
    num_output: 3
    bias_term: false
    kernel_size: 16
    stride: 8
  }
}
layer {
  name: "upscore8_cropped"
  type: "Crop"
  bottom: "upscore8-new"
  bottom: "data"
  top: "upscore8_cropped"
  crop_param {
    axis: 2
    offset: 31
  }
}
layer {
  name: "score"
  type: "Convolution"
  bottom: "upscore8_cropped"
  top: "score"
  param {
    lr_mult: 1
    decay_mult: 1
  }
  param {
    lr_mult: 2
    decay_mult: 0
  }
  convolution_param {
    num_output: 3
    pad: 1
    kernel_size: 3
    stride: 1
    weight_filler {
      type: "xavier"
    }
    bias_filler {
      type: "constant"
      value: 0
    }
  }
}
layer {
  name: "prob"
  type: "Sigmoid"
  bottom: "score"
  top: "prob"
}
layer {
  name: "saliency"
  type: "Convolution"
  bottom: "prob"
  top: "saliency"
  param {
    lr_mult: 10
    decay_mult: 1
  }
  param {
    lr_mult: 20
    decay_mult: 0
  }
  convolution_param {
    num_output: 3
    pad: 2
    kernel_size: 5
    stride: 1
    weight_filler {
      type: "xavier"
    }
    bias_filler {
      type: "constant"
      value: 1
    }
  }
}
layer {
  name: "silence_saliency"
  type: "Silence"
  bottom: "saliency"
}
layer {
  name: "crop"
  type: "Python"
  bottom: "label"
  bottom: "data"
  bottom: "crop_margin"
  bottom: "crop_prob"
  bottom: "crop_sample_batch"
  top: "data-R"
  top: "crop_info"
  python_param {
    module: "Crop"
    layer: "CropLayer"
    param_str: "{\"TEST\": 0}"
  }
}
layer {
  name: "conv1_1-R"
  type: "Convolution"
  bottom: "data-R"
  top: "conv1_1-R"
  param {
    lr_mult: 10
    decay_mult: 1
  }
  param {
    lr_mult: 20
    decay_mult: 0
  }
  convolution_param {
    num_output: 64
    pad: 100
    kernel_size: 3
    stride: 1
  }
}
layer {
  name: "relu1_1-R"
  type: "ReLU"
  bottom: "conv1_1-R"
  top: "conv1_1-R"
}
layer {
  name: "conv1_2-R"
  type: "Convolution"
  bottom: "conv1_1-R"
  top: "conv1_2-R"
  param {
    lr_mult: 10
    decay_mult: 1
  }
  param {
    lr_mult: 20
    decay_mult: 0
  }
  convolution_param {
    num_output: 64
    pad: 1
    kernel_size: 3
    stride: 1
  }
}
layer {
  name: "relu1_2-R"
  type: "ReLU"
  bottom: "conv1_2-R"
  top: "conv1_2-R"
}
layer {
  name: "pool1-R"
  type: "Pooling"
  bottom: "conv1_2-R"
  top: "pool1-R"
  pooling_param {
    pool: MAX
    kernel_size: 2
    stride: 2
  }
}
layer {
  name: "conv2_1-R"
  type: "Convolution"
  bottom: "pool1-R"
  top: "conv2_1-R"
  param {
    lr_mult: 10
    decay_mult: 1
  }
  param {
    lr_mult: 20
    decay_mult: 0
  }
  convolution_param {
    num_output: 128
    pad: 1
    kernel_size: 3
    stride: 1
  }
}
layer {
  name: "relu2_1-R"
  type: "ReLU"
  bottom: "conv2_1-R"
  top: "conv2_1-R"
}
layer {
  name: "conv2_2-R"
  type: "Convolution"
  bottom: "conv2_1-R"
  top: "conv2_2-R"
  param {
    lr_mult: 10
    decay_mult: 1
  }
  param {
    lr_mult: 20
    decay_mult: 0
  }
  convolution_param {
    num_output: 128
    pad: 1
    kernel_size: 3
    stride: 1
  }
}
layer {
  name: "relu2_2-R"
  type: "ReLU"
  bottom: "conv2_2-R"
  top: "conv2_2-R"
}
layer {
  name: "pool2-R"
  type: "Pooling"
  bottom: "conv2_2-R"
  top: "pool2-R"
  pooling_param {
    pool: MAX
    kernel_size: 2
    stride: 2
  }
}
layer {
  name: "conv3_1-R"
  type: "Convolution"
  bottom: "pool2-R"
  top: "conv3_1-R"
  param {
    lr_mult: 10
    decay_mult: 1
  }
  param {
    lr_mult: 20
    decay_mult: 0
  }
  convolution_param {
    num_output: 256
    pad: 1
    kernel_size: 3
    stride: 1
  }
}
layer {
  name: "relu3_1-R"
  type: "ReLU"
  bottom: "conv3_1-R"
  top: "conv3_1-R"
}
layer {
  name: "conv3_2-R"
  type: "Convolution"
  bottom: "conv3_1-R"
  top: "conv3_2-R"
  param {
    lr_mult: 10
    decay_mult: 1
  }
  param {
    lr_mult: 20
    decay_mult: 0
  }
  convolution_param {
    num_output: 256
    pad: 1
    kernel_size: 3
    stride: 1
  }
}
layer {
  name: "relu3_2-R"
  type: "ReLU"
  bottom: "conv3_2-R"
  top: "conv3_2-R"
}
layer {
  name: "conv3_3-R"
  type: "Convolution"
  bottom: "conv3_2-R"
  top: "conv3_3-R"
  param {
    lr_mult: 10
    decay_mult: 1
  }
  param {
    lr_mult: 20
    decay_mult: 0
  }
  convolution_param {
    num_output: 256
    pad: 1
    kernel_size: 3
    stride: 1
  }
}
layer {
  name: "relu3_3-R"
  type: "ReLU"
  bottom: "conv3_3-R"
  top: "conv3_3-R"
}
layer {
  name: "pool3-R"
  type: "Pooling"
  bottom: "conv3_3-R"
  top: "pool3-R"
  pooling_param {
    pool: MAX
    kernel_size: 2
    stride: 2
  }
}
layer {
  name: "conv4_1-R"
  type: "Convolution"
  bottom: "pool3-R"
  top: "conv4_1-R"
  param {
    lr_mult: 10
    decay_mult: 1
  }
  param {
    lr_mult: 20
    decay_mult: 0
  }
  convolution_param {
    num_output: 512
    pad: 1
    kernel_size: 3
    stride: 1
  }
}
layer {
  name: "relu4_1-R"
  type: "ReLU"
  bottom: "conv4_1-R"
  top: "conv4_1-R"
}
layer {
  name: "conv4_2-R"
  type: "Convolution"
  bottom: "conv4_1-R"
  top: "conv4_2-R"
  param {
    lr_mult: 10
    decay_mult: 1
  }
  param {
    lr_mult: 20
    decay_mult: 0
  }
  convolution_param {
    num_output: 512
    pad: 1
    kernel_size: 3
    stride: 1
  }
}
layer {
  name: "relu4_2-R"
  type: "ReLU"
  bottom: "conv4_2-R"
  top: "conv4_2-R"
}
layer {
  name: "conv4_3-R"
  type: "Convolution"
  bottom: "conv4_2-R"
  top: "conv4_3-R"
  param {
    lr_mult: 10
    decay_mult: 1
  }
  param {
    lr_mult: 20
    decay_mult: 0
  }
  convolution_param {
    num_output: 512
    pad: 1
    kernel_size: 3
    stride: 1
  }
}
layer {
  name: "relu4_3-R"
  type: "ReLU"
  bottom: "conv4_3-R"
  top: "conv4_3-R"
}
layer {
  name: "pool4-R"
  type: "Pooling"
  bottom: "conv4_3-R"
  top: "pool4-R"
  pooling_param {
    pool: MAX
    kernel_size: 2
    stride: 2
  }
}
layer {
  name: "conv5_1-R"
  type: "Convolution"
  bottom: "pool4-R"
  top: "conv5_1-R"
  param {
    lr_mult: 10
    decay_mult: 1
  }
  param {
    lr_mult: 20
    decay_mult: 0
  }
  convolution_param {
    num_output: 512
    pad: 1
    kernel_size: 3
    stride: 1
  }
}
layer {
  name: "relu5_1-R"
  type: "ReLU"
  bottom: "conv5_1-R"
  top: "conv5_1-R"
}
layer {
  name: "conv5_2-R"
  type: "Convolution"
  bottom: "conv5_1-R"
  top: "conv5_2-R"
  param {
    lr_mult: 10
    decay_mult: 1
  }
  param {
    lr_mult: 20
    decay_mult: 0
  }
  convolution_param {
    num_output: 512
    pad: 1
    kernel_size: 3
    stride: 1
  }
}
layer {
  name: "relu5_2-R"
  type: "ReLU"
  bottom: "conv5_2-R"
  top: "conv5_2-R"
}
layer {
  name: "conv5_3-R"
  type: "Convolution"
  bottom: "conv5_2-R"
  top: "conv5_3-R"
  param {
    lr_mult: 10
    decay_mult: 1
  }
  param {
    lr_mult: 20
    decay_mult: 0
  }
  convolution_param {
    num_output: 512
    pad: 1
    kernel_size: 3
    stride: 1
  }
}
layer {
  name: "relu5_3-R"
  type: "ReLU"
  bottom: "conv5_3-R"
  top: "conv5_3-R"
}
layer {
  name: "pool5-R"
  type: "Pooling"
  bottom: "conv5_3-R"
  top: "pool5-R"
  pooling_param {
    pool: MAX
    kernel_size: 2
    stride: 2
  }
}
layer {
  name: "fc6-R"
  type: "Convolution"
  bottom: "pool5-R"
  top: "fc6-R"
  param {
    lr_mult: 10
    decay_mult: 1
  }
  param {
    lr_mult: 20
    decay_mult: 0
  }
  convolution_param {
    num_output: 4096
    pad: 0
    kernel_size: 7
    stride: 1
  }
}
layer {
  name: "relu6-R"
  type: "ReLU"
  bottom: "fc6-R"
  top: "fc6-R"
}
layer {
  name: "drop6-R"
  type: "Dropout"
  bottom: "fc6-R"
  top: "fc6-R"
  dropout_param {
    dropout_ratio: 0.5
  }
}
layer {
  name: "fc7-R"
  type: "Convolution"
  bottom: "fc6-R"
  top: "fc7-R"
  param {
    lr_mult: 10
    decay_mult: 1
  }
  param {
    lr_mult: 20
    decay_mult: 0
  }
  convolution_param {
    num_output: 4096
    pad: 0
    kernel_size: 1
    stride: 1
  }
}
layer {
  name: "relu7-R"
  type: "ReLU"
  bottom: "fc7-R"
  top: "fc7-R"
}
layer {
  name: "drop7-R"
  type: "Dropout"
  bottom: "fc7-R"
  top: "fc7-R"
  dropout_param {
    dropout_ratio: 0.5
  }
}
layer {
  name: "score_fr-new-R"
  type: "Convolution"
  bottom: "fc7-R"
  top: "score_fr-new-R"
  param {
    lr_mult: 10
    decay_mult: 1
  }
  param {
    lr_mult: 20
    decay_mult: 0
  }
  convolution_param {
    num_output: 3
    kernel_size: 1
  }
}
layer {
  name: "upscore2-new-R"
  type: "Deconvolution"
  bottom: "score_fr-new-R"
  top: "upscore2-new-R"
  param {
    lr_mult: 0
  }
  convolution_param {
    num_output: 3
    bias_term: false
    kernel_size: 4
    stride: 2
  }
}
layer {
  name: "score_pool4-new-R"
  type: "Convolution"
  bottom: "pool4-R"
  top: "score_pool4-new-R"
  param {
    lr_mult: 10
    decay_mult: 1
  }
  param {
    lr_mult: 20
    decay_mult: 0
  }
  convolution_param {
    num_output: 3
    pad: 0
    kernel_size: 1
  }
}
layer {
  name: "score_pool4c-R"
  type: "Crop"
  bottom: "score_pool4-new-R"
  bottom: "upscore2-new-R"
  top: "score_pool4c-R"
  crop_param {
    axis: 2
    offset: 5
  }
}
layer {
  name: "fuse_pool4-R"
  type: "Eltwise"
  bottom: "upscore2-new-R"
  bottom: "score_pool4c-R"
  top: "fuse_pool4-R"
  eltwise_param {
    operation: SUM
  }
}
layer {
  name: "upscore_pool4-new-R"
  type: "Deconvolution"
  bottom: "fuse_pool4-R"
  top: "upscore_pool4-new-R"
  param {
    lr_mult: 0
  }
  convolution_param {
    num_output: 3
    bias_term: false
    kernel_size: 4
    stride: 2
  }
}
layer {
  name: "score_pool3-new-R"
  type: "Convolution"
  bottom: "pool3-R"
  top: "score_pool3-new-R"
  param {
    lr_mult: 10
    decay_mult: 1
  }
  param {
    lr_mult: 20
    decay_mult: 0
  }
  convolution_param {
    num_output: 3
    pad: 0
    kernel_size: 1
  }
}
layer {
  name: "score_pool3c-R"
  type: "Crop"
  bottom: "score_pool3-new-R"
  bottom: "upscore_pool4-new-R"
  top: "score_pool3c-R"
  crop_param {
    axis: 2
    offset: 9
  }
}
layer {
  name: "fuse_pool3-R"
  type: "Eltwise"
  bottom: "upscore_pool4-new-R"
  bottom: "score_pool3c-R"
  top: "fuse_pool3-R"
  eltwise_param {
    operation: SUM
  }
}
layer {
  name: "upscore8-new-R"
  type: "Deconvolution"
  bottom: "fuse_pool3-R"
  top: "upscore8-new-R"
  param {
    lr_mult: 0
  }
  convolution_param {
    num_output: 3
    bias_term: false
    kernel_size: 16
    stride: 8
  }
}
layer {
  name: "upscore8_cropped-R"
  type: "Crop"
  bottom: "upscore8-new-R"
  bottom: "data-R"
  top: "upscore8_cropped-R"
  crop_param {
    axis: 2
    offset: 31
  }
}
layer {
  name: "score-R"
  type: "Convolution"
  bottom: "upscore8_cropped-R"
  top: "score-R"
  param {
    lr_mult: 10
    decay_mult: 1
  }
  param {
    lr_mult: 20
    decay_mult: 0
  }
  convolution_param {
    num_output: 3
    pad: 1
    kernel_size: 3
    stride: 1
    weight_filler {
      type: "xavier"
    }
    bias_filler {
      type: "constant"
      value: 0
    }
  }
}
layer {
  name: "score_uncropped-R"
  type: "Python"
  bottom: "crop_info"
  bottom: "score-R"
  bottom: "data"
  top: "score_uncropped-R"
  python_param {
    module: "Uncrop"
    layer: "UncropLayer"
  }
}
layer {
  name: "loss1"
  type: "DiceLoss"
  bottom: "score"
  bottom: "label"
  top: "loss1"
  loss_weight: 0.333333
}
layer {
  name: "loss2"
  type: "DiceLoss"
  bottom: "score_uncropped-R"
  bottom: "label"
  top: "loss2"
  loss_weight: 0.666667
}
I0418 23:55:55.919829 20744 layer_factory.hpp:77] Creating layer data
I0418 23:55:55.921712 20744 net.cpp:84] Creating Layer data
I0418 23:55:55.921731 20744 net.cpp:380] data -> data
I0418 23:55:55.921762 20744 net.cpp:380] data -> label
I0418 23:55:55.921772 20744 net.cpp:380] data -> crop_margin
I0418 23:55:55.921784 20744 net.cpp:380] data -> crop_prob
I0418 23:55:55.921792 20744 net.cpp:380] data -> crop_sample_batch
I0418 23:55:56.115844 20744 net.cpp:122] Setting up data
I0418 23:55:56.115896 20744 net.cpp:129] Top shape: 1 3 512 310 (476160)
I0418 23:55:56.115905 20744 net.cpp:129] Top shape: 1 3 512 310 (476160)
I0418 23:55:56.115909 20744 net.cpp:129] Top shape: 1 (1)
I0418 23:55:56.115913 20744 net.cpp:129] Top shape: 1 (1)
I0418 23:55:56.115918 20744 net.cpp:129] Top shape: 1 (1)
I0418 23:55:56.115922 20744 net.cpp:137] Memory required for data: 3809292
I0418 23:55:56.115931 20744 layer_factory.hpp:77] Creating layer data_data_0_split
I0418 23:55:56.115947 20744 net.cpp:84] Creating Layer data_data_0_split
I0418 23:55:56.115953 20744 net.cpp:406] data_data_0_split <- data
I0418 23:55:56.115967 20744 net.cpp:380] data_data_0_split -> data_data_0_split_0
I0418 23:55:56.115980 20744 net.cpp:380] data_data_0_split -> data_data_0_split_1
I0418 23:55:56.115988 20744 net.cpp:380] data_data_0_split -> data_data_0_split_2
I0418 23:55:56.115994 20744 net.cpp:380] data_data_0_split -> data_data_0_split_3
I0418 23:55:56.116055 20744 net.cpp:122] Setting up data_data_0_split
I0418 23:55:56.116062 20744 net.cpp:129] Top shape: 1 3 512 310 (476160)
I0418 23:55:56.116067 20744 net.cpp:129] Top shape: 1 3 512 310 (476160)
I0418 23:55:56.116072 20744 net.cpp:129] Top shape: 1 3 512 310 (476160)
I0418 23:55:56.116076 20744 net.cpp:129] Top shape: 1 3 512 310 (476160)
I0418 23:55:56.116080 20744 net.cpp:137] Memory required for data: 11427852
I0418 23:55:56.116086 20744 layer_factory.hpp:77] Creating layer label_data_1_split
I0418 23:55:56.116091 20744 net.cpp:84] Creating Layer label_data_1_split
I0418 23:55:56.116096 20744 net.cpp:406] label_data_1_split <- label
I0418 23:55:56.116101 20744 net.cpp:380] label_data_1_split -> label_data_1_split_0
I0418 23:55:56.116108 20744 net.cpp:380] label_data_1_split -> label_data_1_split_1
I0418 23:55:56.116116 20744 net.cpp:380] label_data_1_split -> label_data_1_split_2
I0418 23:55:56.116154 20744 net.cpp:122] Setting up label_data_1_split
I0418 23:55:56.116160 20744 net.cpp:129] Top shape: 1 3 512 310 (476160)
I0418 23:55:56.116165 20744 net.cpp:129] Top shape: 1 3 512 310 (476160)
I0418 23:55:56.116169 20744 net.cpp:129] Top shape: 1 3 512 310 (476160)
I0418 23:55:56.116173 20744 net.cpp:137] Memory required for data: 17141772
I0418 23:55:56.116178 20744 layer_factory.hpp:77] Creating layer conv1_1
I0418 23:55:56.116194 20744 net.cpp:84] Creating Layer conv1_1
I0418 23:55:56.116197 20744 net.cpp:406] conv1_1 <- data_data_0_split_0
I0418 23:55:56.116204 20744 net.cpp:380] conv1_1 -> conv1_1
I0418 23:55:56.522486 20744 net.cpp:122] Setting up conv1_1
I0418 23:55:56.522550 20744 net.cpp:129] Top shape: 1 64 710 508 (23083520)
I0418 23:55:56.522559 20744 net.cpp:137] Memory required for data: 109475852
I0418 23:55:56.522614 20744 layer_factory.hpp:77] Creating layer relu1_1
I0418 23:55:56.522644 20744 net.cpp:84] Creating Layer relu1_1
I0418 23:55:56.522655 20744 net.cpp:406] relu1_1 <- conv1_1
I0418 23:55:56.522667 20744 net.cpp:367] relu1_1 -> conv1_1 (in-place)
I0418 23:55:56.523077 20744 net.cpp:122] Setting up relu1_1
I0418 23:55:56.523106 20744 net.cpp:129] Top shape: 1 64 710 508 (23083520)
I0418 23:55:56.523114 20744 net.cpp:137] Memory required for data: 201809932
I0418 23:55:56.523121 20744 layer_factory.hpp:77] Creating layer conv1_2
I0418 23:55:56.523141 20744 net.cpp:84] Creating Layer conv1_2
I0418 23:55:56.523149 20744 net.cpp:406] conv1_2 <- conv1_1
I0418 23:55:56.523164 20744 net.cpp:380] conv1_2 -> conv1_2
I0418 23:55:56.529026 20744 net.cpp:122] Setting up conv1_2
I0418 23:55:56.529054 20744 net.cpp:129] Top shape: 1 64 710 508 (23083520)
I0418 23:55:56.529070 20744 net.cpp:137] Memory required for data: 294144012
I0418 23:55:56.529083 20744 layer_factory.hpp:77] Creating layer relu1_2
I0418 23:55:56.529093 20744 net.cpp:84] Creating Layer relu1_2
I0418 23:55:56.529098 20744 net.cpp:406] relu1_2 <- conv1_2
I0418 23:55:56.529106 20744 net.cpp:367] relu1_2 -> conv1_2 (in-place)
I0418 23:55:56.529351 20744 net.cpp:122] Setting up relu1_2
I0418 23:55:56.529376 20744 net.cpp:129] Top shape: 1 64 710 508 (23083520)
I0418 23:55:56.529379 20744 net.cpp:137] Memory required for data: 386478092
I0418 23:55:56.529384 20744 layer_factory.hpp:77] Creating layer pool1
I0418 23:55:56.529397 20744 net.cpp:84] Creating Layer pool1
I0418 23:55:56.529402 20744 net.cpp:406] pool1 <- conv1_2
I0418 23:55:56.529409 20744 net.cpp:380] pool1 -> pool1
I0418 23:55:56.529474 20744 net.cpp:122] Setting up pool1
I0418 23:55:56.529484 20744 net.cpp:129] Top shape: 1 64 355 254 (5770880)
I0418 23:55:56.529489 20744 net.cpp:137] Memory required for data: 409561612
I0418 23:55:56.529494 20744 layer_factory.hpp:77] Creating layer conv2_1
I0418 23:55:56.529506 20744 net.cpp:84] Creating Layer conv2_1
I0418 23:55:56.529511 20744 net.cpp:406] conv2_1 <- pool1
I0418 23:55:56.529520 20744 net.cpp:380] conv2_1 -> conv2_1
I0418 23:55:56.535501 20744 net.cpp:122] Setting up conv2_1
I0418 23:55:56.535533 20744 net.cpp:129] Top shape: 1 128 355 254 (11541760)
I0418 23:55:56.535539 20744 net.cpp:137] Memory required for data: 455728652
I0418 23:55:56.535553 20744 layer_factory.hpp:77] Creating layer relu2_1
I0418 23:55:56.535562 20744 net.cpp:84] Creating Layer relu2_1
I0418 23:55:56.535568 20744 net.cpp:406] relu2_1 <- conv2_1
I0418 23:55:56.535576 20744 net.cpp:367] relu2_1 -> conv2_1 (in-place)
I0418 23:55:56.535830 20744 net.cpp:122] Setting up relu2_1
I0418 23:55:56.535842 20744 net.cpp:129] Top shape: 1 128 355 254 (11541760)
I0418 23:55:56.535847 20744 net.cpp:137] Memory required for data: 501895692
I0418 23:55:56.535852 20744 layer_factory.hpp:77] Creating layer conv2_2
I0418 23:55:56.535864 20744 net.cpp:84] Creating Layer conv2_2
I0418 23:55:56.535869 20744 net.cpp:406] conv2_2 <- conv2_1
I0418 23:55:56.535878 20744 net.cpp:380] conv2_2 -> conv2_2
I0418 23:55:56.543284 20744 net.cpp:122] Setting up conv2_2
I0418 23:55:56.543345 20744 net.cpp:129] Top shape: 1 128 355 254 (11541760)
I0418 23:55:56.543355 20744 net.cpp:137] Memory required for data: 548062732
I0418 23:55:56.543376 20744 layer_factory.hpp:77] Creating layer relu2_2
I0418 23:55:56.543395 20744 net.cpp:84] Creating Layer relu2_2
I0418 23:55:56.543411 20744 net.cpp:406] relu2_2 <- conv2_2
I0418 23:55:56.543435 20744 net.cpp:367] relu2_2 -> conv2_2 (in-place)
I0418 23:55:56.543803 20744 net.cpp:122] Setting up relu2_2
I0418 23:55:56.543833 20744 net.cpp:129] Top shape: 1 128 355 254 (11541760)
I0418 23:55:56.543840 20744 net.cpp:137] Memory required for data: 594229772
I0418 23:55:56.543853 20744 layer_factory.hpp:77] Creating layer pool2
I0418 23:55:56.543865 20744 net.cpp:84] Creating Layer pool2
I0418 23:55:56.543874 20744 net.cpp:406] pool2 <- conv2_2
I0418 23:55:56.543887 20744 net.cpp:380] pool2 -> pool2
I0418 23:55:56.543977 20744 net.cpp:122] Setting up pool2
I0418 23:55:56.543989 20744 net.cpp:129] Top shape: 1 128 178 127 (2893568)
I0418 23:55:56.544003 20744 net.cpp:137] Memory required for data: 605804044
I0418 23:55:56.544010 20744 layer_factory.hpp:77] Creating layer conv3_1
I0418 23:55:56.544037 20744 net.cpp:84] Creating Layer conv3_1
I0418 23:55:56.544047 20744 net.cpp:406] conv3_1 <- pool2
I0418 23:55:56.544064 20744 net.cpp:380] conv3_1 -> conv3_1
I0418 23:55:56.548363 20744 net.cpp:122] Setting up conv3_1
I0418 23:55:56.548383 20744 net.cpp:129] Top shape: 1 256 178 127 (5787136)
I0418 23:55:56.548388 20744 net.cpp:137] Memory required for data: 628952588
I0418 23:55:56.548410 20744 layer_factory.hpp:77] Creating layer relu3_1
I0418 23:55:56.548419 20744 net.cpp:84] Creating Layer relu3_1
I0418 23:55:56.548424 20744 net.cpp:406] relu3_1 <- conv3_1
I0418 23:55:56.548431 20744 net.cpp:367] relu3_1 -> conv3_1 (in-place)
I0418 23:55:56.549052 20744 net.cpp:122] Setting up relu3_1
I0418 23:55:56.549067 20744 net.cpp:129] Top shape: 1 256 178 127 (5787136)
I0418 23:55:56.549082 20744 net.cpp:137] Memory required for data: 652101132
I0418 23:55:56.549087 20744 layer_factory.hpp:77] Creating layer conv3_2
I0418 23:55:56.549098 20744 net.cpp:84] Creating Layer conv3_2
I0418 23:55:56.549103 20744 net.cpp:406] conv3_2 <- conv3_1
I0418 23:55:56.549110 20744 net.cpp:380] conv3_2 -> conv3_2
I0418 23:55:56.553506 20744 net.cpp:122] Setting up conv3_2
I0418 23:55:56.553551 20744 net.cpp:129] Top shape: 1 256 178 127 (5787136)
I0418 23:55:56.553561 20744 net.cpp:137] Memory required for data: 675249676
I0418 23:55:56.553589 20744 layer_factory.hpp:77] Creating layer relu3_2
I0418 23:55:56.553604 20744 net.cpp:84] Creating Layer relu3_2
I0418 23:55:56.553612 20744 net.cpp:406] relu3_2 <- conv3_2
I0418 23:55:56.553622 20744 net.cpp:367] relu3_2 -> conv3_2 (in-place)
I0418 23:55:56.554642 20744 net.cpp:122] Setting up relu3_2
I0418 23:55:56.554677 20744 net.cpp:129] Top shape: 1 256 178 127 (5787136)
I0418 23:55:56.554697 20744 net.cpp:137] Memory required for data: 698398220
I0418 23:55:56.554706 20744 layer_factory.hpp:77] Creating layer conv3_3
I0418 23:55:56.554726 20744 net.cpp:84] Creating Layer conv3_3
I0418 23:55:56.554734 20744 net.cpp:406] conv3_3 <- conv3_2
I0418 23:55:56.554749 20744 net.cpp:380] conv3_3 -> conv3_3
I0418 23:55:56.560140 20744 net.cpp:122] Setting up conv3_3
I0418 23:55:56.560169 20744 net.cpp:129] Top shape: 1 256 178 127 (5787136)
I0418 23:55:56.560175 20744 net.cpp:137] Memory required for data: 721546764
I0418 23:55:56.560195 20744 layer_factory.hpp:77] Creating layer relu3_3
I0418 23:55:56.560205 20744 net.cpp:84] Creating Layer relu3_3
I0418 23:55:56.560210 20744 net.cpp:406] relu3_3 <- conv3_3
I0418 23:55:56.560219 20744 net.cpp:367] relu3_3 -> conv3_3 (in-place)
I0418 23:55:56.560451 20744 net.cpp:122] Setting up relu3_3
I0418 23:55:56.560464 20744 net.cpp:129] Top shape: 1 256 178 127 (5787136)
I0418 23:55:56.560468 20744 net.cpp:137] Memory required for data: 744695308
I0418 23:55:56.560473 20744 layer_factory.hpp:77] Creating layer pool3
I0418 23:55:56.560482 20744 net.cpp:84] Creating Layer pool3
I0418 23:55:56.560487 20744 net.cpp:406] pool3 <- conv3_3
I0418 23:55:56.560503 20744 net.cpp:380] pool3 -> pool3
I0418 23:55:56.560556 20744 net.cpp:122] Setting up pool3
I0418 23:55:56.560565 20744 net.cpp:129] Top shape: 1 256 89 64 (1458176)
I0418 23:55:56.560570 20744 net.cpp:137] Memory required for data: 750528012
I0418 23:55:56.560573 20744 layer_factory.hpp:77] Creating layer pool3_pool3_0_split
I0418 23:55:56.560581 20744 net.cpp:84] Creating Layer pool3_pool3_0_split
I0418 23:55:56.560586 20744 net.cpp:406] pool3_pool3_0_split <- pool3
I0418 23:55:56.560592 20744 net.cpp:380] pool3_pool3_0_split -> pool3_pool3_0_split_0
I0418 23:55:56.560600 20744 net.cpp:380] pool3_pool3_0_split -> pool3_pool3_0_split_1
I0418 23:55:56.560638 20744 net.cpp:122] Setting up pool3_pool3_0_split
I0418 23:55:56.560644 20744 net.cpp:129] Top shape: 1 256 89 64 (1458176)
I0418 23:55:56.560649 20744 net.cpp:129] Top shape: 1 256 89 64 (1458176)
I0418 23:55:56.560653 20744 net.cpp:137] Memory required for data: 762193420
I0418 23:55:56.560657 20744 layer_factory.hpp:77] Creating layer conv4_1
I0418 23:55:56.560667 20744 net.cpp:84] Creating Layer conv4_1
I0418 23:55:56.560672 20744 net.cpp:406] conv4_1 <- pool3_pool3_0_split_0
I0418 23:55:56.560680 20744 net.cpp:380] conv4_1 -> conv4_1
I0418 23:55:56.569216 20744 net.cpp:122] Setting up conv4_1
I0418 23:55:56.569248 20744 net.cpp:129] Top shape: 1 512 89 64 (2916352)
I0418 23:55:56.569253 20744 net.cpp:137] Memory required for data: 773858828
I0418 23:55:56.569263 20744 layer_factory.hpp:77] Creating layer relu4_1
I0418 23:55:56.569273 20744 net.cpp:84] Creating Layer relu4_1
I0418 23:55:56.569279 20744 net.cpp:406] relu4_1 <- conv4_1
I0418 23:55:56.569286 20744 net.cpp:367] relu4_1 -> conv4_1 (in-place)
I0418 23:55:56.569528 20744 net.cpp:122] Setting up relu4_1
I0418 23:55:56.569540 20744 net.cpp:129] Top shape: 1 512 89 64 (2916352)
I0418 23:55:56.569545 20744 net.cpp:137] Memory required for data: 785524236
I0418 23:55:56.569550 20744 layer_factory.hpp:77] Creating layer conv4_2
I0418 23:55:56.569561 20744 net.cpp:84] Creating Layer conv4_2
I0418 23:55:56.569566 20744 net.cpp:406] conv4_2 <- conv4_1
I0418 23:55:56.569574 20744 net.cpp:380] conv4_2 -> conv4_2
I0418 23:55:56.579470 20744 net.cpp:122] Setting up conv4_2
I0418 23:55:56.579502 20744 net.cpp:129] Top shape: 1 512 89 64 (2916352)
I0418 23:55:56.579507 20744 net.cpp:137] Memory required for data: 797189644
I0418 23:55:56.579526 20744 layer_factory.hpp:77] Creating layer relu4_2
I0418 23:55:56.579535 20744 net.cpp:84] Creating Layer relu4_2
I0418 23:55:56.579541 20744 net.cpp:406] relu4_2 <- conv4_2
I0418 23:55:56.579548 20744 net.cpp:367] relu4_2 -> conv4_2 (in-place)
I0418 23:55:56.579776 20744 net.cpp:122] Setting up relu4_2
I0418 23:55:56.579787 20744 net.cpp:129] Top shape: 1 512 89 64 (2916352)
I0418 23:55:56.579792 20744 net.cpp:137] Memory required for data: 808855052
I0418 23:55:56.579797 20744 layer_factory.hpp:77] Creating layer conv4_3
I0418 23:55:56.579808 20744 net.cpp:84] Creating Layer conv4_3
I0418 23:55:56.579813 20744 net.cpp:406] conv4_3 <- conv4_2
I0418 23:55:56.579823 20744 net.cpp:380] conv4_3 -> conv4_3
I0418 23:55:56.588686 20744 net.cpp:122] Setting up conv4_3
I0418 23:55:56.588709 20744 net.cpp:129] Top shape: 1 512 89 64 (2916352)
I0418 23:55:56.588723 20744 net.cpp:137] Memory required for data: 820520460
I0418 23:55:56.588733 20744 layer_factory.hpp:77] Creating layer relu4_3
I0418 23:55:56.588747 20744 net.cpp:84] Creating Layer relu4_3
I0418 23:55:56.588752 20744 net.cpp:406] relu4_3 <- conv4_3
I0418 23:55:56.588760 20744 net.cpp:367] relu4_3 -> conv4_3 (in-place)
I0418 23:55:56.588973 20744 net.cpp:122] Setting up relu4_3
I0418 23:55:56.588990 20744 net.cpp:129] Top shape: 1 512 89 64 (2916352)
I0418 23:55:56.588994 20744 net.cpp:137] Memory required for data: 832185868
I0418 23:55:56.588999 20744 layer_factory.hpp:77] Creating layer pool4
I0418 23:55:56.589010 20744 net.cpp:84] Creating Layer pool4
I0418 23:55:56.589015 20744 net.cpp:406] pool4 <- conv4_3
I0418 23:55:56.589025 20744 net.cpp:380] pool4 -> pool4
I0418 23:55:56.589079 20744 net.cpp:122] Setting up pool4
I0418 23:55:56.589087 20744 net.cpp:129] Top shape: 1 512 45 32 (737280)
I0418 23:55:56.589090 20744 net.cpp:137] Memory required for data: 835134988
I0418 23:55:56.589095 20744 layer_factory.hpp:77] Creating layer pool4_pool4_0_split
I0418 23:55:56.589103 20744 net.cpp:84] Creating Layer pool4_pool4_0_split
I0418 23:55:56.589107 20744 net.cpp:406] pool4_pool4_0_split <- pool4
I0418 23:55:56.589114 20744 net.cpp:380] pool4_pool4_0_split -> pool4_pool4_0_split_0
I0418 23:55:56.589123 20744 net.cpp:380] pool4_pool4_0_split -> pool4_pool4_0_split_1
I0418 23:55:56.589164 20744 net.cpp:122] Setting up pool4_pool4_0_split
I0418 23:55:56.589169 20744 net.cpp:129] Top shape: 1 512 45 32 (737280)
I0418 23:55:56.589174 20744 net.cpp:129] Top shape: 1 512 45 32 (737280)
I0418 23:55:56.589179 20744 net.cpp:137] Memory required for data: 841033228
I0418 23:55:56.589182 20744 layer_factory.hpp:77] Creating layer conv5_1
I0418 23:55:56.589195 20744 net.cpp:84] Creating Layer conv5_1
I0418 23:55:56.589200 20744 net.cpp:406] conv5_1 <- pool4_pool4_0_split_0
I0418 23:55:56.589207 20744 net.cpp:380] conv5_1 -> conv5_1
I0418 23:55:56.604022 20744 net.cpp:122] Setting up conv5_1
I0418 23:55:56.604058 20744 net.cpp:129] Top shape: 1 512 45 32 (737280)
I0418 23:55:56.604063 20744 net.cpp:137] Memory required for data: 843982348
I0418 23:55:56.604073 20744 layer_factory.hpp:77] Creating layer relu5_1
I0418 23:55:56.604086 20744 net.cpp:84] Creating Layer relu5_1
I0418 23:55:56.604094 20744 net.cpp:406] relu5_1 <- conv5_1
I0418 23:55:56.604101 20744 net.cpp:367] relu5_1 -> conv5_1 (in-place)
I0418 23:55:56.604753 20744 net.cpp:122] Setting up relu5_1
I0418 23:55:56.604768 20744 net.cpp:129] Top shape: 1 512 45 32 (737280)
I0418 23:55:56.604784 20744 net.cpp:137] Memory required for data: 846931468
I0418 23:55:56.604787 20744 layer_factory.hpp:77] Creating layer conv5_2
I0418 23:55:56.604801 20744 net.cpp:84] Creating Layer conv5_2
I0418 23:55:56.604806 20744 net.cpp:406] conv5_2 <- conv5_1
I0418 23:55:56.604815 20744 net.cpp:380] conv5_2 -> conv5_2
I0418 23:55:56.620492 20744 net.cpp:122] Setting up conv5_2
I0418 23:55:56.620533 20744 net.cpp:129] Top shape: 1 512 45 32 (737280)
I0418 23:55:56.620542 20744 net.cpp:137] Memory required for data: 849880588
I0418 23:55:56.620558 20744 layer_factory.hpp:77] Creating layer relu5_2
I0418 23:55:56.620579 20744 net.cpp:84] Creating Layer relu5_2
I0418 23:55:56.620587 20744 net.cpp:406] relu5_2 <- conv5_2
I0418 23:55:56.620599 20744 net.cpp:367] relu5_2 -> conv5_2 (in-place)
I0418 23:55:56.621532 20744 net.cpp:122] Setting up relu5_2
I0418 23:55:56.621556 20744 net.cpp:129] Top shape: 1 512 45 32 (737280)
I0418 23:55:56.621568 20744 net.cpp:137] Memory required for data: 852829708
I0418 23:55:56.621575 20744 layer_factory.hpp:77] Creating layer conv5_3
I0418 23:55:56.621592 20744 net.cpp:84] Creating Layer conv5_3
I0418 23:55:56.621600 20744 net.cpp:406] conv5_3 <- conv5_2
I0418 23:55:56.621613 20744 net.cpp:380] conv5_3 -> conv5_3
I0418 23:55:56.632118 20744 net.cpp:122] Setting up conv5_3
I0418 23:55:56.632141 20744 net.cpp:129] Top shape: 1 512 45 32 (737280)
I0418 23:55:56.632148 20744 net.cpp:137] Memory required for data: 855778828
I0418 23:55:56.632156 20744 layer_factory.hpp:77] Creating layer relu5_3
I0418 23:55:56.632166 20744 net.cpp:84] Creating Layer relu5_3
I0418 23:55:56.632174 20744 net.cpp:406] relu5_3 <- conv5_3
I0418 23:55:56.632181 20744 net.cpp:367] relu5_3 -> conv5_3 (in-place)
I0418 23:55:56.632428 20744 net.cpp:122] Setting up relu5_3
I0418 23:55:56.632441 20744 net.cpp:129] Top shape: 1 512 45 32 (737280)
I0418 23:55:56.632445 20744 net.cpp:137] Memory required for data: 858727948
I0418 23:55:56.632450 20744 layer_factory.hpp:77] Creating layer pool5
I0418 23:55:56.632462 20744 net.cpp:84] Creating Layer pool5
I0418 23:55:56.632467 20744 net.cpp:406] pool5 <- conv5_3
I0418 23:55:56.632474 20744 net.cpp:380] pool5 -> pool5
I0418 23:55:56.632527 20744 net.cpp:122] Setting up pool5
I0418 23:55:56.632534 20744 net.cpp:129] Top shape: 1 512 23 16 (188416)
I0418 23:55:56.632539 20744 net.cpp:137] Memory required for data: 859481612
I0418 23:55:56.632542 20744 layer_factory.hpp:77] Creating layer fc6
I0418 23:55:56.632552 20744 net.cpp:84] Creating Layer fc6
I0418 23:55:56.632557 20744 net.cpp:406] fc6 <- pool5
I0418 23:55:56.632563 20744 net.cpp:380] fc6 -> fc6
I0418 23:55:56.954613 20744 net.cpp:122] Setting up fc6
I0418 23:55:56.954676 20744 net.cpp:129] Top shape: 1 4096 17 10 (696320)
I0418 23:55:56.954689 20744 net.cpp:137] Memory required for data: 862266892
I0418 23:55:56.954736 20744 layer_factory.hpp:77] Creating layer relu6
I0418 23:55:56.954773 20744 net.cpp:84] Creating Layer relu6
I0418 23:55:56.954793 20744 net.cpp:406] relu6 <- fc6
I0418 23:55:56.954813 20744 net.cpp:367] relu6 -> fc6 (in-place)
I0418 23:55:56.955062 20744 net.cpp:122] Setting up relu6
I0418 23:55:56.955075 20744 net.cpp:129] Top shape: 1 4096 17 10 (696320)
I0418 23:55:56.955080 20744 net.cpp:137] Memory required for data: 865052172
I0418 23:55:56.955083 20744 layer_factory.hpp:77] Creating layer drop6
I0418 23:55:56.955112 20744 net.cpp:84] Creating Layer drop6
I0418 23:55:56.955117 20744 net.cpp:406] drop6 <- fc6
I0418 23:55:56.955123 20744 net.cpp:367] drop6 -> fc6 (in-place)
I0418 23:55:56.955163 20744 net.cpp:122] Setting up drop6
I0418 23:55:56.955169 20744 net.cpp:129] Top shape: 1 4096 17 10 (696320)
I0418 23:55:56.955173 20744 net.cpp:137] Memory required for data: 867837452
I0418 23:55:56.955178 20744 layer_factory.hpp:77] Creating layer fc7
I0418 23:55:56.955191 20744 net.cpp:84] Creating Layer fc7
I0418 23:55:56.955196 20744 net.cpp:406] fc7 <- fc6
I0418 23:55:56.955202 20744 net.cpp:380] fc7 -> fc7
I0418 23:55:57.014349 20744 net.cpp:122] Setting up fc7
I0418 23:55:57.014396 20744 net.cpp:129] Top shape: 1 4096 17 10 (696320)
I0418 23:55:57.014402 20744 net.cpp:137] Memory required for data: 870622732
I0418 23:55:57.014415 20744 layer_factory.hpp:77] Creating layer relu7
I0418 23:55:57.014432 20744 net.cpp:84] Creating Layer relu7
I0418 23:55:57.014439 20744 net.cpp:406] relu7 <- fc7
I0418 23:55:57.014447 20744 net.cpp:367] relu7 -> fc7 (in-place)
I0418 23:55:57.014695 20744 net.cpp:122] Setting up relu7
I0418 23:55:57.014706 20744 net.cpp:129] Top shape: 1 4096 17 10 (696320)
I0418 23:55:57.014710 20744 net.cpp:137] Memory required for data: 873408012
I0418 23:55:57.014715 20744 layer_factory.hpp:77] Creating layer drop7
I0418 23:55:57.014725 20744 net.cpp:84] Creating Layer drop7
I0418 23:55:57.014730 20744 net.cpp:406] drop7 <- fc7
I0418 23:55:57.014739 20744 net.cpp:367] drop7 -> fc7 (in-place)
I0418 23:55:57.014780 20744 net.cpp:122] Setting up drop7
I0418 23:55:57.014786 20744 net.cpp:129] Top shape: 1 4096 17 10 (696320)
I0418 23:55:57.014789 20744 net.cpp:137] Memory required for data: 876193292
I0418 23:55:57.014794 20744 layer_factory.hpp:77] Creating layer score_fr-new
I0418 23:55:57.014806 20744 net.cpp:84] Creating Layer score_fr-new
I0418 23:55:57.014809 20744 net.cpp:406] score_fr-new <- fc7
I0418 23:55:57.014819 20744 net.cpp:380] score_fr-new -> score_fr-new
I0418 23:55:57.018694 20744 net.cpp:122] Setting up score_fr-new
I0418 23:55:57.018746 20744 net.cpp:129] Top shape: 1 3 17 10 (510)
I0418 23:55:57.018755 20744 net.cpp:137] Memory required for data: 876195332
I0418 23:55:57.018780 20744 layer_factory.hpp:77] Creating layer upscore2-new
I0418 23:55:57.018815 20744 net.cpp:84] Creating Layer upscore2-new
I0418 23:55:57.018824 20744 net.cpp:406] upscore2-new <- score_fr-new
I0418 23:55:57.018844 20744 net.cpp:380] upscore2-new -> upscore2-new
I0418 23:55:57.019312 20744 net.cpp:122] Setting up upscore2-new
I0418 23:55:57.019330 20744 net.cpp:129] Top shape: 1 3 36 22 (2376)
I0418 23:55:57.019345 20744 net.cpp:137] Memory required for data: 876204836
I0418 23:55:57.019381 20744 layer_factory.hpp:77] Creating layer upscore2-new_upscore2-new_0_split
I0418 23:55:57.019407 20744 net.cpp:84] Creating Layer upscore2-new_upscore2-new_0_split
I0418 23:55:57.019414 20744 net.cpp:406] upscore2-new_upscore2-new_0_split <- upscore2-new
I0418 23:55:57.019425 20744 net.cpp:380] upscore2-new_upscore2-new_0_split -> upscore2-new_upscore2-new_0_split_0
I0418 23:55:57.019438 20744 net.cpp:380] upscore2-new_upscore2-new_0_split -> upscore2-new_upscore2-new_0_split_1
I0418 23:55:57.019512 20744 net.cpp:122] Setting up upscore2-new_upscore2-new_0_split
I0418 23:55:57.019536 20744 net.cpp:129] Top shape: 1 3 36 22 (2376)
I0418 23:55:57.019546 20744 net.cpp:129] Top shape: 1 3 36 22 (2376)
I0418 23:55:57.019552 20744 net.cpp:137] Memory required for data: 876223844
I0418 23:55:57.019559 20744 layer_factory.hpp:77] Creating layer score_pool4-new
I0418 23:55:57.019592 20744 net.cpp:84] Creating Layer score_pool4-new
I0418 23:55:57.019599 20744 net.cpp:406] score_pool4-new <- pool4_pool4_0_split_1
I0418 23:55:57.019614 20744 net.cpp:380] score_pool4-new -> score_pool4-new
I0418 23:55:57.024987 20744 net.cpp:122] Setting up score_pool4-new
I0418 23:55:57.025020 20744 net.cpp:129] Top shape: 1 3 45 32 (4320)
I0418 23:55:57.025028 20744 net.cpp:137] Memory required for data: 876241124
I0418 23:55:57.025051 20744 layer_factory.hpp:77] Creating layer score_pool4c
I0418 23:55:57.025076 20744 net.cpp:84] Creating Layer score_pool4c
I0418 23:55:57.025086 20744 net.cpp:406] score_pool4c <- score_pool4-new
I0418 23:55:57.025097 20744 net.cpp:406] score_pool4c <- upscore2-new_upscore2-new_0_split_0
I0418 23:55:57.025113 20744 net.cpp:380] score_pool4c -> score_pool4c
I0418 23:55:57.025177 20744 net.cpp:122] Setting up score_pool4c
I0418 23:55:57.025213 20744 net.cpp:129] Top shape: 1 3 36 22 (2376)
I0418 23:55:57.025220 20744 net.cpp:137] Memory required for data: 876250628
I0418 23:55:57.025228 20744 layer_factory.hpp:77] Creating layer fuse_pool4
I0418 23:55:57.025246 20744 net.cpp:84] Creating Layer fuse_pool4
I0418 23:55:57.025254 20744 net.cpp:406] fuse_pool4 <- upscore2-new_upscore2-new_0_split_1
I0418 23:55:57.025264 20744 net.cpp:406] fuse_pool4 <- score_pool4c
I0418 23:55:57.025274 20744 net.cpp:380] fuse_pool4 -> fuse_pool4
I0418 23:55:57.025331 20744 net.cpp:122] Setting up fuse_pool4
I0418 23:55:57.025351 20744 net.cpp:129] Top shape: 1 3 36 22 (2376)
I0418 23:55:57.025357 20744 net.cpp:137] Memory required for data: 876260132
I0418 23:55:57.025363 20744 layer_factory.hpp:77] Creating layer upscore_pool4-new
I0418 23:55:57.025382 20744 net.cpp:84] Creating Layer upscore_pool4-new
I0418 23:55:57.025389 20744 net.cpp:406] upscore_pool4-new <- fuse_pool4
I0418 23:55:57.025403 20744 net.cpp:380] upscore_pool4-new -> upscore_pool4-new
I0418 23:55:57.025799 20744 net.cpp:122] Setting up upscore_pool4-new
I0418 23:55:57.025815 20744 net.cpp:129] Top shape: 1 3 74 46 (10212)
I0418 23:55:57.025821 20744 net.cpp:137] Memory required for data: 876300980
I0418 23:55:57.025831 20744 layer_factory.hpp:77] Creating layer upscore_pool4-new_upscore_pool4-new_0_split
I0418 23:55:57.025846 20744 net.cpp:84] Creating Layer upscore_pool4-new_upscore_pool4-new_0_split
I0418 23:55:57.025853 20744 net.cpp:406] upscore_pool4-new_upscore_pool4-new_0_split <- upscore_pool4-new
I0418 23:55:57.025863 20744 net.cpp:380] upscore_pool4-new_upscore_pool4-new_0_split -> upscore_pool4-new_upscore_pool4-new_0_split_0
I0418 23:55:57.025876 20744 net.cpp:380] upscore_pool4-new_upscore_pool4-new_0_split -> upscore_pool4-new_upscore_pool4-new_0_split_1
I0418 23:55:57.025946 20744 net.cpp:122] Setting up upscore_pool4-new_upscore_pool4-new_0_split
I0418 23:55:57.025960 20744 net.cpp:129] Top shape: 1 3 74 46 (10212)
I0418 23:55:57.025969 20744 net.cpp:129] Top shape: 1 3 74 46 (10212)
I0418 23:55:57.025976 20744 net.cpp:137] Memory required for data: 876382676
I0418 23:55:57.025986 20744 layer_factory.hpp:77] Creating layer score_pool3-new
I0418 23:55:57.026005 20744 net.cpp:84] Creating Layer score_pool3-new
I0418 23:55:57.026013 20744 net.cpp:406] score_pool3-new <- pool3_pool3_0_split_1
I0418 23:55:57.026028 20744 net.cpp:380] score_pool3-new -> score_pool3-new
I0418 23:55:57.028565 20744 net.cpp:122] Setting up score_pool3-new
I0418 23:55:57.028594 20744 net.cpp:129] Top shape: 1 3 89 64 (17088)
I0418 23:55:57.028601 20744 net.cpp:137] Memory required for data: 876451028
I0418 23:55:57.028615 20744 layer_factory.hpp:77] Creating layer score_pool3c
I0418 23:55:57.028632 20744 net.cpp:84] Creating Layer score_pool3c
I0418 23:55:57.028641 20744 net.cpp:406] score_pool3c <- score_pool3-new
I0418 23:55:57.028652 20744 net.cpp:406] score_pool3c <- upscore_pool4-new_upscore_pool4-new_0_split_0
I0418 23:55:57.028663 20744 net.cpp:380] score_pool3c -> score_pool3c
I0418 23:55:57.028719 20744 net.cpp:122] Setting up score_pool3c
I0418 23:55:57.028730 20744 net.cpp:129] Top shape: 1 3 74 46 (10212)
I0418 23:55:57.028736 20744 net.cpp:137] Memory required for data: 876491876
I0418 23:55:57.028743 20744 layer_factory.hpp:77] Creating layer fuse_pool3
I0418 23:55:57.028766 20744 net.cpp:84] Creating Layer fuse_pool3
I0418 23:55:57.028774 20744 net.cpp:406] fuse_pool3 <- upscore_pool4-new_upscore_pool4-new_0_split_1
I0418 23:55:57.028784 20744 net.cpp:406] fuse_pool3 <- score_pool3c
I0418 23:55:57.028798 20744 net.cpp:380] fuse_pool3 -> fuse_pool3
I0418 23:55:57.028844 20744 net.cpp:122] Setting up fuse_pool3
I0418 23:55:57.028856 20744 net.cpp:129] Top shape: 1 3 74 46 (10212)
I0418 23:55:57.028862 20744 net.cpp:137] Memory required for data: 876532724
I0418 23:55:57.028868 20744 layer_factory.hpp:77] Creating layer upscore8-new
I0418 23:55:57.028887 20744 net.cpp:84] Creating Layer upscore8-new
I0418 23:55:57.028894 20744 net.cpp:406] upscore8-new <- fuse_pool3
I0418 23:55:57.028908 20744 net.cpp:380] upscore8-new -> upscore8-new
I0418 23:55:57.029312 20744 net.cpp:122] Setting up upscore8-new
I0418 23:55:57.029328 20744 net.cpp:129] Top shape: 1 3 600 376 (676800)
I0418 23:55:57.029335 20744 net.cpp:137] Memory required for data: 879239924
I0418 23:55:57.029345 20744 layer_factory.hpp:77] Creating layer upscore8_cropped
I0418 23:55:57.029358 20744 net.cpp:84] Creating Layer upscore8_cropped
I0418 23:55:57.029366 20744 net.cpp:406] upscore8_cropped <- upscore8-new
I0418 23:55:57.029381 20744 net.cpp:406] upscore8_cropped <- data_data_0_split_1
I0418 23:55:57.029397 20744 net.cpp:380] upscore8_cropped -> upscore8_cropped
I0418 23:55:57.029441 20744 net.cpp:122] Setting up upscore8_cropped
I0418 23:55:57.029451 20744 net.cpp:129] Top shape: 1 3 512 310 (476160)
I0418 23:55:57.029458 20744 net.cpp:137] Memory required for data: 881144564
I0418 23:55:57.029464 20744 layer_factory.hpp:77] Creating layer score
I0418 23:55:57.029486 20744 net.cpp:84] Creating Layer score
I0418 23:55:57.029495 20744 net.cpp:406] score <- upscore8_cropped
I0418 23:55:57.029507 20744 net.cpp:380] score -> score
I0418 23:55:57.037902 20744 net.cpp:122] Setting up score
I0418 23:55:57.037937 20744 net.cpp:129] Top shape: 1 3 512 310 (476160)
I0418 23:55:57.037945 20744 net.cpp:137] Memory required for data: 883049204
I0418 23:55:57.037961 20744 layer_factory.hpp:77] Creating layer score_score_0_split
I0418 23:55:57.037976 20744 net.cpp:84] Creating Layer score_score_0_split
I0418 23:55:57.037983 20744 net.cpp:406] score_score_0_split <- score
I0418 23:55:57.037999 20744 net.cpp:380] score_score_0_split -> score_score_0_split_0
I0418 23:55:57.038015 20744 net.cpp:380] score_score_0_split -> score_score_0_split_1
I0418 23:55:57.038110 20744 net.cpp:122] Setting up score_score_0_split
I0418 23:55:57.038128 20744 net.cpp:129] Top shape: 1 3 512 310 (476160)
I0418 23:55:57.038138 20744 net.cpp:129] Top shape: 1 3 512 310 (476160)
I0418 23:55:57.038144 20744 net.cpp:137] Memory required for data: 886858484
I0418 23:55:57.038156 20744 layer_factory.hpp:77] Creating layer prob
I0418 23:55:57.038202 20744 net.cpp:84] Creating Layer prob
I0418 23:55:57.038209 20744 net.cpp:406] prob <- score_score_0_split_0
I0418 23:55:57.038220 20744 net.cpp:380] prob -> prob
I0418 23:55:57.038681 20744 net.cpp:122] Setting up prob
I0418 23:55:57.038713 20744 net.cpp:129] Top shape: 1 3 512 310 (476160)
I0418 23:55:57.038720 20744 net.cpp:137] Memory required for data: 888763124
I0418 23:55:57.038727 20744 layer_factory.hpp:77] Creating layer saliency
I0418 23:55:57.038760 20744 net.cpp:84] Creating Layer saliency
I0418 23:55:57.038769 20744 net.cpp:406] saliency <- prob
I0418 23:55:57.038784 20744 net.cpp:380] saliency -> saliency
I0418 23:55:57.045397 20744 net.cpp:122] Setting up saliency
I0418 23:55:57.045440 20744 net.cpp:129] Top shape: 1 3 512 310 (476160)
I0418 23:55:57.045449 20744 net.cpp:137] Memory required for data: 890667764
I0418 23:55:57.045464 20744 layer_factory.hpp:77] Creating layer silence_saliency
I0418 23:55:57.045493 20744 net.cpp:84] Creating Layer silence_saliency
I0418 23:55:57.045502 20744 net.cpp:406] silence_saliency <- saliency
I0418 23:55:57.045516 20744 net.cpp:122] Setting up silence_saliency
I0418 23:55:57.045523 20744 net.cpp:137] Memory required for data: 890667764
I0418 23:55:57.045529 20744 layer_factory.hpp:77] Creating layer crop
I0418 23:55:57.046802 20744 net.cpp:84] Creating Layer crop
I0418 23:55:57.046826 20744 net.cpp:406] crop <- label_data_1_split_0
I0418 23:55:57.046849 20744 net.cpp:406] crop <- data_data_0_split_2
I0418 23:55:57.046862 20744 net.cpp:406] crop <- crop_margin
I0418 23:55:57.046872 20744 net.cpp:406] crop <- crop_prob
I0418 23:55:57.046880 20744 net.cpp:406] crop <- crop_sample_batch
I0418 23:55:57.046893 20744 net.cpp:380] crop -> data-R
I0418 23:55:57.046911 20744 net.cpp:380] crop -> crop_info
I0418 23:55:57.056602 20744 net.cpp:122] Setting up crop
I0418 23:55:57.056648 20744 net.cpp:129] Top shape: 1 3 512 310 (476160)
I0418 23:55:57.056655 20744 net.cpp:129] Top shape: 1 2 4 (8)
I0418 23:55:57.056659 20744 net.cpp:137] Memory required for data: 892572436
I0418 23:55:57.056666 20744 layer_factory.hpp:77] Creating layer data-R_crop_0_split
I0418 23:55:57.056681 20744 net.cpp:84] Creating Layer data-R_crop_0_split
I0418 23:55:57.056687 20744 net.cpp:406] data-R_crop_0_split <- data-R
I0418 23:55:57.056697 20744 net.cpp:380] data-R_crop_0_split -> data-R_crop_0_split_0
I0418 23:55:57.056716 20744 net.cpp:380] data-R_crop_0_split -> data-R_crop_0_split_1
I0418 23:55:57.056771 20744 net.cpp:122] Setting up data-R_crop_0_split
I0418 23:55:57.056777 20744 net.cpp:129] Top shape: 1 3 512 310 (476160)
I0418 23:55:57.056783 20744 net.cpp:129] Top shape: 1 3 512 310 (476160)
I0418 23:55:57.056787 20744 net.cpp:137] Memory required for data: 896381716
I0418 23:55:57.056792 20744 layer_factory.hpp:77] Creating layer conv1_1-R
I0418 23:55:57.056805 20744 net.cpp:84] Creating Layer conv1_1-R
I0418 23:55:57.056810 20744 net.cpp:406] conv1_1-R <- data-R_crop_0_split_0
I0418 23:55:57.056820 20744 net.cpp:380] conv1_1-R -> conv1_1-R
I0418 23:55:57.062296 20744 net.cpp:122] Setting up conv1_1-R
I0418 23:55:57.062330 20744 net.cpp:129] Top shape: 1 64 710 508 (23083520)
I0418 23:55:57.062336 20744 net.cpp:137] Memory required for data: 988715796
I0418 23:55:57.062347 20744 layer_factory.hpp:77] Creating layer relu1_1-R
I0418 23:55:57.062361 20744 net.cpp:84] Creating Layer relu1_1-R
I0418 23:55:57.062367 20744 net.cpp:406] relu1_1-R <- conv1_1-R
I0418 23:55:57.062376 20744 net.cpp:367] relu1_1-R -> conv1_1-R (in-place)
I0418 23:55:57.062659 20744 net.cpp:122] Setting up relu1_1-R
I0418 23:55:57.062674 20744 net.cpp:129] Top shape: 1 64 710 508 (23083520)
I0418 23:55:57.062678 20744 net.cpp:137] Memory required for data: 1081049876
I0418 23:55:57.062683 20744 layer_factory.hpp:77] Creating layer conv1_2-R
I0418 23:55:57.062711 20744 net.cpp:84] Creating Layer conv1_2-R
I0418 23:55:57.062716 20744 net.cpp:406] conv1_2-R <- conv1_1-R
I0418 23:55:57.063807 20744 net.cpp:380] conv1_2-R -> conv1_2-R
I0418 23:55:57.067309 20744 net.cpp:122] Setting up conv1_2-R
I0418 23:55:57.067329 20744 net.cpp:129] Top shape: 1 64 710 508 (23083520)
I0418 23:55:57.067347 20744 net.cpp:137] Memory required for data: 1173383956
I0418 23:55:57.067359 20744 layer_factory.hpp:77] Creating layer relu1_2-R
I0418 23:55:57.067368 20744 net.cpp:84] Creating Layer relu1_2-R
I0418 23:55:57.067373 20744 net.cpp:406] relu1_2-R <- conv1_2-R
I0418 23:55:57.067380 20744 net.cpp:367] relu1_2-R -> conv1_2-R (in-place)
I0418 23:55:57.067618 20744 net.cpp:122] Setting up relu1_2-R
I0418 23:55:57.067631 20744 net.cpp:129] Top shape: 1 64 710 508 (23083520)
I0418 23:55:57.067636 20744 net.cpp:137] Memory required for data: 1265718036
I0418 23:55:57.067641 20744 layer_factory.hpp:77] Creating layer pool1-R
I0418 23:55:57.067652 20744 net.cpp:84] Creating Layer pool1-R
I0418 23:55:57.067657 20744 net.cpp:406] pool1-R <- conv1_2-R
I0418 23:55:57.067665 20744 net.cpp:380] pool1-R -> pool1-R
I0418 23:55:57.067726 20744 net.cpp:122] Setting up pool1-R
I0418 23:55:57.067736 20744 net.cpp:129] Top shape: 1 64 355 254 (5770880)
I0418 23:55:57.067740 20744 net.cpp:137] Memory required for data: 1288801556
I0418 23:55:57.067744 20744 layer_factory.hpp:77] Creating layer conv2_1-R
I0418 23:55:57.067754 20744 net.cpp:84] Creating Layer conv2_1-R
I0418 23:55:57.067759 20744 net.cpp:406] conv2_1-R <- pool1-R
I0418 23:55:57.067766 20744 net.cpp:380] conv2_1-R -> conv2_1-R
I0418 23:55:57.069933 20744 net.cpp:122] Setting up conv2_1-R
I0418 23:55:57.069952 20744 net.cpp:129] Top shape: 1 128 355 254 (11541760)
I0418 23:55:57.069967 20744 net.cpp:137] Memory required for data: 1334968596
I0418 23:55:57.069975 20744 layer_factory.hpp:77] Creating layer relu2_1-R
I0418 23:55:57.069989 20744 net.cpp:84] Creating Layer relu2_1-R
I0418 23:55:57.069995 20744 net.cpp:406] relu2_1-R <- conv2_1-R
I0418 23:55:57.070004 20744 net.cpp:367] relu2_1-R -> conv2_1-R (in-place)
I0418 23:55:57.070264 20744 net.cpp:122] Setting up relu2_1-R
I0418 23:55:57.070279 20744 net.cpp:129] Top shape: 1 128 355 254 (11541760)
I0418 23:55:57.070283 20744 net.cpp:137] Memory required for data: 1381135636
I0418 23:55:57.070291 20744 layer_factory.hpp:77] Creating layer conv2_2-R
I0418 23:55:57.070302 20744 net.cpp:84] Creating Layer conv2_2-R
I0418 23:55:57.070307 20744 net.cpp:406] conv2_2-R <- conv2_1-R
I0418 23:55:57.070317 20744 net.cpp:380] conv2_2-R -> conv2_2-R
I0418 23:55:57.074054 20744 net.cpp:122] Setting up conv2_2-R
I0418 23:55:57.074072 20744 net.cpp:129] Top shape: 1 128 355 254 (11541760)
I0418 23:55:57.074090 20744 net.cpp:137] Memory required for data: 1427302676
I0418 23:55:57.074100 20744 layer_factory.hpp:77] Creating layer relu2_2-R
I0418 23:55:57.074110 20744 net.cpp:84] Creating Layer relu2_2-R
I0418 23:55:57.074115 20744 net.cpp:406] relu2_2-R <- conv2_2-R
I0418 23:55:57.074122 20744 net.cpp:367] relu2_2-R -> conv2_2-R (in-place)
I0418 23:55:57.076122 20744 net.cpp:122] Setting up relu2_2-R
I0418 23:55:57.076151 20744 net.cpp:129] Top shape: 1 128 355 254 (11541760)
I0418 23:55:57.076156 20744 net.cpp:137] Memory required for data: 1473469716
I0418 23:55:57.076161 20744 layer_factory.hpp:77] Creating layer pool2-R
I0418 23:55:57.076174 20744 net.cpp:84] Creating Layer pool2-R
I0418 23:55:57.076179 20744 net.cpp:406] pool2-R <- conv2_2-R
I0418 23:55:57.076189 20744 net.cpp:380] pool2-R -> pool2-R
I0418 23:55:57.076257 20744 net.cpp:122] Setting up pool2-R
I0418 23:55:57.076277 20744 net.cpp:129] Top shape: 1 128 178 127 (2893568)
I0418 23:55:57.076280 20744 net.cpp:137] Memory required for data: 1485043988
I0418 23:55:57.076284 20744 layer_factory.hpp:77] Creating layer conv3_1-R
I0418 23:55:57.076295 20744 net.cpp:84] Creating Layer conv3_1-R
I0418 23:55:57.076299 20744 net.cpp:406] conv3_1-R <- pool2-R
I0418 23:55:57.076308 20744 net.cpp:380] conv3_1-R -> conv3_1-R
I0418 23:55:57.081099 20744 net.cpp:122] Setting up conv3_1-R
I0418 23:55:57.081120 20744 net.cpp:129] Top shape: 1 256 178 127 (5787136)
I0418 23:55:57.081135 20744 net.cpp:137] Memory required for data: 1508192532
I0418 23:55:57.081145 20744 layer_factory.hpp:77] Creating layer relu3_1-R
I0418 23:55:57.081161 20744 net.cpp:84] Creating Layer relu3_1-R
I0418 23:55:57.081166 20744 net.cpp:406] relu3_1-R <- conv3_1-R
I0418 23:55:57.081174 20744 net.cpp:367] relu3_1-R -> conv3_1-R (in-place)
I0418 23:55:57.081426 20744 net.cpp:122] Setting up relu3_1-R
I0418 23:55:57.081439 20744 net.cpp:129] Top shape: 1 256 178 127 (5787136)
I0418 23:55:57.081444 20744 net.cpp:137] Memory required for data: 1531341076
I0418 23:55:57.081449 20744 layer_factory.hpp:77] Creating layer conv3_2-R
I0418 23:55:57.081462 20744 net.cpp:84] Creating Layer conv3_2-R
I0418 23:55:57.081466 20744 net.cpp:406] conv3_2-R <- conv3_1-R
I0418 23:55:57.081475 20744 net.cpp:380] conv3_2-R -> conv3_2-R
I0418 23:55:57.086750 20744 net.cpp:122] Setting up conv3_2-R
I0418 23:55:57.086782 20744 net.cpp:129] Top shape: 1 256 178 127 (5787136)
I0418 23:55:57.086788 20744 net.cpp:137] Memory required for data: 1554489620
I0418 23:55:57.086799 20744 layer_factory.hpp:77] Creating layer relu3_2-R
I0418 23:55:57.086809 20744 net.cpp:84] Creating Layer relu3_2-R
I0418 23:55:57.086815 20744 net.cpp:406] relu3_2-R <- conv3_2-R
I0418 23:55:57.086823 20744 net.cpp:367] relu3_2-R -> conv3_2-R (in-place)
I0418 23:55:57.087103 20744 net.cpp:122] Setting up relu3_2-R
I0418 23:55:57.087118 20744 net.cpp:129] Top shape: 1 256 178 127 (5787136)
I0418 23:55:57.087122 20744 net.cpp:137] Memory required for data: 1577638164
I0418 23:55:57.087127 20744 layer_factory.hpp:77] Creating layer conv3_3-R
I0418 23:55:57.087139 20744 net.cpp:84] Creating Layer conv3_3-R
I0418 23:55:57.087144 20744 net.cpp:406] conv3_3-R <- conv3_2-R
I0418 23:55:57.087154 20744 net.cpp:380] conv3_3-R -> conv3_3-R
I0418 23:55:57.091786 20744 net.cpp:122] Setting up conv3_3-R
I0418 23:55:57.091820 20744 net.cpp:129] Top shape: 1 256 178 127 (5787136)
I0418 23:55:57.091826 20744 net.cpp:137] Memory required for data: 1600786708
I0418 23:55:57.091840 20744 layer_factory.hpp:77] Creating layer relu3_3-R
I0418 23:55:57.091850 20744 net.cpp:84] Creating Layer relu3_3-R
I0418 23:55:57.091856 20744 net.cpp:406] relu3_3-R <- conv3_3-R
I0418 23:55:57.091864 20744 net.cpp:367] relu3_3-R -> conv3_3-R (in-place)
I0418 23:55:57.092131 20744 net.cpp:122] Setting up relu3_3-R
I0418 23:55:57.092145 20744 net.cpp:129] Top shape: 1 256 178 127 (5787136)
I0418 23:55:57.092150 20744 net.cpp:137] Memory required for data: 1623935252
I0418 23:55:57.092155 20744 layer_factory.hpp:77] Creating layer pool3-R
I0418 23:55:57.092165 20744 net.cpp:84] Creating Layer pool3-R
I0418 23:55:57.092170 20744 net.cpp:406] pool3-R <- conv3_3-R
I0418 23:55:57.092180 20744 net.cpp:380] pool3-R -> pool3-R
I0418 23:55:57.092245 20744 net.cpp:122] Setting up pool3-R
I0418 23:55:57.092255 20744 net.cpp:129] Top shape: 1 256 89 64 (1458176)
I0418 23:55:57.092260 20744 net.cpp:137] Memory required for data: 1629767956
I0418 23:55:57.092264 20744 layer_factory.hpp:77] Creating layer pool3-R_pool3-R_0_split
I0418 23:55:57.092273 20744 net.cpp:84] Creating Layer pool3-R_pool3-R_0_split
I0418 23:55:57.092278 20744 net.cpp:406] pool3-R_pool3-R_0_split <- pool3-R
I0418 23:55:57.092286 20744 net.cpp:380] pool3-R_pool3-R_0_split -> pool3-R_pool3-R_0_split_0
I0418 23:55:57.092295 20744 net.cpp:380] pool3-R_pool3-R_0_split -> pool3-R_pool3-R_0_split_1
I0418 23:55:57.092346 20744 net.cpp:122] Setting up pool3-R_pool3-R_0_split
I0418 23:55:57.092357 20744 net.cpp:129] Top shape: 1 256 89 64 (1458176)
I0418 23:55:57.092363 20744 net.cpp:129] Top shape: 1 256 89 64 (1458176)
I0418 23:55:57.092368 20744 net.cpp:137] Memory required for data: 1641433364
I0418 23:55:57.092372 20744 layer_factory.hpp:77] Creating layer conv4_1-R
I0418 23:55:57.092384 20744 net.cpp:84] Creating Layer conv4_1-R
I0418 23:55:57.092389 20744 net.cpp:406] conv4_1-R <- pool3-R_pool3-R_0_split_0
I0418 23:55:57.092397 20744 net.cpp:380] conv4_1-R -> conv4_1-R
I0418 23:55:57.105090 20744 net.cpp:122] Setting up conv4_1-R
I0418 23:55:57.105129 20744 net.cpp:129] Top shape: 1 512 89 64 (2916352)
I0418 23:55:57.105150 20744 net.cpp:137] Memory required for data: 1653098772
I0418 23:55:57.105165 20744 layer_factory.hpp:77] Creating layer relu4_1-R
I0418 23:55:57.105177 20744 net.cpp:84] Creating Layer relu4_1-R
I0418 23:55:57.105185 20744 net.cpp:406] relu4_1-R <- conv4_1-R
I0418 23:55:57.105196 20744 net.cpp:367] relu4_1-R -> conv4_1-R (in-place)
I0418 23:55:57.105473 20744 net.cpp:122] Setting up relu4_1-R
I0418 23:55:57.105489 20744 net.cpp:129] Top shape: 1 512 89 64 (2916352)
I0418 23:55:57.105494 20744 net.cpp:137] Memory required for data: 1664764180
I0418 23:55:57.105501 20744 layer_factory.hpp:77] Creating layer conv4_2-R
I0418 23:55:57.105518 20744 net.cpp:84] Creating Layer conv4_2-R
I0418 23:55:57.105525 20744 net.cpp:406] conv4_2-R <- conv4_1-R
I0418 23:55:57.105535 20744 net.cpp:380] conv4_2-R -> conv4_2-R
I0418 23:55:57.123064 20744 net.cpp:122] Setting up conv4_2-R
I0418 23:55:57.123113 20744 net.cpp:129] Top shape: 1 512 89 64 (2916352)
I0418 23:55:57.123121 20744 net.cpp:137] Memory required for data: 1676429588
I0418 23:55:57.123132 20744 layer_factory.hpp:77] Creating layer relu4_2-R
I0418 23:55:57.123147 20744 net.cpp:84] Creating Layer relu4_2-R
I0418 23:55:57.123153 20744 net.cpp:406] relu4_2-R <- conv4_2-R
I0418 23:55:57.123162 20744 net.cpp:367] relu4_2-R -> conv4_2-R (in-place)
I0418 23:55:57.123404 20744 net.cpp:122] Setting up relu4_2-R
I0418 23:55:57.123415 20744 net.cpp:129] Top shape: 1 512 89 64 (2916352)
I0418 23:55:57.123420 20744 net.cpp:137] Memory required for data: 1688094996
I0418 23:55:57.123425 20744 layer_factory.hpp:77] Creating layer conv4_3-R
I0418 23:55:57.123456 20744 net.cpp:84] Creating Layer conv4_3-R
I0418 23:55:57.123461 20744 net.cpp:406] conv4_3-R <- conv4_2-R
I0418 23:55:57.123471 20744 net.cpp:380] conv4_3-R -> conv4_3-R
I0418 23:55:57.132081 20744 net.cpp:122] Setting up conv4_3-R
I0418 23:55:57.132102 20744 net.cpp:129] Top shape: 1 512 89 64 (2916352)
I0418 23:55:57.132115 20744 net.cpp:137] Memory required for data: 1699760404
I0418 23:55:57.132127 20744 layer_factory.hpp:77] Creating layer relu4_3-R
I0418 23:55:57.132149 20744 net.cpp:84] Creating Layer relu4_3-R
I0418 23:55:57.132156 20744 net.cpp:406] relu4_3-R <- conv4_3-R
I0418 23:55:57.132164 20744 net.cpp:367] relu4_3-R -> conv4_3-R (in-place)
I0418 23:55:57.132903 20744 net.cpp:122] Setting up relu4_3-R
I0418 23:55:57.132920 20744 net.cpp:129] Top shape: 1 512 89 64 (2916352)
I0418 23:55:57.132925 20744 net.cpp:137] Memory required for data: 1711425812
I0418 23:55:57.132933 20744 layer_factory.hpp:77] Creating layer pool4-R
I0418 23:55:57.132953 20744 net.cpp:84] Creating Layer pool4-R
I0418 23:55:57.132959 20744 net.cpp:406] pool4-R <- conv4_3-R
I0418 23:55:57.132967 20744 net.cpp:380] pool4-R -> pool4-R
I0418 23:55:57.133031 20744 net.cpp:122] Setting up pool4-R
I0418 23:55:57.133038 20744 net.cpp:129] Top shape: 1 512 45 32 (737280)
I0418 23:55:57.133042 20744 net.cpp:137] Memory required for data: 1714374932
I0418 23:55:57.133046 20744 layer_factory.hpp:77] Creating layer pool4-R_pool4-R_0_split
I0418 23:55:57.133052 20744 net.cpp:84] Creating Layer pool4-R_pool4-R_0_split
I0418 23:55:57.133057 20744 net.cpp:406] pool4-R_pool4-R_0_split <- pool4-R
I0418 23:55:57.133064 20744 net.cpp:380] pool4-R_pool4-R_0_split -> pool4-R_pool4-R_0_split_0
I0418 23:55:57.133071 20744 net.cpp:380] pool4-R_pool4-R_0_split -> pool4-R_pool4-R_0_split_1
I0418 23:55:57.133116 20744 net.cpp:122] Setting up pool4-R_pool4-R_0_split
I0418 23:55:57.133121 20744 net.cpp:129] Top shape: 1 512 45 32 (737280)
I0418 23:55:57.133126 20744 net.cpp:129] Top shape: 1 512 45 32 (737280)
I0418 23:55:57.133131 20744 net.cpp:137] Memory required for data: 1720273172
I0418 23:55:57.133133 20744 layer_factory.hpp:77] Creating layer conv5_1-R
I0418 23:55:57.133144 20744 net.cpp:84] Creating Layer conv5_1-R
I0418 23:55:57.133148 20744 net.cpp:406] conv5_1-R <- pool4-R_pool4-R_0_split_0
I0418 23:55:57.133155 20744 net.cpp:380] conv5_1-R -> conv5_1-R
I0418 23:55:57.142746 20744 net.cpp:122] Setting up conv5_1-R
I0418 23:55:57.142794 20744 net.cpp:129] Top shape: 1 512 45 32 (737280)
I0418 23:55:57.142803 20744 net.cpp:137] Memory required for data: 1723222292
I0418 23:55:57.142848 20744 layer_factory.hpp:77] Creating layer relu5_1-R
I0418 23:55:57.142863 20744 net.cpp:84] Creating Layer relu5_1-R
I0418 23:55:57.142874 20744 net.cpp:406] relu5_1-R <- conv5_1-R
I0418 23:55:57.142885 20744 net.cpp:367] relu5_1-R -> conv5_1-R (in-place)
I0418 23:55:57.143283 20744 net.cpp:122] Setting up relu5_1-R
I0418 23:55:57.143303 20744 net.cpp:129] Top shape: 1 512 45 32 (737280)
I0418 23:55:57.143317 20744 net.cpp:137] Memory required for data: 1726171412
I0418 23:55:57.143326 20744 layer_factory.hpp:77] Creating layer conv5_2-R
I0418 23:55:57.143343 20744 net.cpp:84] Creating Layer conv5_2-R
I0418 23:55:57.143352 20744 net.cpp:406] conv5_2-R <- conv5_1-R
I0418 23:55:57.143365 20744 net.cpp:380] conv5_2-R -> conv5_2-R
I0418 23:55:57.153647 20744 net.cpp:122] Setting up conv5_2-R
I0418 23:55:57.153669 20744 net.cpp:129] Top shape: 1 512 45 32 (737280)
I0418 23:55:57.153674 20744 net.cpp:137] Memory required for data: 1729120532
I0418 23:55:57.153687 20744 layer_factory.hpp:77] Creating layer relu5_2-R
I0418 23:55:57.153697 20744 net.cpp:84] Creating Layer relu5_2-R
I0418 23:55:57.153704 20744 net.cpp:406] relu5_2-R <- conv5_2-R
I0418 23:55:57.153712 20744 net.cpp:367] relu5_2-R -> conv5_2-R (in-place)
I0418 23:55:57.153952 20744 net.cpp:122] Setting up relu5_2-R
I0418 23:55:57.153966 20744 net.cpp:129] Top shape: 1 512 45 32 (737280)
I0418 23:55:57.153970 20744 net.cpp:137] Memory required for data: 1732069652
I0418 23:55:57.153975 20744 layer_factory.hpp:77] Creating layer conv5_3-R
I0418 23:55:57.153990 20744 net.cpp:84] Creating Layer conv5_3-R
I0418 23:55:57.153995 20744 net.cpp:406] conv5_3-R <- conv5_2-R
I0418 23:55:57.154002 20744 net.cpp:380] conv5_3-R -> conv5_3-R
I0418 23:55:57.166805 20744 net.cpp:122] Setting up conv5_3-R
I0418 23:55:57.166848 20744 net.cpp:129] Top shape: 1 512 45 32 (737280)
I0418 23:55:57.166855 20744 net.cpp:137] Memory required for data: 1735018772
I0418 23:55:57.166873 20744 layer_factory.hpp:77] Creating layer relu5_3-R
I0418 23:55:57.166885 20744 net.cpp:84] Creating Layer relu5_3-R
I0418 23:55:57.166904 20744 net.cpp:406] relu5_3-R <- conv5_3-R
I0418 23:55:57.166913 20744 net.cpp:367] relu5_3-R -> conv5_3-R (in-place)
I0418 23:55:57.167179 20744 net.cpp:122] Setting up relu5_3-R
I0418 23:55:57.167196 20744 net.cpp:129] Top shape: 1 512 45 32 (737280)
I0418 23:55:57.167201 20744 net.cpp:137] Memory required for data: 1737967892
I0418 23:55:57.167207 20744 layer_factory.hpp:77] Creating layer pool5-R
I0418 23:55:57.167220 20744 net.cpp:84] Creating Layer pool5-R
I0418 23:55:57.167227 20744 net.cpp:406] pool5-R <- conv5_3-R
I0418 23:55:57.167237 20744 net.cpp:380] pool5-R -> pool5-R
I0418 23:55:57.167309 20744 net.cpp:122] Setting up pool5-R
I0418 23:55:57.167322 20744 net.cpp:129] Top shape: 1 512 23 16 (188416)
I0418 23:55:57.167328 20744 net.cpp:137] Memory required for data: 1738721556
I0418 23:55:57.167335 20744 layer_factory.hpp:77] Creating layer fc6-R
I0418 23:55:57.167347 20744 net.cpp:84] Creating Layer fc6-R
I0418 23:55:57.167354 20744 net.cpp:406] fc6-R <- pool5-R
I0418 23:55:57.167366 20744 net.cpp:380] fc6-R -> fc6-R
I0418 23:55:57.510329 20744 net.cpp:122] Setting up fc6-R
I0418 23:55:57.510378 20744 net.cpp:129] Top shape: 1 4096 17 10 (696320)
I0418 23:55:57.510383 20744 net.cpp:137] Memory required for data: 1741506836
I0418 23:55:57.510395 20744 layer_factory.hpp:77] Creating layer relu6-R
I0418 23:55:57.510407 20744 net.cpp:84] Creating Layer relu6-R
I0418 23:55:57.510414 20744 net.cpp:406] relu6-R <- fc6-R
I0418 23:55:57.510422 20744 net.cpp:367] relu6-R -> fc6-R (in-place)
I0418 23:55:57.510603 20744 net.cpp:122] Setting up relu6-R
I0418 23:55:57.510613 20744 net.cpp:129] Top shape: 1 4096 17 10 (696320)
I0418 23:55:57.510617 20744 net.cpp:137] Memory required for data: 1744292116
I0418 23:55:57.510622 20744 layer_factory.hpp:77] Creating layer drop6-R
I0418 23:55:57.510628 20744 net.cpp:84] Creating Layer drop6-R
I0418 23:55:57.510632 20744 net.cpp:406] drop6-R <- fc6-R
I0418 23:55:57.510638 20744 net.cpp:367] drop6-R -> fc6-R (in-place)
I0418 23:55:57.510670 20744 net.cpp:122] Setting up drop6-R
I0418 23:55:57.510675 20744 net.cpp:129] Top shape: 1 4096 17 10 (696320)
I0418 23:55:57.510679 20744 net.cpp:137] Memory required for data: 1747077396
I0418 23:55:57.510682 20744 layer_factory.hpp:77] Creating layer fc7-R
I0418 23:55:57.510691 20744 net.cpp:84] Creating Layer fc7-R
I0418 23:55:57.510695 20744 net.cpp:406] fc7-R <- fc6-R
I0418 23:55:57.510702 20744 net.cpp:380] fc7-R -> fc7-R
I0418 23:55:57.557292 20744 net.cpp:122] Setting up fc7-R
I0418 23:55:57.557344 20744 net.cpp:129] Top shape: 1 4096 17 10 (696320)
I0418 23:55:57.557349 20744 net.cpp:137] Memory required for data: 1749862676
I0418 23:55:57.557363 20744 layer_factory.hpp:77] Creating layer relu7-R
I0418 23:55:57.557377 20744 net.cpp:84] Creating Layer relu7-R
I0418 23:55:57.557384 20744 net.cpp:406] relu7-R <- fc7-R
I0418 23:55:57.557390 20744 net.cpp:367] relu7-R -> fc7-R (in-place)
I0418 23:55:57.557593 20744 net.cpp:122] Setting up relu7-R
I0418 23:55:57.557605 20744 net.cpp:129] Top shape: 1 4096 17 10 (696320)
I0418 23:55:57.557608 20744 net.cpp:137] Memory required for data: 1752647956
I0418 23:55:57.557611 20744 layer_factory.hpp:77] Creating layer drop7-R
I0418 23:55:57.557620 20744 net.cpp:84] Creating Layer drop7-R
I0418 23:55:57.557623 20744 net.cpp:406] drop7-R <- fc7-R
I0418 23:55:57.557629 20744 net.cpp:367] drop7-R -> fc7-R (in-place)
I0418 23:55:57.557668 20744 net.cpp:122] Setting up drop7-R
I0418 23:55:57.557683 20744 net.cpp:129] Top shape: 1 4096 17 10 (696320)
I0418 23:55:57.557687 20744 net.cpp:137] Memory required for data: 1755433236
I0418 23:55:57.557691 20744 layer_factory.hpp:77] Creating layer score_fr-new-R
I0418 23:55:57.557703 20744 net.cpp:84] Creating Layer score_fr-new-R
I0418 23:55:57.557705 20744 net.cpp:406] score_fr-new-R <- fc7-R
I0418 23:55:57.557713 20744 net.cpp:380] score_fr-new-R -> score_fr-new-R
I0418 23:55:57.558956 20744 net.cpp:122] Setting up score_fr-new-R
I0418 23:55:57.558985 20744 net.cpp:129] Top shape: 1 3 17 10 (510)
I0418 23:55:57.558990 20744 net.cpp:137] Memory required for data: 1755435276
I0418 23:55:57.558996 20744 layer_factory.hpp:77] Creating layer upscore2-new-R
I0418 23:55:57.559005 20744 net.cpp:84] Creating Layer upscore2-new-R
I0418 23:55:57.559010 20744 net.cpp:406] upscore2-new-R <- score_fr-new-R
I0418 23:55:57.559016 20744 net.cpp:380] upscore2-new-R -> upscore2-new-R
I0418 23:55:57.559231 20744 net.cpp:122] Setting up upscore2-new-R
I0418 23:55:57.559240 20744 net.cpp:129] Top shape: 1 3 36 22 (2376)
I0418 23:55:57.559243 20744 net.cpp:137] Memory required for data: 1755444780
I0418 23:55:57.559248 20744 layer_factory.hpp:77] Creating layer upscore2-new-R_upscore2-new-R_0_split
I0418 23:55:57.559255 20744 net.cpp:84] Creating Layer upscore2-new-R_upscore2-new-R_0_split
I0418 23:55:57.559259 20744 net.cpp:406] upscore2-new-R_upscore2-new-R_0_split <- upscore2-new-R
I0418 23:55:57.559265 20744 net.cpp:380] upscore2-new-R_upscore2-new-R_0_split -> upscore2-new-R_upscore2-new-R_0_split_0
I0418 23:55:57.559273 20744 net.cpp:380] upscore2-new-R_upscore2-new-R_0_split -> upscore2-new-R_upscore2-new-R_0_split_1
I0418 23:55:57.559311 20744 net.cpp:122] Setting up upscore2-new-R_upscore2-new-R_0_split
I0418 23:55:57.559316 20744 net.cpp:129] Top shape: 1 3 36 22 (2376)
I0418 23:55:57.559320 20744 net.cpp:129] Top shape: 1 3 36 22 (2376)
I0418 23:55:57.559324 20744 net.cpp:137] Memory required for data: 1755463788
I0418 23:55:57.559326 20744 layer_factory.hpp:77] Creating layer score_pool4-new-R
I0418 23:55:57.559337 20744 net.cpp:84] Creating Layer score_pool4-new-R
I0418 23:55:57.559341 20744 net.cpp:406] score_pool4-new-R <- pool4-R_pool4-R_0_split_1
I0418 23:55:57.559347 20744 net.cpp:380] score_pool4-new-R -> score_pool4-new-R
I0418 23:55:57.560497 20744 net.cpp:122] Setting up score_pool4-new-R
I0418 23:55:57.560511 20744 net.cpp:129] Top shape: 1 3 45 32 (4320)
I0418 23:55:57.560530 20744 net.cpp:137] Memory required for data: 1755481068
I0418 23:55:57.560537 20744 layer_factory.hpp:77] Creating layer score_pool4c-R
I0418 23:55:57.560547 20744 net.cpp:84] Creating Layer score_pool4c-R
I0418 23:55:57.560551 20744 net.cpp:406] score_pool4c-R <- score_pool4-new-R
I0418 23:55:57.560556 20744 net.cpp:406] score_pool4c-R <- upscore2-new-R_upscore2-new-R_0_split_0
I0418 23:55:57.560562 20744 net.cpp:380] score_pool4c-R -> score_pool4c-R
I0418 23:55:57.560593 20744 net.cpp:122] Setting up score_pool4c-R
I0418 23:55:57.560598 20744 net.cpp:129] Top shape: 1 3 36 22 (2376)
I0418 23:55:57.560601 20744 net.cpp:137] Memory required for data: 1755490572
I0418 23:55:57.560605 20744 layer_factory.hpp:77] Creating layer fuse_pool4-R
I0418 23:55:57.560612 20744 net.cpp:84] Creating Layer fuse_pool4-R
I0418 23:55:57.560616 20744 net.cpp:406] fuse_pool4-R <- upscore2-new-R_upscore2-new-R_0_split_1
I0418 23:55:57.560621 20744 net.cpp:406] fuse_pool4-R <- score_pool4c-R
I0418 23:55:57.560626 20744 net.cpp:380] fuse_pool4-R -> fuse_pool4-R
I0418 23:55:57.560650 20744 net.cpp:122] Setting up fuse_pool4-R
I0418 23:55:57.560655 20744 net.cpp:129] Top shape: 1 3 36 22 (2376)
I0418 23:55:57.560658 20744 net.cpp:137] Memory required for data: 1755500076
I0418 23:55:57.560662 20744 layer_factory.hpp:77] Creating layer upscore_pool4-new-R
I0418 23:55:57.560668 20744 net.cpp:84] Creating Layer upscore_pool4-new-R
I0418 23:55:57.560672 20744 net.cpp:406] upscore_pool4-new-R <- fuse_pool4-R
I0418 23:55:57.560685 20744 net.cpp:380] upscore_pool4-new-R -> upscore_pool4-new-R
I0418 23:55:57.560884 20744 net.cpp:122] Setting up upscore_pool4-new-R
I0418 23:55:57.560894 20744 net.cpp:129] Top shape: 1 3 74 46 (10212)
I0418 23:55:57.560896 20744 net.cpp:137] Memory required for data: 1755540924
I0418 23:55:57.560901 20744 layer_factory.hpp:77] Creating layer upscore_pool4-new-R_upscore_pool4-new-R_0_split
I0418 23:55:57.560906 20744 net.cpp:84] Creating Layer upscore_pool4-new-R_upscore_pool4-new-R_0_split
I0418 23:55:57.560910 20744 net.cpp:406] upscore_pool4-new-R_upscore_pool4-new-R_0_split <- upscore_pool4-new-R
I0418 23:55:57.560915 20744 net.cpp:380] upscore_pool4-new-R_upscore_pool4-new-R_0_split -> upscore_pool4-new-R_upscore_pool4-new-R_0_split_0
I0418 23:55:57.560921 20744 net.cpp:380] upscore_pool4-new-R_upscore_pool4-new-R_0_split -> upscore_pool4-new-R_upscore_pool4-new-R_0_split_1
I0418 23:55:57.560957 20744 net.cpp:122] Setting up upscore_pool4-new-R_upscore_pool4-new-R_0_split
I0418 23:55:57.560962 20744 net.cpp:129] Top shape: 1 3 74 46 (10212)
I0418 23:55:57.560966 20744 net.cpp:129] Top shape: 1 3 74 46 (10212)
I0418 23:55:57.560969 20744 net.cpp:137] Memory required for data: 1755622620
I0418 23:55:57.560972 20744 layer_factory.hpp:77] Creating layer score_pool3-new-R
I0418 23:55:57.560982 20744 net.cpp:84] Creating Layer score_pool3-new-R
I0418 23:55:57.560986 20744 net.cpp:406] score_pool3-new-R <- pool3-R_pool3-R_0_split_1
I0418 23:55:57.560992 20744 net.cpp:380] score_pool3-new-R -> score_pool3-new-R
I0418 23:55:57.562188 20744 net.cpp:122] Setting up score_pool3-new-R
I0418 23:55:57.562203 20744 net.cpp:129] Top shape: 1 3 89 64 (17088)
I0418 23:55:57.562222 20744 net.cpp:137] Memory required for data: 1755690972
I0418 23:55:57.562245 20744 layer_factory.hpp:77] Creating layer score_pool3c-R
I0418 23:55:57.562252 20744 net.cpp:84] Creating Layer score_pool3c-R
I0418 23:55:57.562256 20744 net.cpp:406] score_pool3c-R <- score_pool3-new-R
I0418 23:55:57.562263 20744 net.cpp:406] score_pool3c-R <- upscore_pool4-new-R_upscore_pool4-new-R_0_split_0
I0418 23:55:57.562270 20744 net.cpp:380] score_pool3c-R -> score_pool3c-R
I0418 23:55:57.562304 20744 net.cpp:122] Setting up score_pool3c-R
I0418 23:55:57.562311 20744 net.cpp:129] Top shape: 1 3 74 46 (10212)
I0418 23:55:57.562314 20744 net.cpp:137] Memory required for data: 1755731820
I0418 23:55:57.562319 20744 layer_factory.hpp:77] Creating layer fuse_pool3-R
I0418 23:55:57.562325 20744 net.cpp:84] Creating Layer fuse_pool3-R
I0418 23:55:57.562330 20744 net.cpp:406] fuse_pool3-R <- upscore_pool4-new-R_upscore_pool4-new-R_0_split_1
I0418 23:55:57.562335 20744 net.cpp:406] fuse_pool3-R <- score_pool3c-R
I0418 23:55:57.562340 20744 net.cpp:380] fuse_pool3-R -> fuse_pool3-R
I0418 23:55:57.562368 20744 net.cpp:122] Setting up fuse_pool3-R
I0418 23:55:57.562373 20744 net.cpp:129] Top shape: 1 3 74 46 (10212)
I0418 23:55:57.562376 20744 net.cpp:137] Memory required for data: 1755772668
I0418 23:55:57.562381 20744 layer_factory.hpp:77] Creating layer upscore8-new-R
I0418 23:55:57.562389 20744 net.cpp:84] Creating Layer upscore8-new-R
I0418 23:55:57.562393 20744 net.cpp:406] upscore8-new-R <- fuse_pool3-R
I0418 23:55:57.562398 20744 net.cpp:380] upscore8-new-R -> upscore8-new-R
I0418 23:55:57.562636 20744 net.cpp:122] Setting up upscore8-new-R
I0418 23:55:57.562646 20744 net.cpp:129] Top shape: 1 3 600 376 (676800)
I0418 23:55:57.562649 20744 net.cpp:137] Memory required for data: 1758479868
I0418 23:55:57.562654 20744 layer_factory.hpp:77] Creating layer upscore8_cropped-R
I0418 23:55:57.562661 20744 net.cpp:84] Creating Layer upscore8_cropped-R
I0418 23:55:57.562665 20744 net.cpp:406] upscore8_cropped-R <- upscore8-new-R
I0418 23:55:57.562671 20744 net.cpp:406] upscore8_cropped-R <- data-R_crop_0_split_1
I0418 23:55:57.562676 20744 net.cpp:380] upscore8_cropped-R -> upscore8_cropped-R
I0418 23:55:57.562701 20744 net.cpp:122] Setting up upscore8_cropped-R
I0418 23:55:57.562706 20744 net.cpp:129] Top shape: 1 3 512 310 (476160)
I0418 23:55:57.562710 20744 net.cpp:137] Memory required for data: 1760384508
I0418 23:55:57.562712 20744 layer_factory.hpp:77] Creating layer score-R
I0418 23:55:57.562723 20744 net.cpp:84] Creating Layer score-R
I0418 23:55:57.562727 20744 net.cpp:406] score-R <- upscore8_cropped-R
I0418 23:55:57.562734 20744 net.cpp:380] score-R -> score-R
I0418 23:55:57.564734 20744 net.cpp:122] Setting up score-R
I0418 23:55:57.564749 20744 net.cpp:129] Top shape: 1 3 512 310 (476160)
I0418 23:55:57.564767 20744 net.cpp:137] Memory required for data: 1762289148
I0418 23:55:57.564774 20744 layer_factory.hpp:77] Creating layer score_uncropped-R
I0418 23:55:57.565201 20744 net.cpp:84] Creating Layer score_uncropped-R
I0418 23:55:57.565213 20744 net.cpp:406] score_uncropped-R <- crop_info
I0418 23:55:57.565234 20744 net.cpp:406] score_uncropped-R <- score-R
I0418 23:55:57.565238 20744 net.cpp:406] score_uncropped-R <- data_data_0_split_3
I0418 23:55:57.565244 20744 net.cpp:380] score_uncropped-R -> score_uncropped-R
I0418 23:55:57.566926 20744 net.cpp:122] Setting up score_uncropped-R
I0418 23:55:57.566941 20744 net.cpp:129] Top shape: 1 3 512 310 (476160)
I0418 23:55:57.566959 20744 net.cpp:137] Memory required for data: 1764193788
I0418 23:55:57.566965 20744 layer_factory.hpp:77] Creating layer loss1
I0418 23:55:57.566979 20744 net.cpp:84] Creating Layer loss1
I0418 23:55:57.566983 20744 net.cpp:406] loss1 <- score_score_0_split_1
I0418 23:55:57.566988 20744 net.cpp:406] loss1 <- label_data_1_split_1
I0418 23:55:57.566993 20744 net.cpp:380] loss1 -> loss1
…
snapshot_prefix: "/media/Med_2T2/data2/models/snapshots/indiv:1e-5x10,20/FD1:YI3_1_20180418_201418/train"
test_initialization: false
average_loss: 20
stepvalue: 40000
iter_size: 1
I0419 00:44:28.860273 20744 solver.cpp:77] Creating training net from train_net file: /media/Med_2T2/data2/prototxts/training_I3x10.prototxt
I0419 00:44:28.862502 20744 net.cpp:51] Initializing net from parameters: 
state {
  phase: TRAIN
}
layer {
  name: "data"
  type: "Python"
  top: "data"
  top: "label"
  top: "crop_margin"
  top: "crop_prob"
  top: "crop_sample_batch"
  python_param {
    module: "Data"
    layer: "DataLayer"
  }
}
layer {
  name: "conv1_1"
  type: "Convolution"
  bottom: "data"
  top: "conv1_1"
  param {
    lr_mult: 1
    decay_mult: 1
  }
  param {
    lr_mult: 2
    decay_mult: 0
  }
  convolution_param {
    num_output: 64
    pad: 100
    kernel_size: 3
    stride: 1
  }
}
layer {
  name: "relu1_1"
  type: "ReLU"
  bottom: "conv1_1"
  top: "conv1_1"
}
layer {
  name: "conv1_2"
  type: "Convolution"
  bottom: "conv1_1"
  top: "conv1_2"
  param {
    lr_mult: 1
    decay_mult: 1
  }
  param {
    lr_mult: 2
    decay_mult: 0
  }
  convolution_param {
    num_output: 64
    pad: 1
    kernel_size: 3
    stride: 1
  }
}
layer {
  name: "relu1_2"
  type: "ReLU"
  bottom: "conv1_2"
  top: "conv1_2"
}
layer {
  name: "pool1"
  type: "Pooling"
  bottom: "conv1_2"
  top: "pool1"
  pooling_param {
    pool: MAX
    kernel_size: 2
    stride: 2
  }
}
layer {
  name: "conv2_1"
  type: "Convolution"
  bottom: "pool1"
  top: "conv2_1"
  param {
    lr_mult: 1
    decay_mult: 1
  }
  param {
    lr_mult: 2
    decay_mult: 0
  }
  convolution_param {
    num_output: 128
    pad: 1
    kernel_size: 3
    stride: 1
  }
}
layer {
  name: "relu2_1"
  type: "ReLU"
  bottom: "conv2_1"
  top: "conv2_1"
}
layer {
  name: "conv2_2"
  type: "Convolution"
  bottom: "conv2_1"
  top: "conv2_2"
  param {
    lr_mult: 1
    decay_mult: 1
  }
  param {
    lr_mult: 2
    decay_mult: 0
  }
  convolution_param {
    num_output: 128
    pad: 1
    kernel_size: 3
    stride: 1
  }
}
layer {
  name: "relu2_2"
  type: "ReLU"
  bottom: "conv2_2"
  top: "conv2_2"
}
layer {
  name: "pool2"
  type: "Pooling"
  bottom: "conv2_2"
  top: "pool2"
  pooling_param {
    pool: MAX
    kernel_size: 2
    stride: 2
  }
}
layer {
  name: "conv3_1"
  type: "Convolution"
  bottom: "pool2"
  top: "conv3_1"
  param {
    lr_mult: 1
    decay_mult: 1
  }
  param {
    lr_mult: 2
    decay_mult: 0
  }
  convolution_param {
    num_output: 256
    pad: 1
    kernel_size: 3
    stride: 1
  }
}
layer {
  name: "relu3_1"
  type: "ReLU"
  bottom: "conv3_1"
  top: "conv3_1"
}
layer {
  name: "conv3_2"
  type: "Convolution"
  bottom: "conv3_1"
  top: "conv3_2"
  param {
    lr_mult: 1
    decay_mult: 1
  }
  param {
    lr_mult: 2
    decay_mult: 0
  }
  convolution_param {
    num_output: 256
    pad: 1
    kernel_size: 3
    stride: 1
  }
}
layer {
  name: "relu3_2"
  type: "ReLU"
  bottom: "conv3_2"
  top: "conv3_2"
}
layer {
  name: "conv3_3"
  type: "Convolution"
  bottom: "conv3_2"
  top: "conv3_3"
  param {
    lr_mult: 1
    decay_mult: 1
  }
  param {
    lr_mult: 2
    decay_mult: 0
  }
  convolution_param {
    num_output: 256
    pad: 1
    kernel_size: 3
    stride: 1
  }
}
layer {
  name: "relu3_3"
  type: "ReLU"
  bottom: "conv3_3"
  top: "conv3_3"
}
layer {
  name: "pool3"
  type: "Pooling"
  bottom: "conv3_3"
  top: "pool3"
  pooling_param {
    pool: MAX
    kernel_size: 2
    stride: 2
  }
}
layer {
  name: "conv4_1"
  type: "Convolution"
  bottom: "pool3"
  top: "conv4_1"
  param {
    lr_mult: 1
    decay_mult: 1
  }
  param {
    lr_mult: 2
    decay_mult: 0
  }
  convolution_param {
    num_output: 512
    pad: 1
    kernel_size: 3
    stride: 1
  }
}
layer {
  name: "relu4_1"
  type: "ReLU"
  bottom: "conv4_1"
  top: "conv4_1"
}
layer {
  name: "conv4_2"
  type: "Convolution"
  bottom: "conv4_1"
  top: "conv4_2"
  param {
    lr_mult: 1
    decay_mult: 1
  }
  param {
    lr_mult: 2
    decay_mult: 0
  }
  convolution_param {
    num_output: 512
    pad: 1
    kernel_size: 3
    stride: 1
  }
}
layer {
  name: "relu4_2"
  type: "ReLU"
  bottom: "conv4_2"
  top: "conv4_2"
}
layer {
  name: "conv4_3"
  type: "Convolution"
  bottom: "conv4_2"
  top: "conv4_3"
  param {
    lr_mult: 1
    decay_mult: 1
  }
  param {
    lr_mult: 2
    decay_mult: 0
  }
  convolution_param {
    num_output: 512
    pad: 1
    kernel_size: 3
    stride: 1
  }
}
layer {
  name: "relu4_3"
  type: "ReLU"
  bottom: "conv4_3"
  top: "conv4_3"
}
layer {
  name: "pool4"
  type: "Pooling"
  bottom: "conv4_3"
  top: "pool4"
  pooling_param {
    pool: MAX
    kernel_size: 2
    stride: 2
  }
}
layer {
  name: "conv5_1"
  type: "Convolution"
  bottom: "pool4"
  top: "conv5_1"
  param {
    lr_mult: 1
    decay_mult: 1
  }
  param {
    lr_mult: 2
    decay_mult: 0
  }
  convolution_param {
    num_output: 512
    pad: 1
    kernel_size: 3
    stride: 1
  }
}
layer {
  name: "relu5_1"
  type: "ReLU"
  bottom: "conv5_1"
  top: "conv5_1"
}
layer {
  name: "conv5_2"
  type: "Convolution"
  bottom: "conv5_1"
  top: "conv5_2"
  param {
    lr_mult: 1
    decay_mult: 1
  }
  param {
    lr_mult: 2
    decay_mult: 0
  }
  convolution_param {
    num_output: 512
    pad: 1
    kernel_size: 3
    stride: 1
  }
}
layer {
  name: "relu5_2"
  type: "ReLU"
  bottom: "conv5_2"
  top: "conv5_2"
}
layer {
  name: "conv5_3"
  type: "Convolution"
  bottom: "conv5_2"
  top: "conv5_3"
  param {
    lr_mult: 1
    decay_mult: 1
  }
  param {
    lr_mult: 2
    decay_mult: 0
  }
  convolution_param {
    num_output: 512
    pad: 1
    kernel_size: 3
    stride: 1
  }
}
layer {
  name: "relu5_3"
  type: "ReLU"
  bottom: "conv5_3"
  top: "conv5_3"
}
layer {
  name: "pool5"
  type: "Pooling"
  bottom: "conv5_3"
  top: "pool5"
  pooling_param {
    pool: MAX
    kernel_size: 2
    stride: 2
  }
}
layer {
  name: "fc6"
  type: "Convolution"
  bottom: "pool5"
  top: "fc6"
  param {
    lr_mult: 1
    decay_mult: 1
  }
  param {
    lr_mult: 2
    decay_mult: 0
  }
  convolution_param {
    num_output: 4096
    pad: 0
    kernel_size: 7
    stride: 1
  }
}
layer {
  name: "relu6"
  type: "ReLU"
  bottom: "fc6"
  top: "fc6"
}
layer {
  name: "drop6"
  type: "Dropout"
  bottom: "fc6"
  top: "fc6"
  dropout_param {
    dropout_ratio: 0.5
  }
}
layer {
  name: "fc7"
  type: "Convolution"
  bottom: "fc6"
  top: "fc7"
  param {
    lr_mult: 1
    decay_mult: 1
  }
  param {
    lr_mult: 2
    decay_mult: 0
  }
  convolution_param {
    num_output: 4096
    pad: 0
    kernel_size: 1
    stride: 1
  }
}
layer {
  name: "relu7"
  type: "ReLU"
  bottom: "fc7"
  top: "fc7"
}
layer {
  name: "drop7"
  type: "Dropout"
  bottom: "fc7"
  top: "fc7"
  dropout_param {
    dropout_ratio: 0.5
  }
}
layer {
  name: "score_fr-new"
  type: "Convolution"
  bottom: "fc7"
  top: "score_fr-new"
  param {
    lr_mult: 1
    decay_mult: 1
  }
  param {
    lr_mult: 2
    decay_mult: 0
  }
  convolution_param {
    num_output: 3
    kernel_size: 1
  }
}
layer {
  name: "upscore2-new"
  type: "Deconvolution"
  bottom: "score_fr-new"
  top: "upscore2-new"
  param {
    lr_mult: 0
  }
  convolution_param {
    num_output: 3
    bias_term: false
    kernel_size: 4
    stride: 2
  }
}
layer {
  name: "score_pool4-new"
  type: "Convolution"
  bottom: "pool4"
  top: "score_pool4-new"
  param {
    lr_mult: 1
    decay_mult: 1
  }
  param {
    lr_mult: 2
    decay_mult: 0
  }
  convolution_param {
    num_output: 3
    pad: 0
    kernel_size: 1
  }
}
layer {
  name: "score_pool4c"
  type: "Crop"
  bottom: "score_pool4-new"
  bottom: "upscore2-new"
  top: "score_pool4c"
  crop_param {
    axis: 2
    offset: 5
  }
}
layer {
  name: "fuse_pool4"
  type: "Eltwise"
  bottom: "upscore2-new"
  bottom: "score_pool4c"
  top: "fuse_pool4"
  eltwise_param {
    operation: SUM
  }
}
layer {
  name: "upscore_pool4-new"
  type: "Deconvolution"
  bottom: "fuse_pool4"
  top: "upscore_pool4-new"
  param {
    lr_mult: 0
  }
  convolution_param {
    num_output: 3
    bias_term: false
    kernel_size: 4
    stride: 2
  }
}
layer {
  name: "score_pool3-new"
  type: "Convolution"
  bottom: "pool3"
  top: "score_pool3-new"
  param {
    lr_mult: 1
    decay_mult: 1
  }
  param {
    lr_mult: 2
    decay_mult: 0
  }
  convolution_param {
    num_output: 3
    pad: 0
    kernel_size: 1
  }
}
layer {
  name: "score_pool3c"
  type: "Crop"
  bottom: "score_pool3-new"
  bottom: "upscore_pool4-new"
  top: "score_pool3c"
  crop_param {
    axis: 2
    offset: 9
  }
}
layer {
  name: "fuse_pool3"
  type: "Eltwise"
  bottom: "upscore_pool4-new"
  bottom: "score_pool3c"
  top: "fuse_pool3"
  eltwise_param {
    operation: SUM
  }
}
layer {
  name: "upscore8-new"
  type: "Deconvolution"
  bottom: "fuse_pool3"
  top: "upscore8-new"
  param {
    lr_mult: 0
  }
  convolution_param {
    num_output: 3
    bias_term: false
    kernel_size: 16
    stride: 8
  }
}
layer {
  name: "upscore8_cropped"
  type: "Crop"
  bottom: "upscore8-new"
  bottom: "data"
  top: "upscore8_cropped"
  crop_param {
    axis: 2
    offset: 31
  }
}
layer {
  name: "score"
  type: "Convolution"
  bottom: "upscore8_cropped"
  top: "score"
  param {
    lr_mult: 1
    decay_mult: 1
  }
  param {
    lr_mult: 2
    decay_mult: 0
  }
  convolution_param {
    num_output: 3
    pad: 1
    kernel_size: 3
    stride: 1
    weight_filler {
      type: "xavier"
    }
    bias_filler {
      type: "constant"
      value: 0
    }
  }
}
layer {
  name: "prob"
  type: "Sigmoid"
  bottom: "score"
  top: "prob"
}
layer {
  name: "saliency"
  type: "Convolution"
  bottom: "prob"
  top: "saliency"
  param {
    lr_mult: 10
    decay_mult: 1
  }
  param {
    lr_mult: 20
    decay_mult: 0
  }
  convolution_param {
    num_output: 3
    pad: 2
    kernel_size: 5
    stride: 1
    weight_filler {
      type: "xavier"
    }
    bias_filler {
      type: "constant"
      value: 1
    }
  }
}
layer {
  name: "saliency_data"
  type: "Eltwise"
  bottom: "data"
  bottom: "saliency"
  top: "saliency_data"
  eltwise_param {
    operation: PROD
  }
}
layer {
  name: "crop"
  type: "Python"
  bottom: "label"
  bottom: "saliency_data"
  bottom: "crop_margin"
  bottom: "crop_prob"
  bottom: "crop_sample_batch"
  top: "data-R"
  top: "crop_info"
  python_param {
    module: "Crop"
    layer: "CropLayer"
    param_str: "{\"TEST\": 0}"
  }
}
layer {
  name: "conv1_1-R"
  type: "Convolution"
  bottom: "data-R"
  top: "conv1_1-R"
  param {
    lr_mult: 10
    decay_mult: 1
  }
  param {
    lr_mult: 20
    decay_mult: 0
  }
  convolution_param {
    num_output: 64
    pad: 100
    kernel_size: 3
    stride: 1
  }
}
layer {
  name: "relu1_1-R"
  type: "ReLU"
  bottom: "conv1_1-R"
  top: "conv1_1-R"
}
layer {
  name: "conv1_2-R"
  type: "Convolution"
  bottom: "conv1_1-R"
  top: "conv1_2-R"
  param {
    lr_mult: 10
    decay_mult: 1
  }
  param {
    lr_mult: 20
    decay_mult: 0
  }
  convolution_param {
    num_output: 64
    pad: 1
    kernel_size: 3
    stride: 1
  }
}
layer {
  name: "relu1_2-R"
  type: "ReLU"
  bottom: "conv1_2-R"
  top: "conv1_2-R"
}
layer {
  name: "pool1-R"
  type: "Pooling"
  bottom: "conv1_2-R"
  top: "pool1-R"
  pooling_param {
    pool: MAX
    kernel_size: 2
    stride: 2
  }
}
layer {
  name: "conv2_1-R"
  type: "Convolution"
  bottom: "pool1-R"
  top: "conv2_1-R"
  param {
    lr_mult: 10
    decay_mult: 1
  }
  param {
    lr_mult: 20
    decay_mult: 0
  }
  convolution_param {
    num_output: 128
    pad: 1
    kernel_size: 3
    stride: 1
  }
}
layer {
  name: "relu2_1-R"
  type: "ReLU"
  bottom: "conv2_1-R"
  top: "conv2_1-R"
}
layer {
  name: "conv2_2-R"
  type: "Convolution"
  bottom: "conv2_1-R"
  top: "conv2_2-R"
  param {
    lr_mult: 10
    decay_mult: 1
  }
  param {
    lr_mult: 20
    decay_mult: 0
  }
  convolution_param {
    num_output: 128
    pad: 1
    kernel_size: 3
    stride: 1
  }
}
layer {
  name: "relu2_2-R"
  type: "ReLU"
  bottom: "conv2_2-R"
  top: "conv2_2-R"
}
layer {
  name: "pool2-R"
  type: "Pooling"
  bottom: "conv2_2-R"
  top: "pool2-R"
  pooling_param {
    pool: MAX
    kernel_size: 2
    stride: 2
  }
}
layer {
  name: "conv3_1-R"
  type: "Convolution"
  bottom: "pool2-R"
  top: "conv3_1-R"
  param {
    lr_mult: 10
    decay_mult: 1
  }
  param {
    lr_mult: 20
    decay_mult: 0
  }
  convolution_param {
    num_output: 256
    pad: 1
    kernel_size: 3
    stride: 1
  }
}
layer {
  name: "relu3_1-R"
  type: "ReLU"
  bottom: "conv3_1-R"
  top: "conv3_1-R"
}
layer {
  name: "conv3_2-R"
  type: "Convolution"
  bottom: "conv3_1-R"
  top: "conv3_2-R"
  param {
    lr_mult: 10
    decay_mult: 1
  }
  param {
    lr_mult: 20
    decay_mult: 0
  }
  convolution_param {
    num_output: 256
    pad: 1
    kernel_size: 3
    stride: 1
  }
}
layer {
  name: "relu3_2-R"
  type: "ReLU"
  bottom: "conv3_2-R"
  top: "conv3_2-R"
}
layer {
  name: "conv3_3-R"
  type: "Convolution"
  bottom: "conv3_2-R"
  top: "conv3_3-R"
  param {
    lr_mult: 10
    decay_mult: 1
  }
  param {
    lr_mult: 20
    decay_mult: 0
  }
  convolution_param {
    num_output: 256
    pad: 1
    kernel_size: 3
    stride: 1
  }
}
layer {
  name: "relu3_3-R"
  type: "ReLU"
  bottom: "conv3_3-R"
  top: "conv3_3-R"
}
layer {
  name: "pool3-R"
  type: "Pooling"
  bottom: "conv3_3-R"
  top: "pool3-R"
  pooling_param {
    pool: MAX
    kernel_size: 2
    stride: 2
  }
}
layer {
  name: "conv4_1-R"
  type: "Convolution"
  bottom: "pool3-R"
  top: "conv4_1-R"
  param {
    lr_mult: 10
    decay_mult: 1
  }
  param {
    lr_mult: 20
    decay_mult: 0
  }
  convolution_param {
    num_output: 512
    pad: 1
    kernel_size: 3
    stride: 1
  }
}
layer {
  name: "relu4_1-R"
  type: "ReLU"
  bottom: "conv4_1-R"
  top: "conv4_1-R"
}
layer {
  name: "conv4_2-R"
  type: "Convolution"
  bottom: "conv4_1-R"
  top: "conv4_2-R"
  param {
    lr_mult: 10
    decay_mult: 1
  }
  param {
    lr_mult: 20
    decay_mult: 0
  }
  convolution_param {
    num_output: 512
    pad: 1
    kernel_size: 3
    stride: 1
  }
}
layer {
  name: "relu4_2-R"
  type: "ReLU"
  bottom: "conv4_2-R"
  top: "conv4_2-R"
}
layer {
  name: "conv4_3-R"
  type: "Convolution"
  bottom: "conv4_2-R"
  top: "conv4_3-R"
  param {
    lr_mult: 10
    decay_mult: 1
  }
  param {
    lr_mult: 20
    decay_mult: 0
  }
  convolution_param {
    num_output: 512
    pad: 1
    kernel_size: 3
    stride: 1
  }
}
layer {
  name: "relu4_3-R"
  type: "ReLU"
  bottom: "conv4_3-R"
  top: "conv4_3-R"
}
layer {
  name: "pool4-R"
  type: "Pooling"
  bottom: "conv4_3-R"
  top: "pool4-R"
  pooling_param {
    pool: MAX
    kernel_size: 2
    stride: 2
  }
}
layer {
  name: "conv5_1-R"
  type: "Convolution"
  bottom: "pool4-R"
  top: "conv5_1-R"
  param {
    lr_mult: 10
    decay_mult: 1
  }
  param {
    lr_mult: 20
    decay_mult: 0
  }
  convolution_param {
    num_output: 512
    pad: 1
    kernel_size: 3
    stride: 1
  }
}
layer {
  name: "relu5_1-R"
  type: "ReLU"
  bottom: "conv5_1-R"
  top: "conv5_1-R"
}
layer {
  name: "conv5_2-R"
  type: "Convolution"
  bottom: "conv5_1-R"
  top: "conv5_2-R"
  param {
    lr_mult: 10
    decay_mult: 1
  }
  param {
    lr_mult: 20
    decay_mult: 0
  }
  convolution_param {
    num_output: 512
    pad: 1
    kernel_size: 3
    stride: 1
  }
}
layer {
  name: "relu5_2-R"
  type: "ReLU"
  bottom: "conv5_2-R"
  top: "conv5_2-R"
}
layer {
  name: "conv5_3-R"
  type: "Convolution"
  bottom: "conv5_2-R"
  top: "conv5_3-R"
  param {
    lr_mult: 10
    decay_mult: 1
  }
  param {
    lr_mult: 20
    decay_mult: 0
  }
  convolution_param {
    num_output: 512
    pad: 1
    kernel_size: 3
    stride: 1
  }
}
layer {
  name: "relu5_3-R"
  type: "ReLU"
  bottom: "conv5_3-R"
  top: "conv5_3-R"
}
layer {
  name: "pool5-R"
  type: "Pooling"
  bottom: "conv5_3-R"
  top: "pool5-R"
  pooling_param {
    pool: MAX
    kernel_size: 2
    stride: 2
  }
}
layer {
  name: "fc6-R"
  type: "Convolution"
  bottom: "pool5-R"
  top: "fc6-R"
  param {
    lr_mult: 10
    decay_mult: 1
  }
  param {
    lr_mult: 20
    decay_mult: 0
  }
  convolution_param {
    num_output: 4096
    pad: 0
    kernel_size: 7
    stride: 1
  }
}
layer {
  name: "relu6-R"
  type: "ReLU"
  bottom: "fc6-R"
  top: "fc6-R"
}
layer {
  name: "drop6-R"
  type: "Dropout"
  bottom: "fc6-R"
  top: "fc6-R"
  dropout_param {
    dropout_ratio: 0.5
  }
}
layer {
  name: "fc7-R"
  type: "Convolution"
  bottom: "fc6-R"
  top: "fc7-R"
  param {
    lr_mult: 10
    decay_mult: 1
  }
  param {
    lr_mult: 20
    decay_mult: 0
  }
  convolution_param {
    num_output: 4096
    pad: 0
    kernel_size: 1
    stride: 1
  }
}
layer {
  name: "relu7-R"
  type: "ReLU"
  bottom: "fc7-R"
  top: "fc7-R"
}
layer {
  name: "drop7-R"
  type: "Dropout"
  bottom: "fc7-R"
  top: "fc7-R"
  dropout_param {
    dropout_ratio: 0.5
  }
}
layer {
  name: "score_fr-new-R"
  type: "Convolution"
  bottom: "fc7-R"
  top: "score_fr-new-R"
  param {
    lr_mult: 10
    decay_mult: 1
  }
  param {
    lr_mult: 20
    decay_mult: 0
  }
  convolution_param {
    num_output: 3
    kernel_size: 1
  }
}
layer {
  name: "upscore2-new-R"
  type: "Deconvolution"
  bottom: "score_fr-new-R"
  top: "upscore2-new-R"
  param {
    lr_mult: 0
  }
  convolution_param {
    num_output: 3
    bias_term: false
    kernel_size: 4
    stride: 2
  }
}
layer {
  name: "score_pool4-new-R"
  type: "Convolution"
  bottom: "pool4-R"
  top: "score_pool4-new-R"
  param {
    lr_mult: 10
    decay_mult: 1
  }
  param {
    lr_mult: 20
    decay_mult: 0
  }
  convolution_param {
    num_output: 3
    pad: 0
    kernel_size: 1
  }
}
layer {
  name: "score_pool4c-R"
  type: "Crop"
  bottom: "score_pool4-new-R"
  bottom: "upscore2-new-R"
  top: "score_pool4c-R"
  crop_param {
    axis: 2
    offset: 5
  }
}
layer {
  name: "fuse_pool4-R"
  type: "Eltwise"
  bottom: "upscore2-new-R"
  bottom: "score_pool4c-R"
  top: "fuse_pool4-R"
  eltwise_param {
    operation: SUM
  }
}
layer {
  name: "upscore_pool4-new-R"
  type: "Deconvolution"
  bottom: "fuse_pool4-R"
  top: "upscore_pool4-new-R"
  param {
    lr_mult: 0
  }
  convolution_param {
    num_output: 3
    bias_term: false
    kernel_size: 4
    stride: 2
  }
}
layer {
  name: "score_pool3-new-R"
  type: "Convolution"
  bottom: "pool3-R"
  top: "score_pool3-new-R"
  param {
    lr_mult: 10
    decay_mult: 1
  }
  param {
    lr_mult: 20
    decay_mult: 0
  }
  convolution_param {
    num_output: 3
    pad: 0
    kernel_size: 1
  }
}
layer {
  name: "score_pool3c-R"
  type: "Crop"
  bottom: "score_pool3-new-R"
  bottom: "upscore_pool4-new-R"
  top: "score_pool3c-R"
  crop_param {
    axis: 2
    offset: 9
  }
}
layer {
  name: "fuse_pool3-R"
  type: "Eltwise"
  bottom: "upscore_pool4-new-R"
  bottom: "score_pool3c-R"
  top: "fuse_pool3-R"
  eltwise_param {
    operation: SUM
  }
}
layer {
  name: "upscore8-new-R"
  type: "Deconvolution"
  bottom: "fuse_pool3-R"
  top: "upscore8-new-R"
  param {
    lr_mult: 0
  }
  convolution_param {
    num_output: 3
    bias_term: false
    kernel_size: 16
    stride: 8
  }
}
layer {
  name: "upscore8_cropped-R"
  type: "Crop"
  bottom: "upscore8-new-R"
  bottom: "data-R"
  top: "upscore8_cropped-R"
  crop_param {
    axis: 2
    offset: 31
  }
}
layer {
  name: "score-R"
  type: "Convolution"
  bottom: "upscore8_cropped-R"
  top: "score-R"
  param {
    lr_mult: 10
    decay_mult: 1
  }
  param {
    lr_mult: 20
    decay_mult: 0
  }
  convolution_param {
    num_output: 3
    pad: 1
    kernel_size: 3
    stride: 1
    weight_filler {
      type: "xavier"
    }
    bias_filler {
      type: "constant"
      value: 0
    }
  }
}
layer {
  name: "score_uncropped-R"
  type: "Python"
  bottom: "crop_info"
  bottom: "score-R"
  bottom: "data"
  top: "score_uncropped-R"
  python_param {
    module: "Uncrop"
    layer: "UncropLayer"
  }
}
layer {
  name: "loss1"
  type: "DiceLoss"
  bottom: "score"
  bottom: "label"
  top: "loss1"
  loss_weight: 0.333333
}
layer {
  name: "loss2"
  type: "DiceLoss"
  bottom: "score_uncropped-R"
  bottom: "label"
  top: "loss2"
  loss_weight: 0.666667
}
I0419 00:44:28.862962 20744 layer_factory.hpp:77] Creating layer data
I0419 00:44:28.863023 20744 net.cpp:84] Creating Layer data
I0419 00:44:28.863029 20744 net.cpp:380] data -> data
I0419 00:44:28.863039 20744 net.cpp:380] data -> label
I0419 00:44:28.863045 20744 net.cpp:380] data -> crop_margin
I0419 00:44:28.863050 20744 net.cpp:380] data -> crop_prob
I0419 00:44:28.863056 20744 net.cpp:380] data -> crop_sample_batch
I0419 00:44:28.998811 20744 net.cpp:122] Setting up data
I0419 00:44:28.998845 20744 net.cpp:129] Top shape: 1 3 512 310 (476160)
I0419 00:44:28.998852 20744 net.cpp:129] Top shape: 1 3 512 310 (476160)
I0419 00:44:28.998855 20744 net.cpp:129] Top shape: 1 (1)
I0419 00:44:28.998858 20744 net.cpp:129] Top shape: 1 (1)
I0419 00:44:28.998862 20744 net.cpp:129] Top shape: 1 (1)
I0419 00:44:28.998865 20744 net.cpp:137] Memory required for data: 3809292
I0419 00:44:28.998872 20744 layer_factory.hpp:77] Creating layer data_data_0_split
I0419 00:44:28.998903 20744 net.cpp:84] Creating Layer data_data_0_split
I0419 00:44:28.998915 20744 net.cpp:406] data_data_0_split <- data
I0419 00:44:28.998924 20744 net.cpp:380] data_data_0_split -> data_data_0_split_0
I0419 00:44:28.998934 20744 net.cpp:380] data_data_0_split -> data_data_0_split_1
I0419 00:44:28.998939 20744 net.cpp:380] data_data_0_split -> data_data_0_split_2
I0419 00:44:28.998945 20744 net.cpp:380] data_data_0_split -> data_data_0_split_3
I0419 00:44:28.999050 20744 net.cpp:122] Setting up data_data_0_split
I0419 00:44:28.999060 20744 net.cpp:129] Top shape: 1 3 512 310 (476160)
I0419 00:44:28.999065 20744 net.cpp:129] Top shape: 1 3 512 310 (476160)
I0419 00:44:28.999069 20744 net.cpp:129] Top shape: 1 3 512 310 (476160)
I0419 00:44:28.999073 20744 net.cpp:129] Top shape: 1 3 512 310 (476160)
I0419 00:44:28.999076 20744 net.cpp:137] Memory required for data: 11427852
I0419 00:44:28.999079 20744 layer_factory.hpp:77] Creating layer label_data_1_split
I0419 00:44:28.999085 20744 net.cpp:84] Creating Layer label_data_1_split
I0419 00:44:28.999089 20744 net.cpp:406] label_data_1_split <- label
I0419 00:44:28.999094 20744 net.cpp:380] label_data_1_split -> label_data_1_split_0
I0419 00:44:28.999099 20744 net.cpp:380] label_data_1_split -> label_data_1_split_1
I0419 00:44:28.999104 20744 net.cpp:380] label_data_1_split -> label_data_1_split_2
I0419 00:44:28.999176 20744 net.cpp:122] Setting up label_data_1_split
I0419 00:44:28.999184 20744 net.cpp:129] Top shape: 1 3 512 310 (476160)
I0419 00:44:28.999188 20744 net.cpp:129] Top shape: 1 3 512 310 (476160)
I0419 00:44:28.999192 20744 net.cpp:129] Top shape: 1 3 512 310 (476160)
I0419 00:44:28.999195 20744 net.cpp:137] Memory required for data: 17141772
I0419 00:44:28.999198 20744 layer_factory.hpp:77] Creating layer conv1_1
I0419 00:44:28.999210 20744 net.cpp:84] Creating Layer conv1_1
I0419 00:44:28.999214 20744 net.cpp:406] conv1_1 <- data_data_0_split_0
I0419 00:44:28.999220 20744 net.cpp:380] conv1_1 -> conv1_1
I0419 00:44:29.003099 20744 net.cpp:122] Setting up conv1_1
I0419 00:44:29.003115 20744 net.cpp:129] Top shape: 1 64 710 508 (23083520)
I0419 00:44:29.003119 20744 net.cpp:137] Memory required for data: 109475852
I0419 00:44:29.003130 20744 layer_factory.hpp:77] Creating layer relu1_1
I0419 00:44:29.003139 20744 net.cpp:84] Creating Layer relu1_1
I0419 00:44:29.003141 20744 net.cpp:406] relu1_1 <- conv1_1
I0419 00:44:29.003146 20744 net.cpp:367] relu1_1 -> conv1_1 (in-place)
I0419 00:44:29.003408 20744 net.cpp:122] Setting up relu1_1
I0419 00:44:29.003419 20744 net.cpp:129] Top shape: 1 64 710 508 (23083520)
I0419 00:44:29.003423 20744 net.cpp:137] Memory required for data: 201809932
I0419 00:44:29.003427 20744 layer_factory.hpp:77] Creating layer conv1_2
I0419 00:44:29.003434 20744 net.cpp:84] Creating Layer conv1_2
I0419 00:44:29.003438 20744 net.cpp:406] conv1_2 <- conv1_1
I0419 00:44:29.003444 20744 net.cpp:380] conv1_2 -> conv1_2
I0419 00:44:29.006289 20744 net.cpp:122] Setting up conv1_2
I0419 00:44:29.006321 20744 net.cpp:129] Top shape: 1 64 710 508 (23083520)
I0419 00:44:29.006325 20744 net.cpp:137] Memory required for data: 294144012
I0419 00:44:29.006335 20744 layer_factory.hpp:77] Creating layer relu1_2
I0419 00:44:29.006342 20744 net.cpp:84] Creating Layer relu1_2
I0419 00:44:29.006346 20744 net.cpp:406] relu1_2 <- conv1_2
I0419 00:44:29.006351 20744 net.cpp:367] relu1_2 -> conv1_2 (in-place)
I0419 00:44:29.006638 20744 net.cpp:122] Setting up relu1_2
I0419 00:44:29.006647 20744 net.cpp:129] Top shape: 1 64 710 508 (23083520)
I0419 00:44:29.006651 20744 net.cpp:137] Memory required for data: 386478092
I0419 00:44:29.006654 20744 layer_factory.hpp:77] Creating layer pool1
I0419 00:44:29.006662 20744 net.cpp:84] Creating Layer pool1
I0419 00:44:29.006666 20744 net.cpp:406] pool1 <- conv1_2
I0419 00:44:29.006671 20744 net.cpp:380] pool1 -> pool1
I0419 00:44:29.006741 20744 net.cpp:122] Setting up pool1
I0419 00:44:29.006748 20744 net.cpp:129] Top shape: 1 64 355 254 (5770880)
I0419 00:44:29.006752 20744 net.cpp:137] Memory required for data: 409561612
I0419 00:44:29.006754 20744 layer_factory.hpp:77] Creating layer conv2_1
I0419 00:44:29.006763 20744 net.cpp:84] Creating Layer conv2_1
I0419 00:44:29.006767 20744 net.cpp:406] conv2_1 <- pool1
I0419 00:44:29.006772 20744 net.cpp:380] conv2_1 -> conv2_1
I0419 00:44:29.008357 20744 net.cpp:122] Setting up conv2_1
I0419 00:44:29.008369 20744 net.cpp:129] Top shape: 1 128 355 254 (11541760)
I0419 00:44:29.008373 20744 net.cpp:137] Memory required for data: 455728652
I0419 00:44:29.008381 20744 layer_factory.hpp:77] Creating layer relu2_1
I0419 00:44:29.008386 20744 net.cpp:84] Creating Layer relu2_1
I0419 00:44:29.008390 20744 net.cpp:406] relu2_1 <- conv2_1
I0419 00:44:29.008395 20744 net.cpp:367] relu2_1 -> conv2_1 (in-place)
I0419 00:44:29.009110 20744 net.cpp:122] Setting up relu2_1
I0419 00:44:29.009122 20744 net.cpp:129] Top shape: 1 128 355 254 (11541760)
I0419 00:44:29.009125 20744 net.cpp:137] Memory required for data: 501895692
I0419 00:44:29.009130 20744 layer_factory.hpp:77] Creating layer conv2_2
I0419 00:44:29.009136 20744 net.cpp:84] Creating Layer conv2_2
I0419 00:44:29.009140 20744 net.cpp:406] conv2_2 <- conv2_1
I0419 00:44:29.009146 20744 net.cpp:380] conv2_2 -> conv2_2
I0419 00:44:29.010820 20744 net.cpp:122] Setting up conv2_2
I0419 00:44:29.010835 20744 net.cpp:129] Top shape: 1 128 355 254 (11541760)
I0419 00:44:29.010839 20744 net.cpp:137] Memory required for data: 548062732
I0419 00:44:29.010845 20744 layer_factory.hpp:77] Creating layer relu2_2
I0419 00:44:29.010851 20744 net.cpp:84] Creating Layer relu2_2
I0419 00:44:29.010855 20744 net.cpp:406] relu2_2 <- conv2_2
I0419 00:44:29.010860 20744 net.cpp:367] relu2_2 -> conv2_2 (in-place)
I0419 00:44:29.011623 20744 net.cpp:122] Setting up relu2_2
I0419 00:44:29.011636 20744 net.cpp:129] Top shape: 1 128 355 254 (11541760)
I0419 00:44:29.011639 20744 net.cpp:137] Memory required for data: 594229772
I0419 00:44:29.011643 20744 layer_factory.hpp:77] Creating layer pool2
I0419 00:44:29.011649 20744 net.cpp:84] Creating Layer pool2
I0419 00:44:29.011653 20744 net.cpp:406] pool2 <- conv2_2
I0419 00:44:29.011658 20744 net.cpp:380] pool2 -> pool2
I0419 00:44:29.011740 20744 net.cpp:122] Setting up pool2
I0419 00:44:29.011749 20744 net.cpp:129] Top shape: 1 128 178 127 (2893568)
I0419 00:44:29.011752 20744 net.cpp:137] Memory required for data: 605804044
I0419 00:44:29.011755 20744 layer_factory.hpp:77] Creating layer conv3_1
I0419 00:44:29.011764 20744 net.cpp:84] Creating Layer conv3_1
I0419 00:44:29.011766 20744 net.cpp:406] conv3_1 <- pool2
I0419 00:44:29.011771 20744 net.cpp:380] conv3_1 -> conv3_1
I0419 00:44:29.021842 20744 net.cpp:122] Setting up conv3_1
I0419 00:44:29.021872 20744 net.cpp:129] Top shape: 1 256 178 127 (5787136)
I0419 00:44:29.021876 20744 net.cpp:137] Memory required for data: 628952588
I0419 00:44:29.021886 20744 layer_factory.hpp:77] Creating layer relu3_1
I0419 00:44:29.021894 20744 net.cpp:84] Creating Layer relu3_1
I0419 00:44:29.021898 20744 net.cpp:406] relu3_1 <- conv3_1
I0419 00:44:29.021903 20744 net.cpp:367] relu3_1 -> conv3_1 (in-place)
I0419 00:44:29.022159 20744 net.cpp:122] Setting up relu3_1
I0419 00:44:29.022228 20744 net.cpp:129] Top shape: 1 256 178 127 (5787136)
I0419 00:44:29.022231 20744 net.cpp:137] Memory required for data: 652101132
I0419 00:44:29.022234 20744 layer_factory.hpp:77] Creating layer conv3_2
I0419 00:44:29.022243 20744 net.cpp:84] Creating Layer conv3_2
I0419 00:44:29.022248 20744 net.cpp:406] conv3_2 <- conv3_1
I0419 00:44:29.022254 20744 net.cpp:380] conv3_2 -> conv3_2
I0419 00:44:29.035794 20744 net.cpp:122] Setting up conv3_2
I0419 00:44:29.035863 20744 net.cpp:129] Top shape: 1 256 178 127 (5787136)
I0419 00:44:29.035876 20744 net.cpp:137] Memory required for data: 675249676
I0419 00:44:29.035900 20744 layer_factory.hpp:77] Creating layer relu3_2
I0419 00:44:29.035928 20744 net.cpp:84] Creating Layer relu3_2
I0419 00:44:29.035939 20744 net.cpp:406] relu3_2 <- conv3_2
I0419 00:44:29.035955 20744 net.cpp:367] relu3_2 -> conv3_2 (in-place)
I0419 00:44:29.036716 20744 net.cpp:122] Setting up relu3_2
I0419 00:44:29.036751 20744 net.cpp:129] Top shape: 1 256 178 127 (5787136)
I0419 00:44:29.036758 20744 net.cpp:137] Memory required for data: 698398220
I0419 00:44:29.036767 20744 layer_factory.hpp:77] Creating layer conv3_3
I0419 00:44:29.036789 20744 net.cpp:84] Creating Layer conv3_3
I0419 00:44:29.036798 20744 net.cpp:406] conv3_3 <- conv3_2
I0419 00:44:29.036811 20744 net.cpp:380] conv3_3 -> conv3_3
I0419 00:44:29.045819 20744 net.cpp:122] Setting up conv3_3
I0419 00:44:29.045855 20744 net.cpp:129] Top shape: 1 256 178 127 (5787136)
I0419 00:44:29.045863 20744 net.cpp:137] Memory required for data: 721546764
I0419 00:44:29.045881 20744 layer_factory.hpp:77] Creating layer relu3_3
I0419 00:44:29.045894 20744 net.cpp:84] Creating Layer relu3_3
I0419 00:44:29.045904 20744 net.cpp:406] relu3_3 <- conv3_3
I0419 00:44:29.045924 20744 net.cpp:367] relu3_3 -> conv3_3 (in-place)
I0419 00:44:29.046430 20744 net.cpp:122] Setting up relu3_3
I0419 00:44:29.046452 20744 net.cpp:129] Top shape: 1 256 178 127 (5787136)
I0419 00:44:29.046460 20744 net.cpp:137] Memory required for data: 744695308
I0419 00:44:29.046468 20744 layer_factory.hpp:77] Creating layer pool3
I0419 00:44:29.046481 20744 net.cpp:84] Creating Layer pool3
I0419 00:44:29.046489 20744 net.cpp:406] pool3 <- conv3_3
I0419 00:44:29.046501 20744 net.cpp:380] pool3 -> pool3
I0419 00:44:29.046641 20744 net.cpp:122] Setting up pool3
I0419 00:44:29.046658 20744 net.cpp:129] Top shape: 1 256 89 64 (1458176)
I0419 00:44:29.046664 20744 net.cpp:137] Memory required for data: 750528012
I0419 00:44:29.046672 20744 layer_factory.hpp:77] Creating layer pool3_pool3_0_split
I0419 00:44:29.046684 20744 net.cpp:84] Creating Layer pool3_pool3_0_split
I0419 00:44:29.046691 20744 net.cpp:406] pool3_pool3_0_split <- pool3
I0419 00:44:29.046701 20744 net.cpp:380] pool3_pool3_0_split -> pool3_pool3_0_split_0
I0419 00:44:29.046715 20744 net.cpp:380] pool3_pool3_0_split -> pool3_pool3_0_split_1
I0419 00:44:29.046830 20744 net.cpp:122] Setting up pool3_pool3_0_split
I0419 00:44:29.046845 20744 net.cpp:129] Top shape: 1 256 89 64 (1458176)
I0419 00:44:29.046854 20744 net.cpp:129] Top shape: 1 256 89 64 (1458176)
I0419 00:44:29.046860 20744 net.cpp:137] Memory required for data: 762193420
I0419 00:44:29.046867 20744 layer_factory.hpp:77] Creating layer conv4_1
I0419 00:44:29.046883 20744 net.cpp:84] Creating Layer conv4_1
I0419 00:44:29.046891 20744 net.cpp:406] conv4_1 <- pool3_pool3_0_split_0
I0419 00:44:29.046903 20744 net.cpp:380] conv4_1 -> conv4_1
I0419 00:44:29.060473 20744 net.cpp:122] Setting up conv4_1
I0419 00:44:29.060498 20744 net.cpp:129] Top shape: 1 512 89 64 (2916352)
I0419 00:44:29.060506 20744 net.cpp:137] Memory required for data: 773858828
I0419 00:44:29.060518 20744 layer_factory.hpp:77] Creating layer relu4_1
I0419 00:44:29.060529 20744 net.cpp:84] Creating Layer relu4_1
I0419 00:44:29.060536 20744 net.cpp:406] relu4_1 <- conv4_1
I0419 00:44:29.060545 20744 net.cpp:367] relu4_1 -> conv4_1 (in-place)
I0419 00:44:29.060930 20744 net.cpp:122] Setting up relu4_1
I0419 00:44:29.060945 20744 net.cpp:129] Top shape: 1 512 89 64 (2916352)
I0419 00:44:29.060950 20744 net.cpp:137] Memory required for data: 785524236
I0419 00:44:29.060956 20744 layer_factory.hpp:77] Creating layer conv4_2
I0419 00:44:29.060968 20744 net.cpp:84] Creating Layer conv4_2
I0419 00:44:29.060974 20744 net.cpp:406] conv4_2 <- conv4_1
I0419 00:44:29.060986 20744 net.cpp:380] conv4_2 -> conv4_2
I0419 00:44:29.070902 20744 net.cpp:122] Setting up conv4_2
I0419 00:44:29.070925 20744 net.cpp:129] Top shape: 1 512 89 64 (2916352)
I0419 00:44:29.070931 20744 net.cpp:137] Memory required for data: 797189644
I0419 00:44:29.070946 20744 layer_factory.hpp:77] Creating layer relu4_2
I0419 00:44:29.070955 20744 net.cpp:84] Creating Layer relu4_2
I0419 00:44:29.070961 20744 net.cpp:406] relu4_2 <- conv4_2
I0419 00:44:29.070968 20744 net.cpp:367] relu4_2 -> conv4_2 (in-place)
I0419 00:44:29.071889 20744 net.cpp:122] Setting up relu4_2
I0419 00:44:29.071907 20744 net.cpp:129] Top shape: 1 512 89 64 (2916352)
I0419 00:44:29.071911 20744 net.cpp:137] Memory required for data: 808855052
I0419 00:44:29.071916 20744 layer_factory.hpp:77] Creating layer conv4_3
I0419 00:44:29.071928 20744 net.cpp:84] Creating Layer conv4_3
I0419 00:44:29.071933 20744 net.cpp:406] conv4_3 <- conv4_2
I0419 00:44:29.071941 20744 net.cpp:380] conv4_3 -> conv4_3
I0419 00:44:29.080327 20744 net.cpp:122] Setting up conv4_3
I0419 00:44:29.080348 20744 net.cpp:129] Top shape: 1 512 89 64 (2916352)
I0419 00:44:29.080360 20744 net.cpp:137] Memory required for data: 820520460
I0419 00:44:29.080369 20744 layer_factory.hpp:77] Creating layer relu4_3
I0419 00:44:29.080379 20744 net.cpp:84] Creating Layer relu4_3
I0419 00:44:29.080384 20744 net.cpp:406] relu4_3 <- conv4_3
I0419 00:44:29.080391 20744 net.cpp:367] relu4_3 -> conv4_3 (in-place)
I0419 00:44:29.081348 20744 net.cpp:122] Setting up relu4_3
I0419 00:44:29.081365 20744 net.cpp:129] Top shape: 1 512 89 64 (2916352)
I0419 00:44:29.081370 20744 net.cpp:137] Memory required for data: 832185868
I0419 00:44:29.081375 20744 layer_factory.hpp:77] Creating layer pool4
I0419 00:44:29.081385 20744 net.cpp:84] Creating Layer pool4
I0419 00:44:29.081390 20744 net.cpp:406] pool4 <- conv4_3
I0419 00:44:29.081398 20744 net.cpp:380] pool4 -> pool4
I0419 00:44:29.081491 20744 net.cpp:122] Setting up pool4
I0419 00:44:29.081502 20744 net.cpp:129] Top shape: 1 512 45 32 (737280)
I0419 00:44:29.081506 20744 net.cpp:137] Memory required for data: 835134988
I0419 00:44:29.081511 20744 layer_factory.hpp:77] Creating layer pool4_pool4_0_split
I0419 00:44:29.081518 20744 net.cpp:84] Creating Layer pool4_pool4_0_split
I0419 00:44:29.081523 20744 net.cpp:406] pool4_pool4_0_split <- pool4
I0419 00:44:29.081531 20744 net.cpp:380] pool4_pool4_0_split -> pool4_pool4_0_split_0
I0419 00:44:29.081538 20744 net.cpp:380] pool4_pool4_0_split -> pool4_pool4_0_split_1
I0419 00:44:29.081611 20744 net.cpp:122] Setting up pool4_pool4_0_split
I0419 00:44:29.081621 20744 net.cpp:129] Top shape: 1 512 45 32 (737280)
I0419 00:44:29.081626 20744 net.cpp:129] Top shape: 1 512 45 32 (737280)
I0419 00:44:29.081630 20744 net.cpp:137] Memory required for data: 841033228
I0419 00:44:29.081634 20744 layer_factory.hpp:77] Creating layer conv5_1
I0419 00:44:29.081645 20744 net.cpp:84] Creating Layer conv5_1
I0419 00:44:29.081650 20744 net.cpp:406] conv5_1 <- pool4_pool4_0_split_0
I0419 00:44:29.081657 20744 net.cpp:380] conv5_1 -> conv5_1
I0419 00:44:29.090787 20744 net.cpp:122] Setting up conv5_1
I0419 00:44:29.090811 20744 net.cpp:129] Top shape: 1 512 45 32 (737280)
I0419 00:44:29.090816 20744 net.cpp:137] Memory required for data: 843982348
I0419 00:44:29.090826 20744 layer_factory.hpp:77] Creating layer relu5_1
I0419 00:44:29.090833 20744 net.cpp:84] Creating Layer relu5_1
I0419 00:44:29.090839 20744 net.cpp:406] relu5_1 <- conv5_1
I0419 00:44:29.090847 20744 net.cpp:367] relu5_1 -> conv5_1 (in-place)
I0419 00:44:29.091146 20744 net.cpp:122] Setting up relu5_1
I0419 00:44:29.091158 20744 net.cpp:129] Top shape: 1 512 45 32 (737280)
I0419 00:44:29.091162 20744 net.cpp:137] Memory required for data: 846931468
I0419 00:44:29.091167 20744 layer_factory.hpp:77] Creating layer conv5_2
I0419 00:44:29.091178 20744 net.cpp:84] Creating Layer conv5_2
I0419 00:44:29.091182 20744 net.cpp:406] conv5_2 <- conv5_1
I0419 00:44:29.091190 20744 net.cpp:380] conv5_2 -> conv5_2
I0419 00:44:29.101387 20744 net.cpp:122] Setting up conv5_2
I0419 00:44:29.101410 20744 net.cpp:129] Top shape: 1 512 45 32 (737280)
I0419 00:44:29.101416 20744 net.cpp:137] Memory required for data: 849880588
I0419 00:44:29.101425 20744 layer_factory.hpp:77] Creating layer relu5_2
I0419 00:44:29.101439 20744 net.cpp:84] Creating Layer relu5_2
I0419 00:44:29.101445 20744 net.cpp:406] relu5_2 <- conv5_2
I0419 00:44:29.101454 20744 net.cpp:367] relu5_2 -> conv5_2 (in-place)
I0419 00:44:29.101748 20744 net.cpp:122] Setting up relu5_2
I0419 00:44:29.101760 20744 net.cpp:129] Top shape: 1 512 45 32 (737280)
I0419 00:44:29.101765 20744 net.cpp:137] Memory required for data: 852829708
I0419 00:44:29.101770 20744 layer_factory.hpp:77] Creating layer conv5_3
I0419 00:44:29.101780 20744 net.cpp:84] Creating Layer conv5_3
I0419 00:44:29.101785 20744 net.cpp:406] conv5_3 <- conv5_2
I0419 00:44:29.101794 20744 net.cpp:380] conv5_3 -> conv5_3
I0419 00:44:29.111659 20744 net.cpp:122] Setting up conv5_3
I0419 00:44:29.111683 20744 net.cpp:129] Top shape: 1 512 45 32 (737280)
I0419 00:44:29.111690 20744 net.cpp:137] Memory required for data: 855778828
I0419 00:44:29.111699 20744 layer_factory.hpp:77] Creating layer relu5_3
I0419 00:44:29.111708 20744 net.cpp:84] Creating Layer relu5_3
I0419 00:44:29.111716 20744 net.cpp:406] relu5_3 <- conv5_3
I0419 00:44:29.111722 20744 net.cpp:367] relu5_3 -> conv5_3 (in-place)
I0419 00:44:29.112027 20744 net.cpp:122] Setting up relu5_3
I0419 00:44:29.112040 20744 net.cpp:129] Top shape: 1 512 45 32 (737280)
I0419 00:44:29.112046 20744 net.cpp:137] Memory required for data: 858727948
I0419 00:44:29.112051 20744 layer_factory.hpp:77] Creating layer pool5
I0419 00:44:29.112061 20744 net.cpp:84] Creating Layer pool5
I0419 00:44:29.112066 20744 net.cpp:406] pool5 <- conv5_3
I0419 00:44:29.112073 20744 net.cpp:380] pool5 -> pool5
I0419 00:44:29.112165 20744 net.cpp:122] Setting up pool5
I0419 00:44:29.112176 20744 net.cpp:129] Top shape: 1 512 23 16 (188416)
I0419 00:44:29.112180 20744 net.cpp:137] Memory required for data: 859481612
I0419 00:44:29.112185 20744 layer_factory.hpp:77] Creating layer fc6
I0419 00:44:29.112196 20744 net.cpp:84] Creating Layer fc6
I0419 00:44:29.112201 20744 net.cpp:406] fc6 <- pool5
I0419 00:44:29.112211 20744 net.cpp:380] fc6 -> fc6
I0419 00:44:29.425019 20744 net.cpp:122] Setting up fc6
I0419 00:44:29.425056 20744 net.cpp:129] Top shape: 1 4096 17 10 (696320)
I0419 00:44:29.425062 20744 net.cpp:137] Memory required for data: 862266892
I0419 00:44:29.425074 20744 layer_factory.hpp:77] Creating layer relu6
I0419 00:44:29.425091 20744 net.cpp:84] Creating Layer relu6
I0419 00:44:29.425096 20744 net.cpp:406] relu6 <- fc6
I0419 00:44:29.425106 20744 net.cpp:367] relu6 -> fc6 (in-place)
I0419 00:44:29.425395 20744 net.cpp:122] Setting up relu6
I0419 00:44:29.425407 20744 net.cpp:129] Top shape: 1 4096 17 10 (696320)
I0419 00:44:29.425412 20744 net.cpp:137] Memory required for data: 865052172
I0419 00:44:29.425416 20744 layer_factory.hpp:77] Creating layer drop6
I0419 00:44:29.425426 20744 net.cpp:84] Creating Layer drop6
I0419 00:44:29.425431 20744 net.cpp:406] drop6 <- fc6
I0419 00:44:29.425437 20744 net.cpp:367] drop6 -> fc6 (in-place)
I0419 00:44:29.425492 20744 net.cpp:122] Setting up drop6
I0419 00:44:29.425501 20744 net.cpp:129] Top shape: 1 4096 17 10 (696320)
I0419 00:44:29.425506 20744 net.cpp:137] Memory required for data: 867837452
I0419 00:44:29.425510 20744 layer_factory.hpp:77] Creating layer fc7
I0419 00:44:29.425521 20744 net.cpp:84] Creating Layer fc7
I0419 00:44:29.425525 20744 net.cpp:406] fc7 <- fc6
I0419 00:44:29.425534 20744 net.cpp:380] fc7 -> fc7
I0419 00:44:29.476168 20744 net.cpp:122] Setting up fc7
I0419 00:44:29.476202 20744 net.cpp:129] Top shape: 1 4096 17 10 (696320)
I0419 00:44:29.476205 20744 net.cpp:137] Memory required for data: 870622732
I0419 00:44:29.476217 20744 layer_factory.hpp:77] Creating layer relu7
I0419 00:44:29.476227 20744 net.cpp:84] Creating Layer relu7
I0419 00:44:29.476233 20744 net.cpp:406] relu7 <- fc7
I0419 00:44:29.476240 20744 net.cpp:367] relu7 -> fc7 (in-place)
I0419 00:44:29.477054 20744 net.cpp:122] Setting up relu7
I0419 00:44:29.477067 20744 net.cpp:129] Top shape: 1 4096 17 10 (696320)
I0419 00:44:29.477071 20744 net.cpp:137] Memory required for data: 873408012
I0419 00:44:29.477073 20744 layer_factory.hpp:77] Creating layer drop7
I0419 00:44:29.477082 20744 net.cpp:84] Creating Layer drop7
I0419 00:44:29.477085 20744 net.cpp:406] drop7 <- fc7
I0419 00:44:29.477092 20744 net.cpp:367] drop7 -> fc7 (in-place)
I0419 00:44:29.477154 20744 net.cpp:122] Setting up drop7
I0419 00:44:29.477160 20744 net.cpp:129] Top shape: 1 4096 17 10 (696320)
I0419 00:44:29.477164 20744 net.cpp:137] Memory required for data: 876193292
I0419 00:44:29.477166 20744 layer_factory.hpp:77] Creating layer score_fr-new
I0419 00:44:29.477175 20744 net.cpp:84] Creating Layer score_fr-new
I0419 00:44:29.477180 20744 net.cpp:406] score_fr-new <- fc7
I0419 00:44:29.477185 20744 net.cpp:380] score_fr-new -> score_fr-new
I0419 00:44:29.478381 20744 net.cpp:122] Setting up score_fr-new
I0419 00:44:29.478395 20744 net.cpp:129] Top shape: 1 3 17 10 (510)
I0419 00:44:29.478415 20744 net.cpp:137] Memory required for data: 876195332
I0419 00:44:29.478421 20744 layer_factory.hpp:77] Creating layer upscore2-new
I0419 00:44:29.478430 20744 net.cpp:84] Creating Layer upscore2-new
I0419 00:44:29.478433 20744 net.cpp:406] upscore2-new <- score_fr-new
I0419 00:44:29.478440 20744 net.cpp:380] upscore2-new -> upscore2-new
I0419 00:44:29.478808 20744 net.cpp:122] Setting up upscore2-new
I0419 00:44:29.478832 20744 net.cpp:129] Top shape: 1 3 36 22 (2376)
I0419 00:44:29.478835 20744 net.cpp:137] Memory required for data: 876204836
I0419 00:44:29.478863 20744 layer_factory.hpp:77] Creating layer upscore2-new_upscore2-new_0_split
I0419 00:44:29.478869 20744 net.cpp:84] Creating Layer upscore2-new_upscore2-new_0_split
I0419 00:44:29.478873 20744 net.cpp:406] upscore2-new_upscore2-new_0_split <- upscore2-new
I0419 00:44:29.478879 20744 net.cpp:380] upscore2-new_upscore2-new_0_split -> upscore2-new_upscore2-new_0_split_0
I0419 00:44:29.478886 20744 net.cpp:380] upscore2-new_upscore2-new_0_split -> upscore2-new_upscore2-new_0_split_1
I0419 00:44:29.478945 20744 net.cpp:122] Setting up upscore2-new_upscore2-new_0_split
I0419 00:44:29.478951 20744 net.cpp:129] Top shape: 1 3 36 22 (2376)
I0419 00:44:29.478955 20744 net.cpp:129] Top shape: 1 3 36 22 (2376)
I0419 00:44:29.478960 20744 net.cpp:137] Memory required for data: 876223844
I0419 00:44:29.478962 20744 layer_factory.hpp:77] Creating layer score_pool4-new
I0419 00:44:29.478971 20744 net.cpp:84] Creating Layer score_pool4-new
I0419 00:44:29.478976 20744 net.cpp:406] score_pool4-new <- pool4_pool4_0_split_1
I0419 00:44:29.478982 20744 net.cpp:380] score_pool4-new -> score_pool4-new
I0419 00:44:29.483618 20744 net.cpp:122] Setting up score_pool4-new
I0419 00:44:29.483633 20744 net.cpp:129] Top shape: 1 3 45 32 (4320)
I0419 00:44:29.483638 20744 net.cpp:137] Memory required for data: 876241124
I0419 00:44:29.483644 20744 layer_factory.hpp:77] Creating layer score_pool4c
I0419 00:44:29.483651 20744 net.cpp:84] Creating Layer score_pool4c
I0419 00:44:29.483655 20744 net.cpp:406] score_pool4c <- score_pool4-new
I0419 00:44:29.483660 20744 net.cpp:406] score_pool4c <- upscore2-new_upscore2-new_0_split_0
I0419 00:44:29.483665 20744 net.cpp:380] score_pool4c -> score_pool4c
I0419 00:44:29.483723 20744 net.cpp:122] Setting up score_pool4c
I0419 00:44:29.483729 20744 net.cpp:129] Top shape: 1 3 36 22 (2376)
I0419 00:44:29.483732 20744 net.cpp:137] Memory required for data: 876250628
I0419 00:44:29.483736 20744 layer_factory.hpp:77] Creating layer fuse_pool4
I0419 00:44:29.483743 20744 net.cpp:84] Creating Layer fuse_pool4
I0419 00:44:29.483747 20744 net.cpp:406] fuse_pool4 <- upscore2-new_upscore2-new_0_split_1
I0419 00:44:29.483752 20744 net.cpp:406] fuse_pool4 <- score_pool4c
I0419 00:44:29.483757 20744 net.cpp:380] fuse_pool4 -> fuse_pool4
I0419 00:44:29.483793 20744 net.cpp:122] Setting up fuse_pool4
I0419 00:44:29.483798 20744 net.cpp:129] Top shape: 1 3 36 22 (2376)
I0419 00:44:29.483801 20744 net.cpp:137] Memory required for data: 876260132
I0419 00:44:29.483804 20744 layer_factory.hpp:77] Creating layer upscore_pool4-new
I0419 00:44:29.483813 20744 net.cpp:84] Creating Layer upscore_pool4-new
I0419 00:44:29.483815 20744 net.cpp:406] upscore_pool4-new <- fuse_pool4
I0419 00:44:29.483820 20744 net.cpp:380] upscore_pool4-new -> upscore_pool4-new
I0419 00:44:29.484156 20744 net.cpp:122] Setting up upscore_pool4-new
I0419 00:44:29.484179 20744 net.cpp:129] Top shape: 1 3 74 46 (10212)
I0419 00:44:29.484182 20744 net.cpp:137] Memory required for data: 876300980
I0419 00:44:29.484202 20744 layer_factory.hpp:77] Creating layer upscore_pool4-new_upscore_pool4-new_0_split
I0419 00:44:29.484207 20744 net.cpp:84] Creating Layer upscore_pool4-new_upscore_pool4-new_0_split
I0419 00:44:29.484211 20744 net.cpp:406] upscore_pool4-new_upscore_pool4-new_0_split <- upscore_pool4-new
I0419 00:44:29.484218 20744 net.cpp:380] upscore_pool4-new_upscore_pool4-new_0_split -> upscore_pool4-new_upscore_pool4-new_0_split_0
I0419 00:44:29.484225 20744 net.cpp:380] upscore_pool4-new_upscore_pool4-new_0_split -> upscore_pool4-new_upscore_pool4-new_0_split_1
I0419 00:44:29.484280 20744 net.cpp:122] Setting up upscore_pool4-new_upscore_pool4-new_0_split
I0419 00:44:29.484287 20744 net.cpp:129] Top shape: 1 3 74 46 (10212)
I0419 00:44:29.484290 20744 net.cpp:129] Top shape: 1 3 74 46 (10212)
I0419 00:44:29.484293 20744 net.cpp:137] Memory required for data: 876382676
I0419 00:44:29.484297 20744 layer_factory.hpp:77] Creating layer score_pool3-new
I0419 00:44:29.484304 20744 net.cpp:84] Creating Layer score_pool3-new
I0419 00:44:29.484308 20744 net.cpp:406] score_pool3-new <- pool3_pool3_0_split_1
I0419 00:44:29.484314 20744 net.cpp:380] score_pool3-new -> score_pool3-new
I0419 00:44:29.485888 20744 net.cpp:122] Setting up score_pool3-new
I0419 00:44:29.485903 20744 net.cpp:129] Top shape: 1 3 89 64 (17088)
I0419 00:44:29.485905 20744 net.cpp:137] Memory required for data: 876451028
I0419 00:44:29.485913 20744 layer_factory.hpp:77] Creating layer score_pool3c
I0419 00:44:29.485918 20744 net.cpp:84] Creating Layer score_pool3c
I0419 00:44:29.485922 20744 net.cpp:406] score_pool3c <- score_pool3-new
I0419 00:44:29.485927 20744 net.cpp:406] score_pool3c <- upscore_pool4-new_upscore_pool4-new_0_split_0
I0419 00:44:29.485934 20744 net.cpp:380] score_pool3c -> score_pool3c
I0419 00:44:29.485991 20744 net.cpp:122] Setting up score_pool3c
I0419 00:44:29.485996 20744 net.cpp:129] Top shape: 1 3 74 46 (10212)
I0419 00:44:29.485999 20744 net.cpp:137] Memory required for data: 876491876
I0419 00:44:29.486002 20744 layer_factory.hpp:77] Creating layer fuse_pool3
I0419 00:44:29.486008 20744 net.cpp:84] Creating Layer fuse_pool3
I0419 00:44:29.486012 20744 net.cpp:406] fuse_pool3 <- upscore_pool4-new_upscore_pool4-new_0_split_1
I0419 00:44:29.486016 20744 net.cpp:406] fuse_pool3 <- score_pool3c
I0419 00:44:29.486021 20744 net.cpp:380] fuse_pool3 -> fuse_pool3
I0419 00:44:29.486057 20744 net.cpp:122] Setting up fuse_pool3
I0419 00:44:29.486063 20744 net.cpp:129] Top shape: 1 3 74 46 (10212)
I0419 00:44:29.486065 20744 net.cpp:137] Memory required for data: 876532724
I0419 00:44:29.486068 20744 layer_factory.hpp:77] Creating layer upscore8-new
I0419 00:44:29.486075 20744 net.cpp:84] Creating Layer upscore8-new
I0419 00:44:29.486078 20744 net.cpp:406] upscore8-new <- fuse_pool3
I0419 00:44:29.486083 20744 net.cpp:380] upscore8-new -> upscore8-new
I0419 00:44:29.486616 20744 net.cpp:122] Setting up upscore8-new
I0419 00:44:29.486634 20744 net.cpp:129] Top shape: 1 3 600 376 (676800)
I0419 00:44:29.486639 20744 net.cpp:137] Memory required for data: 879239924
I0419 00:44:29.486647 20744 layer_factory.hpp:77] Creating layer upscore8_cropped
I0419 00:44:29.486656 20744 net.cpp:84] Creating Layer upscore8_cropped
I0419 00:44:29.486665 20744 net.cpp:406] upscore8_cropped <- upscore8-new
I0419 00:44:29.486673 20744 net.cpp:406] upscore8_cropped <- data_data_0_split_1
I0419 00:44:29.486681 20744 net.cpp:380] upscore8_cropped -> upscore8_cropped
I0419 00:44:29.486739 20744 net.cpp:122] Setting up upscore8_cropped
I0419 00:44:29.486747 20744 net.cpp:129] Top shape: 1 3 512 310 (476160)
I0419 00:44:29.486752 20744 net.cpp:137] Memory required for data: 881144564
I0419 00:44:29.486757 20744 layer_factory.hpp:77] Creating layer score
I0419 00:44:29.486771 20744 net.cpp:84] Creating Layer score
I0419 00:44:29.486778 20744 net.cpp:406] score <- upscore8_cropped
I0419 00:44:29.486788 20744 net.cpp:380] score -> score
I0419 00:44:29.489585 20744 net.cpp:122] Setting up score
I0419 00:44:29.489608 20744 net.cpp:129] Top shape: 1 3 512 310 (476160)
I0419 00:44:29.489614 20744 net.cpp:137] Memory required for data: 883049204
I0419 00:44:29.489625 20744 layer_factory.hpp:77] Creating layer score_score_0_split
I0419 00:44:29.489635 20744 net.cpp:84] Creating Layer score_score_0_split
I0419 00:44:29.489642 20744 net.cpp:406] score_score_0_split <- score
I0419 00:44:29.489651 20744 net.cpp:380] score_score_0_split -> score_score_0_split_0
I0419 00:44:29.489663 20744 net.cpp:380] score_score_0_split -> score_score_0_split_1
I0419 00:44:29.489765 20744 net.cpp:122] Setting up score_score_0_split
I0419 00:44:29.489778 20744 net.cpp:129] Top shape: 1 3 512 310 (476160)
I0419 00:44:29.489785 20744 net.cpp:129] Top shape: 1 3 512 310 (476160)
I0419 00:44:29.489790 20744 net.cpp:137] Memory required for data: 886858484
I0419 00:44:29.489795 20744 layer_factory.hpp:77] Creating layer prob
I0419 00:44:29.489804 20744 net.cpp:84] Creating Layer prob
I0419 00:44:29.489810 20744 net.cpp:406] prob <- score_score_0_split_0
I0419 00:44:29.489820 20744 net.cpp:380] prob -> prob
I0419 00:44:29.490214 20744 net.cpp:122] Setting up prob
I0419 00:44:29.490231 20744 net.cpp:129] Top shape: 1 3 512 310 (476160)
I0419 00:44:29.490236 20744 net.cpp:137] Memory required for data: 888763124
I0419 00:44:29.490242 20744 layer_factory.hpp:77] Creating layer saliency
I0419 00:44:29.490257 20744 net.cpp:84] Creating Layer saliency
I0419 00:44:29.490263 20744 net.cpp:406] saliency <- prob
I0419 00:44:29.490274 20744 net.cpp:380] saliency -> saliency
I0419 00:44:29.498246 20744 net.cpp:122] Setting up saliency
I0419 00:44:29.498272 20744 net.cpp:129] Top shape: 1 3 512 310 (476160)
I0419 00:44:29.498280 20744 net.cpp:137] Memory required for data: 890667764
I0419 00:44:29.498291 20744 layer_factory.hpp:77] Creating layer saliency_data
I0419 00:44:29.498303 20744 net.cpp:84] Creating Layer saliency_data
I0419 00:44:29.498311 20744 net.cpp:406] saliency_data <- data_data_0_split_2
I0419 00:44:29.498319 20744 net.cpp:406] saliency_data <- saliency
I0419 00:44:29.498328 20744 net.cpp:380] saliency_data -> saliency_data
I0419 00:44:29.498411 20744 net.cpp:122] Setting up saliency_data
I0419 00:44:29.498425 20744 net.cpp:129] Top shape: 1 3 512 310 (476160)
I0419 00:44:29.498430 20744 net.cpp:137] Memory required for data: 892572404
I0419 00:44:29.498435 20744 layer_factory.hpp:77] Creating layer crop
I0419 00:44:29.498523 20744 net.cpp:84] Creating Layer crop
I0419 00:44:29.498534 20744 net.cpp:406] crop <- label_data_1_split_0
I0419 00:44:29.498543 20744 net.cpp:406] crop <- saliency_data
I0419 00:44:29.498551 20744 net.cpp:406] crop <- crop_margin
I0419 00:44:29.498558 20744 net.cpp:406] crop <- crop_prob
I0419 00:44:29.498564 20744 net.cpp:406] crop <- crop_sample_batch
I0419 00:44:29.498574 20744 net.cpp:380] crop -> data-R
I0419 00:44:29.498586 20744 net.cpp:380] crop -> crop_info
I0419 00:44:29.504909 20744 net.cpp:122] Setting up crop
I0419 00:44:29.504935 20744 net.cpp:129] Top shape: 1 3 512 310 (476160)
I0419 00:44:29.504942 20744 net.cpp:129] Top shape: 1 2 4 (8)
I0419 00:44:29.504947 20744 net.cpp:137] Memory required for data: 894477076
I0419 00:44:29.504952 20744 layer_factory.hpp:77] Creating layer data-R_crop_0_split
I0419 00:44:29.504962 20744 net.cpp:84] Creating Layer data-R_crop_0_split
I0419 00:44:29.504969 20744 net.cpp:406] data-R_crop_0_split <- data-R
I0419 00:44:29.504979 20744 net.cpp:380] data-R_crop_0_split -> data-R_crop_0_split_0
I0419 00:44:29.504990 20744 net.cpp:380] data-R_crop_0_split -> data-R_crop_0_split_1
I0419 00:44:29.505087 20744 net.cpp:122] Setting up data-R_crop_0_split
I0419 00:44:29.505100 20744 net.cpp:129] Top shape: 1 3 512 310 (476160)
I0419 00:44:29.505106 20744 net.cpp:129] Top shape: 1 3 512 310 (476160)
I0419 00:44:29.505111 20744 net.cpp:137] Memory required for data: 898286356
I0419 00:44:29.505116 20744 layer_factory.hpp:77] Creating layer conv1_1-R
I0419 00:44:29.505129 20744 net.cpp:84] Creating Layer conv1_1-R
I0419 00:44:29.505136 20744 net.cpp:406] conv1_1-R <- data-R_crop_0_split_0
I0419 00:44:29.505146 20744 net.cpp:380] conv1_1-R -> conv1_1-R
I0419 00:44:29.508772 20744 net.cpp:122] Setting up conv1_1-R
I0419 00:44:29.508795 20744 net.cpp:129] Top shape: 1 64 710 508 (23083520)
I0419 00:44:29.508802 20744 net.cpp:137] Memory required for data: 990620436
I0419 00:44:29.508815 20744 layer_factory.hpp:77] Creating layer relu1_1-R
I0419 00:44:29.508824 20744 net.cpp:84] Creating Layer relu1_1-R
I0419 00:44:29.508831 20744 net.cpp:406] relu1_1-R <- conv1_1-R
I0419 00:44:29.508839 20744 net.cpp:367] relu1_1-R -> conv1_1-R (in-place)
I0419 00:44:29.509997 20744 net.cpp:122] Setting up relu1_1-R
I0419 00:44:29.510018 20744 net.cpp:129] Top shape: 1 64 710 508 (23083520)
I0419 00:44:29.510023 20744 net.cpp:137] Memory required for data: 1082954516
I0419 00:44:29.510030 20744 layer_factory.hpp:77] Creating layer conv1_2-R
I0419 00:44:29.510052 20744 net.cpp:84] Creating Layer conv1_2-R
I0419 00:44:29.510059 20744 net.cpp:406] conv1_2-R <- conv1_1-R
I0419 00:44:29.510069 20744 net.cpp:380] conv1_2-R -> conv1_2-R
I0419 00:44:29.512929 20744 net.cpp:122] Setting up conv1_2-R
I0419 00:44:29.512944 20744 net.cpp:129] Top shape: 1 64 710 508 (23083520)
I0419 00:44:29.512948 20744 net.cpp:137] Memory required for data: 1175288596
I0419 00:44:29.512955 20744 layer_factory.hpp:77] Creating layer relu1_2-R
I0419 00:44:29.512960 20744 net.cpp:84] Creating Layer relu1_2-R
I0419 00:44:29.512964 20744 net.cpp:406] relu1_2-R <- conv1_2-R
I0419 00:44:29.512971 20744 net.cpp:367] relu1_2-R -> conv1_2-R (in-place)
I0419 00:44:29.515231 20744 net.cpp:122] Setting up relu1_2-R
I0419 00:44:29.515246 20744 net.cpp:129] Top shape: 1 64 710 508 (23083520)
I0419 00:44:29.515250 20744 net.cpp:137] Memory required for data: 1267622676
I0419 00:44:29.515254 20744 layer_factory.hpp:77] Creating layer pool1-R
I0419 00:44:29.515261 20744 net.cpp:84] Creating Layer pool1-R
I0419 00:44:29.515265 20744 net.cpp:406] pool1-R <- conv1_2-R
I0419 00:44:29.515272 20744 net.cpp:380] pool1-R -> pool1-R
I0419 00:44:29.515364 20744 net.cpp:122] Setting up pool1-R
I0419 00:44:29.515379 20744 net.cpp:129] Top shape: 1 64 355 254 (5770880)
I0419 00:44:29.515383 20744 net.cpp:137] Memory required for data: 1290706196
I0419 00:44:29.515386 20744 layer_factory.hpp:77] Creating layer conv2_1-R
I0419 00:44:29.515395 20744 net.cpp:84] Creating Layer conv2_1-R
I0419 00:44:29.515399 20744 net.cpp:406] conv2_1-R <- pool1-R
I0419 00:44:29.515406 20744 net.cpp:380] conv2_1-R -> conv2_1-R
I0419 00:44:29.518450 20744 net.cpp:122] Setting up conv2_1-R
I0419 00:44:29.518466 20744 net.cpp:129] Top shape: 1 128 355 254 (11541760)
I0419 00:44:29.518471 20744 net.cpp:137] Memory required for data: 1336873236
I0419 00:44:29.518477 20744 layer_factory.hpp:77] Creating layer relu2_1-R
I0419 00:44:29.518483 20744 net.cpp:84] Creating Layer relu2_1-R
I0419 00:44:29.518487 20744 net.cpp:406] relu2_1-R <- conv2_1-R
I0419 00:44:29.518492 20744 net.cpp:367] relu2_1-R -> conv2_1-R (in-place)
I0419 00:44:29.518735 20744 net.cpp:122] Setting up relu2_1-R
I0419 00:44:29.518745 20744 net.cpp:129] Top shape: 1 128 355 254 (11541760)
I0419 00:44:29.518749 20744 net.cpp:137] Memory required for data: 1383040276
I0419 00:44:29.518752 20744 layer_factory.hpp:77] Creating layer conv2_2-R
I0419 00:44:29.518760 20744 net.cpp:84] Creating Layer conv2_2-R
I0419 00:44:29.518764 20744 net.cpp:406] conv2_2-R <- conv2_1-R
I0419 00:44:29.518770 20744 net.cpp:380] conv2_2-R -> conv2_2-R
I0419 00:44:29.522269 20744 net.cpp:122] Setting up conv2_2-R
I0419 00:44:29.522282 20744 net.cpp:129] Top shape: 1 128 355 254 (11541760)
I0419 00:44:29.522286 20744 net.cpp:137] Memory required for data: 1429207316
I0419 00:44:29.522292 20744 layer_factory.hpp:77] Creating layer relu2_2-R
I0419 00:44:29.522300 20744 net.cpp:84] Creating Layer relu2_2-R
I0419 00:44:29.522303 20744 net.cpp:406] relu2_2-R <- conv2_2-R
I0419 00:44:29.522308 20744 net.cpp:367] relu2_2-R -> conv2_2-R (in-place)
I0419 00:44:29.522595 20744 net.cpp:122] Setting up relu2_2-R
I0419 00:44:29.522611 20744 net.cpp:129] Top shape: 1 128 355 254 (11541760)
I0419 00:44:29.522617 20744 net.cpp:137] Memory required for data: 1475374356
I0419 00:44:29.522622 20744 layer_factory.hpp:77] Creating layer pool2-R
I0419 00:44:29.522632 20744 net.cpp:84] Creating Layer pool2-R
I0419 00:44:29.522639 20744 net.cpp:406] pool2-R <- conv2_2-R
I0419 00:44:29.522647 20744 net.cpp:380] pool2-R -> pool2-R
I0419 00:44:29.522758 20744 net.cpp:122] Setting up pool2-R
I0419 00:44:29.522770 20744 net.cpp:129] Top shape: 1 128 178 127 (2893568)
I0419 00:44:29.522775 20744 net.cpp:137] Memory required for data: 1486948628
I0419 00:44:29.522781 20744 layer_factory.hpp:77] Creating layer conv3_1-R
I0419 00:44:29.522792 20744 net.cpp:84] Creating Layer conv3_1-R
I0419 00:44:29.522799 20744 net.cpp:406] conv3_1-R <- pool2-R
I0419 00:44:29.522806 20744 net.cpp:380] conv3_1-R -> conv3_1-R
I0419 00:44:29.535053 20744 net.cpp:122] Setting up conv3_1-R
I0419 00:44:29.535085 20744 net.cpp:129] Top shape: 1 256 178 127 (5787136)
I0419 00:44:29.535094 20744 net.cpp:137] Memory required for data: 1510097172
I0419 00:44:29.535109 20744 layer_factory.hpp:77] Creating layer relu3_1-R
I0419 00:44:29.535123 20744 net.cpp:84] Creating Layer relu3_1-R
I0419 00:44:29.535132 20744 net.cpp:406] relu3_1-R <- conv3_1-R
I0419 00:44:29.535145 20744 net.cpp:367] relu3_1-R -> conv3_1-R (in-place)
I0419 00:44:29.535529 20744 net.cpp:122] Setting up relu3_1-R
I0419 00:44:29.535543 20744 net.cpp:129] Top shape: 1 256 178 127 (5787136)
I0419 00:44:29.535549 20744 net.cpp:137] Memory required for data: 1533245716
I0419 00:44:29.535554 20744 layer_factory.hpp:77] Creating layer conv3_2-R
I0419 00:44:29.535567 20744 net.cpp:84] Creating Layer conv3_2-R
I0419 00:44:29.535573 20744 net.cpp:406] conv3_2-R <- conv3_1-R
I0419 00:44:29.535581 20744 net.cpp:380] conv3_2-R -> conv3_2-R
I0419 00:44:29.542393 20744 net.cpp:122] Setting up conv3_2-R
I0419 00:44:29.542423 20744 net.cpp:129] Top shape: 1 256 178 127 (5787136)
I0419 00:44:29.542431 20744 net.cpp:137] Memory required for data: 1556394260
I0419 00:44:29.542445 20744 layer_factory.hpp:77] Creating layer relu3_2-R
I0419 00:44:29.542459 20744 net.cpp:84] Creating Layer relu3_2-R
I0419 00:44:29.542467 20744 net.cpp:406] relu3_2-R <- conv3_2-R
I0419 00:44:29.542479 20744 net.cpp:367] relu3_2-R -> conv3_2-R (in-place)
I0419 00:44:29.542937 20744 net.cpp:122] Setting up relu3_2-R
I0419 00:44:29.542954 20744 net.cpp:129] Top shape: 1 256 178 127 (5787136)
I0419 00:44:29.542960 20744 net.cpp:137] Memory required for data: 1579542804
I0419 00:44:29.542968 20744 layer_factory.hpp:77] Creating layer conv3_3-R
I0419 00:44:29.542982 20744 net.cpp:84] Creating Layer conv3_3-R
I0419 00:44:29.542989 20744 net.cpp:406] conv3_3-R <- conv3_2-R
I0419 00:44:29.543001 20744 net.cpp:380] conv3_3-R -> conv3_3-R
I0419 00:44:29.548483 20744 net.cpp:122] Setting up conv3_3-R
I0419 00:44:29.548499 20744 net.cpp:129] Top shape: 1 256 178 127 (5787136)
I0419 00:44:29.548502 20744 net.cpp:137] Memory required for data: 1602691348
I0419 00:44:29.548509 20744 layer_factory.hpp:77] Creating layer relu3_3-R
I0419 00:44:29.548516 20744 net.cpp:84] Creating Layer relu3_3-R
I0419 00:44:29.548519 20744 net.cpp:406] relu3_3-R <- conv3_3-R
I0419 00:44:29.548526 20744 net.cpp:367] relu3_3-R -> conv3_3-R (in-place)
I0419 00:44:29.549368 20744 net.cpp:122] Setting up relu3_3-R
I0419 00:44:29.549382 20744 net.cpp:129] Top shape: 1 256 178 127 (5787136)
I0419 00:44:29.549386 20744 net.cpp:137] Memory required for data: 1625839892
I0419 00:44:29.549389 20744 layer_factory.hpp:77] Creating layer pool3-R
I0419 00:44:29.549396 20744 net.cpp:84] Creating Layer pool3-R
I0419 00:44:29.549401 20744 net.cpp:406] pool3-R <- conv3_3-R
I0419 00:44:29.549407 20744 net.cpp:380] pool3-R -> pool3-R
I0419 00:44:29.549495 20744 net.cpp:122] Setting up pool3-R
I0419 00:44:29.549506 20744 net.cpp:129] Top shape: 1 256 89 64 (1458176)
I0419 00:44:29.549510 20744 net.cpp:137] Memory required for data: 1631672596
I0419 00:44:29.549512 20744 layer_factory.hpp:77] Creating layer pool3-R_pool3-R_0_split
I0419 00:44:29.549518 20744 net.cpp:84] Creating Layer pool3-R_pool3-R_0_split
I0419 00:44:29.549522 20744 net.cpp:406] pool3-R_pool3-R_0_split <- pool3-R
I0419 00:44:29.549527 20744 net.cpp:380] pool3-R_pool3-R_0_split -> pool3-R_pool3-R_0_split_0
I0419 00:44:29.549533 20744 net.cpp:380] pool3-R_pool3-R_0_split -> pool3-R_pool3-R_0_split_1
I0419 00:44:29.549594 20744 net.cpp:122] Setting up pool3-R_pool3-R_0_split
I0419 00:44:29.549602 20744 net.cpp:129] Top shape: 1 256 89 64 (1458176)
I0419 00:44:29.549621 20744 net.cpp:129] Top shape: 1 256 89 64 (1458176)
I0419 00:44:29.549624 20744 net.cpp:137] Memory required for data: 1643338004
I0419 00:44:29.549628 20744 layer_factory.hpp:77] Creating layer conv4_1-R
I0419 00:44:29.549636 20744 net.cpp:84] Creating Layer conv4_1-R
I0419 00:44:29.549639 20744 net.cpp:406] conv4_1-R <- pool3-R_pool3-R_0_split_0
I0419 00:44:29.549646 20744 net.cpp:380] conv4_1-R -> conv4_1-R
I0419 00:44:29.560564 20744 net.cpp:122] Setting up conv4_1-R
I0419 00:44:29.560596 20744 net.cpp:129] Top shape: 1 512 89 64 (2916352)
I0419 00:44:29.560606 20744 net.cpp:137] Memory required for data: 1655003412
I0419 00:44:29.560621 20744 layer_factory.hpp:77] Creating layer relu4_1-R
I0419 00:44:29.560636 20744 net.cpp:84] Creating Layer relu4_1-R
I0419 00:44:29.560644 20744 net.cpp:406] relu4_1-R <- conv4_1-R
I0419 00:44:29.560657 20744 net.cpp:367] relu4_1-R -> conv4_1-R (in-place)
I0419 00:44:29.561528 20744 net.cpp:122] Setting up relu4_1-R
I0419 00:44:29.561542 20744 net.cpp:129] Top shape: 1 512 89 64 (2916352)
I0419 00:44:29.561545 20744 net.cpp:137] Memory required for data: 1666668820
I0419 00:44:29.561548 20744 layer_factory.hpp:77] Creating layer conv4_2-R
I0419 00:44:29.561558 20744 net.cpp:84] Creating Layer conv4_2-R
I0419 00:44:29.561560 20744 net.cpp:406] conv4_2-R <- conv4_1-R
I0419 00:44:29.561568 20744 net.cpp:380] conv4_2-R -> conv4_2-R
I0419 00:44:29.572280 20744 net.cpp:122] Setting up conv4_2-R
I0419 00:44:29.572298 20744 net.cpp:129] Top shape: 1 512 89 64 (2916352)
I0419 00:44:29.572301 20744 net.cpp:137] Memory required for data: 1678334228
I0419 00:44:29.572309 20744 layer_factory.hpp:77] Creating layer relu4_2-R
I0419 00:44:29.572314 20744 net.cpp:84] Creating Layer relu4_2-R
I0419 00:44:29.572319 20744 net.cpp:406] relu4_2-R <- conv4_2-R
I0419 00:44:29.572324 20744 net.cpp:367] relu4_2-R -> conv4_2-R (in-place)
I0419 00:44:29.572572 20744 net.cpp:122] Setting up relu4_2-R
I0419 00:44:29.572583 20744 net.cpp:129] Top shape: 1 512 89 64 (2916352)
I0419 00:44:29.572587 20744 net.cpp:137] Memory required for data: 1689999636
I0419 00:44:29.572590 20744 layer_factory.hpp:77] Creating layer conv4_3-R
I0419 00:44:29.572599 20744 net.cpp:84] Creating Layer conv4_3-R
I0419 00:44:29.572603 20744 net.cpp:406] conv4_3-R <- conv4_2-R
I0419 00:44:29.572610 20744 net.cpp:380] conv4_3-R -> conv4_3-R
I0419 00:44:29.580193 20744 net.cpp:122] Setting up conv4_3-R
I0419 00:44:29.580211 20744 net.cpp:129] Top shape: 1 512 89 64 (2916352)
I0419 00:44:29.580214 20744 net.cpp:137] Memory required for data: 1701665044
I0419 00:44:29.580221 20744 layer_factory.hpp:77] Creating layer relu4_3-R
I0419 00:44:29.580229 20744 net.cpp:84] Creating Layer relu4_3-R
I0419 00:44:29.580232 20744 net.cpp:406] relu4_3-R <- conv4_3-R
I0419 00:44:29.580237 20744 net.cpp:367] relu4_3-R -> conv4_3-R (in-place)
I0419 00:44:29.581064 20744 net.cpp:122] Setting up relu4_3-R
I0419 00:44:29.581076 20744 net.cpp:129] Top shape: 1 512 89 64 (2916352)
I0419 00:44:29.581079 20744 net.cpp:137] Memory required for data: 1713330452
I0419 00:44:29.581084 20744 layer_factory.hpp:77] Creating layer pool4-R
I0419 00:44:29.581091 20744 net.cpp:84] Creating Layer pool4-R
I0419 00:44:29.581095 20744 net.cpp:406] pool4-R <- conv4_3-R
I0419 00:44:29.581102 20744 net.cpp:380] pool4-R -> pool4-R
I0419 00:44:29.581197 20744 net.cpp:122] Setting up pool4-R
I0419 00:44:29.581205 20744 net.cpp:129] Top shape: 1 512 45 32 (737280)
I0419 00:44:29.581209 20744 net.cpp:137] Memory required for data: 1716279572
I0419 00:44:29.581212 20744 layer_factory.hpp:77] Creating layer pool4-R_pool4-R_0_split
I0419 00:44:29.581218 20744 net.cpp:84] Creating Layer pool4-R_pool4-R_0_split
I0419 00:44:29.581223 20744 net.cpp:406] pool4-R_pool4-R_0_split <- pool4-R
I0419 00:44:29.581228 20744 net.cpp:380] pool4-R_pool4-R_0_split -> pool4-R_pool4-R_0_split_0
I0419 00:44:29.581234 20744 net.cpp:380] pool4-R_pool4-R_0_split -> pool4-R_pool4-R_0_split_1
I0419 00:44:29.581310 20744 net.cpp:122] Setting up pool4-R_pool4-R_0_split
I0419 00:44:29.581318 20744 net.cpp:129] Top shape: 1 512 45 32 (737280)
I0419 00:44:29.581322 20744 net.cpp:129] Top shape: 1 512 45 32 (737280)
I0419 00:44:29.581326 20744 net.cpp:137] Memory required for data: 1722177812
I0419 00:44:29.581328 20744 layer_factory.hpp:77] Creating layer conv5_1-R
I0419 00:44:29.581338 20744 net.cpp:84] Creating Layer conv5_1-R
I0419 00:44:29.581342 20744 net.cpp:406] conv5_1-R <- pool4-R_pool4-R_0_split_0
I0419 00:44:29.581348 20744 net.cpp:380] conv5_1-R -> conv5_1-R
I0419 00:44:29.588672 20744 net.cpp:122] Setting up conv5_1-R
I0419 00:44:29.588690 20744 net.cpp:129] Top shape: 1 512 45 32 (737280)
I0419 00:44:29.588693 20744 net.cpp:137] Memory required for data: 1725126932
I0419 00:44:29.588712 20744 layer_factory.hpp:77] Creating layer relu5_1-R
I0419 00:44:29.588719 20744 net.cpp:84] Creating Layer relu5_1-R
I0419 00:44:29.588724 20744 net.cpp:406] relu5_1-R <- conv5_1-R
I0419 00:44:29.588729 20744 net.cpp:367] relu5_1-R -> conv5_1-R (in-place)
I0419 00:44:29.588981 20744 net.cpp:122] Setting up relu5_1-R
I0419 00:44:29.588991 20744 net.cpp:129] Top shape: 1 512 45 32 (737280)
I0419 00:44:29.588995 20744 net.cpp:137] Memory required for data: 1728076052
I0419 00:44:29.588999 20744 layer_factory.hpp:77] Creating layer conv5_2-R
I0419 00:44:29.589007 20744 net.cpp:84] Creating Layer conv5_2-R
I0419 00:44:29.589011 20744 net.cpp:406] conv5_2-R <- conv5_1-R
I0419 00:44:29.589018 20744 net.cpp:380] conv5_2-R -> conv5_2-R
I0419 00:44:29.597658 20744 net.cpp:122] Setting up conv5_2-R
I0419 00:44:29.597677 20744 net.cpp:129] Top shape: 1 512 45 32 (737280)
I0419 00:44:29.597681 20744 net.cpp:137] Memory required for data: 1731025172
I0419 00:44:29.597688 20744 layer_factory.hpp:77] Creating layer relu5_2-R
I0419 00:44:29.597695 20744 net.cpp:84] Creating Layer relu5_2-R
I0419 00:44:29.597699 20744 net.cpp:406] relu5_2-R <- conv5_2-R
I0419 00:44:29.597705 20744 net.cpp:367] relu5_2-R -> conv5_2-R (in-place)
I0419 00:44:29.597954 20744 net.cpp:122] Setting up relu5_2-R
I0419 00:44:29.597964 20744 net.cpp:129] Top shape: 1 512 45 32 (737280)
I0419 00:44:29.597967 20744 net.cpp:137] Memory required for data: 1733974292
I0419 00:44:29.597970 20744 layer_factory.hpp:77] Creating layer conv5_3-R
I0419 00:44:29.597980 20744 net.cpp:84] Creating Layer conv5_3-R
I0419 00:44:29.597983 20744 net.cpp:406] conv5_3-R <- conv5_2-R
I0419 00:44:29.597990 20744 net.cpp:380] conv5_3-R -> conv5_3-R
I0419 00:44:29.605408 20744 net.cpp:122] Setting up conv5_3-R
I0419 00:44:29.605427 20744 net.cpp:129] Top shape: 1 512 45 32 (737280)
I0419 00:44:29.605429 20744 net.cpp:137] Memory required for data: 1736923412
I0419 00:44:29.605437 20744 layer_factory.hpp:77] Creating layer relu5_3-R
I0419 00:44:29.605443 20744 net.cpp:84] Creating Layer relu5_3-R
I0419 00:44:29.605448 20744 net.cpp:406] relu5_3-R <- conv5_3-R
I0419 00:44:29.605453 20744 net.cpp:367] relu5_3-R -> conv5_3-R (in-place)
I0419 00:44:29.606323 20744 net.cpp:122] Setting up relu5_3-R
I0419 00:44:29.606336 20744 net.cpp:129] Top shape: 1 512 45 32 (737280)
I0419 00:44:29.606340 20744 net.cpp:137] Memory required for data: 1739872532
I0419 00:44:29.606343 20744 layer_factory.hpp:77] Creating layer pool5-R
I0419 00:44:29.606351 20744 net.cpp:84] Creating Layer pool5-R
I0419 00:44:29.606355 20744 net.cpp:406] pool5-R <- conv5_3-R
I0419 00:44:29.606362 20744 net.cpp:380] pool5-R -> pool5-R
I0419 00:44:29.606456 20744 net.cpp:122] Setting up pool5-R
I0419 00:44:29.606469 20744 net.cpp:129] Top shape: 1 512 23 16 (188416)
I0419 00:44:29.606472 20744 net.cpp:137] Memory required for data: 1740626196
I0419 00:44:29.606475 20744 layer_factory.hpp:77] Creating layer fc6-R
I0419 00:44:29.606484 20744 net.cpp:84] Creating Layer fc6-R
I0419 00:44:29.606488 20744 net.cpp:406] fc6-R <- pool5-R
I0419 00:44:29.606495 20744 net.cpp:380] fc6-R -> fc6-R
I0419 00:44:29.860420 20744 net.cpp:122] Setting up fc6-R
I0419 00:44:29.860457 20744 net.cpp:129] Top shape: 1 4096 17 10 (696320)
I0419 00:44:29.860462 20744 net.cpp:137] Memory required for data: 1743411476
I0419 00:44:29.860472 20744 layer_factory.hpp:77] Creating layer relu6-R
I0419 00:44:29.860483 20744 net.cpp:84] Creating Layer relu6-R
I0419 00:44:29.860489 20744 net.cpp:406] relu6-R <- fc6-R
I0419 00:44:29.860496 20744 net.cpp:367] relu6-R -> fc6-R (in-place)
I0419 00:44:29.861673 20744 net.cpp:122] Setting up relu6-R
I0419 00:44:29.861686 20744 net.cpp:129] Top shape: 1 4096 17 10 (696320)
I0419 00:44:29.861690 20744 net.cpp:137] Memory required for data: 1746196756
I0419 00:44:29.861693 20744 layer_factory.hpp:77] Creating layer drop6-R
I0419 00:44:29.861701 20744 net.cpp:84] Creating Layer drop6-R
I0419 00:44:29.861704 20744 net.cpp:406] drop6-R <- fc6-R
I0419 00:44:29.861711 20744 net.cpp:367] drop6-R -> fc6-R (in-place)
I0419 00:44:29.861776 20744 net.cpp:122] Setting up drop6-R
I0419 00:44:29.861783 20744 net.cpp:129] Top shape: 1 4096 17 10 (696320)
I0419 00:44:29.861785 20744 net.cpp:137] Memory required for data: 1748982036
I0419 00:44:29.861788 20744 layer_factory.hpp:77] Creating layer fc7-R
I0419 00:44:29.861799 20744 net.cpp:84] Creating Layer fc7-R
I0419 00:44:29.861801 20744 net.cpp:406] fc7-R <- fc6-R
I0419 00:44:29.861809 20744 net.cpp:380] fc7-R -> fc7-R
I0419 00:44:29.906714 20744 net.cpp:122] Setting up fc7-R
I0419 00:44:29.906745 20744 net.cpp:129] Top shape: 1 4096 17 10 (696320)
I0419 00:44:29.906749 20744 net.cpp:137] Memory required for data: 1751767316
I0419 00:44:29.906760 20744 layer_factory.hpp:77] Creating layer relu7-R
I0419 00:44:29.906772 20744 net.cpp:84] Creating Layer relu7-R
I0419 00:44:29.906777 20744 net.cpp:406] relu7-R <- fc7-R
I0419 00:44:29.906785 20744 net.cpp:367] relu7-R -> fc7-R (in-place)
I0419 00:44:29.907060 20744 net.cpp:122] Setting up relu7-R
I0419 00:44:29.907073 20744 net.cpp:129] Top shape: 1 4096 17 10 (696320)
I0419 00:44:29.907075 20744 net.cpp:137] Memory required for data: 1754552596
I0419 00:44:29.907079 20744 layer_factory.hpp:77] Creating layer drop7-R
I0419 00:44:29.907086 20744 net.cpp:84] Creating Layer drop7-R
I0419 00:44:29.907090 20744 net.cpp:406] drop7-R <- fc7-R
I0419 00:44:29.907096 20744 net.cpp:367] drop7-R -> fc7-R (in-place)
I0419 00:44:29.907160 20744 net.cpp:122] Setting up drop7-R
I0419 00:44:29.907168 20744 net.cpp:129] Top shape: 1 4096 17 10 (696320)
I0419 00:44:29.907171 20744 net.cpp:137] Memory required for data: 1757337876
I0419 00:44:29.907174 20744 layer_factory.hpp:77] Creating layer score_fr-new-R
I0419 00:44:29.907184 20744 net.cpp:84] Creating Layer score_fr-new-R
I0419 00:44:29.907187 20744 net.cpp:406] score_fr-new-R <- fc7-R
I0419 00:44:29.907196 20744 net.cpp:380] score_fr-new-R -> score_fr-new-R
I0419 00:44:29.908957 20744 net.cpp:122] Setting up score_fr-new-R
I0419 00:44:29.908972 20744 net.cpp:129] Top shape: 1 3 17 10 (510)
I0419 00:44:29.908974 20744 net.cpp:137] Memory required for data: 1757339916
I0419 00:44:29.908980 20744 layer_factory.hpp:77] Creating layer upscore2-new-R
I0419 00:44:29.908989 20744 net.cpp:84] Creating Layer upscore2-new-R
I0419 00:44:29.908993 20744 net.cpp:406] upscore2-new-R <- score_fr-new-R
I0419 00:44:29.909000 20744 net.cpp:380] upscore2-new-R -> upscore2-new-R
I0419 00:44:29.909399 20744 net.cpp:122] Setting up upscore2-new-R
I0419 00:44:29.909409 20744 net.cpp:129] Top shape: 1 3 36 22 (2376)
I0419 00:44:29.909427 20744 net.cpp:137] Memory required for data: 1757349420
I0419 00:44:29.909432 20744 layer_factory.hpp:77] Creating layer upscore2-new-R_upscore2-new-R_0_split
I0419 00:44:29.909438 20744 net.cpp:84] Creating Layer upscore2-new-R_upscore2-new-R_0_split
I0419 00:44:29.909442 20744 net.cpp:406] upscore2-new-R_upscore2-new-R_0_split <- upscore2-new-R
I0419 00:44:29.909448 20744 net.cpp:380] upscore2-new-R_upscore2-new-R_0_split -> upscore2-new-R_upscore2-new-R_0_split_0
I0419 00:44:29.909456 20744 net.cpp:380] upscore2-new-R_upscore2-new-R_0_split -> upscore2-new-R_upscore2-new-R_0_split_1
I0419 00:44:29.909518 20744 net.cpp:122] Setting up upscore2-new-R_upscore2-new-R_0_split
I0419 00:44:29.909523 20744 net.cpp:129] Top shape: 1 3 36 22 (2376)
I0419 00:44:29.909528 20744 net.cpp:129] Top shape: 1 3 36 22 (2376)
I0419 00:44:29.909530 20744 net.cpp:137] Memory required for data: 1757368428
I0419 00:44:29.909533 20744 layer_factory.hpp:77] Creating layer score_pool4-new-R
I0419 00:44:29.909541 20744 net.cpp:84] Creating Layer score_pool4-new-R
I0419 00:44:29.909546 20744 net.cpp:406] score_pool4-new-R <- pool4-R_pool4-R_0_split_1
I0419 00:44:29.909552 20744 net.cpp:380] score_pool4-new-R -> score_pool4-new-R
I0419 00:44:29.911237 20744 net.cpp:122] Setting up score_pool4-new-R
I0419 00:44:29.911252 20744 net.cpp:129] Top shape: 1 3 45 32 (4320)
I0419 00:44:29.911254 20744 net.cpp:137] Memory required for data: 1757385708
I0419 00:44:29.911262 20744 layer_factory.hpp:77] Creating layer score_pool4c-R
I0419 00:44:29.911268 20744 net.cpp:84] Creating Layer score_pool4c-R
I0419 00:44:29.911273 20744 net.cpp:406] score_pool4c-R <- score_pool4-new-R
I0419 00:44:29.911278 20744 net.cpp:406] score_pool4c-R <- upscore2-new-R_upscore2-new-R_0_split_0
I0419 00:44:29.911283 20744 net.cpp:380] score_pool4c-R -> score_pool4c-R
I0419 00:44:29.911345 20744 net.cpp:122] Setting up score_pool4c-R
I0419 00:44:29.911350 20744 net.cpp:129] Top shape: 1 3 36 22 (2376)
I0419 00:44:29.911353 20744 net.cpp:137] Memory required for data: 1757395212
I0419 00:44:29.911356 20744 layer_factory.hpp:77] Creating layer fuse_pool4-R
I0419 00:44:29.911365 20744 net.cpp:84] Creating Layer fuse_pool4-R
I0419 00:44:29.911367 20744 net.cpp:406] fuse_pool4-R <- upscore2-new-R_upscore2-new-R_0_split_1
I0419 00:44:29.911372 20744 net.cpp:406] fuse_pool4-R <- score_pool4c-R
I0419 00:44:29.911377 20744 net.cpp:380] fuse_pool4-R -> fuse_pool4-R
I0419 00:44:29.911417 20744 net.cpp:122] Setting up fuse_pool4-R
I0419 00:44:29.911423 20744 net.cpp:129] Top shape: 1 3 36 22 (2376)
I0419 00:44:29.911425 20744 net.cpp:137] Memory required for data: 1757404716
I0419 00:44:29.911429 20744 layer_factory.hpp:77] Creating layer upscore_pool4-new-R
I0419 00:44:29.911437 20744 net.cpp:84] Creating Layer upscore_pool4-new-R
I0419 00:44:29.911439 20744 net.cpp:406] upscore_pool4-new-R <- fuse_pool4-R
I0419 00:44:29.911445 20744 net.cpp:380] upscore_pool4-new-R -> upscore_pool4-new-R
I0419 00:44:29.911824 20744 net.cpp:122] Setting up upscore_pool4-new-R
I0419 00:44:29.911833 20744 net.cpp:129] Top shape: 1 3 74 46 (10212)
I0419 00:44:29.911851 20744 net.cpp:137] Memory required for data: 1757445564
I0419 00:44:29.911856 20744 layer_factory.hpp:77] Creating layer upscore_pool4-new-R_upscore_pool4-new-R_0_split
I0419 00:44:29.911861 20744 net.cpp:84] Creating Layer upscore_pool4-new-R_upscore_pool4-new-R_0_split
I0419 00:44:29.911865 20744 net.cpp:406] upscore_pool4-new-R_upscore_pool4-new-R_0_split <- upscore_pool4-new-R
I0419 00:44:29.911871 20744 net.cpp:380] upscore_pool4-new-R_upscore_pool4-new-R_0_split -> upscore_pool4-new-R_upscore_pool4-new-R_0_split_0
I0419 00:44:29.911877 20744 net.cpp:380] upscore_pool4-new-R_upscore_pool4-new-R_0_split -> upscore_pool4-new-R_upscore_pool4-new-R_0_split_1
I0419 00:44:29.911939 20744 net.cpp:122] Setting up upscore_pool4-new-R_upscore_pool4-new-R_0_split
I0419 00:44:29.911945 20744 net.cpp:129] Top shape: 1 3 74 46 (10212)
I0419 00:44:29.911949 20744 net.cpp:129] Top shape: 1 3 74 46 (10212)
I0419 00:44:29.911952 20744 net.cpp:137] Memory required for data: 1757527260
I0419 00:44:29.911955 20744 layer_factory.hpp:77] Creating layer score_pool3-new-R
I0419 00:44:29.911963 20744 net.cpp:84] Creating Layer score_pool3-new-R
I0419 00:44:29.911967 20744 net.cpp:406] score_pool3-new-R <- pool3-R_pool3-R_0_split_1
I0419 00:44:29.911973 20744 net.cpp:380] score_pool3-new-R -> score_pool3-new-R
I0419 00:44:29.913676 20744 net.cpp:122] Setting up score_pool3-new-R
I0419 00:44:29.913689 20744 net.cpp:129] Top shape: 1 3 89 64 (17088)
I0419 00:44:29.913692 20744 net.cpp:137] Memory required for data: 1757595612
I0419 00:44:29.913699 20744 layer_factory.hpp:77] Creating layer score_pool3c-R
I0419 00:44:29.913705 20744 net.cpp:84] Creating Layer score_pool3c-R
I0419 00:44:29.913710 20744 net.cpp:406] score_pool3c-R <- score_pool3-new-R
I0419 00:44:29.913715 20744 net.cpp:406] score_pool3c-R <- upscore_pool4-new-R_upscore_pool4-new-R_0_split_0
I0419 00:44:29.913722 20744 net.cpp:380] score_pool3c-R -> score_pool3c-R
I0419 00:44:29.913782 20744 net.cpp:122] Setting up score_pool3c-R
I0419 00:44:29.913789 20744 net.cpp:129] Top shape: 1 3 74 46 (10212)
I0419 00:44:29.913791 20744 net.cpp:137] Memory required for data: 1757636460
I0419 00:44:29.913795 20744 layer_factory.hpp:77] Creating layer fuse_pool3-R
I0419 00:44:29.913802 20744 net.cpp:84] Creating Layer fuse_pool3-R
I0419 00:44:29.913806 20744 net.cpp:406] fuse_pool3-R <- upscore_pool4-new-R_upscore_pool4-new-R_0_split_1
I0419 00:44:29.913810 20744 net.cpp:406] fuse_pool3-R <- score_pool3c-R
I0419 00:44:29.913815 20744 net.cpp:380] fuse_pool3-R -> fuse_pool3-R
I0419 00:44:29.913858 20744 net.cpp:122] Setting up fuse_pool3-R
I0419 00:44:29.913864 20744 net.cpp:129] Top shape: 1 3 74 46 (10212)
I0419 00:44:29.913867 20744 net.cpp:137] Memory required for data: 1757677308
I0419 00:44:29.913872 20744 layer_factory.hpp:77] Creating layer upscore8-new-R
I0419 00:44:29.913878 20744 net.cpp:84] Creating Layer upscore8-new-R
I0419 00:44:29.913882 20744 net.cpp:406] upscore8-new-R <- fuse_pool3-R
I0419 00:44:29.913889 20744 net.cpp:380] upscore8-new-R -> upscore8-new-R
I0419 00:44:29.914316 20744 net.cpp:122] Setting up upscore8-new-R
I0419 00:44:29.914330 20744 net.cpp:129] Top shape: 1 3 600 376 (676800)
I0419 00:44:29.914347 20744 net.cpp:137] Memory required for data: 1760384508
I0419 00:44:29.914353 20744 layer_factory.hpp:77] Creating layer upscore8_cropped-R
I0419 00:44:29.914360 20744 net.cpp:84] Creating Layer upscore8_cropped-R
I0419 00:44:29.914363 20744 net.cpp:406] upscore8_cropped-R <- upscore8-new-R
I0419 00:44:29.914369 20744 net.cpp:406] upscore8_cropped-R <- data-R_crop_0_split_1
I0419 00:44:29.914376 20744 net.cpp:380] upscore8_cropped-R -> upscore8_cropped-R
I0419 00:44:29.914414 20744 net.cpp:122] Setting up upscore8_cropped-R
I0419 00:44:29.914420 20744 net.cpp:129] Top shape: 1 3 512 310 (476160)
I0419 00:44:29.914422 20744 net.cpp:137] Memory required for data: 1762289148
I0419 00:44:29.914427 20744 layer_factory.hpp:77] Creating layer score-R
I0419 00:44:29.914436 20744 net.cpp:84] Creating Layer score-R
I0419 00:44:29.914439 20744 net.cpp:406] score-R <- upscore8_cropped-R
I0419 00:44:29.914446 20744 net.cpp:380] score-R -> score-R
I0419 00:44:29.918619 20744 net.cpp:122] Setting up score-R
I0419 00:44:29.918690 20744 net.cpp:129] Top shape: 1 3 512 310 (476160)
I0419 00:44:29.918701 20744 net.cpp:137] Memory required for data: 1764193788
I0419 00:44:29.918723 20744 layer_factory.hpp:77] Creating layer score_uncropped-R
I0419 00:44:29.918831 20744 net.cpp:84] Creating Layer score_uncropped-R
I0419 00:44:29.918851 20744 net.cpp:406] score_uncropped-R <- crop_info
I0419 00:44:29.918869 20744 net.cpp:406] score_uncropped-R <- score-R
I0419 00:44:29.918890 20744 net.cpp:406] score_uncropped-R <- data_data_0_split_3
I0419 00:44:29.918905 20744 net.cpp:380] score_uncropped-R -> score_uncropped-R
I0419 00:44:29.923679 20744 net.cpp:122] Setting up score_uncropped-R
I0419 00:44:29.923722 20744 net.cpp:129] Top shape: 1 3 512 310 (476160)
I0419 00:44:29.923732 20744 net.cpp:137] Memory required for data: 1766098428
I0419 00:44:29.923740 20744 layer_factory.hpp:77] Creating layer loss1
I0419 00:44:29.923760 20744 net.cpp:84] Creating Layer loss1
I0419 00:44:29.923780 20744 net.cpp:406] loss1 <- score_score_0_split_1
I0419 00:44:29.923792 20744 net.cpp:406] loss1 <- label_data_1_split_1
I0419 00:44:29.923805 20744 net.cpp:380] loss1 -> loss1
…
