…
snapshot_prefix: "/media/Med_2T2/data2/models/snapshots/joint:1e-5x10,1e-5x10,20/FD1:YI3_1_20180715_091943,YJ3_1_20180715_203131/train"
test_initialization: false
average_loss: 20
stepvalue: 50000
stepvalue: 60000
stepvalue: 70000
iter_size: 1
I0716 00:02:24.074579 14897 solver.cpp:77] Creating training net from train_net file: /media/Med_2T2/data2/prototxts/training_J3x10.prototxt
I0716 00:02:24.077783 14897 net.cpp:51] Initializing net from parameters: 
state {
  phase: TRAIN
}
layer {
  name: "data"
  type: "Python"
  top: "data"
  top: "label"
  top: "crop_margin"
  top: "crop_prob"
  top: "crop_sample_batch"
  python_param {
    module: "Data"
    layer: "DataLayer"
  }
}
layer {
  name: "conv1_1"
  type: "Convolution"
  bottom: "data"
  top: "conv1_1"
  param {
    lr_mult: 1
    decay_mult: 1
  }
  param {
    lr_mult: 2
    decay_mult: 0
  }
  convolution_param {
    num_output: 64
    pad: 100
    kernel_size: 3
    stride: 1
  }
}
layer {
  name: "relu1_1"
  type: "ReLU"
  bottom: "conv1_1"
  top: "conv1_1"
}
layer {
  name: "conv1_2"
  type: "Convolution"
  bottom: "conv1_1"
  top: "conv1_2"
  param {
    lr_mult: 1
    decay_mult: 1
  }
  param {
    lr_mult: 2
    decay_mult: 0
  }
  convolution_param {
    num_output: 64
    pad: 1
    kernel_size: 3
    stride: 1
  }
}
layer {
  name: "relu1_2"
  type: "ReLU"
  bottom: "conv1_2"
  top: "conv1_2"
}
layer {
  name: "pool1"
  type: "Pooling"
  bottom: "conv1_2"
  top: "pool1"
  pooling_param {
    pool: MAX
    kernel_size: 2
    stride: 2
  }
}
layer {
  name: "conv2_1"
  type: "Convolution"
  bottom: "pool1"
  top: "conv2_1"
  param {
    lr_mult: 1
    decay_mult: 1
  }
  param {
    lr_mult: 2
    decay_mult: 0
  }
  convolution_param {
    num_output: 128
    pad: 1
    kernel_size: 3
    stride: 1
  }
}
layer {
  name: "relu2_1"
  type: "ReLU"
  bottom: "conv2_1"
  top: "conv2_1"
}
layer {
  name: "conv2_2"
  type: "Convolution"
  bottom: "conv2_1"
  top: "conv2_2"
  param {
    lr_mult: 1
    decay_mult: 1
  }
  param {
    lr_mult: 2
    decay_mult: 0
  }
  convolution_param {
    num_output: 128
    pad: 1
    kernel_size: 3
    stride: 1
  }
}
layer {
  name: "relu2_2"
  type: "ReLU"
  bottom: "conv2_2"
  top: "conv2_2"
}
layer {
  name: "pool2"
  type: "Pooling"
  bottom: "conv2_2"
  top: "pool2"
  pooling_param {
    pool: MAX
    kernel_size: 2
    stride: 2
  }
}
layer {
  name: "conv3_1"
  type: "Convolution"
  bottom: "pool2"
  top: "conv3_1"
  param {
    lr_mult: 1
    decay_mult: 1
  }
  param {
    lr_mult: 2
    decay_mult: 0
  }
  convolution_param {
    num_output: 256
    pad: 1
    kernel_size: 3
    stride: 1
  }
}
layer {
  name: "relu3_1"
  type: "ReLU"
  bottom: "conv3_1"
  top: "conv3_1"
}
layer {
  name: "conv3_2"
  type: "Convolution"
  bottom: "conv3_1"
  top: "conv3_2"
  param {
    lr_mult: 1
    decay_mult: 1
  }
  param {
    lr_mult: 2
    decay_mult: 0
  }
  convolution_param {
    num_output: 256
    pad: 1
    kernel_size: 3
    stride: 1
  }
}
layer {
  name: "relu3_2"
  type: "ReLU"
  bottom: "conv3_2"
  top: "conv3_2"
}
layer {
  name: "conv3_3"
  type: "Convolution"
  bottom: "conv3_2"
  top: "conv3_3"
  param {
    lr_mult: 1
    decay_mult: 1
  }
  param {
    lr_mult: 2
    decay_mult: 0
  }
  convolution_param {
    num_output: 256
    pad: 1
    kernel_size: 3
    stride: 1
  }
}
layer {
  name: "relu3_3"
  type: "ReLU"
  bottom: "conv3_3"
  top: "conv3_3"
}
layer {
  name: "pool3"
  type: "Pooling"
  bottom: "conv3_3"
  top: "pool3"
  pooling_param {
    pool: MAX
    kernel_size: 2
    stride: 2
  }
}
layer {
  name: "conv4_1"
  type: "Convolution"
  bottom: "pool3"
  top: "conv4_1"
  param {
    lr_mult: 1
    decay_mult: 1
  }
  param {
    lr_mult: 2
    decay_mult: 0
  }
  convolution_param {
    num_output: 512
    pad: 1
    kernel_size: 3
    stride: 1
  }
}
layer {
  name: "relu4_1"
  type: "ReLU"
  bottom: "conv4_1"
  top: "conv4_1"
}
layer {
  name: "conv4_2"
  type: "Convolution"
  bottom: "conv4_1"
  top: "conv4_2"
  param {
    lr_mult: 1
    decay_mult: 1
  }
  param {
    lr_mult: 2
    decay_mult: 0
  }
  convolution_param {
    num_output: 512
    pad: 1
    kernel_size: 3
    stride: 1
  }
}
layer {
  name: "relu4_2"
  type: "ReLU"
  bottom: "conv4_2"
  top: "conv4_2"
}
layer {
  name: "conv4_3"
  type: "Convolution"
  bottom: "conv4_2"
  top: "conv4_3"
  param {
    lr_mult: 1
    decay_mult: 1
  }
  param {
    lr_mult: 2
    decay_mult: 0
  }
  convolution_param {
    num_output: 512
    pad: 1
    kernel_size: 3
    stride: 1
  }
}
layer {
  name: "relu4_3"
  type: "ReLU"
  bottom: "conv4_3"
  top: "conv4_3"
}
layer {
  name: "pool4"
  type: "Pooling"
  bottom: "conv4_3"
  top: "pool4"
  pooling_param {
    pool: MAX
    kernel_size: 2
    stride: 2
  }
}
layer {
  name: "conv5_1"
  type: "Convolution"
  bottom: "pool4"
  top: "conv5_1"
  param {
    lr_mult: 1
    decay_mult: 1
  }
  param {
    lr_mult: 2
    decay_mult: 0
  }
  convolution_param {
    num_output: 512
    pad: 1
    kernel_size: 3
    stride: 1
  }
}
layer {
  name: "relu5_1"
  type: "ReLU"
  bottom: "conv5_1"
  top: "conv5_1"
}
layer {
  name: "conv5_2"
  type: "Convolution"
  bottom: "conv5_1"
  top: "conv5_2"
  param {
    lr_mult: 1
    decay_mult: 1
  }
  param {
    lr_mult: 2
    decay_mult: 0
  }
  convolution_param {
    num_output: 512
    pad: 1
    kernel_size: 3
    stride: 1
  }
}
layer {
  name: "relu5_2"
  type: "ReLU"
  bottom: "conv5_2"
  top: "conv5_2"
}
layer {
  name: "conv5_3"
  type: "Convolution"
  bottom: "conv5_2"
  top: "conv5_3"
  param {
    lr_mult: 1
    decay_mult: 1
  }
  param {
    lr_mult: 2
    decay_mult: 0
  }
  convolution_param {
    num_output: 512
    pad: 1
    kernel_size: 3
    stride: 1
  }
}
layer {
  name: "relu5_3"
  type: "ReLU"
  bottom: "conv5_3"
  top: "conv5_3"
}
layer {
  name: "pool5"
  type: "Pooling"
  bottom: "conv5_3"
  top: "pool5"
  pooling_param {
    pool: MAX
    kernel_size: 2
    stride: 2
  }
}
layer {
  name: "fc6"
  type: "Convolution"
  bottom: "pool5"
  top: "fc6"
  param {
    lr_mult: 1
    decay_mult: 1
  }
  param {
    lr_mult: 2
    decay_mult: 0
  }
  convolution_param {
    num_output: 4096
    pad: 0
    kernel_size: 7
    stride: 1
  }
}
layer {
  name: "relu6"
  type: "ReLU"
  bottom: "fc6"
  top: "fc6"
}
layer {
  name: "drop6"
  type: "Dropout"
  bottom: "fc6"
  top: "fc6"
  dropout_param {
    dropout_ratio: 0.5
  }
}
layer {
  name: "fc7"
  type: "Convolution"
  bottom: "fc6"
  top: "fc7"
  param {
    lr_mult: 1
    decay_mult: 1
  }
  param {
    lr_mult: 2
    decay_mult: 0
  }
  convolution_param {
    num_output: 4096
    pad: 0
    kernel_size: 1
    stride: 1
  }
}
layer {
  name: "relu7"
  type: "ReLU"
  bottom: "fc7"
  top: "fc7"
}
layer {
  name: "drop7"
  type: "Dropout"
  bottom: "fc7"
  top: "fc7"
  dropout_param {
    dropout_ratio: 0.5
  }
}
layer {
  name: "score_fr-new"
  type: "Convolution"
  bottom: "fc7"
  top: "score_fr-new"
  param {
    lr_mult: 1
    decay_mult: 1
  }
  param {
    lr_mult: 2
    decay_mult: 0
  }
  convolution_param {
    num_output: 3
    kernel_size: 1
  }
}
layer {
  name: "upscore2-new"
  type: "Deconvolution"
  bottom: "score_fr-new"
  top: "upscore2-new"
  param {
    lr_mult: 0
  }
  convolution_param {
    num_output: 3
    bias_term: false
    kernel_size: 4
    stride: 2
  }
}
layer {
  name: "score_pool4-new"
  type: "Convolution"
  bottom: "pool4"
  top: "score_pool4-new"
  param {
    lr_mult: 1
    decay_mult: 1
  }
  param {
    lr_mult: 2
    decay_mult: 0
  }
  convolution_param {
    num_output: 3
    pad: 0
    kernel_size: 1
  }
}
layer {
  name: "score_pool4c"
  type: "Crop"
  bottom: "score_pool4-new"
  bottom: "upscore2-new"
  top: "score_pool4c"
  crop_param {
    axis: 2
    offset: 5
  }
}
layer {
  name: "fuse_pool4"
  type: "Eltwise"
  bottom: "upscore2-new"
  bottom: "score_pool4c"
  top: "fuse_pool4"
  eltwise_param {
    operation: SUM
  }
}
layer {
  name: "upscore_pool4-new"
  type: "Deconvolution"
  bottom: "fuse_pool4"
  top: "upscore_pool4-new"
  param {
    lr_mult: 0
  }
  convolution_param {
    num_output: 3
    bias_term: false
    kernel_size: 4
    stride: 2
  }
}
layer {
  name: "score_pool3-new"
  type: "Convolution"
  bottom: "pool3"
  top: "score_pool3-new"
  param {
    lr_mult: 1
    decay_mult: 1
  }
  param {
    lr_mult: 2
    decay_mult: 0
  }
  convolution_param {
    num_output: 3
    pad: 0
    kernel_size: 1
  }
}
layer {
  name: "score_pool3c"
  type: "Crop"
  bottom: "score_pool3-new"
  bottom: "upscore_pool4-new"
  top: "score_pool3c"
  crop_param {
    axis: 2
    offset: 9
  }
}
layer {
  name: "fuse_pool3"
  type: "Eltwise"
  bottom: "upscore_pool4-new"
  bottom: "score_pool3c"
  top: "fuse_pool3"
  eltwise_param {
    operation: SUM
  }
}
layer {
  name: "upscore8-new"
  type: "Deconvolution"
  bottom: "fuse_pool3"
  top: "upscore8-new"
  param {
    lr_mult: 0
  }
  convolution_param {
    num_output: 3
    bias_term: false
    kernel_size: 16
    stride: 8
  }
}
layer {
  name: "upscore8_cropped"
  type: "Crop"
  bottom: "upscore8-new"
  bottom: "data"
  top: "upscore8_cropped"
  crop_param {
    axis: 2
    offset: 31
  }
}
layer {
  name: "prob"
  type: "Sigmoid"
  bottom: "upscore8_cropped"
  top: "prob"
}
layer {
  name: "saliency1"
  type: "Convolution"
  bottom: "prob"
  top: "saliency1"
  param {
    lr_mult: 10
    decay_mult: 1
  }
  param {
    lr_mult: 20
    decay_mult: 0
  }
  convolution_param {
    num_output: 3
    pad: 1
    kernel_size: 3
    stride: 1
    weight_filler {
      type: "xavier"
    }
    bias_filler {
      type: "constant"
      value: 1
    }
  }
}
layer {
  name: "relu_saliency1"
  type: "ReLU"
  bottom: "saliency1"
  top: "saliency1"
}
layer {
  name: "saliency"
  type: "Convolution"
  bottom: "saliency1"
  top: "saliency"
  param {
    lr_mult: 10
    decay_mult: 1
  }
  param {
    lr_mult: 20
    decay_mult: 0
  }
  convolution_param {
    num_output: 3
    pad: 2
    kernel_size: 5
    stride: 1
    weight_filler {
      type: "xavier"
    }
    bias_filler {
      type: "constant"
      value: 1
    }
  }
}
layer {
  name: "saliency_data"
  type: "Eltwise"
  bottom: "data"
  bottom: "saliency"
  top: "saliency_data"
  eltwise_param {
    operation: PROD
  }
}
layer {
  name: "crop"
  type: "Python"
  bottom: "prob"
  bottom: "saliency_data"
  bottom: "crop_margin"
  bottom: "crop_prob"
  bottom: "crop_sample_batch"
  bottom: "label"
  top: "data-R"
  top: "crop_info"
  python_param {
    module: "Crop"
    layer: "CropLayer"
    param_str: "{\"TEST\": 0}"
  }
}
layer {
  name: "conv1_1-R"
  type: "Convolution"
  bottom: "data-R"
  top: "conv1_1-R"
  param {
    lr_mult: 10
    decay_mult: 1
  }
  param {
    lr_mult: 20
    decay_mult: 0
  }
  convolution_param {
    num_output: 64
    pad: 100
    kernel_size: 3
    stride: 1
  }
}
layer {
  name: "relu1_1-R"
  type: "ReLU"
  bottom: "conv1_1-R"
  top: "conv1_1-R"
}
layer {
  name: "conv1_2-R"
  type: "Convolution"
  bottom: "conv1_1-R"
  top: "conv1_2-R"
  param {
    lr_mult: 10
    decay_mult: 1
  }
  param {
    lr_mult: 20
    decay_mult: 0
  }
  convolution_param {
    num_output: 64
    pad: 1
    kernel_size: 3
    stride: 1
  }
}
layer {
  name: "relu1_2-R"
  type: "ReLU"
  bottom: "conv1_2-R"
  top: "conv1_2-R"
}
layer {
  name: "pool1-R"
  type: "Pooling"
  bottom: "conv1_2-R"
  top: "pool1-R"
  pooling_param {
    pool: MAX
    kernel_size: 2
    stride: 2
  }
}
layer {
  name: "conv2_1-R"
  type: "Convolution"
  bottom: "pool1-R"
  top: "conv2_1-R"
  param {
    lr_mult: 10
    decay_mult: 1
  }
  param {
    lr_mult: 20
    decay_mult: 0
  }
  convolution_param {
    num_output: 128
    pad: 1
    kernel_size: 3
    stride: 1
  }
}
layer {
  name: "relu2_1-R"
  type: "ReLU"
  bottom: "conv2_1-R"
  top: "conv2_1-R"
}
layer {
  name: "conv2_2-R"
  type: "Convolution"
  bottom: "conv2_1-R"
  top: "conv2_2-R"
  param {
    lr_mult: 10
    decay_mult: 1
  }
  param {
    lr_mult: 20
    decay_mult: 0
  }
  convolution_param {
    num_output: 128
    pad: 1
    kernel_size: 3
    stride: 1
  }
}
layer {
  name: "relu2_2-R"
  type: "ReLU"
  bottom: "conv2_2-R"
  top: "conv2_2-R"
}
layer {
  name: "pool2-R"
  type: "Pooling"
  bottom: "conv2_2-R"
  top: "pool2-R"
  pooling_param {
    pool: MAX
    kernel_size: 2
    stride: 2
  }
}
layer {
  name: "conv3_1-R"
  type: "Convolution"
  bottom: "pool2-R"
  top: "conv3_1-R"
  param {
    lr_mult: 10
    decay_mult: 1
  }
  param {
    lr_mult: 20
    decay_mult: 0
  }
  convolution_param {
    num_output: 256
    pad: 1
    kernel_size: 3
    stride: 1
  }
}
layer {
  name: "relu3_1-R"
  type: "ReLU"
  bottom: "conv3_1-R"
  top: "conv3_1-R"
}
layer {
  name: "conv3_2-R"
  type: "Convolution"
  bottom: "conv3_1-R"
  top: "conv3_2-R"
  param {
    lr_mult: 10
    decay_mult: 1
  }
  param {
    lr_mult: 20
    decay_mult: 0
  }
  convolution_param {
    num_output: 256
    pad: 1
    kernel_size: 3
    stride: 1
  }
}
layer {
  name: "relu3_2-R"
  type: "ReLU"
  bottom: "conv3_2-R"
  top: "conv3_2-R"
}
layer {
  name: "conv3_3-R"
  type: "Convolution"
  bottom: "conv3_2-R"
  top: "conv3_3-R"
  param {
    lr_mult: 10
    decay_mult: 1
  }
  param {
    lr_mult: 20
    decay_mult: 0
  }
  convolution_param {
    num_output: 256
    pad: 1
    kernel_size: 3
    stride: 1
  }
}
layer {
  name: "relu3_3-R"
  type: "ReLU"
  bottom: "conv3_3-R"
  top: "conv3_3-R"
}
layer {
  name: "pool3-R"
  type: "Pooling"
  bottom: "conv3_3-R"
  top: "pool3-R"
  pooling_param {
    pool: MAX
    kernel_size: 2
    stride: 2
  }
}
layer {
  name: "conv4_1-R"
  type: "Convolution"
  bottom: "pool3-R"
  top: "conv4_1-R"
  param {
    lr_mult: 10
    decay_mult: 1
  }
  param {
    lr_mult: 20
    decay_mult: 0
  }
  convolution_param {
    num_output: 512
    pad: 1
    kernel_size: 3
    stride: 1
  }
}
layer {
  name: "relu4_1-R"
  type: "ReLU"
  bottom: "conv4_1-R"
  top: "conv4_1-R"
}
layer {
  name: "conv4_2-R"
  type: "Convolution"
  bottom: "conv4_1-R"
  top: "conv4_2-R"
  param {
    lr_mult: 10
    decay_mult: 1
  }
  param {
    lr_mult: 20
    decay_mult: 0
  }
  convolution_param {
    num_output: 512
    pad: 1
    kernel_size: 3
    stride: 1
  }
}
layer {
  name: "relu4_2-R"
  type: "ReLU"
  bottom: "conv4_2-R"
  top: "conv4_2-R"
}
layer {
  name: "conv4_3-R"
  type: "Convolution"
  bottom: "conv4_2-R"
  top: "conv4_3-R"
  param {
    lr_mult: 10
    decay_mult: 1
  }
  param {
    lr_mult: 20
    decay_mult: 0
  }
  convolution_param {
    num_output: 512
    pad: 1
    kernel_size: 3
    stride: 1
  }
}
layer {
  name: "relu4_3-R"
  type: "ReLU"
  bottom: "conv4_3-R"
  top: "conv4_3-R"
}
layer {
  name: "pool4-R"
  type: "Pooling"
  bottom: "conv4_3-R"
  top: "pool4-R"
  pooling_param {
    pool: MAX
    kernel_size: 2
    stride: 2
  }
}
layer {
  name: "conv5_1-R"
  type: "Convolution"
  bottom: "pool4-R"
  top: "conv5_1-R"
  param {
    lr_mult: 10
    decay_mult: 1
  }
  param {
    lr_mult: 20
    decay_mult: 0
  }
  convolution_param {
    num_output: 512
    pad: 1
    kernel_size: 3
    stride: 1
  }
}
layer {
  name: "relu5_1-R"
  type: "ReLU"
  bottom: "conv5_1-R"
  top: "conv5_1-R"
}
layer {
  name: "conv5_2-R"
  type: "Convolution"
  bottom: "conv5_1-R"
  top: "conv5_2-R"
  param {
    lr_mult: 10
    decay_mult: 1
  }
  param {
    lr_mult: 20
    decay_mult: 0
  }
  convolution_param {
    num_output: 512
    pad: 1
    kernel_size: 3
    stride: 1
  }
}
layer {
  name: "relu5_2-R"
  type: "ReLU"
  bottom: "conv5_2-R"
  top: "conv5_2-R"
}
layer {
  name: "conv5_3-R"
  type: "Convolution"
  bottom: "conv5_2-R"
  top: "conv5_3-R"
  param {
    lr_mult: 10
    decay_mult: 1
  }
  param {
    lr_mult: 20
    decay_mult: 0
  }
  convolution_param {
    num_output: 512
    pad: 1
    kernel_size: 3
    stride: 1
  }
}
layer {
  name: "relu5_3-R"
  type: "ReLU"
  bottom: "conv5_3-R"
  top: "conv5_3-R"
}
layer {
  name: "pool5-R"
  type: "Pooling"
  bottom: "conv5_3-R"
  top: "pool5-R"
  pooling_param {
    pool: MAX
    kernel_size: 2
    stride: 2
  }
}
layer {
  name: "fc6-R"
  type: "Convolution"
  bottom: "pool5-R"
  top: "fc6-R"
  param {
    lr_mult: 10
    decay_mult: 1
  }
  param {
    lr_mult: 20
    decay_mult: 0
  }
  convolution_param {
    num_output: 4096
    pad: 0
    kernel_size: 7
    stride: 1
  }
}
layer {
  name: "relu6-R"
  type: "ReLU"
  bottom: "fc6-R"
  top: "fc6-R"
}
layer {
  name: "drop6-R"
  type: "Dropout"
  bottom: "fc6-R"
  top: "fc6-R"
  dropout_param {
    dropout_ratio: 0.5
  }
}
layer {
  name: "fc7-R"
  type: "Convolution"
  bottom: "fc6-R"
  top: "fc7-R"
  param {
    lr_mult: 10
    decay_mult: 1
  }
  param {
    lr_mult: 20
    decay_mult: 0
  }
  convolution_param {
    num_output: 4096
    pad: 0
    kernel_size: 1
    stride: 1
  }
}
layer {
  name: "relu7-R"
  type: "ReLU"
  bottom: "fc7-R"
  top: "fc7-R"
}
layer {
  name: "drop7-R"
  type: "Dropout"
  bottom: "fc7-R"
  top: "fc7-R"
  dropout_param {
    dropout_ratio: 0.5
  }
}
layer {
  name: "score_fr-new-R"
  type: "Convolution"
  bottom: "fc7-R"
  top: "score_fr-new-R"
  param {
    lr_mult: 10
    decay_mult: 1
  }
  param {
    lr_mult: 20
    decay_mult: 0
  }
  convolution_param {
    num_output: 3
    kernel_size: 1
  }
}
layer {
  name: "upscore2-new-R"
  type: "Deconvolution"
  bottom: "score_fr-new-R"
  top: "upscore2-new-R"
  param {
    lr_mult: 0
  }
  convolution_param {
    num_output: 3
    bias_term: false
    kernel_size: 4
    stride: 2
  }
}
layer {
  name: "score_pool4-new-R"
  type: "Convolution"
  bottom: "pool4-R"
  top: "score_pool4-new-R"
  param {
    lr_mult: 10
    decay_mult: 1
  }
  param {
    lr_mult: 20
    decay_mult: 0
  }
  convolution_param {
    num_output: 3
    pad: 0
    kernel_size: 1
  }
}
layer {
  name: "score_pool4c-R"
  type: "Crop"
  bottom: "score_pool4-new-R"
  bottom: "upscore2-new-R"
  top: "score_pool4c-R"
  crop_param {
    axis: 2
    offset: 5
  }
}
layer {
  name: "fuse_pool4-R"
  type: "Eltwise"
  bottom: "upscore2-new-R"
  bottom: "score_pool4c-R"
  top: "fuse_pool4-R"
  eltwise_param {
    operation: SUM
  }
}
layer {
  name: "upscore_pool4-new-R"
  type: "Deconvolution"
  bottom: "fuse_pool4-R"
  top: "upscore_pool4-new-R"
  param {
    lr_mult: 0
  }
  convolution_param {
    num_output: 3
    bias_term: false
    kernel_size: 4
    stride: 2
  }
}
layer {
  name: "score_pool3-new-R"
  type: "Convolution"
  bottom: "pool3-R"
  top: "score_pool3-new-R"
  param {
    lr_mult: 10
    decay_mult: 1
  }
  param {
    lr_mult: 20
    decay_mult: 0
  }
  convolution_param {
    num_output: 3
    pad: 0
    kernel_size: 1
  }
}
layer {
  name: "score_pool3c-R"
  type: "Crop"
  bottom: "score_pool3-new-R"
  bottom: "upscore_pool4-new-R"
  top: "score_pool3c-R"
  crop_param {
    axis: 2
    offset: 9
  }
}
layer {
  name: "fuse_pool3-R"
  type: "Eltwise"
  bottom: "upscore_pool4-new-R"
  bottom: "score_pool3c-R"
  top: "fuse_pool3-R"
  eltwise_param {
    operation: SUM
  }
}
layer {
  name: "upscore8-new-R"
  type: "Deconvolution"
  bottom: "fuse_pool3-R"
  top: "upscore8-new-R"
  param {
    lr_mult: 0
  }
  convolution_param {
    num_output: 3
    bias_term: false
    kernel_size: 16
    stride: 8
  }
}
layer {
  name: "upscore8_cropped-R"
  type: "Crop"
  bottom: "upscore8-new-R"
  bottom: "data-R"
  top: "upscore8_cropped-R"
  crop_param {
    axis: 2
    offset: 31
  }
}
layer {
  name: "upscore8_uncropped-R"
  type: "Python"
  bottom: "crop_info"
  bottom: "upscore8_cropped-R"
  bottom: "data"
  top: "upscore8_uncropped-R"
  python_param {
    module: "Uncrop"
    layer: "UncropLayer"
  }
}
layer {
  name: "loss1"
  type: "DiceLoss"
  bottom: "upscore8_cropped"
  bottom: "label"
  top: "loss1"
  loss_weight: 0.333333
}
layer {
  name: "loss2"
  type: "DiceLoss"
  bottom: "upscore8_uncropped-R"
  bottom: "label"
  top: "loss2"
  loss_weight: 0.666667
}
I0716 00:02:24.078349 14897 layer_factory.hpp:77] Creating layer data
I0716 00:02:24.079259 14897 net.cpp:84] Creating Layer data
I0716 00:02:24.079283 14897 net.cpp:380] data -> data
I0716 00:02:24.079303 14897 net.cpp:380] data -> label
I0716 00:02:24.079311 14897 net.cpp:380] data -> crop_margin
I0716 00:02:24.079324 14897 net.cpp:380] data -> crop_prob
I0716 00:02:24.079331 14897 net.cpp:380] data -> crop_sample_batch
I0716 00:02:24.269148 14897 net.cpp:122] Setting up data
I0716 00:02:24.269204 14897 net.cpp:129] Top shape: 1 3 512 310 (476160)
I0716 00:02:24.269212 14897 net.cpp:129] Top shape: 1 3 512 310 (476160)
I0716 00:02:24.269217 14897 net.cpp:129] Top shape: 1 (1)
I0716 00:02:24.269222 14897 net.cpp:129] Top shape: 1 (1)
I0716 00:02:24.269227 14897 net.cpp:129] Top shape: 1 (1)
I0716 00:02:24.269232 14897 net.cpp:137] Memory required for data: 3809292
I0716 00:02:24.269240 14897 layer_factory.hpp:77] Creating layer data_data_0_split
I0716 00:02:24.269271 14897 net.cpp:84] Creating Layer data_data_0_split
I0716 00:02:24.269278 14897 net.cpp:406] data_data_0_split <- data
I0716 00:02:24.269291 14897 net.cpp:380] data_data_0_split -> data_data_0_split_0
I0716 00:02:24.269305 14897 net.cpp:380] data_data_0_split -> data_data_0_split_1
I0716 00:02:24.269312 14897 net.cpp:380] data_data_0_split -> data_data_0_split_2
I0716 00:02:24.269320 14897 net.cpp:380] data_data_0_split -> data_data_0_split_3
I0716 00:02:24.269378 14897 net.cpp:122] Setting up data_data_0_split
I0716 00:02:24.269385 14897 net.cpp:129] Top shape: 1 3 512 310 (476160)
I0716 00:02:24.269390 14897 net.cpp:129] Top shape: 1 3 512 310 (476160)
I0716 00:02:24.269395 14897 net.cpp:129] Top shape: 1 3 512 310 (476160)
I0716 00:02:24.269402 14897 net.cpp:129] Top shape: 1 3 512 310 (476160)
I0716 00:02:24.269404 14897 net.cpp:137] Memory required for data: 11427852
I0716 00:02:24.269409 14897 layer_factory.hpp:77] Creating layer label_data_1_split
I0716 00:02:24.269415 14897 net.cpp:84] Creating Layer label_data_1_split
I0716 00:02:24.269420 14897 net.cpp:406] label_data_1_split <- label
I0716 00:02:24.269426 14897 net.cpp:380] label_data_1_split -> label_data_1_split_0
I0716 00:02:24.269433 14897 net.cpp:380] label_data_1_split -> label_data_1_split_1
I0716 00:02:24.269439 14897 net.cpp:380] label_data_1_split -> label_data_1_split_2
I0716 00:02:24.269477 14897 net.cpp:122] Setting up label_data_1_split
I0716 00:02:24.269484 14897 net.cpp:129] Top shape: 1 3 512 310 (476160)
I0716 00:02:24.269488 14897 net.cpp:129] Top shape: 1 3 512 310 (476160)
I0716 00:02:24.269492 14897 net.cpp:129] Top shape: 1 3 512 310 (476160)
I0716 00:02:24.269496 14897 net.cpp:137] Memory required for data: 17141772
I0716 00:02:24.269500 14897 layer_factory.hpp:77] Creating layer conv1_1
I0716 00:02:24.269516 14897 net.cpp:84] Creating Layer conv1_1
I0716 00:02:24.269521 14897 net.cpp:406] conv1_1 <- data_data_0_split_0
I0716 00:02:24.269528 14897 net.cpp:380] conv1_1 -> conv1_1
I0716 00:02:24.669971 14897 net.cpp:122] Setting up conv1_1
I0716 00:02:24.670022 14897 net.cpp:129] Top shape: 1 64 710 508 (23083520)
I0716 00:02:24.670028 14897 net.cpp:137] Memory required for data: 109475852
I0716 00:02:24.670058 14897 layer_factory.hpp:77] Creating layer relu1_1
I0716 00:02:24.670080 14897 net.cpp:84] Creating Layer relu1_1
I0716 00:02:24.670087 14897 net.cpp:406] relu1_1 <- conv1_1
I0716 00:02:24.670096 14897 net.cpp:367] relu1_1 -> conv1_1 (in-place)
I0716 00:02:24.670326 14897 net.cpp:122] Setting up relu1_1
I0716 00:02:24.670339 14897 net.cpp:129] Top shape: 1 64 710 508 (23083520)
I0716 00:02:24.670343 14897 net.cpp:137] Memory required for data: 201809932
I0716 00:02:24.670348 14897 layer_factory.hpp:77] Creating layer conv1_2
I0716 00:02:24.670362 14897 net.cpp:84] Creating Layer conv1_2
I0716 00:02:24.670372 14897 net.cpp:406] conv1_2 <- conv1_1
I0716 00:02:24.670388 14897 net.cpp:380] conv1_2 -> conv1_2
I0716 00:02:24.675103 14897 net.cpp:122] Setting up conv1_2
I0716 00:02:24.675122 14897 net.cpp:129] Top shape: 1 64 710 508 (23083520)
I0716 00:02:24.675138 14897 net.cpp:137] Memory required for data: 294144012
I0716 00:02:24.675150 14897 layer_factory.hpp:77] Creating layer relu1_2
I0716 00:02:24.675159 14897 net.cpp:84] Creating Layer relu1_2
I0716 00:02:24.675164 14897 net.cpp:406] relu1_2 <- conv1_2
I0716 00:02:24.675181 14897 net.cpp:367] relu1_2 -> conv1_2 (in-place)
I0716 00:02:24.675431 14897 net.cpp:122] Setting up relu1_2
I0716 00:02:24.675446 14897 net.cpp:129] Top shape: 1 64 710 508 (23083520)
I0716 00:02:24.675449 14897 net.cpp:137] Memory required for data: 386478092
I0716 00:02:24.675454 14897 layer_factory.hpp:77] Creating layer pool1
I0716 00:02:24.675463 14897 net.cpp:84] Creating Layer pool1
I0716 00:02:24.675468 14897 net.cpp:406] pool1 <- conv1_2
I0716 00:02:24.675477 14897 net.cpp:380] pool1 -> pool1
I0716 00:02:24.675562 14897 net.cpp:122] Setting up pool1
I0716 00:02:24.675572 14897 net.cpp:129] Top shape: 1 64 355 254 (5770880)
I0716 00:02:24.675577 14897 net.cpp:137] Memory required for data: 409561612
I0716 00:02:24.675581 14897 layer_factory.hpp:77] Creating layer conv2_1
I0716 00:02:24.675593 14897 net.cpp:84] Creating Layer conv2_1
I0716 00:02:24.675597 14897 net.cpp:406] conv2_1 <- pool1
I0716 00:02:24.675606 14897 net.cpp:380] conv2_1 -> conv2_1
I0716 00:02:24.677789 14897 net.cpp:122] Setting up conv2_1
I0716 00:02:24.677808 14897 net.cpp:129] Top shape: 1 128 355 254 (11541760)
I0716 00:02:24.677824 14897 net.cpp:137] Memory required for data: 455728652
I0716 00:02:24.677836 14897 layer_factory.hpp:77] Creating layer relu2_1
I0716 00:02:24.677845 14897 net.cpp:84] Creating Layer relu2_1
I0716 00:02:24.677850 14897 net.cpp:406] relu2_1 <- conv2_1
I0716 00:02:24.677865 14897 net.cpp:367] relu2_1 -> conv2_1 (in-place)
I0716 00:02:24.678104 14897 net.cpp:122] Setting up relu2_1
I0716 00:02:24.678117 14897 net.cpp:129] Top shape: 1 128 355 254 (11541760)
I0716 00:02:24.678122 14897 net.cpp:137] Memory required for data: 501895692
I0716 00:02:24.678126 14897 layer_factory.hpp:77] Creating layer conv2_2
I0716 00:02:24.678153 14897 net.cpp:84] Creating Layer conv2_2
I0716 00:02:24.678158 14897 net.cpp:406] conv2_2 <- conv2_1
I0716 00:02:24.678165 14897 net.cpp:380] conv2_2 -> conv2_2
I0716 00:02:24.682092 14897 net.cpp:122] Setting up conv2_2
I0716 00:02:24.682114 14897 net.cpp:129] Top shape: 1 128 355 254 (11541760)
I0716 00:02:24.682128 14897 net.cpp:137] Memory required for data: 548062732
I0716 00:02:24.682137 14897 layer_factory.hpp:77] Creating layer relu2_2
I0716 00:02:24.682147 14897 net.cpp:84] Creating Layer relu2_2
I0716 00:02:24.682150 14897 net.cpp:406] relu2_2 <- conv2_2
I0716 00:02:24.682169 14897 net.cpp:367] relu2_2 -> conv2_2 (in-place)
I0716 00:02:24.682420 14897 net.cpp:122] Setting up relu2_2
I0716 00:02:24.682432 14897 net.cpp:129] Top shape: 1 128 355 254 (11541760)
I0716 00:02:24.682436 14897 net.cpp:137] Memory required for data: 594229772
I0716 00:02:24.682451 14897 layer_factory.hpp:77] Creating layer pool2
I0716 00:02:24.682462 14897 net.cpp:84] Creating Layer pool2
I0716 00:02:24.682467 14897 net.cpp:406] pool2 <- conv2_2
I0716 00:02:24.682473 14897 net.cpp:380] pool2 -> pool2
I0716 00:02:24.682528 14897 net.cpp:122] Setting up pool2
I0716 00:02:24.682538 14897 net.cpp:129] Top shape: 1 128 178 127 (2893568)
I0716 00:02:24.682541 14897 net.cpp:137] Memory required for data: 605804044
I0716 00:02:24.682545 14897 layer_factory.hpp:77] Creating layer conv3_1
I0716 00:02:24.682559 14897 net.cpp:84] Creating Layer conv3_1
I0716 00:02:24.682567 14897 net.cpp:406] conv3_1 <- pool2
I0716 00:02:24.682576 14897 net.cpp:380] conv3_1 -> conv3_1
I0716 00:02:24.691913 14897 net.cpp:122] Setting up conv3_1
I0716 00:02:24.691975 14897 net.cpp:129] Top shape: 1 256 178 127 (5787136)
I0716 00:02:24.691984 14897 net.cpp:137] Memory required for data: 628952588
I0716 00:02:24.692010 14897 layer_factory.hpp:77] Creating layer relu3_1
I0716 00:02:24.692040 14897 net.cpp:84] Creating Layer relu3_1
I0716 00:02:24.692050 14897 net.cpp:406] relu3_1 <- conv3_1
I0716 00:02:24.692066 14897 net.cpp:367] relu3_1 -> conv3_1 (in-place)
I0716 00:02:24.693229 14897 net.cpp:122] Setting up relu3_1
I0716 00:02:24.693270 14897 net.cpp:129] Top shape: 1 256 178 127 (5787136)
I0716 00:02:24.693279 14897 net.cpp:137] Memory required for data: 652101132
I0716 00:02:24.693286 14897 layer_factory.hpp:77] Creating layer conv3_2
I0716 00:02:24.693305 14897 net.cpp:84] Creating Layer conv3_2
I0716 00:02:24.693325 14897 net.cpp:406] conv3_2 <- conv3_1
I0716 00:02:24.693342 14897 net.cpp:380] conv3_2 -> conv3_2
I0716 00:02:24.701007 14897 net.cpp:122] Setting up conv3_2
I0716 00:02:24.701052 14897 net.cpp:129] Top shape: 1 256 178 127 (5787136)
I0716 00:02:24.701061 14897 net.cpp:137] Memory required for data: 675249676
I0716 00:02:24.701077 14897 layer_factory.hpp:77] Creating layer relu3_2
I0716 00:02:24.701105 14897 net.cpp:84] Creating Layer relu3_2
I0716 00:02:24.701122 14897 net.cpp:406] relu3_2 <- conv3_2
I0716 00:02:24.701133 14897 net.cpp:367] relu3_2 -> conv3_2 (in-place)
I0716 00:02:24.702324 14897 net.cpp:122] Setting up relu3_2
I0716 00:02:24.702360 14897 net.cpp:129] Top shape: 1 256 178 127 (5787136)
I0716 00:02:24.702368 14897 net.cpp:137] Memory required for data: 698398220
I0716 00:02:24.702376 14897 layer_factory.hpp:77] Creating layer conv3_3
I0716 00:02:24.702396 14897 net.cpp:84] Creating Layer conv3_3
I0716 00:02:24.702405 14897 net.cpp:406] conv3_3 <- conv3_2
I0716 00:02:24.702430 14897 net.cpp:380] conv3_3 -> conv3_3
I0716 00:02:24.714818 14897 net.cpp:122] Setting up conv3_3
I0716 00:02:24.714861 14897 net.cpp:129] Top shape: 1 256 178 127 (5787136)
I0716 00:02:24.714869 14897 net.cpp:137] Memory required for data: 721546764
I0716 00:02:24.714885 14897 layer_factory.hpp:77] Creating layer relu3_3
I0716 00:02:24.714900 14897 net.cpp:84] Creating Layer relu3_3
I0716 00:02:24.714918 14897 net.cpp:406] relu3_3 <- conv3_3
I0716 00:02:24.714933 14897 net.cpp:367] relu3_3 -> conv3_3 (in-place)
I0716 00:02:24.715355 14897 net.cpp:122] Setting up relu3_3
I0716 00:02:24.715378 14897 net.cpp:129] Top shape: 1 256 178 127 (5787136)
I0716 00:02:24.715392 14897 net.cpp:137] Memory required for data: 744695308
I0716 00:02:24.715400 14897 layer_factory.hpp:77] Creating layer pool3
I0716 00:02:24.715438 14897 net.cpp:84] Creating Layer pool3
I0716 00:02:24.715445 14897 net.cpp:406] pool3 <- conv3_3
I0716 00:02:24.715467 14897 net.cpp:380] pool3 -> pool3
I0716 00:02:24.715560 14897 net.cpp:122] Setting up pool3
I0716 00:02:24.715574 14897 net.cpp:129] Top shape: 1 256 89 64 (1458176)
I0716 00:02:24.715581 14897 net.cpp:137] Memory required for data: 750528012
I0716 00:02:24.715587 14897 layer_factory.hpp:77] Creating layer pool3_pool3_0_split
I0716 00:02:24.715610 14897 net.cpp:84] Creating Layer pool3_pool3_0_split
I0716 00:02:24.715617 14897 net.cpp:406] pool3_pool3_0_split <- pool3
I0716 00:02:24.715627 14897 net.cpp:380] pool3_pool3_0_split -> pool3_pool3_0_split_0
I0716 00:02:24.715639 14897 net.cpp:380] pool3_pool3_0_split -> pool3_pool3_0_split_1
I0716 00:02:24.715715 14897 net.cpp:122] Setting up pool3_pool3_0_split
I0716 00:02:24.715729 14897 net.cpp:129] Top shape: 1 256 89 64 (1458176)
I0716 00:02:24.715739 14897 net.cpp:129] Top shape: 1 256 89 64 (1458176)
I0716 00:02:24.715744 14897 net.cpp:137] Memory required for data: 762193420
I0716 00:02:24.715750 14897 layer_factory.hpp:77] Creating layer conv4_1
I0716 00:02:24.715771 14897 net.cpp:84] Creating Layer conv4_1
I0716 00:02:24.715780 14897 net.cpp:406] conv4_1 <- pool3_pool3_0_split_0
I0716 00:02:24.715793 14897 net.cpp:380] conv4_1 -> conv4_1
I0716 00:02:24.729768 14897 net.cpp:122] Setting up conv4_1
I0716 00:02:24.729792 14897 net.cpp:129] Top shape: 1 512 89 64 (2916352)
I0716 00:02:24.729797 14897 net.cpp:137] Memory required for data: 773858828
I0716 00:02:24.729810 14897 layer_factory.hpp:77] Creating layer relu4_1
I0716 00:02:24.729831 14897 net.cpp:84] Creating Layer relu4_1
I0716 00:02:24.729836 14897 net.cpp:406] relu4_1 <- conv4_1
I0716 00:02:24.729845 14897 net.cpp:367] relu4_1 -> conv4_1 (in-place)
I0716 00:02:24.730108 14897 net.cpp:122] Setting up relu4_1
I0716 00:02:24.730123 14897 net.cpp:129] Top shape: 1 512 89 64 (2916352)
I0716 00:02:24.730126 14897 net.cpp:137] Memory required for data: 785524236
I0716 00:02:24.730131 14897 layer_factory.hpp:77] Creating layer conv4_2
I0716 00:02:24.730144 14897 net.cpp:84] Creating Layer conv4_2
I0716 00:02:24.730149 14897 net.cpp:406] conv4_2 <- conv4_1
I0716 00:02:24.730159 14897 net.cpp:380] conv4_2 -> conv4_2
I0716 00:02:24.739827 14897 net.cpp:122] Setting up conv4_2
I0716 00:02:24.739866 14897 net.cpp:129] Top shape: 1 512 89 64 (2916352)
I0716 00:02:24.739871 14897 net.cpp:137] Memory required for data: 797189644
I0716 00:02:24.739888 14897 layer_factory.hpp:77] Creating layer relu4_2
I0716 00:02:24.739902 14897 net.cpp:84] Creating Layer relu4_2
I0716 00:02:24.739907 14897 net.cpp:406] relu4_2 <- conv4_2
I0716 00:02:24.739925 14897 net.cpp:367] relu4_2 -> conv4_2 (in-place)
I0716 00:02:24.740201 14897 net.cpp:122] Setting up relu4_2
I0716 00:02:24.740216 14897 net.cpp:129] Top shape: 1 512 89 64 (2916352)
I0716 00:02:24.740219 14897 net.cpp:137] Memory required for data: 808855052
I0716 00:02:24.740224 14897 layer_factory.hpp:77] Creating layer conv4_3
I0716 00:02:24.740237 14897 net.cpp:84] Creating Layer conv4_3
I0716 00:02:24.740242 14897 net.cpp:406] conv4_3 <- conv4_2
I0716 00:02:24.740252 14897 net.cpp:380] conv4_3 -> conv4_3
I0716 00:02:24.755801 14897 net.cpp:122] Setting up conv4_3
I0716 00:02:24.755864 14897 net.cpp:129] Top shape: 1 512 89 64 (2916352)
I0716 00:02:24.755872 14897 net.cpp:137] Memory required for data: 820520460
I0716 00:02:24.755890 14897 layer_factory.hpp:77] Creating layer relu4_3
I0716 00:02:24.755909 14897 net.cpp:84] Creating Layer relu4_3
I0716 00:02:24.755918 14897 net.cpp:406] relu4_3 <- conv4_3
I0716 00:02:24.755937 14897 net.cpp:367] relu4_3 -> conv4_3 (in-place)
I0716 00:02:24.756347 14897 net.cpp:122] Setting up relu4_3
I0716 00:02:24.756378 14897 net.cpp:129] Top shape: 1 512 89 64 (2916352)
I0716 00:02:24.756386 14897 net.cpp:137] Memory required for data: 832185868
I0716 00:02:24.756393 14897 layer_factory.hpp:77] Creating layer pool4
I0716 00:02:24.756407 14897 net.cpp:84] Creating Layer pool4
I0716 00:02:24.756415 14897 net.cpp:406] pool4 <- conv4_3
I0716 00:02:24.756435 14897 net.cpp:380] pool4 -> pool4
I0716 00:02:24.756523 14897 net.cpp:122] Setting up pool4
I0716 00:02:24.756541 14897 net.cpp:129] Top shape: 1 512 45 32 (737280)
I0716 00:02:24.756547 14897 net.cpp:137] Memory required for data: 835134988
I0716 00:02:24.756554 14897 layer_factory.hpp:77] Creating layer pool4_pool4_0_split
I0716 00:02:24.756566 14897 net.cpp:84] Creating Layer pool4_pool4_0_split
I0716 00:02:24.756572 14897 net.cpp:406] pool4_pool4_0_split <- pool4
I0716 00:02:24.756582 14897 net.cpp:380] pool4_pool4_0_split -> pool4_pool4_0_split_0
I0716 00:02:24.756594 14897 net.cpp:380] pool4_pool4_0_split -> pool4_pool4_0_split_1
I0716 00:02:24.756669 14897 net.cpp:122] Setting up pool4_pool4_0_split
I0716 00:02:24.756681 14897 net.cpp:129] Top shape: 1 512 45 32 (737280)
I0716 00:02:24.756690 14897 net.cpp:129] Top shape: 1 512 45 32 (737280)
I0716 00:02:24.756700 14897 net.cpp:137] Memory required for data: 841033228
I0716 00:02:24.756709 14897 layer_factory.hpp:77] Creating layer conv5_1
I0716 00:02:24.756731 14897 net.cpp:84] Creating Layer conv5_1
I0716 00:02:24.756738 14897 net.cpp:406] conv5_1 <- pool4_pool4_0_split_0
I0716 00:02:24.756769 14897 net.cpp:380] conv5_1 -> conv5_1
I0716 00:02:24.773411 14897 net.cpp:122] Setting up conv5_1
I0716 00:02:24.773455 14897 net.cpp:129] Top shape: 1 512 45 32 (737280)
I0716 00:02:24.773463 14897 net.cpp:137] Memory required for data: 843982348
I0716 00:02:24.773479 14897 layer_factory.hpp:77] Creating layer relu5_1
I0716 00:02:24.773494 14897 net.cpp:84] Creating Layer relu5_1
I0716 00:02:24.773502 14897 net.cpp:406] relu5_1 <- conv5_1
I0716 00:02:24.773519 14897 net.cpp:367] relu5_1 -> conv5_1 (in-place)
I0716 00:02:24.774791 14897 net.cpp:122] Setting up relu5_1
I0716 00:02:24.774829 14897 net.cpp:129] Top shape: 1 512 45 32 (737280)
I0716 00:02:24.774837 14897 net.cpp:137] Memory required for data: 846931468
I0716 00:02:24.774844 14897 layer_factory.hpp:77] Creating layer conv5_2
I0716 00:02:24.774866 14897 net.cpp:84] Creating Layer conv5_2
I0716 00:02:24.774884 14897 net.cpp:406] conv5_2 <- conv5_1
I0716 00:02:24.774910 14897 net.cpp:380] conv5_2 -> conv5_2
I0716 00:02:24.788425 14897 net.cpp:122] Setting up conv5_2
I0716 00:02:24.788447 14897 net.cpp:129] Top shape: 1 512 45 32 (737280)
I0716 00:02:24.788462 14897 net.cpp:137] Memory required for data: 849880588
I0716 00:02:24.788472 14897 layer_factory.hpp:77] Creating layer relu5_2
I0716 00:02:24.788493 14897 net.cpp:84] Creating Layer relu5_2
I0716 00:02:24.788498 14897 net.cpp:406] relu5_2 <- conv5_2
I0716 00:02:24.788506 14897 net.cpp:367] relu5_2 -> conv5_2 (in-place)
I0716 00:02:24.789322 14897 net.cpp:122] Setting up relu5_2
I0716 00:02:24.789340 14897 net.cpp:129] Top shape: 1 512 45 32 (737280)
I0716 00:02:24.789357 14897 net.cpp:137] Memory required for data: 852829708
I0716 00:02:24.789361 14897 layer_factory.hpp:77] Creating layer conv5_3
I0716 00:02:24.789381 14897 net.cpp:84] Creating Layer conv5_3
I0716 00:02:24.789386 14897 net.cpp:406] conv5_3 <- conv5_2
I0716 00:02:24.789398 14897 net.cpp:380] conv5_3 -> conv5_3
I0716 00:02:24.798548 14897 net.cpp:122] Setting up conv5_3
I0716 00:02:24.798584 14897 net.cpp:129] Top shape: 1 512 45 32 (737280)
I0716 00:02:24.798588 14897 net.cpp:137] Memory required for data: 855778828
I0716 00:02:24.798599 14897 layer_factory.hpp:77] Creating layer relu5_3
I0716 00:02:24.798607 14897 net.cpp:84] Creating Layer relu5_3
I0716 00:02:24.798612 14897 net.cpp:406] relu5_3 <- conv5_3
I0716 00:02:24.798619 14897 net.cpp:367] relu5_3 -> conv5_3 (in-place)
I0716 00:02:24.798851 14897 net.cpp:122] Setting up relu5_3
I0716 00:02:24.798866 14897 net.cpp:129] Top shape: 1 512 45 32 (737280)
I0716 00:02:24.798883 14897 net.cpp:137] Memory required for data: 858727948
I0716 00:02:24.798887 14897 layer_factory.hpp:77] Creating layer pool5
I0716 00:02:24.798899 14897 net.cpp:84] Creating Layer pool5
I0716 00:02:24.798903 14897 net.cpp:406] pool5 <- conv5_3
I0716 00:02:24.798918 14897 net.cpp:380] pool5 -> pool5
I0716 00:02:24.798972 14897 net.cpp:122] Setting up pool5
I0716 00:02:24.798982 14897 net.cpp:129] Top shape: 1 512 23 16 (188416)
I0716 00:02:24.798985 14897 net.cpp:137] Memory required for data: 859481612
I0716 00:02:24.798990 14897 layer_factory.hpp:77] Creating layer fc6
I0716 00:02:24.799002 14897 net.cpp:84] Creating Layer fc6
I0716 00:02:24.799007 14897 net.cpp:406] fc6 <- pool5
I0716 00:02:24.799016 14897 net.cpp:380] fc6 -> fc6
I0716 00:02:25.142405 14897 net.cpp:122] Setting up fc6
I0716 00:02:25.142478 14897 net.cpp:129] Top shape: 1 4096 17 10 (696320)
I0716 00:02:25.142484 14897 net.cpp:137] Memory required for data: 862266892
I0716 00:02:25.142539 14897 layer_factory.hpp:77] Creating layer relu6
I0716 00:02:25.142580 14897 net.cpp:84] Creating Layer relu6
I0716 00:02:25.142607 14897 net.cpp:406] relu6 <- fc6
I0716 00:02:25.142623 14897 net.cpp:367] relu6 -> fc6 (in-place)
I0716 00:02:25.142892 14897 net.cpp:122] Setting up relu6
I0716 00:02:25.142904 14897 net.cpp:129] Top shape: 1 4096 17 10 (696320)
I0716 00:02:25.142908 14897 net.cpp:137] Memory required for data: 865052172
I0716 00:02:25.142912 14897 layer_factory.hpp:77] Creating layer drop6
I0716 00:02:25.142946 14897 net.cpp:84] Creating Layer drop6
I0716 00:02:25.142951 14897 net.cpp:406] drop6 <- fc6
I0716 00:02:25.142958 14897 net.cpp:367] drop6 -> fc6 (in-place)
I0716 00:02:25.142997 14897 net.cpp:122] Setting up drop6
I0716 00:02:25.143005 14897 net.cpp:129] Top shape: 1 4096 17 10 (696320)
I0716 00:02:25.143009 14897 net.cpp:137] Memory required for data: 867837452
I0716 00:02:25.143013 14897 layer_factory.hpp:77] Creating layer fc7
I0716 00:02:25.143029 14897 net.cpp:84] Creating Layer fc7
I0716 00:02:25.143034 14897 net.cpp:406] fc7 <- fc6
I0716 00:02:25.143041 14897 net.cpp:380] fc7 -> fc7
I0716 00:02:25.196794 14897 net.cpp:122] Setting up fc7
I0716 00:02:25.196843 14897 net.cpp:129] Top shape: 1 4096 17 10 (696320)
I0716 00:02:25.196848 14897 net.cpp:137] Memory required for data: 870622732
I0716 00:02:25.196866 14897 layer_factory.hpp:77] Creating layer relu7
I0716 00:02:25.196903 14897 net.cpp:84] Creating Layer relu7
I0716 00:02:25.196910 14897 net.cpp:406] relu7 <- fc7
I0716 00:02:25.196919 14897 net.cpp:367] relu7 -> fc7 (in-place)
I0716 00:02:25.197170 14897 net.cpp:122] Setting up relu7
I0716 00:02:25.197183 14897 net.cpp:129] Top shape: 1 4096 17 10 (696320)
I0716 00:02:25.197187 14897 net.cpp:137] Memory required for data: 873408012
I0716 00:02:25.197192 14897 layer_factory.hpp:77] Creating layer drop7
I0716 00:02:25.197201 14897 net.cpp:84] Creating Layer drop7
I0716 00:02:25.197206 14897 net.cpp:406] drop7 <- fc7
I0716 00:02:25.197214 14897 net.cpp:367] drop7 -> fc7 (in-place)
I0716 00:02:25.197252 14897 net.cpp:122] Setting up drop7
I0716 00:02:25.197259 14897 net.cpp:129] Top shape: 1 4096 17 10 (696320)
I0716 00:02:25.197276 14897 net.cpp:137] Memory required for data: 876193292
I0716 00:02:25.197289 14897 layer_factory.hpp:77] Creating layer score_fr-new
I0716 00:02:25.197306 14897 net.cpp:84] Creating Layer score_fr-new
I0716 00:02:25.197311 14897 net.cpp:406] score_fr-new <- fc7
I0716 00:02:25.197327 14897 net.cpp:380] score_fr-new -> score_fr-new
I0716 00:02:25.200357 14897 net.cpp:122] Setting up score_fr-new
I0716 00:02:25.200376 14897 net.cpp:129] Top shape: 1 3 17 10 (510)
I0716 00:02:25.200392 14897 net.cpp:137] Memory required for data: 876195332
I0716 00:02:25.200402 14897 layer_factory.hpp:77] Creating layer upscore2-new
I0716 00:02:25.200433 14897 net.cpp:84] Creating Layer upscore2-new
I0716 00:02:25.200438 14897 net.cpp:406] upscore2-new <- score_fr-new
I0716 00:02:25.200446 14897 net.cpp:380] upscore2-new -> upscore2-new
I0716 00:02:25.200763 14897 net.cpp:122] Setting up upscore2-new
I0716 00:02:25.200776 14897 net.cpp:129] Top shape: 1 3 36 22 (2376)
I0716 00:02:25.200793 14897 net.cpp:137] Memory required for data: 876204836
I0716 00:02:25.200830 14897 layer_factory.hpp:77] Creating layer upscore2-new_upscore2-new_0_split
I0716 00:02:25.200840 14897 net.cpp:84] Creating Layer upscore2-new_upscore2-new_0_split
I0716 00:02:25.200845 14897 net.cpp:406] upscore2-new_upscore2-new_0_split <- upscore2-new
I0716 00:02:25.200860 14897 net.cpp:380] upscore2-new_upscore2-new_0_split -> upscore2-new_upscore2-new_0_split_0
I0716 00:02:25.200870 14897 net.cpp:380] upscore2-new_upscore2-new_0_split -> upscore2-new_upscore2-new_0_split_1
I0716 00:02:25.200943 14897 net.cpp:122] Setting up upscore2-new_upscore2-new_0_split
I0716 00:02:25.200958 14897 net.cpp:129] Top shape: 1 3 36 22 (2376)
I0716 00:02:25.200963 14897 net.cpp:129] Top shape: 1 3 36 22 (2376)
I0716 00:02:25.200966 14897 net.cpp:137] Memory required for data: 876223844
I0716 00:02:25.200970 14897 layer_factory.hpp:77] Creating layer score_pool4-new
I0716 00:02:25.200989 14897 net.cpp:84] Creating Layer score_pool4-new
I0716 00:02:25.200994 14897 net.cpp:406] score_pool4-new <- pool4_pool4_0_split_1
I0716 00:02:25.201004 14897 net.cpp:380] score_pool4-new -> score_pool4-new
I0716 00:02:25.202718 14897 net.cpp:122] Setting up score_pool4-new
I0716 00:02:25.202736 14897 net.cpp:129] Top shape: 1 3 45 32 (4320)
I0716 00:02:25.202754 14897 net.cpp:137] Memory required for data: 876241124
I0716 00:02:25.202770 14897 layer_factory.hpp:77] Creating layer score_pool4c
I0716 00:02:25.202797 14897 net.cpp:84] Creating Layer score_pool4c
I0716 00:02:25.202802 14897 net.cpp:406] score_pool4c <- score_pool4-new
I0716 00:02:25.202808 14897 net.cpp:406] score_pool4c <- upscore2-new_upscore2-new_0_split_0
I0716 00:02:25.202814 14897 net.cpp:380] score_pool4c -> score_pool4c
I0716 00:02:25.202857 14897 net.cpp:122] Setting up score_pool4c
I0716 00:02:25.202867 14897 net.cpp:129] Top shape: 1 3 36 22 (2376)
I0716 00:02:25.202869 14897 net.cpp:137] Memory required for data: 876250628
I0716 00:02:25.202873 14897 layer_factory.hpp:77] Creating layer fuse_pool4
I0716 00:02:25.202889 14897 net.cpp:84] Creating Layer fuse_pool4
I0716 00:02:25.202895 14897 net.cpp:406] fuse_pool4 <- upscore2-new_upscore2-new_0_split_1
I0716 00:02:25.202901 14897 net.cpp:406] fuse_pool4 <- score_pool4c
I0716 00:02:25.202911 14897 net.cpp:380] fuse_pool4 -> fuse_pool4
I0716 00:02:25.202956 14897 net.cpp:122] Setting up fuse_pool4
I0716 00:02:25.202970 14897 net.cpp:129] Top shape: 1 3 36 22 (2376)
I0716 00:02:25.202981 14897 net.cpp:137] Memory required for data: 876260132
I0716 00:02:25.202987 14897 layer_factory.hpp:77] Creating layer upscore_pool4-new
I0716 00:02:25.203001 14897 net.cpp:84] Creating Layer upscore_pool4-new
I0716 00:02:25.203012 14897 net.cpp:406] upscore_pool4-new <- fuse_pool4
I0716 00:02:25.203022 14897 net.cpp:380] upscore_pool4-new -> upscore_pool4-new
I0716 00:02:25.203377 14897 net.cpp:122] Setting up upscore_pool4-new
I0716 00:02:25.203390 14897 net.cpp:129] Top shape: 1 3 74 46 (10212)
I0716 00:02:25.203394 14897 net.cpp:137] Memory required for data: 876300980
I0716 00:02:25.203400 14897 layer_factory.hpp:77] Creating layer upscore_pool4-new_upscore_pool4-new_0_split
I0716 00:02:25.203407 14897 net.cpp:84] Creating Layer upscore_pool4-new_upscore_pool4-new_0_split
I0716 00:02:25.203411 14897 net.cpp:406] upscore_pool4-new_upscore_pool4-new_0_split <- upscore_pool4-new
I0716 00:02:25.203418 14897 net.cpp:380] upscore_pool4-new_upscore_pool4-new_0_split -> upscore_pool4-new_upscore_pool4-new_0_split_0
I0716 00:02:25.203425 14897 net.cpp:380] upscore_pool4-new_upscore_pool4-new_0_split -> upscore_pool4-new_upscore_pool4-new_0_split_1
I0716 00:02:25.203486 14897 net.cpp:122] Setting up upscore_pool4-new_upscore_pool4-new_0_split
I0716 00:02:25.203500 14897 net.cpp:129] Top shape: 1 3 74 46 (10212)
I0716 00:02:25.203510 14897 net.cpp:129] Top shape: 1 3 74 46 (10212)
I0716 00:02:25.203516 14897 net.cpp:137] Memory required for data: 876382676
I0716 00:02:25.203531 14897 layer_factory.hpp:77] Creating layer score_pool3-new
I0716 00:02:25.203543 14897 net.cpp:84] Creating Layer score_pool3-new
I0716 00:02:25.203547 14897 net.cpp:406] score_pool3-new <- pool3_pool3_0_split_1
I0716 00:02:25.203555 14897 net.cpp:380] score_pool3-new -> score_pool3-new
I0716 00:02:25.207849 14897 net.cpp:122] Setting up score_pool3-new
I0716 00:02:25.207902 14897 net.cpp:129] Top shape: 1 3 89 64 (17088)
I0716 00:02:25.207911 14897 net.cpp:137] Memory required for data: 876451028
I0716 00:02:25.207934 14897 layer_factory.hpp:77] Creating layer score_pool3c
I0716 00:02:25.207959 14897 net.cpp:84] Creating Layer score_pool3c
I0716 00:02:25.207974 14897 net.cpp:406] score_pool3c <- score_pool3-new
I0716 00:02:25.207988 14897 net.cpp:406] score_pool3c <- upscore_pool4-new_upscore_pool4-new_0_split_0
I0716 00:02:25.208006 14897 net.cpp:380] score_pool3c -> score_pool3c
I0716 00:02:25.208078 14897 net.cpp:122] Setting up score_pool3c
I0716 00:02:25.208093 14897 net.cpp:129] Top shape: 1 3 74 46 (10212)
I0716 00:02:25.208101 14897 net.cpp:137] Memory required for data: 876491876
I0716 00:02:25.208107 14897 layer_factory.hpp:77] Creating layer fuse_pool3
I0716 00:02:25.208135 14897 net.cpp:84] Creating Layer fuse_pool3
I0716 00:02:25.208143 14897 net.cpp:406] fuse_pool3 <- upscore_pool4-new_upscore_pool4-new_0_split_1
I0716 00:02:25.208153 14897 net.cpp:406] fuse_pool3 <- score_pool3c
I0716 00:02:25.208164 14897 net.cpp:380] fuse_pool3 -> fuse_pool3
I0716 00:02:25.208217 14897 net.cpp:122] Setting up fuse_pool3
I0716 00:02:25.208230 14897 net.cpp:129] Top shape: 1 3 74 46 (10212)
I0716 00:02:25.208237 14897 net.cpp:137] Memory required for data: 876532724
I0716 00:02:25.208245 14897 layer_factory.hpp:77] Creating layer upscore8-new
I0716 00:02:25.208262 14897 net.cpp:84] Creating Layer upscore8-new
I0716 00:02:25.208271 14897 net.cpp:406] upscore8-new <- fuse_pool3
I0716 00:02:25.208286 14897 net.cpp:380] upscore8-new -> upscore8-new
I0716 00:02:25.208740 14897 net.cpp:122] Setting up upscore8-new
I0716 00:02:25.208755 14897 net.cpp:129] Top shape: 1 3 600 376 (676800)
I0716 00:02:25.208762 14897 net.cpp:137] Memory required for data: 879239924
I0716 00:02:25.208772 14897 layer_factory.hpp:77] Creating layer upscore8_cropped
I0716 00:02:25.208793 14897 net.cpp:84] Creating Layer upscore8_cropped
I0716 00:02:25.208801 14897 net.cpp:406] upscore8_cropped <- upscore8-new
I0716 00:02:25.208817 14897 net.cpp:406] upscore8_cropped <- data_data_0_split_1
I0716 00:02:25.208832 14897 net.cpp:380] upscore8_cropped -> upscore8_cropped
I0716 00:02:25.208886 14897 net.cpp:122] Setting up upscore8_cropped
I0716 00:02:25.208899 14897 net.cpp:129] Top shape: 1 3 512 310 (476160)
I0716 00:02:25.208905 14897 net.cpp:137] Memory required for data: 881144564
I0716 00:02:25.208911 14897 layer_factory.hpp:77] Creating layer upscore8_cropped_upscore8_cropped_0_split
I0716 00:02:25.208925 14897 net.cpp:84] Creating Layer upscore8_cropped_upscore8_cropped_0_split
I0716 00:02:25.208932 14897 net.cpp:406] upscore8_cropped_upscore8_cropped_0_split <- upscore8_cropped
I0716 00:02:25.208945 14897 net.cpp:380] upscore8_cropped_upscore8_cropped_0_split -> upscore8_cropped_upscore8_cropped_0_split_0
I0716 00:02:25.208958 14897 net.cpp:380] upscore8_cropped_upscore8_cropped_0_split -> upscore8_cropped_upscore8_cropped_0_split_1
I0716 00:02:25.209029 14897 net.cpp:122] Setting up upscore8_cropped_upscore8_cropped_0_split
I0716 00:02:25.209043 14897 net.cpp:129] Top shape: 1 3 512 310 (476160)
I0716 00:02:25.209053 14897 net.cpp:129] Top shape: 1 3 512 310 (476160)
I0716 00:02:25.209059 14897 net.cpp:137] Memory required for data: 884953844
I0716 00:02:25.209065 14897 layer_factory.hpp:77] Creating layer prob
I0716 00:02:25.209077 14897 net.cpp:84] Creating Layer prob
I0716 00:02:25.209084 14897 net.cpp:406] prob <- upscore8_cropped_upscore8_cropped_0_split_0
I0716 00:02:25.209102 14897 net.cpp:380] prob -> prob
I0716 00:02:25.209527 14897 net.cpp:122] Setting up prob
I0716 00:02:25.209547 14897 net.cpp:129] Top shape: 1 3 512 310 (476160)
I0716 00:02:25.209555 14897 net.cpp:137] Memory required for data: 886858484
I0716 00:02:25.209564 14897 layer_factory.hpp:77] Creating layer prob_prob_0_split
I0716 00:02:25.209575 14897 net.cpp:84] Creating Layer prob_prob_0_split
I0716 00:02:25.209583 14897 net.cpp:406] prob_prob_0_split <- prob
I0716 00:02:25.209595 14897 net.cpp:380] prob_prob_0_split -> prob_prob_0_split_0
I0716 00:02:25.209607 14897 net.cpp:380] prob_prob_0_split -> prob_prob_0_split_1
I0716 00:02:25.209686 14897 net.cpp:122] Setting up prob_prob_0_split
I0716 00:02:25.209699 14897 net.cpp:129] Top shape: 1 3 512 310 (476160)
I0716 00:02:25.209708 14897 net.cpp:129] Top shape: 1 3 512 310 (476160)
I0716 00:02:25.209715 14897 net.cpp:137] Memory required for data: 890667764
I0716 00:02:25.209722 14897 layer_factory.hpp:77] Creating layer saliency1
I0716 00:02:25.209745 14897 net.cpp:84] Creating Layer saliency1
I0716 00:02:25.209758 14897 net.cpp:406] saliency1 <- prob_prob_0_split_0
I0716 00:02:25.209770 14897 net.cpp:380] saliency1 -> saliency1
I0716 00:02:25.214682 14897 net.cpp:122] Setting up saliency1
I0716 00:02:25.214711 14897 net.cpp:129] Top shape: 1 3 512 310 (476160)
I0716 00:02:25.214720 14897 net.cpp:137] Memory required for data: 892572404
I0716 00:02:25.214741 14897 layer_factory.hpp:77] Creating layer relu_saliency1
I0716 00:02:25.214759 14897 net.cpp:84] Creating Layer relu_saliency1
I0716 00:02:25.214767 14897 net.cpp:406] relu_saliency1 <- saliency1
I0716 00:02:25.214779 14897 net.cpp:367] relu_saliency1 -> saliency1 (in-place)
I0716 00:02:25.215188 14897 net.cpp:122] Setting up relu_saliency1
I0716 00:02:25.215206 14897 net.cpp:129] Top shape: 1 3 512 310 (476160)
I0716 00:02:25.215214 14897 net.cpp:137] Memory required for data: 894477044
I0716 00:02:25.215220 14897 layer_factory.hpp:77] Creating layer saliency
I0716 00:02:25.215255 14897 net.cpp:84] Creating Layer saliency
I0716 00:02:25.215263 14897 net.cpp:406] saliency <- saliency1
I0716 00:02:25.215327 14897 net.cpp:380] saliency -> saliency
I0716 00:02:25.217905 14897 net.cpp:122] Setting up saliency
I0716 00:02:25.217922 14897 net.cpp:129] Top shape: 1 3 512 310 (476160)
I0716 00:02:25.217938 14897 net.cpp:137] Memory required for data: 896381684
I0716 00:02:25.217949 14897 layer_factory.hpp:77] Creating layer saliency_data
I0716 00:02:25.217959 14897 net.cpp:84] Creating Layer saliency_data
I0716 00:02:25.217964 14897 net.cpp:406] saliency_data <- data_data_0_split_2
I0716 00:02:25.217972 14897 net.cpp:406] saliency_data <- saliency
I0716 00:02:25.217986 14897 net.cpp:380] saliency_data -> saliency_data
I0716 00:02:25.218024 14897 net.cpp:122] Setting up saliency_data
I0716 00:02:25.218034 14897 net.cpp:129] Top shape: 1 3 512 310 (476160)
I0716 00:02:25.218037 14897 net.cpp:137] Memory required for data: 898286324
I0716 00:02:25.218041 14897 layer_factory.hpp:77] Creating layer crop
I0716 00:02:25.218664 14897 net.cpp:84] Creating Layer crop
I0716 00:02:25.218677 14897 net.cpp:406] crop <- prob_prob_0_split_1
I0716 00:02:25.218695 14897 net.cpp:406] crop <- saliency_data
I0716 00:02:25.218703 14897 net.cpp:406] crop <- crop_margin
I0716 00:02:25.218708 14897 net.cpp:406] crop <- crop_prob
I0716 00:02:25.218713 14897 net.cpp:406] crop <- crop_sample_batch
I0716 00:02:25.218719 14897 net.cpp:406] crop <- label_data_1_split_0
I0716 00:02:25.218726 14897 net.cpp:380] crop -> data-R
I0716 00:02:25.218735 14897 net.cpp:380] crop -> crop_info
I0716 00:02:25.230890 14897 net.cpp:122] Setting up crop
I0716 00:02:25.230916 14897 net.cpp:129] Top shape: 1 3 512 310 (476160)
I0716 00:02:25.230923 14897 net.cpp:129] Top shape: 1 2 4 (8)
I0716 00:02:25.230928 14897 net.cpp:137] Memory required for data: 900190996
I0716 00:02:25.230935 14897 layer_factory.hpp:77] Creating layer data-R_crop_0_split
I0716 00:02:25.230944 14897 net.cpp:84] Creating Layer data-R_crop_0_split
I0716 00:02:25.230950 14897 net.cpp:406] data-R_crop_0_split <- data-R
I0716 00:02:25.230958 14897 net.cpp:380] data-R_crop_0_split -> data-R_crop_0_split_0
I0716 00:02:25.230969 14897 net.cpp:380] data-R_crop_0_split -> data-R_crop_0_split_1
I0716 00:02:25.231032 14897 net.cpp:122] Setting up data-R_crop_0_split
I0716 00:02:25.231040 14897 net.cpp:129] Top shape: 1 3 512 310 (476160)
I0716 00:02:25.231045 14897 net.cpp:129] Top shape: 1 3 512 310 (476160)
I0716 00:02:25.231050 14897 net.cpp:137] Memory required for data: 904000276
I0716 00:02:25.231055 14897 layer_factory.hpp:77] Creating layer conv1_1-R
I0716 00:02:25.231118 14897 net.cpp:84] Creating Layer conv1_1-R
I0716 00:02:25.231145 14897 net.cpp:406] conv1_1-R <- data-R_crop_0_split_0
I0716 00:02:25.231153 14897 net.cpp:380] conv1_1-R -> conv1_1-R
I0716 00:02:25.235391 14897 net.cpp:122] Setting up conv1_1-R
I0716 00:02:25.235411 14897 net.cpp:129] Top shape: 1 64 710 508 (23083520)
I0716 00:02:25.235416 14897 net.cpp:137] Memory required for data: 996334356
I0716 00:02:25.235433 14897 layer_factory.hpp:77] Creating layer relu1_1-R
I0716 00:02:25.235455 14897 net.cpp:84] Creating Layer relu1_1-R
I0716 00:02:25.235460 14897 net.cpp:406] relu1_1-R <- conv1_1-R
I0716 00:02:25.235478 14897 net.cpp:367] relu1_1-R -> conv1_1-R (in-place)
I0716 00:02:25.235739 14897 net.cpp:122] Setting up relu1_1-R
I0716 00:02:25.235752 14897 net.cpp:129] Top shape: 1 64 710 508 (23083520)
I0716 00:02:25.235757 14897 net.cpp:137] Memory required for data: 1088668436
I0716 00:02:25.235762 14897 layer_factory.hpp:77] Creating layer conv1_2-R
I0716 00:02:25.235774 14897 net.cpp:84] Creating Layer conv1_2-R
I0716 00:02:25.235779 14897 net.cpp:406] conv1_2-R <- conv1_1-R
I0716 00:02:25.235786 14897 net.cpp:380] conv1_2-R -> conv1_2-R
I0716 00:02:25.239459 14897 net.cpp:122] Setting up conv1_2-R
I0716 00:02:25.239478 14897 net.cpp:129] Top shape: 1 64 710 508 (23083520)
I0716 00:02:25.239485 14897 net.cpp:137] Memory required for data: 1181002516
I0716 00:02:25.239493 14897 layer_factory.hpp:77] Creating layer relu1_2-R
I0716 00:02:25.239501 14897 net.cpp:84] Creating Layer relu1_2-R
I0716 00:02:25.239507 14897 net.cpp:406] relu1_2-R <- conv1_2-R
I0716 00:02:25.239521 14897 net.cpp:367] relu1_2-R -> conv1_2-R (in-place)
I0716 00:02:25.240326 14897 net.cpp:122] Setting up relu1_2-R
I0716 00:02:25.240342 14897 net.cpp:129] Top shape: 1 64 710 508 (23083520)
I0716 00:02:25.240346 14897 net.cpp:137] Memory required for data: 1273336596
I0716 00:02:25.240357 14897 layer_factory.hpp:77] Creating layer pool1-R
I0716 00:02:25.240370 14897 net.cpp:84] Creating Layer pool1-R
I0716 00:02:25.240391 14897 net.cpp:406] pool1-R <- conv1_2-R
I0716 00:02:25.240398 14897 net.cpp:380] pool1-R -> pool1-R
I0716 00:02:25.240468 14897 net.cpp:122] Setting up pool1-R
I0716 00:02:25.240478 14897 net.cpp:129] Top shape: 1 64 355 254 (5770880)
I0716 00:02:25.240483 14897 net.cpp:137] Memory required for data: 1296420116
I0716 00:02:25.240489 14897 layer_factory.hpp:77] Creating layer conv2_1-R
I0716 00:02:25.240499 14897 net.cpp:84] Creating Layer conv2_1-R
I0716 00:02:25.240504 14897 net.cpp:406] conv2_1-R <- pool1-R
I0716 00:02:25.240510 14897 net.cpp:380] conv2_1-R -> conv2_1-R
I0716 00:02:25.242332 14897 net.cpp:122] Setting up conv2_1-R
I0716 00:02:25.242348 14897 net.cpp:129] Top shape: 1 128 355 254 (11541760)
I0716 00:02:25.242353 14897 net.cpp:137] Memory required for data: 1342587156
I0716 00:02:25.242368 14897 layer_factory.hpp:77] Creating layer relu2_1-R
I0716 00:02:25.242377 14897 net.cpp:84] Creating Layer relu2_1-R
I0716 00:02:25.242382 14897 net.cpp:406] relu2_1-R <- conv2_1-R
I0716 00:02:25.242388 14897 net.cpp:367] relu2_1-R -> conv2_1-R (in-place)
I0716 00:02:25.243171 14897 net.cpp:122] Setting up relu2_1-R
I0716 00:02:25.243187 14897 net.cpp:129] Top shape: 1 128 355 254 (11541760)
I0716 00:02:25.243192 14897 net.cpp:137] Memory required for data: 1388754196
I0716 00:02:25.243204 14897 layer_factory.hpp:77] Creating layer conv2_2-R
I0716 00:02:25.243217 14897 net.cpp:84] Creating Layer conv2_2-R
I0716 00:02:25.243222 14897 net.cpp:406] conv2_2-R <- conv2_1-R
I0716 00:02:25.243230 14897 net.cpp:380] conv2_2-R -> conv2_2-R
I0716 00:02:25.258074 14897 net.cpp:122] Setting up conv2_2-R
I0716 00:02:25.258111 14897 net.cpp:129] Top shape: 1 128 355 254 (11541760)
I0716 00:02:25.258116 14897 net.cpp:137] Memory required for data: 1434921236
I0716 00:02:25.258126 14897 layer_factory.hpp:77] Creating layer relu2_2-R
I0716 00:02:25.258152 14897 net.cpp:84] Creating Layer relu2_2-R
I0716 00:02:25.258158 14897 net.cpp:406] relu2_2-R <- conv2_2-R
I0716 00:02:25.258165 14897 net.cpp:367] relu2_2-R -> conv2_2-R (in-place)
I0716 00:02:25.258528 14897 net.cpp:122] Setting up relu2_2-R
I0716 00:02:25.258543 14897 net.cpp:129] Top shape: 1 128 355 254 (11541760)
I0716 00:02:25.258559 14897 net.cpp:137] Memory required for data: 1481088276
I0716 00:02:25.258607 14897 layer_factory.hpp:77] Creating layer pool2-R
I0716 00:02:25.258627 14897 net.cpp:84] Creating Layer pool2-R
I0716 00:02:25.258635 14897 net.cpp:406] pool2-R <- conv2_2-R
I0716 00:02:25.258651 14897 net.cpp:380] pool2-R -> pool2-R
I0716 00:02:25.258749 14897 net.cpp:122] Setting up pool2-R
I0716 00:02:25.258769 14897 net.cpp:129] Top shape: 1 128 178 127 (2893568)
I0716 00:02:25.258776 14897 net.cpp:137] Memory required for data: 1492662548
I0716 00:02:25.258783 14897 layer_factory.hpp:77] Creating layer conv3_1-R
I0716 00:02:25.258797 14897 net.cpp:84] Creating Layer conv3_1-R
I0716 00:02:25.258802 14897 net.cpp:406] conv3_1-R <- pool2-R
I0716 00:02:25.258816 14897 net.cpp:380] conv3_1-R -> conv3_1-R
I0716 00:02:25.267700 14897 net.cpp:122] Setting up conv3_1-R
I0716 00:02:25.267742 14897 net.cpp:129] Top shape: 1 256 178 127 (5787136)
I0716 00:02:25.267750 14897 net.cpp:137] Memory required for data: 1515811092
I0716 00:02:25.267766 14897 layer_factory.hpp:77] Creating layer relu3_1-R
I0716 00:02:25.267809 14897 net.cpp:84] Creating Layer relu3_1-R
I0716 00:02:25.267822 14897 net.cpp:406] relu3_1-R <- conv3_1-R
I0716 00:02:25.267834 14897 net.cpp:367] relu3_1-R -> conv3_1-R (in-place)
I0716 00:02:25.268340 14897 net.cpp:122] Setting up relu3_1-R
I0716 00:02:25.268375 14897 net.cpp:129] Top shape: 1 256 178 127 (5787136)
I0716 00:02:25.268383 14897 net.cpp:137] Memory required for data: 1538959636
I0716 00:02:25.268391 14897 layer_factory.hpp:77] Creating layer conv3_2-R
I0716 00:02:25.268411 14897 net.cpp:84] Creating Layer conv3_2-R
I0716 00:02:25.268432 14897 net.cpp:406] conv3_2-R <- conv3_1-R
I0716 00:02:25.268445 14897 net.cpp:380] conv3_2-R -> conv3_2-R
I0716 00:02:25.277354 14897 net.cpp:122] Setting up conv3_2-R
I0716 00:02:25.277391 14897 net.cpp:129] Top shape: 1 256 178 127 (5787136)
I0716 00:02:25.277398 14897 net.cpp:137] Memory required for data: 1562108180
I0716 00:02:25.277433 14897 layer_factory.hpp:77] Creating layer relu3_2-R
I0716 00:02:25.277446 14897 net.cpp:84] Creating Layer relu3_2-R
I0716 00:02:25.277452 14897 net.cpp:406] relu3_2-R <- conv3_2-R
I0716 00:02:25.277462 14897 net.cpp:367] relu3_2-R -> conv3_2-R (in-place)
I0716 00:02:25.277827 14897 net.cpp:122] Setting up relu3_2-R
I0716 00:02:25.277859 14897 net.cpp:129] Top shape: 1 256 178 127 (5787136)
I0716 00:02:25.277865 14897 net.cpp:137] Memory required for data: 1585256724
I0716 00:02:25.277873 14897 layer_factory.hpp:77] Creating layer conv3_3-R
I0716 00:02:25.277886 14897 net.cpp:84] Creating Layer conv3_3-R
I0716 00:02:25.277894 14897 net.cpp:406] conv3_3-R <- conv3_2-R
I0716 00:02:25.277915 14897 net.cpp:380] conv3_3-R -> conv3_3-R
I0716 00:02:25.285846 14897 net.cpp:122] Setting up conv3_3-R
I0716 00:02:25.285884 14897 net.cpp:129] Top shape: 1 256 178 127 (5787136)
I0716 00:02:25.285892 14897 net.cpp:137] Memory required for data: 1608405268
I0716 00:02:25.285914 14897 layer_factory.hpp:77] Creating layer relu3_3-R
I0716 00:02:25.285924 14897 net.cpp:84] Creating Layer relu3_3-R
I0716 00:02:25.285943 14897 net.cpp:406] relu3_3-R <- conv3_3-R
I0716 00:02:25.285953 14897 net.cpp:367] relu3_3-R -> conv3_3-R (in-place)
I0716 00:02:25.286367 14897 net.cpp:122] Setting up relu3_3-R
I0716 00:02:25.286401 14897 net.cpp:129] Top shape: 1 256 178 127 (5787136)
I0716 00:02:25.286406 14897 net.cpp:137] Memory required for data: 1631553812
I0716 00:02:25.286412 14897 layer_factory.hpp:77] Creating layer pool3-R
I0716 00:02:25.286463 14897 net.cpp:84] Creating Layer pool3-R
I0716 00:02:25.286470 14897 net.cpp:406] pool3-R <- conv3_3-R
I0716 00:02:25.286480 14897 net.cpp:380] pool3-R -> pool3-R
I0716 00:02:25.286590 14897 net.cpp:122] Setting up pool3-R
I0716 00:02:25.286603 14897 net.cpp:129] Top shape: 1 256 89 64 (1458176)
I0716 00:02:25.286618 14897 net.cpp:137] Memory required for data: 1637386516
I0716 00:02:25.286638 14897 layer_factory.hpp:77] Creating layer pool3-R_pool3-R_0_split
I0716 00:02:25.286654 14897 net.cpp:84] Creating Layer pool3-R_pool3-R_0_split
I0716 00:02:25.286667 14897 net.cpp:406] pool3-R_pool3-R_0_split <- pool3-R
I0716 00:02:25.286698 14897 net.cpp:380] pool3-R_pool3-R_0_split -> pool3-R_pool3-R_0_split_0
I0716 00:02:25.286718 14897 net.cpp:380] pool3-R_pool3-R_0_split -> pool3-R_pool3-R_0_split_1
I0716 00:02:25.286820 14897 net.cpp:122] Setting up pool3-R_pool3-R_0_split
I0716 00:02:25.286841 14897 net.cpp:129] Top shape: 1 256 89 64 (1458176)
I0716 00:02:25.286856 14897 net.cpp:129] Top shape: 1 256 89 64 (1458176)
I0716 00:02:25.286865 14897 net.cpp:137] Memory required for data: 1649051924
I0716 00:02:25.286871 14897 layer_factory.hpp:77] Creating layer conv4_1-R
I0716 00:02:25.286890 14897 net.cpp:84] Creating Layer conv4_1-R
I0716 00:02:25.286900 14897 net.cpp:406] conv4_1-R <- pool3-R_pool3-R_0_split_0
I0716 00:02:25.286916 14897 net.cpp:380] conv4_1-R -> conv4_1-R
I0716 00:02:25.295003 14897 net.cpp:122] Setting up conv4_1-R
I0716 00:02:25.295028 14897 net.cpp:129] Top shape: 1 512 89 64 (2916352)
I0716 00:02:25.295035 14897 net.cpp:137] Memory required for data: 1660717332
I0716 00:02:25.295060 14897 layer_factory.hpp:77] Creating layer relu4_1-R
I0716 00:02:25.295071 14897 net.cpp:84] Creating Layer relu4_1-R
I0716 00:02:25.295078 14897 net.cpp:406] relu4_1-R <- conv4_1-R
I0716 00:02:25.295089 14897 net.cpp:367] relu4_1-R -> conv4_1-R (in-place)
I0716 00:02:25.296316 14897 net.cpp:122] Setting up relu4_1-R
I0716 00:02:25.296340 14897 net.cpp:129] Top shape: 1 512 89 64 (2916352)
I0716 00:02:25.296346 14897 net.cpp:137] Memory required for data: 1672382740
I0716 00:02:25.296365 14897 layer_factory.hpp:77] Creating layer conv4_2-R
I0716 00:02:25.296380 14897 net.cpp:84] Creating Layer conv4_2-R
I0716 00:02:25.296386 14897 net.cpp:406] conv4_2-R <- conv4_1-R
I0716 00:02:25.296399 14897 net.cpp:380] conv4_2-R -> conv4_2-R
I0716 00:02:25.310067 14897 net.cpp:122] Setting up conv4_2-R
I0716 00:02:25.310124 14897 net.cpp:129] Top shape: 1 512 89 64 (2916352)
I0716 00:02:25.310135 14897 net.cpp:137] Memory required for data: 1684048148
I0716 00:02:25.310159 14897 layer_factory.hpp:77] Creating layer relu4_2-R
I0716 00:02:25.310174 14897 net.cpp:84] Creating Layer relu4_2-R
I0716 00:02:25.310189 14897 net.cpp:406] relu4_2-R <- conv4_2-R
I0716 00:02:25.310201 14897 net.cpp:367] relu4_2-R -> conv4_2-R (in-place)
I0716 00:02:25.311676 14897 net.cpp:122] Setting up relu4_2-R
I0716 00:02:25.311705 14897 net.cpp:129] Top shape: 1 512 89 64 (2916352)
I0716 00:02:25.311717 14897 net.cpp:137] Memory required for data: 1695713556
I0716 00:02:25.311724 14897 layer_factory.hpp:77] Creating layer conv4_3-R
I0716 00:02:25.311750 14897 net.cpp:84] Creating Layer conv4_3-R
I0716 00:02:25.311759 14897 net.cpp:406] conv4_3-R <- conv4_2-R
I0716 00:02:25.311774 14897 net.cpp:380] conv4_3-R -> conv4_3-R
I0716 00:02:25.320644 14897 net.cpp:122] Setting up conv4_3-R
I0716 00:02:25.320669 14897 net.cpp:129] Top shape: 1 512 89 64 (2916352)
I0716 00:02:25.320685 14897 net.cpp:137] Memory required for data: 1707378964
I0716 00:02:25.320695 14897 layer_factory.hpp:77] Creating layer relu4_3-R
I0716 00:02:25.320704 14897 net.cpp:84] Creating Layer relu4_3-R
I0716 00:02:25.320710 14897 net.cpp:406] relu4_3-R <- conv4_3-R
I0716 00:02:25.320719 14897 net.cpp:367] relu4_3-R -> conv4_3-R (in-place)
I0716 00:02:25.320948 14897 net.cpp:122] Setting up relu4_3-R
I0716 00:02:25.320961 14897 net.cpp:129] Top shape: 1 512 89 64 (2916352)
I0716 00:02:25.320966 14897 net.cpp:137] Memory required for data: 1719044372
I0716 00:02:25.320971 14897 layer_factory.hpp:77] Creating layer pool4-R
I0716 00:02:25.320981 14897 net.cpp:84] Creating Layer pool4-R
I0716 00:02:25.320986 14897 net.cpp:406] pool4-R <- conv4_3-R
I0716 00:02:25.321002 14897 net.cpp:380] pool4-R -> pool4-R
I0716 00:02:25.321063 14897 net.cpp:122] Setting up pool4-R
I0716 00:02:25.321074 14897 net.cpp:129] Top shape: 1 512 45 32 (737280)
I0716 00:02:25.321077 14897 net.cpp:137] Memory required for data: 1721993492
I0716 00:02:25.321084 14897 layer_factory.hpp:77] Creating layer pool4-R_pool4-R_0_split
I0716 00:02:25.321092 14897 net.cpp:84] Creating Layer pool4-R_pool4-R_0_split
I0716 00:02:25.321097 14897 net.cpp:406] pool4-R_pool4-R_0_split <- pool4-R
I0716 00:02:25.321105 14897 net.cpp:380] pool4-R_pool4-R_0_split -> pool4-R_pool4-R_0_split_0
I0716 00:02:25.321113 14897 net.cpp:380] pool4-R_pool4-R_0_split -> pool4-R_pool4-R_0_split_1
I0716 00:02:25.321161 14897 net.cpp:122] Setting up pool4-R_pool4-R_0_split
I0716 00:02:25.321169 14897 net.cpp:129] Top shape: 1 512 45 32 (737280)
I0716 00:02:25.321174 14897 net.cpp:129] Top shape: 1 512 45 32 (737280)
I0716 00:02:25.321178 14897 net.cpp:137] Memory required for data: 1727891732
I0716 00:02:25.321182 14897 layer_factory.hpp:77] Creating layer conv5_1-R
I0716 00:02:25.321193 14897 net.cpp:84] Creating Layer conv5_1-R
I0716 00:02:25.321198 14897 net.cpp:406] conv5_1-R <- pool4-R_pool4-R_0_split_0
I0716 00:02:25.321207 14897 net.cpp:380] conv5_1-R -> conv5_1-R
I0716 00:02:25.338558 14897 net.cpp:122] Setting up conv5_1-R
I0716 00:02:25.338618 14897 net.cpp:129] Top shape: 1 512 45 32 (737280)
I0716 00:02:25.338627 14897 net.cpp:137] Memory required for data: 1730840852
I0716 00:02:25.338683 14897 layer_factory.hpp:77] Creating layer relu5_1-R
I0716 00:02:25.338702 14897 net.cpp:84] Creating Layer relu5_1-R
I0716 00:02:25.338717 14897 net.cpp:406] relu5_1-R <- conv5_1-R
I0716 00:02:25.338735 14897 net.cpp:367] relu5_1-R -> conv5_1-R (in-place)
I0716 00:02:25.339187 14897 net.cpp:122] Setting up relu5_1-R
I0716 00:02:25.339207 14897 net.cpp:129] Top shape: 1 512 45 32 (737280)
I0716 00:02:25.339226 14897 net.cpp:137] Memory required for data: 1733789972
I0716 00:02:25.339234 14897 layer_factory.hpp:77] Creating layer conv5_2-R
I0716 00:02:25.339254 14897 net.cpp:84] Creating Layer conv5_2-R
I0716 00:02:25.339262 14897 net.cpp:406] conv5_2-R <- conv5_1-R
I0716 00:02:25.339308 14897 net.cpp:380] conv5_2-R -> conv5_2-R
I0716 00:02:25.353909 14897 net.cpp:122] Setting up conv5_2-R
I0716 00:02:25.353945 14897 net.cpp:129] Top shape: 1 512 45 32 (737280)
I0716 00:02:25.353950 14897 net.cpp:137] Memory required for data: 1736739092
I0716 00:02:25.353976 14897 layer_factory.hpp:77] Creating layer relu5_2-R
I0716 00:02:25.354004 14897 net.cpp:84] Creating Layer relu5_2-R
I0716 00:02:25.354010 14897 net.cpp:406] relu5_2-R <- conv5_2-R
I0716 00:02:25.354019 14897 net.cpp:367] relu5_2-R -> conv5_2-R (in-place)
I0716 00:02:25.354281 14897 net.cpp:122] Setting up relu5_2-R
I0716 00:02:25.354295 14897 net.cpp:129] Top shape: 1 512 45 32 (737280)
I0716 00:02:25.354300 14897 net.cpp:137] Memory required for data: 1739688212
I0716 00:02:25.354303 14897 layer_factory.hpp:77] Creating layer conv5_3-R
I0716 00:02:25.354316 14897 net.cpp:84] Creating Layer conv5_3-R
I0716 00:02:25.354321 14897 net.cpp:406] conv5_3-R <- conv5_2-R
I0716 00:02:25.354331 14897 net.cpp:380] conv5_3-R -> conv5_3-R
I0716 00:02:25.364006 14897 net.cpp:122] Setting up conv5_3-R
I0716 00:02:25.364043 14897 net.cpp:129] Top shape: 1 512 45 32 (737280)
I0716 00:02:25.364049 14897 net.cpp:137] Memory required for data: 1742637332
I0716 00:02:25.364061 14897 layer_factory.hpp:77] Creating layer relu5_3-R
I0716 00:02:25.364073 14897 net.cpp:84] Creating Layer relu5_3-R
I0716 00:02:25.364089 14897 net.cpp:406] relu5_3-R <- conv5_3-R
I0716 00:02:25.364099 14897 net.cpp:367] relu5_3-R -> conv5_3-R (in-place)
I0716 00:02:25.364406 14897 net.cpp:122] Setting up relu5_3-R
I0716 00:02:25.364428 14897 net.cpp:129] Top shape: 1 512 45 32 (737280)
I0716 00:02:25.364445 14897 net.cpp:137] Memory required for data: 1745586452
I0716 00:02:25.364450 14897 layer_factory.hpp:77] Creating layer pool5-R
I0716 00:02:25.364476 14897 net.cpp:84] Creating Layer pool5-R
I0716 00:02:25.364482 14897 net.cpp:406] pool5-R <- conv5_3-R
I0716 00:02:25.364493 14897 net.cpp:380] pool5-R -> pool5-R
I0716 00:02:25.364573 14897 net.cpp:122] Setting up pool5-R
I0716 00:02:25.364588 14897 net.cpp:129] Top shape: 1 512 23 16 (188416)
I0716 00:02:25.364593 14897 net.cpp:137] Memory required for data: 1746340116
I0716 00:02:25.364604 14897 layer_factory.hpp:77] Creating layer fc6-R
I0716 00:02:25.364619 14897 net.cpp:84] Creating Layer fc6-R
I0716 00:02:25.364625 14897 net.cpp:406] fc6-R <- pool5-R
I0716 00:02:25.364637 14897 net.cpp:380] fc6-R -> fc6-R
I0716 00:02:25.680193 14897 net.cpp:122] Setting up fc6-R
I0716 00:02:25.680232 14897 net.cpp:129] Top shape: 1 4096 17 10 (696320)
I0716 00:02:25.680243 14897 net.cpp:137] Memory required for data: 1749125396
I0716 00:02:25.680254 14897 layer_factory.hpp:77] Creating layer relu6-R
I0716 00:02:25.680269 14897 net.cpp:84] Creating Layer relu6-R
I0716 00:02:25.680276 14897 net.cpp:406] relu6-R <- fc6-R
I0716 00:02:25.680297 14897 net.cpp:367] relu6-R -> fc6-R (in-place)
I0716 00:02:25.681185 14897 net.cpp:122] Setting up relu6-R
I0716 00:02:25.681202 14897 net.cpp:129] Top shape: 1 4096 17 10 (696320)
I0716 00:02:25.681217 14897 net.cpp:137] Memory required for data: 1751910676
I0716 00:02:25.681222 14897 layer_factory.hpp:77] Creating layer drop6-R
I0716 00:02:25.681243 14897 net.cpp:84] Creating Layer drop6-R
I0716 00:02:25.681259 14897 net.cpp:406] drop6-R <- fc6-R
I0716 00:02:25.681267 14897 net.cpp:367] drop6-R -> fc6-R (in-place)
I0716 00:02:25.681311 14897 net.cpp:122] Setting up drop6-R
I0716 00:02:25.681321 14897 net.cpp:129] Top shape: 1 4096 17 10 (696320)
I0716 00:02:25.681325 14897 net.cpp:137] Memory required for data: 1754695956
I0716 00:02:25.681329 14897 layer_factory.hpp:77] Creating layer fc7-R
I0716 00:02:25.681344 14897 net.cpp:84] Creating Layer fc7-R
I0716 00:02:25.681350 14897 net.cpp:406] fc7-R <- fc6-R
I0716 00:02:25.681360 14897 net.cpp:380] fc7-R -> fc7-R
I0716 00:02:25.731454 14897 net.cpp:122] Setting up fc7-R
I0716 00:02:25.731504 14897 net.cpp:129] Top shape: 1 4096 17 10 (696320)
I0716 00:02:25.731511 14897 net.cpp:137] Memory required for data: 1757481236
I0716 00:02:25.731539 14897 layer_factory.hpp:77] Creating layer relu7-R
I0716 00:02:25.731567 14897 net.cpp:84] Creating Layer relu7-R
I0716 00:02:25.731575 14897 net.cpp:406] relu7-R <- fc7-R
I0716 00:02:25.731582 14897 net.cpp:367] relu7-R -> fc7-R (in-place)
I0716 00:02:25.732625 14897 net.cpp:122] Setting up relu7-R
I0716 00:02:25.732645 14897 net.cpp:129] Top shape: 1 4096 17 10 (696320)
I0716 00:02:25.732661 14897 net.cpp:137] Memory required for data: 1760266516
I0716 00:02:25.732666 14897 layer_factory.hpp:77] Creating layer drop7-R
I0716 00:02:25.732697 14897 net.cpp:84] Creating Layer drop7-R
I0716 00:02:25.732703 14897 net.cpp:406] drop7-R <- fc7-R
I0716 00:02:25.732712 14897 net.cpp:367] drop7-R -> fc7-R (in-place)
I0716 00:02:25.732766 14897 net.cpp:122] Setting up drop7-R
I0716 00:02:25.732789 14897 net.cpp:129] Top shape: 1 4096 17 10 (696320)
I0716 00:02:25.732794 14897 net.cpp:137] Memory required for data: 1763051796
I0716 00:02:25.732797 14897 layer_factory.hpp:77] Creating layer score_fr-new-R
I0716 00:02:25.732811 14897 net.cpp:84] Creating Layer score_fr-new-R
I0716 00:02:25.732816 14897 net.cpp:406] score_fr-new-R <- fc7-R
I0716 00:02:25.732827 14897 net.cpp:380] score_fr-new-R -> score_fr-new-R
I0716 00:02:25.734935 14897 net.cpp:122] Setting up score_fr-new-R
I0716 00:02:25.734956 14897 net.cpp:129] Top shape: 1 3 17 10 (510)
I0716 00:02:25.734961 14897 net.cpp:137] Memory required for data: 1763053836
I0716 00:02:25.734975 14897 layer_factory.hpp:77] Creating layer upscore2-new-R
I0716 00:02:25.735002 14897 net.cpp:84] Creating Layer upscore2-new-R
I0716 00:02:25.735008 14897 net.cpp:406] upscore2-new-R <- score_fr-new-R
I0716 00:02:25.735018 14897 net.cpp:380] upscore2-new-R -> upscore2-new-R
I0716 00:02:25.735402 14897 net.cpp:122] Setting up upscore2-new-R
I0716 00:02:25.735416 14897 net.cpp:129] Top shape: 1 3 36 22 (2376)
I0716 00:02:25.735421 14897 net.cpp:137] Memory required for data: 1763063340
I0716 00:02:25.735435 14897 layer_factory.hpp:77] Creating layer upscore2-new-R_upscore2-new-R_0_split
I0716 00:02:25.735445 14897 net.cpp:84] Creating Layer upscore2-new-R_upscore2-new-R_0_split
I0716 00:02:25.735450 14897 net.cpp:406] upscore2-new-R_upscore2-new-R_0_split <- upscore2-new-R
I0716 00:02:25.735458 14897 net.cpp:380] upscore2-new-R_upscore2-new-R_0_split -> upscore2-new-R_upscore2-new-R_0_split_0
I0716 00:02:25.735468 14897 net.cpp:380] upscore2-new-R_upscore2-new-R_0_split -> upscore2-new-R_upscore2-new-R_0_split_1
I0716 00:02:25.735527 14897 net.cpp:122] Setting up upscore2-new-R_upscore2-new-R_0_split
I0716 00:02:25.735534 14897 net.cpp:129] Top shape: 1 3 36 22 (2376)
I0716 00:02:25.735540 14897 net.cpp:129] Top shape: 1 3 36 22 (2376)
I0716 00:02:25.735545 14897 net.cpp:137] Memory required for data: 1763082348
I0716 00:02:25.735550 14897 layer_factory.hpp:77] Creating layer score_pool4-new-R
I0716 00:02:25.735574 14897 net.cpp:84] Creating Layer score_pool4-new-R
I0716 00:02:25.735581 14897 net.cpp:406] score_pool4-new-R <- pool4-R_pool4-R_0_split_1
I0716 00:02:25.735592 14897 net.cpp:380] score_pool4-new-R -> score_pool4-new-R
I0716 00:02:25.737577 14897 net.cpp:122] Setting up score_pool4-new-R
I0716 00:02:25.737598 14897 net.cpp:129] Top shape: 1 3 45 32 (4320)
I0716 00:02:25.737603 14897 net.cpp:137] Memory required for data: 1763099628
I0716 00:02:25.737619 14897 layer_factory.hpp:77] Creating layer score_pool4c-R
I0716 00:02:25.737630 14897 net.cpp:84] Creating Layer score_pool4c-R
I0716 00:02:25.737637 14897 net.cpp:406] score_pool4c-R <- score_pool4-new-R
I0716 00:02:25.737644 14897 net.cpp:406] score_pool4c-R <- upscore2-new-R_upscore2-new-R_0_split_0
I0716 00:02:25.737658 14897 net.cpp:380] score_pool4c-R -> score_pool4c-R
I0716 00:02:25.737702 14897 net.cpp:122] Setting up score_pool4c-R
I0716 00:02:25.737713 14897 net.cpp:129] Top shape: 1 3 36 22 (2376)
I0716 00:02:25.737717 14897 net.cpp:137] Memory required for data: 1763109132
I0716 00:02:25.737722 14897 layer_factory.hpp:77] Creating layer fuse_pool4-R
I0716 00:02:25.737732 14897 net.cpp:84] Creating Layer fuse_pool4-R
I0716 00:02:25.737737 14897 net.cpp:406] fuse_pool4-R <- upscore2-new-R_upscore2-new-R_0_split_1
I0716 00:02:25.737743 14897 net.cpp:406] fuse_pool4-R <- score_pool4c-R
I0716 00:02:25.737752 14897 net.cpp:380] fuse_pool4-R -> fuse_pool4-R
I0716 00:02:25.737798 14897 net.cpp:122] Setting up fuse_pool4-R
I0716 00:02:25.737812 14897 net.cpp:129] Top shape: 1 3 36 22 (2376)
I0716 00:02:25.737818 14897 net.cpp:137] Memory required for data: 1763118636
I0716 00:02:25.737821 14897 layer_factory.hpp:77] Creating layer upscore_pool4-new-R
I0716 00:02:25.737831 14897 net.cpp:84] Creating Layer upscore_pool4-new-R
I0716 00:02:25.737848 14897 net.cpp:406] upscore_pool4-new-R <- fuse_pool4-R
I0716 00:02:25.737856 14897 net.cpp:380] upscore_pool4-new-R -> upscore_pool4-new-R
I0716 00:02:25.738194 14897 net.cpp:122] Setting up upscore_pool4-new-R
I0716 00:02:25.738205 14897 net.cpp:129] Top shape: 1 3 74 46 (10212)
I0716 00:02:25.738222 14897 net.cpp:137] Memory required for data: 1763159484
I0716 00:02:25.738242 14897 layer_factory.hpp:77] Creating layer upscore_pool4-new-R_upscore_pool4-new-R_0_split
I0716 00:02:25.738250 14897 net.cpp:84] Creating Layer upscore_pool4-new-R_upscore_pool4-new-R_0_split
I0716 00:02:25.738256 14897 net.cpp:406] upscore_pool4-new-R_upscore_pool4-new-R_0_split <- upscore_pool4-new-R
I0716 00:02:25.738265 14897 net.cpp:380] upscore_pool4-new-R_upscore_pool4-new-R_0_split -> upscore_pool4-new-R_upscore_pool4-new-R_0_split_0
I0716 00:02:25.738274 14897 net.cpp:380] upscore_pool4-new-R_upscore_pool4-new-R_0_split -> upscore_pool4-new-R_upscore_pool4-new-R_0_split_1
I0716 00:02:25.738333 14897 net.cpp:122] Setting up upscore_pool4-new-R_upscore_pool4-new-R_0_split
I0716 00:02:25.738355 14897 net.cpp:129] Top shape: 1 3 74 46 (10212)
I0716 00:02:25.738363 14897 net.cpp:129] Top shape: 1 3 74 46 (10212)
I0716 00:02:25.738366 14897 net.cpp:137] Memory required for data: 1763241180
I0716 00:02:25.738373 14897 layer_factory.hpp:77] Creating layer score_pool3-new-R
I0716 00:02:25.738382 14897 net.cpp:84] Creating Layer score_pool3-new-R
I0716 00:02:25.738389 14897 net.cpp:406] score_pool3-new-R <- pool3-R_pool3-R_0_split_1
I0716 00:02:25.738397 14897 net.cpp:380] score_pool3-new-R -> score_pool3-new-R
I0716 00:02:25.739697 14897 net.cpp:122] Setting up score_pool3-new-R
I0716 00:02:25.739715 14897 net.cpp:129] Top shape: 1 3 89 64 (17088)
I0716 00:02:25.739720 14897 net.cpp:137] Memory required for data: 1763309532
I0716 00:02:25.739735 14897 layer_factory.hpp:77] Creating layer score_pool3c-R
I0716 00:02:25.739755 14897 net.cpp:84] Creating Layer score_pool3c-R
I0716 00:02:25.739771 14897 net.cpp:406] score_pool3c-R <- score_pool3-new-R
I0716 00:02:25.739779 14897 net.cpp:406] score_pool3c-R <- upscore_pool4-new-R_upscore_pool4-new-R_0_split_0
I0716 00:02:25.739789 14897 net.cpp:380] score_pool3c-R -> score_pool3c-R
I0716 00:02:25.739832 14897 net.cpp:122] Setting up score_pool3c-R
I0716 00:02:25.739843 14897 net.cpp:129] Top shape: 1 3 74 46 (10212)
I0716 00:02:25.739848 14897 net.cpp:137] Memory required for data: 1763350380
I0716 00:02:25.739853 14897 layer_factory.hpp:77] Creating layer fuse_pool3-R
I0716 00:02:25.739862 14897 net.cpp:84] Creating Layer fuse_pool3-R
I0716 00:02:25.739867 14897 net.cpp:406] fuse_pool3-R <- upscore_pool4-new-R_upscore_pool4-new-R_0_split_1
I0716 00:02:25.739874 14897 net.cpp:406] fuse_pool3-R <- score_pool3c-R
I0716 00:02:25.739882 14897 net.cpp:380] fuse_pool3-R -> fuse_pool3-R
I0716 00:02:25.739925 14897 net.cpp:122] Setting up fuse_pool3-R
I0716 00:02:25.739940 14897 net.cpp:129] Top shape: 1 3 74 46 (10212)
I0716 00:02:25.739945 14897 net.cpp:137] Memory required for data: 1763391228
I0716 00:02:25.739949 14897 layer_factory.hpp:77] Creating layer upscore8-new-R
I0716 00:02:25.739959 14897 net.cpp:84] Creating Layer upscore8-new-R
I0716 00:02:25.739964 14897 net.cpp:406] upscore8-new-R <- fuse_pool3-R
I0716 00:02:25.739972 14897 net.cpp:380] upscore8-new-R -> upscore8-new-R
I0716 00:02:25.740314 14897 net.cpp:122] Setting up upscore8-new-R
I0716 00:02:25.740325 14897 net.cpp:129] Top shape: 1 3 600 376 (676800)
I0716 00:02:25.740330 14897 net.cpp:137] Memory required for data: 1766098428
I0716 00:02:25.740337 14897 layer_factory.hpp:77] Creating layer upscore8_cropped-R
I0716 00:02:25.740355 14897 net.cpp:84] Creating Layer upscore8_cropped-R
I0716 00:02:25.740362 14897 net.cpp:406] upscore8_cropped-R <- upscore8-new-R
I0716 00:02:25.740371 14897 net.cpp:406] upscore8_cropped-R <- data-R_crop_0_split_1
I0716 00:02:25.740380 14897 net.cpp:380] upscore8_cropped-R -> upscore8_cropped-R
I0716 00:02:25.740417 14897 net.cpp:122] Setting up upscore8_cropped-R
I0716 00:02:25.740424 14897 net.cpp:129] Top shape: 1 3 512 310 (476160)
I0716 00:02:25.740429 14897 net.cpp:137] Memory required for data: 1768003068
I0716 00:02:25.740434 14897 layer_factory.hpp:77] Creating layer upscore8_uncropped-R
I0716 00:02:25.740914 14897 net.cpp:84] Creating Layer upscore8_uncropped-R
I0716 00:02:25.740929 14897 net.cpp:406] upscore8_uncropped-R <- crop_info
I0716 00:02:25.740938 14897 net.cpp:406] upscore8_uncropped-R <- upscore8_cropped-R
I0716 00:02:25.740944 14897 net.cpp:406] upscore8_uncropped-R <- data_data_0_split_3
I0716 00:02:25.740952 14897 net.cpp:380] upscore8_uncropped-R -> upscore8_uncropped-R
I0716 00:02:25.743170 14897 net.cpp:122] Setting up upscore8_uncropped-R
I0716 00:02:25.743192 14897 net.cpp:129] Top shape: 1 3 512 310 (476160)
I0716 00:02:25.743198 14897 net.cpp:137] Memory required for data: 1769907708
I0716 00:02:25.743203 14897 layer_factory.hpp:77] Creating layer loss1
I0716 00:02:25.743227 14897 net.cpp:84] Creating Layer loss1
I0716 00:02:25.743232 14897 net.cpp:406] loss1 <- upscore8_cropped_upscore8_cropped_0_split_1
I0716 00:02:25.743252 14897 net.cpp:406] loss1 <- label_data_1_split_1
I0716 00:02:25.743261 14897 net.cpp:380] loss1 -> loss1
…
