…
snapshot_prefix: "/media/Med_2T2/data2/models/snapshots/joint:1e-5x10,1e-5x10,20/FD1:ZI3_1_20180715_091943,ZJ3_1_20180715_203131/train"
test_initialization: false
average_loss: 20
stepvalue: 50000
stepvalue: 60000
stepvalue: 70000
iter_size: 1
I0716 03:29:38.328732 15370 solver.cpp:77] Creating training net from train_net file: /media/Med_2T2/data2/prototxts/training_J3x10.prototxt
I0716 03:29:38.332614 15370 net.cpp:51] Initializing net from parameters: 
state {
  phase: TRAIN
}
layer {
  name: "data"
  type: "Python"
  top: "data"
  top: "label"
  top: "crop_margin"
  top: "crop_prob"
  top: "crop_sample_batch"
  python_param {
    module: "Data"
    layer: "DataLayer"
  }
}
layer {
  name: "conv1_1"
  type: "Convolution"
  bottom: "data"
  top: "conv1_1"
  param {
    lr_mult: 1
    decay_mult: 1
  }
  param {
    lr_mult: 2
    decay_mult: 0
  }
  convolution_param {
    num_output: 64
    pad: 100
    kernel_size: 3
    stride: 1
  }
}
layer {
  name: "relu1_1"
  type: "ReLU"
  bottom: "conv1_1"
  top: "conv1_1"
}
layer {
  name: "conv1_2"
  type: "Convolution"
  bottom: "conv1_1"
  top: "conv1_2"
  param {
    lr_mult: 1
    decay_mult: 1
  }
  param {
    lr_mult: 2
    decay_mult: 0
  }
  convolution_param {
    num_output: 64
    pad: 1
    kernel_size: 3
    stride: 1
  }
}
layer {
  name: "relu1_2"
  type: "ReLU"
  bottom: "conv1_2"
  top: "conv1_2"
}
layer {
  name: "pool1"
  type: "Pooling"
  bottom: "conv1_2"
  top: "pool1"
  pooling_param {
    pool: MAX
    kernel_size: 2
    stride: 2
  }
}
layer {
  name: "conv2_1"
  type: "Convolution"
  bottom: "pool1"
  top: "conv2_1"
  param {
    lr_mult: 1
    decay_mult: 1
  }
  param {
    lr_mult: 2
    decay_mult: 0
  }
  convolution_param {
    num_output: 128
    pad: 1
    kernel_size: 3
    stride: 1
  }
}
layer {
  name: "relu2_1"
  type: "ReLU"
  bottom: "conv2_1"
  top: "conv2_1"
}
layer {
  name: "conv2_2"
  type: "Convolution"
  bottom: "conv2_1"
  top: "conv2_2"
  param {
    lr_mult: 1
    decay_mult: 1
  }
  param {
    lr_mult: 2
    decay_mult: 0
  }
  convolution_param {
    num_output: 128
    pad: 1
    kernel_size: 3
    stride: 1
  }
}
layer {
  name: "relu2_2"
  type: "ReLU"
  bottom: "conv2_2"
  top: "conv2_2"
}
layer {
  name: "pool2"
  type: "Pooling"
  bottom: "conv2_2"
  top: "pool2"
  pooling_param {
    pool: MAX
    kernel_size: 2
    stride: 2
  }
}
layer {
  name: "conv3_1"
  type: "Convolution"
  bottom: "pool2"
  top: "conv3_1"
  param {
    lr_mult: 1
    decay_mult: 1
  }
  param {
    lr_mult: 2
    decay_mult: 0
  }
  convolution_param {
    num_output: 256
    pad: 1
    kernel_size: 3
    stride: 1
  }
}
layer {
  name: "relu3_1"
  type: "ReLU"
  bottom: "conv3_1"
  top: "conv3_1"
}
layer {
  name: "conv3_2"
  type: "Convolution"
  bottom: "conv3_1"
  top: "conv3_2"
  param {
    lr_mult: 1
    decay_mult: 1
  }
  param {
    lr_mult: 2
    decay_mult: 0
  }
  convolution_param {
    num_output: 256
    pad: 1
    kernel_size: 3
    stride: 1
  }
}
layer {
  name: "relu3_2"
  type: "ReLU"
  bottom: "conv3_2"
  top: "conv3_2"
}
layer {
  name: "conv3_3"
  type: "Convolution"
  bottom: "conv3_2"
  top: "conv3_3"
  param {
    lr_mult: 1
    decay_mult: 1
  }
  param {
    lr_mult: 2
    decay_mult: 0
  }
  convolution_param {
    num_output: 256
    pad: 1
    kernel_size: 3
    stride: 1
  }
}
layer {
  name: "relu3_3"
  type: "ReLU"
  bottom: "conv3_3"
  top: "conv3_3"
}
layer {
  name: "pool3"
  type: "Pooling"
  bottom: "conv3_3"
  top: "pool3"
  pooling_param {
    pool: MAX
    kernel_size: 2
    stride: 2
  }
}
layer {
  name: "conv4_1"
  type: "Convolution"
  bottom: "pool3"
  top: "conv4_1"
  param {
    lr_mult: 1
    decay_mult: 1
  }
  param {
    lr_mult: 2
    decay_mult: 0
  }
  convolution_param {
    num_output: 512
    pad: 1
    kernel_size: 3
    stride: 1
  }
}
layer {
  name: "relu4_1"
  type: "ReLU"
  bottom: "conv4_1"
  top: "conv4_1"
}
layer {
  name: "conv4_2"
  type: "Convolution"
  bottom: "conv4_1"
  top: "conv4_2"
  param {
    lr_mult: 1
    decay_mult: 1
  }
  param {
    lr_mult: 2
    decay_mult: 0
  }
  convolution_param {
    num_output: 512
    pad: 1
    kernel_size: 3
    stride: 1
  }
}
layer {
  name: "relu4_2"
  type: "ReLU"
  bottom: "conv4_2"
  top: "conv4_2"
}
layer {
  name: "conv4_3"
  type: "Convolution"
  bottom: "conv4_2"
  top: "conv4_3"
  param {
    lr_mult: 1
    decay_mult: 1
  }
  param {
    lr_mult: 2
    decay_mult: 0
  }
  convolution_param {
    num_output: 512
    pad: 1
    kernel_size: 3
    stride: 1
  }
}
layer {
  name: "relu4_3"
  type: "ReLU"
  bottom: "conv4_3"
  top: "conv4_3"
}
layer {
  name: "pool4"
  type: "Pooling"
  bottom: "conv4_3"
  top: "pool4"
  pooling_param {
    pool: MAX
    kernel_size: 2
    stride: 2
  }
}
layer {
  name: "conv5_1"
  type: "Convolution"
  bottom: "pool4"
  top: "conv5_1"
  param {
    lr_mult: 1
    decay_mult: 1
  }
  param {
    lr_mult: 2
    decay_mult: 0
  }
  convolution_param {
    num_output: 512
    pad: 1
    kernel_size: 3
    stride: 1
  }
}
layer {
  name: "relu5_1"
  type: "ReLU"
  bottom: "conv5_1"
  top: "conv5_1"
}
layer {
  name: "conv5_2"
  type: "Convolution"
  bottom: "conv5_1"
  top: "conv5_2"
  param {
    lr_mult: 1
    decay_mult: 1
  }
  param {
    lr_mult: 2
    decay_mult: 0
  }
  convolution_param {
    num_output: 512
    pad: 1
    kernel_size: 3
    stride: 1
  }
}
layer {
  name: "relu5_2"
  type: "ReLU"
  bottom: "conv5_2"
  top: "conv5_2"
}
layer {
  name: "conv5_3"
  type: "Convolution"
  bottom: "conv5_2"
  top: "conv5_3"
  param {
    lr_mult: 1
    decay_mult: 1
  }
  param {
    lr_mult: 2
    decay_mult: 0
  }
  convolution_param {
    num_output: 512
    pad: 1
    kernel_size: 3
    stride: 1
  }
}
layer {
  name: "relu5_3"
  type: "ReLU"
  bottom: "conv5_3"
  top: "conv5_3"
}
layer {
  name: "pool5"
  type: "Pooling"
  bottom: "conv5_3"
  top: "pool5"
  pooling_param {
    pool: MAX
    kernel_size: 2
    stride: 2
  }
}
layer {
  name: "fc6"
  type: "Convolution"
  bottom: "pool5"
  top: "fc6"
  param {
    lr_mult: 1
    decay_mult: 1
  }
  param {
    lr_mult: 2
    decay_mult: 0
  }
  convolution_param {
    num_output: 4096
    pad: 0
    kernel_size: 7
    stride: 1
  }
}
layer {
  name: "relu6"
  type: "ReLU"
  bottom: "fc6"
  top: "fc6"
}
layer {
  name: "drop6"
  type: "Dropout"
  bottom: "fc6"
  top: "fc6"
  dropout_param {
    dropout_ratio: 0.5
  }
}
layer {
  name: "fc7"
  type: "Convolution"
  bottom: "fc6"
  top: "fc7"
  param {
    lr_mult: 1
    decay_mult: 1
  }
  param {
    lr_mult: 2
    decay_mult: 0
  }
  convolution_param {
    num_output: 4096
    pad: 0
    kernel_size: 1
    stride: 1
  }
}
layer {
  name: "relu7"
  type: "ReLU"
  bottom: "fc7"
  top: "fc7"
}
layer {
  name: "drop7"
  type: "Dropout"
  bottom: "fc7"
  top: "fc7"
  dropout_param {
    dropout_ratio: 0.5
  }
}
layer {
  name: "score_fr-new"
  type: "Convolution"
  bottom: "fc7"
  top: "score_fr-new"
  param {
    lr_mult: 1
    decay_mult: 1
  }
  param {
    lr_mult: 2
    decay_mult: 0
  }
  convolution_param {
    num_output: 3
    kernel_size: 1
  }
}
layer {
  name: "upscore2-new"
  type: "Deconvolution"
  bottom: "score_fr-new"
  top: "upscore2-new"
  param {
    lr_mult: 0
  }
  convolution_param {
    num_output: 3
    bias_term: false
    kernel_size: 4
    stride: 2
  }
}
layer {
  name: "score_pool4-new"
  type: "Convolution"
  bottom: "pool4"
  top: "score_pool4-new"
  param {
    lr_mult: 1
    decay_mult: 1
  }
  param {
    lr_mult: 2
    decay_mult: 0
  }
  convolution_param {
    num_output: 3
    pad: 0
    kernel_size: 1
  }
}
layer {
  name: "score_pool4c"
  type: "Crop"
  bottom: "score_pool4-new"
  bottom: "upscore2-new"
  top: "score_pool4c"
  crop_param {
    axis: 2
    offset: 5
  }
}
layer {
  name: "fuse_pool4"
  type: "Eltwise"
  bottom: "upscore2-new"
  bottom: "score_pool4c"
  top: "fuse_pool4"
  eltwise_param {
    operation: SUM
  }
}
layer {
  name: "upscore_pool4-new"
  type: "Deconvolution"
  bottom: "fuse_pool4"
  top: "upscore_pool4-new"
  param {
    lr_mult: 0
  }
  convolution_param {
    num_output: 3
    bias_term: false
    kernel_size: 4
    stride: 2
  }
}
layer {
  name: "score_pool3-new"
  type: "Convolution"
  bottom: "pool3"
  top: "score_pool3-new"
  param {
    lr_mult: 1
    decay_mult: 1
  }
  param {
    lr_mult: 2
    decay_mult: 0
  }
  convolution_param {
    num_output: 3
    pad: 0
    kernel_size: 1
  }
}
layer {
  name: "score_pool3c"
  type: "Crop"
  bottom: "score_pool3-new"
  bottom: "upscore_pool4-new"
  top: "score_pool3c"
  crop_param {
    axis: 2
    offset: 9
  }
}
layer {
  name: "fuse_pool3"
  type: "Eltwise"
  bottom: "upscore_pool4-new"
  bottom: "score_pool3c"
  top: "fuse_pool3"
  eltwise_param {
    operation: SUM
  }
}
layer {
  name: "upscore8-new"
  type: "Deconvolution"
  bottom: "fuse_pool3"
  top: "upscore8-new"
  param {
    lr_mult: 0
  }
  convolution_param {
    num_output: 3
    bias_term: false
    kernel_size: 16
    stride: 8
  }
}
layer {
  name: "upscore8_cropped"
  type: "Crop"
  bottom: "upscore8-new"
  bottom: "data"
  top: "upscore8_cropped"
  crop_param {
    axis: 2
    offset: 31
  }
}
layer {
  name: "prob"
  type: "Sigmoid"
  bottom: "upscore8_cropped"
  top: "prob"
}
layer {
  name: "saliency1"
  type: "Convolution"
  bottom: "prob"
  top: "saliency1"
  param {
    lr_mult: 10
    decay_mult: 1
  }
  param {
    lr_mult: 20
    decay_mult: 0
  }
  convolution_param {
    num_output: 3
    pad: 1
    kernel_size: 3
    stride: 1
    weight_filler {
      type: "xavier"
    }
    bias_filler {
      type: "constant"
      value: 1
    }
  }
}
layer {
  name: "relu_saliency1"
  type: "ReLU"
  bottom: "saliency1"
  top: "saliency1"
}
layer {
  name: "saliency"
  type: "Convolution"
  bottom: "saliency1"
  top: "saliency"
  param {
    lr_mult: 10
    decay_mult: 1
  }
  param {
    lr_mult: 20
    decay_mult: 0
  }
  convolution_param {
    num_output: 3
    pad: 2
    kernel_size: 5
    stride: 1
    weight_filler {
      type: "xavier"
    }
    bias_filler {
      type: "constant"
      value: 1
    }
  }
}
layer {
  name: "saliency_data"
  type: "Eltwise"
  bottom: "data"
  bottom: "saliency"
  top: "saliency_data"
  eltwise_param {
    operation: PROD
  }
}
layer {
  name: "crop"
  type: "Python"
  bottom: "prob"
  bottom: "saliency_data"
  bottom: "crop_margin"
  bottom: "crop_prob"
  bottom: "crop_sample_batch"
  bottom: "label"
  top: "data-R"
  top: "crop_info"
  python_param {
    module: "Crop"
    layer: "CropLayer"
    param_str: "{\"TEST\": 0}"
  }
}
layer {
  name: "conv1_1-R"
  type: "Convolution"
  bottom: "data-R"
  top: "conv1_1-R"
  param {
    lr_mult: 10
    decay_mult: 1
  }
  param {
    lr_mult: 20
    decay_mult: 0
  }
  convolution_param {
    num_output: 64
    pad: 100
    kernel_size: 3
    stride: 1
  }
}
layer {
  name: "relu1_1-R"
  type: "ReLU"
  bottom: "conv1_1-R"
  top: "conv1_1-R"
}
layer {
  name: "conv1_2-R"
  type: "Convolution"
  bottom: "conv1_1-R"
  top: "conv1_2-R"
  param {
    lr_mult: 10
    decay_mult: 1
  }
  param {
    lr_mult: 20
    decay_mult: 0
  }
  convolution_param {
    num_output: 64
    pad: 1
    kernel_size: 3
    stride: 1
  }
}
layer {
  name: "relu1_2-R"
  type: "ReLU"
  bottom: "conv1_2-R"
  top: "conv1_2-R"
}
layer {
  name: "pool1-R"
  type: "Pooling"
  bottom: "conv1_2-R"
  top: "pool1-R"
  pooling_param {
    pool: MAX
    kernel_size: 2
    stride: 2
  }
}
layer {
  name: "conv2_1-R"
  type: "Convolution"
  bottom: "pool1-R"
  top: "conv2_1-R"
  param {
    lr_mult: 10
    decay_mult: 1
  }
  param {
    lr_mult: 20
    decay_mult: 0
  }
  convolution_param {
    num_output: 128
    pad: 1
    kernel_size: 3
    stride: 1
  }
}
layer {
  name: "relu2_1-R"
  type: "ReLU"
  bottom: "conv2_1-R"
  top: "conv2_1-R"
}
layer {
  name: "conv2_2-R"
  type: "Convolution"
  bottom: "conv2_1-R"
  top: "conv2_2-R"
  param {
    lr_mult: 10
    decay_mult: 1
  }
  param {
    lr_mult: 20
    decay_mult: 0
  }
  convolution_param {
    num_output: 128
    pad: 1
    kernel_size: 3
    stride: 1
  }
}
layer {
  name: "relu2_2-R"
  type: "ReLU"
  bottom: "conv2_2-R"
  top: "conv2_2-R"
}
layer {
  name: "pool2-R"
  type: "Pooling"
  bottom: "conv2_2-R"
  top: "pool2-R"
  pooling_param {
    pool: MAX
    kernel_size: 2
    stride: 2
  }
}
layer {
  name: "conv3_1-R"
  type: "Convolution"
  bottom: "pool2-R"
  top: "conv3_1-R"
  param {
    lr_mult: 10
    decay_mult: 1
  }
  param {
    lr_mult: 20
    decay_mult: 0
  }
  convolution_param {
    num_output: 256
    pad: 1
    kernel_size: 3
    stride: 1
  }
}
layer {
  name: "relu3_1-R"
  type: "ReLU"
  bottom: "conv3_1-R"
  top: "conv3_1-R"
}
layer {
  name: "conv3_2-R"
  type: "Convolution"
  bottom: "conv3_1-R"
  top: "conv3_2-R"
  param {
    lr_mult: 10
    decay_mult: 1
  }
  param {
    lr_mult: 20
    decay_mult: 0
  }
  convolution_param {
    num_output: 256
    pad: 1
    kernel_size: 3
    stride: 1
  }
}
layer {
  name: "relu3_2-R"
  type: "ReLU"
  bottom: "conv3_2-R"
  top: "conv3_2-R"
}
layer {
  name: "conv3_3-R"
  type: "Convolution"
  bottom: "conv3_2-R"
  top: "conv3_3-R"
  param {
    lr_mult: 10
    decay_mult: 1
  }
  param {
    lr_mult: 20
    decay_mult: 0
  }
  convolution_param {
    num_output: 256
    pad: 1
    kernel_size: 3
    stride: 1
  }
}
layer {
  name: "relu3_3-R"
  type: "ReLU"
  bottom: "conv3_3-R"
  top: "conv3_3-R"
}
layer {
  name: "pool3-R"
  type: "Pooling"
  bottom: "conv3_3-R"
  top: "pool3-R"
  pooling_param {
    pool: MAX
    kernel_size: 2
    stride: 2
  }
}
layer {
  name: "conv4_1-R"
  type: "Convolution"
  bottom: "pool3-R"
  top: "conv4_1-R"
  param {
    lr_mult: 10
    decay_mult: 1
  }
  param {
    lr_mult: 20
    decay_mult: 0
  }
  convolution_param {
    num_output: 512
    pad: 1
    kernel_size: 3
    stride: 1
  }
}
layer {
  name: "relu4_1-R"
  type: "ReLU"
  bottom: "conv4_1-R"
  top: "conv4_1-R"
}
layer {
  name: "conv4_2-R"
  type: "Convolution"
  bottom: "conv4_1-R"
  top: "conv4_2-R"
  param {
    lr_mult: 10
    decay_mult: 1
  }
  param {
    lr_mult: 20
    decay_mult: 0
  }
  convolution_param {
    num_output: 512
    pad: 1
    kernel_size: 3
    stride: 1
  }
}
layer {
  name: "relu4_2-R"
  type: "ReLU"
  bottom: "conv4_2-R"
  top: "conv4_2-R"
}
layer {
  name: "conv4_3-R"
  type: "Convolution"
  bottom: "conv4_2-R"
  top: "conv4_3-R"
  param {
    lr_mult: 10
    decay_mult: 1
  }
  param {
    lr_mult: 20
    decay_mult: 0
  }
  convolution_param {
    num_output: 512
    pad: 1
    kernel_size: 3
    stride: 1
  }
}
layer {
  name: "relu4_3-R"
  type: "ReLU"
  bottom: "conv4_3-R"
  top: "conv4_3-R"
}
layer {
  name: "pool4-R"
  type: "Pooling"
  bottom: "conv4_3-R"
  top: "pool4-R"
  pooling_param {
    pool: MAX
    kernel_size: 2
    stride: 2
  }
}
layer {
  name: "conv5_1-R"
  type: "Convolution"
  bottom: "pool4-R"
  top: "conv5_1-R"
  param {
    lr_mult: 10
    decay_mult: 1
  }
  param {
    lr_mult: 20
    decay_mult: 0
  }
  convolution_param {
    num_output: 512
    pad: 1
    kernel_size: 3
    stride: 1
  }
}
layer {
  name: "relu5_1-R"
  type: "ReLU"
  bottom: "conv5_1-R"
  top: "conv5_1-R"
}
layer {
  name: "conv5_2-R"
  type: "Convolution"
  bottom: "conv5_1-R"
  top: "conv5_2-R"
  param {
    lr_mult: 10
    decay_mult: 1
  }
  param {
    lr_mult: 20
    decay_mult: 0
  }
  convolution_param {
    num_output: 512
    pad: 1
    kernel_size: 3
    stride: 1
  }
}
layer {
  name: "relu5_2-R"
  type: "ReLU"
  bottom: "conv5_2-R"
  top: "conv5_2-R"
}
layer {
  name: "conv5_3-R"
  type: "Convolution"
  bottom: "conv5_2-R"
  top: "conv5_3-R"
  param {
    lr_mult: 10
    decay_mult: 1
  }
  param {
    lr_mult: 20
    decay_mult: 0
  }
  convolution_param {
    num_output: 512
    pad: 1
    kernel_size: 3
    stride: 1
  }
}
layer {
  name: "relu5_3-R"
  type: "ReLU"
  bottom: "conv5_3-R"
  top: "conv5_3-R"
}
layer {
  name: "pool5-R"
  type: "Pooling"
  bottom: "conv5_3-R"
  top: "pool5-R"
  pooling_param {
    pool: MAX
    kernel_size: 2
    stride: 2
  }
}
layer {
  name: "fc6-R"
  type: "Convolution"
  bottom: "pool5-R"
  top: "fc6-R"
  param {
    lr_mult: 10
    decay_mult: 1
  }
  param {
    lr_mult: 20
    decay_mult: 0
  }
  convolution_param {
    num_output: 4096
    pad: 0
    kernel_size: 7
    stride: 1
  }
}
layer {
  name: "relu6-R"
  type: "ReLU"
  bottom: "fc6-R"
  top: "fc6-R"
}
layer {
  name: "drop6-R"
  type: "Dropout"
  bottom: "fc6-R"
  top: "fc6-R"
  dropout_param {
    dropout_ratio: 0.5
  }
}
layer {
  name: "fc7-R"
  type: "Convolution"
  bottom: "fc6-R"
  top: "fc7-R"
  param {
    lr_mult: 10
    decay_mult: 1
  }
  param {
    lr_mult: 20
    decay_mult: 0
  }
  convolution_param {
    num_output: 4096
    pad: 0
    kernel_size: 1
    stride: 1
  }
}
layer {
  name: "relu7-R"
  type: "ReLU"
  bottom: "fc7-R"
  top: "fc7-R"
}
layer {
  name: "drop7-R"
  type: "Dropout"
  bottom: "fc7-R"
  top: "fc7-R"
  dropout_param {
    dropout_ratio: 0.5
  }
}
layer {
  name: "score_fr-new-R"
  type: "Convolution"
  bottom: "fc7-R"
  top: "score_fr-new-R"
  param {
    lr_mult: 10
    decay_mult: 1
  }
  param {
    lr_mult: 20
    decay_mult: 0
  }
  convolution_param {
    num_output: 3
    kernel_size: 1
  }
}
layer {
  name: "upscore2-new-R"
  type: "Deconvolution"
  bottom: "score_fr-new-R"
  top: "upscore2-new-R"
  param {
    lr_mult: 0
  }
  convolution_param {
    num_output: 3
    bias_term: false
    kernel_size: 4
    stride: 2
  }
}
layer {
  name: "score_pool4-new-R"
  type: "Convolution"
  bottom: "pool4-R"
  top: "score_pool4-new-R"
  param {
    lr_mult: 10
    decay_mult: 1
  }
  param {
    lr_mult: 20
    decay_mult: 0
  }
  convolution_param {
    num_output: 3
    pad: 0
    kernel_size: 1
  }
}
layer {
  name: "score_pool4c-R"
  type: "Crop"
  bottom: "score_pool4-new-R"
  bottom: "upscore2-new-R"
  top: "score_pool4c-R"
  crop_param {
    axis: 2
    offset: 5
  }
}
layer {
  name: "fuse_pool4-R"
  type: "Eltwise"
  bottom: "upscore2-new-R"
  bottom: "score_pool4c-R"
  top: "fuse_pool4-R"
  eltwise_param {
    operation: SUM
  }
}
layer {
  name: "upscore_pool4-new-R"
  type: "Deconvolution"
  bottom: "fuse_pool4-R"
  top: "upscore_pool4-new-R"
  param {
    lr_mult: 0
  }
  convolution_param {
    num_output: 3
    bias_term: false
    kernel_size: 4
    stride: 2
  }
}
layer {
  name: "score_pool3-new-R"
  type: "Convolution"
  bottom: "pool3-R"
  top: "score_pool3-new-R"
  param {
    lr_mult: 10
    decay_mult: 1
  }
  param {
    lr_mult: 20
    decay_mult: 0
  }
  convolution_param {
    num_output: 3
    pad: 0
    kernel_size: 1
  }
}
layer {
  name: "score_pool3c-R"
  type: "Crop"
  bottom: "score_pool3-new-R"
  bottom: "upscore_pool4-new-R"
  top: "score_pool3c-R"
  crop_param {
    axis: 2
    offset: 9
  }
}
layer {
  name: "fuse_pool3-R"
  type: "Eltwise"
  bottom: "upscore_pool4-new-R"
  bottom: "score_pool3c-R"
  top: "fuse_pool3-R"
  eltwise_param {
    operation: SUM
  }
}
layer {
  name: "upscore8-new-R"
  type: "Deconvolution"
  bottom: "fuse_pool3-R"
  top: "upscore8-new-R"
  param {
    lr_mult: 0
  }
  convolution_param {
    num_output: 3
    bias_term: false
    kernel_size: 16
    stride: 8
  }
}
layer {
  name: "upscore8_cropped-R"
  type: "Crop"
  bottom: "upscore8-new-R"
  bottom: "data-R"
  top: "upscore8_cropped-R"
  crop_param {
    axis: 2
    offset: 31
  }
}
layer {
  name: "upscore8_uncropped-R"
  type: "Python"
  bottom: "crop_info"
  bottom: "upscore8_cropped-R"
  bottom: "data"
  top: "upscore8_uncropped-R"
  python_param {
    module: "Uncrop"
    layer: "UncropLayer"
  }
}
layer {
  name: "loss1"
  type: "DiceLoss"
  bottom: "upscore8_cropped"
  bottom: "label"
  top: "loss1"
  loss_weight: 0.333333
}
layer {
  name: "loss2"
  type: "DiceLoss"
  bottom: "upscore8_uncropped-R"
  bottom: "label"
  top: "loss2"
  loss_weight: 0.666667
}
I0716 03:29:38.333194 15370 layer_factory.hpp:77] Creating layer data
I0716 03:29:38.333604 15370 net.cpp:84] Creating Layer data
I0716 03:29:38.333623 15370 net.cpp:380] data -> data
I0716 03:29:38.333648 15370 net.cpp:380] data -> label
I0716 03:29:38.333657 15370 net.cpp:380] data -> crop_margin
I0716 03:29:38.333667 15370 net.cpp:380] data -> crop_prob
I0716 03:29:38.333673 15370 net.cpp:380] data -> crop_sample_batch
I0716 03:29:38.436362 15370 net.cpp:122] Setting up data
I0716 03:29:38.436432 15370 net.cpp:129] Top shape: 1 3 512 512 (786432)
I0716 03:29:38.436441 15370 net.cpp:129] Top shape: 1 3 512 512 (786432)
I0716 03:29:38.436446 15370 net.cpp:129] Top shape: 1 (1)
I0716 03:29:38.436451 15370 net.cpp:129] Top shape: 1 (1)
I0716 03:29:38.436455 15370 net.cpp:129] Top shape: 1 (1)
I0716 03:29:38.436460 15370 net.cpp:137] Memory required for data: 6291468
I0716 03:29:38.436470 15370 layer_factory.hpp:77] Creating layer data_data_0_split
I0716 03:29:38.436511 15370 net.cpp:84] Creating Layer data_data_0_split
I0716 03:29:38.436527 15370 net.cpp:406] data_data_0_split <- data
I0716 03:29:38.436539 15370 net.cpp:380] data_data_0_split -> data_data_0_split_0
I0716 03:29:38.436553 15370 net.cpp:380] data_data_0_split -> data_data_0_split_1
I0716 03:29:38.436563 15370 net.cpp:380] data_data_0_split -> data_data_0_split_2
I0716 03:29:38.436569 15370 net.cpp:380] data_data_0_split -> data_data_0_split_3
I0716 03:29:38.436640 15370 net.cpp:122] Setting up data_data_0_split
I0716 03:29:38.436650 15370 net.cpp:129] Top shape: 1 3 512 512 (786432)
I0716 03:29:38.436655 15370 net.cpp:129] Top shape: 1 3 512 512 (786432)
I0716 03:29:38.436661 15370 net.cpp:129] Top shape: 1 3 512 512 (786432)
I0716 03:29:38.436666 15370 net.cpp:129] Top shape: 1 3 512 512 (786432)
I0716 03:29:38.436668 15370 net.cpp:137] Memory required for data: 18874380
I0716 03:29:38.436673 15370 layer_factory.hpp:77] Creating layer label_data_1_split
I0716 03:29:38.436681 15370 net.cpp:84] Creating Layer label_data_1_split
I0716 03:29:38.436686 15370 net.cpp:406] label_data_1_split <- label
I0716 03:29:38.436700 15370 net.cpp:380] label_data_1_split -> label_data_1_split_0
I0716 03:29:38.436707 15370 net.cpp:380] label_data_1_split -> label_data_1_split_1
I0716 03:29:38.436712 15370 net.cpp:380] label_data_1_split -> label_data_1_split_2
I0716 03:29:38.436753 15370 net.cpp:122] Setting up label_data_1_split
I0716 03:29:38.436759 15370 net.cpp:129] Top shape: 1 3 512 512 (786432)
I0716 03:29:38.436764 15370 net.cpp:129] Top shape: 1 3 512 512 (786432)
I0716 03:29:38.436769 15370 net.cpp:129] Top shape: 1 3 512 512 (786432)
I0716 03:29:38.436772 15370 net.cpp:137] Memory required for data: 28311564
I0716 03:29:38.436776 15370 layer_factory.hpp:77] Creating layer conv1_1
I0716 03:29:38.436810 15370 net.cpp:84] Creating Layer conv1_1
I0716 03:29:38.436815 15370 net.cpp:406] conv1_1 <- data_data_0_split_0
I0716 03:29:38.436822 15370 net.cpp:380] conv1_1 -> conv1_1
I0716 03:29:38.864291 15370 net.cpp:122] Setting up conv1_1
I0716 03:29:38.864349 15370 net.cpp:129] Top shape: 1 64 710 710 (32262400)
I0716 03:29:38.864354 15370 net.cpp:137] Memory required for data: 157361164
I0716 03:29:38.864404 15370 layer_factory.hpp:77] Creating layer relu1_1
I0716 03:29:38.864445 15370 net.cpp:84] Creating Layer relu1_1
I0716 03:29:38.864454 15370 net.cpp:406] relu1_1 <- conv1_1
I0716 03:29:38.864460 15370 net.cpp:367] relu1_1 -> conv1_1 (in-place)
I0716 03:29:38.864670 15370 net.cpp:122] Setting up relu1_1
I0716 03:29:38.864681 15370 net.cpp:129] Top shape: 1 64 710 710 (32262400)
I0716 03:29:38.864683 15370 net.cpp:137] Memory required for data: 286410764
I0716 03:29:38.864687 15370 layer_factory.hpp:77] Creating layer conv1_2
I0716 03:29:38.864701 15370 net.cpp:84] Creating Layer conv1_2
I0716 03:29:38.864704 15370 net.cpp:406] conv1_2 <- conv1_1
I0716 03:29:38.864711 15370 net.cpp:380] conv1_2 -> conv1_2
I0716 03:29:38.876035 15370 net.cpp:122] Setting up conv1_2
I0716 03:29:38.876067 15370 net.cpp:129] Top shape: 1 64 710 710 (32262400)
I0716 03:29:38.876076 15370 net.cpp:137] Memory required for data: 415460364
I0716 03:29:38.876096 15370 layer_factory.hpp:77] Creating layer relu1_2
I0716 03:29:38.876121 15370 net.cpp:84] Creating Layer relu1_2
I0716 03:29:38.876130 15370 net.cpp:406] relu1_2 <- conv1_2
I0716 03:29:38.876142 15370 net.cpp:367] relu1_2 -> conv1_2 (in-place)
I0716 03:29:38.876511 15370 net.cpp:122] Setting up relu1_2
I0716 03:29:38.876530 15370 net.cpp:129] Top shape: 1 64 710 710 (32262400)
I0716 03:29:38.876538 15370 net.cpp:137] Memory required for data: 544509964
I0716 03:29:38.876549 15370 layer_factory.hpp:77] Creating layer pool1
I0716 03:29:38.876565 15370 net.cpp:84] Creating Layer pool1
I0716 03:29:38.876574 15370 net.cpp:406] pool1 <- conv1_2
I0716 03:29:38.876586 15370 net.cpp:380] pool1 -> pool1
I0716 03:29:38.876680 15370 net.cpp:122] Setting up pool1
I0716 03:29:38.876695 15370 net.cpp:129] Top shape: 1 64 355 355 (8065600)
I0716 03:29:38.876703 15370 net.cpp:137] Memory required for data: 576772364
I0716 03:29:38.876709 15370 layer_factory.hpp:77] Creating layer conv2_1
I0716 03:29:38.876726 15370 net.cpp:84] Creating Layer conv2_1
I0716 03:29:38.876734 15370 net.cpp:406] conv2_1 <- pool1
I0716 03:29:38.876749 15370 net.cpp:380] conv2_1 -> conv2_1
I0716 03:29:38.884526 15370 net.cpp:122] Setting up conv2_1
I0716 03:29:38.884557 15370 net.cpp:129] Top shape: 1 128 355 355 (16131200)
I0716 03:29:38.884565 15370 net.cpp:137] Memory required for data: 641297164
I0716 03:29:38.884585 15370 layer_factory.hpp:77] Creating layer relu2_1
I0716 03:29:38.884619 15370 net.cpp:84] Creating Layer relu2_1
I0716 03:29:38.884627 15370 net.cpp:406] relu2_1 <- conv2_1
I0716 03:29:38.884647 15370 net.cpp:367] relu2_1 -> conv2_1 (in-place)
I0716 03:29:38.885013 15370 net.cpp:122] Setting up relu2_1
I0716 03:29:38.885031 15370 net.cpp:129] Top shape: 1 128 355 355 (16131200)
I0716 03:29:38.885040 15370 net.cpp:137] Memory required for data: 705821964
I0716 03:29:38.885046 15370 layer_factory.hpp:77] Creating layer conv2_2
I0716 03:29:38.885062 15370 net.cpp:84] Creating Layer conv2_2
I0716 03:29:38.885069 15370 net.cpp:406] conv2_2 <- conv2_1
I0716 03:29:38.885082 15370 net.cpp:380] conv2_2 -> conv2_2
I0716 03:29:38.888778 15370 net.cpp:122] Setting up conv2_2
I0716 03:29:38.888799 15370 net.cpp:129] Top shape: 1 128 355 355 (16131200)
I0716 03:29:38.888805 15370 net.cpp:137] Memory required for data: 770346764
I0716 03:29:38.888819 15370 layer_factory.hpp:77] Creating layer relu2_2
I0716 03:29:38.888829 15370 net.cpp:84] Creating Layer relu2_2
I0716 03:29:38.888834 15370 net.cpp:406] relu2_2 <- conv2_2
I0716 03:29:38.888842 15370 net.cpp:367] relu2_2 -> conv2_2 (in-place)
I0716 03:29:38.889083 15370 net.cpp:122] Setting up relu2_2
I0716 03:29:38.889096 15370 net.cpp:129] Top shape: 1 128 355 355 (16131200)
I0716 03:29:38.889101 15370 net.cpp:137] Memory required for data: 834871564
I0716 03:29:38.889106 15370 layer_factory.hpp:77] Creating layer pool2
I0716 03:29:38.889117 15370 net.cpp:84] Creating Layer pool2
I0716 03:29:38.889127 15370 net.cpp:406] pool2 <- conv2_2
I0716 03:29:38.889137 15370 net.cpp:380] pool2 -> pool2
I0716 03:29:38.889191 15370 net.cpp:122] Setting up pool2
I0716 03:29:38.889200 15370 net.cpp:129] Top shape: 1 128 178 178 (4055552)
I0716 03:29:38.889204 15370 net.cpp:137] Memory required for data: 851093772
I0716 03:29:38.889209 15370 layer_factory.hpp:77] Creating layer conv3_1
I0716 03:29:38.889219 15370 net.cpp:84] Creating Layer conv3_1
I0716 03:29:38.889225 15370 net.cpp:406] conv3_1 <- pool2
I0716 03:29:38.889231 15370 net.cpp:380] conv3_1 -> conv3_1
I0716 03:29:38.893286 15370 net.cpp:122] Setting up conv3_1
I0716 03:29:38.893304 15370 net.cpp:129] Top shape: 1 256 178 178 (8111104)
I0716 03:29:38.893311 15370 net.cpp:137] Memory required for data: 883538188
I0716 03:29:38.893326 15370 layer_factory.hpp:77] Creating layer relu3_1
I0716 03:29:38.893339 15370 net.cpp:84] Creating Layer relu3_1
I0716 03:29:38.893344 15370 net.cpp:406] relu3_1 <- conv3_1
I0716 03:29:38.893366 15370 net.cpp:367] relu3_1 -> conv3_1 (in-place)
I0716 03:29:38.894121 15370 net.cpp:122] Setting up relu3_1
I0716 03:29:38.894138 15370 net.cpp:129] Top shape: 1 256 178 178 (8111104)
I0716 03:29:38.894143 15370 net.cpp:137] Memory required for data: 915982604
I0716 03:29:38.894148 15370 layer_factory.hpp:77] Creating layer conv3_2
I0716 03:29:38.894166 15370 net.cpp:84] Creating Layer conv3_2
I0716 03:29:38.894171 15370 net.cpp:406] conv3_2 <- conv3_1
I0716 03:29:38.894179 15370 net.cpp:380] conv3_2 -> conv3_2
I0716 03:29:38.898201 15370 net.cpp:122] Setting up conv3_2
I0716 03:29:38.898219 15370 net.cpp:129] Top shape: 1 256 178 178 (8111104)
I0716 03:29:38.898236 15370 net.cpp:137] Memory required for data: 948427020
I0716 03:29:38.898246 15370 layer_factory.hpp:77] Creating layer relu3_2
I0716 03:29:38.898258 15370 net.cpp:84] Creating Layer relu3_2
I0716 03:29:38.898273 15370 net.cpp:406] relu3_2 <- conv3_2
I0716 03:29:38.898283 15370 net.cpp:367] relu3_2 -> conv3_2 (in-place)
I0716 03:29:38.899015 15370 net.cpp:122] Setting up relu3_2
I0716 03:29:38.899031 15370 net.cpp:129] Top shape: 1 256 178 178 (8111104)
I0716 03:29:38.899036 15370 net.cpp:137] Memory required for data: 980871436
I0716 03:29:38.899049 15370 layer_factory.hpp:77] Creating layer conv3_3
I0716 03:29:38.899060 15370 net.cpp:84] Creating Layer conv3_3
I0716 03:29:38.899065 15370 net.cpp:406] conv3_3 <- conv3_2
I0716 03:29:38.899085 15370 net.cpp:380] conv3_3 -> conv3_3
I0716 03:29:38.906908 15370 net.cpp:122] Setting up conv3_3
I0716 03:29:38.906927 15370 net.cpp:129] Top shape: 1 256 178 178 (8111104)
I0716 03:29:38.906941 15370 net.cpp:137] Memory required for data: 1013315852
I0716 03:29:38.906955 15370 layer_factory.hpp:77] Creating layer relu3_3
I0716 03:29:38.906962 15370 net.cpp:84] Creating Layer relu3_3
I0716 03:29:38.906967 15370 net.cpp:406] relu3_3 <- conv3_3
I0716 03:29:38.906986 15370 net.cpp:367] relu3_3 -> conv3_3 (in-place)
I0716 03:29:38.907244 15370 net.cpp:122] Setting up relu3_3
I0716 03:29:38.907256 15370 net.cpp:129] Top shape: 1 256 178 178 (8111104)
I0716 03:29:38.907260 15370 net.cpp:137] Memory required for data: 1045760268
I0716 03:29:38.907268 15370 layer_factory.hpp:77] Creating layer pool3
I0716 03:29:38.907320 15370 net.cpp:84] Creating Layer pool3
I0716 03:29:38.907328 15370 net.cpp:406] pool3 <- conv3_3
I0716 03:29:38.907340 15370 net.cpp:380] pool3 -> pool3
I0716 03:29:38.907403 15370 net.cpp:122] Setting up pool3
I0716 03:29:38.907413 15370 net.cpp:129] Top shape: 1 256 89 89 (2027776)
I0716 03:29:38.907418 15370 net.cpp:137] Memory required for data: 1053871372
I0716 03:29:38.907421 15370 layer_factory.hpp:77] Creating layer pool3_pool3_0_split
I0716 03:29:38.907430 15370 net.cpp:84] Creating Layer pool3_pool3_0_split
I0716 03:29:38.907435 15370 net.cpp:406] pool3_pool3_0_split <- pool3
I0716 03:29:38.907444 15370 net.cpp:380] pool3_pool3_0_split -> pool3_pool3_0_split_0
I0716 03:29:38.907474 15370 net.cpp:380] pool3_pool3_0_split -> pool3_pool3_0_split_1
I0716 03:29:38.907526 15370 net.cpp:122] Setting up pool3_pool3_0_split
I0716 03:29:38.907536 15370 net.cpp:129] Top shape: 1 256 89 89 (2027776)
I0716 03:29:38.907543 15370 net.cpp:129] Top shape: 1 256 89 89 (2027776)
I0716 03:29:38.907548 15370 net.cpp:137] Memory required for data: 1070093580
I0716 03:29:38.907553 15370 layer_factory.hpp:77] Creating layer conv4_1
I0716 03:29:38.907568 15370 net.cpp:84] Creating Layer conv4_1
I0716 03:29:38.907574 15370 net.cpp:406] conv4_1 <- pool3_pool3_0_split_0
I0716 03:29:38.907585 15370 net.cpp:380] conv4_1 -> conv4_1
I0716 03:29:38.918452 15370 net.cpp:122] Setting up conv4_1
I0716 03:29:38.918476 15370 net.cpp:129] Top shape: 1 512 89 89 (4055552)
I0716 03:29:38.918490 15370 net.cpp:137] Memory required for data: 1086315788
I0716 03:29:38.918503 15370 layer_factory.hpp:77] Creating layer relu4_1
I0716 03:29:38.918527 15370 net.cpp:84] Creating Layer relu4_1
I0716 03:29:38.918534 15370 net.cpp:406] relu4_1 <- conv4_1
I0716 03:29:38.918547 15370 net.cpp:367] relu4_1 -> conv4_1 (in-place)
I0716 03:29:38.918870 15370 net.cpp:122] Setting up relu4_1
I0716 03:29:38.918885 15370 net.cpp:129] Top shape: 1 512 89 89 (4055552)
I0716 03:29:38.918890 15370 net.cpp:137] Memory required for data: 1102537996
I0716 03:29:38.918898 15370 layer_factory.hpp:77] Creating layer conv4_2
I0716 03:29:38.918913 15370 net.cpp:84] Creating Layer conv4_2
I0716 03:29:38.918920 15370 net.cpp:406] conv4_2 <- conv4_1
I0716 03:29:38.918931 15370 net.cpp:380] conv4_2 -> conv4_2
I0716 03:29:38.928596 15370 net.cpp:122] Setting up conv4_2
I0716 03:29:38.928629 15370 net.cpp:129] Top shape: 1 512 89 89 (4055552)
I0716 03:29:38.928633 15370 net.cpp:137] Memory required for data: 1118760204
I0716 03:29:38.928645 15370 layer_factory.hpp:77] Creating layer relu4_2
I0716 03:29:38.928673 15370 net.cpp:84] Creating Layer relu4_2
I0716 03:29:38.928678 15370 net.cpp:406] relu4_2 <- conv4_2
I0716 03:29:38.928694 15370 net.cpp:367] relu4_2 -> conv4_2 (in-place)
I0716 03:29:38.928905 15370 net.cpp:122] Setting up relu4_2
I0716 03:29:38.928915 15370 net.cpp:129] Top shape: 1 512 89 89 (4055552)
I0716 03:29:38.928920 15370 net.cpp:137] Memory required for data: 1134982412
I0716 03:29:38.928922 15370 layer_factory.hpp:77] Creating layer conv4_3
I0716 03:29:38.928932 15370 net.cpp:84] Creating Layer conv4_3
I0716 03:29:38.928936 15370 net.cpp:406] conv4_3 <- conv4_2
I0716 03:29:38.928944 15370 net.cpp:380] conv4_3 -> conv4_3
I0716 03:29:38.938278 15370 net.cpp:122] Setting up conv4_3
I0716 03:29:38.938318 15370 net.cpp:129] Top shape: 1 512 89 89 (4055552)
I0716 03:29:38.938324 15370 net.cpp:137] Memory required for data: 1151204620
I0716 03:29:38.938335 15370 layer_factory.hpp:77] Creating layer relu4_3
I0716 03:29:38.938352 15370 net.cpp:84] Creating Layer relu4_3
I0716 03:29:38.938359 15370 net.cpp:406] relu4_3 <- conv4_3
I0716 03:29:38.938366 15370 net.cpp:367] relu4_3 -> conv4_3 (in-place)
I0716 03:29:38.938611 15370 net.cpp:122] Setting up relu4_3
I0716 03:29:38.938624 15370 net.cpp:129] Top shape: 1 512 89 89 (4055552)
I0716 03:29:38.938628 15370 net.cpp:137] Memory required for data: 1167426828
I0716 03:29:38.938633 15370 layer_factory.hpp:77] Creating layer pool4
I0716 03:29:38.938652 15370 net.cpp:84] Creating Layer pool4
I0716 03:29:38.938657 15370 net.cpp:406] pool4 <- conv4_3
I0716 03:29:38.938670 15370 net.cpp:380] pool4 -> pool4
I0716 03:29:38.938730 15370 net.cpp:122] Setting up pool4
I0716 03:29:38.938740 15370 net.cpp:129] Top shape: 1 512 45 45 (1036800)
I0716 03:29:38.938743 15370 net.cpp:137] Memory required for data: 1171574028
I0716 03:29:38.938747 15370 layer_factory.hpp:77] Creating layer pool4_pool4_0_split
I0716 03:29:38.938757 15370 net.cpp:84] Creating Layer pool4_pool4_0_split
I0716 03:29:38.938762 15370 net.cpp:406] pool4_pool4_0_split <- pool4
I0716 03:29:38.938768 15370 net.cpp:380] pool4_pool4_0_split -> pool4_pool4_0_split_0
I0716 03:29:38.938778 15370 net.cpp:380] pool4_pool4_0_split -> pool4_pool4_0_split_1
I0716 03:29:38.938824 15370 net.cpp:122] Setting up pool4_pool4_0_split
I0716 03:29:38.938834 15370 net.cpp:129] Top shape: 1 512 45 45 (1036800)
I0716 03:29:38.938839 15370 net.cpp:129] Top shape: 1 512 45 45 (1036800)
I0716 03:29:38.938843 15370 net.cpp:137] Memory required for data: 1179868428
I0716 03:29:38.938848 15370 layer_factory.hpp:77] Creating layer conv5_1
I0716 03:29:38.938861 15370 net.cpp:84] Creating Layer conv5_1
I0716 03:29:38.938866 15370 net.cpp:406] conv5_1 <- pool4_pool4_0_split_0
I0716 03:29:38.938875 15370 net.cpp:380] conv5_1 -> conv5_1
I0716 03:29:38.953779 15370 net.cpp:122] Setting up conv5_1
I0716 03:29:38.953816 15370 net.cpp:129] Top shape: 1 512 45 45 (1036800)
I0716 03:29:38.953820 15370 net.cpp:137] Memory required for data: 1184015628
I0716 03:29:38.953828 15370 layer_factory.hpp:77] Creating layer relu5_1
I0716 03:29:38.953841 15370 net.cpp:84] Creating Layer relu5_1
I0716 03:29:38.953845 15370 net.cpp:406] relu5_1 <- conv5_1
I0716 03:29:38.953851 15370 net.cpp:367] relu5_1 -> conv5_1 (in-place)
I0716 03:29:38.954506 15370 net.cpp:122] Setting up relu5_1
I0716 03:29:38.954519 15370 net.cpp:129] Top shape: 1 512 45 45 (1036800)
I0716 03:29:38.954538 15370 net.cpp:137] Memory required for data: 1188162828
I0716 03:29:38.954542 15370 layer_factory.hpp:77] Creating layer conv5_2
I0716 03:29:38.954555 15370 net.cpp:84] Creating Layer conv5_2
I0716 03:29:38.954558 15370 net.cpp:406] conv5_2 <- conv5_1
I0716 03:29:38.954566 15370 net.cpp:380] conv5_2 -> conv5_2
I0716 03:29:38.967598 15370 net.cpp:122] Setting up conv5_2
I0716 03:29:38.967646 15370 net.cpp:129] Top shape: 1 512 45 45 (1036800)
I0716 03:29:38.967651 15370 net.cpp:137] Memory required for data: 1192310028
I0716 03:29:38.967661 15370 layer_factory.hpp:77] Creating layer relu5_2
I0716 03:29:38.967697 15370 net.cpp:84] Creating Layer relu5_2
I0716 03:29:38.967718 15370 net.cpp:406] relu5_2 <- conv5_2
I0716 03:29:38.967726 15370 net.cpp:367] relu5_2 -> conv5_2 (in-place)
I0716 03:29:38.968490 15370 net.cpp:122] Setting up relu5_2
I0716 03:29:38.968502 15370 net.cpp:129] Top shape: 1 512 45 45 (1036800)
I0716 03:29:38.968523 15370 net.cpp:137] Memory required for data: 1196457228
I0716 03:29:38.968525 15370 layer_factory.hpp:77] Creating layer conv5_3
I0716 03:29:38.968540 15370 net.cpp:84] Creating Layer conv5_3
I0716 03:29:38.968560 15370 net.cpp:406] conv5_3 <- conv5_2
I0716 03:29:38.968569 15370 net.cpp:380] conv5_3 -> conv5_3
I0716 03:29:38.976068 15370 net.cpp:122] Setting up conv5_3
I0716 03:29:38.976102 15370 net.cpp:129] Top shape: 1 512 45 45 (1036800)
I0716 03:29:38.976105 15370 net.cpp:137] Memory required for data: 1200604428
I0716 03:29:38.976112 15370 layer_factory.hpp:77] Creating layer relu5_3
I0716 03:29:38.976121 15370 net.cpp:84] Creating Layer relu5_3
I0716 03:29:38.976126 15370 net.cpp:406] relu5_3 <- conv5_3
I0716 03:29:38.976146 15370 net.cpp:367] relu5_3 -> conv5_3 (in-place)
I0716 03:29:38.976366 15370 net.cpp:122] Setting up relu5_3
I0716 03:29:38.976377 15370 net.cpp:129] Top shape: 1 512 45 45 (1036800)
I0716 03:29:38.976379 15370 net.cpp:137] Memory required for data: 1204751628
I0716 03:29:38.976385 15370 layer_factory.hpp:77] Creating layer pool5
I0716 03:29:38.976393 15370 net.cpp:84] Creating Layer pool5
I0716 03:29:38.976397 15370 net.cpp:406] pool5 <- conv5_3
I0716 03:29:38.976402 15370 net.cpp:380] pool5 -> pool5
I0716 03:29:38.976450 15370 net.cpp:122] Setting up pool5
I0716 03:29:38.976457 15370 net.cpp:129] Top shape: 1 512 23 23 (270848)
I0716 03:29:38.976461 15370 net.cpp:137] Memory required for data: 1205835020
I0716 03:29:38.976464 15370 layer_factory.hpp:77] Creating layer fc6
I0716 03:29:38.976474 15370 net.cpp:84] Creating Layer fc6
I0716 03:29:38.976477 15370 net.cpp:406] fc6 <- pool5
I0716 03:29:38.976482 15370 net.cpp:380] fc6 -> fc6
I0716 03:29:39.268965 15370 net.cpp:122] Setting up fc6
I0716 03:29:39.269026 15370 net.cpp:129] Top shape: 1 4096 17 17 (1183744)
I0716 03:29:39.269034 15370 net.cpp:137] Memory required for data: 1210569996
I0716 03:29:39.269067 15370 layer_factory.hpp:77] Creating layer relu6
I0716 03:29:39.269096 15370 net.cpp:84] Creating Layer relu6
I0716 03:29:39.269105 15370 net.cpp:406] relu6 <- fc6
I0716 03:29:39.269127 15370 net.cpp:367] relu6 -> fc6 (in-place)
I0716 03:29:39.269614 15370 net.cpp:122] Setting up relu6
I0716 03:29:39.269649 15370 net.cpp:129] Top shape: 1 4096 17 17 (1183744)
I0716 03:29:39.269655 15370 net.cpp:137] Memory required for data: 1215304972
I0716 03:29:39.269664 15370 layer_factory.hpp:77] Creating layer drop6
I0716 03:29:39.269704 15370 net.cpp:84] Creating Layer drop6
I0716 03:29:39.269712 15370 net.cpp:406] drop6 <- fc6
I0716 03:29:39.269727 15370 net.cpp:367] drop6 -> fc6 (in-place)
I0716 03:29:39.269796 15370 net.cpp:122] Setting up drop6
I0716 03:29:39.269809 15370 net.cpp:129] Top shape: 1 4096 17 17 (1183744)
I0716 03:29:39.269821 15370 net.cpp:137] Memory required for data: 1220039948
I0716 03:29:39.269834 15370 layer_factory.hpp:77] Creating layer fc7
I0716 03:29:39.269862 15370 net.cpp:84] Creating Layer fc7
I0716 03:29:39.269877 15370 net.cpp:406] fc7 <- fc6
I0716 03:29:39.269904 15370 net.cpp:380] fc7 -> fc7
I0716 03:29:39.331143 15370 net.cpp:122] Setting up fc7
I0716 03:29:39.331207 15370 net.cpp:129] Top shape: 1 4096 17 17 (1183744)
I0716 03:29:39.331216 15370 net.cpp:137] Memory required for data: 1224774924
I0716 03:29:39.331236 15370 layer_factory.hpp:77] Creating layer relu7
I0716 03:29:39.331331 15370 net.cpp:84] Creating Layer relu7
I0716 03:29:39.331346 15370 net.cpp:406] relu7 <- fc7
I0716 03:29:39.331365 15370 net.cpp:367] relu7 -> fc7 (in-place)
I0716 03:29:39.332617 15370 net.cpp:122] Setting up relu7
I0716 03:29:39.332643 15370 net.cpp:129] Top shape: 1 4096 17 17 (1183744)
I0716 03:29:39.332657 15370 net.cpp:137] Memory required for data: 1229509900
I0716 03:29:39.332665 15370 layer_factory.hpp:77] Creating layer drop7
I0716 03:29:39.332679 15370 net.cpp:84] Creating Layer drop7
I0716 03:29:39.332687 15370 net.cpp:406] drop7 <- fc7
I0716 03:29:39.332701 15370 net.cpp:367] drop7 -> fc7 (in-place)
I0716 03:29:39.332777 15370 net.cpp:122] Setting up drop7
I0716 03:29:39.332792 15370 net.cpp:129] Top shape: 1 4096 17 17 (1183744)
I0716 03:29:39.332803 15370 net.cpp:137] Memory required for data: 1234244876
I0716 03:29:39.332810 15370 layer_factory.hpp:77] Creating layer score_fr-new
I0716 03:29:39.332842 15370 net.cpp:84] Creating Layer score_fr-new
I0716 03:29:39.332852 15370 net.cpp:406] score_fr-new <- fc7
I0716 03:29:39.332867 15370 net.cpp:380] score_fr-new -> score_fr-new
I0716 03:29:39.335582 15370 net.cpp:122] Setting up score_fr-new
I0716 03:29:39.335611 15370 net.cpp:129] Top shape: 1 3 17 17 (867)
I0716 03:29:39.335619 15370 net.cpp:137] Memory required for data: 1234248344
I0716 03:29:39.335644 15370 layer_factory.hpp:77] Creating layer upscore2-new
I0716 03:29:39.335675 15370 net.cpp:84] Creating Layer upscore2-new
I0716 03:29:39.335695 15370 net.cpp:406] upscore2-new <- score_fr-new
I0716 03:29:39.335707 15370 net.cpp:380] upscore2-new -> upscore2-new
I0716 03:29:39.336175 15370 net.cpp:122] Setting up upscore2-new
I0716 03:29:39.336191 15370 net.cpp:129] Top shape: 1 3 36 36 (3888)
I0716 03:29:39.336199 15370 net.cpp:137] Memory required for data: 1234263896
I0716 03:29:39.336233 15370 layer_factory.hpp:77] Creating layer upscore2-new_upscore2-new_0_split
I0716 03:29:39.336248 15370 net.cpp:84] Creating Layer upscore2-new_upscore2-new_0_split
I0716 03:29:39.336256 15370 net.cpp:406] upscore2-new_upscore2-new_0_split <- upscore2-new
I0716 03:29:39.336279 15370 net.cpp:380] upscore2-new_upscore2-new_0_split -> upscore2-new_upscore2-new_0_split_0
I0716 03:29:39.336295 15370 net.cpp:380] upscore2-new_upscore2-new_0_split -> upscore2-new_upscore2-new_0_split_1
I0716 03:29:39.336386 15370 net.cpp:122] Setting up upscore2-new_upscore2-new_0_split
I0716 03:29:39.336400 15370 net.cpp:129] Top shape: 1 3 36 36 (3888)
I0716 03:29:39.336408 15370 net.cpp:129] Top shape: 1 3 36 36 (3888)
I0716 03:29:39.336416 15370 net.cpp:137] Memory required for data: 1234295000
I0716 03:29:39.336421 15370 layer_factory.hpp:77] Creating layer score_pool4-new
I0716 03:29:39.336438 15370 net.cpp:84] Creating Layer score_pool4-new
I0716 03:29:39.336447 15370 net.cpp:406] score_pool4-new <- pool4_pool4_0_split_1
I0716 03:29:39.336460 15370 net.cpp:380] score_pool4-new -> score_pool4-new
I0716 03:29:39.339071 15370 net.cpp:122] Setting up score_pool4-new
I0716 03:29:39.339097 15370 net.cpp:129] Top shape: 1 3 45 45 (6075)
I0716 03:29:39.339105 15370 net.cpp:137] Memory required for data: 1234319300
I0716 03:29:39.339144 15370 layer_factory.hpp:77] Creating layer score_pool4c
I0716 03:29:39.339174 15370 net.cpp:84] Creating Layer score_pool4c
I0716 03:29:39.339190 15370 net.cpp:406] score_pool4c <- score_pool4-new
I0716 03:29:39.339200 15370 net.cpp:406] score_pool4c <- upscore2-new_upscore2-new_0_split_0
I0716 03:29:39.339215 15370 net.cpp:380] score_pool4c -> score_pool4c
I0716 03:29:39.339325 15370 net.cpp:122] Setting up score_pool4c
I0716 03:29:39.339342 15370 net.cpp:129] Top shape: 1 3 36 36 (3888)
I0716 03:29:39.339349 15370 net.cpp:137] Memory required for data: 1234334852
I0716 03:29:39.339355 15370 layer_factory.hpp:77] Creating layer fuse_pool4
I0716 03:29:39.339378 15370 net.cpp:84] Creating Layer fuse_pool4
I0716 03:29:39.339385 15370 net.cpp:406] fuse_pool4 <- upscore2-new_upscore2-new_0_split_1
I0716 03:29:39.339395 15370 net.cpp:406] fuse_pool4 <- score_pool4c
I0716 03:29:39.339406 15370 net.cpp:380] fuse_pool4 -> fuse_pool4
I0716 03:29:39.339476 15370 net.cpp:122] Setting up fuse_pool4
I0716 03:29:39.339485 15370 net.cpp:129] Top shape: 1 3 36 36 (3888)
I0716 03:29:39.339488 15370 net.cpp:137] Memory required for data: 1234350404
I0716 03:29:39.339493 15370 layer_factory.hpp:77] Creating layer upscore_pool4-new
I0716 03:29:39.339503 15370 net.cpp:84] Creating Layer upscore_pool4-new
I0716 03:29:39.339506 15370 net.cpp:406] upscore_pool4-new <- fuse_pool4
I0716 03:29:39.339512 15370 net.cpp:380] upscore_pool4-new -> upscore_pool4-new
I0716 03:29:39.339751 15370 net.cpp:122] Setting up upscore_pool4-new
I0716 03:29:39.339761 15370 net.cpp:129] Top shape: 1 3 74 74 (16428)
I0716 03:29:39.339764 15370 net.cpp:137] Memory required for data: 1234416116
I0716 03:29:39.339769 15370 layer_factory.hpp:77] Creating layer upscore_pool4-new_upscore_pool4-new_0_split
I0716 03:29:39.339776 15370 net.cpp:84] Creating Layer upscore_pool4-new_upscore_pool4-new_0_split
I0716 03:29:39.339781 15370 net.cpp:406] upscore_pool4-new_upscore_pool4-new_0_split <- upscore_pool4-new
I0716 03:29:39.339787 15370 net.cpp:380] upscore_pool4-new_upscore_pool4-new_0_split -> upscore_pool4-new_upscore_pool4-new_0_split_0
I0716 03:29:39.339793 15370 net.cpp:380] upscore_pool4-new_upscore_pool4-new_0_split -> upscore_pool4-new_upscore_pool4-new_0_split_1
I0716 03:29:39.339834 15370 net.cpp:122] Setting up upscore_pool4-new_upscore_pool4-new_0_split
I0716 03:29:39.339840 15370 net.cpp:129] Top shape: 1 3 74 74 (16428)
I0716 03:29:39.339845 15370 net.cpp:129] Top shape: 1 3 74 74 (16428)
I0716 03:29:39.339849 15370 net.cpp:137] Memory required for data: 1234547540
I0716 03:29:39.339854 15370 layer_factory.hpp:77] Creating layer score_pool3-new
I0716 03:29:39.339876 15370 net.cpp:84] Creating Layer score_pool3-new
I0716 03:29:39.339881 15370 net.cpp:406] score_pool3-new <- pool3_pool3_0_split_1
I0716 03:29:39.339892 15370 net.cpp:380] score_pool3-new -> score_pool3-new
I0716 03:29:39.341497 15370 net.cpp:122] Setting up score_pool3-new
I0716 03:29:39.341514 15370 net.cpp:129] Top shape: 1 3 89 89 (23763)
I0716 03:29:39.341531 15370 net.cpp:137] Memory required for data: 1234642592
I0716 03:29:39.341537 15370 layer_factory.hpp:77] Creating layer score_pool3c
I0716 03:29:39.341548 15370 net.cpp:84] Creating Layer score_pool3c
I0716 03:29:39.341554 15370 net.cpp:406] score_pool3c <- score_pool3-new
I0716 03:29:39.341572 15370 net.cpp:406] score_pool3c <- upscore_pool4-new_upscore_pool4-new_0_split_0
I0716 03:29:39.341578 15370 net.cpp:380] score_pool3c -> score_pool3c
I0716 03:29:39.341616 15370 net.cpp:122] Setting up score_pool3c
I0716 03:29:39.341625 15370 net.cpp:129] Top shape: 1 3 74 74 (16428)
I0716 03:29:39.341629 15370 net.cpp:137] Memory required for data: 1234708304
I0716 03:29:39.341632 15370 layer_factory.hpp:77] Creating layer fuse_pool3
I0716 03:29:39.341639 15370 net.cpp:84] Creating Layer fuse_pool3
I0716 03:29:39.341644 15370 net.cpp:406] fuse_pool3 <- upscore_pool4-new_upscore_pool4-new_0_split_1
I0716 03:29:39.341650 15370 net.cpp:406] fuse_pool3 <- score_pool3c
I0716 03:29:39.341657 15370 net.cpp:380] fuse_pool3 -> fuse_pool3
I0716 03:29:39.341686 15370 net.cpp:122] Setting up fuse_pool3
I0716 03:29:39.341703 15370 net.cpp:129] Top shape: 1 3 74 74 (16428)
I0716 03:29:39.341707 15370 net.cpp:137] Memory required for data: 1234774016
I0716 03:29:39.341711 15370 layer_factory.hpp:77] Creating layer upscore8-new
I0716 03:29:39.341720 15370 net.cpp:84] Creating Layer upscore8-new
I0716 03:29:39.341724 15370 net.cpp:406] upscore8-new <- fuse_pool3
I0716 03:29:39.341733 15370 net.cpp:380] upscore8-new -> upscore8-new
I0716 03:29:39.341991 15370 net.cpp:122] Setting up upscore8-new
I0716 03:29:39.342001 15370 net.cpp:129] Top shape: 1 3 600 600 (1080000)
I0716 03:29:39.342005 15370 net.cpp:137] Memory required for data: 1239094016
I0716 03:29:39.342020 15370 layer_factory.hpp:77] Creating layer upscore8_cropped
I0716 03:29:39.342027 15370 net.cpp:84] Creating Layer upscore8_cropped
I0716 03:29:39.342031 15370 net.cpp:406] upscore8_cropped <- upscore8-new
I0716 03:29:39.342037 15370 net.cpp:406] upscore8_cropped <- data_data_0_split_1
I0716 03:29:39.342046 15370 net.cpp:380] upscore8_cropped -> upscore8_cropped
I0716 03:29:39.342074 15370 net.cpp:122] Setting up upscore8_cropped
I0716 03:29:39.342080 15370 net.cpp:129] Top shape: 1 3 512 512 (786432)
I0716 03:29:39.342083 15370 net.cpp:137] Memory required for data: 1242239744
I0716 03:29:39.342087 15370 layer_factory.hpp:77] Creating layer upscore8_cropped_upscore8_cropped_0_split
I0716 03:29:39.342093 15370 net.cpp:84] Creating Layer upscore8_cropped_upscore8_cropped_0_split
I0716 03:29:39.342097 15370 net.cpp:406] upscore8_cropped_upscore8_cropped_0_split <- upscore8_cropped
I0716 03:29:39.342103 15370 net.cpp:380] upscore8_cropped_upscore8_cropped_0_split -> upscore8_cropped_upscore8_cropped_0_split_0
I0716 03:29:39.342110 15370 net.cpp:380] upscore8_cropped_upscore8_cropped_0_split -> upscore8_cropped_upscore8_cropped_0_split_1
I0716 03:29:39.342154 15370 net.cpp:122] Setting up upscore8_cropped_upscore8_cropped_0_split
I0716 03:29:39.342159 15370 net.cpp:129] Top shape: 1 3 512 512 (786432)
I0716 03:29:39.342164 15370 net.cpp:129] Top shape: 1 3 512 512 (786432)
I0716 03:29:39.342167 15370 net.cpp:137] Memory required for data: 1248531200
I0716 03:29:39.342171 15370 layer_factory.hpp:77] Creating layer prob
I0716 03:29:39.342178 15370 net.cpp:84] Creating Layer prob
I0716 03:29:39.342182 15370 net.cpp:406] prob <- upscore8_cropped_upscore8_cropped_0_split_0
I0716 03:29:39.342190 15370 net.cpp:380] prob -> prob
I0716 03:29:39.342452 15370 net.cpp:122] Setting up prob
I0716 03:29:39.342463 15370 net.cpp:129] Top shape: 1 3 512 512 (786432)
I0716 03:29:39.342468 15370 net.cpp:137] Memory required for data: 1251676928
I0716 03:29:39.342471 15370 layer_factory.hpp:77] Creating layer prob_prob_0_split
I0716 03:29:39.342487 15370 net.cpp:84] Creating Layer prob_prob_0_split
I0716 03:29:39.342491 15370 net.cpp:406] prob_prob_0_split <- prob
I0716 03:29:39.342500 15370 net.cpp:380] prob_prob_0_split -> prob_prob_0_split_0
I0716 03:29:39.342507 15370 net.cpp:380] prob_prob_0_split -> prob_prob_0_split_1
I0716 03:29:39.342553 15370 net.cpp:122] Setting up prob_prob_0_split
I0716 03:29:39.342561 15370 net.cpp:129] Top shape: 1 3 512 512 (786432)
I0716 03:29:39.342566 15370 net.cpp:129] Top shape: 1 3 512 512 (786432)
I0716 03:29:39.342571 15370 net.cpp:137] Memory required for data: 1257968384
I0716 03:29:39.342574 15370 layer_factory.hpp:77] Creating layer saliency1
I0716 03:29:39.342597 15370 net.cpp:84] Creating Layer saliency1
I0716 03:29:39.342602 15370 net.cpp:406] saliency1 <- prob_prob_0_split_0
I0716 03:29:39.342608 15370 net.cpp:380] saliency1 -> saliency1
I0716 03:29:39.349966 15370 net.cpp:122] Setting up saliency1
I0716 03:29:39.350018 15370 net.cpp:129] Top shape: 1 3 512 512 (786432)
I0716 03:29:39.350026 15370 net.cpp:137] Memory required for data: 1261114112
I0716 03:29:39.350049 15370 layer_factory.hpp:77] Creating layer relu_saliency1
I0716 03:29:39.350088 15370 net.cpp:84] Creating Layer relu_saliency1
I0716 03:29:39.350100 15370 net.cpp:406] relu_saliency1 <- saliency1
I0716 03:29:39.350114 15370 net.cpp:367] relu_saliency1 -> saliency1 (in-place)
I0716 03:29:39.350538 15370 net.cpp:122] Setting up relu_saliency1
I0716 03:29:39.350556 15370 net.cpp:129] Top shape: 1 3 512 512 (786432)
I0716 03:29:39.350564 15370 net.cpp:137] Memory required for data: 1264259840
I0716 03:29:39.350571 15370 layer_factory.hpp:77] Creating layer saliency
I0716 03:29:39.350595 15370 net.cpp:84] Creating Layer saliency
I0716 03:29:39.350603 15370 net.cpp:406] saliency <- saliency1
I0716 03:29:39.350630 15370 net.cpp:380] saliency -> saliency
I0716 03:29:39.357270 15370 net.cpp:122] Setting up saliency
I0716 03:29:39.357297 15370 net.cpp:129] Top shape: 1 3 512 512 (786432)
I0716 03:29:39.357311 15370 net.cpp:137] Memory required for data: 1267405568
I0716 03:29:39.357324 15370 layer_factory.hpp:77] Creating layer saliency_data
I0716 03:29:39.357344 15370 net.cpp:84] Creating Layer saliency_data
I0716 03:29:39.357360 15370 net.cpp:406] saliency_data <- data_data_0_split_2
I0716 03:29:39.357378 15370 net.cpp:406] saliency_data <- saliency
I0716 03:29:39.357388 15370 net.cpp:380] saliency_data -> saliency_data
I0716 03:29:39.357432 15370 net.cpp:122] Setting up saliency_data
I0716 03:29:39.357442 15370 net.cpp:129] Top shape: 1 3 512 512 (786432)
I0716 03:29:39.357445 15370 net.cpp:137] Memory required for data: 1270551296
I0716 03:29:39.357450 15370 layer_factory.hpp:77] Creating layer crop
I0716 03:29:39.358505 15370 net.cpp:84] Creating Layer crop
I0716 03:29:39.358517 15370 net.cpp:406] crop <- prob_prob_0_split_1
I0716 03:29:39.358525 15370 net.cpp:406] crop <- saliency_data
I0716 03:29:39.358537 15370 net.cpp:406] crop <- crop_margin
I0716 03:29:39.358543 15370 net.cpp:406] crop <- crop_prob
I0716 03:29:39.358549 15370 net.cpp:406] crop <- crop_sample_batch
I0716 03:29:39.358562 15370 net.cpp:406] crop <- label_data_1_split_0
I0716 03:29:39.358579 15370 net.cpp:380] crop -> data-R
I0716 03:29:39.358589 15370 net.cpp:380] crop -> crop_info
I0716 03:29:39.376230 15370 net.cpp:122] Setting up crop
I0716 03:29:39.376272 15370 net.cpp:129] Top shape: 1 3 512 512 (786432)
I0716 03:29:39.376281 15370 net.cpp:129] Top shape: 1 2 4 (8)
I0716 03:29:39.376286 15370 net.cpp:137] Memory required for data: 1273697056
I0716 03:29:39.376292 15370 layer_factory.hpp:77] Creating layer data-R_crop_0_split
I0716 03:29:39.376312 15370 net.cpp:84] Creating Layer data-R_crop_0_split
I0716 03:29:39.376319 15370 net.cpp:406] data-R_crop_0_split <- data-R
I0716 03:29:39.376329 15370 net.cpp:380] data-R_crop_0_split -> data-R_crop_0_split_0
I0716 03:29:39.376341 15370 net.cpp:380] data-R_crop_0_split -> data-R_crop_0_split_1
I0716 03:29:39.376401 15370 net.cpp:122] Setting up data-R_crop_0_split
I0716 03:29:39.376411 15370 net.cpp:129] Top shape: 1 3 512 512 (786432)
I0716 03:29:39.376417 15370 net.cpp:129] Top shape: 1 3 512 512 (786432)
I0716 03:29:39.376421 15370 net.cpp:137] Memory required for data: 1279988512
I0716 03:29:39.376437 15370 layer_factory.hpp:77] Creating layer conv1_1-R
I0716 03:29:39.376551 15370 net.cpp:84] Creating Layer conv1_1-R
I0716 03:29:39.376559 15370 net.cpp:406] conv1_1-R <- data-R_crop_0_split_0
I0716 03:29:39.376569 15370 net.cpp:380] conv1_1-R -> conv1_1-R
I0716 03:29:39.381413 15370 net.cpp:122] Setting up conv1_1-R
I0716 03:29:39.381435 15370 net.cpp:129] Top shape: 1 64 710 710 (32262400)
I0716 03:29:39.381440 15370 net.cpp:137] Memory required for data: 1409038112
I0716 03:29:39.381458 15370 layer_factory.hpp:77] Creating layer relu1_1-R
I0716 03:29:39.381489 15370 net.cpp:84] Creating Layer relu1_1-R
I0716 03:29:39.381496 15370 net.cpp:406] relu1_1-R <- conv1_1-R
I0716 03:29:39.381511 15370 net.cpp:367] relu1_1-R -> conv1_1-R (in-place)
I0716 03:29:39.381793 15370 net.cpp:122] Setting up relu1_1-R
I0716 03:29:39.381808 15370 net.cpp:129] Top shape: 1 64 710 710 (32262400)
I0716 03:29:39.381814 15370 net.cpp:137] Memory required for data: 1538087712
I0716 03:29:39.381819 15370 layer_factory.hpp:77] Creating layer conv1_2-R
I0716 03:29:39.381834 15370 net.cpp:84] Creating Layer conv1_2-R
I0716 03:29:39.381850 15370 net.cpp:406] conv1_2-R <- conv1_1-R
I0716 03:29:39.381860 15370 net.cpp:380] conv1_2-R -> conv1_2-R
I0716 03:29:39.386574 15370 net.cpp:122] Setting up conv1_2-R
I0716 03:29:39.386610 15370 net.cpp:129] Top shape: 1 64 710 710 (32262400)
I0716 03:29:39.386616 15370 net.cpp:137] Memory required for data: 1667137312
I0716 03:29:39.386627 15370 layer_factory.hpp:77] Creating layer relu1_2-R
I0716 03:29:39.386646 15370 net.cpp:84] Creating Layer relu1_2-R
I0716 03:29:39.386651 15370 net.cpp:406] relu1_2-R <- conv1_2-R
I0716 03:29:39.386658 15370 net.cpp:367] relu1_2-R -> conv1_2-R (in-place)
I0716 03:29:39.392653 15370 net.cpp:122] Setting up relu1_2-R
I0716 03:29:39.392695 15370 net.cpp:129] Top shape: 1 64 710 710 (32262400)
I0716 03:29:39.392716 15370 net.cpp:137] Memory required for data: 1796186912
I0716 03:29:39.392721 15370 layer_factory.hpp:77] Creating layer pool1-R
I0716 03:29:39.392737 15370 net.cpp:84] Creating Layer pool1-R
I0716 03:29:39.392743 15370 net.cpp:406] pool1-R <- conv1_2-R
I0716 03:29:39.392753 15370 net.cpp:380] pool1-R -> pool1-R
I0716 03:29:39.392827 15370 net.cpp:122] Setting up pool1-R
I0716 03:29:39.392837 15370 net.cpp:129] Top shape: 1 64 355 355 (8065600)
I0716 03:29:39.392841 15370 net.cpp:137] Memory required for data: 1828449312
I0716 03:29:39.392845 15370 layer_factory.hpp:77] Creating layer conv2_1-R
I0716 03:29:39.392859 15370 net.cpp:84] Creating Layer conv2_1-R
I0716 03:29:39.392866 15370 net.cpp:406] conv2_1-R <- pool1-R
I0716 03:29:39.392875 15370 net.cpp:380] conv2_1-R -> conv2_1-R
I0716 03:29:39.394834 15370 net.cpp:122] Setting up conv2_1-R
I0716 03:29:39.394851 15370 net.cpp:129] Top shape: 1 128 355 355 (16131200)
I0716 03:29:39.394857 15370 net.cpp:137] Memory required for data: 1892974112
I0716 03:29:39.394866 15370 layer_factory.hpp:77] Creating layer relu2_1-R
I0716 03:29:39.394875 15370 net.cpp:84] Creating Layer relu2_1-R
I0716 03:29:39.394881 15370 net.cpp:406] relu2_1-R <- conv2_1-R
I0716 03:29:39.394889 15370 net.cpp:367] relu2_1-R -> conv2_1-R (in-place)
I0716 03:29:39.395748 15370 net.cpp:122] Setting up relu2_1-R
I0716 03:29:39.395767 15370 net.cpp:129] Top shape: 1 128 355 355 (16131200)
I0716 03:29:39.395772 15370 net.cpp:137] Memory required for data: 1957498912
I0716 03:29:39.395781 15370 layer_factory.hpp:77] Creating layer conv2_2-R
I0716 03:29:39.395794 15370 net.cpp:84] Creating Layer conv2_2-R
I0716 03:29:39.395799 15370 net.cpp:406] conv2_2-R <- conv2_1-R
I0716 03:29:39.395810 15370 net.cpp:380] conv2_2-R -> conv2_2-R
I0716 03:29:39.400286 15370 net.cpp:122] Setting up conv2_2-R
I0716 03:29:39.400324 15370 net.cpp:129] Top shape: 1 128 355 355 (16131200)
I0716 03:29:39.400332 15370 net.cpp:137] Memory required for data: 2022023712
I0716 03:29:39.400351 15370 layer_factory.hpp:77] Creating layer relu2_2-R
I0716 03:29:39.400362 15370 net.cpp:84] Creating Layer relu2_2-R
I0716 03:29:39.400378 15370 net.cpp:406] relu2_2-R <- conv2_2-R
I0716 03:29:39.400393 15370 net.cpp:367] relu2_2-R -> conv2_2-R (in-place)
I0716 03:29:39.400794 15370 net.cpp:122] Setting up relu2_2-R
I0716 03:29:39.400813 15370 net.cpp:129] Top shape: 1 128 355 355 (16131200)
I0716 03:29:39.400830 15370 net.cpp:137] Memory required for data: 2086548512
I0716 03:29:39.400836 15370 layer_factory.hpp:77] Creating layer pool2-R
I0716 03:29:39.400867 15370 net.cpp:84] Creating Layer pool2-R
I0716 03:29:39.400884 15370 net.cpp:406] pool2-R <- conv2_2-R
I0716 03:29:39.400895 15370 net.cpp:380] pool2-R -> pool2-R
I0716 03:29:39.401008 15370 net.cpp:122] Setting up pool2-R
I0716 03:29:39.401021 15370 net.cpp:129] Top shape: 1 128 178 178 (4055552)
I0716 03:29:39.401031 15370 net.cpp:137] Memory required for data: 2102770720
I0716 03:29:39.401036 15370 layer_factory.hpp:77] Creating layer conv3_1-R
I0716 03:29:39.401057 15370 net.cpp:84] Creating Layer conv3_1-R
I0716 03:29:39.401067 15370 net.cpp:406] conv3_1-R <- pool2-R
I0716 03:29:39.401080 15370 net.cpp:380] conv3_1-R -> conv3_1-R
I0716 03:29:39.407702 15370 net.cpp:122] Setting up conv3_1-R
I0716 03:29:39.407732 15370 net.cpp:129] Top shape: 1 256 178 178 (8111104)
I0716 03:29:39.407740 15370 net.cpp:137] Memory required for data: 2135215136
I0716 03:29:39.407754 15370 layer_factory.hpp:77] Creating layer relu3_1-R
I0716 03:29:39.407773 15370 net.cpp:84] Creating Layer relu3_1-R
I0716 03:29:39.407780 15370 net.cpp:406] relu3_1-R <- conv3_1-R
I0716 03:29:39.407791 15370 net.cpp:367] relu3_1-R -> conv3_1-R (in-place)
I0716 03:29:39.408174 15370 net.cpp:122] Setting up relu3_1-R
I0716 03:29:39.408203 15370 net.cpp:129] Top shape: 1 256 178 178 (8111104)
I0716 03:29:39.408211 15370 net.cpp:137] Memory required for data: 2167659552
I0716 03:29:39.408218 15370 layer_factory.hpp:77] Creating layer conv3_2-R
I0716 03:29:39.408236 15370 net.cpp:84] Creating Layer conv3_2-R
I0716 03:29:39.408242 15370 net.cpp:406] conv3_2-R <- conv3_1-R
I0716 03:29:39.408253 15370 net.cpp:380] conv3_2-R -> conv3_2-R
I0716 03:29:39.417367 15370 net.cpp:122] Setting up conv3_2-R
I0716 03:29:39.417387 15370 net.cpp:129] Top shape: 1 256 178 178 (8111104)
I0716 03:29:39.417402 15370 net.cpp:137] Memory required for data: 2200103968
I0716 03:29:39.417414 15370 layer_factory.hpp:77] Creating layer relu3_2-R
I0716 03:29:39.417423 15370 net.cpp:84] Creating Layer relu3_2-R
I0716 03:29:39.417429 15370 net.cpp:406] relu3_2-R <- conv3_2-R
I0716 03:29:39.417436 15370 net.cpp:367] relu3_2-R -> conv3_2-R (in-place)
I0716 03:29:39.417686 15370 net.cpp:122] Setting up relu3_2-R
I0716 03:29:39.417701 15370 net.cpp:129] Top shape: 1 256 178 178 (8111104)
I0716 03:29:39.417706 15370 net.cpp:137] Memory required for data: 2232548384
I0716 03:29:39.417711 15370 layer_factory.hpp:77] Creating layer conv3_3-R
I0716 03:29:39.417735 15370 net.cpp:84] Creating Layer conv3_3-R
I0716 03:29:39.417740 15370 net.cpp:406] conv3_3-R <- conv3_2-R
I0716 03:29:39.417748 15370 net.cpp:380] conv3_3-R -> conv3_3-R
I0716 03:29:39.422466 15370 net.cpp:122] Setting up conv3_3-R
I0716 03:29:39.422485 15370 net.cpp:129] Top shape: 1 256 178 178 (8111104)
I0716 03:29:39.422499 15370 net.cpp:137] Memory required for data: 2264992800
I0716 03:29:39.422509 15370 layer_factory.hpp:77] Creating layer relu3_3-R
I0716 03:29:39.422518 15370 net.cpp:84] Creating Layer relu3_3-R
I0716 03:29:39.422523 15370 net.cpp:406] relu3_3-R <- conv3_3-R
I0716 03:29:39.422530 15370 net.cpp:367] relu3_3-R -> conv3_3-R (in-place)
I0716 03:29:39.422777 15370 net.cpp:122] Setting up relu3_3-R
I0716 03:29:39.422802 15370 net.cpp:129] Top shape: 1 256 178 178 (8111104)
I0716 03:29:39.422807 15370 net.cpp:137] Memory required for data: 2297437216
I0716 03:29:39.422811 15370 layer_factory.hpp:77] Creating layer pool3-R
I0716 03:29:39.422823 15370 net.cpp:84] Creating Layer pool3-R
I0716 03:29:39.422828 15370 net.cpp:406] pool3-R <- conv3_3-R
I0716 03:29:39.422837 15370 net.cpp:380] pool3-R -> pool3-R
I0716 03:29:39.422899 15370 net.cpp:122] Setting up pool3-R
I0716 03:29:39.422909 15370 net.cpp:129] Top shape: 1 256 89 89 (2027776)
I0716 03:29:39.422914 15370 net.cpp:137] Memory required for data: 2305548320
I0716 03:29:39.422919 15370 layer_factory.hpp:77] Creating layer pool3-R_pool3-R_0_split
I0716 03:29:39.422927 15370 net.cpp:84] Creating Layer pool3-R_pool3-R_0_split
I0716 03:29:39.422932 15370 net.cpp:406] pool3-R_pool3-R_0_split <- pool3-R
I0716 03:29:39.422940 15370 net.cpp:380] pool3-R_pool3-R_0_split -> pool3-R_pool3-R_0_split_0
I0716 03:29:39.422947 15370 net.cpp:380] pool3-R_pool3-R_0_split -> pool3-R_pool3-R_0_split_1
I0716 03:29:39.422996 15370 net.cpp:122] Setting up pool3-R_pool3-R_0_split
I0716 03:29:39.423008 15370 net.cpp:129] Top shape: 1 256 89 89 (2027776)
I0716 03:29:39.423013 15370 net.cpp:129] Top shape: 1 256 89 89 (2027776)
I0716 03:29:39.423017 15370 net.cpp:137] Memory required for data: 2321770528
I0716 03:29:39.423022 15370 layer_factory.hpp:77] Creating layer conv4_1-R
I0716 03:29:39.423032 15370 net.cpp:84] Creating Layer conv4_1-R
I0716 03:29:39.423036 15370 net.cpp:406] conv4_1-R <- pool3-R_pool3-R_0_split_0
I0716 03:29:39.423044 15370 net.cpp:380] conv4_1-R -> conv4_1-R
I0716 03:29:39.430632 15370 net.cpp:122] Setting up conv4_1-R
I0716 03:29:39.430667 15370 net.cpp:129] Top shape: 1 512 89 89 (4055552)
I0716 03:29:39.430675 15370 net.cpp:137] Memory required for data: 2337992736
I0716 03:29:39.430686 15370 layer_factory.hpp:77] Creating layer relu4_1-R
I0716 03:29:39.430696 15370 net.cpp:84] Creating Layer relu4_1-R
I0716 03:29:39.430702 15370 net.cpp:406] relu4_1-R <- conv4_1-R
I0716 03:29:39.430711 15370 net.cpp:367] relu4_1-R -> conv4_1-R (in-place)
I0716 03:29:39.433045 15370 net.cpp:122] Setting up relu4_1-R
I0716 03:29:39.433096 15370 net.cpp:129] Top shape: 1 512 89 89 (4055552)
I0716 03:29:39.433105 15370 net.cpp:137] Memory required for data: 2354214944
I0716 03:29:39.433115 15370 layer_factory.hpp:77] Creating layer conv4_2-R
I0716 03:29:39.433147 15370 net.cpp:84] Creating Layer conv4_2-R
I0716 03:29:39.433157 15370 net.cpp:406] conv4_2-R <- conv4_1-R
I0716 03:29:39.433174 15370 net.cpp:380] conv4_2-R -> conv4_2-R
I0716 03:29:39.446348 15370 net.cpp:122] Setting up conv4_2-R
I0716 03:29:39.446398 15370 net.cpp:129] Top shape: 1 512 89 89 (4055552)
I0716 03:29:39.446408 15370 net.cpp:137] Memory required for data: 2370437152
I0716 03:29:39.446429 15370 layer_factory.hpp:77] Creating layer relu4_2-R
I0716 03:29:39.446468 15370 net.cpp:84] Creating Layer relu4_2-R
I0716 03:29:39.446480 15370 net.cpp:406] relu4_2-R <- conv4_2-R
I0716 03:29:39.446496 15370 net.cpp:367] relu4_2-R -> conv4_2-R (in-place)
I0716 03:29:39.456136 15370 net.cpp:122] Setting up relu4_2-R
I0716 03:29:39.456171 15370 net.cpp:129] Top shape: 1 512 89 89 (4055552)
I0716 03:29:39.456176 15370 net.cpp:137] Memory required for data: 2386659360
I0716 03:29:39.456181 15370 layer_factory.hpp:77] Creating layer conv4_3-R
I0716 03:29:39.456240 15370 net.cpp:84] Creating Layer conv4_3-R
I0716 03:29:39.456249 15370 net.cpp:406] conv4_3-R <- conv4_2-R
I0716 03:29:39.456259 15370 net.cpp:380] conv4_3-R -> conv4_3-R
I0716 03:29:39.473364 15370 net.cpp:122] Setting up conv4_3-R
I0716 03:29:39.473409 15370 net.cpp:129] Top shape: 1 512 89 89 (4055552)
I0716 03:29:39.473419 15370 net.cpp:137] Memory required for data: 2402881568
I0716 03:29:39.473435 15370 layer_factory.hpp:77] Creating layer relu4_3-R
I0716 03:29:39.473477 15370 net.cpp:84] Creating Layer relu4_3-R
I0716 03:29:39.473491 15370 net.cpp:406] relu4_3-R <- conv4_3-R
I0716 03:29:39.473510 15370 net.cpp:367] relu4_3-R -> conv4_3-R (in-place)
I0716 03:29:39.473901 15370 net.cpp:122] Setting up relu4_3-R
I0716 03:29:39.473919 15370 net.cpp:129] Top shape: 1 512 89 89 (4055552)
I0716 03:29:39.473929 15370 net.cpp:137] Memory required for data: 2419103776
I0716 03:29:39.473937 15370 layer_factory.hpp:77] Creating layer pool4-R
I0716 03:29:39.473961 15370 net.cpp:84] Creating Layer pool4-R
I0716 03:29:39.473969 15370 net.cpp:406] pool4-R <- conv4_3-R
I0716 03:29:39.473984 15370 net.cpp:380] pool4-R -> pool4-R
I0716 03:29:39.474084 15370 net.cpp:122] Setting up pool4-R
I0716 03:29:39.474102 15370 net.cpp:129] Top shape: 1 512 45 45 (1036800)
I0716 03:29:39.474118 15370 net.cpp:137] Memory required for data: 2423250976
I0716 03:29:39.474125 15370 layer_factory.hpp:77] Creating layer pool4-R_pool4-R_0_split
I0716 03:29:39.474150 15370 net.cpp:84] Creating Layer pool4-R_pool4-R_0_split
I0716 03:29:39.474159 15370 net.cpp:406] pool4-R_pool4-R_0_split <- pool4-R
I0716 03:29:39.474170 15370 net.cpp:380] pool4-R_pool4-R_0_split -> pool4-R_pool4-R_0_split_0
I0716 03:29:39.474184 15370 net.cpp:380] pool4-R_pool4-R_0_split -> pool4-R_pool4-R_0_split_1
I0716 03:29:39.474265 15370 net.cpp:122] Setting up pool4-R_pool4-R_0_split
I0716 03:29:39.474279 15370 net.cpp:129] Top shape: 1 512 45 45 (1036800)
I0716 03:29:39.474287 15370 net.cpp:129] Top shape: 1 512 45 45 (1036800)
I0716 03:29:39.474294 15370 net.cpp:137] Memory required for data: 2431545376
I0716 03:29:39.474303 15370 layer_factory.hpp:77] Creating layer conv5_1-R
I0716 03:29:39.474319 15370 net.cpp:84] Creating Layer conv5_1-R
I0716 03:29:39.474328 15370 net.cpp:406] conv5_1-R <- pool4-R_pool4-R_0_split_0
I0716 03:29:39.474339 15370 net.cpp:380] conv5_1-R -> conv5_1-R
I0716 03:29:39.485415 15370 net.cpp:122] Setting up conv5_1-R
I0716 03:29:39.485438 15370 net.cpp:129] Top shape: 1 512 45 45 (1036800)
I0716 03:29:39.485443 15370 net.cpp:137] Memory required for data: 2435692576
I0716 03:29:39.485489 15370 layer_factory.hpp:77] Creating layer relu5_1-R
I0716 03:29:39.485499 15370 net.cpp:84] Creating Layer relu5_1-R
I0716 03:29:39.485513 15370 net.cpp:406] relu5_1-R <- conv5_1-R
I0716 03:29:39.485520 15370 net.cpp:367] relu5_1-R -> conv5_1-R (in-place)
I0716 03:29:39.487952 15370 net.cpp:122] Setting up relu5_1-R
I0716 03:29:39.487972 15370 net.cpp:129] Top shape: 1 512 45 45 (1036800)
I0716 03:29:39.487977 15370 net.cpp:137] Memory required for data: 2439839776
I0716 03:29:39.487982 15370 layer_factory.hpp:77] Creating layer conv5_2-R
I0716 03:29:39.487994 15370 net.cpp:84] Creating Layer conv5_2-R
I0716 03:29:39.487999 15370 net.cpp:406] conv5_2-R <- conv5_1-R
I0716 03:29:39.488011 15370 net.cpp:380] conv5_2-R -> conv5_2-R
I0716 03:29:39.499853 15370 net.cpp:122] Setting up conv5_2-R
I0716 03:29:39.499900 15370 net.cpp:129] Top shape: 1 512 45 45 (1036800)
I0716 03:29:39.499907 15370 net.cpp:137] Memory required for data: 2443986976
I0716 03:29:39.499920 15370 layer_factory.hpp:77] Creating layer relu5_2-R
I0716 03:29:39.499948 15370 net.cpp:84] Creating Layer relu5_2-R
I0716 03:29:39.499964 15370 net.cpp:406] relu5_2-R <- conv5_2-R
I0716 03:29:39.499975 15370 net.cpp:367] relu5_2-R -> conv5_2-R (in-place)
I0716 03:29:39.500285 15370 net.cpp:122] Setting up relu5_2-R
I0716 03:29:39.500300 15370 net.cpp:129] Top shape: 1 512 45 45 (1036800)
I0716 03:29:39.500306 15370 net.cpp:137] Memory required for data: 2448134176
I0716 03:29:39.500313 15370 layer_factory.hpp:77] Creating layer conv5_3-R
I0716 03:29:39.500329 15370 net.cpp:84] Creating Layer conv5_3-R
I0716 03:29:39.500334 15370 net.cpp:406] conv5_3-R <- conv5_2-R
I0716 03:29:39.500346 15370 net.cpp:380] conv5_3-R -> conv5_3-R
I0716 03:29:39.518034 15370 net.cpp:122] Setting up conv5_3-R
I0716 03:29:39.518071 15370 net.cpp:129] Top shape: 1 512 45 45 (1036800)
I0716 03:29:39.518081 15370 net.cpp:137] Memory required for data: 2452281376
I0716 03:29:39.518097 15370 layer_factory.hpp:77] Creating layer relu5_3-R
I0716 03:29:39.518123 15370 net.cpp:84] Creating Layer relu5_3-R
I0716 03:29:39.518134 15370 net.cpp:406] relu5_3-R <- conv5_3-R
I0716 03:29:39.518146 15370 net.cpp:367] relu5_3-R -> conv5_3-R (in-place)
I0716 03:29:39.518560 15370 net.cpp:122] Setting up relu5_3-R
I0716 03:29:39.518580 15370 net.cpp:129] Top shape: 1 512 45 45 (1036800)
I0716 03:29:39.518589 15370 net.cpp:137] Memory required for data: 2456428576
I0716 03:29:39.518595 15370 layer_factory.hpp:77] Creating layer pool5-R
I0716 03:29:39.518622 15370 net.cpp:84] Creating Layer pool5-R
I0716 03:29:39.518631 15370 net.cpp:406] pool5-R <- conv5_3-R
I0716 03:29:39.518651 15370 net.cpp:380] pool5-R -> pool5-R
I0716 03:29:39.518754 15370 net.cpp:122] Setting up pool5-R
I0716 03:29:39.518769 15370 net.cpp:129] Top shape: 1 512 23 23 (270848)
I0716 03:29:39.518775 15370 net.cpp:137] Memory required for data: 2457511968
I0716 03:29:39.518781 15370 layer_factory.hpp:77] Creating layer fc6-R
I0716 03:29:39.518808 15370 net.cpp:84] Creating Layer fc6-R
I0716 03:29:39.518831 15370 net.cpp:406] fc6-R <- pool5-R
I0716 03:29:39.518841 15370 net.cpp:380] fc6-R -> fc6-R
I0716 03:29:39.841496 15370 net.cpp:122] Setting up fc6-R
I0716 03:29:39.841545 15370 net.cpp:129] Top shape: 1 4096 17 17 (1183744)
I0716 03:29:39.841553 15370 net.cpp:137] Memory required for data: 2462246944
I0716 03:29:39.841567 15370 layer_factory.hpp:77] Creating layer relu6-R
I0716 03:29:39.841580 15370 net.cpp:84] Creating Layer relu6-R
I0716 03:29:39.841588 15370 net.cpp:406] relu6-R <- fc6-R
I0716 03:29:39.841598 15370 net.cpp:367] relu6-R -> fc6-R (in-place)
I0716 03:29:39.842485 15370 net.cpp:122] Setting up relu6-R
I0716 03:29:39.842502 15370 net.cpp:129] Top shape: 1 4096 17 17 (1183744)
I0716 03:29:39.842507 15370 net.cpp:137] Memory required for data: 2466981920
I0716 03:29:39.842511 15370 layer_factory.hpp:77] Creating layer drop6-R
I0716 03:29:39.842525 15370 net.cpp:84] Creating Layer drop6-R
I0716 03:29:39.842530 15370 net.cpp:406] drop6-R <- fc6-R
I0716 03:29:39.842537 15370 net.cpp:367] drop6-R -> fc6-R (in-place)
I0716 03:29:39.842579 15370 net.cpp:122] Setting up drop6-R
I0716 03:29:39.842588 15370 net.cpp:129] Top shape: 1 4096 17 17 (1183744)
I0716 03:29:39.842593 15370 net.cpp:137] Memory required for data: 2471716896
I0716 03:29:39.842597 15370 layer_factory.hpp:77] Creating layer fc7-R
I0716 03:29:39.842609 15370 net.cpp:84] Creating Layer fc7-R
I0716 03:29:39.842620 15370 net.cpp:406] fc7-R <- fc6-R
I0716 03:29:39.842639 15370 net.cpp:380] fc7-R -> fc7-R
I0716 03:29:39.898881 15370 net.cpp:122] Setting up fc7-R
I0716 03:29:39.898919 15370 net.cpp:129] Top shape: 1 4096 17 17 (1183744)
I0716 03:29:39.898926 15370 net.cpp:137] Memory required for data: 2476451872
I0716 03:29:39.898942 15370 layer_factory.hpp:77] Creating layer relu7-R
I0716 03:29:39.898957 15370 net.cpp:84] Creating Layer relu7-R
I0716 03:29:39.898965 15370 net.cpp:406] relu7-R <- fc7-R
I0716 03:29:39.898983 15370 net.cpp:367] relu7-R -> fc7-R (in-place)
I0716 03:29:39.899844 15370 net.cpp:122] Setting up relu7-R
I0716 03:29:39.899860 15370 net.cpp:129] Top shape: 1 4096 17 17 (1183744)
I0716 03:29:39.899865 15370 net.cpp:137] Memory required for data: 2481186848
I0716 03:29:39.899870 15370 layer_factory.hpp:77] Creating layer drop7-R
I0716 03:29:39.899883 15370 net.cpp:84] Creating Layer drop7-R
I0716 03:29:39.899888 15370 net.cpp:406] drop7-R <- fc7-R
I0716 03:29:39.899895 15370 net.cpp:367] drop7-R -> fc7-R (in-place)
I0716 03:29:39.899945 15370 net.cpp:122] Setting up drop7-R
I0716 03:29:39.899955 15370 net.cpp:129] Top shape: 1 4096 17 17 (1183744)
I0716 03:29:39.899958 15370 net.cpp:137] Memory required for data: 2485921824
I0716 03:29:39.899962 15370 layer_factory.hpp:77] Creating layer score_fr-new-R
I0716 03:29:39.899974 15370 net.cpp:84] Creating Layer score_fr-new-R
I0716 03:29:39.899982 15370 net.cpp:406] score_fr-new-R <- fc7-R
I0716 03:29:39.899991 15370 net.cpp:380] score_fr-new-R -> score_fr-new-R
I0716 03:29:39.901861 15370 net.cpp:122] Setting up score_fr-new-R
I0716 03:29:39.901881 15370 net.cpp:129] Top shape: 1 3 17 17 (867)
I0716 03:29:39.901886 15370 net.cpp:137] Memory required for data: 2485925292
I0716 03:29:39.901895 15370 layer_factory.hpp:77] Creating layer upscore2-new-R
I0716 03:29:39.901906 15370 net.cpp:84] Creating Layer upscore2-new-R
I0716 03:29:39.901912 15370 net.cpp:406] upscore2-new-R <- score_fr-new-R
I0716 03:29:39.901921 15370 net.cpp:380] upscore2-new-R -> upscore2-new-R
I0716 03:29:39.902241 15370 net.cpp:122] Setting up upscore2-new-R
I0716 03:29:39.902252 15370 net.cpp:129] Top shape: 1 3 36 36 (3888)
I0716 03:29:39.902256 15370 net.cpp:137] Memory required for data: 2485940844
I0716 03:29:39.902262 15370 layer_factory.hpp:77] Creating layer upscore2-new-R_upscore2-new-R_0_split
I0716 03:29:39.902273 15370 net.cpp:84] Creating Layer upscore2-new-R_upscore2-new-R_0_split
I0716 03:29:39.902278 15370 net.cpp:406] upscore2-new-R_upscore2-new-R_0_split <- upscore2-new-R
I0716 03:29:39.902285 15370 net.cpp:380] upscore2-new-R_upscore2-new-R_0_split -> upscore2-new-R_upscore2-new-R_0_split_0
I0716 03:29:39.902293 15370 net.cpp:380] upscore2-new-R_upscore2-new-R_0_split -> upscore2-new-R_upscore2-new-R_0_split_1
I0716 03:29:39.902343 15370 net.cpp:122] Setting up upscore2-new-R_upscore2-new-R_0_split
I0716 03:29:39.902353 15370 net.cpp:129] Top shape: 1 3 36 36 (3888)
I0716 03:29:39.902357 15370 net.cpp:129] Top shape: 1 3 36 36 (3888)
I0716 03:29:39.902361 15370 net.cpp:137] Memory required for data: 2485971948
I0716 03:29:39.902369 15370 layer_factory.hpp:77] Creating layer score_pool4-new-R
I0716 03:29:39.902379 15370 net.cpp:84] Creating Layer score_pool4-new-R
I0716 03:29:39.902384 15370 net.cpp:406] score_pool4-new-R <- pool4-R_pool4-R_0_split_1
I0716 03:29:39.902392 15370 net.cpp:380] score_pool4-new-R -> score_pool4-new-R
I0716 03:29:39.904170 15370 net.cpp:122] Setting up score_pool4-new-R
I0716 03:29:39.904187 15370 net.cpp:129] Top shape: 1 3 45 45 (6075)
I0716 03:29:39.904192 15370 net.cpp:137] Memory required for data: 2485996248
I0716 03:29:39.904201 15370 layer_factory.hpp:77] Creating layer score_pool4c-R
I0716 03:29:39.904209 15370 net.cpp:84] Creating Layer score_pool4c-R
I0716 03:29:39.904215 15370 net.cpp:406] score_pool4c-R <- score_pool4-new-R
I0716 03:29:39.904222 15370 net.cpp:406] score_pool4c-R <- upscore2-new-R_upscore2-new-R_0_split_0
I0716 03:29:39.904228 15370 net.cpp:380] score_pool4c-R -> score_pool4c-R
I0716 03:29:39.904271 15370 net.cpp:122] Setting up score_pool4c-R
I0716 03:29:39.904280 15370 net.cpp:129] Top shape: 1 3 36 36 (3888)
I0716 03:29:39.904284 15370 net.cpp:137] Memory required for data: 2486011800
I0716 03:29:39.904291 15370 layer_factory.hpp:77] Creating layer fuse_pool4-R
I0716 03:29:39.904301 15370 net.cpp:84] Creating Layer fuse_pool4-R
I0716 03:29:39.904310 15370 net.cpp:406] fuse_pool4-R <- upscore2-new-R_upscore2-new-R_0_split_1
I0716 03:29:39.904316 15370 net.cpp:406] fuse_pool4-R <- score_pool4c-R
I0716 03:29:39.904322 15370 net.cpp:380] fuse_pool4-R -> fuse_pool4-R
I0716 03:29:39.904356 15370 net.cpp:122] Setting up fuse_pool4-R
I0716 03:29:39.904364 15370 net.cpp:129] Top shape: 1 3 36 36 (3888)
I0716 03:29:39.904368 15370 net.cpp:137] Memory required for data: 2486027352
I0716 03:29:39.904372 15370 layer_factory.hpp:77] Creating layer upscore_pool4-new-R
I0716 03:29:39.904382 15370 net.cpp:84] Creating Layer upscore_pool4-new-R
I0716 03:29:39.904387 15370 net.cpp:406] upscore_pool4-new-R <- fuse_pool4-R
I0716 03:29:39.904395 15370 net.cpp:380] upscore_pool4-new-R -> upscore_pool4-new-R
I0716 03:29:39.904687 15370 net.cpp:122] Setting up upscore_pool4-new-R
I0716 03:29:39.904702 15370 net.cpp:129] Top shape: 1 3 74 74 (16428)
I0716 03:29:39.904706 15370 net.cpp:137] Memory required for data: 2486093064
I0716 03:29:39.904711 15370 layer_factory.hpp:77] Creating layer upscore_pool4-new-R_upscore_pool4-new-R_0_split
I0716 03:29:39.904721 15370 net.cpp:84] Creating Layer upscore_pool4-new-R_upscore_pool4-new-R_0_split
I0716 03:29:39.904726 15370 net.cpp:406] upscore_pool4-new-R_upscore_pool4-new-R_0_split <- upscore_pool4-new-R
I0716 03:29:39.904733 15370 net.cpp:380] upscore_pool4-new-R_upscore_pool4-new-R_0_split -> upscore_pool4-new-R_upscore_pool4-new-R_0_split_0
I0716 03:29:39.904742 15370 net.cpp:380] upscore_pool4-new-R_upscore_pool4-new-R_0_split -> upscore_pool4-new-R_upscore_pool4-new-R_0_split_1
I0716 03:29:39.904789 15370 net.cpp:122] Setting up upscore_pool4-new-R_upscore_pool4-new-R_0_split
I0716 03:29:39.904796 15370 net.cpp:129] Top shape: 1 3 74 74 (16428)
I0716 03:29:39.904801 15370 net.cpp:129] Top shape: 1 3 74 74 (16428)
I0716 03:29:39.904805 15370 net.cpp:137] Memory required for data: 2486224488
I0716 03:29:39.904809 15370 layer_factory.hpp:77] Creating layer score_pool3-new-R
I0716 03:29:39.904819 15370 net.cpp:84] Creating Layer score_pool3-new-R
I0716 03:29:39.904824 15370 net.cpp:406] score_pool3-new-R <- pool3-R_pool3-R_0_split_1
I0716 03:29:39.904832 15370 net.cpp:380] score_pool3-new-R -> score_pool3-new-R
I0716 03:29:39.906028 15370 net.cpp:122] Setting up score_pool3-new-R
I0716 03:29:39.906044 15370 net.cpp:129] Top shape: 1 3 89 89 (23763)
I0716 03:29:39.906049 15370 net.cpp:137] Memory required for data: 2486319540
I0716 03:29:39.906056 15370 layer_factory.hpp:77] Creating layer score_pool3c-R
I0716 03:29:39.906069 15370 net.cpp:84] Creating Layer score_pool3c-R
I0716 03:29:39.906075 15370 net.cpp:406] score_pool3c-R <- score_pool3-new-R
I0716 03:29:39.906080 15370 net.cpp:406] score_pool3c-R <- upscore_pool4-new-R_upscore_pool4-new-R_0_split_0
I0716 03:29:39.906090 15370 net.cpp:380] score_pool3c-R -> score_pool3c-R
I0716 03:29:39.906132 15370 net.cpp:122] Setting up score_pool3c-R
I0716 03:29:39.906142 15370 net.cpp:129] Top shape: 1 3 74 74 (16428)
I0716 03:29:39.906147 15370 net.cpp:137] Memory required for data: 2486385252
I0716 03:29:39.906152 15370 layer_factory.hpp:77] Creating layer fuse_pool3-R
I0716 03:29:39.906162 15370 net.cpp:84] Creating Layer fuse_pool3-R
I0716 03:29:39.906167 15370 net.cpp:406] fuse_pool3-R <- upscore_pool4-new-R_upscore_pool4-new-R_0_split_1
I0716 03:29:39.906172 15370 net.cpp:406] fuse_pool3-R <- score_pool3c-R
I0716 03:29:39.906177 15370 net.cpp:380] fuse_pool3-R -> fuse_pool3-R
I0716 03:29:39.906214 15370 net.cpp:122] Setting up fuse_pool3-R
I0716 03:29:39.906235 15370 net.cpp:129] Top shape: 1 3 74 74 (16428)
I0716 03:29:39.906239 15370 net.cpp:137] Memory required for data: 2486450964
I0716 03:29:39.906242 15370 layer_factory.hpp:77] Creating layer upscore8-new-R
I0716 03:29:39.906252 15370 net.cpp:84] Creating Layer upscore8-new-R
I0716 03:29:39.906256 15370 net.cpp:406] upscore8-new-R <- fuse_pool3-R
I0716 03:29:39.906263 15370 net.cpp:380] upscore8-new-R -> upscore8-new-R
I0716 03:29:39.906631 15370 net.cpp:122] Setting up upscore8-new-R
I0716 03:29:39.906644 15370 net.cpp:129] Top shape: 1 3 600 600 (1080000)
I0716 03:29:39.906648 15370 net.cpp:137] Memory required for data: 2490770964
I0716 03:29:39.906656 15370 layer_factory.hpp:77] Creating layer upscore8_cropped-R
I0716 03:29:39.906662 15370 net.cpp:84] Creating Layer upscore8_cropped-R
I0716 03:29:39.906667 15370 net.cpp:406] upscore8_cropped-R <- upscore8-new-R
I0716 03:29:39.906674 15370 net.cpp:406] upscore8_cropped-R <- data-R_crop_0_split_1
I0716 03:29:39.906680 15370 net.cpp:380] upscore8_cropped-R -> upscore8_cropped-R
I0716 03:29:39.906723 15370 net.cpp:122] Setting up upscore8_cropped-R
I0716 03:29:39.906733 15370 net.cpp:129] Top shape: 1 3 512 512 (786432)
I0716 03:29:39.906738 15370 net.cpp:137] Memory required for data: 2493916692
I0716 03:29:39.906745 15370 layer_factory.hpp:77] Creating layer upscore8_uncropped-R
I0716 03:29:39.907135 15370 net.cpp:84] Creating Layer upscore8_uncropped-R
I0716 03:29:39.907151 15370 net.cpp:406] upscore8_uncropped-R <- crop_info
I0716 03:29:39.907171 15370 net.cpp:406] upscore8_uncropped-R <- upscore8_cropped-R
I0716 03:29:39.907176 15370 net.cpp:406] upscore8_uncropped-R <- data_data_0_split_3
I0716 03:29:39.907183 15370 net.cpp:380] upscore8_uncropped-R -> upscore8_uncropped-R
I0716 03:29:39.911952 15370 net.cpp:122] Setting up upscore8_uncropped-R
I0716 03:29:39.912019 15370 net.cpp:129] Top shape: 1 3 512 512 (786432)
I0716 03:29:39.912027 15370 net.cpp:137] Memory required for data: 2497062420
I0716 03:29:39.912060 15370 layer_factory.hpp:77] Creating layer loss1
I0716 03:29:39.912092 15370 net.cpp:84] Creating Layer loss1
I0716 03:29:39.912115 15370 net.cpp:406] loss1 <- upscore8_cropped_upscore8_cropped_0_split_1
I0716 03:29:39.912134 15370 net.cpp:406] loss1 <- label_data_1_split_1
I0716 03:29:39.912149 15370 net.cpp:380] loss1 -> loss1
…
