…
snapshot_prefix: "/media/Med_2T2/data2/models/snapshots/joint:1e-5x10,1e-5x10,20/FD1:YI3_1_20180418_201418,YJ3_1_20180419_074829/train"
test_initialization: false
average_loss: 20
stepvalue: 45000
stepvalue: 50000
stepvalue: 55000
iter_size: 1
I0419 09:35:33.181339 29505 solver.cpp:77] Creating training net from train_net file: /media/Med_2T2/data2/prototxts/training_J3x10.prototxt
I0419 09:35:33.184649 29505 net.cpp:51] Initializing net from parameters: 
state {
  phase: TRAIN
}
layer {
  name: "data"
  type: "Python"
  top: "data"
  top: "label"
  top: "crop_margin"
  top: "crop_prob"
  top: "crop_sample_batch"
  python_param {
    module: "Data"
    layer: "DataLayer"
  }
}
layer {
  name: "conv1_1"
  type: "Convolution"
  bottom: "data"
  top: "conv1_1"
  param {
    lr_mult: 1
    decay_mult: 1
  }
  param {
    lr_mult: 2
    decay_mult: 0
  }
  convolution_param {
    num_output: 64
    pad: 100
    kernel_size: 3
    stride: 1
  }
}
layer {
  name: "relu1_1"
  type: "ReLU"
  bottom: "conv1_1"
  top: "conv1_1"
}
layer {
  name: "conv1_2"
  type: "Convolution"
  bottom: "conv1_1"
  top: "conv1_2"
  param {
    lr_mult: 1
    decay_mult: 1
  }
  param {
    lr_mult: 2
    decay_mult: 0
  }
  convolution_param {
    num_output: 64
    pad: 1
    kernel_size: 3
    stride: 1
  }
}
layer {
  name: "relu1_2"
  type: "ReLU"
  bottom: "conv1_2"
  top: "conv1_2"
}
layer {
  name: "pool1"
  type: "Pooling"
  bottom: "conv1_2"
  top: "pool1"
  pooling_param {
    pool: MAX
    kernel_size: 2
    stride: 2
  }
}
layer {
  name: "conv2_1"
  type: "Convolution"
  bottom: "pool1"
  top: "conv2_1"
  param {
    lr_mult: 1
    decay_mult: 1
  }
  param {
    lr_mult: 2
    decay_mult: 0
  }
  convolution_param {
    num_output: 128
    pad: 1
    kernel_size: 3
    stride: 1
  }
}
layer {
  name: "relu2_1"
  type: "ReLU"
  bottom: "conv2_1"
  top: "conv2_1"
}
layer {
  name: "conv2_2"
  type: "Convolution"
  bottom: "conv2_1"
  top: "conv2_2"
  param {
    lr_mult: 1
    decay_mult: 1
  }
  param {
    lr_mult: 2
    decay_mult: 0
  }
  convolution_param {
    num_output: 128
    pad: 1
    kernel_size: 3
    stride: 1
  }
}
layer {
  name: "relu2_2"
  type: "ReLU"
  bottom: "conv2_2"
  top: "conv2_2"
}
layer {
  name: "pool2"
  type: "Pooling"
  bottom: "conv2_2"
  top: "pool2"
  pooling_param {
    pool: MAX
    kernel_size: 2
    stride: 2
  }
}
layer {
  name: "conv3_1"
  type: "Convolution"
  bottom: "pool2"
  top: "conv3_1"
  param {
    lr_mult: 1
    decay_mult: 1
  }
  param {
    lr_mult: 2
    decay_mult: 0
  }
  convolution_param {
    num_output: 256
    pad: 1
    kernel_size: 3
    stride: 1
  }
}
layer {
  name: "relu3_1"
  type: "ReLU"
  bottom: "conv3_1"
  top: "conv3_1"
}
layer {
  name: "conv3_2"
  type: "Convolution"
  bottom: "conv3_1"
  top: "conv3_2"
  param {
    lr_mult: 1
    decay_mult: 1
  }
  param {
    lr_mult: 2
    decay_mult: 0
  }
  convolution_param {
    num_output: 256
    pad: 1
    kernel_size: 3
    stride: 1
  }
}
layer {
  name: "relu3_2"
  type: "ReLU"
  bottom: "conv3_2"
  top: "conv3_2"
}
layer {
  name: "conv3_3"
  type: "Convolution"
  bottom: "conv3_2"
  top: "conv3_3"
  param {
    lr_mult: 1
    decay_mult: 1
  }
  param {
    lr_mult: 2
    decay_mult: 0
  }
  convolution_param {
    num_output: 256
    pad: 1
    kernel_size: 3
    stride: 1
  }
}
layer {
  name: "relu3_3"
  type: "ReLU"
  bottom: "conv3_3"
  top: "conv3_3"
}
layer {
  name: "pool3"
  type: "Pooling"
  bottom: "conv3_3"
  top: "pool3"
  pooling_param {
    pool: MAX
    kernel_size: 2
    stride: 2
  }
}
layer {
  name: "conv4_1"
  type: "Convolution"
  bottom: "pool3"
  top: "conv4_1"
  param {
    lr_mult: 1
    decay_mult: 1
  }
  param {
    lr_mult: 2
    decay_mult: 0
  }
  convolution_param {
    num_output: 512
    pad: 1
    kernel_size: 3
    stride: 1
  }
}
layer {
  name: "relu4_1"
  type: "ReLU"
  bottom: "conv4_1"
  top: "conv4_1"
}
layer {
  name: "conv4_2"
  type: "Convolution"
  bottom: "conv4_1"
  top: "conv4_2"
  param {
    lr_mult: 1
    decay_mult: 1
  }
  param {
    lr_mult: 2
    decay_mult: 0
  }
  convolution_param {
    num_output: 512
    pad: 1
    kernel_size: 3
    stride: 1
  }
}
layer {
  name: "relu4_2"
  type: "ReLU"
  bottom: "conv4_2"
  top: "conv4_2"
}
layer {
  name: "conv4_3"
  type: "Convolution"
  bottom: "conv4_2"
  top: "conv4_3"
  param {
    lr_mult: 1
    decay_mult: 1
  }
  param {
    lr_mult: 2
    decay_mult: 0
  }
  convolution_param {
    num_output: 512
    pad: 1
    kernel_size: 3
    stride: 1
  }
}
layer {
  name: "relu4_3"
  type: "ReLU"
  bottom: "conv4_3"
  top: "conv4_3"
}
layer {
  name: "pool4"
  type: "Pooling"
  bottom: "conv4_3"
  top: "pool4"
  pooling_param {
    pool: MAX
    kernel_size: 2
    stride: 2
  }
}
layer {
  name: "conv5_1"
  type: "Convolution"
  bottom: "pool4"
  top: "conv5_1"
  param {
    lr_mult: 1
    decay_mult: 1
  }
  param {
    lr_mult: 2
    decay_mult: 0
  }
  convolution_param {
    num_output: 512
    pad: 1
    kernel_size: 3
    stride: 1
  }
}
layer {
  name: "relu5_1"
  type: "ReLU"
  bottom: "conv5_1"
  top: "conv5_1"
}
layer {
  name: "conv5_2"
  type: "Convolution"
  bottom: "conv5_1"
  top: "conv5_2"
  param {
    lr_mult: 1
    decay_mult: 1
  }
  param {
    lr_mult: 2
    decay_mult: 0
  }
  convolution_param {
    num_output: 512
    pad: 1
    kernel_size: 3
    stride: 1
  }
}
layer {
  name: "relu5_2"
  type: "ReLU"
  bottom: "conv5_2"
  top: "conv5_2"
}
layer {
  name: "conv5_3"
  type: "Convolution"
  bottom: "conv5_2"
  top: "conv5_3"
  param {
    lr_mult: 1
    decay_mult: 1
  }
  param {
    lr_mult: 2
    decay_mult: 0
  }
  convolution_param {
    num_output: 512
    pad: 1
    kernel_size: 3
    stride: 1
  }
}
layer {
  name: "relu5_3"
  type: "ReLU"
  bottom: "conv5_3"
  top: "conv5_3"
}
layer {
  name: "pool5"
  type: "Pooling"
  bottom: "conv5_3"
  top: "pool5"
  pooling_param {
    pool: MAX
    kernel_size: 2
    stride: 2
  }
}
layer {
  name: "fc6"
  type: "Convolution"
  bottom: "pool5"
  top: "fc6"
  param {
    lr_mult: 1
    decay_mult: 1
  }
  param {
    lr_mult: 2
    decay_mult: 0
  }
  convolution_param {
    num_output: 4096
    pad: 0
    kernel_size: 7
    stride: 1
  }
}
layer {
  name: "relu6"
  type: "ReLU"
  bottom: "fc6"
  top: "fc6"
}
layer {
  name: "drop6"
  type: "Dropout"
  bottom: "fc6"
  top: "fc6"
  dropout_param {
    dropout_ratio: 0.5
  }
}
layer {
  name: "fc7"
  type: "Convolution"
  bottom: "fc6"
  top: "fc7"
  param {
    lr_mult: 1
    decay_mult: 1
  }
  param {
    lr_mult: 2
    decay_mult: 0
  }
  convolution_param {
    num_output: 4096
    pad: 0
    kernel_size: 1
    stride: 1
  }
}
layer {
  name: "relu7"
  type: "ReLU"
  bottom: "fc7"
  top: "fc7"
}
layer {
  name: "drop7"
  type: "Dropout"
  bottom: "fc7"
  top: "fc7"
  dropout_param {
    dropout_ratio: 0.5
  }
}
layer {
  name: "score_fr-new"
  type: "Convolution"
  bottom: "fc7"
  top: "score_fr-new"
  param {
    lr_mult: 1
    decay_mult: 1
  }
  param {
    lr_mult: 2
    decay_mult: 0
  }
  convolution_param {
    num_output: 3
    kernel_size: 1
  }
}
layer {
  name: "upscore2-new"
  type: "Deconvolution"
  bottom: "score_fr-new"
  top: "upscore2-new"
  param {
    lr_mult: 0
  }
  convolution_param {
    num_output: 3
    bias_term: false
    kernel_size: 4
    stride: 2
  }
}
layer {
  name: "score_pool4-new"
  type: "Convolution"
  bottom: "pool4"
  top: "score_pool4-new"
  param {
    lr_mult: 1
    decay_mult: 1
  }
  param {
    lr_mult: 2
    decay_mult: 0
  }
  convolution_param {
    num_output: 3
    pad: 0
    kernel_size: 1
  }
}
layer {
  name: "score_pool4c"
  type: "Crop"
  bottom: "score_pool4-new"
  bottom: "upscore2-new"
  top: "score_pool4c"
  crop_param {
    axis: 2
    offset: 5
  }
}
layer {
  name: "fuse_pool4"
  type: "Eltwise"
  bottom: "upscore2-new"
  bottom: "score_pool4c"
  top: "fuse_pool4"
  eltwise_param {
    operation: SUM
  }
}
layer {
  name: "upscore_pool4-new"
  type: "Deconvolution"
  bottom: "fuse_pool4"
  top: "upscore_pool4-new"
  param {
    lr_mult: 0
  }
  convolution_param {
    num_output: 3
    bias_term: false
    kernel_size: 4
    stride: 2
  }
}
layer {
  name: "score_pool3-new"
  type: "Convolution"
  bottom: "pool3"
  top: "score_pool3-new"
  param {
    lr_mult: 1
    decay_mult: 1
  }
  param {
    lr_mult: 2
    decay_mult: 0
  }
  convolution_param {
    num_output: 3
    pad: 0
    kernel_size: 1
  }
}
layer {
  name: "score_pool3c"
  type: "Crop"
  bottom: "score_pool3-new"
  bottom: "upscore_pool4-new"
  top: "score_pool3c"
  crop_param {
    axis: 2
    offset: 9
  }
}
layer {
  name: "fuse_pool3"
  type: "Eltwise"
  bottom: "upscore_pool4-new"
  bottom: "score_pool3c"
  top: "fuse_pool3"
  eltwise_param {
    operation: SUM
  }
}
layer {
  name: "upscore8-new"
  type: "Deconvolution"
  bottom: "fuse_pool3"
  top: "upscore8-new"
  param {
    lr_mult: 0
  }
  convolution_param {
    num_output: 3
    bias_term: false
    kernel_size: 16
    stride: 8
  }
}
layer {
  name: "upscore8_cropped"
  type: "Crop"
  bottom: "upscore8-new"
  bottom: "data"
  top: "upscore8_cropped"
  crop_param {
    axis: 2
    offset: 31
  }
}
layer {
  name: "score"
  type: "Convolution"
  bottom: "upscore8_cropped"
  top: "score"
  param {
    lr_mult: 1
    decay_mult: 1
  }
  param {
    lr_mult: 2
    decay_mult: 0
  }
  convolution_param {
    num_output: 3
    pad: 1
    kernel_size: 3
    stride: 1
  }
}
layer {
  name: "prob"
  type: "Sigmoid"
  bottom: "score"
  top: "prob"
}
layer {
  name: "saliency"
  type: "Convolution"
  bottom: "prob"
  top: "saliency"
  param {
    lr_mult: 10
    decay_mult: 1
  }
  param {
    lr_mult: 20
    decay_mult: 0
  }
  convolution_param {
    num_output: 3
    pad: 2
    kernel_size: 5
    stride: 1
  }
}
layer {
  name: "saliency_data"
  type: "Eltwise"
  bottom: "data"
  bottom: "saliency"
  top: "saliency_data"
  eltwise_param {
    operation: PROD
  }
}
layer {
  name: "crop"
  type: "Python"
  bottom: "prob"
  bottom: "saliency_data"
  bottom: "crop_margin"
  bottom: "crop_prob"
  bottom: "crop_sample_batch"
  bottom: "label"
  top: "data-R"
  top: "crop_info"
  python_param {
    module: "Crop"
    layer: "CropLayer"
    param_str: "{\"TEST\": 0}"
  }
}
layer {
  name: "conv1_1-R"
  type: "Convolution"
  bottom: "data-R"
  top: "conv1_1-R"
  param {
    lr_mult: 10
    decay_mult: 1
  }
  param {
    lr_mult: 20
    decay_mult: 0
  }
  convolution_param {
    num_output: 64
    pad: 100
    kernel_size: 3
    stride: 1
  }
}
layer {
  name: "relu1_1-R"
  type: "ReLU"
  bottom: "conv1_1-R"
  top: "conv1_1-R"
}
layer {
  name: "conv1_2-R"
  type: "Convolution"
  bottom: "conv1_1-R"
  top: "conv1_2-R"
  param {
    lr_mult: 10
    decay_mult: 1
  }
  param {
    lr_mult: 20
    decay_mult: 0
  }
  convolution_param {
    num_output: 64
    pad: 1
    kernel_size: 3
    stride: 1
  }
}
layer {
  name: "relu1_2-R"
  type: "ReLU"
  bottom: "conv1_2-R"
  top: "conv1_2-R"
}
layer {
  name: "pool1-R"
  type: "Pooling"
  bottom: "conv1_2-R"
  top: "pool1-R"
  pooling_param {
    pool: MAX
    kernel_size: 2
    stride: 2
  }
}
layer {
  name: "conv2_1-R"
  type: "Convolution"
  bottom: "pool1-R"
  top: "conv2_1-R"
  param {
    lr_mult: 10
    decay_mult: 1
  }
  param {
    lr_mult: 20
    decay_mult: 0
  }
  convolution_param {
    num_output: 128
    pad: 1
    kernel_size: 3
    stride: 1
  }
}
layer {
  name: "relu2_1-R"
  type: "ReLU"
  bottom: "conv2_1-R"
  top: "conv2_1-R"
}
layer {
  name: "conv2_2-R"
  type: "Convolution"
  bottom: "conv2_1-R"
  top: "conv2_2-R"
  param {
    lr_mult: 10
    decay_mult: 1
  }
  param {
    lr_mult: 20
    decay_mult: 0
  }
  convolution_param {
    num_output: 128
    pad: 1
    kernel_size: 3
    stride: 1
  }
}
layer {
  name: "relu2_2-R"
  type: "ReLU"
  bottom: "conv2_2-R"
  top: "conv2_2-R"
}
layer {
  name: "pool2-R"
  type: "Pooling"
  bottom: "conv2_2-R"
  top: "pool2-R"
  pooling_param {
    pool: MAX
    kernel_size: 2
    stride: 2
  }
}
layer {
  name: "conv3_1-R"
  type: "Convolution"
  bottom: "pool2-R"
  top: "conv3_1-R"
  param {
    lr_mult: 10
    decay_mult: 1
  }
  param {
    lr_mult: 20
    decay_mult: 0
  }
  convolution_param {
    num_output: 256
    pad: 1
    kernel_size: 3
    stride: 1
  }
}
layer {
  name: "relu3_1-R"
  type: "ReLU"
  bottom: "conv3_1-R"
  top: "conv3_1-R"
}
layer {
  name: "conv3_2-R"
  type: "Convolution"
  bottom: "conv3_1-R"
  top: "conv3_2-R"
  param {
    lr_mult: 10
    decay_mult: 1
  }
  param {
    lr_mult: 20
    decay_mult: 0
  }
  convolution_param {
    num_output: 256
    pad: 1
    kernel_size: 3
    stride: 1
  }
}
layer {
  name: "relu3_2-R"
  type: "ReLU"
  bottom: "conv3_2-R"
  top: "conv3_2-R"
}
layer {
  name: "conv3_3-R"
  type: "Convolution"
  bottom: "conv3_2-R"
  top: "conv3_3-R"
  param {
    lr_mult: 10
    decay_mult: 1
  }
  param {
    lr_mult: 20
    decay_mult: 0
  }
  convolution_param {
    num_output: 256
    pad: 1
    kernel_size: 3
    stride: 1
  }
}
layer {
  name: "relu3_3-R"
  type: "ReLU"
  bottom: "conv3_3-R"
  top: "conv3_3-R"
}
layer {
  name: "pool3-R"
  type: "Pooling"
  bottom: "conv3_3-R"
  top: "pool3-R"
  pooling_param {
    pool: MAX
    kernel_size: 2
    stride: 2
  }
}
layer {
  name: "conv4_1-R"
  type: "Convolution"
  bottom: "pool3-R"
  top: "conv4_1-R"
  param {
    lr_mult: 10
    decay_mult: 1
  }
  param {
    lr_mult: 20
    decay_mult: 0
  }
  convolution_param {
    num_output: 512
    pad: 1
    kernel_size: 3
    stride: 1
  }
}
layer {
  name: "relu4_1-R"
  type: "ReLU"
  bottom: "conv4_1-R"
  top: "conv4_1-R"
}
layer {
  name: "conv4_2-R"
  type: "Convolution"
  bottom: "conv4_1-R"
  top: "conv4_2-R"
  param {
    lr_mult: 10
    decay_mult: 1
  }
  param {
    lr_mult: 20
    decay_mult: 0
  }
  convolution_param {
    num_output: 512
    pad: 1
    kernel_size: 3
    stride: 1
  }
}
layer {
  name: "relu4_2-R"
  type: "ReLU"
  bottom: "conv4_2-R"
  top: "conv4_2-R"
}
layer {
  name: "conv4_3-R"
  type: "Convolution"
  bottom: "conv4_2-R"
  top: "conv4_3-R"
  param {
    lr_mult: 10
    decay_mult: 1
  }
  param {
    lr_mult: 20
    decay_mult: 0
  }
  convolution_param {
    num_output: 512
    pad: 1
    kernel_size: 3
    stride: 1
  }
}
layer {
  name: "relu4_3-R"
  type: "ReLU"
  bottom: "conv4_3-R"
  top: "conv4_3-R"
}
layer {
  name: "pool4-R"
  type: "Pooling"
  bottom: "conv4_3-R"
  top: "pool4-R"
  pooling_param {
    pool: MAX
    kernel_size: 2
    stride: 2
  }
}
layer {
  name: "conv5_1-R"
  type: "Convolution"
  bottom: "pool4-R"
  top: "conv5_1-R"
  param {
    lr_mult: 10
    decay_mult: 1
  }
  param {
    lr_mult: 20
    decay_mult: 0
  }
  convolution_param {
    num_output: 512
    pad: 1
    kernel_size: 3
    stride: 1
  }
}
layer {
  name: "relu5_1-R"
  type: "ReLU"
  bottom: "conv5_1-R"
  top: "conv5_1-R"
}
layer {
  name: "conv5_2-R"
  type: "Convolution"
  bottom: "conv5_1-R"
  top: "conv5_2-R"
  param {
    lr_mult: 10
    decay_mult: 1
  }
  param {
    lr_mult: 20
    decay_mult: 0
  }
  convolution_param {
    num_output: 512
    pad: 1
    kernel_size: 3
    stride: 1
  }
}
layer {
  name: "relu5_2-R"
  type: "ReLU"
  bottom: "conv5_2-R"
  top: "conv5_2-R"
}
layer {
  name: "conv5_3-R"
  type: "Convolution"
  bottom: "conv5_2-R"
  top: "conv5_3-R"
  param {
    lr_mult: 10
    decay_mult: 1
  }
  param {
    lr_mult: 20
    decay_mult: 0
  }
  convolution_param {
    num_output: 512
    pad: 1
    kernel_size: 3
    stride: 1
  }
}
layer {
  name: "relu5_3-R"
  type: "ReLU"
  bottom: "conv5_3-R"
  top: "conv5_3-R"
}
layer {
  name: "pool5-R"
  type: "Pooling"
  bottom: "conv5_3-R"
  top: "pool5-R"
  pooling_param {
    pool: MAX
    kernel_size: 2
    stride: 2
  }
}
layer {
  name: "fc6-R"
  type: "Convolution"
  bottom: "pool5-R"
  top: "fc6-R"
  param {
    lr_mult: 10
    decay_mult: 1
  }
  param {
    lr_mult: 20
    decay_mult: 0
  }
  convolution_param {
    num_output: 4096
    pad: 0
    kernel_size: 7
    stride: 1
  }
}
layer {
  name: "relu6-R"
  type: "ReLU"
  bottom: "fc6-R"
  top: "fc6-R"
}
layer {
  name: "drop6-R"
  type: "Dropout"
  bottom: "fc6-R"
  top: "fc6-R"
  dropout_param {
    dropout_ratio: 0.5
  }
}
layer {
  name: "fc7-R"
  type: "Convolution"
  bottom: "fc6-R"
  top: "fc7-R"
  param {
    lr_mult: 10
    decay_mult: 1
  }
  param {
    lr_mult: 20
    decay_mult: 0
  }
  convolution_param {
    num_output: 4096
    pad: 0
    kernel_size: 1
    stride: 1
  }
}
layer {
  name: "relu7-R"
  type: "ReLU"
  bottom: "fc7-R"
  top: "fc7-R"
}
layer {
  name: "drop7-R"
  type: "Dropout"
  bottom: "fc7-R"
  top: "fc7-R"
  dropout_param {
    dropout_ratio: 0.5
  }
}
layer {
  name: "score_fr-new-R"
  type: "Convolution"
  bottom: "fc7-R"
  top: "score_fr-new-R"
  param {
    lr_mult: 10
    decay_mult: 1
  }
  param {
    lr_mult: 20
    decay_mult: 0
  }
  convolution_param {
    num_output: 3
    kernel_size: 1
  }
}
layer {
  name: "upscore2-new-R"
  type: "Deconvolution"
  bottom: "score_fr-new-R"
  top: "upscore2-new-R"
  param {
    lr_mult: 0
  }
  convolution_param {
    num_output: 3
    bias_term: false
    kernel_size: 4
    stride: 2
  }
}
layer {
  name: "score_pool4-new-R"
  type: "Convolution"
  bottom: "pool4-R"
  top: "score_pool4-new-R"
  param {
    lr_mult: 10
    decay_mult: 1
  }
  param {
    lr_mult: 20
    decay_mult: 0
  }
  convolution_param {
    num_output: 3
    pad: 0
    kernel_size: 1
  }
}
layer {
  name: "score_pool4c-R"
  type: "Crop"
  bottom: "score_pool4-new-R"
  bottom: "upscore2-new-R"
  top: "score_pool4c-R"
  crop_param {
    axis: 2
    offset: 5
  }
}
layer {
  name: "fuse_pool4-R"
  type: "Eltwise"
  bottom: "upscore2-new-R"
  bottom: "score_pool4c-R"
  top: "fuse_pool4-R"
  eltwise_param {
    operation: SUM
  }
}
layer {
  name: "upscore_pool4-new-R"
  type: "Deconvolution"
  bottom: "fuse_pool4-R"
  top: "upscore_pool4-new-R"
  param {
    lr_mult: 0
  }
  convolution_param {
    num_output: 3
    bias_term: false
    kernel_size: 4
    stride: 2
  }
}
layer {
  name: "score_pool3-new-R"
  type: "Convolution"
  bottom: "pool3-R"
  top: "score_pool3-new-R"
  param {
    lr_mult: 10
    decay_mult: 1
  }
  param {
    lr_mult: 20
    decay_mult: 0
  }
  convolution_param {
    num_output: 3
    pad: 0
    kernel_size: 1
  }
}
layer {
  name: "score_pool3c-R"
  type: "Crop"
  bottom: "score_pool3-new-R"
  bottom: "upscore_pool4-new-R"
  top: "score_pool3c-R"
  crop_param {
    axis: 2
    offset: 9
  }
}
layer {
  name: "fuse_pool3-R"
  type: "Eltwise"
  bottom: "upscore_pool4-new-R"
  bottom: "score_pool3c-R"
  top: "fuse_pool3-R"
  eltwise_param {
    operation: SUM
  }
}
layer {
  name: "upscore8-new-R"
  type: "Deconvolution"
  bottom: "fuse_pool3-R"
  top: "upscore8-new-R"
  param {
    lr_mult: 0
  }
  convolution_param {
    num_output: 3
    bias_term: false
    kernel_size: 16
    stride: 8
  }
}
layer {
  name: "upscore8_cropped-R"
  type: "Crop"
  bottom: "upscore8-new-R"
  bottom: "data-R"
  top: "upscore8_cropped-R"
  crop_param {
    axis: 2
    offset: 31
  }
}
layer {
  name: "score-R"
  type: "Convolution"
  bottom: "upscore8_cropped-R"
  top: "score-R"
  param {
    lr_mult: 10
    decay_mult: 1
  }
  param {
    lr_mult: 20
    decay_mult: 0
  }
  convolution_param {
    num_output: 3
    pad: 1
    kernel_size: 3
    stride: 1
  }
}
layer {
  name: "score_uncropped-R"
  type: "Python"
  bottom: "crop_info"
  bottom: "score-R"
  bottom: "data"
  top: "score_uncropped-R"
  python_param {
    module: "Uncrop"
    layer: "UncropLayer"
  }
}
layer {
  name: "loss1"
  type: "DiceLoss"
  bottom: "score"
  bottom: "label"
  top: "loss1"
  loss_weight: 0.333333
}
layer {
  name: "loss2"
  type: "DiceLoss"
  bottom: "score_uncropped-R"
  bottom: "label"
  top: "loss2"
  loss_weight: 0.666667
}
I0419 09:35:33.185225 29505 layer_factory.hpp:77] Creating layer data
I0419 09:35:33.186095 29505 net.cpp:84] Creating Layer data
I0419 09:35:33.186110 29505 net.cpp:380] data -> data
I0419 09:35:33.186127 29505 net.cpp:380] data -> label
I0419 09:35:33.186136 29505 net.cpp:380] data -> crop_margin
I0419 09:35:33.186142 29505 net.cpp:380] data -> crop_prob
I0419 09:35:33.186148 29505 net.cpp:380] data -> crop_sample_batch
I0419 09:35:33.377046 29505 net.cpp:122] Setting up data
I0419 09:35:33.377100 29505 net.cpp:129] Top shape: 1 3 512 310 (476160)
I0419 09:35:33.377107 29505 net.cpp:129] Top shape: 1 3 512 310 (476160)
I0419 09:35:33.377113 29505 net.cpp:129] Top shape: 1 (1)
I0419 09:35:33.377118 29505 net.cpp:129] Top shape: 1 (1)
I0419 09:35:33.377123 29505 net.cpp:129] Top shape: 1 (1)
I0419 09:35:33.377127 29505 net.cpp:137] Memory required for data: 3809292
I0419 09:35:33.377135 29505 layer_factory.hpp:77] Creating layer data_data_0_split
I0419 09:35:33.377151 29505 net.cpp:84] Creating Layer data_data_0_split
I0419 09:35:33.377156 29505 net.cpp:406] data_data_0_split <- data
I0419 09:35:33.377169 29505 net.cpp:380] data_data_0_split -> data_data_0_split_0
I0419 09:35:33.377182 29505 net.cpp:380] data_data_0_split -> data_data_0_split_1
I0419 09:35:33.377188 29505 net.cpp:380] data_data_0_split -> data_data_0_split_2
I0419 09:35:33.377195 29505 net.cpp:380] data_data_0_split -> data_data_0_split_3
I0419 09:35:33.377254 29505 net.cpp:122] Setting up data_data_0_split
I0419 09:35:33.377264 29505 net.cpp:129] Top shape: 1 3 512 310 (476160)
I0419 09:35:33.377269 29505 net.cpp:129] Top shape: 1 3 512 310 (476160)
I0419 09:35:33.377274 29505 net.cpp:129] Top shape: 1 3 512 310 (476160)
I0419 09:35:33.377279 29505 net.cpp:129] Top shape: 1 3 512 310 (476160)
I0419 09:35:33.377284 29505 net.cpp:137] Memory required for data: 11427852
I0419 09:35:33.377287 29505 layer_factory.hpp:77] Creating layer label_data_1_split
I0419 09:35:33.377295 29505 net.cpp:84] Creating Layer label_data_1_split
I0419 09:35:33.377298 29505 net.cpp:406] label_data_1_split <- label
I0419 09:35:33.377305 29505 net.cpp:380] label_data_1_split -> label_data_1_split_0
I0419 09:35:33.377311 29505 net.cpp:380] label_data_1_split -> label_data_1_split_1
I0419 09:35:33.377317 29505 net.cpp:380] label_data_1_split -> label_data_1_split_2
I0419 09:35:33.377364 29505 net.cpp:122] Setting up label_data_1_split
I0419 09:35:33.377377 29505 net.cpp:129] Top shape: 1 3 512 310 (476160)
I0419 09:35:33.377382 29505 net.cpp:129] Top shape: 1 3 512 310 (476160)
I0419 09:35:33.377388 29505 net.cpp:129] Top shape: 1 3 512 310 (476160)
I0419 09:35:33.377391 29505 net.cpp:137] Memory required for data: 17141772
I0419 09:35:33.377394 29505 layer_factory.hpp:77] Creating layer conv1_1
I0419 09:35:33.377411 29505 net.cpp:84] Creating Layer conv1_1
I0419 09:35:33.377415 29505 net.cpp:406] conv1_1 <- data_data_0_split_0
I0419 09:35:33.377423 29505 net.cpp:380] conv1_1 -> conv1_1
I0419 09:35:33.816220 29505 net.cpp:122] Setting up conv1_1
I0419 09:35:33.816273 29505 net.cpp:129] Top shape: 1 64 710 508 (23083520)
I0419 09:35:33.816280 29505 net.cpp:137] Memory required for data: 109475852
I0419 09:35:33.816323 29505 layer_factory.hpp:77] Creating layer relu1_1
I0419 09:35:33.816342 29505 net.cpp:84] Creating Layer relu1_1
I0419 09:35:33.816349 29505 net.cpp:406] relu1_1 <- conv1_1
I0419 09:35:33.816359 29505 net.cpp:367] relu1_1 -> conv1_1 (in-place)
I0419 09:35:33.816591 29505 net.cpp:122] Setting up relu1_1
I0419 09:35:33.816602 29505 net.cpp:129] Top shape: 1 64 710 508 (23083520)
I0419 09:35:33.816606 29505 net.cpp:137] Memory required for data: 201809932
I0419 09:35:33.816612 29505 layer_factory.hpp:77] Creating layer conv1_2
I0419 09:35:33.816624 29505 net.cpp:84] Creating Layer conv1_2
I0419 09:35:33.816629 29505 net.cpp:406] conv1_2 <- conv1_1
I0419 09:35:33.816637 29505 net.cpp:380] conv1_2 -> conv1_2
I0419 09:35:33.821247 29505 net.cpp:122] Setting up conv1_2
I0419 09:35:33.821266 29505 net.cpp:129] Top shape: 1 64 710 508 (23083520)
I0419 09:35:33.821285 29505 net.cpp:137] Memory required for data: 294144012
I0419 09:35:33.821297 29505 layer_factory.hpp:77] Creating layer relu1_2
I0419 09:35:33.821308 29505 net.cpp:84] Creating Layer relu1_2
I0419 09:35:33.821326 29505 net.cpp:406] relu1_2 <- conv1_2
I0419 09:35:33.821332 29505 net.cpp:367] relu1_2 -> conv1_2 (in-place)
I0419 09:35:33.821574 29505 net.cpp:122] Setting up relu1_2
I0419 09:35:33.821585 29505 net.cpp:129] Top shape: 1 64 710 508 (23083520)
I0419 09:35:33.821593 29505 net.cpp:137] Memory required for data: 386478092
I0419 09:35:33.821597 29505 layer_factory.hpp:77] Creating layer pool1
I0419 09:35:33.821606 29505 net.cpp:84] Creating Layer pool1
I0419 09:35:33.821611 29505 net.cpp:406] pool1 <- conv1_2
I0419 09:35:33.821617 29505 net.cpp:380] pool1 -> pool1
I0419 09:35:33.821681 29505 net.cpp:122] Setting up pool1
I0419 09:35:33.821689 29505 net.cpp:129] Top shape: 1 64 355 254 (5770880)
I0419 09:35:33.821693 29505 net.cpp:137] Memory required for data: 409561612
I0419 09:35:33.821697 29505 layer_factory.hpp:77] Creating layer conv2_1
I0419 09:35:33.821709 29505 net.cpp:84] Creating Layer conv2_1
I0419 09:35:33.821720 29505 net.cpp:406] conv2_1 <- pool1
I0419 09:35:33.821729 29505 net.cpp:380] conv2_1 -> conv2_1
I0419 09:35:33.823714 29505 net.cpp:122] Setting up conv2_1
I0419 09:35:33.823730 29505 net.cpp:129] Top shape: 1 128 355 254 (11541760)
I0419 09:35:33.823747 29505 net.cpp:137] Memory required for data: 455728652
I0419 09:35:33.823760 29505 layer_factory.hpp:77] Creating layer relu2_1
I0419 09:35:33.823787 29505 net.cpp:84] Creating Layer relu2_1
I0419 09:35:33.823792 29505 net.cpp:406] relu2_1 <- conv2_1
I0419 09:35:33.823798 29505 net.cpp:367] relu2_1 -> conv2_1 (in-place)
I0419 09:35:33.824030 29505 net.cpp:122] Setting up relu2_1
I0419 09:35:33.824043 29505 net.cpp:129] Top shape: 1 128 355 254 (11541760)
I0419 09:35:33.824046 29505 net.cpp:137] Memory required for data: 501895692
I0419 09:35:33.824050 29505 layer_factory.hpp:77] Creating layer conv2_2
I0419 09:35:33.824061 29505 net.cpp:84] Creating Layer conv2_2
I0419 09:35:33.824066 29505 net.cpp:406] conv2_2 <- conv2_1
I0419 09:35:33.824075 29505 net.cpp:380] conv2_2 -> conv2_2
I0419 09:35:33.827635 29505 net.cpp:122] Setting up conv2_2
I0419 09:35:33.827666 29505 net.cpp:129] Top shape: 1 128 355 254 (11541760)
I0419 09:35:33.827672 29505 net.cpp:137] Memory required for data: 548062732
I0419 09:35:33.827680 29505 layer_factory.hpp:77] Creating layer relu2_2
I0419 09:35:33.827689 29505 net.cpp:84] Creating Layer relu2_2
I0419 09:35:33.827693 29505 net.cpp:406] relu2_2 <- conv2_2
I0419 09:35:33.827714 29505 net.cpp:367] relu2_2 -> conv2_2 (in-place)
I0419 09:35:33.827952 29505 net.cpp:122] Setting up relu2_2
I0419 09:35:33.827963 29505 net.cpp:129] Top shape: 1 128 355 254 (11541760)
I0419 09:35:33.827967 29505 net.cpp:137] Memory required for data: 594229772
I0419 09:35:33.827972 29505 layer_factory.hpp:77] Creating layer pool2
I0419 09:35:33.827980 29505 net.cpp:84] Creating Layer pool2
I0419 09:35:33.827983 29505 net.cpp:406] pool2 <- conv2_2
I0419 09:35:33.827992 29505 net.cpp:380] pool2 -> pool2
I0419 09:35:33.828043 29505 net.cpp:122] Setting up pool2
I0419 09:35:33.828055 29505 net.cpp:129] Top shape: 1 128 178 127 (2893568)
I0419 09:35:33.828059 29505 net.cpp:137] Memory required for data: 605804044
I0419 09:35:33.828063 29505 layer_factory.hpp:77] Creating layer conv3_1
I0419 09:35:33.828073 29505 net.cpp:84] Creating Layer conv3_1
I0419 09:35:33.828076 29505 net.cpp:406] conv3_1 <- pool2
I0419 09:35:33.828085 29505 net.cpp:380] conv3_1 -> conv3_1
I0419 09:35:33.833596 29505 net.cpp:122] Setting up conv3_1
I0419 09:35:33.833617 29505 net.cpp:129] Top shape: 1 256 178 127 (5787136)
I0419 09:35:33.833632 29505 net.cpp:137] Memory required for data: 628952588
I0419 09:35:33.833645 29505 layer_factory.hpp:77] Creating layer relu3_1
I0419 09:35:33.833657 29505 net.cpp:84] Creating Layer relu3_1
I0419 09:35:33.833673 29505 net.cpp:406] relu3_1 <- conv3_1
I0419 09:35:33.833679 29505 net.cpp:367] relu3_1 -> conv3_1 (in-place)
I0419 09:35:33.834394 29505 net.cpp:122] Setting up relu3_1
I0419 09:35:33.834412 29505 net.cpp:129] Top shape: 1 256 178 127 (5787136)
I0419 09:35:33.834417 29505 net.cpp:137] Memory required for data: 652101132
I0419 09:35:33.834422 29505 layer_factory.hpp:77] Creating layer conv3_2
I0419 09:35:33.834435 29505 net.cpp:84] Creating Layer conv3_2
I0419 09:35:33.834441 29505 net.cpp:406] conv3_2 <- conv3_1
I0419 09:35:33.834451 29505 net.cpp:380] conv3_2 -> conv3_2
I0419 09:35:33.838098 29505 net.cpp:122] Setting up conv3_2
I0419 09:35:33.838115 29505 net.cpp:129] Top shape: 1 256 178 127 (5787136)
I0419 09:35:33.838129 29505 net.cpp:137] Memory required for data: 675249676
I0419 09:35:33.838138 29505 layer_factory.hpp:77] Creating layer relu3_2
I0419 09:35:33.838148 29505 net.cpp:84] Creating Layer relu3_2
I0419 09:35:33.838153 29505 net.cpp:406] relu3_2 <- conv3_2
I0419 09:35:33.838171 29505 net.cpp:367] relu3_2 -> conv3_2 (in-place)
I0419 09:35:33.838835 29505 net.cpp:122] Setting up relu3_2
I0419 09:35:33.838850 29505 net.cpp:129] Top shape: 1 256 178 127 (5787136)
I0419 09:35:33.838865 29505 net.cpp:137] Memory required for data: 698398220
I0419 09:35:33.838870 29505 layer_factory.hpp:77] Creating layer conv3_3
I0419 09:35:33.838887 29505 net.cpp:84] Creating Layer conv3_3
I0419 09:35:33.838892 29505 net.cpp:406] conv3_3 <- conv3_2
I0419 09:35:33.838899 29505 net.cpp:380] conv3_3 -> conv3_3
I0419 09:35:33.842874 29505 net.cpp:122] Setting up conv3_3
I0419 09:35:33.842905 29505 net.cpp:129] Top shape: 1 256 178 127 (5787136)
I0419 09:35:33.842909 29505 net.cpp:137] Memory required for data: 721546764
I0419 09:35:33.842918 29505 layer_factory.hpp:77] Creating layer relu3_3
I0419 09:35:33.842928 29505 net.cpp:84] Creating Layer relu3_3
I0419 09:35:33.842933 29505 net.cpp:406] relu3_3 <- conv3_3
I0419 09:35:33.842948 29505 net.cpp:367] relu3_3 -> conv3_3 (in-place)
I0419 09:35:33.843189 29505 net.cpp:122] Setting up relu3_3
I0419 09:35:33.843204 29505 net.cpp:129] Top shape: 1 256 178 127 (5787136)
I0419 09:35:33.843209 29505 net.cpp:137] Memory required for data: 744695308
I0419 09:35:33.843212 29505 layer_factory.hpp:77] Creating layer pool3
I0419 09:35:33.843219 29505 net.cpp:84] Creating Layer pool3
I0419 09:35:33.843225 29505 net.cpp:406] pool3 <- conv3_3
I0419 09:35:33.843230 29505 net.cpp:380] pool3 -> pool3
I0419 09:35:33.843289 29505 net.cpp:122] Setting up pool3
I0419 09:35:33.843298 29505 net.cpp:129] Top shape: 1 256 89 64 (1458176)
I0419 09:35:33.843302 29505 net.cpp:137] Memory required for data: 750528012
I0419 09:35:33.843305 29505 layer_factory.hpp:77] Creating layer pool3_pool3_0_split
I0419 09:35:33.843312 29505 net.cpp:84] Creating Layer pool3_pool3_0_split
I0419 09:35:33.843317 29505 net.cpp:406] pool3_pool3_0_split <- pool3
I0419 09:35:33.843325 29505 net.cpp:380] pool3_pool3_0_split -> pool3_pool3_0_split_0
I0419 09:35:33.843333 29505 net.cpp:380] pool3_pool3_0_split -> pool3_pool3_0_split_1
I0419 09:35:33.843374 29505 net.cpp:122] Setting up pool3_pool3_0_split
I0419 09:35:33.843381 29505 net.cpp:129] Top shape: 1 256 89 64 (1458176)
I0419 09:35:33.843386 29505 net.cpp:129] Top shape: 1 256 89 64 (1458176)
I0419 09:35:33.843390 29505 net.cpp:137] Memory required for data: 762193420
I0419 09:35:33.843394 29505 layer_factory.hpp:77] Creating layer conv4_1
I0419 09:35:33.843408 29505 net.cpp:84] Creating Layer conv4_1
I0419 09:35:33.843412 29505 net.cpp:406] conv4_1 <- pool3_pool3_0_split_0
I0419 09:35:33.843420 29505 net.cpp:380] conv4_1 -> conv4_1
I0419 09:35:33.854650 29505 net.cpp:122] Setting up conv4_1
I0419 09:35:33.854714 29505 net.cpp:129] Top shape: 1 512 89 64 (2916352)
I0419 09:35:33.854727 29505 net.cpp:137] Memory required for data: 773858828
I0419 09:35:33.854746 29505 layer_factory.hpp:77] Creating layer relu4_1
I0419 09:35:33.854777 29505 net.cpp:84] Creating Layer relu4_1
I0419 09:35:33.854787 29505 net.cpp:406] relu4_1 <- conv4_1
I0419 09:35:33.854800 29505 net.cpp:367] relu4_1 -> conv4_1 (in-place)
I0419 09:35:33.855255 29505 net.cpp:122] Setting up relu4_1
I0419 09:35:33.855273 29505 net.cpp:129] Top shape: 1 512 89 64 (2916352)
I0419 09:35:33.855291 29505 net.cpp:137] Memory required for data: 785524236
I0419 09:35:33.855300 29505 layer_factory.hpp:77] Creating layer conv4_2
I0419 09:35:33.855337 29505 net.cpp:84] Creating Layer conv4_2
I0419 09:35:33.855345 29505 net.cpp:406] conv4_2 <- conv4_1
I0419 09:35:33.855366 29505 net.cpp:380] conv4_2 -> conv4_2
I0419 09:35:33.867956 29505 net.cpp:122] Setting up conv4_2
I0419 09:35:33.867990 29505 net.cpp:129] Top shape: 1 512 89 64 (2916352)
I0419 09:35:33.867995 29505 net.cpp:137] Memory required for data: 797189644
I0419 09:35:33.868012 29505 layer_factory.hpp:77] Creating layer relu4_2
I0419 09:35:33.868021 29505 net.cpp:84] Creating Layer relu4_2
I0419 09:35:33.868026 29505 net.cpp:406] relu4_2 <- conv4_2
I0419 09:35:33.868044 29505 net.cpp:367] relu4_2 -> conv4_2 (in-place)
I0419 09:35:33.868286 29505 net.cpp:122] Setting up relu4_2
I0419 09:35:33.868299 29505 net.cpp:129] Top shape: 1 512 89 64 (2916352)
I0419 09:35:33.868302 29505 net.cpp:137] Memory required for data: 808855052
I0419 09:35:33.868306 29505 layer_factory.hpp:77] Creating layer conv4_3
I0419 09:35:33.868319 29505 net.cpp:84] Creating Layer conv4_3
I0419 09:35:33.868325 29505 net.cpp:406] conv4_3 <- conv4_2
I0419 09:35:33.868331 29505 net.cpp:380] conv4_3 -> conv4_3
I0419 09:35:33.877009 29505 net.cpp:122] Setting up conv4_3
I0419 09:35:33.877032 29505 net.cpp:129] Top shape: 1 512 89 64 (2916352)
I0419 09:35:33.877037 29505 net.cpp:137] Memory required for data: 820520460
I0419 09:35:33.877048 29505 layer_factory.hpp:77] Creating layer relu4_3
I0419 09:35:33.877058 29505 net.cpp:84] Creating Layer relu4_3
I0419 09:35:33.877064 29505 net.cpp:406] relu4_3 <- conv4_3
I0419 09:35:33.877071 29505 net.cpp:367] relu4_3 -> conv4_3 (in-place)
I0419 09:35:33.877301 29505 net.cpp:122] Setting up relu4_3
I0419 09:35:33.877312 29505 net.cpp:129] Top shape: 1 512 89 64 (2916352)
I0419 09:35:33.877316 29505 net.cpp:137] Memory required for data: 832185868
I0419 09:35:33.877321 29505 layer_factory.hpp:77] Creating layer pool4
I0419 09:35:33.877331 29505 net.cpp:84] Creating Layer pool4
I0419 09:35:33.877336 29505 net.cpp:406] pool4 <- conv4_3
I0419 09:35:33.877343 29505 net.cpp:380] pool4 -> pool4
I0419 09:35:33.877399 29505 net.cpp:122] Setting up pool4
I0419 09:35:33.877408 29505 net.cpp:129] Top shape: 1 512 45 32 (737280)
I0419 09:35:33.877411 29505 net.cpp:137] Memory required for data: 835134988
I0419 09:35:33.877415 29505 layer_factory.hpp:77] Creating layer pool4_pool4_0_split
I0419 09:35:33.877423 29505 net.cpp:84] Creating Layer pool4_pool4_0_split
I0419 09:35:33.877426 29505 net.cpp:406] pool4_pool4_0_split <- pool4
I0419 09:35:33.877434 29505 net.cpp:380] pool4_pool4_0_split -> pool4_pool4_0_split_0
I0419 09:35:33.877441 29505 net.cpp:380] pool4_pool4_0_split -> pool4_pool4_0_split_1
I0419 09:35:33.877481 29505 net.cpp:122] Setting up pool4_pool4_0_split
I0419 09:35:33.877488 29505 net.cpp:129] Top shape: 1 512 45 32 (737280)
I0419 09:35:33.877494 29505 net.cpp:129] Top shape: 1 512 45 32 (737280)
I0419 09:35:33.877497 29505 net.cpp:137] Memory required for data: 841033228
I0419 09:35:33.877501 29505 layer_factory.hpp:77] Creating layer conv5_1
I0419 09:35:33.877516 29505 net.cpp:84] Creating Layer conv5_1
I0419 09:35:33.877526 29505 net.cpp:406] conv5_1 <- pool4_pool4_0_split_0
I0419 09:35:33.877532 29505 net.cpp:380] conv5_1 -> conv5_1
I0419 09:35:33.885998 29505 net.cpp:122] Setting up conv5_1
I0419 09:35:33.886019 29505 net.cpp:129] Top shape: 1 512 45 32 (737280)
I0419 09:35:33.886034 29505 net.cpp:137] Memory required for data: 843982348
I0419 09:35:33.886044 29505 layer_factory.hpp:77] Creating layer relu5_1
I0419 09:35:33.886057 29505 net.cpp:84] Creating Layer relu5_1
I0419 09:35:33.886063 29505 net.cpp:406] relu5_1 <- conv5_1
I0419 09:35:33.886070 29505 net.cpp:367] relu5_1 -> conv5_1 (in-place)
I0419 09:35:33.886768 29505 net.cpp:122] Setting up relu5_1
I0419 09:35:33.886786 29505 net.cpp:129] Top shape: 1 512 45 32 (737280)
I0419 09:35:33.886791 29505 net.cpp:137] Memory required for data: 846931468
I0419 09:35:33.886801 29505 layer_factory.hpp:77] Creating layer conv5_2
I0419 09:35:33.886816 29505 net.cpp:84] Creating Layer conv5_2
I0419 09:35:33.886821 29505 net.cpp:406] conv5_2 <- conv5_1
I0419 09:35:33.886827 29505 net.cpp:380] conv5_2 -> conv5_2
I0419 09:35:33.895092 29505 net.cpp:122] Setting up conv5_2
I0419 09:35:33.895114 29505 net.cpp:129] Top shape: 1 512 45 32 (737280)
I0419 09:35:33.895118 29505 net.cpp:137] Memory required for data: 849880588
I0419 09:35:33.895128 29505 layer_factory.hpp:77] Creating layer relu5_2
I0419 09:35:33.895143 29505 net.cpp:84] Creating Layer relu5_2
I0419 09:35:33.895148 29505 net.cpp:406] relu5_2 <- conv5_2
I0419 09:35:33.895154 29505 net.cpp:367] relu5_2 -> conv5_2 (in-place)
I0419 09:35:33.895836 29505 net.cpp:122] Setting up relu5_2
I0419 09:35:33.895853 29505 net.cpp:129] Top shape: 1 512 45 32 (737280)
I0419 09:35:33.895858 29505 net.cpp:137] Memory required for data: 852829708
I0419 09:35:33.895861 29505 layer_factory.hpp:77] Creating layer conv5_3
I0419 09:35:33.895874 29505 net.cpp:84] Creating Layer conv5_3
I0419 09:35:33.895879 29505 net.cpp:406] conv5_3 <- conv5_2
I0419 09:35:33.895886 29505 net.cpp:380] conv5_3 -> conv5_3
I0419 09:35:33.911279 29505 net.cpp:122] Setting up conv5_3
I0419 09:35:33.911322 29505 net.cpp:129] Top shape: 1 512 45 32 (737280)
I0419 09:35:33.911327 29505 net.cpp:137] Memory required for data: 855778828
I0419 09:35:33.911339 29505 layer_factory.hpp:77] Creating layer relu5_3
I0419 09:35:33.911350 29505 net.cpp:84] Creating Layer relu5_3
I0419 09:35:33.911356 29505 net.cpp:406] relu5_3 <- conv5_3
I0419 09:35:33.911366 29505 net.cpp:367] relu5_3 -> conv5_3 (in-place)
I0419 09:35:33.911612 29505 net.cpp:122] Setting up relu5_3
I0419 09:35:33.911623 29505 net.cpp:129] Top shape: 1 512 45 32 (737280)
I0419 09:35:33.911626 29505 net.cpp:137] Memory required for data: 858727948
I0419 09:35:33.911631 29505 layer_factory.hpp:77] Creating layer pool5
I0419 09:35:33.911643 29505 net.cpp:84] Creating Layer pool5
I0419 09:35:33.911646 29505 net.cpp:406] pool5 <- conv5_3
I0419 09:35:33.911654 29505 net.cpp:380] pool5 -> pool5
I0419 09:35:33.911710 29505 net.cpp:122] Setting up pool5
I0419 09:35:33.911718 29505 net.cpp:129] Top shape: 1 512 23 16 (188416)
I0419 09:35:33.911722 29505 net.cpp:137] Memory required for data: 859481612
I0419 09:35:33.911727 29505 layer_factory.hpp:77] Creating layer fc6
I0419 09:35:33.911741 29505 net.cpp:84] Creating Layer fc6
I0419 09:35:33.911749 29505 net.cpp:406] fc6 <- pool5
I0419 09:35:33.911756 29505 net.cpp:380] fc6 -> fc6
I0419 09:35:34.261195 29505 net.cpp:122] Setting up fc6
I0419 09:35:34.261260 29505 net.cpp:129] Top shape: 1 4096 17 10 (696320)
I0419 09:35:34.261274 29505 net.cpp:137] Memory required for data: 862266892
I0419 09:35:34.261342 29505 layer_factory.hpp:77] Creating layer relu6
I0419 09:35:34.261386 29505 net.cpp:84] Creating Layer relu6
I0419 09:35:34.261417 29505 net.cpp:406] relu6 <- fc6
I0419 09:35:34.261435 29505 net.cpp:367] relu6 -> fc6 (in-place)
I0419 09:35:34.261711 29505 net.cpp:122] Setting up relu6
I0419 09:35:34.261725 29505 net.cpp:129] Top shape: 1 4096 17 10 (696320)
I0419 09:35:34.261736 29505 net.cpp:137] Memory required for data: 865052172
I0419 09:35:34.261740 29505 layer_factory.hpp:77] Creating layer drop6
I0419 09:35:34.261773 29505 net.cpp:84] Creating Layer drop6
I0419 09:35:34.261780 29505 net.cpp:406] drop6 <- fc6
I0419 09:35:34.261785 29505 net.cpp:367] drop6 -> fc6 (in-place)
I0419 09:35:34.261826 29505 net.cpp:122] Setting up drop6
I0419 09:35:34.261839 29505 net.cpp:129] Top shape: 1 4096 17 10 (696320)
I0419 09:35:34.261843 29505 net.cpp:137] Memory required for data: 867837452
I0419 09:35:34.261853 29505 layer_factory.hpp:77] Creating layer fc7
I0419 09:35:34.261870 29505 net.cpp:84] Creating Layer fc7
I0419 09:35:34.261878 29505 net.cpp:406] fc7 <- fc6
I0419 09:35:34.261883 29505 net.cpp:380] fc7 -> fc7
I0419 09:35:34.316571 29505 net.cpp:122] Setting up fc7
I0419 09:35:34.316619 29505 net.cpp:129] Top shape: 1 4096 17 10 (696320)
I0419 09:35:34.316625 29505 net.cpp:137] Memory required for data: 870622732
I0419 09:35:34.316639 29505 layer_factory.hpp:77] Creating layer relu7
I0419 09:35:34.316681 29505 net.cpp:84] Creating Layer relu7
I0419 09:35:34.316687 29505 net.cpp:406] relu7 <- fc7
I0419 09:35:34.316696 29505 net.cpp:367] relu7 -> fc7 (in-place)
I0419 09:35:34.316964 29505 net.cpp:122] Setting up relu7
I0419 09:35:34.316977 29505 net.cpp:129] Top shape: 1 4096 17 10 (696320)
I0419 09:35:34.316982 29505 net.cpp:137] Memory required for data: 873408012
I0419 09:35:34.316985 29505 layer_factory.hpp:77] Creating layer drop7
I0419 09:35:34.316996 29505 net.cpp:84] Creating Layer drop7
I0419 09:35:34.317001 29505 net.cpp:406] drop7 <- fc7
I0419 09:35:34.317008 29505 net.cpp:367] drop7 -> fc7 (in-place)
I0419 09:35:34.317049 29505 net.cpp:122] Setting up drop7
I0419 09:35:34.317059 29505 net.cpp:129] Top shape: 1 4096 17 10 (696320)
I0419 09:35:34.317061 29505 net.cpp:137] Memory required for data: 876193292
I0419 09:35:34.317065 29505 layer_factory.hpp:77] Creating layer score_fr-new
I0419 09:35:34.317092 29505 net.cpp:84] Creating Layer score_fr-new
I0419 09:35:34.317100 29505 net.cpp:406] score_fr-new <- fc7
I0419 09:35:34.317118 29505 net.cpp:380] score_fr-new -> score_fr-new
I0419 09:35:34.319666 29505 net.cpp:122] Setting up score_fr-new
I0419 09:35:34.319685 29505 net.cpp:129] Top shape: 1 3 17 10 (510)
I0419 09:35:34.319690 29505 net.cpp:137] Memory required for data: 876195332
I0419 09:35:34.319705 29505 layer_factory.hpp:77] Creating layer upscore2-new
I0419 09:35:34.319722 29505 net.cpp:84] Creating Layer upscore2-new
I0419 09:35:34.319727 29505 net.cpp:406] upscore2-new <- score_fr-new
I0419 09:35:34.319737 29505 net.cpp:380] upscore2-new -> upscore2-new
I0419 09:35:34.319998 29505 net.cpp:122] Setting up upscore2-new
I0419 09:35:34.320008 29505 net.cpp:129] Top shape: 1 3 36 22 (2376)
I0419 09:35:34.320010 29505 net.cpp:137] Memory required for data: 876204836
I0419 09:35:34.320042 29505 layer_factory.hpp:77] Creating layer upscore2-new_upscore2-new_0_split
I0419 09:35:34.320053 29505 net.cpp:84] Creating Layer upscore2-new_upscore2-new_0_split
I0419 09:35:34.320057 29505 net.cpp:406] upscore2-new_upscore2-new_0_split <- upscore2-new
I0419 09:35:34.320065 29505 net.cpp:380] upscore2-new_upscore2-new_0_split -> upscore2-new_upscore2-new_0_split_0
I0419 09:35:34.320075 29505 net.cpp:380] upscore2-new_upscore2-new_0_split -> upscore2-new_upscore2-new_0_split_1
I0419 09:35:34.320118 29505 net.cpp:122] Setting up upscore2-new_upscore2-new_0_split
I0419 09:35:34.320127 29505 net.cpp:129] Top shape: 1 3 36 22 (2376)
I0419 09:35:34.320132 29505 net.cpp:129] Top shape: 1 3 36 22 (2376)
I0419 09:35:34.320137 29505 net.cpp:137] Memory required for data: 876223844
I0419 09:35:34.320139 29505 layer_factory.hpp:77] Creating layer score_pool4-new
I0419 09:35:34.320158 29505 net.cpp:84] Creating Layer score_pool4-new
I0419 09:35:34.320163 29505 net.cpp:406] score_pool4-new <- pool4_pool4_0_split_1
I0419 09:35:34.320171 29505 net.cpp:380] score_pool4-new -> score_pool4-new
I0419 09:35:34.321646 29505 net.cpp:122] Setting up score_pool4-new
I0419 09:35:34.321662 29505 net.cpp:129] Top shape: 1 3 45 32 (4320)
I0419 09:35:34.321667 29505 net.cpp:137] Memory required for data: 876241124
I0419 09:35:34.321676 29505 layer_factory.hpp:77] Creating layer score_pool4c
I0419 09:35:34.321686 29505 net.cpp:84] Creating Layer score_pool4c
I0419 09:35:34.321691 29505 net.cpp:406] score_pool4c <- score_pool4-new
I0419 09:35:34.321698 29505 net.cpp:406] score_pool4c <- upscore2-new_upscore2-new_0_split_0
I0419 09:35:34.321708 29505 net.cpp:380] score_pool4c -> score_pool4c
I0419 09:35:34.321756 29505 net.cpp:122] Setting up score_pool4c
I0419 09:35:34.321768 29505 net.cpp:129] Top shape: 1 3 36 22 (2376)
I0419 09:35:34.321771 29505 net.cpp:137] Memory required for data: 876250628
I0419 09:35:34.321784 29505 layer_factory.hpp:77] Creating layer fuse_pool4
I0419 09:35:34.321805 29505 net.cpp:84] Creating Layer fuse_pool4
I0419 09:35:34.321812 29505 net.cpp:406] fuse_pool4 <- upscore2-new_upscore2-new_0_split_1
I0419 09:35:34.321817 29505 net.cpp:406] fuse_pool4 <- score_pool4c
I0419 09:35:34.321823 29505 net.cpp:380] fuse_pool4 -> fuse_pool4
I0419 09:35:34.321861 29505 net.cpp:122] Setting up fuse_pool4
I0419 09:35:34.321868 29505 net.cpp:129] Top shape: 1 3 36 22 (2376)
I0419 09:35:34.321872 29505 net.cpp:137] Memory required for data: 876260132
I0419 09:35:34.321877 29505 layer_factory.hpp:77] Creating layer upscore_pool4-new
I0419 09:35:34.321887 29505 net.cpp:84] Creating Layer upscore_pool4-new
I0419 09:35:34.321890 29505 net.cpp:406] upscore_pool4-new <- fuse_pool4
I0419 09:35:34.321899 29505 net.cpp:380] upscore_pool4-new -> upscore_pool4-new
I0419 09:35:34.322132 29505 net.cpp:122] Setting up upscore_pool4-new
I0419 09:35:34.322141 29505 net.cpp:129] Top shape: 1 3 74 46 (10212)
I0419 09:35:34.322146 29505 net.cpp:137] Memory required for data: 876300980
I0419 09:35:34.322152 29505 layer_factory.hpp:77] Creating layer upscore_pool4-new_upscore_pool4-new_0_split
I0419 09:35:34.322158 29505 net.cpp:84] Creating Layer upscore_pool4-new_upscore_pool4-new_0_split
I0419 09:35:34.322188 29505 net.cpp:406] upscore_pool4-new_upscore_pool4-new_0_split <- upscore_pool4-new
I0419 09:35:34.322194 29505 net.cpp:380] upscore_pool4-new_upscore_pool4-new_0_split -> upscore_pool4-new_upscore_pool4-new_0_split_0
I0419 09:35:34.322202 29505 net.cpp:380] upscore_pool4-new_upscore_pool4-new_0_split -> upscore_pool4-new_upscore_pool4-new_0_split_1
I0419 09:35:34.322248 29505 net.cpp:122] Setting up upscore_pool4-new_upscore_pool4-new_0_split
I0419 09:35:34.322257 29505 net.cpp:129] Top shape: 1 3 74 46 (10212)
I0419 09:35:34.322263 29505 net.cpp:129] Top shape: 1 3 74 46 (10212)
I0419 09:35:34.322268 29505 net.cpp:137] Memory required for data: 876382676
I0419 09:35:34.322271 29505 layer_factory.hpp:77] Creating layer score_pool3-new
I0419 09:35:34.322289 29505 net.cpp:84] Creating Layer score_pool3-new
I0419 09:35:34.322296 29505 net.cpp:406] score_pool3-new <- pool3_pool3_0_split_1
I0419 09:35:34.322316 29505 net.cpp:380] score_pool3-new -> score_pool3-new
I0419 09:35:34.323846 29505 net.cpp:122] Setting up score_pool3-new
I0419 09:35:34.323863 29505 net.cpp:129] Top shape: 1 3 89 64 (17088)
I0419 09:35:34.323868 29505 net.cpp:137] Memory required for data: 876451028
I0419 09:35:34.323876 29505 layer_factory.hpp:77] Creating layer score_pool3c
I0419 09:35:34.323904 29505 net.cpp:84] Creating Layer score_pool3c
I0419 09:35:34.323910 29505 net.cpp:406] score_pool3c <- score_pool3-new
I0419 09:35:34.323918 29505 net.cpp:406] score_pool3c <- upscore_pool4-new_upscore_pool4-new_0_split_0
I0419 09:35:34.323925 29505 net.cpp:380] score_pool3c -> score_pool3c
I0419 09:35:34.323962 29505 net.cpp:122] Setting up score_pool3c
I0419 09:35:34.323971 29505 net.cpp:129] Top shape: 1 3 74 46 (10212)
I0419 09:35:34.323974 29505 net.cpp:137] Memory required for data: 876491876
I0419 09:35:34.323978 29505 layer_factory.hpp:77] Creating layer fuse_pool3
I0419 09:35:34.323984 29505 net.cpp:84] Creating Layer fuse_pool3
I0419 09:35:34.323988 29505 net.cpp:406] fuse_pool3 <- upscore_pool4-new_upscore_pool4-new_0_split_1
I0419 09:35:34.323994 29505 net.cpp:406] fuse_pool3 <- score_pool3c
I0419 09:35:34.324007 29505 net.cpp:380] fuse_pool3 -> fuse_pool3
I0419 09:35:34.324034 29505 net.cpp:122] Setting up fuse_pool3
I0419 09:35:34.324041 29505 net.cpp:129] Top shape: 1 3 74 46 (10212)
I0419 09:35:34.324044 29505 net.cpp:137] Memory required for data: 876532724
I0419 09:35:34.324048 29505 layer_factory.hpp:77] Creating layer upscore8-new
I0419 09:35:34.324064 29505 net.cpp:84] Creating Layer upscore8-new
I0419 09:35:34.324069 29505 net.cpp:406] upscore8-new <- fuse_pool3
I0419 09:35:34.324082 29505 net.cpp:380] upscore8-new -> upscore8-new
I0419 09:35:34.324326 29505 net.cpp:122] Setting up upscore8-new
I0419 09:35:34.324334 29505 net.cpp:129] Top shape: 1 3 600 376 (676800)
I0419 09:35:34.324338 29505 net.cpp:137] Memory required for data: 879239924
I0419 09:35:34.324344 29505 layer_factory.hpp:77] Creating layer upscore8_cropped
I0419 09:35:34.324364 29505 net.cpp:84] Creating Layer upscore8_cropped
I0419 09:35:34.324368 29505 net.cpp:406] upscore8_cropped <- upscore8-new
I0419 09:35:34.324385 29505 net.cpp:406] upscore8_cropped <- data_data_0_split_1
I0419 09:35:34.324395 29505 net.cpp:380] upscore8_cropped -> upscore8_cropped
I0419 09:35:34.324424 29505 net.cpp:122] Setting up upscore8_cropped
I0419 09:35:34.324432 29505 net.cpp:129] Top shape: 1 3 512 310 (476160)
I0419 09:35:34.324436 29505 net.cpp:137] Memory required for data: 881144564
I0419 09:35:34.324440 29505 layer_factory.hpp:77] Creating layer score
I0419 09:35:34.324448 29505 net.cpp:84] Creating Layer score
I0419 09:35:34.324452 29505 net.cpp:406] score <- upscore8_cropped
I0419 09:35:34.324461 29505 net.cpp:380] score -> score
I0419 09:35:34.326598 29505 net.cpp:122] Setting up score
I0419 09:35:34.326617 29505 net.cpp:129] Top shape: 1 3 512 310 (476160)
I0419 09:35:34.326622 29505 net.cpp:137] Memory required for data: 883049204
I0419 09:35:34.326634 29505 layer_factory.hpp:77] Creating layer score_score_0_split
I0419 09:35:34.326642 29505 net.cpp:84] Creating Layer score_score_0_split
I0419 09:35:34.326647 29505 net.cpp:406] score_score_0_split <- score
I0419 09:35:34.326653 29505 net.cpp:380] score_score_0_split -> score_score_0_split_0
I0419 09:35:34.326661 29505 net.cpp:380] score_score_0_split -> score_score_0_split_1
I0419 09:35:34.326720 29505 net.cpp:122] Setting up score_score_0_split
I0419 09:35:34.326726 29505 net.cpp:129] Top shape: 1 3 512 310 (476160)
I0419 09:35:34.326731 29505 net.cpp:129] Top shape: 1 3 512 310 (476160)
I0419 09:35:34.326735 29505 net.cpp:137] Memory required for data: 886858484
I0419 09:35:34.326738 29505 layer_factory.hpp:77] Creating layer prob
I0419 09:35:34.326746 29505 net.cpp:84] Creating Layer prob
I0419 09:35:34.326750 29505 net.cpp:406] prob <- score_score_0_split_0
I0419 09:35:34.326758 29505 net.cpp:380] prob -> prob
I0419 09:35:34.327024 29505 net.cpp:122] Setting up prob
I0419 09:35:34.327036 29505 net.cpp:129] Top shape: 1 3 512 310 (476160)
I0419 09:35:34.327040 29505 net.cpp:137] Memory required for data: 888763124
I0419 09:35:34.327055 29505 layer_factory.hpp:77] Creating layer prob_prob_0_split
I0419 09:35:34.327061 29505 net.cpp:84] Creating Layer prob_prob_0_split
I0419 09:35:34.327066 29505 net.cpp:406] prob_prob_0_split <- prob
I0419 09:35:34.327076 29505 net.cpp:380] prob_prob_0_split -> prob_prob_0_split_0
I0419 09:35:34.327083 29505 net.cpp:380] prob_prob_0_split -> prob_prob_0_split_1
I0419 09:35:34.327128 29505 net.cpp:122] Setting up prob_prob_0_split
I0419 09:35:34.327136 29505 net.cpp:129] Top shape: 1 3 512 310 (476160)
I0419 09:35:34.327142 29505 net.cpp:129] Top shape: 1 3 512 310 (476160)
I0419 09:35:34.327145 29505 net.cpp:137] Memory required for data: 892572404
I0419 09:35:34.327149 29505 layer_factory.hpp:77] Creating layer saliency
I0419 09:35:34.327173 29505 net.cpp:84] Creating Layer saliency
I0419 09:35:34.327178 29505 net.cpp:406] saliency <- prob_prob_0_split_0
I0419 09:35:34.327185 29505 net.cpp:380] saliency -> saliency
I0419 09:35:34.329339 29505 net.cpp:122] Setting up saliency
I0419 09:35:34.329355 29505 net.cpp:129] Top shape: 1 3 512 310 (476160)
I0419 09:35:34.329360 29505 net.cpp:137] Memory required for data: 894477044
I0419 09:35:34.329371 29505 layer_factory.hpp:77] Creating layer saliency_data
I0419 09:35:34.329402 29505 net.cpp:84] Creating Layer saliency_data
I0419 09:35:34.329407 29505 net.cpp:406] saliency_data <- data_data_0_split_2
I0419 09:35:34.329414 29505 net.cpp:406] saliency_data <- saliency
I0419 09:35:34.329421 29505 net.cpp:380] saliency_data -> saliency_data
I0419 09:35:34.329459 29505 net.cpp:122] Setting up saliency_data
I0419 09:35:34.329466 29505 net.cpp:129] Top shape: 1 3 512 310 (476160)
I0419 09:35:34.329470 29505 net.cpp:137] Memory required for data: 896381684
I0419 09:35:34.329474 29505 layer_factory.hpp:77] Creating layer crop
I0419 09:35:34.330272 29505 net.cpp:84] Creating Layer crop
I0419 09:35:34.330286 29505 net.cpp:406] crop <- prob_prob_0_split_1
I0419 09:35:34.330291 29505 net.cpp:406] crop <- saliency_data
I0419 09:35:34.330308 29505 net.cpp:406] crop <- crop_margin
I0419 09:35:34.330318 29505 net.cpp:406] crop <- crop_prob
I0419 09:35:34.330323 29505 net.cpp:406] crop <- crop_sample_batch
I0419 09:35:34.330329 29505 net.cpp:406] crop <- label_data_1_split_0
I0419 09:35:34.330337 29505 net.cpp:380] crop -> data-R
I0419 09:35:34.330345 29505 net.cpp:380] crop -> crop_info
I0419 09:35:34.346678 29505 net.cpp:122] Setting up crop
I0419 09:35:34.346712 29505 net.cpp:129] Top shape: 1 3 512 310 (476160)
I0419 09:35:34.346719 29505 net.cpp:129] Top shape: 1 2 4 (8)
I0419 09:35:34.346724 29505 net.cpp:137] Memory required for data: 898286356
I0419 09:35:34.346730 29505 layer_factory.hpp:77] Creating layer data-R_crop_0_split
I0419 09:35:34.346743 29505 net.cpp:84] Creating Layer data-R_crop_0_split
I0419 09:35:34.346748 29505 net.cpp:406] data-R_crop_0_split <- data-R
I0419 09:35:34.346757 29505 net.cpp:380] data-R_crop_0_split -> data-R_crop_0_split_0
I0419 09:35:34.346766 29505 net.cpp:380] data-R_crop_0_split -> data-R_crop_0_split_1
I0419 09:35:34.346824 29505 net.cpp:122] Setting up data-R_crop_0_split
I0419 09:35:34.346832 29505 net.cpp:129] Top shape: 1 3 512 310 (476160)
I0419 09:35:34.346837 29505 net.cpp:129] Top shape: 1 3 512 310 (476160)
I0419 09:35:34.346840 29505 net.cpp:137] Memory required for data: 902095636
I0419 09:35:34.346844 29505 layer_factory.hpp:77] Creating layer conv1_1-R
I0419 09:35:34.346858 29505 net.cpp:84] Creating Layer conv1_1-R
I0419 09:35:34.346863 29505 net.cpp:406] conv1_1-R <- data-R_crop_0_split_0
I0419 09:35:34.346873 29505 net.cpp:380] conv1_1-R -> conv1_1-R
I0419 09:35:34.350605 29505 net.cpp:122] Setting up conv1_1-R
I0419 09:35:34.350636 29505 net.cpp:129] Top shape: 1 64 710 508 (23083520)
I0419 09:35:34.350641 29505 net.cpp:137] Memory required for data: 994429716
I0419 09:35:34.350651 29505 layer_factory.hpp:77] Creating layer relu1_1-R
I0419 09:35:34.350703 29505 net.cpp:84] Creating Layer relu1_1-R
I0419 09:35:34.350709 29505 net.cpp:406] relu1_1-R <- conv1_1-R
I0419 09:35:34.350715 29505 net.cpp:367] relu1_1-R -> conv1_1-R (in-place)
I0419 09:35:34.350956 29505 net.cpp:122] Setting up relu1_1-R
I0419 09:35:34.350968 29505 net.cpp:129] Top shape: 1 64 710 508 (23083520)
I0419 09:35:34.350973 29505 net.cpp:137] Memory required for data: 1086763796
I0419 09:35:34.350978 29505 layer_factory.hpp:77] Creating layer conv1_2-R
I0419 09:35:34.350988 29505 net.cpp:84] Creating Layer conv1_2-R
I0419 09:35:34.350993 29505 net.cpp:406] conv1_2-R <- conv1_1-R
I0419 09:35:34.351002 29505 net.cpp:380] conv1_2-R -> conv1_2-R
I0419 09:35:34.359910 29505 net.cpp:122] Setting up conv1_2-R
I0419 09:35:34.359930 29505 net.cpp:129] Top shape: 1 64 710 508 (23083520)
I0419 09:35:34.359935 29505 net.cpp:137] Memory required for data: 1179097876
I0419 09:35:34.359944 29505 layer_factory.hpp:77] Creating layer relu1_2-R
I0419 09:35:34.359964 29505 net.cpp:84] Creating Layer relu1_2-R
I0419 09:35:34.359969 29505 net.cpp:406] relu1_2-R <- conv1_2-R
I0419 09:35:34.359977 29505 net.cpp:367] relu1_2-R -> conv1_2-R (in-place)
I0419 09:35:34.360216 29505 net.cpp:122] Setting up relu1_2-R
I0419 09:35:34.360229 29505 net.cpp:129] Top shape: 1 64 710 508 (23083520)
I0419 09:35:34.360234 29505 net.cpp:137] Memory required for data: 1271431956
I0419 09:35:34.360239 29505 layer_factory.hpp:77] Creating layer pool1-R
I0419 09:35:34.360246 29505 net.cpp:84] Creating Layer pool1-R
I0419 09:35:34.360251 29505 net.cpp:406] pool1-R <- conv1_2-R
I0419 09:35:34.360258 29505 net.cpp:380] pool1-R -> pool1-R
I0419 09:35:34.360316 29505 net.cpp:122] Setting up pool1-R
I0419 09:35:34.360325 29505 net.cpp:129] Top shape: 1 64 355 254 (5770880)
I0419 09:35:34.360329 29505 net.cpp:137] Memory required for data: 1294515476
I0419 09:35:34.360333 29505 layer_factory.hpp:77] Creating layer conv2_1-R
I0419 09:35:34.360342 29505 net.cpp:84] Creating Layer conv2_1-R
I0419 09:35:34.360347 29505 net.cpp:406] conv2_1-R <- pool1-R
I0419 09:35:34.360353 29505 net.cpp:380] conv2_1-R -> conv2_1-R
I0419 09:35:34.362380 29505 net.cpp:122] Setting up conv2_1-R
I0419 09:35:34.362403 29505 net.cpp:129] Top shape: 1 128 355 254 (11541760)
I0419 09:35:34.362411 29505 net.cpp:137] Memory required for data: 1340682516
I0419 09:35:34.362422 29505 layer_factory.hpp:77] Creating layer relu2_1-R
I0419 09:35:34.362444 29505 net.cpp:84] Creating Layer relu2_1-R
I0419 09:35:34.362453 29505 net.cpp:406] relu2_1-R <- conv2_1-R
I0419 09:35:34.362465 29505 net.cpp:367] relu2_1-R -> conv2_1-R (in-place)
I0419 09:35:34.362798 29505 net.cpp:122] Setting up relu2_1-R
I0419 09:35:34.362817 29505 net.cpp:129] Top shape: 1 128 355 254 (11541760)
I0419 09:35:34.362823 29505 net.cpp:137] Memory required for data: 1386849556
I0419 09:35:34.362840 29505 layer_factory.hpp:77] Creating layer conv2_2-R
I0419 09:35:34.362857 29505 net.cpp:84] Creating Layer conv2_2-R
I0419 09:35:34.362864 29505 net.cpp:406] conv2_2-R <- conv2_1-R
I0419 09:35:34.362874 29505 net.cpp:380] conv2_2-R -> conv2_2-R
I0419 09:35:34.367449 29505 net.cpp:122] Setting up conv2_2-R
I0419 09:35:34.367472 29505 net.cpp:129] Top shape: 1 128 355 254 (11541760)
I0419 09:35:34.367480 29505 net.cpp:137] Memory required for data: 1433016596
I0419 09:35:34.367491 29505 layer_factory.hpp:77] Creating layer relu2_2-R
I0419 09:35:34.367501 29505 net.cpp:84] Creating Layer relu2_2-R
I0419 09:35:34.367508 29505 net.cpp:406] relu2_2-R <- conv2_2-R
I0419 09:35:34.367517 29505 net.cpp:367] relu2_2-R -> conv2_2-R (in-place)
I0419 09:35:34.368381 29505 net.cpp:122] Setting up relu2_2-R
I0419 09:35:34.368403 29505 net.cpp:129] Top shape: 1 128 355 254 (11541760)
I0419 09:35:34.368410 29505 net.cpp:137] Memory required for data: 1479183636
I0419 09:35:34.368417 29505 layer_factory.hpp:77] Creating layer pool2-R
I0419 09:35:34.368440 29505 net.cpp:84] Creating Layer pool2-R
I0419 09:35:34.368448 29505 net.cpp:406] pool2-R <- conv2_2-R
I0419 09:35:34.368458 29505 net.cpp:380] pool2-R -> pool2-R
I0419 09:35:34.368537 29505 net.cpp:122] Setting up pool2-R
I0419 09:35:34.368551 29505 net.cpp:129] Top shape: 1 128 178 127 (2893568)
I0419 09:35:34.368556 29505 net.cpp:137] Memory required for data: 1490757908
I0419 09:35:34.368561 29505 layer_factory.hpp:77] Creating layer conv3_1-R
I0419 09:35:34.368576 29505 net.cpp:84] Creating Layer conv3_1-R
I0419 09:35:34.368582 29505 net.cpp:406] conv3_1-R <- pool2-R
I0419 09:35:34.368592 29505 net.cpp:380] conv3_1-R -> conv3_1-R
I0419 09:35:34.378499 29505 net.cpp:122] Setting up conv3_1-R
I0419 09:35:34.378517 29505 net.cpp:129] Top shape: 1 256 178 127 (5787136)
I0419 09:35:34.378522 29505 net.cpp:137] Memory required for data: 1513906452
I0419 09:35:34.378542 29505 layer_factory.hpp:77] Creating layer relu3_1-R
I0419 09:35:34.378551 29505 net.cpp:84] Creating Layer relu3_1-R
I0419 09:35:34.378556 29505 net.cpp:406] relu3_1-R <- conv3_1-R
I0419 09:35:34.378563 29505 net.cpp:367] relu3_1-R -> conv3_1-R (in-place)
I0419 09:35:34.378799 29505 net.cpp:122] Setting up relu3_1-R
I0419 09:35:34.378811 29505 net.cpp:129] Top shape: 1 256 178 127 (5787136)
I0419 09:35:34.378815 29505 net.cpp:137] Memory required for data: 1537054996
I0419 09:35:34.378819 29505 layer_factory.hpp:77] Creating layer conv3_2-R
I0419 09:35:34.378836 29505 net.cpp:84] Creating Layer conv3_2-R
I0419 09:35:34.378842 29505 net.cpp:406] conv3_2-R <- conv3_1-R
I0419 09:35:34.378849 29505 net.cpp:380] conv3_2-R -> conv3_2-R
I0419 09:35:34.383191 29505 net.cpp:122] Setting up conv3_2-R
I0419 09:35:34.383221 29505 net.cpp:129] Top shape: 1 256 178 127 (5787136)
I0419 09:35:34.383230 29505 net.cpp:137] Memory required for data: 1560203540
I0419 09:35:34.383245 29505 layer_factory.hpp:77] Creating layer relu3_2-R
I0419 09:35:34.383258 29505 net.cpp:84] Creating Layer relu3_2-R
I0419 09:35:34.383267 29505 net.cpp:406] relu3_2-R <- conv3_2-R
I0419 09:35:34.383278 29505 net.cpp:367] relu3_2-R -> conv3_2-R (in-place)
I0419 09:35:34.383666 29505 net.cpp:122] Setting up relu3_2-R
I0419 09:35:34.383683 29505 net.cpp:129] Top shape: 1 256 178 127 (5787136)
I0419 09:35:34.383692 29505 net.cpp:137] Memory required for data: 1583352084
I0419 09:35:34.383698 29505 layer_factory.hpp:77] Creating layer conv3_3-R
I0419 09:35:34.383713 29505 net.cpp:84] Creating Layer conv3_3-R
I0419 09:35:34.383720 29505 net.cpp:406] conv3_3-R <- conv3_2-R
I0419 09:35:34.383733 29505 net.cpp:380] conv3_3-R -> conv3_3-R
I0419 09:35:34.390099 29505 net.cpp:122] Setting up conv3_3-R
I0419 09:35:34.390128 29505 net.cpp:129] Top shape: 1 256 178 127 (5787136)
I0419 09:35:34.390137 29505 net.cpp:137] Memory required for data: 1606500628
I0419 09:35:34.390179 29505 layer_factory.hpp:77] Creating layer relu3_3-R
I0419 09:35:34.390193 29505 net.cpp:84] Creating Layer relu3_3-R
I0419 09:35:34.390202 29505 net.cpp:406] relu3_3-R <- conv3_3-R
I0419 09:35:34.390213 29505 net.cpp:367] relu3_3-R -> conv3_3-R (in-place)
I0419 09:35:34.390602 29505 net.cpp:122] Setting up relu3_3-R
I0419 09:35:34.390630 29505 net.cpp:129] Top shape: 1 256 178 127 (5787136)
I0419 09:35:34.390636 29505 net.cpp:137] Memory required for data: 1629649172
I0419 09:35:34.390643 29505 layer_factory.hpp:77] Creating layer pool3-R
I0419 09:35:34.390655 29505 net.cpp:84] Creating Layer pool3-R
I0419 09:35:34.390669 29505 net.cpp:406] pool3-R <- conv3_3-R
I0419 09:35:34.390681 29505 net.cpp:380] pool3-R -> pool3-R
I0419 09:35:34.390777 29505 net.cpp:122] Setting up pool3-R
I0419 09:35:34.390791 29505 net.cpp:129] Top shape: 1 256 89 64 (1458176)
I0419 09:35:34.390797 29505 net.cpp:137] Memory required for data: 1635481876
I0419 09:35:34.390805 29505 layer_factory.hpp:77] Creating layer pool3-R_pool3-R_0_split
I0419 09:35:34.390815 29505 net.cpp:84] Creating Layer pool3-R_pool3-R_0_split
I0419 09:35:34.390822 29505 net.cpp:406] pool3-R_pool3-R_0_split <- pool3-R
I0419 09:35:34.390833 29505 net.cpp:380] pool3-R_pool3-R_0_split -> pool3-R_pool3-R_0_split_0
I0419 09:35:34.390852 29505 net.cpp:380] pool3-R_pool3-R_0_split -> pool3-R_pool3-R_0_split_1
I0419 09:35:34.390928 29505 net.cpp:122] Setting up pool3-R_pool3-R_0_split
I0419 09:35:34.390942 29505 net.cpp:129] Top shape: 1 256 89 64 (1458176)
I0419 09:35:34.390951 29505 net.cpp:129] Top shape: 1 256 89 64 (1458176)
I0419 09:35:34.390959 29505 net.cpp:137] Memory required for data: 1647147284
I0419 09:35:34.390965 29505 layer_factory.hpp:77] Creating layer conv4_1-R
I0419 09:35:34.390980 29505 net.cpp:84] Creating Layer conv4_1-R
I0419 09:35:34.390988 29505 net.cpp:406] conv4_1-R <- pool3-R_pool3-R_0_split_0
I0419 09:35:34.391000 29505 net.cpp:380] conv4_1-R -> conv4_1-R
I0419 09:35:34.397809 29505 net.cpp:122] Setting up conv4_1-R
I0419 09:35:34.397830 29505 net.cpp:129] Top shape: 1 512 89 64 (2916352)
I0419 09:35:34.397835 29505 net.cpp:137] Memory required for data: 1658812692
I0419 09:35:34.397853 29505 layer_factory.hpp:77] Creating layer relu4_1-R
I0419 09:35:34.397867 29505 net.cpp:84] Creating Layer relu4_1-R
I0419 09:35:34.397873 29505 net.cpp:406] relu4_1-R <- conv4_1-R
I0419 09:35:34.397881 29505 net.cpp:367] relu4_1-R -> conv4_1-R (in-place)
I0419 09:35:34.398115 29505 net.cpp:122] Setting up relu4_1-R
I0419 09:35:34.398128 29505 net.cpp:129] Top shape: 1 512 89 64 (2916352)
I0419 09:35:34.398131 29505 net.cpp:137] Memory required for data: 1670478100
I0419 09:35:34.398136 29505 layer_factory.hpp:77] Creating layer conv4_2-R
I0419 09:35:34.398146 29505 net.cpp:84] Creating Layer conv4_2-R
I0419 09:35:34.398150 29505 net.cpp:406] conv4_2-R <- conv4_1-R
I0419 09:35:34.398159 29505 net.cpp:380] conv4_2-R -> conv4_2-R
I0419 09:35:34.415259 29505 net.cpp:122] Setting up conv4_2-R
I0419 09:35:34.415323 29505 net.cpp:129] Top shape: 1 512 89 64 (2916352)
I0419 09:35:34.415331 29505 net.cpp:137] Memory required for data: 1682143508
I0419 09:35:34.415351 29505 layer_factory.hpp:77] Creating layer relu4_2-R
I0419 09:35:34.415370 29505 net.cpp:84] Creating Layer relu4_2-R
I0419 09:35:34.415380 29505 net.cpp:406] relu4_2-R <- conv4_2-R
I0419 09:35:34.415393 29505 net.cpp:367] relu4_2-R -> conv4_2-R (in-place)
I0419 09:35:34.415787 29505 net.cpp:122] Setting up relu4_2-R
I0419 09:35:34.415819 29505 net.cpp:129] Top shape: 1 512 89 64 (2916352)
I0419 09:35:34.415827 29505 net.cpp:137] Memory required for data: 1693808916
I0419 09:35:34.415834 29505 layer_factory.hpp:77] Creating layer conv4_3-R
I0419 09:35:34.415853 29505 net.cpp:84] Creating Layer conv4_3-R
I0419 09:35:34.415860 29505 net.cpp:406] conv4_3-R <- conv4_2-R
I0419 09:35:34.415874 29505 net.cpp:380] conv4_3-R -> conv4_3-R
I0419 09:35:34.426300 29505 net.cpp:122] Setting up conv4_3-R
I0419 09:35:34.426347 29505 net.cpp:129] Top shape: 1 512 89 64 (2916352)
I0419 09:35:34.426352 29505 net.cpp:137] Memory required for data: 1705474324
I0419 09:35:34.426369 29505 layer_factory.hpp:77] Creating layer relu4_3-R
I0419 09:35:34.426384 29505 net.cpp:84] Creating Layer relu4_3-R
I0419 09:35:34.426391 29505 net.cpp:406] relu4_3-R <- conv4_3-R
I0419 09:35:34.426401 29505 net.cpp:367] relu4_3-R -> conv4_3-R (in-place)
I0419 09:35:34.427160 29505 net.cpp:122] Setting up relu4_3-R
I0419 09:35:34.427175 29505 net.cpp:129] Top shape: 1 512 89 64 (2916352)
I0419 09:35:34.427181 29505 net.cpp:137] Memory required for data: 1717139732
I0419 09:35:34.427196 29505 layer_factory.hpp:77] Creating layer pool4-R
I0419 09:35:34.427207 29505 net.cpp:84] Creating Layer pool4-R
I0419 09:35:34.427212 29505 net.cpp:406] pool4-R <- conv4_3-R
I0419 09:35:34.427222 29505 net.cpp:380] pool4-R -> pool4-R
I0419 09:35:34.427284 29505 net.cpp:122] Setting up pool4-R
I0419 09:35:34.427290 29505 net.cpp:129] Top shape: 1 512 45 32 (737280)
I0419 09:35:34.427294 29505 net.cpp:137] Memory required for data: 1720088852
I0419 09:35:34.427299 29505 layer_factory.hpp:77] Creating layer pool4-R_pool4-R_0_split
I0419 09:35:34.427305 29505 net.cpp:84] Creating Layer pool4-R_pool4-R_0_split
I0419 09:35:34.427310 29505 net.cpp:406] pool4-R_pool4-R_0_split <- pool4-R
I0419 09:35:34.427316 29505 net.cpp:380] pool4-R_pool4-R_0_split -> pool4-R_pool4-R_0_split_0
I0419 09:35:34.427325 29505 net.cpp:380] pool4-R_pool4-R_0_split -> pool4-R_pool4-R_0_split_1
I0419 09:35:34.427368 29505 net.cpp:122] Setting up pool4-R_pool4-R_0_split
I0419 09:35:34.427383 29505 net.cpp:129] Top shape: 1 512 45 32 (737280)
I0419 09:35:34.427390 29505 net.cpp:129] Top shape: 1 512 45 32 (737280)
I0419 09:35:34.427393 29505 net.cpp:137] Memory required for data: 1725987092
I0419 09:35:34.427397 29505 layer_factory.hpp:77] Creating layer conv5_1-R
I0419 09:35:34.427408 29505 net.cpp:84] Creating Layer conv5_1-R
I0419 09:35:34.427413 29505 net.cpp:406] conv5_1-R <- pool4-R_pool4-R_0_split_0
I0419 09:35:34.427419 29505 net.cpp:380] conv5_1-R -> conv5_1-R
I0419 09:35:34.438393 29505 net.cpp:122] Setting up conv5_1-R
I0419 09:35:34.438432 29505 net.cpp:129] Top shape: 1 512 45 32 (737280)
I0419 09:35:34.438438 29505 net.cpp:137] Memory required for data: 1728936212
I0419 09:35:34.438467 29505 layer_factory.hpp:77] Creating layer relu5_1-R
I0419 09:35:34.438482 29505 net.cpp:84] Creating Layer relu5_1-R
I0419 09:35:34.438488 29505 net.cpp:406] relu5_1-R <- conv5_1-R
I0419 09:35:34.438495 29505 net.cpp:367] relu5_1-R -> conv5_1-R (in-place)
I0419 09:35:34.438736 29505 net.cpp:122] Setting up relu5_1-R
I0419 09:35:34.438748 29505 net.cpp:129] Top shape: 1 512 45 32 (737280)
I0419 09:35:34.438753 29505 net.cpp:137] Memory required for data: 1731885332
I0419 09:35:34.438757 29505 layer_factory.hpp:77] Creating layer conv5_2-R
I0419 09:35:34.438769 29505 net.cpp:84] Creating Layer conv5_2-R
I0419 09:35:34.438774 29505 net.cpp:406] conv5_2-R <- conv5_1-R
I0419 09:35:34.438783 29505 net.cpp:380] conv5_2-R -> conv5_2-R
I0419 09:35:34.457893 29505 net.cpp:122] Setting up conv5_2-R
I0419 09:35:34.457958 29505 net.cpp:129] Top shape: 1 512 45 32 (737280)
I0419 09:35:34.457968 29505 net.cpp:137] Memory required for data: 1734834452
I0419 09:35:34.457989 29505 layer_factory.hpp:77] Creating layer relu5_2-R
I0419 09:35:34.458021 29505 net.cpp:84] Creating Layer relu5_2-R
I0419 09:35:34.458034 29505 net.cpp:406] relu5_2-R <- conv5_2-R
I0419 09:35:34.458047 29505 net.cpp:367] relu5_2-R -> conv5_2-R (in-place)
I0419 09:35:34.458586 29505 net.cpp:122] Setting up relu5_2-R
I0419 09:35:34.458609 29505 net.cpp:129] Top shape: 1 512 45 32 (737280)
I0419 09:35:34.458617 29505 net.cpp:137] Memory required for data: 1737783572
I0419 09:35:34.458634 29505 layer_factory.hpp:77] Creating layer conv5_3-R
I0419 09:35:34.458690 29505 net.cpp:84] Creating Layer conv5_3-R
I0419 09:35:34.458704 29505 net.cpp:406] conv5_3-R <- conv5_2-R
I0419 09:35:34.458719 29505 net.cpp:380] conv5_3-R -> conv5_3-R
I0419 09:35:34.469204 29505 net.cpp:122] Setting up conv5_3-R
I0419 09:35:34.469241 29505 net.cpp:129] Top shape: 1 512 45 32 (737280)
I0419 09:35:34.469246 29505 net.cpp:137] Memory required for data: 1740732692
I0419 09:35:34.469269 29505 layer_factory.hpp:77] Creating layer relu5_3-R
I0419 09:35:34.469295 29505 net.cpp:84] Creating Layer relu5_3-R
I0419 09:35:34.469298 29505 net.cpp:406] relu5_3-R <- conv5_3-R
I0419 09:35:34.469305 29505 net.cpp:367] relu5_3-R -> conv5_3-R (in-place)
I0419 09:35:34.469506 29505 net.cpp:122] Setting up relu5_3-R
I0419 09:35:34.469521 29505 net.cpp:129] Top shape: 1 512 45 32 (737280)
I0419 09:35:34.469527 29505 net.cpp:137] Memory required for data: 1743681812
I0419 09:35:34.469532 29505 layer_factory.hpp:77] Creating layer pool5-R
I0419 09:35:34.469542 29505 net.cpp:84] Creating Layer pool5-R
I0419 09:35:34.469545 29505 net.cpp:406] pool5-R <- conv5_3-R
I0419 09:35:34.469552 29505 net.cpp:380] pool5-R -> pool5-R
I0419 09:35:34.469610 29505 net.cpp:122] Setting up pool5-R
I0419 09:35:34.469624 29505 net.cpp:129] Top shape: 1 512 23 16 (188416)
I0419 09:35:34.469630 29505 net.cpp:137] Memory required for data: 1744435476
I0419 09:35:34.469635 29505 layer_factory.hpp:77] Creating layer fc6-R
I0419 09:35:34.469646 29505 net.cpp:84] Creating Layer fc6-R
I0419 09:35:34.469657 29505 net.cpp:406] fc6-R <- pool5-R
I0419 09:35:34.469668 29505 net.cpp:380] fc6-R -> fc6-R
I0419 09:35:34.770968 29505 net.cpp:122] Setting up fc6-R
I0419 09:35:34.771020 29505 net.cpp:129] Top shape: 1 4096 17 10 (696320)
I0419 09:35:34.771025 29505 net.cpp:137] Memory required for data: 1747220756
I0419 09:35:34.771036 29505 layer_factory.hpp:77] Creating layer relu6-R
I0419 09:35:34.771056 29505 net.cpp:84] Creating Layer relu6-R
I0419 09:35:34.771067 29505 net.cpp:406] relu6-R <- fc6-R
I0419 09:35:34.771090 29505 net.cpp:367] relu6-R -> fc6-R (in-place)
I0419 09:35:34.771302 29505 net.cpp:122] Setting up relu6-R
I0419 09:35:34.771317 29505 net.cpp:129] Top shape: 1 4096 17 10 (696320)
I0419 09:35:34.771322 29505 net.cpp:137] Memory required for data: 1750006036
I0419 09:35:34.771337 29505 layer_factory.hpp:77] Creating layer drop6-R
I0419 09:35:34.771347 29505 net.cpp:84] Creating Layer drop6-R
I0419 09:35:34.771353 29505 net.cpp:406] drop6-R <- fc6-R
I0419 09:35:34.771374 29505 net.cpp:367] drop6-R -> fc6-R (in-place)
I0419 09:35:34.771438 29505 net.cpp:122] Setting up drop6-R
I0419 09:35:34.771462 29505 net.cpp:129] Top shape: 1 4096 17 10 (696320)
I0419 09:35:34.771468 29505 net.cpp:137] Memory required for data: 1752791316
I0419 09:35:34.771473 29505 layer_factory.hpp:77] Creating layer fc7-R
I0419 09:35:34.771487 29505 net.cpp:84] Creating Layer fc7-R
I0419 09:35:34.771492 29505 net.cpp:406] fc7-R <- fc6-R
I0419 09:35:34.771499 29505 net.cpp:380] fc7-R -> fc7-R
I0419 09:35:34.820087 29505 net.cpp:122] Setting up fc7-R
I0419 09:35:34.820139 29505 net.cpp:129] Top shape: 1 4096 17 10 (696320)
I0419 09:35:34.820145 29505 net.cpp:137] Memory required for data: 1755576596
I0419 09:35:34.820158 29505 layer_factory.hpp:77] Creating layer relu7-R
I0419 09:35:34.820185 29505 net.cpp:84] Creating Layer relu7-R
I0419 09:35:34.820209 29505 net.cpp:406] relu7-R <- fc7-R
I0419 09:35:34.820215 29505 net.cpp:367] relu7-R -> fc7-R (in-place)
I0419 09:35:34.820436 29505 net.cpp:122] Setting up relu7-R
I0419 09:35:34.820451 29505 net.cpp:129] Top shape: 1 4096 17 10 (696320)
I0419 09:35:34.820456 29505 net.cpp:137] Memory required for data: 1758361876
I0419 09:35:34.820462 29505 layer_factory.hpp:77] Creating layer drop7-R
I0419 09:35:34.820490 29505 net.cpp:84] Creating Layer drop7-R
I0419 09:35:34.820497 29505 net.cpp:406] drop7-R <- fc7-R
I0419 09:35:34.820504 29505 net.cpp:367] drop7-R -> fc7-R (in-place)
I0419 09:35:34.820552 29505 net.cpp:122] Setting up drop7-R
I0419 09:35:34.820564 29505 net.cpp:129] Top shape: 1 4096 17 10 (696320)
I0419 09:35:34.820567 29505 net.cpp:137] Memory required for data: 1761147156
I0419 09:35:34.820580 29505 layer_factory.hpp:77] Creating layer score_fr-new-R
I0419 09:35:34.820598 29505 net.cpp:84] Creating Layer score_fr-new-R
I0419 09:35:34.820605 29505 net.cpp:406] score_fr-new-R <- fc7-R
I0419 09:35:34.820616 29505 net.cpp:380] score_fr-new-R -> score_fr-new-R
I0419 09:35:34.821983 29505 net.cpp:122] Setting up score_fr-new-R
I0419 09:35:34.821997 29505 net.cpp:129] Top shape: 1 3 17 10 (510)
I0419 09:35:34.822017 29505 net.cpp:137] Memory required for data: 1761149196
I0419 09:35:34.822024 29505 layer_factory.hpp:77] Creating layer upscore2-new-R
I0419 09:35:34.822033 29505 net.cpp:84] Creating Layer upscore2-new-R
I0419 09:35:34.822037 29505 net.cpp:406] upscore2-new-R <- score_fr-new-R
I0419 09:35:34.822044 29505 net.cpp:380] upscore2-new-R -> upscore2-new-R
I0419 09:35:34.822363 29505 net.cpp:122] Setting up upscore2-new-R
I0419 09:35:34.822376 29505 net.cpp:129] Top shape: 1 3 36 22 (2376)
I0419 09:35:34.822379 29505 net.cpp:137] Memory required for data: 1761158700
I0419 09:35:34.822386 29505 layer_factory.hpp:77] Creating layer upscore2-new-R_upscore2-new-R_0_split
I0419 09:35:34.822392 29505 net.cpp:84] Creating Layer upscore2-new-R_upscore2-new-R_0_split
I0419 09:35:34.822396 29505 net.cpp:406] upscore2-new-R_upscore2-new-R_0_split <- upscore2-new-R
I0419 09:35:34.822403 29505 net.cpp:380] upscore2-new-R_upscore2-new-R_0_split -> upscore2-new-R_upscore2-new-R_0_split_0
I0419 09:35:34.822412 29505 net.cpp:380] upscore2-new-R_upscore2-new-R_0_split -> upscore2-new-R_upscore2-new-R_0_split_1
I0419 09:35:34.822468 29505 net.cpp:122] Setting up upscore2-new-R_upscore2-new-R_0_split
I0419 09:35:34.822479 29505 net.cpp:129] Top shape: 1 3 36 22 (2376)
I0419 09:35:34.822484 29505 net.cpp:129] Top shape: 1 3 36 22 (2376)
I0419 09:35:34.822487 29505 net.cpp:137] Memory required for data: 1761177708
I0419 09:35:34.822490 29505 layer_factory.hpp:77] Creating layer score_pool4-new-R
I0419 09:35:34.822499 29505 net.cpp:84] Creating Layer score_pool4-new-R
I0419 09:35:34.822520 29505 net.cpp:406] score_pool4-new-R <- pool4-R_pool4-R_0_split_1
I0419 09:35:34.822527 29505 net.cpp:380] score_pool4-new-R -> score_pool4-new-R
I0419 09:35:34.823873 29505 net.cpp:122] Setting up score_pool4-new-R
I0419 09:35:34.823901 29505 net.cpp:129] Top shape: 1 3 45 32 (4320)
I0419 09:35:34.823906 29505 net.cpp:137] Memory required for data: 1761194988
I0419 09:35:34.823912 29505 layer_factory.hpp:77] Creating layer score_pool4c-R
I0419 09:35:34.823935 29505 net.cpp:84] Creating Layer score_pool4c-R
I0419 09:35:34.823938 29505 net.cpp:406] score_pool4c-R <- score_pool4-new-R
I0419 09:35:34.823959 29505 net.cpp:406] score_pool4c-R <- upscore2-new-R_upscore2-new-R_0_split_0
I0419 09:35:34.823966 29505 net.cpp:380] score_pool4c-R -> score_pool4c-R
I0419 09:35:34.823999 29505 net.cpp:122] Setting up score_pool4c-R
I0419 09:35:34.824004 29505 net.cpp:129] Top shape: 1 3 36 22 (2376)
I0419 09:35:34.824007 29505 net.cpp:137] Memory required for data: 1761204492
I0419 09:35:34.824012 29505 layer_factory.hpp:77] Creating layer fuse_pool4-R
I0419 09:35:34.824018 29505 net.cpp:84] Creating Layer fuse_pool4-R
I0419 09:35:34.824023 29505 net.cpp:406] fuse_pool4-R <- upscore2-new-R_upscore2-new-R_0_split_1
I0419 09:35:34.824026 29505 net.cpp:406] fuse_pool4-R <- score_pool4c-R
I0419 09:35:34.824031 29505 net.cpp:380] fuse_pool4-R -> fuse_pool4-R
I0419 09:35:34.824059 29505 net.cpp:122] Setting up fuse_pool4-R
I0419 09:35:34.824064 29505 net.cpp:129] Top shape: 1 3 36 22 (2376)
I0419 09:35:34.824067 29505 net.cpp:137] Memory required for data: 1761213996
I0419 09:35:34.824070 29505 layer_factory.hpp:77] Creating layer upscore_pool4-new-R
I0419 09:35:34.824077 29505 net.cpp:84] Creating Layer upscore_pool4-new-R
I0419 09:35:34.824080 29505 net.cpp:406] upscore_pool4-new-R <- fuse_pool4-R
I0419 09:35:34.824086 29505 net.cpp:380] upscore_pool4-new-R -> upscore_pool4-new-R
I0419 09:35:34.824364 29505 net.cpp:122] Setting up upscore_pool4-new-R
I0419 09:35:34.824385 29505 net.cpp:129] Top shape: 1 3 74 46 (10212)
I0419 09:35:34.824388 29505 net.cpp:137] Memory required for data: 1761254844
I0419 09:35:34.824394 29505 layer_factory.hpp:77] Creating layer upscore_pool4-new-R_upscore_pool4-new-R_0_split
I0419 09:35:34.824400 29505 net.cpp:84] Creating Layer upscore_pool4-new-R_upscore_pool4-new-R_0_split
I0419 09:35:34.824405 29505 net.cpp:406] upscore_pool4-new-R_upscore_pool4-new-R_0_split <- upscore_pool4-new-R
I0419 09:35:34.824414 29505 net.cpp:380] upscore_pool4-new-R_upscore_pool4-new-R_0_split -> upscore_pool4-new-R_upscore_pool4-new-R_0_split_0
I0419 09:35:34.824424 29505 net.cpp:380] upscore_pool4-new-R_upscore_pool4-new-R_0_split -> upscore_pool4-new-R_upscore_pool4-new-R_0_split_1
I0419 09:35:34.824483 29505 net.cpp:122] Setting up upscore_pool4-new-R_upscore_pool4-new-R_0_split
I0419 09:35:34.824492 29505 net.cpp:129] Top shape: 1 3 74 46 (10212)
I0419 09:35:34.824496 29505 net.cpp:129] Top shape: 1 3 74 46 (10212)
I0419 09:35:34.824501 29505 net.cpp:137] Memory required for data: 1761336540
I0419 09:35:34.824503 29505 layer_factory.hpp:77] Creating layer score_pool3-new-R
I0419 09:35:34.824520 29505 net.cpp:84] Creating Layer score_pool3-new-R
I0419 09:35:34.824525 29505 net.cpp:406] score_pool3-new-R <- pool3-R_pool3-R_0_split_1
I0419 09:35:34.824533 29505 net.cpp:380] score_pool3-new-R -> score_pool3-new-R
I0419 09:35:34.825961 29505 net.cpp:122] Setting up score_pool3-new-R
I0419 09:35:34.825975 29505 net.cpp:129] Top shape: 1 3 89 64 (17088)
I0419 09:35:34.825994 29505 net.cpp:137] Memory required for data: 1761404892
I0419 09:35:34.826014 29505 layer_factory.hpp:77] Creating layer score_pool3c-R
I0419 09:35:34.826021 29505 net.cpp:84] Creating Layer score_pool3c-R
I0419 09:35:34.826025 29505 net.cpp:406] score_pool3c-R <- score_pool3-new-R
I0419 09:35:34.826030 29505 net.cpp:406] score_pool3c-R <- upscore_pool4-new-R_upscore_pool4-new-R_0_split_0
I0419 09:35:34.826051 29505 net.cpp:380] score_pool3c-R -> score_pool3c-R
I0419 09:35:34.826087 29505 net.cpp:122] Setting up score_pool3c-R
I0419 09:35:34.826093 29505 net.cpp:129] Top shape: 1 3 74 46 (10212)
I0419 09:35:34.826097 29505 net.cpp:137] Memory required for data: 1761445740
I0419 09:35:34.826099 29505 layer_factory.hpp:77] Creating layer fuse_pool3-R
I0419 09:35:34.826105 29505 net.cpp:84] Creating Layer fuse_pool3-R
I0419 09:35:34.826108 29505 net.cpp:406] fuse_pool3-R <- upscore_pool4-new-R_upscore_pool4-new-R_0_split_1
I0419 09:35:34.826113 29505 net.cpp:406] fuse_pool3-R <- score_pool3c-R
I0419 09:35:34.826117 29505 net.cpp:380] fuse_pool3-R -> fuse_pool3-R
I0419 09:35:34.826144 29505 net.cpp:122] Setting up fuse_pool3-R
I0419 09:35:34.826149 29505 net.cpp:129] Top shape: 1 3 74 46 (10212)
I0419 09:35:34.826153 29505 net.cpp:137] Memory required for data: 1761486588
I0419 09:35:34.826155 29505 layer_factory.hpp:77] Creating layer upscore8-new-R
I0419 09:35:34.826195 29505 net.cpp:84] Creating Layer upscore8-new-R
I0419 09:35:34.826201 29505 net.cpp:406] upscore8-new-R <- fuse_pool3-R
I0419 09:35:34.826210 29505 net.cpp:380] upscore8-new-R -> upscore8-new-R
I0419 09:35:34.826493 29505 net.cpp:122] Setting up upscore8-new-R
I0419 09:35:34.826504 29505 net.cpp:129] Top shape: 1 3 600 376 (676800)
I0419 09:35:34.826508 29505 net.cpp:137] Memory required for data: 1764193788
I0419 09:35:34.826516 29505 layer_factory.hpp:77] Creating layer upscore8_cropped-R
I0419 09:35:34.826524 29505 net.cpp:84] Creating Layer upscore8_cropped-R
I0419 09:35:34.826530 29505 net.cpp:406] upscore8_cropped-R <- upscore8-new-R
I0419 09:35:34.826537 29505 net.cpp:406] upscore8_cropped-R <- data-R_crop_0_split_1
I0419 09:35:34.826550 29505 net.cpp:380] upscore8_cropped-R -> upscore8_cropped-R
I0419 09:35:34.826586 29505 net.cpp:122] Setting up upscore8_cropped-R
I0419 09:35:34.826598 29505 net.cpp:129] Top shape: 1 3 512 310 (476160)
I0419 09:35:34.826601 29505 net.cpp:137] Memory required for data: 1766098428
I0419 09:35:34.826606 29505 layer_factory.hpp:77] Creating layer score-R
I0419 09:35:34.826614 29505 net.cpp:84] Creating Layer score-R
I0419 09:35:34.826620 29505 net.cpp:406] score-R <- upscore8_cropped-R
I0419 09:35:34.826627 29505 net.cpp:380] score-R -> score-R
I0419 09:35:34.828527 29505 net.cpp:122] Setting up score-R
I0419 09:35:34.828541 29505 net.cpp:129] Top shape: 1 3 512 310 (476160)
I0419 09:35:34.828562 29505 net.cpp:137] Memory required for data: 1768003068
I0419 09:35:34.828568 29505 layer_factory.hpp:77] Creating layer score_uncropped-R
I0419 09:35:34.829007 29505 net.cpp:84] Creating Layer score_uncropped-R
I0419 09:35:34.829020 29505 net.cpp:406] score_uncropped-R <- crop_info
I0419 09:35:34.829041 29505 net.cpp:406] score_uncropped-R <- score-R
I0419 09:35:34.829046 29505 net.cpp:406] score_uncropped-R <- data_data_0_split_3
I0419 09:35:34.829066 29505 net.cpp:380] score_uncropped-R -> score_uncropped-R
I0419 09:35:34.830799 29505 net.cpp:122] Setting up score_uncropped-R
I0419 09:35:34.830814 29505 net.cpp:129] Top shape: 1 3 512 310 (476160)
I0419 09:35:34.830833 29505 net.cpp:137] Memory required for data: 1769907708
I0419 09:35:34.830837 29505 layer_factory.hpp:77] Creating layer loss1
I0419 09:35:34.830850 29505 net.cpp:84] Creating Layer loss1
I0419 09:35:34.830854 29505 net.cpp:406] loss1 <- score_score_0_split_1
I0419 09:35:34.830859 29505 net.cpp:406] loss1 <- label_data_1_split_1
I0419 09:35:34.830864 29505 net.cpp:380] loss1 -> loss1
…
