…
snapshot_prefix: "/media/Med_2T2/data2/models/snapshots/joint:1e-5x10,1e-5x10,20/FD1:XI3_1_20180418_201418,XJ3_1_20180419_074829/train"
test_initialization: false
average_loss: 20
stepvalue: 45000
stepvalue: 50000
stepvalue: 55000
iter_size: 1
I0419 07:48:31.129484 27577 solver.cpp:77] Creating training net from train_net file: /media/Med_2T2/data2/prototxts/training_J3x10.prototxt
I0419 07:48:31.132328 27577 net.cpp:51] Initializing net from parameters: 
state {
  phase: TRAIN
}
layer {
  name: "data"
  type: "Python"
  top: "data"
  top: "label"
  top: "crop_margin"
  top: "crop_prob"
  top: "crop_sample_batch"
  python_param {
    module: "Data"
    layer: "DataLayer"
  }
}
layer {
  name: "conv1_1"
  type: "Convolution"
  bottom: "data"
  top: "conv1_1"
  param {
    lr_mult: 1
    decay_mult: 1
  }
  param {
    lr_mult: 2
    decay_mult: 0
  }
  convolution_param {
    num_output: 64
    pad: 100
    kernel_size: 3
    stride: 1
  }
}
layer {
  name: "relu1_1"
  type: "ReLU"
  bottom: "conv1_1"
  top: "conv1_1"
}
layer {
  name: "conv1_2"
  type: "Convolution"
  bottom: "conv1_1"
  top: "conv1_2"
  param {
    lr_mult: 1
    decay_mult: 1
  }
  param {
    lr_mult: 2
    decay_mult: 0
  }
  convolution_param {
    num_output: 64
    pad: 1
    kernel_size: 3
    stride: 1
  }
}
layer {
  name: "relu1_2"
  type: "ReLU"
  bottom: "conv1_2"
  top: "conv1_2"
}
layer {
  name: "pool1"
  type: "Pooling"
  bottom: "conv1_2"
  top: "pool1"
  pooling_param {
    pool: MAX
    kernel_size: 2
    stride: 2
  }
}
layer {
  name: "conv2_1"
  type: "Convolution"
  bottom: "pool1"
  top: "conv2_1"
  param {
    lr_mult: 1
    decay_mult: 1
  }
  param {
    lr_mult: 2
    decay_mult: 0
  }
  convolution_param {
    num_output: 128
    pad: 1
    kernel_size: 3
    stride: 1
  }
}
layer {
  name: "relu2_1"
  type: "ReLU"
  bottom: "conv2_1"
  top: "conv2_1"
}
layer {
  name: "conv2_2"
  type: "Convolution"
  bottom: "conv2_1"
  top: "conv2_2"
  param {
    lr_mult: 1
    decay_mult: 1
  }
  param {
    lr_mult: 2
    decay_mult: 0
  }
  convolution_param {
    num_output: 128
    pad: 1
    kernel_size: 3
    stride: 1
  }
}
layer {
  name: "relu2_2"
  type: "ReLU"
  bottom: "conv2_2"
  top: "conv2_2"
}
layer {
  name: "pool2"
  type: "Pooling"
  bottom: "conv2_2"
  top: "pool2"
  pooling_param {
    pool: MAX
    kernel_size: 2
    stride: 2
  }
}
layer {
  name: "conv3_1"
  type: "Convolution"
  bottom: "pool2"
  top: "conv3_1"
  param {
    lr_mult: 1
    decay_mult: 1
  }
  param {
    lr_mult: 2
    decay_mult: 0
  }
  convolution_param {
    num_output: 256
    pad: 1
    kernel_size: 3
    stride: 1
  }
}
layer {
  name: "relu3_1"
  type: "ReLU"
  bottom: "conv3_1"
  top: "conv3_1"
}
layer {
  name: "conv3_2"
  type: "Convolution"
  bottom: "conv3_1"
  top: "conv3_2"
  param {
    lr_mult: 1
    decay_mult: 1
  }
  param {
    lr_mult: 2
    decay_mult: 0
  }
  convolution_param {
    num_output: 256
    pad: 1
    kernel_size: 3
    stride: 1
  }
}
layer {
  name: "relu3_2"
  type: "ReLU"
  bottom: "conv3_2"
  top: "conv3_2"
}
layer {
  name: "conv3_3"
  type: "Convolution"
  bottom: "conv3_2"
  top: "conv3_3"
  param {
    lr_mult: 1
    decay_mult: 1
  }
  param {
    lr_mult: 2
    decay_mult: 0
  }
  convolution_param {
    num_output: 256
    pad: 1
    kernel_size: 3
    stride: 1
  }
}
layer {
  name: "relu3_3"
  type: "ReLU"
  bottom: "conv3_3"
  top: "conv3_3"
}
layer {
  name: "pool3"
  type: "Pooling"
  bottom: "conv3_3"
  top: "pool3"
  pooling_param {
    pool: MAX
    kernel_size: 2
    stride: 2
  }
}
layer {
  name: "conv4_1"
  type: "Convolution"
  bottom: "pool3"
  top: "conv4_1"
  param {
    lr_mult: 1
    decay_mult: 1
  }
  param {
    lr_mult: 2
    decay_mult: 0
  }
  convolution_param {
    num_output: 512
    pad: 1
    kernel_size: 3
    stride: 1
  }
}
layer {
  name: "relu4_1"
  type: "ReLU"
  bottom: "conv4_1"
  top: "conv4_1"
}
layer {
  name: "conv4_2"
  type: "Convolution"
  bottom: "conv4_1"
  top: "conv4_2"
  param {
    lr_mult: 1
    decay_mult: 1
  }
  param {
    lr_mult: 2
    decay_mult: 0
  }
  convolution_param {
    num_output: 512
    pad: 1
    kernel_size: 3
    stride: 1
  }
}
layer {
  name: "relu4_2"
  type: "ReLU"
  bottom: "conv4_2"
  top: "conv4_2"
}
layer {
  name: "conv4_3"
  type: "Convolution"
  bottom: "conv4_2"
  top: "conv4_3"
  param {
    lr_mult: 1
    decay_mult: 1
  }
  param {
    lr_mult: 2
    decay_mult: 0
  }
  convolution_param {
    num_output: 512
    pad: 1
    kernel_size: 3
    stride: 1
  }
}
layer {
  name: "relu4_3"
  type: "ReLU"
  bottom: "conv4_3"
  top: "conv4_3"
}
layer {
  name: "pool4"
  type: "Pooling"
  bottom: "conv4_3"
  top: "pool4"
  pooling_param {
    pool: MAX
    kernel_size: 2
    stride: 2
  }
}
layer {
  name: "conv5_1"
  type: "Convolution"
  bottom: "pool4"
  top: "conv5_1"
  param {
    lr_mult: 1
    decay_mult: 1
  }
  param {
    lr_mult: 2
    decay_mult: 0
  }
  convolution_param {
    num_output: 512
    pad: 1
    kernel_size: 3
    stride: 1
  }
}
layer {
  name: "relu5_1"
  type: "ReLU"
  bottom: "conv5_1"
  top: "conv5_1"
}
layer {
  name: "conv5_2"
  type: "Convolution"
  bottom: "conv5_1"
  top: "conv5_2"
  param {
    lr_mult: 1
    decay_mult: 1
  }
  param {
    lr_mult: 2
    decay_mult: 0
  }
  convolution_param {
    num_output: 512
    pad: 1
    kernel_size: 3
    stride: 1
  }
}
layer {
  name: "relu5_2"
  type: "ReLU"
  bottom: "conv5_2"
  top: "conv5_2"
}
layer {
  name: "conv5_3"
  type: "Convolution"
  bottom: "conv5_2"
  top: "conv5_3"
  param {
    lr_mult: 1
    decay_mult: 1
  }
  param {
    lr_mult: 2
    decay_mult: 0
  }
  convolution_param {
    num_output: 512
    pad: 1
    kernel_size: 3
    stride: 1
  }
}
layer {
  name: "relu5_3"
  type: "ReLU"
  bottom: "conv5_3"
  top: "conv5_3"
}
layer {
  name: "pool5"
  type: "Pooling"
  bottom: "conv5_3"
  top: "pool5"
  pooling_param {
    pool: MAX
    kernel_size: 2
    stride: 2
  }
}
layer {
  name: "fc6"
  type: "Convolution"
  bottom: "pool5"
  top: "fc6"
  param {
    lr_mult: 1
    decay_mult: 1
  }
  param {
    lr_mult: 2
    decay_mult: 0
  }
  convolution_param {
    num_output: 4096
    pad: 0
    kernel_size: 7
    stride: 1
  }
}
layer {
  name: "relu6"
  type: "ReLU"
  bottom: "fc6"
  top: "fc6"
}
layer {
  name: "drop6"
  type: "Dropout"
  bottom: "fc6"
  top: "fc6"
  dropout_param {
    dropout_ratio: 0.5
  }
}
layer {
  name: "fc7"
  type: "Convolution"
  bottom: "fc6"
  top: "fc7"
  param {
    lr_mult: 1
    decay_mult: 1
  }
  param {
    lr_mult: 2
    decay_mult: 0
  }
  convolution_param {
    num_output: 4096
    pad: 0
    kernel_size: 1
    stride: 1
  }
}
layer {
  name: "relu7"
  type: "ReLU"
  bottom: "fc7"
  top: "fc7"
}
layer {
  name: "drop7"
  type: "Dropout"
  bottom: "fc7"
  top: "fc7"
  dropout_param {
    dropout_ratio: 0.5
  }
}
layer {
  name: "score_fr-new"
  type: "Convolution"
  bottom: "fc7"
  top: "score_fr-new"
  param {
    lr_mult: 1
    decay_mult: 1
  }
  param {
    lr_mult: 2
    decay_mult: 0
  }
  convolution_param {
    num_output: 3
    kernel_size: 1
  }
}
layer {
  name: "upscore2-new"
  type: "Deconvolution"
  bottom: "score_fr-new"
  top: "upscore2-new"
  param {
    lr_mult: 0
  }
  convolution_param {
    num_output: 3
    bias_term: false
    kernel_size: 4
    stride: 2
  }
}
layer {
  name: "score_pool4-new"
  type: "Convolution"
  bottom: "pool4"
  top: "score_pool4-new"
  param {
    lr_mult: 1
    decay_mult: 1
  }
  param {
    lr_mult: 2
    decay_mult: 0
  }
  convolution_param {
    num_output: 3
    pad: 0
    kernel_size: 1
  }
}
layer {
  name: "score_pool4c"
  type: "Crop"
  bottom: "score_pool4-new"
  bottom: "upscore2-new"
  top: "score_pool4c"
  crop_param {
    axis: 2
    offset: 5
  }
}
layer {
  name: "fuse_pool4"
  type: "Eltwise"
  bottom: "upscore2-new"
  bottom: "score_pool4c"
  top: "fuse_pool4"
  eltwise_param {
    operation: SUM
  }
}
layer {
  name: "upscore_pool4-new"
  type: "Deconvolution"
  bottom: "fuse_pool4"
  top: "upscore_pool4-new"
  param {
    lr_mult: 0
  }
  convolution_param {
    num_output: 3
    bias_term: false
    kernel_size: 4
    stride: 2
  }
}
layer {
  name: "score_pool3-new"
  type: "Convolution"
  bottom: "pool3"
  top: "score_pool3-new"
  param {
    lr_mult: 1
    decay_mult: 1
  }
  param {
    lr_mult: 2
    decay_mult: 0
  }
  convolution_param {
    num_output: 3
    pad: 0
    kernel_size: 1
  }
}
layer {
  name: "score_pool3c"
  type: "Crop"
  bottom: "score_pool3-new"
  bottom: "upscore_pool4-new"
  top: "score_pool3c"
  crop_param {
    axis: 2
    offset: 9
  }
}
layer {
  name: "fuse_pool3"
  type: "Eltwise"
  bottom: "upscore_pool4-new"
  bottom: "score_pool3c"
  top: "fuse_pool3"
  eltwise_param {
    operation: SUM
  }
}
layer {
  name: "upscore8-new"
  type: "Deconvolution"
  bottom: "fuse_pool3"
  top: "upscore8-new"
  param {
    lr_mult: 0
  }
  convolution_param {
    num_output: 3
    bias_term: false
    kernel_size: 16
    stride: 8
  }
}
layer {
  name: "upscore8_cropped"
  type: "Crop"
  bottom: "upscore8-new"
  bottom: "data"
  top: "upscore8_cropped"
  crop_param {
    axis: 2
    offset: 31
  }
}
layer {
  name: "score"
  type: "Convolution"
  bottom: "upscore8_cropped"
  top: "score"
  param {
    lr_mult: 1
    decay_mult: 1
  }
  param {
    lr_mult: 2
    decay_mult: 0
  }
  convolution_param {
    num_output: 3
    pad: 1
    kernel_size: 3
    stride: 1
  }
}
layer {
  name: "prob"
  type: "Sigmoid"
  bottom: "score"
  top: "prob"
}
layer {
  name: "saliency"
  type: "Convolution"
  bottom: "prob"
  top: "saliency"
  param {
    lr_mult: 10
    decay_mult: 1
  }
  param {
    lr_mult: 20
    decay_mult: 0
  }
  convolution_param {
    num_output: 3
    pad: 2
    kernel_size: 5
    stride: 1
  }
}
layer {
  name: "saliency_data"
  type: "Eltwise"
  bottom: "data"
  bottom: "saliency"
  top: "saliency_data"
  eltwise_param {
    operation: PROD
  }
}
layer {
  name: "crop"
  type: "Python"
  bottom: "prob"
  bottom: "saliency_data"
  bottom: "crop_margin"
  bottom: "crop_prob"
  bottom: "crop_sample_batch"
  bottom: "label"
  top: "data-R"
  top: "crop_info"
  python_param {
    module: "Crop"
    layer: "CropLayer"
    param_str: "{\"TEST\": 0}"
  }
}
layer {
  name: "conv1_1-R"
  type: "Convolution"
  bottom: "data-R"
  top: "conv1_1-R"
  param {
    lr_mult: 10
    decay_mult: 1
  }
  param {
    lr_mult: 20
    decay_mult: 0
  }
  convolution_param {
    num_output: 64
    pad: 100
    kernel_size: 3
    stride: 1
  }
}
layer {
  name: "relu1_1-R"
  type: "ReLU"
  bottom: "conv1_1-R"
  top: "conv1_1-R"
}
layer {
  name: "conv1_2-R"
  type: "Convolution"
  bottom: "conv1_1-R"
  top: "conv1_2-R"
  param {
    lr_mult: 10
    decay_mult: 1
  }
  param {
    lr_mult: 20
    decay_mult: 0
  }
  convolution_param {
    num_output: 64
    pad: 1
    kernel_size: 3
    stride: 1
  }
}
layer {
  name: "relu1_2-R"
  type: "ReLU"
  bottom: "conv1_2-R"
  top: "conv1_2-R"
}
layer {
  name: "pool1-R"
  type: "Pooling"
  bottom: "conv1_2-R"
  top: "pool1-R"
  pooling_param {
    pool: MAX
    kernel_size: 2
    stride: 2
  }
}
layer {
  name: "conv2_1-R"
  type: "Convolution"
  bottom: "pool1-R"
  top: "conv2_1-R"
  param {
    lr_mult: 10
    decay_mult: 1
  }
  param {
    lr_mult: 20
    decay_mult: 0
  }
  convolution_param {
    num_output: 128
    pad: 1
    kernel_size: 3
    stride: 1
  }
}
layer {
  name: "relu2_1-R"
  type: "ReLU"
  bottom: "conv2_1-R"
  top: "conv2_1-R"
}
layer {
  name: "conv2_2-R"
  type: "Convolution"
  bottom: "conv2_1-R"
  top: "conv2_2-R"
  param {
    lr_mult: 10
    decay_mult: 1
  }
  param {
    lr_mult: 20
    decay_mult: 0
  }
  convolution_param {
    num_output: 128
    pad: 1
    kernel_size: 3
    stride: 1
  }
}
layer {
  name: "relu2_2-R"
  type: "ReLU"
  bottom: "conv2_2-R"
  top: "conv2_2-R"
}
layer {
  name: "pool2-R"
  type: "Pooling"
  bottom: "conv2_2-R"
  top: "pool2-R"
  pooling_param {
    pool: MAX
    kernel_size: 2
    stride: 2
  }
}
layer {
  name: "conv3_1-R"
  type: "Convolution"
  bottom: "pool2-R"
  top: "conv3_1-R"
  param {
    lr_mult: 10
    decay_mult: 1
  }
  param {
    lr_mult: 20
    decay_mult: 0
  }
  convolution_param {
    num_output: 256
    pad: 1
    kernel_size: 3
    stride: 1
  }
}
layer {
  name: "relu3_1-R"
  type: "ReLU"
  bottom: "conv3_1-R"
  top: "conv3_1-R"
}
layer {
  name: "conv3_2-R"
  type: "Convolution"
  bottom: "conv3_1-R"
  top: "conv3_2-R"
  param {
    lr_mult: 10
    decay_mult: 1
  }
  param {
    lr_mult: 20
    decay_mult: 0
  }
  convolution_param {
    num_output: 256
    pad: 1
    kernel_size: 3
    stride: 1
  }
}
layer {
  name: "relu3_2-R"
  type: "ReLU"
  bottom: "conv3_2-R"
  top: "conv3_2-R"
}
layer {
  name: "conv3_3-R"
  type: "Convolution"
  bottom: "conv3_2-R"
  top: "conv3_3-R"
  param {
    lr_mult: 10
    decay_mult: 1
  }
  param {
    lr_mult: 20
    decay_mult: 0
  }
  convolution_param {
    num_output: 256
    pad: 1
    kernel_size: 3
    stride: 1
  }
}
layer {
  name: "relu3_3-R"
  type: "ReLU"
  bottom: "conv3_3-R"
  top: "conv3_3-R"
}
layer {
  name: "pool3-R"
  type: "Pooling"
  bottom: "conv3_3-R"
  top: "pool3-R"
  pooling_param {
    pool: MAX
    kernel_size: 2
    stride: 2
  }
}
layer {
  name: "conv4_1-R"
  type: "Convolution"
  bottom: "pool3-R"
  top: "conv4_1-R"
  param {
    lr_mult: 10
    decay_mult: 1
  }
  param {
    lr_mult: 20
    decay_mult: 0
  }
  convolution_param {
    num_output: 512
    pad: 1
    kernel_size: 3
    stride: 1
  }
}
layer {
  name: "relu4_1-R"
  type: "ReLU"
  bottom: "conv4_1-R"
  top: "conv4_1-R"
}
layer {
  name: "conv4_2-R"
  type: "Convolution"
  bottom: "conv4_1-R"
  top: "conv4_2-R"
  param {
    lr_mult: 10
    decay_mult: 1
  }
  param {
    lr_mult: 20
    decay_mult: 0
  }
  convolution_param {
    num_output: 512
    pad: 1
    kernel_size: 3
    stride: 1
  }
}
layer {
  name: "relu4_2-R"
  type: "ReLU"
  bottom: "conv4_2-R"
  top: "conv4_2-R"
}
layer {
  name: "conv4_3-R"
  type: "Convolution"
  bottom: "conv4_2-R"
  top: "conv4_3-R"
  param {
    lr_mult: 10
    decay_mult: 1
  }
  param {
    lr_mult: 20
    decay_mult: 0
  }
  convolution_param {
    num_output: 512
    pad: 1
    kernel_size: 3
    stride: 1
  }
}
layer {
  name: "relu4_3-R"
  type: "ReLU"
  bottom: "conv4_3-R"
  top: "conv4_3-R"
}
layer {
  name: "pool4-R"
  type: "Pooling"
  bottom: "conv4_3-R"
  top: "pool4-R"
  pooling_param {
    pool: MAX
    kernel_size: 2
    stride: 2
  }
}
layer {
  name: "conv5_1-R"
  type: "Convolution"
  bottom: "pool4-R"
  top: "conv5_1-R"
  param {
    lr_mult: 10
    decay_mult: 1
  }
  param {
    lr_mult: 20
    decay_mult: 0
  }
  convolution_param {
    num_output: 512
    pad: 1
    kernel_size: 3
    stride: 1
  }
}
layer {
  name: "relu5_1-R"
  type: "ReLU"
  bottom: "conv5_1-R"
  top: "conv5_1-R"
}
layer {
  name: "conv5_2-R"
  type: "Convolution"
  bottom: "conv5_1-R"
  top: "conv5_2-R"
  param {
    lr_mult: 10
    decay_mult: 1
  }
  param {
    lr_mult: 20
    decay_mult: 0
  }
  convolution_param {
    num_output: 512
    pad: 1
    kernel_size: 3
    stride: 1
  }
}
layer {
  name: "relu5_2-R"
  type: "ReLU"
  bottom: "conv5_2-R"
  top: "conv5_2-R"
}
layer {
  name: "conv5_3-R"
  type: "Convolution"
  bottom: "conv5_2-R"
  top: "conv5_3-R"
  param {
    lr_mult: 10
    decay_mult: 1
  }
  param {
    lr_mult: 20
    decay_mult: 0
  }
  convolution_param {
    num_output: 512
    pad: 1
    kernel_size: 3
    stride: 1
  }
}
layer {
  name: "relu5_3-R"
  type: "ReLU"
  bottom: "conv5_3-R"
  top: "conv5_3-R"
}
layer {
  name: "pool5-R"
  type: "Pooling"
  bottom: "conv5_3-R"
  top: "pool5-R"
  pooling_param {
    pool: MAX
    kernel_size: 2
    stride: 2
  }
}
layer {
  name: "fc6-R"
  type: "Convolution"
  bottom: "pool5-R"
  top: "fc6-R"
  param {
    lr_mult: 10
    decay_mult: 1
  }
  param {
    lr_mult: 20
    decay_mult: 0
  }
  convolution_param {
    num_output: 4096
    pad: 0
    kernel_size: 7
    stride: 1
  }
}
layer {
  name: "relu6-R"
  type: "ReLU"
  bottom: "fc6-R"
  top: "fc6-R"
}
layer {
  name: "drop6-R"
  type: "Dropout"
  bottom: "fc6-R"
  top: "fc6-R"
  dropout_param {
    dropout_ratio: 0.5
  }
}
layer {
  name: "fc7-R"
  type: "Convolution"
  bottom: "fc6-R"
  top: "fc7-R"
  param {
    lr_mult: 10
    decay_mult: 1
  }
  param {
    lr_mult: 20
    decay_mult: 0
  }
  convolution_param {
    num_output: 4096
    pad: 0
    kernel_size: 1
    stride: 1
  }
}
layer {
  name: "relu7-R"
  type: "ReLU"
  bottom: "fc7-R"
  top: "fc7-R"
}
layer {
  name: "drop7-R"
  type: "Dropout"
  bottom: "fc7-R"
  top: "fc7-R"
  dropout_param {
    dropout_ratio: 0.5
  }
}
layer {
  name: "score_fr-new-R"
  type: "Convolution"
  bottom: "fc7-R"
  top: "score_fr-new-R"
  param {
    lr_mult: 10
    decay_mult: 1
  }
  param {
    lr_mult: 20
    decay_mult: 0
  }
  convolution_param {
    num_output: 3
    kernel_size: 1
  }
}
layer {
  name: "upscore2-new-R"
  type: "Deconvolution"
  bottom: "score_fr-new-R"
  top: "upscore2-new-R"
  param {
    lr_mult: 0
  }
  convolution_param {
    num_output: 3
    bias_term: false
    kernel_size: 4
    stride: 2
  }
}
layer {
  name: "score_pool4-new-R"
  type: "Convolution"
  bottom: "pool4-R"
  top: "score_pool4-new-R"
  param {
    lr_mult: 10
    decay_mult: 1
  }
  param {
    lr_mult: 20
    decay_mult: 0
  }
  convolution_param {
    num_output: 3
    pad: 0
    kernel_size: 1
  }
}
layer {
  name: "score_pool4c-R"
  type: "Crop"
  bottom: "score_pool4-new-R"
  bottom: "upscore2-new-R"
  top: "score_pool4c-R"
  crop_param {
    axis: 2
    offset: 5
  }
}
layer {
  name: "fuse_pool4-R"
  type: "Eltwise"
  bottom: "upscore2-new-R"
  bottom: "score_pool4c-R"
  top: "fuse_pool4-R"
  eltwise_param {
    operation: SUM
  }
}
layer {
  name: "upscore_pool4-new-R"
  type: "Deconvolution"
  bottom: "fuse_pool4-R"
  top: "upscore_pool4-new-R"
  param {
    lr_mult: 0
  }
  convolution_param {
    num_output: 3
    bias_term: false
    kernel_size: 4
    stride: 2
  }
}
layer {
  name: "score_pool3-new-R"
  type: "Convolution"
  bottom: "pool3-R"
  top: "score_pool3-new-R"
  param {
    lr_mult: 10
    decay_mult: 1
  }
  param {
    lr_mult: 20
    decay_mult: 0
  }
  convolution_param {
    num_output: 3
    pad: 0
    kernel_size: 1
  }
}
layer {
  name: "score_pool3c-R"
  type: "Crop"
  bottom: "score_pool3-new-R"
  bottom: "upscore_pool4-new-R"
  top: "score_pool3c-R"
  crop_param {
    axis: 2
    offset: 9
  }
}
layer {
  name: "fuse_pool3-R"
  type: "Eltwise"
  bottom: "upscore_pool4-new-R"
  bottom: "score_pool3c-R"
  top: "fuse_pool3-R"
  eltwise_param {
    operation: SUM
  }
}
layer {
  name: "upscore8-new-R"
  type: "Deconvolution"
  bottom: "fuse_pool3-R"
  top: "upscore8-new-R"
  param {
    lr_mult: 0
  }
  convolution_param {
    num_output: 3
    bias_term: false
    kernel_size: 16
    stride: 8
  }
}
layer {
  name: "upscore8_cropped-R"
  type: "Crop"
  bottom: "upscore8-new-R"
  bottom: "data-R"
  top: "upscore8_cropped-R"
  crop_param {
    axis: 2
    offset: 31
  }
}
layer {
  name: "score-R"
  type: "Convolution"
  bottom: "upscore8_cropped-R"
  top: "score-R"
  param {
    lr_mult: 10
    decay_mult: 1
  }
  param {
    lr_mult: 20
    decay_mult: 0
  }
  convolution_param {
    num_output: 3
    pad: 1
    kernel_size: 3
    stride: 1
  }
}
layer {
  name: "score_uncropped-R"
  type: "Python"
  bottom: "crop_info"
  bottom: "score-R"
  bottom: "data"
  top: "score_uncropped-R"
  python_param {
    module: "Uncrop"
    layer: "UncropLayer"
  }
}
layer {
  name: "loss1"
  type: "DiceLoss"
  bottom: "score"
  bottom: "label"
  top: "loss1"
  loss_weight: 0.333333
}
layer {
  name: "loss2"
  type: "DiceLoss"
  bottom: "score_uncropped-R"
  bottom: "label"
  top: "loss2"
  loss_weight: 0.666667
}
I0419 07:48:31.132933 27577 layer_factory.hpp:77] Creating layer data
I0419 07:48:31.134382 27577 net.cpp:84] Creating Layer data
I0419 07:48:31.134398 27577 net.cpp:380] data -> data
I0419 07:48:31.134416 27577 net.cpp:380] data -> label
I0419 07:48:31.134424 27577 net.cpp:380] data -> crop_margin
I0419 07:48:31.134433 27577 net.cpp:380] data -> crop_prob
I0419 07:48:31.134438 27577 net.cpp:380] data -> crop_sample_batch
I0419 07:48:31.318445 27577 net.cpp:122] Setting up data
I0419 07:48:31.318490 27577 net.cpp:129] Top shape: 1 3 512 310 (476160)
I0419 07:48:31.318512 27577 net.cpp:129] Top shape: 1 3 512 310 (476160)
I0419 07:48:31.318516 27577 net.cpp:129] Top shape: 1 (1)
I0419 07:48:31.318521 27577 net.cpp:129] Top shape: 1 (1)
I0419 07:48:31.318524 27577 net.cpp:129] Top shape: 1 (1)
I0419 07:48:31.318528 27577 net.cpp:137] Memory required for data: 3809292
I0419 07:48:31.318536 27577 layer_factory.hpp:77] Creating layer data_data_0_split
I0419 07:48:31.318554 27577 net.cpp:84] Creating Layer data_data_0_split
I0419 07:48:31.318559 27577 net.cpp:406] data_data_0_split <- data
I0419 07:48:31.318580 27577 net.cpp:380] data_data_0_split -> data_data_0_split_0
I0419 07:48:31.318593 27577 net.cpp:380] data_data_0_split -> data_data_0_split_1
I0419 07:48:31.318598 27577 net.cpp:380] data_data_0_split -> data_data_0_split_2
I0419 07:48:31.318603 27577 net.cpp:380] data_data_0_split -> data_data_0_split_3
I0419 07:48:31.318650 27577 net.cpp:122] Setting up data_data_0_split
I0419 07:48:31.318655 27577 net.cpp:129] Top shape: 1 3 512 310 (476160)
I0419 07:48:31.318660 27577 net.cpp:129] Top shape: 1 3 512 310 (476160)
I0419 07:48:31.318663 27577 net.cpp:129] Top shape: 1 3 512 310 (476160)
I0419 07:48:31.318667 27577 net.cpp:129] Top shape: 1 3 512 310 (476160)
I0419 07:48:31.318670 27577 net.cpp:137] Memory required for data: 11427852
I0419 07:48:31.318673 27577 layer_factory.hpp:77] Creating layer label_data_1_split
I0419 07:48:31.318681 27577 net.cpp:84] Creating Layer label_data_1_split
I0419 07:48:31.318683 27577 net.cpp:406] label_data_1_split <- label
I0419 07:48:31.318689 27577 net.cpp:380] label_data_1_split -> label_data_1_split_0
I0419 07:48:31.318696 27577 net.cpp:380] label_data_1_split -> label_data_1_split_1
I0419 07:48:31.318702 27577 net.cpp:380] label_data_1_split -> label_data_1_split_2
I0419 07:48:31.318732 27577 net.cpp:122] Setting up label_data_1_split
I0419 07:48:31.318737 27577 net.cpp:129] Top shape: 1 3 512 310 (476160)
I0419 07:48:31.318740 27577 net.cpp:129] Top shape: 1 3 512 310 (476160)
I0419 07:48:31.318744 27577 net.cpp:129] Top shape: 1 3 512 310 (476160)
I0419 07:48:31.318758 27577 net.cpp:137] Memory required for data: 17141772
I0419 07:48:31.318761 27577 layer_factory.hpp:77] Creating layer conv1_1
I0419 07:48:31.318778 27577 net.cpp:84] Creating Layer conv1_1
I0419 07:48:31.318780 27577 net.cpp:406] conv1_1 <- data_data_0_split_0
I0419 07:48:31.318786 27577 net.cpp:380] conv1_1 -> conv1_1
I0419 07:48:31.676210 27577 net.cpp:122] Setting up conv1_1
I0419 07:48:31.676268 27577 net.cpp:129] Top shape: 1 64 710 508 (23083520)
I0419 07:48:31.676278 27577 net.cpp:137] Memory required for data: 109475852
I0419 07:48:31.676391 27577 layer_factory.hpp:77] Creating layer relu1_1
I0419 07:48:31.676419 27577 net.cpp:84] Creating Layer relu1_1
I0419 07:48:31.676440 27577 net.cpp:406] relu1_1 <- conv1_1
I0419 07:48:31.676452 27577 net.cpp:367] relu1_1 -> conv1_1 (in-place)
I0419 07:48:31.676903 27577 net.cpp:122] Setting up relu1_1
I0419 07:48:31.676928 27577 net.cpp:129] Top shape: 1 64 710 508 (23083520)
I0419 07:48:31.676935 27577 net.cpp:137] Memory required for data: 201809932
I0419 07:48:31.676944 27577 layer_factory.hpp:77] Creating layer conv1_2
I0419 07:48:31.676967 27577 net.cpp:84] Creating Layer conv1_2
I0419 07:48:31.676975 27577 net.cpp:406] conv1_2 <- conv1_1
I0419 07:48:31.676988 27577 net.cpp:380] conv1_2 -> conv1_2
I0419 07:48:31.683651 27577 net.cpp:122] Setting up conv1_2
I0419 07:48:31.683683 27577 net.cpp:129] Top shape: 1 64 710 508 (23083520)
I0419 07:48:31.683689 27577 net.cpp:137] Memory required for data: 294144012
I0419 07:48:31.683701 27577 layer_factory.hpp:77] Creating layer relu1_2
I0419 07:48:31.683710 27577 net.cpp:84] Creating Layer relu1_2
I0419 07:48:31.683715 27577 net.cpp:406] relu1_2 <- conv1_2
I0419 07:48:31.683722 27577 net.cpp:367] relu1_2 -> conv1_2 (in-place)
I0419 07:48:31.683956 27577 net.cpp:122] Setting up relu1_2
I0419 07:48:31.683969 27577 net.cpp:129] Top shape: 1 64 710 508 (23083520)
I0419 07:48:31.683974 27577 net.cpp:137] Memory required for data: 386478092
I0419 07:48:31.683979 27577 layer_factory.hpp:77] Creating layer pool1
I0419 07:48:31.683997 27577 net.cpp:84] Creating Layer pool1
I0419 07:48:31.684001 27577 net.cpp:406] pool1 <- conv1_2
I0419 07:48:31.684010 27577 net.cpp:380] pool1 -> pool1
I0419 07:48:31.684067 27577 net.cpp:122] Setting up pool1
I0419 07:48:31.684077 27577 net.cpp:129] Top shape: 1 64 355 254 (5770880)
I0419 07:48:31.684082 27577 net.cpp:137] Memory required for data: 409561612
I0419 07:48:31.684085 27577 layer_factory.hpp:77] Creating layer conv2_1
I0419 07:48:31.684098 27577 net.cpp:84] Creating Layer conv2_1
I0419 07:48:31.684103 27577 net.cpp:406] conv2_1 <- pool1
I0419 07:48:31.684109 27577 net.cpp:380] conv2_1 -> conv2_1
I0419 07:48:31.685968 27577 net.cpp:122] Setting up conv2_1
I0419 07:48:31.685986 27577 net.cpp:129] Top shape: 1 128 355 254 (11541760)
I0419 07:48:31.686000 27577 net.cpp:137] Memory required for data: 455728652
I0419 07:48:31.686013 27577 layer_factory.hpp:77] Creating layer relu2_1
I0419 07:48:31.686022 27577 net.cpp:84] Creating Layer relu2_1
I0419 07:48:31.686028 27577 net.cpp:406] relu2_1 <- conv2_1
I0419 07:48:31.686034 27577 net.cpp:367] relu2_1 -> conv2_1 (in-place)
I0419 07:48:31.686295 27577 net.cpp:122] Setting up relu2_1
I0419 07:48:31.686311 27577 net.cpp:129] Top shape: 1 128 355 254 (11541760)
I0419 07:48:31.686314 27577 net.cpp:137] Memory required for data: 501895692
I0419 07:48:31.686319 27577 layer_factory.hpp:77] Creating layer conv2_2
I0419 07:48:31.686331 27577 net.cpp:84] Creating Layer conv2_2
I0419 07:48:31.686336 27577 net.cpp:406] conv2_2 <- conv2_1
I0419 07:48:31.686344 27577 net.cpp:380] conv2_2 -> conv2_2
I0419 07:48:31.689679 27577 net.cpp:122] Setting up conv2_2
I0419 07:48:31.689710 27577 net.cpp:129] Top shape: 1 128 355 254 (11541760)
I0419 07:48:31.689715 27577 net.cpp:137] Memory required for data: 548062732
I0419 07:48:31.689725 27577 layer_factory.hpp:77] Creating layer relu2_2
I0419 07:48:31.689735 27577 net.cpp:84] Creating Layer relu2_2
I0419 07:48:31.689740 27577 net.cpp:406] relu2_2 <- conv2_2
I0419 07:48:31.689748 27577 net.cpp:367] relu2_2 -> conv2_2 (in-place)
I0419 07:48:31.689975 27577 net.cpp:122] Setting up relu2_2
I0419 07:48:31.689986 27577 net.cpp:129] Top shape: 1 128 355 254 (11541760)
I0419 07:48:31.689991 27577 net.cpp:137] Memory required for data: 594229772
I0419 07:48:31.689996 27577 layer_factory.hpp:77] Creating layer pool2
I0419 07:48:31.690004 27577 net.cpp:84] Creating Layer pool2
I0419 07:48:31.690009 27577 net.cpp:406] pool2 <- conv2_2
I0419 07:48:31.690017 27577 net.cpp:380] pool2 -> pool2
I0419 07:48:31.690066 27577 net.cpp:122] Setting up pool2
I0419 07:48:31.690075 27577 net.cpp:129] Top shape: 1 128 178 127 (2893568)
I0419 07:48:31.690079 27577 net.cpp:137] Memory required for data: 605804044
I0419 07:48:31.690083 27577 layer_factory.hpp:77] Creating layer conv3_1
I0419 07:48:31.690094 27577 net.cpp:84] Creating Layer conv3_1
I0419 07:48:31.690099 27577 net.cpp:406] conv3_1 <- pool2
I0419 07:48:31.690105 27577 net.cpp:380] conv3_1 -> conv3_1
I0419 07:48:31.693608 27577 net.cpp:122] Setting up conv3_1
I0419 07:48:31.693627 27577 net.cpp:129] Top shape: 1 256 178 127 (5787136)
I0419 07:48:31.693639 27577 net.cpp:137] Memory required for data: 628952588
I0419 07:48:31.693652 27577 layer_factory.hpp:77] Creating layer relu3_1
I0419 07:48:31.693660 27577 net.cpp:84] Creating Layer relu3_1
I0419 07:48:31.693665 27577 net.cpp:406] relu3_1 <- conv3_1
I0419 07:48:31.693673 27577 net.cpp:367] relu3_1 -> conv3_1 (in-place)
I0419 07:48:31.699123 27577 net.cpp:122] Setting up relu3_1
I0419 07:48:31.699156 27577 net.cpp:129] Top shape: 1 256 178 127 (5787136)
I0419 07:48:31.699164 27577 net.cpp:137] Memory required for data: 652101132
I0419 07:48:31.699185 27577 layer_factory.hpp:77] Creating layer conv3_2
I0419 07:48:31.699198 27577 net.cpp:84] Creating Layer conv3_2
I0419 07:48:31.699203 27577 net.cpp:406] conv3_2 <- conv3_1
I0419 07:48:31.699211 27577 net.cpp:380] conv3_2 -> conv3_2
I0419 07:48:31.702890 27577 net.cpp:122] Setting up conv3_2
I0419 07:48:31.702925 27577 net.cpp:129] Top shape: 1 256 178 127 (5787136)
I0419 07:48:31.702932 27577 net.cpp:137] Memory required for data: 675249676
I0419 07:48:31.702944 27577 layer_factory.hpp:77] Creating layer relu3_2
I0419 07:48:31.702957 27577 net.cpp:84] Creating Layer relu3_2
I0419 07:48:31.702965 27577 net.cpp:406] relu3_2 <- conv3_2
I0419 07:48:31.702986 27577 net.cpp:367] relu3_2 -> conv3_2 (in-place)
I0419 07:48:31.703735 27577 net.cpp:122] Setting up relu3_2
I0419 07:48:31.703768 27577 net.cpp:129] Top shape: 1 256 178 127 (5787136)
I0419 07:48:31.703774 27577 net.cpp:137] Memory required for data: 698398220
I0419 07:48:31.703781 27577 layer_factory.hpp:77] Creating layer conv3_3
I0419 07:48:31.703797 27577 net.cpp:84] Creating Layer conv3_3
I0419 07:48:31.703804 27577 net.cpp:406] conv3_3 <- conv3_2
I0419 07:48:31.703814 27577 net.cpp:380] conv3_3 -> conv3_3
I0419 07:48:31.708230 27577 net.cpp:122] Setting up conv3_3
I0419 07:48:31.708248 27577 net.cpp:129] Top shape: 1 256 178 127 (5787136)
I0419 07:48:31.708253 27577 net.cpp:137] Memory required for data: 721546764
I0419 07:48:31.708264 27577 layer_factory.hpp:77] Creating layer relu3_3
I0419 07:48:31.708272 27577 net.cpp:84] Creating Layer relu3_3
I0419 07:48:31.708278 27577 net.cpp:406] relu3_3 <- conv3_3
I0419 07:48:31.708286 27577 net.cpp:367] relu3_3 -> conv3_3 (in-place)
I0419 07:48:31.708506 27577 net.cpp:122] Setting up relu3_3
I0419 07:48:31.708518 27577 net.cpp:129] Top shape: 1 256 178 127 (5787136)
I0419 07:48:31.708523 27577 net.cpp:137] Memory required for data: 744695308
I0419 07:48:31.708528 27577 layer_factory.hpp:77] Creating layer pool3
I0419 07:48:31.708536 27577 net.cpp:84] Creating Layer pool3
I0419 07:48:31.708540 27577 net.cpp:406] pool3 <- conv3_3
I0419 07:48:31.708549 27577 net.cpp:380] pool3 -> pool3
I0419 07:48:31.708600 27577 net.cpp:122] Setting up pool3
I0419 07:48:31.708608 27577 net.cpp:129] Top shape: 1 256 89 64 (1458176)
I0419 07:48:31.708612 27577 net.cpp:137] Memory required for data: 750528012
I0419 07:48:31.708617 27577 layer_factory.hpp:77] Creating layer pool3_pool3_0_split
I0419 07:48:31.708626 27577 net.cpp:84] Creating Layer pool3_pool3_0_split
I0419 07:48:31.708629 27577 net.cpp:406] pool3_pool3_0_split <- pool3
I0419 07:48:31.708637 27577 net.cpp:380] pool3_pool3_0_split -> pool3_pool3_0_split_0
I0419 07:48:31.708644 27577 net.cpp:380] pool3_pool3_0_split -> pool3_pool3_0_split_1
I0419 07:48:31.708683 27577 net.cpp:122] Setting up pool3_pool3_0_split
I0419 07:48:31.708694 27577 net.cpp:129] Top shape: 1 256 89 64 (1458176)
I0419 07:48:31.708699 27577 net.cpp:129] Top shape: 1 256 89 64 (1458176)
I0419 07:48:31.708703 27577 net.cpp:137] Memory required for data: 762193420
I0419 07:48:31.708708 27577 layer_factory.hpp:77] Creating layer conv4_1
I0419 07:48:31.708719 27577 net.cpp:84] Creating Layer conv4_1
I0419 07:48:31.708722 27577 net.cpp:406] conv4_1 <- pool3_pool3_0_split_0
I0419 07:48:31.708730 27577 net.cpp:380] conv4_1 -> conv4_1
I0419 07:48:31.724133 27577 net.cpp:122] Setting up conv4_1
I0419 07:48:31.724190 27577 net.cpp:129] Top shape: 1 512 89 64 (2916352)
I0419 07:48:31.724200 27577 net.cpp:137] Memory required for data: 773858828
I0419 07:48:31.724218 27577 layer_factory.hpp:77] Creating layer relu4_1
I0419 07:48:31.724237 27577 net.cpp:84] Creating Layer relu4_1
I0419 07:48:31.724247 27577 net.cpp:406] relu4_1 <- conv4_1
I0419 07:48:31.724279 27577 net.cpp:367] relu4_1 -> conv4_1 (in-place)
I0419 07:48:31.724679 27577 net.cpp:122] Setting up relu4_1
I0419 07:48:31.724710 27577 net.cpp:129] Top shape: 1 512 89 64 (2916352)
I0419 07:48:31.724717 27577 net.cpp:137] Memory required for data: 785524236
I0419 07:48:31.724725 27577 layer_factory.hpp:77] Creating layer conv4_2
I0419 07:48:31.724743 27577 net.cpp:84] Creating Layer conv4_2
I0419 07:48:31.724750 27577 net.cpp:406] conv4_2 <- conv4_1
I0419 07:48:31.724762 27577 net.cpp:380] conv4_2 -> conv4_2
I0419 07:48:31.739449 27577 net.cpp:122] Setting up conv4_2
I0419 07:48:31.739497 27577 net.cpp:129] Top shape: 1 512 89 64 (2916352)
I0419 07:48:31.739503 27577 net.cpp:137] Memory required for data: 797189644
I0419 07:48:31.739524 27577 layer_factory.hpp:77] Creating layer relu4_2
I0419 07:48:31.739537 27577 net.cpp:84] Creating Layer relu4_2
I0419 07:48:31.739544 27577 net.cpp:406] relu4_2 <- conv4_2
I0419 07:48:31.739553 27577 net.cpp:367] relu4_2 -> conv4_2 (in-place)
I0419 07:48:31.739825 27577 net.cpp:122] Setting up relu4_2
I0419 07:48:31.739840 27577 net.cpp:129] Top shape: 1 512 89 64 (2916352)
I0419 07:48:31.739845 27577 net.cpp:137] Memory required for data: 808855052
I0419 07:48:31.739850 27577 layer_factory.hpp:77] Creating layer conv4_3
I0419 07:48:31.739864 27577 net.cpp:84] Creating Layer conv4_3
I0419 07:48:31.739869 27577 net.cpp:406] conv4_3 <- conv4_2
I0419 07:48:31.739878 27577 net.cpp:380] conv4_3 -> conv4_3
I0419 07:48:31.751624 27577 net.cpp:122] Setting up conv4_3
I0419 07:48:31.751667 27577 net.cpp:129] Top shape: 1 512 89 64 (2916352)
I0419 07:48:31.751675 27577 net.cpp:137] Memory required for data: 820520460
I0419 07:48:31.751691 27577 layer_factory.hpp:77] Creating layer relu4_3
I0419 07:48:31.751705 27577 net.cpp:84] Creating Layer relu4_3
I0419 07:48:31.751713 27577 net.cpp:406] relu4_3 <- conv4_3
I0419 07:48:31.751724 27577 net.cpp:367] relu4_3 -> conv4_3 (in-place)
I0419 07:48:31.752100 27577 net.cpp:122] Setting up relu4_3
I0419 07:48:31.752131 27577 net.cpp:129] Top shape: 1 512 89 64 (2916352)
I0419 07:48:31.752138 27577 net.cpp:137] Memory required for data: 832185868
I0419 07:48:31.752146 27577 layer_factory.hpp:77] Creating layer pool4
I0419 07:48:31.752158 27577 net.cpp:84] Creating Layer pool4
I0419 07:48:31.752164 27577 net.cpp:406] pool4 <- conv4_3
I0419 07:48:31.752177 27577 net.cpp:380] pool4 -> pool4
I0419 07:48:31.752270 27577 net.cpp:122] Setting up pool4
I0419 07:48:31.752290 27577 net.cpp:129] Top shape: 1 512 45 32 (737280)
I0419 07:48:31.752300 27577 net.cpp:137] Memory required for data: 835134988
I0419 07:48:31.752310 27577 layer_factory.hpp:77] Creating layer pool4_pool4_0_split
I0419 07:48:31.752333 27577 net.cpp:84] Creating Layer pool4_pool4_0_split
I0419 07:48:31.752349 27577 net.cpp:406] pool4_pool4_0_split <- pool4
I0419 07:48:31.752365 27577 net.cpp:380] pool4_pool4_0_split -> pool4_pool4_0_split_0
I0419 07:48:31.752382 27577 net.cpp:380] pool4_pool4_0_split -> pool4_pool4_0_split_1
I0419 07:48:31.752475 27577 net.cpp:122] Setting up pool4_pool4_0_split
I0419 07:48:31.752496 27577 net.cpp:129] Top shape: 1 512 45 32 (737280)
I0419 07:48:31.752509 27577 net.cpp:129] Top shape: 1 512 45 32 (737280)
I0419 07:48:31.752518 27577 net.cpp:137] Memory required for data: 841033228
I0419 07:48:31.752528 27577 layer_factory.hpp:77] Creating layer conv5_1
I0419 07:48:31.752548 27577 net.cpp:84] Creating Layer conv5_1
I0419 07:48:31.752565 27577 net.cpp:406] conv5_1 <- pool4_pool4_0_split_0
I0419 07:48:31.752583 27577 net.cpp:380] conv5_1 -> conv5_1
I0419 07:48:31.762094 27577 net.cpp:122] Setting up conv5_1
I0419 07:48:31.762128 27577 net.cpp:129] Top shape: 1 512 45 32 (737280)
I0419 07:48:31.762135 27577 net.cpp:137] Memory required for data: 843982348
I0419 07:48:31.762146 27577 layer_factory.hpp:77] Creating layer relu5_1
I0419 07:48:31.762157 27577 net.cpp:84] Creating Layer relu5_1
I0419 07:48:31.762187 27577 net.cpp:406] relu5_1 <- conv5_1
I0419 07:48:31.762199 27577 net.cpp:367] relu5_1 -> conv5_1 (in-place)
I0419 07:48:31.762941 27577 net.cpp:122] Setting up relu5_1
I0419 07:48:31.762974 27577 net.cpp:129] Top shape: 1 512 45 32 (737280)
I0419 07:48:31.762981 27577 net.cpp:137] Memory required for data: 846931468
I0419 07:48:31.762989 27577 layer_factory.hpp:77] Creating layer conv5_2
I0419 07:48:31.763007 27577 net.cpp:84] Creating Layer conv5_2
I0419 07:48:31.763013 27577 net.cpp:406] conv5_2 <- conv5_1
I0419 07:48:31.763022 27577 net.cpp:380] conv5_2 -> conv5_2
I0419 07:48:31.775575 27577 net.cpp:122] Setting up conv5_2
I0419 07:48:31.775640 27577 net.cpp:129] Top shape: 1 512 45 32 (737280)
I0419 07:48:31.775650 27577 net.cpp:137] Memory required for data: 849880588
I0419 07:48:31.775668 27577 layer_factory.hpp:77] Creating layer relu5_2
I0419 07:48:31.775696 27577 net.cpp:84] Creating Layer relu5_2
I0419 07:48:31.775707 27577 net.cpp:406] relu5_2 <- conv5_2
I0419 07:48:31.775722 27577 net.cpp:367] relu5_2 -> conv5_2 (in-place)
I0419 07:48:31.781373 27577 net.cpp:122] Setting up relu5_2
I0419 07:48:31.781407 27577 net.cpp:129] Top shape: 1 512 45 32 (737280)
I0419 07:48:31.781412 27577 net.cpp:137] Memory required for data: 852829708
I0419 07:48:31.781419 27577 layer_factory.hpp:77] Creating layer conv5_3
I0419 07:48:31.781431 27577 net.cpp:84] Creating Layer conv5_3
I0419 07:48:31.781437 27577 net.cpp:406] conv5_3 <- conv5_2
I0419 07:48:31.781447 27577 net.cpp:380] conv5_3 -> conv5_3
I0419 07:48:31.799584 27577 net.cpp:122] Setting up conv5_3
I0419 07:48:31.799651 27577 net.cpp:129] Top shape: 1 512 45 32 (737280)
I0419 07:48:31.799664 27577 net.cpp:137] Memory required for data: 855778828
I0419 07:48:31.799682 27577 layer_factory.hpp:77] Creating layer relu5_3
I0419 07:48:31.799702 27577 net.cpp:84] Creating Layer relu5_3
I0419 07:48:31.799713 27577 net.cpp:406] relu5_3 <- conv5_3
I0419 07:48:31.799728 27577 net.cpp:367] relu5_3 -> conv5_3 (in-place)
I0419 07:48:31.800109 27577 net.cpp:122] Setting up relu5_3
I0419 07:48:31.800130 27577 net.cpp:129] Top shape: 1 512 45 32 (737280)
I0419 07:48:31.800148 27577 net.cpp:137] Memory required for data: 858727948
I0419 07:48:31.800156 27577 layer_factory.hpp:77] Creating layer pool5
I0419 07:48:31.800170 27577 net.cpp:84] Creating Layer pool5
I0419 07:48:31.800179 27577 net.cpp:406] pool5 <- conv5_3
I0419 07:48:31.800192 27577 net.cpp:380] pool5 -> pool5
I0419 07:48:31.800292 27577 net.cpp:122] Setting up pool5
I0419 07:48:31.800307 27577 net.cpp:129] Top shape: 1 512 23 16 (188416)
I0419 07:48:31.800315 27577 net.cpp:137] Memory required for data: 859481612
I0419 07:48:31.800323 27577 layer_factory.hpp:77] Creating layer fc6
I0419 07:48:31.800341 27577 net.cpp:84] Creating Layer fc6
I0419 07:48:31.800349 27577 net.cpp:406] fc6 <- pool5
I0419 07:48:31.800364 27577 net.cpp:380] fc6 -> fc6
I0419 07:48:32.102942 27577 net.cpp:122] Setting up fc6
I0419 07:48:32.103010 27577 net.cpp:129] Top shape: 1 4096 17 10 (696320)
I0419 07:48:32.103018 27577 net.cpp:137] Memory required for data: 862266892
I0419 07:48:32.103066 27577 layer_factory.hpp:77] Creating layer relu6
I0419 07:48:32.103094 27577 net.cpp:84] Creating Layer relu6
I0419 07:48:32.103111 27577 net.cpp:406] relu6 <- fc6
I0419 07:48:32.103128 27577 net.cpp:367] relu6 -> fc6 (in-place)
I0419 07:48:32.103385 27577 net.cpp:122] Setting up relu6
I0419 07:48:32.103397 27577 net.cpp:129] Top shape: 1 4096 17 10 (696320)
I0419 07:48:32.103402 27577 net.cpp:137] Memory required for data: 865052172
I0419 07:48:32.103406 27577 layer_factory.hpp:77] Creating layer drop6
I0419 07:48:32.103430 27577 net.cpp:84] Creating Layer drop6
I0419 07:48:32.103433 27577 net.cpp:406] drop6 <- fc6
I0419 07:48:32.103446 27577 net.cpp:367] drop6 -> fc6 (in-place)
I0419 07:48:32.103487 27577 net.cpp:122] Setting up drop6
I0419 07:48:32.103495 27577 net.cpp:129] Top shape: 1 4096 17 10 (696320)
I0419 07:48:32.103499 27577 net.cpp:137] Memory required for data: 867837452
I0419 07:48:32.103503 27577 layer_factory.hpp:77] Creating layer fc7
I0419 07:48:32.103516 27577 net.cpp:84] Creating Layer fc7
I0419 07:48:32.103520 27577 net.cpp:406] fc7 <- fc6
I0419 07:48:32.103528 27577 net.cpp:380] fc7 -> fc7
I0419 07:48:32.159801 27577 net.cpp:122] Setting up fc7
I0419 07:48:32.159850 27577 net.cpp:129] Top shape: 1 4096 17 10 (696320)
I0419 07:48:32.159855 27577 net.cpp:137] Memory required for data: 870622732
I0419 07:48:32.159883 27577 layer_factory.hpp:77] Creating layer relu7
I0419 07:48:32.159907 27577 net.cpp:84] Creating Layer relu7
I0419 07:48:32.159914 27577 net.cpp:406] relu7 <- fc7
I0419 07:48:32.159922 27577 net.cpp:367] relu7 -> fc7 (in-place)
I0419 07:48:32.160130 27577 net.cpp:122] Setting up relu7
I0419 07:48:32.160141 27577 net.cpp:129] Top shape: 1 4096 17 10 (696320)
I0419 07:48:32.160145 27577 net.cpp:137] Memory required for data: 873408012
I0419 07:48:32.160149 27577 layer_factory.hpp:77] Creating layer drop7
I0419 07:48:32.160181 27577 net.cpp:84] Creating Layer drop7
I0419 07:48:32.160189 27577 net.cpp:406] drop7 <- fc7
I0419 07:48:32.160197 27577 net.cpp:367] drop7 -> fc7 (in-place)
I0419 07:48:32.160233 27577 net.cpp:122] Setting up drop7
I0419 07:48:32.160241 27577 net.cpp:129] Top shape: 1 4096 17 10 (696320)
I0419 07:48:32.160245 27577 net.cpp:137] Memory required for data: 876193292
I0419 07:48:32.160248 27577 layer_factory.hpp:77] Creating layer score_fr-new
I0419 07:48:32.160259 27577 net.cpp:84] Creating Layer score_fr-new
I0419 07:48:32.160264 27577 net.cpp:406] score_fr-new <- fc7
I0419 07:48:32.160281 27577 net.cpp:380] score_fr-new -> score_fr-new
I0419 07:48:32.162232 27577 net.cpp:122] Setting up score_fr-new
I0419 07:48:32.162262 27577 net.cpp:129] Top shape: 1 3 17 10 (510)
I0419 07:48:32.162266 27577 net.cpp:137] Memory required for data: 876195332
I0419 07:48:32.162276 27577 layer_factory.hpp:77] Creating layer upscore2-new
I0419 07:48:32.162292 27577 net.cpp:84] Creating Layer upscore2-new
I0419 07:48:32.162297 27577 net.cpp:406] upscore2-new <- score_fr-new
I0419 07:48:32.162303 27577 net.cpp:380] upscore2-new -> upscore2-new
I0419 07:48:32.162575 27577 net.cpp:122] Setting up upscore2-new
I0419 07:48:32.162586 27577 net.cpp:129] Top shape: 1 3 36 22 (2376)
I0419 07:48:32.162591 27577 net.cpp:137] Memory required for data: 876204836
I0419 07:48:32.162617 27577 layer_factory.hpp:77] Creating layer upscore2-new_upscore2-new_0_split
I0419 07:48:32.162641 27577 net.cpp:84] Creating Layer upscore2-new_upscore2-new_0_split
I0419 07:48:32.162647 27577 net.cpp:406] upscore2-new_upscore2-new_0_split <- upscore2-new
I0419 07:48:32.162663 27577 net.cpp:380] upscore2-new_upscore2-new_0_split -> upscore2-new_upscore2-new_0_split_0
I0419 07:48:32.162673 27577 net.cpp:380] upscore2-new_upscore2-new_0_split -> upscore2-new_upscore2-new_0_split_1
I0419 07:48:32.162732 27577 net.cpp:122] Setting up upscore2-new_upscore2-new_0_split
I0419 07:48:32.162744 27577 net.cpp:129] Top shape: 1 3 36 22 (2376)
I0419 07:48:32.162750 27577 net.cpp:129] Top shape: 1 3 36 22 (2376)
I0419 07:48:32.162755 27577 net.cpp:137] Memory required for data: 876223844
I0419 07:48:32.162760 27577 layer_factory.hpp:77] Creating layer score_pool4-new
I0419 07:48:32.162770 27577 net.cpp:84] Creating Layer score_pool4-new
I0419 07:48:32.162776 27577 net.cpp:406] score_pool4-new <- pool4_pool4_0_split_1
I0419 07:48:32.162786 27577 net.cpp:380] score_pool4-new -> score_pool4-new
I0419 07:48:32.164109 27577 net.cpp:122] Setting up score_pool4-new
I0419 07:48:32.164139 27577 net.cpp:129] Top shape: 1 3 45 32 (4320)
I0419 07:48:32.164142 27577 net.cpp:137] Memory required for data: 876241124
I0419 07:48:32.164149 27577 layer_factory.hpp:77] Creating layer score_pool4c
I0419 07:48:32.164166 27577 net.cpp:84] Creating Layer score_pool4c
I0419 07:48:32.164171 27577 net.cpp:406] score_pool4c <- score_pool4-new
I0419 07:48:32.164178 27577 net.cpp:406] score_pool4c <- upscore2-new_upscore2-new_0_split_0
I0419 07:48:32.164183 27577 net.cpp:380] score_pool4c -> score_pool4c
I0419 07:48:32.164219 27577 net.cpp:122] Setting up score_pool4c
I0419 07:48:32.164225 27577 net.cpp:129] Top shape: 1 3 36 22 (2376)
I0419 07:48:32.164228 27577 net.cpp:137] Memory required for data: 876250628
I0419 07:48:32.164232 27577 layer_factory.hpp:77] Creating layer fuse_pool4
I0419 07:48:32.164242 27577 net.cpp:84] Creating Layer fuse_pool4
I0419 07:48:32.164245 27577 net.cpp:406] fuse_pool4 <- upscore2-new_upscore2-new_0_split_1
I0419 07:48:32.164250 27577 net.cpp:406] fuse_pool4 <- score_pool4c
I0419 07:48:32.164273 27577 net.cpp:380] fuse_pool4 -> fuse_pool4
I0419 07:48:32.164301 27577 net.cpp:122] Setting up fuse_pool4
I0419 07:48:32.164307 27577 net.cpp:129] Top shape: 1 3 36 22 (2376)
I0419 07:48:32.164310 27577 net.cpp:137] Memory required for data: 876260132
I0419 07:48:32.164319 27577 layer_factory.hpp:77] Creating layer upscore_pool4-new
I0419 07:48:32.164328 27577 net.cpp:84] Creating Layer upscore_pool4-new
I0419 07:48:32.164332 27577 net.cpp:406] upscore_pool4-new <- fuse_pool4
I0419 07:48:32.164347 27577 net.cpp:380] upscore_pool4-new -> upscore_pool4-new
I0419 07:48:32.164566 27577 net.cpp:122] Setting up upscore_pool4-new
I0419 07:48:32.164577 27577 net.cpp:129] Top shape: 1 3 74 46 (10212)
I0419 07:48:32.164580 27577 net.cpp:137] Memory required for data: 876300980
I0419 07:48:32.164585 27577 layer_factory.hpp:77] Creating layer upscore_pool4-new_upscore_pool4-new_0_split
I0419 07:48:32.164592 27577 net.cpp:84] Creating Layer upscore_pool4-new_upscore_pool4-new_0_split
I0419 07:48:32.164595 27577 net.cpp:406] upscore_pool4-new_upscore_pool4-new_0_split <- upscore_pool4-new
I0419 07:48:32.164602 27577 net.cpp:380] upscore_pool4-new_upscore_pool4-new_0_split -> upscore_pool4-new_upscore_pool4-new_0_split_0
I0419 07:48:32.164608 27577 net.cpp:380] upscore_pool4-new_upscore_pool4-new_0_split -> upscore_pool4-new_upscore_pool4-new_0_split_1
I0419 07:48:32.164646 27577 net.cpp:122] Setting up upscore_pool4-new_upscore_pool4-new_0_split
I0419 07:48:32.164659 27577 net.cpp:129] Top shape: 1 3 74 46 (10212)
I0419 07:48:32.164664 27577 net.cpp:129] Top shape: 1 3 74 46 (10212)
I0419 07:48:32.164667 27577 net.cpp:137] Memory required for data: 876382676
I0419 07:48:32.164671 27577 layer_factory.hpp:77] Creating layer score_pool3-new
I0419 07:48:32.164685 27577 net.cpp:84] Creating Layer score_pool3-new
I0419 07:48:32.164690 27577 net.cpp:406] score_pool3-new <- pool3_pool3_0_split_1
I0419 07:48:32.164702 27577 net.cpp:380] score_pool3-new -> score_pool3-new
I0419 07:48:32.165979 27577 net.cpp:122] Setting up score_pool3-new
I0419 07:48:32.166009 27577 net.cpp:129] Top shape: 1 3 89 64 (17088)
I0419 07:48:32.166013 27577 net.cpp:137] Memory required for data: 876451028
I0419 07:48:32.166020 27577 layer_factory.hpp:77] Creating layer score_pool3c
I0419 07:48:32.166029 27577 net.cpp:84] Creating Layer score_pool3c
I0419 07:48:32.166034 27577 net.cpp:406] score_pool3c <- score_pool3-new
I0419 07:48:32.166039 27577 net.cpp:406] score_pool3c <- upscore_pool4-new_upscore_pool4-new_0_split_0
I0419 07:48:32.166046 27577 net.cpp:380] score_pool3c -> score_pool3c
I0419 07:48:32.166075 27577 net.cpp:122] Setting up score_pool3c
I0419 07:48:32.166081 27577 net.cpp:129] Top shape: 1 3 74 46 (10212)
I0419 07:48:32.166085 27577 net.cpp:137] Memory required for data: 876491876
I0419 07:48:32.166096 27577 layer_factory.hpp:77] Creating layer fuse_pool3
I0419 07:48:32.166108 27577 net.cpp:84] Creating Layer fuse_pool3
I0419 07:48:32.166112 27577 net.cpp:406] fuse_pool3 <- upscore_pool4-new_upscore_pool4-new_0_split_1
I0419 07:48:32.166133 27577 net.cpp:406] fuse_pool3 <- score_pool3c
I0419 07:48:32.166138 27577 net.cpp:380] fuse_pool3 -> fuse_pool3
I0419 07:48:32.166173 27577 net.cpp:122] Setting up fuse_pool3
I0419 07:48:32.166179 27577 net.cpp:129] Top shape: 1 3 74 46 (10212)
I0419 07:48:32.166182 27577 net.cpp:137] Memory required for data: 876532724
I0419 07:48:32.166187 27577 layer_factory.hpp:77] Creating layer upscore8-new
I0419 07:48:32.166196 27577 net.cpp:84] Creating Layer upscore8-new
I0419 07:48:32.166200 27577 net.cpp:406] upscore8-new <- fuse_pool3
I0419 07:48:32.166206 27577 net.cpp:380] upscore8-new -> upscore8-new
I0419 07:48:32.166410 27577 net.cpp:122] Setting up upscore8-new
I0419 07:48:32.166419 27577 net.cpp:129] Top shape: 1 3 600 376 (676800)
I0419 07:48:32.166424 27577 net.cpp:137] Memory required for data: 879239924
I0419 07:48:32.166429 27577 layer_factory.hpp:77] Creating layer upscore8_cropped
I0419 07:48:32.166440 27577 net.cpp:84] Creating Layer upscore8_cropped
I0419 07:48:32.166445 27577 net.cpp:406] upscore8_cropped <- upscore8-new
I0419 07:48:32.166450 27577 net.cpp:406] upscore8_cropped <- data_data_0_split_1
I0419 07:48:32.166455 27577 net.cpp:380] upscore8_cropped -> upscore8_cropped
I0419 07:48:32.166482 27577 net.cpp:122] Setting up upscore8_cropped
I0419 07:48:32.166487 27577 net.cpp:129] Top shape: 1 3 512 310 (476160)
I0419 07:48:32.166491 27577 net.cpp:137] Memory required for data: 881144564
I0419 07:48:32.166499 27577 layer_factory.hpp:77] Creating layer score
I0419 07:48:32.166507 27577 net.cpp:84] Creating Layer score
I0419 07:48:32.166510 27577 net.cpp:406] score <- upscore8_cropped
I0419 07:48:32.166517 27577 net.cpp:380] score -> score
I0419 07:48:32.168310 27577 net.cpp:122] Setting up score
I0419 07:48:32.168339 27577 net.cpp:129] Top shape: 1 3 512 310 (476160)
I0419 07:48:32.168344 27577 net.cpp:137] Memory required for data: 883049204
I0419 07:48:32.168350 27577 layer_factory.hpp:77] Creating layer score_score_0_split
I0419 07:48:32.168357 27577 net.cpp:84] Creating Layer score_score_0_split
I0419 07:48:32.168361 27577 net.cpp:406] score_score_0_split <- score
I0419 07:48:32.168370 27577 net.cpp:380] score_score_0_split -> score_score_0_split_0
I0419 07:48:32.168376 27577 net.cpp:380] score_score_0_split -> score_score_0_split_1
I0419 07:48:32.168422 27577 net.cpp:122] Setting up score_score_0_split
I0419 07:48:32.168428 27577 net.cpp:129] Top shape: 1 3 512 310 (476160)
I0419 07:48:32.168432 27577 net.cpp:129] Top shape: 1 3 512 310 (476160)
I0419 07:48:32.168435 27577 net.cpp:137] Memory required for data: 886858484
I0419 07:48:32.168438 27577 layer_factory.hpp:77] Creating layer prob
I0419 07:48:32.168460 27577 net.cpp:84] Creating Layer prob
I0419 07:48:32.168464 27577 net.cpp:406] prob <- score_score_0_split_0
I0419 07:48:32.168469 27577 net.cpp:380] prob -> prob
I0419 07:48:32.168687 27577 net.cpp:122] Setting up prob
I0419 07:48:32.168701 27577 net.cpp:129] Top shape: 1 3 512 310 (476160)
I0419 07:48:32.168705 27577 net.cpp:137] Memory required for data: 888763124
I0419 07:48:32.168709 27577 layer_factory.hpp:77] Creating layer prob_prob_0_split
I0419 07:48:32.168714 27577 net.cpp:84] Creating Layer prob_prob_0_split
I0419 07:48:32.168717 27577 net.cpp:406] prob_prob_0_split <- prob
I0419 07:48:32.168723 27577 net.cpp:380] prob_prob_0_split -> prob_prob_0_split_0
I0419 07:48:32.168730 27577 net.cpp:380] prob_prob_0_split -> prob_prob_0_split_1
I0419 07:48:32.168771 27577 net.cpp:122] Setting up prob_prob_0_split
I0419 07:48:32.168782 27577 net.cpp:129] Top shape: 1 3 512 310 (476160)
I0419 07:48:32.168787 27577 net.cpp:129] Top shape: 1 3 512 310 (476160)
I0419 07:48:32.168790 27577 net.cpp:137] Memory required for data: 892572404
I0419 07:48:32.168793 27577 layer_factory.hpp:77] Creating layer saliency
I0419 07:48:32.168815 27577 net.cpp:84] Creating Layer saliency
I0419 07:48:32.168820 27577 net.cpp:406] saliency <- prob_prob_0_split_0
I0419 07:48:32.168828 27577 net.cpp:380] saliency -> saliency
I0419 07:48:32.172078 27577 net.cpp:122] Setting up saliency
I0419 07:48:32.172099 27577 net.cpp:129] Top shape: 1 3 512 310 (476160)
I0419 07:48:32.172112 27577 net.cpp:137] Memory required for data: 894477044
I0419 07:48:32.172122 27577 layer_factory.hpp:77] Creating layer saliency_data
I0419 07:48:32.172143 27577 net.cpp:84] Creating Layer saliency_data
I0419 07:48:32.172149 27577 net.cpp:406] saliency_data <- data_data_0_split_2
I0419 07:48:32.172157 27577 net.cpp:406] saliency_data <- saliency
I0419 07:48:32.172163 27577 net.cpp:380] saliency_data -> saliency_data
I0419 07:48:32.172206 27577 net.cpp:122] Setting up saliency_data
I0419 07:48:32.172214 27577 net.cpp:129] Top shape: 1 3 512 310 (476160)
I0419 07:48:32.172219 27577 net.cpp:137] Memory required for data: 896381684
I0419 07:48:32.172222 27577 layer_factory.hpp:77] Creating layer crop
I0419 07:48:32.172811 27577 net.cpp:84] Creating Layer crop
I0419 07:48:32.172825 27577 net.cpp:406] crop <- prob_prob_0_split_1
I0419 07:48:32.172843 27577 net.cpp:406] crop <- saliency_data
I0419 07:48:32.172857 27577 net.cpp:406] crop <- crop_margin
I0419 07:48:32.172863 27577 net.cpp:406] crop <- crop_prob
I0419 07:48:32.172868 27577 net.cpp:406] crop <- crop_sample_batch
I0419 07:48:32.172873 27577 net.cpp:406] crop <- label_data_1_split_0
I0419 07:48:32.172881 27577 net.cpp:380] crop -> data-R
I0419 07:48:32.172891 27577 net.cpp:380] crop -> crop_info
I0419 07:48:32.188732 27577 net.cpp:122] Setting up crop
I0419 07:48:32.188789 27577 net.cpp:129] Top shape: 1 3 512 310 (476160)
I0419 07:48:32.188799 27577 net.cpp:129] Top shape: 1 2 4 (8)
I0419 07:48:32.188807 27577 net.cpp:137] Memory required for data: 898286356
I0419 07:48:32.188817 27577 layer_factory.hpp:77] Creating layer data-R_crop_0_split
I0419 07:48:32.188832 27577 net.cpp:84] Creating Layer data-R_crop_0_split
I0419 07:48:32.188841 27577 net.cpp:406] data-R_crop_0_split <- data-R
I0419 07:48:32.188855 27577 net.cpp:380] data-R_crop_0_split -> data-R_crop_0_split_0
I0419 07:48:32.188872 27577 net.cpp:380] data-R_crop_0_split -> data-R_crop_0_split_1
I0419 07:48:32.188952 27577 net.cpp:122] Setting up data-R_crop_0_split
I0419 07:48:32.188966 27577 net.cpp:129] Top shape: 1 3 512 310 (476160)
I0419 07:48:32.188973 27577 net.cpp:129] Top shape: 1 3 512 310 (476160)
I0419 07:48:32.188979 27577 net.cpp:137] Memory required for data: 902095636
I0419 07:48:32.188985 27577 layer_factory.hpp:77] Creating layer conv1_1-R
I0419 07:48:32.189031 27577 net.cpp:84] Creating Layer conv1_1-R
I0419 07:48:32.189047 27577 net.cpp:406] conv1_1-R <- data-R_crop_0_split_0
I0419 07:48:32.189059 27577 net.cpp:380] conv1_1-R -> conv1_1-R
I0419 07:48:32.194394 27577 net.cpp:122] Setting up conv1_1-R
I0419 07:48:32.194437 27577 net.cpp:129] Top shape: 1 64 710 508 (23083520)
I0419 07:48:32.194444 27577 net.cpp:137] Memory required for data: 994429716
I0419 07:48:32.194459 27577 layer_factory.hpp:77] Creating layer relu1_1-R
I0419 07:48:32.194530 27577 net.cpp:84] Creating Layer relu1_1-R
I0419 07:48:32.194545 27577 net.cpp:406] relu1_1-R <- conv1_1-R
I0419 07:48:32.194562 27577 net.cpp:367] relu1_1-R -> conv1_1-R (in-place)
I0419 07:48:32.194911 27577 net.cpp:122] Setting up relu1_1-R
I0419 07:48:32.194926 27577 net.cpp:129] Top shape: 1 64 710 508 (23083520)
I0419 07:48:32.194932 27577 net.cpp:137] Memory required for data: 1086763796
I0419 07:48:32.194941 27577 layer_factory.hpp:77] Creating layer conv1_2-R
I0419 07:48:32.194967 27577 net.cpp:84] Creating Layer conv1_2-R
I0419 07:48:32.194973 27577 net.cpp:406] conv1_2-R <- conv1_1-R
I0419 07:48:32.194986 27577 net.cpp:380] conv1_2-R -> conv1_2-R
I0419 07:48:32.199250 27577 net.cpp:122] Setting up conv1_2-R
I0419 07:48:32.199297 27577 net.cpp:129] Top shape: 1 64 710 508 (23083520)
I0419 07:48:32.199301 27577 net.cpp:137] Memory required for data: 1179097876
I0419 07:48:32.199309 27577 layer_factory.hpp:77] Creating layer relu1_2-R
I0419 07:48:32.199316 27577 net.cpp:84] Creating Layer relu1_2-R
I0419 07:48:32.199319 27577 net.cpp:406] relu1_2-R <- conv1_2-R
I0419 07:48:32.199324 27577 net.cpp:367] relu1_2-R -> conv1_2-R (in-place)
I0419 07:48:32.199554 27577 net.cpp:122] Setting up relu1_2-R
I0419 07:48:32.199566 27577 net.cpp:129] Top shape: 1 64 710 508 (23083520)
I0419 07:48:32.199570 27577 net.cpp:137] Memory required for data: 1271431956
I0419 07:48:32.199584 27577 layer_factory.hpp:77] Creating layer pool1-R
I0419 07:48:32.199592 27577 net.cpp:84] Creating Layer pool1-R
I0419 07:48:32.199596 27577 net.cpp:406] pool1-R <- conv1_2-R
I0419 07:48:32.199604 27577 net.cpp:380] pool1-R -> pool1-R
I0419 07:48:32.199653 27577 net.cpp:122] Setting up pool1-R
I0419 07:48:32.199661 27577 net.cpp:129] Top shape: 1 64 355 254 (5770880)
I0419 07:48:32.199666 27577 net.cpp:137] Memory required for data: 1294515476
I0419 07:48:32.199668 27577 layer_factory.hpp:77] Creating layer conv2_1-R
I0419 07:48:32.199676 27577 net.cpp:84] Creating Layer conv2_1-R
I0419 07:48:32.199681 27577 net.cpp:406] conv2_1-R <- pool1-R
I0419 07:48:32.199687 27577 net.cpp:380] conv2_1-R -> conv2_1-R
I0419 07:48:32.201387 27577 net.cpp:122] Setting up conv2_1-R
I0419 07:48:32.201416 27577 net.cpp:129] Top shape: 1 128 355 254 (11541760)
I0419 07:48:32.201421 27577 net.cpp:137] Memory required for data: 1340682516
I0419 07:48:32.201428 27577 layer_factory.hpp:77] Creating layer relu2_1-R
I0419 07:48:32.201434 27577 net.cpp:84] Creating Layer relu2_1-R
I0419 07:48:32.201439 27577 net.cpp:406] relu2_1-R <- conv2_1-R
I0419 07:48:32.201444 27577 net.cpp:367] relu2_1-R -> conv2_1-R (in-place)
I0419 07:48:32.201644 27577 net.cpp:122] Setting up relu2_1-R
I0419 07:48:32.201655 27577 net.cpp:129] Top shape: 1 128 355 254 (11541760)
I0419 07:48:32.201659 27577 net.cpp:137] Memory required for data: 1386849556
I0419 07:48:32.201663 27577 layer_factory.hpp:77] Creating layer conv2_2-R
I0419 07:48:32.201680 27577 net.cpp:84] Creating Layer conv2_2-R
I0419 07:48:32.201685 27577 net.cpp:406] conv2_2-R <- conv2_1-R
I0419 07:48:32.201691 27577 net.cpp:380] conv2_2-R -> conv2_2-R
I0419 07:48:32.204699 27577 net.cpp:122] Setting up conv2_2-R
I0419 07:48:32.204730 27577 net.cpp:129] Top shape: 1 128 355 254 (11541760)
I0419 07:48:32.204735 27577 net.cpp:137] Memory required for data: 1433016596
I0419 07:48:32.204741 27577 layer_factory.hpp:77] Creating layer relu2_2-R
I0419 07:48:32.204758 27577 net.cpp:84] Creating Layer relu2_2-R
I0419 07:48:32.204762 27577 net.cpp:406] relu2_2-R <- conv2_2-R
I0419 07:48:32.204768 27577 net.cpp:367] relu2_2-R -> conv2_2-R (in-place)
I0419 07:48:32.205361 27577 net.cpp:122] Setting up relu2_2-R
I0419 07:48:32.205390 27577 net.cpp:129] Top shape: 1 128 355 254 (11541760)
I0419 07:48:32.205394 27577 net.cpp:137] Memory required for data: 1479183636
I0419 07:48:32.205399 27577 layer_factory.hpp:77] Creating layer pool2-R
I0419 07:48:32.205435 27577 net.cpp:84] Creating Layer pool2-R
I0419 07:48:32.205440 27577 net.cpp:406] pool2-R <- conv2_2-R
I0419 07:48:32.205446 27577 net.cpp:380] pool2-R -> pool2-R
I0419 07:48:32.205502 27577 net.cpp:122] Setting up pool2-R
I0419 07:48:32.205518 27577 net.cpp:129] Top shape: 1 128 178 127 (2893568)
I0419 07:48:32.205520 27577 net.cpp:137] Memory required for data: 1490757908
I0419 07:48:32.205524 27577 layer_factory.hpp:77] Creating layer conv3_1-R
I0419 07:48:32.205535 27577 net.cpp:84] Creating Layer conv3_1-R
I0419 07:48:32.205540 27577 net.cpp:406] conv3_1-R <- pool2-R
I0419 07:48:32.205545 27577 net.cpp:380] conv3_1-R -> conv3_1-R
I0419 07:48:32.208766 27577 net.cpp:122] Setting up conv3_1-R
I0419 07:48:32.208797 27577 net.cpp:129] Top shape: 1 256 178 127 (5787136)
I0419 07:48:32.208802 27577 net.cpp:137] Memory required for data: 1513906452
I0419 07:48:32.208809 27577 layer_factory.hpp:77] Creating layer relu3_1-R
I0419 07:48:32.208817 27577 net.cpp:84] Creating Layer relu3_1-R
I0419 07:48:32.208822 27577 net.cpp:406] relu3_1-R <- conv3_1-R
I0419 07:48:32.208827 27577 net.cpp:367] relu3_1-R -> conv3_1-R (in-place)
I0419 07:48:32.209059 27577 net.cpp:122] Setting up relu3_1-R
I0419 07:48:32.209069 27577 net.cpp:129] Top shape: 1 256 178 127 (5787136)
I0419 07:48:32.209074 27577 net.cpp:137] Memory required for data: 1537054996
I0419 07:48:32.209076 27577 layer_factory.hpp:77] Creating layer conv3_2-R
I0419 07:48:32.209095 27577 net.cpp:84] Creating Layer conv3_2-R
I0419 07:48:32.209100 27577 net.cpp:406] conv3_2-R <- conv3_1-R
I0419 07:48:32.209108 27577 net.cpp:380] conv3_2-R -> conv3_2-R
I0419 07:48:32.213016 27577 net.cpp:122] Setting up conv3_2-R
I0419 07:48:32.213047 27577 net.cpp:129] Top shape: 1 256 178 127 (5787136)
I0419 07:48:32.213052 27577 net.cpp:137] Memory required for data: 1560203540
I0419 07:48:32.213059 27577 layer_factory.hpp:77] Creating layer relu3_2-R
I0419 07:48:32.213075 27577 net.cpp:84] Creating Layer relu3_2-R
I0419 07:48:32.213080 27577 net.cpp:406] relu3_2-R <- conv3_2-R
I0419 07:48:32.213086 27577 net.cpp:367] relu3_2-R -> conv3_2-R (in-place)
I0419 07:48:32.213320 27577 net.cpp:122] Setting up relu3_2-R
I0419 07:48:32.213330 27577 net.cpp:129] Top shape: 1 256 178 127 (5787136)
I0419 07:48:32.213335 27577 net.cpp:137] Memory required for data: 1583352084
I0419 07:48:32.213338 27577 layer_factory.hpp:77] Creating layer conv3_3-R
I0419 07:48:32.213348 27577 net.cpp:84] Creating Layer conv3_3-R
I0419 07:48:32.213353 27577 net.cpp:406] conv3_3-R <- conv3_2-R
I0419 07:48:32.213362 27577 net.cpp:380] conv3_3-R -> conv3_3-R
I0419 07:48:32.217768 27577 net.cpp:122] Setting up conv3_3-R
I0419 07:48:32.217799 27577 net.cpp:129] Top shape: 1 256 178 127 (5787136)
I0419 07:48:32.217804 27577 net.cpp:137] Memory required for data: 1606500628
I0419 07:48:32.217811 27577 layer_factory.hpp:77] Creating layer relu3_3-R
I0419 07:48:32.217818 27577 net.cpp:84] Creating Layer relu3_3-R
I0419 07:48:32.217823 27577 net.cpp:406] relu3_3-R <- conv3_3-R
I0419 07:48:32.217828 27577 net.cpp:367] relu3_3-R -> conv3_3-R (in-place)
I0419 07:48:32.218051 27577 net.cpp:122] Setting up relu3_3-R
I0419 07:48:32.218063 27577 net.cpp:129] Top shape: 1 256 178 127 (5787136)
I0419 07:48:32.218067 27577 net.cpp:137] Memory required for data: 1629649172
I0419 07:48:32.218080 27577 layer_factory.hpp:77] Creating layer pool3-R
I0419 07:48:32.218092 27577 net.cpp:84] Creating Layer pool3-R
I0419 07:48:32.218096 27577 net.cpp:406] pool3-R <- conv3_3-R
I0419 07:48:32.218102 27577 net.cpp:380] pool3-R -> pool3-R
I0419 07:48:32.218154 27577 net.cpp:122] Setting up pool3-R
I0419 07:48:32.218173 27577 net.cpp:129] Top shape: 1 256 89 64 (1458176)
I0419 07:48:32.218178 27577 net.cpp:137] Memory required for data: 1635481876
I0419 07:48:32.218180 27577 layer_factory.hpp:77] Creating layer pool3-R_pool3-R_0_split
I0419 07:48:32.218188 27577 net.cpp:84] Creating Layer pool3-R_pool3-R_0_split
I0419 07:48:32.218191 27577 net.cpp:406] pool3-R_pool3-R_0_split <- pool3-R
I0419 07:48:32.218197 27577 net.cpp:380] pool3-R_pool3-R_0_split -> pool3-R_pool3-R_0_split_0
I0419 07:48:32.218204 27577 net.cpp:380] pool3-R_pool3-R_0_split -> pool3-R_pool3-R_0_split_1
I0419 07:48:32.218243 27577 net.cpp:122] Setting up pool3-R_pool3-R_0_split
I0419 07:48:32.218253 27577 net.cpp:129] Top shape: 1 256 89 64 (1458176)
I0419 07:48:32.218258 27577 net.cpp:129] Top shape: 1 256 89 64 (1458176)
I0419 07:48:32.218261 27577 net.cpp:137] Memory required for data: 1647147284
I0419 07:48:32.218264 27577 layer_factory.hpp:77] Creating layer conv4_1-R
I0419 07:48:32.218273 27577 net.cpp:84] Creating Layer conv4_1-R
I0419 07:48:32.218277 27577 net.cpp:406] conv4_1-R <- pool3-R_pool3-R_0_split_0
I0419 07:48:32.218284 27577 net.cpp:380] conv4_1-R -> conv4_1-R
I0419 07:48:32.227036 27577 net.cpp:122] Setting up conv4_1-R
I0419 07:48:32.227057 27577 net.cpp:129] Top shape: 1 512 89 64 (2916352)
I0419 07:48:32.227063 27577 net.cpp:137] Memory required for data: 1658812692
I0419 07:48:32.227074 27577 layer_factory.hpp:77] Creating layer relu4_1-R
I0419 07:48:32.227083 27577 net.cpp:84] Creating Layer relu4_1-R
I0419 07:48:32.227089 27577 net.cpp:406] relu4_1-R <- conv4_1-R
I0419 07:48:32.227097 27577 net.cpp:367] relu4_1-R -> conv4_1-R (in-place)
I0419 07:48:32.227365 27577 net.cpp:122] Setting up relu4_1-R
I0419 07:48:32.227380 27577 net.cpp:129] Top shape: 1 512 89 64 (2916352)
I0419 07:48:32.227385 27577 net.cpp:137] Memory required for data: 1670478100
I0419 07:48:32.227401 27577 layer_factory.hpp:77] Creating layer conv4_2-R
I0419 07:48:32.227418 27577 net.cpp:84] Creating Layer conv4_2-R
I0419 07:48:32.227424 27577 net.cpp:406] conv4_2-R <- conv4_1-R
I0419 07:48:32.227433 27577 net.cpp:380] conv4_2-R -> conv4_2-R
I0419 07:48:32.238059 27577 net.cpp:122] Setting up conv4_2-R
I0419 07:48:32.238088 27577 net.cpp:129] Top shape: 1 512 89 64 (2916352)
I0419 07:48:32.238096 27577 net.cpp:137] Memory required for data: 1682143508
I0419 07:48:32.238109 27577 layer_factory.hpp:77] Creating layer relu4_2-R
I0419 07:48:32.238121 27577 net.cpp:84] Creating Layer relu4_2-R
I0419 07:48:32.238128 27577 net.cpp:406] relu4_2-R <- conv4_2-R
I0419 07:48:32.238137 27577 net.cpp:367] relu4_2-R -> conv4_2-R (in-place)
I0419 07:48:32.238464 27577 net.cpp:122] Setting up relu4_2-R
I0419 07:48:32.238482 27577 net.cpp:129] Top shape: 1 512 89 64 (2916352)
I0419 07:48:32.238488 27577 net.cpp:137] Memory required for data: 1693808916
I0419 07:48:32.238495 27577 layer_factory.hpp:77] Creating layer conv4_3-R
I0419 07:48:32.238509 27577 net.cpp:84] Creating Layer conv4_3-R
I0419 07:48:32.238517 27577 net.cpp:406] conv4_3-R <- conv4_2-R
I0419 07:48:32.238528 27577 net.cpp:380] conv4_3-R -> conv4_3-R
I0419 07:48:32.248354 27577 net.cpp:122] Setting up conv4_3-R
I0419 07:48:32.248387 27577 net.cpp:129] Top shape: 1 512 89 64 (2916352)
I0419 07:48:32.248392 27577 net.cpp:137] Memory required for data: 1705474324
I0419 07:48:32.248400 27577 layer_factory.hpp:77] Creating layer relu4_3-R
I0419 07:48:32.248420 27577 net.cpp:84] Creating Layer relu4_3-R
I0419 07:48:32.248425 27577 net.cpp:406] relu4_3-R <- conv4_3-R
I0419 07:48:32.248432 27577 net.cpp:367] relu4_3-R -> conv4_3-R (in-place)
I0419 07:48:32.249114 27577 net.cpp:122] Setting up relu4_3-R
I0419 07:48:32.249145 27577 net.cpp:129] Top shape: 1 512 89 64 (2916352)
I0419 07:48:32.249148 27577 net.cpp:137] Memory required for data: 1717139732
I0419 07:48:32.249152 27577 layer_factory.hpp:77] Creating layer pool4-R
I0419 07:48:32.249169 27577 net.cpp:84] Creating Layer pool4-R
I0419 07:48:32.249173 27577 net.cpp:406] pool4-R <- conv4_3-R
I0419 07:48:32.249181 27577 net.cpp:380] pool4-R -> pool4-R
I0419 07:48:32.249233 27577 net.cpp:122] Setting up pool4-R
I0419 07:48:32.249238 27577 net.cpp:129] Top shape: 1 512 45 32 (737280)
I0419 07:48:32.249241 27577 net.cpp:137] Memory required for data: 1720088852
I0419 07:48:32.249245 27577 layer_factory.hpp:77] Creating layer pool4-R_pool4-R_0_split
I0419 07:48:32.249256 27577 net.cpp:84] Creating Layer pool4-R_pool4-R_0_split
I0419 07:48:32.249260 27577 net.cpp:406] pool4-R_pool4-R_0_split <- pool4-R
I0419 07:48:32.249265 27577 net.cpp:380] pool4-R_pool4-R_0_split -> pool4-R_pool4-R_0_split_0
I0419 07:48:32.249272 27577 net.cpp:380] pool4-R_pool4-R_0_split -> pool4-R_pool4-R_0_split_1
I0419 07:48:32.249308 27577 net.cpp:122] Setting up pool4-R_pool4-R_0_split
I0419 07:48:32.249313 27577 net.cpp:129] Top shape: 1 512 45 32 (737280)
I0419 07:48:32.249333 27577 net.cpp:129] Top shape: 1 512 45 32 (737280)
I0419 07:48:32.249337 27577 net.cpp:137] Memory required for data: 1725987092
I0419 07:48:32.249341 27577 layer_factory.hpp:77] Creating layer conv5_1-R
I0419 07:48:32.249349 27577 net.cpp:84] Creating Layer conv5_1-R
I0419 07:48:32.249353 27577 net.cpp:406] conv5_1-R <- pool4-R_pool4-R_0_split_0
I0419 07:48:32.249359 27577 net.cpp:380] conv5_1-R -> conv5_1-R
I0419 07:48:32.256976 27577 net.cpp:122] Setting up conv5_1-R
I0419 07:48:32.257009 27577 net.cpp:129] Top shape: 1 512 45 32 (737280)
I0419 07:48:32.257014 27577 net.cpp:137] Memory required for data: 1728936212
I0419 07:48:32.257035 27577 layer_factory.hpp:77] Creating layer relu5_1-R
I0419 07:48:32.257053 27577 net.cpp:84] Creating Layer relu5_1-R
I0419 07:48:32.257058 27577 net.cpp:406] relu5_1-R <- conv5_1-R
I0419 07:48:32.257064 27577 net.cpp:367] relu5_1-R -> conv5_1-R (in-place)
I0419 07:48:32.257287 27577 net.cpp:122] Setting up relu5_1-R
I0419 07:48:32.257298 27577 net.cpp:129] Top shape: 1 512 45 32 (737280)
I0419 07:48:32.257302 27577 net.cpp:137] Memory required for data: 1731885332
I0419 07:48:32.257306 27577 layer_factory.hpp:77] Creating layer conv5_2-R
I0419 07:48:32.257323 27577 net.cpp:84] Creating Layer conv5_2-R
I0419 07:48:32.257328 27577 net.cpp:406] conv5_2-R <- conv5_1-R
I0419 07:48:32.257335 27577 net.cpp:380] conv5_2-R -> conv5_2-R
I0419 07:48:32.265327 27577 net.cpp:122] Setting up conv5_2-R
I0419 07:48:32.265359 27577 net.cpp:129] Top shape: 1 512 45 32 (737280)
I0419 07:48:32.265363 27577 net.cpp:137] Memory required for data: 1734834452
I0419 07:48:32.265372 27577 layer_factory.hpp:77] Creating layer relu5_2-R
I0419 07:48:32.265381 27577 net.cpp:84] Creating Layer relu5_2-R
I0419 07:48:32.265385 27577 net.cpp:406] relu5_2-R <- conv5_2-R
I0419 07:48:32.265391 27577 net.cpp:367] relu5_2-R -> conv5_2-R (in-place)
I0419 07:48:32.265619 27577 net.cpp:122] Setting up relu5_2-R
I0419 07:48:32.265631 27577 net.cpp:129] Top shape: 1 512 45 32 (737280)
I0419 07:48:32.265635 27577 net.cpp:137] Memory required for data: 1737783572
I0419 07:48:32.265638 27577 layer_factory.hpp:77] Creating layer conv5_3-R
I0419 07:48:32.265658 27577 net.cpp:84] Creating Layer conv5_3-R
I0419 07:48:32.265662 27577 net.cpp:406] conv5_3-R <- conv5_2-R
I0419 07:48:32.265671 27577 net.cpp:380] conv5_3-R -> conv5_3-R
I0419 07:48:32.274626 27577 net.cpp:122] Setting up conv5_3-R
I0419 07:48:32.274662 27577 net.cpp:129] Top shape: 1 512 45 32 (737280)
I0419 07:48:32.274667 27577 net.cpp:137] Memory required for data: 1740732692
I0419 07:48:32.274677 27577 layer_factory.hpp:77] Creating layer relu5_3-R
I0419 07:48:32.274694 27577 net.cpp:84] Creating Layer relu5_3-R
I0419 07:48:32.274700 27577 net.cpp:406] relu5_3-R <- conv5_3-R
I0419 07:48:32.274706 27577 net.cpp:367] relu5_3-R -> conv5_3-R (in-place)
I0419 07:48:32.274926 27577 net.cpp:122] Setting up relu5_3-R
I0419 07:48:32.274937 27577 net.cpp:129] Top shape: 1 512 45 32 (737280)
I0419 07:48:32.274941 27577 net.cpp:137] Memory required for data: 1743681812
I0419 07:48:32.274953 27577 layer_factory.hpp:77] Creating layer pool5-R
I0419 07:48:32.274962 27577 net.cpp:84] Creating Layer pool5-R
I0419 07:48:32.274966 27577 net.cpp:406] pool5-R <- conv5_3-R
I0419 07:48:32.274974 27577 net.cpp:380] pool5-R -> pool5-R
I0419 07:48:32.275027 27577 net.cpp:122] Setting up pool5-R
I0419 07:48:32.275036 27577 net.cpp:129] Top shape: 1 512 23 16 (188416)
I0419 07:48:32.275040 27577 net.cpp:137] Memory required for data: 1744435476
I0419 07:48:32.275043 27577 layer_factory.hpp:77] Creating layer fc6-R
I0419 07:48:32.275053 27577 net.cpp:84] Creating Layer fc6-R
I0419 07:48:32.275058 27577 net.cpp:406] fc6-R <- pool5-R
I0419 07:48:32.275065 27577 net.cpp:380] fc6-R -> fc6-R
I0419 07:48:32.559680 27577 net.cpp:122] Setting up fc6-R
I0419 07:48:32.559732 27577 net.cpp:129] Top shape: 1 4096 17 10 (696320)
I0419 07:48:32.559739 27577 net.cpp:137] Memory required for data: 1747220756
I0419 07:48:32.559751 27577 layer_factory.hpp:77] Creating layer relu6-R
I0419 07:48:32.559764 27577 net.cpp:84] Creating Layer relu6-R
I0419 07:48:32.559772 27577 net.cpp:406] relu6-R <- fc6-R
I0419 07:48:32.559779 27577 net.cpp:367] relu6-R -> fc6-R (in-place)
I0419 07:48:32.559988 27577 net.cpp:122] Setting up relu6-R
I0419 07:48:32.559998 27577 net.cpp:129] Top shape: 1 4096 17 10 (696320)
I0419 07:48:32.560003 27577 net.cpp:137] Memory required for data: 1750006036
I0419 07:48:32.560006 27577 layer_factory.hpp:77] Creating layer drop6-R
I0419 07:48:32.560024 27577 net.cpp:84] Creating Layer drop6-R
I0419 07:48:32.560027 27577 net.cpp:406] drop6-R <- fc6-R
I0419 07:48:32.560034 27577 net.cpp:367] drop6-R -> fc6-R (in-place)
I0419 07:48:32.560084 27577 net.cpp:122] Setting up drop6-R
I0419 07:48:32.560093 27577 net.cpp:129] Top shape: 1 4096 17 10 (696320)
I0419 07:48:32.560097 27577 net.cpp:137] Memory required for data: 1752791316
I0419 07:48:32.560106 27577 layer_factory.hpp:77] Creating layer fc7-R
I0419 07:48:32.560118 27577 net.cpp:84] Creating Layer fc7-R
I0419 07:48:32.560122 27577 net.cpp:406] fc7-R <- fc6-R
I0419 07:48:32.560130 27577 net.cpp:380] fc7-R -> fc7-R
I0419 07:48:32.612807 27577 net.cpp:122] Setting up fc7-R
I0419 07:48:32.612859 27577 net.cpp:129] Top shape: 1 4096 17 10 (696320)
I0419 07:48:32.612864 27577 net.cpp:137] Memory required for data: 1755576596
I0419 07:48:32.612879 27577 layer_factory.hpp:77] Creating layer relu7-R
I0419 07:48:32.612895 27577 net.cpp:84] Creating Layer relu7-R
I0419 07:48:32.612901 27577 net.cpp:406] relu7-R <- fc7-R
I0419 07:48:32.612910 27577 net.cpp:367] relu7-R -> fc7-R (in-place)
I0419 07:48:32.613137 27577 net.cpp:122] Setting up relu7-R
I0419 07:48:32.613148 27577 net.cpp:129] Top shape: 1 4096 17 10 (696320)
I0419 07:48:32.613152 27577 net.cpp:137] Memory required for data: 1758361876
I0419 07:48:32.613157 27577 layer_factory.hpp:77] Creating layer drop7-R
I0419 07:48:32.613165 27577 net.cpp:84] Creating Layer drop7-R
I0419 07:48:32.613170 27577 net.cpp:406] drop7-R <- fc7-R
I0419 07:48:32.613176 27577 net.cpp:367] drop7-R -> fc7-R (in-place)
I0419 07:48:32.613229 27577 net.cpp:122] Setting up drop7-R
I0419 07:48:32.613239 27577 net.cpp:129] Top shape: 1 4096 17 10 (696320)
I0419 07:48:32.613242 27577 net.cpp:137] Memory required for data: 1761147156
I0419 07:48:32.613246 27577 layer_factory.hpp:77] Creating layer score_fr-new-R
I0419 07:48:32.613256 27577 net.cpp:84] Creating Layer score_fr-new-R
I0419 07:48:32.613260 27577 net.cpp:406] score_fr-new-R <- fc7-R
I0419 07:48:32.613268 27577 net.cpp:380] score_fr-new-R -> score_fr-new-R
I0419 07:48:32.614662 27577 net.cpp:122] Setting up score_fr-new-R
I0419 07:48:32.614694 27577 net.cpp:129] Top shape: 1 3 17 10 (510)
I0419 07:48:32.614698 27577 net.cpp:137] Memory required for data: 1761149196
I0419 07:48:32.614706 27577 layer_factory.hpp:77] Creating layer upscore2-new-R
I0419 07:48:32.614715 27577 net.cpp:84] Creating Layer upscore2-new-R
I0419 07:48:32.614720 27577 net.cpp:406] upscore2-new-R <- score_fr-new-R
I0419 07:48:32.614728 27577 net.cpp:380] upscore2-new-R -> upscore2-new-R
I0419 07:48:32.614984 27577 net.cpp:122] Setting up upscore2-new-R
I0419 07:48:32.614994 27577 net.cpp:129] Top shape: 1 3 36 22 (2376)
I0419 07:48:32.614997 27577 net.cpp:137] Memory required for data: 1761158700
I0419 07:48:32.615003 27577 layer_factory.hpp:77] Creating layer upscore2-new-R_upscore2-new-R_0_split
I0419 07:48:32.615011 27577 net.cpp:84] Creating Layer upscore2-new-R_upscore2-new-R_0_split
I0419 07:48:32.615015 27577 net.cpp:406] upscore2-new-R_upscore2-new-R_0_split <- upscore2-new-R
I0419 07:48:32.615021 27577 net.cpp:380] upscore2-new-R_upscore2-new-R_0_split -> upscore2-new-R_upscore2-new-R_0_split_0
I0419 07:48:32.615029 27577 net.cpp:380] upscore2-new-R_upscore2-new-R_0_split -> upscore2-new-R_upscore2-new-R_0_split_1
I0419 07:48:32.615074 27577 net.cpp:122] Setting up upscore2-new-R_upscore2-new-R_0_split
I0419 07:48:32.615082 27577 net.cpp:129] Top shape: 1 3 36 22 (2376)
I0419 07:48:32.615087 27577 net.cpp:129] Top shape: 1 3 36 22 (2376)
I0419 07:48:32.615090 27577 net.cpp:137] Memory required for data: 1761177708
I0419 07:48:32.615094 27577 layer_factory.hpp:77] Creating layer score_pool4-new-R
I0419 07:48:32.615119 27577 net.cpp:84] Creating Layer score_pool4-new-R
I0419 07:48:32.615124 27577 net.cpp:406] score_pool4-new-R <- pool4-R_pool4-R_0_split_1
I0419 07:48:32.615131 27577 net.cpp:380] score_pool4-new-R -> score_pool4-new-R
I0419 07:48:32.618708 27577 net.cpp:122] Setting up score_pool4-new-R
I0419 07:48:32.618732 27577 net.cpp:129] Top shape: 1 3 45 32 (4320)
I0419 07:48:32.618743 27577 net.cpp:137] Memory required for data: 1761194988
I0419 07:48:32.618754 27577 layer_factory.hpp:77] Creating layer score_pool4c-R
I0419 07:48:32.618778 27577 net.cpp:84] Creating Layer score_pool4c-R
I0419 07:48:32.618785 27577 net.cpp:406] score_pool4c-R <- score_pool4-new-R
I0419 07:48:32.618794 27577 net.cpp:406] score_pool4c-R <- upscore2-new-R_upscore2-new-R_0_split_0
I0419 07:48:32.618803 27577 net.cpp:380] score_pool4c-R -> score_pool4c-R
I0419 07:48:32.618850 27577 net.cpp:122] Setting up score_pool4c-R
I0419 07:48:32.618860 27577 net.cpp:129] Top shape: 1 3 36 22 (2376)
I0419 07:48:32.618863 27577 net.cpp:137] Memory required for data: 1761204492
I0419 07:48:32.618868 27577 layer_factory.hpp:77] Creating layer fuse_pool4-R
I0419 07:48:32.618880 27577 net.cpp:84] Creating Layer fuse_pool4-R
I0419 07:48:32.618885 27577 net.cpp:406] fuse_pool4-R <- upscore2-new-R_upscore2-new-R_0_split_1
I0419 07:48:32.618891 27577 net.cpp:406] fuse_pool4-R <- score_pool4c-R
I0419 07:48:32.618899 27577 net.cpp:380] fuse_pool4-R -> fuse_pool4-R
I0419 07:48:32.618937 27577 net.cpp:122] Setting up fuse_pool4-R
I0419 07:48:32.618950 27577 net.cpp:129] Top shape: 1 3 36 22 (2376)
I0419 07:48:32.618965 27577 net.cpp:137] Memory required for data: 1761213996
I0419 07:48:32.618970 27577 layer_factory.hpp:77] Creating layer upscore_pool4-new-R
I0419 07:48:32.618981 27577 net.cpp:84] Creating Layer upscore_pool4-new-R
I0419 07:48:32.618986 27577 net.cpp:406] upscore_pool4-new-R <- fuse_pool4-R
I0419 07:48:32.618995 27577 net.cpp:380] upscore_pool4-new-R -> upscore_pool4-new-R
I0419 07:48:32.619298 27577 net.cpp:122] Setting up upscore_pool4-new-R
I0419 07:48:32.619323 27577 net.cpp:129] Top shape: 1 3 74 46 (10212)
I0419 07:48:32.619328 27577 net.cpp:137] Memory required for data: 1761254844
I0419 07:48:32.619352 27577 layer_factory.hpp:77] Creating layer upscore_pool4-new-R_upscore_pool4-new-R_0_split
I0419 07:48:32.619361 27577 net.cpp:84] Creating Layer upscore_pool4-new-R_upscore_pool4-new-R_0_split
I0419 07:48:32.619367 27577 net.cpp:406] upscore_pool4-new-R_upscore_pool4-new-R_0_split <- upscore_pool4-new-R
I0419 07:48:32.619375 27577 net.cpp:380] upscore_pool4-new-R_upscore_pool4-new-R_0_split -> upscore_pool4-new-R_upscore_pool4-new-R_0_split_0
I0419 07:48:32.619385 27577 net.cpp:380] upscore_pool4-new-R_upscore_pool4-new-R_0_split -> upscore_pool4-new-R_upscore_pool4-new-R_0_split_1
I0419 07:48:32.619441 27577 net.cpp:122] Setting up upscore_pool4-new-R_upscore_pool4-new-R_0_split
I0419 07:48:32.619448 27577 net.cpp:129] Top shape: 1 3 74 46 (10212)
I0419 07:48:32.619454 27577 net.cpp:129] Top shape: 1 3 74 46 (10212)
I0419 07:48:32.619460 27577 net.cpp:137] Memory required for data: 1761336540
I0419 07:48:32.619465 27577 layer_factory.hpp:77] Creating layer score_pool3-new-R
I0419 07:48:32.619477 27577 net.cpp:84] Creating Layer score_pool3-new-R
I0419 07:48:32.619482 27577 net.cpp:406] score_pool3-new-R <- pool3-R_pool3-R_0_split_1
I0419 07:48:32.619491 27577 net.cpp:380] score_pool3-new-R -> score_pool3-new-R
I0419 07:48:32.621270 27577 net.cpp:122] Setting up score_pool3-new-R
I0419 07:48:32.621291 27577 net.cpp:129] Top shape: 1 3 89 64 (17088)
I0419 07:48:32.621297 27577 net.cpp:137] Memory required for data: 1761404892
I0419 07:48:32.621307 27577 layer_factory.hpp:77] Creating layer score_pool3c-R
I0419 07:48:32.621330 27577 net.cpp:84] Creating Layer score_pool3c-R
I0419 07:48:32.621336 27577 net.cpp:406] score_pool3c-R <- score_pool3-new-R
I0419 07:48:32.621345 27577 net.cpp:406] score_pool3c-R <- upscore_pool4-new-R_upscore_pool4-new-R_0_split_0
I0419 07:48:32.621352 27577 net.cpp:380] score_pool3c-R -> score_pool3c-R
I0419 07:48:32.621399 27577 net.cpp:122] Setting up score_pool3c-R
I0419 07:48:32.621418 27577 net.cpp:129] Top shape: 1 3 74 46 (10212)
I0419 07:48:32.621423 27577 net.cpp:137] Memory required for data: 1761445740
I0419 07:48:32.621428 27577 layer_factory.hpp:77] Creating layer fuse_pool3-R
I0419 07:48:32.621436 27577 net.cpp:84] Creating Layer fuse_pool3-R
I0419 07:48:32.621443 27577 net.cpp:406] fuse_pool3-R <- upscore_pool4-new-R_upscore_pool4-new-R_0_split_1
I0419 07:48:32.621449 27577 net.cpp:406] fuse_pool3-R <- score_pool3c-R
I0419 07:48:32.621456 27577 net.cpp:380] fuse_pool3-R -> fuse_pool3-R
I0419 07:48:32.621492 27577 net.cpp:122] Setting up fuse_pool3-R
I0419 07:48:32.621510 27577 net.cpp:129] Top shape: 1 3 74 46 (10212)
I0419 07:48:32.621515 27577 net.cpp:137] Memory required for data: 1761486588
I0419 07:48:32.621520 27577 layer_factory.hpp:77] Creating layer upscore8-new-R
I0419 07:48:32.621531 27577 net.cpp:84] Creating Layer upscore8-new-R
I0419 07:48:32.621536 27577 net.cpp:406] upscore8-new-R <- fuse_pool3-R
I0419 07:48:32.621544 27577 net.cpp:380] upscore8-new-R -> upscore8-new-R
I0419 07:48:32.621871 27577 net.cpp:122] Setting up upscore8-new-R
I0419 07:48:32.621883 27577 net.cpp:129] Top shape: 1 3 600 376 (676800)
I0419 07:48:32.621888 27577 net.cpp:137] Memory required for data: 1764193788
I0419 07:48:32.621901 27577 layer_factory.hpp:77] Creating layer upscore8_cropped-R
I0419 07:48:32.621917 27577 net.cpp:84] Creating Layer upscore8_cropped-R
I0419 07:48:32.621923 27577 net.cpp:406] upscore8_cropped-R <- upscore8-new-R
I0419 07:48:32.621932 27577 net.cpp:406] upscore8_cropped-R <- data-R_crop_0_split_1
I0419 07:48:32.621939 27577 net.cpp:380] upscore8_cropped-R -> upscore8_cropped-R
I0419 07:48:32.621978 27577 net.cpp:122] Setting up upscore8_cropped-R
I0419 07:48:32.621985 27577 net.cpp:129] Top shape: 1 3 512 310 (476160)
I0419 07:48:32.621989 27577 net.cpp:137] Memory required for data: 1766098428
I0419 07:48:32.621994 27577 layer_factory.hpp:77] Creating layer score-R
I0419 07:48:32.622005 27577 net.cpp:84] Creating Layer score-R
I0419 07:48:32.622010 27577 net.cpp:406] score-R <- upscore8_cropped-R
I0419 07:48:32.622020 27577 net.cpp:380] score-R -> score-R
I0419 07:48:32.626874 27577 net.cpp:122] Setting up score-R
I0419 07:48:32.626897 27577 net.cpp:129] Top shape: 1 3 512 310 (476160)
I0419 07:48:32.626904 27577 net.cpp:137] Memory required for data: 1768003068
I0419 07:48:32.626915 27577 layer_factory.hpp:77] Creating layer score_uncropped-R
I0419 07:48:32.627214 27577 net.cpp:84] Creating Layer score_uncropped-R
I0419 07:48:32.627230 27577 net.cpp:406] score_uncropped-R <- crop_info
I0419 07:48:32.627239 27577 net.cpp:406] score_uncropped-R <- score-R
I0419 07:48:32.627245 27577 net.cpp:406] score_uncropped-R <- data_data_0_split_3
I0419 07:48:32.627254 27577 net.cpp:380] score_uncropped-R -> score_uncropped-R
I0419 07:48:32.629225 27577 net.cpp:122] Setting up score_uncropped-R
I0419 07:48:32.629245 27577 net.cpp:129] Top shape: 1 3 512 310 (476160)
I0419 07:48:32.629251 27577 net.cpp:137] Memory required for data: 1769907708
I0419 07:48:32.629257 27577 layer_factory.hpp:77] Creating layer loss1
I0419 07:48:32.629276 27577 net.cpp:84] Creating Layer loss1
I0419 07:48:32.629282 27577 net.cpp:406] loss1 <- score_score_0_split_1
I0419 07:48:32.629290 27577 net.cpp:406] loss1 <- label_data_1_split_1
I0419 07:48:32.629297 27577 net.cpp:380] loss1 -> loss1
…
