…
snapshot_prefix: "/media/Med_2T2/data2/models/snapshots/indiv:1e-5x10,20/FD1:ZI3_1_20180715_091943/train"
test_initialization: false
average_loss: 20
stepvalue: 40000
iter_size: 1
I0715 16:14:01.906553 13860 solver.cpp:77] Creating training net from train_net file: /media/Med_2T2/data2/prototxts/training_S3x10.prototxt
I0715 16:14:01.909345 13860 net.cpp:51] Initializing net from parameters: 
state {
  phase: TRAIN
}
layer {
  name: "data"
  type: "Python"
  top: "data"
  top: "label"
  top: "crop_margin"
  top: "crop_prob"
  top: "crop_sample_batch"
  python_param {
    module: "Data"
    layer: "DataLayer"
  }
}
layer {
  name: "conv1_1"
  type: "Convolution"
  bottom: "data"
  top: "conv1_1"
  param {
    lr_mult: 1
    decay_mult: 1
  }
  param {
    lr_mult: 2
    decay_mult: 0
  }
  convolution_param {
    num_output: 64
    pad: 100
    kernel_size: 3
    stride: 1
  }
}
layer {
  name: "relu1_1"
  type: "ReLU"
  bottom: "conv1_1"
  top: "conv1_1"
}
layer {
  name: "conv1_2"
  type: "Convolution"
  bottom: "conv1_1"
  top: "conv1_2"
  param {
    lr_mult: 1
    decay_mult: 1
  }
  param {
    lr_mult: 2
    decay_mult: 0
  }
  convolution_param {
    num_output: 64
    pad: 1
    kernel_size: 3
    stride: 1
  }
}
layer {
  name: "relu1_2"
  type: "ReLU"
  bottom: "conv1_2"
  top: "conv1_2"
}
layer {
  name: "pool1"
  type: "Pooling"
  bottom: "conv1_2"
  top: "pool1"
  pooling_param {
    pool: MAX
    kernel_size: 2
    stride: 2
  }
}
layer {
  name: "conv2_1"
  type: "Convolution"
  bottom: "pool1"
  top: "conv2_1"
  param {
    lr_mult: 1
    decay_mult: 1
  }
  param {
    lr_mult: 2
    decay_mult: 0
  }
  convolution_param {
    num_output: 128
    pad: 1
    kernel_size: 3
    stride: 1
  }
}
layer {
  name: "relu2_1"
  type: "ReLU"
  bottom: "conv2_1"
  top: "conv2_1"
}
layer {
  name: "conv2_2"
  type: "Convolution"
  bottom: "conv2_1"
  top: "conv2_2"
  param {
    lr_mult: 1
    decay_mult: 1
  }
  param {
    lr_mult: 2
    decay_mult: 0
  }
  convolution_param {
    num_output: 128
    pad: 1
    kernel_size: 3
    stride: 1
  }
}
layer {
  name: "relu2_2"
  type: "ReLU"
  bottom: "conv2_2"
  top: "conv2_2"
}
layer {
  name: "pool2"
  type: "Pooling"
  bottom: "conv2_2"
  top: "pool2"
  pooling_param {
    pool: MAX
    kernel_size: 2
    stride: 2
  }
}
layer {
  name: "conv3_1"
  type: "Convolution"
  bottom: "pool2"
  top: "conv3_1"
  param {
    lr_mult: 1
    decay_mult: 1
  }
  param {
    lr_mult: 2
    decay_mult: 0
  }
  convolution_param {
    num_output: 256
    pad: 1
    kernel_size: 3
    stride: 1
  }
}
layer {
  name: "relu3_1"
  type: "ReLU"
  bottom: "conv3_1"
  top: "conv3_1"
}
layer {
  name: "conv3_2"
  type: "Convolution"
  bottom: "conv3_1"
  top: "conv3_2"
  param {
    lr_mult: 1
    decay_mult: 1
  }
  param {
    lr_mult: 2
    decay_mult: 0
  }
  convolution_param {
    num_output: 256
    pad: 1
    kernel_size: 3
    stride: 1
  }
}
layer {
  name: "relu3_2"
  type: "ReLU"
  bottom: "conv3_2"
  top: "conv3_2"
}
layer {
  name: "conv3_3"
  type: "Convolution"
  bottom: "conv3_2"
  top: "conv3_3"
  param {
    lr_mult: 1
    decay_mult: 1
  }
  param {
    lr_mult: 2
    decay_mult: 0
  }
  convolution_param {
    num_output: 256
    pad: 1
    kernel_size: 3
    stride: 1
  }
}
layer {
  name: "relu3_3"
  type: "ReLU"
  bottom: "conv3_3"
  top: "conv3_3"
}
layer {
  name: "pool3"
  type: "Pooling"
  bottom: "conv3_3"
  top: "pool3"
  pooling_param {
    pool: MAX
    kernel_size: 2
    stride: 2
  }
}
layer {
  name: "conv4_1"
  type: "Convolution"
  bottom: "pool3"
  top: "conv4_1"
  param {
    lr_mult: 1
    decay_mult: 1
  }
  param {
    lr_mult: 2
    decay_mult: 0
  }
  convolution_param {
    num_output: 512
    pad: 1
    kernel_size: 3
    stride: 1
  }
}
layer {
  name: "relu4_1"
  type: "ReLU"
  bottom: "conv4_1"
  top: "conv4_1"
}
layer {
  name: "conv4_2"
  type: "Convolution"
  bottom: "conv4_1"
  top: "conv4_2"
  param {
    lr_mult: 1
    decay_mult: 1
  }
  param {
    lr_mult: 2
    decay_mult: 0
  }
  convolution_param {
    num_output: 512
    pad: 1
    kernel_size: 3
    stride: 1
  }
}
layer {
  name: "relu4_2"
  type: "ReLU"
  bottom: "conv4_2"
  top: "conv4_2"
}
layer {
  name: "conv4_3"
  type: "Convolution"
  bottom: "conv4_2"
  top: "conv4_3"
  param {
    lr_mult: 1
    decay_mult: 1
  }
  param {
    lr_mult: 2
    decay_mult: 0
  }
  convolution_param {
    num_output: 512
    pad: 1
    kernel_size: 3
    stride: 1
  }
}
layer {
  name: "relu4_3"
  type: "ReLU"
  bottom: "conv4_3"
  top: "conv4_3"
}
layer {
  name: "pool4"
  type: "Pooling"
  bottom: "conv4_3"
  top: "pool4"
  pooling_param {
    pool: MAX
    kernel_size: 2
    stride: 2
  }
}
layer {
  name: "conv5_1"
  type: "Convolution"
  bottom: "pool4"
  top: "conv5_1"
  param {
    lr_mult: 1
    decay_mult: 1
  }
  param {
    lr_mult: 2
    decay_mult: 0
  }
  convolution_param {
    num_output: 512
    pad: 1
    kernel_size: 3
    stride: 1
  }
}
layer {
  name: "relu5_1"
  type: "ReLU"
  bottom: "conv5_1"
  top: "conv5_1"
}
layer {
  name: "conv5_2"
  type: "Convolution"
  bottom: "conv5_1"
  top: "conv5_2"
  param {
    lr_mult: 1
    decay_mult: 1
  }
  param {
    lr_mult: 2
    decay_mult: 0
  }
  convolution_param {
    num_output: 512
    pad: 1
    kernel_size: 3
    stride: 1
  }
}
layer {
  name: "relu5_2"
  type: "ReLU"
  bottom: "conv5_2"
  top: "conv5_2"
}
layer {
  name: "conv5_3"
  type: "Convolution"
  bottom: "conv5_2"
  top: "conv5_3"
  param {
    lr_mult: 1
    decay_mult: 1
  }
  param {
    lr_mult: 2
    decay_mult: 0
  }
  convolution_param {
    num_output: 512
    pad: 1
    kernel_size: 3
    stride: 1
  }
}
layer {
  name: "relu5_3"
  type: "ReLU"
  bottom: "conv5_3"
  top: "conv5_3"
}
layer {
  name: "pool5"
  type: "Pooling"
  bottom: "conv5_3"
  top: "pool5"
  pooling_param {
    pool: MAX
    kernel_size: 2
    stride: 2
  }
}
layer {
  name: "fc6"
  type: "Convolution"
  bottom: "pool5"
  top: "fc6"
  param {
    lr_mult: 1
    decay_mult: 1
  }
  param {
    lr_mult: 2
    decay_mult: 0
  }
  convolution_param {
    num_output: 4096
    pad: 0
    kernel_size: 7
    stride: 1
  }
}
layer {
  name: "relu6"
  type: "ReLU"
  bottom: "fc6"
  top: "fc6"
}
layer {
  name: "drop6"
  type: "Dropout"
  bottom: "fc6"
  top: "fc6"
  dropout_param {
    dropout_ratio: 0.5
  }
}
layer {
  name: "fc7"
  type: "Convolution"
  bottom: "fc6"
  top: "fc7"
  param {
    lr_mult: 1
    decay_mult: 1
  }
  param {
    lr_mult: 2
    decay_mult: 0
  }
  convolution_param {
    num_output: 4096
    pad: 0
    kernel_size: 1
    stride: 1
  }
}
layer {
  name: "relu7"
  type: "ReLU"
  bottom: "fc7"
  top: "fc7"
}
layer {
  name: "drop7"
  type: "Dropout"
  bottom: "fc7"
  top: "fc7"
  dropout_param {
    dropout_ratio: 0.5
  }
}
layer {
  name: "score_fr-new"
  type: "Convolution"
  bottom: "fc7"
  top: "score_fr-new"
  param {
    lr_mult: 1
    decay_mult: 1
  }
  param {
    lr_mult: 2
    decay_mult: 0
  }
  convolution_param {
    num_output: 3
    kernel_size: 1
  }
}
layer {
  name: "upscore2-new"
  type: "Deconvolution"
  bottom: "score_fr-new"
  top: "upscore2-new"
  param {
    lr_mult: 0
  }
  convolution_param {
    num_output: 3
    bias_term: false
    kernel_size: 4
    stride: 2
  }
}
layer {
  name: "score_pool4-new"
  type: "Convolution"
  bottom: "pool4"
  top: "score_pool4-new"
  param {
    lr_mult: 1
    decay_mult: 1
  }
  param {
    lr_mult: 2
    decay_mult: 0
  }
  convolution_param {
    num_output: 3
    pad: 0
    kernel_size: 1
  }
}
layer {
  name: "score_pool4c"
  type: "Crop"
  bottom: "score_pool4-new"
  bottom: "upscore2-new"
  top: "score_pool4c"
  crop_param {
    axis: 2
    offset: 5
  }
}
layer {
  name: "fuse_pool4"
  type: "Eltwise"
  bottom: "upscore2-new"
  bottom: "score_pool4c"
  top: "fuse_pool4"
  eltwise_param {
    operation: SUM
  }
}
layer {
  name: "upscore_pool4-new"
  type: "Deconvolution"
  bottom: "fuse_pool4"
  top: "upscore_pool4-new"
  param {
    lr_mult: 0
  }
  convolution_param {
    num_output: 3
    bias_term: false
    kernel_size: 4
    stride: 2
  }
}
layer {
  name: "score_pool3-new"
  type: "Convolution"
  bottom: "pool3"
  top: "score_pool3-new"
  param {
    lr_mult: 1
    decay_mult: 1
  }
  param {
    lr_mult: 2
    decay_mult: 0
  }
  convolution_param {
    num_output: 3
    pad: 0
    kernel_size: 1
  }
}
layer {
  name: "score_pool3c"
  type: "Crop"
  bottom: "score_pool3-new"
  bottom: "upscore_pool4-new"
  top: "score_pool3c"
  crop_param {
    axis: 2
    offset: 9
  }
}
layer {
  name: "fuse_pool3"
  type: "Eltwise"
  bottom: "upscore_pool4-new"
  bottom: "score_pool3c"
  top: "fuse_pool3"
  eltwise_param {
    operation: SUM
  }
}
layer {
  name: "upscore8-new"
  type: "Deconvolution"
  bottom: "fuse_pool3"
  top: "upscore8-new"
  param {
    lr_mult: 0
  }
  convolution_param {
    num_output: 3
    bias_term: false
    kernel_size: 16
    stride: 8
  }
}
layer {
  name: "upscore8_cropped"
  type: "Crop"
  bottom: "upscore8-new"
  bottom: "data"
  top: "upscore8_cropped"
  crop_param {
    axis: 2
    offset: 31
  }
}
layer {
  name: "prob"
  type: "Sigmoid"
  bottom: "upscore8_cropped"
  top: "prob"
}
layer {
  name: "saliency1"
  type: "Convolution"
  bottom: "prob"
  top: "saliency1"
  param {
    lr_mult: 10
    decay_mult: 1
  }
  param {
    lr_mult: 20
    decay_mult: 0
  }
  convolution_param {
    num_output: 3
    pad: 1
    kernel_size: 3
    stride: 1
    weight_filler {
      type: "xavier"
    }
    bias_filler {
      type: "constant"
      value: 1
    }
  }
}
layer {
  name: "relu_saliency1"
  type: "ReLU"
  bottom: "saliency1"
  top: "saliency1"
}
layer {
  name: "saliency"
  type: "Convolution"
  bottom: "saliency1"
  top: "saliency"
  param {
    lr_mult: 10
    decay_mult: 1
  }
  param {
    lr_mult: 20
    decay_mult: 0
  }
  convolution_param {
    num_output: 3
    pad: 2
    kernel_size: 5
    stride: 1
    weight_filler {
      type: "xavier"
    }
    bias_filler {
      type: "constant"
      value: 1
    }
  }
}
layer {
  name: "silence_saliency"
  type: "Silence"
  bottom: "saliency"
}
layer {
  name: "crop"
  type: "Python"
  bottom: "label"
  bottom: "data"
  bottom: "crop_margin"
  bottom: "crop_prob"
  bottom: "crop_sample_batch"
  top: "data-R"
  top: "crop_info"
  python_param {
    module: "Crop"
    layer: "CropLayer"
    param_str: "{\"TEST\": 0}"
  }
}
layer {
  name: "conv1_1-R"
  type: "Convolution"
  bottom: "data-R"
  top: "conv1_1-R"
  param {
    lr_mult: 10
    decay_mult: 1
  }
  param {
    lr_mult: 20
    decay_mult: 0
  }
  convolution_param {
    num_output: 64
    pad: 100
    kernel_size: 3
    stride: 1
  }
}
layer {
  name: "relu1_1-R"
  type: "ReLU"
  bottom: "conv1_1-R"
  top: "conv1_1-R"
}
layer {
  name: "conv1_2-R"
  type: "Convolution"
  bottom: "conv1_1-R"
  top: "conv1_2-R"
  param {
    lr_mult: 10
    decay_mult: 1
  }
  param {
    lr_mult: 20
    decay_mult: 0
  }
  convolution_param {
    num_output: 64
    pad: 1
    kernel_size: 3
    stride: 1
  }
}
layer {
  name: "relu1_2-R"
  type: "ReLU"
  bottom: "conv1_2-R"
  top: "conv1_2-R"
}
layer {
  name: "pool1-R"
  type: "Pooling"
  bottom: "conv1_2-R"
  top: "pool1-R"
  pooling_param {
    pool: MAX
    kernel_size: 2
    stride: 2
  }
}
layer {
  name: "conv2_1-R"
  type: "Convolution"
  bottom: "pool1-R"
  top: "conv2_1-R"
  param {
    lr_mult: 10
    decay_mult: 1
  }
  param {
    lr_mult: 20
    decay_mult: 0
  }
  convolution_param {
    num_output: 128
    pad: 1
    kernel_size: 3
    stride: 1
  }
}
layer {
  name: "relu2_1-R"
  type: "ReLU"
  bottom: "conv2_1-R"
  top: "conv2_1-R"
}
layer {
  name: "conv2_2-R"
  type: "Convolution"
  bottom: "conv2_1-R"
  top: "conv2_2-R"
  param {
    lr_mult: 10
    decay_mult: 1
  }
  param {
    lr_mult: 20
    decay_mult: 0
  }
  convolution_param {
    num_output: 128
    pad: 1
    kernel_size: 3
    stride: 1
  }
}
layer {
  name: "relu2_2-R"
  type: "ReLU"
  bottom: "conv2_2-R"
  top: "conv2_2-R"
}
layer {
  name: "pool2-R"
  type: "Pooling"
  bottom: "conv2_2-R"
  top: "pool2-R"
  pooling_param {
    pool: MAX
    kernel_size: 2
    stride: 2
  }
}
layer {
  name: "conv3_1-R"
  type: "Convolution"
  bottom: "pool2-R"
  top: "conv3_1-R"
  param {
    lr_mult: 10
    decay_mult: 1
  }
  param {
    lr_mult: 20
    decay_mult: 0
  }
  convolution_param {
    num_output: 256
    pad: 1
    kernel_size: 3
    stride: 1
  }
}
layer {
  name: "relu3_1-R"
  type: "ReLU"
  bottom: "conv3_1-R"
  top: "conv3_1-R"
}
layer {
  name: "conv3_2-R"
  type: "Convolution"
  bottom: "conv3_1-R"
  top: "conv3_2-R"
  param {
    lr_mult: 10
    decay_mult: 1
  }
  param {
    lr_mult: 20
    decay_mult: 0
  }
  convolution_param {
    num_output: 256
    pad: 1
    kernel_size: 3
    stride: 1
  }
}
layer {
  name: "relu3_2-R"
  type: "ReLU"
  bottom: "conv3_2-R"
  top: "conv3_2-R"
}
layer {
  name: "conv3_3-R"
  type: "Convolution"
  bottom: "conv3_2-R"
  top: "conv3_3-R"
  param {
    lr_mult: 10
    decay_mult: 1
  }
  param {
    lr_mult: 20
    decay_mult: 0
  }
  convolution_param {
    num_output: 256
    pad: 1
    kernel_size: 3
    stride: 1
  }
}
layer {
  name: "relu3_3-R"
  type: "ReLU"
  bottom: "conv3_3-R"
  top: "conv3_3-R"
}
layer {
  name: "pool3-R"
  type: "Pooling"
  bottom: "conv3_3-R"
  top: "pool3-R"
  pooling_param {
    pool: MAX
    kernel_size: 2
    stride: 2
  }
}
layer {
  name: "conv4_1-R"
  type: "Convolution"
  bottom: "pool3-R"
  top: "conv4_1-R"
  param {
    lr_mult: 10
    decay_mult: 1
  }
  param {
    lr_mult: 20
    decay_mult: 0
  }
  convolution_param {
    num_output: 512
    pad: 1
    kernel_size: 3
    stride: 1
  }
}
layer {
  name: "relu4_1-R"
  type: "ReLU"
  bottom: "conv4_1-R"
  top: "conv4_1-R"
}
layer {
  name: "conv4_2-R"
  type: "Convolution"
  bottom: "conv4_1-R"
  top: "conv4_2-R"
  param {
    lr_mult: 10
    decay_mult: 1
  }
  param {
    lr_mult: 20
    decay_mult: 0
  }
  convolution_param {
    num_output: 512
    pad: 1
    kernel_size: 3
    stride: 1
  }
}
layer {
  name: "relu4_2-R"
  type: "ReLU"
  bottom: "conv4_2-R"
  top: "conv4_2-R"
}
layer {
  name: "conv4_3-R"
  type: "Convolution"
  bottom: "conv4_2-R"
  top: "conv4_3-R"
  param {
    lr_mult: 10
    decay_mult: 1
  }
  param {
    lr_mult: 20
    decay_mult: 0
  }
  convolution_param {
    num_output: 512
    pad: 1
    kernel_size: 3
    stride: 1
  }
}
layer {
  name: "relu4_3-R"
  type: "ReLU"
  bottom: "conv4_3-R"
  top: "conv4_3-R"
}
layer {
  name: "pool4-R"
  type: "Pooling"
  bottom: "conv4_3-R"
  top: "pool4-R"
  pooling_param {
    pool: MAX
    kernel_size: 2
    stride: 2
  }
}
layer {
  name: "conv5_1-R"
  type: "Convolution"
  bottom: "pool4-R"
  top: "conv5_1-R"
  param {
    lr_mult: 10
    decay_mult: 1
  }
  param {
    lr_mult: 20
    decay_mult: 0
  }
  convolution_param {
    num_output: 512
    pad: 1
    kernel_size: 3
    stride: 1
  }
}
layer {
  name: "relu5_1-R"
  type: "ReLU"
  bottom: "conv5_1-R"
  top: "conv5_1-R"
}
layer {
  name: "conv5_2-R"
  type: "Convolution"
  bottom: "conv5_1-R"
  top: "conv5_2-R"
  param {
    lr_mult: 10
    decay_mult: 1
  }
  param {
    lr_mult: 20
    decay_mult: 0
  }
  convolution_param {
    num_output: 512
    pad: 1
    kernel_size: 3
    stride: 1
  }
}
layer {
  name: "relu5_2-R"
  type: "ReLU"
  bottom: "conv5_2-R"
  top: "conv5_2-R"
}
layer {
  name: "conv5_3-R"
  type: "Convolution"
  bottom: "conv5_2-R"
  top: "conv5_3-R"
  param {
    lr_mult: 10
    decay_mult: 1
  }
  param {
    lr_mult: 20
    decay_mult: 0
  }
  convolution_param {
    num_output: 512
    pad: 1
    kernel_size: 3
    stride: 1
  }
}
layer {
  name: "relu5_3-R"
  type: "ReLU"
  bottom: "conv5_3-R"
  top: "conv5_3-R"
}
layer {
  name: "pool5-R"
  type: "Pooling"
  bottom: "conv5_3-R"
  top: "pool5-R"
  pooling_param {
    pool: MAX
    kernel_size: 2
    stride: 2
  }
}
layer {
  name: "fc6-R"
  type: "Convolution"
  bottom: "pool5-R"
  top: "fc6-R"
  param {
    lr_mult: 10
    decay_mult: 1
  }
  param {
    lr_mult: 20
    decay_mult: 0
  }
  convolution_param {
    num_output: 4096
    pad: 0
    kernel_size: 7
    stride: 1
  }
}
layer {
  name: "relu6-R"
  type: "ReLU"
  bottom: "fc6-R"
  top: "fc6-R"
}
layer {
  name: "drop6-R"
  type: "Dropout"
  bottom: "fc6-R"
  top: "fc6-R"
  dropout_param {
    dropout_ratio: 0.5
  }
}
layer {
  name: "fc7-R"
  type: "Convolution"
  bottom: "fc6-R"
  top: "fc7-R"
  param {
    lr_mult: 10
    decay_mult: 1
  }
  param {
    lr_mult: 20
    decay_mult: 0
  }
  convolution_param {
    num_output: 4096
    pad: 0
    kernel_size: 1
    stride: 1
  }
}
layer {
  name: "relu7-R"
  type: "ReLU"
  bottom: "fc7-R"
  top: "fc7-R"
}
layer {
  name: "drop7-R"
  type: "Dropout"
  bottom: "fc7-R"
  top: "fc7-R"
  dropout_param {
    dropout_ratio: 0.5
  }
}
layer {
  name: "score_fr-new-R"
  type: "Convolution"
  bottom: "fc7-R"
  top: "score_fr-new-R"
  param {
    lr_mult: 10
    decay_mult: 1
  }
  param {
    lr_mult: 20
    decay_mult: 0
  }
  convolution_param {
    num_output: 3
    kernel_size: 1
  }
}
layer {
  name: "upscore2-new-R"
  type: "Deconvolution"
  bottom: "score_fr-new-R"
  top: "upscore2-new-R"
  param {
    lr_mult: 0
  }
  convolution_param {
    num_output: 3
    bias_term: false
    kernel_size: 4
    stride: 2
  }
}
layer {
  name: "score_pool4-new-R"
  type: "Convolution"
  bottom: "pool4-R"
  top: "score_pool4-new-R"
  param {
    lr_mult: 10
    decay_mult: 1
  }
  param {
    lr_mult: 20
    decay_mult: 0
  }
  convolution_param {
    num_output: 3
    pad: 0
    kernel_size: 1
  }
}
layer {
  name: "score_pool4c-R"
  type: "Crop"
  bottom: "score_pool4-new-R"
  bottom: "upscore2-new-R"
  top: "score_pool4c-R"
  crop_param {
    axis: 2
    offset: 5
  }
}
layer {
  name: "fuse_pool4-R"
  type: "Eltwise"
  bottom: "upscore2-new-R"
  bottom: "score_pool4c-R"
  top: "fuse_pool4-R"
  eltwise_param {
    operation: SUM
  }
}
layer {
  name: "upscore_pool4-new-R"
  type: "Deconvolution"
  bottom: "fuse_pool4-R"
  top: "upscore_pool4-new-R"
  param {
    lr_mult: 0
  }
  convolution_param {
    num_output: 3
    bias_term: false
    kernel_size: 4
    stride: 2
  }
}
layer {
  name: "score_pool3-new-R"
  type: "Convolution"
  bottom: "pool3-R"
  top: "score_pool3-new-R"
  param {
    lr_mult: 10
    decay_mult: 1
  }
  param {
    lr_mult: 20
    decay_mult: 0
  }
  convolution_param {
    num_output: 3
    pad: 0
    kernel_size: 1
  }
}
layer {
  name: "score_pool3c-R"
  type: "Crop"
  bottom: "score_pool3-new-R"
  bottom: "upscore_pool4-new-R"
  top: "score_pool3c-R"
  crop_param {
    axis: 2
    offset: 9
  }
}
layer {
  name: "fuse_pool3-R"
  type: "Eltwise"
  bottom: "upscore_pool4-new-R"
  bottom: "score_pool3c-R"
  top: "fuse_pool3-R"
  eltwise_param {
    operation: SUM
  }
}
layer {
  name: "upscore8-new-R"
  type: "Deconvolution"
  bottom: "fuse_pool3-R"
  top: "upscore8-new-R"
  param {
    lr_mult: 0
  }
  convolution_param {
    num_output: 3
    bias_term: false
    kernel_size: 16
    stride: 8
  }
}
layer {
  name: "upscore8_cropped-R"
  type: "Crop"
  bottom: "upscore8-new-R"
  bottom: "data-R"
  top: "upscore8_cropped-R"
  crop_param {
    axis: 2
    offset: 31
  }
}
layer {
  name: "upscore8_uncropped-R"
  type: "Python"
  bottom: "crop_info"
  bottom: "upscore8_cropped-R"
  bottom: "data"
  top: "upscore8_uncropped-R"
  python_param {
    module: "Uncrop"
    layer: "UncropLayer"
  }
}
layer {
  name: "loss1"
  type: "DiceLoss"
  bottom: "upscore8_cropped"
  bottom: "label"
  top: "loss1"
  loss_weight: 0.333333
}
layer {
  name: "loss2"
  type: "DiceLoss"
  bottom: "upscore8_uncropped-R"
  bottom: "label"
  top: "loss2"
  loss_weight: 0.666667
}
I0715 16:14:01.909931 13860 layer_factory.hpp:77] Creating layer data
I0715 16:14:01.910326 13860 net.cpp:84] Creating Layer data
I0715 16:14:01.910342 13860 net.cpp:380] data -> data
I0715 16:14:01.910359 13860 net.cpp:380] data -> label
I0715 16:14:01.910367 13860 net.cpp:380] data -> crop_margin
I0715 16:14:01.910374 13860 net.cpp:380] data -> crop_prob
I0715 16:14:01.910382 13860 net.cpp:380] data -> crop_sample_batch
I0715 16:14:02.016075 13860 net.cpp:122] Setting up data
I0715 16:14:02.016136 13860 net.cpp:129] Top shape: 1 3 512 512 (786432)
I0715 16:14:02.016144 13860 net.cpp:129] Top shape: 1 3 512 512 (786432)
I0715 16:14:02.016149 13860 net.cpp:129] Top shape: 1 (1)
I0715 16:14:02.016153 13860 net.cpp:129] Top shape: 1 (1)
I0715 16:14:02.016160 13860 net.cpp:129] Top shape: 1 (1)
I0715 16:14:02.016165 13860 net.cpp:137] Memory required for data: 6291468
I0715 16:14:02.016175 13860 layer_factory.hpp:77] Creating layer data_data_0_split
I0715 16:14:02.016209 13860 net.cpp:84] Creating Layer data_data_0_split
I0715 16:14:02.016217 13860 net.cpp:406] data_data_0_split <- data
I0715 16:14:02.016232 13860 net.cpp:380] data_data_0_split -> data_data_0_split_0
I0715 16:14:02.016245 13860 net.cpp:380] data_data_0_split -> data_data_0_split_1
I0715 16:14:02.016255 13860 net.cpp:380] data_data_0_split -> data_data_0_split_2
I0715 16:14:02.016268 13860 net.cpp:380] data_data_0_split -> data_data_0_split_3
I0715 16:14:02.016337 13860 net.cpp:122] Setting up data_data_0_split
I0715 16:14:02.016345 13860 net.cpp:129] Top shape: 1 3 512 512 (786432)
I0715 16:14:02.016350 13860 net.cpp:129] Top shape: 1 3 512 512 (786432)
I0715 16:14:02.016355 13860 net.cpp:129] Top shape: 1 3 512 512 (786432)
I0715 16:14:02.016360 13860 net.cpp:129] Top shape: 1 3 512 512 (786432)
I0715 16:14:02.016371 13860 net.cpp:137] Memory required for data: 18874380
I0715 16:14:02.016377 13860 layer_factory.hpp:77] Creating layer label_data_1_split
I0715 16:14:02.016386 13860 net.cpp:84] Creating Layer label_data_1_split
I0715 16:14:02.016389 13860 net.cpp:406] label_data_1_split <- label
I0715 16:14:02.016396 13860 net.cpp:380] label_data_1_split -> label_data_1_split_0
I0715 16:14:02.016402 13860 net.cpp:380] label_data_1_split -> label_data_1_split_1
I0715 16:14:02.016409 13860 net.cpp:380] label_data_1_split -> label_data_1_split_2
I0715 16:14:02.016448 13860 net.cpp:122] Setting up label_data_1_split
I0715 16:14:02.016454 13860 net.cpp:129] Top shape: 1 3 512 512 (786432)
I0715 16:14:02.016459 13860 net.cpp:129] Top shape: 1 3 512 512 (786432)
I0715 16:14:02.016463 13860 net.cpp:129] Top shape: 1 3 512 512 (786432)
I0715 16:14:02.016468 13860 net.cpp:137] Memory required for data: 28311564
I0715 16:14:02.016471 13860 layer_factory.hpp:77] Creating layer conv1_1
I0715 16:14:02.016491 13860 net.cpp:84] Creating Layer conv1_1
I0715 16:14:02.016495 13860 net.cpp:406] conv1_1 <- data_data_0_split_0
I0715 16:14:02.016502 13860 net.cpp:380] conv1_1 -> conv1_1
I0715 16:14:02.404973 13860 net.cpp:122] Setting up conv1_1
I0715 16:14:02.405027 13860 net.cpp:129] Top shape: 1 64 710 710 (32262400)
I0715 16:14:02.405032 13860 net.cpp:137] Memory required for data: 157361164
I0715 16:14:02.405069 13860 layer_factory.hpp:77] Creating layer relu1_1
I0715 16:14:02.405115 13860 net.cpp:84] Creating Layer relu1_1
I0715 16:14:02.405131 13860 net.cpp:406] relu1_1 <- conv1_1
I0715 16:14:02.405139 13860 net.cpp:367] relu1_1 -> conv1_1 (in-place)
I0715 16:14:02.405367 13860 net.cpp:122] Setting up relu1_1
I0715 16:14:02.405386 13860 net.cpp:129] Top shape: 1 64 710 710 (32262400)
I0715 16:14:02.405390 13860 net.cpp:137] Memory required for data: 286410764
I0715 16:14:02.405396 13860 layer_factory.hpp:77] Creating layer conv1_2
I0715 16:14:02.405421 13860 net.cpp:84] Creating Layer conv1_2
I0715 16:14:02.405428 13860 net.cpp:406] conv1_2 <- conv1_1
I0715 16:14:02.405436 13860 net.cpp:380] conv1_2 -> conv1_2
I0715 16:14:02.411087 13860 net.cpp:122] Setting up conv1_2
I0715 16:14:02.411108 13860 net.cpp:129] Top shape: 1 64 710 710 (32262400)
I0715 16:14:02.411113 13860 net.cpp:137] Memory required for data: 415460364
I0715 16:14:02.411139 13860 layer_factory.hpp:77] Creating layer relu1_2
I0715 16:14:02.411147 13860 net.cpp:84] Creating Layer relu1_2
I0715 16:14:02.411162 13860 net.cpp:406] relu1_2 <- conv1_2
I0715 16:14:02.411178 13860 net.cpp:367] relu1_2 -> conv1_2 (in-place)
I0715 16:14:02.411448 13860 net.cpp:122] Setting up relu1_2
I0715 16:14:02.411461 13860 net.cpp:129] Top shape: 1 64 710 710 (32262400)
I0715 16:14:02.411466 13860 net.cpp:137] Memory required for data: 544509964
I0715 16:14:02.411470 13860 layer_factory.hpp:77] Creating layer pool1
I0715 16:14:02.411499 13860 net.cpp:84] Creating Layer pool1
I0715 16:14:02.411504 13860 net.cpp:406] pool1 <- conv1_2
I0715 16:14:02.411514 13860 net.cpp:380] pool1 -> pool1
I0715 16:14:02.411573 13860 net.cpp:122] Setting up pool1
I0715 16:14:02.411582 13860 net.cpp:129] Top shape: 1 64 355 355 (8065600)
I0715 16:14:02.411586 13860 net.cpp:137] Memory required for data: 576772364
I0715 16:14:02.411590 13860 layer_factory.hpp:77] Creating layer conv2_1
I0715 16:14:02.411603 13860 net.cpp:84] Creating Layer conv2_1
I0715 16:14:02.411617 13860 net.cpp:406] conv2_1 <- pool1
I0715 16:14:02.411625 13860 net.cpp:380] conv2_1 -> conv2_1
I0715 16:14:02.415240 13860 net.cpp:122] Setting up conv2_1
I0715 16:14:02.415256 13860 net.cpp:129] Top shape: 1 128 355 355 (16131200)
I0715 16:14:02.415261 13860 net.cpp:137] Memory required for data: 641297164
I0715 16:14:02.415298 13860 layer_factory.hpp:77] Creating layer relu2_1
I0715 16:14:02.415329 13860 net.cpp:84] Creating Layer relu2_1
I0715 16:14:02.415334 13860 net.cpp:406] relu2_1 <- conv2_1
I0715 16:14:02.415340 13860 net.cpp:367] relu2_1 -> conv2_1 (in-place)
I0715 16:14:02.415566 13860 net.cpp:122] Setting up relu2_1
I0715 16:14:02.415578 13860 net.cpp:129] Top shape: 1 128 355 355 (16131200)
I0715 16:14:02.415582 13860 net.cpp:137] Memory required for data: 705821964
I0715 16:14:02.415601 13860 layer_factory.hpp:77] Creating layer conv2_2
I0715 16:14:02.415622 13860 net.cpp:84] Creating Layer conv2_2
I0715 16:14:02.415629 13860 net.cpp:406] conv2_2 <- conv2_1
I0715 16:14:02.415638 13860 net.cpp:380] conv2_2 -> conv2_2
I0715 16:14:02.417904 13860 net.cpp:122] Setting up conv2_2
I0715 16:14:02.417922 13860 net.cpp:129] Top shape: 1 128 355 355 (16131200)
I0715 16:14:02.417927 13860 net.cpp:137] Memory required for data: 770346764
I0715 16:14:02.417943 13860 layer_factory.hpp:77] Creating layer relu2_2
I0715 16:14:02.417960 13860 net.cpp:84] Creating Layer relu2_2
I0715 16:14:02.417979 13860 net.cpp:406] relu2_2 <- conv2_2
I0715 16:14:02.417984 13860 net.cpp:367] relu2_2 -> conv2_2 (in-place)
I0715 16:14:02.418220 13860 net.cpp:122] Setting up relu2_2
I0715 16:14:02.418232 13860 net.cpp:129] Top shape: 1 128 355 355 (16131200)
I0715 16:14:02.418236 13860 net.cpp:137] Memory required for data: 834871564
I0715 16:14:02.418241 13860 layer_factory.hpp:77] Creating layer pool2
I0715 16:14:02.418257 13860 net.cpp:84] Creating Layer pool2
I0715 16:14:02.418264 13860 net.cpp:406] pool2 <- conv2_2
I0715 16:14:02.418279 13860 net.cpp:380] pool2 -> pool2
I0715 16:14:02.418335 13860 net.cpp:122] Setting up pool2
I0715 16:14:02.418344 13860 net.cpp:129] Top shape: 1 128 178 178 (4055552)
I0715 16:14:02.418347 13860 net.cpp:137] Memory required for data: 851093772
I0715 16:14:02.418351 13860 layer_factory.hpp:77] Creating layer conv3_1
I0715 16:14:02.418365 13860 net.cpp:84] Creating Layer conv3_1
I0715 16:14:02.418371 13860 net.cpp:406] conv3_1 <- pool2
I0715 16:14:02.418378 13860 net.cpp:380] conv3_1 -> conv3_1
I0715 16:14:02.422233 13860 net.cpp:122] Setting up conv3_1
I0715 16:14:02.422252 13860 net.cpp:129] Top shape: 1 256 178 178 (8111104)
I0715 16:14:02.422257 13860 net.cpp:137] Memory required for data: 883538188
I0715 16:14:02.422293 13860 layer_factory.hpp:77] Creating layer relu3_1
I0715 16:14:02.422309 13860 net.cpp:84] Creating Layer relu3_1
I0715 16:14:02.422317 13860 net.cpp:406] relu3_1 <- conv3_1
I0715 16:14:02.422323 13860 net.cpp:367] relu3_1 -> conv3_1 (in-place)
I0715 16:14:02.423055 13860 net.cpp:122] Setting up relu3_1
I0715 16:14:02.423071 13860 net.cpp:129] Top shape: 1 256 178 178 (8111104)
I0715 16:14:02.423076 13860 net.cpp:137] Memory required for data: 915982604
I0715 16:14:02.423094 13860 layer_factory.hpp:77] Creating layer conv3_2
I0715 16:14:02.423105 13860 net.cpp:84] Creating Layer conv3_2
I0715 16:14:02.423115 13860 net.cpp:406] conv3_2 <- conv3_1
I0715 16:14:02.423122 13860 net.cpp:380] conv3_2 -> conv3_2
I0715 16:14:02.430795 13860 net.cpp:122] Setting up conv3_2
I0715 16:14:02.430816 13860 net.cpp:129] Top shape: 1 256 178 178 (8111104)
I0715 16:14:02.430821 13860 net.cpp:137] Memory required for data: 948427020
I0715 16:14:02.430842 13860 layer_factory.hpp:77] Creating layer relu3_2
I0715 16:14:02.430855 13860 net.cpp:84] Creating Layer relu3_2
I0715 16:14:02.430865 13860 net.cpp:406] relu3_2 <- conv3_2
I0715 16:14:02.430881 13860 net.cpp:367] relu3_2 -> conv3_2 (in-place)
I0715 16:14:02.431763 13860 net.cpp:122] Setting up relu3_2
I0715 16:14:02.431785 13860 net.cpp:129] Top shape: 1 256 178 178 (8111104)
I0715 16:14:02.431792 13860 net.cpp:137] Memory required for data: 980871436
I0715 16:14:02.431797 13860 layer_factory.hpp:77] Creating layer conv3_3
I0715 16:14:02.431815 13860 net.cpp:84] Creating Layer conv3_3
I0715 16:14:02.431821 13860 net.cpp:406] conv3_3 <- conv3_2
I0715 16:14:02.431831 13860 net.cpp:380] conv3_3 -> conv3_3
I0715 16:14:02.437016 13860 net.cpp:122] Setting up conv3_3
I0715 16:14:02.437055 13860 net.cpp:129] Top shape: 1 256 178 178 (8111104)
I0715 16:14:02.437062 13860 net.cpp:137] Memory required for data: 1013315852
I0715 16:14:02.437093 13860 layer_factory.hpp:77] Creating layer relu3_3
I0715 16:14:02.437104 13860 net.cpp:84] Creating Layer relu3_3
I0715 16:14:02.437111 13860 net.cpp:406] relu3_3 <- conv3_3
I0715 16:14:02.437126 13860 net.cpp:367] relu3_3 -> conv3_3 (in-place)
I0715 16:14:02.437439 13860 net.cpp:122] Setting up relu3_3
I0715 16:14:02.437453 13860 net.cpp:129] Top shape: 1 256 178 178 (8111104)
I0715 16:14:02.437469 13860 net.cpp:137] Memory required for data: 1045760268
I0715 16:14:02.437474 13860 layer_factory.hpp:77] Creating layer pool3
I0715 16:14:02.437500 13860 net.cpp:84] Creating Layer pool3
I0715 16:14:02.437506 13860 net.cpp:406] pool3 <- conv3_3
I0715 16:14:02.437515 13860 net.cpp:380] pool3 -> pool3
I0715 16:14:02.437583 13860 net.cpp:122] Setting up pool3
I0715 16:14:02.437594 13860 net.cpp:129] Top shape: 1 256 89 89 (2027776)
I0715 16:14:02.437599 13860 net.cpp:137] Memory required for data: 1053871372
I0715 16:14:02.437603 13860 layer_factory.hpp:77] Creating layer pool3_pool3_0_split
I0715 16:14:02.437613 13860 net.cpp:84] Creating Layer pool3_pool3_0_split
I0715 16:14:02.437618 13860 net.cpp:406] pool3_pool3_0_split <- pool3
I0715 16:14:02.437628 13860 net.cpp:380] pool3_pool3_0_split -> pool3_pool3_0_split_0
I0715 16:14:02.437636 13860 net.cpp:380] pool3_pool3_0_split -> pool3_pool3_0_split_1
I0715 16:14:02.437692 13860 net.cpp:122] Setting up pool3_pool3_0_split
I0715 16:14:02.437701 13860 net.cpp:129] Top shape: 1 256 89 89 (2027776)
I0715 16:14:02.437708 13860 net.cpp:129] Top shape: 1 256 89 89 (2027776)
I0715 16:14:02.437713 13860 net.cpp:137] Memory required for data: 1070093580
I0715 16:14:02.437717 13860 layer_factory.hpp:77] Creating layer conv4_1
I0715 16:14:02.437731 13860 net.cpp:84] Creating Layer conv4_1
I0715 16:14:02.437738 13860 net.cpp:406] conv4_1 <- pool3_pool3_0_split_0
I0715 16:14:02.437747 13860 net.cpp:380] conv4_1 -> conv4_1
I0715 16:14:02.448623 13860 net.cpp:122] Setting up conv4_1
I0715 16:14:02.448644 13860 net.cpp:129] Top shape: 1 512 89 89 (4055552)
I0715 16:14:02.448649 13860 net.cpp:137] Memory required for data: 1086315788
I0715 16:14:02.448685 13860 layer_factory.hpp:77] Creating layer relu4_1
I0715 16:14:02.448694 13860 net.cpp:84] Creating Layer relu4_1
I0715 16:14:02.448698 13860 net.cpp:406] relu4_1 <- conv4_1
I0715 16:14:02.448709 13860 net.cpp:367] relu4_1 -> conv4_1 (in-place)
I0715 16:14:02.448949 13860 net.cpp:122] Setting up relu4_1
I0715 16:14:02.448964 13860 net.cpp:129] Top shape: 1 512 89 89 (4055552)
I0715 16:14:02.448968 13860 net.cpp:137] Memory required for data: 1102537996
I0715 16:14:02.448972 13860 layer_factory.hpp:77] Creating layer conv4_2
I0715 16:14:02.448982 13860 net.cpp:84] Creating Layer conv4_2
I0715 16:14:02.448987 13860 net.cpp:406] conv4_2 <- conv4_1
I0715 16:14:02.448998 13860 net.cpp:380] conv4_2 -> conv4_2
I0715 16:14:02.464465 13860 net.cpp:122] Setting up conv4_2
I0715 16:14:02.464506 13860 net.cpp:129] Top shape: 1 512 89 89 (4055552)
I0715 16:14:02.464515 13860 net.cpp:137] Memory required for data: 1118760204
I0715 16:14:02.464545 13860 layer_factory.hpp:77] Creating layer relu4_2
I0715 16:14:02.464570 13860 net.cpp:84] Creating Layer relu4_2
I0715 16:14:02.464578 13860 net.cpp:406] relu4_2 <- conv4_2
I0715 16:14:02.464594 13860 net.cpp:367] relu4_2 -> conv4_2 (in-place)
I0715 16:14:02.465008 13860 net.cpp:122] Setting up relu4_2
I0715 16:14:02.465029 13860 net.cpp:129] Top shape: 1 512 89 89 (4055552)
I0715 16:14:02.465036 13860 net.cpp:137] Memory required for data: 1134982412
I0715 16:14:02.465044 13860 layer_factory.hpp:77] Creating layer conv4_3
I0715 16:14:02.465059 13860 net.cpp:84] Creating Layer conv4_3
I0715 16:14:02.465066 13860 net.cpp:406] conv4_3 <- conv4_2
I0715 16:14:02.465091 13860 net.cpp:380] conv4_3 -> conv4_3
I0715 16:14:02.477452 13860 net.cpp:122] Setting up conv4_3
I0715 16:14:02.477496 13860 net.cpp:129] Top shape: 1 512 89 89 (4055552)
I0715 16:14:02.477504 13860 net.cpp:137] Memory required for data: 1151204620
I0715 16:14:02.477524 13860 layer_factory.hpp:77] Creating layer relu4_3
I0715 16:14:02.477538 13860 net.cpp:84] Creating Layer relu4_3
I0715 16:14:02.477547 13860 net.cpp:406] relu4_3 <- conv4_3
I0715 16:14:02.477560 13860 net.cpp:367] relu4_3 -> conv4_3 (in-place)
I0715 16:14:02.477942 13860 net.cpp:122] Setting up relu4_3
I0715 16:14:02.477960 13860 net.cpp:129] Top shape: 1 512 89 89 (4055552)
I0715 16:14:02.477967 13860 net.cpp:137] Memory required for data: 1167426828
I0715 16:14:02.477977 13860 layer_factory.hpp:77] Creating layer pool4
I0715 16:14:02.477993 13860 net.cpp:84] Creating Layer pool4
I0715 16:14:02.478000 13860 net.cpp:406] pool4 <- conv4_3
I0715 16:14:02.478011 13860 net.cpp:380] pool4 -> pool4
I0715 16:14:02.478121 13860 net.cpp:122] Setting up pool4
I0715 16:14:02.478134 13860 net.cpp:129] Top shape: 1 512 45 45 (1036800)
I0715 16:14:02.478140 13860 net.cpp:137] Memory required for data: 1171574028
I0715 16:14:02.478147 13860 layer_factory.hpp:77] Creating layer pool4_pool4_0_split
I0715 16:14:02.478158 13860 net.cpp:84] Creating Layer pool4_pool4_0_split
I0715 16:14:02.478165 13860 net.cpp:406] pool4_pool4_0_split <- pool4
I0715 16:14:02.478179 13860 net.cpp:380] pool4_pool4_0_split -> pool4_pool4_0_split_0
I0715 16:14:02.478190 13860 net.cpp:380] pool4_pool4_0_split -> pool4_pool4_0_split_1
I0715 16:14:02.478257 13860 net.cpp:122] Setting up pool4_pool4_0_split
I0715 16:14:02.478276 13860 net.cpp:129] Top shape: 1 512 45 45 (1036800)
I0715 16:14:02.478283 13860 net.cpp:129] Top shape: 1 512 45 45 (1036800)
I0715 16:14:02.478291 13860 net.cpp:137] Memory required for data: 1179868428
I0715 16:14:02.478297 13860 layer_factory.hpp:77] Creating layer conv5_1
I0715 16:14:02.478317 13860 net.cpp:84] Creating Layer conv5_1
I0715 16:14:02.478323 13860 net.cpp:406] conv5_1 <- pool4_pool4_0_split_0
I0715 16:14:02.478339 13860 net.cpp:380] conv5_1 -> conv5_1
I0715 16:14:02.493746 13860 net.cpp:122] Setting up conv5_1
I0715 16:14:02.493788 13860 net.cpp:129] Top shape: 1 512 45 45 (1036800)
I0715 16:14:02.493794 13860 net.cpp:137] Memory required for data: 1184015628
I0715 16:14:02.493808 13860 layer_factory.hpp:77] Creating layer relu5_1
I0715 16:14:02.493820 13860 net.cpp:84] Creating Layer relu5_1
I0715 16:14:02.493826 13860 net.cpp:406] relu5_1 <- conv5_1
I0715 16:14:02.493834 13860 net.cpp:367] relu5_1 -> conv5_1 (in-place)
I0715 16:14:02.494720 13860 net.cpp:122] Setting up relu5_1
I0715 16:14:02.494741 13860 net.cpp:129] Top shape: 1 512 45 45 (1036800)
I0715 16:14:02.494755 13860 net.cpp:137] Memory required for data: 1188162828
I0715 16:14:02.494760 13860 layer_factory.hpp:77] Creating layer conv5_2
I0715 16:14:02.494772 13860 net.cpp:84] Creating Layer conv5_2
I0715 16:14:02.494778 13860 net.cpp:406] conv5_2 <- conv5_1
I0715 16:14:02.494789 13860 net.cpp:380] conv5_2 -> conv5_2
I0715 16:14:02.503564 13860 net.cpp:122] Setting up conv5_2
I0715 16:14:02.503621 13860 net.cpp:129] Top shape: 1 512 45 45 (1036800)
I0715 16:14:02.503625 13860 net.cpp:137] Memory required for data: 1192310028
I0715 16:14:02.503636 13860 layer_factory.hpp:77] Creating layer relu5_2
I0715 16:14:02.503659 13860 net.cpp:84] Creating Layer relu5_2
I0715 16:14:02.503664 13860 net.cpp:406] relu5_2 <- conv5_2
I0715 16:14:02.503688 13860 net.cpp:367] relu5_2 -> conv5_2 (in-place)
I0715 16:14:02.504619 13860 net.cpp:122] Setting up relu5_2
I0715 16:14:02.504649 13860 net.cpp:129] Top shape: 1 512 45 45 (1036800)
I0715 16:14:02.504653 13860 net.cpp:137] Memory required for data: 1196457228
I0715 16:14:02.504657 13860 layer_factory.hpp:77] Creating layer conv5_3
I0715 16:14:02.504676 13860 net.cpp:84] Creating Layer conv5_3
I0715 16:14:02.504680 13860 net.cpp:406] conv5_3 <- conv5_2
I0715 16:14:02.504686 13860 net.cpp:380] conv5_3 -> conv5_3
I0715 16:14:02.519206 13860 net.cpp:122] Setting up conv5_3
I0715 16:14:02.519258 13860 net.cpp:129] Top shape: 1 512 45 45 (1036800)
I0715 16:14:02.519261 13860 net.cpp:137] Memory required for data: 1200604428
I0715 16:14:02.519316 13860 layer_factory.hpp:77] Creating layer relu5_3
I0715 16:14:02.519330 13860 net.cpp:84] Creating Layer relu5_3
I0715 16:14:02.519336 13860 net.cpp:406] relu5_3 <- conv5_3
I0715 16:14:02.519368 13860 net.cpp:367] relu5_3 -> conv5_3 (in-place)
I0715 16:14:02.519603 13860 net.cpp:122] Setting up relu5_3
I0715 16:14:02.519618 13860 net.cpp:129] Top shape: 1 512 45 45 (1036800)
I0715 16:14:02.519624 13860 net.cpp:137] Memory required for data: 1204751628
I0715 16:14:02.519630 13860 layer_factory.hpp:77] Creating layer pool5
I0715 16:14:02.519651 13860 net.cpp:84] Creating Layer pool5
I0715 16:14:02.519659 13860 net.cpp:406] pool5 <- conv5_3
I0715 16:14:02.519670 13860 net.cpp:380] pool5 -> pool5
I0715 16:14:02.519744 13860 net.cpp:122] Setting up pool5
I0715 16:14:02.519757 13860 net.cpp:129] Top shape: 1 512 23 23 (270848)
I0715 16:14:02.519762 13860 net.cpp:137] Memory required for data: 1205835020
I0715 16:14:02.519767 13860 layer_factory.hpp:77] Creating layer fc6
I0715 16:14:02.519788 13860 net.cpp:84] Creating Layer fc6
I0715 16:14:02.519795 13860 net.cpp:406] fc6 <- pool5
I0715 16:14:02.519804 13860 net.cpp:380] fc6 -> fc6
I0715 16:14:02.838148 13860 net.cpp:122] Setting up fc6
I0715 16:14:02.838196 13860 net.cpp:129] Top shape: 1 4096 17 17 (1183744)
I0715 16:14:02.838201 13860 net.cpp:137] Memory required for data: 1210569996
I0715 16:14:02.838213 13860 layer_factory.hpp:77] Creating layer relu6
I0715 16:14:02.838227 13860 net.cpp:84] Creating Layer relu6
I0715 16:14:02.838232 13860 net.cpp:406] relu6 <- fc6
I0715 16:14:02.838238 13860 net.cpp:367] relu6 -> fc6 (in-place)
I0715 16:14:02.838433 13860 net.cpp:122] Setting up relu6
I0715 16:14:02.838451 13860 net.cpp:129] Top shape: 1 4096 17 17 (1183744)
I0715 16:14:02.838454 13860 net.cpp:137] Memory required for data: 1215304972
I0715 16:14:02.838460 13860 layer_factory.hpp:77] Creating layer drop6
I0715 16:14:02.838474 13860 net.cpp:84] Creating Layer drop6
I0715 16:14:02.838477 13860 net.cpp:406] drop6 <- fc6
I0715 16:14:02.838485 13860 net.cpp:367] drop6 -> fc6 (in-place)
I0715 16:14:02.838516 13860 net.cpp:122] Setting up drop6
I0715 16:14:02.838521 13860 net.cpp:129] Top shape: 1 4096 17 17 (1183744)
I0715 16:14:02.838524 13860 net.cpp:137] Memory required for data: 1220039948
I0715 16:14:02.838527 13860 layer_factory.hpp:77] Creating layer fc7
I0715 16:14:02.838538 13860 net.cpp:84] Creating Layer fc7
I0715 16:14:02.838541 13860 net.cpp:406] fc7 <- fc6
I0715 16:14:02.838546 13860 net.cpp:380] fc7 -> fc7
I0715 16:14:02.890063 13860 net.cpp:122] Setting up fc7
I0715 16:14:02.890107 13860 net.cpp:129] Top shape: 1 4096 17 17 (1183744)
I0715 16:14:02.890111 13860 net.cpp:137] Memory required for data: 1224774924
I0715 16:14:02.890122 13860 layer_factory.hpp:77] Creating layer relu7
I0715 16:14:02.890136 13860 net.cpp:84] Creating Layer relu7
I0715 16:14:02.890141 13860 net.cpp:406] relu7 <- fc7
I0715 16:14:02.890148 13860 net.cpp:367] relu7 -> fc7 (in-place)
I0715 16:14:02.890802 13860 net.cpp:122] Setting up relu7
I0715 16:14:02.890815 13860 net.cpp:129] Top shape: 1 4096 17 17 (1183744)
I0715 16:14:02.890835 13860 net.cpp:137] Memory required for data: 1229509900
I0715 16:14:02.890838 13860 layer_factory.hpp:77] Creating layer drop7
I0715 16:14:02.890848 13860 net.cpp:84] Creating Layer drop7
I0715 16:14:02.890851 13860 net.cpp:406] drop7 <- fc7
I0715 16:14:02.890856 13860 net.cpp:367] drop7 -> fc7 (in-place)
I0715 16:14:02.890888 13860 net.cpp:122] Setting up drop7
I0715 16:14:02.890908 13860 net.cpp:129] Top shape: 1 4096 17 17 (1183744)
I0715 16:14:02.890910 13860 net.cpp:137] Memory required for data: 1234244876
I0715 16:14:02.890916 13860 layer_factory.hpp:77] Creating layer score_fr-new
I0715 16:14:02.890928 13860 net.cpp:84] Creating Layer score_fr-new
I0715 16:14:02.890931 13860 net.cpp:406] score_fr-new <- fc7
I0715 16:14:02.890938 13860 net.cpp:380] score_fr-new -> score_fr-new
I0715 16:14:02.892319 13860 net.cpp:122] Setting up score_fr-new
I0715 16:14:02.892349 13860 net.cpp:129] Top shape: 1 3 17 17 (867)
I0715 16:14:02.892354 13860 net.cpp:137] Memory required for data: 1234248344
I0715 16:14:02.892359 13860 layer_factory.hpp:77] Creating layer upscore2-new
I0715 16:14:02.892374 13860 net.cpp:84] Creating Layer upscore2-new
I0715 16:14:02.892379 13860 net.cpp:406] upscore2-new <- score_fr-new
I0715 16:14:02.892387 13860 net.cpp:380] upscore2-new -> upscore2-new
I0715 16:14:02.892586 13860 net.cpp:122] Setting up upscore2-new
I0715 16:14:02.892594 13860 net.cpp:129] Top shape: 1 3 36 36 (3888)
I0715 16:14:02.892597 13860 net.cpp:137] Memory required for data: 1234263896
I0715 16:14:02.892611 13860 layer_factory.hpp:77] Creating layer upscore2-new_upscore2-new_0_split
I0715 16:14:02.892616 13860 net.cpp:84] Creating Layer upscore2-new_upscore2-new_0_split
I0715 16:14:02.892621 13860 net.cpp:406] upscore2-new_upscore2-new_0_split <- upscore2-new
I0715 16:14:02.892627 13860 net.cpp:380] upscore2-new_upscore2-new_0_split -> upscore2-new_upscore2-new_0_split_0
I0715 16:14:02.892632 13860 net.cpp:380] upscore2-new_upscore2-new_0_split -> upscore2-new_upscore2-new_0_split_1
I0715 16:14:02.892681 13860 net.cpp:122] Setting up upscore2-new_upscore2-new_0_split
I0715 16:14:02.892686 13860 net.cpp:129] Top shape: 1 3 36 36 (3888)
I0715 16:14:02.892690 13860 net.cpp:129] Top shape: 1 3 36 36 (3888)
I0715 16:14:02.892693 13860 net.cpp:137] Memory required for data: 1234295000
I0715 16:14:02.892696 13860 layer_factory.hpp:77] Creating layer score_pool4-new
I0715 16:14:02.892707 13860 net.cpp:84] Creating Layer score_pool4-new
I0715 16:14:02.892714 13860 net.cpp:406] score_pool4-new <- pool4_pool4_0_split_1
I0715 16:14:02.892719 13860 net.cpp:380] score_pool4-new -> score_pool4-new
I0715 16:14:02.894022 13860 net.cpp:122] Setting up score_pool4-new
I0715 16:14:02.894035 13860 net.cpp:129] Top shape: 1 3 45 45 (6075)
I0715 16:14:02.894055 13860 net.cpp:137] Memory required for data: 1234319300
I0715 16:14:02.894062 13860 layer_factory.hpp:77] Creating layer score_pool4c
I0715 16:14:02.894070 13860 net.cpp:84] Creating Layer score_pool4c
I0715 16:14:02.894074 13860 net.cpp:406] score_pool4c <- score_pool4-new
I0715 16:14:02.894081 13860 net.cpp:406] score_pool4c <- upscore2-new_upscore2-new_0_split_0
I0715 16:14:02.894088 13860 net.cpp:380] score_pool4c -> score_pool4c
I0715 16:14:02.894117 13860 net.cpp:122] Setting up score_pool4c
I0715 16:14:02.894122 13860 net.cpp:129] Top shape: 1 3 36 36 (3888)
I0715 16:14:02.894125 13860 net.cpp:137] Memory required for data: 1234334852
I0715 16:14:02.894129 13860 layer_factory.hpp:77] Creating layer fuse_pool4
I0715 16:14:02.894141 13860 net.cpp:84] Creating Layer fuse_pool4
I0715 16:14:02.894145 13860 net.cpp:406] fuse_pool4 <- upscore2-new_upscore2-new_0_split_1
I0715 16:14:02.894148 13860 net.cpp:406] fuse_pool4 <- score_pool4c
I0715 16:14:02.894155 13860 net.cpp:380] fuse_pool4 -> fuse_pool4
I0715 16:14:02.894182 13860 net.cpp:122] Setting up fuse_pool4
I0715 16:14:02.894186 13860 net.cpp:129] Top shape: 1 3 36 36 (3888)
I0715 16:14:02.894189 13860 net.cpp:137] Memory required for data: 1234350404
I0715 16:14:02.894192 13860 layer_factory.hpp:77] Creating layer upscore_pool4-new
I0715 16:14:02.894201 13860 net.cpp:84] Creating Layer upscore_pool4-new
I0715 16:14:02.894206 13860 net.cpp:406] upscore_pool4-new <- fuse_pool4
I0715 16:14:02.894212 13860 net.cpp:380] upscore_pool4-new -> upscore_pool4-new
I0715 16:14:02.894407 13860 net.cpp:122] Setting up upscore_pool4-new
I0715 16:14:02.894417 13860 net.cpp:129] Top shape: 1 3 74 74 (16428)
I0715 16:14:02.894419 13860 net.cpp:137] Memory required for data: 1234416116
I0715 16:14:02.894423 13860 layer_factory.hpp:77] Creating layer upscore_pool4-new_upscore_pool4-new_0_split
I0715 16:14:02.894429 13860 net.cpp:84] Creating Layer upscore_pool4-new_upscore_pool4-new_0_split
I0715 16:14:02.894433 13860 net.cpp:406] upscore_pool4-new_upscore_pool4-new_0_split <- upscore_pool4-new
I0715 16:14:02.894438 13860 net.cpp:380] upscore_pool4-new_upscore_pool4-new_0_split -> upscore_pool4-new_upscore_pool4-new_0_split_0
I0715 16:14:02.894444 13860 net.cpp:380] upscore_pool4-new_upscore_pool4-new_0_split -> upscore_pool4-new_upscore_pool4-new_0_split_1
I0715 16:14:02.894476 13860 net.cpp:122] Setting up upscore_pool4-new_upscore_pool4-new_0_split
I0715 16:14:02.894480 13860 net.cpp:129] Top shape: 1 3 74 74 (16428)
I0715 16:14:02.894484 13860 net.cpp:129] Top shape: 1 3 74 74 (16428)
I0715 16:14:02.894487 13860 net.cpp:137] Memory required for data: 1234547540
I0715 16:14:02.894492 13860 layer_factory.hpp:77] Creating layer score_pool3-new
I0715 16:14:02.894501 13860 net.cpp:84] Creating Layer score_pool3-new
I0715 16:14:02.894505 13860 net.cpp:406] score_pool3-new <- pool3_pool3_0_split_1
I0715 16:14:02.894512 13860 net.cpp:380] score_pool3-new -> score_pool3-new
I0715 16:14:02.897536 13860 net.cpp:122] Setting up score_pool3-new
I0715 16:14:02.897603 13860 net.cpp:129] Top shape: 1 3 89 89 (23763)
I0715 16:14:02.897611 13860 net.cpp:137] Memory required for data: 1234642592
I0715 16:14:02.897631 13860 layer_factory.hpp:77] Creating layer score_pool3c
I0715 16:14:02.897692 13860 net.cpp:84] Creating Layer score_pool3c
I0715 16:14:02.897707 13860 net.cpp:406] score_pool3c <- score_pool3-new
I0715 16:14:02.897725 13860 net.cpp:406] score_pool3c <- upscore_pool4-new_upscore_pool4-new_0_split_0
I0715 16:14:02.897740 13860 net.cpp:380] score_pool3c -> score_pool3c
I0715 16:14:02.897826 13860 net.cpp:122] Setting up score_pool3c
I0715 16:14:02.897840 13860 net.cpp:129] Top shape: 1 3 74 74 (16428)
I0715 16:14:02.897852 13860 net.cpp:137] Memory required for data: 1234708304
I0715 16:14:02.897859 13860 layer_factory.hpp:77] Creating layer fuse_pool3
I0715 16:14:02.897883 13860 net.cpp:84] Creating Layer fuse_pool3
I0715 16:14:02.897893 13860 net.cpp:406] fuse_pool3 <- upscore_pool4-new_upscore_pool4-new_0_split_1
I0715 16:14:02.897903 13860 net.cpp:406] fuse_pool3 <- score_pool3c
I0715 16:14:02.897917 13860 net.cpp:380] fuse_pool3 -> fuse_pool3
I0715 16:14:02.897969 13860 net.cpp:122] Setting up fuse_pool3
I0715 16:14:02.897980 13860 net.cpp:129] Top shape: 1 3 74 74 (16428)
I0715 16:14:02.897989 13860 net.cpp:137] Memory required for data: 1234774016
I0715 16:14:02.898007 13860 layer_factory.hpp:77] Creating layer upscore8-new
I0715 16:14:02.898032 13860 net.cpp:84] Creating Layer upscore8-new
I0715 16:14:02.898043 13860 net.cpp:406] upscore8-new <- fuse_pool3
I0715 16:14:02.898054 13860 net.cpp:380] upscore8-new -> upscore8-new
I0715 16:14:02.898519 13860 net.cpp:122] Setting up upscore8-new
I0715 16:14:02.898535 13860 net.cpp:129] Top shape: 1 3 600 600 (1080000)
I0715 16:14:02.898543 13860 net.cpp:137] Memory required for data: 1239094016
I0715 16:14:02.898561 13860 layer_factory.hpp:77] Creating layer upscore8_cropped
I0715 16:14:02.898574 13860 net.cpp:84] Creating Layer upscore8_cropped
I0715 16:14:02.898584 13860 net.cpp:406] upscore8_cropped <- upscore8-new
I0715 16:14:02.898594 13860 net.cpp:406] upscore8_cropped <- data_data_0_split_1
I0715 16:14:02.898607 13860 net.cpp:380] upscore8_cropped -> upscore8_cropped
I0715 16:14:02.898658 13860 net.cpp:122] Setting up upscore8_cropped
I0715 16:14:02.898671 13860 net.cpp:129] Top shape: 1 3 512 512 (786432)
I0715 16:14:02.898677 13860 net.cpp:137] Memory required for data: 1242239744
I0715 16:14:02.898692 13860 layer_factory.hpp:77] Creating layer upscore8_cropped_upscore8_cropped_0_split
I0715 16:14:02.898702 13860 net.cpp:84] Creating Layer upscore8_cropped_upscore8_cropped_0_split
I0715 16:14:02.898710 13860 net.cpp:406] upscore8_cropped_upscore8_cropped_0_split <- upscore8_cropped
I0715 16:14:02.898722 13860 net.cpp:380] upscore8_cropped_upscore8_cropped_0_split -> upscore8_cropped_upscore8_cropped_0_split_0
I0715 16:14:02.898735 13860 net.cpp:380] upscore8_cropped_upscore8_cropped_0_split -> upscore8_cropped_upscore8_cropped_0_split_1
I0715 16:14:02.898808 13860 net.cpp:122] Setting up upscore8_cropped_upscore8_cropped_0_split
I0715 16:14:02.898821 13860 net.cpp:129] Top shape: 1 3 512 512 (786432)
I0715 16:14:02.898833 13860 net.cpp:129] Top shape: 1 3 512 512 (786432)
I0715 16:14:02.898839 13860 net.cpp:137] Memory required for data: 1248531200
I0715 16:14:02.898845 13860 layer_factory.hpp:77] Creating layer prob
I0715 16:14:02.898860 13860 net.cpp:84] Creating Layer prob
I0715 16:14:02.898870 13860 net.cpp:406] prob <- upscore8_cropped_upscore8_cropped_0_split_0
I0715 16:14:02.898880 13860 net.cpp:380] prob -> prob
I0715 16:14:02.899374 13860 net.cpp:122] Setting up prob
I0715 16:14:02.899407 13860 net.cpp:129] Top shape: 1 3 512 512 (786432)
I0715 16:14:02.899413 13860 net.cpp:137] Memory required for data: 1251676928
I0715 16:14:02.899443 13860 layer_factory.hpp:77] Creating layer saliency1
I0715 16:14:02.899472 13860 net.cpp:84] Creating Layer saliency1
I0715 16:14:02.899483 13860 net.cpp:406] saliency1 <- prob
I0715 16:14:02.899497 13860 net.cpp:380] saliency1 -> saliency1
I0715 16:14:02.909657 13860 net.cpp:122] Setting up saliency1
I0715 16:14:02.909693 13860 net.cpp:129] Top shape: 1 3 512 512 (786432)
I0715 16:14:02.909698 13860 net.cpp:137] Memory required for data: 1254822656
I0715 16:14:02.909708 13860 layer_factory.hpp:77] Creating layer relu_saliency1
I0715 16:14:02.909720 13860 net.cpp:84] Creating Layer relu_saliency1
I0715 16:14:02.909727 13860 net.cpp:406] relu_saliency1 <- saliency1
I0715 16:14:02.909735 13860 net.cpp:367] relu_saliency1 -> saliency1 (in-place)
I0715 16:14:02.910087 13860 net.cpp:122] Setting up relu_saliency1
I0715 16:14:02.910100 13860 net.cpp:129] Top shape: 1 3 512 512 (786432)
I0715 16:14:02.910105 13860 net.cpp:137] Memory required for data: 1257968384
I0715 16:14:02.910109 13860 layer_factory.hpp:77] Creating layer saliency
I0715 16:14:02.910125 13860 net.cpp:84] Creating Layer saliency
I0715 16:14:02.910130 13860 net.cpp:406] saliency <- saliency1
I0715 16:14:02.910140 13860 net.cpp:380] saliency -> saliency
I0715 16:14:02.913730 13860 net.cpp:122] Setting up saliency
I0715 16:14:02.913777 13860 net.cpp:129] Top shape: 1 3 512 512 (786432)
I0715 16:14:02.913786 13860 net.cpp:137] Memory required for data: 1261114112
I0715 16:14:02.913808 13860 layer_factory.hpp:77] Creating layer silence_saliency
I0715 16:14:02.913826 13860 net.cpp:84] Creating Layer silence_saliency
I0715 16:14:02.913836 13860 net.cpp:406] silence_saliency <- saliency
I0715 16:14:02.913848 13860 net.cpp:122] Setting up silence_saliency
I0715 16:14:02.913854 13860 net.cpp:137] Memory required for data: 1261114112
I0715 16:14:02.913864 13860 layer_factory.hpp:77] Creating layer crop
I0715 16:14:02.915061 13860 net.cpp:84] Creating Layer crop
I0715 16:14:02.915082 13860 net.cpp:406] crop <- label_data_1_split_0
I0715 16:14:02.915102 13860 net.cpp:406] crop <- data_data_0_split_2
I0715 16:14:02.915112 13860 net.cpp:406] crop <- crop_margin
I0715 16:14:02.915120 13860 net.cpp:406] crop <- crop_prob
I0715 16:14:02.915128 13860 net.cpp:406] crop <- crop_sample_batch
I0715 16:14:02.915140 13860 net.cpp:380] crop -> data-R
I0715 16:14:02.915156 13860 net.cpp:380] crop -> crop_info
I0715 16:14:02.926944 13860 net.cpp:122] Setting up crop
I0715 16:14:02.926980 13860 net.cpp:129] Top shape: 1 3 512 512 (786432)
I0715 16:14:02.926985 13860 net.cpp:129] Top shape: 1 2 4 (8)
I0715 16:14:02.926990 13860 net.cpp:137] Memory required for data: 1264259872
I0715 16:14:02.926993 13860 layer_factory.hpp:77] Creating layer data-R_crop_0_split
I0715 16:14:02.927001 13860 net.cpp:84] Creating Layer data-R_crop_0_split
I0715 16:14:02.927006 13860 net.cpp:406] data-R_crop_0_split <- data-R
I0715 16:14:02.927012 13860 net.cpp:380] data-R_crop_0_split -> data-R_crop_0_split_0
I0715 16:14:02.927021 13860 net.cpp:380] data-R_crop_0_split -> data-R_crop_0_split_1
I0715 16:14:02.927076 13860 net.cpp:122] Setting up data-R_crop_0_split
I0715 16:14:02.927081 13860 net.cpp:129] Top shape: 1 3 512 512 (786432)
I0715 16:14:02.927085 13860 net.cpp:129] Top shape: 1 3 512 512 (786432)
I0715 16:14:02.927088 13860 net.cpp:137] Memory required for data: 1270551328
I0715 16:14:02.927091 13860 layer_factory.hpp:77] Creating layer conv1_1-R
I0715 16:14:02.927101 13860 net.cpp:84] Creating Layer conv1_1-R
I0715 16:14:02.927105 13860 net.cpp:406] conv1_1-R <- data-R_crop_0_split_0
I0715 16:14:02.927115 13860 net.cpp:380] conv1_1-R -> conv1_1-R
I0715 16:14:02.936462 13860 net.cpp:122] Setting up conv1_1-R
I0715 16:14:02.936519 13860 net.cpp:129] Top shape: 1 64 710 710 (32262400)
I0715 16:14:02.936528 13860 net.cpp:137] Memory required for data: 1399600928
I0715 16:14:02.936549 13860 layer_factory.hpp:77] Creating layer relu1_1-R
I0715 16:14:02.936614 13860 net.cpp:84] Creating Layer relu1_1-R
I0715 16:14:02.936625 13860 net.cpp:406] relu1_1-R <- conv1_1-R
I0715 16:14:02.936636 13860 net.cpp:367] relu1_1-R -> conv1_1-R (in-place)
I0715 16:14:02.937106 13860 net.cpp:122] Setting up relu1_1-R
I0715 16:14:02.937127 13860 net.cpp:129] Top shape: 1 64 710 710 (32262400)
I0715 16:14:02.937144 13860 net.cpp:137] Memory required for data: 1528650528
I0715 16:14:02.937170 13860 layer_factory.hpp:77] Creating layer conv1_2-R
I0715 16:14:02.937202 13860 net.cpp:84] Creating Layer conv1_2-R
I0715 16:14:02.937211 13860 net.cpp:406] conv1_2-R <- conv1_1-R
I0715 16:14:02.937223 13860 net.cpp:380] conv1_2-R -> conv1_2-R
I0715 16:14:02.943011 13860 net.cpp:122] Setting up conv1_2-R
I0715 16:14:02.943051 13860 net.cpp:129] Top shape: 1 64 710 710 (32262400)
I0715 16:14:02.943060 13860 net.cpp:137] Memory required for data: 1657700128
I0715 16:14:02.943075 13860 layer_factory.hpp:77] Creating layer relu1_2-R
I0715 16:14:02.943091 13860 net.cpp:84] Creating Layer relu1_2-R
I0715 16:14:02.943099 13860 net.cpp:406] relu1_2-R <- conv1_2-R
I0715 16:14:02.943120 13860 net.cpp:367] relu1_2-R -> conv1_2-R (in-place)
I0715 16:14:02.944141 13860 net.cpp:122] Setting up relu1_2-R
I0715 16:14:02.944155 13860 net.cpp:129] Top shape: 1 64 710 710 (32262400)
I0715 16:14:02.944175 13860 net.cpp:137] Memory required for data: 1786749728
I0715 16:14:02.944178 13860 layer_factory.hpp:77] Creating layer pool1-R
I0715 16:14:02.944195 13860 net.cpp:84] Creating Layer pool1-R
I0715 16:14:02.944200 13860 net.cpp:406] pool1-R <- conv1_2-R
I0715 16:14:02.944205 13860 net.cpp:380] pool1-R -> pool1-R
I0715 16:14:02.944280 13860 net.cpp:122] Setting up pool1-R
I0715 16:14:02.944286 13860 net.cpp:129] Top shape: 1 64 355 355 (8065600)
I0715 16:14:02.944289 13860 net.cpp:137] Memory required for data: 1819012128
I0715 16:14:02.944293 13860 layer_factory.hpp:77] Creating layer conv2_1-R
I0715 16:14:02.944301 13860 net.cpp:84] Creating Layer conv2_1-R
I0715 16:14:02.944305 13860 net.cpp:406] conv2_1-R <- pool1-R
I0715 16:14:02.944313 13860 net.cpp:380] conv2_1-R -> conv2_1-R
I0715 16:14:02.945770 13860 net.cpp:122] Setting up conv2_1-R
I0715 16:14:02.945802 13860 net.cpp:129] Top shape: 1 128 355 355 (16131200)
I0715 16:14:02.945806 13860 net.cpp:137] Memory required for data: 1883536928
I0715 16:14:02.945821 13860 layer_factory.hpp:77] Creating layer relu2_1-R
I0715 16:14:02.945827 13860 net.cpp:84] Creating Layer relu2_1-R
I0715 16:14:02.945832 13860 net.cpp:406] relu2_1-R <- conv2_1-R
I0715 16:14:02.945838 13860 net.cpp:367] relu2_1-R -> conv2_1-R (in-place)
I0715 16:14:02.946547 13860 net.cpp:122] Setting up relu2_1-R
I0715 16:14:02.946560 13860 net.cpp:129] Top shape: 1 128 355 355 (16131200)
I0715 16:14:02.946581 13860 net.cpp:137] Memory required for data: 1948061728
I0715 16:14:02.946585 13860 layer_factory.hpp:77] Creating layer conv2_2-R
I0715 16:14:02.946594 13860 net.cpp:84] Creating Layer conv2_2-R
I0715 16:14:02.946599 13860 net.cpp:406] conv2_2-R <- conv2_1-R
I0715 16:14:02.946607 13860 net.cpp:380] conv2_2-R -> conv2_2-R
I0715 16:14:02.968281 13860 net.cpp:122] Setting up conv2_2-R
I0715 16:14:02.968353 13860 net.cpp:129] Top shape: 1 128 355 355 (16131200)
I0715 16:14:02.968366 13860 net.cpp:137] Memory required for data: 2012586528
I0715 16:14:02.968420 13860 layer_factory.hpp:77] Creating layer relu2_2-R
I0715 16:14:02.968454 13860 net.cpp:84] Creating Layer relu2_2-R
I0715 16:14:02.968498 13860 net.cpp:406] relu2_2-R <- conv2_2-R
I0715 16:14:02.968518 13860 net.cpp:367] relu2_2-R -> conv2_2-R (in-place)
I0715 16:14:02.969044 13860 net.cpp:122] Setting up relu2_2-R
I0715 16:14:02.969063 13860 net.cpp:129] Top shape: 1 128 355 355 (16131200)
I0715 16:14:02.969079 13860 net.cpp:137] Memory required for data: 2077111328
I0715 16:14:02.969086 13860 layer_factory.hpp:77] Creating layer pool2-R
I0715 16:14:02.969103 13860 net.cpp:84] Creating Layer pool2-R
I0715 16:14:02.969111 13860 net.cpp:406] pool2-R <- conv2_2-R
I0715 16:14:02.969159 13860 net.cpp:380] pool2-R -> pool2-R
I0715 16:14:02.969290 13860 net.cpp:122] Setting up pool2-R
I0715 16:14:02.969305 13860 net.cpp:129] Top shape: 1 128 178 178 (4055552)
I0715 16:14:02.969312 13860 net.cpp:137] Memory required for data: 2093333536
I0715 16:14:02.969321 13860 layer_factory.hpp:77] Creating layer conv3_1-R
I0715 16:14:02.969348 13860 net.cpp:84] Creating Layer conv3_1-R
I0715 16:14:02.969357 13860 net.cpp:406] conv3_1-R <- pool2-R
I0715 16:14:02.969368 13860 net.cpp:380] conv3_1-R -> conv3_1-R
I0715 16:14:02.980250 13860 net.cpp:122] Setting up conv3_1-R
I0715 16:14:02.980278 13860 net.cpp:129] Top shape: 1 256 178 178 (8111104)
I0715 16:14:02.980285 13860 net.cpp:137] Memory required for data: 2125777952
I0715 16:14:02.980303 13860 layer_factory.hpp:77] Creating layer relu3_1-R
I0715 16:14:02.980317 13860 net.cpp:84] Creating Layer relu3_1-R
I0715 16:14:02.980325 13860 net.cpp:406] relu3_1-R <- conv3_1-R
I0715 16:14:02.980335 13860 net.cpp:367] relu3_1-R -> conv3_1-R (in-place)
I0715 16:14:02.980727 13860 net.cpp:122] Setting up relu3_1-R
I0715 16:14:02.980744 13860 net.cpp:129] Top shape: 1 256 178 178 (8111104)
I0715 16:14:02.980751 13860 net.cpp:137] Memory required for data: 2158222368
I0715 16:14:02.980758 13860 layer_factory.hpp:77] Creating layer conv3_2-R
I0715 16:14:02.980777 13860 net.cpp:84] Creating Layer conv3_2-R
I0715 16:14:02.980784 13860 net.cpp:406] conv3_2-R <- conv3_1-R
I0715 16:14:02.980808 13860 net.cpp:380] conv3_2-R -> conv3_2-R
I0715 16:14:02.990100 13860 net.cpp:122] Setting up conv3_2-R
I0715 16:14:02.990171 13860 net.cpp:129] Top shape: 1 256 178 178 (8111104)
I0715 16:14:02.990180 13860 net.cpp:137] Memory required for data: 2190666784
I0715 16:14:02.990214 13860 layer_factory.hpp:77] Creating layer relu3_2-R
I0715 16:14:02.990242 13860 net.cpp:84] Creating Layer relu3_2-R
I0715 16:14:02.990254 13860 net.cpp:406] relu3_2-R <- conv3_2-R
I0715 16:14:02.990268 13860 net.cpp:367] relu3_2-R -> conv3_2-R (in-place)
I0715 16:14:02.990885 13860 net.cpp:122] Setting up relu3_2-R
I0715 16:14:02.990903 13860 net.cpp:129] Top shape: 1 256 178 178 (8111104)
I0715 16:14:02.990922 13860 net.cpp:137] Memory required for data: 2223111200
I0715 16:14:02.990942 13860 layer_factory.hpp:77] Creating layer conv3_3-R
I0715 16:14:02.990985 13860 net.cpp:84] Creating Layer conv3_3-R
I0715 16:14:02.990999 13860 net.cpp:406] conv3_3-R <- conv3_2-R
I0715 16:14:02.991011 13860 net.cpp:380] conv3_3-R -> conv3_3-R
I0715 16:14:02.998380 13860 net.cpp:122] Setting up conv3_3-R
I0715 16:14:02.998420 13860 net.cpp:129] Top shape: 1 256 178 178 (8111104)
I0715 16:14:02.998428 13860 net.cpp:137] Memory required for data: 2255555616
I0715 16:14:02.998443 13860 layer_factory.hpp:77] Creating layer relu3_3-R
I0715 16:14:02.998484 13860 net.cpp:84] Creating Layer relu3_3-R
I0715 16:14:02.998492 13860 net.cpp:406] relu3_3-R <- conv3_3-R
I0715 16:14:02.998510 13860 net.cpp:367] relu3_3-R -> conv3_3-R (in-place)
I0715 16:14:02.998983 13860 net.cpp:122] Setting up relu3_3-R
I0715 16:14:02.999001 13860 net.cpp:129] Top shape: 1 256 178 178 (8111104)
I0715 16:14:02.999018 13860 net.cpp:137] Memory required for data: 2288000032
I0715 16:14:02.999025 13860 layer_factory.hpp:77] Creating layer pool3-R
I0715 16:14:02.999063 13860 net.cpp:84] Creating Layer pool3-R
I0715 16:14:02.999071 13860 net.cpp:406] pool3-R <- conv3_3-R
I0715 16:14:02.999083 13860 net.cpp:380] pool3-R -> pool3-R
I0715 16:14:02.999202 13860 net.cpp:122] Setting up pool3-R
I0715 16:14:02.999215 13860 net.cpp:129] Top shape: 1 256 89 89 (2027776)
I0715 16:14:02.999228 13860 net.cpp:137] Memory required for data: 2296111136
I0715 16:14:02.999233 13860 layer_factory.hpp:77] Creating layer pool3-R_pool3-R_0_split
I0715 16:14:02.999243 13860 net.cpp:84] Creating Layer pool3-R_pool3-R_0_split
I0715 16:14:02.999256 13860 net.cpp:406] pool3-R_pool3-R_0_split <- pool3-R
I0715 16:14:02.999274 13860 net.cpp:380] pool3-R_pool3-R_0_split -> pool3-R_pool3-R_0_split_0
I0715 16:14:02.999301 13860 net.cpp:380] pool3-R_pool3-R_0_split -> pool3-R_pool3-R_0_split_1
I0715 16:14:02.999393 13860 net.cpp:122] Setting up pool3-R_pool3-R_0_split
I0715 16:14:02.999409 13860 net.cpp:129] Top shape: 1 256 89 89 (2027776)
I0715 16:14:02.999420 13860 net.cpp:129] Top shape: 1 256 89 89 (2027776)
I0715 16:14:02.999426 13860 net.cpp:137] Memory required for data: 2312333344
I0715 16:14:02.999440 13860 layer_factory.hpp:77] Creating layer conv4_1-R
I0715 16:14:02.999470 13860 net.cpp:84] Creating Layer conv4_1-R
I0715 16:14:02.999481 13860 net.cpp:406] conv4_1-R <- pool3-R_pool3-R_0_split_0
I0715 16:14:02.999508 13860 net.cpp:380] conv4_1-R -> conv4_1-R
I0715 16:14:03.009879 13860 net.cpp:122] Setting up conv4_1-R
I0715 16:14:03.009899 13860 net.cpp:129] Top shape: 1 512 89 89 (4055552)
I0715 16:14:03.009904 13860 net.cpp:137] Memory required for data: 2328555552
I0715 16:14:03.009927 13860 layer_factory.hpp:77] Creating layer relu4_1-R
I0715 16:14:03.009945 13860 net.cpp:84] Creating Layer relu4_1-R
I0715 16:14:03.009951 13860 net.cpp:406] relu4_1-R <- conv4_1-R
I0715 16:14:03.009958 13860 net.cpp:367] relu4_1-R -> conv4_1-R (in-place)
I0715 16:14:03.010915 13860 net.cpp:122] Setting up relu4_1-R
I0715 16:14:03.010933 13860 net.cpp:129] Top shape: 1 512 89 89 (4055552)
I0715 16:14:03.010938 13860 net.cpp:137] Memory required for data: 2344777760
I0715 16:14:03.010942 13860 layer_factory.hpp:77] Creating layer conv4_2-R
I0715 16:14:03.010962 13860 net.cpp:84] Creating Layer conv4_2-R
I0715 16:14:03.010967 13860 net.cpp:406] conv4_2-R <- conv4_1-R
I0715 16:14:03.010977 13860 net.cpp:380] conv4_2-R -> conv4_2-R
I0715 16:14:03.019860 13860 net.cpp:122] Setting up conv4_2-R
I0715 16:14:03.019882 13860 net.cpp:129] Top shape: 1 512 89 89 (4055552)
I0715 16:14:03.019901 13860 net.cpp:137] Memory required for data: 2360999968
I0715 16:14:03.019910 13860 layer_factory.hpp:77] Creating layer relu4_2-R
I0715 16:14:03.019927 13860 net.cpp:84] Creating Layer relu4_2-R
I0715 16:14:03.019943 13860 net.cpp:406] relu4_2-R <- conv4_2-R
I0715 16:14:03.019951 13860 net.cpp:367] relu4_2-R -> conv4_2-R (in-place)
I0715 16:14:03.020959 13860 net.cpp:122] Setting up relu4_2-R
I0715 16:14:03.020998 13860 net.cpp:129] Top shape: 1 512 89 89 (4055552)
I0715 16:14:03.021003 13860 net.cpp:137] Memory required for data: 2377222176
I0715 16:14:03.021014 13860 layer_factory.hpp:77] Creating layer conv4_3-R
I0715 16:14:03.021045 13860 net.cpp:84] Creating Layer conv4_3-R
I0715 16:14:03.021051 13860 net.cpp:406] conv4_3-R <- conv4_2-R
I0715 16:14:03.021072 13860 net.cpp:380] conv4_3-R -> conv4_3-R
I0715 16:14:03.031989 13860 net.cpp:122] Setting up conv4_3-R
I0715 16:14:03.032042 13860 net.cpp:129] Top shape: 1 512 89 89 (4055552)
I0715 16:14:03.032049 13860 net.cpp:137] Memory required for data: 2393444384
I0715 16:14:03.032063 13860 layer_factory.hpp:77] Creating layer relu4_3-R
I0715 16:14:03.032078 13860 net.cpp:84] Creating Layer relu4_3-R
I0715 16:14:03.032097 13860 net.cpp:406] relu4_3-R <- conv4_3-R
I0715 16:14:03.032109 13860 net.cpp:367] relu4_3-R -> conv4_3-R (in-place)
I0715 16:14:03.032400 13860 net.cpp:122] Setting up relu4_3-R
I0715 16:14:03.032416 13860 net.cpp:129] Top shape: 1 512 89 89 (4055552)
I0715 16:14:03.032421 13860 net.cpp:137] Memory required for data: 2409666592
I0715 16:14:03.032428 13860 layer_factory.hpp:77] Creating layer pool4-R
I0715 16:14:03.032444 13860 net.cpp:84] Creating Layer pool4-R
I0715 16:14:03.032449 13860 net.cpp:406] pool4-R <- conv4_3-R
I0715 16:14:03.032474 13860 net.cpp:380] pool4-R -> pool4-R
I0715 16:14:03.032550 13860 net.cpp:122] Setting up pool4-R
I0715 16:14:03.032562 13860 net.cpp:129] Top shape: 1 512 45 45 (1036800)
I0715 16:14:03.032567 13860 net.cpp:137] Memory required for data: 2413813792
I0715 16:14:03.032573 13860 layer_factory.hpp:77] Creating layer pool4-R_pool4-R_0_split
I0715 16:14:03.032582 13860 net.cpp:84] Creating Layer pool4-R_pool4-R_0_split
I0715 16:14:03.032588 13860 net.cpp:406] pool4-R_pool4-R_0_split <- pool4-R
I0715 16:14:03.032596 13860 net.cpp:380] pool4-R_pool4-R_0_split -> pool4-R_pool4-R_0_split_0
I0715 16:14:03.032606 13860 net.cpp:380] pool4-R_pool4-R_0_split -> pool4-R_pool4-R_0_split_1
I0715 16:14:03.032665 13860 net.cpp:122] Setting up pool4-R_pool4-R_0_split
I0715 16:14:03.032676 13860 net.cpp:129] Top shape: 1 512 45 45 (1036800)
I0715 16:14:03.032683 13860 net.cpp:129] Top shape: 1 512 45 45 (1036800)
I0715 16:14:03.032688 13860 net.cpp:137] Memory required for data: 2422108192
I0715 16:14:03.032694 13860 layer_factory.hpp:77] Creating layer conv5_1-R
I0715 16:14:03.032709 13860 net.cpp:84] Creating Layer conv5_1-R
I0715 16:14:03.032716 13860 net.cpp:406] conv5_1-R <- pool4-R_pool4-R_0_split_0
I0715 16:14:03.032726 13860 net.cpp:380] conv5_1-R -> conv5_1-R
I0715 16:14:03.043270 13860 net.cpp:122] Setting up conv5_1-R
I0715 16:14:03.043318 13860 net.cpp:129] Top shape: 1 512 45 45 (1036800)
I0715 16:14:03.043324 13860 net.cpp:137] Memory required for data: 2426255392
I0715 16:14:03.043442 13860 layer_factory.hpp:77] Creating layer relu5_1-R
I0715 16:14:03.043459 13860 net.cpp:84] Creating Layer relu5_1-R
I0715 16:14:03.043467 13860 net.cpp:406] relu5_1-R <- conv5_1-R
I0715 16:14:03.043475 13860 net.cpp:367] relu5_1-R -> conv5_1-R (in-place)
I0715 16:14:03.044468 13860 net.cpp:122] Setting up relu5_1-R
I0715 16:14:03.044486 13860 net.cpp:129] Top shape: 1 512 45 45 (1036800)
I0715 16:14:03.044490 13860 net.cpp:137] Memory required for data: 2430402592
I0715 16:14:03.044497 13860 layer_factory.hpp:77] Creating layer conv5_2-R
I0715 16:14:03.044517 13860 net.cpp:84] Creating Layer conv5_2-R
I0715 16:14:03.044523 13860 net.cpp:406] conv5_2-R <- conv5_1-R
I0715 16:14:03.044536 13860 net.cpp:380] conv5_2-R -> conv5_2-R
I0715 16:14:03.054708 13860 net.cpp:122] Setting up conv5_2-R
I0715 16:14:03.054728 13860 net.cpp:129] Top shape: 1 512 45 45 (1036800)
I0715 16:14:03.054733 13860 net.cpp:137] Memory required for data: 2434549792
I0715 16:14:03.054754 13860 layer_factory.hpp:77] Creating layer relu5_2-R
I0715 16:14:03.054765 13860 net.cpp:84] Creating Layer relu5_2-R
I0715 16:14:03.054771 13860 net.cpp:406] relu5_2-R <- conv5_2-R
I0715 16:14:03.054780 13860 net.cpp:367] relu5_2-R -> conv5_2-R (in-place)
I0715 16:14:03.055057 13860 net.cpp:122] Setting up relu5_2-R
I0715 16:14:03.055070 13860 net.cpp:129] Top shape: 1 512 45 45 (1036800)
I0715 16:14:03.055075 13860 net.cpp:137] Memory required for data: 2438696992
I0715 16:14:03.055083 13860 layer_factory.hpp:77] Creating layer conv5_3-R
I0715 16:14:03.055099 13860 net.cpp:84] Creating Layer conv5_3-R
I0715 16:14:03.055104 13860 net.cpp:406] conv5_3-R <- conv5_2-R
I0715 16:14:03.055114 13860 net.cpp:380] conv5_3-R -> conv5_3-R
I0715 16:14:03.064940 13860 net.cpp:122] Setting up conv5_3-R
I0715 16:14:03.064962 13860 net.cpp:129] Top shape: 1 512 45 45 (1036800)
I0715 16:14:03.064967 13860 net.cpp:137] Memory required for data: 2442844192
I0715 16:14:03.064977 13860 layer_factory.hpp:77] Creating layer relu5_3-R
I0715 16:14:03.064994 13860 net.cpp:84] Creating Layer relu5_3-R
I0715 16:14:03.064999 13860 net.cpp:406] relu5_3-R <- conv5_3-R
I0715 16:14:03.065006 13860 net.cpp:367] relu5_3-R -> conv5_3-R (in-place)
I0715 16:14:03.065285 13860 net.cpp:122] Setting up relu5_3-R
I0715 16:14:03.065299 13860 net.cpp:129] Top shape: 1 512 45 45 (1036800)
I0715 16:14:03.065304 13860 net.cpp:137] Memory required for data: 2446991392
I0715 16:14:03.065310 13860 layer_factory.hpp:77] Creating layer pool5-R
I0715 16:14:03.065321 13860 net.cpp:84] Creating Layer pool5-R
I0715 16:14:03.065327 13860 net.cpp:406] pool5-R <- conv5_3-R
I0715 16:14:03.065351 13860 net.cpp:380] pool5-R -> pool5-R
I0715 16:14:03.065421 13860 net.cpp:122] Setting up pool5-R
I0715 16:14:03.065434 13860 net.cpp:129] Top shape: 1 512 23 23 (270848)
I0715 16:14:03.065439 13860 net.cpp:137] Memory required for data: 2448074784
I0715 16:14:03.065444 13860 layer_factory.hpp:77] Creating layer fc6-R
I0715 16:14:03.065456 13860 net.cpp:84] Creating Layer fc6-R
I0715 16:14:03.065462 13860 net.cpp:406] fc6-R <- pool5-R
I0715 16:14:03.065479 13860 net.cpp:380] fc6-R -> fc6-R
I0715 16:14:03.415915 13860 net.cpp:122] Setting up fc6-R
I0715 16:14:03.415957 13860 net.cpp:129] Top shape: 1 4096 17 17 (1183744)
I0715 16:14:03.415963 13860 net.cpp:137] Memory required for data: 2452809760
I0715 16:14:03.415982 13860 layer_factory.hpp:77] Creating layer relu6-R
I0715 16:14:03.416008 13860 net.cpp:84] Creating Layer relu6-R
I0715 16:14:03.416016 13860 net.cpp:406] relu6-R <- fc6-R
I0715 16:14:03.416028 13860 net.cpp:367] relu6-R -> fc6-R (in-place)
I0715 16:14:03.418277 13860 net.cpp:122] Setting up relu6-R
I0715 16:14:03.418295 13860 net.cpp:129] Top shape: 1 4096 17 17 (1183744)
I0715 16:14:03.418300 13860 net.cpp:137] Memory required for data: 2457544736
I0715 16:14:03.418306 13860 layer_factory.hpp:77] Creating layer drop6-R
I0715 16:14:03.418324 13860 net.cpp:84] Creating Layer drop6-R
I0715 16:14:03.418329 13860 net.cpp:406] drop6-R <- fc6-R
I0715 16:14:03.418339 13860 net.cpp:367] drop6-R -> fc6-R (in-place)
I0715 16:14:03.418382 13860 net.cpp:122] Setting up drop6-R
I0715 16:14:03.418395 13860 net.cpp:129] Top shape: 1 4096 17 17 (1183744)
I0715 16:14:03.418401 13860 net.cpp:137] Memory required for data: 2462279712
I0715 16:14:03.418406 13860 layer_factory.hpp:77] Creating layer fc7-R
I0715 16:14:03.418422 13860 net.cpp:84] Creating Layer fc7-R
I0715 16:14:03.418427 13860 net.cpp:406] fc7-R <- fc6-R
I0715 16:14:03.418437 13860 net.cpp:380] fc7-R -> fc7-R
I0715 16:14:03.480799 13860 net.cpp:122] Setting up fc7-R
I0715 16:14:03.480840 13860 net.cpp:129] Top shape: 1 4096 17 17 (1183744)
I0715 16:14:03.480846 13860 net.cpp:137] Memory required for data: 2467014688
I0715 16:14:03.480872 13860 layer_factory.hpp:77] Creating layer relu7-R
I0715 16:14:03.480892 13860 net.cpp:84] Creating Layer relu7-R
I0715 16:14:03.480901 13860 net.cpp:406] relu7-R <- fc7-R
I0715 16:14:03.480912 13860 net.cpp:367] relu7-R -> fc7-R (in-place)
I0715 16:14:03.481945 13860 net.cpp:122] Setting up relu7-R
I0715 16:14:03.481962 13860 net.cpp:129] Top shape: 1 4096 17 17 (1183744)
I0715 16:14:03.481968 13860 net.cpp:137] Memory required for data: 2471749664
I0715 16:14:03.481976 13860 layer_factory.hpp:77] Creating layer drop7-R
I0715 16:14:03.481995 13860 net.cpp:84] Creating Layer drop7-R
I0715 16:14:03.482000 13860 net.cpp:406] drop7-R <- fc7-R
I0715 16:14:03.482010 13860 net.cpp:367] drop7-R -> fc7-R (in-place)
I0715 16:14:03.482067 13860 net.cpp:122] Setting up drop7-R
I0715 16:14:03.482079 13860 net.cpp:129] Top shape: 1 4096 17 17 (1183744)
I0715 16:14:03.482084 13860 net.cpp:137] Memory required for data: 2476484640
I0715 16:14:03.482089 13860 layer_factory.hpp:77] Creating layer score_fr-new-R
I0715 16:14:03.482102 13860 net.cpp:84] Creating Layer score_fr-new-R
I0715 16:14:03.482107 13860 net.cpp:406] score_fr-new-R <- fc7-R
I0715 16:14:03.482120 13860 net.cpp:380] score_fr-new-R -> score_fr-new-R
I0715 16:14:03.484361 13860 net.cpp:122] Setting up score_fr-new-R
I0715 16:14:03.484381 13860 net.cpp:129] Top shape: 1 3 17 17 (867)
I0715 16:14:03.484387 13860 net.cpp:137] Memory required for data: 2476488108
I0715 16:14:03.484405 13860 layer_factory.hpp:77] Creating layer upscore2-new-R
I0715 16:14:03.484417 13860 net.cpp:84] Creating Layer upscore2-new-R
I0715 16:14:03.484423 13860 net.cpp:406] upscore2-new-R <- score_fr-new-R
I0715 16:14:03.484436 13860 net.cpp:380] upscore2-new-R -> upscore2-new-R
I0715 16:14:03.484855 13860 net.cpp:122] Setting up upscore2-new-R
I0715 16:14:03.484874 13860 net.cpp:129] Top shape: 1 3 36 36 (3888)
I0715 16:14:03.484879 13860 net.cpp:137] Memory required for data: 2476503660
I0715 16:14:03.484886 13860 layer_factory.hpp:77] Creating layer upscore2-new-R_upscore2-new-R_0_split
I0715 16:14:03.484897 13860 net.cpp:84] Creating Layer upscore2-new-R_upscore2-new-R_0_split
I0715 16:14:03.484905 13860 net.cpp:406] upscore2-new-R_upscore2-new-R_0_split <- upscore2-new-R
I0715 16:14:03.484912 13860 net.cpp:380] upscore2-new-R_upscore2-new-R_0_split -> upscore2-new-R_upscore2-new-R_0_split_0
I0715 16:14:03.484925 13860 net.cpp:380] upscore2-new-R_upscore2-new-R_0_split -> upscore2-new-R_upscore2-new-R_0_split_1
I0715 16:14:03.485013 13860 net.cpp:122] Setting up upscore2-new-R_upscore2-new-R_0_split
I0715 16:14:03.485028 13860 net.cpp:129] Top shape: 1 3 36 36 (3888)
I0715 16:14:03.485033 13860 net.cpp:129] Top shape: 1 3 36 36 (3888)
I0715 16:14:03.485038 13860 net.cpp:137] Memory required for data: 2476534764
I0715 16:14:03.485044 13860 layer_factory.hpp:77] Creating layer score_pool4-new-R
I0715 16:14:03.485059 13860 net.cpp:84] Creating Layer score_pool4-new-R
I0715 16:14:03.485064 13860 net.cpp:406] score_pool4-new-R <- pool4-R_pool4-R_0_split_1
I0715 16:14:03.485075 13860 net.cpp:380] score_pool4-new-R -> score_pool4-new-R
I0715 16:14:03.487048 13860 net.cpp:122] Setting up score_pool4-new-R
I0715 16:14:03.487066 13860 net.cpp:129] Top shape: 1 3 45 45 (6075)
I0715 16:14:03.487071 13860 net.cpp:137] Memory required for data: 2476559064
I0715 16:14:03.487089 13860 layer_factory.hpp:77] Creating layer score_pool4c-R
I0715 16:14:03.487099 13860 net.cpp:84] Creating Layer score_pool4c-R
I0715 16:14:03.487105 13860 net.cpp:406] score_pool4c-R <- score_pool4-new-R
I0715 16:14:03.487112 13860 net.cpp:406] score_pool4c-R <- upscore2-new-R_upscore2-new-R_0_split_0
I0715 16:14:03.487120 13860 net.cpp:380] score_pool4c-R -> score_pool4c-R
I0715 16:14:03.487159 13860 net.cpp:122] Setting up score_pool4c-R
I0715 16:14:03.487171 13860 net.cpp:129] Top shape: 1 3 36 36 (3888)
I0715 16:14:03.487175 13860 net.cpp:137] Memory required for data: 2476574616
I0715 16:14:03.487180 13860 layer_factory.hpp:77] Creating layer fuse_pool4-R
I0715 16:14:03.487190 13860 net.cpp:84] Creating Layer fuse_pool4-R
I0715 16:14:03.487195 13860 net.cpp:406] fuse_pool4-R <- upscore2-new-R_upscore2-new-R_0_split_1
I0715 16:14:03.487201 13860 net.cpp:406] fuse_pool4-R <- score_pool4c-R
I0715 16:14:03.487208 13860 net.cpp:380] fuse_pool4-R -> fuse_pool4-R
I0715 16:14:03.487244 13860 net.cpp:122] Setting up fuse_pool4-R
I0715 16:14:03.487252 13860 net.cpp:129] Top shape: 1 3 36 36 (3888)
I0715 16:14:03.487257 13860 net.cpp:137] Memory required for data: 2476590168
I0715 16:14:03.487260 13860 layer_factory.hpp:77] Creating layer upscore_pool4-new-R
I0715 16:14:03.487272 13860 net.cpp:84] Creating Layer upscore_pool4-new-R
I0715 16:14:03.487300 13860 net.cpp:406] upscore_pool4-new-R <- fuse_pool4-R
I0715 16:14:03.487310 13860 net.cpp:380] upscore_pool4-new-R -> upscore_pool4-new-R
I0715 16:14:03.487653 13860 net.cpp:122] Setting up upscore_pool4-new-R
I0715 16:14:03.487664 13860 net.cpp:129] Top shape: 1 3 74 74 (16428)
I0715 16:14:03.487669 13860 net.cpp:137] Memory required for data: 2476655880
I0715 16:14:03.487676 13860 layer_factory.hpp:77] Creating layer upscore_pool4-new-R_upscore_pool4-new-R_0_split
I0715 16:14:03.487686 13860 net.cpp:84] Creating Layer upscore_pool4-new-R_upscore_pool4-new-R_0_split
I0715 16:14:03.487691 13860 net.cpp:406] upscore_pool4-new-R_upscore_pool4-new-R_0_split <- upscore_pool4-new-R
I0715 16:14:03.487699 13860 net.cpp:380] upscore_pool4-new-R_upscore_pool4-new-R_0_split -> upscore_pool4-new-R_upscore_pool4-new-R_0_split_0
I0715 16:14:03.487709 13860 net.cpp:380] upscore_pool4-new-R_upscore_pool4-new-R_0_split -> upscore_pool4-new-R_upscore_pool4-new-R_0_split_1
I0715 16:14:03.487762 13860 net.cpp:122] Setting up upscore_pool4-new-R_upscore_pool4-new-R_0_split
I0715 16:14:03.487783 13860 net.cpp:129] Top shape: 1 3 74 74 (16428)
I0715 16:14:03.487790 13860 net.cpp:129] Top shape: 1 3 74 74 (16428)
I0715 16:14:03.487794 13860 net.cpp:137] Memory required for data: 2476787304
I0715 16:14:03.487799 13860 layer_factory.hpp:77] Creating layer score_pool3-new-R
I0715 16:14:03.487812 13860 net.cpp:84] Creating Layer score_pool3-new-R
I0715 16:14:03.487818 13860 net.cpp:406] score_pool3-new-R <- pool3-R_pool3-R_0_split_1
I0715 16:14:03.487828 13860 net.cpp:380] score_pool3-new-R -> score_pool3-new-R
I0715 16:14:03.489109 13860 net.cpp:122] Setting up score_pool3-new-R
I0715 16:14:03.489125 13860 net.cpp:129] Top shape: 1 3 89 89 (23763)
I0715 16:14:03.489130 13860 net.cpp:137] Memory required for data: 2476882356
I0715 16:14:03.489150 13860 layer_factory.hpp:77] Creating layer score_pool3c-R
I0715 16:14:03.489161 13860 net.cpp:84] Creating Layer score_pool3c-R
I0715 16:14:03.489167 13860 net.cpp:406] score_pool3c-R <- score_pool3-new-R
I0715 16:14:03.489176 13860 net.cpp:406] score_pool3c-R <- upscore_pool4-new-R_upscore_pool4-new-R_0_split_0
I0715 16:14:03.489183 13860 net.cpp:380] score_pool3c-R -> score_pool3c-R
I0715 16:14:03.489223 13860 net.cpp:122] Setting up score_pool3c-R
I0715 16:14:03.489233 13860 net.cpp:129] Top shape: 1 3 74 74 (16428)
I0715 16:14:03.489238 13860 net.cpp:137] Memory required for data: 2476948068
I0715 16:14:03.489244 13860 layer_factory.hpp:77] Creating layer fuse_pool3-R
I0715 16:14:03.489253 13860 net.cpp:84] Creating Layer fuse_pool3-R
I0715 16:14:03.489259 13860 net.cpp:406] fuse_pool3-R <- upscore_pool4-new-R_upscore_pool4-new-R_0_split_1
I0715 16:14:03.489266 13860 net.cpp:406] fuse_pool3-R <- score_pool3c-R
I0715 16:14:03.489274 13860 net.cpp:380] fuse_pool3-R -> fuse_pool3-R
I0715 16:14:03.489307 13860 net.cpp:122] Setting up fuse_pool3-R
I0715 16:14:03.489315 13860 net.cpp:129] Top shape: 1 3 74 74 (16428)
I0715 16:14:03.489320 13860 net.cpp:137] Memory required for data: 2477013780
I0715 16:14:03.489325 13860 layer_factory.hpp:77] Creating layer upscore8-new-R
I0715 16:14:03.489337 13860 net.cpp:84] Creating Layer upscore8-new-R
I0715 16:14:03.489342 13860 net.cpp:406] upscore8-new-R <- fuse_pool3-R
I0715 16:14:03.489357 13860 net.cpp:380] upscore8-new-R -> upscore8-new-R
I0715 16:14:03.489676 13860 net.cpp:122] Setting up upscore8-new-R
I0715 16:14:03.489688 13860 net.cpp:129] Top shape: 1 3 600 600 (1080000)
I0715 16:14:03.489693 13860 net.cpp:137] Memory required for data: 2481333780
I0715 16:14:03.489699 13860 layer_factory.hpp:77] Creating layer upscore8_cropped-R
I0715 16:14:03.489724 13860 net.cpp:84] Creating Layer upscore8_cropped-R
I0715 16:14:03.489730 13860 net.cpp:406] upscore8_cropped-R <- upscore8-new-R
I0715 16:14:03.489739 13860 net.cpp:406] upscore8_cropped-R <- data-R_crop_0_split_1
I0715 16:14:03.489748 13860 net.cpp:380] upscore8_cropped-R -> upscore8_cropped-R
I0715 16:14:03.489783 13860 net.cpp:122] Setting up upscore8_cropped-R
I0715 16:14:03.489790 13860 net.cpp:129] Top shape: 1 3 512 512 (786432)
I0715 16:14:03.489794 13860 net.cpp:137] Memory required for data: 2484479508
I0715 16:14:03.489800 13860 layer_factory.hpp:77] Creating layer upscore8_uncropped-R
I0715 16:14:03.490424 13860 net.cpp:84] Creating Layer upscore8_uncropped-R
I0715 16:14:03.490439 13860 net.cpp:406] upscore8_uncropped-R <- crop_info
I0715 16:14:03.490447 13860 net.cpp:406] upscore8_uncropped-R <- upscore8_cropped-R
I0715 16:14:03.490454 13860 net.cpp:406] upscore8_uncropped-R <- data_data_0_split_3
I0715 16:14:03.490463 13860 net.cpp:380] upscore8_uncropped-R -> upscore8_uncropped-R
I0715 16:14:03.493496 13860 net.cpp:122] Setting up upscore8_uncropped-R
I0715 16:14:03.493513 13860 net.cpp:129] Top shape: 1 3 512 512 (786432)
I0715 16:14:03.493518 13860 net.cpp:137] Memory required for data: 2487625236
I0715 16:14:03.493523 13860 layer_factory.hpp:77] Creating layer loss1
I0715 16:14:03.493552 13860 net.cpp:84] Creating Layer loss1
I0715 16:14:03.493557 13860 net.cpp:406] loss1 <- upscore8_cropped_upscore8_cropped_0_split_1
I0715 16:14:03.493564 13860 net.cpp:406] loss1 <- label_data_1_split_1
I0715 16:14:03.493579 13860 net.cpp:380] loss1 -> loss1
…
snapshot_prefix: "/media/Med_2T2/data2/models/snapshots/indiv:1e-5x10,20/FD1:ZI3_1_20180715_091943/train"
test_initialization: false
average_loss: 20
stepvalue: 40000
iter_size: 1
I0715 17:13:37.856058 13860 solver.cpp:77] Creating training net from train_net file: /media/Med_2T2/data2/prototxts/training_I3x10.prototxt
I0715 17:13:37.858146 13860 net.cpp:51] Initializing net from parameters: 
state {
  phase: TRAIN
}
layer {
  name: "data"
  type: "Python"
  top: "data"
  top: "label"
  top: "crop_margin"
  top: "crop_prob"
  top: "crop_sample_batch"
  python_param {
    module: "Data"
    layer: "DataLayer"
  }
}
layer {
  name: "conv1_1"
  type: "Convolution"
  bottom: "data"
  top: "conv1_1"
  param {
    lr_mult: 1
    decay_mult: 1
  }
  param {
    lr_mult: 2
    decay_mult: 0
  }
  convolution_param {
    num_output: 64
    pad: 100
    kernel_size: 3
    stride: 1
  }
}
layer {
  name: "relu1_1"
  type: "ReLU"
  bottom: "conv1_1"
  top: "conv1_1"
}
layer {
  name: "conv1_2"
  type: "Convolution"
  bottom: "conv1_1"
  top: "conv1_2"
  param {
    lr_mult: 1
    decay_mult: 1
  }
  param {
    lr_mult: 2
    decay_mult: 0
  }
  convolution_param {
    num_output: 64
    pad: 1
    kernel_size: 3
    stride: 1
  }
}
layer {
  name: "relu1_2"
  type: "ReLU"
  bottom: "conv1_2"
  top: "conv1_2"
}
layer {
  name: "pool1"
  type: "Pooling"
  bottom: "conv1_2"
  top: "pool1"
  pooling_param {
    pool: MAX
    kernel_size: 2
    stride: 2
  }
}
layer {
  name: "conv2_1"
  type: "Convolution"
  bottom: "pool1"
  top: "conv2_1"
  param {
    lr_mult: 1
    decay_mult: 1
  }
  param {
    lr_mult: 2
    decay_mult: 0
  }
  convolution_param {
    num_output: 128
    pad: 1
    kernel_size: 3
    stride: 1
  }
}
layer {
  name: "relu2_1"
  type: "ReLU"
  bottom: "conv2_1"
  top: "conv2_1"
}
layer {
  name: "conv2_2"
  type: "Convolution"
  bottom: "conv2_1"
  top: "conv2_2"
  param {
    lr_mult: 1
    decay_mult: 1
  }
  param {
    lr_mult: 2
    decay_mult: 0
  }
  convolution_param {
    num_output: 128
    pad: 1
    kernel_size: 3
    stride: 1
  }
}
layer {
  name: "relu2_2"
  type: "ReLU"
  bottom: "conv2_2"
  top: "conv2_2"
}
layer {
  name: "pool2"
  type: "Pooling"
  bottom: "conv2_2"
  top: "pool2"
  pooling_param {
    pool: MAX
    kernel_size: 2
    stride: 2
  }
}
layer {
  name: "conv3_1"
  type: "Convolution"
  bottom: "pool2"
  top: "conv3_1"
  param {
    lr_mult: 1
    decay_mult: 1
  }
  param {
    lr_mult: 2
    decay_mult: 0
  }
  convolution_param {
    num_output: 256
    pad: 1
    kernel_size: 3
    stride: 1
  }
}
layer {
  name: "relu3_1"
  type: "ReLU"
  bottom: "conv3_1"
  top: "conv3_1"
}
layer {
  name: "conv3_2"
  type: "Convolution"
  bottom: "conv3_1"
  top: "conv3_2"
  param {
    lr_mult: 1
    decay_mult: 1
  }
  param {
    lr_mult: 2
    decay_mult: 0
  }
  convolution_param {
    num_output: 256
    pad: 1
    kernel_size: 3
    stride: 1
  }
}
layer {
  name: "relu3_2"
  type: "ReLU"
  bottom: "conv3_2"
  top: "conv3_2"
}
layer {
  name: "conv3_3"
  type: "Convolution"
  bottom: "conv3_2"
  top: "conv3_3"
  param {
    lr_mult: 1
    decay_mult: 1
  }
  param {
    lr_mult: 2
    decay_mult: 0
  }
  convolution_param {
    num_output: 256
    pad: 1
    kernel_size: 3
    stride: 1
  }
}
layer {
  name: "relu3_3"
  type: "ReLU"
  bottom: "conv3_3"
  top: "conv3_3"
}
layer {
  name: "pool3"
  type: "Pooling"
  bottom: "conv3_3"
  top: "pool3"
  pooling_param {
    pool: MAX
    kernel_size: 2
    stride: 2
  }
}
layer {
  name: "conv4_1"
  type: "Convolution"
  bottom: "pool3"
  top: "conv4_1"
  param {
    lr_mult: 1
    decay_mult: 1
  }
  param {
    lr_mult: 2
    decay_mult: 0
  }
  convolution_param {
    num_output: 512
    pad: 1
    kernel_size: 3
    stride: 1
  }
}
layer {
  name: "relu4_1"
  type: "ReLU"
  bottom: "conv4_1"
  top: "conv4_1"
}
layer {
  name: "conv4_2"
  type: "Convolution"
  bottom: "conv4_1"
  top: "conv4_2"
  param {
    lr_mult: 1
    decay_mult: 1
  }
  param {
    lr_mult: 2
    decay_mult: 0
  }
  convolution_param {
    num_output: 512
    pad: 1
    kernel_size: 3
    stride: 1
  }
}
layer {
  name: "relu4_2"
  type: "ReLU"
  bottom: "conv4_2"
  top: "conv4_2"
}
layer {
  name: "conv4_3"
  type: "Convolution"
  bottom: "conv4_2"
  top: "conv4_3"
  param {
    lr_mult: 1
    decay_mult: 1
  }
  param {
    lr_mult: 2
    decay_mult: 0
  }
  convolution_param {
    num_output: 512
    pad: 1
    kernel_size: 3
    stride: 1
  }
}
layer {
  name: "relu4_3"
  type: "ReLU"
  bottom: "conv4_3"
  top: "conv4_3"
}
layer {
  name: "pool4"
  type: "Pooling"
  bottom: "conv4_3"
  top: "pool4"
  pooling_param {
    pool: MAX
    kernel_size: 2
    stride: 2
  }
}
layer {
  name: "conv5_1"
  type: "Convolution"
  bottom: "pool4"
  top: "conv5_1"
  param {
    lr_mult: 1
    decay_mult: 1
  }
  param {
    lr_mult: 2
    decay_mult: 0
  }
  convolution_param {
    num_output: 512
    pad: 1
    kernel_size: 3
    stride: 1
  }
}
layer {
  name: "relu5_1"
  type: "ReLU"
  bottom: "conv5_1"
  top: "conv5_1"
}
layer {
  name: "conv5_2"
  type: "Convolution"
  bottom: "conv5_1"
  top: "conv5_2"
  param {
    lr_mult: 1
    decay_mult: 1
  }
  param {
    lr_mult: 2
    decay_mult: 0
  }
  convolution_param {
    num_output: 512
    pad: 1
    kernel_size: 3
    stride: 1
  }
}
layer {
  name: "relu5_2"
  type: "ReLU"
  bottom: "conv5_2"
  top: "conv5_2"
}
layer {
  name: "conv5_3"
  type: "Convolution"
  bottom: "conv5_2"
  top: "conv5_3"
  param {
    lr_mult: 1
    decay_mult: 1
  }
  param {
    lr_mult: 2
    decay_mult: 0
  }
  convolution_param {
    num_output: 512
    pad: 1
    kernel_size: 3
    stride: 1
  }
}
layer {
  name: "relu5_3"
  type: "ReLU"
  bottom: "conv5_3"
  top: "conv5_3"
}
layer {
  name: "pool5"
  type: "Pooling"
  bottom: "conv5_3"
  top: "pool5"
  pooling_param {
    pool: MAX
    kernel_size: 2
    stride: 2
  }
}
layer {
  name: "fc6"
  type: "Convolution"
  bottom: "pool5"
  top: "fc6"
  param {
    lr_mult: 1
    decay_mult: 1
  }
  param {
    lr_mult: 2
    decay_mult: 0
  }
  convolution_param {
    num_output: 4096
    pad: 0
    kernel_size: 7
    stride: 1
  }
}
layer {
  name: "relu6"
  type: "ReLU"
  bottom: "fc6"
  top: "fc6"
}
layer {
  name: "drop6"
  type: "Dropout"
  bottom: "fc6"
  top: "fc6"
  dropout_param {
    dropout_ratio: 0.5
  }
}
layer {
  name: "fc7"
  type: "Convolution"
  bottom: "fc6"
  top: "fc7"
  param {
    lr_mult: 1
    decay_mult: 1
  }
  param {
    lr_mult: 2
    decay_mult: 0
  }
  convolution_param {
    num_output: 4096
    pad: 0
    kernel_size: 1
    stride: 1
  }
}
layer {
  name: "relu7"
  type: "ReLU"
  bottom: "fc7"
  top: "fc7"
}
layer {
  name: "drop7"
  type: "Dropout"
  bottom: "fc7"
  top: "fc7"
  dropout_param {
    dropout_ratio: 0.5
  }
}
layer {
  name: "score_fr-new"
  type: "Convolution"
  bottom: "fc7"
  top: "score_fr-new"
  param {
    lr_mult: 1
    decay_mult: 1
  }
  param {
    lr_mult: 2
    decay_mult: 0
  }
  convolution_param {
    num_output: 3
    kernel_size: 1
  }
}
layer {
  name: "upscore2-new"
  type: "Deconvolution"
  bottom: "score_fr-new"
  top: "upscore2-new"
  param {
    lr_mult: 0
  }
  convolution_param {
    num_output: 3
    bias_term: false
    kernel_size: 4
    stride: 2
  }
}
layer {
  name: "score_pool4-new"
  type: "Convolution"
  bottom: "pool4"
  top: "score_pool4-new"
  param {
    lr_mult: 1
    decay_mult: 1
  }
  param {
    lr_mult: 2
    decay_mult: 0
  }
  convolution_param {
    num_output: 3
    pad: 0
    kernel_size: 1
  }
}
layer {
  name: "score_pool4c"
  type: "Crop"
  bottom: "score_pool4-new"
  bottom: "upscore2-new"
  top: "score_pool4c"
  crop_param {
    axis: 2
    offset: 5
  }
}
layer {
  name: "fuse_pool4"
  type: "Eltwise"
  bottom: "upscore2-new"
  bottom: "score_pool4c"
  top: "fuse_pool4"
  eltwise_param {
    operation: SUM
  }
}
layer {
  name: "upscore_pool4-new"
  type: "Deconvolution"
  bottom: "fuse_pool4"
  top: "upscore_pool4-new"
  param {
    lr_mult: 0
  }
  convolution_param {
    num_output: 3
    bias_term: false
    kernel_size: 4
    stride: 2
  }
}
layer {
  name: "score_pool3-new"
  type: "Convolution"
  bottom: "pool3"
  top: "score_pool3-new"
  param {
    lr_mult: 1
    decay_mult: 1
  }
  param {
    lr_mult: 2
    decay_mult: 0
  }
  convolution_param {
    num_output: 3
    pad: 0
    kernel_size: 1
  }
}
layer {
  name: "score_pool3c"
  type: "Crop"
  bottom: "score_pool3-new"
  bottom: "upscore_pool4-new"
  top: "score_pool3c"
  crop_param {
    axis: 2
    offset: 9
  }
}
layer {
  name: "fuse_pool3"
  type: "Eltwise"
  bottom: "upscore_pool4-new"
  bottom: "score_pool3c"
  top: "fuse_pool3"
  eltwise_param {
    operation: SUM
  }
}
layer {
  name: "upscore8-new"
  type: "Deconvolution"
  bottom: "fuse_pool3"
  top: "upscore8-new"
  param {
    lr_mult: 0
  }
  convolution_param {
    num_output: 3
    bias_term: false
    kernel_size: 16
    stride: 8
  }
}
layer {
  name: "upscore8_cropped"
  type: "Crop"
  bottom: "upscore8-new"
  bottom: "data"
  top: "upscore8_cropped"
  crop_param {
    axis: 2
    offset: 31
  }
}
layer {
  name: "prob"
  type: "Sigmoid"
  bottom: "upscore8_cropped"
  top: "prob"
}
layer {
  name: "saliency1"
  type: "Convolution"
  bottom: "prob"
  top: "saliency1"
  param {
    lr_mult: 10
    decay_mult: 1
  }
  param {
    lr_mult: 20
    decay_mult: 0
  }
  convolution_param {
    num_output: 3
    pad: 1
    kernel_size: 3
    stride: 1
    weight_filler {
      type: "xavier"
    }
    bias_filler {
      type: "constant"
      value: 1
    }
  }
}
layer {
  name: "relu_saliency1"
  type: "ReLU"
  bottom: "saliency1"
  top: "saliency1"
}
layer {
  name: "saliency"
  type: "Convolution"
  bottom: "saliency1"
  top: "saliency"
  param {
    lr_mult: 10
    decay_mult: 1
  }
  param {
    lr_mult: 20
    decay_mult: 0
  }
  convolution_param {
    num_output: 3
    pad: 2
    kernel_size: 5
    stride: 1
    weight_filler {
      type: "xavier"
    }
    bias_filler {
      type: "constant"
      value: 1
    }
  }
}
layer {
  name: "saliency_data"
  type: "Eltwise"
  bottom: "data"
  bottom: "saliency"
  top: "saliency_data"
  eltwise_param {
    operation: PROD
  }
}
layer {
  name: "crop"
  type: "Python"
  bottom: "label"
  bottom: "saliency_data"
  bottom: "crop_margin"
  bottom: "crop_prob"
  bottom: "crop_sample_batch"
  top: "data-R"
  top: "crop_info"
  python_param {
    module: "Crop"
    layer: "CropLayer"
    param_str: "{\"TEST\": 0}"
  }
}
layer {
  name: "conv1_1-R"
  type: "Convolution"
  bottom: "data-R"
  top: "conv1_1-R"
  param {
    lr_mult: 10
    decay_mult: 1
  }
  param {
    lr_mult: 20
    decay_mult: 0
  }
  convolution_param {
    num_output: 64
    pad: 100
    kernel_size: 3
    stride: 1
  }
}
layer {
  name: "relu1_1-R"
  type: "ReLU"
  bottom: "conv1_1-R"
  top: "conv1_1-R"
}
layer {
  name: "conv1_2-R"
  type: "Convolution"
  bottom: "conv1_1-R"
  top: "conv1_2-R"
  param {
    lr_mult: 10
    decay_mult: 1
  }
  param {
    lr_mult: 20
    decay_mult: 0
  }
  convolution_param {
    num_output: 64
    pad: 1
    kernel_size: 3
    stride: 1
  }
}
layer {
  name: "relu1_2-R"
  type: "ReLU"
  bottom: "conv1_2-R"
  top: "conv1_2-R"
}
layer {
  name: "pool1-R"
  type: "Pooling"
  bottom: "conv1_2-R"
  top: "pool1-R"
  pooling_param {
    pool: MAX
    kernel_size: 2
    stride: 2
  }
}
layer {
  name: "conv2_1-R"
  type: "Convolution"
  bottom: "pool1-R"
  top: "conv2_1-R"
  param {
    lr_mult: 10
    decay_mult: 1
  }
  param {
    lr_mult: 20
    decay_mult: 0
  }
  convolution_param {
    num_output: 128
    pad: 1
    kernel_size: 3
    stride: 1
  }
}
layer {
  name: "relu2_1-R"
  type: "ReLU"
  bottom: "conv2_1-R"
  top: "conv2_1-R"
}
layer {
  name: "conv2_2-R"
  type: "Convolution"
  bottom: "conv2_1-R"
  top: "conv2_2-R"
  param {
    lr_mult: 10
    decay_mult: 1
  }
  param {
    lr_mult: 20
    decay_mult: 0
  }
  convolution_param {
    num_output: 128
    pad: 1
    kernel_size: 3
    stride: 1
  }
}
layer {
  name: "relu2_2-R"
  type: "ReLU"
  bottom: "conv2_2-R"
  top: "conv2_2-R"
}
layer {
  name: "pool2-R"
  type: "Pooling"
  bottom: "conv2_2-R"
  top: "pool2-R"
  pooling_param {
    pool: MAX
    kernel_size: 2
    stride: 2
  }
}
layer {
  name: "conv3_1-R"
  type: "Convolution"
  bottom: "pool2-R"
  top: "conv3_1-R"
  param {
    lr_mult: 10
    decay_mult: 1
  }
  param {
    lr_mult: 20
    decay_mult: 0
  }
  convolution_param {
    num_output: 256
    pad: 1
    kernel_size: 3
    stride: 1
  }
}
layer {
  name: "relu3_1-R"
  type: "ReLU"
  bottom: "conv3_1-R"
  top: "conv3_1-R"
}
layer {
  name: "conv3_2-R"
  type: "Convolution"
  bottom: "conv3_1-R"
  top: "conv3_2-R"
  param {
    lr_mult: 10
    decay_mult: 1
  }
  param {
    lr_mult: 20
    decay_mult: 0
  }
  convolution_param {
    num_output: 256
    pad: 1
    kernel_size: 3
    stride: 1
  }
}
layer {
  name: "relu3_2-R"
  type: "ReLU"
  bottom: "conv3_2-R"
  top: "conv3_2-R"
}
layer {
  name: "conv3_3-R"
  type: "Convolution"
  bottom: "conv3_2-R"
  top: "conv3_3-R"
  param {
    lr_mult: 10
    decay_mult: 1
  }
  param {
    lr_mult: 20
    decay_mult: 0
  }
  convolution_param {
    num_output: 256
    pad: 1
    kernel_size: 3
    stride: 1
  }
}
layer {
  name: "relu3_3-R"
  type: "ReLU"
  bottom: "conv3_3-R"
  top: "conv3_3-R"
}
layer {
  name: "pool3-R"
  type: "Pooling"
  bottom: "conv3_3-R"
  top: "pool3-R"
  pooling_param {
    pool: MAX
    kernel_size: 2
    stride: 2
  }
}
layer {
  name: "conv4_1-R"
  type: "Convolution"
  bottom: "pool3-R"
  top: "conv4_1-R"
  param {
    lr_mult: 10
    decay_mult: 1
  }
  param {
    lr_mult: 20
    decay_mult: 0
  }
  convolution_param {
    num_output: 512
    pad: 1
    kernel_size: 3
    stride: 1
  }
}
layer {
  name: "relu4_1-R"
  type: "ReLU"
  bottom: "conv4_1-R"
  top: "conv4_1-R"
}
layer {
  name: "conv4_2-R"
  type: "Convolution"
  bottom: "conv4_1-R"
  top: "conv4_2-R"
  param {
    lr_mult: 10
    decay_mult: 1
  }
  param {
    lr_mult: 20
    decay_mult: 0
  }
  convolution_param {
    num_output: 512
    pad: 1
    kernel_size: 3
    stride: 1
  }
}
layer {
  name: "relu4_2-R"
  type: "ReLU"
  bottom: "conv4_2-R"
  top: "conv4_2-R"
}
layer {
  name: "conv4_3-R"
  type: "Convolution"
  bottom: "conv4_2-R"
  top: "conv4_3-R"
  param {
    lr_mult: 10
    decay_mult: 1
  }
  param {
    lr_mult: 20
    decay_mult: 0
  }
  convolution_param {
    num_output: 512
    pad: 1
    kernel_size: 3
    stride: 1
  }
}
layer {
  name: "relu4_3-R"
  type: "ReLU"
  bottom: "conv4_3-R"
  top: "conv4_3-R"
}
layer {
  name: "pool4-R"
  type: "Pooling"
  bottom: "conv4_3-R"
  top: "pool4-R"
  pooling_param {
    pool: MAX
    kernel_size: 2
    stride: 2
  }
}
layer {
  name: "conv5_1-R"
  type: "Convolution"
  bottom: "pool4-R"
  top: "conv5_1-R"
  param {
    lr_mult: 10
    decay_mult: 1
  }
  param {
    lr_mult: 20
    decay_mult: 0
  }
  convolution_param {
    num_output: 512
    pad: 1
    kernel_size: 3
    stride: 1
  }
}
layer {
  name: "relu5_1-R"
  type: "ReLU"
  bottom: "conv5_1-R"
  top: "conv5_1-R"
}
layer {
  name: "conv5_2-R"
  type: "Convolution"
  bottom: "conv5_1-R"
  top: "conv5_2-R"
  param {
    lr_mult: 10
    decay_mult: 1
  }
  param {
    lr_mult: 20
    decay_mult: 0
  }
  convolution_param {
    num_output: 512
    pad: 1
    kernel_size: 3
    stride: 1
  }
}
layer {
  name: "relu5_2-R"
  type: "ReLU"
  bottom: "conv5_2-R"
  top: "conv5_2-R"
}
layer {
  name: "conv5_3-R"
  type: "Convolution"
  bottom: "conv5_2-R"
  top: "conv5_3-R"
  param {
    lr_mult: 10
    decay_mult: 1
  }
  param {
    lr_mult: 20
    decay_mult: 0
  }
  convolution_param {
    num_output: 512
    pad: 1
    kernel_size: 3
    stride: 1
  }
}
layer {
  name: "relu5_3-R"
  type: "ReLU"
  bottom: "conv5_3-R"
  top: "conv5_3-R"
}
layer {
  name: "pool5-R"
  type: "Pooling"
  bottom: "conv5_3-R"
  top: "pool5-R"
  pooling_param {
    pool: MAX
    kernel_size: 2
    stride: 2
  }
}
layer {
  name: "fc6-R"
  type: "Convolution"
  bottom: "pool5-R"
  top: "fc6-R"
  param {
    lr_mult: 10
    decay_mult: 1
  }
  param {
    lr_mult: 20
    decay_mult: 0
  }
  convolution_param {
    num_output: 4096
    pad: 0
    kernel_size: 7
    stride: 1
  }
}
layer {
  name: "relu6-R"
  type: "ReLU"
  bottom: "fc6-R"
  top: "fc6-R"
}
layer {
  name: "drop6-R"
  type: "Dropout"
  bottom: "fc6-R"
  top: "fc6-R"
  dropout_param {
    dropout_ratio: 0.5
  }
}
layer {
  name: "fc7-R"
  type: "Convolution"
  bottom: "fc6-R"
  top: "fc7-R"
  param {
    lr_mult: 10
    decay_mult: 1
  }
  param {
    lr_mult: 20
    decay_mult: 0
  }
  convolution_param {
    num_output: 4096
    pad: 0
    kernel_size: 1
    stride: 1
  }
}
layer {
  name: "relu7-R"
  type: "ReLU"
  bottom: "fc7-R"
  top: "fc7-R"
}
layer {
  name: "drop7-R"
  type: "Dropout"
  bottom: "fc7-R"
  top: "fc7-R"
  dropout_param {
    dropout_ratio: 0.5
  }
}
layer {
  name: "score_fr-new-R"
  type: "Convolution"
  bottom: "fc7-R"
  top: "score_fr-new-R"
  param {
    lr_mult: 10
    decay_mult: 1
  }
  param {
    lr_mult: 20
    decay_mult: 0
  }
  convolution_param {
    num_output: 3
    kernel_size: 1
  }
}
layer {
  name: "upscore2-new-R"
  type: "Deconvolution"
  bottom: "score_fr-new-R"
  top: "upscore2-new-R"
  param {
    lr_mult: 0
  }
  convolution_param {
    num_output: 3
    bias_term: false
    kernel_size: 4
    stride: 2
  }
}
layer {
  name: "score_pool4-new-R"
  type: "Convolution"
  bottom: "pool4-R"
  top: "score_pool4-new-R"
  param {
    lr_mult: 10
    decay_mult: 1
  }
  param {
    lr_mult: 20
    decay_mult: 0
  }
  convolution_param {
    num_output: 3
    pad: 0
    kernel_size: 1
  }
}
layer {
  name: "score_pool4c-R"
  type: "Crop"
  bottom: "score_pool4-new-R"
  bottom: "upscore2-new-R"
  top: "score_pool4c-R"
  crop_param {
    axis: 2
    offset: 5
  }
}
layer {
  name: "fuse_pool4-R"
  type: "Eltwise"
  bottom: "upscore2-new-R"
  bottom: "score_pool4c-R"
  top: "fuse_pool4-R"
  eltwise_param {
    operation: SUM
  }
}
layer {
  name: "upscore_pool4-new-R"
  type: "Deconvolution"
  bottom: "fuse_pool4-R"
  top: "upscore_pool4-new-R"
  param {
    lr_mult: 0
  }
  convolution_param {
    num_output: 3
    bias_term: false
    kernel_size: 4
    stride: 2
  }
}
layer {
  name: "score_pool3-new-R"
  type: "Convolution"
  bottom: "pool3-R"
  top: "score_pool3-new-R"
  param {
    lr_mult: 10
    decay_mult: 1
  }
  param {
    lr_mult: 20
    decay_mult: 0
  }
  convolution_param {
    num_output: 3
    pad: 0
    kernel_size: 1
  }
}
layer {
  name: "score_pool3c-R"
  type: "Crop"
  bottom: "score_pool3-new-R"
  bottom: "upscore_pool4-new-R"
  top: "score_pool3c-R"
  crop_param {
    axis: 2
    offset: 9
  }
}
layer {
  name: "fuse_pool3-R"
  type: "Eltwise"
  bottom: "upscore_pool4-new-R"
  bottom: "score_pool3c-R"
  top: "fuse_pool3-R"
  eltwise_param {
    operation: SUM
  }
}
layer {
  name: "upscore8-new-R"
  type: "Deconvolution"
  bottom: "fuse_pool3-R"
  top: "upscore8-new-R"
  param {
    lr_mult: 0
  }
  convolution_param {
    num_output: 3
    bias_term: false
    kernel_size: 16
    stride: 8
  }
}
layer {
  name: "upscore8_cropped-R"
  type: "Crop"
  bottom: "upscore8-new-R"
  bottom: "data-R"
  top: "upscore8_cropped-R"
  crop_param {
    axis: 2
    offset: 31
  }
}
layer {
  name: "upscore8_uncropped-R"
  type: "Python"
  bottom: "crop_info"
  bottom: "upscore8_cropped-R"
  bottom: "data"
  top: "upscore8_uncropped-R"
  python_param {
    module: "Uncrop"
    layer: "UncropLayer"
  }
}
layer {
  name: "loss1"
  type: "DiceLoss"
  bottom: "upscore8_cropped"
  bottom: "label"
  top: "loss1"
  loss_weight: 0.333333
}
layer {
  name: "loss2"
  type: "DiceLoss"
  bottom: "upscore8_uncropped-R"
  bottom: "label"
  top: "loss2"
  loss_weight: 0.666667
}
I0715 17:13:37.858523 13860 layer_factory.hpp:77] Creating layer data
I0715 17:13:37.858569 13860 net.cpp:84] Creating Layer data
I0715 17:13:37.858577 13860 net.cpp:380] data -> data
I0715 17:13:37.858584 13860 net.cpp:380] data -> label
I0715 17:13:37.858590 13860 net.cpp:380] data -> crop_margin
I0715 17:13:37.858597 13860 net.cpp:380] data -> crop_prob
I0715 17:13:37.858602 13860 net.cpp:380] data -> crop_sample_batch
I0715 17:13:37.924489 13860 net.cpp:122] Setting up data
I0715 17:13:37.924522 13860 net.cpp:129] Top shape: 1 3 512 512 (786432)
I0715 17:13:37.924528 13860 net.cpp:129] Top shape: 1 3 512 512 (786432)
I0715 17:13:37.924532 13860 net.cpp:129] Top shape: 1 (1)
I0715 17:13:37.924535 13860 net.cpp:129] Top shape: 1 (1)
I0715 17:13:37.924540 13860 net.cpp:129] Top shape: 1 (1)
I0715 17:13:37.924542 13860 net.cpp:137] Memory required for data: 6291468
I0715 17:13:37.924547 13860 layer_factory.hpp:77] Creating layer data_data_0_split
I0715 17:13:37.924576 13860 net.cpp:84] Creating Layer data_data_0_split
I0715 17:13:37.924580 13860 net.cpp:406] data_data_0_split <- data
I0715 17:13:37.924587 13860 net.cpp:380] data_data_0_split -> data_data_0_split_0
I0715 17:13:37.924597 13860 net.cpp:380] data_data_0_split -> data_data_0_split_1
I0715 17:13:37.924603 13860 net.cpp:380] data_data_0_split -> data_data_0_split_2
I0715 17:13:37.924608 13860 net.cpp:380] data_data_0_split -> data_data_0_split_3
I0715 17:13:37.924731 13860 net.cpp:122] Setting up data_data_0_split
I0715 17:13:37.924739 13860 net.cpp:129] Top shape: 1 3 512 512 (786432)
I0715 17:13:37.924743 13860 net.cpp:129] Top shape: 1 3 512 512 (786432)
I0715 17:13:37.924747 13860 net.cpp:129] Top shape: 1 3 512 512 (786432)
I0715 17:13:37.924751 13860 net.cpp:129] Top shape: 1 3 512 512 (786432)
I0715 17:13:37.924754 13860 net.cpp:137] Memory required for data: 18874380
I0715 17:13:37.924757 13860 layer_factory.hpp:77] Creating layer label_data_1_split
I0715 17:13:37.924762 13860 net.cpp:84] Creating Layer label_data_1_split
I0715 17:13:37.924767 13860 net.cpp:406] label_data_1_split <- label
I0715 17:13:37.924770 13860 net.cpp:380] label_data_1_split -> label_data_1_split_0
I0715 17:13:37.924777 13860 net.cpp:380] label_data_1_split -> label_data_1_split_1
I0715 17:13:37.924782 13860 net.cpp:380] label_data_1_split -> label_data_1_split_2
I0715 17:13:37.924849 13860 net.cpp:122] Setting up label_data_1_split
I0715 17:13:37.924856 13860 net.cpp:129] Top shape: 1 3 512 512 (786432)
I0715 17:13:37.924860 13860 net.cpp:129] Top shape: 1 3 512 512 (786432)
I0715 17:13:37.924863 13860 net.cpp:129] Top shape: 1 3 512 512 (786432)
I0715 17:13:37.924877 13860 net.cpp:137] Memory required for data: 28311564
I0715 17:13:37.924880 13860 layer_factory.hpp:77] Creating layer conv1_1
I0715 17:13:37.924890 13860 net.cpp:84] Creating Layer conv1_1
I0715 17:13:37.924893 13860 net.cpp:406] conv1_1 <- data_data_0_split_0
I0715 17:13:37.924899 13860 net.cpp:380] conv1_1 -> conv1_1
I0715 17:13:37.934376 13860 net.cpp:122] Setting up conv1_1
I0715 17:13:37.934394 13860 net.cpp:129] Top shape: 1 64 710 710 (32262400)
I0715 17:13:37.934398 13860 net.cpp:137] Memory required for data: 157361164
I0715 17:13:37.934425 13860 layer_factory.hpp:77] Creating layer relu1_1
I0715 17:13:37.934434 13860 net.cpp:84] Creating Layer relu1_1
I0715 17:13:37.934438 13860 net.cpp:406] relu1_1 <- conv1_1
I0715 17:13:37.934443 13860 net.cpp:367] relu1_1 -> conv1_1 (in-place)
I0715 17:13:37.935473 13860 net.cpp:122] Setting up relu1_1
I0715 17:13:37.935498 13860 net.cpp:129] Top shape: 1 64 710 710 (32262400)
I0715 17:13:37.935506 13860 net.cpp:137] Memory required for data: 286410764
I0715 17:13:37.935521 13860 layer_factory.hpp:77] Creating layer conv1_2
I0715 17:13:37.935537 13860 net.cpp:84] Creating Layer conv1_2
I0715 17:13:37.935544 13860 net.cpp:406] conv1_2 <- conv1_1
I0715 17:13:37.935557 13860 net.cpp:380] conv1_2 -> conv1_2
I0715 17:13:37.941956 13860 net.cpp:122] Setting up conv1_2
I0715 17:13:37.941982 13860 net.cpp:129] Top shape: 1 64 710 710 (32262400)
I0715 17:13:37.942003 13860 net.cpp:137] Memory required for data: 415460364
I0715 17:13:37.942021 13860 layer_factory.hpp:77] Creating layer relu1_2
I0715 17:13:37.942037 13860 net.cpp:84] Creating Layer relu1_2
I0715 17:13:37.942052 13860 net.cpp:406] relu1_2 <- conv1_2
I0715 17:13:37.942062 13860 net.cpp:367] relu1_2 -> conv1_2 (in-place)
I0715 17:13:37.942492 13860 net.cpp:122] Setting up relu1_2
I0715 17:13:37.942508 13860 net.cpp:129] Top shape: 1 64 710 710 (32262400)
I0715 17:13:37.942524 13860 net.cpp:137] Memory required for data: 544509964
I0715 17:13:37.942531 13860 layer_factory.hpp:77] Creating layer pool1
I0715 17:13:37.942554 13860 net.cpp:84] Creating Layer pool1
I0715 17:13:37.942560 13860 net.cpp:406] pool1 <- conv1_2
I0715 17:13:37.942570 13860 net.cpp:380] pool1 -> pool1
I0715 17:13:37.942687 13860 net.cpp:122] Setting up pool1
I0715 17:13:37.942703 13860 net.cpp:129] Top shape: 1 64 355 355 (8065600)
I0715 17:13:37.942708 13860 net.cpp:137] Memory required for data: 576772364
I0715 17:13:37.942714 13860 layer_factory.hpp:77] Creating layer conv2_1
I0715 17:13:37.942730 13860 net.cpp:84] Creating Layer conv2_1
I0715 17:13:37.942745 13860 net.cpp:406] conv2_1 <- pool1
I0715 17:13:37.942755 13860 net.cpp:380] conv2_1 -> conv2_1
I0715 17:13:37.946359 13860 net.cpp:122] Setting up conv2_1
I0715 17:13:37.946386 13860 net.cpp:129] Top shape: 1 128 355 355 (16131200)
I0715 17:13:37.946393 13860 net.cpp:137] Memory required for data: 641297164
I0715 17:13:37.946419 13860 layer_factory.hpp:77] Creating layer relu2_1
I0715 17:13:37.946442 13860 net.cpp:84] Creating Layer relu2_1
I0715 17:13:37.946449 13860 net.cpp:406] relu2_1 <- conv2_1
I0715 17:13:37.946460 13860 net.cpp:367] relu2_1 -> conv2_1 (in-place)
I0715 17:13:37.946857 13860 net.cpp:122] Setting up relu2_1
I0715 17:13:37.946874 13860 net.cpp:129] Top shape: 1 128 355 355 (16131200)
I0715 17:13:37.946887 13860 net.cpp:137] Memory required for data: 705821964
I0715 17:13:37.946892 13860 layer_factory.hpp:77] Creating layer conv2_2
I0715 17:13:37.946918 13860 net.cpp:84] Creating Layer conv2_2
I0715 17:13:37.946924 13860 net.cpp:406] conv2_2 <- conv2_1
I0715 17:13:37.946944 13860 net.cpp:380] conv2_2 -> conv2_2
I0715 17:13:37.951530 13860 net.cpp:122] Setting up conv2_2
I0715 17:13:37.951546 13860 net.cpp:129] Top shape: 1 128 355 355 (16131200)
I0715 17:13:37.951550 13860 net.cpp:137] Memory required for data: 770346764
I0715 17:13:37.951572 13860 layer_factory.hpp:77] Creating layer relu2_2
I0715 17:13:37.951578 13860 net.cpp:84] Creating Layer relu2_2
I0715 17:13:37.951582 13860 net.cpp:406] relu2_2 <- conv2_2
I0715 17:13:37.951587 13860 net.cpp:367] relu2_2 -> conv2_2 (in-place)
I0715 17:13:37.952489 13860 net.cpp:122] Setting up relu2_2
I0715 17:13:37.952502 13860 net.cpp:129] Top shape: 1 128 355 355 (16131200)
I0715 17:13:37.952504 13860 net.cpp:137] Memory required for data: 834871564
I0715 17:13:37.952507 13860 layer_factory.hpp:77] Creating layer pool2
I0715 17:13:37.952529 13860 net.cpp:84] Creating Layer pool2
I0715 17:13:37.952533 13860 net.cpp:406] pool2 <- conv2_2
I0715 17:13:37.952538 13860 net.cpp:380] pool2 -> pool2
I0715 17:13:37.952605 13860 net.cpp:122] Setting up pool2
I0715 17:13:37.952611 13860 net.cpp:129] Top shape: 1 128 178 178 (4055552)
I0715 17:13:37.952615 13860 net.cpp:137] Memory required for data: 851093772
I0715 17:13:37.952617 13860 layer_factory.hpp:77] Creating layer conv3_1
I0715 17:13:37.952625 13860 net.cpp:84] Creating Layer conv3_1
I0715 17:13:37.952628 13860 net.cpp:406] conv3_1 <- pool2
I0715 17:13:37.952633 13860 net.cpp:380] conv3_1 -> conv3_1
I0715 17:13:37.955035 13860 net.cpp:122] Setting up conv3_1
I0715 17:13:37.955047 13860 net.cpp:129] Top shape: 1 256 178 178 (8111104)
I0715 17:13:37.955051 13860 net.cpp:137] Memory required for data: 883538188
I0715 17:13:37.955075 13860 layer_factory.hpp:77] Creating layer relu3_1
I0715 17:13:37.955081 13860 net.cpp:84] Creating Layer relu3_1
I0715 17:13:37.955085 13860 net.cpp:406] relu3_1 <- conv3_1
I0715 17:13:37.955090 13860 net.cpp:367] relu3_1 -> conv3_1 (in-place)
I0715 17:13:37.955318 13860 net.cpp:122] Setting up relu3_1
I0715 17:13:37.955328 13860 net.cpp:129] Top shape: 1 256 178 178 (8111104)
I0715 17:13:37.955332 13860 net.cpp:137] Memory required for data: 915982604
I0715 17:13:37.955334 13860 layer_factory.hpp:77] Creating layer conv3_2
I0715 17:13:37.955343 13860 net.cpp:84] Creating Layer conv3_2
I0715 17:13:37.955345 13860 net.cpp:406] conv3_2 <- conv3_1
I0715 17:13:37.955353 13860 net.cpp:380] conv3_2 -> conv3_2
I0715 17:13:37.959552 13860 net.cpp:122] Setting up conv3_2
I0715 17:13:37.959565 13860 net.cpp:129] Top shape: 1 256 178 178 (8111104)
I0715 17:13:37.959569 13860 net.cpp:137] Memory required for data: 948427020
I0715 17:13:37.959578 13860 layer_factory.hpp:77] Creating layer relu3_2
I0715 17:13:37.959600 13860 net.cpp:84] Creating Layer relu3_2
I0715 17:13:37.959604 13860 net.cpp:406] relu3_2 <- conv3_2
I0715 17:13:37.959610 13860 net.cpp:367] relu3_2 -> conv3_2 (in-place)
I0715 17:13:37.959858 13860 net.cpp:122] Setting up relu3_2
I0715 17:13:37.959867 13860 net.cpp:129] Top shape: 1 256 178 178 (8111104)
I0715 17:13:37.959870 13860 net.cpp:137] Memory required for data: 980871436
I0715 17:13:37.959874 13860 layer_factory.hpp:77] Creating layer conv3_3
I0715 17:13:37.959883 13860 net.cpp:84] Creating Layer conv3_3
I0715 17:13:37.959887 13860 net.cpp:406] conv3_3 <- conv3_2
I0715 17:13:37.959893 13860 net.cpp:380] conv3_3 -> conv3_3
I0715 17:13:37.972692 13860 net.cpp:122] Setting up conv3_3
I0715 17:13:37.972723 13860 net.cpp:129] Top shape: 1 256 178 178 (8111104)
I0715 17:13:37.972731 13860 net.cpp:137] Memory required for data: 1013315852
I0715 17:13:37.972759 13860 layer_factory.hpp:77] Creating layer relu3_3
I0715 17:13:37.972771 13860 net.cpp:84] Creating Layer relu3_3
I0715 17:13:37.972780 13860 net.cpp:406] relu3_3 <- conv3_3
I0715 17:13:37.972792 13860 net.cpp:367] relu3_3 -> conv3_3 (in-place)
I0715 17:13:37.974678 13860 net.cpp:122] Setting up relu3_3
I0715 17:13:37.974705 13860 net.cpp:129] Top shape: 1 256 178 178 (8111104)
I0715 17:13:37.974733 13860 net.cpp:137] Memory required for data: 1045760268
I0715 17:13:37.974741 13860 layer_factory.hpp:77] Creating layer pool3
I0715 17:13:37.974756 13860 net.cpp:84] Creating Layer pool3
I0715 17:13:37.974771 13860 net.cpp:406] pool3 <- conv3_3
I0715 17:13:37.974781 13860 net.cpp:380] pool3 -> pool3
I0715 17:13:37.974925 13860 net.cpp:122] Setting up pool3
I0715 17:13:37.974941 13860 net.cpp:129] Top shape: 1 256 89 89 (2027776)
I0715 17:13:37.974947 13860 net.cpp:137] Memory required for data: 1053871372
I0715 17:13:37.974953 13860 layer_factory.hpp:77] Creating layer pool3_pool3_0_split
I0715 17:13:37.974966 13860 net.cpp:84] Creating Layer pool3_pool3_0_split
I0715 17:13:37.974972 13860 net.cpp:406] pool3_pool3_0_split <- pool3
I0715 17:13:37.974982 13860 net.cpp:380] pool3_pool3_0_split -> pool3_pool3_0_split_0
I0715 17:13:37.974993 13860 net.cpp:380] pool3_pool3_0_split -> pool3_pool3_0_split_1
I0715 17:13:37.975108 13860 net.cpp:122] Setting up pool3_pool3_0_split
I0715 17:13:37.975121 13860 net.cpp:129] Top shape: 1 256 89 89 (2027776)
I0715 17:13:37.975131 13860 net.cpp:129] Top shape: 1 256 89 89 (2027776)
I0715 17:13:37.975137 13860 net.cpp:137] Memory required for data: 1070093580
I0715 17:13:37.975143 13860 layer_factory.hpp:77] Creating layer conv4_1
I0715 17:13:37.975159 13860 net.cpp:84] Creating Layer conv4_1
I0715 17:13:37.975167 13860 net.cpp:406] conv4_1 <- pool3_pool3_0_split_0
I0715 17:13:37.975178 13860 net.cpp:380] conv4_1 -> conv4_1
I0715 17:13:37.985522 13860 net.cpp:122] Setting up conv4_1
I0715 17:13:37.985559 13860 net.cpp:129] Top shape: 1 512 89 89 (4055552)
I0715 17:13:37.985564 13860 net.cpp:137] Memory required for data: 1086315788
I0715 17:13:37.985576 13860 layer_factory.hpp:77] Creating layer relu4_1
I0715 17:13:37.985589 13860 net.cpp:84] Creating Layer relu4_1
I0715 17:13:37.985605 13860 net.cpp:406] relu4_1 <- conv4_1
I0715 17:13:37.985615 13860 net.cpp:367] relu4_1 -> conv4_1 (in-place)
I0715 17:13:37.985888 13860 net.cpp:122] Setting up relu4_1
I0715 17:13:37.985900 13860 net.cpp:129] Top shape: 1 512 89 89 (4055552)
I0715 17:13:37.985904 13860 net.cpp:137] Memory required for data: 1102537996
I0715 17:13:37.985908 13860 layer_factory.hpp:77] Creating layer conv4_2
I0715 17:13:37.985920 13860 net.cpp:84] Creating Layer conv4_2
I0715 17:13:37.985925 13860 net.cpp:406] conv4_2 <- conv4_1
I0715 17:13:37.985934 13860 net.cpp:380] conv4_2 -> conv4_2
I0715 17:13:37.996232 13860 net.cpp:122] Setting up conv4_2
I0715 17:13:37.996268 13860 net.cpp:129] Top shape: 1 512 89 89 (4055552)
I0715 17:13:37.996274 13860 net.cpp:137] Memory required for data: 1118760204
I0715 17:13:37.996294 13860 layer_factory.hpp:77] Creating layer relu4_2
I0715 17:13:37.996317 13860 net.cpp:84] Creating Layer relu4_2
I0715 17:13:37.996335 13860 net.cpp:406] relu4_2 <- conv4_2
I0715 17:13:37.996343 13860 net.cpp:367] relu4_2 -> conv4_2 (in-place)
I0715 17:13:37.996609 13860 net.cpp:122] Setting up relu4_2
I0715 17:13:37.996621 13860 net.cpp:129] Top shape: 1 512 89 89 (4055552)
I0715 17:13:37.996625 13860 net.cpp:137] Memory required for data: 1134982412
I0715 17:13:37.996630 13860 layer_factory.hpp:77] Creating layer conv4_3
I0715 17:13:37.996642 13860 net.cpp:84] Creating Layer conv4_3
I0715 17:13:37.996646 13860 net.cpp:406] conv4_3 <- conv4_2
I0715 17:13:37.996655 13860 net.cpp:380] conv4_3 -> conv4_3
I0715 17:13:38.012203 13860 net.cpp:122] Setting up conv4_3
I0715 17:13:38.012233 13860 net.cpp:129] Top shape: 1 512 89 89 (4055552)
I0715 17:13:38.012239 13860 net.cpp:137] Memory required for data: 1151204620
I0715 17:13:38.012265 13860 layer_factory.hpp:77] Creating layer relu4_3
I0715 17:13:38.012277 13860 net.cpp:84] Creating Layer relu4_3
I0715 17:13:38.012285 13860 net.cpp:406] relu4_3 <- conv4_3
I0715 17:13:38.012295 13860 net.cpp:367] relu4_3 -> conv4_3 (in-place)
I0715 17:13:38.012666 13860 net.cpp:122] Setting up relu4_3
I0715 17:13:38.012682 13860 net.cpp:129] Top shape: 1 512 89 89 (4055552)
I0715 17:13:38.012688 13860 net.cpp:137] Memory required for data: 1167426828
I0715 17:13:38.012693 13860 layer_factory.hpp:77] Creating layer pool4
I0715 17:13:38.012706 13860 net.cpp:84] Creating Layer pool4
I0715 17:13:38.012712 13860 net.cpp:406] pool4 <- conv4_3
I0715 17:13:38.012722 13860 net.cpp:380] pool4 -> pool4
I0715 17:13:38.012832 13860 net.cpp:122] Setting up pool4
I0715 17:13:38.012845 13860 net.cpp:129] Top shape: 1 512 45 45 (1036800)
I0715 17:13:38.012850 13860 net.cpp:137] Memory required for data: 1171574028
I0715 17:13:38.012854 13860 layer_factory.hpp:77] Creating layer pool4_pool4_0_split
I0715 17:13:38.012864 13860 net.cpp:84] Creating Layer pool4_pool4_0_split
I0715 17:13:38.012871 13860 net.cpp:406] pool4_pool4_0_split <- pool4
I0715 17:13:38.012879 13860 net.cpp:380] pool4_pool4_0_split -> pool4_pool4_0_split_0
I0715 17:13:38.012889 13860 net.cpp:380] pool4_pool4_0_split -> pool4_pool4_0_split_1
I0715 17:13:38.012977 13860 net.cpp:122] Setting up pool4_pool4_0_split
I0715 17:13:38.012989 13860 net.cpp:129] Top shape: 1 512 45 45 (1036800)
I0715 17:13:38.012995 13860 net.cpp:129] Top shape: 1 512 45 45 (1036800)
I0715 17:13:38.013000 13860 net.cpp:137] Memory required for data: 1179868428
I0715 17:13:38.013005 13860 layer_factory.hpp:77] Creating layer conv5_1
I0715 17:13:38.013020 13860 net.cpp:84] Creating Layer conv5_1
I0715 17:13:38.013025 13860 net.cpp:406] conv5_1 <- pool4_pool4_0_split_0
I0715 17:13:38.013036 13860 net.cpp:380] conv5_1 -> conv5_1
I0715 17:13:38.024547 13860 net.cpp:122] Setting up conv5_1
I0715 17:13:38.024608 13860 net.cpp:129] Top shape: 1 512 45 45 (1036800)
I0715 17:13:38.024617 13860 net.cpp:137] Memory required for data: 1184015628
I0715 17:13:38.024636 13860 layer_factory.hpp:77] Creating layer relu5_1
I0715 17:13:38.024657 13860 net.cpp:84] Creating Layer relu5_1
I0715 17:13:38.024667 13860 net.cpp:406] relu5_1 <- conv5_1
I0715 17:13:38.024682 13860 net.cpp:367] relu5_1 -> conv5_1 (in-place)
I0715 17:13:38.025149 13860 net.cpp:122] Setting up relu5_1
I0715 17:13:38.025169 13860 net.cpp:129] Top shape: 1 512 45 45 (1036800)
I0715 17:13:38.025177 13860 net.cpp:137] Memory required for data: 1188162828
I0715 17:13:38.025184 13860 layer_factory.hpp:77] Creating layer conv5_2
I0715 17:13:38.025220 13860 net.cpp:84] Creating Layer conv5_2
I0715 17:13:38.025240 13860 net.cpp:406] conv5_2 <- conv5_1
I0715 17:13:38.025255 13860 net.cpp:380] conv5_2 -> conv5_2
I0715 17:13:38.037415 13860 net.cpp:122] Setting up conv5_2
I0715 17:13:38.037468 13860 net.cpp:129] Top shape: 1 512 45 45 (1036800)
I0715 17:13:38.037477 13860 net.cpp:137] Memory required for data: 1192310028
I0715 17:13:38.037494 13860 layer_factory.hpp:77] Creating layer relu5_2
I0715 17:13:38.037518 13860 net.cpp:84] Creating Layer relu5_2
I0715 17:13:38.037536 13860 net.cpp:406] relu5_2 <- conv5_2
I0715 17:13:38.037549 13860 net.cpp:367] relu5_2 -> conv5_2 (in-place)
I0715 17:13:38.037973 13860 net.cpp:122] Setting up relu5_2
I0715 17:13:38.037992 13860 net.cpp:129] Top shape: 1 512 45 45 (1036800)
I0715 17:13:38.038007 13860 net.cpp:137] Memory required for data: 1196457228
I0715 17:13:38.038013 13860 layer_factory.hpp:77] Creating layer conv5_3
I0715 17:13:38.038038 13860 net.cpp:84] Creating Layer conv5_3
I0715 17:13:38.038046 13860 net.cpp:406] conv5_3 <- conv5_2
I0715 17:13:38.038058 13860 net.cpp:380] conv5_3 -> conv5_3
I0715 17:13:38.050695 13860 net.cpp:122] Setting up conv5_3
I0715 17:13:38.050731 13860 net.cpp:129] Top shape: 1 512 45 45 (1036800)
I0715 17:13:38.050735 13860 net.cpp:137] Memory required for data: 1200604428
I0715 17:13:38.050743 13860 layer_factory.hpp:77] Creating layer relu5_3
I0715 17:13:38.050752 13860 net.cpp:84] Creating Layer relu5_3
I0715 17:13:38.050756 13860 net.cpp:406] relu5_3 <- conv5_3
I0715 17:13:38.050762 13860 net.cpp:367] relu5_3 -> conv5_3 (in-place)
I0715 17:13:38.051769 13860 net.cpp:122] Setting up relu5_3
I0715 17:13:38.051784 13860 net.cpp:129] Top shape: 1 512 45 45 (1036800)
I0715 17:13:38.051802 13860 net.cpp:137] Memory required for data: 1204751628
I0715 17:13:38.051806 13860 layer_factory.hpp:77] Creating layer pool5
I0715 17:13:38.051815 13860 net.cpp:84] Creating Layer pool5
I0715 17:13:38.051818 13860 net.cpp:406] pool5 <- conv5_3
I0715 17:13:38.051825 13860 net.cpp:380] pool5 -> pool5
I0715 17:13:38.051910 13860 net.cpp:122] Setting up pool5
I0715 17:13:38.051932 13860 net.cpp:129] Top shape: 1 512 23 23 (270848)
I0715 17:13:38.051936 13860 net.cpp:137] Memory required for data: 1205835020
I0715 17:13:38.051939 13860 layer_factory.hpp:77] Creating layer fc6
I0715 17:13:38.051949 13860 net.cpp:84] Creating Layer fc6
I0715 17:13:38.051952 13860 net.cpp:406] fc6 <- pool5
I0715 17:13:38.051959 13860 net.cpp:380] fc6 -> fc6
I0715 17:13:38.317920 13860 net.cpp:122] Setting up fc6
I0715 17:13:38.317970 13860 net.cpp:129] Top shape: 1 4096 17 17 (1183744)
I0715 17:13:38.317975 13860 net.cpp:137] Memory required for data: 1210569996
I0715 17:13:38.317986 13860 layer_factory.hpp:77] Creating layer relu6
I0715 17:13:38.317997 13860 net.cpp:84] Creating Layer relu6
I0715 17:13:38.318002 13860 net.cpp:406] relu6 <- fc6
I0715 17:13:38.318009 13860 net.cpp:367] relu6 -> fc6 (in-place)
I0715 17:13:38.318253 13860 net.cpp:122] Setting up relu6
I0715 17:13:38.318264 13860 net.cpp:129] Top shape: 1 4096 17 17 (1183744)
I0715 17:13:38.318266 13860 net.cpp:137] Memory required for data: 1215304972
I0715 17:13:38.318270 13860 layer_factory.hpp:77] Creating layer drop6
I0715 17:13:38.318279 13860 net.cpp:84] Creating Layer drop6
I0715 17:13:38.318282 13860 net.cpp:406] drop6 <- fc6
I0715 17:13:38.318289 13860 net.cpp:367] drop6 -> fc6 (in-place)
I0715 17:13:38.318331 13860 net.cpp:122] Setting up drop6
I0715 17:13:38.318336 13860 net.cpp:129] Top shape: 1 4096 17 17 (1183744)
I0715 17:13:38.318339 13860 net.cpp:137] Memory required for data: 1220039948
I0715 17:13:38.318343 13860 layer_factory.hpp:77] Creating layer fc7
I0715 17:13:38.318352 13860 net.cpp:84] Creating Layer fc7
I0715 17:13:38.318356 13860 net.cpp:406] fc7 <- fc6
I0715 17:13:38.318361 13860 net.cpp:380] fc7 -> fc7
I0715 17:13:38.364217 13860 net.cpp:122] Setting up fc7
I0715 17:13:38.364264 13860 net.cpp:129] Top shape: 1 4096 17 17 (1183744)
I0715 17:13:38.364269 13860 net.cpp:137] Memory required for data: 1224774924
I0715 17:13:38.364279 13860 layer_factory.hpp:77] Creating layer relu7
I0715 17:13:38.364290 13860 net.cpp:84] Creating Layer relu7
I0715 17:13:38.364295 13860 net.cpp:406] relu7 <- fc7
I0715 17:13:38.364302 13860 net.cpp:367] relu7 -> fc7 (in-place)
I0715 17:13:38.364567 13860 net.cpp:122] Setting up relu7
I0715 17:13:38.364578 13860 net.cpp:129] Top shape: 1 4096 17 17 (1183744)
I0715 17:13:38.364581 13860 net.cpp:137] Memory required for data: 1229509900
I0715 17:13:38.364585 13860 layer_factory.hpp:77] Creating layer drop7
I0715 17:13:38.364593 13860 net.cpp:84] Creating Layer drop7
I0715 17:13:38.364598 13860 net.cpp:406] drop7 <- fc7
I0715 17:13:38.364604 13860 net.cpp:367] drop7 -> fc7 (in-place)
I0715 17:13:38.364648 13860 net.cpp:122] Setting up drop7
I0715 17:13:38.364655 13860 net.cpp:129] Top shape: 1 4096 17 17 (1183744)
I0715 17:13:38.364657 13860 net.cpp:137] Memory required for data: 1234244876
I0715 17:13:38.364661 13860 layer_factory.hpp:77] Creating layer score_fr-new
I0715 17:13:38.364670 13860 net.cpp:84] Creating Layer score_fr-new
I0715 17:13:38.364675 13860 net.cpp:406] score_fr-new <- fc7
I0715 17:13:38.364681 13860 net.cpp:380] score_fr-new -> score_fr-new
I0715 17:13:38.366500 13860 net.cpp:122] Setting up score_fr-new
I0715 17:13:38.366513 13860 net.cpp:129] Top shape: 1 3 17 17 (867)
I0715 17:13:38.366533 13860 net.cpp:137] Memory required for data: 1234248344
I0715 17:13:38.366539 13860 layer_factory.hpp:77] Creating layer upscore2-new
I0715 17:13:38.366547 13860 net.cpp:84] Creating Layer upscore2-new
I0715 17:13:38.366551 13860 net.cpp:406] upscore2-new <- score_fr-new
I0715 17:13:38.366557 13860 net.cpp:380] upscore2-new -> upscore2-new
I0715 17:13:38.366950 13860 net.cpp:122] Setting up upscore2-new
I0715 17:13:38.366958 13860 net.cpp:129] Top shape: 1 3 36 36 (3888)
I0715 17:13:38.366976 13860 net.cpp:137] Memory required for data: 1234263896
I0715 17:13:38.366988 13860 layer_factory.hpp:77] Creating layer upscore2-new_upscore2-new_0_split
I0715 17:13:38.366997 13860 net.cpp:84] Creating Layer upscore2-new_upscore2-new_0_split
I0715 17:13:38.367000 13860 net.cpp:406] upscore2-new_upscore2-new_0_split <- upscore2-new
I0715 17:13:38.367007 13860 net.cpp:380] upscore2-new_upscore2-new_0_split -> upscore2-new_upscore2-new_0_split_0
I0715 17:13:38.367012 13860 net.cpp:380] upscore2-new_upscore2-new_0_split -> upscore2-new_upscore2-new_0_split_1
I0715 17:13:38.367105 13860 net.cpp:122] Setting up upscore2-new_upscore2-new_0_split
I0715 17:13:38.367125 13860 net.cpp:129] Top shape: 1 3 36 36 (3888)
I0715 17:13:38.367128 13860 net.cpp:129] Top shape: 1 3 36 36 (3888)
I0715 17:13:38.367131 13860 net.cpp:137] Memory required for data: 1234295000
I0715 17:13:38.367135 13860 layer_factory.hpp:77] Creating layer score_pool4-new
I0715 17:13:38.367142 13860 net.cpp:84] Creating Layer score_pool4-new
I0715 17:13:38.367146 13860 net.cpp:406] score_pool4-new <- pool4_pool4_0_split_1
I0715 17:13:38.367152 13860 net.cpp:380] score_pool4-new -> score_pool4-new
I0715 17:13:38.369092 13860 net.cpp:122] Setting up score_pool4-new
I0715 17:13:38.369108 13860 net.cpp:129] Top shape: 1 3 45 45 (6075)
I0715 17:13:38.369127 13860 net.cpp:137] Memory required for data: 1234319300
I0715 17:13:38.369134 13860 layer_factory.hpp:77] Creating layer score_pool4c
I0715 17:13:38.369143 13860 net.cpp:84] Creating Layer score_pool4c
I0715 17:13:38.369146 13860 net.cpp:406] score_pool4c <- score_pool4-new
I0715 17:13:38.369151 13860 net.cpp:406] score_pool4c <- upscore2-new_upscore2-new_0_split_0
I0715 17:13:38.369158 13860 net.cpp:380] score_pool4c -> score_pool4c
I0715 17:13:38.369231 13860 net.cpp:122] Setting up score_pool4c
I0715 17:13:38.369236 13860 net.cpp:129] Top shape: 1 3 36 36 (3888)
I0715 17:13:38.369240 13860 net.cpp:137] Memory required for data: 1234334852
I0715 17:13:38.369243 13860 layer_factory.hpp:77] Creating layer fuse_pool4
I0715 17:13:38.369251 13860 net.cpp:84] Creating Layer fuse_pool4
I0715 17:13:38.369254 13860 net.cpp:406] fuse_pool4 <- upscore2-new_upscore2-new_0_split_1
I0715 17:13:38.369259 13860 net.cpp:406] fuse_pool4 <- score_pool4c
I0715 17:13:38.369264 13860 net.cpp:380] fuse_pool4 -> fuse_pool4
I0715 17:13:38.369302 13860 net.cpp:122] Setting up fuse_pool4
I0715 17:13:38.369307 13860 net.cpp:129] Top shape: 1 3 36 36 (3888)
I0715 17:13:38.369310 13860 net.cpp:137] Memory required for data: 1234350404
I0715 17:13:38.369313 13860 layer_factory.hpp:77] Creating layer upscore_pool4-new
I0715 17:13:38.369320 13860 net.cpp:84] Creating Layer upscore_pool4-new
I0715 17:13:38.369324 13860 net.cpp:406] upscore_pool4-new <- fuse_pool4
I0715 17:13:38.369330 13860 net.cpp:380] upscore_pool4-new -> upscore_pool4-new
I0715 17:13:38.369668 13860 net.cpp:122] Setting up upscore_pool4-new
I0715 17:13:38.369678 13860 net.cpp:129] Top shape: 1 3 74 74 (16428)
I0715 17:13:38.369680 13860 net.cpp:137] Memory required for data: 1234416116
I0715 17:13:38.369685 13860 layer_factory.hpp:77] Creating layer upscore_pool4-new_upscore_pool4-new_0_split
I0715 17:13:38.369691 13860 net.cpp:84] Creating Layer upscore_pool4-new_upscore_pool4-new_0_split
I0715 17:13:38.369694 13860 net.cpp:406] upscore_pool4-new_upscore_pool4-new_0_split <- upscore_pool4-new
I0715 17:13:38.369700 13860 net.cpp:380] upscore_pool4-new_upscore_pool4-new_0_split -> upscore_pool4-new_upscore_pool4-new_0_split_0
I0715 17:13:38.369706 13860 net.cpp:380] upscore_pool4-new_upscore_pool4-new_0_split -> upscore_pool4-new_upscore_pool4-new_0_split_1
I0715 17:13:38.369765 13860 net.cpp:122] Setting up upscore_pool4-new_upscore_pool4-new_0_split
I0715 17:13:38.369786 13860 net.cpp:129] Top shape: 1 3 74 74 (16428)
I0715 17:13:38.369791 13860 net.cpp:129] Top shape: 1 3 74 74 (16428)
I0715 17:13:38.369793 13860 net.cpp:137] Memory required for data: 1234547540
I0715 17:13:38.369796 13860 layer_factory.hpp:77] Creating layer score_pool3-new
I0715 17:13:38.369804 13860 net.cpp:84] Creating Layer score_pool3-new
I0715 17:13:38.369808 13860 net.cpp:406] score_pool3-new <- pool3_pool3_0_split_1
I0715 17:13:38.369814 13860 net.cpp:380] score_pool3-new -> score_pool3-new
I0715 17:13:38.371634 13860 net.cpp:122] Setting up score_pool3-new
I0715 17:13:38.371647 13860 net.cpp:129] Top shape: 1 3 89 89 (23763)
I0715 17:13:38.371666 13860 net.cpp:137] Memory required for data: 1234642592
I0715 17:13:38.371673 13860 layer_factory.hpp:77] Creating layer score_pool3c
I0715 17:13:38.371680 13860 net.cpp:84] Creating Layer score_pool3c
I0715 17:13:38.371685 13860 net.cpp:406] score_pool3c <- score_pool3-new
I0715 17:13:38.371690 13860 net.cpp:406] score_pool3c <- upscore_pool4-new_upscore_pool4-new_0_split_0
I0715 17:13:38.371695 13860 net.cpp:380] score_pool3c -> score_pool3c
I0715 17:13:38.371750 13860 net.cpp:122] Setting up score_pool3c
I0715 17:13:38.371757 13860 net.cpp:129] Top shape: 1 3 74 74 (16428)
I0715 17:13:38.371759 13860 net.cpp:137] Memory required for data: 1234708304
I0715 17:13:38.371762 13860 layer_factory.hpp:77] Creating layer fuse_pool3
I0715 17:13:38.371768 13860 net.cpp:84] Creating Layer fuse_pool3
I0715 17:13:38.371771 13860 net.cpp:406] fuse_pool3 <- upscore_pool4-new_upscore_pool4-new_0_split_1
I0715 17:13:38.371776 13860 net.cpp:406] fuse_pool3 <- score_pool3c
I0715 17:13:38.371781 13860 net.cpp:380] fuse_pool3 -> fuse_pool3
I0715 17:13:38.371819 13860 net.cpp:122] Setting up fuse_pool3
I0715 17:13:38.371824 13860 net.cpp:129] Top shape: 1 3 74 74 (16428)
I0715 17:13:38.371827 13860 net.cpp:137] Memory required for data: 1234774016
I0715 17:13:38.371830 13860 layer_factory.hpp:77] Creating layer upscore8-new
I0715 17:13:38.371837 13860 net.cpp:84] Creating Layer upscore8-new
I0715 17:13:38.371840 13860 net.cpp:406] upscore8-new <- fuse_pool3
I0715 17:13:38.371846 13860 net.cpp:380] upscore8-new -> upscore8-new
I0715 17:13:38.372231 13860 net.cpp:122] Setting up upscore8-new
I0715 17:13:38.372241 13860 net.cpp:129] Top shape: 1 3 600 600 (1080000)
I0715 17:13:38.372258 13860 net.cpp:137] Memory required for data: 1239094016
I0715 17:13:38.372263 13860 layer_factory.hpp:77] Creating layer upscore8_cropped
I0715 17:13:38.372269 13860 net.cpp:84] Creating Layer upscore8_cropped
I0715 17:13:38.372272 13860 net.cpp:406] upscore8_cropped <- upscore8-new
I0715 17:13:38.372279 13860 net.cpp:406] upscore8_cropped <- data_data_0_split_1
I0715 17:13:38.372284 13860 net.cpp:380] upscore8_cropped -> upscore8_cropped
I0715 17:13:38.372321 13860 net.cpp:122] Setting up upscore8_cropped
I0715 17:13:38.372326 13860 net.cpp:129] Top shape: 1 3 512 512 (786432)
I0715 17:13:38.372329 13860 net.cpp:137] Memory required for data: 1242239744
I0715 17:13:38.372333 13860 layer_factory.hpp:77] Creating layer upscore8_cropped_upscore8_cropped_0_split
I0715 17:13:38.372339 13860 net.cpp:84] Creating Layer upscore8_cropped_upscore8_cropped_0_split
I0715 17:13:38.372341 13860 net.cpp:406] upscore8_cropped_upscore8_cropped_0_split <- upscore8_cropped
I0715 17:13:38.372347 13860 net.cpp:380] upscore8_cropped_upscore8_cropped_0_split -> upscore8_cropped_upscore8_cropped_0_split_0
I0715 17:13:38.372354 13860 net.cpp:380] upscore8_cropped_upscore8_cropped_0_split -> upscore8_cropped_upscore8_cropped_0_split_1
I0715 17:13:38.372412 13860 net.cpp:122] Setting up upscore8_cropped_upscore8_cropped_0_split
I0715 17:13:38.372417 13860 net.cpp:129] Top shape: 1 3 512 512 (786432)
I0715 17:13:38.372422 13860 net.cpp:129] Top shape: 1 3 512 512 (786432)
I0715 17:13:38.372426 13860 net.cpp:137] Memory required for data: 1248531200
I0715 17:13:38.372428 13860 layer_factory.hpp:77] Creating layer prob
I0715 17:13:38.372434 13860 net.cpp:84] Creating Layer prob
I0715 17:13:38.372438 13860 net.cpp:406] prob <- upscore8_cropped_upscore8_cropped_0_split_0
I0715 17:13:38.372443 13860 net.cpp:380] prob -> prob
I0715 17:13:38.372699 13860 net.cpp:122] Setting up prob
I0715 17:13:38.372709 13860 net.cpp:129] Top shape: 1 3 512 512 (786432)
I0715 17:13:38.372712 13860 net.cpp:137] Memory required for data: 1251676928
I0715 17:13:38.372715 13860 layer_factory.hpp:77] Creating layer saliency1
I0715 17:13:38.372725 13860 net.cpp:84] Creating Layer saliency1
I0715 17:13:38.372730 13860 net.cpp:406] saliency1 <- prob
I0715 17:13:38.372736 13860 net.cpp:380] saliency1 -> saliency1
I0715 17:13:38.376722 13860 net.cpp:122] Setting up saliency1
I0715 17:13:38.376756 13860 net.cpp:129] Top shape: 1 3 512 512 (786432)
I0715 17:13:38.376760 13860 net.cpp:137] Memory required for data: 1254822656
I0715 17:13:38.376768 13860 layer_factory.hpp:77] Creating layer relu_saliency1
I0715 17:13:38.376775 13860 net.cpp:84] Creating Layer relu_saliency1
I0715 17:13:38.376780 13860 net.cpp:406] relu_saliency1 <- saliency1
I0715 17:13:38.376786 13860 net.cpp:367] relu_saliency1 -> saliency1 (in-place)
I0715 17:13:38.377764 13860 net.cpp:122] Setting up relu_saliency1
I0715 17:13:38.377777 13860 net.cpp:129] Top shape: 1 3 512 512 (786432)
I0715 17:13:38.377796 13860 net.cpp:137] Memory required for data: 1257968384
I0715 17:13:38.377799 13860 layer_factory.hpp:77] Creating layer saliency
I0715 17:13:38.377810 13860 net.cpp:84] Creating Layer saliency
I0715 17:13:38.377815 13860 net.cpp:406] saliency <- saliency1
I0715 17:13:38.377822 13860 net.cpp:380] saliency -> saliency
I0715 17:13:38.380548 13860 net.cpp:122] Setting up saliency
I0715 17:13:38.380579 13860 net.cpp:129] Top shape: 1 3 512 512 (786432)
I0715 17:13:38.380584 13860 net.cpp:137] Memory required for data: 1261114112
I0715 17:13:38.380592 13860 layer_factory.hpp:77] Creating layer saliency_data
I0715 17:13:38.380600 13860 net.cpp:84] Creating Layer saliency_data
I0715 17:13:38.380605 13860 net.cpp:406] saliency_data <- data_data_0_split_2
I0715 17:13:38.380610 13860 net.cpp:406] saliency_data <- saliency
I0715 17:13:38.380616 13860 net.cpp:380] saliency_data -> saliency_data
I0715 17:13:38.380679 13860 net.cpp:122] Setting up saliency_data
I0715 17:13:38.380684 13860 net.cpp:129] Top shape: 1 3 512 512 (786432)
I0715 17:13:38.380688 13860 net.cpp:137] Memory required for data: 1264259840
I0715 17:13:38.380692 13860 layer_factory.hpp:77] Creating layer crop
I0715 17:13:38.380749 13860 net.cpp:84] Creating Layer crop
I0715 17:13:38.380754 13860 net.cpp:406] crop <- label_data_1_split_0
I0715 17:13:38.380759 13860 net.cpp:406] crop <- saliency_data
I0715 17:13:38.380764 13860 net.cpp:406] crop <- crop_margin
I0715 17:13:38.380769 13860 net.cpp:406] crop <- crop_prob
I0715 17:13:38.380772 13860 net.cpp:406] crop <- crop_sample_batch
I0715 17:13:38.380779 13860 net.cpp:380] crop -> data-R
I0715 17:13:38.380785 13860 net.cpp:380] crop -> crop_info
I0715 17:13:38.387325 13860 net.cpp:122] Setting up crop
I0715 17:13:38.387380 13860 net.cpp:129] Top shape: 1 3 512 512 (786432)
I0715 17:13:38.387385 13860 net.cpp:129] Top shape: 1 2 4 (8)
I0715 17:13:38.387389 13860 net.cpp:137] Memory required for data: 1267405600
I0715 17:13:38.387398 13860 layer_factory.hpp:77] Creating layer data-R_crop_0_split
I0715 17:13:38.387409 13860 net.cpp:84] Creating Layer data-R_crop_0_split
I0715 17:13:38.387414 13860 net.cpp:406] data-R_crop_0_split <- data-R
I0715 17:13:38.387423 13860 net.cpp:380] data-R_crop_0_split -> data-R_crop_0_split_0
I0715 17:13:38.387432 13860 net.cpp:380] data-R_crop_0_split -> data-R_crop_0_split_1
I0715 17:13:38.387518 13860 net.cpp:122] Setting up data-R_crop_0_split
I0715 17:13:38.387524 13860 net.cpp:129] Top shape: 1 3 512 512 (786432)
I0715 17:13:38.387528 13860 net.cpp:129] Top shape: 1 3 512 512 (786432)
I0715 17:13:38.387531 13860 net.cpp:137] Memory required for data: 1273697056
I0715 17:13:38.387534 13860 layer_factory.hpp:77] Creating layer conv1_1-R
I0715 17:13:38.387544 13860 net.cpp:84] Creating Layer conv1_1-R
I0715 17:13:38.387548 13860 net.cpp:406] conv1_1-R <- data-R_crop_0_split_0
I0715 17:13:38.387554 13860 net.cpp:380] conv1_1-R -> conv1_1-R
I0715 17:13:38.394659 13860 net.cpp:122] Setting up conv1_1-R
I0715 17:13:38.394680 13860 net.cpp:129] Top shape: 1 64 710 710 (32262400)
I0715 17:13:38.394692 13860 net.cpp:137] Memory required for data: 1402746656
I0715 17:13:38.394703 13860 layer_factory.hpp:77] Creating layer relu1_1-R
I0715 17:13:38.394721 13860 net.cpp:84] Creating Layer relu1_1-R
I0715 17:13:38.394726 13860 net.cpp:406] relu1_1-R <- conv1_1-R
I0715 17:13:38.394734 13860 net.cpp:367] relu1_1-R -> conv1_1-R (in-place)
I0715 17:13:38.395071 13860 net.cpp:122] Setting up relu1_1-R
I0715 17:13:38.395083 13860 net.cpp:129] Top shape: 1 64 710 710 (32262400)
I0715 17:13:38.395088 13860 net.cpp:137] Memory required for data: 1531796256
I0715 17:13:38.395093 13860 layer_factory.hpp:77] Creating layer conv1_2-R
I0715 17:13:38.395104 13860 net.cpp:84] Creating Layer conv1_2-R
I0715 17:13:38.395109 13860 net.cpp:406] conv1_2-R <- conv1_1-R
I0715 17:13:38.395117 13860 net.cpp:380] conv1_2-R -> conv1_2-R
I0715 17:13:38.405947 13860 net.cpp:122] Setting up conv1_2-R
I0715 17:13:38.405983 13860 net.cpp:129] Top shape: 1 64 710 710 (32262400)
I0715 17:13:38.405988 13860 net.cpp:137] Memory required for data: 1660845856
I0715 17:13:38.405998 13860 layer_factory.hpp:77] Creating layer relu1_2-R
I0715 17:13:38.406008 13860 net.cpp:84] Creating Layer relu1_2-R
I0715 17:13:38.406013 13860 net.cpp:406] relu1_2-R <- conv1_2-R
I0715 17:13:38.406021 13860 net.cpp:367] relu1_2-R -> conv1_2-R (in-place)
I0715 17:13:38.406352 13860 net.cpp:122] Setting up relu1_2-R
I0715 17:13:38.406364 13860 net.cpp:129] Top shape: 1 64 710 710 (32262400)
I0715 17:13:38.406368 13860 net.cpp:137] Memory required for data: 1789895456
I0715 17:13:38.406373 13860 layer_factory.hpp:77] Creating layer pool1-R
I0715 17:13:38.406383 13860 net.cpp:84] Creating Layer pool1-R
I0715 17:13:38.406388 13860 net.cpp:406] pool1-R <- conv1_2-R
I0715 17:13:38.406395 13860 net.cpp:380] pool1-R -> pool1-R
I0715 17:13:38.406491 13860 net.cpp:122] Setting up pool1-R
I0715 17:13:38.406500 13860 net.cpp:129] Top shape: 1 64 355 355 (8065600)
I0715 17:13:38.406504 13860 net.cpp:137] Memory required for data: 1822157856
I0715 17:13:38.406508 13860 layer_factory.hpp:77] Creating layer conv2_1-R
I0715 17:13:38.406518 13860 net.cpp:84] Creating Layer conv2_1-R
I0715 17:13:38.406523 13860 net.cpp:406] conv2_1-R <- pool1-R
I0715 17:13:38.406532 13860 net.cpp:380] conv2_1-R -> conv2_1-R
I0715 17:13:38.413916 13860 net.cpp:122] Setting up conv2_1-R
I0715 17:13:38.413978 13860 net.cpp:129] Top shape: 1 128 355 355 (16131200)
I0715 17:13:38.413988 13860 net.cpp:137] Memory required for data: 1886682656
I0715 17:13:38.414008 13860 layer_factory.hpp:77] Creating layer relu2_1-R
I0715 17:13:38.414028 13860 net.cpp:84] Creating Layer relu2_1-R
I0715 17:13:38.414044 13860 net.cpp:406] relu2_1-R <- conv2_1-R
I0715 17:13:38.414058 13860 net.cpp:367] relu2_1-R -> conv2_1-R (in-place)
I0715 17:13:38.414546 13860 net.cpp:122] Setting up relu2_1-R
I0715 17:13:38.414573 13860 net.cpp:129] Top shape: 1 128 355 355 (16131200)
I0715 17:13:38.414589 13860 net.cpp:137] Memory required for data: 1951207456
I0715 17:13:38.414597 13860 layer_factory.hpp:77] Creating layer conv2_2-R
I0715 17:13:38.414618 13860 net.cpp:84] Creating Layer conv2_2-R
I0715 17:13:38.414625 13860 net.cpp:406] conv2_2-R <- conv2_1-R
I0715 17:13:38.414646 13860 net.cpp:380] conv2_2-R -> conv2_2-R
I0715 17:13:38.418378 13860 net.cpp:122] Setting up conv2_2-R
I0715 17:13:38.418407 13860 net.cpp:129] Top shape: 1 128 355 355 (16131200)
I0715 17:13:38.418412 13860 net.cpp:137] Memory required for data: 2015732256
I0715 17:13:38.418422 13860 layer_factory.hpp:77] Creating layer relu2_2-R
I0715 17:13:38.418432 13860 net.cpp:84] Creating Layer relu2_2-R
I0715 17:13:38.418437 13860 net.cpp:406] relu2_2-R <- conv2_2-R
I0715 17:13:38.418444 13860 net.cpp:367] relu2_2-R -> conv2_2-R (in-place)
I0715 17:13:38.419682 13860 net.cpp:122] Setting up relu2_2-R
I0715 17:13:38.419697 13860 net.cpp:129] Top shape: 1 128 355 355 (16131200)
I0715 17:13:38.419713 13860 net.cpp:137] Memory required for data: 2080257056
I0715 17:13:38.419718 13860 layer_factory.hpp:77] Creating layer pool2-R
I0715 17:13:38.419729 13860 net.cpp:84] Creating Layer pool2-R
I0715 17:13:38.419734 13860 net.cpp:406] pool2-R <- conv2_2-R
I0715 17:13:38.419744 13860 net.cpp:380] pool2-R -> pool2-R
I0715 17:13:38.419833 13860 net.cpp:122] Setting up pool2-R
I0715 17:13:38.419847 13860 net.cpp:129] Top shape: 1 128 178 178 (4055552)
I0715 17:13:38.419850 13860 net.cpp:137] Memory required for data: 2096479264
I0715 17:13:38.419854 13860 layer_factory.hpp:77] Creating layer conv3_1-R
I0715 17:13:38.419865 13860 net.cpp:84] Creating Layer conv3_1-R
I0715 17:13:38.419870 13860 net.cpp:406] conv3_1-R <- pool2-R
I0715 17:13:38.419878 13860 net.cpp:380] conv3_1-R -> conv3_1-R
I0715 17:13:38.428714 13860 net.cpp:122] Setting up conv3_1-R
I0715 17:13:38.428761 13860 net.cpp:129] Top shape: 1 256 178 178 (8111104)
I0715 17:13:38.428771 13860 net.cpp:137] Memory required for data: 2128923680
I0715 17:13:38.428794 13860 layer_factory.hpp:77] Creating layer relu3_1-R
I0715 17:13:38.428807 13860 net.cpp:84] Creating Layer relu3_1-R
I0715 17:13:38.428828 13860 net.cpp:406] relu3_1-R <- conv3_1-R
I0715 17:13:38.428839 13860 net.cpp:367] relu3_1-R -> conv3_1-R (in-place)
I0715 17:13:38.429548 13860 net.cpp:122] Setting up relu3_1-R
I0715 17:13:38.429589 13860 net.cpp:129] Top shape: 1 256 178 178 (8111104)
I0715 17:13:38.429601 13860 net.cpp:137] Memory required for data: 2161368096
I0715 17:13:38.429613 13860 layer_factory.hpp:77] Creating layer conv3_2-R
I0715 17:13:38.429646 13860 net.cpp:84] Creating Layer conv3_2-R
I0715 17:13:38.429662 13860 net.cpp:406] conv3_2-R <- conv3_1-R
I0715 17:13:38.429689 13860 net.cpp:380] conv3_2-R -> conv3_2-R
I0715 17:13:38.445224 13860 net.cpp:122] Setting up conv3_2-R
I0715 17:13:38.445271 13860 net.cpp:129] Top shape: 1 256 178 178 (8111104)
I0715 17:13:38.445276 13860 net.cpp:137] Memory required for data: 2193812512
I0715 17:13:38.445291 13860 layer_factory.hpp:77] Creating layer relu3_2-R
I0715 17:13:38.445304 13860 net.cpp:84] Creating Layer relu3_2-R
I0715 17:13:38.445312 13860 net.cpp:406] relu3_2-R <- conv3_2-R
I0715 17:13:38.445320 13860 net.cpp:367] relu3_2-R -> conv3_2-R (in-place)
I0715 17:13:38.445771 13860 net.cpp:122] Setting up relu3_2-R
I0715 17:13:38.445785 13860 net.cpp:129] Top shape: 1 256 178 178 (8111104)
I0715 17:13:38.445788 13860 net.cpp:137] Memory required for data: 2226256928
I0715 17:13:38.445801 13860 layer_factory.hpp:77] Creating layer conv3_3-R
I0715 17:13:38.445823 13860 net.cpp:84] Creating Layer conv3_3-R
I0715 17:13:38.445829 13860 net.cpp:406] conv3_3-R <- conv3_2-R
I0715 17:13:38.445839 13860 net.cpp:380] conv3_3-R -> conv3_3-R
I0715 17:13:38.453677 13860 net.cpp:122] Setting up conv3_3-R
I0715 17:13:38.453707 13860 net.cpp:129] Top shape: 1 256 178 178 (8111104)
I0715 17:13:38.453711 13860 net.cpp:137] Memory required for data: 2258701344
I0715 17:13:38.453722 13860 layer_factory.hpp:77] Creating layer relu3_3-R
I0715 17:13:38.453733 13860 net.cpp:84] Creating Layer relu3_3-R
I0715 17:13:38.453738 13860 net.cpp:406] relu3_3-R <- conv3_3-R
I0715 17:13:38.453747 13860 net.cpp:367] relu3_3-R -> conv3_3-R (in-place)
I0715 17:13:38.454046 13860 net.cpp:122] Setting up relu3_3-R
I0715 17:13:38.454059 13860 net.cpp:129] Top shape: 1 256 178 178 (8111104)
I0715 17:13:38.454063 13860 net.cpp:137] Memory required for data: 2291145760
I0715 17:13:38.454067 13860 layer_factory.hpp:77] Creating layer pool3-R
I0715 17:13:38.454079 13860 net.cpp:84] Creating Layer pool3-R
I0715 17:13:38.454083 13860 net.cpp:406] pool3-R <- conv3_3-R
I0715 17:13:38.454093 13860 net.cpp:380] pool3-R -> pool3-R
I0715 17:13:38.454183 13860 net.cpp:122] Setting up pool3-R
I0715 17:13:38.454195 13860 net.cpp:129] Top shape: 1 256 89 89 (2027776)
I0715 17:13:38.454198 13860 net.cpp:137] Memory required for data: 2299256864
I0715 17:13:38.454202 13860 layer_factory.hpp:77] Creating layer pool3-R_pool3-R_0_split
I0715 17:13:38.454210 13860 net.cpp:84] Creating Layer pool3-R_pool3-R_0_split
I0715 17:13:38.454216 13860 net.cpp:406] pool3-R_pool3-R_0_split <- pool3-R
I0715 17:13:38.454222 13860 net.cpp:380] pool3-R_pool3-R_0_split -> pool3-R_pool3-R_0_split_0
I0715 17:13:38.454231 13860 net.cpp:380] pool3-R_pool3-R_0_split -> pool3-R_pool3-R_0_split_1
I0715 17:13:38.454303 13860 net.cpp:122] Setting up pool3-R_pool3-R_0_split
I0715 17:13:38.454311 13860 net.cpp:129] Top shape: 1 256 89 89 (2027776)
I0715 17:13:38.454318 13860 net.cpp:129] Top shape: 1 256 89 89 (2027776)
I0715 17:13:38.454320 13860 net.cpp:137] Memory required for data: 2315479072
I0715 17:13:38.454324 13860 layer_factory.hpp:77] Creating layer conv4_1-R
I0715 17:13:38.454336 13860 net.cpp:84] Creating Layer conv4_1-R
I0715 17:13:38.454341 13860 net.cpp:406] conv4_1-R <- pool3-R_pool3-R_0_split_0
I0715 17:13:38.454349 13860 net.cpp:380] conv4_1-R -> conv4_1-R
I0715 17:13:38.461817 13860 net.cpp:122] Setting up conv4_1-R
I0715 17:13:38.461845 13860 net.cpp:129] Top shape: 1 512 89 89 (4055552)
I0715 17:13:38.461850 13860 net.cpp:137] Memory required for data: 2331701280
I0715 17:13:38.461861 13860 layer_factory.hpp:77] Creating layer relu4_1-R
I0715 17:13:38.461872 13860 net.cpp:84] Creating Layer relu4_1-R
I0715 17:13:38.461877 13860 net.cpp:406] relu4_1-R <- conv4_1-R
I0715 17:13:38.461884 13860 net.cpp:367] relu4_1-R -> conv4_1-R (in-place)
I0715 17:13:38.462164 13860 net.cpp:122] Setting up relu4_1-R
I0715 17:13:38.462177 13860 net.cpp:129] Top shape: 1 512 89 89 (4055552)
I0715 17:13:38.462182 13860 net.cpp:137] Memory required for data: 2347923488
I0715 17:13:38.462185 13860 layer_factory.hpp:77] Creating layer conv4_2-R
I0715 17:13:38.462198 13860 net.cpp:84] Creating Layer conv4_2-R
I0715 17:13:38.462203 13860 net.cpp:406] conv4_2-R <- conv4_1-R
I0715 17:13:38.462209 13860 net.cpp:380] conv4_2-R -> conv4_2-R
I0715 17:13:38.474836 13860 net.cpp:122] Setting up conv4_2-R
I0715 17:13:38.474869 13860 net.cpp:129] Top shape: 1 512 89 89 (4055552)
I0715 17:13:38.474874 13860 net.cpp:137] Memory required for data: 2364145696
I0715 17:13:38.474884 13860 layer_factory.hpp:77] Creating layer relu4_2-R
I0715 17:13:38.474892 13860 net.cpp:84] Creating Layer relu4_2-R
I0715 17:13:38.474898 13860 net.cpp:406] relu4_2-R <- conv4_2-R
I0715 17:13:38.474905 13860 net.cpp:367] relu4_2-R -> conv4_2-R (in-place)
I0715 17:13:38.475183 13860 net.cpp:122] Setting up relu4_2-R
I0715 17:13:38.475195 13860 net.cpp:129] Top shape: 1 512 89 89 (4055552)
I0715 17:13:38.475199 13860 net.cpp:137] Memory required for data: 2380367904
I0715 17:13:38.475204 13860 layer_factory.hpp:77] Creating layer conv4_3-R
I0715 17:13:38.475216 13860 net.cpp:84] Creating Layer conv4_3-R
I0715 17:13:38.475221 13860 net.cpp:406] conv4_3-R <- conv4_2-R
I0715 17:13:38.475230 13860 net.cpp:380] conv4_3-R -> conv4_3-R
I0715 17:13:38.487043 13860 net.cpp:122] Setting up conv4_3-R
I0715 17:13:38.487067 13860 net.cpp:129] Top shape: 1 512 89 89 (4055552)
I0715 17:13:38.487080 13860 net.cpp:137] Memory required for data: 2396590112
I0715 17:13:38.487092 13860 layer_factory.hpp:77] Creating layer relu4_3-R
I0715 17:13:38.487103 13860 net.cpp:84] Creating Layer relu4_3-R
I0715 17:13:38.487109 13860 net.cpp:406] relu4_3-R <- conv4_3-R
I0715 17:13:38.487118 13860 net.cpp:367] relu4_3-R -> conv4_3-R (in-place)
I0715 17:13:38.490639 13860 net.cpp:122] Setting up relu4_3-R
I0715 17:13:38.490686 13860 net.cpp:129] Top shape: 1 512 89 89 (4055552)
I0715 17:13:38.490695 13860 net.cpp:137] Memory required for data: 2412812320
I0715 17:13:38.490703 13860 layer_factory.hpp:77] Creating layer pool4-R
I0715 17:13:38.490731 13860 net.cpp:84] Creating Layer pool4-R
I0715 17:13:38.490741 13860 net.cpp:406] pool4-R <- conv4_3-R
I0715 17:13:38.490756 13860 net.cpp:380] pool4-R -> pool4-R
I0715 17:13:38.490936 13860 net.cpp:122] Setting up pool4-R
I0715 17:13:38.490952 13860 net.cpp:129] Top shape: 1 512 45 45 (1036800)
I0715 17:13:38.490959 13860 net.cpp:137] Memory required for data: 2416959520
I0715 17:13:38.490967 13860 layer_factory.hpp:77] Creating layer pool4-R_pool4-R_0_split
I0715 17:13:38.490978 13860 net.cpp:84] Creating Layer pool4-R_pool4-R_0_split
I0715 17:13:38.490985 13860 net.cpp:406] pool4-R_pool4-R_0_split <- pool4-R
I0715 17:13:38.490996 13860 net.cpp:380] pool4-R_pool4-R_0_split -> pool4-R_pool4-R_0_split_0
I0715 17:13:38.491017 13860 net.cpp:380] pool4-R_pool4-R_0_split -> pool4-R_pool4-R_0_split_1
I0715 17:13:38.491138 13860 net.cpp:122] Setting up pool4-R_pool4-R_0_split
I0715 17:13:38.491153 13860 net.cpp:129] Top shape: 1 512 45 45 (1036800)
I0715 17:13:38.491161 13860 net.cpp:129] Top shape: 1 512 45 45 (1036800)
I0715 17:13:38.491168 13860 net.cpp:137] Memory required for data: 2425253920
I0715 17:13:38.491174 13860 layer_factory.hpp:77] Creating layer conv5_1-R
I0715 17:13:38.491190 13860 net.cpp:84] Creating Layer conv5_1-R
I0715 17:13:38.491201 13860 net.cpp:406] conv5_1-R <- pool4-R_pool4-R_0_split_0
I0715 17:13:38.491214 13860 net.cpp:380] conv5_1-R -> conv5_1-R
I0715 17:13:38.503576 13860 net.cpp:122] Setting up conv5_1-R
I0715 17:13:38.503612 13860 net.cpp:129] Top shape: 1 512 45 45 (1036800)
I0715 17:13:38.503618 13860 net.cpp:137] Memory required for data: 2429401120
I0715 17:13:38.503644 13860 layer_factory.hpp:77] Creating layer relu5_1-R
I0715 17:13:38.503665 13860 net.cpp:84] Creating Layer relu5_1-R
I0715 17:13:38.503670 13860 net.cpp:406] relu5_1-R <- conv5_1-R
I0715 17:13:38.503677 13860 net.cpp:367] relu5_1-R -> conv5_1-R (in-place)
I0715 17:13:38.503952 13860 net.cpp:122] Setting up relu5_1-R
I0715 17:13:38.503963 13860 net.cpp:129] Top shape: 1 512 45 45 (1036800)
I0715 17:13:38.503968 13860 net.cpp:137] Memory required for data: 2433548320
I0715 17:13:38.503973 13860 layer_factory.hpp:77] Creating layer conv5_2-R
I0715 17:13:38.503983 13860 net.cpp:84] Creating Layer conv5_2-R
I0715 17:13:38.503988 13860 net.cpp:406] conv5_2-R <- conv5_1-R
I0715 17:13:38.503996 13860 net.cpp:380] conv5_2-R -> conv5_2-R
I0715 17:13:38.521579 13860 net.cpp:122] Setting up conv5_2-R
I0715 17:13:38.521636 13860 net.cpp:129] Top shape: 1 512 45 45 (1036800)
I0715 17:13:38.521644 13860 net.cpp:137] Memory required for data: 2437695520
I0715 17:13:38.521659 13860 layer_factory.hpp:77] Creating layer relu5_2-R
I0715 17:13:38.521687 13860 net.cpp:84] Creating Layer relu5_2-R
I0715 17:13:38.521697 13860 net.cpp:406] relu5_2-R <- conv5_2-R
I0715 17:13:38.521708 13860 net.cpp:367] relu5_2-R -> conv5_2-R (in-place)
I0715 17:13:38.522085 13860 net.cpp:122] Setting up relu5_2-R
I0715 17:13:38.522100 13860 net.cpp:129] Top shape: 1 512 45 45 (1036800)
I0715 17:13:38.522106 13860 net.cpp:137] Memory required for data: 2441842720
I0715 17:13:38.522117 13860 layer_factory.hpp:77] Creating layer conv5_3-R
I0715 17:13:38.522133 13860 net.cpp:84] Creating Layer conv5_3-R
I0715 17:13:38.522140 13860 net.cpp:406] conv5_3-R <- conv5_2-R
I0715 17:13:38.522150 13860 net.cpp:380] conv5_3-R -> conv5_3-R
I0715 17:13:38.533032 13860 net.cpp:122] Setting up conv5_3-R
I0715 17:13:38.533082 13860 net.cpp:129] Top shape: 1 512 45 45 (1036800)
I0715 17:13:38.533087 13860 net.cpp:137] Memory required for data: 2445989920
I0715 17:13:38.533099 13860 layer_factory.hpp:77] Creating layer relu5_3-R
I0715 17:13:38.533113 13860 net.cpp:84] Creating Layer relu5_3-R
I0715 17:13:38.533120 13860 net.cpp:406] relu5_3-R <- conv5_3-R
I0715 17:13:38.533129 13860 net.cpp:367] relu5_3-R -> conv5_3-R (in-place)
I0715 17:13:38.533408 13860 net.cpp:122] Setting up relu5_3-R
I0715 17:13:38.533421 13860 net.cpp:129] Top shape: 1 512 45 45 (1036800)
I0715 17:13:38.533426 13860 net.cpp:137] Memory required for data: 2450137120
I0715 17:13:38.533429 13860 layer_factory.hpp:77] Creating layer pool5-R
I0715 17:13:38.533440 13860 net.cpp:84] Creating Layer pool5-R
I0715 17:13:38.533444 13860 net.cpp:406] pool5-R <- conv5_3-R
I0715 17:13:38.533453 13860 net.cpp:380] pool5-R -> pool5-R
I0715 17:13:38.533542 13860 net.cpp:122] Setting up pool5-R
I0715 17:13:38.533553 13860 net.cpp:129] Top shape: 1 512 23 23 (270848)
I0715 17:13:38.533557 13860 net.cpp:137] Memory required for data: 2451220512
I0715 17:13:38.533560 13860 layer_factory.hpp:77] Creating layer fc6-R
I0715 17:13:38.533576 13860 net.cpp:84] Creating Layer fc6-R
I0715 17:13:38.533581 13860 net.cpp:406] fc6-R <- pool5-R
I0715 17:13:38.533589 13860 net.cpp:380] fc6-R -> fc6-R
I0715 17:13:38.895359 13860 net.cpp:122] Setting up fc6-R
I0715 17:13:38.895402 13860 net.cpp:129] Top shape: 1 4096 17 17 (1183744)
I0715 17:13:38.895408 13860 net.cpp:137] Memory required for data: 2455955488
I0715 17:13:38.895421 13860 layer_factory.hpp:77] Creating layer relu6-R
I0715 17:13:38.895436 13860 net.cpp:84] Creating Layer relu6-R
I0715 17:13:38.895442 13860 net.cpp:406] relu6-R <- fc6-R
I0715 17:13:38.895452 13860 net.cpp:367] relu6-R -> fc6-R (in-place)
I0715 17:13:38.895738 13860 net.cpp:122] Setting up relu6-R
I0715 17:13:38.895751 13860 net.cpp:129] Top shape: 1 4096 17 17 (1183744)
I0715 17:13:38.895756 13860 net.cpp:137] Memory required for data: 2460690464
I0715 17:13:38.895761 13860 layer_factory.hpp:77] Creating layer drop6-R
I0715 17:13:38.895769 13860 net.cpp:84] Creating Layer drop6-R
I0715 17:13:38.895774 13860 net.cpp:406] drop6-R <- fc6-R
I0715 17:13:38.895781 13860 net.cpp:367] drop6-R -> fc6-R (in-place)
I0715 17:13:38.895834 13860 net.cpp:122] Setting up drop6-R
I0715 17:13:38.895844 13860 net.cpp:129] Top shape: 1 4096 17 17 (1183744)
I0715 17:13:38.895848 13860 net.cpp:137] Memory required for data: 2465425440
I0715 17:13:38.895853 13860 layer_factory.hpp:77] Creating layer fc7-R
I0715 17:13:38.895864 13860 net.cpp:84] Creating Layer fc7-R
I0715 17:13:38.895869 13860 net.cpp:406] fc7-R <- fc6-R
I0715 17:13:38.895877 13860 net.cpp:380] fc7-R -> fc7-R
I0715 17:13:38.945394 13860 net.cpp:122] Setting up fc7-R
I0715 17:13:38.945427 13860 net.cpp:129] Top shape: 1 4096 17 17 (1183744)
I0715 17:13:38.945431 13860 net.cpp:137] Memory required for data: 2470160416
I0715 17:13:38.945441 13860 layer_factory.hpp:77] Creating layer relu7-R
I0715 17:13:38.945468 13860 net.cpp:84] Creating Layer relu7-R
I0715 17:13:38.945474 13860 net.cpp:406] relu7-R <- fc7-R
I0715 17:13:38.945482 13860 net.cpp:367] relu7-R -> fc7-R (in-place)
I0715 17:13:38.945735 13860 net.cpp:122] Setting up relu7-R
I0715 17:13:38.945745 13860 net.cpp:129] Top shape: 1 4096 17 17 (1183744)
I0715 17:13:38.945749 13860 net.cpp:137] Memory required for data: 2474895392
I0715 17:13:38.945752 13860 layer_factory.hpp:77] Creating layer drop7-R
I0715 17:13:38.945760 13860 net.cpp:84] Creating Layer drop7-R
I0715 17:13:38.945765 13860 net.cpp:406] drop7-R <- fc7-R
I0715 17:13:38.945770 13860 net.cpp:367] drop7-R -> fc7-R (in-place)
I0715 17:13:38.945816 13860 net.cpp:122] Setting up drop7-R
I0715 17:13:38.945824 13860 net.cpp:129] Top shape: 1 4096 17 17 (1183744)
I0715 17:13:38.945828 13860 net.cpp:137] Memory required for data: 2479630368
I0715 17:13:38.945832 13860 layer_factory.hpp:77] Creating layer score_fr-new-R
I0715 17:13:38.945840 13860 net.cpp:84] Creating Layer score_fr-new-R
I0715 17:13:38.945844 13860 net.cpp:406] score_fr-new-R <- fc7-R
I0715 17:13:38.945850 13860 net.cpp:380] score_fr-new-R -> score_fr-new-R
I0715 17:13:38.949080 13860 net.cpp:122] Setting up score_fr-new-R
I0715 17:13:38.949097 13860 net.cpp:129] Top shape: 1 3 17 17 (867)
I0715 17:13:38.949100 13860 net.cpp:137] Memory required for data: 2479633836
I0715 17:13:38.949107 13860 layer_factory.hpp:77] Creating layer upscore2-new-R
I0715 17:13:38.949132 13860 net.cpp:84] Creating Layer upscore2-new-R
I0715 17:13:38.949136 13860 net.cpp:406] upscore2-new-R <- score_fr-new-R
I0715 17:13:38.949142 13860 net.cpp:380] upscore2-new-R -> upscore2-new-R
I0715 17:13:38.949512 13860 net.cpp:122] Setting up upscore2-new-R
I0715 17:13:38.949522 13860 net.cpp:129] Top shape: 1 3 36 36 (3888)
I0715 17:13:38.949525 13860 net.cpp:137] Memory required for data: 2479649388
I0715 17:13:38.949530 13860 layer_factory.hpp:77] Creating layer upscore2-new-R_upscore2-new-R_0_split
I0715 17:13:38.949537 13860 net.cpp:84] Creating Layer upscore2-new-R_upscore2-new-R_0_split
I0715 17:13:38.949540 13860 net.cpp:406] upscore2-new-R_upscore2-new-R_0_split <- upscore2-new-R
I0715 17:13:38.949545 13860 net.cpp:380] upscore2-new-R_upscore2-new-R_0_split -> upscore2-new-R_upscore2-new-R_0_split_0
I0715 17:13:38.949553 13860 net.cpp:380] upscore2-new-R_upscore2-new-R_0_split -> upscore2-new-R_upscore2-new-R_0_split_1
I0715 17:13:38.949615 13860 net.cpp:122] Setting up upscore2-new-R_upscore2-new-R_0_split
I0715 17:13:38.949623 13860 net.cpp:129] Top shape: 1 3 36 36 (3888)
I0715 17:13:38.949627 13860 net.cpp:129] Top shape: 1 3 36 36 (3888)
I0715 17:13:38.949630 13860 net.cpp:137] Memory required for data: 2479680492
I0715 17:13:38.949633 13860 layer_factory.hpp:77] Creating layer score_pool4-new-R
I0715 17:13:38.949642 13860 net.cpp:84] Creating Layer score_pool4-new-R
I0715 17:13:38.949646 13860 net.cpp:406] score_pool4-new-R <- pool4-R_pool4-R_0_split_1
I0715 17:13:38.949652 13860 net.cpp:380] score_pool4-new-R -> score_pool4-new-R
I0715 17:13:38.952996 13860 net.cpp:122] Setting up score_pool4-new-R
I0715 17:13:38.953011 13860 net.cpp:129] Top shape: 1 3 45 45 (6075)
I0715 17:13:38.953016 13860 net.cpp:137] Memory required for data: 2479704792
I0715 17:13:38.953022 13860 layer_factory.hpp:77] Creating layer score_pool4c-R
I0715 17:13:38.953045 13860 net.cpp:84] Creating Layer score_pool4c-R
I0715 17:13:38.953049 13860 net.cpp:406] score_pool4c-R <- score_pool4-new-R
I0715 17:13:38.953055 13860 net.cpp:406] score_pool4c-R <- upscore2-new-R_upscore2-new-R_0_split_0
I0715 17:13:38.953060 13860 net.cpp:380] score_pool4c-R -> score_pool4c-R
I0715 17:13:38.953106 13860 net.cpp:122] Setting up score_pool4c-R
I0715 17:13:38.953115 13860 net.cpp:129] Top shape: 1 3 36 36 (3888)
I0715 17:13:38.953119 13860 net.cpp:137] Memory required for data: 2479720344
I0715 17:13:38.953121 13860 layer_factory.hpp:77] Creating layer fuse_pool4-R
I0715 17:13:38.953128 13860 net.cpp:84] Creating Layer fuse_pool4-R
I0715 17:13:38.953132 13860 net.cpp:406] fuse_pool4-R <- upscore2-new-R_upscore2-new-R_0_split_1
I0715 17:13:38.953136 13860 net.cpp:406] fuse_pool4-R <- score_pool4c-R
I0715 17:13:38.953142 13860 net.cpp:380] fuse_pool4-R -> fuse_pool4-R
I0715 17:13:38.953197 13860 net.cpp:122] Setting up fuse_pool4-R
I0715 17:13:38.953204 13860 net.cpp:129] Top shape: 1 3 36 36 (3888)
I0715 17:13:38.953207 13860 net.cpp:137] Memory required for data: 2479735896
I0715 17:13:38.953210 13860 layer_factory.hpp:77] Creating layer upscore_pool4-new-R
I0715 17:13:38.953218 13860 net.cpp:84] Creating Layer upscore_pool4-new-R
I0715 17:13:38.953222 13860 net.cpp:406] upscore_pool4-new-R <- fuse_pool4-R
I0715 17:13:38.953228 13860 net.cpp:380] upscore_pool4-new-R -> upscore_pool4-new-R
I0715 17:13:38.953572 13860 net.cpp:122] Setting up upscore_pool4-new-R
I0715 17:13:38.953582 13860 net.cpp:129] Top shape: 1 3 74 74 (16428)
I0715 17:13:38.953584 13860 net.cpp:137] Memory required for data: 2479801608
I0715 17:13:38.953589 13860 layer_factory.hpp:77] Creating layer upscore_pool4-new-R_upscore_pool4-new-R_0_split
I0715 17:13:38.953595 13860 net.cpp:84] Creating Layer upscore_pool4-new-R_upscore_pool4-new-R_0_split
I0715 17:13:38.953599 13860 net.cpp:406] upscore_pool4-new-R_upscore_pool4-new-R_0_split <- upscore_pool4-new-R
I0715 17:13:38.953604 13860 net.cpp:380] upscore_pool4-new-R_upscore_pool4-new-R_0_split -> upscore_pool4-new-R_upscore_pool4-new-R_0_split_0
I0715 17:13:38.953611 13860 net.cpp:380] upscore_pool4-new-R_upscore_pool4-new-R_0_split -> upscore_pool4-new-R_upscore_pool4-new-R_0_split_1
I0715 17:13:38.953671 13860 net.cpp:122] Setting up upscore_pool4-new-R_upscore_pool4-new-R_0_split
I0715 17:13:38.953680 13860 net.cpp:129] Top shape: 1 3 74 74 (16428)
I0715 17:13:38.953683 13860 net.cpp:129] Top shape: 1 3 74 74 (16428)
I0715 17:13:38.953686 13860 net.cpp:137] Memory required for data: 2479933032
I0715 17:13:38.953691 13860 layer_factory.hpp:77] Creating layer score_pool3-new-R
I0715 17:13:38.953698 13860 net.cpp:84] Creating Layer score_pool3-new-R
I0715 17:13:38.953702 13860 net.cpp:406] score_pool3-new-R <- pool3-R_pool3-R_0_split_1
I0715 17:13:38.953708 13860 net.cpp:380] score_pool3-new-R -> score_pool3-new-R
I0715 17:13:38.955705 13860 net.cpp:122] Setting up score_pool3-new-R
I0715 17:13:38.955729 13860 net.cpp:129] Top shape: 1 3 89 89 (23763)
I0715 17:13:38.955734 13860 net.cpp:137] Memory required for data: 2480028084
I0715 17:13:38.955744 13860 layer_factory.hpp:77] Creating layer score_pool3c-R
I0715 17:13:38.955754 13860 net.cpp:84] Creating Layer score_pool3c-R
I0715 17:13:38.955760 13860 net.cpp:406] score_pool3c-R <- score_pool3-new-R
I0715 17:13:38.955768 13860 net.cpp:406] score_pool3c-R <- upscore_pool4-new-R_upscore_pool4-new-R_0_split_0
I0715 17:13:38.955776 13860 net.cpp:380] score_pool3c-R -> score_pool3c-R
I0715 17:13:38.955838 13860 net.cpp:122] Setting up score_pool3c-R
I0715 17:13:38.955850 13860 net.cpp:129] Top shape: 1 3 74 74 (16428)
I0715 17:13:38.955854 13860 net.cpp:137] Memory required for data: 2480093796
I0715 17:13:38.955859 13860 layer_factory.hpp:77] Creating layer fuse_pool3-R
I0715 17:13:38.955868 13860 net.cpp:84] Creating Layer fuse_pool3-R
I0715 17:13:38.955873 13860 net.cpp:406] fuse_pool3-R <- upscore_pool4-new-R_upscore_pool4-new-R_0_split_1
I0715 17:13:38.955879 13860 net.cpp:406] fuse_pool3-R <- score_pool3c-R
I0715 17:13:38.955888 13860 net.cpp:380] fuse_pool3-R -> fuse_pool3-R
I0715 17:13:38.955942 13860 net.cpp:122] Setting up fuse_pool3-R
I0715 17:13:38.955952 13860 net.cpp:129] Top shape: 1 3 74 74 (16428)
I0715 17:13:38.955956 13860 net.cpp:137] Memory required for data: 2480159508
I0715 17:13:38.955961 13860 layer_factory.hpp:77] Creating layer upscore8-new-R
I0715 17:13:38.955971 13860 net.cpp:84] Creating Layer upscore8-new-R
I0715 17:13:38.955976 13860 net.cpp:406] upscore8-new-R <- fuse_pool3-R
I0715 17:13:38.955984 13860 net.cpp:380] upscore8-new-R -> upscore8-new-R
I0715 17:13:38.956504 13860 net.cpp:122] Setting up upscore8-new-R
I0715 17:13:38.956526 13860 net.cpp:129] Top shape: 1 3 600 600 (1080000)
I0715 17:13:38.956531 13860 net.cpp:137] Memory required for data: 2484479508
I0715 17:13:38.956537 13860 layer_factory.hpp:77] Creating layer upscore8_cropped-R
I0715 17:13:38.956552 13860 net.cpp:84] Creating Layer upscore8_cropped-R
I0715 17:13:38.956557 13860 net.cpp:406] upscore8_cropped-R <- upscore8-new-R
I0715 17:13:38.956565 13860 net.cpp:406] upscore8_cropped-R <- data-R_crop_0_split_1
I0715 17:13:38.956573 13860 net.cpp:380] upscore8_cropped-R -> upscore8_cropped-R
I0715 17:13:38.956626 13860 net.cpp:122] Setting up upscore8_cropped-R
I0715 17:13:38.956637 13860 net.cpp:129] Top shape: 1 3 512 512 (786432)
I0715 17:13:38.956642 13860 net.cpp:137] Memory required for data: 2487625236
I0715 17:13:38.956646 13860 layer_factory.hpp:77] Creating layer upscore8_uncropped-R
I0715 17:13:38.956715 13860 net.cpp:84] Creating Layer upscore8_uncropped-R
I0715 17:13:38.956725 13860 net.cpp:406] upscore8_uncropped-R <- crop_info
I0715 17:13:38.956733 13860 net.cpp:406] upscore8_uncropped-R <- upscore8_cropped-R
I0715 17:13:38.956739 13860 net.cpp:406] upscore8_uncropped-R <- data_data_0_split_3
I0715 17:13:38.956748 13860 net.cpp:380] upscore8_uncropped-R -> upscore8_uncropped-R
I0715 17:13:38.959905 13860 net.cpp:122] Setting up upscore8_uncropped-R
I0715 17:13:38.959928 13860 net.cpp:129] Top shape: 1 3 512 512 (786432)
I0715 17:13:38.959933 13860 net.cpp:137] Memory required for data: 2490770964
I0715 17:13:38.959939 13860 layer_factory.hpp:77] Creating layer loss1
I0715 17:13:38.959952 13860 net.cpp:84] Creating Layer loss1
I0715 17:13:38.959957 13860 net.cpp:406] loss1 <- upscore8_cropped_upscore8_cropped_0_split_1
I0715 17:13:38.959965 13860 net.cpp:406] loss1 <- label_data_1_split_1
I0715 17:13:38.959973 13860 net.cpp:380] loss1 -> loss1
…
