…
snapshot_prefix: "/media/Med_2T2/data2/models/snapshots/joint:1e-5x10,1e-5x10,20/FD1:ZI3_1_20180418_201418,ZJ3_1_20180419_074829/train"
test_initialization: false
average_loss: 20
stepvalue: 45000
stepvalue: 50000
stepvalue: 55000
iter_size: 1
I0419 11:22:35.520478 31058 solver.cpp:77] Creating training net from train_net file: /media/Med_2T2/data2/prototxts/training_J3x10.prototxt
I0419 11:22:35.524049 31058 net.cpp:51] Initializing net from parameters: 
state {
  phase: TRAIN
}
layer {
  name: "data"
  type: "Python"
  top: "data"
  top: "label"
  top: "crop_margin"
  top: "crop_prob"
  top: "crop_sample_batch"
  python_param {
    module: "Data"
    layer: "DataLayer"
  }
}
layer {
  name: "conv1_1"
  type: "Convolution"
  bottom: "data"
  top: "conv1_1"
  param {
    lr_mult: 1
    decay_mult: 1
  }
  param {
    lr_mult: 2
    decay_mult: 0
  }
  convolution_param {
    num_output: 64
    pad: 100
    kernel_size: 3
    stride: 1
  }
}
layer {
  name: "relu1_1"
  type: "ReLU"
  bottom: "conv1_1"
  top: "conv1_1"
}
layer {
  name: "conv1_2"
  type: "Convolution"
  bottom: "conv1_1"
  top: "conv1_2"
  param {
    lr_mult: 1
    decay_mult: 1
  }
  param {
    lr_mult: 2
    decay_mult: 0
  }
  convolution_param {
    num_output: 64
    pad: 1
    kernel_size: 3
    stride: 1
  }
}
layer {
  name: "relu1_2"
  type: "ReLU"
  bottom: "conv1_2"
  top: "conv1_2"
}
layer {
  name: "pool1"
  type: "Pooling"
  bottom: "conv1_2"
  top: "pool1"
  pooling_param {
    pool: MAX
    kernel_size: 2
    stride: 2
  }
}
layer {
  name: "conv2_1"
  type: "Convolution"
  bottom: "pool1"
  top: "conv2_1"
  param {
    lr_mult: 1
    decay_mult: 1
  }
  param {
    lr_mult: 2
    decay_mult: 0
  }
  convolution_param {
    num_output: 128
    pad: 1
    kernel_size: 3
    stride: 1
  }
}
layer {
  name: "relu2_1"
  type: "ReLU"
  bottom: "conv2_1"
  top: "conv2_1"
}
layer {
  name: "conv2_2"
  type: "Convolution"
  bottom: "conv2_1"
  top: "conv2_2"
  param {
    lr_mult: 1
    decay_mult: 1
  }
  param {
    lr_mult: 2
    decay_mult: 0
  }
  convolution_param {
    num_output: 128
    pad: 1
    kernel_size: 3
    stride: 1
  }
}
layer {
  name: "relu2_2"
  type: "ReLU"
  bottom: "conv2_2"
  top: "conv2_2"
}
layer {
  name: "pool2"
  type: "Pooling"
  bottom: "conv2_2"
  top: "pool2"
  pooling_param {
    pool: MAX
    kernel_size: 2
    stride: 2
  }
}
layer {
  name: "conv3_1"
  type: "Convolution"
  bottom: "pool2"
  top: "conv3_1"
  param {
    lr_mult: 1
    decay_mult: 1
  }
  param {
    lr_mult: 2
    decay_mult: 0
  }
  convolution_param {
    num_output: 256
    pad: 1
    kernel_size: 3
    stride: 1
  }
}
layer {
  name: "relu3_1"
  type: "ReLU"
  bottom: "conv3_1"
  top: "conv3_1"
}
layer {
  name: "conv3_2"
  type: "Convolution"
  bottom: "conv3_1"
  top: "conv3_2"
  param {
    lr_mult: 1
    decay_mult: 1
  }
  param {
    lr_mult: 2
    decay_mult: 0
  }
  convolution_param {
    num_output: 256
    pad: 1
    kernel_size: 3
    stride: 1
  }
}
layer {
  name: "relu3_2"
  type: "ReLU"
  bottom: "conv3_2"
  top: "conv3_2"
}
layer {
  name: "conv3_3"
  type: "Convolution"
  bottom: "conv3_2"
  top: "conv3_3"
  param {
    lr_mult: 1
    decay_mult: 1
  }
  param {
    lr_mult: 2
    decay_mult: 0
  }
  convolution_param {
    num_output: 256
    pad: 1
    kernel_size: 3
    stride: 1
  }
}
layer {
  name: "relu3_3"
  type: "ReLU"
  bottom: "conv3_3"
  top: "conv3_3"
}
layer {
  name: "pool3"
  type: "Pooling"
  bottom: "conv3_3"
  top: "pool3"
  pooling_param {
    pool: MAX
    kernel_size: 2
    stride: 2
  }
}
layer {
  name: "conv4_1"
  type: "Convolution"
  bottom: "pool3"
  top: "conv4_1"
  param {
    lr_mult: 1
    decay_mult: 1
  }
  param {
    lr_mult: 2
    decay_mult: 0
  }
  convolution_param {
    num_output: 512
    pad: 1
    kernel_size: 3
    stride: 1
  }
}
layer {
  name: "relu4_1"
  type: "ReLU"
  bottom: "conv4_1"
  top: "conv4_1"
}
layer {
  name: "conv4_2"
  type: "Convolution"
  bottom: "conv4_1"
  top: "conv4_2"
  param {
    lr_mult: 1
    decay_mult: 1
  }
  param {
    lr_mult: 2
    decay_mult: 0
  }
  convolution_param {
    num_output: 512
    pad: 1
    kernel_size: 3
    stride: 1
  }
}
layer {
  name: "relu4_2"
  type: "ReLU"
  bottom: "conv4_2"
  top: "conv4_2"
}
layer {
  name: "conv4_3"
  type: "Convolution"
  bottom: "conv4_2"
  top: "conv4_3"
  param {
    lr_mult: 1
    decay_mult: 1
  }
  param {
    lr_mult: 2
    decay_mult: 0
  }
  convolution_param {
    num_output: 512
    pad: 1
    kernel_size: 3
    stride: 1
  }
}
layer {
  name: "relu4_3"
  type: "ReLU"
  bottom: "conv4_3"
  top: "conv4_3"
}
layer {
  name: "pool4"
  type: "Pooling"
  bottom: "conv4_3"
  top: "pool4"
  pooling_param {
    pool: MAX
    kernel_size: 2
    stride: 2
  }
}
layer {
  name: "conv5_1"
  type: "Convolution"
  bottom: "pool4"
  top: "conv5_1"
  param {
    lr_mult: 1
    decay_mult: 1
  }
  param {
    lr_mult: 2
    decay_mult: 0
  }
  convolution_param {
    num_output: 512
    pad: 1
    kernel_size: 3
    stride: 1
  }
}
layer {
  name: "relu5_1"
  type: "ReLU"
  bottom: "conv5_1"
  top: "conv5_1"
}
layer {
  name: "conv5_2"
  type: "Convolution"
  bottom: "conv5_1"
  top: "conv5_2"
  param {
    lr_mult: 1
    decay_mult: 1
  }
  param {
    lr_mult: 2
    decay_mult: 0
  }
  convolution_param {
    num_output: 512
    pad: 1
    kernel_size: 3
    stride: 1
  }
}
layer {
  name: "relu5_2"
  type: "ReLU"
  bottom: "conv5_2"
  top: "conv5_2"
}
layer {
  name: "conv5_3"
  type: "Convolution"
  bottom: "conv5_2"
  top: "conv5_3"
  param {
    lr_mult: 1
    decay_mult: 1
  }
  param {
    lr_mult: 2
    decay_mult: 0
  }
  convolution_param {
    num_output: 512
    pad: 1
    kernel_size: 3
    stride: 1
  }
}
layer {
  name: "relu5_3"
  type: "ReLU"
  bottom: "conv5_3"
  top: "conv5_3"
}
layer {
  name: "pool5"
  type: "Pooling"
  bottom: "conv5_3"
  top: "pool5"
  pooling_param {
    pool: MAX
    kernel_size: 2
    stride: 2
  }
}
layer {
  name: "fc6"
  type: "Convolution"
  bottom: "pool5"
  top: "fc6"
  param {
    lr_mult: 1
    decay_mult: 1
  }
  param {
    lr_mult: 2
    decay_mult: 0
  }
  convolution_param {
    num_output: 4096
    pad: 0
    kernel_size: 7
    stride: 1
  }
}
layer {
  name: "relu6"
  type: "ReLU"
  bottom: "fc6"
  top: "fc6"
}
layer {
  name: "drop6"
  type: "Dropout"
  bottom: "fc6"
  top: "fc6"
  dropout_param {
    dropout_ratio: 0.5
  }
}
layer {
  name: "fc7"
  type: "Convolution"
  bottom: "fc6"
  top: "fc7"
  param {
    lr_mult: 1
    decay_mult: 1
  }
  param {
    lr_mult: 2
    decay_mult: 0
  }
  convolution_param {
    num_output: 4096
    pad: 0
    kernel_size: 1
    stride: 1
  }
}
layer {
  name: "relu7"
  type: "ReLU"
  bottom: "fc7"
  top: "fc7"
}
layer {
  name: "drop7"
  type: "Dropout"
  bottom: "fc7"
  top: "fc7"
  dropout_param {
    dropout_ratio: 0.5
  }
}
layer {
  name: "score_fr-new"
  type: "Convolution"
  bottom: "fc7"
  top: "score_fr-new"
  param {
    lr_mult: 1
    decay_mult: 1
  }
  param {
    lr_mult: 2
    decay_mult: 0
  }
  convolution_param {
    num_output: 3
    kernel_size: 1
  }
}
layer {
  name: "upscore2-new"
  type: "Deconvolution"
  bottom: "score_fr-new"
  top: "upscore2-new"
  param {
    lr_mult: 0
  }
  convolution_param {
    num_output: 3
    bias_term: false
    kernel_size: 4
    stride: 2
  }
}
layer {
  name: "score_pool4-new"
  type: "Convolution"
  bottom: "pool4"
  top: "score_pool4-new"
  param {
    lr_mult: 1
    decay_mult: 1
  }
  param {
    lr_mult: 2
    decay_mult: 0
  }
  convolution_param {
    num_output: 3
    pad: 0
    kernel_size: 1
  }
}
layer {
  name: "score_pool4c"
  type: "Crop"
  bottom: "score_pool4-new"
  bottom: "upscore2-new"
  top: "score_pool4c"
  crop_param {
    axis: 2
    offset: 5
  }
}
layer {
  name: "fuse_pool4"
  type: "Eltwise"
  bottom: "upscore2-new"
  bottom: "score_pool4c"
  top: "fuse_pool4"
  eltwise_param {
    operation: SUM
  }
}
layer {
  name: "upscore_pool4-new"
  type: "Deconvolution"
  bottom: "fuse_pool4"
  top: "upscore_pool4-new"
  param {
    lr_mult: 0
  }
  convolution_param {
    num_output: 3
    bias_term: false
    kernel_size: 4
    stride: 2
  }
}
layer {
  name: "score_pool3-new"
  type: "Convolution"
  bottom: "pool3"
  top: "score_pool3-new"
  param {
    lr_mult: 1
    decay_mult: 1
  }
  param {
    lr_mult: 2
    decay_mult: 0
  }
  convolution_param {
    num_output: 3
    pad: 0
    kernel_size: 1
  }
}
layer {
  name: "score_pool3c"
  type: "Crop"
  bottom: "score_pool3-new"
  bottom: "upscore_pool4-new"
  top: "score_pool3c"
  crop_param {
    axis: 2
    offset: 9
  }
}
layer {
  name: "fuse_pool3"
  type: "Eltwise"
  bottom: "upscore_pool4-new"
  bottom: "score_pool3c"
  top: "fuse_pool3"
  eltwise_param {
    operation: SUM
  }
}
layer {
  name: "upscore8-new"
  type: "Deconvolution"
  bottom: "fuse_pool3"
  top: "upscore8-new"
  param {
    lr_mult: 0
  }
  convolution_param {
    num_output: 3
    bias_term: false
    kernel_size: 16
    stride: 8
  }
}
layer {
  name: "upscore8_cropped"
  type: "Crop"
  bottom: "upscore8-new"
  bottom: "data"
  top: "upscore8_cropped"
  crop_param {
    axis: 2
    offset: 31
  }
}
layer {
  name: "score"
  type: "Convolution"
  bottom: "upscore8_cropped"
  top: "score"
  param {
    lr_mult: 1
    decay_mult: 1
  }
  param {
    lr_mult: 2
    decay_mult: 0
  }
  convolution_param {
    num_output: 3
    pad: 1
    kernel_size: 3
    stride: 1
  }
}
layer {
  name: "prob"
  type: "Sigmoid"
  bottom: "score"
  top: "prob"
}
layer {
  name: "saliency"
  type: "Convolution"
  bottom: "prob"
  top: "saliency"
  param {
    lr_mult: 10
    decay_mult: 1
  }
  param {
    lr_mult: 20
    decay_mult: 0
  }
  convolution_param {
    num_output: 3
    pad: 2
    kernel_size: 5
    stride: 1
  }
}
layer {
  name: "saliency_data"
  type: "Eltwise"
  bottom: "data"
  bottom: "saliency"
  top: "saliency_data"
  eltwise_param {
    operation: PROD
  }
}
layer {
  name: "crop"
  type: "Python"
  bottom: "prob"
  bottom: "saliency_data"
  bottom: "crop_margin"
  bottom: "crop_prob"
  bottom: "crop_sample_batch"
  bottom: "label"
  top: "data-R"
  top: "crop_info"
  python_param {
    module: "Crop"
    layer: "CropLayer"
    param_str: "{\"TEST\": 0}"
  }
}
layer {
  name: "conv1_1-R"
  type: "Convolution"
  bottom: "data-R"
  top: "conv1_1-R"
  param {
    lr_mult: 10
    decay_mult: 1
  }
  param {
    lr_mult: 20
    decay_mult: 0
  }
  convolution_param {
    num_output: 64
    pad: 100
    kernel_size: 3
    stride: 1
  }
}
layer {
  name: "relu1_1-R"
  type: "ReLU"
  bottom: "conv1_1-R"
  top: "conv1_1-R"
}
layer {
  name: "conv1_2-R"
  type: "Convolution"
  bottom: "conv1_1-R"
  top: "conv1_2-R"
  param {
    lr_mult: 10
    decay_mult: 1
  }
  param {
    lr_mult: 20
    decay_mult: 0
  }
  convolution_param {
    num_output: 64
    pad: 1
    kernel_size: 3
    stride: 1
  }
}
layer {
  name: "relu1_2-R"
  type: "ReLU"
  bottom: "conv1_2-R"
  top: "conv1_2-R"
}
layer {
  name: "pool1-R"
  type: "Pooling"
  bottom: "conv1_2-R"
  top: "pool1-R"
  pooling_param {
    pool: MAX
    kernel_size: 2
    stride: 2
  }
}
layer {
  name: "conv2_1-R"
  type: "Convolution"
  bottom: "pool1-R"
  top: "conv2_1-R"
  param {
    lr_mult: 10
    decay_mult: 1
  }
  param {
    lr_mult: 20
    decay_mult: 0
  }
  convolution_param {
    num_output: 128
    pad: 1
    kernel_size: 3
    stride: 1
  }
}
layer {
  name: "relu2_1-R"
  type: "ReLU"
  bottom: "conv2_1-R"
  top: "conv2_1-R"
}
layer {
  name: "conv2_2-R"
  type: "Convolution"
  bottom: "conv2_1-R"
  top: "conv2_2-R"
  param {
    lr_mult: 10
    decay_mult: 1
  }
  param {
    lr_mult: 20
    decay_mult: 0
  }
  convolution_param {
    num_output: 128
    pad: 1
    kernel_size: 3
    stride: 1
  }
}
layer {
  name: "relu2_2-R"
  type: "ReLU"
  bottom: "conv2_2-R"
  top: "conv2_2-R"
}
layer {
  name: "pool2-R"
  type: "Pooling"
  bottom: "conv2_2-R"
  top: "pool2-R"
  pooling_param {
    pool: MAX
    kernel_size: 2
    stride: 2
  }
}
layer {
  name: "conv3_1-R"
  type: "Convolution"
  bottom: "pool2-R"
  top: "conv3_1-R"
  param {
    lr_mult: 10
    decay_mult: 1
  }
  param {
    lr_mult: 20
    decay_mult: 0
  }
  convolution_param {
    num_output: 256
    pad: 1
    kernel_size: 3
    stride: 1
  }
}
layer {
  name: "relu3_1-R"
  type: "ReLU"
  bottom: "conv3_1-R"
  top: "conv3_1-R"
}
layer {
  name: "conv3_2-R"
  type: "Convolution"
  bottom: "conv3_1-R"
  top: "conv3_2-R"
  param {
    lr_mult: 10
    decay_mult: 1
  }
  param {
    lr_mult: 20
    decay_mult: 0
  }
  convolution_param {
    num_output: 256
    pad: 1
    kernel_size: 3
    stride: 1
  }
}
layer {
  name: "relu3_2-R"
  type: "ReLU"
  bottom: "conv3_2-R"
  top: "conv3_2-R"
}
layer {
  name: "conv3_3-R"
  type: "Convolution"
  bottom: "conv3_2-R"
  top: "conv3_3-R"
  param {
    lr_mult: 10
    decay_mult: 1
  }
  param {
    lr_mult: 20
    decay_mult: 0
  }
  convolution_param {
    num_output: 256
    pad: 1
    kernel_size: 3
    stride: 1
  }
}
layer {
  name: "relu3_3-R"
  type: "ReLU"
  bottom: "conv3_3-R"
  top: "conv3_3-R"
}
layer {
  name: "pool3-R"
  type: "Pooling"
  bottom: "conv3_3-R"
  top: "pool3-R"
  pooling_param {
    pool: MAX
    kernel_size: 2
    stride: 2
  }
}
layer {
  name: "conv4_1-R"
  type: "Convolution"
  bottom: "pool3-R"
  top: "conv4_1-R"
  param {
    lr_mult: 10
    decay_mult: 1
  }
  param {
    lr_mult: 20
    decay_mult: 0
  }
  convolution_param {
    num_output: 512
    pad: 1
    kernel_size: 3
    stride: 1
  }
}
layer {
  name: "relu4_1-R"
  type: "ReLU"
  bottom: "conv4_1-R"
  top: "conv4_1-R"
}
layer {
  name: "conv4_2-R"
  type: "Convolution"
  bottom: "conv4_1-R"
  top: "conv4_2-R"
  param {
    lr_mult: 10
    decay_mult: 1
  }
  param {
    lr_mult: 20
    decay_mult: 0
  }
  convolution_param {
    num_output: 512
    pad: 1
    kernel_size: 3
    stride: 1
  }
}
layer {
  name: "relu4_2-R"
  type: "ReLU"
  bottom: "conv4_2-R"
  top: "conv4_2-R"
}
layer {
  name: "conv4_3-R"
  type: "Convolution"
  bottom: "conv4_2-R"
  top: "conv4_3-R"
  param {
    lr_mult: 10
    decay_mult: 1
  }
  param {
    lr_mult: 20
    decay_mult: 0
  }
  convolution_param {
    num_output: 512
    pad: 1
    kernel_size: 3
    stride: 1
  }
}
layer {
  name: "relu4_3-R"
  type: "ReLU"
  bottom: "conv4_3-R"
  top: "conv4_3-R"
}
layer {
  name: "pool4-R"
  type: "Pooling"
  bottom: "conv4_3-R"
  top: "pool4-R"
  pooling_param {
    pool: MAX
    kernel_size: 2
    stride: 2
  }
}
layer {
  name: "conv5_1-R"
  type: "Convolution"
  bottom: "pool4-R"
  top: "conv5_1-R"
  param {
    lr_mult: 10
    decay_mult: 1
  }
  param {
    lr_mult: 20
    decay_mult: 0
  }
  convolution_param {
    num_output: 512
    pad: 1
    kernel_size: 3
    stride: 1
  }
}
layer {
  name: "relu5_1-R"
  type: "ReLU"
  bottom: "conv5_1-R"
  top: "conv5_1-R"
}
layer {
  name: "conv5_2-R"
  type: "Convolution"
  bottom: "conv5_1-R"
  top: "conv5_2-R"
  param {
    lr_mult: 10
    decay_mult: 1
  }
  param {
    lr_mult: 20
    decay_mult: 0
  }
  convolution_param {
    num_output: 512
    pad: 1
    kernel_size: 3
    stride: 1
  }
}
layer {
  name: "relu5_2-R"
  type: "ReLU"
  bottom: "conv5_2-R"
  top: "conv5_2-R"
}
layer {
  name: "conv5_3-R"
  type: "Convolution"
  bottom: "conv5_2-R"
  top: "conv5_3-R"
  param {
    lr_mult: 10
    decay_mult: 1
  }
  param {
    lr_mult: 20
    decay_mult: 0
  }
  convolution_param {
    num_output: 512
    pad: 1
    kernel_size: 3
    stride: 1
  }
}
layer {
  name: "relu5_3-R"
  type: "ReLU"
  bottom: "conv5_3-R"
  top: "conv5_3-R"
}
layer {
  name: "pool5-R"
  type: "Pooling"
  bottom: "conv5_3-R"
  top: "pool5-R"
  pooling_param {
    pool: MAX
    kernel_size: 2
    stride: 2
  }
}
layer {
  name: "fc6-R"
  type: "Convolution"
  bottom: "pool5-R"
  top: "fc6-R"
  param {
    lr_mult: 10
    decay_mult: 1
  }
  param {
    lr_mult: 20
    decay_mult: 0
  }
  convolution_param {
    num_output: 4096
    pad: 0
    kernel_size: 7
    stride: 1
  }
}
layer {
  name: "relu6-R"
  type: "ReLU"
  bottom: "fc6-R"
  top: "fc6-R"
}
layer {
  name: "drop6-R"
  type: "Dropout"
  bottom: "fc6-R"
  top: "fc6-R"
  dropout_param {
    dropout_ratio: 0.5
  }
}
layer {
  name: "fc7-R"
  type: "Convolution"
  bottom: "fc6-R"
  top: "fc7-R"
  param {
    lr_mult: 10
    decay_mult: 1
  }
  param {
    lr_mult: 20
    decay_mult: 0
  }
  convolution_param {
    num_output: 4096
    pad: 0
    kernel_size: 1
    stride: 1
  }
}
layer {
  name: "relu7-R"
  type: "ReLU"
  bottom: "fc7-R"
  top: "fc7-R"
}
layer {
  name: "drop7-R"
  type: "Dropout"
  bottom: "fc7-R"
  top: "fc7-R"
  dropout_param {
    dropout_ratio: 0.5
  }
}
layer {
  name: "score_fr-new-R"
  type: "Convolution"
  bottom: "fc7-R"
  top: "score_fr-new-R"
  param {
    lr_mult: 10
    decay_mult: 1
  }
  param {
    lr_mult: 20
    decay_mult: 0
  }
  convolution_param {
    num_output: 3
    kernel_size: 1
  }
}
layer {
  name: "upscore2-new-R"
  type: "Deconvolution"
  bottom: "score_fr-new-R"
  top: "upscore2-new-R"
  param {
    lr_mult: 0
  }
  convolution_param {
    num_output: 3
    bias_term: false
    kernel_size: 4
    stride: 2
  }
}
layer {
  name: "score_pool4-new-R"
  type: "Convolution"
  bottom: "pool4-R"
  top: "score_pool4-new-R"
  param {
    lr_mult: 10
    decay_mult: 1
  }
  param {
    lr_mult: 20
    decay_mult: 0
  }
  convolution_param {
    num_output: 3
    pad: 0
    kernel_size: 1
  }
}
layer {
  name: "score_pool4c-R"
  type: "Crop"
  bottom: "score_pool4-new-R"
  bottom: "upscore2-new-R"
  top: "score_pool4c-R"
  crop_param {
    axis: 2
    offset: 5
  }
}
layer {
  name: "fuse_pool4-R"
  type: "Eltwise"
  bottom: "upscore2-new-R"
  bottom: "score_pool4c-R"
  top: "fuse_pool4-R"
  eltwise_param {
    operation: SUM
  }
}
layer {
  name: "upscore_pool4-new-R"
  type: "Deconvolution"
  bottom: "fuse_pool4-R"
  top: "upscore_pool4-new-R"
  param {
    lr_mult: 0
  }
  convolution_param {
    num_output: 3
    bias_term: false
    kernel_size: 4
    stride: 2
  }
}
layer {
  name: "score_pool3-new-R"
  type: "Convolution"
  bottom: "pool3-R"
  top: "score_pool3-new-R"
  param {
    lr_mult: 10
    decay_mult: 1
  }
  param {
    lr_mult: 20
    decay_mult: 0
  }
  convolution_param {
    num_output: 3
    pad: 0
    kernel_size: 1
  }
}
layer {
  name: "score_pool3c-R"
  type: "Crop"
  bottom: "score_pool3-new-R"
  bottom: "upscore_pool4-new-R"
  top: "score_pool3c-R"
  crop_param {
    axis: 2
    offset: 9
  }
}
layer {
  name: "fuse_pool3-R"
  type: "Eltwise"
  bottom: "upscore_pool4-new-R"
  bottom: "score_pool3c-R"
  top: "fuse_pool3-R"
  eltwise_param {
    operation: SUM
  }
}
layer {
  name: "upscore8-new-R"
  type: "Deconvolution"
  bottom: "fuse_pool3-R"
  top: "upscore8-new-R"
  param {
    lr_mult: 0
  }
  convolution_param {
    num_output: 3
    bias_term: false
    kernel_size: 16
    stride: 8
  }
}
layer {
  name: "upscore8_cropped-R"
  type: "Crop"
  bottom: "upscore8-new-R"
  bottom: "data-R"
  top: "upscore8_cropped-R"
  crop_param {
    axis: 2
    offset: 31
  }
}
layer {
  name: "score-R"
  type: "Convolution"
  bottom: "upscore8_cropped-R"
  top: "score-R"
  param {
    lr_mult: 10
    decay_mult: 1
  }
  param {
    lr_mult: 20
    decay_mult: 0
  }
  convolution_param {
    num_output: 3
    pad: 1
    kernel_size: 3
    stride: 1
  }
}
layer {
  name: "score_uncropped-R"
  type: "Python"
  bottom: "crop_info"
  bottom: "score-R"
  bottom: "data"
  top: "score_uncropped-R"
  python_param {
    module: "Uncrop"
    layer: "UncropLayer"
  }
}
layer {
  name: "loss1"
  type: "DiceLoss"
  bottom: "score"
  bottom: "label"
  top: "loss1"
  loss_weight: 0.333333
}
layer {
  name: "loss2"
  type: "DiceLoss"
  bottom: "score_uncropped-R"
  bottom: "label"
  top: "loss2"
  loss_weight: 0.666667
}
I0419 11:22:35.524893 31058 layer_factory.hpp:77] Creating layer data
I0419 11:22:35.526033 31058 net.cpp:84] Creating Layer data
I0419 11:22:35.526054 31058 net.cpp:380] data -> data
I0419 11:22:35.526079 31058 net.cpp:380] data -> label
I0419 11:22:35.526090 31058 net.cpp:380] data -> crop_margin
I0419 11:22:35.526100 31058 net.cpp:380] data -> crop_prob
I0419 11:22:35.526109 31058 net.cpp:380] data -> crop_sample_batch
I0419 11:22:35.629703 31058 net.cpp:122] Setting up data
I0419 11:22:35.629756 31058 net.cpp:129] Top shape: 1 3 512 512 (786432)
I0419 11:22:35.629765 31058 net.cpp:129] Top shape: 1 3 512 512 (786432)
I0419 11:22:35.629770 31058 net.cpp:129] Top shape: 1 (1)
I0419 11:22:35.629775 31058 net.cpp:129] Top shape: 1 (1)
I0419 11:22:35.629779 31058 net.cpp:129] Top shape: 1 (1)
I0419 11:22:35.629783 31058 net.cpp:137] Memory required for data: 6291468
I0419 11:22:35.629791 31058 layer_factory.hpp:77] Creating layer data_data_0_split
I0419 11:22:35.629808 31058 net.cpp:84] Creating Layer data_data_0_split
I0419 11:22:35.629814 31058 net.cpp:406] data_data_0_split <- data
I0419 11:22:35.629827 31058 net.cpp:380] data_data_0_split -> data_data_0_split_0
I0419 11:22:35.629840 31058 net.cpp:380] data_data_0_split -> data_data_0_split_1
I0419 11:22:35.629848 31058 net.cpp:380] data_data_0_split -> data_data_0_split_2
I0419 11:22:35.629854 31058 net.cpp:380] data_data_0_split -> data_data_0_split_3
I0419 11:22:35.629915 31058 net.cpp:122] Setting up data_data_0_split
I0419 11:22:35.629921 31058 net.cpp:129] Top shape: 1 3 512 512 (786432)
I0419 11:22:35.629926 31058 net.cpp:129] Top shape: 1 3 512 512 (786432)
I0419 11:22:35.629931 31058 net.cpp:129] Top shape: 1 3 512 512 (786432)
I0419 11:22:35.629936 31058 net.cpp:129] Top shape: 1 3 512 512 (786432)
I0419 11:22:35.629940 31058 net.cpp:137] Memory required for data: 18874380
I0419 11:22:35.629945 31058 layer_factory.hpp:77] Creating layer label_data_1_split
I0419 11:22:35.629951 31058 net.cpp:84] Creating Layer label_data_1_split
I0419 11:22:35.629956 31058 net.cpp:406] label_data_1_split <- label
I0419 11:22:35.629961 31058 net.cpp:380] label_data_1_split -> label_data_1_split_0
I0419 11:22:35.629968 31058 net.cpp:380] label_data_1_split -> label_data_1_split_1
I0419 11:22:35.629976 31058 net.cpp:380] label_data_1_split -> label_data_1_split_2
I0419 11:22:35.630013 31058 net.cpp:122] Setting up label_data_1_split
I0419 11:22:35.630019 31058 net.cpp:129] Top shape: 1 3 512 512 (786432)
I0419 11:22:35.630024 31058 net.cpp:129] Top shape: 1 3 512 512 (786432)
I0419 11:22:35.630028 31058 net.cpp:129] Top shape: 1 3 512 512 (786432)
I0419 11:22:35.630033 31058 net.cpp:137] Memory required for data: 28311564
I0419 11:22:35.630036 31058 layer_factory.hpp:77] Creating layer conv1_1
I0419 11:22:35.630053 31058 net.cpp:84] Creating Layer conv1_1
I0419 11:22:35.630059 31058 net.cpp:406] conv1_1 <- data_data_0_split_0
I0419 11:22:35.630064 31058 net.cpp:380] conv1_1 -> conv1_1
I0419 11:22:36.030994 31058 net.cpp:122] Setting up conv1_1
I0419 11:22:36.031059 31058 net.cpp:129] Top shape: 1 64 710 710 (32262400)
I0419 11:22:36.031071 31058 net.cpp:137] Memory required for data: 157361164
I0419 11:22:36.031111 31058 layer_factory.hpp:77] Creating layer relu1_1
I0419 11:22:36.031139 31058 net.cpp:84] Creating Layer relu1_1
I0419 11:22:36.031148 31058 net.cpp:406] relu1_1 <- conv1_1
I0419 11:22:36.031160 31058 net.cpp:367] relu1_1 -> conv1_1 (in-place)
I0419 11:22:36.031630 31058 net.cpp:122] Setting up relu1_1
I0419 11:22:36.031662 31058 net.cpp:129] Top shape: 1 64 710 710 (32262400)
I0419 11:22:36.031669 31058 net.cpp:137] Memory required for data: 286410764
I0419 11:22:36.031677 31058 layer_factory.hpp:77] Creating layer conv1_2
I0419 11:22:36.031702 31058 net.cpp:84] Creating Layer conv1_2
I0419 11:22:36.031710 31058 net.cpp:406] conv1_2 <- conv1_1
I0419 11:22:36.031723 31058 net.cpp:380] conv1_2 -> conv1_2
I0419 11:22:36.038849 31058 net.cpp:122] Setting up conv1_2
I0419 11:22:36.038887 31058 net.cpp:129] Top shape: 1 64 710 710 (32262400)
I0419 11:22:36.038893 31058 net.cpp:137] Memory required for data: 415460364
I0419 11:22:36.038908 31058 layer_factory.hpp:77] Creating layer relu1_2
I0419 11:22:36.038918 31058 net.cpp:84] Creating Layer relu1_2
I0419 11:22:36.038924 31058 net.cpp:406] relu1_2 <- conv1_2
I0419 11:22:36.038935 31058 net.cpp:367] relu1_2 -> conv1_2 (in-place)
I0419 11:22:36.039229 31058 net.cpp:122] Setting up relu1_2
I0419 11:22:36.039245 31058 net.cpp:129] Top shape: 1 64 710 710 (32262400)
I0419 11:22:36.039250 31058 net.cpp:137] Memory required for data: 544509964
I0419 11:22:36.039255 31058 layer_factory.hpp:77] Creating layer pool1
I0419 11:22:36.039266 31058 net.cpp:84] Creating Layer pool1
I0419 11:22:36.039271 31058 net.cpp:406] pool1 <- conv1_2
I0419 11:22:36.039279 31058 net.cpp:380] pool1 -> pool1
I0419 11:22:36.039353 31058 net.cpp:122] Setting up pool1
I0419 11:22:36.039364 31058 net.cpp:129] Top shape: 1 64 355 355 (8065600)
I0419 11:22:36.039369 31058 net.cpp:137] Memory required for data: 576772364
I0419 11:22:36.039373 31058 layer_factory.hpp:77] Creating layer conv2_1
I0419 11:22:36.039389 31058 net.cpp:84] Creating Layer conv2_1
I0419 11:22:36.039394 31058 net.cpp:406] conv2_1 <- pool1
I0419 11:22:36.039405 31058 net.cpp:380] conv2_1 -> conv2_1
I0419 11:22:36.049701 31058 net.cpp:122] Setting up conv2_1
I0419 11:22:36.049777 31058 net.cpp:129] Top shape: 1 128 355 355 (16131200)
I0419 11:22:36.049784 31058 net.cpp:137] Memory required for data: 641297164
I0419 11:22:36.049835 31058 layer_factory.hpp:77] Creating layer relu2_1
I0419 11:22:36.049860 31058 net.cpp:84] Creating Layer relu2_1
I0419 11:22:36.049870 31058 net.cpp:406] relu2_1 <- conv2_1
I0419 11:22:36.049882 31058 net.cpp:367] relu2_1 -> conv2_1 (in-place)
I0419 11:22:36.050420 31058 net.cpp:122] Setting up relu2_1
I0419 11:22:36.050441 31058 net.cpp:129] Top shape: 1 128 355 355 (16131200)
I0419 11:22:36.050448 31058 net.cpp:137] Memory required for data: 705821964
I0419 11:22:36.050467 31058 layer_factory.hpp:77] Creating layer conv2_2
I0419 11:22:36.050487 31058 net.cpp:84] Creating Layer conv2_2
I0419 11:22:36.050506 31058 net.cpp:406] conv2_2 <- conv2_1
I0419 11:22:36.050521 31058 net.cpp:380] conv2_2 -> conv2_2
I0419 11:22:36.054265 31058 net.cpp:122] Setting up conv2_2
I0419 11:22:36.054296 31058 net.cpp:129] Top shape: 1 128 355 355 (16131200)
I0419 11:22:36.054304 31058 net.cpp:137] Memory required for data: 770346764
I0419 11:22:36.054319 31058 layer_factory.hpp:77] Creating layer relu2_2
I0419 11:22:36.054333 31058 net.cpp:84] Creating Layer relu2_2
I0419 11:22:36.054342 31058 net.cpp:406] relu2_2 <- conv2_2
I0419 11:22:36.054355 31058 net.cpp:367] relu2_2 -> conv2_2 (in-place)
I0419 11:22:36.054780 31058 net.cpp:122] Setting up relu2_2
I0419 11:22:36.054800 31058 net.cpp:129] Top shape: 1 128 355 355 (16131200)
I0419 11:22:36.054806 31058 net.cpp:137] Memory required for data: 834871564
I0419 11:22:36.054824 31058 layer_factory.hpp:77] Creating layer pool2
I0419 11:22:36.054838 31058 net.cpp:84] Creating Layer pool2
I0419 11:22:36.054846 31058 net.cpp:406] pool2 <- conv2_2
I0419 11:22:36.054859 31058 net.cpp:380] pool2 -> pool2
I0419 11:22:36.054949 31058 net.cpp:122] Setting up pool2
I0419 11:22:36.054967 31058 net.cpp:129] Top shape: 1 128 178 178 (4055552)
I0419 11:22:36.054986 31058 net.cpp:137] Memory required for data: 851093772
I0419 11:22:36.054993 31058 layer_factory.hpp:77] Creating layer conv3_1
I0419 11:22:36.055009 31058 net.cpp:84] Creating Layer conv3_1
I0419 11:22:36.055016 31058 net.cpp:406] conv3_1 <- pool2
I0419 11:22:36.055033 31058 net.cpp:380] conv3_1 -> conv3_1
I0419 11:22:36.060663 31058 net.cpp:122] Setting up conv3_1
I0419 11:22:36.060693 31058 net.cpp:129] Top shape: 1 256 178 178 (8111104)
I0419 11:22:36.060701 31058 net.cpp:137] Memory required for data: 883538188
I0419 11:22:36.060734 31058 layer_factory.hpp:77] Creating layer relu3_1
I0419 11:22:36.060751 31058 net.cpp:84] Creating Layer relu3_1
I0419 11:22:36.060760 31058 net.cpp:406] relu3_1 <- conv3_1
I0419 11:22:36.060770 31058 net.cpp:367] relu3_1 -> conv3_1 (in-place)
I0419 11:22:36.063361 31058 net.cpp:122] Setting up relu3_1
I0419 11:22:36.063392 31058 net.cpp:129] Top shape: 1 256 178 178 (8111104)
I0419 11:22:36.063410 31058 net.cpp:137] Memory required for data: 915982604
I0419 11:22:36.063417 31058 layer_factory.hpp:77] Creating layer conv3_2
I0419 11:22:36.063437 31058 net.cpp:84] Creating Layer conv3_2
I0419 11:22:36.063446 31058 net.cpp:406] conv3_2 <- conv3_1
I0419 11:22:36.063463 31058 net.cpp:380] conv3_2 -> conv3_2
I0419 11:22:36.069218 31058 net.cpp:122] Setting up conv3_2
I0419 11:22:36.069263 31058 net.cpp:129] Top shape: 1 256 178 178 (8111104)
I0419 11:22:36.069270 31058 net.cpp:137] Memory required for data: 948427020
I0419 11:22:36.069283 31058 layer_factory.hpp:77] Creating layer relu3_2
I0419 11:22:36.069308 31058 net.cpp:84] Creating Layer relu3_2
I0419 11:22:36.069315 31058 net.cpp:406] relu3_2 <- conv3_2
I0419 11:22:36.069327 31058 net.cpp:367] relu3_2 -> conv3_2 (in-place)
I0419 11:22:36.070210 31058 net.cpp:122] Setting up relu3_2
I0419 11:22:36.070242 31058 net.cpp:129] Top shape: 1 256 178 178 (8111104)
I0419 11:22:36.070269 31058 net.cpp:137] Memory required for data: 980871436
I0419 11:22:36.070278 31058 layer_factory.hpp:77] Creating layer conv3_3
I0419 11:22:36.070299 31058 net.cpp:84] Creating Layer conv3_3
I0419 11:22:36.070307 31058 net.cpp:406] conv3_3 <- conv3_2
I0419 11:22:36.070320 31058 net.cpp:380] conv3_3 -> conv3_3
I0419 11:22:36.075834 31058 net.cpp:122] Setting up conv3_3
I0419 11:22:36.075853 31058 net.cpp:129] Top shape: 1 256 178 178 (8111104)
I0419 11:22:36.075857 31058 net.cpp:137] Memory required for data: 1013315852
I0419 11:22:36.075870 31058 layer_factory.hpp:77] Creating layer relu3_3
I0419 11:22:36.075881 31058 net.cpp:84] Creating Layer relu3_3
I0419 11:22:36.075886 31058 net.cpp:406] relu3_3 <- conv3_3
I0419 11:22:36.075893 31058 net.cpp:367] relu3_3 -> conv3_3 (in-place)
I0419 11:22:36.076122 31058 net.cpp:122] Setting up relu3_3
I0419 11:22:36.076138 31058 net.cpp:129] Top shape: 1 256 178 178 (8111104)
I0419 11:22:36.076141 31058 net.cpp:137] Memory required for data: 1045760268
I0419 11:22:36.076145 31058 layer_factory.hpp:77] Creating layer pool3
I0419 11:22:36.076154 31058 net.cpp:84] Creating Layer pool3
I0419 11:22:36.076159 31058 net.cpp:406] pool3 <- conv3_3
I0419 11:22:36.076165 31058 net.cpp:380] pool3 -> pool3
I0419 11:22:36.076220 31058 net.cpp:122] Setting up pool3
I0419 11:22:36.076228 31058 net.cpp:129] Top shape: 1 256 89 89 (2027776)
I0419 11:22:36.076232 31058 net.cpp:137] Memory required for data: 1053871372
I0419 11:22:36.076236 31058 layer_factory.hpp:77] Creating layer pool3_pool3_0_split
I0419 11:22:36.076243 31058 net.cpp:84] Creating Layer pool3_pool3_0_split
I0419 11:22:36.076247 31058 net.cpp:406] pool3_pool3_0_split <- pool3
I0419 11:22:36.076256 31058 net.cpp:380] pool3_pool3_0_split -> pool3_pool3_0_split_0
I0419 11:22:36.076263 31058 net.cpp:380] pool3_pool3_0_split -> pool3_pool3_0_split_1
I0419 11:22:36.076303 31058 net.cpp:122] Setting up pool3_pool3_0_split
I0419 11:22:36.076318 31058 net.cpp:129] Top shape: 1 256 89 89 (2027776)
I0419 11:22:36.076323 31058 net.cpp:129] Top shape: 1 256 89 89 (2027776)
I0419 11:22:36.076326 31058 net.cpp:137] Memory required for data: 1070093580
I0419 11:22:36.076330 31058 layer_factory.hpp:77] Creating layer conv4_1
I0419 11:22:36.076344 31058 net.cpp:84] Creating Layer conv4_1
I0419 11:22:36.076349 31058 net.cpp:406] conv4_1 <- pool3_pool3_0_split_0
I0419 11:22:36.076354 31058 net.cpp:380] conv4_1 -> conv4_1
I0419 11:22:36.086933 31058 net.cpp:122] Setting up conv4_1
I0419 11:22:36.086977 31058 net.cpp:129] Top shape: 1 512 89 89 (4055552)
I0419 11:22:36.086982 31058 net.cpp:137] Memory required for data: 1086315788
I0419 11:22:36.086992 31058 layer_factory.hpp:77] Creating layer relu4_1
I0419 11:22:36.087004 31058 net.cpp:84] Creating Layer relu4_1
I0419 11:22:36.087010 31058 net.cpp:406] relu4_1 <- conv4_1
I0419 11:22:36.087018 31058 net.cpp:367] relu4_1 -> conv4_1 (in-place)
I0419 11:22:36.087287 31058 net.cpp:122] Setting up relu4_1
I0419 11:22:36.087301 31058 net.cpp:129] Top shape: 1 512 89 89 (4055552)
I0419 11:22:36.087306 31058 net.cpp:137] Memory required for data: 1102537996
I0419 11:22:36.087309 31058 layer_factory.hpp:77] Creating layer conv4_2
I0419 11:22:36.087337 31058 net.cpp:84] Creating Layer conv4_2
I0419 11:22:36.087342 31058 net.cpp:406] conv4_2 <- conv4_1
I0419 11:22:36.087348 31058 net.cpp:380] conv4_2 -> conv4_2
I0419 11:22:36.096617 31058 net.cpp:122] Setting up conv4_2
I0419 11:22:36.096650 31058 net.cpp:129] Top shape: 1 512 89 89 (4055552)
I0419 11:22:36.096655 31058 net.cpp:137] Memory required for data: 1118760204
I0419 11:22:36.096674 31058 layer_factory.hpp:77] Creating layer relu4_2
I0419 11:22:36.096685 31058 net.cpp:84] Creating Layer relu4_2
I0419 11:22:36.096690 31058 net.cpp:406] relu4_2 <- conv4_2
I0419 11:22:36.096698 31058 net.cpp:367] relu4_2 -> conv4_2 (in-place)
I0419 11:22:36.096956 31058 net.cpp:122] Setting up relu4_2
I0419 11:22:36.096969 31058 net.cpp:129] Top shape: 1 512 89 89 (4055552)
I0419 11:22:36.096973 31058 net.cpp:137] Memory required for data: 1134982412
I0419 11:22:36.096978 31058 layer_factory.hpp:77] Creating layer conv4_3
I0419 11:22:36.096993 31058 net.cpp:84] Creating Layer conv4_3
I0419 11:22:36.096998 31058 net.cpp:406] conv4_3 <- conv4_2
I0419 11:22:36.097005 31058 net.cpp:380] conv4_3 -> conv4_3
I0419 11:22:36.113126 31058 net.cpp:122] Setting up conv4_3
I0419 11:22:36.113178 31058 net.cpp:129] Top shape: 1 512 89 89 (4055552)
I0419 11:22:36.113185 31058 net.cpp:137] Memory required for data: 1151204620
I0419 11:22:36.113200 31058 layer_factory.hpp:77] Creating layer relu4_3
I0419 11:22:36.113230 31058 net.cpp:84] Creating Layer relu4_3
I0419 11:22:36.113240 31058 net.cpp:406] relu4_3 <- conv4_3
I0419 11:22:36.113250 31058 net.cpp:367] relu4_3 -> conv4_3 (in-place)
I0419 11:22:36.113555 31058 net.cpp:122] Setting up relu4_3
I0419 11:22:36.113571 31058 net.cpp:129] Top shape: 1 512 89 89 (4055552)
I0419 11:22:36.113576 31058 net.cpp:137] Memory required for data: 1167426828
I0419 11:22:36.113582 31058 layer_factory.hpp:77] Creating layer pool4
I0419 11:22:36.113596 31058 net.cpp:84] Creating Layer pool4
I0419 11:22:36.113610 31058 net.cpp:406] pool4 <- conv4_3
I0419 11:22:36.113620 31058 net.cpp:380] pool4 -> pool4
I0419 11:22:36.113695 31058 net.cpp:122] Setting up pool4
I0419 11:22:36.113706 31058 net.cpp:129] Top shape: 1 512 45 45 (1036800)
I0419 11:22:36.113711 31058 net.cpp:137] Memory required for data: 1171574028
I0419 11:22:36.113716 31058 layer_factory.hpp:77] Creating layer pool4_pool4_0_split
I0419 11:22:36.113725 31058 net.cpp:84] Creating Layer pool4_pool4_0_split
I0419 11:22:36.113731 31058 net.cpp:406] pool4_pool4_0_split <- pool4
I0419 11:22:36.113742 31058 net.cpp:380] pool4_pool4_0_split -> pool4_pool4_0_split_0
I0419 11:22:36.113751 31058 net.cpp:380] pool4_pool4_0_split -> pool4_pool4_0_split_1
I0419 11:22:36.113806 31058 net.cpp:122] Setting up pool4_pool4_0_split
I0419 11:22:36.113816 31058 net.cpp:129] Top shape: 1 512 45 45 (1036800)
I0419 11:22:36.113823 31058 net.cpp:129] Top shape: 1 512 45 45 (1036800)
I0419 11:22:36.113828 31058 net.cpp:137] Memory required for data: 1179868428
I0419 11:22:36.113833 31058 layer_factory.hpp:77] Creating layer conv5_1
I0419 11:22:36.113853 31058 net.cpp:84] Creating Layer conv5_1
I0419 11:22:36.113862 31058 net.cpp:406] conv5_1 <- pool4_pool4_0_split_0
I0419 11:22:36.113871 31058 net.cpp:380] conv5_1 -> conv5_1
I0419 11:22:36.127154 31058 net.cpp:122] Setting up conv5_1
I0419 11:22:36.127208 31058 net.cpp:129] Top shape: 1 512 45 45 (1036800)
I0419 11:22:36.127218 31058 net.cpp:137] Memory required for data: 1184015628
I0419 11:22:36.127234 31058 layer_factory.hpp:77] Creating layer relu5_1
I0419 11:22:36.127255 31058 net.cpp:84] Creating Layer relu5_1
I0419 11:22:36.127265 31058 net.cpp:406] relu5_1 <- conv5_1
I0419 11:22:36.127284 31058 net.cpp:367] relu5_1 -> conv5_1 (in-place)
I0419 11:22:36.129665 31058 net.cpp:122] Setting up relu5_1
I0419 11:22:36.129696 31058 net.cpp:129] Top shape: 1 512 45 45 (1036800)
I0419 11:22:36.129709 31058 net.cpp:137] Memory required for data: 1188162828
I0419 11:22:36.129716 31058 layer_factory.hpp:77] Creating layer conv5_2
I0419 11:22:36.129740 31058 net.cpp:84] Creating Layer conv5_2
I0419 11:22:36.129750 31058 net.cpp:406] conv5_2 <- conv5_1
I0419 11:22:36.129770 31058 net.cpp:380] conv5_2 -> conv5_2
I0419 11:22:36.139793 31058 net.cpp:122] Setting up conv5_2
I0419 11:22:36.139827 31058 net.cpp:129] Top shape: 1 512 45 45 (1036800)
I0419 11:22:36.139832 31058 net.cpp:137] Memory required for data: 1192310028
I0419 11:22:36.139842 31058 layer_factory.hpp:77] Creating layer relu5_2
I0419 11:22:36.139863 31058 net.cpp:84] Creating Layer relu5_2
I0419 11:22:36.139869 31058 net.cpp:406] relu5_2 <- conv5_2
I0419 11:22:36.139878 31058 net.cpp:367] relu5_2 -> conv5_2 (in-place)
I0419 11:22:36.140676 31058 net.cpp:122] Setting up relu5_2
I0419 11:22:36.140693 31058 net.cpp:129] Top shape: 1 512 45 45 (1036800)
I0419 11:22:36.140707 31058 net.cpp:137] Memory required for data: 1196457228
I0419 11:22:36.140712 31058 layer_factory.hpp:77] Creating layer conv5_3
I0419 11:22:36.140725 31058 net.cpp:84] Creating Layer conv5_3
I0419 11:22:36.140732 31058 net.cpp:406] conv5_3 <- conv5_2
I0419 11:22:36.140739 31058 net.cpp:380] conv5_3 -> conv5_3
I0419 11:22:36.149827 31058 net.cpp:122] Setting up conv5_3
I0419 11:22:36.149852 31058 net.cpp:129] Top shape: 1 512 45 45 (1036800)
I0419 11:22:36.149864 31058 net.cpp:137] Memory required for data: 1200604428
I0419 11:22:36.149874 31058 layer_factory.hpp:77] Creating layer relu5_3
I0419 11:22:36.149884 31058 net.cpp:84] Creating Layer relu5_3
I0419 11:22:36.149889 31058 net.cpp:406] relu5_3 <- conv5_3
I0419 11:22:36.149899 31058 net.cpp:367] relu5_3 -> conv5_3 (in-place)
I0419 11:22:36.150154 31058 net.cpp:122] Setting up relu5_3
I0419 11:22:36.150174 31058 net.cpp:129] Top shape: 1 512 45 45 (1036800)
I0419 11:22:36.150178 31058 net.cpp:137] Memory required for data: 1204751628
I0419 11:22:36.150185 31058 layer_factory.hpp:77] Creating layer pool5
I0419 11:22:36.150194 31058 net.cpp:84] Creating Layer pool5
I0419 11:22:36.150202 31058 net.cpp:406] pool5 <- conv5_3
I0419 11:22:36.150207 31058 net.cpp:380] pool5 -> pool5
I0419 11:22:36.150264 31058 net.cpp:122] Setting up pool5
I0419 11:22:36.150274 31058 net.cpp:129] Top shape: 1 512 23 23 (270848)
I0419 11:22:36.150277 31058 net.cpp:137] Memory required for data: 1205835020
I0419 11:22:36.150281 31058 layer_factory.hpp:77] Creating layer fc6
I0419 11:22:36.150295 31058 net.cpp:84] Creating Layer fc6
I0419 11:22:36.150300 31058 net.cpp:406] fc6 <- pool5
I0419 11:22:36.150306 31058 net.cpp:380] fc6 -> fc6
I0419 11:22:36.495635 31058 net.cpp:122] Setting up fc6
I0419 11:22:36.495688 31058 net.cpp:129] Top shape: 1 4096 17 17 (1183744)
I0419 11:22:36.495693 31058 net.cpp:137] Memory required for data: 1210569996
I0419 11:22:36.495707 31058 layer_factory.hpp:77] Creating layer relu6
I0419 11:22:36.495724 31058 net.cpp:84] Creating Layer relu6
I0419 11:22:36.495731 31058 net.cpp:406] relu6 <- fc6
I0419 11:22:36.495740 31058 net.cpp:367] relu6 -> fc6 (in-place)
I0419 11:22:36.495998 31058 net.cpp:122] Setting up relu6
I0419 11:22:36.496011 31058 net.cpp:129] Top shape: 1 4096 17 17 (1183744)
I0419 11:22:36.496014 31058 net.cpp:137] Memory required for data: 1215304972
I0419 11:22:36.496018 31058 layer_factory.hpp:77] Creating layer drop6
I0419 11:22:36.496034 31058 net.cpp:84] Creating Layer drop6
I0419 11:22:36.496038 31058 net.cpp:406] drop6 <- fc6
I0419 11:22:36.496044 31058 net.cpp:367] drop6 -> fc6 (in-place)
I0419 11:22:36.496083 31058 net.cpp:122] Setting up drop6
I0419 11:22:36.496095 31058 net.cpp:129] Top shape: 1 4096 17 17 (1183744)
I0419 11:22:36.496099 31058 net.cpp:137] Memory required for data: 1220039948
I0419 11:22:36.496104 31058 layer_factory.hpp:77] Creating layer fc7
I0419 11:22:36.496121 31058 net.cpp:84] Creating Layer fc7
I0419 11:22:36.496125 31058 net.cpp:406] fc7 <- fc6
I0419 11:22:36.496131 31058 net.cpp:380] fc7 -> fc7
I0419 11:22:36.551429 31058 net.cpp:122] Setting up fc7
I0419 11:22:36.551479 31058 net.cpp:129] Top shape: 1 4096 17 17 (1183744)
I0419 11:22:36.551486 31058 net.cpp:137] Memory required for data: 1224774924
I0419 11:22:36.551497 31058 layer_factory.hpp:77] Creating layer relu7
I0419 11:22:36.551512 31058 net.cpp:84] Creating Layer relu7
I0419 11:22:36.551517 31058 net.cpp:406] relu7 <- fc7
I0419 11:22:36.551524 31058 net.cpp:367] relu7 -> fc7 (in-place)
I0419 11:22:36.552151 31058 net.cpp:122] Setting up relu7
I0419 11:22:36.552182 31058 net.cpp:129] Top shape: 1 4096 17 17 (1183744)
I0419 11:22:36.552186 31058 net.cpp:137] Memory required for data: 1229509900
I0419 11:22:36.552189 31058 layer_factory.hpp:77] Creating layer drop7
I0419 11:22:36.552197 31058 net.cpp:84] Creating Layer drop7
I0419 11:22:36.552201 31058 net.cpp:406] drop7 <- fc7
I0419 11:22:36.552206 31058 net.cpp:367] drop7 -> fc7 (in-place)
I0419 11:22:36.552255 31058 net.cpp:122] Setting up drop7
I0419 11:22:36.552261 31058 net.cpp:129] Top shape: 1 4096 17 17 (1183744)
I0419 11:22:36.552264 31058 net.cpp:137] Memory required for data: 1234244876
I0419 11:22:36.552268 31058 layer_factory.hpp:77] Creating layer score_fr-new
I0419 11:22:36.552278 31058 net.cpp:84] Creating Layer score_fr-new
I0419 11:22:36.552283 31058 net.cpp:406] score_fr-new <- fc7
I0419 11:22:36.552289 31058 net.cpp:380] score_fr-new -> score_fr-new
I0419 11:22:36.553561 31058 net.cpp:122] Setting up score_fr-new
I0419 11:22:36.553575 31058 net.cpp:129] Top shape: 1 3 17 17 (867)
I0419 11:22:36.553594 31058 net.cpp:137] Memory required for data: 1234248344
I0419 11:22:36.553601 31058 layer_factory.hpp:77] Creating layer upscore2-new
I0419 11:22:36.553619 31058 net.cpp:84] Creating Layer upscore2-new
I0419 11:22:36.553624 31058 net.cpp:406] upscore2-new <- score_fr-new
I0419 11:22:36.553652 31058 net.cpp:380] upscore2-new -> upscore2-new
I0419 11:22:36.553877 31058 net.cpp:122] Setting up upscore2-new
I0419 11:22:36.553886 31058 net.cpp:129] Top shape: 1 3 36 36 (3888)
I0419 11:22:36.553889 31058 net.cpp:137] Memory required for data: 1234263896
I0419 11:22:36.553906 31058 layer_factory.hpp:77] Creating layer upscore2-new_upscore2-new_0_split
I0419 11:22:36.553912 31058 net.cpp:84] Creating Layer upscore2-new_upscore2-new_0_split
I0419 11:22:36.553916 31058 net.cpp:406] upscore2-new_upscore2-new_0_split <- upscore2-new
I0419 11:22:36.553921 31058 net.cpp:380] upscore2-new_upscore2-new_0_split -> upscore2-new_upscore2-new_0_split_0
I0419 11:22:36.553928 31058 net.cpp:380] upscore2-new_upscore2-new_0_split -> upscore2-new_upscore2-new_0_split_1
I0419 11:22:36.553966 31058 net.cpp:122] Setting up upscore2-new_upscore2-new_0_split
I0419 11:22:36.553979 31058 net.cpp:129] Top shape: 1 3 36 36 (3888)
I0419 11:22:36.553983 31058 net.cpp:129] Top shape: 1 3 36 36 (3888)
I0419 11:22:36.553987 31058 net.cpp:137] Memory required for data: 1234295000
I0419 11:22:36.553989 31058 layer_factory.hpp:77] Creating layer score_pool4-new
I0419 11:22:36.553997 31058 net.cpp:84] Creating Layer score_pool4-new
I0419 11:22:36.554000 31058 net.cpp:406] score_pool4-new <- pool4_pool4_0_split_1
I0419 11:22:36.554008 31058 net.cpp:380] score_pool4-new -> score_pool4-new
I0419 11:22:36.556180 31058 net.cpp:122] Setting up score_pool4-new
I0419 11:22:36.556221 31058 net.cpp:129] Top shape: 1 3 45 45 (6075)
I0419 11:22:36.556229 31058 net.cpp:137] Memory required for data: 1234319300
I0419 11:22:36.556243 31058 layer_factory.hpp:77] Creating layer score_pool4c
I0419 11:22:36.556262 31058 net.cpp:84] Creating Layer score_pool4c
I0419 11:22:36.556278 31058 net.cpp:406] score_pool4c <- score_pool4-new
I0419 11:22:36.556288 31058 net.cpp:406] score_pool4c <- upscore2-new_upscore2-new_0_split_0
I0419 11:22:36.556303 31058 net.cpp:380] score_pool4c -> score_pool4c
I0419 11:22:36.556367 31058 net.cpp:122] Setting up score_pool4c
I0419 11:22:36.556387 31058 net.cpp:129] Top shape: 1 3 36 36 (3888)
I0419 11:22:36.556393 31058 net.cpp:137] Memory required for data: 1234334852
I0419 11:22:36.556399 31058 layer_factory.hpp:77] Creating layer fuse_pool4
I0419 11:22:36.556414 31058 net.cpp:84] Creating Layer fuse_pool4
I0419 11:22:36.556422 31058 net.cpp:406] fuse_pool4 <- upscore2-new_upscore2-new_0_split_1
I0419 11:22:36.556432 31058 net.cpp:406] fuse_pool4 <- score_pool4c
I0419 11:22:36.556442 31058 net.cpp:380] fuse_pool4 -> fuse_pool4
I0419 11:22:36.556499 31058 net.cpp:122] Setting up fuse_pool4
I0419 11:22:36.556514 31058 net.cpp:129] Top shape: 1 3 36 36 (3888)
I0419 11:22:36.556519 31058 net.cpp:137] Memory required for data: 1234350404
I0419 11:22:36.556525 31058 layer_factory.hpp:77] Creating layer upscore_pool4-new
I0419 11:22:36.556541 31058 net.cpp:84] Creating Layer upscore_pool4-new
I0419 11:22:36.556548 31058 net.cpp:406] upscore_pool4-new <- fuse_pool4
I0419 11:22:36.556562 31058 net.cpp:380] upscore_pool4-new -> upscore_pool4-new
I0419 11:22:36.556982 31058 net.cpp:122] Setting up upscore_pool4-new
I0419 11:22:36.556998 31058 net.cpp:129] Top shape: 1 3 74 74 (16428)
I0419 11:22:36.557013 31058 net.cpp:137] Memory required for data: 1234416116
I0419 11:22:36.557024 31058 layer_factory.hpp:77] Creating layer upscore_pool4-new_upscore_pool4-new_0_split
I0419 11:22:36.557037 31058 net.cpp:84] Creating Layer upscore_pool4-new_upscore_pool4-new_0_split
I0419 11:22:36.557044 31058 net.cpp:406] upscore_pool4-new_upscore_pool4-new_0_split <- upscore_pool4-new
I0419 11:22:36.557054 31058 net.cpp:380] upscore_pool4-new_upscore_pool4-new_0_split -> upscore_pool4-new_upscore_pool4-new_0_split_0
I0419 11:22:36.557066 31058 net.cpp:380] upscore_pool4-new_upscore_pool4-new_0_split -> upscore_pool4-new_upscore_pool4-new_0_split_1
I0419 11:22:36.557137 31058 net.cpp:122] Setting up upscore_pool4-new_upscore_pool4-new_0_split
I0419 11:22:36.557149 31058 net.cpp:129] Top shape: 1 3 74 74 (16428)
I0419 11:22:36.557157 31058 net.cpp:129] Top shape: 1 3 74 74 (16428)
I0419 11:22:36.557164 31058 net.cpp:137] Memory required for data: 1234547540
I0419 11:22:36.557170 31058 layer_factory.hpp:77] Creating layer score_pool3-new
I0419 11:22:36.557183 31058 net.cpp:84] Creating Layer score_pool3-new
I0419 11:22:36.557190 31058 net.cpp:406] score_pool3-new <- pool3_pool3_0_split_1
I0419 11:22:36.557205 31058 net.cpp:380] score_pool3-new -> score_pool3-new
I0419 11:22:36.559728 31058 net.cpp:122] Setting up score_pool3-new
I0419 11:22:36.559758 31058 net.cpp:129] Top shape: 1 3 89 89 (23763)
I0419 11:22:36.559767 31058 net.cpp:137] Memory required for data: 1234642592
I0419 11:22:36.559780 31058 layer_factory.hpp:77] Creating layer score_pool3c
I0419 11:22:36.559798 31058 net.cpp:84] Creating Layer score_pool3c
I0419 11:22:36.559806 31058 net.cpp:406] score_pool3c <- score_pool3-new
I0419 11:22:36.559816 31058 net.cpp:406] score_pool3c <- upscore_pool4-new_upscore_pool4-new_0_split_0
I0419 11:22:36.559828 31058 net.cpp:380] score_pool3c -> score_pool3c
I0419 11:22:36.559890 31058 net.cpp:122] Setting up score_pool3c
I0419 11:22:36.559907 31058 net.cpp:129] Top shape: 1 3 74 74 (16428)
I0419 11:22:36.559914 31058 net.cpp:137] Memory required for data: 1234708304
I0419 11:22:36.559921 31058 layer_factory.hpp:77] Creating layer fuse_pool3
I0419 11:22:36.559931 31058 net.cpp:84] Creating Layer fuse_pool3
I0419 11:22:36.559939 31058 net.cpp:406] fuse_pool3 <- upscore_pool4-new_upscore_pool4-new_0_split_1
I0419 11:22:36.559952 31058 net.cpp:406] fuse_pool3 <- score_pool3c
I0419 11:22:36.559963 31058 net.cpp:380] fuse_pool3 -> fuse_pool3
I0419 11:22:36.560014 31058 net.cpp:122] Setting up fuse_pool3
I0419 11:22:36.560027 31058 net.cpp:129] Top shape: 1 3 74 74 (16428)
I0419 11:22:36.560034 31058 net.cpp:137] Memory required for data: 1234774016
I0419 11:22:36.560040 31058 layer_factory.hpp:77] Creating layer upscore8-new
I0419 11:22:36.560055 31058 net.cpp:84] Creating Layer upscore8-new
I0419 11:22:36.560063 31058 net.cpp:406] upscore8-new <- fuse_pool3
I0419 11:22:36.560073 31058 net.cpp:380] upscore8-new -> upscore8-new
I0419 11:22:36.560511 31058 net.cpp:122] Setting up upscore8-new
I0419 11:22:36.560526 31058 net.cpp:129] Top shape: 1 3 600 600 (1080000)
I0419 11:22:36.560533 31058 net.cpp:137] Memory required for data: 1239094016
I0419 11:22:36.560542 31058 layer_factory.hpp:77] Creating layer upscore8_cropped
I0419 11:22:36.560554 31058 net.cpp:84] Creating Layer upscore8_cropped
I0419 11:22:36.560560 31058 net.cpp:406] upscore8_cropped <- upscore8-new
I0419 11:22:36.560570 31058 net.cpp:406] upscore8_cropped <- data_data_0_split_1
I0419 11:22:36.560580 31058 net.cpp:380] upscore8_cropped -> upscore8_cropped
I0419 11:22:36.560628 31058 net.cpp:122] Setting up upscore8_cropped
I0419 11:22:36.560642 31058 net.cpp:129] Top shape: 1 3 512 512 (786432)
I0419 11:22:36.560647 31058 net.cpp:137] Memory required for data: 1242239744
I0419 11:22:36.560654 31058 layer_factory.hpp:77] Creating layer score
I0419 11:22:36.560667 31058 net.cpp:84] Creating Layer score
I0419 11:22:36.560674 31058 net.cpp:406] score <- upscore8_cropped
I0419 11:22:36.560685 31058 net.cpp:380] score -> score
I0419 11:22:36.575181 31058 net.cpp:122] Setting up score
I0419 11:22:36.575230 31058 net.cpp:129] Top shape: 1 3 512 512 (786432)
I0419 11:22:36.575235 31058 net.cpp:137] Memory required for data: 1245385472
I0419 11:22:36.575263 31058 layer_factory.hpp:77] Creating layer score_score_0_split
I0419 11:22:36.575276 31058 net.cpp:84] Creating Layer score_score_0_split
I0419 11:22:36.575284 31058 net.cpp:406] score_score_0_split <- score
I0419 11:22:36.575309 31058 net.cpp:380] score_score_0_split -> score_score_0_split_0
I0419 11:22:36.575320 31058 net.cpp:380] score_score_0_split -> score_score_0_split_1
I0419 11:22:36.575461 31058 net.cpp:122] Setting up score_score_0_split
I0419 11:22:36.575471 31058 net.cpp:129] Top shape: 1 3 512 512 (786432)
I0419 11:22:36.575476 31058 net.cpp:129] Top shape: 1 3 512 512 (786432)
I0419 11:22:36.575480 31058 net.cpp:137] Memory required for data: 1251676928
I0419 11:22:36.575484 31058 layer_factory.hpp:77] Creating layer prob
I0419 11:22:36.575493 31058 net.cpp:84] Creating Layer prob
I0419 11:22:36.575497 31058 net.cpp:406] prob <- score_score_0_split_0
I0419 11:22:36.575505 31058 net.cpp:380] prob -> prob
I0419 11:22:36.575866 31058 net.cpp:122] Setting up prob
I0419 11:22:36.575878 31058 net.cpp:129] Top shape: 1 3 512 512 (786432)
I0419 11:22:36.575882 31058 net.cpp:137] Memory required for data: 1254822656
I0419 11:22:36.575896 31058 layer_factory.hpp:77] Creating layer prob_prob_0_split
I0419 11:22:36.575904 31058 net.cpp:84] Creating Layer prob_prob_0_split
I0419 11:22:36.575909 31058 net.cpp:406] prob_prob_0_split <- prob
I0419 11:22:36.575917 31058 net.cpp:380] prob_prob_0_split -> prob_prob_0_split_0
I0419 11:22:36.575927 31058 net.cpp:380] prob_prob_0_split -> prob_prob_0_split_1
I0419 11:22:36.575983 31058 net.cpp:122] Setting up prob_prob_0_split
I0419 11:22:36.575989 31058 net.cpp:129] Top shape: 1 3 512 512 (786432)
I0419 11:22:36.575992 31058 net.cpp:129] Top shape: 1 3 512 512 (786432)
I0419 11:22:36.575996 31058 net.cpp:137] Memory required for data: 1261114112
I0419 11:22:36.576000 31058 layer_factory.hpp:77] Creating layer saliency
I0419 11:22:36.576014 31058 net.cpp:84] Creating Layer saliency
I0419 11:22:36.576019 31058 net.cpp:406] saliency <- prob_prob_0_split_0
I0419 11:22:36.576041 31058 net.cpp:380] saliency -> saliency
I0419 11:22:36.578739 31058 net.cpp:122] Setting up saliency
I0419 11:22:36.578768 31058 net.cpp:129] Top shape: 1 3 512 512 (786432)
I0419 11:22:36.578780 31058 net.cpp:137] Memory required for data: 1264259840
I0419 11:22:36.578794 31058 layer_factory.hpp:77] Creating layer saliency_data
I0419 11:22:36.578817 31058 net.cpp:84] Creating Layer saliency_data
I0419 11:22:36.578826 31058 net.cpp:406] saliency_data <- data_data_0_split_2
I0419 11:22:36.578837 31058 net.cpp:406] saliency_data <- saliency
I0419 11:22:36.578848 31058 net.cpp:380] saliency_data -> saliency_data
I0419 11:22:36.578927 31058 net.cpp:122] Setting up saliency_data
I0419 11:22:36.578941 31058 net.cpp:129] Top shape: 1 3 512 512 (786432)
I0419 11:22:36.578948 31058 net.cpp:137] Memory required for data: 1267405568
I0419 11:22:36.578954 31058 layer_factory.hpp:77] Creating layer crop
I0419 11:22:36.579514 31058 net.cpp:84] Creating Layer crop
I0419 11:22:36.579535 31058 net.cpp:406] crop <- prob_prob_0_split_1
I0419 11:22:36.579550 31058 net.cpp:406] crop <- saliency_data
I0419 11:22:36.579560 31058 net.cpp:406] crop <- crop_margin
I0419 11:22:36.579571 31058 net.cpp:406] crop <- crop_prob
I0419 11:22:36.579578 31058 net.cpp:406] crop <- crop_sample_batch
I0419 11:22:36.579587 31058 net.cpp:406] crop <- label_data_1_split_0
I0419 11:22:36.579601 31058 net.cpp:380] crop -> data-R
I0419 11:22:36.579615 31058 net.cpp:380] crop -> crop_info
I0419 11:22:36.603713 31058 net.cpp:122] Setting up crop
I0419 11:22:36.603754 31058 net.cpp:129] Top shape: 1 3 512 512 (786432)
I0419 11:22:36.603760 31058 net.cpp:129] Top shape: 1 2 4 (8)
I0419 11:22:36.603765 31058 net.cpp:137] Memory required for data: 1270551328
I0419 11:22:36.603772 31058 layer_factory.hpp:77] Creating layer data-R_crop_0_split
I0419 11:22:36.603796 31058 net.cpp:84] Creating Layer data-R_crop_0_split
I0419 11:22:36.603803 31058 net.cpp:406] data-R_crop_0_split <- data-R
I0419 11:22:36.603814 31058 net.cpp:380] data-R_crop_0_split -> data-R_crop_0_split_0
I0419 11:22:36.603827 31058 net.cpp:380] data-R_crop_0_split -> data-R_crop_0_split_1
I0419 11:22:36.603885 31058 net.cpp:122] Setting up data-R_crop_0_split
I0419 11:22:36.603894 31058 net.cpp:129] Top shape: 1 3 512 512 (786432)
I0419 11:22:36.603899 31058 net.cpp:129] Top shape: 1 3 512 512 (786432)
I0419 11:22:36.603904 31058 net.cpp:137] Memory required for data: 1276842784
I0419 11:22:36.603907 31058 layer_factory.hpp:77] Creating layer conv1_1-R
I0419 11:22:36.603922 31058 net.cpp:84] Creating Layer conv1_1-R
I0419 11:22:36.603927 31058 net.cpp:406] conv1_1-R <- data-R_crop_0_split_0
I0419 11:22:36.603936 31058 net.cpp:380] conv1_1-R -> conv1_1-R
I0419 11:22:36.613045 31058 net.cpp:122] Setting up conv1_1-R
I0419 11:22:36.613091 31058 net.cpp:129] Top shape: 1 64 710 710 (32262400)
I0419 11:22:36.613101 31058 net.cpp:137] Memory required for data: 1405892384
I0419 11:22:36.613116 31058 layer_factory.hpp:77] Creating layer relu1_1-R
I0419 11:22:36.613163 31058 net.cpp:84] Creating Layer relu1_1-R
I0419 11:22:36.613173 31058 net.cpp:406] relu1_1-R <- conv1_1-R
I0419 11:22:36.613185 31058 net.cpp:367] relu1_1-R -> conv1_1-R (in-place)
I0419 11:22:36.613674 31058 net.cpp:122] Setting up relu1_1-R
I0419 11:22:36.613695 31058 net.cpp:129] Top shape: 1 64 710 710 (32262400)
I0419 11:22:36.613713 31058 net.cpp:137] Memory required for data: 1534941984
I0419 11:22:36.613723 31058 layer_factory.hpp:77] Creating layer conv1_2-R
I0419 11:22:36.613742 31058 net.cpp:84] Creating Layer conv1_2-R
I0419 11:22:36.613750 31058 net.cpp:406] conv1_2-R <- conv1_1-R
I0419 11:22:36.613762 31058 net.cpp:380] conv1_2-R -> conv1_2-R
I0419 11:22:36.619379 31058 net.cpp:122] Setting up conv1_2-R
I0419 11:22:36.619427 31058 net.cpp:129] Top shape: 1 64 710 710 (32262400)
I0419 11:22:36.619436 31058 net.cpp:137] Memory required for data: 1663991584
I0419 11:22:36.619452 31058 layer_factory.hpp:77] Creating layer relu1_2-R
I0419 11:22:36.619464 31058 net.cpp:84] Creating Layer relu1_2-R
I0419 11:22:36.619472 31058 net.cpp:406] relu1_2-R <- conv1_2-R
I0419 11:22:36.619488 31058 net.cpp:367] relu1_2-R -> conv1_2-R (in-place)
I0419 11:22:36.619928 31058 net.cpp:122] Setting up relu1_2-R
I0419 11:22:36.619964 31058 net.cpp:129] Top shape: 1 64 710 710 (32262400)
I0419 11:22:36.619971 31058 net.cpp:137] Memory required for data: 1793041184
I0419 11:22:36.619987 31058 layer_factory.hpp:77] Creating layer pool1-R
I0419 11:22:36.620004 31058 net.cpp:84] Creating Layer pool1-R
I0419 11:22:36.620012 31058 net.cpp:406] pool1-R <- conv1_2-R
I0419 11:22:36.620039 31058 net.cpp:380] pool1-R -> pool1-R
I0419 11:22:36.620146 31058 net.cpp:122] Setting up pool1-R
I0419 11:22:36.620160 31058 net.cpp:129] Top shape: 1 64 355 355 (8065600)
I0419 11:22:36.620167 31058 net.cpp:137] Memory required for data: 1825303584
I0419 11:22:36.620174 31058 layer_factory.hpp:77] Creating layer conv2_1-R
I0419 11:22:36.620193 31058 net.cpp:84] Creating Layer conv2_1-R
I0419 11:22:36.620201 31058 net.cpp:406] conv2_1-R <- pool1-R
I0419 11:22:36.620216 31058 net.cpp:380] conv2_1-R -> conv2_1-R
I0419 11:22:36.624737 31058 net.cpp:122] Setting up conv2_1-R
I0419 11:22:36.624778 31058 net.cpp:129] Top shape: 1 128 355 355 (16131200)
I0419 11:22:36.624783 31058 net.cpp:137] Memory required for data: 1889828384
I0419 11:22:36.624825 31058 layer_factory.hpp:77] Creating layer relu2_1-R
I0419 11:22:36.624842 31058 net.cpp:84] Creating Layer relu2_1-R
I0419 11:22:36.624850 31058 net.cpp:406] relu2_1-R <- conv2_1-R
I0419 11:22:36.624858 31058 net.cpp:367] relu2_1-R -> conv2_1-R (in-place)
I0419 11:22:36.625200 31058 net.cpp:122] Setting up relu2_1-R
I0419 11:22:36.625216 31058 net.cpp:129] Top shape: 1 128 355 355 (16131200)
I0419 11:22:36.625219 31058 net.cpp:137] Memory required for data: 1954353184
I0419 11:22:36.625224 31058 layer_factory.hpp:77] Creating layer conv2_2-R
I0419 11:22:36.625236 31058 net.cpp:84] Creating Layer conv2_2-R
I0419 11:22:36.625241 31058 net.cpp:406] conv2_2-R <- conv2_1-R
I0419 11:22:36.625252 31058 net.cpp:380] conv2_2-R -> conv2_2-R
I0419 11:22:36.633929 31058 net.cpp:122] Setting up conv2_2-R
I0419 11:22:36.633973 31058 net.cpp:129] Top shape: 1 128 355 355 (16131200)
I0419 11:22:36.633982 31058 net.cpp:137] Memory required for data: 2018877984
I0419 11:22:36.633999 31058 layer_factory.hpp:77] Creating layer relu2_2-R
I0419 11:22:36.634016 31058 net.cpp:84] Creating Layer relu2_2-R
I0419 11:22:36.634025 31058 net.cpp:406] relu2_2-R <- conv2_2-R
I0419 11:22:36.634042 31058 net.cpp:367] relu2_2-R -> conv2_2-R (in-place)
I0419 11:22:36.635079 31058 net.cpp:122] Setting up relu2_2-R
I0419 11:22:36.635103 31058 net.cpp:129] Top shape: 1 128 355 355 (16131200)
I0419 11:22:36.635118 31058 net.cpp:137] Memory required for data: 2083402784
I0419 11:22:36.635124 31058 layer_factory.hpp:77] Creating layer pool2-R
I0419 11:22:36.635139 31058 net.cpp:84] Creating Layer pool2-R
I0419 11:22:36.635145 31058 net.cpp:406] pool2-R <- conv2_2-R
I0419 11:22:36.635155 31058 net.cpp:380] pool2-R -> pool2-R
I0419 11:22:36.635252 31058 net.cpp:122] Setting up pool2-R
I0419 11:22:36.635265 31058 net.cpp:129] Top shape: 1 128 178 178 (4055552)
I0419 11:22:36.635270 31058 net.cpp:137] Memory required for data: 2099624992
I0419 11:22:36.635277 31058 layer_factory.hpp:77] Creating layer conv3_1-R
I0419 11:22:36.635293 31058 net.cpp:84] Creating Layer conv3_1-R
I0419 11:22:36.635299 31058 net.cpp:406] conv3_1-R <- pool2-R
I0419 11:22:36.635308 31058 net.cpp:380] conv3_1-R -> conv3_1-R
I0419 11:22:36.639883 31058 net.cpp:122] Setting up conv3_1-R
I0419 11:22:36.639915 31058 net.cpp:129] Top shape: 1 256 178 178 (8111104)
I0419 11:22:36.639920 31058 net.cpp:137] Memory required for data: 2132069408
I0419 11:22:36.639930 31058 layer_factory.hpp:77] Creating layer relu3_1-R
I0419 11:22:36.639938 31058 net.cpp:84] Creating Layer relu3_1-R
I0419 11:22:36.639945 31058 net.cpp:406] relu3_1-R <- conv3_1-R
I0419 11:22:36.639951 31058 net.cpp:367] relu3_1-R -> conv3_1-R (in-place)
I0419 11:22:36.640208 31058 net.cpp:122] Setting up relu3_1-R
I0419 11:22:36.640220 31058 net.cpp:129] Top shape: 1 256 178 178 (8111104)
I0419 11:22:36.640225 31058 net.cpp:137] Memory required for data: 2164513824
I0419 11:22:36.640229 31058 layer_factory.hpp:77] Creating layer conv3_2-R
I0419 11:22:36.640241 31058 net.cpp:84] Creating Layer conv3_2-R
I0419 11:22:36.640245 31058 net.cpp:406] conv3_2-R <- conv3_1-R
I0419 11:22:36.640254 31058 net.cpp:380] conv3_2-R -> conv3_2-R
I0419 11:22:36.646304 31058 net.cpp:122] Setting up conv3_2-R
I0419 11:22:36.646338 31058 net.cpp:129] Top shape: 1 256 178 178 (8111104)
I0419 11:22:36.646348 31058 net.cpp:137] Memory required for data: 2196958240
I0419 11:22:36.646375 31058 layer_factory.hpp:77] Creating layer relu3_2-R
I0419 11:22:36.646389 31058 net.cpp:84] Creating Layer relu3_2-R
I0419 11:22:36.646399 31058 net.cpp:406] relu3_2-R <- conv3_2-R
I0419 11:22:36.646411 31058 net.cpp:367] relu3_2-R -> conv3_2-R (in-place)
I0419 11:22:36.646829 31058 net.cpp:122] Setting up relu3_2-R
I0419 11:22:36.646862 31058 net.cpp:129] Top shape: 1 256 178 178 (8111104)
I0419 11:22:36.646878 31058 net.cpp:137] Memory required for data: 2229402656
I0419 11:22:36.646888 31058 layer_factory.hpp:77] Creating layer conv3_3-R
I0419 11:22:36.646903 31058 net.cpp:84] Creating Layer conv3_3-R
I0419 11:22:36.646911 31058 net.cpp:406] conv3_3-R <- conv3_2-R
I0419 11:22:36.646924 31058 net.cpp:380] conv3_3-R -> conv3_3-R
I0419 11:22:36.652490 31058 net.cpp:122] Setting up conv3_3-R
I0419 11:22:36.652509 31058 net.cpp:129] Top shape: 1 256 178 178 (8111104)
I0419 11:22:36.652514 31058 net.cpp:137] Memory required for data: 2261847072
I0419 11:22:36.652534 31058 layer_factory.hpp:77] Creating layer relu3_3-R
I0419 11:22:36.652542 31058 net.cpp:84] Creating Layer relu3_3-R
I0419 11:22:36.652549 31058 net.cpp:406] relu3_3-R <- conv3_3-R
I0419 11:22:36.652555 31058 net.cpp:367] relu3_3-R -> conv3_3-R (in-place)
I0419 11:22:36.652807 31058 net.cpp:122] Setting up relu3_3-R
I0419 11:22:36.652820 31058 net.cpp:129] Top shape: 1 256 178 178 (8111104)
I0419 11:22:36.652824 31058 net.cpp:137] Memory required for data: 2294291488
I0419 11:22:36.652829 31058 layer_factory.hpp:77] Creating layer pool3-R
I0419 11:22:36.652838 31058 net.cpp:84] Creating Layer pool3-R
I0419 11:22:36.652843 31058 net.cpp:406] pool3-R <- conv3_3-R
I0419 11:22:36.652851 31058 net.cpp:380] pool3-R -> pool3-R
I0419 11:22:36.652915 31058 net.cpp:122] Setting up pool3-R
I0419 11:22:36.652925 31058 net.cpp:129] Top shape: 1 256 89 89 (2027776)
I0419 11:22:36.652928 31058 net.cpp:137] Memory required for data: 2302402592
I0419 11:22:36.652932 31058 layer_factory.hpp:77] Creating layer pool3-R_pool3-R_0_split
I0419 11:22:36.652940 31058 net.cpp:84] Creating Layer pool3-R_pool3-R_0_split
I0419 11:22:36.652945 31058 net.cpp:406] pool3-R_pool3-R_0_split <- pool3-R
I0419 11:22:36.652954 31058 net.cpp:380] pool3-R_pool3-R_0_split -> pool3-R_pool3-R_0_split_0
I0419 11:22:36.652962 31058 net.cpp:380] pool3-R_pool3-R_0_split -> pool3-R_pool3-R_0_split_1
I0419 11:22:36.653013 31058 net.cpp:122] Setting up pool3-R_pool3-R_0_split
I0419 11:22:36.653023 31058 net.cpp:129] Top shape: 1 256 89 89 (2027776)
I0419 11:22:36.653028 31058 net.cpp:129] Top shape: 1 256 89 89 (2027776)
I0419 11:22:36.653031 31058 net.cpp:137] Memory required for data: 2318624800
I0419 11:22:36.653035 31058 layer_factory.hpp:77] Creating layer conv4_1-R
I0419 11:22:36.653046 31058 net.cpp:84] Creating Layer conv4_1-R
I0419 11:22:36.653050 31058 net.cpp:406] conv4_1-R <- pool3-R_pool3-R_0_split_0
I0419 11:22:36.653057 31058 net.cpp:380] conv4_1-R -> conv4_1-R
I0419 11:22:36.658977 31058 net.cpp:122] Setting up conv4_1-R
I0419 11:22:36.658996 31058 net.cpp:129] Top shape: 1 512 89 89 (4055552)
I0419 11:22:36.659001 31058 net.cpp:137] Memory required for data: 2334847008
I0419 11:22:36.659024 31058 layer_factory.hpp:77] Creating layer relu4_1-R
I0419 11:22:36.659031 31058 net.cpp:84] Creating Layer relu4_1-R
I0419 11:22:36.659036 31058 net.cpp:406] relu4_1-R <- conv4_1-R
I0419 11:22:36.659044 31058 net.cpp:367] relu4_1-R -> conv4_1-R (in-place)
I0419 11:22:36.659306 31058 net.cpp:122] Setting up relu4_1-R
I0419 11:22:36.659318 31058 net.cpp:129] Top shape: 1 512 89 89 (4055552)
I0419 11:22:36.659322 31058 net.cpp:137] Memory required for data: 2351069216
I0419 11:22:36.659327 31058 layer_factory.hpp:77] Creating layer conv4_2-R
I0419 11:22:36.659337 31058 net.cpp:84] Creating Layer conv4_2-R
I0419 11:22:36.659343 31058 net.cpp:406] conv4_2-R <- conv4_1-R
I0419 11:22:36.659350 31058 net.cpp:380] conv4_2-R -> conv4_2-R
I0419 11:22:36.668350 31058 net.cpp:122] Setting up conv4_2-R
I0419 11:22:36.668373 31058 net.cpp:129] Top shape: 1 512 89 89 (4055552)
I0419 11:22:36.668378 31058 net.cpp:137] Memory required for data: 2367291424
I0419 11:22:36.668387 31058 layer_factory.hpp:77] Creating layer relu4_2-R
I0419 11:22:36.668406 31058 net.cpp:84] Creating Layer relu4_2-R
I0419 11:22:36.668411 31058 net.cpp:406] relu4_2-R <- conv4_2-R
I0419 11:22:36.668419 31058 net.cpp:367] relu4_2-R -> conv4_2-R (in-place)
I0419 11:22:36.668649 31058 net.cpp:122] Setting up relu4_2-R
I0419 11:22:36.668663 31058 net.cpp:129] Top shape: 1 512 89 89 (4055552)
I0419 11:22:36.668666 31058 net.cpp:137] Memory required for data: 2383513632
I0419 11:22:36.668670 31058 layer_factory.hpp:77] Creating layer conv4_3-R
I0419 11:22:36.668682 31058 net.cpp:84] Creating Layer conv4_3-R
I0419 11:22:36.668687 31058 net.cpp:406] conv4_3-R <- conv4_2-R
I0419 11:22:36.668696 31058 net.cpp:380] conv4_3-R -> conv4_3-R
I0419 11:22:36.685858 31058 net.cpp:122] Setting up conv4_3-R
I0419 11:22:36.685881 31058 net.cpp:129] Top shape: 1 512 89 89 (4055552)
I0419 11:22:36.685886 31058 net.cpp:137] Memory required for data: 2399735840
I0419 11:22:36.685897 31058 layer_factory.hpp:77] Creating layer relu4_3-R
I0419 11:22:36.685917 31058 net.cpp:84] Creating Layer relu4_3-R
I0419 11:22:36.685925 31058 net.cpp:406] relu4_3-R <- conv4_3-R
I0419 11:22:36.685931 31058 net.cpp:367] relu4_3-R -> conv4_3-R (in-place)
I0419 11:22:36.688189 31058 net.cpp:122] Setting up relu4_3-R
I0419 11:22:36.688220 31058 net.cpp:129] Top shape: 1 512 89 89 (4055552)
I0419 11:22:36.688230 31058 net.cpp:137] Memory required for data: 2415958048
I0419 11:22:36.688237 31058 layer_factory.hpp:77] Creating layer pool4-R
I0419 11:22:36.688252 31058 net.cpp:84] Creating Layer pool4-R
I0419 11:22:36.688261 31058 net.cpp:406] pool4-R <- conv4_3-R
I0419 11:22:36.688274 31058 net.cpp:380] pool4-R -> pool4-R
I0419 11:22:36.688388 31058 net.cpp:122] Setting up pool4-R
I0419 11:22:36.688402 31058 net.cpp:129] Top shape: 1 512 45 45 (1036800)
I0419 11:22:36.688410 31058 net.cpp:137] Memory required for data: 2420105248
I0419 11:22:36.688421 31058 layer_factory.hpp:77] Creating layer pool4-R_pool4-R_0_split
I0419 11:22:36.688432 31058 net.cpp:84] Creating Layer pool4-R_pool4-R_0_split
I0419 11:22:36.688441 31058 net.cpp:406] pool4-R_pool4-R_0_split <- pool4-R
I0419 11:22:36.688450 31058 net.cpp:380] pool4-R_pool4-R_0_split -> pool4-R_pool4-R_0_split_0
I0419 11:22:36.688463 31058 net.cpp:380] pool4-R_pool4-R_0_split -> pool4-R_pool4-R_0_split_1
I0419 11:22:36.688549 31058 net.cpp:122] Setting up pool4-R_pool4-R_0_split
I0419 11:22:36.688568 31058 net.cpp:129] Top shape: 1 512 45 45 (1036800)
I0419 11:22:36.688577 31058 net.cpp:129] Top shape: 1 512 45 45 (1036800)
I0419 11:22:36.688583 31058 net.cpp:137] Memory required for data: 2428399648
I0419 11:22:36.688591 31058 layer_factory.hpp:77] Creating layer conv5_1-R
I0419 11:22:36.688606 31058 net.cpp:84] Creating Layer conv5_1-R
I0419 11:22:36.688614 31058 net.cpp:406] conv5_1-R <- pool4-R_pool4-R_0_split_0
I0419 11:22:36.688627 31058 net.cpp:380] conv5_1-R -> conv5_1-R
I0419 11:22:36.700436 31058 net.cpp:122] Setting up conv5_1-R
I0419 11:22:36.700467 31058 net.cpp:129] Top shape: 1 512 45 45 (1036800)
I0419 11:22:36.700472 31058 net.cpp:137] Memory required for data: 2432546848
I0419 11:22:36.700497 31058 layer_factory.hpp:77] Creating layer relu5_1-R
I0419 11:22:36.700506 31058 net.cpp:84] Creating Layer relu5_1-R
I0419 11:22:36.700512 31058 net.cpp:406] relu5_1-R <- conv5_1-R
I0419 11:22:36.700526 31058 net.cpp:367] relu5_1-R -> conv5_1-R (in-place)
I0419 11:22:36.700774 31058 net.cpp:122] Setting up relu5_1-R
I0419 11:22:36.700800 31058 net.cpp:129] Top shape: 1 512 45 45 (1036800)
I0419 11:22:36.700805 31058 net.cpp:137] Memory required for data: 2436694048
I0419 11:22:36.700822 31058 layer_factory.hpp:77] Creating layer conv5_2-R
I0419 11:22:36.700832 31058 net.cpp:84] Creating Layer conv5_2-R
I0419 11:22:36.700847 31058 net.cpp:406] conv5_2-R <- conv5_1-R
I0419 11:22:36.700855 31058 net.cpp:380] conv5_2-R -> conv5_2-R
I0419 11:22:36.712210 31058 net.cpp:122] Setting up conv5_2-R
I0419 11:22:36.712247 31058 net.cpp:129] Top shape: 1 512 45 45 (1036800)
I0419 11:22:36.712252 31058 net.cpp:137] Memory required for data: 2440841248
I0419 11:22:36.712263 31058 layer_factory.hpp:77] Creating layer relu5_2-R
I0419 11:22:36.712273 31058 net.cpp:84] Creating Layer relu5_2-R
I0419 11:22:36.712280 31058 net.cpp:406] relu5_2-R <- conv5_2-R
I0419 11:22:36.712287 31058 net.cpp:367] relu5_2-R -> conv5_2-R (in-place)
I0419 11:22:36.712540 31058 net.cpp:122] Setting up relu5_2-R
I0419 11:22:36.712558 31058 net.cpp:129] Top shape: 1 512 45 45 (1036800)
I0419 11:22:36.712563 31058 net.cpp:137] Memory required for data: 2444988448
I0419 11:22:36.712568 31058 layer_factory.hpp:77] Creating layer conv5_3-R
I0419 11:22:36.712579 31058 net.cpp:84] Creating Layer conv5_3-R
I0419 11:22:36.712584 31058 net.cpp:406] conv5_3-R <- conv5_2-R
I0419 11:22:36.712594 31058 net.cpp:380] conv5_3-R -> conv5_3-R
I0419 11:22:36.723772 31058 net.cpp:122] Setting up conv5_3-R
I0419 11:22:36.723805 31058 net.cpp:129] Top shape: 1 512 45 45 (1036800)
I0419 11:22:36.723811 31058 net.cpp:137] Memory required for data: 2449135648
I0419 11:22:36.723822 31058 layer_factory.hpp:77] Creating layer relu5_3-R
I0419 11:22:36.723831 31058 net.cpp:84] Creating Layer relu5_3-R
I0419 11:22:36.723839 31058 net.cpp:406] relu5_3-R <- conv5_3-R
I0419 11:22:36.723850 31058 net.cpp:367] relu5_3-R -> conv5_3-R (in-place)
I0419 11:22:36.724112 31058 net.cpp:122] Setting up relu5_3-R
I0419 11:22:36.724125 31058 net.cpp:129] Top shape: 1 512 45 45 (1036800)
I0419 11:22:36.724129 31058 net.cpp:137] Memory required for data: 2453282848
I0419 11:22:36.724134 31058 layer_factory.hpp:77] Creating layer pool5-R
I0419 11:22:36.724148 31058 net.cpp:84] Creating Layer pool5-R
I0419 11:22:36.724153 31058 net.cpp:406] pool5-R <- conv5_3-R
I0419 11:22:36.724160 31058 net.cpp:380] pool5-R -> pool5-R
I0419 11:22:36.724239 31058 net.cpp:122] Setting up pool5-R
I0419 11:22:36.724251 31058 net.cpp:129] Top shape: 1 512 23 23 (270848)
I0419 11:22:36.724256 31058 net.cpp:137] Memory required for data: 2454366240
I0419 11:22:36.724262 31058 layer_factory.hpp:77] Creating layer fc6-R
I0419 11:22:36.724275 31058 net.cpp:84] Creating Layer fc6-R
I0419 11:22:36.724282 31058 net.cpp:406] fc6-R <- pool5-R
I0419 11:22:36.724288 31058 net.cpp:380] fc6-R -> fc6-R
I0419 11:22:37.047281 31058 net.cpp:122] Setting up fc6-R
I0419 11:22:37.047322 31058 net.cpp:129] Top shape: 1 4096 17 17 (1183744)
I0419 11:22:37.047327 31058 net.cpp:137] Memory required for data: 2459101216
I0419 11:22:37.047340 31058 layer_factory.hpp:77] Creating layer relu6-R
I0419 11:22:37.047355 31058 net.cpp:84] Creating Layer relu6-R
I0419 11:22:37.047363 31058 net.cpp:406] relu6-R <- fc6-R
I0419 11:22:37.047371 31058 net.cpp:367] relu6-R -> fc6-R (in-place)
I0419 11:22:37.047605 31058 net.cpp:122] Setting up relu6-R
I0419 11:22:37.047618 31058 net.cpp:129] Top shape: 1 4096 17 17 (1183744)
I0419 11:22:37.047622 31058 net.cpp:137] Memory required for data: 2463836192
I0419 11:22:37.047626 31058 layer_factory.hpp:77] Creating layer drop6-R
I0419 11:22:37.047636 31058 net.cpp:84] Creating Layer drop6-R
I0419 11:22:37.047641 31058 net.cpp:406] drop6-R <- fc6-R
I0419 11:22:37.047646 31058 net.cpp:367] drop6-R -> fc6-R (in-place)
I0419 11:22:37.047689 31058 net.cpp:122] Setting up drop6-R
I0419 11:22:37.047699 31058 net.cpp:129] Top shape: 1 4096 17 17 (1183744)
I0419 11:22:37.047703 31058 net.cpp:137] Memory required for data: 2468571168
I0419 11:22:37.047708 31058 layer_factory.hpp:77] Creating layer fc7-R
I0419 11:22:37.047719 31058 net.cpp:84] Creating Layer fc7-R
I0419 11:22:37.047724 31058 net.cpp:406] fc7-R <- fc6-R
I0419 11:22:37.047734 31058 net.cpp:380] fc7-R -> fc7-R
I0419 11:22:37.103737 31058 net.cpp:122] Setting up fc7-R
I0419 11:22:37.103778 31058 net.cpp:129] Top shape: 1 4096 17 17 (1183744)
I0419 11:22:37.103783 31058 net.cpp:137] Memory required for data: 2473306144
I0419 11:22:37.103797 31058 layer_factory.hpp:77] Creating layer relu7-R
I0419 11:22:37.103814 31058 net.cpp:84] Creating Layer relu7-R
I0419 11:22:37.103822 31058 net.cpp:406] relu7-R <- fc7-R
I0419 11:22:37.103832 31058 net.cpp:367] relu7-R -> fc7-R (in-place)
I0419 11:22:37.104079 31058 net.cpp:122] Setting up relu7-R
I0419 11:22:37.104090 31058 net.cpp:129] Top shape: 1 4096 17 17 (1183744)
I0419 11:22:37.104095 31058 net.cpp:137] Memory required for data: 2478041120
I0419 11:22:37.104099 31058 layer_factory.hpp:77] Creating layer drop7-R
I0419 11:22:37.104109 31058 net.cpp:84] Creating Layer drop7-R
I0419 11:22:37.104113 31058 net.cpp:406] drop7-R <- fc7-R
I0419 11:22:37.104120 31058 net.cpp:367] drop7-R -> fc7-R (in-place)
I0419 11:22:37.104164 31058 net.cpp:122] Setting up drop7-R
I0419 11:22:37.104176 31058 net.cpp:129] Top shape: 1 4096 17 17 (1183744)
I0419 11:22:37.104182 31058 net.cpp:137] Memory required for data: 2482776096
I0419 11:22:37.104187 31058 layer_factory.hpp:77] Creating layer score_fr-new-R
I0419 11:22:37.104198 31058 net.cpp:84] Creating Layer score_fr-new-R
I0419 11:22:37.104203 31058 net.cpp:406] score_fr-new-R <- fc7-R
I0419 11:22:37.104212 31058 net.cpp:380] score_fr-new-R -> score_fr-new-R
I0419 11:22:37.114820 31058 net.cpp:122] Setting up score_fr-new-R
I0419 11:22:37.114886 31058 net.cpp:129] Top shape: 1 3 17 17 (867)
I0419 11:22:37.114895 31058 net.cpp:137] Memory required for data: 2482779564
I0419 11:22:37.114915 31058 layer_factory.hpp:77] Creating layer upscore2-new-R
I0419 11:22:37.114953 31058 net.cpp:84] Creating Layer upscore2-new-R
I0419 11:22:37.114964 31058 net.cpp:406] upscore2-new-R <- score_fr-new-R
I0419 11:22:37.114980 31058 net.cpp:380] upscore2-new-R -> upscore2-new-R
I0419 11:22:37.115507 31058 net.cpp:122] Setting up upscore2-new-R
I0419 11:22:37.115525 31058 net.cpp:129] Top shape: 1 3 36 36 (3888)
I0419 11:22:37.115542 31058 net.cpp:137] Memory required for data: 2482795116
I0419 11:22:37.115557 31058 layer_factory.hpp:77] Creating layer upscore2-new-R_upscore2-new-R_0_split
I0419 11:22:37.115571 31058 net.cpp:84] Creating Layer upscore2-new-R_upscore2-new-R_0_split
I0419 11:22:37.115579 31058 net.cpp:406] upscore2-new-R_upscore2-new-R_0_split <- upscore2-new-R
I0419 11:22:37.115602 31058 net.cpp:380] upscore2-new-R_upscore2-new-R_0_split -> upscore2-new-R_upscore2-new-R_0_split_0
I0419 11:22:37.115617 31058 net.cpp:380] upscore2-new-R_upscore2-new-R_0_split -> upscore2-new-R_upscore2-new-R_0_split_1
I0419 11:22:37.115700 31058 net.cpp:122] Setting up upscore2-new-R_upscore2-new-R_0_split
I0419 11:22:37.115712 31058 net.cpp:129] Top shape: 1 3 36 36 (3888)
I0419 11:22:37.115721 31058 net.cpp:129] Top shape: 1 3 36 36 (3888)
I0419 11:22:37.115727 31058 net.cpp:137] Memory required for data: 2482826220
I0419 11:22:37.115734 31058 layer_factory.hpp:77] Creating layer score_pool4-new-R
I0419 11:22:37.115751 31058 net.cpp:84] Creating Layer score_pool4-new-R
I0419 11:22:37.115761 31058 net.cpp:406] score_pool4-new-R <- pool4-R_pool4-R_0_split_1
I0419 11:22:37.115785 31058 net.cpp:380] score_pool4-new-R -> score_pool4-new-R
I0419 11:22:37.118736 31058 net.cpp:122] Setting up score_pool4-new-R
I0419 11:22:37.118770 31058 net.cpp:129] Top shape: 1 3 45 45 (6075)
I0419 11:22:37.118775 31058 net.cpp:137] Memory required for data: 2482850520
I0419 11:22:37.118784 31058 layer_factory.hpp:77] Creating layer score_pool4c-R
I0419 11:22:37.118798 31058 net.cpp:84] Creating Layer score_pool4c-R
I0419 11:22:37.118803 31058 net.cpp:406] score_pool4c-R <- score_pool4-new-R
I0419 11:22:37.118810 31058 net.cpp:406] score_pool4c-R <- upscore2-new-R_upscore2-new-R_0_split_0
I0419 11:22:37.118830 31058 net.cpp:380] score_pool4c-R -> score_pool4c-R
I0419 11:22:37.118873 31058 net.cpp:122] Setting up score_pool4c-R
I0419 11:22:37.118880 31058 net.cpp:129] Top shape: 1 3 36 36 (3888)
I0419 11:22:37.118883 31058 net.cpp:137] Memory required for data: 2482866072
I0419 11:22:37.118887 31058 layer_factory.hpp:77] Creating layer fuse_pool4-R
I0419 11:22:37.118897 31058 net.cpp:84] Creating Layer fuse_pool4-R
I0419 11:22:37.118902 31058 net.cpp:406] fuse_pool4-R <- upscore2-new-R_upscore2-new-R_0_split_1
I0419 11:22:37.118908 31058 net.cpp:406] fuse_pool4-R <- score_pool4c-R
I0419 11:22:37.118917 31058 net.cpp:380] fuse_pool4-R -> fuse_pool4-R
I0419 11:22:37.118952 31058 net.cpp:122] Setting up fuse_pool4-R
I0419 11:22:37.118959 31058 net.cpp:129] Top shape: 1 3 36 36 (3888)
I0419 11:22:37.118963 31058 net.cpp:137] Memory required for data: 2482881624
I0419 11:22:37.118968 31058 layer_factory.hpp:77] Creating layer upscore_pool4-new-R
I0419 11:22:37.118978 31058 net.cpp:84] Creating Layer upscore_pool4-new-R
I0419 11:22:37.118981 31058 net.cpp:406] upscore_pool4-new-R <- fuse_pool4-R
I0419 11:22:37.118990 31058 net.cpp:380] upscore_pool4-new-R -> upscore_pool4-new-R
I0419 11:22:37.119280 31058 net.cpp:122] Setting up upscore_pool4-new-R
I0419 11:22:37.119292 31058 net.cpp:129] Top shape: 1 3 74 74 (16428)
I0419 11:22:37.119295 31058 net.cpp:137] Memory required for data: 2482947336
I0419 11:22:37.119302 31058 layer_factory.hpp:77] Creating layer upscore_pool4-new-R_upscore_pool4-new-R_0_split
I0419 11:22:37.119310 31058 net.cpp:84] Creating Layer upscore_pool4-new-R_upscore_pool4-new-R_0_split
I0419 11:22:37.119314 31058 net.cpp:406] upscore_pool4-new-R_upscore_pool4-new-R_0_split <- upscore_pool4-new-R
I0419 11:22:37.119321 31058 net.cpp:380] upscore_pool4-new-R_upscore_pool4-new-R_0_split -> upscore_pool4-new-R_upscore_pool4-new-R_0_split_0
I0419 11:22:37.119329 31058 net.cpp:380] upscore_pool4-new-R_upscore_pool4-new-R_0_split -> upscore_pool4-new-R_upscore_pool4-new-R_0_split_1
I0419 11:22:37.119380 31058 net.cpp:122] Setting up upscore_pool4-new-R_upscore_pool4-new-R_0_split
I0419 11:22:37.119390 31058 net.cpp:129] Top shape: 1 3 74 74 (16428)
I0419 11:22:37.119395 31058 net.cpp:129] Top shape: 1 3 74 74 (16428)
I0419 11:22:37.119400 31058 net.cpp:137] Memory required for data: 2483078760
I0419 11:22:37.119403 31058 layer_factory.hpp:77] Creating layer score_pool3-new-R
I0419 11:22:37.119415 31058 net.cpp:84] Creating Layer score_pool3-new-R
I0419 11:22:37.119421 31058 net.cpp:406] score_pool3-new-R <- pool3-R_pool3-R_0_split_1
I0419 11:22:37.119431 31058 net.cpp:380] score_pool3-new-R -> score_pool3-new-R
I0419 11:22:37.121173 31058 net.cpp:122] Setting up score_pool3-new-R
I0419 11:22:37.121192 31058 net.cpp:129] Top shape: 1 3 89 89 (23763)
I0419 11:22:37.121208 31058 net.cpp:137] Memory required for data: 2483173812
I0419 11:22:37.121217 31058 layer_factory.hpp:77] Creating layer score_pool3c-R
I0419 11:22:37.121227 31058 net.cpp:84] Creating Layer score_pool3c-R
I0419 11:22:37.121232 31058 net.cpp:406] score_pool3c-R <- score_pool3-new-R
I0419 11:22:37.121250 31058 net.cpp:406] score_pool3c-R <- upscore_pool4-new-R_upscore_pool4-new-R_0_split_0
I0419 11:22:37.121260 31058 net.cpp:380] score_pool3c-R -> score_pool3c-R
I0419 11:22:37.121300 31058 net.cpp:122] Setting up score_pool3c-R
I0419 11:22:37.121314 31058 net.cpp:129] Top shape: 1 3 74 74 (16428)
I0419 11:22:37.121317 31058 net.cpp:137] Memory required for data: 2483239524
I0419 11:22:37.121321 31058 layer_factory.hpp:77] Creating layer fuse_pool3-R
I0419 11:22:37.121330 31058 net.cpp:84] Creating Layer fuse_pool3-R
I0419 11:22:37.121333 31058 net.cpp:406] fuse_pool3-R <- upscore_pool4-new-R_upscore_pool4-new-R_0_split_1
I0419 11:22:37.121340 31058 net.cpp:406] fuse_pool3-R <- score_pool3c-R
I0419 11:22:37.121345 31058 net.cpp:380] fuse_pool3-R -> fuse_pool3-R
I0419 11:22:37.121381 31058 net.cpp:122] Setting up fuse_pool3-R
I0419 11:22:37.121390 31058 net.cpp:129] Top shape: 1 3 74 74 (16428)
I0419 11:22:37.121393 31058 net.cpp:137] Memory required for data: 2483305236
I0419 11:22:37.121397 31058 layer_factory.hpp:77] Creating layer upscore8-new-R
I0419 11:22:37.121408 31058 net.cpp:84] Creating Layer upscore8-new-R
I0419 11:22:37.121413 31058 net.cpp:406] upscore8-new-R <- fuse_pool3-R
I0419 11:22:37.121420 31058 net.cpp:380] upscore8-new-R -> upscore8-new-R
I0419 11:22:37.121737 31058 net.cpp:122] Setting up upscore8-new-R
I0419 11:22:37.121747 31058 net.cpp:129] Top shape: 1 3 600 600 (1080000)
I0419 11:22:37.121752 31058 net.cpp:137] Memory required for data: 2487625236
I0419 11:22:37.121767 31058 layer_factory.hpp:77] Creating layer upscore8_cropped-R
I0419 11:22:37.121778 31058 net.cpp:84] Creating Layer upscore8_cropped-R
I0419 11:22:37.121783 31058 net.cpp:406] upscore8_cropped-R <- upscore8-new-R
I0419 11:22:37.121790 31058 net.cpp:406] upscore8_cropped-R <- data-R_crop_0_split_1
I0419 11:22:37.121796 31058 net.cpp:380] upscore8_cropped-R -> upscore8_cropped-R
I0419 11:22:37.121830 31058 net.cpp:122] Setting up upscore8_cropped-R
I0419 11:22:37.121841 31058 net.cpp:129] Top shape: 1 3 512 512 (786432)
I0419 11:22:37.121845 31058 net.cpp:137] Memory required for data: 2490770964
I0419 11:22:37.121850 31058 layer_factory.hpp:77] Creating layer score-R
I0419 11:22:37.121862 31058 net.cpp:84] Creating Layer score-R
I0419 11:22:37.121867 31058 net.cpp:406] score-R <- upscore8_cropped-R
I0419 11:22:37.121877 31058 net.cpp:380] score-R -> score-R
I0419 11:22:37.126804 31058 net.cpp:122] Setting up score-R
I0419 11:22:37.126837 31058 net.cpp:129] Top shape: 1 3 512 512 (786432)
I0419 11:22:37.126847 31058 net.cpp:137] Memory required for data: 2493916692
I0419 11:22:37.126873 31058 layer_factory.hpp:77] Creating layer score_uncropped-R
I0419 11:22:37.127287 31058 net.cpp:84] Creating Layer score_uncropped-R
I0419 11:22:37.127310 31058 net.cpp:406] score_uncropped-R <- crop_info
I0419 11:22:37.127327 31058 net.cpp:406] score_uncropped-R <- score-R
I0419 11:22:37.127343 31058 net.cpp:406] score_uncropped-R <- data_data_0_split_3
I0419 11:22:37.127357 31058 net.cpp:380] score_uncropped-R -> score_uncropped-R
I0419 11:22:37.130857 31058 net.cpp:122] Setting up score_uncropped-R
I0419 11:22:37.130875 31058 net.cpp:129] Top shape: 1 3 512 512 (786432)
I0419 11:22:37.130880 31058 net.cpp:137] Memory required for data: 2497062420
I0419 11:22:37.130884 31058 layer_factory.hpp:77] Creating layer loss1
I0419 11:22:37.130910 31058 net.cpp:84] Creating Layer loss1
I0419 11:22:37.130915 31058 net.cpp:406] loss1 <- score_score_0_split_1
I0419 11:22:37.130921 31058 net.cpp:406] loss1 <- label_data_1_split_1
I0419 11:22:37.130928 31058 net.cpp:380] loss1 -> loss1
…
