…
snapshot_prefix: "/media/Med_2T2/data2/models/snapshots/joint:1e-5x10,1e-5x10,20/FD1:XI3_1_20180715_091943,XJ3_1_20180715_203131/train"
test_initialization: false
average_loss: 20
stepvalue: 50000
stepvalue: 60000
stepvalue: 70000
iter_size: 1
I0715 20:31:32.351532 14427 solver.cpp:77] Creating training net from train_net file: /media/Med_2T2/data2/prototxts/training_J3x10.prototxt
I0715 20:31:32.354326 14427 net.cpp:51] Initializing net from parameters: 
state {
  phase: TRAIN
}
layer {
  name: "data"
  type: "Python"
  top: "data"
  top: "label"
  top: "crop_margin"
  top: "crop_prob"
  top: "crop_sample_batch"
  python_param {
    module: "Data"
    layer: "DataLayer"
  }
}
layer {
  name: "conv1_1"
  type: "Convolution"
  bottom: "data"
  top: "conv1_1"
  param {
    lr_mult: 1
    decay_mult: 1
  }
  param {
    lr_mult: 2
    decay_mult: 0
  }
  convolution_param {
    num_output: 64
    pad: 100
    kernel_size: 3
    stride: 1
  }
}
layer {
  name: "relu1_1"
  type: "ReLU"
  bottom: "conv1_1"
  top: "conv1_1"
}
layer {
  name: "conv1_2"
  type: "Convolution"
  bottom: "conv1_1"
  top: "conv1_2"
  param {
    lr_mult: 1
    decay_mult: 1
  }
  param {
    lr_mult: 2
    decay_mult: 0
  }
  convolution_param {
    num_output: 64
    pad: 1
    kernel_size: 3
    stride: 1
  }
}
layer {
  name: "relu1_2"
  type: "ReLU"
  bottom: "conv1_2"
  top: "conv1_2"
}
layer {
  name: "pool1"
  type: "Pooling"
  bottom: "conv1_2"
  top: "pool1"
  pooling_param {
    pool: MAX
    kernel_size: 2
    stride: 2
  }
}
layer {
  name: "conv2_1"
  type: "Convolution"
  bottom: "pool1"
  top: "conv2_1"
  param {
    lr_mult: 1
    decay_mult: 1
  }
  param {
    lr_mult: 2
    decay_mult: 0
  }
  convolution_param {
    num_output: 128
    pad: 1
    kernel_size: 3
    stride: 1
  }
}
layer {
  name: "relu2_1"
  type: "ReLU"
  bottom: "conv2_1"
  top: "conv2_1"
}
layer {
  name: "conv2_2"
  type: "Convolution"
  bottom: "conv2_1"
  top: "conv2_2"
  param {
    lr_mult: 1
    decay_mult: 1
  }
  param {
    lr_mult: 2
    decay_mult: 0
  }
  convolution_param {
    num_output: 128
    pad: 1
    kernel_size: 3
    stride: 1
  }
}
layer {
  name: "relu2_2"
  type: "ReLU"
  bottom: "conv2_2"
  top: "conv2_2"
}
layer {
  name: "pool2"
  type: "Pooling"
  bottom: "conv2_2"
  top: "pool2"
  pooling_param {
    pool: MAX
    kernel_size: 2
    stride: 2
  }
}
layer {
  name: "conv3_1"
  type: "Convolution"
  bottom: "pool2"
  top: "conv3_1"
  param {
    lr_mult: 1
    decay_mult: 1
  }
  param {
    lr_mult: 2
    decay_mult: 0
  }
  convolution_param {
    num_output: 256
    pad: 1
    kernel_size: 3
    stride: 1
  }
}
layer {
  name: "relu3_1"
  type: "ReLU"
  bottom: "conv3_1"
  top: "conv3_1"
}
layer {
  name: "conv3_2"
  type: "Convolution"
  bottom: "conv3_1"
  top: "conv3_2"
  param {
    lr_mult: 1
    decay_mult: 1
  }
  param {
    lr_mult: 2
    decay_mult: 0
  }
  convolution_param {
    num_output: 256
    pad: 1
    kernel_size: 3
    stride: 1
  }
}
layer {
  name: "relu3_2"
  type: "ReLU"
  bottom: "conv3_2"
  top: "conv3_2"
}
layer {
  name: "conv3_3"
  type: "Convolution"
  bottom: "conv3_2"
  top: "conv3_3"
  param {
    lr_mult: 1
    decay_mult: 1
  }
  param {
    lr_mult: 2
    decay_mult: 0
  }
  convolution_param {
    num_output: 256
    pad: 1
    kernel_size: 3
    stride: 1
  }
}
layer {
  name: "relu3_3"
  type: "ReLU"
  bottom: "conv3_3"
  top: "conv3_3"
}
layer {
  name: "pool3"
  type: "Pooling"
  bottom: "conv3_3"
  top: "pool3"
  pooling_param {
    pool: MAX
    kernel_size: 2
    stride: 2
  }
}
layer {
  name: "conv4_1"
  type: "Convolution"
  bottom: "pool3"
  top: "conv4_1"
  param {
    lr_mult: 1
    decay_mult: 1
  }
  param {
    lr_mult: 2
    decay_mult: 0
  }
  convolution_param {
    num_output: 512
    pad: 1
    kernel_size: 3
    stride: 1
  }
}
layer {
  name: "relu4_1"
  type: "ReLU"
  bottom: "conv4_1"
  top: "conv4_1"
}
layer {
  name: "conv4_2"
  type: "Convolution"
  bottom: "conv4_1"
  top: "conv4_2"
  param {
    lr_mult: 1
    decay_mult: 1
  }
  param {
    lr_mult: 2
    decay_mult: 0
  }
  convolution_param {
    num_output: 512
    pad: 1
    kernel_size: 3
    stride: 1
  }
}
layer {
  name: "relu4_2"
  type: "ReLU"
  bottom: "conv4_2"
  top: "conv4_2"
}
layer {
  name: "conv4_3"
  type: "Convolution"
  bottom: "conv4_2"
  top: "conv4_3"
  param {
    lr_mult: 1
    decay_mult: 1
  }
  param {
    lr_mult: 2
    decay_mult: 0
  }
  convolution_param {
    num_output: 512
    pad: 1
    kernel_size: 3
    stride: 1
  }
}
layer {
  name: "relu4_3"
  type: "ReLU"
  bottom: "conv4_3"
  top: "conv4_3"
}
layer {
  name: "pool4"
  type: "Pooling"
  bottom: "conv4_3"
  top: "pool4"
  pooling_param {
    pool: MAX
    kernel_size: 2
    stride: 2
  }
}
layer {
  name: "conv5_1"
  type: "Convolution"
  bottom: "pool4"
  top: "conv5_1"
  param {
    lr_mult: 1
    decay_mult: 1
  }
  param {
    lr_mult: 2
    decay_mult: 0
  }
  convolution_param {
    num_output: 512
    pad: 1
    kernel_size: 3
    stride: 1
  }
}
layer {
  name: "relu5_1"
  type: "ReLU"
  bottom: "conv5_1"
  top: "conv5_1"
}
layer {
  name: "conv5_2"
  type: "Convolution"
  bottom: "conv5_1"
  top: "conv5_2"
  param {
    lr_mult: 1
    decay_mult: 1
  }
  param {
    lr_mult: 2
    decay_mult: 0
  }
  convolution_param {
    num_output: 512
    pad: 1
    kernel_size: 3
    stride: 1
  }
}
layer {
  name: "relu5_2"
  type: "ReLU"
  bottom: "conv5_2"
  top: "conv5_2"
}
layer {
  name: "conv5_3"
  type: "Convolution"
  bottom: "conv5_2"
  top: "conv5_3"
  param {
    lr_mult: 1
    decay_mult: 1
  }
  param {
    lr_mult: 2
    decay_mult: 0
  }
  convolution_param {
    num_output: 512
    pad: 1
    kernel_size: 3
    stride: 1
  }
}
layer {
  name: "relu5_3"
  type: "ReLU"
  bottom: "conv5_3"
  top: "conv5_3"
}
layer {
  name: "pool5"
  type: "Pooling"
  bottom: "conv5_3"
  top: "pool5"
  pooling_param {
    pool: MAX
    kernel_size: 2
    stride: 2
  }
}
layer {
  name: "fc6"
  type: "Convolution"
  bottom: "pool5"
  top: "fc6"
  param {
    lr_mult: 1
    decay_mult: 1
  }
  param {
    lr_mult: 2
    decay_mult: 0
  }
  convolution_param {
    num_output: 4096
    pad: 0
    kernel_size: 7
    stride: 1
  }
}
layer {
  name: "relu6"
  type: "ReLU"
  bottom: "fc6"
  top: "fc6"
}
layer {
  name: "drop6"
  type: "Dropout"
  bottom: "fc6"
  top: "fc6"
  dropout_param {
    dropout_ratio: 0.5
  }
}
layer {
  name: "fc7"
  type: "Convolution"
  bottom: "fc6"
  top: "fc7"
  param {
    lr_mult: 1
    decay_mult: 1
  }
  param {
    lr_mult: 2
    decay_mult: 0
  }
  convolution_param {
    num_output: 4096
    pad: 0
    kernel_size: 1
    stride: 1
  }
}
layer {
  name: "relu7"
  type: "ReLU"
  bottom: "fc7"
  top: "fc7"
}
layer {
  name: "drop7"
  type: "Dropout"
  bottom: "fc7"
  top: "fc7"
  dropout_param {
    dropout_ratio: 0.5
  }
}
layer {
  name: "score_fr-new"
  type: "Convolution"
  bottom: "fc7"
  top: "score_fr-new"
  param {
    lr_mult: 1
    decay_mult: 1
  }
  param {
    lr_mult: 2
    decay_mult: 0
  }
  convolution_param {
    num_output: 3
    kernel_size: 1
  }
}
layer {
  name: "upscore2-new"
  type: "Deconvolution"
  bottom: "score_fr-new"
  top: "upscore2-new"
  param {
    lr_mult: 0
  }
  convolution_param {
    num_output: 3
    bias_term: false
    kernel_size: 4
    stride: 2
  }
}
layer {
  name: "score_pool4-new"
  type: "Convolution"
  bottom: "pool4"
  top: "score_pool4-new"
  param {
    lr_mult: 1
    decay_mult: 1
  }
  param {
    lr_mult: 2
    decay_mult: 0
  }
  convolution_param {
    num_output: 3
    pad: 0
    kernel_size: 1
  }
}
layer {
  name: "score_pool4c"
  type: "Crop"
  bottom: "score_pool4-new"
  bottom: "upscore2-new"
  top: "score_pool4c"
  crop_param {
    axis: 2
    offset: 5
  }
}
layer {
  name: "fuse_pool4"
  type: "Eltwise"
  bottom: "upscore2-new"
  bottom: "score_pool4c"
  top: "fuse_pool4"
  eltwise_param {
    operation: SUM
  }
}
layer {
  name: "upscore_pool4-new"
  type: "Deconvolution"
  bottom: "fuse_pool4"
  top: "upscore_pool4-new"
  param {
    lr_mult: 0
  }
  convolution_param {
    num_output: 3
    bias_term: false
    kernel_size: 4
    stride: 2
  }
}
layer {
  name: "score_pool3-new"
  type: "Convolution"
  bottom: "pool3"
  top: "score_pool3-new"
  param {
    lr_mult: 1
    decay_mult: 1
  }
  param {
    lr_mult: 2
    decay_mult: 0
  }
  convolution_param {
    num_output: 3
    pad: 0
    kernel_size: 1
  }
}
layer {
  name: "score_pool3c"
  type: "Crop"
  bottom: "score_pool3-new"
  bottom: "upscore_pool4-new"
  top: "score_pool3c"
  crop_param {
    axis: 2
    offset: 9
  }
}
layer {
  name: "fuse_pool3"
  type: "Eltwise"
  bottom: "upscore_pool4-new"
  bottom: "score_pool3c"
  top: "fuse_pool3"
  eltwise_param {
    operation: SUM
  }
}
layer {
  name: "upscore8-new"
  type: "Deconvolution"
  bottom: "fuse_pool3"
  top: "upscore8-new"
  param {
    lr_mult: 0
  }
  convolution_param {
    num_output: 3
    bias_term: false
    kernel_size: 16
    stride: 8
  }
}
layer {
  name: "upscore8_cropped"
  type: "Crop"
  bottom: "upscore8-new"
  bottom: "data"
  top: "upscore8_cropped"
  crop_param {
    axis: 2
    offset: 31
  }
}
layer {
  name: "prob"
  type: "Sigmoid"
  bottom: "upscore8_cropped"
  top: "prob"
}
layer {
  name: "saliency1"
  type: "Convolution"
  bottom: "prob"
  top: "saliency1"
  param {
    lr_mult: 10
    decay_mult: 1
  }
  param {
    lr_mult: 20
    decay_mult: 0
  }
  convolution_param {
    num_output: 3
    pad: 1
    kernel_size: 3
    stride: 1
    weight_filler {
      type: "xavier"
    }
    bias_filler {
      type: "constant"
      value: 1
    }
  }
}
layer {
  name: "relu_saliency1"
  type: "ReLU"
  bottom: "saliency1"
  top: "saliency1"
}
layer {
  name: "saliency"
  type: "Convolution"
  bottom: "saliency1"
  top: "saliency"
  param {
    lr_mult: 10
    decay_mult: 1
  }
  param {
    lr_mult: 20
    decay_mult: 0
  }
  convolution_param {
    num_output: 3
    pad: 2
    kernel_size: 5
    stride: 1
    weight_filler {
      type: "xavier"
    }
    bias_filler {
      type: "constant"
      value: 1
    }
  }
}
layer {
  name: "saliency_data"
  type: "Eltwise"
  bottom: "data"
  bottom: "saliency"
  top: "saliency_data"
  eltwise_param {
    operation: PROD
  }
}
layer {
  name: "crop"
  type: "Python"
  bottom: "prob"
  bottom: "saliency_data"
  bottom: "crop_margin"
  bottom: "crop_prob"
  bottom: "crop_sample_batch"
  bottom: "label"
  top: "data-R"
  top: "crop_info"
  python_param {
    module: "Crop"
    layer: "CropLayer"
    param_str: "{\"TEST\": 0}"
  }
}
layer {
  name: "conv1_1-R"
  type: "Convolution"
  bottom: "data-R"
  top: "conv1_1-R"
  param {
    lr_mult: 10
    decay_mult: 1
  }
  param {
    lr_mult: 20
    decay_mult: 0
  }
  convolution_param {
    num_output: 64
    pad: 100
    kernel_size: 3
    stride: 1
  }
}
layer {
  name: "relu1_1-R"
  type: "ReLU"
  bottom: "conv1_1-R"
  top: "conv1_1-R"
}
layer {
  name: "conv1_2-R"
  type: "Convolution"
  bottom: "conv1_1-R"
  top: "conv1_2-R"
  param {
    lr_mult: 10
    decay_mult: 1
  }
  param {
    lr_mult: 20
    decay_mult: 0
  }
  convolution_param {
    num_output: 64
    pad: 1
    kernel_size: 3
    stride: 1
  }
}
layer {
  name: "relu1_2-R"
  type: "ReLU"
  bottom: "conv1_2-R"
  top: "conv1_2-R"
}
layer {
  name: "pool1-R"
  type: "Pooling"
  bottom: "conv1_2-R"
  top: "pool1-R"
  pooling_param {
    pool: MAX
    kernel_size: 2
    stride: 2
  }
}
layer {
  name: "conv2_1-R"
  type: "Convolution"
  bottom: "pool1-R"
  top: "conv2_1-R"
  param {
    lr_mult: 10
    decay_mult: 1
  }
  param {
    lr_mult: 20
    decay_mult: 0
  }
  convolution_param {
    num_output: 128
    pad: 1
    kernel_size: 3
    stride: 1
  }
}
layer {
  name: "relu2_1-R"
  type: "ReLU"
  bottom: "conv2_1-R"
  top: "conv2_1-R"
}
layer {
  name: "conv2_2-R"
  type: "Convolution"
  bottom: "conv2_1-R"
  top: "conv2_2-R"
  param {
    lr_mult: 10
    decay_mult: 1
  }
  param {
    lr_mult: 20
    decay_mult: 0
  }
  convolution_param {
    num_output: 128
    pad: 1
    kernel_size: 3
    stride: 1
  }
}
layer {
  name: "relu2_2-R"
  type: "ReLU"
  bottom: "conv2_2-R"
  top: "conv2_2-R"
}
layer {
  name: "pool2-R"
  type: "Pooling"
  bottom: "conv2_2-R"
  top: "pool2-R"
  pooling_param {
    pool: MAX
    kernel_size: 2
    stride: 2
  }
}
layer {
  name: "conv3_1-R"
  type: "Convolution"
  bottom: "pool2-R"
  top: "conv3_1-R"
  param {
    lr_mult: 10
    decay_mult: 1
  }
  param {
    lr_mult: 20
    decay_mult: 0
  }
  convolution_param {
    num_output: 256
    pad: 1
    kernel_size: 3
    stride: 1
  }
}
layer {
  name: "relu3_1-R"
  type: "ReLU"
  bottom: "conv3_1-R"
  top: "conv3_1-R"
}
layer {
  name: "conv3_2-R"
  type: "Convolution"
  bottom: "conv3_1-R"
  top: "conv3_2-R"
  param {
    lr_mult: 10
    decay_mult: 1
  }
  param {
    lr_mult: 20
    decay_mult: 0
  }
  convolution_param {
    num_output: 256
    pad: 1
    kernel_size: 3
    stride: 1
  }
}
layer {
  name: "relu3_2-R"
  type: "ReLU"
  bottom: "conv3_2-R"
  top: "conv3_2-R"
}
layer {
  name: "conv3_3-R"
  type: "Convolution"
  bottom: "conv3_2-R"
  top: "conv3_3-R"
  param {
    lr_mult: 10
    decay_mult: 1
  }
  param {
    lr_mult: 20
    decay_mult: 0
  }
  convolution_param {
    num_output: 256
    pad: 1
    kernel_size: 3
    stride: 1
  }
}
layer {
  name: "relu3_3-R"
  type: "ReLU"
  bottom: "conv3_3-R"
  top: "conv3_3-R"
}
layer {
  name: "pool3-R"
  type: "Pooling"
  bottom: "conv3_3-R"
  top: "pool3-R"
  pooling_param {
    pool: MAX
    kernel_size: 2
    stride: 2
  }
}
layer {
  name: "conv4_1-R"
  type: "Convolution"
  bottom: "pool3-R"
  top: "conv4_1-R"
  param {
    lr_mult: 10
    decay_mult: 1
  }
  param {
    lr_mult: 20
    decay_mult: 0
  }
  convolution_param {
    num_output: 512
    pad: 1
    kernel_size: 3
    stride: 1
  }
}
layer {
  name: "relu4_1-R"
  type: "ReLU"
  bottom: "conv4_1-R"
  top: "conv4_1-R"
}
layer {
  name: "conv4_2-R"
  type: "Convolution"
  bottom: "conv4_1-R"
  top: "conv4_2-R"
  param {
    lr_mult: 10
    decay_mult: 1
  }
  param {
    lr_mult: 20
    decay_mult: 0
  }
  convolution_param {
    num_output: 512
    pad: 1
    kernel_size: 3
    stride: 1
  }
}
layer {
  name: "relu4_2-R"
  type: "ReLU"
  bottom: "conv4_2-R"
  top: "conv4_2-R"
}
layer {
  name: "conv4_3-R"
  type: "Convolution"
  bottom: "conv4_2-R"
  top: "conv4_3-R"
  param {
    lr_mult: 10
    decay_mult: 1
  }
  param {
    lr_mult: 20
    decay_mult: 0
  }
  convolution_param {
    num_output: 512
    pad: 1
    kernel_size: 3
    stride: 1
  }
}
layer {
  name: "relu4_3-R"
  type: "ReLU"
  bottom: "conv4_3-R"
  top: "conv4_3-R"
}
layer {
  name: "pool4-R"
  type: "Pooling"
  bottom: "conv4_3-R"
  top: "pool4-R"
  pooling_param {
    pool: MAX
    kernel_size: 2
    stride: 2
  }
}
layer {
  name: "conv5_1-R"
  type: "Convolution"
  bottom: "pool4-R"
  top: "conv5_1-R"
  param {
    lr_mult: 10
    decay_mult: 1
  }
  param {
    lr_mult: 20
    decay_mult: 0
  }
  convolution_param {
    num_output: 512
    pad: 1
    kernel_size: 3
    stride: 1
  }
}
layer {
  name: "relu5_1-R"
  type: "ReLU"
  bottom: "conv5_1-R"
  top: "conv5_1-R"
}
layer {
  name: "conv5_2-R"
  type: "Convolution"
  bottom: "conv5_1-R"
  top: "conv5_2-R"
  param {
    lr_mult: 10
    decay_mult: 1
  }
  param {
    lr_mult: 20
    decay_mult: 0
  }
  convolution_param {
    num_output: 512
    pad: 1
    kernel_size: 3
    stride: 1
  }
}
layer {
  name: "relu5_2-R"
  type: "ReLU"
  bottom: "conv5_2-R"
  top: "conv5_2-R"
}
layer {
  name: "conv5_3-R"
  type: "Convolution"
  bottom: "conv5_2-R"
  top: "conv5_3-R"
  param {
    lr_mult: 10
    decay_mult: 1
  }
  param {
    lr_mult: 20
    decay_mult: 0
  }
  convolution_param {
    num_output: 512
    pad: 1
    kernel_size: 3
    stride: 1
  }
}
layer {
  name: "relu5_3-R"
  type: "ReLU"
  bottom: "conv5_3-R"
  top: "conv5_3-R"
}
layer {
  name: "pool5-R"
  type: "Pooling"
  bottom: "conv5_3-R"
  top: "pool5-R"
  pooling_param {
    pool: MAX
    kernel_size: 2
    stride: 2
  }
}
layer {
  name: "fc6-R"
  type: "Convolution"
  bottom: "pool5-R"
  top: "fc6-R"
  param {
    lr_mult: 10
    decay_mult: 1
  }
  param {
    lr_mult: 20
    decay_mult: 0
  }
  convolution_param {
    num_output: 4096
    pad: 0
    kernel_size: 7
    stride: 1
  }
}
layer {
  name: "relu6-R"
  type: "ReLU"
  bottom: "fc6-R"
  top: "fc6-R"
}
layer {
  name: "drop6-R"
  type: "Dropout"
  bottom: "fc6-R"
  top: "fc6-R"
  dropout_param {
    dropout_ratio: 0.5
  }
}
layer {
  name: "fc7-R"
  type: "Convolution"
  bottom: "fc6-R"
  top: "fc7-R"
  param {
    lr_mult: 10
    decay_mult: 1
  }
  param {
    lr_mult: 20
    decay_mult: 0
  }
  convolution_param {
    num_output: 4096
    pad: 0
    kernel_size: 1
    stride: 1
  }
}
layer {
  name: "relu7-R"
  type: "ReLU"
  bottom: "fc7-R"
  top: "fc7-R"
}
layer {
  name: "drop7-R"
  type: "Dropout"
  bottom: "fc7-R"
  top: "fc7-R"
  dropout_param {
    dropout_ratio: 0.5
  }
}
layer {
  name: "score_fr-new-R"
  type: "Convolution"
  bottom: "fc7-R"
  top: "score_fr-new-R"
  param {
    lr_mult: 10
    decay_mult: 1
  }
  param {
    lr_mult: 20
    decay_mult: 0
  }
  convolution_param {
    num_output: 3
    kernel_size: 1
  }
}
layer {
  name: "upscore2-new-R"
  type: "Deconvolution"
  bottom: "score_fr-new-R"
  top: "upscore2-new-R"
  param {
    lr_mult: 0
  }
  convolution_param {
    num_output: 3
    bias_term: false
    kernel_size: 4
    stride: 2
  }
}
layer {
  name: "score_pool4-new-R"
  type: "Convolution"
  bottom: "pool4-R"
  top: "score_pool4-new-R"
  param {
    lr_mult: 10
    decay_mult: 1
  }
  param {
    lr_mult: 20
    decay_mult: 0
  }
  convolution_param {
    num_output: 3
    pad: 0
    kernel_size: 1
  }
}
layer {
  name: "score_pool4c-R"
  type: "Crop"
  bottom: "score_pool4-new-R"
  bottom: "upscore2-new-R"
  top: "score_pool4c-R"
  crop_param {
    axis: 2
    offset: 5
  }
}
layer {
  name: "fuse_pool4-R"
  type: "Eltwise"
  bottom: "upscore2-new-R"
  bottom: "score_pool4c-R"
  top: "fuse_pool4-R"
  eltwise_param {
    operation: SUM
  }
}
layer {
  name: "upscore_pool4-new-R"
  type: "Deconvolution"
  bottom: "fuse_pool4-R"
  top: "upscore_pool4-new-R"
  param {
    lr_mult: 0
  }
  convolution_param {
    num_output: 3
    bias_term: false
    kernel_size: 4
    stride: 2
  }
}
layer {
  name: "score_pool3-new-R"
  type: "Convolution"
  bottom: "pool3-R"
  top: "score_pool3-new-R"
  param {
    lr_mult: 10
    decay_mult: 1
  }
  param {
    lr_mult: 20
    decay_mult: 0
  }
  convolution_param {
    num_output: 3
    pad: 0
    kernel_size: 1
  }
}
layer {
  name: "score_pool3c-R"
  type: "Crop"
  bottom: "score_pool3-new-R"
  bottom: "upscore_pool4-new-R"
  top: "score_pool3c-R"
  crop_param {
    axis: 2
    offset: 9
  }
}
layer {
  name: "fuse_pool3-R"
  type: "Eltwise"
  bottom: "upscore_pool4-new-R"
  bottom: "score_pool3c-R"
  top: "fuse_pool3-R"
  eltwise_param {
    operation: SUM
  }
}
layer {
  name: "upscore8-new-R"
  type: "Deconvolution"
  bottom: "fuse_pool3-R"
  top: "upscore8-new-R"
  param {
    lr_mult: 0
  }
  convolution_param {
    num_output: 3
    bias_term: false
    kernel_size: 16
    stride: 8
  }
}
layer {
  name: "upscore8_cropped-R"
  type: "Crop"
  bottom: "upscore8-new-R"
  bottom: "data-R"
  top: "upscore8_cropped-R"
  crop_param {
    axis: 2
    offset: 31
  }
}
layer {
  name: "upscore8_uncropped-R"
  type: "Python"
  bottom: "crop_info"
  bottom: "upscore8_cropped-R"
  bottom: "data"
  top: "upscore8_uncropped-R"
  python_param {
    module: "Uncrop"
    layer: "UncropLayer"
  }
}
layer {
  name: "loss1"
  type: "DiceLoss"
  bottom: "upscore8_cropped"
  bottom: "label"
  top: "loss1"
  loss_weight: 0.333333
}
layer {
  name: "loss2"
  type: "DiceLoss"
  bottom: "upscore8_uncropped-R"
  bottom: "label"
  top: "loss2"
  loss_weight: 0.666667
}
I0715 20:31:32.354900 14427 layer_factory.hpp:77] Creating layer data
I0715 20:31:32.356106 14427 net.cpp:84] Creating Layer data
I0715 20:31:32.356124 14427 net.cpp:380] data -> data
I0715 20:31:32.356144 14427 net.cpp:380] data -> label
I0715 20:31:32.356153 14427 net.cpp:380] data -> crop_margin
I0715 20:31:32.356160 14427 net.cpp:380] data -> crop_prob
I0715 20:31:32.356168 14427 net.cpp:380] data -> crop_sample_batch
I0715 20:31:32.539332 14427 net.cpp:122] Setting up data
I0715 20:31:32.539388 14427 net.cpp:129] Top shape: 1 3 512 224 (344064)
I0715 20:31:32.539397 14427 net.cpp:129] Top shape: 1 3 512 224 (344064)
I0715 20:31:32.539403 14427 net.cpp:129] Top shape: 1 (1)
I0715 20:31:32.539408 14427 net.cpp:129] Top shape: 1 (1)
I0715 20:31:32.539413 14427 net.cpp:129] Top shape: 1 (1)
I0715 20:31:32.539417 14427 net.cpp:137] Memory required for data: 2752524
I0715 20:31:32.539427 14427 layer_factory.hpp:77] Creating layer data_data_0_split
I0715 20:31:32.539443 14427 net.cpp:84] Creating Layer data_data_0_split
I0715 20:31:32.539448 14427 net.cpp:406] data_data_0_split <- data
I0715 20:31:32.539461 14427 net.cpp:380] data_data_0_split -> data_data_0_split_0
I0715 20:31:32.539474 14427 net.cpp:380] data_data_0_split -> data_data_0_split_1
I0715 20:31:32.539482 14427 net.cpp:380] data_data_0_split -> data_data_0_split_2
I0715 20:31:32.539489 14427 net.cpp:380] data_data_0_split -> data_data_0_split_3
I0715 20:31:32.539547 14427 net.cpp:122] Setting up data_data_0_split
I0715 20:31:32.539553 14427 net.cpp:129] Top shape: 1 3 512 224 (344064)
I0715 20:31:32.539559 14427 net.cpp:129] Top shape: 1 3 512 224 (344064)
I0715 20:31:32.539564 14427 net.cpp:129] Top shape: 1 3 512 224 (344064)
I0715 20:31:32.539569 14427 net.cpp:129] Top shape: 1 3 512 224 (344064)
I0715 20:31:32.539573 14427 net.cpp:137] Memory required for data: 8257548
I0715 20:31:32.539577 14427 layer_factory.hpp:77] Creating layer label_data_1_split
I0715 20:31:32.539583 14427 net.cpp:84] Creating Layer label_data_1_split
I0715 20:31:32.539588 14427 net.cpp:406] label_data_1_split <- label
I0715 20:31:32.539594 14427 net.cpp:380] label_data_1_split -> label_data_1_split_0
I0715 20:31:32.539602 14427 net.cpp:380] label_data_1_split -> label_data_1_split_1
I0715 20:31:32.539608 14427 net.cpp:380] label_data_1_split -> label_data_1_split_2
I0715 20:31:32.539646 14427 net.cpp:122] Setting up label_data_1_split
I0715 20:31:32.539652 14427 net.cpp:129] Top shape: 1 3 512 224 (344064)
I0715 20:31:32.539657 14427 net.cpp:129] Top shape: 1 3 512 224 (344064)
I0715 20:31:32.539662 14427 net.cpp:129] Top shape: 1 3 512 224 (344064)
I0715 20:31:32.539666 14427 net.cpp:137] Memory required for data: 12386316
I0715 20:31:32.539670 14427 layer_factory.hpp:77] Creating layer conv1_1
I0715 20:31:32.539686 14427 net.cpp:84] Creating Layer conv1_1
I0715 20:31:32.539691 14427 net.cpp:406] conv1_1 <- data_data_0_split_0
I0715 20:31:32.539697 14427 net.cpp:380] conv1_1 -> conv1_1
I0715 20:31:32.919365 14427 net.cpp:122] Setting up conv1_1
I0715 20:31:32.919425 14427 net.cpp:129] Top shape: 1 64 710 422 (19175680)
I0715 20:31:32.919428 14427 net.cpp:137] Memory required for data: 89089036
I0715 20:31:32.919458 14427 layer_factory.hpp:77] Creating layer relu1_1
I0715 20:31:32.919493 14427 net.cpp:84] Creating Layer relu1_1
I0715 20:31:32.919499 14427 net.cpp:406] relu1_1 <- conv1_1
I0715 20:31:32.919507 14427 net.cpp:367] relu1_1 -> conv1_1 (in-place)
I0715 20:31:32.919689 14427 net.cpp:122] Setting up relu1_1
I0715 20:31:32.919700 14427 net.cpp:129] Top shape: 1 64 710 422 (19175680)
I0715 20:31:32.919704 14427 net.cpp:137] Memory required for data: 165791756
I0715 20:31:32.919708 14427 layer_factory.hpp:77] Creating layer conv1_2
I0715 20:31:32.919733 14427 net.cpp:84] Creating Layer conv1_2
I0715 20:31:32.919737 14427 net.cpp:406] conv1_2 <- conv1_1
I0715 20:31:32.919744 14427 net.cpp:380] conv1_2 -> conv1_2
I0715 20:31:32.923748 14427 net.cpp:122] Setting up conv1_2
I0715 20:31:32.923764 14427 net.cpp:129] Top shape: 1 64 710 422 (19175680)
I0715 20:31:32.923784 14427 net.cpp:137] Memory required for data: 242494476
I0715 20:31:32.923794 14427 layer_factory.hpp:77] Creating layer relu1_2
I0715 20:31:32.923799 14427 net.cpp:84] Creating Layer relu1_2
I0715 20:31:32.923804 14427 net.cpp:406] relu1_2 <- conv1_2
I0715 20:31:32.923808 14427 net.cpp:367] relu1_2 -> conv1_2 (in-place)
I0715 20:31:32.924015 14427 net.cpp:122] Setting up relu1_2
I0715 20:31:32.924026 14427 net.cpp:129] Top shape: 1 64 710 422 (19175680)
I0715 20:31:32.924029 14427 net.cpp:137] Memory required for data: 319197196
I0715 20:31:32.924033 14427 layer_factory.hpp:77] Creating layer pool1
I0715 20:31:32.924041 14427 net.cpp:84] Creating Layer pool1
I0715 20:31:32.924044 14427 net.cpp:406] pool1 <- conv1_2
I0715 20:31:32.924051 14427 net.cpp:380] pool1 -> pool1
I0715 20:31:32.924098 14427 net.cpp:122] Setting up pool1
I0715 20:31:32.924115 14427 net.cpp:129] Top shape: 1 64 355 211 (4793920)
I0715 20:31:32.924118 14427 net.cpp:137] Memory required for data: 338372876
I0715 20:31:32.924123 14427 layer_factory.hpp:77] Creating layer conv2_1
I0715 20:31:32.924142 14427 net.cpp:84] Creating Layer conv2_1
I0715 20:31:32.924145 14427 net.cpp:406] conv2_1 <- pool1
I0715 20:31:32.924151 14427 net.cpp:380] conv2_1 -> conv2_1
I0715 20:31:32.931677 14427 net.cpp:122] Setting up conv2_1
I0715 20:31:32.931694 14427 net.cpp:129] Top shape: 1 128 355 211 (9587840)
I0715 20:31:32.931713 14427 net.cpp:137] Memory required for data: 376724236
I0715 20:31:32.931723 14427 layer_factory.hpp:77] Creating layer relu2_1
I0715 20:31:32.931731 14427 net.cpp:84] Creating Layer relu2_1
I0715 20:31:32.931736 14427 net.cpp:406] relu2_1 <- conv2_1
I0715 20:31:32.931741 14427 net.cpp:367] relu2_1 -> conv2_1 (in-place)
I0715 20:31:32.932006 14427 net.cpp:122] Setting up relu2_1
I0715 20:31:32.932026 14427 net.cpp:129] Top shape: 1 128 355 211 (9587840)
I0715 20:31:32.932034 14427 net.cpp:137] Memory required for data: 415075596
I0715 20:31:32.932041 14427 layer_factory.hpp:77] Creating layer conv2_2
I0715 20:31:32.932057 14427 net.cpp:84] Creating Layer conv2_2
I0715 20:31:32.932065 14427 net.cpp:406] conv2_2 <- conv2_1
I0715 20:31:32.932077 14427 net.cpp:380] conv2_2 -> conv2_2
I0715 20:31:32.935489 14427 net.cpp:122] Setting up conv2_2
I0715 20:31:32.935523 14427 net.cpp:129] Top shape: 1 128 355 211 (9587840)
I0715 20:31:32.935526 14427 net.cpp:137] Memory required for data: 453426956
I0715 20:31:32.935534 14427 layer_factory.hpp:77] Creating layer relu2_2
I0715 20:31:32.935540 14427 net.cpp:84] Creating Layer relu2_2
I0715 20:31:32.935544 14427 net.cpp:406] relu2_2 <- conv2_2
I0715 20:31:32.935550 14427 net.cpp:367] relu2_2 -> conv2_2 (in-place)
I0715 20:31:32.935770 14427 net.cpp:122] Setting up relu2_2
I0715 20:31:32.935781 14427 net.cpp:129] Top shape: 1 128 355 211 (9587840)
I0715 20:31:32.935786 14427 net.cpp:137] Memory required for data: 491778316
I0715 20:31:32.935788 14427 layer_factory.hpp:77] Creating layer pool2
I0715 20:31:32.935796 14427 net.cpp:84] Creating Layer pool2
I0715 20:31:32.935799 14427 net.cpp:406] pool2 <- conv2_2
I0715 20:31:32.935804 14427 net.cpp:380] pool2 -> pool2
I0715 20:31:32.935894 14427 net.cpp:122] Setting up pool2
I0715 20:31:32.935907 14427 net.cpp:129] Top shape: 1 128 178 106 (2415104)
I0715 20:31:32.935914 14427 net.cpp:137] Memory required for data: 501438732
I0715 20:31:32.935920 14427 layer_factory.hpp:77] Creating layer conv3_1
I0715 20:31:32.935935 14427 net.cpp:84] Creating Layer conv3_1
I0715 20:31:32.935943 14427 net.cpp:406] conv3_1 <- pool2
I0715 20:31:32.935955 14427 net.cpp:380] conv3_1 -> conv3_1
I0715 20:31:32.941658 14427 net.cpp:122] Setting up conv3_1
I0715 20:31:32.941690 14427 net.cpp:129] Top shape: 1 256 178 106 (4830208)
I0715 20:31:32.941700 14427 net.cpp:137] Memory required for data: 520759564
I0715 20:31:32.941721 14427 layer_factory.hpp:77] Creating layer relu3_1
I0715 20:31:32.941735 14427 net.cpp:84] Creating Layer relu3_1
I0715 20:31:32.941743 14427 net.cpp:406] relu3_1 <- conv3_1
I0715 20:31:32.941763 14427 net.cpp:367] relu3_1 -> conv3_1 (in-place)
I0715 20:31:32.942867 14427 net.cpp:122] Setting up relu3_1
I0715 20:31:32.942893 14427 net.cpp:129] Top shape: 1 256 178 106 (4830208)
I0715 20:31:32.942905 14427 net.cpp:137] Memory required for data: 540080396
I0715 20:31:32.942914 14427 layer_factory.hpp:77] Creating layer conv3_2
I0715 20:31:32.942929 14427 net.cpp:84] Creating Layer conv3_2
I0715 20:31:32.942939 14427 net.cpp:406] conv3_2 <- conv3_1
I0715 20:31:32.942951 14427 net.cpp:380] conv3_2 -> conv3_2
I0715 20:31:32.946097 14427 net.cpp:122] Setting up conv3_2
I0715 20:31:32.946115 14427 net.cpp:129] Top shape: 1 256 178 106 (4830208)
I0715 20:31:32.946133 14427 net.cpp:137] Memory required for data: 559401228
I0715 20:31:32.946141 14427 layer_factory.hpp:77] Creating layer relu3_2
I0715 20:31:32.946148 14427 net.cpp:84] Creating Layer relu3_2
I0715 20:31:32.946152 14427 net.cpp:406] relu3_2 <- conv3_2
I0715 20:31:32.946157 14427 net.cpp:367] relu3_2 -> conv3_2 (in-place)
I0715 20:31:32.946799 14427 net.cpp:122] Setting up relu3_2
I0715 20:31:32.946811 14427 net.cpp:129] Top shape: 1 256 178 106 (4830208)
I0715 20:31:32.946831 14427 net.cpp:137] Memory required for data: 578722060
I0715 20:31:32.946835 14427 layer_factory.hpp:77] Creating layer conv3_3
I0715 20:31:32.946844 14427 net.cpp:84] Creating Layer conv3_3
I0715 20:31:32.946849 14427 net.cpp:406] conv3_3 <- conv3_2
I0715 20:31:32.946856 14427 net.cpp:380] conv3_3 -> conv3_3
I0715 20:31:32.953253 14427 net.cpp:122] Setting up conv3_3
I0715 20:31:32.953285 14427 net.cpp:129] Top shape: 1 256 178 106 (4830208)
I0715 20:31:32.953290 14427 net.cpp:137] Memory required for data: 598042892
I0715 20:31:32.953297 14427 layer_factory.hpp:77] Creating layer relu3_3
I0715 20:31:32.953305 14427 net.cpp:84] Creating Layer relu3_3
I0715 20:31:32.953308 14427 net.cpp:406] relu3_3 <- conv3_3
I0715 20:31:32.953315 14427 net.cpp:367] relu3_3 -> conv3_3 (in-place)
I0715 20:31:32.953517 14427 net.cpp:122] Setting up relu3_3
I0715 20:31:32.953528 14427 net.cpp:129] Top shape: 1 256 178 106 (4830208)
I0715 20:31:32.953531 14427 net.cpp:137] Memory required for data: 617363724
I0715 20:31:32.953536 14427 layer_factory.hpp:77] Creating layer pool3
I0715 20:31:32.953542 14427 net.cpp:84] Creating Layer pool3
I0715 20:31:32.953547 14427 net.cpp:406] pool3 <- conv3_3
I0715 20:31:32.953552 14427 net.cpp:380] pool3 -> pool3
I0715 20:31:32.953596 14427 net.cpp:122] Setting up pool3
I0715 20:31:32.953601 14427 net.cpp:129] Top shape: 1 256 89 53 (1207552)
I0715 20:31:32.953605 14427 net.cpp:137] Memory required for data: 622193932
I0715 20:31:32.953608 14427 layer_factory.hpp:77] Creating layer pool3_pool3_0_split
I0715 20:31:32.953614 14427 net.cpp:84] Creating Layer pool3_pool3_0_split
I0715 20:31:32.953619 14427 net.cpp:406] pool3_pool3_0_split <- pool3
I0715 20:31:32.953624 14427 net.cpp:380] pool3_pool3_0_split -> pool3_pool3_0_split_0
I0715 20:31:32.953629 14427 net.cpp:380] pool3_pool3_0_split -> pool3_pool3_0_split_1
I0715 20:31:32.953661 14427 net.cpp:122] Setting up pool3_pool3_0_split
I0715 20:31:32.953666 14427 net.cpp:129] Top shape: 1 256 89 53 (1207552)
I0715 20:31:32.953670 14427 net.cpp:129] Top shape: 1 256 89 53 (1207552)
I0715 20:31:32.953675 14427 net.cpp:137] Memory required for data: 631854348
I0715 20:31:32.953677 14427 layer_factory.hpp:77] Creating layer conv4_1
I0715 20:31:32.953686 14427 net.cpp:84] Creating Layer conv4_1
I0715 20:31:32.953691 14427 net.cpp:406] conv4_1 <- pool3_pool3_0_split_0
I0715 20:31:32.953696 14427 net.cpp:380] conv4_1 -> conv4_1
I0715 20:31:32.971748 14427 net.cpp:122] Setting up conv4_1
I0715 20:31:32.971772 14427 net.cpp:129] Top shape: 1 512 89 53 (2415104)
I0715 20:31:32.971788 14427 net.cpp:137] Memory required for data: 641514764
I0715 20:31:32.971798 14427 layer_factory.hpp:77] Creating layer relu4_1
I0715 20:31:32.971809 14427 net.cpp:84] Creating Layer relu4_1
I0715 20:31:32.971823 14427 net.cpp:406] relu4_1 <- conv4_1
I0715 20:31:32.971830 14427 net.cpp:367] relu4_1 -> conv4_1 (in-place)
I0715 20:31:32.972086 14427 net.cpp:122] Setting up relu4_1
I0715 20:31:32.972100 14427 net.cpp:129] Top shape: 1 512 89 53 (2415104)
I0715 20:31:32.972105 14427 net.cpp:137] Memory required for data: 651175180
I0715 20:31:32.972110 14427 layer_factory.hpp:77] Creating layer conv4_2
I0715 20:31:32.972121 14427 net.cpp:84] Creating Layer conv4_2
I0715 20:31:32.972126 14427 net.cpp:406] conv4_2 <- conv4_1
I0715 20:31:32.972133 14427 net.cpp:380] conv4_2 -> conv4_2
I0715 20:31:32.982787 14427 net.cpp:122] Setting up conv4_2
I0715 20:31:32.982827 14427 net.cpp:129] Top shape: 1 512 89 53 (2415104)
I0715 20:31:32.982832 14427 net.cpp:137] Memory required for data: 660835596
I0715 20:31:32.982851 14427 layer_factory.hpp:77] Creating layer relu4_2
I0715 20:31:32.982861 14427 net.cpp:84] Creating Layer relu4_2
I0715 20:31:32.982867 14427 net.cpp:406] relu4_2 <- conv4_2
I0715 20:31:32.982875 14427 net.cpp:367] relu4_2 -> conv4_2 (in-place)
I0715 20:31:32.983112 14427 net.cpp:122] Setting up relu4_2
I0715 20:31:32.983125 14427 net.cpp:129] Top shape: 1 512 89 53 (2415104)
I0715 20:31:32.983129 14427 net.cpp:137] Memory required for data: 670496012
I0715 20:31:32.983134 14427 layer_factory.hpp:77] Creating layer conv4_3
I0715 20:31:32.983146 14427 net.cpp:84] Creating Layer conv4_3
I0715 20:31:32.983150 14427 net.cpp:406] conv4_3 <- conv4_2
I0715 20:31:32.983158 14427 net.cpp:380] conv4_3 -> conv4_3
I0715 20:31:32.999770 14427 net.cpp:122] Setting up conv4_3
I0715 20:31:32.999835 14427 net.cpp:129] Top shape: 1 512 89 53 (2415104)
I0715 20:31:32.999845 14427 net.cpp:137] Memory required for data: 680156428
I0715 20:31:32.999863 14427 layer_factory.hpp:77] Creating layer relu4_3
I0715 20:31:32.999882 14427 net.cpp:84] Creating Layer relu4_3
I0715 20:31:32.999893 14427 net.cpp:406] relu4_3 <- conv4_3
I0715 20:31:32.999907 14427 net.cpp:367] relu4_3 -> conv4_3 (in-place)
I0715 20:31:33.000283 14427 net.cpp:122] Setting up relu4_3
I0715 20:31:33.000300 14427 net.cpp:129] Top shape: 1 512 89 53 (2415104)
I0715 20:31:33.000317 14427 net.cpp:137] Memory required for data: 689816844
I0715 20:31:33.000325 14427 layer_factory.hpp:77] Creating layer pool4
I0715 20:31:33.000340 14427 net.cpp:84] Creating Layer pool4
I0715 20:31:33.000349 14427 net.cpp:406] pool4 <- conv4_3
I0715 20:31:33.000362 14427 net.cpp:380] pool4 -> pool4
I0715 20:31:33.000468 14427 net.cpp:122] Setting up pool4
I0715 20:31:33.000483 14427 net.cpp:129] Top shape: 1 512 45 27 (622080)
I0715 20:31:33.000495 14427 net.cpp:137] Memory required for data: 692305164
I0715 20:31:33.000502 14427 layer_factory.hpp:77] Creating layer pool4_pool4_0_split
I0715 20:31:33.000515 14427 net.cpp:84] Creating Layer pool4_pool4_0_split
I0715 20:31:33.000525 14427 net.cpp:406] pool4_pool4_0_split <- pool4
I0715 20:31:33.000537 14427 net.cpp:380] pool4_pool4_0_split -> pool4_pool4_0_split_0
I0715 20:31:33.000552 14427 net.cpp:380] pool4_pool4_0_split -> pool4_pool4_0_split_1
I0715 20:31:33.000622 14427 net.cpp:122] Setting up pool4_pool4_0_split
I0715 20:31:33.000634 14427 net.cpp:129] Top shape: 1 512 45 27 (622080)
I0715 20:31:33.000646 14427 net.cpp:129] Top shape: 1 512 45 27 (622080)
I0715 20:31:33.000654 14427 net.cpp:137] Memory required for data: 697281804
I0715 20:31:33.000661 14427 layer_factory.hpp:77] Creating layer conv5_1
I0715 20:31:33.000682 14427 net.cpp:84] Creating Layer conv5_1
I0715 20:31:33.000697 14427 net.cpp:406] conv5_1 <- pool4_pool4_0_split_0
I0715 20:31:33.000720 14427 net.cpp:380] conv5_1 -> conv5_1
I0715 20:31:33.012046 14427 net.cpp:122] Setting up conv5_1
I0715 20:31:33.012073 14427 net.cpp:129] Top shape: 1 512 45 27 (622080)
I0715 20:31:33.012079 14427 net.cpp:137] Memory required for data: 699770124
I0715 20:31:33.012089 14427 layer_factory.hpp:77] Creating layer relu5_1
I0715 20:31:33.012106 14427 net.cpp:84] Creating Layer relu5_1
I0715 20:31:33.012115 14427 net.cpp:406] relu5_1 <- conv5_1
I0715 20:31:33.012136 14427 net.cpp:367] relu5_1 -> conv5_1 (in-place)
I0715 20:31:33.012995 14427 net.cpp:122] Setting up relu5_1
I0715 20:31:33.013015 14427 net.cpp:129] Top shape: 1 512 45 27 (622080)
I0715 20:31:33.013020 14427 net.cpp:137] Memory required for data: 702258444
I0715 20:31:33.013026 14427 layer_factory.hpp:77] Creating layer conv5_2
I0715 20:31:33.013041 14427 net.cpp:84] Creating Layer conv5_2
I0715 20:31:33.013048 14427 net.cpp:406] conv5_2 <- conv5_1
I0715 20:31:33.013058 14427 net.cpp:380] conv5_2 -> conv5_2
I0715 20:31:33.021900 14427 net.cpp:122] Setting up conv5_2
I0715 20:31:33.021924 14427 net.cpp:129] Top shape: 1 512 45 27 (622080)
I0715 20:31:33.021929 14427 net.cpp:137] Memory required for data: 704746764
I0715 20:31:33.021948 14427 layer_factory.hpp:77] Creating layer relu5_2
I0715 20:31:33.021968 14427 net.cpp:84] Creating Layer relu5_2
I0715 20:31:33.021976 14427 net.cpp:406] relu5_2 <- conv5_2
I0715 20:31:33.021984 14427 net.cpp:367] relu5_2 -> conv5_2 (in-place)
I0715 20:31:33.022819 14427 net.cpp:122] Setting up relu5_2
I0715 20:31:33.022836 14427 net.cpp:129] Top shape: 1 512 45 27 (622080)
I0715 20:31:33.022852 14427 net.cpp:137] Memory required for data: 707235084
I0715 20:31:33.022857 14427 layer_factory.hpp:77] Creating layer conv5_3
I0715 20:31:33.022871 14427 net.cpp:84] Creating Layer conv5_3
I0715 20:31:33.022876 14427 net.cpp:406] conv5_3 <- conv5_2
I0715 20:31:33.022898 14427 net.cpp:380] conv5_3 -> conv5_3
I0715 20:31:33.031323 14427 net.cpp:122] Setting up conv5_3
I0715 20:31:33.031359 14427 net.cpp:129] Top shape: 1 512 45 27 (622080)
I0715 20:31:33.031363 14427 net.cpp:137] Memory required for data: 709723404
I0715 20:31:33.031370 14427 layer_factory.hpp:77] Creating layer relu5_3
I0715 20:31:33.031378 14427 net.cpp:84] Creating Layer relu5_3
I0715 20:31:33.031397 14427 net.cpp:406] relu5_3 <- conv5_3
I0715 20:31:33.031404 14427 net.cpp:367] relu5_3 -> conv5_3 (in-place)
I0715 20:31:33.031602 14427 net.cpp:122] Setting up relu5_3
I0715 20:31:33.031612 14427 net.cpp:129] Top shape: 1 512 45 27 (622080)
I0715 20:31:33.031616 14427 net.cpp:137] Memory required for data: 712211724
I0715 20:31:33.031620 14427 layer_factory.hpp:77] Creating layer pool5
I0715 20:31:33.031630 14427 net.cpp:84] Creating Layer pool5
I0715 20:31:33.031633 14427 net.cpp:406] pool5 <- conv5_3
I0715 20:31:33.031639 14427 net.cpp:380] pool5 -> pool5
I0715 20:31:33.031687 14427 net.cpp:122] Setting up pool5
I0715 20:31:33.031693 14427 net.cpp:129] Top shape: 1 512 23 14 (164864)
I0715 20:31:33.031697 14427 net.cpp:137] Memory required for data: 712871180
I0715 20:31:33.031700 14427 layer_factory.hpp:77] Creating layer fc6
I0715 20:31:33.031711 14427 net.cpp:84] Creating Layer fc6
I0715 20:31:33.031714 14427 net.cpp:406] fc6 <- pool5
I0715 20:31:33.031723 14427 net.cpp:380] fc6 -> fc6
I0715 20:31:33.301138 14427 net.cpp:122] Setting up fc6
I0715 20:31:33.301188 14427 net.cpp:129] Top shape: 1 4096 17 8 (557056)
I0715 20:31:33.301192 14427 net.cpp:137] Memory required for data: 715099404
I0715 20:31:33.301205 14427 layer_factory.hpp:77] Creating layer relu6
I0715 20:31:33.301234 14427 net.cpp:84] Creating Layer relu6
I0715 20:31:33.301239 14427 net.cpp:406] relu6 <- fc6
I0715 20:31:33.301249 14427 net.cpp:367] relu6 -> fc6 (in-place)
I0715 20:31:33.301462 14427 net.cpp:122] Setting up relu6
I0715 20:31:33.301472 14427 net.cpp:129] Top shape: 1 4096 17 8 (557056)
I0715 20:31:33.301476 14427 net.cpp:137] Memory required for data: 717327628
I0715 20:31:33.301479 14427 layer_factory.hpp:77] Creating layer drop6
I0715 20:31:33.301493 14427 net.cpp:84] Creating Layer drop6
I0715 20:31:33.301497 14427 net.cpp:406] drop6 <- fc6
I0715 20:31:33.301504 14427 net.cpp:367] drop6 -> fc6 (in-place)
I0715 20:31:33.301537 14427 net.cpp:122] Setting up drop6
I0715 20:31:33.301544 14427 net.cpp:129] Top shape: 1 4096 17 8 (557056)
I0715 20:31:33.301548 14427 net.cpp:137] Memory required for data: 719555852
I0715 20:31:33.301550 14427 layer_factory.hpp:77] Creating layer fc7
I0715 20:31:33.301564 14427 net.cpp:84] Creating Layer fc7
I0715 20:31:33.301573 14427 net.cpp:406] fc7 <- fc6
I0715 20:31:33.301578 14427 net.cpp:380] fc7 -> fc7
I0715 20:31:33.356231 14427 net.cpp:122] Setting up fc7
I0715 20:31:33.356302 14427 net.cpp:129] Top shape: 1 4096 17 8 (557056)
I0715 20:31:33.356305 14427 net.cpp:137] Memory required for data: 721784076
I0715 20:31:33.356369 14427 layer_factory.hpp:77] Creating layer relu7
I0715 20:31:33.356408 14427 net.cpp:84] Creating Layer relu7
I0715 20:31:33.356420 14427 net.cpp:406] relu7 <- fc7
I0715 20:31:33.356436 14427 net.cpp:367] relu7 -> fc7 (in-place)
I0715 20:31:33.356655 14427 net.cpp:122] Setting up relu7
I0715 20:31:33.356667 14427 net.cpp:129] Top shape: 1 4096 17 8 (557056)
I0715 20:31:33.356669 14427 net.cpp:137] Memory required for data: 724012300
I0715 20:31:33.356673 14427 layer_factory.hpp:77] Creating layer drop7
I0715 20:31:33.356693 14427 net.cpp:84] Creating Layer drop7
I0715 20:31:33.356698 14427 net.cpp:406] drop7 <- fc7
I0715 20:31:33.356709 14427 net.cpp:367] drop7 -> fc7 (in-place)
I0715 20:31:33.356743 14427 net.cpp:122] Setting up drop7
I0715 20:31:33.356752 14427 net.cpp:129] Top shape: 1 4096 17 8 (557056)
I0715 20:31:33.356755 14427 net.cpp:137] Memory required for data: 726240524
I0715 20:31:33.356760 14427 layer_factory.hpp:77] Creating layer score_fr-new
I0715 20:31:33.356777 14427 net.cpp:84] Creating Layer score_fr-new
I0715 20:31:33.356782 14427 net.cpp:406] score_fr-new <- fc7
I0715 20:31:33.356798 14427 net.cpp:380] score_fr-new -> score_fr-new
I0715 20:31:33.359007 14427 net.cpp:122] Setting up score_fr-new
I0715 20:31:33.359021 14427 net.cpp:129] Top shape: 1 3 17 8 (408)
I0715 20:31:33.359025 14427 net.cpp:137] Memory required for data: 726242156
I0715 20:31:33.359035 14427 layer_factory.hpp:77] Creating layer upscore2-new
I0715 20:31:33.359047 14427 net.cpp:84] Creating Layer upscore2-new
I0715 20:31:33.359053 14427 net.cpp:406] upscore2-new <- score_fr-new
I0715 20:31:33.359061 14427 net.cpp:380] upscore2-new -> upscore2-new
I0715 20:31:33.359297 14427 net.cpp:122] Setting up upscore2-new
I0715 20:31:33.359306 14427 net.cpp:129] Top shape: 1 3 36 18 (1944)
I0715 20:31:33.359309 14427 net.cpp:137] Memory required for data: 726249932
I0715 20:31:33.359338 14427 layer_factory.hpp:77] Creating layer upscore2-new_upscore2-new_0_split
I0715 20:31:33.359347 14427 net.cpp:84] Creating Layer upscore2-new_upscore2-new_0_split
I0715 20:31:33.359350 14427 net.cpp:406] upscore2-new_upscore2-new_0_split <- upscore2-new
I0715 20:31:33.359360 14427 net.cpp:380] upscore2-new_upscore2-new_0_split -> upscore2-new_upscore2-new_0_split_0
I0715 20:31:33.359367 14427 net.cpp:380] upscore2-new_upscore2-new_0_split -> upscore2-new_upscore2-new_0_split_1
I0715 20:31:33.359408 14427 net.cpp:122] Setting up upscore2-new_upscore2-new_0_split
I0715 20:31:33.359416 14427 net.cpp:129] Top shape: 1 3 36 18 (1944)
I0715 20:31:33.359421 14427 net.cpp:129] Top shape: 1 3 36 18 (1944)
I0715 20:31:33.359423 14427 net.cpp:137] Memory required for data: 726265484
I0715 20:31:33.359426 14427 layer_factory.hpp:77] Creating layer score_pool4-new
I0715 20:31:33.359444 14427 net.cpp:84] Creating Layer score_pool4-new
I0715 20:31:33.359450 14427 net.cpp:406] score_pool4-new <- pool4_pool4_0_split_1
I0715 20:31:33.359457 14427 net.cpp:380] score_pool4-new -> score_pool4-new
I0715 20:31:33.360733 14427 net.cpp:122] Setting up score_pool4-new
I0715 20:31:33.360747 14427 net.cpp:129] Top shape: 1 3 45 27 (3645)
I0715 20:31:33.360751 14427 net.cpp:137] Memory required for data: 726280064
I0715 20:31:33.360774 14427 layer_factory.hpp:77] Creating layer score_pool4c
I0715 20:31:33.360795 14427 net.cpp:84] Creating Layer score_pool4c
I0715 20:31:33.360801 14427 net.cpp:406] score_pool4c <- score_pool4-new
I0715 20:31:33.360806 14427 net.cpp:406] score_pool4c <- upscore2-new_upscore2-new_0_split_0
I0715 20:31:33.360813 14427 net.cpp:380] score_pool4c -> score_pool4c
I0715 20:31:33.360844 14427 net.cpp:122] Setting up score_pool4c
I0715 20:31:33.360852 14427 net.cpp:129] Top shape: 1 3 36 18 (1944)
I0715 20:31:33.360854 14427 net.cpp:137] Memory required for data: 726287840
I0715 20:31:33.360858 14427 layer_factory.hpp:77] Creating layer fuse_pool4
I0715 20:31:33.360869 14427 net.cpp:84] Creating Layer fuse_pool4
I0715 20:31:33.360872 14427 net.cpp:406] fuse_pool4 <- upscore2-new_upscore2-new_0_split_1
I0715 20:31:33.360883 14427 net.cpp:406] fuse_pool4 <- score_pool4c
I0715 20:31:33.360906 14427 net.cpp:380] fuse_pool4 -> fuse_pool4
I0715 20:31:33.360936 14427 net.cpp:122] Setting up fuse_pool4
I0715 20:31:33.360944 14427 net.cpp:129] Top shape: 1 3 36 18 (1944)
I0715 20:31:33.360946 14427 net.cpp:137] Memory required for data: 726295616
I0715 20:31:33.360954 14427 layer_factory.hpp:77] Creating layer upscore_pool4-new
I0715 20:31:33.360962 14427 net.cpp:84] Creating Layer upscore_pool4-new
I0715 20:31:33.360966 14427 net.cpp:406] upscore_pool4-new <- fuse_pool4
I0715 20:31:33.360971 14427 net.cpp:380] upscore_pool4-new -> upscore_pool4-new
I0715 20:31:33.361162 14427 net.cpp:122] Setting up upscore_pool4-new
I0715 20:31:33.361171 14427 net.cpp:129] Top shape: 1 3 74 38 (8436)
I0715 20:31:33.361173 14427 net.cpp:137] Memory required for data: 726329360
I0715 20:31:33.361178 14427 layer_factory.hpp:77] Creating layer upscore_pool4-new_upscore_pool4-new_0_split
I0715 20:31:33.361183 14427 net.cpp:84] Creating Layer upscore_pool4-new_upscore_pool4-new_0_split
I0715 20:31:33.361187 14427 net.cpp:406] upscore_pool4-new_upscore_pool4-new_0_split <- upscore_pool4-new
I0715 20:31:33.361192 14427 net.cpp:380] upscore_pool4-new_upscore_pool4-new_0_split -> upscore_pool4-new_upscore_pool4-new_0_split_0
I0715 20:31:33.361197 14427 net.cpp:380] upscore_pool4-new_upscore_pool4-new_0_split -> upscore_pool4-new_upscore_pool4-new_0_split_1
I0715 20:31:33.361233 14427 net.cpp:122] Setting up upscore_pool4-new_upscore_pool4-new_0_split
I0715 20:31:33.361240 14427 net.cpp:129] Top shape: 1 3 74 38 (8436)
I0715 20:31:33.361244 14427 net.cpp:129] Top shape: 1 3 74 38 (8436)
I0715 20:31:33.361248 14427 net.cpp:137] Memory required for data: 726396848
I0715 20:31:33.361250 14427 layer_factory.hpp:77] Creating layer score_pool3-new
I0715 20:31:33.361264 14427 net.cpp:84] Creating Layer score_pool3-new
I0715 20:31:33.361268 14427 net.cpp:406] score_pool3-new <- pool3_pool3_0_split_1
I0715 20:31:33.361281 14427 net.cpp:380] score_pool3-new -> score_pool3-new
I0715 20:31:33.362638 14427 net.cpp:122] Setting up score_pool3-new
I0715 20:31:33.362653 14427 net.cpp:129] Top shape: 1 3 89 53 (14151)
I0715 20:31:33.362655 14427 net.cpp:137] Memory required for data: 726453452
I0715 20:31:33.362663 14427 layer_factory.hpp:77] Creating layer score_pool3c
I0715 20:31:33.362677 14427 net.cpp:84] Creating Layer score_pool3c
I0715 20:31:33.362684 14427 net.cpp:406] score_pool3c <- score_pool3-new
I0715 20:31:33.362689 14427 net.cpp:406] score_pool3c <- upscore_pool4-new_upscore_pool4-new_0_split_0
I0715 20:31:33.362694 14427 net.cpp:380] score_pool3c -> score_pool3c
I0715 20:31:33.362740 14427 net.cpp:122] Setting up score_pool3c
I0715 20:31:33.362747 14427 net.cpp:129] Top shape: 1 3 74 38 (8436)
I0715 20:31:33.362751 14427 net.cpp:137] Memory required for data: 726487196
I0715 20:31:33.362754 14427 layer_factory.hpp:77] Creating layer fuse_pool3
I0715 20:31:33.362767 14427 net.cpp:84] Creating Layer fuse_pool3
I0715 20:31:33.362772 14427 net.cpp:406] fuse_pool3 <- upscore_pool4-new_upscore_pool4-new_0_split_1
I0715 20:31:33.362776 14427 net.cpp:406] fuse_pool3 <- score_pool3c
I0715 20:31:33.362783 14427 net.cpp:380] fuse_pool3 -> fuse_pool3
I0715 20:31:33.362807 14427 net.cpp:122] Setting up fuse_pool3
I0715 20:31:33.362814 14427 net.cpp:129] Top shape: 1 3 74 38 (8436)
I0715 20:31:33.362818 14427 net.cpp:137] Memory required for data: 726520940
I0715 20:31:33.362820 14427 layer_factory.hpp:77] Creating layer upscore8-new
I0715 20:31:33.362828 14427 net.cpp:84] Creating Layer upscore8-new
I0715 20:31:33.362831 14427 net.cpp:406] upscore8-new <- fuse_pool3
I0715 20:31:33.362838 14427 net.cpp:380] upscore8-new -> upscore8-new
I0715 20:31:33.363042 14427 net.cpp:122] Setting up upscore8-new
I0715 20:31:33.363050 14427 net.cpp:129] Top shape: 1 3 600 312 (561600)
I0715 20:31:33.363054 14427 net.cpp:137] Memory required for data: 728767340
I0715 20:31:33.363059 14427 layer_factory.hpp:77] Creating layer upscore8_cropped
I0715 20:31:33.363071 14427 net.cpp:84] Creating Layer upscore8_cropped
I0715 20:31:33.363075 14427 net.cpp:406] upscore8_cropped <- upscore8-new
I0715 20:31:33.363085 14427 net.cpp:406] upscore8_cropped <- data_data_0_split_1
I0715 20:31:33.363091 14427 net.cpp:380] upscore8_cropped -> upscore8_cropped
I0715 20:31:33.363116 14427 net.cpp:122] Setting up upscore8_cropped
I0715 20:31:33.363122 14427 net.cpp:129] Top shape: 1 3 512 224 (344064)
I0715 20:31:33.363126 14427 net.cpp:137] Memory required for data: 730143596
I0715 20:31:33.363134 14427 layer_factory.hpp:77] Creating layer upscore8_cropped_upscore8_cropped_0_split
I0715 20:31:33.363139 14427 net.cpp:84] Creating Layer upscore8_cropped_upscore8_cropped_0_split
I0715 20:31:33.363142 14427 net.cpp:406] upscore8_cropped_upscore8_cropped_0_split <- upscore8_cropped
I0715 20:31:33.363147 14427 net.cpp:380] upscore8_cropped_upscore8_cropped_0_split -> upscore8_cropped_upscore8_cropped_0_split_0
I0715 20:31:33.363153 14427 net.cpp:380] upscore8_cropped_upscore8_cropped_0_split -> upscore8_cropped_upscore8_cropped_0_split_1
I0715 20:31:33.363191 14427 net.cpp:122] Setting up upscore8_cropped_upscore8_cropped_0_split
I0715 20:31:33.363198 14427 net.cpp:129] Top shape: 1 3 512 224 (344064)
I0715 20:31:33.363203 14427 net.cpp:129] Top shape: 1 3 512 224 (344064)
I0715 20:31:33.363205 14427 net.cpp:137] Memory required for data: 732896108
I0715 20:31:33.363209 14427 layer_factory.hpp:77] Creating layer prob
I0715 20:31:33.363214 14427 net.cpp:84] Creating Layer prob
I0715 20:31:33.363217 14427 net.cpp:406] prob <- upscore8_cropped_upscore8_cropped_0_split_0
I0715 20:31:33.363225 14427 net.cpp:380] prob -> prob
I0715 20:31:33.363449 14427 net.cpp:122] Setting up prob
I0715 20:31:33.363461 14427 net.cpp:129] Top shape: 1 3 512 224 (344064)
I0715 20:31:33.363464 14427 net.cpp:137] Memory required for data: 734272364
I0715 20:31:33.363467 14427 layer_factory.hpp:77] Creating layer prob_prob_0_split
I0715 20:31:33.363473 14427 net.cpp:84] Creating Layer prob_prob_0_split
I0715 20:31:33.363476 14427 net.cpp:406] prob_prob_0_split <- prob
I0715 20:31:33.363481 14427 net.cpp:380] prob_prob_0_split -> prob_prob_0_split_0
I0715 20:31:33.363489 14427 net.cpp:380] prob_prob_0_split -> prob_prob_0_split_1
I0715 20:31:33.363535 14427 net.cpp:122] Setting up prob_prob_0_split
I0715 20:31:33.363544 14427 net.cpp:129] Top shape: 1 3 512 224 (344064)
I0715 20:31:33.363548 14427 net.cpp:129] Top shape: 1 3 512 224 (344064)
I0715 20:31:33.363551 14427 net.cpp:137] Memory required for data: 737024876
I0715 20:31:33.363554 14427 layer_factory.hpp:77] Creating layer saliency1
I0715 20:31:33.363574 14427 net.cpp:84] Creating Layer saliency1
I0715 20:31:33.363580 14427 net.cpp:406] saliency1 <- prob_prob_0_split_0
I0715 20:31:33.363586 14427 net.cpp:380] saliency1 -> saliency1
I0715 20:31:33.367202 14427 net.cpp:122] Setting up saliency1
I0715 20:31:33.368996 14427 net.cpp:129] Top shape: 1 3 512 224 (344064)
I0715 20:31:33.369014 14427 net.cpp:137] Memory required for data: 738401132
I0715 20:31:33.369053 14427 layer_factory.hpp:77] Creating layer relu_saliency1
I0715 20:31:33.369076 14427 net.cpp:84] Creating Layer relu_saliency1
I0715 20:31:33.369091 14427 net.cpp:406] relu_saliency1 <- saliency1
I0715 20:31:33.369110 14427 net.cpp:367] relu_saliency1 -> saliency1 (in-place)
I0715 20:31:33.369632 14427 net.cpp:122] Setting up relu_saliency1
I0715 20:31:33.369663 14427 net.cpp:129] Top shape: 1 3 512 224 (344064)
I0715 20:31:33.369670 14427 net.cpp:137] Memory required for data: 739777388
I0715 20:31:33.369678 14427 layer_factory.hpp:77] Creating layer saliency
I0715 20:31:33.369709 14427 net.cpp:84] Creating Layer saliency
I0715 20:31:33.369719 14427 net.cpp:406] saliency <- saliency1
I0715 20:31:33.369732 14427 net.cpp:380] saliency -> saliency
I0715 20:31:33.375488 14427 net.cpp:122] Setting up saliency
I0715 20:31:33.375527 14427 net.cpp:129] Top shape: 1 3 512 224 (344064)
I0715 20:31:33.375535 14427 net.cpp:137] Memory required for data: 741153644
I0715 20:31:33.375550 14427 layer_factory.hpp:77] Creating layer saliency_data
I0715 20:31:33.375573 14427 net.cpp:84] Creating Layer saliency_data
I0715 20:31:33.375589 14427 net.cpp:406] saliency_data <- data_data_0_split_2
I0715 20:31:33.375600 14427 net.cpp:406] saliency_data <- saliency
I0715 20:31:33.375612 14427 net.cpp:380] saliency_data -> saliency_data
I0715 20:31:33.375675 14427 net.cpp:122] Setting up saliency_data
I0715 20:31:33.375685 14427 net.cpp:129] Top shape: 1 3 512 224 (344064)
I0715 20:31:33.375691 14427 net.cpp:137] Memory required for data: 742529900
I0715 20:31:33.375699 14427 layer_factory.hpp:77] Creating layer crop
I0715 20:31:33.376770 14427 net.cpp:84] Creating Layer crop
I0715 20:31:33.376791 14427 net.cpp:406] crop <- prob_prob_0_split_1
I0715 20:31:33.376811 14427 net.cpp:406] crop <- saliency_data
I0715 20:31:33.376822 14427 net.cpp:406] crop <- crop_margin
I0715 20:31:33.376832 14427 net.cpp:406] crop <- crop_prob
I0715 20:31:33.376839 14427 net.cpp:406] crop <- crop_sample_batch
I0715 20:31:33.376848 14427 net.cpp:406] crop <- label_data_1_split_0
I0715 20:31:33.376859 14427 net.cpp:380] crop -> data-R
I0715 20:31:33.376875 14427 net.cpp:380] crop -> crop_info
I0715 20:31:33.398782 14427 net.cpp:122] Setting up crop
I0715 20:31:33.398849 14427 net.cpp:129] Top shape: 1 3 512 224 (344064)
I0715 20:31:33.398861 14427 net.cpp:129] Top shape: 1 2 4 (8)
I0715 20:31:33.398869 14427 net.cpp:137] Memory required for data: 743906188
I0715 20:31:33.398885 14427 layer_factory.hpp:77] Creating layer data-R_crop_0_split
I0715 20:31:33.398902 14427 net.cpp:84] Creating Layer data-R_crop_0_split
I0715 20:31:33.398913 14427 net.cpp:406] data-R_crop_0_split <- data-R
I0715 20:31:33.398928 14427 net.cpp:380] data-R_crop_0_split -> data-R_crop_0_split_0
I0715 20:31:33.398948 14427 net.cpp:380] data-R_crop_0_split -> data-R_crop_0_split_1
I0715 20:31:33.399034 14427 net.cpp:122] Setting up data-R_crop_0_split
I0715 20:31:33.399052 14427 net.cpp:129] Top shape: 1 3 512 224 (344064)
I0715 20:31:33.399061 14427 net.cpp:129] Top shape: 1 3 512 224 (344064)
I0715 20:31:33.399068 14427 net.cpp:137] Memory required for data: 746658700
I0715 20:31:33.399075 14427 layer_factory.hpp:77] Creating layer conv1_1-R
I0715 20:31:33.399169 14427 net.cpp:84] Creating Layer conv1_1-R
I0715 20:31:33.399183 14427 net.cpp:406] conv1_1-R <- data-R_crop_0_split_0
I0715 20:31:33.399199 14427 net.cpp:380] conv1_1-R -> conv1_1-R
I0715 20:31:33.405287 14427 net.cpp:122] Setting up conv1_1-R
I0715 20:31:33.405308 14427 net.cpp:129] Top shape: 1 64 710 422 (19175680)
I0715 20:31:33.405323 14427 net.cpp:137] Memory required for data: 823361420
I0715 20:31:33.405336 14427 layer_factory.hpp:77] Creating layer relu1_1-R
I0715 20:31:33.405347 14427 net.cpp:84] Creating Layer relu1_1-R
I0715 20:31:33.405352 14427 net.cpp:406] relu1_1-R <- conv1_1-R
I0715 20:31:33.405359 14427 net.cpp:367] relu1_1-R -> conv1_1-R (in-place)
I0715 20:31:33.405606 14427 net.cpp:122] Setting up relu1_1-R
I0715 20:31:33.405622 14427 net.cpp:129] Top shape: 1 64 710 422 (19175680)
I0715 20:31:33.405627 14427 net.cpp:137] Memory required for data: 900064140
I0715 20:31:33.405630 14427 layer_factory.hpp:77] Creating layer conv1_2-R
I0715 20:31:33.405642 14427 net.cpp:84] Creating Layer conv1_2-R
I0715 20:31:33.405647 14427 net.cpp:406] conv1_2-R <- conv1_1-R
I0715 20:31:33.405654 14427 net.cpp:380] conv1_2-R -> conv1_2-R
I0715 20:31:33.410194 14427 net.cpp:122] Setting up conv1_2-R
I0715 20:31:33.410228 14427 net.cpp:129] Top shape: 1 64 710 422 (19175680)
I0715 20:31:33.410233 14427 net.cpp:137] Memory required for data: 976766860
I0715 20:31:33.410244 14427 layer_factory.hpp:77] Creating layer relu1_2-R
I0715 20:31:33.410253 14427 net.cpp:84] Creating Layer relu1_2-R
I0715 20:31:33.410257 14427 net.cpp:406] relu1_2-R <- conv1_2-R
I0715 20:31:33.410269 14427 net.cpp:367] relu1_2-R -> conv1_2-R (in-place)
I0715 20:31:33.411072 14427 net.cpp:122] Setting up relu1_2-R
I0715 20:31:33.411092 14427 net.cpp:129] Top shape: 1 64 710 422 (19175680)
I0715 20:31:33.411106 14427 net.cpp:137] Memory required for data: 1053469580
I0715 20:31:33.411111 14427 layer_factory.hpp:77] Creating layer pool1-R
I0715 20:31:33.411123 14427 net.cpp:84] Creating Layer pool1-R
I0715 20:31:33.411128 14427 net.cpp:406] pool1-R <- conv1_2-R
I0715 20:31:33.411136 14427 net.cpp:380] pool1-R -> pool1-R
I0715 20:31:33.411203 14427 net.cpp:122] Setting up pool1-R
I0715 20:31:33.411211 14427 net.cpp:129] Top shape: 1 64 355 211 (4793920)
I0715 20:31:33.411214 14427 net.cpp:137] Memory required for data: 1072645260
I0715 20:31:33.411218 14427 layer_factory.hpp:77] Creating layer conv2_1-R
I0715 20:31:33.411231 14427 net.cpp:84] Creating Layer conv2_1-R
I0715 20:31:33.411236 14427 net.cpp:406] conv2_1-R <- pool1-R
I0715 20:31:33.411243 14427 net.cpp:380] conv2_1-R -> conv2_1-R
I0715 20:31:33.412525 14427 net.cpp:122] Setting up conv2_1-R
I0715 20:31:33.412544 14427 net.cpp:129] Top shape: 1 128 355 211 (9587840)
I0715 20:31:33.412559 14427 net.cpp:137] Memory required for data: 1110996620
I0715 20:31:33.412567 14427 layer_factory.hpp:77] Creating layer relu2_1-R
I0715 20:31:33.412575 14427 net.cpp:84] Creating Layer relu2_1-R
I0715 20:31:33.412581 14427 net.cpp:406] relu2_1-R <- conv2_1-R
I0715 20:31:33.412588 14427 net.cpp:367] relu2_1-R -> conv2_1-R (in-place)
I0715 20:31:33.413444 14427 net.cpp:122] Setting up relu2_1-R
I0715 20:31:33.413476 14427 net.cpp:129] Top shape: 1 128 355 211 (9587840)
I0715 20:31:33.413481 14427 net.cpp:137] Memory required for data: 1149347980
I0715 20:31:33.413488 14427 layer_factory.hpp:77] Creating layer conv2_2-R
I0715 20:31:33.413502 14427 net.cpp:84] Creating Layer conv2_2-R
I0715 20:31:33.413507 14427 net.cpp:406] conv2_2-R <- conv2_1-R
I0715 20:31:33.413519 14427 net.cpp:380] conv2_2-R -> conv2_2-R
I0715 20:31:33.416093 14427 net.cpp:122] Setting up conv2_2-R
I0715 20:31:33.416115 14427 net.cpp:129] Top shape: 1 128 355 211 (9587840)
I0715 20:31:33.416131 14427 net.cpp:137] Memory required for data: 1187699340
I0715 20:31:33.416141 14427 layer_factory.hpp:77] Creating layer relu2_2-R
I0715 20:31:33.416151 14427 net.cpp:84] Creating Layer relu2_2-R
I0715 20:31:33.416155 14427 net.cpp:406] relu2_2-R <- conv2_2-R
I0715 20:31:33.416167 14427 net.cpp:367] relu2_2-R -> conv2_2-R (in-place)
I0715 20:31:33.416426 14427 net.cpp:122] Setting up relu2_2-R
I0715 20:31:33.416440 14427 net.cpp:129] Top shape: 1 128 355 211 (9587840)
I0715 20:31:33.416445 14427 net.cpp:137] Memory required for data: 1226050700
I0715 20:31:33.416450 14427 layer_factory.hpp:77] Creating layer pool2-R
I0715 20:31:33.416465 14427 net.cpp:84] Creating Layer pool2-R
I0715 20:31:33.416469 14427 net.cpp:406] pool2-R <- conv2_2-R
I0715 20:31:33.416479 14427 net.cpp:380] pool2-R -> pool2-R
I0715 20:31:33.416543 14427 net.cpp:122] Setting up pool2-R
I0715 20:31:33.416553 14427 net.cpp:129] Top shape: 1 128 178 106 (2415104)
I0715 20:31:33.416558 14427 net.cpp:137] Memory required for data: 1235711116
I0715 20:31:33.416561 14427 layer_factory.hpp:77] Creating layer conv3_1-R
I0715 20:31:33.416577 14427 net.cpp:84] Creating Layer conv3_1-R
I0715 20:31:33.416582 14427 net.cpp:406] conv3_1-R <- pool2-R
I0715 20:31:33.416591 14427 net.cpp:380] conv3_1-R -> conv3_1-R
I0715 20:31:33.420927 14427 net.cpp:122] Setting up conv3_1-R
I0715 20:31:33.420948 14427 net.cpp:129] Top shape: 1 256 178 106 (4830208)
I0715 20:31:33.420963 14427 net.cpp:137] Memory required for data: 1255031948
I0715 20:31:33.420972 14427 layer_factory.hpp:77] Creating layer relu3_1-R
I0715 20:31:33.420984 14427 net.cpp:84] Creating Layer relu3_1-R
I0715 20:31:33.420989 14427 net.cpp:406] relu3_1-R <- conv3_1-R
I0715 20:31:33.421000 14427 net.cpp:367] relu3_1-R -> conv3_1-R (in-place)
I0715 20:31:33.421265 14427 net.cpp:122] Setting up relu3_1-R
I0715 20:31:33.421279 14427 net.cpp:129] Top shape: 1 256 178 106 (4830208)
I0715 20:31:33.421284 14427 net.cpp:137] Memory required for data: 1274352780
I0715 20:31:33.421289 14427 layer_factory.hpp:77] Creating layer conv3_2-R
I0715 20:31:33.421303 14427 net.cpp:84] Creating Layer conv3_2-R
I0715 20:31:33.421308 14427 net.cpp:406] conv3_2-R <- conv3_1-R
I0715 20:31:33.421316 14427 net.cpp:380] conv3_2-R -> conv3_2-R
I0715 20:31:33.426501 14427 net.cpp:122] Setting up conv3_2-R
I0715 20:31:33.426534 14427 net.cpp:129] Top shape: 1 256 178 106 (4830208)
I0715 20:31:33.426539 14427 net.cpp:137] Memory required for data: 1293673612
I0715 20:31:33.426549 14427 layer_factory.hpp:77] Creating layer relu3_2-R
I0715 20:31:33.426558 14427 net.cpp:84] Creating Layer relu3_2-R
I0715 20:31:33.426563 14427 net.cpp:406] relu3_2-R <- conv3_2-R
I0715 20:31:33.426570 14427 net.cpp:367] relu3_2-R -> conv3_2-R (in-place)
I0715 20:31:33.426802 14427 net.cpp:122] Setting up relu3_2-R
I0715 20:31:33.426817 14427 net.cpp:129] Top shape: 1 256 178 106 (4830208)
I0715 20:31:33.426821 14427 net.cpp:137] Memory required for data: 1312994444
I0715 20:31:33.426826 14427 layer_factory.hpp:77] Creating layer conv3_3-R
I0715 20:31:33.426839 14427 net.cpp:84] Creating Layer conv3_3-R
I0715 20:31:33.426844 14427 net.cpp:406] conv3_3-R <- conv3_2-R
I0715 20:31:33.426852 14427 net.cpp:380] conv3_3-R -> conv3_3-R
I0715 20:31:33.433323 14427 net.cpp:122] Setting up conv3_3-R
I0715 20:31:33.433372 14427 net.cpp:129] Top shape: 1 256 178 106 (4830208)
I0715 20:31:33.433380 14427 net.cpp:137] Memory required for data: 1332315276
I0715 20:31:33.433447 14427 layer_factory.hpp:77] Creating layer relu3_3-R
I0715 20:31:33.433466 14427 net.cpp:84] Creating Layer relu3_3-R
I0715 20:31:33.433480 14427 net.cpp:406] relu3_3-R <- conv3_3-R
I0715 20:31:33.433496 14427 net.cpp:367] relu3_3-R -> conv3_3-R (in-place)
I0715 20:31:33.433997 14427 net.cpp:122] Setting up relu3_3-R
I0715 20:31:33.434020 14427 net.cpp:129] Top shape: 1 256 178 106 (4830208)
I0715 20:31:33.434032 14427 net.cpp:137] Memory required for data: 1351636108
I0715 20:31:33.434041 14427 layer_factory.hpp:77] Creating layer pool3-R
I0715 20:31:33.434056 14427 net.cpp:84] Creating Layer pool3-R
I0715 20:31:33.434072 14427 net.cpp:406] pool3-R <- conv3_3-R
I0715 20:31:33.434085 14427 net.cpp:380] pool3-R -> pool3-R
I0715 20:31:33.434211 14427 net.cpp:122] Setting up pool3-R
I0715 20:31:33.434236 14427 net.cpp:129] Top shape: 1 256 89 53 (1207552)
I0715 20:31:33.434250 14427 net.cpp:137] Memory required for data: 1356466316
I0715 20:31:33.434264 14427 layer_factory.hpp:77] Creating layer pool3-R_pool3-R_0_split
I0715 20:31:33.434284 14427 net.cpp:84] Creating Layer pool3-R_pool3-R_0_split
I0715 20:31:33.434300 14427 net.cpp:406] pool3-R_pool3-R_0_split <- pool3-R
I0715 20:31:33.434322 14427 net.cpp:380] pool3-R_pool3-R_0_split -> pool3-R_pool3-R_0_split_0
I0715 20:31:33.434347 14427 net.cpp:380] pool3-R_pool3-R_0_split -> pool3-R_pool3-R_0_split_1
I0715 20:31:33.434475 14427 net.cpp:122] Setting up pool3-R_pool3-R_0_split
I0715 20:31:33.434499 14427 net.cpp:129] Top shape: 1 256 89 53 (1207552)
I0715 20:31:33.434515 14427 net.cpp:129] Top shape: 1 256 89 53 (1207552)
I0715 20:31:33.434525 14427 net.cpp:137] Memory required for data: 1366126732
I0715 20:31:33.434531 14427 layer_factory.hpp:77] Creating layer conv4_1-R
I0715 20:31:33.434576 14427 net.cpp:84] Creating Layer conv4_1-R
I0715 20:31:33.434595 14427 net.cpp:406] conv4_1-R <- pool3-R_pool3-R_0_split_0
I0715 20:31:33.434618 14427 net.cpp:380] conv4_1-R -> conv4_1-R
I0715 20:31:33.445513 14427 net.cpp:122] Setting up conv4_1-R
I0715 20:31:33.445552 14427 net.cpp:129] Top shape: 1 512 89 53 (2415104)
I0715 20:31:33.445557 14427 net.cpp:137] Memory required for data: 1375787148
I0715 20:31:33.445574 14427 layer_factory.hpp:77] Creating layer relu4_1-R
I0715 20:31:33.445585 14427 net.cpp:84] Creating Layer relu4_1-R
I0715 20:31:33.445590 14427 net.cpp:406] relu4_1-R <- conv4_1-R
I0715 20:31:33.445598 14427 net.cpp:367] relu4_1-R -> conv4_1-R (in-place)
I0715 20:31:33.446585 14427 net.cpp:122] Setting up relu4_1-R
I0715 20:31:33.446602 14427 net.cpp:129] Top shape: 1 512 89 53 (2415104)
I0715 20:31:33.446607 14427 net.cpp:137] Memory required for data: 1385447564
I0715 20:31:33.446621 14427 layer_factory.hpp:77] Creating layer conv4_2-R
I0715 20:31:33.446633 14427 net.cpp:84] Creating Layer conv4_2-R
I0715 20:31:33.446638 14427 net.cpp:406] conv4_2-R <- conv4_1-R
I0715 20:31:33.446647 14427 net.cpp:380] conv4_2-R -> conv4_2-R
I0715 20:31:33.460175 14427 net.cpp:122] Setting up conv4_2-R
I0715 20:31:33.460198 14427 net.cpp:129] Top shape: 1 512 89 53 (2415104)
I0715 20:31:33.460214 14427 net.cpp:137] Memory required for data: 1395107980
I0715 20:31:33.460223 14427 layer_factory.hpp:77] Creating layer relu4_2-R
I0715 20:31:33.460232 14427 net.cpp:84] Creating Layer relu4_2-R
I0715 20:31:33.460237 14427 net.cpp:406] relu4_2-R <- conv4_2-R
I0715 20:31:33.460245 14427 net.cpp:367] relu4_2-R -> conv4_2-R (in-place)
I0715 20:31:33.461122 14427 net.cpp:122] Setting up relu4_2-R
I0715 20:31:33.461138 14427 net.cpp:129] Top shape: 1 512 89 53 (2415104)
I0715 20:31:33.461154 14427 net.cpp:137] Memory required for data: 1404768396
I0715 20:31:33.461159 14427 layer_factory.hpp:77] Creating layer conv4_3-R
I0715 20:31:33.461176 14427 net.cpp:84] Creating Layer conv4_3-R
I0715 20:31:33.461181 14427 net.cpp:406] conv4_3-R <- conv4_2-R
I0715 20:31:33.461189 14427 net.cpp:380] conv4_3-R -> conv4_3-R
I0715 20:31:33.473498 14427 net.cpp:122] Setting up conv4_3-R
I0715 20:31:33.473525 14427 net.cpp:129] Top shape: 1 512 89 53 (2415104)
I0715 20:31:33.473537 14427 net.cpp:137] Memory required for data: 1414428812
I0715 20:31:33.473549 14427 layer_factory.hpp:77] Creating layer relu4_3-R
I0715 20:31:33.473559 14427 net.cpp:84] Creating Layer relu4_3-R
I0715 20:31:33.473565 14427 net.cpp:406] relu4_3-R <- conv4_3-R
I0715 20:31:33.473574 14427 net.cpp:367] relu4_3-R -> conv4_3-R (in-place)
I0715 20:31:33.473839 14427 net.cpp:122] Setting up relu4_3-R
I0715 20:31:33.473853 14427 net.cpp:129] Top shape: 1 512 89 53 (2415104)
I0715 20:31:33.473858 14427 net.cpp:137] Memory required for data: 1424089228
I0715 20:31:33.473865 14427 layer_factory.hpp:77] Creating layer pool4-R
I0715 20:31:33.473878 14427 net.cpp:84] Creating Layer pool4-R
I0715 20:31:33.473884 14427 net.cpp:406] pool4-R <- conv4_3-R
I0715 20:31:33.473894 14427 net.cpp:380] pool4-R -> pool4-R
I0715 20:31:33.473963 14427 net.cpp:122] Setting up pool4-R
I0715 20:31:33.473973 14427 net.cpp:129] Top shape: 1 512 45 27 (622080)
I0715 20:31:33.473978 14427 net.cpp:137] Memory required for data: 1426577548
I0715 20:31:33.473984 14427 layer_factory.hpp:77] Creating layer pool4-R_pool4-R_0_split
I0715 20:31:33.473992 14427 net.cpp:84] Creating Layer pool4-R_pool4-R_0_split
I0715 20:31:33.473999 14427 net.cpp:406] pool4-R_pool4-R_0_split <- pool4-R
I0715 20:31:33.474014 14427 net.cpp:380] pool4-R_pool4-R_0_split -> pool4-R_pool4-R_0_split_0
I0715 20:31:33.474025 14427 net.cpp:380] pool4-R_pool4-R_0_split -> pool4-R_pool4-R_0_split_1
I0715 20:31:33.474076 14427 net.cpp:122] Setting up pool4-R_pool4-R_0_split
I0715 20:31:33.474086 14427 net.cpp:129] Top shape: 1 512 45 27 (622080)
I0715 20:31:33.474092 14427 net.cpp:129] Top shape: 1 512 45 27 (622080)
I0715 20:31:33.474097 14427 net.cpp:137] Memory required for data: 1431554188
I0715 20:31:33.474102 14427 layer_factory.hpp:77] Creating layer conv5_1-R
I0715 20:31:33.474113 14427 net.cpp:84] Creating Layer conv5_1-R
I0715 20:31:33.474119 14427 net.cpp:406] conv5_1-R <- pool4-R_pool4-R_0_split_0
I0715 20:31:33.474128 14427 net.cpp:380] conv5_1-R -> conv5_1-R
I0715 20:31:33.483896 14427 net.cpp:122] Setting up conv5_1-R
I0715 20:31:33.483932 14427 net.cpp:129] Top shape: 1 512 45 27 (622080)
I0715 20:31:33.483937 14427 net.cpp:137] Memory required for data: 1434042508
I0715 20:31:33.483964 14427 layer_factory.hpp:77] Creating layer relu5_1-R
I0715 20:31:33.483973 14427 net.cpp:84] Creating Layer relu5_1-R
I0715 20:31:33.483979 14427 net.cpp:406] relu5_1-R <- conv5_1-R
I0715 20:31:33.483986 14427 net.cpp:367] relu5_1-R -> conv5_1-R (in-place)
I0715 20:31:33.484217 14427 net.cpp:122] Setting up relu5_1-R
I0715 20:31:33.484230 14427 net.cpp:129] Top shape: 1 512 45 27 (622080)
I0715 20:31:33.484236 14427 net.cpp:137] Memory required for data: 1436530828
I0715 20:31:33.484239 14427 layer_factory.hpp:77] Creating layer conv5_2-R
I0715 20:31:33.484251 14427 net.cpp:84] Creating Layer conv5_2-R
I0715 20:31:33.484256 14427 net.cpp:406] conv5_2-R <- conv5_1-R
I0715 20:31:33.484264 14427 net.cpp:380] conv5_2-R -> conv5_2-R
I0715 20:31:33.494987 14427 net.cpp:122] Setting up conv5_2-R
I0715 20:31:33.495029 14427 net.cpp:129] Top shape: 1 512 45 27 (622080)
I0715 20:31:33.495034 14427 net.cpp:137] Memory required for data: 1439019148
I0715 20:31:33.495045 14427 layer_factory.hpp:77] Creating layer relu5_2-R
I0715 20:31:33.495060 14427 net.cpp:84] Creating Layer relu5_2-R
I0715 20:31:33.495066 14427 net.cpp:406] relu5_2-R <- conv5_2-R
I0715 20:31:33.495074 14427 net.cpp:367] relu5_2-R -> conv5_2-R (in-place)
I0715 20:31:33.495331 14427 net.cpp:122] Setting up relu5_2-R
I0715 20:31:33.495347 14427 net.cpp:129] Top shape: 1 512 45 27 (622080)
I0715 20:31:33.495352 14427 net.cpp:137] Memory required for data: 1441507468
I0715 20:31:33.495355 14427 layer_factory.hpp:77] Creating layer conv5_3-R
I0715 20:31:33.495370 14427 net.cpp:84] Creating Layer conv5_3-R
I0715 20:31:33.495375 14427 net.cpp:406] conv5_3-R <- conv5_2-R
I0715 20:31:33.495383 14427 net.cpp:380] conv5_3-R -> conv5_3-R
I0715 20:31:33.514999 14427 net.cpp:122] Setting up conv5_3-R
I0715 20:31:33.515066 14427 net.cpp:129] Top shape: 1 512 45 27 (622080)
I0715 20:31:33.515076 14427 net.cpp:137] Memory required for data: 1443995788
I0715 20:31:33.515096 14427 layer_factory.hpp:77] Creating layer relu5_3-R
I0715 20:31:33.515117 14427 net.cpp:84] Creating Layer relu5_3-R
I0715 20:31:33.515143 14427 net.cpp:406] relu5_3-R <- conv5_3-R
I0715 20:31:33.515169 14427 net.cpp:367] relu5_3-R -> conv5_3-R (in-place)
I0715 20:31:33.515658 14427 net.cpp:122] Setting up relu5_3-R
I0715 20:31:33.515681 14427 net.cpp:129] Top shape: 1 512 45 27 (622080)
I0715 20:31:33.515697 14427 net.cpp:137] Memory required for data: 1446484108
I0715 20:31:33.515705 14427 layer_factory.hpp:77] Creating layer pool5-R
I0715 20:31:33.515722 14427 net.cpp:84] Creating Layer pool5-R
I0715 20:31:33.515730 14427 net.cpp:406] pool5-R <- conv5_3-R
I0715 20:31:33.515745 14427 net.cpp:380] pool5-R -> pool5-R
I0715 20:31:33.515897 14427 net.cpp:122] Setting up pool5-R
I0715 20:31:33.515923 14427 net.cpp:129] Top shape: 1 512 23 14 (164864)
I0715 20:31:33.515934 14427 net.cpp:137] Memory required for data: 1447143564
I0715 20:31:33.515949 14427 layer_factory.hpp:77] Creating layer fc6-R
I0715 20:31:33.516047 14427 net.cpp:84] Creating Layer fc6-R
I0715 20:31:33.516067 14427 net.cpp:406] fc6-R <- pool5-R
I0715 20:31:33.516088 14427 net.cpp:380] fc6-R -> fc6-R
I0715 20:31:33.803576 14427 net.cpp:122] Setting up fc6-R
I0715 20:31:33.803628 14427 net.cpp:129] Top shape: 1 4096 17 8 (557056)
I0715 20:31:33.803644 14427 net.cpp:137] Memory required for data: 1449371788
I0715 20:31:33.803656 14427 layer_factory.hpp:77] Creating layer relu6-R
I0715 20:31:33.803699 14427 net.cpp:84] Creating Layer relu6-R
I0715 20:31:33.803706 14427 net.cpp:406] relu6-R <- fc6-R
I0715 20:31:33.803715 14427 net.cpp:367] relu6-R -> fc6-R (in-place)
I0715 20:31:33.804452 14427 net.cpp:122] Setting up relu6-R
I0715 20:31:33.804466 14427 net.cpp:129] Top shape: 1 4096 17 8 (557056)
I0715 20:31:33.804486 14427 net.cpp:137] Memory required for data: 1451600012
I0715 20:31:33.804491 14427 layer_factory.hpp:77] Creating layer drop6-R
I0715 20:31:33.804499 14427 net.cpp:84] Creating Layer drop6-R
I0715 20:31:33.804504 14427 net.cpp:406] drop6-R <- fc6-R
I0715 20:31:33.804528 14427 net.cpp:367] drop6-R -> fc6-R (in-place)
I0715 20:31:33.804569 14427 net.cpp:122] Setting up drop6-R
I0715 20:31:33.804577 14427 net.cpp:129] Top shape: 1 4096 17 8 (557056)
I0715 20:31:33.804581 14427 net.cpp:137] Memory required for data: 1453828236
I0715 20:31:33.804584 14427 layer_factory.hpp:77] Creating layer fc7-R
I0715 20:31:33.804595 14427 net.cpp:84] Creating Layer fc7-R
I0715 20:31:33.804600 14427 net.cpp:406] fc7-R <- fc6-R
I0715 20:31:33.804606 14427 net.cpp:380] fc7-R -> fc7-R
I0715 20:31:33.864346 14427 net.cpp:122] Setting up fc7-R
I0715 20:31:33.864387 14427 net.cpp:129] Top shape: 1 4096 17 8 (557056)
I0715 20:31:33.864393 14427 net.cpp:137] Memory required for data: 1456056460
I0715 20:31:33.864408 14427 layer_factory.hpp:77] Creating layer relu7-R
I0715 20:31:33.864423 14427 net.cpp:84] Creating Layer relu7-R
I0715 20:31:33.864430 14427 net.cpp:406] relu7-R <- fc7-R
I0715 20:31:33.864440 14427 net.cpp:367] relu7-R -> fc7-R (in-place)
I0715 20:31:33.865311 14427 net.cpp:122] Setting up relu7-R
I0715 20:31:33.865329 14427 net.cpp:129] Top shape: 1 4096 17 8 (557056)
I0715 20:31:33.865334 14427 net.cpp:137] Memory required for data: 1458284684
I0715 20:31:33.865339 14427 layer_factory.hpp:77] Creating layer drop7-R
I0715 20:31:33.865360 14427 net.cpp:84] Creating Layer drop7-R
I0715 20:31:33.865365 14427 net.cpp:406] drop7-R <- fc7-R
I0715 20:31:33.865372 14427 net.cpp:367] drop7-R -> fc7-R (in-place)
I0715 20:31:33.865415 14427 net.cpp:122] Setting up drop7-R
I0715 20:31:33.865425 14427 net.cpp:129] Top shape: 1 4096 17 8 (557056)
I0715 20:31:33.865430 14427 net.cpp:137] Memory required for data: 1460512908
I0715 20:31:33.865434 14427 layer_factory.hpp:77] Creating layer score_fr-new-R
I0715 20:31:33.865450 14427 net.cpp:84] Creating Layer score_fr-new-R
I0715 20:31:33.865455 14427 net.cpp:406] score_fr-new-R <- fc7-R
I0715 20:31:33.865464 14427 net.cpp:380] score_fr-new-R -> score_fr-new-R
I0715 20:31:33.867209 14427 net.cpp:122] Setting up score_fr-new-R
I0715 20:31:33.867228 14427 net.cpp:129] Top shape: 1 3 17 8 (408)
I0715 20:31:33.867233 14427 net.cpp:137] Memory required for data: 1460514540
I0715 20:31:33.867241 14427 layer_factory.hpp:77] Creating layer upscore2-new-R
I0715 20:31:33.867259 14427 net.cpp:84] Creating Layer upscore2-new-R
I0715 20:31:33.867264 14427 net.cpp:406] upscore2-new-R <- score_fr-new-R
I0715 20:31:33.867272 14427 net.cpp:380] upscore2-new-R -> upscore2-new-R
I0715 20:31:33.867571 14427 net.cpp:122] Setting up upscore2-new-R
I0715 20:31:33.867583 14427 net.cpp:129] Top shape: 1 3 36 18 (1944)
I0715 20:31:33.867588 14427 net.cpp:137] Memory required for data: 1460522316
I0715 20:31:33.867594 14427 layer_factory.hpp:77] Creating layer upscore2-new-R_upscore2-new-R_0_split
I0715 20:31:33.867602 14427 net.cpp:84] Creating Layer upscore2-new-R_upscore2-new-R_0_split
I0715 20:31:33.867607 14427 net.cpp:406] upscore2-new-R_upscore2-new-R_0_split <- upscore2-new-R
I0715 20:31:33.867614 14427 net.cpp:380] upscore2-new-R_upscore2-new-R_0_split -> upscore2-new-R_upscore2-new-R_0_split_0
I0715 20:31:33.867622 14427 net.cpp:380] upscore2-new-R_upscore2-new-R_0_split -> upscore2-new-R_upscore2-new-R_0_split_1
I0715 20:31:33.867671 14427 net.cpp:122] Setting up upscore2-new-R_upscore2-new-R_0_split
I0715 20:31:33.867681 14427 net.cpp:129] Top shape: 1 3 36 18 (1944)
I0715 20:31:33.867686 14427 net.cpp:129] Top shape: 1 3 36 18 (1944)
I0715 20:31:33.867691 14427 net.cpp:137] Memory required for data: 1460537868
I0715 20:31:33.867694 14427 layer_factory.hpp:77] Creating layer score_pool4-new-R
I0715 20:31:33.867705 14427 net.cpp:84] Creating Layer score_pool4-new-R
I0715 20:31:33.867712 14427 net.cpp:406] score_pool4-new-R <- pool4-R_pool4-R_0_split_1
I0715 20:31:33.867720 14427 net.cpp:380] score_pool4-new-R -> score_pool4-new-R
I0715 20:31:33.869415 14427 net.cpp:122] Setting up score_pool4-new-R
I0715 20:31:33.869441 14427 net.cpp:129] Top shape: 1 3 45 27 (3645)
I0715 20:31:33.869446 14427 net.cpp:137] Memory required for data: 1460552448
I0715 20:31:33.869455 14427 layer_factory.hpp:77] Creating layer score_pool4c-R
I0715 20:31:33.869475 14427 net.cpp:84] Creating Layer score_pool4c-R
I0715 20:31:33.869480 14427 net.cpp:406] score_pool4c-R <- score_pool4-new-R
I0715 20:31:33.869488 14427 net.cpp:406] score_pool4c-R <- upscore2-new-R_upscore2-new-R_0_split_0
I0715 20:31:33.869495 14427 net.cpp:380] score_pool4c-R -> score_pool4c-R
I0715 20:31:33.869534 14427 net.cpp:122] Setting up score_pool4c-R
I0715 20:31:33.869544 14427 net.cpp:129] Top shape: 1 3 36 18 (1944)
I0715 20:31:33.869549 14427 net.cpp:137] Memory required for data: 1460560224
I0715 20:31:33.869554 14427 layer_factory.hpp:77] Creating layer fuse_pool4-R
I0715 20:31:33.869562 14427 net.cpp:84] Creating Layer fuse_pool4-R
I0715 20:31:33.869566 14427 net.cpp:406] fuse_pool4-R <- upscore2-new-R_upscore2-new-R_0_split_1
I0715 20:31:33.869575 14427 net.cpp:406] fuse_pool4-R <- score_pool4c-R
I0715 20:31:33.869581 14427 net.cpp:380] fuse_pool4-R -> fuse_pool4-R
I0715 20:31:33.869626 14427 net.cpp:122] Setting up fuse_pool4-R
I0715 20:31:33.869633 14427 net.cpp:129] Top shape: 1 3 36 18 (1944)
I0715 20:31:33.869637 14427 net.cpp:137] Memory required for data: 1460568000
I0715 20:31:33.869642 14427 layer_factory.hpp:77] Creating layer upscore_pool4-new-R
I0715 20:31:33.869652 14427 net.cpp:84] Creating Layer upscore_pool4-new-R
I0715 20:31:33.869655 14427 net.cpp:406] upscore_pool4-new-R <- fuse_pool4-R
I0715 20:31:33.869663 14427 net.cpp:380] upscore_pool4-new-R -> upscore_pool4-new-R
I0715 20:31:33.869927 14427 net.cpp:122] Setting up upscore_pool4-new-R
I0715 20:31:33.869938 14427 net.cpp:129] Top shape: 1 3 74 38 (8436)
I0715 20:31:33.869942 14427 net.cpp:137] Memory required for data: 1460601744
I0715 20:31:33.869948 14427 layer_factory.hpp:77] Creating layer upscore_pool4-new-R_upscore_pool4-new-R_0_split
I0715 20:31:33.869956 14427 net.cpp:84] Creating Layer upscore_pool4-new-R_upscore_pool4-new-R_0_split
I0715 20:31:33.869961 14427 net.cpp:406] upscore_pool4-new-R_upscore_pool4-new-R_0_split <- upscore_pool4-new-R
I0715 20:31:33.869967 14427 net.cpp:380] upscore_pool4-new-R_upscore_pool4-new-R_0_split -> upscore_pool4-new-R_upscore_pool4-new-R_0_split_0
I0715 20:31:33.869974 14427 net.cpp:380] upscore_pool4-new-R_upscore_pool4-new-R_0_split -> upscore_pool4-new-R_upscore_pool4-new-R_0_split_1
I0715 20:31:33.870021 14427 net.cpp:122] Setting up upscore_pool4-new-R_upscore_pool4-new-R_0_split
I0715 20:31:33.870030 14427 net.cpp:129] Top shape: 1 3 74 38 (8436)
I0715 20:31:33.870035 14427 net.cpp:129] Top shape: 1 3 74 38 (8436)
I0715 20:31:33.870039 14427 net.cpp:137] Memory required for data: 1460669232
I0715 20:31:33.870043 14427 layer_factory.hpp:77] Creating layer score_pool3-new-R
I0715 20:31:33.870059 14427 net.cpp:84] Creating Layer score_pool3-new-R
I0715 20:31:33.870064 14427 net.cpp:406] score_pool3-new-R <- pool3-R_pool3-R_0_split_1
I0715 20:31:33.870074 14427 net.cpp:380] score_pool3-new-R -> score_pool3-new-R
I0715 20:31:33.871198 14427 net.cpp:122] Setting up score_pool3-new-R
I0715 20:31:33.871225 14427 net.cpp:129] Top shape: 1 3 89 53 (14151)
I0715 20:31:33.871229 14427 net.cpp:137] Memory required for data: 1460725836
I0715 20:31:33.871240 14427 layer_factory.hpp:77] Creating layer score_pool3c-R
I0715 20:31:33.871255 14427 net.cpp:84] Creating Layer score_pool3c-R
I0715 20:31:33.871260 14427 net.cpp:406] score_pool3c-R <- score_pool3-new-R
I0715 20:31:33.871266 14427 net.cpp:406] score_pool3c-R <- upscore_pool4-new-R_upscore_pool4-new-R_0_split_0
I0715 20:31:33.871273 14427 net.cpp:380] score_pool3c-R -> score_pool3c-R
I0715 20:31:33.871323 14427 net.cpp:122] Setting up score_pool3c-R
I0715 20:31:33.871340 14427 net.cpp:129] Top shape: 1 3 74 38 (8436)
I0715 20:31:33.871345 14427 net.cpp:137] Memory required for data: 1460759580
I0715 20:31:33.871349 14427 layer_factory.hpp:77] Creating layer fuse_pool3-R
I0715 20:31:33.871362 14427 net.cpp:84] Creating Layer fuse_pool3-R
I0715 20:31:33.871366 14427 net.cpp:406] fuse_pool3-R <- upscore_pool4-new-R_upscore_pool4-new-R_0_split_1
I0715 20:31:33.871372 14427 net.cpp:406] fuse_pool3-R <- score_pool3c-R
I0715 20:31:33.871378 14427 net.cpp:380] fuse_pool3-R -> fuse_pool3-R
I0715 20:31:33.871408 14427 net.cpp:122] Setting up fuse_pool3-R
I0715 20:31:33.871415 14427 net.cpp:129] Top shape: 1 3 74 38 (8436)
I0715 20:31:33.871419 14427 net.cpp:137] Memory required for data: 1460793324
I0715 20:31:33.871423 14427 layer_factory.hpp:77] Creating layer upscore8-new-R
I0715 20:31:33.871433 14427 net.cpp:84] Creating Layer upscore8-new-R
I0715 20:31:33.871438 14427 net.cpp:406] upscore8-new-R <- fuse_pool3-R
I0715 20:31:33.871444 14427 net.cpp:380] upscore8-new-R -> upscore8-new-R
I0715 20:31:33.871731 14427 net.cpp:122] Setting up upscore8-new-R
I0715 20:31:33.871742 14427 net.cpp:129] Top shape: 1 3 600 312 (561600)
I0715 20:31:33.871747 14427 net.cpp:137] Memory required for data: 1463039724
I0715 20:31:33.871752 14427 layer_factory.hpp:77] Creating layer upscore8_cropped-R
I0715 20:31:33.871762 14427 net.cpp:84] Creating Layer upscore8_cropped-R
I0715 20:31:33.871767 14427 net.cpp:406] upscore8_cropped-R <- upscore8-new-R
I0715 20:31:33.871773 14427 net.cpp:406] upscore8_cropped-R <- data-R_crop_0_split_1
I0715 20:31:33.871779 14427 net.cpp:380] upscore8_cropped-R -> upscore8_cropped-R
I0715 20:31:33.871809 14427 net.cpp:122] Setting up upscore8_cropped-R
I0715 20:31:33.871815 14427 net.cpp:129] Top shape: 1 3 512 224 (344064)
I0715 20:31:33.871819 14427 net.cpp:137] Memory required for data: 1464415980
I0715 20:31:33.871824 14427 layer_factory.hpp:77] Creating layer upscore8_uncropped-R
I0715 20:31:33.872123 14427 net.cpp:84] Creating Layer upscore8_uncropped-R
I0715 20:31:33.872138 14427 net.cpp:406] upscore8_uncropped-R <- crop_info
I0715 20:31:33.872144 14427 net.cpp:406] upscore8_uncropped-R <- upscore8_cropped-R
I0715 20:31:33.872150 14427 net.cpp:406] upscore8_uncropped-R <- data_data_0_split_3
I0715 20:31:33.872157 14427 net.cpp:380] upscore8_uncropped-R -> upscore8_uncropped-R
I0715 20:31:33.875519 14427 net.cpp:122] Setting up upscore8_uncropped-R
I0715 20:31:33.875574 14427 net.cpp:129] Top shape: 1 3 512 224 (344064)
I0715 20:31:33.875578 14427 net.cpp:137] Memory required for data: 1465792236
I0715 20:31:33.875602 14427 layer_factory.hpp:77] Creating layer loss1
I0715 20:31:33.875627 14427 net.cpp:84] Creating Layer loss1
I0715 20:31:33.875633 14427 net.cpp:406] loss1 <- upscore8_cropped_upscore8_cropped_0_split_1
I0715 20:31:33.875641 14427 net.cpp:406] loss1 <- label_data_1_split_1
I0715 20:31:33.875648 14427 net.cpp:380] loss1 -> loss1
…
