…
snapshot_prefix: "/media/Med_2T2/data2/models/snapshots/indiv:1e-5x10,20/FD1:XI3_1_20180715_091943/train"
test_initialization: false
average_loss: 20
stepvalue: 40000
iter_size: 1
I0715 09:19:44.864125 12918 solver.cpp:77] Creating training net from train_net file: /media/Med_2T2/data2/prototxts/training_S3x10.prototxt
I0715 09:19:44.866919 12918 net.cpp:51] Initializing net from parameters: 
state {
  phase: TRAIN
}
layer {
  name: "data"
  type: "Python"
  top: "data"
  top: "label"
  top: "crop_margin"
  top: "crop_prob"
  top: "crop_sample_batch"
  python_param {
    module: "Data"
    layer: "DataLayer"
  }
}
layer {
  name: "conv1_1"
  type: "Convolution"
  bottom: "data"
  top: "conv1_1"
  param {
    lr_mult: 1
    decay_mult: 1
  }
  param {
    lr_mult: 2
    decay_mult: 0
  }
  convolution_param {
    num_output: 64
    pad: 100
    kernel_size: 3
    stride: 1
  }
}
layer {
  name: "relu1_1"
  type: "ReLU"
  bottom: "conv1_1"
  top: "conv1_1"
}
layer {
  name: "conv1_2"
  type: "Convolution"
  bottom: "conv1_1"
  top: "conv1_2"
  param {
    lr_mult: 1
    decay_mult: 1
  }
  param {
    lr_mult: 2
    decay_mult: 0
  }
  convolution_param {
    num_output: 64
    pad: 1
    kernel_size: 3
    stride: 1
  }
}
layer {
  name: "relu1_2"
  type: "ReLU"
  bottom: "conv1_2"
  top: "conv1_2"
}
layer {
  name: "pool1"
  type: "Pooling"
  bottom: "conv1_2"
  top: "pool1"
  pooling_param {
    pool: MAX
    kernel_size: 2
    stride: 2
  }
}
layer {
  name: "conv2_1"
  type: "Convolution"
  bottom: "pool1"
  top: "conv2_1"
  param {
    lr_mult: 1
    decay_mult: 1
  }
  param {
    lr_mult: 2
    decay_mult: 0
  }
  convolution_param {
    num_output: 128
    pad: 1
    kernel_size: 3
    stride: 1
  }
}
layer {
  name: "relu2_1"
  type: "ReLU"
  bottom: "conv2_1"
  top: "conv2_1"
}
layer {
  name: "conv2_2"
  type: "Convolution"
  bottom: "conv2_1"
  top: "conv2_2"
  param {
    lr_mult: 1
    decay_mult: 1
  }
  param {
    lr_mult: 2
    decay_mult: 0
  }
  convolution_param {
    num_output: 128
    pad: 1
    kernel_size: 3
    stride: 1
  }
}
layer {
  name: "relu2_2"
  type: "ReLU"
  bottom: "conv2_2"
  top: "conv2_2"
}
layer {
  name: "pool2"
  type: "Pooling"
  bottom: "conv2_2"
  top: "pool2"
  pooling_param {
    pool: MAX
    kernel_size: 2
    stride: 2
  }
}
layer {
  name: "conv3_1"
  type: "Convolution"
  bottom: "pool2"
  top: "conv3_1"
  param {
    lr_mult: 1
    decay_mult: 1
  }
  param {
    lr_mult: 2
    decay_mult: 0
  }
  convolution_param {
    num_output: 256
    pad: 1
    kernel_size: 3
    stride: 1
  }
}
layer {
  name: "relu3_1"
  type: "ReLU"
  bottom: "conv3_1"
  top: "conv3_1"
}
layer {
  name: "conv3_2"
  type: "Convolution"
  bottom: "conv3_1"
  top: "conv3_2"
  param {
    lr_mult: 1
    decay_mult: 1
  }
  param {
    lr_mult: 2
    decay_mult: 0
  }
  convolution_param {
    num_output: 256
    pad: 1
    kernel_size: 3
    stride: 1
  }
}
layer {
  name: "relu3_2"
  type: "ReLU"
  bottom: "conv3_2"
  top: "conv3_2"
}
layer {
  name: "conv3_3"
  type: "Convolution"
  bottom: "conv3_2"
  top: "conv3_3"
  param {
    lr_mult: 1
    decay_mult: 1
  }
  param {
    lr_mult: 2
    decay_mult: 0
  }
  convolution_param {
    num_output: 256
    pad: 1
    kernel_size: 3
    stride: 1
  }
}
layer {
  name: "relu3_3"
  type: "ReLU"
  bottom: "conv3_3"
  top: "conv3_3"
}
layer {
  name: "pool3"
  type: "Pooling"
  bottom: "conv3_3"
  top: "pool3"
  pooling_param {
    pool: MAX
    kernel_size: 2
    stride: 2
  }
}
layer {
  name: "conv4_1"
  type: "Convolution"
  bottom: "pool3"
  top: "conv4_1"
  param {
    lr_mult: 1
    decay_mult: 1
  }
  param {
    lr_mult: 2
    decay_mult: 0
  }
  convolution_param {
    num_output: 512
    pad: 1
    kernel_size: 3
    stride: 1
  }
}
layer {
  name: "relu4_1"
  type: "ReLU"
  bottom: "conv4_1"
  top: "conv4_1"
}
layer {
  name: "conv4_2"
  type: "Convolution"
  bottom: "conv4_1"
  top: "conv4_2"
  param {
    lr_mult: 1
    decay_mult: 1
  }
  param {
    lr_mult: 2
    decay_mult: 0
  }
  convolution_param {
    num_output: 512
    pad: 1
    kernel_size: 3
    stride: 1
  }
}
layer {
  name: "relu4_2"
  type: "ReLU"
  bottom: "conv4_2"
  top: "conv4_2"
}
layer {
  name: "conv4_3"
  type: "Convolution"
  bottom: "conv4_2"
  top: "conv4_3"
  param {
    lr_mult: 1
    decay_mult: 1
  }
  param {
    lr_mult: 2
    decay_mult: 0
  }
  convolution_param {
    num_output: 512
    pad: 1
    kernel_size: 3
    stride: 1
  }
}
layer {
  name: "relu4_3"
  type: "ReLU"
  bottom: "conv4_3"
  top: "conv4_3"
}
layer {
  name: "pool4"
  type: "Pooling"
  bottom: "conv4_3"
  top: "pool4"
  pooling_param {
    pool: MAX
    kernel_size: 2
    stride: 2
  }
}
layer {
  name: "conv5_1"
  type: "Convolution"
  bottom: "pool4"
  top: "conv5_1"
  param {
    lr_mult: 1
    decay_mult: 1
  }
  param {
    lr_mult: 2
    decay_mult: 0
  }
  convolution_param {
    num_output: 512
    pad: 1
    kernel_size: 3
    stride: 1
  }
}
layer {
  name: "relu5_1"
  type: "ReLU"
  bottom: "conv5_1"
  top: "conv5_1"
}
layer {
  name: "conv5_2"
  type: "Convolution"
  bottom: "conv5_1"
  top: "conv5_2"
  param {
    lr_mult: 1
    decay_mult: 1
  }
  param {
    lr_mult: 2
    decay_mult: 0
  }
  convolution_param {
    num_output: 512
    pad: 1
    kernel_size: 3
    stride: 1
  }
}
layer {
  name: "relu5_2"
  type: "ReLU"
  bottom: "conv5_2"
  top: "conv5_2"
}
layer {
  name: "conv5_3"
  type: "Convolution"
  bottom: "conv5_2"
  top: "conv5_3"
  param {
    lr_mult: 1
    decay_mult: 1
  }
  param {
    lr_mult: 2
    decay_mult: 0
  }
  convolution_param {
    num_output: 512
    pad: 1
    kernel_size: 3
    stride: 1
  }
}
layer {
  name: "relu5_3"
  type: "ReLU"
  bottom: "conv5_3"
  top: "conv5_3"
}
layer {
  name: "pool5"
  type: "Pooling"
  bottom: "conv5_3"
  top: "pool5"
  pooling_param {
    pool: MAX
    kernel_size: 2
    stride: 2
  }
}
layer {
  name: "fc6"
  type: "Convolution"
  bottom: "pool5"
  top: "fc6"
  param {
    lr_mult: 1
    decay_mult: 1
  }
  param {
    lr_mult: 2
    decay_mult: 0
  }
  convolution_param {
    num_output: 4096
    pad: 0
    kernel_size: 7
    stride: 1
  }
}
layer {
  name: "relu6"
  type: "ReLU"
  bottom: "fc6"
  top: "fc6"
}
layer {
  name: "drop6"
  type: "Dropout"
  bottom: "fc6"
  top: "fc6"
  dropout_param {
    dropout_ratio: 0.5
  }
}
layer {
  name: "fc7"
  type: "Convolution"
  bottom: "fc6"
  top: "fc7"
  param {
    lr_mult: 1
    decay_mult: 1
  }
  param {
    lr_mult: 2
    decay_mult: 0
  }
  convolution_param {
    num_output: 4096
    pad: 0
    kernel_size: 1
    stride: 1
  }
}
layer {
  name: "relu7"
  type: "ReLU"
  bottom: "fc7"
  top: "fc7"
}
layer {
  name: "drop7"
  type: "Dropout"
  bottom: "fc7"
  top: "fc7"
  dropout_param {
    dropout_ratio: 0.5
  }
}
layer {
  name: "score_fr-new"
  type: "Convolution"
  bottom: "fc7"
  top: "score_fr-new"
  param {
    lr_mult: 1
    decay_mult: 1
  }
  param {
    lr_mult: 2
    decay_mult: 0
  }
  convolution_param {
    num_output: 3
    kernel_size: 1
  }
}
layer {
  name: "upscore2-new"
  type: "Deconvolution"
  bottom: "score_fr-new"
  top: "upscore2-new"
  param {
    lr_mult: 0
  }
  convolution_param {
    num_output: 3
    bias_term: false
    kernel_size: 4
    stride: 2
  }
}
layer {
  name: "score_pool4-new"
  type: "Convolution"
  bottom: "pool4"
  top: "score_pool4-new"
  param {
    lr_mult: 1
    decay_mult: 1
  }
  param {
    lr_mult: 2
    decay_mult: 0
  }
  convolution_param {
    num_output: 3
    pad: 0
    kernel_size: 1
  }
}
layer {
  name: "score_pool4c"
  type: "Crop"
  bottom: "score_pool4-new"
  bottom: "upscore2-new"
  top: "score_pool4c"
  crop_param {
    axis: 2
    offset: 5
  }
}
layer {
  name: "fuse_pool4"
  type: "Eltwise"
  bottom: "upscore2-new"
  bottom: "score_pool4c"
  top: "fuse_pool4"
  eltwise_param {
    operation: SUM
  }
}
layer {
  name: "upscore_pool4-new"
  type: "Deconvolution"
  bottom: "fuse_pool4"
  top: "upscore_pool4-new"
  param {
    lr_mult: 0
  }
  convolution_param {
    num_output: 3
    bias_term: false
    kernel_size: 4
    stride: 2
  }
}
layer {
  name: "score_pool3-new"
  type: "Convolution"
  bottom: "pool3"
  top: "score_pool3-new"
  param {
    lr_mult: 1
    decay_mult: 1
  }
  param {
    lr_mult: 2
    decay_mult: 0
  }
  convolution_param {
    num_output: 3
    pad: 0
    kernel_size: 1
  }
}
layer {
  name: "score_pool3c"
  type: "Crop"
  bottom: "score_pool3-new"
  bottom: "upscore_pool4-new"
  top: "score_pool3c"
  crop_param {
    axis: 2
    offset: 9
  }
}
layer {
  name: "fuse_pool3"
  type: "Eltwise"
  bottom: "upscore_pool4-new"
  bottom: "score_pool3c"
  top: "fuse_pool3"
  eltwise_param {
    operation: SUM
  }
}
layer {
  name: "upscore8-new"
  type: "Deconvolution"
  bottom: "fuse_pool3"
  top: "upscore8-new"
  param {
    lr_mult: 0
  }
  convolution_param {
    num_output: 3
    bias_term: false
    kernel_size: 16
    stride: 8
  }
}
layer {
  name: "upscore8_cropped"
  type: "Crop"
  bottom: "upscore8-new"
  bottom: "data"
  top: "upscore8_cropped"
  crop_param {
    axis: 2
    offset: 31
  }
}
layer {
  name: "prob"
  type: "Sigmoid"
  bottom: "upscore8_cropped"
  top: "prob"
}
layer {
  name: "saliency1"
  type: "Convolution"
  bottom: "prob"
  top: "saliency1"
  param {
    lr_mult: 10
    decay_mult: 1
  }
  param {
    lr_mult: 20
    decay_mult: 0
  }
  convolution_param {
    num_output: 3
    pad: 1
    kernel_size: 3
    stride: 1
    weight_filler {
      type: "xavier"
    }
    bias_filler {
      type: "constant"
      value: 1
    }
  }
}
layer {
  name: "relu_saliency1"
  type: "ReLU"
  bottom: "saliency1"
  top: "saliency1"
}
layer {
  name: "saliency"
  type: "Convolution"
  bottom: "saliency1"
  top: "saliency"
  param {
    lr_mult: 10
    decay_mult: 1
  }
  param {
    lr_mult: 20
    decay_mult: 0
  }
  convolution_param {
    num_output: 3
    pad: 2
    kernel_size: 5
    stride: 1
    weight_filler {
      type: "xavier"
    }
    bias_filler {
      type: "constant"
      value: 1
    }
  }
}
layer {
  name: "silence_saliency"
  type: "Silence"
  bottom: "saliency"
}
layer {
  name: "crop"
  type: "Python"
  bottom: "label"
  bottom: "data"
  bottom: "crop_margin"
  bottom: "crop_prob"
  bottom: "crop_sample_batch"
  top: "data-R"
  top: "crop_info"
  python_param {
    module: "Crop"
    layer: "CropLayer"
    param_str: "{\"TEST\": 0}"
  }
}
layer {
  name: "conv1_1-R"
  type: "Convolution"
  bottom: "data-R"
  top: "conv1_1-R"
  param {
    lr_mult: 10
    decay_mult: 1
  }
  param {
    lr_mult: 20
    decay_mult: 0
  }
  convolution_param {
    num_output: 64
    pad: 100
    kernel_size: 3
    stride: 1
  }
}
layer {
  name: "relu1_1-R"
  type: "ReLU"
  bottom: "conv1_1-R"
  top: "conv1_1-R"
}
layer {
  name: "conv1_2-R"
  type: "Convolution"
  bottom: "conv1_1-R"
  top: "conv1_2-R"
  param {
    lr_mult: 10
    decay_mult: 1
  }
  param {
    lr_mult: 20
    decay_mult: 0
  }
  convolution_param {
    num_output: 64
    pad: 1
    kernel_size: 3
    stride: 1
  }
}
layer {
  name: "relu1_2-R"
  type: "ReLU"
  bottom: "conv1_2-R"
  top: "conv1_2-R"
}
layer {
  name: "pool1-R"
  type: "Pooling"
  bottom: "conv1_2-R"
  top: "pool1-R"
  pooling_param {
    pool: MAX
    kernel_size: 2
    stride: 2
  }
}
layer {
  name: "conv2_1-R"
  type: "Convolution"
  bottom: "pool1-R"
  top: "conv2_1-R"
  param {
    lr_mult: 10
    decay_mult: 1
  }
  param {
    lr_mult: 20
    decay_mult: 0
  }
  convolution_param {
    num_output: 128
    pad: 1
    kernel_size: 3
    stride: 1
  }
}
layer {
  name: "relu2_1-R"
  type: "ReLU"
  bottom: "conv2_1-R"
  top: "conv2_1-R"
}
layer {
  name: "conv2_2-R"
  type: "Convolution"
  bottom: "conv2_1-R"
  top: "conv2_2-R"
  param {
    lr_mult: 10
    decay_mult: 1
  }
  param {
    lr_mult: 20
    decay_mult: 0
  }
  convolution_param {
    num_output: 128
    pad: 1
    kernel_size: 3
    stride: 1
  }
}
layer {
  name: "relu2_2-R"
  type: "ReLU"
  bottom: "conv2_2-R"
  top: "conv2_2-R"
}
layer {
  name: "pool2-R"
  type: "Pooling"
  bottom: "conv2_2-R"
  top: "pool2-R"
  pooling_param {
    pool: MAX
    kernel_size: 2
    stride: 2
  }
}
layer {
  name: "conv3_1-R"
  type: "Convolution"
  bottom: "pool2-R"
  top: "conv3_1-R"
  param {
    lr_mult: 10
    decay_mult: 1
  }
  param {
    lr_mult: 20
    decay_mult: 0
  }
  convolution_param {
    num_output: 256
    pad: 1
    kernel_size: 3
    stride: 1
  }
}
layer {
  name: "relu3_1-R"
  type: "ReLU"
  bottom: "conv3_1-R"
  top: "conv3_1-R"
}
layer {
  name: "conv3_2-R"
  type: "Convolution"
  bottom: "conv3_1-R"
  top: "conv3_2-R"
  param {
    lr_mult: 10
    decay_mult: 1
  }
  param {
    lr_mult: 20
    decay_mult: 0
  }
  convolution_param {
    num_output: 256
    pad: 1
    kernel_size: 3
    stride: 1
  }
}
layer {
  name: "relu3_2-R"
  type: "ReLU"
  bottom: "conv3_2-R"
  top: "conv3_2-R"
}
layer {
  name: "conv3_3-R"
  type: "Convolution"
  bottom: "conv3_2-R"
  top: "conv3_3-R"
  param {
    lr_mult: 10
    decay_mult: 1
  }
  param {
    lr_mult: 20
    decay_mult: 0
  }
  convolution_param {
    num_output: 256
    pad: 1
    kernel_size: 3
    stride: 1
  }
}
layer {
  name: "relu3_3-R"
  type: "ReLU"
  bottom: "conv3_3-R"
  top: "conv3_3-R"
}
layer {
  name: "pool3-R"
  type: "Pooling"
  bottom: "conv3_3-R"
  top: "pool3-R"
  pooling_param {
    pool: MAX
    kernel_size: 2
    stride: 2
  }
}
layer {
  name: "conv4_1-R"
  type: "Convolution"
  bottom: "pool3-R"
  top: "conv4_1-R"
  param {
    lr_mult: 10
    decay_mult: 1
  }
  param {
    lr_mult: 20
    decay_mult: 0
  }
  convolution_param {
    num_output: 512
    pad: 1
    kernel_size: 3
    stride: 1
  }
}
layer {
  name: "relu4_1-R"
  type: "ReLU"
  bottom: "conv4_1-R"
  top: "conv4_1-R"
}
layer {
  name: "conv4_2-R"
  type: "Convolution"
  bottom: "conv4_1-R"
  top: "conv4_2-R"
  param {
    lr_mult: 10
    decay_mult: 1
  }
  param {
    lr_mult: 20
    decay_mult: 0
  }
  convolution_param {
    num_output: 512
    pad: 1
    kernel_size: 3
    stride: 1
  }
}
layer {
  name: "relu4_2-R"
  type: "ReLU"
  bottom: "conv4_2-R"
  top: "conv4_2-R"
}
layer {
  name: "conv4_3-R"
  type: "Convolution"
  bottom: "conv4_2-R"
  top: "conv4_3-R"
  param {
    lr_mult: 10
    decay_mult: 1
  }
  param {
    lr_mult: 20
    decay_mult: 0
  }
  convolution_param {
    num_output: 512
    pad: 1
    kernel_size: 3
    stride: 1
  }
}
layer {
  name: "relu4_3-R"
  type: "ReLU"
  bottom: "conv4_3-R"
  top: "conv4_3-R"
}
layer {
  name: "pool4-R"
  type: "Pooling"
  bottom: "conv4_3-R"
  top: "pool4-R"
  pooling_param {
    pool: MAX
    kernel_size: 2
    stride: 2
  }
}
layer {
  name: "conv5_1-R"
  type: "Convolution"
  bottom: "pool4-R"
  top: "conv5_1-R"
  param {
    lr_mult: 10
    decay_mult: 1
  }
  param {
    lr_mult: 20
    decay_mult: 0
  }
  convolution_param {
    num_output: 512
    pad: 1
    kernel_size: 3
    stride: 1
  }
}
layer {
  name: "relu5_1-R"
  type: "ReLU"
  bottom: "conv5_1-R"
  top: "conv5_1-R"
}
layer {
  name: "conv5_2-R"
  type: "Convolution"
  bottom: "conv5_1-R"
  top: "conv5_2-R"
  param {
    lr_mult: 10
    decay_mult: 1
  }
  param {
    lr_mult: 20
    decay_mult: 0
  }
  convolution_param {
    num_output: 512
    pad: 1
    kernel_size: 3
    stride: 1
  }
}
layer {
  name: "relu5_2-R"
  type: "ReLU"
  bottom: "conv5_2-R"
  top: "conv5_2-R"
}
layer {
  name: "conv5_3-R"
  type: "Convolution"
  bottom: "conv5_2-R"
  top: "conv5_3-R"
  param {
    lr_mult: 10
    decay_mult: 1
  }
  param {
    lr_mult: 20
    decay_mult: 0
  }
  convolution_param {
    num_output: 512
    pad: 1
    kernel_size: 3
    stride: 1
  }
}
layer {
  name: "relu5_3-R"
  type: "ReLU"
  bottom: "conv5_3-R"
  top: "conv5_3-R"
}
layer {
  name: "pool5-R"
  type: "Pooling"
  bottom: "conv5_3-R"
  top: "pool5-R"
  pooling_param {
    pool: MAX
    kernel_size: 2
    stride: 2
  }
}
layer {
  name: "fc6-R"
  type: "Convolution"
  bottom: "pool5-R"
  top: "fc6-R"
  param {
    lr_mult: 10
    decay_mult: 1
  }
  param {
    lr_mult: 20
    decay_mult: 0
  }
  convolution_param {
    num_output: 4096
    pad: 0
    kernel_size: 7
    stride: 1
  }
}
layer {
  name: "relu6-R"
  type: "ReLU"
  bottom: "fc6-R"
  top: "fc6-R"
}
layer {
  name: "drop6-R"
  type: "Dropout"
  bottom: "fc6-R"
  top: "fc6-R"
  dropout_param {
    dropout_ratio: 0.5
  }
}
layer {
  name: "fc7-R"
  type: "Convolution"
  bottom: "fc6-R"
  top: "fc7-R"
  param {
    lr_mult: 10
    decay_mult: 1
  }
  param {
    lr_mult: 20
    decay_mult: 0
  }
  convolution_param {
    num_output: 4096
    pad: 0
    kernel_size: 1
    stride: 1
  }
}
layer {
  name: "relu7-R"
  type: "ReLU"
  bottom: "fc7-R"
  top: "fc7-R"
}
layer {
  name: "drop7-R"
  type: "Dropout"
  bottom: "fc7-R"
  top: "fc7-R"
  dropout_param {
    dropout_ratio: 0.5
  }
}
layer {
  name: "score_fr-new-R"
  type: "Convolution"
  bottom: "fc7-R"
  top: "score_fr-new-R"
  param {
    lr_mult: 10
    decay_mult: 1
  }
  param {
    lr_mult: 20
    decay_mult: 0
  }
  convolution_param {
    num_output: 3
    kernel_size: 1
  }
}
layer {
  name: "upscore2-new-R"
  type: "Deconvolution"
  bottom: "score_fr-new-R"
  top: "upscore2-new-R"
  param {
    lr_mult: 0
  }
  convolution_param {
    num_output: 3
    bias_term: false
    kernel_size: 4
    stride: 2
  }
}
layer {
  name: "score_pool4-new-R"
  type: "Convolution"
  bottom: "pool4-R"
  top: "score_pool4-new-R"
  param {
    lr_mult: 10
    decay_mult: 1
  }
  param {
    lr_mult: 20
    decay_mult: 0
  }
  convolution_param {
    num_output: 3
    pad: 0
    kernel_size: 1
  }
}
layer {
  name: "score_pool4c-R"
  type: "Crop"
  bottom: "score_pool4-new-R"
  bottom: "upscore2-new-R"
  top: "score_pool4c-R"
  crop_param {
    axis: 2
    offset: 5
  }
}
layer {
  name: "fuse_pool4-R"
  type: "Eltwise"
  bottom: "upscore2-new-R"
  bottom: "score_pool4c-R"
  top: "fuse_pool4-R"
  eltwise_param {
    operation: SUM
  }
}
layer {
  name: "upscore_pool4-new-R"
  type: "Deconvolution"
  bottom: "fuse_pool4-R"
  top: "upscore_pool4-new-R"
  param {
    lr_mult: 0
  }
  convolution_param {
    num_output: 3
    bias_term: false
    kernel_size: 4
    stride: 2
  }
}
layer {
  name: "score_pool3-new-R"
  type: "Convolution"
  bottom: "pool3-R"
  top: "score_pool3-new-R"
  param {
    lr_mult: 10
    decay_mult: 1
  }
  param {
    lr_mult: 20
    decay_mult: 0
  }
  convolution_param {
    num_output: 3
    pad: 0
    kernel_size: 1
  }
}
layer {
  name: "score_pool3c-R"
  type: "Crop"
  bottom: "score_pool3-new-R"
  bottom: "upscore_pool4-new-R"
  top: "score_pool3c-R"
  crop_param {
    axis: 2
    offset: 9
  }
}
layer {
  name: "fuse_pool3-R"
  type: "Eltwise"
  bottom: "upscore_pool4-new-R"
  bottom: "score_pool3c-R"
  top: "fuse_pool3-R"
  eltwise_param {
    operation: SUM
  }
}
layer {
  name: "upscore8-new-R"
  type: "Deconvolution"
  bottom: "fuse_pool3-R"
  top: "upscore8-new-R"
  param {
    lr_mult: 0
  }
  convolution_param {
    num_output: 3
    bias_term: false
    kernel_size: 16
    stride: 8
  }
}
layer {
  name: "upscore8_cropped-R"
  type: "Crop"
  bottom: "upscore8-new-R"
  bottom: "data-R"
  top: "upscore8_cropped-R"
  crop_param {
    axis: 2
    offset: 31
  }
}
layer {
  name: "upscore8_uncropped-R"
  type: "Python"
  bottom: "crop_info"
  bottom: "upscore8_cropped-R"
  bottom: "data"
  top: "upscore8_uncropped-R"
  python_param {
    module: "Uncrop"
    layer: "UncropLayer"
  }
}
layer {
  name: "loss1"
  type: "DiceLoss"
  bottom: "upscore8_cropped"
  bottom: "label"
  top: "loss1"
  loss_weight: 0.333333
}
layer {
  name: "loss2"
  type: "DiceLoss"
  bottom: "upscore8_uncropped-R"
  bottom: "label"
  top: "loss2"
  loss_weight: 0.666667
}
I0715 09:19:44.867480 12918 layer_factory.hpp:77] Creating layer data
I0715 09:19:44.870529 12918 net.cpp:84] Creating Layer data
I0715 09:19:44.870548 12918 net.cpp:380] data -> data
I0715 09:19:44.870568 12918 net.cpp:380] data -> label
I0715 09:19:44.870576 12918 net.cpp:380] data -> crop_margin
I0715 09:19:44.870584 12918 net.cpp:380] data -> crop_prob
I0715 09:19:44.870590 12918 net.cpp:380] data -> crop_sample_batch
I0715 09:19:45.052997 12918 net.cpp:122] Setting up data
I0715 09:19:45.053040 12918 net.cpp:129] Top shape: 1 3 512 209 (321024)
I0715 09:19:45.053046 12918 net.cpp:129] Top shape: 1 3 512 209 (321024)
I0715 09:19:45.053051 12918 net.cpp:129] Top shape: 1 (1)
I0715 09:19:45.053056 12918 net.cpp:129] Top shape: 1 (1)
I0715 09:19:45.053061 12918 net.cpp:129] Top shape: 1 (1)
I0715 09:19:45.053076 12918 net.cpp:137] Memory required for data: 2568204
I0715 09:19:45.053084 12918 layer_factory.hpp:77] Creating layer data_data_0_split
I0715 09:19:45.053103 12918 net.cpp:84] Creating Layer data_data_0_split
I0715 09:19:45.053109 12918 net.cpp:406] data_data_0_split <- data
I0715 09:19:45.053124 12918 net.cpp:380] data_data_0_split -> data_data_0_split_0
I0715 09:19:45.053138 12918 net.cpp:380] data_data_0_split -> data_data_0_split_1
I0715 09:19:45.053146 12918 net.cpp:380] data_data_0_split -> data_data_0_split_2
I0715 09:19:45.053153 12918 net.cpp:380] data_data_0_split -> data_data_0_split_3
I0715 09:19:45.053217 12918 net.cpp:122] Setting up data_data_0_split
I0715 09:19:45.053226 12918 net.cpp:129] Top shape: 1 3 512 209 (321024)
I0715 09:19:45.053231 12918 net.cpp:129] Top shape: 1 3 512 209 (321024)
I0715 09:19:45.053236 12918 net.cpp:129] Top shape: 1 3 512 209 (321024)
I0715 09:19:45.053241 12918 net.cpp:129] Top shape: 1 3 512 209 (321024)
I0715 09:19:45.053246 12918 net.cpp:137] Memory required for data: 7704588
I0715 09:19:45.053249 12918 layer_factory.hpp:77] Creating layer label_data_1_split
I0715 09:19:45.053256 12918 net.cpp:84] Creating Layer label_data_1_split
I0715 09:19:45.053261 12918 net.cpp:406] label_data_1_split <- label
I0715 09:19:45.053267 12918 net.cpp:380] label_data_1_split -> label_data_1_split_0
I0715 09:19:45.053275 12918 net.cpp:380] label_data_1_split -> label_data_1_split_1
I0715 09:19:45.053282 12918 net.cpp:380] label_data_1_split -> label_data_1_split_2
I0715 09:19:45.053323 12918 net.cpp:122] Setting up label_data_1_split
I0715 09:19:45.053335 12918 net.cpp:129] Top shape: 1 3 512 209 (321024)
I0715 09:19:45.053340 12918 net.cpp:129] Top shape: 1 3 512 209 (321024)
I0715 09:19:45.053345 12918 net.cpp:129] Top shape: 1 3 512 209 (321024)
I0715 09:19:45.053349 12918 net.cpp:137] Memory required for data: 11556876
I0715 09:19:45.053354 12918 layer_factory.hpp:77] Creating layer conv1_1
I0715 09:19:45.053370 12918 net.cpp:84] Creating Layer conv1_1
I0715 09:19:45.053375 12918 net.cpp:406] conv1_1 <- data_data_0_split_0
I0715 09:19:45.053382 12918 net.cpp:380] conv1_1 -> conv1_1
I0715 09:19:45.410063 12918 net.cpp:122] Setting up conv1_1
I0715 09:19:45.410126 12918 net.cpp:129] Top shape: 1 64 710 407 (18494080)
I0715 09:19:45.410140 12918 net.cpp:137] Memory required for data: 85533196
I0715 09:19:45.410208 12918 layer_factory.hpp:77] Creating layer relu1_1
I0715 09:19:45.410255 12918 net.cpp:84] Creating Layer relu1_1
I0715 09:19:45.410281 12918 net.cpp:406] relu1_1 <- conv1_1
I0715 09:19:45.410291 12918 net.cpp:367] relu1_1 -> conv1_1 (in-place)
I0715 09:19:45.410475 12918 net.cpp:122] Setting up relu1_1
I0715 09:19:45.410486 12918 net.cpp:129] Top shape: 1 64 710 407 (18494080)
I0715 09:19:45.410491 12918 net.cpp:137] Memory required for data: 159509516
I0715 09:19:45.410496 12918 layer_factory.hpp:77] Creating layer conv1_2
I0715 09:19:45.410511 12918 net.cpp:84] Creating Layer conv1_2
I0715 09:19:45.410516 12918 net.cpp:406] conv1_2 <- conv1_1
I0715 09:19:45.410526 12918 net.cpp:380] conv1_2 -> conv1_2
I0715 09:19:45.414556 12918 net.cpp:122] Setting up conv1_2
I0715 09:19:45.414572 12918 net.cpp:129] Top shape: 1 64 710 407 (18494080)
I0715 09:19:45.414577 12918 net.cpp:137] Memory required for data: 233485836
I0715 09:19:45.414604 12918 layer_factory.hpp:77] Creating layer relu1_2
I0715 09:19:45.414613 12918 net.cpp:84] Creating Layer relu1_2
I0715 09:19:45.414618 12918 net.cpp:406] relu1_2 <- conv1_2
I0715 09:19:45.414626 12918 net.cpp:367] relu1_2 -> conv1_2 (in-place)
I0715 09:19:45.414799 12918 net.cpp:122] Setting up relu1_2
I0715 09:19:45.414810 12918 net.cpp:129] Top shape: 1 64 710 407 (18494080)
I0715 09:19:45.414815 12918 net.cpp:137] Memory required for data: 307462156
I0715 09:19:45.414821 12918 layer_factory.hpp:77] Creating layer pool1
I0715 09:19:45.414831 12918 net.cpp:84] Creating Layer pool1
I0715 09:19:45.414836 12918 net.cpp:406] pool1 <- conv1_2
I0715 09:19:45.414844 12918 net.cpp:380] pool1 -> pool1
I0715 09:19:45.414901 12918 net.cpp:122] Setting up pool1
I0715 09:19:45.414911 12918 net.cpp:129] Top shape: 1 64 355 204 (4634880)
I0715 09:19:45.414916 12918 net.cpp:137] Memory required for data: 326001676
I0715 09:19:45.414921 12918 layer_factory.hpp:77] Creating layer conv2_1
I0715 09:19:45.414932 12918 net.cpp:84] Creating Layer conv2_1
I0715 09:19:45.414938 12918 net.cpp:406] conv2_1 <- pool1
I0715 09:19:45.414947 12918 net.cpp:380] conv2_1 -> conv2_1
I0715 09:19:45.416435 12918 net.cpp:122] Setting up conv2_1
I0715 09:19:45.416450 12918 net.cpp:129] Top shape: 1 128 355 204 (9269760)
I0715 09:19:45.416455 12918 net.cpp:137] Memory required for data: 363080716
I0715 09:19:45.416483 12918 layer_factory.hpp:77] Creating layer relu2_1
I0715 09:19:45.416492 12918 net.cpp:84] Creating Layer relu2_1
I0715 09:19:45.416497 12918 net.cpp:406] relu2_1 <- conv2_1
I0715 09:19:45.416504 12918 net.cpp:367] relu2_1 -> conv2_1 (in-place)
I0715 09:19:45.416674 12918 net.cpp:122] Setting up relu2_1
I0715 09:19:45.416687 12918 net.cpp:129] Top shape: 1 128 355 204 (9269760)
I0715 09:19:45.416692 12918 net.cpp:137] Memory required for data: 400159756
I0715 09:19:45.416697 12918 layer_factory.hpp:77] Creating layer conv2_2
I0715 09:19:45.416707 12918 net.cpp:84] Creating Layer conv2_2
I0715 09:19:45.416713 12918 net.cpp:406] conv2_2 <- conv2_1
I0715 09:19:45.416721 12918 net.cpp:380] conv2_2 -> conv2_2
I0715 09:19:45.418244 12918 net.cpp:122] Setting up conv2_2
I0715 09:19:45.418259 12918 net.cpp:129] Top shape: 1 128 355 204 (9269760)
I0715 09:19:45.418264 12918 net.cpp:137] Memory required for data: 437238796
I0715 09:19:45.418289 12918 layer_factory.hpp:77] Creating layer relu2_2
I0715 09:19:45.418298 12918 net.cpp:84] Creating Layer relu2_2
I0715 09:19:45.418304 12918 net.cpp:406] relu2_2 <- conv2_2
I0715 09:19:45.418311 12918 net.cpp:367] relu2_2 -> conv2_2 (in-place)
I0715 09:19:45.418483 12918 net.cpp:122] Setting up relu2_2
I0715 09:19:45.418495 12918 net.cpp:129] Top shape: 1 128 355 204 (9269760)
I0715 09:19:45.418499 12918 net.cpp:137] Memory required for data: 474317836
I0715 09:19:45.418504 12918 layer_factory.hpp:77] Creating layer pool2
I0715 09:19:45.418514 12918 net.cpp:84] Creating Layer pool2
I0715 09:19:45.418519 12918 net.cpp:406] pool2 <- conv2_2
I0715 09:19:45.418526 12918 net.cpp:380] pool2 -> pool2
I0715 09:19:45.418575 12918 net.cpp:122] Setting up pool2
I0715 09:19:45.418582 12918 net.cpp:129] Top shape: 1 128 178 102 (2323968)
I0715 09:19:45.418587 12918 net.cpp:137] Memory required for data: 483613708
I0715 09:19:45.418592 12918 layer_factory.hpp:77] Creating layer conv3_1
I0715 09:19:45.418603 12918 net.cpp:84] Creating Layer conv3_1
I0715 09:19:45.418608 12918 net.cpp:406] conv3_1 <- pool2
I0715 09:19:45.418617 12918 net.cpp:380] conv3_1 -> conv3_1
I0715 09:19:45.421494 12918 net.cpp:122] Setting up conv3_1
I0715 09:19:45.421509 12918 net.cpp:129] Top shape: 1 256 178 102 (4647936)
I0715 09:19:45.421514 12918 net.cpp:137] Memory required for data: 502205452
I0715 09:19:45.421542 12918 layer_factory.hpp:77] Creating layer relu3_1
I0715 09:19:45.421551 12918 net.cpp:84] Creating Layer relu3_1
I0715 09:19:45.421557 12918 net.cpp:406] relu3_1 <- conv3_1
I0715 09:19:45.421564 12918 net.cpp:367] relu3_1 -> conv3_1 (in-place)
I0715 09:19:45.422116 12918 net.cpp:122] Setting up relu3_1
I0715 09:19:45.422130 12918 net.cpp:129] Top shape: 1 256 178 102 (4647936)
I0715 09:19:45.422135 12918 net.cpp:137] Memory required for data: 520797196
I0715 09:19:45.422155 12918 layer_factory.hpp:77] Creating layer conv3_2
I0715 09:19:45.422168 12918 net.cpp:84] Creating Layer conv3_2
I0715 09:19:45.422173 12918 net.cpp:406] conv3_2 <- conv3_1
I0715 09:19:45.422183 12918 net.cpp:380] conv3_2 -> conv3_2
I0715 09:19:45.425060 12918 net.cpp:122] Setting up conv3_2
I0715 09:19:45.425074 12918 net.cpp:129] Top shape: 1 256 178 102 (4647936)
I0715 09:19:45.425081 12918 net.cpp:137] Memory required for data: 539388940
I0715 09:19:45.425107 12918 layer_factory.hpp:77] Creating layer relu3_2
I0715 09:19:45.425117 12918 net.cpp:84] Creating Layer relu3_2
I0715 09:19:45.425123 12918 net.cpp:406] relu3_2 <- conv3_2
I0715 09:19:45.425132 12918 net.cpp:367] relu3_2 -> conv3_2 (in-place)
I0715 09:19:45.425688 12918 net.cpp:122] Setting up relu3_2
I0715 09:19:45.425701 12918 net.cpp:129] Top shape: 1 256 178 102 (4647936)
I0715 09:19:45.425706 12918 net.cpp:137] Memory required for data: 557980684
I0715 09:19:45.425711 12918 layer_factory.hpp:77] Creating layer conv3_3
I0715 09:19:45.425738 12918 net.cpp:84] Creating Layer conv3_3
I0715 09:19:45.425745 12918 net.cpp:406] conv3_3 <- conv3_2
I0715 09:19:45.425753 12918 net.cpp:380] conv3_3 -> conv3_3
I0715 09:19:45.429119 12918 net.cpp:122] Setting up conv3_3
I0715 09:19:45.429136 12918 net.cpp:129] Top shape: 1 256 178 102 (4647936)
I0715 09:19:45.429141 12918 net.cpp:137] Memory required for data: 576572428
I0715 09:19:45.429165 12918 layer_factory.hpp:77] Creating layer relu3_3
I0715 09:19:45.429174 12918 net.cpp:84] Creating Layer relu3_3
I0715 09:19:45.429180 12918 net.cpp:406] relu3_3 <- conv3_3
I0715 09:19:45.429188 12918 net.cpp:367] relu3_3 -> conv3_3 (in-place)
I0715 09:19:45.429384 12918 net.cpp:122] Setting up relu3_3
I0715 09:19:45.429396 12918 net.cpp:129] Top shape: 1 256 178 102 (4647936)
I0715 09:19:45.429401 12918 net.cpp:137] Memory required for data: 595164172
I0715 09:19:45.429406 12918 layer_factory.hpp:77] Creating layer pool3
I0715 09:19:45.429417 12918 net.cpp:84] Creating Layer pool3
I0715 09:19:45.429422 12918 net.cpp:406] pool3 <- conv3_3
I0715 09:19:45.429432 12918 net.cpp:380] pool3 -> pool3
I0715 09:19:45.429484 12918 net.cpp:122] Setting up pool3
I0715 09:19:45.429493 12918 net.cpp:129] Top shape: 1 256 89 51 (1161984)
I0715 09:19:45.429498 12918 net.cpp:137] Memory required for data: 599812108
I0715 09:19:45.429502 12918 layer_factory.hpp:77] Creating layer pool3_pool3_0_split
I0715 09:19:45.429515 12918 net.cpp:84] Creating Layer pool3_pool3_0_split
I0715 09:19:45.429520 12918 net.cpp:406] pool3_pool3_0_split <- pool3
I0715 09:19:45.429527 12918 net.cpp:380] pool3_pool3_0_split -> pool3_pool3_0_split_0
I0715 09:19:45.429535 12918 net.cpp:380] pool3_pool3_0_split -> pool3_pool3_0_split_1
I0715 09:19:45.429579 12918 net.cpp:122] Setting up pool3_pool3_0_split
I0715 09:19:45.429587 12918 net.cpp:129] Top shape: 1 256 89 51 (1161984)
I0715 09:19:45.429594 12918 net.cpp:129] Top shape: 1 256 89 51 (1161984)
I0715 09:19:45.429599 12918 net.cpp:137] Memory required for data: 609107980
I0715 09:19:45.429602 12918 layer_factory.hpp:77] Creating layer conv4_1
I0715 09:19:45.429615 12918 net.cpp:84] Creating Layer conv4_1
I0715 09:19:45.429620 12918 net.cpp:406] conv4_1 <- pool3_pool3_0_split_0
I0715 09:19:45.429628 12918 net.cpp:380] conv4_1 -> conv4_1
I0715 09:19:45.436956 12918 net.cpp:122] Setting up conv4_1
I0715 09:19:45.436976 12918 net.cpp:129] Top shape: 1 512 89 51 (2323968)
I0715 09:19:45.436981 12918 net.cpp:137] Memory required for data: 618403852
I0715 09:19:45.437006 12918 layer_factory.hpp:77] Creating layer relu4_1
I0715 09:19:45.437016 12918 net.cpp:84] Creating Layer relu4_1
I0715 09:19:45.437022 12918 net.cpp:406] relu4_1 <- conv4_1
I0715 09:19:45.437033 12918 net.cpp:367] relu4_1 -> conv4_1 (in-place)
I0715 09:19:45.437237 12918 net.cpp:122] Setting up relu4_1
I0715 09:19:45.437249 12918 net.cpp:129] Top shape: 1 512 89 51 (2323968)
I0715 09:19:45.437254 12918 net.cpp:137] Memory required for data: 627699724
I0715 09:19:45.437259 12918 layer_factory.hpp:77] Creating layer conv4_2
I0715 09:19:45.437273 12918 net.cpp:84] Creating Layer conv4_2
I0715 09:19:45.437278 12918 net.cpp:406] conv4_2 <- conv4_1
I0715 09:19:45.437288 12918 net.cpp:380] conv4_2 -> conv4_2
I0715 09:19:45.444926 12918 net.cpp:122] Setting up conv4_2
I0715 09:19:45.444942 12918 net.cpp:129] Top shape: 1 512 89 51 (2323968)
I0715 09:19:45.444947 12918 net.cpp:137] Memory required for data: 636995596
I0715 09:19:45.444981 12918 layer_factory.hpp:77] Creating layer relu4_2
I0715 09:19:45.444990 12918 net.cpp:84] Creating Layer relu4_2
I0715 09:19:45.444996 12918 net.cpp:406] relu4_2 <- conv4_2
I0715 09:19:45.445006 12918 net.cpp:367] relu4_2 -> conv4_2 (in-place)
I0715 09:19:45.445205 12918 net.cpp:122] Setting up relu4_2
I0715 09:19:45.445217 12918 net.cpp:129] Top shape: 1 512 89 51 (2323968)
I0715 09:19:45.445222 12918 net.cpp:137] Memory required for data: 646291468
I0715 09:19:45.445227 12918 layer_factory.hpp:77] Creating layer conv4_3
I0715 09:19:45.445240 12918 net.cpp:84] Creating Layer conv4_3
I0715 09:19:45.445246 12918 net.cpp:406] conv4_3 <- conv4_2
I0715 09:19:45.445255 12918 net.cpp:380] conv4_3 -> conv4_3
I0715 09:19:45.452571 12918 net.cpp:122] Setting up conv4_3
I0715 09:19:45.452589 12918 net.cpp:129] Top shape: 1 512 89 51 (2323968)
I0715 09:19:45.452594 12918 net.cpp:137] Memory required for data: 655587340
I0715 09:19:45.452603 12918 layer_factory.hpp:77] Creating layer relu4_3
I0715 09:19:45.452627 12918 net.cpp:84] Creating Layer relu4_3
I0715 09:19:45.452632 12918 net.cpp:406] relu4_3 <- conv4_3
I0715 09:19:45.452641 12918 net.cpp:367] relu4_3 -> conv4_3 (in-place)
I0715 09:19:45.452829 12918 net.cpp:122] Setting up relu4_3
I0715 09:19:45.452841 12918 net.cpp:129] Top shape: 1 512 89 51 (2323968)
I0715 09:19:45.452845 12918 net.cpp:137] Memory required for data: 664883212
I0715 09:19:45.452850 12918 layer_factory.hpp:77] Creating layer pool4
I0715 09:19:45.452863 12918 net.cpp:84] Creating Layer pool4
I0715 09:19:45.452868 12918 net.cpp:406] pool4 <- conv4_3
I0715 09:19:45.452877 12918 net.cpp:380] pool4 -> pool4
I0715 09:19:45.452932 12918 net.cpp:122] Setting up pool4
I0715 09:19:45.452941 12918 net.cpp:129] Top shape: 1 512 45 26 (599040)
I0715 09:19:45.452945 12918 net.cpp:137] Memory required for data: 667279372
I0715 09:19:45.452950 12918 layer_factory.hpp:77] Creating layer pool4_pool4_0_split
I0715 09:19:45.452958 12918 net.cpp:84] Creating Layer pool4_pool4_0_split
I0715 09:19:45.452962 12918 net.cpp:406] pool4_pool4_0_split <- pool4
I0715 09:19:45.452973 12918 net.cpp:380] pool4_pool4_0_split -> pool4_pool4_0_split_0
I0715 09:19:45.452981 12918 net.cpp:380] pool4_pool4_0_split -> pool4_pool4_0_split_1
I0715 09:19:45.453032 12918 net.cpp:122] Setting up pool4_pool4_0_split
I0715 09:19:45.453040 12918 net.cpp:129] Top shape: 1 512 45 26 (599040)
I0715 09:19:45.453047 12918 net.cpp:129] Top shape: 1 512 45 26 (599040)
I0715 09:19:45.453050 12918 net.cpp:137] Memory required for data: 672071692
I0715 09:19:45.453055 12918 layer_factory.hpp:77] Creating layer conv5_1
I0715 09:19:45.453068 12918 net.cpp:84] Creating Layer conv5_1
I0715 09:19:45.453074 12918 net.cpp:406] conv5_1 <- pool4_pool4_0_split_0
I0715 09:19:45.453083 12918 net.cpp:380] conv5_1 -> conv5_1
I0715 09:19:45.460487 12918 net.cpp:122] Setting up conv5_1
I0715 09:19:45.460505 12918 net.cpp:129] Top shape: 1 512 45 26 (599040)
I0715 09:19:45.460510 12918 net.cpp:137] Memory required for data: 674467852
I0715 09:19:45.460536 12918 layer_factory.hpp:77] Creating layer relu5_1
I0715 09:19:45.460544 12918 net.cpp:84] Creating Layer relu5_1
I0715 09:19:45.460549 12918 net.cpp:406] relu5_1 <- conv5_1
I0715 09:19:45.460557 12918 net.cpp:367] relu5_1 -> conv5_1 (in-place)
I0715 09:19:45.461174 12918 net.cpp:122] Setting up relu5_1
I0715 09:19:45.461186 12918 net.cpp:129] Top shape: 1 512 45 26 (599040)
I0715 09:19:45.461191 12918 net.cpp:137] Memory required for data: 676864012
I0715 09:19:45.461196 12918 layer_factory.hpp:77] Creating layer conv5_2
I0715 09:19:45.461226 12918 net.cpp:84] Creating Layer conv5_2
I0715 09:19:45.461232 12918 net.cpp:406] conv5_2 <- conv5_1
I0715 09:19:45.461241 12918 net.cpp:380] conv5_2 -> conv5_2
I0715 09:19:45.468128 12918 net.cpp:122] Setting up conv5_2
I0715 09:19:45.468147 12918 net.cpp:129] Top shape: 1 512 45 26 (599040)
I0715 09:19:45.468152 12918 net.cpp:137] Memory required for data: 679260172
I0715 09:19:45.468176 12918 layer_factory.hpp:77] Creating layer relu5_2
I0715 09:19:45.468192 12918 net.cpp:84] Creating Layer relu5_2
I0715 09:19:45.468199 12918 net.cpp:406] relu5_2 <- conv5_2
I0715 09:19:45.468206 12918 net.cpp:367] relu5_2 -> conv5_2 (in-place)
I0715 09:19:45.468832 12918 net.cpp:122] Setting up relu5_2
I0715 09:19:45.468847 12918 net.cpp:129] Top shape: 1 512 45 26 (599040)
I0715 09:19:45.468852 12918 net.cpp:137] Memory required for data: 681656332
I0715 09:19:45.468856 12918 layer_factory.hpp:77] Creating layer conv5_3
I0715 09:19:45.468886 12918 net.cpp:84] Creating Layer conv5_3
I0715 09:19:45.468892 12918 net.cpp:406] conv5_3 <- conv5_2
I0715 09:19:45.468901 12918 net.cpp:380] conv5_3 -> conv5_3
I0715 09:19:45.476204 12918 net.cpp:122] Setting up conv5_3
I0715 09:19:45.476222 12918 net.cpp:129] Top shape: 1 512 45 26 (599040)
I0715 09:19:45.476227 12918 net.cpp:137] Memory required for data: 684052492
I0715 09:19:45.476251 12918 layer_factory.hpp:77] Creating layer relu5_3
I0715 09:19:45.476260 12918 net.cpp:84] Creating Layer relu5_3
I0715 09:19:45.476269 12918 net.cpp:406] relu5_3 <- conv5_3
I0715 09:19:45.476277 12918 net.cpp:367] relu5_3 -> conv5_3 (in-place)
I0715 09:19:45.476475 12918 net.cpp:122] Setting up relu5_3
I0715 09:19:45.476488 12918 net.cpp:129] Top shape: 1 512 45 26 (599040)
I0715 09:19:45.476493 12918 net.cpp:137] Memory required for data: 686448652
I0715 09:19:45.476498 12918 layer_factory.hpp:77] Creating layer pool5
I0715 09:19:45.476508 12918 net.cpp:84] Creating Layer pool5
I0715 09:19:45.476514 12918 net.cpp:406] pool5 <- conv5_3
I0715 09:19:45.476526 12918 net.cpp:380] pool5 -> pool5
I0715 09:19:45.476580 12918 net.cpp:122] Setting up pool5
I0715 09:19:45.476589 12918 net.cpp:129] Top shape: 1 512 23 13 (153088)
I0715 09:19:45.476593 12918 net.cpp:137] Memory required for data: 687061004
I0715 09:19:45.476598 12918 layer_factory.hpp:77] Creating layer fc6
I0715 09:19:45.476611 12918 net.cpp:84] Creating Layer fc6
I0715 09:19:45.476617 12918 net.cpp:406] fc6 <- pool5
I0715 09:19:45.476625 12918 net.cpp:380] fc6 -> fc6
I0715 09:19:45.757645 12918 net.cpp:122] Setting up fc6
I0715 09:19:45.757678 12918 net.cpp:129] Top shape: 1 4096 17 7 (487424)
I0715 09:19:45.757683 12918 net.cpp:137] Memory required for data: 689010700
I0715 09:19:45.757697 12918 layer_factory.hpp:77] Creating layer relu6
I0715 09:19:45.757712 12918 net.cpp:84] Creating Layer relu6
I0715 09:19:45.757719 12918 net.cpp:406] relu6 <- fc6
I0715 09:19:45.757727 12918 net.cpp:367] relu6 -> fc6 (in-place)
I0715 09:19:45.757941 12918 net.cpp:122] Setting up relu6
I0715 09:19:45.757952 12918 net.cpp:129] Top shape: 1 4096 17 7 (487424)
I0715 09:19:45.757956 12918 net.cpp:137] Memory required for data: 690960396
I0715 09:19:45.757962 12918 layer_factory.hpp:77] Creating layer drop6
I0715 09:19:45.757980 12918 net.cpp:84] Creating Layer drop6
I0715 09:19:45.757993 12918 net.cpp:406] drop6 <- fc6
I0715 09:19:45.758000 12918 net.cpp:367] drop6 -> fc6 (in-place)
I0715 09:19:45.758045 12918 net.cpp:122] Setting up drop6
I0715 09:19:45.758055 12918 net.cpp:129] Top shape: 1 4096 17 7 (487424)
I0715 09:19:45.758060 12918 net.cpp:137] Memory required for data: 692910092
I0715 09:19:45.758065 12918 layer_factory.hpp:77] Creating layer fc7
I0715 09:19:45.758080 12918 net.cpp:84] Creating Layer fc7
I0715 09:19:45.758085 12918 net.cpp:406] fc7 <- fc6
I0715 09:19:45.758097 12918 net.cpp:380] fc7 -> fc7
I0715 09:19:45.805577 12918 net.cpp:122] Setting up fc7
I0715 09:19:45.805610 12918 net.cpp:129] Top shape: 1 4096 17 7 (487424)
I0715 09:19:45.805615 12918 net.cpp:137] Memory required for data: 694859788
I0715 09:19:45.805629 12918 layer_factory.hpp:77] Creating layer relu7
I0715 09:19:45.805660 12918 net.cpp:84] Creating Layer relu7
I0715 09:19:45.805666 12918 net.cpp:406] relu7 <- fc7
I0715 09:19:45.805680 12918 net.cpp:367] relu7 -> fc7 (in-place)
I0715 09:19:45.805898 12918 net.cpp:122] Setting up relu7
I0715 09:19:45.805910 12918 net.cpp:129] Top shape: 1 4096 17 7 (487424)
I0715 09:19:45.805915 12918 net.cpp:137] Memory required for data: 696809484
I0715 09:19:45.805920 12918 layer_factory.hpp:77] Creating layer drop7
I0715 09:19:45.805930 12918 net.cpp:84] Creating Layer drop7
I0715 09:19:45.805935 12918 net.cpp:406] drop7 <- fc7
I0715 09:19:45.805943 12918 net.cpp:367] drop7 -> fc7 (in-place)
I0715 09:19:45.805990 12918 net.cpp:122] Setting up drop7
I0715 09:19:45.806001 12918 net.cpp:129] Top shape: 1 4096 17 7 (487424)
I0715 09:19:45.806005 12918 net.cpp:137] Memory required for data: 698759180
I0715 09:19:45.806010 12918 layer_factory.hpp:77] Creating layer score_fr-new
I0715 09:19:45.806025 12918 net.cpp:84] Creating Layer score_fr-new
I0715 09:19:45.806030 12918 net.cpp:406] score_fr-new <- fc7
I0715 09:19:45.806042 12918 net.cpp:380] score_fr-new -> score_fr-new
I0715 09:19:45.808321 12918 net.cpp:122] Setting up score_fr-new
I0715 09:19:45.808336 12918 net.cpp:129] Top shape: 1 3 17 7 (357)
I0715 09:19:45.808341 12918 net.cpp:137] Memory required for data: 698760608
I0715 09:19:45.808367 12918 layer_factory.hpp:77] Creating layer upscore2-new
I0715 09:19:45.808387 12918 net.cpp:84] Creating Layer upscore2-new
I0715 09:19:45.808401 12918 net.cpp:406] upscore2-new <- score_fr-new
I0715 09:19:45.808410 12918 net.cpp:380] upscore2-new -> upscore2-new
I0715 09:19:45.808643 12918 net.cpp:122] Setting up upscore2-new
I0715 09:19:45.808655 12918 net.cpp:129] Top shape: 1 3 36 16 (1728)
I0715 09:19:45.808658 12918 net.cpp:137] Memory required for data: 698767520
I0715 09:19:45.808679 12918 layer_factory.hpp:77] Creating layer upscore2-new_upscore2-new_0_split
I0715 09:19:45.808696 12918 net.cpp:84] Creating Layer upscore2-new_upscore2-new_0_split
I0715 09:19:45.808701 12918 net.cpp:406] upscore2-new_upscore2-new_0_split <- upscore2-new
I0715 09:19:45.808708 12918 net.cpp:380] upscore2-new_upscore2-new_0_split -> upscore2-new_upscore2-new_0_split_0
I0715 09:19:45.808717 12918 net.cpp:380] upscore2-new_upscore2-new_0_split -> upscore2-new_upscore2-new_0_split_1
I0715 09:19:45.808768 12918 net.cpp:122] Setting up upscore2-new_upscore2-new_0_split
I0715 09:19:45.808776 12918 net.cpp:129] Top shape: 1 3 36 16 (1728)
I0715 09:19:45.808784 12918 net.cpp:129] Top shape: 1 3 36 16 (1728)
I0715 09:19:45.808789 12918 net.cpp:137] Memory required for data: 698781344
I0715 09:19:45.808794 12918 layer_factory.hpp:77] Creating layer score_pool4-new
I0715 09:19:45.808805 12918 net.cpp:84] Creating Layer score_pool4-new
I0715 09:19:45.808811 12918 net.cpp:406] score_pool4-new <- pool4_pool4_0_split_1
I0715 09:19:45.808820 12918 net.cpp:380] score_pool4-new -> score_pool4-new
I0715 09:19:45.810106 12918 net.cpp:122] Setting up score_pool4-new
I0715 09:19:45.810119 12918 net.cpp:129] Top shape: 1 3 45 26 (3510)
I0715 09:19:45.810124 12918 net.cpp:137] Memory required for data: 698795384
I0715 09:19:45.810149 12918 layer_factory.hpp:77] Creating layer score_pool4c
I0715 09:19:45.810161 12918 net.cpp:84] Creating Layer score_pool4c
I0715 09:19:45.810168 12918 net.cpp:406] score_pool4c <- score_pool4-new
I0715 09:19:45.810174 12918 net.cpp:406] score_pool4c <- upscore2-new_upscore2-new_0_split_0
I0715 09:19:45.810183 12918 net.cpp:380] score_pool4c -> score_pool4c
I0715 09:19:45.810225 12918 net.cpp:122] Setting up score_pool4c
I0715 09:19:45.810235 12918 net.cpp:129] Top shape: 1 3 36 16 (1728)
I0715 09:19:45.810240 12918 net.cpp:137] Memory required for data: 698802296
I0715 09:19:45.810245 12918 layer_factory.hpp:77] Creating layer fuse_pool4
I0715 09:19:45.810256 12918 net.cpp:84] Creating Layer fuse_pool4
I0715 09:19:45.810261 12918 net.cpp:406] fuse_pool4 <- upscore2-new_upscore2-new_0_split_1
I0715 09:19:45.810282 12918 net.cpp:406] fuse_pool4 <- score_pool4c
I0715 09:19:45.810289 12918 net.cpp:380] fuse_pool4 -> fuse_pool4
I0715 09:19:45.810328 12918 net.cpp:122] Setting up fuse_pool4
I0715 09:19:45.810336 12918 net.cpp:129] Top shape: 1 3 36 16 (1728)
I0715 09:19:45.810341 12918 net.cpp:137] Memory required for data: 698809208
I0715 09:19:45.810346 12918 layer_factory.hpp:77] Creating layer upscore_pool4-new
I0715 09:19:45.810355 12918 net.cpp:84] Creating Layer upscore_pool4-new
I0715 09:19:45.810361 12918 net.cpp:406] upscore_pool4-new <- fuse_pool4
I0715 09:19:45.810369 12918 net.cpp:380] upscore_pool4-new -> upscore_pool4-new
I0715 09:19:45.810583 12918 net.cpp:122] Setting up upscore_pool4-new
I0715 09:19:45.810593 12918 net.cpp:129] Top shape: 1 3 74 34 (7548)
I0715 09:19:45.810598 12918 net.cpp:137] Memory required for data: 698839400
I0715 09:19:45.810606 12918 layer_factory.hpp:77] Creating layer upscore_pool4-new_upscore_pool4-new_0_split
I0715 09:19:45.810613 12918 net.cpp:84] Creating Layer upscore_pool4-new_upscore_pool4-new_0_split
I0715 09:19:45.810618 12918 net.cpp:406] upscore_pool4-new_upscore_pool4-new_0_split <- upscore_pool4-new
I0715 09:19:45.810628 12918 net.cpp:380] upscore_pool4-new_upscore_pool4-new_0_split -> upscore_pool4-new_upscore_pool4-new_0_split_0
I0715 09:19:45.810637 12918 net.cpp:380] upscore_pool4-new_upscore_pool4-new_0_split -> upscore_pool4-new_upscore_pool4-new_0_split_1
I0715 09:19:45.810685 12918 net.cpp:122] Setting up upscore_pool4-new_upscore_pool4-new_0_split
I0715 09:19:45.810694 12918 net.cpp:129] Top shape: 1 3 74 34 (7548)
I0715 09:19:45.810700 12918 net.cpp:129] Top shape: 1 3 74 34 (7548)
I0715 09:19:45.810705 12918 net.cpp:137] Memory required for data: 698899784
I0715 09:19:45.810710 12918 layer_factory.hpp:77] Creating layer score_pool3-new
I0715 09:19:45.810722 12918 net.cpp:84] Creating Layer score_pool3-new
I0715 09:19:45.810729 12918 net.cpp:406] score_pool3-new <- pool3_pool3_0_split_1
I0715 09:19:45.810736 12918 net.cpp:380] score_pool3-new -> score_pool3-new
I0715 09:19:45.812039 12918 net.cpp:122] Setting up score_pool3-new
I0715 09:19:45.812053 12918 net.cpp:129] Top shape: 1 3 89 51 (13617)
I0715 09:19:45.812058 12918 net.cpp:137] Memory required for data: 698954252
I0715 09:19:45.812083 12918 layer_factory.hpp:77] Creating layer score_pool3c
I0715 09:19:45.812095 12918 net.cpp:84] Creating Layer score_pool3c
I0715 09:19:45.812101 12918 net.cpp:406] score_pool3c <- score_pool3-new
I0715 09:19:45.812108 12918 net.cpp:406] score_pool3c <- upscore_pool4-new_upscore_pool4-new_0_split_0
I0715 09:19:45.812119 12918 net.cpp:380] score_pool3c -> score_pool3c
I0715 09:19:45.812155 12918 net.cpp:122] Setting up score_pool3c
I0715 09:19:45.812163 12918 net.cpp:129] Top shape: 1 3 74 34 (7548)
I0715 09:19:45.812167 12918 net.cpp:137] Memory required for data: 698984444
I0715 09:19:45.812172 12918 layer_factory.hpp:77] Creating layer fuse_pool3
I0715 09:19:45.812183 12918 net.cpp:84] Creating Layer fuse_pool3
I0715 09:19:45.812188 12918 net.cpp:406] fuse_pool3 <- upscore_pool4-new_upscore_pool4-new_0_split_1
I0715 09:19:45.812194 12918 net.cpp:406] fuse_pool3 <- score_pool3c
I0715 09:19:45.812216 12918 net.cpp:380] fuse_pool3 -> fuse_pool3
I0715 09:19:45.812250 12918 net.cpp:122] Setting up fuse_pool3
I0715 09:19:45.812258 12918 net.cpp:129] Top shape: 1 3 74 34 (7548)
I0715 09:19:45.812263 12918 net.cpp:137] Memory required for data: 699014636
I0715 09:19:45.812268 12918 layer_factory.hpp:77] Creating layer upscore8-new
I0715 09:19:45.812279 12918 net.cpp:84] Creating Layer upscore8-new
I0715 09:19:45.812284 12918 net.cpp:406] upscore8-new <- fuse_pool3
I0715 09:19:45.812292 12918 net.cpp:380] upscore8-new -> upscore8-new
I0715 09:19:45.812502 12918 net.cpp:122] Setting up upscore8-new
I0715 09:19:45.812512 12918 net.cpp:129] Top shape: 1 3 600 280 (504000)
I0715 09:19:45.812517 12918 net.cpp:137] Memory required for data: 701030636
I0715 09:19:45.812525 12918 layer_factory.hpp:77] Creating layer upscore8_cropped
I0715 09:19:45.812533 12918 net.cpp:84] Creating Layer upscore8_cropped
I0715 09:19:45.812538 12918 net.cpp:406] upscore8_cropped <- upscore8-new
I0715 09:19:45.812546 12918 net.cpp:406] upscore8_cropped <- data_data_0_split_1
I0715 09:19:45.812553 12918 net.cpp:380] upscore8_cropped -> upscore8_cropped
I0715 09:19:45.812587 12918 net.cpp:122] Setting up upscore8_cropped
I0715 09:19:45.812595 12918 net.cpp:129] Top shape: 1 3 512 209 (321024)
I0715 09:19:45.812600 12918 net.cpp:137] Memory required for data: 702314732
I0715 09:19:45.812604 12918 layer_factory.hpp:77] Creating layer upscore8_cropped_upscore8_cropped_0_split
I0715 09:19:45.812613 12918 net.cpp:84] Creating Layer upscore8_cropped_upscore8_cropped_0_split
I0715 09:19:45.812618 12918 net.cpp:406] upscore8_cropped_upscore8_cropped_0_split <- upscore8_cropped
I0715 09:19:45.812624 12918 net.cpp:380] upscore8_cropped_upscore8_cropped_0_split -> upscore8_cropped_upscore8_cropped_0_split_0
I0715 09:19:45.812633 12918 net.cpp:380] upscore8_cropped_upscore8_cropped_0_split -> upscore8_cropped_upscore8_cropped_0_split_1
I0715 09:19:45.812678 12918 net.cpp:122] Setting up upscore8_cropped_upscore8_cropped_0_split
I0715 09:19:45.812690 12918 net.cpp:129] Top shape: 1 3 512 209 (321024)
I0715 09:19:45.812696 12918 net.cpp:129] Top shape: 1 3 512 209 (321024)
I0715 09:19:45.812701 12918 net.cpp:137] Memory required for data: 704882924
I0715 09:19:45.812706 12918 layer_factory.hpp:77] Creating layer prob
I0715 09:19:45.812714 12918 net.cpp:84] Creating Layer prob
I0715 09:19:45.812719 12918 net.cpp:406] prob <- upscore8_cropped_upscore8_cropped_0_split_0
I0715 09:19:45.812726 12918 net.cpp:380] prob -> prob
I0715 09:19:45.812939 12918 net.cpp:122] Setting up prob
I0715 09:19:45.812953 12918 net.cpp:129] Top shape: 1 3 512 209 (321024)
I0715 09:19:45.812958 12918 net.cpp:137] Memory required for data: 706167020
I0715 09:19:45.812963 12918 layer_factory.hpp:77] Creating layer saliency1
I0715 09:19:45.812979 12918 net.cpp:84] Creating Layer saliency1
I0715 09:19:45.812988 12918 net.cpp:406] saliency1 <- prob
I0715 09:19:45.812997 12918 net.cpp:380] saliency1 -> saliency1
I0715 09:19:45.815135 12918 net.cpp:122] Setting up saliency1
I0715 09:19:45.815150 12918 net.cpp:129] Top shape: 1 3 512 209 (321024)
I0715 09:19:45.815155 12918 net.cpp:137] Memory required for data: 707451116
I0715 09:19:45.815179 12918 layer_factory.hpp:77] Creating layer relu_saliency1
I0715 09:19:45.815188 12918 net.cpp:84] Creating Layer relu_saliency1
I0715 09:19:45.815193 12918 net.cpp:406] relu_saliency1 <- saliency1
I0715 09:19:45.815204 12918 net.cpp:367] relu_saliency1 -> saliency1 (in-place)
I0715 09:19:45.815461 12918 net.cpp:122] Setting up relu_saliency1
I0715 09:19:45.815474 12918 net.cpp:129] Top shape: 1 3 512 209 (321024)
I0715 09:19:45.815480 12918 net.cpp:137] Memory required for data: 708735212
I0715 09:19:45.815485 12918 layer_factory.hpp:77] Creating layer saliency
I0715 09:19:45.815501 12918 net.cpp:84] Creating Layer saliency
I0715 09:19:45.815507 12918 net.cpp:406] saliency <- saliency1
I0715 09:19:45.815521 12918 net.cpp:380] saliency -> saliency
I0715 09:19:45.817301 12918 net.cpp:122] Setting up saliency
I0715 09:19:45.817317 12918 net.cpp:129] Top shape: 1 3 512 209 (321024)
I0715 09:19:45.817322 12918 net.cpp:137] Memory required for data: 710019308
I0715 09:19:45.817347 12918 layer_factory.hpp:77] Creating layer silence_saliency
I0715 09:19:45.817358 12918 net.cpp:84] Creating Layer silence_saliency
I0715 09:19:45.817363 12918 net.cpp:406] silence_saliency <- saliency
I0715 09:19:45.817371 12918 net.cpp:122] Setting up silence_saliency
I0715 09:19:45.817376 12918 net.cpp:137] Memory required for data: 710019308
I0715 09:19:45.817395 12918 layer_factory.hpp:77] Creating layer crop
I0715 09:19:45.818004 12918 net.cpp:84] Creating Layer crop
I0715 09:19:45.818015 12918 net.cpp:406] crop <- label_data_1_split_0
I0715 09:19:45.818022 12918 net.cpp:406] crop <- data_data_0_split_2
I0715 09:19:45.818029 12918 net.cpp:406] crop <- crop_margin
I0715 09:19:45.818035 12918 net.cpp:406] crop <- crop_prob
I0715 09:19:45.818040 12918 net.cpp:406] crop <- crop_sample_batch
I0715 09:19:45.818048 12918 net.cpp:380] crop -> data-R
I0715 09:19:45.818058 12918 net.cpp:380] crop -> crop_info
I0715 09:19:45.823840 12918 net.cpp:122] Setting up crop
I0715 09:19:45.823856 12918 net.cpp:129] Top shape: 1 3 512 209 (321024)
I0715 09:19:45.823863 12918 net.cpp:129] Top shape: 1 2 4 (8)
I0715 09:19:45.823868 12918 net.cpp:137] Memory required for data: 711303436
I0715 09:19:45.823889 12918 layer_factory.hpp:77] Creating layer data-R_crop_0_split
I0715 09:19:45.823896 12918 net.cpp:84] Creating Layer data-R_crop_0_split
I0715 09:19:45.823902 12918 net.cpp:406] data-R_crop_0_split <- data-R
I0715 09:19:45.823911 12918 net.cpp:380] data-R_crop_0_split -> data-R_crop_0_split_0
I0715 09:19:45.823921 12918 net.cpp:380] data-R_crop_0_split -> data-R_crop_0_split_1
I0715 09:19:45.823971 12918 net.cpp:122] Setting up data-R_crop_0_split
I0715 09:19:45.823979 12918 net.cpp:129] Top shape: 1 3 512 209 (321024)
I0715 09:19:45.823987 12918 net.cpp:129] Top shape: 1 3 512 209 (321024)
I0715 09:19:45.823990 12918 net.cpp:137] Memory required for data: 713871628
I0715 09:19:45.823995 12918 layer_factory.hpp:77] Creating layer conv1_1-R
I0715 09:19:45.824021 12918 net.cpp:84] Creating Layer conv1_1-R
I0715 09:19:45.824028 12918 net.cpp:406] conv1_1-R <- data-R_crop_0_split_0
I0715 09:19:45.824036 12918 net.cpp:380] conv1_1-R -> conv1_1-R
I0715 09:19:45.827322 12918 net.cpp:122] Setting up conv1_1-R
I0715 09:19:45.827338 12918 net.cpp:129] Top shape: 1 64 710 407 (18494080)
I0715 09:19:45.827344 12918 net.cpp:137] Memory required for data: 787847948
I0715 09:19:45.827356 12918 layer_factory.hpp:77] Creating layer relu1_1-R
I0715 09:19:45.827376 12918 net.cpp:84] Creating Layer relu1_1-R
I0715 09:19:45.827383 12918 net.cpp:406] relu1_1-R <- conv1_1-R
I0715 09:19:45.827405 12918 net.cpp:367] relu1_1-R -> conv1_1-R (in-place)
I0715 09:19:45.827630 12918 net.cpp:122] Setting up relu1_1-R
I0715 09:19:45.827642 12918 net.cpp:129] Top shape: 1 64 710 407 (18494080)
I0715 09:19:45.827647 12918 net.cpp:137] Memory required for data: 861824268
I0715 09:19:45.827654 12918 layer_factory.hpp:77] Creating layer conv1_2-R
I0715 09:19:45.827666 12918 net.cpp:84] Creating Layer conv1_2-R
I0715 09:19:45.827672 12918 net.cpp:406] conv1_2-R <- conv1_1-R
I0715 09:19:45.827680 12918 net.cpp:380] conv1_2-R -> conv1_2-R
I0715 09:19:45.830719 12918 net.cpp:122] Setting up conv1_2-R
I0715 09:19:45.830734 12918 net.cpp:129] Top shape: 1 64 710 407 (18494080)
I0715 09:19:45.830739 12918 net.cpp:137] Memory required for data: 935800588
I0715 09:19:45.830765 12918 layer_factory.hpp:77] Creating layer relu1_2-R
I0715 09:19:45.830773 12918 net.cpp:84] Creating Layer relu1_2-R
I0715 09:19:45.830780 12918 net.cpp:406] relu1_2-R <- conv1_2-R
I0715 09:19:45.830790 12918 net.cpp:367] relu1_2-R -> conv1_2-R (in-place)
I0715 09:19:45.831496 12918 net.cpp:122] Setting up relu1_2-R
I0715 09:19:45.831509 12918 net.cpp:129] Top shape: 1 64 710 407 (18494080)
I0715 09:19:45.831514 12918 net.cpp:137] Memory required for data: 1009776908
I0715 09:19:45.831519 12918 layer_factory.hpp:77] Creating layer pool1-R
I0715 09:19:45.831544 12918 net.cpp:84] Creating Layer pool1-R
I0715 09:19:45.831550 12918 net.cpp:406] pool1-R <- conv1_2-R
I0715 09:19:45.831559 12918 net.cpp:380] pool1-R -> pool1-R
I0715 09:19:45.831634 12918 net.cpp:122] Setting up pool1-R
I0715 09:19:45.831643 12918 net.cpp:129] Top shape: 1 64 355 204 (4634880)
I0715 09:19:45.831648 12918 net.cpp:137] Memory required for data: 1028316428
I0715 09:19:45.831653 12918 layer_factory.hpp:77] Creating layer conv2_1-R
I0715 09:19:45.831665 12918 net.cpp:84] Creating Layer conv2_1-R
I0715 09:19:45.831670 12918 net.cpp:406] conv2_1-R <- pool1-R
I0715 09:19:45.831678 12918 net.cpp:380] conv2_1-R -> conv2_1-R
I0715 09:19:45.832988 12918 net.cpp:122] Setting up conv2_1-R
I0715 09:19:45.833001 12918 net.cpp:129] Top shape: 1 128 355 204 (9269760)
I0715 09:19:45.833007 12918 net.cpp:137] Memory required for data: 1065395468
I0715 09:19:45.833032 12918 layer_factory.hpp:77] Creating layer relu2_1-R
I0715 09:19:45.833041 12918 net.cpp:84] Creating Layer relu2_1-R
I0715 09:19:45.833047 12918 net.cpp:406] relu2_1-R <- conv2_1-R
I0715 09:19:45.833055 12918 net.cpp:367] relu2_1-R -> conv2_1-R (in-place)
I0715 09:19:45.833696 12918 net.cpp:122] Setting up relu2_1-R
I0715 09:19:45.833709 12918 net.cpp:129] Top shape: 1 128 355 204 (9269760)
I0715 09:19:45.833714 12918 net.cpp:137] Memory required for data: 1102474508
I0715 09:19:45.833735 12918 layer_factory.hpp:77] Creating layer conv2_2-R
I0715 09:19:45.833746 12918 net.cpp:84] Creating Layer conv2_2-R
I0715 09:19:45.833752 12918 net.cpp:406] conv2_2-R <- conv2_1-R
I0715 09:19:45.833761 12918 net.cpp:380] conv2_2-R -> conv2_2-R
I0715 09:19:45.835604 12918 net.cpp:122] Setting up conv2_2-R
I0715 09:19:45.835619 12918 net.cpp:129] Top shape: 1 128 355 204 (9269760)
I0715 09:19:45.835624 12918 net.cpp:137] Memory required for data: 1139553548
I0715 09:19:45.835649 12918 layer_factory.hpp:77] Creating layer relu2_2-R
I0715 09:19:45.835661 12918 net.cpp:84] Creating Layer relu2_2-R
I0715 09:19:45.835666 12918 net.cpp:406] relu2_2-R <- conv2_2-R
I0715 09:19:45.835675 12918 net.cpp:367] relu2_2-R -> conv2_2-R (in-place)
I0715 09:19:45.835901 12918 net.cpp:122] Setting up relu2_2-R
I0715 09:19:45.835913 12918 net.cpp:129] Top shape: 1 128 355 204 (9269760)
I0715 09:19:45.835918 12918 net.cpp:137] Memory required for data: 1176632588
I0715 09:19:45.835923 12918 layer_factory.hpp:77] Creating layer pool2-R
I0715 09:19:45.835932 12918 net.cpp:84] Creating Layer pool2-R
I0715 09:19:45.835938 12918 net.cpp:406] pool2-R <- conv2_2-R
I0715 09:19:45.835950 12918 net.cpp:380] pool2-R -> pool2-R
I0715 09:19:45.836011 12918 net.cpp:122] Setting up pool2-R
I0715 09:19:45.836020 12918 net.cpp:129] Top shape: 1 128 178 102 (2323968)
I0715 09:19:45.836025 12918 net.cpp:137] Memory required for data: 1185928460
I0715 09:19:45.836030 12918 layer_factory.hpp:77] Creating layer conv3_1-R
I0715 09:19:45.836045 12918 net.cpp:84] Creating Layer conv3_1-R
I0715 09:19:45.836050 12918 net.cpp:406] conv3_1-R <- pool2-R
I0715 09:19:45.836062 12918 net.cpp:380] conv3_1-R -> conv3_1-R
I0715 09:19:45.839323 12918 net.cpp:122] Setting up conv3_1-R
I0715 09:19:45.839337 12918 net.cpp:129] Top shape: 1 256 178 102 (4647936)
I0715 09:19:45.839344 12918 net.cpp:137] Memory required for data: 1204520204
I0715 09:19:45.839354 12918 layer_factory.hpp:77] Creating layer relu3_1-R
I0715 09:19:45.839365 12918 net.cpp:84] Creating Layer relu3_1-R
I0715 09:19:45.839370 12918 net.cpp:406] relu3_1-R <- conv3_1-R
I0715 09:19:45.839377 12918 net.cpp:367] relu3_1-R -> conv3_1-R (in-place)
I0715 09:19:45.839589 12918 net.cpp:122] Setting up relu3_1-R
I0715 09:19:45.839601 12918 net.cpp:129] Top shape: 1 256 178 102 (4647936)
I0715 09:19:45.839607 12918 net.cpp:137] Memory required for data: 1223111948
I0715 09:19:45.839612 12918 layer_factory.hpp:77] Creating layer conv3_2-R
I0715 09:19:45.839625 12918 net.cpp:84] Creating Layer conv3_2-R
I0715 09:19:45.839632 12918 net.cpp:406] conv3_2-R <- conv3_1-R
I0715 09:19:45.839643 12918 net.cpp:380] conv3_2-R -> conv3_2-R
I0715 09:19:45.843221 12918 net.cpp:122] Setting up conv3_2-R
I0715 09:19:45.843236 12918 net.cpp:129] Top shape: 1 256 178 102 (4647936)
I0715 09:19:45.843241 12918 net.cpp:137] Memory required for data: 1241703692
I0715 09:19:45.843253 12918 layer_factory.hpp:77] Creating layer relu3_2-R
I0715 09:19:45.843262 12918 net.cpp:84] Creating Layer relu3_2-R
I0715 09:19:45.843314 12918 net.cpp:406] relu3_2-R <- conv3_2-R
I0715 09:19:45.843322 12918 net.cpp:367] relu3_2-R -> conv3_2-R (in-place)
I0715 09:19:45.843551 12918 net.cpp:122] Setting up relu3_2-R
I0715 09:19:45.843564 12918 net.cpp:129] Top shape: 1 256 178 102 (4647936)
I0715 09:19:45.843570 12918 net.cpp:137] Memory required for data: 1260295436
I0715 09:19:45.843576 12918 layer_factory.hpp:77] Creating layer conv3_3-R
I0715 09:19:45.843588 12918 net.cpp:84] Creating Layer conv3_3-R
I0715 09:19:45.843593 12918 net.cpp:406] conv3_3-R <- conv3_2-R
I0715 09:19:45.843605 12918 net.cpp:380] conv3_3-R -> conv3_3-R
I0715 09:19:45.847168 12918 net.cpp:122] Setting up conv3_3-R
I0715 09:19:45.847183 12918 net.cpp:129] Top shape: 1 256 178 102 (4647936)
I0715 09:19:45.847188 12918 net.cpp:137] Memory required for data: 1278887180
I0715 09:19:45.847198 12918 layer_factory.hpp:77] Creating layer relu3_3-R
I0715 09:19:45.847210 12918 net.cpp:84] Creating Layer relu3_3-R
I0715 09:19:45.847215 12918 net.cpp:406] relu3_3-R <- conv3_3-R
I0715 09:19:45.847223 12918 net.cpp:367] relu3_3-R -> conv3_3-R (in-place)
I0715 09:19:45.847476 12918 net.cpp:122] Setting up relu3_3-R
I0715 09:19:45.847491 12918 net.cpp:129] Top shape: 1 256 178 102 (4647936)
I0715 09:19:45.847496 12918 net.cpp:137] Memory required for data: 1297478924
I0715 09:19:45.847501 12918 layer_factory.hpp:77] Creating layer pool3-R
I0715 09:19:45.847513 12918 net.cpp:84] Creating Layer pool3-R
I0715 09:19:45.847519 12918 net.cpp:406] pool3-R <- conv3_3-R
I0715 09:19:45.847528 12918 net.cpp:380] pool3-R -> pool3-R
I0715 09:19:45.847590 12918 net.cpp:122] Setting up pool3-R
I0715 09:19:45.847600 12918 net.cpp:129] Top shape: 1 256 89 51 (1161984)
I0715 09:19:45.847605 12918 net.cpp:137] Memory required for data: 1302126860
I0715 09:19:45.847610 12918 layer_factory.hpp:77] Creating layer pool3-R_pool3-R_0_split
I0715 09:19:45.847618 12918 net.cpp:84] Creating Layer pool3-R_pool3-R_0_split
I0715 09:19:45.847623 12918 net.cpp:406] pool3-R_pool3-R_0_split <- pool3-R
I0715 09:19:45.847631 12918 net.cpp:380] pool3-R_pool3-R_0_split -> pool3-R_pool3-R_0_split_0
I0715 09:19:45.847640 12918 net.cpp:380] pool3-R_pool3-R_0_split -> pool3-R_pool3-R_0_split_1
I0715 09:19:45.847707 12918 net.cpp:122] Setting up pool3-R_pool3-R_0_split
I0715 09:19:45.847715 12918 net.cpp:129] Top shape: 1 256 89 51 (1161984)
I0715 09:19:45.847721 12918 net.cpp:129] Top shape: 1 256 89 51 (1161984)
I0715 09:19:45.847726 12918 net.cpp:137] Memory required for data: 1311422732
I0715 09:19:45.847731 12918 layer_factory.hpp:77] Creating layer conv4_1-R
I0715 09:19:45.847741 12918 net.cpp:84] Creating Layer conv4_1-R
I0715 09:19:45.847748 12918 net.cpp:406] conv4_1-R <- pool3-R_pool3-R_0_split_0
I0715 09:19:45.847757 12918 net.cpp:380] conv4_1-R -> conv4_1-R
I0715 09:19:45.852591 12918 net.cpp:122] Setting up conv4_1-R
I0715 09:19:45.852607 12918 net.cpp:129] Top shape: 1 512 89 51 (2323968)
I0715 09:19:45.852613 12918 net.cpp:137] Memory required for data: 1320718604
I0715 09:19:45.852623 12918 layer_factory.hpp:77] Creating layer relu4_1-R
I0715 09:19:45.852632 12918 net.cpp:84] Creating Layer relu4_1-R
I0715 09:19:45.852638 12918 net.cpp:406] relu4_1-R <- conv4_1-R
I0715 09:19:45.852644 12918 net.cpp:367] relu4_1-R -> conv4_1-R (in-place)
I0715 09:19:45.853274 12918 net.cpp:122] Setting up relu4_1-R
I0715 09:19:45.853288 12918 net.cpp:129] Top shape: 1 512 89 51 (2323968)
I0715 09:19:45.853293 12918 net.cpp:137] Memory required for data: 1330014476
I0715 09:19:45.853298 12918 layer_factory.hpp:77] Creating layer conv4_2-R
I0715 09:19:45.853310 12918 net.cpp:84] Creating Layer conv4_2-R
I0715 09:19:45.853315 12918 net.cpp:406] conv4_2-R <- conv4_1-R
I0715 09:19:45.853324 12918 net.cpp:380] conv4_2-R -> conv4_2-R
I0715 09:19:45.863986 12918 net.cpp:122] Setting up conv4_2-R
I0715 09:19:45.864022 12918 net.cpp:129] Top shape: 1 512 89 51 (2323968)
I0715 09:19:45.864028 12918 net.cpp:137] Memory required for data: 1339310348
I0715 09:19:45.864063 12918 layer_factory.hpp:77] Creating layer relu4_2-R
I0715 09:19:45.864084 12918 net.cpp:84] Creating Layer relu4_2-R
I0715 09:19:45.864102 12918 net.cpp:406] relu4_2-R <- conv4_2-R
I0715 09:19:45.864121 12918 net.cpp:367] relu4_2-R -> conv4_2-R (in-place)
I0715 09:19:45.864933 12918 net.cpp:122] Setting up relu4_2-R
I0715 09:19:45.864948 12918 net.cpp:129] Top shape: 1 512 89 51 (2323968)
I0715 09:19:45.864953 12918 net.cpp:137] Memory required for data: 1348606220
I0715 09:19:45.864974 12918 layer_factory.hpp:77] Creating layer conv4_3-R
I0715 09:19:45.864996 12918 net.cpp:84] Creating Layer conv4_3-R
I0715 09:19:45.865008 12918 net.cpp:406] conv4_3-R <- conv4_2-R
I0715 09:19:45.865025 12918 net.cpp:380] conv4_3-R -> conv4_3-R
I0715 09:19:45.872798 12918 net.cpp:122] Setting up conv4_3-R
I0715 09:19:45.872817 12918 net.cpp:129] Top shape: 1 512 89 51 (2323968)
I0715 09:19:45.872822 12918 net.cpp:137] Memory required for data: 1357902092
I0715 09:19:45.872848 12918 layer_factory.hpp:77] Creating layer relu4_3-R
I0715 09:19:45.872860 12918 net.cpp:84] Creating Layer relu4_3-R
I0715 09:19:45.872866 12918 net.cpp:406] relu4_3-R <- conv4_3-R
I0715 09:19:45.872874 12918 net.cpp:367] relu4_3-R -> conv4_3-R (in-place)
I0715 09:19:45.873097 12918 net.cpp:122] Setting up relu4_3-R
I0715 09:19:45.873111 12918 net.cpp:129] Top shape: 1 512 89 51 (2323968)
I0715 09:19:45.873116 12918 net.cpp:137] Memory required for data: 1367197964
I0715 09:19:45.873121 12918 layer_factory.hpp:77] Creating layer pool4-R
I0715 09:19:45.873132 12918 net.cpp:84] Creating Layer pool4-R
I0715 09:19:45.873137 12918 net.cpp:406] pool4-R <- conv4_3-R
I0715 09:19:45.873152 12918 net.cpp:380] pool4-R -> pool4-R
I0715 09:19:45.873217 12918 net.cpp:122] Setting up pool4-R
I0715 09:19:45.873227 12918 net.cpp:129] Top shape: 1 512 45 26 (599040)
I0715 09:19:45.873232 12918 net.cpp:137] Memory required for data: 1369594124
I0715 09:19:45.873237 12918 layer_factory.hpp:77] Creating layer pool4-R_pool4-R_0_split
I0715 09:19:45.873248 12918 net.cpp:84] Creating Layer pool4-R_pool4-R_0_split
I0715 09:19:45.873253 12918 net.cpp:406] pool4-R_pool4-R_0_split <- pool4-R
I0715 09:19:45.873262 12918 net.cpp:380] pool4-R_pool4-R_0_split -> pool4-R_pool4-R_0_split_0
I0715 09:19:45.873275 12918 net.cpp:380] pool4-R_pool4-R_0_split -> pool4-R_pool4-R_0_split_1
I0715 09:19:45.873327 12918 net.cpp:122] Setting up pool4-R_pool4-R_0_split
I0715 09:19:45.873337 12918 net.cpp:129] Top shape: 1 512 45 26 (599040)
I0715 09:19:45.873343 12918 net.cpp:129] Top shape: 1 512 45 26 (599040)
I0715 09:19:45.873348 12918 net.cpp:137] Memory required for data: 1374386444
I0715 09:19:45.873353 12918 layer_factory.hpp:77] Creating layer conv5_1-R
I0715 09:19:45.873368 12918 net.cpp:84] Creating Layer conv5_1-R
I0715 09:19:45.873373 12918 net.cpp:406] conv5_1-R <- pool4-R_pool4-R_0_split_0
I0715 09:19:45.873383 12918 net.cpp:380] conv5_1-R -> conv5_1-R
I0715 09:19:45.880883 12918 net.cpp:122] Setting up conv5_1-R
I0715 09:19:45.880903 12918 net.cpp:129] Top shape: 1 512 45 26 (599040)
I0715 09:19:45.880908 12918 net.cpp:137] Memory required for data: 1376782604
I0715 09:19:45.880975 12918 layer_factory.hpp:77] Creating layer relu5_1-R
I0715 09:19:45.880990 12918 net.cpp:84] Creating Layer relu5_1-R
I0715 09:19:45.880996 12918 net.cpp:406] relu5_1-R <- conv5_1-R
I0715 09:19:45.881006 12918 net.cpp:367] relu5_1-R -> conv5_1-R (in-place)
I0715 09:19:45.881239 12918 net.cpp:122] Setting up relu5_1-R
I0715 09:19:45.881251 12918 net.cpp:129] Top shape: 1 512 45 26 (599040)
I0715 09:19:45.881256 12918 net.cpp:137] Memory required for data: 1379178764
I0715 09:19:45.881261 12918 layer_factory.hpp:77] Creating layer conv5_2-R
I0715 09:19:45.881279 12918 net.cpp:84] Creating Layer conv5_2-R
I0715 09:19:45.881285 12918 net.cpp:406] conv5_2-R <- conv5_1-R
I0715 09:19:45.881296 12918 net.cpp:380] conv5_2-R -> conv5_2-R
I0715 09:19:45.889302 12918 net.cpp:122] Setting up conv5_2-R
I0715 09:19:45.889320 12918 net.cpp:129] Top shape: 1 512 45 26 (599040)
I0715 09:19:45.889327 12918 net.cpp:137] Memory required for data: 1381574924
I0715 09:19:45.889350 12918 layer_factory.hpp:77] Creating layer relu5_2-R
I0715 09:19:45.889360 12918 net.cpp:84] Creating Layer relu5_2-R
I0715 09:19:45.889367 12918 net.cpp:406] relu5_2-R <- conv5_2-R
I0715 09:19:45.889376 12918 net.cpp:367] relu5_2-R -> conv5_2-R (in-place)
I0715 09:19:45.889602 12918 net.cpp:122] Setting up relu5_2-R
I0715 09:19:45.889616 12918 net.cpp:129] Top shape: 1 512 45 26 (599040)
I0715 09:19:45.889621 12918 net.cpp:137] Memory required for data: 1383971084
I0715 09:19:45.889626 12918 layer_factory.hpp:77] Creating layer conv5_3-R
I0715 09:19:45.889642 12918 net.cpp:84] Creating Layer conv5_3-R
I0715 09:19:45.889647 12918 net.cpp:406] conv5_3-R <- conv5_2-R
I0715 09:19:45.889657 12918 net.cpp:380] conv5_3-R -> conv5_3-R
I0715 09:19:45.897173 12918 net.cpp:122] Setting up conv5_3-R
I0715 09:19:45.897193 12918 net.cpp:129] Top shape: 1 512 45 26 (599040)
I0715 09:19:45.897198 12918 net.cpp:137] Memory required for data: 1386367244
I0715 09:19:45.897225 12918 layer_factory.hpp:77] Creating layer relu5_3-R
I0715 09:19:45.897235 12918 net.cpp:84] Creating Layer relu5_3-R
I0715 09:19:45.897241 12918 net.cpp:406] relu5_3-R <- conv5_3-R
I0715 09:19:45.897250 12918 net.cpp:367] relu5_3-R -> conv5_3-R (in-place)
I0715 09:19:45.897478 12918 net.cpp:122] Setting up relu5_3-R
I0715 09:19:45.897491 12918 net.cpp:129] Top shape: 1 512 45 26 (599040)
I0715 09:19:45.897496 12918 net.cpp:137] Memory required for data: 1388763404
I0715 09:19:45.897502 12918 layer_factory.hpp:77] Creating layer pool5-R
I0715 09:19:45.897516 12918 net.cpp:84] Creating Layer pool5-R
I0715 09:19:45.897521 12918 net.cpp:406] pool5-R <- conv5_3-R
I0715 09:19:45.897536 12918 net.cpp:380] pool5-R -> pool5-R
I0715 09:19:45.897598 12918 net.cpp:122] Setting up pool5-R
I0715 09:19:45.897608 12918 net.cpp:129] Top shape: 1 512 23 13 (153088)
I0715 09:19:45.897614 12918 net.cpp:137] Memory required for data: 1389375756
I0715 09:19:45.897619 12918 layer_factory.hpp:77] Creating layer fc6-R
I0715 09:19:45.897634 12918 net.cpp:84] Creating Layer fc6-R
I0715 09:19:45.897639 12918 net.cpp:406] fc6-R <- pool5-R
I0715 09:19:45.897652 12918 net.cpp:380] fc6-R -> fc6-R
I0715 09:19:46.236222 12918 net.cpp:122] Setting up fc6-R
I0715 09:19:46.236258 12918 net.cpp:129] Top shape: 1 4096 17 7 (487424)
I0715 09:19:46.236264 12918 net.cpp:137] Memory required for data: 1391325452
I0715 09:19:46.236276 12918 layer_factory.hpp:77] Creating layer relu6-R
I0715 09:19:46.236301 12918 net.cpp:84] Creating Layer relu6-R
I0715 09:19:46.236308 12918 net.cpp:406] relu6-R <- fc6-R
I0715 09:19:46.236317 12918 net.cpp:367] relu6-R -> fc6-R (in-place)
I0715 09:19:46.237166 12918 net.cpp:122] Setting up relu6-R
I0715 09:19:46.237184 12918 net.cpp:129] Top shape: 1 4096 17 7 (487424)
I0715 09:19:46.237188 12918 net.cpp:137] Memory required for data: 1393275148
I0715 09:19:46.237195 12918 layer_factory.hpp:77] Creating layer drop6-R
I0715 09:19:46.237218 12918 net.cpp:84] Creating Layer drop6-R
I0715 09:19:46.237222 12918 net.cpp:406] drop6-R <- fc6-R
I0715 09:19:46.237232 12918 net.cpp:367] drop6-R -> fc6-R (in-place)
I0715 09:19:46.237323 12918 net.cpp:122] Setting up drop6-R
I0715 09:19:46.237332 12918 net.cpp:129] Top shape: 1 4096 17 7 (487424)
I0715 09:19:46.237336 12918 net.cpp:137] Memory required for data: 1395224844
I0715 09:19:46.237340 12918 layer_factory.hpp:77] Creating layer fc7-R
I0715 09:19:46.237354 12918 net.cpp:84] Creating Layer fc7-R
I0715 09:19:46.237359 12918 net.cpp:406] fc7-R <- fc6-R
I0715 09:19:46.237367 12918 net.cpp:380] fc7-R -> fc7-R
I0715 09:19:46.293956 12918 net.cpp:122] Setting up fc7-R
I0715 09:19:46.293988 12918 net.cpp:129] Top shape: 1 4096 17 7 (487424)
I0715 09:19:46.293997 12918 net.cpp:137] Memory required for data: 1397174540
I0715 09:19:46.294008 12918 layer_factory.hpp:77] Creating layer relu7-R
I0715 09:19:46.294031 12918 net.cpp:84] Creating Layer relu7-R
I0715 09:19:46.294039 12918 net.cpp:406] relu7-R <- fc7-R
I0715 09:19:46.294047 12918 net.cpp:367] relu7-R -> fc7-R (in-place)
I0715 09:19:46.294895 12918 net.cpp:122] Setting up relu7-R
I0715 09:19:46.294911 12918 net.cpp:129] Top shape: 1 4096 17 7 (487424)
I0715 09:19:46.294915 12918 net.cpp:137] Memory required for data: 1399124236
I0715 09:19:46.294920 12918 layer_factory.hpp:77] Creating layer drop7-R
I0715 09:19:46.294948 12918 net.cpp:84] Creating Layer drop7-R
I0715 09:19:46.294953 12918 net.cpp:406] drop7-R <- fc7-R
I0715 09:19:46.294960 12918 net.cpp:367] drop7-R -> fc7-R (in-place)
I0715 09:19:46.295002 12918 net.cpp:122] Setting up drop7-R
I0715 09:19:46.295013 12918 net.cpp:129] Top shape: 1 4096 17 7 (487424)
I0715 09:19:46.295017 12918 net.cpp:137] Memory required for data: 1401073932
I0715 09:19:46.295023 12918 layer_factory.hpp:77] Creating layer score_fr-new-R
I0715 09:19:46.295038 12918 net.cpp:84] Creating Layer score_fr-new-R
I0715 09:19:46.295042 12918 net.cpp:406] score_fr-new-R <- fc7-R
I0715 09:19:46.295053 12918 net.cpp:380] score_fr-new-R -> score_fr-new-R
I0715 09:19:46.296888 12918 net.cpp:122] Setting up score_fr-new-R
I0715 09:19:46.296905 12918 net.cpp:129] Top shape: 1 3 17 7 (357)
I0715 09:19:46.296911 12918 net.cpp:137] Memory required for data: 1401075360
I0715 09:19:46.296918 12918 layer_factory.hpp:77] Creating layer upscore2-new-R
I0715 09:19:46.296942 12918 net.cpp:84] Creating Layer upscore2-new-R
I0715 09:19:46.296948 12918 net.cpp:406] upscore2-new-R <- score_fr-new-R
I0715 09:19:46.296957 12918 net.cpp:380] upscore2-new-R -> upscore2-new-R
I0715 09:19:46.297243 12918 net.cpp:122] Setting up upscore2-new-R
I0715 09:19:46.297253 12918 net.cpp:129] Top shape: 1 3 36 16 (1728)
I0715 09:19:46.297257 12918 net.cpp:137] Memory required for data: 1401082272
I0715 09:19:46.297262 12918 layer_factory.hpp:77] Creating layer upscore2-new-R_upscore2-new-R_0_split
I0715 09:19:46.297269 12918 net.cpp:84] Creating Layer upscore2-new-R_upscore2-new-R_0_split
I0715 09:19:46.297274 12918 net.cpp:406] upscore2-new-R_upscore2-new-R_0_split <- upscore2-new-R
I0715 09:19:46.297282 12918 net.cpp:380] upscore2-new-R_upscore2-new-R_0_split -> upscore2-new-R_upscore2-new-R_0_split_0
I0715 09:19:46.297291 12918 net.cpp:380] upscore2-new-R_upscore2-new-R_0_split -> upscore2-new-R_upscore2-new-R_0_split_1
I0715 09:19:46.297338 12918 net.cpp:122] Setting up upscore2-new-R_upscore2-new-R_0_split
I0715 09:19:46.297345 12918 net.cpp:129] Top shape: 1 3 36 16 (1728)
I0715 09:19:46.297350 12918 net.cpp:129] Top shape: 1 3 36 16 (1728)
I0715 09:19:46.297354 12918 net.cpp:137] Memory required for data: 1401096096
I0715 09:19:46.297358 12918 layer_factory.hpp:77] Creating layer score_pool4-new-R
I0715 09:19:46.297371 12918 net.cpp:84] Creating Layer score_pool4-new-R
I0715 09:19:46.297379 12918 net.cpp:406] score_pool4-new-R <- pool4-R_pool4-R_0_split_1
I0715 09:19:46.297387 12918 net.cpp:380] score_pool4-new-R -> score_pool4-new-R
I0715 09:19:46.299077 12918 net.cpp:122] Setting up score_pool4-new-R
I0715 09:19:46.299094 12918 net.cpp:129] Top shape: 1 3 45 26 (3510)
I0715 09:19:46.299098 12918 net.cpp:137] Memory required for data: 1401110136
I0715 09:19:46.299106 12918 layer_factory.hpp:77] Creating layer score_pool4c-R
I0715 09:19:46.299124 12918 net.cpp:84] Creating Layer score_pool4c-R
I0715 09:19:46.299132 12918 net.cpp:406] score_pool4c-R <- score_pool4-new-R
I0715 09:19:46.299139 12918 net.cpp:406] score_pool4c-R <- upscore2-new-R_upscore2-new-R_0_split_0
I0715 09:19:46.299145 12918 net.cpp:380] score_pool4c-R -> score_pool4c-R
I0715 09:19:46.299182 12918 net.cpp:122] Setting up score_pool4c-R
I0715 09:19:46.299191 12918 net.cpp:129] Top shape: 1 3 36 16 (1728)
I0715 09:19:46.299203 12918 net.cpp:137] Memory required for data: 1401117048
I0715 09:19:46.299207 12918 layer_factory.hpp:77] Creating layer fuse_pool4-R
I0715 09:19:46.299218 12918 net.cpp:84] Creating Layer fuse_pool4-R
I0715 09:19:46.299222 12918 net.cpp:406] fuse_pool4-R <- upscore2-new-R_upscore2-new-R_0_split_1
I0715 09:19:46.299228 12918 net.cpp:406] fuse_pool4-R <- score_pool4c-R
I0715 09:19:46.299235 12918 net.cpp:380] fuse_pool4-R -> fuse_pool4-R
I0715 09:19:46.299268 12918 net.cpp:122] Setting up fuse_pool4-R
I0715 09:19:46.299302 12918 net.cpp:129] Top shape: 1 3 36 16 (1728)
I0715 09:19:46.299307 12918 net.cpp:137] Memory required for data: 1401123960
I0715 09:19:46.299310 12918 layer_factory.hpp:77] Creating layer upscore_pool4-new-R
I0715 09:19:46.299324 12918 net.cpp:84] Creating Layer upscore_pool4-new-R
I0715 09:19:46.299329 12918 net.cpp:406] upscore_pool4-new-R <- fuse_pool4-R
I0715 09:19:46.299338 12918 net.cpp:380] upscore_pool4-new-R -> upscore_pool4-new-R
I0715 09:19:46.299633 12918 net.cpp:122] Setting up upscore_pool4-new-R
I0715 09:19:46.299643 12918 net.cpp:129] Top shape: 1 3 74 34 (7548)
I0715 09:19:46.299648 12918 net.cpp:137] Memory required for data: 1401154152
I0715 09:19:46.299652 12918 layer_factory.hpp:77] Creating layer upscore_pool4-new-R_upscore_pool4-new-R_0_split
I0715 09:19:46.299659 12918 net.cpp:84] Creating Layer upscore_pool4-new-R_upscore_pool4-new-R_0_split
I0715 09:19:46.299664 12918 net.cpp:406] upscore_pool4-new-R_upscore_pool4-new-R_0_split <- upscore_pool4-new-R
I0715 09:19:46.299669 12918 net.cpp:380] upscore_pool4-new-R_upscore_pool4-new-R_0_split -> upscore_pool4-new-R_upscore_pool4-new-R_0_split_0
I0715 09:19:46.299679 12918 net.cpp:380] upscore_pool4-new-R_upscore_pool4-new-R_0_split -> upscore_pool4-new-R_upscore_pool4-new-R_0_split_1
I0715 09:19:46.299724 12918 net.cpp:122] Setting up upscore_pool4-new-R_upscore_pool4-new-R_0_split
I0715 09:19:46.299733 12918 net.cpp:129] Top shape: 1 3 74 34 (7548)
I0715 09:19:46.299738 12918 net.cpp:129] Top shape: 1 3 74 34 (7548)
I0715 09:19:46.299741 12918 net.cpp:137] Memory required for data: 1401214536
I0715 09:19:46.299746 12918 layer_factory.hpp:77] Creating layer score_pool3-new-R
I0715 09:19:46.299757 12918 net.cpp:84] Creating Layer score_pool3-new-R
I0715 09:19:46.299764 12918 net.cpp:406] score_pool3-new-R <- pool3-R_pool3-R_0_split_1
I0715 09:19:46.299772 12918 net.cpp:380] score_pool3-new-R -> score_pool3-new-R
I0715 09:19:46.300896 12918 net.cpp:122] Setting up score_pool3-new-R
I0715 09:19:46.300910 12918 net.cpp:129] Top shape: 1 3 89 51 (13617)
I0715 09:19:46.300915 12918 net.cpp:137] Memory required for data: 1401269004
I0715 09:19:46.300922 12918 layer_factory.hpp:77] Creating layer score_pool3c-R
I0715 09:19:46.300936 12918 net.cpp:84] Creating Layer score_pool3c-R
I0715 09:19:46.300941 12918 net.cpp:406] score_pool3c-R <- score_pool3-new-R
I0715 09:19:46.300947 12918 net.cpp:406] score_pool3c-R <- upscore_pool4-new-R_upscore_pool4-new-R_0_split_0
I0715 09:19:46.300966 12918 net.cpp:380] score_pool3c-R -> score_pool3c-R
I0715 09:19:46.301005 12918 net.cpp:122] Setting up score_pool3c-R
I0715 09:19:46.301014 12918 net.cpp:129] Top shape: 1 3 74 34 (7548)
I0715 09:19:46.301017 12918 net.cpp:137] Memory required for data: 1401299196
I0715 09:19:46.301024 12918 layer_factory.hpp:77] Creating layer fuse_pool3-R
I0715 09:19:46.301033 12918 net.cpp:84] Creating Layer fuse_pool3-R
I0715 09:19:46.301036 12918 net.cpp:406] fuse_pool3-R <- upscore_pool4-new-R_upscore_pool4-new-R_0_split_1
I0715 09:19:46.301041 12918 net.cpp:406] fuse_pool3-R <- score_pool3c-R
I0715 09:19:46.301050 12918 net.cpp:380] fuse_pool3-R -> fuse_pool3-R
I0715 09:19:46.301084 12918 net.cpp:122] Setting up fuse_pool3-R
I0715 09:19:46.301091 12918 net.cpp:129] Top shape: 1 3 74 34 (7548)
I0715 09:19:46.301095 12918 net.cpp:137] Memory required for data: 1401329388
I0715 09:19:46.301098 12918 layer_factory.hpp:77] Creating layer upscore8-new-R
I0715 09:19:46.301106 12918 net.cpp:84] Creating Layer upscore8-new-R
I0715 09:19:46.301110 12918 net.cpp:406] upscore8-new-R <- fuse_pool3-R
I0715 09:19:46.301120 12918 net.cpp:380] upscore8-new-R -> upscore8-new-R
I0715 09:19:46.301417 12918 net.cpp:122] Setting up upscore8-new-R
I0715 09:19:46.301427 12918 net.cpp:129] Top shape: 1 3 600 280 (504000)
I0715 09:19:46.301430 12918 net.cpp:137] Memory required for data: 1403345388
I0715 09:19:46.301436 12918 layer_factory.hpp:77] Creating layer upscore8_cropped-R
I0715 09:19:46.301442 12918 net.cpp:84] Creating Layer upscore8_cropped-R
I0715 09:19:46.301447 12918 net.cpp:406] upscore8_cropped-R <- upscore8-new-R
I0715 09:19:46.301455 12918 net.cpp:406] upscore8_cropped-R <- data-R_crop_0_split_1
I0715 09:19:46.301461 12918 net.cpp:380] upscore8_cropped-R -> upscore8_cropped-R
I0715 09:19:46.301491 12918 net.cpp:122] Setting up upscore8_cropped-R
I0715 09:19:46.301499 12918 net.cpp:129] Top shape: 1 3 512 209 (321024)
I0715 09:19:46.301503 12918 net.cpp:137] Memory required for data: 1404629484
I0715 09:19:46.301507 12918 layer_factory.hpp:77] Creating layer upscore8_uncropped-R
I0715 09:19:46.302031 12918 net.cpp:84] Creating Layer upscore8_uncropped-R
I0715 09:19:46.302044 12918 net.cpp:406] upscore8_uncropped-R <- crop_info
I0715 09:19:46.302052 12918 net.cpp:406] upscore8_uncropped-R <- upscore8_cropped-R
I0715 09:19:46.302057 12918 net.cpp:406] upscore8_uncropped-R <- data_data_0_split_3
I0715 09:19:46.302064 12918 net.cpp:380] upscore8_uncropped-R -> upscore8_uncropped-R
I0715 09:19:46.304062 12918 net.cpp:122] Setting up upscore8_uncropped-R
I0715 09:19:46.304080 12918 net.cpp:129] Top shape: 1 3 512 209 (321024)
I0715 09:19:46.304085 12918 net.cpp:137] Memory required for data: 1405913580
I0715 09:19:46.304090 12918 layer_factory.hpp:77] Creating layer loss1
I0715 09:19:46.304105 12918 net.cpp:84] Creating Layer loss1
I0715 09:19:46.304111 12918 net.cpp:406] loss1 <- upscore8_cropped_upscore8_cropped_0_split_1
I0715 09:19:46.304117 12918 net.cpp:406] loss1 <- label_data_1_split_1
I0715 09:19:46.304126 12918 net.cpp:380] loss1 -> loss1
…
snapshot_prefix: "/media/Med_2T2/data2/models/snapshots/indiv:1e-5x10,20/FD1:XI3_1_20180715_091943/train"
test_initialization: false
average_loss: 20
stepvalue: 40000
iter_size: 1
I0715 10:14:46.377373 12918 solver.cpp:77] Creating training net from train_net file: /media/Med_2T2/data2/prototxts/training_I3x10.prototxt
I0715 10:14:46.380071 12918 net.cpp:51] Initializing net from parameters: 
state {
  phase: TRAIN
}
layer {
  name: "data"
  type: "Python"
  top: "data"
  top: "label"
  top: "crop_margin"
  top: "crop_prob"
  top: "crop_sample_batch"
  python_param {
    module: "Data"
    layer: "DataLayer"
  }
}
layer {
  name: "conv1_1"
  type: "Convolution"
  bottom: "data"
  top: "conv1_1"
  param {
    lr_mult: 1
    decay_mult: 1
  }
  param {
    lr_mult: 2
    decay_mult: 0
  }
  convolution_param {
    num_output: 64
    pad: 100
    kernel_size: 3
    stride: 1
  }
}
layer {
  name: "relu1_1"
  type: "ReLU"
  bottom: "conv1_1"
  top: "conv1_1"
}
layer {
  name: "conv1_2"
  type: "Convolution"
  bottom: "conv1_1"
  top: "conv1_2"
  param {
    lr_mult: 1
    decay_mult: 1
  }
  param {
    lr_mult: 2
    decay_mult: 0
  }
  convolution_param {
    num_output: 64
    pad: 1
    kernel_size: 3
    stride: 1
  }
}
layer {
  name: "relu1_2"
  type: "ReLU"
  bottom: "conv1_2"
  top: "conv1_2"
}
layer {
  name: "pool1"
  type: "Pooling"
  bottom: "conv1_2"
  top: "pool1"
  pooling_param {
    pool: MAX
    kernel_size: 2
    stride: 2
  }
}
layer {
  name: "conv2_1"
  type: "Convolution"
  bottom: "pool1"
  top: "conv2_1"
  param {
    lr_mult: 1
    decay_mult: 1
  }
  param {
    lr_mult: 2
    decay_mult: 0
  }
  convolution_param {
    num_output: 128
    pad: 1
    kernel_size: 3
    stride: 1
  }
}
layer {
  name: "relu2_1"
  type: "ReLU"
  bottom: "conv2_1"
  top: "conv2_1"
}
layer {
  name: "conv2_2"
  type: "Convolution"
  bottom: "conv2_1"
  top: "conv2_2"
  param {
    lr_mult: 1
    decay_mult: 1
  }
  param {
    lr_mult: 2
    decay_mult: 0
  }
  convolution_param {
    num_output: 128
    pad: 1
    kernel_size: 3
    stride: 1
  }
}
layer {
  name: "relu2_2"
  type: "ReLU"
  bottom: "conv2_2"
  top: "conv2_2"
}
layer {
  name: "pool2"
  type: "Pooling"
  bottom: "conv2_2"
  top: "pool2"
  pooling_param {
    pool: MAX
    kernel_size: 2
    stride: 2
  }
}
layer {
  name: "conv3_1"
  type: "Convolution"
  bottom: "pool2"
  top: "conv3_1"
  param {
    lr_mult: 1
    decay_mult: 1
  }
  param {
    lr_mult: 2
    decay_mult: 0
  }
  convolution_param {
    num_output: 256
    pad: 1
    kernel_size: 3
    stride: 1
  }
}
layer {
  name: "relu3_1"
  type: "ReLU"
  bottom: "conv3_1"
  top: "conv3_1"
}
layer {
  name: "conv3_2"
  type: "Convolution"
  bottom: "conv3_1"
  top: "conv3_2"
  param {
    lr_mult: 1
    decay_mult: 1
  }
  param {
    lr_mult: 2
    decay_mult: 0
  }
  convolution_param {
    num_output: 256
    pad: 1
    kernel_size: 3
    stride: 1
  }
}
layer {
  name: "relu3_2"
  type: "ReLU"
  bottom: "conv3_2"
  top: "conv3_2"
}
layer {
  name: "conv3_3"
  type: "Convolution"
  bottom: "conv3_2"
  top: "conv3_3"
  param {
    lr_mult: 1
    decay_mult: 1
  }
  param {
    lr_mult: 2
    decay_mult: 0
  }
  convolution_param {
    num_output: 256
    pad: 1
    kernel_size: 3
    stride: 1
  }
}
layer {
  name: "relu3_3"
  type: "ReLU"
  bottom: "conv3_3"
  top: "conv3_3"
}
layer {
  name: "pool3"
  type: "Pooling"
  bottom: "conv3_3"
  top: "pool3"
  pooling_param {
    pool: MAX
    kernel_size: 2
    stride: 2
  }
}
layer {
  name: "conv4_1"
  type: "Convolution"
  bottom: "pool3"
  top: "conv4_1"
  param {
    lr_mult: 1
    decay_mult: 1
  }
  param {
    lr_mult: 2
    decay_mult: 0
  }
  convolution_param {
    num_output: 512
    pad: 1
    kernel_size: 3
    stride: 1
  }
}
layer {
  name: "relu4_1"
  type: "ReLU"
  bottom: "conv4_1"
  top: "conv4_1"
}
layer {
  name: "conv4_2"
  type: "Convolution"
  bottom: "conv4_1"
  top: "conv4_2"
  param {
    lr_mult: 1
    decay_mult: 1
  }
  param {
    lr_mult: 2
    decay_mult: 0
  }
  convolution_param {
    num_output: 512
    pad: 1
    kernel_size: 3
    stride: 1
  }
}
layer {
  name: "relu4_2"
  type: "ReLU"
  bottom: "conv4_2"
  top: "conv4_2"
}
layer {
  name: "conv4_3"
  type: "Convolution"
  bottom: "conv4_2"
  top: "conv4_3"
  param {
    lr_mult: 1
    decay_mult: 1
  }
  param {
    lr_mult: 2
    decay_mult: 0
  }
  convolution_param {
    num_output: 512
    pad: 1
    kernel_size: 3
    stride: 1
  }
}
layer {
  name: "relu4_3"
  type: "ReLU"
  bottom: "conv4_3"
  top: "conv4_3"
}
layer {
  name: "pool4"
  type: "Pooling"
  bottom: "conv4_3"
  top: "pool4"
  pooling_param {
    pool: MAX
    kernel_size: 2
    stride: 2
  }
}
layer {
  name: "conv5_1"
  type: "Convolution"
  bottom: "pool4"
  top: "conv5_1"
  param {
    lr_mult: 1
    decay_mult: 1
  }
  param {
    lr_mult: 2
    decay_mult: 0
  }
  convolution_param {
    num_output: 512
    pad: 1
    kernel_size: 3
    stride: 1
  }
}
layer {
  name: "relu5_1"
  type: "ReLU"
  bottom: "conv5_1"
  top: "conv5_1"
}
layer {
  name: "conv5_2"
  type: "Convolution"
  bottom: "conv5_1"
  top: "conv5_2"
  param {
    lr_mult: 1
    decay_mult: 1
  }
  param {
    lr_mult: 2
    decay_mult: 0
  }
  convolution_param {
    num_output: 512
    pad: 1
    kernel_size: 3
    stride: 1
  }
}
layer {
  name: "relu5_2"
  type: "ReLU"
  bottom: "conv5_2"
  top: "conv5_2"
}
layer {
  name: "conv5_3"
  type: "Convolution"
  bottom: "conv5_2"
  top: "conv5_3"
  param {
    lr_mult: 1
    decay_mult: 1
  }
  param {
    lr_mult: 2
    decay_mult: 0
  }
  convolution_param {
    num_output: 512
    pad: 1
    kernel_size: 3
    stride: 1
  }
}
layer {
  name: "relu5_3"
  type: "ReLU"
  bottom: "conv5_3"
  top: "conv5_3"
}
layer {
  name: "pool5"
  type: "Pooling"
  bottom: "conv5_3"
  top: "pool5"
  pooling_param {
    pool: MAX
    kernel_size: 2
    stride: 2
  }
}
layer {
  name: "fc6"
  type: "Convolution"
  bottom: "pool5"
  top: "fc6"
  param {
    lr_mult: 1
    decay_mult: 1
  }
  param {
    lr_mult: 2
    decay_mult: 0
  }
  convolution_param {
    num_output: 4096
    pad: 0
    kernel_size: 7
    stride: 1
  }
}
layer {
  name: "relu6"
  type: "ReLU"
  bottom: "fc6"
  top: "fc6"
}
layer {
  name: "drop6"
  type: "Dropout"
  bottom: "fc6"
  top: "fc6"
  dropout_param {
    dropout_ratio: 0.5
  }
}
layer {
  name: "fc7"
  type: "Convolution"
  bottom: "fc6"
  top: "fc7"
  param {
    lr_mult: 1
    decay_mult: 1
  }
  param {
    lr_mult: 2
    decay_mult: 0
  }
  convolution_param {
    num_output: 4096
    pad: 0
    kernel_size: 1
    stride: 1
  }
}
layer {
  name: "relu7"
  type: "ReLU"
  bottom: "fc7"
  top: "fc7"
}
layer {
  name: "drop7"
  type: "Dropout"
  bottom: "fc7"
  top: "fc7"
  dropout_param {
    dropout_ratio: 0.5
  }
}
layer {
  name: "score_fr-new"
  type: "Convolution"
  bottom: "fc7"
  top: "score_fr-new"
  param {
    lr_mult: 1
    decay_mult: 1
  }
  param {
    lr_mult: 2
    decay_mult: 0
  }
  convolution_param {
    num_output: 3
    kernel_size: 1
  }
}
layer {
  name: "upscore2-new"
  type: "Deconvolution"
  bottom: "score_fr-new"
  top: "upscore2-new"
  param {
    lr_mult: 0
  }
  convolution_param {
    num_output: 3
    bias_term: false
    kernel_size: 4
    stride: 2
  }
}
layer {
  name: "score_pool4-new"
  type: "Convolution"
  bottom: "pool4"
  top: "score_pool4-new"
  param {
    lr_mult: 1
    decay_mult: 1
  }
  param {
    lr_mult: 2
    decay_mult: 0
  }
  convolution_param {
    num_output: 3
    pad: 0
    kernel_size: 1
  }
}
layer {
  name: "score_pool4c"
  type: "Crop"
  bottom: "score_pool4-new"
  bottom: "upscore2-new"
  top: "score_pool4c"
  crop_param {
    axis: 2
    offset: 5
  }
}
layer {
  name: "fuse_pool4"
  type: "Eltwise"
  bottom: "upscore2-new"
  bottom: "score_pool4c"
  top: "fuse_pool4"
  eltwise_param {
    operation: SUM
  }
}
layer {
  name: "upscore_pool4-new"
  type: "Deconvolution"
  bottom: "fuse_pool4"
  top: "upscore_pool4-new"
  param {
    lr_mult: 0
  }
  convolution_param {
    num_output: 3
    bias_term: false
    kernel_size: 4
    stride: 2
  }
}
layer {
  name: "score_pool3-new"
  type: "Convolution"
  bottom: "pool3"
  top: "score_pool3-new"
  param {
    lr_mult: 1
    decay_mult: 1
  }
  param {
    lr_mult: 2
    decay_mult: 0
  }
  convolution_param {
    num_output: 3
    pad: 0
    kernel_size: 1
  }
}
layer {
  name: "score_pool3c"
  type: "Crop"
  bottom: "score_pool3-new"
  bottom: "upscore_pool4-new"
  top: "score_pool3c"
  crop_param {
    axis: 2
    offset: 9
  }
}
layer {
  name: "fuse_pool3"
  type: "Eltwise"
  bottom: "upscore_pool4-new"
  bottom: "score_pool3c"
  top: "fuse_pool3"
  eltwise_param {
    operation: SUM
  }
}
layer {
  name: "upscore8-new"
  type: "Deconvolution"
  bottom: "fuse_pool3"
  top: "upscore8-new"
  param {
    lr_mult: 0
  }
  convolution_param {
    num_output: 3
    bias_term: false
    kernel_size: 16
    stride: 8
  }
}
layer {
  name: "upscore8_cropped"
  type: "Crop"
  bottom: "upscore8-new"
  bottom: "data"
  top: "upscore8_cropped"
  crop_param {
    axis: 2
    offset: 31
  }
}
layer {
  name: "prob"
  type: "Sigmoid"
  bottom: "upscore8_cropped"
  top: "prob"
}
layer {
  name: "saliency1"
  type: "Convolution"
  bottom: "prob"
  top: "saliency1"
  param {
    lr_mult: 10
    decay_mult: 1
  }
  param {
    lr_mult: 20
    decay_mult: 0
  }
  convolution_param {
    num_output: 3
    pad: 1
    kernel_size: 3
    stride: 1
    weight_filler {
      type: "xavier"
    }
    bias_filler {
      type: "constant"
      value: 1
    }
  }
}
layer {
  name: "relu_saliency1"
  type: "ReLU"
  bottom: "saliency1"
  top: "saliency1"
}
layer {
  name: "saliency"
  type: "Convolution"
  bottom: "saliency1"
  top: "saliency"
  param {
    lr_mult: 10
    decay_mult: 1
  }
  param {
    lr_mult: 20
    decay_mult: 0
  }
  convolution_param {
    num_output: 3
    pad: 2
    kernel_size: 5
    stride: 1
    weight_filler {
      type: "xavier"
    }
    bias_filler {
      type: "constant"
      value: 1
    }
  }
}
layer {
  name: "saliency_data"
  type: "Eltwise"
  bottom: "data"
  bottom: "saliency"
  top: "saliency_data"
  eltwise_param {
    operation: PROD
  }
}
layer {
  name: "crop"
  type: "Python"
  bottom: "label"
  bottom: "saliency_data"
  bottom: "crop_margin"
  bottom: "crop_prob"
  bottom: "crop_sample_batch"
  top: "data-R"
  top: "crop_info"
  python_param {
    module: "Crop"
    layer: "CropLayer"
    param_str: "{\"TEST\": 0}"
  }
}
layer {
  name: "conv1_1-R"
  type: "Convolution"
  bottom: "data-R"
  top: "conv1_1-R"
  param {
    lr_mult: 10
    decay_mult: 1
  }
  param {
    lr_mult: 20
    decay_mult: 0
  }
  convolution_param {
    num_output: 64
    pad: 100
    kernel_size: 3
    stride: 1
  }
}
layer {
  name: "relu1_1-R"
  type: "ReLU"
  bottom: "conv1_1-R"
  top: "conv1_1-R"
}
layer {
  name: "conv1_2-R"
  type: "Convolution"
  bottom: "conv1_1-R"
  top: "conv1_2-R"
  param {
    lr_mult: 10
    decay_mult: 1
  }
  param {
    lr_mult: 20
    decay_mult: 0
  }
  convolution_param {
    num_output: 64
    pad: 1
    kernel_size: 3
    stride: 1
  }
}
layer {
  name: "relu1_2-R"
  type: "ReLU"
  bottom: "conv1_2-R"
  top: "conv1_2-R"
}
layer {
  name: "pool1-R"
  type: "Pooling"
  bottom: "conv1_2-R"
  top: "pool1-R"
  pooling_param {
    pool: MAX
    kernel_size: 2
    stride: 2
  }
}
layer {
  name: "conv2_1-R"
  type: "Convolution"
  bottom: "pool1-R"
  top: "conv2_1-R"
  param {
    lr_mult: 10
    decay_mult: 1
  }
  param {
    lr_mult: 20
    decay_mult: 0
  }
  convolution_param {
    num_output: 128
    pad: 1
    kernel_size: 3
    stride: 1
  }
}
layer {
  name: "relu2_1-R"
  type: "ReLU"
  bottom: "conv2_1-R"
  top: "conv2_1-R"
}
layer {
  name: "conv2_2-R"
  type: "Convolution"
  bottom: "conv2_1-R"
  top: "conv2_2-R"
  param {
    lr_mult: 10
    decay_mult: 1
  }
  param {
    lr_mult: 20
    decay_mult: 0
  }
  convolution_param {
    num_output: 128
    pad: 1
    kernel_size: 3
    stride: 1
  }
}
layer {
  name: "relu2_2-R"
  type: "ReLU"
  bottom: "conv2_2-R"
  top: "conv2_2-R"
}
layer {
  name: "pool2-R"
  type: "Pooling"
  bottom: "conv2_2-R"
  top: "pool2-R"
  pooling_param {
    pool: MAX
    kernel_size: 2
    stride: 2
  }
}
layer {
  name: "conv3_1-R"
  type: "Convolution"
  bottom: "pool2-R"
  top: "conv3_1-R"
  param {
    lr_mult: 10
    decay_mult: 1
  }
  param {
    lr_mult: 20
    decay_mult: 0
  }
  convolution_param {
    num_output: 256
    pad: 1
    kernel_size: 3
    stride: 1
  }
}
layer {
  name: "relu3_1-R"
  type: "ReLU"
  bottom: "conv3_1-R"
  top: "conv3_1-R"
}
layer {
  name: "conv3_2-R"
  type: "Convolution"
  bottom: "conv3_1-R"
  top: "conv3_2-R"
  param {
    lr_mult: 10
    decay_mult: 1
  }
  param {
    lr_mult: 20
    decay_mult: 0
  }
  convolution_param {
    num_output: 256
    pad: 1
    kernel_size: 3
    stride: 1
  }
}
layer {
  name: "relu3_2-R"
  type: "ReLU"
  bottom: "conv3_2-R"
  top: "conv3_2-R"
}
layer {
  name: "conv3_3-R"
  type: "Convolution"
  bottom: "conv3_2-R"
  top: "conv3_3-R"
  param {
    lr_mult: 10
    decay_mult: 1
  }
  param {
    lr_mult: 20
    decay_mult: 0
  }
  convolution_param {
    num_output: 256
    pad: 1
    kernel_size: 3
    stride: 1
  }
}
layer {
  name: "relu3_3-R"
  type: "ReLU"
  bottom: "conv3_3-R"
  top: "conv3_3-R"
}
layer {
  name: "pool3-R"
  type: "Pooling"
  bottom: "conv3_3-R"
  top: "pool3-R"
  pooling_param {
    pool: MAX
    kernel_size: 2
    stride: 2
  }
}
layer {
  name: "conv4_1-R"
  type: "Convolution"
  bottom: "pool3-R"
  top: "conv4_1-R"
  param {
    lr_mult: 10
    decay_mult: 1
  }
  param {
    lr_mult: 20
    decay_mult: 0
  }
  convolution_param {
    num_output: 512
    pad: 1
    kernel_size: 3
    stride: 1
  }
}
layer {
  name: "relu4_1-R"
  type: "ReLU"
  bottom: "conv4_1-R"
  top: "conv4_1-R"
}
layer {
  name: "conv4_2-R"
  type: "Convolution"
  bottom: "conv4_1-R"
  top: "conv4_2-R"
  param {
    lr_mult: 10
    decay_mult: 1
  }
  param {
    lr_mult: 20
    decay_mult: 0
  }
  convolution_param {
    num_output: 512
    pad: 1
    kernel_size: 3
    stride: 1
  }
}
layer {
  name: "relu4_2-R"
  type: "ReLU"
  bottom: "conv4_2-R"
  top: "conv4_2-R"
}
layer {
  name: "conv4_3-R"
  type: "Convolution"
  bottom: "conv4_2-R"
  top: "conv4_3-R"
  param {
    lr_mult: 10
    decay_mult: 1
  }
  param {
    lr_mult: 20
    decay_mult: 0
  }
  convolution_param {
    num_output: 512
    pad: 1
    kernel_size: 3
    stride: 1
  }
}
layer {
  name: "relu4_3-R"
  type: "ReLU"
  bottom: "conv4_3-R"
  top: "conv4_3-R"
}
layer {
  name: "pool4-R"
  type: "Pooling"
  bottom: "conv4_3-R"
  top: "pool4-R"
  pooling_param {
    pool: MAX
    kernel_size: 2
    stride: 2
  }
}
layer {
  name: "conv5_1-R"
  type: "Convolution"
  bottom: "pool4-R"
  top: "conv5_1-R"
  param {
    lr_mult: 10
    decay_mult: 1
  }
  param {
    lr_mult: 20
    decay_mult: 0
  }
  convolution_param {
    num_output: 512
    pad: 1
    kernel_size: 3
    stride: 1
  }
}
layer {
  name: "relu5_1-R"
  type: "ReLU"
  bottom: "conv5_1-R"
  top: "conv5_1-R"
}
layer {
  name: "conv5_2-R"
  type: "Convolution"
  bottom: "conv5_1-R"
  top: "conv5_2-R"
  param {
    lr_mult: 10
    decay_mult: 1
  }
  param {
    lr_mult: 20
    decay_mult: 0
  }
  convolution_param {
    num_output: 512
    pad: 1
    kernel_size: 3
    stride: 1
  }
}
layer {
  name: "relu5_2-R"
  type: "ReLU"
  bottom: "conv5_2-R"
  top: "conv5_2-R"
}
layer {
  name: "conv5_3-R"
  type: "Convolution"
  bottom: "conv5_2-R"
  top: "conv5_3-R"
  param {
    lr_mult: 10
    decay_mult: 1
  }
  param {
    lr_mult: 20
    decay_mult: 0
  }
  convolution_param {
    num_output: 512
    pad: 1
    kernel_size: 3
    stride: 1
  }
}
layer {
  name: "relu5_3-R"
  type: "ReLU"
  bottom: "conv5_3-R"
  top: "conv5_3-R"
}
layer {
  name: "pool5-R"
  type: "Pooling"
  bottom: "conv5_3-R"
  top: "pool5-R"
  pooling_param {
    pool: MAX
    kernel_size: 2
    stride: 2
  }
}
layer {
  name: "fc6-R"
  type: "Convolution"
  bottom: "pool5-R"
  top: "fc6-R"
  param {
    lr_mult: 10
    decay_mult: 1
  }
  param {
    lr_mult: 20
    decay_mult: 0
  }
  convolution_param {
    num_output: 4096
    pad: 0
    kernel_size: 7
    stride: 1
  }
}
layer {
  name: "relu6-R"
  type: "ReLU"
  bottom: "fc6-R"
  top: "fc6-R"
}
layer {
  name: "drop6-R"
  type: "Dropout"
  bottom: "fc6-R"
  top: "fc6-R"
  dropout_param {
    dropout_ratio: 0.5
  }
}
layer {
  name: "fc7-R"
  type: "Convolution"
  bottom: "fc6-R"
  top: "fc7-R"
  param {
    lr_mult: 10
    decay_mult: 1
  }
  param {
    lr_mult: 20
    decay_mult: 0
  }
  convolution_param {
    num_output: 4096
    pad: 0
    kernel_size: 1
    stride: 1
  }
}
layer {
  name: "relu7-R"
  type: "ReLU"
  bottom: "fc7-R"
  top: "fc7-R"
}
layer {
  name: "drop7-R"
  type: "Dropout"
  bottom: "fc7-R"
  top: "fc7-R"
  dropout_param {
    dropout_ratio: 0.5
  }
}
layer {
  name: "score_fr-new-R"
  type: "Convolution"
  bottom: "fc7-R"
  top: "score_fr-new-R"
  param {
    lr_mult: 10
    decay_mult: 1
  }
  param {
    lr_mult: 20
    decay_mult: 0
  }
  convolution_param {
    num_output: 3
    kernel_size: 1
  }
}
layer {
  name: "upscore2-new-R"
  type: "Deconvolution"
  bottom: "score_fr-new-R"
  top: "upscore2-new-R"
  param {
    lr_mult: 0
  }
  convolution_param {
    num_output: 3
    bias_term: false
    kernel_size: 4
    stride: 2
  }
}
layer {
  name: "score_pool4-new-R"
  type: "Convolution"
  bottom: "pool4-R"
  top: "score_pool4-new-R"
  param {
    lr_mult: 10
    decay_mult: 1
  }
  param {
    lr_mult: 20
    decay_mult: 0
  }
  convolution_param {
    num_output: 3
    pad: 0
    kernel_size: 1
  }
}
layer {
  name: "score_pool4c-R"
  type: "Crop"
  bottom: "score_pool4-new-R"
  bottom: "upscore2-new-R"
  top: "score_pool4c-R"
  crop_param {
    axis: 2
    offset: 5
  }
}
layer {
  name: "fuse_pool4-R"
  type: "Eltwise"
  bottom: "upscore2-new-R"
  bottom: "score_pool4c-R"
  top: "fuse_pool4-R"
  eltwise_param {
    operation: SUM
  }
}
layer {
  name: "upscore_pool4-new-R"
  type: "Deconvolution"
  bottom: "fuse_pool4-R"
  top: "upscore_pool4-new-R"
  param {
    lr_mult: 0
  }
  convolution_param {
    num_output: 3
    bias_term: false
    kernel_size: 4
    stride: 2
  }
}
layer {
  name: "score_pool3-new-R"
  type: "Convolution"
  bottom: "pool3-R"
  top: "score_pool3-new-R"
  param {
    lr_mult: 10
    decay_mult: 1
  }
  param {
    lr_mult: 20
    decay_mult: 0
  }
  convolution_param {
    num_output: 3
    pad: 0
    kernel_size: 1
  }
}
layer {
  name: "score_pool3c-R"
  type: "Crop"
  bottom: "score_pool3-new-R"
  bottom: "upscore_pool4-new-R"
  top: "score_pool3c-R"
  crop_param {
    axis: 2
    offset: 9
  }
}
layer {
  name: "fuse_pool3-R"
  type: "Eltwise"
  bottom: "upscore_pool4-new-R"
  bottom: "score_pool3c-R"
  top: "fuse_pool3-R"
  eltwise_param {
    operation: SUM
  }
}
layer {
  name: "upscore8-new-R"
  type: "Deconvolution"
  bottom: "fuse_pool3-R"
  top: "upscore8-new-R"
  param {
    lr_mult: 0
  }
  convolution_param {
    num_output: 3
    bias_term: false
    kernel_size: 16
    stride: 8
  }
}
layer {
  name: "upscore8_cropped-R"
  type: "Crop"
  bottom: "upscore8-new-R"
  bottom: "data-R"
  top: "upscore8_cropped-R"
  crop_param {
    axis: 2
    offset: 31
  }
}
layer {
  name: "upscore8_uncropped-R"
  type: "Python"
  bottom: "crop_info"
  bottom: "upscore8_cropped-R"
  bottom: "data"
  top: "upscore8_uncropped-R"
  python_param {
    module: "Uncrop"
    layer: "UncropLayer"
  }
}
layer {
  name: "loss1"
  type: "DiceLoss"
  bottom: "upscore8_cropped"
  bottom: "label"
  top: "loss1"
  loss_weight: 0.333333
}
layer {
  name: "loss2"
  type: "DiceLoss"
  bottom: "upscore8_uncropped-R"
  bottom: "label"
  top: "loss2"
  loss_weight: 0.666667
}
I0715 10:14:46.380626 12918 layer_factory.hpp:77] Creating layer data
I0715 10:14:46.380725 12918 net.cpp:84] Creating Layer data
I0715 10:14:46.380736 12918 net.cpp:380] data -> data
I0715 10:14:46.380753 12918 net.cpp:380] data -> label
I0715 10:14:46.380762 12918 net.cpp:380] data -> crop_margin
I0715 10:14:46.380772 12918 net.cpp:380] data -> crop_prob
I0715 10:14:46.380781 12918 net.cpp:380] data -> crop_sample_batch
I0715 10:14:46.525374 12918 net.cpp:122] Setting up data
I0715 10:14:46.525420 12918 net.cpp:129] Top shape: 1 3 512 210 (322560)
I0715 10:14:46.525425 12918 net.cpp:129] Top shape: 1 3 512 210 (322560)
I0715 10:14:46.525429 12918 net.cpp:129] Top shape: 1 (1)
I0715 10:14:46.525434 12918 net.cpp:129] Top shape: 1 (1)
I0715 10:14:46.525437 12918 net.cpp:129] Top shape: 1 (1)
I0715 10:14:46.525441 12918 net.cpp:137] Memory required for data: 2580492
I0715 10:14:46.525449 12918 layer_factory.hpp:77] Creating layer data_data_0_split
I0715 10:14:46.525461 12918 net.cpp:84] Creating Layer data_data_0_split
I0715 10:14:46.525465 12918 net.cpp:406] data_data_0_split <- data
I0715 10:14:46.525490 12918 net.cpp:380] data_data_0_split -> data_data_0_split_0
I0715 10:14:46.525501 12918 net.cpp:380] data_data_0_split -> data_data_0_split_1
I0715 10:14:46.525507 12918 net.cpp:380] data_data_0_split -> data_data_0_split_2
I0715 10:14:46.525512 12918 net.cpp:380] data_data_0_split -> data_data_0_split_3
I0715 10:14:46.525604 12918 net.cpp:122] Setting up data_data_0_split
I0715 10:14:46.525609 12918 net.cpp:129] Top shape: 1 3 512 210 (322560)
I0715 10:14:46.525614 12918 net.cpp:129] Top shape: 1 3 512 210 (322560)
I0715 10:14:46.525617 12918 net.cpp:129] Top shape: 1 3 512 210 (322560)
I0715 10:14:46.525621 12918 net.cpp:129] Top shape: 1 3 512 210 (322560)
I0715 10:14:46.525624 12918 net.cpp:137] Memory required for data: 7741452
I0715 10:14:46.525627 12918 layer_factory.hpp:77] Creating layer label_data_1_split
I0715 10:14:46.525635 12918 net.cpp:84] Creating Layer label_data_1_split
I0715 10:14:46.525637 12918 net.cpp:406] label_data_1_split <- label
I0715 10:14:46.525642 12918 net.cpp:380] label_data_1_split -> label_data_1_split_0
I0715 10:14:46.525648 12918 net.cpp:380] label_data_1_split -> label_data_1_split_1
I0715 10:14:46.525653 12918 net.cpp:380] label_data_1_split -> label_data_1_split_2
I0715 10:14:46.525717 12918 net.cpp:122] Setting up label_data_1_split
I0715 10:14:46.525722 12918 net.cpp:129] Top shape: 1 3 512 210 (322560)
I0715 10:14:46.525725 12918 net.cpp:129] Top shape: 1 3 512 210 (322560)
I0715 10:14:46.525729 12918 net.cpp:129] Top shape: 1 3 512 210 (322560)
I0715 10:14:46.525732 12918 net.cpp:137] Memory required for data: 11612172
I0715 10:14:46.525737 12918 layer_factory.hpp:77] Creating layer conv1_1
I0715 10:14:46.525746 12918 net.cpp:84] Creating Layer conv1_1
I0715 10:14:46.525750 12918 net.cpp:406] conv1_1 <- data_data_0_split_0
I0715 10:14:46.525755 12918 net.cpp:380] conv1_1 -> conv1_1
I0715 10:14:46.528892 12918 net.cpp:122] Setting up conv1_1
I0715 10:14:46.528906 12918 net.cpp:129] Top shape: 1 64 710 408 (18539520)
I0715 10:14:46.528909 12918 net.cpp:137] Memory required for data: 85770252
I0715 10:14:46.528921 12918 layer_factory.hpp:77] Creating layer relu1_1
I0715 10:14:46.528929 12918 net.cpp:84] Creating Layer relu1_1
I0715 10:14:46.528933 12918 net.cpp:406] relu1_1 <- conv1_1
I0715 10:14:46.528939 12918 net.cpp:367] relu1_1 -> conv1_1 (in-place)
I0715 10:14:46.529729 12918 net.cpp:122] Setting up relu1_1
I0715 10:14:46.529742 12918 net.cpp:129] Top shape: 1 64 710 408 (18539520)
I0715 10:14:46.529744 12918 net.cpp:137] Memory required for data: 159928332
I0715 10:14:46.529748 12918 layer_factory.hpp:77] Creating layer conv1_2
I0715 10:14:46.529757 12918 net.cpp:84] Creating Layer conv1_2
I0715 10:14:46.529760 12918 net.cpp:406] conv1_2 <- conv1_1
I0715 10:14:46.529767 12918 net.cpp:380] conv1_2 -> conv1_2
I0715 10:14:46.532614 12918 net.cpp:122] Setting up conv1_2
I0715 10:14:46.532627 12918 net.cpp:129] Top shape: 1 64 710 408 (18539520)
I0715 10:14:46.532631 12918 net.cpp:137] Memory required for data: 234086412
I0715 10:14:46.532639 12918 layer_factory.hpp:77] Creating layer relu1_2
I0715 10:14:46.532644 12918 net.cpp:84] Creating Layer relu1_2
I0715 10:14:46.532649 12918 net.cpp:406] relu1_2 <- conv1_2
I0715 10:14:46.532652 12918 net.cpp:367] relu1_2 -> conv1_2 (in-place)
I0715 10:14:46.532879 12918 net.cpp:122] Setting up relu1_2
I0715 10:14:46.532891 12918 net.cpp:129] Top shape: 1 64 710 408 (18539520)
I0715 10:14:46.532893 12918 net.cpp:137] Memory required for data: 308244492
I0715 10:14:46.532896 12918 layer_factory.hpp:77] Creating layer pool1
I0715 10:14:46.532903 12918 net.cpp:84] Creating Layer pool1
I0715 10:14:46.532907 12918 net.cpp:406] pool1 <- conv1_2
I0715 10:14:46.532912 12918 net.cpp:380] pool1 -> pool1
I0715 10:14:46.532990 12918 net.cpp:122] Setting up pool1
I0715 10:14:46.533007 12918 net.cpp:129] Top shape: 1 64 355 204 (4634880)
I0715 10:14:46.533011 12918 net.cpp:137] Memory required for data: 326784012
I0715 10:14:46.533015 12918 layer_factory.hpp:77] Creating layer conv2_1
I0715 10:14:46.533023 12918 net.cpp:84] Creating Layer conv2_1
I0715 10:14:46.533026 12918 net.cpp:406] conv2_1 <- pool1
I0715 10:14:46.533032 12918 net.cpp:380] conv2_1 -> conv2_1
I0715 10:14:46.534765 12918 net.cpp:122] Setting up conv2_1
I0715 10:14:46.534780 12918 net.cpp:129] Top shape: 1 128 355 204 (9269760)
I0715 10:14:46.534798 12918 net.cpp:137] Memory required for data: 363863052
I0715 10:14:46.534807 12918 layer_factory.hpp:77] Creating layer relu2_1
I0715 10:14:46.534813 12918 net.cpp:84] Creating Layer relu2_1
I0715 10:14:46.534817 12918 net.cpp:406] relu2_1 <- conv2_1
I0715 10:14:46.534822 12918 net.cpp:367] relu2_1 -> conv2_1 (in-place)
I0715 10:14:46.535040 12918 net.cpp:122] Setting up relu2_1
I0715 10:14:46.535050 12918 net.cpp:129] Top shape: 1 128 355 204 (9269760)
I0715 10:14:46.535054 12918 net.cpp:137] Memory required for data: 400942092
I0715 10:14:46.535058 12918 layer_factory.hpp:77] Creating layer conv2_2
I0715 10:14:46.535065 12918 net.cpp:84] Creating Layer conv2_2
I0715 10:14:46.535069 12918 net.cpp:406] conv2_2 <- conv2_1
I0715 10:14:46.535074 12918 net.cpp:380] conv2_2 -> conv2_2
I0715 10:14:46.536890 12918 net.cpp:122] Setting up conv2_2
I0715 10:14:46.536919 12918 net.cpp:129] Top shape: 1 128 355 204 (9269760)
I0715 10:14:46.536923 12918 net.cpp:137] Memory required for data: 438021132
I0715 10:14:46.536931 12918 layer_factory.hpp:77] Creating layer relu2_2
I0715 10:14:46.536936 12918 net.cpp:84] Creating Layer relu2_2
I0715 10:14:46.536940 12918 net.cpp:406] relu2_2 <- conv2_2
I0715 10:14:46.536945 12918 net.cpp:367] relu2_2 -> conv2_2 (in-place)
I0715 10:14:46.537173 12918 net.cpp:122] Setting up relu2_2
I0715 10:14:46.537184 12918 net.cpp:129] Top shape: 1 128 355 204 (9269760)
I0715 10:14:46.537186 12918 net.cpp:137] Memory required for data: 475100172
I0715 10:14:46.537190 12918 layer_factory.hpp:77] Creating layer pool2
I0715 10:14:46.537196 12918 net.cpp:84] Creating Layer pool2
I0715 10:14:46.537199 12918 net.cpp:406] pool2 <- conv2_2
I0715 10:14:46.537205 12918 net.cpp:380] pool2 -> pool2
I0715 10:14:46.537266 12918 net.cpp:122] Setting up pool2
I0715 10:14:46.537276 12918 net.cpp:129] Top shape: 1 128 178 102 (2323968)
I0715 10:14:46.537278 12918 net.cpp:137] Memory required for data: 484396044
I0715 10:14:46.537281 12918 layer_factory.hpp:77] Creating layer conv3_1
I0715 10:14:46.537289 12918 net.cpp:84] Creating Layer conv3_1
I0715 10:14:46.537293 12918 net.cpp:406] conv3_1 <- pool2
I0715 10:14:46.537298 12918 net.cpp:380] conv3_1 -> conv3_1
I0715 10:14:46.541129 12918 net.cpp:122] Setting up conv3_1
I0715 10:14:46.541159 12918 net.cpp:129] Top shape: 1 256 178 102 (4647936)
I0715 10:14:46.541163 12918 net.cpp:137] Memory required for data: 502987788
I0715 10:14:46.541173 12918 layer_factory.hpp:77] Creating layer relu3_1
I0715 10:14:46.541180 12918 net.cpp:84] Creating Layer relu3_1
I0715 10:14:46.541184 12918 net.cpp:406] relu3_1 <- conv3_1
I0715 10:14:46.541190 12918 net.cpp:367] relu3_1 -> conv3_1 (in-place)
I0715 10:14:46.541421 12918 net.cpp:122] Setting up relu3_1
I0715 10:14:46.541432 12918 net.cpp:129] Top shape: 1 256 178 102 (4647936)
I0715 10:14:46.541436 12918 net.cpp:137] Memory required for data: 521579532
I0715 10:14:46.541440 12918 layer_factory.hpp:77] Creating layer conv3_2
I0715 10:14:46.541448 12918 net.cpp:84] Creating Layer conv3_2
I0715 10:14:46.541453 12918 net.cpp:406] conv3_2 <- conv3_1
I0715 10:14:46.541460 12918 net.cpp:380] conv3_2 -> conv3_2
I0715 10:14:46.545809 12918 net.cpp:122] Setting up conv3_2
I0715 10:14:46.545840 12918 net.cpp:129] Top shape: 1 256 178 102 (4647936)
I0715 10:14:46.545843 12918 net.cpp:137] Memory required for data: 540171276
I0715 10:14:46.545851 12918 layer_factory.hpp:77] Creating layer relu3_2
I0715 10:14:46.545859 12918 net.cpp:84] Creating Layer relu3_2
I0715 10:14:46.545863 12918 net.cpp:406] relu3_2 <- conv3_2
I0715 10:14:46.545869 12918 net.cpp:367] relu3_2 -> conv3_2 (in-place)
I0715 10:14:46.546104 12918 net.cpp:122] Setting up relu3_2
I0715 10:14:46.546115 12918 net.cpp:129] Top shape: 1 256 178 102 (4647936)
I0715 10:14:46.546119 12918 net.cpp:137] Memory required for data: 558763020
I0715 10:14:46.546123 12918 layer_factory.hpp:77] Creating layer conv3_3
I0715 10:14:46.546131 12918 net.cpp:84] Creating Layer conv3_3
I0715 10:14:46.546135 12918 net.cpp:406] conv3_3 <- conv3_2
I0715 10:14:46.546141 12918 net.cpp:380] conv3_3 -> conv3_3
I0715 10:14:46.550453 12918 net.cpp:122] Setting up conv3_3
I0715 10:14:46.550483 12918 net.cpp:129] Top shape: 1 256 178 102 (4647936)
I0715 10:14:46.550487 12918 net.cpp:137] Memory required for data: 577354764
I0715 10:14:46.550495 12918 layer_factory.hpp:77] Creating layer relu3_3
I0715 10:14:46.550501 12918 net.cpp:84] Creating Layer relu3_3
I0715 10:14:46.550505 12918 net.cpp:406] relu3_3 <- conv3_3
I0715 10:14:46.550511 12918 net.cpp:367] relu3_3 -> conv3_3 (in-place)
I0715 10:14:46.551409 12918 net.cpp:122] Setting up relu3_3
I0715 10:14:46.551436 12918 net.cpp:129] Top shape: 1 256 178 102 (4647936)
I0715 10:14:46.551440 12918 net.cpp:137] Memory required for data: 595946508
I0715 10:14:46.551445 12918 layer_factory.hpp:77] Creating layer pool3
I0715 10:14:46.551452 12918 net.cpp:84] Creating Layer pool3
I0715 10:14:46.551456 12918 net.cpp:406] pool3 <- conv3_3
I0715 10:14:46.551462 12918 net.cpp:380] pool3 -> pool3
I0715 10:14:46.551548 12918 net.cpp:122] Setting up pool3
I0715 10:14:46.551554 12918 net.cpp:129] Top shape: 1 256 89 51 (1161984)
I0715 10:14:46.551558 12918 net.cpp:137] Memory required for data: 600594444
I0715 10:14:46.551561 12918 layer_factory.hpp:77] Creating layer pool3_pool3_0_split
I0715 10:14:46.551568 12918 net.cpp:84] Creating Layer pool3_pool3_0_split
I0715 10:14:46.551571 12918 net.cpp:406] pool3_pool3_0_split <- pool3
I0715 10:14:46.551576 12918 net.cpp:380] pool3_pool3_0_split -> pool3_pool3_0_split_0
I0715 10:14:46.551582 12918 net.cpp:380] pool3_pool3_0_split -> pool3_pool3_0_split_1
I0715 10:14:46.551637 12918 net.cpp:122] Setting up pool3_pool3_0_split
I0715 10:14:46.551651 12918 net.cpp:129] Top shape: 1 256 89 51 (1161984)
I0715 10:14:46.551656 12918 net.cpp:129] Top shape: 1 256 89 51 (1161984)
I0715 10:14:46.551658 12918 net.cpp:137] Memory required for data: 609890316
I0715 10:14:46.551662 12918 layer_factory.hpp:77] Creating layer conv4_1
I0715 10:14:46.551671 12918 net.cpp:84] Creating Layer conv4_1
I0715 10:14:46.551673 12918 net.cpp:406] conv4_1 <- pool3_pool3_0_split_0
I0715 10:14:46.551679 12918 net.cpp:380] conv4_1 -> conv4_1
I0715 10:14:46.557467 12918 net.cpp:122] Setting up conv4_1
I0715 10:14:46.557497 12918 net.cpp:129] Top shape: 1 512 89 51 (2323968)
I0715 10:14:46.557502 12918 net.cpp:137] Memory required for data: 619186188
I0715 10:14:46.557508 12918 layer_factory.hpp:77] Creating layer relu4_1
I0715 10:14:46.557514 12918 net.cpp:84] Creating Layer relu4_1
I0715 10:14:46.557518 12918 net.cpp:406] relu4_1 <- conv4_1
I0715 10:14:46.557524 12918 net.cpp:367] relu4_1 -> conv4_1 (in-place)
I0715 10:14:46.557767 12918 net.cpp:122] Setting up relu4_1
I0715 10:14:46.557777 12918 net.cpp:129] Top shape: 1 512 89 51 (2323968)
I0715 10:14:46.557781 12918 net.cpp:137] Memory required for data: 628482060
I0715 10:14:46.557785 12918 layer_factory.hpp:77] Creating layer conv4_2
I0715 10:14:46.557793 12918 net.cpp:84] Creating Layer conv4_2
I0715 10:14:46.557798 12918 net.cpp:406] conv4_2 <- conv4_1
I0715 10:14:46.557819 12918 net.cpp:380] conv4_2 -> conv4_2
I0715 10:14:46.566061 12918 net.cpp:122] Setting up conv4_2
I0715 10:14:46.566095 12918 net.cpp:129] Top shape: 1 512 89 51 (2323968)
I0715 10:14:46.566099 12918 net.cpp:137] Memory required for data: 637777932
I0715 10:14:46.566113 12918 layer_factory.hpp:77] Creating layer relu4_2
I0715 10:14:46.566123 12918 net.cpp:84] Creating Layer relu4_2
I0715 10:14:46.566126 12918 net.cpp:406] relu4_2 <- conv4_2
I0715 10:14:46.566133 12918 net.cpp:367] relu4_2 -> conv4_2 (in-place)
I0715 10:14:46.566401 12918 net.cpp:122] Setting up relu4_2
I0715 10:14:46.566411 12918 net.cpp:129] Top shape: 1 512 89 51 (2323968)
I0715 10:14:46.566414 12918 net.cpp:137] Memory required for data: 647073804
I0715 10:14:46.566418 12918 layer_factory.hpp:77] Creating layer conv4_3
I0715 10:14:46.566427 12918 net.cpp:84] Creating Layer conv4_3
I0715 10:14:46.566432 12918 net.cpp:406] conv4_3 <- conv4_2
I0715 10:14:46.566439 12918 net.cpp:380] conv4_3 -> conv4_3
I0715 10:14:46.574841 12918 net.cpp:122] Setting up conv4_3
I0715 10:14:46.574877 12918 net.cpp:129] Top shape: 1 512 89 51 (2323968)
I0715 10:14:46.574882 12918 net.cpp:137] Memory required for data: 656369676
I0715 10:14:46.574890 12918 layer_factory.hpp:77] Creating layer relu4_3
I0715 10:14:46.574899 12918 net.cpp:84] Creating Layer relu4_3
I0715 10:14:46.574903 12918 net.cpp:406] relu4_3 <- conv4_3
I0715 10:14:46.574909 12918 net.cpp:367] relu4_3 -> conv4_3 (in-place)
I0715 10:14:46.575163 12918 net.cpp:122] Setting up relu4_3
I0715 10:14:46.575173 12918 net.cpp:129] Top shape: 1 512 89 51 (2323968)
I0715 10:14:46.575177 12918 net.cpp:137] Memory required for data: 665665548
I0715 10:14:46.575181 12918 layer_factory.hpp:77] Creating layer pool4
I0715 10:14:46.575189 12918 net.cpp:84] Creating Layer pool4
I0715 10:14:46.575193 12918 net.cpp:406] pool4 <- conv4_3
I0715 10:14:46.575199 12918 net.cpp:380] pool4 -> pool4
I0715 10:14:46.575268 12918 net.cpp:122] Setting up pool4
I0715 10:14:46.575309 12918 net.cpp:129] Top shape: 1 512 45 26 (599040)
I0715 10:14:46.575312 12918 net.cpp:137] Memory required for data: 668061708
I0715 10:14:46.575316 12918 layer_factory.hpp:77] Creating layer pool4_pool4_0_split
I0715 10:14:46.575323 12918 net.cpp:84] Creating Layer pool4_pool4_0_split
I0715 10:14:46.575328 12918 net.cpp:406] pool4_pool4_0_split <- pool4
I0715 10:14:46.575335 12918 net.cpp:380] pool4_pool4_0_split -> pool4_pool4_0_split_0
I0715 10:14:46.575341 12918 net.cpp:380] pool4_pool4_0_split -> pool4_pool4_0_split_1
I0715 10:14:46.575400 12918 net.cpp:122] Setting up pool4_pool4_0_split
I0715 10:14:46.575409 12918 net.cpp:129] Top shape: 1 512 45 26 (599040)
I0715 10:14:46.575414 12918 net.cpp:129] Top shape: 1 512 45 26 (599040)
I0715 10:14:46.575417 12918 net.cpp:137] Memory required for data: 672854028
I0715 10:14:46.575420 12918 layer_factory.hpp:77] Creating layer conv5_1
I0715 10:14:46.575430 12918 net.cpp:84] Creating Layer conv5_1
I0715 10:14:46.575434 12918 net.cpp:406] conv5_1 <- pool4_pool4_0_split_0
I0715 10:14:46.575441 12918 net.cpp:380] conv5_1 -> conv5_1
I0715 10:14:46.583808 12918 net.cpp:122] Setting up conv5_1
I0715 10:14:46.583842 12918 net.cpp:129] Top shape: 1 512 45 26 (599040)
I0715 10:14:46.583845 12918 net.cpp:137] Memory required for data: 675250188
I0715 10:14:46.583853 12918 layer_factory.hpp:77] Creating layer relu5_1
I0715 10:14:46.583863 12918 net.cpp:84] Creating Layer relu5_1
I0715 10:14:46.583868 12918 net.cpp:406] relu5_1 <- conv5_1
I0715 10:14:46.583873 12918 net.cpp:367] relu5_1 -> conv5_1 (in-place)
I0715 10:14:46.584106 12918 net.cpp:122] Setting up relu5_1
I0715 10:14:46.584117 12918 net.cpp:129] Top shape: 1 512 45 26 (599040)
I0715 10:14:46.584121 12918 net.cpp:137] Memory required for data: 677646348
I0715 10:14:46.584125 12918 layer_factory.hpp:77] Creating layer conv5_2
I0715 10:14:46.584134 12918 net.cpp:84] Creating Layer conv5_2
I0715 10:14:46.584138 12918 net.cpp:406] conv5_2 <- conv5_1
I0715 10:14:46.584144 12918 net.cpp:380] conv5_2 -> conv5_2
I0715 10:14:46.592494 12918 net.cpp:122] Setting up conv5_2
I0715 10:14:46.592530 12918 net.cpp:129] Top shape: 1 512 45 26 (599040)
I0715 10:14:46.592535 12918 net.cpp:137] Memory required for data: 680042508
I0715 10:14:46.592543 12918 layer_factory.hpp:77] Creating layer relu5_2
I0715 10:14:46.592558 12918 net.cpp:84] Creating Layer relu5_2
I0715 10:14:46.592562 12918 net.cpp:406] relu5_2 <- conv5_2
I0715 10:14:46.592569 12918 net.cpp:367] relu5_2 -> conv5_2 (in-place)
I0715 10:14:46.592803 12918 net.cpp:122] Setting up relu5_2
I0715 10:14:46.592813 12918 net.cpp:129] Top shape: 1 512 45 26 (599040)
I0715 10:14:46.592818 12918 net.cpp:137] Memory required for data: 682438668
I0715 10:14:46.592821 12918 layer_factory.hpp:77] Creating layer conv5_3
I0715 10:14:46.592830 12918 net.cpp:84] Creating Layer conv5_3
I0715 10:14:46.592834 12918 net.cpp:406] conv5_3 <- conv5_2
I0715 10:14:46.592842 12918 net.cpp:380] conv5_3 -> conv5_3
I0715 10:14:46.601284 12918 net.cpp:122] Setting up conv5_3
I0715 10:14:46.601317 12918 net.cpp:129] Top shape: 1 512 45 26 (599040)
I0715 10:14:46.601321 12918 net.cpp:137] Memory required for data: 684834828
I0715 10:14:46.601330 12918 layer_factory.hpp:77] Creating layer relu5_3
I0715 10:14:46.601338 12918 net.cpp:84] Creating Layer relu5_3
I0715 10:14:46.601342 12918 net.cpp:406] relu5_3 <- conv5_3
I0715 10:14:46.601348 12918 net.cpp:367] relu5_3 -> conv5_3 (in-place)
I0715 10:14:46.602916 12918 net.cpp:122] Setting up relu5_3
I0715 10:14:46.602943 12918 net.cpp:129] Top shape: 1 512 45 26 (599040)
I0715 10:14:46.602947 12918 net.cpp:137] Memory required for data: 687230988
I0715 10:14:46.602952 12918 layer_factory.hpp:77] Creating layer pool5
I0715 10:14:46.602960 12918 net.cpp:84] Creating Layer pool5
I0715 10:14:46.602963 12918 net.cpp:406] pool5 <- conv5_3
I0715 10:14:46.602969 12918 net.cpp:380] pool5 -> pool5
I0715 10:14:46.603055 12918 net.cpp:122] Setting up pool5
I0715 10:14:46.603070 12918 net.cpp:129] Top shape: 1 512 23 13 (153088)
I0715 10:14:46.603073 12918 net.cpp:137] Memory required for data: 687843340
I0715 10:14:46.603076 12918 layer_factory.hpp:77] Creating layer fc6
I0715 10:14:46.603085 12918 net.cpp:84] Creating Layer fc6
I0715 10:14:46.603090 12918 net.cpp:406] fc6 <- pool5
I0715 10:14:46.603096 12918 net.cpp:380] fc6 -> fc6
I0715 10:14:46.885326 12918 net.cpp:122] Setting up fc6
I0715 10:14:46.885356 12918 net.cpp:129] Top shape: 1 4096 17 7 (487424)
I0715 10:14:46.885361 12918 net.cpp:137] Memory required for data: 689793036
I0715 10:14:46.885372 12918 layer_factory.hpp:77] Creating layer relu6
I0715 10:14:46.885385 12918 net.cpp:84] Creating Layer relu6
I0715 10:14:46.885406 12918 net.cpp:406] relu6 <- fc6
I0715 10:14:46.885414 12918 net.cpp:367] relu6 -> fc6 (in-place)
I0715 10:14:46.885695 12918 net.cpp:122] Setting up relu6
I0715 10:14:46.885706 12918 net.cpp:129] Top shape: 1 4096 17 7 (487424)
I0715 10:14:46.885710 12918 net.cpp:137] Memory required for data: 691742732
I0715 10:14:46.885730 12918 layer_factory.hpp:77] Creating layer drop6
I0715 10:14:46.885737 12918 net.cpp:84] Creating Layer drop6
I0715 10:14:46.885741 12918 net.cpp:406] drop6 <- fc6
I0715 10:14:46.885747 12918 net.cpp:367] drop6 -> fc6 (in-place)
I0715 10:14:46.885797 12918 net.cpp:122] Setting up drop6
I0715 10:14:46.885805 12918 net.cpp:129] Top shape: 1 4096 17 7 (487424)
I0715 10:14:46.885808 12918 net.cpp:137] Memory required for data: 693692428
I0715 10:14:46.885812 12918 layer_factory.hpp:77] Creating layer fc7
I0715 10:14:46.885823 12918 net.cpp:84] Creating Layer fc7
I0715 10:14:46.885826 12918 net.cpp:406] fc7 <- fc6
I0715 10:14:46.885833 12918 net.cpp:380] fc7 -> fc7
I0715 10:14:46.934671 12918 net.cpp:122] Setting up fc7
I0715 10:14:46.934716 12918 net.cpp:129] Top shape: 1 4096 17 7 (487424)
I0715 10:14:46.934720 12918 net.cpp:137] Memory required for data: 695642124
I0715 10:14:46.934731 12918 layer_factory.hpp:77] Creating layer relu7
I0715 10:14:46.934742 12918 net.cpp:84] Creating Layer relu7
I0715 10:14:46.934747 12918 net.cpp:406] relu7 <- fc7
I0715 10:14:46.934754 12918 net.cpp:367] relu7 -> fc7 (in-place)
I0715 10:14:46.934998 12918 net.cpp:122] Setting up relu7
I0715 10:14:46.935009 12918 net.cpp:129] Top shape: 1 4096 17 7 (487424)
I0715 10:14:46.935012 12918 net.cpp:137] Memory required for data: 697591820
I0715 10:14:46.935016 12918 layer_factory.hpp:77] Creating layer drop7
I0715 10:14:46.935024 12918 net.cpp:84] Creating Layer drop7
I0715 10:14:46.935029 12918 net.cpp:406] drop7 <- fc7
I0715 10:14:46.935034 12918 net.cpp:367] drop7 -> fc7 (in-place)
I0715 10:14:46.935077 12918 net.cpp:122] Setting up drop7
I0715 10:14:46.935083 12918 net.cpp:129] Top shape: 1 4096 17 7 (487424)
I0715 10:14:46.935086 12918 net.cpp:137] Memory required for data: 699541516
I0715 10:14:46.935089 12918 layer_factory.hpp:77] Creating layer score_fr-new
I0715 10:14:46.935099 12918 net.cpp:84] Creating Layer score_fr-new
I0715 10:14:46.935103 12918 net.cpp:406] score_fr-new <- fc7
I0715 10:14:46.935109 12918 net.cpp:380] score_fr-new -> score_fr-new
I0715 10:14:46.936978 12918 net.cpp:122] Setting up score_fr-new
I0715 10:14:46.936992 12918 net.cpp:129] Top shape: 1 3 17 7 (357)
I0715 10:14:46.937012 12918 net.cpp:137] Memory required for data: 699542944
I0715 10:14:46.937019 12918 layer_factory.hpp:77] Creating layer upscore2-new
I0715 10:14:46.937027 12918 net.cpp:84] Creating Layer upscore2-new
I0715 10:14:46.937031 12918 net.cpp:406] upscore2-new <- score_fr-new
I0715 10:14:46.937037 12918 net.cpp:380] upscore2-new -> upscore2-new
I0715 10:14:46.937398 12918 net.cpp:122] Setting up upscore2-new
I0715 10:14:46.937422 12918 net.cpp:129] Top shape: 1 3 36 16 (1728)
I0715 10:14:46.937427 12918 net.cpp:137] Memory required for data: 699549856
I0715 10:14:46.937455 12918 layer_factory.hpp:77] Creating layer upscore2-new_upscore2-new_0_split
I0715 10:14:46.937463 12918 net.cpp:84] Creating Layer upscore2-new_upscore2-new_0_split
I0715 10:14:46.937466 12918 net.cpp:406] upscore2-new_upscore2-new_0_split <- upscore2-new
I0715 10:14:46.937472 12918 net.cpp:380] upscore2-new_upscore2-new_0_split -> upscore2-new_upscore2-new_0_split_0
I0715 10:14:46.937479 12918 net.cpp:380] upscore2-new_upscore2-new_0_split -> upscore2-new_upscore2-new_0_split_1
I0715 10:14:46.937538 12918 net.cpp:122] Setting up upscore2-new_upscore2-new_0_split
I0715 10:14:46.937544 12918 net.cpp:129] Top shape: 1 3 36 16 (1728)
I0715 10:14:46.937548 12918 net.cpp:129] Top shape: 1 3 36 16 (1728)
I0715 10:14:46.937551 12918 net.cpp:137] Memory required for data: 699563680
I0715 10:14:46.937556 12918 layer_factory.hpp:77] Creating layer score_pool4-new
I0715 10:14:46.937564 12918 net.cpp:84] Creating Layer score_pool4-new
I0715 10:14:46.937568 12918 net.cpp:406] score_pool4-new <- pool4_pool4_0_split_1
I0715 10:14:46.937574 12918 net.cpp:380] score_pool4-new -> score_pool4-new
I0715 10:14:46.939396 12918 net.cpp:122] Setting up score_pool4-new
I0715 10:14:46.939425 12918 net.cpp:129] Top shape: 1 3 45 26 (3510)
I0715 10:14:46.939429 12918 net.cpp:137] Memory required for data: 699577720
I0715 10:14:46.939436 12918 layer_factory.hpp:77] Creating layer score_pool4c
I0715 10:14:46.939445 12918 net.cpp:84] Creating Layer score_pool4c
I0715 10:14:46.939448 12918 net.cpp:406] score_pool4c <- score_pool4-new
I0715 10:14:46.939453 12918 net.cpp:406] score_pool4c <- upscore2-new_upscore2-new_0_split_0
I0715 10:14:46.939460 12918 net.cpp:380] score_pool4c -> score_pool4c
I0715 10:14:46.939518 12918 net.cpp:122] Setting up score_pool4c
I0715 10:14:46.939524 12918 net.cpp:129] Top shape: 1 3 36 16 (1728)
I0715 10:14:46.939527 12918 net.cpp:137] Memory required for data: 699584632
I0715 10:14:46.939532 12918 layer_factory.hpp:77] Creating layer fuse_pool4
I0715 10:14:46.939539 12918 net.cpp:84] Creating Layer fuse_pool4
I0715 10:14:46.939543 12918 net.cpp:406] fuse_pool4 <- upscore2-new_upscore2-new_0_split_1
I0715 10:14:46.939548 12918 net.cpp:406] fuse_pool4 <- score_pool4c
I0715 10:14:46.939554 12918 net.cpp:380] fuse_pool4 -> fuse_pool4
I0715 10:14:46.939592 12918 net.cpp:122] Setting up fuse_pool4
I0715 10:14:46.939597 12918 net.cpp:129] Top shape: 1 3 36 16 (1728)
I0715 10:14:46.939601 12918 net.cpp:137] Memory required for data: 699591544
I0715 10:14:46.939620 12918 layer_factory.hpp:77] Creating layer upscore_pool4-new
I0715 10:14:46.939627 12918 net.cpp:84] Creating Layer upscore_pool4-new
I0715 10:14:46.939651 12918 net.cpp:406] upscore_pool4-new <- fuse_pool4
I0715 10:14:46.939656 12918 net.cpp:380] upscore_pool4-new -> upscore_pool4-new
I0715 10:14:46.939976 12918 net.cpp:122] Setting up upscore_pool4-new
I0715 10:14:46.939985 12918 net.cpp:129] Top shape: 1 3 74 34 (7548)
I0715 10:14:46.939988 12918 net.cpp:137] Memory required for data: 699621736
I0715 10:14:46.939994 12918 layer_factory.hpp:77] Creating layer upscore_pool4-new_upscore_pool4-new_0_split
I0715 10:14:46.939999 12918 net.cpp:84] Creating Layer upscore_pool4-new_upscore_pool4-new_0_split
I0715 10:14:46.940003 12918 net.cpp:406] upscore_pool4-new_upscore_pool4-new_0_split <- upscore_pool4-new
I0715 10:14:46.940008 12918 net.cpp:380] upscore_pool4-new_upscore_pool4-new_0_split -> upscore_pool4-new_upscore_pool4-new_0_split_0
I0715 10:14:46.940016 12918 net.cpp:380] upscore_pool4-new_upscore_pool4-new_0_split -> upscore_pool4-new_upscore_pool4-new_0_split_1
I0715 10:14:46.940073 12918 net.cpp:122] Setting up upscore_pool4-new_upscore_pool4-new_0_split
I0715 10:14:46.940089 12918 net.cpp:129] Top shape: 1 3 74 34 (7548)
I0715 10:14:46.940094 12918 net.cpp:129] Top shape: 1 3 74 34 (7548)
I0715 10:14:46.940098 12918 net.cpp:137] Memory required for data: 699682120
I0715 10:14:46.940101 12918 layer_factory.hpp:77] Creating layer score_pool3-new
I0715 10:14:46.940109 12918 net.cpp:84] Creating Layer score_pool3-new
I0715 10:14:46.940114 12918 net.cpp:406] score_pool3-new <- pool3_pool3_0_split_1
I0715 10:14:46.940119 12918 net.cpp:380] score_pool3-new -> score_pool3-new
I0715 10:14:46.941963 12918 net.cpp:122] Setting up score_pool3-new
I0715 10:14:46.941992 12918 net.cpp:129] Top shape: 1 3 89 51 (13617)
I0715 10:14:46.941996 12918 net.cpp:137] Memory required for data: 699736588
I0715 10:14:46.942003 12918 layer_factory.hpp:77] Creating layer score_pool3c
I0715 10:14:46.942010 12918 net.cpp:84] Creating Layer score_pool3c
I0715 10:14:46.942014 12918 net.cpp:406] score_pool3c <- score_pool3-new
I0715 10:14:46.942020 12918 net.cpp:406] score_pool3c <- upscore_pool4-new_upscore_pool4-new_0_split_0
I0715 10:14:46.942025 12918 net.cpp:380] score_pool3c -> score_pool3c
I0715 10:14:46.942083 12918 net.cpp:122] Setting up score_pool3c
I0715 10:14:46.942090 12918 net.cpp:129] Top shape: 1 3 74 34 (7548)
I0715 10:14:46.942092 12918 net.cpp:137] Memory required for data: 699766780
I0715 10:14:46.942096 12918 layer_factory.hpp:77] Creating layer fuse_pool3
I0715 10:14:46.942102 12918 net.cpp:84] Creating Layer fuse_pool3
I0715 10:14:46.942107 12918 net.cpp:406] fuse_pool3 <- upscore_pool4-new_upscore_pool4-new_0_split_1
I0715 10:14:46.942112 12918 net.cpp:406] fuse_pool3 <- score_pool3c
I0715 10:14:46.942117 12918 net.cpp:380] fuse_pool3 -> fuse_pool3
I0715 10:14:46.942154 12918 net.cpp:122] Setting up fuse_pool3
I0715 10:14:46.942160 12918 net.cpp:129] Top shape: 1 3 74 34 (7548)
I0715 10:14:46.942163 12918 net.cpp:137] Memory required for data: 699796972
I0715 10:14:46.942167 12918 layer_factory.hpp:77] Creating layer upscore8-new
I0715 10:14:46.942173 12918 net.cpp:84] Creating Layer upscore8-new
I0715 10:14:46.942178 12918 net.cpp:406] upscore8-new <- fuse_pool3
I0715 10:14:46.942198 12918 net.cpp:380] upscore8-new -> upscore8-new
I0715 10:14:46.942564 12918 net.cpp:122] Setting up upscore8-new
I0715 10:14:46.942572 12918 net.cpp:129] Top shape: 1 3 600 280 (504000)
I0715 10:14:46.942592 12918 net.cpp:137] Memory required for data: 701812972
I0715 10:14:46.942597 12918 layer_factory.hpp:77] Creating layer upscore8_cropped
I0715 10:14:46.942603 12918 net.cpp:84] Creating Layer upscore8_cropped
I0715 10:14:46.942607 12918 net.cpp:406] upscore8_cropped <- upscore8-new
I0715 10:14:46.942612 12918 net.cpp:406] upscore8_cropped <- data_data_0_split_1
I0715 10:14:46.942618 12918 net.cpp:380] upscore8_cropped -> upscore8_cropped
I0715 10:14:46.942656 12918 net.cpp:122] Setting up upscore8_cropped
I0715 10:14:46.942662 12918 net.cpp:129] Top shape: 1 3 512 210 (322560)
I0715 10:14:46.942664 12918 net.cpp:137] Memory required for data: 703103212
I0715 10:14:46.942668 12918 layer_factory.hpp:77] Creating layer upscore8_cropped_upscore8_cropped_0_split
I0715 10:14:46.942673 12918 net.cpp:84] Creating Layer upscore8_cropped_upscore8_cropped_0_split
I0715 10:14:46.942677 12918 net.cpp:406] upscore8_cropped_upscore8_cropped_0_split <- upscore8_cropped
I0715 10:14:46.942683 12918 net.cpp:380] upscore8_cropped_upscore8_cropped_0_split -> upscore8_cropped_upscore8_cropped_0_split_0
I0715 10:14:46.942690 12918 net.cpp:380] upscore8_cropped_upscore8_cropped_0_split -> upscore8_cropped_upscore8_cropped_0_split_1
I0715 10:14:46.942747 12918 net.cpp:122] Setting up upscore8_cropped_upscore8_cropped_0_split
I0715 10:14:46.942754 12918 net.cpp:129] Top shape: 1 3 512 210 (322560)
I0715 10:14:46.942759 12918 net.cpp:129] Top shape: 1 3 512 210 (322560)
I0715 10:14:46.942761 12918 net.cpp:137] Memory required for data: 705683692
I0715 10:14:46.942764 12918 layer_factory.hpp:77] Creating layer prob
I0715 10:14:46.942771 12918 net.cpp:84] Creating Layer prob
I0715 10:14:46.942775 12918 net.cpp:406] prob <- upscore8_cropped_upscore8_cropped_0_split_0
I0715 10:14:46.942781 12918 net.cpp:380] prob -> prob
I0715 10:14:46.943032 12918 net.cpp:122] Setting up prob
I0715 10:14:46.943042 12918 net.cpp:129] Top shape: 1 3 512 210 (322560)
I0715 10:14:46.943045 12918 net.cpp:137] Memory required for data: 706973932
I0715 10:14:46.943049 12918 layer_factory.hpp:77] Creating layer saliency1
I0715 10:14:46.943060 12918 net.cpp:84] Creating Layer saliency1
I0715 10:14:46.943065 12918 net.cpp:406] saliency1 <- prob
I0715 10:14:46.943073 12918 net.cpp:380] saliency1 -> saliency1
I0715 10:14:46.945081 12918 net.cpp:122] Setting up saliency1
I0715 10:14:46.945111 12918 net.cpp:129] Top shape: 1 3 512 210 (322560)
I0715 10:14:46.945116 12918 net.cpp:137] Memory required for data: 708264172
I0715 10:14:46.945122 12918 layer_factory.hpp:77] Creating layer relu_saliency1
I0715 10:14:46.945128 12918 net.cpp:84] Creating Layer relu_saliency1
I0715 10:14:46.945132 12918 net.cpp:406] relu_saliency1 <- saliency1
I0715 10:14:46.945138 12918 net.cpp:367] relu_saliency1 -> saliency1 (in-place)
I0715 10:14:46.945382 12918 net.cpp:122] Setting up relu_saliency1
I0715 10:14:46.945394 12918 net.cpp:129] Top shape: 1 3 512 210 (322560)
I0715 10:14:46.945396 12918 net.cpp:137] Memory required for data: 709554412
I0715 10:14:46.945400 12918 layer_factory.hpp:77] Creating layer saliency
I0715 10:14:46.945411 12918 net.cpp:84] Creating Layer saliency
I0715 10:14:46.945415 12918 net.cpp:406] saliency <- saliency1
I0715 10:14:46.945423 12918 net.cpp:380] saliency -> saliency
I0715 10:14:46.947504 12918 net.cpp:122] Setting up saliency
I0715 10:14:46.947538 12918 net.cpp:129] Top shape: 1 3 512 210 (322560)
I0715 10:14:46.947543 12918 net.cpp:137] Memory required for data: 710844652
I0715 10:14:46.947552 12918 layer_factory.hpp:77] Creating layer saliency_data
I0715 10:14:46.947562 12918 net.cpp:84] Creating Layer saliency_data
I0715 10:14:46.947566 12918 net.cpp:406] saliency_data <- data_data_0_split_2
I0715 10:14:46.947574 12918 net.cpp:406] saliency_data <- saliency
I0715 10:14:46.947602 12918 net.cpp:380] saliency_data -> saliency_data
I0715 10:14:46.947659 12918 net.cpp:122] Setting up saliency_data
I0715 10:14:46.947697 12918 net.cpp:129] Top shape: 1 3 512 210 (322560)
I0715 10:14:46.947700 12918 net.cpp:137] Memory required for data: 712134892
I0715 10:14:46.947703 12918 layer_factory.hpp:77] Creating layer crop
I0715 10:14:46.947820 12918 net.cpp:84] Creating Layer crop
I0715 10:14:46.947830 12918 net.cpp:406] crop <- label_data_1_split_0
I0715 10:14:46.947839 12918 net.cpp:406] crop <- saliency_data
I0715 10:14:46.947846 12918 net.cpp:406] crop <- crop_margin
I0715 10:14:46.947851 12918 net.cpp:406] crop <- crop_prob
I0715 10:14:46.947855 12918 net.cpp:406] crop <- crop_sample_batch
I0715 10:14:46.947861 12918 net.cpp:380] crop -> data-R
I0715 10:14:46.947873 12918 net.cpp:380] crop -> crop_info
I0715 10:14:46.953042 12918 net.cpp:122] Setting up crop
I0715 10:14:46.953076 12918 net.cpp:129] Top shape: 1 3 512 210 (322560)
I0715 10:14:46.953081 12918 net.cpp:129] Top shape: 1 2 4 (8)
I0715 10:14:46.953084 12918 net.cpp:137] Memory required for data: 713425164
I0715 10:14:46.953088 12918 layer_factory.hpp:77] Creating layer data-R_crop_0_split
I0715 10:14:46.953099 12918 net.cpp:84] Creating Layer data-R_crop_0_split
I0715 10:14:46.953102 12918 net.cpp:406] data-R_crop_0_split <- data-R
I0715 10:14:46.953109 12918 net.cpp:380] data-R_crop_0_split -> data-R_crop_0_split_0
I0715 10:14:46.953116 12918 net.cpp:380] data-R_crop_0_split -> data-R_crop_0_split_1
I0715 10:14:46.953191 12918 net.cpp:122] Setting up data-R_crop_0_split
I0715 10:14:46.953197 12918 net.cpp:129] Top shape: 1 3 512 210 (322560)
I0715 10:14:46.953202 12918 net.cpp:129] Top shape: 1 3 512 210 (322560)
I0715 10:14:46.953204 12918 net.cpp:137] Memory required for data: 716005644
I0715 10:14:46.953207 12918 layer_factory.hpp:77] Creating layer conv1_1-R
I0715 10:14:46.953217 12918 net.cpp:84] Creating Layer conv1_1-R
I0715 10:14:46.953219 12918 net.cpp:406] conv1_1-R <- data-R_crop_0_split_0
I0715 10:14:46.953225 12918 net.cpp:380] conv1_1-R -> conv1_1-R
I0715 10:14:46.957721 12918 net.cpp:122] Setting up conv1_1-R
I0715 10:14:46.957762 12918 net.cpp:129] Top shape: 1 64 710 408 (18539520)
I0715 10:14:46.957769 12918 net.cpp:137] Memory required for data: 790163724
I0715 10:14:46.957785 12918 layer_factory.hpp:77] Creating layer relu1_1-R
I0715 10:14:46.957830 12918 net.cpp:84] Creating Layer relu1_1-R
I0715 10:14:46.957840 12918 net.cpp:406] relu1_1-R <- conv1_1-R
I0715 10:14:46.957851 12918 net.cpp:367] relu1_1-R -> conv1_1-R (in-place)
I0715 10:14:46.958132 12918 net.cpp:122] Setting up relu1_1-R
I0715 10:14:46.958142 12918 net.cpp:129] Top shape: 1 64 710 408 (18539520)
I0715 10:14:46.958145 12918 net.cpp:137] Memory required for data: 864321804
I0715 10:14:46.958150 12918 layer_factory.hpp:77] Creating layer conv1_2-R
I0715 10:14:46.958159 12918 net.cpp:84] Creating Layer conv1_2-R
I0715 10:14:46.958163 12918 net.cpp:406] conv1_2-R <- conv1_1-R
I0715 10:14:46.958168 12918 net.cpp:380] conv1_2-R -> conv1_2-R
I0715 10:14:46.963834 12918 net.cpp:122] Setting up conv1_2-R
I0715 10:14:46.963871 12918 net.cpp:129] Top shape: 1 64 710 408 (18539520)
I0715 10:14:46.963877 12918 net.cpp:137] Memory required for data: 938479884
I0715 10:14:46.963886 12918 layer_factory.hpp:77] Creating layer relu1_2-R
I0715 10:14:46.963898 12918 net.cpp:84] Creating Layer relu1_2-R
I0715 10:14:46.963903 12918 net.cpp:406] relu1_2-R <- conv1_2-R
I0715 10:14:46.963928 12918 net.cpp:367] relu1_2-R -> conv1_2-R (in-place)
I0715 10:14:46.964227 12918 net.cpp:122] Setting up relu1_2-R
I0715 10:14:46.964239 12918 net.cpp:129] Top shape: 1 64 710 408 (18539520)
I0715 10:14:46.964243 12918 net.cpp:137] Memory required for data: 1012637964
I0715 10:14:46.964248 12918 layer_factory.hpp:77] Creating layer pool1-R
I0715 10:14:46.964258 12918 net.cpp:84] Creating Layer pool1-R
I0715 10:14:46.964262 12918 net.cpp:406] pool1-R <- conv1_2-R
I0715 10:14:46.964270 12918 net.cpp:380] pool1-R -> pool1-R
I0715 10:14:46.964396 12918 net.cpp:122] Setting up pool1-R
I0715 10:14:46.964411 12918 net.cpp:129] Top shape: 1 64 355 204 (4634880)
I0715 10:14:46.964417 12918 net.cpp:137] Memory required for data: 1031177484
I0715 10:14:46.964424 12918 layer_factory.hpp:77] Creating layer conv2_1-R
I0715 10:14:46.964442 12918 net.cpp:84] Creating Layer conv2_1-R
I0715 10:14:46.964448 12918 net.cpp:406] conv2_1-R <- pool1-R
I0715 10:14:46.964460 12918 net.cpp:380] conv2_1-R -> conv2_1-R
I0715 10:14:46.967130 12918 net.cpp:122] Setting up conv2_1-R
I0715 10:14:46.967161 12918 net.cpp:129] Top shape: 1 128 355 204 (9269760)
I0715 10:14:46.967164 12918 net.cpp:137] Memory required for data: 1068256524
I0715 10:14:46.967175 12918 layer_factory.hpp:77] Creating layer relu2_1-R
I0715 10:14:46.967182 12918 net.cpp:84] Creating Layer relu2_1-R
I0715 10:14:46.967187 12918 net.cpp:406] relu2_1-R <- conv2_1-R
I0715 10:14:46.967193 12918 net.cpp:367] relu2_1-R -> conv2_1-R (in-place)
I0715 10:14:46.967535 12918 net.cpp:122] Setting up relu2_1-R
I0715 10:14:46.967552 12918 net.cpp:129] Top shape: 1 128 355 204 (9269760)
I0715 10:14:46.967558 12918 net.cpp:137] Memory required for data: 1105335564
I0715 10:14:46.967566 12918 layer_factory.hpp:77] Creating layer conv2_2-R
I0715 10:14:46.967584 12918 net.cpp:84] Creating Layer conv2_2-R
I0715 10:14:46.967592 12918 net.cpp:406] conv2_2-R <- conv2_1-R
I0715 10:14:46.967598 12918 net.cpp:380] conv2_2-R -> conv2_2-R
I0715 10:14:46.970531 12918 net.cpp:122] Setting up conv2_2-R
I0715 10:14:46.970568 12918 net.cpp:129] Top shape: 1 128 355 204 (9269760)
I0715 10:14:46.970574 12918 net.cpp:137] Memory required for data: 1142414604
I0715 10:14:46.970582 12918 layer_factory.hpp:77] Creating layer relu2_2-R
I0715 10:14:46.970594 12918 net.cpp:84] Creating Layer relu2_2-R
I0715 10:14:46.970602 12918 net.cpp:406] relu2_2-R <- conv2_2-R
I0715 10:14:46.970628 12918 net.cpp:367] relu2_2-R -> conv2_2-R (in-place)
I0715 10:14:46.972134 12918 net.cpp:122] Setting up relu2_2-R
I0715 10:14:46.972165 12918 net.cpp:129] Top shape: 1 128 355 204 (9269760)
I0715 10:14:46.972172 12918 net.cpp:137] Memory required for data: 1179493644
I0715 10:14:46.972179 12918 layer_factory.hpp:77] Creating layer pool2-R
I0715 10:14:46.972189 12918 net.cpp:84] Creating Layer pool2-R
I0715 10:14:46.972195 12918 net.cpp:406] pool2-R <- conv2_2-R
I0715 10:14:46.972203 12918 net.cpp:380] pool2-R -> pool2-R
I0715 10:14:46.972312 12918 net.cpp:122] Setting up pool2-R
I0715 10:14:46.972324 12918 net.cpp:129] Top shape: 1 128 178 102 (2323968)
I0715 10:14:46.972347 12918 net.cpp:137] Memory required for data: 1188789516
I0715 10:14:46.972353 12918 layer_factory.hpp:77] Creating layer conv3_1-R
I0715 10:14:46.972365 12918 net.cpp:84] Creating Layer conv3_1-R
I0715 10:14:46.972370 12918 net.cpp:406] conv3_1-R <- pool2-R
I0715 10:14:46.972379 12918 net.cpp:380] conv3_1-R -> conv3_1-R
I0715 10:14:46.978420 12918 net.cpp:122] Setting up conv3_1-R
I0715 10:14:46.978451 12918 net.cpp:129] Top shape: 1 256 178 102 (4647936)
I0715 10:14:46.978456 12918 net.cpp:137] Memory required for data: 1207381260
I0715 10:14:46.978469 12918 layer_factory.hpp:77] Creating layer relu3_1-R
I0715 10:14:46.978478 12918 net.cpp:84] Creating Layer relu3_1-R
I0715 10:14:46.978482 12918 net.cpp:406] relu3_1-R <- conv3_1-R
I0715 10:14:46.978487 12918 net.cpp:367] relu3_1-R -> conv3_1-R (in-place)
I0715 10:14:46.978804 12918 net.cpp:122] Setting up relu3_1-R
I0715 10:14:46.978816 12918 net.cpp:129] Top shape: 1 256 178 102 (4647936)
I0715 10:14:46.978821 12918 net.cpp:137] Memory required for data: 1225973004
I0715 10:14:46.978823 12918 layer_factory.hpp:77] Creating layer conv3_2-R
I0715 10:14:46.978838 12918 net.cpp:84] Creating Layer conv3_2-R
I0715 10:14:46.978842 12918 net.cpp:406] conv3_2-R <- conv3_1-R
I0715 10:14:46.978850 12918 net.cpp:380] conv3_2-R -> conv3_2-R
I0715 10:14:46.984845 12918 net.cpp:122] Setting up conv3_2-R
I0715 10:14:46.984879 12918 net.cpp:129] Top shape: 1 256 178 102 (4647936)
I0715 10:14:46.984884 12918 net.cpp:137] Memory required for data: 1244564748
I0715 10:14:46.984891 12918 layer_factory.hpp:77] Creating layer relu3_2-R
I0715 10:14:46.984899 12918 net.cpp:84] Creating Layer relu3_2-R
I0715 10:14:46.984903 12918 net.cpp:406] relu3_2-R <- conv3_2-R
I0715 10:14:46.984912 12918 net.cpp:367] relu3_2-R -> conv3_2-R (in-place)
I0715 10:14:46.985208 12918 net.cpp:122] Setting up relu3_2-R
I0715 10:14:46.985219 12918 net.cpp:129] Top shape: 1 256 178 102 (4647936)
I0715 10:14:46.985224 12918 net.cpp:137] Memory required for data: 1263156492
I0715 10:14:46.985226 12918 layer_factory.hpp:77] Creating layer conv3_3-R
I0715 10:14:46.985242 12918 net.cpp:84] Creating Layer conv3_3-R
I0715 10:14:46.985249 12918 net.cpp:406] conv3_3-R <- conv3_2-R
I0715 10:14:46.985263 12918 net.cpp:380] conv3_3-R -> conv3_3-R
I0715 10:14:46.992664 12918 net.cpp:122] Setting up conv3_3-R
I0715 10:14:46.992703 12918 net.cpp:129] Top shape: 1 256 178 102 (4647936)
I0715 10:14:46.992708 12918 net.cpp:137] Memory required for data: 1281748236
I0715 10:14:46.992724 12918 layer_factory.hpp:77] Creating layer relu3_3-R
I0715 10:14:46.992738 12918 net.cpp:84] Creating Layer relu3_3-R
I0715 10:14:46.992761 12918 net.cpp:406] relu3_3-R <- conv3_3-R
I0715 10:14:46.992774 12918 net.cpp:367] relu3_3-R -> conv3_3-R (in-place)
I0715 10:14:46.993374 12918 net.cpp:122] Setting up relu3_3-R
I0715 10:14:46.993412 12918 net.cpp:129] Top shape: 1 256 178 102 (4647936)
I0715 10:14:46.993417 12918 net.cpp:137] Memory required for data: 1300339980
I0715 10:14:46.993423 12918 layer_factory.hpp:77] Creating layer pool3-R
I0715 10:14:46.993463 12918 net.cpp:84] Creating Layer pool3-R
I0715 10:14:46.993474 12918 net.cpp:406] pool3-R <- conv3_3-R
I0715 10:14:46.993485 12918 net.cpp:380] pool3-R -> pool3-R
I0715 10:14:46.993701 12918 net.cpp:122] Setting up pool3-R
I0715 10:14:46.993716 12918 net.cpp:129] Top shape: 1 256 89 51 (1161984)
I0715 10:14:46.993721 12918 net.cpp:137] Memory required for data: 1304987916
I0715 10:14:46.993729 12918 layer_factory.hpp:77] Creating layer pool3-R_pool3-R_0_split
I0715 10:14:46.993749 12918 net.cpp:84] Creating Layer pool3-R_pool3-R_0_split
I0715 10:14:46.993757 12918 net.cpp:406] pool3-R_pool3-R_0_split <- pool3-R
I0715 10:14:46.993770 12918 net.cpp:380] pool3-R_pool3-R_0_split -> pool3-R_pool3-R_0_split_0
I0715 10:14:46.993785 12918 net.cpp:380] pool3-R_pool3-R_0_split -> pool3-R_pool3-R_0_split_1
I0715 10:14:46.993885 12918 net.cpp:122] Setting up pool3-R_pool3-R_0_split
I0715 10:14:46.993901 12918 net.cpp:129] Top shape: 1 256 89 51 (1161984)
I0715 10:14:46.993907 12918 net.cpp:129] Top shape: 1 256 89 51 (1161984)
I0715 10:14:46.993912 12918 net.cpp:137] Memory required for data: 1314283788
I0715 10:14:46.993918 12918 layer_factory.hpp:77] Creating layer conv4_1-R
I0715 10:14:46.993937 12918 net.cpp:84] Creating Layer conv4_1-R
I0715 10:14:46.993942 12918 net.cpp:406] conv4_1-R <- pool3-R_pool3-R_0_split_0
I0715 10:14:46.993953 12918 net.cpp:380] conv4_1-R -> conv4_1-R
I0715 10:14:47.003098 12918 net.cpp:122] Setting up conv4_1-R
I0715 10:14:47.003139 12918 net.cpp:129] Top shape: 1 512 89 51 (2323968)
I0715 10:14:47.003145 12918 net.cpp:137] Memory required for data: 1323579660
I0715 10:14:47.003155 12918 layer_factory.hpp:77] Creating layer relu4_1-R
I0715 10:14:47.003163 12918 net.cpp:84] Creating Layer relu4_1-R
I0715 10:14:47.003168 12918 net.cpp:406] relu4_1-R <- conv4_1-R
I0715 10:14:47.003177 12918 net.cpp:367] relu4_1-R -> conv4_1-R (in-place)
I0715 10:14:47.003504 12918 net.cpp:122] Setting up relu4_1-R
I0715 10:14:47.003517 12918 net.cpp:129] Top shape: 1 512 89 51 (2323968)
I0715 10:14:47.003521 12918 net.cpp:137] Memory required for data: 1332875532
I0715 10:14:47.003527 12918 layer_factory.hpp:77] Creating layer conv4_2-R
I0715 10:14:47.003540 12918 net.cpp:84] Creating Layer conv4_2-R
I0715 10:14:47.003546 12918 net.cpp:406] conv4_2-R <- conv4_1-R
I0715 10:14:47.003554 12918 net.cpp:380] conv4_2-R -> conv4_2-R
I0715 10:14:47.014611 12918 net.cpp:122] Setting up conv4_2-R
I0715 10:14:47.014658 12918 net.cpp:129] Top shape: 1 512 89 51 (2323968)
I0715 10:14:47.014662 12918 net.cpp:137] Memory required for data: 1342171404
I0715 10:14:47.014673 12918 layer_factory.hpp:77] Creating layer relu4_2-R
I0715 10:14:47.014685 12918 net.cpp:84] Creating Layer relu4_2-R
I0715 10:14:47.014693 12918 net.cpp:406] relu4_2-R <- conv4_2-R
I0715 10:14:47.014719 12918 net.cpp:367] relu4_2-R -> conv4_2-R (in-place)
I0715 10:14:47.014981 12918 net.cpp:122] Setting up relu4_2-R
I0715 10:14:47.014992 12918 net.cpp:129] Top shape: 1 512 89 51 (2323968)
I0715 10:14:47.014997 12918 net.cpp:137] Memory required for data: 1351467276
I0715 10:14:47.015000 12918 layer_factory.hpp:77] Creating layer conv4_3-R
I0715 10:14:47.015014 12918 net.cpp:84] Creating Layer conv4_3-R
I0715 10:14:47.015018 12918 net.cpp:406] conv4_3-R <- conv4_2-R
I0715 10:14:47.015027 12918 net.cpp:380] conv4_3-R -> conv4_3-R
I0715 10:14:47.027132 12918 net.cpp:122] Setting up conv4_3-R
I0715 10:14:47.027175 12918 net.cpp:129] Top shape: 1 512 89 51 (2323968)
I0715 10:14:47.027182 12918 net.cpp:137] Memory required for data: 1360763148
I0715 10:14:47.027194 12918 layer_factory.hpp:77] Creating layer relu4_3-R
I0715 10:14:47.027204 12918 net.cpp:84] Creating Layer relu4_3-R
I0715 10:14:47.027209 12918 net.cpp:406] relu4_3-R <- conv4_3-R
I0715 10:14:47.027218 12918 net.cpp:367] relu4_3-R -> conv4_3-R (in-place)
I0715 10:14:47.028568 12918 net.cpp:122] Setting up relu4_3-R
I0715 10:14:47.028609 12918 net.cpp:129] Top shape: 1 512 89 51 (2323968)
I0715 10:14:47.028616 12918 net.cpp:137] Memory required for data: 1370059020
I0715 10:14:47.028622 12918 layer_factory.hpp:77] Creating layer pool4-R
I0715 10:14:47.028640 12918 net.cpp:84] Creating Layer pool4-R
I0715 10:14:47.028666 12918 net.cpp:406] pool4-R <- conv4_3-R
I0715 10:14:47.028679 12918 net.cpp:380] pool4-R -> pool4-R
I0715 10:14:47.028836 12918 net.cpp:122] Setting up pool4-R
I0715 10:14:47.028856 12918 net.cpp:129] Top shape: 1 512 45 26 (599040)
I0715 10:14:47.028859 12918 net.cpp:137] Memory required for data: 1372455180
I0715 10:14:47.028864 12918 layer_factory.hpp:77] Creating layer pool4-R_pool4-R_0_split
I0715 10:14:47.028882 12918 net.cpp:84] Creating Layer pool4-R_pool4-R_0_split
I0715 10:14:47.028888 12918 net.cpp:406] pool4-R_pool4-R_0_split <- pool4-R
I0715 10:14:47.028898 12918 net.cpp:380] pool4-R_pool4-R_0_split -> pool4-R_pool4-R_0_split_0
I0715 10:14:47.028910 12918 net.cpp:380] pool4-R_pool4-R_0_split -> pool4-R_pool4-R_0_split_1
I0715 10:14:47.029026 12918 net.cpp:122] Setting up pool4-R_pool4-R_0_split
I0715 10:14:47.029040 12918 net.cpp:129] Top shape: 1 512 45 26 (599040)
I0715 10:14:47.029052 12918 net.cpp:129] Top shape: 1 512 45 26 (599040)
I0715 10:14:47.029058 12918 net.cpp:137] Memory required for data: 1377247500
I0715 10:14:47.029067 12918 layer_factory.hpp:77] Creating layer conv5_1-R
I0715 10:14:47.029089 12918 net.cpp:84] Creating Layer conv5_1-R
I0715 10:14:47.029098 12918 net.cpp:406] conv5_1-R <- pool4-R_pool4-R_0_split_0
I0715 10:14:47.029110 12918 net.cpp:380] conv5_1-R -> conv5_1-R
I0715 10:14:47.041110 12918 net.cpp:122] Setting up conv5_1-R
I0715 10:14:47.041155 12918 net.cpp:129] Top shape: 1 512 45 26 (599040)
I0715 10:14:47.041162 12918 net.cpp:137] Memory required for data: 1379643660
I0715 10:14:47.041191 12918 layer_factory.hpp:77] Creating layer relu5_1-R
I0715 10:14:47.041224 12918 net.cpp:84] Creating Layer relu5_1-R
I0715 10:14:47.041235 12918 net.cpp:406] relu5_1-R <- conv5_1-R
I0715 10:14:47.041252 12918 net.cpp:367] relu5_1-R -> conv5_1-R (in-place)
I0715 10:14:47.041610 12918 net.cpp:122] Setting up relu5_1-R
I0715 10:14:47.041640 12918 net.cpp:129] Top shape: 1 512 45 26 (599040)
I0715 10:14:47.041646 12918 net.cpp:137] Memory required for data: 1382039820
I0715 10:14:47.041651 12918 layer_factory.hpp:77] Creating layer conv5_2-R
I0715 10:14:47.041661 12918 net.cpp:84] Creating Layer conv5_2-R
I0715 10:14:47.041668 12918 net.cpp:406] conv5_2-R <- conv5_1-R
I0715 10:14:47.041678 12918 net.cpp:380] conv5_2-R -> conv5_2-R
I0715 10:14:47.052490 12918 net.cpp:122] Setting up conv5_2-R
I0715 10:14:47.052528 12918 net.cpp:129] Top shape: 1 512 45 26 (599040)
I0715 10:14:47.052533 12918 net.cpp:137] Memory required for data: 1384435980
I0715 10:14:47.052541 12918 layer_factory.hpp:77] Creating layer relu5_2-R
I0715 10:14:47.052551 12918 net.cpp:84] Creating Layer relu5_2-R
I0715 10:14:47.052554 12918 net.cpp:406] relu5_2-R <- conv5_2-R
I0715 10:14:47.052561 12918 net.cpp:367] relu5_2-R -> conv5_2-R (in-place)
I0715 10:14:47.052809 12918 net.cpp:122] Setting up relu5_2-R
I0715 10:14:47.052819 12918 net.cpp:129] Top shape: 1 512 45 26 (599040)
I0715 10:14:47.052822 12918 net.cpp:137] Memory required for data: 1386832140
I0715 10:14:47.052826 12918 layer_factory.hpp:77] Creating layer conv5_3-R
I0715 10:14:47.052836 12918 net.cpp:84] Creating Layer conv5_3-R
I0715 10:14:47.052840 12918 net.cpp:406] conv5_3-R <- conv5_2-R
I0715 10:14:47.052846 12918 net.cpp:380] conv5_3-R -> conv5_3-R
I0715 10:14:47.061941 12918 net.cpp:122] Setting up conv5_3-R
I0715 10:14:47.061978 12918 net.cpp:129] Top shape: 1 512 45 26 (599040)
I0715 10:14:47.061983 12918 net.cpp:137] Memory required for data: 1389228300
I0715 10:14:47.061992 12918 layer_factory.hpp:77] Creating layer relu5_3-R
I0715 10:14:47.062002 12918 net.cpp:84] Creating Layer relu5_3-R
I0715 10:14:47.062007 12918 net.cpp:406] relu5_3-R <- conv5_3-R
I0715 10:14:47.062013 12918 net.cpp:367] relu5_3-R -> conv5_3-R (in-place)
I0715 10:14:47.062261 12918 net.cpp:122] Setting up relu5_3-R
I0715 10:14:47.062271 12918 net.cpp:129] Top shape: 1 512 45 26 (599040)
I0715 10:14:47.062275 12918 net.cpp:137] Memory required for data: 1391624460
I0715 10:14:47.062278 12918 layer_factory.hpp:77] Creating layer pool5-R
I0715 10:14:47.062288 12918 net.cpp:84] Creating Layer pool5-R
I0715 10:14:47.062290 12918 net.cpp:406] pool5-R <- conv5_3-R
I0715 10:14:47.062299 12918 net.cpp:380] pool5-R -> pool5-R
I0715 10:14:47.062372 12918 net.cpp:122] Setting up pool5-R
I0715 10:14:47.062381 12918 net.cpp:129] Top shape: 1 512 23 13 (153088)
I0715 10:14:47.062384 12918 net.cpp:137] Memory required for data: 1392236812
I0715 10:14:47.062387 12918 layer_factory.hpp:77] Creating layer fc6-R
I0715 10:14:47.062397 12918 net.cpp:84] Creating Layer fc6-R
I0715 10:14:47.062402 12918 net.cpp:406] fc6-R <- pool5-R
I0715 10:14:47.062408 12918 net.cpp:380] fc6-R -> fc6-R
I0715 10:14:47.345654 12918 net.cpp:122] Setting up fc6-R
I0715 10:14:47.345702 12918 net.cpp:129] Top shape: 1 4096 17 7 (487424)
I0715 10:14:47.345706 12918 net.cpp:137] Memory required for data: 1394186508
I0715 10:14:47.345717 12918 layer_factory.hpp:77] Creating layer relu6-R
I0715 10:14:47.345729 12918 net.cpp:84] Creating Layer relu6-R
I0715 10:14:47.345736 12918 net.cpp:406] relu6-R <- fc6-R
I0715 10:14:47.345743 12918 net.cpp:367] relu6-R -> fc6-R (in-place)
I0715 10:14:47.345986 12918 net.cpp:122] Setting up relu6-R
I0715 10:14:47.345998 12918 net.cpp:129] Top shape: 1 4096 17 7 (487424)
I0715 10:14:47.346001 12918 net.cpp:137] Memory required for data: 1396136204
I0715 10:14:47.346004 12918 layer_factory.hpp:77] Creating layer drop6-R
I0715 10:14:47.346012 12918 net.cpp:84] Creating Layer drop6-R
I0715 10:14:47.346016 12918 net.cpp:406] drop6-R <- fc6-R
I0715 10:14:47.346022 12918 net.cpp:367] drop6-R -> fc6-R (in-place)
I0715 10:14:47.346068 12918 net.cpp:122] Setting up drop6-R
I0715 10:14:47.346086 12918 net.cpp:129] Top shape: 1 4096 17 7 (487424)
I0715 10:14:47.346089 12918 net.cpp:137] Memory required for data: 1398085900
I0715 10:14:47.346092 12918 layer_factory.hpp:77] Creating layer fc7-R
I0715 10:14:47.346103 12918 net.cpp:84] Creating Layer fc7-R
I0715 10:14:47.346107 12918 net.cpp:406] fc7-R <- fc6-R
I0715 10:14:47.346114 12918 net.cpp:380] fc7-R -> fc7-R
I0715 10:14:47.396215 12918 net.cpp:122] Setting up fc7-R
I0715 10:14:47.396260 12918 net.cpp:129] Top shape: 1 4096 17 7 (487424)
I0715 10:14:47.396265 12918 net.cpp:137] Memory required for data: 1400035596
I0715 10:14:47.396276 12918 layer_factory.hpp:77] Creating layer relu7-R
I0715 10:14:47.396288 12918 net.cpp:84] Creating Layer relu7-R
I0715 10:14:47.396294 12918 net.cpp:406] relu7-R <- fc7-R
I0715 10:14:47.396302 12918 net.cpp:367] relu7-R -> fc7-R (in-place)
I0715 10:14:47.396571 12918 net.cpp:122] Setting up relu7-R
I0715 10:14:47.396582 12918 net.cpp:129] Top shape: 1 4096 17 7 (487424)
I0715 10:14:47.396586 12918 net.cpp:137] Memory required for data: 1401985292
I0715 10:14:47.396590 12918 layer_factory.hpp:77] Creating layer drop7-R
I0715 10:14:47.396598 12918 net.cpp:84] Creating Layer drop7-R
I0715 10:14:47.396602 12918 net.cpp:406] drop7-R <- fc7-R
I0715 10:14:47.396608 12918 net.cpp:367] drop7-R -> fc7-R (in-place)
I0715 10:14:47.396656 12918 net.cpp:122] Setting up drop7-R
I0715 10:14:47.396670 12918 net.cpp:129] Top shape: 1 4096 17 7 (487424)
I0715 10:14:47.396673 12918 net.cpp:137] Memory required for data: 1403934988
I0715 10:14:47.396677 12918 layer_factory.hpp:77] Creating layer score_fr-new-R
I0715 10:14:47.396687 12918 net.cpp:84] Creating Layer score_fr-new-R
I0715 10:14:47.396690 12918 net.cpp:406] score_fr-new-R <- fc7-R
I0715 10:14:47.396697 12918 net.cpp:380] score_fr-new-R -> score_fr-new-R
I0715 10:14:47.398636 12918 net.cpp:122] Setting up score_fr-new-R
I0715 10:14:47.398650 12918 net.cpp:129] Top shape: 1 3 17 7 (357)
I0715 10:14:47.398669 12918 net.cpp:137] Memory required for data: 1403936416
I0715 10:14:47.398676 12918 layer_factory.hpp:77] Creating layer upscore2-new-R
I0715 10:14:47.398684 12918 net.cpp:84] Creating Layer upscore2-new-R
I0715 10:14:47.398689 12918 net.cpp:406] upscore2-new-R <- score_fr-new-R
I0715 10:14:47.398695 12918 net.cpp:380] upscore2-new-R -> upscore2-new-R
I0715 10:14:47.399106 12918 net.cpp:122] Setting up upscore2-new-R
I0715 10:14:47.399114 12918 net.cpp:129] Top shape: 1 3 36 16 (1728)
I0715 10:14:47.399133 12918 net.cpp:137] Memory required for data: 1403943328
I0715 10:14:47.399138 12918 layer_factory.hpp:77] Creating layer upscore2-new-R_upscore2-new-R_0_split
I0715 10:14:47.399145 12918 net.cpp:84] Creating Layer upscore2-new-R_upscore2-new-R_0_split
I0715 10:14:47.399149 12918 net.cpp:406] upscore2-new-R_upscore2-new-R_0_split <- upscore2-new-R
I0715 10:14:47.399155 12918 net.cpp:380] upscore2-new-R_upscore2-new-R_0_split -> upscore2-new-R_upscore2-new-R_0_split_0
I0715 10:14:47.399163 12918 net.cpp:380] upscore2-new-R_upscore2-new-R_0_split -> upscore2-new-R_upscore2-new-R_0_split_1
I0715 10:14:47.399226 12918 net.cpp:122] Setting up upscore2-new-R_upscore2-new-R_0_split
I0715 10:14:47.399232 12918 net.cpp:129] Top shape: 1 3 36 16 (1728)
I0715 10:14:47.399236 12918 net.cpp:129] Top shape: 1 3 36 16 (1728)
I0715 10:14:47.399240 12918 net.cpp:137] Memory required for data: 1403957152
I0715 10:14:47.399242 12918 layer_factory.hpp:77] Creating layer score_pool4-new-R
I0715 10:14:47.399251 12918 net.cpp:84] Creating Layer score_pool4-new-R
I0715 10:14:47.399255 12918 net.cpp:406] score_pool4-new-R <- pool4-R_pool4-R_0_split_1
I0715 10:14:47.399262 12918 net.cpp:380] score_pool4-new-R -> score_pool4-new-R
I0715 10:14:47.401152 12918 net.cpp:122] Setting up score_pool4-new-R
I0715 10:14:47.401180 12918 net.cpp:129] Top shape: 1 3 45 26 (3510)
I0715 10:14:47.401185 12918 net.cpp:137] Memory required for data: 1403971192
I0715 10:14:47.401190 12918 layer_factory.hpp:77] Creating layer score_pool4c-R
I0715 10:14:47.401198 12918 net.cpp:84] Creating Layer score_pool4c-R
I0715 10:14:47.401202 12918 net.cpp:406] score_pool4c-R <- score_pool4-new-R
I0715 10:14:47.401207 12918 net.cpp:406] score_pool4c-R <- upscore2-new-R_upscore2-new-R_0_split_0
I0715 10:14:47.401213 12918 net.cpp:380] score_pool4c-R -> score_pool4c-R
I0715 10:14:47.401273 12918 net.cpp:122] Setting up score_pool4c-R
I0715 10:14:47.401278 12918 net.cpp:129] Top shape: 1 3 36 16 (1728)
I0715 10:14:47.401280 12918 net.cpp:137] Memory required for data: 1403978104
I0715 10:14:47.401283 12918 layer_factory.hpp:77] Creating layer fuse_pool4-R
I0715 10:14:47.401293 12918 net.cpp:84] Creating Layer fuse_pool4-R
I0715 10:14:47.401295 12918 net.cpp:406] fuse_pool4-R <- upscore2-new-R_upscore2-new-R_0_split_1
I0715 10:14:47.401301 12918 net.cpp:406] fuse_pool4-R <- score_pool4c-R
I0715 10:14:47.401306 12918 net.cpp:380] fuse_pool4-R -> fuse_pool4-R
I0715 10:14:47.401345 12918 net.cpp:122] Setting up fuse_pool4-R
I0715 10:14:47.401350 12918 net.cpp:129] Top shape: 1 3 36 16 (1728)
I0715 10:14:47.401352 12918 net.cpp:137] Memory required for data: 1403985016
I0715 10:14:47.401355 12918 layer_factory.hpp:77] Creating layer upscore_pool4-new-R
I0715 10:14:47.401378 12918 net.cpp:84] Creating Layer upscore_pool4-new-R
I0715 10:14:47.401382 12918 net.cpp:406] upscore_pool4-new-R <- fuse_pool4-R
I0715 10:14:47.401388 12918 net.cpp:380] upscore_pool4-new-R -> upscore_pool4-new-R
I0715 10:14:47.401772 12918 net.cpp:122] Setting up upscore_pool4-new-R
I0715 10:14:47.401779 12918 net.cpp:129] Top shape: 1 3 74 34 (7548)
I0715 10:14:47.401798 12918 net.cpp:137] Memory required for data: 1404015208
I0715 10:14:47.401803 12918 layer_factory.hpp:77] Creating layer upscore_pool4-new-R_upscore_pool4-new-R_0_split
I0715 10:14:47.401808 12918 net.cpp:84] Creating Layer upscore_pool4-new-R_upscore_pool4-new-R_0_split
I0715 10:14:47.401813 12918 net.cpp:406] upscore_pool4-new-R_upscore_pool4-new-R_0_split <- upscore_pool4-new-R
I0715 10:14:47.401818 12918 net.cpp:380] upscore_pool4-new-R_upscore_pool4-new-R_0_split -> upscore_pool4-new-R_upscore_pool4-new-R_0_split_0
I0715 10:14:47.401825 12918 net.cpp:380] upscore_pool4-new-R_upscore_pool4-new-R_0_split -> upscore_pool4-new-R_upscore_pool4-new-R_0_split_1
I0715 10:14:47.401887 12918 net.cpp:122] Setting up upscore_pool4-new-R_upscore_pool4-new-R_0_split
I0715 10:14:47.401893 12918 net.cpp:129] Top shape: 1 3 74 34 (7548)
I0715 10:14:47.401897 12918 net.cpp:129] Top shape: 1 3 74 34 (7548)
I0715 10:14:47.401901 12918 net.cpp:137] Memory required for data: 1404075592
I0715 10:14:47.401904 12918 layer_factory.hpp:77] Creating layer score_pool3-new-R
I0715 10:14:47.401912 12918 net.cpp:84] Creating Layer score_pool3-new-R
I0715 10:14:47.401917 12918 net.cpp:406] score_pool3-new-R <- pool3-R_pool3-R_0_split_1
I0715 10:14:47.401924 12918 net.cpp:380] score_pool3-new-R -> score_pool3-new-R
I0715 10:14:47.403919 12918 net.cpp:122] Setting up score_pool3-new-R
I0715 10:14:47.403933 12918 net.cpp:129] Top shape: 1 3 89 51 (13617)
I0715 10:14:47.403951 12918 net.cpp:137] Memory required for data: 1404130060
I0715 10:14:47.403959 12918 layer_factory.hpp:77] Creating layer score_pool3c-R
I0715 10:14:47.403965 12918 net.cpp:84] Creating Layer score_pool3c-R
I0715 10:14:47.403970 12918 net.cpp:406] score_pool3c-R <- score_pool3-new-R
I0715 10:14:47.403975 12918 net.cpp:406] score_pool3c-R <- upscore_pool4-new-R_upscore_pool4-new-R_0_split_0
I0715 10:14:47.403981 12918 net.cpp:380] score_pool3c-R -> score_pool3c-R
I0715 10:14:47.404042 12918 net.cpp:122] Setting up score_pool3c-R
I0715 10:14:47.404047 12918 net.cpp:129] Top shape: 1 3 74 34 (7548)
I0715 10:14:47.404050 12918 net.cpp:137] Memory required for data: 1404160252
I0715 10:14:47.404053 12918 layer_factory.hpp:77] Creating layer fuse_pool3-R
I0715 10:14:47.404060 12918 net.cpp:84] Creating Layer fuse_pool3-R
I0715 10:14:47.404064 12918 net.cpp:406] fuse_pool3-R <- upscore_pool4-new-R_upscore_pool4-new-R_0_split_1
I0715 10:14:47.404069 12918 net.cpp:406] fuse_pool3-R <- score_pool3c-R
I0715 10:14:47.404075 12918 net.cpp:380] fuse_pool3-R -> fuse_pool3-R
I0715 10:14:47.404114 12918 net.cpp:122] Setting up fuse_pool3-R
I0715 10:14:47.404119 12918 net.cpp:129] Top shape: 1 3 74 34 (7548)
I0715 10:14:47.404122 12918 net.cpp:137] Memory required for data: 1404190444
I0715 10:14:47.404125 12918 layer_factory.hpp:77] Creating layer upscore8-new-R
I0715 10:14:47.404150 12918 net.cpp:84] Creating Layer upscore8-new-R
I0715 10:14:47.404153 12918 net.cpp:406] upscore8-new-R <- fuse_pool3-R
I0715 10:14:47.404160 12918 net.cpp:380] upscore8-new-R -> upscore8-new-R
I0715 10:14:47.404568 12918 net.cpp:122] Setting up upscore8-new-R
I0715 10:14:47.404577 12918 net.cpp:129] Top shape: 1 3 600 280 (504000)
I0715 10:14:47.404597 12918 net.cpp:137] Memory required for data: 1406206444
I0715 10:14:47.404601 12918 layer_factory.hpp:77] Creating layer upscore8_cropped-R
I0715 10:14:47.404608 12918 net.cpp:84] Creating Layer upscore8_cropped-R
I0715 10:14:47.404611 12918 net.cpp:406] upscore8_cropped-R <- upscore8-new-R
I0715 10:14:47.404618 12918 net.cpp:406] upscore8_cropped-R <- data-R_crop_0_split_1
I0715 10:14:47.404623 12918 net.cpp:380] upscore8_cropped-R -> upscore8_cropped-R
I0715 10:14:47.404662 12918 net.cpp:122] Setting up upscore8_cropped-R
I0715 10:14:47.404669 12918 net.cpp:129] Top shape: 1 3 512 210 (322560)
I0715 10:14:47.404671 12918 net.cpp:137] Memory required for data: 1407496684
I0715 10:14:47.404675 12918 layer_factory.hpp:77] Creating layer upscore8_uncropped-R
I0715 10:14:47.404790 12918 net.cpp:84] Creating Layer upscore8_uncropped-R
I0715 10:14:47.404798 12918 net.cpp:406] upscore8_uncropped-R <- crop_info
I0715 10:14:47.404803 12918 net.cpp:406] upscore8_uncropped-R <- upscore8_cropped-R
I0715 10:14:47.404808 12918 net.cpp:406] upscore8_uncropped-R <- data_data_0_split_3
I0715 10:14:47.404814 12918 net.cpp:380] upscore8_uncropped-R -> upscore8_uncropped-R
I0715 10:14:47.406783 12918 net.cpp:122] Setting up upscore8_uncropped-R
I0715 10:14:47.406797 12918 net.cpp:129] Top shape: 1 3 512 210 (322560)
I0715 10:14:47.406817 12918 net.cpp:137] Memory required for data: 1408786924
I0715 10:14:47.406821 12918 layer_factory.hpp:77] Creating layer loss1
I0715 10:14:47.406831 12918 net.cpp:84] Creating Layer loss1
I0715 10:14:47.406834 12918 net.cpp:406] loss1 <- upscore8_cropped_upscore8_cropped_0_split_1
I0715 10:14:47.406839 12918 net.cpp:406] loss1 <- label_data_1_split_1
I0715 10:14:47.406847 12918 net.cpp:380] loss1 -> loss1
…
