…
snapshot_prefix: "/media/Med_2T2/data2/models/snapshots/indiv:1e-5x10,20/FD1:YI3_1_20180715_091943/train"
test_initialization: false
average_loss: 20
stepvalue: 40000
iter_size: 1
I0715 12:54:01.278225 13412 solver.cpp:77] Creating training net from train_net file: /media/Med_2T2/data2/prototxts/training_S3x10.prototxt
I0715 12:54:01.281008 13412 net.cpp:51] Initializing net from parameters: 
state {
  phase: TRAIN
}
layer {
  name: "data"
  type: "Python"
  top: "data"
  top: "label"
  top: "crop_margin"
  top: "crop_prob"
  top: "crop_sample_batch"
  python_param {
    module: "Data"
    layer: "DataLayer"
  }
}
layer {
  name: "conv1_1"
  type: "Convolution"
  bottom: "data"
  top: "conv1_1"
  param {
    lr_mult: 1
    decay_mult: 1
  }
  param {
    lr_mult: 2
    decay_mult: 0
  }
  convolution_param {
    num_output: 64
    pad: 100
    kernel_size: 3
    stride: 1
  }
}
layer {
  name: "relu1_1"
  type: "ReLU"
  bottom: "conv1_1"
  top: "conv1_1"
}
layer {
  name: "conv1_2"
  type: "Convolution"
  bottom: "conv1_1"
  top: "conv1_2"
  param {
    lr_mult: 1
    decay_mult: 1
  }
  param {
    lr_mult: 2
    decay_mult: 0
  }
  convolution_param {
    num_output: 64
    pad: 1
    kernel_size: 3
    stride: 1
  }
}
layer {
  name: "relu1_2"
  type: "ReLU"
  bottom: "conv1_2"
  top: "conv1_2"
}
layer {
  name: "pool1"
  type: "Pooling"
  bottom: "conv1_2"
  top: "pool1"
  pooling_param {
    pool: MAX
    kernel_size: 2
    stride: 2
  }
}
layer {
  name: "conv2_1"
  type: "Convolution"
  bottom: "pool1"
  top: "conv2_1"
  param {
    lr_mult: 1
    decay_mult: 1
  }
  param {
    lr_mult: 2
    decay_mult: 0
  }
  convolution_param {
    num_output: 128
    pad: 1
    kernel_size: 3
    stride: 1
  }
}
layer {
  name: "relu2_1"
  type: "ReLU"
  bottom: "conv2_1"
  top: "conv2_1"
}
layer {
  name: "conv2_2"
  type: "Convolution"
  bottom: "conv2_1"
  top: "conv2_2"
  param {
    lr_mult: 1
    decay_mult: 1
  }
  param {
    lr_mult: 2
    decay_mult: 0
  }
  convolution_param {
    num_output: 128
    pad: 1
    kernel_size: 3
    stride: 1
  }
}
layer {
  name: "relu2_2"
  type: "ReLU"
  bottom: "conv2_2"
  top: "conv2_2"
}
layer {
  name: "pool2"
  type: "Pooling"
  bottom: "conv2_2"
  top: "pool2"
  pooling_param {
    pool: MAX
    kernel_size: 2
    stride: 2
  }
}
layer {
  name: "conv3_1"
  type: "Convolution"
  bottom: "pool2"
  top: "conv3_1"
  param {
    lr_mult: 1
    decay_mult: 1
  }
  param {
    lr_mult: 2
    decay_mult: 0
  }
  convolution_param {
    num_output: 256
    pad: 1
    kernel_size: 3
    stride: 1
  }
}
layer {
  name: "relu3_1"
  type: "ReLU"
  bottom: "conv3_1"
  top: "conv3_1"
}
layer {
  name: "conv3_2"
  type: "Convolution"
  bottom: "conv3_1"
  top: "conv3_2"
  param {
    lr_mult: 1
    decay_mult: 1
  }
  param {
    lr_mult: 2
    decay_mult: 0
  }
  convolution_param {
    num_output: 256
    pad: 1
    kernel_size: 3
    stride: 1
  }
}
layer {
  name: "relu3_2"
  type: "ReLU"
  bottom: "conv3_2"
  top: "conv3_2"
}
layer {
  name: "conv3_3"
  type: "Convolution"
  bottom: "conv3_2"
  top: "conv3_3"
  param {
    lr_mult: 1
    decay_mult: 1
  }
  param {
    lr_mult: 2
    decay_mult: 0
  }
  convolution_param {
    num_output: 256
    pad: 1
    kernel_size: 3
    stride: 1
  }
}
layer {
  name: "relu3_3"
  type: "ReLU"
  bottom: "conv3_3"
  top: "conv3_3"
}
layer {
  name: "pool3"
  type: "Pooling"
  bottom: "conv3_3"
  top: "pool3"
  pooling_param {
    pool: MAX
    kernel_size: 2
    stride: 2
  }
}
layer {
  name: "conv4_1"
  type: "Convolution"
  bottom: "pool3"
  top: "conv4_1"
  param {
    lr_mult: 1
    decay_mult: 1
  }
  param {
    lr_mult: 2
    decay_mult: 0
  }
  convolution_param {
    num_output: 512
    pad: 1
    kernel_size: 3
    stride: 1
  }
}
layer {
  name: "relu4_1"
  type: "ReLU"
  bottom: "conv4_1"
  top: "conv4_1"
}
layer {
  name: "conv4_2"
  type: "Convolution"
  bottom: "conv4_1"
  top: "conv4_2"
  param {
    lr_mult: 1
    decay_mult: 1
  }
  param {
    lr_mult: 2
    decay_mult: 0
  }
  convolution_param {
    num_output: 512
    pad: 1
    kernel_size: 3
    stride: 1
  }
}
layer {
  name: "relu4_2"
  type: "ReLU"
  bottom: "conv4_2"
  top: "conv4_2"
}
layer {
  name: "conv4_3"
  type: "Convolution"
  bottom: "conv4_2"
  top: "conv4_3"
  param {
    lr_mult: 1
    decay_mult: 1
  }
  param {
    lr_mult: 2
    decay_mult: 0
  }
  convolution_param {
    num_output: 512
    pad: 1
    kernel_size: 3
    stride: 1
  }
}
layer {
  name: "relu4_3"
  type: "ReLU"
  bottom: "conv4_3"
  top: "conv4_3"
}
layer {
  name: "pool4"
  type: "Pooling"
  bottom: "conv4_3"
  top: "pool4"
  pooling_param {
    pool: MAX
    kernel_size: 2
    stride: 2
  }
}
layer {
  name: "conv5_1"
  type: "Convolution"
  bottom: "pool4"
  top: "conv5_1"
  param {
    lr_mult: 1
    decay_mult: 1
  }
  param {
    lr_mult: 2
    decay_mult: 0
  }
  convolution_param {
    num_output: 512
    pad: 1
    kernel_size: 3
    stride: 1
  }
}
layer {
  name: "relu5_1"
  type: "ReLU"
  bottom: "conv5_1"
  top: "conv5_1"
}
layer {
  name: "conv5_2"
  type: "Convolution"
  bottom: "conv5_1"
  top: "conv5_2"
  param {
    lr_mult: 1
    decay_mult: 1
  }
  param {
    lr_mult: 2
    decay_mult: 0
  }
  convolution_param {
    num_output: 512
    pad: 1
    kernel_size: 3
    stride: 1
  }
}
layer {
  name: "relu5_2"
  type: "ReLU"
  bottom: "conv5_2"
  top: "conv5_2"
}
layer {
  name: "conv5_3"
  type: "Convolution"
  bottom: "conv5_2"
  top: "conv5_3"
  param {
    lr_mult: 1
    decay_mult: 1
  }
  param {
    lr_mult: 2
    decay_mult: 0
  }
  convolution_param {
    num_output: 512
    pad: 1
    kernel_size: 3
    stride: 1
  }
}
layer {
  name: "relu5_3"
  type: "ReLU"
  bottom: "conv5_3"
  top: "conv5_3"
}
layer {
  name: "pool5"
  type: "Pooling"
  bottom: "conv5_3"
  top: "pool5"
  pooling_param {
    pool: MAX
    kernel_size: 2
    stride: 2
  }
}
layer {
  name: "fc6"
  type: "Convolution"
  bottom: "pool5"
  top: "fc6"
  param {
    lr_mult: 1
    decay_mult: 1
  }
  param {
    lr_mult: 2
    decay_mult: 0
  }
  convolution_param {
    num_output: 4096
    pad: 0
    kernel_size: 7
    stride: 1
  }
}
layer {
  name: "relu6"
  type: "ReLU"
  bottom: "fc6"
  top: "fc6"
}
layer {
  name: "drop6"
  type: "Dropout"
  bottom: "fc6"
  top: "fc6"
  dropout_param {
    dropout_ratio: 0.5
  }
}
layer {
  name: "fc7"
  type: "Convolution"
  bottom: "fc6"
  top: "fc7"
  param {
    lr_mult: 1
    decay_mult: 1
  }
  param {
    lr_mult: 2
    decay_mult: 0
  }
  convolution_param {
    num_output: 4096
    pad: 0
    kernel_size: 1
    stride: 1
  }
}
layer {
  name: "relu7"
  type: "ReLU"
  bottom: "fc7"
  top: "fc7"
}
layer {
  name: "drop7"
  type: "Dropout"
  bottom: "fc7"
  top: "fc7"
  dropout_param {
    dropout_ratio: 0.5
  }
}
layer {
  name: "score_fr-new"
  type: "Convolution"
  bottom: "fc7"
  top: "score_fr-new"
  param {
    lr_mult: 1
    decay_mult: 1
  }
  param {
    lr_mult: 2
    decay_mult: 0
  }
  convolution_param {
    num_output: 3
    kernel_size: 1
  }
}
layer {
  name: "upscore2-new"
  type: "Deconvolution"
  bottom: "score_fr-new"
  top: "upscore2-new"
  param {
    lr_mult: 0
  }
  convolution_param {
    num_output: 3
    bias_term: false
    kernel_size: 4
    stride: 2
  }
}
layer {
  name: "score_pool4-new"
  type: "Convolution"
  bottom: "pool4"
  top: "score_pool4-new"
  param {
    lr_mult: 1
    decay_mult: 1
  }
  param {
    lr_mult: 2
    decay_mult: 0
  }
  convolution_param {
    num_output: 3
    pad: 0
    kernel_size: 1
  }
}
layer {
  name: "score_pool4c"
  type: "Crop"
  bottom: "score_pool4-new"
  bottom: "upscore2-new"
  top: "score_pool4c"
  crop_param {
    axis: 2
    offset: 5
  }
}
layer {
  name: "fuse_pool4"
  type: "Eltwise"
  bottom: "upscore2-new"
  bottom: "score_pool4c"
  top: "fuse_pool4"
  eltwise_param {
    operation: SUM
  }
}
layer {
  name: "upscore_pool4-new"
  type: "Deconvolution"
  bottom: "fuse_pool4"
  top: "upscore_pool4-new"
  param {
    lr_mult: 0
  }
  convolution_param {
    num_output: 3
    bias_term: false
    kernel_size: 4
    stride: 2
  }
}
layer {
  name: "score_pool3-new"
  type: "Convolution"
  bottom: "pool3"
  top: "score_pool3-new"
  param {
    lr_mult: 1
    decay_mult: 1
  }
  param {
    lr_mult: 2
    decay_mult: 0
  }
  convolution_param {
    num_output: 3
    pad: 0
    kernel_size: 1
  }
}
layer {
  name: "score_pool3c"
  type: "Crop"
  bottom: "score_pool3-new"
  bottom: "upscore_pool4-new"
  top: "score_pool3c"
  crop_param {
    axis: 2
    offset: 9
  }
}
layer {
  name: "fuse_pool3"
  type: "Eltwise"
  bottom: "upscore_pool4-new"
  bottom: "score_pool3c"
  top: "fuse_pool3"
  eltwise_param {
    operation: SUM
  }
}
layer {
  name: "upscore8-new"
  type: "Deconvolution"
  bottom: "fuse_pool3"
  top: "upscore8-new"
  param {
    lr_mult: 0
  }
  convolution_param {
    num_output: 3
    bias_term: false
    kernel_size: 16
    stride: 8
  }
}
layer {
  name: "upscore8_cropped"
  type: "Crop"
  bottom: "upscore8-new"
  bottom: "data"
  top: "upscore8_cropped"
  crop_param {
    axis: 2
    offset: 31
  }
}
layer {
  name: "prob"
  type: "Sigmoid"
  bottom: "upscore8_cropped"
  top: "prob"
}
layer {
  name: "saliency1"
  type: "Convolution"
  bottom: "prob"
  top: "saliency1"
  param {
    lr_mult: 10
    decay_mult: 1
  }
  param {
    lr_mult: 20
    decay_mult: 0
  }
  convolution_param {
    num_output: 3
    pad: 1
    kernel_size: 3
    stride: 1
    weight_filler {
      type: "xavier"
    }
    bias_filler {
      type: "constant"
      value: 1
    }
  }
}
layer {
  name: "relu_saliency1"
  type: "ReLU"
  bottom: "saliency1"
  top: "saliency1"
}
layer {
  name: "saliency"
  type: "Convolution"
  bottom: "saliency1"
  top: "saliency"
  param {
    lr_mult: 10
    decay_mult: 1
  }
  param {
    lr_mult: 20
    decay_mult: 0
  }
  convolution_param {
    num_output: 3
    pad: 2
    kernel_size: 5
    stride: 1
    weight_filler {
      type: "xavier"
    }
    bias_filler {
      type: "constant"
      value: 1
    }
  }
}
layer {
  name: "silence_saliency"
  type: "Silence"
  bottom: "saliency"
}
layer {
  name: "crop"
  type: "Python"
  bottom: "label"
  bottom: "data"
  bottom: "crop_margin"
  bottom: "crop_prob"
  bottom: "crop_sample_batch"
  top: "data-R"
  top: "crop_info"
  python_param {
    module: "Crop"
    layer: "CropLayer"
    param_str: "{\"TEST\": 0}"
  }
}
layer {
  name: "conv1_1-R"
  type: "Convolution"
  bottom: "data-R"
  top: "conv1_1-R"
  param {
    lr_mult: 10
    decay_mult: 1
  }
  param {
    lr_mult: 20
    decay_mult: 0
  }
  convolution_param {
    num_output: 64
    pad: 100
    kernel_size: 3
    stride: 1
  }
}
layer {
  name: "relu1_1-R"
  type: "ReLU"
  bottom: "conv1_1-R"
  top: "conv1_1-R"
}
layer {
  name: "conv1_2-R"
  type: "Convolution"
  bottom: "conv1_1-R"
  top: "conv1_2-R"
  param {
    lr_mult: 10
    decay_mult: 1
  }
  param {
    lr_mult: 20
    decay_mult: 0
  }
  convolution_param {
    num_output: 64
    pad: 1
    kernel_size: 3
    stride: 1
  }
}
layer {
  name: "relu1_2-R"
  type: "ReLU"
  bottom: "conv1_2-R"
  top: "conv1_2-R"
}
layer {
  name: "pool1-R"
  type: "Pooling"
  bottom: "conv1_2-R"
  top: "pool1-R"
  pooling_param {
    pool: MAX
    kernel_size: 2
    stride: 2
  }
}
layer {
  name: "conv2_1-R"
  type: "Convolution"
  bottom: "pool1-R"
  top: "conv2_1-R"
  param {
    lr_mult: 10
    decay_mult: 1
  }
  param {
    lr_mult: 20
    decay_mult: 0
  }
  convolution_param {
    num_output: 128
    pad: 1
    kernel_size: 3
    stride: 1
  }
}
layer {
  name: "relu2_1-R"
  type: "ReLU"
  bottom: "conv2_1-R"
  top: "conv2_1-R"
}
layer {
  name: "conv2_2-R"
  type: "Convolution"
  bottom: "conv2_1-R"
  top: "conv2_2-R"
  param {
    lr_mult: 10
    decay_mult: 1
  }
  param {
    lr_mult: 20
    decay_mult: 0
  }
  convolution_param {
    num_output: 128
    pad: 1
    kernel_size: 3
    stride: 1
  }
}
layer {
  name: "relu2_2-R"
  type: "ReLU"
  bottom: "conv2_2-R"
  top: "conv2_2-R"
}
layer {
  name: "pool2-R"
  type: "Pooling"
  bottom: "conv2_2-R"
  top: "pool2-R"
  pooling_param {
    pool: MAX
    kernel_size: 2
    stride: 2
  }
}
layer {
  name: "conv3_1-R"
  type: "Convolution"
  bottom: "pool2-R"
  top: "conv3_1-R"
  param {
    lr_mult: 10
    decay_mult: 1
  }
  param {
    lr_mult: 20
    decay_mult: 0
  }
  convolution_param {
    num_output: 256
    pad: 1
    kernel_size: 3
    stride: 1
  }
}
layer {
  name: "relu3_1-R"
  type: "ReLU"
  bottom: "conv3_1-R"
  top: "conv3_1-R"
}
layer {
  name: "conv3_2-R"
  type: "Convolution"
  bottom: "conv3_1-R"
  top: "conv3_2-R"
  param {
    lr_mult: 10
    decay_mult: 1
  }
  param {
    lr_mult: 20
    decay_mult: 0
  }
  convolution_param {
    num_output: 256
    pad: 1
    kernel_size: 3
    stride: 1
  }
}
layer {
  name: "relu3_2-R"
  type: "ReLU"
  bottom: "conv3_2-R"
  top: "conv3_2-R"
}
layer {
  name: "conv3_3-R"
  type: "Convolution"
  bottom: "conv3_2-R"
  top: "conv3_3-R"
  param {
    lr_mult: 10
    decay_mult: 1
  }
  param {
    lr_mult: 20
    decay_mult: 0
  }
  convolution_param {
    num_output: 256
    pad: 1
    kernel_size: 3
    stride: 1
  }
}
layer {
  name: "relu3_3-R"
  type: "ReLU"
  bottom: "conv3_3-R"
  top: "conv3_3-R"
}
layer {
  name: "pool3-R"
  type: "Pooling"
  bottom: "conv3_3-R"
  top: "pool3-R"
  pooling_param {
    pool: MAX
    kernel_size: 2
    stride: 2
  }
}
layer {
  name: "conv4_1-R"
  type: "Convolution"
  bottom: "pool3-R"
  top: "conv4_1-R"
  param {
    lr_mult: 10
    decay_mult: 1
  }
  param {
    lr_mult: 20
    decay_mult: 0
  }
  convolution_param {
    num_output: 512
    pad: 1
    kernel_size: 3
    stride: 1
  }
}
layer {
  name: "relu4_1-R"
  type: "ReLU"
  bottom: "conv4_1-R"
  top: "conv4_1-R"
}
layer {
  name: "conv4_2-R"
  type: "Convolution"
  bottom: "conv4_1-R"
  top: "conv4_2-R"
  param {
    lr_mult: 10
    decay_mult: 1
  }
  param {
    lr_mult: 20
    decay_mult: 0
  }
  convolution_param {
    num_output: 512
    pad: 1
    kernel_size: 3
    stride: 1
  }
}
layer {
  name: "relu4_2-R"
  type: "ReLU"
  bottom: "conv4_2-R"
  top: "conv4_2-R"
}
layer {
  name: "conv4_3-R"
  type: "Convolution"
  bottom: "conv4_2-R"
  top: "conv4_3-R"
  param {
    lr_mult: 10
    decay_mult: 1
  }
  param {
    lr_mult: 20
    decay_mult: 0
  }
  convolution_param {
    num_output: 512
    pad: 1
    kernel_size: 3
    stride: 1
  }
}
layer {
  name: "relu4_3-R"
  type: "ReLU"
  bottom: "conv4_3-R"
  top: "conv4_3-R"
}
layer {
  name: "pool4-R"
  type: "Pooling"
  bottom: "conv4_3-R"
  top: "pool4-R"
  pooling_param {
    pool: MAX
    kernel_size: 2
    stride: 2
  }
}
layer {
  name: "conv5_1-R"
  type: "Convolution"
  bottom: "pool4-R"
  top: "conv5_1-R"
  param {
    lr_mult: 10
    decay_mult: 1
  }
  param {
    lr_mult: 20
    decay_mult: 0
  }
  convolution_param {
    num_output: 512
    pad: 1
    kernel_size: 3
    stride: 1
  }
}
layer {
  name: "relu5_1-R"
  type: "ReLU"
  bottom: "conv5_1-R"
  top: "conv5_1-R"
}
layer {
  name: "conv5_2-R"
  type: "Convolution"
  bottom: "conv5_1-R"
  top: "conv5_2-R"
  param {
    lr_mult: 10
    decay_mult: 1
  }
  param {
    lr_mult: 20
    decay_mult: 0
  }
  convolution_param {
    num_output: 512
    pad: 1
    kernel_size: 3
    stride: 1
  }
}
layer {
  name: "relu5_2-R"
  type: "ReLU"
  bottom: "conv5_2-R"
  top: "conv5_2-R"
}
layer {
  name: "conv5_3-R"
  type: "Convolution"
  bottom: "conv5_2-R"
  top: "conv5_3-R"
  param {
    lr_mult: 10
    decay_mult: 1
  }
  param {
    lr_mult: 20
    decay_mult: 0
  }
  convolution_param {
    num_output: 512
    pad: 1
    kernel_size: 3
    stride: 1
  }
}
layer {
  name: "relu5_3-R"
  type: "ReLU"
  bottom: "conv5_3-R"
  top: "conv5_3-R"
}
layer {
  name: "pool5-R"
  type: "Pooling"
  bottom: "conv5_3-R"
  top: "pool5-R"
  pooling_param {
    pool: MAX
    kernel_size: 2
    stride: 2
  }
}
layer {
  name: "fc6-R"
  type: "Convolution"
  bottom: "pool5-R"
  top: "fc6-R"
  param {
    lr_mult: 10
    decay_mult: 1
  }
  param {
    lr_mult: 20
    decay_mult: 0
  }
  convolution_param {
    num_output: 4096
    pad: 0
    kernel_size: 7
    stride: 1
  }
}
layer {
  name: "relu6-R"
  type: "ReLU"
  bottom: "fc6-R"
  top: "fc6-R"
}
layer {
  name: "drop6-R"
  type: "Dropout"
  bottom: "fc6-R"
  top: "fc6-R"
  dropout_param {
    dropout_ratio: 0.5
  }
}
layer {
  name: "fc7-R"
  type: "Convolution"
  bottom: "fc6-R"
  top: "fc7-R"
  param {
    lr_mult: 10
    decay_mult: 1
  }
  param {
    lr_mult: 20
    decay_mult: 0
  }
  convolution_param {
    num_output: 4096
    pad: 0
    kernel_size: 1
    stride: 1
  }
}
layer {
  name: "relu7-R"
  type: "ReLU"
  bottom: "fc7-R"
  top: "fc7-R"
}
layer {
  name: "drop7-R"
  type: "Dropout"
  bottom: "fc7-R"
  top: "fc7-R"
  dropout_param {
    dropout_ratio: 0.5
  }
}
layer {
  name: "score_fr-new-R"
  type: "Convolution"
  bottom: "fc7-R"
  top: "score_fr-new-R"
  param {
    lr_mult: 10
    decay_mult: 1
  }
  param {
    lr_mult: 20
    decay_mult: 0
  }
  convolution_param {
    num_output: 3
    kernel_size: 1
  }
}
layer {
  name: "upscore2-new-R"
  type: "Deconvolution"
  bottom: "score_fr-new-R"
  top: "upscore2-new-R"
  param {
    lr_mult: 0
  }
  convolution_param {
    num_output: 3
    bias_term: false
    kernel_size: 4
    stride: 2
  }
}
layer {
  name: "score_pool4-new-R"
  type: "Convolution"
  bottom: "pool4-R"
  top: "score_pool4-new-R"
  param {
    lr_mult: 10
    decay_mult: 1
  }
  param {
    lr_mult: 20
    decay_mult: 0
  }
  convolution_param {
    num_output: 3
    pad: 0
    kernel_size: 1
  }
}
layer {
  name: "score_pool4c-R"
  type: "Crop"
  bottom: "score_pool4-new-R"
  bottom: "upscore2-new-R"
  top: "score_pool4c-R"
  crop_param {
    axis: 2
    offset: 5
  }
}
layer {
  name: "fuse_pool4-R"
  type: "Eltwise"
  bottom: "upscore2-new-R"
  bottom: "score_pool4c-R"
  top: "fuse_pool4-R"
  eltwise_param {
    operation: SUM
  }
}
layer {
  name: "upscore_pool4-new-R"
  type: "Deconvolution"
  bottom: "fuse_pool4-R"
  top: "upscore_pool4-new-R"
  param {
    lr_mult: 0
  }
  convolution_param {
    num_output: 3
    bias_term: false
    kernel_size: 4
    stride: 2
  }
}
layer {
  name: "score_pool3-new-R"
  type: "Convolution"
  bottom: "pool3-R"
  top: "score_pool3-new-R"
  param {
    lr_mult: 10
    decay_mult: 1
  }
  param {
    lr_mult: 20
    decay_mult: 0
  }
  convolution_param {
    num_output: 3
    pad: 0
    kernel_size: 1
  }
}
layer {
  name: "score_pool3c-R"
  type: "Crop"
  bottom: "score_pool3-new-R"
  bottom: "upscore_pool4-new-R"
  top: "score_pool3c-R"
  crop_param {
    axis: 2
    offset: 9
  }
}
layer {
  name: "fuse_pool3-R"
  type: "Eltwise"
  bottom: "upscore_pool4-new-R"
  bottom: "score_pool3c-R"
  top: "fuse_pool3-R"
  eltwise_param {
    operation: SUM
  }
}
layer {
  name: "upscore8-new-R"
  type: "Deconvolution"
  bottom: "fuse_pool3-R"
  top: "upscore8-new-R"
  param {
    lr_mult: 0
  }
  convolution_param {
    num_output: 3
    bias_term: false
    kernel_size: 16
    stride: 8
  }
}
layer {
  name: "upscore8_cropped-R"
  type: "Crop"
  bottom: "upscore8-new-R"
  bottom: "data-R"
  top: "upscore8_cropped-R"
  crop_param {
    axis: 2
    offset: 31
  }
}
layer {
  name: "upscore8_uncropped-R"
  type: "Python"
  bottom: "crop_info"
  bottom: "upscore8_cropped-R"
  bottom: "data"
  top: "upscore8_uncropped-R"
  python_param {
    module: "Uncrop"
    layer: "UncropLayer"
  }
}
layer {
  name: "loss1"
  type: "DiceLoss"
  bottom: "upscore8_cropped"
  bottom: "label"
  top: "loss1"
  loss_weight: 0.333333
}
layer {
  name: "loss2"
  type: "DiceLoss"
  bottom: "upscore8_uncropped-R"
  bottom: "label"
  top: "loss2"
  loss_weight: 0.666667
}
I0715 12:54:01.281574 13412 layer_factory.hpp:77] Creating layer data
I0715 12:54:01.281983 13412 net.cpp:84] Creating Layer data
I0715 12:54:01.281999 13412 net.cpp:380] data -> data
I0715 12:54:01.282017 13412 net.cpp:380] data -> label
I0715 12:54:01.282025 13412 net.cpp:380] data -> crop_margin
I0715 12:54:01.282032 13412 net.cpp:380] data -> crop_prob
I0715 12:54:01.282039 13412 net.cpp:380] data -> crop_sample_batch
I0715 12:54:01.484344 13412 net.cpp:122] Setting up data
I0715 12:54:01.484426 13412 net.cpp:129] Top shape: 1 3 512 310 (476160)
I0715 12:54:01.484433 13412 net.cpp:129] Top shape: 1 3 512 310 (476160)
I0715 12:54:01.484441 13412 net.cpp:129] Top shape: 1 (1)
I0715 12:54:01.484447 13412 net.cpp:129] Top shape: 1 (1)
I0715 12:54:01.484452 13412 net.cpp:129] Top shape: 1 (1)
I0715 12:54:01.484455 13412 net.cpp:137] Memory required for data: 3809292
I0715 12:54:01.484465 13412 layer_factory.hpp:77] Creating layer data_data_0_split
I0715 12:54:01.484506 13412 net.cpp:84] Creating Layer data_data_0_split
I0715 12:54:01.484513 13412 net.cpp:406] data_data_0_split <- data
I0715 12:54:01.484529 13412 net.cpp:380] data_data_0_split -> data_data_0_split_0
I0715 12:54:01.484541 13412 net.cpp:380] data_data_0_split -> data_data_0_split_1
I0715 12:54:01.484549 13412 net.cpp:380] data_data_0_split -> data_data_0_split_2
I0715 12:54:01.484555 13412 net.cpp:380] data_data_0_split -> data_data_0_split_3
I0715 12:54:01.484617 13412 net.cpp:122] Setting up data_data_0_split
I0715 12:54:01.484639 13412 net.cpp:129] Top shape: 1 3 512 310 (476160)
I0715 12:54:01.484645 13412 net.cpp:129] Top shape: 1 3 512 310 (476160)
I0715 12:54:01.484650 13412 net.cpp:129] Top shape: 1 3 512 310 (476160)
I0715 12:54:01.484655 13412 net.cpp:129] Top shape: 1 3 512 310 (476160)
I0715 12:54:01.484660 13412 net.cpp:137] Memory required for data: 11427852
I0715 12:54:01.484666 13412 layer_factory.hpp:77] Creating layer label_data_1_split
I0715 12:54:01.484673 13412 net.cpp:84] Creating Layer label_data_1_split
I0715 12:54:01.484678 13412 net.cpp:406] label_data_1_split <- label
I0715 12:54:01.484683 13412 net.cpp:380] label_data_1_split -> label_data_1_split_0
I0715 12:54:01.484690 13412 net.cpp:380] label_data_1_split -> label_data_1_split_1
I0715 12:54:01.484697 13412 net.cpp:380] label_data_1_split -> label_data_1_split_2
I0715 12:54:01.484737 13412 net.cpp:122] Setting up label_data_1_split
I0715 12:54:01.484743 13412 net.cpp:129] Top shape: 1 3 512 310 (476160)
I0715 12:54:01.484748 13412 net.cpp:129] Top shape: 1 3 512 310 (476160)
I0715 12:54:01.484753 13412 net.cpp:129] Top shape: 1 3 512 310 (476160)
I0715 12:54:01.484757 13412 net.cpp:137] Memory required for data: 17141772
I0715 12:54:01.484761 13412 layer_factory.hpp:77] Creating layer conv1_1
I0715 12:54:01.484791 13412 net.cpp:84] Creating Layer conv1_1
I0715 12:54:01.484797 13412 net.cpp:406] conv1_1 <- data_data_0_split_0
I0715 12:54:01.484803 13412 net.cpp:380] conv1_1 -> conv1_1
I0715 12:54:01.908707 13412 net.cpp:122] Setting up conv1_1
I0715 12:54:01.908778 13412 net.cpp:129] Top shape: 1 64 710 508 (23083520)
I0715 12:54:01.908784 13412 net.cpp:137] Memory required for data: 109475852
I0715 12:54:01.908820 13412 layer_factory.hpp:77] Creating layer relu1_1
I0715 12:54:01.908872 13412 net.cpp:84] Creating Layer relu1_1
I0715 12:54:01.908879 13412 net.cpp:406] relu1_1 <- conv1_1
I0715 12:54:01.908887 13412 net.cpp:367] relu1_1 -> conv1_1 (in-place)
I0715 12:54:01.909118 13412 net.cpp:122] Setting up relu1_1
I0715 12:54:01.909132 13412 net.cpp:129] Top shape: 1 64 710 508 (23083520)
I0715 12:54:01.909137 13412 net.cpp:137] Memory required for data: 201809932
I0715 12:54:01.909140 13412 layer_factory.hpp:77] Creating layer conv1_2
I0715 12:54:01.909154 13412 net.cpp:84] Creating Layer conv1_2
I0715 12:54:01.909159 13412 net.cpp:406] conv1_2 <- conv1_1
I0715 12:54:01.909166 13412 net.cpp:380] conv1_2 -> conv1_2
I0715 12:54:01.919950 13412 net.cpp:122] Setting up conv1_2
I0715 12:54:01.919989 13412 net.cpp:129] Top shape: 1 64 710 508 (23083520)
I0715 12:54:01.919996 13412 net.cpp:137] Memory required for data: 294144012
I0715 12:54:01.920012 13412 layer_factory.hpp:77] Creating layer relu1_2
I0715 12:54:01.920023 13412 net.cpp:84] Creating Layer relu1_2
I0715 12:54:01.920028 13412 net.cpp:406] relu1_2 <- conv1_2
I0715 12:54:01.920037 13412 net.cpp:367] relu1_2 -> conv1_2 (in-place)
I0715 12:54:01.920279 13412 net.cpp:122] Setting up relu1_2
I0715 12:54:01.920295 13412 net.cpp:129] Top shape: 1 64 710 508 (23083520)
I0715 12:54:01.920300 13412 net.cpp:137] Memory required for data: 386478092
I0715 12:54:01.920305 13412 layer_factory.hpp:77] Creating layer pool1
I0715 12:54:01.920317 13412 net.cpp:84] Creating Layer pool1
I0715 12:54:01.920322 13412 net.cpp:406] pool1 <- conv1_2
I0715 12:54:01.920331 13412 net.cpp:380] pool1 -> pool1
I0715 12:54:01.920393 13412 net.cpp:122] Setting up pool1
I0715 12:54:01.920400 13412 net.cpp:129] Top shape: 1 64 355 254 (5770880)
I0715 12:54:01.920405 13412 net.cpp:137] Memory required for data: 409561612
I0715 12:54:01.920409 13412 layer_factory.hpp:77] Creating layer conv2_1
I0715 12:54:01.920423 13412 net.cpp:84] Creating Layer conv2_1
I0715 12:54:01.920428 13412 net.cpp:406] conv2_1 <- pool1
I0715 12:54:01.920437 13412 net.cpp:380] conv2_1 -> conv2_1
I0715 12:54:01.922646 13412 net.cpp:122] Setting up conv2_1
I0715 12:54:01.922678 13412 net.cpp:129] Top shape: 1 128 355 254 (11541760)
I0715 12:54:01.922684 13412 net.cpp:137] Memory required for data: 455728652
I0715 12:54:01.922698 13412 layer_factory.hpp:77] Creating layer relu2_1
I0715 12:54:01.922709 13412 net.cpp:84] Creating Layer relu2_1
I0715 12:54:01.922714 13412 net.cpp:406] relu2_1 <- conv2_1
I0715 12:54:01.922722 13412 net.cpp:367] relu2_1 -> conv2_1 (in-place)
I0715 12:54:01.922951 13412 net.cpp:122] Setting up relu2_1
I0715 12:54:01.922966 13412 net.cpp:129] Top shape: 1 128 355 254 (11541760)
I0715 12:54:01.922971 13412 net.cpp:137] Memory required for data: 501895692
I0715 12:54:01.922977 13412 layer_factory.hpp:77] Creating layer conv2_2
I0715 12:54:01.922989 13412 net.cpp:84] Creating Layer conv2_2
I0715 12:54:01.922994 13412 net.cpp:406] conv2_2 <- conv2_1
I0715 12:54:01.923003 13412 net.cpp:380] conv2_2 -> conv2_2
I0715 12:54:01.928486 13412 net.cpp:122] Setting up conv2_2
I0715 12:54:01.928529 13412 net.cpp:129] Top shape: 1 128 355 254 (11541760)
I0715 12:54:01.928539 13412 net.cpp:137] Memory required for data: 548062732
I0715 12:54:01.928555 13412 layer_factory.hpp:77] Creating layer relu2_2
I0715 12:54:01.928573 13412 net.cpp:84] Creating Layer relu2_2
I0715 12:54:01.928582 13412 net.cpp:406] relu2_2 <- conv2_2
I0715 12:54:01.928593 13412 net.cpp:367] relu2_2 -> conv2_2 (in-place)
I0715 12:54:01.928956 13412 net.cpp:122] Setting up relu2_2
I0715 12:54:01.928984 13412 net.cpp:129] Top shape: 1 128 355 254 (11541760)
I0715 12:54:01.929002 13412 net.cpp:137] Memory required for data: 594229772
I0715 12:54:01.929009 13412 layer_factory.hpp:77] Creating layer pool2
I0715 12:54:01.929026 13412 net.cpp:84] Creating Layer pool2
I0715 12:54:01.929034 13412 net.cpp:406] pool2 <- conv2_2
I0715 12:54:01.929045 13412 net.cpp:380] pool2 -> pool2
I0715 12:54:01.929126 13412 net.cpp:122] Setting up pool2
I0715 12:54:01.929141 13412 net.cpp:129] Top shape: 1 128 178 127 (2893568)
I0715 12:54:01.929148 13412 net.cpp:137] Memory required for data: 605804044
I0715 12:54:01.929157 13412 layer_factory.hpp:77] Creating layer conv3_1
I0715 12:54:01.929172 13412 net.cpp:84] Creating Layer conv3_1
I0715 12:54:01.929179 13412 net.cpp:406] conv3_1 <- pool2
I0715 12:54:01.929193 13412 net.cpp:380] conv3_1 -> conv3_1
I0715 12:54:01.937849 13412 net.cpp:122] Setting up conv3_1
I0715 12:54:01.937886 13412 net.cpp:129] Top shape: 1 256 178 127 (5787136)
I0715 12:54:01.937894 13412 net.cpp:137] Memory required for data: 628952588
I0715 12:54:01.937914 13412 layer_factory.hpp:77] Creating layer relu3_1
I0715 12:54:01.937927 13412 net.cpp:84] Creating Layer relu3_1
I0715 12:54:01.937932 13412 net.cpp:406] relu3_1 <- conv3_1
I0715 12:54:01.937943 13412 net.cpp:367] relu3_1 -> conv3_1 (in-place)
I0715 12:54:01.938819 13412 net.cpp:122] Setting up relu3_1
I0715 12:54:01.938841 13412 net.cpp:129] Top shape: 1 256 178 127 (5787136)
I0715 12:54:01.938854 13412 net.cpp:137] Memory required for data: 652101132
I0715 12:54:01.938861 13412 layer_factory.hpp:77] Creating layer conv3_2
I0715 12:54:01.938875 13412 net.cpp:84] Creating Layer conv3_2
I0715 12:54:01.938882 13412 net.cpp:406] conv3_2 <- conv3_1
I0715 12:54:01.938894 13412 net.cpp:380] conv3_2 -> conv3_2
I0715 12:54:01.943428 13412 net.cpp:122] Setting up conv3_2
I0715 12:54:01.943464 13412 net.cpp:129] Top shape: 1 256 178 127 (5787136)
I0715 12:54:01.943470 13412 net.cpp:137] Memory required for data: 675249676
I0715 12:54:01.943481 13412 layer_factory.hpp:77] Creating layer relu3_2
I0715 12:54:01.943498 13412 net.cpp:84] Creating Layer relu3_2
I0715 12:54:01.943506 13412 net.cpp:406] relu3_2 <- conv3_2
I0715 12:54:01.943516 13412 net.cpp:367] relu3_2 -> conv3_2 (in-place)
I0715 12:54:01.948786 13412 net.cpp:122] Setting up relu3_2
I0715 12:54:01.948823 13412 net.cpp:129] Top shape: 1 256 178 127 (5787136)
I0715 12:54:01.948830 13412 net.cpp:137] Memory required for data: 698398220
I0715 12:54:01.948837 13412 layer_factory.hpp:77] Creating layer conv3_3
I0715 12:54:01.948858 13412 net.cpp:84] Creating Layer conv3_3
I0715 12:54:01.948863 13412 net.cpp:406] conv3_3 <- conv3_2
I0715 12:54:01.948875 13412 net.cpp:380] conv3_3 -> conv3_3
I0715 12:54:01.956516 13412 net.cpp:122] Setting up conv3_3
I0715 12:54:01.956558 13412 net.cpp:129] Top shape: 1 256 178 127 (5787136)
I0715 12:54:01.956567 13412 net.cpp:137] Memory required for data: 721546764
I0715 12:54:01.956590 13412 layer_factory.hpp:77] Creating layer relu3_3
I0715 12:54:01.956604 13412 net.cpp:84] Creating Layer relu3_3
I0715 12:54:01.956614 13412 net.cpp:406] relu3_3 <- conv3_3
I0715 12:54:01.956625 13412 net.cpp:367] relu3_3 -> conv3_3 (in-place)
I0715 12:54:01.957022 13412 net.cpp:122] Setting up relu3_3
I0715 12:54:01.957060 13412 net.cpp:129] Top shape: 1 256 178 127 (5787136)
I0715 12:54:01.957069 13412 net.cpp:137] Memory required for data: 744695308
I0715 12:54:01.957078 13412 layer_factory.hpp:77] Creating layer pool3
I0715 12:54:01.957094 13412 net.cpp:84] Creating Layer pool3
I0715 12:54:01.957103 13412 net.cpp:406] pool3 <- conv3_3
I0715 12:54:01.957113 13412 net.cpp:380] pool3 -> pool3
I0715 12:54:01.957223 13412 net.cpp:122] Setting up pool3
I0715 12:54:01.957253 13412 net.cpp:129] Top shape: 1 256 89 64 (1458176)
I0715 12:54:01.957260 13412 net.cpp:137] Memory required for data: 750528012
I0715 12:54:01.957268 13412 layer_factory.hpp:77] Creating layer pool3_pool3_0_split
I0715 12:54:01.957279 13412 net.cpp:84] Creating Layer pool3_pool3_0_split
I0715 12:54:01.957286 13412 net.cpp:406] pool3_pool3_0_split <- pool3
I0715 12:54:01.957298 13412 net.cpp:380] pool3_pool3_0_split -> pool3_pool3_0_split_0
I0715 12:54:01.957309 13412 net.cpp:380] pool3_pool3_0_split -> pool3_pool3_0_split_1
I0715 12:54:01.957382 13412 net.cpp:122] Setting up pool3_pool3_0_split
I0715 12:54:01.957396 13412 net.cpp:129] Top shape: 1 256 89 64 (1458176)
I0715 12:54:01.957406 13412 net.cpp:129] Top shape: 1 256 89 64 (1458176)
I0715 12:54:01.957413 13412 net.cpp:137] Memory required for data: 762193420
I0715 12:54:01.957422 13412 layer_factory.hpp:77] Creating layer conv4_1
I0715 12:54:01.957440 13412 net.cpp:84] Creating Layer conv4_1
I0715 12:54:01.957448 13412 net.cpp:406] conv4_1 <- pool3_pool3_0_split_0
I0715 12:54:01.957460 13412 net.cpp:380] conv4_1 -> conv4_1
I0715 12:54:01.967219 13412 net.cpp:122] Setting up conv4_1
I0715 12:54:01.967245 13412 net.cpp:129] Top shape: 1 512 89 64 (2916352)
I0715 12:54:01.967257 13412 net.cpp:137] Memory required for data: 773858828
I0715 12:54:01.967269 13412 layer_factory.hpp:77] Creating layer relu4_1
I0715 12:54:01.967285 13412 net.cpp:84] Creating Layer relu4_1
I0715 12:54:01.967290 13412 net.cpp:406] relu4_1 <- conv4_1
I0715 12:54:01.967308 13412 net.cpp:367] relu4_1 -> conv4_1 (in-place)
I0715 12:54:01.967571 13412 net.cpp:122] Setting up relu4_1
I0715 12:54:01.967586 13412 net.cpp:129] Top shape: 1 512 89 64 (2916352)
I0715 12:54:01.967591 13412 net.cpp:137] Memory required for data: 785524236
I0715 12:54:01.967594 13412 layer_factory.hpp:77] Creating layer conv4_2
I0715 12:54:01.967608 13412 net.cpp:84] Creating Layer conv4_2
I0715 12:54:01.967614 13412 net.cpp:406] conv4_2 <- conv4_1
I0715 12:54:01.967622 13412 net.cpp:380] conv4_2 -> conv4_2
I0715 12:54:01.981698 13412 net.cpp:122] Setting up conv4_2
I0715 12:54:01.981743 13412 net.cpp:129] Top shape: 1 512 89 64 (2916352)
I0715 12:54:01.981752 13412 net.cpp:137] Memory required for data: 797189644
I0715 12:54:01.981781 13412 layer_factory.hpp:77] Creating layer relu4_2
I0715 12:54:01.981806 13412 net.cpp:84] Creating Layer relu4_2
I0715 12:54:01.981815 13412 net.cpp:406] relu4_2 <- conv4_2
I0715 12:54:01.981827 13412 net.cpp:367] relu4_2 -> conv4_2 (in-place)
I0715 12:54:01.982236 13412 net.cpp:122] Setting up relu4_2
I0715 12:54:01.982277 13412 net.cpp:129] Top shape: 1 512 89 64 (2916352)
I0715 12:54:01.982285 13412 net.cpp:137] Memory required for data: 808855052
I0715 12:54:01.982293 13412 layer_factory.hpp:77] Creating layer conv4_3
I0715 12:54:01.982318 13412 net.cpp:84] Creating Layer conv4_3
I0715 12:54:01.982327 13412 net.cpp:406] conv4_3 <- conv4_2
I0715 12:54:01.982340 13412 net.cpp:380] conv4_3 -> conv4_3
I0715 12:54:01.992548 13412 net.cpp:122] Setting up conv4_3
I0715 12:54:01.992571 13412 net.cpp:129] Top shape: 1 512 89 64 (2916352)
I0715 12:54:01.992576 13412 net.cpp:137] Memory required for data: 820520460
I0715 12:54:01.992586 13412 layer_factory.hpp:77] Creating layer relu4_3
I0715 12:54:01.992599 13412 net.cpp:84] Creating Layer relu4_3
I0715 12:54:01.992605 13412 net.cpp:406] relu4_3 <- conv4_3
I0715 12:54:01.992614 13412 net.cpp:367] relu4_3 -> conv4_3 (in-place)
I0715 12:54:01.992843 13412 net.cpp:122] Setting up relu4_3
I0715 12:54:01.992859 13412 net.cpp:129] Top shape: 1 512 89 64 (2916352)
I0715 12:54:01.992864 13412 net.cpp:137] Memory required for data: 832185868
I0715 12:54:01.992868 13412 layer_factory.hpp:77] Creating layer pool4
I0715 12:54:01.992877 13412 net.cpp:84] Creating Layer pool4
I0715 12:54:01.992882 13412 net.cpp:406] pool4 <- conv4_3
I0715 12:54:01.992887 13412 net.cpp:380] pool4 -> pool4
I0715 12:54:01.992945 13412 net.cpp:122] Setting up pool4
I0715 12:54:01.992955 13412 net.cpp:129] Top shape: 1 512 45 32 (737280)
I0715 12:54:01.992959 13412 net.cpp:137] Memory required for data: 835134988
I0715 12:54:01.992964 13412 layer_factory.hpp:77] Creating layer pool4_pool4_0_split
I0715 12:54:01.992970 13412 net.cpp:84] Creating Layer pool4_pool4_0_split
I0715 12:54:01.992974 13412 net.cpp:406] pool4_pool4_0_split <- pool4
I0715 12:54:01.992983 13412 net.cpp:380] pool4_pool4_0_split -> pool4_pool4_0_split_0
I0715 12:54:01.992991 13412 net.cpp:380] pool4_pool4_0_split -> pool4_pool4_0_split_1
I0715 12:54:01.993033 13412 net.cpp:122] Setting up pool4_pool4_0_split
I0715 12:54:01.993039 13412 net.cpp:129] Top shape: 1 512 45 32 (737280)
I0715 12:54:01.993046 13412 net.cpp:129] Top shape: 1 512 45 32 (737280)
I0715 12:54:01.993049 13412 net.cpp:137] Memory required for data: 841033228
I0715 12:54:01.993052 13412 layer_factory.hpp:77] Creating layer conv5_1
I0715 12:54:01.993072 13412 net.cpp:84] Creating Layer conv5_1
I0715 12:54:01.993077 13412 net.cpp:406] conv5_1 <- pool4_pool4_0_split_0
I0715 12:54:01.993084 13412 net.cpp:380] conv5_1 -> conv5_1
I0715 12:54:02.002305 13412 net.cpp:122] Setting up conv5_1
I0715 12:54:02.002344 13412 net.cpp:129] Top shape: 1 512 45 32 (737280)
I0715 12:54:02.002351 13412 net.cpp:137] Memory required for data: 843982348
I0715 12:54:02.002360 13412 layer_factory.hpp:77] Creating layer relu5_1
I0715 12:54:02.002375 13412 net.cpp:84] Creating Layer relu5_1
I0715 12:54:02.002382 13412 net.cpp:406] relu5_1 <- conv5_1
I0715 12:54:02.002390 13412 net.cpp:367] relu5_1 -> conv5_1 (in-place)
I0715 12:54:02.003199 13412 net.cpp:122] Setting up relu5_1
I0715 12:54:02.003217 13412 net.cpp:129] Top shape: 1 512 45 32 (737280)
I0715 12:54:02.003232 13412 net.cpp:137] Memory required for data: 846931468
I0715 12:54:02.003237 13412 layer_factory.hpp:77] Creating layer conv5_2
I0715 12:54:02.003253 13412 net.cpp:84] Creating Layer conv5_2
I0715 12:54:02.003259 13412 net.cpp:406] conv5_2 <- conv5_1
I0715 12:54:02.003268 13412 net.cpp:380] conv5_2 -> conv5_2
I0715 12:54:02.014541 13412 net.cpp:122] Setting up conv5_2
I0715 12:54:02.014601 13412 net.cpp:129] Top shape: 1 512 45 32 (737280)
I0715 12:54:02.014611 13412 net.cpp:137] Memory required for data: 849880588
I0715 12:54:02.014631 13412 layer_factory.hpp:77] Creating layer relu5_2
I0715 12:54:02.014724 13412 net.cpp:84] Creating Layer relu5_2
I0715 12:54:02.014737 13412 net.cpp:406] relu5_2 <- conv5_2
I0715 12:54:02.014751 13412 net.cpp:367] relu5_2 -> conv5_2 (in-place)
I0715 12:54:02.016263 13412 net.cpp:122] Setting up relu5_2
I0715 12:54:02.016305 13412 net.cpp:129] Top shape: 1 512 45 32 (737280)
I0715 12:54:02.016314 13412 net.cpp:137] Memory required for data: 852829708
I0715 12:54:02.016324 13412 layer_factory.hpp:77] Creating layer conv5_3
I0715 12:54:02.016373 13412 net.cpp:84] Creating Layer conv5_3
I0715 12:54:02.016383 13412 net.cpp:406] conv5_3 <- conv5_2
I0715 12:54:02.016398 13412 net.cpp:380] conv5_3 -> conv5_3
I0715 12:54:02.025429 13412 net.cpp:122] Setting up conv5_3
I0715 12:54:02.025466 13412 net.cpp:129] Top shape: 1 512 45 32 (737280)
I0715 12:54:02.025471 13412 net.cpp:137] Memory required for data: 855778828
I0715 12:54:02.025491 13412 layer_factory.hpp:77] Creating layer relu5_3
I0715 12:54:02.025517 13412 net.cpp:84] Creating Layer relu5_3
I0715 12:54:02.025522 13412 net.cpp:406] relu5_3 <- conv5_3
I0715 12:54:02.025532 13412 net.cpp:367] relu5_3 -> conv5_3 (in-place)
I0715 12:54:02.025753 13412 net.cpp:122] Setting up relu5_3
I0715 12:54:02.025764 13412 net.cpp:129] Top shape: 1 512 45 32 (737280)
I0715 12:54:02.025768 13412 net.cpp:137] Memory required for data: 858727948
I0715 12:54:02.025773 13412 layer_factory.hpp:77] Creating layer pool5
I0715 12:54:02.025791 13412 net.cpp:84] Creating Layer pool5
I0715 12:54:02.025801 13412 net.cpp:406] pool5 <- conv5_3
I0715 12:54:02.025807 13412 net.cpp:380] pool5 -> pool5
I0715 12:54:02.025859 13412 net.cpp:122] Setting up pool5
I0715 12:54:02.025867 13412 net.cpp:129] Top shape: 1 512 23 16 (188416)
I0715 12:54:02.025871 13412 net.cpp:137] Memory required for data: 859481612
I0715 12:54:02.025874 13412 layer_factory.hpp:77] Creating layer fc6
I0715 12:54:02.025887 13412 net.cpp:84] Creating Layer fc6
I0715 12:54:02.025892 13412 net.cpp:406] fc6 <- pool5
I0715 12:54:02.025897 13412 net.cpp:380] fc6 -> fc6
I0715 12:54:02.308885 13412 net.cpp:122] Setting up fc6
I0715 12:54:02.308919 13412 net.cpp:129] Top shape: 1 4096 17 10 (696320)
I0715 12:54:02.308923 13412 net.cpp:137] Memory required for data: 862266892
I0715 12:54:02.308938 13412 layer_factory.hpp:77] Creating layer relu6
I0715 12:54:02.308969 13412 net.cpp:84] Creating Layer relu6
I0715 12:54:02.308974 13412 net.cpp:406] relu6 <- fc6
I0715 12:54:02.308981 13412 net.cpp:367] relu6 -> fc6 (in-place)
I0715 12:54:02.309185 13412 net.cpp:122] Setting up relu6
I0715 12:54:02.309198 13412 net.cpp:129] Top shape: 1 4096 17 10 (696320)
I0715 12:54:02.309202 13412 net.cpp:137] Memory required for data: 865052172
I0715 12:54:02.309219 13412 layer_factory.hpp:77] Creating layer drop6
I0715 12:54:02.309233 13412 net.cpp:84] Creating Layer drop6
I0715 12:54:02.309244 13412 net.cpp:406] drop6 <- fc6
I0715 12:54:02.309250 13412 net.cpp:367] drop6 -> fc6 (in-place)
I0715 12:54:02.309288 13412 net.cpp:122] Setting up drop6
I0715 12:54:02.309296 13412 net.cpp:129] Top shape: 1 4096 17 10 (696320)
I0715 12:54:02.309299 13412 net.cpp:137] Memory required for data: 867837452
I0715 12:54:02.309303 13412 layer_factory.hpp:77] Creating layer fc7
I0715 12:54:02.309314 13412 net.cpp:84] Creating Layer fc7
I0715 12:54:02.309319 13412 net.cpp:406] fc7 <- fc6
I0715 12:54:02.309324 13412 net.cpp:380] fc7 -> fc7
I0715 12:54:02.360728 13412 net.cpp:122] Setting up fc7
I0715 12:54:02.360780 13412 net.cpp:129] Top shape: 1 4096 17 10 (696320)
I0715 12:54:02.360785 13412 net.cpp:137] Memory required for data: 870622732
I0715 12:54:02.360803 13412 layer_factory.hpp:77] Creating layer relu7
I0715 12:54:02.360841 13412 net.cpp:84] Creating Layer relu7
I0715 12:54:02.360848 13412 net.cpp:406] relu7 <- fc7
I0715 12:54:02.360858 13412 net.cpp:367] relu7 -> fc7 (in-place)
I0715 12:54:02.361059 13412 net.cpp:122] Setting up relu7
I0715 12:54:02.361069 13412 net.cpp:129] Top shape: 1 4096 17 10 (696320)
I0715 12:54:02.361073 13412 net.cpp:137] Memory required for data: 873408012
I0715 12:54:02.361076 13412 layer_factory.hpp:77] Creating layer drop7
I0715 12:54:02.361091 13412 net.cpp:84] Creating Layer drop7
I0715 12:54:02.361095 13412 net.cpp:406] drop7 <- fc7
I0715 12:54:02.361100 13412 net.cpp:367] drop7 -> fc7 (in-place)
I0715 12:54:02.361140 13412 net.cpp:122] Setting up drop7
I0715 12:54:02.361148 13412 net.cpp:129] Top shape: 1 4096 17 10 (696320)
I0715 12:54:02.361151 13412 net.cpp:137] Memory required for data: 876193292
I0715 12:54:02.361155 13412 layer_factory.hpp:77] Creating layer score_fr-new
I0715 12:54:02.361169 13412 net.cpp:84] Creating Layer score_fr-new
I0715 12:54:02.361177 13412 net.cpp:406] score_fr-new <- fc7
I0715 12:54:02.361196 13412 net.cpp:380] score_fr-new -> score_fr-new
I0715 12:54:02.363641 13412 net.cpp:122] Setting up score_fr-new
I0715 12:54:02.363657 13412 net.cpp:129] Top shape: 1 3 17 10 (510)
I0715 12:54:02.363662 13412 net.cpp:137] Memory required for data: 876195332
I0715 12:54:02.363685 13412 layer_factory.hpp:77] Creating layer upscore2-new
I0715 12:54:02.363701 13412 net.cpp:84] Creating Layer upscore2-new
I0715 12:54:02.363708 13412 net.cpp:406] upscore2-new <- score_fr-new
I0715 12:54:02.363718 13412 net.cpp:380] upscore2-new -> upscore2-new
I0715 12:54:02.363934 13412 net.cpp:122] Setting up upscore2-new
I0715 12:54:02.363943 13412 net.cpp:129] Top shape: 1 3 36 22 (2376)
I0715 12:54:02.363946 13412 net.cpp:137] Memory required for data: 876204836
I0715 12:54:02.363994 13412 layer_factory.hpp:77] Creating layer upscore2-new_upscore2-new_0_split
I0715 12:54:02.364006 13412 net.cpp:84] Creating Layer upscore2-new_upscore2-new_0_split
I0715 12:54:02.364008 13412 net.cpp:406] upscore2-new_upscore2-new_0_split <- upscore2-new
I0715 12:54:02.364015 13412 net.cpp:380] upscore2-new_upscore2-new_0_split -> upscore2-new_upscore2-new_0_split_0
I0715 12:54:02.364024 13412 net.cpp:380] upscore2-new_upscore2-new_0_split -> upscore2-new_upscore2-new_0_split_1
I0715 12:54:02.364063 13412 net.cpp:122] Setting up upscore2-new_upscore2-new_0_split
I0715 12:54:02.364070 13412 net.cpp:129] Top shape: 1 3 36 22 (2376)
I0715 12:54:02.364074 13412 net.cpp:129] Top shape: 1 3 36 22 (2376)
I0715 12:54:02.364078 13412 net.cpp:137] Memory required for data: 876223844
I0715 12:54:02.364081 13412 layer_factory.hpp:77] Creating layer score_pool4-new
I0715 12:54:02.364099 13412 net.cpp:84] Creating Layer score_pool4-new
I0715 12:54:02.364106 13412 net.cpp:406] score_pool4-new <- pool4_pool4_0_split_1
I0715 12:54:02.364112 13412 net.cpp:380] score_pool4-new -> score_pool4-new
I0715 12:54:02.365415 13412 net.cpp:122] Setting up score_pool4-new
I0715 12:54:02.365430 13412 net.cpp:129] Top shape: 1 3 45 32 (4320)
I0715 12:54:02.365433 13412 net.cpp:137] Memory required for data: 876241124
I0715 12:54:02.365458 13412 layer_factory.hpp:77] Creating layer score_pool4c
I0715 12:54:02.365474 13412 net.cpp:84] Creating Layer score_pool4c
I0715 12:54:02.365481 13412 net.cpp:406] score_pool4c <- score_pool4-new
I0715 12:54:02.365489 13412 net.cpp:406] score_pool4c <- upscore2-new_upscore2-new_0_split_0
I0715 12:54:02.365496 13412 net.cpp:380] score_pool4c -> score_pool4c
I0715 12:54:02.365530 13412 net.cpp:122] Setting up score_pool4c
I0715 12:54:02.365537 13412 net.cpp:129] Top shape: 1 3 36 22 (2376)
I0715 12:54:02.365540 13412 net.cpp:137] Memory required for data: 876250628
I0715 12:54:02.365543 13412 layer_factory.hpp:77] Creating layer fuse_pool4
I0715 12:54:02.365557 13412 net.cpp:84] Creating Layer fuse_pool4
I0715 12:54:02.365561 13412 net.cpp:406] fuse_pool4 <- upscore2-new_upscore2-new_0_split_1
I0715 12:54:02.365566 13412 net.cpp:406] fuse_pool4 <- score_pool4c
I0715 12:54:02.365572 13412 net.cpp:380] fuse_pool4 -> fuse_pool4
I0715 12:54:02.365602 13412 net.cpp:122] Setting up fuse_pool4
I0715 12:54:02.365608 13412 net.cpp:129] Top shape: 1 3 36 22 (2376)
I0715 12:54:02.365612 13412 net.cpp:137] Memory required for data: 876260132
I0715 12:54:02.365614 13412 layer_factory.hpp:77] Creating layer upscore_pool4-new
I0715 12:54:02.365625 13412 net.cpp:84] Creating Layer upscore_pool4-new
I0715 12:54:02.365629 13412 net.cpp:406] upscore_pool4-new <- fuse_pool4
I0715 12:54:02.365636 13412 net.cpp:380] upscore_pool4-new -> upscore_pool4-new
I0715 12:54:02.365831 13412 net.cpp:122] Setting up upscore_pool4-new
I0715 12:54:02.365840 13412 net.cpp:129] Top shape: 1 3 74 46 (10212)
I0715 12:54:02.365844 13412 net.cpp:137] Memory required for data: 876300980
I0715 12:54:02.365849 13412 layer_factory.hpp:77] Creating layer upscore_pool4-new_upscore_pool4-new_0_split
I0715 12:54:02.365864 13412 net.cpp:84] Creating Layer upscore_pool4-new_upscore_pool4-new_0_split
I0715 12:54:02.365867 13412 net.cpp:406] upscore_pool4-new_upscore_pool4-new_0_split <- upscore_pool4-new
I0715 12:54:02.365872 13412 net.cpp:380] upscore_pool4-new_upscore_pool4-new_0_split -> upscore_pool4-new_upscore_pool4-new_0_split_0
I0715 12:54:02.365880 13412 net.cpp:380] upscore_pool4-new_upscore_pool4-new_0_split -> upscore_pool4-new_upscore_pool4-new_0_split_1
I0715 12:54:02.365928 13412 net.cpp:122] Setting up upscore_pool4-new_upscore_pool4-new_0_split
I0715 12:54:02.365936 13412 net.cpp:129] Top shape: 1 3 74 46 (10212)
I0715 12:54:02.365941 13412 net.cpp:129] Top shape: 1 3 74 46 (10212)
I0715 12:54:02.365943 13412 net.cpp:137] Memory required for data: 876382676
I0715 12:54:02.365947 13412 layer_factory.hpp:77] Creating layer score_pool3-new
I0715 12:54:02.365963 13412 net.cpp:84] Creating Layer score_pool3-new
I0715 12:54:02.365969 13412 net.cpp:406] score_pool3-new <- pool3_pool3_0_split_1
I0715 12:54:02.365977 13412 net.cpp:380] score_pool3-new -> score_pool3-new
I0715 12:54:02.367383 13412 net.cpp:122] Setting up score_pool3-new
I0715 12:54:02.367398 13412 net.cpp:129] Top shape: 1 3 89 64 (17088)
I0715 12:54:02.367400 13412 net.cpp:137] Memory required for data: 876451028
I0715 12:54:02.367424 13412 layer_factory.hpp:77] Creating layer score_pool3c
I0715 12:54:02.367434 13412 net.cpp:84] Creating Layer score_pool3c
I0715 12:54:02.367439 13412 net.cpp:406] score_pool3c <- score_pool3-new
I0715 12:54:02.367444 13412 net.cpp:406] score_pool3c <- upscore_pool4-new_upscore_pool4-new_0_split_0
I0715 12:54:02.367449 13412 net.cpp:380] score_pool3c -> score_pool3c
I0715 12:54:02.367481 13412 net.cpp:122] Setting up score_pool3c
I0715 12:54:02.367489 13412 net.cpp:129] Top shape: 1 3 74 46 (10212)
I0715 12:54:02.367492 13412 net.cpp:137] Memory required for data: 876491876
I0715 12:54:02.367496 13412 layer_factory.hpp:77] Creating layer fuse_pool3
I0715 12:54:02.367501 13412 net.cpp:84] Creating Layer fuse_pool3
I0715 12:54:02.367504 13412 net.cpp:406] fuse_pool3 <- upscore_pool4-new_upscore_pool4-new_0_split_1
I0715 12:54:02.367511 13412 net.cpp:406] fuse_pool3 <- score_pool3c
I0715 12:54:02.367518 13412 net.cpp:380] fuse_pool3 -> fuse_pool3
I0715 12:54:02.367543 13412 net.cpp:122] Setting up fuse_pool3
I0715 12:54:02.367558 13412 net.cpp:129] Top shape: 1 3 74 46 (10212)
I0715 12:54:02.367561 13412 net.cpp:137] Memory required for data: 876532724
I0715 12:54:02.367571 13412 layer_factory.hpp:77] Creating layer upscore8-new
I0715 12:54:02.367580 13412 net.cpp:84] Creating Layer upscore8-new
I0715 12:54:02.367586 13412 net.cpp:406] upscore8-new <- fuse_pool3
I0715 12:54:02.367594 13412 net.cpp:380] upscore8-new -> upscore8-new
I0715 12:54:02.367800 13412 net.cpp:122] Setting up upscore8-new
I0715 12:54:02.367808 13412 net.cpp:129] Top shape: 1 3 600 376 (676800)
I0715 12:54:02.367811 13412 net.cpp:137] Memory required for data: 879239924
I0715 12:54:02.367816 13412 layer_factory.hpp:77] Creating layer upscore8_cropped
I0715 12:54:02.367825 13412 net.cpp:84] Creating Layer upscore8_cropped
I0715 12:54:02.367828 13412 net.cpp:406] upscore8_cropped <- upscore8-new
I0715 12:54:02.367841 13412 net.cpp:406] upscore8_cropped <- data_data_0_split_1
I0715 12:54:02.367852 13412 net.cpp:380] upscore8_cropped -> upscore8_cropped
I0715 12:54:02.367879 13412 net.cpp:122] Setting up upscore8_cropped
I0715 12:54:02.367887 13412 net.cpp:129] Top shape: 1 3 512 310 (476160)
I0715 12:54:02.367889 13412 net.cpp:137] Memory required for data: 881144564
I0715 12:54:02.367893 13412 layer_factory.hpp:77] Creating layer upscore8_cropped_upscore8_cropped_0_split
I0715 12:54:02.367898 13412 net.cpp:84] Creating Layer upscore8_cropped_upscore8_cropped_0_split
I0715 12:54:02.367902 13412 net.cpp:406] upscore8_cropped_upscore8_cropped_0_split <- upscore8_cropped
I0715 12:54:02.367907 13412 net.cpp:380] upscore8_cropped_upscore8_cropped_0_split -> upscore8_cropped_upscore8_cropped_0_split_0
I0715 12:54:02.367913 13412 net.cpp:380] upscore8_cropped_upscore8_cropped_0_split -> upscore8_cropped_upscore8_cropped_0_split_1
I0715 12:54:02.367950 13412 net.cpp:122] Setting up upscore8_cropped_upscore8_cropped_0_split
I0715 12:54:02.367957 13412 net.cpp:129] Top shape: 1 3 512 310 (476160)
I0715 12:54:02.367961 13412 net.cpp:129] Top shape: 1 3 512 310 (476160)
I0715 12:54:02.367964 13412 net.cpp:137] Memory required for data: 884953844
I0715 12:54:02.367969 13412 layer_factory.hpp:77] Creating layer prob
I0715 12:54:02.367974 13412 net.cpp:84] Creating Layer prob
I0715 12:54:02.367977 13412 net.cpp:406] prob <- upscore8_cropped_upscore8_cropped_0_split_0
I0715 12:54:02.367985 13412 net.cpp:380] prob -> prob
I0715 12:54:02.368189 13412 net.cpp:122] Setting up prob
I0715 12:54:02.368201 13412 net.cpp:129] Top shape: 1 3 512 310 (476160)
I0715 12:54:02.368203 13412 net.cpp:137] Memory required for data: 886858484
I0715 12:54:02.368216 13412 layer_factory.hpp:77] Creating layer saliency1
I0715 12:54:02.368233 13412 net.cpp:84] Creating Layer saliency1
I0715 12:54:02.368239 13412 net.cpp:406] saliency1 <- prob
I0715 12:54:02.368248 13412 net.cpp:380] saliency1 -> saliency1
I0715 12:54:02.370760 13412 net.cpp:122] Setting up saliency1
I0715 12:54:02.370777 13412 net.cpp:129] Top shape: 1 3 512 310 (476160)
I0715 12:54:02.370781 13412 net.cpp:137] Memory required for data: 888763124
I0715 12:54:02.370805 13412 layer_factory.hpp:77] Creating layer relu_saliency1
I0715 12:54:02.370811 13412 net.cpp:84] Creating Layer relu_saliency1
I0715 12:54:02.370815 13412 net.cpp:406] relu_saliency1 <- saliency1
I0715 12:54:02.370821 13412 net.cpp:367] relu_saliency1 -> saliency1 (in-place)
I0715 12:54:02.371018 13412 net.cpp:122] Setting up relu_saliency1
I0715 12:54:02.371028 13412 net.cpp:129] Top shape: 1 3 512 310 (476160)
I0715 12:54:02.371032 13412 net.cpp:137] Memory required for data: 890667764
I0715 12:54:02.371035 13412 layer_factory.hpp:77] Creating layer saliency
I0715 12:54:02.371049 13412 net.cpp:84] Creating Layer saliency
I0715 12:54:02.371053 13412 net.cpp:406] saliency <- saliency1
I0715 12:54:02.371059 13412 net.cpp:380] saliency -> saliency
I0715 12:54:02.377269 13412 net.cpp:122] Setting up saliency
I0715 12:54:02.377341 13412 net.cpp:129] Top shape: 1 3 512 310 (476160)
I0715 12:54:02.377351 13412 net.cpp:137] Memory required for data: 892572404
I0715 12:54:02.377377 13412 layer_factory.hpp:77] Creating layer silence_saliency
I0715 12:54:02.377415 13412 net.cpp:84] Creating Layer silence_saliency
I0715 12:54:02.377427 13412 net.cpp:406] silence_saliency <- saliency
I0715 12:54:02.377444 13412 net.cpp:122] Setting up silence_saliency
I0715 12:54:02.377450 13412 net.cpp:137] Memory required for data: 892572404
I0715 12:54:02.377463 13412 layer_factory.hpp:77] Creating layer crop
I0715 12:54:02.379377 13412 net.cpp:84] Creating Layer crop
I0715 12:54:02.379402 13412 net.cpp:406] crop <- label_data_1_split_0
I0715 12:54:02.379426 13412 net.cpp:406] crop <- data_data_0_split_2
I0715 12:54:02.379441 13412 net.cpp:406] crop <- crop_margin
I0715 12:54:02.379449 13412 net.cpp:406] crop <- crop_prob
I0715 12:54:02.379458 13412 net.cpp:406] crop <- crop_sample_batch
I0715 12:54:02.379482 13412 net.cpp:380] crop -> data-R
I0715 12:54:02.379503 13412 net.cpp:380] crop -> crop_info
I0715 12:54:02.392288 13412 net.cpp:122] Setting up crop
I0715 12:54:02.392323 13412 net.cpp:129] Top shape: 1 3 512 310 (476160)
I0715 12:54:02.392330 13412 net.cpp:129] Top shape: 1 2 4 (8)
I0715 12:54:02.392334 13412 net.cpp:137] Memory required for data: 894477076
I0715 12:54:02.392339 13412 layer_factory.hpp:77] Creating layer data-R_crop_0_split
I0715 12:54:02.392349 13412 net.cpp:84] Creating Layer data-R_crop_0_split
I0715 12:54:02.392354 13412 net.cpp:406] data-R_crop_0_split <- data-R
I0715 12:54:02.392361 13412 net.cpp:380] data-R_crop_0_split -> data-R_crop_0_split_0
I0715 12:54:02.392381 13412 net.cpp:380] data-R_crop_0_split -> data-R_crop_0_split_1
I0715 12:54:02.392432 13412 net.cpp:122] Setting up data-R_crop_0_split
I0715 12:54:02.392438 13412 net.cpp:129] Top shape: 1 3 512 310 (476160)
I0715 12:54:02.392444 13412 net.cpp:129] Top shape: 1 3 512 310 (476160)
I0715 12:54:02.392448 13412 net.cpp:137] Memory required for data: 898286356
I0715 12:54:02.392452 13412 layer_factory.hpp:77] Creating layer conv1_1-R
I0715 12:54:02.392464 13412 net.cpp:84] Creating Layer conv1_1-R
I0715 12:54:02.392468 13412 net.cpp:406] conv1_1-R <- data-R_crop_0_split_0
I0715 12:54:02.392478 13412 net.cpp:380] conv1_1-R -> conv1_1-R
I0715 12:54:02.402103 13412 net.cpp:122] Setting up conv1_1-R
I0715 12:54:02.402153 13412 net.cpp:129] Top shape: 1 64 710 508 (23083520)
I0715 12:54:02.402163 13412 net.cpp:137] Memory required for data: 990620436
I0715 12:54:02.402184 13412 layer_factory.hpp:77] Creating layer relu1_1-R
I0715 12:54:02.402259 13412 net.cpp:84] Creating Layer relu1_1-R
I0715 12:54:02.402287 13412 net.cpp:406] relu1_1-R <- conv1_1-R
I0715 12:54:02.402310 13412 net.cpp:367] relu1_1-R -> conv1_1-R (in-place)
I0715 12:54:02.402776 13412 net.cpp:122] Setting up relu1_1-R
I0715 12:54:02.402796 13412 net.cpp:129] Top shape: 1 64 710 508 (23083520)
I0715 12:54:02.402813 13412 net.cpp:137] Memory required for data: 1082954516
I0715 12:54:02.402827 13412 layer_factory.hpp:77] Creating layer conv1_2-R
I0715 12:54:02.402846 13412 net.cpp:84] Creating Layer conv1_2-R
I0715 12:54:02.402854 13412 net.cpp:406] conv1_2-R <- conv1_1-R
I0715 12:54:02.402873 13412 net.cpp:380] conv1_2-R -> conv1_2-R
I0715 12:54:02.407315 13412 net.cpp:122] Setting up conv1_2-R
I0715 12:54:02.407349 13412 net.cpp:129] Top shape: 1 64 710 508 (23083520)
I0715 12:54:02.407356 13412 net.cpp:137] Memory required for data: 1175288596
I0715 12:54:02.407366 13412 layer_factory.hpp:77] Creating layer relu1_2-R
I0715 12:54:02.407377 13412 net.cpp:84] Creating Layer relu1_2-R
I0715 12:54:02.407383 13412 net.cpp:406] relu1_2-R <- conv1_2-R
I0715 12:54:02.407392 13412 net.cpp:367] relu1_2-R -> conv1_2-R (in-place)
I0715 12:54:02.408411 13412 net.cpp:122] Setting up relu1_2-R
I0715 12:54:02.408432 13412 net.cpp:129] Top shape: 1 64 710 508 (23083520)
I0715 12:54:02.408445 13412 net.cpp:137] Memory required for data: 1267622676
I0715 12:54:02.408452 13412 layer_factory.hpp:77] Creating layer pool1-R
I0715 12:54:02.408464 13412 net.cpp:84] Creating Layer pool1-R
I0715 12:54:02.408470 13412 net.cpp:406] pool1-R <- conv1_2-R
I0715 12:54:02.408480 13412 net.cpp:380] pool1-R -> pool1-R
I0715 12:54:02.408567 13412 net.cpp:122] Setting up pool1-R
I0715 12:54:02.408593 13412 net.cpp:129] Top shape: 1 64 355 254 (5770880)
I0715 12:54:02.408598 13412 net.cpp:137] Memory required for data: 1290706196
I0715 12:54:02.408604 13412 layer_factory.hpp:77] Creating layer conv2_1-R
I0715 12:54:02.408617 13412 net.cpp:84] Creating Layer conv2_1-R
I0715 12:54:02.408622 13412 net.cpp:406] conv2_1-R <- pool1-R
I0715 12:54:02.408632 13412 net.cpp:380] conv2_1-R -> conv2_1-R
I0715 12:54:02.410651 13412 net.cpp:122] Setting up conv2_1-R
I0715 12:54:02.410673 13412 net.cpp:129] Top shape: 1 128 355 254 (11541760)
I0715 12:54:02.410686 13412 net.cpp:137] Memory required for data: 1336873236
I0715 12:54:02.410699 13412 layer_factory.hpp:77] Creating layer relu2_1-R
I0715 12:54:02.410710 13412 net.cpp:84] Creating Layer relu2_1-R
I0715 12:54:02.410717 13412 net.cpp:406] relu2_1-R <- conv2_1-R
I0715 12:54:02.410725 13412 net.cpp:367] relu2_1-R -> conv2_1-R (in-place)
I0715 12:54:02.411675 13412 net.cpp:122] Setting up relu2_1-R
I0715 12:54:02.411696 13412 net.cpp:129] Top shape: 1 128 355 254 (11541760)
I0715 12:54:02.411711 13412 net.cpp:137] Memory required for data: 1383040276
I0715 12:54:02.411717 13412 layer_factory.hpp:77] Creating layer conv2_2-R
I0715 12:54:02.411734 13412 net.cpp:84] Creating Layer conv2_2-R
I0715 12:54:02.411741 13412 net.cpp:406] conv2_2-R <- conv2_1-R
I0715 12:54:02.411752 13412 net.cpp:380] conv2_2-R -> conv2_2-R
I0715 12:54:02.419067 13412 net.cpp:122] Setting up conv2_2-R
I0715 12:54:02.419103 13412 net.cpp:129] Top shape: 1 128 355 254 (11541760)
I0715 12:54:02.419111 13412 net.cpp:137] Memory required for data: 1429207316
I0715 12:54:02.419122 13412 layer_factory.hpp:77] Creating layer relu2_2-R
I0715 12:54:02.419132 13412 net.cpp:84] Creating Layer relu2_2-R
I0715 12:54:02.419138 13412 net.cpp:406] relu2_2-R <- conv2_2-R
I0715 12:54:02.419147 13412 net.cpp:367] relu2_2-R -> conv2_2-R (in-place)
I0715 12:54:02.419481 13412 net.cpp:122] Setting up relu2_2-R
I0715 12:54:02.419500 13412 net.cpp:129] Top shape: 1 128 355 254 (11541760)
I0715 12:54:02.419507 13412 net.cpp:137] Memory required for data: 1475374356
I0715 12:54:02.419512 13412 layer_factory.hpp:77] Creating layer pool2-R
I0715 12:54:02.419526 13412 net.cpp:84] Creating Layer pool2-R
I0715 12:54:02.419533 13412 net.cpp:406] pool2-R <- conv2_2-R
I0715 12:54:02.419543 13412 net.cpp:380] pool2-R -> pool2-R
I0715 12:54:02.419636 13412 net.cpp:122] Setting up pool2-R
I0715 12:54:02.419647 13412 net.cpp:129] Top shape: 1 128 178 127 (2893568)
I0715 12:54:02.419652 13412 net.cpp:137] Memory required for data: 1486948628
I0715 12:54:02.419659 13412 layer_factory.hpp:77] Creating layer conv3_1-R
I0715 12:54:02.419670 13412 net.cpp:84] Creating Layer conv3_1-R
I0715 12:54:02.419677 13412 net.cpp:406] conv3_1-R <- pool2-R
I0715 12:54:02.419685 13412 net.cpp:380] conv3_1-R -> conv3_1-R
I0715 12:54:02.424283 13412 net.cpp:122] Setting up conv3_1-R
I0715 12:54:02.424305 13412 net.cpp:129] Top shape: 1 256 178 127 (5787136)
I0715 12:54:02.424319 13412 net.cpp:137] Memory required for data: 1510097172
I0715 12:54:02.424330 13412 layer_factory.hpp:77] Creating layer relu3_1-R
I0715 12:54:02.424342 13412 net.cpp:84] Creating Layer relu3_1-R
I0715 12:54:02.424350 13412 net.cpp:406] relu3_1-R <- conv3_1-R
I0715 12:54:02.424357 13412 net.cpp:367] relu3_1-R -> conv3_1-R (in-place)
I0715 12:54:02.424659 13412 net.cpp:122] Setting up relu3_1-R
I0715 12:54:02.424674 13412 net.cpp:129] Top shape: 1 256 178 127 (5787136)
I0715 12:54:02.424679 13412 net.cpp:137] Memory required for data: 1533245716
I0715 12:54:02.424685 13412 layer_factory.hpp:77] Creating layer conv3_2-R
I0715 12:54:02.424701 13412 net.cpp:84] Creating Layer conv3_2-R
I0715 12:54:02.424707 13412 net.cpp:406] conv3_2-R <- conv3_1-R
I0715 12:54:02.424716 13412 net.cpp:380] conv3_2-R -> conv3_2-R
I0715 12:54:02.429569 13412 net.cpp:122] Setting up conv3_2-R
I0715 12:54:02.429587 13412 net.cpp:129] Top shape: 1 256 178 127 (5787136)
I0715 12:54:02.429605 13412 net.cpp:137] Memory required for data: 1556394260
I0715 12:54:02.429615 13412 layer_factory.hpp:77] Creating layer relu3_2-R
I0715 12:54:02.429627 13412 net.cpp:84] Creating Layer relu3_2-R
I0715 12:54:02.429633 13412 net.cpp:406] relu3_2-R <- conv3_2-R
I0715 12:54:02.429643 13412 net.cpp:367] relu3_2-R -> conv3_2-R (in-place)
I0715 12:54:02.429893 13412 net.cpp:122] Setting up relu3_2-R
I0715 12:54:02.429904 13412 net.cpp:129] Top shape: 1 256 178 127 (5787136)
I0715 12:54:02.429909 13412 net.cpp:137] Memory required for data: 1579542804
I0715 12:54:02.429915 13412 layer_factory.hpp:77] Creating layer conv3_3-R
I0715 12:54:02.429932 13412 net.cpp:84] Creating Layer conv3_3-R
I0715 12:54:02.429939 13412 net.cpp:406] conv3_3-R <- conv3_2-R
I0715 12:54:02.429949 13412 net.cpp:380] conv3_3-R -> conv3_3-R
I0715 12:54:02.435611 13412 net.cpp:122] Setting up conv3_3-R
I0715 12:54:02.435642 13412 net.cpp:129] Top shape: 1 256 178 127 (5787136)
I0715 12:54:02.435647 13412 net.cpp:137] Memory required for data: 1602691348
I0715 12:54:02.435655 13412 layer_factory.hpp:77] Creating layer relu3_3-R
I0715 12:54:02.435676 13412 net.cpp:84] Creating Layer relu3_3-R
I0715 12:54:02.435683 13412 net.cpp:406] relu3_3-R <- conv3_3-R
I0715 12:54:02.435691 13412 net.cpp:367] relu3_3-R -> conv3_3-R (in-place)
I0715 12:54:02.435959 13412 net.cpp:122] Setting up relu3_3-R
I0715 12:54:02.435973 13412 net.cpp:129] Top shape: 1 256 178 127 (5787136)
I0715 12:54:02.435977 13412 net.cpp:137] Memory required for data: 1625839892
I0715 12:54:02.435982 13412 layer_factory.hpp:77] Creating layer pool3-R
I0715 12:54:02.435991 13412 net.cpp:84] Creating Layer pool3-R
I0715 12:54:02.435995 13412 net.cpp:406] pool3-R <- conv3_3-R
I0715 12:54:02.436007 13412 net.cpp:380] pool3-R -> pool3-R
I0715 12:54:02.436070 13412 net.cpp:122] Setting up pool3-R
I0715 12:54:02.436084 13412 net.cpp:129] Top shape: 1 256 89 64 (1458176)
I0715 12:54:02.436089 13412 net.cpp:137] Memory required for data: 1631672596
I0715 12:54:02.436094 13412 layer_factory.hpp:77] Creating layer pool3-R_pool3-R_0_split
I0715 12:54:02.436100 13412 net.cpp:84] Creating Layer pool3-R_pool3-R_0_split
I0715 12:54:02.436105 13412 net.cpp:406] pool3-R_pool3-R_0_split <- pool3-R
I0715 12:54:02.436111 13412 net.cpp:380] pool3-R_pool3-R_0_split -> pool3-R_pool3-R_0_split_0
I0715 12:54:02.436120 13412 net.cpp:380] pool3-R_pool3-R_0_split -> pool3-R_pool3-R_0_split_1
I0715 12:54:02.436175 13412 net.cpp:122] Setting up pool3-R_pool3-R_0_split
I0715 12:54:02.436188 13412 net.cpp:129] Top shape: 1 256 89 64 (1458176)
I0715 12:54:02.436193 13412 net.cpp:129] Top shape: 1 256 89 64 (1458176)
I0715 12:54:02.436198 13412 net.cpp:137] Memory required for data: 1643338004
I0715 12:54:02.436204 13412 layer_factory.hpp:77] Creating layer conv4_1-R
I0715 12:54:02.436218 13412 net.cpp:84] Creating Layer conv4_1-R
I0715 12:54:02.436223 13412 net.cpp:406] conv4_1-R <- pool3-R_pool3-R_0_split_0
I0715 12:54:02.436233 13412 net.cpp:380] conv4_1-R -> conv4_1-R
I0715 12:54:02.442711 13412 net.cpp:122] Setting up conv4_1-R
I0715 12:54:02.442744 13412 net.cpp:129] Top shape: 1 512 89 64 (2916352)
I0715 12:54:02.442750 13412 net.cpp:137] Memory required for data: 1655003412
I0715 12:54:02.442760 13412 layer_factory.hpp:77] Creating layer relu4_1-R
I0715 12:54:02.442770 13412 net.cpp:84] Creating Layer relu4_1-R
I0715 12:54:02.442776 13412 net.cpp:406] relu4_1-R <- conv4_1-R
I0715 12:54:02.442785 13412 net.cpp:367] relu4_1-R -> conv4_1-R (in-place)
I0715 12:54:02.443670 13412 net.cpp:122] Setting up relu4_1-R
I0715 12:54:02.443689 13412 net.cpp:129] Top shape: 1 512 89 64 (2916352)
I0715 12:54:02.443706 13412 net.cpp:137] Memory required for data: 1666668820
I0715 12:54:02.443711 13412 layer_factory.hpp:77] Creating layer conv4_2-R
I0715 12:54:02.443722 13412 net.cpp:84] Creating Layer conv4_2-R
I0715 12:54:02.443728 13412 net.cpp:406] conv4_2-R <- conv4_1-R
I0715 12:54:02.443738 13412 net.cpp:380] conv4_2-R -> conv4_2-R
I0715 12:54:02.461459 13412 net.cpp:122] Setting up conv4_2-R
I0715 12:54:02.461519 13412 net.cpp:129] Top shape: 1 512 89 64 (2916352)
I0715 12:54:02.461529 13412 net.cpp:137] Memory required for data: 1678334228
I0715 12:54:02.461546 13412 layer_factory.hpp:77] Creating layer relu4_2-R
I0715 12:54:02.461561 13412 net.cpp:84] Creating Layer relu4_2-R
I0715 12:54:02.461571 13412 net.cpp:406] relu4_2-R <- conv4_2-R
I0715 12:54:02.461592 13412 net.cpp:367] relu4_2-R -> conv4_2-R (in-place)
I0715 12:54:02.462960 13412 net.cpp:122] Setting up relu4_2-R
I0715 12:54:02.462998 13412 net.cpp:129] Top shape: 1 512 89 64 (2916352)
I0715 12:54:02.463006 13412 net.cpp:137] Memory required for data: 1689999636
I0715 12:54:02.463021 13412 layer_factory.hpp:77] Creating layer conv4_3-R
I0715 12:54:02.463042 13412 net.cpp:84] Creating Layer conv4_3-R
I0715 12:54:02.463049 13412 net.cpp:406] conv4_3-R <- conv4_2-R
I0715 12:54:02.463063 13412 net.cpp:380] conv4_3-R -> conv4_3-R
I0715 12:54:02.476222 13412 net.cpp:122] Setting up conv4_3-R
I0715 12:54:02.476271 13412 net.cpp:129] Top shape: 1 512 89 64 (2916352)
I0715 12:54:02.476277 13412 net.cpp:137] Memory required for data: 1701665044
I0715 12:54:02.476287 13412 layer_factory.hpp:77] Creating layer relu4_3-R
I0715 12:54:02.476301 13412 net.cpp:84] Creating Layer relu4_3-R
I0715 12:54:02.476308 13412 net.cpp:406] relu4_3-R <- conv4_3-R
I0715 12:54:02.476316 13412 net.cpp:367] relu4_3-R -> conv4_3-R (in-place)
I0715 12:54:02.476537 13412 net.cpp:122] Setting up relu4_3-R
I0715 12:54:02.476548 13412 net.cpp:129] Top shape: 1 512 89 64 (2916352)
I0715 12:54:02.476552 13412 net.cpp:137] Memory required for data: 1713330452
I0715 12:54:02.476557 13412 layer_factory.hpp:77] Creating layer pool4-R
I0715 12:54:02.476567 13412 net.cpp:84] Creating Layer pool4-R
I0715 12:54:02.476569 13412 net.cpp:406] pool4-R <- conv4_3-R
I0715 12:54:02.476589 13412 net.cpp:380] pool4-R -> pool4-R
I0715 12:54:02.476641 13412 net.cpp:122] Setting up pool4-R
I0715 12:54:02.476650 13412 net.cpp:129] Top shape: 1 512 45 32 (737280)
I0715 12:54:02.476653 13412 net.cpp:137] Memory required for data: 1716279572
I0715 12:54:02.476657 13412 layer_factory.hpp:77] Creating layer pool4-R_pool4-R_0_split
I0715 12:54:02.476665 13412 net.cpp:84] Creating Layer pool4-R_pool4-R_0_split
I0715 12:54:02.476668 13412 net.cpp:406] pool4-R_pool4-R_0_split <- pool4-R
I0715 12:54:02.476676 13412 net.cpp:380] pool4-R_pool4-R_0_split -> pool4-R_pool4-R_0_split_0
I0715 12:54:02.476683 13412 net.cpp:380] pool4-R_pool4-R_0_split -> pool4-R_pool4-R_0_split_1
I0715 12:54:02.476724 13412 net.cpp:122] Setting up pool4-R_pool4-R_0_split
I0715 12:54:02.476732 13412 net.cpp:129] Top shape: 1 512 45 32 (737280)
I0715 12:54:02.476735 13412 net.cpp:129] Top shape: 1 512 45 32 (737280)
I0715 12:54:02.476738 13412 net.cpp:137] Memory required for data: 1722177812
I0715 12:54:02.476758 13412 layer_factory.hpp:77] Creating layer conv5_1-R
I0715 12:54:02.476770 13412 net.cpp:84] Creating Layer conv5_1-R
I0715 12:54:02.476774 13412 net.cpp:406] conv5_1-R <- pool4-R_pool4-R_0_split_0
I0715 12:54:02.476781 13412 net.cpp:380] conv5_1-R -> conv5_1-R
I0715 12:54:02.485329 13412 net.cpp:122] Setting up conv5_1-R
I0715 12:54:02.485376 13412 net.cpp:129] Top shape: 1 512 45 32 (737280)
I0715 12:54:02.485381 13412 net.cpp:137] Memory required for data: 1725126932
I0715 12:54:02.485409 13412 layer_factory.hpp:77] Creating layer relu5_1-R
I0715 12:54:02.485420 13412 net.cpp:84] Creating Layer relu5_1-R
I0715 12:54:02.485427 13412 net.cpp:406] relu5_1-R <- conv5_1-R
I0715 12:54:02.485435 13412 net.cpp:367] relu5_1-R -> conv5_1-R (in-place)
I0715 12:54:02.485646 13412 net.cpp:122] Setting up relu5_1-R
I0715 12:54:02.485656 13412 net.cpp:129] Top shape: 1 512 45 32 (737280)
I0715 12:54:02.485661 13412 net.cpp:137] Memory required for data: 1728076052
I0715 12:54:02.485664 13412 layer_factory.hpp:77] Creating layer conv5_2-R
I0715 12:54:02.485677 13412 net.cpp:84] Creating Layer conv5_2-R
I0715 12:54:02.485682 13412 net.cpp:406] conv5_2-R <- conv5_1-R
I0715 12:54:02.485689 13412 net.cpp:380] conv5_2-R -> conv5_2-R
I0715 12:54:02.496436 13412 net.cpp:122] Setting up conv5_2-R
I0715 12:54:02.496495 13412 net.cpp:129] Top shape: 1 512 45 32 (737280)
I0715 12:54:02.496505 13412 net.cpp:137] Memory required for data: 1731025172
I0715 12:54:02.496523 13412 layer_factory.hpp:77] Creating layer relu5_2-R
I0715 12:54:02.496541 13412 net.cpp:84] Creating Layer relu5_2-R
I0715 12:54:02.496560 13412 net.cpp:406] relu5_2-R <- conv5_2-R
I0715 12:54:02.496573 13412 net.cpp:367] relu5_2-R -> conv5_2-R (in-place)
I0715 12:54:02.496997 13412 net.cpp:122] Setting up relu5_2-R
I0715 12:54:02.497016 13412 net.cpp:129] Top shape: 1 512 45 32 (737280)
I0715 12:54:02.497032 13412 net.cpp:137] Memory required for data: 1733974292
I0715 12:54:02.497046 13412 layer_factory.hpp:77] Creating layer conv5_3-R
I0715 12:54:02.497067 13412 net.cpp:84] Creating Layer conv5_3-R
I0715 12:54:02.497076 13412 net.cpp:406] conv5_3-R <- conv5_2-R
I0715 12:54:02.497088 13412 net.cpp:380] conv5_3-R -> conv5_3-R
I0715 12:54:02.507297 13412 net.cpp:122] Setting up conv5_3-R
I0715 12:54:02.507333 13412 net.cpp:129] Top shape: 1 512 45 32 (737280)
I0715 12:54:02.507339 13412 net.cpp:137] Memory required for data: 1736923412
I0715 12:54:02.507347 13412 layer_factory.hpp:77] Creating layer relu5_3-R
I0715 12:54:02.507362 13412 net.cpp:84] Creating Layer relu5_3-R
I0715 12:54:02.507367 13412 net.cpp:406] relu5_3-R <- conv5_3-R
I0715 12:54:02.507375 13412 net.cpp:367] relu5_3-R -> conv5_3-R (in-place)
I0715 12:54:02.507603 13412 net.cpp:122] Setting up relu5_3-R
I0715 12:54:02.507616 13412 net.cpp:129] Top shape: 1 512 45 32 (737280)
I0715 12:54:02.507622 13412 net.cpp:137] Memory required for data: 1739872532
I0715 12:54:02.507627 13412 layer_factory.hpp:77] Creating layer pool5-R
I0715 12:54:02.507637 13412 net.cpp:84] Creating Layer pool5-R
I0715 12:54:02.507640 13412 net.cpp:406] pool5-R <- conv5_3-R
I0715 12:54:02.507649 13412 net.cpp:380] pool5-R -> pool5-R
I0715 12:54:02.507709 13412 net.cpp:122] Setting up pool5-R
I0715 12:54:02.507719 13412 net.cpp:129] Top shape: 1 512 23 16 (188416)
I0715 12:54:02.507724 13412 net.cpp:137] Memory required for data: 1740626196
I0715 12:54:02.507727 13412 layer_factory.hpp:77] Creating layer fc6-R
I0715 12:54:02.507738 13412 net.cpp:84] Creating Layer fc6-R
I0715 12:54:02.507743 13412 net.cpp:406] fc6-R <- pool5-R
I0715 12:54:02.507752 13412 net.cpp:380] fc6-R -> fc6-R
I0715 12:54:02.850940 13412 net.cpp:122] Setting up fc6-R
I0715 12:54:02.850986 13412 net.cpp:129] Top shape: 1 4096 17 10 (696320)
I0715 12:54:02.850992 13412 net.cpp:137] Memory required for data: 1743411476
I0715 12:54:02.851006 13412 layer_factory.hpp:77] Creating layer relu6-R
I0715 12:54:02.851022 13412 net.cpp:84] Creating Layer relu6-R
I0715 12:54:02.851029 13412 net.cpp:406] relu6-R <- fc6-R
I0715 12:54:02.851039 13412 net.cpp:367] relu6-R -> fc6-R (in-place)
I0715 12:54:02.851909 13412 net.cpp:122] Setting up relu6-R
I0715 12:54:02.851928 13412 net.cpp:129] Top shape: 1 4096 17 10 (696320)
I0715 12:54:02.851943 13412 net.cpp:137] Memory required for data: 1746196756
I0715 12:54:02.851948 13412 layer_factory.hpp:77] Creating layer drop6-R
I0715 12:54:02.851959 13412 net.cpp:84] Creating Layer drop6-R
I0715 12:54:02.851965 13412 net.cpp:406] drop6-R <- fc6-R
I0715 12:54:02.851974 13412 net.cpp:367] drop6-R -> fc6-R (in-place)
I0715 12:54:02.852025 13412 net.cpp:122] Setting up drop6-R
I0715 12:54:02.852031 13412 net.cpp:129] Top shape: 1 4096 17 10 (696320)
I0715 12:54:02.852035 13412 net.cpp:137] Memory required for data: 1748982036
I0715 12:54:02.852041 13412 layer_factory.hpp:77] Creating layer fc7-R
I0715 12:54:02.852052 13412 net.cpp:84] Creating Layer fc7-R
I0715 12:54:02.852056 13412 net.cpp:406] fc7-R <- fc6-R
I0715 12:54:02.852064 13412 net.cpp:380] fc7-R -> fc7-R
I0715 12:54:02.905386 13412 net.cpp:122] Setting up fc7-R
I0715 12:54:02.905423 13412 net.cpp:129] Top shape: 1 4096 17 10 (696320)
I0715 12:54:02.905429 13412 net.cpp:137] Memory required for data: 1751767316
I0715 12:54:02.905443 13412 layer_factory.hpp:77] Creating layer relu7-R
I0715 12:54:02.905457 13412 net.cpp:84] Creating Layer relu7-R
I0715 12:54:02.905464 13412 net.cpp:406] relu7-R <- fc7-R
I0715 12:54:02.905474 13412 net.cpp:367] relu7-R -> fc7-R (in-place)
I0715 12:54:02.906359 13412 net.cpp:122] Setting up relu7-R
I0715 12:54:02.906375 13412 net.cpp:129] Top shape: 1 4096 17 10 (696320)
I0715 12:54:02.906380 13412 net.cpp:137] Memory required for data: 1754552596
I0715 12:54:02.906395 13412 layer_factory.hpp:77] Creating layer drop7-R
I0715 12:54:02.906405 13412 net.cpp:84] Creating Layer drop7-R
I0715 12:54:02.906410 13412 net.cpp:406] drop7-R <- fc7-R
I0715 12:54:02.906419 13412 net.cpp:367] drop7-R -> fc7-R (in-place)
I0715 12:54:02.906469 13412 net.cpp:122] Setting up drop7-R
I0715 12:54:02.906476 13412 net.cpp:129] Top shape: 1 4096 17 10 (696320)
I0715 12:54:02.906481 13412 net.cpp:137] Memory required for data: 1757337876
I0715 12:54:02.906484 13412 layer_factory.hpp:77] Creating layer score_fr-new-R
I0715 12:54:02.906496 13412 net.cpp:84] Creating Layer score_fr-new-R
I0715 12:54:02.906500 13412 net.cpp:406] score_fr-new-R <- fc7-R
I0715 12:54:02.906509 13412 net.cpp:380] score_fr-new-R -> score_fr-new-R
I0715 12:54:02.908313 13412 net.cpp:122] Setting up score_fr-new-R
I0715 12:54:02.908332 13412 net.cpp:129] Top shape: 1 3 17 10 (510)
I0715 12:54:02.908337 13412 net.cpp:137] Memory required for data: 1757339916
I0715 12:54:02.908350 13412 layer_factory.hpp:77] Creating layer upscore2-new-R
I0715 12:54:02.908363 13412 net.cpp:84] Creating Layer upscore2-new-R
I0715 12:54:02.908370 13412 net.cpp:406] upscore2-new-R <- score_fr-new-R
I0715 12:54:02.908377 13412 net.cpp:380] upscore2-new-R -> upscore2-new-R
I0715 12:54:02.908674 13412 net.cpp:122] Setting up upscore2-new-R
I0715 12:54:02.908685 13412 net.cpp:129] Top shape: 1 3 36 22 (2376)
I0715 12:54:02.908689 13412 net.cpp:137] Memory required for data: 1757349420
I0715 12:54:02.908695 13412 layer_factory.hpp:77] Creating layer upscore2-new-R_upscore2-new-R_0_split
I0715 12:54:02.908704 13412 net.cpp:84] Creating Layer upscore2-new-R_upscore2-new-R_0_split
I0715 12:54:02.908710 13412 net.cpp:406] upscore2-new-R_upscore2-new-R_0_split <- upscore2-new-R
I0715 12:54:02.908716 13412 net.cpp:380] upscore2-new-R_upscore2-new-R_0_split -> upscore2-new-R_upscore2-new-R_0_split_0
I0715 12:54:02.908725 13412 net.cpp:380] upscore2-new-R_upscore2-new-R_0_split -> upscore2-new-R_upscore2-new-R_0_split_1
I0715 12:54:02.908774 13412 net.cpp:122] Setting up upscore2-new-R_upscore2-new-R_0_split
I0715 12:54:02.908783 13412 net.cpp:129] Top shape: 1 3 36 22 (2376)
I0715 12:54:02.908789 13412 net.cpp:129] Top shape: 1 3 36 22 (2376)
I0715 12:54:02.908793 13412 net.cpp:137] Memory required for data: 1757368428
I0715 12:54:02.908797 13412 layer_factory.hpp:77] Creating layer score_pool4-new-R
I0715 12:54:02.908807 13412 net.cpp:84] Creating Layer score_pool4-new-R
I0715 12:54:02.908813 13412 net.cpp:406] score_pool4-new-R <- pool4-R_pool4-R_0_split_1
I0715 12:54:02.908821 13412 net.cpp:380] score_pool4-new-R -> score_pool4-new-R
I0715 12:54:02.910485 13412 net.cpp:122] Setting up score_pool4-new-R
I0715 12:54:02.910504 13412 net.cpp:129] Top shape: 1 3 45 32 (4320)
I0715 12:54:02.910511 13412 net.cpp:137] Memory required for data: 1757385708
I0715 12:54:02.910523 13412 layer_factory.hpp:77] Creating layer score_pool4c-R
I0715 12:54:02.910532 13412 net.cpp:84] Creating Layer score_pool4c-R
I0715 12:54:02.910537 13412 net.cpp:406] score_pool4c-R <- score_pool4-new-R
I0715 12:54:02.910544 13412 net.cpp:406] score_pool4c-R <- upscore2-new-R_upscore2-new-R_0_split_0
I0715 12:54:02.910550 13412 net.cpp:380] score_pool4c-R -> score_pool4c-R
I0715 12:54:02.910601 13412 net.cpp:122] Setting up score_pool4c-R
I0715 12:54:02.910609 13412 net.cpp:129] Top shape: 1 3 36 22 (2376)
I0715 12:54:02.910612 13412 net.cpp:137] Memory required for data: 1757395212
I0715 12:54:02.910616 13412 layer_factory.hpp:77] Creating layer fuse_pool4-R
I0715 12:54:02.910627 13412 net.cpp:84] Creating Layer fuse_pool4-R
I0715 12:54:02.910632 13412 net.cpp:406] fuse_pool4-R <- upscore2-new-R_upscore2-new-R_0_split_1
I0715 12:54:02.910639 13412 net.cpp:406] fuse_pool4-R <- score_pool4c-R
I0715 12:54:02.910645 13412 net.cpp:380] fuse_pool4-R -> fuse_pool4-R
I0715 12:54:02.910689 13412 net.cpp:122] Setting up fuse_pool4-R
I0715 12:54:02.910696 13412 net.cpp:129] Top shape: 1 3 36 22 (2376)
I0715 12:54:02.910701 13412 net.cpp:137] Memory required for data: 1757404716
I0715 12:54:02.910707 13412 layer_factory.hpp:77] Creating layer upscore_pool4-new-R
I0715 12:54:02.910718 13412 net.cpp:84] Creating Layer upscore_pool4-new-R
I0715 12:54:02.910723 13412 net.cpp:406] upscore_pool4-new-R <- fuse_pool4-R
I0715 12:54:02.910730 13412 net.cpp:380] upscore_pool4-new-R -> upscore_pool4-new-R
I0715 12:54:02.911003 13412 net.cpp:122] Setting up upscore_pool4-new-R
I0715 12:54:02.911015 13412 net.cpp:129] Top shape: 1 3 74 46 (10212)
I0715 12:54:02.911018 13412 net.cpp:137] Memory required for data: 1757445564
I0715 12:54:02.911025 13412 layer_factory.hpp:77] Creating layer upscore_pool4-new-R_upscore_pool4-new-R_0_split
I0715 12:54:02.911034 13412 net.cpp:84] Creating Layer upscore_pool4-new-R_upscore_pool4-new-R_0_split
I0715 12:54:02.911041 13412 net.cpp:406] upscore_pool4-new-R_upscore_pool4-new-R_0_split <- upscore_pool4-new-R
I0715 12:54:02.911047 13412 net.cpp:380] upscore_pool4-new-R_upscore_pool4-new-R_0_split -> upscore_pool4-new-R_upscore_pool4-new-R_0_split_0
I0715 12:54:02.911056 13412 net.cpp:380] upscore_pool4-new-R_upscore_pool4-new-R_0_split -> upscore_pool4-new-R_upscore_pool4-new-R_0_split_1
I0715 12:54:02.911105 13412 net.cpp:122] Setting up upscore_pool4-new-R_upscore_pool4-new-R_0_split
I0715 12:54:02.911113 13412 net.cpp:129] Top shape: 1 3 74 46 (10212)
I0715 12:54:02.911118 13412 net.cpp:129] Top shape: 1 3 74 46 (10212)
I0715 12:54:02.911123 13412 net.cpp:137] Memory required for data: 1757527260
I0715 12:54:02.911128 13412 layer_factory.hpp:77] Creating layer score_pool3-new-R
I0715 12:54:02.911137 13412 net.cpp:84] Creating Layer score_pool3-new-R
I0715 12:54:02.911144 13412 net.cpp:406] score_pool3-new-R <- pool3-R_pool3-R_0_split_1
I0715 12:54:02.911151 13412 net.cpp:380] score_pool3-new-R -> score_pool3-new-R
I0715 12:54:02.912271 13412 net.cpp:122] Setting up score_pool3-new-R
I0715 12:54:02.912288 13412 net.cpp:129] Top shape: 1 3 89 64 (17088)
I0715 12:54:02.912303 13412 net.cpp:137] Memory required for data: 1757595612
I0715 12:54:02.912310 13412 layer_factory.hpp:77] Creating layer score_pool3c-R
I0715 12:54:02.912322 13412 net.cpp:84] Creating Layer score_pool3c-R
I0715 12:54:02.912326 13412 net.cpp:406] score_pool3c-R <- score_pool3-new-R
I0715 12:54:02.912333 13412 net.cpp:406] score_pool3c-R <- upscore_pool4-new-R_upscore_pool4-new-R_0_split_0
I0715 12:54:02.912343 13412 net.cpp:380] score_pool3c-R -> score_pool3c-R
I0715 12:54:02.912390 13412 net.cpp:122] Setting up score_pool3c-R
I0715 12:54:02.912396 13412 net.cpp:129] Top shape: 1 3 74 46 (10212)
I0715 12:54:02.912400 13412 net.cpp:137] Memory required for data: 1757636460
I0715 12:54:02.912405 13412 layer_factory.hpp:77] Creating layer fuse_pool3-R
I0715 12:54:02.912415 13412 net.cpp:84] Creating Layer fuse_pool3-R
I0715 12:54:02.912420 13412 net.cpp:406] fuse_pool3-R <- upscore_pool4-new-R_upscore_pool4-new-R_0_split_1
I0715 12:54:02.912426 13412 net.cpp:406] fuse_pool3-R <- score_pool3c-R
I0715 12:54:02.912441 13412 net.cpp:380] fuse_pool3-R -> fuse_pool3-R
I0715 12:54:02.912477 13412 net.cpp:122] Setting up fuse_pool3-R
I0715 12:54:02.912483 13412 net.cpp:129] Top shape: 1 3 74 46 (10212)
I0715 12:54:02.912487 13412 net.cpp:137] Memory required for data: 1757677308
I0715 12:54:02.912492 13412 layer_factory.hpp:77] Creating layer upscore8-new-R
I0715 12:54:02.912501 13412 net.cpp:84] Creating Layer upscore8-new-R
I0715 12:54:02.912506 13412 net.cpp:406] upscore8-new-R <- fuse_pool3-R
I0715 12:54:02.912516 13412 net.cpp:380] upscore8-new-R -> upscore8-new-R
I0715 12:54:02.912811 13412 net.cpp:122] Setting up upscore8-new-R
I0715 12:54:02.912822 13412 net.cpp:129] Top shape: 1 3 600 376 (676800)
I0715 12:54:02.912827 13412 net.cpp:137] Memory required for data: 1760384508
I0715 12:54:02.912833 13412 layer_factory.hpp:77] Creating layer upscore8_cropped-R
I0715 12:54:02.912842 13412 net.cpp:84] Creating Layer upscore8_cropped-R
I0715 12:54:02.912847 13412 net.cpp:406] upscore8_cropped-R <- upscore8-new-R
I0715 12:54:02.912854 13412 net.cpp:406] upscore8_cropped-R <- data-R_crop_0_split_1
I0715 12:54:02.912860 13412 net.cpp:380] upscore8_cropped-R -> upscore8_cropped-R
I0715 12:54:02.912894 13412 net.cpp:122] Setting up upscore8_cropped-R
I0715 12:54:02.912900 13412 net.cpp:129] Top shape: 1 3 512 310 (476160)
I0715 12:54:02.912904 13412 net.cpp:137] Memory required for data: 1762289148
I0715 12:54:02.912909 13412 layer_factory.hpp:77] Creating layer upscore8_uncropped-R
I0715 12:54:02.913265 13412 net.cpp:84] Creating Layer upscore8_uncropped-R
I0715 12:54:02.913278 13412 net.cpp:406] upscore8_uncropped-R <- crop_info
I0715 12:54:02.913285 13412 net.cpp:406] upscore8_uncropped-R <- upscore8_cropped-R
I0715 12:54:02.913295 13412 net.cpp:406] upscore8_uncropped-R <- data_data_0_split_3
I0715 12:54:02.913302 13412 net.cpp:380] upscore8_uncropped-R -> upscore8_uncropped-R
I0715 12:54:02.916200 13412 net.cpp:122] Setting up upscore8_uncropped-R
I0715 12:54:02.916223 13412 net.cpp:129] Top shape: 1 3 512 310 (476160)
I0715 12:54:02.916235 13412 net.cpp:137] Memory required for data: 1764193788
I0715 12:54:02.916240 13412 layer_factory.hpp:77] Creating layer loss1
I0715 12:54:02.916257 13412 net.cpp:84] Creating Layer loss1
I0715 12:54:02.916263 13412 net.cpp:406] loss1 <- upscore8_cropped_upscore8_cropped_0_split_1
I0715 12:54:02.916270 13412 net.cpp:406] loss1 <- label_data_1_split_1
I0715 12:54:02.916277 13412 net.cpp:380] loss1 -> loss1
…
snapshot_prefix: "/media/Med_2T2/data2/models/snapshots/indiv:1e-5x10,20/FD1:YI3_1_20180715_091943/train"
test_initialization: false
average_loss: 20
stepvalue: 40000
iter_size: 1
I0715 13:42:05.523926 13412 solver.cpp:77] Creating training net from train_net file: /media/Med_2T2/data2/prototxts/training_I3x10.prototxt
I0715 13:42:05.526085 13412 net.cpp:51] Initializing net from parameters: 
state {
  phase: TRAIN
}
layer {
  name: "data"
  type: "Python"
  top: "data"
  top: "label"
  top: "crop_margin"
  top: "crop_prob"
  top: "crop_sample_batch"
  python_param {
    module: "Data"
    layer: "DataLayer"
  }
}
layer {
  name: "conv1_1"
  type: "Convolution"
  bottom: "data"
  top: "conv1_1"
  param {
    lr_mult: 1
    decay_mult: 1
  }
  param {
    lr_mult: 2
    decay_mult: 0
  }
  convolution_param {
    num_output: 64
    pad: 100
    kernel_size: 3
    stride: 1
  }
}
layer {
  name: "relu1_1"
  type: "ReLU"
  bottom: "conv1_1"
  top: "conv1_1"
}
layer {
  name: "conv1_2"
  type: "Convolution"
  bottom: "conv1_1"
  top: "conv1_2"
  param {
    lr_mult: 1
    decay_mult: 1
  }
  param {
    lr_mult: 2
    decay_mult: 0
  }
  convolution_param {
    num_output: 64
    pad: 1
    kernel_size: 3
    stride: 1
  }
}
layer {
  name: "relu1_2"
  type: "ReLU"
  bottom: "conv1_2"
  top: "conv1_2"
}
layer {
  name: "pool1"
  type: "Pooling"
  bottom: "conv1_2"
  top: "pool1"
  pooling_param {
    pool: MAX
    kernel_size: 2
    stride: 2
  }
}
layer {
  name: "conv2_1"
  type: "Convolution"
  bottom: "pool1"
  top: "conv2_1"
  param {
    lr_mult: 1
    decay_mult: 1
  }
  param {
    lr_mult: 2
    decay_mult: 0
  }
  convolution_param {
    num_output: 128
    pad: 1
    kernel_size: 3
    stride: 1
  }
}
layer {
  name: "relu2_1"
  type: "ReLU"
  bottom: "conv2_1"
  top: "conv2_1"
}
layer {
  name: "conv2_2"
  type: "Convolution"
  bottom: "conv2_1"
  top: "conv2_2"
  param {
    lr_mult: 1
    decay_mult: 1
  }
  param {
    lr_mult: 2
    decay_mult: 0
  }
  convolution_param {
    num_output: 128
    pad: 1
    kernel_size: 3
    stride: 1
  }
}
layer {
  name: "relu2_2"
  type: "ReLU"
  bottom: "conv2_2"
  top: "conv2_2"
}
layer {
  name: "pool2"
  type: "Pooling"
  bottom: "conv2_2"
  top: "pool2"
  pooling_param {
    pool: MAX
    kernel_size: 2
    stride: 2
  }
}
layer {
  name: "conv3_1"
  type: "Convolution"
  bottom: "pool2"
  top: "conv3_1"
  param {
    lr_mult: 1
    decay_mult: 1
  }
  param {
    lr_mult: 2
    decay_mult: 0
  }
  convolution_param {
    num_output: 256
    pad: 1
    kernel_size: 3
    stride: 1
  }
}
layer {
  name: "relu3_1"
  type: "ReLU"
  bottom: "conv3_1"
  top: "conv3_1"
}
layer {
  name: "conv3_2"
  type: "Convolution"
  bottom: "conv3_1"
  top: "conv3_2"
  param {
    lr_mult: 1
    decay_mult: 1
  }
  param {
    lr_mult: 2
    decay_mult: 0
  }
  convolution_param {
    num_output: 256
    pad: 1
    kernel_size: 3
    stride: 1
  }
}
layer {
  name: "relu3_2"
  type: "ReLU"
  bottom: "conv3_2"
  top: "conv3_2"
}
layer {
  name: "conv3_3"
  type: "Convolution"
  bottom: "conv3_2"
  top: "conv3_3"
  param {
    lr_mult: 1
    decay_mult: 1
  }
  param {
    lr_mult: 2
    decay_mult: 0
  }
  convolution_param {
    num_output: 256
    pad: 1
    kernel_size: 3
    stride: 1
  }
}
layer {
  name: "relu3_3"
  type: "ReLU"
  bottom: "conv3_3"
  top: "conv3_3"
}
layer {
  name: "pool3"
  type: "Pooling"
  bottom: "conv3_3"
  top: "pool3"
  pooling_param {
    pool: MAX
    kernel_size: 2
    stride: 2
  }
}
layer {
  name: "conv4_1"
  type: "Convolution"
  bottom: "pool3"
  top: "conv4_1"
  param {
    lr_mult: 1
    decay_mult: 1
  }
  param {
    lr_mult: 2
    decay_mult: 0
  }
  convolution_param {
    num_output: 512
    pad: 1
    kernel_size: 3
    stride: 1
  }
}
layer {
  name: "relu4_1"
  type: "ReLU"
  bottom: "conv4_1"
  top: "conv4_1"
}
layer {
  name: "conv4_2"
  type: "Convolution"
  bottom: "conv4_1"
  top: "conv4_2"
  param {
    lr_mult: 1
    decay_mult: 1
  }
  param {
    lr_mult: 2
    decay_mult: 0
  }
  convolution_param {
    num_output: 512
    pad: 1
    kernel_size: 3
    stride: 1
  }
}
layer {
  name: "relu4_2"
  type: "ReLU"
  bottom: "conv4_2"
  top: "conv4_2"
}
layer {
  name: "conv4_3"
  type: "Convolution"
  bottom: "conv4_2"
  top: "conv4_3"
  param {
    lr_mult: 1
    decay_mult: 1
  }
  param {
    lr_mult: 2
    decay_mult: 0
  }
  convolution_param {
    num_output: 512
    pad: 1
    kernel_size: 3
    stride: 1
  }
}
layer {
  name: "relu4_3"
  type: "ReLU"
  bottom: "conv4_3"
  top: "conv4_3"
}
layer {
  name: "pool4"
  type: "Pooling"
  bottom: "conv4_3"
  top: "pool4"
  pooling_param {
    pool: MAX
    kernel_size: 2
    stride: 2
  }
}
layer {
  name: "conv5_1"
  type: "Convolution"
  bottom: "pool4"
  top: "conv5_1"
  param {
    lr_mult: 1
    decay_mult: 1
  }
  param {
    lr_mult: 2
    decay_mult: 0
  }
  convolution_param {
    num_output: 512
    pad: 1
    kernel_size: 3
    stride: 1
  }
}
layer {
  name: "relu5_1"
  type: "ReLU"
  bottom: "conv5_1"
  top: "conv5_1"
}
layer {
  name: "conv5_2"
  type: "Convolution"
  bottom: "conv5_1"
  top: "conv5_2"
  param {
    lr_mult: 1
    decay_mult: 1
  }
  param {
    lr_mult: 2
    decay_mult: 0
  }
  convolution_param {
    num_output: 512
    pad: 1
    kernel_size: 3
    stride: 1
  }
}
layer {
  name: "relu5_2"
  type: "ReLU"
  bottom: "conv5_2"
  top: "conv5_2"
}
layer {
  name: "conv5_3"
  type: "Convolution"
  bottom: "conv5_2"
  top: "conv5_3"
  param {
    lr_mult: 1
    decay_mult: 1
  }
  param {
    lr_mult: 2
    decay_mult: 0
  }
  convolution_param {
    num_output: 512
    pad: 1
    kernel_size: 3
    stride: 1
  }
}
layer {
  name: "relu5_3"
  type: "ReLU"
  bottom: "conv5_3"
  top: "conv5_3"
}
layer {
  name: "pool5"
  type: "Pooling"
  bottom: "conv5_3"
  top: "pool5"
  pooling_param {
    pool: MAX
    kernel_size: 2
    stride: 2
  }
}
layer {
  name: "fc6"
  type: "Convolution"
  bottom: "pool5"
  top: "fc6"
  param {
    lr_mult: 1
    decay_mult: 1
  }
  param {
    lr_mult: 2
    decay_mult: 0
  }
  convolution_param {
    num_output: 4096
    pad: 0
    kernel_size: 7
    stride: 1
  }
}
layer {
  name: "relu6"
  type: "ReLU"
  bottom: "fc6"
  top: "fc6"
}
layer {
  name: "drop6"
  type: "Dropout"
  bottom: "fc6"
  top: "fc6"
  dropout_param {
    dropout_ratio: 0.5
  }
}
layer {
  name: "fc7"
  type: "Convolution"
  bottom: "fc6"
  top: "fc7"
  param {
    lr_mult: 1
    decay_mult: 1
  }
  param {
    lr_mult: 2
    decay_mult: 0
  }
  convolution_param {
    num_output: 4096
    pad: 0
    kernel_size: 1
    stride: 1
  }
}
layer {
  name: "relu7"
  type: "ReLU"
  bottom: "fc7"
  top: "fc7"
}
layer {
  name: "drop7"
  type: "Dropout"
  bottom: "fc7"
  top: "fc7"
  dropout_param {
    dropout_ratio: 0.5
  }
}
layer {
  name: "score_fr-new"
  type: "Convolution"
  bottom: "fc7"
  top: "score_fr-new"
  param {
    lr_mult: 1
    decay_mult: 1
  }
  param {
    lr_mult: 2
    decay_mult: 0
  }
  convolution_param {
    num_output: 3
    kernel_size: 1
  }
}
layer {
  name: "upscore2-new"
  type: "Deconvolution"
  bottom: "score_fr-new"
  top: "upscore2-new"
  param {
    lr_mult: 0
  }
  convolution_param {
    num_output: 3
    bias_term: false
    kernel_size: 4
    stride: 2
  }
}
layer {
  name: "score_pool4-new"
  type: "Convolution"
  bottom: "pool4"
  top: "score_pool4-new"
  param {
    lr_mult: 1
    decay_mult: 1
  }
  param {
    lr_mult: 2
    decay_mult: 0
  }
  convolution_param {
    num_output: 3
    pad: 0
    kernel_size: 1
  }
}
layer {
  name: "score_pool4c"
  type: "Crop"
  bottom: "score_pool4-new"
  bottom: "upscore2-new"
  top: "score_pool4c"
  crop_param {
    axis: 2
    offset: 5
  }
}
layer {
  name: "fuse_pool4"
  type: "Eltwise"
  bottom: "upscore2-new"
  bottom: "score_pool4c"
  top: "fuse_pool4"
  eltwise_param {
    operation: SUM
  }
}
layer {
  name: "upscore_pool4-new"
  type: "Deconvolution"
  bottom: "fuse_pool4"
  top: "upscore_pool4-new"
  param {
    lr_mult: 0
  }
  convolution_param {
    num_output: 3
    bias_term: false
    kernel_size: 4
    stride: 2
  }
}
layer {
  name: "score_pool3-new"
  type: "Convolution"
  bottom: "pool3"
  top: "score_pool3-new"
  param {
    lr_mult: 1
    decay_mult: 1
  }
  param {
    lr_mult: 2
    decay_mult: 0
  }
  convolution_param {
    num_output: 3
    pad: 0
    kernel_size: 1
  }
}
layer {
  name: "score_pool3c"
  type: "Crop"
  bottom: "score_pool3-new"
  bottom: "upscore_pool4-new"
  top: "score_pool3c"
  crop_param {
    axis: 2
    offset: 9
  }
}
layer {
  name: "fuse_pool3"
  type: "Eltwise"
  bottom: "upscore_pool4-new"
  bottom: "score_pool3c"
  top: "fuse_pool3"
  eltwise_param {
    operation: SUM
  }
}
layer {
  name: "upscore8-new"
  type: "Deconvolution"
  bottom: "fuse_pool3"
  top: "upscore8-new"
  param {
    lr_mult: 0
  }
  convolution_param {
    num_output: 3
    bias_term: false
    kernel_size: 16
    stride: 8
  }
}
layer {
  name: "upscore8_cropped"
  type: "Crop"
  bottom: "upscore8-new"
  bottom: "data"
  top: "upscore8_cropped"
  crop_param {
    axis: 2
    offset: 31
  }
}
layer {
  name: "prob"
  type: "Sigmoid"
  bottom: "upscore8_cropped"
  top: "prob"
}
layer {
  name: "saliency1"
  type: "Convolution"
  bottom: "prob"
  top: "saliency1"
  param {
    lr_mult: 10
    decay_mult: 1
  }
  param {
    lr_mult: 20
    decay_mult: 0
  }
  convolution_param {
    num_output: 3
    pad: 1
    kernel_size: 3
    stride: 1
    weight_filler {
      type: "xavier"
    }
    bias_filler {
      type: "constant"
      value: 1
    }
  }
}
layer {
  name: "relu_saliency1"
  type: "ReLU"
  bottom: "saliency1"
  top: "saliency1"
}
layer {
  name: "saliency"
  type: "Convolution"
  bottom: "saliency1"
  top: "saliency"
  param {
    lr_mult: 10
    decay_mult: 1
  }
  param {
    lr_mult: 20
    decay_mult: 0
  }
  convolution_param {
    num_output: 3
    pad: 2
    kernel_size: 5
    stride: 1
    weight_filler {
      type: "xavier"
    }
    bias_filler {
      type: "constant"
      value: 1
    }
  }
}
layer {
  name: "saliency_data"
  type: "Eltwise"
  bottom: "data"
  bottom: "saliency"
  top: "saliency_data"
  eltwise_param {
    operation: PROD
  }
}
layer {
  name: "crop"
  type: "Python"
  bottom: "label"
  bottom: "saliency_data"
  bottom: "crop_margin"
  bottom: "crop_prob"
  bottom: "crop_sample_batch"
  top: "data-R"
  top: "crop_info"
  python_param {
    module: "Crop"
    layer: "CropLayer"
    param_str: "{\"TEST\": 0}"
  }
}
layer {
  name: "conv1_1-R"
  type: "Convolution"
  bottom: "data-R"
  top: "conv1_1-R"
  param {
    lr_mult: 10
    decay_mult: 1
  }
  param {
    lr_mult: 20
    decay_mult: 0
  }
  convolution_param {
    num_output: 64
    pad: 100
    kernel_size: 3
    stride: 1
  }
}
layer {
  name: "relu1_1-R"
  type: "ReLU"
  bottom: "conv1_1-R"
  top: "conv1_1-R"
}
layer {
  name: "conv1_2-R"
  type: "Convolution"
  bottom: "conv1_1-R"
  top: "conv1_2-R"
  param {
    lr_mult: 10
    decay_mult: 1
  }
  param {
    lr_mult: 20
    decay_mult: 0
  }
  convolution_param {
    num_output: 64
    pad: 1
    kernel_size: 3
    stride: 1
  }
}
layer {
  name: "relu1_2-R"
  type: "ReLU"
  bottom: "conv1_2-R"
  top: "conv1_2-R"
}
layer {
  name: "pool1-R"
  type: "Pooling"
  bottom: "conv1_2-R"
  top: "pool1-R"
  pooling_param {
    pool: MAX
    kernel_size: 2
    stride: 2
  }
}
layer {
  name: "conv2_1-R"
  type: "Convolution"
  bottom: "pool1-R"
  top: "conv2_1-R"
  param {
    lr_mult: 10
    decay_mult: 1
  }
  param {
    lr_mult: 20
    decay_mult: 0
  }
  convolution_param {
    num_output: 128
    pad: 1
    kernel_size: 3
    stride: 1
  }
}
layer {
  name: "relu2_1-R"
  type: "ReLU"
  bottom: "conv2_1-R"
  top: "conv2_1-R"
}
layer {
  name: "conv2_2-R"
  type: "Convolution"
  bottom: "conv2_1-R"
  top: "conv2_2-R"
  param {
    lr_mult: 10
    decay_mult: 1
  }
  param {
    lr_mult: 20
    decay_mult: 0
  }
  convolution_param {
    num_output: 128
    pad: 1
    kernel_size: 3
    stride: 1
  }
}
layer {
  name: "relu2_2-R"
  type: "ReLU"
  bottom: "conv2_2-R"
  top: "conv2_2-R"
}
layer {
  name: "pool2-R"
  type: "Pooling"
  bottom: "conv2_2-R"
  top: "pool2-R"
  pooling_param {
    pool: MAX
    kernel_size: 2
    stride: 2
  }
}
layer {
  name: "conv3_1-R"
  type: "Convolution"
  bottom: "pool2-R"
  top: "conv3_1-R"
  param {
    lr_mult: 10
    decay_mult: 1
  }
  param {
    lr_mult: 20
    decay_mult: 0
  }
  convolution_param {
    num_output: 256
    pad: 1
    kernel_size: 3
    stride: 1
  }
}
layer {
  name: "relu3_1-R"
  type: "ReLU"
  bottom: "conv3_1-R"
  top: "conv3_1-R"
}
layer {
  name: "conv3_2-R"
  type: "Convolution"
  bottom: "conv3_1-R"
  top: "conv3_2-R"
  param {
    lr_mult: 10
    decay_mult: 1
  }
  param {
    lr_mult: 20
    decay_mult: 0
  }
  convolution_param {
    num_output: 256
    pad: 1
    kernel_size: 3
    stride: 1
  }
}
layer {
  name: "relu3_2-R"
  type: "ReLU"
  bottom: "conv3_2-R"
  top: "conv3_2-R"
}
layer {
  name: "conv3_3-R"
  type: "Convolution"
  bottom: "conv3_2-R"
  top: "conv3_3-R"
  param {
    lr_mult: 10
    decay_mult: 1
  }
  param {
    lr_mult: 20
    decay_mult: 0
  }
  convolution_param {
    num_output: 256
    pad: 1
    kernel_size: 3
    stride: 1
  }
}
layer {
  name: "relu3_3-R"
  type: "ReLU"
  bottom: "conv3_3-R"
  top: "conv3_3-R"
}
layer {
  name: "pool3-R"
  type: "Pooling"
  bottom: "conv3_3-R"
  top: "pool3-R"
  pooling_param {
    pool: MAX
    kernel_size: 2
    stride: 2
  }
}
layer {
  name: "conv4_1-R"
  type: "Convolution"
  bottom: "pool3-R"
  top: "conv4_1-R"
  param {
    lr_mult: 10
    decay_mult: 1
  }
  param {
    lr_mult: 20
    decay_mult: 0
  }
  convolution_param {
    num_output: 512
    pad: 1
    kernel_size: 3
    stride: 1
  }
}
layer {
  name: "relu4_1-R"
  type: "ReLU"
  bottom: "conv4_1-R"
  top: "conv4_1-R"
}
layer {
  name: "conv4_2-R"
  type: "Convolution"
  bottom: "conv4_1-R"
  top: "conv4_2-R"
  param {
    lr_mult: 10
    decay_mult: 1
  }
  param {
    lr_mult: 20
    decay_mult: 0
  }
  convolution_param {
    num_output: 512
    pad: 1
    kernel_size: 3
    stride: 1
  }
}
layer {
  name: "relu4_2-R"
  type: "ReLU"
  bottom: "conv4_2-R"
  top: "conv4_2-R"
}
layer {
  name: "conv4_3-R"
  type: "Convolution"
  bottom: "conv4_2-R"
  top: "conv4_3-R"
  param {
    lr_mult: 10
    decay_mult: 1
  }
  param {
    lr_mult: 20
    decay_mult: 0
  }
  convolution_param {
    num_output: 512
    pad: 1
    kernel_size: 3
    stride: 1
  }
}
layer {
  name: "relu4_3-R"
  type: "ReLU"
  bottom: "conv4_3-R"
  top: "conv4_3-R"
}
layer {
  name: "pool4-R"
  type: "Pooling"
  bottom: "conv4_3-R"
  top: "pool4-R"
  pooling_param {
    pool: MAX
    kernel_size: 2
    stride: 2
  }
}
layer {
  name: "conv5_1-R"
  type: "Convolution"
  bottom: "pool4-R"
  top: "conv5_1-R"
  param {
    lr_mult: 10
    decay_mult: 1
  }
  param {
    lr_mult: 20
    decay_mult: 0
  }
  convolution_param {
    num_output: 512
    pad: 1
    kernel_size: 3
    stride: 1
  }
}
layer {
  name: "relu5_1-R"
  type: "ReLU"
  bottom: "conv5_1-R"
  top: "conv5_1-R"
}
layer {
  name: "conv5_2-R"
  type: "Convolution"
  bottom: "conv5_1-R"
  top: "conv5_2-R"
  param {
    lr_mult: 10
    decay_mult: 1
  }
  param {
    lr_mult: 20
    decay_mult: 0
  }
  convolution_param {
    num_output: 512
    pad: 1
    kernel_size: 3
    stride: 1
  }
}
layer {
  name: "relu5_2-R"
  type: "ReLU"
  bottom: "conv5_2-R"
  top: "conv5_2-R"
}
layer {
  name: "conv5_3-R"
  type: "Convolution"
  bottom: "conv5_2-R"
  top: "conv5_3-R"
  param {
    lr_mult: 10
    decay_mult: 1
  }
  param {
    lr_mult: 20
    decay_mult: 0
  }
  convolution_param {
    num_output: 512
    pad: 1
    kernel_size: 3
    stride: 1
  }
}
layer {
  name: "relu5_3-R"
  type: "ReLU"
  bottom: "conv5_3-R"
  top: "conv5_3-R"
}
layer {
  name: "pool5-R"
  type: "Pooling"
  bottom: "conv5_3-R"
  top: "pool5-R"
  pooling_param {
    pool: MAX
    kernel_size: 2
    stride: 2
  }
}
layer {
  name: "fc6-R"
  type: "Convolution"
  bottom: "pool5-R"
  top: "fc6-R"
  param {
    lr_mult: 10
    decay_mult: 1
  }
  param {
    lr_mult: 20
    decay_mult: 0
  }
  convolution_param {
    num_output: 4096
    pad: 0
    kernel_size: 7
    stride: 1
  }
}
layer {
  name: "relu6-R"
  type: "ReLU"
  bottom: "fc6-R"
  top: "fc6-R"
}
layer {
  name: "drop6-R"
  type: "Dropout"
  bottom: "fc6-R"
  top: "fc6-R"
  dropout_param {
    dropout_ratio: 0.5
  }
}
layer {
  name: "fc7-R"
  type: "Convolution"
  bottom: "fc6-R"
  top: "fc7-R"
  param {
    lr_mult: 10
    decay_mult: 1
  }
  param {
    lr_mult: 20
    decay_mult: 0
  }
  convolution_param {
    num_output: 4096
    pad: 0
    kernel_size: 1
    stride: 1
  }
}
layer {
  name: "relu7-R"
  type: "ReLU"
  bottom: "fc7-R"
  top: "fc7-R"
}
layer {
  name: "drop7-R"
  type: "Dropout"
  bottom: "fc7-R"
  top: "fc7-R"
  dropout_param {
    dropout_ratio: 0.5
  }
}
layer {
  name: "score_fr-new-R"
  type: "Convolution"
  bottom: "fc7-R"
  top: "score_fr-new-R"
  param {
    lr_mult: 10
    decay_mult: 1
  }
  param {
    lr_mult: 20
    decay_mult: 0
  }
  convolution_param {
    num_output: 3
    kernel_size: 1
  }
}
layer {
  name: "upscore2-new-R"
  type: "Deconvolution"
  bottom: "score_fr-new-R"
  top: "upscore2-new-R"
  param {
    lr_mult: 0
  }
  convolution_param {
    num_output: 3
    bias_term: false
    kernel_size: 4
    stride: 2
  }
}
layer {
  name: "score_pool4-new-R"
  type: "Convolution"
  bottom: "pool4-R"
  top: "score_pool4-new-R"
  param {
    lr_mult: 10
    decay_mult: 1
  }
  param {
    lr_mult: 20
    decay_mult: 0
  }
  convolution_param {
    num_output: 3
    pad: 0
    kernel_size: 1
  }
}
layer {
  name: "score_pool4c-R"
  type: "Crop"
  bottom: "score_pool4-new-R"
  bottom: "upscore2-new-R"
  top: "score_pool4c-R"
  crop_param {
    axis: 2
    offset: 5
  }
}
layer {
  name: "fuse_pool4-R"
  type: "Eltwise"
  bottom: "upscore2-new-R"
  bottom: "score_pool4c-R"
  top: "fuse_pool4-R"
  eltwise_param {
    operation: SUM
  }
}
layer {
  name: "upscore_pool4-new-R"
  type: "Deconvolution"
  bottom: "fuse_pool4-R"
  top: "upscore_pool4-new-R"
  param {
    lr_mult: 0
  }
  convolution_param {
    num_output: 3
    bias_term: false
    kernel_size: 4
    stride: 2
  }
}
layer {
  name: "score_pool3-new-R"
  type: "Convolution"
  bottom: "pool3-R"
  top: "score_pool3-new-R"
  param {
    lr_mult: 10
    decay_mult: 1
  }
  param {
    lr_mult: 20
    decay_mult: 0
  }
  convolution_param {
    num_output: 3
    pad: 0
    kernel_size: 1
  }
}
layer {
  name: "score_pool3c-R"
  type: "Crop"
  bottom: "score_pool3-new-R"
  bottom: "upscore_pool4-new-R"
  top: "score_pool3c-R"
  crop_param {
    axis: 2
    offset: 9
  }
}
layer {
  name: "fuse_pool3-R"
  type: "Eltwise"
  bottom: "upscore_pool4-new-R"
  bottom: "score_pool3c-R"
  top: "fuse_pool3-R"
  eltwise_param {
    operation: SUM
  }
}
layer {
  name: "upscore8-new-R"
  type: "Deconvolution"
  bottom: "fuse_pool3-R"
  top: "upscore8-new-R"
  param {
    lr_mult: 0
  }
  convolution_param {
    num_output: 3
    bias_term: false
    kernel_size: 16
    stride: 8
  }
}
layer {
  name: "upscore8_cropped-R"
  type: "Crop"
  bottom: "upscore8-new-R"
  bottom: "data-R"
  top: "upscore8_cropped-R"
  crop_param {
    axis: 2
    offset: 31
  }
}
layer {
  name: "upscore8_uncropped-R"
  type: "Python"
  bottom: "crop_info"
  bottom: "upscore8_cropped-R"
  bottom: "data"
  top: "upscore8_uncropped-R"
  python_param {
    module: "Uncrop"
    layer: "UncropLayer"
  }
}
layer {
  name: "loss1"
  type: "DiceLoss"
  bottom: "upscore8_cropped"
  bottom: "label"
  top: "loss1"
  loss_weight: 0.333333
}
layer {
  name: "loss2"
  type: "DiceLoss"
  bottom: "upscore8_uncropped-R"
  bottom: "label"
  top: "loss2"
  loss_weight: 0.666667
}
I0715 13:42:05.526538 13412 layer_factory.hpp:77] Creating layer data
I0715 13:42:05.526588 13412 net.cpp:84] Creating Layer data
I0715 13:42:05.526595 13412 net.cpp:380] data -> data
I0715 13:42:05.526604 13412 net.cpp:380] data -> label
I0715 13:42:05.526612 13412 net.cpp:380] data -> crop_margin
I0715 13:42:05.526618 13412 net.cpp:380] data -> crop_prob
I0715 13:42:05.526623 13412 net.cpp:380] data -> crop_sample_batch
I0715 13:42:05.671241 13412 net.cpp:122] Setting up data
I0715 13:42:05.671324 13412 net.cpp:129] Top shape: 1 3 512 209 (321024)
I0715 13:42:05.671330 13412 net.cpp:129] Top shape: 1 3 512 209 (321024)
I0715 13:42:05.671335 13412 net.cpp:129] Top shape: 1 (1)
I0715 13:42:05.671339 13412 net.cpp:129] Top shape: 1 (1)
I0715 13:42:05.671344 13412 net.cpp:129] Top shape: 1 (1)
I0715 13:42:05.671346 13412 net.cpp:137] Memory required for data: 2568204
I0715 13:42:05.671370 13412 layer_factory.hpp:77] Creating layer data_data_0_split
I0715 13:42:05.671385 13412 net.cpp:84] Creating Layer data_data_0_split
I0715 13:42:05.671388 13412 net.cpp:406] data_data_0_split <- data
I0715 13:42:05.671396 13412 net.cpp:380] data_data_0_split -> data_data_0_split_0
I0715 13:42:05.671408 13412 net.cpp:380] data_data_0_split -> data_data_0_split_1
I0715 13:42:05.671414 13412 net.cpp:380] data_data_0_split -> data_data_0_split_2
I0715 13:42:05.671419 13412 net.cpp:380] data_data_0_split -> data_data_0_split_3
I0715 13:42:05.671510 13412 net.cpp:122] Setting up data_data_0_split
I0715 13:42:05.671519 13412 net.cpp:129] Top shape: 1 3 512 209 (321024)
I0715 13:42:05.671524 13412 net.cpp:129] Top shape: 1 3 512 209 (321024)
I0715 13:42:05.671527 13412 net.cpp:129] Top shape: 1 3 512 209 (321024)
I0715 13:42:05.671532 13412 net.cpp:129] Top shape: 1 3 512 209 (321024)
I0715 13:42:05.671535 13412 net.cpp:137] Memory required for data: 7704588
I0715 13:42:05.671540 13412 layer_factory.hpp:77] Creating layer label_data_1_split
I0715 13:42:05.671545 13412 net.cpp:84] Creating Layer label_data_1_split
I0715 13:42:05.671548 13412 net.cpp:406] label_data_1_split <- label
I0715 13:42:05.671555 13412 net.cpp:380] label_data_1_split -> label_data_1_split_0
I0715 13:42:05.671561 13412 net.cpp:380] label_data_1_split -> label_data_1_split_1
I0715 13:42:05.671566 13412 net.cpp:380] label_data_1_split -> label_data_1_split_2
I0715 13:42:05.671629 13412 net.cpp:122] Setting up label_data_1_split
I0715 13:42:05.671638 13412 net.cpp:129] Top shape: 1 3 512 209 (321024)
I0715 13:42:05.671641 13412 net.cpp:129] Top shape: 1 3 512 209 (321024)
I0715 13:42:05.671645 13412 net.cpp:129] Top shape: 1 3 512 209 (321024)
I0715 13:42:05.671649 13412 net.cpp:137] Memory required for data: 11556876
I0715 13:42:05.671653 13412 layer_factory.hpp:77] Creating layer conv1_1
I0715 13:42:05.671663 13412 net.cpp:84] Creating Layer conv1_1
I0715 13:42:05.671666 13412 net.cpp:406] conv1_1 <- data_data_0_split_0
I0715 13:42:05.671676 13412 net.cpp:380] conv1_1 -> conv1_1
I0715 13:42:05.675981 13412 net.cpp:122] Setting up conv1_1
I0715 13:42:05.675998 13412 net.cpp:129] Top shape: 1 64 710 407 (18494080)
I0715 13:42:05.676019 13412 net.cpp:137] Memory required for data: 85533196
I0715 13:42:05.676031 13412 layer_factory.hpp:77] Creating layer relu1_1
I0715 13:42:05.676039 13412 net.cpp:84] Creating Layer relu1_1
I0715 13:42:05.676059 13412 net.cpp:406] relu1_1 <- conv1_1
I0715 13:42:05.676064 13412 net.cpp:367] relu1_1 -> conv1_1 (in-place)
I0715 13:42:05.676879 13412 net.cpp:122] Setting up relu1_1
I0715 13:42:05.676892 13412 net.cpp:129] Top shape: 1 64 710 407 (18494080)
I0715 13:42:05.676911 13412 net.cpp:137] Memory required for data: 159509516
I0715 13:42:05.676915 13412 layer_factory.hpp:77] Creating layer conv1_2
I0715 13:42:05.676924 13412 net.cpp:84] Creating Layer conv1_2
I0715 13:42:05.676928 13412 net.cpp:406] conv1_2 <- conv1_1
I0715 13:42:05.676950 13412 net.cpp:380] conv1_2 -> conv1_2
I0715 13:42:05.681159 13412 net.cpp:122] Setting up conv1_2
I0715 13:42:05.681174 13412 net.cpp:129] Top shape: 1 64 710 407 (18494080)
I0715 13:42:05.681195 13412 net.cpp:137] Memory required for data: 233485836
I0715 13:42:05.681205 13412 layer_factory.hpp:77] Creating layer relu1_2
I0715 13:42:05.681210 13412 net.cpp:84] Creating Layer relu1_2
I0715 13:42:05.681215 13412 net.cpp:406] relu1_2 <- conv1_2
I0715 13:42:05.681236 13412 net.cpp:367] relu1_2 -> conv1_2 (in-place)
I0715 13:42:05.681462 13412 net.cpp:122] Setting up relu1_2
I0715 13:42:05.681473 13412 net.cpp:129] Top shape: 1 64 710 407 (18494080)
I0715 13:42:05.681476 13412 net.cpp:137] Memory required for data: 307462156
I0715 13:42:05.681480 13412 layer_factory.hpp:77] Creating layer pool1
I0715 13:42:05.681488 13412 net.cpp:84] Creating Layer pool1
I0715 13:42:05.681491 13412 net.cpp:406] pool1 <- conv1_2
I0715 13:42:05.681496 13412 net.cpp:380] pool1 -> pool1
I0715 13:42:05.681569 13412 net.cpp:122] Setting up pool1
I0715 13:42:05.681577 13412 net.cpp:129] Top shape: 1 64 355 204 (4634880)
I0715 13:42:05.681581 13412 net.cpp:137] Memory required for data: 326001676
I0715 13:42:05.681584 13412 layer_factory.hpp:77] Creating layer conv2_1
I0715 13:42:05.681593 13412 net.cpp:84] Creating Layer conv2_1
I0715 13:42:05.681597 13412 net.cpp:406] conv2_1 <- pool1
I0715 13:42:05.681603 13412 net.cpp:380] conv2_1 -> conv2_1
I0715 13:42:05.683244 13412 net.cpp:122] Setting up conv2_1
I0715 13:42:05.683259 13412 net.cpp:129] Top shape: 1 128 355 204 (9269760)
I0715 13:42:05.683286 13412 net.cpp:137] Memory required for data: 363080716
I0715 13:42:05.683320 13412 layer_factory.hpp:77] Creating layer relu2_1
I0715 13:42:05.683327 13412 net.cpp:84] Creating Layer relu2_1
I0715 13:42:05.683331 13412 net.cpp:406] relu2_1 <- conv2_1
I0715 13:42:05.683336 13412 net.cpp:367] relu2_1 -> conv2_1 (in-place)
I0715 13:42:05.683552 13412 net.cpp:122] Setting up relu2_1
I0715 13:42:05.683563 13412 net.cpp:129] Top shape: 1 128 355 204 (9269760)
I0715 13:42:05.683567 13412 net.cpp:137] Memory required for data: 400159756
I0715 13:42:05.683570 13412 layer_factory.hpp:77] Creating layer conv2_2
I0715 13:42:05.683579 13412 net.cpp:84] Creating Layer conv2_2
I0715 13:42:05.683583 13412 net.cpp:406] conv2_2 <- conv2_1
I0715 13:42:05.683588 13412 net.cpp:380] conv2_2 -> conv2_2
I0715 13:42:05.685760 13412 net.cpp:122] Setting up conv2_2
I0715 13:42:05.685773 13412 net.cpp:129] Top shape: 1 128 355 204 (9269760)
I0715 13:42:05.685793 13412 net.cpp:137] Memory required for data: 437238796
I0715 13:42:05.685801 13412 layer_factory.hpp:77] Creating layer relu2_2
I0715 13:42:05.685806 13412 net.cpp:84] Creating Layer relu2_2
I0715 13:42:05.685811 13412 net.cpp:406] relu2_2 <- conv2_2
I0715 13:42:05.685830 13412 net.cpp:367] relu2_2 -> conv2_2 (in-place)
I0715 13:42:05.686054 13412 net.cpp:122] Setting up relu2_2
I0715 13:42:05.686064 13412 net.cpp:129] Top shape: 1 128 355 204 (9269760)
I0715 13:42:05.686069 13412 net.cpp:137] Memory required for data: 474317836
I0715 13:42:05.686072 13412 layer_factory.hpp:77] Creating layer pool2
I0715 13:42:05.686079 13412 net.cpp:84] Creating Layer pool2
I0715 13:42:05.686082 13412 net.cpp:406] pool2 <- conv2_2
I0715 13:42:05.686089 13412 net.cpp:380] pool2 -> pool2
I0715 13:42:05.686153 13412 net.cpp:122] Setting up pool2
I0715 13:42:05.686161 13412 net.cpp:129] Top shape: 1 128 178 102 (2323968)
I0715 13:42:05.686164 13412 net.cpp:137] Memory required for data: 483613708
I0715 13:42:05.686168 13412 layer_factory.hpp:77] Creating layer conv3_1
I0715 13:42:05.686177 13412 net.cpp:84] Creating Layer conv3_1
I0715 13:42:05.686180 13412 net.cpp:406] conv3_1 <- pool2
I0715 13:42:05.686187 13412 net.cpp:380] conv3_1 -> conv3_1
I0715 13:42:05.698017 13412 net.cpp:122] Setting up conv3_1
I0715 13:42:05.698065 13412 net.cpp:129] Top shape: 1 256 178 102 (4647936)
I0715 13:42:05.698076 13412 net.cpp:137] Memory required for data: 502205452
I0715 13:42:05.698104 13412 layer_factory.hpp:77] Creating layer relu3_1
I0715 13:42:05.698124 13412 net.cpp:84] Creating Layer relu3_1
I0715 13:42:05.698137 13412 net.cpp:406] relu3_1 <- conv3_1
I0715 13:42:05.698153 13412 net.cpp:367] relu3_1 -> conv3_1 (in-place)
I0715 13:42:05.698612 13412 net.cpp:122] Setting up relu3_1
I0715 13:42:05.698631 13412 net.cpp:129] Top shape: 1 256 178 102 (4647936)
I0715 13:42:05.698638 13412 net.cpp:137] Memory required for data: 520797196
I0715 13:42:05.698647 13412 layer_factory.hpp:77] Creating layer conv3_2
I0715 13:42:05.698668 13412 net.cpp:84] Creating Layer conv3_2
I0715 13:42:05.698685 13412 net.cpp:406] conv3_2 <- conv3_1
I0715 13:42:05.698700 13412 net.cpp:380] conv3_2 -> conv3_2
I0715 13:42:05.706310 13412 net.cpp:122] Setting up conv3_2
I0715 13:42:05.706349 13412 net.cpp:129] Top shape: 1 256 178 102 (4647936)
I0715 13:42:05.706357 13412 net.cpp:137] Memory required for data: 539388940
I0715 13:42:05.706369 13412 layer_factory.hpp:77] Creating layer relu3_2
I0715 13:42:05.706383 13412 net.cpp:84] Creating Layer relu3_2
I0715 13:42:05.706390 13412 net.cpp:406] relu3_2 <- conv3_2
I0715 13:42:05.706399 13412 net.cpp:367] relu3_2 -> conv3_2 (in-place)
I0715 13:42:05.706734 13412 net.cpp:122] Setting up relu3_2
I0715 13:42:05.706760 13412 net.cpp:129] Top shape: 1 256 178 102 (4647936)
I0715 13:42:05.706766 13412 net.cpp:137] Memory required for data: 557980684
I0715 13:42:05.706784 13412 layer_factory.hpp:77] Creating layer conv3_3
I0715 13:42:05.706799 13412 net.cpp:84] Creating Layer conv3_3
I0715 13:42:05.706805 13412 net.cpp:406] conv3_3 <- conv3_2
I0715 13:42:05.706815 13412 net.cpp:380] conv3_3 -> conv3_3
I0715 13:42:05.713336 13412 net.cpp:122] Setting up conv3_3
I0715 13:42:05.713372 13412 net.cpp:129] Top shape: 1 256 178 102 (4647936)
I0715 13:42:05.713379 13412 net.cpp:137] Memory required for data: 576572428
I0715 13:42:05.713392 13412 layer_factory.hpp:77] Creating layer relu3_3
I0715 13:42:05.713402 13412 net.cpp:84] Creating Layer relu3_3
I0715 13:42:05.713408 13412 net.cpp:406] relu3_3 <- conv3_3
I0715 13:42:05.713418 13412 net.cpp:367] relu3_3 -> conv3_3 (in-place)
I0715 13:42:05.714728 13412 net.cpp:122] Setting up relu3_3
I0715 13:42:05.714749 13412 net.cpp:129] Top shape: 1 256 178 102 (4647936)
I0715 13:42:05.714764 13412 net.cpp:137] Memory required for data: 595164172
I0715 13:42:05.714771 13412 layer_factory.hpp:77] Creating layer pool3
I0715 13:42:05.714783 13412 net.cpp:84] Creating Layer pool3
I0715 13:42:05.714790 13412 net.cpp:406] pool3 <- conv3_3
I0715 13:42:05.714800 13412 net.cpp:380] pool3 -> pool3
I0715 13:42:05.714912 13412 net.cpp:122] Setting up pool3
I0715 13:42:05.714926 13412 net.cpp:129] Top shape: 1 256 89 51 (1161984)
I0715 13:42:05.714931 13412 net.cpp:137] Memory required for data: 599812108
I0715 13:42:05.714936 13412 layer_factory.hpp:77] Creating layer pool3_pool3_0_split
I0715 13:42:05.714946 13412 net.cpp:84] Creating Layer pool3_pool3_0_split
I0715 13:42:05.714952 13412 net.cpp:406] pool3_pool3_0_split <- pool3
I0715 13:42:05.714960 13412 net.cpp:380] pool3_pool3_0_split -> pool3_pool3_0_split_0
I0715 13:42:05.714970 13412 net.cpp:380] pool3_pool3_0_split -> pool3_pool3_0_split_1
I0715 13:42:05.715050 13412 net.cpp:122] Setting up pool3_pool3_0_split
I0715 13:42:05.715062 13412 net.cpp:129] Top shape: 1 256 89 51 (1161984)
I0715 13:42:05.715070 13412 net.cpp:129] Top shape: 1 256 89 51 (1161984)
I0715 13:42:05.715075 13412 net.cpp:137] Memory required for data: 609107980
I0715 13:42:05.715080 13412 layer_factory.hpp:77] Creating layer conv4_1
I0715 13:42:05.715092 13412 net.cpp:84] Creating Layer conv4_1
I0715 13:42:05.715098 13412 net.cpp:406] conv4_1 <- pool3_pool3_0_split_0
I0715 13:42:05.715107 13412 net.cpp:380] conv4_1 -> conv4_1
I0715 13:42:05.722359 13412 net.cpp:122] Setting up conv4_1
I0715 13:42:05.722394 13412 net.cpp:129] Top shape: 1 512 89 51 (2323968)
I0715 13:42:05.722398 13412 net.cpp:137] Memory required for data: 618403852
I0715 13:42:05.722407 13412 layer_factory.hpp:77] Creating layer relu4_1
I0715 13:42:05.722414 13412 net.cpp:84] Creating Layer relu4_1
I0715 13:42:05.722427 13412 net.cpp:406] relu4_1 <- conv4_1
I0715 13:42:05.722432 13412 net.cpp:367] relu4_1 -> conv4_1 (in-place)
I0715 13:42:05.722661 13412 net.cpp:122] Setting up relu4_1
I0715 13:42:05.722672 13412 net.cpp:129] Top shape: 1 512 89 51 (2323968)
I0715 13:42:05.722676 13412 net.cpp:137] Memory required for data: 627699724
I0715 13:42:05.722681 13412 layer_factory.hpp:77] Creating layer conv4_2
I0715 13:42:05.722688 13412 net.cpp:84] Creating Layer conv4_2
I0715 13:42:05.722692 13412 net.cpp:406] conv4_2 <- conv4_1
I0715 13:42:05.722698 13412 net.cpp:380] conv4_2 -> conv4_2
I0715 13:42:05.735532 13412 net.cpp:122] Setting up conv4_2
I0715 13:42:05.735580 13412 net.cpp:129] Top shape: 1 512 89 51 (2323968)
I0715 13:42:05.735590 13412 net.cpp:137] Memory required for data: 636995596
I0715 13:42:05.735618 13412 layer_factory.hpp:77] Creating layer relu4_2
I0715 13:42:05.735636 13412 net.cpp:84] Creating Layer relu4_2
I0715 13:42:05.735647 13412 net.cpp:406] relu4_2 <- conv4_2
I0715 13:42:05.735661 13412 net.cpp:367] relu4_2 -> conv4_2 (in-place)
I0715 13:42:05.736124 13412 net.cpp:122] Setting up relu4_2
I0715 13:42:05.736145 13412 net.cpp:129] Top shape: 1 512 89 51 (2323968)
I0715 13:42:05.736165 13412 net.cpp:137] Memory required for data: 646291468
I0715 13:42:05.736172 13412 layer_factory.hpp:77] Creating layer conv4_3
I0715 13:42:05.736192 13412 net.cpp:84] Creating Layer conv4_3
I0715 13:42:05.736213 13412 net.cpp:406] conv4_3 <- conv4_2
I0715 13:42:05.736227 13412 net.cpp:380] conv4_3 -> conv4_3
I0715 13:42:05.750716 13412 net.cpp:122] Setting up conv4_3
I0715 13:42:05.750767 13412 net.cpp:129] Top shape: 1 512 89 51 (2323968)
I0715 13:42:05.750773 13412 net.cpp:137] Memory required for data: 655587340
I0715 13:42:05.750787 13412 layer_factory.hpp:77] Creating layer relu4_3
I0715 13:42:05.750802 13412 net.cpp:84] Creating Layer relu4_3
I0715 13:42:05.750810 13412 net.cpp:406] relu4_3 <- conv4_3
I0715 13:42:05.750819 13412 net.cpp:367] relu4_3 -> conv4_3 (in-place)
I0715 13:42:05.751093 13412 net.cpp:122] Setting up relu4_3
I0715 13:42:05.751107 13412 net.cpp:129] Top shape: 1 512 89 51 (2323968)
I0715 13:42:05.751111 13412 net.cpp:137] Memory required for data: 664883212
I0715 13:42:05.751116 13412 layer_factory.hpp:77] Creating layer pool4
I0715 13:42:05.751127 13412 net.cpp:84] Creating Layer pool4
I0715 13:42:05.751132 13412 net.cpp:406] pool4 <- conv4_3
I0715 13:42:05.751142 13412 net.cpp:380] pool4 -> pool4
I0715 13:42:05.751220 13412 net.cpp:122] Setting up pool4
I0715 13:42:05.751230 13412 net.cpp:129] Top shape: 1 512 45 26 (599040)
I0715 13:42:05.751235 13412 net.cpp:137] Memory required for data: 667279372
I0715 13:42:05.751240 13412 layer_factory.hpp:77] Creating layer pool4_pool4_0_split
I0715 13:42:05.751247 13412 net.cpp:84] Creating Layer pool4_pool4_0_split
I0715 13:42:05.751252 13412 net.cpp:406] pool4_pool4_0_split <- pool4
I0715 13:42:05.751260 13412 net.cpp:380] pool4_pool4_0_split -> pool4_pool4_0_split_0
I0715 13:42:05.751267 13412 net.cpp:380] pool4_pool4_0_split -> pool4_pool4_0_split_1
I0715 13:42:05.751360 13412 net.cpp:122] Setting up pool4_pool4_0_split
I0715 13:42:05.751372 13412 net.cpp:129] Top shape: 1 512 45 26 (599040)
I0715 13:42:05.751377 13412 net.cpp:129] Top shape: 1 512 45 26 (599040)
I0715 13:42:05.751381 13412 net.cpp:137] Memory required for data: 672071692
I0715 13:42:05.751386 13412 layer_factory.hpp:77] Creating layer conv5_1
I0715 13:42:05.751415 13412 net.cpp:84] Creating Layer conv5_1
I0715 13:42:05.751420 13412 net.cpp:406] conv5_1 <- pool4_pool4_0_split_0
I0715 13:42:05.751430 13412 net.cpp:380] conv5_1 -> conv5_1
I0715 13:42:05.762949 13412 net.cpp:122] Setting up conv5_1
I0715 13:42:05.762995 13412 net.cpp:129] Top shape: 1 512 45 26 (599040)
I0715 13:42:05.763001 13412 net.cpp:137] Memory required for data: 674467852
I0715 13:42:05.763015 13412 layer_factory.hpp:77] Creating layer relu5_1
I0715 13:42:05.763028 13412 net.cpp:84] Creating Layer relu5_1
I0715 13:42:05.763036 13412 net.cpp:406] relu5_1 <- conv5_1
I0715 13:42:05.763046 13412 net.cpp:367] relu5_1 -> conv5_1 (in-place)
I0715 13:42:05.763514 13412 net.cpp:122] Setting up relu5_1
I0715 13:42:05.763555 13412 net.cpp:129] Top shape: 1 512 45 26 (599040)
I0715 13:42:05.763564 13412 net.cpp:137] Memory required for data: 676864012
I0715 13:42:05.763574 13412 layer_factory.hpp:77] Creating layer conv5_2
I0715 13:42:05.763605 13412 net.cpp:84] Creating Layer conv5_2
I0715 13:42:05.763617 13412 net.cpp:406] conv5_2 <- conv5_1
I0715 13:42:05.763636 13412 net.cpp:380] conv5_2 -> conv5_2
I0715 13:42:05.776824 13412 net.cpp:122] Setting up conv5_2
I0715 13:42:05.776856 13412 net.cpp:129] Top shape: 1 512 45 26 (599040)
I0715 13:42:05.776862 13412 net.cpp:137] Memory required for data: 679260172
I0715 13:42:05.776870 13412 layer_factory.hpp:77] Creating layer relu5_2
I0715 13:42:05.776882 13412 net.cpp:84] Creating Layer relu5_2
I0715 13:42:05.776887 13412 net.cpp:406] relu5_2 <- conv5_2
I0715 13:42:05.776893 13412 net.cpp:367] relu5_2 -> conv5_2 (in-place)
I0715 13:42:05.777123 13412 net.cpp:122] Setting up relu5_2
I0715 13:42:05.777135 13412 net.cpp:129] Top shape: 1 512 45 26 (599040)
I0715 13:42:05.777158 13412 net.cpp:137] Memory required for data: 681656332
I0715 13:42:05.777161 13412 layer_factory.hpp:77] Creating layer conv5_3
I0715 13:42:05.777170 13412 net.cpp:84] Creating Layer conv5_3
I0715 13:42:05.777174 13412 net.cpp:406] conv5_3 <- conv5_2
I0715 13:42:05.777181 13412 net.cpp:380] conv5_3 -> conv5_3
I0715 13:42:05.785841 13412 net.cpp:122] Setting up conv5_3
I0715 13:42:05.785879 13412 net.cpp:129] Top shape: 1 512 45 26 (599040)
I0715 13:42:05.785884 13412 net.cpp:137] Memory required for data: 684052492
I0715 13:42:05.785893 13412 layer_factory.hpp:77] Creating layer relu5_3
I0715 13:42:05.785900 13412 net.cpp:84] Creating Layer relu5_3
I0715 13:42:05.785905 13412 net.cpp:406] relu5_3 <- conv5_3
I0715 13:42:05.785928 13412 net.cpp:367] relu5_3 -> conv5_3 (in-place)
I0715 13:42:05.787988 13412 net.cpp:122] Setting up relu5_3
I0715 13:42:05.788003 13412 net.cpp:129] Top shape: 1 512 45 26 (599040)
I0715 13:42:05.788024 13412 net.cpp:137] Memory required for data: 686448652
I0715 13:42:05.788029 13412 layer_factory.hpp:77] Creating layer pool5
I0715 13:42:05.788038 13412 net.cpp:84] Creating Layer pool5
I0715 13:42:05.788041 13412 net.cpp:406] pool5 <- conv5_3
I0715 13:42:05.788048 13412 net.cpp:380] pool5 -> pool5
I0715 13:42:05.788134 13412 net.cpp:122] Setting up pool5
I0715 13:42:05.788143 13412 net.cpp:129] Top shape: 1 512 23 13 (153088)
I0715 13:42:05.788146 13412 net.cpp:137] Memory required for data: 687061004
I0715 13:42:05.788151 13412 layer_factory.hpp:77] Creating layer fc6
I0715 13:42:05.788161 13412 net.cpp:84] Creating Layer fc6
I0715 13:42:05.788164 13412 net.cpp:406] fc6 <- pool5
I0715 13:42:05.788170 13412 net.cpp:380] fc6 -> fc6
I0715 13:42:06.121340 13412 net.cpp:122] Setting up fc6
I0715 13:42:06.121376 13412 net.cpp:129] Top shape: 1 4096 17 7 (487424)
I0715 13:42:06.121381 13412 net.cpp:137] Memory required for data: 689010700
I0715 13:42:06.121390 13412 layer_factory.hpp:77] Creating layer relu6
I0715 13:42:06.121402 13412 net.cpp:84] Creating Layer relu6
I0715 13:42:06.121407 13412 net.cpp:406] relu6 <- fc6
I0715 13:42:06.121414 13412 net.cpp:367] relu6 -> fc6 (in-place)
I0715 13:42:06.121655 13412 net.cpp:122] Setting up relu6
I0715 13:42:06.121665 13412 net.cpp:129] Top shape: 1 4096 17 7 (487424)
I0715 13:42:06.121670 13412 net.cpp:137] Memory required for data: 690960396
I0715 13:42:06.121672 13412 layer_factory.hpp:77] Creating layer drop6
I0715 13:42:06.121681 13412 net.cpp:84] Creating Layer drop6
I0715 13:42:06.121685 13412 net.cpp:406] drop6 <- fc6
I0715 13:42:06.121690 13412 net.cpp:367] drop6 -> fc6 (in-place)
I0715 13:42:06.121732 13412 net.cpp:122] Setting up drop6
I0715 13:42:06.121738 13412 net.cpp:129] Top shape: 1 4096 17 7 (487424)
I0715 13:42:06.121742 13412 net.cpp:137] Memory required for data: 692910092
I0715 13:42:06.121745 13412 layer_factory.hpp:77] Creating layer fc7
I0715 13:42:06.121757 13412 net.cpp:84] Creating Layer fc7
I0715 13:42:06.121759 13412 net.cpp:406] fc7 <- fc6
I0715 13:42:06.121765 13412 net.cpp:380] fc7 -> fc7
I0715 13:42:06.168766 13412 net.cpp:122] Setting up fc7
I0715 13:42:06.168802 13412 net.cpp:129] Top shape: 1 4096 17 7 (487424)
I0715 13:42:06.168807 13412 net.cpp:137] Memory required for data: 694859788
I0715 13:42:06.168817 13412 layer_factory.hpp:77] Creating layer relu7
I0715 13:42:06.168828 13412 net.cpp:84] Creating Layer relu7
I0715 13:42:06.168833 13412 net.cpp:406] relu7 <- fc7
I0715 13:42:06.168840 13412 net.cpp:367] relu7 -> fc7 (in-place)
I0715 13:42:06.169091 13412 net.cpp:122] Setting up relu7
I0715 13:42:06.169102 13412 net.cpp:129] Top shape: 1 4096 17 7 (487424)
I0715 13:42:06.169106 13412 net.cpp:137] Memory required for data: 696809484
I0715 13:42:06.169109 13412 layer_factory.hpp:77] Creating layer drop7
I0715 13:42:06.169117 13412 net.cpp:84] Creating Layer drop7
I0715 13:42:06.169122 13412 net.cpp:406] drop7 <- fc7
I0715 13:42:06.169128 13412 net.cpp:367] drop7 -> fc7 (in-place)
I0715 13:42:06.169173 13412 net.cpp:122] Setting up drop7
I0715 13:42:06.169178 13412 net.cpp:129] Top shape: 1 4096 17 7 (487424)
I0715 13:42:06.169183 13412 net.cpp:137] Memory required for data: 698759180
I0715 13:42:06.169185 13412 layer_factory.hpp:77] Creating layer score_fr-new
I0715 13:42:06.169194 13412 net.cpp:84] Creating Layer score_fr-new
I0715 13:42:06.169198 13412 net.cpp:406] score_fr-new <- fc7
I0715 13:42:06.169206 13412 net.cpp:380] score_fr-new -> score_fr-new
I0715 13:42:06.170907 13412 net.cpp:122] Setting up score_fr-new
I0715 13:42:06.170919 13412 net.cpp:129] Top shape: 1 3 17 7 (357)
I0715 13:42:06.170923 13412 net.cpp:137] Memory required for data: 698760608
I0715 13:42:06.170929 13412 layer_factory.hpp:77] Creating layer upscore2-new
I0715 13:42:06.170938 13412 net.cpp:84] Creating Layer upscore2-new
I0715 13:42:06.170941 13412 net.cpp:406] upscore2-new <- score_fr-new
I0715 13:42:06.170948 13412 net.cpp:380] upscore2-new -> upscore2-new
I0715 13:42:06.171337 13412 net.cpp:122] Setting up upscore2-new
I0715 13:42:06.171365 13412 net.cpp:129] Top shape: 1 3 36 16 (1728)
I0715 13:42:06.171370 13412 net.cpp:137] Memory required for data: 698767520
I0715 13:42:06.171386 13412 layer_factory.hpp:77] Creating layer upscore2-new_upscore2-new_0_split
I0715 13:42:06.171394 13412 net.cpp:84] Creating Layer upscore2-new_upscore2-new_0_split
I0715 13:42:06.171399 13412 net.cpp:406] upscore2-new_upscore2-new_0_split <- upscore2-new
I0715 13:42:06.171406 13412 net.cpp:380] upscore2-new_upscore2-new_0_split -> upscore2-new_upscore2-new_0_split_0
I0715 13:42:06.171416 13412 net.cpp:380] upscore2-new_upscore2-new_0_split -> upscore2-new_upscore2-new_0_split_1
I0715 13:42:06.171489 13412 net.cpp:122] Setting up upscore2-new_upscore2-new_0_split
I0715 13:42:06.171496 13412 net.cpp:129] Top shape: 1 3 36 16 (1728)
I0715 13:42:06.171502 13412 net.cpp:129] Top shape: 1 3 36 16 (1728)
I0715 13:42:06.171506 13412 net.cpp:137] Memory required for data: 698781344
I0715 13:42:06.171511 13412 layer_factory.hpp:77] Creating layer score_pool4-new
I0715 13:42:06.171521 13412 net.cpp:84] Creating Layer score_pool4-new
I0715 13:42:06.171526 13412 net.cpp:406] score_pool4-new <- pool4_pool4_0_split_1
I0715 13:42:06.171535 13412 net.cpp:380] score_pool4-new -> score_pool4-new
I0715 13:42:06.173669 13412 net.cpp:122] Setting up score_pool4-new
I0715 13:42:06.173687 13412 net.cpp:129] Top shape: 1 3 45 26 (3510)
I0715 13:42:06.173693 13412 net.cpp:137] Memory required for data: 698795384
I0715 13:42:06.173702 13412 layer_factory.hpp:77] Creating layer score_pool4c
I0715 13:42:06.173712 13412 net.cpp:84] Creating Layer score_pool4c
I0715 13:42:06.173718 13412 net.cpp:406] score_pool4c <- score_pool4-new
I0715 13:42:06.173725 13412 net.cpp:406] score_pool4c <- upscore2-new_upscore2-new_0_split_0
I0715 13:42:06.173733 13412 net.cpp:380] score_pool4c -> score_pool4c
I0715 13:42:06.173785 13412 net.cpp:122] Setting up score_pool4c
I0715 13:42:06.173792 13412 net.cpp:129] Top shape: 1 3 36 16 (1728)
I0715 13:42:06.173797 13412 net.cpp:137] Memory required for data: 698802296
I0715 13:42:06.173801 13412 layer_factory.hpp:77] Creating layer fuse_pool4
I0715 13:42:06.173810 13412 net.cpp:84] Creating Layer fuse_pool4
I0715 13:42:06.173815 13412 net.cpp:406] fuse_pool4 <- upscore2-new_upscore2-new_0_split_1
I0715 13:42:06.173821 13412 net.cpp:406] fuse_pool4 <- score_pool4c
I0715 13:42:06.173828 13412 net.cpp:380] fuse_pool4 -> fuse_pool4
I0715 13:42:06.173871 13412 net.cpp:122] Setting up fuse_pool4
I0715 13:42:06.173878 13412 net.cpp:129] Top shape: 1 3 36 16 (1728)
I0715 13:42:06.173882 13412 net.cpp:137] Memory required for data: 698809208
I0715 13:42:06.173887 13412 layer_factory.hpp:77] Creating layer upscore_pool4-new
I0715 13:42:06.173895 13412 net.cpp:84] Creating Layer upscore_pool4-new
I0715 13:42:06.173900 13412 net.cpp:406] upscore_pool4-new <- fuse_pool4
I0715 13:42:06.173908 13412 net.cpp:380] upscore_pool4-new -> upscore_pool4-new
I0715 13:42:06.174296 13412 net.cpp:122] Setting up upscore_pool4-new
I0715 13:42:06.174306 13412 net.cpp:129] Top shape: 1 3 74 34 (7548)
I0715 13:42:06.174311 13412 net.cpp:137] Memory required for data: 698839400
I0715 13:42:06.174317 13412 layer_factory.hpp:77] Creating layer upscore_pool4-new_upscore_pool4-new_0_split
I0715 13:42:06.174324 13412 net.cpp:84] Creating Layer upscore_pool4-new_upscore_pool4-new_0_split
I0715 13:42:06.174329 13412 net.cpp:406] upscore_pool4-new_upscore_pool4-new_0_split <- upscore_pool4-new
I0715 13:42:06.174336 13412 net.cpp:380] upscore_pool4-new_upscore_pool4-new_0_split -> upscore_pool4-new_upscore_pool4-new_0_split_0
I0715 13:42:06.174345 13412 net.cpp:380] upscore_pool4-new_upscore_pool4-new_0_split -> upscore_pool4-new_upscore_pool4-new_0_split_1
I0715 13:42:06.174413 13412 net.cpp:122] Setting up upscore_pool4-new_upscore_pool4-new_0_split
I0715 13:42:06.174420 13412 net.cpp:129] Top shape: 1 3 74 34 (7548)
I0715 13:42:06.174427 13412 net.cpp:129] Top shape: 1 3 74 34 (7548)
I0715 13:42:06.174430 13412 net.cpp:137] Memory required for data: 698899784
I0715 13:42:06.174435 13412 layer_factory.hpp:77] Creating layer score_pool3-new
I0715 13:42:06.174444 13412 net.cpp:84] Creating Layer score_pool3-new
I0715 13:42:06.174449 13412 net.cpp:406] score_pool3-new <- pool3_pool3_0_split_1
I0715 13:42:06.174458 13412 net.cpp:380] score_pool3-new -> score_pool3-new
I0715 13:42:06.176671 13412 net.cpp:122] Setting up score_pool3-new
I0715 13:42:06.176692 13412 net.cpp:129] Top shape: 1 3 89 51 (13617)
I0715 13:42:06.176697 13412 net.cpp:137] Memory required for data: 698954252
I0715 13:42:06.176705 13412 layer_factory.hpp:77] Creating layer score_pool3c
I0715 13:42:06.176714 13412 net.cpp:84] Creating Layer score_pool3c
I0715 13:42:06.176719 13412 net.cpp:406] score_pool3c <- score_pool3-new
I0715 13:42:06.176726 13412 net.cpp:406] score_pool3c <- upscore_pool4-new_upscore_pool4-new_0_split_0
I0715 13:42:06.176734 13412 net.cpp:380] score_pool3c -> score_pool3c
I0715 13:42:06.176784 13412 net.cpp:122] Setting up score_pool3c
I0715 13:42:06.176792 13412 net.cpp:129] Top shape: 1 3 74 34 (7548)
I0715 13:42:06.176796 13412 net.cpp:137] Memory required for data: 698984444
I0715 13:42:06.176801 13412 layer_factory.hpp:77] Creating layer fuse_pool3
I0715 13:42:06.176810 13412 net.cpp:84] Creating Layer fuse_pool3
I0715 13:42:06.176813 13412 net.cpp:406] fuse_pool3 <- upscore_pool4-new_upscore_pool4-new_0_split_1
I0715 13:42:06.176820 13412 net.cpp:406] fuse_pool3 <- score_pool3c
I0715 13:42:06.176827 13412 net.cpp:380] fuse_pool3 -> fuse_pool3
I0715 13:42:06.176872 13412 net.cpp:122] Setting up fuse_pool3
I0715 13:42:06.176877 13412 net.cpp:129] Top shape: 1 3 74 34 (7548)
I0715 13:42:06.176882 13412 net.cpp:137] Memory required for data: 699014636
I0715 13:42:06.176887 13412 layer_factory.hpp:77] Creating layer upscore8-new
I0715 13:42:06.176894 13412 net.cpp:84] Creating Layer upscore8-new
I0715 13:42:06.176900 13412 net.cpp:406] upscore8-new <- fuse_pool3
I0715 13:42:06.176908 13412 net.cpp:380] upscore8-new -> upscore8-new
I0715 13:42:06.177309 13412 net.cpp:122] Setting up upscore8-new
I0715 13:42:06.177320 13412 net.cpp:129] Top shape: 1 3 600 280 (504000)
I0715 13:42:06.177325 13412 net.cpp:137] Memory required for data: 701030636
I0715 13:42:06.177331 13412 layer_factory.hpp:77] Creating layer upscore8_cropped
I0715 13:42:06.177340 13412 net.cpp:84] Creating Layer upscore8_cropped
I0715 13:42:06.177345 13412 net.cpp:406] upscore8_cropped <- upscore8-new
I0715 13:42:06.177350 13412 net.cpp:406] upscore8_cropped <- data_data_0_split_1
I0715 13:42:06.177357 13412 net.cpp:380] upscore8_cropped -> upscore8_cropped
I0715 13:42:06.177400 13412 net.cpp:122] Setting up upscore8_cropped
I0715 13:42:06.177407 13412 net.cpp:129] Top shape: 1 3 512 209 (321024)
I0715 13:42:06.177412 13412 net.cpp:137] Memory required for data: 702314732
I0715 13:42:06.177415 13412 layer_factory.hpp:77] Creating layer upscore8_cropped_upscore8_cropped_0_split
I0715 13:42:06.177423 13412 net.cpp:84] Creating Layer upscore8_cropped_upscore8_cropped_0_split
I0715 13:42:06.177428 13412 net.cpp:406] upscore8_cropped_upscore8_cropped_0_split <- upscore8_cropped
I0715 13:42:06.177435 13412 net.cpp:380] upscore8_cropped_upscore8_cropped_0_split -> upscore8_cropped_upscore8_cropped_0_split_0
I0715 13:42:06.177443 13412 net.cpp:380] upscore8_cropped_upscore8_cropped_0_split -> upscore8_cropped_upscore8_cropped_0_split_1
I0715 13:42:06.177510 13412 net.cpp:122] Setting up upscore8_cropped_upscore8_cropped_0_split
I0715 13:42:06.177516 13412 net.cpp:129] Top shape: 1 3 512 209 (321024)
I0715 13:42:06.177522 13412 net.cpp:129] Top shape: 1 3 512 209 (321024)
I0715 13:42:06.177527 13412 net.cpp:137] Memory required for data: 704882924
I0715 13:42:06.177531 13412 layer_factory.hpp:77] Creating layer prob
I0715 13:42:06.177538 13412 net.cpp:84] Creating Layer prob
I0715 13:42:06.177543 13412 net.cpp:406] prob <- upscore8_cropped_upscore8_cropped_0_split_0
I0715 13:42:06.177551 13412 net.cpp:380] prob -> prob
I0715 13:42:06.177840 13412 net.cpp:122] Setting up prob
I0715 13:42:06.177855 13412 net.cpp:129] Top shape: 1 3 512 209 (321024)
I0715 13:42:06.177858 13412 net.cpp:137] Memory required for data: 706167020
I0715 13:42:06.177863 13412 layer_factory.hpp:77] Creating layer saliency1
I0715 13:42:06.177875 13412 net.cpp:84] Creating Layer saliency1
I0715 13:42:06.177881 13412 net.cpp:406] saliency1 <- prob
I0715 13:42:06.177889 13412 net.cpp:380] saliency1 -> saliency1
I0715 13:42:06.182798 13412 net.cpp:122] Setting up saliency1
I0715 13:42:06.182819 13412 net.cpp:129] Top shape: 1 3 512 209 (321024)
I0715 13:42:06.182826 13412 net.cpp:137] Memory required for data: 707451116
I0715 13:42:06.182834 13412 layer_factory.hpp:77] Creating layer relu_saliency1
I0715 13:42:06.182842 13412 net.cpp:84] Creating Layer relu_saliency1
I0715 13:42:06.182849 13412 net.cpp:406] relu_saliency1 <- saliency1
I0715 13:42:06.182857 13412 net.cpp:367] relu_saliency1 -> saliency1 (in-place)
I0715 13:42:06.183113 13412 net.cpp:122] Setting up relu_saliency1
I0715 13:42:06.183127 13412 net.cpp:129] Top shape: 1 3 512 209 (321024)
I0715 13:42:06.183131 13412 net.cpp:137] Memory required for data: 708735212
I0715 13:42:06.183136 13412 layer_factory.hpp:77] Creating layer saliency
I0715 13:42:06.183148 13412 net.cpp:84] Creating Layer saliency
I0715 13:42:06.183153 13412 net.cpp:406] saliency <- saliency1
I0715 13:42:06.183162 13412 net.cpp:380] saliency -> saliency
I0715 13:42:06.192821 13412 net.cpp:122] Setting up saliency
I0715 13:42:06.192845 13412 net.cpp:129] Top shape: 1 3 512 209 (321024)
I0715 13:42:06.192852 13412 net.cpp:137] Memory required for data: 710019308
I0715 13:42:06.192863 13412 layer_factory.hpp:77] Creating layer saliency_data
I0715 13:42:06.192873 13412 net.cpp:84] Creating Layer saliency_data
I0715 13:42:06.192879 13412 net.cpp:406] saliency_data <- data_data_0_split_2
I0715 13:42:06.192888 13412 net.cpp:406] saliency_data <- saliency
I0715 13:42:06.192898 13412 net.cpp:380] saliency_data -> saliency_data
I0715 13:42:06.192958 13412 net.cpp:122] Setting up saliency_data
I0715 13:42:06.192967 13412 net.cpp:129] Top shape: 1 3 512 209 (321024)
I0715 13:42:06.192972 13412 net.cpp:137] Memory required for data: 711303404
I0715 13:42:06.192977 13412 layer_factory.hpp:77] Creating layer crop
I0715 13:42:06.193083 13412 net.cpp:84] Creating Layer crop
I0715 13:42:06.193096 13412 net.cpp:406] crop <- label_data_1_split_0
I0715 13:42:06.193104 13412 net.cpp:406] crop <- saliency_data
I0715 13:42:06.193111 13412 net.cpp:406] crop <- crop_margin
I0715 13:42:06.193117 13412 net.cpp:406] crop <- crop_prob
I0715 13:42:06.193123 13412 net.cpp:406] crop <- crop_sample_batch
I0715 13:42:06.193133 13412 net.cpp:380] crop -> data-R
I0715 13:42:06.193145 13412 net.cpp:380] crop -> crop_info
I0715 13:42:06.200898 13412 net.cpp:122] Setting up crop
I0715 13:42:06.200932 13412 net.cpp:129] Top shape: 1 3 512 209 (321024)
I0715 13:42:06.200943 13412 net.cpp:129] Top shape: 1 2 4 (8)
I0715 13:42:06.200950 13412 net.cpp:137] Memory required for data: 712587532
I0715 13:42:06.200959 13412 layer_factory.hpp:77] Creating layer data-R_crop_0_split
I0715 13:42:06.200971 13412 net.cpp:84] Creating Layer data-R_crop_0_split
I0715 13:42:06.200980 13412 net.cpp:406] data-R_crop_0_split <- data-R
I0715 13:42:06.200992 13412 net.cpp:380] data-R_crop_0_split -> data-R_crop_0_split_0
I0715 13:42:06.201009 13412 net.cpp:380] data-R_crop_0_split -> data-R_crop_0_split_1
I0715 13:42:06.201124 13412 net.cpp:122] Setting up data-R_crop_0_split
I0715 13:42:06.201140 13412 net.cpp:129] Top shape: 1 3 512 209 (321024)
I0715 13:42:06.201150 13412 net.cpp:129] Top shape: 1 3 512 209 (321024)
I0715 13:42:06.201158 13412 net.cpp:137] Memory required for data: 715155724
I0715 13:42:06.201164 13412 layer_factory.hpp:77] Creating layer conv1_1-R
I0715 13:42:06.201179 13412 net.cpp:84] Creating Layer conv1_1-R
I0715 13:42:06.201187 13412 net.cpp:406] conv1_1-R <- data-R_crop_0_split_0
I0715 13:42:06.201200 13412 net.cpp:380] conv1_1-R -> conv1_1-R
I0715 13:42:06.208746 13412 net.cpp:122] Setting up conv1_1-R
I0715 13:42:06.208763 13412 net.cpp:129] Top shape: 1 64 710 407 (18494080)
I0715 13:42:06.208767 13412 net.cpp:137] Memory required for data: 789132044
I0715 13:42:06.208775 13412 layer_factory.hpp:77] Creating layer relu1_1-R
I0715 13:42:06.208788 13412 net.cpp:84] Creating Layer relu1_1-R
I0715 13:42:06.208794 13412 net.cpp:406] relu1_1-R <- conv1_1-R
I0715 13:42:06.208801 13412 net.cpp:367] relu1_1-R -> conv1_1-R (in-place)
I0715 13:42:06.209038 13412 net.cpp:122] Setting up relu1_1-R
I0715 13:42:06.209048 13412 net.cpp:129] Top shape: 1 64 710 407 (18494080)
I0715 13:42:06.209051 13412 net.cpp:137] Memory required for data: 863108364
I0715 13:42:06.209056 13412 layer_factory.hpp:77] Creating layer conv1_2-R
I0715 13:42:06.209064 13412 net.cpp:84] Creating Layer conv1_2-R
I0715 13:42:06.209069 13412 net.cpp:406] conv1_2-R <- conv1_1-R
I0715 13:42:06.209075 13412 net.cpp:380] conv1_2-R -> conv1_2-R
I0715 13:42:06.212450 13412 net.cpp:122] Setting up conv1_2-R
I0715 13:42:06.212465 13412 net.cpp:129] Top shape: 1 64 710 407 (18494080)
I0715 13:42:06.212468 13412 net.cpp:137] Memory required for data: 937084684
I0715 13:42:06.212474 13412 layer_factory.hpp:77] Creating layer relu1_2-R
I0715 13:42:06.212481 13412 net.cpp:84] Creating Layer relu1_2-R
I0715 13:42:06.212484 13412 net.cpp:406] relu1_2-R <- conv1_2-R
I0715 13:42:06.212489 13412 net.cpp:367] relu1_2-R -> conv1_2-R (in-place)
I0715 13:42:06.212708 13412 net.cpp:122] Setting up relu1_2-R
I0715 13:42:06.212718 13412 net.cpp:129] Top shape: 1 64 710 407 (18494080)
I0715 13:42:06.212723 13412 net.cpp:137] Memory required for data: 1011061004
I0715 13:42:06.212725 13412 layer_factory.hpp:77] Creating layer pool1-R
I0715 13:42:06.212733 13412 net.cpp:84] Creating Layer pool1-R
I0715 13:42:06.212736 13412 net.cpp:406] pool1-R <- conv1_2-R
I0715 13:42:06.212741 13412 net.cpp:380] pool1-R -> pool1-R
I0715 13:42:06.212810 13412 net.cpp:122] Setting up pool1-R
I0715 13:42:06.212818 13412 net.cpp:129] Top shape: 1 64 355 204 (4634880)
I0715 13:42:06.212822 13412 net.cpp:137] Memory required for data: 1029600524
I0715 13:42:06.212826 13412 layer_factory.hpp:77] Creating layer conv2_1-R
I0715 13:42:06.212832 13412 net.cpp:84] Creating Layer conv2_1-R
I0715 13:42:06.212836 13412 net.cpp:406] conv2_1-R <- pool1-R
I0715 13:42:06.212841 13412 net.cpp:380] conv2_1-R -> conv2_1-R
I0715 13:42:06.214635 13412 net.cpp:122] Setting up conv2_1-R
I0715 13:42:06.214649 13412 net.cpp:129] Top shape: 1 128 355 204 (9269760)
I0715 13:42:06.214653 13412 net.cpp:137] Memory required for data: 1066679564
I0715 13:42:06.214659 13412 layer_factory.hpp:77] Creating layer relu2_1-R
I0715 13:42:06.214665 13412 net.cpp:84] Creating Layer relu2_1-R
I0715 13:42:06.214668 13412 net.cpp:406] relu2_1-R <- conv2_1-R
I0715 13:42:06.214673 13412 net.cpp:367] relu2_1-R -> conv2_1-R (in-place)
I0715 13:42:06.214874 13412 net.cpp:122] Setting up relu2_1-R
I0715 13:42:06.214884 13412 net.cpp:129] Top shape: 1 128 355 204 (9269760)
I0715 13:42:06.214887 13412 net.cpp:137] Memory required for data: 1103758604
I0715 13:42:06.214891 13412 layer_factory.hpp:77] Creating layer conv2_2-R
I0715 13:42:06.214898 13412 net.cpp:84] Creating Layer conv2_2-R
I0715 13:42:06.214901 13412 net.cpp:406] conv2_2-R <- conv2_1-R
I0715 13:42:06.214907 13412 net.cpp:380] conv2_2-R -> conv2_2-R
I0715 13:42:06.220433 13412 net.cpp:122] Setting up conv2_2-R
I0715 13:42:06.220465 13412 net.cpp:129] Top shape: 1 128 355 204 (9269760)
I0715 13:42:06.220469 13412 net.cpp:137] Memory required for data: 1140837644
I0715 13:42:06.220476 13412 layer_factory.hpp:77] Creating layer relu2_2-R
I0715 13:42:06.220484 13412 net.cpp:84] Creating Layer relu2_2-R
I0715 13:42:06.220487 13412 net.cpp:406] relu2_2-R <- conv2_2-R
I0715 13:42:06.220492 13412 net.cpp:367] relu2_2-R -> conv2_2-R (in-place)
I0715 13:42:06.221410 13412 net.cpp:122] Setting up relu2_2-R
I0715 13:42:06.221424 13412 net.cpp:129] Top shape: 1 128 355 204 (9269760)
I0715 13:42:06.221427 13412 net.cpp:137] Memory required for data: 1177916684
I0715 13:42:06.221431 13412 layer_factory.hpp:77] Creating layer pool2-R
I0715 13:42:06.221437 13412 net.cpp:84] Creating Layer pool2-R
I0715 13:42:06.221441 13412 net.cpp:406] pool2-R <- conv2_2-R
I0715 13:42:06.221446 13412 net.cpp:380] pool2-R -> pool2-R
I0715 13:42:06.221544 13412 net.cpp:122] Setting up pool2-R
I0715 13:42:06.221557 13412 net.cpp:129] Top shape: 1 128 178 102 (2323968)
I0715 13:42:06.221560 13412 net.cpp:137] Memory required for data: 1187212556
I0715 13:42:06.221565 13412 layer_factory.hpp:77] Creating layer conv3_1-R
I0715 13:42:06.221587 13412 net.cpp:84] Creating Layer conv3_1-R
I0715 13:42:06.221591 13412 net.cpp:406] conv3_1-R <- pool2-R
I0715 13:42:06.221596 13412 net.cpp:380] conv3_1-R -> conv3_1-R
I0715 13:42:06.226711 13412 net.cpp:122] Setting up conv3_1-R
I0715 13:42:06.226732 13412 net.cpp:129] Top shape: 1 256 178 102 (4647936)
I0715 13:42:06.226738 13412 net.cpp:137] Memory required for data: 1205804300
I0715 13:42:06.226748 13412 layer_factory.hpp:77] Creating layer relu3_1-R
I0715 13:42:06.226758 13412 net.cpp:84] Creating Layer relu3_1-R
I0715 13:42:06.226763 13412 net.cpp:406] relu3_1-R <- conv3_1-R
I0715 13:42:06.226770 13412 net.cpp:367] relu3_1-R -> conv3_1-R (in-place)
I0715 13:42:06.227056 13412 net.cpp:122] Setting up relu3_1-R
I0715 13:42:06.227068 13412 net.cpp:129] Top shape: 1 256 178 102 (4647936)
I0715 13:42:06.227073 13412 net.cpp:137] Memory required for data: 1224396044
I0715 13:42:06.227078 13412 layer_factory.hpp:77] Creating layer conv3_2-R
I0715 13:42:06.227088 13412 net.cpp:84] Creating Layer conv3_2-R
I0715 13:42:06.227094 13412 net.cpp:406] conv3_2-R <- conv3_1-R
I0715 13:42:06.227102 13412 net.cpp:380] conv3_2-R -> conv3_2-R
I0715 13:42:06.232677 13412 net.cpp:122] Setting up conv3_2-R
I0715 13:42:06.232692 13412 net.cpp:129] Top shape: 1 256 178 102 (4647936)
I0715 13:42:06.232697 13412 net.cpp:137] Memory required for data: 1242987788
I0715 13:42:06.232703 13412 layer_factory.hpp:77] Creating layer relu3_2-R
I0715 13:42:06.232708 13412 net.cpp:84] Creating Layer relu3_2-R
I0715 13:42:06.232712 13412 net.cpp:406] relu3_2-R <- conv3_2-R
I0715 13:42:06.232717 13412 net.cpp:367] relu3_2-R -> conv3_2-R (in-place)
I0715 13:42:06.232936 13412 net.cpp:122] Setting up relu3_2-R
I0715 13:42:06.232946 13412 net.cpp:129] Top shape: 1 256 178 102 (4647936)
I0715 13:42:06.232949 13412 net.cpp:137] Memory required for data: 1261579532
I0715 13:42:06.232954 13412 layer_factory.hpp:77] Creating layer conv3_3-R
I0715 13:42:06.232961 13412 net.cpp:84] Creating Layer conv3_3-R
I0715 13:42:06.232965 13412 net.cpp:406] conv3_3-R <- conv3_2-R
I0715 13:42:06.232970 13412 net.cpp:380] conv3_3-R -> conv3_3-R
I0715 13:42:06.237143 13412 net.cpp:122] Setting up conv3_3-R
I0715 13:42:06.237157 13412 net.cpp:129] Top shape: 1 256 178 102 (4647936)
I0715 13:42:06.237161 13412 net.cpp:137] Memory required for data: 1280171276
I0715 13:42:06.237169 13412 layer_factory.hpp:77] Creating layer relu3_3-R
I0715 13:42:06.237174 13412 net.cpp:84] Creating Layer relu3_3-R
I0715 13:42:06.237177 13412 net.cpp:406] relu3_3-R <- conv3_3-R
I0715 13:42:06.237182 13412 net.cpp:367] relu3_3-R -> conv3_3-R (in-place)
I0715 13:42:06.237401 13412 net.cpp:122] Setting up relu3_3-R
I0715 13:42:06.237413 13412 net.cpp:129] Top shape: 1 256 178 102 (4647936)
I0715 13:42:06.237416 13412 net.cpp:137] Memory required for data: 1298763020
I0715 13:42:06.237419 13412 layer_factory.hpp:77] Creating layer pool3-R
I0715 13:42:06.237426 13412 net.cpp:84] Creating Layer pool3-R
I0715 13:42:06.237429 13412 net.cpp:406] pool3-R <- conv3_3-R
I0715 13:42:06.237435 13412 net.cpp:380] pool3-R -> pool3-R
I0715 13:42:06.237501 13412 net.cpp:122] Setting up pool3-R
I0715 13:42:06.237509 13412 net.cpp:129] Top shape: 1 256 89 51 (1161984)
I0715 13:42:06.237512 13412 net.cpp:137] Memory required for data: 1303410956
I0715 13:42:06.237516 13412 layer_factory.hpp:77] Creating layer pool3-R_pool3-R_0_split
I0715 13:42:06.237521 13412 net.cpp:84] Creating Layer pool3-R_pool3-R_0_split
I0715 13:42:06.237525 13412 net.cpp:406] pool3-R_pool3-R_0_split <- pool3-R
I0715 13:42:06.237530 13412 net.cpp:380] pool3-R_pool3-R_0_split -> pool3-R_pool3-R_0_split_0
I0715 13:42:06.237536 13412 net.cpp:380] pool3-R_pool3-R_0_split -> pool3-R_pool3-R_0_split_1
I0715 13:42:06.237591 13412 net.cpp:122] Setting up pool3-R_pool3-R_0_split
I0715 13:42:06.237602 13412 net.cpp:129] Top shape: 1 256 89 51 (1161984)
I0715 13:42:06.237607 13412 net.cpp:129] Top shape: 1 256 89 51 (1161984)
I0715 13:42:06.237609 13412 net.cpp:137] Memory required for data: 1312706828
I0715 13:42:06.237612 13412 layer_factory.hpp:77] Creating layer conv4_1-R
I0715 13:42:06.237620 13412 net.cpp:84] Creating Layer conv4_1-R
I0715 13:42:06.237624 13412 net.cpp:406] conv4_1-R <- pool3-R_pool3-R_0_split_0
I0715 13:42:06.237630 13412 net.cpp:380] conv4_1-R -> conv4_1-R
I0715 13:42:06.243752 13412 net.cpp:122] Setting up conv4_1-R
I0715 13:42:06.243785 13412 net.cpp:129] Top shape: 1 512 89 51 (2323968)
I0715 13:42:06.243790 13412 net.cpp:137] Memory required for data: 1322002700
I0715 13:42:06.243798 13412 layer_factory.hpp:77] Creating layer relu4_1-R
I0715 13:42:06.243803 13412 net.cpp:84] Creating Layer relu4_1-R
I0715 13:42:06.243808 13412 net.cpp:406] relu4_1-R <- conv4_1-R
I0715 13:42:06.243813 13412 net.cpp:367] relu4_1-R -> conv4_1-R (in-place)
I0715 13:42:06.244074 13412 net.cpp:122] Setting up relu4_1-R
I0715 13:42:06.244086 13412 net.cpp:129] Top shape: 1 512 89 51 (2323968)
I0715 13:42:06.244089 13412 net.cpp:137] Memory required for data: 1331298572
I0715 13:42:06.244092 13412 layer_factory.hpp:77] Creating layer conv4_2-R
I0715 13:42:06.244102 13412 net.cpp:84] Creating Layer conv4_2-R
I0715 13:42:06.244107 13412 net.cpp:406] conv4_2-R <- conv4_1-R
I0715 13:42:06.244113 13412 net.cpp:380] conv4_2-R -> conv4_2-R
I0715 13:42:06.254643 13412 net.cpp:122] Setting up conv4_2-R
I0715 13:42:06.254662 13412 net.cpp:129] Top shape: 1 512 89 51 (2323968)
I0715 13:42:06.254665 13412 net.cpp:137] Memory required for data: 1340594444
I0715 13:42:06.254671 13412 layer_factory.hpp:77] Creating layer relu4_2-R
I0715 13:42:06.254678 13412 net.cpp:84] Creating Layer relu4_2-R
I0715 13:42:06.254683 13412 net.cpp:406] relu4_2-R <- conv4_2-R
I0715 13:42:06.254688 13412 net.cpp:367] relu4_2-R -> conv4_2-R (in-place)
I0715 13:42:06.254902 13412 net.cpp:122] Setting up relu4_2-R
I0715 13:42:06.254912 13412 net.cpp:129] Top shape: 1 512 89 51 (2323968)
I0715 13:42:06.254916 13412 net.cpp:137] Memory required for data: 1349890316
I0715 13:42:06.254920 13412 layer_factory.hpp:77] Creating layer conv4_3-R
I0715 13:42:06.254928 13412 net.cpp:84] Creating Layer conv4_3-R
I0715 13:42:06.254932 13412 net.cpp:406] conv4_3-R <- conv4_2-R
I0715 13:42:06.254940 13412 net.cpp:380] conv4_3-R -> conv4_3-R
I0715 13:42:06.268731 13412 net.cpp:122] Setting up conv4_3-R
I0715 13:42:06.268757 13412 net.cpp:129] Top shape: 1 512 89 51 (2323968)
I0715 13:42:06.268764 13412 net.cpp:137] Memory required for data: 1359186188
I0715 13:42:06.268774 13412 layer_factory.hpp:77] Creating layer relu4_3-R
I0715 13:42:06.268784 13412 net.cpp:84] Creating Layer relu4_3-R
I0715 13:42:06.268790 13412 net.cpp:406] relu4_3-R <- conv4_3-R
I0715 13:42:06.268798 13412 net.cpp:367] relu4_3-R -> conv4_3-R (in-place)
I0715 13:42:06.270107 13412 net.cpp:122] Setting up relu4_3-R
I0715 13:42:06.270125 13412 net.cpp:129] Top shape: 1 512 89 51 (2323968)
I0715 13:42:06.270131 13412 net.cpp:137] Memory required for data: 1368482060
I0715 13:42:06.270136 13412 layer_factory.hpp:77] Creating layer pool4-R
I0715 13:42:06.270146 13412 net.cpp:84] Creating Layer pool4-R
I0715 13:42:06.270153 13412 net.cpp:406] pool4-R <- conv4_3-R
I0715 13:42:06.270161 13412 net.cpp:380] pool4-R -> pool4-R
I0715 13:42:06.270256 13412 net.cpp:122] Setting up pool4-R
I0715 13:42:06.270267 13412 net.cpp:129] Top shape: 1 512 45 26 (599040)
I0715 13:42:06.270272 13412 net.cpp:137] Memory required for data: 1370878220
I0715 13:42:06.270277 13412 layer_factory.hpp:77] Creating layer pool4-R_pool4-R_0_split
I0715 13:42:06.270285 13412 net.cpp:84] Creating Layer pool4-R_pool4-R_0_split
I0715 13:42:06.270290 13412 net.cpp:406] pool4-R_pool4-R_0_split <- pool4-R
I0715 13:42:06.270298 13412 net.cpp:380] pool4-R_pool4-R_0_split -> pool4-R_pool4-R_0_split_0
I0715 13:42:06.270308 13412 net.cpp:380] pool4-R_pool4-R_0_split -> pool4-R_pool4-R_0_split_1
I0715 13:42:06.270381 13412 net.cpp:122] Setting up pool4-R_pool4-R_0_split
I0715 13:42:06.270392 13412 net.cpp:129] Top shape: 1 512 45 26 (599040)
I0715 13:42:06.270398 13412 net.cpp:129] Top shape: 1 512 45 26 (599040)
I0715 13:42:06.270402 13412 net.cpp:137] Memory required for data: 1375670540
I0715 13:42:06.270408 13412 layer_factory.hpp:77] Creating layer conv5_1-R
I0715 13:42:06.270419 13412 net.cpp:84] Creating Layer conv5_1-R
I0715 13:42:06.270424 13412 net.cpp:406] conv5_1-R <- pool4-R_pool4-R_0_split_0
I0715 13:42:06.270433 13412 net.cpp:380] conv5_1-R -> conv5_1-R
I0715 13:42:06.281291 13412 net.cpp:122] Setting up conv5_1-R
I0715 13:42:06.281327 13412 net.cpp:129] Top shape: 1 512 45 26 (599040)
I0715 13:42:06.281332 13412 net.cpp:137] Memory required for data: 1378066700
I0715 13:42:06.281368 13412 layer_factory.hpp:77] Creating layer relu5_1-R
I0715 13:42:06.281374 13412 net.cpp:84] Creating Layer relu5_1-R
I0715 13:42:06.281378 13412 net.cpp:406] relu5_1-R <- conv5_1-R
I0715 13:42:06.281399 13412 net.cpp:367] relu5_1-R -> conv5_1-R (in-place)
I0715 13:42:06.281610 13412 net.cpp:122] Setting up relu5_1-R
I0715 13:42:06.281621 13412 net.cpp:129] Top shape: 1 512 45 26 (599040)
I0715 13:42:06.281625 13412 net.cpp:137] Memory required for data: 1380462860
I0715 13:42:06.281628 13412 layer_factory.hpp:77] Creating layer conv5_2-R
I0715 13:42:06.281637 13412 net.cpp:84] Creating Layer conv5_2-R
I0715 13:42:06.281641 13412 net.cpp:406] conv5_2-R <- conv5_1-R
I0715 13:42:06.281648 13412 net.cpp:380] conv5_2-R -> conv5_2-R
I0715 13:42:06.289448 13412 net.cpp:122] Setting up conv5_2-R
I0715 13:42:06.289465 13412 net.cpp:129] Top shape: 1 512 45 26 (599040)
I0715 13:42:06.289469 13412 net.cpp:137] Memory required for data: 1382859020
I0715 13:42:06.289475 13412 layer_factory.hpp:77] Creating layer relu5_2-R
I0715 13:42:06.289482 13412 net.cpp:84] Creating Layer relu5_2-R
I0715 13:42:06.289487 13412 net.cpp:406] relu5_2-R <- conv5_2-R
I0715 13:42:06.289492 13412 net.cpp:367] relu5_2-R -> conv5_2-R (in-place)
I0715 13:42:06.289710 13412 net.cpp:122] Setting up relu5_2-R
I0715 13:42:06.289719 13412 net.cpp:129] Top shape: 1 512 45 26 (599040)
I0715 13:42:06.289723 13412 net.cpp:137] Memory required for data: 1385255180
I0715 13:42:06.289726 13412 layer_factory.hpp:77] Creating layer conv5_3-R
I0715 13:42:06.289736 13412 net.cpp:84] Creating Layer conv5_3-R
I0715 13:42:06.289739 13412 net.cpp:406] conv5_3-R <- conv5_2-R
I0715 13:42:06.289744 13412 net.cpp:380] conv5_3-R -> conv5_3-R
I0715 13:42:06.297371 13412 net.cpp:122] Setting up conv5_3-R
I0715 13:42:06.297389 13412 net.cpp:129] Top shape: 1 512 45 26 (599040)
I0715 13:42:06.297394 13412 net.cpp:137] Memory required for data: 1387651340
I0715 13:42:06.297399 13412 layer_factory.hpp:77] Creating layer relu5_3-R
I0715 13:42:06.297406 13412 net.cpp:84] Creating Layer relu5_3-R
I0715 13:42:06.297410 13412 net.cpp:406] relu5_3-R <- conv5_3-R
I0715 13:42:06.297416 13412 net.cpp:367] relu5_3-R -> conv5_3-R (in-place)
I0715 13:42:06.297634 13412 net.cpp:122] Setting up relu5_3-R
I0715 13:42:06.297646 13412 net.cpp:129] Top shape: 1 512 45 26 (599040)
I0715 13:42:06.297648 13412 net.cpp:137] Memory required for data: 1390047500
I0715 13:42:06.297652 13412 layer_factory.hpp:77] Creating layer pool5-R
I0715 13:42:06.297660 13412 net.cpp:84] Creating Layer pool5-R
I0715 13:42:06.297663 13412 net.cpp:406] pool5-R <- conv5_3-R
I0715 13:42:06.297670 13412 net.cpp:380] pool5-R -> pool5-R
I0715 13:42:06.297739 13412 net.cpp:122] Setting up pool5-R
I0715 13:42:06.297746 13412 net.cpp:129] Top shape: 1 512 23 13 (153088)
I0715 13:42:06.297749 13412 net.cpp:137] Memory required for data: 1390659852
I0715 13:42:06.297754 13412 layer_factory.hpp:77] Creating layer fc6-R
I0715 13:42:06.297761 13412 net.cpp:84] Creating Layer fc6-R
I0715 13:42:06.297765 13412 net.cpp:406] fc6-R <- pool5-R
I0715 13:42:06.297772 13412 net.cpp:380] fc6-R -> fc6-R
I0715 13:42:06.577659 13412 net.cpp:122] Setting up fc6-R
I0715 13:42:06.577720 13412 net.cpp:129] Top shape: 1 4096 17 7 (487424)
I0715 13:42:06.577725 13412 net.cpp:137] Memory required for data: 1392609548
I0715 13:42:06.577738 13412 layer_factory.hpp:77] Creating layer relu6-R
I0715 13:42:06.577751 13412 net.cpp:84] Creating Layer relu6-R
I0715 13:42:06.577774 13412 net.cpp:406] relu6-R <- fc6-R
I0715 13:42:06.577782 13412 net.cpp:367] relu6-R -> fc6-R (in-place)
I0715 13:42:06.578007 13412 net.cpp:122] Setting up relu6-R
I0715 13:42:06.578018 13412 net.cpp:129] Top shape: 1 4096 17 7 (487424)
I0715 13:42:06.578022 13412 net.cpp:137] Memory required for data: 1394559244
I0715 13:42:06.578025 13412 layer_factory.hpp:77] Creating layer drop6-R
I0715 13:42:06.578033 13412 net.cpp:84] Creating Layer drop6-R
I0715 13:42:06.578037 13412 net.cpp:406] drop6-R <- fc6-R
I0715 13:42:06.578043 13412 net.cpp:367] drop6-R -> fc6-R (in-place)
I0715 13:42:06.578089 13412 net.cpp:122] Setting up drop6-R
I0715 13:42:06.578105 13412 net.cpp:129] Top shape: 1 4096 17 7 (487424)
I0715 13:42:06.578109 13412 net.cpp:137] Memory required for data: 1396508940
I0715 13:42:06.578114 13412 layer_factory.hpp:77] Creating layer fc7-R
I0715 13:42:06.578132 13412 net.cpp:84] Creating Layer fc7-R
I0715 13:42:06.578136 13412 net.cpp:406] fc7-R <- fc6-R
I0715 13:42:06.578143 13412 net.cpp:380] fc7-R -> fc7-R
I0715 13:42:06.626531 13412 net.cpp:122] Setting up fc7-R
I0715 13:42:06.626580 13412 net.cpp:129] Top shape: 1 4096 17 7 (487424)
I0715 13:42:06.626585 13412 net.cpp:137] Memory required for data: 1398458636
I0715 13:42:06.626596 13412 layer_factory.hpp:77] Creating layer relu7-R
I0715 13:42:06.626607 13412 net.cpp:84] Creating Layer relu7-R
I0715 13:42:06.626613 13412 net.cpp:406] relu7-R <- fc7-R
I0715 13:42:06.626636 13412 net.cpp:367] relu7-R -> fc7-R (in-place)
I0715 13:42:06.626883 13412 net.cpp:122] Setting up relu7-R
I0715 13:42:06.626893 13412 net.cpp:129] Top shape: 1 4096 17 7 (487424)
I0715 13:42:06.626896 13412 net.cpp:137] Memory required for data: 1400408332
I0715 13:42:06.626900 13412 layer_factory.hpp:77] Creating layer drop7-R
I0715 13:42:06.626909 13412 net.cpp:84] Creating Layer drop7-R
I0715 13:42:06.626912 13412 net.cpp:406] drop7-R <- fc7-R
I0715 13:42:06.626919 13412 net.cpp:367] drop7-R -> fc7-R (in-place)
I0715 13:42:06.626965 13412 net.cpp:122] Setting up drop7-R
I0715 13:42:06.626973 13412 net.cpp:129] Top shape: 1 4096 17 7 (487424)
I0715 13:42:06.626977 13412 net.cpp:137] Memory required for data: 1402358028
I0715 13:42:06.626981 13412 layer_factory.hpp:77] Creating layer score_fr-new-R
I0715 13:42:06.626991 13412 net.cpp:84] Creating Layer score_fr-new-R
I0715 13:42:06.626994 13412 net.cpp:406] score_fr-new-R <- fc7-R
I0715 13:42:06.627002 13412 net.cpp:380] score_fr-new-R -> score_fr-new-R
I0715 13:42:06.628911 13412 net.cpp:122] Setting up score_fr-new-R
I0715 13:42:06.628926 13412 net.cpp:129] Top shape: 1 3 17 7 (357)
I0715 13:42:06.628945 13412 net.cpp:137] Memory required for data: 1402359456
I0715 13:42:06.628952 13412 layer_factory.hpp:77] Creating layer upscore2-new-R
I0715 13:42:06.628962 13412 net.cpp:84] Creating Layer upscore2-new-R
I0715 13:42:06.628965 13412 net.cpp:406] upscore2-new-R <- score_fr-new-R
I0715 13:42:06.628986 13412 net.cpp:380] upscore2-new-R -> upscore2-new-R
I0715 13:42:06.629355 13412 net.cpp:122] Setting up upscore2-new-R
I0715 13:42:06.629364 13412 net.cpp:129] Top shape: 1 3 36 16 (1728)
I0715 13:42:06.629384 13412 net.cpp:137] Memory required for data: 1402366368
I0715 13:42:06.629389 13412 layer_factory.hpp:77] Creating layer upscore2-new-R_upscore2-new-R_0_split
I0715 13:42:06.629395 13412 net.cpp:84] Creating Layer upscore2-new-R_upscore2-new-R_0_split
I0715 13:42:06.629400 13412 net.cpp:406] upscore2-new-R_upscore2-new-R_0_split <- upscore2-new-R
I0715 13:42:06.629405 13412 net.cpp:380] upscore2-new-R_upscore2-new-R_0_split -> upscore2-new-R_upscore2-new-R_0_split_0
I0715 13:42:06.629412 13412 net.cpp:380] upscore2-new-R_upscore2-new-R_0_split -> upscore2-new-R_upscore2-new-R_0_split_1
I0715 13:42:06.629474 13412 net.cpp:122] Setting up upscore2-new-R_upscore2-new-R_0_split
I0715 13:42:06.629482 13412 net.cpp:129] Top shape: 1 3 36 16 (1728)
I0715 13:42:06.629487 13412 net.cpp:129] Top shape: 1 3 36 16 (1728)
I0715 13:42:06.629490 13412 net.cpp:137] Memory required for data: 1402380192
I0715 13:42:06.629494 13412 layer_factory.hpp:77] Creating layer score_pool4-new-R
I0715 13:42:06.629503 13412 net.cpp:84] Creating Layer score_pool4-new-R
I0715 13:42:06.629506 13412 net.cpp:406] score_pool4-new-R <- pool4-R_pool4-R_0_split_1
I0715 13:42:06.629514 13412 net.cpp:380] score_pool4-new-R -> score_pool4-new-R
I0715 13:42:06.633797 13412 net.cpp:122] Setting up score_pool4-new-R
I0715 13:42:06.633855 13412 net.cpp:129] Top shape: 1 3 45 26 (3510)
I0715 13:42:06.633865 13412 net.cpp:137] Memory required for data: 1402394232
I0715 13:42:06.633886 13412 layer_factory.hpp:77] Creating layer score_pool4c-R
I0715 13:42:06.633909 13412 net.cpp:84] Creating Layer score_pool4c-R
I0715 13:42:06.633922 13412 net.cpp:406] score_pool4c-R <- score_pool4-new-R
I0715 13:42:06.633936 13412 net.cpp:406] score_pool4c-R <- upscore2-new-R_upscore2-new-R_0_split_0
I0715 13:42:06.633950 13412 net.cpp:380] score_pool4c-R -> score_pool4c-R
I0715 13:42:06.634039 13412 net.cpp:122] Setting up score_pool4c-R
I0715 13:42:06.634057 13412 net.cpp:129] Top shape: 1 3 36 16 (1728)
I0715 13:42:06.634063 13412 net.cpp:137] Memory required for data: 1402401144
I0715 13:42:06.634078 13412 layer_factory.hpp:77] Creating layer fuse_pool4-R
I0715 13:42:06.634093 13412 net.cpp:84] Creating Layer fuse_pool4-R
I0715 13:42:06.634101 13412 net.cpp:406] fuse_pool4-R <- upscore2-new-R_upscore2-new-R_0_split_1
I0715 13:42:06.634112 13412 net.cpp:406] fuse_pool4-R <- score_pool4c-R
I0715 13:42:06.634124 13412 net.cpp:380] fuse_pool4-R -> fuse_pool4-R
I0715 13:42:06.634198 13412 net.cpp:122] Setting up fuse_pool4-R
I0715 13:42:06.634213 13412 net.cpp:129] Top shape: 1 3 36 16 (1728)
I0715 13:42:06.634219 13412 net.cpp:137] Memory required for data: 1402408056
I0715 13:42:06.634227 13412 layer_factory.hpp:77] Creating layer upscore_pool4-new-R
I0715 13:42:06.634244 13412 net.cpp:84] Creating Layer upscore_pool4-new-R
I0715 13:42:06.634253 13412 net.cpp:406] upscore_pool4-new-R <- fuse_pool4-R
I0715 13:42:06.634268 13412 net.cpp:380] upscore_pool4-new-R -> upscore_pool4-new-R
I0715 13:42:06.634964 13412 net.cpp:122] Setting up upscore_pool4-new-R
I0715 13:42:06.634981 13412 net.cpp:129] Top shape: 1 3 74 34 (7548)
I0715 13:42:06.634989 13412 net.cpp:137] Memory required for data: 1402438248
I0715 13:42:06.634999 13412 layer_factory.hpp:77] Creating layer upscore_pool4-new-R_upscore_pool4-new-R_0_split
I0715 13:42:06.635013 13412 net.cpp:84] Creating Layer upscore_pool4-new-R_upscore_pool4-new-R_0_split
I0715 13:42:06.635021 13412 net.cpp:406] upscore_pool4-new-R_upscore_pool4-new-R_0_split <- upscore_pool4-new-R
I0715 13:42:06.635033 13412 net.cpp:380] upscore_pool4-new-R_upscore_pool4-new-R_0_split -> upscore_pool4-new-R_upscore_pool4-new-R_0_split_0
I0715 13:42:06.635047 13412 net.cpp:380] upscore_pool4-new-R_upscore_pool4-new-R_0_split -> upscore_pool4-new-R_upscore_pool4-new-R_0_split_1
I0715 13:42:06.635164 13412 net.cpp:122] Setting up upscore_pool4-new-R_upscore_pool4-new-R_0_split
I0715 13:42:06.635180 13412 net.cpp:129] Top shape: 1 3 74 34 (7548)
I0715 13:42:06.635190 13412 net.cpp:129] Top shape: 1 3 74 34 (7548)
I0715 13:42:06.635196 13412 net.cpp:137] Memory required for data: 1402498632
I0715 13:42:06.635203 13412 layer_factory.hpp:77] Creating layer score_pool3-new-R
I0715 13:42:06.635222 13412 net.cpp:84] Creating Layer score_pool3-new-R
I0715 13:42:06.635238 13412 net.cpp:406] score_pool3-new-R <- pool3-R_pool3-R_0_split_1
I0715 13:42:06.635251 13412 net.cpp:380] score_pool3-new-R -> score_pool3-new-R
I0715 13:42:06.645232 13412 net.cpp:122] Setting up score_pool3-new-R
I0715 13:42:06.645267 13412 net.cpp:129] Top shape: 1 3 89 51 (13617)
I0715 13:42:06.645270 13412 net.cpp:137] Memory required for data: 1402553100
I0715 13:42:06.645278 13412 layer_factory.hpp:77] Creating layer score_pool3c-R
I0715 13:42:06.645287 13412 net.cpp:84] Creating Layer score_pool3c-R
I0715 13:42:06.645292 13412 net.cpp:406] score_pool3c-R <- score_pool3-new-R
I0715 13:42:06.645313 13412 net.cpp:406] score_pool3c-R <- upscore_pool4-new-R_upscore_pool4-new-R_0_split_0
I0715 13:42:06.645318 13412 net.cpp:380] score_pool3c-R -> score_pool3c-R
I0715 13:42:06.645364 13412 net.cpp:122] Setting up score_pool3c-R
I0715 13:42:06.645373 13412 net.cpp:129] Top shape: 1 3 74 34 (7548)
I0715 13:42:06.645376 13412 net.cpp:137] Memory required for data: 1402583292
I0715 13:42:06.645380 13412 layer_factory.hpp:77] Creating layer fuse_pool3-R
I0715 13:42:06.645403 13412 net.cpp:84] Creating Layer fuse_pool3-R
I0715 13:42:06.645407 13412 net.cpp:406] fuse_pool3-R <- upscore_pool4-new-R_upscore_pool4-new-R_0_split_1
I0715 13:42:06.645428 13412 net.cpp:406] fuse_pool3-R <- score_pool3c-R
I0715 13:42:06.645434 13412 net.cpp:380] fuse_pool3-R -> fuse_pool3-R
I0715 13:42:06.645490 13412 net.cpp:122] Setting up fuse_pool3-R
I0715 13:42:06.645498 13412 net.cpp:129] Top shape: 1 3 74 34 (7548)
I0715 13:42:06.645501 13412 net.cpp:137] Memory required for data: 1402613484
I0715 13:42:06.645505 13412 layer_factory.hpp:77] Creating layer upscore8-new-R
I0715 13:42:06.645514 13412 net.cpp:84] Creating Layer upscore8-new-R
I0715 13:42:06.645517 13412 net.cpp:406] upscore8-new-R <- fuse_pool3-R
I0715 13:42:06.645524 13412 net.cpp:380] upscore8-new-R -> upscore8-new-R
I0715 13:42:06.645952 13412 net.cpp:122] Setting up upscore8-new-R
I0715 13:42:06.645961 13412 net.cpp:129] Top shape: 1 3 600 280 (504000)
I0715 13:42:06.645979 13412 net.cpp:137] Memory required for data: 1404629484
I0715 13:42:06.645985 13412 layer_factory.hpp:77] Creating layer upscore8_cropped-R
I0715 13:42:06.645990 13412 net.cpp:84] Creating Layer upscore8_cropped-R
I0715 13:42:06.645994 13412 net.cpp:406] upscore8_cropped-R <- upscore8-new-R
I0715 13:42:06.646000 13412 net.cpp:406] upscore8_cropped-R <- data-R_crop_0_split_1
I0715 13:42:06.646006 13412 net.cpp:380] upscore8_cropped-R -> upscore8_cropped-R
I0715 13:42:06.646044 13412 net.cpp:122] Setting up upscore8_cropped-R
I0715 13:42:06.646049 13412 net.cpp:129] Top shape: 1 3 512 209 (321024)
I0715 13:42:06.646052 13412 net.cpp:137] Memory required for data: 1405913580
I0715 13:42:06.646055 13412 layer_factory.hpp:77] Creating layer upscore8_uncropped-R
I0715 13:42:06.646183 13412 net.cpp:84] Creating Layer upscore8_uncropped-R
I0715 13:42:06.646191 13412 net.cpp:406] upscore8_uncropped-R <- crop_info
I0715 13:42:06.646198 13412 net.cpp:406] upscore8_uncropped-R <- upscore8_cropped-R
I0715 13:42:06.646201 13412 net.cpp:406] upscore8_uncropped-R <- data_data_0_split_3
I0715 13:42:06.646208 13412 net.cpp:380] upscore8_uncropped-R -> upscore8_uncropped-R
I0715 13:42:06.648583 13412 net.cpp:122] Setting up upscore8_uncropped-R
I0715 13:42:06.648614 13412 net.cpp:129] Top shape: 1 3 512 209 (321024)
I0715 13:42:06.648623 13412 net.cpp:137] Memory required for data: 1407197676
I0715 13:42:06.648632 13412 layer_factory.hpp:77] Creating layer loss1
I0715 13:42:06.648648 13412 net.cpp:84] Creating Layer loss1
I0715 13:42:06.648663 13412 net.cpp:406] loss1 <- upscore8_cropped_upscore8_cropped_0_split_1
I0715 13:42:06.648674 13412 net.cpp:406] loss1 <- label_data_1_split_1
I0715 13:42:06.648685 13412 net.cpp:380] loss1 -> loss1
…
