…
snapshot_prefix: "/media/Med_2T2/data2/models/snapshots/indiv:1e-5x10,20/FD1:XI3_1_20180418_201418/train"
test_initialization: false
average_loss: 20
stepvalue: 40000
iter_size: 1
I0418 20:14:20.055438 17086 solver.cpp:77] Creating training net from train_net file: /media/Med_2T2/data2/prototxts/training_S3x10.prototxt
I0418 20:14:20.058238 17086 net.cpp:51] Initializing net from parameters: 
state {
  phase: TRAIN
}
layer {
  name: "data"
  type: "Python"
  top: "data"
  top: "label"
  top: "crop_margin"
  top: "crop_prob"
  top: "crop_sample_batch"
  python_param {
    module: "Data"
    layer: "DataLayer"
  }
}
layer {
  name: "conv1_1"
  type: "Convolution"
  bottom: "data"
  top: "conv1_1"
  param {
    lr_mult: 1
    decay_mult: 1
  }
  param {
    lr_mult: 2
    decay_mult: 0
  }
  convolution_param {
    num_output: 64
    pad: 100
    kernel_size: 3
    stride: 1
  }
}
layer {
  name: "relu1_1"
  type: "ReLU"
  bottom: "conv1_1"
  top: "conv1_1"
}
layer {
  name: "conv1_2"
  type: "Convolution"
  bottom: "conv1_1"
  top: "conv1_2"
  param {
    lr_mult: 1
    decay_mult: 1
  }
  param {
    lr_mult: 2
    decay_mult: 0
  }
  convolution_param {
    num_output: 64
    pad: 1
    kernel_size: 3
    stride: 1
  }
}
layer {
  name: "relu1_2"
  type: "ReLU"
  bottom: "conv1_2"
  top: "conv1_2"
}
layer {
  name: "pool1"
  type: "Pooling"
  bottom: "conv1_2"
  top: "pool1"
  pooling_param {
    pool: MAX
    kernel_size: 2
    stride: 2
  }
}
layer {
  name: "conv2_1"
  type: "Convolution"
  bottom: "pool1"
  top: "conv2_1"
  param {
    lr_mult: 1
    decay_mult: 1
  }
  param {
    lr_mult: 2
    decay_mult: 0
  }
  convolution_param {
    num_output: 128
    pad: 1
    kernel_size: 3
    stride: 1
  }
}
layer {
  name: "relu2_1"
  type: "ReLU"
  bottom: "conv2_1"
  top: "conv2_1"
}
layer {
  name: "conv2_2"
  type: "Convolution"
  bottom: "conv2_1"
  top: "conv2_2"
  param {
    lr_mult: 1
    decay_mult: 1
  }
  param {
    lr_mult: 2
    decay_mult: 0
  }
  convolution_param {
    num_output: 128
    pad: 1
    kernel_size: 3
    stride: 1
  }
}
layer {
  name: "relu2_2"
  type: "ReLU"
  bottom: "conv2_2"
  top: "conv2_2"
}
layer {
  name: "pool2"
  type: "Pooling"
  bottom: "conv2_2"
  top: "pool2"
  pooling_param {
    pool: MAX
    kernel_size: 2
    stride: 2
  }
}
layer {
  name: "conv3_1"
  type: "Convolution"
  bottom: "pool2"
  top: "conv3_1"
  param {
    lr_mult: 1
    decay_mult: 1
  }
  param {
    lr_mult: 2
    decay_mult: 0
  }
  convolution_param {
    num_output: 256
    pad: 1
    kernel_size: 3
    stride: 1
  }
}
layer {
  name: "relu3_1"
  type: "ReLU"
  bottom: "conv3_1"
  top: "conv3_1"
}
layer {
  name: "conv3_2"
  type: "Convolution"
  bottom: "conv3_1"
  top: "conv3_2"
  param {
    lr_mult: 1
    decay_mult: 1
  }
  param {
    lr_mult: 2
    decay_mult: 0
  }
  convolution_param {
    num_output: 256
    pad: 1
    kernel_size: 3
    stride: 1
  }
}
layer {
  name: "relu3_2"
  type: "ReLU"
  bottom: "conv3_2"
  top: "conv3_2"
}
layer {
  name: "conv3_3"
  type: "Convolution"
  bottom: "conv3_2"
  top: "conv3_3"
  param {
    lr_mult: 1
    decay_mult: 1
  }
  param {
    lr_mult: 2
    decay_mult: 0
  }
  convolution_param {
    num_output: 256
    pad: 1
    kernel_size: 3
    stride: 1
  }
}
layer {
  name: "relu3_3"
  type: "ReLU"
  bottom: "conv3_3"
  top: "conv3_3"
}
layer {
  name: "pool3"
  type: "Pooling"
  bottom: "conv3_3"
  top: "pool3"
  pooling_param {
    pool: MAX
    kernel_size: 2
    stride: 2
  }
}
layer {
  name: "conv4_1"
  type: "Convolution"
  bottom: "pool3"
  top: "conv4_1"
  param {
    lr_mult: 1
    decay_mult: 1
  }
  param {
    lr_mult: 2
    decay_mult: 0
  }
  convolution_param {
    num_output: 512
    pad: 1
    kernel_size: 3
    stride: 1
  }
}
layer {
  name: "relu4_1"
  type: "ReLU"
  bottom: "conv4_1"
  top: "conv4_1"
}
layer {
  name: "conv4_2"
  type: "Convolution"
  bottom: "conv4_1"
  top: "conv4_2"
  param {
    lr_mult: 1
    decay_mult: 1
  }
  param {
    lr_mult: 2
    decay_mult: 0
  }
  convolution_param {
    num_output: 512
    pad: 1
    kernel_size: 3
    stride: 1
  }
}
layer {
  name: "relu4_2"
  type: "ReLU"
  bottom: "conv4_2"
  top: "conv4_2"
}
layer {
  name: "conv4_3"
  type: "Convolution"
  bottom: "conv4_2"
  top: "conv4_3"
  param {
    lr_mult: 1
    decay_mult: 1
  }
  param {
    lr_mult: 2
    decay_mult: 0
  }
  convolution_param {
    num_output: 512
    pad: 1
    kernel_size: 3
    stride: 1
  }
}
layer {
  name: "relu4_3"
  type: "ReLU"
  bottom: "conv4_3"
  top: "conv4_3"
}
layer {
  name: "pool4"
  type: "Pooling"
  bottom: "conv4_3"
  top: "pool4"
  pooling_param {
    pool: MAX
    kernel_size: 2
    stride: 2
  }
}
layer {
  name: "conv5_1"
  type: "Convolution"
  bottom: "pool4"
  top: "conv5_1"
  param {
    lr_mult: 1
    decay_mult: 1
  }
  param {
    lr_mult: 2
    decay_mult: 0
  }
  convolution_param {
    num_output: 512
    pad: 1
    kernel_size: 3
    stride: 1
  }
}
layer {
  name: "relu5_1"
  type: "ReLU"
  bottom: "conv5_1"
  top: "conv5_1"
}
layer {
  name: "conv5_2"
  type: "Convolution"
  bottom: "conv5_1"
  top: "conv5_2"
  param {
    lr_mult: 1
    decay_mult: 1
  }
  param {
    lr_mult: 2
    decay_mult: 0
  }
  convolution_param {
    num_output: 512
    pad: 1
    kernel_size: 3
    stride: 1
  }
}
layer {
  name: "relu5_2"
  type: "ReLU"
  bottom: "conv5_2"
  top: "conv5_2"
}
layer {
  name: "conv5_3"
  type: "Convolution"
  bottom: "conv5_2"
  top: "conv5_3"
  param {
    lr_mult: 1
    decay_mult: 1
  }
  param {
    lr_mult: 2
    decay_mult: 0
  }
  convolution_param {
    num_output: 512
    pad: 1
    kernel_size: 3
    stride: 1
  }
}
layer {
  name: "relu5_3"
  type: "ReLU"
  bottom: "conv5_3"
  top: "conv5_3"
}
layer {
  name: "pool5"
  type: "Pooling"
  bottom: "conv5_3"
  top: "pool5"
  pooling_param {
    pool: MAX
    kernel_size: 2
    stride: 2
  }
}
layer {
  name: "fc6"
  type: "Convolution"
  bottom: "pool5"
  top: "fc6"
  param {
    lr_mult: 1
    decay_mult: 1
  }
  param {
    lr_mult: 2
    decay_mult: 0
  }
  convolution_param {
    num_output: 4096
    pad: 0
    kernel_size: 7
    stride: 1
  }
}
layer {
  name: "relu6"
  type: "ReLU"
  bottom: "fc6"
  top: "fc6"
}
layer {
  name: "drop6"
  type: "Dropout"
  bottom: "fc6"
  top: "fc6"
  dropout_param {
    dropout_ratio: 0.5
  }
}
layer {
  name: "fc7"
  type: "Convolution"
  bottom: "fc6"
  top: "fc7"
  param {
    lr_mult: 1
    decay_mult: 1
  }
  param {
    lr_mult: 2
    decay_mult: 0
  }
  convolution_param {
    num_output: 4096
    pad: 0
    kernel_size: 1
    stride: 1
  }
}
layer {
  name: "relu7"
  type: "ReLU"
  bottom: "fc7"
  top: "fc7"
}
layer {
  name: "drop7"
  type: "Dropout"
  bottom: "fc7"
  top: "fc7"
  dropout_param {
    dropout_ratio: 0.5
  }
}
layer {
  name: "score_fr-new"
  type: "Convolution"
  bottom: "fc7"
  top: "score_fr-new"
  param {
    lr_mult: 1
    decay_mult: 1
  }
  param {
    lr_mult: 2
    decay_mult: 0
  }
  convolution_param {
    num_output: 3
    kernel_size: 1
  }
}
layer {
  name: "upscore2-new"
  type: "Deconvolution"
  bottom: "score_fr-new"
  top: "upscore2-new"
  param {
    lr_mult: 0
  }
  convolution_param {
    num_output: 3
    bias_term: false
    kernel_size: 4
    stride: 2
  }
}
layer {
  name: "score_pool4-new"
  type: "Convolution"
  bottom: "pool4"
  top: "score_pool4-new"
  param {
    lr_mult: 1
    decay_mult: 1
  }
  param {
    lr_mult: 2
    decay_mult: 0
  }
  convolution_param {
    num_output: 3
    pad: 0
    kernel_size: 1
  }
}
layer {
  name: "score_pool4c"
  type: "Crop"
  bottom: "score_pool4-new"
  bottom: "upscore2-new"
  top: "score_pool4c"
  crop_param {
    axis: 2
    offset: 5
  }
}
layer {
  name: "fuse_pool4"
  type: "Eltwise"
  bottom: "upscore2-new"
  bottom: "score_pool4c"
  top: "fuse_pool4"
  eltwise_param {
    operation: SUM
  }
}
layer {
  name: "upscore_pool4-new"
  type: "Deconvolution"
  bottom: "fuse_pool4"
  top: "upscore_pool4-new"
  param {
    lr_mult: 0
  }
  convolution_param {
    num_output: 3
    bias_term: false
    kernel_size: 4
    stride: 2
  }
}
layer {
  name: "score_pool3-new"
  type: "Convolution"
  bottom: "pool3"
  top: "score_pool3-new"
  param {
    lr_mult: 1
    decay_mult: 1
  }
  param {
    lr_mult: 2
    decay_mult: 0
  }
  convolution_param {
    num_output: 3
    pad: 0
    kernel_size: 1
  }
}
layer {
  name: "score_pool3c"
  type: "Crop"
  bottom: "score_pool3-new"
  bottom: "upscore_pool4-new"
  top: "score_pool3c"
  crop_param {
    axis: 2
    offset: 9
  }
}
layer {
  name: "fuse_pool3"
  type: "Eltwise"
  bottom: "upscore_pool4-new"
  bottom: "score_pool3c"
  top: "fuse_pool3"
  eltwise_param {
    operation: SUM
  }
}
layer {
  name: "upscore8-new"
  type: "Deconvolution"
  bottom: "fuse_pool3"
  top: "upscore8-new"
  param {
    lr_mult: 0
  }
  convolution_param {
    num_output: 3
    bias_term: false
    kernel_size: 16
    stride: 8
  }
}
layer {
  name: "upscore8_cropped"
  type: "Crop"
  bottom: "upscore8-new"
  bottom: "data"
  top: "upscore8_cropped"
  crop_param {
    axis: 2
    offset: 31
  }
}
layer {
  name: "score"
  type: "Convolution"
  bottom: "upscore8_cropped"
  top: "score"
  param {
    lr_mult: 1
    decay_mult: 1
  }
  param {
    lr_mult: 2
    decay_mult: 0
  }
  convolution_param {
    num_output: 3
    pad: 1
    kernel_size: 3
    stride: 1
    weight_filler {
      type: "xavier"
    }
    bias_filler {
      type: "constant"
      value: 0
    }
  }
}
layer {
  name: "prob"
  type: "Sigmoid"
  bottom: "score"
  top: "prob"
}
layer {
  name: "saliency"
  type: "Convolution"
  bottom: "prob"
  top: "saliency"
  param {
    lr_mult: 10
    decay_mult: 1
  }
  param {
    lr_mult: 20
    decay_mult: 0
  }
  convolution_param {
    num_output: 3
    pad: 2
    kernel_size: 5
    stride: 1
    weight_filler {
      type: "xavier"
    }
    bias_filler {
      type: "constant"
      value: 1
    }
  }
}
layer {
  name: "silence_saliency"
  type: "Silence"
  bottom: "saliency"
}
layer {
  name: "crop"
  type: "Python"
  bottom: "label"
  bottom: "data"
  bottom: "crop_margin"
  bottom: "crop_prob"
  bottom: "crop_sample_batch"
  top: "data-R"
  top: "crop_info"
  python_param {
    module: "Crop"
    layer: "CropLayer"
    param_str: "{\"TEST\": 0}"
  }
}
layer {
  name: "conv1_1-R"
  type: "Convolution"
  bottom: "data-R"
  top: "conv1_1-R"
  param {
    lr_mult: 10
    decay_mult: 1
  }
  param {
    lr_mult: 20
    decay_mult: 0
  }
  convolution_param {
    num_output: 64
    pad: 100
    kernel_size: 3
    stride: 1
  }
}
layer {
  name: "relu1_1-R"
  type: "ReLU"
  bottom: "conv1_1-R"
  top: "conv1_1-R"
}
layer {
  name: "conv1_2-R"
  type: "Convolution"
  bottom: "conv1_1-R"
  top: "conv1_2-R"
  param {
    lr_mult: 10
    decay_mult: 1
  }
  param {
    lr_mult: 20
    decay_mult: 0
  }
  convolution_param {
    num_output: 64
    pad: 1
    kernel_size: 3
    stride: 1
  }
}
layer {
  name: "relu1_2-R"
  type: "ReLU"
  bottom: "conv1_2-R"
  top: "conv1_2-R"
}
layer {
  name: "pool1-R"
  type: "Pooling"
  bottom: "conv1_2-R"
  top: "pool1-R"
  pooling_param {
    pool: MAX
    kernel_size: 2
    stride: 2
  }
}
layer {
  name: "conv2_1-R"
  type: "Convolution"
  bottom: "pool1-R"
  top: "conv2_1-R"
  param {
    lr_mult: 10
    decay_mult: 1
  }
  param {
    lr_mult: 20
    decay_mult: 0
  }
  convolution_param {
    num_output: 128
    pad: 1
    kernel_size: 3
    stride: 1
  }
}
layer {
  name: "relu2_1-R"
  type: "ReLU"
  bottom: "conv2_1-R"
  top: "conv2_1-R"
}
layer {
  name: "conv2_2-R"
  type: "Convolution"
  bottom: "conv2_1-R"
  top: "conv2_2-R"
  param {
    lr_mult: 10
    decay_mult: 1
  }
  param {
    lr_mult: 20
    decay_mult: 0
  }
  convolution_param {
    num_output: 128
    pad: 1
    kernel_size: 3
    stride: 1
  }
}
layer {
  name: "relu2_2-R"
  type: "ReLU"
  bottom: "conv2_2-R"
  top: "conv2_2-R"
}
layer {
  name: "pool2-R"
  type: "Pooling"
  bottom: "conv2_2-R"
  top: "pool2-R"
  pooling_param {
    pool: MAX
    kernel_size: 2
    stride: 2
  }
}
layer {
  name: "conv3_1-R"
  type: "Convolution"
  bottom: "pool2-R"
  top: "conv3_1-R"
  param {
    lr_mult: 10
    decay_mult: 1
  }
  param {
    lr_mult: 20
    decay_mult: 0
  }
  convolution_param {
    num_output: 256
    pad: 1
    kernel_size: 3
    stride: 1
  }
}
layer {
  name: "relu3_1-R"
  type: "ReLU"
  bottom: "conv3_1-R"
  top: "conv3_1-R"
}
layer {
  name: "conv3_2-R"
  type: "Convolution"
  bottom: "conv3_1-R"
  top: "conv3_2-R"
  param {
    lr_mult: 10
    decay_mult: 1
  }
  param {
    lr_mult: 20
    decay_mult: 0
  }
  convolution_param {
    num_output: 256
    pad: 1
    kernel_size: 3
    stride: 1
  }
}
layer {
  name: "relu3_2-R"
  type: "ReLU"
  bottom: "conv3_2-R"
  top: "conv3_2-R"
}
layer {
  name: "conv3_3-R"
  type: "Convolution"
  bottom: "conv3_2-R"
  top: "conv3_3-R"
  param {
    lr_mult: 10
    decay_mult: 1
  }
  param {
    lr_mult: 20
    decay_mult: 0
  }
  convolution_param {
    num_output: 256
    pad: 1
    kernel_size: 3
    stride: 1
  }
}
layer {
  name: "relu3_3-R"
  type: "ReLU"
  bottom: "conv3_3-R"
  top: "conv3_3-R"
}
layer {
  name: "pool3-R"
  type: "Pooling"
  bottom: "conv3_3-R"
  top: "pool3-R"
  pooling_param {
    pool: MAX
    kernel_size: 2
    stride: 2
  }
}
layer {
  name: "conv4_1-R"
  type: "Convolution"
  bottom: "pool3-R"
  top: "conv4_1-R"
  param {
    lr_mult: 10
    decay_mult: 1
  }
  param {
    lr_mult: 20
    decay_mult: 0
  }
  convolution_param {
    num_output: 512
    pad: 1
    kernel_size: 3
    stride: 1
  }
}
layer {
  name: "relu4_1-R"
  type: "ReLU"
  bottom: "conv4_1-R"
  top: "conv4_1-R"
}
layer {
  name: "conv4_2-R"
  type: "Convolution"
  bottom: "conv4_1-R"
  top: "conv4_2-R"
  param {
    lr_mult: 10
    decay_mult: 1
  }
  param {
    lr_mult: 20
    decay_mult: 0
  }
  convolution_param {
    num_output: 512
    pad: 1
    kernel_size: 3
    stride: 1
  }
}
layer {
  name: "relu4_2-R"
  type: "ReLU"
  bottom: "conv4_2-R"
  top: "conv4_2-R"
}
layer {
  name: "conv4_3-R"
  type: "Convolution"
  bottom: "conv4_2-R"
  top: "conv4_3-R"
  param {
    lr_mult: 10
    decay_mult: 1
  }
  param {
    lr_mult: 20
    decay_mult: 0
  }
  convolution_param {
    num_output: 512
    pad: 1
    kernel_size: 3
    stride: 1
  }
}
layer {
  name: "relu4_3-R"
  type: "ReLU"
  bottom: "conv4_3-R"
  top: "conv4_3-R"
}
layer {
  name: "pool4-R"
  type: "Pooling"
  bottom: "conv4_3-R"
  top: "pool4-R"
  pooling_param {
    pool: MAX
    kernel_size: 2
    stride: 2
  }
}
layer {
  name: "conv5_1-R"
  type: "Convolution"
  bottom: "pool4-R"
  top: "conv5_1-R"
  param {
    lr_mult: 10
    decay_mult: 1
  }
  param {
    lr_mult: 20
    decay_mult: 0
  }
  convolution_param {
    num_output: 512
    pad: 1
    kernel_size: 3
    stride: 1
  }
}
layer {
  name: "relu5_1-R"
  type: "ReLU"
  bottom: "conv5_1-R"
  top: "conv5_1-R"
}
layer {
  name: "conv5_2-R"
  type: "Convolution"
  bottom: "conv5_1-R"
  top: "conv5_2-R"
  param {
    lr_mult: 10
    decay_mult: 1
  }
  param {
    lr_mult: 20
    decay_mult: 0
  }
  convolution_param {
    num_output: 512
    pad: 1
    kernel_size: 3
    stride: 1
  }
}
layer {
  name: "relu5_2-R"
  type: "ReLU"
  bottom: "conv5_2-R"
  top: "conv5_2-R"
}
layer {
  name: "conv5_3-R"
  type: "Convolution"
  bottom: "conv5_2-R"
  top: "conv5_3-R"
  param {
    lr_mult: 10
    decay_mult: 1
  }
  param {
    lr_mult: 20
    decay_mult: 0
  }
  convolution_param {
    num_output: 512
    pad: 1
    kernel_size: 3
    stride: 1
  }
}
layer {
  name: "relu5_3-R"
  type: "ReLU"
  bottom: "conv5_3-R"
  top: "conv5_3-R"
}
layer {
  name: "pool5-R"
  type: "Pooling"
  bottom: "conv5_3-R"
  top: "pool5-R"
  pooling_param {
    pool: MAX
    kernel_size: 2
    stride: 2
  }
}
layer {
  name: "fc6-R"
  type: "Convolution"
  bottom: "pool5-R"
  top: "fc6-R"
  param {
    lr_mult: 10
    decay_mult: 1
  }
  param {
    lr_mult: 20
    decay_mult: 0
  }
  convolution_param {
    num_output: 4096
    pad: 0
    kernel_size: 7
    stride: 1
  }
}
layer {
  name: "relu6-R"
  type: "ReLU"
  bottom: "fc6-R"
  top: "fc6-R"
}
layer {
  name: "drop6-R"
  type: "Dropout"
  bottom: "fc6-R"
  top: "fc6-R"
  dropout_param {
    dropout_ratio: 0.5
  }
}
layer {
  name: "fc7-R"
  type: "Convolution"
  bottom: "fc6-R"
  top: "fc7-R"
  param {
    lr_mult: 10
    decay_mult: 1
  }
  param {
    lr_mult: 20
    decay_mult: 0
  }
  convolution_param {
    num_output: 4096
    pad: 0
    kernel_size: 1
    stride: 1
  }
}
layer {
  name: "relu7-R"
  type: "ReLU"
  bottom: "fc7-R"
  top: "fc7-R"
}
layer {
  name: "drop7-R"
  type: "Dropout"
  bottom: "fc7-R"
  top: "fc7-R"
  dropout_param {
    dropout_ratio: 0.5
  }
}
layer {
  name: "score_fr-new-R"
  type: "Convolution"
  bottom: "fc7-R"
  top: "score_fr-new-R"
  param {
    lr_mult: 10
    decay_mult: 1
  }
  param {
    lr_mult: 20
    decay_mult: 0
  }
  convolution_param {
    num_output: 3
    kernel_size: 1
  }
}
layer {
  name: "upscore2-new-R"
  type: "Deconvolution"
  bottom: "score_fr-new-R"
  top: "upscore2-new-R"
  param {
    lr_mult: 0
  }
  convolution_param {
    num_output: 3
    bias_term: false
    kernel_size: 4
    stride: 2
  }
}
layer {
  name: "score_pool4-new-R"
  type: "Convolution"
  bottom: "pool4-R"
  top: "score_pool4-new-R"
  param {
    lr_mult: 10
    decay_mult: 1
  }
  param {
    lr_mult: 20
    decay_mult: 0
  }
  convolution_param {
    num_output: 3
    pad: 0
    kernel_size: 1
  }
}
layer {
  name: "score_pool4c-R"
  type: "Crop"
  bottom: "score_pool4-new-R"
  bottom: "upscore2-new-R"
  top: "score_pool4c-R"
  crop_param {
    axis: 2
    offset: 5
  }
}
layer {
  name: "fuse_pool4-R"
  type: "Eltwise"
  bottom: "upscore2-new-R"
  bottom: "score_pool4c-R"
  top: "fuse_pool4-R"
  eltwise_param {
    operation: SUM
  }
}
layer {
  name: "upscore_pool4-new-R"
  type: "Deconvolution"
  bottom: "fuse_pool4-R"
  top: "upscore_pool4-new-R"
  param {
    lr_mult: 0
  }
  convolution_param {
    num_output: 3
    bias_term: false
    kernel_size: 4
    stride: 2
  }
}
layer {
  name: "score_pool3-new-R"
  type: "Convolution"
  bottom: "pool3-R"
  top: "score_pool3-new-R"
  param {
    lr_mult: 10
    decay_mult: 1
  }
  param {
    lr_mult: 20
    decay_mult: 0
  }
  convolution_param {
    num_output: 3
    pad: 0
    kernel_size: 1
  }
}
layer {
  name: "score_pool3c-R"
  type: "Crop"
  bottom: "score_pool3-new-R"
  bottom: "upscore_pool4-new-R"
  top: "score_pool3c-R"
  crop_param {
    axis: 2
    offset: 9
  }
}
layer {
  name: "fuse_pool3-R"
  type: "Eltwise"
  bottom: "upscore_pool4-new-R"
  bottom: "score_pool3c-R"
  top: "fuse_pool3-R"
  eltwise_param {
    operation: SUM
  }
}
layer {
  name: "upscore8-new-R"
  type: "Deconvolution"
  bottom: "fuse_pool3-R"
  top: "upscore8-new-R"
  param {
    lr_mult: 0
  }
  convolution_param {
    num_output: 3
    bias_term: false
    kernel_size: 16
    stride: 8
  }
}
layer {
  name: "upscore8_cropped-R"
  type: "Crop"
  bottom: "upscore8-new-R"
  bottom: "data-R"
  top: "upscore8_cropped-R"
  crop_param {
    axis: 2
    offset: 31
  }
}
layer {
  name: "score-R"
  type: "Convolution"
  bottom: "upscore8_cropped-R"
  top: "score-R"
  param {
    lr_mult: 10
    decay_mult: 1
  }
  param {
    lr_mult: 20
    decay_mult: 0
  }
  convolution_param {
    num_output: 3
    pad: 1
    kernel_size: 3
    stride: 1
    weight_filler {
      type: "xavier"
    }
    bias_filler {
      type: "constant"
      value: 0
    }
  }
}
layer {
  name: "score_uncropped-R"
  type: "Python"
  bottom: "crop_info"
  bottom: "score-R"
  bottom: "data"
  top: "score_uncropped-R"
  python_param {
    module: "Uncrop"
    layer: "UncropLayer"
  }
}
layer {
  name: "loss1"
  type: "DiceLoss"
  bottom: "score"
  bottom: "label"
  top: "loss1"
  loss_weight: 0.333333
}
layer {
  name: "loss2"
  type: "DiceLoss"
  bottom: "score_uncropped-R"
  bottom: "label"
  top: "loss2"
  loss_weight: 0.666667
}
I0418 20:14:20.058796 17086 layer_factory.hpp:77] Creating layer data
I0418 20:14:20.059643 17086 net.cpp:84] Creating Layer data
I0418 20:14:20.059659 17086 net.cpp:380] data -> data
I0418 20:14:20.059677 17086 net.cpp:380] data -> label
I0418 20:14:20.059685 17086 net.cpp:380] data -> crop_margin
I0418 20:14:20.059692 17086 net.cpp:380] data -> crop_prob
I0418 20:14:20.059698 17086 net.cpp:380] data -> crop_sample_batch
I0418 20:14:20.243250 17086 net.cpp:122] Setting up data
I0418 20:14:20.243304 17086 net.cpp:129] Top shape: 1 3 512 310 (476160)
I0418 20:14:20.243311 17086 net.cpp:129] Top shape: 1 3 512 310 (476160)
I0418 20:14:20.243316 17086 net.cpp:129] Top shape: 1 (1)
I0418 20:14:20.243321 17086 net.cpp:129] Top shape: 1 (1)
I0418 20:14:20.243326 17086 net.cpp:129] Top shape: 1 (1)
I0418 20:14:20.243330 17086 net.cpp:137] Memory required for data: 3809292
I0418 20:14:20.243340 17086 layer_factory.hpp:77] Creating layer data_data_0_split
I0418 20:14:20.243355 17086 net.cpp:84] Creating Layer data_data_0_split
I0418 20:14:20.243371 17086 net.cpp:406] data_data_0_split <- data
I0418 20:14:20.243383 17086 net.cpp:380] data_data_0_split -> data_data_0_split_0
I0418 20:14:20.243396 17086 net.cpp:380] data_data_0_split -> data_data_0_split_1
I0418 20:14:20.243403 17086 net.cpp:380] data_data_0_split -> data_data_0_split_2
I0418 20:14:20.243410 17086 net.cpp:380] data_data_0_split -> data_data_0_split_3
I0418 20:14:20.243470 17086 net.cpp:122] Setting up data_data_0_split
I0418 20:14:20.243476 17086 net.cpp:129] Top shape: 1 3 512 310 (476160)
I0418 20:14:20.243482 17086 net.cpp:129] Top shape: 1 3 512 310 (476160)
I0418 20:14:20.243487 17086 net.cpp:129] Top shape: 1 3 512 310 (476160)
I0418 20:14:20.243492 17086 net.cpp:129] Top shape: 1 3 512 310 (476160)
I0418 20:14:20.243495 17086 net.cpp:137] Memory required for data: 11427852
I0418 20:14:20.243500 17086 layer_factory.hpp:77] Creating layer label_data_1_split
I0418 20:14:20.243506 17086 net.cpp:84] Creating Layer label_data_1_split
I0418 20:14:20.243511 17086 net.cpp:406] label_data_1_split <- label
I0418 20:14:20.243517 17086 net.cpp:380] label_data_1_split -> label_data_1_split_0
I0418 20:14:20.243525 17086 net.cpp:380] label_data_1_split -> label_data_1_split_1
I0418 20:14:20.243531 17086 net.cpp:380] label_data_1_split -> label_data_1_split_2
I0418 20:14:20.243571 17086 net.cpp:122] Setting up label_data_1_split
I0418 20:14:20.243577 17086 net.cpp:129] Top shape: 1 3 512 310 (476160)
I0418 20:14:20.243582 17086 net.cpp:129] Top shape: 1 3 512 310 (476160)
I0418 20:14:20.243587 17086 net.cpp:129] Top shape: 1 3 512 310 (476160)
I0418 20:14:20.243592 17086 net.cpp:137] Memory required for data: 17141772
I0418 20:14:20.243595 17086 layer_factory.hpp:77] Creating layer conv1_1
I0418 20:14:20.243611 17086 net.cpp:84] Creating Layer conv1_1
I0418 20:14:20.243616 17086 net.cpp:406] conv1_1 <- data_data_0_split_0
I0418 20:14:20.243623 17086 net.cpp:380] conv1_1 -> conv1_1
I0418 20:14:20.565764 17086 net.cpp:122] Setting up conv1_1
I0418 20:14:20.565806 17086 net.cpp:129] Top shape: 1 64 710 508 (23083520)
I0418 20:14:20.565814 17086 net.cpp:137] Memory required for data: 109475852
I0418 20:14:20.565846 17086 layer_factory.hpp:77] Creating layer relu1_1
I0418 20:14:20.565868 17086 net.cpp:84] Creating Layer relu1_1
I0418 20:14:20.565876 17086 net.cpp:406] relu1_1 <- conv1_1
I0418 20:14:20.565886 17086 net.cpp:367] relu1_1 -> conv1_1 (in-place)
I0418 20:14:20.566185 17086 net.cpp:122] Setting up relu1_1
I0418 20:14:20.566202 17086 net.cpp:129] Top shape: 1 64 710 508 (23083520)
I0418 20:14:20.566208 17086 net.cpp:137] Memory required for data: 201809932
I0418 20:14:20.566215 17086 layer_factory.hpp:77] Creating layer conv1_2
I0418 20:14:20.566229 17086 net.cpp:84] Creating Layer conv1_2
I0418 20:14:20.566236 17086 net.cpp:406] conv1_2 <- conv1_1
I0418 20:14:20.566246 17086 net.cpp:380] conv1_2 -> conv1_2
I0418 20:14:20.572182 17086 net.cpp:122] Setting up conv1_2
I0418 20:14:20.572213 17086 net.cpp:129] Top shape: 1 64 710 508 (23083520)
I0418 20:14:20.572218 17086 net.cpp:137] Memory required for data: 294144012
I0418 20:14:20.572233 17086 layer_factory.hpp:77] Creating layer relu1_2
I0418 20:14:20.572244 17086 net.cpp:84] Creating Layer relu1_2
I0418 20:14:20.572249 17086 net.cpp:406] relu1_2 <- conv1_2
I0418 20:14:20.572259 17086 net.cpp:367] relu1_2 -> conv1_2 (in-place)
I0418 20:14:20.572444 17086 net.cpp:122] Setting up relu1_2
I0418 20:14:20.572458 17086 net.cpp:129] Top shape: 1 64 710 508 (23083520)
I0418 20:14:20.572463 17086 net.cpp:137] Memory required for data: 386478092
I0418 20:14:20.572468 17086 layer_factory.hpp:77] Creating layer pool1
I0418 20:14:20.572497 17086 net.cpp:84] Creating Layer pool1
I0418 20:14:20.572505 17086 net.cpp:406] pool1 <- conv1_2
I0418 20:14:20.572513 17086 net.cpp:380] pool1 -> pool1
I0418 20:14:20.572578 17086 net.cpp:122] Setting up pool1
I0418 20:14:20.572589 17086 net.cpp:129] Top shape: 1 64 355 254 (5770880)
I0418 20:14:20.572593 17086 net.cpp:137] Memory required for data: 409561612
I0418 20:14:20.572598 17086 layer_factory.hpp:77] Creating layer conv2_1
I0418 20:14:20.572618 17086 net.cpp:84] Creating Layer conv2_1
I0418 20:14:20.572624 17086 net.cpp:406] conv2_1 <- pool1
I0418 20:14:20.572634 17086 net.cpp:380] conv2_1 -> conv2_1
I0418 20:14:20.574199 17086 net.cpp:122] Setting up conv2_1
I0418 20:14:20.574213 17086 net.cpp:129] Top shape: 1 128 355 254 (11541760)
I0418 20:14:20.574219 17086 net.cpp:137] Memory required for data: 455728652
I0418 20:14:20.574229 17086 layer_factory.hpp:77] Creating layer relu2_1
I0418 20:14:20.574236 17086 net.cpp:84] Creating Layer relu2_1
I0418 20:14:20.574239 17086 net.cpp:406] relu2_1 <- conv2_1
I0418 20:14:20.574244 17086 net.cpp:367] relu2_1 -> conv2_1 (in-place)
I0418 20:14:20.574424 17086 net.cpp:122] Setting up relu2_1
I0418 20:14:20.574436 17086 net.cpp:129] Top shape: 1 128 355 254 (11541760)
I0418 20:14:20.574441 17086 net.cpp:137] Memory required for data: 501895692
I0418 20:14:20.574446 17086 layer_factory.hpp:77] Creating layer conv2_2
I0418 20:14:20.574461 17086 net.cpp:84] Creating Layer conv2_2
I0418 20:14:20.574467 17086 net.cpp:406] conv2_2 <- conv2_1
I0418 20:14:20.574479 17086 net.cpp:380] conv2_2 -> conv2_2
I0418 20:14:20.578665 17086 net.cpp:122] Setting up conv2_2
I0418 20:14:20.578697 17086 net.cpp:129] Top shape: 1 128 355 254 (11541760)
I0418 20:14:20.578706 17086 net.cpp:137] Memory required for data: 548062732
I0418 20:14:20.578722 17086 layer_factory.hpp:77] Creating layer relu2_2
I0418 20:14:20.578738 17086 net.cpp:84] Creating Layer relu2_2
I0418 20:14:20.578748 17086 net.cpp:406] relu2_2 <- conv2_2
I0418 20:14:20.578759 17086 net.cpp:367] relu2_2 -> conv2_2 (in-place)
I0418 20:14:20.579154 17086 net.cpp:122] Setting up relu2_2
I0418 20:14:20.579175 17086 net.cpp:129] Top shape: 1 128 355 254 (11541760)
I0418 20:14:20.579182 17086 net.cpp:137] Memory required for data: 594229772
I0418 20:14:20.579190 17086 layer_factory.hpp:77] Creating layer pool2
I0418 20:14:20.579203 17086 net.cpp:84] Creating Layer pool2
I0418 20:14:20.579211 17086 net.cpp:406] pool2 <- conv2_2
I0418 20:14:20.579226 17086 net.cpp:380] pool2 -> pool2
I0418 20:14:20.579316 17086 net.cpp:122] Setting up pool2
I0418 20:14:20.579330 17086 net.cpp:129] Top shape: 1 128 178 127 (2893568)
I0418 20:14:20.579337 17086 net.cpp:137] Memory required for data: 605804044
I0418 20:14:20.579344 17086 layer_factory.hpp:77] Creating layer conv3_1
I0418 20:14:20.579365 17086 net.cpp:84] Creating Layer conv3_1
I0418 20:14:20.579376 17086 net.cpp:406] conv3_1 <- pool2
I0418 20:14:20.579388 17086 net.cpp:380] conv3_1 -> conv3_1
I0418 20:14:20.583485 17086 net.cpp:122] Setting up conv3_1
I0418 20:14:20.583499 17086 net.cpp:129] Top shape: 1 256 178 127 (5787136)
I0418 20:14:20.583505 17086 net.cpp:137] Memory required for data: 628952588
I0418 20:14:20.583515 17086 layer_factory.hpp:77] Creating layer relu3_1
I0418 20:14:20.583521 17086 net.cpp:84] Creating Layer relu3_1
I0418 20:14:20.583524 17086 net.cpp:406] relu3_1 <- conv3_1
I0418 20:14:20.583528 17086 net.cpp:367] relu3_1 -> conv3_1 (in-place)
I0418 20:14:20.584049 17086 net.cpp:122] Setting up relu3_1
I0418 20:14:20.584062 17086 net.cpp:129] Top shape: 1 256 178 127 (5787136)
I0418 20:14:20.584065 17086 net.cpp:137] Memory required for data: 652101132
I0418 20:14:20.584069 17086 layer_factory.hpp:77] Creating layer conv3_2
I0418 20:14:20.584079 17086 net.cpp:84] Creating Layer conv3_2
I0418 20:14:20.584081 17086 net.cpp:406] conv3_2 <- conv3_1
I0418 20:14:20.584089 17086 net.cpp:380] conv3_2 -> conv3_2
I0418 20:14:20.586889 17086 net.cpp:122] Setting up conv3_2
I0418 20:14:20.586904 17086 net.cpp:129] Top shape: 1 256 178 127 (5787136)
I0418 20:14:20.586907 17086 net.cpp:137] Memory required for data: 675249676
I0418 20:14:20.586915 17086 layer_factory.hpp:77] Creating layer relu3_2
I0418 20:14:20.586923 17086 net.cpp:84] Creating Layer relu3_2
I0418 20:14:20.586926 17086 net.cpp:406] relu3_2 <- conv3_2
I0418 20:14:20.586931 17086 net.cpp:367] relu3_2 -> conv3_2 (in-place)
I0418 20:14:20.588889 17086 net.cpp:122] Setting up relu3_2
I0418 20:14:20.588906 17086 net.cpp:129] Top shape: 1 256 178 127 (5787136)
I0418 20:14:20.588908 17086 net.cpp:137] Memory required for data: 698398220
I0418 20:14:20.588912 17086 layer_factory.hpp:77] Creating layer conv3_3
I0418 20:14:20.588948 17086 net.cpp:84] Creating Layer conv3_3
I0418 20:14:20.588958 17086 net.cpp:406] conv3_3 <- conv3_2
I0418 20:14:20.588973 17086 net.cpp:380] conv3_3 -> conv3_3
I0418 20:14:20.592470 17086 net.cpp:122] Setting up conv3_3
I0418 20:14:20.592485 17086 net.cpp:129] Top shape: 1 256 178 127 (5787136)
I0418 20:14:20.592506 17086 net.cpp:137] Memory required for data: 721546764
I0418 20:14:20.592514 17086 layer_factory.hpp:77] Creating layer relu3_3
I0418 20:14:20.592520 17086 net.cpp:84] Creating Layer relu3_3
I0418 20:14:20.592525 17086 net.cpp:406] relu3_3 <- conv3_3
I0418 20:14:20.592531 17086 net.cpp:367] relu3_3 -> conv3_3 (in-place)
I0418 20:14:20.592748 17086 net.cpp:122] Setting up relu3_3
I0418 20:14:20.592761 17086 net.cpp:129] Top shape: 1 256 178 127 (5787136)
I0418 20:14:20.592766 17086 net.cpp:137] Memory required for data: 744695308
I0418 20:14:20.592779 17086 layer_factory.hpp:77] Creating layer pool3
I0418 20:14:20.592787 17086 net.cpp:84] Creating Layer pool3
I0418 20:14:20.592790 17086 net.cpp:406] pool3 <- conv3_3
I0418 20:14:20.592798 17086 net.cpp:380] pool3 -> pool3
I0418 20:14:20.592842 17086 net.cpp:122] Setting up pool3
I0418 20:14:20.592850 17086 net.cpp:129] Top shape: 1 256 89 64 (1458176)
I0418 20:14:20.592854 17086 net.cpp:137] Memory required for data: 750528012
I0418 20:14:20.592856 17086 layer_factory.hpp:77] Creating layer pool3_pool3_0_split
I0418 20:14:20.592866 17086 net.cpp:84] Creating Layer pool3_pool3_0_split
I0418 20:14:20.592875 17086 net.cpp:406] pool3_pool3_0_split <- pool3
I0418 20:14:20.592880 17086 net.cpp:380] pool3_pool3_0_split -> pool3_pool3_0_split_0
I0418 20:14:20.592885 17086 net.cpp:380] pool3_pool3_0_split -> pool3_pool3_0_split_1
I0418 20:14:20.592921 17086 net.cpp:122] Setting up pool3_pool3_0_split
I0418 20:14:20.592926 17086 net.cpp:129] Top shape: 1 256 89 64 (1458176)
I0418 20:14:20.592931 17086 net.cpp:129] Top shape: 1 256 89 64 (1458176)
I0418 20:14:20.592933 17086 net.cpp:137] Memory required for data: 762193420
I0418 20:14:20.592936 17086 layer_factory.hpp:77] Creating layer conv4_1
I0418 20:14:20.592947 17086 net.cpp:84] Creating Layer conv4_1
I0418 20:14:20.592950 17086 net.cpp:406] conv4_1 <- pool3_pool3_0_split_0
I0418 20:14:20.592957 17086 net.cpp:380] conv4_1 -> conv4_1
I0418 20:14:20.601794 17086 net.cpp:122] Setting up conv4_1
I0418 20:14:20.601835 17086 net.cpp:129] Top shape: 1 512 89 64 (2916352)
I0418 20:14:20.601843 17086 net.cpp:137] Memory required for data: 773858828
I0418 20:14:20.601860 17086 layer_factory.hpp:77] Creating layer relu4_1
I0418 20:14:20.601883 17086 net.cpp:84] Creating Layer relu4_1
I0418 20:14:20.601892 17086 net.cpp:406] relu4_1 <- conv4_1
I0418 20:14:20.601907 17086 net.cpp:367] relu4_1 -> conv4_1 (in-place)
I0418 20:14:20.602213 17086 net.cpp:122] Setting up relu4_1
I0418 20:14:20.602226 17086 net.cpp:129] Top shape: 1 512 89 64 (2916352)
I0418 20:14:20.602243 17086 net.cpp:137] Memory required for data: 785524236
I0418 20:14:20.602247 17086 layer_factory.hpp:77] Creating layer conv4_2
I0418 20:14:20.602274 17086 net.cpp:84] Creating Layer conv4_2
I0418 20:14:20.602278 17086 net.cpp:406] conv4_2 <- conv4_1
I0418 20:14:20.602284 17086 net.cpp:380] conv4_2 -> conv4_2
I0418 20:14:20.609359 17086 net.cpp:122] Setting up conv4_2
I0418 20:14:20.609374 17086 net.cpp:129] Top shape: 1 512 89 64 (2916352)
I0418 20:14:20.609393 17086 net.cpp:137] Memory required for data: 797189644
I0418 20:14:20.609408 17086 layer_factory.hpp:77] Creating layer relu4_2
I0418 20:14:20.609433 17086 net.cpp:84] Creating Layer relu4_2
I0418 20:14:20.609437 17086 net.cpp:406] relu4_2 <- conv4_2
I0418 20:14:20.609443 17086 net.cpp:367] relu4_2 -> conv4_2 (in-place)
I0418 20:14:20.609652 17086 net.cpp:122] Setting up relu4_2
I0418 20:14:20.609664 17086 net.cpp:129] Top shape: 1 512 89 64 (2916352)
I0418 20:14:20.609668 17086 net.cpp:137] Memory required for data: 808855052
I0418 20:14:20.609671 17086 layer_factory.hpp:77] Creating layer conv4_3
I0418 20:14:20.609683 17086 net.cpp:84] Creating Layer conv4_3
I0418 20:14:20.609690 17086 net.cpp:406] conv4_3 <- conv4_2
I0418 20:14:20.609697 17086 net.cpp:380] conv4_3 -> conv4_3
I0418 20:14:20.617630 17086 net.cpp:122] Setting up conv4_3
I0418 20:14:20.617646 17086 net.cpp:129] Top shape: 1 512 89 64 (2916352)
I0418 20:14:20.617650 17086 net.cpp:137] Memory required for data: 820520460
I0418 20:14:20.617657 17086 layer_factory.hpp:77] Creating layer relu4_3
I0418 20:14:20.617663 17086 net.cpp:84] Creating Layer relu4_3
I0418 20:14:20.617667 17086 net.cpp:406] relu4_3 <- conv4_3
I0418 20:14:20.617676 17086 net.cpp:367] relu4_3 -> conv4_3 (in-place)
I0418 20:14:20.617835 17086 net.cpp:122] Setting up relu4_3
I0418 20:14:20.617844 17086 net.cpp:129] Top shape: 1 512 89 64 (2916352)
I0418 20:14:20.617847 17086 net.cpp:137] Memory required for data: 832185868
I0418 20:14:20.617851 17086 layer_factory.hpp:77] Creating layer pool4
I0418 20:14:20.617858 17086 net.cpp:84] Creating Layer pool4
I0418 20:14:20.617861 17086 net.cpp:406] pool4 <- conv4_3
I0418 20:14:20.617869 17086 net.cpp:380] pool4 -> pool4
I0418 20:14:20.617935 17086 net.cpp:122] Setting up pool4
I0418 20:14:20.617943 17086 net.cpp:129] Top shape: 1 512 45 32 (737280)
I0418 20:14:20.617945 17086 net.cpp:137] Memory required for data: 835134988
I0418 20:14:20.617949 17086 layer_factory.hpp:77] Creating layer pool4_pool4_0_split
I0418 20:14:20.617956 17086 net.cpp:84] Creating Layer pool4_pool4_0_split
I0418 20:14:20.617959 17086 net.cpp:406] pool4_pool4_0_split <- pool4
I0418 20:14:20.617964 17086 net.cpp:380] pool4_pool4_0_split -> pool4_pool4_0_split_0
I0418 20:14:20.617969 17086 net.cpp:380] pool4_pool4_0_split -> pool4_pool4_0_split_1
I0418 20:14:20.618007 17086 net.cpp:122] Setting up pool4_pool4_0_split
I0418 20:14:20.618022 17086 net.cpp:129] Top shape: 1 512 45 32 (737280)
I0418 20:14:20.618026 17086 net.cpp:129] Top shape: 1 512 45 32 (737280)
I0418 20:14:20.618028 17086 net.cpp:137] Memory required for data: 841033228
I0418 20:14:20.618031 17086 layer_factory.hpp:77] Creating layer conv5_1
I0418 20:14:20.618041 17086 net.cpp:84] Creating Layer conv5_1
I0418 20:14:20.618044 17086 net.cpp:406] conv5_1 <- pool4_pool4_0_split_0
I0418 20:14:20.618052 17086 net.cpp:380] conv5_1 -> conv5_1
I0418 20:14:20.630589 17086 net.cpp:122] Setting up conv5_1
I0418 20:14:20.630606 17086 net.cpp:129] Top shape: 1 512 45 32 (737280)
I0418 20:14:20.630609 17086 net.cpp:137] Memory required for data: 843982348
I0418 20:14:20.630616 17086 layer_factory.hpp:77] Creating layer relu5_1
I0418 20:14:20.630622 17086 net.cpp:84] Creating Layer relu5_1
I0418 20:14:20.630626 17086 net.cpp:406] relu5_1 <- conv5_1
I0418 20:14:20.630633 17086 net.cpp:367] relu5_1 -> conv5_1 (in-place)
I0418 20:14:20.631139 17086 net.cpp:122] Setting up relu5_1
I0418 20:14:20.631152 17086 net.cpp:129] Top shape: 1 512 45 32 (737280)
I0418 20:14:20.631155 17086 net.cpp:137] Memory required for data: 846931468
I0418 20:14:20.631158 17086 layer_factory.hpp:77] Creating layer conv5_2
I0418 20:14:20.631168 17086 net.cpp:84] Creating Layer conv5_2
I0418 20:14:20.631172 17086 net.cpp:406] conv5_2 <- conv5_1
I0418 20:14:20.631180 17086 net.cpp:380] conv5_2 -> conv5_2
I0418 20:14:20.637818 17086 net.cpp:122] Setting up conv5_2
I0418 20:14:20.637851 17086 net.cpp:129] Top shape: 1 512 45 32 (737280)
I0418 20:14:20.637856 17086 net.cpp:137] Memory required for data: 849880588
I0418 20:14:20.637862 17086 layer_factory.hpp:77] Creating layer relu5_2
I0418 20:14:20.637879 17086 net.cpp:84] Creating Layer relu5_2
I0418 20:14:20.637884 17086 net.cpp:406] relu5_2 <- conv5_2
I0418 20:14:20.637889 17086 net.cpp:367] relu5_2 -> conv5_2 (in-place)
I0418 20:14:20.638442 17086 net.cpp:122] Setting up relu5_2
I0418 20:14:20.638454 17086 net.cpp:129] Top shape: 1 512 45 32 (737280)
I0418 20:14:20.638458 17086 net.cpp:137] Memory required for data: 852829708
I0418 20:14:20.638461 17086 layer_factory.hpp:77] Creating layer conv5_3
I0418 20:14:20.638471 17086 net.cpp:84] Creating Layer conv5_3
I0418 20:14:20.638474 17086 net.cpp:406] conv5_3 <- conv5_2
I0418 20:14:20.638483 17086 net.cpp:380] conv5_3 -> conv5_3
I0418 20:14:20.645347 17086 net.cpp:122] Setting up conv5_3
I0418 20:14:20.645364 17086 net.cpp:129] Top shape: 1 512 45 32 (737280)
I0418 20:14:20.645367 17086 net.cpp:137] Memory required for data: 855778828
I0418 20:14:20.645375 17086 layer_factory.hpp:77] Creating layer relu5_3
I0418 20:14:20.645382 17086 net.cpp:84] Creating Layer relu5_3
I0418 20:14:20.645386 17086 net.cpp:406] relu5_3 <- conv5_3
I0418 20:14:20.645391 17086 net.cpp:367] relu5_3 -> conv5_3 (in-place)
I0418 20:14:20.645563 17086 net.cpp:122] Setting up relu5_3
I0418 20:14:20.645573 17086 net.cpp:129] Top shape: 1 512 45 32 (737280)
I0418 20:14:20.645576 17086 net.cpp:137] Memory required for data: 858727948
I0418 20:14:20.645579 17086 layer_factory.hpp:77] Creating layer pool5
I0418 20:14:20.645588 17086 net.cpp:84] Creating Layer pool5
I0418 20:14:20.645601 17086 net.cpp:406] pool5 <- conv5_3
I0418 20:14:20.645606 17086 net.cpp:380] pool5 -> pool5
I0418 20:14:20.645648 17086 net.cpp:122] Setting up pool5
I0418 20:14:20.645654 17086 net.cpp:129] Top shape: 1 512 23 16 (188416)
I0418 20:14:20.645658 17086 net.cpp:137] Memory required for data: 859481612
I0418 20:14:20.645660 17086 layer_factory.hpp:77] Creating layer fc6
I0418 20:14:20.645669 17086 net.cpp:84] Creating Layer fc6
I0418 20:14:20.645673 17086 net.cpp:406] fc6 <- pool5
I0418 20:14:20.645678 17086 net.cpp:380] fc6 -> fc6
I0418 20:14:20.916422 17086 net.cpp:122] Setting up fc6
I0418 20:14:20.916455 17086 net.cpp:129] Top shape: 1 4096 17 10 (696320)
I0418 20:14:20.916460 17086 net.cpp:137] Memory required for data: 862266892
I0418 20:14:20.916471 17086 layer_factory.hpp:77] Creating layer relu6
I0418 20:14:20.916497 17086 net.cpp:84] Creating Layer relu6
I0418 20:14:20.916502 17086 net.cpp:406] relu6 <- fc6
I0418 20:14:20.916509 17086 net.cpp:367] relu6 -> fc6 (in-place)
I0418 20:14:20.916764 17086 net.cpp:122] Setting up relu6
I0418 20:14:20.916777 17086 net.cpp:129] Top shape: 1 4096 17 10 (696320)
I0418 20:14:20.916796 17086 net.cpp:137] Memory required for data: 865052172
I0418 20:14:20.916800 17086 layer_factory.hpp:77] Creating layer drop6
I0418 20:14:20.916811 17086 net.cpp:84] Creating Layer drop6
I0418 20:14:20.916815 17086 net.cpp:406] drop6 <- fc6
I0418 20:14:20.916821 17086 net.cpp:367] drop6 -> fc6 (in-place)
I0418 20:14:20.916851 17086 net.cpp:122] Setting up drop6
I0418 20:14:20.916859 17086 net.cpp:129] Top shape: 1 4096 17 10 (696320)
I0418 20:14:20.916862 17086 net.cpp:137] Memory required for data: 867837452
I0418 20:14:20.916865 17086 layer_factory.hpp:77] Creating layer fc7
I0418 20:14:20.916877 17086 net.cpp:84] Creating Layer fc7
I0418 20:14:20.916882 17086 net.cpp:406] fc7 <- fc6
I0418 20:14:20.916889 17086 net.cpp:380] fc7 -> fc7
I0418 20:14:20.960758 17086 net.cpp:122] Setting up fc7
I0418 20:14:20.960790 17086 net.cpp:129] Top shape: 1 4096 17 10 (696320)
I0418 20:14:20.960796 17086 net.cpp:137] Memory required for data: 870622732
I0418 20:14:20.960805 17086 layer_factory.hpp:77] Creating layer relu7
I0418 20:14:20.960817 17086 net.cpp:84] Creating Layer relu7
I0418 20:14:20.960821 17086 net.cpp:406] relu7 <- fc7
I0418 20:14:20.960830 17086 net.cpp:367] relu7 -> fc7 (in-place)
I0418 20:14:20.961042 17086 net.cpp:122] Setting up relu7
I0418 20:14:20.961055 17086 net.cpp:129] Top shape: 1 4096 17 10 (696320)
I0418 20:14:20.961058 17086 net.cpp:137] Memory required for data: 873408012
I0418 20:14:20.961061 17086 layer_factory.hpp:77] Creating layer drop7
I0418 20:14:20.961068 17086 net.cpp:84] Creating Layer drop7
I0418 20:14:20.961072 17086 net.cpp:406] drop7 <- fc7
I0418 20:14:20.961076 17086 net.cpp:367] drop7 -> fc7 (in-place)
I0418 20:14:20.961109 17086 net.cpp:122] Setting up drop7
I0418 20:14:20.961114 17086 net.cpp:129] Top shape: 1 4096 17 10 (696320)
I0418 20:14:20.961117 17086 net.cpp:137] Memory required for data: 876193292
I0418 20:14:20.961120 17086 layer_factory.hpp:77] Creating layer score_fr-new
I0418 20:14:20.961130 17086 net.cpp:84] Creating Layer score_fr-new
I0418 20:14:20.961134 17086 net.cpp:406] score_fr-new <- fc7
I0418 20:14:20.961141 17086 net.cpp:380] score_fr-new -> score_fr-new
I0418 20:14:20.962997 17086 net.cpp:122] Setting up score_fr-new
I0418 20:14:20.963011 17086 net.cpp:129] Top shape: 1 3 17 10 (510)
I0418 20:14:20.963014 17086 net.cpp:137] Memory required for data: 876195332
I0418 20:14:20.963023 17086 layer_factory.hpp:77] Creating layer upscore2-new
I0418 20:14:20.963038 17086 net.cpp:84] Creating Layer upscore2-new
I0418 20:14:20.963042 17086 net.cpp:406] upscore2-new <- score_fr-new
I0418 20:14:20.963048 17086 net.cpp:380] upscore2-new -> upscore2-new
I0418 20:14:20.963279 17086 net.cpp:122] Setting up upscore2-new
I0418 20:14:20.963289 17086 net.cpp:129] Top shape: 1 3 36 22 (2376)
I0418 20:14:20.963291 17086 net.cpp:137] Memory required for data: 876204836
I0418 20:14:20.963306 17086 layer_factory.hpp:77] Creating layer upscore2-new_upscore2-new_0_split
I0418 20:14:20.963312 17086 net.cpp:84] Creating Layer upscore2-new_upscore2-new_0_split
I0418 20:14:20.963315 17086 net.cpp:406] upscore2-new_upscore2-new_0_split <- upscore2-new
I0418 20:14:20.963321 17086 net.cpp:380] upscore2-new_upscore2-new_0_split -> upscore2-new_upscore2-new_0_split_0
I0418 20:14:20.963327 17086 net.cpp:380] upscore2-new_upscore2-new_0_split -> upscore2-new_upscore2-new_0_split_1
I0418 20:14:20.963364 17086 net.cpp:122] Setting up upscore2-new_upscore2-new_0_split
I0418 20:14:20.963372 17086 net.cpp:129] Top shape: 1 3 36 22 (2376)
I0418 20:14:20.963376 17086 net.cpp:129] Top shape: 1 3 36 22 (2376)
I0418 20:14:20.963379 17086 net.cpp:137] Memory required for data: 876223844
I0418 20:14:20.963382 17086 layer_factory.hpp:77] Creating layer score_pool4-new
I0418 20:14:20.963390 17086 net.cpp:84] Creating Layer score_pool4-new
I0418 20:14:20.963394 17086 net.cpp:406] score_pool4-new <- pool4_pool4_0_split_1
I0418 20:14:20.963399 17086 net.cpp:380] score_pool4-new -> score_pool4-new
I0418 20:14:20.964550 17086 net.cpp:122] Setting up score_pool4-new
I0418 20:14:20.964563 17086 net.cpp:129] Top shape: 1 3 45 32 (4320)
I0418 20:14:20.964566 17086 net.cpp:137] Memory required for data: 876241124
I0418 20:14:20.964572 17086 layer_factory.hpp:77] Creating layer score_pool4c
I0418 20:14:20.964583 17086 net.cpp:84] Creating Layer score_pool4c
I0418 20:14:20.964587 17086 net.cpp:406] score_pool4c <- score_pool4-new
I0418 20:14:20.964591 17086 net.cpp:406] score_pool4c <- upscore2-new_upscore2-new_0_split_0
I0418 20:14:20.964596 17086 net.cpp:380] score_pool4c -> score_pool4c
I0418 20:14:20.964645 17086 net.cpp:122] Setting up score_pool4c
I0418 20:14:20.964650 17086 net.cpp:129] Top shape: 1 3 36 22 (2376)
I0418 20:14:20.964653 17086 net.cpp:137] Memory required for data: 876250628
I0418 20:14:20.964655 17086 layer_factory.hpp:77] Creating layer fuse_pool4
I0418 20:14:20.964663 17086 net.cpp:84] Creating Layer fuse_pool4
I0418 20:14:20.964666 17086 net.cpp:406] fuse_pool4 <- upscore2-new_upscore2-new_0_split_1
I0418 20:14:20.964670 17086 net.cpp:406] fuse_pool4 <- score_pool4c
I0418 20:14:20.964678 17086 net.cpp:380] fuse_pool4 -> fuse_pool4
I0418 20:14:20.964702 17086 net.cpp:122] Setting up fuse_pool4
I0418 20:14:20.964709 17086 net.cpp:129] Top shape: 1 3 36 22 (2376)
I0418 20:14:20.964712 17086 net.cpp:137] Memory required for data: 876260132
I0418 20:14:20.964715 17086 layer_factory.hpp:77] Creating layer upscore_pool4-new
I0418 20:14:20.964721 17086 net.cpp:84] Creating Layer upscore_pool4-new
I0418 20:14:20.964725 17086 net.cpp:406] upscore_pool4-new <- fuse_pool4
I0418 20:14:20.964731 17086 net.cpp:380] upscore_pool4-new -> upscore_pool4-new
I0418 20:14:20.964933 17086 net.cpp:122] Setting up upscore_pool4-new
I0418 20:14:20.964942 17086 net.cpp:129] Top shape: 1 3 74 46 (10212)
I0418 20:14:20.964946 17086 net.cpp:137] Memory required for data: 876300980
I0418 20:14:20.964949 17086 layer_factory.hpp:77] Creating layer upscore_pool4-new_upscore_pool4-new_0_split
I0418 20:14:20.964956 17086 net.cpp:84] Creating Layer upscore_pool4-new_upscore_pool4-new_0_split
I0418 20:14:20.964958 17086 net.cpp:406] upscore_pool4-new_upscore_pool4-new_0_split <- upscore_pool4-new
I0418 20:14:20.964963 17086 net.cpp:380] upscore_pool4-new_upscore_pool4-new_0_split -> upscore_pool4-new_upscore_pool4-new_0_split_0
I0418 20:14:20.964969 17086 net.cpp:380] upscore_pool4-new_upscore_pool4-new_0_split -> upscore_pool4-new_upscore_pool4-new_0_split_1
I0418 20:14:20.965004 17086 net.cpp:122] Setting up upscore_pool4-new_upscore_pool4-new_0_split
I0418 20:14:20.965011 17086 net.cpp:129] Top shape: 1 3 74 46 (10212)
I0418 20:14:20.965015 17086 net.cpp:129] Top shape: 1 3 74 46 (10212)
I0418 20:14:20.965018 17086 net.cpp:137] Memory required for data: 876382676
I0418 20:14:20.965021 17086 layer_factory.hpp:77] Creating layer score_pool3-new
I0418 20:14:20.965029 17086 net.cpp:84] Creating Layer score_pool3-new
I0418 20:14:20.965031 17086 net.cpp:406] score_pool3-new <- pool3_pool3_0_split_1
I0418 20:14:20.965039 17086 net.cpp:380] score_pool3-new -> score_pool3-new
I0418 20:14:20.966238 17086 net.cpp:122] Setting up score_pool3-new
I0418 20:14:20.966251 17086 net.cpp:129] Top shape: 1 3 89 64 (17088)
I0418 20:14:20.966254 17086 net.cpp:137] Memory required for data: 876451028
I0418 20:14:20.966260 17086 layer_factory.hpp:77] Creating layer score_pool3c
I0418 20:14:20.966274 17086 net.cpp:84] Creating Layer score_pool3c
I0418 20:14:20.966279 17086 net.cpp:406] score_pool3c <- score_pool3-new
I0418 20:14:20.966282 17086 net.cpp:406] score_pool3c <- upscore_pool4-new_upscore_pool4-new_0_split_0
I0418 20:14:20.966287 17086 net.cpp:380] score_pool3c -> score_pool3c
I0418 20:14:20.966331 17086 net.cpp:122] Setting up score_pool3c
I0418 20:14:20.966336 17086 net.cpp:129] Top shape: 1 3 74 46 (10212)
I0418 20:14:20.966339 17086 net.cpp:137] Memory required for data: 876491876
I0418 20:14:20.966342 17086 layer_factory.hpp:77] Creating layer fuse_pool3
I0418 20:14:20.966349 17086 net.cpp:84] Creating Layer fuse_pool3
I0418 20:14:20.966352 17086 net.cpp:406] fuse_pool3 <- upscore_pool4-new_upscore_pool4-new_0_split_1
I0418 20:14:20.966357 17086 net.cpp:406] fuse_pool3 <- score_pool3c
I0418 20:14:20.966361 17086 net.cpp:380] fuse_pool3 -> fuse_pool3
I0418 20:14:20.966385 17086 net.cpp:122] Setting up fuse_pool3
I0418 20:14:20.966390 17086 net.cpp:129] Top shape: 1 3 74 46 (10212)
I0418 20:14:20.966392 17086 net.cpp:137] Memory required for data: 876532724
I0418 20:14:20.966395 17086 layer_factory.hpp:77] Creating layer upscore8-new
I0418 20:14:20.966403 17086 net.cpp:84] Creating Layer upscore8-new
I0418 20:14:20.966406 17086 net.cpp:406] upscore8-new <- fuse_pool3
I0418 20:14:20.966411 17086 net.cpp:380] upscore8-new -> upscore8-new
I0418 20:14:20.966619 17086 net.cpp:122] Setting up upscore8-new
I0418 20:14:20.966627 17086 net.cpp:129] Top shape: 1 3 600 376 (676800)
I0418 20:14:20.966630 17086 net.cpp:137] Memory required for data: 879239924
I0418 20:14:20.966635 17086 layer_factory.hpp:77] Creating layer upscore8_cropped
I0418 20:14:20.966640 17086 net.cpp:84] Creating Layer upscore8_cropped
I0418 20:14:20.966645 17086 net.cpp:406] upscore8_cropped <- upscore8-new
I0418 20:14:20.966648 17086 net.cpp:406] upscore8_cropped <- data_data_0_split_1
I0418 20:14:20.966653 17086 net.cpp:380] upscore8_cropped -> upscore8_cropped
I0418 20:14:20.966678 17086 net.cpp:122] Setting up upscore8_cropped
I0418 20:14:20.966682 17086 net.cpp:129] Top shape: 1 3 512 310 (476160)
I0418 20:14:20.966686 17086 net.cpp:137] Memory required for data: 881144564
I0418 20:14:20.966688 17086 layer_factory.hpp:77] Creating layer score
I0418 20:14:20.966697 17086 net.cpp:84] Creating Layer score
I0418 20:14:20.966701 17086 net.cpp:406] score <- upscore8_cropped
I0418 20:14:20.966708 17086 net.cpp:380] score -> score
I0418 20:14:20.968708 17086 net.cpp:122] Setting up score
I0418 20:14:20.968721 17086 net.cpp:129] Top shape: 1 3 512 310 (476160)
I0418 20:14:20.968724 17086 net.cpp:137] Memory required for data: 883049204
I0418 20:14:20.968730 17086 layer_factory.hpp:77] Creating layer score_score_0_split
I0418 20:14:20.968739 17086 net.cpp:84] Creating Layer score_score_0_split
I0418 20:14:20.968742 17086 net.cpp:406] score_score_0_split <- score
I0418 20:14:20.968747 17086 net.cpp:380] score_score_0_split -> score_score_0_split_0
I0418 20:14:20.968753 17086 net.cpp:380] score_score_0_split -> score_score_0_split_1
I0418 20:14:20.968814 17086 net.cpp:122] Setting up score_score_0_split
I0418 20:14:20.968821 17086 net.cpp:129] Top shape: 1 3 512 310 (476160)
I0418 20:14:20.968824 17086 net.cpp:129] Top shape: 1 3 512 310 (476160)
I0418 20:14:20.968827 17086 net.cpp:137] Memory required for data: 886858484
I0418 20:14:20.968830 17086 layer_factory.hpp:77] Creating layer prob
I0418 20:14:20.968835 17086 net.cpp:84] Creating Layer prob
I0418 20:14:20.968838 17086 net.cpp:406] prob <- score_score_0_split_0
I0418 20:14:20.968844 17086 net.cpp:380] prob -> prob
I0418 20:14:20.969076 17086 net.cpp:122] Setting up prob
I0418 20:14:20.969087 17086 net.cpp:129] Top shape: 1 3 512 310 (476160)
I0418 20:14:20.969090 17086 net.cpp:137] Memory required for data: 888763124
I0418 20:14:20.969094 17086 layer_factory.hpp:77] Creating layer saliency
I0418 20:14:20.969105 17086 net.cpp:84] Creating Layer saliency
I0418 20:14:20.969110 17086 net.cpp:406] saliency <- prob
I0418 20:14:20.969117 17086 net.cpp:380] saliency -> saliency
I0418 20:14:20.973093 17086 net.cpp:122] Setting up saliency
I0418 20:14:20.973145 17086 net.cpp:129] Top shape: 1 3 512 310 (476160)
I0418 20:14:20.973155 17086 net.cpp:137] Memory required for data: 890667764
I0418 20:14:20.973191 17086 layer_factory.hpp:77] Creating layer silence_saliency
I0418 20:14:20.973217 17086 net.cpp:84] Creating Layer silence_saliency
I0418 20:14:20.973232 17086 net.cpp:406] silence_saliency <- saliency
I0418 20:14:20.973251 17086 net.cpp:122] Setting up silence_saliency
I0418 20:14:20.973259 17086 net.cpp:137] Memory required for data: 890667764
I0418 20:14:20.973266 17086 layer_factory.hpp:77] Creating layer crop
I0418 20:14:20.973981 17086 net.cpp:84] Creating Layer crop
I0418 20:14:20.974002 17086 net.cpp:406] crop <- label_data_1_split_0
I0418 20:14:20.974020 17086 net.cpp:406] crop <- data_data_0_split_2
I0418 20:14:20.974031 17086 net.cpp:406] crop <- crop_margin
I0418 20:14:20.974040 17086 net.cpp:406] crop <- crop_prob
I0418 20:14:20.974056 17086 net.cpp:406] crop <- crop_sample_batch
I0418 20:14:20.974068 17086 net.cpp:380] crop -> data-R
I0418 20:14:20.974086 17086 net.cpp:380] crop -> crop_info
I0418 20:14:20.980772 17086 net.cpp:122] Setting up crop
I0418 20:14:20.980804 17086 net.cpp:129] Top shape: 1 3 512 310 (476160)
I0418 20:14:20.980810 17086 net.cpp:129] Top shape: 1 2 4 (8)
I0418 20:14:20.980813 17086 net.cpp:137] Memory required for data: 892572436
I0418 20:14:20.980818 17086 layer_factory.hpp:77] Creating layer data-R_crop_0_split
I0418 20:14:20.980825 17086 net.cpp:84] Creating Layer data-R_crop_0_split
I0418 20:14:20.980847 17086 net.cpp:406] data-R_crop_0_split <- data-R
I0418 20:14:20.980854 17086 net.cpp:380] data-R_crop_0_split -> data-R_crop_0_split_0
I0418 20:14:20.980860 17086 net.cpp:380] data-R_crop_0_split -> data-R_crop_0_split_1
I0418 20:14:20.980901 17086 net.cpp:122] Setting up data-R_crop_0_split
I0418 20:14:20.980908 17086 net.cpp:129] Top shape: 1 3 512 310 (476160)
I0418 20:14:20.980912 17086 net.cpp:129] Top shape: 1 3 512 310 (476160)
I0418 20:14:20.980916 17086 net.cpp:137] Memory required for data: 896381716
I0418 20:14:20.980919 17086 layer_factory.hpp:77] Creating layer conv1_1-R
I0418 20:14:20.980931 17086 net.cpp:84] Creating Layer conv1_1-R
I0418 20:14:20.980935 17086 net.cpp:406] conv1_1-R <- data-R_crop_0_split_0
I0418 20:14:20.980940 17086 net.cpp:380] conv1_1-R -> conv1_1-R
I0418 20:14:20.983954 17086 net.cpp:122] Setting up conv1_1-R
I0418 20:14:20.983968 17086 net.cpp:129] Top shape: 1 64 710 508 (23083520)
I0418 20:14:20.983973 17086 net.cpp:137] Memory required for data: 988715796
I0418 20:14:20.983997 17086 layer_factory.hpp:77] Creating layer relu1_1-R
I0418 20:14:20.984005 17086 net.cpp:84] Creating Layer relu1_1-R
I0418 20:14:20.984014 17086 net.cpp:406] relu1_1-R <- conv1_1-R
I0418 20:14:20.984019 17086 net.cpp:367] relu1_1-R -> conv1_1-R (in-place)
I0418 20:14:20.984207 17086 net.cpp:122] Setting up relu1_1-R
I0418 20:14:20.984217 17086 net.cpp:129] Top shape: 1 64 710 508 (23083520)
I0418 20:14:20.984221 17086 net.cpp:137] Memory required for data: 1081049876
I0418 20:14:20.984225 17086 layer_factory.hpp:77] Creating layer conv1_2-R
I0418 20:14:20.984246 17086 net.cpp:84] Creating Layer conv1_2-R
I0418 20:14:20.984251 17086 net.cpp:406] conv1_2-R <- conv1_1-R
I0418 20:14:20.984257 17086 net.cpp:380] conv1_2-R -> conv1_2-R
I0418 20:14:20.991633 17086 net.cpp:122] Setting up conv1_2-R
I0418 20:14:20.991704 17086 net.cpp:129] Top shape: 1 64 710 508 (23083520)
I0418 20:14:20.991710 17086 net.cpp:137] Memory required for data: 1173383956
I0418 20:14:20.991777 17086 layer_factory.hpp:77] Creating layer relu1_2-R
I0418 20:14:20.991801 17086 net.cpp:84] Creating Layer relu1_2-R
I0418 20:14:20.991839 17086 net.cpp:406] relu1_2-R <- conv1_2-R
I0418 20:14:20.991861 17086 net.cpp:367] relu1_2-R -> conv1_2-R (in-place)
I0418 20:14:20.993367 17086 net.cpp:122] Setting up relu1_2-R
I0418 20:14:20.993379 17086 net.cpp:129] Top shape: 1 64 710 508 (23083520)
I0418 20:14:20.993399 17086 net.cpp:137] Memory required for data: 1265718036
I0418 20:14:20.993403 17086 layer_factory.hpp:77] Creating layer pool1-R
I0418 20:14:20.993438 17086 net.cpp:84] Creating Layer pool1-R
I0418 20:14:20.993443 17086 net.cpp:406] pool1-R <- conv1_2-R
I0418 20:14:20.993458 17086 net.cpp:380] pool1-R -> pool1-R
I0418 20:14:20.993751 17086 net.cpp:122] Setting up pool1-R
I0418 20:14:20.993762 17086 net.cpp:129] Top shape: 1 64 355 254 (5770880)
I0418 20:14:20.993765 17086 net.cpp:137] Memory required for data: 1288801556
I0418 20:14:20.993773 17086 layer_factory.hpp:77] Creating layer conv2_1-R
I0418 20:14:20.993793 17086 net.cpp:84] Creating Layer conv2_1-R
I0418 20:14:20.993798 17086 net.cpp:406] conv2_1-R <- pool1-R
I0418 20:14:20.993805 17086 net.cpp:380] conv2_1-R -> conv2_1-R
I0418 20:14:20.995759 17086 net.cpp:122] Setting up conv2_1-R
I0418 20:14:20.995771 17086 net.cpp:129] Top shape: 1 128 355 254 (11541760)
I0418 20:14:20.995792 17086 net.cpp:137] Memory required for data: 1334968596
I0418 20:14:20.995800 17086 layer_factory.hpp:77] Creating layer relu2_1-R
I0418 20:14:20.995807 17086 net.cpp:84] Creating Layer relu2_1-R
I0418 20:14:20.995811 17086 net.cpp:406] relu2_1-R <- conv2_1-R
I0418 20:14:20.995836 17086 net.cpp:367] relu2_1-R -> conv2_1-R (in-place)
I0418 20:14:20.996027 17086 net.cpp:122] Setting up relu2_1-R
I0418 20:14:20.996038 17086 net.cpp:129] Top shape: 1 128 355 254 (11541760)
I0418 20:14:20.996042 17086 net.cpp:137] Memory required for data: 1381135636
I0418 20:14:20.996045 17086 layer_factory.hpp:77] Creating layer conv2_2-R
I0418 20:14:20.996062 17086 net.cpp:84] Creating Layer conv2_2-R
I0418 20:14:20.996065 17086 net.cpp:406] conv2_2-R <- conv2_1-R
I0418 20:14:20.996088 17086 net.cpp:380] conv2_2-R -> conv2_2-R
I0418 20:14:20.999541 17086 net.cpp:122] Setting up conv2_2-R
I0418 20:14:20.999578 17086 net.cpp:129] Top shape: 1 128 355 254 (11541760)
I0418 20:14:20.999588 17086 net.cpp:137] Memory required for data: 1427302676
I0418 20:14:20.999604 17086 layer_factory.hpp:77] Creating layer relu2_2-R
I0418 20:14:20.999621 17086 net.cpp:84] Creating Layer relu2_2-R
I0418 20:14:20.999631 17086 net.cpp:406] relu2_2-R <- conv2_2-R
I0418 20:14:20.999644 17086 net.cpp:367] relu2_2-R -> conv2_2-R (in-place)
I0418 20:14:21.000593 17086 net.cpp:122] Setting up relu2_2-R
I0418 20:14:21.000612 17086 net.cpp:129] Top shape: 1 128 355 254 (11541760)
I0418 20:14:21.000617 17086 net.cpp:137] Memory required for data: 1473469716
I0418 20:14:21.000627 17086 layer_factory.hpp:77] Creating layer pool2-R
I0418 20:14:21.000636 17086 net.cpp:84] Creating Layer pool2-R
I0418 20:14:21.000641 17086 net.cpp:406] pool2-R <- conv2_2-R
I0418 20:14:21.000653 17086 net.cpp:380] pool2-R -> pool2-R
I0418 20:14:21.000749 17086 net.cpp:122] Setting up pool2-R
I0418 20:14:21.000767 17086 net.cpp:129] Top shape: 1 128 178 127 (2893568)
I0418 20:14:21.000771 17086 net.cpp:137] Memory required for data: 1485043988
I0418 20:14:21.000777 17086 layer_factory.hpp:77] Creating layer conv3_1-R
I0418 20:14:21.000787 17086 net.cpp:84] Creating Layer conv3_1-R
I0418 20:14:21.000797 17086 net.cpp:406] conv3_1-R <- pool2-R
I0418 20:14:21.000815 17086 net.cpp:380] conv3_1-R -> conv3_1-R
I0418 20:14:21.006233 17086 net.cpp:122] Setting up conv3_1-R
I0418 20:14:21.006263 17086 net.cpp:129] Top shape: 1 256 178 127 (5787136)
I0418 20:14:21.006271 17086 net.cpp:137] Memory required for data: 1508192532
I0418 20:14:21.006287 17086 layer_factory.hpp:77] Creating layer relu3_1-R
I0418 20:14:21.006311 17086 net.cpp:84] Creating Layer relu3_1-R
I0418 20:14:21.006325 17086 net.cpp:406] relu3_1-R <- conv3_1-R
I0418 20:14:21.006341 17086 net.cpp:367] relu3_1-R -> conv3_1-R (in-place)
I0418 20:14:21.006794 17086 net.cpp:122] Setting up relu3_1-R
I0418 20:14:21.006815 17086 net.cpp:129] Top shape: 1 256 178 127 (5787136)
I0418 20:14:21.006824 17086 net.cpp:137] Memory required for data: 1531341076
I0418 20:14:21.006831 17086 layer_factory.hpp:77] Creating layer conv3_2-R
I0418 20:14:21.006857 17086 net.cpp:84] Creating Layer conv3_2-R
I0418 20:14:21.006870 17086 net.cpp:406] conv3_2-R <- conv3_1-R
I0418 20:14:21.006889 17086 net.cpp:380] conv3_2-R -> conv3_2-R
I0418 20:14:21.015009 17086 net.cpp:122] Setting up conv3_2-R
I0418 20:14:21.015031 17086 net.cpp:129] Top shape: 1 256 178 127 (5787136)
I0418 20:14:21.015038 17086 net.cpp:137] Memory required for data: 1554489620
I0418 20:14:21.015058 17086 layer_factory.hpp:77] Creating layer relu3_2-R
I0418 20:14:21.015074 17086 net.cpp:84] Creating Layer relu3_2-R
I0418 20:14:21.015082 17086 net.cpp:406] relu3_2-R <- conv3_2-R
I0418 20:14:21.015090 17086 net.cpp:367] relu3_2-R -> conv3_2-R (in-place)
I0418 20:14:21.015394 17086 net.cpp:122] Setting up relu3_2-R
I0418 20:14:21.015408 17086 net.cpp:129] Top shape: 1 256 178 127 (5787136)
I0418 20:14:21.015413 17086 net.cpp:137] Memory required for data: 1577638164
I0418 20:14:21.015417 17086 layer_factory.hpp:77] Creating layer conv3_3-R
I0418 20:14:21.015437 17086 net.cpp:84] Creating Layer conv3_3-R
I0418 20:14:21.015445 17086 net.cpp:406] conv3_3-R <- conv3_2-R
I0418 20:14:21.015453 17086 net.cpp:380] conv3_3-R -> conv3_3-R
I0418 20:14:21.020968 17086 net.cpp:122] Setting up conv3_3-R
I0418 20:14:21.020989 17086 net.cpp:129] Top shape: 1 256 178 127 (5787136)
I0418 20:14:21.020998 17086 net.cpp:137] Memory required for data: 1600786708
I0418 20:14:21.021014 17086 layer_factory.hpp:77] Creating layer relu3_3-R
I0418 20:14:21.021026 17086 net.cpp:84] Creating Layer relu3_3-R
I0418 20:14:21.021033 17086 net.cpp:406] relu3_3-R <- conv3_3-R
I0418 20:14:21.021045 17086 net.cpp:367] relu3_3-R -> conv3_3-R (in-place)
I0418 20:14:21.021359 17086 net.cpp:122] Setting up relu3_3-R
I0418 20:14:21.021373 17086 net.cpp:129] Top shape: 1 256 178 127 (5787136)
I0418 20:14:21.021378 17086 net.cpp:137] Memory required for data: 1623935252
I0418 20:14:21.021383 17086 layer_factory.hpp:77] Creating layer pool3-R
I0418 20:14:21.021406 17086 net.cpp:84] Creating Layer pool3-R
I0418 20:14:21.021414 17086 net.cpp:406] pool3-R <- conv3_3-R
I0418 20:14:21.021421 17086 net.cpp:380] pool3-R -> pool3-R
I0418 20:14:21.021508 17086 net.cpp:122] Setting up pool3-R
I0418 20:14:21.021518 17086 net.cpp:129] Top shape: 1 256 89 64 (1458176)
I0418 20:14:21.021523 17086 net.cpp:137] Memory required for data: 1629767956
I0418 20:14:21.021529 17086 layer_factory.hpp:77] Creating layer pool3-R_pool3-R_0_split
I0418 20:14:21.021538 17086 net.cpp:84] Creating Layer pool3-R_pool3-R_0_split
I0418 20:14:21.021545 17086 net.cpp:406] pool3-R_pool3-R_0_split <- pool3-R
I0418 20:14:21.021560 17086 net.cpp:380] pool3-R_pool3-R_0_split -> pool3-R_pool3-R_0_split_0
I0418 20:14:21.021570 17086 net.cpp:380] pool3-R_pool3-R_0_split -> pool3-R_pool3-R_0_split_1
I0418 20:14:21.021641 17086 net.cpp:122] Setting up pool3-R_pool3-R_0_split
I0418 20:14:21.021651 17086 net.cpp:129] Top shape: 1 256 89 64 (1458176)
I0418 20:14:21.021656 17086 net.cpp:129] Top shape: 1 256 89 64 (1458176)
I0418 20:14:21.021661 17086 net.cpp:137] Memory required for data: 1641433364
I0418 20:14:21.021667 17086 layer_factory.hpp:77] Creating layer conv4_1-R
I0418 20:14:21.021687 17086 net.cpp:84] Creating Layer conv4_1-R
I0418 20:14:21.021694 17086 net.cpp:406] conv4_1-R <- pool3-R_pool3-R_0_split_0
I0418 20:14:21.021705 17086 net.cpp:380] conv4_1-R -> conv4_1-R
I0418 20:14:21.027613 17086 net.cpp:122] Setting up conv4_1-R
I0418 20:14:21.027628 17086 net.cpp:129] Top shape: 1 512 89 64 (2916352)
I0418 20:14:21.027632 17086 net.cpp:137] Memory required for data: 1653098772
I0418 20:14:21.027642 17086 layer_factory.hpp:77] Creating layer relu4_1-R
I0418 20:14:21.027652 17086 net.cpp:84] Creating Layer relu4_1-R
I0418 20:14:21.027655 17086 net.cpp:406] relu4_1-R <- conv4_1-R
I0418 20:14:21.027660 17086 net.cpp:367] relu4_1-R -> conv4_1-R (in-place)
I0418 20:14:21.027875 17086 net.cpp:122] Setting up relu4_1-R
I0418 20:14:21.027885 17086 net.cpp:129] Top shape: 1 512 89 64 (2916352)
I0418 20:14:21.027889 17086 net.cpp:137] Memory required for data: 1664764180
I0418 20:14:21.027892 17086 layer_factory.hpp:77] Creating layer conv4_2-R
I0418 20:14:21.027901 17086 net.cpp:84] Creating Layer conv4_2-R
I0418 20:14:21.027905 17086 net.cpp:406] conv4_2-R <- conv4_1-R
I0418 20:14:21.027914 17086 net.cpp:380] conv4_2-R -> conv4_2-R
I0418 20:14:21.039957 17086 net.cpp:122] Setting up conv4_2-R
I0418 20:14:21.039974 17086 net.cpp:129] Top shape: 1 512 89 64 (2916352)
I0418 20:14:21.039978 17086 net.cpp:137] Memory required for data: 1676429588
I0418 20:14:21.039999 17086 layer_factory.hpp:77] Creating layer relu4_2-R
I0418 20:14:21.040007 17086 net.cpp:84] Creating Layer relu4_2-R
I0418 20:14:21.040012 17086 net.cpp:406] relu4_2-R <- conv4_2-R
I0418 20:14:21.040019 17086 net.cpp:367] relu4_2-R -> conv4_2-R (in-place)
I0418 20:14:21.040215 17086 net.cpp:122] Setting up relu4_2-R
I0418 20:14:21.040237 17086 net.cpp:129] Top shape: 1 512 89 64 (2916352)
I0418 20:14:21.040241 17086 net.cpp:137] Memory required for data: 1688094996
I0418 20:14:21.040244 17086 layer_factory.hpp:77] Creating layer conv4_3-R
I0418 20:14:21.040259 17086 net.cpp:84] Creating Layer conv4_3-R
I0418 20:14:21.040269 17086 net.cpp:406] conv4_3-R <- conv4_2-R
I0418 20:14:21.040277 17086 net.cpp:380] conv4_3-R -> conv4_3-R
I0418 20:14:21.050554 17086 net.cpp:122] Setting up conv4_3-R
I0418 20:14:21.050617 17086 net.cpp:129] Top shape: 1 512 89 64 (2916352)
I0418 20:14:21.050622 17086 net.cpp:137] Memory required for data: 1699760404
I0418 20:14:21.050634 17086 layer_factory.hpp:77] Creating layer relu4_3-R
I0418 20:14:21.050647 17086 net.cpp:84] Creating Layer relu4_3-R
I0418 20:14:21.050654 17086 net.cpp:406] relu4_3-R <- conv4_3-R
I0418 20:14:21.050679 17086 net.cpp:367] relu4_3-R -> conv4_3-R (in-place)
I0418 20:14:21.051462 17086 net.cpp:122] Setting up relu4_3-R
I0418 20:14:21.051494 17086 net.cpp:129] Top shape: 1 512 89 64 (2916352)
I0418 20:14:21.051501 17086 net.cpp:137] Memory required for data: 1711425812
I0418 20:14:21.051506 17086 layer_factory.hpp:77] Creating layer pool4-R
I0418 20:14:21.051514 17086 net.cpp:84] Creating Layer pool4-R
I0418 20:14:21.051535 17086 net.cpp:406] pool4-R <- conv4_3-R
I0418 20:14:21.051542 17086 net.cpp:380] pool4-R -> pool4-R
I0418 20:14:21.051596 17086 net.cpp:122] Setting up pool4-R
I0418 20:14:21.051604 17086 net.cpp:129] Top shape: 1 512 45 32 (737280)
I0418 20:14:21.051609 17086 net.cpp:137] Memory required for data: 1714374932
I0418 20:14:21.051625 17086 layer_factory.hpp:77] Creating layer pool4-R_pool4-R_0_split
I0418 20:14:21.051637 17086 net.cpp:84] Creating Layer pool4-R_pool4-R_0_split
I0418 20:14:21.051643 17086 net.cpp:406] pool4-R_pool4-R_0_split <- pool4-R
I0418 20:14:21.051650 17086 net.cpp:380] pool4-R_pool4-R_0_split -> pool4-R_pool4-R_0_split_0
I0418 20:14:21.051656 17086 net.cpp:380] pool4-R_pool4-R_0_split -> pool4-R_pool4-R_0_split_1
I0418 20:14:21.051695 17086 net.cpp:122] Setting up pool4-R_pool4-R_0_split
I0418 20:14:21.051702 17086 net.cpp:129] Top shape: 1 512 45 32 (737280)
I0418 20:14:21.051707 17086 net.cpp:129] Top shape: 1 512 45 32 (737280)
I0418 20:14:21.051710 17086 net.cpp:137] Memory required for data: 1720273172
I0418 20:14:21.051713 17086 layer_factory.hpp:77] Creating layer conv5_1-R
I0418 20:14:21.051723 17086 net.cpp:84] Creating Layer conv5_1-R
I0418 20:14:21.051728 17086 net.cpp:406] conv5_1-R <- pool4-R_pool4-R_0_split_0
I0418 20:14:21.051733 17086 net.cpp:380] conv5_1-R -> conv5_1-R
I0418 20:14:21.059715 17086 net.cpp:122] Setting up conv5_1-R
I0418 20:14:21.059751 17086 net.cpp:129] Top shape: 1 512 45 32 (737280)
I0418 20:14:21.059758 17086 net.cpp:137] Memory required for data: 1723222292
I0418 20:14:21.059854 17086 layer_factory.hpp:77] Creating layer relu5_1-R
I0418 20:14:21.059883 17086 net.cpp:84] Creating Layer relu5_1-R
I0418 20:14:21.059890 17086 net.cpp:406] relu5_1-R <- conv5_1-R
I0418 20:14:21.059906 17086 net.cpp:367] relu5_1-R -> conv5_1-R (in-place)
I0418 20:14:21.060317 17086 net.cpp:122] Setting up relu5_1-R
I0418 20:14:21.060331 17086 net.cpp:129] Top shape: 1 512 45 32 (737280)
I0418 20:14:21.060336 17086 net.cpp:137] Memory required for data: 1726171412
I0418 20:14:21.060343 17086 layer_factory.hpp:77] Creating layer conv5_2-R
I0418 20:14:21.060362 17086 net.cpp:84] Creating Layer conv5_2-R
I0418 20:14:21.060369 17086 net.cpp:406] conv5_2-R <- conv5_1-R
I0418 20:14:21.060391 17086 net.cpp:380] conv5_2-R -> conv5_2-R
I0418 20:14:21.073920 17086 net.cpp:122] Setting up conv5_2-R
I0418 20:14:21.073952 17086 net.cpp:129] Top shape: 1 512 45 32 (737280)
I0418 20:14:21.073961 17086 net.cpp:137] Memory required for data: 1729120532
I0418 20:14:21.073977 17086 layer_factory.hpp:77] Creating layer relu5_2-R
I0418 20:14:21.074012 17086 net.cpp:84] Creating Layer relu5_2-R
I0418 20:14:21.074028 17086 net.cpp:406] relu5_2-R <- conv5_2-R
I0418 20:14:21.074043 17086 net.cpp:367] relu5_2-R -> conv5_2-R (in-place)
I0418 20:14:21.074412 17086 net.cpp:122] Setting up relu5_2-R
I0418 20:14:21.074424 17086 net.cpp:129] Top shape: 1 512 45 32 (737280)
I0418 20:14:21.074426 17086 net.cpp:137] Memory required for data: 1732069652
I0418 20:14:21.074430 17086 layer_factory.hpp:77] Creating layer conv5_3-R
I0418 20:14:21.074453 17086 net.cpp:84] Creating Layer conv5_3-R
I0418 20:14:21.074462 17086 net.cpp:406] conv5_3-R <- conv5_2-R
I0418 20:14:21.074471 17086 net.cpp:380] conv5_3-R -> conv5_3-R
I0418 20:14:21.082159 17086 net.cpp:122] Setting up conv5_3-R
I0418 20:14:21.082206 17086 net.cpp:129] Top shape: 1 512 45 32 (737280)
I0418 20:14:21.082211 17086 net.cpp:137] Memory required for data: 1735018772
I0418 20:14:21.082229 17086 layer_factory.hpp:77] Creating layer relu5_3-R
I0418 20:14:21.082237 17086 net.cpp:84] Creating Layer relu5_3-R
I0418 20:14:21.082242 17086 net.cpp:406] relu5_3-R <- conv5_3-R
I0418 20:14:21.082247 17086 net.cpp:367] relu5_3-R -> conv5_3-R (in-place)
I0418 20:14:21.082468 17086 net.cpp:122] Setting up relu5_3-R
I0418 20:14:21.082479 17086 net.cpp:129] Top shape: 1 512 45 32 (737280)
I0418 20:14:21.082481 17086 net.cpp:137] Memory required for data: 1737967892
I0418 20:14:21.082484 17086 layer_factory.hpp:77] Creating layer pool5-R
I0418 20:14:21.082509 17086 net.cpp:84] Creating Layer pool5-R
I0418 20:14:21.082512 17086 net.cpp:406] pool5-R <- conv5_3-R
I0418 20:14:21.082531 17086 net.cpp:380] pool5-R -> pool5-R
I0418 20:14:21.082587 17086 net.cpp:122] Setting up pool5-R
I0418 20:14:21.082598 17086 net.cpp:129] Top shape: 1 512 23 16 (188416)
I0418 20:14:21.082605 17086 net.cpp:137] Memory required for data: 1738721556
I0418 20:14:21.082610 17086 layer_factory.hpp:77] Creating layer fc6-R
I0418 20:14:21.082618 17086 net.cpp:84] Creating Layer fc6-R
I0418 20:14:21.082623 17086 net.cpp:406] fc6-R <- pool5-R
I0418 20:14:21.082633 17086 net.cpp:380] fc6-R -> fc6-R
I0418 20:14:21.338776 17086 net.cpp:122] Setting up fc6-R
I0418 20:14:21.338809 17086 net.cpp:129] Top shape: 1 4096 17 10 (696320)
I0418 20:14:21.338819 17086 net.cpp:137] Memory required for data: 1741506836
I0418 20:14:21.338829 17086 layer_factory.hpp:77] Creating layer relu6-R
I0418 20:14:21.338841 17086 net.cpp:84] Creating Layer relu6-R
I0418 20:14:21.338847 17086 net.cpp:406] relu6-R <- fc6-R
I0418 20:14:21.338855 17086 net.cpp:367] relu6-R -> fc6-R (in-place)
I0418 20:14:21.339097 17086 net.cpp:122] Setting up relu6-R
I0418 20:14:21.339107 17086 net.cpp:129] Top shape: 1 4096 17 10 (696320)
I0418 20:14:21.339110 17086 net.cpp:137] Memory required for data: 1744292116
I0418 20:14:21.339113 17086 layer_factory.hpp:77] Creating layer drop6-R
I0418 20:14:21.339123 17086 net.cpp:84] Creating Layer drop6-R
I0418 20:14:21.339126 17086 net.cpp:406] drop6-R <- fc6-R
I0418 20:14:21.339135 17086 net.cpp:367] drop6-R -> fc6-R (in-place)
I0418 20:14:21.339190 17086 net.cpp:122] Setting up drop6-R
I0418 20:14:21.339198 17086 net.cpp:129] Top shape: 1 4096 17 10 (696320)
I0418 20:14:21.339201 17086 net.cpp:137] Memory required for data: 1747077396
I0418 20:14:21.339205 17086 layer_factory.hpp:77] Creating layer fc7-R
I0418 20:14:21.339220 17086 net.cpp:84] Creating Layer fc7-R
I0418 20:14:21.339224 17086 net.cpp:406] fc7-R <- fc6-R
I0418 20:14:21.339231 17086 net.cpp:380] fc7-R -> fc7-R
I0418 20:14:21.384132 17086 net.cpp:122] Setting up fc7-R
I0418 20:14:21.384165 17086 net.cpp:129] Top shape: 1 4096 17 10 (696320)
I0418 20:14:21.384169 17086 net.cpp:137] Memory required for data: 1749862676
I0418 20:14:21.384182 17086 layer_factory.hpp:77] Creating layer relu7-R
I0418 20:14:21.384197 17086 net.cpp:84] Creating Layer relu7-R
I0418 20:14:21.384203 17086 net.cpp:406] relu7-R <- fc7-R
I0418 20:14:21.384230 17086 net.cpp:367] relu7-R -> fc7-R (in-place)
I0418 20:14:21.384464 17086 net.cpp:122] Setting up relu7-R
I0418 20:14:21.384474 17086 net.cpp:129] Top shape: 1 4096 17 10 (696320)
I0418 20:14:21.384476 17086 net.cpp:137] Memory required for data: 1752647956
I0418 20:14:21.384480 17086 layer_factory.hpp:77] Creating layer drop7-R
I0418 20:14:21.384493 17086 net.cpp:84] Creating Layer drop7-R
I0418 20:14:21.384502 17086 net.cpp:406] drop7-R <- fc7-R
I0418 20:14:21.384507 17086 net.cpp:367] drop7-R -> fc7-R (in-place)
I0418 20:14:21.384548 17086 net.cpp:122] Setting up drop7-R
I0418 20:14:21.384557 17086 net.cpp:129] Top shape: 1 4096 17 10 (696320)
I0418 20:14:21.384559 17086 net.cpp:137] Memory required for data: 1755433236
I0418 20:14:21.384562 17086 layer_factory.hpp:77] Creating layer score_fr-new-R
I0418 20:14:21.384577 17086 net.cpp:84] Creating Layer score_fr-new-R
I0418 20:14:21.384582 17086 net.cpp:406] score_fr-new-R <- fc7-R
I0418 20:14:21.384588 17086 net.cpp:380] score_fr-new-R -> score_fr-new-R
I0418 20:14:21.386014 17086 net.cpp:122] Setting up score_fr-new-R
I0418 20:14:21.386029 17086 net.cpp:129] Top shape: 1 3 17 10 (510)
I0418 20:14:21.386031 17086 net.cpp:137] Memory required for data: 1755435276
I0418 20:14:21.386039 17086 layer_factory.hpp:77] Creating layer upscore2-new-R
I0418 20:14:21.386050 17086 net.cpp:84] Creating Layer upscore2-new-R
I0418 20:14:21.386054 17086 net.cpp:406] upscore2-new-R <- score_fr-new-R
I0418 20:14:21.386080 17086 net.cpp:380] upscore2-new-R -> upscore2-new-R
I0418 20:14:21.386378 17086 net.cpp:122] Setting up upscore2-new-R
I0418 20:14:21.386389 17086 net.cpp:129] Top shape: 1 3 36 22 (2376)
I0418 20:14:21.386407 17086 net.cpp:137] Memory required for data: 1755444780
I0418 20:14:21.386412 17086 layer_factory.hpp:77] Creating layer upscore2-new-R_upscore2-new-R_0_split
I0418 20:14:21.386418 17086 net.cpp:84] Creating Layer upscore2-new-R_upscore2-new-R_0_split
I0418 20:14:21.386422 17086 net.cpp:406] upscore2-new-R_upscore2-new-R_0_split <- upscore2-new-R
I0418 20:14:21.386432 17086 net.cpp:380] upscore2-new-R_upscore2-new-R_0_split -> upscore2-new-R_upscore2-new-R_0_split_0
I0418 20:14:21.386440 17086 net.cpp:380] upscore2-new-R_upscore2-new-R_0_split -> upscore2-new-R_upscore2-new-R_0_split_1
I0418 20:14:21.386477 17086 net.cpp:122] Setting up upscore2-new-R_upscore2-new-R_0_split
I0418 20:14:21.386484 17086 net.cpp:129] Top shape: 1 3 36 22 (2376)
I0418 20:14:21.386488 17086 net.cpp:129] Top shape: 1 3 36 22 (2376)
I0418 20:14:21.386492 17086 net.cpp:137] Memory required for data: 1755463788
I0418 20:14:21.386495 17086 layer_factory.hpp:77] Creating layer score_pool4-new-R
I0418 20:14:21.386514 17086 net.cpp:84] Creating Layer score_pool4-new-R
I0418 20:14:21.386521 17086 net.cpp:406] score_pool4-new-R <- pool4-R_pool4-R_0_split_1
I0418 20:14:21.386533 17086 net.cpp:380] score_pool4-new-R -> score_pool4-new-R
I0418 20:14:21.387842 17086 net.cpp:122] Setting up score_pool4-new-R
I0418 20:14:21.387856 17086 net.cpp:129] Top shape: 1 3 45 32 (4320)
I0418 20:14:21.387859 17086 net.cpp:137] Memory required for data: 1755481068
I0418 20:14:21.387882 17086 layer_factory.hpp:77] Creating layer score_pool4c-R
I0418 20:14:21.387894 17086 net.cpp:84] Creating Layer score_pool4c-R
I0418 20:14:21.387900 17086 net.cpp:406] score_pool4c-R <- score_pool4-new-R
I0418 20:14:21.387905 17086 net.cpp:406] score_pool4c-R <- upscore2-new-R_upscore2-new-R_0_split_0
I0418 20:14:21.387910 17086 net.cpp:380] score_pool4c-R -> score_pool4c-R
I0418 20:14:21.387948 17086 net.cpp:122] Setting up score_pool4c-R
I0418 20:14:21.387954 17086 net.cpp:129] Top shape: 1 3 36 22 (2376)
I0418 20:14:21.387958 17086 net.cpp:137] Memory required for data: 1755490572
I0418 20:14:21.387960 17086 layer_factory.hpp:77] Creating layer fuse_pool4-R
I0418 20:14:21.387967 17086 net.cpp:84] Creating Layer fuse_pool4-R
I0418 20:14:21.387971 17086 net.cpp:406] fuse_pool4-R <- upscore2-new-R_upscore2-new-R_0_split_1
I0418 20:14:21.387975 17086 net.cpp:406] fuse_pool4-R <- score_pool4c-R
I0418 20:14:21.387984 17086 net.cpp:380] fuse_pool4-R -> fuse_pool4-R
I0418 20:14:21.388020 17086 net.cpp:122] Setting up fuse_pool4-R
I0418 20:14:21.388026 17086 net.cpp:129] Top shape: 1 3 36 22 (2376)
I0418 20:14:21.388029 17086 net.cpp:137] Memory required for data: 1755500076
I0418 20:14:21.388033 17086 layer_factory.hpp:77] Creating layer upscore_pool4-new-R
I0418 20:14:21.388046 17086 net.cpp:84] Creating Layer upscore_pool4-new-R
I0418 20:14:21.388051 17086 net.cpp:406] upscore_pool4-new-R <- fuse_pool4-R
I0418 20:14:21.388062 17086 net.cpp:380] upscore_pool4-new-R -> upscore_pool4-new-R
I0418 20:14:21.388285 17086 net.cpp:122] Setting up upscore_pool4-new-R
I0418 20:14:21.388294 17086 net.cpp:129] Top shape: 1 3 74 46 (10212)
I0418 20:14:21.388298 17086 net.cpp:137] Memory required for data: 1755540924
I0418 20:14:21.388303 17086 layer_factory.hpp:77] Creating layer upscore_pool4-new-R_upscore_pool4-new-R_0_split
I0418 20:14:21.388309 17086 net.cpp:84] Creating Layer upscore_pool4-new-R_upscore_pool4-new-R_0_split
I0418 20:14:21.388312 17086 net.cpp:406] upscore_pool4-new-R_upscore_pool4-new-R_0_split <- upscore_pool4-new-R
I0418 20:14:21.388321 17086 net.cpp:380] upscore_pool4-new-R_upscore_pool4-new-R_0_split -> upscore_pool4-new-R_upscore_pool4-new-R_0_split_0
I0418 20:14:21.388330 17086 net.cpp:380] upscore_pool4-new-R_upscore_pool4-new-R_0_split -> upscore_pool4-new-R_upscore_pool4-new-R_0_split_1
I0418 20:14:21.388368 17086 net.cpp:122] Setting up upscore_pool4-new-R_upscore_pool4-new-R_0_split
I0418 20:14:21.388375 17086 net.cpp:129] Top shape: 1 3 74 46 (10212)
I0418 20:14:21.388379 17086 net.cpp:129] Top shape: 1 3 74 46 (10212)
I0418 20:14:21.388382 17086 net.cpp:137] Memory required for data: 1755622620
I0418 20:14:21.388386 17086 layer_factory.hpp:77] Creating layer score_pool3-new-R
I0418 20:14:21.388401 17086 net.cpp:84] Creating Layer score_pool3-new-R
I0418 20:14:21.388407 17086 net.cpp:406] score_pool3-new-R <- pool3-R_pool3-R_0_split_1
I0418 20:14:21.388418 17086 net.cpp:380] score_pool3-new-R -> score_pool3-new-R
I0418 20:14:21.389747 17086 net.cpp:122] Setting up score_pool3-new-R
I0418 20:14:21.389760 17086 net.cpp:129] Top shape: 1 3 89 64 (17088)
I0418 20:14:21.389765 17086 net.cpp:137] Memory required for data: 1755690972
I0418 20:14:21.389786 17086 layer_factory.hpp:77] Creating layer score_pool3c-R
I0418 20:14:21.389799 17086 net.cpp:84] Creating Layer score_pool3c-R
I0418 20:14:21.389806 17086 net.cpp:406] score_pool3c-R <- score_pool3-new-R
I0418 20:14:21.389811 17086 net.cpp:406] score_pool3c-R <- upscore_pool4-new-R_upscore_pool4-new-R_0_split_0
I0418 20:14:21.389816 17086 net.cpp:380] score_pool3c-R -> score_pool3c-R
I0418 20:14:21.389853 17086 net.cpp:122] Setting up score_pool3c-R
I0418 20:14:21.389860 17086 net.cpp:129] Top shape: 1 3 74 46 (10212)
I0418 20:14:21.389864 17086 net.cpp:137] Memory required for data: 1755731820
I0418 20:14:21.389868 17086 layer_factory.hpp:77] Creating layer fuse_pool3-R
I0418 20:14:21.389873 17086 net.cpp:84] Creating Layer fuse_pool3-R
I0418 20:14:21.389883 17086 net.cpp:406] fuse_pool3-R <- upscore_pool4-new-R_upscore_pool4-new-R_0_split_1
I0418 20:14:21.389888 17086 net.cpp:406] fuse_pool3-R <- score_pool3c-R
I0418 20:14:21.389892 17086 net.cpp:380] fuse_pool3-R -> fuse_pool3-R
I0418 20:14:21.389919 17086 net.cpp:122] Setting up fuse_pool3-R
I0418 20:14:21.389925 17086 net.cpp:129] Top shape: 1 3 74 46 (10212)
I0418 20:14:21.389928 17086 net.cpp:137] Memory required for data: 1755772668
I0418 20:14:21.389931 17086 layer_factory.hpp:77] Creating layer upscore8-new-R
I0418 20:14:21.389946 17086 net.cpp:84] Creating Layer upscore8-new-R
I0418 20:14:21.389951 17086 net.cpp:406] upscore8-new-R <- fuse_pool3-R
I0418 20:14:21.389957 17086 net.cpp:380] upscore8-new-R -> upscore8-new-R
I0418 20:14:21.390214 17086 net.cpp:122] Setting up upscore8-new-R
I0418 20:14:21.390224 17086 net.cpp:129] Top shape: 1 3 600 376 (676800)
I0418 20:14:21.390228 17086 net.cpp:137] Memory required for data: 1758479868
I0418 20:14:21.390233 17086 layer_factory.hpp:77] Creating layer upscore8_cropped-R
I0418 20:14:21.390239 17086 net.cpp:84] Creating Layer upscore8_cropped-R
I0418 20:14:21.390242 17086 net.cpp:406] upscore8_cropped-R <- upscore8-new-R
I0418 20:14:21.390254 17086 net.cpp:406] upscore8_cropped-R <- data-R_crop_0_split_1
I0418 20:14:21.390260 17086 net.cpp:380] upscore8_cropped-R -> upscore8_cropped-R
I0418 20:14:21.390286 17086 net.cpp:122] Setting up upscore8_cropped-R
I0418 20:14:21.390293 17086 net.cpp:129] Top shape: 1 3 512 310 (476160)
I0418 20:14:21.390296 17086 net.cpp:137] Memory required for data: 1760384508
I0418 20:14:21.390301 17086 layer_factory.hpp:77] Creating layer score-R
I0418 20:14:21.390316 17086 net.cpp:84] Creating Layer score-R
I0418 20:14:21.390322 17086 net.cpp:406] score-R <- upscore8_cropped-R
I0418 20:14:21.390332 17086 net.cpp:380] score-R -> score-R
I0418 20:14:21.392168 17086 net.cpp:122] Setting up score-R
I0418 20:14:21.392182 17086 net.cpp:129] Top shape: 1 3 512 310 (476160)
I0418 20:14:21.392185 17086 net.cpp:137] Memory required for data: 1762289148
I0418 20:14:21.392208 17086 layer_factory.hpp:77] Creating layer score_uncropped-R
I0418 20:14:21.392551 17086 net.cpp:84] Creating Layer score_uncropped-R
I0418 20:14:21.392565 17086 net.cpp:406] score_uncropped-R <- crop_info
I0418 20:14:21.392570 17086 net.cpp:406] score_uncropped-R <- score-R
I0418 20:14:21.392575 17086 net.cpp:406] score_uncropped-R <- data_data_0_split_3
I0418 20:14:21.392580 17086 net.cpp:380] score_uncropped-R -> score_uncropped-R
I0418 20:14:21.394110 17086 net.cpp:122] Setting up score_uncropped-R
I0418 20:14:21.394124 17086 net.cpp:129] Top shape: 1 3 512 310 (476160)
I0418 20:14:21.394127 17086 net.cpp:137] Memory required for data: 1764193788
I0418 20:14:21.394130 17086 layer_factory.hpp:77] Creating layer loss1
I0418 20:14:21.394143 17086 net.cpp:84] Creating Layer loss1
I0418 20:14:21.394147 17086 net.cpp:406] loss1 <- score_score_0_split_1
I0418 20:14:21.394152 17086 net.cpp:406] loss1 <- label_data_1_split_1
I0418 20:14:21.394156 17086 net.cpp:380] loss1 -> loss1
…
snapshot_prefix: "/media/Med_2T2/data2/models/snapshots/indiv:1e-5x10,20/FD1:XI3_1_20180418_201418/train"
test_initialization: false
average_loss: 20
stepvalue: 40000
iter_size: 1
I0418 21:15:57.434846 17086 solver.cpp:77] Creating training net from train_net file: /media/Med_2T2/data2/prototxts/training_I3x10.prototxt
I0418 21:15:57.439647 17086 net.cpp:51] Initializing net from parameters: 
state {
  phase: TRAIN
}
layer {
  name: "data"
  type: "Python"
  top: "data"
  top: "label"
  top: "crop_margin"
  top: "crop_prob"
  top: "crop_sample_batch"
  python_param {
    module: "Data"
    layer: "DataLayer"
  }
}
layer {
  name: "conv1_1"
  type: "Convolution"
  bottom: "data"
  top: "conv1_1"
  param {
    lr_mult: 1
    decay_mult: 1
  }
  param {
    lr_mult: 2
    decay_mult: 0
  }
  convolution_param {
    num_output: 64
    pad: 100
    kernel_size: 3
    stride: 1
  }
}
layer {
  name: "relu1_1"
  type: "ReLU"
  bottom: "conv1_1"
  top: "conv1_1"
}
layer {
  name: "conv1_2"
  type: "Convolution"
  bottom: "conv1_1"
  top: "conv1_2"
  param {
    lr_mult: 1
    decay_mult: 1
  }
  param {
    lr_mult: 2
    decay_mult: 0
  }
  convolution_param {
    num_output: 64
    pad: 1
    kernel_size: 3
    stride: 1
  }
}
layer {
  name: "relu1_2"
  type: "ReLU"
  bottom: "conv1_2"
  top: "conv1_2"
}
layer {
  name: "pool1"
  type: "Pooling"
  bottom: "conv1_2"
  top: "pool1"
  pooling_param {
    pool: MAX
    kernel_size: 2
    stride: 2
  }
}
layer {
  name: "conv2_1"
  type: "Convolution"
  bottom: "pool1"
  top: "conv2_1"
  param {
    lr_mult: 1
    decay_mult: 1
  }
  param {
    lr_mult: 2
    decay_mult: 0
  }
  convolution_param {
    num_output: 128
    pad: 1
    kernel_size: 3
    stride: 1
  }
}
layer {
  name: "relu2_1"
  type: "ReLU"
  bottom: "conv2_1"
  top: "conv2_1"
}
layer {
  name: "conv2_2"
  type: "Convolution"
  bottom: "conv2_1"
  top: "conv2_2"
  param {
    lr_mult: 1
    decay_mult: 1
  }
  param {
    lr_mult: 2
    decay_mult: 0
  }
  convolution_param {
    num_output: 128
    pad: 1
    kernel_size: 3
    stride: 1
  }
}
layer {
  name: "relu2_2"
  type: "ReLU"
  bottom: "conv2_2"
  top: "conv2_2"
}
layer {
  name: "pool2"
  type: "Pooling"
  bottom: "conv2_2"
  top: "pool2"
  pooling_param {
    pool: MAX
    kernel_size: 2
    stride: 2
  }
}
layer {
  name: "conv3_1"
  type: "Convolution"
  bottom: "pool2"
  top: "conv3_1"
  param {
    lr_mult: 1
    decay_mult: 1
  }
  param {
    lr_mult: 2
    decay_mult: 0
  }
  convolution_param {
    num_output: 256
    pad: 1
    kernel_size: 3
    stride: 1
  }
}
layer {
  name: "relu3_1"
  type: "ReLU"
  bottom: "conv3_1"
  top: "conv3_1"
}
layer {
  name: "conv3_2"
  type: "Convolution"
  bottom: "conv3_1"
  top: "conv3_2"
  param {
    lr_mult: 1
    decay_mult: 1
  }
  param {
    lr_mult: 2
    decay_mult: 0
  }
  convolution_param {
    num_output: 256
    pad: 1
    kernel_size: 3
    stride: 1
  }
}
layer {
  name: "relu3_2"
  type: "ReLU"
  bottom: "conv3_2"
  top: "conv3_2"
}
layer {
  name: "conv3_3"
  type: "Convolution"
  bottom: "conv3_2"
  top: "conv3_3"
  param {
    lr_mult: 1
    decay_mult: 1
  }
  param {
    lr_mult: 2
    decay_mult: 0
  }
  convolution_param {
    num_output: 256
    pad: 1
    kernel_size: 3
    stride: 1
  }
}
layer {
  name: "relu3_3"
  type: "ReLU"
  bottom: "conv3_3"
  top: "conv3_3"
}
layer {
  name: "pool3"
  type: "Pooling"
  bottom: "conv3_3"
  top: "pool3"
  pooling_param {
    pool: MAX
    kernel_size: 2
    stride: 2
  }
}
layer {
  name: "conv4_1"
  type: "Convolution"
  bottom: "pool3"
  top: "conv4_1"
  param {
    lr_mult: 1
    decay_mult: 1
  }
  param {
    lr_mult: 2
    decay_mult: 0
  }
  convolution_param {
    num_output: 512
    pad: 1
    kernel_size: 3
    stride: 1
  }
}
layer {
  name: "relu4_1"
  type: "ReLU"
  bottom: "conv4_1"
  top: "conv4_1"
}
layer {
  name: "conv4_2"
  type: "Convolution"
  bottom: "conv4_1"
  top: "conv4_2"
  param {
    lr_mult: 1
    decay_mult: 1
  }
  param {
    lr_mult: 2
    decay_mult: 0
  }
  convolution_param {
    num_output: 512
    pad: 1
    kernel_size: 3
    stride: 1
  }
}
layer {
  name: "relu4_2"
  type: "ReLU"
  bottom: "conv4_2"
  top: "conv4_2"
}
layer {
  name: "conv4_3"
  type: "Convolution"
  bottom: "conv4_2"
  top: "conv4_3"
  param {
    lr_mult: 1
    decay_mult: 1
  }
  param {
    lr_mult: 2
    decay_mult: 0
  }
  convolution_param {
    num_output: 512
    pad: 1
    kernel_size: 3
    stride: 1
  }
}
layer {
  name: "relu4_3"
  type: "ReLU"
  bottom: "conv4_3"
  top: "conv4_3"
}
layer {
  name: "pool4"
  type: "Pooling"
  bottom: "conv4_3"
  top: "pool4"
  pooling_param {
    pool: MAX
    kernel_size: 2
    stride: 2
  }
}
layer {
  name: "conv5_1"
  type: "Convolution"
  bottom: "pool4"
  top: "conv5_1"
  param {
    lr_mult: 1
    decay_mult: 1
  }
  param {
    lr_mult: 2
    decay_mult: 0
  }
  convolution_param {
    num_output: 512
    pad: 1
    kernel_size: 3
    stride: 1
  }
}
layer {
  name: "relu5_1"
  type: "ReLU"
  bottom: "conv5_1"
  top: "conv5_1"
}
layer {
  name: "conv5_2"
  type: "Convolution"
  bottom: "conv5_1"
  top: "conv5_2"
  param {
    lr_mult: 1
    decay_mult: 1
  }
  param {
    lr_mult: 2
    decay_mult: 0
  }
  convolution_param {
    num_output: 512
    pad: 1
    kernel_size: 3
    stride: 1
  }
}
layer {
  name: "relu5_2"
  type: "ReLU"
  bottom: "conv5_2"
  top: "conv5_2"
}
layer {
  name: "conv5_3"
  type: "Convolution"
  bottom: "conv5_2"
  top: "conv5_3"
  param {
    lr_mult: 1
    decay_mult: 1
  }
  param {
    lr_mult: 2
    decay_mult: 0
  }
  convolution_param {
    num_output: 512
    pad: 1
    kernel_size: 3
    stride: 1
  }
}
layer {
  name: "relu5_3"
  type: "ReLU"
  bottom: "conv5_3"
  top: "conv5_3"
}
layer {
  name: "pool5"
  type: "Pooling"
  bottom: "conv5_3"
  top: "pool5"
  pooling_param {
    pool: MAX
    kernel_size: 2
    stride: 2
  }
}
layer {
  name: "fc6"
  type: "Convolution"
  bottom: "pool5"
  top: "fc6"
  param {
    lr_mult: 1
    decay_mult: 1
  }
  param {
    lr_mult: 2
    decay_mult: 0
  }
  convolution_param {
    num_output: 4096
    pad: 0
    kernel_size: 7
    stride: 1
  }
}
layer {
  name: "relu6"
  type: "ReLU"
  bottom: "fc6"
  top: "fc6"
}
layer {
  name: "drop6"
  type: "Dropout"
  bottom: "fc6"
  top: "fc6"
  dropout_param {
    dropout_ratio: 0.5
  }
}
layer {
  name: "fc7"
  type: "Convolution"
  bottom: "fc6"
  top: "fc7"
  param {
    lr_mult: 1
    decay_mult: 1
  }
  param {
    lr_mult: 2
    decay_mult: 0
  }
  convolution_param {
    num_output: 4096
    pad: 0
    kernel_size: 1
    stride: 1
  }
}
layer {
  name: "relu7"
  type: "ReLU"
  bottom: "fc7"
  top: "fc7"
}
layer {
  name: "drop7"
  type: "Dropout"
  bottom: "fc7"
  top: "fc7"
  dropout_param {
    dropout_ratio: 0.5
  }
}
layer {
  name: "score_fr-new"
  type: "Convolution"
  bottom: "fc7"
  top: "score_fr-new"
  param {
    lr_mult: 1
    decay_mult: 1
  }
  param {
    lr_mult: 2
    decay_mult: 0
  }
  convolution_param {
    num_output: 3
    kernel_size: 1
  }
}
layer {
  name: "upscore2-new"
  type: "Deconvolution"
  bottom: "score_fr-new"
  top: "upscore2-new"
  param {
    lr_mult: 0
  }
  convolution_param {
    num_output: 3
    bias_term: false
    kernel_size: 4
    stride: 2
  }
}
layer {
  name: "score_pool4-new"
  type: "Convolution"
  bottom: "pool4"
  top: "score_pool4-new"
  param {
    lr_mult: 1
    decay_mult: 1
  }
  param {
    lr_mult: 2
    decay_mult: 0
  }
  convolution_param {
    num_output: 3
    pad: 0
    kernel_size: 1
  }
}
layer {
  name: "score_pool4c"
  type: "Crop"
  bottom: "score_pool4-new"
  bottom: "upscore2-new"
  top: "score_pool4c"
  crop_param {
    axis: 2
    offset: 5
  }
}
layer {
  name: "fuse_pool4"
  type: "Eltwise"
  bottom: "upscore2-new"
  bottom: "score_pool4c"
  top: "fuse_pool4"
  eltwise_param {
    operation: SUM
  }
}
layer {
  name: "upscore_pool4-new"
  type: "Deconvolution"
  bottom: "fuse_pool4"
  top: "upscore_pool4-new"
  param {
    lr_mult: 0
  }
  convolution_param {
    num_output: 3
    bias_term: false
    kernel_size: 4
    stride: 2
  }
}
layer {
  name: "score_pool3-new"
  type: "Convolution"
  bottom: "pool3"
  top: "score_pool3-new"
  param {
    lr_mult: 1
    decay_mult: 1
  }
  param {
    lr_mult: 2
    decay_mult: 0
  }
  convolution_param {
    num_output: 3
    pad: 0
    kernel_size: 1
  }
}
layer {
  name: "score_pool3c"
  type: "Crop"
  bottom: "score_pool3-new"
  bottom: "upscore_pool4-new"
  top: "score_pool3c"
  crop_param {
    axis: 2
    offset: 9
  }
}
layer {
  name: "fuse_pool3"
  type: "Eltwise"
  bottom: "upscore_pool4-new"
  bottom: "score_pool3c"
  top: "fuse_pool3"
  eltwise_param {
    operation: SUM
  }
}
layer {
  name: "upscore8-new"
  type: "Deconvolution"
  bottom: "fuse_pool3"
  top: "upscore8-new"
  param {
    lr_mult: 0
  }
  convolution_param {
    num_output: 3
    bias_term: false
    kernel_size: 16
    stride: 8
  }
}
layer {
  name: "upscore8_cropped"
  type: "Crop"
  bottom: "upscore8-new"
  bottom: "data"
  top: "upscore8_cropped"
  crop_param {
    axis: 2
    offset: 31
  }
}
layer {
  name: "score"
  type: "Convolution"
  bottom: "upscore8_cropped"
  top: "score"
  param {
    lr_mult: 1
    decay_mult: 1
  }
  param {
    lr_mult: 2
    decay_mult: 0
  }
  convolution_param {
    num_output: 3
    pad: 1
    kernel_size: 3
    stride: 1
    weight_filler {
      type: "xavier"
    }
    bias_filler {
      type: "constant"
      value: 0
    }
  }
}
layer {
  name: "prob"
  type: "Sigmoid"
  bottom: "score"
  top: "prob"
}
layer {
  name: "saliency"
  type: "Convolution"
  bottom: "prob"
  top: "saliency"
  param {
    lr_mult: 10
    decay_mult: 1
  }
  param {
    lr_mult: 20
    decay_mult: 0
  }
  convolution_param {
    num_output: 3
    pad: 2
    kernel_size: 5
    stride: 1
    weight_filler {
      type: "xavier"
    }
    bias_filler {
      type: "constant"
      value: 1
    }
  }
}
layer {
  name: "saliency_data"
  type: "Eltwise"
  bottom: "data"
  bottom: "saliency"
  top: "saliency_data"
  eltwise_param {
    operation: PROD
  }
}
layer {
  name: "crop"
  type: "Python"
  bottom: "label"
  bottom: "saliency_data"
  bottom: "crop_margin"
  bottom: "crop_prob"
  bottom: "crop_sample_batch"
  top: "data-R"
  top: "crop_info"
  python_param {
    module: "Crop"
    layer: "CropLayer"
    param_str: "{\"TEST\": 0}"
  }
}
layer {
  name: "conv1_1-R"
  type: "Convolution"
  bottom: "data-R"
  top: "conv1_1-R"
  param {
    lr_mult: 10
    decay_mult: 1
  }
  param {
    lr_mult: 20
    decay_mult: 0
  }
  convolution_param {
    num_output: 64
    pad: 100
    kernel_size: 3
    stride: 1
  }
}
layer {
  name: "relu1_1-R"
  type: "ReLU"
  bottom: "conv1_1-R"
  top: "conv1_1-R"
}
layer {
  name: "conv1_2-R"
  type: "Convolution"
  bottom: "conv1_1-R"
  top: "conv1_2-R"
  param {
    lr_mult: 10
    decay_mult: 1
  }
  param {
    lr_mult: 20
    decay_mult: 0
  }
  convolution_param {
    num_output: 64
    pad: 1
    kernel_size: 3
    stride: 1
  }
}
layer {
  name: "relu1_2-R"
  type: "ReLU"
  bottom: "conv1_2-R"
  top: "conv1_2-R"
}
layer {
  name: "pool1-R"
  type: "Pooling"
  bottom: "conv1_2-R"
  top: "pool1-R"
  pooling_param {
    pool: MAX
    kernel_size: 2
    stride: 2
  }
}
layer {
  name: "conv2_1-R"
  type: "Convolution"
  bottom: "pool1-R"
  top: "conv2_1-R"
  param {
    lr_mult: 10
    decay_mult: 1
  }
  param {
    lr_mult: 20
    decay_mult: 0
  }
  convolution_param {
    num_output: 128
    pad: 1
    kernel_size: 3
    stride: 1
  }
}
layer {
  name: "relu2_1-R"
  type: "ReLU"
  bottom: "conv2_1-R"
  top: "conv2_1-R"
}
layer {
  name: "conv2_2-R"
  type: "Convolution"
  bottom: "conv2_1-R"
  top: "conv2_2-R"
  param {
    lr_mult: 10
    decay_mult: 1
  }
  param {
    lr_mult: 20
    decay_mult: 0
  }
  convolution_param {
    num_output: 128
    pad: 1
    kernel_size: 3
    stride: 1
  }
}
layer {
  name: "relu2_2-R"
  type: "ReLU"
  bottom: "conv2_2-R"
  top: "conv2_2-R"
}
layer {
  name: "pool2-R"
  type: "Pooling"
  bottom: "conv2_2-R"
  top: "pool2-R"
  pooling_param {
    pool: MAX
    kernel_size: 2
    stride: 2
  }
}
layer {
  name: "conv3_1-R"
  type: "Convolution"
  bottom: "pool2-R"
  top: "conv3_1-R"
  param {
    lr_mult: 10
    decay_mult: 1
  }
  param {
    lr_mult: 20
    decay_mult: 0
  }
  convolution_param {
    num_output: 256
    pad: 1
    kernel_size: 3
    stride: 1
  }
}
layer {
  name: "relu3_1-R"
  type: "ReLU"
  bottom: "conv3_1-R"
  top: "conv3_1-R"
}
layer {
  name: "conv3_2-R"
  type: "Convolution"
  bottom: "conv3_1-R"
  top: "conv3_2-R"
  param {
    lr_mult: 10
    decay_mult: 1
  }
  param {
    lr_mult: 20
    decay_mult: 0
  }
  convolution_param {
    num_output: 256
    pad: 1
    kernel_size: 3
    stride: 1
  }
}
layer {
  name: "relu3_2-R"
  type: "ReLU"
  bottom: "conv3_2-R"
  top: "conv3_2-R"
}
layer {
  name: "conv3_3-R"
  type: "Convolution"
  bottom: "conv3_2-R"
  top: "conv3_3-R"
  param {
    lr_mult: 10
    decay_mult: 1
  }
  param {
    lr_mult: 20
    decay_mult: 0
  }
  convolution_param {
    num_output: 256
    pad: 1
    kernel_size: 3
    stride: 1
  }
}
layer {
  name: "relu3_3-R"
  type: "ReLU"
  bottom: "conv3_3-R"
  top: "conv3_3-R"
}
layer {
  name: "pool3-R"
  type: "Pooling"
  bottom: "conv3_3-R"
  top: "pool3-R"
  pooling_param {
    pool: MAX
    kernel_size: 2
    stride: 2
  }
}
layer {
  name: "conv4_1-R"
  type: "Convolution"
  bottom: "pool3-R"
  top: "conv4_1-R"
  param {
    lr_mult: 10
    decay_mult: 1
  }
  param {
    lr_mult: 20
    decay_mult: 0
  }
  convolution_param {
    num_output: 512
    pad: 1
    kernel_size: 3
    stride: 1
  }
}
layer {
  name: "relu4_1-R"
  type: "ReLU"
  bottom: "conv4_1-R"
  top: "conv4_1-R"
}
layer {
  name: "conv4_2-R"
  type: "Convolution"
  bottom: "conv4_1-R"
  top: "conv4_2-R"
  param {
    lr_mult: 10
    decay_mult: 1
  }
  param {
    lr_mult: 20
    decay_mult: 0
  }
  convolution_param {
    num_output: 512
    pad: 1
    kernel_size: 3
    stride: 1
  }
}
layer {
  name: "relu4_2-R"
  type: "ReLU"
  bottom: "conv4_2-R"
  top: "conv4_2-R"
}
layer {
  name: "conv4_3-R"
  type: "Convolution"
  bottom: "conv4_2-R"
  top: "conv4_3-R"
  param {
    lr_mult: 10
    decay_mult: 1
  }
  param {
    lr_mult: 20
    decay_mult: 0
  }
  convolution_param {
    num_output: 512
    pad: 1
    kernel_size: 3
    stride: 1
  }
}
layer {
  name: "relu4_3-R"
  type: "ReLU"
  bottom: "conv4_3-R"
  top: "conv4_3-R"
}
layer {
  name: "pool4-R"
  type: "Pooling"
  bottom: "conv4_3-R"
  top: "pool4-R"
  pooling_param {
    pool: MAX
    kernel_size: 2
    stride: 2
  }
}
layer {
  name: "conv5_1-R"
  type: "Convolution"
  bottom: "pool4-R"
  top: "conv5_1-R"
  param {
    lr_mult: 10
    decay_mult: 1
  }
  param {
    lr_mult: 20
    decay_mult: 0
  }
  convolution_param {
    num_output: 512
    pad: 1
    kernel_size: 3
    stride: 1
  }
}
layer {
  name: "relu5_1-R"
  type: "ReLU"
  bottom: "conv5_1-R"
  top: "conv5_1-R"
}
layer {
  name: "conv5_2-R"
  type: "Convolution"
  bottom: "conv5_1-R"
  top: "conv5_2-R"
  param {
    lr_mult: 10
    decay_mult: 1
  }
  param {
    lr_mult: 20
    decay_mult: 0
  }
  convolution_param {
    num_output: 512
    pad: 1
    kernel_size: 3
    stride: 1
  }
}
layer {
  name: "relu5_2-R"
  type: "ReLU"
  bottom: "conv5_2-R"
  top: "conv5_2-R"
}
layer {
  name: "conv5_3-R"
  type: "Convolution"
  bottom: "conv5_2-R"
  top: "conv5_3-R"
  param {
    lr_mult: 10
    decay_mult: 1
  }
  param {
    lr_mult: 20
    decay_mult: 0
  }
  convolution_param {
    num_output: 512
    pad: 1
    kernel_size: 3
    stride: 1
  }
}
layer {
  name: "relu5_3-R"
  type: "ReLU"
  bottom: "conv5_3-R"
  top: "conv5_3-R"
}
layer {
  name: "pool5-R"
  type: "Pooling"
  bottom: "conv5_3-R"
  top: "pool5-R"
  pooling_param {
    pool: MAX
    kernel_size: 2
    stride: 2
  }
}
layer {
  name: "fc6-R"
  type: "Convolution"
  bottom: "pool5-R"
  top: "fc6-R"
  param {
    lr_mult: 10
    decay_mult: 1
  }
  param {
    lr_mult: 20
    decay_mult: 0
  }
  convolution_param {
    num_output: 4096
    pad: 0
    kernel_size: 7
    stride: 1
  }
}
layer {
  name: "relu6-R"
  type: "ReLU"
  bottom: "fc6-R"
  top: "fc6-R"
}
layer {
  name: "drop6-R"
  type: "Dropout"
  bottom: "fc6-R"
  top: "fc6-R"
  dropout_param {
    dropout_ratio: 0.5
  }
}
layer {
  name: "fc7-R"
  type: "Convolution"
  bottom: "fc6-R"
  top: "fc7-R"
  param {
    lr_mult: 10
    decay_mult: 1
  }
  param {
    lr_mult: 20
    decay_mult: 0
  }
  convolution_param {
    num_output: 4096
    pad: 0
    kernel_size: 1
    stride: 1
  }
}
layer {
  name: "relu7-R"
  type: "ReLU"
  bottom: "fc7-R"
  top: "fc7-R"
}
layer {
  name: "drop7-R"
  type: "Dropout"
  bottom: "fc7-R"
  top: "fc7-R"
  dropout_param {
    dropout_ratio: 0.5
  }
}
layer {
  name: "score_fr-new-R"
  type: "Convolution"
  bottom: "fc7-R"
  top: "score_fr-new-R"
  param {
    lr_mult: 10
    decay_mult: 1
  }
  param {
    lr_mult: 20
    decay_mult: 0
  }
  convolution_param {
    num_output: 3
    kernel_size: 1
  }
}
layer {
  name: "upscore2-new-R"
  type: "Deconvolution"
  bottom: "score_fr-new-R"
  top: "upscore2-new-R"
  param {
    lr_mult: 0
  }
  convolution_param {
    num_output: 3
    bias_term: false
    kernel_size: 4
    stride: 2
  }
}
layer {
  name: "score_pool4-new-R"
  type: "Convolution"
  bottom: "pool4-R"
  top: "score_pool4-new-R"
  param {
    lr_mult: 10
    decay_mult: 1
  }
  param {
    lr_mult: 20
    decay_mult: 0
  }
  convolution_param {
    num_output: 3
    pad: 0
    kernel_size: 1
  }
}
layer {
  name: "score_pool4c-R"
  type: "Crop"
  bottom: "score_pool4-new-R"
  bottom: "upscore2-new-R"
  top: "score_pool4c-R"
  crop_param {
    axis: 2
    offset: 5
  }
}
layer {
  name: "fuse_pool4-R"
  type: "Eltwise"
  bottom: "upscore2-new-R"
  bottom: "score_pool4c-R"
  top: "fuse_pool4-R"
  eltwise_param {
    operation: SUM
  }
}
layer {
  name: "upscore_pool4-new-R"
  type: "Deconvolution"
  bottom: "fuse_pool4-R"
  top: "upscore_pool4-new-R"
  param {
    lr_mult: 0
  }
  convolution_param {
    num_output: 3
    bias_term: false
    kernel_size: 4
    stride: 2
  }
}
layer {
  name: "score_pool3-new-R"
  type: "Convolution"
  bottom: "pool3-R"
  top: "score_pool3-new-R"
  param {
    lr_mult: 10
    decay_mult: 1
  }
  param {
    lr_mult: 20
    decay_mult: 0
  }
  convolution_param {
    num_output: 3
    pad: 0
    kernel_size: 1
  }
}
layer {
  name: "score_pool3c-R"
  type: "Crop"
  bottom: "score_pool3-new-R"
  bottom: "upscore_pool4-new-R"
  top: "score_pool3c-R"
  crop_param {
    axis: 2
    offset: 9
  }
}
layer {
  name: "fuse_pool3-R"
  type: "Eltwise"
  bottom: "upscore_pool4-new-R"
  bottom: "score_pool3c-R"
  top: "fuse_pool3-R"
  eltwise_param {
    operation: SUM
  }
}
layer {
  name: "upscore8-new-R"
  type: "Deconvolution"
  bottom: "fuse_pool3-R"
  top: "upscore8-new-R"
  param {
    lr_mult: 0
  }
  convolution_param {
    num_output: 3
    bias_term: false
    kernel_size: 16
    stride: 8
  }
}
layer {
  name: "upscore8_cropped-R"
  type: "Crop"
  bottom: "upscore8-new-R"
  bottom: "data-R"
  top: "upscore8_cropped-R"
  crop_param {
    axis: 2
    offset: 31
  }
}
layer {
  name: "score-R"
  type: "Convolution"
  bottom: "upscore8_cropped-R"
  top: "score-R"
  param {
    lr_mult: 10
    decay_mult: 1
  }
  param {
    lr_mult: 20
    decay_mult: 0
  }
  convolution_param {
    num_output: 3
    pad: 1
    kernel_size: 3
    stride: 1
    weight_filler {
      type: "xavier"
    }
    bias_filler {
      type: "constant"
      value: 0
    }
  }
}
layer {
  name: "score_uncropped-R"
  type: "Python"
  bottom: "crop_info"
  bottom: "score-R"
  bottom: "data"
  top: "score_uncropped-R"
  python_param {
    module: "Uncrop"
    layer: "UncropLayer"
  }
}
layer {
  name: "loss1"
  type: "DiceLoss"
  bottom: "score"
  bottom: "label"
  top: "loss1"
  loss_weight: 0.333333
}
layer {
  name: "loss2"
  type: "DiceLoss"
  bottom: "score_uncropped-R"
  bottom: "label"
  top: "loss2"
  loss_weight: 0.666667
}
I0418 21:15:57.440665 17086 layer_factory.hpp:77] Creating layer data
I0418 21:15:57.440798 17086 net.cpp:84] Creating Layer data
I0418 21:15:57.440817 17086 net.cpp:380] data -> data
I0418 21:15:57.440843 17086 net.cpp:380] data -> label
I0418 21:15:57.440862 17086 net.cpp:380] data -> crop_margin
I0418 21:15:57.440879 17086 net.cpp:380] data -> crop_prob
I0418 21:15:57.440886 17086 net.cpp:380] data -> crop_sample_batch
I0418 21:15:57.734586 17086 net.cpp:122] Setting up data
I0418 21:15:57.734674 17086 net.cpp:129] Top shape: 1 3 512 310 (476160)
I0418 21:15:57.734681 17086 net.cpp:129] Top shape: 1 3 512 310 (476160)
I0418 21:15:57.734691 17086 net.cpp:129] Top shape: 1 (1)
I0418 21:15:57.734697 17086 net.cpp:129] Top shape: 1 (1)
I0418 21:15:57.734724 17086 net.cpp:129] Top shape: 1 (1)
I0418 21:15:57.734730 17086 net.cpp:137] Memory required for data: 3809292
I0418 21:15:57.734756 17086 layer_factory.hpp:77] Creating layer data_data_0_split
I0418 21:15:57.734786 17086 net.cpp:84] Creating Layer data_data_0_split
I0418 21:15:57.734802 17086 net.cpp:406] data_data_0_split <- data
I0418 21:15:57.734827 17086 net.cpp:380] data_data_0_split -> data_data_0_split_0
I0418 21:15:57.734851 17086 net.cpp:380] data_data_0_split -> data_data_0_split_1
I0418 21:15:57.734866 17086 net.cpp:380] data_data_0_split -> data_data_0_split_2
I0418 21:15:57.734884 17086 net.cpp:380] data_data_0_split -> data_data_0_split_3
I0418 21:15:57.735116 17086 net.cpp:122] Setting up data_data_0_split
I0418 21:15:57.735134 17086 net.cpp:129] Top shape: 1 3 512 310 (476160)
I0418 21:15:57.735146 17086 net.cpp:129] Top shape: 1 3 512 310 (476160)
I0418 21:15:57.735152 17086 net.cpp:129] Top shape: 1 3 512 310 (476160)
I0418 21:15:57.735159 17086 net.cpp:129] Top shape: 1 3 512 310 (476160)
I0418 21:15:57.735163 17086 net.cpp:137] Memory required for data: 11427852
I0418 21:15:57.735167 17086 layer_factory.hpp:77] Creating layer label_data_1_split
I0418 21:15:57.735177 17086 net.cpp:84] Creating Layer label_data_1_split
I0418 21:15:57.735183 17086 net.cpp:406] label_data_1_split <- label
I0418 21:15:57.735196 17086 net.cpp:380] label_data_1_split -> label_data_1_split_0
I0418 21:15:57.735203 17086 net.cpp:380] label_data_1_split -> label_data_1_split_1
I0418 21:15:57.735210 17086 net.cpp:380] label_data_1_split -> label_data_1_split_2
I0418 21:15:57.735380 17086 net.cpp:122] Setting up label_data_1_split
I0418 21:15:57.735399 17086 net.cpp:129] Top shape: 1 3 512 310 (476160)
I0418 21:15:57.735405 17086 net.cpp:129] Top shape: 1 3 512 310 (476160)
I0418 21:15:57.735411 17086 net.cpp:129] Top shape: 1 3 512 310 (476160)
I0418 21:15:57.735414 17086 net.cpp:137] Memory required for data: 17141772
I0418 21:15:57.735419 17086 layer_factory.hpp:77] Creating layer conv1_1
I0418 21:15:57.735440 17086 net.cpp:84] Creating Layer conv1_1
I0418 21:15:57.735450 17086 net.cpp:406] conv1_1 <- data_data_0_split_0
I0418 21:15:57.735468 17086 net.cpp:380] conv1_1 -> conv1_1
I0418 21:15:57.744307 17086 net.cpp:122] Setting up conv1_1
I0418 21:15:57.744351 17086 net.cpp:129] Top shape: 1 64 710 508 (23083520)
I0418 21:15:57.744356 17086 net.cpp:137] Memory required for data: 109475852
I0418 21:15:57.744397 17086 layer_factory.hpp:77] Creating layer relu1_1
I0418 21:15:57.744419 17086 net.cpp:84] Creating Layer relu1_1
I0418 21:15:57.744433 17086 net.cpp:406] relu1_1 <- conv1_1
I0418 21:15:57.744446 17086 net.cpp:367] relu1_1 -> conv1_1 (in-place)
I0418 21:15:57.744961 17086 net.cpp:122] Setting up relu1_1
I0418 21:15:57.744976 17086 net.cpp:129] Top shape: 1 64 710 508 (23083520)
I0418 21:15:57.744997 17086 net.cpp:137] Memory required for data: 201809932
I0418 21:15:57.745004 17086 layer_factory.hpp:77] Creating layer conv1_2
I0418 21:15:57.745026 17086 net.cpp:84] Creating Layer conv1_2
I0418 21:15:57.745033 17086 net.cpp:406] conv1_2 <- conv1_1
I0418 21:15:57.745061 17086 net.cpp:380] conv1_2 -> conv1_2
I0418 21:15:57.751541 17086 net.cpp:122] Setting up conv1_2
I0418 21:15:57.751588 17086 net.cpp:129] Top shape: 1 64 710 508 (23083520)
I0418 21:15:57.751596 17086 net.cpp:137] Memory required for data: 294144012
I0418 21:15:57.751638 17086 layer_factory.hpp:77] Creating layer relu1_2
I0418 21:15:57.751665 17086 net.cpp:84] Creating Layer relu1_2
I0418 21:15:57.751677 17086 net.cpp:406] relu1_2 <- conv1_2
I0418 21:15:57.751689 17086 net.cpp:367] relu1_2 -> conv1_2 (in-place)
I0418 21:15:57.752301 17086 net.cpp:122] Setting up relu1_2
I0418 21:15:57.752342 17086 net.cpp:129] Top shape: 1 64 710 508 (23083520)
I0418 21:15:57.752352 17086 net.cpp:137] Memory required for data: 386478092
I0418 21:15:57.752362 17086 layer_factory.hpp:77] Creating layer pool1
I0418 21:15:57.752372 17086 net.cpp:84] Creating Layer pool1
I0418 21:15:57.752396 17086 net.cpp:406] pool1 <- conv1_2
I0418 21:15:57.752420 17086 net.cpp:380] pool1 -> pool1
I0418 21:15:57.752588 17086 net.cpp:122] Setting up pool1
I0418 21:15:57.752604 17086 net.cpp:129] Top shape: 1 64 355 254 (5770880)
I0418 21:15:57.752609 17086 net.cpp:137] Memory required for data: 409561612
I0418 21:15:57.752615 17086 layer_factory.hpp:77] Creating layer conv2_1
I0418 21:15:57.752652 17086 net.cpp:84] Creating Layer conv2_1
I0418 21:15:57.752658 17086 net.cpp:406] conv2_1 <- pool1
I0418 21:15:57.752686 17086 net.cpp:380] conv2_1 -> conv2_1
I0418 21:15:57.756512 17086 net.cpp:122] Setting up conv2_1
I0418 21:15:57.756548 17086 net.cpp:129] Top shape: 1 128 355 254 (11541760)
I0418 21:15:57.756561 17086 net.cpp:137] Memory required for data: 455728652
I0418 21:15:57.756600 17086 layer_factory.hpp:77] Creating layer relu2_1
I0418 21:15:57.756621 17086 net.cpp:84] Creating Layer relu2_1
I0418 21:15:57.756634 17086 net.cpp:406] relu2_1 <- conv2_1
I0418 21:15:57.756650 17086 net.cpp:367] relu2_1 -> conv2_1 (in-place)
I0418 21:15:57.758214 17086 net.cpp:122] Setting up relu2_1
I0418 21:15:57.758260 17086 net.cpp:129] Top shape: 1 128 355 254 (11541760)
I0418 21:15:57.758268 17086 net.cpp:137] Memory required for data: 501895692
I0418 21:15:57.758280 17086 layer_factory.hpp:77] Creating layer conv2_2
I0418 21:15:57.758332 17086 net.cpp:84] Creating Layer conv2_2
I0418 21:15:57.758348 17086 net.cpp:406] conv2_2 <- conv2_1
I0418 21:15:57.758376 17086 net.cpp:380] conv2_2 -> conv2_2
I0418 21:15:57.761581 17086 net.cpp:122] Setting up conv2_2
I0418 21:15:57.761626 17086 net.cpp:129] Top shape: 1 128 355 254 (11541760)
I0418 21:15:57.761633 17086 net.cpp:137] Memory required for data: 548062732
I0418 21:15:57.761668 17086 layer_factory.hpp:77] Creating layer relu2_2
I0418 21:15:57.761689 17086 net.cpp:84] Creating Layer relu2_2
I0418 21:15:57.761703 17086 net.cpp:406] relu2_2 <- conv2_2
I0418 21:15:57.761723 17086 net.cpp:367] relu2_2 -> conv2_2 (in-place)
I0418 21:15:57.763422 17086 net.cpp:122] Setting up relu2_2
I0418 21:15:57.763473 17086 net.cpp:129] Top shape: 1 128 355 254 (11541760)
I0418 21:15:57.763484 17086 net.cpp:137] Memory required for data: 594229772
I0418 21:15:57.763505 17086 layer_factory.hpp:77] Creating layer pool2
I0418 21:15:57.763530 17086 net.cpp:84] Creating Layer pool2
I0418 21:15:57.763541 17086 net.cpp:406] pool2 <- conv2_2
I0418 21:15:57.763564 17086 net.cpp:380] pool2 -> pool2
I0418 21:15:57.763763 17086 net.cpp:122] Setting up pool2
I0418 21:15:57.763787 17086 net.cpp:129] Top shape: 1 128 178 127 (2893568)
I0418 21:15:57.763797 17086 net.cpp:137] Memory required for data: 605804044
I0418 21:15:57.763810 17086 layer_factory.hpp:77] Creating layer conv3_1
I0418 21:15:57.763833 17086 net.cpp:84] Creating Layer conv3_1
I0418 21:15:57.763844 17086 net.cpp:406] conv3_1 <- pool2
I0418 21:15:57.763859 17086 net.cpp:380] conv3_1 -> conv3_1
I0418 21:15:57.772125 17086 net.cpp:122] Setting up conv3_1
I0418 21:15:57.772167 17086 net.cpp:129] Top shape: 1 256 178 127 (5787136)
I0418 21:15:57.772178 17086 net.cpp:137] Memory required for data: 628952588
I0418 21:15:57.772199 17086 layer_factory.hpp:77] Creating layer relu3_1
I0418 21:15:57.772233 17086 net.cpp:84] Creating Layer relu3_1
I0418 21:15:57.772243 17086 net.cpp:406] relu3_1 <- conv3_1
I0418 21:15:57.772260 17086 net.cpp:367] relu3_1 -> conv3_1 (in-place)
I0418 21:15:57.772917 17086 net.cpp:122] Setting up relu3_1
I0418 21:15:57.772938 17086 net.cpp:129] Top shape: 1 256 178 127 (5787136)
I0418 21:15:57.772941 17086 net.cpp:137] Memory required for data: 652101132
I0418 21:15:57.772949 17086 layer_factory.hpp:77] Creating layer conv3_2
I0418 21:15:57.772982 17086 net.cpp:84] Creating Layer conv3_2
I0418 21:15:57.772991 17086 net.cpp:406] conv3_2 <- conv3_1
I0418 21:15:57.773008 17086 net.cpp:380] conv3_2 -> conv3_2
I0418 21:15:57.782444 17086 net.cpp:122] Setting up conv3_2
I0418 21:15:57.782488 17086 net.cpp:129] Top shape: 1 256 178 127 (5787136)
I0418 21:15:57.782498 17086 net.cpp:137] Memory required for data: 675249676
I0418 21:15:57.782541 17086 layer_factory.hpp:77] Creating layer relu3_2
I0418 21:15:57.782553 17086 net.cpp:84] Creating Layer relu3_2
I0418 21:15:57.782558 17086 net.cpp:406] relu3_2 <- conv3_2
I0418 21:15:57.782565 17086 net.cpp:367] relu3_2 -> conv3_2 (in-place)
I0418 21:15:57.783181 17086 net.cpp:122] Setting up relu3_2
I0418 21:15:57.783215 17086 net.cpp:129] Top shape: 1 256 178 127 (5787136)
I0418 21:15:57.783226 17086 net.cpp:137] Memory required for data: 698398220
I0418 21:15:57.783239 17086 layer_factory.hpp:77] Creating layer conv3_3
I0418 21:15:57.783272 17086 net.cpp:84] Creating Layer conv3_3
I0418 21:15:57.783277 17086 net.cpp:406] conv3_3 <- conv3_2
I0418 21:15:57.783288 17086 net.cpp:380] conv3_3 -> conv3_3
I0418 21:15:57.791174 17086 net.cpp:122] Setting up conv3_3
I0418 21:15:57.791215 17086 net.cpp:129] Top shape: 1 256 178 127 (5787136)
I0418 21:15:57.791219 17086 net.cpp:137] Memory required for data: 721546764
I0418 21:15:57.791237 17086 layer_factory.hpp:77] Creating layer relu3_3
I0418 21:15:57.791246 17086 net.cpp:84] Creating Layer relu3_3
I0418 21:15:57.791252 17086 net.cpp:406] relu3_3 <- conv3_3
I0418 21:15:57.791265 17086 net.cpp:367] relu3_3 -> conv3_3 (in-place)
I0418 21:15:57.791733 17086 net.cpp:122] Setting up relu3_3
I0418 21:15:57.791769 17086 net.cpp:129] Top shape: 1 256 178 127 (5787136)
I0418 21:15:57.791776 17086 net.cpp:137] Memory required for data: 744695308
I0418 21:15:57.791785 17086 layer_factory.hpp:77] Creating layer pool3
I0418 21:15:57.791800 17086 net.cpp:84] Creating Layer pool3
I0418 21:15:57.791810 17086 net.cpp:406] pool3 <- conv3_3
I0418 21:15:57.791823 17086 net.cpp:380] pool3 -> pool3
I0418 21:15:57.791998 17086 net.cpp:122] Setting up pool3
I0418 21:15:57.792016 17086 net.cpp:129] Top shape: 1 256 89 64 (1458176)
I0418 21:15:57.792022 17086 net.cpp:137] Memory required for data: 750528012
I0418 21:15:57.792033 17086 layer_factory.hpp:77] Creating layer pool3_pool3_0_split
I0418 21:15:57.792047 17086 net.cpp:84] Creating Layer pool3_pool3_0_split
I0418 21:15:57.792055 17086 net.cpp:406] pool3_pool3_0_split <- pool3
I0418 21:15:57.792069 17086 net.cpp:380] pool3_pool3_0_split -> pool3_pool3_0_split_0
I0418 21:15:57.792084 17086 net.cpp:380] pool3_pool3_0_split -> pool3_pool3_0_split_1
I0418 21:15:57.792233 17086 net.cpp:122] Setting up pool3_pool3_0_split
I0418 21:15:57.792249 17086 net.cpp:129] Top shape: 1 256 89 64 (1458176)
I0418 21:15:57.792263 17086 net.cpp:129] Top shape: 1 256 89 64 (1458176)
I0418 21:15:57.792268 17086 net.cpp:137] Memory required for data: 762193420
I0418 21:15:57.792277 17086 layer_factory.hpp:77] Creating layer conv4_1
I0418 21:15:57.792299 17086 net.cpp:84] Creating Layer conv4_1
I0418 21:15:57.792310 17086 net.cpp:406] conv4_1 <- pool3_pool3_0_split_0
I0418 21:15:57.792321 17086 net.cpp:380] conv4_1 -> conv4_1
I0418 21:15:57.802376 17086 net.cpp:122] Setting up conv4_1
I0418 21:15:57.802404 17086 net.cpp:129] Top shape: 1 512 89 64 (2916352)
I0418 21:15:57.802412 17086 net.cpp:137] Memory required for data: 773858828
I0418 21:15:57.802446 17086 layer_factory.hpp:77] Creating layer relu4_1
I0418 21:15:57.802462 17086 net.cpp:84] Creating Layer relu4_1
I0418 21:15:57.802476 17086 net.cpp:406] relu4_1 <- conv4_1
I0418 21:15:57.802487 17086 net.cpp:367] relu4_1 -> conv4_1 (in-place)
I0418 21:15:57.803107 17086 net.cpp:122] Setting up relu4_1
I0418 21:15:57.803144 17086 net.cpp:129] Top shape: 1 512 89 64 (2916352)
I0418 21:15:57.803155 17086 net.cpp:137] Memory required for data: 785524236
I0418 21:15:57.803161 17086 layer_factory.hpp:77] Creating layer conv4_2
I0418 21:15:57.803179 17086 net.cpp:84] Creating Layer conv4_2
I0418 21:15:57.803202 17086 net.cpp:406] conv4_2 <- conv4_1
I0418 21:15:57.803215 17086 net.cpp:380] conv4_2 -> conv4_2
I0418 21:15:57.821897 17086 net.cpp:122] Setting up conv4_2
I0418 21:15:57.821981 17086 net.cpp:129] Top shape: 1 512 89 64 (2916352)
I0418 21:15:57.821991 17086 net.cpp:137] Memory required for data: 797189644
I0418 21:15:57.822067 17086 layer_factory.hpp:77] Creating layer relu4_2
I0418 21:15:57.822096 17086 net.cpp:84] Creating Layer relu4_2
I0418 21:15:57.822115 17086 net.cpp:406] relu4_2 <- conv4_2
I0418 21:15:57.822136 17086 net.cpp:367] relu4_2 -> conv4_2 (in-place)
I0418 21:15:57.823567 17086 net.cpp:122] Setting up relu4_2
I0418 21:15:57.823606 17086 net.cpp:129] Top shape: 1 512 89 64 (2916352)
I0418 21:15:57.823614 17086 net.cpp:137] Memory required for data: 808855052
I0418 21:15:57.823621 17086 layer_factory.hpp:77] Creating layer conv4_3
I0418 21:15:57.823635 17086 net.cpp:84] Creating Layer conv4_3
I0418 21:15:57.823664 17086 net.cpp:406] conv4_3 <- conv4_2
I0418 21:15:57.823683 17086 net.cpp:380] conv4_3 -> conv4_3
I0418 21:15:57.839100 17086 net.cpp:122] Setting up conv4_3
I0418 21:15:57.839175 17086 net.cpp:129] Top shape: 1 512 89 64 (2916352)
I0418 21:15:57.839188 17086 net.cpp:137] Memory required for data: 820520460
I0418 21:15:57.839229 17086 layer_factory.hpp:77] Creating layer relu4_3
I0418 21:15:57.839260 17086 net.cpp:84] Creating Layer relu4_3
I0418 21:15:57.839280 17086 net.cpp:406] relu4_3 <- conv4_3
I0418 21:15:57.839326 17086 net.cpp:367] relu4_3 -> conv4_3 (in-place)
I0418 21:15:57.841311 17086 net.cpp:122] Setting up relu4_3
I0418 21:15:57.841357 17086 net.cpp:129] Top shape: 1 512 89 64 (2916352)
I0418 21:15:57.841370 17086 net.cpp:137] Memory required for data: 832185868
I0418 21:15:57.841382 17086 layer_factory.hpp:77] Creating layer pool4
I0418 21:15:57.841418 17086 net.cpp:84] Creating Layer pool4
I0418 21:15:57.841434 17086 net.cpp:406] pool4 <- conv4_3
I0418 21:15:57.841449 17086 net.cpp:380] pool4 -> pool4
I0418 21:15:57.841681 17086 net.cpp:122] Setting up pool4
I0418 21:15:57.841707 17086 net.cpp:129] Top shape: 1 512 45 32 (737280)
I0418 21:15:57.841713 17086 net.cpp:137] Memory required for data: 835134988
I0418 21:15:57.841724 17086 layer_factory.hpp:77] Creating layer pool4_pool4_0_split
I0418 21:15:57.841743 17086 net.cpp:84] Creating Layer pool4_pool4_0_split
I0418 21:15:57.841763 17086 net.cpp:406] pool4_pool4_0_split <- pool4
I0418 21:15:57.841780 17086 net.cpp:380] pool4_pool4_0_split -> pool4_pool4_0_split_0
I0418 21:15:57.841794 17086 net.cpp:380] pool4_pool4_0_split -> pool4_pool4_0_split_1
I0418 21:15:57.841948 17086 net.cpp:122] Setting up pool4_pool4_0_split
I0418 21:15:57.841966 17086 net.cpp:129] Top shape: 1 512 45 32 (737280)
I0418 21:15:57.841979 17086 net.cpp:129] Top shape: 1 512 45 32 (737280)
I0418 21:15:57.841985 17086 net.cpp:137] Memory required for data: 841033228
I0418 21:15:57.841992 17086 layer_factory.hpp:77] Creating layer conv5_1
I0418 21:15:57.842020 17086 net.cpp:84] Creating Layer conv5_1
I0418 21:15:57.842036 17086 net.cpp:406] conv5_1 <- pool4_pool4_0_split_0
I0418 21:15:57.842054 17086 net.cpp:380] conv5_1 -> conv5_1
I0418 21:15:57.860397 17086 net.cpp:122] Setting up conv5_1
I0418 21:15:57.860447 17086 net.cpp:129] Top shape: 1 512 45 32 (737280)
I0418 21:15:57.860453 17086 net.cpp:137] Memory required for data: 843982348
I0418 21:15:57.860467 17086 layer_factory.hpp:77] Creating layer relu5_1
I0418 21:15:57.860481 17086 net.cpp:84] Creating Layer relu5_1
I0418 21:15:57.860488 17086 net.cpp:406] relu5_1 <- conv5_1
I0418 21:15:57.860512 17086 net.cpp:367] relu5_1 -> conv5_1 (in-place)
I0418 21:15:57.861122 17086 net.cpp:122] Setting up relu5_1
I0418 21:15:57.861158 17086 net.cpp:129] Top shape: 1 512 45 32 (737280)
I0418 21:15:57.861166 17086 net.cpp:137] Memory required for data: 846931468
I0418 21:15:57.861181 17086 layer_factory.hpp:77] Creating layer conv5_2
I0418 21:15:57.861227 17086 net.cpp:84] Creating Layer conv5_2
I0418 21:15:57.861237 17086 net.cpp:406] conv5_2 <- conv5_1
I0418 21:15:57.861261 17086 net.cpp:380] conv5_2 -> conv5_2
I0418 21:15:57.880447 17086 net.cpp:122] Setting up conv5_2
I0418 21:15:57.880550 17086 net.cpp:129] Top shape: 1 512 45 32 (737280)
I0418 21:15:57.880570 17086 net.cpp:137] Memory required for data: 849880588
I0418 21:15:57.880609 17086 layer_factory.hpp:77] Creating layer relu5_2
I0418 21:15:57.880692 17086 net.cpp:84] Creating Layer relu5_2
I0418 21:15:57.880722 17086 net.cpp:406] relu5_2 <- conv5_2
I0418 21:15:57.880738 17086 net.cpp:367] relu5_2 -> conv5_2 (in-place)
I0418 21:15:57.881717 17086 net.cpp:122] Setting up relu5_2
I0418 21:15:57.881762 17086 net.cpp:129] Top shape: 1 512 45 32 (737280)
I0418 21:15:57.881774 17086 net.cpp:137] Memory required for data: 852829708
I0418 21:15:57.881794 17086 layer_factory.hpp:77] Creating layer conv5_3
I0418 21:15:57.881844 17086 net.cpp:84] Creating Layer conv5_3
I0418 21:15:57.881872 17086 net.cpp:406] conv5_3 <- conv5_2
I0418 21:15:57.881922 17086 net.cpp:380] conv5_3 -> conv5_3
I0418 21:15:57.899972 17086 net.cpp:122] Setting up conv5_3
I0418 21:15:57.900063 17086 net.cpp:129] Top shape: 1 512 45 32 (737280)
I0418 21:15:57.900075 17086 net.cpp:137] Memory required for data: 855778828
I0418 21:15:57.900126 17086 layer_factory.hpp:77] Creating layer relu5_3
I0418 21:15:57.900156 17086 net.cpp:84] Creating Layer relu5_3
I0418 21:15:57.900188 17086 net.cpp:406] relu5_3 <- conv5_3
I0418 21:15:57.900216 17086 net.cpp:367] relu5_3 -> conv5_3 (in-place)
I0418 21:15:57.900955 17086 net.cpp:122] Setting up relu5_3
I0418 21:15:57.900990 17086 net.cpp:129] Top shape: 1 512 45 32 (737280)
I0418 21:15:57.900996 17086 net.cpp:137] Memory required for data: 858727948
I0418 21:15:57.901005 17086 layer_factory.hpp:77] Creating layer pool5
I0418 21:15:57.901031 17086 net.cpp:84] Creating Layer pool5
I0418 21:15:57.901046 17086 net.cpp:406] pool5 <- conv5_3
I0418 21:15:57.901062 17086 net.cpp:380] pool5 -> pool5
I0418 21:15:57.901266 17086 net.cpp:122] Setting up pool5
I0418 21:15:57.901290 17086 net.cpp:129] Top shape: 1 512 23 16 (188416)
I0418 21:15:57.901295 17086 net.cpp:137] Memory required for data: 859481612
I0418 21:15:57.901302 17086 layer_factory.hpp:77] Creating layer fc6
I0418 21:15:57.901335 17086 net.cpp:84] Creating Layer fc6
I0418 21:15:57.901350 17086 net.cpp:406] fc6 <- pool5
I0418 21:15:57.901363 17086 net.cpp:380] fc6 -> fc6
I0418 21:15:58.384846 17086 net.cpp:122] Setting up fc6
I0418 21:15:58.384902 17086 net.cpp:129] Top shape: 1 4096 17 10 (696320)
I0418 21:15:58.384913 17086 net.cpp:137] Memory required for data: 862266892
I0418 21:15:58.384938 17086 layer_factory.hpp:77] Creating layer relu6
I0418 21:15:58.384977 17086 net.cpp:84] Creating Layer relu6
I0418 21:15:58.384987 17086 net.cpp:406] relu6 <- fc6
I0418 21:15:58.385011 17086 net.cpp:367] relu6 -> fc6 (in-place)
I0418 21:15:58.385522 17086 net.cpp:122] Setting up relu6
I0418 21:15:58.385555 17086 net.cpp:129] Top shape: 1 4096 17 10 (696320)
I0418 21:15:58.385578 17086 net.cpp:137] Memory required for data: 865052172
I0418 21:15:58.385584 17086 layer_factory.hpp:77] Creating layer drop6
I0418 21:15:58.385637 17086 net.cpp:84] Creating Layer drop6
I0418 21:15:58.385648 17086 net.cpp:406] drop6 <- fc6
I0418 21:15:58.385664 17086 net.cpp:367] drop6 -> fc6 (in-place)
I0418 21:15:58.385757 17086 net.cpp:122] Setting up drop6
I0418 21:15:58.385774 17086 net.cpp:129] Top shape: 1 4096 17 10 (696320)
I0418 21:15:58.385781 17086 net.cpp:137] Memory required for data: 867837452
I0418 21:15:58.385787 17086 layer_factory.hpp:77] Creating layer fc7
I0418 21:15:58.385805 17086 net.cpp:84] Creating Layer fc7
I0418 21:15:58.385823 17086 net.cpp:406] fc7 <- fc6
I0418 21:15:58.385834 17086 net.cpp:380] fc7 -> fc7
I0418 21:15:58.465278 17086 net.cpp:122] Setting up fc7
I0418 21:15:58.465351 17086 net.cpp:129] Top shape: 1 4096 17 10 (696320)
I0418 21:15:58.465361 17086 net.cpp:137] Memory required for data: 870622732
I0418 21:15:58.465425 17086 layer_factory.hpp:77] Creating layer relu7
I0418 21:15:58.465456 17086 net.cpp:84] Creating Layer relu7
I0418 21:15:58.465492 17086 net.cpp:406] relu7 <- fc7
I0418 21:15:58.465519 17086 net.cpp:367] relu7 -> fc7 (in-place)
I0418 21:15:58.466796 17086 net.cpp:122] Setting up relu7
I0418 21:15:58.466814 17086 net.cpp:129] Top shape: 1 4096 17 10 (696320)
I0418 21:15:58.466816 17086 net.cpp:137] Memory required for data: 873408012
I0418 21:15:58.466822 17086 layer_factory.hpp:77] Creating layer drop7
I0418 21:15:58.466840 17086 net.cpp:84] Creating Layer drop7
I0418 21:15:58.466847 17086 net.cpp:406] drop7 <- fc7
I0418 21:15:58.466858 17086 net.cpp:367] drop7 -> fc7 (in-place)
I0418 21:15:58.466949 17086 net.cpp:122] Setting up drop7
I0418 21:15:58.466974 17086 net.cpp:129] Top shape: 1 4096 17 10 (696320)
I0418 21:15:58.466980 17086 net.cpp:137] Memory required for data: 876193292
I0418 21:15:58.466984 17086 layer_factory.hpp:77] Creating layer score_fr-new
I0418 21:15:58.467003 17086 net.cpp:84] Creating Layer score_fr-new
I0418 21:15:58.467013 17086 net.cpp:406] score_fr-new <- fc7
I0418 21:15:58.467020 17086 net.cpp:380] score_fr-new -> score_fr-new
I0418 21:15:58.468852 17086 net.cpp:122] Setting up score_fr-new
I0418 21:15:58.468868 17086 net.cpp:129] Top shape: 1 3 17 10 (510)
I0418 21:15:58.468871 17086 net.cpp:137] Memory required for data: 876195332
I0418 21:15:58.468878 17086 layer_factory.hpp:77] Creating layer upscore2-new
I0418 21:15:58.468888 17086 net.cpp:84] Creating Layer upscore2-new
I0418 21:15:58.468892 17086 net.cpp:406] upscore2-new <- score_fr-new
I0418 21:15:58.468904 17086 net.cpp:380] upscore2-new -> upscore2-new
I0418 21:15:58.469456 17086 net.cpp:122] Setting up upscore2-new
I0418 21:15:58.469499 17086 net.cpp:129] Top shape: 1 3 36 22 (2376)
I0418 21:15:58.469506 17086 net.cpp:137] Memory required for data: 876204836
I0418 21:15:58.469537 17086 layer_factory.hpp:77] Creating layer upscore2-new_upscore2-new_0_split
I0418 21:15:58.469580 17086 net.cpp:84] Creating Layer upscore2-new_upscore2-new_0_split
I0418 21:15:58.469606 17086 net.cpp:406] upscore2-new_upscore2-new_0_split <- upscore2-new
I0418 21:15:58.469635 17086 net.cpp:380] upscore2-new_upscore2-new_0_split -> upscore2-new_upscore2-new_0_split_0
I0418 21:15:58.469661 17086 net.cpp:380] upscore2-new_upscore2-new_0_split -> upscore2-new_upscore2-new_0_split_1
I0418 21:15:58.469864 17086 net.cpp:122] Setting up upscore2-new_upscore2-new_0_split
I0418 21:15:58.469879 17086 net.cpp:129] Top shape: 1 3 36 22 (2376)
I0418 21:15:58.469888 17086 net.cpp:129] Top shape: 1 3 36 22 (2376)
I0418 21:15:58.469893 17086 net.cpp:137] Memory required for data: 876223844
I0418 21:15:58.469907 17086 layer_factory.hpp:77] Creating layer score_pool4-new
I0418 21:15:58.469925 17086 net.cpp:84] Creating Layer score_pool4-new
I0418 21:15:58.469949 17086 net.cpp:406] score_pool4-new <- pool4_pool4_0_split_1
I0418 21:15:58.469964 17086 net.cpp:380] score_pool4-new -> score_pool4-new
I0418 21:15:58.472687 17086 net.cpp:122] Setting up score_pool4-new
I0418 21:15:58.472730 17086 net.cpp:129] Top shape: 1 3 45 32 (4320)
I0418 21:15:58.472736 17086 net.cpp:137] Memory required for data: 876241124
I0418 21:15:58.472748 17086 layer_factory.hpp:77] Creating layer score_pool4c
I0418 21:15:58.472757 17086 net.cpp:84] Creating Layer score_pool4c
I0418 21:15:58.472766 17086 net.cpp:406] score_pool4c <- score_pool4-new
I0418 21:15:58.472771 17086 net.cpp:406] score_pool4c <- upscore2-new_upscore2-new_0_split_0
I0418 21:15:58.472777 17086 net.cpp:380] score_pool4c -> score_pool4c
I0418 21:15:58.472858 17086 net.cpp:122] Setting up score_pool4c
I0418 21:15:58.472888 17086 net.cpp:129] Top shape: 1 3 36 22 (2376)
I0418 21:15:58.472892 17086 net.cpp:137] Memory required for data: 876250628
I0418 21:15:58.472895 17086 layer_factory.hpp:77] Creating layer fuse_pool4
I0418 21:15:58.472908 17086 net.cpp:84] Creating Layer fuse_pool4
I0418 21:15:58.472914 17086 net.cpp:406] fuse_pool4 <- upscore2-new_upscore2-new_0_split_1
I0418 21:15:58.472929 17086 net.cpp:406] fuse_pool4 <- score_pool4c
I0418 21:15:58.472944 17086 net.cpp:380] fuse_pool4 -> fuse_pool4
I0418 21:15:58.472995 17086 net.cpp:122] Setting up fuse_pool4
I0418 21:15:58.473011 17086 net.cpp:129] Top shape: 1 3 36 22 (2376)
I0418 21:15:58.473016 17086 net.cpp:137] Memory required for data: 876260132
I0418 21:15:58.473023 17086 layer_factory.hpp:77] Creating layer upscore_pool4-new
I0418 21:15:58.473044 17086 net.cpp:84] Creating Layer upscore_pool4-new
I0418 21:15:58.473052 17086 net.cpp:406] upscore_pool4-new <- fuse_pool4
I0418 21:15:58.473076 17086 net.cpp:380] upscore_pool4-new -> upscore_pool4-new
I0418 21:15:58.473717 17086 net.cpp:122] Setting up upscore_pool4-new
I0418 21:15:58.473749 17086 net.cpp:129] Top shape: 1 3 74 46 (10212)
I0418 21:15:58.473758 17086 net.cpp:137] Memory required for data: 876300980
I0418 21:15:58.473764 17086 layer_factory.hpp:77] Creating layer upscore_pool4-new_upscore_pool4-new_0_split
I0418 21:15:58.473772 17086 net.cpp:84] Creating Layer upscore_pool4-new_upscore_pool4-new_0_split
I0418 21:15:58.473774 17086 net.cpp:406] upscore_pool4-new_upscore_pool4-new_0_split <- upscore_pool4-new
I0418 21:15:58.473784 17086 net.cpp:380] upscore_pool4-new_upscore_pool4-new_0_split -> upscore_pool4-new_upscore_pool4-new_0_split_0
I0418 21:15:58.473796 17086 net.cpp:380] upscore_pool4-new_upscore_pool4-new_0_split -> upscore_pool4-new_upscore_pool4-new_0_split_1
I0418 21:15:58.473974 17086 net.cpp:122] Setting up upscore_pool4-new_upscore_pool4-new_0_split
I0418 21:15:58.473985 17086 net.cpp:129] Top shape: 1 3 74 46 (10212)
I0418 21:15:58.474007 17086 net.cpp:129] Top shape: 1 3 74 46 (10212)
I0418 21:15:58.474016 17086 net.cpp:137] Memory required for data: 876382676
I0418 21:15:58.474022 17086 layer_factory.hpp:77] Creating layer score_pool3-new
I0418 21:15:58.474051 17086 net.cpp:84] Creating Layer score_pool3-new
I0418 21:15:58.474063 17086 net.cpp:406] score_pool3-new <- pool3_pool3_0_split_1
I0418 21:15:58.474084 17086 net.cpp:380] score_pool3-new -> score_pool3-new
I0418 21:15:58.477437 17086 net.cpp:122] Setting up score_pool3-new
I0418 21:15:58.477463 17086 net.cpp:129] Top shape: 1 3 89 64 (17088)
I0418 21:15:58.477469 17086 net.cpp:137] Memory required for data: 876451028
I0418 21:15:58.477478 17086 layer_factory.hpp:77] Creating layer score_pool3c
I0418 21:15:58.477506 17086 net.cpp:84] Creating Layer score_pool3c
I0418 21:15:58.477510 17086 net.cpp:406] score_pool3c <- score_pool3-new
I0418 21:15:58.477517 17086 net.cpp:406] score_pool3c <- upscore_pool4-new_upscore_pool4-new_0_split_0
I0418 21:15:58.477529 17086 net.cpp:380] score_pool3c -> score_pool3c
I0418 21:15:58.477586 17086 net.cpp:122] Setting up score_pool3c
I0418 21:15:58.477599 17086 net.cpp:129] Top shape: 1 3 74 46 (10212)
I0418 21:15:58.477604 17086 net.cpp:137] Memory required for data: 876491876
I0418 21:15:58.477613 17086 layer_factory.hpp:77] Creating layer fuse_pool3
I0418 21:15:58.477627 17086 net.cpp:84] Creating Layer fuse_pool3
I0418 21:15:58.477632 17086 net.cpp:406] fuse_pool3 <- upscore_pool4-new_upscore_pool4-new_0_split_1
I0418 21:15:58.477638 17086 net.cpp:406] fuse_pool3 <- score_pool3c
I0418 21:15:58.477643 17086 net.cpp:380] fuse_pool3 -> fuse_pool3
I0418 21:15:58.477710 17086 net.cpp:122] Setting up fuse_pool3
I0418 21:15:58.477720 17086 net.cpp:129] Top shape: 1 3 74 46 (10212)
I0418 21:15:58.477726 17086 net.cpp:137] Memory required for data: 876532724
I0418 21:15:58.477732 17086 layer_factory.hpp:77] Creating layer upscore8-new
I0418 21:15:58.477752 17086 net.cpp:84] Creating Layer upscore8-new
I0418 21:15:58.477762 17086 net.cpp:406] upscore8-new <- fuse_pool3
I0418 21:15:58.477768 17086 net.cpp:380] upscore8-new -> upscore8-new
I0418 21:15:58.478675 17086 net.cpp:122] Setting up upscore8-new
I0418 21:15:58.478694 17086 net.cpp:129] Top shape: 1 3 600 376 (676800)
I0418 21:15:58.478698 17086 net.cpp:137] Memory required for data: 879239924
I0418 21:15:58.478709 17086 layer_factory.hpp:77] Creating layer upscore8_cropped
I0418 21:15:58.478724 17086 net.cpp:84] Creating Layer upscore8_cropped
I0418 21:15:58.478732 17086 net.cpp:406] upscore8_cropped <- upscore8-new
I0418 21:15:58.478746 17086 net.cpp:406] upscore8_cropped <- data_data_0_split_1
I0418 21:15:58.478758 17086 net.cpp:380] upscore8_cropped -> upscore8_cropped
I0418 21:15:58.478832 17086 net.cpp:122] Setting up upscore8_cropped
I0418 21:15:58.478842 17086 net.cpp:129] Top shape: 1 3 512 310 (476160)
I0418 21:15:58.478850 17086 net.cpp:137] Memory required for data: 881144564
I0418 21:15:58.478859 17086 layer_factory.hpp:77] Creating layer score
I0418 21:15:58.478889 17086 net.cpp:84] Creating Layer score
I0418 21:15:58.478900 17086 net.cpp:406] score <- upscore8_cropped
I0418 21:15:58.478911 17086 net.cpp:380] score -> score
I0418 21:15:58.482802 17086 net.cpp:122] Setting up score
I0418 21:15:58.482836 17086 net.cpp:129] Top shape: 1 3 512 310 (476160)
I0418 21:15:58.482853 17086 net.cpp:137] Memory required for data: 883049204
I0418 21:15:58.482863 17086 layer_factory.hpp:77] Creating layer score_score_0_split
I0418 21:15:58.482873 17086 net.cpp:84] Creating Layer score_score_0_split
I0418 21:15:58.482879 17086 net.cpp:406] score_score_0_split <- score
I0418 21:15:58.482894 17086 net.cpp:380] score_score_0_split -> score_score_0_split_0
I0418 21:15:58.482908 17086 net.cpp:380] score_score_0_split -> score_score_0_split_1
I0418 21:15:58.483018 17086 net.cpp:122] Setting up score_score_0_split
I0418 21:15:58.483029 17086 net.cpp:129] Top shape: 1 3 512 310 (476160)
I0418 21:15:58.483036 17086 net.cpp:129] Top shape: 1 3 512 310 (476160)
I0418 21:15:58.483038 17086 net.cpp:137] Memory required for data: 886858484
I0418 21:15:58.483054 17086 layer_factory.hpp:77] Creating layer prob
I0418 21:15:58.483065 17086 net.cpp:84] Creating Layer prob
I0418 21:15:58.483072 17086 net.cpp:406] prob <- score_score_0_split_0
I0418 21:15:58.483085 17086 net.cpp:380] prob -> prob
I0418 21:15:58.483639 17086 net.cpp:122] Setting up prob
I0418 21:15:58.483652 17086 net.cpp:129] Top shape: 1 3 512 310 (476160)
I0418 21:15:58.483659 17086 net.cpp:137] Memory required for data: 888763124
I0418 21:15:58.483665 17086 layer_factory.hpp:77] Creating layer saliency
I0418 21:15:58.483695 17086 net.cpp:84] Creating Layer saliency
I0418 21:15:58.483700 17086 net.cpp:406] saliency <- prob
I0418 21:15:58.483714 17086 net.cpp:380] saliency -> saliency
I0418 21:15:58.488646 17086 net.cpp:122] Setting up saliency
I0418 21:15:58.488695 17086 net.cpp:129] Top shape: 1 3 512 310 (476160)
I0418 21:15:58.488704 17086 net.cpp:137] Memory required for data: 890667764
I0418 21:15:58.488723 17086 layer_factory.hpp:77] Creating layer saliency_data
I0418 21:15:58.488740 17086 net.cpp:84] Creating Layer saliency_data
I0418 21:15:58.488749 17086 net.cpp:406] saliency_data <- data_data_0_split_2
I0418 21:15:58.488765 17086 net.cpp:406] saliency_data <- saliency
I0418 21:15:58.488778 17086 net.cpp:380] saliency_data -> saliency_data
I0418 21:15:58.488915 17086 net.cpp:122] Setting up saliency_data
I0418 21:15:58.488932 17086 net.cpp:129] Top shape: 1 3 512 310 (476160)
I0418 21:15:58.488940 17086 net.cpp:137] Memory required for data: 892572404
I0418 21:15:58.488950 17086 layer_factory.hpp:77] Creating layer crop
I0418 21:15:58.489181 17086 net.cpp:84] Creating Layer crop
I0418 21:15:58.489192 17086 net.cpp:406] crop <- label_data_1_split_0
I0418 21:15:58.489204 17086 net.cpp:406] crop <- saliency_data
I0418 21:15:58.489222 17086 net.cpp:406] crop <- crop_margin
I0418 21:15:58.489231 17086 net.cpp:406] crop <- crop_prob
I0418 21:15:58.489234 17086 net.cpp:406] crop <- crop_sample_batch
I0418 21:15:58.489255 17086 net.cpp:380] crop -> data-R
I0418 21:15:58.489272 17086 net.cpp:380] crop -> crop_info
I0418 21:15:58.499176 17086 net.cpp:122] Setting up crop
I0418 21:15:58.499240 17086 net.cpp:129] Top shape: 1 3 512 310 (476160)
I0418 21:15:58.499266 17086 net.cpp:129] Top shape: 1 2 4 (8)
I0418 21:15:58.499275 17086 net.cpp:137] Memory required for data: 894477076
I0418 21:15:58.499287 17086 layer_factory.hpp:77] Creating layer data-R_crop_0_split
I0418 21:15:58.499300 17086 net.cpp:84] Creating Layer data-R_crop_0_split
I0418 21:15:58.499306 17086 net.cpp:406] data-R_crop_0_split <- data-R
I0418 21:15:58.499331 17086 net.cpp:380] data-R_crop_0_split -> data-R_crop_0_split_0
I0418 21:15:58.499380 17086 net.cpp:380] data-R_crop_0_split -> data-R_crop_0_split_1
I0418 21:15:58.499606 17086 net.cpp:122] Setting up data-R_crop_0_split
I0418 21:15:58.499622 17086 net.cpp:129] Top shape: 1 3 512 310 (476160)
I0418 21:15:58.499630 17086 net.cpp:129] Top shape: 1 3 512 310 (476160)
I0418 21:15:58.499636 17086 net.cpp:137] Memory required for data: 898286356
I0418 21:15:58.499650 17086 layer_factory.hpp:77] Creating layer conv1_1-R
I0418 21:15:58.499676 17086 net.cpp:84] Creating Layer conv1_1-R
I0418 21:15:58.499682 17086 net.cpp:406] conv1_1-R <- data-R_crop_0_split_0
I0418 21:15:58.499711 17086 net.cpp:380] conv1_1-R -> conv1_1-R
I0418 21:15:58.504652 17086 net.cpp:122] Setting up conv1_1-R
I0418 21:15:58.504688 17086 net.cpp:129] Top shape: 1 64 710 508 (23083520)
I0418 21:15:58.504694 17086 net.cpp:137] Memory required for data: 990620436
I0418 21:15:58.504709 17086 layer_factory.hpp:77] Creating layer relu1_1-R
I0418 21:15:58.504725 17086 net.cpp:84] Creating Layer relu1_1-R
I0418 21:15:58.504735 17086 net.cpp:406] relu1_1-R <- conv1_1-R
I0418 21:15:58.504748 17086 net.cpp:367] relu1_1-R -> conv1_1-R (in-place)
I0418 21:15:58.506076 17086 net.cpp:122] Setting up relu1_1-R
I0418 21:15:58.506120 17086 net.cpp:129] Top shape: 1 64 710 508 (23083520)
I0418 21:15:58.506127 17086 net.cpp:137] Memory required for data: 1082954516
I0418 21:15:58.506135 17086 layer_factory.hpp:77] Creating layer conv1_2-R
I0418 21:15:58.506225 17086 net.cpp:84] Creating Layer conv1_2-R
I0418 21:15:58.506258 17086 net.cpp:406] conv1_2-R <- conv1_1-R
I0418 21:15:58.506275 17086 net.cpp:380] conv1_2-R -> conv1_2-R
I0418 21:15:58.513012 17086 net.cpp:122] Setting up conv1_2-R
I0418 21:15:58.513069 17086 net.cpp:129] Top shape: 1 64 710 508 (23083520)
I0418 21:15:58.513074 17086 net.cpp:137] Memory required for data: 1175288596
I0418 21:15:58.513098 17086 layer_factory.hpp:77] Creating layer relu1_2-R
I0418 21:15:58.513111 17086 net.cpp:84] Creating Layer relu1_2-R
I0418 21:15:58.513128 17086 net.cpp:406] relu1_2-R <- conv1_2-R
I0418 21:15:58.513144 17086 net.cpp:367] relu1_2-R -> conv1_2-R (in-place)
I0418 21:15:58.516832 17086 net.cpp:122] Setting up relu1_2-R
I0418 21:15:58.516907 17086 net.cpp:129] Top shape: 1 64 710 508 (23083520)
I0418 21:15:58.516978 17086 net.cpp:137] Memory required for data: 1267622676
I0418 21:15:58.517010 17086 layer_factory.hpp:77] Creating layer pool1-R
I0418 21:15:58.517110 17086 net.cpp:84] Creating Layer pool1-R
I0418 21:15:58.517122 17086 net.cpp:406] pool1-R <- conv1_2-R
I0418 21:15:58.517158 17086 net.cpp:380] pool1-R -> pool1-R
I0418 21:15:58.517791 17086 net.cpp:122] Setting up pool1-R
I0418 21:15:58.517851 17086 net.cpp:129] Top shape: 1 64 355 254 (5770880)
I0418 21:15:58.517879 17086 net.cpp:137] Memory required for data: 1290706196
I0418 21:15:58.517911 17086 layer_factory.hpp:77] Creating layer conv2_1-R
I0418 21:15:58.517963 17086 net.cpp:84] Creating Layer conv2_1-R
I0418 21:15:58.517974 17086 net.cpp:406] conv2_1-R <- pool1-R
I0418 21:15:58.518033 17086 net.cpp:380] conv2_1-R -> conv2_1-R
I0418 21:15:58.531641 17086 net.cpp:122] Setting up conv2_1-R
I0418 21:15:58.531679 17086 net.cpp:129] Top shape: 1 128 355 254 (11541760)
I0418 21:15:58.531688 17086 net.cpp:137] Memory required for data: 1336873236
I0418 21:15:58.531710 17086 layer_factory.hpp:77] Creating layer relu2_1-R
I0418 21:15:58.531734 17086 net.cpp:84] Creating Layer relu2_1-R
I0418 21:15:58.531745 17086 net.cpp:406] relu2_1-R <- conv2_1-R
I0418 21:15:58.531751 17086 net.cpp:367] relu2_1-R -> conv2_1-R (in-place)
I0418 21:15:58.532397 17086 net.cpp:122] Setting up relu2_1-R
I0418 21:15:58.532447 17086 net.cpp:129] Top shape: 1 128 355 254 (11541760)
I0418 21:15:58.532451 17086 net.cpp:137] Memory required for data: 1383040276
I0418 21:15:58.532455 17086 layer_factory.hpp:77] Creating layer conv2_2-R
I0418 21:15:58.532475 17086 net.cpp:84] Creating Layer conv2_2-R
I0418 21:15:58.532500 17086 net.cpp:406] conv2_2-R <- conv2_1-R
I0418 21:15:58.532531 17086 net.cpp:380] conv2_2-R -> conv2_2-R
I0418 21:15:58.540940 17086 net.cpp:122] Setting up conv2_2-R
I0418 21:15:58.540997 17086 net.cpp:129] Top shape: 1 128 355 254 (11541760)
I0418 21:15:58.541010 17086 net.cpp:137] Memory required for data: 1429207316
I0418 21:15:58.541023 17086 layer_factory.hpp:77] Creating layer relu2_2-R
I0418 21:15:58.541029 17086 net.cpp:84] Creating Layer relu2_2-R
I0418 21:15:58.541044 17086 net.cpp:406] relu2_2-R <- conv2_2-R
I0418 21:15:58.541050 17086 net.cpp:367] relu2_2-R -> conv2_2-R (in-place)
I0418 21:15:58.541622 17086 net.cpp:122] Setting up relu2_2-R
I0418 21:15:58.541656 17086 net.cpp:129] Top shape: 1 128 355 254 (11541760)
I0418 21:15:58.541661 17086 net.cpp:137] Memory required for data: 1475374356
I0418 21:15:58.541667 17086 layer_factory.hpp:77] Creating layer pool2-R
I0418 21:15:58.541698 17086 net.cpp:84] Creating Layer pool2-R
I0418 21:15:58.541707 17086 net.cpp:406] pool2-R <- conv2_2-R
I0418 21:15:58.541714 17086 net.cpp:380] pool2-R -> pool2-R
I0418 21:15:58.541889 17086 net.cpp:122] Setting up pool2-R
I0418 21:15:58.541901 17086 net.cpp:129] Top shape: 1 128 178 127 (2893568)
I0418 21:15:58.541905 17086 net.cpp:137] Memory required for data: 1486948628
I0418 21:15:58.541910 17086 layer_factory.hpp:77] Creating layer conv3_1-R
I0418 21:15:58.541920 17086 net.cpp:84] Creating Layer conv3_1-R
I0418 21:15:58.541924 17086 net.cpp:406] conv3_1-R <- pool2-R
I0418 21:15:58.541934 17086 net.cpp:380] conv3_1-R -> conv3_1-R
I0418 21:15:58.550369 17086 net.cpp:122] Setting up conv3_1-R
I0418 21:15:58.550412 17086 net.cpp:129] Top shape: 1 256 178 127 (5787136)
I0418 21:15:58.550420 17086 net.cpp:137] Memory required for data: 1510097172
I0418 21:15:58.550441 17086 layer_factory.hpp:77] Creating layer relu3_1-R
I0418 21:15:58.550479 17086 net.cpp:84] Creating Layer relu3_1-R
I0418 21:15:58.550490 17086 net.cpp:406] relu3_1-R <- conv3_1-R
I0418 21:15:58.550506 17086 net.cpp:367] relu3_1-R -> conv3_1-R (in-place)
I0418 21:15:58.551172 17086 net.cpp:122] Setting up relu3_1-R
I0418 21:15:58.551234 17086 net.cpp:129] Top shape: 1 256 178 127 (5787136)
I0418 21:15:58.551241 17086 net.cpp:137] Memory required for data: 1533245716
I0418 21:15:58.551261 17086 layer_factory.hpp:77] Creating layer conv3_2-R
I0418 21:15:58.551282 17086 net.cpp:84] Creating Layer conv3_2-R
I0418 21:15:58.551286 17086 net.cpp:406] conv3_2-R <- conv3_1-R
I0418 21:15:58.551295 17086 net.cpp:380] conv3_2-R -> conv3_2-R
I0418 21:15:58.560694 17086 net.cpp:122] Setting up conv3_2-R
I0418 21:15:58.560755 17086 net.cpp:129] Top shape: 1 256 178 127 (5787136)
I0418 21:15:58.560773 17086 net.cpp:137] Memory required for data: 1556394260
I0418 21:15:58.560801 17086 layer_factory.hpp:77] Creating layer relu3_2-R
I0418 21:15:58.560825 17086 net.cpp:84] Creating Layer relu3_2-R
I0418 21:15:58.560835 17086 net.cpp:406] relu3_2-R <- conv3_2-R
I0418 21:15:58.560858 17086 net.cpp:367] relu3_2-R -> conv3_2-R (in-place)
I0418 21:15:58.561550 17086 net.cpp:122] Setting up relu3_2-R
I0418 21:15:58.561595 17086 net.cpp:129] Top shape: 1 256 178 127 (5787136)
I0418 21:15:58.561601 17086 net.cpp:137] Memory required for data: 1579542804
I0418 21:15:58.561614 17086 layer_factory.hpp:77] Creating layer conv3_3-R
I0418 21:15:58.561633 17086 net.cpp:84] Creating Layer conv3_3-R
I0418 21:15:58.561648 17086 net.cpp:406] conv3_3-R <- conv3_2-R
I0418 21:15:58.561676 17086 net.cpp:380] conv3_3-R -> conv3_3-R
I0418 21:15:58.571611 17086 net.cpp:122] Setting up conv3_3-R
I0418 21:15:58.571660 17086 net.cpp:129] Top shape: 1 256 178 127 (5787136)
I0418 21:15:58.571671 17086 net.cpp:137] Memory required for data: 1602691348
I0418 21:15:58.571687 17086 layer_factory.hpp:77] Creating layer relu3_3-R
I0418 21:15:58.571707 17086 net.cpp:84] Creating Layer relu3_3-R
I0418 21:15:58.571724 17086 net.cpp:406] relu3_3-R <- conv3_3-R
I0418 21:15:58.571760 17086 net.cpp:367] relu3_3-R -> conv3_3-R (in-place)
I0418 21:15:58.574132 17086 net.cpp:122] Setting up relu3_3-R
I0418 21:15:58.574203 17086 net.cpp:129] Top shape: 1 256 178 127 (5787136)
I0418 21:15:58.574214 17086 net.cpp:137] Memory required for data: 1625839892
I0418 21:15:58.574232 17086 layer_factory.hpp:77] Creating layer pool3-R
I0418 21:15:58.574271 17086 net.cpp:84] Creating Layer pool3-R
I0418 21:15:58.574308 17086 net.cpp:406] pool3-R <- conv3_3-R
I0418 21:15:58.574337 17086 net.cpp:380] pool3-R -> pool3-R
I0418 21:15:58.574615 17086 net.cpp:122] Setting up pool3-R
I0418 21:15:58.574671 17086 net.cpp:129] Top shape: 1 256 89 64 (1458176)
I0418 21:15:58.574684 17086 net.cpp:137] Memory required for data: 1631672596
I0418 21:15:58.574692 17086 layer_factory.hpp:77] Creating layer pool3-R_pool3-R_0_split
I0418 21:15:58.574713 17086 net.cpp:84] Creating Layer pool3-R_pool3-R_0_split
I0418 21:15:58.574721 17086 net.cpp:406] pool3-R_pool3-R_0_split <- pool3-R
I0418 21:15:58.574740 17086 net.cpp:380] pool3-R_pool3-R_0_split -> pool3-R_pool3-R_0_split_0
I0418 21:15:58.574774 17086 net.cpp:380] pool3-R_pool3-R_0_split -> pool3-R_pool3-R_0_split_1
I0418 21:15:58.574971 17086 net.cpp:122] Setting up pool3-R_pool3-R_0_split
I0418 21:15:58.574996 17086 net.cpp:129] Top shape: 1 256 89 64 (1458176)
I0418 21:15:58.575009 17086 net.cpp:129] Top shape: 1 256 89 64 (1458176)
I0418 21:15:58.575016 17086 net.cpp:137] Memory required for data: 1643338004
I0418 21:15:58.575032 17086 layer_factory.hpp:77] Creating layer conv4_1-R
I0418 21:15:58.575074 17086 net.cpp:84] Creating Layer conv4_1-R
I0418 21:15:58.575086 17086 net.cpp:406] conv4_1-R <- pool3-R_pool3-R_0_split_0
I0418 21:15:58.575111 17086 net.cpp:380] conv4_1-R -> conv4_1-R
I0418 21:15:58.588549 17086 net.cpp:122] Setting up conv4_1-R
I0418 21:15:58.588593 17086 net.cpp:129] Top shape: 1 512 89 64 (2916352)
I0418 21:15:58.588603 17086 net.cpp:137] Memory required for data: 1655003412
I0418 21:15:58.588624 17086 layer_factory.hpp:77] Creating layer relu4_1-R
I0418 21:15:58.588649 17086 net.cpp:84] Creating Layer relu4_1-R
I0418 21:15:58.588663 17086 net.cpp:406] relu4_1-R <- conv4_1-R
I0418 21:15:58.588685 17086 net.cpp:367] relu4_1-R -> conv4_1-R (in-place)
I0418 21:15:58.590524 17086 net.cpp:122] Setting up relu4_1-R
I0418 21:15:58.590549 17086 net.cpp:129] Top shape: 1 512 89 64 (2916352)
I0418 21:15:58.590574 17086 net.cpp:137] Memory required for data: 1666668820
I0418 21:15:58.590587 17086 layer_factory.hpp:77] Creating layer conv4_2-R
I0418 21:15:58.590616 17086 net.cpp:84] Creating Layer conv4_2-R
I0418 21:15:58.590634 17086 net.cpp:406] conv4_2-R <- conv4_1-R
I0418 21:15:58.590667 17086 net.cpp:380] conv4_2-R -> conv4_2-R
I0418 21:15:58.608978 17086 net.cpp:122] Setting up conv4_2-R
I0418 21:15:58.609037 17086 net.cpp:129] Top shape: 1 512 89 64 (2916352)
I0418 21:15:58.609043 17086 net.cpp:137] Memory required for data: 1678334228
I0418 21:15:58.609060 17086 layer_factory.hpp:77] Creating layer relu4_2-R
I0418 21:15:58.609087 17086 net.cpp:84] Creating Layer relu4_2-R
I0418 21:15:58.609097 17086 net.cpp:406] relu4_2-R <- conv4_2-R
I0418 21:15:58.609112 17086 net.cpp:367] relu4_2-R -> conv4_2-R (in-place)
I0418 21:15:58.609582 17086 net.cpp:122] Setting up relu4_2-R
I0418 21:15:58.609627 17086 net.cpp:129] Top shape: 1 512 89 64 (2916352)
I0418 21:15:58.609637 17086 net.cpp:137] Memory required for data: 1689999636
I0418 21:15:58.609649 17086 layer_factory.hpp:77] Creating layer conv4_3-R
I0418 21:15:58.609690 17086 net.cpp:84] Creating Layer conv4_3-R
I0418 21:15:58.609695 17086 net.cpp:406] conv4_3-R <- conv4_2-R
I0418 21:15:58.609728 17086 net.cpp:380] conv4_3-R -> conv4_3-R
I0418 21:15:58.628772 17086 net.cpp:122] Setting up conv4_3-R
I0418 21:15:58.628860 17086 net.cpp:129] Top shape: 1 512 89 64 (2916352)
I0418 21:15:58.628878 17086 net.cpp:137] Memory required for data: 1701665044
I0418 21:15:58.628908 17086 layer_factory.hpp:77] Creating layer relu4_3-R
I0418 21:15:58.628932 17086 net.cpp:84] Creating Layer relu4_3-R
I0418 21:15:58.628969 17086 net.cpp:406] relu4_3-R <- conv4_3-R
I0418 21:15:58.628988 17086 net.cpp:367] relu4_3-R -> conv4_3-R (in-place)
I0418 21:15:58.629717 17086 net.cpp:122] Setting up relu4_3-R
I0418 21:15:58.629770 17086 net.cpp:129] Top shape: 1 512 89 64 (2916352)
I0418 21:15:58.629781 17086 net.cpp:137] Memory required for data: 1713330452
I0418 21:15:58.629789 17086 layer_factory.hpp:77] Creating layer pool4-R
I0418 21:15:58.629813 17086 net.cpp:84] Creating Layer pool4-R
I0418 21:15:58.629829 17086 net.cpp:406] pool4-R <- conv4_3-R
I0418 21:15:58.629842 17086 net.cpp:380] pool4-R -> pool4-R
I0418 21:15:58.630061 17086 net.cpp:122] Setting up pool4-R
I0418 21:15:58.630081 17086 net.cpp:129] Top shape: 1 512 45 32 (737280)
I0418 21:15:58.630087 17086 net.cpp:137] Memory required for data: 1716279572
I0418 21:15:58.630093 17086 layer_factory.hpp:77] Creating layer pool4-R_pool4-R_0_split
I0418 21:15:58.630120 17086 net.cpp:84] Creating Layer pool4-R_pool4-R_0_split
I0418 21:15:58.630129 17086 net.cpp:406] pool4-R_pool4-R_0_split <- pool4-R
I0418 21:15:58.630137 17086 net.cpp:380] pool4-R_pool4-R_0_split -> pool4-R_pool4-R_0_split_0
I0418 21:15:58.630154 17086 net.cpp:380] pool4-R_pool4-R_0_split -> pool4-R_pool4-R_0_split_1
I0418 21:15:58.630312 17086 net.cpp:122] Setting up pool4-R_pool4-R_0_split
I0418 21:15:58.630331 17086 net.cpp:129] Top shape: 1 512 45 32 (737280)
I0418 21:15:58.630340 17086 net.cpp:129] Top shape: 1 512 45 32 (737280)
I0418 21:15:58.630343 17086 net.cpp:137] Memory required for data: 1722177812
I0418 21:15:58.630348 17086 layer_factory.hpp:77] Creating layer conv5_1-R
I0418 21:15:58.630365 17086 net.cpp:84] Creating Layer conv5_1-R
I0418 21:15:58.630374 17086 net.cpp:406] conv5_1-R <- pool4-R_pool4-R_0_split_0
I0418 21:15:58.630385 17086 net.cpp:380] conv5_1-R -> conv5_1-R
I0418 21:15:58.649386 17086 net.cpp:122] Setting up conv5_1-R
I0418 21:15:58.649430 17086 net.cpp:129] Top shape: 1 512 45 32 (737280)
I0418 21:15:58.649447 17086 net.cpp:137] Memory required for data: 1725126932
I0418 21:15:58.649502 17086 layer_factory.hpp:77] Creating layer relu5_1-R
I0418 21:15:58.649529 17086 net.cpp:84] Creating Layer relu5_1-R
I0418 21:15:58.649547 17086 net.cpp:406] relu5_1-R <- conv5_1-R
I0418 21:15:58.649567 17086 net.cpp:367] relu5_1-R -> conv5_1-R (in-place)
I0418 21:15:58.650204 17086 net.cpp:122] Setting up relu5_1-R
I0418 21:15:58.650224 17086 net.cpp:129] Top shape: 1 512 45 32 (737280)
I0418 21:15:58.650228 17086 net.cpp:137] Memory required for data: 1728076052
I0418 21:15:58.650234 17086 layer_factory.hpp:77] Creating layer conv5_2-R
I0418 21:15:58.650269 17086 net.cpp:84] Creating Layer conv5_2-R
I0418 21:15:58.650279 17086 net.cpp:406] conv5_2-R <- conv5_1-R
I0418 21:15:58.650302 17086 net.cpp:380] conv5_2-R -> conv5_2-R
I0418 21:15:58.668516 17086 net.cpp:122] Setting up conv5_2-R
I0418 21:15:58.668576 17086 net.cpp:129] Top shape: 1 512 45 32 (737280)
I0418 21:15:58.668587 17086 net.cpp:137] Memory required for data: 1731025172
I0418 21:15:58.668615 17086 layer_factory.hpp:77] Creating layer relu5_2-R
I0418 21:15:58.668673 17086 net.cpp:84] Creating Layer relu5_2-R
I0418 21:15:58.668695 17086 net.cpp:406] relu5_2-R <- conv5_2-R
I0418 21:15:58.668715 17086 net.cpp:367] relu5_2-R -> conv5_2-R (in-place)
I0418 21:15:58.669405 17086 net.cpp:122] Setting up relu5_2-R
I0418 21:15:58.669443 17086 net.cpp:129] Top shape: 1 512 45 32 (737280)
I0418 21:15:58.669456 17086 net.cpp:137] Memory required for data: 1733974292
I0418 21:15:58.669461 17086 layer_factory.hpp:77] Creating layer conv5_3-R
I0418 21:15:58.669477 17086 net.cpp:84] Creating Layer conv5_3-R
I0418 21:15:58.669493 17086 net.cpp:406] conv5_3-R <- conv5_2-R
I0418 21:15:58.669533 17086 net.cpp:380] conv5_3-R -> conv5_3-R
I0418 21:15:58.686130 17086 net.cpp:122] Setting up conv5_3-R
I0418 21:15:58.686223 17086 net.cpp:129] Top shape: 1 512 45 32 (737280)
I0418 21:15:58.686252 17086 net.cpp:137] Memory required for data: 1736923412
I0418 21:15:58.686280 17086 layer_factory.hpp:77] Creating layer relu5_3-R
I0418 21:15:58.686302 17086 net.cpp:84] Creating Layer relu5_3-R
I0418 21:15:58.686311 17086 net.cpp:406] relu5_3-R <- conv5_3-R
I0418 21:15:58.686326 17086 net.cpp:367] relu5_3-R -> conv5_3-R (in-place)
I0418 21:15:58.688210 17086 net.cpp:122] Setting up relu5_3-R
I0418 21:15:58.688267 17086 net.cpp:129] Top shape: 1 512 45 32 (737280)
I0418 21:15:58.688277 17086 net.cpp:137] Memory required for data: 1739872532
I0418 21:15:58.688319 17086 layer_factory.hpp:77] Creating layer pool5-R
I0418 21:15:58.688357 17086 net.cpp:84] Creating Layer pool5-R
I0418 21:15:58.688380 17086 net.cpp:406] pool5-R <- conv5_3-R
I0418 21:15:58.688412 17086 net.cpp:380] pool5-R -> pool5-R
I0418 21:15:58.688601 17086 net.cpp:122] Setting up pool5-R
I0418 21:15:58.688621 17086 net.cpp:129] Top shape: 1 512 23 16 (188416)
I0418 21:15:58.688627 17086 net.cpp:137] Memory required for data: 1740626196
I0418 21:15:58.688644 17086 layer_factory.hpp:77] Creating layer fc6-R
I0418 21:15:58.688673 17086 net.cpp:84] Creating Layer fc6-R
I0418 21:15:58.688685 17086 net.cpp:406] fc6-R <- pool5-R
I0418 21:15:58.688704 17086 net.cpp:380] fc6-R -> fc6-R
I0418 21:15:59.106912 17086 net.cpp:122] Setting up fc6-R
I0418 21:15:59.106989 17086 net.cpp:129] Top shape: 1 4096 17 10 (696320)
I0418 21:15:59.106997 17086 net.cpp:137] Memory required for data: 1743411476
I0418 21:15:59.107015 17086 layer_factory.hpp:77] Creating layer relu6-R
I0418 21:15:59.107033 17086 net.cpp:84] Creating Layer relu6-R
I0418 21:15:59.107043 17086 net.cpp:406] relu6-R <- fc6-R
I0418 21:15:59.107056 17086 net.cpp:367] relu6-R -> fc6-R (in-place)
I0418 21:15:59.108634 17086 net.cpp:122] Setting up relu6-R
I0418 21:15:59.108669 17086 net.cpp:129] Top shape: 1 4096 17 10 (696320)
I0418 21:15:59.108674 17086 net.cpp:137] Memory required for data: 1746196756
I0418 21:15:59.108680 17086 layer_factory.hpp:77] Creating layer drop6-R
I0418 21:15:59.108691 17086 net.cpp:84] Creating Layer drop6-R
I0418 21:15:59.108696 17086 net.cpp:406] drop6-R <- fc6-R
I0418 21:15:59.108705 17086 net.cpp:367] drop6-R -> fc6-R (in-place)
I0418 21:15:59.108795 17086 net.cpp:122] Setting up drop6-R
I0418 21:15:59.108803 17086 net.cpp:129] Top shape: 1 4096 17 10 (696320)
I0418 21:15:59.108808 17086 net.cpp:137] Memory required for data: 1748982036
I0418 21:15:59.108814 17086 layer_factory.hpp:77] Creating layer fc7-R
I0418 21:15:59.108829 17086 net.cpp:84] Creating Layer fc7-R
I0418 21:15:59.108836 17086 net.cpp:406] fc7-R <- fc6-R
I0418 21:15:59.108850 17086 net.cpp:380] fc7-R -> fc7-R
I0418 21:15:59.188256 17086 net.cpp:122] Setting up fc7-R
I0418 21:15:59.188303 17086 net.cpp:129] Top shape: 1 4096 17 10 (696320)
I0418 21:15:59.188308 17086 net.cpp:137] Memory required for data: 1751767316
I0418 21:15:59.188345 17086 layer_factory.hpp:77] Creating layer relu7-R
I0418 21:15:59.188367 17086 net.cpp:84] Creating Layer relu7-R
I0418 21:15:59.188374 17086 net.cpp:406] relu7-R <- fc7-R
I0418 21:15:59.188397 17086 net.cpp:367] relu7-R -> fc7-R (in-place)
I0418 21:15:59.188807 17086 net.cpp:122] Setting up relu7-R
I0418 21:15:59.188818 17086 net.cpp:129] Top shape: 1 4096 17 10 (696320)
I0418 21:15:59.188822 17086 net.cpp:137] Memory required for data: 1754552596
I0418 21:15:59.188827 17086 layer_factory.hpp:77] Creating layer drop7-R
I0418 21:15:59.188860 17086 net.cpp:84] Creating Layer drop7-R
I0418 21:15:59.188868 17086 net.cpp:406] drop7-R <- fc7-R
I0418 21:15:59.188875 17086 net.cpp:367] drop7-R -> fc7-R (in-place)
I0418 21:15:59.188988 17086 net.cpp:122] Setting up drop7-R
I0418 21:15:59.188997 17086 net.cpp:129] Top shape: 1 4096 17 10 (696320)
I0418 21:15:59.189002 17086 net.cpp:137] Memory required for data: 1757337876
I0418 21:15:59.189007 17086 layer_factory.hpp:77] Creating layer score_fr-new-R
I0418 21:15:59.189020 17086 net.cpp:84] Creating Layer score_fr-new-R
I0418 21:15:59.189025 17086 net.cpp:406] score_fr-new-R <- fc7-R
I0418 21:15:59.189043 17086 net.cpp:380] score_fr-new-R -> score_fr-new-R
I0418 21:15:59.191958 17086 net.cpp:122] Setting up score_fr-new-R
I0418 21:15:59.191999 17086 net.cpp:129] Top shape: 1 3 17 10 (510)
I0418 21:15:59.192006 17086 net.cpp:137] Memory required for data: 1757339916
I0418 21:15:59.192018 17086 layer_factory.hpp:77] Creating layer upscore2-new-R
I0418 21:15:59.192045 17086 net.cpp:84] Creating Layer upscore2-new-R
I0418 21:15:59.192052 17086 net.cpp:406] upscore2-new-R <- score_fr-new-R
I0418 21:15:59.192067 17086 net.cpp:380] upscore2-new-R -> upscore2-new-R
I0418 21:15:59.192950 17086 net.cpp:122] Setting up upscore2-new-R
I0418 21:15:59.192978 17086 net.cpp:129] Top shape: 1 3 36 22 (2376)
I0418 21:15:59.192987 17086 net.cpp:137] Memory required for data: 1757349420
I0418 21:15:59.192999 17086 layer_factory.hpp:77] Creating layer upscore2-new-R_upscore2-new-R_0_split
I0418 21:15:59.193011 17086 net.cpp:84] Creating Layer upscore2-new-R_upscore2-new-R_0_split
I0418 21:15:59.193037 17086 net.cpp:406] upscore2-new-R_upscore2-new-R_0_split <- upscore2-new-R
I0418 21:15:59.193048 17086 net.cpp:380] upscore2-new-R_upscore2-new-R_0_split -> upscore2-new-R_upscore2-new-R_0_split_0
I0418 21:15:59.193063 17086 net.cpp:380] upscore2-new-R_upscore2-new-R_0_split -> upscore2-new-R_upscore2-new-R_0_split_1
I0418 21:15:59.193186 17086 net.cpp:122] Setting up upscore2-new-R_upscore2-new-R_0_split
I0418 21:15:59.193194 17086 net.cpp:129] Top shape: 1 3 36 22 (2376)
I0418 21:15:59.193199 17086 net.cpp:129] Top shape: 1 3 36 22 (2376)
I0418 21:15:59.193202 17086 net.cpp:137] Memory required for data: 1757368428
I0418 21:15:59.193207 17086 layer_factory.hpp:77] Creating layer score_pool4-new-R
I0418 21:15:59.193233 17086 net.cpp:84] Creating Layer score_pool4-new-R
I0418 21:15:59.193244 17086 net.cpp:406] score_pool4-new-R <- pool4-R_pool4-R_0_split_1
I0418 21:15:59.193251 17086 net.cpp:380] score_pool4-new-R -> score_pool4-new-R
I0418 21:15:59.195868 17086 net.cpp:122] Setting up score_pool4-new-R
I0418 21:15:59.195883 17086 net.cpp:129] Top shape: 1 3 45 32 (4320)
I0418 21:15:59.195907 17086 net.cpp:137] Memory required for data: 1757385708
I0418 21:15:59.195921 17086 layer_factory.hpp:77] Creating layer score_pool4c-R
I0418 21:15:59.195947 17086 net.cpp:84] Creating Layer score_pool4c-R
I0418 21:15:59.195952 17086 net.cpp:406] score_pool4c-R <- score_pool4-new-R
I0418 21:15:59.195963 17086 net.cpp:406] score_pool4c-R <- upscore2-new-R_upscore2-new-R_0_split_0
I0418 21:15:59.195971 17086 net.cpp:380] score_pool4c-R -> score_pool4c-R
I0418 21:15:59.196081 17086 net.cpp:122] Setting up score_pool4c-R
I0418 21:15:59.196090 17086 net.cpp:129] Top shape: 1 3 36 22 (2376)
I0418 21:15:59.196094 17086 net.cpp:137] Memory required for data: 1757395212
I0418 21:15:59.196106 17086 layer_factory.hpp:77] Creating layer fuse_pool4-R
I0418 21:15:59.196127 17086 net.cpp:84] Creating Layer fuse_pool4-R
I0418 21:15:59.196142 17086 net.cpp:406] fuse_pool4-R <- upscore2-new-R_upscore2-new-R_0_split_1
I0418 21:15:59.196151 17086 net.cpp:406] fuse_pool4-R <- score_pool4c-R
I0418 21:15:59.196158 17086 net.cpp:380] fuse_pool4-R -> fuse_pool4-R
I0418 21:15:59.196249 17086 net.cpp:122] Setting up fuse_pool4-R
I0418 21:15:59.196261 17086 net.cpp:129] Top shape: 1 3 36 22 (2376)
I0418 21:15:59.196265 17086 net.cpp:137] Memory required for data: 1757404716
I0418 21:15:59.196269 17086 layer_factory.hpp:77] Creating layer upscore_pool4-new-R
I0418 21:15:59.196277 17086 net.cpp:84] Creating Layer upscore_pool4-new-R
I0418 21:15:59.196288 17086 net.cpp:406] upscore_pool4-new-R <- fuse_pool4-R
I0418 21:15:59.196306 17086 net.cpp:380] upscore_pool4-new-R -> upscore_pool4-new-R
I0418 21:15:59.197082 17086 net.cpp:122] Setting up upscore_pool4-new-R
I0418 21:15:59.197103 17086 net.cpp:129] Top shape: 1 3 74 46 (10212)
I0418 21:15:59.197124 17086 net.cpp:137] Memory required for data: 1757445564
I0418 21:15:59.197134 17086 layer_factory.hpp:77] Creating layer upscore_pool4-new-R_upscore_pool4-new-R_0_split
I0418 21:15:59.197165 17086 net.cpp:84] Creating Layer upscore_pool4-new-R_upscore_pool4-new-R_0_split
I0418 21:15:59.197173 17086 net.cpp:406] upscore_pool4-new-R_upscore_pool4-new-R_0_split <- upscore_pool4-new-R
I0418 21:15:59.197183 17086 net.cpp:380] upscore_pool4-new-R_upscore_pool4-new-R_0_split -> upscore_pool4-new-R_upscore_pool4-new-R_0_split_0
I0418 21:15:59.197202 17086 net.cpp:380] upscore_pool4-new-R_upscore_pool4-new-R_0_split -> upscore_pool4-new-R_upscore_pool4-new-R_0_split_1
I0418 21:15:59.197376 17086 net.cpp:122] Setting up upscore_pool4-new-R_upscore_pool4-new-R_0_split
I0418 21:15:59.197394 17086 net.cpp:129] Top shape: 1 3 74 46 (10212)
I0418 21:15:59.197407 17086 net.cpp:129] Top shape: 1 3 74 46 (10212)
I0418 21:15:59.197420 17086 net.cpp:137] Memory required for data: 1757527260
I0418 21:15:59.197429 17086 layer_factory.hpp:77] Creating layer score_pool3-new-R
I0418 21:15:59.197448 17086 net.cpp:84] Creating Layer score_pool3-new-R
I0418 21:15:59.197468 17086 net.cpp:406] score_pool3-new-R <- pool3-R_pool3-R_0_split_1
I0418 21:15:59.197479 17086 net.cpp:380] score_pool3-new-R -> score_pool3-new-R
I0418 21:15:59.204643 17086 net.cpp:122] Setting up score_pool3-new-R
I0418 21:15:59.204687 17086 net.cpp:129] Top shape: 1 3 89 64 (17088)
I0418 21:15:59.204712 17086 net.cpp:137] Memory required for data: 1757595612
I0418 21:15:59.204740 17086 layer_factory.hpp:77] Creating layer score_pool3c-R
I0418 21:15:59.204777 17086 net.cpp:84] Creating Layer score_pool3c-R
I0418 21:15:59.204784 17086 net.cpp:406] score_pool3c-R <- score_pool3-new-R
I0418 21:15:59.204793 17086 net.cpp:406] score_pool3c-R <- upscore_pool4-new-R_upscore_pool4-new-R_0_split_0
I0418 21:15:59.204831 17086 net.cpp:380] score_pool3c-R -> score_pool3c-R
I0418 21:15:59.204959 17086 net.cpp:122] Setting up score_pool3c-R
I0418 21:15:59.204984 17086 net.cpp:129] Top shape: 1 3 74 46 (10212)
I0418 21:15:59.204996 17086 net.cpp:137] Memory required for data: 1757636460
I0418 21:15:59.205025 17086 layer_factory.hpp:77] Creating layer fuse_pool3-R
I0418 21:15:59.205061 17086 net.cpp:84] Creating Layer fuse_pool3-R
I0418 21:15:59.205078 17086 net.cpp:406] fuse_pool3-R <- upscore_pool4-new-R_upscore_pool4-new-R_0_split_1
I0418 21:15:59.205106 17086 net.cpp:406] fuse_pool3-R <- score_pool3c-R
I0418 21:15:59.205122 17086 net.cpp:380] fuse_pool3-R -> fuse_pool3-R
I0418 21:15:59.205294 17086 net.cpp:122] Setting up fuse_pool3-R
I0418 21:15:59.205334 17086 net.cpp:129] Top shape: 1 3 74 46 (10212)
I0418 21:15:59.205365 17086 net.cpp:137] Memory required for data: 1757677308
I0418 21:15:59.205377 17086 layer_factory.hpp:77] Creating layer upscore8-new-R
I0418 21:15:59.205448 17086 net.cpp:84] Creating Layer upscore8-new-R
I0418 21:15:59.205463 17086 net.cpp:406] upscore8-new-R <- fuse_pool3-R
I0418 21:15:59.205503 17086 net.cpp:380] upscore8-new-R -> upscore8-new-R
I0418 21:15:59.207690 17086 net.cpp:122] Setting up upscore8-new-R
I0418 21:15:59.207715 17086 net.cpp:129] Top shape: 1 3 600 376 (676800)
I0418 21:15:59.207733 17086 net.cpp:137] Memory required for data: 1760384508
I0418 21:15:59.207751 17086 layer_factory.hpp:77] Creating layer upscore8_cropped-R
I0418 21:15:59.207772 17086 net.cpp:84] Creating Layer upscore8_cropped-R
I0418 21:15:59.207789 17086 net.cpp:406] upscore8_cropped-R <- upscore8-new-R
I0418 21:15:59.207809 17086 net.cpp:406] upscore8_cropped-R <- data-R_crop_0_split_1
I0418 21:15:59.207819 17086 net.cpp:380] upscore8_cropped-R -> upscore8_cropped-R
I0418 21:15:59.207954 17086 net.cpp:122] Setting up upscore8_cropped-R
I0418 21:15:59.207974 17086 net.cpp:129] Top shape: 1 3 512 310 (476160)
I0418 21:15:59.207986 17086 net.cpp:137] Memory required for data: 1762289148
I0418 21:15:59.208003 17086 layer_factory.hpp:77] Creating layer score-R
I0418 21:15:59.208046 17086 net.cpp:84] Creating Layer score-R
I0418 21:15:59.208055 17086 net.cpp:406] score-R <- upscore8_cropped-R
I0418 21:15:59.208091 17086 net.cpp:380] score-R -> score-R
I0418 21:15:59.212091 17086 net.cpp:122] Setting up score-R
I0418 21:15:59.212137 17086 net.cpp:129] Top shape: 1 3 512 310 (476160)
I0418 21:15:59.212146 17086 net.cpp:137] Memory required for data: 1764193788
I0418 21:15:59.212160 17086 layer_factory.hpp:77] Creating layer score_uncropped-R
I0418 21:15:59.212365 17086 net.cpp:84] Creating Layer score_uncropped-R
I0418 21:15:59.212383 17086 net.cpp:406] score_uncropped-R <- crop_info
I0418 21:15:59.212394 17086 net.cpp:406] score_uncropped-R <- score-R
I0418 21:15:59.212407 17086 net.cpp:406] score_uncropped-R <- data_data_0_split_3
I0418 21:15:59.212415 17086 net.cpp:380] score_uncropped-R -> score_uncropped-R
I0418 21:15:59.216322 17086 net.cpp:122] Setting up score_uncropped-R
I0418 21:15:59.216377 17086 net.cpp:129] Top shape: 1 3 512 310 (476160)
I0418 21:15:59.216393 17086 net.cpp:137] Memory required for data: 1766098428
I0418 21:15:59.216409 17086 layer_factory.hpp:77] Creating layer loss1
I0418 21:15:59.216447 17086 net.cpp:84] Creating Layer loss1
I0418 21:15:59.216470 17086 net.cpp:406] loss1 <- score_score_0_split_1
I0418 21:15:59.216490 17086 net.cpp:406] loss1 <- label_data_1_split_1
I0418 21:15:59.216511 17086 net.cpp:380] loss1 -> loss1
…
