…
snapshot_prefix: "/media/Med_2T2/data2/models/snapshots/indiv:1e-5x10,20/FD1:ZI3_1_20180418_201418/train"
test_initialization: false
average_loss: 20
stepvalue: 40000
iter_size: 1
I0419 03:20:23.580008 23706 solver.cpp:77] Creating training net from train_net file: /media/Med_2T2/data2/prototxts/training_S3x10.prototxt
I0419 03:20:23.582983 23706 net.cpp:51] Initializing net from parameters: 
state {
  phase: TRAIN
}
layer {
  name: "data"
  type: "Python"
  top: "data"
  top: "label"
  top: "crop_margin"
  top: "crop_prob"
  top: "crop_sample_batch"
  python_param {
    module: "Data"
    layer: "DataLayer"
  }
}
layer {
  name: "conv1_1"
  type: "Convolution"
  bottom: "data"
  top: "conv1_1"
  param {
    lr_mult: 1
    decay_mult: 1
  }
  param {
    lr_mult: 2
    decay_mult: 0
  }
  convolution_param {
    num_output: 64
    pad: 100
    kernel_size: 3
    stride: 1
  }
}
layer {
  name: "relu1_1"
  type: "ReLU"
  bottom: "conv1_1"
  top: "conv1_1"
}
layer {
  name: "conv1_2"
  type: "Convolution"
  bottom: "conv1_1"
  top: "conv1_2"
  param {
    lr_mult: 1
    decay_mult: 1
  }
  param {
    lr_mult: 2
    decay_mult: 0
  }
  convolution_param {
    num_output: 64
    pad: 1
    kernel_size: 3
    stride: 1
  }
}
layer {
  name: "relu1_2"
  type: "ReLU"
  bottom: "conv1_2"
  top: "conv1_2"
}
layer {
  name: "pool1"
  type: "Pooling"
  bottom: "conv1_2"
  top: "pool1"
  pooling_param {
    pool: MAX
    kernel_size: 2
    stride: 2
  }
}
layer {
  name: "conv2_1"
  type: "Convolution"
  bottom: "pool1"
  top: "conv2_1"
  param {
    lr_mult: 1
    decay_mult: 1
  }
  param {
    lr_mult: 2
    decay_mult: 0
  }
  convolution_param {
    num_output: 128
    pad: 1
    kernel_size: 3
    stride: 1
  }
}
layer {
  name: "relu2_1"
  type: "ReLU"
  bottom: "conv2_1"
  top: "conv2_1"
}
layer {
  name: "conv2_2"
  type: "Convolution"
  bottom: "conv2_1"
  top: "conv2_2"
  param {
    lr_mult: 1
    decay_mult: 1
  }
  param {
    lr_mult: 2
    decay_mult: 0
  }
  convolution_param {
    num_output: 128
    pad: 1
    kernel_size: 3
    stride: 1
  }
}
layer {
  name: "relu2_2"
  type: "ReLU"
  bottom: "conv2_2"
  top: "conv2_2"
}
layer {
  name: "pool2"
  type: "Pooling"
  bottom: "conv2_2"
  top: "pool2"
  pooling_param {
    pool: MAX
    kernel_size: 2
    stride: 2
  }
}
layer {
  name: "conv3_1"
  type: "Convolution"
  bottom: "pool2"
  top: "conv3_1"
  param {
    lr_mult: 1
    decay_mult: 1
  }
  param {
    lr_mult: 2
    decay_mult: 0
  }
  convolution_param {
    num_output: 256
    pad: 1
    kernel_size: 3
    stride: 1
  }
}
layer {
  name: "relu3_1"
  type: "ReLU"
  bottom: "conv3_1"
  top: "conv3_1"
}
layer {
  name: "conv3_2"
  type: "Convolution"
  bottom: "conv3_1"
  top: "conv3_2"
  param {
    lr_mult: 1
    decay_mult: 1
  }
  param {
    lr_mult: 2
    decay_mult: 0
  }
  convolution_param {
    num_output: 256
    pad: 1
    kernel_size: 3
    stride: 1
  }
}
layer {
  name: "relu3_2"
  type: "ReLU"
  bottom: "conv3_2"
  top: "conv3_2"
}
layer {
  name: "conv3_3"
  type: "Convolution"
  bottom: "conv3_2"
  top: "conv3_3"
  param {
    lr_mult: 1
    decay_mult: 1
  }
  param {
    lr_mult: 2
    decay_mult: 0
  }
  convolution_param {
    num_output: 256
    pad: 1
    kernel_size: 3
    stride: 1
  }
}
layer {
  name: "relu3_3"
  type: "ReLU"
  bottom: "conv3_3"
  top: "conv3_3"
}
layer {
  name: "pool3"
  type: "Pooling"
  bottom: "conv3_3"
  top: "pool3"
  pooling_param {
    pool: MAX
    kernel_size: 2
    stride: 2
  }
}
layer {
  name: "conv4_1"
  type: "Convolution"
  bottom: "pool3"
  top: "conv4_1"
  param {
    lr_mult: 1
    decay_mult: 1
  }
  param {
    lr_mult: 2
    decay_mult: 0
  }
  convolution_param {
    num_output: 512
    pad: 1
    kernel_size: 3
    stride: 1
  }
}
layer {
  name: "relu4_1"
  type: "ReLU"
  bottom: "conv4_1"
  top: "conv4_1"
}
layer {
  name: "conv4_2"
  type: "Convolution"
  bottom: "conv4_1"
  top: "conv4_2"
  param {
    lr_mult: 1
    decay_mult: 1
  }
  param {
    lr_mult: 2
    decay_mult: 0
  }
  convolution_param {
    num_output: 512
    pad: 1
    kernel_size: 3
    stride: 1
  }
}
layer {
  name: "relu4_2"
  type: "ReLU"
  bottom: "conv4_2"
  top: "conv4_2"
}
layer {
  name: "conv4_3"
  type: "Convolution"
  bottom: "conv4_2"
  top: "conv4_3"
  param {
    lr_mult: 1
    decay_mult: 1
  }
  param {
    lr_mult: 2
    decay_mult: 0
  }
  convolution_param {
    num_output: 512
    pad: 1
    kernel_size: 3
    stride: 1
  }
}
layer {
  name: "relu4_3"
  type: "ReLU"
  bottom: "conv4_3"
  top: "conv4_3"
}
layer {
  name: "pool4"
  type: "Pooling"
  bottom: "conv4_3"
  top: "pool4"
  pooling_param {
    pool: MAX
    kernel_size: 2
    stride: 2
  }
}
layer {
  name: "conv5_1"
  type: "Convolution"
  bottom: "pool4"
  top: "conv5_1"
  param {
    lr_mult: 1
    decay_mult: 1
  }
  param {
    lr_mult: 2
    decay_mult: 0
  }
  convolution_param {
    num_output: 512
    pad: 1
    kernel_size: 3
    stride: 1
  }
}
layer {
  name: "relu5_1"
  type: "ReLU"
  bottom: "conv5_1"
  top: "conv5_1"
}
layer {
  name: "conv5_2"
  type: "Convolution"
  bottom: "conv5_1"
  top: "conv5_2"
  param {
    lr_mult: 1
    decay_mult: 1
  }
  param {
    lr_mult: 2
    decay_mult: 0
  }
  convolution_param {
    num_output: 512
    pad: 1
    kernel_size: 3
    stride: 1
  }
}
layer {
  name: "relu5_2"
  type: "ReLU"
  bottom: "conv5_2"
  top: "conv5_2"
}
layer {
  name: "conv5_3"
  type: "Convolution"
  bottom: "conv5_2"
  top: "conv5_3"
  param {
    lr_mult: 1
    decay_mult: 1
  }
  param {
    lr_mult: 2
    decay_mult: 0
  }
  convolution_param {
    num_output: 512
    pad: 1
    kernel_size: 3
    stride: 1
  }
}
layer {
  name: "relu5_3"
  type: "ReLU"
  bottom: "conv5_3"
  top: "conv5_3"
}
layer {
  name: "pool5"
  type: "Pooling"
  bottom: "conv5_3"
  top: "pool5"
  pooling_param {
    pool: MAX
    kernel_size: 2
    stride: 2
  }
}
layer {
  name: "fc6"
  type: "Convolution"
  bottom: "pool5"
  top: "fc6"
  param {
    lr_mult: 1
    decay_mult: 1
  }
  param {
    lr_mult: 2
    decay_mult: 0
  }
  convolution_param {
    num_output: 4096
    pad: 0
    kernel_size: 7
    stride: 1
  }
}
layer {
  name: "relu6"
  type: "ReLU"
  bottom: "fc6"
  top: "fc6"
}
layer {
  name: "drop6"
  type: "Dropout"
  bottom: "fc6"
  top: "fc6"
  dropout_param {
    dropout_ratio: 0.5
  }
}
layer {
  name: "fc7"
  type: "Convolution"
  bottom: "fc6"
  top: "fc7"
  param {
    lr_mult: 1
    decay_mult: 1
  }
  param {
    lr_mult: 2
    decay_mult: 0
  }
  convolution_param {
    num_output: 4096
    pad: 0
    kernel_size: 1
    stride: 1
  }
}
layer {
  name: "relu7"
  type: "ReLU"
  bottom: "fc7"
  top: "fc7"
}
layer {
  name: "drop7"
  type: "Dropout"
  bottom: "fc7"
  top: "fc7"
  dropout_param {
    dropout_ratio: 0.5
  }
}
layer {
  name: "score_fr-new"
  type: "Convolution"
  bottom: "fc7"
  top: "score_fr-new"
  param {
    lr_mult: 1
    decay_mult: 1
  }
  param {
    lr_mult: 2
    decay_mult: 0
  }
  convolution_param {
    num_output: 3
    kernel_size: 1
  }
}
layer {
  name: "upscore2-new"
  type: "Deconvolution"
  bottom: "score_fr-new"
  top: "upscore2-new"
  param {
    lr_mult: 0
  }
  convolution_param {
    num_output: 3
    bias_term: false
    kernel_size: 4
    stride: 2
  }
}
layer {
  name: "score_pool4-new"
  type: "Convolution"
  bottom: "pool4"
  top: "score_pool4-new"
  param {
    lr_mult: 1
    decay_mult: 1
  }
  param {
    lr_mult: 2
    decay_mult: 0
  }
  convolution_param {
    num_output: 3
    pad: 0
    kernel_size: 1
  }
}
layer {
  name: "score_pool4c"
  type: "Crop"
  bottom: "score_pool4-new"
  bottom: "upscore2-new"
  top: "score_pool4c"
  crop_param {
    axis: 2
    offset: 5
  }
}
layer {
  name: "fuse_pool4"
  type: "Eltwise"
  bottom: "upscore2-new"
  bottom: "score_pool4c"
  top: "fuse_pool4"
  eltwise_param {
    operation: SUM
  }
}
layer {
  name: "upscore_pool4-new"
  type: "Deconvolution"
  bottom: "fuse_pool4"
  top: "upscore_pool4-new"
  param {
    lr_mult: 0
  }
  convolution_param {
    num_output: 3
    bias_term: false
    kernel_size: 4
    stride: 2
  }
}
layer {
  name: "score_pool3-new"
  type: "Convolution"
  bottom: "pool3"
  top: "score_pool3-new"
  param {
    lr_mult: 1
    decay_mult: 1
  }
  param {
    lr_mult: 2
    decay_mult: 0
  }
  convolution_param {
    num_output: 3
    pad: 0
    kernel_size: 1
  }
}
layer {
  name: "score_pool3c"
  type: "Crop"
  bottom: "score_pool3-new"
  bottom: "upscore_pool4-new"
  top: "score_pool3c"
  crop_param {
    axis: 2
    offset: 9
  }
}
layer {
  name: "fuse_pool3"
  type: "Eltwise"
  bottom: "upscore_pool4-new"
  bottom: "score_pool3c"
  top: "fuse_pool3"
  eltwise_param {
    operation: SUM
  }
}
layer {
  name: "upscore8-new"
  type: "Deconvolution"
  bottom: "fuse_pool3"
  top: "upscore8-new"
  param {
    lr_mult: 0
  }
  convolution_param {
    num_output: 3
    bias_term: false
    kernel_size: 16
    stride: 8
  }
}
layer {
  name: "upscore8_cropped"
  type: "Crop"
  bottom: "upscore8-new"
  bottom: "data"
  top: "upscore8_cropped"
  crop_param {
    axis: 2
    offset: 31
  }
}
layer {
  name: "score"
  type: "Convolution"
  bottom: "upscore8_cropped"
  top: "score"
  param {
    lr_mult: 1
    decay_mult: 1
  }
  param {
    lr_mult: 2
    decay_mult: 0
  }
  convolution_param {
    num_output: 3
    pad: 1
    kernel_size: 3
    stride: 1
    weight_filler {
      type: "xavier"
    }
    bias_filler {
      type: "constant"
      value: 0
    }
  }
}
layer {
  name: "prob"
  type: "Sigmoid"
  bottom: "score"
  top: "prob"
}
layer {
  name: "saliency"
  type: "Convolution"
  bottom: "prob"
  top: "saliency"
  param {
    lr_mult: 10
    decay_mult: 1
  }
  param {
    lr_mult: 20
    decay_mult: 0
  }
  convolution_param {
    num_output: 3
    pad: 2
    kernel_size: 5
    stride: 1
    weight_filler {
      type: "xavier"
    }
    bias_filler {
      type: "constant"
      value: 1
    }
  }
}
layer {
  name: "silence_saliency"
  type: "Silence"
  bottom: "saliency"
}
layer {
  name: "crop"
  type: "Python"
  bottom: "label"
  bottom: "data"
  bottom: "crop_margin"
  bottom: "crop_prob"
  bottom: "crop_sample_batch"
  top: "data-R"
  top: "crop_info"
  python_param {
    module: "Crop"
    layer: "CropLayer"
    param_str: "{\"TEST\": 0}"
  }
}
layer {
  name: "conv1_1-R"
  type: "Convolution"
  bottom: "data-R"
  top: "conv1_1-R"
  param {
    lr_mult: 10
    decay_mult: 1
  }
  param {
    lr_mult: 20
    decay_mult: 0
  }
  convolution_param {
    num_output: 64
    pad: 100
    kernel_size: 3
    stride: 1
  }
}
layer {
  name: "relu1_1-R"
  type: "ReLU"
  bottom: "conv1_1-R"
  top: "conv1_1-R"
}
layer {
  name: "conv1_2-R"
  type: "Convolution"
  bottom: "conv1_1-R"
  top: "conv1_2-R"
  param {
    lr_mult: 10
    decay_mult: 1
  }
  param {
    lr_mult: 20
    decay_mult: 0
  }
  convolution_param {
    num_output: 64
    pad: 1
    kernel_size: 3
    stride: 1
  }
}
layer {
  name: "relu1_2-R"
  type: "ReLU"
  bottom: "conv1_2-R"
  top: "conv1_2-R"
}
layer {
  name: "pool1-R"
  type: "Pooling"
  bottom: "conv1_2-R"
  top: "pool1-R"
  pooling_param {
    pool: MAX
    kernel_size: 2
    stride: 2
  }
}
layer {
  name: "conv2_1-R"
  type: "Convolution"
  bottom: "pool1-R"
  top: "conv2_1-R"
  param {
    lr_mult: 10
    decay_mult: 1
  }
  param {
    lr_mult: 20
    decay_mult: 0
  }
  convolution_param {
    num_output: 128
    pad: 1
    kernel_size: 3
    stride: 1
  }
}
layer {
  name: "relu2_1-R"
  type: "ReLU"
  bottom: "conv2_1-R"
  top: "conv2_1-R"
}
layer {
  name: "conv2_2-R"
  type: "Convolution"
  bottom: "conv2_1-R"
  top: "conv2_2-R"
  param {
    lr_mult: 10
    decay_mult: 1
  }
  param {
    lr_mult: 20
    decay_mult: 0
  }
  convolution_param {
    num_output: 128
    pad: 1
    kernel_size: 3
    stride: 1
  }
}
layer {
  name: "relu2_2-R"
  type: "ReLU"
  bottom: "conv2_2-R"
  top: "conv2_2-R"
}
layer {
  name: "pool2-R"
  type: "Pooling"
  bottom: "conv2_2-R"
  top: "pool2-R"
  pooling_param {
    pool: MAX
    kernel_size: 2
    stride: 2
  }
}
layer {
  name: "conv3_1-R"
  type: "Convolution"
  bottom: "pool2-R"
  top: "conv3_1-R"
  param {
    lr_mult: 10
    decay_mult: 1
  }
  param {
    lr_mult: 20
    decay_mult: 0
  }
  convolution_param {
    num_output: 256
    pad: 1
    kernel_size: 3
    stride: 1
  }
}
layer {
  name: "relu3_1-R"
  type: "ReLU"
  bottom: "conv3_1-R"
  top: "conv3_1-R"
}
layer {
  name: "conv3_2-R"
  type: "Convolution"
  bottom: "conv3_1-R"
  top: "conv3_2-R"
  param {
    lr_mult: 10
    decay_mult: 1
  }
  param {
    lr_mult: 20
    decay_mult: 0
  }
  convolution_param {
    num_output: 256
    pad: 1
    kernel_size: 3
    stride: 1
  }
}
layer {
  name: "relu3_2-R"
  type: "ReLU"
  bottom: "conv3_2-R"
  top: "conv3_2-R"
}
layer {
  name: "conv3_3-R"
  type: "Convolution"
  bottom: "conv3_2-R"
  top: "conv3_3-R"
  param {
    lr_mult: 10
    decay_mult: 1
  }
  param {
    lr_mult: 20
    decay_mult: 0
  }
  convolution_param {
    num_output: 256
    pad: 1
    kernel_size: 3
    stride: 1
  }
}
layer {
  name: "relu3_3-R"
  type: "ReLU"
  bottom: "conv3_3-R"
  top: "conv3_3-R"
}
layer {
  name: "pool3-R"
  type: "Pooling"
  bottom: "conv3_3-R"
  top: "pool3-R"
  pooling_param {
    pool: MAX
    kernel_size: 2
    stride: 2
  }
}
layer {
  name: "conv4_1-R"
  type: "Convolution"
  bottom: "pool3-R"
  top: "conv4_1-R"
  param {
    lr_mult: 10
    decay_mult: 1
  }
  param {
    lr_mult: 20
    decay_mult: 0
  }
  convolution_param {
    num_output: 512
    pad: 1
    kernel_size: 3
    stride: 1
  }
}
layer {
  name: "relu4_1-R"
  type: "ReLU"
  bottom: "conv4_1-R"
  top: "conv4_1-R"
}
layer {
  name: "conv4_2-R"
  type: "Convolution"
  bottom: "conv4_1-R"
  top: "conv4_2-R"
  param {
    lr_mult: 10
    decay_mult: 1
  }
  param {
    lr_mult: 20
    decay_mult: 0
  }
  convolution_param {
    num_output: 512
    pad: 1
    kernel_size: 3
    stride: 1
  }
}
layer {
  name: "relu4_2-R"
  type: "ReLU"
  bottom: "conv4_2-R"
  top: "conv4_2-R"
}
layer {
  name: "conv4_3-R"
  type: "Convolution"
  bottom: "conv4_2-R"
  top: "conv4_3-R"
  param {
    lr_mult: 10
    decay_mult: 1
  }
  param {
    lr_mult: 20
    decay_mult: 0
  }
  convolution_param {
    num_output: 512
    pad: 1
    kernel_size: 3
    stride: 1
  }
}
layer {
  name: "relu4_3-R"
  type: "ReLU"
  bottom: "conv4_3-R"
  top: "conv4_3-R"
}
layer {
  name: "pool4-R"
  type: "Pooling"
  bottom: "conv4_3-R"
  top: "pool4-R"
  pooling_param {
    pool: MAX
    kernel_size: 2
    stride: 2
  }
}
layer {
  name: "conv5_1-R"
  type: "Convolution"
  bottom: "pool4-R"
  top: "conv5_1-R"
  param {
    lr_mult: 10
    decay_mult: 1
  }
  param {
    lr_mult: 20
    decay_mult: 0
  }
  convolution_param {
    num_output: 512
    pad: 1
    kernel_size: 3
    stride: 1
  }
}
layer {
  name: "relu5_1-R"
  type: "ReLU"
  bottom: "conv5_1-R"
  top: "conv5_1-R"
}
layer {
  name: "conv5_2-R"
  type: "Convolution"
  bottom: "conv5_1-R"
  top: "conv5_2-R"
  param {
    lr_mult: 10
    decay_mult: 1
  }
  param {
    lr_mult: 20
    decay_mult: 0
  }
  convolution_param {
    num_output: 512
    pad: 1
    kernel_size: 3
    stride: 1
  }
}
layer {
  name: "relu5_2-R"
  type: "ReLU"
  bottom: "conv5_2-R"
  top: "conv5_2-R"
}
layer {
  name: "conv5_3-R"
  type: "Convolution"
  bottom: "conv5_2-R"
  top: "conv5_3-R"
  param {
    lr_mult: 10
    decay_mult: 1
  }
  param {
    lr_mult: 20
    decay_mult: 0
  }
  convolution_param {
    num_output: 512
    pad: 1
    kernel_size: 3
    stride: 1
  }
}
layer {
  name: "relu5_3-R"
  type: "ReLU"
  bottom: "conv5_3-R"
  top: "conv5_3-R"
}
layer {
  name: "pool5-R"
  type: "Pooling"
  bottom: "conv5_3-R"
  top: "pool5-R"
  pooling_param {
    pool: MAX
    kernel_size: 2
    stride: 2
  }
}
layer {
  name: "fc6-R"
  type: "Convolution"
  bottom: "pool5-R"
  top: "fc6-R"
  param {
    lr_mult: 10
    decay_mult: 1
  }
  param {
    lr_mult: 20
    decay_mult: 0
  }
  convolution_param {
    num_output: 4096
    pad: 0
    kernel_size: 7
    stride: 1
  }
}
layer {
  name: "relu6-R"
  type: "ReLU"
  bottom: "fc6-R"
  top: "fc6-R"
}
layer {
  name: "drop6-R"
  type: "Dropout"
  bottom: "fc6-R"
  top: "fc6-R"
  dropout_param {
    dropout_ratio: 0.5
  }
}
layer {
  name: "fc7-R"
  type: "Convolution"
  bottom: "fc6-R"
  top: "fc7-R"
  param {
    lr_mult: 10
    decay_mult: 1
  }
  param {
    lr_mult: 20
    decay_mult: 0
  }
  convolution_param {
    num_output: 4096
    pad: 0
    kernel_size: 1
    stride: 1
  }
}
layer {
  name: "relu7-R"
  type: "ReLU"
  bottom: "fc7-R"
  top: "fc7-R"
}
layer {
  name: "drop7-R"
  type: "Dropout"
  bottom: "fc7-R"
  top: "fc7-R"
  dropout_param {
    dropout_ratio: 0.5
  }
}
layer {
  name: "score_fr-new-R"
  type: "Convolution"
  bottom: "fc7-R"
  top: "score_fr-new-R"
  param {
    lr_mult: 10
    decay_mult: 1
  }
  param {
    lr_mult: 20
    decay_mult: 0
  }
  convolution_param {
    num_output: 3
    kernel_size: 1
  }
}
layer {
  name: "upscore2-new-R"
  type: "Deconvolution"
  bottom: "score_fr-new-R"
  top: "upscore2-new-R"
  param {
    lr_mult: 0
  }
  convolution_param {
    num_output: 3
    bias_term: false
    kernel_size: 4
    stride: 2
  }
}
layer {
  name: "score_pool4-new-R"
  type: "Convolution"
  bottom: "pool4-R"
  top: "score_pool4-new-R"
  param {
    lr_mult: 10
    decay_mult: 1
  }
  param {
    lr_mult: 20
    decay_mult: 0
  }
  convolution_param {
    num_output: 3
    pad: 0
    kernel_size: 1
  }
}
layer {
  name: "score_pool4c-R"
  type: "Crop"
  bottom: "score_pool4-new-R"
  bottom: "upscore2-new-R"
  top: "score_pool4c-R"
  crop_param {
    axis: 2
    offset: 5
  }
}
layer {
  name: "fuse_pool4-R"
  type: "Eltwise"
  bottom: "upscore2-new-R"
  bottom: "score_pool4c-R"
  top: "fuse_pool4-R"
  eltwise_param {
    operation: SUM
  }
}
layer {
  name: "upscore_pool4-new-R"
  type: "Deconvolution"
  bottom: "fuse_pool4-R"
  top: "upscore_pool4-new-R"
  param {
    lr_mult: 0
  }
  convolution_param {
    num_output: 3
    bias_term: false
    kernel_size: 4
    stride: 2
  }
}
layer {
  name: "score_pool3-new-R"
  type: "Convolution"
  bottom: "pool3-R"
  top: "score_pool3-new-R"
  param {
    lr_mult: 10
    decay_mult: 1
  }
  param {
    lr_mult: 20
    decay_mult: 0
  }
  convolution_param {
    num_output: 3
    pad: 0
    kernel_size: 1
  }
}
layer {
  name: "score_pool3c-R"
  type: "Crop"
  bottom: "score_pool3-new-R"
  bottom: "upscore_pool4-new-R"
  top: "score_pool3c-R"
  crop_param {
    axis: 2
    offset: 9
  }
}
layer {
  name: "fuse_pool3-R"
  type: "Eltwise"
  bottom: "upscore_pool4-new-R"
  bottom: "score_pool3c-R"
  top: "fuse_pool3-R"
  eltwise_param {
    operation: SUM
  }
}
layer {
  name: "upscore8-new-R"
  type: "Deconvolution"
  bottom: "fuse_pool3-R"
  top: "upscore8-new-R"
  param {
    lr_mult: 0
  }
  convolution_param {
    num_output: 3
    bias_term: false
    kernel_size: 16
    stride: 8
  }
}
layer {
  name: "upscore8_cropped-R"
  type: "Crop"
  bottom: "upscore8-new-R"
  bottom: "data-R"
  top: "upscore8_cropped-R"
  crop_param {
    axis: 2
    offset: 31
  }
}
layer {
  name: "score-R"
  type: "Convolution"
  bottom: "upscore8_cropped-R"
  top: "score-R"
  param {
    lr_mult: 10
    decay_mult: 1
  }
  param {
    lr_mult: 20
    decay_mult: 0
  }
  convolution_param {
    num_output: 3
    pad: 1
    kernel_size: 3
    stride: 1
    weight_filler {
      type: "xavier"
    }
    bias_filler {
      type: "constant"
      value: 0
    }
  }
}
layer {
  name: "score_uncropped-R"
  type: "Python"
  bottom: "crop_info"
  bottom: "score-R"
  bottom: "data"
  top: "score_uncropped-R"
  python_param {
    module: "Uncrop"
    layer: "UncropLayer"
  }
}
layer {
  name: "loss1"
  type: "DiceLoss"
  bottom: "score"
  bottom: "label"
  top: "loss1"
  loss_weight: 0.333333
}
layer {
  name: "loss2"
  type: "DiceLoss"
  bottom: "score_uncropped-R"
  bottom: "label"
  top: "loss2"
  loss_weight: 0.666667
}
I0419 03:20:23.583564 23706 layer_factory.hpp:77] Creating layer data
I0419 03:20:23.584156 23706 net.cpp:84] Creating Layer data
I0419 03:20:23.584172 23706 net.cpp:380] data -> data
I0419 03:20:23.584189 23706 net.cpp:380] data -> label
I0419 03:20:23.584197 23706 net.cpp:380] data -> crop_margin
I0419 03:20:23.584204 23706 net.cpp:380] data -> crop_prob
I0419 03:20:23.584211 23706 net.cpp:380] data -> crop_sample_batch
I0419 03:20:23.676714 23706 net.cpp:122] Setting up data
I0419 03:20:23.676761 23706 net.cpp:129] Top shape: 1 3 512 512 (786432)
I0419 03:20:23.676769 23706 net.cpp:129] Top shape: 1 3 512 512 (786432)
I0419 03:20:23.676774 23706 net.cpp:129] Top shape: 1 (1)
I0419 03:20:23.676779 23706 net.cpp:129] Top shape: 1 (1)
I0419 03:20:23.676784 23706 net.cpp:129] Top shape: 1 (1)
I0419 03:20:23.676789 23706 net.cpp:137] Memory required for data: 6291468
I0419 03:20:23.676796 23706 layer_factory.hpp:77] Creating layer data_data_0_split
I0419 03:20:23.676822 23706 net.cpp:84] Creating Layer data_data_0_split
I0419 03:20:23.676828 23706 net.cpp:406] data_data_0_split <- data
I0419 03:20:23.676841 23706 net.cpp:380] data_data_0_split -> data_data_0_split_0
I0419 03:20:23.676854 23706 net.cpp:380] data_data_0_split -> data_data_0_split_1
I0419 03:20:23.676862 23706 net.cpp:380] data_data_0_split -> data_data_0_split_2
I0419 03:20:23.676869 23706 net.cpp:380] data_data_0_split -> data_data_0_split_3
I0419 03:20:23.676930 23706 net.cpp:122] Setting up data_data_0_split
I0419 03:20:23.676937 23706 net.cpp:129] Top shape: 1 3 512 512 (786432)
I0419 03:20:23.676944 23706 net.cpp:129] Top shape: 1 3 512 512 (786432)
I0419 03:20:23.676949 23706 net.cpp:129] Top shape: 1 3 512 512 (786432)
I0419 03:20:23.676954 23706 net.cpp:129] Top shape: 1 3 512 512 (786432)
I0419 03:20:23.676959 23706 net.cpp:137] Memory required for data: 18874380
I0419 03:20:23.676962 23706 layer_factory.hpp:77] Creating layer label_data_1_split
I0419 03:20:23.676970 23706 net.cpp:84] Creating Layer label_data_1_split
I0419 03:20:23.676973 23706 net.cpp:406] label_data_1_split <- label
I0419 03:20:23.676980 23706 net.cpp:380] label_data_1_split -> label_data_1_split_0
I0419 03:20:23.676986 23706 net.cpp:380] label_data_1_split -> label_data_1_split_1
I0419 03:20:23.676993 23706 net.cpp:380] label_data_1_split -> label_data_1_split_2
I0419 03:20:23.677032 23706 net.cpp:122] Setting up label_data_1_split
I0419 03:20:23.677054 23706 net.cpp:129] Top shape: 1 3 512 512 (786432)
I0419 03:20:23.677059 23706 net.cpp:129] Top shape: 1 3 512 512 (786432)
I0419 03:20:23.677064 23706 net.cpp:129] Top shape: 1 3 512 512 (786432)
I0419 03:20:23.677068 23706 net.cpp:137] Memory required for data: 28311564
I0419 03:20:23.677083 23706 layer_factory.hpp:77] Creating layer conv1_1
I0419 03:20:23.677098 23706 net.cpp:84] Creating Layer conv1_1
I0419 03:20:23.677103 23706 net.cpp:406] conv1_1 <- data_data_0_split_0
I0419 03:20:23.677109 23706 net.cpp:380] conv1_1 -> conv1_1
I0419 03:20:24.106500 23706 net.cpp:122] Setting up conv1_1
I0419 03:20:24.106559 23706 net.cpp:129] Top shape: 1 64 710 710 (32262400)
I0419 03:20:24.106565 23706 net.cpp:137] Memory required for data: 157361164
I0419 03:20:24.106590 23706 layer_factory.hpp:77] Creating layer relu1_1
I0419 03:20:24.106611 23706 net.cpp:84] Creating Layer relu1_1
I0419 03:20:24.106626 23706 net.cpp:406] relu1_1 <- conv1_1
I0419 03:20:24.106633 23706 net.cpp:367] relu1_1 -> conv1_1 (in-place)
I0419 03:20:24.106885 23706 net.cpp:122] Setting up relu1_1
I0419 03:20:24.106899 23706 net.cpp:129] Top shape: 1 64 710 710 (32262400)
I0419 03:20:24.106902 23706 net.cpp:137] Memory required for data: 286410764
I0419 03:20:24.106907 23706 layer_factory.hpp:77] Creating layer conv1_2
I0419 03:20:24.106922 23706 net.cpp:84] Creating Layer conv1_2
I0419 03:20:24.106927 23706 net.cpp:406] conv1_2 <- conv1_1
I0419 03:20:24.106935 23706 net.cpp:380] conv1_2 -> conv1_2
I0419 03:20:24.112506 23706 net.cpp:122] Setting up conv1_2
I0419 03:20:24.112546 23706 net.cpp:129] Top shape: 1 64 710 710 (32262400)
I0419 03:20:24.112552 23706 net.cpp:137] Memory required for data: 415460364
I0419 03:20:24.112566 23706 layer_factory.hpp:77] Creating layer relu1_2
I0419 03:20:24.112576 23706 net.cpp:84] Creating Layer relu1_2
I0419 03:20:24.112581 23706 net.cpp:406] relu1_2 <- conv1_2
I0419 03:20:24.112599 23706 net.cpp:367] relu1_2 -> conv1_2 (in-place)
I0419 03:20:24.112831 23706 net.cpp:122] Setting up relu1_2
I0419 03:20:24.112844 23706 net.cpp:129] Top shape: 1 64 710 710 (32262400)
I0419 03:20:24.112849 23706 net.cpp:137] Memory required for data: 544509964
I0419 03:20:24.112854 23706 layer_factory.hpp:77] Creating layer pool1
I0419 03:20:24.112862 23706 net.cpp:84] Creating Layer pool1
I0419 03:20:24.112866 23706 net.cpp:406] pool1 <- conv1_2
I0419 03:20:24.112874 23706 net.cpp:380] pool1 -> pool1
I0419 03:20:24.112942 23706 net.cpp:122] Setting up pool1
I0419 03:20:24.112951 23706 net.cpp:129] Top shape: 1 64 355 355 (8065600)
I0419 03:20:24.112957 23706 net.cpp:137] Memory required for data: 576772364
I0419 03:20:24.112960 23706 layer_factory.hpp:77] Creating layer conv2_1
I0419 03:20:24.112972 23706 net.cpp:84] Creating Layer conv2_1
I0419 03:20:24.112977 23706 net.cpp:406] conv2_1 <- pool1
I0419 03:20:24.112985 23706 net.cpp:380] conv2_1 -> conv2_1
I0419 03:20:24.117386 23706 net.cpp:122] Setting up conv2_1
I0419 03:20:24.117435 23706 net.cpp:129] Top shape: 1 128 355 355 (16131200)
I0419 03:20:24.117441 23706 net.cpp:137] Memory required for data: 641297164
I0419 03:20:24.117460 23706 layer_factory.hpp:77] Creating layer relu2_1
I0419 03:20:24.117473 23706 net.cpp:84] Creating Layer relu2_1
I0419 03:20:24.117480 23706 net.cpp:406] relu2_1 <- conv2_1
I0419 03:20:24.117487 23706 net.cpp:367] relu2_1 -> conv2_1 (in-place)
I0419 03:20:24.117709 23706 net.cpp:122] Setting up relu2_1
I0419 03:20:24.117722 23706 net.cpp:129] Top shape: 1 128 355 355 (16131200)
I0419 03:20:24.117727 23706 net.cpp:137] Memory required for data: 705821964
I0419 03:20:24.117732 23706 layer_factory.hpp:77] Creating layer conv2_2
I0419 03:20:24.117743 23706 net.cpp:84] Creating Layer conv2_2
I0419 03:20:24.117748 23706 net.cpp:406] conv2_2 <- conv2_1
I0419 03:20:24.117755 23706 net.cpp:380] conv2_2 -> conv2_2
I0419 03:20:24.120601 23706 net.cpp:122] Setting up conv2_2
I0419 03:20:24.120643 23706 net.cpp:129] Top shape: 1 128 355 355 (16131200)
I0419 03:20:24.120652 23706 net.cpp:137] Memory required for data: 770346764
I0419 03:20:24.120669 23706 layer_factory.hpp:77] Creating layer relu2_2
I0419 03:20:24.120682 23706 net.cpp:84] Creating Layer relu2_2
I0419 03:20:24.120692 23706 net.cpp:406] relu2_2 <- conv2_2
I0419 03:20:24.120702 23706 net.cpp:367] relu2_2 -> conv2_2 (in-place)
I0419 03:20:24.121068 23706 net.cpp:122] Setting up relu2_2
I0419 03:20:24.121099 23706 net.cpp:129] Top shape: 1 128 355 355 (16131200)
I0419 03:20:24.121106 23706 net.cpp:137] Memory required for data: 834871564
I0419 03:20:24.121114 23706 layer_factory.hpp:77] Creating layer pool2
I0419 03:20:24.121129 23706 net.cpp:84] Creating Layer pool2
I0419 03:20:24.121136 23706 net.cpp:406] pool2 <- conv2_2
I0419 03:20:24.121147 23706 net.cpp:380] pool2 -> pool2
I0419 03:20:24.121230 23706 net.cpp:122] Setting up pool2
I0419 03:20:24.121245 23706 net.cpp:129] Top shape: 1 128 178 178 (4055552)
I0419 03:20:24.121253 23706 net.cpp:137] Memory required for data: 851093772
I0419 03:20:24.121260 23706 layer_factory.hpp:77] Creating layer conv3_1
I0419 03:20:24.121276 23706 net.cpp:84] Creating Layer conv3_1
I0419 03:20:24.121294 23706 net.cpp:406] conv3_1 <- pool2
I0419 03:20:24.121304 23706 net.cpp:380] conv3_1 -> conv3_1
I0419 03:20:24.125687 23706 net.cpp:122] Setting up conv3_1
I0419 03:20:24.125730 23706 net.cpp:129] Top shape: 1 256 178 178 (8111104)
I0419 03:20:24.125739 23706 net.cpp:137] Memory required for data: 883538188
I0419 03:20:24.125780 23706 layer_factory.hpp:77] Creating layer relu3_1
I0419 03:20:24.125795 23706 net.cpp:84] Creating Layer relu3_1
I0419 03:20:24.125805 23706 net.cpp:406] relu3_1 <- conv3_1
I0419 03:20:24.125818 23706 net.cpp:367] relu3_1 -> conv3_1 (in-place)
I0419 03:20:24.126996 23706 net.cpp:122] Setting up relu3_1
I0419 03:20:24.127025 23706 net.cpp:129] Top shape: 1 256 178 178 (8111104)
I0419 03:20:24.127038 23706 net.cpp:137] Memory required for data: 915982604
I0419 03:20:24.127046 23706 layer_factory.hpp:77] Creating layer conv3_2
I0419 03:20:24.127074 23706 net.cpp:84] Creating Layer conv3_2
I0419 03:20:24.127081 23706 net.cpp:406] conv3_2 <- conv3_1
I0419 03:20:24.127102 23706 net.cpp:380] conv3_2 -> conv3_2
I0419 03:20:24.134387 23706 net.cpp:122] Setting up conv3_2
I0419 03:20:24.134418 23706 net.cpp:129] Top shape: 1 256 178 178 (8111104)
I0419 03:20:24.134430 23706 net.cpp:137] Memory required for data: 948427020
I0419 03:20:24.134446 23706 layer_factory.hpp:77] Creating layer relu3_2
I0419 03:20:24.134474 23706 net.cpp:84] Creating Layer relu3_2
I0419 03:20:24.134483 23706 net.cpp:406] relu3_2 <- conv3_2
I0419 03:20:24.134496 23706 net.cpp:367] relu3_2 -> conv3_2 (in-place)
I0419 03:20:24.136350 23706 net.cpp:122] Setting up relu3_2
I0419 03:20:24.136373 23706 net.cpp:129] Top shape: 1 256 178 178 (8111104)
I0419 03:20:24.136389 23706 net.cpp:137] Memory required for data: 980871436
I0419 03:20:24.136394 23706 layer_factory.hpp:77] Creating layer conv3_3
I0419 03:20:24.136406 23706 net.cpp:84] Creating Layer conv3_3
I0419 03:20:24.136412 23706 net.cpp:406] conv3_3 <- conv3_2
I0419 03:20:24.136421 23706 net.cpp:380] conv3_3 -> conv3_3
I0419 03:20:24.141665 23706 net.cpp:122] Setting up conv3_3
I0419 03:20:24.141703 23706 net.cpp:129] Top shape: 1 256 178 178 (8111104)
I0419 03:20:24.141712 23706 net.cpp:137] Memory required for data: 1013315852
I0419 03:20:24.141728 23706 layer_factory.hpp:77] Creating layer relu3_3
I0419 03:20:24.141742 23706 net.cpp:84] Creating Layer relu3_3
I0419 03:20:24.141752 23706 net.cpp:406] relu3_3 <- conv3_3
I0419 03:20:24.141763 23706 net.cpp:367] relu3_3 -> conv3_3 (in-place)
I0419 03:20:24.142128 23706 net.cpp:122] Setting up relu3_3
I0419 03:20:24.142148 23706 net.cpp:129] Top shape: 1 256 178 178 (8111104)
I0419 03:20:24.142155 23706 net.cpp:137] Memory required for data: 1045760268
I0419 03:20:24.142175 23706 layer_factory.hpp:77] Creating layer pool3
I0419 03:20:24.142189 23706 net.cpp:84] Creating Layer pool3
I0419 03:20:24.142197 23706 net.cpp:406] pool3 <- conv3_3
I0419 03:20:24.142208 23706 net.cpp:380] pool3 -> pool3
I0419 03:20:24.142294 23706 net.cpp:122] Setting up pool3
I0419 03:20:24.142309 23706 net.cpp:129] Top shape: 1 256 89 89 (2027776)
I0419 03:20:24.142316 23706 net.cpp:137] Memory required for data: 1053871372
I0419 03:20:24.142323 23706 layer_factory.hpp:77] Creating layer pool3_pool3_0_split
I0419 03:20:24.142335 23706 net.cpp:84] Creating Layer pool3_pool3_0_split
I0419 03:20:24.142343 23706 net.cpp:406] pool3_pool3_0_split <- pool3
I0419 03:20:24.142354 23706 net.cpp:380] pool3_pool3_0_split -> pool3_pool3_0_split_0
I0419 03:20:24.142366 23706 net.cpp:380] pool3_pool3_0_split -> pool3_pool3_0_split_1
I0419 03:20:24.142431 23706 net.cpp:122] Setting up pool3_pool3_0_split
I0419 03:20:24.142449 23706 net.cpp:129] Top shape: 1 256 89 89 (2027776)
I0419 03:20:24.142458 23706 net.cpp:129] Top shape: 1 256 89 89 (2027776)
I0419 03:20:24.142465 23706 net.cpp:137] Memory required for data: 1070093580
I0419 03:20:24.142472 23706 layer_factory.hpp:77] Creating layer conv4_1
I0419 03:20:24.142488 23706 net.cpp:84] Creating Layer conv4_1
I0419 03:20:24.142494 23706 net.cpp:406] conv4_1 <- pool3_pool3_0_split_0
I0419 03:20:24.142506 23706 net.cpp:380] conv4_1 -> conv4_1
I0419 03:20:24.152896 23706 net.cpp:122] Setting up conv4_1
I0419 03:20:24.152930 23706 net.cpp:129] Top shape: 1 512 89 89 (4055552)
I0419 03:20:24.152935 23706 net.cpp:137] Memory required for data: 1086315788
I0419 03:20:24.152954 23706 layer_factory.hpp:77] Creating layer relu4_1
I0419 03:20:24.152964 23706 net.cpp:84] Creating Layer relu4_1
I0419 03:20:24.152971 23706 net.cpp:406] relu4_1 <- conv4_1
I0419 03:20:24.152978 23706 net.cpp:367] relu4_1 -> conv4_1 (in-place)
I0419 03:20:24.153254 23706 net.cpp:122] Setting up relu4_1
I0419 03:20:24.153267 23706 net.cpp:129] Top shape: 1 512 89 89 (4055552)
I0419 03:20:24.153272 23706 net.cpp:137] Memory required for data: 1102537996
I0419 03:20:24.153276 23706 layer_factory.hpp:77] Creating layer conv4_2
I0419 03:20:24.153288 23706 net.cpp:84] Creating Layer conv4_2
I0419 03:20:24.153293 23706 net.cpp:406] conv4_2 <- conv4_1
I0419 03:20:24.153301 23706 net.cpp:380] conv4_2 -> conv4_2
I0419 03:20:24.163818 23706 net.cpp:122] Setting up conv4_2
I0419 03:20:24.163838 23706 net.cpp:129] Top shape: 1 512 89 89 (4055552)
I0419 03:20:24.163844 23706 net.cpp:137] Memory required for data: 1118760204
I0419 03:20:24.163861 23706 layer_factory.hpp:77] Creating layer relu4_2
I0419 03:20:24.163871 23706 net.cpp:84] Creating Layer relu4_2
I0419 03:20:24.163877 23706 net.cpp:406] relu4_2 <- conv4_2
I0419 03:20:24.163884 23706 net.cpp:367] relu4_2 -> conv4_2 (in-place)
I0419 03:20:24.164119 23706 net.cpp:122] Setting up relu4_2
I0419 03:20:24.164130 23706 net.cpp:129] Top shape: 1 512 89 89 (4055552)
I0419 03:20:24.164135 23706 net.cpp:137] Memory required for data: 1134982412
I0419 03:20:24.164140 23706 layer_factory.hpp:77] Creating layer conv4_3
I0419 03:20:24.164151 23706 net.cpp:84] Creating Layer conv4_3
I0419 03:20:24.164156 23706 net.cpp:406] conv4_3 <- conv4_2
I0419 03:20:24.164175 23706 net.cpp:380] conv4_3 -> conv4_3
I0419 03:20:24.185775 23706 net.cpp:122] Setting up conv4_3
I0419 03:20:24.185816 23706 net.cpp:129] Top shape: 1 512 89 89 (4055552)
I0419 03:20:24.185822 23706 net.cpp:137] Memory required for data: 1151204620
I0419 03:20:24.185832 23706 layer_factory.hpp:77] Creating layer relu4_3
I0419 03:20:24.185842 23706 net.cpp:84] Creating Layer relu4_3
I0419 03:20:24.185849 23706 net.cpp:406] relu4_3 <- conv4_3
I0419 03:20:24.185858 23706 net.cpp:367] relu4_3 -> conv4_3 (in-place)
I0419 03:20:24.186106 23706 net.cpp:122] Setting up relu4_3
I0419 03:20:24.186120 23706 net.cpp:129] Top shape: 1 512 89 89 (4055552)
I0419 03:20:24.186125 23706 net.cpp:137] Memory required for data: 1167426828
I0419 03:20:24.186128 23706 layer_factory.hpp:77] Creating layer pool4
I0419 03:20:24.186138 23706 net.cpp:84] Creating Layer pool4
I0419 03:20:24.186143 23706 net.cpp:406] pool4 <- conv4_3
I0419 03:20:24.186151 23706 net.cpp:380] pool4 -> pool4
I0419 03:20:24.186266 23706 net.cpp:122] Setting up pool4
I0419 03:20:24.186283 23706 net.cpp:129] Top shape: 1 512 45 45 (1036800)
I0419 03:20:24.186298 23706 net.cpp:137] Memory required for data: 1171574028
I0419 03:20:24.186306 23706 layer_factory.hpp:77] Creating layer pool4_pool4_0_split
I0419 03:20:24.186318 23706 net.cpp:84] Creating Layer pool4_pool4_0_split
I0419 03:20:24.186326 23706 net.cpp:406] pool4_pool4_0_split <- pool4
I0419 03:20:24.186338 23706 net.cpp:380] pool4_pool4_0_split -> pool4_pool4_0_split_0
I0419 03:20:24.186352 23706 net.cpp:380] pool4_pool4_0_split -> pool4_pool4_0_split_1
I0419 03:20:24.186419 23706 net.cpp:122] Setting up pool4_pool4_0_split
I0419 03:20:24.186432 23706 net.cpp:129] Top shape: 1 512 45 45 (1036800)
I0419 03:20:24.186442 23706 net.cpp:129] Top shape: 1 512 45 45 (1036800)
I0419 03:20:24.186448 23706 net.cpp:137] Memory required for data: 1179868428
I0419 03:20:24.186455 23706 layer_factory.hpp:77] Creating layer conv5_1
I0419 03:20:24.186475 23706 net.cpp:84] Creating Layer conv5_1
I0419 03:20:24.186481 23706 net.cpp:406] conv5_1 <- pool4_pool4_0_split_0
I0419 03:20:24.186494 23706 net.cpp:380] conv5_1 -> conv5_1
I0419 03:20:24.200055 23706 net.cpp:122] Setting up conv5_1
I0419 03:20:24.200091 23706 net.cpp:129] Top shape: 1 512 45 45 (1036800)
I0419 03:20:24.200098 23706 net.cpp:137] Memory required for data: 1184015628
I0419 03:20:24.200107 23706 layer_factory.hpp:77] Creating layer relu5_1
I0419 03:20:24.200119 23706 net.cpp:84] Creating Layer relu5_1
I0419 03:20:24.200124 23706 net.cpp:406] relu5_1 <- conv5_1
I0419 03:20:24.200132 23706 net.cpp:367] relu5_1 -> conv5_1 (in-place)
I0419 03:20:24.200865 23706 net.cpp:122] Setting up relu5_1
I0419 03:20:24.200888 23706 net.cpp:129] Top shape: 1 512 45 45 (1036800)
I0419 03:20:24.200904 23706 net.cpp:137] Memory required for data: 1188162828
I0419 03:20:24.200909 23706 layer_factory.hpp:77] Creating layer conv5_2
I0419 03:20:24.200922 23706 net.cpp:84] Creating Layer conv5_2
I0419 03:20:24.200927 23706 net.cpp:406] conv5_2 <- conv5_1
I0419 03:20:24.200937 23706 net.cpp:380] conv5_2 -> conv5_2
I0419 03:20:24.209946 23706 net.cpp:122] Setting up conv5_2
I0419 03:20:24.209997 23706 net.cpp:129] Top shape: 1 512 45 45 (1036800)
I0419 03:20:24.210005 23706 net.cpp:137] Memory required for data: 1192310028
I0419 03:20:24.210019 23706 layer_factory.hpp:77] Creating layer relu5_2
I0419 03:20:24.210041 23706 net.cpp:84] Creating Layer relu5_2
I0419 03:20:24.210062 23706 net.cpp:406] relu5_2 <- conv5_2
I0419 03:20:24.210073 23706 net.cpp:367] relu5_2 -> conv5_2 (in-place)
I0419 03:20:24.211092 23706 net.cpp:122] Setting up relu5_2
I0419 03:20:24.211115 23706 net.cpp:129] Top shape: 1 512 45 45 (1036800)
I0419 03:20:24.211132 23706 net.cpp:137] Memory required for data: 1196457228
I0419 03:20:24.211138 23706 layer_factory.hpp:77] Creating layer conv5_3
I0419 03:20:24.211153 23706 net.cpp:84] Creating Layer conv5_3
I0419 03:20:24.211160 23706 net.cpp:406] conv5_3 <- conv5_2
I0419 03:20:24.211184 23706 net.cpp:380] conv5_3 -> conv5_3
I0419 03:20:24.221464 23706 net.cpp:122] Setting up conv5_3
I0419 03:20:24.221490 23706 net.cpp:129] Top shape: 1 512 45 45 (1036800)
I0419 03:20:24.221496 23706 net.cpp:137] Memory required for data: 1200604428
I0419 03:20:24.221513 23706 layer_factory.hpp:77] Creating layer relu5_3
I0419 03:20:24.221523 23706 net.cpp:84] Creating Layer relu5_3
I0419 03:20:24.221529 23706 net.cpp:406] relu5_3 <- conv5_3
I0419 03:20:24.221537 23706 net.cpp:367] relu5_3 -> conv5_3 (in-place)
I0419 03:20:24.221765 23706 net.cpp:122] Setting up relu5_3
I0419 03:20:24.221777 23706 net.cpp:129] Top shape: 1 512 45 45 (1036800)
I0419 03:20:24.221782 23706 net.cpp:137] Memory required for data: 1204751628
I0419 03:20:24.221787 23706 layer_factory.hpp:77] Creating layer pool5
I0419 03:20:24.221797 23706 net.cpp:84] Creating Layer pool5
I0419 03:20:24.221802 23706 net.cpp:406] pool5 <- conv5_3
I0419 03:20:24.221812 23706 net.cpp:380] pool5 -> pool5
I0419 03:20:24.221874 23706 net.cpp:122] Setting up pool5
I0419 03:20:24.221884 23706 net.cpp:129] Top shape: 1 512 23 23 (270848)
I0419 03:20:24.221889 23706 net.cpp:137] Memory required for data: 1205835020
I0419 03:20:24.221892 23706 layer_factory.hpp:77] Creating layer fc6
I0419 03:20:24.221906 23706 net.cpp:84] Creating Layer fc6
I0419 03:20:24.221911 23706 net.cpp:406] fc6 <- pool5
I0419 03:20:24.221920 23706 net.cpp:380] fc6 -> fc6
I0419 03:20:24.519341 23706 net.cpp:122] Setting up fc6
I0419 03:20:24.519381 23706 net.cpp:129] Top shape: 1 4096 17 17 (1183744)
I0419 03:20:24.519387 23706 net.cpp:137] Memory required for data: 1210569996
I0419 03:20:24.519400 23706 layer_factory.hpp:77] Creating layer relu6
I0419 03:20:24.519414 23706 net.cpp:84] Creating Layer relu6
I0419 03:20:24.519421 23706 net.cpp:406] relu6 <- fc6
I0419 03:20:24.519429 23706 net.cpp:367] relu6 -> fc6 (in-place)
I0419 03:20:24.519670 23706 net.cpp:122] Setting up relu6
I0419 03:20:24.519682 23706 net.cpp:129] Top shape: 1 4096 17 17 (1183744)
I0419 03:20:24.519687 23706 net.cpp:137] Memory required for data: 1215304972
I0419 03:20:24.519692 23706 layer_factory.hpp:77] Creating layer drop6
I0419 03:20:24.519707 23706 net.cpp:84] Creating Layer drop6
I0419 03:20:24.519712 23706 net.cpp:406] drop6 <- fc6
I0419 03:20:24.519721 23706 net.cpp:367] drop6 -> fc6 (in-place)
I0419 03:20:24.519759 23706 net.cpp:122] Setting up drop6
I0419 03:20:24.519769 23706 net.cpp:129] Top shape: 1 4096 17 17 (1183744)
I0419 03:20:24.519773 23706 net.cpp:137] Memory required for data: 1220039948
I0419 03:20:24.519778 23706 layer_factory.hpp:77] Creating layer fc7
I0419 03:20:24.519789 23706 net.cpp:84] Creating Layer fc7
I0419 03:20:24.519794 23706 net.cpp:406] fc7 <- fc6
I0419 03:20:24.519803 23706 net.cpp:380] fc7 -> fc7
I0419 03:20:24.571434 23706 net.cpp:122] Setting up fc7
I0419 03:20:24.571470 23706 net.cpp:129] Top shape: 1 4096 17 17 (1183744)
I0419 03:20:24.571476 23706 net.cpp:137] Memory required for data: 1224774924
I0419 03:20:24.571490 23706 layer_factory.hpp:77] Creating layer relu7
I0419 03:20:24.571501 23706 net.cpp:84] Creating Layer relu7
I0419 03:20:24.571508 23706 net.cpp:406] relu7 <- fc7
I0419 03:20:24.571517 23706 net.cpp:367] relu7 -> fc7 (in-place)
I0419 03:20:24.572149 23706 net.cpp:122] Setting up relu7
I0419 03:20:24.572165 23706 net.cpp:129] Top shape: 1 4096 17 17 (1183744)
I0419 03:20:24.572170 23706 net.cpp:137] Memory required for data: 1229509900
I0419 03:20:24.572175 23706 layer_factory.hpp:77] Creating layer drop7
I0419 03:20:24.572185 23706 net.cpp:84] Creating Layer drop7
I0419 03:20:24.572190 23706 net.cpp:406] drop7 <- fc7
I0419 03:20:24.572197 23706 net.cpp:367] drop7 -> fc7 (in-place)
I0419 03:20:24.572235 23706 net.cpp:122] Setting up drop7
I0419 03:20:24.572242 23706 net.cpp:129] Top shape: 1 4096 17 17 (1183744)
I0419 03:20:24.572247 23706 net.cpp:137] Memory required for data: 1234244876
I0419 03:20:24.572250 23706 layer_factory.hpp:77] Creating layer score_fr-new
I0419 03:20:24.572263 23706 net.cpp:84] Creating Layer score_fr-new
I0419 03:20:24.572266 23706 net.cpp:406] score_fr-new <- fc7
I0419 03:20:24.572274 23706 net.cpp:380] score_fr-new -> score_fr-new
I0419 03:20:24.573725 23706 net.cpp:122] Setting up score_fr-new
I0419 03:20:24.573743 23706 net.cpp:129] Top shape: 1 3 17 17 (867)
I0419 03:20:24.573748 23706 net.cpp:137] Memory required for data: 1234248344
I0419 03:20:24.573756 23706 layer_factory.hpp:77] Creating layer upscore2-new
I0419 03:20:24.573776 23706 net.cpp:84] Creating Layer upscore2-new
I0419 03:20:24.573781 23706 net.cpp:406] upscore2-new <- score_fr-new
I0419 03:20:24.573791 23706 net.cpp:380] upscore2-new -> upscore2-new
I0419 03:20:24.574048 23706 net.cpp:122] Setting up upscore2-new
I0419 03:20:24.574059 23706 net.cpp:129] Top shape: 1 3 36 36 (3888)
I0419 03:20:24.574062 23706 net.cpp:137] Memory required for data: 1234263896
I0419 03:20:24.574079 23706 layer_factory.hpp:77] Creating layer upscore2-new_upscore2-new_0_split
I0419 03:20:24.574087 23706 net.cpp:84] Creating Layer upscore2-new_upscore2-new_0_split
I0419 03:20:24.574091 23706 net.cpp:406] upscore2-new_upscore2-new_0_split <- upscore2-new
I0419 03:20:24.574100 23706 net.cpp:380] upscore2-new_upscore2-new_0_split -> upscore2-new_upscore2-new_0_split_0
I0419 03:20:24.574106 23706 net.cpp:380] upscore2-new_upscore2-new_0_split -> upscore2-new_upscore2-new_0_split_1
I0419 03:20:24.574151 23706 net.cpp:122] Setting up upscore2-new_upscore2-new_0_split
I0419 03:20:24.574159 23706 net.cpp:129] Top shape: 1 3 36 36 (3888)
I0419 03:20:24.574172 23706 net.cpp:129] Top shape: 1 3 36 36 (3888)
I0419 03:20:24.574177 23706 net.cpp:137] Memory required for data: 1234295000
I0419 03:20:24.574185 23706 layer_factory.hpp:77] Creating layer score_pool4-new
I0419 03:20:24.574195 23706 net.cpp:84] Creating Layer score_pool4-new
I0419 03:20:24.574200 23706 net.cpp:406] score_pool4-new <- pool4_pool4_0_split_1
I0419 03:20:24.574209 23706 net.cpp:380] score_pool4-new -> score_pool4-new
I0419 03:20:24.575619 23706 net.cpp:122] Setting up score_pool4-new
I0419 03:20:24.575636 23706 net.cpp:129] Top shape: 1 3 45 45 (6075)
I0419 03:20:24.575641 23706 net.cpp:137] Memory required for data: 1234319300
I0419 03:20:24.575649 23706 layer_factory.hpp:77] Creating layer score_pool4c
I0419 03:20:24.575661 23706 net.cpp:84] Creating Layer score_pool4c
I0419 03:20:24.575666 23706 net.cpp:406] score_pool4c <- score_pool4-new
I0419 03:20:24.575673 23706 net.cpp:406] score_pool4c <- upscore2-new_upscore2-new_0_split_0
I0419 03:20:24.575680 23706 net.cpp:380] score_pool4c -> score_pool4c
I0419 03:20:24.575721 23706 net.cpp:122] Setting up score_pool4c
I0419 03:20:24.575727 23706 net.cpp:129] Top shape: 1 3 36 36 (3888)
I0419 03:20:24.575731 23706 net.cpp:137] Memory required for data: 1234334852
I0419 03:20:24.575738 23706 layer_factory.hpp:77] Creating layer fuse_pool4
I0419 03:20:24.575749 23706 net.cpp:84] Creating Layer fuse_pool4
I0419 03:20:24.575753 23706 net.cpp:406] fuse_pool4 <- upscore2-new_upscore2-new_0_split_1
I0419 03:20:24.575759 23706 net.cpp:406] fuse_pool4 <- score_pool4c
I0419 03:20:24.575767 23706 net.cpp:380] fuse_pool4 -> fuse_pool4
I0419 03:20:24.575798 23706 net.cpp:122] Setting up fuse_pool4
I0419 03:20:24.575804 23706 net.cpp:129] Top shape: 1 3 36 36 (3888)
I0419 03:20:24.575809 23706 net.cpp:137] Memory required for data: 1234350404
I0419 03:20:24.575812 23706 layer_factory.hpp:77] Creating layer upscore_pool4-new
I0419 03:20:24.575821 23706 net.cpp:84] Creating Layer upscore_pool4-new
I0419 03:20:24.575827 23706 net.cpp:406] upscore_pool4-new <- fuse_pool4
I0419 03:20:24.575834 23706 net.cpp:380] upscore_pool4-new -> upscore_pool4-new
I0419 03:20:24.576074 23706 net.cpp:122] Setting up upscore_pool4-new
I0419 03:20:24.576084 23706 net.cpp:129] Top shape: 1 3 74 74 (16428)
I0419 03:20:24.576089 23706 net.cpp:137] Memory required for data: 1234416116
I0419 03:20:24.576095 23706 layer_factory.hpp:77] Creating layer upscore_pool4-new_upscore_pool4-new_0_split
I0419 03:20:24.576102 23706 net.cpp:84] Creating Layer upscore_pool4-new_upscore_pool4-new_0_split
I0419 03:20:24.576107 23706 net.cpp:406] upscore_pool4-new_upscore_pool4-new_0_split <- upscore_pool4-new
I0419 03:20:24.576113 23706 net.cpp:380] upscore_pool4-new_upscore_pool4-new_0_split -> upscore_pool4-new_upscore_pool4-new_0_split_0
I0419 03:20:24.576122 23706 net.cpp:380] upscore_pool4-new_upscore_pool4-new_0_split -> upscore_pool4-new_upscore_pool4-new_0_split_1
I0419 03:20:24.576164 23706 net.cpp:122] Setting up upscore_pool4-new_upscore_pool4-new_0_split
I0419 03:20:24.576172 23706 net.cpp:129] Top shape: 1 3 74 74 (16428)
I0419 03:20:24.576177 23706 net.cpp:129] Top shape: 1 3 74 74 (16428)
I0419 03:20:24.576181 23706 net.cpp:137] Memory required for data: 1234547540
I0419 03:20:24.576185 23706 layer_factory.hpp:77] Creating layer score_pool3-new
I0419 03:20:24.576196 23706 net.cpp:84] Creating Layer score_pool3-new
I0419 03:20:24.576200 23706 net.cpp:406] score_pool3-new <- pool3_pool3_0_split_1
I0419 03:20:24.576208 23706 net.cpp:380] score_pool3-new -> score_pool3-new
I0419 03:20:24.579319 23706 net.cpp:122] Setting up score_pool3-new
I0419 03:20:24.579387 23706 net.cpp:129] Top shape: 1 3 89 89 (23763)
I0419 03:20:24.579397 23706 net.cpp:137] Memory required for data: 1234642592
I0419 03:20:24.579417 23706 layer_factory.hpp:77] Creating layer score_pool3c
I0419 03:20:24.579439 23706 net.cpp:84] Creating Layer score_pool3c
I0419 03:20:24.579450 23706 net.cpp:406] score_pool3c <- score_pool3-new
I0419 03:20:24.579464 23706 net.cpp:406] score_pool3c <- upscore_pool4-new_upscore_pool4-new_0_split_0
I0419 03:20:24.579478 23706 net.cpp:380] score_pool3c -> score_pool3c
I0419 03:20:24.579545 23706 net.cpp:122] Setting up score_pool3c
I0419 03:20:24.579561 23706 net.cpp:129] Top shape: 1 3 74 74 (16428)
I0419 03:20:24.579568 23706 net.cpp:137] Memory required for data: 1234708304
I0419 03:20:24.579576 23706 layer_factory.hpp:77] Creating layer fuse_pool3
I0419 03:20:24.579589 23706 net.cpp:84] Creating Layer fuse_pool3
I0419 03:20:24.579597 23706 net.cpp:406] fuse_pool3 <- upscore_pool4-new_upscore_pool4-new_0_split_1
I0419 03:20:24.579607 23706 net.cpp:406] fuse_pool3 <- score_pool3c
I0419 03:20:24.579620 23706 net.cpp:380] fuse_pool3 -> fuse_pool3
I0419 03:20:24.579669 23706 net.cpp:122] Setting up fuse_pool3
I0419 03:20:24.579684 23706 net.cpp:129] Top shape: 1 3 74 74 (16428)
I0419 03:20:24.579689 23706 net.cpp:137] Memory required for data: 1234774016
I0419 03:20:24.579697 23706 layer_factory.hpp:77] Creating layer upscore8-new
I0419 03:20:24.579713 23706 net.cpp:84] Creating Layer upscore8-new
I0419 03:20:24.579721 23706 net.cpp:406] upscore8-new <- fuse_pool3
I0419 03:20:24.579733 23706 net.cpp:380] upscore8-new -> upscore8-new
I0419 03:20:24.580178 23706 net.cpp:122] Setting up upscore8-new
I0419 03:20:24.580195 23706 net.cpp:129] Top shape: 1 3 600 600 (1080000)
I0419 03:20:24.580202 23706 net.cpp:137] Memory required for data: 1239094016
I0419 03:20:24.580212 23706 layer_factory.hpp:77] Creating layer upscore8_cropped
I0419 03:20:24.580224 23706 net.cpp:84] Creating Layer upscore8_cropped
I0419 03:20:24.580232 23706 net.cpp:406] upscore8_cropped <- upscore8-new
I0419 03:20:24.580243 23706 net.cpp:406] upscore8_cropped <- data_data_0_split_1
I0419 03:20:24.580255 23706 net.cpp:380] upscore8_cropped -> upscore8_cropped
I0419 03:20:24.580301 23706 net.cpp:122] Setting up upscore8_cropped
I0419 03:20:24.580312 23706 net.cpp:129] Top shape: 1 3 512 512 (786432)
I0419 03:20:24.580317 23706 net.cpp:137] Memory required for data: 1242239744
I0419 03:20:24.580324 23706 layer_factory.hpp:77] Creating layer score
I0419 03:20:24.580343 23706 net.cpp:84] Creating Layer score
I0419 03:20:24.580351 23706 net.cpp:406] score <- upscore8_cropped
I0419 03:20:24.580364 23706 net.cpp:380] score -> score
I0419 03:20:24.587411 23706 net.cpp:122] Setting up score
I0419 03:20:24.587448 23706 net.cpp:129] Top shape: 1 3 512 512 (786432)
I0419 03:20:24.587458 23706 net.cpp:137] Memory required for data: 1245385472
I0419 03:20:24.587476 23706 layer_factory.hpp:77] Creating layer score_score_0_split
I0419 03:20:24.587491 23706 net.cpp:84] Creating Layer score_score_0_split
I0419 03:20:24.587501 23706 net.cpp:406] score_score_0_split <- score
I0419 03:20:24.587514 23706 net.cpp:380] score_score_0_split -> score_score_0_split_0
I0419 03:20:24.587532 23706 net.cpp:380] score_score_0_split -> score_score_0_split_1
I0419 03:20:24.587651 23706 net.cpp:122] Setting up score_score_0_split
I0419 03:20:24.587669 23706 net.cpp:129] Top shape: 1 3 512 512 (786432)
I0419 03:20:24.587679 23706 net.cpp:129] Top shape: 1 3 512 512 (786432)
I0419 03:20:24.587687 23706 net.cpp:137] Memory required for data: 1251676928
I0419 03:20:24.587694 23706 layer_factory.hpp:77] Creating layer prob
I0419 03:20:24.587707 23706 net.cpp:84] Creating Layer prob
I0419 03:20:24.587715 23706 net.cpp:406] prob <- score_score_0_split_0
I0419 03:20:24.587728 23706 net.cpp:380] prob -> prob
I0419 03:20:24.588207 23706 net.cpp:122] Setting up prob
I0419 03:20:24.588238 23706 net.cpp:129] Top shape: 1 3 512 512 (786432)
I0419 03:20:24.588245 23706 net.cpp:137] Memory required for data: 1254822656
I0419 03:20:24.588253 23706 layer_factory.hpp:77] Creating layer saliency
I0419 03:20:24.588274 23706 net.cpp:84] Creating Layer saliency
I0419 03:20:24.588284 23706 net.cpp:406] saliency <- prob
I0419 03:20:24.588306 23706 net.cpp:380] saliency -> saliency
I0419 03:20:24.591876 23706 net.cpp:122] Setting up saliency
I0419 03:20:24.591912 23706 net.cpp:129] Top shape: 1 3 512 512 (786432)
I0419 03:20:24.591922 23706 net.cpp:137] Memory required for data: 1257968384
I0419 03:20:24.591936 23706 layer_factory.hpp:77] Creating layer silence_saliency
I0419 03:20:24.591955 23706 net.cpp:84] Creating Layer silence_saliency
I0419 03:20:24.591965 23706 net.cpp:406] silence_saliency <- saliency
I0419 03:20:24.591985 23706 net.cpp:122] Setting up silence_saliency
I0419 03:20:24.591992 23706 net.cpp:137] Memory required for data: 1257968384
I0419 03:20:24.592000 23706 layer_factory.hpp:77] Creating layer crop
I0419 03:20:24.592595 23706 net.cpp:84] Creating Layer crop
I0419 03:20:24.592615 23706 net.cpp:406] crop <- label_data_1_split_0
I0419 03:20:24.592629 23706 net.cpp:406] crop <- data_data_0_split_2
I0419 03:20:24.592640 23706 net.cpp:406] crop <- crop_margin
I0419 03:20:24.592650 23706 net.cpp:406] crop <- crop_prob
I0419 03:20:24.592659 23706 net.cpp:406] crop <- crop_sample_batch
I0419 03:20:24.592671 23706 net.cpp:380] crop -> data-R
I0419 03:20:24.592689 23706 net.cpp:380] crop -> crop_info
I0419 03:20:24.607410 23706 net.cpp:122] Setting up crop
I0419 03:20:24.607456 23706 net.cpp:129] Top shape: 1 3 512 512 (786432)
I0419 03:20:24.607465 23706 net.cpp:129] Top shape: 1 2 4 (8)
I0419 03:20:24.607468 23706 net.cpp:137] Memory required for data: 1261114144
I0419 03:20:24.607476 23706 layer_factory.hpp:77] Creating layer data-R_crop_0_split
I0419 03:20:24.607491 23706 net.cpp:84] Creating Layer data-R_crop_0_split
I0419 03:20:24.607498 23706 net.cpp:406] data-R_crop_0_split <- data-R
I0419 03:20:24.607509 23706 net.cpp:380] data-R_crop_0_split -> data-R_crop_0_split_0
I0419 03:20:24.607525 23706 net.cpp:380] data-R_crop_0_split -> data-R_crop_0_split_1
I0419 03:20:24.607587 23706 net.cpp:122] Setting up data-R_crop_0_split
I0419 03:20:24.607594 23706 net.cpp:129] Top shape: 1 3 512 512 (786432)
I0419 03:20:24.607599 23706 net.cpp:129] Top shape: 1 3 512 512 (786432)
I0419 03:20:24.607604 23706 net.cpp:137] Memory required for data: 1267405600
I0419 03:20:24.607607 23706 layer_factory.hpp:77] Creating layer conv1_1-R
I0419 03:20:24.607622 23706 net.cpp:84] Creating Layer conv1_1-R
I0419 03:20:24.607630 23706 net.cpp:406] conv1_1-R <- data-R_crop_0_split_0
I0419 03:20:24.607637 23706 net.cpp:380] conv1_1-R -> conv1_1-R
I0419 03:20:24.615221 23706 net.cpp:122] Setting up conv1_1-R
I0419 03:20:24.615272 23706 net.cpp:129] Top shape: 1 64 710 710 (32262400)
I0419 03:20:24.615278 23706 net.cpp:137] Memory required for data: 1396455200
I0419 03:20:24.615322 23706 layer_factory.hpp:77] Creating layer relu1_1-R
I0419 03:20:24.615365 23706 net.cpp:84] Creating Layer relu1_1-R
I0419 03:20:24.615435 23706 net.cpp:406] relu1_1-R <- conv1_1-R
I0419 03:20:24.615454 23706 net.cpp:367] relu1_1-R -> conv1_1-R (in-place)
I0419 03:20:24.615885 23706 net.cpp:122] Setting up relu1_1-R
I0419 03:20:24.615911 23706 net.cpp:129] Top shape: 1 64 710 710 (32262400)
I0419 03:20:24.615916 23706 net.cpp:137] Memory required for data: 1525504800
I0419 03:20:24.615927 23706 layer_factory.hpp:77] Creating layer conv1_2-R
I0419 03:20:24.616037 23706 net.cpp:84] Creating Layer conv1_2-R
I0419 03:20:24.616047 23706 net.cpp:406] conv1_2-R <- conv1_1-R
I0419 03:20:24.616057 23706 net.cpp:380] conv1_2-R -> conv1_2-R
I0419 03:20:24.620813 23706 net.cpp:122] Setting up conv1_2-R
I0419 03:20:24.620834 23706 net.cpp:129] Top shape: 1 64 710 710 (32262400)
I0419 03:20:24.620851 23706 net.cpp:137] Memory required for data: 1654554400
I0419 03:20:24.620859 23706 layer_factory.hpp:77] Creating layer relu1_2-R
I0419 03:20:24.620870 23706 net.cpp:84] Creating Layer relu1_2-R
I0419 03:20:24.620875 23706 net.cpp:406] relu1_2-R <- conv1_2-R
I0419 03:20:24.620882 23706 net.cpp:367] relu1_2-R -> conv1_2-R (in-place)
I0419 03:20:24.621141 23706 net.cpp:122] Setting up relu1_2-R
I0419 03:20:24.621155 23706 net.cpp:129] Top shape: 1 64 710 710 (32262400)
I0419 03:20:24.621160 23706 net.cpp:137] Memory required for data: 1783604000
I0419 03:20:24.621167 23706 layer_factory.hpp:77] Creating layer pool1-R
I0419 03:20:24.621189 23706 net.cpp:84] Creating Layer pool1-R
I0419 03:20:24.621196 23706 net.cpp:406] pool1-R <- conv1_2-R
I0419 03:20:24.621202 23706 net.cpp:380] pool1-R -> pool1-R
I0419 03:20:24.621268 23706 net.cpp:122] Setting up pool1-R
I0419 03:20:24.621278 23706 net.cpp:129] Top shape: 1 64 355 355 (8065600)
I0419 03:20:24.621281 23706 net.cpp:137] Memory required for data: 1815866400
I0419 03:20:24.621292 23706 layer_factory.hpp:77] Creating layer conv2_1-R
I0419 03:20:24.621312 23706 net.cpp:84] Creating Layer conv2_1-R
I0419 03:20:24.621317 23706 net.cpp:406] conv2_1-R <- pool1-R
I0419 03:20:24.621325 23706 net.cpp:380] conv2_1-R -> conv2_1-R
I0419 03:20:24.623487 23706 net.cpp:122] Setting up conv2_1-R
I0419 03:20:24.623505 23706 net.cpp:129] Top shape: 1 128 355 355 (16131200)
I0419 03:20:24.623522 23706 net.cpp:137] Memory required for data: 1880391200
I0419 03:20:24.623530 23706 layer_factory.hpp:77] Creating layer relu2_1-R
I0419 03:20:24.623540 23706 net.cpp:84] Creating Layer relu2_1-R
I0419 03:20:24.623545 23706 net.cpp:406] relu2_1-R <- conv2_1-R
I0419 03:20:24.623554 23706 net.cpp:367] relu2_1-R -> conv2_1-R (in-place)
I0419 03:20:24.623795 23706 net.cpp:122] Setting up relu2_1-R
I0419 03:20:24.623808 23706 net.cpp:129] Top shape: 1 128 355 355 (16131200)
I0419 03:20:24.623812 23706 net.cpp:137] Memory required for data: 1944916000
I0419 03:20:24.623817 23706 layer_factory.hpp:77] Creating layer conv2_2-R
I0419 03:20:24.623831 23706 net.cpp:84] Creating Layer conv2_2-R
I0419 03:20:24.623836 23706 net.cpp:406] conv2_2-R <- conv2_1-R
I0419 03:20:24.623845 23706 net.cpp:380] conv2_2-R -> conv2_2-R
I0419 03:20:24.629426 23706 net.cpp:122] Setting up conv2_2-R
I0419 03:20:24.629464 23706 net.cpp:129] Top shape: 1 128 355 355 (16131200)
I0419 03:20:24.629475 23706 net.cpp:137] Memory required for data: 2009440800
I0419 03:20:24.629492 23706 layer_factory.hpp:77] Creating layer relu2_2-R
I0419 03:20:24.629520 23706 net.cpp:84] Creating Layer relu2_2-R
I0419 03:20:24.629530 23706 net.cpp:406] relu2_2-R <- conv2_2-R
I0419 03:20:24.629542 23706 net.cpp:367] relu2_2-R -> conv2_2-R (in-place)
I0419 03:20:24.630673 23706 net.cpp:122] Setting up relu2_2-R
I0419 03:20:24.630703 23706 net.cpp:129] Top shape: 1 128 355 355 (16131200)
I0419 03:20:24.630712 23706 net.cpp:137] Memory required for data: 2073965600
I0419 03:20:24.630719 23706 layer_factory.hpp:77] Creating layer pool2-R
I0419 03:20:24.630741 23706 net.cpp:84] Creating Layer pool2-R
I0419 03:20:24.630749 23706 net.cpp:406] pool2-R <- conv2_2-R
I0419 03:20:24.630770 23706 net.cpp:380] pool2-R -> pool2-R
I0419 03:20:24.630872 23706 net.cpp:122] Setting up pool2-R
I0419 03:20:24.630888 23706 net.cpp:129] Top shape: 1 128 178 178 (4055552)
I0419 03:20:24.630895 23706 net.cpp:137] Memory required for data: 2090187808
I0419 03:20:24.630903 23706 layer_factory.hpp:77] Creating layer conv3_1-R
I0419 03:20:24.630920 23706 net.cpp:84] Creating Layer conv3_1-R
I0419 03:20:24.630928 23706 net.cpp:406] conv3_1-R <- pool2-R
I0419 03:20:24.630941 23706 net.cpp:380] conv3_1-R -> conv3_1-R
I0419 03:20:24.638288 23706 net.cpp:122] Setting up conv3_1-R
I0419 03:20:24.638331 23706 net.cpp:129] Top shape: 1 256 178 178 (8111104)
I0419 03:20:24.638339 23706 net.cpp:137] Memory required for data: 2122632224
I0419 03:20:24.638356 23706 layer_factory.hpp:77] Creating layer relu3_1-R
I0419 03:20:24.638376 23706 net.cpp:84] Creating Layer relu3_1-R
I0419 03:20:24.638386 23706 net.cpp:406] relu3_1-R <- conv3_1-R
I0419 03:20:24.638397 23706 net.cpp:367] relu3_1-R -> conv3_1-R (in-place)
I0419 03:20:24.638731 23706 net.cpp:122] Setting up relu3_1-R
I0419 03:20:24.638743 23706 net.cpp:129] Top shape: 1 256 178 178 (8111104)
I0419 03:20:24.638748 23706 net.cpp:137] Memory required for data: 2155076640
I0419 03:20:24.638752 23706 layer_factory.hpp:77] Creating layer conv3_2-R
I0419 03:20:24.638767 23706 net.cpp:84] Creating Layer conv3_2-R
I0419 03:20:24.638772 23706 net.cpp:406] conv3_2-R <- conv3_1-R
I0419 03:20:24.638780 23706 net.cpp:380] conv3_2-R -> conv3_2-R
I0419 03:20:24.642875 23706 net.cpp:122] Setting up conv3_2-R
I0419 03:20:24.642895 23706 net.cpp:129] Top shape: 1 256 178 178 (8111104)
I0419 03:20:24.642900 23706 net.cpp:137] Memory required for data: 2187521056
I0419 03:20:24.642915 23706 layer_factory.hpp:77] Creating layer relu3_2-R
I0419 03:20:24.642926 23706 net.cpp:84] Creating Layer relu3_2-R
I0419 03:20:24.642932 23706 net.cpp:406] relu3_2-R <- conv3_2-R
I0419 03:20:24.642940 23706 net.cpp:367] relu3_2-R -> conv3_2-R (in-place)
I0419 03:20:24.643182 23706 net.cpp:122] Setting up relu3_2-R
I0419 03:20:24.643194 23706 net.cpp:129] Top shape: 1 256 178 178 (8111104)
I0419 03:20:24.643198 23706 net.cpp:137] Memory required for data: 2219965472
I0419 03:20:24.643203 23706 layer_factory.hpp:77] Creating layer conv3_3-R
I0419 03:20:24.643216 23706 net.cpp:84] Creating Layer conv3_3-R
I0419 03:20:24.643221 23706 net.cpp:406] conv3_3-R <- conv3_2-R
I0419 03:20:24.643234 23706 net.cpp:380] conv3_3-R -> conv3_3-R
I0419 03:20:24.648138 23706 net.cpp:122] Setting up conv3_3-R
I0419 03:20:24.648172 23706 net.cpp:129] Top shape: 1 256 178 178 (8111104)
I0419 03:20:24.648178 23706 net.cpp:137] Memory required for data: 2252409888
I0419 03:20:24.648188 23706 layer_factory.hpp:77] Creating layer relu3_3-R
I0419 03:20:24.648197 23706 net.cpp:84] Creating Layer relu3_3-R
I0419 03:20:24.648203 23706 net.cpp:406] relu3_3-R <- conv3_3-R
I0419 03:20:24.648217 23706 net.cpp:367] relu3_3-R -> conv3_3-R (in-place)
I0419 03:20:24.648460 23706 net.cpp:122] Setting up relu3_3-R
I0419 03:20:24.648473 23706 net.cpp:129] Top shape: 1 256 178 178 (8111104)
I0419 03:20:24.648478 23706 net.cpp:137] Memory required for data: 2284854304
I0419 03:20:24.648481 23706 layer_factory.hpp:77] Creating layer pool3-R
I0419 03:20:24.648494 23706 net.cpp:84] Creating Layer pool3-R
I0419 03:20:24.648499 23706 net.cpp:406] pool3-R <- conv3_3-R
I0419 03:20:24.648506 23706 net.cpp:380] pool3-R -> pool3-R
I0419 03:20:24.648566 23706 net.cpp:122] Setting up pool3-R
I0419 03:20:24.648576 23706 net.cpp:129] Top shape: 1 256 89 89 (2027776)
I0419 03:20:24.648581 23706 net.cpp:137] Memory required for data: 2292965408
I0419 03:20:24.648587 23706 layer_factory.hpp:77] Creating layer pool3-R_pool3-R_0_split
I0419 03:20:24.648594 23706 net.cpp:84] Creating Layer pool3-R_pool3-R_0_split
I0419 03:20:24.648599 23706 net.cpp:406] pool3-R_pool3-R_0_split <- pool3-R
I0419 03:20:24.648607 23706 net.cpp:380] pool3-R_pool3-R_0_split -> pool3-R_pool3-R_0_split_0
I0419 03:20:24.648615 23706 net.cpp:380] pool3-R_pool3-R_0_split -> pool3-R_pool3-R_0_split_1
I0419 03:20:24.648661 23706 net.cpp:122] Setting up pool3-R_pool3-R_0_split
I0419 03:20:24.648670 23706 net.cpp:129] Top shape: 1 256 89 89 (2027776)
I0419 03:20:24.648676 23706 net.cpp:129] Top shape: 1 256 89 89 (2027776)
I0419 03:20:24.648680 23706 net.cpp:137] Memory required for data: 2309187616
I0419 03:20:24.648684 23706 layer_factory.hpp:77] Creating layer conv4_1-R
I0419 03:20:24.648694 23706 net.cpp:84] Creating Layer conv4_1-R
I0419 03:20:24.648699 23706 net.cpp:406] conv4_1-R <- pool3-R_pool3-R_0_split_0
I0419 03:20:24.648707 23706 net.cpp:380] conv4_1-R -> conv4_1-R
I0419 03:20:24.655642 23706 net.cpp:122] Setting up conv4_1-R
I0419 03:20:24.655663 23706 net.cpp:129] Top shape: 1 512 89 89 (4055552)
I0419 03:20:24.655674 23706 net.cpp:137] Memory required for data: 2325409824
I0419 03:20:24.655685 23706 layer_factory.hpp:77] Creating layer relu4_1-R
I0419 03:20:24.655694 23706 net.cpp:84] Creating Layer relu4_1-R
I0419 03:20:24.655700 23706 net.cpp:406] relu4_1-R <- conv4_1-R
I0419 03:20:24.655709 23706 net.cpp:367] relu4_1-R -> conv4_1-R (in-place)
I0419 03:20:24.655962 23706 net.cpp:122] Setting up relu4_1-R
I0419 03:20:24.655975 23706 net.cpp:129] Top shape: 1 512 89 89 (4055552)
I0419 03:20:24.655979 23706 net.cpp:137] Memory required for data: 2341632032
I0419 03:20:24.655984 23706 layer_factory.hpp:77] Creating layer conv4_2-R
I0419 03:20:24.655997 23706 net.cpp:84] Creating Layer conv4_2-R
I0419 03:20:24.656002 23706 net.cpp:406] conv4_2-R <- conv4_1-R
I0419 03:20:24.656010 23706 net.cpp:380] conv4_2-R -> conv4_2-R
I0419 03:20:24.664600 23706 net.cpp:122] Setting up conv4_2-R
I0419 03:20:24.664621 23706 net.cpp:129] Top shape: 1 512 89 89 (4055552)
I0419 03:20:24.664626 23706 net.cpp:137] Memory required for data: 2357854240
I0419 03:20:24.664643 23706 layer_factory.hpp:77] Creating layer relu4_2-R
I0419 03:20:24.664651 23706 net.cpp:84] Creating Layer relu4_2-R
I0419 03:20:24.664656 23706 net.cpp:406] relu4_2-R <- conv4_2-R
I0419 03:20:24.664664 23706 net.cpp:367] relu4_2-R -> conv4_2-R (in-place)
I0419 03:20:24.664901 23706 net.cpp:122] Setting up relu4_2-R
I0419 03:20:24.664913 23706 net.cpp:129] Top shape: 1 512 89 89 (4055552)
I0419 03:20:24.664917 23706 net.cpp:137] Memory required for data: 2374076448
I0419 03:20:24.664922 23706 layer_factory.hpp:77] Creating layer conv4_3-R
I0419 03:20:24.664935 23706 net.cpp:84] Creating Layer conv4_3-R
I0419 03:20:24.664940 23706 net.cpp:406] conv4_3-R <- conv4_2-R
I0419 03:20:24.664948 23706 net.cpp:380] conv4_3-R -> conv4_3-R
I0419 03:20:24.685521 23706 net.cpp:122] Setting up conv4_3-R
I0419 03:20:24.685545 23706 net.cpp:129] Top shape: 1 512 89 89 (4055552)
I0419 03:20:24.685551 23706 net.cpp:137] Memory required for data: 2390298656
I0419 03:20:24.685560 23706 layer_factory.hpp:77] Creating layer relu4_3-R
I0419 03:20:24.685570 23706 net.cpp:84] Creating Layer relu4_3-R
I0419 03:20:24.685576 23706 net.cpp:406] relu4_3-R <- conv4_3-R
I0419 03:20:24.685585 23706 net.cpp:367] relu4_3-R -> conv4_3-R (in-place)
I0419 03:20:24.687782 23706 net.cpp:122] Setting up relu4_3-R
I0419 03:20:24.687803 23706 net.cpp:129] Top shape: 1 512 89 89 (4055552)
I0419 03:20:24.687808 23706 net.cpp:137] Memory required for data: 2406520864
I0419 03:20:24.687813 23706 layer_factory.hpp:77] Creating layer pool4-R
I0419 03:20:24.687826 23706 net.cpp:84] Creating Layer pool4-R
I0419 03:20:24.687832 23706 net.cpp:406] pool4-R <- conv4_3-R
I0419 03:20:24.687840 23706 net.cpp:380] pool4-R -> pool4-R
I0419 03:20:24.687904 23706 net.cpp:122] Setting up pool4-R
I0419 03:20:24.687914 23706 net.cpp:129] Top shape: 1 512 45 45 (1036800)
I0419 03:20:24.687918 23706 net.cpp:137] Memory required for data: 2410668064
I0419 03:20:24.687922 23706 layer_factory.hpp:77] Creating layer pool4-R_pool4-R_0_split
I0419 03:20:24.687932 23706 net.cpp:84] Creating Layer pool4-R_pool4-R_0_split
I0419 03:20:24.687937 23706 net.cpp:406] pool4-R_pool4-R_0_split <- pool4-R
I0419 03:20:24.687944 23706 net.cpp:380] pool4-R_pool4-R_0_split -> pool4-R_pool4-R_0_split_0
I0419 03:20:24.687952 23706 net.cpp:380] pool4-R_pool4-R_0_split -> pool4-R_pool4-R_0_split_1
I0419 03:20:24.687999 23706 net.cpp:122] Setting up pool4-R_pool4-R_0_split
I0419 03:20:24.688007 23706 net.cpp:129] Top shape: 1 512 45 45 (1036800)
I0419 03:20:24.688014 23706 net.cpp:129] Top shape: 1 512 45 45 (1036800)
I0419 03:20:24.688016 23706 net.cpp:137] Memory required for data: 2418962464
I0419 03:20:24.688021 23706 layer_factory.hpp:77] Creating layer conv5_1-R
I0419 03:20:24.688030 23706 net.cpp:84] Creating Layer conv5_1-R
I0419 03:20:24.688035 23706 net.cpp:406] conv5_1-R <- pool4-R_pool4-R_0_split_0
I0419 03:20:24.688042 23706 net.cpp:380] conv5_1-R -> conv5_1-R
I0419 03:20:24.700377 23706 net.cpp:122] Setting up conv5_1-R
I0419 03:20:24.700399 23706 net.cpp:129] Top shape: 1 512 45 45 (1036800)
I0419 03:20:24.700404 23706 net.cpp:137] Memory required for data: 2423109664
I0419 03:20:24.700436 23706 layer_factory.hpp:77] Creating layer relu5_1-R
I0419 03:20:24.700446 23706 net.cpp:84] Creating Layer relu5_1-R
I0419 03:20:24.700453 23706 net.cpp:406] relu5_1-R <- conv5_1-R
I0419 03:20:24.700459 23706 net.cpp:367] relu5_1-R -> conv5_1-R (in-place)
I0419 03:20:24.700690 23706 net.cpp:122] Setting up relu5_1-R
I0419 03:20:24.700701 23706 net.cpp:129] Top shape: 1 512 45 45 (1036800)
I0419 03:20:24.700706 23706 net.cpp:137] Memory required for data: 2427256864
I0419 03:20:24.700711 23706 layer_factory.hpp:77] Creating layer conv5_2-R
I0419 03:20:24.700722 23706 net.cpp:84] Creating Layer conv5_2-R
I0419 03:20:24.702026 23706 net.cpp:406] conv5_2-R <- conv5_1-R
I0419 03:20:24.702075 23706 net.cpp:380] conv5_2-R -> conv5_2-R
I0419 03:20:24.717924 23706 net.cpp:122] Setting up conv5_2-R
I0419 03:20:24.717974 23706 net.cpp:129] Top shape: 1 512 45 45 (1036800)
I0419 03:20:24.717983 23706 net.cpp:137] Memory required for data: 2431404064
I0419 03:20:24.717999 23706 layer_factory.hpp:77] Creating layer relu5_2-R
I0419 03:20:24.718025 23706 net.cpp:84] Creating Layer relu5_2-R
I0419 03:20:24.718035 23706 net.cpp:406] relu5_2-R <- conv5_2-R
I0419 03:20:24.718047 23706 net.cpp:367] relu5_2-R -> conv5_2-R (in-place)
I0419 03:20:24.718462 23706 net.cpp:122] Setting up relu5_2-R
I0419 03:20:24.718494 23706 net.cpp:129] Top shape: 1 512 45 45 (1036800)
I0419 03:20:24.718502 23706 net.cpp:137] Memory required for data: 2435551264
I0419 03:20:24.718509 23706 layer_factory.hpp:77] Creating layer conv5_3-R
I0419 03:20:24.718535 23706 net.cpp:84] Creating Layer conv5_3-R
I0419 03:20:24.718542 23706 net.cpp:406] conv5_3-R <- conv5_2-R
I0419 03:20:24.718565 23706 net.cpp:380] conv5_3-R -> conv5_3-R
I0419 03:20:24.728010 23706 net.cpp:122] Setting up conv5_3-R
I0419 03:20:24.728044 23706 net.cpp:129] Top shape: 1 512 45 45 (1036800)
I0419 03:20:24.728049 23706 net.cpp:137] Memory required for data: 2439698464
I0419 03:20:24.728058 23706 layer_factory.hpp:77] Creating layer relu5_3-R
I0419 03:20:24.728067 23706 net.cpp:84] Creating Layer relu5_3-R
I0419 03:20:24.728073 23706 net.cpp:406] relu5_3-R <- conv5_3-R
I0419 03:20:24.728092 23706 net.cpp:367] relu5_3-R -> conv5_3-R (in-place)
I0419 03:20:24.728330 23706 net.cpp:122] Setting up relu5_3-R
I0419 03:20:24.728343 23706 net.cpp:129] Top shape: 1 512 45 45 (1036800)
I0419 03:20:24.728348 23706 net.cpp:137] Memory required for data: 2443845664
I0419 03:20:24.728353 23706 layer_factory.hpp:77] Creating layer pool5-R
I0419 03:20:24.728366 23706 net.cpp:84] Creating Layer pool5-R
I0419 03:20:24.728370 23706 net.cpp:406] pool5-R <- conv5_3-R
I0419 03:20:24.728380 23706 net.cpp:380] pool5-R -> pool5-R
I0419 03:20:24.728449 23706 net.cpp:122] Setting up pool5-R
I0419 03:20:24.728458 23706 net.cpp:129] Top shape: 1 512 23 23 (270848)
I0419 03:20:24.728462 23706 net.cpp:137] Memory required for data: 2444929056
I0419 03:20:24.728468 23706 layer_factory.hpp:77] Creating layer fc6-R
I0419 03:20:24.728479 23706 net.cpp:84] Creating Layer fc6-R
I0419 03:20:24.728492 23706 net.cpp:406] fc6-R <- pool5-R
I0419 03:20:24.728502 23706 net.cpp:380] fc6-R -> fc6-R
I0419 03:20:25.052237 23706 net.cpp:122] Setting up fc6-R
I0419 03:20:25.052276 23706 net.cpp:129] Top shape: 1 4096 17 17 (1183744)
I0419 03:20:25.052284 23706 net.cpp:137] Memory required for data: 2449664032
I0419 03:20:25.052296 23706 layer_factory.hpp:77] Creating layer relu6-R
I0419 03:20:25.052310 23706 net.cpp:84] Creating Layer relu6-R
I0419 03:20:25.052319 23706 net.cpp:406] relu6-R <- fc6-R
I0419 03:20:25.052328 23706 net.cpp:367] relu6-R -> fc6-R (in-place)
I0419 03:20:25.052554 23706 net.cpp:122] Setting up relu6-R
I0419 03:20:25.052567 23706 net.cpp:129] Top shape: 1 4096 17 17 (1183744)
I0419 03:20:25.052572 23706 net.cpp:137] Memory required for data: 2454399008
I0419 03:20:25.052577 23706 layer_factory.hpp:77] Creating layer drop6-R
I0419 03:20:25.052587 23706 net.cpp:84] Creating Layer drop6-R
I0419 03:20:25.052592 23706 net.cpp:406] drop6-R <- fc6-R
I0419 03:20:25.052600 23706 net.cpp:367] drop6-R -> fc6-R (in-place)
I0419 03:20:25.052637 23706 net.cpp:122] Setting up drop6-R
I0419 03:20:25.052647 23706 net.cpp:129] Top shape: 1 4096 17 17 (1183744)
I0419 03:20:25.052651 23706 net.cpp:137] Memory required for data: 2459133984
I0419 03:20:25.052655 23706 layer_factory.hpp:77] Creating layer fc7-R
I0419 03:20:25.052670 23706 net.cpp:84] Creating Layer fc7-R
I0419 03:20:25.052677 23706 net.cpp:406] fc7-R <- fc6-R
I0419 03:20:25.052687 23706 net.cpp:380] fc7-R -> fc7-R
I0419 03:20:25.106613 23706 net.cpp:122] Setting up fc7-R
I0419 03:20:25.106660 23706 net.cpp:129] Top shape: 1 4096 17 17 (1183744)
I0419 03:20:25.106665 23706 net.cpp:137] Memory required for data: 2463868960
I0419 03:20:25.106683 23706 layer_factory.hpp:77] Creating layer relu7-R
I0419 03:20:25.106695 23706 net.cpp:84] Creating Layer relu7-R
I0419 03:20:25.106714 23706 net.cpp:406] relu7-R <- fc7-R
I0419 03:20:25.106724 23706 net.cpp:367] relu7-R -> fc7-R (in-place)
I0419 03:20:25.106967 23706 net.cpp:122] Setting up relu7-R
I0419 03:20:25.106979 23706 net.cpp:129] Top shape: 1 4096 17 17 (1183744)
I0419 03:20:25.106983 23706 net.cpp:137] Memory required for data: 2468603936
I0419 03:20:25.106988 23706 layer_factory.hpp:77] Creating layer drop7-R
I0419 03:20:25.107000 23706 net.cpp:84] Creating Layer drop7-R
I0419 03:20:25.107005 23706 net.cpp:406] drop7-R <- fc7-R
I0419 03:20:25.107012 23706 net.cpp:367] drop7-R -> fc7-R (in-place)
I0419 03:20:25.107051 23706 net.cpp:122] Setting up drop7-R
I0419 03:20:25.107061 23706 net.cpp:129] Top shape: 1 4096 17 17 (1183744)
I0419 03:20:25.107065 23706 net.cpp:137] Memory required for data: 2473338912
I0419 03:20:25.107069 23706 layer_factory.hpp:77] Creating layer score_fr-new-R
I0419 03:20:25.107082 23706 net.cpp:84] Creating Layer score_fr-new-R
I0419 03:20:25.107087 23706 net.cpp:406] score_fr-new-R <- fc7-R
I0419 03:20:25.107097 23706 net.cpp:380] score_fr-new-R -> score_fr-new-R
I0419 03:20:25.108713 23706 net.cpp:122] Setting up score_fr-new-R
I0419 03:20:25.108731 23706 net.cpp:129] Top shape: 1 3 17 17 (867)
I0419 03:20:25.108748 23706 net.cpp:137] Memory required for data: 2473342380
I0419 03:20:25.108757 23706 layer_factory.hpp:77] Creating layer upscore2-new-R
I0419 03:20:25.108767 23706 net.cpp:84] Creating Layer upscore2-new-R
I0419 03:20:25.108772 23706 net.cpp:406] upscore2-new-R <- score_fr-new-R
I0419 03:20:25.108791 23706 net.cpp:380] upscore2-new-R -> upscore2-new-R
I0419 03:20:25.109071 23706 net.cpp:122] Setting up upscore2-new-R
I0419 03:20:25.109081 23706 net.cpp:129] Top shape: 1 3 36 36 (3888)
I0419 03:20:25.109084 23706 net.cpp:137] Memory required for data: 2473357932
I0419 03:20:25.109091 23706 layer_factory.hpp:77] Creating layer upscore2-new-R_upscore2-new-R_0_split
I0419 03:20:25.109098 23706 net.cpp:84] Creating Layer upscore2-new-R_upscore2-new-R_0_split
I0419 03:20:25.109103 23706 net.cpp:406] upscore2-new-R_upscore2-new-R_0_split <- upscore2-new-R
I0419 03:20:25.109112 23706 net.cpp:380] upscore2-new-R_upscore2-new-R_0_split -> upscore2-new-R_upscore2-new-R_0_split_0
I0419 03:20:25.109120 23706 net.cpp:380] upscore2-new-R_upscore2-new-R_0_split -> upscore2-new-R_upscore2-new-R_0_split_1
I0419 03:20:25.109169 23706 net.cpp:122] Setting up upscore2-new-R_upscore2-new-R_0_split
I0419 03:20:25.109179 23706 net.cpp:129] Top shape: 1 3 36 36 (3888)
I0419 03:20:25.109184 23706 net.cpp:129] Top shape: 1 3 36 36 (3888)
I0419 03:20:25.109189 23706 net.cpp:137] Memory required for data: 2473389036
I0419 03:20:25.109192 23706 layer_factory.hpp:77] Creating layer score_pool4-new-R
I0419 03:20:25.109206 23706 net.cpp:84] Creating Layer score_pool4-new-R
I0419 03:20:25.109216 23706 net.cpp:406] score_pool4-new-R <- pool4-R_pool4-R_0_split_1
I0419 03:20:25.109225 23706 net.cpp:380] score_pool4-new-R -> score_pool4-new-R
I0419 03:20:25.110811 23706 net.cpp:122] Setting up score_pool4-new-R
I0419 03:20:25.110843 23706 net.cpp:129] Top shape: 1 3 45 45 (6075)
I0419 03:20:25.110848 23706 net.cpp:137] Memory required for data: 2473413336
I0419 03:20:25.110857 23706 layer_factory.hpp:77] Creating layer score_pool4c-R
I0419 03:20:25.110867 23706 net.cpp:84] Creating Layer score_pool4c-R
I0419 03:20:25.110872 23706 net.cpp:406] score_pool4c-R <- score_pool4-new-R
I0419 03:20:25.110890 23706 net.cpp:406] score_pool4c-R <- upscore2-new-R_upscore2-new-R_0_split_0
I0419 03:20:25.110898 23706 net.cpp:380] score_pool4c-R -> score_pool4c-R
I0419 03:20:25.110937 23706 net.cpp:122] Setting up score_pool4c-R
I0419 03:20:25.110947 23706 net.cpp:129] Top shape: 1 3 36 36 (3888)
I0419 03:20:25.110951 23706 net.cpp:137] Memory required for data: 2473428888
I0419 03:20:25.110955 23706 layer_factory.hpp:77] Creating layer fuse_pool4-R
I0419 03:20:25.110965 23706 net.cpp:84] Creating Layer fuse_pool4-R
I0419 03:20:25.110970 23706 net.cpp:406] fuse_pool4-R <- upscore2-new-R_upscore2-new-R_0_split_1
I0419 03:20:25.110975 23706 net.cpp:406] fuse_pool4-R <- score_pool4c-R
I0419 03:20:25.110985 23706 net.cpp:380] fuse_pool4-R -> fuse_pool4-R
I0419 03:20:25.111018 23706 net.cpp:122] Setting up fuse_pool4-R
I0419 03:20:25.111027 23706 net.cpp:129] Top shape: 1 3 36 36 (3888)
I0419 03:20:25.111032 23706 net.cpp:137] Memory required for data: 2473444440
I0419 03:20:25.111035 23706 layer_factory.hpp:77] Creating layer upscore_pool4-new-R
I0419 03:20:25.111055 23706 net.cpp:84] Creating Layer upscore_pool4-new-R
I0419 03:20:25.111059 23706 net.cpp:406] upscore_pool4-new-R <- fuse_pool4-R
I0419 03:20:25.111068 23706 net.cpp:380] upscore_pool4-new-R -> upscore_pool4-new-R
I0419 03:20:25.111331 23706 net.cpp:122] Setting up upscore_pool4-new-R
I0419 03:20:25.111341 23706 net.cpp:129] Top shape: 1 3 74 74 (16428)
I0419 03:20:25.111346 23706 net.cpp:137] Memory required for data: 2473510152
I0419 03:20:25.111362 23706 layer_factory.hpp:77] Creating layer upscore_pool4-new-R_upscore_pool4-new-R_0_split
I0419 03:20:25.111369 23706 net.cpp:84] Creating Layer upscore_pool4-new-R_upscore_pool4-new-R_0_split
I0419 03:20:25.111374 23706 net.cpp:406] upscore_pool4-new-R_upscore_pool4-new-R_0_split <- upscore_pool4-new-R
I0419 03:20:25.111387 23706 net.cpp:380] upscore_pool4-new-R_upscore_pool4-new-R_0_split -> upscore_pool4-new-R_upscore_pool4-new-R_0_split_0
I0419 03:20:25.111397 23706 net.cpp:380] upscore_pool4-new-R_upscore_pool4-new-R_0_split -> upscore_pool4-new-R_upscore_pool4-new-R_0_split_1
I0419 03:20:25.111443 23706 net.cpp:122] Setting up upscore_pool4-new-R_upscore_pool4-new-R_0_split
I0419 03:20:25.111450 23706 net.cpp:129] Top shape: 1 3 74 74 (16428)
I0419 03:20:25.111455 23706 net.cpp:129] Top shape: 1 3 74 74 (16428)
I0419 03:20:25.111459 23706 net.cpp:137] Memory required for data: 2473641576
I0419 03:20:25.111464 23706 layer_factory.hpp:77] Creating layer score_pool3-new-R
I0419 03:20:25.111476 23706 net.cpp:84] Creating Layer score_pool3-new-R
I0419 03:20:25.111481 23706 net.cpp:406] score_pool3-new-R <- pool3-R_pool3-R_0_split_1
I0419 03:20:25.111490 23706 net.cpp:380] score_pool3-new-R -> score_pool3-new-R
I0419 03:20:25.113082 23706 net.cpp:122] Setting up score_pool3-new-R
I0419 03:20:25.113101 23706 net.cpp:129] Top shape: 1 3 89 89 (23763)
I0419 03:20:25.113106 23706 net.cpp:137] Memory required for data: 2473736628
I0419 03:20:25.113119 23706 layer_factory.hpp:77] Creating layer score_pool3c-R
I0419 03:20:25.113128 23706 net.cpp:84] Creating Layer score_pool3c-R
I0419 03:20:25.113135 23706 net.cpp:406] score_pool3c-R <- score_pool3-new-R
I0419 03:20:25.113142 23706 net.cpp:406] score_pool3c-R <- upscore_pool4-new-R_upscore_pool4-new-R_0_split_0
I0419 03:20:25.113149 23706 net.cpp:380] score_pool3c-R -> score_pool3c-R
I0419 03:20:25.113196 23706 net.cpp:122] Setting up score_pool3c-R
I0419 03:20:25.113204 23706 net.cpp:129] Top shape: 1 3 74 74 (16428)
I0419 03:20:25.113207 23706 net.cpp:137] Memory required for data: 2473802340
I0419 03:20:25.113211 23706 layer_factory.hpp:77] Creating layer fuse_pool3-R
I0419 03:20:25.113222 23706 net.cpp:84] Creating Layer fuse_pool3-R
I0419 03:20:25.113227 23706 net.cpp:406] fuse_pool3-R <- upscore_pool4-new-R_upscore_pool4-new-R_0_split_1
I0419 03:20:25.113232 23706 net.cpp:406] fuse_pool3-R <- score_pool3c-R
I0419 03:20:25.113240 23706 net.cpp:380] fuse_pool3-R -> fuse_pool3-R
I0419 03:20:25.113273 23706 net.cpp:122] Setting up fuse_pool3-R
I0419 03:20:25.113282 23706 net.cpp:129] Top shape: 1 3 74 74 (16428)
I0419 03:20:25.113286 23706 net.cpp:137] Memory required for data: 2473868052
I0419 03:20:25.113291 23706 layer_factory.hpp:77] Creating layer upscore8-new-R
I0419 03:20:25.113299 23706 net.cpp:84] Creating Layer upscore8-new-R
I0419 03:20:25.113303 23706 net.cpp:406] upscore8-new-R <- fuse_pool3-R
I0419 03:20:25.113312 23706 net.cpp:380] upscore8-new-R -> upscore8-new-R
I0419 03:20:25.113646 23706 net.cpp:122] Setting up upscore8-new-R
I0419 03:20:25.113662 23706 net.cpp:129] Top shape: 1 3 600 600 (1080000)
I0419 03:20:25.113680 23706 net.cpp:137] Memory required for data: 2478188052
I0419 03:20:25.113690 23706 layer_factory.hpp:77] Creating layer upscore8_cropped-R
I0419 03:20:25.113705 23706 net.cpp:84] Creating Layer upscore8_cropped-R
I0419 03:20:25.113713 23706 net.cpp:406] upscore8_cropped-R <- upscore8-new-R
I0419 03:20:25.113724 23706 net.cpp:406] upscore8_cropped-R <- data-R_crop_0_split_1
I0419 03:20:25.113735 23706 net.cpp:380] upscore8_cropped-R -> upscore8_cropped-R
I0419 03:20:25.113808 23706 net.cpp:122] Setting up upscore8_cropped-R
I0419 03:20:25.113822 23706 net.cpp:129] Top shape: 1 3 512 512 (786432)
I0419 03:20:25.113831 23706 net.cpp:137] Memory required for data: 2481333780
I0419 03:20:25.113838 23706 layer_factory.hpp:77] Creating layer score-R
I0419 03:20:25.113858 23706 net.cpp:84] Creating Layer score-R
I0419 03:20:25.113869 23706 net.cpp:406] score-R <- upscore8_cropped-R
I0419 03:20:25.113883 23706 net.cpp:380] score-R -> score-R
I0419 03:20:25.118284 23706 net.cpp:122] Setting up score-R
I0419 03:20:25.118304 23706 net.cpp:129] Top shape: 1 3 512 512 (786432)
I0419 03:20:25.118310 23706 net.cpp:137] Memory required for data: 2484479508
I0419 03:20:25.118330 23706 layer_factory.hpp:77] Creating layer score_uncropped-R
I0419 03:20:25.118798 23706 net.cpp:84] Creating Layer score_uncropped-R
I0419 03:20:25.118813 23706 net.cpp:406] score_uncropped-R <- crop_info
I0419 03:20:25.118819 23706 net.cpp:406] score_uncropped-R <- score-R
I0419 03:20:25.118837 23706 net.cpp:406] score_uncropped-R <- data_data_0_split_3
I0419 03:20:25.118844 23706 net.cpp:380] score_uncropped-R -> score_uncropped-R
I0419 03:20:25.121140 23706 net.cpp:122] Setting up score_uncropped-R
I0419 03:20:25.121160 23706 net.cpp:129] Top shape: 1 3 512 512 (786432)
I0419 03:20:25.121165 23706 net.cpp:137] Memory required for data: 2487625236
I0419 03:20:25.121179 23706 layer_factory.hpp:77] Creating layer loss1
I0419 03:20:25.121196 23706 net.cpp:84] Creating Layer loss1
I0419 03:20:25.121207 23706 net.cpp:406] loss1 <- score_score_0_split_1
I0419 03:20:25.121214 23706 net.cpp:406] loss1 <- label_data_1_split_1
I0419 03:20:25.121222 23706 net.cpp:380] loss1 -> loss1
…
snapshot_prefix: "/media/Med_2T2/data2/models/snapshots/indiv:1e-5x10,20/FD1:ZI3_1_20180418_201418/train"
test_initialization: false
average_loss: 20
stepvalue: 40000
iter_size: 1
I0419 04:20:04.139099 23706 solver.cpp:77] Creating training net from train_net file: /media/Med_2T2/data2/prototxts/training_I3x10.prototxt
I0419 04:20:04.141167 23706 net.cpp:51] Initializing net from parameters: 
state {
  phase: TRAIN
}
layer {
  name: "data"
  type: "Python"
  top: "data"
  top: "label"
  top: "crop_margin"
  top: "crop_prob"
  top: "crop_sample_batch"
  python_param {
    module: "Data"
    layer: "DataLayer"
  }
}
layer {
  name: "conv1_1"
  type: "Convolution"
  bottom: "data"
  top: "conv1_1"
  param {
    lr_mult: 1
    decay_mult: 1
  }
  param {
    lr_mult: 2
    decay_mult: 0
  }
  convolution_param {
    num_output: 64
    pad: 100
    kernel_size: 3
    stride: 1
  }
}
layer {
  name: "relu1_1"
  type: "ReLU"
  bottom: "conv1_1"
  top: "conv1_1"
}
layer {
  name: "conv1_2"
  type: "Convolution"
  bottom: "conv1_1"
  top: "conv1_2"
  param {
    lr_mult: 1
    decay_mult: 1
  }
  param {
    lr_mult: 2
    decay_mult: 0
  }
  convolution_param {
    num_output: 64
    pad: 1
    kernel_size: 3
    stride: 1
  }
}
layer {
  name: "relu1_2"
  type: "ReLU"
  bottom: "conv1_2"
  top: "conv1_2"
}
layer {
  name: "pool1"
  type: "Pooling"
  bottom: "conv1_2"
  top: "pool1"
  pooling_param {
    pool: MAX
    kernel_size: 2
    stride: 2
  }
}
layer {
  name: "conv2_1"
  type: "Convolution"
  bottom: "pool1"
  top: "conv2_1"
  param {
    lr_mult: 1
    decay_mult: 1
  }
  param {
    lr_mult: 2
    decay_mult: 0
  }
  convolution_param {
    num_output: 128
    pad: 1
    kernel_size: 3
    stride: 1
  }
}
layer {
  name: "relu2_1"
  type: "ReLU"
  bottom: "conv2_1"
  top: "conv2_1"
}
layer {
  name: "conv2_2"
  type: "Convolution"
  bottom: "conv2_1"
  top: "conv2_2"
  param {
    lr_mult: 1
    decay_mult: 1
  }
  param {
    lr_mult: 2
    decay_mult: 0
  }
  convolution_param {
    num_output: 128
    pad: 1
    kernel_size: 3
    stride: 1
  }
}
layer {
  name: "relu2_2"
  type: "ReLU"
  bottom: "conv2_2"
  top: "conv2_2"
}
layer {
  name: "pool2"
  type: "Pooling"
  bottom: "conv2_2"
  top: "pool2"
  pooling_param {
    pool: MAX
    kernel_size: 2
    stride: 2
  }
}
layer {
  name: "conv3_1"
  type: "Convolution"
  bottom: "pool2"
  top: "conv3_1"
  param {
    lr_mult: 1
    decay_mult: 1
  }
  param {
    lr_mult: 2
    decay_mult: 0
  }
  convolution_param {
    num_output: 256
    pad: 1
    kernel_size: 3
    stride: 1
  }
}
layer {
  name: "relu3_1"
  type: "ReLU"
  bottom: "conv3_1"
  top: "conv3_1"
}
layer {
  name: "conv3_2"
  type: "Convolution"
  bottom: "conv3_1"
  top: "conv3_2"
  param {
    lr_mult: 1
    decay_mult: 1
  }
  param {
    lr_mult: 2
    decay_mult: 0
  }
  convolution_param {
    num_output: 256
    pad: 1
    kernel_size: 3
    stride: 1
  }
}
layer {
  name: "relu3_2"
  type: "ReLU"
  bottom: "conv3_2"
  top: "conv3_2"
}
layer {
  name: "conv3_3"
  type: "Convolution"
  bottom: "conv3_2"
  top: "conv3_3"
  param {
    lr_mult: 1
    decay_mult: 1
  }
  param {
    lr_mult: 2
    decay_mult: 0
  }
  convolution_param {
    num_output: 256
    pad: 1
    kernel_size: 3
    stride: 1
  }
}
layer {
  name: "relu3_3"
  type: "ReLU"
  bottom: "conv3_3"
  top: "conv3_3"
}
layer {
  name: "pool3"
  type: "Pooling"
  bottom: "conv3_3"
  top: "pool3"
  pooling_param {
    pool: MAX
    kernel_size: 2
    stride: 2
  }
}
layer {
  name: "conv4_1"
  type: "Convolution"
  bottom: "pool3"
  top: "conv4_1"
  param {
    lr_mult: 1
    decay_mult: 1
  }
  param {
    lr_mult: 2
    decay_mult: 0
  }
  convolution_param {
    num_output: 512
    pad: 1
    kernel_size: 3
    stride: 1
  }
}
layer {
  name: "relu4_1"
  type: "ReLU"
  bottom: "conv4_1"
  top: "conv4_1"
}
layer {
  name: "conv4_2"
  type: "Convolution"
  bottom: "conv4_1"
  top: "conv4_2"
  param {
    lr_mult: 1
    decay_mult: 1
  }
  param {
    lr_mult: 2
    decay_mult: 0
  }
  convolution_param {
    num_output: 512
    pad: 1
    kernel_size: 3
    stride: 1
  }
}
layer {
  name: "relu4_2"
  type: "ReLU"
  bottom: "conv4_2"
  top: "conv4_2"
}
layer {
  name: "conv4_3"
  type: "Convolution"
  bottom: "conv4_2"
  top: "conv4_3"
  param {
    lr_mult: 1
    decay_mult: 1
  }
  param {
    lr_mult: 2
    decay_mult: 0
  }
  convolution_param {
    num_output: 512
    pad: 1
    kernel_size: 3
    stride: 1
  }
}
layer {
  name: "relu4_3"
  type: "ReLU"
  bottom: "conv4_3"
  top: "conv4_3"
}
layer {
  name: "pool4"
  type: "Pooling"
  bottom: "conv4_3"
  top: "pool4"
  pooling_param {
    pool: MAX
    kernel_size: 2
    stride: 2
  }
}
layer {
  name: "conv5_1"
  type: "Convolution"
  bottom: "pool4"
  top: "conv5_1"
  param {
    lr_mult: 1
    decay_mult: 1
  }
  param {
    lr_mult: 2
    decay_mult: 0
  }
  convolution_param {
    num_output: 512
    pad: 1
    kernel_size: 3
    stride: 1
  }
}
layer {
  name: "relu5_1"
  type: "ReLU"
  bottom: "conv5_1"
  top: "conv5_1"
}
layer {
  name: "conv5_2"
  type: "Convolution"
  bottom: "conv5_1"
  top: "conv5_2"
  param {
    lr_mult: 1
    decay_mult: 1
  }
  param {
    lr_mult: 2
    decay_mult: 0
  }
  convolution_param {
    num_output: 512
    pad: 1
    kernel_size: 3
    stride: 1
  }
}
layer {
  name: "relu5_2"
  type: "ReLU"
  bottom: "conv5_2"
  top: "conv5_2"
}
layer {
  name: "conv5_3"
  type: "Convolution"
  bottom: "conv5_2"
  top: "conv5_3"
  param {
    lr_mult: 1
    decay_mult: 1
  }
  param {
    lr_mult: 2
    decay_mult: 0
  }
  convolution_param {
    num_output: 512
    pad: 1
    kernel_size: 3
    stride: 1
  }
}
layer {
  name: "relu5_3"
  type: "ReLU"
  bottom: "conv5_3"
  top: "conv5_3"
}
layer {
  name: "pool5"
  type: "Pooling"
  bottom: "conv5_3"
  top: "pool5"
  pooling_param {
    pool: MAX
    kernel_size: 2
    stride: 2
  }
}
layer {
  name: "fc6"
  type: "Convolution"
  bottom: "pool5"
  top: "fc6"
  param {
    lr_mult: 1
    decay_mult: 1
  }
  param {
    lr_mult: 2
    decay_mult: 0
  }
  convolution_param {
    num_output: 4096
    pad: 0
    kernel_size: 7
    stride: 1
  }
}
layer {
  name: "relu6"
  type: "ReLU"
  bottom: "fc6"
  top: "fc6"
}
layer {
  name: "drop6"
  type: "Dropout"
  bottom: "fc6"
  top: "fc6"
  dropout_param {
    dropout_ratio: 0.5
  }
}
layer {
  name: "fc7"
  type: "Convolution"
  bottom: "fc6"
  top: "fc7"
  param {
    lr_mult: 1
    decay_mult: 1
  }
  param {
    lr_mult: 2
    decay_mult: 0
  }
  convolution_param {
    num_output: 4096
    pad: 0
    kernel_size: 1
    stride: 1
  }
}
layer {
  name: "relu7"
  type: "ReLU"
  bottom: "fc7"
  top: "fc7"
}
layer {
  name: "drop7"
  type: "Dropout"
  bottom: "fc7"
  top: "fc7"
  dropout_param {
    dropout_ratio: 0.5
  }
}
layer {
  name: "score_fr-new"
  type: "Convolution"
  bottom: "fc7"
  top: "score_fr-new"
  param {
    lr_mult: 1
    decay_mult: 1
  }
  param {
    lr_mult: 2
    decay_mult: 0
  }
  convolution_param {
    num_output: 3
    kernel_size: 1
  }
}
layer {
  name: "upscore2-new"
  type: "Deconvolution"
  bottom: "score_fr-new"
  top: "upscore2-new"
  param {
    lr_mult: 0
  }
  convolution_param {
    num_output: 3
    bias_term: false
    kernel_size: 4
    stride: 2
  }
}
layer {
  name: "score_pool4-new"
  type: "Convolution"
  bottom: "pool4"
  top: "score_pool4-new"
  param {
    lr_mult: 1
    decay_mult: 1
  }
  param {
    lr_mult: 2
    decay_mult: 0
  }
  convolution_param {
    num_output: 3
    pad: 0
    kernel_size: 1
  }
}
layer {
  name: "score_pool4c"
  type: "Crop"
  bottom: "score_pool4-new"
  bottom: "upscore2-new"
  top: "score_pool4c"
  crop_param {
    axis: 2
    offset: 5
  }
}
layer {
  name: "fuse_pool4"
  type: "Eltwise"
  bottom: "upscore2-new"
  bottom: "score_pool4c"
  top: "fuse_pool4"
  eltwise_param {
    operation: SUM
  }
}
layer {
  name: "upscore_pool4-new"
  type: "Deconvolution"
  bottom: "fuse_pool4"
  top: "upscore_pool4-new"
  param {
    lr_mult: 0
  }
  convolution_param {
    num_output: 3
    bias_term: false
    kernel_size: 4
    stride: 2
  }
}
layer {
  name: "score_pool3-new"
  type: "Convolution"
  bottom: "pool3"
  top: "score_pool3-new"
  param {
    lr_mult: 1
    decay_mult: 1
  }
  param {
    lr_mult: 2
    decay_mult: 0
  }
  convolution_param {
    num_output: 3
    pad: 0
    kernel_size: 1
  }
}
layer {
  name: "score_pool3c"
  type: "Crop"
  bottom: "score_pool3-new"
  bottom: "upscore_pool4-new"
  top: "score_pool3c"
  crop_param {
    axis: 2
    offset: 9
  }
}
layer {
  name: "fuse_pool3"
  type: "Eltwise"
  bottom: "upscore_pool4-new"
  bottom: "score_pool3c"
  top: "fuse_pool3"
  eltwise_param {
    operation: SUM
  }
}
layer {
  name: "upscore8-new"
  type: "Deconvolution"
  bottom: "fuse_pool3"
  top: "upscore8-new"
  param {
    lr_mult: 0
  }
  convolution_param {
    num_output: 3
    bias_term: false
    kernel_size: 16
    stride: 8
  }
}
layer {
  name: "upscore8_cropped"
  type: "Crop"
  bottom: "upscore8-new"
  bottom: "data"
  top: "upscore8_cropped"
  crop_param {
    axis: 2
    offset: 31
  }
}
layer {
  name: "score"
  type: "Convolution"
  bottom: "upscore8_cropped"
  top: "score"
  param {
    lr_mult: 1
    decay_mult: 1
  }
  param {
    lr_mult: 2
    decay_mult: 0
  }
  convolution_param {
    num_output: 3
    pad: 1
    kernel_size: 3
    stride: 1
    weight_filler {
      type: "xavier"
    }
    bias_filler {
      type: "constant"
      value: 0
    }
  }
}
layer {
  name: "prob"
  type: "Sigmoid"
  bottom: "score"
  top: "prob"
}
layer {
  name: "saliency"
  type: "Convolution"
  bottom: "prob"
  top: "saliency"
  param {
    lr_mult: 10
    decay_mult: 1
  }
  param {
    lr_mult: 20
    decay_mult: 0
  }
  convolution_param {
    num_output: 3
    pad: 2
    kernel_size: 5
    stride: 1
    weight_filler {
      type: "xavier"
    }
    bias_filler {
      type: "constant"
      value: 1
    }
  }
}
layer {
  name: "saliency_data"
  type: "Eltwise"
  bottom: "data"
  bottom: "saliency"
  top: "saliency_data"
  eltwise_param {
    operation: PROD
  }
}
layer {
  name: "crop"
  type: "Python"
  bottom: "label"
  bottom: "saliency_data"
  bottom: "crop_margin"
  bottom: "crop_prob"
  bottom: "crop_sample_batch"
  top: "data-R"
  top: "crop_info"
  python_param {
    module: "Crop"
    layer: "CropLayer"
    param_str: "{\"TEST\": 0}"
  }
}
layer {
  name: "conv1_1-R"
  type: "Convolution"
  bottom: "data-R"
  top: "conv1_1-R"
  param {
    lr_mult: 10
    decay_mult: 1
  }
  param {
    lr_mult: 20
    decay_mult: 0
  }
  convolution_param {
    num_output: 64
    pad: 100
    kernel_size: 3
    stride: 1
  }
}
layer {
  name: "relu1_1-R"
  type: "ReLU"
  bottom: "conv1_1-R"
  top: "conv1_1-R"
}
layer {
  name: "conv1_2-R"
  type: "Convolution"
  bottom: "conv1_1-R"
  top: "conv1_2-R"
  param {
    lr_mult: 10
    decay_mult: 1
  }
  param {
    lr_mult: 20
    decay_mult: 0
  }
  convolution_param {
    num_output: 64
    pad: 1
    kernel_size: 3
    stride: 1
  }
}
layer {
  name: "relu1_2-R"
  type: "ReLU"
  bottom: "conv1_2-R"
  top: "conv1_2-R"
}
layer {
  name: "pool1-R"
  type: "Pooling"
  bottom: "conv1_2-R"
  top: "pool1-R"
  pooling_param {
    pool: MAX
    kernel_size: 2
    stride: 2
  }
}
layer {
  name: "conv2_1-R"
  type: "Convolution"
  bottom: "pool1-R"
  top: "conv2_1-R"
  param {
    lr_mult: 10
    decay_mult: 1
  }
  param {
    lr_mult: 20
    decay_mult: 0
  }
  convolution_param {
    num_output: 128
    pad: 1
    kernel_size: 3
    stride: 1
  }
}
layer {
  name: "relu2_1-R"
  type: "ReLU"
  bottom: "conv2_1-R"
  top: "conv2_1-R"
}
layer {
  name: "conv2_2-R"
  type: "Convolution"
  bottom: "conv2_1-R"
  top: "conv2_2-R"
  param {
    lr_mult: 10
    decay_mult: 1
  }
  param {
    lr_mult: 20
    decay_mult: 0
  }
  convolution_param {
    num_output: 128
    pad: 1
    kernel_size: 3
    stride: 1
  }
}
layer {
  name: "relu2_2-R"
  type: "ReLU"
  bottom: "conv2_2-R"
  top: "conv2_2-R"
}
layer {
  name: "pool2-R"
  type: "Pooling"
  bottom: "conv2_2-R"
  top: "pool2-R"
  pooling_param {
    pool: MAX
    kernel_size: 2
    stride: 2
  }
}
layer {
  name: "conv3_1-R"
  type: "Convolution"
  bottom: "pool2-R"
  top: "conv3_1-R"
  param {
    lr_mult: 10
    decay_mult: 1
  }
  param {
    lr_mult: 20
    decay_mult: 0
  }
  convolution_param {
    num_output: 256
    pad: 1
    kernel_size: 3
    stride: 1
  }
}
layer {
  name: "relu3_1-R"
  type: "ReLU"
  bottom: "conv3_1-R"
  top: "conv3_1-R"
}
layer {
  name: "conv3_2-R"
  type: "Convolution"
  bottom: "conv3_1-R"
  top: "conv3_2-R"
  param {
    lr_mult: 10
    decay_mult: 1
  }
  param {
    lr_mult: 20
    decay_mult: 0
  }
  convolution_param {
    num_output: 256
    pad: 1
    kernel_size: 3
    stride: 1
  }
}
layer {
  name: "relu3_2-R"
  type: "ReLU"
  bottom: "conv3_2-R"
  top: "conv3_2-R"
}
layer {
  name: "conv3_3-R"
  type: "Convolution"
  bottom: "conv3_2-R"
  top: "conv3_3-R"
  param {
    lr_mult: 10
    decay_mult: 1
  }
  param {
    lr_mult: 20
    decay_mult: 0
  }
  convolution_param {
    num_output: 256
    pad: 1
    kernel_size: 3
    stride: 1
  }
}
layer {
  name: "relu3_3-R"
  type: "ReLU"
  bottom: "conv3_3-R"
  top: "conv3_3-R"
}
layer {
  name: "pool3-R"
  type: "Pooling"
  bottom: "conv3_3-R"
  top: "pool3-R"
  pooling_param {
    pool: MAX
    kernel_size: 2
    stride: 2
  }
}
layer {
  name: "conv4_1-R"
  type: "Convolution"
  bottom: "pool3-R"
  top: "conv4_1-R"
  param {
    lr_mult: 10
    decay_mult: 1
  }
  param {
    lr_mult: 20
    decay_mult: 0
  }
  convolution_param {
    num_output: 512
    pad: 1
    kernel_size: 3
    stride: 1
  }
}
layer {
  name: "relu4_1-R"
  type: "ReLU"
  bottom: "conv4_1-R"
  top: "conv4_1-R"
}
layer {
  name: "conv4_2-R"
  type: "Convolution"
  bottom: "conv4_1-R"
  top: "conv4_2-R"
  param {
    lr_mult: 10
    decay_mult: 1
  }
  param {
    lr_mult: 20
    decay_mult: 0
  }
  convolution_param {
    num_output: 512
    pad: 1
    kernel_size: 3
    stride: 1
  }
}
layer {
  name: "relu4_2-R"
  type: "ReLU"
  bottom: "conv4_2-R"
  top: "conv4_2-R"
}
layer {
  name: "conv4_3-R"
  type: "Convolution"
  bottom: "conv4_2-R"
  top: "conv4_3-R"
  param {
    lr_mult: 10
    decay_mult: 1
  }
  param {
    lr_mult: 20
    decay_mult: 0
  }
  convolution_param {
    num_output: 512
    pad: 1
    kernel_size: 3
    stride: 1
  }
}
layer {
  name: "relu4_3-R"
  type: "ReLU"
  bottom: "conv4_3-R"
  top: "conv4_3-R"
}
layer {
  name: "pool4-R"
  type: "Pooling"
  bottom: "conv4_3-R"
  top: "pool4-R"
  pooling_param {
    pool: MAX
    kernel_size: 2
    stride: 2
  }
}
layer {
  name: "conv5_1-R"
  type: "Convolution"
  bottom: "pool4-R"
  top: "conv5_1-R"
  param {
    lr_mult: 10
    decay_mult: 1
  }
  param {
    lr_mult: 20
    decay_mult: 0
  }
  convolution_param {
    num_output: 512
    pad: 1
    kernel_size: 3
    stride: 1
  }
}
layer {
  name: "relu5_1-R"
  type: "ReLU"
  bottom: "conv5_1-R"
  top: "conv5_1-R"
}
layer {
  name: "conv5_2-R"
  type: "Convolution"
  bottom: "conv5_1-R"
  top: "conv5_2-R"
  param {
    lr_mult: 10
    decay_mult: 1
  }
  param {
    lr_mult: 20
    decay_mult: 0
  }
  convolution_param {
    num_output: 512
    pad: 1
    kernel_size: 3
    stride: 1
  }
}
layer {
  name: "relu5_2-R"
  type: "ReLU"
  bottom: "conv5_2-R"
  top: "conv5_2-R"
}
layer {
  name: "conv5_3-R"
  type: "Convolution"
  bottom: "conv5_2-R"
  top: "conv5_3-R"
  param {
    lr_mult: 10
    decay_mult: 1
  }
  param {
    lr_mult: 20
    decay_mult: 0
  }
  convolution_param {
    num_output: 512
    pad: 1
    kernel_size: 3
    stride: 1
  }
}
layer {
  name: "relu5_3-R"
  type: "ReLU"
  bottom: "conv5_3-R"
  top: "conv5_3-R"
}
layer {
  name: "pool5-R"
  type: "Pooling"
  bottom: "conv5_3-R"
  top: "pool5-R"
  pooling_param {
    pool: MAX
    kernel_size: 2
    stride: 2
  }
}
layer {
  name: "fc6-R"
  type: "Convolution"
  bottom: "pool5-R"
  top: "fc6-R"
  param {
    lr_mult: 10
    decay_mult: 1
  }
  param {
    lr_mult: 20
    decay_mult: 0
  }
  convolution_param {
    num_output: 4096
    pad: 0
    kernel_size: 7
    stride: 1
  }
}
layer {
  name: "relu6-R"
  type: "ReLU"
  bottom: "fc6-R"
  top: "fc6-R"
}
layer {
  name: "drop6-R"
  type: "Dropout"
  bottom: "fc6-R"
  top: "fc6-R"
  dropout_param {
    dropout_ratio: 0.5
  }
}
layer {
  name: "fc7-R"
  type: "Convolution"
  bottom: "fc6-R"
  top: "fc7-R"
  param {
    lr_mult: 10
    decay_mult: 1
  }
  param {
    lr_mult: 20
    decay_mult: 0
  }
  convolution_param {
    num_output: 4096
    pad: 0
    kernel_size: 1
    stride: 1
  }
}
layer {
  name: "relu7-R"
  type: "ReLU"
  bottom: "fc7-R"
  top: "fc7-R"
}
layer {
  name: "drop7-R"
  type: "Dropout"
  bottom: "fc7-R"
  top: "fc7-R"
  dropout_param {
    dropout_ratio: 0.5
  }
}
layer {
  name: "score_fr-new-R"
  type: "Convolution"
  bottom: "fc7-R"
  top: "score_fr-new-R"
  param {
    lr_mult: 10
    decay_mult: 1
  }
  param {
    lr_mult: 20
    decay_mult: 0
  }
  convolution_param {
    num_output: 3
    kernel_size: 1
  }
}
layer {
  name: "upscore2-new-R"
  type: "Deconvolution"
  bottom: "score_fr-new-R"
  top: "upscore2-new-R"
  param {
    lr_mult: 0
  }
  convolution_param {
    num_output: 3
    bias_term: false
    kernel_size: 4
    stride: 2
  }
}
layer {
  name: "score_pool4-new-R"
  type: "Convolution"
  bottom: "pool4-R"
  top: "score_pool4-new-R"
  param {
    lr_mult: 10
    decay_mult: 1
  }
  param {
    lr_mult: 20
    decay_mult: 0
  }
  convolution_param {
    num_output: 3
    pad: 0
    kernel_size: 1
  }
}
layer {
  name: "score_pool4c-R"
  type: "Crop"
  bottom: "score_pool4-new-R"
  bottom: "upscore2-new-R"
  top: "score_pool4c-R"
  crop_param {
    axis: 2
    offset: 5
  }
}
layer {
  name: "fuse_pool4-R"
  type: "Eltwise"
  bottom: "upscore2-new-R"
  bottom: "score_pool4c-R"
  top: "fuse_pool4-R"
  eltwise_param {
    operation: SUM
  }
}
layer {
  name: "upscore_pool4-new-R"
  type: "Deconvolution"
  bottom: "fuse_pool4-R"
  top: "upscore_pool4-new-R"
  param {
    lr_mult: 0
  }
  convolution_param {
    num_output: 3
    bias_term: false
    kernel_size: 4
    stride: 2
  }
}
layer {
  name: "score_pool3-new-R"
  type: "Convolution"
  bottom: "pool3-R"
  top: "score_pool3-new-R"
  param {
    lr_mult: 10
    decay_mult: 1
  }
  param {
    lr_mult: 20
    decay_mult: 0
  }
  convolution_param {
    num_output: 3
    pad: 0
    kernel_size: 1
  }
}
layer {
  name: "score_pool3c-R"
  type: "Crop"
  bottom: "score_pool3-new-R"
  bottom: "upscore_pool4-new-R"
  top: "score_pool3c-R"
  crop_param {
    axis: 2
    offset: 9
  }
}
layer {
  name: "fuse_pool3-R"
  type: "Eltwise"
  bottom: "upscore_pool4-new-R"
  bottom: "score_pool3c-R"
  top: "fuse_pool3-R"
  eltwise_param {
    operation: SUM
  }
}
layer {
  name: "upscore8-new-R"
  type: "Deconvolution"
  bottom: "fuse_pool3-R"
  top: "upscore8-new-R"
  param {
    lr_mult: 0
  }
  convolution_param {
    num_output: 3
    bias_term: false
    kernel_size: 16
    stride: 8
  }
}
layer {
  name: "upscore8_cropped-R"
  type: "Crop"
  bottom: "upscore8-new-R"
  bottom: "data-R"
  top: "upscore8_cropped-R"
  crop_param {
    axis: 2
    offset: 31
  }
}
layer {
  name: "score-R"
  type: "Convolution"
  bottom: "upscore8_cropped-R"
  top: "score-R"
  param {
    lr_mult: 10
    decay_mult: 1
  }
  param {
    lr_mult: 20
    decay_mult: 0
  }
  convolution_param {
    num_output: 3
    pad: 1
    kernel_size: 3
    stride: 1
    weight_filler {
      type: "xavier"
    }
    bias_filler {
      type: "constant"
      value: 0
    }
  }
}
layer {
  name: "score_uncropped-R"
  type: "Python"
  bottom: "crop_info"
  bottom: "score-R"
  bottom: "data"
  top: "score_uncropped-R"
  python_param {
    module: "Uncrop"
    layer: "UncropLayer"
  }
}
layer {
  name: "loss1"
  type: "DiceLoss"
  bottom: "score"
  bottom: "label"
  top: "loss1"
  loss_weight: 0.333333
}
layer {
  name: "loss2"
  type: "DiceLoss"
  bottom: "score_uncropped-R"
  bottom: "label"
  top: "loss2"
  loss_weight: 0.666667
}
I0419 04:20:04.141566 23706 layer_factory.hpp:77] Creating layer data
I0419 04:20:04.141633 23706 net.cpp:84] Creating Layer data
I0419 04:20:04.141641 23706 net.cpp:380] data -> data
I0419 04:20:04.141651 23706 net.cpp:380] data -> label
I0419 04:20:04.141659 23706 net.cpp:380] data -> crop_margin
I0419 04:20:04.141664 23706 net.cpp:380] data -> crop_prob
I0419 04:20:04.141669 23706 net.cpp:380] data -> crop_sample_batch
I0419 04:20:04.207804 23706 net.cpp:122] Setting up data
I0419 04:20:04.207837 23706 net.cpp:129] Top shape: 1 3 512 512 (786432)
I0419 04:20:04.207846 23706 net.cpp:129] Top shape: 1 3 512 512 (786432)
I0419 04:20:04.207850 23706 net.cpp:129] Top shape: 1 (1)
I0419 04:20:04.207854 23706 net.cpp:129] Top shape: 1 (1)
I0419 04:20:04.207857 23706 net.cpp:129] Top shape: 1 (1)
I0419 04:20:04.207860 23706 net.cpp:137] Memory required for data: 6291468
I0419 04:20:04.207867 23706 layer_factory.hpp:77] Creating layer data_data_0_split
I0419 04:20:04.207892 23706 net.cpp:84] Creating Layer data_data_0_split
I0419 04:20:04.207898 23706 net.cpp:406] data_data_0_split <- data
I0419 04:20:04.207906 23706 net.cpp:380] data_data_0_split -> data_data_0_split_0
I0419 04:20:04.207917 23706 net.cpp:380] data_data_0_split -> data_data_0_split_1
I0419 04:20:04.207923 23706 net.cpp:380] data_data_0_split -> data_data_0_split_2
I0419 04:20:04.207928 23706 net.cpp:380] data_data_0_split -> data_data_0_split_3
I0419 04:20:04.208029 23706 net.cpp:122] Setting up data_data_0_split
I0419 04:20:04.208041 23706 net.cpp:129] Top shape: 1 3 512 512 (786432)
I0419 04:20:04.208062 23706 net.cpp:129] Top shape: 1 3 512 512 (786432)
I0419 04:20:04.208065 23706 net.cpp:129] Top shape: 1 3 512 512 (786432)
I0419 04:20:04.208070 23706 net.cpp:129] Top shape: 1 3 512 512 (786432)
I0419 04:20:04.208073 23706 net.cpp:137] Memory required for data: 18874380
I0419 04:20:04.208076 23706 layer_factory.hpp:77] Creating layer label_data_1_split
I0419 04:20:04.208083 23706 net.cpp:84] Creating Layer label_data_1_split
I0419 04:20:04.208087 23706 net.cpp:406] label_data_1_split <- label
I0419 04:20:04.208092 23706 net.cpp:380] label_data_1_split -> label_data_1_split_0
I0419 04:20:04.208098 23706 net.cpp:380] label_data_1_split -> label_data_1_split_1
I0419 04:20:04.208103 23706 net.cpp:380] label_data_1_split -> label_data_1_split_2
I0419 04:20:04.208176 23706 net.cpp:122] Setting up label_data_1_split
I0419 04:20:04.208184 23706 net.cpp:129] Top shape: 1 3 512 512 (786432)
I0419 04:20:04.208189 23706 net.cpp:129] Top shape: 1 3 512 512 (786432)
I0419 04:20:04.208192 23706 net.cpp:129] Top shape: 1 3 512 512 (786432)
I0419 04:20:04.208195 23706 net.cpp:137] Memory required for data: 28311564
I0419 04:20:04.208199 23706 layer_factory.hpp:77] Creating layer conv1_1
I0419 04:20:04.208212 23706 net.cpp:84] Creating Layer conv1_1
I0419 04:20:04.208218 23706 net.cpp:406] conv1_1 <- data_data_0_split_0
I0419 04:20:04.208240 23706 net.cpp:380] conv1_1 -> conv1_1
I0419 04:20:04.218917 23706 net.cpp:122] Setting up conv1_1
I0419 04:20:04.218971 23706 net.cpp:129] Top shape: 1 64 710 710 (32262400)
I0419 04:20:04.218981 23706 net.cpp:137] Memory required for data: 157361164
I0419 04:20:04.219020 23706 layer_factory.hpp:77] Creating layer relu1_1
I0419 04:20:04.219053 23706 net.cpp:84] Creating Layer relu1_1
I0419 04:20:04.219081 23706 net.cpp:406] relu1_1 <- conv1_1
I0419 04:20:04.219107 23706 net.cpp:367] relu1_1 -> conv1_1 (in-place)
I0419 04:20:04.219663 23706 net.cpp:122] Setting up relu1_1
I0419 04:20:04.219683 23706 net.cpp:129] Top shape: 1 64 710 710 (32262400)
I0419 04:20:04.219702 23706 net.cpp:137] Memory required for data: 286410764
I0419 04:20:04.219709 23706 layer_factory.hpp:77] Creating layer conv1_2
I0419 04:20:04.219729 23706 net.cpp:84] Creating Layer conv1_2
I0419 04:20:04.219736 23706 net.cpp:406] conv1_2 <- conv1_1
I0419 04:20:04.219755 23706 net.cpp:380] conv1_2 -> conv1_2
I0419 04:20:04.236687 23706 net.cpp:122] Setting up conv1_2
I0419 04:20:04.236749 23706 net.cpp:129] Top shape: 1 64 710 710 (32262400)
I0419 04:20:04.236759 23706 net.cpp:137] Memory required for data: 415460364
I0419 04:20:04.236788 23706 layer_factory.hpp:77] Creating layer relu1_2
I0419 04:20:04.236807 23706 net.cpp:84] Creating Layer relu1_2
I0419 04:20:04.236827 23706 net.cpp:406] relu1_2 <- conv1_2
I0419 04:20:04.236850 23706 net.cpp:367] relu1_2 -> conv1_2 (in-place)
I0419 04:20:04.237510 23706 net.cpp:122] Setting up relu1_2
I0419 04:20:04.237542 23706 net.cpp:129] Top shape: 1 64 710 710 (32262400)
I0419 04:20:04.237550 23706 net.cpp:137] Memory required for data: 544509964
I0419 04:20:04.237557 23706 layer_factory.hpp:77] Creating layer pool1
I0419 04:20:04.237573 23706 net.cpp:84] Creating Layer pool1
I0419 04:20:04.237581 23706 net.cpp:406] pool1 <- conv1_2
I0419 04:20:04.237601 23706 net.cpp:380] pool1 -> pool1
I0419 04:20:04.237764 23706 net.cpp:122] Setting up pool1
I0419 04:20:04.237781 23706 net.cpp:129] Top shape: 1 64 355 355 (8065600)
I0419 04:20:04.237787 23706 net.cpp:137] Memory required for data: 576772364
I0419 04:20:04.237794 23706 layer_factory.hpp:77] Creating layer conv2_1
I0419 04:20:04.237817 23706 net.cpp:84] Creating Layer conv2_1
I0419 04:20:04.237823 23706 net.cpp:406] conv2_1 <- pool1
I0419 04:20:04.237838 23706 net.cpp:380] conv2_1 -> conv2_1
I0419 04:20:04.241660 23706 net.cpp:122] Setting up conv2_1
I0419 04:20:04.241701 23706 net.cpp:129] Top shape: 1 128 355 355 (16131200)
I0419 04:20:04.241710 23706 net.cpp:137] Memory required for data: 641297164
I0419 04:20:04.241731 23706 layer_factory.hpp:77] Creating layer relu2_1
I0419 04:20:04.241747 23706 net.cpp:84] Creating Layer relu2_1
I0419 04:20:04.241760 23706 net.cpp:406] relu2_1 <- conv2_1
I0419 04:20:04.241771 23706 net.cpp:367] relu2_1 -> conv2_1 (in-place)
I0419 04:20:04.243360 23706 net.cpp:122] Setting up relu2_1
I0419 04:20:04.243399 23706 net.cpp:129] Top shape: 1 128 355 355 (16131200)
I0419 04:20:04.243408 23706 net.cpp:137] Memory required for data: 705821964
I0419 04:20:04.243417 23706 layer_factory.hpp:77] Creating layer conv2_2
I0419 04:20:04.243440 23706 net.cpp:84] Creating Layer conv2_2
I0419 04:20:04.243450 23706 net.cpp:406] conv2_2 <- conv2_1
I0419 04:20:04.243465 23706 net.cpp:380] conv2_2 -> conv2_2
I0419 04:20:04.248672 23706 net.cpp:122] Setting up conv2_2
I0419 04:20:04.248719 23706 net.cpp:129] Top shape: 1 128 355 355 (16131200)
I0419 04:20:04.248728 23706 net.cpp:137] Memory required for data: 770346764
I0419 04:20:04.248744 23706 layer_factory.hpp:77] Creating layer relu2_2
I0419 04:20:04.248757 23706 net.cpp:84] Creating Layer relu2_2
I0419 04:20:04.248773 23706 net.cpp:406] relu2_2 <- conv2_2
I0419 04:20:04.248790 23706 net.cpp:367] relu2_2 -> conv2_2 (in-place)
I0419 04:20:04.250355 23706 net.cpp:122] Setting up relu2_2
I0419 04:20:04.250372 23706 net.cpp:129] Top shape: 1 128 355 355 (16131200)
I0419 04:20:04.250387 23706 net.cpp:137] Memory required for data: 834871564
I0419 04:20:04.250392 23706 layer_factory.hpp:77] Creating layer pool2
I0419 04:20:04.250402 23706 net.cpp:84] Creating Layer pool2
I0419 04:20:04.250407 23706 net.cpp:406] pool2 <- conv2_2
I0419 04:20:04.250414 23706 net.cpp:380] pool2 -> pool2
I0419 04:20:04.250502 23706 net.cpp:122] Setting up pool2
I0419 04:20:04.250512 23706 net.cpp:129] Top shape: 1 128 178 178 (4055552)
I0419 04:20:04.250516 23706 net.cpp:137] Memory required for data: 851093772
I0419 04:20:04.250521 23706 layer_factory.hpp:77] Creating layer conv3_1
I0419 04:20:04.250532 23706 net.cpp:84] Creating Layer conv3_1
I0419 04:20:04.250540 23706 net.cpp:406] conv3_1 <- pool2
I0419 04:20:04.250548 23706 net.cpp:380] conv3_1 -> conv3_1
I0419 04:20:04.261466 23706 net.cpp:122] Setting up conv3_1
I0419 04:20:04.261513 23706 net.cpp:129] Top shape: 1 256 178 178 (8111104)
I0419 04:20:04.261523 23706 net.cpp:137] Memory required for data: 883538188
I0419 04:20:04.261548 23706 layer_factory.hpp:77] Creating layer relu3_1
I0419 04:20:04.261574 23706 net.cpp:84] Creating Layer relu3_1
I0419 04:20:04.261584 23706 net.cpp:406] relu3_1 <- conv3_1
I0419 04:20:04.261597 23706 net.cpp:367] relu3_1 -> conv3_1 (in-place)
I0419 04:20:04.262079 23706 net.cpp:122] Setting up relu3_1
I0419 04:20:04.262109 23706 net.cpp:129] Top shape: 1 256 178 178 (8111104)
I0419 04:20:04.262117 23706 net.cpp:137] Memory required for data: 915982604
I0419 04:20:04.262133 23706 layer_factory.hpp:77] Creating layer conv3_2
I0419 04:20:04.262151 23706 net.cpp:84] Creating Layer conv3_2
I0419 04:20:04.262159 23706 net.cpp:406] conv3_2 <- conv3_1
I0419 04:20:04.262209 23706 net.cpp:380] conv3_2 -> conv3_2
I0419 04:20:04.271914 23706 net.cpp:122] Setting up conv3_2
I0419 04:20:04.271955 23706 net.cpp:129] Top shape: 1 256 178 178 (8111104)
I0419 04:20:04.271963 23706 net.cpp:137] Memory required for data: 948427020
I0419 04:20:04.271981 23706 layer_factory.hpp:77] Creating layer relu3_2
I0419 04:20:04.272011 23706 net.cpp:84] Creating Layer relu3_2
I0419 04:20:04.272020 23706 net.cpp:406] relu3_2 <- conv3_2
I0419 04:20:04.272032 23706 net.cpp:367] relu3_2 -> conv3_2 (in-place)
I0419 04:20:04.272527 23706 net.cpp:122] Setting up relu3_2
I0419 04:20:04.272560 23706 net.cpp:129] Top shape: 1 256 178 178 (8111104)
I0419 04:20:04.272567 23706 net.cpp:137] Memory required for data: 980871436
I0419 04:20:04.272584 23706 layer_factory.hpp:77] Creating layer conv3_3
I0419 04:20:04.272601 23706 net.cpp:84] Creating Layer conv3_3
I0419 04:20:04.272609 23706 net.cpp:406] conv3_3 <- conv3_2
I0419 04:20:04.272634 23706 net.cpp:380] conv3_3 -> conv3_3
I0419 04:20:04.282150 23706 net.cpp:122] Setting up conv3_3
I0419 04:20:04.282188 23706 net.cpp:129] Top shape: 1 256 178 178 (8111104)
I0419 04:20:04.282194 23706 net.cpp:137] Memory required for data: 1013315852
I0419 04:20:04.282212 23706 layer_factory.hpp:77] Creating layer relu3_3
I0419 04:20:04.282222 23706 net.cpp:84] Creating Layer relu3_3
I0419 04:20:04.282227 23706 net.cpp:406] relu3_3 <- conv3_3
I0419 04:20:04.282235 23706 net.cpp:367] relu3_3 -> conv3_3 (in-place)
I0419 04:20:04.282531 23706 net.cpp:122] Setting up relu3_3
I0419 04:20:04.282546 23706 net.cpp:129] Top shape: 1 256 178 178 (8111104)
I0419 04:20:04.282552 23706 net.cpp:137] Memory required for data: 1045760268
I0419 04:20:04.282555 23706 layer_factory.hpp:77] Creating layer pool3
I0419 04:20:04.282565 23706 net.cpp:84] Creating Layer pool3
I0419 04:20:04.282570 23706 net.cpp:406] pool3 <- conv3_3
I0419 04:20:04.282578 23706 net.cpp:380] pool3 -> pool3
I0419 04:20:04.282667 23706 net.cpp:122] Setting up pool3
I0419 04:20:04.282677 23706 net.cpp:129] Top shape: 1 256 89 89 (2027776)
I0419 04:20:04.282681 23706 net.cpp:137] Memory required for data: 1053871372
I0419 04:20:04.282685 23706 layer_factory.hpp:77] Creating layer pool3_pool3_0_split
I0419 04:20:04.282693 23706 net.cpp:84] Creating Layer pool3_pool3_0_split
I0419 04:20:04.282697 23706 net.cpp:406] pool3_pool3_0_split <- pool3
I0419 04:20:04.282706 23706 net.cpp:380] pool3_pool3_0_split -> pool3_pool3_0_split_0
I0419 04:20:04.282713 23706 net.cpp:380] pool3_pool3_0_split -> pool3_pool3_0_split_1
I0419 04:20:04.282781 23706 net.cpp:122] Setting up pool3_pool3_0_split
I0419 04:20:04.282791 23706 net.cpp:129] Top shape: 1 256 89 89 (2027776)
I0419 04:20:04.282796 23706 net.cpp:129] Top shape: 1 256 89 89 (2027776)
I0419 04:20:04.282800 23706 net.cpp:137] Memory required for data: 1070093580
I0419 04:20:04.282804 23706 layer_factory.hpp:77] Creating layer conv4_1
I0419 04:20:04.282816 23706 net.cpp:84] Creating Layer conv4_1
I0419 04:20:04.282821 23706 net.cpp:406] conv4_1 <- pool3_pool3_0_split_0
I0419 04:20:04.282830 23706 net.cpp:380] conv4_1 -> conv4_1
I0419 04:20:04.292177 23706 net.cpp:122] Setting up conv4_1
I0419 04:20:04.292215 23706 net.cpp:129] Top shape: 1 512 89 89 (4055552)
I0419 04:20:04.292223 23706 net.cpp:137] Memory required for data: 1086315788
I0419 04:20:04.292237 23706 layer_factory.hpp:77] Creating layer relu4_1
I0419 04:20:04.292248 23706 net.cpp:84] Creating Layer relu4_1
I0419 04:20:04.292256 23706 net.cpp:406] relu4_1 <- conv4_1
I0419 04:20:04.292277 23706 net.cpp:367] relu4_1 -> conv4_1 (in-place)
I0419 04:20:04.292672 23706 net.cpp:122] Setting up relu4_1
I0419 04:20:04.292690 23706 net.cpp:129] Top shape: 1 512 89 89 (4055552)
I0419 04:20:04.292706 23706 net.cpp:137] Memory required for data: 1102537996
I0419 04:20:04.292712 23706 layer_factory.hpp:77] Creating layer conv4_2
I0419 04:20:04.292727 23706 net.cpp:84] Creating Layer conv4_2
I0419 04:20:04.292734 23706 net.cpp:406] conv4_2 <- conv4_1
I0419 04:20:04.292757 23706 net.cpp:380] conv4_2 -> conv4_2
I0419 04:20:04.303401 23706 net.cpp:122] Setting up conv4_2
I0419 04:20:04.303424 23706 net.cpp:129] Top shape: 1 512 89 89 (4055552)
I0419 04:20:04.303437 23706 net.cpp:137] Memory required for data: 1118760204
I0419 04:20:04.303454 23706 layer_factory.hpp:77] Creating layer relu4_2
I0419 04:20:04.303464 23706 net.cpp:84] Creating Layer relu4_2
I0419 04:20:04.303469 23706 net.cpp:406] relu4_2 <- conv4_2
I0419 04:20:04.303478 23706 net.cpp:367] relu4_2 -> conv4_2 (in-place)
I0419 04:20:04.305215 23706 net.cpp:122] Setting up relu4_2
I0419 04:20:04.305248 23706 net.cpp:129] Top shape: 1 512 89 89 (4055552)
I0419 04:20:04.305253 23706 net.cpp:137] Memory required for data: 1134982412
I0419 04:20:04.305258 23706 layer_factory.hpp:77] Creating layer conv4_3
I0419 04:20:04.305268 23706 net.cpp:84] Creating Layer conv4_3
I0419 04:20:04.305274 23706 net.cpp:406] conv4_3 <- conv4_2
I0419 04:20:04.305281 23706 net.cpp:380] conv4_3 -> conv4_3
I0419 04:20:04.316376 23706 net.cpp:122] Setting up conv4_3
I0419 04:20:04.316423 23706 net.cpp:129] Top shape: 1 512 89 89 (4055552)
I0419 04:20:04.316432 23706 net.cpp:137] Memory required for data: 1151204620
I0419 04:20:04.316450 23706 layer_factory.hpp:77] Creating layer relu4_3
I0419 04:20:04.316464 23706 net.cpp:84] Creating Layer relu4_3
I0419 04:20:04.316483 23706 net.cpp:406] relu4_3 <- conv4_3
I0419 04:20:04.316496 23706 net.cpp:367] relu4_3 -> conv4_3 (in-place)
I0419 04:20:04.317673 23706 net.cpp:122] Setting up relu4_3
I0419 04:20:04.317692 23706 net.cpp:129] Top shape: 1 512 89 89 (4055552)
I0419 04:20:04.317697 23706 net.cpp:137] Memory required for data: 1167426828
I0419 04:20:04.317706 23706 layer_factory.hpp:77] Creating layer pool4
I0419 04:20:04.317716 23706 net.cpp:84] Creating Layer pool4
I0419 04:20:04.317723 23706 net.cpp:406] pool4 <- conv4_3
I0419 04:20:04.317731 23706 net.cpp:380] pool4 -> pool4
I0419 04:20:04.317848 23706 net.cpp:122] Setting up pool4
I0419 04:20:04.317859 23706 net.cpp:129] Top shape: 1 512 45 45 (1036800)
I0419 04:20:04.317863 23706 net.cpp:137] Memory required for data: 1171574028
I0419 04:20:04.317868 23706 layer_factory.hpp:77] Creating layer pool4_pool4_0_split
I0419 04:20:04.317876 23706 net.cpp:84] Creating Layer pool4_pool4_0_split
I0419 04:20:04.317880 23706 net.cpp:406] pool4_pool4_0_split <- pool4
I0419 04:20:04.317888 23706 net.cpp:380] pool4_pool4_0_split -> pool4_pool4_0_split_0
I0419 04:20:04.317896 23706 net.cpp:380] pool4_pool4_0_split -> pool4_pool4_0_split_1
I0419 04:20:04.317973 23706 net.cpp:122] Setting up pool4_pool4_0_split
I0419 04:20:04.317983 23706 net.cpp:129] Top shape: 1 512 45 45 (1036800)
I0419 04:20:04.317988 23706 net.cpp:129] Top shape: 1 512 45 45 (1036800)
I0419 04:20:04.317992 23706 net.cpp:137] Memory required for data: 1179868428
I0419 04:20:04.317996 23706 layer_factory.hpp:77] Creating layer conv5_1
I0419 04:20:04.318009 23706 net.cpp:84] Creating Layer conv5_1
I0419 04:20:04.318013 23706 net.cpp:406] conv5_1 <- pool4_pool4_0_split_0
I0419 04:20:04.318022 23706 net.cpp:380] conv5_1 -> conv5_1
I0419 04:20:04.329258 23706 net.cpp:122] Setting up conv5_1
I0419 04:20:04.329300 23706 net.cpp:129] Top shape: 1 512 45 45 (1036800)
I0419 04:20:04.329306 23706 net.cpp:137] Memory required for data: 1184015628
I0419 04:20:04.329319 23706 layer_factory.hpp:77] Creating layer relu5_1
I0419 04:20:04.329330 23706 net.cpp:84] Creating Layer relu5_1
I0419 04:20:04.329337 23706 net.cpp:406] relu5_1 <- conv5_1
I0419 04:20:04.329346 23706 net.cpp:367] relu5_1 -> conv5_1 (in-place)
I0419 04:20:04.329639 23706 net.cpp:122] Setting up relu5_1
I0419 04:20:04.329653 23706 net.cpp:129] Top shape: 1 512 45 45 (1036800)
I0419 04:20:04.329656 23706 net.cpp:137] Memory required for data: 1188162828
I0419 04:20:04.329660 23706 layer_factory.hpp:77] Creating layer conv5_2
I0419 04:20:04.329674 23706 net.cpp:84] Creating Layer conv5_2
I0419 04:20:04.329679 23706 net.cpp:406] conv5_2 <- conv5_1
I0419 04:20:04.329692 23706 net.cpp:380] conv5_2 -> conv5_2
I0419 04:20:04.340643 23706 net.cpp:122] Setting up conv5_2
I0419 04:20:04.340682 23706 net.cpp:129] Top shape: 1 512 45 45 (1036800)
I0419 04:20:04.340687 23706 net.cpp:137] Memory required for data: 1192310028
I0419 04:20:04.340697 23706 layer_factory.hpp:77] Creating layer relu5_2
I0419 04:20:04.340714 23706 net.cpp:84] Creating Layer relu5_2
I0419 04:20:04.340721 23706 net.cpp:406] relu5_2 <- conv5_2
I0419 04:20:04.340741 23706 net.cpp:367] relu5_2 -> conv5_2 (in-place)
I0419 04:20:04.341022 23706 net.cpp:122] Setting up relu5_2
I0419 04:20:04.341035 23706 net.cpp:129] Top shape: 1 512 45 45 (1036800)
I0419 04:20:04.341040 23706 net.cpp:137] Memory required for data: 1196457228
I0419 04:20:04.341044 23706 layer_factory.hpp:77] Creating layer conv5_3
I0419 04:20:04.341058 23706 net.cpp:84] Creating Layer conv5_3
I0419 04:20:04.341063 23706 net.cpp:406] conv5_3 <- conv5_2
I0419 04:20:04.341071 23706 net.cpp:380] conv5_3 -> conv5_3
I0419 04:20:04.351879 23706 net.cpp:122] Setting up conv5_3
I0419 04:20:04.351917 23706 net.cpp:129] Top shape: 1 512 45 45 (1036800)
I0419 04:20:04.351922 23706 net.cpp:137] Memory required for data: 1200604428
I0419 04:20:04.351933 23706 layer_factory.hpp:77] Creating layer relu5_3
I0419 04:20:04.351943 23706 net.cpp:84] Creating Layer relu5_3
I0419 04:20:04.351948 23706 net.cpp:406] relu5_3 <- conv5_3
I0419 04:20:04.351956 23706 net.cpp:367] relu5_3 -> conv5_3 (in-place)
I0419 04:20:04.352252 23706 net.cpp:122] Setting up relu5_3
I0419 04:20:04.352264 23706 net.cpp:129] Top shape: 1 512 45 45 (1036800)
I0419 04:20:04.352268 23706 net.cpp:137] Memory required for data: 1204751628
I0419 04:20:04.352272 23706 layer_factory.hpp:77] Creating layer pool5
I0419 04:20:04.352283 23706 net.cpp:84] Creating Layer pool5
I0419 04:20:04.352288 23706 net.cpp:406] pool5 <- conv5_3
I0419 04:20:04.352296 23706 net.cpp:380] pool5 -> pool5
I0419 04:20:04.352385 23706 net.cpp:122] Setting up pool5
I0419 04:20:04.352396 23706 net.cpp:129] Top shape: 1 512 23 23 (270848)
I0419 04:20:04.352401 23706 net.cpp:137] Memory required for data: 1205835020
I0419 04:20:04.352404 23706 layer_factory.hpp:77] Creating layer fc6
I0419 04:20:04.352417 23706 net.cpp:84] Creating Layer fc6
I0419 04:20:04.352422 23706 net.cpp:406] fc6 <- pool5
I0419 04:20:04.352432 23706 net.cpp:380] fc6 -> fc6
I0419 04:20:04.723750 23706 net.cpp:122] Setting up fc6
I0419 04:20:04.723801 23706 net.cpp:129] Top shape: 1 4096 17 17 (1183744)
I0419 04:20:04.723806 23706 net.cpp:137] Memory required for data: 1210569996
I0419 04:20:04.723816 23706 layer_factory.hpp:77] Creating layer relu6
I0419 04:20:04.723829 23706 net.cpp:84] Creating Layer relu6
I0419 04:20:04.723835 23706 net.cpp:406] relu6 <- fc6
I0419 04:20:04.723843 23706 net.cpp:367] relu6 -> fc6 (in-place)
I0419 04:20:04.724102 23706 net.cpp:122] Setting up relu6
I0419 04:20:04.724114 23706 net.cpp:129] Top shape: 1 4096 17 17 (1183744)
I0419 04:20:04.724117 23706 net.cpp:137] Memory required for data: 1215304972
I0419 04:20:04.724123 23706 layer_factory.hpp:77] Creating layer drop6
I0419 04:20:04.724133 23706 net.cpp:84] Creating Layer drop6
I0419 04:20:04.724138 23706 net.cpp:406] drop6 <- fc6
I0419 04:20:04.724144 23706 net.cpp:367] drop6 -> fc6 (in-place)
I0419 04:20:04.724190 23706 net.cpp:122] Setting up drop6
I0419 04:20:04.724201 23706 net.cpp:129] Top shape: 1 4096 17 17 (1183744)
I0419 04:20:04.724205 23706 net.cpp:137] Memory required for data: 1220039948
I0419 04:20:04.724208 23706 layer_factory.hpp:77] Creating layer fc7
I0419 04:20:04.724220 23706 net.cpp:84] Creating Layer fc7
I0419 04:20:04.724223 23706 net.cpp:406] fc7 <- fc6
I0419 04:20:04.724231 23706 net.cpp:380] fc7 -> fc7
I0419 04:20:04.791771 23706 net.cpp:122] Setting up fc7
I0419 04:20:04.791821 23706 net.cpp:129] Top shape: 1 4096 17 17 (1183744)
I0419 04:20:04.791826 23706 net.cpp:137] Memory required for data: 1224774924
I0419 04:20:04.791839 23706 layer_factory.hpp:77] Creating layer relu7
I0419 04:20:04.791853 23706 net.cpp:84] Creating Layer relu7
I0419 04:20:04.791859 23706 net.cpp:406] relu7 <- fc7
I0419 04:20:04.791882 23706 net.cpp:367] relu7 -> fc7 (in-place)
I0419 04:20:04.793987 23706 net.cpp:122] Setting up relu7
I0419 04:20:04.794020 23706 net.cpp:129] Top shape: 1 4096 17 17 (1183744)
I0419 04:20:04.794024 23706 net.cpp:137] Memory required for data: 1229509900
I0419 04:20:04.794029 23706 layer_factory.hpp:77] Creating layer drop7
I0419 04:20:04.794039 23706 net.cpp:84] Creating Layer drop7
I0419 04:20:04.794044 23706 net.cpp:406] drop7 <- fc7
I0419 04:20:04.794050 23706 net.cpp:367] drop7 -> fc7 (in-place)
I0419 04:20:04.794123 23706 net.cpp:122] Setting up drop7
I0419 04:20:04.794129 23706 net.cpp:129] Top shape: 1 4096 17 17 (1183744)
I0419 04:20:04.794133 23706 net.cpp:137] Memory required for data: 1234244876
I0419 04:20:04.794137 23706 layer_factory.hpp:77] Creating layer score_fr-new
I0419 04:20:04.794147 23706 net.cpp:84] Creating Layer score_fr-new
I0419 04:20:04.794152 23706 net.cpp:406] score_fr-new <- fc7
I0419 04:20:04.794159 23706 net.cpp:380] score_fr-new -> score_fr-new
I0419 04:20:04.795482 23706 net.cpp:122] Setting up score_fr-new
I0419 04:20:04.795511 23706 net.cpp:129] Top shape: 1 3 17 17 (867)
I0419 04:20:04.795529 23706 net.cpp:137] Memory required for data: 1234248344
I0419 04:20:04.795538 23706 layer_factory.hpp:77] Creating layer upscore2-new
I0419 04:20:04.795547 23706 net.cpp:84] Creating Layer upscore2-new
I0419 04:20:04.795552 23706 net.cpp:406] upscore2-new <- score_fr-new
I0419 04:20:04.795559 23706 net.cpp:380] upscore2-new -> upscore2-new
I0419 04:20:04.796006 23706 net.cpp:122] Setting up upscore2-new
I0419 04:20:04.796015 23706 net.cpp:129] Top shape: 1 3 36 36 (3888)
I0419 04:20:04.796036 23706 net.cpp:137] Memory required for data: 1234263896
I0419 04:20:04.796051 23706 layer_factory.hpp:77] Creating layer upscore2-new_upscore2-new_0_split
I0419 04:20:04.796077 23706 net.cpp:84] Creating Layer upscore2-new_upscore2-new_0_split
I0419 04:20:04.796082 23706 net.cpp:406] upscore2-new_upscore2-new_0_split <- upscore2-new
I0419 04:20:04.796087 23706 net.cpp:380] upscore2-new_upscore2-new_0_split -> upscore2-new_upscore2-new_0_split_0
I0419 04:20:04.796111 23706 net.cpp:380] upscore2-new_upscore2-new_0_split -> upscore2-new_upscore2-new_0_split_1
I0419 04:20:04.796192 23706 net.cpp:122] Setting up upscore2-new_upscore2-new_0_split
I0419 04:20:04.796201 23706 net.cpp:129] Top shape: 1 3 36 36 (3888)
I0419 04:20:04.796205 23706 net.cpp:129] Top shape: 1 3 36 36 (3888)
I0419 04:20:04.796209 23706 net.cpp:137] Memory required for data: 1234295000
I0419 04:20:04.796212 23706 layer_factory.hpp:77] Creating layer score_pool4-new
I0419 04:20:04.796222 23706 net.cpp:84] Creating Layer score_pool4-new
I0419 04:20:04.796226 23706 net.cpp:406] score_pool4-new <- pool4_pool4_0_split_1
I0419 04:20:04.796233 23706 net.cpp:380] score_pool4-new -> score_pool4-new
I0419 04:20:04.798117 23706 net.cpp:122] Setting up score_pool4-new
I0419 04:20:04.798154 23706 net.cpp:129] Top shape: 1 3 45 45 (6075)
I0419 04:20:04.798158 23706 net.cpp:137] Memory required for data: 1234319300
I0419 04:20:04.798176 23706 layer_factory.hpp:77] Creating layer score_pool4c
I0419 04:20:04.798194 23706 net.cpp:84] Creating Layer score_pool4c
I0419 04:20:04.798199 23706 net.cpp:406] score_pool4c <- score_pool4-new
I0419 04:20:04.798207 23706 net.cpp:406] score_pool4c <- upscore2-new_upscore2-new_0_split_0
I0419 04:20:04.798229 23706 net.cpp:380] score_pool4c -> score_pool4c
I0419 04:20:04.798279 23706 net.cpp:122] Setting up score_pool4c
I0419 04:20:04.798285 23706 net.cpp:129] Top shape: 1 3 36 36 (3888)
I0419 04:20:04.798287 23706 net.cpp:137] Memory required for data: 1234334852
I0419 04:20:04.798291 23706 layer_factory.hpp:77] Creating layer fuse_pool4
I0419 04:20:04.798301 23706 net.cpp:84] Creating Layer fuse_pool4
I0419 04:20:04.798305 23706 net.cpp:406] fuse_pool4 <- upscore2-new_upscore2-new_0_split_1
I0419 04:20:04.798310 23706 net.cpp:406] fuse_pool4 <- score_pool4c
I0419 04:20:04.798316 23706 net.cpp:380] fuse_pool4 -> fuse_pool4
I0419 04:20:04.798358 23706 net.cpp:122] Setting up fuse_pool4
I0419 04:20:04.798383 23706 net.cpp:129] Top shape: 1 3 36 36 (3888)
I0419 04:20:04.798386 23706 net.cpp:137] Memory required for data: 1234350404
I0419 04:20:04.798389 23706 layer_factory.hpp:77] Creating layer upscore_pool4-new
I0419 04:20:04.798398 23706 net.cpp:84] Creating Layer upscore_pool4-new
I0419 04:20:04.798403 23706 net.cpp:406] upscore_pool4-new <- fuse_pool4
I0419 04:20:04.798409 23706 net.cpp:380] upscore_pool4-new -> upscore_pool4-new
I0419 04:20:04.798811 23706 net.cpp:122] Setting up upscore_pool4-new
I0419 04:20:04.798820 23706 net.cpp:129] Top shape: 1 3 74 74 (16428)
I0419 04:20:04.798840 23706 net.cpp:137] Memory required for data: 1234416116
I0419 04:20:04.798846 23706 layer_factory.hpp:77] Creating layer upscore_pool4-new_upscore_pool4-new_0_split
I0419 04:20:04.798851 23706 net.cpp:84] Creating Layer upscore_pool4-new_upscore_pool4-new_0_split
I0419 04:20:04.798856 23706 net.cpp:406] upscore_pool4-new_upscore_pool4-new_0_split <- upscore_pool4-new
I0419 04:20:04.798861 23706 net.cpp:380] upscore_pool4-new_upscore_pool4-new_0_split -> upscore_pool4-new_upscore_pool4-new_0_split_0
I0419 04:20:04.798869 23706 net.cpp:380] upscore_pool4-new_upscore_pool4-new_0_split -> upscore_pool4-new_upscore_pool4-new_0_split_1
I0419 04:20:04.798933 23706 net.cpp:122] Setting up upscore_pool4-new_upscore_pool4-new_0_split
I0419 04:20:04.798939 23706 net.cpp:129] Top shape: 1 3 74 74 (16428)
I0419 04:20:04.798943 23706 net.cpp:129] Top shape: 1 3 74 74 (16428)
I0419 04:20:04.798946 23706 net.cpp:137] Memory required for data: 1234547540
I0419 04:20:04.798950 23706 layer_factory.hpp:77] Creating layer score_pool3-new
I0419 04:20:04.798960 23706 net.cpp:84] Creating Layer score_pool3-new
I0419 04:20:04.798964 23706 net.cpp:406] score_pool3-new <- pool3_pool3_0_split_1
I0419 04:20:04.798971 23706 net.cpp:380] score_pool3-new -> score_pool3-new
I0419 04:20:04.800988 23706 net.cpp:122] Setting up score_pool3-new
I0419 04:20:04.801004 23706 net.cpp:129] Top shape: 1 3 89 89 (23763)
I0419 04:20:04.801024 23706 net.cpp:137] Memory required for data: 1234642592
I0419 04:20:04.801033 23706 layer_factory.hpp:77] Creating layer score_pool3c
I0419 04:20:04.801040 23706 net.cpp:84] Creating Layer score_pool3c
I0419 04:20:04.801045 23706 net.cpp:406] score_pool3c <- score_pool3-new
I0419 04:20:04.801051 23706 net.cpp:406] score_pool3c <- upscore_pool4-new_upscore_pool4-new_0_split_0
I0419 04:20:04.801057 23706 net.cpp:380] score_pool3c -> score_pool3c
I0419 04:20:04.801121 23706 net.cpp:122] Setting up score_pool3c
I0419 04:20:04.801127 23706 net.cpp:129] Top shape: 1 3 74 74 (16428)
I0419 04:20:04.801131 23706 net.cpp:137] Memory required for data: 1234708304
I0419 04:20:04.801134 23706 layer_factory.hpp:77] Creating layer fuse_pool3
I0419 04:20:04.801142 23706 net.cpp:84] Creating Layer fuse_pool3
I0419 04:20:04.801146 23706 net.cpp:406] fuse_pool3 <- upscore_pool4-new_upscore_pool4-new_0_split_1
I0419 04:20:04.801151 23706 net.cpp:406] fuse_pool3 <- score_pool3c
I0419 04:20:04.801158 23706 net.cpp:380] fuse_pool3 -> fuse_pool3
I0419 04:20:04.801198 23706 net.cpp:122] Setting up fuse_pool3
I0419 04:20:04.801231 23706 net.cpp:129] Top shape: 1 3 74 74 (16428)
I0419 04:20:04.801235 23706 net.cpp:137] Memory required for data: 1234774016
I0419 04:20:04.801239 23706 layer_factory.hpp:77] Creating layer upscore8-new
I0419 04:20:04.801247 23706 net.cpp:84] Creating Layer upscore8-new
I0419 04:20:04.801251 23706 net.cpp:406] upscore8-new <- fuse_pool3
I0419 04:20:04.801259 23706 net.cpp:380] upscore8-new -> upscore8-new
I0419 04:20:04.801648 23706 net.cpp:122] Setting up upscore8-new
I0419 04:20:04.801656 23706 net.cpp:129] Top shape: 1 3 600 600 (1080000)
I0419 04:20:04.801676 23706 net.cpp:137] Memory required for data: 1239094016
I0419 04:20:04.801681 23706 layer_factory.hpp:77] Creating layer upscore8_cropped
I0419 04:20:04.801689 23706 net.cpp:84] Creating Layer upscore8_cropped
I0419 04:20:04.801694 23706 net.cpp:406] upscore8_cropped <- upscore8-new
I0419 04:20:04.801702 23706 net.cpp:406] upscore8_cropped <- data_data_0_split_1
I0419 04:20:04.801708 23706 net.cpp:380] upscore8_cropped -> upscore8_cropped
I0419 04:20:04.801748 23706 net.cpp:122] Setting up upscore8_cropped
I0419 04:20:04.801753 23706 net.cpp:129] Top shape: 1 3 512 512 (786432)
I0419 04:20:04.801756 23706 net.cpp:137] Memory required for data: 1242239744
I0419 04:20:04.801760 23706 layer_factory.hpp:77] Creating layer score
I0419 04:20:04.801771 23706 net.cpp:84] Creating Layer score
I0419 04:20:04.801775 23706 net.cpp:406] score <- upscore8_cropped
I0419 04:20:04.801785 23706 net.cpp:380] score -> score
I0419 04:20:04.807967 23706 net.cpp:122] Setting up score
I0419 04:20:04.808001 23706 net.cpp:129] Top shape: 1 3 512 512 (786432)
I0419 04:20:04.808007 23706 net.cpp:137] Memory required for data: 1245385472
I0419 04:20:04.808018 23706 layer_factory.hpp:77] Creating layer score_score_0_split
I0419 04:20:04.808029 23706 net.cpp:84] Creating Layer score_score_0_split
I0419 04:20:04.808035 23706 net.cpp:406] score_score_0_split <- score
I0419 04:20:04.808043 23706 net.cpp:380] score_score_0_split -> score_score_0_split_0
I0419 04:20:04.808064 23706 net.cpp:380] score_score_0_split -> score_score_0_split_1
I0419 04:20:04.808164 23706 net.cpp:122] Setting up score_score_0_split
I0419 04:20:04.808176 23706 net.cpp:129] Top shape: 1 3 512 512 (786432)
I0419 04:20:04.808182 23706 net.cpp:129] Top shape: 1 3 512 512 (786432)
I0419 04:20:04.808187 23706 net.cpp:137] Memory required for data: 1251676928
I0419 04:20:04.808192 23706 layer_factory.hpp:77] Creating layer prob
I0419 04:20:04.808200 23706 net.cpp:84] Creating Layer prob
I0419 04:20:04.808205 23706 net.cpp:406] prob <- score_score_0_split_0
I0419 04:20:04.808213 23706 net.cpp:380] prob -> prob
I0419 04:20:04.808588 23706 net.cpp:122] Setting up prob
I0419 04:20:04.808600 23706 net.cpp:129] Top shape: 1 3 512 512 (786432)
I0419 04:20:04.808616 23706 net.cpp:137] Memory required for data: 1254822656
I0419 04:20:04.808620 23706 layer_factory.hpp:77] Creating layer saliency
I0419 04:20:04.808637 23706 net.cpp:84] Creating Layer saliency
I0419 04:20:04.808642 23706 net.cpp:406] saliency <- prob
I0419 04:20:04.808653 23706 net.cpp:380] saliency -> saliency
I0419 04:20:04.811884 23706 net.cpp:122] Setting up saliency
I0419 04:20:04.811916 23706 net.cpp:129] Top shape: 1 3 512 512 (786432)
I0419 04:20:04.811923 23706 net.cpp:137] Memory required for data: 1257968384
I0419 04:20:04.811933 23706 layer_factory.hpp:77] Creating layer saliency_data
I0419 04:20:04.811944 23706 net.cpp:84] Creating Layer saliency_data
I0419 04:20:04.811949 23706 net.cpp:406] saliency_data <- data_data_0_split_2
I0419 04:20:04.811957 23706 net.cpp:406] saliency_data <- saliency
I0419 04:20:04.811977 23706 net.cpp:380] saliency_data -> saliency_data
I0419 04:20:04.812038 23706 net.cpp:122] Setting up saliency_data
I0419 04:20:04.812062 23706 net.cpp:129] Top shape: 1 3 512 512 (786432)
I0419 04:20:04.812065 23706 net.cpp:137] Memory required for data: 1261114112
I0419 04:20:04.812070 23706 layer_factory.hpp:77] Creating layer crop
I0419 04:20:04.812139 23706 net.cpp:84] Creating Layer crop
I0419 04:20:04.812150 23706 net.cpp:406] crop <- label_data_1_split_0
I0419 04:20:04.812166 23706 net.cpp:406] crop <- saliency_data
I0419 04:20:04.812173 23706 net.cpp:406] crop <- crop_margin
I0419 04:20:04.812180 23706 net.cpp:406] crop <- crop_prob
I0419 04:20:04.812185 23706 net.cpp:406] crop <- crop_sample_batch
I0419 04:20:04.812192 23706 net.cpp:380] crop -> data-R
I0419 04:20:04.812201 23706 net.cpp:380] crop -> crop_info
I0419 04:20:04.820649 23706 net.cpp:122] Setting up crop
I0419 04:20:04.820688 23706 net.cpp:129] Top shape: 1 3 512 512 (786432)
I0419 04:20:04.820693 23706 net.cpp:129] Top shape: 1 2 4 (8)
I0419 04:20:04.820696 23706 net.cpp:137] Memory required for data: 1264259872
I0419 04:20:04.820701 23706 layer_factory.hpp:77] Creating layer data-R_crop_0_split
I0419 04:20:04.820709 23706 net.cpp:84] Creating Layer data-R_crop_0_split
I0419 04:20:04.820714 23706 net.cpp:406] data-R_crop_0_split <- data-R
I0419 04:20:04.820720 23706 net.cpp:380] data-R_crop_0_split -> data-R_crop_0_split_0
I0419 04:20:04.820729 23706 net.cpp:380] data-R_crop_0_split -> data-R_crop_0_split_1
I0419 04:20:04.820816 23706 net.cpp:122] Setting up data-R_crop_0_split
I0419 04:20:04.820822 23706 net.cpp:129] Top shape: 1 3 512 512 (786432)
I0419 04:20:04.820827 23706 net.cpp:129] Top shape: 1 3 512 512 (786432)
I0419 04:20:04.820829 23706 net.cpp:137] Memory required for data: 1270551328
I0419 04:20:04.820833 23706 layer_factory.hpp:77] Creating layer conv1_1-R
I0419 04:20:04.820842 23706 net.cpp:84] Creating Layer conv1_1-R
I0419 04:20:04.820845 23706 net.cpp:406] conv1_1-R <- data-R_crop_0_split_0
I0419 04:20:04.820852 23706 net.cpp:380] conv1_1-R -> conv1_1-R
I0419 04:20:04.827955 23706 net.cpp:122] Setting up conv1_1-R
I0419 04:20:04.828011 23706 net.cpp:129] Top shape: 1 64 710 710 (32262400)
I0419 04:20:04.828021 23706 net.cpp:137] Memory required for data: 1399600928
I0419 04:20:04.828042 23706 layer_factory.hpp:77] Creating layer relu1_1-R
I0419 04:20:04.828073 23706 net.cpp:84] Creating Layer relu1_1-R
I0419 04:20:04.828083 23706 net.cpp:406] relu1_1-R <- conv1_1-R
I0419 04:20:04.828099 23706 net.cpp:367] relu1_1-R -> conv1_1-R (in-place)
I0419 04:20:04.829896 23706 net.cpp:122] Setting up relu1_1-R
I0419 04:20:04.829923 23706 net.cpp:129] Top shape: 1 64 710 710 (32262400)
I0419 04:20:04.829936 23706 net.cpp:137] Memory required for data: 1528650528
I0419 04:20:04.829943 23706 layer_factory.hpp:77] Creating layer conv1_2-R
I0419 04:20:04.829979 23706 net.cpp:84] Creating Layer conv1_2-R
I0419 04:20:04.829989 23706 net.cpp:406] conv1_2-R <- conv1_1-R
I0419 04:20:04.830004 23706 net.cpp:380] conv1_2-R -> conv1_2-R
I0419 04:20:04.837520 23706 net.cpp:122] Setting up conv1_2-R
I0419 04:20:04.837568 23706 net.cpp:129] Top shape: 1 64 710 710 (32262400)
I0419 04:20:04.837577 23706 net.cpp:137] Memory required for data: 1657700128
I0419 04:20:04.837594 23706 layer_factory.hpp:77] Creating layer relu1_2-R
I0419 04:20:04.837608 23706 net.cpp:84] Creating Layer relu1_2-R
I0419 04:20:04.837617 23706 net.cpp:406] relu1_2-R <- conv1_2-R
I0419 04:20:04.837637 23706 net.cpp:367] relu1_2-R -> conv1_2-R (in-place)
I0419 04:20:04.839092 23706 net.cpp:122] Setting up relu1_2-R
I0419 04:20:04.839123 23706 net.cpp:129] Top shape: 1 64 710 710 (32262400)
I0419 04:20:04.839129 23706 net.cpp:137] Memory required for data: 1786749728
I0419 04:20:04.839135 23706 layer_factory.hpp:77] Creating layer pool1-R
I0419 04:20:04.839146 23706 net.cpp:84] Creating Layer pool1-R
I0419 04:20:04.839152 23706 net.cpp:406] pool1-R <- conv1_2-R
I0419 04:20:04.839162 23706 net.cpp:380] pool1-R -> pool1-R
I0419 04:20:04.839277 23706 net.cpp:122] Setting up pool1-R
I0419 04:20:04.839289 23706 net.cpp:129] Top shape: 1 64 355 355 (8065600)
I0419 04:20:04.839293 23706 net.cpp:137] Memory required for data: 1819012128
I0419 04:20:04.839298 23706 layer_factory.hpp:77] Creating layer conv2_1-R
I0419 04:20:04.839310 23706 net.cpp:84] Creating Layer conv2_1-R
I0419 04:20:04.839315 23706 net.cpp:406] conv2_1-R <- pool1-R
I0419 04:20:04.839323 23706 net.cpp:380] conv2_1-R -> conv2_1-R
I0419 04:20:04.841982 23706 net.cpp:122] Setting up conv2_1-R
I0419 04:20:04.842015 23706 net.cpp:129] Top shape: 1 128 355 355 (16131200)
I0419 04:20:04.842021 23706 net.cpp:137] Memory required for data: 1883536928
I0419 04:20:04.842031 23706 layer_factory.hpp:77] Creating layer relu2_1-R
I0419 04:20:04.842039 23706 net.cpp:84] Creating Layer relu2_1-R
I0419 04:20:04.842046 23706 net.cpp:406] relu2_1-R <- conv2_1-R
I0419 04:20:04.842053 23706 net.cpp:367] relu2_1-R -> conv2_1-R (in-place)
I0419 04:20:04.842368 23706 net.cpp:122] Setting up relu2_1-R
I0419 04:20:04.842384 23706 net.cpp:129] Top shape: 1 128 355 355 (16131200)
I0419 04:20:04.842389 23706 net.cpp:137] Memory required for data: 1948061728
I0419 04:20:04.842394 23706 layer_factory.hpp:77] Creating layer conv2_2-R
I0419 04:20:04.842407 23706 net.cpp:84] Creating Layer conv2_2-R
I0419 04:20:04.842412 23706 net.cpp:406] conv2_2-R <- conv2_1-R
I0419 04:20:04.842422 23706 net.cpp:380] conv2_2-R -> conv2_2-R
I0419 04:20:04.849406 23706 net.cpp:122] Setting up conv2_2-R
I0419 04:20:04.849438 23706 net.cpp:129] Top shape: 1 128 355 355 (16131200)
I0419 04:20:04.849444 23706 net.cpp:137] Memory required for data: 2012586528
I0419 04:20:04.849455 23706 layer_factory.hpp:77] Creating layer relu2_2-R
I0419 04:20:04.849465 23706 net.cpp:84] Creating Layer relu2_2-R
I0419 04:20:04.849472 23706 net.cpp:406] relu2_2-R <- conv2_2-R
I0419 04:20:04.849479 23706 net.cpp:367] relu2_2-R -> conv2_2-R (in-place)
I0419 04:20:04.849805 23706 net.cpp:122] Setting up relu2_2-R
I0419 04:20:04.849819 23706 net.cpp:129] Top shape: 1 128 355 355 (16131200)
I0419 04:20:04.849824 23706 net.cpp:137] Memory required for data: 2077111328
I0419 04:20:04.849829 23706 layer_factory.hpp:77] Creating layer pool2-R
I0419 04:20:04.849839 23706 net.cpp:84] Creating Layer pool2-R
I0419 04:20:04.849844 23706 net.cpp:406] pool2-R <- conv2_2-R
I0419 04:20:04.849853 23706 net.cpp:380] pool2-R -> pool2-R
I0419 04:20:04.849956 23706 net.cpp:122] Setting up pool2-R
I0419 04:20:04.849968 23706 net.cpp:129] Top shape: 1 128 178 178 (4055552)
I0419 04:20:04.849972 23706 net.cpp:137] Memory required for data: 2093333536
I0419 04:20:04.849977 23706 layer_factory.hpp:77] Creating layer conv3_1-R
I0419 04:20:04.849989 23706 net.cpp:84] Creating Layer conv3_1-R
I0419 04:20:04.849994 23706 net.cpp:406] conv3_1-R <- pool2-R
I0419 04:20:04.850003 23706 net.cpp:380] conv3_1-R -> conv3_1-R
I0419 04:20:04.860261 23706 net.cpp:122] Setting up conv3_1-R
I0419 04:20:04.860298 23706 net.cpp:129] Top shape: 1 256 178 178 (8111104)
I0419 04:20:04.860307 23706 net.cpp:137] Memory required for data: 2125777952
I0419 04:20:04.860338 23706 layer_factory.hpp:77] Creating layer relu3_1-R
I0419 04:20:04.860365 23706 net.cpp:84] Creating Layer relu3_1-R
I0419 04:20:04.860375 23706 net.cpp:406] relu3_1-R <- conv3_1-R
I0419 04:20:04.860389 23706 net.cpp:367] relu3_1-R -> conv3_1-R (in-place)
I0419 04:20:04.860910 23706 net.cpp:122] Setting up relu3_1-R
I0419 04:20:04.860929 23706 net.cpp:129] Top shape: 1 256 178 178 (8111104)
I0419 04:20:04.860936 23706 net.cpp:137] Memory required for data: 2158222368
I0419 04:20:04.860944 23706 layer_factory.hpp:77] Creating layer conv3_2-R
I0419 04:20:04.860963 23706 net.cpp:84] Creating Layer conv3_2-R
I0419 04:20:04.860971 23706 net.cpp:406] conv3_2-R <- conv3_1-R
I0419 04:20:04.860996 23706 net.cpp:380] conv3_2-R -> conv3_2-R
I0419 04:20:04.874503 23706 net.cpp:122] Setting up conv3_2-R
I0419 04:20:04.874553 23706 net.cpp:129] Top shape: 1 256 178 178 (8111104)
I0419 04:20:04.874559 23706 net.cpp:137] Memory required for data: 2190666784
I0419 04:20:04.874574 23706 layer_factory.hpp:77] Creating layer relu3_2-R
I0419 04:20:04.874589 23706 net.cpp:84] Creating Layer relu3_2-R
I0419 04:20:04.874598 23706 net.cpp:406] relu3_2-R <- conv3_2-R
I0419 04:20:04.874605 23706 net.cpp:367] relu3_2-R -> conv3_2-R (in-place)
I0419 04:20:04.875030 23706 net.cpp:122] Setting up relu3_2-R
I0419 04:20:04.875043 23706 net.cpp:129] Top shape: 1 256 178 178 (8111104)
I0419 04:20:04.875061 23706 net.cpp:137] Memory required for data: 2223111200
I0419 04:20:04.875066 23706 layer_factory.hpp:77] Creating layer conv3_3-R
I0419 04:20:04.875080 23706 net.cpp:84] Creating Layer conv3_3-R
I0419 04:20:04.875085 23706 net.cpp:406] conv3_3-R <- conv3_2-R
I0419 04:20:04.875102 23706 net.cpp:380] conv3_3-R -> conv3_3-R
I0419 04:20:04.882753 23706 net.cpp:122] Setting up conv3_3-R
I0419 04:20:04.882794 23706 net.cpp:129] Top shape: 1 256 178 178 (8111104)
I0419 04:20:04.882803 23706 net.cpp:137] Memory required for data: 2255555616
I0419 04:20:04.882822 23706 layer_factory.hpp:77] Creating layer relu3_3-R
I0419 04:20:04.882838 23706 net.cpp:84] Creating Layer relu3_3-R
I0419 04:20:04.882848 23706 net.cpp:406] relu3_3-R <- conv3_3-R
I0419 04:20:04.882859 23706 net.cpp:367] relu3_3-R -> conv3_3-R (in-place)
I0419 04:20:04.884582 23706 net.cpp:122] Setting up relu3_3-R
I0419 04:20:04.884620 23706 net.cpp:129] Top shape: 1 256 178 178 (8111104)
I0419 04:20:04.884629 23706 net.cpp:137] Memory required for data: 2288000032
I0419 04:20:04.884637 23706 layer_factory.hpp:77] Creating layer pool3-R
I0419 04:20:04.884654 23706 net.cpp:84] Creating Layer pool3-R
I0419 04:20:04.884663 23706 net.cpp:406] pool3-R <- conv3_3-R
I0419 04:20:04.884676 23706 net.cpp:380] pool3-R -> pool3-R
I0419 04:20:04.884846 23706 net.cpp:122] Setting up pool3-R
I0419 04:20:04.884862 23706 net.cpp:129] Top shape: 1 256 89 89 (2027776)
I0419 04:20:04.884871 23706 net.cpp:137] Memory required for data: 2296111136
I0419 04:20:04.884877 23706 layer_factory.hpp:77] Creating layer pool3-R_pool3-R_0_split
I0419 04:20:04.884889 23706 net.cpp:84] Creating Layer pool3-R_pool3-R_0_split
I0419 04:20:04.884896 23706 net.cpp:406] pool3-R_pool3-R_0_split <- pool3-R
I0419 04:20:04.884910 23706 net.cpp:380] pool3-R_pool3-R_0_split -> pool3-R_pool3-R_0_split_0
I0419 04:20:04.884923 23706 net.cpp:380] pool3-R_pool3-R_0_split -> pool3-R_pool3-R_0_split_1
I0419 04:20:04.885049 23706 net.cpp:122] Setting up pool3-R_pool3-R_0_split
I0419 04:20:04.885066 23706 net.cpp:129] Top shape: 1 256 89 89 (2027776)
I0419 04:20:04.885076 23706 net.cpp:129] Top shape: 1 256 89 89 (2027776)
I0419 04:20:04.885082 23706 net.cpp:137] Memory required for data: 2312333344
I0419 04:20:04.885088 23706 layer_factory.hpp:77] Creating layer conv4_1-R
I0419 04:20:04.885105 23706 net.cpp:84] Creating Layer conv4_1-R
I0419 04:20:04.885113 23706 net.cpp:406] conv4_1-R <- pool3-R_pool3-R_0_split_0
I0419 04:20:04.885128 23706 net.cpp:380] conv4_1-R -> conv4_1-R
I0419 04:20:04.903625 23706 net.cpp:122] Setting up conv4_1-R
I0419 04:20:04.903677 23706 net.cpp:129] Top shape: 1 512 89 89 (4055552)
I0419 04:20:04.903687 23706 net.cpp:137] Memory required for data: 2328555552
I0419 04:20:04.903705 23706 layer_factory.hpp:77] Creating layer relu4_1-R
I0419 04:20:04.903722 23706 net.cpp:84] Creating Layer relu4_1-R
I0419 04:20:04.903731 23706 net.cpp:406] relu4_1-R <- conv4_1-R
I0419 04:20:04.903744 23706 net.cpp:367] relu4_1-R -> conv4_1-R (in-place)
I0419 04:20:04.905491 23706 net.cpp:122] Setting up relu4_1-R
I0419 04:20:04.905530 23706 net.cpp:129] Top shape: 1 512 89 89 (4055552)
I0419 04:20:04.905539 23706 net.cpp:137] Memory required for data: 2344777760
I0419 04:20:04.905547 23706 layer_factory.hpp:77] Creating layer conv4_2-R
I0419 04:20:04.905567 23706 net.cpp:84] Creating Layer conv4_2-R
I0419 04:20:04.905576 23706 net.cpp:406] conv4_2-R <- conv4_1-R
I0419 04:20:04.905591 23706 net.cpp:380] conv4_2-R -> conv4_2-R
I0419 04:20:04.920665 23706 net.cpp:122] Setting up conv4_2-R
I0419 04:20:04.920703 23706 net.cpp:129] Top shape: 1 512 89 89 (4055552)
I0419 04:20:04.920711 23706 net.cpp:137] Memory required for data: 2360999968
I0419 04:20:04.920722 23706 layer_factory.hpp:77] Creating layer relu4_2-R
I0419 04:20:04.920733 23706 net.cpp:84] Creating Layer relu4_2-R
I0419 04:20:04.920742 23706 net.cpp:406] relu4_2-R <- conv4_2-R
I0419 04:20:04.920752 23706 net.cpp:367] relu4_2-R -> conv4_2-R (in-place)
I0419 04:20:04.921129 23706 net.cpp:122] Setting up relu4_2-R
I0419 04:20:04.921145 23706 net.cpp:129] Top shape: 1 512 89 89 (4055552)
I0419 04:20:04.921161 23706 net.cpp:137] Memory required for data: 2377222176
I0419 04:20:04.921166 23706 layer_factory.hpp:77] Creating layer conv4_3-R
I0419 04:20:04.921181 23706 net.cpp:84] Creating Layer conv4_3-R
I0419 04:20:04.921188 23706 net.cpp:406] conv4_3-R <- conv4_2-R
I0419 04:20:04.921200 23706 net.cpp:380] conv4_3-R -> conv4_3-R
I0419 04:20:04.934937 23706 net.cpp:122] Setting up conv4_3-R
I0419 04:20:04.934973 23706 net.cpp:129] Top shape: 1 512 89 89 (4055552)
I0419 04:20:04.934980 23706 net.cpp:137] Memory required for data: 2393444384
I0419 04:20:04.934991 23706 layer_factory.hpp:77] Creating layer relu4_3-R
I0419 04:20:04.935003 23706 net.cpp:84] Creating Layer relu4_3-R
I0419 04:20:04.935010 23706 net.cpp:406] relu4_3-R <- conv4_3-R
I0419 04:20:04.935019 23706 net.cpp:367] relu4_3-R -> conv4_3-R (in-place)
I0419 04:20:04.935328 23706 net.cpp:122] Setting up relu4_3-R
I0419 04:20:04.935343 23706 net.cpp:129] Top shape: 1 512 89 89 (4055552)
I0419 04:20:04.935348 23706 net.cpp:137] Memory required for data: 2409666592
I0419 04:20:04.935353 23706 layer_factory.hpp:77] Creating layer pool4-R
I0419 04:20:04.935364 23706 net.cpp:84] Creating Layer pool4-R
I0419 04:20:04.935369 23706 net.cpp:406] pool4-R <- conv4_3-R
I0419 04:20:04.935379 23706 net.cpp:380] pool4-R -> pool4-R
I0419 04:20:04.935482 23706 net.cpp:122] Setting up pool4-R
I0419 04:20:04.935493 23706 net.cpp:129] Top shape: 1 512 45 45 (1036800)
I0419 04:20:04.935497 23706 net.cpp:137] Memory required for data: 2413813792
I0419 04:20:04.935503 23706 layer_factory.hpp:77] Creating layer pool4-R_pool4-R_0_split
I0419 04:20:04.935511 23706 net.cpp:84] Creating Layer pool4-R_pool4-R_0_split
I0419 04:20:04.935518 23706 net.cpp:406] pool4-R_pool4-R_0_split <- pool4-R
I0419 04:20:04.935525 23706 net.cpp:380] pool4-R_pool4-R_0_split -> pool4-R_pool4-R_0_split_0
I0419 04:20:04.935535 23706 net.cpp:380] pool4-R_pool4-R_0_split -> pool4-R_pool4-R_0_split_1
I0419 04:20:04.935621 23706 net.cpp:122] Setting up pool4-R_pool4-R_0_split
I0419 04:20:04.935631 23706 net.cpp:129] Top shape: 1 512 45 45 (1036800)
I0419 04:20:04.935637 23706 net.cpp:129] Top shape: 1 512 45 45 (1036800)
I0419 04:20:04.935642 23706 net.cpp:137] Memory required for data: 2422108192
I0419 04:20:04.935647 23706 layer_factory.hpp:77] Creating layer conv5_1-R
I0419 04:20:04.935659 23706 net.cpp:84] Creating Layer conv5_1-R
I0419 04:20:04.935665 23706 net.cpp:406] conv5_1-R <- pool4-R_pool4-R_0_split_0
I0419 04:20:04.935675 23706 net.cpp:380] conv5_1-R -> conv5_1-R
I0419 04:20:04.951877 23706 net.cpp:122] Setting up conv5_1-R
I0419 04:20:04.951942 23706 net.cpp:129] Top shape: 1 512 45 45 (1036800)
I0419 04:20:04.951952 23706 net.cpp:137] Memory required for data: 2426255392
I0419 04:20:04.952008 23706 layer_factory.hpp:77] Creating layer relu5_1-R
I0419 04:20:04.952028 23706 net.cpp:84] Creating Layer relu5_1-R
I0419 04:20:04.952039 23706 net.cpp:406] relu5_1-R <- conv5_1-R
I0419 04:20:04.952052 23706 net.cpp:367] relu5_1-R -> conv5_1-R (in-place)
I0419 04:20:04.952524 23706 net.cpp:122] Setting up relu5_1-R
I0419 04:20:04.952544 23706 net.cpp:129] Top shape: 1 512 45 45 (1036800)
I0419 04:20:04.952559 23706 net.cpp:137] Memory required for data: 2430402592
I0419 04:20:04.952567 23706 layer_factory.hpp:77] Creating layer conv5_2-R
I0419 04:20:04.952599 23706 net.cpp:84] Creating Layer conv5_2-R
I0419 04:20:04.952606 23706 net.cpp:406] conv5_2-R <- conv5_1-R
I0419 04:20:04.952620 23706 net.cpp:380] conv5_2-R -> conv5_2-R
I0419 04:20:04.963371 23706 net.cpp:122] Setting up conv5_2-R
I0419 04:20:04.963410 23706 net.cpp:129] Top shape: 1 512 45 45 (1036800)
I0419 04:20:04.963414 23706 net.cpp:137] Memory required for data: 2434549792
I0419 04:20:04.963423 23706 layer_factory.hpp:77] Creating layer relu5_2-R
I0419 04:20:04.963433 23706 net.cpp:84] Creating Layer relu5_2-R
I0419 04:20:04.963438 23706 net.cpp:406] relu5_2-R <- conv5_2-R
I0419 04:20:04.963444 23706 net.cpp:367] relu5_2-R -> conv5_2-R (in-place)
I0419 04:20:04.963708 23706 net.cpp:122] Setting up relu5_2-R
I0419 04:20:04.963721 23706 net.cpp:129] Top shape: 1 512 45 45 (1036800)
I0419 04:20:04.963724 23706 net.cpp:137] Memory required for data: 2438696992
I0419 04:20:04.963728 23706 layer_factory.hpp:77] Creating layer conv5_3-R
I0419 04:20:04.963738 23706 net.cpp:84] Creating Layer conv5_3-R
I0419 04:20:04.963742 23706 net.cpp:406] conv5_3-R <- conv5_2-R
I0419 04:20:04.963749 23706 net.cpp:380] conv5_3-R -> conv5_3-R
I0419 04:20:04.971760 23706 net.cpp:122] Setting up conv5_3-R
I0419 04:20:04.971796 23706 net.cpp:129] Top shape: 1 512 45 45 (1036800)
I0419 04:20:04.971799 23706 net.cpp:137] Memory required for data: 2442844192
I0419 04:20:04.971807 23706 layer_factory.hpp:77] Creating layer relu5_3-R
I0419 04:20:04.971822 23706 net.cpp:84] Creating Layer relu5_3-R
I0419 04:20:04.971827 23706 net.cpp:406] relu5_3-R <- conv5_3-R
I0419 04:20:04.971833 23706 net.cpp:367] relu5_3-R -> conv5_3-R (in-place)
I0419 04:20:04.974476 23706 net.cpp:122] Setting up relu5_3-R
I0419 04:20:04.974516 23706 net.cpp:129] Top shape: 1 512 45 45 (1036800)
I0419 04:20:04.974520 23706 net.cpp:137] Memory required for data: 2446991392
I0419 04:20:04.974524 23706 layer_factory.hpp:77] Creating layer pool5-R
I0419 04:20:04.974545 23706 net.cpp:84] Creating Layer pool5-R
I0419 04:20:04.974548 23706 net.cpp:406] pool5-R <- conv5_3-R
I0419 04:20:04.974556 23706 net.cpp:380] pool5-R -> pool5-R
I0419 04:20:04.974643 23706 net.cpp:122] Setting up pool5-R
I0419 04:20:04.974653 23706 net.cpp:129] Top shape: 1 512 23 23 (270848)
I0419 04:20:04.974656 23706 net.cpp:137] Memory required for data: 2448074784
I0419 04:20:04.974659 23706 layer_factory.hpp:77] Creating layer fc6-R
I0419 04:20:04.974669 23706 net.cpp:84] Creating Layer fc6-R
I0419 04:20:04.974673 23706 net.cpp:406] fc6-R <- pool5-R
I0419 04:20:04.974679 23706 net.cpp:380] fc6-R -> fc6-R
I0419 04:20:05.253306 23706 net.cpp:122] Setting up fc6-R
I0419 04:20:05.253362 23706 net.cpp:129] Top shape: 1 4096 17 17 (1183744)
I0419 04:20:05.253368 23706 net.cpp:137] Memory required for data: 2452809760
I0419 04:20:05.253379 23706 layer_factory.hpp:77] Creating layer relu6-R
I0419 04:20:05.253392 23706 net.cpp:84] Creating Layer relu6-R
I0419 04:20:05.253401 23706 net.cpp:406] relu6-R <- fc6-R
I0419 04:20:05.253408 23706 net.cpp:367] relu6-R -> fc6-R (in-place)
I0419 04:20:05.257463 23706 net.cpp:122] Setting up relu6-R
I0419 04:20:05.257506 23706 net.cpp:129] Top shape: 1 4096 17 17 (1183744)
I0419 04:20:05.257511 23706 net.cpp:137] Memory required for data: 2457544736
I0419 04:20:05.257519 23706 layer_factory.hpp:77] Creating layer drop6-R
I0419 04:20:05.257536 23706 net.cpp:84] Creating Layer drop6-R
I0419 04:20:05.257545 23706 net.cpp:406] drop6-R <- fc6-R
I0419 04:20:05.257572 23706 net.cpp:367] drop6-R -> fc6-R (in-place)
I0419 04:20:05.257719 23706 net.cpp:122] Setting up drop6-R
I0419 04:20:05.257728 23706 net.cpp:129] Top shape: 1 4096 17 17 (1183744)
I0419 04:20:05.257733 23706 net.cpp:137] Memory required for data: 2462279712
I0419 04:20:05.257738 23706 layer_factory.hpp:77] Creating layer fc7-R
I0419 04:20:05.257764 23706 net.cpp:84] Creating Layer fc7-R
I0419 04:20:05.257781 23706 net.cpp:406] fc7-R <- fc6-R
I0419 04:20:05.257794 23706 net.cpp:380] fc7-R -> fc7-R
I0419 04:20:05.311661 23706 net.cpp:122] Setting up fc7-R
I0419 04:20:05.311712 23706 net.cpp:129] Top shape: 1 4096 17 17 (1183744)
I0419 04:20:05.311733 23706 net.cpp:137] Memory required for data: 2467014688
I0419 04:20:05.311748 23706 layer_factory.hpp:77] Creating layer relu7-R
I0419 04:20:05.311777 23706 net.cpp:84] Creating Layer relu7-R
I0419 04:20:05.311784 23706 net.cpp:406] relu7-R <- fc7-R
I0419 04:20:05.311794 23706 net.cpp:367] relu7-R -> fc7-R (in-place)
I0419 04:20:05.312109 23706 net.cpp:122] Setting up relu7-R
I0419 04:20:05.312121 23706 net.cpp:129] Top shape: 1 4096 17 17 (1183744)
I0419 04:20:05.312125 23706 net.cpp:137] Memory required for data: 2471749664
I0419 04:20:05.312129 23706 layer_factory.hpp:77] Creating layer drop7-R
I0419 04:20:05.312147 23706 net.cpp:84] Creating Layer drop7-R
I0419 04:20:05.312152 23706 net.cpp:406] drop7-R <- fc7-R
I0419 04:20:05.312160 23706 net.cpp:367] drop7-R -> fc7-R (in-place)
I0419 04:20:05.312216 23706 net.cpp:122] Setting up drop7-R
I0419 04:20:05.312229 23706 net.cpp:129] Top shape: 1 4096 17 17 (1183744)
I0419 04:20:05.312235 23706 net.cpp:137] Memory required for data: 2476484640
I0419 04:20:05.312242 23706 layer_factory.hpp:77] Creating layer score_fr-new-R
I0419 04:20:05.312258 23706 net.cpp:84] Creating Layer score_fr-new-R
I0419 04:20:05.312266 23706 net.cpp:406] score_fr-new-R <- fc7-R
I0419 04:20:05.312283 23706 net.cpp:380] score_fr-new-R -> score_fr-new-R
I0419 04:20:05.317308 23706 net.cpp:122] Setting up score_fr-new-R
I0419 04:20:05.317360 23706 net.cpp:129] Top shape: 1 3 17 17 (867)
I0419 04:20:05.317373 23706 net.cpp:137] Memory required for data: 2476488108
I0419 04:20:05.317392 23706 layer_factory.hpp:77] Creating layer upscore2-new-R
I0419 04:20:05.317422 23706 net.cpp:84] Creating Layer upscore2-new-R
I0419 04:20:05.317435 23706 net.cpp:406] upscore2-new-R <- score_fr-new-R
I0419 04:20:05.317454 23706 net.cpp:380] upscore2-new-R -> upscore2-new-R
I0419 04:20:05.318311 23706 net.cpp:122] Setting up upscore2-new-R
I0419 04:20:05.318331 23706 net.cpp:129] Top shape: 1 3 36 36 (3888)
I0419 04:20:05.318339 23706 net.cpp:137] Memory required for data: 2476503660
I0419 04:20:05.318351 23706 layer_factory.hpp:77] Creating layer upscore2-new-R_upscore2-new-R_0_split
I0419 04:20:05.318372 23706 net.cpp:84] Creating Layer upscore2-new-R_upscore2-new-R_0_split
I0419 04:20:05.318385 23706 net.cpp:406] upscore2-new-R_upscore2-new-R_0_split <- upscore2-new-R
I0419 04:20:05.318398 23706 net.cpp:380] upscore2-new-R_upscore2-new-R_0_split -> upscore2-new-R_upscore2-new-R_0_split_0
I0419 04:20:05.318415 23706 net.cpp:380] upscore2-new-R_upscore2-new-R_0_split -> upscore2-new-R_upscore2-new-R_0_split_1
I0419 04:20:05.318550 23706 net.cpp:122] Setting up upscore2-new-R_upscore2-new-R_0_split
I0419 04:20:05.318565 23706 net.cpp:129] Top shape: 1 3 36 36 (3888)
I0419 04:20:05.318574 23706 net.cpp:129] Top shape: 1 3 36 36 (3888)
I0419 04:20:05.318583 23706 net.cpp:137] Memory required for data: 2476534764
I0419 04:20:05.318591 23706 layer_factory.hpp:77] Creating layer score_pool4-new-R
I0419 04:20:05.318608 23706 net.cpp:84] Creating Layer score_pool4-new-R
I0419 04:20:05.318619 23706 net.cpp:406] score_pool4-new-R <- pool4-R_pool4-R_0_split_1
I0419 04:20:05.318635 23706 net.cpp:380] score_pool4-new-R -> score_pool4-new-R
I0419 04:20:05.322566 23706 net.cpp:122] Setting up score_pool4-new-R
I0419 04:20:05.322595 23706 net.cpp:129] Top shape: 1 3 45 45 (6075)
I0419 04:20:05.322620 23706 net.cpp:137] Memory required for data: 2476559064
I0419 04:20:05.322640 23706 layer_factory.hpp:77] Creating layer score_pool4c-R
I0419 04:20:05.322657 23706 net.cpp:84] Creating Layer score_pool4c-R
I0419 04:20:05.322670 23706 net.cpp:406] score_pool4c-R <- score_pool4-new-R
I0419 04:20:05.322682 23706 net.cpp:406] score_pool4c-R <- upscore2-new-R_upscore2-new-R_0_split_0
I0419 04:20:05.322698 23706 net.cpp:380] score_pool4c-R -> score_pool4c-R
I0419 04:20:05.322794 23706 net.cpp:122] Setting up score_pool4c-R
I0419 04:20:05.322810 23706 net.cpp:129] Top shape: 1 3 36 36 (3888)
I0419 04:20:05.322818 23706 net.cpp:137] Memory required for data: 2476574616
I0419 04:20:05.322827 23706 layer_factory.hpp:77] Creating layer fuse_pool4-R
I0419 04:20:05.322849 23706 net.cpp:84] Creating Layer fuse_pool4-R
I0419 04:20:05.322860 23706 net.cpp:406] fuse_pool4-R <- upscore2-new-R_upscore2-new-R_0_split_1
I0419 04:20:05.322871 23706 net.cpp:406] fuse_pool4-R <- score_pool4c-R
I0419 04:20:05.322886 23706 net.cpp:380] fuse_pool4-R -> fuse_pool4-R
I0419 04:20:05.322971 23706 net.cpp:122] Setting up fuse_pool4-R
I0419 04:20:05.322985 23706 net.cpp:129] Top shape: 1 3 36 36 (3888)
I0419 04:20:05.322993 23706 net.cpp:137] Memory required for data: 2476590168
I0419 04:20:05.323002 23706 layer_factory.hpp:77] Creating layer upscore_pool4-new-R
I0419 04:20:05.323017 23706 net.cpp:84] Creating Layer upscore_pool4-new-R
I0419 04:20:05.323029 23706 net.cpp:406] upscore_pool4-new-R <- fuse_pool4-R
I0419 04:20:05.323045 23706 net.cpp:380] upscore_pool4-new-R -> upscore_pool4-new-R
I0419 04:20:05.323793 23706 net.cpp:122] Setting up upscore_pool4-new-R
I0419 04:20:05.323810 23706 net.cpp:129] Top shape: 1 3 74 74 (16428)
I0419 04:20:05.323817 23706 net.cpp:137] Memory required for data: 2476655880
I0419 04:20:05.323828 23706 layer_factory.hpp:77] Creating layer upscore_pool4-new-R_upscore_pool4-new-R_0_split
I0419 04:20:05.323843 23706 net.cpp:84] Creating Layer upscore_pool4-new-R_upscore_pool4-new-R_0_split
I0419 04:20:05.323853 23706 net.cpp:406] upscore_pool4-new-R_upscore_pool4-new-R_0_split <- upscore_pool4-new-R
I0419 04:20:05.323868 23706 net.cpp:380] upscore_pool4-new-R_upscore_pool4-new-R_0_split -> upscore_pool4-new-R_upscore_pool4-new-R_0_split_0
I0419 04:20:05.323884 23706 net.cpp:380] upscore_pool4-new-R_upscore_pool4-new-R_0_split -> upscore_pool4-new-R_upscore_pool4-new-R_0_split_1
I0419 04:20:05.324012 23706 net.cpp:122] Setting up upscore_pool4-new-R_upscore_pool4-new-R_0_split
I0419 04:20:05.324026 23706 net.cpp:129] Top shape: 1 3 74 74 (16428)
I0419 04:20:05.324035 23706 net.cpp:129] Top shape: 1 3 74 74 (16428)
I0419 04:20:05.324043 23706 net.cpp:137] Memory required for data: 2476787304
I0419 04:20:05.324050 23706 layer_factory.hpp:77] Creating layer score_pool3-new-R
I0419 04:20:05.324069 23706 net.cpp:84] Creating Layer score_pool3-new-R
I0419 04:20:05.324084 23706 net.cpp:406] score_pool3-new-R <- pool3-R_pool3-R_0_split_1
I0419 04:20:05.324101 23706 net.cpp:380] score_pool3-new-R -> score_pool3-new-R
I0419 04:20:05.327978 23706 net.cpp:122] Setting up score_pool3-new-R
I0419 04:20:05.328009 23706 net.cpp:129] Top shape: 1 3 89 89 (23763)
I0419 04:20:05.328017 23706 net.cpp:137] Memory required for data: 2476882356
I0419 04:20:05.328037 23706 layer_factory.hpp:77] Creating layer score_pool3c-R
I0419 04:20:05.328058 23706 net.cpp:84] Creating Layer score_pool3c-R
I0419 04:20:05.328070 23706 net.cpp:406] score_pool3c-R <- score_pool3-new-R
I0419 04:20:05.328083 23706 net.cpp:406] score_pool3c-R <- upscore_pool4-new-R_upscore_pool4-new-R_0_split_0
I0419 04:20:05.328097 23706 net.cpp:380] score_pool3c-R -> score_pool3c-R
I0419 04:20:05.328192 23706 net.cpp:122] Setting up score_pool3c-R
I0419 04:20:05.328214 23706 net.cpp:129] Top shape: 1 3 74 74 (16428)
I0419 04:20:05.328222 23706 net.cpp:137] Memory required for data: 2476948068
I0419 04:20:05.328230 23706 layer_factory.hpp:77] Creating layer fuse_pool3-R
I0419 04:20:05.328246 23706 net.cpp:84] Creating Layer fuse_pool3-R
I0419 04:20:05.328256 23706 net.cpp:406] fuse_pool3-R <- upscore_pool4-new-R_upscore_pool4-new-R_0_split_1
I0419 04:20:05.328266 23706 net.cpp:406] fuse_pool3-R <- score_pool3c-R
I0419 04:20:05.328279 23706 net.cpp:380] fuse_pool3-R -> fuse_pool3-R
I0419 04:20:05.328361 23706 net.cpp:122] Setting up fuse_pool3-R
I0419 04:20:05.328374 23706 net.cpp:129] Top shape: 1 3 74 74 (16428)
I0419 04:20:05.328382 23706 net.cpp:137] Memory required for data: 2477013780
I0419 04:20:05.328388 23706 layer_factory.hpp:77] Creating layer upscore8-new-R
I0419 04:20:05.328403 23706 net.cpp:84] Creating Layer upscore8-new-R
I0419 04:20:05.328413 23706 net.cpp:406] upscore8-new-R <- fuse_pool3-R
I0419 04:20:05.328428 23706 net.cpp:380] upscore8-new-R -> upscore8-new-R
I0419 04:20:05.329252 23706 net.cpp:122] Setting up upscore8-new-R
I0419 04:20:05.329270 23706 net.cpp:129] Top shape: 1 3 600 600 (1080000)
I0419 04:20:05.329278 23706 net.cpp:137] Memory required for data: 2481333780
I0419 04:20:05.329295 23706 layer_factory.hpp:77] Creating layer upscore8_cropped-R
I0419 04:20:05.329310 23706 net.cpp:84] Creating Layer upscore8_cropped-R
I0419 04:20:05.329319 23706 net.cpp:406] upscore8_cropped-R <- upscore8-new-R
I0419 04:20:05.329342 23706 net.cpp:406] upscore8_cropped-R <- data-R_crop_0_split_1
I0419 04:20:05.329356 23706 net.cpp:380] upscore8_cropped-R -> upscore8_cropped-R
I0419 04:20:05.329450 23706 net.cpp:122] Setting up upscore8_cropped-R
I0419 04:20:05.329464 23706 net.cpp:129] Top shape: 1 3 512 512 (786432)
I0419 04:20:05.329471 23706 net.cpp:137] Memory required for data: 2484479508
I0419 04:20:05.329479 23706 layer_factory.hpp:77] Creating layer score-R
I0419 04:20:05.329499 23706 net.cpp:84] Creating Layer score-R
I0419 04:20:05.329510 23706 net.cpp:406] score-R <- upscore8_cropped-R
I0419 04:20:05.329540 23706 net.cpp:380] score-R -> score-R
I0419 04:20:05.341037 23706 net.cpp:122] Setting up score-R
I0419 04:20:05.341059 23706 net.cpp:129] Top shape: 1 3 512 512 (786432)
I0419 04:20:05.341063 23706 net.cpp:137] Memory required for data: 2487625236
I0419 04:20:05.341090 23706 layer_factory.hpp:77] Creating layer score_uncropped-R
I0419 04:20:05.341176 23706 net.cpp:84] Creating Layer score_uncropped-R
I0419 04:20:05.341190 23706 net.cpp:406] score_uncropped-R <- crop_info
I0419 04:20:05.341217 23706 net.cpp:406] score_uncropped-R <- score-R
I0419 04:20:05.341230 23706 net.cpp:406] score_uncropped-R <- data_data_0_split_3
I0419 04:20:05.341240 23706 net.cpp:380] score_uncropped-R -> score_uncropped-R
I0419 04:20:05.344488 23706 net.cpp:122] Setting up score_uncropped-R
I0419 04:20:05.344519 23706 net.cpp:129] Top shape: 1 3 512 512 (786432)
I0419 04:20:05.344537 23706 net.cpp:137] Memory required for data: 2490770964
I0419 04:20:05.344545 23706 layer_factory.hpp:77] Creating layer loss1
I0419 04:20:05.344563 23706 net.cpp:84] Creating Layer loss1
I0419 04:20:05.344575 23706 net.cpp:406] loss1 <- score_score_0_split_1
I0419 04:20:05.344588 23706 net.cpp:406] loss1 <- label_data_1_split_1
I0419 04:20:05.344601 23706 net.cpp:380] loss1 -> loss1
…
