…
snapshot_prefix: "/media/Med_2T2/data2/models/snapshots/joint:1e-5x10,1e-5x10,20/FD2:YI3_1_20180418_201422,YJ3_1_20180419_073851/train"
test_initialization: false
average_loss: 20
stepvalue: 45000
stepvalue: 50000
stepvalue: 55000
iter_size: 1
I0419 09:24:59.262928 29343 solver.cpp:77] Creating training net from train_net file: /media/Med_2T2/data2/prototxts/training_J3x10.prototxt
I0419 09:24:59.265723 29343 net.cpp:51] Initializing net from parameters: 
state {
  phase: TRAIN
}
layer {
  name: "data"
  type: "Python"
  top: "data"
  top: "label"
  top: "crop_margin"
  top: "crop_prob"
  top: "crop_sample_batch"
  python_param {
    module: "Data"
    layer: "DataLayer"
  }
}
layer {
  name: "conv1_1"
  type: "Convolution"
  bottom: "data"
  top: "conv1_1"
  param {
    lr_mult: 1
    decay_mult: 1
  }
  param {
    lr_mult: 2
    decay_mult: 0
  }
  convolution_param {
    num_output: 64
    pad: 100
    kernel_size: 3
    stride: 1
  }
}
layer {
  name: "relu1_1"
  type: "ReLU"
  bottom: "conv1_1"
  top: "conv1_1"
}
layer {
  name: "conv1_2"
  type: "Convolution"
  bottom: "conv1_1"
  top: "conv1_2"
  param {
    lr_mult: 1
    decay_mult: 1
  }
  param {
    lr_mult: 2
    decay_mult: 0
  }
  convolution_param {
    num_output: 64
    pad: 1
    kernel_size: 3
    stride: 1
  }
}
layer {
  name: "relu1_2"
  type: "ReLU"
  bottom: "conv1_2"
  top: "conv1_2"
}
layer {
  name: "pool1"
  type: "Pooling"
  bottom: "conv1_2"
  top: "pool1"
  pooling_param {
    pool: MAX
    kernel_size: 2
    stride: 2
  }
}
layer {
  name: "conv2_1"
  type: "Convolution"
  bottom: "pool1"
  top: "conv2_1"
  param {
    lr_mult: 1
    decay_mult: 1
  }
  param {
    lr_mult: 2
    decay_mult: 0
  }
  convolution_param {
    num_output: 128
    pad: 1
    kernel_size: 3
    stride: 1
  }
}
layer {
  name: "relu2_1"
  type: "ReLU"
  bottom: "conv2_1"
  top: "conv2_1"
}
layer {
  name: "conv2_2"
  type: "Convolution"
  bottom: "conv2_1"
  top: "conv2_2"
  param {
    lr_mult: 1
    decay_mult: 1
  }
  param {
    lr_mult: 2
    decay_mult: 0
  }
  convolution_param {
    num_output: 128
    pad: 1
    kernel_size: 3
    stride: 1
  }
}
layer {
  name: "relu2_2"
  type: "ReLU"
  bottom: "conv2_2"
  top: "conv2_2"
}
layer {
  name: "pool2"
  type: "Pooling"
  bottom: "conv2_2"
  top: "pool2"
  pooling_param {
    pool: MAX
    kernel_size: 2
    stride: 2
  }
}
layer {
  name: "conv3_1"
  type: "Convolution"
  bottom: "pool2"
  top: "conv3_1"
  param {
    lr_mult: 1
    decay_mult: 1
  }
  param {
    lr_mult: 2
    decay_mult: 0
  }
  convolution_param {
    num_output: 256
    pad: 1
    kernel_size: 3
    stride: 1
  }
}
layer {
  name: "relu3_1"
  type: "ReLU"
  bottom: "conv3_1"
  top: "conv3_1"
}
layer {
  name: "conv3_2"
  type: "Convolution"
  bottom: "conv3_1"
  top: "conv3_2"
  param {
    lr_mult: 1
    decay_mult: 1
  }
  param {
    lr_mult: 2
    decay_mult: 0
  }
  convolution_param {
    num_output: 256
    pad: 1
    kernel_size: 3
    stride: 1
  }
}
layer {
  name: "relu3_2"
  type: "ReLU"
  bottom: "conv3_2"
  top: "conv3_2"
}
layer {
  name: "conv3_3"
  type: "Convolution"
  bottom: "conv3_2"
  top: "conv3_3"
  param {
    lr_mult: 1
    decay_mult: 1
  }
  param {
    lr_mult: 2
    decay_mult: 0
  }
  convolution_param {
    num_output: 256
    pad: 1
    kernel_size: 3
    stride: 1
  }
}
layer {
  name: "relu3_3"
  type: "ReLU"
  bottom: "conv3_3"
  top: "conv3_3"
}
layer {
  name: "pool3"
  type: "Pooling"
  bottom: "conv3_3"
  top: "pool3"
  pooling_param {
    pool: MAX
    kernel_size: 2
    stride: 2
  }
}
layer {
  name: "conv4_1"
  type: "Convolution"
  bottom: "pool3"
  top: "conv4_1"
  param {
    lr_mult: 1
    decay_mult: 1
  }
  param {
    lr_mult: 2
    decay_mult: 0
  }
  convolution_param {
    num_output: 512
    pad: 1
    kernel_size: 3
    stride: 1
  }
}
layer {
  name: "relu4_1"
  type: "ReLU"
  bottom: "conv4_1"
  top: "conv4_1"
}
layer {
  name: "conv4_2"
  type: "Convolution"
  bottom: "conv4_1"
  top: "conv4_2"
  param {
    lr_mult: 1
    decay_mult: 1
  }
  param {
    lr_mult: 2
    decay_mult: 0
  }
  convolution_param {
    num_output: 512
    pad: 1
    kernel_size: 3
    stride: 1
  }
}
layer {
  name: "relu4_2"
  type: "ReLU"
  bottom: "conv4_2"
  top: "conv4_2"
}
layer {
  name: "conv4_3"
  type: "Convolution"
  bottom: "conv4_2"
  top: "conv4_3"
  param {
    lr_mult: 1
    decay_mult: 1
  }
  param {
    lr_mult: 2
    decay_mult: 0
  }
  convolution_param {
    num_output: 512
    pad: 1
    kernel_size: 3
    stride: 1
  }
}
layer {
  name: "relu4_3"
  type: "ReLU"
  bottom: "conv4_3"
  top: "conv4_3"
}
layer {
  name: "pool4"
  type: "Pooling"
  bottom: "conv4_3"
  top: "pool4"
  pooling_param {
    pool: MAX
    kernel_size: 2
    stride: 2
  }
}
layer {
  name: "conv5_1"
  type: "Convolution"
  bottom: "pool4"
  top: "conv5_1"
  param {
    lr_mult: 1
    decay_mult: 1
  }
  param {
    lr_mult: 2
    decay_mult: 0
  }
  convolution_param {
    num_output: 512
    pad: 1
    kernel_size: 3
    stride: 1
  }
}
layer {
  name: "relu5_1"
  type: "ReLU"
  bottom: "conv5_1"
  top: "conv5_1"
}
layer {
  name: "conv5_2"
  type: "Convolution"
  bottom: "conv5_1"
  top: "conv5_2"
  param {
    lr_mult: 1
    decay_mult: 1
  }
  param {
    lr_mult: 2
    decay_mult: 0
  }
  convolution_param {
    num_output: 512
    pad: 1
    kernel_size: 3
    stride: 1
  }
}
layer {
  name: "relu5_2"
  type: "ReLU"
  bottom: "conv5_2"
  top: "conv5_2"
}
layer {
  name: "conv5_3"
  type: "Convolution"
  bottom: "conv5_2"
  top: "conv5_3"
  param {
    lr_mult: 1
    decay_mult: 1
  }
  param {
    lr_mult: 2
    decay_mult: 0
  }
  convolution_param {
    num_output: 512
    pad: 1
    kernel_size: 3
    stride: 1
  }
}
layer {
  name: "relu5_3"
  type: "ReLU"
  bottom: "conv5_3"
  top: "conv5_3"
}
layer {
  name: "pool5"
  type: "Pooling"
  bottom: "conv5_3"
  top: "pool5"
  pooling_param {
    pool: MAX
    kernel_size: 2
    stride: 2
  }
}
layer {
  name: "fc6"
  type: "Convolution"
  bottom: "pool5"
  top: "fc6"
  param {
    lr_mult: 1
    decay_mult: 1
  }
  param {
    lr_mult: 2
    decay_mult: 0
  }
  convolution_param {
    num_output: 4096
    pad: 0
    kernel_size: 7
    stride: 1
  }
}
layer {
  name: "relu6"
  type: "ReLU"
  bottom: "fc6"
  top: "fc6"
}
layer {
  name: "drop6"
  type: "Dropout"
  bottom: "fc6"
  top: "fc6"
  dropout_param {
    dropout_ratio: 0.5
  }
}
layer {
  name: "fc7"
  type: "Convolution"
  bottom: "fc6"
  top: "fc7"
  param {
    lr_mult: 1
    decay_mult: 1
  }
  param {
    lr_mult: 2
    decay_mult: 0
  }
  convolution_param {
    num_output: 4096
    pad: 0
    kernel_size: 1
    stride: 1
  }
}
layer {
  name: "relu7"
  type: "ReLU"
  bottom: "fc7"
  top: "fc7"
}
layer {
  name: "drop7"
  type: "Dropout"
  bottom: "fc7"
  top: "fc7"
  dropout_param {
    dropout_ratio: 0.5
  }
}
layer {
  name: "score_fr-new"
  type: "Convolution"
  bottom: "fc7"
  top: "score_fr-new"
  param {
    lr_mult: 1
    decay_mult: 1
  }
  param {
    lr_mult: 2
    decay_mult: 0
  }
  convolution_param {
    num_output: 3
    kernel_size: 1
  }
}
layer {
  name: "upscore2-new"
  type: "Deconvolution"
  bottom: "score_fr-new"
  top: "upscore2-new"
  param {
    lr_mult: 0
  }
  convolution_param {
    num_output: 3
    bias_term: false
    kernel_size: 4
    stride: 2
  }
}
layer {
  name: "score_pool4-new"
  type: "Convolution"
  bottom: "pool4"
  top: "score_pool4-new"
  param {
    lr_mult: 1
    decay_mult: 1
  }
  param {
    lr_mult: 2
    decay_mult: 0
  }
  convolution_param {
    num_output: 3
    pad: 0
    kernel_size: 1
  }
}
layer {
  name: "score_pool4c"
  type: "Crop"
  bottom: "score_pool4-new"
  bottom: "upscore2-new"
  top: "score_pool4c"
  crop_param {
    axis: 2
    offset: 5
  }
}
layer {
  name: "fuse_pool4"
  type: "Eltwise"
  bottom: "upscore2-new"
  bottom: "score_pool4c"
  top: "fuse_pool4"
  eltwise_param {
    operation: SUM
  }
}
layer {
  name: "upscore_pool4-new"
  type: "Deconvolution"
  bottom: "fuse_pool4"
  top: "upscore_pool4-new"
  param {
    lr_mult: 0
  }
  convolution_param {
    num_output: 3
    bias_term: false
    kernel_size: 4
    stride: 2
  }
}
layer {
  name: "score_pool3-new"
  type: "Convolution"
  bottom: "pool3"
  top: "score_pool3-new"
  param {
    lr_mult: 1
    decay_mult: 1
  }
  param {
    lr_mult: 2
    decay_mult: 0
  }
  convolution_param {
    num_output: 3
    pad: 0
    kernel_size: 1
  }
}
layer {
  name: "score_pool3c"
  type: "Crop"
  bottom: "score_pool3-new"
  bottom: "upscore_pool4-new"
  top: "score_pool3c"
  crop_param {
    axis: 2
    offset: 9
  }
}
layer {
  name: "fuse_pool3"
  type: "Eltwise"
  bottom: "upscore_pool4-new"
  bottom: "score_pool3c"
  top: "fuse_pool3"
  eltwise_param {
    operation: SUM
  }
}
layer {
  name: "upscore8-new"
  type: "Deconvolution"
  bottom: "fuse_pool3"
  top: "upscore8-new"
  param {
    lr_mult: 0
  }
  convolution_param {
    num_output: 3
    bias_term: false
    kernel_size: 16
    stride: 8
  }
}
layer {
  name: "upscore8_cropped"
  type: "Crop"
  bottom: "upscore8-new"
  bottom: "data"
  top: "upscore8_cropped"
  crop_param {
    axis: 2
    offset: 31
  }
}
layer {
  name: "score"
  type: "Convolution"
  bottom: "upscore8_cropped"
  top: "score"
  param {
    lr_mult: 1
    decay_mult: 1
  }
  param {
    lr_mult: 2
    decay_mult: 0
  }
  convolution_param {
    num_output: 3
    pad: 1
    kernel_size: 3
    stride: 1
  }
}
layer {
  name: "prob"
  type: "Sigmoid"
  bottom: "score"
  top: "prob"
}
layer {
  name: "saliency"
  type: "Convolution"
  bottom: "prob"
  top: "saliency"
  param {
    lr_mult: 10
    decay_mult: 1
  }
  param {
    lr_mult: 20
    decay_mult: 0
  }
  convolution_param {
    num_output: 3
    pad: 2
    kernel_size: 5
    stride: 1
  }
}
layer {
  name: "saliency_data"
  type: "Eltwise"
  bottom: "data"
  bottom: "saliency"
  top: "saliency_data"
  eltwise_param {
    operation: PROD
  }
}
layer {
  name: "crop"
  type: "Python"
  bottom: "prob"
  bottom: "saliency_data"
  bottom: "crop_margin"
  bottom: "crop_prob"
  bottom: "crop_sample_batch"
  bottom: "label"
  top: "data-R"
  top: "crop_info"
  python_param {
    module: "Crop"
    layer: "CropLayer"
    param_str: "{\"TEST\": 0}"
  }
}
layer {
  name: "conv1_1-R"
  type: "Convolution"
  bottom: "data-R"
  top: "conv1_1-R"
  param {
    lr_mult: 10
    decay_mult: 1
  }
  param {
    lr_mult: 20
    decay_mult: 0
  }
  convolution_param {
    num_output: 64
    pad: 100
    kernel_size: 3
    stride: 1
  }
}
layer {
  name: "relu1_1-R"
  type: "ReLU"
  bottom: "conv1_1-R"
  top: "conv1_1-R"
}
layer {
  name: "conv1_2-R"
  type: "Convolution"
  bottom: "conv1_1-R"
  top: "conv1_2-R"
  param {
    lr_mult: 10
    decay_mult: 1
  }
  param {
    lr_mult: 20
    decay_mult: 0
  }
  convolution_param {
    num_output: 64
    pad: 1
    kernel_size: 3
    stride: 1
  }
}
layer {
  name: "relu1_2-R"
  type: "ReLU"
  bottom: "conv1_2-R"
  top: "conv1_2-R"
}
layer {
  name: "pool1-R"
  type: "Pooling"
  bottom: "conv1_2-R"
  top: "pool1-R"
  pooling_param {
    pool: MAX
    kernel_size: 2
    stride: 2
  }
}
layer {
  name: "conv2_1-R"
  type: "Convolution"
  bottom: "pool1-R"
  top: "conv2_1-R"
  param {
    lr_mult: 10
    decay_mult: 1
  }
  param {
    lr_mult: 20
    decay_mult: 0
  }
  convolution_param {
    num_output: 128
    pad: 1
    kernel_size: 3
    stride: 1
  }
}
layer {
  name: "relu2_1-R"
  type: "ReLU"
  bottom: "conv2_1-R"
  top: "conv2_1-R"
}
layer {
  name: "conv2_2-R"
  type: "Convolution"
  bottom: "conv2_1-R"
  top: "conv2_2-R"
  param {
    lr_mult: 10
    decay_mult: 1
  }
  param {
    lr_mult: 20
    decay_mult: 0
  }
  convolution_param {
    num_output: 128
    pad: 1
    kernel_size: 3
    stride: 1
  }
}
layer {
  name: "relu2_2-R"
  type: "ReLU"
  bottom: "conv2_2-R"
  top: "conv2_2-R"
}
layer {
  name: "pool2-R"
  type: "Pooling"
  bottom: "conv2_2-R"
  top: "pool2-R"
  pooling_param {
    pool: MAX
    kernel_size: 2
    stride: 2
  }
}
layer {
  name: "conv3_1-R"
  type: "Convolution"
  bottom: "pool2-R"
  top: "conv3_1-R"
  param {
    lr_mult: 10
    decay_mult: 1
  }
  param {
    lr_mult: 20
    decay_mult: 0
  }
  convolution_param {
    num_output: 256
    pad: 1
    kernel_size: 3
    stride: 1
  }
}
layer {
  name: "relu3_1-R"
  type: "ReLU"
  bottom: "conv3_1-R"
  top: "conv3_1-R"
}
layer {
  name: "conv3_2-R"
  type: "Convolution"
  bottom: "conv3_1-R"
  top: "conv3_2-R"
  param {
    lr_mult: 10
    decay_mult: 1
  }
  param {
    lr_mult: 20
    decay_mult: 0
  }
  convolution_param {
    num_output: 256
    pad: 1
    kernel_size: 3
    stride: 1
  }
}
layer {
  name: "relu3_2-R"
  type: "ReLU"
  bottom: "conv3_2-R"
  top: "conv3_2-R"
}
layer {
  name: "conv3_3-R"
  type: "Convolution"
  bottom: "conv3_2-R"
  top: "conv3_3-R"
  param {
    lr_mult: 10
    decay_mult: 1
  }
  param {
    lr_mult: 20
    decay_mult: 0
  }
  convolution_param {
    num_output: 256
    pad: 1
    kernel_size: 3
    stride: 1
  }
}
layer {
  name: "relu3_3-R"
  type: "ReLU"
  bottom: "conv3_3-R"
  top: "conv3_3-R"
}
layer {
  name: "pool3-R"
  type: "Pooling"
  bottom: "conv3_3-R"
  top: "pool3-R"
  pooling_param {
    pool: MAX
    kernel_size: 2
    stride: 2
  }
}
layer {
  name: "conv4_1-R"
  type: "Convolution"
  bottom: "pool3-R"
  top: "conv4_1-R"
  param {
    lr_mult: 10
    decay_mult: 1
  }
  param {
    lr_mult: 20
    decay_mult: 0
  }
  convolution_param {
    num_output: 512
    pad: 1
    kernel_size: 3
    stride: 1
  }
}
layer {
  name: "relu4_1-R"
  type: "ReLU"
  bottom: "conv4_1-R"
  top: "conv4_1-R"
}
layer {
  name: "conv4_2-R"
  type: "Convolution"
  bottom: "conv4_1-R"
  top: "conv4_2-R"
  param {
    lr_mult: 10
    decay_mult: 1
  }
  param {
    lr_mult: 20
    decay_mult: 0
  }
  convolution_param {
    num_output: 512
    pad: 1
    kernel_size: 3
    stride: 1
  }
}
layer {
  name: "relu4_2-R"
  type: "ReLU"
  bottom: "conv4_2-R"
  top: "conv4_2-R"
}
layer {
  name: "conv4_3-R"
  type: "Convolution"
  bottom: "conv4_2-R"
  top: "conv4_3-R"
  param {
    lr_mult: 10
    decay_mult: 1
  }
  param {
    lr_mult: 20
    decay_mult: 0
  }
  convolution_param {
    num_output: 512
    pad: 1
    kernel_size: 3
    stride: 1
  }
}
layer {
  name: "relu4_3-R"
  type: "ReLU"
  bottom: "conv4_3-R"
  top: "conv4_3-R"
}
layer {
  name: "pool4-R"
  type: "Pooling"
  bottom: "conv4_3-R"
  top: "pool4-R"
  pooling_param {
    pool: MAX
    kernel_size: 2
    stride: 2
  }
}
layer {
  name: "conv5_1-R"
  type: "Convolution"
  bottom: "pool4-R"
  top: "conv5_1-R"
  param {
    lr_mult: 10
    decay_mult: 1
  }
  param {
    lr_mult: 20
    decay_mult: 0
  }
  convolution_param {
    num_output: 512
    pad: 1
    kernel_size: 3
    stride: 1
  }
}
layer {
  name: "relu5_1-R"
  type: "ReLU"
  bottom: "conv5_1-R"
  top: "conv5_1-R"
}
layer {
  name: "conv5_2-R"
  type: "Convolution"
  bottom: "conv5_1-R"
  top: "conv5_2-R"
  param {
    lr_mult: 10
    decay_mult: 1
  }
  param {
    lr_mult: 20
    decay_mult: 0
  }
  convolution_param {
    num_output: 512
    pad: 1
    kernel_size: 3
    stride: 1
  }
}
layer {
  name: "relu5_2-R"
  type: "ReLU"
  bottom: "conv5_2-R"
  top: "conv5_2-R"
}
layer {
  name: "conv5_3-R"
  type: "Convolution"
  bottom: "conv5_2-R"
  top: "conv5_3-R"
  param {
    lr_mult: 10
    decay_mult: 1
  }
  param {
    lr_mult: 20
    decay_mult: 0
  }
  convolution_param {
    num_output: 512
    pad: 1
    kernel_size: 3
    stride: 1
  }
}
layer {
  name: "relu5_3-R"
  type: "ReLU"
  bottom: "conv5_3-R"
  top: "conv5_3-R"
}
layer {
  name: "pool5-R"
  type: "Pooling"
  bottom: "conv5_3-R"
  top: "pool5-R"
  pooling_param {
    pool: MAX
    kernel_size: 2
    stride: 2
  }
}
layer {
  name: "fc6-R"
  type: "Convolution"
  bottom: "pool5-R"
  top: "fc6-R"
  param {
    lr_mult: 10
    decay_mult: 1
  }
  param {
    lr_mult: 20
    decay_mult: 0
  }
  convolution_param {
    num_output: 4096
    pad: 0
    kernel_size: 7
    stride: 1
  }
}
layer {
  name: "relu6-R"
  type: "ReLU"
  bottom: "fc6-R"
  top: "fc6-R"
}
layer {
  name: "drop6-R"
  type: "Dropout"
  bottom: "fc6-R"
  top: "fc6-R"
  dropout_param {
    dropout_ratio: 0.5
  }
}
layer {
  name: "fc7-R"
  type: "Convolution"
  bottom: "fc6-R"
  top: "fc7-R"
  param {
    lr_mult: 10
    decay_mult: 1
  }
  param {
    lr_mult: 20
    decay_mult: 0
  }
  convolution_param {
    num_output: 4096
    pad: 0
    kernel_size: 1
    stride: 1
  }
}
layer {
  name: "relu7-R"
  type: "ReLU"
  bottom: "fc7-R"
  top: "fc7-R"
}
layer {
  name: "drop7-R"
  type: "Dropout"
  bottom: "fc7-R"
  top: "fc7-R"
  dropout_param {
    dropout_ratio: 0.5
  }
}
layer {
  name: "score_fr-new-R"
  type: "Convolution"
  bottom: "fc7-R"
  top: "score_fr-new-R"
  param {
    lr_mult: 10
    decay_mult: 1
  }
  param {
    lr_mult: 20
    decay_mult: 0
  }
  convolution_param {
    num_output: 3
    kernel_size: 1
  }
}
layer {
  name: "upscore2-new-R"
  type: "Deconvolution"
  bottom: "score_fr-new-R"
  top: "upscore2-new-R"
  param {
    lr_mult: 0
  }
  convolution_param {
    num_output: 3
    bias_term: false
    kernel_size: 4
    stride: 2
  }
}
layer {
  name: "score_pool4-new-R"
  type: "Convolution"
  bottom: "pool4-R"
  top: "score_pool4-new-R"
  param {
    lr_mult: 10
    decay_mult: 1
  }
  param {
    lr_mult: 20
    decay_mult: 0
  }
  convolution_param {
    num_output: 3
    pad: 0
    kernel_size: 1
  }
}
layer {
  name: "score_pool4c-R"
  type: "Crop"
  bottom: "score_pool4-new-R"
  bottom: "upscore2-new-R"
  top: "score_pool4c-R"
  crop_param {
    axis: 2
    offset: 5
  }
}
layer {
  name: "fuse_pool4-R"
  type: "Eltwise"
  bottom: "upscore2-new-R"
  bottom: "score_pool4c-R"
  top: "fuse_pool4-R"
  eltwise_param {
    operation: SUM
  }
}
layer {
  name: "upscore_pool4-new-R"
  type: "Deconvolution"
  bottom: "fuse_pool4-R"
  top: "upscore_pool4-new-R"
  param {
    lr_mult: 0
  }
  convolution_param {
    num_output: 3
    bias_term: false
    kernel_size: 4
    stride: 2
  }
}
layer {
  name: "score_pool3-new-R"
  type: "Convolution"
  bottom: "pool3-R"
  top: "score_pool3-new-R"
  param {
    lr_mult: 10
    decay_mult: 1
  }
  param {
    lr_mult: 20
    decay_mult: 0
  }
  convolution_param {
    num_output: 3
    pad: 0
    kernel_size: 1
  }
}
layer {
  name: "score_pool3c-R"
  type: "Crop"
  bottom: "score_pool3-new-R"
  bottom: "upscore_pool4-new-R"
  top: "score_pool3c-R"
  crop_param {
    axis: 2
    offset: 9
  }
}
layer {
  name: "fuse_pool3-R"
  type: "Eltwise"
  bottom: "upscore_pool4-new-R"
  bottom: "score_pool3c-R"
  top: "fuse_pool3-R"
  eltwise_param {
    operation: SUM
  }
}
layer {
  name: "upscore8-new-R"
  type: "Deconvolution"
  bottom: "fuse_pool3-R"
  top: "upscore8-new-R"
  param {
    lr_mult: 0
  }
  convolution_param {
    num_output: 3
    bias_term: false
    kernel_size: 16
    stride: 8
  }
}
layer {
  name: "upscore8_cropped-R"
  type: "Crop"
  bottom: "upscore8-new-R"
  bottom: "data-R"
  top: "upscore8_cropped-R"
  crop_param {
    axis: 2
    offset: 31
  }
}
layer {
  name: "score-R"
  type: "Convolution"
  bottom: "upscore8_cropped-R"
  top: "score-R"
  param {
    lr_mult: 10
    decay_mult: 1
  }
  param {
    lr_mult: 20
    decay_mult: 0
  }
  convolution_param {
    num_output: 3
    pad: 1
    kernel_size: 3
    stride: 1
  }
}
layer {
  name: "score_uncropped-R"
  type: "Python"
  bottom: "crop_info"
  bottom: "score-R"
  bottom: "data"
  top: "score_uncropped-R"
  python_param {
    module: "Uncrop"
    layer: "UncropLayer"
  }
}
layer {
  name: "loss1"
  type: "DiceLoss"
  bottom: "score"
  bottom: "label"
  top: "loss1"
  loss_weight: 0.333333
}
layer {
  name: "loss2"
  type: "DiceLoss"
  bottom: "score_uncropped-R"
  bottom: "label"
  top: "loss2"
  loss_weight: 0.666667
}
I0419 09:24:59.266330 29343 layer_factory.hpp:77] Creating layer data
I0419 09:24:59.267742 29343 net.cpp:84] Creating Layer data
I0419 09:24:59.267758 29343 net.cpp:380] data -> data
I0419 09:24:59.267777 29343 net.cpp:380] data -> label
I0419 09:24:59.267786 29343 net.cpp:380] data -> crop_margin
I0419 09:24:59.267792 29343 net.cpp:380] data -> crop_prob
I0419 09:24:59.267807 29343 net.cpp:380] data -> crop_sample_batch
I0419 09:24:59.435034 29343 net.cpp:122] Setting up data
I0419 09:24:59.435101 29343 net.cpp:129] Top shape: 1 3 512 310 (476160)
I0419 09:24:59.435108 29343 net.cpp:129] Top shape: 1 3 512 310 (476160)
I0419 09:24:59.435112 29343 net.cpp:129] Top shape: 1 (1)
I0419 09:24:59.435115 29343 net.cpp:129] Top shape: 1 (1)
I0419 09:24:59.435119 29343 net.cpp:129] Top shape: 1 (1)
I0419 09:24:59.435137 29343 net.cpp:137] Memory required for data: 3809292
I0419 09:24:59.435145 29343 layer_factory.hpp:77] Creating layer data_data_0_split
I0419 09:24:59.435173 29343 net.cpp:84] Creating Layer data_data_0_split
I0419 09:24:59.435178 29343 net.cpp:406] data_data_0_split <- data
I0419 09:24:59.435187 29343 net.cpp:380] data_data_0_split -> data_data_0_split_0
I0419 09:24:59.435199 29343 net.cpp:380] data_data_0_split -> data_data_0_split_1
I0419 09:24:59.435204 29343 net.cpp:380] data_data_0_split -> data_data_0_split_2
I0419 09:24:59.435210 29343 net.cpp:380] data_data_0_split -> data_data_0_split_3
I0419 09:24:59.435256 29343 net.cpp:122] Setting up data_data_0_split
I0419 09:24:59.435261 29343 net.cpp:129] Top shape: 1 3 512 310 (476160)
I0419 09:24:59.435266 29343 net.cpp:129] Top shape: 1 3 512 310 (476160)
I0419 09:24:59.435269 29343 net.cpp:129] Top shape: 1 3 512 310 (476160)
I0419 09:24:59.435272 29343 net.cpp:129] Top shape: 1 3 512 310 (476160)
I0419 09:24:59.435276 29343 net.cpp:137] Memory required for data: 11427852
I0419 09:24:59.435278 29343 layer_factory.hpp:77] Creating layer label_data_1_split
I0419 09:24:59.435284 29343 net.cpp:84] Creating Layer label_data_1_split
I0419 09:24:59.435287 29343 net.cpp:406] label_data_1_split <- label
I0419 09:24:59.435292 29343 net.cpp:380] label_data_1_split -> label_data_1_split_0
I0419 09:24:59.435297 29343 net.cpp:380] label_data_1_split -> label_data_1_split_1
I0419 09:24:59.435302 29343 net.cpp:380] label_data_1_split -> label_data_1_split_2
I0419 09:24:59.435331 29343 net.cpp:122] Setting up label_data_1_split
I0419 09:24:59.435336 29343 net.cpp:129] Top shape: 1 3 512 310 (476160)
I0419 09:24:59.435339 29343 net.cpp:129] Top shape: 1 3 512 310 (476160)
I0419 09:24:59.435343 29343 net.cpp:129] Top shape: 1 3 512 310 (476160)
I0419 09:24:59.435361 29343 net.cpp:137] Memory required for data: 17141772
I0419 09:24:59.435364 29343 layer_factory.hpp:77] Creating layer conv1_1
I0419 09:24:59.435379 29343 net.cpp:84] Creating Layer conv1_1
I0419 09:24:59.435382 29343 net.cpp:406] conv1_1 <- data_data_0_split_0
I0419 09:24:59.435389 29343 net.cpp:380] conv1_1 -> conv1_1
I0419 09:24:59.765368 29343 net.cpp:122] Setting up conv1_1
I0419 09:24:59.765416 29343 net.cpp:129] Top shape: 1 64 710 508 (23083520)
I0419 09:24:59.765421 29343 net.cpp:137] Memory required for data: 109475852
I0419 09:24:59.765444 29343 layer_factory.hpp:77] Creating layer relu1_1
I0419 09:24:59.765461 29343 net.cpp:84] Creating Layer relu1_1
I0419 09:24:59.765467 29343 net.cpp:406] relu1_1 <- conv1_1
I0419 09:24:59.765473 29343 net.cpp:367] relu1_1 -> conv1_1 (in-place)
I0419 09:24:59.765651 29343 net.cpp:122] Setting up relu1_1
I0419 09:24:59.765662 29343 net.cpp:129] Top shape: 1 64 710 508 (23083520)
I0419 09:24:59.765666 29343 net.cpp:137] Memory required for data: 201809932
I0419 09:24:59.765669 29343 layer_factory.hpp:77] Creating layer conv1_2
I0419 09:24:59.765679 29343 net.cpp:84] Creating Layer conv1_2
I0419 09:24:59.765688 29343 net.cpp:406] conv1_2 <- conv1_1
I0419 09:24:59.765710 29343 net.cpp:380] conv1_2 -> conv1_2
I0419 09:24:59.777884 29343 net.cpp:122] Setting up conv1_2
I0419 09:24:59.777930 29343 net.cpp:129] Top shape: 1 64 710 508 (23083520)
I0419 09:24:59.777940 29343 net.cpp:137] Memory required for data: 294144012
I0419 09:24:59.777961 29343 layer_factory.hpp:77] Creating layer relu1_2
I0419 09:24:59.777992 29343 net.cpp:84] Creating Layer relu1_2
I0419 09:24:59.778012 29343 net.cpp:406] relu1_2 <- conv1_2
I0419 09:24:59.778025 29343 net.cpp:367] relu1_2 -> conv1_2 (in-place)
I0419 09:24:59.778427 29343 net.cpp:122] Setting up relu1_2
I0419 09:24:59.778450 29343 net.cpp:129] Top shape: 1 64 710 508 (23083520)
I0419 09:24:59.778458 29343 net.cpp:137] Memory required for data: 386478092
I0419 09:24:59.778466 29343 layer_factory.hpp:77] Creating layer pool1
I0419 09:24:59.778481 29343 net.cpp:84] Creating Layer pool1
I0419 09:24:59.778488 29343 net.cpp:406] pool1 <- conv1_2
I0419 09:24:59.778512 29343 net.cpp:380] pool1 -> pool1
I0419 09:24:59.778611 29343 net.cpp:122] Setting up pool1
I0419 09:24:59.778627 29343 net.cpp:129] Top shape: 1 64 355 254 (5770880)
I0419 09:24:59.778635 29343 net.cpp:137] Memory required for data: 409561612
I0419 09:24:59.778641 29343 layer_factory.hpp:77] Creating layer conv2_1
I0419 09:24:59.778659 29343 net.cpp:84] Creating Layer conv2_1
I0419 09:24:59.778667 29343 net.cpp:406] conv2_1 <- pool1
I0419 09:24:59.778681 29343 net.cpp:380] conv2_1 -> conv2_1
I0419 09:24:59.781708 29343 net.cpp:122] Setting up conv2_1
I0419 09:24:59.781749 29343 net.cpp:129] Top shape: 1 128 355 254 (11541760)
I0419 09:24:59.781756 29343 net.cpp:137] Memory required for data: 455728652
I0419 09:24:59.781776 29343 layer_factory.hpp:77] Creating layer relu2_1
I0419 09:24:59.781790 29343 net.cpp:84] Creating Layer relu2_1
I0419 09:24:59.781797 29343 net.cpp:406] relu2_1 <- conv2_1
I0419 09:24:59.781808 29343 net.cpp:367] relu2_1 -> conv2_1 (in-place)
I0419 09:24:59.782191 29343 net.cpp:122] Setting up relu2_1
I0419 09:24:59.782234 29343 net.cpp:129] Top shape: 1 128 355 254 (11541760)
I0419 09:24:59.782241 29343 net.cpp:137] Memory required for data: 501895692
I0419 09:24:59.782253 29343 layer_factory.hpp:77] Creating layer conv2_2
I0419 09:24:59.782270 29343 net.cpp:84] Creating Layer conv2_2
I0419 09:24:59.782279 29343 net.cpp:406] conv2_2 <- conv2_1
I0419 09:24:59.782291 29343 net.cpp:380] conv2_2 -> conv2_2
I0419 09:24:59.787907 29343 net.cpp:122] Setting up conv2_2
I0419 09:24:59.787940 29343 net.cpp:129] Top shape: 1 128 355 254 (11541760)
I0419 09:24:59.787945 29343 net.cpp:137] Memory required for data: 548062732
I0419 09:24:59.787952 29343 layer_factory.hpp:77] Creating layer relu2_2
I0419 09:24:59.787959 29343 net.cpp:84] Creating Layer relu2_2
I0419 09:24:59.787963 29343 net.cpp:406] relu2_2 <- conv2_2
I0419 09:24:59.787969 29343 net.cpp:367] relu2_2 -> conv2_2 (in-place)
I0419 09:24:59.788184 29343 net.cpp:122] Setting up relu2_2
I0419 09:24:59.788197 29343 net.cpp:129] Top shape: 1 128 355 254 (11541760)
I0419 09:24:59.788200 29343 net.cpp:137] Memory required for data: 594229772
I0419 09:24:59.788203 29343 layer_factory.hpp:77] Creating layer pool2
I0419 09:24:59.788210 29343 net.cpp:84] Creating Layer pool2
I0419 09:24:59.788215 29343 net.cpp:406] pool2 <- conv2_2
I0419 09:24:59.788221 29343 net.cpp:380] pool2 -> pool2
I0419 09:24:59.788264 29343 net.cpp:122] Setting up pool2
I0419 09:24:59.788280 29343 net.cpp:129] Top shape: 1 128 178 127 (2893568)
I0419 09:24:59.788282 29343 net.cpp:137] Memory required for data: 605804044
I0419 09:24:59.788285 29343 layer_factory.hpp:77] Creating layer conv3_1
I0419 09:24:59.788295 29343 net.cpp:84] Creating Layer conv3_1
I0419 09:24:59.788298 29343 net.cpp:406] conv3_1 <- pool2
I0419 09:24:59.788305 29343 net.cpp:380] conv3_1 -> conv3_1
I0419 09:24:59.791395 29343 net.cpp:122] Setting up conv3_1
I0419 09:24:59.791410 29343 net.cpp:129] Top shape: 1 256 178 127 (5787136)
I0419 09:24:59.791430 29343 net.cpp:137] Memory required for data: 628952588
I0419 09:24:59.791456 29343 layer_factory.hpp:77] Creating layer relu3_1
I0419 09:24:59.791465 29343 net.cpp:84] Creating Layer relu3_1
I0419 09:24:59.791468 29343 net.cpp:406] relu3_1 <- conv3_1
I0419 09:24:59.791474 29343 net.cpp:367] relu3_1 -> conv3_1 (in-place)
I0419 09:24:59.797067 29343 net.cpp:122] Setting up relu3_1
I0419 09:24:59.797128 29343 net.cpp:129] Top shape: 1 256 178 127 (5787136)
I0419 09:24:59.797138 29343 net.cpp:137] Memory required for data: 652101132
I0419 09:24:59.797148 29343 layer_factory.hpp:77] Creating layer conv3_2
I0419 09:24:59.797185 29343 net.cpp:84] Creating Layer conv3_2
I0419 09:24:59.797196 29343 net.cpp:406] conv3_2 <- conv3_1
I0419 09:24:59.797212 29343 net.cpp:380] conv3_2 -> conv3_2
I0419 09:24:59.803020 29343 net.cpp:122] Setting up conv3_2
I0419 09:24:59.803063 29343 net.cpp:129] Top shape: 1 256 178 127 (5787136)
I0419 09:24:59.803072 29343 net.cpp:137] Memory required for data: 675249676
I0419 09:24:59.803092 29343 layer_factory.hpp:77] Creating layer relu3_2
I0419 09:24:59.803124 29343 net.cpp:84] Creating Layer relu3_2
I0419 09:24:59.803133 29343 net.cpp:406] relu3_2 <- conv3_2
I0419 09:24:59.803145 29343 net.cpp:367] relu3_2 -> conv3_2 (in-place)
I0419 09:24:59.804147 29343 net.cpp:122] Setting up relu3_2
I0419 09:24:59.804183 29343 net.cpp:129] Top shape: 1 256 178 127 (5787136)
I0419 09:24:59.804191 29343 net.cpp:137] Memory required for data: 698398220
I0419 09:24:59.804204 29343 layer_factory.hpp:77] Creating layer conv3_3
I0419 09:24:59.804224 29343 net.cpp:84] Creating Layer conv3_3
I0419 09:24:59.804231 29343 net.cpp:406] conv3_3 <- conv3_2
I0419 09:24:59.804255 29343 net.cpp:380] conv3_3 -> conv3_3
I0419 09:24:59.810997 29343 net.cpp:122] Setting up conv3_3
I0419 09:24:59.811031 29343 net.cpp:129] Top shape: 1 256 178 127 (5787136)
I0419 09:24:59.811038 29343 net.cpp:137] Memory required for data: 721546764
I0419 09:24:59.811048 29343 layer_factory.hpp:77] Creating layer relu3_3
I0419 09:24:59.811058 29343 net.cpp:84] Creating Layer relu3_3
I0419 09:24:59.811064 29343 net.cpp:406] relu3_3 <- conv3_3
I0419 09:24:59.811071 29343 net.cpp:367] relu3_3 -> conv3_3 (in-place)
I0419 09:24:59.811321 29343 net.cpp:122] Setting up relu3_3
I0419 09:24:59.811336 29343 net.cpp:129] Top shape: 1 256 178 127 (5787136)
I0419 09:24:59.811339 29343 net.cpp:137] Memory required for data: 744695308
I0419 09:24:59.811344 29343 layer_factory.hpp:77] Creating layer pool3
I0419 09:24:59.811355 29343 net.cpp:84] Creating Layer pool3
I0419 09:24:59.811360 29343 net.cpp:406] pool3 <- conv3_3
I0419 09:24:59.811369 29343 net.cpp:380] pool3 -> pool3
I0419 09:24:59.811426 29343 net.cpp:122] Setting up pool3
I0419 09:24:59.811436 29343 net.cpp:129] Top shape: 1 256 89 64 (1458176)
I0419 09:24:59.811440 29343 net.cpp:137] Memory required for data: 750528012
I0419 09:24:59.811445 29343 layer_factory.hpp:77] Creating layer pool3_pool3_0_split
I0419 09:24:59.811453 29343 net.cpp:84] Creating Layer pool3_pool3_0_split
I0419 09:24:59.811457 29343 net.cpp:406] pool3_pool3_0_split <- pool3
I0419 09:24:59.811465 29343 net.cpp:380] pool3_pool3_0_split -> pool3_pool3_0_split_0
I0419 09:24:59.811472 29343 net.cpp:380] pool3_pool3_0_split -> pool3_pool3_0_split_1
I0419 09:24:59.811514 29343 net.cpp:122] Setting up pool3_pool3_0_split
I0419 09:24:59.811522 29343 net.cpp:129] Top shape: 1 256 89 64 (1458176)
I0419 09:24:59.811528 29343 net.cpp:129] Top shape: 1 256 89 64 (1458176)
I0419 09:24:59.811532 29343 net.cpp:137] Memory required for data: 762193420
I0419 09:24:59.811537 29343 layer_factory.hpp:77] Creating layer conv4_1
I0419 09:24:59.811548 29343 net.cpp:84] Creating Layer conv4_1
I0419 09:24:59.811553 29343 net.cpp:406] conv4_1 <- pool3_pool3_0_split_0
I0419 09:24:59.811561 29343 net.cpp:380] conv4_1 -> conv4_1
I0419 09:24:59.829778 29343 net.cpp:122] Setting up conv4_1
I0419 09:24:59.829826 29343 net.cpp:129] Top shape: 1 512 89 64 (2916352)
I0419 09:24:59.829836 29343 net.cpp:137] Memory required for data: 773858828
I0419 09:24:59.829854 29343 layer_factory.hpp:77] Creating layer relu4_1
I0419 09:24:59.829869 29343 net.cpp:84] Creating Layer relu4_1
I0419 09:24:59.829879 29343 net.cpp:406] relu4_1 <- conv4_1
I0419 09:24:59.829890 29343 net.cpp:367] relu4_1 -> conv4_1 (in-place)
I0419 09:24:59.830425 29343 net.cpp:122] Setting up relu4_1
I0419 09:24:59.830468 29343 net.cpp:129] Top shape: 1 512 89 64 (2916352)
I0419 09:24:59.830482 29343 net.cpp:137] Memory required for data: 785524236
I0419 09:24:59.830494 29343 layer_factory.hpp:77] Creating layer conv4_2
I0419 09:24:59.830518 29343 net.cpp:84] Creating Layer conv4_2
I0419 09:24:59.830546 29343 net.cpp:406] conv4_2 <- conv4_1
I0419 09:24:59.830570 29343 net.cpp:380] conv4_2 -> conv4_2
I0419 09:24:59.842070 29343 net.cpp:122] Setting up conv4_2
I0419 09:24:59.842121 29343 net.cpp:129] Top shape: 1 512 89 64 (2916352)
I0419 09:24:59.842128 29343 net.cpp:137] Memory required for data: 797189644
I0419 09:24:59.842149 29343 layer_factory.hpp:77] Creating layer relu4_2
I0419 09:24:59.842175 29343 net.cpp:84] Creating Layer relu4_2
I0419 09:24:59.842195 29343 net.cpp:406] relu4_2 <- conv4_2
I0419 09:24:59.842203 29343 net.cpp:367] relu4_2 -> conv4_2 (in-place)
I0419 09:24:59.842440 29343 net.cpp:122] Setting up relu4_2
I0419 09:24:59.842453 29343 net.cpp:129] Top shape: 1 512 89 64 (2916352)
I0419 09:24:59.842458 29343 net.cpp:137] Memory required for data: 808855052
I0419 09:24:59.842463 29343 layer_factory.hpp:77] Creating layer conv4_3
I0419 09:24:59.842474 29343 net.cpp:84] Creating Layer conv4_3
I0419 09:24:59.842478 29343 net.cpp:406] conv4_3 <- conv4_2
I0419 09:24:59.842487 29343 net.cpp:380] conv4_3 -> conv4_3
I0419 09:24:59.852129 29343 net.cpp:122] Setting up conv4_3
I0419 09:24:59.852167 29343 net.cpp:129] Top shape: 1 512 89 64 (2916352)
I0419 09:24:59.852174 29343 net.cpp:137] Memory required for data: 820520460
I0419 09:24:59.852185 29343 layer_factory.hpp:77] Creating layer relu4_3
I0419 09:24:59.852195 29343 net.cpp:84] Creating Layer relu4_3
I0419 09:24:59.852201 29343 net.cpp:406] relu4_3 <- conv4_3
I0419 09:24:59.852210 29343 net.cpp:367] relu4_3 -> conv4_3 (in-place)
I0419 09:24:59.852416 29343 net.cpp:122] Setting up relu4_3
I0419 09:24:59.852428 29343 net.cpp:129] Top shape: 1 512 89 64 (2916352)
I0419 09:24:59.852432 29343 net.cpp:137] Memory required for data: 832185868
I0419 09:24:59.852437 29343 layer_factory.hpp:77] Creating layer pool4
I0419 09:24:59.852447 29343 net.cpp:84] Creating Layer pool4
I0419 09:24:59.852452 29343 net.cpp:406] pool4 <- conv4_3
I0419 09:24:59.852459 29343 net.cpp:380] pool4 -> pool4
I0419 09:24:59.852512 29343 net.cpp:122] Setting up pool4
I0419 09:24:59.852532 29343 net.cpp:129] Top shape: 1 512 45 32 (737280)
I0419 09:24:59.852536 29343 net.cpp:137] Memory required for data: 835134988
I0419 09:24:59.852540 29343 layer_factory.hpp:77] Creating layer pool4_pool4_0_split
I0419 09:24:59.852548 29343 net.cpp:84] Creating Layer pool4_pool4_0_split
I0419 09:24:59.852552 29343 net.cpp:406] pool4_pool4_0_split <- pool4
I0419 09:24:59.852560 29343 net.cpp:380] pool4_pool4_0_split -> pool4_pool4_0_split_0
I0419 09:24:59.852566 29343 net.cpp:380] pool4_pool4_0_split -> pool4_pool4_0_split_1
I0419 09:24:59.852607 29343 net.cpp:122] Setting up pool4_pool4_0_split
I0419 09:24:59.852617 29343 net.cpp:129] Top shape: 1 512 45 32 (737280)
I0419 09:24:59.852623 29343 net.cpp:129] Top shape: 1 512 45 32 (737280)
I0419 09:24:59.852627 29343 net.cpp:137] Memory required for data: 841033228
I0419 09:24:59.852630 29343 layer_factory.hpp:77] Creating layer conv5_1
I0419 09:24:59.852643 29343 net.cpp:84] Creating Layer conv5_1
I0419 09:24:59.852646 29343 net.cpp:406] conv5_1 <- pool4_pool4_0_split_0
I0419 09:24:59.852654 29343 net.cpp:380] conv5_1 -> conv5_1
I0419 09:24:59.861433 29343 net.cpp:122] Setting up conv5_1
I0419 09:24:59.861467 29343 net.cpp:129] Top shape: 1 512 45 32 (737280)
I0419 09:24:59.861472 29343 net.cpp:137] Memory required for data: 843982348
I0419 09:24:59.861481 29343 layer_factory.hpp:77] Creating layer relu5_1
I0419 09:24:59.861492 29343 net.cpp:84] Creating Layer relu5_1
I0419 09:24:59.861498 29343 net.cpp:406] relu5_1 <- conv5_1
I0419 09:24:59.861506 29343 net.cpp:367] relu5_1 -> conv5_1 (in-place)
I0419 09:24:59.862210 29343 net.cpp:122] Setting up relu5_1
I0419 09:24:59.862239 29343 net.cpp:129] Top shape: 1 512 45 32 (737280)
I0419 09:24:59.862257 29343 net.cpp:137] Memory required for data: 846931468
I0419 09:24:59.862262 29343 layer_factory.hpp:77] Creating layer conv5_2
I0419 09:24:59.862272 29343 net.cpp:84] Creating Layer conv5_2
I0419 09:24:59.862278 29343 net.cpp:406] conv5_2 <- conv5_1
I0419 09:24:59.862287 29343 net.cpp:380] conv5_2 -> conv5_2
I0419 09:24:59.871139 29343 net.cpp:122] Setting up conv5_2
I0419 09:24:59.871166 29343 net.cpp:129] Top shape: 1 512 45 32 (737280)
I0419 09:24:59.871178 29343 net.cpp:137] Memory required for data: 849880588
I0419 09:24:59.871192 29343 layer_factory.hpp:77] Creating layer relu5_2
I0419 09:24:59.871212 29343 net.cpp:84] Creating Layer relu5_2
I0419 09:24:59.871220 29343 net.cpp:406] relu5_2 <- conv5_2
I0419 09:24:59.871232 29343 net.cpp:367] relu5_2 -> conv5_2 (in-place)
I0419 09:24:59.873483 29343 net.cpp:122] Setting up relu5_2
I0419 09:24:59.873533 29343 net.cpp:129] Top shape: 1 512 45 32 (737280)
I0419 09:24:59.873538 29343 net.cpp:137] Memory required for data: 852829708
I0419 09:24:59.873545 29343 layer_factory.hpp:77] Creating layer conv5_3
I0419 09:24:59.873564 29343 net.cpp:84] Creating Layer conv5_3
I0419 09:24:59.873571 29343 net.cpp:406] conv5_3 <- conv5_2
I0419 09:24:59.873594 29343 net.cpp:380] conv5_3 -> conv5_3
I0419 09:24:59.885932 29343 net.cpp:122] Setting up conv5_3
I0419 09:24:59.885967 29343 net.cpp:129] Top shape: 1 512 45 32 (737280)
I0419 09:24:59.885973 29343 net.cpp:137] Memory required for data: 855778828
I0419 09:24:59.885982 29343 layer_factory.hpp:77] Creating layer relu5_3
I0419 09:24:59.885992 29343 net.cpp:84] Creating Layer relu5_3
I0419 09:24:59.885998 29343 net.cpp:406] relu5_3 <- conv5_3
I0419 09:24:59.886005 29343 net.cpp:367] relu5_3 -> conv5_3 (in-place)
I0419 09:24:59.886279 29343 net.cpp:122] Setting up relu5_3
I0419 09:24:59.886297 29343 net.cpp:129] Top shape: 1 512 45 32 (737280)
I0419 09:24:59.886302 29343 net.cpp:137] Memory required for data: 858727948
I0419 09:24:59.886307 29343 layer_factory.hpp:77] Creating layer pool5
I0419 09:24:59.886335 29343 net.cpp:84] Creating Layer pool5
I0419 09:24:59.886343 29343 net.cpp:406] pool5 <- conv5_3
I0419 09:24:59.886356 29343 net.cpp:380] pool5 -> pool5
I0419 09:24:59.886441 29343 net.cpp:122] Setting up pool5
I0419 09:24:59.886456 29343 net.cpp:129] Top shape: 1 512 23 16 (188416)
I0419 09:24:59.886463 29343 net.cpp:137] Memory required for data: 859481612
I0419 09:24:59.886471 29343 layer_factory.hpp:77] Creating layer fc6
I0419 09:24:59.886487 29343 net.cpp:84] Creating Layer fc6
I0419 09:24:59.886494 29343 net.cpp:406] fc6 <- pool5
I0419 09:24:59.886507 29343 net.cpp:380] fc6 -> fc6
I0419 09:25:00.224279 29343 net.cpp:122] Setting up fc6
I0419 09:25:00.224335 29343 net.cpp:129] Top shape: 1 4096 17 10 (696320)
I0419 09:25:00.224341 29343 net.cpp:137] Memory required for data: 862266892
I0419 09:25:00.224355 29343 layer_factory.hpp:77] Creating layer relu6
I0419 09:25:00.224370 29343 net.cpp:84] Creating Layer relu6
I0419 09:25:00.224376 29343 net.cpp:406] relu6 <- fc6
I0419 09:25:00.224386 29343 net.cpp:367] relu6 -> fc6 (in-place)
I0419 09:25:00.224618 29343 net.cpp:122] Setting up relu6
I0419 09:25:00.224630 29343 net.cpp:129] Top shape: 1 4096 17 10 (696320)
I0419 09:25:00.224634 29343 net.cpp:137] Memory required for data: 865052172
I0419 09:25:00.224639 29343 layer_factory.hpp:77] Creating layer drop6
I0419 09:25:00.224653 29343 net.cpp:84] Creating Layer drop6
I0419 09:25:00.224658 29343 net.cpp:406] drop6 <- fc6
I0419 09:25:00.224665 29343 net.cpp:367] drop6 -> fc6 (in-place)
I0419 09:25:00.224714 29343 net.cpp:122] Setting up drop6
I0419 09:25:00.224723 29343 net.cpp:129] Top shape: 1 4096 17 10 (696320)
I0419 09:25:00.224727 29343 net.cpp:137] Memory required for data: 867837452
I0419 09:25:00.224731 29343 layer_factory.hpp:77] Creating layer fc7
I0419 09:25:00.224743 29343 net.cpp:84] Creating Layer fc7
I0419 09:25:00.224747 29343 net.cpp:406] fc7 <- fc6
I0419 09:25:00.224756 29343 net.cpp:380] fc7 -> fc7
I0419 09:25:00.278841 29343 net.cpp:122] Setting up fc7
I0419 09:25:00.278890 29343 net.cpp:129] Top shape: 1 4096 17 10 (696320)
I0419 09:25:00.278895 29343 net.cpp:137] Memory required for data: 870622732
I0419 09:25:00.278906 29343 layer_factory.hpp:77] Creating layer relu7
I0419 09:25:00.278920 29343 net.cpp:84] Creating Layer relu7
I0419 09:25:00.278926 29343 net.cpp:406] relu7 <- fc7
I0419 09:25:00.278934 29343 net.cpp:367] relu7 -> fc7 (in-place)
I0419 09:25:00.279122 29343 net.cpp:122] Setting up relu7
I0419 09:25:00.279134 29343 net.cpp:129] Top shape: 1 4096 17 10 (696320)
I0419 09:25:00.279137 29343 net.cpp:137] Memory required for data: 873408012
I0419 09:25:00.279141 29343 layer_factory.hpp:77] Creating layer drop7
I0419 09:25:00.279150 29343 net.cpp:84] Creating Layer drop7
I0419 09:25:00.279153 29343 net.cpp:406] drop7 <- fc7
I0419 09:25:00.279160 29343 net.cpp:367] drop7 -> fc7 (in-place)
I0419 09:25:00.279189 29343 net.cpp:122] Setting up drop7
I0419 09:25:00.279196 29343 net.cpp:129] Top shape: 1 4096 17 10 (696320)
I0419 09:25:00.279199 29343 net.cpp:137] Memory required for data: 876193292
I0419 09:25:00.279202 29343 layer_factory.hpp:77] Creating layer score_fr-new
I0419 09:25:00.279212 29343 net.cpp:84] Creating Layer score_fr-new
I0419 09:25:00.279217 29343 net.cpp:406] score_fr-new <- fc7
I0419 09:25:00.279222 29343 net.cpp:380] score_fr-new -> score_fr-new
I0419 09:25:00.281087 29343 net.cpp:122] Setting up score_fr-new
I0419 09:25:00.281102 29343 net.cpp:129] Top shape: 1 3 17 10 (510)
I0419 09:25:00.281121 29343 net.cpp:137] Memory required for data: 876195332
I0419 09:25:00.281129 29343 layer_factory.hpp:77] Creating layer upscore2-new
I0419 09:25:00.281144 29343 net.cpp:84] Creating Layer upscore2-new
I0419 09:25:00.281148 29343 net.cpp:406] upscore2-new <- score_fr-new
I0419 09:25:00.281154 29343 net.cpp:380] upscore2-new -> upscore2-new
I0419 09:25:00.281375 29343 net.cpp:122] Setting up upscore2-new
I0419 09:25:00.281384 29343 net.cpp:129] Top shape: 1 3 36 22 (2376)
I0419 09:25:00.281388 29343 net.cpp:137] Memory required for data: 876204836
I0419 09:25:00.281401 29343 layer_factory.hpp:77] Creating layer upscore2-new_upscore2-new_0_split
I0419 09:25:00.281409 29343 net.cpp:84] Creating Layer upscore2-new_upscore2-new_0_split
I0419 09:25:00.281412 29343 net.cpp:406] upscore2-new_upscore2-new_0_split <- upscore2-new
I0419 09:25:00.281419 29343 net.cpp:380] upscore2-new_upscore2-new_0_split -> upscore2-new_upscore2-new_0_split_0
I0419 09:25:00.281431 29343 net.cpp:380] upscore2-new_upscore2-new_0_split -> upscore2-new_upscore2-new_0_split_1
I0419 09:25:00.281467 29343 net.cpp:122] Setting up upscore2-new_upscore2-new_0_split
I0419 09:25:00.281479 29343 net.cpp:129] Top shape: 1 3 36 22 (2376)
I0419 09:25:00.281483 29343 net.cpp:129] Top shape: 1 3 36 22 (2376)
I0419 09:25:00.281486 29343 net.cpp:137] Memory required for data: 876223844
I0419 09:25:00.281491 29343 layer_factory.hpp:77] Creating layer score_pool4-new
I0419 09:25:00.281498 29343 net.cpp:84] Creating Layer score_pool4-new
I0419 09:25:00.281502 29343 net.cpp:406] score_pool4-new <- pool4_pool4_0_split_1
I0419 09:25:00.281508 29343 net.cpp:380] score_pool4-new -> score_pool4-new
I0419 09:25:00.282721 29343 net.cpp:122] Setting up score_pool4-new
I0419 09:25:00.282734 29343 net.cpp:129] Top shape: 1 3 45 32 (4320)
I0419 09:25:00.282754 29343 net.cpp:137] Memory required for data: 876241124
I0419 09:25:00.282761 29343 layer_factory.hpp:77] Creating layer score_pool4c
I0419 09:25:00.282771 29343 net.cpp:84] Creating Layer score_pool4c
I0419 09:25:00.282775 29343 net.cpp:406] score_pool4c <- score_pool4-new
I0419 09:25:00.282780 29343 net.cpp:406] score_pool4c <- upscore2-new_upscore2-new_0_split_0
I0419 09:25:00.282786 29343 net.cpp:380] score_pool4c -> score_pool4c
I0419 09:25:00.282835 29343 net.cpp:122] Setting up score_pool4c
I0419 09:25:00.282840 29343 net.cpp:129] Top shape: 1 3 36 22 (2376)
I0419 09:25:00.282843 29343 net.cpp:137] Memory required for data: 876250628
I0419 09:25:00.282847 29343 layer_factory.hpp:77] Creating layer fuse_pool4
I0419 09:25:00.282856 29343 net.cpp:84] Creating Layer fuse_pool4
I0419 09:25:00.282860 29343 net.cpp:406] fuse_pool4 <- upscore2-new_upscore2-new_0_split_1
I0419 09:25:00.282865 29343 net.cpp:406] fuse_pool4 <- score_pool4c
I0419 09:25:00.282871 29343 net.cpp:380] fuse_pool4 -> fuse_pool4
I0419 09:25:00.282898 29343 net.cpp:122] Setting up fuse_pool4
I0419 09:25:00.282903 29343 net.cpp:129] Top shape: 1 3 36 22 (2376)
I0419 09:25:00.282907 29343 net.cpp:137] Memory required for data: 876260132
I0419 09:25:00.282909 29343 layer_factory.hpp:77] Creating layer upscore_pool4-new
I0419 09:25:00.282917 29343 net.cpp:84] Creating Layer upscore_pool4-new
I0419 09:25:00.282922 29343 net.cpp:406] upscore_pool4-new <- fuse_pool4
I0419 09:25:00.282927 29343 net.cpp:380] upscore_pool4-new -> upscore_pool4-new
I0419 09:25:00.283109 29343 net.cpp:122] Setting up upscore_pool4-new
I0419 09:25:00.283119 29343 net.cpp:129] Top shape: 1 3 74 46 (10212)
I0419 09:25:00.283123 29343 net.cpp:137] Memory required for data: 876300980
I0419 09:25:00.283128 29343 layer_factory.hpp:77] Creating layer upscore_pool4-new_upscore_pool4-new_0_split
I0419 09:25:00.283133 29343 net.cpp:84] Creating Layer upscore_pool4-new_upscore_pool4-new_0_split
I0419 09:25:00.283138 29343 net.cpp:406] upscore_pool4-new_upscore_pool4-new_0_split <- upscore_pool4-new
I0419 09:25:00.283143 29343 net.cpp:380] upscore_pool4-new_upscore_pool4-new_0_split -> upscore_pool4-new_upscore_pool4-new_0_split_0
I0419 09:25:00.283149 29343 net.cpp:380] upscore_pool4-new_upscore_pool4-new_0_split -> upscore_pool4-new_upscore_pool4-new_0_split_1
I0419 09:25:00.283185 29343 net.cpp:122] Setting up upscore_pool4-new_upscore_pool4-new_0_split
I0419 09:25:00.283201 29343 net.cpp:129] Top shape: 1 3 74 46 (10212)
I0419 09:25:00.283205 29343 net.cpp:129] Top shape: 1 3 74 46 (10212)
I0419 09:25:00.283208 29343 net.cpp:137] Memory required for data: 876382676
I0419 09:25:00.283212 29343 layer_factory.hpp:77] Creating layer score_pool3-new
I0419 09:25:00.283221 29343 net.cpp:84] Creating Layer score_pool3-new
I0419 09:25:00.283224 29343 net.cpp:406] score_pool3-new <- pool3_pool3_0_split_1
I0419 09:25:00.283231 29343 net.cpp:380] score_pool3-new -> score_pool3-new
I0419 09:25:00.284415 29343 net.cpp:122] Setting up score_pool3-new
I0419 09:25:00.284430 29343 net.cpp:129] Top shape: 1 3 89 64 (17088)
I0419 09:25:00.284449 29343 net.cpp:137] Memory required for data: 876451028
I0419 09:25:00.284456 29343 layer_factory.hpp:77] Creating layer score_pool3c
I0419 09:25:00.284463 29343 net.cpp:84] Creating Layer score_pool3c
I0419 09:25:00.284468 29343 net.cpp:406] score_pool3c <- score_pool3-new
I0419 09:25:00.284473 29343 net.cpp:406] score_pool3c <- upscore_pool4-new_upscore_pool4-new_0_split_0
I0419 09:25:00.284479 29343 net.cpp:380] score_pool3c -> score_pool3c
I0419 09:25:00.284508 29343 net.cpp:122] Setting up score_pool3c
I0419 09:25:00.284514 29343 net.cpp:129] Top shape: 1 3 74 46 (10212)
I0419 09:25:00.284518 29343 net.cpp:137] Memory required for data: 876491876
I0419 09:25:00.284520 29343 layer_factory.hpp:77] Creating layer fuse_pool3
I0419 09:25:00.284528 29343 net.cpp:84] Creating Layer fuse_pool3
I0419 09:25:00.284530 29343 net.cpp:406] fuse_pool3 <- upscore_pool4-new_upscore_pool4-new_0_split_1
I0419 09:25:00.284535 29343 net.cpp:406] fuse_pool3 <- score_pool3c
I0419 09:25:00.284540 29343 net.cpp:380] fuse_pool3 -> fuse_pool3
I0419 09:25:00.284564 29343 net.cpp:122] Setting up fuse_pool3
I0419 09:25:00.284569 29343 net.cpp:129] Top shape: 1 3 74 46 (10212)
I0419 09:25:00.284571 29343 net.cpp:137] Memory required for data: 876532724
I0419 09:25:00.284574 29343 layer_factory.hpp:77] Creating layer upscore8-new
I0419 09:25:00.284582 29343 net.cpp:84] Creating Layer upscore8-new
I0419 09:25:00.284585 29343 net.cpp:406] upscore8-new <- fuse_pool3
I0419 09:25:00.284591 29343 net.cpp:380] upscore8-new -> upscore8-new
I0419 09:25:00.284785 29343 net.cpp:122] Setting up upscore8-new
I0419 09:25:00.284795 29343 net.cpp:129] Top shape: 1 3 600 376 (676800)
I0419 09:25:00.284798 29343 net.cpp:137] Memory required for data: 879239924
I0419 09:25:00.284802 29343 layer_factory.hpp:77] Creating layer upscore8_cropped
I0419 09:25:00.284808 29343 net.cpp:84] Creating Layer upscore8_cropped
I0419 09:25:00.284812 29343 net.cpp:406] upscore8_cropped <- upscore8-new
I0419 09:25:00.284818 29343 net.cpp:406] upscore8_cropped <- data_data_0_split_1
I0419 09:25:00.284823 29343 net.cpp:380] upscore8_cropped -> upscore8_cropped
I0419 09:25:00.284847 29343 net.cpp:122] Setting up upscore8_cropped
I0419 09:25:00.284852 29343 net.cpp:129] Top shape: 1 3 512 310 (476160)
I0419 09:25:00.284855 29343 net.cpp:137] Memory required for data: 881144564
I0419 09:25:00.284858 29343 layer_factory.hpp:77] Creating layer score
I0419 09:25:00.284867 29343 net.cpp:84] Creating Layer score
I0419 09:25:00.284870 29343 net.cpp:406] score <- upscore8_cropped
I0419 09:25:00.284876 29343 net.cpp:380] score -> score
I0419 09:25:00.288178 29343 net.cpp:122] Setting up score
I0419 09:25:00.288224 29343 net.cpp:129] Top shape: 1 3 512 310 (476160)
I0419 09:25:00.288244 29343 net.cpp:137] Memory required for data: 883049204
I0419 09:25:00.288254 29343 layer_factory.hpp:77] Creating layer score_score_0_split
I0419 09:25:00.288275 29343 net.cpp:84] Creating Layer score_score_0_split
I0419 09:25:00.288280 29343 net.cpp:406] score_score_0_split <- score
I0419 09:25:00.288285 29343 net.cpp:380] score_score_0_split -> score_score_0_split_0
I0419 09:25:00.288292 29343 net.cpp:380] score_score_0_split -> score_score_0_split_1
I0419 09:25:00.288354 29343 net.cpp:122] Setting up score_score_0_split
I0419 09:25:00.288362 29343 net.cpp:129] Top shape: 1 3 512 310 (476160)
I0419 09:25:00.288365 29343 net.cpp:129] Top shape: 1 3 512 310 (476160)
I0419 09:25:00.288368 29343 net.cpp:137] Memory required for data: 886858484
I0419 09:25:00.288372 29343 layer_factory.hpp:77] Creating layer prob
I0419 09:25:00.288378 29343 net.cpp:84] Creating Layer prob
I0419 09:25:00.288383 29343 net.cpp:406] prob <- score_score_0_split_0
I0419 09:25:00.288388 29343 net.cpp:380] prob -> prob
I0419 09:25:00.288595 29343 net.cpp:122] Setting up prob
I0419 09:25:00.288607 29343 net.cpp:129] Top shape: 1 3 512 310 (476160)
I0419 09:25:00.288610 29343 net.cpp:137] Memory required for data: 888763124
I0419 09:25:00.288614 29343 layer_factory.hpp:77] Creating layer prob_prob_0_split
I0419 09:25:00.288620 29343 net.cpp:84] Creating Layer prob_prob_0_split
I0419 09:25:00.288625 29343 net.cpp:406] prob_prob_0_split <- prob
I0419 09:25:00.288630 29343 net.cpp:380] prob_prob_0_split -> prob_prob_0_split_0
I0419 09:25:00.288637 29343 net.cpp:380] prob_prob_0_split -> prob_prob_0_split_1
I0419 09:25:00.288674 29343 net.cpp:122] Setting up prob_prob_0_split
I0419 09:25:00.288692 29343 net.cpp:129] Top shape: 1 3 512 310 (476160)
I0419 09:25:00.288697 29343 net.cpp:129] Top shape: 1 3 512 310 (476160)
I0419 09:25:00.288699 29343 net.cpp:137] Memory required for data: 892572404
I0419 09:25:00.288703 29343 layer_factory.hpp:77] Creating layer saliency
I0419 09:25:00.288712 29343 net.cpp:84] Creating Layer saliency
I0419 09:25:00.288717 29343 net.cpp:406] saliency <- prob_prob_0_split_0
I0419 09:25:00.288722 29343 net.cpp:380] saliency -> saliency
I0419 09:25:00.290432 29343 net.cpp:122] Setting up saliency
I0419 09:25:00.290447 29343 net.cpp:129] Top shape: 1 3 512 310 (476160)
I0419 09:25:00.290467 29343 net.cpp:137] Memory required for data: 894477044
I0419 09:25:00.290475 29343 layer_factory.hpp:77] Creating layer saliency_data
I0419 09:25:00.290483 29343 net.cpp:84] Creating Layer saliency_data
I0419 09:25:00.290488 29343 net.cpp:406] saliency_data <- data_data_0_split_2
I0419 09:25:00.290510 29343 net.cpp:406] saliency_data <- saliency
I0419 09:25:00.290518 29343 net.cpp:380] saliency_data -> saliency_data
I0419 09:25:00.290581 29343 net.cpp:122] Setting up saliency_data
I0419 09:25:00.290588 29343 net.cpp:129] Top shape: 1 3 512 310 (476160)
I0419 09:25:00.290593 29343 net.cpp:137] Memory required for data: 896381684
I0419 09:25:00.290597 29343 layer_factory.hpp:77] Creating layer crop
I0419 09:25:00.291326 29343 net.cpp:84] Creating Layer crop
I0419 09:25:00.291342 29343 net.cpp:406] crop <- prob_prob_0_split_1
I0419 09:25:00.291359 29343 net.cpp:406] crop <- saliency_data
I0419 09:25:00.291365 29343 net.cpp:406] crop <- crop_margin
I0419 09:25:00.291371 29343 net.cpp:406] crop <- crop_prob
I0419 09:25:00.291378 29343 net.cpp:406] crop <- crop_sample_batch
I0419 09:25:00.291383 29343 net.cpp:406] crop <- label_data_1_split_0
I0419 09:25:00.291391 29343 net.cpp:380] crop -> data-R
I0419 09:25:00.291402 29343 net.cpp:380] crop -> crop_info
I0419 09:25:00.303551 29343 net.cpp:122] Setting up crop
I0419 09:25:00.303587 29343 net.cpp:129] Top shape: 1 3 512 310 (476160)
I0419 09:25:00.303592 29343 net.cpp:129] Top shape: 1 2 4 (8)
I0419 09:25:00.303596 29343 net.cpp:137] Memory required for data: 898286356
I0419 09:25:00.303601 29343 layer_factory.hpp:77] Creating layer data-R_crop_0_split
I0419 09:25:00.303611 29343 net.cpp:84] Creating Layer data-R_crop_0_split
I0419 09:25:00.303614 29343 net.cpp:406] data-R_crop_0_split <- data-R
I0419 09:25:00.303622 29343 net.cpp:380] data-R_crop_0_split -> data-R_crop_0_split_0
I0419 09:25:00.303630 29343 net.cpp:380] data-R_crop_0_split -> data-R_crop_0_split_1
I0419 09:25:00.303686 29343 net.cpp:122] Setting up data-R_crop_0_split
I0419 09:25:00.303692 29343 net.cpp:129] Top shape: 1 3 512 310 (476160)
I0419 09:25:00.303696 29343 net.cpp:129] Top shape: 1 3 512 310 (476160)
I0419 09:25:00.303699 29343 net.cpp:137] Memory required for data: 902095636
I0419 09:25:00.303702 29343 layer_factory.hpp:77] Creating layer conv1_1-R
I0419 09:25:00.303711 29343 net.cpp:84] Creating Layer conv1_1-R
I0419 09:25:00.303715 29343 net.cpp:406] conv1_1-R <- data-R_crop_0_split_0
I0419 09:25:00.303721 29343 net.cpp:380] conv1_1-R -> conv1_1-R
I0419 09:25:00.306890 29343 net.cpp:122] Setting up conv1_1-R
I0419 09:25:00.306921 29343 net.cpp:129] Top shape: 1 64 710 508 (23083520)
I0419 09:25:00.306924 29343 net.cpp:137] Memory required for data: 994429716
I0419 09:25:00.306932 29343 layer_factory.hpp:77] Creating layer relu1_1-R
I0419 09:25:00.306948 29343 net.cpp:84] Creating Layer relu1_1-R
I0419 09:25:00.306952 29343 net.cpp:406] relu1_1-R <- conv1_1-R
I0419 09:25:00.306958 29343 net.cpp:367] relu1_1-R -> conv1_1-R (in-place)
I0419 09:25:00.307174 29343 net.cpp:122] Setting up relu1_1-R
I0419 09:25:00.307185 29343 net.cpp:129] Top shape: 1 64 710 508 (23083520)
I0419 09:25:00.307188 29343 net.cpp:137] Memory required for data: 1086763796
I0419 09:25:00.307193 29343 layer_factory.hpp:77] Creating layer conv1_2-R
I0419 09:25:00.307201 29343 net.cpp:84] Creating Layer conv1_2-R
I0419 09:25:00.307205 29343 net.cpp:406] conv1_2-R <- conv1_1-R
I0419 09:25:00.307212 29343 net.cpp:380] conv1_2-R -> conv1_2-R
I0419 09:25:00.309942 29343 net.cpp:122] Setting up conv1_2-R
I0419 09:25:00.309957 29343 net.cpp:129] Top shape: 1 64 710 508 (23083520)
I0419 09:25:00.309978 29343 net.cpp:137] Memory required for data: 1179097876
I0419 09:25:00.309984 29343 layer_factory.hpp:77] Creating layer relu1_2-R
I0419 09:25:00.309991 29343 net.cpp:84] Creating Layer relu1_2-R
I0419 09:25:00.309995 29343 net.cpp:406] relu1_2-R <- conv1_2-R
I0419 09:25:00.310000 29343 net.cpp:367] relu1_2-R -> conv1_2-R (in-place)
I0419 09:25:00.310250 29343 net.cpp:122] Setting up relu1_2-R
I0419 09:25:00.310262 29343 net.cpp:129] Top shape: 1 64 710 508 (23083520)
I0419 09:25:00.310266 29343 net.cpp:137] Memory required for data: 1271431956
I0419 09:25:00.310271 29343 layer_factory.hpp:77] Creating layer pool1-R
I0419 09:25:00.310279 29343 net.cpp:84] Creating Layer pool1-R
I0419 09:25:00.310283 29343 net.cpp:406] pool1-R <- conv1_2-R
I0419 09:25:00.310290 29343 net.cpp:380] pool1-R -> pool1-R
I0419 09:25:00.310343 29343 net.cpp:122] Setting up pool1-R
I0419 09:25:00.310351 29343 net.cpp:129] Top shape: 1 64 355 254 (5770880)
I0419 09:25:00.310354 29343 net.cpp:137] Memory required for data: 1294515476
I0419 09:25:00.310359 29343 layer_factory.hpp:77] Creating layer conv2_1-R
I0419 09:25:00.310367 29343 net.cpp:84] Creating Layer conv2_1-R
I0419 09:25:00.310371 29343 net.cpp:406] conv2_1-R <- pool1-R
I0419 09:25:00.310379 29343 net.cpp:380] conv2_1-R -> conv2_1-R
I0419 09:25:00.313598 29343 net.cpp:122] Setting up conv2_1-R
I0419 09:25:00.313666 29343 net.cpp:129] Top shape: 1 128 355 254 (11541760)
I0419 09:25:00.313678 29343 net.cpp:137] Memory required for data: 1340682516
I0419 09:25:00.313699 29343 layer_factory.hpp:77] Creating layer relu2_1-R
I0419 09:25:00.313732 29343 net.cpp:84] Creating Layer relu2_1-R
I0419 09:25:00.313743 29343 net.cpp:406] relu2_1-R <- conv2_1-R
I0419 09:25:00.313757 29343 net.cpp:367] relu2_1-R -> conv2_1-R (in-place)
I0419 09:25:00.314368 29343 net.cpp:122] Setting up relu2_1-R
I0419 09:25:00.314404 29343 net.cpp:129] Top shape: 1 128 355 254 (11541760)
I0419 09:25:00.314412 29343 net.cpp:137] Memory required for data: 1386849556
I0419 09:25:00.314420 29343 layer_factory.hpp:77] Creating layer conv2_2-R
I0419 09:25:00.314442 29343 net.cpp:84] Creating Layer conv2_2-R
I0419 09:25:00.314463 29343 net.cpp:406] conv2_2-R <- conv2_1-R
I0419 09:25:00.314477 29343 net.cpp:380] conv2_2-R -> conv2_2-R
I0419 09:25:00.320436 29343 net.cpp:122] Setting up conv2_2-R
I0419 09:25:00.320477 29343 net.cpp:129] Top shape: 1 128 355 254 (11541760)
I0419 09:25:00.320487 29343 net.cpp:137] Memory required for data: 1433016596
I0419 09:25:00.320505 29343 layer_factory.hpp:77] Creating layer relu2_2-R
I0419 09:25:00.320518 29343 net.cpp:84] Creating Layer relu2_2-R
I0419 09:25:00.320535 29343 net.cpp:406] relu2_2-R <- conv2_2-R
I0419 09:25:00.320547 29343 net.cpp:367] relu2_2-R -> conv2_2-R (in-place)
I0419 09:25:00.321635 29343 net.cpp:122] Setting up relu2_2-R
I0419 09:25:00.321671 29343 net.cpp:129] Top shape: 1 128 355 254 (11541760)
I0419 09:25:00.321679 29343 net.cpp:137] Memory required for data: 1479183636
I0419 09:25:00.321688 29343 layer_factory.hpp:77] Creating layer pool2-R
I0419 09:25:00.321703 29343 net.cpp:84] Creating Layer pool2-R
I0419 09:25:00.321712 29343 net.cpp:406] pool2-R <- conv2_2-R
I0419 09:25:00.321733 29343 net.cpp:380] pool2-R -> pool2-R
I0419 09:25:00.321832 29343 net.cpp:122] Setting up pool2-R
I0419 09:25:00.321861 29343 net.cpp:129] Top shape: 1 128 178 127 (2893568)
I0419 09:25:00.321868 29343 net.cpp:137] Memory required for data: 1490757908
I0419 09:25:00.321876 29343 layer_factory.hpp:77] Creating layer conv3_1-R
I0419 09:25:00.321892 29343 net.cpp:84] Creating Layer conv3_1-R
I0419 09:25:00.321900 29343 net.cpp:406] conv3_1-R <- pool2-R
I0419 09:25:00.321913 29343 net.cpp:380] conv3_1-R -> conv3_1-R
I0419 09:25:00.335794 29343 net.cpp:122] Setting up conv3_1-R
I0419 09:25:00.335845 29343 net.cpp:129] Top shape: 1 256 178 127 (5787136)
I0419 09:25:00.335855 29343 net.cpp:137] Memory required for data: 1513906452
I0419 09:25:00.335875 29343 layer_factory.hpp:77] Creating layer relu3_1-R
I0419 09:25:00.335903 29343 net.cpp:84] Creating Layer relu3_1-R
I0419 09:25:00.335912 29343 net.cpp:406] relu3_1-R <- conv3_1-R
I0419 09:25:00.335925 29343 net.cpp:367] relu3_1-R -> conv3_1-R (in-place)
I0419 09:25:00.336338 29343 net.cpp:122] Setting up relu3_1-R
I0419 09:25:00.336369 29343 net.cpp:129] Top shape: 1 256 178 127 (5787136)
I0419 09:25:00.336377 29343 net.cpp:137] Memory required for data: 1537054996
I0419 09:25:00.336385 29343 layer_factory.hpp:77] Creating layer conv3_2-R
I0419 09:25:00.336413 29343 net.cpp:84] Creating Layer conv3_2-R
I0419 09:25:00.336421 29343 net.cpp:406] conv3_2-R <- conv3_1-R
I0419 09:25:00.336446 29343 net.cpp:380] conv3_2-R -> conv3_2-R
I0419 09:25:00.342289 29343 net.cpp:122] Setting up conv3_2-R
I0419 09:25:00.342327 29343 net.cpp:129] Top shape: 1 256 178 127 (5787136)
I0419 09:25:00.342334 29343 net.cpp:137] Memory required for data: 1560203540
I0419 09:25:00.342347 29343 layer_factory.hpp:77] Creating layer relu3_2-R
I0419 09:25:00.342361 29343 net.cpp:84] Creating Layer relu3_2-R
I0419 09:25:00.342370 29343 net.cpp:406] relu3_2-R <- conv3_2-R
I0419 09:25:00.342386 29343 net.cpp:367] relu3_2-R -> conv3_2-R (in-place)
I0419 09:25:00.342744 29343 net.cpp:122] Setting up relu3_2-R
I0419 09:25:00.342761 29343 net.cpp:129] Top shape: 1 256 178 127 (5787136)
I0419 09:25:00.342777 29343 net.cpp:137] Memory required for data: 1583352084
I0419 09:25:00.342783 29343 layer_factory.hpp:77] Creating layer conv3_3-R
I0419 09:25:00.342799 29343 net.cpp:84] Creating Layer conv3_3-R
I0419 09:25:00.342806 29343 net.cpp:406] conv3_3-R <- conv3_2-R
I0419 09:25:00.342816 29343 net.cpp:380] conv3_3-R -> conv3_3-R
I0419 09:25:00.349738 29343 net.cpp:122] Setting up conv3_3-R
I0419 09:25:00.349782 29343 net.cpp:129] Top shape: 1 256 178 127 (5787136)
I0419 09:25:00.349792 29343 net.cpp:137] Memory required for data: 1606500628
I0419 09:25:00.349810 29343 layer_factory.hpp:77] Creating layer relu3_3-R
I0419 09:25:00.349838 29343 net.cpp:84] Creating Layer relu3_3-R
I0419 09:25:00.349848 29343 net.cpp:406] relu3_3-R <- conv3_3-R
I0419 09:25:00.349864 29343 net.cpp:367] relu3_3-R -> conv3_3-R (in-place)
I0419 09:25:00.350360 29343 net.cpp:122] Setting up relu3_3-R
I0419 09:25:00.350383 29343 net.cpp:129] Top shape: 1 256 178 127 (5787136)
I0419 09:25:00.350390 29343 net.cpp:137] Memory required for data: 1629649172
I0419 09:25:00.350399 29343 layer_factory.hpp:77] Creating layer pool3-R
I0419 09:25:00.350423 29343 net.cpp:84] Creating Layer pool3-R
I0419 09:25:00.350431 29343 net.cpp:406] pool3-R <- conv3_3-R
I0419 09:25:00.350443 29343 net.cpp:380] pool3-R -> pool3-R
I0419 09:25:00.350548 29343 net.cpp:122] Setting up pool3-R
I0419 09:25:00.350570 29343 net.cpp:129] Top shape: 1 256 89 64 (1458176)
I0419 09:25:00.350577 29343 net.cpp:137] Memory required for data: 1635481876
I0419 09:25:00.350585 29343 layer_factory.hpp:77] Creating layer pool3-R_pool3-R_0_split
I0419 09:25:00.350595 29343 net.cpp:84] Creating Layer pool3-R_pool3-R_0_split
I0419 09:25:00.350603 29343 net.cpp:406] pool3-R_pool3-R_0_split <- pool3-R
I0419 09:25:00.350613 29343 net.cpp:380] pool3-R_pool3-R_0_split -> pool3-R_pool3-R_0_split_0
I0419 09:25:00.350631 29343 net.cpp:380] pool3-R_pool3-R_0_split -> pool3-R_pool3-R_0_split_1
I0419 09:25:00.350709 29343 net.cpp:122] Setting up pool3-R_pool3-R_0_split
I0419 09:25:00.350723 29343 net.cpp:129] Top shape: 1 256 89 64 (1458176)
I0419 09:25:00.350733 29343 net.cpp:129] Top shape: 1 256 89 64 (1458176)
I0419 09:25:00.350739 29343 net.cpp:137] Memory required for data: 1647147284
I0419 09:25:00.350745 29343 layer_factory.hpp:77] Creating layer conv4_1-R
I0419 09:25:00.350764 29343 net.cpp:84] Creating Layer conv4_1-R
I0419 09:25:00.350771 29343 net.cpp:406] conv4_1-R <- pool3-R_pool3-R_0_split_0
I0419 09:25:00.350786 29343 net.cpp:380] conv4_1-R -> conv4_1-R
I0419 09:25:00.356838 29343 net.cpp:122] Setting up conv4_1-R
I0419 09:25:00.356853 29343 net.cpp:129] Top shape: 1 512 89 64 (2916352)
I0419 09:25:00.356873 29343 net.cpp:137] Memory required for data: 1658812692
I0419 09:25:00.356881 29343 layer_factory.hpp:77] Creating layer relu4_1-R
I0419 09:25:00.356889 29343 net.cpp:84] Creating Layer relu4_1-R
I0419 09:25:00.356894 29343 net.cpp:406] relu4_1-R <- conv4_1-R
I0419 09:25:00.356899 29343 net.cpp:367] relu4_1-R -> conv4_1-R (in-place)
I0419 09:25:00.357106 29343 net.cpp:122] Setting up relu4_1-R
I0419 09:25:00.357117 29343 net.cpp:129] Top shape: 1 512 89 64 (2916352)
I0419 09:25:00.357121 29343 net.cpp:137] Memory required for data: 1670478100
I0419 09:25:00.357125 29343 layer_factory.hpp:77] Creating layer conv4_2-R
I0419 09:25:00.357134 29343 net.cpp:84] Creating Layer conv4_2-R
I0419 09:25:00.357138 29343 net.cpp:406] conv4_2-R <- conv4_1-R
I0419 09:25:00.357144 29343 net.cpp:380] conv4_2-R -> conv4_2-R
I0419 09:25:00.364778 29343 net.cpp:122] Setting up conv4_2-R
I0419 09:25:00.364811 29343 net.cpp:129] Top shape: 1 512 89 64 (2916352)
I0419 09:25:00.364815 29343 net.cpp:137] Memory required for data: 1682143508
I0419 09:25:00.364823 29343 layer_factory.hpp:77] Creating layer relu4_2-R
I0419 09:25:00.364830 29343 net.cpp:84] Creating Layer relu4_2-R
I0419 09:25:00.364835 29343 net.cpp:406] relu4_2-R <- conv4_2-R
I0419 09:25:00.364840 29343 net.cpp:367] relu4_2-R -> conv4_2-R (in-place)
I0419 09:25:00.365013 29343 net.cpp:122] Setting up relu4_2-R
I0419 09:25:00.365033 29343 net.cpp:129] Top shape: 1 512 89 64 (2916352)
I0419 09:25:00.365037 29343 net.cpp:137] Memory required for data: 1693808916
I0419 09:25:00.365041 29343 layer_factory.hpp:77] Creating layer conv4_3-R
I0419 09:25:00.365049 29343 net.cpp:84] Creating Layer conv4_3-R
I0419 09:25:00.365053 29343 net.cpp:406] conv4_3-R <- conv4_2-R
I0419 09:25:00.365059 29343 net.cpp:380] conv4_3-R -> conv4_3-R
I0419 09:25:00.378391 29343 net.cpp:122] Setting up conv4_3-R
I0419 09:25:00.378422 29343 net.cpp:129] Top shape: 1 512 89 64 (2916352)
I0419 09:25:00.378428 29343 net.cpp:137] Memory required for data: 1705474324
I0419 09:25:00.378443 29343 layer_factory.hpp:77] Creating layer relu4_3-R
I0419 09:25:00.378455 29343 net.cpp:84] Creating Layer relu4_3-R
I0419 09:25:00.378463 29343 net.cpp:406] relu4_3-R <- conv4_3-R
I0419 09:25:00.378473 29343 net.cpp:367] relu4_3-R -> conv4_3-R (in-place)
I0419 09:25:00.379474 29343 net.cpp:122] Setting up relu4_3-R
I0419 09:25:00.379506 29343 net.cpp:129] Top shape: 1 512 89 64 (2916352)
I0419 09:25:00.379513 29343 net.cpp:137] Memory required for data: 1717139732
I0419 09:25:00.379521 29343 layer_factory.hpp:77] Creating layer pool4-R
I0419 09:25:00.379534 29343 net.cpp:84] Creating Layer pool4-R
I0419 09:25:00.379541 29343 net.cpp:406] pool4-R <- conv4_3-R
I0419 09:25:00.379552 29343 net.cpp:380] pool4-R -> pool4-R
I0419 09:25:00.379645 29343 net.cpp:122] Setting up pool4-R
I0419 09:25:00.379657 29343 net.cpp:129] Top shape: 1 512 45 32 (737280)
I0419 09:25:00.379663 29343 net.cpp:137] Memory required for data: 1720088852
I0419 09:25:00.379669 29343 layer_factory.hpp:77] Creating layer pool4-R_pool4-R_0_split
I0419 09:25:00.379678 29343 net.cpp:84] Creating Layer pool4-R_pool4-R_0_split
I0419 09:25:00.379684 29343 net.cpp:406] pool4-R_pool4-R_0_split <- pool4-R
I0419 09:25:00.379693 29343 net.cpp:380] pool4-R_pool4-R_0_split -> pool4-R_pool4-R_0_split_0
I0419 09:25:00.379704 29343 net.cpp:380] pool4-R_pool4-R_0_split -> pool4-R_pool4-R_0_split_1
I0419 09:25:00.379771 29343 net.cpp:122] Setting up pool4-R_pool4-R_0_split
I0419 09:25:00.379782 29343 net.cpp:129] Top shape: 1 512 45 32 (737280)
I0419 09:25:00.379791 29343 net.cpp:129] Top shape: 1 512 45 32 (737280)
I0419 09:25:00.379796 29343 net.cpp:137] Memory required for data: 1725987092
I0419 09:25:00.379801 29343 layer_factory.hpp:77] Creating layer conv5_1-R
I0419 09:25:00.379813 29343 net.cpp:84] Creating Layer conv5_1-R
I0419 09:25:00.379820 29343 net.cpp:406] conv5_1-R <- pool4-R_pool4-R_0_split_0
I0419 09:25:00.379835 29343 net.cpp:380] conv5_1-R -> conv5_1-R
I0419 09:25:00.389045 29343 net.cpp:122] Setting up conv5_1-R
I0419 09:25:00.389080 29343 net.cpp:129] Top shape: 1 512 45 32 (737280)
I0419 09:25:00.389083 29343 net.cpp:137] Memory required for data: 1728936212
I0419 09:25:00.389106 29343 layer_factory.hpp:77] Creating layer relu5_1-R
I0419 09:25:00.389116 29343 net.cpp:84] Creating Layer relu5_1-R
I0419 09:25:00.389120 29343 net.cpp:406] relu5_1-R <- conv5_1-R
I0419 09:25:00.389133 29343 net.cpp:367] relu5_1-R -> conv5_1-R (in-place)
I0419 09:25:00.389322 29343 net.cpp:122] Setting up relu5_1-R
I0419 09:25:00.389333 29343 net.cpp:129] Top shape: 1 512 45 32 (737280)
I0419 09:25:00.389335 29343 net.cpp:137] Memory required for data: 1731885332
I0419 09:25:00.389339 29343 layer_factory.hpp:77] Creating layer conv5_2-R
I0419 09:25:00.389349 29343 net.cpp:84] Creating Layer conv5_2-R
I0419 09:25:00.389353 29343 net.cpp:406] conv5_2-R <- conv5_1-R
I0419 09:25:00.389360 29343 net.cpp:380] conv5_2-R -> conv5_2-R
I0419 09:25:00.402108 29343 net.cpp:122] Setting up conv5_2-R
I0419 09:25:00.402144 29343 net.cpp:129] Top shape: 1 512 45 32 (737280)
I0419 09:25:00.402148 29343 net.cpp:137] Memory required for data: 1734834452
I0419 09:25:00.402156 29343 layer_factory.hpp:77] Creating layer relu5_2-R
I0419 09:25:00.402213 29343 net.cpp:84] Creating Layer relu5_2-R
I0419 09:25:00.402235 29343 net.cpp:406] relu5_2-R <- conv5_2-R
I0419 09:25:00.402245 29343 net.cpp:367] relu5_2-R -> conv5_2-R (in-place)
I0419 09:25:00.402593 29343 net.cpp:122] Setting up relu5_2-R
I0419 09:25:00.402616 29343 net.cpp:129] Top shape: 1 512 45 32 (737280)
I0419 09:25:00.402622 29343 net.cpp:137] Memory required for data: 1737783572
I0419 09:25:00.402628 29343 layer_factory.hpp:77] Creating layer conv5_3-R
I0419 09:25:00.402642 29343 net.cpp:84] Creating Layer conv5_3-R
I0419 09:25:00.402649 29343 net.cpp:406] conv5_3-R <- conv5_2-R
I0419 09:25:00.402660 29343 net.cpp:380] conv5_3-R -> conv5_3-R
I0419 09:25:00.412415 29343 net.cpp:122] Setting up conv5_3-R
I0419 09:25:00.412451 29343 net.cpp:129] Top shape: 1 512 45 32 (737280)
I0419 09:25:00.412456 29343 net.cpp:137] Memory required for data: 1740732692
I0419 09:25:00.412463 29343 layer_factory.hpp:77] Creating layer relu5_3-R
I0419 09:25:00.412472 29343 net.cpp:84] Creating Layer relu5_3-R
I0419 09:25:00.412477 29343 net.cpp:406] relu5_3-R <- conv5_3-R
I0419 09:25:00.412482 29343 net.cpp:367] relu5_3-R -> conv5_3-R (in-place)
I0419 09:25:00.412674 29343 net.cpp:122] Setting up relu5_3-R
I0419 09:25:00.412684 29343 net.cpp:129] Top shape: 1 512 45 32 (737280)
I0419 09:25:00.412688 29343 net.cpp:137] Memory required for data: 1743681812
I0419 09:25:00.412691 29343 layer_factory.hpp:77] Creating layer pool5-R
I0419 09:25:00.412700 29343 net.cpp:84] Creating Layer pool5-R
I0419 09:25:00.412704 29343 net.cpp:406] pool5-R <- conv5_3-R
I0419 09:25:00.412711 29343 net.cpp:380] pool5-R -> pool5-R
I0419 09:25:00.412778 29343 net.cpp:122] Setting up pool5-R
I0419 09:25:00.412787 29343 net.cpp:129] Top shape: 1 512 23 16 (188416)
I0419 09:25:00.412791 29343 net.cpp:137] Memory required for data: 1744435476
I0419 09:25:00.412793 29343 layer_factory.hpp:77] Creating layer fc6-R
I0419 09:25:00.412803 29343 net.cpp:84] Creating Layer fc6-R
I0419 09:25:00.412807 29343 net.cpp:406] fc6-R <- pool5-R
I0419 09:25:00.412813 29343 net.cpp:380] fc6-R -> fc6-R
I0419 09:25:00.702797 29343 net.cpp:122] Setting up fc6-R
I0419 09:25:00.702848 29343 net.cpp:129] Top shape: 1 4096 17 10 (696320)
I0419 09:25:00.702853 29343 net.cpp:137] Memory required for data: 1747220756
I0419 09:25:00.702864 29343 layer_factory.hpp:77] Creating layer relu6-R
I0419 09:25:00.702877 29343 net.cpp:84] Creating Layer relu6-R
I0419 09:25:00.702883 29343 net.cpp:406] relu6-R <- fc6-R
I0419 09:25:00.702890 29343 net.cpp:367] relu6-R -> fc6-R (in-place)
I0419 09:25:00.703070 29343 net.cpp:122] Setting up relu6-R
I0419 09:25:00.703080 29343 net.cpp:129] Top shape: 1 4096 17 10 (696320)
I0419 09:25:00.703084 29343 net.cpp:137] Memory required for data: 1750006036
I0419 09:25:00.703088 29343 layer_factory.hpp:77] Creating layer drop6-R
I0419 09:25:00.703096 29343 net.cpp:84] Creating Layer drop6-R
I0419 09:25:00.703107 29343 net.cpp:406] drop6-R <- fc6-R
I0419 09:25:00.703114 29343 net.cpp:367] drop6-R -> fc6-R (in-place)
I0419 09:25:00.703145 29343 net.cpp:122] Setting up drop6-R
I0419 09:25:00.703150 29343 net.cpp:129] Top shape: 1 4096 17 10 (696320)
I0419 09:25:00.703153 29343 net.cpp:137] Memory required for data: 1752791316
I0419 09:25:00.703157 29343 layer_factory.hpp:77] Creating layer fc7-R
I0419 09:25:00.703167 29343 net.cpp:84] Creating Layer fc7-R
I0419 09:25:00.703171 29343 net.cpp:406] fc7-R <- fc6-R
I0419 09:25:00.703177 29343 net.cpp:380] fc7-R -> fc7-R
I0419 09:25:00.751152 29343 net.cpp:122] Setting up fc7-R
I0419 09:25:00.751204 29343 net.cpp:129] Top shape: 1 4096 17 10 (696320)
I0419 09:25:00.751209 29343 net.cpp:137] Memory required for data: 1755576596
I0419 09:25:00.751220 29343 layer_factory.hpp:77] Creating layer relu7-R
I0419 09:25:00.751233 29343 net.cpp:84] Creating Layer relu7-R
I0419 09:25:00.751240 29343 net.cpp:406] relu7-R <- fc7-R
I0419 09:25:00.751247 29343 net.cpp:367] relu7-R -> fc7-R (in-place)
I0419 09:25:00.751493 29343 net.cpp:122] Setting up relu7-R
I0419 09:25:00.751504 29343 net.cpp:129] Top shape: 1 4096 17 10 (696320)
I0419 09:25:00.751508 29343 net.cpp:137] Memory required for data: 1758361876
I0419 09:25:00.751511 29343 layer_factory.hpp:77] Creating layer drop7-R
I0419 09:25:00.751520 29343 net.cpp:84] Creating Layer drop7-R
I0419 09:25:00.751524 29343 net.cpp:406] drop7-R <- fc7-R
I0419 09:25:00.751544 29343 net.cpp:367] drop7-R -> fc7-R (in-place)
I0419 09:25:00.751582 29343 net.cpp:122] Setting up drop7-R
I0419 09:25:00.751598 29343 net.cpp:129] Top shape: 1 4096 17 10 (696320)
I0419 09:25:00.751601 29343 net.cpp:137] Memory required for data: 1761147156
I0419 09:25:00.751605 29343 layer_factory.hpp:77] Creating layer score_fr-new-R
I0419 09:25:00.751616 29343 net.cpp:84] Creating Layer score_fr-new-R
I0419 09:25:00.751618 29343 net.cpp:406] score_fr-new-R <- fc7-R
I0419 09:25:00.751626 29343 net.cpp:380] score_fr-new-R -> score_fr-new-R
I0419 09:25:00.753021 29343 net.cpp:122] Setting up score_fr-new-R
I0419 09:25:00.753034 29343 net.cpp:129] Top shape: 1 3 17 10 (510)
I0419 09:25:00.753054 29343 net.cpp:137] Memory required for data: 1761149196
I0419 09:25:00.753060 29343 layer_factory.hpp:77] Creating layer upscore2-new-R
I0419 09:25:00.753070 29343 net.cpp:84] Creating Layer upscore2-new-R
I0419 09:25:00.753074 29343 net.cpp:406] upscore2-new-R <- score_fr-new-R
I0419 09:25:00.753082 29343 net.cpp:380] upscore2-new-R -> upscore2-new-R
I0419 09:25:00.753304 29343 net.cpp:122] Setting up upscore2-new-R
I0419 09:25:00.753314 29343 net.cpp:129] Top shape: 1 3 36 22 (2376)
I0419 09:25:00.753317 29343 net.cpp:137] Memory required for data: 1761158700
I0419 09:25:00.753322 29343 layer_factory.hpp:77] Creating layer upscore2-new-R_upscore2-new-R_0_split
I0419 09:25:00.753329 29343 net.cpp:84] Creating Layer upscore2-new-R_upscore2-new-R_0_split
I0419 09:25:00.753334 29343 net.cpp:406] upscore2-new-R_upscore2-new-R_0_split <- upscore2-new-R
I0419 09:25:00.753338 29343 net.cpp:380] upscore2-new-R_upscore2-new-R_0_split -> upscore2-new-R_upscore2-new-R_0_split_0
I0419 09:25:00.753345 29343 net.cpp:380] upscore2-new-R_upscore2-new-R_0_split -> upscore2-new-R_upscore2-new-R_0_split_1
I0419 09:25:00.753386 29343 net.cpp:122] Setting up upscore2-new-R_upscore2-new-R_0_split
I0419 09:25:00.753391 29343 net.cpp:129] Top shape: 1 3 36 22 (2376)
I0419 09:25:00.753396 29343 net.cpp:129] Top shape: 1 3 36 22 (2376)
I0419 09:25:00.753399 29343 net.cpp:137] Memory required for data: 1761177708
I0419 09:25:00.753403 29343 layer_factory.hpp:77] Creating layer score_pool4-new-R
I0419 09:25:00.753412 29343 net.cpp:84] Creating Layer score_pool4-new-R
I0419 09:25:00.753415 29343 net.cpp:406] score_pool4-new-R <- pool4-R_pool4-R_0_split_1
I0419 09:25:00.753423 29343 net.cpp:380] score_pool4-new-R -> score_pool4-new-R
I0419 09:25:00.754763 29343 net.cpp:122] Setting up score_pool4-new-R
I0419 09:25:00.754778 29343 net.cpp:129] Top shape: 1 3 45 32 (4320)
I0419 09:25:00.754798 29343 net.cpp:137] Memory required for data: 1761194988
I0419 09:25:00.754806 29343 layer_factory.hpp:77] Creating layer score_pool4c-R
I0419 09:25:00.754814 29343 net.cpp:84] Creating Layer score_pool4c-R
I0419 09:25:00.754819 29343 net.cpp:406] score_pool4c-R <- score_pool4-new-R
I0419 09:25:00.754825 29343 net.cpp:406] score_pool4c-R <- upscore2-new-R_upscore2-new-R_0_split_0
I0419 09:25:00.754851 29343 net.cpp:380] score_pool4c-R -> score_pool4c-R
I0419 09:25:00.754889 29343 net.cpp:122] Setting up score_pool4c-R
I0419 09:25:00.754895 29343 net.cpp:129] Top shape: 1 3 36 22 (2376)
I0419 09:25:00.754899 29343 net.cpp:137] Memory required for data: 1761204492
I0419 09:25:00.754902 29343 layer_factory.hpp:77] Creating layer fuse_pool4-R
I0419 09:25:00.754910 29343 net.cpp:84] Creating Layer fuse_pool4-R
I0419 09:25:00.754915 29343 net.cpp:406] fuse_pool4-R <- upscore2-new-R_upscore2-new-R_0_split_1
I0419 09:25:00.754935 29343 net.cpp:406] fuse_pool4-R <- score_pool4c-R
I0419 09:25:00.754942 29343 net.cpp:380] fuse_pool4-R -> fuse_pool4-R
I0419 09:25:00.754988 29343 net.cpp:122] Setting up fuse_pool4-R
I0419 09:25:00.755007 29343 net.cpp:129] Top shape: 1 3 36 22 (2376)
I0419 09:25:00.755010 29343 net.cpp:137] Memory required for data: 1761213996
I0419 09:25:00.755013 29343 layer_factory.hpp:77] Creating layer upscore_pool4-new-R
I0419 09:25:00.755023 29343 net.cpp:84] Creating Layer upscore_pool4-new-R
I0419 09:25:00.755028 29343 net.cpp:406] upscore_pool4-new-R <- fuse_pool4-R
I0419 09:25:00.755038 29343 net.cpp:380] upscore_pool4-new-R -> upscore_pool4-new-R
I0419 09:25:00.755396 29343 net.cpp:122] Setting up upscore_pool4-new-R
I0419 09:25:00.755410 29343 net.cpp:129] Top shape: 1 3 74 46 (10212)
I0419 09:25:00.755431 29343 net.cpp:137] Memory required for data: 1761254844
I0419 09:25:00.755439 29343 layer_factory.hpp:77] Creating layer upscore_pool4-new-R_upscore_pool4-new-R_0_split
I0419 09:25:00.755447 29343 net.cpp:84] Creating Layer upscore_pool4-new-R_upscore_pool4-new-R_0_split
I0419 09:25:00.755455 29343 net.cpp:406] upscore_pool4-new-R_upscore_pool4-new-R_0_split <- upscore_pool4-new-R
I0419 09:25:00.755462 29343 net.cpp:380] upscore_pool4-new-R_upscore_pool4-new-R_0_split -> upscore_pool4-new-R_upscore_pool4-new-R_0_split_0
I0419 09:25:00.755473 29343 net.cpp:380] upscore_pool4-new-R_upscore_pool4-new-R_0_split -> upscore_pool4-new-R_upscore_pool4-new-R_0_split_1
I0419 09:25:00.755528 29343 net.cpp:122] Setting up upscore_pool4-new-R_upscore_pool4-new-R_0_split
I0419 09:25:00.755537 29343 net.cpp:129] Top shape: 1 3 74 46 (10212)
I0419 09:25:00.755544 29343 net.cpp:129] Top shape: 1 3 74 46 (10212)
I0419 09:25:00.755550 29343 net.cpp:137] Memory required for data: 1761336540
I0419 09:25:00.755555 29343 layer_factory.hpp:77] Creating layer score_pool3-new-R
I0419 09:25:00.755568 29343 net.cpp:84] Creating Layer score_pool3-new-R
I0419 09:25:00.755573 29343 net.cpp:406] score_pool3-new-R <- pool3-R_pool3-R_0_split_1
I0419 09:25:00.755584 29343 net.cpp:380] score_pool3-new-R -> score_pool3-new-R
I0419 09:25:00.761842 29343 net.cpp:122] Setting up score_pool3-new-R
I0419 09:25:00.761904 29343 net.cpp:129] Top shape: 1 3 89 64 (17088)
I0419 09:25:00.761911 29343 net.cpp:137] Memory required for data: 1761404892
I0419 09:25:00.761929 29343 layer_factory.hpp:77] Creating layer score_pool3c-R
I0419 09:25:00.761947 29343 net.cpp:84] Creating Layer score_pool3c-R
I0419 09:25:00.761970 29343 net.cpp:406] score_pool3c-R <- score_pool3-new-R
I0419 09:25:00.761982 29343 net.cpp:406] score_pool3c-R <- upscore_pool4-new-R_upscore_pool4-new-R_0_split_0
I0419 09:25:00.761992 29343 net.cpp:380] score_pool3c-R -> score_pool3c-R
I0419 09:25:00.762050 29343 net.cpp:122] Setting up score_pool3c-R
I0419 09:25:00.762068 29343 net.cpp:129] Top shape: 1 3 74 46 (10212)
I0419 09:25:00.762073 29343 net.cpp:137] Memory required for data: 1761445740
I0419 09:25:00.762079 29343 layer_factory.hpp:77] Creating layer fuse_pool3-R
I0419 09:25:00.762091 29343 net.cpp:84] Creating Layer fuse_pool3-R
I0419 09:25:00.762097 29343 net.cpp:406] fuse_pool3-R <- upscore_pool4-new-R_upscore_pool4-new-R_0_split_1
I0419 09:25:00.762105 29343 net.cpp:406] fuse_pool3-R <- score_pool3c-R
I0419 09:25:00.762115 29343 net.cpp:380] fuse_pool3-R -> fuse_pool3-R
I0419 09:25:00.762214 29343 net.cpp:122] Setting up fuse_pool3-R
I0419 09:25:00.762230 29343 net.cpp:129] Top shape: 1 3 74 46 (10212)
I0419 09:25:00.762235 29343 net.cpp:137] Memory required for data: 1761486588
I0419 09:25:00.762241 29343 layer_factory.hpp:77] Creating layer upscore8-new-R
I0419 09:25:00.762255 29343 net.cpp:84] Creating Layer upscore8-new-R
I0419 09:25:00.762262 29343 net.cpp:406] upscore8-new-R <- fuse_pool3-R
I0419 09:25:00.762274 29343 net.cpp:380] upscore8-new-R -> upscore8-new-R
I0419 09:25:00.762724 29343 net.cpp:122] Setting up upscore8-new-R
I0419 09:25:00.762740 29343 net.cpp:129] Top shape: 1 3 600 376 (676800)
I0419 09:25:00.762758 29343 net.cpp:137] Memory required for data: 1764193788
I0419 09:25:00.762778 29343 layer_factory.hpp:77] Creating layer upscore8_cropped-R
I0419 09:25:00.762804 29343 net.cpp:84] Creating Layer upscore8_cropped-R
I0419 09:25:00.762812 29343 net.cpp:406] upscore8_cropped-R <- upscore8-new-R
I0419 09:25:00.762838 29343 net.cpp:406] upscore8_cropped-R <- data-R_crop_0_split_1
I0419 09:25:00.762850 29343 net.cpp:380] upscore8_cropped-R -> upscore8_cropped-R
I0419 09:25:00.762902 29343 net.cpp:122] Setting up upscore8_cropped-R
I0419 09:25:00.762917 29343 net.cpp:129] Top shape: 1 3 512 310 (476160)
I0419 09:25:00.762923 29343 net.cpp:137] Memory required for data: 1766098428
I0419 09:25:00.762930 29343 layer_factory.hpp:77] Creating layer score-R
I0419 09:25:00.762948 29343 net.cpp:84] Creating Layer score-R
I0419 09:25:00.762956 29343 net.cpp:406] score-R <- upscore8_cropped-R
I0419 09:25:00.762979 29343 net.cpp:380] score-R -> score-R
I0419 09:25:00.766877 29343 net.cpp:122] Setting up score-R
I0419 09:25:00.766921 29343 net.cpp:129] Top shape: 1 3 512 310 (476160)
I0419 09:25:00.766929 29343 net.cpp:137] Memory required for data: 1768003068
I0419 09:25:00.766945 29343 layer_factory.hpp:77] Creating layer score_uncropped-R
I0419 09:25:00.767347 29343 net.cpp:84] Creating Layer score_uncropped-R
I0419 09:25:00.767369 29343 net.cpp:406] score_uncropped-R <- crop_info
I0419 09:25:00.767393 29343 net.cpp:406] score_uncropped-R <- score-R
I0419 09:25:00.767402 29343 net.cpp:406] score_uncropped-R <- data_data_0_split_3
I0419 09:25:00.767426 29343 net.cpp:380] score_uncropped-R -> score_uncropped-R
I0419 09:25:00.770234 29343 net.cpp:122] Setting up score_uncropped-R
I0419 09:25:00.770273 29343 net.cpp:129] Top shape: 1 3 512 310 (476160)
I0419 09:25:00.770282 29343 net.cpp:137] Memory required for data: 1769907708
I0419 09:25:00.770289 29343 layer_factory.hpp:77] Creating layer loss1
I0419 09:25:00.770328 29343 net.cpp:84] Creating Layer loss1
I0419 09:25:00.770337 29343 net.cpp:406] loss1 <- score_score_0_split_1
I0419 09:25:00.770349 29343 net.cpp:406] loss1 <- label_data_1_split_1
I0419 09:25:00.770360 29343 net.cpp:380] loss1 -> loss1
…
