…
snapshot_prefix: "/media/Med_2T2/data2/models/snapshots/indiv:1e-5x10,20/FD2:YI3_1_20180418_201422/train"
test_initialization: false
average_loss: 20
stepvalue: 40000
iter_size: 1
I0418 23:53:53.093518 20669 solver.cpp:77] Creating training net from train_net file: /media/Med_2T2/data2/prototxts/training_S3x10.prototxt
I0418 23:53:53.095778 20669 net.cpp:51] Initializing net from parameters: 
state {
  phase: TRAIN
}
layer {
  name: "data"
  type: "Python"
  top: "data"
  top: "label"
  top: "crop_margin"
  top: "crop_prob"
  top: "crop_sample_batch"
  python_param {
    module: "Data"
    layer: "DataLayer"
  }
}
layer {
  name: "conv1_1"
  type: "Convolution"
  bottom: "data"
  top: "conv1_1"
  param {
    lr_mult: 1
    decay_mult: 1
  }
  param {
    lr_mult: 2
    decay_mult: 0
  }
  convolution_param {
    num_output: 64
    pad: 100
    kernel_size: 3
    stride: 1
  }
}
layer {
  name: "relu1_1"
  type: "ReLU"
  bottom: "conv1_1"
  top: "conv1_1"
}
layer {
  name: "conv1_2"
  type: "Convolution"
  bottom: "conv1_1"
  top: "conv1_2"
  param {
    lr_mult: 1
    decay_mult: 1
  }
  param {
    lr_mult: 2
    decay_mult: 0
  }
  convolution_param {
    num_output: 64
    pad: 1
    kernel_size: 3
    stride: 1
  }
}
layer {
  name: "relu1_2"
  type: "ReLU"
  bottom: "conv1_2"
  top: "conv1_2"
}
layer {
  name: "pool1"
  type: "Pooling"
  bottom: "conv1_2"
  top: "pool1"
  pooling_param {
    pool: MAX
    kernel_size: 2
    stride: 2
  }
}
layer {
  name: "conv2_1"
  type: "Convolution"
  bottom: "pool1"
  top: "conv2_1"
  param {
    lr_mult: 1
    decay_mult: 1
  }
  param {
    lr_mult: 2
    decay_mult: 0
  }
  convolution_param {
    num_output: 128
    pad: 1
    kernel_size: 3
    stride: 1
  }
}
layer {
  name: "relu2_1"
  type: "ReLU"
  bottom: "conv2_1"
  top: "conv2_1"
}
layer {
  name: "conv2_2"
  type: "Convolution"
  bottom: "conv2_1"
  top: "conv2_2"
  param {
    lr_mult: 1
    decay_mult: 1
  }
  param {
    lr_mult: 2
    decay_mult: 0
  }
  convolution_param {
    num_output: 128
    pad: 1
    kernel_size: 3
    stride: 1
  }
}
layer {
  name: "relu2_2"
  type: "ReLU"
  bottom: "conv2_2"
  top: "conv2_2"
}
layer {
  name: "pool2"
  type: "Pooling"
  bottom: "conv2_2"
  top: "pool2"
  pooling_param {
    pool: MAX
    kernel_size: 2
    stride: 2
  }
}
layer {
  name: "conv3_1"
  type: "Convolution"
  bottom: "pool2"
  top: "conv3_1"
  param {
    lr_mult: 1
    decay_mult: 1
  }
  param {
    lr_mult: 2
    decay_mult: 0
  }
  convolution_param {
    num_output: 256
    pad: 1
    kernel_size: 3
    stride: 1
  }
}
layer {
  name: "relu3_1"
  type: "ReLU"
  bottom: "conv3_1"
  top: "conv3_1"
}
layer {
  name: "conv3_2"
  type: "Convolution"
  bottom: "conv3_1"
  top: "conv3_2"
  param {
    lr_mult: 1
    decay_mult: 1
  }
  param {
    lr_mult: 2
    decay_mult: 0
  }
  convolution_param {
    num_output: 256
    pad: 1
    kernel_size: 3
    stride: 1
  }
}
layer {
  name: "relu3_2"
  type: "ReLU"
  bottom: "conv3_2"
  top: "conv3_2"
}
layer {
  name: "conv3_3"
  type: "Convolution"
  bottom: "conv3_2"
  top: "conv3_3"
  param {
    lr_mult: 1
    decay_mult: 1
  }
  param {
    lr_mult: 2
    decay_mult: 0
  }
  convolution_param {
    num_output: 256
    pad: 1
    kernel_size: 3
    stride: 1
  }
}
layer {
  name: "relu3_3"
  type: "ReLU"
  bottom: "conv3_3"
  top: "conv3_3"
}
layer {
  name: "pool3"
  type: "Pooling"
  bottom: "conv3_3"
  top: "pool3"
  pooling_param {
    pool: MAX
    kernel_size: 2
    stride: 2
  }
}
layer {
  name: "conv4_1"
  type: "Convolution"
  bottom: "pool3"
  top: "conv4_1"
  param {
    lr_mult: 1
    decay_mult: 1
  }
  param {
    lr_mult: 2
    decay_mult: 0
  }
  convolution_param {
    num_output: 512
    pad: 1
    kernel_size: 3
    stride: 1
  }
}
layer {
  name: "relu4_1"
  type: "ReLU"
  bottom: "conv4_1"
  top: "conv4_1"
}
layer {
  name: "conv4_2"
  type: "Convolution"
  bottom: "conv4_1"
  top: "conv4_2"
  param {
    lr_mult: 1
    decay_mult: 1
  }
  param {
    lr_mult: 2
    decay_mult: 0
  }
  convolution_param {
    num_output: 512
    pad: 1
    kernel_size: 3
    stride: 1
  }
}
layer {
  name: "relu4_2"
  type: "ReLU"
  bottom: "conv4_2"
  top: "conv4_2"
}
layer {
  name: "conv4_3"
  type: "Convolution"
  bottom: "conv4_2"
  top: "conv4_3"
  param {
    lr_mult: 1
    decay_mult: 1
  }
  param {
    lr_mult: 2
    decay_mult: 0
  }
  convolution_param {
    num_output: 512
    pad: 1
    kernel_size: 3
    stride: 1
  }
}
layer {
  name: "relu4_3"
  type: "ReLU"
  bottom: "conv4_3"
  top: "conv4_3"
}
layer {
  name: "pool4"
  type: "Pooling"
  bottom: "conv4_3"
  top: "pool4"
  pooling_param {
    pool: MAX
    kernel_size: 2
    stride: 2
  }
}
layer {
  name: "conv5_1"
  type: "Convolution"
  bottom: "pool4"
  top: "conv5_1"
  param {
    lr_mult: 1
    decay_mult: 1
  }
  param {
    lr_mult: 2
    decay_mult: 0
  }
  convolution_param {
    num_output: 512
    pad: 1
    kernel_size: 3
    stride: 1
  }
}
layer {
  name: "relu5_1"
  type: "ReLU"
  bottom: "conv5_1"
  top: "conv5_1"
}
layer {
  name: "conv5_2"
  type: "Convolution"
  bottom: "conv5_1"
  top: "conv5_2"
  param {
    lr_mult: 1
    decay_mult: 1
  }
  param {
    lr_mult: 2
    decay_mult: 0
  }
  convolution_param {
    num_output: 512
    pad: 1
    kernel_size: 3
    stride: 1
  }
}
layer {
  name: "relu5_2"
  type: "ReLU"
  bottom: "conv5_2"
  top: "conv5_2"
}
layer {
  name: "conv5_3"
  type: "Convolution"
  bottom: "conv5_2"
  top: "conv5_3"
  param {
    lr_mult: 1
    decay_mult: 1
  }
  param {
    lr_mult: 2
    decay_mult: 0
  }
  convolution_param {
    num_output: 512
    pad: 1
    kernel_size: 3
    stride: 1
  }
}
layer {
  name: "relu5_3"
  type: "ReLU"
  bottom: "conv5_3"
  top: "conv5_3"
}
layer {
  name: "pool5"
  type: "Pooling"
  bottom: "conv5_3"
  top: "pool5"
  pooling_param {
    pool: MAX
    kernel_size: 2
    stride: 2
  }
}
layer {
  name: "fc6"
  type: "Convolution"
  bottom: "pool5"
  top: "fc6"
  param {
    lr_mult: 1
    decay_mult: 1
  }
  param {
    lr_mult: 2
    decay_mult: 0
  }
  convolution_param {
    num_output: 4096
    pad: 0
    kernel_size: 7
    stride: 1
  }
}
layer {
  name: "relu6"
  type: "ReLU"
  bottom: "fc6"
  top: "fc6"
}
layer {
  name: "drop6"
  type: "Dropout"
  bottom: "fc6"
  top: "fc6"
  dropout_param {
    dropout_ratio: 0.5
  }
}
layer {
  name: "fc7"
  type: "Convolution"
  bottom: "fc6"
  top: "fc7"
  param {
    lr_mult: 1
    decay_mult: 1
  }
  param {
    lr_mult: 2
    decay_mult: 0
  }
  convolution_param {
    num_output: 4096
    pad: 0
    kernel_size: 1
    stride: 1
  }
}
layer {
  name: "relu7"
  type: "ReLU"
  bottom: "fc7"
  top: "fc7"
}
layer {
  name: "drop7"
  type: "Dropout"
  bottom: "fc7"
  top: "fc7"
  dropout_param {
    dropout_ratio: 0.5
  }
}
layer {
  name: "score_fr-new"
  type: "Convolution"
  bottom: "fc7"
  top: "score_fr-new"
  param {
    lr_mult: 1
    decay_mult: 1
  }
  param {
    lr_mult: 2
    decay_mult: 0
  }
  convolution_param {
    num_output: 3
    kernel_size: 1
  }
}
layer {
  name: "upscore2-new"
  type: "Deconvolution"
  bottom: "score_fr-new"
  top: "upscore2-new"
  param {
    lr_mult: 0
  }
  convolution_param {
    num_output: 3
    bias_term: false
    kernel_size: 4
    stride: 2
  }
}
layer {
  name: "score_pool4-new"
  type: "Convolution"
  bottom: "pool4"
  top: "score_pool4-new"
  param {
    lr_mult: 1
    decay_mult: 1
  }
  param {
    lr_mult: 2
    decay_mult: 0
  }
  convolution_param {
    num_output: 3
    pad: 0
    kernel_size: 1
  }
}
layer {
  name: "score_pool4c"
  type: "Crop"
  bottom: "score_pool4-new"
  bottom: "upscore2-new"
  top: "score_pool4c"
  crop_param {
    axis: 2
    offset: 5
  }
}
layer {
  name: "fuse_pool4"
  type: "Eltwise"
  bottom: "upscore2-new"
  bottom: "score_pool4c"
  top: "fuse_pool4"
  eltwise_param {
    operation: SUM
  }
}
layer {
  name: "upscore_pool4-new"
  type: "Deconvolution"
  bottom: "fuse_pool4"
  top: "upscore_pool4-new"
  param {
    lr_mult: 0
  }
  convolution_param {
    num_output: 3
    bias_term: false
    kernel_size: 4
    stride: 2
  }
}
layer {
  name: "score_pool3-new"
  type: "Convolution"
  bottom: "pool3"
  top: "score_pool3-new"
  param {
    lr_mult: 1
    decay_mult: 1
  }
  param {
    lr_mult: 2
    decay_mult: 0
  }
  convolution_param {
    num_output: 3
    pad: 0
    kernel_size: 1
  }
}
layer {
  name: "score_pool3c"
  type: "Crop"
  bottom: "score_pool3-new"
  bottom: "upscore_pool4-new"
  top: "score_pool3c"
  crop_param {
    axis: 2
    offset: 9
  }
}
layer {
  name: "fuse_pool3"
  type: "Eltwise"
  bottom: "upscore_pool4-new"
  bottom: "score_pool3c"
  top: "fuse_pool3"
  eltwise_param {
    operation: SUM
  }
}
layer {
  name: "upscore8-new"
  type: "Deconvolution"
  bottom: "fuse_pool3"
  top: "upscore8-new"
  param {
    lr_mult: 0
  }
  convolution_param {
    num_output: 3
    bias_term: false
    kernel_size: 16
    stride: 8
  }
}
layer {
  name: "upscore8_cropped"
  type: "Crop"
  bottom: "upscore8-new"
  bottom: "data"
  top: "upscore8_cropped"
  crop_param {
    axis: 2
    offset: 31
  }
}
layer {
  name: "score"
  type: "Convolution"
  bottom: "upscore8_cropped"
  top: "score"
  param {
    lr_mult: 1
    decay_mult: 1
  }
  param {
    lr_mult: 2
    decay_mult: 0
  }
  convolution_param {
    num_output: 3
    pad: 1
    kernel_size: 3
    stride: 1
    weight_filler {
      type: "xavier"
    }
    bias_filler {
      type: "constant"
      value: 0
    }
  }
}
layer {
  name: "prob"
  type: "Sigmoid"
  bottom: "score"
  top: "prob"
}
layer {
  name: "saliency"
  type: "Convolution"
  bottom: "prob"
  top: "saliency"
  param {
    lr_mult: 10
    decay_mult: 1
  }
  param {
    lr_mult: 20
    decay_mult: 0
  }
  convolution_param {
    num_output: 3
    pad: 2
    kernel_size: 5
    stride: 1
    weight_filler {
      type: "xavier"
    }
    bias_filler {
      type: "constant"
      value: 1
    }
  }
}
layer {
  name: "silence_saliency"
  type: "Silence"
  bottom: "saliency"
}
layer {
  name: "crop"
  type: "Python"
  bottom: "label"
  bottom: "data"
  bottom: "crop_margin"
  bottom: "crop_prob"
  bottom: "crop_sample_batch"
  top: "data-R"
  top: "crop_info"
  python_param {
    module: "Crop"
    layer: "CropLayer"
    param_str: "{\"TEST\": 0}"
  }
}
layer {
  name: "conv1_1-R"
  type: "Convolution"
  bottom: "data-R"
  top: "conv1_1-R"
  param {
    lr_mult: 10
    decay_mult: 1
  }
  param {
    lr_mult: 20
    decay_mult: 0
  }
  convolution_param {
    num_output: 64
    pad: 100
    kernel_size: 3
    stride: 1
  }
}
layer {
  name: "relu1_1-R"
  type: "ReLU"
  bottom: "conv1_1-R"
  top: "conv1_1-R"
}
layer {
  name: "conv1_2-R"
  type: "Convolution"
  bottom: "conv1_1-R"
  top: "conv1_2-R"
  param {
    lr_mult: 10
    decay_mult: 1
  }
  param {
    lr_mult: 20
    decay_mult: 0
  }
  convolution_param {
    num_output: 64
    pad: 1
    kernel_size: 3
    stride: 1
  }
}
layer {
  name: "relu1_2-R"
  type: "ReLU"
  bottom: "conv1_2-R"
  top: "conv1_2-R"
}
layer {
  name: "pool1-R"
  type: "Pooling"
  bottom: "conv1_2-R"
  top: "pool1-R"
  pooling_param {
    pool: MAX
    kernel_size: 2
    stride: 2
  }
}
layer {
  name: "conv2_1-R"
  type: "Convolution"
  bottom: "pool1-R"
  top: "conv2_1-R"
  param {
    lr_mult: 10
    decay_mult: 1
  }
  param {
    lr_mult: 20
    decay_mult: 0
  }
  convolution_param {
    num_output: 128
    pad: 1
    kernel_size: 3
    stride: 1
  }
}
layer {
  name: "relu2_1-R"
  type: "ReLU"
  bottom: "conv2_1-R"
  top: "conv2_1-R"
}
layer {
  name: "conv2_2-R"
  type: "Convolution"
  bottom: "conv2_1-R"
  top: "conv2_2-R"
  param {
    lr_mult: 10
    decay_mult: 1
  }
  param {
    lr_mult: 20
    decay_mult: 0
  }
  convolution_param {
    num_output: 128
    pad: 1
    kernel_size: 3
    stride: 1
  }
}
layer {
  name: "relu2_2-R"
  type: "ReLU"
  bottom: "conv2_2-R"
  top: "conv2_2-R"
}
layer {
  name: "pool2-R"
  type: "Pooling"
  bottom: "conv2_2-R"
  top: "pool2-R"
  pooling_param {
    pool: MAX
    kernel_size: 2
    stride: 2
  }
}
layer {
  name: "conv3_1-R"
  type: "Convolution"
  bottom: "pool2-R"
  top: "conv3_1-R"
  param {
    lr_mult: 10
    decay_mult: 1
  }
  param {
    lr_mult: 20
    decay_mult: 0
  }
  convolution_param {
    num_output: 256
    pad: 1
    kernel_size: 3
    stride: 1
  }
}
layer {
  name: "relu3_1-R"
  type: "ReLU"
  bottom: "conv3_1-R"
  top: "conv3_1-R"
}
layer {
  name: "conv3_2-R"
  type: "Convolution"
  bottom: "conv3_1-R"
  top: "conv3_2-R"
  param {
    lr_mult: 10
    decay_mult: 1
  }
  param {
    lr_mult: 20
    decay_mult: 0
  }
  convolution_param {
    num_output: 256
    pad: 1
    kernel_size: 3
    stride: 1
  }
}
layer {
  name: "relu3_2-R"
  type: "ReLU"
  bottom: "conv3_2-R"
  top: "conv3_2-R"
}
layer {
  name: "conv3_3-R"
  type: "Convolution"
  bottom: "conv3_2-R"
  top: "conv3_3-R"
  param {
    lr_mult: 10
    decay_mult: 1
  }
  param {
    lr_mult: 20
    decay_mult: 0
  }
  convolution_param {
    num_output: 256
    pad: 1
    kernel_size: 3
    stride: 1
  }
}
layer {
  name: "relu3_3-R"
  type: "ReLU"
  bottom: "conv3_3-R"
  top: "conv3_3-R"
}
layer {
  name: "pool3-R"
  type: "Pooling"
  bottom: "conv3_3-R"
  top: "pool3-R"
  pooling_param {
    pool: MAX
    kernel_size: 2
    stride: 2
  }
}
layer {
  name: "conv4_1-R"
  type: "Convolution"
  bottom: "pool3-R"
  top: "conv4_1-R"
  param {
    lr_mult: 10
    decay_mult: 1
  }
  param {
    lr_mult: 20
    decay_mult: 0
  }
  convolution_param {
    num_output: 512
    pad: 1
    kernel_size: 3
    stride: 1
  }
}
layer {
  name: "relu4_1-R"
  type: "ReLU"
  bottom: "conv4_1-R"
  top: "conv4_1-R"
}
layer {
  name: "conv4_2-R"
  type: "Convolution"
  bottom: "conv4_1-R"
  top: "conv4_2-R"
  param {
    lr_mult: 10
    decay_mult: 1
  }
  param {
    lr_mult: 20
    decay_mult: 0
  }
  convolution_param {
    num_output: 512
    pad: 1
    kernel_size: 3
    stride: 1
  }
}
layer {
  name: "relu4_2-R"
  type: "ReLU"
  bottom: "conv4_2-R"
  top: "conv4_2-R"
}
layer {
  name: "conv4_3-R"
  type: "Convolution"
  bottom: "conv4_2-R"
  top: "conv4_3-R"
  param {
    lr_mult: 10
    decay_mult: 1
  }
  param {
    lr_mult: 20
    decay_mult: 0
  }
  convolution_param {
    num_output: 512
    pad: 1
    kernel_size: 3
    stride: 1
  }
}
layer {
  name: "relu4_3-R"
  type: "ReLU"
  bottom: "conv4_3-R"
  top: "conv4_3-R"
}
layer {
  name: "pool4-R"
  type: "Pooling"
  bottom: "conv4_3-R"
  top: "pool4-R"
  pooling_param {
    pool: MAX
    kernel_size: 2
    stride: 2
  }
}
layer {
  name: "conv5_1-R"
  type: "Convolution"
  bottom: "pool4-R"
  top: "conv5_1-R"
  param {
    lr_mult: 10
    decay_mult: 1
  }
  param {
    lr_mult: 20
    decay_mult: 0
  }
  convolution_param {
    num_output: 512
    pad: 1
    kernel_size: 3
    stride: 1
  }
}
layer {
  name: "relu5_1-R"
  type: "ReLU"
  bottom: "conv5_1-R"
  top: "conv5_1-R"
}
layer {
  name: "conv5_2-R"
  type: "Convolution"
  bottom: "conv5_1-R"
  top: "conv5_2-R"
  param {
    lr_mult: 10
    decay_mult: 1
  }
  param {
    lr_mult: 20
    decay_mult: 0
  }
  convolution_param {
    num_output: 512
    pad: 1
    kernel_size: 3
    stride: 1
  }
}
layer {
  name: "relu5_2-R"
  type: "ReLU"
  bottom: "conv5_2-R"
  top: "conv5_2-R"
}
layer {
  name: "conv5_3-R"
  type: "Convolution"
  bottom: "conv5_2-R"
  top: "conv5_3-R"
  param {
    lr_mult: 10
    decay_mult: 1
  }
  param {
    lr_mult: 20
    decay_mult: 0
  }
  convolution_param {
    num_output: 512
    pad: 1
    kernel_size: 3
    stride: 1
  }
}
layer {
  name: "relu5_3-R"
  type: "ReLU"
  bottom: "conv5_3-R"
  top: "conv5_3-R"
}
layer {
  name: "pool5-R"
  type: "Pooling"
  bottom: "conv5_3-R"
  top: "pool5-R"
  pooling_param {
    pool: MAX
    kernel_size: 2
    stride: 2
  }
}
layer {
  name: "fc6-R"
  type: "Convolution"
  bottom: "pool5-R"
  top: "fc6-R"
  param {
    lr_mult: 10
    decay_mult: 1
  }
  param {
    lr_mult: 20
    decay_mult: 0
  }
  convolution_param {
    num_output: 4096
    pad: 0
    kernel_size: 7
    stride: 1
  }
}
layer {
  name: "relu6-R"
  type: "ReLU"
  bottom: "fc6-R"
  top: "fc6-R"
}
layer {
  name: "drop6-R"
  type: "Dropout"
  bottom: "fc6-R"
  top: "fc6-R"
  dropout_param {
    dropout_ratio: 0.5
  }
}
layer {
  name: "fc7-R"
  type: "Convolution"
  bottom: "fc6-R"
  top: "fc7-R"
  param {
    lr_mult: 10
    decay_mult: 1
  }
  param {
    lr_mult: 20
    decay_mult: 0
  }
  convolution_param {
    num_output: 4096
    pad: 0
    kernel_size: 1
    stride: 1
  }
}
layer {
  name: "relu7-R"
  type: "ReLU"
  bottom: "fc7-R"
  top: "fc7-R"
}
layer {
  name: "drop7-R"
  type: "Dropout"
  bottom: "fc7-R"
  top: "fc7-R"
  dropout_param {
    dropout_ratio: 0.5
  }
}
layer {
  name: "score_fr-new-R"
  type: "Convolution"
  bottom: "fc7-R"
  top: "score_fr-new-R"
  param {
    lr_mult: 10
    decay_mult: 1
  }
  param {
    lr_mult: 20
    decay_mult: 0
  }
  convolution_param {
    num_output: 3
    kernel_size: 1
  }
}
layer {
  name: "upscore2-new-R"
  type: "Deconvolution"
  bottom: "score_fr-new-R"
  top: "upscore2-new-R"
  param {
    lr_mult: 0
  }
  convolution_param {
    num_output: 3
    bias_term: false
    kernel_size: 4
    stride: 2
  }
}
layer {
  name: "score_pool4-new-R"
  type: "Convolution"
  bottom: "pool4-R"
  top: "score_pool4-new-R"
  param {
    lr_mult: 10
    decay_mult: 1
  }
  param {
    lr_mult: 20
    decay_mult: 0
  }
  convolution_param {
    num_output: 3
    pad: 0
    kernel_size: 1
  }
}
layer {
  name: "score_pool4c-R"
  type: "Crop"
  bottom: "score_pool4-new-R"
  bottom: "upscore2-new-R"
  top: "score_pool4c-R"
  crop_param {
    axis: 2
    offset: 5
  }
}
layer {
  name: "fuse_pool4-R"
  type: "Eltwise"
  bottom: "upscore2-new-R"
  bottom: "score_pool4c-R"
  top: "fuse_pool4-R"
  eltwise_param {
    operation: SUM
  }
}
layer {
  name: "upscore_pool4-new-R"
  type: "Deconvolution"
  bottom: "fuse_pool4-R"
  top: "upscore_pool4-new-R"
  param {
    lr_mult: 0
  }
  convolution_param {
    num_output: 3
    bias_term: false
    kernel_size: 4
    stride: 2
  }
}
layer {
  name: "score_pool3-new-R"
  type: "Convolution"
  bottom: "pool3-R"
  top: "score_pool3-new-R"
  param {
    lr_mult: 10
    decay_mult: 1
  }
  param {
    lr_mult: 20
    decay_mult: 0
  }
  convolution_param {
    num_output: 3
    pad: 0
    kernel_size: 1
  }
}
layer {
  name: "score_pool3c-R"
  type: "Crop"
  bottom: "score_pool3-new-R"
  bottom: "upscore_pool4-new-R"
  top: "score_pool3c-R"
  crop_param {
    axis: 2
    offset: 9
  }
}
layer {
  name: "fuse_pool3-R"
  type: "Eltwise"
  bottom: "upscore_pool4-new-R"
  bottom: "score_pool3c-R"
  top: "fuse_pool3-R"
  eltwise_param {
    operation: SUM
  }
}
layer {
  name: "upscore8-new-R"
  type: "Deconvolution"
  bottom: "fuse_pool3-R"
  top: "upscore8-new-R"
  param {
    lr_mult: 0
  }
  convolution_param {
    num_output: 3
    bias_term: false
    kernel_size: 16
    stride: 8
  }
}
layer {
  name: "upscore8_cropped-R"
  type: "Crop"
  bottom: "upscore8-new-R"
  bottom: "data-R"
  top: "upscore8_cropped-R"
  crop_param {
    axis: 2
    offset: 31
  }
}
layer {
  name: "score-R"
  type: "Convolution"
  bottom: "upscore8_cropped-R"
  top: "score-R"
  param {
    lr_mult: 10
    decay_mult: 1
  }
  param {
    lr_mult: 20
    decay_mult: 0
  }
  convolution_param {
    num_output: 3
    pad: 1
    kernel_size: 3
    stride: 1
    weight_filler {
      type: "xavier"
    }
    bias_filler {
      type: "constant"
      value: 0
    }
  }
}
layer {
  name: "score_uncropped-R"
  type: "Python"
  bottom: "crop_info"
  bottom: "score-R"
  bottom: "data"
  top: "score_uncropped-R"
  python_param {
    module: "Uncrop"
    layer: "UncropLayer"
  }
}
layer {
  name: "loss1"
  type: "DiceLoss"
  bottom: "score"
  bottom: "label"
  top: "loss1"
  loss_weight: 0.333333
}
layer {
  name: "loss2"
  type: "DiceLoss"
  bottom: "score_uncropped-R"
  bottom: "label"
  top: "loss2"
  loss_weight: 0.666667
}
I0418 23:53:53.096307 20669 layer_factory.hpp:77] Creating layer data
I0418 23:53:53.096699 20669 net.cpp:84] Creating Layer data
I0418 23:53:53.096714 20669 net.cpp:380] data -> data
I0418 23:53:53.096732 20669 net.cpp:380] data -> label
I0418 23:53:53.096740 20669 net.cpp:380] data -> crop_margin
I0418 23:53:53.096745 20669 net.cpp:380] data -> crop_prob
I0418 23:53:53.096751 20669 net.cpp:380] data -> crop_sample_batch
I0418 23:53:53.248497 20669 net.cpp:122] Setting up data
I0418 23:53:53.248549 20669 net.cpp:129] Top shape: 1 3 512 310 (476160)
I0418 23:53:53.248555 20669 net.cpp:129] Top shape: 1 3 512 310 (476160)
I0418 23:53:53.248562 20669 net.cpp:129] Top shape: 1 (1)
I0418 23:53:53.248566 20669 net.cpp:129] Top shape: 1 (1)
I0418 23:53:53.248570 20669 net.cpp:129] Top shape: 1 (1)
I0418 23:53:53.248574 20669 net.cpp:137] Memory required for data: 3809292
I0418 23:53:53.248581 20669 layer_factory.hpp:77] Creating layer data_data_0_split
I0418 23:53:53.248612 20669 net.cpp:84] Creating Layer data_data_0_split
I0418 23:53:53.248617 20669 net.cpp:406] data_data_0_split <- data
I0418 23:53:53.248628 20669 net.cpp:380] data_data_0_split -> data_data_0_split_0
I0418 23:53:53.248641 20669 net.cpp:380] data_data_0_split -> data_data_0_split_1
I0418 23:53:53.248646 20669 net.cpp:380] data_data_0_split -> data_data_0_split_2
I0418 23:53:53.248652 20669 net.cpp:380] data_data_0_split -> data_data_0_split_3
I0418 23:53:53.248700 20669 net.cpp:122] Setting up data_data_0_split
I0418 23:53:53.248705 20669 net.cpp:129] Top shape: 1 3 512 310 (476160)
I0418 23:53:53.248709 20669 net.cpp:129] Top shape: 1 3 512 310 (476160)
I0418 23:53:53.248713 20669 net.cpp:129] Top shape: 1 3 512 310 (476160)
I0418 23:53:53.248718 20669 net.cpp:129] Top shape: 1 3 512 310 (476160)
I0418 23:53:53.248720 20669 net.cpp:137] Memory required for data: 11427852
I0418 23:53:53.248723 20669 layer_factory.hpp:77] Creating layer label_data_1_split
I0418 23:53:53.248729 20669 net.cpp:84] Creating Layer label_data_1_split
I0418 23:53:53.248733 20669 net.cpp:406] label_data_1_split <- label
I0418 23:53:53.248739 20669 net.cpp:380] label_data_1_split -> label_data_1_split_0
I0418 23:53:53.248744 20669 net.cpp:380] label_data_1_split -> label_data_1_split_1
I0418 23:53:53.248749 20669 net.cpp:380] label_data_1_split -> label_data_1_split_2
I0418 23:53:53.248778 20669 net.cpp:122] Setting up label_data_1_split
I0418 23:53:53.248782 20669 net.cpp:129] Top shape: 1 3 512 310 (476160)
I0418 23:53:53.248786 20669 net.cpp:129] Top shape: 1 3 512 310 (476160)
I0418 23:53:53.248790 20669 net.cpp:129] Top shape: 1 3 512 310 (476160)
I0418 23:53:53.248793 20669 net.cpp:137] Memory required for data: 17141772
I0418 23:53:53.248796 20669 layer_factory.hpp:77] Creating layer conv1_1
I0418 23:53:53.248811 20669 net.cpp:84] Creating Layer conv1_1
I0418 23:53:53.248814 20669 net.cpp:406] conv1_1 <- data_data_0_split_0
I0418 23:53:53.248821 20669 net.cpp:380] conv1_1 -> conv1_1
I0418 23:53:53.685410 20669 net.cpp:122] Setting up conv1_1
I0418 23:53:53.685472 20669 net.cpp:129] Top shape: 1 64 710 508 (23083520)
I0418 23:53:53.685482 20669 net.cpp:137] Memory required for data: 109475852
I0418 23:53:53.685531 20669 layer_factory.hpp:77] Creating layer relu1_1
I0418 23:53:53.685562 20669 net.cpp:84] Creating Layer relu1_1
I0418 23:53:53.685572 20669 net.cpp:406] relu1_1 <- conv1_1
I0418 23:53:53.685585 20669 net.cpp:367] relu1_1 -> conv1_1 (in-place)
I0418 23:53:53.685998 20669 net.cpp:122] Setting up relu1_1
I0418 23:53:53.686017 20669 net.cpp:129] Top shape: 1 64 710 508 (23083520)
I0418 23:53:53.686024 20669 net.cpp:137] Memory required for data: 201809932
I0418 23:53:53.686034 20669 layer_factory.hpp:77] Creating layer conv1_2
I0418 23:53:53.686069 20669 net.cpp:84] Creating Layer conv1_2
I0418 23:53:53.686077 20669 net.cpp:406] conv1_2 <- conv1_1
I0418 23:53:53.686105 20669 net.cpp:380] conv1_2 -> conv1_2
I0418 23:53:53.692929 20669 net.cpp:122] Setting up conv1_2
I0418 23:53:53.692951 20669 net.cpp:129] Top shape: 1 64 710 508 (23083520)
I0418 23:53:53.692958 20669 net.cpp:137] Memory required for data: 294144012
I0418 23:53:53.692973 20669 layer_factory.hpp:77] Creating layer relu1_2
I0418 23:53:53.692986 20669 net.cpp:84] Creating Layer relu1_2
I0418 23:53:53.692993 20669 net.cpp:406] relu1_2 <- conv1_2
I0418 23:53:53.693001 20669 net.cpp:367] relu1_2 -> conv1_2 (in-place)
I0418 23:53:53.696394 20669 net.cpp:122] Setting up relu1_2
I0418 23:53:53.696440 20669 net.cpp:129] Top shape: 1 64 710 508 (23083520)
I0418 23:53:53.696454 20669 net.cpp:137] Memory required for data: 386478092
I0418 23:53:53.696463 20669 layer_factory.hpp:77] Creating layer pool1
I0418 23:53:53.696480 20669 net.cpp:84] Creating Layer pool1
I0418 23:53:53.696487 20669 net.cpp:406] pool1 <- conv1_2
I0418 23:53:53.696503 20669 net.cpp:380] pool1 -> pool1
I0418 23:53:53.696612 20669 net.cpp:122] Setting up pool1
I0418 23:53:53.696627 20669 net.cpp:129] Top shape: 1 64 355 254 (5770880)
I0418 23:53:53.696635 20669 net.cpp:137] Memory required for data: 409561612
I0418 23:53:53.696641 20669 layer_factory.hpp:77] Creating layer conv2_1
I0418 23:53:53.696673 20669 net.cpp:84] Creating Layer conv2_1
I0418 23:53:53.696693 20669 net.cpp:406] conv2_1 <- pool1
I0418 23:53:53.696708 20669 net.cpp:380] conv2_1 -> conv2_1
I0418 23:53:53.699980 20669 net.cpp:122] Setting up conv2_1
I0418 23:53:53.700008 20669 net.cpp:129] Top shape: 1 128 355 254 (11541760)
I0418 23:53:53.700017 20669 net.cpp:137] Memory required for data: 455728652
I0418 23:53:53.700037 20669 layer_factory.hpp:77] Creating layer relu2_1
I0418 23:53:53.700054 20669 net.cpp:84] Creating Layer relu2_1
I0418 23:53:53.700062 20669 net.cpp:406] relu2_1 <- conv2_1
I0418 23:53:53.700080 20669 net.cpp:367] relu2_1 -> conv2_1 (in-place)
I0418 23:53:53.700459 20669 net.cpp:122] Setting up relu2_1
I0418 23:53:53.700475 20669 net.cpp:129] Top shape: 1 128 355 254 (11541760)
I0418 23:53:53.700482 20669 net.cpp:137] Memory required for data: 501895692
I0418 23:53:53.700489 20669 layer_factory.hpp:77] Creating layer conv2_2
I0418 23:53:53.700508 20669 net.cpp:84] Creating Layer conv2_2
I0418 23:53:53.700516 20669 net.cpp:406] conv2_2 <- conv2_1
I0418 23:53:53.700531 20669 net.cpp:380] conv2_2 -> conv2_2
I0418 23:53:53.704747 20669 net.cpp:122] Setting up conv2_2
I0418 23:53:53.704766 20669 net.cpp:129] Top shape: 1 128 355 254 (11541760)
I0418 23:53:53.704771 20669 net.cpp:137] Memory required for data: 548062732
I0418 23:53:53.704782 20669 layer_factory.hpp:77] Creating layer relu2_2
I0418 23:53:53.704789 20669 net.cpp:84] Creating Layer relu2_2
I0418 23:53:53.704793 20669 net.cpp:406] relu2_2 <- conv2_2
I0418 23:53:53.704802 20669 net.cpp:367] relu2_2 -> conv2_2 (in-place)
I0418 23:53:53.705049 20669 net.cpp:122] Setting up relu2_2
I0418 23:53:53.705061 20669 net.cpp:129] Top shape: 1 128 355 254 (11541760)
I0418 23:53:53.705065 20669 net.cpp:137] Memory required for data: 594229772
I0418 23:53:53.705070 20669 layer_factory.hpp:77] Creating layer pool2
I0418 23:53:53.705077 20669 net.cpp:84] Creating Layer pool2
I0418 23:53:53.705081 20669 net.cpp:406] pool2 <- conv2_2
I0418 23:53:53.705090 20669 net.cpp:380] pool2 -> pool2
I0418 23:53:53.705140 20669 net.cpp:122] Setting up pool2
I0418 23:53:53.705153 20669 net.cpp:129] Top shape: 1 128 178 127 (2893568)
I0418 23:53:53.705157 20669 net.cpp:137] Memory required for data: 605804044
I0418 23:53:53.705162 20669 layer_factory.hpp:77] Creating layer conv3_1
I0418 23:53:53.705170 20669 net.cpp:84] Creating Layer conv3_1
I0418 23:53:53.705174 20669 net.cpp:406] conv3_1 <- pool2
I0418 23:53:53.705183 20669 net.cpp:380] conv3_1 -> conv3_1
I0418 23:53:53.708767 20669 net.cpp:122] Setting up conv3_1
I0418 23:53:53.708786 20669 net.cpp:129] Top shape: 1 256 178 127 (5787136)
I0418 23:53:53.708791 20669 net.cpp:137] Memory required for data: 628952588
I0418 23:53:53.708802 20669 layer_factory.hpp:77] Creating layer relu3_1
I0418 23:53:53.708813 20669 net.cpp:84] Creating Layer relu3_1
I0418 23:53:53.708818 20669 net.cpp:406] relu3_1 <- conv3_1
I0418 23:53:53.708824 20669 net.cpp:367] relu3_1 -> conv3_1 (in-place)
I0418 23:53:53.709451 20669 net.cpp:122] Setting up relu3_1
I0418 23:53:53.709467 20669 net.cpp:129] Top shape: 1 256 178 127 (5787136)
I0418 23:53:53.709471 20669 net.cpp:137] Memory required for data: 652101132
I0418 23:53:53.709482 20669 layer_factory.hpp:77] Creating layer conv3_2
I0418 23:53:53.709494 20669 net.cpp:84] Creating Layer conv3_2
I0418 23:53:53.709499 20669 net.cpp:406] conv3_2 <- conv3_1
I0418 23:53:53.709509 20669 net.cpp:380] conv3_2 -> conv3_2
I0418 23:53:53.713284 20669 net.cpp:122] Setting up conv3_2
I0418 23:53:53.713302 20669 net.cpp:129] Top shape: 1 256 178 127 (5787136)
I0418 23:53:53.713307 20669 net.cpp:137] Memory required for data: 675249676
I0418 23:53:53.713316 20669 layer_factory.hpp:77] Creating layer relu3_2
I0418 23:53:53.713326 20669 net.cpp:84] Creating Layer relu3_2
I0418 23:53:53.713331 20669 net.cpp:406] relu3_2 <- conv3_2
I0418 23:53:53.713351 20669 net.cpp:367] relu3_2 -> conv3_2 (in-place)
I0418 23:53:53.713985 20669 net.cpp:122] Setting up relu3_2
I0418 23:53:53.714001 20669 net.cpp:129] Top shape: 1 256 178 127 (5787136)
I0418 23:53:53.714016 20669 net.cpp:137] Memory required for data: 698398220
I0418 23:53:53.714021 20669 layer_factory.hpp:77] Creating layer conv3_3
I0418 23:53:53.714033 20669 net.cpp:84] Creating Layer conv3_3
I0418 23:53:53.714038 20669 net.cpp:406] conv3_3 <- conv3_2
I0418 23:53:53.714046 20669 net.cpp:380] conv3_3 -> conv3_3
I0418 23:53:53.721318 20669 net.cpp:122] Setting up conv3_3
I0418 23:53:53.721344 20669 net.cpp:129] Top shape: 1 256 178 127 (5787136)
I0418 23:53:53.721359 20669 net.cpp:137] Memory required for data: 721546764
I0418 23:53:53.721375 20669 layer_factory.hpp:77] Creating layer relu3_3
I0418 23:53:53.721386 20669 net.cpp:84] Creating Layer relu3_3
I0418 23:53:53.721392 20669 net.cpp:406] relu3_3 <- conv3_3
I0418 23:53:53.721412 20669 net.cpp:367] relu3_3 -> conv3_3 (in-place)
I0418 23:53:53.721719 20669 net.cpp:122] Setting up relu3_3
I0418 23:53:53.721737 20669 net.cpp:129] Top shape: 1 256 178 127 (5787136)
I0418 23:53:53.721742 20669 net.cpp:137] Memory required for data: 744695308
I0418 23:53:53.721748 20669 layer_factory.hpp:77] Creating layer pool3
I0418 23:53:53.721757 20669 net.cpp:84] Creating Layer pool3
I0418 23:53:53.721763 20669 net.cpp:406] pool3 <- conv3_3
I0418 23:53:53.721771 20669 net.cpp:380] pool3 -> pool3
I0418 23:53:53.721843 20669 net.cpp:122] Setting up pool3
I0418 23:53:53.721853 20669 net.cpp:129] Top shape: 1 256 89 64 (1458176)
I0418 23:53:53.721858 20669 net.cpp:137] Memory required for data: 750528012
I0418 23:53:53.721863 20669 layer_factory.hpp:77] Creating layer pool3_pool3_0_split
I0418 23:53:53.721873 20669 net.cpp:84] Creating Layer pool3_pool3_0_split
I0418 23:53:53.721877 20669 net.cpp:406] pool3_pool3_0_split <- pool3
I0418 23:53:53.721889 20669 net.cpp:380] pool3_pool3_0_split -> pool3_pool3_0_split_0
I0418 23:53:53.721899 20669 net.cpp:380] pool3_pool3_0_split -> pool3_pool3_0_split_1
I0418 23:53:53.721951 20669 net.cpp:122] Setting up pool3_pool3_0_split
I0418 23:53:53.721961 20669 net.cpp:129] Top shape: 1 256 89 64 (1458176)
I0418 23:53:53.721967 20669 net.cpp:129] Top shape: 1 256 89 64 (1458176)
I0418 23:53:53.721971 20669 net.cpp:137] Memory required for data: 762193420
I0418 23:53:53.721976 20669 layer_factory.hpp:77] Creating layer conv4_1
I0418 23:53:53.721994 20669 net.cpp:84] Creating Layer conv4_1
I0418 23:53:53.722000 20669 net.cpp:406] conv4_1 <- pool3_pool3_0_split_0
I0418 23:53:53.722008 20669 net.cpp:380] conv4_1 -> conv4_1
I0418 23:53:53.733361 20669 net.cpp:122] Setting up conv4_1
I0418 23:53:53.733381 20669 net.cpp:129] Top shape: 1 512 89 64 (2916352)
I0418 23:53:53.733397 20669 net.cpp:137] Memory required for data: 773858828
I0418 23:53:53.733407 20669 layer_factory.hpp:77] Creating layer relu4_1
I0418 23:53:53.733414 20669 net.cpp:84] Creating Layer relu4_1
I0418 23:53:53.733420 20669 net.cpp:406] relu4_1 <- conv4_1
I0418 23:53:53.733427 20669 net.cpp:367] relu4_1 -> conv4_1 (in-place)
I0418 23:53:53.733700 20669 net.cpp:122] Setting up relu4_1
I0418 23:53:53.733713 20669 net.cpp:129] Top shape: 1 512 89 64 (2916352)
I0418 23:53:53.733717 20669 net.cpp:137] Memory required for data: 785524236
I0418 23:53:53.733721 20669 layer_factory.hpp:77] Creating layer conv4_2
I0418 23:53:53.733736 20669 net.cpp:84] Creating Layer conv4_2
I0418 23:53:53.733741 20669 net.cpp:406] conv4_2 <- conv4_1
I0418 23:53:53.733747 20669 net.cpp:380] conv4_2 -> conv4_2
I0418 23:53:53.743453 20669 net.cpp:122] Setting up conv4_2
I0418 23:53:53.743471 20669 net.cpp:129] Top shape: 1 512 89 64 (2916352)
I0418 23:53:53.743486 20669 net.cpp:137] Memory required for data: 797189644
I0418 23:53:53.743505 20669 layer_factory.hpp:77] Creating layer relu4_2
I0418 23:53:53.743512 20669 net.cpp:84] Creating Layer relu4_2
I0418 23:53:53.743517 20669 net.cpp:406] relu4_2 <- conv4_2
I0418 23:53:53.743525 20669 net.cpp:367] relu4_2 -> conv4_2 (in-place)
I0418 23:53:53.743784 20669 net.cpp:122] Setting up relu4_2
I0418 23:53:53.743796 20669 net.cpp:129] Top shape: 1 512 89 64 (2916352)
I0418 23:53:53.743801 20669 net.cpp:137] Memory required for data: 808855052
I0418 23:53:53.743805 20669 layer_factory.hpp:77] Creating layer conv4_3
I0418 23:53:53.743819 20669 net.cpp:84] Creating Layer conv4_3
I0418 23:53:53.743824 20669 net.cpp:406] conv4_3 <- conv4_2
I0418 23:53:53.743831 20669 net.cpp:380] conv4_3 -> conv4_3
I0418 23:53:53.757944 20669 net.cpp:122] Setting up conv4_3
I0418 23:53:53.757988 20669 net.cpp:129] Top shape: 1 512 89 64 (2916352)
I0418 23:53:53.757993 20669 net.cpp:137] Memory required for data: 820520460
I0418 23:53:53.758007 20669 layer_factory.hpp:77] Creating layer relu4_3
I0418 23:53:53.758020 20669 net.cpp:84] Creating Layer relu4_3
I0418 23:53:53.758026 20669 net.cpp:406] relu4_3 <- conv4_3
I0418 23:53:53.758034 20669 net.cpp:367] relu4_3 -> conv4_3 (in-place)
I0418 23:53:53.758297 20669 net.cpp:122] Setting up relu4_3
I0418 23:53:53.758311 20669 net.cpp:129] Top shape: 1 512 89 64 (2916352)
I0418 23:53:53.758314 20669 net.cpp:137] Memory required for data: 832185868
I0418 23:53:53.758318 20669 layer_factory.hpp:77] Creating layer pool4
I0418 23:53:53.758330 20669 net.cpp:84] Creating Layer pool4
I0418 23:53:53.758335 20669 net.cpp:406] pool4 <- conv4_3
I0418 23:53:53.758342 20669 net.cpp:380] pool4 -> pool4
I0418 23:53:53.758399 20669 net.cpp:122] Setting up pool4
I0418 23:53:53.758409 20669 net.cpp:129] Top shape: 1 512 45 32 (737280)
I0418 23:53:53.758411 20669 net.cpp:137] Memory required for data: 835134988
I0418 23:53:53.758416 20669 layer_factory.hpp:77] Creating layer pool4_pool4_0_split
I0418 23:53:53.758424 20669 net.cpp:84] Creating Layer pool4_pool4_0_split
I0418 23:53:53.758427 20669 net.cpp:406] pool4_pool4_0_split <- pool4
I0418 23:53:53.758435 20669 net.cpp:380] pool4_pool4_0_split -> pool4_pool4_0_split_0
I0418 23:53:53.758442 20669 net.cpp:380] pool4_pool4_0_split -> pool4_pool4_0_split_1
I0418 23:53:53.758483 20669 net.cpp:122] Setting up pool4_pool4_0_split
I0418 23:53:53.758493 20669 net.cpp:129] Top shape: 1 512 45 32 (737280)
I0418 23:53:53.758498 20669 net.cpp:129] Top shape: 1 512 45 32 (737280)
I0418 23:53:53.758502 20669 net.cpp:137] Memory required for data: 841033228
I0418 23:53:53.758507 20669 layer_factory.hpp:77] Creating layer conv5_1
I0418 23:53:53.758522 20669 net.cpp:84] Creating Layer conv5_1
I0418 23:53:53.758527 20669 net.cpp:406] conv5_1 <- pool4_pool4_0_split_0
I0418 23:53:53.758534 20669 net.cpp:380] conv5_1 -> conv5_1
I0418 23:53:53.772830 20669 net.cpp:122] Setting up conv5_1
I0418 23:53:53.772888 20669 net.cpp:129] Top shape: 1 512 45 32 (737280)
I0418 23:53:53.772897 20669 net.cpp:137] Memory required for data: 843982348
I0418 23:53:53.772917 20669 layer_factory.hpp:77] Creating layer relu5_1
I0418 23:53:53.772950 20669 net.cpp:84] Creating Layer relu5_1
I0418 23:53:53.772963 20669 net.cpp:406] relu5_1 <- conv5_1
I0418 23:53:53.772976 20669 net.cpp:367] relu5_1 -> conv5_1 (in-place)
I0418 23:53:53.776419 20669 net.cpp:122] Setting up relu5_1
I0418 23:53:53.776468 20669 net.cpp:129] Top shape: 1 512 45 32 (737280)
I0418 23:53:53.776473 20669 net.cpp:137] Memory required for data: 846931468
I0418 23:53:53.776480 20669 layer_factory.hpp:77] Creating layer conv5_2
I0418 23:53:53.776510 20669 net.cpp:84] Creating Layer conv5_2
I0418 23:53:53.776516 20669 net.cpp:406] conv5_2 <- conv5_1
I0418 23:53:53.776537 20669 net.cpp:380] conv5_2 -> conv5_2
I0418 23:53:53.788187 20669 net.cpp:122] Setting up conv5_2
I0418 23:53:53.788220 20669 net.cpp:129] Top shape: 1 512 45 32 (737280)
I0418 23:53:53.788225 20669 net.cpp:137] Memory required for data: 849880588
I0418 23:53:53.788236 20669 layer_factory.hpp:77] Creating layer relu5_2
I0418 23:53:53.788256 20669 net.cpp:84] Creating Layer relu5_2
I0418 23:53:53.788261 20669 net.cpp:406] relu5_2 <- conv5_2
I0418 23:53:53.788269 20669 net.cpp:367] relu5_2 -> conv5_2 (in-place)
I0418 23:53:53.790717 20669 net.cpp:122] Setting up relu5_2
I0418 23:53:53.790783 20669 net.cpp:129] Top shape: 1 512 45 32 (737280)
I0418 23:53:53.790792 20669 net.cpp:137] Memory required for data: 852829708
I0418 23:53:53.790803 20669 layer_factory.hpp:77] Creating layer conv5_3
I0418 23:53:53.790833 20669 net.cpp:84] Creating Layer conv5_3
I0418 23:53:53.790844 20669 net.cpp:406] conv5_3 <- conv5_2
I0418 23:53:53.790860 20669 net.cpp:380] conv5_3 -> conv5_3
I0418 23:53:53.803278 20669 net.cpp:122] Setting up conv5_3
I0418 23:53:53.803329 20669 net.cpp:129] Top shape: 1 512 45 32 (737280)
I0418 23:53:53.803333 20669 net.cpp:137] Memory required for data: 855778828
I0418 23:53:53.803346 20669 layer_factory.hpp:77] Creating layer relu5_3
I0418 23:53:53.803360 20669 net.cpp:84] Creating Layer relu5_3
I0418 23:53:53.803367 20669 net.cpp:406] relu5_3 <- conv5_3
I0418 23:53:53.803378 20669 net.cpp:367] relu5_3 -> conv5_3 (in-place)
I0418 23:53:53.803635 20669 net.cpp:122] Setting up relu5_3
I0418 23:53:53.803647 20669 net.cpp:129] Top shape: 1 512 45 32 (737280)
I0418 23:53:53.803652 20669 net.cpp:137] Memory required for data: 858727948
I0418 23:53:53.803655 20669 layer_factory.hpp:77] Creating layer pool5
I0418 23:53:53.803668 20669 net.cpp:84] Creating Layer pool5
I0418 23:53:53.803671 20669 net.cpp:406] pool5 <- conv5_3
I0418 23:53:53.803688 20669 net.cpp:380] pool5 -> pool5
I0418 23:53:53.803745 20669 net.cpp:122] Setting up pool5
I0418 23:53:53.803753 20669 net.cpp:129] Top shape: 1 512 23 16 (188416)
I0418 23:53:53.803757 20669 net.cpp:137] Memory required for data: 859481612
I0418 23:53:53.803761 20669 layer_factory.hpp:77] Creating layer fc6
I0418 23:53:53.803776 20669 net.cpp:84] Creating Layer fc6
I0418 23:53:53.803781 20669 net.cpp:406] fc6 <- pool5
I0418 23:53:53.803787 20669 net.cpp:380] fc6 -> fc6
I0418 23:53:54.147064 20669 net.cpp:122] Setting up fc6
I0418 23:53:54.147115 20669 net.cpp:129] Top shape: 1 4096 17 10 (696320)
I0418 23:53:54.147120 20669 net.cpp:137] Memory required for data: 862266892
I0418 23:53:54.147131 20669 layer_factory.hpp:77] Creating layer relu6
I0418 23:53:54.147147 20669 net.cpp:84] Creating Layer relu6
I0418 23:53:54.147152 20669 net.cpp:406] relu6 <- fc6
I0418 23:53:54.147161 20669 net.cpp:367] relu6 -> fc6 (in-place)
I0418 23:53:54.147372 20669 net.cpp:122] Setting up relu6
I0418 23:53:54.147384 20669 net.cpp:129] Top shape: 1 4096 17 10 (696320)
I0418 23:53:54.147387 20669 net.cpp:137] Memory required for data: 865052172
I0418 23:53:54.147392 20669 layer_factory.hpp:77] Creating layer drop6
I0418 23:53:54.147403 20669 net.cpp:84] Creating Layer drop6
I0418 23:53:54.147408 20669 net.cpp:406] drop6 <- fc6
I0418 23:53:54.147411 20669 net.cpp:367] drop6 -> fc6 (in-place)
I0418 23:53:54.147451 20669 net.cpp:122] Setting up drop6
I0418 23:53:54.147464 20669 net.cpp:129] Top shape: 1 4096 17 10 (696320)
I0418 23:53:54.147466 20669 net.cpp:137] Memory required for data: 867837452
I0418 23:53:54.147469 20669 layer_factory.hpp:77] Creating layer fc7
I0418 23:53:54.147481 20669 net.cpp:84] Creating Layer fc7
I0418 23:53:54.147485 20669 net.cpp:406] fc7 <- fc6
I0418 23:53:54.147490 20669 net.cpp:380] fc7 -> fc7
I0418 23:53:54.202026 20669 net.cpp:122] Setting up fc7
I0418 23:53:54.202076 20669 net.cpp:129] Top shape: 1 4096 17 10 (696320)
I0418 23:53:54.202080 20669 net.cpp:137] Memory required for data: 870622732
I0418 23:53:54.202091 20669 layer_factory.hpp:77] Creating layer relu7
I0418 23:53:54.202105 20669 net.cpp:84] Creating Layer relu7
I0418 23:53:54.202111 20669 net.cpp:406] relu7 <- fc7
I0418 23:53:54.202117 20669 net.cpp:367] relu7 -> fc7 (in-place)
I0418 23:53:54.202369 20669 net.cpp:122] Setting up relu7
I0418 23:53:54.202380 20669 net.cpp:129] Top shape: 1 4096 17 10 (696320)
I0418 23:53:54.202383 20669 net.cpp:137] Memory required for data: 873408012
I0418 23:53:54.202388 20669 layer_factory.hpp:77] Creating layer drop7
I0418 23:53:54.202397 20669 net.cpp:84] Creating Layer drop7
I0418 23:53:54.202401 20669 net.cpp:406] drop7 <- fc7
I0418 23:53:54.202406 20669 net.cpp:367] drop7 -> fc7 (in-place)
I0418 23:53:54.202441 20669 net.cpp:122] Setting up drop7
I0418 23:53:54.202455 20669 net.cpp:129] Top shape: 1 4096 17 10 (696320)
I0418 23:53:54.202457 20669 net.cpp:137] Memory required for data: 876193292
I0418 23:53:54.202461 20669 layer_factory.hpp:77] Creating layer score_fr-new
I0418 23:53:54.202471 20669 net.cpp:84] Creating Layer score_fr-new
I0418 23:53:54.202476 20669 net.cpp:406] score_fr-new <- fc7
I0418 23:53:54.202481 20669 net.cpp:380] score_fr-new -> score_fr-new
I0418 23:53:54.204478 20669 net.cpp:122] Setting up score_fr-new
I0418 23:53:54.204510 20669 net.cpp:129] Top shape: 1 3 17 10 (510)
I0418 23:53:54.204514 20669 net.cpp:137] Memory required for data: 876195332
I0418 23:53:54.204521 20669 layer_factory.hpp:77] Creating layer upscore2-new
I0418 23:53:54.204535 20669 net.cpp:84] Creating Layer upscore2-new
I0418 23:53:54.204538 20669 net.cpp:406] upscore2-new <- score_fr-new
I0418 23:53:54.204547 20669 net.cpp:380] upscore2-new -> upscore2-new
I0418 23:53:54.204782 20669 net.cpp:122] Setting up upscore2-new
I0418 23:53:54.204789 20669 net.cpp:129] Top shape: 1 3 36 22 (2376)
I0418 23:53:54.204793 20669 net.cpp:137] Memory required for data: 876204836
I0418 23:53:54.204807 20669 layer_factory.hpp:77] Creating layer upscore2-new_upscore2-new_0_split
I0418 23:53:54.204813 20669 net.cpp:84] Creating Layer upscore2-new_upscore2-new_0_split
I0418 23:53:54.204816 20669 net.cpp:406] upscore2-new_upscore2-new_0_split <- upscore2-new
I0418 23:53:54.204821 20669 net.cpp:380] upscore2-new_upscore2-new_0_split -> upscore2-new_upscore2-new_0_split_0
I0418 23:53:54.204830 20669 net.cpp:380] upscore2-new_upscore2-new_0_split -> upscore2-new_upscore2-new_0_split_1
I0418 23:53:54.204865 20669 net.cpp:122] Setting up upscore2-new_upscore2-new_0_split
I0418 23:53:54.204882 20669 net.cpp:129] Top shape: 1 3 36 22 (2376)
I0418 23:53:54.204886 20669 net.cpp:129] Top shape: 1 3 36 22 (2376)
I0418 23:53:54.204890 20669 net.cpp:137] Memory required for data: 876223844
I0418 23:53:54.204892 20669 layer_factory.hpp:77] Creating layer score_pool4-new
I0418 23:53:54.204902 20669 net.cpp:84] Creating Layer score_pool4-new
I0418 23:53:54.204906 20669 net.cpp:406] score_pool4-new <- pool4_pool4_0_split_1
I0418 23:53:54.204915 20669 net.cpp:380] score_pool4-new -> score_pool4-new
I0418 23:53:54.206143 20669 net.cpp:122] Setting up score_pool4-new
I0418 23:53:54.206157 20669 net.cpp:129] Top shape: 1 3 45 32 (4320)
I0418 23:53:54.206207 20669 net.cpp:137] Memory required for data: 876241124
I0418 23:53:54.206214 20669 layer_factory.hpp:77] Creating layer score_pool4c
I0418 23:53:54.206224 20669 net.cpp:84] Creating Layer score_pool4c
I0418 23:53:54.206228 20669 net.cpp:406] score_pool4c <- score_pool4-new
I0418 23:53:54.206248 20669 net.cpp:406] score_pool4c <- upscore2-new_upscore2-new_0_split_0
I0418 23:53:54.206257 20669 net.cpp:380] score_pool4c -> score_pool4c
I0418 23:53:54.206293 20669 net.cpp:122] Setting up score_pool4c
I0418 23:53:54.206298 20669 net.cpp:129] Top shape: 1 3 36 22 (2376)
I0418 23:53:54.206301 20669 net.cpp:137] Memory required for data: 876250628
I0418 23:53:54.206305 20669 layer_factory.hpp:77] Creating layer fuse_pool4
I0418 23:53:54.206317 20669 net.cpp:84] Creating Layer fuse_pool4
I0418 23:53:54.206321 20669 net.cpp:406] fuse_pool4 <- upscore2-new_upscore2-new_0_split_1
I0418 23:53:54.206326 20669 net.cpp:406] fuse_pool4 <- score_pool4c
I0418 23:53:54.206331 20669 net.cpp:380] fuse_pool4 -> fuse_pool4
I0418 23:53:54.206365 20669 net.cpp:122] Setting up fuse_pool4
I0418 23:53:54.206370 20669 net.cpp:129] Top shape: 1 3 36 22 (2376)
I0418 23:53:54.206373 20669 net.cpp:137] Memory required for data: 876260132
I0418 23:53:54.206377 20669 layer_factory.hpp:77] Creating layer upscore_pool4-new
I0418 23:53:54.206385 20669 net.cpp:84] Creating Layer upscore_pool4-new
I0418 23:53:54.206389 20669 net.cpp:406] upscore_pool4-new <- fuse_pool4
I0418 23:53:54.206396 20669 net.cpp:380] upscore_pool4-new -> upscore_pool4-new
I0418 23:53:54.206610 20669 net.cpp:122] Setting up upscore_pool4-new
I0418 23:53:54.206619 20669 net.cpp:129] Top shape: 1 3 74 46 (10212)
I0418 23:53:54.206622 20669 net.cpp:137] Memory required for data: 876300980
I0418 23:53:54.206627 20669 layer_factory.hpp:77] Creating layer upscore_pool4-new_upscore_pool4-new_0_split
I0418 23:53:54.206634 20669 net.cpp:84] Creating Layer upscore_pool4-new_upscore_pool4-new_0_split
I0418 23:53:54.206636 20669 net.cpp:406] upscore_pool4-new_upscore_pool4-new_0_split <- upscore_pool4-new
I0418 23:53:54.206641 20669 net.cpp:380] upscore_pool4-new_upscore_pool4-new_0_split -> upscore_pool4-new_upscore_pool4-new_0_split_0
I0418 23:53:54.206647 20669 net.cpp:380] upscore_pool4-new_upscore_pool4-new_0_split -> upscore_pool4-new_upscore_pool4-new_0_split_1
I0418 23:53:54.206683 20669 net.cpp:122] Setting up upscore_pool4-new_upscore_pool4-new_0_split
I0418 23:53:54.206688 20669 net.cpp:129] Top shape: 1 3 74 46 (10212)
I0418 23:53:54.206692 20669 net.cpp:129] Top shape: 1 3 74 46 (10212)
I0418 23:53:54.206696 20669 net.cpp:137] Memory required for data: 876382676
I0418 23:53:54.206698 20669 layer_factory.hpp:77] Creating layer score_pool3-new
I0418 23:53:54.206707 20669 net.cpp:84] Creating Layer score_pool3-new
I0418 23:53:54.206712 20669 net.cpp:406] score_pool3-new <- pool3_pool3_0_split_1
I0418 23:53:54.206718 20669 net.cpp:380] score_pool3-new -> score_pool3-new
I0418 23:53:54.207958 20669 net.cpp:122] Setting up score_pool3-new
I0418 23:53:54.207973 20669 net.cpp:129] Top shape: 1 3 89 64 (17088)
I0418 23:53:54.207991 20669 net.cpp:137] Memory required for data: 876451028
I0418 23:53:54.207998 20669 layer_factory.hpp:77] Creating layer score_pool3c
I0418 23:53:54.208006 20669 net.cpp:84] Creating Layer score_pool3c
I0418 23:53:54.208011 20669 net.cpp:406] score_pool3c <- score_pool3-new
I0418 23:53:54.208015 20669 net.cpp:406] score_pool3c <- upscore_pool4-new_upscore_pool4-new_0_split_0
I0418 23:53:54.208020 20669 net.cpp:380] score_pool3c -> score_pool3c
I0418 23:53:54.208066 20669 net.cpp:122] Setting up score_pool3c
I0418 23:53:54.208072 20669 net.cpp:129] Top shape: 1 3 74 46 (10212)
I0418 23:53:54.208075 20669 net.cpp:137] Memory required for data: 876491876
I0418 23:53:54.208078 20669 layer_factory.hpp:77] Creating layer fuse_pool3
I0418 23:53:54.208084 20669 net.cpp:84] Creating Layer fuse_pool3
I0418 23:53:54.208087 20669 net.cpp:406] fuse_pool3 <- upscore_pool4-new_upscore_pool4-new_0_split_1
I0418 23:53:54.208092 20669 net.cpp:406] fuse_pool3 <- score_pool3c
I0418 23:53:54.208099 20669 net.cpp:380] fuse_pool3 -> fuse_pool3
I0418 23:53:54.208122 20669 net.cpp:122] Setting up fuse_pool3
I0418 23:53:54.208127 20669 net.cpp:129] Top shape: 1 3 74 46 (10212)
I0418 23:53:54.208129 20669 net.cpp:137] Memory required for data: 876532724
I0418 23:53:54.208132 20669 layer_factory.hpp:77] Creating layer upscore8-new
I0418 23:53:54.208142 20669 net.cpp:84] Creating Layer upscore8-new
I0418 23:53:54.208144 20669 net.cpp:406] upscore8-new <- fuse_pool3
I0418 23:53:54.208151 20669 net.cpp:380] upscore8-new -> upscore8-new
I0418 23:53:54.208353 20669 net.cpp:122] Setting up upscore8-new
I0418 23:53:54.208361 20669 net.cpp:129] Top shape: 1 3 600 376 (676800)
I0418 23:53:54.208364 20669 net.cpp:137] Memory required for data: 879239924
I0418 23:53:54.208369 20669 layer_factory.hpp:77] Creating layer upscore8_cropped
I0418 23:53:54.208375 20669 net.cpp:84] Creating Layer upscore8_cropped
I0418 23:53:54.208379 20669 net.cpp:406] upscore8_cropped <- upscore8-new
I0418 23:53:54.208384 20669 net.cpp:406] upscore8_cropped <- data_data_0_split_1
I0418 23:53:54.208390 20669 net.cpp:380] upscore8_cropped -> upscore8_cropped
I0418 23:53:54.208413 20669 net.cpp:122] Setting up upscore8_cropped
I0418 23:53:54.208418 20669 net.cpp:129] Top shape: 1 3 512 310 (476160)
I0418 23:53:54.208421 20669 net.cpp:137] Memory required for data: 881144564
I0418 23:53:54.208425 20669 layer_factory.hpp:77] Creating layer score
I0418 23:53:54.208434 20669 net.cpp:84] Creating Layer score
I0418 23:53:54.208438 20669 net.cpp:406] score <- upscore8_cropped
I0418 23:53:54.208444 20669 net.cpp:380] score -> score
I0418 23:53:54.211688 20669 net.cpp:122] Setting up score
I0418 23:53:54.211704 20669 net.cpp:129] Top shape: 1 3 512 310 (476160)
I0418 23:53:54.211724 20669 net.cpp:137] Memory required for data: 883049204
I0418 23:53:54.211731 20669 layer_factory.hpp:77] Creating layer score_score_0_split
I0418 23:53:54.211738 20669 net.cpp:84] Creating Layer score_score_0_split
I0418 23:53:54.211742 20669 net.cpp:406] score_score_0_split <- score
I0418 23:53:54.211750 20669 net.cpp:380] score_score_0_split -> score_score_0_split_0
I0418 23:53:54.211757 20669 net.cpp:380] score_score_0_split -> score_score_0_split_1
I0418 23:53:54.211827 20669 net.cpp:122] Setting up score_score_0_split
I0418 23:53:54.211832 20669 net.cpp:129] Top shape: 1 3 512 310 (476160)
I0418 23:53:54.211836 20669 net.cpp:129] Top shape: 1 3 512 310 (476160)
I0418 23:53:54.211839 20669 net.cpp:137] Memory required for data: 886858484
I0418 23:53:54.211843 20669 layer_factory.hpp:77] Creating layer prob
I0418 23:53:54.211863 20669 net.cpp:84] Creating Layer prob
I0418 23:53:54.211866 20669 net.cpp:406] prob <- score_score_0_split_0
I0418 23:53:54.211871 20669 net.cpp:380] prob -> prob
I0418 23:53:54.212095 20669 net.cpp:122] Setting up prob
I0418 23:53:54.212108 20669 net.cpp:129] Top shape: 1 3 512 310 (476160)
I0418 23:53:54.212111 20669 net.cpp:137] Memory required for data: 888763124
I0418 23:53:54.212115 20669 layer_factory.hpp:77] Creating layer saliency
I0418 23:53:54.212126 20669 net.cpp:84] Creating Layer saliency
I0418 23:53:54.212131 20669 net.cpp:406] saliency <- prob
I0418 23:53:54.212137 20669 net.cpp:380] saliency -> saliency
I0418 23:53:54.213901 20669 net.cpp:122] Setting up saliency
I0418 23:53:54.213914 20669 net.cpp:129] Top shape: 1 3 512 310 (476160)
I0418 23:53:54.213934 20669 net.cpp:137] Memory required for data: 890667764
I0418 23:53:54.213941 20669 layer_factory.hpp:77] Creating layer silence_saliency
I0418 23:53:54.213950 20669 net.cpp:84] Creating Layer silence_saliency
I0418 23:53:54.213954 20669 net.cpp:406] silence_saliency <- saliency
I0418 23:53:54.213960 20669 net.cpp:122] Setting up silence_saliency
I0418 23:53:54.213963 20669 net.cpp:137] Memory required for data: 890667764
I0418 23:53:54.213966 20669 layer_factory.hpp:77] Creating layer crop
I0418 23:53:54.214296 20669 net.cpp:84] Creating Layer crop
I0418 23:53:54.214308 20669 net.cpp:406] crop <- label_data_1_split_0
I0418 23:53:54.214314 20669 net.cpp:406] crop <- data_data_0_split_2
I0418 23:53:54.214319 20669 net.cpp:406] crop <- crop_margin
I0418 23:53:54.214339 20669 net.cpp:406] crop <- crop_prob
I0418 23:53:54.214344 20669 net.cpp:406] crop <- crop_sample_batch
I0418 23:53:54.214350 20669 net.cpp:380] crop -> data-R
I0418 23:53:54.214359 20669 net.cpp:380] crop -> crop_info
I0418 23:53:54.224117 20669 net.cpp:122] Setting up crop
I0418 23:53:54.224143 20669 net.cpp:129] Top shape: 1 3 512 310 (476160)
I0418 23:53:54.224162 20669 net.cpp:129] Top shape: 1 2 4 (8)
I0418 23:53:54.224167 20669 net.cpp:137] Memory required for data: 892572436
I0418 23:53:54.224174 20669 layer_factory.hpp:77] Creating layer data-R_crop_0_split
I0418 23:53:54.224186 20669 net.cpp:84] Creating Layer data-R_crop_0_split
I0418 23:53:54.224194 20669 net.cpp:406] data-R_crop_0_split <- data-R
I0418 23:53:54.224202 20669 net.cpp:380] data-R_crop_0_split -> data-R_crop_0_split_0
I0418 23:53:54.224225 20669 net.cpp:380] data-R_crop_0_split -> data-R_crop_0_split_1
I0418 23:53:54.224287 20669 net.cpp:122] Setting up data-R_crop_0_split
I0418 23:53:54.224313 20669 net.cpp:129] Top shape: 1 3 512 310 (476160)
I0418 23:53:54.224318 20669 net.cpp:129] Top shape: 1 3 512 310 (476160)
I0418 23:53:54.224323 20669 net.cpp:137] Memory required for data: 896381716
I0418 23:53:54.224328 20669 layer_factory.hpp:77] Creating layer conv1_1-R
I0418 23:53:54.224341 20669 net.cpp:84] Creating Layer conv1_1-R
I0418 23:53:54.224347 20669 net.cpp:406] conv1_1-R <- data-R_crop_0_split_0
I0418 23:53:54.224359 20669 net.cpp:380] conv1_1-R -> conv1_1-R
I0418 23:53:54.228711 20669 net.cpp:122] Setting up conv1_1-R
I0418 23:53:54.228744 20669 net.cpp:129] Top shape: 1 64 710 508 (23083520)
I0418 23:53:54.228749 20669 net.cpp:137] Memory required for data: 988715796
I0418 23:53:54.228760 20669 layer_factory.hpp:77] Creating layer relu1_1-R
I0418 23:53:54.228773 20669 net.cpp:84] Creating Layer relu1_1-R
I0418 23:53:54.228780 20669 net.cpp:406] relu1_1-R <- conv1_1-R
I0418 23:53:54.228787 20669 net.cpp:367] relu1_1-R -> conv1_1-R (in-place)
I0418 23:53:54.229089 20669 net.cpp:122] Setting up relu1_1-R
I0418 23:53:54.229104 20669 net.cpp:129] Top shape: 1 64 710 508 (23083520)
I0418 23:53:54.229109 20669 net.cpp:137] Memory required for data: 1081049876
I0418 23:53:54.229115 20669 layer_factory.hpp:77] Creating layer conv1_2-R
I0418 23:53:54.229146 20669 net.cpp:84] Creating Layer conv1_2-R
I0418 23:53:54.229161 20669 net.cpp:406] conv1_2-R <- conv1_1-R
I0418 23:53:54.229174 20669 net.cpp:380] conv1_2-R -> conv1_2-R
I0418 23:53:54.233767 20669 net.cpp:122] Setting up conv1_2-R
I0418 23:53:54.233798 20669 net.cpp:129] Top shape: 1 64 710 508 (23083520)
I0418 23:53:54.233803 20669 net.cpp:137] Memory required for data: 1173383956
I0418 23:53:54.233809 20669 layer_factory.hpp:77] Creating layer relu1_2-R
I0418 23:53:54.233816 20669 net.cpp:84] Creating Layer relu1_2-R
I0418 23:53:54.233820 20669 net.cpp:406] relu1_2-R <- conv1_2-R
I0418 23:53:54.233825 20669 net.cpp:367] relu1_2-R -> conv1_2-R (in-place)
I0418 23:53:54.234043 20669 net.cpp:122] Setting up relu1_2-R
I0418 23:53:54.234055 20669 net.cpp:129] Top shape: 1 64 710 508 (23083520)
I0418 23:53:54.234058 20669 net.cpp:137] Memory required for data: 1265718036
I0418 23:53:54.234062 20669 layer_factory.hpp:77] Creating layer pool1-R
I0418 23:53:54.234071 20669 net.cpp:84] Creating Layer pool1-R
I0418 23:53:54.234074 20669 net.cpp:406] pool1-R <- conv1_2-R
I0418 23:53:54.234081 20669 net.cpp:380] pool1-R -> pool1-R
I0418 23:53:54.234128 20669 net.cpp:122] Setting up pool1-R
I0418 23:53:54.234138 20669 net.cpp:129] Top shape: 1 64 355 254 (5770880)
I0418 23:53:54.234143 20669 net.cpp:137] Memory required for data: 1288801556
I0418 23:53:54.234145 20669 layer_factory.hpp:77] Creating layer conv2_1-R
I0418 23:53:54.234154 20669 net.cpp:84] Creating Layer conv2_1-R
I0418 23:53:54.234158 20669 net.cpp:406] conv2_1-R <- pool1-R
I0418 23:53:54.234189 20669 net.cpp:380] conv2_1-R -> conv2_1-R
I0418 23:53:54.236660 20669 net.cpp:122] Setting up conv2_1-R
I0418 23:53:54.236677 20669 net.cpp:129] Top shape: 1 128 355 254 (11541760)
I0418 23:53:54.236697 20669 net.cpp:137] Memory required for data: 1334968596
I0418 23:53:54.236704 20669 layer_factory.hpp:77] Creating layer relu2_1-R
I0418 23:53:54.236711 20669 net.cpp:84] Creating Layer relu2_1-R
I0418 23:53:54.236716 20669 net.cpp:406] relu2_1-R <- conv2_1-R
I0418 23:53:54.236721 20669 net.cpp:367] relu2_1-R -> conv2_1-R (in-place)
I0418 23:53:54.236933 20669 net.cpp:122] Setting up relu2_1-R
I0418 23:53:54.236943 20669 net.cpp:129] Top shape: 1 128 355 254 (11541760)
I0418 23:53:54.236948 20669 net.cpp:137] Memory required for data: 1381135636
I0418 23:53:54.236951 20669 layer_factory.hpp:77] Creating layer conv2_2-R
I0418 23:53:54.236961 20669 net.cpp:84] Creating Layer conv2_2-R
I0418 23:53:54.236964 20669 net.cpp:406] conv2_2-R <- conv2_1-R
I0418 23:53:54.236971 20669 net.cpp:380] conv2_2-R -> conv2_2-R
I0418 23:53:54.240090 20669 net.cpp:122] Setting up conv2_2-R
I0418 23:53:54.240121 20669 net.cpp:129] Top shape: 1 128 355 254 (11541760)
I0418 23:53:54.240125 20669 net.cpp:137] Memory required for data: 1427302676
I0418 23:53:54.240134 20669 layer_factory.hpp:77] Creating layer relu2_2-R
I0418 23:53:54.240139 20669 net.cpp:84] Creating Layer relu2_2-R
I0418 23:53:54.240144 20669 net.cpp:406] relu2_2-R <- conv2_2-R
I0418 23:53:54.240149 20669 net.cpp:367] relu2_2-R -> conv2_2-R (in-place)
I0418 23:53:54.240727 20669 net.cpp:122] Setting up relu2_2-R
I0418 23:53:54.240741 20669 net.cpp:129] Top shape: 1 128 355 254 (11541760)
I0418 23:53:54.240761 20669 net.cpp:137] Memory required for data: 1473469716
I0418 23:53:54.240764 20669 layer_factory.hpp:77] Creating layer pool2-R
I0418 23:53:54.240787 20669 net.cpp:84] Creating Layer pool2-R
I0418 23:53:54.240790 20669 net.cpp:406] pool2-R <- conv2_2-R
I0418 23:53:54.240797 20669 net.cpp:380] pool2-R -> pool2-R
I0418 23:53:54.240860 20669 net.cpp:122] Setting up pool2-R
I0418 23:53:54.240866 20669 net.cpp:129] Top shape: 1 128 178 127 (2893568)
I0418 23:53:54.240869 20669 net.cpp:137] Memory required for data: 1485043988
I0418 23:53:54.240873 20669 layer_factory.hpp:77] Creating layer conv3_1-R
I0418 23:53:54.240882 20669 net.cpp:84] Creating Layer conv3_1-R
I0418 23:53:54.240886 20669 net.cpp:406] conv3_1-R <- pool2-R
I0418 23:53:54.240892 20669 net.cpp:380] conv3_1-R -> conv3_1-R
I0418 23:53:54.244771 20669 net.cpp:122] Setting up conv3_1-R
I0418 23:53:54.244791 20669 net.cpp:129] Top shape: 1 256 178 127 (5787136)
I0418 23:53:54.244807 20669 net.cpp:137] Memory required for data: 1508192532
I0418 23:53:54.244817 20669 layer_factory.hpp:77] Creating layer relu3_1-R
I0418 23:53:54.244827 20669 net.cpp:84] Creating Layer relu3_1-R
I0418 23:53:54.244833 20669 net.cpp:406] relu3_1-R <- conv3_1-R
I0418 23:53:54.244841 20669 net.cpp:367] relu3_1-R -> conv3_1-R (in-place)
I0418 23:53:54.245111 20669 net.cpp:122] Setting up relu3_1-R
I0418 23:53:54.245126 20669 net.cpp:129] Top shape: 1 256 178 127 (5787136)
I0418 23:53:54.245131 20669 net.cpp:137] Memory required for data: 1531341076
I0418 23:53:54.245136 20669 layer_factory.hpp:77] Creating layer conv3_2-R
I0418 23:53:54.245147 20669 net.cpp:84] Creating Layer conv3_2-R
I0418 23:53:54.245152 20669 net.cpp:406] conv3_2-R <- conv3_1-R
I0418 23:53:54.245162 20669 net.cpp:380] conv3_2-R -> conv3_2-R
I0418 23:53:54.251758 20669 net.cpp:122] Setting up conv3_2-R
I0418 23:53:54.251791 20669 net.cpp:129] Top shape: 1 256 178 127 (5787136)
I0418 23:53:54.251797 20669 net.cpp:137] Memory required for data: 1554489620
I0418 23:53:54.251809 20669 layer_factory.hpp:77] Creating layer relu3_2-R
I0418 23:53:54.251832 20669 net.cpp:84] Creating Layer relu3_2-R
I0418 23:53:54.251837 20669 net.cpp:406] relu3_2-R <- conv3_2-R
I0418 23:53:54.251845 20669 net.cpp:367] relu3_2-R -> conv3_2-R (in-place)
I0418 23:53:54.252144 20669 net.cpp:122] Setting up relu3_2-R
I0418 23:53:54.252159 20669 net.cpp:129] Top shape: 1 256 178 127 (5787136)
I0418 23:53:54.252164 20669 net.cpp:137] Memory required for data: 1577638164
I0418 23:53:54.252171 20669 layer_factory.hpp:77] Creating layer conv3_3-R
I0418 23:53:54.252183 20669 net.cpp:84] Creating Layer conv3_3-R
I0418 23:53:54.252188 20669 net.cpp:406] conv3_3-R <- conv3_2-R
I0418 23:53:54.252198 20669 net.cpp:380] conv3_3-R -> conv3_3-R
I0418 23:53:54.257901 20669 net.cpp:122] Setting up conv3_3-R
I0418 23:53:54.257942 20669 net.cpp:129] Top shape: 1 256 178 127 (5787136)
I0418 23:53:54.257949 20669 net.cpp:137] Memory required for data: 1600786708
I0418 23:53:54.257961 20669 layer_factory.hpp:77] Creating layer relu3_3-R
I0418 23:53:54.257972 20669 net.cpp:84] Creating Layer relu3_3-R
I0418 23:53:54.257979 20669 net.cpp:406] relu3_3-R <- conv3_3-R
I0418 23:53:54.257988 20669 net.cpp:367] relu3_3-R -> conv3_3-R (in-place)
I0418 23:53:54.258296 20669 net.cpp:122] Setting up relu3_3-R
I0418 23:53:54.258312 20669 net.cpp:129] Top shape: 1 256 178 127 (5787136)
I0418 23:53:54.258318 20669 net.cpp:137] Memory required for data: 1623935252
I0418 23:53:54.258323 20669 layer_factory.hpp:77] Creating layer pool3-R
I0418 23:53:54.258334 20669 net.cpp:84] Creating Layer pool3-R
I0418 23:53:54.258340 20669 net.cpp:406] pool3-R <- conv3_3-R
I0418 23:53:54.258350 20669 net.cpp:380] pool3-R -> pool3-R
I0418 23:53:54.258422 20669 net.cpp:122] Setting up pool3-R
I0418 23:53:54.258433 20669 net.cpp:129] Top shape: 1 256 89 64 (1458176)
I0418 23:53:54.258437 20669 net.cpp:137] Memory required for data: 1629767956
I0418 23:53:54.258442 20669 layer_factory.hpp:77] Creating layer pool3-R_pool3-R_0_split
I0418 23:53:54.258451 20669 net.cpp:84] Creating Layer pool3-R_pool3-R_0_split
I0418 23:53:54.258456 20669 net.cpp:406] pool3-R_pool3-R_0_split <- pool3-R
I0418 23:53:54.258464 20669 net.cpp:380] pool3-R_pool3-R_0_split -> pool3-R_pool3-R_0_split_0
I0418 23:53:54.258473 20669 net.cpp:380] pool3-R_pool3-R_0_split -> pool3-R_pool3-R_0_split_1
I0418 23:53:54.258527 20669 net.cpp:122] Setting up pool3-R_pool3-R_0_split
I0418 23:53:54.258535 20669 net.cpp:129] Top shape: 1 256 89 64 (1458176)
I0418 23:53:54.258548 20669 net.cpp:129] Top shape: 1 256 89 64 (1458176)
I0418 23:53:54.258551 20669 net.cpp:137] Memory required for data: 1641433364
I0418 23:53:54.258556 20669 layer_factory.hpp:77] Creating layer conv4_1-R
I0418 23:53:54.258569 20669 net.cpp:84] Creating Layer conv4_1-R
I0418 23:53:54.258574 20669 net.cpp:406] conv4_1-R <- pool3-R_pool3-R_0_split_0
I0418 23:53:54.258581 20669 net.cpp:380] conv4_1-R -> conv4_1-R
I0418 23:53:54.265398 20669 net.cpp:122] Setting up conv4_1-R
I0418 23:53:54.265429 20669 net.cpp:129] Top shape: 1 512 89 64 (2916352)
I0418 23:53:54.265435 20669 net.cpp:137] Memory required for data: 1653098772
I0418 23:53:54.265447 20669 layer_factory.hpp:77] Creating layer relu4_1-R
I0418 23:53:54.265457 20669 net.cpp:84] Creating Layer relu4_1-R
I0418 23:53:54.265463 20669 net.cpp:406] relu4_1-R <- conv4_1-R
I0418 23:53:54.265471 20669 net.cpp:367] relu4_1-R -> conv4_1-R (in-place)
I0418 23:53:54.265741 20669 net.cpp:122] Setting up relu4_1-R
I0418 23:53:54.265756 20669 net.cpp:129] Top shape: 1 512 89 64 (2916352)
I0418 23:53:54.265761 20669 net.cpp:137] Memory required for data: 1664764180
I0418 23:53:54.265765 20669 layer_factory.hpp:77] Creating layer conv4_2-R
I0418 23:53:54.265779 20669 net.cpp:84] Creating Layer conv4_2-R
I0418 23:53:54.265784 20669 net.cpp:406] conv4_2-R <- conv4_1-R
I0418 23:53:54.265794 20669 net.cpp:380] conv4_2-R -> conv4_2-R
I0418 23:53:54.275647 20669 net.cpp:122] Setting up conv4_2-R
I0418 23:53:54.275668 20669 net.cpp:129] Top shape: 1 512 89 64 (2916352)
I0418 23:53:54.275673 20669 net.cpp:137] Memory required for data: 1676429588
I0418 23:53:54.275684 20669 layer_factory.hpp:77] Creating layer relu4_2-R
I0418 23:53:54.275693 20669 net.cpp:84] Creating Layer relu4_2-R
I0418 23:53:54.275699 20669 net.cpp:406] relu4_2-R <- conv4_2-R
I0418 23:53:54.275707 20669 net.cpp:367] relu4_2-R -> conv4_2-R (in-place)
I0418 23:53:54.275949 20669 net.cpp:122] Setting up relu4_2-R
I0418 23:53:54.275961 20669 net.cpp:129] Top shape: 1 512 89 64 (2916352)
I0418 23:53:54.275965 20669 net.cpp:137] Memory required for data: 1688094996
I0418 23:53:54.275970 20669 layer_factory.hpp:77] Creating layer conv4_3-R
I0418 23:53:54.275981 20669 net.cpp:84] Creating Layer conv4_3-R
I0418 23:53:54.275986 20669 net.cpp:406] conv4_3-R <- conv4_2-R
I0418 23:53:54.275995 20669 net.cpp:380] conv4_3-R -> conv4_3-R
I0418 23:53:54.284278 20669 net.cpp:122] Setting up conv4_3-R
I0418 23:53:54.284297 20669 net.cpp:129] Top shape: 1 512 89 64 (2916352)
I0418 23:53:54.284317 20669 net.cpp:137] Memory required for data: 1699760404
I0418 23:53:54.284324 20669 layer_factory.hpp:77] Creating layer relu4_3-R
I0418 23:53:54.284332 20669 net.cpp:84] Creating Layer relu4_3-R
I0418 23:53:54.284337 20669 net.cpp:406] relu4_3-R <- conv4_3-R
I0418 23:53:54.284343 20669 net.cpp:367] relu4_3-R -> conv4_3-R (in-place)
I0418 23:53:54.284994 20669 net.cpp:122] Setting up relu4_3-R
I0418 23:53:54.285007 20669 net.cpp:129] Top shape: 1 512 89 64 (2916352)
I0418 23:53:54.285027 20669 net.cpp:137] Memory required for data: 1711425812
I0418 23:53:54.285030 20669 layer_factory.hpp:77] Creating layer pool4-R
I0418 23:53:54.285039 20669 net.cpp:84] Creating Layer pool4-R
I0418 23:53:54.285043 20669 net.cpp:406] pool4-R <- conv4_3-R
I0418 23:53:54.285050 20669 net.cpp:380] pool4-R -> pool4-R
I0418 23:53:54.285117 20669 net.cpp:122] Setting up pool4-R
I0418 23:53:54.285123 20669 net.cpp:129] Top shape: 1 512 45 32 (737280)
I0418 23:53:54.285126 20669 net.cpp:137] Memory required for data: 1714374932
I0418 23:53:54.285130 20669 layer_factory.hpp:77] Creating layer pool4-R_pool4-R_0_split
I0418 23:53:54.285135 20669 net.cpp:84] Creating Layer pool4-R_pool4-R_0_split
I0418 23:53:54.285138 20669 net.cpp:406] pool4-R_pool4-R_0_split <- pool4-R
I0418 23:53:54.285145 20669 net.cpp:380] pool4-R_pool4-R_0_split -> pool4-R_pool4-R_0_split_0
I0418 23:53:54.285151 20669 net.cpp:380] pool4-R_pool4-R_0_split -> pool4-R_pool4-R_0_split_1
I0418 23:53:54.285187 20669 net.cpp:122] Setting up pool4-R_pool4-R_0_split
I0418 23:53:54.285192 20669 net.cpp:129] Top shape: 1 512 45 32 (737280)
I0418 23:53:54.285195 20669 net.cpp:129] Top shape: 1 512 45 32 (737280)
I0418 23:53:54.285199 20669 net.cpp:137] Memory required for data: 1720273172
I0418 23:53:54.285203 20669 layer_factory.hpp:77] Creating layer conv5_1-R
I0418 23:53:54.285212 20669 net.cpp:84] Creating Layer conv5_1-R
I0418 23:53:54.285214 20669 net.cpp:406] conv5_1-R <- pool4-R_pool4-R_0_split_0
I0418 23:53:54.285219 20669 net.cpp:380] conv5_1-R -> conv5_1-R
I0418 23:53:54.293159 20669 net.cpp:122] Setting up conv5_1-R
I0418 23:53:54.293191 20669 net.cpp:129] Top shape: 1 512 45 32 (737280)
I0418 23:53:54.293196 20669 net.cpp:137] Memory required for data: 1723222292
I0418 23:53:54.293220 20669 layer_factory.hpp:77] Creating layer relu5_1-R
I0418 23:53:54.293228 20669 net.cpp:84] Creating Layer relu5_1-R
I0418 23:53:54.293233 20669 net.cpp:406] relu5_1-R <- conv5_1-R
I0418 23:53:54.293254 20669 net.cpp:367] relu5_1-R -> conv5_1-R (in-place)
I0418 23:53:54.293449 20669 net.cpp:122] Setting up relu5_1-R
I0418 23:53:54.293459 20669 net.cpp:129] Top shape: 1 512 45 32 (737280)
I0418 23:53:54.293462 20669 net.cpp:137] Memory required for data: 1726171412
I0418 23:53:54.293467 20669 layer_factory.hpp:77] Creating layer conv5_2-R
I0418 23:53:54.293476 20669 net.cpp:84] Creating Layer conv5_2-R
I0418 23:53:54.293480 20669 net.cpp:406] conv5_2-R <- conv5_1-R
I0418 23:53:54.293488 20669 net.cpp:380] conv5_2-R -> conv5_2-R
I0418 23:53:54.311050 20669 net.cpp:122] Setting up conv5_2-R
I0418 23:53:54.311103 20669 net.cpp:129] Top shape: 1 512 45 32 (737280)
I0418 23:53:54.311113 20669 net.cpp:137] Memory required for data: 1729120532
I0418 23:53:54.311132 20669 layer_factory.hpp:77] Creating layer relu5_2-R
I0418 23:53:54.311152 20669 net.cpp:84] Creating Layer relu5_2-R
I0418 23:53:54.311164 20669 net.cpp:406] relu5_2-R <- conv5_2-R
I0418 23:53:54.311177 20669 net.cpp:367] relu5_2-R -> conv5_2-R (in-place)
I0418 23:53:54.311594 20669 net.cpp:122] Setting up relu5_2-R
I0418 23:53:54.311612 20669 net.cpp:129] Top shape: 1 512 45 32 (737280)
I0418 23:53:54.311619 20669 net.cpp:137] Memory required for data: 1732069652
I0418 23:53:54.311627 20669 layer_factory.hpp:77] Creating layer conv5_3-R
I0418 23:53:54.311647 20669 net.cpp:84] Creating Layer conv5_3-R
I0418 23:53:54.311656 20669 net.cpp:406] conv5_3-R <- conv5_2-R
I0418 23:53:54.311671 20669 net.cpp:380] conv5_3-R -> conv5_3-R
I0418 23:53:54.325911 20669 net.cpp:122] Setting up conv5_3-R
I0418 23:53:54.325947 20669 net.cpp:129] Top shape: 1 512 45 32 (737280)
I0418 23:53:54.325951 20669 net.cpp:137] Memory required for data: 1735018772
I0418 23:53:54.325960 20669 layer_factory.hpp:77] Creating layer relu5_3-R
I0418 23:53:54.325973 20669 net.cpp:84] Creating Layer relu5_3-R
I0418 23:53:54.325978 20669 net.cpp:406] relu5_3-R <- conv5_3-R
I0418 23:53:54.325986 20669 net.cpp:367] relu5_3-R -> conv5_3-R (in-place)
I0418 23:53:54.326262 20669 net.cpp:122] Setting up relu5_3-R
I0418 23:53:54.326275 20669 net.cpp:129] Top shape: 1 512 45 32 (737280)
I0418 23:53:54.326280 20669 net.cpp:137] Memory required for data: 1737967892
I0418 23:53:54.326285 20669 layer_factory.hpp:77] Creating layer pool5-R
I0418 23:53:54.326294 20669 net.cpp:84] Creating Layer pool5-R
I0418 23:53:54.326299 20669 net.cpp:406] pool5-R <- conv5_3-R
I0418 23:53:54.326308 20669 net.cpp:380] pool5-R -> pool5-R
I0418 23:53:54.326380 20669 net.cpp:122] Setting up pool5-R
I0418 23:53:54.326388 20669 net.cpp:129] Top shape: 1 512 23 16 (188416)
I0418 23:53:54.326393 20669 net.cpp:137] Memory required for data: 1738721556
I0418 23:53:54.326397 20669 layer_factory.hpp:77] Creating layer fc6-R
I0418 23:53:54.326408 20669 net.cpp:84] Creating Layer fc6-R
I0418 23:53:54.326412 20669 net.cpp:406] fc6-R <- pool5-R
I0418 23:53:54.326421 20669 net.cpp:380] fc6-R -> fc6-R
I0418 23:53:54.665309 20669 net.cpp:122] Setting up fc6-R
I0418 23:53:54.665369 20669 net.cpp:129] Top shape: 1 4096 17 10 (696320)
I0418 23:53:54.665374 20669 net.cpp:137] Memory required for data: 1741506836
I0418 23:53:54.665385 20669 layer_factory.hpp:77] Creating layer relu6-R
I0418 23:53:54.665398 20669 net.cpp:84] Creating Layer relu6-R
I0418 23:53:54.665405 20669 net.cpp:406] relu6-R <- fc6-R
I0418 23:53:54.665413 20669 net.cpp:367] relu6-R -> fc6-R (in-place)
I0418 23:53:54.665627 20669 net.cpp:122] Setting up relu6-R
I0418 23:53:54.665638 20669 net.cpp:129] Top shape: 1 4096 17 10 (696320)
I0418 23:53:54.665642 20669 net.cpp:137] Memory required for data: 1744292116
I0418 23:53:54.665645 20669 layer_factory.hpp:77] Creating layer drop6-R
I0418 23:53:54.665653 20669 net.cpp:84] Creating Layer drop6-R
I0418 23:53:54.665657 20669 net.cpp:406] drop6-R <- fc6-R
I0418 23:53:54.665666 20669 net.cpp:367] drop6-R -> fc6-R (in-place)
I0418 23:53:54.665700 20669 net.cpp:122] Setting up drop6-R
I0418 23:53:54.665706 20669 net.cpp:129] Top shape: 1 4096 17 10 (696320)
I0418 23:53:54.665709 20669 net.cpp:137] Memory required for data: 1747077396
I0418 23:53:54.665714 20669 layer_factory.hpp:77] Creating layer fc7-R
I0418 23:53:54.665725 20669 net.cpp:84] Creating Layer fc7-R
I0418 23:53:54.665729 20669 net.cpp:406] fc7-R <- fc6-R
I0418 23:53:54.665736 20669 net.cpp:380] fc7-R -> fc7-R
I0418 23:53:54.723434 20669 net.cpp:122] Setting up fc7-R
I0418 23:53:54.723484 20669 net.cpp:129] Top shape: 1 4096 17 10 (696320)
I0418 23:53:54.723489 20669 net.cpp:137] Memory required for data: 1749862676
I0418 23:53:54.723501 20669 layer_factory.hpp:77] Creating layer relu7-R
I0418 23:53:54.723513 20669 net.cpp:84] Creating Layer relu7-R
I0418 23:53:54.723520 20669 net.cpp:406] relu7-R <- fc7-R
I0418 23:53:54.723527 20669 net.cpp:367] relu7-R -> fc7-R (in-place)
I0418 23:53:54.723758 20669 net.cpp:122] Setting up relu7-R
I0418 23:53:54.723769 20669 net.cpp:129] Top shape: 1 4096 17 10 (696320)
I0418 23:53:54.723773 20669 net.cpp:137] Memory required for data: 1752647956
I0418 23:53:54.723778 20669 layer_factory.hpp:77] Creating layer drop7-R
I0418 23:53:54.723785 20669 net.cpp:84] Creating Layer drop7-R
I0418 23:53:54.723789 20669 net.cpp:406] drop7-R <- fc7-R
I0418 23:53:54.723794 20669 net.cpp:367] drop7-R -> fc7-R (in-place)
I0418 23:53:54.723834 20669 net.cpp:122] Setting up drop7-R
I0418 23:53:54.723850 20669 net.cpp:129] Top shape: 1 4096 17 10 (696320)
I0418 23:53:54.723855 20669 net.cpp:137] Memory required for data: 1755433236
I0418 23:53:54.723857 20669 layer_factory.hpp:77] Creating layer score_fr-new-R
I0418 23:53:54.723868 20669 net.cpp:84] Creating Layer score_fr-new-R
I0418 23:53:54.723871 20669 net.cpp:406] score_fr-new-R <- fc7-R
I0418 23:53:54.723881 20669 net.cpp:380] score_fr-new-R -> score_fr-new-R
I0418 23:53:54.725201 20669 net.cpp:122] Setting up score_fr-new-R
I0418 23:53:54.725214 20669 net.cpp:129] Top shape: 1 3 17 10 (510)
I0418 23:53:54.725234 20669 net.cpp:137] Memory required for data: 1755435276
I0418 23:53:54.725239 20669 layer_factory.hpp:77] Creating layer upscore2-new-R
I0418 23:53:54.725250 20669 net.cpp:84] Creating Layer upscore2-new-R
I0418 23:53:54.725255 20669 net.cpp:406] upscore2-new-R <- score_fr-new-R
I0418 23:53:54.725260 20669 net.cpp:380] upscore2-new-R -> upscore2-new-R
I0418 23:53:54.725518 20669 net.cpp:122] Setting up upscore2-new-R
I0418 23:53:54.725528 20669 net.cpp:129] Top shape: 1 3 36 22 (2376)
I0418 23:53:54.725530 20669 net.cpp:137] Memory required for data: 1755444780
I0418 23:53:54.725535 20669 layer_factory.hpp:77] Creating layer upscore2-new-R_upscore2-new-R_0_split
I0418 23:53:54.725553 20669 net.cpp:84] Creating Layer upscore2-new-R_upscore2-new-R_0_split
I0418 23:53:54.725558 20669 net.cpp:406] upscore2-new-R_upscore2-new-R_0_split <- upscore2-new-R
I0418 23:53:54.725563 20669 net.cpp:380] upscore2-new-R_upscore2-new-R_0_split -> upscore2-new-R_upscore2-new-R_0_split_0
I0418 23:53:54.725571 20669 net.cpp:380] upscore2-new-R_upscore2-new-R_0_split -> upscore2-new-R_upscore2-new-R_0_split_1
I0418 23:53:54.725612 20669 net.cpp:122] Setting up upscore2-new-R_upscore2-new-R_0_split
I0418 23:53:54.725617 20669 net.cpp:129] Top shape: 1 3 36 22 (2376)
I0418 23:53:54.725621 20669 net.cpp:129] Top shape: 1 3 36 22 (2376)
I0418 23:53:54.725625 20669 net.cpp:137] Memory required for data: 1755463788
I0418 23:53:54.725628 20669 layer_factory.hpp:77] Creating layer score_pool4-new-R
I0418 23:53:54.725638 20669 net.cpp:84] Creating Layer score_pool4-new-R
I0418 23:53:54.725642 20669 net.cpp:406] score_pool4-new-R <- pool4-R_pool4-R_0_split_1
I0418 23:53:54.725651 20669 net.cpp:380] score_pool4-new-R -> score_pool4-new-R
I0418 23:53:54.727002 20669 net.cpp:122] Setting up score_pool4-new-R
I0418 23:53:54.727033 20669 net.cpp:129] Top shape: 1 3 45 32 (4320)
I0418 23:53:54.727036 20669 net.cpp:137] Memory required for data: 1755481068
I0418 23:53:54.727043 20669 layer_factory.hpp:77] Creating layer score_pool4c-R
I0418 23:53:54.727051 20669 net.cpp:84] Creating Layer score_pool4c-R
I0418 23:53:54.727054 20669 net.cpp:406] score_pool4c-R <- score_pool4-new-R
I0418 23:53:54.727059 20669 net.cpp:406] score_pool4c-R <- upscore2-new-R_upscore2-new-R_0_split_0
I0418 23:53:54.727066 20669 net.cpp:380] score_pool4c-R -> score_pool4c-R
I0418 23:53:54.727113 20669 net.cpp:122] Setting up score_pool4c-R
I0418 23:53:54.727121 20669 net.cpp:129] Top shape: 1 3 36 22 (2376)
I0418 23:53:54.727124 20669 net.cpp:137] Memory required for data: 1755490572
I0418 23:53:54.727128 20669 layer_factory.hpp:77] Creating layer fuse_pool4-R
I0418 23:53:54.727134 20669 net.cpp:84] Creating Layer fuse_pool4-R
I0418 23:53:54.727138 20669 net.cpp:406] fuse_pool4-R <- upscore2-new-R_upscore2-new-R_0_split_1
I0418 23:53:54.727143 20669 net.cpp:406] fuse_pool4-R <- score_pool4c-R
I0418 23:53:54.727147 20669 net.cpp:380] fuse_pool4-R -> fuse_pool4-R
I0418 23:53:54.727175 20669 net.cpp:122] Setting up fuse_pool4-R
I0418 23:53:54.727180 20669 net.cpp:129] Top shape: 1 3 36 22 (2376)
I0418 23:53:54.727182 20669 net.cpp:137] Memory required for data: 1755500076
I0418 23:53:54.727186 20669 layer_factory.hpp:77] Creating layer upscore_pool4-new-R
I0418 23:53:54.727195 20669 net.cpp:84] Creating Layer upscore_pool4-new-R
I0418 23:53:54.727197 20669 net.cpp:406] upscore_pool4-new-R <- fuse_pool4-R
I0418 23:53:54.727202 20669 net.cpp:380] upscore_pool4-new-R -> upscore_pool4-new-R
I0418 23:53:54.727438 20669 net.cpp:122] Setting up upscore_pool4-new-R
I0418 23:53:54.727447 20669 net.cpp:129] Top shape: 1 3 74 46 (10212)
I0418 23:53:54.727450 20669 net.cpp:137] Memory required for data: 1755540924
I0418 23:53:54.727454 20669 layer_factory.hpp:77] Creating layer upscore_pool4-new-R_upscore_pool4-new-R_0_split
I0418 23:53:54.727463 20669 net.cpp:84] Creating Layer upscore_pool4-new-R_upscore_pool4-new-R_0_split
I0418 23:53:54.727465 20669 net.cpp:406] upscore_pool4-new-R_upscore_pool4-new-R_0_split <- upscore_pool4-new-R
I0418 23:53:54.727471 20669 net.cpp:380] upscore_pool4-new-R_upscore_pool4-new-R_0_split -> upscore_pool4-new-R_upscore_pool4-new-R_0_split_0
I0418 23:53:54.727478 20669 net.cpp:380] upscore_pool4-new-R_upscore_pool4-new-R_0_split -> upscore_pool4-new-R_upscore_pool4-new-R_0_split_1
I0418 23:53:54.727517 20669 net.cpp:122] Setting up upscore_pool4-new-R_upscore_pool4-new-R_0_split
I0418 23:53:54.727530 20669 net.cpp:129] Top shape: 1 3 74 46 (10212)
I0418 23:53:54.727533 20669 net.cpp:129] Top shape: 1 3 74 46 (10212)
I0418 23:53:54.727536 20669 net.cpp:137] Memory required for data: 1755622620
I0418 23:53:54.727540 20669 layer_factory.hpp:77] Creating layer score_pool3-new-R
I0418 23:53:54.727551 20669 net.cpp:84] Creating Layer score_pool3-new-R
I0418 23:53:54.727556 20669 net.cpp:406] score_pool3-new-R <- pool3-R_pool3-R_0_split_1
I0418 23:53:54.727563 20669 net.cpp:380] score_pool3-new-R -> score_pool3-new-R
I0418 23:53:54.728888 20669 net.cpp:122] Setting up score_pool3-new-R
I0418 23:53:54.728919 20669 net.cpp:129] Top shape: 1 3 89 64 (17088)
I0418 23:53:54.728921 20669 net.cpp:137] Memory required for data: 1755690972
I0418 23:53:54.728929 20669 layer_factory.hpp:77] Creating layer score_pool3c-R
I0418 23:53:54.728935 20669 net.cpp:84] Creating Layer score_pool3c-R
I0418 23:53:54.728940 20669 net.cpp:406] score_pool3c-R <- score_pool3-new-R
I0418 23:53:54.728945 20669 net.cpp:406] score_pool3c-R <- upscore_pool4-new-R_upscore_pool4-new-R_0_split_0
I0418 23:53:54.728952 20669 net.cpp:380] score_pool3c-R -> score_pool3c-R
I0418 23:53:54.729001 20669 net.cpp:122] Setting up score_pool3c-R
I0418 23:53:54.729007 20669 net.cpp:129] Top shape: 1 3 74 46 (10212)
I0418 23:53:54.729009 20669 net.cpp:137] Memory required for data: 1755731820
I0418 23:53:54.729012 20669 layer_factory.hpp:77] Creating layer fuse_pool3-R
I0418 23:53:54.729019 20669 net.cpp:84] Creating Layer fuse_pool3-R
I0418 23:53:54.729022 20669 net.cpp:406] fuse_pool3-R <- upscore_pool4-new-R_upscore_pool4-new-R_0_split_1
I0418 23:53:54.729027 20669 net.cpp:406] fuse_pool3-R <- score_pool3c-R
I0418 23:53:54.729032 20669 net.cpp:380] fuse_pool3-R -> fuse_pool3-R
I0418 23:53:54.729059 20669 net.cpp:122] Setting up fuse_pool3-R
I0418 23:53:54.729063 20669 net.cpp:129] Top shape: 1 3 74 46 (10212)
I0418 23:53:54.729066 20669 net.cpp:137] Memory required for data: 1755772668
I0418 23:53:54.729069 20669 layer_factory.hpp:77] Creating layer upscore8-new-R
I0418 23:53:54.729079 20669 net.cpp:84] Creating Layer upscore8-new-R
I0418 23:53:54.729082 20669 net.cpp:406] upscore8-new-R <- fuse_pool3-R
I0418 23:53:54.729089 20669 net.cpp:380] upscore8-new-R -> upscore8-new-R
I0418 23:53:54.729343 20669 net.cpp:122] Setting up upscore8-new-R
I0418 23:53:54.729351 20669 net.cpp:129] Top shape: 1 3 600 376 (676800)
I0418 23:53:54.729355 20669 net.cpp:137] Memory required for data: 1758479868
I0418 23:53:54.729359 20669 layer_factory.hpp:77] Creating layer upscore8_cropped-R
I0418 23:53:54.729367 20669 net.cpp:84] Creating Layer upscore8_cropped-R
I0418 23:53:54.729369 20669 net.cpp:406] upscore8_cropped-R <- upscore8-new-R
I0418 23:53:54.729375 20669 net.cpp:406] upscore8_cropped-R <- data-R_crop_0_split_1
I0418 23:53:54.729380 20669 net.cpp:380] upscore8_cropped-R -> upscore8_cropped-R
I0418 23:53:54.729405 20669 net.cpp:122] Setting up upscore8_cropped-R
I0418 23:53:54.729410 20669 net.cpp:129] Top shape: 1 3 512 310 (476160)
I0418 23:53:54.729413 20669 net.cpp:137] Memory required for data: 1760384508
I0418 23:53:54.729416 20669 layer_factory.hpp:77] Creating layer score-R
I0418 23:53:54.729427 20669 net.cpp:84] Creating Layer score-R
I0418 23:53:54.729431 20669 net.cpp:406] score-R <- upscore8_cropped-R
I0418 23:53:54.729437 20669 net.cpp:380] score-R -> score-R
I0418 23:53:54.731345 20669 net.cpp:122] Setting up score-R
I0418 23:53:54.731359 20669 net.cpp:129] Top shape: 1 3 512 310 (476160)
I0418 23:53:54.731362 20669 net.cpp:137] Memory required for data: 1762289148
I0418 23:53:54.731369 20669 layer_factory.hpp:77] Creating layer score_uncropped-R
I0418 23:53:54.731670 20669 net.cpp:84] Creating Layer score_uncropped-R
I0418 23:53:54.731683 20669 net.cpp:406] score_uncropped-R <- crop_info
I0418 23:53:54.731688 20669 net.cpp:406] score_uncropped-R <- score-R
I0418 23:53:54.731693 20669 net.cpp:406] score_uncropped-R <- data_data_0_split_3
I0418 23:53:54.731698 20669 net.cpp:380] score_uncropped-R -> score_uncropped-R
I0418 23:53:54.733427 20669 net.cpp:122] Setting up score_uncropped-R
I0418 23:53:54.733440 20669 net.cpp:129] Top shape: 1 3 512 310 (476160)
I0418 23:53:54.733459 20669 net.cpp:137] Memory required for data: 1764193788
I0418 23:53:54.733463 20669 layer_factory.hpp:77] Creating layer loss1
I0418 23:53:54.733475 20669 net.cpp:84] Creating Layer loss1
I0418 23:53:54.733480 20669 net.cpp:406] loss1 <- score_score_0_split_1
I0418 23:53:54.733485 20669 net.cpp:406] loss1 <- label_data_1_split_1
I0418 23:53:54.733490 20669 net.cpp:380] loss1 -> loss1
…
snapshot_prefix: "/media/Med_2T2/data2/models/snapshots/indiv:1e-5x10,20/FD2:YI3_1_20180418_201422/train"
test_initialization: false
average_loss: 20
stepvalue: 40000
iter_size: 1
I0419 00:41:42.504168 20669 solver.cpp:77] Creating training net from train_net file: /media/Med_2T2/data2/prototxts/training_I3x10.prototxt
I0419 00:41:42.506259 20669 net.cpp:51] Initializing net from parameters: 
state {
  phase: TRAIN
}
layer {
  name: "data"
  type: "Python"
  top: "data"
  top: "label"
  top: "crop_margin"
  top: "crop_prob"
  top: "crop_sample_batch"
  python_param {
    module: "Data"
    layer: "DataLayer"
  }
}
layer {
  name: "conv1_1"
  type: "Convolution"
  bottom: "data"
  top: "conv1_1"
  param {
    lr_mult: 1
    decay_mult: 1
  }
  param {
    lr_mult: 2
    decay_mult: 0
  }
  convolution_param {
    num_output: 64
    pad: 100
    kernel_size: 3
    stride: 1
  }
}
layer {
  name: "relu1_1"
  type: "ReLU"
  bottom: "conv1_1"
  top: "conv1_1"
}
layer {
  name: "conv1_2"
  type: "Convolution"
  bottom: "conv1_1"
  top: "conv1_2"
  param {
    lr_mult: 1
    decay_mult: 1
  }
  param {
    lr_mult: 2
    decay_mult: 0
  }
  convolution_param {
    num_output: 64
    pad: 1
    kernel_size: 3
    stride: 1
  }
}
layer {
  name: "relu1_2"
  type: "ReLU"
  bottom: "conv1_2"
  top: "conv1_2"
}
layer {
  name: "pool1"
  type: "Pooling"
  bottom: "conv1_2"
  top: "pool1"
  pooling_param {
    pool: MAX
    kernel_size: 2
    stride: 2
  }
}
layer {
  name: "conv2_1"
  type: "Convolution"
  bottom: "pool1"
  top: "conv2_1"
  param {
    lr_mult: 1
    decay_mult: 1
  }
  param {
    lr_mult: 2
    decay_mult: 0
  }
  convolution_param {
    num_output: 128
    pad: 1
    kernel_size: 3
    stride: 1
  }
}
layer {
  name: "relu2_1"
  type: "ReLU"
  bottom: "conv2_1"
  top: "conv2_1"
}
layer {
  name: "conv2_2"
  type: "Convolution"
  bottom: "conv2_1"
  top: "conv2_2"
  param {
    lr_mult: 1
    decay_mult: 1
  }
  param {
    lr_mult: 2
    decay_mult: 0
  }
  convolution_param {
    num_output: 128
    pad: 1
    kernel_size: 3
    stride: 1
  }
}
layer {
  name: "relu2_2"
  type: "ReLU"
  bottom: "conv2_2"
  top: "conv2_2"
}
layer {
  name: "pool2"
  type: "Pooling"
  bottom: "conv2_2"
  top: "pool2"
  pooling_param {
    pool: MAX
    kernel_size: 2
    stride: 2
  }
}
layer {
  name: "conv3_1"
  type: "Convolution"
  bottom: "pool2"
  top: "conv3_1"
  param {
    lr_mult: 1
    decay_mult: 1
  }
  param {
    lr_mult: 2
    decay_mult: 0
  }
  convolution_param {
    num_output: 256
    pad: 1
    kernel_size: 3
    stride: 1
  }
}
layer {
  name: "relu3_1"
  type: "ReLU"
  bottom: "conv3_1"
  top: "conv3_1"
}
layer {
  name: "conv3_2"
  type: "Convolution"
  bottom: "conv3_1"
  top: "conv3_2"
  param {
    lr_mult: 1
    decay_mult: 1
  }
  param {
    lr_mult: 2
    decay_mult: 0
  }
  convolution_param {
    num_output: 256
    pad: 1
    kernel_size: 3
    stride: 1
  }
}
layer {
  name: "relu3_2"
  type: "ReLU"
  bottom: "conv3_2"
  top: "conv3_2"
}
layer {
  name: "conv3_3"
  type: "Convolution"
  bottom: "conv3_2"
  top: "conv3_3"
  param {
    lr_mult: 1
    decay_mult: 1
  }
  param {
    lr_mult: 2
    decay_mult: 0
  }
  convolution_param {
    num_output: 256
    pad: 1
    kernel_size: 3
    stride: 1
  }
}
layer {
  name: "relu3_3"
  type: "ReLU"
  bottom: "conv3_3"
  top: "conv3_3"
}
layer {
  name: "pool3"
  type: "Pooling"
  bottom: "conv3_3"
  top: "pool3"
  pooling_param {
    pool: MAX
    kernel_size: 2
    stride: 2
  }
}
layer {
  name: "conv4_1"
  type: "Convolution"
  bottom: "pool3"
  top: "conv4_1"
  param {
    lr_mult: 1
    decay_mult: 1
  }
  param {
    lr_mult: 2
    decay_mult: 0
  }
  convolution_param {
    num_output: 512
    pad: 1
    kernel_size: 3
    stride: 1
  }
}
layer {
  name: "relu4_1"
  type: "ReLU"
  bottom: "conv4_1"
  top: "conv4_1"
}
layer {
  name: "conv4_2"
  type: "Convolution"
  bottom: "conv4_1"
  top: "conv4_2"
  param {
    lr_mult: 1
    decay_mult: 1
  }
  param {
    lr_mult: 2
    decay_mult: 0
  }
  convolution_param {
    num_output: 512
    pad: 1
    kernel_size: 3
    stride: 1
  }
}
layer {
  name: "relu4_2"
  type: "ReLU"
  bottom: "conv4_2"
  top: "conv4_2"
}
layer {
  name: "conv4_3"
  type: "Convolution"
  bottom: "conv4_2"
  top: "conv4_3"
  param {
    lr_mult: 1
    decay_mult: 1
  }
  param {
    lr_mult: 2
    decay_mult: 0
  }
  convolution_param {
    num_output: 512
    pad: 1
    kernel_size: 3
    stride: 1
  }
}
layer {
  name: "relu4_3"
  type: "ReLU"
  bottom: "conv4_3"
  top: "conv4_3"
}
layer {
  name: "pool4"
  type: "Pooling"
  bottom: "conv4_3"
  top: "pool4"
  pooling_param {
    pool: MAX
    kernel_size: 2
    stride: 2
  }
}
layer {
  name: "conv5_1"
  type: "Convolution"
  bottom: "pool4"
  top: "conv5_1"
  param {
    lr_mult: 1
    decay_mult: 1
  }
  param {
    lr_mult: 2
    decay_mult: 0
  }
  convolution_param {
    num_output: 512
    pad: 1
    kernel_size: 3
    stride: 1
  }
}
layer {
  name: "relu5_1"
  type: "ReLU"
  bottom: "conv5_1"
  top: "conv5_1"
}
layer {
  name: "conv5_2"
  type: "Convolution"
  bottom: "conv5_1"
  top: "conv5_2"
  param {
    lr_mult: 1
    decay_mult: 1
  }
  param {
    lr_mult: 2
    decay_mult: 0
  }
  convolution_param {
    num_output: 512
    pad: 1
    kernel_size: 3
    stride: 1
  }
}
layer {
  name: "relu5_2"
  type: "ReLU"
  bottom: "conv5_2"
  top: "conv5_2"
}
layer {
  name: "conv5_3"
  type: "Convolution"
  bottom: "conv5_2"
  top: "conv5_3"
  param {
    lr_mult: 1
    decay_mult: 1
  }
  param {
    lr_mult: 2
    decay_mult: 0
  }
  convolution_param {
    num_output: 512
    pad: 1
    kernel_size: 3
    stride: 1
  }
}
layer {
  name: "relu5_3"
  type: "ReLU"
  bottom: "conv5_3"
  top: "conv5_3"
}
layer {
  name: "pool5"
  type: "Pooling"
  bottom: "conv5_3"
  top: "pool5"
  pooling_param {
    pool: MAX
    kernel_size: 2
    stride: 2
  }
}
layer {
  name: "fc6"
  type: "Convolution"
  bottom: "pool5"
  top: "fc6"
  param {
    lr_mult: 1
    decay_mult: 1
  }
  param {
    lr_mult: 2
    decay_mult: 0
  }
  convolution_param {
    num_output: 4096
    pad: 0
    kernel_size: 7
    stride: 1
  }
}
layer {
  name: "relu6"
  type: "ReLU"
  bottom: "fc6"
  top: "fc6"
}
layer {
  name: "drop6"
  type: "Dropout"
  bottom: "fc6"
  top: "fc6"
  dropout_param {
    dropout_ratio: 0.5
  }
}
layer {
  name: "fc7"
  type: "Convolution"
  bottom: "fc6"
  top: "fc7"
  param {
    lr_mult: 1
    decay_mult: 1
  }
  param {
    lr_mult: 2
    decay_mult: 0
  }
  convolution_param {
    num_output: 4096
    pad: 0
    kernel_size: 1
    stride: 1
  }
}
layer {
  name: "relu7"
  type: "ReLU"
  bottom: "fc7"
  top: "fc7"
}
layer {
  name: "drop7"
  type: "Dropout"
  bottom: "fc7"
  top: "fc7"
  dropout_param {
    dropout_ratio: 0.5
  }
}
layer {
  name: "score_fr-new"
  type: "Convolution"
  bottom: "fc7"
  top: "score_fr-new"
  param {
    lr_mult: 1
    decay_mult: 1
  }
  param {
    lr_mult: 2
    decay_mult: 0
  }
  convolution_param {
    num_output: 3
    kernel_size: 1
  }
}
layer {
  name: "upscore2-new"
  type: "Deconvolution"
  bottom: "score_fr-new"
  top: "upscore2-new"
  param {
    lr_mult: 0
  }
  convolution_param {
    num_output: 3
    bias_term: false
    kernel_size: 4
    stride: 2
  }
}
layer {
  name: "score_pool4-new"
  type: "Convolution"
  bottom: "pool4"
  top: "score_pool4-new"
  param {
    lr_mult: 1
    decay_mult: 1
  }
  param {
    lr_mult: 2
    decay_mult: 0
  }
  convolution_param {
    num_output: 3
    pad: 0
    kernel_size: 1
  }
}
layer {
  name: "score_pool4c"
  type: "Crop"
  bottom: "score_pool4-new"
  bottom: "upscore2-new"
  top: "score_pool4c"
  crop_param {
    axis: 2
    offset: 5
  }
}
layer {
  name: "fuse_pool4"
  type: "Eltwise"
  bottom: "upscore2-new"
  bottom: "score_pool4c"
  top: "fuse_pool4"
  eltwise_param {
    operation: SUM
  }
}
layer {
  name: "upscore_pool4-new"
  type: "Deconvolution"
  bottom: "fuse_pool4"
  top: "upscore_pool4-new"
  param {
    lr_mult: 0
  }
  convolution_param {
    num_output: 3
    bias_term: false
    kernel_size: 4
    stride: 2
  }
}
layer {
  name: "score_pool3-new"
  type: "Convolution"
  bottom: "pool3"
  top: "score_pool3-new"
  param {
    lr_mult: 1
    decay_mult: 1
  }
  param {
    lr_mult: 2
    decay_mult: 0
  }
  convolution_param {
    num_output: 3
    pad: 0
    kernel_size: 1
  }
}
layer {
  name: "score_pool3c"
  type: "Crop"
  bottom: "score_pool3-new"
  bottom: "upscore_pool4-new"
  top: "score_pool3c"
  crop_param {
    axis: 2
    offset: 9
  }
}
layer {
  name: "fuse_pool3"
  type: "Eltwise"
  bottom: "upscore_pool4-new"
  bottom: "score_pool3c"
  top: "fuse_pool3"
  eltwise_param {
    operation: SUM
  }
}
layer {
  name: "upscore8-new"
  type: "Deconvolution"
  bottom: "fuse_pool3"
  top: "upscore8-new"
  param {
    lr_mult: 0
  }
  convolution_param {
    num_output: 3
    bias_term: false
    kernel_size: 16
    stride: 8
  }
}
layer {
  name: "upscore8_cropped"
  type: "Crop"
  bottom: "upscore8-new"
  bottom: "data"
  top: "upscore8_cropped"
  crop_param {
    axis: 2
    offset: 31
  }
}
layer {
  name: "score"
  type: "Convolution"
  bottom: "upscore8_cropped"
  top: "score"
  param {
    lr_mult: 1
    decay_mult: 1
  }
  param {
    lr_mult: 2
    decay_mult: 0
  }
  convolution_param {
    num_output: 3
    pad: 1
    kernel_size: 3
    stride: 1
    weight_filler {
      type: "xavier"
    }
    bias_filler {
      type: "constant"
      value: 0
    }
  }
}
layer {
  name: "prob"
  type: "Sigmoid"
  bottom: "score"
  top: "prob"
}
layer {
  name: "saliency"
  type: "Convolution"
  bottom: "prob"
  top: "saliency"
  param {
    lr_mult: 10
    decay_mult: 1
  }
  param {
    lr_mult: 20
    decay_mult: 0
  }
  convolution_param {
    num_output: 3
    pad: 2
    kernel_size: 5
    stride: 1
    weight_filler {
      type: "xavier"
    }
    bias_filler {
      type: "constant"
      value: 1
    }
  }
}
layer {
  name: "saliency_data"
  type: "Eltwise"
  bottom: "data"
  bottom: "saliency"
  top: "saliency_data"
  eltwise_param {
    operation: PROD
  }
}
layer {
  name: "crop"
  type: "Python"
  bottom: "label"
  bottom: "saliency_data"
  bottom: "crop_margin"
  bottom: "crop_prob"
  bottom: "crop_sample_batch"
  top: "data-R"
  top: "crop_info"
  python_param {
    module: "Crop"
    layer: "CropLayer"
    param_str: "{\"TEST\": 0}"
  }
}
layer {
  name: "conv1_1-R"
  type: "Convolution"
  bottom: "data-R"
  top: "conv1_1-R"
  param {
    lr_mult: 10
    decay_mult: 1
  }
  param {
    lr_mult: 20
    decay_mult: 0
  }
  convolution_param {
    num_output: 64
    pad: 100
    kernel_size: 3
    stride: 1
  }
}
layer {
  name: "relu1_1-R"
  type: "ReLU"
  bottom: "conv1_1-R"
  top: "conv1_1-R"
}
layer {
  name: "conv1_2-R"
  type: "Convolution"
  bottom: "conv1_1-R"
  top: "conv1_2-R"
  param {
    lr_mult: 10
    decay_mult: 1
  }
  param {
    lr_mult: 20
    decay_mult: 0
  }
  convolution_param {
    num_output: 64
    pad: 1
    kernel_size: 3
    stride: 1
  }
}
layer {
  name: "relu1_2-R"
  type: "ReLU"
  bottom: "conv1_2-R"
  top: "conv1_2-R"
}
layer {
  name: "pool1-R"
  type: "Pooling"
  bottom: "conv1_2-R"
  top: "pool1-R"
  pooling_param {
    pool: MAX
    kernel_size: 2
    stride: 2
  }
}
layer {
  name: "conv2_1-R"
  type: "Convolution"
  bottom: "pool1-R"
  top: "conv2_1-R"
  param {
    lr_mult: 10
    decay_mult: 1
  }
  param {
    lr_mult: 20
    decay_mult: 0
  }
  convolution_param {
    num_output: 128
    pad: 1
    kernel_size: 3
    stride: 1
  }
}
layer {
  name: "relu2_1-R"
  type: "ReLU"
  bottom: "conv2_1-R"
  top: "conv2_1-R"
}
layer {
  name: "conv2_2-R"
  type: "Convolution"
  bottom: "conv2_1-R"
  top: "conv2_2-R"
  param {
    lr_mult: 10
    decay_mult: 1
  }
  param {
    lr_mult: 20
    decay_mult: 0
  }
  convolution_param {
    num_output: 128
    pad: 1
    kernel_size: 3
    stride: 1
  }
}
layer {
  name: "relu2_2-R"
  type: "ReLU"
  bottom: "conv2_2-R"
  top: "conv2_2-R"
}
layer {
  name: "pool2-R"
  type: "Pooling"
  bottom: "conv2_2-R"
  top: "pool2-R"
  pooling_param {
    pool: MAX
    kernel_size: 2
    stride: 2
  }
}
layer {
  name: "conv3_1-R"
  type: "Convolution"
  bottom: "pool2-R"
  top: "conv3_1-R"
  param {
    lr_mult: 10
    decay_mult: 1
  }
  param {
    lr_mult: 20
    decay_mult: 0
  }
  convolution_param {
    num_output: 256
    pad: 1
    kernel_size: 3
    stride: 1
  }
}
layer {
  name: "relu3_1-R"
  type: "ReLU"
  bottom: "conv3_1-R"
  top: "conv3_1-R"
}
layer {
  name: "conv3_2-R"
  type: "Convolution"
  bottom: "conv3_1-R"
  top: "conv3_2-R"
  param {
    lr_mult: 10
    decay_mult: 1
  }
  param {
    lr_mult: 20
    decay_mult: 0
  }
  convolution_param {
    num_output: 256
    pad: 1
    kernel_size: 3
    stride: 1
  }
}
layer {
  name: "relu3_2-R"
  type: "ReLU"
  bottom: "conv3_2-R"
  top: "conv3_2-R"
}
layer {
  name: "conv3_3-R"
  type: "Convolution"
  bottom: "conv3_2-R"
  top: "conv3_3-R"
  param {
    lr_mult: 10
    decay_mult: 1
  }
  param {
    lr_mult: 20
    decay_mult: 0
  }
  convolution_param {
    num_output: 256
    pad: 1
    kernel_size: 3
    stride: 1
  }
}
layer {
  name: "relu3_3-R"
  type: "ReLU"
  bottom: "conv3_3-R"
  top: "conv3_3-R"
}
layer {
  name: "pool3-R"
  type: "Pooling"
  bottom: "conv3_3-R"
  top: "pool3-R"
  pooling_param {
    pool: MAX
    kernel_size: 2
    stride: 2
  }
}
layer {
  name: "conv4_1-R"
  type: "Convolution"
  bottom: "pool3-R"
  top: "conv4_1-R"
  param {
    lr_mult: 10
    decay_mult: 1
  }
  param {
    lr_mult: 20
    decay_mult: 0
  }
  convolution_param {
    num_output: 512
    pad: 1
    kernel_size: 3
    stride: 1
  }
}
layer {
  name: "relu4_1-R"
  type: "ReLU"
  bottom: "conv4_1-R"
  top: "conv4_1-R"
}
layer {
  name: "conv4_2-R"
  type: "Convolution"
  bottom: "conv4_1-R"
  top: "conv4_2-R"
  param {
    lr_mult: 10
    decay_mult: 1
  }
  param {
    lr_mult: 20
    decay_mult: 0
  }
  convolution_param {
    num_output: 512
    pad: 1
    kernel_size: 3
    stride: 1
  }
}
layer {
  name: "relu4_2-R"
  type: "ReLU"
  bottom: "conv4_2-R"
  top: "conv4_2-R"
}
layer {
  name: "conv4_3-R"
  type: "Convolution"
  bottom: "conv4_2-R"
  top: "conv4_3-R"
  param {
    lr_mult: 10
    decay_mult: 1
  }
  param {
    lr_mult: 20
    decay_mult: 0
  }
  convolution_param {
    num_output: 512
    pad: 1
    kernel_size: 3
    stride: 1
  }
}
layer {
  name: "relu4_3-R"
  type: "ReLU"
  bottom: "conv4_3-R"
  top: "conv4_3-R"
}
layer {
  name: "pool4-R"
  type: "Pooling"
  bottom: "conv4_3-R"
  top: "pool4-R"
  pooling_param {
    pool: MAX
    kernel_size: 2
    stride: 2
  }
}
layer {
  name: "conv5_1-R"
  type: "Convolution"
  bottom: "pool4-R"
  top: "conv5_1-R"
  param {
    lr_mult: 10
    decay_mult: 1
  }
  param {
    lr_mult: 20
    decay_mult: 0
  }
  convolution_param {
    num_output: 512
    pad: 1
    kernel_size: 3
    stride: 1
  }
}
layer {
  name: "relu5_1-R"
  type: "ReLU"
  bottom: "conv5_1-R"
  top: "conv5_1-R"
}
layer {
  name: "conv5_2-R"
  type: "Convolution"
  bottom: "conv5_1-R"
  top: "conv5_2-R"
  param {
    lr_mult: 10
    decay_mult: 1
  }
  param {
    lr_mult: 20
    decay_mult: 0
  }
  convolution_param {
    num_output: 512
    pad: 1
    kernel_size: 3
    stride: 1
  }
}
layer {
  name: "relu5_2-R"
  type: "ReLU"
  bottom: "conv5_2-R"
  top: "conv5_2-R"
}
layer {
  name: "conv5_3-R"
  type: "Convolution"
  bottom: "conv5_2-R"
  top: "conv5_3-R"
  param {
    lr_mult: 10
    decay_mult: 1
  }
  param {
    lr_mult: 20
    decay_mult: 0
  }
  convolution_param {
    num_output: 512
    pad: 1
    kernel_size: 3
    stride: 1
  }
}
layer {
  name: "relu5_3-R"
  type: "ReLU"
  bottom: "conv5_3-R"
  top: "conv5_3-R"
}
layer {
  name: "pool5-R"
  type: "Pooling"
  bottom: "conv5_3-R"
  top: "pool5-R"
  pooling_param {
    pool: MAX
    kernel_size: 2
    stride: 2
  }
}
layer {
  name: "fc6-R"
  type: "Convolution"
  bottom: "pool5-R"
  top: "fc6-R"
  param {
    lr_mult: 10
    decay_mult: 1
  }
  param {
    lr_mult: 20
    decay_mult: 0
  }
  convolution_param {
    num_output: 4096
    pad: 0
    kernel_size: 7
    stride: 1
  }
}
layer {
  name: "relu6-R"
  type: "ReLU"
  bottom: "fc6-R"
  top: "fc6-R"
}
layer {
  name: "drop6-R"
  type: "Dropout"
  bottom: "fc6-R"
  top: "fc6-R"
  dropout_param {
    dropout_ratio: 0.5
  }
}
layer {
  name: "fc7-R"
  type: "Convolution"
  bottom: "fc6-R"
  top: "fc7-R"
  param {
    lr_mult: 10
    decay_mult: 1
  }
  param {
    lr_mult: 20
    decay_mult: 0
  }
  convolution_param {
    num_output: 4096
    pad: 0
    kernel_size: 1
    stride: 1
  }
}
layer {
  name: "relu7-R"
  type: "ReLU"
  bottom: "fc7-R"
  top: "fc7-R"
}
layer {
  name: "drop7-R"
  type: "Dropout"
  bottom: "fc7-R"
  top: "fc7-R"
  dropout_param {
    dropout_ratio: 0.5
  }
}
layer {
  name: "score_fr-new-R"
  type: "Convolution"
  bottom: "fc7-R"
  top: "score_fr-new-R"
  param {
    lr_mult: 10
    decay_mult: 1
  }
  param {
    lr_mult: 20
    decay_mult: 0
  }
  convolution_param {
    num_output: 3
    kernel_size: 1
  }
}
layer {
  name: "upscore2-new-R"
  type: "Deconvolution"
  bottom: "score_fr-new-R"
  top: "upscore2-new-R"
  param {
    lr_mult: 0
  }
  convolution_param {
    num_output: 3
    bias_term: false
    kernel_size: 4
    stride: 2
  }
}
layer {
  name: "score_pool4-new-R"
  type: "Convolution"
  bottom: "pool4-R"
  top: "score_pool4-new-R"
  param {
    lr_mult: 10
    decay_mult: 1
  }
  param {
    lr_mult: 20
    decay_mult: 0
  }
  convolution_param {
    num_output: 3
    pad: 0
    kernel_size: 1
  }
}
layer {
  name: "score_pool4c-R"
  type: "Crop"
  bottom: "score_pool4-new-R"
  bottom: "upscore2-new-R"
  top: "score_pool4c-R"
  crop_param {
    axis: 2
    offset: 5
  }
}
layer {
  name: "fuse_pool4-R"
  type: "Eltwise"
  bottom: "upscore2-new-R"
  bottom: "score_pool4c-R"
  top: "fuse_pool4-R"
  eltwise_param {
    operation: SUM
  }
}
layer {
  name: "upscore_pool4-new-R"
  type: "Deconvolution"
  bottom: "fuse_pool4-R"
  top: "upscore_pool4-new-R"
  param {
    lr_mult: 0
  }
  convolution_param {
    num_output: 3
    bias_term: false
    kernel_size: 4
    stride: 2
  }
}
layer {
  name: "score_pool3-new-R"
  type: "Convolution"
  bottom: "pool3-R"
  top: "score_pool3-new-R"
  param {
    lr_mult: 10
    decay_mult: 1
  }
  param {
    lr_mult: 20
    decay_mult: 0
  }
  convolution_param {
    num_output: 3
    pad: 0
    kernel_size: 1
  }
}
layer {
  name: "score_pool3c-R"
  type: "Crop"
  bottom: "score_pool3-new-R"
  bottom: "upscore_pool4-new-R"
  top: "score_pool3c-R"
  crop_param {
    axis: 2
    offset: 9
  }
}
layer {
  name: "fuse_pool3-R"
  type: "Eltwise"
  bottom: "upscore_pool4-new-R"
  bottom: "score_pool3c-R"
  top: "fuse_pool3-R"
  eltwise_param {
    operation: SUM
  }
}
layer {
  name: "upscore8-new-R"
  type: "Deconvolution"
  bottom: "fuse_pool3-R"
  top: "upscore8-new-R"
  param {
    lr_mult: 0
  }
  convolution_param {
    num_output: 3
    bias_term: false
    kernel_size: 16
    stride: 8
  }
}
layer {
  name: "upscore8_cropped-R"
  type: "Crop"
  bottom: "upscore8-new-R"
  bottom: "data-R"
  top: "upscore8_cropped-R"
  crop_param {
    axis: 2
    offset: 31
  }
}
layer {
  name: "score-R"
  type: "Convolution"
  bottom: "upscore8_cropped-R"
  top: "score-R"
  param {
    lr_mult: 10
    decay_mult: 1
  }
  param {
    lr_mult: 20
    decay_mult: 0
  }
  convolution_param {
    num_output: 3
    pad: 1
    kernel_size: 3
    stride: 1
    weight_filler {
      type: "xavier"
    }
    bias_filler {
      type: "constant"
      value: 0
    }
  }
}
layer {
  name: "score_uncropped-R"
  type: "Python"
  bottom: "crop_info"
  bottom: "score-R"
  bottom: "data"
  top: "score_uncropped-R"
  python_param {
    module: "Uncrop"
    layer: "UncropLayer"
  }
}
layer {
  name: "loss1"
  type: "DiceLoss"
  bottom: "score"
  bottom: "label"
  top: "loss1"
  loss_weight: 0.333333
}
layer {
  name: "loss2"
  type: "DiceLoss"
  bottom: "score_uncropped-R"
  bottom: "label"
  top: "loss2"
  loss_weight: 0.666667
}
I0419 00:41:42.506661 20669 layer_factory.hpp:77] Creating layer data
I0419 00:41:42.506705 20669 net.cpp:84] Creating Layer data
I0419 00:41:42.506712 20669 net.cpp:380] data -> data
I0419 00:41:42.506721 20669 net.cpp:380] data -> label
I0419 00:41:42.506726 20669 net.cpp:380] data -> crop_margin
I0419 00:41:42.506731 20669 net.cpp:380] data -> crop_prob
I0419 00:41:42.506736 20669 net.cpp:380] data -> crop_sample_batch
I0419 00:41:42.643157 20669 net.cpp:122] Setting up data
I0419 00:41:42.643206 20669 net.cpp:129] Top shape: 1 3 512 310 (476160)
I0419 00:41:42.643213 20669 net.cpp:129] Top shape: 1 3 512 310 (476160)
I0419 00:41:42.643218 20669 net.cpp:129] Top shape: 1 (1)
I0419 00:41:42.643221 20669 net.cpp:129] Top shape: 1 (1)
I0419 00:41:42.643224 20669 net.cpp:129] Top shape: 1 (1)
I0419 00:41:42.643227 20669 net.cpp:137] Memory required for data: 3809292
I0419 00:41:42.643234 20669 layer_factory.hpp:77] Creating layer data_data_0_split
I0419 00:41:42.643249 20669 net.cpp:84] Creating Layer data_data_0_split
I0419 00:41:42.643252 20669 net.cpp:406] data_data_0_split <- data
I0419 00:41:42.643275 20669 net.cpp:380] data_data_0_split -> data_data_0_split_0
I0419 00:41:42.643286 20669 net.cpp:380] data_data_0_split -> data_data_0_split_1
I0419 00:41:42.643292 20669 net.cpp:380] data_data_0_split -> data_data_0_split_2
I0419 00:41:42.643297 20669 net.cpp:380] data_data_0_split -> data_data_0_split_3
I0419 00:41:42.643406 20669 net.cpp:122] Setting up data_data_0_split
I0419 00:41:42.643424 20669 net.cpp:129] Top shape: 1 3 512 310 (476160)
I0419 00:41:42.643427 20669 net.cpp:129] Top shape: 1 3 512 310 (476160)
I0419 00:41:42.643431 20669 net.cpp:129] Top shape: 1 3 512 310 (476160)
I0419 00:41:42.643435 20669 net.cpp:129] Top shape: 1 3 512 310 (476160)
I0419 00:41:42.643438 20669 net.cpp:137] Memory required for data: 11427852
I0419 00:41:42.643441 20669 layer_factory.hpp:77] Creating layer label_data_1_split
I0419 00:41:42.643448 20669 net.cpp:84] Creating Layer label_data_1_split
I0419 00:41:42.643451 20669 net.cpp:406] label_data_1_split <- label
I0419 00:41:42.643456 20669 net.cpp:380] label_data_1_split -> label_data_1_split_0
I0419 00:41:42.643463 20669 net.cpp:380] label_data_1_split -> label_data_1_split_1
I0419 00:41:42.643468 20669 net.cpp:380] label_data_1_split -> label_data_1_split_2
I0419 00:41:42.643543 20669 net.cpp:122] Setting up label_data_1_split
I0419 00:41:42.643551 20669 net.cpp:129] Top shape: 1 3 512 310 (476160)
I0419 00:41:42.643555 20669 net.cpp:129] Top shape: 1 3 512 310 (476160)
I0419 00:41:42.643559 20669 net.cpp:129] Top shape: 1 3 512 310 (476160)
I0419 00:41:42.643563 20669 net.cpp:137] Memory required for data: 17141772
I0419 00:41:42.643566 20669 layer_factory.hpp:77] Creating layer conv1_1
I0419 00:41:42.643577 20669 net.cpp:84] Creating Layer conv1_1
I0419 00:41:42.643581 20669 net.cpp:406] conv1_1 <- data_data_0_split_0
I0419 00:41:42.643586 20669 net.cpp:380] conv1_1 -> conv1_1
I0419 00:41:42.650063 20669 net.cpp:122] Setting up conv1_1
I0419 00:41:42.650127 20669 net.cpp:129] Top shape: 1 64 710 508 (23083520)
I0419 00:41:42.650137 20669 net.cpp:137] Memory required for data: 109475852
I0419 00:41:42.650221 20669 layer_factory.hpp:77] Creating layer relu1_1
I0419 00:41:42.650245 20669 net.cpp:84] Creating Layer relu1_1
I0419 00:41:42.650255 20669 net.cpp:406] relu1_1 <- conv1_1
I0419 00:41:42.650269 20669 net.cpp:367] relu1_1 -> conv1_1 (in-place)
I0419 00:41:42.650844 20669 net.cpp:122] Setting up relu1_1
I0419 00:41:42.650878 20669 net.cpp:129] Top shape: 1 64 710 508 (23083520)
I0419 00:41:42.650885 20669 net.cpp:137] Memory required for data: 201809932
I0419 00:41:42.650893 20669 layer_factory.hpp:77] Creating layer conv1_2
I0419 00:41:42.650913 20669 net.cpp:84] Creating Layer conv1_2
I0419 00:41:42.650920 20669 net.cpp:406] conv1_2 <- conv1_1
I0419 00:41:42.650944 20669 net.cpp:380] conv1_2 -> conv1_2
I0419 00:41:42.657567 20669 net.cpp:122] Setting up conv1_2
I0419 00:41:42.657608 20669 net.cpp:129] Top shape: 1 64 710 508 (23083520)
I0419 00:41:42.657615 20669 net.cpp:137] Memory required for data: 294144012
I0419 00:41:42.657636 20669 layer_factory.hpp:77] Creating layer relu1_2
I0419 00:41:42.657649 20669 net.cpp:84] Creating Layer relu1_2
I0419 00:41:42.657663 20669 net.cpp:406] relu1_2 <- conv1_2
I0419 00:41:42.657675 20669 net.cpp:367] relu1_2 -> conv1_2 (in-place)
I0419 00:41:42.658160 20669 net.cpp:122] Setting up relu1_2
I0419 00:41:42.658201 20669 net.cpp:129] Top shape: 1 64 710 508 (23083520)
I0419 00:41:42.658218 20669 net.cpp:137] Memory required for data: 386478092
I0419 00:41:42.658226 20669 layer_factory.hpp:77] Creating layer pool1
I0419 00:41:42.658241 20669 net.cpp:84] Creating Layer pool1
I0419 00:41:42.658248 20669 net.cpp:406] pool1 <- conv1_2
I0419 00:41:42.658273 20669 net.cpp:380] pool1 -> pool1
I0419 00:41:42.658424 20669 net.cpp:122] Setting up pool1
I0419 00:41:42.658439 20669 net.cpp:129] Top shape: 1 64 355 254 (5770880)
I0419 00:41:42.658447 20669 net.cpp:137] Memory required for data: 409561612
I0419 00:41:42.658455 20669 layer_factory.hpp:77] Creating layer conv2_1
I0419 00:41:42.658473 20669 net.cpp:84] Creating Layer conv2_1
I0419 00:41:42.658481 20669 net.cpp:406] conv2_1 <- pool1
I0419 00:41:42.658494 20669 net.cpp:380] conv2_1 -> conv2_1
I0419 00:41:42.661983 20669 net.cpp:122] Setting up conv2_1
I0419 00:41:42.662024 20669 net.cpp:129] Top shape: 1 128 355 254 (11541760)
I0419 00:41:42.662032 20669 net.cpp:137] Memory required for data: 455728652
I0419 00:41:42.662051 20669 layer_factory.hpp:77] Creating layer relu2_1
I0419 00:41:42.662065 20669 net.cpp:84] Creating Layer relu2_1
I0419 00:41:42.662083 20669 net.cpp:406] relu2_1 <- conv2_1
I0419 00:41:42.662094 20669 net.cpp:367] relu2_1 -> conv2_1 (in-place)
I0419 00:41:42.663166 20669 net.cpp:122] Setting up relu2_1
I0419 00:41:42.663182 20669 net.cpp:129] Top shape: 1 128 355 254 (11541760)
I0419 00:41:42.663198 20669 net.cpp:137] Memory required for data: 501895692
I0419 00:41:42.663203 20669 layer_factory.hpp:77] Creating layer conv2_2
I0419 00:41:42.663215 20669 net.cpp:84] Creating Layer conv2_2
I0419 00:41:42.663220 20669 net.cpp:406] conv2_2 <- conv2_1
I0419 00:41:42.663228 20669 net.cpp:380] conv2_2 -> conv2_2
I0419 00:41:42.665513 20669 net.cpp:122] Setting up conv2_2
I0419 00:41:42.665544 20669 net.cpp:129] Top shape: 1 128 355 254 (11541760)
I0419 00:41:42.665549 20669 net.cpp:137] Memory required for data: 548062732
I0419 00:41:42.665557 20669 layer_factory.hpp:77] Creating layer relu2_2
I0419 00:41:42.665566 20669 net.cpp:84] Creating Layer relu2_2
I0419 00:41:42.665572 20669 net.cpp:406] relu2_2 <- conv2_2
I0419 00:41:42.665580 20669 net.cpp:367] relu2_2 -> conv2_2 (in-place)
I0419 00:41:42.668206 20669 net.cpp:122] Setting up relu2_2
I0419 00:41:42.668238 20669 net.cpp:129] Top shape: 1 128 355 254 (11541760)
I0419 00:41:42.668243 20669 net.cpp:137] Memory required for data: 594229772
I0419 00:41:42.668248 20669 layer_factory.hpp:77] Creating layer pool2
I0419 00:41:42.668258 20669 net.cpp:84] Creating Layer pool2
I0419 00:41:42.668263 20669 net.cpp:406] pool2 <- conv2_2
I0419 00:41:42.668272 20669 net.cpp:380] pool2 -> pool2
I0419 00:41:42.668371 20669 net.cpp:122] Setting up pool2
I0419 00:41:42.668381 20669 net.cpp:129] Top shape: 1 128 178 127 (2893568)
I0419 00:41:42.668385 20669 net.cpp:137] Memory required for data: 605804044
I0419 00:41:42.668390 20669 layer_factory.hpp:77] Creating layer conv3_1
I0419 00:41:42.668402 20669 net.cpp:84] Creating Layer conv3_1
I0419 00:41:42.668407 20669 net.cpp:406] conv3_1 <- pool2
I0419 00:41:42.668416 20669 net.cpp:380] conv3_1 -> conv3_1
I0419 00:41:42.673413 20669 net.cpp:122] Setting up conv3_1
I0419 00:41:42.673442 20669 net.cpp:129] Top shape: 1 256 178 127 (5787136)
I0419 00:41:42.673447 20669 net.cpp:137] Memory required for data: 628952588
I0419 00:41:42.673461 20669 layer_factory.hpp:77] Creating layer relu3_1
I0419 00:41:42.673471 20669 net.cpp:84] Creating Layer relu3_1
I0419 00:41:42.673476 20669 net.cpp:406] relu3_1 <- conv3_1
I0419 00:41:42.673485 20669 net.cpp:367] relu3_1 -> conv3_1 (in-place)
I0419 00:41:42.673790 20669 net.cpp:122] Setting up relu3_1
I0419 00:41:42.673804 20669 net.cpp:129] Top shape: 1 256 178 127 (5787136)
I0419 00:41:42.673807 20669 net.cpp:137] Memory required for data: 652101132
I0419 00:41:42.673812 20669 layer_factory.hpp:77] Creating layer conv3_2
I0419 00:41:42.673822 20669 net.cpp:84] Creating Layer conv3_2
I0419 00:41:42.673827 20669 net.cpp:406] conv3_2 <- conv3_1
I0419 00:41:42.673836 20669 net.cpp:380] conv3_2 -> conv3_2
I0419 00:41:42.679523 20669 net.cpp:122] Setting up conv3_2
I0419 00:41:42.679556 20669 net.cpp:129] Top shape: 1 256 178 127 (5787136)
I0419 00:41:42.679563 20669 net.cpp:137] Memory required for data: 675249676
I0419 00:41:42.679574 20669 layer_factory.hpp:77] Creating layer relu3_2
I0419 00:41:42.679587 20669 net.cpp:84] Creating Layer relu3_2
I0419 00:41:42.679594 20669 net.cpp:406] relu3_2 <- conv3_2
I0419 00:41:42.679601 20669 net.cpp:367] relu3_2 -> conv3_2 (in-place)
I0419 00:41:42.679953 20669 net.cpp:122] Setting up relu3_2
I0419 00:41:42.679967 20669 net.cpp:129] Top shape: 1 256 178 127 (5787136)
I0419 00:41:42.679972 20669 net.cpp:137] Memory required for data: 698398220
I0419 00:41:42.679986 20669 layer_factory.hpp:77] Creating layer conv3_3
I0419 00:41:42.680011 20669 net.cpp:84] Creating Layer conv3_3
I0419 00:41:42.680016 20669 net.cpp:406] conv3_3 <- conv3_2
I0419 00:41:42.680027 20669 net.cpp:380] conv3_3 -> conv3_3
I0419 00:41:42.685730 20669 net.cpp:122] Setting up conv3_3
I0419 00:41:42.685762 20669 net.cpp:129] Top shape: 1 256 178 127 (5787136)
I0419 00:41:42.685768 20669 net.cpp:137] Memory required for data: 721546764
I0419 00:41:42.685780 20669 layer_factory.hpp:77] Creating layer relu3_3
I0419 00:41:42.685789 20669 net.cpp:84] Creating Layer relu3_3
I0419 00:41:42.685796 20669 net.cpp:406] relu3_3 <- conv3_3
I0419 00:41:42.685803 20669 net.cpp:367] relu3_3 -> conv3_3 (in-place)
I0419 00:41:42.686158 20669 net.cpp:122] Setting up relu3_3
I0419 00:41:42.686216 20669 net.cpp:129] Top shape: 1 256 178 127 (5787136)
I0419 00:41:42.686233 20669 net.cpp:137] Memory required for data: 744695308
I0419 00:41:42.686239 20669 layer_factory.hpp:77] Creating layer pool3
I0419 00:41:42.686249 20669 net.cpp:84] Creating Layer pool3
I0419 00:41:42.686254 20669 net.cpp:406] pool3 <- conv3_3
I0419 00:41:42.686262 20669 net.cpp:380] pool3 -> pool3
I0419 00:41:42.686362 20669 net.cpp:122] Setting up pool3
I0419 00:41:42.686373 20669 net.cpp:129] Top shape: 1 256 89 64 (1458176)
I0419 00:41:42.686378 20669 net.cpp:137] Memory required for data: 750528012
I0419 00:41:42.686383 20669 layer_factory.hpp:77] Creating layer pool3_pool3_0_split
I0419 00:41:42.686393 20669 net.cpp:84] Creating Layer pool3_pool3_0_split
I0419 00:41:42.686398 20669 net.cpp:406] pool3_pool3_0_split <- pool3
I0419 00:41:42.686405 20669 net.cpp:380] pool3_pool3_0_split -> pool3_pool3_0_split_0
I0419 00:41:42.686414 20669 net.cpp:380] pool3_pool3_0_split -> pool3_pool3_0_split_1
I0419 00:41:42.686493 20669 net.cpp:122] Setting up pool3_pool3_0_split
I0419 00:41:42.686504 20669 net.cpp:129] Top shape: 1 256 89 64 (1458176)
I0419 00:41:42.686511 20669 net.cpp:129] Top shape: 1 256 89 64 (1458176)
I0419 00:41:42.686527 20669 net.cpp:137] Memory required for data: 762193420
I0419 00:41:42.686532 20669 layer_factory.hpp:77] Creating layer conv4_1
I0419 00:41:42.686545 20669 net.cpp:84] Creating Layer conv4_1
I0419 00:41:42.686552 20669 net.cpp:406] conv4_1 <- pool3_pool3_0_split_0
I0419 00:41:42.686560 20669 net.cpp:380] conv4_1 -> conv4_1
I0419 00:41:42.694573 20669 net.cpp:122] Setting up conv4_1
I0419 00:41:42.694605 20669 net.cpp:129] Top shape: 1 512 89 64 (2916352)
I0419 00:41:42.694610 20669 net.cpp:137] Memory required for data: 773858828
I0419 00:41:42.694620 20669 layer_factory.hpp:77] Creating layer relu4_1
I0419 00:41:42.694631 20669 net.cpp:84] Creating Layer relu4_1
I0419 00:41:42.694638 20669 net.cpp:406] relu4_1 <- conv4_1
I0419 00:41:42.694644 20669 net.cpp:367] relu4_1 -> conv4_1 (in-place)
I0419 00:41:42.694957 20669 net.cpp:122] Setting up relu4_1
I0419 00:41:42.694969 20669 net.cpp:129] Top shape: 1 512 89 64 (2916352)
I0419 00:41:42.694973 20669 net.cpp:137] Memory required for data: 785524236
I0419 00:41:42.694977 20669 layer_factory.hpp:77] Creating layer conv4_2
I0419 00:41:42.694988 20669 net.cpp:84] Creating Layer conv4_2
I0419 00:41:42.694993 20669 net.cpp:406] conv4_2 <- conv4_1
I0419 00:41:42.695001 20669 net.cpp:380] conv4_2 -> conv4_2
I0419 00:41:42.705262 20669 net.cpp:122] Setting up conv4_2
I0419 00:41:42.705286 20669 net.cpp:129] Top shape: 1 512 89 64 (2916352)
I0419 00:41:42.705299 20669 net.cpp:137] Memory required for data: 797189644
I0419 00:41:42.705317 20669 layer_factory.hpp:77] Creating layer relu4_2
I0419 00:41:42.705327 20669 net.cpp:84] Creating Layer relu4_2
I0419 00:41:42.705333 20669 net.cpp:406] relu4_2 <- conv4_2
I0419 00:41:42.705341 20669 net.cpp:367] relu4_2 -> conv4_2 (in-place)
I0419 00:41:42.708362 20669 net.cpp:122] Setting up relu4_2
I0419 00:41:42.708395 20669 net.cpp:129] Top shape: 1 512 89 64 (2916352)
I0419 00:41:42.708400 20669 net.cpp:137] Memory required for data: 808855052
I0419 00:41:42.708406 20669 layer_factory.hpp:77] Creating layer conv4_3
I0419 00:41:42.708420 20669 net.cpp:84] Creating Layer conv4_3
I0419 00:41:42.708426 20669 net.cpp:406] conv4_3 <- conv4_2
I0419 00:41:42.708437 20669 net.cpp:380] conv4_3 -> conv4_3
I0419 00:41:42.719568 20669 net.cpp:122] Setting up conv4_3
I0419 00:41:42.719625 20669 net.cpp:129] Top shape: 1 512 89 64 (2916352)
I0419 00:41:42.719632 20669 net.cpp:137] Memory required for data: 820520460
I0419 00:41:42.719646 20669 layer_factory.hpp:77] Creating layer relu4_3
I0419 00:41:42.719664 20669 net.cpp:84] Creating Layer relu4_3
I0419 00:41:42.719672 20669 net.cpp:406] relu4_3 <- conv4_3
I0419 00:41:42.719694 20669 net.cpp:367] relu4_3 -> conv4_3 (in-place)
I0419 00:41:42.721073 20669 net.cpp:122] Setting up relu4_3
I0419 00:41:42.721104 20669 net.cpp:129] Top shape: 1 512 89 64 (2916352)
I0419 00:41:42.721110 20669 net.cpp:137] Memory required for data: 832185868
I0419 00:41:42.721115 20669 layer_factory.hpp:77] Creating layer pool4
I0419 00:41:42.721128 20669 net.cpp:84] Creating Layer pool4
I0419 00:41:42.721134 20669 net.cpp:406] pool4 <- conv4_3
I0419 00:41:42.721144 20669 net.cpp:380] pool4 -> pool4
I0419 00:41:42.721258 20669 net.cpp:122] Setting up pool4
I0419 00:41:42.721269 20669 net.cpp:129] Top shape: 1 512 45 32 (737280)
I0419 00:41:42.721274 20669 net.cpp:137] Memory required for data: 835134988
I0419 00:41:42.721279 20669 layer_factory.hpp:77] Creating layer pool4_pool4_0_split
I0419 00:41:42.721299 20669 net.cpp:84] Creating Layer pool4_pool4_0_split
I0419 00:41:42.721304 20669 net.cpp:406] pool4_pool4_0_split <- pool4
I0419 00:41:42.721314 20669 net.cpp:380] pool4_pool4_0_split -> pool4_pool4_0_split_0
I0419 00:41:42.721323 20669 net.cpp:380] pool4_pool4_0_split -> pool4_pool4_0_split_1
I0419 00:41:42.721405 20669 net.cpp:122] Setting up pool4_pool4_0_split
I0419 00:41:42.721415 20669 net.cpp:129] Top shape: 1 512 45 32 (737280)
I0419 00:41:42.721421 20669 net.cpp:129] Top shape: 1 512 45 32 (737280)
I0419 00:41:42.721426 20669 net.cpp:137] Memory required for data: 841033228
I0419 00:41:42.721431 20669 layer_factory.hpp:77] Creating layer conv5_1
I0419 00:41:42.721444 20669 net.cpp:84] Creating Layer conv5_1
I0419 00:41:42.721451 20669 net.cpp:406] conv5_1 <- pool4_pool4_0_split_0
I0419 00:41:42.721459 20669 net.cpp:380] conv5_1 -> conv5_1
I0419 00:41:42.743185 20669 net.cpp:122] Setting up conv5_1
I0419 00:41:42.743234 20669 net.cpp:129] Top shape: 1 512 45 32 (737280)
I0419 00:41:42.743243 20669 net.cpp:137] Memory required for data: 843982348
I0419 00:41:42.743261 20669 layer_factory.hpp:77] Creating layer relu5_1
I0419 00:41:42.743276 20669 net.cpp:84] Creating Layer relu5_1
I0419 00:41:42.743293 20669 net.cpp:406] relu5_1 <- conv5_1
I0419 00:41:42.743314 20669 net.cpp:367] relu5_1 -> conv5_1 (in-place)
I0419 00:41:42.743778 20669 net.cpp:122] Setting up relu5_1
I0419 00:41:42.743808 20669 net.cpp:129] Top shape: 1 512 45 32 (737280)
I0419 00:41:42.743821 20669 net.cpp:137] Memory required for data: 846931468
I0419 00:41:42.743829 20669 layer_factory.hpp:77] Creating layer conv5_2
I0419 00:41:42.743847 20669 net.cpp:84] Creating Layer conv5_2
I0419 00:41:42.743855 20669 net.cpp:406] conv5_2 <- conv5_1
I0419 00:41:42.743868 20669 net.cpp:380] conv5_2 -> conv5_2
I0419 00:41:42.753139 20669 net.cpp:122] Setting up conv5_2
I0419 00:41:42.753175 20669 net.cpp:129] Top shape: 1 512 45 32 (737280)
I0419 00:41:42.753180 20669 net.cpp:137] Memory required for data: 849880588
I0419 00:41:42.753186 20669 layer_factory.hpp:77] Creating layer relu5_2
I0419 00:41:42.753201 20669 net.cpp:84] Creating Layer relu5_2
I0419 00:41:42.753206 20669 net.cpp:406] relu5_2 <- conv5_2
I0419 00:41:42.753211 20669 net.cpp:367] relu5_2 -> conv5_2 (in-place)
I0419 00:41:42.753443 20669 net.cpp:122] Setting up relu5_2
I0419 00:41:42.753453 20669 net.cpp:129] Top shape: 1 512 45 32 (737280)
I0419 00:41:42.753456 20669 net.cpp:137] Memory required for data: 852829708
I0419 00:41:42.753460 20669 layer_factory.hpp:77] Creating layer conv5_3
I0419 00:41:42.753469 20669 net.cpp:84] Creating Layer conv5_3
I0419 00:41:42.753473 20669 net.cpp:406] conv5_3 <- conv5_2
I0419 00:41:42.753479 20669 net.cpp:380] conv5_3 -> conv5_3
I0419 00:41:42.761363 20669 net.cpp:122] Setting up conv5_3
I0419 00:41:42.761399 20669 net.cpp:129] Top shape: 1 512 45 32 (737280)
I0419 00:41:42.761402 20669 net.cpp:137] Memory required for data: 855778828
I0419 00:41:42.761410 20669 layer_factory.hpp:77] Creating layer relu5_3
I0419 00:41:42.761420 20669 net.cpp:84] Creating Layer relu5_3
I0419 00:41:42.761425 20669 net.cpp:406] relu5_3 <- conv5_3
I0419 00:41:42.761430 20669 net.cpp:367] relu5_3 -> conv5_3 (in-place)
I0419 00:41:42.761677 20669 net.cpp:122] Setting up relu5_3
I0419 00:41:42.761687 20669 net.cpp:129] Top shape: 1 512 45 32 (737280)
I0419 00:41:42.761690 20669 net.cpp:137] Memory required for data: 858727948
I0419 00:41:42.761693 20669 layer_factory.hpp:77] Creating layer pool5
I0419 00:41:42.761701 20669 net.cpp:84] Creating Layer pool5
I0419 00:41:42.761705 20669 net.cpp:406] pool5 <- conv5_3
I0419 00:41:42.761713 20669 net.cpp:380] pool5 -> pool5
I0419 00:41:42.761783 20669 net.cpp:122] Setting up pool5
I0419 00:41:42.761792 20669 net.cpp:129] Top shape: 1 512 23 16 (188416)
I0419 00:41:42.761795 20669 net.cpp:137] Memory required for data: 859481612
I0419 00:41:42.761798 20669 layer_factory.hpp:77] Creating layer fc6
I0419 00:41:42.761808 20669 net.cpp:84] Creating Layer fc6
I0419 00:41:42.761812 20669 net.cpp:406] fc6 <- pool5
I0419 00:41:42.761819 20669 net.cpp:380] fc6 -> fc6
I0419 00:41:43.077934 20669 net.cpp:122] Setting up fc6
I0419 00:41:43.077982 20669 net.cpp:129] Top shape: 1 4096 17 10 (696320)
I0419 00:41:43.077987 20669 net.cpp:137] Memory required for data: 862266892
I0419 00:41:43.077997 20669 layer_factory.hpp:77] Creating layer relu6
I0419 00:41:43.078011 20669 net.cpp:84] Creating Layer relu6
I0419 00:41:43.078017 20669 net.cpp:406] relu6 <- fc6
I0419 00:41:43.078025 20669 net.cpp:367] relu6 -> fc6 (in-place)
I0419 00:41:43.078301 20669 net.cpp:122] Setting up relu6
I0419 00:41:43.078313 20669 net.cpp:129] Top shape: 1 4096 17 10 (696320)
I0419 00:41:43.078317 20669 net.cpp:137] Memory required for data: 865052172
I0419 00:41:43.078320 20669 layer_factory.hpp:77] Creating layer drop6
I0419 00:41:43.078347 20669 net.cpp:84] Creating Layer drop6
I0419 00:41:43.078356 20669 net.cpp:406] drop6 <- fc6
I0419 00:41:43.078366 20669 net.cpp:367] drop6 -> fc6 (in-place)
I0419 00:41:43.078455 20669 net.cpp:122] Setting up drop6
I0419 00:41:43.078474 20669 net.cpp:129] Top shape: 1 4096 17 10 (696320)
I0419 00:41:43.078480 20669 net.cpp:137] Memory required for data: 867837452
I0419 00:41:43.078487 20669 layer_factory.hpp:77] Creating layer fc7
I0419 00:41:43.078505 20669 net.cpp:84] Creating Layer fc7
I0419 00:41:43.078512 20669 net.cpp:406] fc7 <- fc6
I0419 00:41:43.078526 20669 net.cpp:380] fc7 -> fc7
I0419 00:41:43.139533 20669 net.cpp:122] Setting up fc7
I0419 00:41:43.139581 20669 net.cpp:129] Top shape: 1 4096 17 10 (696320)
I0419 00:41:43.139586 20669 net.cpp:137] Memory required for data: 870622732
I0419 00:41:43.139597 20669 layer_factory.hpp:77] Creating layer relu7
I0419 00:41:43.139611 20669 net.cpp:84] Creating Layer relu7
I0419 00:41:43.139616 20669 net.cpp:406] relu7 <- fc7
I0419 00:41:43.139623 20669 net.cpp:367] relu7 -> fc7 (in-place)
I0419 00:41:43.140467 20669 net.cpp:122] Setting up relu7
I0419 00:41:43.140481 20669 net.cpp:129] Top shape: 1 4096 17 10 (696320)
I0419 00:41:43.140501 20669 net.cpp:137] Memory required for data: 873408012
I0419 00:41:43.140506 20669 layer_factory.hpp:77] Creating layer drop7
I0419 00:41:43.140513 20669 net.cpp:84] Creating Layer drop7
I0419 00:41:43.140517 20669 net.cpp:406] drop7 <- fc7
I0419 00:41:43.140523 20669 net.cpp:367] drop7 -> fc7 (in-place)
I0419 00:41:43.140592 20669 net.cpp:122] Setting up drop7
I0419 00:41:43.140601 20669 net.cpp:129] Top shape: 1 4096 17 10 (696320)
I0419 00:41:43.140605 20669 net.cpp:137] Memory required for data: 876193292
I0419 00:41:43.140609 20669 layer_factory.hpp:77] Creating layer score_fr-new
I0419 00:41:43.140619 20669 net.cpp:84] Creating Layer score_fr-new
I0419 00:41:43.140624 20669 net.cpp:406] score_fr-new <- fc7
I0419 00:41:43.140630 20669 net.cpp:380] score_fr-new -> score_fr-new
I0419 00:41:43.141842 20669 net.cpp:122] Setting up score_fr-new
I0419 00:41:43.141855 20669 net.cpp:129] Top shape: 1 3 17 10 (510)
I0419 00:41:43.141875 20669 net.cpp:137] Memory required for data: 876195332
I0419 00:41:43.141881 20669 layer_factory.hpp:77] Creating layer upscore2-new
I0419 00:41:43.141890 20669 net.cpp:84] Creating Layer upscore2-new
I0419 00:41:43.141893 20669 net.cpp:406] upscore2-new <- score_fr-new
I0419 00:41:43.141901 20669 net.cpp:380] upscore2-new -> upscore2-new
I0419 00:41:43.142343 20669 net.cpp:122] Setting up upscore2-new
I0419 00:41:43.142355 20669 net.cpp:129] Top shape: 1 3 36 22 (2376)
I0419 00:41:43.142374 20669 net.cpp:137] Memory required for data: 876204836
I0419 00:41:43.142388 20669 layer_factory.hpp:77] Creating layer upscore2-new_upscore2-new_0_split
I0419 00:41:43.142411 20669 net.cpp:84] Creating Layer upscore2-new_upscore2-new_0_split
I0419 00:41:43.142416 20669 net.cpp:406] upscore2-new_upscore2-new_0_split <- upscore2-new
I0419 00:41:43.142421 20669 net.cpp:380] upscore2-new_upscore2-new_0_split -> upscore2-new_upscore2-new_0_split_0
I0419 00:41:43.142427 20669 net.cpp:380] upscore2-new_upscore2-new_0_split -> upscore2-new_upscore2-new_0_split_1
I0419 00:41:43.142508 20669 net.cpp:122] Setting up upscore2-new_upscore2-new_0_split
I0419 00:41:43.142529 20669 net.cpp:129] Top shape: 1 3 36 22 (2376)
I0419 00:41:43.142534 20669 net.cpp:129] Top shape: 1 3 36 22 (2376)
I0419 00:41:43.142537 20669 net.cpp:137] Memory required for data: 876223844
I0419 00:41:43.142540 20669 layer_factory.hpp:77] Creating layer score_pool4-new
I0419 00:41:43.142550 20669 net.cpp:84] Creating Layer score_pool4-new
I0419 00:41:43.142554 20669 net.cpp:406] score_pool4-new <- pool4_pool4_0_split_1
I0419 00:41:43.142560 20669 net.cpp:380] score_pool4-new -> score_pool4-new
I0419 00:41:43.144196 20669 net.cpp:122] Setting up score_pool4-new
I0419 00:41:43.144209 20669 net.cpp:129] Top shape: 1 3 45 32 (4320)
I0419 00:41:43.144229 20669 net.cpp:137] Memory required for data: 876241124
I0419 00:41:43.144235 20669 layer_factory.hpp:77] Creating layer score_pool4c
I0419 00:41:43.144244 20669 net.cpp:84] Creating Layer score_pool4c
I0419 00:41:43.144248 20669 net.cpp:406] score_pool4c <- score_pool4-new
I0419 00:41:43.144253 20669 net.cpp:406] score_pool4c <- upscore2-new_upscore2-new_0_split_0
I0419 00:41:43.144259 20669 net.cpp:380] score_pool4c -> score_pool4c
I0419 00:41:43.144321 20669 net.cpp:122] Setting up score_pool4c
I0419 00:41:43.144327 20669 net.cpp:129] Top shape: 1 3 36 22 (2376)
I0419 00:41:43.144330 20669 net.cpp:137] Memory required for data: 876250628
I0419 00:41:43.144333 20669 layer_factory.hpp:77] Creating layer fuse_pool4
I0419 00:41:43.144342 20669 net.cpp:84] Creating Layer fuse_pool4
I0419 00:41:43.144345 20669 net.cpp:406] fuse_pool4 <- upscore2-new_upscore2-new_0_split_1
I0419 00:41:43.144351 20669 net.cpp:406] fuse_pool4 <- score_pool4c
I0419 00:41:43.144356 20669 net.cpp:380] fuse_pool4 -> fuse_pool4
I0419 00:41:43.144397 20669 net.cpp:122] Setting up fuse_pool4
I0419 00:41:43.144418 20669 net.cpp:129] Top shape: 1 3 36 22 (2376)
I0419 00:41:43.144421 20669 net.cpp:137] Memory required for data: 876260132
I0419 00:41:43.144424 20669 layer_factory.hpp:77] Creating layer upscore_pool4-new
I0419 00:41:43.144433 20669 net.cpp:84] Creating Layer upscore_pool4-new
I0419 00:41:43.144436 20669 net.cpp:406] upscore_pool4-new <- fuse_pool4
I0419 00:41:43.144443 20669 net.cpp:380] upscore_pool4-new -> upscore_pool4-new
I0419 00:41:43.144815 20669 net.cpp:122] Setting up upscore_pool4-new
I0419 00:41:43.144825 20669 net.cpp:129] Top shape: 1 3 74 46 (10212)
I0419 00:41:43.144843 20669 net.cpp:137] Memory required for data: 876300980
I0419 00:41:43.144848 20669 layer_factory.hpp:77] Creating layer upscore_pool4-new_upscore_pool4-new_0_split
I0419 00:41:43.144855 20669 net.cpp:84] Creating Layer upscore_pool4-new_upscore_pool4-new_0_split
I0419 00:41:43.144858 20669 net.cpp:406] upscore_pool4-new_upscore_pool4-new_0_split <- upscore_pool4-new
I0419 00:41:43.144863 20669 net.cpp:380] upscore_pool4-new_upscore_pool4-new_0_split -> upscore_pool4-new_upscore_pool4-new_0_split_0
I0419 00:41:43.144870 20669 net.cpp:380] upscore_pool4-new_upscore_pool4-new_0_split -> upscore_pool4-new_upscore_pool4-new_0_split_1
I0419 00:41:43.144932 20669 net.cpp:122] Setting up upscore_pool4-new_upscore_pool4-new_0_split
I0419 00:41:43.144937 20669 net.cpp:129] Top shape: 1 3 74 46 (10212)
I0419 00:41:43.144942 20669 net.cpp:129] Top shape: 1 3 74 46 (10212)
I0419 00:41:43.144944 20669 net.cpp:137] Memory required for data: 876382676
I0419 00:41:43.144948 20669 layer_factory.hpp:77] Creating layer score_pool3-new
I0419 00:41:43.144958 20669 net.cpp:84] Creating Layer score_pool3-new
I0419 00:41:43.144960 20669 net.cpp:406] score_pool3-new <- pool3_pool3_0_split_1
I0419 00:41:43.144968 20669 net.cpp:380] score_pool3-new -> score_pool3-new
I0419 00:41:43.146687 20669 net.cpp:122] Setting up score_pool3-new
I0419 00:41:43.146718 20669 net.cpp:129] Top shape: 1 3 89 64 (17088)
I0419 00:41:43.146723 20669 net.cpp:137] Memory required for data: 876451028
I0419 00:41:43.146729 20669 layer_factory.hpp:77] Creating layer score_pool3c
I0419 00:41:43.146735 20669 net.cpp:84] Creating Layer score_pool3c
I0419 00:41:43.146740 20669 net.cpp:406] score_pool3c <- score_pool3-new
I0419 00:41:43.146745 20669 net.cpp:406] score_pool3c <- upscore_pool4-new_upscore_pool4-new_0_split_0
I0419 00:41:43.146750 20669 net.cpp:380] score_pool3c -> score_pool3c
I0419 00:41:43.146811 20669 net.cpp:122] Setting up score_pool3c
I0419 00:41:43.146817 20669 net.cpp:129] Top shape: 1 3 74 46 (10212)
I0419 00:41:43.146821 20669 net.cpp:137] Memory required for data: 876491876
I0419 00:41:43.146823 20669 layer_factory.hpp:77] Creating layer fuse_pool3
I0419 00:41:43.146831 20669 net.cpp:84] Creating Layer fuse_pool3
I0419 00:41:43.146833 20669 net.cpp:406] fuse_pool3 <- upscore_pool4-new_upscore_pool4-new_0_split_1
I0419 00:41:43.146838 20669 net.cpp:406] fuse_pool3 <- score_pool3c
I0419 00:41:43.146844 20669 net.cpp:380] fuse_pool3 -> fuse_pool3
I0419 00:41:43.146883 20669 net.cpp:122] Setting up fuse_pool3
I0419 00:41:43.146889 20669 net.cpp:129] Top shape: 1 3 74 46 (10212)
I0419 00:41:43.146891 20669 net.cpp:137] Memory required for data: 876532724
I0419 00:41:43.146894 20669 layer_factory.hpp:77] Creating layer upscore8-new
I0419 00:41:43.146903 20669 net.cpp:84] Creating Layer upscore8-new
I0419 00:41:43.146905 20669 net.cpp:406] upscore8-new <- fuse_pool3
I0419 00:41:43.146911 20669 net.cpp:380] upscore8-new -> upscore8-new
I0419 00:41:43.147294 20669 net.cpp:122] Setting up upscore8-new
I0419 00:41:43.147302 20669 net.cpp:129] Top shape: 1 3 600 376 (676800)
I0419 00:41:43.147320 20669 net.cpp:137] Memory required for data: 879239924
I0419 00:41:43.147325 20669 layer_factory.hpp:77] Creating layer upscore8_cropped
I0419 00:41:43.147332 20669 net.cpp:84] Creating Layer upscore8_cropped
I0419 00:41:43.147336 20669 net.cpp:406] upscore8_cropped <- upscore8-new
I0419 00:41:43.147342 20669 net.cpp:406] upscore8_cropped <- data_data_0_split_1
I0419 00:41:43.147347 20669 net.cpp:380] upscore8_cropped -> upscore8_cropped
I0419 00:41:43.147387 20669 net.cpp:122] Setting up upscore8_cropped
I0419 00:41:43.147392 20669 net.cpp:129] Top shape: 1 3 512 310 (476160)
I0419 00:41:43.147395 20669 net.cpp:137] Memory required for data: 881144564
I0419 00:41:43.147399 20669 layer_factory.hpp:77] Creating layer score
I0419 00:41:43.147409 20669 net.cpp:84] Creating Layer score
I0419 00:41:43.147413 20669 net.cpp:406] score <- upscore8_cropped
I0419 00:41:43.147419 20669 net.cpp:380] score -> score
I0419 00:41:43.153877 20669 net.cpp:122] Setting up score
I0419 00:41:43.153944 20669 net.cpp:129] Top shape: 1 3 512 310 (476160)
I0419 00:41:43.153954 20669 net.cpp:137] Memory required for data: 883049204
I0419 00:41:43.153978 20669 layer_factory.hpp:77] Creating layer score_score_0_split
I0419 00:41:43.154011 20669 net.cpp:84] Creating Layer score_score_0_split
I0419 00:41:43.154022 20669 net.cpp:406] score_score_0_split <- score
I0419 00:41:43.154038 20669 net.cpp:380] score_score_0_split -> score_score_0_split_0
I0419 00:41:43.154069 20669 net.cpp:380] score_score_0_split -> score_score_0_split_1
I0419 00:41:43.154422 20669 net.cpp:122] Setting up score_score_0_split
I0419 00:41:43.154439 20669 net.cpp:129] Top shape: 1 3 512 310 (476160)
I0419 00:41:43.154449 20669 net.cpp:129] Top shape: 1 3 512 310 (476160)
I0419 00:41:43.154456 20669 net.cpp:137] Memory required for data: 886858484
I0419 00:41:43.154464 20669 layer_factory.hpp:77] Creating layer prob
I0419 00:41:43.154476 20669 net.cpp:84] Creating Layer prob
I0419 00:41:43.154484 20669 net.cpp:406] prob <- score_score_0_split_0
I0419 00:41:43.154496 20669 net.cpp:380] prob -> prob
I0419 00:41:43.155241 20669 net.cpp:122] Setting up prob
I0419 00:41:43.155274 20669 net.cpp:129] Top shape: 1 3 512 310 (476160)
I0419 00:41:43.155282 20669 net.cpp:137] Memory required for data: 888763124
I0419 00:41:43.155290 20669 layer_factory.hpp:77] Creating layer saliency
I0419 00:41:43.155328 20669 net.cpp:84] Creating Layer saliency
I0419 00:41:43.155336 20669 net.cpp:406] saliency <- prob
I0419 00:41:43.155350 20669 net.cpp:380] saliency -> saliency
I0419 00:41:43.163034 20669 net.cpp:122] Setting up saliency
I0419 00:41:43.163080 20669 net.cpp:129] Top shape: 1 3 512 310 (476160)
I0419 00:41:43.163090 20669 net.cpp:137] Memory required for data: 890667764
I0419 00:41:43.163107 20669 layer_factory.hpp:77] Creating layer saliency_data
I0419 00:41:43.163137 20669 net.cpp:84] Creating Layer saliency_data
I0419 00:41:43.163147 20669 net.cpp:406] saliency_data <- data_data_0_split_2
I0419 00:41:43.163159 20669 net.cpp:406] saliency_data <- saliency
I0419 00:41:43.163172 20669 net.cpp:380] saliency_data -> saliency_data
I0419 00:41:43.163275 20669 net.cpp:122] Setting up saliency_data
I0419 00:41:43.163291 20669 net.cpp:129] Top shape: 1 3 512 310 (476160)
I0419 00:41:43.163298 20669 net.cpp:137] Memory required for data: 892572404
I0419 00:41:43.163305 20669 layer_factory.hpp:77] Creating layer crop
I0419 00:41:43.163393 20669 net.cpp:84] Creating Layer crop
I0419 00:41:43.163408 20669 net.cpp:406] crop <- label_data_1_split_0
I0419 00:41:43.163419 20669 net.cpp:406] crop <- saliency_data
I0419 00:41:43.163430 20669 net.cpp:406] crop <- crop_margin
I0419 00:41:43.163439 20669 net.cpp:406] crop <- crop_prob
I0419 00:41:43.163449 20669 net.cpp:406] crop <- crop_sample_batch
I0419 00:41:43.163460 20669 net.cpp:380] crop -> data-R
I0419 00:41:43.163475 20669 net.cpp:380] crop -> crop_info
I0419 00:41:43.172194 20669 net.cpp:122] Setting up crop
I0419 00:41:43.172248 20669 net.cpp:129] Top shape: 1 3 512 310 (476160)
I0419 00:41:43.172260 20669 net.cpp:129] Top shape: 1 2 4 (8)
I0419 00:41:43.172267 20669 net.cpp:137] Memory required for data: 894477076
I0419 00:41:43.172276 20669 layer_factory.hpp:77] Creating layer data-R_crop_0_split
I0419 00:41:43.172291 20669 net.cpp:84] Creating Layer data-R_crop_0_split
I0419 00:41:43.172305 20669 net.cpp:406] data-R_crop_0_split <- data-R
I0419 00:41:43.172320 20669 net.cpp:380] data-R_crop_0_split -> data-R_crop_0_split_0
I0419 00:41:43.172338 20669 net.cpp:380] data-R_crop_0_split -> data-R_crop_0_split_1
I0419 00:41:43.172482 20669 net.cpp:122] Setting up data-R_crop_0_split
I0419 00:41:43.172498 20669 net.cpp:129] Top shape: 1 3 512 310 (476160)
I0419 00:41:43.172508 20669 net.cpp:129] Top shape: 1 3 512 310 (476160)
I0419 00:41:43.172514 20669 net.cpp:137] Memory required for data: 898286356
I0419 00:41:43.172521 20669 layer_factory.hpp:77] Creating layer conv1_1-R
I0419 00:41:43.172539 20669 net.cpp:84] Creating Layer conv1_1-R
I0419 00:41:43.172547 20669 net.cpp:406] conv1_1-R <- data-R_crop_0_split_0
I0419 00:41:43.172561 20669 net.cpp:380] conv1_1-R -> conv1_1-R
I0419 00:41:43.177919 20669 net.cpp:122] Setting up conv1_1-R
I0419 00:41:43.177960 20669 net.cpp:129] Top shape: 1 64 710 508 (23083520)
I0419 00:41:43.177969 20669 net.cpp:137] Memory required for data: 990620436
I0419 00:41:43.177987 20669 layer_factory.hpp:77] Creating layer relu1_1-R
I0419 00:41:43.178001 20669 net.cpp:84] Creating Layer relu1_1-R
I0419 00:41:43.178010 20669 net.cpp:406] relu1_1-R <- conv1_1-R
I0419 00:41:43.178022 20669 net.cpp:367] relu1_1-R -> conv1_1-R (in-place)
I0419 00:41:43.179033 20669 net.cpp:122] Setting up relu1_1-R
I0419 00:41:43.179049 20669 net.cpp:129] Top shape: 1 64 710 508 (23083520)
I0419 00:41:43.179067 20669 net.cpp:137] Memory required for data: 1082954516
I0419 00:41:43.179071 20669 layer_factory.hpp:77] Creating layer conv1_2-R
I0419 00:41:43.179090 20669 net.cpp:84] Creating Layer conv1_2-R
I0419 00:41:43.179095 20669 net.cpp:406] conv1_2-R <- conv1_1-R
I0419 00:41:43.179102 20669 net.cpp:380] conv1_2-R -> conv1_2-R
I0419 00:41:43.181980 20669 net.cpp:122] Setting up conv1_2-R
I0419 00:41:43.182010 20669 net.cpp:129] Top shape: 1 64 710 508 (23083520)
I0419 00:41:43.182013 20669 net.cpp:137] Memory required for data: 1175288596
I0419 00:41:43.182021 20669 layer_factory.hpp:77] Creating layer relu1_2-R
I0419 00:41:43.182029 20669 net.cpp:84] Creating Layer relu1_2-R
I0419 00:41:43.182032 20669 net.cpp:406] relu1_2-R <- conv1_2-R
I0419 00:41:43.182037 20669 net.cpp:367] relu1_2-R -> conv1_2-R (in-place)
I0419 00:41:43.182828 20669 net.cpp:122] Setting up relu1_2-R
I0419 00:41:43.182844 20669 net.cpp:129] Top shape: 1 64 710 508 (23083520)
I0419 00:41:43.182864 20669 net.cpp:137] Memory required for data: 1267622676
I0419 00:41:43.182868 20669 layer_factory.hpp:77] Creating layer pool1-R
I0419 00:41:43.182876 20669 net.cpp:84] Creating Layer pool1-R
I0419 00:41:43.182880 20669 net.cpp:406] pool1-R <- conv1_2-R
I0419 00:41:43.182888 20669 net.cpp:380] pool1-R -> pool1-R
I0419 00:41:43.182968 20669 net.cpp:122] Setting up pool1-R
I0419 00:41:43.182974 20669 net.cpp:129] Top shape: 1 64 355 254 (5770880)
I0419 00:41:43.182977 20669 net.cpp:137] Memory required for data: 1290706196
I0419 00:41:43.182981 20669 layer_factory.hpp:77] Creating layer conv2_1-R
I0419 00:41:43.182989 20669 net.cpp:84] Creating Layer conv2_1-R
I0419 00:41:43.182992 20669 net.cpp:406] conv2_1-R <- pool1-R
I0419 00:41:43.182999 20669 net.cpp:380] conv2_1-R -> conv2_1-R
I0419 00:41:43.186199 20669 net.cpp:122] Setting up conv2_1-R
I0419 00:41:43.186229 20669 net.cpp:129] Top shape: 1 128 355 254 (11541760)
I0419 00:41:43.186233 20669 net.cpp:137] Memory required for data: 1336873236
I0419 00:41:43.186240 20669 layer_factory.hpp:77] Creating layer relu2_1-R
I0419 00:41:43.186247 20669 net.cpp:84] Creating Layer relu2_1-R
I0419 00:41:43.186251 20669 net.cpp:406] relu2_1-R <- conv2_1-R
I0419 00:41:43.186257 20669 net.cpp:367] relu2_1-R -> conv2_1-R (in-place)
I0419 00:41:43.186503 20669 net.cpp:122] Setting up relu2_1-R
I0419 00:41:43.186514 20669 net.cpp:129] Top shape: 1 128 355 254 (11541760)
I0419 00:41:43.186518 20669 net.cpp:137] Memory required for data: 1383040276
I0419 00:41:43.186522 20669 layer_factory.hpp:77] Creating layer conv2_2-R
I0419 00:41:43.186529 20669 net.cpp:84] Creating Layer conv2_2-R
I0419 00:41:43.186533 20669 net.cpp:406] conv2_2-R <- conv2_1-R
I0419 00:41:43.186538 20669 net.cpp:380] conv2_2-R -> conv2_2-R
I0419 00:41:43.192237 20669 net.cpp:122] Setting up conv2_2-R
I0419 00:41:43.192261 20669 net.cpp:129] Top shape: 1 128 355 254 (11541760)
I0419 00:41:43.192272 20669 net.cpp:137] Memory required for data: 1429207316
I0419 00:41:43.192283 20669 layer_factory.hpp:77] Creating layer relu2_2-R
I0419 00:41:43.192293 20669 net.cpp:84] Creating Layer relu2_2-R
I0419 00:41:43.192301 20669 net.cpp:406] relu2_2-R <- conv2_2-R
I0419 00:41:43.192307 20669 net.cpp:367] relu2_2-R -> conv2_2-R (in-place)
I0419 00:41:43.192720 20669 net.cpp:122] Setting up relu2_2-R
I0419 00:41:43.192734 20669 net.cpp:129] Top shape: 1 128 355 254 (11541760)
I0419 00:41:43.192737 20669 net.cpp:137] Memory required for data: 1475374356
I0419 00:41:43.192749 20669 layer_factory.hpp:77] Creating layer pool2-R
I0419 00:41:43.192760 20669 net.cpp:84] Creating Layer pool2-R
I0419 00:41:43.192764 20669 net.cpp:406] pool2-R <- conv2_2-R
I0419 00:41:43.192773 20669 net.cpp:380] pool2-R -> pool2-R
I0419 00:41:43.192909 20669 net.cpp:122] Setting up pool2-R
I0419 00:41:43.192919 20669 net.cpp:129] Top shape: 1 128 178 127 (2893568)
I0419 00:41:43.192922 20669 net.cpp:137] Memory required for data: 1486948628
I0419 00:41:43.192927 20669 layer_factory.hpp:77] Creating layer conv3_1-R
I0419 00:41:43.192939 20669 net.cpp:84] Creating Layer conv3_1-R
I0419 00:41:43.192944 20669 net.cpp:406] conv3_1-R <- pool2-R
I0419 00:41:43.192952 20669 net.cpp:380] conv3_1-R -> conv3_1-R
I0419 00:41:43.200044 20669 net.cpp:122] Setting up conv3_1-R
I0419 00:41:43.200083 20669 net.cpp:129] Top shape: 1 256 178 127 (5787136)
I0419 00:41:43.200091 20669 net.cpp:137] Memory required for data: 1510097172
I0419 00:41:43.200107 20669 layer_factory.hpp:77] Creating layer relu3_1-R
I0419 00:41:43.200121 20669 net.cpp:84] Creating Layer relu3_1-R
I0419 00:41:43.200140 20669 net.cpp:406] relu3_1-R <- conv3_1-R
I0419 00:41:43.200152 20669 net.cpp:367] relu3_1-R -> conv3_1-R (in-place)
I0419 00:41:43.200675 20669 net.cpp:122] Setting up relu3_1-R
I0419 00:41:43.200702 20669 net.cpp:129] Top shape: 1 256 178 127 (5787136)
I0419 00:41:43.200717 20669 net.cpp:137] Memory required for data: 1533245716
I0419 00:41:43.200726 20669 layer_factory.hpp:77] Creating layer conv3_2-R
I0419 00:41:43.200742 20669 net.cpp:84] Creating Layer conv3_2-R
I0419 00:41:43.200750 20669 net.cpp:406] conv3_2-R <- conv3_1-R
I0419 00:41:43.200776 20669 net.cpp:380] conv3_2-R -> conv3_2-R
I0419 00:41:43.206773 20669 net.cpp:122] Setting up conv3_2-R
I0419 00:41:43.206804 20669 net.cpp:129] Top shape: 1 256 178 127 (5787136)
I0419 00:41:43.206809 20669 net.cpp:137] Memory required for data: 1556394260
I0419 00:41:43.206818 20669 layer_factory.hpp:77] Creating layer relu3_2-R
I0419 00:41:43.206828 20669 net.cpp:84] Creating Layer relu3_2-R
I0419 00:41:43.206833 20669 net.cpp:406] relu3_2-R <- conv3_2-R
I0419 00:41:43.206840 20669 net.cpp:367] relu3_2-R -> conv3_2-R (in-place)
I0419 00:41:43.207159 20669 net.cpp:122] Setting up relu3_2-R
I0419 00:41:43.207172 20669 net.cpp:129] Top shape: 1 256 178 127 (5787136)
I0419 00:41:43.207176 20669 net.cpp:137] Memory required for data: 1579542804
I0419 00:41:43.207181 20669 layer_factory.hpp:77] Creating layer conv3_3-R
I0419 00:41:43.207192 20669 net.cpp:84] Creating Layer conv3_3-R
I0419 00:41:43.207197 20669 net.cpp:406] conv3_3-R <- conv3_2-R
I0419 00:41:43.207206 20669 net.cpp:380] conv3_3-R -> conv3_3-R
I0419 00:41:43.218143 20669 net.cpp:122] Setting up conv3_3-R
I0419 00:41:43.218210 20669 net.cpp:129] Top shape: 1 256 178 127 (5787136)
I0419 00:41:43.218227 20669 net.cpp:137] Memory required for data: 1602691348
I0419 00:41:43.218240 20669 layer_factory.hpp:77] Creating layer relu3_3-R
I0419 00:41:43.218250 20669 net.cpp:84] Creating Layer relu3_3-R
I0419 00:41:43.218255 20669 net.cpp:406] relu3_3-R <- conv3_3-R
I0419 00:41:43.218263 20669 net.cpp:367] relu3_3-R -> conv3_3-R (in-place)
I0419 00:41:43.219666 20669 net.cpp:122] Setting up relu3_3-R
I0419 00:41:43.219700 20669 net.cpp:129] Top shape: 1 256 178 127 (5787136)
I0419 00:41:43.219707 20669 net.cpp:137] Memory required for data: 1625839892
I0419 00:41:43.219714 20669 layer_factory.hpp:77] Creating layer pool3-R
I0419 00:41:43.219727 20669 net.cpp:84] Creating Layer pool3-R
I0419 00:41:43.219734 20669 net.cpp:406] pool3-R <- conv3_3-R
I0419 00:41:43.219758 20669 net.cpp:380] pool3-R -> pool3-R
I0419 00:41:43.219897 20669 net.cpp:122] Setting up pool3-R
I0419 00:41:43.219910 20669 net.cpp:129] Top shape: 1 256 89 64 (1458176)
I0419 00:41:43.219915 20669 net.cpp:137] Memory required for data: 1631672596
I0419 00:41:43.219921 20669 layer_factory.hpp:77] Creating layer pool3-R_pool3-R_0_split
I0419 00:41:43.219931 20669 net.cpp:84] Creating Layer pool3-R_pool3-R_0_split
I0419 00:41:43.219938 20669 net.cpp:406] pool3-R_pool3-R_0_split <- pool3-R
I0419 00:41:43.219946 20669 net.cpp:380] pool3-R_pool3-R_0_split -> pool3-R_pool3-R_0_split_0
I0419 00:41:43.219957 20669 net.cpp:380] pool3-R_pool3-R_0_split -> pool3-R_pool3-R_0_split_1
I0419 00:41:43.220060 20669 net.cpp:122] Setting up pool3-R_pool3-R_0_split
I0419 00:41:43.220072 20669 net.cpp:129] Top shape: 1 256 89 64 (1458176)
I0419 00:41:43.220079 20669 net.cpp:129] Top shape: 1 256 89 64 (1458176)
I0419 00:41:43.220084 20669 net.cpp:137] Memory required for data: 1643338004
I0419 00:41:43.220090 20669 layer_factory.hpp:77] Creating layer conv4_1-R
I0419 00:41:43.220104 20669 net.cpp:84] Creating Layer conv4_1-R
I0419 00:41:43.220110 20669 net.cpp:406] conv4_1-R <- pool3-R_pool3-R_0_split_0
I0419 00:41:43.220120 20669 net.cpp:380] conv4_1-R -> conv4_1-R
I0419 00:41:43.227856 20669 net.cpp:122] Setting up conv4_1-R
I0419 00:41:43.227875 20669 net.cpp:129] Top shape: 1 512 89 64 (2916352)
I0419 00:41:43.227888 20669 net.cpp:137] Memory required for data: 1655003412
I0419 00:41:43.227898 20669 layer_factory.hpp:77] Creating layer relu4_1-R
I0419 00:41:43.227907 20669 net.cpp:84] Creating Layer relu4_1-R
I0419 00:41:43.227912 20669 net.cpp:406] relu4_1-R <- conv4_1-R
I0419 00:41:43.227919 20669 net.cpp:367] relu4_1-R -> conv4_1-R (in-place)
I0419 00:41:43.230720 20669 net.cpp:122] Setting up relu4_1-R
I0419 00:41:43.230752 20669 net.cpp:129] Top shape: 1 512 89 64 (2916352)
I0419 00:41:43.230757 20669 net.cpp:137] Memory required for data: 1666668820
I0419 00:41:43.230762 20669 layer_factory.hpp:77] Creating layer conv4_2-R
I0419 00:41:43.230787 20669 net.cpp:84] Creating Layer conv4_2-R
I0419 00:41:43.230792 20669 net.cpp:406] conv4_2-R <- conv4_1-R
I0419 00:41:43.230801 20669 net.cpp:380] conv4_2-R -> conv4_2-R
I0419 00:41:43.251652 20669 net.cpp:122] Setting up conv4_2-R
I0419 00:41:43.251714 20669 net.cpp:129] Top shape: 1 512 89 64 (2916352)
I0419 00:41:43.251724 20669 net.cpp:137] Memory required for data: 1678334228
I0419 00:41:43.251744 20669 layer_factory.hpp:77] Creating layer relu4_2-R
I0419 00:41:43.251776 20669 net.cpp:84] Creating Layer relu4_2-R
I0419 00:41:43.251787 20669 net.cpp:406] relu4_2-R <- conv4_2-R
I0419 00:41:43.251801 20669 net.cpp:367] relu4_2-R -> conv4_2-R (in-place)
I0419 00:41:43.252295 20669 net.cpp:122] Setting up relu4_2-R
I0419 00:41:43.252326 20669 net.cpp:129] Top shape: 1 512 89 64 (2916352)
I0419 00:41:43.252333 20669 net.cpp:137] Memory required for data: 1689999636
I0419 00:41:43.252341 20669 layer_factory.hpp:77] Creating layer conv4_3-R
I0419 00:41:43.252360 20669 net.cpp:84] Creating Layer conv4_3-R
I0419 00:41:43.252367 20669 net.cpp:406] conv4_3-R <- conv4_2-R
I0419 00:41:43.252391 20669 net.cpp:380] conv4_3-R -> conv4_3-R
I0419 00:41:43.263559 20669 net.cpp:122] Setting up conv4_3-R
I0419 00:41:43.263594 20669 net.cpp:129] Top shape: 1 512 89 64 (2916352)
I0419 00:41:43.263600 20669 net.cpp:137] Memory required for data: 1701665044
I0419 00:41:43.263610 20669 layer_factory.hpp:77] Creating layer relu4_3-R
I0419 00:41:43.263620 20669 net.cpp:84] Creating Layer relu4_3-R
I0419 00:41:43.263626 20669 net.cpp:406] relu4_3-R <- conv4_3-R
I0419 00:41:43.263634 20669 net.cpp:367] relu4_3-R -> conv4_3-R (in-place)
I0419 00:41:43.263944 20669 net.cpp:122] Setting up relu4_3-R
I0419 00:41:43.263957 20669 net.cpp:129] Top shape: 1 512 89 64 (2916352)
I0419 00:41:43.263962 20669 net.cpp:137] Memory required for data: 1713330452
I0419 00:41:43.263965 20669 layer_factory.hpp:77] Creating layer pool4-R
I0419 00:41:43.263976 20669 net.cpp:84] Creating Layer pool4-R
I0419 00:41:43.263980 20669 net.cpp:406] pool4-R <- conv4_3-R
I0419 00:41:43.263989 20669 net.cpp:380] pool4-R -> pool4-R
I0419 00:41:43.264086 20669 net.cpp:122] Setting up pool4-R
I0419 00:41:43.264096 20669 net.cpp:129] Top shape: 1 512 45 32 (737280)
I0419 00:41:43.264099 20669 net.cpp:137] Memory required for data: 1716279572
I0419 00:41:43.264103 20669 layer_factory.hpp:77] Creating layer pool4-R_pool4-R_0_split
I0419 00:41:43.264112 20669 net.cpp:84] Creating Layer pool4-R_pool4-R_0_split
I0419 00:41:43.264117 20669 net.cpp:406] pool4-R_pool4-R_0_split <- pool4-R
I0419 00:41:43.264125 20669 net.cpp:380] pool4-R_pool4-R_0_split -> pool4-R_pool4-R_0_split_0
I0419 00:41:43.264133 20669 net.cpp:380] pool4-R_pool4-R_0_split -> pool4-R_pool4-R_0_split_1
I0419 00:41:43.264209 20669 net.cpp:122] Setting up pool4-R_pool4-R_0_split
I0419 00:41:43.264219 20669 net.cpp:129] Top shape: 1 512 45 32 (737280)
I0419 00:41:43.264225 20669 net.cpp:129] Top shape: 1 512 45 32 (737280)
I0419 00:41:43.264228 20669 net.cpp:137] Memory required for data: 1722177812
I0419 00:41:43.264232 20669 layer_factory.hpp:77] Creating layer conv5_1-R
I0419 00:41:43.264245 20669 net.cpp:84] Creating Layer conv5_1-R
I0419 00:41:43.264250 20669 net.cpp:406] conv5_1-R <- pool4-R_pool4-R_0_split_0
I0419 00:41:43.264258 20669 net.cpp:380] conv5_1-R -> conv5_1-R
I0419 00:41:43.276950 20669 net.cpp:122] Setting up conv5_1-R
I0419 00:41:43.276989 20669 net.cpp:129] Top shape: 1 512 45 32 (737280)
I0419 00:41:43.276996 20669 net.cpp:137] Memory required for data: 1725126932
I0419 00:41:43.277027 20669 layer_factory.hpp:77] Creating layer relu5_1-R
I0419 00:41:43.277040 20669 net.cpp:84] Creating Layer relu5_1-R
I0419 00:41:43.277056 20669 net.cpp:406] relu5_1-R <- conv5_1-R
I0419 00:41:43.277065 20669 net.cpp:367] relu5_1-R -> conv5_1-R (in-place)
I0419 00:41:43.278280 20669 net.cpp:122] Setting up relu5_1-R
I0419 00:41:43.278298 20669 net.cpp:129] Top shape: 1 512 45 32 (737280)
I0419 00:41:43.278304 20669 net.cpp:137] Memory required for data: 1728076052
I0419 00:41:43.278311 20669 layer_factory.hpp:77] Creating layer conv5_2-R
I0419 00:41:43.278337 20669 net.cpp:84] Creating Layer conv5_2-R
I0419 00:41:43.278342 20669 net.cpp:406] conv5_2-R <- conv5_1-R
I0419 00:41:43.278352 20669 net.cpp:380] conv5_2-R -> conv5_2-R
I0419 00:41:43.291115 20669 net.cpp:122] Setting up conv5_2-R
I0419 00:41:43.291167 20669 net.cpp:129] Top shape: 1 512 45 32 (737280)
I0419 00:41:43.291177 20669 net.cpp:137] Memory required for data: 1731025172
I0419 00:41:43.291193 20669 layer_factory.hpp:77] Creating layer relu5_2-R
I0419 00:41:43.291208 20669 net.cpp:84] Creating Layer relu5_2-R
I0419 00:41:43.291225 20669 net.cpp:406] relu5_2-R <- conv5_2-R
I0419 00:41:43.291239 20669 net.cpp:367] relu5_2-R -> conv5_2-R (in-place)
I0419 00:41:43.291718 20669 net.cpp:122] Setting up relu5_2-R
I0419 00:41:43.291749 20669 net.cpp:129] Top shape: 1 512 45 32 (737280)
I0419 00:41:43.291756 20669 net.cpp:137] Memory required for data: 1733974292
I0419 00:41:43.291764 20669 layer_factory.hpp:77] Creating layer conv5_3-R
I0419 00:41:43.291780 20669 net.cpp:84] Creating Layer conv5_3-R
I0419 00:41:43.291788 20669 net.cpp:406] conv5_3-R <- conv5_2-R
I0419 00:41:43.291801 20669 net.cpp:380] conv5_3-R -> conv5_3-R
I0419 00:41:43.302847 20669 net.cpp:122] Setting up conv5_3-R
I0419 00:41:43.302865 20669 net.cpp:129] Top shape: 1 512 45 32 (737280)
I0419 00:41:43.302886 20669 net.cpp:137] Memory required for data: 1736923412
I0419 00:41:43.302894 20669 layer_factory.hpp:77] Creating layer relu5_3-R
I0419 00:41:43.302901 20669 net.cpp:84] Creating Layer relu5_3-R
I0419 00:41:43.302906 20669 net.cpp:406] relu5_3-R <- conv5_3-R
I0419 00:41:43.302912 20669 net.cpp:367] relu5_3-R -> conv5_3-R (in-place)
I0419 00:41:43.303707 20669 net.cpp:122] Setting up relu5_3-R
I0419 00:41:43.303720 20669 net.cpp:129] Top shape: 1 512 45 32 (737280)
I0419 00:41:43.303740 20669 net.cpp:137] Memory required for data: 1739872532
I0419 00:41:43.303743 20669 layer_factory.hpp:77] Creating layer pool5-R
I0419 00:41:43.303752 20669 net.cpp:84] Creating Layer pool5-R
I0419 00:41:43.303756 20669 net.cpp:406] pool5-R <- conv5_3-R
I0419 00:41:43.303764 20669 net.cpp:380] pool5-R -> pool5-R
I0419 00:41:43.303845 20669 net.cpp:122] Setting up pool5-R
I0419 00:41:43.303853 20669 net.cpp:129] Top shape: 1 512 23 16 (188416)
I0419 00:41:43.303855 20669 net.cpp:137] Memory required for data: 1740626196
I0419 00:41:43.303858 20669 layer_factory.hpp:77] Creating layer fc6-R
I0419 00:41:43.303869 20669 net.cpp:84] Creating Layer fc6-R
I0419 00:41:43.303872 20669 net.cpp:406] fc6-R <- pool5-R
I0419 00:41:43.303879 20669 net.cpp:380] fc6-R -> fc6-R
I0419 00:41:43.631847 20669 net.cpp:122] Setting up fc6-R
I0419 00:41:43.631894 20669 net.cpp:129] Top shape: 1 4096 17 10 (696320)
I0419 00:41:43.631901 20669 net.cpp:137] Memory required for data: 1743411476
I0419 00:41:43.631914 20669 layer_factory.hpp:77] Creating layer relu6-R
I0419 00:41:43.631930 20669 net.cpp:84] Creating Layer relu6-R
I0419 00:41:43.631938 20669 net.cpp:406] relu6-R <- fc6-R
I0419 00:41:43.631956 20669 net.cpp:367] relu6-R -> fc6-R (in-place)
I0419 00:41:43.633364 20669 net.cpp:122] Setting up relu6-R
I0419 00:41:43.633383 20669 net.cpp:129] Top shape: 1 4096 17 10 (696320)
I0419 00:41:43.633396 20669 net.cpp:137] Memory required for data: 1746196756
I0419 00:41:43.633401 20669 layer_factory.hpp:77] Creating layer drop6-R
I0419 00:41:43.633411 20669 net.cpp:84] Creating Layer drop6-R
I0419 00:41:43.633417 20669 net.cpp:406] drop6-R <- fc6-R
I0419 00:41:43.633425 20669 net.cpp:367] drop6-R -> fc6-R (in-place)
I0419 00:41:43.633502 20669 net.cpp:122] Setting up drop6-R
I0419 00:41:43.633527 20669 net.cpp:129] Top shape: 1 4096 17 10 (696320)
I0419 00:41:43.633530 20669 net.cpp:137] Memory required for data: 1748982036
I0419 00:41:43.633535 20669 layer_factory.hpp:77] Creating layer fc7-R
I0419 00:41:43.633548 20669 net.cpp:84] Creating Layer fc7-R
I0419 00:41:43.633553 20669 net.cpp:406] fc7-R <- fc6-R
I0419 00:41:43.633563 20669 net.cpp:380] fc7-R -> fc7-R
I0419 00:41:43.700368 20669 net.cpp:122] Setting up fc7-R
I0419 00:41:43.700419 20669 net.cpp:129] Top shape: 1 4096 17 10 (696320)
I0419 00:41:43.700424 20669 net.cpp:137] Memory required for data: 1751767316
I0419 00:41:43.700438 20669 layer_factory.hpp:77] Creating layer relu7-R
I0419 00:41:43.700454 20669 net.cpp:84] Creating Layer relu7-R
I0419 00:41:43.700462 20669 net.cpp:406] relu7-R <- fc7-R
I0419 00:41:43.700484 20669 net.cpp:367] relu7-R -> fc7-R (in-place)
I0419 00:41:43.700800 20669 net.cpp:122] Setting up relu7-R
I0419 00:41:43.700814 20669 net.cpp:129] Top shape: 1 4096 17 10 (696320)
I0419 00:41:43.700819 20669 net.cpp:137] Memory required for data: 1754552596
I0419 00:41:43.700824 20669 layer_factory.hpp:77] Creating layer drop7-R
I0419 00:41:43.700834 20669 net.cpp:84] Creating Layer drop7-R
I0419 00:41:43.700839 20669 net.cpp:406] drop7-R <- fc7-R
I0419 00:41:43.700845 20669 net.cpp:367] drop7-R -> fc7-R (in-place)
I0419 00:41:43.700911 20669 net.cpp:122] Setting up drop7-R
I0419 00:41:43.700922 20669 net.cpp:129] Top shape: 1 4096 17 10 (696320)
I0419 00:41:43.700924 20669 net.cpp:137] Memory required for data: 1757337876
I0419 00:41:43.700929 20669 layer_factory.hpp:77] Creating layer score_fr-new-R
I0419 00:41:43.700942 20669 net.cpp:84] Creating Layer score_fr-new-R
I0419 00:41:43.700945 20669 net.cpp:406] score_fr-new-R <- fc7-R
I0419 00:41:43.700954 20669 net.cpp:380] score_fr-new-R -> score_fr-new-R
I0419 00:41:43.703533 20669 net.cpp:122] Setting up score_fr-new-R
I0419 00:41:43.703567 20669 net.cpp:129] Top shape: 1 3 17 10 (510)
I0419 00:41:43.703573 20669 net.cpp:137] Memory required for data: 1757339916
I0419 00:41:43.703584 20669 layer_factory.hpp:77] Creating layer upscore2-new-R
I0419 00:41:43.703598 20669 net.cpp:84] Creating Layer upscore2-new-R
I0419 00:41:43.703605 20669 net.cpp:406] upscore2-new-R <- score_fr-new-R
I0419 00:41:43.703629 20669 net.cpp:380] upscore2-new-R -> upscore2-new-R
I0419 00:41:43.704262 20669 net.cpp:122] Setting up upscore2-new-R
I0419 00:41:43.704277 20669 net.cpp:129] Top shape: 1 3 36 22 (2376)
I0419 00:41:43.704282 20669 net.cpp:137] Memory required for data: 1757349420
I0419 00:41:43.704290 20669 layer_factory.hpp:77] Creating layer upscore2-new-R_upscore2-new-R_0_split
I0419 00:41:43.704300 20669 net.cpp:84] Creating Layer upscore2-new-R_upscore2-new-R_0_split
I0419 00:41:43.704308 20669 net.cpp:406] upscore2-new-R_upscore2-new-R_0_split <- upscore2-new-R
I0419 00:41:43.704315 20669 net.cpp:380] upscore2-new-R_upscore2-new-R_0_split -> upscore2-new-R_upscore2-new-R_0_split_0
I0419 00:41:43.704326 20669 net.cpp:380] upscore2-new-R_upscore2-new-R_0_split -> upscore2-new-R_upscore2-new-R_0_split_1
I0419 00:41:43.704438 20669 net.cpp:122] Setting up upscore2-new-R_upscore2-new-R_0_split
I0419 00:41:43.704452 20669 net.cpp:129] Top shape: 1 3 36 22 (2376)
I0419 00:41:43.704457 20669 net.cpp:129] Top shape: 1 3 36 22 (2376)
I0419 00:41:43.704463 20669 net.cpp:137] Memory required for data: 1757368428
I0419 00:41:43.704468 20669 layer_factory.hpp:77] Creating layer score_pool4-new-R
I0419 00:41:43.704481 20669 net.cpp:84] Creating Layer score_pool4-new-R
I0419 00:41:43.704488 20669 net.cpp:406] score_pool4-new-R <- pool4-R_pool4-R_0_split_1
I0419 00:41:43.704510 20669 net.cpp:380] score_pool4-new-R -> score_pool4-new-R
I0419 00:41:43.707263 20669 net.cpp:122] Setting up score_pool4-new-R
I0419 00:41:43.707281 20669 net.cpp:129] Top shape: 1 3 45 32 (4320)
I0419 00:41:43.707298 20669 net.cpp:137] Memory required for data: 1757385708
I0419 00:41:43.707306 20669 layer_factory.hpp:77] Creating layer score_pool4c-R
I0419 00:41:43.707316 20669 net.cpp:84] Creating Layer score_pool4c-R
I0419 00:41:43.707321 20669 net.cpp:406] score_pool4c-R <- score_pool4-new-R
I0419 00:41:43.707329 20669 net.cpp:406] score_pool4c-R <- upscore2-new-R_upscore2-new-R_0_split_0
I0419 00:41:43.707335 20669 net.cpp:380] score_pool4c-R -> score_pool4c-R
I0419 00:41:43.707406 20669 net.cpp:122] Setting up score_pool4c-R
I0419 00:41:43.707413 20669 net.cpp:129] Top shape: 1 3 36 22 (2376)
I0419 00:41:43.707418 20669 net.cpp:137] Memory required for data: 1757395212
I0419 00:41:43.707422 20669 layer_factory.hpp:77] Creating layer fuse_pool4-R
I0419 00:41:43.707433 20669 net.cpp:84] Creating Layer fuse_pool4-R
I0419 00:41:43.707437 20669 net.cpp:406] fuse_pool4-R <- upscore2-new-R_upscore2-new-R_0_split_1
I0419 00:41:43.707443 20669 net.cpp:406] fuse_pool4-R <- score_pool4c-R
I0419 00:41:43.707451 20669 net.cpp:380] fuse_pool4-R -> fuse_pool4-R
I0419 00:41:43.707515 20669 net.cpp:122] Setting up fuse_pool4-R
I0419 00:41:43.707525 20669 net.cpp:129] Top shape: 1 3 36 22 (2376)
I0419 00:41:43.707528 20669 net.cpp:137] Memory required for data: 1757404716
I0419 00:41:43.707532 20669 layer_factory.hpp:77] Creating layer upscore_pool4-new-R
I0419 00:41:43.707542 20669 net.cpp:84] Creating Layer upscore_pool4-new-R
I0419 00:41:43.707547 20669 net.cpp:406] upscore_pool4-new-R <- fuse_pool4-R
I0419 00:41:43.707556 20669 net.cpp:380] upscore_pool4-new-R -> upscore_pool4-new-R
I0419 00:41:43.708025 20669 net.cpp:122] Setting up upscore_pool4-new-R
I0419 00:41:43.708035 20669 net.cpp:129] Top shape: 1 3 74 46 (10212)
I0419 00:41:43.708039 20669 net.cpp:137] Memory required for data: 1757445564
I0419 00:41:43.708053 20669 layer_factory.hpp:77] Creating layer upscore_pool4-new-R_upscore_pool4-new-R_0_split
I0419 00:41:43.708060 20669 net.cpp:84] Creating Layer upscore_pool4-new-R_upscore_pool4-new-R_0_split
I0419 00:41:43.708065 20669 net.cpp:406] upscore_pool4-new-R_upscore_pool4-new-R_0_split <- upscore_pool4-new-R
I0419 00:41:43.708072 20669 net.cpp:380] upscore_pool4-new-R_upscore_pool4-new-R_0_split -> upscore_pool4-new-R_upscore_pool4-new-R_0_split_0
I0419 00:41:43.708081 20669 net.cpp:380] upscore_pool4-new-R_upscore_pool4-new-R_0_split -> upscore_pool4-new-R_upscore_pool4-new-R_0_split_1
I0419 00:41:43.708169 20669 net.cpp:122] Setting up upscore_pool4-new-R_upscore_pool4-new-R_0_split
I0419 00:41:43.708186 20669 net.cpp:129] Top shape: 1 3 74 46 (10212)
I0419 00:41:43.708191 20669 net.cpp:129] Top shape: 1 3 74 46 (10212)
I0419 00:41:43.708195 20669 net.cpp:137] Memory required for data: 1757527260
I0419 00:41:43.708200 20669 layer_factory.hpp:77] Creating layer score_pool3-new-R
I0419 00:41:43.708210 20669 net.cpp:84] Creating Layer score_pool3-new-R
I0419 00:41:43.708215 20669 net.cpp:406] score_pool3-new-R <- pool3-R_pool3-R_0_split_1
I0419 00:41:43.708225 20669 net.cpp:380] score_pool3-new-R -> score_pool3-new-R
I0419 00:41:43.710588 20669 net.cpp:122] Setting up score_pool3-new-R
I0419 00:41:43.710608 20669 net.cpp:129] Top shape: 1 3 89 64 (17088)
I0419 00:41:43.710621 20669 net.cpp:137] Memory required for data: 1757595612
I0419 00:41:43.710630 20669 layer_factory.hpp:77] Creating layer score_pool3c-R
I0419 00:41:43.710640 20669 net.cpp:84] Creating Layer score_pool3c-R
I0419 00:41:43.710646 20669 net.cpp:406] score_pool3c-R <- score_pool3-new-R
I0419 00:41:43.710652 20669 net.cpp:406] score_pool3c-R <- upscore_pool4-new-R_upscore_pool4-new-R_0_split_0
I0419 00:41:43.710660 20669 net.cpp:380] score_pool3c-R -> score_pool3c-R
I0419 00:41:43.710732 20669 net.cpp:122] Setting up score_pool3c-R
I0419 00:41:43.710741 20669 net.cpp:129] Top shape: 1 3 74 46 (10212)
I0419 00:41:43.710744 20669 net.cpp:137] Memory required for data: 1757636460
I0419 00:41:43.710748 20669 layer_factory.hpp:77] Creating layer fuse_pool3-R
I0419 00:41:43.710757 20669 net.cpp:84] Creating Layer fuse_pool3-R
I0419 00:41:43.710762 20669 net.cpp:406] fuse_pool3-R <- upscore_pool4-new-R_upscore_pool4-new-R_0_split_1
I0419 00:41:43.710767 20669 net.cpp:406] fuse_pool3-R <- score_pool3c-R
I0419 00:41:43.710774 20669 net.cpp:380] fuse_pool3-R -> fuse_pool3-R
I0419 00:41:43.710837 20669 net.cpp:122] Setting up fuse_pool3-R
I0419 00:41:43.710847 20669 net.cpp:129] Top shape: 1 3 74 46 (10212)
I0419 00:41:43.710850 20669 net.cpp:137] Memory required for data: 1757677308
I0419 00:41:43.710855 20669 layer_factory.hpp:77] Creating layer upscore8-new-R
I0419 00:41:43.710865 20669 net.cpp:84] Creating Layer upscore8-new-R
I0419 00:41:43.710868 20669 net.cpp:406] upscore8-new-R <- fuse_pool3-R
I0419 00:41:43.710876 20669 net.cpp:380] upscore8-new-R -> upscore8-new-R
I0419 00:41:43.711436 20669 net.cpp:122] Setting up upscore8-new-R
I0419 00:41:43.711457 20669 net.cpp:129] Top shape: 1 3 600 376 (676800)
I0419 00:41:43.711460 20669 net.cpp:137] Memory required for data: 1760384508
I0419 00:41:43.711477 20669 layer_factory.hpp:77] Creating layer upscore8_cropped-R
I0419 00:41:43.711484 20669 net.cpp:84] Creating Layer upscore8_cropped-R
I0419 00:41:43.711489 20669 net.cpp:406] upscore8_cropped-R <- upscore8-new-R
I0419 00:41:43.711506 20669 net.cpp:406] upscore8_cropped-R <- data-R_crop_0_split_1
I0419 00:41:43.711513 20669 net.cpp:380] upscore8_cropped-R -> upscore8_cropped-R
I0419 00:41:43.711575 20669 net.cpp:122] Setting up upscore8_cropped-R
I0419 00:41:43.711582 20669 net.cpp:129] Top shape: 1 3 512 310 (476160)
I0419 00:41:43.711586 20669 net.cpp:137] Memory required for data: 1762289148
I0419 00:41:43.711591 20669 layer_factory.hpp:77] Creating layer score-R
I0419 00:41:43.711603 20669 net.cpp:84] Creating Layer score-R
I0419 00:41:43.711608 20669 net.cpp:406] score-R <- upscore8_cropped-R
I0419 00:41:43.711617 20669 net.cpp:380] score-R -> score-R
I0419 00:41:43.714553 20669 net.cpp:122] Setting up score-R
I0419 00:41:43.714574 20669 net.cpp:129] Top shape: 1 3 512 310 (476160)
I0419 00:41:43.714589 20669 net.cpp:137] Memory required for data: 1764193788
I0419 00:41:43.714598 20669 layer_factory.hpp:77] Creating layer score_uncropped-R
I0419 00:41:43.714684 20669 net.cpp:84] Creating Layer score_uncropped-R
I0419 00:41:43.714691 20669 net.cpp:406] score_uncropped-R <- crop_info
I0419 00:41:43.714699 20669 net.cpp:406] score_uncropped-R <- score-R
I0419 00:41:43.714710 20669 net.cpp:406] score_uncropped-R <- data_data_0_split_3
I0419 00:41:43.714717 20669 net.cpp:380] score_uncropped-R -> score_uncropped-R
I0419 00:41:43.716869 20669 net.cpp:122] Setting up score_uncropped-R
I0419 00:41:43.716887 20669 net.cpp:129] Top shape: 1 3 512 310 (476160)
I0419 00:41:43.716904 20669 net.cpp:137] Memory required for data: 1766098428
I0419 00:41:43.716909 20669 layer_factory.hpp:77] Creating layer loss1
I0419 00:41:43.716933 20669 net.cpp:84] Creating Layer loss1
I0419 00:41:43.716938 20669 net.cpp:406] loss1 <- score_score_0_split_1
I0419 00:41:43.716943 20669 net.cpp:406] loss1 <- label_data_1_split_1
I0419 00:41:43.716950 20669 net.cpp:380] loss1 -> loss1
…
