…
snapshot_prefix: "/media/Med_2T2/data2/models/snapshots/joint:1e-5x10,1e-5x10,20/FD2:XI3_1_20180715_091946,XJ3_1_20180715_202402/train"
test_initialization: false
average_loss: 20
stepvalue: 50000
stepvalue: 60000
stepvalue: 70000
iter_size: 1
I0715 20:24:03.745579 14365 solver.cpp:77] Creating training net from train_net file: /media/Med_2T2/data2/prototxts/training_J3x10.prototxt
I0715 20:24:03.748332 14365 net.cpp:51] Initializing net from parameters: 
state {
  phase: TRAIN
}
layer {
  name: "data"
  type: "Python"
  top: "data"
  top: "label"
  top: "crop_margin"
  top: "crop_prob"
  top: "crop_sample_batch"
  python_param {
    module: "Data"
    layer: "DataLayer"
  }
}
layer {
  name: "conv1_1"
  type: "Convolution"
  bottom: "data"
  top: "conv1_1"
  param {
    lr_mult: 1
    decay_mult: 1
  }
  param {
    lr_mult: 2
    decay_mult: 0
  }
  convolution_param {
    num_output: 64
    pad: 100
    kernel_size: 3
    stride: 1
  }
}
layer {
  name: "relu1_1"
  type: "ReLU"
  bottom: "conv1_1"
  top: "conv1_1"
}
layer {
  name: "conv1_2"
  type: "Convolution"
  bottom: "conv1_1"
  top: "conv1_2"
  param {
    lr_mult: 1
    decay_mult: 1
  }
  param {
    lr_mult: 2
    decay_mult: 0
  }
  convolution_param {
    num_output: 64
    pad: 1
    kernel_size: 3
    stride: 1
  }
}
layer {
  name: "relu1_2"
  type: "ReLU"
  bottom: "conv1_2"
  top: "conv1_2"
}
layer {
  name: "pool1"
  type: "Pooling"
  bottom: "conv1_2"
  top: "pool1"
  pooling_param {
    pool: MAX
    kernel_size: 2
    stride: 2
  }
}
layer {
  name: "conv2_1"
  type: "Convolution"
  bottom: "pool1"
  top: "conv2_1"
  param {
    lr_mult: 1
    decay_mult: 1
  }
  param {
    lr_mult: 2
    decay_mult: 0
  }
  convolution_param {
    num_output: 128
    pad: 1
    kernel_size: 3
    stride: 1
  }
}
layer {
  name: "relu2_1"
  type: "ReLU"
  bottom: "conv2_1"
  top: "conv2_1"
}
layer {
  name: "conv2_2"
  type: "Convolution"
  bottom: "conv2_1"
  top: "conv2_2"
  param {
    lr_mult: 1
    decay_mult: 1
  }
  param {
    lr_mult: 2
    decay_mult: 0
  }
  convolution_param {
    num_output: 128
    pad: 1
    kernel_size: 3
    stride: 1
  }
}
layer {
  name: "relu2_2"
  type: "ReLU"
  bottom: "conv2_2"
  top: "conv2_2"
}
layer {
  name: "pool2"
  type: "Pooling"
  bottom: "conv2_2"
  top: "pool2"
  pooling_param {
    pool: MAX
    kernel_size: 2
    stride: 2
  }
}
layer {
  name: "conv3_1"
  type: "Convolution"
  bottom: "pool2"
  top: "conv3_1"
  param {
    lr_mult: 1
    decay_mult: 1
  }
  param {
    lr_mult: 2
    decay_mult: 0
  }
  convolution_param {
    num_output: 256
    pad: 1
    kernel_size: 3
    stride: 1
  }
}
layer {
  name: "relu3_1"
  type: "ReLU"
  bottom: "conv3_1"
  top: "conv3_1"
}
layer {
  name: "conv3_2"
  type: "Convolution"
  bottom: "conv3_1"
  top: "conv3_2"
  param {
    lr_mult: 1
    decay_mult: 1
  }
  param {
    lr_mult: 2
    decay_mult: 0
  }
  convolution_param {
    num_output: 256
    pad: 1
    kernel_size: 3
    stride: 1
  }
}
layer {
  name: "relu3_2"
  type: "ReLU"
  bottom: "conv3_2"
  top: "conv3_2"
}
layer {
  name: "conv3_3"
  type: "Convolution"
  bottom: "conv3_2"
  top: "conv3_3"
  param {
    lr_mult: 1
    decay_mult: 1
  }
  param {
    lr_mult: 2
    decay_mult: 0
  }
  convolution_param {
    num_output: 256
    pad: 1
    kernel_size: 3
    stride: 1
  }
}
layer {
  name: "relu3_3"
  type: "ReLU"
  bottom: "conv3_3"
  top: "conv3_3"
}
layer {
  name: "pool3"
  type: "Pooling"
  bottom: "conv3_3"
  top: "pool3"
  pooling_param {
    pool: MAX
    kernel_size: 2
    stride: 2
  }
}
layer {
  name: "conv4_1"
  type: "Convolution"
  bottom: "pool3"
  top: "conv4_1"
  param {
    lr_mult: 1
    decay_mult: 1
  }
  param {
    lr_mult: 2
    decay_mult: 0
  }
  convolution_param {
    num_output: 512
    pad: 1
    kernel_size: 3
    stride: 1
  }
}
layer {
  name: "relu4_1"
  type: "ReLU"
  bottom: "conv4_1"
  top: "conv4_1"
}
layer {
  name: "conv4_2"
  type: "Convolution"
  bottom: "conv4_1"
  top: "conv4_2"
  param {
    lr_mult: 1
    decay_mult: 1
  }
  param {
    lr_mult: 2
    decay_mult: 0
  }
  convolution_param {
    num_output: 512
    pad: 1
    kernel_size: 3
    stride: 1
  }
}
layer {
  name: "relu4_2"
  type: "ReLU"
  bottom: "conv4_2"
  top: "conv4_2"
}
layer {
  name: "conv4_3"
  type: "Convolution"
  bottom: "conv4_2"
  top: "conv4_3"
  param {
    lr_mult: 1
    decay_mult: 1
  }
  param {
    lr_mult: 2
    decay_mult: 0
  }
  convolution_param {
    num_output: 512
    pad: 1
    kernel_size: 3
    stride: 1
  }
}
layer {
  name: "relu4_3"
  type: "ReLU"
  bottom: "conv4_3"
  top: "conv4_3"
}
layer {
  name: "pool4"
  type: "Pooling"
  bottom: "conv4_3"
  top: "pool4"
  pooling_param {
    pool: MAX
    kernel_size: 2
    stride: 2
  }
}
layer {
  name: "conv5_1"
  type: "Convolution"
  bottom: "pool4"
  top: "conv5_1"
  param {
    lr_mult: 1
    decay_mult: 1
  }
  param {
    lr_mult: 2
    decay_mult: 0
  }
  convolution_param {
    num_output: 512
    pad: 1
    kernel_size: 3
    stride: 1
  }
}
layer {
  name: "relu5_1"
  type: "ReLU"
  bottom: "conv5_1"
  top: "conv5_1"
}
layer {
  name: "conv5_2"
  type: "Convolution"
  bottom: "conv5_1"
  top: "conv5_2"
  param {
    lr_mult: 1
    decay_mult: 1
  }
  param {
    lr_mult: 2
    decay_mult: 0
  }
  convolution_param {
    num_output: 512
    pad: 1
    kernel_size: 3
    stride: 1
  }
}
layer {
  name: "relu5_2"
  type: "ReLU"
  bottom: "conv5_2"
  top: "conv5_2"
}
layer {
  name: "conv5_3"
  type: "Convolution"
  bottom: "conv5_2"
  top: "conv5_3"
  param {
    lr_mult: 1
    decay_mult: 1
  }
  param {
    lr_mult: 2
    decay_mult: 0
  }
  convolution_param {
    num_output: 512
    pad: 1
    kernel_size: 3
    stride: 1
  }
}
layer {
  name: "relu5_3"
  type: "ReLU"
  bottom: "conv5_3"
  top: "conv5_3"
}
layer {
  name: "pool5"
  type: "Pooling"
  bottom: "conv5_3"
  top: "pool5"
  pooling_param {
    pool: MAX
    kernel_size: 2
    stride: 2
  }
}
layer {
  name: "fc6"
  type: "Convolution"
  bottom: "pool5"
  top: "fc6"
  param {
    lr_mult: 1
    decay_mult: 1
  }
  param {
    lr_mult: 2
    decay_mult: 0
  }
  convolution_param {
    num_output: 4096
    pad: 0
    kernel_size: 7
    stride: 1
  }
}
layer {
  name: "relu6"
  type: "ReLU"
  bottom: "fc6"
  top: "fc6"
}
layer {
  name: "drop6"
  type: "Dropout"
  bottom: "fc6"
  top: "fc6"
  dropout_param {
    dropout_ratio: 0.5
  }
}
layer {
  name: "fc7"
  type: "Convolution"
  bottom: "fc6"
  top: "fc7"
  param {
    lr_mult: 1
    decay_mult: 1
  }
  param {
    lr_mult: 2
    decay_mult: 0
  }
  convolution_param {
    num_output: 4096
    pad: 0
    kernel_size: 1
    stride: 1
  }
}
layer {
  name: "relu7"
  type: "ReLU"
  bottom: "fc7"
  top: "fc7"
}
layer {
  name: "drop7"
  type: "Dropout"
  bottom: "fc7"
  top: "fc7"
  dropout_param {
    dropout_ratio: 0.5
  }
}
layer {
  name: "score_fr-new"
  type: "Convolution"
  bottom: "fc7"
  top: "score_fr-new"
  param {
    lr_mult: 1
    decay_mult: 1
  }
  param {
    lr_mult: 2
    decay_mult: 0
  }
  convolution_param {
    num_output: 3
    kernel_size: 1
  }
}
layer {
  name: "upscore2-new"
  type: "Deconvolution"
  bottom: "score_fr-new"
  top: "upscore2-new"
  param {
    lr_mult: 0
  }
  convolution_param {
    num_output: 3
    bias_term: false
    kernel_size: 4
    stride: 2
  }
}
layer {
  name: "score_pool4-new"
  type: "Convolution"
  bottom: "pool4"
  top: "score_pool4-new"
  param {
    lr_mult: 1
    decay_mult: 1
  }
  param {
    lr_mult: 2
    decay_mult: 0
  }
  convolution_param {
    num_output: 3
    pad: 0
    kernel_size: 1
  }
}
layer {
  name: "score_pool4c"
  type: "Crop"
  bottom: "score_pool4-new"
  bottom: "upscore2-new"
  top: "score_pool4c"
  crop_param {
    axis: 2
    offset: 5
  }
}
layer {
  name: "fuse_pool4"
  type: "Eltwise"
  bottom: "upscore2-new"
  bottom: "score_pool4c"
  top: "fuse_pool4"
  eltwise_param {
    operation: SUM
  }
}
layer {
  name: "upscore_pool4-new"
  type: "Deconvolution"
  bottom: "fuse_pool4"
  top: "upscore_pool4-new"
  param {
    lr_mult: 0
  }
  convolution_param {
    num_output: 3
    bias_term: false
    kernel_size: 4
    stride: 2
  }
}
layer {
  name: "score_pool3-new"
  type: "Convolution"
  bottom: "pool3"
  top: "score_pool3-new"
  param {
    lr_mult: 1
    decay_mult: 1
  }
  param {
    lr_mult: 2
    decay_mult: 0
  }
  convolution_param {
    num_output: 3
    pad: 0
    kernel_size: 1
  }
}
layer {
  name: "score_pool3c"
  type: "Crop"
  bottom: "score_pool3-new"
  bottom: "upscore_pool4-new"
  top: "score_pool3c"
  crop_param {
    axis: 2
    offset: 9
  }
}
layer {
  name: "fuse_pool3"
  type: "Eltwise"
  bottom: "upscore_pool4-new"
  bottom: "score_pool3c"
  top: "fuse_pool3"
  eltwise_param {
    operation: SUM
  }
}
layer {
  name: "upscore8-new"
  type: "Deconvolution"
  bottom: "fuse_pool3"
  top: "upscore8-new"
  param {
    lr_mult: 0
  }
  convolution_param {
    num_output: 3
    bias_term: false
    kernel_size: 16
    stride: 8
  }
}
layer {
  name: "upscore8_cropped"
  type: "Crop"
  bottom: "upscore8-new"
  bottom: "data"
  top: "upscore8_cropped"
  crop_param {
    axis: 2
    offset: 31
  }
}
layer {
  name: "prob"
  type: "Sigmoid"
  bottom: "upscore8_cropped"
  top: "prob"
}
layer {
  name: "saliency1"
  type: "Convolution"
  bottom: "prob"
  top: "saliency1"
  param {
    lr_mult: 10
    decay_mult: 1
  }
  param {
    lr_mult: 20
    decay_mult: 0
  }
  convolution_param {
    num_output: 3
    pad: 1
    kernel_size: 3
    stride: 1
    weight_filler {
      type: "xavier"
    }
    bias_filler {
      type: "constant"
      value: 1
    }
  }
}
layer {
  name: "relu_saliency1"
  type: "ReLU"
  bottom: "saliency1"
  top: "saliency1"
}
layer {
  name: "saliency"
  type: "Convolution"
  bottom: "saliency1"
  top: "saliency"
  param {
    lr_mult: 10
    decay_mult: 1
  }
  param {
    lr_mult: 20
    decay_mult: 0
  }
  convolution_param {
    num_output: 3
    pad: 2
    kernel_size: 5
    stride: 1
    weight_filler {
      type: "xavier"
    }
    bias_filler {
      type: "constant"
      value: 1
    }
  }
}
layer {
  name: "saliency_data"
  type: "Eltwise"
  bottom: "data"
  bottom: "saliency"
  top: "saliency_data"
  eltwise_param {
    operation: PROD
  }
}
layer {
  name: "crop"
  type: "Python"
  bottom: "prob"
  bottom: "saliency_data"
  bottom: "crop_margin"
  bottom: "crop_prob"
  bottom: "crop_sample_batch"
  bottom: "label"
  top: "data-R"
  top: "crop_info"
  python_param {
    module: "Crop"
    layer: "CropLayer"
    param_str: "{\"TEST\": 0}"
  }
}
layer {
  name: "conv1_1-R"
  type: "Convolution"
  bottom: "data-R"
  top: "conv1_1-R"
  param {
    lr_mult: 10
    decay_mult: 1
  }
  param {
    lr_mult: 20
    decay_mult: 0
  }
  convolution_param {
    num_output: 64
    pad: 100
    kernel_size: 3
    stride: 1
  }
}
layer {
  name: "relu1_1-R"
  type: "ReLU"
  bottom: "conv1_1-R"
  top: "conv1_1-R"
}
layer {
  name: "conv1_2-R"
  type: "Convolution"
  bottom: "conv1_1-R"
  top: "conv1_2-R"
  param {
    lr_mult: 10
    decay_mult: 1
  }
  param {
    lr_mult: 20
    decay_mult: 0
  }
  convolution_param {
    num_output: 64
    pad: 1
    kernel_size: 3
    stride: 1
  }
}
layer {
  name: "relu1_2-R"
  type: "ReLU"
  bottom: "conv1_2-R"
  top: "conv1_2-R"
}
layer {
  name: "pool1-R"
  type: "Pooling"
  bottom: "conv1_2-R"
  top: "pool1-R"
  pooling_param {
    pool: MAX
    kernel_size: 2
    stride: 2
  }
}
layer {
  name: "conv2_1-R"
  type: "Convolution"
  bottom: "pool1-R"
  top: "conv2_1-R"
  param {
    lr_mult: 10
    decay_mult: 1
  }
  param {
    lr_mult: 20
    decay_mult: 0
  }
  convolution_param {
    num_output: 128
    pad: 1
    kernel_size: 3
    stride: 1
  }
}
layer {
  name: "relu2_1-R"
  type: "ReLU"
  bottom: "conv2_1-R"
  top: "conv2_1-R"
}
layer {
  name: "conv2_2-R"
  type: "Convolution"
  bottom: "conv2_1-R"
  top: "conv2_2-R"
  param {
    lr_mult: 10
    decay_mult: 1
  }
  param {
    lr_mult: 20
    decay_mult: 0
  }
  convolution_param {
    num_output: 128
    pad: 1
    kernel_size: 3
    stride: 1
  }
}
layer {
  name: "relu2_2-R"
  type: "ReLU"
  bottom: "conv2_2-R"
  top: "conv2_2-R"
}
layer {
  name: "pool2-R"
  type: "Pooling"
  bottom: "conv2_2-R"
  top: "pool2-R"
  pooling_param {
    pool: MAX
    kernel_size: 2
    stride: 2
  }
}
layer {
  name: "conv3_1-R"
  type: "Convolution"
  bottom: "pool2-R"
  top: "conv3_1-R"
  param {
    lr_mult: 10
    decay_mult: 1
  }
  param {
    lr_mult: 20
    decay_mult: 0
  }
  convolution_param {
    num_output: 256
    pad: 1
    kernel_size: 3
    stride: 1
  }
}
layer {
  name: "relu3_1-R"
  type: "ReLU"
  bottom: "conv3_1-R"
  top: "conv3_1-R"
}
layer {
  name: "conv3_2-R"
  type: "Convolution"
  bottom: "conv3_1-R"
  top: "conv3_2-R"
  param {
    lr_mult: 10
    decay_mult: 1
  }
  param {
    lr_mult: 20
    decay_mult: 0
  }
  convolution_param {
    num_output: 256
    pad: 1
    kernel_size: 3
    stride: 1
  }
}
layer {
  name: "relu3_2-R"
  type: "ReLU"
  bottom: "conv3_2-R"
  top: "conv3_2-R"
}
layer {
  name: "conv3_3-R"
  type: "Convolution"
  bottom: "conv3_2-R"
  top: "conv3_3-R"
  param {
    lr_mult: 10
    decay_mult: 1
  }
  param {
    lr_mult: 20
    decay_mult: 0
  }
  convolution_param {
    num_output: 256
    pad: 1
    kernel_size: 3
    stride: 1
  }
}
layer {
  name: "relu3_3-R"
  type: "ReLU"
  bottom: "conv3_3-R"
  top: "conv3_3-R"
}
layer {
  name: "pool3-R"
  type: "Pooling"
  bottom: "conv3_3-R"
  top: "pool3-R"
  pooling_param {
    pool: MAX
    kernel_size: 2
    stride: 2
  }
}
layer {
  name: "conv4_1-R"
  type: "Convolution"
  bottom: "pool3-R"
  top: "conv4_1-R"
  param {
    lr_mult: 10
    decay_mult: 1
  }
  param {
    lr_mult: 20
    decay_mult: 0
  }
  convolution_param {
    num_output: 512
    pad: 1
    kernel_size: 3
    stride: 1
  }
}
layer {
  name: "relu4_1-R"
  type: "ReLU"
  bottom: "conv4_1-R"
  top: "conv4_1-R"
}
layer {
  name: "conv4_2-R"
  type: "Convolution"
  bottom: "conv4_1-R"
  top: "conv4_2-R"
  param {
    lr_mult: 10
    decay_mult: 1
  }
  param {
    lr_mult: 20
    decay_mult: 0
  }
  convolution_param {
    num_output: 512
    pad: 1
    kernel_size: 3
    stride: 1
  }
}
layer {
  name: "relu4_2-R"
  type: "ReLU"
  bottom: "conv4_2-R"
  top: "conv4_2-R"
}
layer {
  name: "conv4_3-R"
  type: "Convolution"
  bottom: "conv4_2-R"
  top: "conv4_3-R"
  param {
    lr_mult: 10
    decay_mult: 1
  }
  param {
    lr_mult: 20
    decay_mult: 0
  }
  convolution_param {
    num_output: 512
    pad: 1
    kernel_size: 3
    stride: 1
  }
}
layer {
  name: "relu4_3-R"
  type: "ReLU"
  bottom: "conv4_3-R"
  top: "conv4_3-R"
}
layer {
  name: "pool4-R"
  type: "Pooling"
  bottom: "conv4_3-R"
  top: "pool4-R"
  pooling_param {
    pool: MAX
    kernel_size: 2
    stride: 2
  }
}
layer {
  name: "conv5_1-R"
  type: "Convolution"
  bottom: "pool4-R"
  top: "conv5_1-R"
  param {
    lr_mult: 10
    decay_mult: 1
  }
  param {
    lr_mult: 20
    decay_mult: 0
  }
  convolution_param {
    num_output: 512
    pad: 1
    kernel_size: 3
    stride: 1
  }
}
layer {
  name: "relu5_1-R"
  type: "ReLU"
  bottom: "conv5_1-R"
  top: "conv5_1-R"
}
layer {
  name: "conv5_2-R"
  type: "Convolution"
  bottom: "conv5_1-R"
  top: "conv5_2-R"
  param {
    lr_mult: 10
    decay_mult: 1
  }
  param {
    lr_mult: 20
    decay_mult: 0
  }
  convolution_param {
    num_output: 512
    pad: 1
    kernel_size: 3
    stride: 1
  }
}
layer {
  name: "relu5_2-R"
  type: "ReLU"
  bottom: "conv5_2-R"
  top: "conv5_2-R"
}
layer {
  name: "conv5_3-R"
  type: "Convolution"
  bottom: "conv5_2-R"
  top: "conv5_3-R"
  param {
    lr_mult: 10
    decay_mult: 1
  }
  param {
    lr_mult: 20
    decay_mult: 0
  }
  convolution_param {
    num_output: 512
    pad: 1
    kernel_size: 3
    stride: 1
  }
}
layer {
  name: "relu5_3-R"
  type: "ReLU"
  bottom: "conv5_3-R"
  top: "conv5_3-R"
}
layer {
  name: "pool5-R"
  type: "Pooling"
  bottom: "conv5_3-R"
  top: "pool5-R"
  pooling_param {
    pool: MAX
    kernel_size: 2
    stride: 2
  }
}
layer {
  name: "fc6-R"
  type: "Convolution"
  bottom: "pool5-R"
  top: "fc6-R"
  param {
    lr_mult: 10
    decay_mult: 1
  }
  param {
    lr_mult: 20
    decay_mult: 0
  }
  convolution_param {
    num_output: 4096
    pad: 0
    kernel_size: 7
    stride: 1
  }
}
layer {
  name: "relu6-R"
  type: "ReLU"
  bottom: "fc6-R"
  top: "fc6-R"
}
layer {
  name: "drop6-R"
  type: "Dropout"
  bottom: "fc6-R"
  top: "fc6-R"
  dropout_param {
    dropout_ratio: 0.5
  }
}
layer {
  name: "fc7-R"
  type: "Convolution"
  bottom: "fc6-R"
  top: "fc7-R"
  param {
    lr_mult: 10
    decay_mult: 1
  }
  param {
    lr_mult: 20
    decay_mult: 0
  }
  convolution_param {
    num_output: 4096
    pad: 0
    kernel_size: 1
    stride: 1
  }
}
layer {
  name: "relu7-R"
  type: "ReLU"
  bottom: "fc7-R"
  top: "fc7-R"
}
layer {
  name: "drop7-R"
  type: "Dropout"
  bottom: "fc7-R"
  top: "fc7-R"
  dropout_param {
    dropout_ratio: 0.5
  }
}
layer {
  name: "score_fr-new-R"
  type: "Convolution"
  bottom: "fc7-R"
  top: "score_fr-new-R"
  param {
    lr_mult: 10
    decay_mult: 1
  }
  param {
    lr_mult: 20
    decay_mult: 0
  }
  convolution_param {
    num_output: 3
    kernel_size: 1
  }
}
layer {
  name: "upscore2-new-R"
  type: "Deconvolution"
  bottom: "score_fr-new-R"
  top: "upscore2-new-R"
  param {
    lr_mult: 0
  }
  convolution_param {
    num_output: 3
    bias_term: false
    kernel_size: 4
    stride: 2
  }
}
layer {
  name: "score_pool4-new-R"
  type: "Convolution"
  bottom: "pool4-R"
  top: "score_pool4-new-R"
  param {
    lr_mult: 10
    decay_mult: 1
  }
  param {
    lr_mult: 20
    decay_mult: 0
  }
  convolution_param {
    num_output: 3
    pad: 0
    kernel_size: 1
  }
}
layer {
  name: "score_pool4c-R"
  type: "Crop"
  bottom: "score_pool4-new-R"
  bottom: "upscore2-new-R"
  top: "score_pool4c-R"
  crop_param {
    axis: 2
    offset: 5
  }
}
layer {
  name: "fuse_pool4-R"
  type: "Eltwise"
  bottom: "upscore2-new-R"
  bottom: "score_pool4c-R"
  top: "fuse_pool4-R"
  eltwise_param {
    operation: SUM
  }
}
layer {
  name: "upscore_pool4-new-R"
  type: "Deconvolution"
  bottom: "fuse_pool4-R"
  top: "upscore_pool4-new-R"
  param {
    lr_mult: 0
  }
  convolution_param {
    num_output: 3
    bias_term: false
    kernel_size: 4
    stride: 2
  }
}
layer {
  name: "score_pool3-new-R"
  type: "Convolution"
  bottom: "pool3-R"
  top: "score_pool3-new-R"
  param {
    lr_mult: 10
    decay_mult: 1
  }
  param {
    lr_mult: 20
    decay_mult: 0
  }
  convolution_param {
    num_output: 3
    pad: 0
    kernel_size: 1
  }
}
layer {
  name: "score_pool3c-R"
  type: "Crop"
  bottom: "score_pool3-new-R"
  bottom: "upscore_pool4-new-R"
  top: "score_pool3c-R"
  crop_param {
    axis: 2
    offset: 9
  }
}
layer {
  name: "fuse_pool3-R"
  type: "Eltwise"
  bottom: "upscore_pool4-new-R"
  bottom: "score_pool3c-R"
  top: "fuse_pool3-R"
  eltwise_param {
    operation: SUM
  }
}
layer {
  name: "upscore8-new-R"
  type: "Deconvolution"
  bottom: "fuse_pool3-R"
  top: "upscore8-new-R"
  param {
    lr_mult: 0
  }
  convolution_param {
    num_output: 3
    bias_term: false
    kernel_size: 16
    stride: 8
  }
}
layer {
  name: "upscore8_cropped-R"
  type: "Crop"
  bottom: "upscore8-new-R"
  bottom: "data-R"
  top: "upscore8_cropped-R"
  crop_param {
    axis: 2
    offset: 31
  }
}
layer {
  name: "upscore8_uncropped-R"
  type: "Python"
  bottom: "crop_info"
  bottom: "upscore8_cropped-R"
  bottom: "data"
  top: "upscore8_uncropped-R"
  python_param {
    module: "Uncrop"
    layer: "UncropLayer"
  }
}
layer {
  name: "loss1"
  type: "DiceLoss"
  bottom: "upscore8_cropped"
  bottom: "label"
  top: "loss1"
  loss_weight: 0.333333
}
layer {
  name: "loss2"
  type: "DiceLoss"
  bottom: "upscore8_uncropped-R"
  bottom: "label"
  top: "loss2"
  loss_weight: 0.666667
}
I0715 20:24:03.748868 14365 layer_factory.hpp:77] Creating layer data
I0715 20:24:03.749230 14365 net.cpp:84] Creating Layer data
I0715 20:24:03.749243 14365 net.cpp:380] data -> data
I0715 20:24:03.749259 14365 net.cpp:380] data -> label
I0715 20:24:03.749267 14365 net.cpp:380] data -> crop_margin
I0715 20:24:03.749274 14365 net.cpp:380] data -> crop_prob
I0715 20:24:03.749279 14365 net.cpp:380] data -> crop_sample_batch
I0715 20:24:03.923995 14365 net.cpp:122] Setting up data
I0715 20:24:03.924075 14365 net.cpp:129] Top shape: 1 3 512 310 (476160)
I0715 20:24:03.924088 14365 net.cpp:129] Top shape: 1 3 512 310 (476160)
I0715 20:24:03.924096 14365 net.cpp:129] Top shape: 1 (1)
I0715 20:24:03.924104 14365 net.cpp:129] Top shape: 1 (1)
I0715 20:24:03.924113 14365 net.cpp:129] Top shape: 1 (1)
I0715 20:24:03.924130 14365 net.cpp:137] Memory required for data: 3809292
I0715 20:24:03.924149 14365 layer_factory.hpp:77] Creating layer data_data_0_split
I0715 20:24:03.924183 14365 net.cpp:84] Creating Layer data_data_0_split
I0715 20:24:03.924196 14365 net.cpp:406] data_data_0_split <- data
I0715 20:24:03.924218 14365 net.cpp:380] data_data_0_split -> data_data_0_split_0
I0715 20:24:03.924238 14365 net.cpp:380] data_data_0_split -> data_data_0_split_1
I0715 20:24:03.924252 14365 net.cpp:380] data_data_0_split -> data_data_0_split_2
I0715 20:24:03.924263 14365 net.cpp:380] data_data_0_split -> data_data_0_split_3
I0715 20:24:03.924365 14365 net.cpp:122] Setting up data_data_0_split
I0715 20:24:03.924381 14365 net.cpp:129] Top shape: 1 3 512 310 (476160)
I0715 20:24:03.924391 14365 net.cpp:129] Top shape: 1 3 512 310 (476160)
I0715 20:24:03.924398 14365 net.cpp:129] Top shape: 1 3 512 310 (476160)
I0715 20:24:03.924407 14365 net.cpp:129] Top shape: 1 3 512 310 (476160)
I0715 20:24:03.924414 14365 net.cpp:137] Memory required for data: 11427852
I0715 20:24:03.924424 14365 layer_factory.hpp:77] Creating layer label_data_1_split
I0715 20:24:03.924437 14365 net.cpp:84] Creating Layer label_data_1_split
I0715 20:24:03.924443 14365 net.cpp:406] label_data_1_split <- label
I0715 20:24:03.924465 14365 net.cpp:380] label_data_1_split -> label_data_1_split_0
I0715 20:24:03.924477 14365 net.cpp:380] label_data_1_split -> label_data_1_split_1
I0715 20:24:03.924489 14365 net.cpp:380] label_data_1_split -> label_data_1_split_2
I0715 20:24:03.924558 14365 net.cpp:122] Setting up label_data_1_split
I0715 20:24:03.924573 14365 net.cpp:129] Top shape: 1 3 512 310 (476160)
I0715 20:24:03.924582 14365 net.cpp:129] Top shape: 1 3 512 310 (476160)
I0715 20:24:03.924590 14365 net.cpp:129] Top shape: 1 3 512 310 (476160)
I0715 20:24:03.924597 14365 net.cpp:137] Memory required for data: 17141772
I0715 20:24:03.924603 14365 layer_factory.hpp:77] Creating layer conv1_1
I0715 20:24:03.924635 14365 net.cpp:84] Creating Layer conv1_1
I0715 20:24:03.924644 14365 net.cpp:406] conv1_1 <- data_data_0_split_0
I0715 20:24:03.924656 14365 net.cpp:380] conv1_1 -> conv1_1
I0715 20:24:04.289939 14365 net.cpp:122] Setting up conv1_1
I0715 20:24:04.289989 14365 net.cpp:129] Top shape: 1 64 710 508 (23083520)
I0715 20:24:04.289994 14365 net.cpp:137] Memory required for data: 109475852
I0715 20:24:04.290019 14365 layer_factory.hpp:77] Creating layer relu1_1
I0715 20:24:04.290040 14365 net.cpp:84] Creating Layer relu1_1
I0715 20:24:04.290060 14365 net.cpp:406] relu1_1 <- conv1_1
I0715 20:24:04.290068 14365 net.cpp:367] relu1_1 -> conv1_1 (in-place)
I0715 20:24:04.290253 14365 net.cpp:122] Setting up relu1_1
I0715 20:24:04.290264 14365 net.cpp:129] Top shape: 1 64 710 508 (23083520)
I0715 20:24:04.290268 14365 net.cpp:137] Memory required for data: 201809932
I0715 20:24:04.290271 14365 layer_factory.hpp:77] Creating layer conv1_2
I0715 20:24:04.290284 14365 net.cpp:84] Creating Layer conv1_2
I0715 20:24:04.290288 14365 net.cpp:406] conv1_2 <- conv1_1
I0715 20:24:04.290294 14365 net.cpp:380] conv1_2 -> conv1_2
I0715 20:24:04.295327 14365 net.cpp:122] Setting up conv1_2
I0715 20:24:04.295346 14365 net.cpp:129] Top shape: 1 64 710 508 (23083520)
I0715 20:24:04.295367 14365 net.cpp:137] Memory required for data: 294144012
I0715 20:24:04.295380 14365 layer_factory.hpp:77] Creating layer relu1_2
I0715 20:24:04.295390 14365 net.cpp:84] Creating Layer relu1_2
I0715 20:24:04.295394 14365 net.cpp:406] relu1_2 <- conv1_2
I0715 20:24:04.295400 14365 net.cpp:367] relu1_2 -> conv1_2 (in-place)
I0715 20:24:04.295629 14365 net.cpp:122] Setting up relu1_2
I0715 20:24:04.295640 14365 net.cpp:129] Top shape: 1 64 710 508 (23083520)
I0715 20:24:04.295644 14365 net.cpp:137] Memory required for data: 386478092
I0715 20:24:04.295647 14365 layer_factory.hpp:77] Creating layer pool1
I0715 20:24:04.295657 14365 net.cpp:84] Creating Layer pool1
I0715 20:24:04.295661 14365 net.cpp:406] pool1 <- conv1_2
I0715 20:24:04.295667 14365 net.cpp:380] pool1 -> pool1
I0715 20:24:04.295719 14365 net.cpp:122] Setting up pool1
I0715 20:24:04.295735 14365 net.cpp:129] Top shape: 1 64 355 254 (5770880)
I0715 20:24:04.295739 14365 net.cpp:137] Memory required for data: 409561612
I0715 20:24:04.295742 14365 layer_factory.hpp:77] Creating layer conv2_1
I0715 20:24:04.295755 14365 net.cpp:84] Creating Layer conv2_1
I0715 20:24:04.295759 14365 net.cpp:406] conv2_1 <- pool1
I0715 20:24:04.295766 14365 net.cpp:380] conv2_1 -> conv2_1
I0715 20:24:04.297543 14365 net.cpp:122] Setting up conv2_1
I0715 20:24:04.297557 14365 net.cpp:129] Top shape: 1 128 355 254 (11541760)
I0715 20:24:04.297562 14365 net.cpp:137] Memory required for data: 455728652
I0715 20:24:04.297572 14365 layer_factory.hpp:77] Creating layer relu2_1
I0715 20:24:04.297583 14365 net.cpp:84] Creating Layer relu2_1
I0715 20:24:04.297587 14365 net.cpp:406] relu2_1 <- conv2_1
I0715 20:24:04.297593 14365 net.cpp:367] relu2_1 -> conv2_1 (in-place)
I0715 20:24:04.297768 14365 net.cpp:122] Setting up relu2_1
I0715 20:24:04.297778 14365 net.cpp:129] Top shape: 1 128 355 254 (11541760)
I0715 20:24:04.297782 14365 net.cpp:137] Memory required for data: 501895692
I0715 20:24:04.297786 14365 layer_factory.hpp:77] Creating layer conv2_2
I0715 20:24:04.297796 14365 net.cpp:84] Creating Layer conv2_2
I0715 20:24:04.297801 14365 net.cpp:406] conv2_2 <- conv2_1
I0715 20:24:04.297807 14365 net.cpp:380] conv2_2 -> conv2_2
I0715 20:24:04.304816 14365 net.cpp:122] Setting up conv2_2
I0715 20:24:04.304858 14365 net.cpp:129] Top shape: 1 128 355 254 (11541760)
I0715 20:24:04.304862 14365 net.cpp:137] Memory required for data: 548062732
I0715 20:24:04.304877 14365 layer_factory.hpp:77] Creating layer relu2_2
I0715 20:24:04.304929 14365 net.cpp:84] Creating Layer relu2_2
I0715 20:24:04.304936 14365 net.cpp:406] relu2_2 <- conv2_2
I0715 20:24:04.304944 14365 net.cpp:367] relu2_2 -> conv2_2 (in-place)
I0715 20:24:04.305224 14365 net.cpp:122] Setting up relu2_2
I0715 20:24:04.305235 14365 net.cpp:129] Top shape: 1 128 355 254 (11541760)
I0715 20:24:04.305239 14365 net.cpp:137] Memory required for data: 594229772
I0715 20:24:04.305243 14365 layer_factory.hpp:77] Creating layer pool2
I0715 20:24:04.305254 14365 net.cpp:84] Creating Layer pool2
I0715 20:24:04.305258 14365 net.cpp:406] pool2 <- conv2_2
I0715 20:24:04.305266 14365 net.cpp:380] pool2 -> pool2
I0715 20:24:04.305333 14365 net.cpp:122] Setting up pool2
I0715 20:24:04.305341 14365 net.cpp:129] Top shape: 1 128 178 127 (2893568)
I0715 20:24:04.305346 14365 net.cpp:137] Memory required for data: 605804044
I0715 20:24:04.305348 14365 layer_factory.hpp:77] Creating layer conv3_1
I0715 20:24:04.305363 14365 net.cpp:84] Creating Layer conv3_1
I0715 20:24:04.305366 14365 net.cpp:406] conv3_1 <- pool2
I0715 20:24:04.305373 14365 net.cpp:380] conv3_1 -> conv3_1
I0715 20:24:04.308949 14365 net.cpp:122] Setting up conv3_1
I0715 20:24:04.308969 14365 net.cpp:129] Top shape: 1 256 178 127 (5787136)
I0715 20:24:04.308974 14365 net.cpp:137] Memory required for data: 628952588
I0715 20:24:04.309003 14365 layer_factory.hpp:77] Creating layer relu3_1
I0715 20:24:04.309015 14365 net.cpp:84] Creating Layer relu3_1
I0715 20:24:04.309018 14365 net.cpp:406] relu3_1 <- conv3_1
I0715 20:24:04.309026 14365 net.cpp:367] relu3_1 -> conv3_1 (in-place)
I0715 20:24:04.309636 14365 net.cpp:122] Setting up relu3_1
I0715 20:24:04.309649 14365 net.cpp:129] Top shape: 1 256 178 127 (5787136)
I0715 20:24:04.309653 14365 net.cpp:137] Memory required for data: 652101132
I0715 20:24:04.309657 14365 layer_factory.hpp:77] Creating layer conv3_2
I0715 20:24:04.309684 14365 net.cpp:84] Creating Layer conv3_2
I0715 20:24:04.309689 14365 net.cpp:406] conv3_2 <- conv3_1
I0715 20:24:04.309695 14365 net.cpp:380] conv3_2 -> conv3_2
I0715 20:24:04.315034 14365 net.cpp:122] Setting up conv3_2
I0715 20:24:04.315059 14365 net.cpp:129] Top shape: 1 256 178 127 (5787136)
I0715 20:24:04.315065 14365 net.cpp:137] Memory required for data: 675249676
I0715 20:24:04.315088 14365 layer_factory.hpp:77] Creating layer relu3_2
I0715 20:24:04.315104 14365 net.cpp:84] Creating Layer relu3_2
I0715 20:24:04.315111 14365 net.cpp:406] relu3_2 <- conv3_2
I0715 20:24:04.315124 14365 net.cpp:367] relu3_2 -> conv3_2 (in-place)
I0715 20:24:04.316099 14365 net.cpp:122] Setting up relu3_2
I0715 20:24:04.316120 14365 net.cpp:129] Top shape: 1 256 178 127 (5787136)
I0715 20:24:04.316126 14365 net.cpp:137] Memory required for data: 698398220
I0715 20:24:04.316133 14365 layer_factory.hpp:77] Creating layer conv3_3
I0715 20:24:04.316153 14365 net.cpp:84] Creating Layer conv3_3
I0715 20:24:04.316159 14365 net.cpp:406] conv3_3 <- conv3_2
I0715 20:24:04.316169 14365 net.cpp:380] conv3_3 -> conv3_3
I0715 20:24:04.321682 14365 net.cpp:122] Setting up conv3_3
I0715 20:24:04.321707 14365 net.cpp:129] Top shape: 1 256 178 127 (5787136)
I0715 20:24:04.321712 14365 net.cpp:137] Memory required for data: 721546764
I0715 20:24:04.321743 14365 layer_factory.hpp:77] Creating layer relu3_3
I0715 20:24:04.321753 14365 net.cpp:84] Creating Layer relu3_3
I0715 20:24:04.321759 14365 net.cpp:406] relu3_3 <- conv3_3
I0715 20:24:04.321772 14365 net.cpp:367] relu3_3 -> conv3_3 (in-place)
I0715 20:24:04.322075 14365 net.cpp:122] Setting up relu3_3
I0715 20:24:04.322093 14365 net.cpp:129] Top shape: 1 256 178 127 (5787136)
I0715 20:24:04.322099 14365 net.cpp:137] Memory required for data: 744695308
I0715 20:24:04.322105 14365 layer_factory.hpp:77] Creating layer pool3
I0715 20:24:04.322116 14365 net.cpp:84] Creating Layer pool3
I0715 20:24:04.322121 14365 net.cpp:406] pool3 <- conv3_3
I0715 20:24:04.322130 14365 net.cpp:380] pool3 -> pool3
I0715 20:24:04.322204 14365 net.cpp:122] Setting up pool3
I0715 20:24:04.322217 14365 net.cpp:129] Top shape: 1 256 89 64 (1458176)
I0715 20:24:04.322222 14365 net.cpp:137] Memory required for data: 750528012
I0715 20:24:04.322227 14365 layer_factory.hpp:77] Creating layer pool3_pool3_0_split
I0715 20:24:04.322237 14365 net.cpp:84] Creating Layer pool3_pool3_0_split
I0715 20:24:04.322242 14365 net.cpp:406] pool3_pool3_0_split <- pool3
I0715 20:24:04.322254 14365 net.cpp:380] pool3_pool3_0_split -> pool3_pool3_0_split_0
I0715 20:24:04.322264 14365 net.cpp:380] pool3_pool3_0_split -> pool3_pool3_0_split_1
I0715 20:24:04.322321 14365 net.cpp:122] Setting up pool3_pool3_0_split
I0715 20:24:04.322332 14365 net.cpp:129] Top shape: 1 256 89 64 (1458176)
I0715 20:24:04.322340 14365 net.cpp:129] Top shape: 1 256 89 64 (1458176)
I0715 20:24:04.322345 14365 net.cpp:137] Memory required for data: 762193420
I0715 20:24:04.322350 14365 layer_factory.hpp:77] Creating layer conv4_1
I0715 20:24:04.322366 14365 net.cpp:84] Creating Layer conv4_1
I0715 20:24:04.322373 14365 net.cpp:406] conv4_1 <- pool3_pool3_0_split_0
I0715 20:24:04.322382 14365 net.cpp:380] conv4_1 -> conv4_1
I0715 20:24:04.330826 14365 net.cpp:122] Setting up conv4_1
I0715 20:24:04.330850 14365 net.cpp:129] Top shape: 1 512 89 64 (2916352)
I0715 20:24:04.330854 14365 net.cpp:137] Memory required for data: 773858828
I0715 20:24:04.330863 14365 layer_factory.hpp:77] Creating layer relu4_1
I0715 20:24:04.330888 14365 net.cpp:84] Creating Layer relu4_1
I0715 20:24:04.330893 14365 net.cpp:406] relu4_1 <- conv4_1
I0715 20:24:04.330899 14365 net.cpp:367] relu4_1 -> conv4_1 (in-place)
I0715 20:24:04.332015 14365 net.cpp:122] Setting up relu4_1
I0715 20:24:04.332028 14365 net.cpp:129] Top shape: 1 512 89 64 (2916352)
I0715 20:24:04.332047 14365 net.cpp:137] Memory required for data: 785524236
I0715 20:24:04.332051 14365 layer_factory.hpp:77] Creating layer conv4_2
I0715 20:24:04.332083 14365 net.cpp:84] Creating Layer conv4_2
I0715 20:24:04.332087 14365 net.cpp:406] conv4_2 <- conv4_1
I0715 20:24:04.332094 14365 net.cpp:380] conv4_2 -> conv4_2
I0715 20:24:04.346467 14365 net.cpp:122] Setting up conv4_2
I0715 20:24:04.346510 14365 net.cpp:129] Top shape: 1 512 89 64 (2916352)
I0715 20:24:04.346516 14365 net.cpp:137] Memory required for data: 797189644
I0715 20:24:04.346542 14365 layer_factory.hpp:77] Creating layer relu4_2
I0715 20:24:04.346560 14365 net.cpp:84] Creating Layer relu4_2
I0715 20:24:04.346568 14365 net.cpp:406] relu4_2 <- conv4_2
I0715 20:24:04.346580 14365 net.cpp:367] relu4_2 -> conv4_2 (in-place)
I0715 20:24:04.346853 14365 net.cpp:122] Setting up relu4_2
I0715 20:24:04.346877 14365 net.cpp:129] Top shape: 1 512 89 64 (2916352)
I0715 20:24:04.346882 14365 net.cpp:137] Memory required for data: 808855052
I0715 20:24:04.346887 14365 layer_factory.hpp:77] Creating layer conv4_3
I0715 20:24:04.346925 14365 net.cpp:84] Creating Layer conv4_3
I0715 20:24:04.346930 14365 net.cpp:406] conv4_3 <- conv4_2
I0715 20:24:04.346938 14365 net.cpp:380] conv4_3 -> conv4_3
I0715 20:24:04.359606 14365 net.cpp:122] Setting up conv4_3
I0715 20:24:04.359625 14365 net.cpp:129] Top shape: 1 512 89 64 (2916352)
I0715 20:24:04.359630 14365 net.cpp:137] Memory required for data: 820520460
I0715 20:24:04.359639 14365 layer_factory.hpp:77] Creating layer relu4_3
I0715 20:24:04.359649 14365 net.cpp:84] Creating Layer relu4_3
I0715 20:24:04.359654 14365 net.cpp:406] relu4_3 <- conv4_3
I0715 20:24:04.359664 14365 net.cpp:367] relu4_3 -> conv4_3 (in-place)
I0715 20:24:04.359876 14365 net.cpp:122] Setting up relu4_3
I0715 20:24:04.359890 14365 net.cpp:129] Top shape: 1 512 89 64 (2916352)
I0715 20:24:04.359895 14365 net.cpp:137] Memory required for data: 832185868
I0715 20:24:04.359899 14365 layer_factory.hpp:77] Creating layer pool4
I0715 20:24:04.359917 14365 net.cpp:84] Creating Layer pool4
I0715 20:24:04.359922 14365 net.cpp:406] pool4 <- conv4_3
I0715 20:24:04.359930 14365 net.cpp:380] pool4 -> pool4
I0715 20:24:04.359992 14365 net.cpp:122] Setting up pool4
I0715 20:24:04.360002 14365 net.cpp:129] Top shape: 1 512 45 32 (737280)
I0715 20:24:04.360007 14365 net.cpp:137] Memory required for data: 835134988
I0715 20:24:04.360010 14365 layer_factory.hpp:77] Creating layer pool4_pool4_0_split
I0715 20:24:04.360016 14365 net.cpp:84] Creating Layer pool4_pool4_0_split
I0715 20:24:04.360021 14365 net.cpp:406] pool4_pool4_0_split <- pool4
I0715 20:24:04.360033 14365 net.cpp:380] pool4_pool4_0_split -> pool4_pool4_0_split_0
I0715 20:24:04.360039 14365 net.cpp:380] pool4_pool4_0_split -> pool4_pool4_0_split_1
I0715 20:24:04.360082 14365 net.cpp:122] Setting up pool4_pool4_0_split
I0715 20:24:04.360088 14365 net.cpp:129] Top shape: 1 512 45 32 (737280)
I0715 20:24:04.360093 14365 net.cpp:129] Top shape: 1 512 45 32 (737280)
I0715 20:24:04.360097 14365 net.cpp:137] Memory required for data: 841033228
I0715 20:24:04.360101 14365 layer_factory.hpp:77] Creating layer conv5_1
I0715 20:24:04.360121 14365 net.cpp:84] Creating Layer conv5_1
I0715 20:24:04.360126 14365 net.cpp:406] conv5_1 <- pool4_pool4_0_split_0
I0715 20:24:04.360132 14365 net.cpp:380] conv5_1 -> conv5_1
I0715 20:24:04.368538 14365 net.cpp:122] Setting up conv5_1
I0715 20:24:04.368564 14365 net.cpp:129] Top shape: 1 512 45 32 (737280)
I0715 20:24:04.368571 14365 net.cpp:137] Memory required for data: 843982348
I0715 20:24:04.368579 14365 layer_factory.hpp:77] Creating layer relu5_1
I0715 20:24:04.368597 14365 net.cpp:84] Creating Layer relu5_1
I0715 20:24:04.368602 14365 net.cpp:406] relu5_1 <- conv5_1
I0715 20:24:04.368611 14365 net.cpp:367] relu5_1 -> conv5_1 (in-place)
I0715 20:24:04.369339 14365 net.cpp:122] Setting up relu5_1
I0715 20:24:04.369356 14365 net.cpp:129] Top shape: 1 512 45 32 (737280)
I0715 20:24:04.369361 14365 net.cpp:137] Memory required for data: 846931468
I0715 20:24:04.369365 14365 layer_factory.hpp:77] Creating layer conv5_2
I0715 20:24:04.369396 14365 net.cpp:84] Creating Layer conv5_2
I0715 20:24:04.369411 14365 net.cpp:406] conv5_2 <- conv5_1
I0715 20:24:04.369419 14365 net.cpp:380] conv5_2 -> conv5_2
I0715 20:24:04.378913 14365 net.cpp:122] Setting up conv5_2
I0715 20:24:04.378937 14365 net.cpp:129] Top shape: 1 512 45 32 (737280)
I0715 20:24:04.378943 14365 net.cpp:137] Memory required for data: 849880588
I0715 20:24:04.378952 14365 layer_factory.hpp:77] Creating layer relu5_2
I0715 20:24:04.378973 14365 net.cpp:84] Creating Layer relu5_2
I0715 20:24:04.378978 14365 net.cpp:406] relu5_2 <- conv5_2
I0715 20:24:04.378988 14365 net.cpp:367] relu5_2 -> conv5_2 (in-place)
I0715 20:24:04.381507 14365 net.cpp:122] Setting up relu5_2
I0715 20:24:04.381528 14365 net.cpp:129] Top shape: 1 512 45 32 (737280)
I0715 20:24:04.381532 14365 net.cpp:137] Memory required for data: 852829708
I0715 20:24:04.381537 14365 layer_factory.hpp:77] Creating layer conv5_3
I0715 20:24:04.381578 14365 net.cpp:84] Creating Layer conv5_3
I0715 20:24:04.381592 14365 net.cpp:406] conv5_3 <- conv5_2
I0715 20:24:04.381605 14365 net.cpp:380] conv5_3 -> conv5_3
I0715 20:24:04.394708 14365 net.cpp:122] Setting up conv5_3
I0715 20:24:04.394771 14365 net.cpp:129] Top shape: 1 512 45 32 (737280)
I0715 20:24:04.394779 14365 net.cpp:137] Memory required for data: 855778828
I0715 20:24:04.394798 14365 layer_factory.hpp:77] Creating layer relu5_3
I0715 20:24:04.394829 14365 net.cpp:84] Creating Layer relu5_3
I0715 20:24:04.394839 14365 net.cpp:406] relu5_3 <- conv5_3
I0715 20:24:04.394855 14365 net.cpp:367] relu5_3 -> conv5_3 (in-place)
I0715 20:24:04.395265 14365 net.cpp:122] Setting up relu5_3
I0715 20:24:04.395324 14365 net.cpp:129] Top shape: 1 512 45 32 (737280)
I0715 20:24:04.395349 14365 net.cpp:137] Memory required for data: 858727948
I0715 20:24:04.395354 14365 layer_factory.hpp:77] Creating layer pool5
I0715 20:24:04.395368 14365 net.cpp:84] Creating Layer pool5
I0715 20:24:04.395372 14365 net.cpp:406] pool5 <- conv5_3
I0715 20:24:04.395380 14365 net.cpp:380] pool5 -> pool5
I0715 20:24:04.395434 14365 net.cpp:122] Setting up pool5
I0715 20:24:04.395443 14365 net.cpp:129] Top shape: 1 512 23 16 (188416)
I0715 20:24:04.395447 14365 net.cpp:137] Memory required for data: 859481612
I0715 20:24:04.395452 14365 layer_factory.hpp:77] Creating layer fc6
I0715 20:24:04.395462 14365 net.cpp:84] Creating Layer fc6
I0715 20:24:04.395465 14365 net.cpp:406] fc6 <- pool5
I0715 20:24:04.395474 14365 net.cpp:380] fc6 -> fc6
I0715 20:24:04.714388 14365 net.cpp:122] Setting up fc6
I0715 20:24:04.714434 14365 net.cpp:129] Top shape: 1 4096 17 10 (696320)
I0715 20:24:04.714440 14365 net.cpp:137] Memory required for data: 862266892
I0715 20:24:04.714457 14365 layer_factory.hpp:77] Creating layer relu6
I0715 20:24:04.714471 14365 net.cpp:84] Creating Layer relu6
I0715 20:24:04.714478 14365 net.cpp:406] relu6 <- fc6
I0715 20:24:04.714489 14365 net.cpp:367] relu6 -> fc6 (in-place)
I0715 20:24:04.714782 14365 net.cpp:122] Setting up relu6
I0715 20:24:04.714805 14365 net.cpp:129] Top shape: 1 4096 17 10 (696320)
I0715 20:24:04.714812 14365 net.cpp:137] Memory required for data: 865052172
I0715 20:24:04.714823 14365 layer_factory.hpp:77] Creating layer drop6
I0715 20:24:04.714841 14365 net.cpp:84] Creating Layer drop6
I0715 20:24:04.714848 14365 net.cpp:406] drop6 <- fc6
I0715 20:24:04.714857 14365 net.cpp:367] drop6 -> fc6 (in-place)
I0715 20:24:04.714911 14365 net.cpp:122] Setting up drop6
I0715 20:24:04.714926 14365 net.cpp:129] Top shape: 1 4096 17 10 (696320)
I0715 20:24:04.714932 14365 net.cpp:137] Memory required for data: 867837452
I0715 20:24:04.714939 14365 layer_factory.hpp:77] Creating layer fc7
I0715 20:24:04.714956 14365 net.cpp:84] Creating Layer fc7
I0715 20:24:04.714963 14365 net.cpp:406] fc7 <- fc6
I0715 20:24:04.714978 14365 net.cpp:380] fc7 -> fc7
I0715 20:24:04.775517 14365 net.cpp:122] Setting up fc7
I0715 20:24:04.775560 14365 net.cpp:129] Top shape: 1 4096 17 10 (696320)
I0715 20:24:04.775566 14365 net.cpp:137] Memory required for data: 870622732
I0715 20:24:04.775599 14365 layer_factory.hpp:77] Creating layer relu7
I0715 20:24:04.775632 14365 net.cpp:84] Creating Layer relu7
I0715 20:24:04.775640 14365 net.cpp:406] relu7 <- fc7
I0715 20:24:04.775660 14365 net.cpp:367] relu7 -> fc7 (in-place)
I0715 20:24:04.775910 14365 net.cpp:122] Setting up relu7
I0715 20:24:04.775923 14365 net.cpp:129] Top shape: 1 4096 17 10 (696320)
I0715 20:24:04.775926 14365 net.cpp:137] Memory required for data: 873408012
I0715 20:24:04.775931 14365 layer_factory.hpp:77] Creating layer drop7
I0715 20:24:04.775945 14365 net.cpp:84] Creating Layer drop7
I0715 20:24:04.775949 14365 net.cpp:406] drop7 <- fc7
I0715 20:24:04.775955 14365 net.cpp:367] drop7 -> fc7 (in-place)
I0715 20:24:04.776008 14365 net.cpp:122] Setting up drop7
I0715 20:24:04.776017 14365 net.cpp:129] Top shape: 1 4096 17 10 (696320)
I0715 20:24:04.776021 14365 net.cpp:137] Memory required for data: 876193292
I0715 20:24:04.776026 14365 layer_factory.hpp:77] Creating layer score_fr-new
I0715 20:24:04.776039 14365 net.cpp:84] Creating Layer score_fr-new
I0715 20:24:04.776043 14365 net.cpp:406] score_fr-new <- fc7
I0715 20:24:04.776057 14365 net.cpp:380] score_fr-new -> score_fr-new
I0715 20:24:04.778877 14365 net.cpp:122] Setting up score_fr-new
I0715 20:24:04.778895 14365 net.cpp:129] Top shape: 1 3 17 10 (510)
I0715 20:24:04.778910 14365 net.cpp:137] Memory required for data: 876195332
I0715 20:24:04.778919 14365 layer_factory.hpp:77] Creating layer upscore2-new
I0715 20:24:04.778936 14365 net.cpp:84] Creating Layer upscore2-new
I0715 20:24:04.778941 14365 net.cpp:406] upscore2-new <- score_fr-new
I0715 20:24:04.778951 14365 net.cpp:380] upscore2-new -> upscore2-new
I0715 20:24:04.779228 14365 net.cpp:122] Setting up upscore2-new
I0715 20:24:04.779240 14365 net.cpp:129] Top shape: 1 3 36 22 (2376)
I0715 20:24:04.779244 14365 net.cpp:137] Memory required for data: 876204836
I0715 20:24:04.779265 14365 layer_factory.hpp:77] Creating layer upscore2-new_upscore2-new_0_split
I0715 20:24:04.779304 14365 net.cpp:84] Creating Layer upscore2-new_upscore2-new_0_split
I0715 20:24:04.779309 14365 net.cpp:406] upscore2-new_upscore2-new_0_split <- upscore2-new
I0715 20:24:04.779320 14365 net.cpp:380] upscore2-new_upscore2-new_0_split -> upscore2-new_upscore2-new_0_split_0
I0715 20:24:04.779327 14365 net.cpp:380] upscore2-new_upscore2-new_0_split -> upscore2-new_upscore2-new_0_split_1
I0715 20:24:04.779371 14365 net.cpp:122] Setting up upscore2-new_upscore2-new_0_split
I0715 20:24:04.779378 14365 net.cpp:129] Top shape: 1 3 36 22 (2376)
I0715 20:24:04.779383 14365 net.cpp:129] Top shape: 1 3 36 22 (2376)
I0715 20:24:04.779387 14365 net.cpp:137] Memory required for data: 876223844
I0715 20:24:04.779395 14365 layer_factory.hpp:77] Creating layer score_pool4-new
I0715 20:24:04.779413 14365 net.cpp:84] Creating Layer score_pool4-new
I0715 20:24:04.779418 14365 net.cpp:406] score_pool4-new <- pool4_pool4_0_split_1
I0715 20:24:04.779425 14365 net.cpp:380] score_pool4-new -> score_pool4-new
I0715 20:24:04.781055 14365 net.cpp:122] Setting up score_pool4-new
I0715 20:24:04.781074 14365 net.cpp:129] Top shape: 1 3 45 32 (4320)
I0715 20:24:04.781078 14365 net.cpp:137] Memory required for data: 876241124
I0715 20:24:04.781088 14365 layer_factory.hpp:77] Creating layer score_pool4c
I0715 20:24:04.781105 14365 net.cpp:84] Creating Layer score_pool4c
I0715 20:24:04.781110 14365 net.cpp:406] score_pool4c <- score_pool4-new
I0715 20:24:04.781116 14365 net.cpp:406] score_pool4c <- upscore2-new_upscore2-new_0_split_0
I0715 20:24:04.781122 14365 net.cpp:380] score_pool4c -> score_pool4c
I0715 20:24:04.781160 14365 net.cpp:122] Setting up score_pool4c
I0715 20:24:04.781167 14365 net.cpp:129] Top shape: 1 3 36 22 (2376)
I0715 20:24:04.781172 14365 net.cpp:137] Memory required for data: 876250628
I0715 20:24:04.781175 14365 layer_factory.hpp:77] Creating layer fuse_pool4
I0715 20:24:04.781191 14365 net.cpp:84] Creating Layer fuse_pool4
I0715 20:24:04.781196 14365 net.cpp:406] fuse_pool4 <- upscore2-new_upscore2-new_0_split_1
I0715 20:24:04.781201 14365 net.cpp:406] fuse_pool4 <- score_pool4c
I0715 20:24:04.781211 14365 net.cpp:380] fuse_pool4 -> fuse_pool4
I0715 20:24:04.781244 14365 net.cpp:122] Setting up fuse_pool4
I0715 20:24:04.781250 14365 net.cpp:129] Top shape: 1 3 36 22 (2376)
I0715 20:24:04.781255 14365 net.cpp:137] Memory required for data: 876260132
I0715 20:24:04.781258 14365 layer_factory.hpp:77] Creating layer upscore_pool4-new
I0715 20:24:04.781270 14365 net.cpp:84] Creating Layer upscore_pool4-new
I0715 20:24:04.781275 14365 net.cpp:406] upscore_pool4-new <- fuse_pool4
I0715 20:24:04.781293 14365 net.cpp:380] upscore_pool4-new -> upscore_pool4-new
I0715 20:24:04.781539 14365 net.cpp:122] Setting up upscore_pool4-new
I0715 20:24:04.781549 14365 net.cpp:129] Top shape: 1 3 74 46 (10212)
I0715 20:24:04.781553 14365 net.cpp:137] Memory required for data: 876300980
I0715 20:24:04.781560 14365 layer_factory.hpp:77] Creating layer upscore_pool4-new_upscore_pool4-new_0_split
I0715 20:24:04.781569 14365 net.cpp:84] Creating Layer upscore_pool4-new_upscore_pool4-new_0_split
I0715 20:24:04.781572 14365 net.cpp:406] upscore_pool4-new_upscore_pool4-new_0_split <- upscore_pool4-new
I0715 20:24:04.781579 14365 net.cpp:380] upscore_pool4-new_upscore_pool4-new_0_split -> upscore_pool4-new_upscore_pool4-new_0_split_0
I0715 20:24:04.781589 14365 net.cpp:380] upscore_pool4-new_upscore_pool4-new_0_split -> upscore_pool4-new_upscore_pool4-new_0_split_1
I0715 20:24:04.781635 14365 net.cpp:122] Setting up upscore_pool4-new_upscore_pool4-new_0_split
I0715 20:24:04.781644 14365 net.cpp:129] Top shape: 1 3 74 46 (10212)
I0715 20:24:04.781651 14365 net.cpp:129] Top shape: 1 3 74 46 (10212)
I0715 20:24:04.781654 14365 net.cpp:137] Memory required for data: 876382676
I0715 20:24:04.781659 14365 layer_factory.hpp:77] Creating layer score_pool3-new
I0715 20:24:04.781669 14365 net.cpp:84] Creating Layer score_pool3-new
I0715 20:24:04.781679 14365 net.cpp:406] score_pool3-new <- pool3_pool3_0_split_1
I0715 20:24:04.781687 14365 net.cpp:380] score_pool3-new -> score_pool3-new
I0715 20:24:04.783377 14365 net.cpp:122] Setting up score_pool3-new
I0715 20:24:04.783393 14365 net.cpp:129] Top shape: 1 3 89 64 (17088)
I0715 20:24:04.783398 14365 net.cpp:137] Memory required for data: 876451028
I0715 20:24:04.783406 14365 layer_factory.hpp:77] Creating layer score_pool3c
I0715 20:24:04.783419 14365 net.cpp:84] Creating Layer score_pool3c
I0715 20:24:04.783424 14365 net.cpp:406] score_pool3c <- score_pool3-new
I0715 20:24:04.783433 14365 net.cpp:406] score_pool3c <- upscore_pool4-new_upscore_pool4-new_0_split_0
I0715 20:24:04.783440 14365 net.cpp:380] score_pool3c -> score_pool3c
I0715 20:24:04.783478 14365 net.cpp:122] Setting up score_pool3c
I0715 20:24:04.783488 14365 net.cpp:129] Top shape: 1 3 74 46 (10212)
I0715 20:24:04.783491 14365 net.cpp:137] Memory required for data: 876491876
I0715 20:24:04.783495 14365 layer_factory.hpp:77] Creating layer fuse_pool3
I0715 20:24:04.783504 14365 net.cpp:84] Creating Layer fuse_pool3
I0715 20:24:04.783511 14365 net.cpp:406] fuse_pool3 <- upscore_pool4-new_upscore_pool4-new_0_split_1
I0715 20:24:04.783517 14365 net.cpp:406] fuse_pool3 <- score_pool3c
I0715 20:24:04.783524 14365 net.cpp:380] fuse_pool3 -> fuse_pool3
I0715 20:24:04.783551 14365 net.cpp:122] Setting up fuse_pool3
I0715 20:24:04.783565 14365 net.cpp:129] Top shape: 1 3 74 46 (10212)
I0715 20:24:04.783569 14365 net.cpp:137] Memory required for data: 876532724
I0715 20:24:04.783576 14365 layer_factory.hpp:77] Creating layer upscore8-new
I0715 20:24:04.783591 14365 net.cpp:84] Creating Layer upscore8-new
I0715 20:24:04.783598 14365 net.cpp:406] upscore8-new <- fuse_pool3
I0715 20:24:04.783604 14365 net.cpp:380] upscore8-new -> upscore8-new
I0715 20:24:04.783879 14365 net.cpp:122] Setting up upscore8-new
I0715 20:24:04.783888 14365 net.cpp:129] Top shape: 1 3 600 376 (676800)
I0715 20:24:04.783892 14365 net.cpp:137] Memory required for data: 879239924
I0715 20:24:04.783900 14365 layer_factory.hpp:77] Creating layer upscore8_cropped
I0715 20:24:04.783907 14365 net.cpp:84] Creating Layer upscore8_cropped
I0715 20:24:04.783912 14365 net.cpp:406] upscore8_cropped <- upscore8-new
I0715 20:24:04.783921 14365 net.cpp:406] upscore8_cropped <- data_data_0_split_1
I0715 20:24:04.783929 14365 net.cpp:380] upscore8_cropped -> upscore8_cropped
I0715 20:24:04.783957 14365 net.cpp:122] Setting up upscore8_cropped
I0715 20:24:04.783967 14365 net.cpp:129] Top shape: 1 3 512 310 (476160)
I0715 20:24:04.783970 14365 net.cpp:137] Memory required for data: 881144564
I0715 20:24:04.783974 14365 layer_factory.hpp:77] Creating layer upscore8_cropped_upscore8_cropped_0_split
I0715 20:24:04.783980 14365 net.cpp:84] Creating Layer upscore8_cropped_upscore8_cropped_0_split
I0715 20:24:04.783985 14365 net.cpp:406] upscore8_cropped_upscore8_cropped_0_split <- upscore8_cropped
I0715 20:24:04.783991 14365 net.cpp:380] upscore8_cropped_upscore8_cropped_0_split -> upscore8_cropped_upscore8_cropped_0_split_0
I0715 20:24:04.784001 14365 net.cpp:380] upscore8_cropped_upscore8_cropped_0_split -> upscore8_cropped_upscore8_cropped_0_split_1
I0715 20:24:04.784042 14365 net.cpp:122] Setting up upscore8_cropped_upscore8_cropped_0_split
I0715 20:24:04.784051 14365 net.cpp:129] Top shape: 1 3 512 310 (476160)
I0715 20:24:04.784056 14365 net.cpp:129] Top shape: 1 3 512 310 (476160)
I0715 20:24:04.784061 14365 net.cpp:137] Memory required for data: 884953844
I0715 20:24:04.784065 14365 layer_factory.hpp:77] Creating layer prob
I0715 20:24:04.784077 14365 net.cpp:84] Creating Layer prob
I0715 20:24:04.784082 14365 net.cpp:406] prob <- upscore8_cropped_upscore8_cropped_0_split_0
I0715 20:24:04.784088 14365 net.cpp:380] prob -> prob
I0715 20:24:04.784346 14365 net.cpp:122] Setting up prob
I0715 20:24:04.784358 14365 net.cpp:129] Top shape: 1 3 512 310 (476160)
I0715 20:24:04.784363 14365 net.cpp:137] Memory required for data: 886858484
I0715 20:24:04.784368 14365 layer_factory.hpp:77] Creating layer prob_prob_0_split
I0715 20:24:04.784374 14365 net.cpp:84] Creating Layer prob_prob_0_split
I0715 20:24:04.784380 14365 net.cpp:406] prob_prob_0_split <- prob
I0715 20:24:04.784386 14365 net.cpp:380] prob_prob_0_split -> prob_prob_0_split_0
I0715 20:24:04.784394 14365 net.cpp:380] prob_prob_0_split -> prob_prob_0_split_1
I0715 20:24:04.784473 14365 net.cpp:122] Setting up prob_prob_0_split
I0715 20:24:04.784488 14365 net.cpp:129] Top shape: 1 3 512 310 (476160)
I0715 20:24:04.784497 14365 net.cpp:129] Top shape: 1 3 512 310 (476160)
I0715 20:24:04.784503 14365 net.cpp:137] Memory required for data: 890667764
I0715 20:24:04.784512 14365 layer_factory.hpp:77] Creating layer saliency1
I0715 20:24:04.784530 14365 net.cpp:84] Creating Layer saliency1
I0715 20:24:04.784540 14365 net.cpp:406] saliency1 <- prob_prob_0_split_0
I0715 20:24:04.784552 14365 net.cpp:380] saliency1 -> saliency1
I0715 20:24:04.788990 14365 net.cpp:122] Setting up saliency1
I0715 20:24:04.789011 14365 net.cpp:129] Top shape: 1 3 512 310 (476160)
I0715 20:24:04.789016 14365 net.cpp:137] Memory required for data: 892572404
I0715 20:24:04.789024 14365 layer_factory.hpp:77] Creating layer relu_saliency1
I0715 20:24:04.789036 14365 net.cpp:84] Creating Layer relu_saliency1
I0715 20:24:04.789041 14365 net.cpp:406] relu_saliency1 <- saliency1
I0715 20:24:04.789052 14365 net.cpp:367] relu_saliency1 -> saliency1 (in-place)
I0715 20:24:04.789310 14365 net.cpp:122] Setting up relu_saliency1
I0715 20:24:04.789322 14365 net.cpp:129] Top shape: 1 3 512 310 (476160)
I0715 20:24:04.789327 14365 net.cpp:137] Memory required for data: 894477044
I0715 20:24:04.789331 14365 layer_factory.hpp:77] Creating layer saliency
I0715 20:24:04.789347 14365 net.cpp:84] Creating Layer saliency
I0715 20:24:04.789352 14365 net.cpp:406] saliency <- saliency1
I0715 20:24:04.789362 14365 net.cpp:380] saliency -> saliency
I0715 20:24:04.793083 14365 net.cpp:122] Setting up saliency
I0715 20:24:04.793123 14365 net.cpp:129] Top shape: 1 3 512 310 (476160)
I0715 20:24:04.793133 14365 net.cpp:137] Memory required for data: 896381684
I0715 20:24:04.793143 14365 layer_factory.hpp:77] Creating layer saliency_data
I0715 20:24:04.793156 14365 net.cpp:84] Creating Layer saliency_data
I0715 20:24:04.793162 14365 net.cpp:406] saliency_data <- data_data_0_split_2
I0715 20:24:04.793171 14365 net.cpp:406] saliency_data <- saliency
I0715 20:24:04.793179 14365 net.cpp:380] saliency_data -> saliency_data
I0715 20:24:04.793228 14365 net.cpp:122] Setting up saliency_data
I0715 20:24:04.793241 14365 net.cpp:129] Top shape: 1 3 512 310 (476160)
I0715 20:24:04.793248 14365 net.cpp:137] Memory required for data: 898286324
I0715 20:24:04.793253 14365 layer_factory.hpp:77] Creating layer crop
I0715 20:24:04.794121 14365 net.cpp:84] Creating Layer crop
I0715 20:24:04.794136 14365 net.cpp:406] crop <- prob_prob_0_split_1
I0715 20:24:04.794155 14365 net.cpp:406] crop <- saliency_data
I0715 20:24:04.794162 14365 net.cpp:406] crop <- crop_margin
I0715 20:24:04.794168 14365 net.cpp:406] crop <- crop_prob
I0715 20:24:04.794173 14365 net.cpp:406] crop <- crop_sample_batch
I0715 20:24:04.794180 14365 net.cpp:406] crop <- label_data_1_split_0
I0715 20:24:04.794188 14365 net.cpp:380] crop -> data-R
I0715 20:24:04.794199 14365 net.cpp:380] crop -> crop_info
I0715 20:24:04.806625 14365 net.cpp:122] Setting up crop
I0715 20:24:04.806648 14365 net.cpp:129] Top shape: 1 3 512 310 (476160)
I0715 20:24:04.806663 14365 net.cpp:129] Top shape: 1 2 4 (8)
I0715 20:24:04.806668 14365 net.cpp:137] Memory required for data: 900190996
I0715 20:24:04.806674 14365 layer_factory.hpp:77] Creating layer data-R_crop_0_split
I0715 20:24:04.806686 14365 net.cpp:84] Creating Layer data-R_crop_0_split
I0715 20:24:04.806692 14365 net.cpp:406] data-R_crop_0_split <- data-R
I0715 20:24:04.806700 14365 net.cpp:380] data-R_crop_0_split -> data-R_crop_0_split_0
I0715 20:24:04.806710 14365 net.cpp:380] data-R_crop_0_split -> data-R_crop_0_split_1
I0715 20:24:04.806764 14365 net.cpp:122] Setting up data-R_crop_0_split
I0715 20:24:04.806774 14365 net.cpp:129] Top shape: 1 3 512 310 (476160)
I0715 20:24:04.806779 14365 net.cpp:129] Top shape: 1 3 512 310 (476160)
I0715 20:24:04.806783 14365 net.cpp:137] Memory required for data: 904000276
I0715 20:24:04.806788 14365 layer_factory.hpp:77] Creating layer conv1_1-R
I0715 20:24:04.806828 14365 net.cpp:84] Creating Layer conv1_1-R
I0715 20:24:04.806836 14365 net.cpp:406] conv1_1-R <- data-R_crop_0_split_0
I0715 20:24:04.806846 14365 net.cpp:380] conv1_1-R -> conv1_1-R
I0715 20:24:04.812188 14365 net.cpp:122] Setting up conv1_1-R
I0715 20:24:04.812207 14365 net.cpp:129] Top shape: 1 64 710 508 (23083520)
I0715 20:24:04.812225 14365 net.cpp:137] Memory required for data: 996334356
I0715 20:24:04.812238 14365 layer_factory.hpp:77] Creating layer relu1_1-R
I0715 20:24:04.812249 14365 net.cpp:84] Creating Layer relu1_1-R
I0715 20:24:04.812254 14365 net.cpp:406] relu1_1-R <- conv1_1-R
I0715 20:24:04.812260 14365 net.cpp:367] relu1_1-R -> conv1_1-R (in-place)
I0715 20:24:04.812506 14365 net.cpp:122] Setting up relu1_1-R
I0715 20:24:04.812520 14365 net.cpp:129] Top shape: 1 64 710 508 (23083520)
I0715 20:24:04.812525 14365 net.cpp:137] Memory required for data: 1088668436
I0715 20:24:04.812528 14365 layer_factory.hpp:77] Creating layer conv1_2-R
I0715 20:24:04.812538 14365 net.cpp:84] Creating Layer conv1_2-R
I0715 20:24:04.812543 14365 net.cpp:406] conv1_2-R <- conv1_1-R
I0715 20:24:04.812551 14365 net.cpp:380] conv1_2-R -> conv1_2-R
I0715 20:24:04.816155 14365 net.cpp:122] Setting up conv1_2-R
I0715 20:24:04.816175 14365 net.cpp:129] Top shape: 1 64 710 508 (23083520)
I0715 20:24:04.816180 14365 net.cpp:137] Memory required for data: 1181002516
I0715 20:24:04.816201 14365 layer_factory.hpp:77] Creating layer relu1_2-R
I0715 20:24:04.816210 14365 net.cpp:84] Creating Layer relu1_2-R
I0715 20:24:04.816215 14365 net.cpp:406] relu1_2-R <- conv1_2-R
I0715 20:24:04.816222 14365 net.cpp:367] relu1_2-R -> conv1_2-R (in-place)
I0715 20:24:04.817097 14365 net.cpp:122] Setting up relu1_2-R
I0715 20:24:04.817116 14365 net.cpp:129] Top shape: 1 64 710 508 (23083520)
I0715 20:24:04.817131 14365 net.cpp:137] Memory required for data: 1273336596
I0715 20:24:04.817137 14365 layer_factory.hpp:77] Creating layer pool1-R
I0715 20:24:04.817152 14365 net.cpp:84] Creating Layer pool1-R
I0715 20:24:04.817157 14365 net.cpp:406] pool1-R <- conv1_2-R
I0715 20:24:04.817164 14365 net.cpp:380] pool1-R -> pool1-R
I0715 20:24:04.817229 14365 net.cpp:122] Setting up pool1-R
I0715 20:24:04.817239 14365 net.cpp:129] Top shape: 1 64 355 254 (5770880)
I0715 20:24:04.817243 14365 net.cpp:137] Memory required for data: 1296420116
I0715 20:24:04.817248 14365 layer_factory.hpp:77] Creating layer conv2_1-R
I0715 20:24:04.817258 14365 net.cpp:84] Creating Layer conv2_1-R
I0715 20:24:04.817262 14365 net.cpp:406] conv2_1-R <- pool1-R
I0715 20:24:04.817270 14365 net.cpp:380] conv2_1-R -> conv2_1-R
I0715 20:24:04.819083 14365 net.cpp:122] Setting up conv2_1-R
I0715 20:24:04.819102 14365 net.cpp:129] Top shape: 1 128 355 254 (11541760)
I0715 20:24:04.819118 14365 net.cpp:137] Memory required for data: 1342587156
I0715 20:24:04.819128 14365 layer_factory.hpp:77] Creating layer relu2_1-R
I0715 20:24:04.819139 14365 net.cpp:84] Creating Layer relu2_1-R
I0715 20:24:04.819144 14365 net.cpp:406] relu2_1-R <- conv2_1-R
I0715 20:24:04.819154 14365 net.cpp:367] relu2_1-R -> conv2_1-R (in-place)
I0715 20:24:04.820051 14365 net.cpp:122] Setting up relu2_1-R
I0715 20:24:04.820070 14365 net.cpp:129] Top shape: 1 128 355 254 (11541760)
I0715 20:24:04.820075 14365 net.cpp:137] Memory required for data: 1388754196
I0715 20:24:04.820087 14365 layer_factory.hpp:77] Creating layer conv2_2-R
I0715 20:24:04.820101 14365 net.cpp:84] Creating Layer conv2_2-R
I0715 20:24:04.820106 14365 net.cpp:406] conv2_2-R <- conv2_1-R
I0715 20:24:04.820117 14365 net.cpp:380] conv2_2-R -> conv2_2-R
I0715 20:24:04.827682 14365 net.cpp:122] Setting up conv2_2-R
I0715 20:24:04.827736 14365 net.cpp:129] Top shape: 1 128 355 254 (11541760)
I0715 20:24:04.827745 14365 net.cpp:137] Memory required for data: 1434921236
I0715 20:24:04.827769 14365 layer_factory.hpp:77] Creating layer relu2_2-R
I0715 20:24:04.827819 14365 net.cpp:84] Creating Layer relu2_2-R
I0715 20:24:04.827831 14365 net.cpp:406] relu2_2-R <- conv2_2-R
I0715 20:24:04.827848 14365 net.cpp:367] relu2_2-R -> conv2_2-R (in-place)
I0715 20:24:04.828375 14365 net.cpp:122] Setting up relu2_2-R
I0715 20:24:04.828395 14365 net.cpp:129] Top shape: 1 128 355 254 (11541760)
I0715 20:24:04.828403 14365 net.cpp:137] Memory required for data: 1481088276
I0715 20:24:04.828411 14365 layer_factory.hpp:77] Creating layer pool2-R
I0715 20:24:04.828438 14365 net.cpp:84] Creating Layer pool2-R
I0715 20:24:04.828446 14365 net.cpp:406] pool2-R <- conv2_2-R
I0715 20:24:04.828459 14365 net.cpp:380] pool2-R -> pool2-R
I0715 20:24:04.828598 14365 net.cpp:122] Setting up pool2-R
I0715 20:24:04.828613 14365 net.cpp:129] Top shape: 1 128 178 127 (2893568)
I0715 20:24:04.828620 14365 net.cpp:137] Memory required for data: 1492662548
I0715 20:24:04.828627 14365 layer_factory.hpp:77] Creating layer conv3_1-R
I0715 20:24:04.828646 14365 net.cpp:84] Creating Layer conv3_1-R
I0715 20:24:04.828653 14365 net.cpp:406] conv3_1-R <- pool2-R
I0715 20:24:04.828666 14365 net.cpp:380] conv3_1-R -> conv3_1-R
I0715 20:24:04.835603 14365 net.cpp:122] Setting up conv3_1-R
I0715 20:24:04.835634 14365 net.cpp:129] Top shape: 1 256 178 127 (5787136)
I0715 20:24:04.835644 14365 net.cpp:137] Memory required for data: 1515811092
I0715 20:24:04.835659 14365 layer_factory.hpp:77] Creating layer relu3_1-R
I0715 20:24:04.835687 14365 net.cpp:84] Creating Layer relu3_1-R
I0715 20:24:04.835696 14365 net.cpp:406] relu3_1-R <- conv3_1-R
I0715 20:24:04.835708 14365 net.cpp:367] relu3_1-R -> conv3_1-R (in-place)
I0715 20:24:04.836110 14365 net.cpp:122] Setting up relu3_1-R
I0715 20:24:04.836130 14365 net.cpp:129] Top shape: 1 256 178 127 (5787136)
I0715 20:24:04.836138 14365 net.cpp:137] Memory required for data: 1538959636
I0715 20:24:04.836145 14365 layer_factory.hpp:77] Creating layer conv3_2-R
I0715 20:24:04.836174 14365 net.cpp:84] Creating Layer conv3_2-R
I0715 20:24:04.836182 14365 net.cpp:406] conv3_2-R <- conv3_1-R
I0715 20:24:04.836196 14365 net.cpp:380] conv3_2-R -> conv3_2-R
I0715 20:24:04.841766 14365 net.cpp:122] Setting up conv3_2-R
I0715 20:24:04.841786 14365 net.cpp:129] Top shape: 1 256 178 127 (5787136)
I0715 20:24:04.841791 14365 net.cpp:137] Memory required for data: 1562108180
I0715 20:24:04.841800 14365 layer_factory.hpp:77] Creating layer relu3_2-R
I0715 20:24:04.841809 14365 net.cpp:84] Creating Layer relu3_2-R
I0715 20:24:04.841814 14365 net.cpp:406] relu3_2-R <- conv3_2-R
I0715 20:24:04.841821 14365 net.cpp:367] relu3_2-R -> conv3_2-R (in-place)
I0715 20:24:04.842058 14365 net.cpp:122] Setting up relu3_2-R
I0715 20:24:04.842072 14365 net.cpp:129] Top shape: 1 256 178 127 (5787136)
I0715 20:24:04.842075 14365 net.cpp:137] Memory required for data: 1585256724
I0715 20:24:04.842080 14365 layer_factory.hpp:77] Creating layer conv3_3-R
I0715 20:24:04.842100 14365 net.cpp:84] Creating Layer conv3_3-R
I0715 20:24:04.842105 14365 net.cpp:406] conv3_3-R <- conv3_2-R
I0715 20:24:04.842121 14365 net.cpp:380] conv3_3-R -> conv3_3-R
I0715 20:24:04.849421 14365 net.cpp:122] Setting up conv3_3-R
I0715 20:24:04.849443 14365 net.cpp:129] Top shape: 1 256 178 127 (5787136)
I0715 20:24:04.849448 14365 net.cpp:137] Memory required for data: 1608405268
I0715 20:24:04.849458 14365 layer_factory.hpp:77] Creating layer relu3_3-R
I0715 20:24:04.849467 14365 net.cpp:84] Creating Layer relu3_3-R
I0715 20:24:04.849472 14365 net.cpp:406] relu3_3-R <- conv3_3-R
I0715 20:24:04.849479 14365 net.cpp:367] relu3_3-R -> conv3_3-R (in-place)
I0715 20:24:04.849726 14365 net.cpp:122] Setting up relu3_3-R
I0715 20:24:04.849740 14365 net.cpp:129] Top shape: 1 256 178 127 (5787136)
I0715 20:24:04.849745 14365 net.cpp:137] Memory required for data: 1631553812
I0715 20:24:04.849748 14365 layer_factory.hpp:77] Creating layer pool3-R
I0715 20:24:04.849777 14365 net.cpp:84] Creating Layer pool3-R
I0715 20:24:04.849782 14365 net.cpp:406] pool3-R <- conv3_3-R
I0715 20:24:04.849792 14365 net.cpp:380] pool3-R -> pool3-R
I0715 20:24:04.849864 14365 net.cpp:122] Setting up pool3-R
I0715 20:24:04.849874 14365 net.cpp:129] Top shape: 1 256 89 64 (1458176)
I0715 20:24:04.849879 14365 net.cpp:137] Memory required for data: 1637386516
I0715 20:24:04.849882 14365 layer_factory.hpp:77] Creating layer pool3-R_pool3-R_0_split
I0715 20:24:04.849890 14365 net.cpp:84] Creating Layer pool3-R_pool3-R_0_split
I0715 20:24:04.849895 14365 net.cpp:406] pool3-R_pool3-R_0_split <- pool3-R
I0715 20:24:04.849902 14365 net.cpp:380] pool3-R_pool3-R_0_split -> pool3-R_pool3-R_0_split_0
I0715 20:24:04.849910 14365 net.cpp:380] pool3-R_pool3-R_0_split -> pool3-R_pool3-R_0_split_1
I0715 20:24:04.849956 14365 net.cpp:122] Setting up pool3-R_pool3-R_0_split
I0715 20:24:04.849968 14365 net.cpp:129] Top shape: 1 256 89 64 (1458176)
I0715 20:24:04.849973 14365 net.cpp:129] Top shape: 1 256 89 64 (1458176)
I0715 20:24:04.849977 14365 net.cpp:137] Memory required for data: 1649051924
I0715 20:24:04.849980 14365 layer_factory.hpp:77] Creating layer conv4_1-R
I0715 20:24:04.849992 14365 net.cpp:84] Creating Layer conv4_1-R
I0715 20:24:04.849997 14365 net.cpp:406] conv4_1-R <- pool3-R_pool3-R_0_split_0
I0715 20:24:04.850003 14365 net.cpp:380] conv4_1-R -> conv4_1-R
I0715 20:24:04.857139 14365 net.cpp:122] Setting up conv4_1-R
I0715 20:24:04.857164 14365 net.cpp:129] Top shape: 1 512 89 64 (2916352)
I0715 20:24:04.857172 14365 net.cpp:137] Memory required for data: 1660717332
I0715 20:24:04.857183 14365 layer_factory.hpp:77] Creating layer relu4_1-R
I0715 20:24:04.857193 14365 net.cpp:84] Creating Layer relu4_1-R
I0715 20:24:04.857200 14365 net.cpp:406] relu4_1-R <- conv4_1-R
I0715 20:24:04.857209 14365 net.cpp:367] relu4_1-R -> conv4_1-R (in-place)
I0715 20:24:04.858220 14365 net.cpp:122] Setting up relu4_1-R
I0715 20:24:04.858242 14365 net.cpp:129] Top shape: 1 512 89 64 (2916352)
I0715 20:24:04.858247 14365 net.cpp:137] Memory required for data: 1672382740
I0715 20:24:04.858265 14365 layer_factory.hpp:77] Creating layer conv4_2-R
I0715 20:24:04.858294 14365 net.cpp:84] Creating Layer conv4_2-R
I0715 20:24:04.858300 14365 net.cpp:406] conv4_2-R <- conv4_1-R
I0715 20:24:04.858311 14365 net.cpp:380] conv4_2-R -> conv4_2-R
I0715 20:24:04.867249 14365 net.cpp:122] Setting up conv4_2-R
I0715 20:24:04.867269 14365 net.cpp:129] Top shape: 1 512 89 64 (2916352)
I0715 20:24:04.867283 14365 net.cpp:137] Memory required for data: 1684048148
I0715 20:24:04.867292 14365 layer_factory.hpp:77] Creating layer relu4_2-R
I0715 20:24:04.867305 14365 net.cpp:84] Creating Layer relu4_2-R
I0715 20:24:04.867310 14365 net.cpp:406] relu4_2-R <- conv4_2-R
I0715 20:24:04.867317 14365 net.cpp:367] relu4_2-R -> conv4_2-R (in-place)
I0715 20:24:04.868131 14365 net.cpp:122] Setting up relu4_2-R
I0715 20:24:04.868149 14365 net.cpp:129] Top shape: 1 512 89 64 (2916352)
I0715 20:24:04.868154 14365 net.cpp:137] Memory required for data: 1695713556
I0715 20:24:04.868157 14365 layer_factory.hpp:77] Creating layer conv4_3-R
I0715 20:24:04.868178 14365 net.cpp:84] Creating Layer conv4_3-R
I0715 20:24:04.868185 14365 net.cpp:406] conv4_3-R <- conv4_2-R
I0715 20:24:04.868193 14365 net.cpp:380] conv4_3-R -> conv4_3-R
I0715 20:24:04.887039 14365 net.cpp:122] Setting up conv4_3-R
I0715 20:24:04.887063 14365 net.cpp:129] Top shape: 1 512 89 64 (2916352)
I0715 20:24:04.887068 14365 net.cpp:137] Memory required for data: 1707378964
I0715 20:24:04.887078 14365 layer_factory.hpp:77] Creating layer relu4_3-R
I0715 20:24:04.887085 14365 net.cpp:84] Creating Layer relu4_3-R
I0715 20:24:04.887094 14365 net.cpp:406] relu4_3-R <- conv4_3-R
I0715 20:24:04.887100 14365 net.cpp:367] relu4_3-R -> conv4_3-R (in-place)
I0715 20:24:04.887367 14365 net.cpp:122] Setting up relu4_3-R
I0715 20:24:04.887382 14365 net.cpp:129] Top shape: 1 512 89 64 (2916352)
I0715 20:24:04.887387 14365 net.cpp:137] Memory required for data: 1719044372
I0715 20:24:04.887390 14365 layer_factory.hpp:77] Creating layer pool4-R
I0715 20:24:04.887445 14365 net.cpp:84] Creating Layer pool4-R
I0715 20:24:04.887457 14365 net.cpp:406] pool4-R <- conv4_3-R
I0715 20:24:04.887467 14365 net.cpp:380] pool4-R -> pool4-R
I0715 20:24:04.887532 14365 net.cpp:122] Setting up pool4-R
I0715 20:24:04.887542 14365 net.cpp:129] Top shape: 1 512 45 32 (737280)
I0715 20:24:04.887547 14365 net.cpp:137] Memory required for data: 1721993492
I0715 20:24:04.887550 14365 layer_factory.hpp:77] Creating layer pool4-R_pool4-R_0_split
I0715 20:24:04.887559 14365 net.cpp:84] Creating Layer pool4-R_pool4-R_0_split
I0715 20:24:04.887563 14365 net.cpp:406] pool4-R_pool4-R_0_split <- pool4-R
I0715 20:24:04.887571 14365 net.cpp:380] pool4-R_pool4-R_0_split -> pool4-R_pool4-R_0_split_0
I0715 20:24:04.887580 14365 net.cpp:380] pool4-R_pool4-R_0_split -> pool4-R_pool4-R_0_split_1
I0715 20:24:04.887663 14365 net.cpp:122] Setting up pool4-R_pool4-R_0_split
I0715 20:24:04.887677 14365 net.cpp:129] Top shape: 1 512 45 32 (737280)
I0715 20:24:04.887687 14365 net.cpp:129] Top shape: 1 512 45 32 (737280)
I0715 20:24:04.887693 14365 net.cpp:137] Memory required for data: 1727891732
I0715 20:24:04.887701 14365 layer_factory.hpp:77] Creating layer conv5_1-R
I0715 20:24:04.887725 14365 net.cpp:84] Creating Layer conv5_1-R
I0715 20:24:04.887733 14365 net.cpp:406] conv5_1-R <- pool4-R_pool4-R_0_split_0
I0715 20:24:04.887747 14365 net.cpp:380] conv5_1-R -> conv5_1-R
I0715 20:24:04.900480 14365 net.cpp:122] Setting up conv5_1-R
I0715 20:24:04.900501 14365 net.cpp:129] Top shape: 1 512 45 32 (737280)
I0715 20:24:04.900506 14365 net.cpp:137] Memory required for data: 1730840852
I0715 20:24:04.900533 14365 layer_factory.hpp:77] Creating layer relu5_1-R
I0715 20:24:04.900542 14365 net.cpp:84] Creating Layer relu5_1-R
I0715 20:24:04.900548 14365 net.cpp:406] relu5_1-R <- conv5_1-R
I0715 20:24:04.900555 14365 net.cpp:367] relu5_1-R -> conv5_1-R (in-place)
I0715 20:24:04.900791 14365 net.cpp:122] Setting up relu5_1-R
I0715 20:24:04.900804 14365 net.cpp:129] Top shape: 1 512 45 32 (737280)
I0715 20:24:04.900807 14365 net.cpp:137] Memory required for data: 1733789972
I0715 20:24:04.900812 14365 layer_factory.hpp:77] Creating layer conv5_2-R
I0715 20:24:04.900840 14365 net.cpp:84] Creating Layer conv5_2-R
I0715 20:24:04.900846 14365 net.cpp:406] conv5_2-R <- conv5_1-R
I0715 20:24:04.900856 14365 net.cpp:380] conv5_2-R -> conv5_2-R
I0715 20:24:04.910086 14365 net.cpp:122] Setting up conv5_2-R
I0715 20:24:04.910111 14365 net.cpp:129] Top shape: 1 512 45 32 (737280)
I0715 20:24:04.910116 14365 net.cpp:137] Memory required for data: 1736739092
I0715 20:24:04.910125 14365 layer_factory.hpp:77] Creating layer relu5_2-R
I0715 20:24:04.910135 14365 net.cpp:84] Creating Layer relu5_2-R
I0715 20:24:04.910142 14365 net.cpp:406] relu5_2-R <- conv5_2-R
I0715 20:24:04.910149 14365 net.cpp:367] relu5_2-R -> conv5_2-R (in-place)
I0715 20:24:04.910384 14365 net.cpp:122] Setting up relu5_2-R
I0715 20:24:04.910398 14365 net.cpp:129] Top shape: 1 512 45 32 (737280)
I0715 20:24:04.910401 14365 net.cpp:137] Memory required for data: 1739688212
I0715 20:24:04.910406 14365 layer_factory.hpp:77] Creating layer conv5_3-R
I0715 20:24:04.910429 14365 net.cpp:84] Creating Layer conv5_3-R
I0715 20:24:04.910434 14365 net.cpp:406] conv5_3-R <- conv5_2-R
I0715 20:24:04.910442 14365 net.cpp:380] conv5_3-R -> conv5_3-R
I0715 20:24:04.919159 14365 net.cpp:122] Setting up conv5_3-R
I0715 20:24:04.919180 14365 net.cpp:129] Top shape: 1 512 45 32 (737280)
I0715 20:24:04.919185 14365 net.cpp:137] Memory required for data: 1742637332
I0715 20:24:04.919194 14365 layer_factory.hpp:77] Creating layer relu5_3-R
I0715 20:24:04.919204 14365 net.cpp:84] Creating Layer relu5_3-R
I0715 20:24:04.919211 14365 net.cpp:406] relu5_3-R <- conv5_3-R
I0715 20:24:04.919219 14365 net.cpp:367] relu5_3-R -> conv5_3-R (in-place)
I0715 20:24:04.919466 14365 net.cpp:122] Setting up relu5_3-R
I0715 20:24:04.919478 14365 net.cpp:129] Top shape: 1 512 45 32 (737280)
I0715 20:24:04.919483 14365 net.cpp:137] Memory required for data: 1745586452
I0715 20:24:04.919497 14365 layer_factory.hpp:77] Creating layer pool5-R
I0715 20:24:04.919508 14365 net.cpp:84] Creating Layer pool5-R
I0715 20:24:04.919513 14365 net.cpp:406] pool5-R <- conv5_3-R
I0715 20:24:04.919523 14365 net.cpp:380] pool5-R -> pool5-R
I0715 20:24:04.919587 14365 net.cpp:122] Setting up pool5-R
I0715 20:24:04.919597 14365 net.cpp:129] Top shape: 1 512 23 16 (188416)
I0715 20:24:04.919601 14365 net.cpp:137] Memory required for data: 1746340116
I0715 20:24:04.919605 14365 layer_factory.hpp:77] Creating layer fc6-R
I0715 20:24:04.919625 14365 net.cpp:84] Creating Layer fc6-R
I0715 20:24:04.919629 14365 net.cpp:406] fc6-R <- pool5-R
I0715 20:24:04.919642 14365 net.cpp:380] fc6-R -> fc6-R
I0715 20:24:05.235030 14365 net.cpp:122] Setting up fc6-R
I0715 20:24:05.235095 14365 net.cpp:129] Top shape: 1 4096 17 10 (696320)
I0715 20:24:05.235105 14365 net.cpp:137] Memory required for data: 1749125396
I0715 20:24:05.235124 14365 layer_factory.hpp:77] Creating layer relu6-R
I0715 20:24:05.235144 14365 net.cpp:84] Creating Layer relu6-R
I0715 20:24:05.235155 14365 net.cpp:406] relu6-R <- fc6-R
I0715 20:24:05.235168 14365 net.cpp:367] relu6-R -> fc6-R (in-place)
I0715 20:24:05.236692 14365 net.cpp:122] Setting up relu6-R
I0715 20:24:05.236706 14365 net.cpp:129] Top shape: 1 4096 17 10 (696320)
I0715 20:24:05.236727 14365 net.cpp:137] Memory required for data: 1751910676
I0715 20:24:05.236732 14365 layer_factory.hpp:77] Creating layer drop6-R
I0715 20:24:05.236742 14365 net.cpp:84] Creating Layer drop6-R
I0715 20:24:05.236745 14365 net.cpp:406] drop6-R <- fc6-R
I0715 20:24:05.236752 14365 net.cpp:367] drop6-R -> fc6-R (in-place)
I0715 20:24:05.236793 14365 net.cpp:122] Setting up drop6-R
I0715 20:24:05.236801 14365 net.cpp:129] Top shape: 1 4096 17 10 (696320)
I0715 20:24:05.236821 14365 net.cpp:137] Memory required for data: 1754695956
I0715 20:24:05.236829 14365 layer_factory.hpp:77] Creating layer fc7-R
I0715 20:24:05.236840 14365 net.cpp:84] Creating Layer fc7-R
I0715 20:24:05.236843 14365 net.cpp:406] fc7-R <- fc6-R
I0715 20:24:05.236851 14365 net.cpp:380] fc7-R -> fc7-R
I0715 20:24:05.293509 14365 net.cpp:122] Setting up fc7-R
I0715 20:24:05.293552 14365 net.cpp:129] Top shape: 1 4096 17 10 (696320)
I0715 20:24:05.293558 14365 net.cpp:137] Memory required for data: 1757481236
I0715 20:24:05.293575 14365 layer_factory.hpp:77] Creating layer relu7-R
I0715 20:24:05.293655 14365 net.cpp:84] Creating Layer relu7-R
I0715 20:24:05.293702 14365 net.cpp:406] relu7-R <- fc7-R
I0715 20:24:05.293712 14365 net.cpp:367] relu7-R -> fc7-R (in-place)
I0715 20:24:05.294775 14365 net.cpp:122] Setting up relu7-R
I0715 20:24:05.294791 14365 net.cpp:129] Top shape: 1 4096 17 10 (696320)
I0715 20:24:05.294796 14365 net.cpp:137] Memory required for data: 1760266516
I0715 20:24:05.294801 14365 layer_factory.hpp:77] Creating layer drop7-R
I0715 20:24:05.294826 14365 net.cpp:84] Creating Layer drop7-R
I0715 20:24:05.294829 14365 net.cpp:406] drop7-R <- fc7-R
I0715 20:24:05.294836 14365 net.cpp:367] drop7-R -> fc7-R (in-place)
I0715 20:24:05.294893 14365 net.cpp:122] Setting up drop7-R
I0715 20:24:05.294903 14365 net.cpp:129] Top shape: 1 4096 17 10 (696320)
I0715 20:24:05.294905 14365 net.cpp:137] Memory required for data: 1763051796
I0715 20:24:05.294909 14365 layer_factory.hpp:77] Creating layer score_fr-new-R
I0715 20:24:05.294919 14365 net.cpp:84] Creating Layer score_fr-new-R
I0715 20:24:05.294924 14365 net.cpp:406] score_fr-new-R <- fc7-R
I0715 20:24:05.294929 14365 net.cpp:380] score_fr-new-R -> score_fr-new-R
I0715 20:24:05.296517 14365 net.cpp:122] Setting up score_fr-new-R
I0715 20:24:05.296531 14365 net.cpp:129] Top shape: 1 3 17 10 (510)
I0715 20:24:05.296536 14365 net.cpp:137] Memory required for data: 1763053836
I0715 20:24:05.296545 14365 layer_factory.hpp:77] Creating layer upscore2-new-R
I0715 20:24:05.296557 14365 net.cpp:84] Creating Layer upscore2-new-R
I0715 20:24:05.296562 14365 net.cpp:406] upscore2-new-R <- score_fr-new-R
I0715 20:24:05.296569 14365 net.cpp:380] upscore2-new-R -> upscore2-new-R
I0715 20:24:05.296815 14365 net.cpp:122] Setting up upscore2-new-R
I0715 20:24:05.296824 14365 net.cpp:129] Top shape: 1 3 36 22 (2376)
I0715 20:24:05.296828 14365 net.cpp:137] Memory required for data: 1763063340
I0715 20:24:05.296833 14365 layer_factory.hpp:77] Creating layer upscore2-new-R_upscore2-new-R_0_split
I0715 20:24:05.296840 14365 net.cpp:84] Creating Layer upscore2-new-R_upscore2-new-R_0_split
I0715 20:24:05.296844 14365 net.cpp:406] upscore2-new-R_upscore2-new-R_0_split <- upscore2-new-R
I0715 20:24:05.296850 14365 net.cpp:380] upscore2-new-R_upscore2-new-R_0_split -> upscore2-new-R_upscore2-new-R_0_split_0
I0715 20:24:05.296857 14365 net.cpp:380] upscore2-new-R_upscore2-new-R_0_split -> upscore2-new-R_upscore2-new-R_0_split_1
I0715 20:24:05.296898 14365 net.cpp:122] Setting up upscore2-new-R_upscore2-new-R_0_split
I0715 20:24:05.296905 14365 net.cpp:129] Top shape: 1 3 36 22 (2376)
I0715 20:24:05.296910 14365 net.cpp:129] Top shape: 1 3 36 22 (2376)
I0715 20:24:05.296912 14365 net.cpp:137] Memory required for data: 1763082348
I0715 20:24:05.296916 14365 layer_factory.hpp:77] Creating layer score_pool4-new-R
I0715 20:24:05.296926 14365 net.cpp:84] Creating Layer score_pool4-new-R
I0715 20:24:05.296931 14365 net.cpp:406] score_pool4-new-R <- pool4-R_pool4-R_0_split_1
I0715 20:24:05.296937 14365 net.cpp:380] score_pool4-new-R -> score_pool4-new-R
I0715 20:24:05.298346 14365 net.cpp:122] Setting up score_pool4-new-R
I0715 20:24:05.298360 14365 net.cpp:129] Top shape: 1 3 45 32 (4320)
I0715 20:24:05.298364 14365 net.cpp:137] Memory required for data: 1763099628
I0715 20:24:05.298372 14365 layer_factory.hpp:77] Creating layer score_pool4c-R
I0715 20:24:05.298394 14365 net.cpp:84] Creating Layer score_pool4c-R
I0715 20:24:05.298399 14365 net.cpp:406] score_pool4c-R <- score_pool4-new-R
I0715 20:24:05.298404 14365 net.cpp:406] score_pool4c-R <- upscore2-new-R_upscore2-new-R_0_split_0
I0715 20:24:05.298410 14365 net.cpp:380] score_pool4c-R -> score_pool4c-R
I0715 20:24:05.298444 14365 net.cpp:122] Setting up score_pool4c-R
I0715 20:24:05.298449 14365 net.cpp:129] Top shape: 1 3 36 22 (2376)
I0715 20:24:05.298454 14365 net.cpp:137] Memory required for data: 1763109132
I0715 20:24:05.298456 14365 layer_factory.hpp:77] Creating layer fuse_pool4-R
I0715 20:24:05.298465 14365 net.cpp:84] Creating Layer fuse_pool4-R
I0715 20:24:05.298468 14365 net.cpp:406] fuse_pool4-R <- upscore2-new-R_upscore2-new-R_0_split_1
I0715 20:24:05.298475 14365 net.cpp:406] fuse_pool4-R <- score_pool4c-R
I0715 20:24:05.298480 14365 net.cpp:380] fuse_pool4-R -> fuse_pool4-R
I0715 20:24:05.298507 14365 net.cpp:122] Setting up fuse_pool4-R
I0715 20:24:05.298513 14365 net.cpp:129] Top shape: 1 3 36 22 (2376)
I0715 20:24:05.298516 14365 net.cpp:137] Memory required for data: 1763118636
I0715 20:24:05.298519 14365 layer_factory.hpp:77] Creating layer upscore_pool4-new-R
I0715 20:24:05.298527 14365 net.cpp:84] Creating Layer upscore_pool4-new-R
I0715 20:24:05.298530 14365 net.cpp:406] upscore_pool4-new-R <- fuse_pool4-R
I0715 20:24:05.298537 14365 net.cpp:380] upscore_pool4-new-R -> upscore_pool4-new-R
I0715 20:24:05.298769 14365 net.cpp:122] Setting up upscore_pool4-new-R
I0715 20:24:05.298777 14365 net.cpp:129] Top shape: 1 3 74 46 (10212)
I0715 20:24:05.298781 14365 net.cpp:137] Memory required for data: 1763159484
I0715 20:24:05.298789 14365 layer_factory.hpp:77] Creating layer upscore_pool4-new-R_upscore_pool4-new-R_0_split
I0715 20:24:05.298795 14365 net.cpp:84] Creating Layer upscore_pool4-new-R_upscore_pool4-new-R_0_split
I0715 20:24:05.298799 14365 net.cpp:406] upscore_pool4-new-R_upscore_pool4-new-R_0_split <- upscore_pool4-new-R
I0715 20:24:05.298804 14365 net.cpp:380] upscore_pool4-new-R_upscore_pool4-new-R_0_split -> upscore_pool4-new-R_upscore_pool4-new-R_0_split_0
I0715 20:24:05.298812 14365 net.cpp:380] upscore_pool4-new-R_upscore_pool4-new-R_0_split -> upscore_pool4-new-R_upscore_pool4-new-R_0_split_1
I0715 20:24:05.298852 14365 net.cpp:122] Setting up upscore_pool4-new-R_upscore_pool4-new-R_0_split
I0715 20:24:05.298858 14365 net.cpp:129] Top shape: 1 3 74 46 (10212)
I0715 20:24:05.298862 14365 net.cpp:129] Top shape: 1 3 74 46 (10212)
I0715 20:24:05.298866 14365 net.cpp:137] Memory required for data: 1763241180
I0715 20:24:05.298869 14365 layer_factory.hpp:77] Creating layer score_pool3-new-R
I0715 20:24:05.298879 14365 net.cpp:84] Creating Layer score_pool3-new-R
I0715 20:24:05.298883 14365 net.cpp:406] score_pool3-new-R <- pool3-R_pool3-R_0_split_1
I0715 20:24:05.298890 14365 net.cpp:380] score_pool3-new-R -> score_pool3-new-R
I0715 20:24:05.299830 14365 net.cpp:122] Setting up score_pool3-new-R
I0715 20:24:05.299842 14365 net.cpp:129] Top shape: 1 3 89 64 (17088)
I0715 20:24:05.299846 14365 net.cpp:137] Memory required for data: 1763309532
I0715 20:24:05.299854 14365 layer_factory.hpp:77] Creating layer score_pool3c-R
I0715 20:24:05.299862 14365 net.cpp:84] Creating Layer score_pool3c-R
I0715 20:24:05.299867 14365 net.cpp:406] score_pool3c-R <- score_pool3-new-R
I0715 20:24:05.299872 14365 net.cpp:406] score_pool3c-R <- upscore_pool4-new-R_upscore_pool4-new-R_0_split_0
I0715 20:24:05.299880 14365 net.cpp:380] score_pool3c-R -> score_pool3c-R
I0715 20:24:05.299912 14365 net.cpp:122] Setting up score_pool3c-R
I0715 20:24:05.299918 14365 net.cpp:129] Top shape: 1 3 74 46 (10212)
I0715 20:24:05.299921 14365 net.cpp:137] Memory required for data: 1763350380
I0715 20:24:05.299926 14365 layer_factory.hpp:77] Creating layer fuse_pool3-R
I0715 20:24:05.299934 14365 net.cpp:84] Creating Layer fuse_pool3-R
I0715 20:24:05.299939 14365 net.cpp:406] fuse_pool3-R <- upscore_pool4-new-R_upscore_pool4-new-R_0_split_1
I0715 20:24:05.299943 14365 net.cpp:406] fuse_pool3-R <- score_pool3c-R
I0715 20:24:05.299948 14365 net.cpp:380] fuse_pool3-R -> fuse_pool3-R
I0715 20:24:05.299978 14365 net.cpp:122] Setting up fuse_pool3-R
I0715 20:24:05.299983 14365 net.cpp:129] Top shape: 1 3 74 46 (10212)
I0715 20:24:05.299988 14365 net.cpp:137] Memory required for data: 1763391228
I0715 20:24:05.299990 14365 layer_factory.hpp:77] Creating layer upscore8-new-R
I0715 20:24:05.300001 14365 net.cpp:84] Creating Layer upscore8-new-R
I0715 20:24:05.300005 14365 net.cpp:406] upscore8-new-R <- fuse_pool3-R
I0715 20:24:05.300011 14365 net.cpp:380] upscore8-new-R -> upscore8-new-R
I0715 20:24:05.300278 14365 net.cpp:122] Setting up upscore8-new-R
I0715 20:24:05.300287 14365 net.cpp:129] Top shape: 1 3 600 376 (676800)
I0715 20:24:05.300290 14365 net.cpp:137] Memory required for data: 1766098428
I0715 20:24:05.300297 14365 layer_factory.hpp:77] Creating layer upscore8_cropped-R
I0715 20:24:05.300302 14365 net.cpp:84] Creating Layer upscore8_cropped-R
I0715 20:24:05.300307 14365 net.cpp:406] upscore8_cropped-R <- upscore8-new-R
I0715 20:24:05.300312 14365 net.cpp:406] upscore8_cropped-R <- data-R_crop_0_split_1
I0715 20:24:05.300317 14365 net.cpp:380] upscore8_cropped-R -> upscore8_cropped-R
I0715 20:24:05.300344 14365 net.cpp:122] Setting up upscore8_cropped-R
I0715 20:24:05.300350 14365 net.cpp:129] Top shape: 1 3 512 310 (476160)
I0715 20:24:05.300354 14365 net.cpp:137] Memory required for data: 1768003068
I0715 20:24:05.300356 14365 layer_factory.hpp:77] Creating layer upscore8_uncropped-R
I0715 20:24:05.300601 14365 net.cpp:84] Creating Layer upscore8_uncropped-R
I0715 20:24:05.300611 14365 net.cpp:406] upscore8_uncropped-R <- crop_info
I0715 20:24:05.300617 14365 net.cpp:406] upscore8_uncropped-R <- upscore8_cropped-R
I0715 20:24:05.300621 14365 net.cpp:406] upscore8_uncropped-R <- data_data_0_split_3
I0715 20:24:05.300627 14365 net.cpp:380] upscore8_uncropped-R -> upscore8_uncropped-R
I0715 20:24:05.302291 14365 net.cpp:122] Setting up upscore8_uncropped-R
I0715 20:24:05.302305 14365 net.cpp:129] Top shape: 1 3 512 310 (476160)
I0715 20:24:05.302309 14365 net.cpp:137] Memory required for data: 1769907708
I0715 20:24:05.302314 14365 layer_factory.hpp:77] Creating layer loss1
I0715 20:24:05.302328 14365 net.cpp:84] Creating Layer loss1
I0715 20:24:05.302332 14365 net.cpp:406] loss1 <- upscore8_cropped_upscore8_cropped_0_split_1
I0715 20:24:05.302338 14365 net.cpp:406] loss1 <- label_data_1_split_1
I0715 20:24:05.302343 14365 net.cpp:380] loss1 -> loss1
…
