…
snapshot_prefix: "/media/Med_2T2/data2/models/snapshots/joint:1e-5x10,1e-5x10,20/FD2:ZI3_1_20180715_091946,ZJ3_1_20180715_202402/train"
test_initialization: false
average_loss: 20
stepvalue: 50000
stepvalue: 60000
stepvalue: 70000
iter_size: 1
I0716 03:18:12.915987 15309 solver.cpp:77] Creating training net from train_net file: /media/Med_2T2/data2/prototxts/training_J3x10.prototxt
I0716 03:18:12.918802 15309 net.cpp:51] Initializing net from parameters: 
state {
  phase: TRAIN
}
layer {
  name: "data"
  type: "Python"
  top: "data"
  top: "label"
  top: "crop_margin"
  top: "crop_prob"
  top: "crop_sample_batch"
  python_param {
    module: "Data"
    layer: "DataLayer"
  }
}
layer {
  name: "conv1_1"
  type: "Convolution"
  bottom: "data"
  top: "conv1_1"
  param {
    lr_mult: 1
    decay_mult: 1
  }
  param {
    lr_mult: 2
    decay_mult: 0
  }
  convolution_param {
    num_output: 64
    pad: 100
    kernel_size: 3
    stride: 1
  }
}
layer {
  name: "relu1_1"
  type: "ReLU"
  bottom: "conv1_1"
  top: "conv1_1"
}
layer {
  name: "conv1_2"
  type: "Convolution"
  bottom: "conv1_1"
  top: "conv1_2"
  param {
    lr_mult: 1
    decay_mult: 1
  }
  param {
    lr_mult: 2
    decay_mult: 0
  }
  convolution_param {
    num_output: 64
    pad: 1
    kernel_size: 3
    stride: 1
  }
}
layer {
  name: "relu1_2"
  type: "ReLU"
  bottom: "conv1_2"
  top: "conv1_2"
}
layer {
  name: "pool1"
  type: "Pooling"
  bottom: "conv1_2"
  top: "pool1"
  pooling_param {
    pool: MAX
    kernel_size: 2
    stride: 2
  }
}
layer {
  name: "conv2_1"
  type: "Convolution"
  bottom: "pool1"
  top: "conv2_1"
  param {
    lr_mult: 1
    decay_mult: 1
  }
  param {
    lr_mult: 2
    decay_mult: 0
  }
  convolution_param {
    num_output: 128
    pad: 1
    kernel_size: 3
    stride: 1
  }
}
layer {
  name: "relu2_1"
  type: "ReLU"
  bottom: "conv2_1"
  top: "conv2_1"
}
layer {
  name: "conv2_2"
  type: "Convolution"
  bottom: "conv2_1"
  top: "conv2_2"
  param {
    lr_mult: 1
    decay_mult: 1
  }
  param {
    lr_mult: 2
    decay_mult: 0
  }
  convolution_param {
    num_output: 128
    pad: 1
    kernel_size: 3
    stride: 1
  }
}
layer {
  name: "relu2_2"
  type: "ReLU"
  bottom: "conv2_2"
  top: "conv2_2"
}
layer {
  name: "pool2"
  type: "Pooling"
  bottom: "conv2_2"
  top: "pool2"
  pooling_param {
    pool: MAX
    kernel_size: 2
    stride: 2
  }
}
layer {
  name: "conv3_1"
  type: "Convolution"
  bottom: "pool2"
  top: "conv3_1"
  param {
    lr_mult: 1
    decay_mult: 1
  }
  param {
    lr_mult: 2
    decay_mult: 0
  }
  convolution_param {
    num_output: 256
    pad: 1
    kernel_size: 3
    stride: 1
  }
}
layer {
  name: "relu3_1"
  type: "ReLU"
  bottom: "conv3_1"
  top: "conv3_1"
}
layer {
  name: "conv3_2"
  type: "Convolution"
  bottom: "conv3_1"
  top: "conv3_2"
  param {
    lr_mult: 1
    decay_mult: 1
  }
  param {
    lr_mult: 2
    decay_mult: 0
  }
  convolution_param {
    num_output: 256
    pad: 1
    kernel_size: 3
    stride: 1
  }
}
layer {
  name: "relu3_2"
  type: "ReLU"
  bottom: "conv3_2"
  top: "conv3_2"
}
layer {
  name: "conv3_3"
  type: "Convolution"
  bottom: "conv3_2"
  top: "conv3_3"
  param {
    lr_mult: 1
    decay_mult: 1
  }
  param {
    lr_mult: 2
    decay_mult: 0
  }
  convolution_param {
    num_output: 256
    pad: 1
    kernel_size: 3
    stride: 1
  }
}
layer {
  name: "relu3_3"
  type: "ReLU"
  bottom: "conv3_3"
  top: "conv3_3"
}
layer {
  name: "pool3"
  type: "Pooling"
  bottom: "conv3_3"
  top: "pool3"
  pooling_param {
    pool: MAX
    kernel_size: 2
    stride: 2
  }
}
layer {
  name: "conv4_1"
  type: "Convolution"
  bottom: "pool3"
  top: "conv4_1"
  param {
    lr_mult: 1
    decay_mult: 1
  }
  param {
    lr_mult: 2
    decay_mult: 0
  }
  convolution_param {
    num_output: 512
    pad: 1
    kernel_size: 3
    stride: 1
  }
}
layer {
  name: "relu4_1"
  type: "ReLU"
  bottom: "conv4_1"
  top: "conv4_1"
}
layer {
  name: "conv4_2"
  type: "Convolution"
  bottom: "conv4_1"
  top: "conv4_2"
  param {
    lr_mult: 1
    decay_mult: 1
  }
  param {
    lr_mult: 2
    decay_mult: 0
  }
  convolution_param {
    num_output: 512
    pad: 1
    kernel_size: 3
    stride: 1
  }
}
layer {
  name: "relu4_2"
  type: "ReLU"
  bottom: "conv4_2"
  top: "conv4_2"
}
layer {
  name: "conv4_3"
  type: "Convolution"
  bottom: "conv4_2"
  top: "conv4_3"
  param {
    lr_mult: 1
    decay_mult: 1
  }
  param {
    lr_mult: 2
    decay_mult: 0
  }
  convolution_param {
    num_output: 512
    pad: 1
    kernel_size: 3
    stride: 1
  }
}
layer {
  name: "relu4_3"
  type: "ReLU"
  bottom: "conv4_3"
  top: "conv4_3"
}
layer {
  name: "pool4"
  type: "Pooling"
  bottom: "conv4_3"
  top: "pool4"
  pooling_param {
    pool: MAX
    kernel_size: 2
    stride: 2
  }
}
layer {
  name: "conv5_1"
  type: "Convolution"
  bottom: "pool4"
  top: "conv5_1"
  param {
    lr_mult: 1
    decay_mult: 1
  }
  param {
    lr_mult: 2
    decay_mult: 0
  }
  convolution_param {
    num_output: 512
    pad: 1
    kernel_size: 3
    stride: 1
  }
}
layer {
  name: "relu5_1"
  type: "ReLU"
  bottom: "conv5_1"
  top: "conv5_1"
}
layer {
  name: "conv5_2"
  type: "Convolution"
  bottom: "conv5_1"
  top: "conv5_2"
  param {
    lr_mult: 1
    decay_mult: 1
  }
  param {
    lr_mult: 2
    decay_mult: 0
  }
  convolution_param {
    num_output: 512
    pad: 1
    kernel_size: 3
    stride: 1
  }
}
layer {
  name: "relu5_2"
  type: "ReLU"
  bottom: "conv5_2"
  top: "conv5_2"
}
layer {
  name: "conv5_3"
  type: "Convolution"
  bottom: "conv5_2"
  top: "conv5_3"
  param {
    lr_mult: 1
    decay_mult: 1
  }
  param {
    lr_mult: 2
    decay_mult: 0
  }
  convolution_param {
    num_output: 512
    pad: 1
    kernel_size: 3
    stride: 1
  }
}
layer {
  name: "relu5_3"
  type: "ReLU"
  bottom: "conv5_3"
  top: "conv5_3"
}
layer {
  name: "pool5"
  type: "Pooling"
  bottom: "conv5_3"
  top: "pool5"
  pooling_param {
    pool: MAX
    kernel_size: 2
    stride: 2
  }
}
layer {
  name: "fc6"
  type: "Convolution"
  bottom: "pool5"
  top: "fc6"
  param {
    lr_mult: 1
    decay_mult: 1
  }
  param {
    lr_mult: 2
    decay_mult: 0
  }
  convolution_param {
    num_output: 4096
    pad: 0
    kernel_size: 7
    stride: 1
  }
}
layer {
  name: "relu6"
  type: "ReLU"
  bottom: "fc6"
  top: "fc6"
}
layer {
  name: "drop6"
  type: "Dropout"
  bottom: "fc6"
  top: "fc6"
  dropout_param {
    dropout_ratio: 0.5
  }
}
layer {
  name: "fc7"
  type: "Convolution"
  bottom: "fc6"
  top: "fc7"
  param {
    lr_mult: 1
    decay_mult: 1
  }
  param {
    lr_mult: 2
    decay_mult: 0
  }
  convolution_param {
    num_output: 4096
    pad: 0
    kernel_size: 1
    stride: 1
  }
}
layer {
  name: "relu7"
  type: "ReLU"
  bottom: "fc7"
  top: "fc7"
}
layer {
  name: "drop7"
  type: "Dropout"
  bottom: "fc7"
  top: "fc7"
  dropout_param {
    dropout_ratio: 0.5
  }
}
layer {
  name: "score_fr-new"
  type: "Convolution"
  bottom: "fc7"
  top: "score_fr-new"
  param {
    lr_mult: 1
    decay_mult: 1
  }
  param {
    lr_mult: 2
    decay_mult: 0
  }
  convolution_param {
    num_output: 3
    kernel_size: 1
  }
}
layer {
  name: "upscore2-new"
  type: "Deconvolution"
  bottom: "score_fr-new"
  top: "upscore2-new"
  param {
    lr_mult: 0
  }
  convolution_param {
    num_output: 3
    bias_term: false
    kernel_size: 4
    stride: 2
  }
}
layer {
  name: "score_pool4-new"
  type: "Convolution"
  bottom: "pool4"
  top: "score_pool4-new"
  param {
    lr_mult: 1
    decay_mult: 1
  }
  param {
    lr_mult: 2
    decay_mult: 0
  }
  convolution_param {
    num_output: 3
    pad: 0
    kernel_size: 1
  }
}
layer {
  name: "score_pool4c"
  type: "Crop"
  bottom: "score_pool4-new"
  bottom: "upscore2-new"
  top: "score_pool4c"
  crop_param {
    axis: 2
    offset: 5
  }
}
layer {
  name: "fuse_pool4"
  type: "Eltwise"
  bottom: "upscore2-new"
  bottom: "score_pool4c"
  top: "fuse_pool4"
  eltwise_param {
    operation: SUM
  }
}
layer {
  name: "upscore_pool4-new"
  type: "Deconvolution"
  bottom: "fuse_pool4"
  top: "upscore_pool4-new"
  param {
    lr_mult: 0
  }
  convolution_param {
    num_output: 3
    bias_term: false
    kernel_size: 4
    stride: 2
  }
}
layer {
  name: "score_pool3-new"
  type: "Convolution"
  bottom: "pool3"
  top: "score_pool3-new"
  param {
    lr_mult: 1
    decay_mult: 1
  }
  param {
    lr_mult: 2
    decay_mult: 0
  }
  convolution_param {
    num_output: 3
    pad: 0
    kernel_size: 1
  }
}
layer {
  name: "score_pool3c"
  type: "Crop"
  bottom: "score_pool3-new"
  bottom: "upscore_pool4-new"
  top: "score_pool3c"
  crop_param {
    axis: 2
    offset: 9
  }
}
layer {
  name: "fuse_pool3"
  type: "Eltwise"
  bottom: "upscore_pool4-new"
  bottom: "score_pool3c"
  top: "fuse_pool3"
  eltwise_param {
    operation: SUM
  }
}
layer {
  name: "upscore8-new"
  type: "Deconvolution"
  bottom: "fuse_pool3"
  top: "upscore8-new"
  param {
    lr_mult: 0
  }
  convolution_param {
    num_output: 3
    bias_term: false
    kernel_size: 16
    stride: 8
  }
}
layer {
  name: "upscore8_cropped"
  type: "Crop"
  bottom: "upscore8-new"
  bottom: "data"
  top: "upscore8_cropped"
  crop_param {
    axis: 2
    offset: 31
  }
}
layer {
  name: "prob"
  type: "Sigmoid"
  bottom: "upscore8_cropped"
  top: "prob"
}
layer {
  name: "saliency1"
  type: "Convolution"
  bottom: "prob"
  top: "saliency1"
  param {
    lr_mult: 10
    decay_mult: 1
  }
  param {
    lr_mult: 20
    decay_mult: 0
  }
  convolution_param {
    num_output: 3
    pad: 1
    kernel_size: 3
    stride: 1
    weight_filler {
      type: "xavier"
    }
    bias_filler {
      type: "constant"
      value: 1
    }
  }
}
layer {
  name: "relu_saliency1"
  type: "ReLU"
  bottom: "saliency1"
  top: "saliency1"
}
layer {
  name: "saliency"
  type: "Convolution"
  bottom: "saliency1"
  top: "saliency"
  param {
    lr_mult: 10
    decay_mult: 1
  }
  param {
    lr_mult: 20
    decay_mult: 0
  }
  convolution_param {
    num_output: 3
    pad: 2
    kernel_size: 5
    stride: 1
    weight_filler {
      type: "xavier"
    }
    bias_filler {
      type: "constant"
      value: 1
    }
  }
}
layer {
  name: "saliency_data"
  type: "Eltwise"
  bottom: "data"
  bottom: "saliency"
  top: "saliency_data"
  eltwise_param {
    operation: PROD
  }
}
layer {
  name: "crop"
  type: "Python"
  bottom: "prob"
  bottom: "saliency_data"
  bottom: "crop_margin"
  bottom: "crop_prob"
  bottom: "crop_sample_batch"
  bottom: "label"
  top: "data-R"
  top: "crop_info"
  python_param {
    module: "Crop"
    layer: "CropLayer"
    param_str: "{\"TEST\": 0}"
  }
}
layer {
  name: "conv1_1-R"
  type: "Convolution"
  bottom: "data-R"
  top: "conv1_1-R"
  param {
    lr_mult: 10
    decay_mult: 1
  }
  param {
    lr_mult: 20
    decay_mult: 0
  }
  convolution_param {
    num_output: 64
    pad: 100
    kernel_size: 3
    stride: 1
  }
}
layer {
  name: "relu1_1-R"
  type: "ReLU"
  bottom: "conv1_1-R"
  top: "conv1_1-R"
}
layer {
  name: "conv1_2-R"
  type: "Convolution"
  bottom: "conv1_1-R"
  top: "conv1_2-R"
  param {
    lr_mult: 10
    decay_mult: 1
  }
  param {
    lr_mult: 20
    decay_mult: 0
  }
  convolution_param {
    num_output: 64
    pad: 1
    kernel_size: 3
    stride: 1
  }
}
layer {
  name: "relu1_2-R"
  type: "ReLU"
  bottom: "conv1_2-R"
  top: "conv1_2-R"
}
layer {
  name: "pool1-R"
  type: "Pooling"
  bottom: "conv1_2-R"
  top: "pool1-R"
  pooling_param {
    pool: MAX
    kernel_size: 2
    stride: 2
  }
}
layer {
  name: "conv2_1-R"
  type: "Convolution"
  bottom: "pool1-R"
  top: "conv2_1-R"
  param {
    lr_mult: 10
    decay_mult: 1
  }
  param {
    lr_mult: 20
    decay_mult: 0
  }
  convolution_param {
    num_output: 128
    pad: 1
    kernel_size: 3
    stride: 1
  }
}
layer {
  name: "relu2_1-R"
  type: "ReLU"
  bottom: "conv2_1-R"
  top: "conv2_1-R"
}
layer {
  name: "conv2_2-R"
  type: "Convolution"
  bottom: "conv2_1-R"
  top: "conv2_2-R"
  param {
    lr_mult: 10
    decay_mult: 1
  }
  param {
    lr_mult: 20
    decay_mult: 0
  }
  convolution_param {
    num_output: 128
    pad: 1
    kernel_size: 3
    stride: 1
  }
}
layer {
  name: "relu2_2-R"
  type: "ReLU"
  bottom: "conv2_2-R"
  top: "conv2_2-R"
}
layer {
  name: "pool2-R"
  type: "Pooling"
  bottom: "conv2_2-R"
  top: "pool2-R"
  pooling_param {
    pool: MAX
    kernel_size: 2
    stride: 2
  }
}
layer {
  name: "conv3_1-R"
  type: "Convolution"
  bottom: "pool2-R"
  top: "conv3_1-R"
  param {
    lr_mult: 10
    decay_mult: 1
  }
  param {
    lr_mult: 20
    decay_mult: 0
  }
  convolution_param {
    num_output: 256
    pad: 1
    kernel_size: 3
    stride: 1
  }
}
layer {
  name: "relu3_1-R"
  type: "ReLU"
  bottom: "conv3_1-R"
  top: "conv3_1-R"
}
layer {
  name: "conv3_2-R"
  type: "Convolution"
  bottom: "conv3_1-R"
  top: "conv3_2-R"
  param {
    lr_mult: 10
    decay_mult: 1
  }
  param {
    lr_mult: 20
    decay_mult: 0
  }
  convolution_param {
    num_output: 256
    pad: 1
    kernel_size: 3
    stride: 1
  }
}
layer {
  name: "relu3_2-R"
  type: "ReLU"
  bottom: "conv3_2-R"
  top: "conv3_2-R"
}
layer {
  name: "conv3_3-R"
  type: "Convolution"
  bottom: "conv3_2-R"
  top: "conv3_3-R"
  param {
    lr_mult: 10
    decay_mult: 1
  }
  param {
    lr_mult: 20
    decay_mult: 0
  }
  convolution_param {
    num_output: 256
    pad: 1
    kernel_size: 3
    stride: 1
  }
}
layer {
  name: "relu3_3-R"
  type: "ReLU"
  bottom: "conv3_3-R"
  top: "conv3_3-R"
}
layer {
  name: "pool3-R"
  type: "Pooling"
  bottom: "conv3_3-R"
  top: "pool3-R"
  pooling_param {
    pool: MAX
    kernel_size: 2
    stride: 2
  }
}
layer {
  name: "conv4_1-R"
  type: "Convolution"
  bottom: "pool3-R"
  top: "conv4_1-R"
  param {
    lr_mult: 10
    decay_mult: 1
  }
  param {
    lr_mult: 20
    decay_mult: 0
  }
  convolution_param {
    num_output: 512
    pad: 1
    kernel_size: 3
    stride: 1
  }
}
layer {
  name: "relu4_1-R"
  type: "ReLU"
  bottom: "conv4_1-R"
  top: "conv4_1-R"
}
layer {
  name: "conv4_2-R"
  type: "Convolution"
  bottom: "conv4_1-R"
  top: "conv4_2-R"
  param {
    lr_mult: 10
    decay_mult: 1
  }
  param {
    lr_mult: 20
    decay_mult: 0
  }
  convolution_param {
    num_output: 512
    pad: 1
    kernel_size: 3
    stride: 1
  }
}
layer {
  name: "relu4_2-R"
  type: "ReLU"
  bottom: "conv4_2-R"
  top: "conv4_2-R"
}
layer {
  name: "conv4_3-R"
  type: "Convolution"
  bottom: "conv4_2-R"
  top: "conv4_3-R"
  param {
    lr_mult: 10
    decay_mult: 1
  }
  param {
    lr_mult: 20
    decay_mult: 0
  }
  convolution_param {
    num_output: 512
    pad: 1
    kernel_size: 3
    stride: 1
  }
}
layer {
  name: "relu4_3-R"
  type: "ReLU"
  bottom: "conv4_3-R"
  top: "conv4_3-R"
}
layer {
  name: "pool4-R"
  type: "Pooling"
  bottom: "conv4_3-R"
  top: "pool4-R"
  pooling_param {
    pool: MAX
    kernel_size: 2
    stride: 2
  }
}
layer {
  name: "conv5_1-R"
  type: "Convolution"
  bottom: "pool4-R"
  top: "conv5_1-R"
  param {
    lr_mult: 10
    decay_mult: 1
  }
  param {
    lr_mult: 20
    decay_mult: 0
  }
  convolution_param {
    num_output: 512
    pad: 1
    kernel_size: 3
    stride: 1
  }
}
layer {
  name: "relu5_1-R"
  type: "ReLU"
  bottom: "conv5_1-R"
  top: "conv5_1-R"
}
layer {
  name: "conv5_2-R"
  type: "Convolution"
  bottom: "conv5_1-R"
  top: "conv5_2-R"
  param {
    lr_mult: 10
    decay_mult: 1
  }
  param {
    lr_mult: 20
    decay_mult: 0
  }
  convolution_param {
    num_output: 512
    pad: 1
    kernel_size: 3
    stride: 1
  }
}
layer {
  name: "relu5_2-R"
  type: "ReLU"
  bottom: "conv5_2-R"
  top: "conv5_2-R"
}
layer {
  name: "conv5_3-R"
  type: "Convolution"
  bottom: "conv5_2-R"
  top: "conv5_3-R"
  param {
    lr_mult: 10
    decay_mult: 1
  }
  param {
    lr_mult: 20
    decay_mult: 0
  }
  convolution_param {
    num_output: 512
    pad: 1
    kernel_size: 3
    stride: 1
  }
}
layer {
  name: "relu5_3-R"
  type: "ReLU"
  bottom: "conv5_3-R"
  top: "conv5_3-R"
}
layer {
  name: "pool5-R"
  type: "Pooling"
  bottom: "conv5_3-R"
  top: "pool5-R"
  pooling_param {
    pool: MAX
    kernel_size: 2
    stride: 2
  }
}
layer {
  name: "fc6-R"
  type: "Convolution"
  bottom: "pool5-R"
  top: "fc6-R"
  param {
    lr_mult: 10
    decay_mult: 1
  }
  param {
    lr_mult: 20
    decay_mult: 0
  }
  convolution_param {
    num_output: 4096
    pad: 0
    kernel_size: 7
    stride: 1
  }
}
layer {
  name: "relu6-R"
  type: "ReLU"
  bottom: "fc6-R"
  top: "fc6-R"
}
layer {
  name: "drop6-R"
  type: "Dropout"
  bottom: "fc6-R"
  top: "fc6-R"
  dropout_param {
    dropout_ratio: 0.5
  }
}
layer {
  name: "fc7-R"
  type: "Convolution"
  bottom: "fc6-R"
  top: "fc7-R"
  param {
    lr_mult: 10
    decay_mult: 1
  }
  param {
    lr_mult: 20
    decay_mult: 0
  }
  convolution_param {
    num_output: 4096
    pad: 0
    kernel_size: 1
    stride: 1
  }
}
layer {
  name: "relu7-R"
  type: "ReLU"
  bottom: "fc7-R"
  top: "fc7-R"
}
layer {
  name: "drop7-R"
  type: "Dropout"
  bottom: "fc7-R"
  top: "fc7-R"
  dropout_param {
    dropout_ratio: 0.5
  }
}
layer {
  name: "score_fr-new-R"
  type: "Convolution"
  bottom: "fc7-R"
  top: "score_fr-new-R"
  param {
    lr_mult: 10
    decay_mult: 1
  }
  param {
    lr_mult: 20
    decay_mult: 0
  }
  convolution_param {
    num_output: 3
    kernel_size: 1
  }
}
layer {
  name: "upscore2-new-R"
  type: "Deconvolution"
  bottom: "score_fr-new-R"
  top: "upscore2-new-R"
  param {
    lr_mult: 0
  }
  convolution_param {
    num_output: 3
    bias_term: false
    kernel_size: 4
    stride: 2
  }
}
layer {
  name: "score_pool4-new-R"
  type: "Convolution"
  bottom: "pool4-R"
  top: "score_pool4-new-R"
  param {
    lr_mult: 10
    decay_mult: 1
  }
  param {
    lr_mult: 20
    decay_mult: 0
  }
  convolution_param {
    num_output: 3
    pad: 0
    kernel_size: 1
  }
}
layer {
  name: "score_pool4c-R"
  type: "Crop"
  bottom: "score_pool4-new-R"
  bottom: "upscore2-new-R"
  top: "score_pool4c-R"
  crop_param {
    axis: 2
    offset: 5
  }
}
layer {
  name: "fuse_pool4-R"
  type: "Eltwise"
  bottom: "upscore2-new-R"
  bottom: "score_pool4c-R"
  top: "fuse_pool4-R"
  eltwise_param {
    operation: SUM
  }
}
layer {
  name: "upscore_pool4-new-R"
  type: "Deconvolution"
  bottom: "fuse_pool4-R"
  top: "upscore_pool4-new-R"
  param {
    lr_mult: 0
  }
  convolution_param {
    num_output: 3
    bias_term: false
    kernel_size: 4
    stride: 2
  }
}
layer {
  name: "score_pool3-new-R"
  type: "Convolution"
  bottom: "pool3-R"
  top: "score_pool3-new-R"
  param {
    lr_mult: 10
    decay_mult: 1
  }
  param {
    lr_mult: 20
    decay_mult: 0
  }
  convolution_param {
    num_output: 3
    pad: 0
    kernel_size: 1
  }
}
layer {
  name: "score_pool3c-R"
  type: "Crop"
  bottom: "score_pool3-new-R"
  bottom: "upscore_pool4-new-R"
  top: "score_pool3c-R"
  crop_param {
    axis: 2
    offset: 9
  }
}
layer {
  name: "fuse_pool3-R"
  type: "Eltwise"
  bottom: "upscore_pool4-new-R"
  bottom: "score_pool3c-R"
  top: "fuse_pool3-R"
  eltwise_param {
    operation: SUM
  }
}
layer {
  name: "upscore8-new-R"
  type: "Deconvolution"
  bottom: "fuse_pool3-R"
  top: "upscore8-new-R"
  param {
    lr_mult: 0
  }
  convolution_param {
    num_output: 3
    bias_term: false
    kernel_size: 16
    stride: 8
  }
}
layer {
  name: "upscore8_cropped-R"
  type: "Crop"
  bottom: "upscore8-new-R"
  bottom: "data-R"
  top: "upscore8_cropped-R"
  crop_param {
    axis: 2
    offset: 31
  }
}
layer {
  name: "upscore8_uncropped-R"
  type: "Python"
  bottom: "crop_info"
  bottom: "upscore8_cropped-R"
  bottom: "data"
  top: "upscore8_uncropped-R"
  python_param {
    module: "Uncrop"
    layer: "UncropLayer"
  }
}
layer {
  name: "loss1"
  type: "DiceLoss"
  bottom: "upscore8_cropped"
  bottom: "label"
  top: "loss1"
  loss_weight: 0.333333
}
layer {
  name: "loss2"
  type: "DiceLoss"
  bottom: "upscore8_uncropped-R"
  bottom: "label"
  top: "loss2"
  loss_weight: 0.666667
}
I0716 03:18:12.919385 15309 layer_factory.hpp:77] Creating layer data
I0716 03:18:12.919795 15309 net.cpp:84] Creating Layer data
I0716 03:18:12.919811 15309 net.cpp:380] data -> data
I0716 03:18:12.919827 15309 net.cpp:380] data -> label
I0716 03:18:12.919836 15309 net.cpp:380] data -> crop_margin
I0716 03:18:12.919842 15309 net.cpp:380] data -> crop_prob
I0716 03:18:12.919849 15309 net.cpp:380] data -> crop_sample_batch
I0716 03:18:13.024235 15309 net.cpp:122] Setting up data
I0716 03:18:13.024307 15309 net.cpp:129] Top shape: 1 3 512 512 (786432)
I0716 03:18:13.024315 15309 net.cpp:129] Top shape: 1 3 512 512 (786432)
I0716 03:18:13.024330 15309 net.cpp:129] Top shape: 1 (1)
I0716 03:18:13.024335 15309 net.cpp:129] Top shape: 1 (1)
I0716 03:18:13.024340 15309 net.cpp:129] Top shape: 1 (1)
I0716 03:18:13.024345 15309 net.cpp:137] Memory required for data: 6291468
I0716 03:18:13.024354 15309 layer_factory.hpp:77] Creating layer data_data_0_split
I0716 03:18:13.024392 15309 net.cpp:84] Creating Layer data_data_0_split
I0716 03:18:13.024401 15309 net.cpp:406] data_data_0_split <- data
I0716 03:18:13.024415 15309 net.cpp:380] data_data_0_split -> data_data_0_split_0
I0716 03:18:13.024430 15309 net.cpp:380] data_data_0_split -> data_data_0_split_1
I0716 03:18:13.024441 15309 net.cpp:380] data_data_0_split -> data_data_0_split_2
I0716 03:18:13.024449 15309 net.cpp:380] data_data_0_split -> data_data_0_split_3
I0716 03:18:13.024515 15309 net.cpp:122] Setting up data_data_0_split
I0716 03:18:13.024525 15309 net.cpp:129] Top shape: 1 3 512 512 (786432)
I0716 03:18:13.024531 15309 net.cpp:129] Top shape: 1 3 512 512 (786432)
I0716 03:18:13.024536 15309 net.cpp:129] Top shape: 1 3 512 512 (786432)
I0716 03:18:13.024550 15309 net.cpp:129] Top shape: 1 3 512 512 (786432)
I0716 03:18:13.024554 15309 net.cpp:137] Memory required for data: 18874380
I0716 03:18:13.024559 15309 layer_factory.hpp:77] Creating layer label_data_1_split
I0716 03:18:13.024566 15309 net.cpp:84] Creating Layer label_data_1_split
I0716 03:18:13.024571 15309 net.cpp:406] label_data_1_split <- label
I0716 03:18:13.024577 15309 net.cpp:380] label_data_1_split -> label_data_1_split_0
I0716 03:18:13.024585 15309 net.cpp:380] label_data_1_split -> label_data_1_split_1
I0716 03:18:13.024591 15309 net.cpp:380] label_data_1_split -> label_data_1_split_2
I0716 03:18:13.024631 15309 net.cpp:122] Setting up label_data_1_split
I0716 03:18:13.024639 15309 net.cpp:129] Top shape: 1 3 512 512 (786432)
I0716 03:18:13.024646 15309 net.cpp:129] Top shape: 1 3 512 512 (786432)
I0716 03:18:13.024650 15309 net.cpp:129] Top shape: 1 3 512 512 (786432)
I0716 03:18:13.024654 15309 net.cpp:137] Memory required for data: 28311564
I0716 03:18:13.024660 15309 layer_factory.hpp:77] Creating layer conv1_1
I0716 03:18:13.024696 15309 net.cpp:84] Creating Layer conv1_1
I0716 03:18:13.024704 15309 net.cpp:406] conv1_1 <- data_data_0_split_0
I0716 03:18:13.024710 15309 net.cpp:380] conv1_1 -> conv1_1
I0716 03:18:13.430341 15309 net.cpp:122] Setting up conv1_1
I0716 03:18:13.430393 15309 net.cpp:129] Top shape: 1 64 710 710 (32262400)
I0716 03:18:13.430399 15309 net.cpp:137] Memory required for data: 157361164
I0716 03:18:13.430431 15309 layer_factory.hpp:77] Creating layer relu1_1
I0716 03:18:13.430467 15309 net.cpp:84] Creating Layer relu1_1
I0716 03:18:13.430475 15309 net.cpp:406] relu1_1 <- conv1_1
I0716 03:18:13.430483 15309 net.cpp:367] relu1_1 -> conv1_1 (in-place)
I0716 03:18:13.430707 15309 net.cpp:122] Setting up relu1_1
I0716 03:18:13.430721 15309 net.cpp:129] Top shape: 1 64 710 710 (32262400)
I0716 03:18:13.430725 15309 net.cpp:137] Memory required for data: 286410764
I0716 03:18:13.430729 15309 layer_factory.hpp:77] Creating layer conv1_2
I0716 03:18:13.430744 15309 net.cpp:84] Creating Layer conv1_2
I0716 03:18:13.430749 15309 net.cpp:406] conv1_2 <- conv1_1
I0716 03:18:13.430757 15309 net.cpp:380] conv1_2 -> conv1_2
I0716 03:18:13.436846 15309 net.cpp:122] Setting up conv1_2
I0716 03:18:13.436870 15309 net.cpp:129] Top shape: 1 64 710 710 (32262400)
I0716 03:18:13.436877 15309 net.cpp:137] Memory required for data: 415460364
I0716 03:18:13.436894 15309 layer_factory.hpp:77] Creating layer relu1_2
I0716 03:18:13.436908 15309 net.cpp:84] Creating Layer relu1_2
I0716 03:18:13.436914 15309 net.cpp:406] relu1_2 <- conv1_2
I0716 03:18:13.436923 15309 net.cpp:367] relu1_2 -> conv1_2 (in-place)
I0716 03:18:13.437211 15309 net.cpp:122] Setting up relu1_2
I0716 03:18:13.437227 15309 net.cpp:129] Top shape: 1 64 710 710 (32262400)
I0716 03:18:13.437233 15309 net.cpp:137] Memory required for data: 544509964
I0716 03:18:13.437253 15309 layer_factory.hpp:77] Creating layer pool1
I0716 03:18:13.437273 15309 net.cpp:84] Creating Layer pool1
I0716 03:18:13.437279 15309 net.cpp:406] pool1 <- conv1_2
I0716 03:18:13.437289 15309 net.cpp:380] pool1 -> pool1
I0716 03:18:13.437366 15309 net.cpp:122] Setting up pool1
I0716 03:18:13.437381 15309 net.cpp:129] Top shape: 1 64 355 355 (8065600)
I0716 03:18:13.437386 15309 net.cpp:137] Memory required for data: 576772364
I0716 03:18:13.437392 15309 layer_factory.hpp:77] Creating layer conv2_1
I0716 03:18:13.437407 15309 net.cpp:84] Creating Layer conv2_1
I0716 03:18:13.437412 15309 net.cpp:406] conv2_1 <- pool1
I0716 03:18:13.437441 15309 net.cpp:380] conv2_1 -> conv2_1
I0716 03:18:13.449185 15309 net.cpp:122] Setting up conv2_1
I0716 03:18:13.449211 15309 net.cpp:129] Top shape: 1 128 355 355 (16131200)
I0716 03:18:13.449218 15309 net.cpp:137] Memory required for data: 641297164
I0716 03:18:13.449239 15309 layer_factory.hpp:77] Creating layer relu2_1
I0716 03:18:13.449262 15309 net.cpp:84] Creating Layer relu2_1
I0716 03:18:13.449270 15309 net.cpp:406] relu2_1 <- conv2_1
I0716 03:18:13.449278 15309 net.cpp:367] relu2_1 -> conv2_1 (in-place)
I0716 03:18:13.449594 15309 net.cpp:122] Setting up relu2_1
I0716 03:18:13.449611 15309 net.cpp:129] Top shape: 1 128 355 355 (16131200)
I0716 03:18:13.449617 15309 net.cpp:137] Memory required for data: 705821964
I0716 03:18:13.449623 15309 layer_factory.hpp:77] Creating layer conv2_2
I0716 03:18:13.449652 15309 net.cpp:84] Creating Layer conv2_2
I0716 03:18:13.449659 15309 net.cpp:406] conv2_2 <- conv2_1
I0716 03:18:13.449678 15309 net.cpp:380] conv2_2 -> conv2_2
I0716 03:18:13.452718 15309 net.cpp:122] Setting up conv2_2
I0716 03:18:13.452744 15309 net.cpp:129] Top shape: 1 128 355 355 (16131200)
I0716 03:18:13.452751 15309 net.cpp:137] Memory required for data: 770346764
I0716 03:18:13.452776 15309 layer_factory.hpp:77] Creating layer relu2_2
I0716 03:18:13.452801 15309 net.cpp:84] Creating Layer relu2_2
I0716 03:18:13.452808 15309 net.cpp:406] relu2_2 <- conv2_2
I0716 03:18:13.452822 15309 net.cpp:367] relu2_2 -> conv2_2 (in-place)
I0716 03:18:13.453156 15309 net.cpp:122] Setting up relu2_2
I0716 03:18:13.453173 15309 net.cpp:129] Top shape: 1 128 355 355 (16131200)
I0716 03:18:13.453181 15309 net.cpp:137] Memory required for data: 834871564
I0716 03:18:13.453186 15309 layer_factory.hpp:77] Creating layer pool2
I0716 03:18:13.453213 15309 net.cpp:84] Creating Layer pool2
I0716 03:18:13.453219 15309 net.cpp:406] pool2 <- conv2_2
I0716 03:18:13.453236 15309 net.cpp:380] pool2 -> pool2
I0716 03:18:13.453310 15309 net.cpp:122] Setting up pool2
I0716 03:18:13.453331 15309 net.cpp:129] Top shape: 1 128 178 178 (4055552)
I0716 03:18:13.453337 15309 net.cpp:137] Memory required for data: 851093772
I0716 03:18:13.453342 15309 layer_factory.hpp:77] Creating layer conv3_1
I0716 03:18:13.453356 15309 net.cpp:84] Creating Layer conv3_1
I0716 03:18:13.453361 15309 net.cpp:406] conv3_1 <- pool2
I0716 03:18:13.453374 15309 net.cpp:380] conv3_1 -> conv3_1
I0716 03:18:13.459760 15309 net.cpp:122] Setting up conv3_1
I0716 03:18:13.459779 15309 net.cpp:129] Top shape: 1 256 178 178 (8111104)
I0716 03:18:13.459784 15309 net.cpp:137] Memory required for data: 883538188
I0716 03:18:13.459797 15309 layer_factory.hpp:77] Creating layer relu3_1
I0716 03:18:13.459817 15309 net.cpp:84] Creating Layer relu3_1
I0716 03:18:13.459823 15309 net.cpp:406] relu3_1 <- conv3_1
I0716 03:18:13.459830 15309 net.cpp:367] relu3_1 -> conv3_1 (in-place)
I0716 03:18:13.460583 15309 net.cpp:122] Setting up relu3_1
I0716 03:18:13.460608 15309 net.cpp:129] Top shape: 1 256 178 178 (8111104)
I0716 03:18:13.460613 15309 net.cpp:137] Memory required for data: 915982604
I0716 03:18:13.460625 15309 layer_factory.hpp:77] Creating layer conv3_2
I0716 03:18:13.460644 15309 net.cpp:84] Creating Layer conv3_2
I0716 03:18:13.460649 15309 net.cpp:406] conv3_2 <- conv3_1
I0716 03:18:13.460659 15309 net.cpp:380] conv3_2 -> conv3_2
I0716 03:18:13.468127 15309 net.cpp:122] Setting up conv3_2
I0716 03:18:13.468178 15309 net.cpp:129] Top shape: 1 256 178 178 (8111104)
I0716 03:18:13.468186 15309 net.cpp:137] Memory required for data: 948427020
I0716 03:18:13.468216 15309 layer_factory.hpp:77] Creating layer relu3_2
I0716 03:18:13.468243 15309 net.cpp:84] Creating Layer relu3_2
I0716 03:18:13.468257 15309 net.cpp:406] relu3_2 <- conv3_2
I0716 03:18:13.468276 15309 net.cpp:367] relu3_2 -> conv3_2 (in-place)
I0716 03:18:13.469475 15309 net.cpp:122] Setting up relu3_2
I0716 03:18:13.469511 15309 net.cpp:129] Top shape: 1 256 178 178 (8111104)
I0716 03:18:13.469519 15309 net.cpp:137] Memory required for data: 980871436
I0716 03:18:13.469528 15309 layer_factory.hpp:77] Creating layer conv3_3
I0716 03:18:13.469566 15309 net.cpp:84] Creating Layer conv3_3
I0716 03:18:13.469579 15309 net.cpp:406] conv3_3 <- conv3_2
I0716 03:18:13.469594 15309 net.cpp:380] conv3_3 -> conv3_3
I0716 03:18:13.476387 15309 net.cpp:122] Setting up conv3_3
I0716 03:18:13.476426 15309 net.cpp:129] Top shape: 1 256 178 178 (8111104)
I0716 03:18:13.476435 15309 net.cpp:137] Memory required for data: 1013315852
I0716 03:18:13.476466 15309 layer_factory.hpp:77] Creating layer relu3_3
I0716 03:18:13.476480 15309 net.cpp:84] Creating Layer relu3_3
I0716 03:18:13.476488 15309 net.cpp:406] relu3_3 <- conv3_3
I0716 03:18:13.476507 15309 net.cpp:367] relu3_3 -> conv3_3 (in-place)
I0716 03:18:13.476953 15309 net.cpp:122] Setting up relu3_3
I0716 03:18:13.476972 15309 net.cpp:129] Top shape: 1 256 178 178 (8111104)
I0716 03:18:13.477000 15309 net.cpp:137] Memory required for data: 1045760268
I0716 03:18:13.477020 15309 layer_factory.hpp:77] Creating layer pool3
I0716 03:18:13.477036 15309 net.cpp:84] Creating Layer pool3
I0716 03:18:13.477047 15309 net.cpp:406] pool3 <- conv3_3
I0716 03:18:13.477059 15309 net.cpp:380] pool3 -> pool3
I0716 03:18:13.477164 15309 net.cpp:122] Setting up pool3
I0716 03:18:13.477180 15309 net.cpp:129] Top shape: 1 256 89 89 (2027776)
I0716 03:18:13.477186 15309 net.cpp:137] Memory required for data: 1053871372
I0716 03:18:13.477195 15309 layer_factory.hpp:77] Creating layer pool3_pool3_0_split
I0716 03:18:13.477205 15309 net.cpp:84] Creating Layer pool3_pool3_0_split
I0716 03:18:13.477216 15309 net.cpp:406] pool3_pool3_0_split <- pool3
I0716 03:18:13.477226 15309 net.cpp:380] pool3_pool3_0_split -> pool3_pool3_0_split_0
I0716 03:18:13.477241 15309 net.cpp:380] pool3_pool3_0_split -> pool3_pool3_0_split_1
I0716 03:18:13.477310 15309 net.cpp:122] Setting up pool3_pool3_0_split
I0716 03:18:13.477324 15309 net.cpp:129] Top shape: 1 256 89 89 (2027776)
I0716 03:18:13.477336 15309 net.cpp:129] Top shape: 1 256 89 89 (2027776)
I0716 03:18:13.477345 15309 net.cpp:137] Memory required for data: 1070093580
I0716 03:18:13.477354 15309 layer_factory.hpp:77] Creating layer conv4_1
I0716 03:18:13.477375 15309 net.cpp:84] Creating Layer conv4_1
I0716 03:18:13.477386 15309 net.cpp:406] conv4_1 <- pool3_pool3_0_split_0
I0716 03:18:13.477398 15309 net.cpp:380] conv4_1 -> conv4_1
I0716 03:18:13.492391 15309 net.cpp:122] Setting up conv4_1
I0716 03:18:13.492424 15309 net.cpp:129] Top shape: 1 512 89 89 (4055552)
I0716 03:18:13.492442 15309 net.cpp:137] Memory required for data: 1086315788
I0716 03:18:13.492457 15309 layer_factory.hpp:77] Creating layer relu4_1
I0716 03:18:13.492473 15309 net.cpp:84] Creating Layer relu4_1
I0716 03:18:13.492485 15309 net.cpp:406] relu4_1 <- conv4_1
I0716 03:18:13.492501 15309 net.cpp:367] relu4_1 -> conv4_1 (in-place)
I0716 03:18:13.492897 15309 net.cpp:122] Setting up relu4_1
I0716 03:18:13.492913 15309 net.cpp:129] Top shape: 1 512 89 89 (4055552)
I0716 03:18:13.492926 15309 net.cpp:137] Memory required for data: 1102537996
I0716 03:18:13.492936 15309 layer_factory.hpp:77] Creating layer conv4_2
I0716 03:18:13.492980 15309 net.cpp:84] Creating Layer conv4_2
I0716 03:18:13.492991 15309 net.cpp:406] conv4_2 <- conv4_1
I0716 03:18:13.493002 15309 net.cpp:380] conv4_2 -> conv4_2
I0716 03:18:13.510752 15309 net.cpp:122] Setting up conv4_2
I0716 03:18:13.510808 15309 net.cpp:129] Top shape: 1 512 89 89 (4055552)
I0716 03:18:13.510818 15309 net.cpp:137] Memory required for data: 1118760204
I0716 03:18:13.510848 15309 layer_factory.hpp:77] Creating layer relu4_2
I0716 03:18:13.510890 15309 net.cpp:84] Creating Layer relu4_2
I0716 03:18:13.510900 15309 net.cpp:406] relu4_2 <- conv4_2
I0716 03:18:13.510918 15309 net.cpp:367] relu4_2 -> conv4_2 (in-place)
I0716 03:18:13.511369 15309 net.cpp:122] Setting up relu4_2
I0716 03:18:13.511390 15309 net.cpp:129] Top shape: 1 512 89 89 (4055552)
I0716 03:18:13.511409 15309 net.cpp:137] Memory required for data: 1134982412
I0716 03:18:13.511418 15309 layer_factory.hpp:77] Creating layer conv4_3
I0716 03:18:13.511447 15309 net.cpp:84] Creating Layer conv4_3
I0716 03:18:13.511456 15309 net.cpp:406] conv4_3 <- conv4_2
I0716 03:18:13.511467 15309 net.cpp:380] conv4_3 -> conv4_3
I0716 03:18:13.527257 15309 net.cpp:122] Setting up conv4_3
I0716 03:18:13.527362 15309 net.cpp:129] Top shape: 1 512 89 89 (4055552)
I0716 03:18:13.527372 15309 net.cpp:137] Memory required for data: 1151204620
I0716 03:18:13.527391 15309 layer_factory.hpp:77] Creating layer relu4_3
I0716 03:18:13.527426 15309 net.cpp:84] Creating Layer relu4_3
I0716 03:18:13.527436 15309 net.cpp:406] relu4_3 <- conv4_3
I0716 03:18:13.527456 15309 net.cpp:367] relu4_3 -> conv4_3 (in-place)
I0716 03:18:13.527812 15309 net.cpp:122] Setting up relu4_3
I0716 03:18:13.527825 15309 net.cpp:129] Top shape: 1 512 89 89 (4055552)
I0716 03:18:13.527840 15309 net.cpp:137] Memory required for data: 1167426828
I0716 03:18:13.527860 15309 layer_factory.hpp:77] Creating layer pool4
I0716 03:18:13.527870 15309 net.cpp:84] Creating Layer pool4
I0716 03:18:13.527874 15309 net.cpp:406] pool4 <- conv4_3
I0716 03:18:13.527881 15309 net.cpp:380] pool4 -> pool4
I0716 03:18:13.527940 15309 net.cpp:122] Setting up pool4
I0716 03:18:13.527951 15309 net.cpp:129] Top shape: 1 512 45 45 (1036800)
I0716 03:18:13.527954 15309 net.cpp:137] Memory required for data: 1171574028
I0716 03:18:13.527958 15309 layer_factory.hpp:77] Creating layer pool4_pool4_0_split
I0716 03:18:13.527966 15309 net.cpp:84] Creating Layer pool4_pool4_0_split
I0716 03:18:13.527969 15309 net.cpp:406] pool4_pool4_0_split <- pool4
I0716 03:18:13.527987 15309 net.cpp:380] pool4_pool4_0_split -> pool4_pool4_0_split_0
I0716 03:18:13.527994 15309 net.cpp:380] pool4_pool4_0_split -> pool4_pool4_0_split_1
I0716 03:18:13.528038 15309 net.cpp:122] Setting up pool4_pool4_0_split
I0716 03:18:13.528046 15309 net.cpp:129] Top shape: 1 512 45 45 (1036800)
I0716 03:18:13.528053 15309 net.cpp:129] Top shape: 1 512 45 45 (1036800)
I0716 03:18:13.528057 15309 net.cpp:137] Memory required for data: 1179868428
I0716 03:18:13.528061 15309 layer_factory.hpp:77] Creating layer conv5_1
I0716 03:18:13.528077 15309 net.cpp:84] Creating Layer conv5_1
I0716 03:18:13.528082 15309 net.cpp:406] conv5_1 <- pool4_pool4_0_split_0
I0716 03:18:13.528090 15309 net.cpp:380] conv5_1 -> conv5_1
I0716 03:18:13.546520 15309 net.cpp:122] Setting up conv5_1
I0716 03:18:13.546577 15309 net.cpp:129] Top shape: 1 512 45 45 (1036800)
I0716 03:18:13.546586 15309 net.cpp:137] Memory required for data: 1184015628
I0716 03:18:13.546603 15309 layer_factory.hpp:77] Creating layer relu5_1
I0716 03:18:13.546648 15309 net.cpp:84] Creating Layer relu5_1
I0716 03:18:13.546670 15309 net.cpp:406] relu5_1 <- conv5_1
I0716 03:18:13.546684 15309 net.cpp:367] relu5_1 -> conv5_1 (in-place)
I0716 03:18:13.547960 15309 net.cpp:122] Setting up relu5_1
I0716 03:18:13.547998 15309 net.cpp:129] Top shape: 1 512 45 45 (1036800)
I0716 03:18:13.548007 15309 net.cpp:137] Memory required for data: 1188162828
I0716 03:18:13.548015 15309 layer_factory.hpp:77] Creating layer conv5_2
I0716 03:18:13.548046 15309 net.cpp:84] Creating Layer conv5_2
I0716 03:18:13.548055 15309 net.cpp:406] conv5_2 <- conv5_1
I0716 03:18:13.548069 15309 net.cpp:380] conv5_2 -> conv5_2
I0716 03:18:13.557651 15309 net.cpp:122] Setting up conv5_2
I0716 03:18:13.557672 15309 net.cpp:129] Top shape: 1 512 45 45 (1036800)
I0716 03:18:13.557687 15309 net.cpp:137] Memory required for data: 1192310028
I0716 03:18:13.557696 15309 layer_factory.hpp:77] Creating layer relu5_2
I0716 03:18:13.557713 15309 net.cpp:84] Creating Layer relu5_2
I0716 03:18:13.557719 15309 net.cpp:406] relu5_2 <- conv5_2
I0716 03:18:13.557726 15309 net.cpp:367] relu5_2 -> conv5_2 (in-place)
I0716 03:18:13.558521 15309 net.cpp:122] Setting up relu5_2
I0716 03:18:13.558537 15309 net.cpp:129] Top shape: 1 512 45 45 (1036800)
I0716 03:18:13.558552 15309 net.cpp:137] Memory required for data: 1196457228
I0716 03:18:13.558557 15309 layer_factory.hpp:77] Creating layer conv5_3
I0716 03:18:13.558579 15309 net.cpp:84] Creating Layer conv5_3
I0716 03:18:13.558585 15309 net.cpp:406] conv5_3 <- conv5_2
I0716 03:18:13.558593 15309 net.cpp:380] conv5_3 -> conv5_3
I0716 03:18:13.570972 15309 net.cpp:122] Setting up conv5_3
I0716 03:18:13.571005 15309 net.cpp:129] Top shape: 1 512 45 45 (1036800)
I0716 03:18:13.571010 15309 net.cpp:137] Memory required for data: 1200604428
I0716 03:18:13.571020 15309 layer_factory.hpp:77] Creating layer relu5_3
I0716 03:18:13.571029 15309 net.cpp:84] Creating Layer relu5_3
I0716 03:18:13.571035 15309 net.cpp:406] relu5_3 <- conv5_3
I0716 03:18:13.571044 15309 net.cpp:367] relu5_3 -> conv5_3 (in-place)
I0716 03:18:13.571292 15309 net.cpp:122] Setting up relu5_3
I0716 03:18:13.571305 15309 net.cpp:129] Top shape: 1 512 45 45 (1036800)
I0716 03:18:13.571310 15309 net.cpp:137] Memory required for data: 1204751628
I0716 03:18:13.571324 15309 layer_factory.hpp:77] Creating layer pool5
I0716 03:18:13.571337 15309 net.cpp:84] Creating Layer pool5
I0716 03:18:13.571341 15309 net.cpp:406] pool5 <- conv5_3
I0716 03:18:13.571348 15309 net.cpp:380] pool5 -> pool5
I0716 03:18:13.571406 15309 net.cpp:122] Setting up pool5
I0716 03:18:13.571419 15309 net.cpp:129] Top shape: 1 512 23 23 (270848)
I0716 03:18:13.571421 15309 net.cpp:137] Memory required for data: 1205835020
I0716 03:18:13.571426 15309 layer_factory.hpp:77] Creating layer fc6
I0716 03:18:13.571437 15309 net.cpp:84] Creating Layer fc6
I0716 03:18:13.571442 15309 net.cpp:406] fc6 <- pool5
I0716 03:18:13.571449 15309 net.cpp:380] fc6 -> fc6
I0716 03:18:13.912777 15309 net.cpp:122] Setting up fc6
I0716 03:18:13.912819 15309 net.cpp:129] Top shape: 1 4096 17 17 (1183744)
I0716 03:18:13.912824 15309 net.cpp:137] Memory required for data: 1210569996
I0716 03:18:13.912837 15309 layer_factory.hpp:77] Creating layer relu6
I0716 03:18:13.912855 15309 net.cpp:84] Creating Layer relu6
I0716 03:18:13.912863 15309 net.cpp:406] relu6 <- fc6
I0716 03:18:13.912870 15309 net.cpp:367] relu6 -> fc6 (in-place)
I0716 03:18:13.913125 15309 net.cpp:122] Setting up relu6
I0716 03:18:13.913138 15309 net.cpp:129] Top shape: 1 4096 17 17 (1183744)
I0716 03:18:13.913142 15309 net.cpp:137] Memory required for data: 1215304972
I0716 03:18:13.913147 15309 layer_factory.hpp:77] Creating layer drop6
I0716 03:18:13.913166 15309 net.cpp:84] Creating Layer drop6
I0716 03:18:13.913169 15309 net.cpp:406] drop6 <- fc6
I0716 03:18:13.913175 15309 net.cpp:367] drop6 -> fc6 (in-place)
I0716 03:18:13.913216 15309 net.cpp:122] Setting up drop6
I0716 03:18:13.913228 15309 net.cpp:129] Top shape: 1 4096 17 17 (1183744)
I0716 03:18:13.913231 15309 net.cpp:137] Memory required for data: 1220039948
I0716 03:18:13.913254 15309 layer_factory.hpp:77] Creating layer fc7
I0716 03:18:13.913266 15309 net.cpp:84] Creating Layer fc7
I0716 03:18:13.913271 15309 net.cpp:406] fc7 <- fc6
I0716 03:18:13.913277 15309 net.cpp:380] fc7 -> fc7
I0716 03:18:13.973795 15309 net.cpp:122] Setting up fc7
I0716 03:18:13.973856 15309 net.cpp:129] Top shape: 1 4096 17 17 (1183744)
I0716 03:18:13.973862 15309 net.cpp:137] Memory required for data: 1224774924
I0716 03:18:13.973891 15309 layer_factory.hpp:77] Creating layer relu7
I0716 03:18:13.973929 15309 net.cpp:84] Creating Layer relu7
I0716 03:18:13.973937 15309 net.cpp:406] relu7 <- fc7
I0716 03:18:13.973948 15309 net.cpp:367] relu7 -> fc7 (in-place)
I0716 03:18:13.974768 15309 net.cpp:122] Setting up relu7
I0716 03:18:13.974798 15309 net.cpp:129] Top shape: 1 4096 17 17 (1183744)
I0716 03:18:13.974803 15309 net.cpp:137] Memory required for data: 1229509900
I0716 03:18:13.974808 15309 layer_factory.hpp:77] Creating layer drop7
I0716 03:18:13.974822 15309 net.cpp:84] Creating Layer drop7
I0716 03:18:13.974826 15309 net.cpp:406] drop7 <- fc7
I0716 03:18:13.974833 15309 net.cpp:367] drop7 -> fc7 (in-place)
I0716 03:18:13.974889 15309 net.cpp:122] Setting up drop7
I0716 03:18:13.974895 15309 net.cpp:129] Top shape: 1 4096 17 17 (1183744)
I0716 03:18:13.974900 15309 net.cpp:137] Memory required for data: 1234244876
I0716 03:18:13.974903 15309 layer_factory.hpp:77] Creating layer score_fr-new
I0716 03:18:13.974925 15309 net.cpp:84] Creating Layer score_fr-new
I0716 03:18:13.974930 15309 net.cpp:406] score_fr-new <- fc7
I0716 03:18:13.974942 15309 net.cpp:380] score_fr-new -> score_fr-new
I0716 03:18:13.976800 15309 net.cpp:122] Setting up score_fr-new
I0716 03:18:13.976820 15309 net.cpp:129] Top shape: 1 3 17 17 (867)
I0716 03:18:13.976836 15309 net.cpp:137] Memory required for data: 1234248344
I0716 03:18:13.976845 15309 layer_factory.hpp:77] Creating layer upscore2-new
I0716 03:18:13.976876 15309 net.cpp:84] Creating Layer upscore2-new
I0716 03:18:13.976884 15309 net.cpp:406] upscore2-new <- score_fr-new
I0716 03:18:13.976892 15309 net.cpp:380] upscore2-new -> upscore2-new
I0716 03:18:13.977185 15309 net.cpp:122] Setting up upscore2-new
I0716 03:18:13.977196 15309 net.cpp:129] Top shape: 1 3 36 36 (3888)
I0716 03:18:13.977200 15309 net.cpp:137] Memory required for data: 1234263896
I0716 03:18:13.977221 15309 layer_factory.hpp:77] Creating layer upscore2-new_upscore2-new_0_split
I0716 03:18:13.977231 15309 net.cpp:84] Creating Layer upscore2-new_upscore2-new_0_split
I0716 03:18:13.977236 15309 net.cpp:406] upscore2-new_upscore2-new_0_split <- upscore2-new
I0716 03:18:13.977252 15309 net.cpp:380] upscore2-new_upscore2-new_0_split -> upscore2-new_upscore2-new_0_split_0
I0716 03:18:13.977260 15309 net.cpp:380] upscore2-new_upscore2-new_0_split -> upscore2-new_upscore2-new_0_split_1
I0716 03:18:13.977306 15309 net.cpp:122] Setting up upscore2-new_upscore2-new_0_split
I0716 03:18:13.977319 15309 net.cpp:129] Top shape: 1 3 36 36 (3888)
I0716 03:18:13.977324 15309 net.cpp:129] Top shape: 1 3 36 36 (3888)
I0716 03:18:13.977329 15309 net.cpp:137] Memory required for data: 1234295000
I0716 03:18:13.977332 15309 layer_factory.hpp:77] Creating layer score_pool4-new
I0716 03:18:13.977342 15309 net.cpp:84] Creating Layer score_pool4-new
I0716 03:18:13.977346 15309 net.cpp:406] score_pool4-new <- pool4_pool4_0_split_1
I0716 03:18:13.977356 15309 net.cpp:380] score_pool4-new -> score_pool4-new
I0716 03:18:13.979271 15309 net.cpp:122] Setting up score_pool4-new
I0716 03:18:13.979308 15309 net.cpp:129] Top shape: 1 3 45 45 (6075)
I0716 03:18:13.979312 15309 net.cpp:137] Memory required for data: 1234319300
I0716 03:18:13.979341 15309 layer_factory.hpp:77] Creating layer score_pool4c
I0716 03:18:13.979360 15309 net.cpp:84] Creating Layer score_pool4c
I0716 03:18:13.979367 15309 net.cpp:406] score_pool4c <- score_pool4-new
I0716 03:18:13.979372 15309 net.cpp:406] score_pool4c <- upscore2-new_upscore2-new_0_split_0
I0716 03:18:13.979382 15309 net.cpp:380] score_pool4c -> score_pool4c
I0716 03:18:13.979424 15309 net.cpp:122] Setting up score_pool4c
I0716 03:18:13.979430 15309 net.cpp:129] Top shape: 1 3 36 36 (3888)
I0716 03:18:13.979434 15309 net.cpp:137] Memory required for data: 1234334852
I0716 03:18:13.979439 15309 layer_factory.hpp:77] Creating layer fuse_pool4
I0716 03:18:13.979449 15309 net.cpp:84] Creating Layer fuse_pool4
I0716 03:18:13.979454 15309 net.cpp:406] fuse_pool4 <- upscore2-new_upscore2-new_0_split_1
I0716 03:18:13.979459 15309 net.cpp:406] fuse_pool4 <- score_pool4c
I0716 03:18:13.979466 15309 net.cpp:380] fuse_pool4 -> fuse_pool4
I0716 03:18:13.979504 15309 net.cpp:122] Setting up fuse_pool4
I0716 03:18:13.979511 15309 net.cpp:129] Top shape: 1 3 36 36 (3888)
I0716 03:18:13.979514 15309 net.cpp:137] Memory required for data: 1234350404
I0716 03:18:13.979517 15309 layer_factory.hpp:77] Creating layer upscore_pool4-new
I0716 03:18:13.979529 15309 net.cpp:84] Creating Layer upscore_pool4-new
I0716 03:18:13.979533 15309 net.cpp:406] upscore_pool4-new <- fuse_pool4
I0716 03:18:13.979542 15309 net.cpp:380] upscore_pool4-new -> upscore_pool4-new
I0716 03:18:13.979782 15309 net.cpp:122] Setting up upscore_pool4-new
I0716 03:18:13.979792 15309 net.cpp:129] Top shape: 1 3 74 74 (16428)
I0716 03:18:13.979796 15309 net.cpp:137] Memory required for data: 1234416116
I0716 03:18:13.979802 15309 layer_factory.hpp:77] Creating layer upscore_pool4-new_upscore_pool4-new_0_split
I0716 03:18:13.979809 15309 net.cpp:84] Creating Layer upscore_pool4-new_upscore_pool4-new_0_split
I0716 03:18:13.979813 15309 net.cpp:406] upscore_pool4-new_upscore_pool4-new_0_split <- upscore_pool4-new
I0716 03:18:13.979820 15309 net.cpp:380] upscore_pool4-new_upscore_pool4-new_0_split -> upscore_pool4-new_upscore_pool4-new_0_split_0
I0716 03:18:13.979826 15309 net.cpp:380] upscore_pool4-new_upscore_pool4-new_0_split -> upscore_pool4-new_upscore_pool4-new_0_split_1
I0716 03:18:13.979868 15309 net.cpp:122] Setting up upscore_pool4-new_upscore_pool4-new_0_split
I0716 03:18:13.979874 15309 net.cpp:129] Top shape: 1 3 74 74 (16428)
I0716 03:18:13.979881 15309 net.cpp:129] Top shape: 1 3 74 74 (16428)
I0716 03:18:13.979884 15309 net.cpp:137] Memory required for data: 1234547540
I0716 03:18:13.979888 15309 layer_factory.hpp:77] Creating layer score_pool3-new
I0716 03:18:13.979907 15309 net.cpp:84] Creating Layer score_pool3-new
I0716 03:18:13.979912 15309 net.cpp:406] score_pool3-new <- pool3_pool3_0_split_1
I0716 03:18:13.979924 15309 net.cpp:380] score_pool3-new -> score_pool3-new
I0716 03:18:13.985292 15309 net.cpp:122] Setting up score_pool3-new
I0716 03:18:13.985312 15309 net.cpp:129] Top shape: 1 3 89 89 (23763)
I0716 03:18:13.985328 15309 net.cpp:137] Memory required for data: 1234642592
I0716 03:18:13.985337 15309 layer_factory.hpp:77] Creating layer score_pool3c
I0716 03:18:13.985350 15309 net.cpp:84] Creating Layer score_pool3c
I0716 03:18:13.985355 15309 net.cpp:406] score_pool3c <- score_pool3-new
I0716 03:18:13.985361 15309 net.cpp:406] score_pool3c <- upscore_pool4-new_upscore_pool4-new_0_split_0
I0716 03:18:13.985383 15309 net.cpp:380] score_pool3c -> score_pool3c
I0716 03:18:13.985419 15309 net.cpp:122] Setting up score_pool3c
I0716 03:18:13.985425 15309 net.cpp:129] Top shape: 1 3 74 74 (16428)
I0716 03:18:13.985430 15309 net.cpp:137] Memory required for data: 1234708304
I0716 03:18:13.985433 15309 layer_factory.hpp:77] Creating layer fuse_pool3
I0716 03:18:13.985442 15309 net.cpp:84] Creating Layer fuse_pool3
I0716 03:18:13.985447 15309 net.cpp:406] fuse_pool3 <- upscore_pool4-new_upscore_pool4-new_0_split_1
I0716 03:18:13.985452 15309 net.cpp:406] fuse_pool3 <- score_pool3c
I0716 03:18:13.985458 15309 net.cpp:380] fuse_pool3 -> fuse_pool3
I0716 03:18:13.985489 15309 net.cpp:122] Setting up fuse_pool3
I0716 03:18:13.985496 15309 net.cpp:129] Top shape: 1 3 74 74 (16428)
I0716 03:18:13.985499 15309 net.cpp:137] Memory required for data: 1234774016
I0716 03:18:13.985503 15309 layer_factory.hpp:77] Creating layer upscore8-new
I0716 03:18:13.985525 15309 net.cpp:84] Creating Layer upscore8-new
I0716 03:18:13.985530 15309 net.cpp:406] upscore8-new <- fuse_pool3
I0716 03:18:13.985536 15309 net.cpp:380] upscore8-new -> upscore8-new
I0716 03:18:13.985795 15309 net.cpp:122] Setting up upscore8-new
I0716 03:18:13.985806 15309 net.cpp:129] Top shape: 1 3 600 600 (1080000)
I0716 03:18:13.985810 15309 net.cpp:137] Memory required for data: 1239094016
I0716 03:18:13.985826 15309 layer_factory.hpp:77] Creating layer upscore8_cropped
I0716 03:18:13.985832 15309 net.cpp:84] Creating Layer upscore8_cropped
I0716 03:18:13.985837 15309 net.cpp:406] upscore8_cropped <- upscore8-new
I0716 03:18:13.985851 15309 net.cpp:406] upscore8_cropped <- data_data_0_split_1
I0716 03:18:13.985857 15309 net.cpp:380] upscore8_cropped -> upscore8_cropped
I0716 03:18:13.985888 15309 net.cpp:122] Setting up upscore8_cropped
I0716 03:18:13.985895 15309 net.cpp:129] Top shape: 1 3 512 512 (786432)
I0716 03:18:13.985899 15309 net.cpp:137] Memory required for data: 1242239744
I0716 03:18:13.985903 15309 layer_factory.hpp:77] Creating layer upscore8_cropped_upscore8_cropped_0_split
I0716 03:18:13.985909 15309 net.cpp:84] Creating Layer upscore8_cropped_upscore8_cropped_0_split
I0716 03:18:13.985913 15309 net.cpp:406] upscore8_cropped_upscore8_cropped_0_split <- upscore8_cropped
I0716 03:18:13.985919 15309 net.cpp:380] upscore8_cropped_upscore8_cropped_0_split -> upscore8_cropped_upscore8_cropped_0_split_0
I0716 03:18:13.985926 15309 net.cpp:380] upscore8_cropped_upscore8_cropped_0_split -> upscore8_cropped_upscore8_cropped_0_split_1
I0716 03:18:13.985968 15309 net.cpp:122] Setting up upscore8_cropped_upscore8_cropped_0_split
I0716 03:18:13.985976 15309 net.cpp:129] Top shape: 1 3 512 512 (786432)
I0716 03:18:13.985982 15309 net.cpp:129] Top shape: 1 3 512 512 (786432)
I0716 03:18:13.985986 15309 net.cpp:137] Memory required for data: 1248531200
I0716 03:18:13.985991 15309 layer_factory.hpp:77] Creating layer prob
I0716 03:18:13.985996 15309 net.cpp:84] Creating Layer prob
I0716 03:18:13.986001 15309 net.cpp:406] prob <- upscore8_cropped_upscore8_cropped_0_split_0
I0716 03:18:13.986007 15309 net.cpp:380] prob -> prob
I0716 03:18:13.986287 15309 net.cpp:122] Setting up prob
I0716 03:18:13.986304 15309 net.cpp:129] Top shape: 1 3 512 512 (786432)
I0716 03:18:13.986308 15309 net.cpp:137] Memory required for data: 1251676928
I0716 03:18:13.986313 15309 layer_factory.hpp:77] Creating layer prob_prob_0_split
I0716 03:18:13.986327 15309 net.cpp:84] Creating Layer prob_prob_0_split
I0716 03:18:13.986332 15309 net.cpp:406] prob_prob_0_split <- prob
I0716 03:18:13.986340 15309 net.cpp:380] prob_prob_0_split -> prob_prob_0_split_0
I0716 03:18:13.986346 15309 net.cpp:380] prob_prob_0_split -> prob_prob_0_split_1
I0716 03:18:13.986397 15309 net.cpp:122] Setting up prob_prob_0_split
I0716 03:18:13.986407 15309 net.cpp:129] Top shape: 1 3 512 512 (786432)
I0716 03:18:13.986412 15309 net.cpp:129] Top shape: 1 3 512 512 (786432)
I0716 03:18:13.986415 15309 net.cpp:137] Memory required for data: 1257968384
I0716 03:18:13.986419 15309 layer_factory.hpp:77] Creating layer saliency1
I0716 03:18:13.986435 15309 net.cpp:84] Creating Layer saliency1
I0716 03:18:13.986440 15309 net.cpp:406] saliency1 <- prob_prob_0_split_0
I0716 03:18:13.986466 15309 net.cpp:380] saliency1 -> saliency1
I0716 03:18:13.994467 15309 net.cpp:122] Setting up saliency1
I0716 03:18:13.994501 15309 net.cpp:129] Top shape: 1 3 512 512 (786432)
I0716 03:18:13.994508 15309 net.cpp:137] Memory required for data: 1261114112
I0716 03:18:13.994523 15309 layer_factory.hpp:77] Creating layer relu_saliency1
I0716 03:18:13.994534 15309 net.cpp:84] Creating Layer relu_saliency1
I0716 03:18:13.994540 15309 net.cpp:406] relu_saliency1 <- saliency1
I0716 03:18:13.994560 15309 net.cpp:367] relu_saliency1 -> saliency1 (in-place)
I0716 03:18:13.994886 15309 net.cpp:122] Setting up relu_saliency1
I0716 03:18:13.994904 15309 net.cpp:129] Top shape: 1 3 512 512 (786432)
I0716 03:18:13.994910 15309 net.cpp:137] Memory required for data: 1264259840
I0716 03:18:13.994918 15309 layer_factory.hpp:77] Creating layer saliency
I0716 03:18:13.994941 15309 net.cpp:84] Creating Layer saliency
I0716 03:18:13.994947 15309 net.cpp:406] saliency <- saliency1
I0716 03:18:13.994957 15309 net.cpp:380] saliency -> saliency
I0716 03:18:13.998251 15309 net.cpp:122] Setting up saliency
I0716 03:18:13.998288 15309 net.cpp:129] Top shape: 1 3 512 512 (786432)
I0716 03:18:13.998296 15309 net.cpp:137] Memory required for data: 1267405568
I0716 03:18:13.998311 15309 layer_factory.hpp:77] Creating layer saliency_data
I0716 03:18:13.998350 15309 net.cpp:84] Creating Layer saliency_data
I0716 03:18:13.998358 15309 net.cpp:406] saliency_data <- data_data_0_split_2
I0716 03:18:13.998366 15309 net.cpp:406] saliency_data <- saliency
I0716 03:18:13.998375 15309 net.cpp:380] saliency_data -> saliency_data
I0716 03:18:13.998435 15309 net.cpp:122] Setting up saliency_data
I0716 03:18:13.998456 15309 net.cpp:129] Top shape: 1 3 512 512 (786432)
I0716 03:18:13.998471 15309 net.cpp:137] Memory required for data: 1270551296
I0716 03:18:13.998476 15309 layer_factory.hpp:77] Creating layer crop
I0716 03:18:13.999478 15309 net.cpp:84] Creating Layer crop
I0716 03:18:13.999497 15309 net.cpp:406] crop <- prob_prob_0_split_1
I0716 03:18:13.999516 15309 net.cpp:406] crop <- saliency_data
I0716 03:18:13.999529 15309 net.cpp:406] crop <- crop_margin
I0716 03:18:13.999537 15309 net.cpp:406] crop <- crop_prob
I0716 03:18:13.999543 15309 net.cpp:406] crop <- crop_sample_batch
I0716 03:18:13.999550 15309 net.cpp:406] crop <- label_data_1_split_0
I0716 03:18:13.999560 15309 net.cpp:380] crop -> data-R
I0716 03:18:13.999574 15309 net.cpp:380] crop -> crop_info
I0716 03:18:14.017246 15309 net.cpp:122] Setting up crop
I0716 03:18:14.017287 15309 net.cpp:129] Top shape: 1 3 512 512 (786432)
I0716 03:18:14.017295 15309 net.cpp:129] Top shape: 1 2 4 (8)
I0716 03:18:14.017299 15309 net.cpp:137] Memory required for data: 1273697056
I0716 03:18:14.017309 15309 layer_factory.hpp:77] Creating layer data-R_crop_0_split
I0716 03:18:14.017323 15309 net.cpp:84] Creating Layer data-R_crop_0_split
I0716 03:18:14.017328 15309 net.cpp:406] data-R_crop_0_split <- data-R
I0716 03:18:14.017338 15309 net.cpp:380] data-R_crop_0_split -> data-R_crop_0_split_0
I0716 03:18:14.017357 15309 net.cpp:380] data-R_crop_0_split -> data-R_crop_0_split_1
I0716 03:18:14.017415 15309 net.cpp:122] Setting up data-R_crop_0_split
I0716 03:18:14.017421 15309 net.cpp:129] Top shape: 1 3 512 512 (786432)
I0716 03:18:14.017427 15309 net.cpp:129] Top shape: 1 3 512 512 (786432)
I0716 03:18:14.017431 15309 net.cpp:137] Memory required for data: 1279988512
I0716 03:18:14.017436 15309 layer_factory.hpp:77] Creating layer conv1_1-R
I0716 03:18:14.017509 15309 net.cpp:84] Creating Layer conv1_1-R
I0716 03:18:14.017519 15309 net.cpp:406] conv1_1-R <- data-R_crop_0_split_0
I0716 03:18:14.017526 15309 net.cpp:380] conv1_1-R -> conv1_1-R
I0716 03:18:14.021896 15309 net.cpp:122] Setting up conv1_1-R
I0716 03:18:14.021915 15309 net.cpp:129] Top shape: 1 64 710 710 (32262400)
I0716 03:18:14.021920 15309 net.cpp:137] Memory required for data: 1409038112
I0716 03:18:14.021936 15309 layer_factory.hpp:77] Creating layer relu1_1-R
I0716 03:18:14.021947 15309 net.cpp:84] Creating Layer relu1_1-R
I0716 03:18:14.021953 15309 net.cpp:406] relu1_1-R <- conv1_1-R
I0716 03:18:14.021960 15309 net.cpp:367] relu1_1-R -> conv1_1-R (in-place)
I0716 03:18:14.022219 15309 net.cpp:122] Setting up relu1_1-R
I0716 03:18:14.022233 15309 net.cpp:129] Top shape: 1 64 710 710 (32262400)
I0716 03:18:14.022238 15309 net.cpp:137] Memory required for data: 1538087712
I0716 03:18:14.022253 15309 layer_factory.hpp:77] Creating layer conv1_2-R
I0716 03:18:14.022266 15309 net.cpp:84] Creating Layer conv1_2-R
I0716 03:18:14.022272 15309 net.cpp:406] conv1_2-R <- conv1_1-R
I0716 03:18:14.022279 15309 net.cpp:380] conv1_2-R -> conv1_2-R
I0716 03:18:14.027181 15309 net.cpp:122] Setting up conv1_2-R
I0716 03:18:14.027213 15309 net.cpp:129] Top shape: 1 64 710 710 (32262400)
I0716 03:18:14.027218 15309 net.cpp:137] Memory required for data: 1667137312
I0716 03:18:14.027227 15309 layer_factory.hpp:77] Creating layer relu1_2-R
I0716 03:18:14.027238 15309 net.cpp:84] Creating Layer relu1_2-R
I0716 03:18:14.027243 15309 net.cpp:406] relu1_2-R <- conv1_2-R
I0716 03:18:14.027251 15309 net.cpp:367] relu1_2-R -> conv1_2-R (in-place)
I0716 03:18:14.028148 15309 net.cpp:122] Setting up relu1_2-R
I0716 03:18:14.028165 15309 net.cpp:129] Top shape: 1 64 710 710 (32262400)
I0716 03:18:14.028179 15309 net.cpp:137] Memory required for data: 1796186912
I0716 03:18:14.028184 15309 layer_factory.hpp:77] Creating layer pool1-R
I0716 03:18:14.028203 15309 net.cpp:84] Creating Layer pool1-R
I0716 03:18:14.028209 15309 net.cpp:406] pool1-R <- conv1_2-R
I0716 03:18:14.028219 15309 net.cpp:380] pool1-R -> pool1-R
I0716 03:18:14.028295 15309 net.cpp:122] Setting up pool1-R
I0716 03:18:14.028302 15309 net.cpp:129] Top shape: 1 64 355 355 (8065600)
I0716 03:18:14.028306 15309 net.cpp:137] Memory required for data: 1828449312
I0716 03:18:14.028311 15309 layer_factory.hpp:77] Creating layer conv2_1-R
I0716 03:18:14.028331 15309 net.cpp:84] Creating Layer conv2_1-R
I0716 03:18:14.028337 15309 net.cpp:406] conv2_1-R <- pool1-R
I0716 03:18:14.028343 15309 net.cpp:380] conv2_1-R -> conv2_1-R
I0716 03:18:14.030205 15309 net.cpp:122] Setting up conv2_1-R
I0716 03:18:14.030221 15309 net.cpp:129] Top shape: 1 128 355 355 (16131200)
I0716 03:18:14.030237 15309 net.cpp:137] Memory required for data: 1892974112
I0716 03:18:14.030246 15309 layer_factory.hpp:77] Creating layer relu2_1-R
I0716 03:18:14.030256 15309 net.cpp:84] Creating Layer relu2_1-R
I0716 03:18:14.030261 15309 net.cpp:406] relu2_1-R <- conv2_1-R
I0716 03:18:14.030268 15309 net.cpp:367] relu2_1-R -> conv2_1-R (in-place)
I0716 03:18:14.031081 15309 net.cpp:122] Setting up relu2_1-R
I0716 03:18:14.031098 15309 net.cpp:129] Top shape: 1 128 355 355 (16131200)
I0716 03:18:14.031116 15309 net.cpp:137] Memory required for data: 1957498912
I0716 03:18:14.031121 15309 layer_factory.hpp:77] Creating layer conv2_2-R
I0716 03:18:14.031141 15309 net.cpp:84] Creating Layer conv2_2-R
I0716 03:18:14.031147 15309 net.cpp:406] conv2_2-R <- conv2_1-R
I0716 03:18:14.031155 15309 net.cpp:380] conv2_2-R -> conv2_2-R
I0716 03:18:14.035580 15309 net.cpp:122] Setting up conv2_2-R
I0716 03:18:14.035600 15309 net.cpp:129] Top shape: 1 128 355 355 (16131200)
I0716 03:18:14.035616 15309 net.cpp:137] Memory required for data: 2022023712
I0716 03:18:14.035627 15309 layer_factory.hpp:77] Creating layer relu2_2-R
I0716 03:18:14.035645 15309 net.cpp:84] Creating Layer relu2_2-R
I0716 03:18:14.035650 15309 net.cpp:406] relu2_2-R <- conv2_2-R
I0716 03:18:14.035658 15309 net.cpp:367] relu2_2-R -> conv2_2-R (in-place)
I0716 03:18:14.035918 15309 net.cpp:122] Setting up relu2_2-R
I0716 03:18:14.035931 15309 net.cpp:129] Top shape: 1 128 355 355 (16131200)
I0716 03:18:14.035936 15309 net.cpp:137] Memory required for data: 2086548512
I0716 03:18:14.035941 15309 layer_factory.hpp:77] Creating layer pool2-R
I0716 03:18:14.035962 15309 net.cpp:84] Creating Layer pool2-R
I0716 03:18:14.035967 15309 net.cpp:406] pool2-R <- conv2_2-R
I0716 03:18:14.035976 15309 net.cpp:380] pool2-R -> pool2-R
I0716 03:18:14.036041 15309 net.cpp:122] Setting up pool2-R
I0716 03:18:14.036051 15309 net.cpp:129] Top shape: 1 128 178 178 (4055552)
I0716 03:18:14.036056 15309 net.cpp:137] Memory required for data: 2102770720
I0716 03:18:14.036062 15309 layer_factory.hpp:77] Creating layer conv3_1-R
I0716 03:18:14.036072 15309 net.cpp:84] Creating Layer conv3_1-R
I0716 03:18:14.036077 15309 net.cpp:406] conv3_1-R <- pool2-R
I0716 03:18:14.036084 15309 net.cpp:380] conv3_1-R -> conv3_1-R
I0716 03:18:14.046957 15309 net.cpp:122] Setting up conv3_1-R
I0716 03:18:14.046978 15309 net.cpp:129] Top shape: 1 256 178 178 (8111104)
I0716 03:18:14.046984 15309 net.cpp:137] Memory required for data: 2135215136
I0716 03:18:14.046998 15309 layer_factory.hpp:77] Creating layer relu3_1-R
I0716 03:18:14.047017 15309 net.cpp:84] Creating Layer relu3_1-R
I0716 03:18:14.047024 15309 net.cpp:406] relu3_1-R <- conv3_1-R
I0716 03:18:14.047031 15309 net.cpp:367] relu3_1-R -> conv3_1-R (in-place)
I0716 03:18:14.047343 15309 net.cpp:122] Setting up relu3_1-R
I0716 03:18:14.047359 15309 net.cpp:129] Top shape: 1 256 178 178 (8111104)
I0716 03:18:14.047364 15309 net.cpp:137] Memory required for data: 2167659552
I0716 03:18:14.047369 15309 layer_factory.hpp:77] Creating layer conv3_2-R
I0716 03:18:14.047380 15309 net.cpp:84] Creating Layer conv3_2-R
I0716 03:18:14.047385 15309 net.cpp:406] conv3_2-R <- conv3_1-R
I0716 03:18:14.047394 15309 net.cpp:380] conv3_2-R -> conv3_2-R
I0716 03:18:14.053985 15309 net.cpp:122] Setting up conv3_2-R
I0716 03:18:14.054013 15309 net.cpp:129] Top shape: 1 256 178 178 (8111104)
I0716 03:18:14.054023 15309 net.cpp:137] Memory required for data: 2200103968
I0716 03:18:14.054038 15309 layer_factory.hpp:77] Creating layer relu3_2-R
I0716 03:18:14.054064 15309 net.cpp:84] Creating Layer relu3_2-R
I0716 03:18:14.054071 15309 net.cpp:406] relu3_2-R <- conv3_2-R
I0716 03:18:14.054085 15309 net.cpp:367] relu3_2-R -> conv3_2-R (in-place)
I0716 03:18:14.054455 15309 net.cpp:122] Setting up relu3_2-R
I0716 03:18:14.054474 15309 net.cpp:129] Top shape: 1 256 178 178 (8111104)
I0716 03:18:14.054481 15309 net.cpp:137] Memory required for data: 2232548384
I0716 03:18:14.054491 15309 layer_factory.hpp:77] Creating layer conv3_3-R
I0716 03:18:14.054510 15309 net.cpp:84] Creating Layer conv3_3-R
I0716 03:18:14.054518 15309 net.cpp:406] conv3_3-R <- conv3_2-R
I0716 03:18:14.054531 15309 net.cpp:380] conv3_3-R -> conv3_3-R
I0716 03:18:14.064386 15309 net.cpp:122] Setting up conv3_3-R
I0716 03:18:14.064406 15309 net.cpp:129] Top shape: 1 256 178 178 (8111104)
I0716 03:18:14.064421 15309 net.cpp:137] Memory required for data: 2264992800
I0716 03:18:14.064430 15309 layer_factory.hpp:77] Creating layer relu3_3-R
I0716 03:18:14.064438 15309 net.cpp:84] Creating Layer relu3_3-R
I0716 03:18:14.064445 15309 net.cpp:406] relu3_3-R <- conv3_3-R
I0716 03:18:14.064451 15309 net.cpp:367] relu3_3-R -> conv3_3-R (in-place)
I0716 03:18:14.064700 15309 net.cpp:122] Setting up relu3_3-R
I0716 03:18:14.064713 15309 net.cpp:129] Top shape: 1 256 178 178 (8111104)
I0716 03:18:14.064718 15309 net.cpp:137] Memory required for data: 2297437216
I0716 03:18:14.064723 15309 layer_factory.hpp:77] Creating layer pool3-R
I0716 03:18:14.064741 15309 net.cpp:84] Creating Layer pool3-R
I0716 03:18:14.064746 15309 net.cpp:406] pool3-R <- conv3_3-R
I0716 03:18:14.064754 15309 net.cpp:380] pool3-R -> pool3-R
I0716 03:18:14.064817 15309 net.cpp:122] Setting up pool3-R
I0716 03:18:14.064827 15309 net.cpp:129] Top shape: 1 256 89 89 (2027776)
I0716 03:18:14.064831 15309 net.cpp:137] Memory required for data: 2305548320
I0716 03:18:14.064836 15309 layer_factory.hpp:77] Creating layer pool3-R_pool3-R_0_split
I0716 03:18:14.064851 15309 net.cpp:84] Creating Layer pool3-R_pool3-R_0_split
I0716 03:18:14.064855 15309 net.cpp:406] pool3-R_pool3-R_0_split <- pool3-R
I0716 03:18:14.064862 15309 net.cpp:380] pool3-R_pool3-R_0_split -> pool3-R_pool3-R_0_split_0
I0716 03:18:14.064870 15309 net.cpp:380] pool3-R_pool3-R_0_split -> pool3-R_pool3-R_0_split_1
I0716 03:18:14.064918 15309 net.cpp:122] Setting up pool3-R_pool3-R_0_split
I0716 03:18:14.064926 15309 net.cpp:129] Top shape: 1 256 89 89 (2027776)
I0716 03:18:14.064931 15309 net.cpp:129] Top shape: 1 256 89 89 (2027776)
I0716 03:18:14.064935 15309 net.cpp:137] Memory required for data: 2321770528
I0716 03:18:14.064940 15309 layer_factory.hpp:77] Creating layer conv4_1-R
I0716 03:18:14.064950 15309 net.cpp:84] Creating Layer conv4_1-R
I0716 03:18:14.064954 15309 net.cpp:406] conv4_1-R <- pool3-R_pool3-R_0_split_0
I0716 03:18:14.064962 15309 net.cpp:380] conv4_1-R -> conv4_1-R
I0716 03:18:14.073200 15309 net.cpp:122] Setting up conv4_1-R
I0716 03:18:14.073230 15309 net.cpp:129] Top shape: 1 512 89 89 (4055552)
I0716 03:18:14.073237 15309 net.cpp:137] Memory required for data: 2337992736
I0716 03:18:14.073252 15309 layer_factory.hpp:77] Creating layer relu4_1-R
I0716 03:18:14.073266 15309 net.cpp:84] Creating Layer relu4_1-R
I0716 03:18:14.073273 15309 net.cpp:406] relu4_1-R <- conv4_1-R
I0716 03:18:14.073284 15309 net.cpp:367] relu4_1-R -> conv4_1-R (in-place)
I0716 03:18:14.074546 15309 net.cpp:122] Setting up relu4_1-R
I0716 03:18:14.074573 15309 net.cpp:129] Top shape: 1 512 89 89 (4055552)
I0716 03:18:14.074579 15309 net.cpp:137] Memory required for data: 2354214944
I0716 03:18:14.074587 15309 layer_factory.hpp:77] Creating layer conv4_2-R
I0716 03:18:14.074604 15309 net.cpp:84] Creating Layer conv4_2-R
I0716 03:18:14.074612 15309 net.cpp:406] conv4_2-R <- conv4_1-R
I0716 03:18:14.074625 15309 net.cpp:380] conv4_2-R -> conv4_2-R
I0716 03:18:14.088976 15309 net.cpp:122] Setting up conv4_2-R
I0716 03:18:14.089000 15309 net.cpp:129] Top shape: 1 512 89 89 (4055552)
I0716 03:18:14.089005 15309 net.cpp:137] Memory required for data: 2370437152
I0716 03:18:14.089016 15309 layer_factory.hpp:77] Creating layer relu4_2-R
I0716 03:18:14.089038 15309 net.cpp:84] Creating Layer relu4_2-R
I0716 03:18:14.089045 15309 net.cpp:406] relu4_2-R <- conv4_2-R
I0716 03:18:14.089052 15309 net.cpp:367] relu4_2-R -> conv4_2-R (in-place)
I0716 03:18:14.089960 15309 net.cpp:122] Setting up relu4_2-R
I0716 03:18:14.089977 15309 net.cpp:129] Top shape: 1 512 89 89 (4055552)
I0716 03:18:14.089982 15309 net.cpp:137] Memory required for data: 2386659360
I0716 03:18:14.089992 15309 layer_factory.hpp:77] Creating layer conv4_3-R
I0716 03:18:14.090013 15309 net.cpp:84] Creating Layer conv4_3-R
I0716 03:18:14.090018 15309 net.cpp:406] conv4_3-R <- conv4_2-R
I0716 03:18:14.090028 15309 net.cpp:380] conv4_3-R -> conv4_3-R
I0716 03:18:14.102388 15309 net.cpp:122] Setting up conv4_3-R
I0716 03:18:14.102429 15309 net.cpp:129] Top shape: 1 512 89 89 (4055552)
I0716 03:18:14.102438 15309 net.cpp:137] Memory required for data: 2402881568
I0716 03:18:14.102452 15309 layer_factory.hpp:77] Creating layer relu4_3-R
I0716 03:18:14.102465 15309 net.cpp:84] Creating Layer relu4_3-R
I0716 03:18:14.102473 15309 net.cpp:406] relu4_3-R <- conv4_3-R
I0716 03:18:14.102494 15309 net.cpp:367] relu4_3-R -> conv4_3-R (in-place)
I0716 03:18:14.102830 15309 net.cpp:122] Setting up relu4_3-R
I0716 03:18:14.102855 15309 net.cpp:129] Top shape: 1 512 89 89 (4055552)
I0716 03:18:14.102861 15309 net.cpp:137] Memory required for data: 2419103776
I0716 03:18:14.102869 15309 layer_factory.hpp:77] Creating layer pool4-R
I0716 03:18:14.102906 15309 net.cpp:84] Creating Layer pool4-R
I0716 03:18:14.102915 15309 net.cpp:406] pool4-R <- conv4_3-R
I0716 03:18:14.102927 15309 net.cpp:380] pool4-R -> pool4-R
I0716 03:18:14.103014 15309 net.cpp:122] Setting up pool4-R
I0716 03:18:14.103029 15309 net.cpp:129] Top shape: 1 512 45 45 (1036800)
I0716 03:18:14.103034 15309 net.cpp:137] Memory required for data: 2423250976
I0716 03:18:14.103041 15309 layer_factory.hpp:77] Creating layer pool4-R_pool4-R_0_split
I0716 03:18:14.103051 15309 net.cpp:84] Creating Layer pool4-R_pool4-R_0_split
I0716 03:18:14.103058 15309 net.cpp:406] pool4-R_pool4-R_0_split <- pool4-R
I0716 03:18:14.103068 15309 net.cpp:380] pool4-R_pool4-R_0_split -> pool4-R_pool4-R_0_split_0
I0716 03:18:14.103080 15309 net.cpp:380] pool4-R_pool4-R_0_split -> pool4-R_pool4-R_0_split_1
I0716 03:18:14.103148 15309 net.cpp:122] Setting up pool4-R_pool4-R_0_split
I0716 03:18:14.103160 15309 net.cpp:129] Top shape: 1 512 45 45 (1036800)
I0716 03:18:14.103169 15309 net.cpp:129] Top shape: 1 512 45 45 (1036800)
I0716 03:18:14.103175 15309 net.cpp:137] Memory required for data: 2431545376
I0716 03:18:14.103191 15309 layer_factory.hpp:77] Creating layer conv5_1-R
I0716 03:18:14.103240 15309 net.cpp:84] Creating Layer conv5_1-R
I0716 03:18:14.103256 15309 net.cpp:406] conv5_1-R <- pool4-R_pool4-R_0_split_0
I0716 03:18:14.103269 15309 net.cpp:380] conv5_1-R -> conv5_1-R
I0716 03:18:14.114540 15309 net.cpp:122] Setting up conv5_1-R
I0716 03:18:14.114575 15309 net.cpp:129] Top shape: 1 512 45 45 (1036800)
I0716 03:18:14.114580 15309 net.cpp:137] Memory required for data: 2435692576
I0716 03:18:14.114605 15309 layer_factory.hpp:77] Creating layer relu5_1-R
I0716 03:18:14.114615 15309 net.cpp:84] Creating Layer relu5_1-R
I0716 03:18:14.114621 15309 net.cpp:406] relu5_1-R <- conv5_1-R
I0716 03:18:14.114636 15309 net.cpp:367] relu5_1-R -> conv5_1-R (in-place)
I0716 03:18:14.115521 15309 net.cpp:122] Setting up relu5_1-R
I0716 03:18:14.115540 15309 net.cpp:129] Top shape: 1 512 45 45 (1036800)
I0716 03:18:14.115545 15309 net.cpp:137] Memory required for data: 2439839776
I0716 03:18:14.115552 15309 layer_factory.hpp:77] Creating layer conv5_2-R
I0716 03:18:14.115566 15309 net.cpp:84] Creating Layer conv5_2-R
I0716 03:18:14.115573 15309 net.cpp:406] conv5_2-R <- conv5_1-R
I0716 03:18:14.115582 15309 net.cpp:380] conv5_2-R -> conv5_2-R
I0716 03:18:14.127890 15309 net.cpp:122] Setting up conv5_2-R
I0716 03:18:14.127950 15309 net.cpp:129] Top shape: 1 512 45 45 (1036800)
I0716 03:18:14.127959 15309 net.cpp:137] Memory required for data: 2443986976
I0716 03:18:14.127980 15309 layer_factory.hpp:77] Creating layer relu5_2-R
I0716 03:18:14.128007 15309 net.cpp:84] Creating Layer relu5_2-R
I0716 03:18:14.128022 15309 net.cpp:406] relu5_2-R <- conv5_2-R
I0716 03:18:14.128062 15309 net.cpp:367] relu5_2-R -> conv5_2-R (in-place)
I0716 03:18:14.128494 15309 net.cpp:122] Setting up relu5_2-R
I0716 03:18:14.128512 15309 net.cpp:129] Top shape: 1 512 45 45 (1036800)
I0716 03:18:14.128528 15309 net.cpp:137] Memory required for data: 2448134176
I0716 03:18:14.128540 15309 layer_factory.hpp:77] Creating layer conv5_3-R
I0716 03:18:14.128566 15309 net.cpp:84] Creating Layer conv5_3-R
I0716 03:18:14.128585 15309 net.cpp:406] conv5_3-R <- conv5_2-R
I0716 03:18:14.128597 15309 net.cpp:380] conv5_3-R -> conv5_3-R
I0716 03:18:14.141620 15309 net.cpp:122] Setting up conv5_3-R
I0716 03:18:14.141656 15309 net.cpp:129] Top shape: 1 512 45 45 (1036800)
I0716 03:18:14.141661 15309 net.cpp:137] Memory required for data: 2452281376
I0716 03:18:14.141674 15309 layer_factory.hpp:77] Creating layer relu5_3-R
I0716 03:18:14.141685 15309 net.cpp:84] Creating Layer relu5_3-R
I0716 03:18:14.141690 15309 net.cpp:406] relu5_3-R <- conv5_3-R
I0716 03:18:14.141698 15309 net.cpp:367] relu5_3-R -> conv5_3-R (in-place)
I0716 03:18:14.141942 15309 net.cpp:122] Setting up relu5_3-R
I0716 03:18:14.141955 15309 net.cpp:129] Top shape: 1 512 45 45 (1036800)
I0716 03:18:14.141959 15309 net.cpp:137] Memory required for data: 2456428576
I0716 03:18:14.141964 15309 layer_factory.hpp:77] Creating layer pool5-R
I0716 03:18:14.141978 15309 net.cpp:84] Creating Layer pool5-R
I0716 03:18:14.141983 15309 net.cpp:406] pool5-R <- conv5_3-R
I0716 03:18:14.141993 15309 net.cpp:380] pool5-R -> pool5-R
I0716 03:18:14.142057 15309 net.cpp:122] Setting up pool5-R
I0716 03:18:14.142066 15309 net.cpp:129] Top shape: 1 512 23 23 (270848)
I0716 03:18:14.142071 15309 net.cpp:137] Memory required for data: 2457511968
I0716 03:18:14.142076 15309 layer_factory.hpp:77] Creating layer fc6-R
I0716 03:18:14.142091 15309 net.cpp:84] Creating Layer fc6-R
I0716 03:18:14.142096 15309 net.cpp:406] fc6-R <- pool5-R
I0716 03:18:14.142104 15309 net.cpp:380] fc6-R -> fc6-R
I0716 03:18:14.435917 15309 net.cpp:122] Setting up fc6-R
I0716 03:18:14.435971 15309 net.cpp:129] Top shape: 1 4096 17 17 (1183744)
I0716 03:18:14.435976 15309 net.cpp:137] Memory required for data: 2462246944
I0716 03:18:14.435988 15309 layer_factory.hpp:77] Creating layer relu6-R
I0716 03:18:14.436002 15309 net.cpp:84] Creating Layer relu6-R
I0716 03:18:14.436007 15309 net.cpp:406] relu6-R <- fc6-R
I0716 03:18:14.436015 15309 net.cpp:367] relu6-R -> fc6-R (in-place)
I0716 03:18:14.436759 15309 net.cpp:122] Setting up relu6-R
I0716 03:18:14.436774 15309 net.cpp:129] Top shape: 1 4096 17 17 (1183744)
I0716 03:18:14.436794 15309 net.cpp:137] Memory required for data: 2466981920
I0716 03:18:14.436797 15309 layer_factory.hpp:77] Creating layer drop6-R
I0716 03:18:14.436810 15309 net.cpp:84] Creating Layer drop6-R
I0716 03:18:14.436815 15309 net.cpp:406] drop6-R <- fc6-R
I0716 03:18:14.436821 15309 net.cpp:367] drop6-R -> fc6-R (in-place)
I0716 03:18:14.436872 15309 net.cpp:122] Setting up drop6-R
I0716 03:18:14.436877 15309 net.cpp:129] Top shape: 1 4096 17 17 (1183744)
I0716 03:18:14.436882 15309 net.cpp:137] Memory required for data: 2471716896
I0716 03:18:14.436884 15309 layer_factory.hpp:77] Creating layer fc7-R
I0716 03:18:14.436897 15309 net.cpp:84] Creating Layer fc7-R
I0716 03:18:14.436899 15309 net.cpp:406] fc7-R <- fc6-R
I0716 03:18:14.436908 15309 net.cpp:380] fc7-R -> fc7-R
I0716 03:18:14.489333 15309 net.cpp:122] Setting up fc7-R
I0716 03:18:14.489384 15309 net.cpp:129] Top shape: 1 4096 17 17 (1183744)
I0716 03:18:14.489389 15309 net.cpp:137] Memory required for data: 2476451872
I0716 03:18:14.489405 15309 layer_factory.hpp:77] Creating layer relu7-R
I0716 03:18:14.489419 15309 net.cpp:84] Creating Layer relu7-R
I0716 03:18:14.489426 15309 net.cpp:406] relu7-R <- fc7-R
I0716 03:18:14.489450 15309 net.cpp:367] relu7-R -> fc7-R (in-place)
I0716 03:18:14.490245 15309 net.cpp:122] Setting up relu7-R
I0716 03:18:14.490278 15309 net.cpp:129] Top shape: 1 4096 17 17 (1183744)
I0716 03:18:14.490281 15309 net.cpp:137] Memory required for data: 2481186848
I0716 03:18:14.490285 15309 layer_factory.hpp:77] Creating layer drop7-R
I0716 03:18:14.490298 15309 net.cpp:84] Creating Layer drop7-R
I0716 03:18:14.490301 15309 net.cpp:406] drop7-R <- fc7-R
I0716 03:18:14.490309 15309 net.cpp:367] drop7-R -> fc7-R (in-place)
I0716 03:18:14.490365 15309 net.cpp:122] Setting up drop7-R
I0716 03:18:14.490370 15309 net.cpp:129] Top shape: 1 4096 17 17 (1183744)
I0716 03:18:14.490375 15309 net.cpp:137] Memory required for data: 2485921824
I0716 03:18:14.490377 15309 layer_factory.hpp:77] Creating layer score_fr-new-R
I0716 03:18:14.490388 15309 net.cpp:84] Creating Layer score_fr-new-R
I0716 03:18:14.490391 15309 net.cpp:406] score_fr-new-R <- fc7-R
I0716 03:18:14.490399 15309 net.cpp:380] score_fr-new-R -> score_fr-new-R
I0716 03:18:14.496135 15309 net.cpp:122] Setting up score_fr-new-R
I0716 03:18:14.496186 15309 net.cpp:129] Top shape: 1 3 17 17 (867)
I0716 03:18:14.496196 15309 net.cpp:137] Memory required for data: 2485925292
I0716 03:18:14.496215 15309 layer_factory.hpp:77] Creating layer upscore2-new-R
I0716 03:18:14.496248 15309 net.cpp:84] Creating Layer upscore2-new-R
I0716 03:18:14.496259 15309 net.cpp:406] upscore2-new-R <- score_fr-new-R
I0716 03:18:14.496274 15309 net.cpp:380] upscore2-new-R -> upscore2-new-R
I0716 03:18:14.496762 15309 net.cpp:122] Setting up upscore2-new-R
I0716 03:18:14.496778 15309 net.cpp:129] Top shape: 1 3 36 36 (3888)
I0716 03:18:14.496786 15309 net.cpp:137] Memory required for data: 2485940844
I0716 03:18:14.496798 15309 layer_factory.hpp:77] Creating layer upscore2-new-R_upscore2-new-R_0_split
I0716 03:18:14.496810 15309 net.cpp:84] Creating Layer upscore2-new-R_upscore2-new-R_0_split
I0716 03:18:14.496819 15309 net.cpp:406] upscore2-new-R_upscore2-new-R_0_split <- upscore2-new-R
I0716 03:18:14.496831 15309 net.cpp:380] upscore2-new-R_upscore2-new-R_0_split -> upscore2-new-R_upscore2-new-R_0_split_0
I0716 03:18:14.496853 15309 net.cpp:380] upscore2-new-R_upscore2-new-R_0_split -> upscore2-new-R_upscore2-new-R_0_split_1
I0716 03:18:14.496946 15309 net.cpp:122] Setting up upscore2-new-R_upscore2-new-R_0_split
I0716 03:18:14.496961 15309 net.cpp:129] Top shape: 1 3 36 36 (3888)
I0716 03:18:14.496971 15309 net.cpp:129] Top shape: 1 3 36 36 (3888)
I0716 03:18:14.496978 15309 net.cpp:137] Memory required for data: 2485971948
I0716 03:18:14.496995 15309 layer_factory.hpp:77] Creating layer score_pool4-new-R
I0716 03:18:14.497066 15309 net.cpp:84] Creating Layer score_pool4-new-R
I0716 03:18:14.497076 15309 net.cpp:406] score_pool4-new-R <- pool4-R_pool4-R_0_split_1
I0716 03:18:14.497089 15309 net.cpp:380] score_pool4-new-R -> score_pool4-new-R
I0716 03:18:14.501895 15309 net.cpp:122] Setting up score_pool4-new-R
I0716 03:18:14.501940 15309 net.cpp:129] Top shape: 1 3 45 45 (6075)
I0716 03:18:14.501948 15309 net.cpp:137] Memory required for data: 2485996248
I0716 03:18:14.501963 15309 layer_factory.hpp:77] Creating layer score_pool4c-R
I0716 03:18:14.501981 15309 net.cpp:84] Creating Layer score_pool4c-R
I0716 03:18:14.501991 15309 net.cpp:406] score_pool4c-R <- score_pool4-new-R
I0716 03:18:14.502002 15309 net.cpp:406] score_pool4c-R <- upscore2-new-R_upscore2-new-R_0_split_0
I0716 03:18:14.502017 15309 net.cpp:380] score_pool4c-R -> score_pool4c-R
I0716 03:18:14.502081 15309 net.cpp:122] Setting up score_pool4c-R
I0716 03:18:14.502104 15309 net.cpp:129] Top shape: 1 3 36 36 (3888)
I0716 03:18:14.502111 15309 net.cpp:137] Memory required for data: 2486011800
I0716 03:18:14.502118 15309 layer_factory.hpp:77] Creating layer fuse_pool4-R
I0716 03:18:14.502133 15309 net.cpp:84] Creating Layer fuse_pool4-R
I0716 03:18:14.502141 15309 net.cpp:406] fuse_pool4-R <- upscore2-new-R_upscore2-new-R_0_split_1
I0716 03:18:14.502152 15309 net.cpp:406] fuse_pool4-R <- score_pool4c-R
I0716 03:18:14.502167 15309 net.cpp:380] fuse_pool4-R -> fuse_pool4-R
I0716 03:18:14.502225 15309 net.cpp:122] Setting up fuse_pool4-R
I0716 03:18:14.502241 15309 net.cpp:129] Top shape: 1 3 36 36 (3888)
I0716 03:18:14.502249 15309 net.cpp:137] Memory required for data: 2486027352
I0716 03:18:14.502256 15309 layer_factory.hpp:77] Creating layer upscore_pool4-new-R
I0716 03:18:14.502274 15309 net.cpp:84] Creating Layer upscore_pool4-new-R
I0716 03:18:14.502282 15309 net.cpp:406] upscore_pool4-new-R <- fuse_pool4-R
I0716 03:18:14.502298 15309 net.cpp:380] upscore_pool4-new-R -> upscore_pool4-new-R
I0716 03:18:14.502791 15309 net.cpp:122] Setting up upscore_pool4-new-R
I0716 03:18:14.502809 15309 net.cpp:129] Top shape: 1 3 74 74 (16428)
I0716 03:18:14.502826 15309 net.cpp:137] Memory required for data: 2486093064
I0716 03:18:14.502837 15309 layer_factory.hpp:77] Creating layer upscore_pool4-new-R_upscore_pool4-new-R_0_split
I0716 03:18:14.502848 15309 net.cpp:84] Creating Layer upscore_pool4-new-R_upscore_pool4-new-R_0_split
I0716 03:18:14.502856 15309 net.cpp:406] upscore_pool4-new-R_upscore_pool4-new-R_0_split <- upscore_pool4-new-R
I0716 03:18:14.502867 15309 net.cpp:380] upscore_pool4-new-R_upscore_pool4-new-R_0_split -> upscore_pool4-new-R_upscore_pool4-new-R_0_split_0
I0716 03:18:14.502882 15309 net.cpp:380] upscore_pool4-new-R_upscore_pool4-new-R_0_split -> upscore_pool4-new-R_upscore_pool4-new-R_0_split_1
I0716 03:18:14.502971 15309 net.cpp:122] Setting up upscore_pool4-new-R_upscore_pool4-new-R_0_split
I0716 03:18:14.502986 15309 net.cpp:129] Top shape: 1 3 74 74 (16428)
I0716 03:18:14.502996 15309 net.cpp:129] Top shape: 1 3 74 74 (16428)
I0716 03:18:14.503003 15309 net.cpp:137] Memory required for data: 2486224488
I0716 03:18:14.503010 15309 layer_factory.hpp:77] Creating layer score_pool3-new-R
I0716 03:18:14.503029 15309 net.cpp:84] Creating Layer score_pool3-new-R
I0716 03:18:14.503038 15309 net.cpp:406] score_pool3-new-R <- pool3-R_pool3-R_0_split_1
I0716 03:18:14.503051 15309 net.cpp:380] score_pool3-new-R -> score_pool3-new-R
I0716 03:18:14.511735 15309 net.cpp:122] Setting up score_pool3-new-R
I0716 03:18:14.511783 15309 net.cpp:129] Top shape: 1 3 89 89 (23763)
I0716 03:18:14.511788 15309 net.cpp:137] Memory required for data: 2486319540
I0716 03:18:14.511801 15309 layer_factory.hpp:77] Creating layer score_pool3c-R
I0716 03:18:14.511812 15309 net.cpp:84] Creating Layer score_pool3c-R
I0716 03:18:14.511821 15309 net.cpp:406] score_pool3c-R <- score_pool3-new-R
I0716 03:18:14.511828 15309 net.cpp:406] score_pool3c-R <- upscore_pool4-new-R_upscore_pool4-new-R_0_split_0
I0716 03:18:14.511835 15309 net.cpp:380] score_pool3c-R -> score_pool3c-R
I0716 03:18:14.511870 15309 net.cpp:122] Setting up score_pool3c-R
I0716 03:18:14.511876 15309 net.cpp:129] Top shape: 1 3 74 74 (16428)
I0716 03:18:14.511879 15309 net.cpp:137] Memory required for data: 2486385252
I0716 03:18:14.511893 15309 layer_factory.hpp:77] Creating layer fuse_pool3-R
I0716 03:18:14.511906 15309 net.cpp:84] Creating Layer fuse_pool3-R
I0716 03:18:14.511910 15309 net.cpp:406] fuse_pool3-R <- upscore_pool4-new-R_upscore_pool4-new-R_0_split_1
I0716 03:18:14.511915 15309 net.cpp:406] fuse_pool3-R <- score_pool3c-R
I0716 03:18:14.511921 15309 net.cpp:380] fuse_pool3-R -> fuse_pool3-R
I0716 03:18:14.511951 15309 net.cpp:122] Setting up fuse_pool3-R
I0716 03:18:14.511956 15309 net.cpp:129] Top shape: 1 3 74 74 (16428)
I0716 03:18:14.511960 15309 net.cpp:137] Memory required for data: 2486450964
I0716 03:18:14.511962 15309 layer_factory.hpp:77] Creating layer upscore8-new-R
I0716 03:18:14.511970 15309 net.cpp:84] Creating Layer upscore8-new-R
I0716 03:18:14.511974 15309 net.cpp:406] upscore8-new-R <- fuse_pool3-R
I0716 03:18:14.511981 15309 net.cpp:380] upscore8-new-R -> upscore8-new-R
I0716 03:18:14.512207 15309 net.cpp:122] Setting up upscore8-new-R
I0716 03:18:14.512215 15309 net.cpp:129] Top shape: 1 3 600 600 (1080000)
I0716 03:18:14.512219 15309 net.cpp:137] Memory required for data: 2490770964
I0716 03:18:14.512224 15309 layer_factory.hpp:77] Creating layer upscore8_cropped-R
I0716 03:18:14.512229 15309 net.cpp:84] Creating Layer upscore8_cropped-R
I0716 03:18:14.512233 15309 net.cpp:406] upscore8_cropped-R <- upscore8-new-R
I0716 03:18:14.512239 15309 net.cpp:406] upscore8_cropped-R <- data-R_crop_0_split_1
I0716 03:18:14.512245 15309 net.cpp:380] upscore8_cropped-R -> upscore8_cropped-R
I0716 03:18:14.512270 15309 net.cpp:122] Setting up upscore8_cropped-R
I0716 03:18:14.512275 15309 net.cpp:129] Top shape: 1 3 512 512 (786432)
I0716 03:18:14.512279 15309 net.cpp:137] Memory required for data: 2493916692
I0716 03:18:14.512281 15309 layer_factory.hpp:77] Creating layer upscore8_uncropped-R
I0716 03:18:14.512624 15309 net.cpp:84] Creating Layer upscore8_uncropped-R
I0716 03:18:14.512635 15309 net.cpp:406] upscore8_uncropped-R <- crop_info
I0716 03:18:14.512641 15309 net.cpp:406] upscore8_uncropped-R <- upscore8_cropped-R
I0716 03:18:14.512646 15309 net.cpp:406] upscore8_uncropped-R <- data_data_0_split_3
I0716 03:18:14.512652 15309 net.cpp:380] upscore8_uncropped-R -> upscore8_uncropped-R
I0716 03:18:14.515060 15309 net.cpp:122] Setting up upscore8_uncropped-R
I0716 03:18:14.515075 15309 net.cpp:129] Top shape: 1 3 512 512 (786432)
I0716 03:18:14.515094 15309 net.cpp:137] Memory required for data: 2497062420
I0716 03:18:14.515099 15309 layer_factory.hpp:77] Creating layer loss1
I0716 03:18:14.515115 15309 net.cpp:84] Creating Layer loss1
I0716 03:18:14.515118 15309 net.cpp:406] loss1 <- upscore8_cropped_upscore8_cropped_0_split_1
I0716 03:18:14.515123 15309 net.cpp:406] loss1 <- label_data_1_split_1
I0716 03:18:14.515128 15309 net.cpp:380] loss1 -> loss1
…
