…
snapshot_prefix: "/media/Med_2T2/data2/models/snapshots/joint:1e-5x10,1e-5x10,20/FD2:ZI3_1_20180418_201422,ZJ3_1_20180419_073851/train"
test_initialization: false
average_loss: 20
stepvalue: 45000
stepvalue: 50000
stepvalue: 55000
iter_size: 1
I0419 11:11:06.141824 30875 solver.cpp:77] Creating training net from train_net file: /media/Med_2T2/data2/prototxts/training_J3x10.prototxt
I0419 11:11:06.144599 30875 net.cpp:51] Initializing net from parameters: 
state {
  phase: TRAIN
}
layer {
  name: "data"
  type: "Python"
  top: "data"
  top: "label"
  top: "crop_margin"
  top: "crop_prob"
  top: "crop_sample_batch"
  python_param {
    module: "Data"
    layer: "DataLayer"
  }
}
layer {
  name: "conv1_1"
  type: "Convolution"
  bottom: "data"
  top: "conv1_1"
  param {
    lr_mult: 1
    decay_mult: 1
  }
  param {
    lr_mult: 2
    decay_mult: 0
  }
  convolution_param {
    num_output: 64
    pad: 100
    kernel_size: 3
    stride: 1
  }
}
layer {
  name: "relu1_1"
  type: "ReLU"
  bottom: "conv1_1"
  top: "conv1_1"
}
layer {
  name: "conv1_2"
  type: "Convolution"
  bottom: "conv1_1"
  top: "conv1_2"
  param {
    lr_mult: 1
    decay_mult: 1
  }
  param {
    lr_mult: 2
    decay_mult: 0
  }
  convolution_param {
    num_output: 64
    pad: 1
    kernel_size: 3
    stride: 1
  }
}
layer {
  name: "relu1_2"
  type: "ReLU"
  bottom: "conv1_2"
  top: "conv1_2"
}
layer {
  name: "pool1"
  type: "Pooling"
  bottom: "conv1_2"
  top: "pool1"
  pooling_param {
    pool: MAX
    kernel_size: 2
    stride: 2
  }
}
layer {
  name: "conv2_1"
  type: "Convolution"
  bottom: "pool1"
  top: "conv2_1"
  param {
    lr_mult: 1
    decay_mult: 1
  }
  param {
    lr_mult: 2
    decay_mult: 0
  }
  convolution_param {
    num_output: 128
    pad: 1
    kernel_size: 3
    stride: 1
  }
}
layer {
  name: "relu2_1"
  type: "ReLU"
  bottom: "conv2_1"
  top: "conv2_1"
}
layer {
  name: "conv2_2"
  type: "Convolution"
  bottom: "conv2_1"
  top: "conv2_2"
  param {
    lr_mult: 1
    decay_mult: 1
  }
  param {
    lr_mult: 2
    decay_mult: 0
  }
  convolution_param {
    num_output: 128
    pad: 1
    kernel_size: 3
    stride: 1
  }
}
layer {
  name: "relu2_2"
  type: "ReLU"
  bottom: "conv2_2"
  top: "conv2_2"
}
layer {
  name: "pool2"
  type: "Pooling"
  bottom: "conv2_2"
  top: "pool2"
  pooling_param {
    pool: MAX
    kernel_size: 2
    stride: 2
  }
}
layer {
  name: "conv3_1"
  type: "Convolution"
  bottom: "pool2"
  top: "conv3_1"
  param {
    lr_mult: 1
    decay_mult: 1
  }
  param {
    lr_mult: 2
    decay_mult: 0
  }
  convolution_param {
    num_output: 256
    pad: 1
    kernel_size: 3
    stride: 1
  }
}
layer {
  name: "relu3_1"
  type: "ReLU"
  bottom: "conv3_1"
  top: "conv3_1"
}
layer {
  name: "conv3_2"
  type: "Convolution"
  bottom: "conv3_1"
  top: "conv3_2"
  param {
    lr_mult: 1
    decay_mult: 1
  }
  param {
    lr_mult: 2
    decay_mult: 0
  }
  convolution_param {
    num_output: 256
    pad: 1
    kernel_size: 3
    stride: 1
  }
}
layer {
  name: "relu3_2"
  type: "ReLU"
  bottom: "conv3_2"
  top: "conv3_2"
}
layer {
  name: "conv3_3"
  type: "Convolution"
  bottom: "conv3_2"
  top: "conv3_3"
  param {
    lr_mult: 1
    decay_mult: 1
  }
  param {
    lr_mult: 2
    decay_mult: 0
  }
  convolution_param {
    num_output: 256
    pad: 1
    kernel_size: 3
    stride: 1
  }
}
layer {
  name: "relu3_3"
  type: "ReLU"
  bottom: "conv3_3"
  top: "conv3_3"
}
layer {
  name: "pool3"
  type: "Pooling"
  bottom: "conv3_3"
  top: "pool3"
  pooling_param {
    pool: MAX
    kernel_size: 2
    stride: 2
  }
}
layer {
  name: "conv4_1"
  type: "Convolution"
  bottom: "pool3"
  top: "conv4_1"
  param {
    lr_mult: 1
    decay_mult: 1
  }
  param {
    lr_mult: 2
    decay_mult: 0
  }
  convolution_param {
    num_output: 512
    pad: 1
    kernel_size: 3
    stride: 1
  }
}
layer {
  name: "relu4_1"
  type: "ReLU"
  bottom: "conv4_1"
  top: "conv4_1"
}
layer {
  name: "conv4_2"
  type: "Convolution"
  bottom: "conv4_1"
  top: "conv4_2"
  param {
    lr_mult: 1
    decay_mult: 1
  }
  param {
    lr_mult: 2
    decay_mult: 0
  }
  convolution_param {
    num_output: 512
    pad: 1
    kernel_size: 3
    stride: 1
  }
}
layer {
  name: "relu4_2"
  type: "ReLU"
  bottom: "conv4_2"
  top: "conv4_2"
}
layer {
  name: "conv4_3"
  type: "Convolution"
  bottom: "conv4_2"
  top: "conv4_3"
  param {
    lr_mult: 1
    decay_mult: 1
  }
  param {
    lr_mult: 2
    decay_mult: 0
  }
  convolution_param {
    num_output: 512
    pad: 1
    kernel_size: 3
    stride: 1
  }
}
layer {
  name: "relu4_3"
  type: "ReLU"
  bottom: "conv4_3"
  top: "conv4_3"
}
layer {
  name: "pool4"
  type: "Pooling"
  bottom: "conv4_3"
  top: "pool4"
  pooling_param {
    pool: MAX
    kernel_size: 2
    stride: 2
  }
}
layer {
  name: "conv5_1"
  type: "Convolution"
  bottom: "pool4"
  top: "conv5_1"
  param {
    lr_mult: 1
    decay_mult: 1
  }
  param {
    lr_mult: 2
    decay_mult: 0
  }
  convolution_param {
    num_output: 512
    pad: 1
    kernel_size: 3
    stride: 1
  }
}
layer {
  name: "relu5_1"
  type: "ReLU"
  bottom: "conv5_1"
  top: "conv5_1"
}
layer {
  name: "conv5_2"
  type: "Convolution"
  bottom: "conv5_1"
  top: "conv5_2"
  param {
    lr_mult: 1
    decay_mult: 1
  }
  param {
    lr_mult: 2
    decay_mult: 0
  }
  convolution_param {
    num_output: 512
    pad: 1
    kernel_size: 3
    stride: 1
  }
}
layer {
  name: "relu5_2"
  type: "ReLU"
  bottom: "conv5_2"
  top: "conv5_2"
}
layer {
  name: "conv5_3"
  type: "Convolution"
  bottom: "conv5_2"
  top: "conv5_3"
  param {
    lr_mult: 1
    decay_mult: 1
  }
  param {
    lr_mult: 2
    decay_mult: 0
  }
  convolution_param {
    num_output: 512
    pad: 1
    kernel_size: 3
    stride: 1
  }
}
layer {
  name: "relu5_3"
  type: "ReLU"
  bottom: "conv5_3"
  top: "conv5_3"
}
layer {
  name: "pool5"
  type: "Pooling"
  bottom: "conv5_3"
  top: "pool5"
  pooling_param {
    pool: MAX
    kernel_size: 2
    stride: 2
  }
}
layer {
  name: "fc6"
  type: "Convolution"
  bottom: "pool5"
  top: "fc6"
  param {
    lr_mult: 1
    decay_mult: 1
  }
  param {
    lr_mult: 2
    decay_mult: 0
  }
  convolution_param {
    num_output: 4096
    pad: 0
    kernel_size: 7
    stride: 1
  }
}
layer {
  name: "relu6"
  type: "ReLU"
  bottom: "fc6"
  top: "fc6"
}
layer {
  name: "drop6"
  type: "Dropout"
  bottom: "fc6"
  top: "fc6"
  dropout_param {
    dropout_ratio: 0.5
  }
}
layer {
  name: "fc7"
  type: "Convolution"
  bottom: "fc6"
  top: "fc7"
  param {
    lr_mult: 1
    decay_mult: 1
  }
  param {
    lr_mult: 2
    decay_mult: 0
  }
  convolution_param {
    num_output: 4096
    pad: 0
    kernel_size: 1
    stride: 1
  }
}
layer {
  name: "relu7"
  type: "ReLU"
  bottom: "fc7"
  top: "fc7"
}
layer {
  name: "drop7"
  type: "Dropout"
  bottom: "fc7"
  top: "fc7"
  dropout_param {
    dropout_ratio: 0.5
  }
}
layer {
  name: "score_fr-new"
  type: "Convolution"
  bottom: "fc7"
  top: "score_fr-new"
  param {
    lr_mult: 1
    decay_mult: 1
  }
  param {
    lr_mult: 2
    decay_mult: 0
  }
  convolution_param {
    num_output: 3
    kernel_size: 1
  }
}
layer {
  name: "upscore2-new"
  type: "Deconvolution"
  bottom: "score_fr-new"
  top: "upscore2-new"
  param {
    lr_mult: 0
  }
  convolution_param {
    num_output: 3
    bias_term: false
    kernel_size: 4
    stride: 2
  }
}
layer {
  name: "score_pool4-new"
  type: "Convolution"
  bottom: "pool4"
  top: "score_pool4-new"
  param {
    lr_mult: 1
    decay_mult: 1
  }
  param {
    lr_mult: 2
    decay_mult: 0
  }
  convolution_param {
    num_output: 3
    pad: 0
    kernel_size: 1
  }
}
layer {
  name: "score_pool4c"
  type: "Crop"
  bottom: "score_pool4-new"
  bottom: "upscore2-new"
  top: "score_pool4c"
  crop_param {
    axis: 2
    offset: 5
  }
}
layer {
  name: "fuse_pool4"
  type: "Eltwise"
  bottom: "upscore2-new"
  bottom: "score_pool4c"
  top: "fuse_pool4"
  eltwise_param {
    operation: SUM
  }
}
layer {
  name: "upscore_pool4-new"
  type: "Deconvolution"
  bottom: "fuse_pool4"
  top: "upscore_pool4-new"
  param {
    lr_mult: 0
  }
  convolution_param {
    num_output: 3
    bias_term: false
    kernel_size: 4
    stride: 2
  }
}
layer {
  name: "score_pool3-new"
  type: "Convolution"
  bottom: "pool3"
  top: "score_pool3-new"
  param {
    lr_mult: 1
    decay_mult: 1
  }
  param {
    lr_mult: 2
    decay_mult: 0
  }
  convolution_param {
    num_output: 3
    pad: 0
    kernel_size: 1
  }
}
layer {
  name: "score_pool3c"
  type: "Crop"
  bottom: "score_pool3-new"
  bottom: "upscore_pool4-new"
  top: "score_pool3c"
  crop_param {
    axis: 2
    offset: 9
  }
}
layer {
  name: "fuse_pool3"
  type: "Eltwise"
  bottom: "upscore_pool4-new"
  bottom: "score_pool3c"
  top: "fuse_pool3"
  eltwise_param {
    operation: SUM
  }
}
layer {
  name: "upscore8-new"
  type: "Deconvolution"
  bottom: "fuse_pool3"
  top: "upscore8-new"
  param {
    lr_mult: 0
  }
  convolution_param {
    num_output: 3
    bias_term: false
    kernel_size: 16
    stride: 8
  }
}
layer {
  name: "upscore8_cropped"
  type: "Crop"
  bottom: "upscore8-new"
  bottom: "data"
  top: "upscore8_cropped"
  crop_param {
    axis: 2
    offset: 31
  }
}
layer {
  name: "score"
  type: "Convolution"
  bottom: "upscore8_cropped"
  top: "score"
  param {
    lr_mult: 1
    decay_mult: 1
  }
  param {
    lr_mult: 2
    decay_mult: 0
  }
  convolution_param {
    num_output: 3
    pad: 1
    kernel_size: 3
    stride: 1
  }
}
layer {
  name: "prob"
  type: "Sigmoid"
  bottom: "score"
  top: "prob"
}
layer {
  name: "saliency"
  type: "Convolution"
  bottom: "prob"
  top: "saliency"
  param {
    lr_mult: 10
    decay_mult: 1
  }
  param {
    lr_mult: 20
    decay_mult: 0
  }
  convolution_param {
    num_output: 3
    pad: 2
    kernel_size: 5
    stride: 1
  }
}
layer {
  name: "saliency_data"
  type: "Eltwise"
  bottom: "data"
  bottom: "saliency"
  top: "saliency_data"
  eltwise_param {
    operation: PROD
  }
}
layer {
  name: "crop"
  type: "Python"
  bottom: "prob"
  bottom: "saliency_data"
  bottom: "crop_margin"
  bottom: "crop_prob"
  bottom: "crop_sample_batch"
  bottom: "label"
  top: "data-R"
  top: "crop_info"
  python_param {
    module: "Crop"
    layer: "CropLayer"
    param_str: "{\"TEST\": 0}"
  }
}
layer {
  name: "conv1_1-R"
  type: "Convolution"
  bottom: "data-R"
  top: "conv1_1-R"
  param {
    lr_mult: 10
    decay_mult: 1
  }
  param {
    lr_mult: 20
    decay_mult: 0
  }
  convolution_param {
    num_output: 64
    pad: 100
    kernel_size: 3
    stride: 1
  }
}
layer {
  name: "relu1_1-R"
  type: "ReLU"
  bottom: "conv1_1-R"
  top: "conv1_1-R"
}
layer {
  name: "conv1_2-R"
  type: "Convolution"
  bottom: "conv1_1-R"
  top: "conv1_2-R"
  param {
    lr_mult: 10
    decay_mult: 1
  }
  param {
    lr_mult: 20
    decay_mult: 0
  }
  convolution_param {
    num_output: 64
    pad: 1
    kernel_size: 3
    stride: 1
  }
}
layer {
  name: "relu1_2-R"
  type: "ReLU"
  bottom: "conv1_2-R"
  top: "conv1_2-R"
}
layer {
  name: "pool1-R"
  type: "Pooling"
  bottom: "conv1_2-R"
  top: "pool1-R"
  pooling_param {
    pool: MAX
    kernel_size: 2
    stride: 2
  }
}
layer {
  name: "conv2_1-R"
  type: "Convolution"
  bottom: "pool1-R"
  top: "conv2_1-R"
  param {
    lr_mult: 10
    decay_mult: 1
  }
  param {
    lr_mult: 20
    decay_mult: 0
  }
  convolution_param {
    num_output: 128
    pad: 1
    kernel_size: 3
    stride: 1
  }
}
layer {
  name: "relu2_1-R"
  type: "ReLU"
  bottom: "conv2_1-R"
  top: "conv2_1-R"
}
layer {
  name: "conv2_2-R"
  type: "Convolution"
  bottom: "conv2_1-R"
  top: "conv2_2-R"
  param {
    lr_mult: 10
    decay_mult: 1
  }
  param {
    lr_mult: 20
    decay_mult: 0
  }
  convolution_param {
    num_output: 128
    pad: 1
    kernel_size: 3
    stride: 1
  }
}
layer {
  name: "relu2_2-R"
  type: "ReLU"
  bottom: "conv2_2-R"
  top: "conv2_2-R"
}
layer {
  name: "pool2-R"
  type: "Pooling"
  bottom: "conv2_2-R"
  top: "pool2-R"
  pooling_param {
    pool: MAX
    kernel_size: 2
    stride: 2
  }
}
layer {
  name: "conv3_1-R"
  type: "Convolution"
  bottom: "pool2-R"
  top: "conv3_1-R"
  param {
    lr_mult: 10
    decay_mult: 1
  }
  param {
    lr_mult: 20
    decay_mult: 0
  }
  convolution_param {
    num_output: 256
    pad: 1
    kernel_size: 3
    stride: 1
  }
}
layer {
  name: "relu3_1-R"
  type: "ReLU"
  bottom: "conv3_1-R"
  top: "conv3_1-R"
}
layer {
  name: "conv3_2-R"
  type: "Convolution"
  bottom: "conv3_1-R"
  top: "conv3_2-R"
  param {
    lr_mult: 10
    decay_mult: 1
  }
  param {
    lr_mult: 20
    decay_mult: 0
  }
  convolution_param {
    num_output: 256
    pad: 1
    kernel_size: 3
    stride: 1
  }
}
layer {
  name: "relu3_2-R"
  type: "ReLU"
  bottom: "conv3_2-R"
  top: "conv3_2-R"
}
layer {
  name: "conv3_3-R"
  type: "Convolution"
  bottom: "conv3_2-R"
  top: "conv3_3-R"
  param {
    lr_mult: 10
    decay_mult: 1
  }
  param {
    lr_mult: 20
    decay_mult: 0
  }
  convolution_param {
    num_output: 256
    pad: 1
    kernel_size: 3
    stride: 1
  }
}
layer {
  name: "relu3_3-R"
  type: "ReLU"
  bottom: "conv3_3-R"
  top: "conv3_3-R"
}
layer {
  name: "pool3-R"
  type: "Pooling"
  bottom: "conv3_3-R"
  top: "pool3-R"
  pooling_param {
    pool: MAX
    kernel_size: 2
    stride: 2
  }
}
layer {
  name: "conv4_1-R"
  type: "Convolution"
  bottom: "pool3-R"
  top: "conv4_1-R"
  param {
    lr_mult: 10
    decay_mult: 1
  }
  param {
    lr_mult: 20
    decay_mult: 0
  }
  convolution_param {
    num_output: 512
    pad: 1
    kernel_size: 3
    stride: 1
  }
}
layer {
  name: "relu4_1-R"
  type: "ReLU"
  bottom: "conv4_1-R"
  top: "conv4_1-R"
}
layer {
  name: "conv4_2-R"
  type: "Convolution"
  bottom: "conv4_1-R"
  top: "conv4_2-R"
  param {
    lr_mult: 10
    decay_mult: 1
  }
  param {
    lr_mult: 20
    decay_mult: 0
  }
  convolution_param {
    num_output: 512
    pad: 1
    kernel_size: 3
    stride: 1
  }
}
layer {
  name: "relu4_2-R"
  type: "ReLU"
  bottom: "conv4_2-R"
  top: "conv4_2-R"
}
layer {
  name: "conv4_3-R"
  type: "Convolution"
  bottom: "conv4_2-R"
  top: "conv4_3-R"
  param {
    lr_mult: 10
    decay_mult: 1
  }
  param {
    lr_mult: 20
    decay_mult: 0
  }
  convolution_param {
    num_output: 512
    pad: 1
    kernel_size: 3
    stride: 1
  }
}
layer {
  name: "relu4_3-R"
  type: "ReLU"
  bottom: "conv4_3-R"
  top: "conv4_3-R"
}
layer {
  name: "pool4-R"
  type: "Pooling"
  bottom: "conv4_3-R"
  top: "pool4-R"
  pooling_param {
    pool: MAX
    kernel_size: 2
    stride: 2
  }
}
layer {
  name: "conv5_1-R"
  type: "Convolution"
  bottom: "pool4-R"
  top: "conv5_1-R"
  param {
    lr_mult: 10
    decay_mult: 1
  }
  param {
    lr_mult: 20
    decay_mult: 0
  }
  convolution_param {
    num_output: 512
    pad: 1
    kernel_size: 3
    stride: 1
  }
}
layer {
  name: "relu5_1-R"
  type: "ReLU"
  bottom: "conv5_1-R"
  top: "conv5_1-R"
}
layer {
  name: "conv5_2-R"
  type: "Convolution"
  bottom: "conv5_1-R"
  top: "conv5_2-R"
  param {
    lr_mult: 10
    decay_mult: 1
  }
  param {
    lr_mult: 20
    decay_mult: 0
  }
  convolution_param {
    num_output: 512
    pad: 1
    kernel_size: 3
    stride: 1
  }
}
layer {
  name: "relu5_2-R"
  type: "ReLU"
  bottom: "conv5_2-R"
  top: "conv5_2-R"
}
layer {
  name: "conv5_3-R"
  type: "Convolution"
  bottom: "conv5_2-R"
  top: "conv5_3-R"
  param {
    lr_mult: 10
    decay_mult: 1
  }
  param {
    lr_mult: 20
    decay_mult: 0
  }
  convolution_param {
    num_output: 512
    pad: 1
    kernel_size: 3
    stride: 1
  }
}
layer {
  name: "relu5_3-R"
  type: "ReLU"
  bottom: "conv5_3-R"
  top: "conv5_3-R"
}
layer {
  name: "pool5-R"
  type: "Pooling"
  bottom: "conv5_3-R"
  top: "pool5-R"
  pooling_param {
    pool: MAX
    kernel_size: 2
    stride: 2
  }
}
layer {
  name: "fc6-R"
  type: "Convolution"
  bottom: "pool5-R"
  top: "fc6-R"
  param {
    lr_mult: 10
    decay_mult: 1
  }
  param {
    lr_mult: 20
    decay_mult: 0
  }
  convolution_param {
    num_output: 4096
    pad: 0
    kernel_size: 7
    stride: 1
  }
}
layer {
  name: "relu6-R"
  type: "ReLU"
  bottom: "fc6-R"
  top: "fc6-R"
}
layer {
  name: "drop6-R"
  type: "Dropout"
  bottom: "fc6-R"
  top: "fc6-R"
  dropout_param {
    dropout_ratio: 0.5
  }
}
layer {
  name: "fc7-R"
  type: "Convolution"
  bottom: "fc6-R"
  top: "fc7-R"
  param {
    lr_mult: 10
    decay_mult: 1
  }
  param {
    lr_mult: 20
    decay_mult: 0
  }
  convolution_param {
    num_output: 4096
    pad: 0
    kernel_size: 1
    stride: 1
  }
}
layer {
  name: "relu7-R"
  type: "ReLU"
  bottom: "fc7-R"
  top: "fc7-R"
}
layer {
  name: "drop7-R"
  type: "Dropout"
  bottom: "fc7-R"
  top: "fc7-R"
  dropout_param {
    dropout_ratio: 0.5
  }
}
layer {
  name: "score_fr-new-R"
  type: "Convolution"
  bottom: "fc7-R"
  top: "score_fr-new-R"
  param {
    lr_mult: 10
    decay_mult: 1
  }
  param {
    lr_mult: 20
    decay_mult: 0
  }
  convolution_param {
    num_output: 3
    kernel_size: 1
  }
}
layer {
  name: "upscore2-new-R"
  type: "Deconvolution"
  bottom: "score_fr-new-R"
  top: "upscore2-new-R"
  param {
    lr_mult: 0
  }
  convolution_param {
    num_output: 3
    bias_term: false
    kernel_size: 4
    stride: 2
  }
}
layer {
  name: "score_pool4-new-R"
  type: "Convolution"
  bottom: "pool4-R"
  top: "score_pool4-new-R"
  param {
    lr_mult: 10
    decay_mult: 1
  }
  param {
    lr_mult: 20
    decay_mult: 0
  }
  convolution_param {
    num_output: 3
    pad: 0
    kernel_size: 1
  }
}
layer {
  name: "score_pool4c-R"
  type: "Crop"
  bottom: "score_pool4-new-R"
  bottom: "upscore2-new-R"
  top: "score_pool4c-R"
  crop_param {
    axis: 2
    offset: 5
  }
}
layer {
  name: "fuse_pool4-R"
  type: "Eltwise"
  bottom: "upscore2-new-R"
  bottom: "score_pool4c-R"
  top: "fuse_pool4-R"
  eltwise_param {
    operation: SUM
  }
}
layer {
  name: "upscore_pool4-new-R"
  type: "Deconvolution"
  bottom: "fuse_pool4-R"
  top: "upscore_pool4-new-R"
  param {
    lr_mult: 0
  }
  convolution_param {
    num_output: 3
    bias_term: false
    kernel_size: 4
    stride: 2
  }
}
layer {
  name: "score_pool3-new-R"
  type: "Convolution"
  bottom: "pool3-R"
  top: "score_pool3-new-R"
  param {
    lr_mult: 10
    decay_mult: 1
  }
  param {
    lr_mult: 20
    decay_mult: 0
  }
  convolution_param {
    num_output: 3
    pad: 0
    kernel_size: 1
  }
}
layer {
  name: "score_pool3c-R"
  type: "Crop"
  bottom: "score_pool3-new-R"
  bottom: "upscore_pool4-new-R"
  top: "score_pool3c-R"
  crop_param {
    axis: 2
    offset: 9
  }
}
layer {
  name: "fuse_pool3-R"
  type: "Eltwise"
  bottom: "upscore_pool4-new-R"
  bottom: "score_pool3c-R"
  top: "fuse_pool3-R"
  eltwise_param {
    operation: SUM
  }
}
layer {
  name: "upscore8-new-R"
  type: "Deconvolution"
  bottom: "fuse_pool3-R"
  top: "upscore8-new-R"
  param {
    lr_mult: 0
  }
  convolution_param {
    num_output: 3
    bias_term: false
    kernel_size: 16
    stride: 8
  }
}
layer {
  name: "upscore8_cropped-R"
  type: "Crop"
  bottom: "upscore8-new-R"
  bottom: "data-R"
  top: "upscore8_cropped-R"
  crop_param {
    axis: 2
    offset: 31
  }
}
layer {
  name: "score-R"
  type: "Convolution"
  bottom: "upscore8_cropped-R"
  top: "score-R"
  param {
    lr_mult: 10
    decay_mult: 1
  }
  param {
    lr_mult: 20
    decay_mult: 0
  }
  convolution_param {
    num_output: 3
    pad: 1
    kernel_size: 3
    stride: 1
  }
}
layer {
  name: "score_uncropped-R"
  type: "Python"
  bottom: "crop_info"
  bottom: "score-R"
  bottom: "data"
  top: "score_uncropped-R"
  python_param {
    module: "Uncrop"
    layer: "UncropLayer"
  }
}
layer {
  name: "loss1"
  type: "DiceLoss"
  bottom: "score"
  bottom: "label"
  top: "loss1"
  loss_weight: 0.333333
}
layer {
  name: "loss2"
  type: "DiceLoss"
  bottom: "score_uncropped-R"
  bottom: "label"
  top: "loss2"
  loss_weight: 0.666667
}
I0419 11:11:06.145182 30875 layer_factory.hpp:77] Creating layer data
I0419 11:11:06.146231 30875 net.cpp:84] Creating Layer data
I0419 11:11:06.146248 30875 net.cpp:380] data -> data
I0419 11:11:06.146268 30875 net.cpp:380] data -> label
I0419 11:11:06.146276 30875 net.cpp:380] data -> crop_margin
I0419 11:11:06.146283 30875 net.cpp:380] data -> crop_prob
I0419 11:11:06.146291 30875 net.cpp:380] data -> crop_sample_batch
I0419 11:11:06.243743 30875 net.cpp:122] Setting up data
I0419 11:11:06.243794 30875 net.cpp:129] Top shape: 1 3 512 512 (786432)
I0419 11:11:06.243801 30875 net.cpp:129] Top shape: 1 3 512 512 (786432)
I0419 11:11:06.243806 30875 net.cpp:129] Top shape: 1 (1)
I0419 11:11:06.243811 30875 net.cpp:129] Top shape: 1 (1)
I0419 11:11:06.243816 30875 net.cpp:129] Top shape: 1 (1)
I0419 11:11:06.243820 30875 net.cpp:137] Memory required for data: 6291468
I0419 11:11:06.243829 30875 layer_factory.hpp:77] Creating layer data_data_0_split
I0419 11:11:06.243858 30875 net.cpp:84] Creating Layer data_data_0_split
I0419 11:11:06.243865 30875 net.cpp:406] data_data_0_split <- data
I0419 11:11:06.243877 30875 net.cpp:380] data_data_0_split -> data_data_0_split_0
I0419 11:11:06.243891 30875 net.cpp:380] data_data_0_split -> data_data_0_split_1
I0419 11:11:06.243897 30875 net.cpp:380] data_data_0_split -> data_data_0_split_2
I0419 11:11:06.243904 30875 net.cpp:380] data_data_0_split -> data_data_0_split_3
I0419 11:11:06.243966 30875 net.cpp:122] Setting up data_data_0_split
I0419 11:11:06.243974 30875 net.cpp:129] Top shape: 1 3 512 512 (786432)
I0419 11:11:06.243980 30875 net.cpp:129] Top shape: 1 3 512 512 (786432)
I0419 11:11:06.243984 30875 net.cpp:129] Top shape: 1 3 512 512 (786432)
I0419 11:11:06.243989 30875 net.cpp:129] Top shape: 1 3 512 512 (786432)
I0419 11:11:06.243993 30875 net.cpp:137] Memory required for data: 18874380
I0419 11:11:06.243999 30875 layer_factory.hpp:77] Creating layer label_data_1_split
I0419 11:11:06.244005 30875 net.cpp:84] Creating Layer label_data_1_split
I0419 11:11:06.244010 30875 net.cpp:406] label_data_1_split <- label
I0419 11:11:06.244017 30875 net.cpp:380] label_data_1_split -> label_data_1_split_0
I0419 11:11:06.244024 30875 net.cpp:380] label_data_1_split -> label_data_1_split_1
I0419 11:11:06.244031 30875 net.cpp:380] label_data_1_split -> label_data_1_split_2
I0419 11:11:06.244071 30875 net.cpp:122] Setting up label_data_1_split
I0419 11:11:06.244092 30875 net.cpp:129] Top shape: 1 3 512 512 (786432)
I0419 11:11:06.244097 30875 net.cpp:129] Top shape: 1 3 512 512 (786432)
I0419 11:11:06.244102 30875 net.cpp:129] Top shape: 1 3 512 512 (786432)
I0419 11:11:06.244105 30875 net.cpp:137] Memory required for data: 28311564
I0419 11:11:06.244109 30875 layer_factory.hpp:77] Creating layer conv1_1
I0419 11:11:06.244127 30875 net.cpp:84] Creating Layer conv1_1
I0419 11:11:06.244132 30875 net.cpp:406] conv1_1 <- data_data_0_split_0
I0419 11:11:06.244140 30875 net.cpp:380] conv1_1 -> conv1_1
I0419 11:11:06.654812 30875 net.cpp:122] Setting up conv1_1
I0419 11:11:06.654865 30875 net.cpp:129] Top shape: 1 64 710 710 (32262400)
I0419 11:11:06.654873 30875 net.cpp:137] Memory required for data: 157361164
I0419 11:11:06.654908 30875 layer_factory.hpp:77] Creating layer relu1_1
I0419 11:11:06.654942 30875 net.cpp:84] Creating Layer relu1_1
I0419 11:11:06.654952 30875 net.cpp:406] relu1_1 <- conv1_1
I0419 11:11:06.654961 30875 net.cpp:367] relu1_1 -> conv1_1 (in-place)
I0419 11:11:06.655251 30875 net.cpp:122] Setting up relu1_1
I0419 11:11:06.655267 30875 net.cpp:129] Top shape: 1 64 710 710 (32262400)
I0419 11:11:06.655272 30875 net.cpp:137] Memory required for data: 286410764
I0419 11:11:06.655277 30875 layer_factory.hpp:77] Creating layer conv1_2
I0419 11:11:06.655293 30875 net.cpp:84] Creating Layer conv1_2
I0419 11:11:06.655299 30875 net.cpp:406] conv1_2 <- conv1_1
I0419 11:11:06.655308 30875 net.cpp:380] conv1_2 -> conv1_2
I0419 11:11:06.660989 30875 net.cpp:122] Setting up conv1_2
I0419 11:11:06.661013 30875 net.cpp:129] Top shape: 1 64 710 710 (32262400)
I0419 11:11:06.661026 30875 net.cpp:137] Memory required for data: 415460364
I0419 11:11:06.661041 30875 layer_factory.hpp:77] Creating layer relu1_2
I0419 11:11:06.661051 30875 net.cpp:84] Creating Layer relu1_2
I0419 11:11:06.661057 30875 net.cpp:406] relu1_2 <- conv1_2
I0419 11:11:06.661065 30875 net.cpp:367] relu1_2 -> conv1_2 (in-place)
I0419 11:11:06.661353 30875 net.cpp:122] Setting up relu1_2
I0419 11:11:06.661368 30875 net.cpp:129] Top shape: 1 64 710 710 (32262400)
I0419 11:11:06.661373 30875 net.cpp:137] Memory required for data: 544509964
I0419 11:11:06.661379 30875 layer_factory.hpp:77] Creating layer pool1
I0419 11:11:06.661391 30875 net.cpp:84] Creating Layer pool1
I0419 11:11:06.661396 30875 net.cpp:406] pool1 <- conv1_2
I0419 11:11:06.661404 30875 net.cpp:380] pool1 -> pool1
I0419 11:11:06.661478 30875 net.cpp:122] Setting up pool1
I0419 11:11:06.661489 30875 net.cpp:129] Top shape: 1 64 355 355 (8065600)
I0419 11:11:06.661494 30875 net.cpp:137] Memory required for data: 576772364
I0419 11:11:06.661499 30875 layer_factory.hpp:77] Creating layer conv2_1
I0419 11:11:06.661512 30875 net.cpp:84] Creating Layer conv2_1
I0419 11:11:06.661518 30875 net.cpp:406] conv2_1 <- pool1
I0419 11:11:06.661527 30875 net.cpp:380] conv2_1 -> conv2_1
I0419 11:11:06.668498 30875 net.cpp:122] Setting up conv2_1
I0419 11:11:06.668519 30875 net.cpp:129] Top shape: 1 128 355 355 (16131200)
I0419 11:11:06.668531 30875 net.cpp:137] Memory required for data: 641297164
I0419 11:11:06.668543 30875 layer_factory.hpp:77] Creating layer relu2_1
I0419 11:11:06.668551 30875 net.cpp:84] Creating Layer relu2_1
I0419 11:11:06.668556 30875 net.cpp:406] relu2_1 <- conv2_1
I0419 11:11:06.668563 30875 net.cpp:367] relu2_1 -> conv2_1 (in-place)
I0419 11:11:06.668786 30875 net.cpp:122] Setting up relu2_1
I0419 11:11:06.668797 30875 net.cpp:129] Top shape: 1 128 355 355 (16131200)
I0419 11:11:06.668802 30875 net.cpp:137] Memory required for data: 705821964
I0419 11:11:06.668807 30875 layer_factory.hpp:77] Creating layer conv2_2
I0419 11:11:06.668817 30875 net.cpp:84] Creating Layer conv2_2
I0419 11:11:06.668820 30875 net.cpp:406] conv2_2 <- conv2_1
I0419 11:11:06.668828 30875 net.cpp:380] conv2_2 -> conv2_2
I0419 11:11:06.670779 30875 net.cpp:122] Setting up conv2_2
I0419 11:11:06.670810 30875 net.cpp:129] Top shape: 1 128 355 355 (16131200)
I0419 11:11:06.670815 30875 net.cpp:137] Memory required for data: 770346764
I0419 11:11:06.670825 30875 layer_factory.hpp:77] Creating layer relu2_2
I0419 11:11:06.670833 30875 net.cpp:84] Creating Layer relu2_2
I0419 11:11:06.670838 30875 net.cpp:406] relu2_2 <- conv2_2
I0419 11:11:06.670845 30875 net.cpp:367] relu2_2 -> conv2_2 (in-place)
I0419 11:11:06.671062 30875 net.cpp:122] Setting up relu2_2
I0419 11:11:06.671074 30875 net.cpp:129] Top shape: 1 128 355 355 (16131200)
I0419 11:11:06.671078 30875 net.cpp:137] Memory required for data: 834871564
I0419 11:11:06.671083 30875 layer_factory.hpp:77] Creating layer pool2
I0419 11:11:06.671092 30875 net.cpp:84] Creating Layer pool2
I0419 11:11:06.671095 30875 net.cpp:406] pool2 <- conv2_2
I0419 11:11:06.671103 30875 net.cpp:380] pool2 -> pool2
I0419 11:11:06.671152 30875 net.cpp:122] Setting up pool2
I0419 11:11:06.671160 30875 net.cpp:129] Top shape: 1 128 178 178 (4055552)
I0419 11:11:06.671164 30875 net.cpp:137] Memory required for data: 851093772
I0419 11:11:06.671169 30875 layer_factory.hpp:77] Creating layer conv3_1
I0419 11:11:06.671177 30875 net.cpp:84] Creating Layer conv3_1
I0419 11:11:06.671182 30875 net.cpp:406] conv3_1 <- pool2
I0419 11:11:06.671188 30875 net.cpp:380] conv3_1 -> conv3_1
I0419 11:11:06.674748 30875 net.cpp:122] Setting up conv3_1
I0419 11:11:06.674770 30875 net.cpp:129] Top shape: 1 256 178 178 (8111104)
I0419 11:11:06.674777 30875 net.cpp:137] Memory required for data: 883538188
I0419 11:11:06.674793 30875 layer_factory.hpp:77] Creating layer relu3_1
I0419 11:11:06.674805 30875 net.cpp:84] Creating Layer relu3_1
I0419 11:11:06.674811 30875 net.cpp:406] relu3_1 <- conv3_1
I0419 11:11:06.674819 30875 net.cpp:367] relu3_1 -> conv3_1 (in-place)
I0419 11:11:06.675601 30875 net.cpp:122] Setting up relu3_1
I0419 11:11:06.675621 30875 net.cpp:129] Top shape: 1 256 178 178 (8111104)
I0419 11:11:06.675626 30875 net.cpp:137] Memory required for data: 915982604
I0419 11:11:06.675635 30875 layer_factory.hpp:77] Creating layer conv3_2
I0419 11:11:06.675650 30875 net.cpp:84] Creating Layer conv3_2
I0419 11:11:06.675657 30875 net.cpp:406] conv3_2 <- conv3_1
I0419 11:11:06.675669 30875 net.cpp:380] conv3_2 -> conv3_2
I0419 11:11:06.680096 30875 net.cpp:122] Setting up conv3_2
I0419 11:11:06.680119 30875 net.cpp:129] Top shape: 1 256 178 178 (8111104)
I0419 11:11:06.680131 30875 net.cpp:137] Memory required for data: 948427020
I0419 11:11:06.680142 30875 layer_factory.hpp:77] Creating layer relu3_2
I0419 11:11:06.680158 30875 net.cpp:84] Creating Layer relu3_2
I0419 11:11:06.680164 30875 net.cpp:406] relu3_2 <- conv3_2
I0419 11:11:06.680173 30875 net.cpp:367] relu3_2 -> conv3_2 (in-place)
I0419 11:11:06.680986 30875 net.cpp:122] Setting up relu3_2
I0419 11:11:06.681005 30875 net.cpp:129] Top shape: 1 256 178 178 (8111104)
I0419 11:11:06.681011 30875 net.cpp:137] Memory required for data: 980871436
I0419 11:11:06.681016 30875 layer_factory.hpp:77] Creating layer conv3_3
I0419 11:11:06.681031 30875 net.cpp:84] Creating Layer conv3_3
I0419 11:11:06.681038 30875 net.cpp:406] conv3_3 <- conv3_2
I0419 11:11:06.681047 30875 net.cpp:380] conv3_3 -> conv3_3
I0419 11:11:06.686643 30875 net.cpp:122] Setting up conv3_3
I0419 11:11:06.686663 30875 net.cpp:129] Top shape: 1 256 178 178 (8111104)
I0419 11:11:06.686668 30875 net.cpp:137] Memory required for data: 1013315852
I0419 11:11:06.686681 30875 layer_factory.hpp:77] Creating layer relu3_3
I0419 11:11:06.686688 30875 net.cpp:84] Creating Layer relu3_3
I0419 11:11:06.686693 30875 net.cpp:406] relu3_3 <- conv3_3
I0419 11:11:06.686703 30875 net.cpp:367] relu3_3 -> conv3_3 (in-place)
I0419 11:11:06.686955 30875 net.cpp:122] Setting up relu3_3
I0419 11:11:06.686970 30875 net.cpp:129] Top shape: 1 256 178 178 (8111104)
I0419 11:11:06.686975 30875 net.cpp:137] Memory required for data: 1045760268
I0419 11:11:06.686980 30875 layer_factory.hpp:77] Creating layer pool3
I0419 11:11:06.686986 30875 net.cpp:84] Creating Layer pool3
I0419 11:11:06.686991 30875 net.cpp:406] pool3 <- conv3_3
I0419 11:11:06.686998 30875 net.cpp:380] pool3 -> pool3
I0419 11:11:06.687057 30875 net.cpp:122] Setting up pool3
I0419 11:11:06.687065 30875 net.cpp:129] Top shape: 1 256 89 89 (2027776)
I0419 11:11:06.687069 30875 net.cpp:137] Memory required for data: 1053871372
I0419 11:11:06.687072 30875 layer_factory.hpp:77] Creating layer pool3_pool3_0_split
I0419 11:11:06.687079 30875 net.cpp:84] Creating Layer pool3_pool3_0_split
I0419 11:11:06.687084 30875 net.cpp:406] pool3_pool3_0_split <- pool3
I0419 11:11:06.687093 30875 net.cpp:380] pool3_pool3_0_split -> pool3_pool3_0_split_0
I0419 11:11:06.687100 30875 net.cpp:380] pool3_pool3_0_split -> pool3_pool3_0_split_1
I0419 11:11:06.687144 30875 net.cpp:122] Setting up pool3_pool3_0_split
I0419 11:11:06.687155 30875 net.cpp:129] Top shape: 1 256 89 89 (2027776)
I0419 11:11:06.687160 30875 net.cpp:129] Top shape: 1 256 89 89 (2027776)
I0419 11:11:06.687163 30875 net.cpp:137] Memory required for data: 1070093580
I0419 11:11:06.687167 30875 layer_factory.hpp:77] Creating layer conv4_1
I0419 11:11:06.687178 30875 net.cpp:84] Creating Layer conv4_1
I0419 11:11:06.687183 30875 net.cpp:406] conv4_1 <- pool3_pool3_0_split_0
I0419 11:11:06.687191 30875 net.cpp:380] conv4_1 -> conv4_1
I0419 11:11:06.701037 30875 net.cpp:122] Setting up conv4_1
I0419 11:11:06.701076 30875 net.cpp:129] Top shape: 1 512 89 89 (4055552)
I0419 11:11:06.701081 30875 net.cpp:137] Memory required for data: 1086315788
I0419 11:11:06.701092 30875 layer_factory.hpp:77] Creating layer relu4_1
I0419 11:11:06.701102 30875 net.cpp:84] Creating Layer relu4_1
I0419 11:11:06.701108 30875 net.cpp:406] relu4_1 <- conv4_1
I0419 11:11:06.701117 30875 net.cpp:367] relu4_1 -> conv4_1 (in-place)
I0419 11:11:06.701385 30875 net.cpp:122] Setting up relu4_1
I0419 11:11:06.701398 30875 net.cpp:129] Top shape: 1 512 89 89 (4055552)
I0419 11:11:06.701402 30875 net.cpp:137] Memory required for data: 1102537996
I0419 11:11:06.701407 30875 layer_factory.hpp:77] Creating layer conv4_2
I0419 11:11:06.701422 30875 net.cpp:84] Creating Layer conv4_2
I0419 11:11:06.701428 30875 net.cpp:406] conv4_2 <- conv4_1
I0419 11:11:06.701436 30875 net.cpp:380] conv4_2 -> conv4_2
I0419 11:11:06.712309 30875 net.cpp:122] Setting up conv4_2
I0419 11:11:06.712343 30875 net.cpp:129] Top shape: 1 512 89 89 (4055552)
I0419 11:11:06.712348 30875 net.cpp:137] Memory required for data: 1118760204
I0419 11:11:06.712365 30875 layer_factory.hpp:77] Creating layer relu4_2
I0419 11:11:06.712374 30875 net.cpp:84] Creating Layer relu4_2
I0419 11:11:06.712379 30875 net.cpp:406] relu4_2 <- conv4_2
I0419 11:11:06.712388 30875 net.cpp:367] relu4_2 -> conv4_2 (in-place)
I0419 11:11:06.712641 30875 net.cpp:122] Setting up relu4_2
I0419 11:11:06.712652 30875 net.cpp:129] Top shape: 1 512 89 89 (4055552)
I0419 11:11:06.712656 30875 net.cpp:137] Memory required for data: 1134982412
I0419 11:11:06.712661 30875 layer_factory.hpp:77] Creating layer conv4_3
I0419 11:11:06.712674 30875 net.cpp:84] Creating Layer conv4_3
I0419 11:11:06.712679 30875 net.cpp:406] conv4_3 <- conv4_2
I0419 11:11:06.712687 30875 net.cpp:380] conv4_3 -> conv4_3
I0419 11:11:06.724419 30875 net.cpp:122] Setting up conv4_3
I0419 11:11:06.724469 30875 net.cpp:129] Top shape: 1 512 89 89 (4055552)
I0419 11:11:06.724475 30875 net.cpp:137] Memory required for data: 1151204620
I0419 11:11:06.724488 30875 layer_factory.hpp:77] Creating layer relu4_3
I0419 11:11:06.724503 30875 net.cpp:84] Creating Layer relu4_3
I0419 11:11:06.724511 30875 net.cpp:406] relu4_3 <- conv4_3
I0419 11:11:06.724531 30875 net.cpp:367] relu4_3 -> conv4_3 (in-place)
I0419 11:11:06.724792 30875 net.cpp:122] Setting up relu4_3
I0419 11:11:06.724809 30875 net.cpp:129] Top shape: 1 512 89 89 (4055552)
I0419 11:11:06.724814 30875 net.cpp:137] Memory required for data: 1167426828
I0419 11:11:06.724819 30875 layer_factory.hpp:77] Creating layer pool4
I0419 11:11:06.724828 30875 net.cpp:84] Creating Layer pool4
I0419 11:11:06.724833 30875 net.cpp:406] pool4 <- conv4_3
I0419 11:11:06.724841 30875 net.cpp:380] pool4 -> pool4
I0419 11:11:06.724907 30875 net.cpp:122] Setting up pool4
I0419 11:11:06.724917 30875 net.cpp:129] Top shape: 1 512 45 45 (1036800)
I0419 11:11:06.724921 30875 net.cpp:137] Memory required for data: 1171574028
I0419 11:11:06.724925 30875 layer_factory.hpp:77] Creating layer pool4_pool4_0_split
I0419 11:11:06.724933 30875 net.cpp:84] Creating Layer pool4_pool4_0_split
I0419 11:11:06.724937 30875 net.cpp:406] pool4_pool4_0_split <- pool4
I0419 11:11:06.724946 30875 net.cpp:380] pool4_pool4_0_split -> pool4_pool4_0_split_0
I0419 11:11:06.724953 30875 net.cpp:380] pool4_pool4_0_split -> pool4_pool4_0_split_1
I0419 11:11:06.724999 30875 net.cpp:122] Setting up pool4_pool4_0_split
I0419 11:11:06.725008 30875 net.cpp:129] Top shape: 1 512 45 45 (1036800)
I0419 11:11:06.725014 30875 net.cpp:129] Top shape: 1 512 45 45 (1036800)
I0419 11:11:06.725018 30875 net.cpp:137] Memory required for data: 1179868428
I0419 11:11:06.725023 30875 layer_factory.hpp:77] Creating layer conv5_1
I0419 11:11:06.725040 30875 net.cpp:84] Creating Layer conv5_1
I0419 11:11:06.725045 30875 net.cpp:406] conv5_1 <- pool4_pool4_0_split_0
I0419 11:11:06.725052 30875 net.cpp:380] conv5_1 -> conv5_1
I0419 11:11:06.734474 30875 net.cpp:122] Setting up conv5_1
I0419 11:11:06.734510 30875 net.cpp:129] Top shape: 1 512 45 45 (1036800)
I0419 11:11:06.734515 30875 net.cpp:137] Memory required for data: 1184015628
I0419 11:11:06.734525 30875 layer_factory.hpp:77] Creating layer relu5_1
I0419 11:11:06.734552 30875 net.cpp:84] Creating Layer relu5_1
I0419 11:11:06.734558 30875 net.cpp:406] relu5_1 <- conv5_1
I0419 11:11:06.734566 30875 net.cpp:367] relu5_1 -> conv5_1 (in-place)
I0419 11:11:06.735285 30875 net.cpp:122] Setting up relu5_1
I0419 11:11:06.735302 30875 net.cpp:129] Top shape: 1 512 45 45 (1036800)
I0419 11:11:06.735317 30875 net.cpp:137] Memory required for data: 1188162828
I0419 11:11:06.735322 30875 layer_factory.hpp:77] Creating layer conv5_2
I0419 11:11:06.735337 30875 net.cpp:84] Creating Layer conv5_2
I0419 11:11:06.735342 30875 net.cpp:406] conv5_2 <- conv5_1
I0419 11:11:06.735350 30875 net.cpp:380] conv5_2 -> conv5_2
I0419 11:11:06.743979 30875 net.cpp:122] Setting up conv5_2
I0419 11:11:06.744004 30875 net.cpp:129] Top shape: 1 512 45 45 (1036800)
I0419 11:11:06.744019 30875 net.cpp:137] Memory required for data: 1192310028
I0419 11:11:06.744029 30875 layer_factory.hpp:77] Creating layer relu5_2
I0419 11:11:06.744050 30875 net.cpp:84] Creating Layer relu5_2
I0419 11:11:06.744055 30875 net.cpp:406] relu5_2 <- conv5_2
I0419 11:11:06.744063 30875 net.cpp:367] relu5_2 -> conv5_2 (in-place)
I0419 11:11:06.744832 30875 net.cpp:122] Setting up relu5_2
I0419 11:11:06.744849 30875 net.cpp:129] Top shape: 1 512 45 45 (1036800)
I0419 11:11:06.744854 30875 net.cpp:137] Memory required for data: 1196457228
I0419 11:11:06.744863 30875 layer_factory.hpp:77] Creating layer conv5_3
I0419 11:11:06.744877 30875 net.cpp:84] Creating Layer conv5_3
I0419 11:11:06.744884 30875 net.cpp:406] conv5_3 <- conv5_2
I0419 11:11:06.744892 30875 net.cpp:380] conv5_3 -> conv5_3
I0419 11:11:06.760444 30875 net.cpp:122] Setting up conv5_3
I0419 11:11:06.760500 30875 net.cpp:129] Top shape: 1 512 45 45 (1036800)
I0419 11:11:06.760509 30875 net.cpp:137] Memory required for data: 1200604428
I0419 11:11:06.760525 30875 layer_factory.hpp:77] Creating layer relu5_3
I0419 11:11:06.760541 30875 net.cpp:84] Creating Layer relu5_3
I0419 11:11:06.760560 30875 net.cpp:406] relu5_3 <- conv5_3
I0419 11:11:06.760576 30875 net.cpp:367] relu5_3 -> conv5_3 (in-place)
I0419 11:11:06.760992 30875 net.cpp:122] Setting up relu5_3
I0419 11:11:06.761009 30875 net.cpp:129] Top shape: 1 512 45 45 (1036800)
I0419 11:11:06.761027 30875 net.cpp:137] Memory required for data: 1204751628
I0419 11:11:06.761034 30875 layer_factory.hpp:77] Creating layer pool5
I0419 11:11:06.761065 30875 net.cpp:84] Creating Layer pool5
I0419 11:11:06.761072 30875 net.cpp:406] pool5 <- conv5_3
I0419 11:11:06.761096 30875 net.cpp:380] pool5 -> pool5
I0419 11:11:06.761188 30875 net.cpp:122] Setting up pool5
I0419 11:11:06.761214 30875 net.cpp:129] Top shape: 1 512 23 23 (270848)
I0419 11:11:06.761220 30875 net.cpp:137] Memory required for data: 1205835020
I0419 11:11:06.761227 30875 layer_factory.hpp:77] Creating layer fc6
I0419 11:11:06.761246 30875 net.cpp:84] Creating Layer fc6
I0419 11:11:06.761255 30875 net.cpp:406] fc6 <- pool5
I0419 11:11:06.761265 30875 net.cpp:380] fc6 -> fc6
I0419 11:11:07.101182 30875 net.cpp:122] Setting up fc6
I0419 11:11:07.101238 30875 net.cpp:129] Top shape: 1 4096 17 17 (1183744)
I0419 11:11:07.101243 30875 net.cpp:137] Memory required for data: 1210569996
I0419 11:11:07.101264 30875 layer_factory.hpp:77] Creating layer relu6
I0419 11:11:07.101289 30875 net.cpp:84] Creating Layer relu6
I0419 11:11:07.101296 30875 net.cpp:406] relu6 <- fc6
I0419 11:11:07.101308 30875 net.cpp:367] relu6 -> fc6 (in-place)
I0419 11:11:07.101554 30875 net.cpp:122] Setting up relu6
I0419 11:11:07.101567 30875 net.cpp:129] Top shape: 1 4096 17 17 (1183744)
I0419 11:11:07.101570 30875 net.cpp:137] Memory required for data: 1215304972
I0419 11:11:07.101575 30875 layer_factory.hpp:77] Creating layer drop6
I0419 11:11:07.101594 30875 net.cpp:84] Creating Layer drop6
I0419 11:11:07.101599 30875 net.cpp:406] drop6 <- fc6
I0419 11:11:07.101605 30875 net.cpp:367] drop6 -> fc6 (in-place)
I0419 11:11:07.101645 30875 net.cpp:122] Setting up drop6
I0419 11:11:07.101655 30875 net.cpp:129] Top shape: 1 4096 17 17 (1183744)
I0419 11:11:07.101658 30875 net.cpp:137] Memory required for data: 1220039948
I0419 11:11:07.101663 30875 layer_factory.hpp:77] Creating layer fc7
I0419 11:11:07.101688 30875 net.cpp:84] Creating Layer fc7
I0419 11:11:07.101692 30875 net.cpp:406] fc7 <- fc6
I0419 11:11:07.101699 30875 net.cpp:380] fc7 -> fc7
I0419 11:11:07.162093 30875 net.cpp:122] Setting up fc7
I0419 11:11:07.162143 30875 net.cpp:129] Top shape: 1 4096 17 17 (1183744)
I0419 11:11:07.162149 30875 net.cpp:137] Memory required for data: 1224774924
I0419 11:11:07.162171 30875 layer_factory.hpp:77] Creating layer relu7
I0419 11:11:07.162199 30875 net.cpp:84] Creating Layer relu7
I0419 11:11:07.162205 30875 net.cpp:406] relu7 <- fc7
I0419 11:11:07.162214 30875 net.cpp:367] relu7 -> fc7 (in-place)
I0419 11:11:07.162909 30875 net.cpp:122] Setting up relu7
I0419 11:11:07.162928 30875 net.cpp:129] Top shape: 1 4096 17 17 (1183744)
I0419 11:11:07.162943 30875 net.cpp:137] Memory required for data: 1229509900
I0419 11:11:07.162948 30875 layer_factory.hpp:77] Creating layer drop7
I0419 11:11:07.162961 30875 net.cpp:84] Creating Layer drop7
I0419 11:11:07.162966 30875 net.cpp:406] drop7 <- fc7
I0419 11:11:07.162971 30875 net.cpp:367] drop7 -> fc7 (in-place)
I0419 11:11:07.163027 30875 net.cpp:122] Setting up drop7
I0419 11:11:07.163033 30875 net.cpp:129] Top shape: 1 4096 17 17 (1183744)
I0419 11:11:07.163036 30875 net.cpp:137] Memory required for data: 1234244876
I0419 11:11:07.163050 30875 layer_factory.hpp:77] Creating layer score_fr-new
I0419 11:11:07.163064 30875 net.cpp:84] Creating Layer score_fr-new
I0419 11:11:07.163069 30875 net.cpp:406] score_fr-new <- fc7
I0419 11:11:07.163079 30875 net.cpp:380] score_fr-new -> score_fr-new
I0419 11:11:07.165024 30875 net.cpp:122] Setting up score_fr-new
I0419 11:11:07.165042 30875 net.cpp:129] Top shape: 1 3 17 17 (867)
I0419 11:11:07.165057 30875 net.cpp:137] Memory required for data: 1234248344
I0419 11:11:07.165066 30875 layer_factory.hpp:77] Creating layer upscore2-new
I0419 11:11:07.165086 30875 net.cpp:84] Creating Layer upscore2-new
I0419 11:11:07.165096 30875 net.cpp:406] upscore2-new <- score_fr-new
I0419 11:11:07.165102 30875 net.cpp:380] upscore2-new -> upscore2-new
I0419 11:11:07.165380 30875 net.cpp:122] Setting up upscore2-new
I0419 11:11:07.165390 30875 net.cpp:129] Top shape: 1 3 36 36 (3888)
I0419 11:11:07.165395 30875 net.cpp:137] Memory required for data: 1234263896
I0419 11:11:07.165416 30875 layer_factory.hpp:77] Creating layer upscore2-new_upscore2-new_0_split
I0419 11:11:07.165424 30875 net.cpp:84] Creating Layer upscore2-new_upscore2-new_0_split
I0419 11:11:07.165429 30875 net.cpp:406] upscore2-new_upscore2-new_0_split <- upscore2-new
I0419 11:11:07.165436 30875 net.cpp:380] upscore2-new_upscore2-new_0_split -> upscore2-new_upscore2-new_0_split_0
I0419 11:11:07.165443 30875 net.cpp:380] upscore2-new_upscore2-new_0_split -> upscore2-new_upscore2-new_0_split_1
I0419 11:11:07.165489 30875 net.cpp:122] Setting up upscore2-new_upscore2-new_0_split
I0419 11:11:07.165500 30875 net.cpp:129] Top shape: 1 3 36 36 (3888)
I0419 11:11:07.165505 30875 net.cpp:129] Top shape: 1 3 36 36 (3888)
I0419 11:11:07.165508 30875 net.cpp:137] Memory required for data: 1234295000
I0419 11:11:07.165513 30875 layer_factory.hpp:77] Creating layer score_pool4-new
I0419 11:11:07.165522 30875 net.cpp:84] Creating Layer score_pool4-new
I0419 11:11:07.165526 30875 net.cpp:406] score_pool4-new <- pool4_pool4_0_split_1
I0419 11:11:07.165535 30875 net.cpp:380] score_pool4-new -> score_pool4-new
I0419 11:11:07.167588 30875 net.cpp:122] Setting up score_pool4-new
I0419 11:11:07.167608 30875 net.cpp:129] Top shape: 1 3 45 45 (6075)
I0419 11:11:07.167620 30875 net.cpp:137] Memory required for data: 1234319300
I0419 11:11:07.167630 30875 layer_factory.hpp:77] Creating layer score_pool4c
I0419 11:11:07.167644 30875 net.cpp:84] Creating Layer score_pool4c
I0419 11:11:07.167649 30875 net.cpp:406] score_pool4c <- score_pool4-new
I0419 11:11:07.167655 30875 net.cpp:406] score_pool4c <- upscore2-new_upscore2-new_0_split_0
I0419 11:11:07.167677 30875 net.cpp:380] score_pool4c -> score_pool4c
I0419 11:11:07.167721 30875 net.cpp:122] Setting up score_pool4c
I0419 11:11:07.167727 30875 net.cpp:129] Top shape: 1 3 36 36 (3888)
I0419 11:11:07.167731 30875 net.cpp:137] Memory required for data: 1234334852
I0419 11:11:07.167734 30875 layer_factory.hpp:77] Creating layer fuse_pool4
I0419 11:11:07.167743 30875 net.cpp:84] Creating Layer fuse_pool4
I0419 11:11:07.167748 30875 net.cpp:406] fuse_pool4 <- upscore2-new_upscore2-new_0_split_1
I0419 11:11:07.167753 30875 net.cpp:406] fuse_pool4 <- score_pool4c
I0419 11:11:07.167759 30875 net.cpp:380] fuse_pool4 -> fuse_pool4
I0419 11:11:07.167794 30875 net.cpp:122] Setting up fuse_pool4
I0419 11:11:07.167800 30875 net.cpp:129] Top shape: 1 3 36 36 (3888)
I0419 11:11:07.167804 30875 net.cpp:137] Memory required for data: 1234350404
I0419 11:11:07.167807 30875 layer_factory.hpp:77] Creating layer upscore_pool4-new
I0419 11:11:07.167817 30875 net.cpp:84] Creating Layer upscore_pool4-new
I0419 11:11:07.167822 30875 net.cpp:406] upscore_pool4-new <- fuse_pool4
I0419 11:11:07.167832 30875 net.cpp:380] upscore_pool4-new -> upscore_pool4-new
I0419 11:11:07.168076 30875 net.cpp:122] Setting up upscore_pool4-new
I0419 11:11:07.168087 30875 net.cpp:129] Top shape: 1 3 74 74 (16428)
I0419 11:11:07.168090 30875 net.cpp:137] Memory required for data: 1234416116
I0419 11:11:07.168097 30875 layer_factory.hpp:77] Creating layer upscore_pool4-new_upscore_pool4-new_0_split
I0419 11:11:07.168102 30875 net.cpp:84] Creating Layer upscore_pool4-new_upscore_pool4-new_0_split
I0419 11:11:07.168107 30875 net.cpp:406] upscore_pool4-new_upscore_pool4-new_0_split <- upscore_pool4-new
I0419 11:11:07.168112 30875 net.cpp:380] upscore_pool4-new_upscore_pool4-new_0_split -> upscore_pool4-new_upscore_pool4-new_0_split_0
I0419 11:11:07.168120 30875 net.cpp:380] upscore_pool4-new_upscore_pool4-new_0_split -> upscore_pool4-new_upscore_pool4-new_0_split_1
I0419 11:11:07.168162 30875 net.cpp:122] Setting up upscore_pool4-new_upscore_pool4-new_0_split
I0419 11:11:07.168170 30875 net.cpp:129] Top shape: 1 3 74 74 (16428)
I0419 11:11:07.168175 30875 net.cpp:129] Top shape: 1 3 74 74 (16428)
I0419 11:11:07.168179 30875 net.cpp:137] Memory required for data: 1234547540
I0419 11:11:07.168184 30875 layer_factory.hpp:77] Creating layer score_pool3-new
I0419 11:11:07.168195 30875 net.cpp:84] Creating Layer score_pool3-new
I0419 11:11:07.168198 30875 net.cpp:406] score_pool3-new <- pool3_pool3_0_split_1
I0419 11:11:07.168207 30875 net.cpp:380] score_pool3-new -> score_pool3-new
I0419 11:11:07.169729 30875 net.cpp:122] Setting up score_pool3-new
I0419 11:11:07.169746 30875 net.cpp:129] Top shape: 1 3 89 89 (23763)
I0419 11:11:07.169750 30875 net.cpp:137] Memory required for data: 1234642592
I0419 11:11:07.169764 30875 layer_factory.hpp:77] Creating layer score_pool3c
I0419 11:11:07.169776 30875 net.cpp:84] Creating Layer score_pool3c
I0419 11:11:07.169782 30875 net.cpp:406] score_pool3c <- score_pool3-new
I0419 11:11:07.169787 30875 net.cpp:406] score_pool3c <- upscore_pool4-new_upscore_pool4-new_0_split_0
I0419 11:11:07.169796 30875 net.cpp:380] score_pool3c -> score_pool3c
I0419 11:11:07.169844 30875 net.cpp:122] Setting up score_pool3c
I0419 11:11:07.169850 30875 net.cpp:129] Top shape: 1 3 74 74 (16428)
I0419 11:11:07.169854 30875 net.cpp:137] Memory required for data: 1234708304
I0419 11:11:07.169857 30875 layer_factory.hpp:77] Creating layer fuse_pool3
I0419 11:11:07.169867 30875 net.cpp:84] Creating Layer fuse_pool3
I0419 11:11:07.169872 30875 net.cpp:406] fuse_pool3 <- upscore_pool4-new_upscore_pool4-new_0_split_1
I0419 11:11:07.169876 30875 net.cpp:406] fuse_pool3 <- score_pool3c
I0419 11:11:07.169883 30875 net.cpp:380] fuse_pool3 -> fuse_pool3
I0419 11:11:07.169914 30875 net.cpp:122] Setting up fuse_pool3
I0419 11:11:07.169919 30875 net.cpp:129] Top shape: 1 3 74 74 (16428)
I0419 11:11:07.169924 30875 net.cpp:137] Memory required for data: 1234774016
I0419 11:11:07.169926 30875 layer_factory.hpp:77] Creating layer upscore8-new
I0419 11:11:07.169936 30875 net.cpp:84] Creating Layer upscore8-new
I0419 11:11:07.169940 30875 net.cpp:406] upscore8-new <- fuse_pool3
I0419 11:11:07.169946 30875 net.cpp:380] upscore8-new -> upscore8-new
I0419 11:11:07.170217 30875 net.cpp:122] Setting up upscore8-new
I0419 11:11:07.170228 30875 net.cpp:129] Top shape: 1 3 600 600 (1080000)
I0419 11:11:07.170233 30875 net.cpp:137] Memory required for data: 1239094016
I0419 11:11:07.170240 30875 layer_factory.hpp:77] Creating layer upscore8_cropped
I0419 11:11:07.170248 30875 net.cpp:84] Creating Layer upscore8_cropped
I0419 11:11:07.170253 30875 net.cpp:406] upscore8_cropped <- upscore8-new
I0419 11:11:07.170259 30875 net.cpp:406] upscore8_cropped <- data_data_0_split_1
I0419 11:11:07.170265 30875 net.cpp:380] upscore8_cropped -> upscore8_cropped
I0419 11:11:07.170296 30875 net.cpp:122] Setting up upscore8_cropped
I0419 11:11:07.170303 30875 net.cpp:129] Top shape: 1 3 512 512 (786432)
I0419 11:11:07.170306 30875 net.cpp:137] Memory required for data: 1242239744
I0419 11:11:07.170310 30875 layer_factory.hpp:77] Creating layer score
I0419 11:11:07.170320 30875 net.cpp:84] Creating Layer score
I0419 11:11:07.170325 30875 net.cpp:406] score <- upscore8_cropped
I0419 11:11:07.170331 30875 net.cpp:380] score -> score
I0419 11:11:07.175516 30875 net.cpp:122] Setting up score
I0419 11:11:07.175536 30875 net.cpp:129] Top shape: 1 3 512 512 (786432)
I0419 11:11:07.175541 30875 net.cpp:137] Memory required for data: 1245385472
I0419 11:11:07.175554 30875 layer_factory.hpp:77] Creating layer score_score_0_split
I0419 11:11:07.175565 30875 net.cpp:84] Creating Layer score_score_0_split
I0419 11:11:07.175570 30875 net.cpp:406] score_score_0_split <- score
I0419 11:11:07.175577 30875 net.cpp:380] score_score_0_split -> score_score_0_split_0
I0419 11:11:07.175586 30875 net.cpp:380] score_score_0_split -> score_score_0_split_1
I0419 11:11:07.175660 30875 net.cpp:122] Setting up score_score_0_split
I0419 11:11:07.175668 30875 net.cpp:129] Top shape: 1 3 512 512 (786432)
I0419 11:11:07.175673 30875 net.cpp:129] Top shape: 1 3 512 512 (786432)
I0419 11:11:07.175675 30875 net.cpp:137] Memory required for data: 1251676928
I0419 11:11:07.175679 30875 layer_factory.hpp:77] Creating layer prob
I0419 11:11:07.175686 30875 net.cpp:84] Creating Layer prob
I0419 11:11:07.175691 30875 net.cpp:406] prob <- score_score_0_split_0
I0419 11:11:07.175699 30875 net.cpp:380] prob -> prob
I0419 11:11:07.175977 30875 net.cpp:122] Setting up prob
I0419 11:11:07.175992 30875 net.cpp:129] Top shape: 1 3 512 512 (786432)
I0419 11:11:07.175997 30875 net.cpp:137] Memory required for data: 1254822656
I0419 11:11:07.176002 30875 layer_factory.hpp:77] Creating layer prob_prob_0_split
I0419 11:11:07.176010 30875 net.cpp:84] Creating Layer prob_prob_0_split
I0419 11:11:07.176015 30875 net.cpp:406] prob_prob_0_split <- prob
I0419 11:11:07.176025 30875 net.cpp:380] prob_prob_0_split -> prob_prob_0_split_0
I0419 11:11:07.176033 30875 net.cpp:380] prob_prob_0_split -> prob_prob_0_split_1
I0419 11:11:07.176079 30875 net.cpp:122] Setting up prob_prob_0_split
I0419 11:11:07.176087 30875 net.cpp:129] Top shape: 1 3 512 512 (786432)
I0419 11:11:07.176095 30875 net.cpp:129] Top shape: 1 3 512 512 (786432)
I0419 11:11:07.176100 30875 net.cpp:137] Memory required for data: 1261114112
I0419 11:11:07.176103 30875 layer_factory.hpp:77] Creating layer saliency
I0419 11:11:07.176113 30875 net.cpp:84] Creating Layer saliency
I0419 11:11:07.176118 30875 net.cpp:406] saliency <- prob_prob_0_split_0
I0419 11:11:07.176127 30875 net.cpp:380] saliency -> saliency
I0419 11:11:07.178336 30875 net.cpp:122] Setting up saliency
I0419 11:11:07.178354 30875 net.cpp:129] Top shape: 1 3 512 512 (786432)
I0419 11:11:07.178369 30875 net.cpp:137] Memory required for data: 1264259840
I0419 11:11:07.178378 30875 layer_factory.hpp:77] Creating layer saliency_data
I0419 11:11:07.178390 30875 net.cpp:84] Creating Layer saliency_data
I0419 11:11:07.178395 30875 net.cpp:406] saliency_data <- data_data_0_split_2
I0419 11:11:07.178400 30875 net.cpp:406] saliency_data <- saliency
I0419 11:11:07.178407 30875 net.cpp:380] saliency_data -> saliency_data
I0419 11:11:07.178462 30875 net.cpp:122] Setting up saliency_data
I0419 11:11:07.178468 30875 net.cpp:129] Top shape: 1 3 512 512 (786432)
I0419 11:11:07.178472 30875 net.cpp:137] Memory required for data: 1267405568
I0419 11:11:07.178475 30875 layer_factory.hpp:77] Creating layer crop
I0419 11:11:07.179324 30875 net.cpp:84] Creating Layer crop
I0419 11:11:07.179339 30875 net.cpp:406] crop <- prob_prob_0_split_1
I0419 11:11:07.179358 30875 net.cpp:406] crop <- saliency_data
I0419 11:11:07.179368 30875 net.cpp:406] crop <- crop_margin
I0419 11:11:07.179374 30875 net.cpp:406] crop <- crop_prob
I0419 11:11:07.179380 30875 net.cpp:406] crop <- crop_sample_batch
I0419 11:11:07.179386 30875 net.cpp:406] crop <- label_data_1_split_0
I0419 11:11:07.179395 30875 net.cpp:380] crop -> data-R
I0419 11:11:07.179416 30875 net.cpp:380] crop -> crop_info
I0419 11:11:07.198838 30875 net.cpp:122] Setting up crop
I0419 11:11:07.198892 30875 net.cpp:129] Top shape: 1 3 512 512 (786432)
I0419 11:11:07.198899 30875 net.cpp:129] Top shape: 1 2 4 (8)
I0419 11:11:07.198904 30875 net.cpp:137] Memory required for data: 1270551328
I0419 11:11:07.198921 30875 layer_factory.hpp:77] Creating layer data-R_crop_0_split
I0419 11:11:07.198935 30875 net.cpp:84] Creating Layer data-R_crop_0_split
I0419 11:11:07.198940 30875 net.cpp:406] data-R_crop_0_split <- data-R
I0419 11:11:07.198959 30875 net.cpp:380] data-R_crop_0_split -> data-R_crop_0_split_0
I0419 11:11:07.198972 30875 net.cpp:380] data-R_crop_0_split -> data-R_crop_0_split_1
I0419 11:11:07.199033 30875 net.cpp:122] Setting up data-R_crop_0_split
I0419 11:11:07.199055 30875 net.cpp:129] Top shape: 1 3 512 512 (786432)
I0419 11:11:07.199060 30875 net.cpp:129] Top shape: 1 3 512 512 (786432)
I0419 11:11:07.199064 30875 net.cpp:137] Memory required for data: 1276842784
I0419 11:11:07.199069 30875 layer_factory.hpp:77] Creating layer conv1_1-R
I0419 11:11:07.199084 30875 net.cpp:84] Creating Layer conv1_1-R
I0419 11:11:07.199088 30875 net.cpp:406] conv1_1-R <- data-R_crop_0_split_0
I0419 11:11:07.199120 30875 net.cpp:380] conv1_1-R -> conv1_1-R
I0419 11:11:07.203627 30875 net.cpp:122] Setting up conv1_1-R
I0419 11:11:07.203670 30875 net.cpp:129] Top shape: 1 64 710 710 (32262400)
I0419 11:11:07.203675 30875 net.cpp:137] Memory required for data: 1405892384
I0419 11:11:07.203699 30875 layer_factory.hpp:77] Creating layer relu1_1-R
I0419 11:11:07.203754 30875 net.cpp:84] Creating Layer relu1_1-R
I0419 11:11:07.203761 30875 net.cpp:406] relu1_1-R <- conv1_1-R
I0419 11:11:07.203770 30875 net.cpp:367] relu1_1-R -> conv1_1-R (in-place)
I0419 11:11:07.204140 30875 net.cpp:122] Setting up relu1_1-R
I0419 11:11:07.204154 30875 net.cpp:129] Top shape: 1 64 710 710 (32262400)
I0419 11:11:07.204159 30875 net.cpp:137] Memory required for data: 1534941984
I0419 11:11:07.204172 30875 layer_factory.hpp:77] Creating layer conv1_2-R
I0419 11:11:07.204190 30875 net.cpp:84] Creating Layer conv1_2-R
I0419 11:11:07.204196 30875 net.cpp:406] conv1_2-R <- conv1_1-R
I0419 11:11:07.204205 30875 net.cpp:380] conv1_2-R -> conv1_2-R
I0419 11:11:07.209102 30875 net.cpp:122] Setting up conv1_2-R
I0419 11:11:07.209146 30875 net.cpp:129] Top shape: 1 64 710 710 (32262400)
I0419 11:11:07.209153 30875 net.cpp:137] Memory required for data: 1663991584
I0419 11:11:07.209172 30875 layer_factory.hpp:77] Creating layer relu1_2-R
I0419 11:11:07.209185 30875 net.cpp:84] Creating Layer relu1_2-R
I0419 11:11:07.209194 30875 net.cpp:406] relu1_2-R <- conv1_2-R
I0419 11:11:07.209209 30875 net.cpp:367] relu1_2-R -> conv1_2-R (in-place)
I0419 11:11:07.209641 30875 net.cpp:122] Setting up relu1_2-R
I0419 11:11:07.209661 30875 net.cpp:129] Top shape: 1 64 710 710 (32262400)
I0419 11:11:07.209676 30875 net.cpp:137] Memory required for data: 1793041184
I0419 11:11:07.209683 30875 layer_factory.hpp:77] Creating layer pool1-R
I0419 11:11:07.209700 30875 net.cpp:84] Creating Layer pool1-R
I0419 11:11:07.209708 30875 net.cpp:406] pool1-R <- conv1_2-R
I0419 11:11:07.209729 30875 net.cpp:380] pool1-R -> pool1-R
I0419 11:11:07.209830 30875 net.cpp:122] Setting up pool1-R
I0419 11:11:07.209846 30875 net.cpp:129] Top shape: 1 64 355 355 (8065600)
I0419 11:11:07.209852 30875 net.cpp:137] Memory required for data: 1825303584
I0419 11:11:07.209859 30875 layer_factory.hpp:77] Creating layer conv2_1-R
I0419 11:11:07.209878 30875 net.cpp:84] Creating Layer conv2_1-R
I0419 11:11:07.209885 30875 net.cpp:406] conv2_1-R <- pool1-R
I0419 11:11:07.209900 30875 net.cpp:380] conv2_1-R -> conv2_1-R
I0419 11:11:07.214915 30875 net.cpp:122] Setting up conv2_1-R
I0419 11:11:07.214959 30875 net.cpp:129] Top shape: 1 128 355 355 (16131200)
I0419 11:11:07.214968 30875 net.cpp:137] Memory required for data: 1889828384
I0419 11:11:07.214998 30875 layer_factory.hpp:77] Creating layer relu2_1-R
I0419 11:11:07.215019 30875 net.cpp:84] Creating Layer relu2_1-R
I0419 11:11:07.215029 30875 net.cpp:406] relu2_1-R <- conv2_1-R
I0419 11:11:07.215040 30875 net.cpp:367] relu2_1-R -> conv2_1-R (in-place)
I0419 11:11:07.215471 30875 net.cpp:122] Setting up relu2_1-R
I0419 11:11:07.215505 30875 net.cpp:129] Top shape: 1 128 355 355 (16131200)
I0419 11:11:07.215513 30875 net.cpp:137] Memory required for data: 1954353184
I0419 11:11:07.215523 30875 layer_factory.hpp:77] Creating layer conv2_2-R
I0419 11:11:07.215539 30875 net.cpp:84] Creating Layer conv2_2-R
I0419 11:11:07.215546 30875 net.cpp:406] conv2_2-R <- conv2_1-R
I0419 11:11:07.215562 30875 net.cpp:380] conv2_2-R -> conv2_2-R
I0419 11:11:07.220425 30875 net.cpp:122] Setting up conv2_2-R
I0419 11:11:07.220458 30875 net.cpp:129] Top shape: 1 128 355 355 (16131200)
I0419 11:11:07.220463 30875 net.cpp:137] Memory required for data: 2018877984
I0419 11:11:07.220474 30875 layer_factory.hpp:77] Creating layer relu2_2-R
I0419 11:11:07.220485 30875 net.cpp:84] Creating Layer relu2_2-R
I0419 11:11:07.220491 30875 net.cpp:406] relu2_2-R <- conv2_2-R
I0419 11:11:07.220501 30875 net.cpp:367] relu2_2-R -> conv2_2-R (in-place)
I0419 11:11:07.221251 30875 net.cpp:122] Setting up relu2_2-R
I0419 11:11:07.221269 30875 net.cpp:129] Top shape: 1 128 355 355 (16131200)
I0419 11:11:07.221284 30875 net.cpp:137] Memory required for data: 2083402784
I0419 11:11:07.221289 30875 layer_factory.hpp:77] Creating layer pool2-R
I0419 11:11:07.221302 30875 net.cpp:84] Creating Layer pool2-R
I0419 11:11:07.221307 30875 net.cpp:406] pool2-R <- conv2_2-R
I0419 11:11:07.221318 30875 net.cpp:380] pool2-R -> pool2-R
I0419 11:11:07.221382 30875 net.cpp:122] Setting up pool2-R
I0419 11:11:07.221406 30875 net.cpp:129] Top shape: 1 128 178 178 (4055552)
I0419 11:11:07.221411 30875 net.cpp:137] Memory required for data: 2099624992
I0419 11:11:07.221415 30875 layer_factory.hpp:77] Creating layer conv3_1-R
I0419 11:11:07.221431 30875 net.cpp:84] Creating Layer conv3_1-R
I0419 11:11:07.221437 30875 net.cpp:406] conv3_1-R <- pool2-R
I0419 11:11:07.221444 30875 net.cpp:380] conv3_1-R -> conv3_1-R
I0419 11:11:07.226603 30875 net.cpp:122] Setting up conv3_1-R
I0419 11:11:07.226651 30875 net.cpp:129] Top shape: 1 256 178 178 (8111104)
I0419 11:11:07.226660 30875 net.cpp:137] Memory required for data: 2132069408
I0419 11:11:07.226678 30875 layer_factory.hpp:77] Creating layer relu3_1-R
I0419 11:11:07.226693 30875 net.cpp:84] Creating Layer relu3_1-R
I0419 11:11:07.226714 30875 net.cpp:406] relu3_1-R <- conv3_1-R
I0419 11:11:07.226727 30875 net.cpp:367] relu3_1-R -> conv3_1-R (in-place)
I0419 11:11:07.227133 30875 net.cpp:122] Setting up relu3_1-R
I0419 11:11:07.227151 30875 net.cpp:129] Top shape: 1 256 178 178 (8111104)
I0419 11:11:07.227165 30875 net.cpp:137] Memory required for data: 2164513824
I0419 11:11:07.227174 30875 layer_factory.hpp:77] Creating layer conv3_2-R
I0419 11:11:07.227205 30875 net.cpp:84] Creating Layer conv3_2-R
I0419 11:11:07.227224 30875 net.cpp:406] conv3_2-R <- conv3_1-R
I0419 11:11:07.227236 30875 net.cpp:380] conv3_2-R -> conv3_2-R
I0419 11:11:07.239516 30875 net.cpp:122] Setting up conv3_2-R
I0419 11:11:07.239559 30875 net.cpp:129] Top shape: 1 256 178 178 (8111104)
I0419 11:11:07.239568 30875 net.cpp:137] Memory required for data: 2196958240
I0419 11:11:07.239588 30875 layer_factory.hpp:77] Creating layer relu3_2-R
I0419 11:11:07.239601 30875 net.cpp:84] Creating Layer relu3_2-R
I0419 11:11:07.239612 30875 net.cpp:406] relu3_2-R <- conv3_2-R
I0419 11:11:07.239624 30875 net.cpp:367] relu3_2-R -> conv3_2-R (in-place)
I0419 11:11:07.240051 30875 net.cpp:122] Setting up relu3_2-R
I0419 11:11:07.240082 30875 net.cpp:129] Top shape: 1 256 178 178 (8111104)
I0419 11:11:07.240090 30875 net.cpp:137] Memory required for data: 2229402656
I0419 11:11:07.240098 30875 layer_factory.hpp:77] Creating layer conv3_3-R
I0419 11:11:07.240115 30875 net.cpp:84] Creating Layer conv3_3-R
I0419 11:11:07.240124 30875 net.cpp:406] conv3_3-R <- conv3_2-R
I0419 11:11:07.240137 30875 net.cpp:380] conv3_3-R -> conv3_3-R
I0419 11:11:07.247560 30875 net.cpp:122] Setting up conv3_3-R
I0419 11:11:07.247602 30875 net.cpp:129] Top shape: 1 256 178 178 (8111104)
I0419 11:11:07.247611 30875 net.cpp:137] Memory required for data: 2261847072
I0419 11:11:07.247643 30875 layer_factory.hpp:77] Creating layer relu3_3-R
I0419 11:11:07.247669 30875 net.cpp:84] Creating Layer relu3_3-R
I0419 11:11:07.247678 30875 net.cpp:406] relu3_3-R <- conv3_3-R
I0419 11:11:07.247690 30875 net.cpp:367] relu3_3-R -> conv3_3-R (in-place)
I0419 11:11:07.248116 30875 net.cpp:122] Setting up relu3_3-R
I0419 11:11:07.248147 30875 net.cpp:129] Top shape: 1 256 178 178 (8111104)
I0419 11:11:07.248154 30875 net.cpp:137] Memory required for data: 2294291488
I0419 11:11:07.248162 30875 layer_factory.hpp:77] Creating layer pool3-R
I0419 11:11:07.248175 30875 net.cpp:84] Creating Layer pool3-R
I0419 11:11:07.248183 30875 net.cpp:406] pool3-R <- conv3_3-R
I0419 11:11:07.248208 30875 net.cpp:380] pool3-R -> pool3-R
I0419 11:11:07.248309 30875 net.cpp:122] Setting up pool3-R
I0419 11:11:07.248323 30875 net.cpp:129] Top shape: 1 256 89 89 (2027776)
I0419 11:11:07.248330 30875 net.cpp:137] Memory required for data: 2302402592
I0419 11:11:07.248337 30875 layer_factory.hpp:77] Creating layer pool3-R_pool3-R_0_split
I0419 11:11:07.248347 30875 net.cpp:84] Creating Layer pool3-R_pool3-R_0_split
I0419 11:11:07.248354 30875 net.cpp:406] pool3-R_pool3-R_0_split <- pool3-R
I0419 11:11:07.248365 30875 net.cpp:380] pool3-R_pool3-R_0_split -> pool3-R_pool3-R_0_split_0
I0419 11:11:07.248378 30875 net.cpp:380] pool3-R_pool3-R_0_split -> pool3-R_pool3-R_0_split_1
I0419 11:11:07.248455 30875 net.cpp:122] Setting up pool3-R_pool3-R_0_split
I0419 11:11:07.248468 30875 net.cpp:129] Top shape: 1 256 89 89 (2027776)
I0419 11:11:07.248477 30875 net.cpp:129] Top shape: 1 256 89 89 (2027776)
I0419 11:11:07.248484 30875 net.cpp:137] Memory required for data: 2318624800
I0419 11:11:07.248491 30875 layer_factory.hpp:77] Creating layer conv4_1-R
I0419 11:11:07.248507 30875 net.cpp:84] Creating Layer conv4_1-R
I0419 11:11:07.248514 30875 net.cpp:406] conv4_1-R <- pool3-R_pool3-R_0_split_0
I0419 11:11:07.248528 30875 net.cpp:380] conv4_1-R -> conv4_1-R
I0419 11:11:07.259471 30875 net.cpp:122] Setting up conv4_1-R
I0419 11:11:07.259505 30875 net.cpp:129] Top shape: 1 512 89 89 (4055552)
I0419 11:11:07.259510 30875 net.cpp:137] Memory required for data: 2334847008
I0419 11:11:07.259531 30875 layer_factory.hpp:77] Creating layer relu4_1-R
I0419 11:11:07.259546 30875 net.cpp:84] Creating Layer relu4_1-R
I0419 11:11:07.259552 30875 net.cpp:406] relu4_1-R <- conv4_1-R
I0419 11:11:07.259558 30875 net.cpp:367] relu4_1-R -> conv4_1-R (in-place)
I0419 11:11:07.259809 30875 net.cpp:122] Setting up relu4_1-R
I0419 11:11:07.259824 30875 net.cpp:129] Top shape: 1 512 89 89 (4055552)
I0419 11:11:07.259827 30875 net.cpp:137] Memory required for data: 2351069216
I0419 11:11:07.259831 30875 layer_factory.hpp:77] Creating layer conv4_2-R
I0419 11:11:07.259842 30875 net.cpp:84] Creating Layer conv4_2-R
I0419 11:11:07.259847 30875 net.cpp:406] conv4_2-R <- conv4_1-R
I0419 11:11:07.259855 30875 net.cpp:380] conv4_2-R -> conv4_2-R
I0419 11:11:07.273542 30875 net.cpp:122] Setting up conv4_2-R
I0419 11:11:07.273600 30875 net.cpp:129] Top shape: 1 512 89 89 (4055552)
I0419 11:11:07.273608 30875 net.cpp:137] Memory required for data: 2367291424
I0419 11:11:07.273624 30875 layer_factory.hpp:77] Creating layer relu4_2-R
I0419 11:11:07.273640 30875 net.cpp:84] Creating Layer relu4_2-R
I0419 11:11:07.273650 30875 net.cpp:406] relu4_2-R <- conv4_2-R
I0419 11:11:07.273671 30875 net.cpp:367] relu4_2-R -> conv4_2-R (in-place)
I0419 11:11:07.274010 30875 net.cpp:122] Setting up relu4_2-R
I0419 11:11:07.274037 30875 net.cpp:129] Top shape: 1 512 89 89 (4055552)
I0419 11:11:07.274044 30875 net.cpp:137] Memory required for data: 2383513632
I0419 11:11:07.274060 30875 layer_factory.hpp:77] Creating layer conv4_3-R
I0419 11:11:07.274094 30875 net.cpp:84] Creating Layer conv4_3-R
I0419 11:11:07.274102 30875 net.cpp:406] conv4_3-R <- conv4_2-R
I0419 11:11:07.274123 30875 net.cpp:380] conv4_3-R -> conv4_3-R
I0419 11:11:07.284409 30875 net.cpp:122] Setting up conv4_3-R
I0419 11:11:07.284447 30875 net.cpp:129] Top shape: 1 512 89 89 (4055552)
I0419 11:11:07.284453 30875 net.cpp:137] Memory required for data: 2399735840
I0419 11:11:07.284466 30875 layer_factory.hpp:77] Creating layer relu4_3-R
I0419 11:11:07.284488 30875 net.cpp:84] Creating Layer relu4_3-R
I0419 11:11:07.284508 30875 net.cpp:406] relu4_3-R <- conv4_3-R
I0419 11:11:07.284518 30875 net.cpp:367] relu4_3-R -> conv4_3-R (in-place)
I0419 11:11:07.286341 30875 net.cpp:122] Setting up relu4_3-R
I0419 11:11:07.286362 30875 net.cpp:129] Top shape: 1 512 89 89 (4055552)
I0419 11:11:07.286378 30875 net.cpp:137] Memory required for data: 2415958048
I0419 11:11:07.286383 30875 layer_factory.hpp:77] Creating layer pool4-R
I0419 11:11:07.286406 30875 net.cpp:84] Creating Layer pool4-R
I0419 11:11:07.286412 30875 net.cpp:406] pool4-R <- conv4_3-R
I0419 11:11:07.286420 30875 net.cpp:380] pool4-R -> pool4-R
I0419 11:11:07.286502 30875 net.cpp:122] Setting up pool4-R
I0419 11:11:07.286527 30875 net.cpp:129] Top shape: 1 512 45 45 (1036800)
I0419 11:11:07.286531 30875 net.cpp:137] Memory required for data: 2420105248
I0419 11:11:07.286536 30875 layer_factory.hpp:77] Creating layer pool4-R_pool4-R_0_split
I0419 11:11:07.286547 30875 net.cpp:84] Creating Layer pool4-R_pool4-R_0_split
I0419 11:11:07.286552 30875 net.cpp:406] pool4-R_pool4-R_0_split <- pool4-R
I0419 11:11:07.286559 30875 net.cpp:380] pool4-R_pool4-R_0_split -> pool4-R_pool4-R_0_split_0
I0419 11:11:07.286571 30875 net.cpp:380] pool4-R_pool4-R_0_split -> pool4-R_pool4-R_0_split_1
I0419 11:11:07.286619 30875 net.cpp:122] Setting up pool4-R_pool4-R_0_split
I0419 11:11:07.286628 30875 net.cpp:129] Top shape: 1 512 45 45 (1036800)
I0419 11:11:07.286633 30875 net.cpp:129] Top shape: 1 512 45 45 (1036800)
I0419 11:11:07.286638 30875 net.cpp:137] Memory required for data: 2428399648
I0419 11:11:07.286641 30875 layer_factory.hpp:77] Creating layer conv5_1-R
I0419 11:11:07.286653 30875 net.cpp:84] Creating Layer conv5_1-R
I0419 11:11:07.286658 30875 net.cpp:406] conv5_1-R <- pool4-R_pool4-R_0_split_0
I0419 11:11:07.286664 30875 net.cpp:380] conv5_1-R -> conv5_1-R
I0419 11:11:07.295804 30875 net.cpp:122] Setting up conv5_1-R
I0419 11:11:07.295835 30875 net.cpp:129] Top shape: 1 512 45 45 (1036800)
I0419 11:11:07.295841 30875 net.cpp:137] Memory required for data: 2432546848
I0419 11:11:07.295881 30875 layer_factory.hpp:77] Creating layer relu5_1-R
I0419 11:11:07.295892 30875 net.cpp:84] Creating Layer relu5_1-R
I0419 11:11:07.295898 30875 net.cpp:406] relu5_1-R <- conv5_1-R
I0419 11:11:07.295912 30875 net.cpp:367] relu5_1-R -> conv5_1-R (in-place)
I0419 11:11:07.296159 30875 net.cpp:122] Setting up relu5_1-R
I0419 11:11:07.296175 30875 net.cpp:129] Top shape: 1 512 45 45 (1036800)
I0419 11:11:07.296180 30875 net.cpp:137] Memory required for data: 2436694048
I0419 11:11:07.296185 30875 layer_factory.hpp:77] Creating layer conv5_2-R
I0419 11:11:07.296195 30875 net.cpp:84] Creating Layer conv5_2-R
I0419 11:11:07.296200 30875 net.cpp:406] conv5_2-R <- conv5_1-R
I0419 11:11:07.296211 30875 net.cpp:380] conv5_2-R -> conv5_2-R
I0419 11:11:07.308805 30875 net.cpp:122] Setting up conv5_2-R
I0419 11:11:07.308852 30875 net.cpp:129] Top shape: 1 512 45 45 (1036800)
I0419 11:11:07.308859 30875 net.cpp:137] Memory required for data: 2440841248
I0419 11:11:07.308872 30875 layer_factory.hpp:77] Creating layer relu5_2-R
I0419 11:11:07.308884 30875 net.cpp:84] Creating Layer relu5_2-R
I0419 11:11:07.308892 30875 net.cpp:406] relu5_2-R <- conv5_2-R
I0419 11:11:07.308899 30875 net.cpp:367] relu5_2-R -> conv5_2-R (in-place)
I0419 11:11:07.309170 30875 net.cpp:122] Setting up relu5_2-R
I0419 11:11:07.309183 30875 net.cpp:129] Top shape: 1 512 45 45 (1036800)
I0419 11:11:07.309188 30875 net.cpp:137] Memory required for data: 2444988448
I0419 11:11:07.309193 30875 layer_factory.hpp:77] Creating layer conv5_3-R
I0419 11:11:07.309218 30875 net.cpp:84] Creating Layer conv5_3-R
I0419 11:11:07.309224 30875 net.cpp:406] conv5_3-R <- conv5_2-R
I0419 11:11:07.309232 30875 net.cpp:380] conv5_3-R -> conv5_3-R
I0419 11:11:07.323037 30875 net.cpp:122] Setting up conv5_3-R
I0419 11:11:07.323071 30875 net.cpp:129] Top shape: 1 512 45 45 (1036800)
I0419 11:11:07.323077 30875 net.cpp:137] Memory required for data: 2449135648
I0419 11:11:07.323091 30875 layer_factory.hpp:77] Creating layer relu5_3-R
I0419 11:11:07.323102 30875 net.cpp:84] Creating Layer relu5_3-R
I0419 11:11:07.323109 30875 net.cpp:406] relu5_3-R <- conv5_3-R
I0419 11:11:07.323118 30875 net.cpp:367] relu5_3-R -> conv5_3-R (in-place)
I0419 11:11:07.323377 30875 net.cpp:122] Setting up relu5_3-R
I0419 11:11:07.323390 30875 net.cpp:129] Top shape: 1 512 45 45 (1036800)
I0419 11:11:07.323395 30875 net.cpp:137] Memory required for data: 2453282848
I0419 11:11:07.323398 30875 layer_factory.hpp:77] Creating layer pool5-R
I0419 11:11:07.323408 30875 net.cpp:84] Creating Layer pool5-R
I0419 11:11:07.323412 30875 net.cpp:406] pool5-R <- conv5_3-R
I0419 11:11:07.323423 30875 net.cpp:380] pool5-R -> pool5-R
I0419 11:11:07.323487 30875 net.cpp:122] Setting up pool5-R
I0419 11:11:07.323498 30875 net.cpp:129] Top shape: 1 512 23 23 (270848)
I0419 11:11:07.323501 30875 net.cpp:137] Memory required for data: 2454366240
I0419 11:11:07.323505 30875 layer_factory.hpp:77] Creating layer fc6-R
I0419 11:11:07.323521 30875 net.cpp:84] Creating Layer fc6-R
I0419 11:11:07.323526 30875 net.cpp:406] fc6-R <- pool5-R
I0419 11:11:07.323534 30875 net.cpp:380] fc6-R -> fc6-R
I0419 11:11:07.682400 30875 net.cpp:122] Setting up fc6-R
I0419 11:11:07.682451 30875 net.cpp:129] Top shape: 1 4096 17 17 (1183744)
I0419 11:11:07.682457 30875 net.cpp:137] Memory required for data: 2459101216
I0419 11:11:07.682471 30875 layer_factory.hpp:77] Creating layer relu6-R
I0419 11:11:07.682503 30875 net.cpp:84] Creating Layer relu6-R
I0419 11:11:07.682512 30875 net.cpp:406] relu6-R <- fc6-R
I0419 11:11:07.682523 30875 net.cpp:367] relu6-R -> fc6-R (in-place)
I0419 11:11:07.682765 30875 net.cpp:122] Setting up relu6-R
I0419 11:11:07.682777 30875 net.cpp:129] Top shape: 1 4096 17 17 (1183744)
I0419 11:11:07.682781 30875 net.cpp:137] Memory required for data: 2463836192
I0419 11:11:07.682786 30875 layer_factory.hpp:77] Creating layer drop6-R
I0419 11:11:07.682797 30875 net.cpp:84] Creating Layer drop6-R
I0419 11:11:07.682802 30875 net.cpp:406] drop6-R <- fc6-R
I0419 11:11:07.682808 30875 net.cpp:367] drop6-R -> fc6-R (in-place)
I0419 11:11:07.682847 30875 net.cpp:122] Setting up drop6-R
I0419 11:11:07.682857 30875 net.cpp:129] Top shape: 1 4096 17 17 (1183744)
I0419 11:11:07.682862 30875 net.cpp:137] Memory required for data: 2468571168
I0419 11:11:07.682865 30875 layer_factory.hpp:77] Creating layer fc7-R
I0419 11:11:07.682878 30875 net.cpp:84] Creating Layer fc7-R
I0419 11:11:07.682883 30875 net.cpp:406] fc7-R <- fc6-R
I0419 11:11:07.682891 30875 net.cpp:380] fc7-R -> fc7-R
I0419 11:11:07.748580 30875 net.cpp:122] Setting up fc7-R
I0419 11:11:07.748621 30875 net.cpp:129] Top shape: 1 4096 17 17 (1183744)
I0419 11:11:07.748627 30875 net.cpp:137] Memory required for data: 2473306144
I0419 11:11:07.748642 30875 layer_factory.hpp:77] Creating layer relu7-R
I0419 11:11:07.748709 30875 net.cpp:84] Creating Layer relu7-R
I0419 11:11:07.748718 30875 net.cpp:406] relu7-R <- fc7-R
I0419 11:11:07.748734 30875 net.cpp:367] relu7-R -> fc7-R (in-place)
I0419 11:11:07.749060 30875 net.cpp:122] Setting up relu7-R
I0419 11:11:07.749073 30875 net.cpp:129] Top shape: 1 4096 17 17 (1183744)
I0419 11:11:07.749078 30875 net.cpp:137] Memory required for data: 2478041120
I0419 11:11:07.749081 30875 layer_factory.hpp:77] Creating layer drop7-R
I0419 11:11:07.749106 30875 net.cpp:84] Creating Layer drop7-R
I0419 11:11:07.749111 30875 net.cpp:406] drop7-R <- fc7-R
I0419 11:11:07.749119 30875 net.cpp:367] drop7-R -> fc7-R (in-place)
I0419 11:11:07.749171 30875 net.cpp:122] Setting up drop7-R
I0419 11:11:07.749178 30875 net.cpp:129] Top shape: 1 4096 17 17 (1183744)
I0419 11:11:07.749182 30875 net.cpp:137] Memory required for data: 2482776096
I0419 11:11:07.749186 30875 layer_factory.hpp:77] Creating layer score_fr-new-R
I0419 11:11:07.749204 30875 net.cpp:84] Creating Layer score_fr-new-R
I0419 11:11:07.749208 30875 net.cpp:406] score_fr-new-R <- fc7-R
I0419 11:11:07.749217 30875 net.cpp:380] score_fr-new-R -> score_fr-new-R
I0419 11:11:07.751209 30875 net.cpp:122] Setting up score_fr-new-R
I0419 11:11:07.751235 30875 net.cpp:129] Top shape: 1 3 17 17 (867)
I0419 11:11:07.751241 30875 net.cpp:137] Memory required for data: 2482779564
I0419 11:11:07.751255 30875 layer_factory.hpp:77] Creating layer upscore2-new-R
I0419 11:11:07.751268 30875 net.cpp:84] Creating Layer upscore2-new-R
I0419 11:11:07.751276 30875 net.cpp:406] upscore2-new-R <- score_fr-new-R
I0419 11:11:07.751301 30875 net.cpp:380] upscore2-new-R -> upscore2-new-R
I0419 11:11:07.751718 30875 net.cpp:122] Setting up upscore2-new-R
I0419 11:11:07.751732 30875 net.cpp:129] Top shape: 1 3 36 36 (3888)
I0419 11:11:07.751739 30875 net.cpp:137] Memory required for data: 2482795116
I0419 11:11:07.751746 30875 layer_factory.hpp:77] Creating layer upscore2-new-R_upscore2-new-R_0_split
I0419 11:11:07.751757 30875 net.cpp:84] Creating Layer upscore2-new-R_upscore2-new-R_0_split
I0419 11:11:07.751765 30875 net.cpp:406] upscore2-new-R_upscore2-new-R_0_split <- upscore2-new-R
I0419 11:11:07.751775 30875 net.cpp:380] upscore2-new-R_upscore2-new-R_0_split -> upscore2-new-R_upscore2-new-R_0_split_0
I0419 11:11:07.751790 30875 net.cpp:380] upscore2-new-R_upscore2-new-R_0_split -> upscore2-new-R_upscore2-new-R_0_split_1
I0419 11:11:07.751860 30875 net.cpp:122] Setting up upscore2-new-R_upscore2-new-R_0_split
I0419 11:11:07.751878 30875 net.cpp:129] Top shape: 1 3 36 36 (3888)
I0419 11:11:07.751885 30875 net.cpp:129] Top shape: 1 3 36 36 (3888)
I0419 11:11:07.751890 30875 net.cpp:137] Memory required for data: 2482826220
I0419 11:11:07.751907 30875 layer_factory.hpp:77] Creating layer score_pool4-new-R
I0419 11:11:07.751921 30875 net.cpp:84] Creating Layer score_pool4-new-R
I0419 11:11:07.751929 30875 net.cpp:406] score_pool4-new-R <- pool4-R_pool4-R_0_split_1
I0419 11:11:07.751941 30875 net.cpp:380] score_pool4-new-R -> score_pool4-new-R
I0419 11:11:07.754144 30875 net.cpp:122] Setting up score_pool4-new-R
I0419 11:11:07.754216 30875 net.cpp:129] Top shape: 1 3 45 45 (6075)
I0419 11:11:07.754235 30875 net.cpp:137] Memory required for data: 2482850520
I0419 11:11:07.754248 30875 layer_factory.hpp:77] Creating layer score_pool4c-R
I0419 11:11:07.754340 30875 net.cpp:84] Creating Layer score_pool4c-R
I0419 11:11:07.754360 30875 net.cpp:406] score_pool4c-R <- score_pool4-new-R
I0419 11:11:07.754370 30875 net.cpp:406] score_pool4c-R <- upscore2-new-R_upscore2-new-R_0_split_0
I0419 11:11:07.754380 30875 net.cpp:380] score_pool4c-R -> score_pool4c-R
I0419 11:11:07.754441 30875 net.cpp:122] Setting up score_pool4c-R
I0419 11:11:07.754478 30875 net.cpp:129] Top shape: 1 3 36 36 (3888)
I0419 11:11:07.754482 30875 net.cpp:137] Memory required for data: 2482866072
I0419 11:11:07.754487 30875 layer_factory.hpp:77] Creating layer fuse_pool4-R
I0419 11:11:07.754494 30875 net.cpp:84] Creating Layer fuse_pool4-R
I0419 11:11:07.754499 30875 net.cpp:406] fuse_pool4-R <- upscore2-new-R_upscore2-new-R_0_split_1
I0419 11:11:07.754505 30875 net.cpp:406] fuse_pool4-R <- score_pool4c-R
I0419 11:11:07.754513 30875 net.cpp:380] fuse_pool4-R -> fuse_pool4-R
I0419 11:11:07.754547 30875 net.cpp:122] Setting up fuse_pool4-R
I0419 11:11:07.754562 30875 net.cpp:129] Top shape: 1 3 36 36 (3888)
I0419 11:11:07.754565 30875 net.cpp:137] Memory required for data: 2482881624
I0419 11:11:07.754580 30875 layer_factory.hpp:77] Creating layer upscore_pool4-new-R
I0419 11:11:07.754590 30875 net.cpp:84] Creating Layer upscore_pool4-new-R
I0419 11:11:07.754607 30875 net.cpp:406] upscore_pool4-new-R <- fuse_pool4-R
I0419 11:11:07.754614 30875 net.cpp:380] upscore_pool4-new-R -> upscore_pool4-new-R
I0419 11:11:07.754899 30875 net.cpp:122] Setting up upscore_pool4-new-R
I0419 11:11:07.754907 30875 net.cpp:129] Top shape: 1 3 74 74 (16428)
I0419 11:11:07.754911 30875 net.cpp:137] Memory required for data: 2482947336
I0419 11:11:07.754917 30875 layer_factory.hpp:77] Creating layer upscore_pool4-new-R_upscore_pool4-new-R_0_split
I0419 11:11:07.754925 30875 net.cpp:84] Creating Layer upscore_pool4-new-R_upscore_pool4-new-R_0_split
I0419 11:11:07.754930 30875 net.cpp:406] upscore_pool4-new-R_upscore_pool4-new-R_0_split <- upscore_pool4-new-R
I0419 11:11:07.754938 30875 net.cpp:380] upscore_pool4-new-R_upscore_pool4-new-R_0_split -> upscore_pool4-new-R_upscore_pool4-new-R_0_split_0
I0419 11:11:07.754946 30875 net.cpp:380] upscore_pool4-new-R_upscore_pool4-new-R_0_split -> upscore_pool4-new-R_upscore_pool4-new-R_0_split_1
I0419 11:11:07.754994 30875 net.cpp:122] Setting up upscore_pool4-new-R_upscore_pool4-new-R_0_split
I0419 11:11:07.755000 30875 net.cpp:129] Top shape: 1 3 74 74 (16428)
I0419 11:11:07.755005 30875 net.cpp:129] Top shape: 1 3 74 74 (16428)
I0419 11:11:07.755009 30875 net.cpp:137] Memory required for data: 2483078760
I0419 11:11:07.755014 30875 layer_factory.hpp:77] Creating layer score_pool3-new-R
I0419 11:11:07.755029 30875 net.cpp:84] Creating Layer score_pool3-new-R
I0419 11:11:07.755035 30875 net.cpp:406] score_pool3-new-R <- pool3-R_pool3-R_0_split_1
I0419 11:11:07.755043 30875 net.cpp:380] score_pool3-new-R -> score_pool3-new-R
I0419 11:11:07.760046 30875 net.cpp:122] Setting up score_pool3-new-R
I0419 11:11:07.760066 30875 net.cpp:129] Top shape: 1 3 89 89 (23763)
I0419 11:11:07.760071 30875 net.cpp:137] Memory required for data: 2483173812
I0419 11:11:07.760089 30875 layer_factory.hpp:77] Creating layer score_pool3c-R
I0419 11:11:07.760098 30875 net.cpp:84] Creating Layer score_pool3c-R
I0419 11:11:07.760104 30875 net.cpp:406] score_pool3c-R <- score_pool3-new-R
I0419 11:11:07.760112 30875 net.cpp:406] score_pool3c-R <- upscore_pool4-new-R_upscore_pool4-new-R_0_split_0
I0419 11:11:07.760120 30875 net.cpp:380] score_pool3c-R -> score_pool3c-R
I0419 11:11:07.760161 30875 net.cpp:122] Setting up score_pool3c-R
I0419 11:11:07.760171 30875 net.cpp:129] Top shape: 1 3 74 74 (16428)
I0419 11:11:07.760175 30875 net.cpp:137] Memory required for data: 2483239524
I0419 11:11:07.760179 30875 layer_factory.hpp:77] Creating layer fuse_pool3-R
I0419 11:11:07.760186 30875 net.cpp:84] Creating Layer fuse_pool3-R
I0419 11:11:07.760191 30875 net.cpp:406] fuse_pool3-R <- upscore_pool4-new-R_upscore_pool4-new-R_0_split_1
I0419 11:11:07.760197 30875 net.cpp:406] fuse_pool3-R <- score_pool3c-R
I0419 11:11:07.760203 30875 net.cpp:380] fuse_pool3-R -> fuse_pool3-R
I0419 11:11:07.760238 30875 net.cpp:122] Setting up fuse_pool3-R
I0419 11:11:07.760244 30875 net.cpp:129] Top shape: 1 3 74 74 (16428)
I0419 11:11:07.760248 30875 net.cpp:137] Memory required for data: 2483305236
I0419 11:11:07.760252 30875 layer_factory.hpp:77] Creating layer upscore8-new-R
I0419 11:11:07.760269 30875 net.cpp:84] Creating Layer upscore8-new-R
I0419 11:11:07.760274 30875 net.cpp:406] upscore8-new-R <- fuse_pool3-R
I0419 11:11:07.760282 30875 net.cpp:380] upscore8-new-R -> upscore8-new-R
I0419 11:11:07.760601 30875 net.cpp:122] Setting up upscore8-new-R
I0419 11:11:07.760612 30875 net.cpp:129] Top shape: 1 3 600 600 (1080000)
I0419 11:11:07.760617 30875 net.cpp:137] Memory required for data: 2487625236
I0419 11:11:07.760622 30875 layer_factory.hpp:77] Creating layer upscore8_cropped-R
I0419 11:11:07.760632 30875 net.cpp:84] Creating Layer upscore8_cropped-R
I0419 11:11:07.760637 30875 net.cpp:406] upscore8_cropped-R <- upscore8-new-R
I0419 11:11:07.760644 30875 net.cpp:406] upscore8_cropped-R <- data-R_crop_0_split_1
I0419 11:11:07.760651 30875 net.cpp:380] upscore8_cropped-R -> upscore8_cropped-R
I0419 11:11:07.760684 30875 net.cpp:122] Setting up upscore8_cropped-R
I0419 11:11:07.760689 30875 net.cpp:129] Top shape: 1 3 512 512 (786432)
I0419 11:11:07.760694 30875 net.cpp:137] Memory required for data: 2490770964
I0419 11:11:07.760696 30875 layer_factory.hpp:77] Creating layer score-R
I0419 11:11:07.760705 30875 net.cpp:84] Creating Layer score-R
I0419 11:11:07.760710 30875 net.cpp:406] score-R <- upscore8_cropped-R
I0419 11:11:07.760720 30875 net.cpp:380] score-R -> score-R
I0419 11:11:07.765897 30875 net.cpp:122] Setting up score-R
I0419 11:11:07.765971 30875 net.cpp:129] Top shape: 1 3 512 512 (786432)
I0419 11:11:07.765981 30875 net.cpp:137] Memory required for data: 2493916692
I0419 11:11:07.766005 30875 layer_factory.hpp:77] Creating layer score_uncropped-R
I0419 11:11:07.766618 30875 net.cpp:84] Creating Layer score_uncropped-R
I0419 11:11:07.766656 30875 net.cpp:406] score_uncropped-R <- crop_info
I0419 11:11:07.766681 30875 net.cpp:406] score_uncropped-R <- score-R
I0419 11:11:07.766691 30875 net.cpp:406] score_uncropped-R <- data_data_0_split_3
I0419 11:11:07.766713 30875 net.cpp:380] score_uncropped-R -> score_uncropped-R
I0419 11:11:07.770372 30875 net.cpp:122] Setting up score_uncropped-R
I0419 11:11:07.770413 30875 net.cpp:129] Top shape: 1 3 512 512 (786432)
I0419 11:11:07.770421 30875 net.cpp:137] Memory required for data: 2497062420
I0419 11:11:07.770429 30875 layer_factory.hpp:77] Creating layer loss1
I0419 11:11:07.770457 30875 net.cpp:84] Creating Layer loss1
I0419 11:11:07.770467 30875 net.cpp:406] loss1 <- score_score_0_split_1
I0419 11:11:07.770478 30875 net.cpp:406] loss1 <- label_data_1_split_1
I0419 11:11:07.770490 30875 net.cpp:380] loss1 -> loss1
…
