…
snapshot_prefix: "/media/Med_2T2/data2/models/snapshots/indiv:1e-5x10,20/FD2:ZI3_1_20180418_201422/train"
test_initialization: false
average_loss: 20
stepvalue: 40000
iter_size: 1
I0419 03:16:34.709283 23576 solver.cpp:77] Creating training net from train_net file: /media/Med_2T2/data2/prototxts/training_S3x10.prototxt
I0419 03:16:34.712088 23576 net.cpp:51] Initializing net from parameters: 
state {
  phase: TRAIN
}
layer {
  name: "data"
  type: "Python"
  top: "data"
  top: "label"
  top: "crop_margin"
  top: "crop_prob"
  top: "crop_sample_batch"
  python_param {
    module: "Data"
    layer: "DataLayer"
  }
}
layer {
  name: "conv1_1"
  type: "Convolution"
  bottom: "data"
  top: "conv1_1"
  param {
    lr_mult: 1
    decay_mult: 1
  }
  param {
    lr_mult: 2
    decay_mult: 0
  }
  convolution_param {
    num_output: 64
    pad: 100
    kernel_size: 3
    stride: 1
  }
}
layer {
  name: "relu1_1"
  type: "ReLU"
  bottom: "conv1_1"
  top: "conv1_1"
}
layer {
  name: "conv1_2"
  type: "Convolution"
  bottom: "conv1_1"
  top: "conv1_2"
  param {
    lr_mult: 1
    decay_mult: 1
  }
  param {
    lr_mult: 2
    decay_mult: 0
  }
  convolution_param {
    num_output: 64
    pad: 1
    kernel_size: 3
    stride: 1
  }
}
layer {
  name: "relu1_2"
  type: "ReLU"
  bottom: "conv1_2"
  top: "conv1_2"
}
layer {
  name: "pool1"
  type: "Pooling"
  bottom: "conv1_2"
  top: "pool1"
  pooling_param {
    pool: MAX
    kernel_size: 2
    stride: 2
  }
}
layer {
  name: "conv2_1"
  type: "Convolution"
  bottom: "pool1"
  top: "conv2_1"
  param {
    lr_mult: 1
    decay_mult: 1
  }
  param {
    lr_mult: 2
    decay_mult: 0
  }
  convolution_param {
    num_output: 128
    pad: 1
    kernel_size: 3
    stride: 1
  }
}
layer {
  name: "relu2_1"
  type: "ReLU"
  bottom: "conv2_1"
  top: "conv2_1"
}
layer {
  name: "conv2_2"
  type: "Convolution"
  bottom: "conv2_1"
  top: "conv2_2"
  param {
    lr_mult: 1
    decay_mult: 1
  }
  param {
    lr_mult: 2
    decay_mult: 0
  }
  convolution_param {
    num_output: 128
    pad: 1
    kernel_size: 3
    stride: 1
  }
}
layer {
  name: "relu2_2"
  type: "ReLU"
  bottom: "conv2_2"
  top: "conv2_2"
}
layer {
  name: "pool2"
  type: "Pooling"
  bottom: "conv2_2"
  top: "pool2"
  pooling_param {
    pool: MAX
    kernel_size: 2
    stride: 2
  }
}
layer {
  name: "conv3_1"
  type: "Convolution"
  bottom: "pool2"
  top: "conv3_1"
  param {
    lr_mult: 1
    decay_mult: 1
  }
  param {
    lr_mult: 2
    decay_mult: 0
  }
  convolution_param {
    num_output: 256
    pad: 1
    kernel_size: 3
    stride: 1
  }
}
layer {
  name: "relu3_1"
  type: "ReLU"
  bottom: "conv3_1"
  top: "conv3_1"
}
layer {
  name: "conv3_2"
  type: "Convolution"
  bottom: "conv3_1"
  top: "conv3_2"
  param {
    lr_mult: 1
    decay_mult: 1
  }
  param {
    lr_mult: 2
    decay_mult: 0
  }
  convolution_param {
    num_output: 256
    pad: 1
    kernel_size: 3
    stride: 1
  }
}
layer {
  name: "relu3_2"
  type: "ReLU"
  bottom: "conv3_2"
  top: "conv3_2"
}
layer {
  name: "conv3_3"
  type: "Convolution"
  bottom: "conv3_2"
  top: "conv3_3"
  param {
    lr_mult: 1
    decay_mult: 1
  }
  param {
    lr_mult: 2
    decay_mult: 0
  }
  convolution_param {
    num_output: 256
    pad: 1
    kernel_size: 3
    stride: 1
  }
}
layer {
  name: "relu3_3"
  type: "ReLU"
  bottom: "conv3_3"
  top: "conv3_3"
}
layer {
  name: "pool3"
  type: "Pooling"
  bottom: "conv3_3"
  top: "pool3"
  pooling_param {
    pool: MAX
    kernel_size: 2
    stride: 2
  }
}
layer {
  name: "conv4_1"
  type: "Convolution"
  bottom: "pool3"
  top: "conv4_1"
  param {
    lr_mult: 1
    decay_mult: 1
  }
  param {
    lr_mult: 2
    decay_mult: 0
  }
  convolution_param {
    num_output: 512
    pad: 1
    kernel_size: 3
    stride: 1
  }
}
layer {
  name: "relu4_1"
  type: "ReLU"
  bottom: "conv4_1"
  top: "conv4_1"
}
layer {
  name: "conv4_2"
  type: "Convolution"
  bottom: "conv4_1"
  top: "conv4_2"
  param {
    lr_mult: 1
    decay_mult: 1
  }
  param {
    lr_mult: 2
    decay_mult: 0
  }
  convolution_param {
    num_output: 512
    pad: 1
    kernel_size: 3
    stride: 1
  }
}
layer {
  name: "relu4_2"
  type: "ReLU"
  bottom: "conv4_2"
  top: "conv4_2"
}
layer {
  name: "conv4_3"
  type: "Convolution"
  bottom: "conv4_2"
  top: "conv4_3"
  param {
    lr_mult: 1
    decay_mult: 1
  }
  param {
    lr_mult: 2
    decay_mult: 0
  }
  convolution_param {
    num_output: 512
    pad: 1
    kernel_size: 3
    stride: 1
  }
}
layer {
  name: "relu4_3"
  type: "ReLU"
  bottom: "conv4_3"
  top: "conv4_3"
}
layer {
  name: "pool4"
  type: "Pooling"
  bottom: "conv4_3"
  top: "pool4"
  pooling_param {
    pool: MAX
    kernel_size: 2
    stride: 2
  }
}
layer {
  name: "conv5_1"
  type: "Convolution"
  bottom: "pool4"
  top: "conv5_1"
  param {
    lr_mult: 1
    decay_mult: 1
  }
  param {
    lr_mult: 2
    decay_mult: 0
  }
  convolution_param {
    num_output: 512
    pad: 1
    kernel_size: 3
    stride: 1
  }
}
layer {
  name: "relu5_1"
  type: "ReLU"
  bottom: "conv5_1"
  top: "conv5_1"
}
layer {
  name: "conv5_2"
  type: "Convolution"
  bottom: "conv5_1"
  top: "conv5_2"
  param {
    lr_mult: 1
    decay_mult: 1
  }
  param {
    lr_mult: 2
    decay_mult: 0
  }
  convolution_param {
    num_output: 512
    pad: 1
    kernel_size: 3
    stride: 1
  }
}
layer {
  name: "relu5_2"
  type: "ReLU"
  bottom: "conv5_2"
  top: "conv5_2"
}
layer {
  name: "conv5_3"
  type: "Convolution"
  bottom: "conv5_2"
  top: "conv5_3"
  param {
    lr_mult: 1
    decay_mult: 1
  }
  param {
    lr_mult: 2
    decay_mult: 0
  }
  convolution_param {
    num_output: 512
    pad: 1
    kernel_size: 3
    stride: 1
  }
}
layer {
  name: "relu5_3"
  type: "ReLU"
  bottom: "conv5_3"
  top: "conv5_3"
}
layer {
  name: "pool5"
  type: "Pooling"
  bottom: "conv5_3"
  top: "pool5"
  pooling_param {
    pool: MAX
    kernel_size: 2
    stride: 2
  }
}
layer {
  name: "fc6"
  type: "Convolution"
  bottom: "pool5"
  top: "fc6"
  param {
    lr_mult: 1
    decay_mult: 1
  }
  param {
    lr_mult: 2
    decay_mult: 0
  }
  convolution_param {
    num_output: 4096
    pad: 0
    kernel_size: 7
    stride: 1
  }
}
layer {
  name: "relu6"
  type: "ReLU"
  bottom: "fc6"
  top: "fc6"
}
layer {
  name: "drop6"
  type: "Dropout"
  bottom: "fc6"
  top: "fc6"
  dropout_param {
    dropout_ratio: 0.5
  }
}
layer {
  name: "fc7"
  type: "Convolution"
  bottom: "fc6"
  top: "fc7"
  param {
    lr_mult: 1
    decay_mult: 1
  }
  param {
    lr_mult: 2
    decay_mult: 0
  }
  convolution_param {
    num_output: 4096
    pad: 0
    kernel_size: 1
    stride: 1
  }
}
layer {
  name: "relu7"
  type: "ReLU"
  bottom: "fc7"
  top: "fc7"
}
layer {
  name: "drop7"
  type: "Dropout"
  bottom: "fc7"
  top: "fc7"
  dropout_param {
    dropout_ratio: 0.5
  }
}
layer {
  name: "score_fr-new"
  type: "Convolution"
  bottom: "fc7"
  top: "score_fr-new"
  param {
    lr_mult: 1
    decay_mult: 1
  }
  param {
    lr_mult: 2
    decay_mult: 0
  }
  convolution_param {
    num_output: 3
    kernel_size: 1
  }
}
layer {
  name: "upscore2-new"
  type: "Deconvolution"
  bottom: "score_fr-new"
  top: "upscore2-new"
  param {
    lr_mult: 0
  }
  convolution_param {
    num_output: 3
    bias_term: false
    kernel_size: 4
    stride: 2
  }
}
layer {
  name: "score_pool4-new"
  type: "Convolution"
  bottom: "pool4"
  top: "score_pool4-new"
  param {
    lr_mult: 1
    decay_mult: 1
  }
  param {
    lr_mult: 2
    decay_mult: 0
  }
  convolution_param {
    num_output: 3
    pad: 0
    kernel_size: 1
  }
}
layer {
  name: "score_pool4c"
  type: "Crop"
  bottom: "score_pool4-new"
  bottom: "upscore2-new"
  top: "score_pool4c"
  crop_param {
    axis: 2
    offset: 5
  }
}
layer {
  name: "fuse_pool4"
  type: "Eltwise"
  bottom: "upscore2-new"
  bottom: "score_pool4c"
  top: "fuse_pool4"
  eltwise_param {
    operation: SUM
  }
}
layer {
  name: "upscore_pool4-new"
  type: "Deconvolution"
  bottom: "fuse_pool4"
  top: "upscore_pool4-new"
  param {
    lr_mult: 0
  }
  convolution_param {
    num_output: 3
    bias_term: false
    kernel_size: 4
    stride: 2
  }
}
layer {
  name: "score_pool3-new"
  type: "Convolution"
  bottom: "pool3"
  top: "score_pool3-new"
  param {
    lr_mult: 1
    decay_mult: 1
  }
  param {
    lr_mult: 2
    decay_mult: 0
  }
  convolution_param {
    num_output: 3
    pad: 0
    kernel_size: 1
  }
}
layer {
  name: "score_pool3c"
  type: "Crop"
  bottom: "score_pool3-new"
  bottom: "upscore_pool4-new"
  top: "score_pool3c"
  crop_param {
    axis: 2
    offset: 9
  }
}
layer {
  name: "fuse_pool3"
  type: "Eltwise"
  bottom: "upscore_pool4-new"
  bottom: "score_pool3c"
  top: "fuse_pool3"
  eltwise_param {
    operation: SUM
  }
}
layer {
  name: "upscore8-new"
  type: "Deconvolution"
  bottom: "fuse_pool3"
  top: "upscore8-new"
  param {
    lr_mult: 0
  }
  convolution_param {
    num_output: 3
    bias_term: false
    kernel_size: 16
    stride: 8
  }
}
layer {
  name: "upscore8_cropped"
  type: "Crop"
  bottom: "upscore8-new"
  bottom: "data"
  top: "upscore8_cropped"
  crop_param {
    axis: 2
    offset: 31
  }
}
layer {
  name: "score"
  type: "Convolution"
  bottom: "upscore8_cropped"
  top: "score"
  param {
    lr_mult: 1
    decay_mult: 1
  }
  param {
    lr_mult: 2
    decay_mult: 0
  }
  convolution_param {
    num_output: 3
    pad: 1
    kernel_size: 3
    stride: 1
    weight_filler {
      type: "xavier"
    }
    bias_filler {
      type: "constant"
      value: 0
    }
  }
}
layer {
  name: "prob"
  type: "Sigmoid"
  bottom: "score"
  top: "prob"
}
layer {
  name: "saliency"
  type: "Convolution"
  bottom: "prob"
  top: "saliency"
  param {
    lr_mult: 10
    decay_mult: 1
  }
  param {
    lr_mult: 20
    decay_mult: 0
  }
  convolution_param {
    num_output: 3
    pad: 2
    kernel_size: 5
    stride: 1
    weight_filler {
      type: "xavier"
    }
    bias_filler {
      type: "constant"
      value: 1
    }
  }
}
layer {
  name: "silence_saliency"
  type: "Silence"
  bottom: "saliency"
}
layer {
  name: "crop"
  type: "Python"
  bottom: "label"
  bottom: "data"
  bottom: "crop_margin"
  bottom: "crop_prob"
  bottom: "crop_sample_batch"
  top: "data-R"
  top: "crop_info"
  python_param {
    module: "Crop"
    layer: "CropLayer"
    param_str: "{\"TEST\": 0}"
  }
}
layer {
  name: "conv1_1-R"
  type: "Convolution"
  bottom: "data-R"
  top: "conv1_1-R"
  param {
    lr_mult: 10
    decay_mult: 1
  }
  param {
    lr_mult: 20
    decay_mult: 0
  }
  convolution_param {
    num_output: 64
    pad: 100
    kernel_size: 3
    stride: 1
  }
}
layer {
  name: "relu1_1-R"
  type: "ReLU"
  bottom: "conv1_1-R"
  top: "conv1_1-R"
}
layer {
  name: "conv1_2-R"
  type: "Convolution"
  bottom: "conv1_1-R"
  top: "conv1_2-R"
  param {
    lr_mult: 10
    decay_mult: 1
  }
  param {
    lr_mult: 20
    decay_mult: 0
  }
  convolution_param {
    num_output: 64
    pad: 1
    kernel_size: 3
    stride: 1
  }
}
layer {
  name: "relu1_2-R"
  type: "ReLU"
  bottom: "conv1_2-R"
  top: "conv1_2-R"
}
layer {
  name: "pool1-R"
  type: "Pooling"
  bottom: "conv1_2-R"
  top: "pool1-R"
  pooling_param {
    pool: MAX
    kernel_size: 2
    stride: 2
  }
}
layer {
  name: "conv2_1-R"
  type: "Convolution"
  bottom: "pool1-R"
  top: "conv2_1-R"
  param {
    lr_mult: 10
    decay_mult: 1
  }
  param {
    lr_mult: 20
    decay_mult: 0
  }
  convolution_param {
    num_output: 128
    pad: 1
    kernel_size: 3
    stride: 1
  }
}
layer {
  name: "relu2_1-R"
  type: "ReLU"
  bottom: "conv2_1-R"
  top: "conv2_1-R"
}
layer {
  name: "conv2_2-R"
  type: "Convolution"
  bottom: "conv2_1-R"
  top: "conv2_2-R"
  param {
    lr_mult: 10
    decay_mult: 1
  }
  param {
    lr_mult: 20
    decay_mult: 0
  }
  convolution_param {
    num_output: 128
    pad: 1
    kernel_size: 3
    stride: 1
  }
}
layer {
  name: "relu2_2-R"
  type: "ReLU"
  bottom: "conv2_2-R"
  top: "conv2_2-R"
}
layer {
  name: "pool2-R"
  type: "Pooling"
  bottom: "conv2_2-R"
  top: "pool2-R"
  pooling_param {
    pool: MAX
    kernel_size: 2
    stride: 2
  }
}
layer {
  name: "conv3_1-R"
  type: "Convolution"
  bottom: "pool2-R"
  top: "conv3_1-R"
  param {
    lr_mult: 10
    decay_mult: 1
  }
  param {
    lr_mult: 20
    decay_mult: 0
  }
  convolution_param {
    num_output: 256
    pad: 1
    kernel_size: 3
    stride: 1
  }
}
layer {
  name: "relu3_1-R"
  type: "ReLU"
  bottom: "conv3_1-R"
  top: "conv3_1-R"
}
layer {
  name: "conv3_2-R"
  type: "Convolution"
  bottom: "conv3_1-R"
  top: "conv3_2-R"
  param {
    lr_mult: 10
    decay_mult: 1
  }
  param {
    lr_mult: 20
    decay_mult: 0
  }
  convolution_param {
    num_output: 256
    pad: 1
    kernel_size: 3
    stride: 1
  }
}
layer {
  name: "relu3_2-R"
  type: "ReLU"
  bottom: "conv3_2-R"
  top: "conv3_2-R"
}
layer {
  name: "conv3_3-R"
  type: "Convolution"
  bottom: "conv3_2-R"
  top: "conv3_3-R"
  param {
    lr_mult: 10
    decay_mult: 1
  }
  param {
    lr_mult: 20
    decay_mult: 0
  }
  convolution_param {
    num_output: 256
    pad: 1
    kernel_size: 3
    stride: 1
  }
}
layer {
  name: "relu3_3-R"
  type: "ReLU"
  bottom: "conv3_3-R"
  top: "conv3_3-R"
}
layer {
  name: "pool3-R"
  type: "Pooling"
  bottom: "conv3_3-R"
  top: "pool3-R"
  pooling_param {
    pool: MAX
    kernel_size: 2
    stride: 2
  }
}
layer {
  name: "conv4_1-R"
  type: "Convolution"
  bottom: "pool3-R"
  top: "conv4_1-R"
  param {
    lr_mult: 10
    decay_mult: 1
  }
  param {
    lr_mult: 20
    decay_mult: 0
  }
  convolution_param {
    num_output: 512
    pad: 1
    kernel_size: 3
    stride: 1
  }
}
layer {
  name: "relu4_1-R"
  type: "ReLU"
  bottom: "conv4_1-R"
  top: "conv4_1-R"
}
layer {
  name: "conv4_2-R"
  type: "Convolution"
  bottom: "conv4_1-R"
  top: "conv4_2-R"
  param {
    lr_mult: 10
    decay_mult: 1
  }
  param {
    lr_mult: 20
    decay_mult: 0
  }
  convolution_param {
    num_output: 512
    pad: 1
    kernel_size: 3
    stride: 1
  }
}
layer {
  name: "relu4_2-R"
  type: "ReLU"
  bottom: "conv4_2-R"
  top: "conv4_2-R"
}
layer {
  name: "conv4_3-R"
  type: "Convolution"
  bottom: "conv4_2-R"
  top: "conv4_3-R"
  param {
    lr_mult: 10
    decay_mult: 1
  }
  param {
    lr_mult: 20
    decay_mult: 0
  }
  convolution_param {
    num_output: 512
    pad: 1
    kernel_size: 3
    stride: 1
  }
}
layer {
  name: "relu4_3-R"
  type: "ReLU"
  bottom: "conv4_3-R"
  top: "conv4_3-R"
}
layer {
  name: "pool4-R"
  type: "Pooling"
  bottom: "conv4_3-R"
  top: "pool4-R"
  pooling_param {
    pool: MAX
    kernel_size: 2
    stride: 2
  }
}
layer {
  name: "conv5_1-R"
  type: "Convolution"
  bottom: "pool4-R"
  top: "conv5_1-R"
  param {
    lr_mult: 10
    decay_mult: 1
  }
  param {
    lr_mult: 20
    decay_mult: 0
  }
  convolution_param {
    num_output: 512
    pad: 1
    kernel_size: 3
    stride: 1
  }
}
layer {
  name: "relu5_1-R"
  type: "ReLU"
  bottom: "conv5_1-R"
  top: "conv5_1-R"
}
layer {
  name: "conv5_2-R"
  type: "Convolution"
  bottom: "conv5_1-R"
  top: "conv5_2-R"
  param {
    lr_mult: 10
    decay_mult: 1
  }
  param {
    lr_mult: 20
    decay_mult: 0
  }
  convolution_param {
    num_output: 512
    pad: 1
    kernel_size: 3
    stride: 1
  }
}
layer {
  name: "relu5_2-R"
  type: "ReLU"
  bottom: "conv5_2-R"
  top: "conv5_2-R"
}
layer {
  name: "conv5_3-R"
  type: "Convolution"
  bottom: "conv5_2-R"
  top: "conv5_3-R"
  param {
    lr_mult: 10
    decay_mult: 1
  }
  param {
    lr_mult: 20
    decay_mult: 0
  }
  convolution_param {
    num_output: 512
    pad: 1
    kernel_size: 3
    stride: 1
  }
}
layer {
  name: "relu5_3-R"
  type: "ReLU"
  bottom: "conv5_3-R"
  top: "conv5_3-R"
}
layer {
  name: "pool5-R"
  type: "Pooling"
  bottom: "conv5_3-R"
  top: "pool5-R"
  pooling_param {
    pool: MAX
    kernel_size: 2
    stride: 2
  }
}
layer {
  name: "fc6-R"
  type: "Convolution"
  bottom: "pool5-R"
  top: "fc6-R"
  param {
    lr_mult: 10
    decay_mult: 1
  }
  param {
    lr_mult: 20
    decay_mult: 0
  }
  convolution_param {
    num_output: 4096
    pad: 0
    kernel_size: 7
    stride: 1
  }
}
layer {
  name: "relu6-R"
  type: "ReLU"
  bottom: "fc6-R"
  top: "fc6-R"
}
layer {
  name: "drop6-R"
  type: "Dropout"
  bottom: "fc6-R"
  top: "fc6-R"
  dropout_param {
    dropout_ratio: 0.5
  }
}
layer {
  name: "fc7-R"
  type: "Convolution"
  bottom: "fc6-R"
  top: "fc7-R"
  param {
    lr_mult: 10
    decay_mult: 1
  }
  param {
    lr_mult: 20
    decay_mult: 0
  }
  convolution_param {
    num_output: 4096
    pad: 0
    kernel_size: 1
    stride: 1
  }
}
layer {
  name: "relu7-R"
  type: "ReLU"
  bottom: "fc7-R"
  top: "fc7-R"
}
layer {
  name: "drop7-R"
  type: "Dropout"
  bottom: "fc7-R"
  top: "fc7-R"
  dropout_param {
    dropout_ratio: 0.5
  }
}
layer {
  name: "score_fr-new-R"
  type: "Convolution"
  bottom: "fc7-R"
  top: "score_fr-new-R"
  param {
    lr_mult: 10
    decay_mult: 1
  }
  param {
    lr_mult: 20
    decay_mult: 0
  }
  convolution_param {
    num_output: 3
    kernel_size: 1
  }
}
layer {
  name: "upscore2-new-R"
  type: "Deconvolution"
  bottom: "score_fr-new-R"
  top: "upscore2-new-R"
  param {
    lr_mult: 0
  }
  convolution_param {
    num_output: 3
    bias_term: false
    kernel_size: 4
    stride: 2
  }
}
layer {
  name: "score_pool4-new-R"
  type: "Convolution"
  bottom: "pool4-R"
  top: "score_pool4-new-R"
  param {
    lr_mult: 10
    decay_mult: 1
  }
  param {
    lr_mult: 20
    decay_mult: 0
  }
  convolution_param {
    num_output: 3
    pad: 0
    kernel_size: 1
  }
}
layer {
  name: "score_pool4c-R"
  type: "Crop"
  bottom: "score_pool4-new-R"
  bottom: "upscore2-new-R"
  top: "score_pool4c-R"
  crop_param {
    axis: 2
    offset: 5
  }
}
layer {
  name: "fuse_pool4-R"
  type: "Eltwise"
  bottom: "upscore2-new-R"
  bottom: "score_pool4c-R"
  top: "fuse_pool4-R"
  eltwise_param {
    operation: SUM
  }
}
layer {
  name: "upscore_pool4-new-R"
  type: "Deconvolution"
  bottom: "fuse_pool4-R"
  top: "upscore_pool4-new-R"
  param {
    lr_mult: 0
  }
  convolution_param {
    num_output: 3
    bias_term: false
    kernel_size: 4
    stride: 2
  }
}
layer {
  name: "score_pool3-new-R"
  type: "Convolution"
  bottom: "pool3-R"
  top: "score_pool3-new-R"
  param {
    lr_mult: 10
    decay_mult: 1
  }
  param {
    lr_mult: 20
    decay_mult: 0
  }
  convolution_param {
    num_output: 3
    pad: 0
    kernel_size: 1
  }
}
layer {
  name: "score_pool3c-R"
  type: "Crop"
  bottom: "score_pool3-new-R"
  bottom: "upscore_pool4-new-R"
  top: "score_pool3c-R"
  crop_param {
    axis: 2
    offset: 9
  }
}
layer {
  name: "fuse_pool3-R"
  type: "Eltwise"
  bottom: "upscore_pool4-new-R"
  bottom: "score_pool3c-R"
  top: "fuse_pool3-R"
  eltwise_param {
    operation: SUM
  }
}
layer {
  name: "upscore8-new-R"
  type: "Deconvolution"
  bottom: "fuse_pool3-R"
  top: "upscore8-new-R"
  param {
    lr_mult: 0
  }
  convolution_param {
    num_output: 3
    bias_term: false
    kernel_size: 16
    stride: 8
  }
}
layer {
  name: "upscore8_cropped-R"
  type: "Crop"
  bottom: "upscore8-new-R"
  bottom: "data-R"
  top: "upscore8_cropped-R"
  crop_param {
    axis: 2
    offset: 31
  }
}
layer {
  name: "score-R"
  type: "Convolution"
  bottom: "upscore8_cropped-R"
  top: "score-R"
  param {
    lr_mult: 10
    decay_mult: 1
  }
  param {
    lr_mult: 20
    decay_mult: 0
  }
  convolution_param {
    num_output: 3
    pad: 1
    kernel_size: 3
    stride: 1
    weight_filler {
      type: "xavier"
    }
    bias_filler {
      type: "constant"
      value: 0
    }
  }
}
layer {
  name: "score_uncropped-R"
  type: "Python"
  bottom: "crop_info"
  bottom: "score-R"
  bottom: "data"
  top: "score_uncropped-R"
  python_param {
    module: "Uncrop"
    layer: "UncropLayer"
  }
}
layer {
  name: "loss1"
  type: "DiceLoss"
  bottom: "score"
  bottom: "label"
  top: "loss1"
  loss_weight: 0.333333
}
layer {
  name: "loss2"
  type: "DiceLoss"
  bottom: "score_uncropped-R"
  bottom: "label"
  top: "loss2"
  loss_weight: 0.666667
}
I0419 03:16:34.712644 23576 layer_factory.hpp:77] Creating layer data
I0419 03:16:34.713183 23576 net.cpp:84] Creating Layer data
I0419 03:16:34.713201 23576 net.cpp:380] data -> data
I0419 03:16:34.713219 23576 net.cpp:380] data -> label
I0419 03:16:34.713227 23576 net.cpp:380] data -> crop_margin
I0419 03:16:34.713235 23576 net.cpp:380] data -> crop_prob
I0419 03:16:34.713241 23576 net.cpp:380] data -> crop_sample_batch
I0419 03:16:34.823740 23576 net.cpp:122] Setting up data
I0419 03:16:34.823784 23576 net.cpp:129] Top shape: 1 3 512 512 (786432)
I0419 03:16:34.823794 23576 net.cpp:129] Top shape: 1 3 512 512 (786432)
I0419 03:16:34.823803 23576 net.cpp:129] Top shape: 1 (1)
I0419 03:16:34.823810 23576 net.cpp:129] Top shape: 1 (1)
I0419 03:16:34.823818 23576 net.cpp:129] Top shape: 1 (1)
I0419 03:16:34.823824 23576 net.cpp:137] Memory required for data: 6291468
I0419 03:16:34.823835 23576 layer_factory.hpp:77] Creating layer data_data_0_split
I0419 03:16:34.823859 23576 net.cpp:84] Creating Layer data_data_0_split
I0419 03:16:34.823868 23576 net.cpp:406] data_data_0_split <- data
I0419 03:16:34.823887 23576 net.cpp:380] data_data_0_split -> data_data_0_split_0
I0419 03:16:34.823915 23576 net.cpp:380] data_data_0_split -> data_data_0_split_1
I0419 03:16:34.823928 23576 net.cpp:380] data_data_0_split -> data_data_0_split_2
I0419 03:16:34.823949 23576 net.cpp:380] data_data_0_split -> data_data_0_split_3
I0419 03:16:34.824021 23576 net.cpp:122] Setting up data_data_0_split
I0419 03:16:34.824033 23576 net.cpp:129] Top shape: 1 3 512 512 (786432)
I0419 03:16:34.824043 23576 net.cpp:129] Top shape: 1 3 512 512 (786432)
I0419 03:16:34.824050 23576 net.cpp:129] Top shape: 1 3 512 512 (786432)
I0419 03:16:34.824059 23576 net.cpp:129] Top shape: 1 3 512 512 (786432)
I0419 03:16:34.824066 23576 net.cpp:137] Memory required for data: 18874380
I0419 03:16:34.824072 23576 layer_factory.hpp:77] Creating layer label_data_1_split
I0419 03:16:34.824084 23576 net.cpp:84] Creating Layer label_data_1_split
I0419 03:16:34.824091 23576 net.cpp:406] label_data_1_split <- label
I0419 03:16:34.824101 23576 net.cpp:380] label_data_1_split -> label_data_1_split_0
I0419 03:16:34.824113 23576 net.cpp:380] label_data_1_split -> label_data_1_split_1
I0419 03:16:34.824124 23576 net.cpp:380] label_data_1_split -> label_data_1_split_2
I0419 03:16:34.824177 23576 net.cpp:122] Setting up label_data_1_split
I0419 03:16:34.824187 23576 net.cpp:129] Top shape: 1 3 512 512 (786432)
I0419 03:16:34.824196 23576 net.cpp:129] Top shape: 1 3 512 512 (786432)
I0419 03:16:34.824204 23576 net.cpp:129] Top shape: 1 3 512 512 (786432)
I0419 03:16:34.824210 23576 net.cpp:137] Memory required for data: 28311564
I0419 03:16:34.824218 23576 layer_factory.hpp:77] Creating layer conv1_1
I0419 03:16:34.824240 23576 net.cpp:84] Creating Layer conv1_1
I0419 03:16:34.824249 23576 net.cpp:406] conv1_1 <- data_data_0_split_0
I0419 03:16:34.824259 23576 net.cpp:380] conv1_1 -> conv1_1
I0419 03:16:35.197649 23576 net.cpp:122] Setting up conv1_1
I0419 03:16:35.197703 23576 net.cpp:129] Top shape: 1 64 710 710 (32262400)
I0419 03:16:35.197707 23576 net.cpp:137] Memory required for data: 157361164
I0419 03:16:35.197768 23576 layer_factory.hpp:77] Creating layer relu1_1
I0419 03:16:35.197788 23576 net.cpp:84] Creating Layer relu1_1
I0419 03:16:35.197793 23576 net.cpp:406] relu1_1 <- conv1_1
I0419 03:16:35.197799 23576 net.cpp:367] relu1_1 -> conv1_1 (in-place)
I0419 03:16:35.198046 23576 net.cpp:122] Setting up relu1_1
I0419 03:16:35.198056 23576 net.cpp:129] Top shape: 1 64 710 710 (32262400)
I0419 03:16:35.198060 23576 net.cpp:137] Memory required for data: 286410764
I0419 03:16:35.198063 23576 layer_factory.hpp:77] Creating layer conv1_2
I0419 03:16:35.198074 23576 net.cpp:84] Creating Layer conv1_2
I0419 03:16:35.198078 23576 net.cpp:406] conv1_2 <- conv1_1
I0419 03:16:35.198084 23576 net.cpp:380] conv1_2 -> conv1_2
I0419 03:16:35.208691 23576 net.cpp:122] Setting up conv1_2
I0419 03:16:35.208725 23576 net.cpp:129] Top shape: 1 64 710 710 (32262400)
I0419 03:16:35.208734 23576 net.cpp:137] Memory required for data: 415460364
I0419 03:16:35.208756 23576 layer_factory.hpp:77] Creating layer relu1_2
I0419 03:16:35.208770 23576 net.cpp:84] Creating Layer relu1_2
I0419 03:16:35.208778 23576 net.cpp:406] relu1_2 <- conv1_2
I0419 03:16:35.208791 23576 net.cpp:367] relu1_2 -> conv1_2 (in-place)
I0419 03:16:35.209156 23576 net.cpp:122] Setting up relu1_2
I0419 03:16:35.209177 23576 net.cpp:129] Top shape: 1 64 710 710 (32262400)
I0419 03:16:35.209184 23576 net.cpp:137] Memory required for data: 544509964
I0419 03:16:35.209192 23576 layer_factory.hpp:77] Creating layer pool1
I0419 03:16:35.209206 23576 net.cpp:84] Creating Layer pool1
I0419 03:16:35.209213 23576 net.cpp:406] pool1 <- conv1_2
I0419 03:16:35.209224 23576 net.cpp:380] pool1 -> pool1
I0419 03:16:35.209318 23576 net.cpp:122] Setting up pool1
I0419 03:16:35.209333 23576 net.cpp:129] Top shape: 1 64 355 355 (8065600)
I0419 03:16:35.209341 23576 net.cpp:137] Memory required for data: 576772364
I0419 03:16:35.209354 23576 layer_factory.hpp:77] Creating layer conv2_1
I0419 03:16:35.209372 23576 net.cpp:84] Creating Layer conv2_1
I0419 03:16:35.209383 23576 net.cpp:406] conv2_1 <- pool1
I0419 03:16:35.209394 23576 net.cpp:380] conv2_1 -> conv2_1
I0419 03:16:35.215189 23576 net.cpp:122] Setting up conv2_1
I0419 03:16:35.215219 23576 net.cpp:129] Top shape: 1 128 355 355 (16131200)
I0419 03:16:35.215224 23576 net.cpp:137] Memory required for data: 641297164
I0419 03:16:35.215234 23576 layer_factory.hpp:77] Creating layer relu2_1
I0419 03:16:35.215240 23576 net.cpp:84] Creating Layer relu2_1
I0419 03:16:35.215243 23576 net.cpp:406] relu2_1 <- conv2_1
I0419 03:16:35.215265 23576 net.cpp:367] relu2_1 -> conv2_1 (in-place)
I0419 03:16:35.215463 23576 net.cpp:122] Setting up relu2_1
I0419 03:16:35.215473 23576 net.cpp:129] Top shape: 1 128 355 355 (16131200)
I0419 03:16:35.215477 23576 net.cpp:137] Memory required for data: 705821964
I0419 03:16:35.215481 23576 layer_factory.hpp:77] Creating layer conv2_2
I0419 03:16:35.215489 23576 net.cpp:84] Creating Layer conv2_2
I0419 03:16:35.215512 23576 net.cpp:406] conv2_2 <- conv2_1
I0419 03:16:35.215520 23576 net.cpp:380] conv2_2 -> conv2_2
I0419 03:16:35.218982 23576 net.cpp:122] Setting up conv2_2
I0419 03:16:35.219009 23576 net.cpp:129] Top shape: 1 128 355 355 (16131200)
I0419 03:16:35.219017 23576 net.cpp:137] Memory required for data: 770346764
I0419 03:16:35.219029 23576 layer_factory.hpp:77] Creating layer relu2_2
I0419 03:16:35.219040 23576 net.cpp:84] Creating Layer relu2_2
I0419 03:16:35.219048 23576 net.cpp:406] relu2_2 <- conv2_2
I0419 03:16:35.219056 23576 net.cpp:367] relu2_2 -> conv2_2 (in-place)
I0419 03:16:35.219352 23576 net.cpp:122] Setting up relu2_2
I0419 03:16:35.219369 23576 net.cpp:129] Top shape: 1 128 355 355 (16131200)
I0419 03:16:35.219375 23576 net.cpp:137] Memory required for data: 834871564
I0419 03:16:35.219382 23576 layer_factory.hpp:77] Creating layer pool2
I0419 03:16:35.219393 23576 net.cpp:84] Creating Layer pool2
I0419 03:16:35.219398 23576 net.cpp:406] pool2 <- conv2_2
I0419 03:16:35.219408 23576 net.cpp:380] pool2 -> pool2
I0419 03:16:35.219476 23576 net.cpp:122] Setting up pool2
I0419 03:16:35.219489 23576 net.cpp:129] Top shape: 1 128 178 178 (4055552)
I0419 03:16:35.219494 23576 net.cpp:137] Memory required for data: 851093772
I0419 03:16:35.219499 23576 layer_factory.hpp:77] Creating layer conv3_1
I0419 03:16:35.219516 23576 net.cpp:84] Creating Layer conv3_1
I0419 03:16:35.219525 23576 net.cpp:406] conv3_1 <- pool2
I0419 03:16:35.219535 23576 net.cpp:380] conv3_1 -> conv3_1
I0419 03:16:35.223870 23576 net.cpp:122] Setting up conv3_1
I0419 03:16:35.223891 23576 net.cpp:129] Top shape: 1 256 178 178 (8111104)
I0419 03:16:35.223897 23576 net.cpp:137] Memory required for data: 883538188
I0419 03:16:35.223914 23576 layer_factory.hpp:77] Creating layer relu3_1
I0419 03:16:35.223923 23576 net.cpp:84] Creating Layer relu3_1
I0419 03:16:35.223929 23576 net.cpp:406] relu3_1 <- conv3_1
I0419 03:16:35.223938 23576 net.cpp:367] relu3_1 -> conv3_1 (in-place)
I0419 03:16:35.224632 23576 net.cpp:122] Setting up relu3_1
I0419 03:16:35.224650 23576 net.cpp:129] Top shape: 1 256 178 178 (8111104)
I0419 03:16:35.224656 23576 net.cpp:137] Memory required for data: 915982604
I0419 03:16:35.224661 23576 layer_factory.hpp:77] Creating layer conv3_2
I0419 03:16:35.224675 23576 net.cpp:84] Creating Layer conv3_2
I0419 03:16:35.224680 23576 net.cpp:406] conv3_2 <- conv3_1
I0419 03:16:35.224691 23576 net.cpp:380] conv3_2 -> conv3_2
I0419 03:16:35.228672 23576 net.cpp:122] Setting up conv3_2
I0419 03:16:35.228693 23576 net.cpp:129] Top shape: 1 256 178 178 (8111104)
I0419 03:16:35.228699 23576 net.cpp:137] Memory required for data: 948427020
I0419 03:16:35.228709 23576 layer_factory.hpp:77] Creating layer relu3_2
I0419 03:16:35.228724 23576 net.cpp:84] Creating Layer relu3_2
I0419 03:16:35.228729 23576 net.cpp:406] relu3_2 <- conv3_2
I0419 03:16:35.228737 23576 net.cpp:367] relu3_2 -> conv3_2 (in-place)
I0419 03:16:35.229434 23576 net.cpp:122] Setting up relu3_2
I0419 03:16:35.229452 23576 net.cpp:129] Top shape: 1 256 178 178 (8111104)
I0419 03:16:35.229457 23576 net.cpp:137] Memory required for data: 980871436
I0419 03:16:35.229462 23576 layer_factory.hpp:77] Creating layer conv3_3
I0419 03:16:35.229477 23576 net.cpp:84] Creating Layer conv3_3
I0419 03:16:35.229482 23576 net.cpp:406] conv3_3 <- conv3_2
I0419 03:16:35.229493 23576 net.cpp:380] conv3_3 -> conv3_3
I0419 03:16:35.235143 23576 net.cpp:122] Setting up conv3_3
I0419 03:16:35.235174 23576 net.cpp:129] Top shape: 1 256 178 178 (8111104)
I0419 03:16:35.235178 23576 net.cpp:137] Memory required for data: 1013315852
I0419 03:16:35.235185 23576 layer_factory.hpp:77] Creating layer relu3_3
I0419 03:16:35.235191 23576 net.cpp:84] Creating Layer relu3_3
I0419 03:16:35.235195 23576 net.cpp:406] relu3_3 <- conv3_3
I0419 03:16:35.235219 23576 net.cpp:367] relu3_3 -> conv3_3 (in-place)
I0419 03:16:35.235443 23576 net.cpp:122] Setting up relu3_3
I0419 03:16:35.235453 23576 net.cpp:129] Top shape: 1 256 178 178 (8111104)
I0419 03:16:35.235456 23576 net.cpp:137] Memory required for data: 1045760268
I0419 03:16:35.235460 23576 layer_factory.hpp:77] Creating layer pool3
I0419 03:16:35.235466 23576 net.cpp:84] Creating Layer pool3
I0419 03:16:35.235469 23576 net.cpp:406] pool3 <- conv3_3
I0419 03:16:35.235477 23576 net.cpp:380] pool3 -> pool3
I0419 03:16:35.235548 23576 net.cpp:122] Setting up pool3
I0419 03:16:35.235559 23576 net.cpp:129] Top shape: 1 256 89 89 (2027776)
I0419 03:16:35.235563 23576 net.cpp:137] Memory required for data: 1053871372
I0419 03:16:35.235568 23576 layer_factory.hpp:77] Creating layer pool3_pool3_0_split
I0419 03:16:35.235579 23576 net.cpp:84] Creating Layer pool3_pool3_0_split
I0419 03:16:35.235582 23576 net.cpp:406] pool3_pool3_0_split <- pool3
I0419 03:16:35.235589 23576 net.cpp:380] pool3_pool3_0_split -> pool3_pool3_0_split_0
I0419 03:16:35.235597 23576 net.cpp:380] pool3_pool3_0_split -> pool3_pool3_0_split_1
I0419 03:16:35.235656 23576 net.cpp:122] Setting up pool3_pool3_0_split
I0419 03:16:35.235666 23576 net.cpp:129] Top shape: 1 256 89 89 (2027776)
I0419 03:16:35.235671 23576 net.cpp:129] Top shape: 1 256 89 89 (2027776)
I0419 03:16:35.235677 23576 net.cpp:137] Memory required for data: 1070093580
I0419 03:16:35.235680 23576 layer_factory.hpp:77] Creating layer conv4_1
I0419 03:16:35.235693 23576 net.cpp:84] Creating Layer conv4_1
I0419 03:16:35.235703 23576 net.cpp:406] conv4_1 <- pool3_pool3_0_split_0
I0419 03:16:35.235713 23576 net.cpp:380] conv4_1 -> conv4_1
I0419 03:16:35.244611 23576 net.cpp:122] Setting up conv4_1
I0419 03:16:35.244633 23576 net.cpp:129] Top shape: 1 512 89 89 (4055552)
I0419 03:16:35.244638 23576 net.cpp:137] Memory required for data: 1086315788
I0419 03:16:35.244648 23576 layer_factory.hpp:77] Creating layer relu4_1
I0419 03:16:35.244658 23576 net.cpp:84] Creating Layer relu4_1
I0419 03:16:35.244663 23576 net.cpp:406] relu4_1 <- conv4_1
I0419 03:16:35.244673 23576 net.cpp:367] relu4_1 -> conv4_1 (in-place)
I0419 03:16:35.244931 23576 net.cpp:122] Setting up relu4_1
I0419 03:16:35.244945 23576 net.cpp:129] Top shape: 1 512 89 89 (4055552)
I0419 03:16:35.244948 23576 net.cpp:137] Memory required for data: 1102537996
I0419 03:16:35.244952 23576 layer_factory.hpp:77] Creating layer conv4_2
I0419 03:16:35.244966 23576 net.cpp:84] Creating Layer conv4_2
I0419 03:16:35.244969 23576 net.cpp:406] conv4_2 <- conv4_1
I0419 03:16:35.244977 23576 net.cpp:380] conv4_2 -> conv4_2
I0419 03:16:35.252303 23576 net.cpp:122] Setting up conv4_2
I0419 03:16:35.252321 23576 net.cpp:129] Top shape: 1 512 89 89 (4055552)
I0419 03:16:35.252324 23576 net.cpp:137] Memory required for data: 1118760204
I0419 03:16:35.252336 23576 layer_factory.hpp:77] Creating layer relu4_2
I0419 03:16:35.252344 23576 net.cpp:84] Creating Layer relu4_2
I0419 03:16:35.252348 23576 net.cpp:406] relu4_2 <- conv4_2
I0419 03:16:35.252352 23576 net.cpp:367] relu4_2 -> conv4_2 (in-place)
I0419 03:16:35.252575 23576 net.cpp:122] Setting up relu4_2
I0419 03:16:35.252585 23576 net.cpp:129] Top shape: 1 512 89 89 (4055552)
I0419 03:16:35.252589 23576 net.cpp:137] Memory required for data: 1134982412
I0419 03:16:35.252593 23576 layer_factory.hpp:77] Creating layer conv4_3
I0419 03:16:35.252602 23576 net.cpp:84] Creating Layer conv4_3
I0419 03:16:35.252606 23576 net.cpp:406] conv4_3 <- conv4_2
I0419 03:16:35.252611 23576 net.cpp:380] conv4_3 -> conv4_3
I0419 03:16:35.261006 23576 net.cpp:122] Setting up conv4_3
I0419 03:16:35.261031 23576 net.cpp:129] Top shape: 1 512 89 89 (4055552)
I0419 03:16:35.261036 23576 net.cpp:137] Memory required for data: 1151204620
I0419 03:16:35.261046 23576 layer_factory.hpp:77] Creating layer relu4_3
I0419 03:16:35.261056 23576 net.cpp:84] Creating Layer relu4_3
I0419 03:16:35.261062 23576 net.cpp:406] relu4_3 <- conv4_3
I0419 03:16:35.261070 23576 net.cpp:367] relu4_3 -> conv4_3 (in-place)
I0419 03:16:35.261306 23576 net.cpp:122] Setting up relu4_3
I0419 03:16:35.261318 23576 net.cpp:129] Top shape: 1 512 89 89 (4055552)
I0419 03:16:35.261322 23576 net.cpp:137] Memory required for data: 1167426828
I0419 03:16:35.261327 23576 layer_factory.hpp:77] Creating layer pool4
I0419 03:16:35.261337 23576 net.cpp:84] Creating Layer pool4
I0419 03:16:35.261340 23576 net.cpp:406] pool4 <- conv4_3
I0419 03:16:35.261350 23576 net.cpp:380] pool4 -> pool4
I0419 03:16:35.261413 23576 net.cpp:122] Setting up pool4
I0419 03:16:35.261422 23576 net.cpp:129] Top shape: 1 512 45 45 (1036800)
I0419 03:16:35.261426 23576 net.cpp:137] Memory required for data: 1171574028
I0419 03:16:35.261430 23576 layer_factory.hpp:77] Creating layer pool4_pool4_0_split
I0419 03:16:35.261440 23576 net.cpp:84] Creating Layer pool4_pool4_0_split
I0419 03:16:35.261445 23576 net.cpp:406] pool4_pool4_0_split <- pool4
I0419 03:16:35.261451 23576 net.cpp:380] pool4_pool4_0_split -> pool4_pool4_0_split_0
I0419 03:16:35.261458 23576 net.cpp:380] pool4_pool4_0_split -> pool4_pool4_0_split_1
I0419 03:16:35.261503 23576 net.cpp:122] Setting up pool4_pool4_0_split
I0419 03:16:35.261512 23576 net.cpp:129] Top shape: 1 512 45 45 (1036800)
I0419 03:16:35.261518 23576 net.cpp:129] Top shape: 1 512 45 45 (1036800)
I0419 03:16:35.261521 23576 net.cpp:137] Memory required for data: 1179868428
I0419 03:16:35.261525 23576 layer_factory.hpp:77] Creating layer conv5_1
I0419 03:16:35.261538 23576 net.cpp:84] Creating Layer conv5_1
I0419 03:16:35.261548 23576 net.cpp:406] conv5_1 <- pool4_pool4_0_split_0
I0419 03:16:35.261556 23576 net.cpp:380] conv5_1 -> conv5_1
I0419 03:16:35.270220 23576 net.cpp:122] Setting up conv5_1
I0419 03:16:35.270242 23576 net.cpp:129] Top shape: 1 512 45 45 (1036800)
I0419 03:16:35.270247 23576 net.cpp:137] Memory required for data: 1184015628
I0419 03:16:35.270256 23576 layer_factory.hpp:77] Creating layer relu5_1
I0419 03:16:35.270264 23576 net.cpp:84] Creating Layer relu5_1
I0419 03:16:35.270270 23576 net.cpp:406] relu5_1 <- conv5_1
I0419 03:16:35.270279 23576 net.cpp:367] relu5_1 -> conv5_1 (in-place)
I0419 03:16:35.270889 23576 net.cpp:122] Setting up relu5_1
I0419 03:16:35.270901 23576 net.cpp:129] Top shape: 1 512 45 45 (1036800)
I0419 03:16:35.270905 23576 net.cpp:137] Memory required for data: 1188162828
I0419 03:16:35.270908 23576 layer_factory.hpp:77] Creating layer conv5_2
I0419 03:16:35.270917 23576 net.cpp:84] Creating Layer conv5_2
I0419 03:16:35.270920 23576 net.cpp:406] conv5_2 <- conv5_1
I0419 03:16:35.270926 23576 net.cpp:380] conv5_2 -> conv5_2
I0419 03:16:35.282021 23576 net.cpp:122] Setting up conv5_2
I0419 03:16:35.282054 23576 net.cpp:129] Top shape: 1 512 45 45 (1036800)
I0419 03:16:35.282058 23576 net.cpp:137] Memory required for data: 1192310028
I0419 03:16:35.282064 23576 layer_factory.hpp:77] Creating layer relu5_2
I0419 03:16:35.282076 23576 net.cpp:84] Creating Layer relu5_2
I0419 03:16:35.282097 23576 net.cpp:406] relu5_2 <- conv5_2
I0419 03:16:35.282105 23576 net.cpp:367] relu5_2 -> conv5_2 (in-place)
I0419 03:16:35.288535 23576 net.cpp:122] Setting up relu5_2
I0419 03:16:35.288596 23576 net.cpp:129] Top shape: 1 512 45 45 (1036800)
I0419 03:16:35.288605 23576 net.cpp:137] Memory required for data: 1196457228
I0419 03:16:35.288615 23576 layer_factory.hpp:77] Creating layer conv5_3
I0419 03:16:35.288661 23576 net.cpp:84] Creating Layer conv5_3
I0419 03:16:35.288671 23576 net.cpp:406] conv5_3 <- conv5_2
I0419 03:16:35.288689 23576 net.cpp:380] conv5_3 -> conv5_3
I0419 03:16:35.310638 23576 net.cpp:122] Setting up conv5_3
I0419 03:16:35.310688 23576 net.cpp:129] Top shape: 1 512 45 45 (1036800)
I0419 03:16:35.310696 23576 net.cpp:137] Memory required for data: 1200604428
I0419 03:16:35.310712 23576 layer_factory.hpp:77] Creating layer relu5_3
I0419 03:16:35.310745 23576 net.cpp:84] Creating Layer relu5_3
I0419 03:16:35.310752 23576 net.cpp:406] relu5_3 <- conv5_3
I0419 03:16:35.310763 23576 net.cpp:367] relu5_3 -> conv5_3 (in-place)
I0419 03:16:35.311158 23576 net.cpp:122] Setting up relu5_3
I0419 03:16:35.311189 23576 net.cpp:129] Top shape: 1 512 45 45 (1036800)
I0419 03:16:35.311213 23576 net.cpp:137] Memory required for data: 1204751628
I0419 03:16:35.311219 23576 layer_factory.hpp:77] Creating layer pool5
I0419 03:16:35.311249 23576 net.cpp:84] Creating Layer pool5
I0419 03:16:35.311257 23576 net.cpp:406] pool5 <- conv5_3
I0419 03:16:35.311278 23576 net.cpp:380] pool5 -> pool5
I0419 03:16:35.311372 23576 net.cpp:122] Setting up pool5
I0419 03:16:35.311394 23576 net.cpp:129] Top shape: 1 512 23 23 (270848)
I0419 03:16:35.311400 23576 net.cpp:137] Memory required for data: 1205835020
I0419 03:16:35.311408 23576 layer_factory.hpp:77] Creating layer fc6
I0419 03:16:35.311425 23576 net.cpp:84] Creating Layer fc6
I0419 03:16:35.311434 23576 net.cpp:406] fc6 <- pool5
I0419 03:16:35.311451 23576 net.cpp:380] fc6 -> fc6
I0419 03:16:35.661526 23576 net.cpp:122] Setting up fc6
I0419 03:16:35.661566 23576 net.cpp:129] Top shape: 1 4096 17 17 (1183744)
I0419 03:16:35.661571 23576 net.cpp:137] Memory required for data: 1210569996
I0419 03:16:35.661589 23576 layer_factory.hpp:77] Creating layer relu6
I0419 03:16:35.661608 23576 net.cpp:84] Creating Layer relu6
I0419 03:16:35.661625 23576 net.cpp:406] relu6 <- fc6
I0419 03:16:35.661635 23576 net.cpp:367] relu6 -> fc6 (in-place)
I0419 03:16:35.661819 23576 net.cpp:122] Setting up relu6
I0419 03:16:35.661841 23576 net.cpp:129] Top shape: 1 4096 17 17 (1183744)
I0419 03:16:35.661844 23576 net.cpp:137] Memory required for data: 1215304972
I0419 03:16:35.661849 23576 layer_factory.hpp:77] Creating layer drop6
I0419 03:16:35.661864 23576 net.cpp:84] Creating Layer drop6
I0419 03:16:35.661866 23576 net.cpp:406] drop6 <- fc6
I0419 03:16:35.661870 23576 net.cpp:367] drop6 -> fc6 (in-place)
I0419 03:16:35.661901 23576 net.cpp:122] Setting up drop6
I0419 03:16:35.661917 23576 net.cpp:129] Top shape: 1 4096 17 17 (1183744)
I0419 03:16:35.661921 23576 net.cpp:137] Memory required for data: 1220039948
I0419 03:16:35.661923 23576 layer_factory.hpp:77] Creating layer fc7
I0419 03:16:35.661934 23576 net.cpp:84] Creating Layer fc7
I0419 03:16:35.661937 23576 net.cpp:406] fc7 <- fc6
I0419 03:16:35.661948 23576 net.cpp:380] fc7 -> fc7
I0419 03:16:35.717047 23576 net.cpp:122] Setting up fc7
I0419 03:16:35.717097 23576 net.cpp:129] Top shape: 1 4096 17 17 (1183744)
I0419 03:16:35.717103 23576 net.cpp:137] Memory required for data: 1224774924
I0419 03:16:35.717113 23576 layer_factory.hpp:77] Creating layer relu7
I0419 03:16:35.717126 23576 net.cpp:84] Creating Layer relu7
I0419 03:16:35.717145 23576 net.cpp:406] relu7 <- fc7
I0419 03:16:35.717152 23576 net.cpp:367] relu7 -> fc7 (in-place)
I0419 03:16:35.717677 23576 net.cpp:122] Setting up relu7
I0419 03:16:35.717705 23576 net.cpp:129] Top shape: 1 4096 17 17 (1183744)
I0419 03:16:35.717710 23576 net.cpp:137] Memory required for data: 1229509900
I0419 03:16:35.717715 23576 layer_factory.hpp:77] Creating layer drop7
I0419 03:16:35.717723 23576 net.cpp:84] Creating Layer drop7
I0419 03:16:35.717726 23576 net.cpp:406] drop7 <- fc7
I0419 03:16:35.717734 23576 net.cpp:367] drop7 -> fc7 (in-place)
I0419 03:16:35.717764 23576 net.cpp:122] Setting up drop7
I0419 03:16:35.717769 23576 net.cpp:129] Top shape: 1 4096 17 17 (1183744)
I0419 03:16:35.717774 23576 net.cpp:137] Memory required for data: 1234244876
I0419 03:16:35.717777 23576 layer_factory.hpp:77] Creating layer score_fr-new
I0419 03:16:35.717800 23576 net.cpp:84] Creating Layer score_fr-new
I0419 03:16:35.717804 23576 net.cpp:406] score_fr-new <- fc7
I0419 03:16:35.717829 23576 net.cpp:380] score_fr-new -> score_fr-new
I0419 03:16:35.720337 23576 net.cpp:122] Setting up score_fr-new
I0419 03:16:35.720352 23576 net.cpp:129] Top shape: 1 3 17 17 (867)
I0419 03:16:35.720356 23576 net.cpp:137] Memory required for data: 1234248344
I0419 03:16:35.720362 23576 layer_factory.hpp:77] Creating layer upscore2-new
I0419 03:16:35.720377 23576 net.cpp:84] Creating Layer upscore2-new
I0419 03:16:35.720381 23576 net.cpp:406] upscore2-new <- score_fr-new
I0419 03:16:35.720386 23576 net.cpp:380] upscore2-new -> upscore2-new
I0419 03:16:35.720603 23576 net.cpp:122] Setting up upscore2-new
I0419 03:16:35.720613 23576 net.cpp:129] Top shape: 1 3 36 36 (3888)
I0419 03:16:35.720615 23576 net.cpp:137] Memory required for data: 1234263896
I0419 03:16:35.720635 23576 layer_factory.hpp:77] Creating layer upscore2-new_upscore2-new_0_split
I0419 03:16:35.720641 23576 net.cpp:84] Creating Layer upscore2-new_upscore2-new_0_split
I0419 03:16:35.720644 23576 net.cpp:406] upscore2-new_upscore2-new_0_split <- upscore2-new
I0419 03:16:35.720649 23576 net.cpp:380] upscore2-new_upscore2-new_0_split -> upscore2-new_upscore2-new_0_split_0
I0419 03:16:35.720656 23576 net.cpp:380] upscore2-new_upscore2-new_0_split -> upscore2-new_upscore2-new_0_split_1
I0419 03:16:35.720695 23576 net.cpp:122] Setting up upscore2-new_upscore2-new_0_split
I0419 03:16:35.720710 23576 net.cpp:129] Top shape: 1 3 36 36 (3888)
I0419 03:16:35.720715 23576 net.cpp:129] Top shape: 1 3 36 36 (3888)
I0419 03:16:35.720716 23576 net.cpp:137] Memory required for data: 1234295000
I0419 03:16:35.720721 23576 layer_factory.hpp:77] Creating layer score_pool4-new
I0419 03:16:35.720731 23576 net.cpp:84] Creating Layer score_pool4-new
I0419 03:16:35.720736 23576 net.cpp:406] score_pool4-new <- pool4_pool4_0_split_1
I0419 03:16:35.720741 23576 net.cpp:380] score_pool4-new -> score_pool4-new
I0419 03:16:35.721856 23576 net.cpp:122] Setting up score_pool4-new
I0419 03:16:35.721870 23576 net.cpp:129] Top shape: 1 3 45 45 (6075)
I0419 03:16:35.721873 23576 net.cpp:137] Memory required for data: 1234319300
I0419 03:16:35.721879 23576 layer_factory.hpp:77] Creating layer score_pool4c
I0419 03:16:35.721892 23576 net.cpp:84] Creating Layer score_pool4c
I0419 03:16:35.721895 23576 net.cpp:406] score_pool4c <- score_pool4-new
I0419 03:16:35.721900 23576 net.cpp:406] score_pool4c <- upscore2-new_upscore2-new_0_split_0
I0419 03:16:35.721905 23576 net.cpp:380] score_pool4c -> score_pool4c
I0419 03:16:35.721954 23576 net.cpp:122] Setting up score_pool4c
I0419 03:16:35.721964 23576 net.cpp:129] Top shape: 1 3 36 36 (3888)
I0419 03:16:35.721967 23576 net.cpp:137] Memory required for data: 1234334852
I0419 03:16:35.721971 23576 layer_factory.hpp:77] Creating layer fuse_pool4
I0419 03:16:35.721978 23576 net.cpp:84] Creating Layer fuse_pool4
I0419 03:16:35.721982 23576 net.cpp:406] fuse_pool4 <- upscore2-new_upscore2-new_0_split_1
I0419 03:16:35.721985 23576 net.cpp:406] fuse_pool4 <- score_pool4c
I0419 03:16:35.721992 23576 net.cpp:380] fuse_pool4 -> fuse_pool4
I0419 03:16:35.722020 23576 net.cpp:122] Setting up fuse_pool4
I0419 03:16:35.722026 23576 net.cpp:129] Top shape: 1 3 36 36 (3888)
I0419 03:16:35.722029 23576 net.cpp:137] Memory required for data: 1234350404
I0419 03:16:35.722033 23576 layer_factory.hpp:77] Creating layer upscore_pool4-new
I0419 03:16:35.722038 23576 net.cpp:84] Creating Layer upscore_pool4-new
I0419 03:16:35.722041 23576 net.cpp:406] upscore_pool4-new <- fuse_pool4
I0419 03:16:35.722048 23576 net.cpp:380] upscore_pool4-new -> upscore_pool4-new
I0419 03:16:35.722270 23576 net.cpp:122] Setting up upscore_pool4-new
I0419 03:16:35.722280 23576 net.cpp:129] Top shape: 1 3 74 74 (16428)
I0419 03:16:35.722283 23576 net.cpp:137] Memory required for data: 1234416116
I0419 03:16:35.722290 23576 layer_factory.hpp:77] Creating layer upscore_pool4-new_upscore_pool4-new_0_split
I0419 03:16:35.722295 23576 net.cpp:84] Creating Layer upscore_pool4-new_upscore_pool4-new_0_split
I0419 03:16:35.722298 23576 net.cpp:406] upscore_pool4-new_upscore_pool4-new_0_split <- upscore_pool4-new
I0419 03:16:35.722303 23576 net.cpp:380] upscore_pool4-new_upscore_pool4-new_0_split -> upscore_pool4-new_upscore_pool4-new_0_split_0
I0419 03:16:35.722309 23576 net.cpp:380] upscore_pool4-new_upscore_pool4-new_0_split -> upscore_pool4-new_upscore_pool4-new_0_split_1
I0419 03:16:35.722344 23576 net.cpp:122] Setting up upscore_pool4-new_upscore_pool4-new_0_split
I0419 03:16:35.722349 23576 net.cpp:129] Top shape: 1 3 74 74 (16428)
I0419 03:16:35.722353 23576 net.cpp:129] Top shape: 1 3 74 74 (16428)
I0419 03:16:35.722357 23576 net.cpp:137] Memory required for data: 1234547540
I0419 03:16:35.722359 23576 layer_factory.hpp:77] Creating layer score_pool3-new
I0419 03:16:35.722368 23576 net.cpp:84] Creating Layer score_pool3-new
I0419 03:16:35.722371 23576 net.cpp:406] score_pool3-new <- pool3_pool3_0_split_1
I0419 03:16:35.722376 23576 net.cpp:380] score_pool3-new -> score_pool3-new
I0419 03:16:35.726109 23576 net.cpp:122] Setting up score_pool3-new
I0419 03:16:35.726205 23576 net.cpp:129] Top shape: 1 3 89 89 (23763)
I0419 03:16:35.726215 23576 net.cpp:137] Memory required for data: 1234642592
I0419 03:16:35.726235 23576 layer_factory.hpp:77] Creating layer score_pool3c
I0419 03:16:35.726269 23576 net.cpp:84] Creating Layer score_pool3c
I0419 03:16:35.726281 23576 net.cpp:406] score_pool3c <- score_pool3-new
I0419 03:16:35.726294 23576 net.cpp:406] score_pool3c <- upscore_pool4-new_upscore_pool4-new_0_split_0
I0419 03:16:35.726310 23576 net.cpp:380] score_pool3c -> score_pool3c
I0419 03:16:35.726389 23576 net.cpp:122] Setting up score_pool3c
I0419 03:16:35.726404 23576 net.cpp:129] Top shape: 1 3 74 74 (16428)
I0419 03:16:35.726411 23576 net.cpp:137] Memory required for data: 1234708304
I0419 03:16:35.726418 23576 layer_factory.hpp:77] Creating layer fuse_pool3
I0419 03:16:35.726433 23576 net.cpp:84] Creating Layer fuse_pool3
I0419 03:16:35.726441 23576 net.cpp:406] fuse_pool3 <- upscore_pool4-new_upscore_pool4-new_0_split_1
I0419 03:16:35.726451 23576 net.cpp:406] fuse_pool3 <- score_pool3c
I0419 03:16:35.726462 23576 net.cpp:380] fuse_pool3 -> fuse_pool3
I0419 03:16:35.726516 23576 net.cpp:122] Setting up fuse_pool3
I0419 03:16:35.726529 23576 net.cpp:129] Top shape: 1 3 74 74 (16428)
I0419 03:16:35.726536 23576 net.cpp:137] Memory required for data: 1234774016
I0419 03:16:35.726552 23576 layer_factory.hpp:77] Creating layer upscore8-new
I0419 03:16:35.726569 23576 net.cpp:84] Creating Layer upscore8-new
I0419 03:16:35.726577 23576 net.cpp:406] upscore8-new <- fuse_pool3
I0419 03:16:35.726591 23576 net.cpp:380] upscore8-new -> upscore8-new
I0419 03:16:35.727056 23576 net.cpp:122] Setting up upscore8-new
I0419 03:16:35.727072 23576 net.cpp:129] Top shape: 1 3 600 600 (1080000)
I0419 03:16:35.727089 23576 net.cpp:137] Memory required for data: 1239094016
I0419 03:16:35.727099 23576 layer_factory.hpp:77] Creating layer upscore8_cropped
I0419 03:16:35.727113 23576 net.cpp:84] Creating Layer upscore8_cropped
I0419 03:16:35.727119 23576 net.cpp:406] upscore8_cropped <- upscore8-new
I0419 03:16:35.727155 23576 net.cpp:406] upscore8_cropped <- data_data_0_split_1
I0419 03:16:35.727169 23576 net.cpp:380] upscore8_cropped -> upscore8_cropped
I0419 03:16:35.727221 23576 net.cpp:122] Setting up upscore8_cropped
I0419 03:16:35.727242 23576 net.cpp:129] Top shape: 1 3 512 512 (786432)
I0419 03:16:35.727248 23576 net.cpp:137] Memory required for data: 1242239744
I0419 03:16:35.727255 23576 layer_factory.hpp:77] Creating layer score
I0419 03:16:35.727282 23576 net.cpp:84] Creating Layer score
I0419 03:16:35.727304 23576 net.cpp:406] score <- upscore8_cropped
I0419 03:16:35.727320 23576 net.cpp:380] score -> score
I0419 03:16:35.734138 23576 net.cpp:122] Setting up score
I0419 03:16:35.734190 23576 net.cpp:129] Top shape: 1 3 512 512 (786432)
I0419 03:16:35.734199 23576 net.cpp:137] Memory required for data: 1245385472
I0419 03:16:35.734215 23576 layer_factory.hpp:77] Creating layer score_score_0_split
I0419 03:16:35.734241 23576 net.cpp:84] Creating Layer score_score_0_split
I0419 03:16:35.734249 23576 net.cpp:406] score_score_0_split <- score
I0419 03:16:35.734266 23576 net.cpp:380] score_score_0_split -> score_score_0_split_0
I0419 03:16:35.734282 23576 net.cpp:380] score_score_0_split -> score_score_0_split_1
I0419 03:16:35.734380 23576 net.cpp:122] Setting up score_score_0_split
I0419 03:16:35.734397 23576 net.cpp:129] Top shape: 1 3 512 512 (786432)
I0419 03:16:35.734406 23576 net.cpp:129] Top shape: 1 3 512 512 (786432)
I0419 03:16:35.734412 23576 net.cpp:137] Memory required for data: 1251676928
I0419 03:16:35.734419 23576 layer_factory.hpp:77] Creating layer prob
I0419 03:16:35.734434 23576 net.cpp:84] Creating Layer prob
I0419 03:16:35.734442 23576 net.cpp:406] prob <- score_score_0_split_0
I0419 03:16:35.734464 23576 net.cpp:380] prob -> prob
I0419 03:16:35.734941 23576 net.cpp:122] Setting up prob
I0419 03:16:35.734961 23576 net.cpp:129] Top shape: 1 3 512 512 (786432)
I0419 03:16:35.734979 23576 net.cpp:137] Memory required for data: 1254822656
I0419 03:16:35.734985 23576 layer_factory.hpp:77] Creating layer saliency
I0419 03:16:35.735021 23576 net.cpp:84] Creating Layer saliency
I0419 03:16:35.735030 23576 net.cpp:406] saliency <- prob
I0419 03:16:35.735044 23576 net.cpp:380] saliency -> saliency
I0419 03:16:35.740684 23576 net.cpp:122] Setting up saliency
I0419 03:16:35.740717 23576 net.cpp:129] Top shape: 1 3 512 512 (786432)
I0419 03:16:35.740726 23576 net.cpp:137] Memory required for data: 1257968384
I0419 03:16:35.740743 23576 layer_factory.hpp:77] Creating layer silence_saliency
I0419 03:16:35.740769 23576 net.cpp:84] Creating Layer silence_saliency
I0419 03:16:35.740780 23576 net.cpp:406] silence_saliency <- saliency
I0419 03:16:35.740794 23576 net.cpp:122] Setting up silence_saliency
I0419 03:16:35.740808 23576 net.cpp:137] Memory required for data: 1257968384
I0419 03:16:35.740813 23576 layer_factory.hpp:77] Creating layer crop
I0419 03:16:35.741451 23576 net.cpp:84] Creating Layer crop
I0419 03:16:35.741472 23576 net.cpp:406] crop <- label_data_1_split_0
I0419 03:16:35.741484 23576 net.cpp:406] crop <- data_data_0_split_2
I0419 03:16:35.741499 23576 net.cpp:406] crop <- crop_margin
I0419 03:16:35.741508 23576 net.cpp:406] crop <- crop_prob
I0419 03:16:35.741516 23576 net.cpp:406] crop <- crop_sample_batch
I0419 03:16:35.741529 23576 net.cpp:380] crop -> data-R
I0419 03:16:35.741554 23576 net.cpp:380] crop -> crop_info
I0419 03:16:35.755812 23576 net.cpp:122] Setting up crop
I0419 03:16:35.755836 23576 net.cpp:129] Top shape: 1 3 512 512 (786432)
I0419 03:16:35.755842 23576 net.cpp:129] Top shape: 1 2 4 (8)
I0419 03:16:35.755847 23576 net.cpp:137] Memory required for data: 1261114144
I0419 03:16:35.755852 23576 layer_factory.hpp:77] Creating layer data-R_crop_0_split
I0419 03:16:35.755861 23576 net.cpp:84] Creating Layer data-R_crop_0_split
I0419 03:16:35.755867 23576 net.cpp:406] data-R_crop_0_split <- data-R
I0419 03:16:35.755885 23576 net.cpp:380] data-R_crop_0_split -> data-R_crop_0_split_0
I0419 03:16:35.755897 23576 net.cpp:380] data-R_crop_0_split -> data-R_crop_0_split_1
I0419 03:16:35.755949 23576 net.cpp:122] Setting up data-R_crop_0_split
I0419 03:16:35.755959 23576 net.cpp:129] Top shape: 1 3 512 512 (786432)
I0419 03:16:35.755964 23576 net.cpp:129] Top shape: 1 3 512 512 (786432)
I0419 03:16:35.755969 23576 net.cpp:137] Memory required for data: 1267405600
I0419 03:16:35.755973 23576 layer_factory.hpp:77] Creating layer conv1_1-R
I0419 03:16:35.755983 23576 net.cpp:84] Creating Layer conv1_1-R
I0419 03:16:35.755991 23576 net.cpp:406] conv1_1-R <- data-R_crop_0_split_0
I0419 03:16:35.756006 23576 net.cpp:380] conv1_1-R -> conv1_1-R
I0419 03:16:35.760586 23576 net.cpp:122] Setting up conv1_1-R
I0419 03:16:35.760604 23576 net.cpp:129] Top shape: 1 64 710 710 (32262400)
I0419 03:16:35.760609 23576 net.cpp:137] Memory required for data: 1396455200
I0419 03:16:35.760619 23576 layer_factory.hpp:77] Creating layer relu1_1-R
I0419 03:16:35.760628 23576 net.cpp:84] Creating Layer relu1_1-R
I0419 03:16:35.760633 23576 net.cpp:406] relu1_1-R <- conv1_1-R
I0419 03:16:35.760640 23576 net.cpp:367] relu1_1-R -> conv1_1-R (in-place)
I0419 03:16:35.760905 23576 net.cpp:122] Setting up relu1_1-R
I0419 03:16:35.760917 23576 net.cpp:129] Top shape: 1 64 710 710 (32262400)
I0419 03:16:35.760921 23576 net.cpp:137] Memory required for data: 1525504800
I0419 03:16:35.760926 23576 layer_factory.hpp:77] Creating layer conv1_2-R
I0419 03:16:35.760975 23576 net.cpp:84] Creating Layer conv1_2-R
I0419 03:16:35.760980 23576 net.cpp:406] conv1_2-R <- conv1_1-R
I0419 03:16:35.760988 23576 net.cpp:380] conv1_2-R -> conv1_2-R
I0419 03:16:35.765784 23576 net.cpp:122] Setting up conv1_2-R
I0419 03:16:35.765833 23576 net.cpp:129] Top shape: 1 64 710 710 (32262400)
I0419 03:16:35.765842 23576 net.cpp:137] Memory required for data: 1654554400
I0419 03:16:35.765921 23576 layer_factory.hpp:77] Creating layer relu1_2-R
I0419 03:16:35.765941 23576 net.cpp:84] Creating Layer relu1_2-R
I0419 03:16:35.765952 23576 net.cpp:406] relu1_2-R <- conv1_2-R
I0419 03:16:35.765964 23576 net.cpp:367] relu1_2-R -> conv1_2-R (in-place)
I0419 03:16:35.766466 23576 net.cpp:122] Setting up relu1_2-R
I0419 03:16:35.766502 23576 net.cpp:129] Top shape: 1 64 710 710 (32262400)
I0419 03:16:35.766510 23576 net.cpp:137] Memory required for data: 1783604000
I0419 03:16:35.766531 23576 layer_factory.hpp:77] Creating layer pool1-R
I0419 03:16:35.766562 23576 net.cpp:84] Creating Layer pool1-R
I0419 03:16:35.766571 23576 net.cpp:406] pool1-R <- conv1_2-R
I0419 03:16:35.766582 23576 net.cpp:380] pool1-R -> pool1-R
I0419 03:16:35.766705 23576 net.cpp:122] Setting up pool1-R
I0419 03:16:35.766721 23576 net.cpp:129] Top shape: 1 64 355 355 (8065600)
I0419 03:16:35.766727 23576 net.cpp:137] Memory required for data: 1815866400
I0419 03:16:35.766734 23576 layer_factory.hpp:77] Creating layer conv2_1-R
I0419 03:16:35.766752 23576 net.cpp:84] Creating Layer conv2_1-R
I0419 03:16:35.766759 23576 net.cpp:406] conv2_1-R <- pool1-R
I0419 03:16:35.766782 23576 net.cpp:380] conv2_1-R -> conv2_1-R
I0419 03:16:35.770422 23576 net.cpp:122] Setting up conv2_1-R
I0419 03:16:35.770465 23576 net.cpp:129] Top shape: 1 128 355 355 (16131200)
I0419 03:16:35.770473 23576 net.cpp:137] Memory required for data: 1880391200
I0419 03:16:35.770489 23576 layer_factory.hpp:77] Creating layer relu2_1-R
I0419 03:16:35.770530 23576 net.cpp:84] Creating Layer relu2_1-R
I0419 03:16:35.770540 23576 net.cpp:406] relu2_1-R <- conv2_1-R
I0419 03:16:35.770551 23576 net.cpp:367] relu2_1-R -> conv2_1-R (in-place)
I0419 03:16:35.770968 23576 net.cpp:122] Setting up relu2_1-R
I0419 03:16:35.770988 23576 net.cpp:129] Top shape: 1 128 355 355 (16131200)
I0419 03:16:35.771003 23576 net.cpp:137] Memory required for data: 1944916000
I0419 03:16:35.771011 23576 layer_factory.hpp:77] Creating layer conv2_2-R
I0419 03:16:35.771028 23576 net.cpp:84] Creating Layer conv2_2-R
I0419 03:16:35.771035 23576 net.cpp:406] conv2_2-R <- conv2_1-R
I0419 03:16:35.771075 23576 net.cpp:380] conv2_2-R -> conv2_2-R
I0419 03:16:35.777148 23576 net.cpp:122] Setting up conv2_2-R
I0419 03:16:35.777174 23576 net.cpp:129] Top shape: 1 128 355 355 (16131200)
I0419 03:16:35.777179 23576 net.cpp:137] Memory required for data: 2009440800
I0419 03:16:35.777191 23576 layer_factory.hpp:77] Creating layer relu2_2-R
I0419 03:16:35.777199 23576 net.cpp:84] Creating Layer relu2_2-R
I0419 03:16:35.777207 23576 net.cpp:406] relu2_2-R <- conv2_2-R
I0419 03:16:35.777225 23576 net.cpp:367] relu2_2-R -> conv2_2-R (in-place)
I0419 03:16:35.779076 23576 net.cpp:122] Setting up relu2_2-R
I0419 03:16:35.779093 23576 net.cpp:129] Top shape: 1 128 355 355 (16131200)
I0419 03:16:35.779098 23576 net.cpp:137] Memory required for data: 2073965600
I0419 03:16:35.779103 23576 layer_factory.hpp:77] Creating layer pool2-R
I0419 03:16:35.779119 23576 net.cpp:84] Creating Layer pool2-R
I0419 03:16:35.779124 23576 net.cpp:406] pool2-R <- conv2_2-R
I0419 03:16:35.779135 23576 net.cpp:380] pool2-R -> pool2-R
I0419 03:16:35.779224 23576 net.cpp:122] Setting up pool2-R
I0419 03:16:35.779234 23576 net.cpp:129] Top shape: 1 128 178 178 (4055552)
I0419 03:16:35.779238 23576 net.cpp:137] Memory required for data: 2090187808
I0419 03:16:35.779242 23576 layer_factory.hpp:77] Creating layer conv3_1-R
I0419 03:16:35.779256 23576 net.cpp:84] Creating Layer conv3_1-R
I0419 03:16:35.779263 23576 net.cpp:406] conv3_1-R <- pool2-R
I0419 03:16:35.779271 23576 net.cpp:380] conv3_1-R -> conv3_1-R
I0419 03:16:35.784898 23576 net.cpp:122] Setting up conv3_1-R
I0419 03:16:35.784943 23576 net.cpp:129] Top shape: 1 256 178 178 (8111104)
I0419 03:16:35.784948 23576 net.cpp:137] Memory required for data: 2122632224
I0419 03:16:35.784973 23576 layer_factory.hpp:77] Creating layer relu3_1-R
I0419 03:16:35.784986 23576 net.cpp:84] Creating Layer relu3_1-R
I0419 03:16:35.784992 23576 net.cpp:406] relu3_1-R <- conv3_1-R
I0419 03:16:35.785003 23576 net.cpp:367] relu3_1-R -> conv3_1-R (in-place)
I0419 03:16:35.785326 23576 net.cpp:122] Setting up relu3_1-R
I0419 03:16:35.785341 23576 net.cpp:129] Top shape: 1 256 178 178 (8111104)
I0419 03:16:35.785344 23576 net.cpp:137] Memory required for data: 2155076640
I0419 03:16:35.785349 23576 layer_factory.hpp:77] Creating layer conv3_2-R
I0419 03:16:35.785418 23576 net.cpp:84] Creating Layer conv3_2-R
I0419 03:16:35.785424 23576 net.cpp:406] conv3_2-R <- conv3_1-R
I0419 03:16:35.785432 23576 net.cpp:380] conv3_2-R -> conv3_2-R
I0419 03:16:35.791867 23576 net.cpp:122] Setting up conv3_2-R
I0419 03:16:35.791913 23576 net.cpp:129] Top shape: 1 256 178 178 (8111104)
I0419 03:16:35.791923 23576 net.cpp:137] Memory required for data: 2187521056
I0419 03:16:35.791940 23576 layer_factory.hpp:77] Creating layer relu3_2-R
I0419 03:16:35.791955 23576 net.cpp:84] Creating Layer relu3_2-R
I0419 03:16:35.791965 23576 net.cpp:406] relu3_2-R <- conv3_2-R
I0419 03:16:35.791995 23576 net.cpp:367] relu3_2-R -> conv3_2-R (in-place)
I0419 03:16:35.792418 23576 net.cpp:122] Setting up relu3_2-R
I0419 03:16:35.792449 23576 net.cpp:129] Top shape: 1 256 178 178 (8111104)
I0419 03:16:35.792456 23576 net.cpp:137] Memory required for data: 2219965472
I0419 03:16:35.792475 23576 layer_factory.hpp:77] Creating layer conv3_3-R
I0419 03:16:35.792493 23576 net.cpp:84] Creating Layer conv3_3-R
I0419 03:16:35.792501 23576 net.cpp:406] conv3_3-R <- conv3_2-R
I0419 03:16:35.792515 23576 net.cpp:380] conv3_3-R -> conv3_3-R
I0419 03:16:35.798944 23576 net.cpp:122] Setting up conv3_3-R
I0419 03:16:35.798964 23576 net.cpp:129] Top shape: 1 256 178 178 (8111104)
I0419 03:16:35.798979 23576 net.cpp:137] Memory required for data: 2252409888
I0419 03:16:35.798988 23576 layer_factory.hpp:77] Creating layer relu3_3-R
I0419 03:16:35.798997 23576 net.cpp:84] Creating Layer relu3_3-R
I0419 03:16:35.799003 23576 net.cpp:406] relu3_3-R <- conv3_3-R
I0419 03:16:35.799010 23576 net.cpp:367] relu3_3-R -> conv3_3-R (in-place)
I0419 03:16:35.799265 23576 net.cpp:122] Setting up relu3_3-R
I0419 03:16:35.799279 23576 net.cpp:129] Top shape: 1 256 178 178 (8111104)
I0419 03:16:35.799283 23576 net.cpp:137] Memory required for data: 2284854304
I0419 03:16:35.799288 23576 layer_factory.hpp:77] Creating layer pool3-R
I0419 03:16:35.799299 23576 net.cpp:84] Creating Layer pool3-R
I0419 03:16:35.799302 23576 net.cpp:406] pool3-R <- conv3_3-R
I0419 03:16:35.799311 23576 net.cpp:380] pool3-R -> pool3-R
I0419 03:16:35.799371 23576 net.cpp:122] Setting up pool3-R
I0419 03:16:35.799382 23576 net.cpp:129] Top shape: 1 256 89 89 (2027776)
I0419 03:16:35.799386 23576 net.cpp:137] Memory required for data: 2292965408
I0419 03:16:35.799391 23576 layer_factory.hpp:77] Creating layer pool3-R_pool3-R_0_split
I0419 03:16:35.799398 23576 net.cpp:84] Creating Layer pool3-R_pool3-R_0_split
I0419 03:16:35.799403 23576 net.cpp:406] pool3-R_pool3-R_0_split <- pool3-R
I0419 03:16:35.799410 23576 net.cpp:380] pool3-R_pool3-R_0_split -> pool3-R_pool3-R_0_split_0
I0419 03:16:35.799418 23576 net.cpp:380] pool3-R_pool3-R_0_split -> pool3-R_pool3-R_0_split_1
I0419 03:16:35.799464 23576 net.cpp:122] Setting up pool3-R_pool3-R_0_split
I0419 03:16:35.799474 23576 net.cpp:129] Top shape: 1 256 89 89 (2027776)
I0419 03:16:35.799479 23576 net.cpp:129] Top shape: 1 256 89 89 (2027776)
I0419 03:16:35.799482 23576 net.cpp:137] Memory required for data: 2309187616
I0419 03:16:35.799485 23576 layer_factory.hpp:77] Creating layer conv4_1-R
I0419 03:16:35.799506 23576 net.cpp:84] Creating Layer conv4_1-R
I0419 03:16:35.799511 23576 net.cpp:406] conv4_1-R <- pool3-R_pool3-R_0_split_0
I0419 03:16:35.799520 23576 net.cpp:380] conv4_1-R -> conv4_1-R
I0419 03:16:35.806355 23576 net.cpp:122] Setting up conv4_1-R
I0419 03:16:35.806409 23576 net.cpp:129] Top shape: 1 512 89 89 (4055552)
I0419 03:16:35.806416 23576 net.cpp:137] Memory required for data: 2325409824
I0419 03:16:35.806432 23576 layer_factory.hpp:77] Creating layer relu4_1-R
I0419 03:16:35.806468 23576 net.cpp:84] Creating Layer relu4_1-R
I0419 03:16:35.806474 23576 net.cpp:406] relu4_1-R <- conv4_1-R
I0419 03:16:35.806483 23576 net.cpp:367] relu4_1-R -> conv4_1-R (in-place)
I0419 03:16:35.806741 23576 net.cpp:122] Setting up relu4_1-R
I0419 03:16:35.806756 23576 net.cpp:129] Top shape: 1 512 89 89 (4055552)
I0419 03:16:35.806761 23576 net.cpp:137] Memory required for data: 2341632032
I0419 03:16:35.806764 23576 layer_factory.hpp:77] Creating layer conv4_2-R
I0419 03:16:35.806778 23576 net.cpp:84] Creating Layer conv4_2-R
I0419 03:16:35.806783 23576 net.cpp:406] conv4_2-R <- conv4_1-R
I0419 03:16:35.806792 23576 net.cpp:380] conv4_2-R -> conv4_2-R
I0419 03:16:35.815914 23576 net.cpp:122] Setting up conv4_2-R
I0419 03:16:35.815950 23576 net.cpp:129] Top shape: 1 512 89 89 (4055552)
I0419 03:16:35.815955 23576 net.cpp:137] Memory required for data: 2357854240
I0419 03:16:35.815964 23576 layer_factory.hpp:77] Creating layer relu4_2-R
I0419 03:16:35.815973 23576 net.cpp:84] Creating Layer relu4_2-R
I0419 03:16:35.815979 23576 net.cpp:406] relu4_2-R <- conv4_2-R
I0419 03:16:35.815987 23576 net.cpp:367] relu4_2-R -> conv4_2-R (in-place)
I0419 03:16:35.816228 23576 net.cpp:122] Setting up relu4_2-R
I0419 03:16:35.816241 23576 net.cpp:129] Top shape: 1 512 89 89 (4055552)
I0419 03:16:35.816246 23576 net.cpp:137] Memory required for data: 2374076448
I0419 03:16:35.816251 23576 layer_factory.hpp:77] Creating layer conv4_3-R
I0419 03:16:35.816279 23576 net.cpp:84] Creating Layer conv4_3-R
I0419 03:16:35.816284 23576 net.cpp:406] conv4_3-R <- conv4_2-R
I0419 03:16:35.816296 23576 net.cpp:380] conv4_3-R -> conv4_3-R
I0419 03:16:35.825317 23576 net.cpp:122] Setting up conv4_3-R
I0419 03:16:35.825340 23576 net.cpp:129] Top shape: 1 512 89 89 (4055552)
I0419 03:16:35.825357 23576 net.cpp:137] Memory required for data: 2390298656
I0419 03:16:35.825367 23576 layer_factory.hpp:77] Creating layer relu4_3-R
I0419 03:16:35.825381 23576 net.cpp:84] Creating Layer relu4_3-R
I0419 03:16:35.825387 23576 net.cpp:406] relu4_3-R <- conv4_3-R
I0419 03:16:35.825394 23576 net.cpp:367] relu4_3-R -> conv4_3-R (in-place)
I0419 03:16:35.826196 23576 net.cpp:122] Setting up relu4_3-R
I0419 03:16:35.826215 23576 net.cpp:129] Top shape: 1 512 89 89 (4055552)
I0419 03:16:35.826230 23576 net.cpp:137] Memory required for data: 2406520864
I0419 03:16:35.826234 23576 layer_factory.hpp:77] Creating layer pool4-R
I0419 03:16:35.826254 23576 net.cpp:84] Creating Layer pool4-R
I0419 03:16:35.826261 23576 net.cpp:406] pool4-R <- conv4_3-R
I0419 03:16:35.826272 23576 net.cpp:380] pool4-R -> pool4-R
I0419 03:16:35.826337 23576 net.cpp:122] Setting up pool4-R
I0419 03:16:35.826347 23576 net.cpp:129] Top shape: 1 512 45 45 (1036800)
I0419 03:16:35.826351 23576 net.cpp:137] Memory required for data: 2410668064
I0419 03:16:35.826355 23576 layer_factory.hpp:77] Creating layer pool4-R_pool4-R_0_split
I0419 03:16:35.826362 23576 net.cpp:84] Creating Layer pool4-R_pool4-R_0_split
I0419 03:16:35.826367 23576 net.cpp:406] pool4-R_pool4-R_0_split <- pool4-R
I0419 03:16:35.826373 23576 net.cpp:380] pool4-R_pool4-R_0_split -> pool4-R_pool4-R_0_split_0
I0419 03:16:35.826381 23576 net.cpp:380] pool4-R_pool4-R_0_split -> pool4-R_pool4-R_0_split_1
I0419 03:16:35.826438 23576 net.cpp:122] Setting up pool4-R_pool4-R_0_split
I0419 03:16:35.826445 23576 net.cpp:129] Top shape: 1 512 45 45 (1036800)
I0419 03:16:35.826450 23576 net.cpp:129] Top shape: 1 512 45 45 (1036800)
I0419 03:16:35.826454 23576 net.cpp:137] Memory required for data: 2418962464
I0419 03:16:35.826458 23576 layer_factory.hpp:77] Creating layer conv5_1-R
I0419 03:16:35.826478 23576 net.cpp:84] Creating Layer conv5_1-R
I0419 03:16:35.826483 23576 net.cpp:406] conv5_1-R <- pool4-R_pool4-R_0_split_0
I0419 03:16:35.826489 23576 net.cpp:380] conv5_1-R -> conv5_1-R
I0419 03:16:35.835448 23576 net.cpp:122] Setting up conv5_1-R
I0419 03:16:35.835471 23576 net.cpp:129] Top shape: 1 512 45 45 (1036800)
I0419 03:16:35.835476 23576 net.cpp:137] Memory required for data: 2423109664
I0419 03:16:35.835511 23576 layer_factory.hpp:77] Creating layer relu5_1-R
I0419 03:16:35.835522 23576 net.cpp:84] Creating Layer relu5_1-R
I0419 03:16:35.835527 23576 net.cpp:406] relu5_1-R <- conv5_1-R
I0419 03:16:35.835535 23576 net.cpp:367] relu5_1-R -> conv5_1-R (in-place)
I0419 03:16:35.835778 23576 net.cpp:122] Setting up relu5_1-R
I0419 03:16:35.835791 23576 net.cpp:129] Top shape: 1 512 45 45 (1036800)
I0419 03:16:35.835795 23576 net.cpp:137] Memory required for data: 2427256864
I0419 03:16:35.835799 23576 layer_factory.hpp:77] Creating layer conv5_2-R
I0419 03:16:35.835810 23576 net.cpp:84] Creating Layer conv5_2-R
I0419 03:16:35.835815 23576 net.cpp:406] conv5_2-R <- conv5_1-R
I0419 03:16:35.835824 23576 net.cpp:380] conv5_2-R -> conv5_2-R
I0419 03:16:35.845233 23576 net.cpp:122] Setting up conv5_2-R
I0419 03:16:35.845257 23576 net.cpp:129] Top shape: 1 512 45 45 (1036800)
I0419 03:16:35.845269 23576 net.cpp:137] Memory required for data: 2431404064
I0419 03:16:35.845279 23576 layer_factory.hpp:77] Creating layer relu5_2-R
I0419 03:16:35.845288 23576 net.cpp:84] Creating Layer relu5_2-R
I0419 03:16:35.845294 23576 net.cpp:406] relu5_2-R <- conv5_2-R
I0419 03:16:35.845300 23576 net.cpp:367] relu5_2-R -> conv5_2-R (in-place)
I0419 03:16:35.845532 23576 net.cpp:122] Setting up relu5_2-R
I0419 03:16:35.845546 23576 net.cpp:129] Top shape: 1 512 45 45 (1036800)
I0419 03:16:35.845549 23576 net.cpp:137] Memory required for data: 2435551264
I0419 03:16:35.845554 23576 layer_factory.hpp:77] Creating layer conv5_3-R
I0419 03:16:35.845585 23576 net.cpp:84] Creating Layer conv5_3-R
I0419 03:16:35.845590 23576 net.cpp:406] conv5_3-R <- conv5_2-R
I0419 03:16:35.845599 23576 net.cpp:380] conv5_3-R -> conv5_3-R
I0419 03:16:35.867435 23576 net.cpp:122] Setting up conv5_3-R
I0419 03:16:35.867478 23576 net.cpp:129] Top shape: 1 512 45 45 (1036800)
I0419 03:16:35.867486 23576 net.cpp:137] Memory required for data: 2439698464
I0419 03:16:35.867501 23576 layer_factory.hpp:77] Creating layer relu5_3-R
I0419 03:16:35.867513 23576 net.cpp:84] Creating Layer relu5_3-R
I0419 03:16:35.867522 23576 net.cpp:406] relu5_3-R <- conv5_3-R
I0419 03:16:35.867532 23576 net.cpp:367] relu5_3-R -> conv5_3-R (in-place)
I0419 03:16:35.867871 23576 net.cpp:122] Setting up relu5_3-R
I0419 03:16:35.867898 23576 net.cpp:129] Top shape: 1 512 45 45 (1036800)
I0419 03:16:35.867904 23576 net.cpp:137] Memory required for data: 2443845664
I0419 03:16:35.867911 23576 layer_factory.hpp:77] Creating layer pool5-R
I0419 03:16:35.867951 23576 net.cpp:84] Creating Layer pool5-R
I0419 03:16:35.867959 23576 net.cpp:406] pool5-R <- conv5_3-R
I0419 03:16:35.867971 23576 net.cpp:380] pool5-R -> pool5-R
I0419 03:16:35.868062 23576 net.cpp:122] Setting up pool5-R
I0419 03:16:35.868075 23576 net.cpp:129] Top shape: 1 512 23 23 (270848)
I0419 03:16:35.868082 23576 net.cpp:137] Memory required for data: 2444929056
I0419 03:16:35.868088 23576 layer_factory.hpp:77] Creating layer fc6-R
I0419 03:16:35.868101 23576 net.cpp:84] Creating Layer fc6-R
I0419 03:16:35.868108 23576 net.cpp:406] fc6-R <- pool5-R
I0419 03:16:35.868119 23576 net.cpp:380] fc6-R -> fc6-R
I0419 03:16:36.193498 23576 net.cpp:122] Setting up fc6-R
I0419 03:16:36.193536 23576 net.cpp:129] Top shape: 1 4096 17 17 (1183744)
I0419 03:16:36.193541 23576 net.cpp:137] Memory required for data: 2449664032
I0419 03:16:36.193550 23576 layer_factory.hpp:77] Creating layer relu6-R
I0419 03:16:36.193568 23576 net.cpp:84] Creating Layer relu6-R
I0419 03:16:36.193574 23576 net.cpp:406] relu6-R <- fc6-R
I0419 03:16:36.193583 23576 net.cpp:367] relu6-R -> fc6-R (in-place)
I0419 03:16:36.193794 23576 net.cpp:122] Setting up relu6-R
I0419 03:16:36.193804 23576 net.cpp:129] Top shape: 1 4096 17 17 (1183744)
I0419 03:16:36.193807 23576 net.cpp:137] Memory required for data: 2454399008
I0419 03:16:36.193810 23576 layer_factory.hpp:77] Creating layer drop6-R
I0419 03:16:36.193819 23576 net.cpp:84] Creating Layer drop6-R
I0419 03:16:36.193822 23576 net.cpp:406] drop6-R <- fc6-R
I0419 03:16:36.193828 23576 net.cpp:367] drop6-R -> fc6-R (in-place)
I0419 03:16:36.193859 23576 net.cpp:122] Setting up drop6-R
I0419 03:16:36.193881 23576 net.cpp:129] Top shape: 1 4096 17 17 (1183744)
I0419 03:16:36.193884 23576 net.cpp:137] Memory required for data: 2459133984
I0419 03:16:36.193887 23576 layer_factory.hpp:77] Creating layer fc7-R
I0419 03:16:36.193900 23576 net.cpp:84] Creating Layer fc7-R
I0419 03:16:36.193903 23576 net.cpp:406] fc7-R <- fc6-R
I0419 03:16:36.193928 23576 net.cpp:380] fc7-R -> fc7-R
I0419 03:16:36.246317 23576 net.cpp:122] Setting up fc7-R
I0419 03:16:36.246352 23576 net.cpp:129] Top shape: 1 4096 17 17 (1183744)
I0419 03:16:36.246356 23576 net.cpp:137] Memory required for data: 2463868960
I0419 03:16:36.246367 23576 layer_factory.hpp:77] Creating layer relu7-R
I0419 03:16:36.246381 23576 net.cpp:84] Creating Layer relu7-R
I0419 03:16:36.246402 23576 net.cpp:406] relu7-R <- fc7-R
I0419 03:16:36.246412 23576 net.cpp:367] relu7-R -> fc7-R (in-place)
I0419 03:16:36.246635 23576 net.cpp:122] Setting up relu7-R
I0419 03:16:36.246645 23576 net.cpp:129] Top shape: 1 4096 17 17 (1183744)
I0419 03:16:36.246649 23576 net.cpp:137] Memory required for data: 2468603936
I0419 03:16:36.246657 23576 layer_factory.hpp:77] Creating layer drop7-R
I0419 03:16:36.246665 23576 net.cpp:84] Creating Layer drop7-R
I0419 03:16:36.246670 23576 net.cpp:406] drop7-R <- fc7-R
I0419 03:16:36.246675 23576 net.cpp:367] drop7-R -> fc7-R (in-place)
I0419 03:16:36.246707 23576 net.cpp:122] Setting up drop7-R
I0419 03:16:36.246723 23576 net.cpp:129] Top shape: 1 4096 17 17 (1183744)
I0419 03:16:36.246726 23576 net.cpp:137] Memory required for data: 2473338912
I0419 03:16:36.246729 23576 layer_factory.hpp:77] Creating layer score_fr-new-R
I0419 03:16:36.246742 23576 net.cpp:84] Creating Layer score_fr-new-R
I0419 03:16:36.246744 23576 net.cpp:406] score_fr-new-R <- fc7-R
I0419 03:16:36.246752 23576 net.cpp:380] score_fr-new-R -> score_fr-new-R
I0419 03:16:36.248011 23576 net.cpp:122] Setting up score_fr-new-R
I0419 03:16:36.248040 23576 net.cpp:129] Top shape: 1 3 17 17 (867)
I0419 03:16:36.248044 23576 net.cpp:137] Memory required for data: 2473342380
I0419 03:16:36.248051 23576 layer_factory.hpp:77] Creating layer upscore2-new-R
I0419 03:16:36.248060 23576 net.cpp:84] Creating Layer upscore2-new-R
I0419 03:16:36.248064 23576 net.cpp:406] upscore2-new-R <- score_fr-new-R
I0419 03:16:36.248071 23576 net.cpp:380] upscore2-new-R -> upscore2-new-R
I0419 03:16:36.248297 23576 net.cpp:122] Setting up upscore2-new-R
I0419 03:16:36.248307 23576 net.cpp:129] Top shape: 1 3 36 36 (3888)
I0419 03:16:36.248311 23576 net.cpp:137] Memory required for data: 2473357932
I0419 03:16:36.248314 23576 layer_factory.hpp:77] Creating layer upscore2-new-R_upscore2-new-R_0_split
I0419 03:16:36.248320 23576 net.cpp:84] Creating Layer upscore2-new-R_upscore2-new-R_0_split
I0419 03:16:36.248324 23576 net.cpp:406] upscore2-new-R_upscore2-new-R_0_split <- upscore2-new-R
I0419 03:16:36.248330 23576 net.cpp:380] upscore2-new-R_upscore2-new-R_0_split -> upscore2-new-R_upscore2-new-R_0_split_0
I0419 03:16:36.248337 23576 net.cpp:380] upscore2-new-R_upscore2-new-R_0_split -> upscore2-new-R_upscore2-new-R_0_split_1
I0419 03:16:36.248376 23576 net.cpp:122] Setting up upscore2-new-R_upscore2-new-R_0_split
I0419 03:16:36.248392 23576 net.cpp:129] Top shape: 1 3 36 36 (3888)
I0419 03:16:36.248397 23576 net.cpp:129] Top shape: 1 3 36 36 (3888)
I0419 03:16:36.248400 23576 net.cpp:137] Memory required for data: 2473389036
I0419 03:16:36.248404 23576 layer_factory.hpp:77] Creating layer score_pool4-new-R
I0419 03:16:36.248411 23576 net.cpp:84] Creating Layer score_pool4-new-R
I0419 03:16:36.248416 23576 net.cpp:406] score_pool4-new-R <- pool4-R_pool4-R_0_split_1
I0419 03:16:36.248422 23576 net.cpp:380] score_pool4-new-R -> score_pool4-new-R
I0419 03:16:36.253564 23576 net.cpp:122] Setting up score_pool4-new-R
I0419 03:16:36.253633 23576 net.cpp:129] Top shape: 1 3 45 45 (6075)
I0419 03:16:36.253643 23576 net.cpp:137] Memory required for data: 2473413336
I0419 03:16:36.253662 23576 layer_factory.hpp:77] Creating layer score_pool4c-R
I0419 03:16:36.253749 23576 net.cpp:84] Creating Layer score_pool4c-R
I0419 03:16:36.253777 23576 net.cpp:406] score_pool4c-R <- score_pool4-new-R
I0419 03:16:36.253790 23576 net.cpp:406] score_pool4c-R <- upscore2-new-R_upscore2-new-R_0_split_0
I0419 03:16:36.253804 23576 net.cpp:380] score_pool4c-R -> score_pool4c-R
I0419 03:16:36.253873 23576 net.cpp:122] Setting up score_pool4c-R
I0419 03:16:36.253890 23576 net.cpp:129] Top shape: 1 3 36 36 (3888)
I0419 03:16:36.253907 23576 net.cpp:137] Memory required for data: 2473428888
I0419 03:16:36.253914 23576 layer_factory.hpp:77] Creating layer fuse_pool4-R
I0419 03:16:36.253929 23576 net.cpp:84] Creating Layer fuse_pool4-R
I0419 03:16:36.253937 23576 net.cpp:406] fuse_pool4-R <- upscore2-new-R_upscore2-new-R_0_split_1
I0419 03:16:36.253947 23576 net.cpp:406] fuse_pool4-R <- score_pool4c-R
I0419 03:16:36.253960 23576 net.cpp:380] fuse_pool4-R -> fuse_pool4-R
I0419 03:16:36.254015 23576 net.cpp:122] Setting up fuse_pool4-R
I0419 03:16:36.254029 23576 net.cpp:129] Top shape: 1 3 36 36 (3888)
I0419 03:16:36.254035 23576 net.cpp:137] Memory required for data: 2473444440
I0419 03:16:36.254042 23576 layer_factory.hpp:77] Creating layer upscore_pool4-new-R
I0419 03:16:36.254057 23576 net.cpp:84] Creating Layer upscore_pool4-new-R
I0419 03:16:36.254065 23576 net.cpp:406] upscore_pool4-new-R <- fuse_pool4-R
I0419 03:16:36.254077 23576 net.cpp:380] upscore_pool4-new-R -> upscore_pool4-new-R
I0419 03:16:36.254601 23576 net.cpp:122] Setting up upscore_pool4-new-R
I0419 03:16:36.254621 23576 net.cpp:129] Top shape: 1 3 74 74 (16428)
I0419 03:16:36.254637 23576 net.cpp:137] Memory required for data: 2473510152
I0419 03:16:36.254647 23576 layer_factory.hpp:77] Creating layer upscore_pool4-new-R_upscore_pool4-new-R_0_split
I0419 03:16:36.254662 23576 net.cpp:84] Creating Layer upscore_pool4-new-R_upscore_pool4-new-R_0_split
I0419 03:16:36.254670 23576 net.cpp:406] upscore_pool4-new-R_upscore_pool4-new-R_0_split <- upscore_pool4-new-R
I0419 03:16:36.254694 23576 net.cpp:380] upscore_pool4-new-R_upscore_pool4-new-R_0_split -> upscore_pool4-new-R_upscore_pool4-new-R_0_split_0
I0419 03:16:36.254709 23576 net.cpp:380] upscore_pool4-new-R_upscore_pool4-new-R_0_split -> upscore_pool4-new-R_upscore_pool4-new-R_0_split_1
I0419 03:16:36.254789 23576 net.cpp:122] Setting up upscore_pool4-new-R_upscore_pool4-new-R_0_split
I0419 03:16:36.254804 23576 net.cpp:129] Top shape: 1 3 74 74 (16428)
I0419 03:16:36.254813 23576 net.cpp:129] Top shape: 1 3 74 74 (16428)
I0419 03:16:36.254820 23576 net.cpp:137] Memory required for data: 2473641576
I0419 03:16:36.254844 23576 layer_factory.hpp:77] Creating layer score_pool3-new-R
I0419 03:16:36.254863 23576 net.cpp:84] Creating Layer score_pool3-new-R
I0419 03:16:36.254873 23576 net.cpp:406] score_pool3-new-R <- pool3-R_pool3-R_0_split_1
I0419 03:16:36.254885 23576 net.cpp:380] score_pool3-new-R -> score_pool3-new-R
I0419 03:16:36.257727 23576 net.cpp:122] Setting up score_pool3-new-R
I0419 03:16:36.257771 23576 net.cpp:129] Top shape: 1 3 89 89 (23763)
I0419 03:16:36.257779 23576 net.cpp:137] Memory required for data: 2473736628
I0419 03:16:36.257796 23576 layer_factory.hpp:77] Creating layer score_pool3c-R
I0419 03:16:36.257809 23576 net.cpp:84] Creating Layer score_pool3c-R
I0419 03:16:36.257827 23576 net.cpp:406] score_pool3c-R <- score_pool3-new-R
I0419 03:16:36.257838 23576 net.cpp:406] score_pool3c-R <- upscore_pool4-new-R_upscore_pool4-new-R_0_split_0
I0419 03:16:36.257850 23576 net.cpp:380] score_pool3c-R -> score_pool3c-R
I0419 03:16:36.257915 23576 net.cpp:122] Setting up score_pool3c-R
I0419 03:16:36.257930 23576 net.cpp:129] Top shape: 1 3 74 74 (16428)
I0419 03:16:36.257937 23576 net.cpp:137] Memory required for data: 2473802340
I0419 03:16:36.257943 23576 layer_factory.hpp:77] Creating layer fuse_pool3-R
I0419 03:16:36.257966 23576 net.cpp:84] Creating Layer fuse_pool3-R
I0419 03:16:36.257975 23576 net.cpp:406] fuse_pool3-R <- upscore_pool4-new-R_upscore_pool4-new-R_0_split_1
I0419 03:16:36.257984 23576 net.cpp:406] fuse_pool3-R <- score_pool3c-R
I0419 03:16:36.257997 23576 net.cpp:380] fuse_pool3-R -> fuse_pool3-R
I0419 03:16:36.258050 23576 net.cpp:122] Setting up fuse_pool3-R
I0419 03:16:36.258064 23576 net.cpp:129] Top shape: 1 3 74 74 (16428)
I0419 03:16:36.258070 23576 net.cpp:137] Memory required for data: 2473868052
I0419 03:16:36.258077 23576 layer_factory.hpp:77] Creating layer upscore8-new-R
I0419 03:16:36.258112 23576 net.cpp:84] Creating Layer upscore8-new-R
I0419 03:16:36.258121 23576 net.cpp:406] upscore8-new-R <- fuse_pool3-R
I0419 03:16:36.258133 23576 net.cpp:380] upscore8-new-R -> upscore8-new-R
I0419 03:16:36.258662 23576 net.cpp:122] Setting up upscore8-new-R
I0419 03:16:36.258682 23576 net.cpp:129] Top shape: 1 3 600 600 (1080000)
I0419 03:16:36.258688 23576 net.cpp:137] Memory required for data: 2478188052
I0419 03:16:36.258710 23576 layer_factory.hpp:77] Creating layer upscore8_cropped-R
I0419 03:16:36.258721 23576 net.cpp:84] Creating Layer upscore8_cropped-R
I0419 03:16:36.258729 23576 net.cpp:406] upscore8_cropped-R <- upscore8-new-R
I0419 03:16:36.258741 23576 net.cpp:406] upscore8_cropped-R <- data-R_crop_0_split_1
I0419 03:16:36.258754 23576 net.cpp:380] upscore8_cropped-R -> upscore8_cropped-R
I0419 03:16:36.258806 23576 net.cpp:122] Setting up upscore8_cropped-R
I0419 03:16:36.258821 23576 net.cpp:129] Top shape: 1 3 512 512 (786432)
I0419 03:16:36.258827 23576 net.cpp:137] Memory required for data: 2481333780
I0419 03:16:36.258834 23576 layer_factory.hpp:77] Creating layer score-R
I0419 03:16:36.258853 23576 net.cpp:84] Creating Layer score-R
I0419 03:16:36.258872 23576 net.cpp:406] score-R <- upscore8_cropped-R
I0419 03:16:36.258886 23576 net.cpp:380] score-R -> score-R
I0419 03:16:36.271247 23576 net.cpp:122] Setting up score-R
I0419 03:16:36.271281 23576 net.cpp:129] Top shape: 1 3 512 512 (786432)
I0419 03:16:36.271301 23576 net.cpp:137] Memory required for data: 2484479508
I0419 03:16:36.271317 23576 layer_factory.hpp:77] Creating layer score_uncropped-R
I0419 03:16:36.271764 23576 net.cpp:84] Creating Layer score_uncropped-R
I0419 03:16:36.271785 23576 net.cpp:406] score_uncropped-R <- crop_info
I0419 03:16:36.271811 23576 net.cpp:406] score_uncropped-R <- score-R
I0419 03:16:36.271843 23576 net.cpp:406] score_uncropped-R <- data_data_0_split_3
I0419 03:16:36.271855 23576 net.cpp:380] score_uncropped-R -> score_uncropped-R
I0419 03:16:36.275342 23576 net.cpp:122] Setting up score_uncropped-R
I0419 03:16:36.275385 23576 net.cpp:129] Top shape: 1 3 512 512 (786432)
I0419 03:16:36.275394 23576 net.cpp:137] Memory required for data: 2487625236
I0419 03:16:36.275403 23576 layer_factory.hpp:77] Creating layer loss1
I0419 03:16:36.275442 23576 net.cpp:84] Creating Layer loss1
I0419 03:16:36.275450 23576 net.cpp:406] loss1 <- score_score_0_split_1
I0419 03:16:36.275461 23576 net.cpp:406] loss1 <- label_data_1_split_1
I0419 03:16:36.275472 23576 net.cpp:380] loss1 -> loss1
…
snapshot_prefix: "/media/Med_2T2/data2/models/snapshots/indiv:1e-5x10,20/FD2:ZI3_1_20180418_201422/train"
test_initialization: false
average_loss: 20
stepvalue: 40000
iter_size: 1
I0419 04:15:08.178267 23576 solver.cpp:77] Creating training net from train_net file: /media/Med_2T2/data2/prototxts/training_I3x10.prototxt
I0419 04:15:08.180366 23576 net.cpp:51] Initializing net from parameters: 
state {
  phase: TRAIN
}
layer {
  name: "data"
  type: "Python"
  top: "data"
  top: "label"
  top: "crop_margin"
  top: "crop_prob"
  top: "crop_sample_batch"
  python_param {
    module: "Data"
    layer: "DataLayer"
  }
}
layer {
  name: "conv1_1"
  type: "Convolution"
  bottom: "data"
  top: "conv1_1"
  param {
    lr_mult: 1
    decay_mult: 1
  }
  param {
    lr_mult: 2
    decay_mult: 0
  }
  convolution_param {
    num_output: 64
    pad: 100
    kernel_size: 3
    stride: 1
  }
}
layer {
  name: "relu1_1"
  type: "ReLU"
  bottom: "conv1_1"
  top: "conv1_1"
}
layer {
  name: "conv1_2"
  type: "Convolution"
  bottom: "conv1_1"
  top: "conv1_2"
  param {
    lr_mult: 1
    decay_mult: 1
  }
  param {
    lr_mult: 2
    decay_mult: 0
  }
  convolution_param {
    num_output: 64
    pad: 1
    kernel_size: 3
    stride: 1
  }
}
layer {
  name: "relu1_2"
  type: "ReLU"
  bottom: "conv1_2"
  top: "conv1_2"
}
layer {
  name: "pool1"
  type: "Pooling"
  bottom: "conv1_2"
  top: "pool1"
  pooling_param {
    pool: MAX
    kernel_size: 2
    stride: 2
  }
}
layer {
  name: "conv2_1"
  type: "Convolution"
  bottom: "pool1"
  top: "conv2_1"
  param {
    lr_mult: 1
    decay_mult: 1
  }
  param {
    lr_mult: 2
    decay_mult: 0
  }
  convolution_param {
    num_output: 128
    pad: 1
    kernel_size: 3
    stride: 1
  }
}
layer {
  name: "relu2_1"
  type: "ReLU"
  bottom: "conv2_1"
  top: "conv2_1"
}
layer {
  name: "conv2_2"
  type: "Convolution"
  bottom: "conv2_1"
  top: "conv2_2"
  param {
    lr_mult: 1
    decay_mult: 1
  }
  param {
    lr_mult: 2
    decay_mult: 0
  }
  convolution_param {
    num_output: 128
    pad: 1
    kernel_size: 3
    stride: 1
  }
}
layer {
  name: "relu2_2"
  type: "ReLU"
  bottom: "conv2_2"
  top: "conv2_2"
}
layer {
  name: "pool2"
  type: "Pooling"
  bottom: "conv2_2"
  top: "pool2"
  pooling_param {
    pool: MAX
    kernel_size: 2
    stride: 2
  }
}
layer {
  name: "conv3_1"
  type: "Convolution"
  bottom: "pool2"
  top: "conv3_1"
  param {
    lr_mult: 1
    decay_mult: 1
  }
  param {
    lr_mult: 2
    decay_mult: 0
  }
  convolution_param {
    num_output: 256
    pad: 1
    kernel_size: 3
    stride: 1
  }
}
layer {
  name: "relu3_1"
  type: "ReLU"
  bottom: "conv3_1"
  top: "conv3_1"
}
layer {
  name: "conv3_2"
  type: "Convolution"
  bottom: "conv3_1"
  top: "conv3_2"
  param {
    lr_mult: 1
    decay_mult: 1
  }
  param {
    lr_mult: 2
    decay_mult: 0
  }
  convolution_param {
    num_output: 256
    pad: 1
    kernel_size: 3
    stride: 1
  }
}
layer {
  name: "relu3_2"
  type: "ReLU"
  bottom: "conv3_2"
  top: "conv3_2"
}
layer {
  name: "conv3_3"
  type: "Convolution"
  bottom: "conv3_2"
  top: "conv3_3"
  param {
    lr_mult: 1
    decay_mult: 1
  }
  param {
    lr_mult: 2
    decay_mult: 0
  }
  convolution_param {
    num_output: 256
    pad: 1
    kernel_size: 3
    stride: 1
  }
}
layer {
  name: "relu3_3"
  type: "ReLU"
  bottom: "conv3_3"
  top: "conv3_3"
}
layer {
  name: "pool3"
  type: "Pooling"
  bottom: "conv3_3"
  top: "pool3"
  pooling_param {
    pool: MAX
    kernel_size: 2
    stride: 2
  }
}
layer {
  name: "conv4_1"
  type: "Convolution"
  bottom: "pool3"
  top: "conv4_1"
  param {
    lr_mult: 1
    decay_mult: 1
  }
  param {
    lr_mult: 2
    decay_mult: 0
  }
  convolution_param {
    num_output: 512
    pad: 1
    kernel_size: 3
    stride: 1
  }
}
layer {
  name: "relu4_1"
  type: "ReLU"
  bottom: "conv4_1"
  top: "conv4_1"
}
layer {
  name: "conv4_2"
  type: "Convolution"
  bottom: "conv4_1"
  top: "conv4_2"
  param {
    lr_mult: 1
    decay_mult: 1
  }
  param {
    lr_mult: 2
    decay_mult: 0
  }
  convolution_param {
    num_output: 512
    pad: 1
    kernel_size: 3
    stride: 1
  }
}
layer {
  name: "relu4_2"
  type: "ReLU"
  bottom: "conv4_2"
  top: "conv4_2"
}
layer {
  name: "conv4_3"
  type: "Convolution"
  bottom: "conv4_2"
  top: "conv4_3"
  param {
    lr_mult: 1
    decay_mult: 1
  }
  param {
    lr_mult: 2
    decay_mult: 0
  }
  convolution_param {
    num_output: 512
    pad: 1
    kernel_size: 3
    stride: 1
  }
}
layer {
  name: "relu4_3"
  type: "ReLU"
  bottom: "conv4_3"
  top: "conv4_3"
}
layer {
  name: "pool4"
  type: "Pooling"
  bottom: "conv4_3"
  top: "pool4"
  pooling_param {
    pool: MAX
    kernel_size: 2
    stride: 2
  }
}
layer {
  name: "conv5_1"
  type: "Convolution"
  bottom: "pool4"
  top: "conv5_1"
  param {
    lr_mult: 1
    decay_mult: 1
  }
  param {
    lr_mult: 2
    decay_mult: 0
  }
  convolution_param {
    num_output: 512
    pad: 1
    kernel_size: 3
    stride: 1
  }
}
layer {
  name: "relu5_1"
  type: "ReLU"
  bottom: "conv5_1"
  top: "conv5_1"
}
layer {
  name: "conv5_2"
  type: "Convolution"
  bottom: "conv5_1"
  top: "conv5_2"
  param {
    lr_mult: 1
    decay_mult: 1
  }
  param {
    lr_mult: 2
    decay_mult: 0
  }
  convolution_param {
    num_output: 512
    pad: 1
    kernel_size: 3
    stride: 1
  }
}
layer {
  name: "relu5_2"
  type: "ReLU"
  bottom: "conv5_2"
  top: "conv5_2"
}
layer {
  name: "conv5_3"
  type: "Convolution"
  bottom: "conv5_2"
  top: "conv5_3"
  param {
    lr_mult: 1
    decay_mult: 1
  }
  param {
    lr_mult: 2
    decay_mult: 0
  }
  convolution_param {
    num_output: 512
    pad: 1
    kernel_size: 3
    stride: 1
  }
}
layer {
  name: "relu5_3"
  type: "ReLU"
  bottom: "conv5_3"
  top: "conv5_3"
}
layer {
  name: "pool5"
  type: "Pooling"
  bottom: "conv5_3"
  top: "pool5"
  pooling_param {
    pool: MAX
    kernel_size: 2
    stride: 2
  }
}
layer {
  name: "fc6"
  type: "Convolution"
  bottom: "pool5"
  top: "fc6"
  param {
    lr_mult: 1
    decay_mult: 1
  }
  param {
    lr_mult: 2
    decay_mult: 0
  }
  convolution_param {
    num_output: 4096
    pad: 0
    kernel_size: 7
    stride: 1
  }
}
layer {
  name: "relu6"
  type: "ReLU"
  bottom: "fc6"
  top: "fc6"
}
layer {
  name: "drop6"
  type: "Dropout"
  bottom: "fc6"
  top: "fc6"
  dropout_param {
    dropout_ratio: 0.5
  }
}
layer {
  name: "fc7"
  type: "Convolution"
  bottom: "fc6"
  top: "fc7"
  param {
    lr_mult: 1
    decay_mult: 1
  }
  param {
    lr_mult: 2
    decay_mult: 0
  }
  convolution_param {
    num_output: 4096
    pad: 0
    kernel_size: 1
    stride: 1
  }
}
layer {
  name: "relu7"
  type: "ReLU"
  bottom: "fc7"
  top: "fc7"
}
layer {
  name: "drop7"
  type: "Dropout"
  bottom: "fc7"
  top: "fc7"
  dropout_param {
    dropout_ratio: 0.5
  }
}
layer {
  name: "score_fr-new"
  type: "Convolution"
  bottom: "fc7"
  top: "score_fr-new"
  param {
    lr_mult: 1
    decay_mult: 1
  }
  param {
    lr_mult: 2
    decay_mult: 0
  }
  convolution_param {
    num_output: 3
    kernel_size: 1
  }
}
layer {
  name: "upscore2-new"
  type: "Deconvolution"
  bottom: "score_fr-new"
  top: "upscore2-new"
  param {
    lr_mult: 0
  }
  convolution_param {
    num_output: 3
    bias_term: false
    kernel_size: 4
    stride: 2
  }
}
layer {
  name: "score_pool4-new"
  type: "Convolution"
  bottom: "pool4"
  top: "score_pool4-new"
  param {
    lr_mult: 1
    decay_mult: 1
  }
  param {
    lr_mult: 2
    decay_mult: 0
  }
  convolution_param {
    num_output: 3
    pad: 0
    kernel_size: 1
  }
}
layer {
  name: "score_pool4c"
  type: "Crop"
  bottom: "score_pool4-new"
  bottom: "upscore2-new"
  top: "score_pool4c"
  crop_param {
    axis: 2
    offset: 5
  }
}
layer {
  name: "fuse_pool4"
  type: "Eltwise"
  bottom: "upscore2-new"
  bottom: "score_pool4c"
  top: "fuse_pool4"
  eltwise_param {
    operation: SUM
  }
}
layer {
  name: "upscore_pool4-new"
  type: "Deconvolution"
  bottom: "fuse_pool4"
  top: "upscore_pool4-new"
  param {
    lr_mult: 0
  }
  convolution_param {
    num_output: 3
    bias_term: false
    kernel_size: 4
    stride: 2
  }
}
layer {
  name: "score_pool3-new"
  type: "Convolution"
  bottom: "pool3"
  top: "score_pool3-new"
  param {
    lr_mult: 1
    decay_mult: 1
  }
  param {
    lr_mult: 2
    decay_mult: 0
  }
  convolution_param {
    num_output: 3
    pad: 0
    kernel_size: 1
  }
}
layer {
  name: "score_pool3c"
  type: "Crop"
  bottom: "score_pool3-new"
  bottom: "upscore_pool4-new"
  top: "score_pool3c"
  crop_param {
    axis: 2
    offset: 9
  }
}
layer {
  name: "fuse_pool3"
  type: "Eltwise"
  bottom: "upscore_pool4-new"
  bottom: "score_pool3c"
  top: "fuse_pool3"
  eltwise_param {
    operation: SUM
  }
}
layer {
  name: "upscore8-new"
  type: "Deconvolution"
  bottom: "fuse_pool3"
  top: "upscore8-new"
  param {
    lr_mult: 0
  }
  convolution_param {
    num_output: 3
    bias_term: false
    kernel_size: 16
    stride: 8
  }
}
layer {
  name: "upscore8_cropped"
  type: "Crop"
  bottom: "upscore8-new"
  bottom: "data"
  top: "upscore8_cropped"
  crop_param {
    axis: 2
    offset: 31
  }
}
layer {
  name: "score"
  type: "Convolution"
  bottom: "upscore8_cropped"
  top: "score"
  param {
    lr_mult: 1
    decay_mult: 1
  }
  param {
    lr_mult: 2
    decay_mult: 0
  }
  convolution_param {
    num_output: 3
    pad: 1
    kernel_size: 3
    stride: 1
    weight_filler {
      type: "xavier"
    }
    bias_filler {
      type: "constant"
      value: 0
    }
  }
}
layer {
  name: "prob"
  type: "Sigmoid"
  bottom: "score"
  top: "prob"
}
layer {
  name: "saliency"
  type: "Convolution"
  bottom: "prob"
  top: "saliency"
  param {
    lr_mult: 10
    decay_mult: 1
  }
  param {
    lr_mult: 20
    decay_mult: 0
  }
  convolution_param {
    num_output: 3
    pad: 2
    kernel_size: 5
    stride: 1
    weight_filler {
      type: "xavier"
    }
    bias_filler {
      type: "constant"
      value: 1
    }
  }
}
layer {
  name: "saliency_data"
  type: "Eltwise"
  bottom: "data"
  bottom: "saliency"
  top: "saliency_data"
  eltwise_param {
    operation: PROD
  }
}
layer {
  name: "crop"
  type: "Python"
  bottom: "label"
  bottom: "saliency_data"
  bottom: "crop_margin"
  bottom: "crop_prob"
  bottom: "crop_sample_batch"
  top: "data-R"
  top: "crop_info"
  python_param {
    module: "Crop"
    layer: "CropLayer"
    param_str: "{\"TEST\": 0}"
  }
}
layer {
  name: "conv1_1-R"
  type: "Convolution"
  bottom: "data-R"
  top: "conv1_1-R"
  param {
    lr_mult: 10
    decay_mult: 1
  }
  param {
    lr_mult: 20
    decay_mult: 0
  }
  convolution_param {
    num_output: 64
    pad: 100
    kernel_size: 3
    stride: 1
  }
}
layer {
  name: "relu1_1-R"
  type: "ReLU"
  bottom: "conv1_1-R"
  top: "conv1_1-R"
}
layer {
  name: "conv1_2-R"
  type: "Convolution"
  bottom: "conv1_1-R"
  top: "conv1_2-R"
  param {
    lr_mult: 10
    decay_mult: 1
  }
  param {
    lr_mult: 20
    decay_mult: 0
  }
  convolution_param {
    num_output: 64
    pad: 1
    kernel_size: 3
    stride: 1
  }
}
layer {
  name: "relu1_2-R"
  type: "ReLU"
  bottom: "conv1_2-R"
  top: "conv1_2-R"
}
layer {
  name: "pool1-R"
  type: "Pooling"
  bottom: "conv1_2-R"
  top: "pool1-R"
  pooling_param {
    pool: MAX
    kernel_size: 2
    stride: 2
  }
}
layer {
  name: "conv2_1-R"
  type: "Convolution"
  bottom: "pool1-R"
  top: "conv2_1-R"
  param {
    lr_mult: 10
    decay_mult: 1
  }
  param {
    lr_mult: 20
    decay_mult: 0
  }
  convolution_param {
    num_output: 128
    pad: 1
    kernel_size: 3
    stride: 1
  }
}
layer {
  name: "relu2_1-R"
  type: "ReLU"
  bottom: "conv2_1-R"
  top: "conv2_1-R"
}
layer {
  name: "conv2_2-R"
  type: "Convolution"
  bottom: "conv2_1-R"
  top: "conv2_2-R"
  param {
    lr_mult: 10
    decay_mult: 1
  }
  param {
    lr_mult: 20
    decay_mult: 0
  }
  convolution_param {
    num_output: 128
    pad: 1
    kernel_size: 3
    stride: 1
  }
}
layer {
  name: "relu2_2-R"
  type: "ReLU"
  bottom: "conv2_2-R"
  top: "conv2_2-R"
}
layer {
  name: "pool2-R"
  type: "Pooling"
  bottom: "conv2_2-R"
  top: "pool2-R"
  pooling_param {
    pool: MAX
    kernel_size: 2
    stride: 2
  }
}
layer {
  name: "conv3_1-R"
  type: "Convolution"
  bottom: "pool2-R"
  top: "conv3_1-R"
  param {
    lr_mult: 10
    decay_mult: 1
  }
  param {
    lr_mult: 20
    decay_mult: 0
  }
  convolution_param {
    num_output: 256
    pad: 1
    kernel_size: 3
    stride: 1
  }
}
layer {
  name: "relu3_1-R"
  type: "ReLU"
  bottom: "conv3_1-R"
  top: "conv3_1-R"
}
layer {
  name: "conv3_2-R"
  type: "Convolution"
  bottom: "conv3_1-R"
  top: "conv3_2-R"
  param {
    lr_mult: 10
    decay_mult: 1
  }
  param {
    lr_mult: 20
    decay_mult: 0
  }
  convolution_param {
    num_output: 256
    pad: 1
    kernel_size: 3
    stride: 1
  }
}
layer {
  name: "relu3_2-R"
  type: "ReLU"
  bottom: "conv3_2-R"
  top: "conv3_2-R"
}
layer {
  name: "conv3_3-R"
  type: "Convolution"
  bottom: "conv3_2-R"
  top: "conv3_3-R"
  param {
    lr_mult: 10
    decay_mult: 1
  }
  param {
    lr_mult: 20
    decay_mult: 0
  }
  convolution_param {
    num_output: 256
    pad: 1
    kernel_size: 3
    stride: 1
  }
}
layer {
  name: "relu3_3-R"
  type: "ReLU"
  bottom: "conv3_3-R"
  top: "conv3_3-R"
}
layer {
  name: "pool3-R"
  type: "Pooling"
  bottom: "conv3_3-R"
  top: "pool3-R"
  pooling_param {
    pool: MAX
    kernel_size: 2
    stride: 2
  }
}
layer {
  name: "conv4_1-R"
  type: "Convolution"
  bottom: "pool3-R"
  top: "conv4_1-R"
  param {
    lr_mult: 10
    decay_mult: 1
  }
  param {
    lr_mult: 20
    decay_mult: 0
  }
  convolution_param {
    num_output: 512
    pad: 1
    kernel_size: 3
    stride: 1
  }
}
layer {
  name: "relu4_1-R"
  type: "ReLU"
  bottom: "conv4_1-R"
  top: "conv4_1-R"
}
layer {
  name: "conv4_2-R"
  type: "Convolution"
  bottom: "conv4_1-R"
  top: "conv4_2-R"
  param {
    lr_mult: 10
    decay_mult: 1
  }
  param {
    lr_mult: 20
    decay_mult: 0
  }
  convolution_param {
    num_output: 512
    pad: 1
    kernel_size: 3
    stride: 1
  }
}
layer {
  name: "relu4_2-R"
  type: "ReLU"
  bottom: "conv4_2-R"
  top: "conv4_2-R"
}
layer {
  name: "conv4_3-R"
  type: "Convolution"
  bottom: "conv4_2-R"
  top: "conv4_3-R"
  param {
    lr_mult: 10
    decay_mult: 1
  }
  param {
    lr_mult: 20
    decay_mult: 0
  }
  convolution_param {
    num_output: 512
    pad: 1
    kernel_size: 3
    stride: 1
  }
}
layer {
  name: "relu4_3-R"
  type: "ReLU"
  bottom: "conv4_3-R"
  top: "conv4_3-R"
}
layer {
  name: "pool4-R"
  type: "Pooling"
  bottom: "conv4_3-R"
  top: "pool4-R"
  pooling_param {
    pool: MAX
    kernel_size: 2
    stride: 2
  }
}
layer {
  name: "conv5_1-R"
  type: "Convolution"
  bottom: "pool4-R"
  top: "conv5_1-R"
  param {
    lr_mult: 10
    decay_mult: 1
  }
  param {
    lr_mult: 20
    decay_mult: 0
  }
  convolution_param {
    num_output: 512
    pad: 1
    kernel_size: 3
    stride: 1
  }
}
layer {
  name: "relu5_1-R"
  type: "ReLU"
  bottom: "conv5_1-R"
  top: "conv5_1-R"
}
layer {
  name: "conv5_2-R"
  type: "Convolution"
  bottom: "conv5_1-R"
  top: "conv5_2-R"
  param {
    lr_mult: 10
    decay_mult: 1
  }
  param {
    lr_mult: 20
    decay_mult: 0
  }
  convolution_param {
    num_output: 512
    pad: 1
    kernel_size: 3
    stride: 1
  }
}
layer {
  name: "relu5_2-R"
  type: "ReLU"
  bottom: "conv5_2-R"
  top: "conv5_2-R"
}
layer {
  name: "conv5_3-R"
  type: "Convolution"
  bottom: "conv5_2-R"
  top: "conv5_3-R"
  param {
    lr_mult: 10
    decay_mult: 1
  }
  param {
    lr_mult: 20
    decay_mult: 0
  }
  convolution_param {
    num_output: 512
    pad: 1
    kernel_size: 3
    stride: 1
  }
}
layer {
  name: "relu5_3-R"
  type: "ReLU"
  bottom: "conv5_3-R"
  top: "conv5_3-R"
}
layer {
  name: "pool5-R"
  type: "Pooling"
  bottom: "conv5_3-R"
  top: "pool5-R"
  pooling_param {
    pool: MAX
    kernel_size: 2
    stride: 2
  }
}
layer {
  name: "fc6-R"
  type: "Convolution"
  bottom: "pool5-R"
  top: "fc6-R"
  param {
    lr_mult: 10
    decay_mult: 1
  }
  param {
    lr_mult: 20
    decay_mult: 0
  }
  convolution_param {
    num_output: 4096
    pad: 0
    kernel_size: 7
    stride: 1
  }
}
layer {
  name: "relu6-R"
  type: "ReLU"
  bottom: "fc6-R"
  top: "fc6-R"
}
layer {
  name: "drop6-R"
  type: "Dropout"
  bottom: "fc6-R"
  top: "fc6-R"
  dropout_param {
    dropout_ratio: 0.5
  }
}
layer {
  name: "fc7-R"
  type: "Convolution"
  bottom: "fc6-R"
  top: "fc7-R"
  param {
    lr_mult: 10
    decay_mult: 1
  }
  param {
    lr_mult: 20
    decay_mult: 0
  }
  convolution_param {
    num_output: 4096
    pad: 0
    kernel_size: 1
    stride: 1
  }
}
layer {
  name: "relu7-R"
  type: "ReLU"
  bottom: "fc7-R"
  top: "fc7-R"
}
layer {
  name: "drop7-R"
  type: "Dropout"
  bottom: "fc7-R"
  top: "fc7-R"
  dropout_param {
    dropout_ratio: 0.5
  }
}
layer {
  name: "score_fr-new-R"
  type: "Convolution"
  bottom: "fc7-R"
  top: "score_fr-new-R"
  param {
    lr_mult: 10
    decay_mult: 1
  }
  param {
    lr_mult: 20
    decay_mult: 0
  }
  convolution_param {
    num_output: 3
    kernel_size: 1
  }
}
layer {
  name: "upscore2-new-R"
  type: "Deconvolution"
  bottom: "score_fr-new-R"
  top: "upscore2-new-R"
  param {
    lr_mult: 0
  }
  convolution_param {
    num_output: 3
    bias_term: false
    kernel_size: 4
    stride: 2
  }
}
layer {
  name: "score_pool4-new-R"
  type: "Convolution"
  bottom: "pool4-R"
  top: "score_pool4-new-R"
  param {
    lr_mult: 10
    decay_mult: 1
  }
  param {
    lr_mult: 20
    decay_mult: 0
  }
  convolution_param {
    num_output: 3
    pad: 0
    kernel_size: 1
  }
}
layer {
  name: "score_pool4c-R"
  type: "Crop"
  bottom: "score_pool4-new-R"
  bottom: "upscore2-new-R"
  top: "score_pool4c-R"
  crop_param {
    axis: 2
    offset: 5
  }
}
layer {
  name: "fuse_pool4-R"
  type: "Eltwise"
  bottom: "upscore2-new-R"
  bottom: "score_pool4c-R"
  top: "fuse_pool4-R"
  eltwise_param {
    operation: SUM
  }
}
layer {
  name: "upscore_pool4-new-R"
  type: "Deconvolution"
  bottom: "fuse_pool4-R"
  top: "upscore_pool4-new-R"
  param {
    lr_mult: 0
  }
  convolution_param {
    num_output: 3
    bias_term: false
    kernel_size: 4
    stride: 2
  }
}
layer {
  name: "score_pool3-new-R"
  type: "Convolution"
  bottom: "pool3-R"
  top: "score_pool3-new-R"
  param {
    lr_mult: 10
    decay_mult: 1
  }
  param {
    lr_mult: 20
    decay_mult: 0
  }
  convolution_param {
    num_output: 3
    pad: 0
    kernel_size: 1
  }
}
layer {
  name: "score_pool3c-R"
  type: "Crop"
  bottom: "score_pool3-new-R"
  bottom: "upscore_pool4-new-R"
  top: "score_pool3c-R"
  crop_param {
    axis: 2
    offset: 9
  }
}
layer {
  name: "fuse_pool3-R"
  type: "Eltwise"
  bottom: "upscore_pool4-new-R"
  bottom: "score_pool3c-R"
  top: "fuse_pool3-R"
  eltwise_param {
    operation: SUM
  }
}
layer {
  name: "upscore8-new-R"
  type: "Deconvolution"
  bottom: "fuse_pool3-R"
  top: "upscore8-new-R"
  param {
    lr_mult: 0
  }
  convolution_param {
    num_output: 3
    bias_term: false
    kernel_size: 16
    stride: 8
  }
}
layer {
  name: "upscore8_cropped-R"
  type: "Crop"
  bottom: "upscore8-new-R"
  bottom: "data-R"
  top: "upscore8_cropped-R"
  crop_param {
    axis: 2
    offset: 31
  }
}
layer {
  name: "score-R"
  type: "Convolution"
  bottom: "upscore8_cropped-R"
  top: "score-R"
  param {
    lr_mult: 10
    decay_mult: 1
  }
  param {
    lr_mult: 20
    decay_mult: 0
  }
  convolution_param {
    num_output: 3
    pad: 1
    kernel_size: 3
    stride: 1
    weight_filler {
      type: "xavier"
    }
    bias_filler {
      type: "constant"
      value: 0
    }
  }
}
layer {
  name: "score_uncropped-R"
  type: "Python"
  bottom: "crop_info"
  bottom: "score-R"
  bottom: "data"
  top: "score_uncropped-R"
  python_param {
    module: "Uncrop"
    layer: "UncropLayer"
  }
}
layer {
  name: "loss1"
  type: "DiceLoss"
  bottom: "score"
  bottom: "label"
  top: "loss1"
  loss_weight: 0.333333
}
layer {
  name: "loss2"
  type: "DiceLoss"
  bottom: "score_uncropped-R"
  bottom: "label"
  top: "loss2"
  loss_weight: 0.666667
}
I0419 04:15:08.180807 23576 layer_factory.hpp:77] Creating layer data
I0419 04:15:08.180862 23576 net.cpp:84] Creating Layer data
I0419 04:15:08.180871 23576 net.cpp:380] data -> data
I0419 04:15:08.180881 23576 net.cpp:380] data -> label
I0419 04:15:08.180887 23576 net.cpp:380] data -> crop_margin
I0419 04:15:08.180893 23576 net.cpp:380] data -> crop_prob
I0419 04:15:08.180899 23576 net.cpp:380] data -> crop_sample_batch
I0419 04:15:08.249116 23576 net.cpp:122] Setting up data
I0419 04:15:08.249169 23576 net.cpp:129] Top shape: 1 3 512 512 (786432)
I0419 04:15:08.249177 23576 net.cpp:129] Top shape: 1 3 512 512 (786432)
I0419 04:15:08.249182 23576 net.cpp:129] Top shape: 1 (1)
I0419 04:15:08.249186 23576 net.cpp:129] Top shape: 1 (1)
I0419 04:15:08.249191 23576 net.cpp:129] Top shape: 1 (1)
I0419 04:15:08.249193 23576 net.cpp:137] Memory required for data: 6291468
I0419 04:15:08.249200 23576 layer_factory.hpp:77] Creating layer data_data_0_split
I0419 04:15:08.249231 23576 net.cpp:84] Creating Layer data_data_0_split
I0419 04:15:08.249236 23576 net.cpp:406] data_data_0_split <- data
I0419 04:15:08.249245 23576 net.cpp:380] data_data_0_split -> data_data_0_split_0
I0419 04:15:08.249256 23576 net.cpp:380] data_data_0_split -> data_data_0_split_1
I0419 04:15:08.249263 23576 net.cpp:380] data_data_0_split -> data_data_0_split_2
I0419 04:15:08.249269 23576 net.cpp:380] data_data_0_split -> data_data_0_split_3
I0419 04:15:08.249373 23576 net.cpp:122] Setting up data_data_0_split
I0419 04:15:08.249382 23576 net.cpp:129] Top shape: 1 3 512 512 (786432)
I0419 04:15:08.249387 23576 net.cpp:129] Top shape: 1 3 512 512 (786432)
I0419 04:15:08.249392 23576 net.cpp:129] Top shape: 1 3 512 512 (786432)
I0419 04:15:08.249397 23576 net.cpp:129] Top shape: 1 3 512 512 (786432)
I0419 04:15:08.249399 23576 net.cpp:137] Memory required for data: 18874380
I0419 04:15:08.249403 23576 layer_factory.hpp:77] Creating layer label_data_1_split
I0419 04:15:08.249409 23576 net.cpp:84] Creating Layer label_data_1_split
I0419 04:15:08.249413 23576 net.cpp:406] label_data_1_split <- label
I0419 04:15:08.249419 23576 net.cpp:380] label_data_1_split -> label_data_1_split_0
I0419 04:15:08.249426 23576 net.cpp:380] label_data_1_split -> label_data_1_split_1
I0419 04:15:08.249433 23576 net.cpp:380] label_data_1_split -> label_data_1_split_2
I0419 04:15:08.249507 23576 net.cpp:122] Setting up label_data_1_split
I0419 04:15:08.249516 23576 net.cpp:129] Top shape: 1 3 512 512 (786432)
I0419 04:15:08.249521 23576 net.cpp:129] Top shape: 1 3 512 512 (786432)
I0419 04:15:08.249524 23576 net.cpp:129] Top shape: 1 3 512 512 (786432)
I0419 04:15:08.249527 23576 net.cpp:137] Memory required for data: 28311564
I0419 04:15:08.249531 23576 layer_factory.hpp:77] Creating layer conv1_1
I0419 04:15:08.249548 23576 net.cpp:84] Creating Layer conv1_1
I0419 04:15:08.249552 23576 net.cpp:406] conv1_1 <- data_data_0_split_0
I0419 04:15:08.249558 23576 net.cpp:380] conv1_1 -> conv1_1
I0419 04:15:08.253777 23576 net.cpp:122] Setting up conv1_1
I0419 04:15:08.253811 23576 net.cpp:129] Top shape: 1 64 710 710 (32262400)
I0419 04:15:08.253815 23576 net.cpp:137] Memory required for data: 157361164
I0419 04:15:08.253830 23576 layer_factory.hpp:77] Creating layer relu1_1
I0419 04:15:08.253857 23576 net.cpp:84] Creating Layer relu1_1
I0419 04:15:08.253862 23576 net.cpp:406] relu1_1 <- conv1_1
I0419 04:15:08.253868 23576 net.cpp:367] relu1_1 -> conv1_1 (in-place)
I0419 04:15:08.254117 23576 net.cpp:122] Setting up relu1_1
I0419 04:15:08.254128 23576 net.cpp:129] Top shape: 1 64 710 710 (32262400)
I0419 04:15:08.254132 23576 net.cpp:137] Memory required for data: 286410764
I0419 04:15:08.254137 23576 layer_factory.hpp:77] Creating layer conv1_2
I0419 04:15:08.254145 23576 net.cpp:84] Creating Layer conv1_2
I0419 04:15:08.254149 23576 net.cpp:406] conv1_2 <- conv1_1
I0419 04:15:08.254155 23576 net.cpp:380] conv1_2 -> conv1_2
I0419 04:15:08.266404 23576 net.cpp:122] Setting up conv1_2
I0419 04:15:08.266463 23576 net.cpp:129] Top shape: 1 64 710 710 (32262400)
I0419 04:15:08.266471 23576 net.cpp:137] Memory required for data: 415460364
I0419 04:15:08.266500 23576 layer_factory.hpp:77] Creating layer relu1_2
I0419 04:15:08.266521 23576 net.cpp:84] Creating Layer relu1_2
I0419 04:15:08.266551 23576 net.cpp:406] relu1_2 <- conv1_2
I0419 04:15:08.266564 23576 net.cpp:367] relu1_2 -> conv1_2 (in-place)
I0419 04:15:08.267213 23576 net.cpp:122] Setting up relu1_2
I0419 04:15:08.267232 23576 net.cpp:129] Top shape: 1 64 710 710 (32262400)
I0419 04:15:08.267240 23576 net.cpp:137] Memory required for data: 544509964
I0419 04:15:08.267247 23576 layer_factory.hpp:77] Creating layer pool1
I0419 04:15:08.267262 23576 net.cpp:84] Creating Layer pool1
I0419 04:15:08.267271 23576 net.cpp:406] pool1 <- conv1_2
I0419 04:15:08.267282 23576 net.cpp:380] pool1 -> pool1
I0419 04:15:08.267465 23576 net.cpp:122] Setting up pool1
I0419 04:15:08.267480 23576 net.cpp:129] Top shape: 1 64 355 355 (8065600)
I0419 04:15:08.267488 23576 net.cpp:137] Memory required for data: 576772364
I0419 04:15:08.267494 23576 layer_factory.hpp:77] Creating layer conv2_1
I0419 04:15:08.267515 23576 net.cpp:84] Creating Layer conv2_1
I0419 04:15:08.267524 23576 net.cpp:406] conv2_1 <- pool1
I0419 04:15:08.267539 23576 net.cpp:380] conv2_1 -> conv2_1
I0419 04:15:08.271473 23576 net.cpp:122] Setting up conv2_1
I0419 04:15:08.271517 23576 net.cpp:129] Top shape: 1 128 355 355 (16131200)
I0419 04:15:08.271526 23576 net.cpp:137] Memory required for data: 641297164
I0419 04:15:08.271546 23576 layer_factory.hpp:77] Creating layer relu2_1
I0419 04:15:08.271560 23576 net.cpp:84] Creating Layer relu2_1
I0419 04:15:08.271569 23576 net.cpp:406] relu2_1 <- conv2_1
I0419 04:15:08.271580 23576 net.cpp:367] relu2_1 -> conv2_1 (in-place)
I0419 04:15:08.282606 23576 net.cpp:122] Setting up relu2_1
I0419 04:15:08.282651 23576 net.cpp:129] Top shape: 1 128 355 355 (16131200)
I0419 04:15:08.282660 23576 net.cpp:137] Memory required for data: 705821964
I0419 04:15:08.282670 23576 layer_factory.hpp:77] Creating layer conv2_2
I0419 04:15:08.282691 23576 net.cpp:84] Creating Layer conv2_2
I0419 04:15:08.282701 23576 net.cpp:406] conv2_2 <- conv2_1
I0419 04:15:08.282714 23576 net.cpp:380] conv2_2 -> conv2_2
I0419 04:15:08.287770 23576 net.cpp:122] Setting up conv2_2
I0419 04:15:08.287811 23576 net.cpp:129] Top shape: 1 128 355 355 (16131200)
I0419 04:15:08.287819 23576 net.cpp:137] Memory required for data: 770346764
I0419 04:15:08.287835 23576 layer_factory.hpp:77] Creating layer relu2_2
I0419 04:15:08.287849 23576 net.cpp:84] Creating Layer relu2_2
I0419 04:15:08.287869 23576 net.cpp:406] relu2_2 <- conv2_2
I0419 04:15:08.287880 23576 net.cpp:367] relu2_2 -> conv2_2 (in-place)
I0419 04:15:08.289374 23576 net.cpp:122] Setting up relu2_2
I0419 04:15:08.289412 23576 net.cpp:129] Top shape: 1 128 355 355 (16131200)
I0419 04:15:08.289419 23576 net.cpp:137] Memory required for data: 834871564
I0419 04:15:08.289427 23576 layer_factory.hpp:77] Creating layer pool2
I0419 04:15:08.289443 23576 net.cpp:84] Creating Layer pool2
I0419 04:15:08.289451 23576 net.cpp:406] pool2 <- conv2_2
I0419 04:15:08.289472 23576 net.cpp:380] pool2 -> pool2
I0419 04:15:08.289608 23576 net.cpp:122] Setting up pool2
I0419 04:15:08.289624 23576 net.cpp:129] Top shape: 1 128 178 178 (4055552)
I0419 04:15:08.289631 23576 net.cpp:137] Memory required for data: 851093772
I0419 04:15:08.289638 23576 layer_factory.hpp:77] Creating layer conv3_1
I0419 04:15:08.289654 23576 net.cpp:84] Creating Layer conv3_1
I0419 04:15:08.289662 23576 net.cpp:406] conv3_1 <- pool2
I0419 04:15:08.289674 23576 net.cpp:380] conv3_1 -> conv3_1
I0419 04:15:08.296046 23576 net.cpp:122] Setting up conv3_1
I0419 04:15:08.296063 23576 net.cpp:129] Top shape: 1 256 178 178 (8111104)
I0419 04:15:08.296078 23576 net.cpp:137] Memory required for data: 883538188
I0419 04:15:08.296092 23576 layer_factory.hpp:77] Creating layer relu3_1
I0419 04:15:08.296100 23576 net.cpp:84] Creating Layer relu3_1
I0419 04:15:08.296105 23576 net.cpp:406] relu3_1 <- conv3_1
I0419 04:15:08.296113 23576 net.cpp:367] relu3_1 -> conv3_1 (in-place)
I0419 04:15:08.296391 23576 net.cpp:122] Setting up relu3_1
I0419 04:15:08.296403 23576 net.cpp:129] Top shape: 1 256 178 178 (8111104)
I0419 04:15:08.296408 23576 net.cpp:137] Memory required for data: 915982604
I0419 04:15:08.296412 23576 layer_factory.hpp:77] Creating layer conv3_2
I0419 04:15:08.296424 23576 net.cpp:84] Creating Layer conv3_2
I0419 04:15:08.296429 23576 net.cpp:406] conv3_2 <- conv3_1
I0419 04:15:08.296437 23576 net.cpp:380] conv3_2 -> conv3_2
I0419 04:15:08.305280 23576 net.cpp:122] Setting up conv3_2
I0419 04:15:08.305310 23576 net.cpp:129] Top shape: 1 256 178 178 (8111104)
I0419 04:15:08.305315 23576 net.cpp:137] Memory required for data: 948427020
I0419 04:15:08.305325 23576 layer_factory.hpp:77] Creating layer relu3_2
I0419 04:15:08.305338 23576 net.cpp:84] Creating Layer relu3_2
I0419 04:15:08.305344 23576 net.cpp:406] relu3_2 <- conv3_2
I0419 04:15:08.305351 23576 net.cpp:367] relu3_2 -> conv3_2 (in-place)
I0419 04:15:08.305639 23576 net.cpp:122] Setting up relu3_2
I0419 04:15:08.305651 23576 net.cpp:129] Top shape: 1 256 178 178 (8111104)
I0419 04:15:08.305656 23576 net.cpp:137] Memory required for data: 980871436
I0419 04:15:08.305660 23576 layer_factory.hpp:77] Creating layer conv3_3
I0419 04:15:08.305672 23576 net.cpp:84] Creating Layer conv3_3
I0419 04:15:08.305677 23576 net.cpp:406] conv3_3 <- conv3_2
I0419 04:15:08.305685 23576 net.cpp:380] conv3_3 -> conv3_3
I0419 04:15:08.313180 23576 net.cpp:122] Setting up conv3_3
I0419 04:15:08.313217 23576 net.cpp:129] Top shape: 1 256 178 178 (8111104)
I0419 04:15:08.313225 23576 net.cpp:137] Memory required for data: 1013315852
I0419 04:15:08.313238 23576 layer_factory.hpp:77] Creating layer relu3_3
I0419 04:15:08.313251 23576 net.cpp:84] Creating Layer relu3_3
I0419 04:15:08.313257 23576 net.cpp:406] relu3_3 <- conv3_3
I0419 04:15:08.313277 23576 net.cpp:367] relu3_3 -> conv3_3 (in-place)
I0419 04:15:08.313654 23576 net.cpp:122] Setting up relu3_3
I0419 04:15:08.313670 23576 net.cpp:129] Top shape: 1 256 178 178 (8111104)
I0419 04:15:08.313676 23576 net.cpp:137] Memory required for data: 1045760268
I0419 04:15:08.313683 23576 layer_factory.hpp:77] Creating layer pool3
I0419 04:15:08.313694 23576 net.cpp:84] Creating Layer pool3
I0419 04:15:08.313701 23576 net.cpp:406] pool3 <- conv3_3
I0419 04:15:08.313711 23576 net.cpp:380] pool3 -> pool3
I0419 04:15:08.313825 23576 net.cpp:122] Setting up pool3
I0419 04:15:08.313838 23576 net.cpp:129] Top shape: 1 256 89 89 (2027776)
I0419 04:15:08.313843 23576 net.cpp:137] Memory required for data: 1053871372
I0419 04:15:08.313849 23576 layer_factory.hpp:77] Creating layer pool3_pool3_0_split
I0419 04:15:08.313859 23576 net.cpp:84] Creating Layer pool3_pool3_0_split
I0419 04:15:08.313865 23576 net.cpp:406] pool3_pool3_0_split <- pool3
I0419 04:15:08.313875 23576 net.cpp:380] pool3_pool3_0_split -> pool3_pool3_0_split_0
I0419 04:15:08.313885 23576 net.cpp:380] pool3_pool3_0_split -> pool3_pool3_0_split_1
I0419 04:15:08.313977 23576 net.cpp:122] Setting up pool3_pool3_0_split
I0419 04:15:08.313987 23576 net.cpp:129] Top shape: 1 256 89 89 (2027776)
I0419 04:15:08.313994 23576 net.cpp:129] Top shape: 1 256 89 89 (2027776)
I0419 04:15:08.313999 23576 net.cpp:137] Memory required for data: 1070093580
I0419 04:15:08.314005 23576 layer_factory.hpp:77] Creating layer conv4_1
I0419 04:15:08.314019 23576 net.cpp:84] Creating Layer conv4_1
I0419 04:15:08.314025 23576 net.cpp:406] conv4_1 <- pool3_pool3_0_split_0
I0419 04:15:08.314035 23576 net.cpp:380] conv4_1 -> conv4_1
I0419 04:15:08.322912 23576 net.cpp:122] Setting up conv4_1
I0419 04:15:08.322934 23576 net.cpp:129] Top shape: 1 512 89 89 (4055552)
I0419 04:15:08.322940 23576 net.cpp:137] Memory required for data: 1086315788
I0419 04:15:08.322962 23576 layer_factory.hpp:77] Creating layer relu4_1
I0419 04:15:08.322973 23576 net.cpp:84] Creating Layer relu4_1
I0419 04:15:08.322978 23576 net.cpp:406] relu4_1 <- conv4_1
I0419 04:15:08.322986 23576 net.cpp:367] relu4_1 -> conv4_1 (in-place)
I0419 04:15:08.323273 23576 net.cpp:122] Setting up relu4_1
I0419 04:15:08.323287 23576 net.cpp:129] Top shape: 1 512 89 89 (4055552)
I0419 04:15:08.323290 23576 net.cpp:137] Memory required for data: 1102537996
I0419 04:15:08.323295 23576 layer_factory.hpp:77] Creating layer conv4_2
I0419 04:15:08.323307 23576 net.cpp:84] Creating Layer conv4_2
I0419 04:15:08.323312 23576 net.cpp:406] conv4_2 <- conv4_1
I0419 04:15:08.323320 23576 net.cpp:380] conv4_2 -> conv4_2
I0419 04:15:08.333449 23576 net.cpp:122] Setting up conv4_2
I0419 04:15:08.333488 23576 net.cpp:129] Top shape: 1 512 89 89 (4055552)
I0419 04:15:08.333494 23576 net.cpp:137] Memory required for data: 1118760204
I0419 04:15:08.333514 23576 layer_factory.hpp:77] Creating layer relu4_2
I0419 04:15:08.333528 23576 net.cpp:84] Creating Layer relu4_2
I0419 04:15:08.333535 23576 net.cpp:406] relu4_2 <- conv4_2
I0419 04:15:08.333544 23576 net.cpp:367] relu4_2 -> conv4_2 (in-place)
I0419 04:15:08.334693 23576 net.cpp:122] Setting up relu4_2
I0419 04:15:08.334712 23576 net.cpp:129] Top shape: 1 512 89 89 (4055552)
I0419 04:15:08.334723 23576 net.cpp:137] Memory required for data: 1134982412
I0419 04:15:08.334729 23576 layer_factory.hpp:77] Creating layer conv4_3
I0419 04:15:08.334744 23576 net.cpp:84] Creating Layer conv4_3
I0419 04:15:08.334749 23576 net.cpp:406] conv4_3 <- conv4_2
I0419 04:15:08.334759 23576 net.cpp:380] conv4_3 -> conv4_3
I0419 04:15:08.346253 23576 net.cpp:122] Setting up conv4_3
I0419 04:15:08.346302 23576 net.cpp:129] Top shape: 1 512 89 89 (4055552)
I0419 04:15:08.346307 23576 net.cpp:137] Memory required for data: 1151204620
I0419 04:15:08.346321 23576 layer_factory.hpp:77] Creating layer relu4_3
I0419 04:15:08.346338 23576 net.cpp:84] Creating Layer relu4_3
I0419 04:15:08.346345 23576 net.cpp:406] relu4_3 <- conv4_3
I0419 04:15:08.346367 23576 net.cpp:367] relu4_3 -> conv4_3 (in-place)
I0419 04:15:08.347362 23576 net.cpp:122] Setting up relu4_3
I0419 04:15:08.347378 23576 net.cpp:129] Top shape: 1 512 89 89 (4055552)
I0419 04:15:08.347383 23576 net.cpp:137] Memory required for data: 1167426828
I0419 04:15:08.347388 23576 layer_factory.hpp:77] Creating layer pool4
I0419 04:15:08.347400 23576 net.cpp:84] Creating Layer pool4
I0419 04:15:08.347405 23576 net.cpp:406] pool4 <- conv4_3
I0419 04:15:08.347426 23576 net.cpp:380] pool4 -> pool4
I0419 04:15:08.347518 23576 net.cpp:122] Setting up pool4
I0419 04:15:08.347528 23576 net.cpp:129] Top shape: 1 512 45 45 (1036800)
I0419 04:15:08.347532 23576 net.cpp:137] Memory required for data: 1171574028
I0419 04:15:08.347537 23576 layer_factory.hpp:77] Creating layer pool4_pool4_0_split
I0419 04:15:08.347545 23576 net.cpp:84] Creating Layer pool4_pool4_0_split
I0419 04:15:08.347550 23576 net.cpp:406] pool4_pool4_0_split <- pool4
I0419 04:15:08.347558 23576 net.cpp:380] pool4_pool4_0_split -> pool4_pool4_0_split_0
I0419 04:15:08.347566 23576 net.cpp:380] pool4_pool4_0_split -> pool4_pool4_0_split_1
I0419 04:15:08.347640 23576 net.cpp:122] Setting up pool4_pool4_0_split
I0419 04:15:08.347649 23576 net.cpp:129] Top shape: 1 512 45 45 (1036800)
I0419 04:15:08.347654 23576 net.cpp:129] Top shape: 1 512 45 45 (1036800)
I0419 04:15:08.347658 23576 net.cpp:137] Memory required for data: 1179868428
I0419 04:15:08.347662 23576 layer_factory.hpp:77] Creating layer conv5_1
I0419 04:15:08.347676 23576 net.cpp:84] Creating Layer conv5_1
I0419 04:15:08.347681 23576 net.cpp:406] conv5_1 <- pool4_pool4_0_split_0
I0419 04:15:08.347688 23576 net.cpp:380] conv5_1 -> conv5_1
I0419 04:15:08.363040 23576 net.cpp:122] Setting up conv5_1
I0419 04:15:08.363106 23576 net.cpp:129] Top shape: 1 512 45 45 (1036800)
I0419 04:15:08.363116 23576 net.cpp:137] Memory required for data: 1184015628
I0419 04:15:08.363135 23576 layer_factory.hpp:77] Creating layer relu5_1
I0419 04:15:08.363154 23576 net.cpp:84] Creating Layer relu5_1
I0419 04:15:08.363165 23576 net.cpp:406] relu5_1 <- conv5_1
I0419 04:15:08.363178 23576 net.cpp:367] relu5_1 -> conv5_1 (in-place)
I0419 04:15:08.363651 23576 net.cpp:122] Setting up relu5_1
I0419 04:15:08.363682 23576 net.cpp:129] Top shape: 1 512 45 45 (1036800)
I0419 04:15:08.363689 23576 net.cpp:137] Memory required for data: 1188162828
I0419 04:15:08.363696 23576 layer_factory.hpp:77] Creating layer conv5_2
I0419 04:15:08.363723 23576 net.cpp:84] Creating Layer conv5_2
I0419 04:15:08.363737 23576 net.cpp:406] conv5_2 <- conv5_1
I0419 04:15:08.363760 23576 net.cpp:380] conv5_2 -> conv5_2
I0419 04:15:08.372741 23576 net.cpp:122] Setting up conv5_2
I0419 04:15:08.372774 23576 net.cpp:129] Top shape: 1 512 45 45 (1036800)
I0419 04:15:08.372778 23576 net.cpp:137] Memory required for data: 1192310028
I0419 04:15:08.372786 23576 layer_factory.hpp:77] Creating layer relu5_2
I0419 04:15:08.372802 23576 net.cpp:84] Creating Layer relu5_2
I0419 04:15:08.372805 23576 net.cpp:406] relu5_2 <- conv5_2
I0419 04:15:08.372812 23576 net.cpp:367] relu5_2 -> conv5_2 (in-place)
I0419 04:15:08.373025 23576 net.cpp:122] Setting up relu5_2
I0419 04:15:08.373035 23576 net.cpp:129] Top shape: 1 512 45 45 (1036800)
I0419 04:15:08.373039 23576 net.cpp:137] Memory required for data: 1196457228
I0419 04:15:08.373041 23576 layer_factory.hpp:77] Creating layer conv5_3
I0419 04:15:08.373061 23576 net.cpp:84] Creating Layer conv5_3
I0419 04:15:08.373069 23576 net.cpp:406] conv5_3 <- conv5_2
I0419 04:15:08.373090 23576 net.cpp:380] conv5_3 -> conv5_3
I0419 04:15:08.385180 23576 net.cpp:122] Setting up conv5_3
I0419 04:15:08.385219 23576 net.cpp:129] Top shape: 1 512 45 45 (1036800)
I0419 04:15:08.385224 23576 net.cpp:137] Memory required for data: 1200604428
I0419 04:15:08.385232 23576 layer_factory.hpp:77] Creating layer relu5_3
I0419 04:15:08.385241 23576 net.cpp:84] Creating Layer relu5_3
I0419 04:15:08.385246 23576 net.cpp:406] relu5_3 <- conv5_3
I0419 04:15:08.385252 23576 net.cpp:367] relu5_3 -> conv5_3 (in-place)
I0419 04:15:08.385463 23576 net.cpp:122] Setting up relu5_3
I0419 04:15:08.385473 23576 net.cpp:129] Top shape: 1 512 45 45 (1036800)
I0419 04:15:08.385476 23576 net.cpp:137] Memory required for data: 1204751628
I0419 04:15:08.385480 23576 layer_factory.hpp:77] Creating layer pool5
I0419 04:15:08.385490 23576 net.cpp:84] Creating Layer pool5
I0419 04:15:08.385499 23576 net.cpp:406] pool5 <- conv5_3
I0419 04:15:08.385520 23576 net.cpp:380] pool5 -> pool5
I0419 04:15:08.385591 23576 net.cpp:122] Setting up pool5
I0419 04:15:08.385615 23576 net.cpp:129] Top shape: 1 512 23 23 (270848)
I0419 04:15:08.385618 23576 net.cpp:137] Memory required for data: 1205835020
I0419 04:15:08.385622 23576 layer_factory.hpp:77] Creating layer fc6
I0419 04:15:08.385632 23576 net.cpp:84] Creating Layer fc6
I0419 04:15:08.385637 23576 net.cpp:406] fc6 <- pool5
I0419 04:15:08.385643 23576 net.cpp:380] fc6 -> fc6
I0419 04:15:08.698079 23576 net.cpp:122] Setting up fc6
I0419 04:15:08.698129 23576 net.cpp:129] Top shape: 1 4096 17 17 (1183744)
I0419 04:15:08.698134 23576 net.cpp:137] Memory required for data: 1210569996
I0419 04:15:08.698144 23576 layer_factory.hpp:77] Creating layer relu6
I0419 04:15:08.698156 23576 net.cpp:84] Creating Layer relu6
I0419 04:15:08.698168 23576 net.cpp:406] relu6 <- fc6
I0419 04:15:08.698187 23576 net.cpp:367] relu6 -> fc6 (in-place)
I0419 04:15:08.698410 23576 net.cpp:122] Setting up relu6
I0419 04:15:08.698421 23576 net.cpp:129] Top shape: 1 4096 17 17 (1183744)
I0419 04:15:08.698441 23576 net.cpp:137] Memory required for data: 1215304972
I0419 04:15:08.698444 23576 layer_factory.hpp:77] Creating layer drop6
I0419 04:15:08.698452 23576 net.cpp:84] Creating Layer drop6
I0419 04:15:08.698457 23576 net.cpp:406] drop6 <- fc6
I0419 04:15:08.698462 23576 net.cpp:367] drop6 -> fc6 (in-place)
I0419 04:15:08.698506 23576 net.cpp:122] Setting up drop6
I0419 04:15:08.698513 23576 net.cpp:129] Top shape: 1 4096 17 17 (1183744)
I0419 04:15:08.698515 23576 net.cpp:137] Memory required for data: 1220039948
I0419 04:15:08.698519 23576 layer_factory.hpp:77] Creating layer fc7
I0419 04:15:08.698529 23576 net.cpp:84] Creating Layer fc7
I0419 04:15:08.698532 23576 net.cpp:406] fc7 <- fc6
I0419 04:15:08.698549 23576 net.cpp:380] fc7 -> fc7
I0419 04:15:08.767643 23576 net.cpp:122] Setting up fc7
I0419 04:15:08.767714 23576 net.cpp:129] Top shape: 1 4096 17 17 (1183744)
I0419 04:15:08.767724 23576 net.cpp:137] Memory required for data: 1224774924
I0419 04:15:08.767757 23576 layer_factory.hpp:77] Creating layer relu7
I0419 04:15:08.767778 23576 net.cpp:84] Creating Layer relu7
I0419 04:15:08.767789 23576 net.cpp:406] relu7 <- fc7
I0419 04:15:08.767803 23576 net.cpp:367] relu7 -> fc7 (in-place)
I0419 04:15:08.770005 23576 net.cpp:122] Setting up relu7
I0419 04:15:08.770046 23576 net.cpp:129] Top shape: 1 4096 17 17 (1183744)
I0419 04:15:08.770054 23576 net.cpp:137] Memory required for data: 1229509900
I0419 04:15:08.770063 23576 layer_factory.hpp:77] Creating layer drop7
I0419 04:15:08.770081 23576 net.cpp:84] Creating Layer drop7
I0419 04:15:08.770088 23576 net.cpp:406] drop7 <- fc7
I0419 04:15:08.770102 23576 net.cpp:367] drop7 -> fc7 (in-place)
I0419 04:15:08.770288 23576 net.cpp:122] Setting up drop7
I0419 04:15:08.770325 23576 net.cpp:129] Top shape: 1 4096 17 17 (1183744)
I0419 04:15:08.770334 23576 net.cpp:137] Memory required for data: 1234244876
I0419 04:15:08.770340 23576 layer_factory.hpp:77] Creating layer score_fr-new
I0419 04:15:08.770359 23576 net.cpp:84] Creating Layer score_fr-new
I0419 04:15:08.770366 23576 net.cpp:406] score_fr-new <- fc7
I0419 04:15:08.770380 23576 net.cpp:380] score_fr-new -> score_fr-new
I0419 04:15:08.774641 23576 net.cpp:122] Setting up score_fr-new
I0419 04:15:08.774677 23576 net.cpp:129] Top shape: 1 3 17 17 (867)
I0419 04:15:08.774682 23576 net.cpp:137] Memory required for data: 1234248344
I0419 04:15:08.774691 23576 layer_factory.hpp:77] Creating layer upscore2-new
I0419 04:15:08.774705 23576 net.cpp:84] Creating Layer upscore2-new
I0419 04:15:08.774711 23576 net.cpp:406] upscore2-new <- score_fr-new
I0419 04:15:08.774720 23576 net.cpp:380] upscore2-new -> upscore2-new
I0419 04:15:08.775158 23576 net.cpp:122] Setting up upscore2-new
I0419 04:15:08.775171 23576 net.cpp:129] Top shape: 1 3 36 36 (3888)
I0419 04:15:08.775174 23576 net.cpp:137] Memory required for data: 1234263896
I0419 04:15:08.775202 23576 layer_factory.hpp:77] Creating layer upscore2-new_upscore2-new_0_split
I0419 04:15:08.775212 23576 net.cpp:84] Creating Layer upscore2-new_upscore2-new_0_split
I0419 04:15:08.775216 23576 net.cpp:406] upscore2-new_upscore2-new_0_split <- upscore2-new
I0419 04:15:08.775223 23576 net.cpp:380] upscore2-new_upscore2-new_0_split -> upscore2-new_upscore2-new_0_split_0
I0419 04:15:08.775231 23576 net.cpp:380] upscore2-new_upscore2-new_0_split -> upscore2-new_upscore2-new_0_split_1
I0419 04:15:08.775312 23576 net.cpp:122] Setting up upscore2-new_upscore2-new_0_split
I0419 04:15:08.775322 23576 net.cpp:129] Top shape: 1 3 36 36 (3888)
I0419 04:15:08.775327 23576 net.cpp:129] Top shape: 1 3 36 36 (3888)
I0419 04:15:08.775331 23576 net.cpp:137] Memory required for data: 1234295000
I0419 04:15:08.775336 23576 layer_factory.hpp:77] Creating layer score_pool4-new
I0419 04:15:08.775357 23576 net.cpp:84] Creating Layer score_pool4-new
I0419 04:15:08.775362 23576 net.cpp:406] score_pool4-new <- pool4_pool4_0_split_1
I0419 04:15:08.775370 23576 net.cpp:380] score_pool4-new -> score_pool4-new
I0419 04:15:08.778379 23576 net.cpp:122] Setting up score_pool4-new
I0419 04:15:08.778400 23576 net.cpp:129] Top shape: 1 3 45 45 (6075)
I0419 04:15:08.778405 23576 net.cpp:137] Memory required for data: 1234319300
I0419 04:15:08.778415 23576 layer_factory.hpp:77] Creating layer score_pool4c
I0419 04:15:08.778424 23576 net.cpp:84] Creating Layer score_pool4c
I0419 04:15:08.778429 23576 net.cpp:406] score_pool4c <- score_pool4-new
I0419 04:15:08.778436 23576 net.cpp:406] score_pool4c <- upscore2-new_upscore2-new_0_split_0
I0419 04:15:08.778443 23576 net.cpp:380] score_pool4c -> score_pool4c
I0419 04:15:08.778498 23576 net.cpp:122] Setting up score_pool4c
I0419 04:15:08.778517 23576 net.cpp:129] Top shape: 1 3 36 36 (3888)
I0419 04:15:08.778522 23576 net.cpp:137] Memory required for data: 1234334852
I0419 04:15:08.778532 23576 layer_factory.hpp:77] Creating layer fuse_pool4
I0419 04:15:08.778542 23576 net.cpp:84] Creating Layer fuse_pool4
I0419 04:15:08.778548 23576 net.cpp:406] fuse_pool4 <- upscore2-new_upscore2-new_0_split_1
I0419 04:15:08.778563 23576 net.cpp:406] fuse_pool4 <- score_pool4c
I0419 04:15:08.778568 23576 net.cpp:380] fuse_pool4 -> fuse_pool4
I0419 04:15:08.778616 23576 net.cpp:122] Setting up fuse_pool4
I0419 04:15:08.778635 23576 net.cpp:129] Top shape: 1 3 36 36 (3888)
I0419 04:15:08.778640 23576 net.cpp:137] Memory required for data: 1234350404
I0419 04:15:08.778643 23576 layer_factory.hpp:77] Creating layer upscore_pool4-new
I0419 04:15:08.778653 23576 net.cpp:84] Creating Layer upscore_pool4-new
I0419 04:15:08.778658 23576 net.cpp:406] upscore_pool4-new <- fuse_pool4
I0419 04:15:08.778666 23576 net.cpp:380] upscore_pool4-new -> upscore_pool4-new
I0419 04:15:08.779094 23576 net.cpp:122] Setting up upscore_pool4-new
I0419 04:15:08.779105 23576 net.cpp:129] Top shape: 1 3 74 74 (16428)
I0419 04:15:08.779109 23576 net.cpp:137] Memory required for data: 1234416116
I0419 04:15:08.779121 23576 layer_factory.hpp:77] Creating layer upscore_pool4-new_upscore_pool4-new_0_split
I0419 04:15:08.779129 23576 net.cpp:84] Creating Layer upscore_pool4-new_upscore_pool4-new_0_split
I0419 04:15:08.779134 23576 net.cpp:406] upscore_pool4-new_upscore_pool4-new_0_split <- upscore_pool4-new
I0419 04:15:08.779141 23576 net.cpp:380] upscore_pool4-new_upscore_pool4-new_0_split -> upscore_pool4-new_upscore_pool4-new_0_split_0
I0419 04:15:08.779150 23576 net.cpp:380] upscore_pool4-new_upscore_pool4-new_0_split -> upscore_pool4-new_upscore_pool4-new_0_split_1
I0419 04:15:08.779222 23576 net.cpp:122] Setting up upscore_pool4-new_upscore_pool4-new_0_split
I0419 04:15:08.779230 23576 net.cpp:129] Top shape: 1 3 74 74 (16428)
I0419 04:15:08.779235 23576 net.cpp:129] Top shape: 1 3 74 74 (16428)
I0419 04:15:08.779239 23576 net.cpp:137] Memory required for data: 1234547540
I0419 04:15:08.779243 23576 layer_factory.hpp:77] Creating layer score_pool3-new
I0419 04:15:08.779255 23576 net.cpp:84] Creating Layer score_pool3-new
I0419 04:15:08.779260 23576 net.cpp:406] score_pool3-new <- pool3_pool3_0_split_1
I0419 04:15:08.779269 23576 net.cpp:380] score_pool3-new -> score_pool3-new
I0419 04:15:08.783150 23576 net.cpp:122] Setting up score_pool3-new
I0419 04:15:08.783193 23576 net.cpp:129] Top shape: 1 3 89 89 (23763)
I0419 04:15:08.783202 23576 net.cpp:137] Memory required for data: 1234642592
I0419 04:15:08.783217 23576 layer_factory.hpp:77] Creating layer score_pool3c
I0419 04:15:08.783232 23576 net.cpp:84] Creating Layer score_pool3c
I0419 04:15:08.783252 23576 net.cpp:406] score_pool3c <- score_pool3-new
I0419 04:15:08.783262 23576 net.cpp:406] score_pool3c <- upscore_pool4-new_upscore_pool4-new_0_split_0
I0419 04:15:08.783275 23576 net.cpp:380] score_pool3c -> score_pool3c
I0419 04:15:08.783361 23576 net.cpp:122] Setting up score_pool3c
I0419 04:15:08.783378 23576 net.cpp:129] Top shape: 1 3 74 74 (16428)
I0419 04:15:08.783385 23576 net.cpp:137] Memory required for data: 1234708304
I0419 04:15:08.783392 23576 layer_factory.hpp:77] Creating layer fuse_pool3
I0419 04:15:08.783406 23576 net.cpp:84] Creating Layer fuse_pool3
I0419 04:15:08.783413 23576 net.cpp:406] fuse_pool3 <- upscore_pool4-new_upscore_pool4-new_0_split_1
I0419 04:15:08.783423 23576 net.cpp:406] fuse_pool3 <- score_pool3c
I0419 04:15:08.783442 23576 net.cpp:380] fuse_pool3 -> fuse_pool3
I0419 04:15:08.783526 23576 net.cpp:122] Setting up fuse_pool3
I0419 04:15:08.783541 23576 net.cpp:129] Top shape: 1 3 74 74 (16428)
I0419 04:15:08.783548 23576 net.cpp:137] Memory required for data: 1234774016
I0419 04:15:08.783555 23576 layer_factory.hpp:77] Creating layer upscore8-new
I0419 04:15:08.783569 23576 net.cpp:84] Creating Layer upscore8-new
I0419 04:15:08.783577 23576 net.cpp:406] upscore8-new <- fuse_pool3
I0419 04:15:08.783589 23576 net.cpp:380] upscore8-new -> upscore8-new
I0419 04:15:08.784281 23576 net.cpp:122] Setting up upscore8-new
I0419 04:15:08.784307 23576 net.cpp:129] Top shape: 1 3 600 600 (1080000)
I0419 04:15:08.784313 23576 net.cpp:137] Memory required for data: 1239094016
I0419 04:15:08.784334 23576 layer_factory.hpp:77] Creating layer upscore8_cropped
I0419 04:15:08.784346 23576 net.cpp:84] Creating Layer upscore8_cropped
I0419 04:15:08.784354 23576 net.cpp:406] upscore8_cropped <- upscore8-new
I0419 04:15:08.784365 23576 net.cpp:406] upscore8_cropped <- data_data_0_split_1
I0419 04:15:08.784376 23576 net.cpp:380] upscore8_cropped -> upscore8_cropped
I0419 04:15:08.784447 23576 net.cpp:122] Setting up upscore8_cropped
I0419 04:15:08.784462 23576 net.cpp:129] Top shape: 1 3 512 512 (786432)
I0419 04:15:08.784469 23576 net.cpp:137] Memory required for data: 1242239744
I0419 04:15:08.784476 23576 layer_factory.hpp:77] Creating layer score
I0419 04:15:08.784497 23576 net.cpp:84] Creating Layer score
I0419 04:15:08.784505 23576 net.cpp:406] score <- upscore8_cropped
I0419 04:15:08.784519 23576 net.cpp:380] score -> score
I0419 04:15:08.793162 23576 net.cpp:122] Setting up score
I0419 04:15:08.793205 23576 net.cpp:129] Top shape: 1 3 512 512 (786432)
I0419 04:15:08.793213 23576 net.cpp:137] Memory required for data: 1245385472
I0419 04:15:08.793231 23576 layer_factory.hpp:77] Creating layer score_score_0_split
I0419 04:15:08.793244 23576 net.cpp:84] Creating Layer score_score_0_split
I0419 04:15:08.793252 23576 net.cpp:406] score_score_0_split <- score
I0419 04:15:08.793265 23576 net.cpp:380] score_score_0_split -> score_score_0_split_0
I0419 04:15:08.793282 23576 net.cpp:380] score_score_0_split -> score_score_0_split_1
I0419 04:15:08.793431 23576 net.cpp:122] Setting up score_score_0_split
I0419 04:15:08.793447 23576 net.cpp:129] Top shape: 1 3 512 512 (786432)
I0419 04:15:08.793457 23576 net.cpp:129] Top shape: 1 3 512 512 (786432)
I0419 04:15:08.793463 23576 net.cpp:137] Memory required for data: 1251676928
I0419 04:15:08.793470 23576 layer_factory.hpp:77] Creating layer prob
I0419 04:15:08.793483 23576 net.cpp:84] Creating Layer prob
I0419 04:15:08.793491 23576 net.cpp:406] prob <- score_score_0_split_0
I0419 04:15:08.793503 23576 net.cpp:380] prob -> prob
I0419 04:15:08.794061 23576 net.cpp:122] Setting up prob
I0419 04:15:08.794092 23576 net.cpp:129] Top shape: 1 3 512 512 (786432)
I0419 04:15:08.794100 23576 net.cpp:137] Memory required for data: 1254822656
I0419 04:15:08.794107 23576 layer_factory.hpp:77] Creating layer saliency
I0419 04:15:08.794128 23576 net.cpp:84] Creating Layer saliency
I0419 04:15:08.794137 23576 net.cpp:406] saliency <- prob
I0419 04:15:08.794152 23576 net.cpp:380] saliency -> saliency
I0419 04:15:08.800774 23576 net.cpp:122] Setting up saliency
I0419 04:15:08.800828 23576 net.cpp:129] Top shape: 1 3 512 512 (786432)
I0419 04:15:08.800832 23576 net.cpp:137] Memory required for data: 1257968384
I0419 04:15:08.800861 23576 layer_factory.hpp:77] Creating layer saliency_data
I0419 04:15:08.800874 23576 net.cpp:84] Creating Layer saliency_data
I0419 04:15:08.800880 23576 net.cpp:406] saliency_data <- data_data_0_split_2
I0419 04:15:08.800904 23576 net.cpp:406] saliency_data <- saliency
I0419 04:15:08.800909 23576 net.cpp:380] saliency_data -> saliency_data
I0419 04:15:08.801055 23576 net.cpp:122] Setting up saliency_data
I0419 04:15:08.801064 23576 net.cpp:129] Top shape: 1 3 512 512 (786432)
I0419 04:15:08.801067 23576 net.cpp:137] Memory required for data: 1261114112
I0419 04:15:08.801070 23576 layer_factory.hpp:77] Creating layer crop
I0419 04:15:08.801152 23576 net.cpp:84] Creating Layer crop
I0419 04:15:08.801160 23576 net.cpp:406] crop <- label_data_1_split_0
I0419 04:15:08.801167 23576 net.cpp:406] crop <- saliency_data
I0419 04:15:08.801172 23576 net.cpp:406] crop <- crop_margin
I0419 04:15:08.801175 23576 net.cpp:406] crop <- crop_prob
I0419 04:15:08.801179 23576 net.cpp:406] crop <- crop_sample_batch
I0419 04:15:08.801185 23576 net.cpp:380] crop -> data-R
I0419 04:15:08.801192 23576 net.cpp:380] crop -> crop_info
I0419 04:15:08.812147 23576 net.cpp:122] Setting up crop
I0419 04:15:08.812196 23576 net.cpp:129] Top shape: 1 3 512 512 (786432)
I0419 04:15:08.812201 23576 net.cpp:129] Top shape: 1 2 4 (8)
I0419 04:15:08.812203 23576 net.cpp:137] Memory required for data: 1264259872
I0419 04:15:08.812207 23576 layer_factory.hpp:77] Creating layer data-R_crop_0_split
I0419 04:15:08.812216 23576 net.cpp:84] Creating Layer data-R_crop_0_split
I0419 04:15:08.812219 23576 net.cpp:406] data-R_crop_0_split <- data-R
I0419 04:15:08.812225 23576 net.cpp:380] data-R_crop_0_split -> data-R_crop_0_split_0
I0419 04:15:08.812233 23576 net.cpp:380] data-R_crop_0_split -> data-R_crop_0_split_1
I0419 04:15:08.812320 23576 net.cpp:122] Setting up data-R_crop_0_split
I0419 04:15:08.812325 23576 net.cpp:129] Top shape: 1 3 512 512 (786432)
I0419 04:15:08.812330 23576 net.cpp:129] Top shape: 1 3 512 512 (786432)
I0419 04:15:08.812332 23576 net.cpp:137] Memory required for data: 1270551328
I0419 04:15:08.812336 23576 layer_factory.hpp:77] Creating layer conv1_1-R
I0419 04:15:08.812346 23576 net.cpp:84] Creating Layer conv1_1-R
I0419 04:15:08.812350 23576 net.cpp:406] conv1_1-R <- data-R_crop_0_split_0
I0419 04:15:08.812355 23576 net.cpp:380] conv1_1-R -> conv1_1-R
I0419 04:15:08.819000 23576 net.cpp:122] Setting up conv1_1-R
I0419 04:15:08.819047 23576 net.cpp:129] Top shape: 1 64 710 710 (32262400)
I0419 04:15:08.819056 23576 net.cpp:137] Memory required for data: 1399600928
I0419 04:15:08.819077 23576 layer_factory.hpp:77] Creating layer relu1_1-R
I0419 04:15:08.819092 23576 net.cpp:84] Creating Layer relu1_1-R
I0419 04:15:08.819102 23576 net.cpp:406] relu1_1-R <- conv1_1-R
I0419 04:15:08.819114 23576 net.cpp:367] relu1_1-R -> conv1_1-R (in-place)
I0419 04:15:08.821463 23576 net.cpp:122] Setting up relu1_1-R
I0419 04:15:08.821497 23576 net.cpp:129] Top shape: 1 64 710 710 (32262400)
I0419 04:15:08.821501 23576 net.cpp:137] Memory required for data: 1528650528
I0419 04:15:08.821521 23576 layer_factory.hpp:77] Creating layer conv1_2-R
I0419 04:15:08.821540 23576 net.cpp:84] Creating Layer conv1_2-R
I0419 04:15:08.821547 23576 net.cpp:406] conv1_2-R <- conv1_1-R
I0419 04:15:08.821553 23576 net.cpp:380] conv1_2-R -> conv1_2-R
I0419 04:15:08.826655 23576 net.cpp:122] Setting up conv1_2-R
I0419 04:15:08.826692 23576 net.cpp:129] Top shape: 1 64 710 710 (32262400)
I0419 04:15:08.826700 23576 net.cpp:137] Memory required for data: 1657700128
I0419 04:15:08.826719 23576 layer_factory.hpp:77] Creating layer relu1_2-R
I0419 04:15:08.826732 23576 net.cpp:84] Creating Layer relu1_2-R
I0419 04:15:08.826750 23576 net.cpp:406] relu1_2-R <- conv1_2-R
I0419 04:15:08.826761 23576 net.cpp:367] relu1_2-R -> conv1_2-R (in-place)
I0419 04:15:08.828466 23576 net.cpp:122] Setting up relu1_2-R
I0419 04:15:08.828505 23576 net.cpp:129] Top shape: 1 64 710 710 (32262400)
I0419 04:15:08.828512 23576 net.cpp:137] Memory required for data: 1786749728
I0419 04:15:08.828521 23576 layer_factory.hpp:77] Creating layer pool1-R
I0419 04:15:08.828536 23576 net.cpp:84] Creating Layer pool1-R
I0419 04:15:08.828544 23576 net.cpp:406] pool1-R <- conv1_2-R
I0419 04:15:08.828564 23576 net.cpp:380] pool1-R -> pool1-R
I0419 04:15:08.828721 23576 net.cpp:122] Setting up pool1-R
I0419 04:15:08.828737 23576 net.cpp:129] Top shape: 1 64 355 355 (8065600)
I0419 04:15:08.828743 23576 net.cpp:137] Memory required for data: 1819012128
I0419 04:15:08.828750 23576 layer_factory.hpp:77] Creating layer conv2_1-R
I0419 04:15:08.828766 23576 net.cpp:84] Creating Layer conv2_1-R
I0419 04:15:08.828773 23576 net.cpp:406] conv2_1-R <- pool1-R
I0419 04:15:08.828785 23576 net.cpp:380] conv2_1-R -> conv2_1-R
I0419 04:15:08.832584 23576 net.cpp:122] Setting up conv2_1-R
I0419 04:15:08.832628 23576 net.cpp:129] Top shape: 1 128 355 355 (16131200)
I0419 04:15:08.832635 23576 net.cpp:137] Memory required for data: 1883536928
I0419 04:15:08.832651 23576 layer_factory.hpp:77] Creating layer relu2_1-R
I0419 04:15:08.832664 23576 net.cpp:84] Creating Layer relu2_1-R
I0419 04:15:08.832672 23576 net.cpp:406] relu2_1-R <- conv2_1-R
I0419 04:15:08.832686 23576 net.cpp:367] relu2_1-R -> conv2_1-R (in-place)
I0419 04:15:08.833115 23576 net.cpp:122] Setting up relu2_1-R
I0419 04:15:08.833144 23576 net.cpp:129] Top shape: 1 128 355 355 (16131200)
I0419 04:15:08.833151 23576 net.cpp:137] Memory required for data: 1948061728
I0419 04:15:08.833169 23576 layer_factory.hpp:77] Creating layer conv2_2-R
I0419 04:15:08.833186 23576 net.cpp:84] Creating Layer conv2_2-R
I0419 04:15:08.833194 23576 net.cpp:406] conv2_2-R <- conv2_1-R
I0419 04:15:08.833216 23576 net.cpp:380] conv2_2-R -> conv2_2-R
I0419 04:15:08.842339 23576 net.cpp:122] Setting up conv2_2-R
I0419 04:15:08.842371 23576 net.cpp:129] Top shape: 1 128 355 355 (16131200)
I0419 04:15:08.842375 23576 net.cpp:137] Memory required for data: 2012586528
I0419 04:15:08.842383 23576 layer_factory.hpp:77] Creating layer relu2_2-R
I0419 04:15:08.842391 23576 net.cpp:84] Creating Layer relu2_2-R
I0419 04:15:08.842396 23576 net.cpp:406] relu2_2-R <- conv2_2-R
I0419 04:15:08.842401 23576 net.cpp:367] relu2_2-R -> conv2_2-R (in-place)
I0419 04:15:08.842698 23576 net.cpp:122] Setting up relu2_2-R
I0419 04:15:08.842710 23576 net.cpp:129] Top shape: 1 128 355 355 (16131200)
I0419 04:15:08.842712 23576 net.cpp:137] Memory required for data: 2077111328
I0419 04:15:08.842716 23576 layer_factory.hpp:77] Creating layer pool2-R
I0419 04:15:08.842723 23576 net.cpp:84] Creating Layer pool2-R
I0419 04:15:08.842727 23576 net.cpp:406] pool2-R <- conv2_2-R
I0419 04:15:08.842734 23576 net.cpp:380] pool2-R -> pool2-R
I0419 04:15:08.842810 23576 net.cpp:122] Setting up pool2-R
I0419 04:15:08.842820 23576 net.cpp:129] Top shape: 1 128 178 178 (4055552)
I0419 04:15:08.842823 23576 net.cpp:137] Memory required for data: 2093333536
I0419 04:15:08.842826 23576 layer_factory.hpp:77] Creating layer conv3_1-R
I0419 04:15:08.842835 23576 net.cpp:84] Creating Layer conv3_1-R
I0419 04:15:08.842839 23576 net.cpp:406] conv3_1-R <- pool2-R
I0419 04:15:08.842845 23576 net.cpp:380] conv3_1-R -> conv3_1-R
I0419 04:15:08.850136 23576 net.cpp:122] Setting up conv3_1-R
I0419 04:15:08.850189 23576 net.cpp:129] Top shape: 1 256 178 178 (8111104)
I0419 04:15:08.850208 23576 net.cpp:137] Memory required for data: 2125777952
I0419 04:15:08.850224 23576 layer_factory.hpp:77] Creating layer relu3_1-R
I0419 04:15:08.850248 23576 net.cpp:84] Creating Layer relu3_1-R
I0419 04:15:08.850256 23576 net.cpp:406] relu3_1-R <- conv3_1-R
I0419 04:15:08.850268 23576 net.cpp:367] relu3_1-R -> conv3_1-R (in-place)
I0419 04:15:08.850742 23576 net.cpp:122] Setting up relu3_1-R
I0419 04:15:08.850761 23576 net.cpp:129] Top shape: 1 256 178 178 (8111104)
I0419 04:15:08.850769 23576 net.cpp:137] Memory required for data: 2158222368
I0419 04:15:08.850776 23576 layer_factory.hpp:77] Creating layer conv3_2-R
I0419 04:15:08.850800 23576 net.cpp:84] Creating Layer conv3_2-R
I0419 04:15:08.850807 23576 net.cpp:406] conv3_2-R <- conv3_1-R
I0419 04:15:08.850821 23576 net.cpp:380] conv3_2-R -> conv3_2-R
I0419 04:15:08.860070 23576 net.cpp:122] Setting up conv3_2-R
I0419 04:15:08.860105 23576 net.cpp:129] Top shape: 1 256 178 178 (8111104)
I0419 04:15:08.860113 23576 net.cpp:137] Memory required for data: 2190666784
I0419 04:15:08.860137 23576 layer_factory.hpp:77] Creating layer relu3_2-R
I0419 04:15:08.860152 23576 net.cpp:84] Creating Layer relu3_2-R
I0419 04:15:08.860162 23576 net.cpp:406] relu3_2-R <- conv3_2-R
I0419 04:15:08.860183 23576 net.cpp:367] relu3_2-R -> conv3_2-R (in-place)
I0419 04:15:08.860721 23576 net.cpp:122] Setting up relu3_2-R
I0419 04:15:08.860741 23576 net.cpp:129] Top shape: 1 256 178 178 (8111104)
I0419 04:15:08.860749 23576 net.cpp:137] Memory required for data: 2223111200
I0419 04:15:08.860755 23576 layer_factory.hpp:77] Creating layer conv3_3-R
I0419 04:15:08.860780 23576 net.cpp:84] Creating Layer conv3_3-R
I0419 04:15:08.860787 23576 net.cpp:406] conv3_3-R <- conv3_2-R
I0419 04:15:08.860800 23576 net.cpp:380] conv3_3-R -> conv3_3-R
I0419 04:15:08.867741 23576 net.cpp:122] Setting up conv3_3-R
I0419 04:15:08.867775 23576 net.cpp:129] Top shape: 1 256 178 178 (8111104)
I0419 04:15:08.867781 23576 net.cpp:137] Memory required for data: 2255555616
I0419 04:15:08.867802 23576 layer_factory.hpp:77] Creating layer relu3_3-R
I0419 04:15:08.867811 23576 net.cpp:84] Creating Layer relu3_3-R
I0419 04:15:08.867817 23576 net.cpp:406] relu3_3-R <- conv3_3-R
I0419 04:15:08.867826 23576 net.cpp:367] relu3_3-R -> conv3_3-R (in-place)
I0419 04:15:08.869009 23576 net.cpp:122] Setting up relu3_3-R
I0419 04:15:08.869040 23576 net.cpp:129] Top shape: 1 256 178 178 (8111104)
I0419 04:15:08.869045 23576 net.cpp:137] Memory required for data: 2288000032
I0419 04:15:08.869050 23576 layer_factory.hpp:77] Creating layer pool3-R
I0419 04:15:08.869060 23576 net.cpp:84] Creating Layer pool3-R
I0419 04:15:08.869066 23576 net.cpp:406] pool3-R <- conv3_3-R
I0419 04:15:08.869076 23576 net.cpp:380] pool3-R -> pool3-R
I0419 04:15:08.869189 23576 net.cpp:122] Setting up pool3-R
I0419 04:15:08.869200 23576 net.cpp:129] Top shape: 1 256 89 89 (2027776)
I0419 04:15:08.869205 23576 net.cpp:137] Memory required for data: 2296111136
I0419 04:15:08.869210 23576 layer_factory.hpp:77] Creating layer pool3-R_pool3-R_0_split
I0419 04:15:08.869218 23576 net.cpp:84] Creating Layer pool3-R_pool3-R_0_split
I0419 04:15:08.869223 23576 net.cpp:406] pool3-R_pool3-R_0_split <- pool3-R
I0419 04:15:08.869238 23576 net.cpp:380] pool3-R_pool3-R_0_split -> pool3-R_pool3-R_0_split_0
I0419 04:15:08.869248 23576 net.cpp:380] pool3-R_pool3-R_0_split -> pool3-R_pool3-R_0_split_1
I0419 04:15:08.869333 23576 net.cpp:122] Setting up pool3-R_pool3-R_0_split
I0419 04:15:08.869345 23576 net.cpp:129] Top shape: 1 256 89 89 (2027776)
I0419 04:15:08.869351 23576 net.cpp:129] Top shape: 1 256 89 89 (2027776)
I0419 04:15:08.869357 23576 net.cpp:137] Memory required for data: 2312333344
I0419 04:15:08.869361 23576 layer_factory.hpp:77] Creating layer conv4_1-R
I0419 04:15:08.869374 23576 net.cpp:84] Creating Layer conv4_1-R
I0419 04:15:08.869379 23576 net.cpp:406] conv4_1-R <- pool3-R_pool3-R_0_split_0
I0419 04:15:08.869387 23576 net.cpp:380] conv4_1-R -> conv4_1-R
I0419 04:15:08.879703 23576 net.cpp:122] Setting up conv4_1-R
I0419 04:15:08.879756 23576 net.cpp:129] Top shape: 1 512 89 89 (4055552)
I0419 04:15:08.879765 23576 net.cpp:137] Memory required for data: 2328555552
I0419 04:15:08.879798 23576 layer_factory.hpp:77] Creating layer relu4_1-R
I0419 04:15:08.879830 23576 net.cpp:84] Creating Layer relu4_1-R
I0419 04:15:08.879842 23576 net.cpp:406] relu4_1-R <- conv4_1-R
I0419 04:15:08.879858 23576 net.cpp:367] relu4_1-R -> conv4_1-R (in-place)
I0419 04:15:08.881566 23576 net.cpp:122] Setting up relu4_1-R
I0419 04:15:08.881605 23576 net.cpp:129] Top shape: 1 512 89 89 (4055552)
I0419 04:15:08.881613 23576 net.cpp:137] Memory required for data: 2344777760
I0419 04:15:08.881621 23576 layer_factory.hpp:77] Creating layer conv4_2-R
I0419 04:15:08.881644 23576 net.cpp:84] Creating Layer conv4_2-R
I0419 04:15:08.881651 23576 net.cpp:406] conv4_2-R <- conv4_1-R
I0419 04:15:08.881666 23576 net.cpp:380] conv4_2-R -> conv4_2-R
I0419 04:15:08.891723 23576 net.cpp:122] Setting up conv4_2-R
I0419 04:15:08.891755 23576 net.cpp:129] Top shape: 1 512 89 89 (4055552)
I0419 04:15:08.891760 23576 net.cpp:137] Memory required for data: 2360999968
I0419 04:15:08.891770 23576 layer_factory.hpp:77] Creating layer relu4_2-R
I0419 04:15:08.891782 23576 net.cpp:84] Creating Layer relu4_2-R
I0419 04:15:08.891786 23576 net.cpp:406] relu4_2-R <- conv4_2-R
I0419 04:15:08.891794 23576 net.cpp:367] relu4_2-R -> conv4_2-R (in-place)
I0419 04:15:08.892087 23576 net.cpp:122] Setting up relu4_2-R
I0419 04:15:08.892102 23576 net.cpp:129] Top shape: 1 512 89 89 (4055552)
I0419 04:15:08.892105 23576 net.cpp:137] Memory required for data: 2377222176
I0419 04:15:08.892110 23576 layer_factory.hpp:77] Creating layer conv4_3-R
I0419 04:15:08.892122 23576 net.cpp:84] Creating Layer conv4_3-R
I0419 04:15:08.892127 23576 net.cpp:406] conv4_3-R <- conv4_2-R
I0419 04:15:08.892136 23576 net.cpp:380] conv4_3-R -> conv4_3-R
I0419 04:15:08.901978 23576 net.cpp:122] Setting up conv4_3-R
I0419 04:15:08.902014 23576 net.cpp:129] Top shape: 1 512 89 89 (4055552)
I0419 04:15:08.902019 23576 net.cpp:137] Memory required for data: 2393444384
I0419 04:15:08.902029 23576 layer_factory.hpp:77] Creating layer relu4_3-R
I0419 04:15:08.902040 23576 net.cpp:84] Creating Layer relu4_3-R
I0419 04:15:08.902045 23576 net.cpp:406] relu4_3-R <- conv4_3-R
I0419 04:15:08.902052 23576 net.cpp:367] relu4_3-R -> conv4_3-R (in-place)
I0419 04:15:08.902348 23576 net.cpp:122] Setting up relu4_3-R
I0419 04:15:08.902361 23576 net.cpp:129] Top shape: 1 512 89 89 (4055552)
I0419 04:15:08.902365 23576 net.cpp:137] Memory required for data: 2409666592
I0419 04:15:08.902370 23576 layer_factory.hpp:77] Creating layer pool4-R
I0419 04:15:08.902381 23576 net.cpp:84] Creating Layer pool4-R
I0419 04:15:08.902386 23576 net.cpp:406] pool4-R <- conv4_3-R
I0419 04:15:08.902395 23576 net.cpp:380] pool4-R -> pool4-R
I0419 04:15:08.902488 23576 net.cpp:122] Setting up pool4-R
I0419 04:15:08.902499 23576 net.cpp:129] Top shape: 1 512 45 45 (1036800)
I0419 04:15:08.902503 23576 net.cpp:137] Memory required for data: 2413813792
I0419 04:15:08.902508 23576 layer_factory.hpp:77] Creating layer pool4-R_pool4-R_0_split
I0419 04:15:08.902516 23576 net.cpp:84] Creating Layer pool4-R_pool4-R_0_split
I0419 04:15:08.902521 23576 net.cpp:406] pool4-R_pool4-R_0_split <- pool4-R
I0419 04:15:08.902536 23576 net.cpp:380] pool4-R_pool4-R_0_split -> pool4-R_pool4-R_0_split_0
I0419 04:15:08.902545 23576 net.cpp:380] pool4-R_pool4-R_0_split -> pool4-R_pool4-R_0_split_1
I0419 04:15:08.902631 23576 net.cpp:122] Setting up pool4-R_pool4-R_0_split
I0419 04:15:08.902640 23576 net.cpp:129] Top shape: 1 512 45 45 (1036800)
I0419 04:15:08.902645 23576 net.cpp:129] Top shape: 1 512 45 45 (1036800)
I0419 04:15:08.902649 23576 net.cpp:137] Memory required for data: 2422108192
I0419 04:15:08.902653 23576 layer_factory.hpp:77] Creating layer conv5_1-R
I0419 04:15:08.902665 23576 net.cpp:84] Creating Layer conv5_1-R
I0419 04:15:08.902670 23576 net.cpp:406] conv5_1-R <- pool4-R_pool4-R_0_split_0
I0419 04:15:08.902678 23576 net.cpp:380] conv5_1-R -> conv5_1-R
I0419 04:15:08.912299 23576 net.cpp:122] Setting up conv5_1-R
I0419 04:15:08.912323 23576 net.cpp:129] Top shape: 1 512 45 45 (1036800)
I0419 04:15:08.912328 23576 net.cpp:137] Memory required for data: 2426255392
I0419 04:15:08.912361 23576 layer_factory.hpp:77] Creating layer relu5_1-R
I0419 04:15:08.912374 23576 net.cpp:84] Creating Layer relu5_1-R
I0419 04:15:08.912379 23576 net.cpp:406] relu5_1-R <- conv5_1-R
I0419 04:15:08.912385 23576 net.cpp:367] relu5_1-R -> conv5_1-R (in-place)
I0419 04:15:08.912672 23576 net.cpp:122] Setting up relu5_1-R
I0419 04:15:08.912684 23576 net.cpp:129] Top shape: 1 512 45 45 (1036800)
I0419 04:15:08.912688 23576 net.cpp:137] Memory required for data: 2430402592
I0419 04:15:08.912693 23576 layer_factory.hpp:77] Creating layer conv5_2-R
I0419 04:15:08.912705 23576 net.cpp:84] Creating Layer conv5_2-R
I0419 04:15:08.912710 23576 net.cpp:406] conv5_2-R <- conv5_1-R
I0419 04:15:08.912719 23576 net.cpp:380] conv5_2-R -> conv5_2-R
I0419 04:15:08.924093 23576 net.cpp:122] Setting up conv5_2-R
I0419 04:15:08.924118 23576 net.cpp:129] Top shape: 1 512 45 45 (1036800)
I0419 04:15:08.924130 23576 net.cpp:137] Memory required for data: 2434549792
I0419 04:15:08.924140 23576 layer_factory.hpp:77] Creating layer relu5_2-R
I0419 04:15:08.924150 23576 net.cpp:84] Creating Layer relu5_2-R
I0419 04:15:08.924156 23576 net.cpp:406] relu5_2-R <- conv5_2-R
I0419 04:15:08.924165 23576 net.cpp:367] relu5_2-R -> conv5_2-R (in-place)
I0419 04:15:08.924440 23576 net.cpp:122] Setting up relu5_2-R
I0419 04:15:08.924453 23576 net.cpp:129] Top shape: 1 512 45 45 (1036800)
I0419 04:15:08.924458 23576 net.cpp:137] Memory required for data: 2438696992
I0419 04:15:08.924463 23576 layer_factory.hpp:77] Creating layer conv5_3-R
I0419 04:15:08.924474 23576 net.cpp:84] Creating Layer conv5_3-R
I0419 04:15:08.924479 23576 net.cpp:406] conv5_3-R <- conv5_2-R
I0419 04:15:08.924489 23576 net.cpp:380] conv5_3-R -> conv5_3-R
I0419 04:15:08.947084 23576 net.cpp:122] Setting up conv5_3-R
I0419 04:15:08.947129 23576 net.cpp:129] Top shape: 1 512 45 45 (1036800)
I0419 04:15:08.947139 23576 net.cpp:137] Memory required for data: 2442844192
I0419 04:15:08.947154 23576 layer_factory.hpp:77] Creating layer relu5_3-R
I0419 04:15:08.947168 23576 net.cpp:84] Creating Layer relu5_3-R
I0419 04:15:08.947188 23576 net.cpp:406] relu5_3-R <- conv5_3-R
I0419 04:15:08.947201 23576 net.cpp:367] relu5_3-R -> conv5_3-R (in-place)
I0419 04:15:08.949033 23576 net.cpp:122] Setting up relu5_3-R
I0419 04:15:08.949071 23576 net.cpp:129] Top shape: 1 512 45 45 (1036800)
I0419 04:15:08.949080 23576 net.cpp:137] Memory required for data: 2446991392
I0419 04:15:08.949088 23576 layer_factory.hpp:77] Creating layer pool5-R
I0419 04:15:08.949102 23576 net.cpp:84] Creating Layer pool5-R
I0419 04:15:08.949110 23576 net.cpp:406] pool5-R <- conv5_3-R
I0419 04:15:08.949134 23576 net.cpp:380] pool5-R -> pool5-R
I0419 04:15:08.949295 23576 net.cpp:122] Setting up pool5-R
I0419 04:15:08.949312 23576 net.cpp:129] Top shape: 1 512 23 23 (270848)
I0419 04:15:08.949319 23576 net.cpp:137] Memory required for data: 2448074784
I0419 04:15:08.949326 23576 layer_factory.hpp:77] Creating layer fc6-R
I0419 04:15:08.949342 23576 net.cpp:84] Creating Layer fc6-R
I0419 04:15:08.949350 23576 net.cpp:406] fc6-R <- pool5-R
I0419 04:15:08.949362 23576 net.cpp:380] fc6-R -> fc6-R
I0419 04:15:09.302753 23576 net.cpp:122] Setting up fc6-R
I0419 04:15:09.302808 23576 net.cpp:129] Top shape: 1 4096 17 17 (1183744)
I0419 04:15:09.302812 23576 net.cpp:137] Memory required for data: 2452809760
I0419 04:15:09.302822 23576 layer_factory.hpp:77] Creating layer relu6-R
I0419 04:15:09.302834 23576 net.cpp:84] Creating Layer relu6-R
I0419 04:15:09.302840 23576 net.cpp:406] relu6-R <- fc6-R
I0419 04:15:09.302846 23576 net.cpp:367] relu6-R -> fc6-R (in-place)
I0419 04:15:09.304695 23576 net.cpp:122] Setting up relu6-R
I0419 04:15:09.304708 23576 net.cpp:129] Top shape: 1 4096 17 17 (1183744)
I0419 04:15:09.304726 23576 net.cpp:137] Memory required for data: 2457544736
I0419 04:15:09.304730 23576 layer_factory.hpp:77] Creating layer drop6-R
I0419 04:15:09.304738 23576 net.cpp:84] Creating Layer drop6-R
I0419 04:15:09.304742 23576 net.cpp:406] drop6-R <- fc6-R
I0419 04:15:09.304749 23576 net.cpp:367] drop6-R -> fc6-R (in-place)
I0419 04:15:09.304812 23576 net.cpp:122] Setting up drop6-R
I0419 04:15:09.304819 23576 net.cpp:129] Top shape: 1 4096 17 17 (1183744)
I0419 04:15:09.304822 23576 net.cpp:137] Memory required for data: 2462279712
I0419 04:15:09.304826 23576 layer_factory.hpp:77] Creating layer fc7-R
I0419 04:15:09.304836 23576 net.cpp:84] Creating Layer fc7-R
I0419 04:15:09.304838 23576 net.cpp:406] fc7-R <- fc6-R
I0419 04:15:09.304846 23576 net.cpp:380] fc7-R -> fc7-R
I0419 04:15:09.358372 23576 net.cpp:122] Setting up fc7-R
I0419 04:15:09.358439 23576 net.cpp:129] Top shape: 1 4096 17 17 (1183744)
I0419 04:15:09.358448 23576 net.cpp:137] Memory required for data: 2467014688
I0419 04:15:09.358471 23576 layer_factory.hpp:77] Creating layer relu7-R
I0419 04:15:09.358494 23576 net.cpp:84] Creating Layer relu7-R
I0419 04:15:09.358520 23576 net.cpp:406] relu7-R <- fc7-R
I0419 04:15:09.358546 23576 net.cpp:367] relu7-R -> fc7-R (in-place)
I0419 04:15:09.359254 23576 net.cpp:122] Setting up relu7-R
I0419 04:15:09.359275 23576 net.cpp:129] Top shape: 1 4096 17 17 (1183744)
I0419 04:15:09.359289 23576 net.cpp:137] Memory required for data: 2471749664
I0419 04:15:09.359297 23576 layer_factory.hpp:77] Creating layer drop7-R
I0419 04:15:09.359311 23576 net.cpp:84] Creating Layer drop7-R
I0419 04:15:09.359320 23576 net.cpp:406] drop7-R <- fc7-R
I0419 04:15:09.359331 23576 net.cpp:367] drop7-R -> fc7-R (in-place)
I0419 04:15:09.359468 23576 net.cpp:122] Setting up drop7-R
I0419 04:15:09.359483 23576 net.cpp:129] Top shape: 1 4096 17 17 (1183744)
I0419 04:15:09.359490 23576 net.cpp:137] Memory required for data: 2476484640
I0419 04:15:09.359498 23576 layer_factory.hpp:77] Creating layer score_fr-new-R
I0419 04:15:09.359515 23576 net.cpp:84] Creating Layer score_fr-new-R
I0419 04:15:09.359522 23576 net.cpp:406] score_fr-new-R <- fc7-R
I0419 04:15:09.359535 23576 net.cpp:380] score_fr-new-R -> score_fr-new-R
I0419 04:15:09.363198 23576 net.cpp:122] Setting up score_fr-new-R
I0419 04:15:09.363231 23576 net.cpp:129] Top shape: 1 3 17 17 (867)
I0419 04:15:09.363236 23576 net.cpp:137] Memory required for data: 2476488108
I0419 04:15:09.363246 23576 layer_factory.hpp:77] Creating layer upscore2-new-R
I0419 04:15:09.363260 23576 net.cpp:84] Creating Layer upscore2-new-R
I0419 04:15:09.363265 23576 net.cpp:406] upscore2-new-R <- score_fr-new-R
I0419 04:15:09.363274 23576 net.cpp:380] upscore2-new-R -> upscore2-new-R
I0419 04:15:09.363759 23576 net.cpp:122] Setting up upscore2-new-R
I0419 04:15:09.363770 23576 net.cpp:129] Top shape: 1 3 36 36 (3888)
I0419 04:15:09.363775 23576 net.cpp:137] Memory required for data: 2476503660
I0419 04:15:09.363790 23576 layer_factory.hpp:77] Creating layer upscore2-new-R_upscore2-new-R_0_split
I0419 04:15:09.363811 23576 net.cpp:84] Creating Layer upscore2-new-R_upscore2-new-R_0_split
I0419 04:15:09.363816 23576 net.cpp:406] upscore2-new-R_upscore2-new-R_0_split <- upscore2-new-R
I0419 04:15:09.363823 23576 net.cpp:380] upscore2-new-R_upscore2-new-R_0_split -> upscore2-new-R_upscore2-new-R_0_split_0
I0419 04:15:09.363832 23576 net.cpp:380] upscore2-new-R_upscore2-new-R_0_split -> upscore2-new-R_upscore2-new-R_0_split_1
I0419 04:15:09.363909 23576 net.cpp:122] Setting up upscore2-new-R_upscore2-new-R_0_split
I0419 04:15:09.363919 23576 net.cpp:129] Top shape: 1 3 36 36 (3888)
I0419 04:15:09.363925 23576 net.cpp:129] Top shape: 1 3 36 36 (3888)
I0419 04:15:09.363929 23576 net.cpp:137] Memory required for data: 2476534764
I0419 04:15:09.363934 23576 layer_factory.hpp:77] Creating layer score_pool4-new-R
I0419 04:15:09.363945 23576 net.cpp:84] Creating Layer score_pool4-new-R
I0419 04:15:09.363950 23576 net.cpp:406] score_pool4-new-R <- pool4-R_pool4-R_0_split_1
I0419 04:15:09.363958 23576 net.cpp:380] score_pool4-new-R -> score_pool4-new-R
I0419 04:15:09.369343 23576 net.cpp:122] Setting up score_pool4-new-R
I0419 04:15:09.369375 23576 net.cpp:129] Top shape: 1 3 45 45 (6075)
I0419 04:15:09.369381 23576 net.cpp:137] Memory required for data: 2476559064
I0419 04:15:09.369390 23576 layer_factory.hpp:77] Creating layer score_pool4c-R
I0419 04:15:09.369401 23576 net.cpp:84] Creating Layer score_pool4c-R
I0419 04:15:09.369407 23576 net.cpp:406] score_pool4c-R <- score_pool4-new-R
I0419 04:15:09.369415 23576 net.cpp:406] score_pool4c-R <- upscore2-new-R_upscore2-new-R_0_split_0
I0419 04:15:09.369433 23576 net.cpp:380] score_pool4c-R -> score_pool4c-R
I0419 04:15:09.369490 23576 net.cpp:122] Setting up score_pool4c-R
I0419 04:15:09.369498 23576 net.cpp:129] Top shape: 1 3 36 36 (3888)
I0419 04:15:09.369503 23576 net.cpp:137] Memory required for data: 2476574616
I0419 04:15:09.369506 23576 layer_factory.hpp:77] Creating layer fuse_pool4-R
I0419 04:15:09.369516 23576 net.cpp:84] Creating Layer fuse_pool4-R
I0419 04:15:09.369521 23576 net.cpp:406] fuse_pool4-R <- upscore2-new-R_upscore2-new-R_0_split_1
I0419 04:15:09.369527 23576 net.cpp:406] fuse_pool4-R <- score_pool4c-R
I0419 04:15:09.369534 23576 net.cpp:380] fuse_pool4-R -> fuse_pool4-R
I0419 04:15:09.369586 23576 net.cpp:122] Setting up fuse_pool4-R
I0419 04:15:09.369596 23576 net.cpp:129] Top shape: 1 3 36 36 (3888)
I0419 04:15:09.369601 23576 net.cpp:137] Memory required for data: 2476590168
I0419 04:15:09.369604 23576 layer_factory.hpp:77] Creating layer upscore_pool4-new-R
I0419 04:15:09.369613 23576 net.cpp:84] Creating Layer upscore_pool4-new-R
I0419 04:15:09.369618 23576 net.cpp:406] upscore_pool4-new-R <- fuse_pool4-R
I0419 04:15:09.369626 23576 net.cpp:380] upscore_pool4-new-R -> upscore_pool4-new-R
I0419 04:15:09.370066 23576 net.cpp:122] Setting up upscore_pool4-new-R
I0419 04:15:09.370077 23576 net.cpp:129] Top shape: 1 3 74 74 (16428)
I0419 04:15:09.370081 23576 net.cpp:137] Memory required for data: 2476655880
I0419 04:15:09.370087 23576 layer_factory.hpp:77] Creating layer upscore_pool4-new-R_upscore_pool4-new-R_0_split
I0419 04:15:09.370095 23576 net.cpp:84] Creating Layer upscore_pool4-new-R_upscore_pool4-new-R_0_split
I0419 04:15:09.370100 23576 net.cpp:406] upscore_pool4-new-R_upscore_pool4-new-R_0_split <- upscore_pool4-new-R
I0419 04:15:09.370106 23576 net.cpp:380] upscore_pool4-new-R_upscore_pool4-new-R_0_split -> upscore_pool4-new-R_upscore_pool4-new-R_0_split_0
I0419 04:15:09.370115 23576 net.cpp:380] upscore_pool4-new-R_upscore_pool4-new-R_0_split -> upscore_pool4-new-R_upscore_pool4-new-R_0_split_1
I0419 04:15:09.370216 23576 net.cpp:122] Setting up upscore_pool4-new-R_upscore_pool4-new-R_0_split
I0419 04:15:09.370227 23576 net.cpp:129] Top shape: 1 3 74 74 (16428)
I0419 04:15:09.370232 23576 net.cpp:129] Top shape: 1 3 74 74 (16428)
I0419 04:15:09.370236 23576 net.cpp:137] Memory required for data: 2476787304
I0419 04:15:09.370240 23576 layer_factory.hpp:77] Creating layer score_pool3-new-R
I0419 04:15:09.370251 23576 net.cpp:84] Creating Layer score_pool3-new-R
I0419 04:15:09.370259 23576 net.cpp:406] score_pool3-new-R <- pool3-R_pool3-R_0_split_1
I0419 04:15:09.370266 23576 net.cpp:380] score_pool3-new-R -> score_pool3-new-R
I0419 04:15:09.372534 23576 net.cpp:122] Setting up score_pool3-new-R
I0419 04:15:09.372551 23576 net.cpp:129] Top shape: 1 3 89 89 (23763)
I0419 04:15:09.372566 23576 net.cpp:137] Memory required for data: 2476882356
I0419 04:15:09.372575 23576 layer_factory.hpp:77] Creating layer score_pool3c-R
I0419 04:15:09.372584 23576 net.cpp:84] Creating Layer score_pool3c-R
I0419 04:15:09.372591 23576 net.cpp:406] score_pool3c-R <- score_pool3-new-R
I0419 04:15:09.372597 23576 net.cpp:406] score_pool3c-R <- upscore_pool4-new-R_upscore_pool4-new-R_0_split_0
I0419 04:15:09.372604 23576 net.cpp:380] score_pool3c-R -> score_pool3c-R
I0419 04:15:09.372673 23576 net.cpp:122] Setting up score_pool3c-R
I0419 04:15:09.372680 23576 net.cpp:129] Top shape: 1 3 74 74 (16428)
I0419 04:15:09.372684 23576 net.cpp:137] Memory required for data: 2476948068
I0419 04:15:09.372689 23576 layer_factory.hpp:77] Creating layer fuse_pool3-R
I0419 04:15:09.372696 23576 net.cpp:84] Creating Layer fuse_pool3-R
I0419 04:15:09.372701 23576 net.cpp:406] fuse_pool3-R <- upscore_pool4-new-R_upscore_pool4-new-R_0_split_1
I0419 04:15:09.372707 23576 net.cpp:406] fuse_pool3-R <- score_pool3c-R
I0419 04:15:09.372715 23576 net.cpp:380] fuse_pool3-R -> fuse_pool3-R
I0419 04:15:09.372763 23576 net.cpp:122] Setting up fuse_pool3-R
I0419 04:15:09.372773 23576 net.cpp:129] Top shape: 1 3 74 74 (16428)
I0419 04:15:09.372777 23576 net.cpp:137] Memory required for data: 2477013780
I0419 04:15:09.372781 23576 layer_factory.hpp:77] Creating layer upscore8-new-R
I0419 04:15:09.372790 23576 net.cpp:84] Creating Layer upscore8-new-R
I0419 04:15:09.372795 23576 net.cpp:406] upscore8-new-R <- fuse_pool3-R
I0419 04:15:09.372804 23576 net.cpp:380] upscore8-new-R -> upscore8-new-R
I0419 04:15:09.373255 23576 net.cpp:122] Setting up upscore8-new-R
I0419 04:15:09.373266 23576 net.cpp:129] Top shape: 1 3 600 600 (1080000)
I0419 04:15:09.373270 23576 net.cpp:137] Memory required for data: 2481333780
I0419 04:15:09.373276 23576 layer_factory.hpp:77] Creating layer upscore8_cropped-R
I0419 04:15:09.373284 23576 net.cpp:84] Creating Layer upscore8_cropped-R
I0419 04:15:09.373289 23576 net.cpp:406] upscore8_cropped-R <- upscore8-new-R
I0419 04:15:09.373297 23576 net.cpp:406] upscore8_cropped-R <- data-R_crop_0_split_1
I0419 04:15:09.373304 23576 net.cpp:380] upscore8_cropped-R -> upscore8_cropped-R
I0419 04:15:09.373353 23576 net.cpp:122] Setting up upscore8_cropped-R
I0419 04:15:09.373369 23576 net.cpp:129] Top shape: 1 3 512 512 (786432)
I0419 04:15:09.373374 23576 net.cpp:137] Memory required for data: 2484479508
I0419 04:15:09.373378 23576 layer_factory.hpp:77] Creating layer score-R
I0419 04:15:09.373391 23576 net.cpp:84] Creating Layer score-R
I0419 04:15:09.373396 23576 net.cpp:406] score-R <- upscore8_cropped-R
I0419 04:15:09.373405 23576 net.cpp:380] score-R -> score-R
I0419 04:15:09.378296 23576 net.cpp:122] Setting up score-R
I0419 04:15:09.378320 23576 net.cpp:129] Top shape: 1 3 512 512 (786432)
I0419 04:15:09.378326 23576 net.cpp:137] Memory required for data: 2487625236
I0419 04:15:09.378338 23576 layer_factory.hpp:77] Creating layer score_uncropped-R
I0419 04:15:09.378413 23576 net.cpp:84] Creating Layer score_uncropped-R
I0419 04:15:09.378439 23576 net.cpp:406] score_uncropped-R <- crop_info
I0419 04:15:09.378448 23576 net.cpp:406] score_uncropped-R <- score-R
I0419 04:15:09.378455 23576 net.cpp:406] score_uncropped-R <- data_data_0_split_3
I0419 04:15:09.378464 23576 net.cpp:380] score_uncropped-R -> score_uncropped-R
I0419 04:15:09.382405 23576 net.cpp:122] Setting up score_uncropped-R
I0419 04:15:09.382448 23576 net.cpp:129] Top shape: 1 3 512 512 (786432)
I0419 04:15:09.382453 23576 net.cpp:137] Memory required for data: 2490770964
I0419 04:15:09.382460 23576 layer_factory.hpp:77] Creating layer loss1
I0419 04:15:09.382473 23576 net.cpp:84] Creating Layer loss1
I0419 04:15:09.382479 23576 net.cpp:406] loss1 <- score_score_0_split_1
I0419 04:15:09.382488 23576 net.cpp:406] loss1 <- label_data_1_split_1
I0419 04:15:09.382494 23576 net.cpp:380] loss1 -> loss1
…
