…
snapshot_prefix: "/media/Med_2T2/data2/models/snapshots/joint:1e-5x10,1e-5x10,20/FD2:XI3_1_20180418_201422,XJ3_1_20180419_073851/train"
test_initialization: false
average_loss: 20
stepvalue: 45000
stepvalue: 50000
stepvalue: 55000
iter_size: 1
I0419 07:38:53.061491 27404 solver.cpp:77] Creating training net from train_net file: /media/Med_2T2/data2/prototxts/training_J3x10.prototxt
I0419 07:38:53.065095 27404 net.cpp:51] Initializing net from parameters: 
state {
  phase: TRAIN
}
layer {
  name: "data"
  type: "Python"
  top: "data"
  top: "label"
  top: "crop_margin"
  top: "crop_prob"
  top: "crop_sample_batch"
  python_param {
    module: "Data"
    layer: "DataLayer"
  }
}
layer {
  name: "conv1_1"
  type: "Convolution"
  bottom: "data"
  top: "conv1_1"
  param {
    lr_mult: 1
    decay_mult: 1
  }
  param {
    lr_mult: 2
    decay_mult: 0
  }
  convolution_param {
    num_output: 64
    pad: 100
    kernel_size: 3
    stride: 1
  }
}
layer {
  name: "relu1_1"
  type: "ReLU"
  bottom: "conv1_1"
  top: "conv1_1"
}
layer {
  name: "conv1_2"
  type: "Convolution"
  bottom: "conv1_1"
  top: "conv1_2"
  param {
    lr_mult: 1
    decay_mult: 1
  }
  param {
    lr_mult: 2
    decay_mult: 0
  }
  convolution_param {
    num_output: 64
    pad: 1
    kernel_size: 3
    stride: 1
  }
}
layer {
  name: "relu1_2"
  type: "ReLU"
  bottom: "conv1_2"
  top: "conv1_2"
}
layer {
  name: "pool1"
  type: "Pooling"
  bottom: "conv1_2"
  top: "pool1"
  pooling_param {
    pool: MAX
    kernel_size: 2
    stride: 2
  }
}
layer {
  name: "conv2_1"
  type: "Convolution"
  bottom: "pool1"
  top: "conv2_1"
  param {
    lr_mult: 1
    decay_mult: 1
  }
  param {
    lr_mult: 2
    decay_mult: 0
  }
  convolution_param {
    num_output: 128
    pad: 1
    kernel_size: 3
    stride: 1
  }
}
layer {
  name: "relu2_1"
  type: "ReLU"
  bottom: "conv2_1"
  top: "conv2_1"
}
layer {
  name: "conv2_2"
  type: "Convolution"
  bottom: "conv2_1"
  top: "conv2_2"
  param {
    lr_mult: 1
    decay_mult: 1
  }
  param {
    lr_mult: 2
    decay_mult: 0
  }
  convolution_param {
    num_output: 128
    pad: 1
    kernel_size: 3
    stride: 1
  }
}
layer {
  name: "relu2_2"
  type: "ReLU"
  bottom: "conv2_2"
  top: "conv2_2"
}
layer {
  name: "pool2"
  type: "Pooling"
  bottom: "conv2_2"
  top: "pool2"
  pooling_param {
    pool: MAX
    kernel_size: 2
    stride: 2
  }
}
layer {
  name: "conv3_1"
  type: "Convolution"
  bottom: "pool2"
  top: "conv3_1"
  param {
    lr_mult: 1
    decay_mult: 1
  }
  param {
    lr_mult: 2
    decay_mult: 0
  }
  convolution_param {
    num_output: 256
    pad: 1
    kernel_size: 3
    stride: 1
  }
}
layer {
  name: "relu3_1"
  type: "ReLU"
  bottom: "conv3_1"
  top: "conv3_1"
}
layer {
  name: "conv3_2"
  type: "Convolution"
  bottom: "conv3_1"
  top: "conv3_2"
  param {
    lr_mult: 1
    decay_mult: 1
  }
  param {
    lr_mult: 2
    decay_mult: 0
  }
  convolution_param {
    num_output: 256
    pad: 1
    kernel_size: 3
    stride: 1
  }
}
layer {
  name: "relu3_2"
  type: "ReLU"
  bottom: "conv3_2"
  top: "conv3_2"
}
layer {
  name: "conv3_3"
  type: "Convolution"
  bottom: "conv3_2"
  top: "conv3_3"
  param {
    lr_mult: 1
    decay_mult: 1
  }
  param {
    lr_mult: 2
    decay_mult: 0
  }
  convolution_param {
    num_output: 256
    pad: 1
    kernel_size: 3
    stride: 1
  }
}
layer {
  name: "relu3_3"
  type: "ReLU"
  bottom: "conv3_3"
  top: "conv3_3"
}
layer {
  name: "pool3"
  type: "Pooling"
  bottom: "conv3_3"
  top: "pool3"
  pooling_param {
    pool: MAX
    kernel_size: 2
    stride: 2
  }
}
layer {
  name: "conv4_1"
  type: "Convolution"
  bottom: "pool3"
  top: "conv4_1"
  param {
    lr_mult: 1
    decay_mult: 1
  }
  param {
    lr_mult: 2
    decay_mult: 0
  }
  convolution_param {
    num_output: 512
    pad: 1
    kernel_size: 3
    stride: 1
  }
}
layer {
  name: "relu4_1"
  type: "ReLU"
  bottom: "conv4_1"
  top: "conv4_1"
}
layer {
  name: "conv4_2"
  type: "Convolution"
  bottom: "conv4_1"
  top: "conv4_2"
  param {
    lr_mult: 1
    decay_mult: 1
  }
  param {
    lr_mult: 2
    decay_mult: 0
  }
  convolution_param {
    num_output: 512
    pad: 1
    kernel_size: 3
    stride: 1
  }
}
layer {
  name: "relu4_2"
  type: "ReLU"
  bottom: "conv4_2"
  top: "conv4_2"
}
layer {
  name: "conv4_3"
  type: "Convolution"
  bottom: "conv4_2"
  top: "conv4_3"
  param {
    lr_mult: 1
    decay_mult: 1
  }
  param {
    lr_mult: 2
    decay_mult: 0
  }
  convolution_param {
    num_output: 512
    pad: 1
    kernel_size: 3
    stride: 1
  }
}
layer {
  name: "relu4_3"
  type: "ReLU"
  bottom: "conv4_3"
  top: "conv4_3"
}
layer {
  name: "pool4"
  type: "Pooling"
  bottom: "conv4_3"
  top: "pool4"
  pooling_param {
    pool: MAX
    kernel_size: 2
    stride: 2
  }
}
layer {
  name: "conv5_1"
  type: "Convolution"
  bottom: "pool4"
  top: "conv5_1"
  param {
    lr_mult: 1
    decay_mult: 1
  }
  param {
    lr_mult: 2
    decay_mult: 0
  }
  convolution_param {
    num_output: 512
    pad: 1
    kernel_size: 3
    stride: 1
  }
}
layer {
  name: "relu5_1"
  type: "ReLU"
  bottom: "conv5_1"
  top: "conv5_1"
}
layer {
  name: "conv5_2"
  type: "Convolution"
  bottom: "conv5_1"
  top: "conv5_2"
  param {
    lr_mult: 1
    decay_mult: 1
  }
  param {
    lr_mult: 2
    decay_mult: 0
  }
  convolution_param {
    num_output: 512
    pad: 1
    kernel_size: 3
    stride: 1
  }
}
layer {
  name: "relu5_2"
  type: "ReLU"
  bottom: "conv5_2"
  top: "conv5_2"
}
layer {
  name: "conv5_3"
  type: "Convolution"
  bottom: "conv5_2"
  top: "conv5_3"
  param {
    lr_mult: 1
    decay_mult: 1
  }
  param {
    lr_mult: 2
    decay_mult: 0
  }
  convolution_param {
    num_output: 512
    pad: 1
    kernel_size: 3
    stride: 1
  }
}
layer {
  name: "relu5_3"
  type: "ReLU"
  bottom: "conv5_3"
  top: "conv5_3"
}
layer {
  name: "pool5"
  type: "Pooling"
  bottom: "conv5_3"
  top: "pool5"
  pooling_param {
    pool: MAX
    kernel_size: 2
    stride: 2
  }
}
layer {
  name: "fc6"
  type: "Convolution"
  bottom: "pool5"
  top: "fc6"
  param {
    lr_mult: 1
    decay_mult: 1
  }
  param {
    lr_mult: 2
    decay_mult: 0
  }
  convolution_param {
    num_output: 4096
    pad: 0
    kernel_size: 7
    stride: 1
  }
}
layer {
  name: "relu6"
  type: "ReLU"
  bottom: "fc6"
  top: "fc6"
}
layer {
  name: "drop6"
  type: "Dropout"
  bottom: "fc6"
  top: "fc6"
  dropout_param {
    dropout_ratio: 0.5
  }
}
layer {
  name: "fc7"
  type: "Convolution"
  bottom: "fc6"
  top: "fc7"
  param {
    lr_mult: 1
    decay_mult: 1
  }
  param {
    lr_mult: 2
    decay_mult: 0
  }
  convolution_param {
    num_output: 4096
    pad: 0
    kernel_size: 1
    stride: 1
  }
}
layer {
  name: "relu7"
  type: "ReLU"
  bottom: "fc7"
  top: "fc7"
}
layer {
  name: "drop7"
  type: "Dropout"
  bottom: "fc7"
  top: "fc7"
  dropout_param {
    dropout_ratio: 0.5
  }
}
layer {
  name: "score_fr-new"
  type: "Convolution"
  bottom: "fc7"
  top: "score_fr-new"
  param {
    lr_mult: 1
    decay_mult: 1
  }
  param {
    lr_mult: 2
    decay_mult: 0
  }
  convolution_param {
    num_output: 3
    kernel_size: 1
  }
}
layer {
  name: "upscore2-new"
  type: "Deconvolution"
  bottom: "score_fr-new"
  top: "upscore2-new"
  param {
    lr_mult: 0
  }
  convolution_param {
    num_output: 3
    bias_term: false
    kernel_size: 4
    stride: 2
  }
}
layer {
  name: "score_pool4-new"
  type: "Convolution"
  bottom: "pool4"
  top: "score_pool4-new"
  param {
    lr_mult: 1
    decay_mult: 1
  }
  param {
    lr_mult: 2
    decay_mult: 0
  }
  convolution_param {
    num_output: 3
    pad: 0
    kernel_size: 1
  }
}
layer {
  name: "score_pool4c"
  type: "Crop"
  bottom: "score_pool4-new"
  bottom: "upscore2-new"
  top: "score_pool4c"
  crop_param {
    axis: 2
    offset: 5
  }
}
layer {
  name: "fuse_pool4"
  type: "Eltwise"
  bottom: "upscore2-new"
  bottom: "score_pool4c"
  top: "fuse_pool4"
  eltwise_param {
    operation: SUM
  }
}
layer {
  name: "upscore_pool4-new"
  type: "Deconvolution"
  bottom: "fuse_pool4"
  top: "upscore_pool4-new"
  param {
    lr_mult: 0
  }
  convolution_param {
    num_output: 3
    bias_term: false
    kernel_size: 4
    stride: 2
  }
}
layer {
  name: "score_pool3-new"
  type: "Convolution"
  bottom: "pool3"
  top: "score_pool3-new"
  param {
    lr_mult: 1
    decay_mult: 1
  }
  param {
    lr_mult: 2
    decay_mult: 0
  }
  convolution_param {
    num_output: 3
    pad: 0
    kernel_size: 1
  }
}
layer {
  name: "score_pool3c"
  type: "Crop"
  bottom: "score_pool3-new"
  bottom: "upscore_pool4-new"
  top: "score_pool3c"
  crop_param {
    axis: 2
    offset: 9
  }
}
layer {
  name: "fuse_pool3"
  type: "Eltwise"
  bottom: "upscore_pool4-new"
  bottom: "score_pool3c"
  top: "fuse_pool3"
  eltwise_param {
    operation: SUM
  }
}
layer {
  name: "upscore8-new"
  type: "Deconvolution"
  bottom: "fuse_pool3"
  top: "upscore8-new"
  param {
    lr_mult: 0
  }
  convolution_param {
    num_output: 3
    bias_term: false
    kernel_size: 16
    stride: 8
  }
}
layer {
  name: "upscore8_cropped"
  type: "Crop"
  bottom: "upscore8-new"
  bottom: "data"
  top: "upscore8_cropped"
  crop_param {
    axis: 2
    offset: 31
  }
}
layer {
  name: "score"
  type: "Convolution"
  bottom: "upscore8_cropped"
  top: "score"
  param {
    lr_mult: 1
    decay_mult: 1
  }
  param {
    lr_mult: 2
    decay_mult: 0
  }
  convolution_param {
    num_output: 3
    pad: 1
    kernel_size: 3
    stride: 1
  }
}
layer {
  name: "prob"
  type: "Sigmoid"
  bottom: "score"
  top: "prob"
}
layer {
  name: "saliency"
  type: "Convolution"
  bottom: "prob"
  top: "saliency"
  param {
    lr_mult: 10
    decay_mult: 1
  }
  param {
    lr_mult: 20
    decay_mult: 0
  }
  convolution_param {
    num_output: 3
    pad: 2
    kernel_size: 5
    stride: 1
  }
}
layer {
  name: "saliency_data"
  type: "Eltwise"
  bottom: "data"
  bottom: "saliency"
  top: "saliency_data"
  eltwise_param {
    operation: PROD
  }
}
layer {
  name: "crop"
  type: "Python"
  bottom: "prob"
  bottom: "saliency_data"
  bottom: "crop_margin"
  bottom: "crop_prob"
  bottom: "crop_sample_batch"
  bottom: "label"
  top: "data-R"
  top: "crop_info"
  python_param {
    module: "Crop"
    layer: "CropLayer"
    param_str: "{\"TEST\": 0}"
  }
}
layer {
  name: "conv1_1-R"
  type: "Convolution"
  bottom: "data-R"
  top: "conv1_1-R"
  param {
    lr_mult: 10
    decay_mult: 1
  }
  param {
    lr_mult: 20
    decay_mult: 0
  }
  convolution_param {
    num_output: 64
    pad: 100
    kernel_size: 3
    stride: 1
  }
}
layer {
  name: "relu1_1-R"
  type: "ReLU"
  bottom: "conv1_1-R"
  top: "conv1_1-R"
}
layer {
  name: "conv1_2-R"
  type: "Convolution"
  bottom: "conv1_1-R"
  top: "conv1_2-R"
  param {
    lr_mult: 10
    decay_mult: 1
  }
  param {
    lr_mult: 20
    decay_mult: 0
  }
  convolution_param {
    num_output: 64
    pad: 1
    kernel_size: 3
    stride: 1
  }
}
layer {
  name: "relu1_2-R"
  type: "ReLU"
  bottom: "conv1_2-R"
  top: "conv1_2-R"
}
layer {
  name: "pool1-R"
  type: "Pooling"
  bottom: "conv1_2-R"
  top: "pool1-R"
  pooling_param {
    pool: MAX
    kernel_size: 2
    stride: 2
  }
}
layer {
  name: "conv2_1-R"
  type: "Convolution"
  bottom: "pool1-R"
  top: "conv2_1-R"
  param {
    lr_mult: 10
    decay_mult: 1
  }
  param {
    lr_mult: 20
    decay_mult: 0
  }
  convolution_param {
    num_output: 128
    pad: 1
    kernel_size: 3
    stride: 1
  }
}
layer {
  name: "relu2_1-R"
  type: "ReLU"
  bottom: "conv2_1-R"
  top: "conv2_1-R"
}
layer {
  name: "conv2_2-R"
  type: "Convolution"
  bottom: "conv2_1-R"
  top: "conv2_2-R"
  param {
    lr_mult: 10
    decay_mult: 1
  }
  param {
    lr_mult: 20
    decay_mult: 0
  }
  convolution_param {
    num_output: 128
    pad: 1
    kernel_size: 3
    stride: 1
  }
}
layer {
  name: "relu2_2-R"
  type: "ReLU"
  bottom: "conv2_2-R"
  top: "conv2_2-R"
}
layer {
  name: "pool2-R"
  type: "Pooling"
  bottom: "conv2_2-R"
  top: "pool2-R"
  pooling_param {
    pool: MAX
    kernel_size: 2
    stride: 2
  }
}
layer {
  name: "conv3_1-R"
  type: "Convolution"
  bottom: "pool2-R"
  top: "conv3_1-R"
  param {
    lr_mult: 10
    decay_mult: 1
  }
  param {
    lr_mult: 20
    decay_mult: 0
  }
  convolution_param {
    num_output: 256
    pad: 1
    kernel_size: 3
    stride: 1
  }
}
layer {
  name: "relu3_1-R"
  type: "ReLU"
  bottom: "conv3_1-R"
  top: "conv3_1-R"
}
layer {
  name: "conv3_2-R"
  type: "Convolution"
  bottom: "conv3_1-R"
  top: "conv3_2-R"
  param {
    lr_mult: 10
    decay_mult: 1
  }
  param {
    lr_mult: 20
    decay_mult: 0
  }
  convolution_param {
    num_output: 256
    pad: 1
    kernel_size: 3
    stride: 1
  }
}
layer {
  name: "relu3_2-R"
  type: "ReLU"
  bottom: "conv3_2-R"
  top: "conv3_2-R"
}
layer {
  name: "conv3_3-R"
  type: "Convolution"
  bottom: "conv3_2-R"
  top: "conv3_3-R"
  param {
    lr_mult: 10
    decay_mult: 1
  }
  param {
    lr_mult: 20
    decay_mult: 0
  }
  convolution_param {
    num_output: 256
    pad: 1
    kernel_size: 3
    stride: 1
  }
}
layer {
  name: "relu3_3-R"
  type: "ReLU"
  bottom: "conv3_3-R"
  top: "conv3_3-R"
}
layer {
  name: "pool3-R"
  type: "Pooling"
  bottom: "conv3_3-R"
  top: "pool3-R"
  pooling_param {
    pool: MAX
    kernel_size: 2
    stride: 2
  }
}
layer {
  name: "conv4_1-R"
  type: "Convolution"
  bottom: "pool3-R"
  top: "conv4_1-R"
  param {
    lr_mult: 10
    decay_mult: 1
  }
  param {
    lr_mult: 20
    decay_mult: 0
  }
  convolution_param {
    num_output: 512
    pad: 1
    kernel_size: 3
    stride: 1
  }
}
layer {
  name: "relu4_1-R"
  type: "ReLU"
  bottom: "conv4_1-R"
  top: "conv4_1-R"
}
layer {
  name: "conv4_2-R"
  type: "Convolution"
  bottom: "conv4_1-R"
  top: "conv4_2-R"
  param {
    lr_mult: 10
    decay_mult: 1
  }
  param {
    lr_mult: 20
    decay_mult: 0
  }
  convolution_param {
    num_output: 512
    pad: 1
    kernel_size: 3
    stride: 1
  }
}
layer {
  name: "relu4_2-R"
  type: "ReLU"
  bottom: "conv4_2-R"
  top: "conv4_2-R"
}
layer {
  name: "conv4_3-R"
  type: "Convolution"
  bottom: "conv4_2-R"
  top: "conv4_3-R"
  param {
    lr_mult: 10
    decay_mult: 1
  }
  param {
    lr_mult: 20
    decay_mult: 0
  }
  convolution_param {
    num_output: 512
    pad: 1
    kernel_size: 3
    stride: 1
  }
}
layer {
  name: "relu4_3-R"
  type: "ReLU"
  bottom: "conv4_3-R"
  top: "conv4_3-R"
}
layer {
  name: "pool4-R"
  type: "Pooling"
  bottom: "conv4_3-R"
  top: "pool4-R"
  pooling_param {
    pool: MAX
    kernel_size: 2
    stride: 2
  }
}
layer {
  name: "conv5_1-R"
  type: "Convolution"
  bottom: "pool4-R"
  top: "conv5_1-R"
  param {
    lr_mult: 10
    decay_mult: 1
  }
  param {
    lr_mult: 20
    decay_mult: 0
  }
  convolution_param {
    num_output: 512
    pad: 1
    kernel_size: 3
    stride: 1
  }
}
layer {
  name: "relu5_1-R"
  type: "ReLU"
  bottom: "conv5_1-R"
  top: "conv5_1-R"
}
layer {
  name: "conv5_2-R"
  type: "Convolution"
  bottom: "conv5_1-R"
  top: "conv5_2-R"
  param {
    lr_mult: 10
    decay_mult: 1
  }
  param {
    lr_mult: 20
    decay_mult: 0
  }
  convolution_param {
    num_output: 512
    pad: 1
    kernel_size: 3
    stride: 1
  }
}
layer {
  name: "relu5_2-R"
  type: "ReLU"
  bottom: "conv5_2-R"
  top: "conv5_2-R"
}
layer {
  name: "conv5_3-R"
  type: "Convolution"
  bottom: "conv5_2-R"
  top: "conv5_3-R"
  param {
    lr_mult: 10
    decay_mult: 1
  }
  param {
    lr_mult: 20
    decay_mult: 0
  }
  convolution_param {
    num_output: 512
    pad: 1
    kernel_size: 3
    stride: 1
  }
}
layer {
  name: "relu5_3-R"
  type: "ReLU"
  bottom: "conv5_3-R"
  top: "conv5_3-R"
}
layer {
  name: "pool5-R"
  type: "Pooling"
  bottom: "conv5_3-R"
  top: "pool5-R"
  pooling_param {
    pool: MAX
    kernel_size: 2
    stride: 2
  }
}
layer {
  name: "fc6-R"
  type: "Convolution"
  bottom: "pool5-R"
  top: "fc6-R"
  param {
    lr_mult: 10
    decay_mult: 1
  }
  param {
    lr_mult: 20
    decay_mult: 0
  }
  convolution_param {
    num_output: 4096
    pad: 0
    kernel_size: 7
    stride: 1
  }
}
layer {
  name: "relu6-R"
  type: "ReLU"
  bottom: "fc6-R"
  top: "fc6-R"
}
layer {
  name: "drop6-R"
  type: "Dropout"
  bottom: "fc6-R"
  top: "fc6-R"
  dropout_param {
    dropout_ratio: 0.5
  }
}
layer {
  name: "fc7-R"
  type: "Convolution"
  bottom: "fc6-R"
  top: "fc7-R"
  param {
    lr_mult: 10
    decay_mult: 1
  }
  param {
    lr_mult: 20
    decay_mult: 0
  }
  convolution_param {
    num_output: 4096
    pad: 0
    kernel_size: 1
    stride: 1
  }
}
layer {
  name: "relu7-R"
  type: "ReLU"
  bottom: "fc7-R"
  top: "fc7-R"
}
layer {
  name: "drop7-R"
  type: "Dropout"
  bottom: "fc7-R"
  top: "fc7-R"
  dropout_param {
    dropout_ratio: 0.5
  }
}
layer {
  name: "score_fr-new-R"
  type: "Convolution"
  bottom: "fc7-R"
  top: "score_fr-new-R"
  param {
    lr_mult: 10
    decay_mult: 1
  }
  param {
    lr_mult: 20
    decay_mult: 0
  }
  convolution_param {
    num_output: 3
    kernel_size: 1
  }
}
layer {
  name: "upscore2-new-R"
  type: "Deconvolution"
  bottom: "score_fr-new-R"
  top: "upscore2-new-R"
  param {
    lr_mult: 0
  }
  convolution_param {
    num_output: 3
    bias_term: false
    kernel_size: 4
    stride: 2
  }
}
layer {
  name: "score_pool4-new-R"
  type: "Convolution"
  bottom: "pool4-R"
  top: "score_pool4-new-R"
  param {
    lr_mult: 10
    decay_mult: 1
  }
  param {
    lr_mult: 20
    decay_mult: 0
  }
  convolution_param {
    num_output: 3
    pad: 0
    kernel_size: 1
  }
}
layer {
  name: "score_pool4c-R"
  type: "Crop"
  bottom: "score_pool4-new-R"
  bottom: "upscore2-new-R"
  top: "score_pool4c-R"
  crop_param {
    axis: 2
    offset: 5
  }
}
layer {
  name: "fuse_pool4-R"
  type: "Eltwise"
  bottom: "upscore2-new-R"
  bottom: "score_pool4c-R"
  top: "fuse_pool4-R"
  eltwise_param {
    operation: SUM
  }
}
layer {
  name: "upscore_pool4-new-R"
  type: "Deconvolution"
  bottom: "fuse_pool4-R"
  top: "upscore_pool4-new-R"
  param {
    lr_mult: 0
  }
  convolution_param {
    num_output: 3
    bias_term: false
    kernel_size: 4
    stride: 2
  }
}
layer {
  name: "score_pool3-new-R"
  type: "Convolution"
  bottom: "pool3-R"
  top: "score_pool3-new-R"
  param {
    lr_mult: 10
    decay_mult: 1
  }
  param {
    lr_mult: 20
    decay_mult: 0
  }
  convolution_param {
    num_output: 3
    pad: 0
    kernel_size: 1
  }
}
layer {
  name: "score_pool3c-R"
  type: "Crop"
  bottom: "score_pool3-new-R"
  bottom: "upscore_pool4-new-R"
  top: "score_pool3c-R"
  crop_param {
    axis: 2
    offset: 9
  }
}
layer {
  name: "fuse_pool3-R"
  type: "Eltwise"
  bottom: "upscore_pool4-new-R"
  bottom: "score_pool3c-R"
  top: "fuse_pool3-R"
  eltwise_param {
    operation: SUM
  }
}
layer {
  name: "upscore8-new-R"
  type: "Deconvolution"
  bottom: "fuse_pool3-R"
  top: "upscore8-new-R"
  param {
    lr_mult: 0
  }
  convolution_param {
    num_output: 3
    bias_term: false
    kernel_size: 16
    stride: 8
  }
}
layer {
  name: "upscore8_cropped-R"
  type: "Crop"
  bottom: "upscore8-new-R"
  bottom: "data-R"
  top: "upscore8_cropped-R"
  crop_param {
    axis: 2
    offset: 31
  }
}
layer {
  name: "score-R"
  type: "Convolution"
  bottom: "upscore8_cropped-R"
  top: "score-R"
  param {
    lr_mult: 10
    decay_mult: 1
  }
  param {
    lr_mult: 20
    decay_mult: 0
  }
  convolution_param {
    num_output: 3
    pad: 1
    kernel_size: 3
    stride: 1
  }
}
layer {
  name: "score_uncropped-R"
  type: "Python"
  bottom: "crop_info"
  bottom: "score-R"
  bottom: "data"
  top: "score_uncropped-R"
  python_param {
    module: "Uncrop"
    layer: "UncropLayer"
  }
}
layer {
  name: "loss1"
  type: "DiceLoss"
  bottom: "score"
  bottom: "label"
  top: "loss1"
  loss_weight: 0.333333
}
layer {
  name: "loss2"
  type: "DiceLoss"
  bottom: "score_uncropped-R"
  bottom: "label"
  top: "loss2"
  loss_weight: 0.666667
}
I0419 07:38:53.065836 27404 layer_factory.hpp:77] Creating layer data
I0419 07:38:53.067718 27404 net.cpp:84] Creating Layer data
I0419 07:38:53.067734 27404 net.cpp:380] data -> data
I0419 07:38:53.067750 27404 net.cpp:380] data -> label
I0419 07:38:53.067759 27404 net.cpp:380] data -> crop_margin
I0419 07:38:53.067765 27404 net.cpp:380] data -> crop_prob
I0419 07:38:53.067772 27404 net.cpp:380] data -> crop_sample_batch
I0419 07:38:53.248574 27404 net.cpp:122] Setting up data
I0419 07:38:53.248618 27404 net.cpp:129] Top shape: 1 3 512 199 (305664)
I0419 07:38:53.248626 27404 net.cpp:129] Top shape: 1 3 512 199 (305664)
I0419 07:38:53.248631 27404 net.cpp:129] Top shape: 1 (1)
I0419 07:38:53.248636 27404 net.cpp:129] Top shape: 1 (1)
I0419 07:38:53.248641 27404 net.cpp:129] Top shape: 1 (1)
I0419 07:38:53.248646 27404 net.cpp:137] Memory required for data: 2445324
I0419 07:38:53.248656 27404 layer_factory.hpp:77] Creating layer data_data_0_split
I0419 07:38:53.248683 27404 net.cpp:84] Creating Layer data_data_0_split
I0419 07:38:53.248690 27404 net.cpp:406] data_data_0_split <- data
I0419 07:38:53.248704 27404 net.cpp:380] data_data_0_split -> data_data_0_split_0
I0419 07:38:53.248723 27404 net.cpp:380] data_data_0_split -> data_data_0_split_1
I0419 07:38:53.248729 27404 net.cpp:380] data_data_0_split -> data_data_0_split_2
I0419 07:38:53.248740 27404 net.cpp:380] data_data_0_split -> data_data_0_split_3
I0419 07:38:53.248800 27404 net.cpp:122] Setting up data_data_0_split
I0419 07:38:53.248808 27404 net.cpp:129] Top shape: 1 3 512 199 (305664)
I0419 07:38:53.248814 27404 net.cpp:129] Top shape: 1 3 512 199 (305664)
I0419 07:38:53.248819 27404 net.cpp:129] Top shape: 1 3 512 199 (305664)
I0419 07:38:53.248823 27404 net.cpp:129] Top shape: 1 3 512 199 (305664)
I0419 07:38:53.248832 27404 net.cpp:137] Memory required for data: 7335948
I0419 07:38:53.248836 27404 layer_factory.hpp:77] Creating layer label_data_1_split
I0419 07:38:53.248844 27404 net.cpp:84] Creating Layer label_data_1_split
I0419 07:38:53.248853 27404 net.cpp:406] label_data_1_split <- label
I0419 07:38:53.248860 27404 net.cpp:380] label_data_1_split -> label_data_1_split_0
I0419 07:38:53.248867 27404 net.cpp:380] label_data_1_split -> label_data_1_split_1
I0419 07:38:53.248877 27404 net.cpp:380] label_data_1_split -> label_data_1_split_2
I0419 07:38:53.248914 27404 net.cpp:122] Setting up label_data_1_split
I0419 07:38:53.248930 27404 net.cpp:129] Top shape: 1 3 512 199 (305664)
I0419 07:38:53.248935 27404 net.cpp:129] Top shape: 1 3 512 199 (305664)
I0419 07:38:53.248939 27404 net.cpp:129] Top shape: 1 3 512 199 (305664)
I0419 07:38:53.248944 27404 net.cpp:137] Memory required for data: 11003916
I0419 07:38:53.248947 27404 layer_factory.hpp:77] Creating layer conv1_1
I0419 07:38:53.248966 27404 net.cpp:84] Creating Layer conv1_1
I0419 07:38:53.248972 27404 net.cpp:406] conv1_1 <- data_data_0_split_0
I0419 07:38:53.248978 27404 net.cpp:380] conv1_1 -> conv1_1
I0419 07:38:53.639228 27404 net.cpp:122] Setting up conv1_1
I0419 07:38:53.639273 27404 net.cpp:129] Top shape: 1 64 710 397 (18039680)
I0419 07:38:53.639279 27404 net.cpp:137] Memory required for data: 83162636
I0419 07:38:53.639308 27404 layer_factory.hpp:77] Creating layer relu1_1
I0419 07:38:53.639333 27404 net.cpp:84] Creating Layer relu1_1
I0419 07:38:53.639353 27404 net.cpp:406] relu1_1 <- conv1_1
I0419 07:38:53.639361 27404 net.cpp:367] relu1_1 -> conv1_1 (in-place)
I0419 07:38:53.639606 27404 net.cpp:122] Setting up relu1_1
I0419 07:38:53.639619 27404 net.cpp:129] Top shape: 1 64 710 397 (18039680)
I0419 07:38:53.639624 27404 net.cpp:137] Memory required for data: 155321356
I0419 07:38:53.639628 27404 layer_factory.hpp:77] Creating layer conv1_2
I0419 07:38:53.639644 27404 net.cpp:84] Creating Layer conv1_2
I0419 07:38:53.639648 27404 net.cpp:406] conv1_2 <- conv1_1
I0419 07:38:53.639657 27404 net.cpp:380] conv1_2 -> conv1_2
I0419 07:38:53.644630 27404 net.cpp:122] Setting up conv1_2
I0419 07:38:53.644654 27404 net.cpp:129] Top shape: 1 64 710 397 (18039680)
I0419 07:38:53.644659 27404 net.cpp:137] Memory required for data: 227480076
I0419 07:38:53.644675 27404 layer_factory.hpp:77] Creating layer relu1_2
I0419 07:38:53.644685 27404 net.cpp:84] Creating Layer relu1_2
I0419 07:38:53.644691 27404 net.cpp:406] relu1_2 <- conv1_2
I0419 07:38:53.644701 27404 net.cpp:367] relu1_2 -> conv1_2 (in-place)
I0419 07:38:53.645004 27404 net.cpp:122] Setting up relu1_2
I0419 07:38:53.645020 27404 net.cpp:129] Top shape: 1 64 710 397 (18039680)
I0419 07:38:53.645025 27404 net.cpp:137] Memory required for data: 299638796
I0419 07:38:53.645030 27404 layer_factory.hpp:77] Creating layer pool1
I0419 07:38:53.645045 27404 net.cpp:84] Creating Layer pool1
I0419 07:38:53.645050 27404 net.cpp:406] pool1 <- conv1_2
I0419 07:38:53.645058 27404 net.cpp:380] pool1 -> pool1
I0419 07:38:53.645138 27404 net.cpp:122] Setting up pool1
I0419 07:38:53.645148 27404 net.cpp:129] Top shape: 1 64 355 199 (4521280)
I0419 07:38:53.645153 27404 net.cpp:137] Memory required for data: 317723916
I0419 07:38:53.645159 27404 layer_factory.hpp:77] Creating layer conv2_1
I0419 07:38:53.645174 27404 net.cpp:84] Creating Layer conv2_1
I0419 07:38:53.645180 27404 net.cpp:406] conv2_1 <- pool1
I0419 07:38:53.645192 27404 net.cpp:380] conv2_1 -> conv2_1
I0419 07:38:53.647563 27404 net.cpp:122] Setting up conv2_1
I0419 07:38:53.647585 27404 net.cpp:129] Top shape: 1 128 355 199 (9042560)
I0419 07:38:53.647591 27404 net.cpp:137] Memory required for data: 353894156
I0419 07:38:53.647606 27404 layer_factory.hpp:77] Creating layer relu2_1
I0419 07:38:53.647619 27404 net.cpp:84] Creating Layer relu2_1
I0419 07:38:53.647625 27404 net.cpp:406] relu2_1 <- conv2_1
I0419 07:38:53.647634 27404 net.cpp:367] relu2_1 -> conv2_1 (in-place)
I0419 07:38:53.647922 27404 net.cpp:122] Setting up relu2_1
I0419 07:38:53.647938 27404 net.cpp:129] Top shape: 1 128 355 199 (9042560)
I0419 07:38:53.647943 27404 net.cpp:137] Memory required for data: 390064396
I0419 07:38:53.647948 27404 layer_factory.hpp:77] Creating layer conv2_2
I0419 07:38:53.647963 27404 net.cpp:84] Creating Layer conv2_2
I0419 07:38:53.647967 27404 net.cpp:406] conv2_2 <- conv2_1
I0419 07:38:53.647979 27404 net.cpp:380] conv2_2 -> conv2_2
I0419 07:38:53.650481 27404 net.cpp:122] Setting up conv2_2
I0419 07:38:53.650504 27404 net.cpp:129] Top shape: 1 128 355 199 (9042560)
I0419 07:38:53.650511 27404 net.cpp:137] Memory required for data: 426234636
I0419 07:38:53.650521 27404 layer_factory.hpp:77] Creating layer relu2_2
I0419 07:38:53.650532 27404 net.cpp:84] Creating Layer relu2_2
I0419 07:38:53.650538 27404 net.cpp:406] relu2_2 <- conv2_2
I0419 07:38:53.650547 27404 net.cpp:367] relu2_2 -> conv2_2 (in-place)
I0419 07:38:53.650840 27404 net.cpp:122] Setting up relu2_2
I0419 07:38:53.650854 27404 net.cpp:129] Top shape: 1 128 355 199 (9042560)
I0419 07:38:53.650859 27404 net.cpp:137] Memory required for data: 462404876
I0419 07:38:53.650866 27404 layer_factory.hpp:77] Creating layer pool2
I0419 07:38:53.650876 27404 net.cpp:84] Creating Layer pool2
I0419 07:38:53.650880 27404 net.cpp:406] pool2 <- conv2_2
I0419 07:38:53.650892 27404 net.cpp:380] pool2 -> pool2
I0419 07:38:53.650959 27404 net.cpp:122] Setting up pool2
I0419 07:38:53.650970 27404 net.cpp:129] Top shape: 1 128 178 100 (2278400)
I0419 07:38:53.650975 27404 net.cpp:137] Memory required for data: 471518476
I0419 07:38:53.650979 27404 layer_factory.hpp:77] Creating layer conv3_1
I0419 07:38:53.650991 27404 net.cpp:84] Creating Layer conv3_1
I0419 07:38:53.650996 27404 net.cpp:406] conv3_1 <- pool2
I0419 07:38:53.651007 27404 net.cpp:380] conv3_1 -> conv3_1
I0419 07:38:53.656270 27404 net.cpp:122] Setting up conv3_1
I0419 07:38:53.656332 27404 net.cpp:129] Top shape: 1 256 178 100 (4556800)
I0419 07:38:53.656338 27404 net.cpp:137] Memory required for data: 489745676
I0419 07:38:53.656358 27404 layer_factory.hpp:77] Creating layer relu3_1
I0419 07:38:53.656374 27404 net.cpp:84] Creating Layer relu3_1
I0419 07:38:53.656380 27404 net.cpp:406] relu3_1 <- conv3_1
I0419 07:38:53.656400 27404 net.cpp:367] relu3_1 -> conv3_1 (in-place)
I0419 07:38:53.657344 27404 net.cpp:122] Setting up relu3_1
I0419 07:38:53.657361 27404 net.cpp:129] Top shape: 1 256 178 100 (4556800)
I0419 07:38:53.657366 27404 net.cpp:137] Memory required for data: 507972876
I0419 07:38:53.657377 27404 layer_factory.hpp:77] Creating layer conv3_2
I0419 07:38:53.657397 27404 net.cpp:84] Creating Layer conv3_2
I0419 07:38:53.657402 27404 net.cpp:406] conv3_2 <- conv3_1
I0419 07:38:53.657411 27404 net.cpp:380] conv3_2 -> conv3_2
I0419 07:38:53.663130 27404 net.cpp:122] Setting up conv3_2
I0419 07:38:53.663161 27404 net.cpp:129] Top shape: 1 256 178 100 (4556800)
I0419 07:38:53.663170 27404 net.cpp:137] Memory required for data: 526200076
I0419 07:38:53.663185 27404 layer_factory.hpp:77] Creating layer relu3_2
I0419 07:38:53.663206 27404 net.cpp:84] Creating Layer relu3_2
I0419 07:38:53.663224 27404 net.cpp:406] relu3_2 <- conv3_2
I0419 07:38:53.663235 27404 net.cpp:367] relu3_2 -> conv3_2 (in-place)
I0419 07:38:53.664242 27404 net.cpp:122] Setting up relu3_2
I0419 07:38:53.664268 27404 net.cpp:129] Top shape: 1 256 178 100 (4556800)
I0419 07:38:53.664275 27404 net.cpp:137] Memory required for data: 544427276
I0419 07:38:53.664283 27404 layer_factory.hpp:77] Creating layer conv3_3
I0419 07:38:53.664304 27404 net.cpp:84] Creating Layer conv3_3
I0419 07:38:53.664311 27404 net.cpp:406] conv3_3 <- conv3_2
I0419 07:38:53.664324 27404 net.cpp:380] conv3_3 -> conv3_3
I0419 07:38:53.668402 27404 net.cpp:122] Setting up conv3_3
I0419 07:38:53.668416 27404 net.cpp:129] Top shape: 1 256 178 100 (4556800)
I0419 07:38:53.668435 27404 net.cpp:137] Memory required for data: 562654476
I0419 07:38:53.668444 27404 layer_factory.hpp:77] Creating layer relu3_3
I0419 07:38:53.668450 27404 net.cpp:84] Creating Layer relu3_3
I0419 07:38:53.668454 27404 net.cpp:406] relu3_3 <- conv3_3
I0419 07:38:53.668462 27404 net.cpp:367] relu3_3 -> conv3_3 (in-place)
I0419 07:38:53.668632 27404 net.cpp:122] Setting up relu3_3
I0419 07:38:53.668644 27404 net.cpp:129] Top shape: 1 256 178 100 (4556800)
I0419 07:38:53.668648 27404 net.cpp:137] Memory required for data: 580881676
I0419 07:38:53.668651 27404 layer_factory.hpp:77] Creating layer pool3
I0419 07:38:53.668658 27404 net.cpp:84] Creating Layer pool3
I0419 07:38:53.668660 27404 net.cpp:406] pool3 <- conv3_3
I0419 07:38:53.668665 27404 net.cpp:380] pool3 -> pool3
I0419 07:38:53.668712 27404 net.cpp:122] Setting up pool3
I0419 07:38:53.668720 27404 net.cpp:129] Top shape: 1 256 89 50 (1139200)
I0419 07:38:53.668722 27404 net.cpp:137] Memory required for data: 585438476
I0419 07:38:53.668725 27404 layer_factory.hpp:77] Creating layer pool3_pool3_0_split
I0419 07:38:53.668732 27404 net.cpp:84] Creating Layer pool3_pool3_0_split
I0419 07:38:53.668735 27404 net.cpp:406] pool3_pool3_0_split <- pool3
I0419 07:38:53.668742 27404 net.cpp:380] pool3_pool3_0_split -> pool3_pool3_0_split_0
I0419 07:38:53.668747 27404 net.cpp:380] pool3_pool3_0_split -> pool3_pool3_0_split_1
I0419 07:38:53.668797 27404 net.cpp:122] Setting up pool3_pool3_0_split
I0419 07:38:53.668805 27404 net.cpp:129] Top shape: 1 256 89 50 (1139200)
I0419 07:38:53.668809 27404 net.cpp:129] Top shape: 1 256 89 50 (1139200)
I0419 07:38:53.668812 27404 net.cpp:137] Memory required for data: 594552076
I0419 07:38:53.668815 27404 layer_factory.hpp:77] Creating layer conv4_1
I0419 07:38:53.668825 27404 net.cpp:84] Creating Layer conv4_1
I0419 07:38:53.668828 27404 net.cpp:406] conv4_1 <- pool3_pool3_0_split_0
I0419 07:38:53.668833 27404 net.cpp:380] conv4_1 -> conv4_1
I0419 07:38:53.685576 27404 net.cpp:122] Setting up conv4_1
I0419 07:38:53.685626 27404 net.cpp:129] Top shape: 1 512 89 50 (2278400)
I0419 07:38:53.685633 27404 net.cpp:137] Memory required for data: 603665676
I0419 07:38:53.685652 27404 layer_factory.hpp:77] Creating layer relu4_1
I0419 07:38:53.685667 27404 net.cpp:84] Creating Layer relu4_1
I0419 07:38:53.685688 27404 net.cpp:406] relu4_1 <- conv4_1
I0419 07:38:53.685700 27404 net.cpp:367] relu4_1 -> conv4_1 (in-place)
I0419 07:38:53.686136 27404 net.cpp:122] Setting up relu4_1
I0419 07:38:53.686193 27404 net.cpp:129] Top shape: 1 512 89 50 (2278400)
I0419 07:38:53.686202 27404 net.cpp:137] Memory required for data: 612779276
I0419 07:38:53.686208 27404 layer_factory.hpp:77] Creating layer conv4_2
I0419 07:38:53.686231 27404 net.cpp:84] Creating Layer conv4_2
I0419 07:38:53.686250 27404 net.cpp:406] conv4_2 <- conv4_1
I0419 07:38:53.686261 27404 net.cpp:380] conv4_2 -> conv4_2
I0419 07:38:53.699990 27404 net.cpp:122] Setting up conv4_2
I0419 07:38:53.700036 27404 net.cpp:129] Top shape: 1 512 89 50 (2278400)
I0419 07:38:53.700044 27404 net.cpp:137] Memory required for data: 621892876
I0419 07:38:53.700073 27404 layer_factory.hpp:77] Creating layer relu4_2
I0419 07:38:53.700100 27404 net.cpp:84] Creating Layer relu4_2
I0419 07:38:53.700109 27404 net.cpp:406] relu4_2 <- conv4_2
I0419 07:38:53.700134 27404 net.cpp:367] relu4_2 -> conv4_2 (in-place)
I0419 07:38:53.700533 27404 net.cpp:122] Setting up relu4_2
I0419 07:38:53.700552 27404 net.cpp:129] Top shape: 1 512 89 50 (2278400)
I0419 07:38:53.700569 27404 net.cpp:137] Memory required for data: 631006476
I0419 07:38:53.700577 27404 layer_factory.hpp:77] Creating layer conv4_3
I0419 07:38:53.700610 27404 net.cpp:84] Creating Layer conv4_3
I0419 07:38:53.700618 27404 net.cpp:406] conv4_3 <- conv4_2
I0419 07:38:53.700639 27404 net.cpp:380] conv4_3 -> conv4_3
I0419 07:38:53.710397 27404 net.cpp:122] Setting up conv4_3
I0419 07:38:53.710443 27404 net.cpp:129] Top shape: 1 512 89 50 (2278400)
I0419 07:38:53.710448 27404 net.cpp:137] Memory required for data: 640120076
I0419 07:38:53.710460 27404 layer_factory.hpp:77] Creating layer relu4_3
I0419 07:38:53.710475 27404 net.cpp:84] Creating Layer relu4_3
I0419 07:38:53.710482 27404 net.cpp:406] relu4_3 <- conv4_3
I0419 07:38:53.710494 27404 net.cpp:367] relu4_3 -> conv4_3 (in-place)
I0419 07:38:53.710722 27404 net.cpp:122] Setting up relu4_3
I0419 07:38:53.710736 27404 net.cpp:129] Top shape: 1 512 89 50 (2278400)
I0419 07:38:53.710741 27404 net.cpp:137] Memory required for data: 649233676
I0419 07:38:53.710744 27404 layer_factory.hpp:77] Creating layer pool4
I0419 07:38:53.710753 27404 net.cpp:84] Creating Layer pool4
I0419 07:38:53.710758 27404 net.cpp:406] pool4 <- conv4_3
I0419 07:38:53.710765 27404 net.cpp:380] pool4 -> pool4
I0419 07:38:53.710821 27404 net.cpp:122] Setting up pool4
I0419 07:38:53.710831 27404 net.cpp:129] Top shape: 1 512 45 25 (576000)
I0419 07:38:53.710834 27404 net.cpp:137] Memory required for data: 651537676
I0419 07:38:53.710839 27404 layer_factory.hpp:77] Creating layer pool4_pool4_0_split
I0419 07:38:53.710845 27404 net.cpp:84] Creating Layer pool4_pool4_0_split
I0419 07:38:53.710850 27404 net.cpp:406] pool4_pool4_0_split <- pool4
I0419 07:38:53.710858 27404 net.cpp:380] pool4_pool4_0_split -> pool4_pool4_0_split_0
I0419 07:38:53.710865 27404 net.cpp:380] pool4_pool4_0_split -> pool4_pool4_0_split_1
I0419 07:38:53.710909 27404 net.cpp:122] Setting up pool4_pool4_0_split
I0419 07:38:53.710918 27404 net.cpp:129] Top shape: 1 512 45 25 (576000)
I0419 07:38:53.710923 27404 net.cpp:129] Top shape: 1 512 45 25 (576000)
I0419 07:38:53.710927 27404 net.cpp:137] Memory required for data: 656145676
I0419 07:38:53.710932 27404 layer_factory.hpp:77] Creating layer conv5_1
I0419 07:38:53.710948 27404 net.cpp:84] Creating Layer conv5_1
I0419 07:38:53.710952 27404 net.cpp:406] conv5_1 <- pool4_pool4_0_split_0
I0419 07:38:53.710959 27404 net.cpp:380] conv5_1 -> conv5_1
I0419 07:38:53.720453 27404 net.cpp:122] Setting up conv5_1
I0419 07:38:53.720501 27404 net.cpp:129] Top shape: 1 512 45 25 (576000)
I0419 07:38:53.720506 27404 net.cpp:137] Memory required for data: 658449676
I0419 07:38:53.720517 27404 layer_factory.hpp:77] Creating layer relu5_1
I0419 07:38:53.720532 27404 net.cpp:84] Creating Layer relu5_1
I0419 07:38:53.720540 27404 net.cpp:406] relu5_1 <- conv5_1
I0419 07:38:53.720549 27404 net.cpp:367] relu5_1 -> conv5_1 (in-place)
I0419 07:38:53.721212 27404 net.cpp:122] Setting up relu5_1
I0419 07:38:53.721228 27404 net.cpp:129] Top shape: 1 512 45 25 (576000)
I0419 07:38:53.721233 27404 net.cpp:137] Memory required for data: 660753676
I0419 07:38:53.721243 27404 layer_factory.hpp:77] Creating layer conv5_2
I0419 07:38:53.721259 27404 net.cpp:84] Creating Layer conv5_2
I0419 07:38:53.721264 27404 net.cpp:406] conv5_2 <- conv5_1
I0419 07:38:53.721272 27404 net.cpp:380] conv5_2 -> conv5_2
I0419 07:38:53.729616 27404 net.cpp:122] Setting up conv5_2
I0419 07:38:53.729655 27404 net.cpp:129] Top shape: 1 512 45 25 (576000)
I0419 07:38:53.729662 27404 net.cpp:137] Memory required for data: 663057676
I0419 07:38:53.729672 27404 layer_factory.hpp:77] Creating layer relu5_2
I0419 07:38:53.729689 27404 net.cpp:84] Creating Layer relu5_2
I0419 07:38:53.729696 27404 net.cpp:406] relu5_2 <- conv5_2
I0419 07:38:53.729702 27404 net.cpp:367] relu5_2 -> conv5_2 (in-place)
I0419 07:38:53.730463 27404 net.cpp:122] Setting up relu5_2
I0419 07:38:53.730480 27404 net.cpp:129] Top shape: 1 512 45 25 (576000)
I0419 07:38:53.730484 27404 net.cpp:137] Memory required for data: 665361676
I0419 07:38:53.730494 27404 layer_factory.hpp:77] Creating layer conv5_3
I0419 07:38:53.730520 27404 net.cpp:84] Creating Layer conv5_3
I0419 07:38:53.730525 27404 net.cpp:406] conv5_3 <- conv5_2
I0419 07:38:53.730533 27404 net.cpp:380] conv5_3 -> conv5_3
I0419 07:38:53.742785 27404 net.cpp:122] Setting up conv5_3
I0419 07:38:53.742828 27404 net.cpp:129] Top shape: 1 512 45 25 (576000)
I0419 07:38:53.742835 27404 net.cpp:137] Memory required for data: 667665676
I0419 07:38:53.742846 27404 layer_factory.hpp:77] Creating layer relu5_3
I0419 07:38:53.742859 27404 net.cpp:84] Creating Layer relu5_3
I0419 07:38:53.742867 27404 net.cpp:406] relu5_3 <- conv5_3
I0419 07:38:53.742878 27404 net.cpp:367] relu5_3 -> conv5_3 (in-place)
I0419 07:38:53.743170 27404 net.cpp:122] Setting up relu5_3
I0419 07:38:53.743185 27404 net.cpp:129] Top shape: 1 512 45 25 (576000)
I0419 07:38:53.743190 27404 net.cpp:137] Memory required for data: 669969676
I0419 07:38:53.743194 27404 layer_factory.hpp:77] Creating layer pool5
I0419 07:38:53.743207 27404 net.cpp:84] Creating Layer pool5
I0419 07:38:53.743212 27404 net.cpp:406] pool5 <- conv5_3
I0419 07:38:53.743221 27404 net.cpp:380] pool5 -> pool5
I0419 07:38:53.743286 27404 net.cpp:122] Setting up pool5
I0419 07:38:53.743297 27404 net.cpp:129] Top shape: 1 512 23 13 (153088)
I0419 07:38:53.743302 27404 net.cpp:137] Memory required for data: 670582028
I0419 07:38:53.743306 27404 layer_factory.hpp:77] Creating layer fc6
I0419 07:38:53.743322 27404 net.cpp:84] Creating Layer fc6
I0419 07:38:53.743327 27404 net.cpp:406] fc6 <- pool5
I0419 07:38:53.743335 27404 net.cpp:380] fc6 -> fc6
I0419 07:38:54.074995 27404 net.cpp:122] Setting up fc6
I0419 07:38:54.075042 27404 net.cpp:129] Top shape: 1 4096 17 7 (487424)
I0419 07:38:54.075052 27404 net.cpp:137] Memory required for data: 672531724
I0419 07:38:54.075067 27404 layer_factory.hpp:77] Creating layer relu6
I0419 07:38:54.075079 27404 net.cpp:84] Creating Layer relu6
I0419 07:38:54.075085 27404 net.cpp:406] relu6 <- fc6
I0419 07:38:54.075096 27404 net.cpp:367] relu6 -> fc6 (in-place)
I0419 07:38:54.075369 27404 net.cpp:122] Setting up relu6
I0419 07:38:54.075384 27404 net.cpp:129] Top shape: 1 4096 17 7 (487424)
I0419 07:38:54.075388 27404 net.cpp:137] Memory required for data: 674481420
I0419 07:38:54.075393 27404 layer_factory.hpp:77] Creating layer drop6
I0419 07:38:54.075407 27404 net.cpp:84] Creating Layer drop6
I0419 07:38:54.075412 27404 net.cpp:406] drop6 <- fc6
I0419 07:38:54.075417 27404 net.cpp:367] drop6 -> fc6 (in-place)
I0419 07:38:54.075459 27404 net.cpp:122] Setting up drop6
I0419 07:38:54.075469 27404 net.cpp:129] Top shape: 1 4096 17 7 (487424)
I0419 07:38:54.075472 27404 net.cpp:137] Memory required for data: 676431116
I0419 07:38:54.075476 27404 layer_factory.hpp:77] Creating layer fc7
I0419 07:38:54.075489 27404 net.cpp:84] Creating Layer fc7
I0419 07:38:54.075495 27404 net.cpp:406] fc7 <- fc6
I0419 07:38:54.075500 27404 net.cpp:380] fc7 -> fc7
I0419 07:38:54.130125 27404 net.cpp:122] Setting up fc7
I0419 07:38:54.130182 27404 net.cpp:129] Top shape: 1 4096 17 7 (487424)
I0419 07:38:54.130189 27404 net.cpp:137] Memory required for data: 678380812
I0419 07:38:54.130203 27404 layer_factory.hpp:77] Creating layer relu7
I0419 07:38:54.130214 27404 net.cpp:84] Creating Layer relu7
I0419 07:38:54.130220 27404 net.cpp:406] relu7 <- fc7
I0419 07:38:54.130241 27404 net.cpp:367] relu7 -> fc7 (in-place)
I0419 07:38:54.130477 27404 net.cpp:122] Setting up relu7
I0419 07:38:54.130491 27404 net.cpp:129] Top shape: 1 4096 17 7 (487424)
I0419 07:38:54.130496 27404 net.cpp:137] Memory required for data: 680330508
I0419 07:38:54.130499 27404 layer_factory.hpp:77] Creating layer drop7
I0419 07:38:54.130509 27404 net.cpp:84] Creating Layer drop7
I0419 07:38:54.130513 27404 net.cpp:406] drop7 <- fc7
I0419 07:38:54.130522 27404 net.cpp:367] drop7 -> fc7 (in-place)
I0419 07:38:54.130558 27404 net.cpp:122] Setting up drop7
I0419 07:38:54.130578 27404 net.cpp:129] Top shape: 1 4096 17 7 (487424)
I0419 07:38:54.130581 27404 net.cpp:137] Memory required for data: 682280204
I0419 07:38:54.130585 27404 layer_factory.hpp:77] Creating layer score_fr-new
I0419 07:38:54.130597 27404 net.cpp:84] Creating Layer score_fr-new
I0419 07:38:54.130601 27404 net.cpp:406] score_fr-new <- fc7
I0419 07:38:54.130612 27404 net.cpp:380] score_fr-new -> score_fr-new
I0419 07:38:54.132890 27404 net.cpp:122] Setting up score_fr-new
I0419 07:38:54.132907 27404 net.cpp:129] Top shape: 1 3 17 7 (357)
I0419 07:38:54.132912 27404 net.cpp:137] Memory required for data: 682281632
I0419 07:38:54.132923 27404 layer_factory.hpp:77] Creating layer upscore2-new
I0419 07:38:54.132941 27404 net.cpp:84] Creating Layer upscore2-new
I0419 07:38:54.132947 27404 net.cpp:406] upscore2-new <- score_fr-new
I0419 07:38:54.132954 27404 net.cpp:380] upscore2-new -> upscore2-new
I0419 07:38:54.133229 27404 net.cpp:122] Setting up upscore2-new
I0419 07:38:54.133240 27404 net.cpp:129] Top shape: 1 3 36 16 (1728)
I0419 07:38:54.133244 27404 net.cpp:137] Memory required for data: 682288544
I0419 07:38:54.133258 27404 layer_factory.hpp:77] Creating layer upscore2-new_upscore2-new_0_split
I0419 07:38:54.133265 27404 net.cpp:84] Creating Layer upscore2-new_upscore2-new_0_split
I0419 07:38:54.133270 27404 net.cpp:406] upscore2-new_upscore2-new_0_split <- upscore2-new
I0419 07:38:54.133278 27404 net.cpp:380] upscore2-new_upscore2-new_0_split -> upscore2-new_upscore2-new_0_split_0
I0419 07:38:54.133286 27404 net.cpp:380] upscore2-new_upscore2-new_0_split -> upscore2-new_upscore2-new_0_split_1
I0419 07:38:54.133332 27404 net.cpp:122] Setting up upscore2-new_upscore2-new_0_split
I0419 07:38:54.133340 27404 net.cpp:129] Top shape: 1 3 36 16 (1728)
I0419 07:38:54.133345 27404 net.cpp:129] Top shape: 1 3 36 16 (1728)
I0419 07:38:54.133349 27404 net.cpp:137] Memory required for data: 682302368
I0419 07:38:54.133352 27404 layer_factory.hpp:77] Creating layer score_pool4-new
I0419 07:38:54.133363 27404 net.cpp:84] Creating Layer score_pool4-new
I0419 07:38:54.133368 27404 net.cpp:406] score_pool4-new <- pool4_pool4_0_split_1
I0419 07:38:54.133374 27404 net.cpp:380] score_pool4-new -> score_pool4-new
I0419 07:38:54.134843 27404 net.cpp:122] Setting up score_pool4-new
I0419 07:38:54.134861 27404 net.cpp:129] Top shape: 1 3 45 25 (3375)
I0419 07:38:54.134877 27404 net.cpp:137] Memory required for data: 682315868
I0419 07:38:54.134886 27404 layer_factory.hpp:77] Creating layer score_pool4c
I0419 07:38:54.134899 27404 net.cpp:84] Creating Layer score_pool4c
I0419 07:38:54.134905 27404 net.cpp:406] score_pool4c <- score_pool4-new
I0419 07:38:54.134912 27404 net.cpp:406] score_pool4c <- upscore2-new_upscore2-new_0_split_0
I0419 07:38:54.134917 27404 net.cpp:380] score_pool4c -> score_pool4c
I0419 07:38:54.134964 27404 net.cpp:122] Setting up score_pool4c
I0419 07:38:54.134971 27404 net.cpp:129] Top shape: 1 3 36 16 (1728)
I0419 07:38:54.134975 27404 net.cpp:137] Memory required for data: 682322780
I0419 07:38:54.134979 27404 layer_factory.hpp:77] Creating layer fuse_pool4
I0419 07:38:54.134989 27404 net.cpp:84] Creating Layer fuse_pool4
I0419 07:38:54.134992 27404 net.cpp:406] fuse_pool4 <- upscore2-new_upscore2-new_0_split_1
I0419 07:38:54.134997 27404 net.cpp:406] fuse_pool4 <- score_pool4c
I0419 07:38:54.135006 27404 net.cpp:380] fuse_pool4 -> fuse_pool4
I0419 07:38:54.135037 27404 net.cpp:122] Setting up fuse_pool4
I0419 07:38:54.135043 27404 net.cpp:129] Top shape: 1 3 36 16 (1728)
I0419 07:38:54.135047 27404 net.cpp:137] Memory required for data: 682329692
I0419 07:38:54.135051 27404 layer_factory.hpp:77] Creating layer upscore_pool4-new
I0419 07:38:54.135061 27404 net.cpp:84] Creating Layer upscore_pool4-new
I0419 07:38:54.135068 27404 net.cpp:406] upscore_pool4-new <- fuse_pool4
I0419 07:38:54.135074 27404 net.cpp:380] upscore_pool4-new -> upscore_pool4-new
I0419 07:38:54.135306 27404 net.cpp:122] Setting up upscore_pool4-new
I0419 07:38:54.135316 27404 net.cpp:129] Top shape: 1 3 74 34 (7548)
I0419 07:38:54.135320 27404 net.cpp:137] Memory required for data: 682359884
I0419 07:38:54.135326 27404 layer_factory.hpp:77] Creating layer upscore_pool4-new_upscore_pool4-new_0_split
I0419 07:38:54.135332 27404 net.cpp:84] Creating Layer upscore_pool4-new_upscore_pool4-new_0_split
I0419 07:38:54.135336 27404 net.cpp:406] upscore_pool4-new_upscore_pool4-new_0_split <- upscore_pool4-new
I0419 07:38:54.135344 27404 net.cpp:380] upscore_pool4-new_upscore_pool4-new_0_split -> upscore_pool4-new_upscore_pool4-new_0_split_0
I0419 07:38:54.135351 27404 net.cpp:380] upscore_pool4-new_upscore_pool4-new_0_split -> upscore_pool4-new_upscore_pool4-new_0_split_1
I0419 07:38:54.135392 27404 net.cpp:122] Setting up upscore_pool4-new_upscore_pool4-new_0_split
I0419 07:38:54.135406 27404 net.cpp:129] Top shape: 1 3 74 34 (7548)
I0419 07:38:54.135411 27404 net.cpp:129] Top shape: 1 3 74 34 (7548)
I0419 07:38:54.135414 27404 net.cpp:137] Memory required for data: 682420268
I0419 07:38:54.135418 27404 layer_factory.hpp:77] Creating layer score_pool3-new
I0419 07:38:54.135442 27404 net.cpp:84] Creating Layer score_pool3-new
I0419 07:38:54.135447 27404 net.cpp:406] score_pool3-new <- pool3_pool3_0_split_1
I0419 07:38:54.135452 27404 net.cpp:380] score_pool3-new -> score_pool3-new
I0419 07:38:54.142069 27404 net.cpp:122] Setting up score_pool3-new
I0419 07:38:54.142138 27404 net.cpp:129] Top shape: 1 3 89 50 (13350)
I0419 07:38:54.142148 27404 net.cpp:137] Memory required for data: 682473668
I0419 07:38:54.142220 27404 layer_factory.hpp:77] Creating layer score_pool3c
I0419 07:38:54.142241 27404 net.cpp:84] Creating Layer score_pool3c
I0419 07:38:54.142253 27404 net.cpp:406] score_pool3c <- score_pool3-new
I0419 07:38:54.142266 27404 net.cpp:406] score_pool3c <- upscore_pool4-new_upscore_pool4-new_0_split_0
I0419 07:38:54.142278 27404 net.cpp:380] score_pool3c -> score_pool3c
I0419 07:38:54.142349 27404 net.cpp:122] Setting up score_pool3c
I0419 07:38:54.142364 27404 net.cpp:129] Top shape: 1 3 74 34 (7548)
I0419 07:38:54.142370 27404 net.cpp:137] Memory required for data: 682503860
I0419 07:38:54.142379 27404 layer_factory.hpp:77] Creating layer fuse_pool3
I0419 07:38:54.142395 27404 net.cpp:84] Creating Layer fuse_pool3
I0419 07:38:54.142401 27404 net.cpp:406] fuse_pool3 <- upscore_pool4-new_upscore_pool4-new_0_split_1
I0419 07:38:54.142411 27404 net.cpp:406] fuse_pool3 <- score_pool3c
I0419 07:38:54.142423 27404 net.cpp:380] fuse_pool3 -> fuse_pool3
I0419 07:38:54.142474 27404 net.cpp:122] Setting up fuse_pool3
I0419 07:38:54.142488 27404 net.cpp:129] Top shape: 1 3 74 34 (7548)
I0419 07:38:54.142494 27404 net.cpp:137] Memory required for data: 682534052
I0419 07:38:54.142500 27404 layer_factory.hpp:77] Creating layer upscore8-new
I0419 07:38:54.142518 27404 net.cpp:84] Creating Layer upscore8-new
I0419 07:38:54.142525 27404 net.cpp:406] upscore8-new <- fuse_pool3
I0419 07:38:54.142536 27404 net.cpp:380] upscore8-new -> upscore8-new
I0419 07:38:54.143000 27404 net.cpp:122] Setting up upscore8-new
I0419 07:38:54.143016 27404 net.cpp:129] Top shape: 1 3 600 280 (504000)
I0419 07:38:54.143033 27404 net.cpp:137] Memory required for data: 684550052
I0419 07:38:54.143043 27404 layer_factory.hpp:77] Creating layer upscore8_cropped
I0419 07:38:54.143059 27404 net.cpp:84] Creating Layer upscore8_cropped
I0419 07:38:54.143065 27404 net.cpp:406] upscore8_cropped <- upscore8-new
I0419 07:38:54.143077 27404 net.cpp:406] upscore8_cropped <- data_data_0_split_1
I0419 07:38:54.143087 27404 net.cpp:380] upscore8_cropped -> upscore8_cropped
I0419 07:38:54.143132 27404 net.cpp:122] Setting up upscore8_cropped
I0419 07:38:54.143142 27404 net.cpp:129] Top shape: 1 3 512 199 (305664)
I0419 07:38:54.143149 27404 net.cpp:137] Memory required for data: 685772708
I0419 07:38:54.143155 27404 layer_factory.hpp:77] Creating layer score
I0419 07:38:54.143173 27404 net.cpp:84] Creating Layer score
I0419 07:38:54.143182 27404 net.cpp:406] score <- upscore8_cropped
I0419 07:38:54.143203 27404 net.cpp:380] score -> score
I0419 07:38:54.146682 27404 net.cpp:122] Setting up score
I0419 07:38:54.146711 27404 net.cpp:129] Top shape: 1 3 512 199 (305664)
I0419 07:38:54.146715 27404 net.cpp:137] Memory required for data: 686995364
I0419 07:38:54.146725 27404 layer_factory.hpp:77] Creating layer score_score_0_split
I0419 07:38:54.146736 27404 net.cpp:84] Creating Layer score_score_0_split
I0419 07:38:54.146741 27404 net.cpp:406] score_score_0_split <- score
I0419 07:38:54.146750 27404 net.cpp:380] score_score_0_split -> score_score_0_split_0
I0419 07:38:54.146759 27404 net.cpp:380] score_score_0_split -> score_score_0_split_1
I0419 07:38:54.146816 27404 net.cpp:122] Setting up score_score_0_split
I0419 07:38:54.146823 27404 net.cpp:129] Top shape: 1 3 512 199 (305664)
I0419 07:38:54.146828 27404 net.cpp:129] Top shape: 1 3 512 199 (305664)
I0419 07:38:54.146832 27404 net.cpp:137] Memory required for data: 689440676
I0419 07:38:54.146836 27404 layer_factory.hpp:77] Creating layer prob
I0419 07:38:54.146847 27404 net.cpp:84] Creating Layer prob
I0419 07:38:54.146852 27404 net.cpp:406] prob <- score_score_0_split_0
I0419 07:38:54.146857 27404 net.cpp:380] prob -> prob
I0419 07:38:54.147130 27404 net.cpp:122] Setting up prob
I0419 07:38:54.147143 27404 net.cpp:129] Top shape: 1 3 512 199 (305664)
I0419 07:38:54.147147 27404 net.cpp:137] Memory required for data: 690663332
I0419 07:38:54.147152 27404 layer_factory.hpp:77] Creating layer prob_prob_0_split
I0419 07:38:54.147161 27404 net.cpp:84] Creating Layer prob_prob_0_split
I0419 07:38:54.147166 27404 net.cpp:406] prob_prob_0_split <- prob
I0419 07:38:54.147172 27404 net.cpp:380] prob_prob_0_split -> prob_prob_0_split_0
I0419 07:38:54.147179 27404 net.cpp:380] prob_prob_0_split -> prob_prob_0_split_1
I0419 07:38:54.147228 27404 net.cpp:122] Setting up prob_prob_0_split
I0419 07:38:54.147238 27404 net.cpp:129] Top shape: 1 3 512 199 (305664)
I0419 07:38:54.147243 27404 net.cpp:129] Top shape: 1 3 512 199 (305664)
I0419 07:38:54.147246 27404 net.cpp:137] Memory required for data: 693108644
I0419 07:38:54.147250 27404 layer_factory.hpp:77] Creating layer saliency
I0419 07:38:54.147261 27404 net.cpp:84] Creating Layer saliency
I0419 07:38:54.147266 27404 net.cpp:406] saliency <- prob_prob_0_split_0
I0419 07:38:54.147275 27404 net.cpp:380] saliency -> saliency
I0419 07:38:54.149252 27404 net.cpp:122] Setting up saliency
I0419 07:38:54.149281 27404 net.cpp:129] Top shape: 1 3 512 199 (305664)
I0419 07:38:54.149286 27404 net.cpp:137] Memory required for data: 694331300
I0419 07:38:54.149296 27404 layer_factory.hpp:77] Creating layer saliency_data
I0419 07:38:54.149308 27404 net.cpp:84] Creating Layer saliency_data
I0419 07:38:54.149313 27404 net.cpp:406] saliency_data <- data_data_0_split_2
I0419 07:38:54.149319 27404 net.cpp:406] saliency_data <- saliency
I0419 07:38:54.149325 27404 net.cpp:380] saliency_data -> saliency_data
I0419 07:38:54.149369 27404 net.cpp:122] Setting up saliency_data
I0419 07:38:54.149375 27404 net.cpp:129] Top shape: 1 3 512 199 (305664)
I0419 07:38:54.149379 27404 net.cpp:137] Memory required for data: 695553956
I0419 07:38:54.149382 27404 layer_factory.hpp:77] Creating layer crop
I0419 07:38:54.149811 27404 net.cpp:84] Creating Layer crop
I0419 07:38:54.149826 27404 net.cpp:406] crop <- prob_prob_0_split_1
I0419 07:38:54.149843 27404 net.cpp:406] crop <- saliency_data
I0419 07:38:54.149849 27404 net.cpp:406] crop <- crop_margin
I0419 07:38:54.149855 27404 net.cpp:406] crop <- crop_prob
I0419 07:38:54.149860 27404 net.cpp:406] crop <- crop_sample_batch
I0419 07:38:54.149865 27404 net.cpp:406] crop <- label_data_1_split_0
I0419 07:38:54.149873 27404 net.cpp:380] crop -> data-R
I0419 07:38:54.149883 27404 net.cpp:380] crop -> crop_info
I0419 07:38:54.161221 27404 net.cpp:122] Setting up crop
I0419 07:38:54.161268 27404 net.cpp:129] Top shape: 1 3 512 199 (305664)
I0419 07:38:54.161280 27404 net.cpp:129] Top shape: 1 2 4 (8)
I0419 07:38:54.161288 27404 net.cpp:137] Memory required for data: 696776644
I0419 07:38:54.161298 27404 layer_factory.hpp:77] Creating layer data-R_crop_0_split
I0419 07:38:54.161324 27404 net.cpp:84] Creating Layer data-R_crop_0_split
I0419 07:38:54.161332 27404 net.cpp:406] data-R_crop_0_split <- data-R
I0419 07:38:54.161345 27404 net.cpp:380] data-R_crop_0_split -> data-R_crop_0_split_0
I0419 07:38:54.161362 27404 net.cpp:380] data-R_crop_0_split -> data-R_crop_0_split_1
I0419 07:38:54.161445 27404 net.cpp:122] Setting up data-R_crop_0_split
I0419 07:38:54.161461 27404 net.cpp:129] Top shape: 1 3 512 199 (305664)
I0419 07:38:54.161470 27404 net.cpp:129] Top shape: 1 3 512 199 (305664)
I0419 07:38:54.161478 27404 net.cpp:137] Memory required for data: 699221956
I0419 07:38:54.161484 27404 layer_factory.hpp:77] Creating layer conv1_1-R
I0419 07:38:54.161500 27404 net.cpp:84] Creating Layer conv1_1-R
I0419 07:38:54.161509 27404 net.cpp:406] conv1_1-R <- data-R_crop_0_split_0
I0419 07:38:54.161528 27404 net.cpp:380] conv1_1-R -> conv1_1-R
I0419 07:38:54.167551 27404 net.cpp:122] Setting up conv1_1-R
I0419 07:38:54.167593 27404 net.cpp:129] Top shape: 1 64 710 397 (18039680)
I0419 07:38:54.167601 27404 net.cpp:137] Memory required for data: 771380676
I0419 07:38:54.167618 27404 layer_factory.hpp:77] Creating layer relu1_1-R
I0419 07:38:54.167657 27404 net.cpp:84] Creating Layer relu1_1-R
I0419 07:38:54.167666 27404 net.cpp:406] relu1_1-R <- conv1_1-R
I0419 07:38:54.167677 27404 net.cpp:367] relu1_1-R -> conv1_1-R (in-place)
I0419 07:38:54.168076 27404 net.cpp:122] Setting up relu1_1-R
I0419 07:38:54.168097 27404 net.cpp:129] Top shape: 1 64 710 397 (18039680)
I0419 07:38:54.168112 27404 net.cpp:137] Memory required for data: 843539396
I0419 07:38:54.168119 27404 layer_factory.hpp:77] Creating layer conv1_2-R
I0419 07:38:54.168140 27404 net.cpp:84] Creating Layer conv1_2-R
I0419 07:38:54.168148 27404 net.cpp:406] conv1_2-R <- conv1_1-R
I0419 07:38:54.168160 27404 net.cpp:380] conv1_2-R -> conv1_2-R
I0419 07:38:54.172369 27404 net.cpp:122] Setting up conv1_2-R
I0419 07:38:54.172391 27404 net.cpp:129] Top shape: 1 64 710 397 (18039680)
I0419 07:38:54.172405 27404 net.cpp:137] Memory required for data: 915698116
I0419 07:38:54.172413 27404 layer_factory.hpp:77] Creating layer relu1_2-R
I0419 07:38:54.172421 27404 net.cpp:84] Creating Layer relu1_2-R
I0419 07:38:54.172426 27404 net.cpp:406] relu1_2-R <- conv1_2-R
I0419 07:38:54.172435 27404 net.cpp:367] relu1_2-R -> conv1_2-R (in-place)
I0419 07:38:54.172689 27404 net.cpp:122] Setting up relu1_2-R
I0419 07:38:54.172703 27404 net.cpp:129] Top shape: 1 64 710 397 (18039680)
I0419 07:38:54.172706 27404 net.cpp:137] Memory required for data: 987856836
I0419 07:38:54.172711 27404 layer_factory.hpp:77] Creating layer pool1-R
I0419 07:38:54.172722 27404 net.cpp:84] Creating Layer pool1-R
I0419 07:38:54.172727 27404 net.cpp:406] pool1-R <- conv1_2-R
I0419 07:38:54.172736 27404 net.cpp:380] pool1-R -> pool1-R
I0419 07:38:54.172796 27404 net.cpp:122] Setting up pool1-R
I0419 07:38:54.172806 27404 net.cpp:129] Top shape: 1 64 355 199 (4521280)
I0419 07:38:54.172809 27404 net.cpp:137] Memory required for data: 1005941956
I0419 07:38:54.172813 27404 layer_factory.hpp:77] Creating layer conv2_1-R
I0419 07:38:54.172824 27404 net.cpp:84] Creating Layer conv2_1-R
I0419 07:38:54.172829 27404 net.cpp:406] conv2_1-R <- pool1-R
I0419 07:38:54.172837 27404 net.cpp:380] conv2_1-R -> conv2_1-R
I0419 07:38:54.177153 27404 net.cpp:122] Setting up conv2_1-R
I0419 07:38:54.177194 27404 net.cpp:129] Top shape: 1 128 355 199 (9042560)
I0419 07:38:54.177199 27404 net.cpp:137] Memory required for data: 1042112196
I0419 07:38:54.177209 27404 layer_factory.hpp:77] Creating layer relu2_1-R
I0419 07:38:54.177222 27404 net.cpp:84] Creating Layer relu2_1-R
I0419 07:38:54.177228 27404 net.cpp:406] relu2_1-R <- conv2_1-R
I0419 07:38:54.177235 27404 net.cpp:367] relu2_1-R -> conv2_1-R (in-place)
I0419 07:38:54.177517 27404 net.cpp:122] Setting up relu2_1-R
I0419 07:38:54.177531 27404 net.cpp:129] Top shape: 1 128 355 199 (9042560)
I0419 07:38:54.177534 27404 net.cpp:137] Memory required for data: 1078282436
I0419 07:38:54.177539 27404 layer_factory.hpp:77] Creating layer conv2_2-R
I0419 07:38:54.177552 27404 net.cpp:84] Creating Layer conv2_2-R
I0419 07:38:54.177556 27404 net.cpp:406] conv2_2-R <- conv2_1-R
I0419 07:38:54.177564 27404 net.cpp:380] conv2_2-R -> conv2_2-R
I0419 07:38:54.180959 27404 net.cpp:122] Setting up conv2_2-R
I0419 07:38:54.180994 27404 net.cpp:129] Top shape: 1 128 355 199 (9042560)
I0419 07:38:54.181000 27404 net.cpp:137] Memory required for data: 1114452676
I0419 07:38:54.181011 27404 layer_factory.hpp:77] Creating layer relu2_2-R
I0419 07:38:54.181021 27404 net.cpp:84] Creating Layer relu2_2-R
I0419 07:38:54.181028 27404 net.cpp:406] relu2_2-R <- conv2_2-R
I0419 07:38:54.181038 27404 net.cpp:367] relu2_2-R -> conv2_2-R (in-place)
I0419 07:38:54.181900 27404 net.cpp:122] Setting up relu2_2-R
I0419 07:38:54.181916 27404 net.cpp:129] Top shape: 1 128 355 199 (9042560)
I0419 07:38:54.181933 27404 net.cpp:137] Memory required for data: 1150622916
I0419 07:38:54.181938 27404 layer_factory.hpp:77] Creating layer pool2-R
I0419 07:38:54.181948 27404 net.cpp:84] Creating Layer pool2-R
I0419 07:38:54.181954 27404 net.cpp:406] pool2-R <- conv2_2-R
I0419 07:38:54.181964 27404 net.cpp:380] pool2-R -> pool2-R
I0419 07:38:54.182044 27404 net.cpp:122] Setting up pool2-R
I0419 07:38:54.182054 27404 net.cpp:129] Top shape: 1 128 178 100 (2278400)
I0419 07:38:54.182057 27404 net.cpp:137] Memory required for data: 1159736516
I0419 07:38:54.182061 27404 layer_factory.hpp:77] Creating layer conv3_1-R
I0419 07:38:54.182076 27404 net.cpp:84] Creating Layer conv3_1-R
I0419 07:38:54.182080 27404 net.cpp:406] conv3_1-R <- pool2-R
I0419 07:38:54.182087 27404 net.cpp:380] conv3_1-R -> conv3_1-R
I0419 07:38:54.191211 27404 net.cpp:122] Setting up conv3_1-R
I0419 07:38:54.191253 27404 net.cpp:129] Top shape: 1 256 178 100 (4556800)
I0419 07:38:54.191262 27404 net.cpp:137] Memory required for data: 1177963716
I0419 07:38:54.191279 27404 layer_factory.hpp:77] Creating layer relu3_1-R
I0419 07:38:54.191296 27404 net.cpp:84] Creating Layer relu3_1-R
I0419 07:38:54.191305 27404 net.cpp:406] relu3_1-R <- conv3_1-R
I0419 07:38:54.191316 27404 net.cpp:367] relu3_1-R -> conv3_1-R (in-place)
I0419 07:38:54.191751 27404 net.cpp:122] Setting up relu3_1-R
I0419 07:38:54.191781 27404 net.cpp:129] Top shape: 1 256 178 100 (4556800)
I0419 07:38:54.191789 27404 net.cpp:137] Memory required for data: 1196190916
I0419 07:38:54.191797 27404 layer_factory.hpp:77] Creating layer conv3_2-R
I0419 07:38:54.191814 27404 net.cpp:84] Creating Layer conv3_2-R
I0419 07:38:54.191821 27404 net.cpp:406] conv3_2-R <- conv3_1-R
I0419 07:38:54.191838 27404 net.cpp:380] conv3_2-R -> conv3_2-R
I0419 07:38:54.200153 27404 net.cpp:122] Setting up conv3_2-R
I0419 07:38:54.200213 27404 net.cpp:129] Top shape: 1 256 178 100 (4556800)
I0419 07:38:54.200219 27404 net.cpp:137] Memory required for data: 1214418116
I0419 07:38:54.200232 27404 layer_factory.hpp:77] Creating layer relu3_2-R
I0419 07:38:54.200243 27404 net.cpp:84] Creating Layer relu3_2-R
I0419 07:38:54.200263 27404 net.cpp:406] relu3_2-R <- conv3_2-R
I0419 07:38:54.200270 27404 net.cpp:367] relu3_2-R -> conv3_2-R (in-place)
I0419 07:38:54.200537 27404 net.cpp:122] Setting up relu3_2-R
I0419 07:38:54.200551 27404 net.cpp:129] Top shape: 1 256 178 100 (4556800)
I0419 07:38:54.200556 27404 net.cpp:137] Memory required for data: 1232645316
I0419 07:38:54.200561 27404 layer_factory.hpp:77] Creating layer conv3_3-R
I0419 07:38:54.200572 27404 net.cpp:84] Creating Layer conv3_3-R
I0419 07:38:54.200577 27404 net.cpp:406] conv3_3-R <- conv3_2-R
I0419 07:38:54.200587 27404 net.cpp:380] conv3_3-R -> conv3_3-R
I0419 07:38:54.206221 27404 net.cpp:122] Setting up conv3_3-R
I0419 07:38:54.206262 27404 net.cpp:129] Top shape: 1 256 178 100 (4556800)
I0419 07:38:54.206271 27404 net.cpp:137] Memory required for data: 1250872516
I0419 07:38:54.206288 27404 layer_factory.hpp:77] Creating layer relu3_3-R
I0419 07:38:54.206301 27404 net.cpp:84] Creating Layer relu3_3-R
I0419 07:38:54.206316 27404 net.cpp:406] relu3_3-R <- conv3_3-R
I0419 07:38:54.206327 27404 net.cpp:367] relu3_3-R -> conv3_3-R (in-place)
I0419 07:38:54.206609 27404 net.cpp:122] Setting up relu3_3-R
I0419 07:38:54.206621 27404 net.cpp:129] Top shape: 1 256 178 100 (4556800)
I0419 07:38:54.206625 27404 net.cpp:137] Memory required for data: 1269099716
I0419 07:38:54.206630 27404 layer_factory.hpp:77] Creating layer pool3-R
I0419 07:38:54.206640 27404 net.cpp:84] Creating Layer pool3-R
I0419 07:38:54.206645 27404 net.cpp:406] pool3-R <- conv3_3-R
I0419 07:38:54.206652 27404 net.cpp:380] pool3-R -> pool3-R
I0419 07:38:54.206713 27404 net.cpp:122] Setting up pool3-R
I0419 07:38:54.206723 27404 net.cpp:129] Top shape: 1 256 89 50 (1139200)
I0419 07:38:54.206727 27404 net.cpp:137] Memory required for data: 1273656516
I0419 07:38:54.206732 27404 layer_factory.hpp:77] Creating layer pool3-R_pool3-R_0_split
I0419 07:38:54.206740 27404 net.cpp:84] Creating Layer pool3-R_pool3-R_0_split
I0419 07:38:54.206744 27404 net.cpp:406] pool3-R_pool3-R_0_split <- pool3-R
I0419 07:38:54.206751 27404 net.cpp:380] pool3-R_pool3-R_0_split -> pool3-R_pool3-R_0_split_0
I0419 07:38:54.206759 27404 net.cpp:380] pool3-R_pool3-R_0_split -> pool3-R_pool3-R_0_split_1
I0419 07:38:54.206804 27404 net.cpp:122] Setting up pool3-R_pool3-R_0_split
I0419 07:38:54.206812 27404 net.cpp:129] Top shape: 1 256 89 50 (1139200)
I0419 07:38:54.206818 27404 net.cpp:129] Top shape: 1 256 89 50 (1139200)
I0419 07:38:54.206821 27404 net.cpp:137] Memory required for data: 1282770116
I0419 07:38:54.206825 27404 layer_factory.hpp:77] Creating layer conv4_1-R
I0419 07:38:54.206835 27404 net.cpp:84] Creating Layer conv4_1-R
I0419 07:38:54.206840 27404 net.cpp:406] conv4_1-R <- pool3-R_pool3-R_0_split_0
I0419 07:38:54.206848 27404 net.cpp:380] conv4_1-R -> conv4_1-R
I0419 07:38:54.213614 27404 net.cpp:122] Setting up conv4_1-R
I0419 07:38:54.213650 27404 net.cpp:129] Top shape: 1 512 89 50 (2278400)
I0419 07:38:54.213655 27404 net.cpp:137] Memory required for data: 1291883716
I0419 07:38:54.213665 27404 layer_factory.hpp:77] Creating layer relu4_1-R
I0419 07:38:54.213675 27404 net.cpp:84] Creating Layer relu4_1-R
I0419 07:38:54.213682 27404 net.cpp:406] relu4_1-R <- conv4_1-R
I0419 07:38:54.213690 27404 net.cpp:367] relu4_1-R -> conv4_1-R (in-place)
I0419 07:38:54.213951 27404 net.cpp:122] Setting up relu4_1-R
I0419 07:38:54.213963 27404 net.cpp:129] Top shape: 1 512 89 50 (2278400)
I0419 07:38:54.213968 27404 net.cpp:137] Memory required for data: 1300997316
I0419 07:38:54.213973 27404 layer_factory.hpp:77] Creating layer conv4_2-R
I0419 07:38:54.213986 27404 net.cpp:84] Creating Layer conv4_2-R
I0419 07:38:54.213991 27404 net.cpp:406] conv4_2-R <- conv4_1-R
I0419 07:38:54.213999 27404 net.cpp:380] conv4_2-R -> conv4_2-R
I0419 07:38:54.223212 27404 net.cpp:122] Setting up conv4_2-R
I0419 07:38:54.223248 27404 net.cpp:129] Top shape: 1 512 89 50 (2278400)
I0419 07:38:54.223253 27404 net.cpp:137] Memory required for data: 1310110916
I0419 07:38:54.223264 27404 layer_factory.hpp:77] Creating layer relu4_2-R
I0419 07:38:54.223273 27404 net.cpp:84] Creating Layer relu4_2-R
I0419 07:38:54.223279 27404 net.cpp:406] relu4_2-R <- conv4_2-R
I0419 07:38:54.223287 27404 net.cpp:367] relu4_2-R -> conv4_2-R (in-place)
I0419 07:38:54.223546 27404 net.cpp:122] Setting up relu4_2-R
I0419 07:38:54.223558 27404 net.cpp:129] Top shape: 1 512 89 50 (2278400)
I0419 07:38:54.223563 27404 net.cpp:137] Memory required for data: 1319224516
I0419 07:38:54.223568 27404 layer_factory.hpp:77] Creating layer conv4_3-R
I0419 07:38:54.223583 27404 net.cpp:84] Creating Layer conv4_3-R
I0419 07:38:54.223588 27404 net.cpp:406] conv4_3-R <- conv4_2-R
I0419 07:38:54.223597 27404 net.cpp:380] conv4_3-R -> conv4_3-R
I0419 07:38:54.232653 27404 net.cpp:122] Setting up conv4_3-R
I0419 07:38:54.232676 27404 net.cpp:129] Top shape: 1 512 89 50 (2278400)
I0419 07:38:54.232692 27404 net.cpp:137] Memory required for data: 1328338116
I0419 07:38:54.232700 27404 layer_factory.hpp:77] Creating layer relu4_3-R
I0419 07:38:54.232710 27404 net.cpp:84] Creating Layer relu4_3-R
I0419 07:38:54.232715 27404 net.cpp:406] relu4_3-R <- conv4_3-R
I0419 07:38:54.232722 27404 net.cpp:367] relu4_3-R -> conv4_3-R (in-place)
I0419 07:38:54.233995 27404 net.cpp:122] Setting up relu4_3-R
I0419 07:38:54.234014 27404 net.cpp:129] Top shape: 1 512 89 50 (2278400)
I0419 07:38:54.234030 27404 net.cpp:137] Memory required for data: 1337451716
I0419 07:38:54.234035 27404 layer_factory.hpp:77] Creating layer pool4-R
I0419 07:38:54.234043 27404 net.cpp:84] Creating Layer pool4-R
I0419 07:38:54.234050 27404 net.cpp:406] pool4-R <- conv4_3-R
I0419 07:38:54.234058 27404 net.cpp:380] pool4-R -> pool4-R
I0419 07:38:54.234133 27404 net.cpp:122] Setting up pool4-R
I0419 07:38:54.234153 27404 net.cpp:129] Top shape: 1 512 45 25 (576000)
I0419 07:38:54.234158 27404 net.cpp:137] Memory required for data: 1339755716
I0419 07:38:54.234170 27404 layer_factory.hpp:77] Creating layer pool4-R_pool4-R_0_split
I0419 07:38:54.234177 27404 net.cpp:84] Creating Layer pool4-R_pool4-R_0_split
I0419 07:38:54.234192 27404 net.cpp:406] pool4-R_pool4-R_0_split <- pool4-R
I0419 07:38:54.234200 27404 net.cpp:380] pool4-R_pool4-R_0_split -> pool4-R_pool4-R_0_split_0
I0419 07:38:54.234207 27404 net.cpp:380] pool4-R_pool4-R_0_split -> pool4-R_pool4-R_0_split_1
I0419 07:38:54.234257 27404 net.cpp:122] Setting up pool4-R_pool4-R_0_split
I0419 07:38:54.234264 27404 net.cpp:129] Top shape: 1 512 45 25 (576000)
I0419 07:38:54.234269 27404 net.cpp:129] Top shape: 1 512 45 25 (576000)
I0419 07:38:54.234273 27404 net.cpp:137] Memory required for data: 1344363716
I0419 07:38:54.234277 27404 layer_factory.hpp:77] Creating layer conv5_1-R
I0419 07:38:54.234287 27404 net.cpp:84] Creating Layer conv5_1-R
I0419 07:38:54.234292 27404 net.cpp:406] conv5_1-R <- pool4-R_pool4-R_0_split_0
I0419 07:38:54.234298 27404 net.cpp:380] conv5_1-R -> conv5_1-R
I0419 07:38:54.242895 27404 net.cpp:122] Setting up conv5_1-R
I0419 07:38:54.242929 27404 net.cpp:129] Top shape: 1 512 45 25 (576000)
I0419 07:38:54.242935 27404 net.cpp:137] Memory required for data: 1346667716
I0419 07:38:54.242961 27404 layer_factory.hpp:77] Creating layer relu5_1-R
I0419 07:38:54.242971 27404 net.cpp:84] Creating Layer relu5_1-R
I0419 07:38:54.242976 27404 net.cpp:406] relu5_1-R <- conv5_1-R
I0419 07:38:54.242995 27404 net.cpp:367] relu5_1-R -> conv5_1-R (in-place)
I0419 07:38:54.243221 27404 net.cpp:122] Setting up relu5_1-R
I0419 07:38:54.243234 27404 net.cpp:129] Top shape: 1 512 45 25 (576000)
I0419 07:38:54.243238 27404 net.cpp:137] Memory required for data: 1348971716
I0419 07:38:54.243243 27404 layer_factory.hpp:77] Creating layer conv5_2-R
I0419 07:38:54.243254 27404 net.cpp:84] Creating Layer conv5_2-R
I0419 07:38:54.243259 27404 net.cpp:406] conv5_2-R <- conv5_1-R
I0419 07:38:54.243268 27404 net.cpp:380] conv5_2-R -> conv5_2-R
I0419 07:38:54.252074 27404 net.cpp:122] Setting up conv5_2-R
I0419 07:38:54.252095 27404 net.cpp:129] Top shape: 1 512 45 25 (576000)
I0419 07:38:54.252100 27404 net.cpp:137] Memory required for data: 1351275716
I0419 07:38:54.252111 27404 layer_factory.hpp:77] Creating layer relu5_2-R
I0419 07:38:54.252120 27404 net.cpp:84] Creating Layer relu5_2-R
I0419 07:38:54.252125 27404 net.cpp:406] relu5_2-R <- conv5_2-R
I0419 07:38:54.252132 27404 net.cpp:367] relu5_2-R -> conv5_2-R (in-place)
I0419 07:38:54.252372 27404 net.cpp:122] Setting up relu5_2-R
I0419 07:38:54.252385 27404 net.cpp:129] Top shape: 1 512 45 25 (576000)
I0419 07:38:54.252389 27404 net.cpp:137] Memory required for data: 1353579716
I0419 07:38:54.252394 27404 layer_factory.hpp:77] Creating layer conv5_3-R
I0419 07:38:54.252405 27404 net.cpp:84] Creating Layer conv5_3-R
I0419 07:38:54.252409 27404 net.cpp:406] conv5_3-R <- conv5_2-R
I0419 07:38:54.252418 27404 net.cpp:380] conv5_3-R -> conv5_3-R
I0419 07:38:54.262336 27404 net.cpp:122] Setting up conv5_3-R
I0419 07:38:54.262375 27404 net.cpp:129] Top shape: 1 512 45 25 (576000)
I0419 07:38:54.262380 27404 net.cpp:137] Memory required for data: 1355883716
I0419 07:38:54.262390 27404 layer_factory.hpp:77] Creating layer relu5_3-R
I0419 07:38:54.262403 27404 net.cpp:84] Creating Layer relu5_3-R
I0419 07:38:54.262409 27404 net.cpp:406] relu5_3-R <- conv5_3-R
I0419 07:38:54.262418 27404 net.cpp:367] relu5_3-R -> conv5_3-R (in-place)
I0419 07:38:54.262651 27404 net.cpp:122] Setting up relu5_3-R
I0419 07:38:54.262663 27404 net.cpp:129] Top shape: 1 512 45 25 (576000)
I0419 07:38:54.262668 27404 net.cpp:137] Memory required for data: 1358187716
I0419 07:38:54.262672 27404 layer_factory.hpp:77] Creating layer pool5-R
I0419 07:38:54.262681 27404 net.cpp:84] Creating Layer pool5-R
I0419 07:38:54.262686 27404 net.cpp:406] pool5-R <- conv5_3-R
I0419 07:38:54.262696 27404 net.cpp:380] pool5-R -> pool5-R
I0419 07:38:54.262753 27404 net.cpp:122] Setting up pool5-R
I0419 07:38:54.262763 27404 net.cpp:129] Top shape: 1 512 23 13 (153088)
I0419 07:38:54.262768 27404 net.cpp:137] Memory required for data: 1358800068
I0419 07:38:54.262771 27404 layer_factory.hpp:77] Creating layer fc6-R
I0419 07:38:54.262782 27404 net.cpp:84] Creating Layer fc6-R
I0419 07:38:54.262787 27404 net.cpp:406] fc6-R <- pool5-R
I0419 07:38:54.262794 27404 net.cpp:380] fc6-R -> fc6-R
I0419 07:38:54.573974 27404 net.cpp:122] Setting up fc6-R
I0419 07:38:54.574020 27404 net.cpp:129] Top shape: 1 4096 17 7 (487424)
I0419 07:38:54.574024 27404 net.cpp:137] Memory required for data: 1360749764
I0419 07:38:54.574035 27404 layer_factory.hpp:77] Creating layer relu6-R
I0419 07:38:54.574049 27404 net.cpp:84] Creating Layer relu6-R
I0419 07:38:54.574056 27404 net.cpp:406] relu6-R <- fc6-R
I0419 07:38:54.574064 27404 net.cpp:367] relu6-R -> fc6-R (in-place)
I0419 07:38:54.574286 27404 net.cpp:122] Setting up relu6-R
I0419 07:38:54.574296 27404 net.cpp:129] Top shape: 1 4096 17 7 (487424)
I0419 07:38:54.574301 27404 net.cpp:137] Memory required for data: 1362699460
I0419 07:38:54.574303 27404 layer_factory.hpp:77] Creating layer drop6-R
I0419 07:38:54.574321 27404 net.cpp:84] Creating Layer drop6-R
I0419 07:38:54.574324 27404 net.cpp:406] drop6-R <- fc6-R
I0419 07:38:54.574331 27404 net.cpp:367] drop6-R -> fc6-R (in-place)
I0419 07:38:54.574368 27404 net.cpp:122] Setting up drop6-R
I0419 07:38:54.574373 27404 net.cpp:129] Top shape: 1 4096 17 7 (487424)
I0419 07:38:54.574376 27404 net.cpp:137] Memory required for data: 1364649156
I0419 07:38:54.574380 27404 layer_factory.hpp:77] Creating layer fc7-R
I0419 07:38:54.574393 27404 net.cpp:84] Creating Layer fc7-R
I0419 07:38:54.574395 27404 net.cpp:406] fc7-R <- fc6-R
I0419 07:38:54.574403 27404 net.cpp:380] fc7-R -> fc7-R
I0419 07:38:54.629176 27404 net.cpp:122] Setting up fc7-R
I0419 07:38:54.629230 27404 net.cpp:129] Top shape: 1 4096 17 7 (487424)
I0419 07:38:54.629235 27404 net.cpp:137] Memory required for data: 1366598852
I0419 07:38:54.629248 27404 layer_factory.hpp:77] Creating layer relu7-R
I0419 07:38:54.629261 27404 net.cpp:84] Creating Layer relu7-R
I0419 07:38:54.629269 27404 net.cpp:406] relu7-R <- fc7-R
I0419 07:38:54.629277 27404 net.cpp:367] relu7-R -> fc7-R (in-place)
I0419 07:38:54.629493 27404 net.cpp:122] Setting up relu7-R
I0419 07:38:54.629504 27404 net.cpp:129] Top shape: 1 4096 17 7 (487424)
I0419 07:38:54.629508 27404 net.cpp:137] Memory required for data: 1368548548
I0419 07:38:54.629510 27404 layer_factory.hpp:77] Creating layer drop7-R
I0419 07:38:54.629519 27404 net.cpp:84] Creating Layer drop7-R
I0419 07:38:54.629523 27404 net.cpp:406] drop7-R <- fc7-R
I0419 07:38:54.629528 27404 net.cpp:367] drop7-R -> fc7-R (in-place)
I0419 07:38:54.629565 27404 net.cpp:122] Setting up drop7-R
I0419 07:38:54.629571 27404 net.cpp:129] Top shape: 1 4096 17 7 (487424)
I0419 07:38:54.629575 27404 net.cpp:137] Memory required for data: 1370498244
I0419 07:38:54.629577 27404 layer_factory.hpp:77] Creating layer score_fr-new-R
I0419 07:38:54.629588 27404 net.cpp:84] Creating Layer score_fr-new-R
I0419 07:38:54.629592 27404 net.cpp:406] score_fr-new-R <- fc7-R
I0419 07:38:54.629598 27404 net.cpp:380] score_fr-new-R -> score_fr-new-R
I0419 07:38:54.630916 27404 net.cpp:122] Setting up score_fr-new-R
I0419 07:38:54.630929 27404 net.cpp:129] Top shape: 1 3 17 7 (357)
I0419 07:38:54.630934 27404 net.cpp:137] Memory required for data: 1370499672
I0419 07:38:54.630939 27404 layer_factory.hpp:77] Creating layer upscore2-new-R
I0419 07:38:54.630952 27404 net.cpp:84] Creating Layer upscore2-new-R
I0419 07:38:54.630956 27404 net.cpp:406] upscore2-new-R <- score_fr-new-R
I0419 07:38:54.630962 27404 net.cpp:380] upscore2-new-R -> upscore2-new-R
I0419 07:38:54.631178 27404 net.cpp:122] Setting up upscore2-new-R
I0419 07:38:54.631187 27404 net.cpp:129] Top shape: 1 3 36 16 (1728)
I0419 07:38:54.631191 27404 net.cpp:137] Memory required for data: 1370506584
I0419 07:38:54.631194 27404 layer_factory.hpp:77] Creating layer upscore2-new-R_upscore2-new-R_0_split
I0419 07:38:54.631201 27404 net.cpp:84] Creating Layer upscore2-new-R_upscore2-new-R_0_split
I0419 07:38:54.631204 27404 net.cpp:406] upscore2-new-R_upscore2-new-R_0_split <- upscore2-new-R
I0419 07:38:54.631209 27404 net.cpp:380] upscore2-new-R_upscore2-new-R_0_split -> upscore2-new-R_upscore2-new-R_0_split_0
I0419 07:38:54.631216 27404 net.cpp:380] upscore2-new-R_upscore2-new-R_0_split -> upscore2-new-R_upscore2-new-R_0_split_1
I0419 07:38:54.631250 27404 net.cpp:122] Setting up upscore2-new-R_upscore2-new-R_0_split
I0419 07:38:54.631255 27404 net.cpp:129] Top shape: 1 3 36 16 (1728)
I0419 07:38:54.631259 27404 net.cpp:129] Top shape: 1 3 36 16 (1728)
I0419 07:38:54.631263 27404 net.cpp:137] Memory required for data: 1370520408
I0419 07:38:54.631265 27404 layer_factory.hpp:77] Creating layer score_pool4-new-R
I0419 07:38:54.631289 27404 net.cpp:84] Creating Layer score_pool4-new-R
I0419 07:38:54.631294 27404 net.cpp:406] score_pool4-new-R <- pool4-R_pool4-R_0_split_1
I0419 07:38:54.631299 27404 net.cpp:380] score_pool4-new-R -> score_pool4-new-R
I0419 07:38:54.632501 27404 net.cpp:122] Setting up score_pool4-new-R
I0419 07:38:54.632514 27404 net.cpp:129] Top shape: 1 3 45 25 (3375)
I0419 07:38:54.632519 27404 net.cpp:137] Memory required for data: 1370533908
I0419 07:38:54.632524 27404 layer_factory.hpp:77] Creating layer score_pool4c-R
I0419 07:38:54.632534 27404 net.cpp:84] Creating Layer score_pool4c-R
I0419 07:38:54.632537 27404 net.cpp:406] score_pool4c-R <- score_pool4-new-R
I0419 07:38:54.632541 27404 net.cpp:406] score_pool4c-R <- upscore2-new-R_upscore2-new-R_0_split_0
I0419 07:38:54.632547 27404 net.cpp:380] score_pool4c-R -> score_pool4c-R
I0419 07:38:54.632578 27404 net.cpp:122] Setting up score_pool4c-R
I0419 07:38:54.632583 27404 net.cpp:129] Top shape: 1 3 36 16 (1728)
I0419 07:38:54.632586 27404 net.cpp:137] Memory required for data: 1370540820
I0419 07:38:54.632588 27404 layer_factory.hpp:77] Creating layer fuse_pool4-R
I0419 07:38:54.632596 27404 net.cpp:84] Creating Layer fuse_pool4-R
I0419 07:38:54.632599 27404 net.cpp:406] fuse_pool4-R <- upscore2-new-R_upscore2-new-R_0_split_1
I0419 07:38:54.632602 27404 net.cpp:406] fuse_pool4-R <- score_pool4c-R
I0419 07:38:54.632608 27404 net.cpp:380] fuse_pool4-R -> fuse_pool4-R
I0419 07:38:54.632635 27404 net.cpp:122] Setting up fuse_pool4-R
I0419 07:38:54.632639 27404 net.cpp:129] Top shape: 1 3 36 16 (1728)
I0419 07:38:54.632642 27404 net.cpp:137] Memory required for data: 1370547732
I0419 07:38:54.632645 27404 layer_factory.hpp:77] Creating layer upscore_pool4-new-R
I0419 07:38:54.632652 27404 net.cpp:84] Creating Layer upscore_pool4-new-R
I0419 07:38:54.632654 27404 net.cpp:406] upscore_pool4-new-R <- fuse_pool4-R
I0419 07:38:54.632660 27404 net.cpp:380] upscore_pool4-new-R -> upscore_pool4-new-R
I0419 07:38:54.632854 27404 net.cpp:122] Setting up upscore_pool4-new-R
I0419 07:38:54.632863 27404 net.cpp:129] Top shape: 1 3 74 34 (7548)
I0419 07:38:54.632864 27404 net.cpp:137] Memory required for data: 1370577924
I0419 07:38:54.632869 27404 layer_factory.hpp:77] Creating layer upscore_pool4-new-R_upscore_pool4-new-R_0_split
I0419 07:38:54.632889 27404 net.cpp:84] Creating Layer upscore_pool4-new-R_upscore_pool4-new-R_0_split
I0419 07:38:54.632894 27404 net.cpp:406] upscore_pool4-new-R_upscore_pool4-new-R_0_split <- upscore_pool4-new-R
I0419 07:38:54.632899 27404 net.cpp:380] upscore_pool4-new-R_upscore_pool4-new-R_0_split -> upscore_pool4-new-R_upscore_pool4-new-R_0_split_0
I0419 07:38:54.632903 27404 net.cpp:380] upscore_pool4-new-R_upscore_pool4-new-R_0_split -> upscore_pool4-new-R_upscore_pool4-new-R_0_split_1
I0419 07:38:54.632941 27404 net.cpp:122] Setting up upscore_pool4-new-R_upscore_pool4-new-R_0_split
I0419 07:38:54.632946 27404 net.cpp:129] Top shape: 1 3 74 34 (7548)
I0419 07:38:54.632949 27404 net.cpp:129] Top shape: 1 3 74 34 (7548)
I0419 07:38:54.632953 27404 net.cpp:137] Memory required for data: 1370638308
I0419 07:38:54.632956 27404 layer_factory.hpp:77] Creating layer score_pool3-new-R
I0419 07:38:54.632966 27404 net.cpp:84] Creating Layer score_pool3-new-R
I0419 07:38:54.632971 27404 net.cpp:406] score_pool3-new-R <- pool3-R_pool3-R_0_split_1
I0419 07:38:54.632975 27404 net.cpp:380] score_pool3-new-R -> score_pool3-new-R
I0419 07:38:54.634272 27404 net.cpp:122] Setting up score_pool3-new-R
I0419 07:38:54.634286 27404 net.cpp:129] Top shape: 1 3 89 50 (13350)
I0419 07:38:54.634305 27404 net.cpp:137] Memory required for data: 1370691708
I0419 07:38:54.634311 27404 layer_factory.hpp:77] Creating layer score_pool3c-R
I0419 07:38:54.634320 27404 net.cpp:84] Creating Layer score_pool3c-R
I0419 07:38:54.634325 27404 net.cpp:406] score_pool3c-R <- score_pool3-new-R
I0419 07:38:54.634330 27404 net.cpp:406] score_pool3c-R <- upscore_pool4-new-R_upscore_pool4-new-R_0_split_0
I0419 07:38:54.634336 27404 net.cpp:380] score_pool3c-R -> score_pool3c-R
I0419 07:38:54.634389 27404 net.cpp:122] Setting up score_pool3c-R
I0419 07:38:54.634394 27404 net.cpp:129] Top shape: 1 3 74 34 (7548)
I0419 07:38:54.634397 27404 net.cpp:137] Memory required for data: 1370721900
I0419 07:38:54.634400 27404 layer_factory.hpp:77] Creating layer fuse_pool3-R
I0419 07:38:54.634408 27404 net.cpp:84] Creating Layer fuse_pool3-R
I0419 07:38:54.634413 27404 net.cpp:406] fuse_pool3-R <- upscore_pool4-new-R_upscore_pool4-new-R_0_split_1
I0419 07:38:54.634416 27404 net.cpp:406] fuse_pool3-R <- score_pool3c-R
I0419 07:38:54.634420 27404 net.cpp:380] fuse_pool3-R -> fuse_pool3-R
I0419 07:38:54.634446 27404 net.cpp:122] Setting up fuse_pool3-R
I0419 07:38:54.634451 27404 net.cpp:129] Top shape: 1 3 74 34 (7548)
I0419 07:38:54.634454 27404 net.cpp:137] Memory required for data: 1370752092
I0419 07:38:54.634456 27404 layer_factory.hpp:77] Creating layer upscore8-new-R
I0419 07:38:54.634465 27404 net.cpp:84] Creating Layer upscore8-new-R
I0419 07:38:54.634469 27404 net.cpp:406] upscore8-new-R <- fuse_pool3-R
I0419 07:38:54.634474 27404 net.cpp:380] upscore8-new-R -> upscore8-new-R
I0419 07:38:54.634721 27404 net.cpp:122] Setting up upscore8-new-R
I0419 07:38:54.634730 27404 net.cpp:129] Top shape: 1 3 600 280 (504000)
I0419 07:38:54.634733 27404 net.cpp:137] Memory required for data: 1372768092
I0419 07:38:54.634738 27404 layer_factory.hpp:77] Creating layer upscore8_cropped-R
I0419 07:38:54.634744 27404 net.cpp:84] Creating Layer upscore8_cropped-R
I0419 07:38:54.634748 27404 net.cpp:406] upscore8_cropped-R <- upscore8-new-R
I0419 07:38:54.634753 27404 net.cpp:406] upscore8_cropped-R <- data-R_crop_0_split_1
I0419 07:38:54.634758 27404 net.cpp:380] upscore8_cropped-R -> upscore8_cropped-R
I0419 07:38:54.634785 27404 net.cpp:122] Setting up upscore8_cropped-R
I0419 07:38:54.634790 27404 net.cpp:129] Top shape: 1 3 512 199 (305664)
I0419 07:38:54.634793 27404 net.cpp:137] Memory required for data: 1373990748
I0419 07:38:54.634796 27404 layer_factory.hpp:77] Creating layer score-R
I0419 07:38:54.634804 27404 net.cpp:84] Creating Layer score-R
I0419 07:38:54.634806 27404 net.cpp:406] score-R <- upscore8_cropped-R
I0419 07:38:54.634812 27404 net.cpp:380] score-R -> score-R
I0419 07:38:54.638509 27404 net.cpp:122] Setting up score-R
I0419 07:38:54.638577 27404 net.cpp:129] Top shape: 1 3 512 199 (305664)
I0419 07:38:54.638586 27404 net.cpp:137] Memory required for data: 1375213404
I0419 07:38:54.638607 27404 layer_factory.hpp:77] Creating layer score_uncropped-R
I0419 07:38:54.639194 27404 net.cpp:84] Creating Layer score_uncropped-R
I0419 07:38:54.639230 27404 net.cpp:406] score_uncropped-R <- crop_info
I0419 07:38:54.639245 27404 net.cpp:406] score_uncropped-R <- score-R
I0419 07:38:54.639255 27404 net.cpp:406] score_uncropped-R <- data_data_0_split_3
I0419 07:38:54.639277 27404 net.cpp:380] score_uncropped-R -> score_uncropped-R
I0419 07:38:54.642133 27404 net.cpp:122] Setting up score_uncropped-R
I0419 07:38:54.642221 27404 net.cpp:129] Top shape: 1 3 512 199 (305664)
I0419 07:38:54.642238 27404 net.cpp:137] Memory required for data: 1376436060
I0419 07:38:54.642247 27404 layer_factory.hpp:77] Creating layer loss1
I0419 07:38:54.642274 27404 net.cpp:84] Creating Layer loss1
I0419 07:38:54.642287 27404 net.cpp:406] loss1 <- score_score_0_split_1
I0419 07:38:54.642297 27404 net.cpp:406] loss1 <- label_data_1_split_1
I0419 07:38:54.642309 27404 net.cpp:380] loss1 -> loss1
…
