…
snapshot_prefix: "/media/Med_2T2/data2/models/snapshots/indiv:1e-5x10,20/FD2:XI3_1_20180715_091946/train"
test_initialization: false
average_loss: 20
stepvalue: 40000
iter_size: 1
I0715 09:19:47.035500 12952 solver.cpp:77] Creating training net from train_net file: /media/Med_2T2/data2/prototxts/training_S3x10.prototxt
I0715 09:19:47.038270 12952 net.cpp:51] Initializing net from parameters: 
state {
  phase: TRAIN
}
layer {
  name: "data"
  type: "Python"
  top: "data"
  top: "label"
  top: "crop_margin"
  top: "crop_prob"
  top: "crop_sample_batch"
  python_param {
    module: "Data"
    layer: "DataLayer"
  }
}
layer {
  name: "conv1_1"
  type: "Convolution"
  bottom: "data"
  top: "conv1_1"
  param {
    lr_mult: 1
    decay_mult: 1
  }
  param {
    lr_mult: 2
    decay_mult: 0
  }
  convolution_param {
    num_output: 64
    pad: 100
    kernel_size: 3
    stride: 1
  }
}
layer {
  name: "relu1_1"
  type: "ReLU"
  bottom: "conv1_1"
  top: "conv1_1"
}
layer {
  name: "conv1_2"
  type: "Convolution"
  bottom: "conv1_1"
  top: "conv1_2"
  param {
    lr_mult: 1
    decay_mult: 1
  }
  param {
    lr_mult: 2
    decay_mult: 0
  }
  convolution_param {
    num_output: 64
    pad: 1
    kernel_size: 3
    stride: 1
  }
}
layer {
  name: "relu1_2"
  type: "ReLU"
  bottom: "conv1_2"
  top: "conv1_2"
}
layer {
  name: "pool1"
  type: "Pooling"
  bottom: "conv1_2"
  top: "pool1"
  pooling_param {
    pool: MAX
    kernel_size: 2
    stride: 2
  }
}
layer {
  name: "conv2_1"
  type: "Convolution"
  bottom: "pool1"
  top: "conv2_1"
  param {
    lr_mult: 1
    decay_mult: 1
  }
  param {
    lr_mult: 2
    decay_mult: 0
  }
  convolution_param {
    num_output: 128
    pad: 1
    kernel_size: 3
    stride: 1
  }
}
layer {
  name: "relu2_1"
  type: "ReLU"
  bottom: "conv2_1"
  top: "conv2_1"
}
layer {
  name: "conv2_2"
  type: "Convolution"
  bottom: "conv2_1"
  top: "conv2_2"
  param {
    lr_mult: 1
    decay_mult: 1
  }
  param {
    lr_mult: 2
    decay_mult: 0
  }
  convolution_param {
    num_output: 128
    pad: 1
    kernel_size: 3
    stride: 1
  }
}
layer {
  name: "relu2_2"
  type: "ReLU"
  bottom: "conv2_2"
  top: "conv2_2"
}
layer {
  name: "pool2"
  type: "Pooling"
  bottom: "conv2_2"
  top: "pool2"
  pooling_param {
    pool: MAX
    kernel_size: 2
    stride: 2
  }
}
layer {
  name: "conv3_1"
  type: "Convolution"
  bottom: "pool2"
  top: "conv3_1"
  param {
    lr_mult: 1
    decay_mult: 1
  }
  param {
    lr_mult: 2
    decay_mult: 0
  }
  convolution_param {
    num_output: 256
    pad: 1
    kernel_size: 3
    stride: 1
  }
}
layer {
  name: "relu3_1"
  type: "ReLU"
  bottom: "conv3_1"
  top: "conv3_1"
}
layer {
  name: "conv3_2"
  type: "Convolution"
  bottom: "conv3_1"
  top: "conv3_2"
  param {
    lr_mult: 1
    decay_mult: 1
  }
  param {
    lr_mult: 2
    decay_mult: 0
  }
  convolution_param {
    num_output: 256
    pad: 1
    kernel_size: 3
    stride: 1
  }
}
layer {
  name: "relu3_2"
  type: "ReLU"
  bottom: "conv3_2"
  top: "conv3_2"
}
layer {
  name: "conv3_3"
  type: "Convolution"
  bottom: "conv3_2"
  top: "conv3_3"
  param {
    lr_mult: 1
    decay_mult: 1
  }
  param {
    lr_mult: 2
    decay_mult: 0
  }
  convolution_param {
    num_output: 256
    pad: 1
    kernel_size: 3
    stride: 1
  }
}
layer {
  name: "relu3_3"
  type: "ReLU"
  bottom: "conv3_3"
  top: "conv3_3"
}
layer {
  name: "pool3"
  type: "Pooling"
  bottom: "conv3_3"
  top: "pool3"
  pooling_param {
    pool: MAX
    kernel_size: 2
    stride: 2
  }
}
layer {
  name: "conv4_1"
  type: "Convolution"
  bottom: "pool3"
  top: "conv4_1"
  param {
    lr_mult: 1
    decay_mult: 1
  }
  param {
    lr_mult: 2
    decay_mult: 0
  }
  convolution_param {
    num_output: 512
    pad: 1
    kernel_size: 3
    stride: 1
  }
}
layer {
  name: "relu4_1"
  type: "ReLU"
  bottom: "conv4_1"
  top: "conv4_1"
}
layer {
  name: "conv4_2"
  type: "Convolution"
  bottom: "conv4_1"
  top: "conv4_2"
  param {
    lr_mult: 1
    decay_mult: 1
  }
  param {
    lr_mult: 2
    decay_mult: 0
  }
  convolution_param {
    num_output: 512
    pad: 1
    kernel_size: 3
    stride: 1
  }
}
layer {
  name: "relu4_2"
  type: "ReLU"
  bottom: "conv4_2"
  top: "conv4_2"
}
layer {
  name: "conv4_3"
  type: "Convolution"
  bottom: "conv4_2"
  top: "conv4_3"
  param {
    lr_mult: 1
    decay_mult: 1
  }
  param {
    lr_mult: 2
    decay_mult: 0
  }
  convolution_param {
    num_output: 512
    pad: 1
    kernel_size: 3
    stride: 1
  }
}
layer {
  name: "relu4_3"
  type: "ReLU"
  bottom: "conv4_3"
  top: "conv4_3"
}
layer {
  name: "pool4"
  type: "Pooling"
  bottom: "conv4_3"
  top: "pool4"
  pooling_param {
    pool: MAX
    kernel_size: 2
    stride: 2
  }
}
layer {
  name: "conv5_1"
  type: "Convolution"
  bottom: "pool4"
  top: "conv5_1"
  param {
    lr_mult: 1
    decay_mult: 1
  }
  param {
    lr_mult: 2
    decay_mult: 0
  }
  convolution_param {
    num_output: 512
    pad: 1
    kernel_size: 3
    stride: 1
  }
}
layer {
  name: "relu5_1"
  type: "ReLU"
  bottom: "conv5_1"
  top: "conv5_1"
}
layer {
  name: "conv5_2"
  type: "Convolution"
  bottom: "conv5_1"
  top: "conv5_2"
  param {
    lr_mult: 1
    decay_mult: 1
  }
  param {
    lr_mult: 2
    decay_mult: 0
  }
  convolution_param {
    num_output: 512
    pad: 1
    kernel_size: 3
    stride: 1
  }
}
layer {
  name: "relu5_2"
  type: "ReLU"
  bottom: "conv5_2"
  top: "conv5_2"
}
layer {
  name: "conv5_3"
  type: "Convolution"
  bottom: "conv5_2"
  top: "conv5_3"
  param {
    lr_mult: 1
    decay_mult: 1
  }
  param {
    lr_mult: 2
    decay_mult: 0
  }
  convolution_param {
    num_output: 512
    pad: 1
    kernel_size: 3
    stride: 1
  }
}
layer {
  name: "relu5_3"
  type: "ReLU"
  bottom: "conv5_3"
  top: "conv5_3"
}
layer {
  name: "pool5"
  type: "Pooling"
  bottom: "conv5_3"
  top: "pool5"
  pooling_param {
    pool: MAX
    kernel_size: 2
    stride: 2
  }
}
layer {
  name: "fc6"
  type: "Convolution"
  bottom: "pool5"
  top: "fc6"
  param {
    lr_mult: 1
    decay_mult: 1
  }
  param {
    lr_mult: 2
    decay_mult: 0
  }
  convolution_param {
    num_output: 4096
    pad: 0
    kernel_size: 7
    stride: 1
  }
}
layer {
  name: "relu6"
  type: "ReLU"
  bottom: "fc6"
  top: "fc6"
}
layer {
  name: "drop6"
  type: "Dropout"
  bottom: "fc6"
  top: "fc6"
  dropout_param {
    dropout_ratio: 0.5
  }
}
layer {
  name: "fc7"
  type: "Convolution"
  bottom: "fc6"
  top: "fc7"
  param {
    lr_mult: 1
    decay_mult: 1
  }
  param {
    lr_mult: 2
    decay_mult: 0
  }
  convolution_param {
    num_output: 4096
    pad: 0
    kernel_size: 1
    stride: 1
  }
}
layer {
  name: "relu7"
  type: "ReLU"
  bottom: "fc7"
  top: "fc7"
}
layer {
  name: "drop7"
  type: "Dropout"
  bottom: "fc7"
  top: "fc7"
  dropout_param {
    dropout_ratio: 0.5
  }
}
layer {
  name: "score_fr-new"
  type: "Convolution"
  bottom: "fc7"
  top: "score_fr-new"
  param {
    lr_mult: 1
    decay_mult: 1
  }
  param {
    lr_mult: 2
    decay_mult: 0
  }
  convolution_param {
    num_output: 3
    kernel_size: 1
  }
}
layer {
  name: "upscore2-new"
  type: "Deconvolution"
  bottom: "score_fr-new"
  top: "upscore2-new"
  param {
    lr_mult: 0
  }
  convolution_param {
    num_output: 3
    bias_term: false
    kernel_size: 4
    stride: 2
  }
}
layer {
  name: "score_pool4-new"
  type: "Convolution"
  bottom: "pool4"
  top: "score_pool4-new"
  param {
    lr_mult: 1
    decay_mult: 1
  }
  param {
    lr_mult: 2
    decay_mult: 0
  }
  convolution_param {
    num_output: 3
    pad: 0
    kernel_size: 1
  }
}
layer {
  name: "score_pool4c"
  type: "Crop"
  bottom: "score_pool4-new"
  bottom: "upscore2-new"
  top: "score_pool4c"
  crop_param {
    axis: 2
    offset: 5
  }
}
layer {
  name: "fuse_pool4"
  type: "Eltwise"
  bottom: "upscore2-new"
  bottom: "score_pool4c"
  top: "fuse_pool4"
  eltwise_param {
    operation: SUM
  }
}
layer {
  name: "upscore_pool4-new"
  type: "Deconvolution"
  bottom: "fuse_pool4"
  top: "upscore_pool4-new"
  param {
    lr_mult: 0
  }
  convolution_param {
    num_output: 3
    bias_term: false
    kernel_size: 4
    stride: 2
  }
}
layer {
  name: "score_pool3-new"
  type: "Convolution"
  bottom: "pool3"
  top: "score_pool3-new"
  param {
    lr_mult: 1
    decay_mult: 1
  }
  param {
    lr_mult: 2
    decay_mult: 0
  }
  convolution_param {
    num_output: 3
    pad: 0
    kernel_size: 1
  }
}
layer {
  name: "score_pool3c"
  type: "Crop"
  bottom: "score_pool3-new"
  bottom: "upscore_pool4-new"
  top: "score_pool3c"
  crop_param {
    axis: 2
    offset: 9
  }
}
layer {
  name: "fuse_pool3"
  type: "Eltwise"
  bottom: "upscore_pool4-new"
  bottom: "score_pool3c"
  top: "fuse_pool3"
  eltwise_param {
    operation: SUM
  }
}
layer {
  name: "upscore8-new"
  type: "Deconvolution"
  bottom: "fuse_pool3"
  top: "upscore8-new"
  param {
    lr_mult: 0
  }
  convolution_param {
    num_output: 3
    bias_term: false
    kernel_size: 16
    stride: 8
  }
}
layer {
  name: "upscore8_cropped"
  type: "Crop"
  bottom: "upscore8-new"
  bottom: "data"
  top: "upscore8_cropped"
  crop_param {
    axis: 2
    offset: 31
  }
}
layer {
  name: "prob"
  type: "Sigmoid"
  bottom: "upscore8_cropped"
  top: "prob"
}
layer {
  name: "saliency1"
  type: "Convolution"
  bottom: "prob"
  top: "saliency1"
  param {
    lr_mult: 10
    decay_mult: 1
  }
  param {
    lr_mult: 20
    decay_mult: 0
  }
  convolution_param {
    num_output: 3
    pad: 1
    kernel_size: 3
    stride: 1
    weight_filler {
      type: "xavier"
    }
    bias_filler {
      type: "constant"
      value: 1
    }
  }
}
layer {
  name: "relu_saliency1"
  type: "ReLU"
  bottom: "saliency1"
  top: "saliency1"
}
layer {
  name: "saliency"
  type: "Convolution"
  bottom: "saliency1"
  top: "saliency"
  param {
    lr_mult: 10
    decay_mult: 1
  }
  param {
    lr_mult: 20
    decay_mult: 0
  }
  convolution_param {
    num_output: 3
    pad: 2
    kernel_size: 5
    stride: 1
    weight_filler {
      type: "xavier"
    }
    bias_filler {
      type: "constant"
      value: 1
    }
  }
}
layer {
  name: "silence_saliency"
  type: "Silence"
  bottom: "saliency"
}
layer {
  name: "crop"
  type: "Python"
  bottom: "label"
  bottom: "data"
  bottom: "crop_margin"
  bottom: "crop_prob"
  bottom: "crop_sample_batch"
  top: "data-R"
  top: "crop_info"
  python_param {
    module: "Crop"
    layer: "CropLayer"
    param_str: "{\"TEST\": 0}"
  }
}
layer {
  name: "conv1_1-R"
  type: "Convolution"
  bottom: "data-R"
  top: "conv1_1-R"
  param {
    lr_mult: 10
    decay_mult: 1
  }
  param {
    lr_mult: 20
    decay_mult: 0
  }
  convolution_param {
    num_output: 64
    pad: 100
    kernel_size: 3
    stride: 1
  }
}
layer {
  name: "relu1_1-R"
  type: "ReLU"
  bottom: "conv1_1-R"
  top: "conv1_1-R"
}
layer {
  name: "conv1_2-R"
  type: "Convolution"
  bottom: "conv1_1-R"
  top: "conv1_2-R"
  param {
    lr_mult: 10
    decay_mult: 1
  }
  param {
    lr_mult: 20
    decay_mult: 0
  }
  convolution_param {
    num_output: 64
    pad: 1
    kernel_size: 3
    stride: 1
  }
}
layer {
  name: "relu1_2-R"
  type: "ReLU"
  bottom: "conv1_2-R"
  top: "conv1_2-R"
}
layer {
  name: "pool1-R"
  type: "Pooling"
  bottom: "conv1_2-R"
  top: "pool1-R"
  pooling_param {
    pool: MAX
    kernel_size: 2
    stride: 2
  }
}
layer {
  name: "conv2_1-R"
  type: "Convolution"
  bottom: "pool1-R"
  top: "conv2_1-R"
  param {
    lr_mult: 10
    decay_mult: 1
  }
  param {
    lr_mult: 20
    decay_mult: 0
  }
  convolution_param {
    num_output: 128
    pad: 1
    kernel_size: 3
    stride: 1
  }
}
layer {
  name: "relu2_1-R"
  type: "ReLU"
  bottom: "conv2_1-R"
  top: "conv2_1-R"
}
layer {
  name: "conv2_2-R"
  type: "Convolution"
  bottom: "conv2_1-R"
  top: "conv2_2-R"
  param {
    lr_mult: 10
    decay_mult: 1
  }
  param {
    lr_mult: 20
    decay_mult: 0
  }
  convolution_param {
    num_output: 128
    pad: 1
    kernel_size: 3
    stride: 1
  }
}
layer {
  name: "relu2_2-R"
  type: "ReLU"
  bottom: "conv2_2-R"
  top: "conv2_2-R"
}
layer {
  name: "pool2-R"
  type: "Pooling"
  bottom: "conv2_2-R"
  top: "pool2-R"
  pooling_param {
    pool: MAX
    kernel_size: 2
    stride: 2
  }
}
layer {
  name: "conv3_1-R"
  type: "Convolution"
  bottom: "pool2-R"
  top: "conv3_1-R"
  param {
    lr_mult: 10
    decay_mult: 1
  }
  param {
    lr_mult: 20
    decay_mult: 0
  }
  convolution_param {
    num_output: 256
    pad: 1
    kernel_size: 3
    stride: 1
  }
}
layer {
  name: "relu3_1-R"
  type: "ReLU"
  bottom: "conv3_1-R"
  top: "conv3_1-R"
}
layer {
  name: "conv3_2-R"
  type: "Convolution"
  bottom: "conv3_1-R"
  top: "conv3_2-R"
  param {
    lr_mult: 10
    decay_mult: 1
  }
  param {
    lr_mult: 20
    decay_mult: 0
  }
  convolution_param {
    num_output: 256
    pad: 1
    kernel_size: 3
    stride: 1
  }
}
layer {
  name: "relu3_2-R"
  type: "ReLU"
  bottom: "conv3_2-R"
  top: "conv3_2-R"
}
layer {
  name: "conv3_3-R"
  type: "Convolution"
  bottom: "conv3_2-R"
  top: "conv3_3-R"
  param {
    lr_mult: 10
    decay_mult: 1
  }
  param {
    lr_mult: 20
    decay_mult: 0
  }
  convolution_param {
    num_output: 256
    pad: 1
    kernel_size: 3
    stride: 1
  }
}
layer {
  name: "relu3_3-R"
  type: "ReLU"
  bottom: "conv3_3-R"
  top: "conv3_3-R"
}
layer {
  name: "pool3-R"
  type: "Pooling"
  bottom: "conv3_3-R"
  top: "pool3-R"
  pooling_param {
    pool: MAX
    kernel_size: 2
    stride: 2
  }
}
layer {
  name: "conv4_1-R"
  type: "Convolution"
  bottom: "pool3-R"
  top: "conv4_1-R"
  param {
    lr_mult: 10
    decay_mult: 1
  }
  param {
    lr_mult: 20
    decay_mult: 0
  }
  convolution_param {
    num_output: 512
    pad: 1
    kernel_size: 3
    stride: 1
  }
}
layer {
  name: "relu4_1-R"
  type: "ReLU"
  bottom: "conv4_1-R"
  top: "conv4_1-R"
}
layer {
  name: "conv4_2-R"
  type: "Convolution"
  bottom: "conv4_1-R"
  top: "conv4_2-R"
  param {
    lr_mult: 10
    decay_mult: 1
  }
  param {
    lr_mult: 20
    decay_mult: 0
  }
  convolution_param {
    num_output: 512
    pad: 1
    kernel_size: 3
    stride: 1
  }
}
layer {
  name: "relu4_2-R"
  type: "ReLU"
  bottom: "conv4_2-R"
  top: "conv4_2-R"
}
layer {
  name: "conv4_3-R"
  type: "Convolution"
  bottom: "conv4_2-R"
  top: "conv4_3-R"
  param {
    lr_mult: 10
    decay_mult: 1
  }
  param {
    lr_mult: 20
    decay_mult: 0
  }
  convolution_param {
    num_output: 512
    pad: 1
    kernel_size: 3
    stride: 1
  }
}
layer {
  name: "relu4_3-R"
  type: "ReLU"
  bottom: "conv4_3-R"
  top: "conv4_3-R"
}
layer {
  name: "pool4-R"
  type: "Pooling"
  bottom: "conv4_3-R"
  top: "pool4-R"
  pooling_param {
    pool: MAX
    kernel_size: 2
    stride: 2
  }
}
layer {
  name: "conv5_1-R"
  type: "Convolution"
  bottom: "pool4-R"
  top: "conv5_1-R"
  param {
    lr_mult: 10
    decay_mult: 1
  }
  param {
    lr_mult: 20
    decay_mult: 0
  }
  convolution_param {
    num_output: 512
    pad: 1
    kernel_size: 3
    stride: 1
  }
}
layer {
  name: "relu5_1-R"
  type: "ReLU"
  bottom: "conv5_1-R"
  top: "conv5_1-R"
}
layer {
  name: "conv5_2-R"
  type: "Convolution"
  bottom: "conv5_1-R"
  top: "conv5_2-R"
  param {
    lr_mult: 10
    decay_mult: 1
  }
  param {
    lr_mult: 20
    decay_mult: 0
  }
  convolution_param {
    num_output: 512
    pad: 1
    kernel_size: 3
    stride: 1
  }
}
layer {
  name: "relu5_2-R"
  type: "ReLU"
  bottom: "conv5_2-R"
  top: "conv5_2-R"
}
layer {
  name: "conv5_3-R"
  type: "Convolution"
  bottom: "conv5_2-R"
  top: "conv5_3-R"
  param {
    lr_mult: 10
    decay_mult: 1
  }
  param {
    lr_mult: 20
    decay_mult: 0
  }
  convolution_param {
    num_output: 512
    pad: 1
    kernel_size: 3
    stride: 1
  }
}
layer {
  name: "relu5_3-R"
  type: "ReLU"
  bottom: "conv5_3-R"
  top: "conv5_3-R"
}
layer {
  name: "pool5-R"
  type: "Pooling"
  bottom: "conv5_3-R"
  top: "pool5-R"
  pooling_param {
    pool: MAX
    kernel_size: 2
    stride: 2
  }
}
layer {
  name: "fc6-R"
  type: "Convolution"
  bottom: "pool5-R"
  top: "fc6-R"
  param {
    lr_mult: 10
    decay_mult: 1
  }
  param {
    lr_mult: 20
    decay_mult: 0
  }
  convolution_param {
    num_output: 4096
    pad: 0
    kernel_size: 7
    stride: 1
  }
}
layer {
  name: "relu6-R"
  type: "ReLU"
  bottom: "fc6-R"
  top: "fc6-R"
}
layer {
  name: "drop6-R"
  type: "Dropout"
  bottom: "fc6-R"
  top: "fc6-R"
  dropout_param {
    dropout_ratio: 0.5
  }
}
layer {
  name: "fc7-R"
  type: "Convolution"
  bottom: "fc6-R"
  top: "fc7-R"
  param {
    lr_mult: 10
    decay_mult: 1
  }
  param {
    lr_mult: 20
    decay_mult: 0
  }
  convolution_param {
    num_output: 4096
    pad: 0
    kernel_size: 1
    stride: 1
  }
}
layer {
  name: "relu7-R"
  type: "ReLU"
  bottom: "fc7-R"
  top: "fc7-R"
}
layer {
  name: "drop7-R"
  type: "Dropout"
  bottom: "fc7-R"
  top: "fc7-R"
  dropout_param {
    dropout_ratio: 0.5
  }
}
layer {
  name: "score_fr-new-R"
  type: "Convolution"
  bottom: "fc7-R"
  top: "score_fr-new-R"
  param {
    lr_mult: 10
    decay_mult: 1
  }
  param {
    lr_mult: 20
    decay_mult: 0
  }
  convolution_param {
    num_output: 3
    kernel_size: 1
  }
}
layer {
  name: "upscore2-new-R"
  type: "Deconvolution"
  bottom: "score_fr-new-R"
  top: "upscore2-new-R"
  param {
    lr_mult: 0
  }
  convolution_param {
    num_output: 3
    bias_term: false
    kernel_size: 4
    stride: 2
  }
}
layer {
  name: "score_pool4-new-R"
  type: "Convolution"
  bottom: "pool4-R"
  top: "score_pool4-new-R"
  param {
    lr_mult: 10
    decay_mult: 1
  }
  param {
    lr_mult: 20
    decay_mult: 0
  }
  convolution_param {
    num_output: 3
    pad: 0
    kernel_size: 1
  }
}
layer {
  name: "score_pool4c-R"
  type: "Crop"
  bottom: "score_pool4-new-R"
  bottom: "upscore2-new-R"
  top: "score_pool4c-R"
  crop_param {
    axis: 2
    offset: 5
  }
}
layer {
  name: "fuse_pool4-R"
  type: "Eltwise"
  bottom: "upscore2-new-R"
  bottom: "score_pool4c-R"
  top: "fuse_pool4-R"
  eltwise_param {
    operation: SUM
  }
}
layer {
  name: "upscore_pool4-new-R"
  type: "Deconvolution"
  bottom: "fuse_pool4-R"
  top: "upscore_pool4-new-R"
  param {
    lr_mult: 0
  }
  convolution_param {
    num_output: 3
    bias_term: false
    kernel_size: 4
    stride: 2
  }
}
layer {
  name: "score_pool3-new-R"
  type: "Convolution"
  bottom: "pool3-R"
  top: "score_pool3-new-R"
  param {
    lr_mult: 10
    decay_mult: 1
  }
  param {
    lr_mult: 20
    decay_mult: 0
  }
  convolution_param {
    num_output: 3
    pad: 0
    kernel_size: 1
  }
}
layer {
  name: "score_pool3c-R"
  type: "Crop"
  bottom: "score_pool3-new-R"
  bottom: "upscore_pool4-new-R"
  top: "score_pool3c-R"
  crop_param {
    axis: 2
    offset: 9
  }
}
layer {
  name: "fuse_pool3-R"
  type: "Eltwise"
  bottom: "upscore_pool4-new-R"
  bottom: "score_pool3c-R"
  top: "fuse_pool3-R"
  eltwise_param {
    operation: SUM
  }
}
layer {
  name: "upscore8-new-R"
  type: "Deconvolution"
  bottom: "fuse_pool3-R"
  top: "upscore8-new-R"
  param {
    lr_mult: 0
  }
  convolution_param {
    num_output: 3
    bias_term: false
    kernel_size: 16
    stride: 8
  }
}
layer {
  name: "upscore8_cropped-R"
  type: "Crop"
  bottom: "upscore8-new-R"
  bottom: "data-R"
  top: "upscore8_cropped-R"
  crop_param {
    axis: 2
    offset: 31
  }
}
layer {
  name: "upscore8_uncropped-R"
  type: "Python"
  bottom: "crop_info"
  bottom: "upscore8_cropped-R"
  bottom: "data"
  top: "upscore8_uncropped-R"
  python_param {
    module: "Uncrop"
    layer: "UncropLayer"
  }
}
layer {
  name: "loss1"
  type: "DiceLoss"
  bottom: "upscore8_cropped"
  bottom: "label"
  top: "loss1"
  loss_weight: 0.333333
}
layer {
  name: "loss2"
  type: "DiceLoss"
  bottom: "upscore8_uncropped-R"
  bottom: "label"
  top: "loss2"
  loss_weight: 0.666667
}
I0715 09:19:47.038836 12952 layer_factory.hpp:77] Creating layer data
I0715 09:19:47.039368 12952 net.cpp:84] Creating Layer data
I0715 09:19:47.039386 12952 net.cpp:380] data -> data
I0715 09:19:47.039402 12952 net.cpp:380] data -> label
I0715 09:19:47.039410 12952 net.cpp:380] data -> crop_margin
I0715 09:19:47.039417 12952 net.cpp:380] data -> crop_prob
I0715 09:19:47.039424 12952 net.cpp:380] data -> crop_sample_batch
I0715 09:19:47.197230 12952 net.cpp:122] Setting up data
I0715 09:19:47.197286 12952 net.cpp:129] Top shape: 1 3 512 196 (301056)
I0715 09:19:47.197293 12952 net.cpp:129] Top shape: 1 3 512 196 (301056)
I0715 09:19:47.197297 12952 net.cpp:129] Top shape: 1 (1)
I0715 09:19:47.197301 12952 net.cpp:129] Top shape: 1 (1)
I0715 09:19:47.197304 12952 net.cpp:129] Top shape: 1 (1)
I0715 09:19:47.197307 12952 net.cpp:137] Memory required for data: 2408460
I0715 09:19:47.197314 12952 layer_factory.hpp:77] Creating layer data_data_0_split
I0715 09:19:47.197343 12952 net.cpp:84] Creating Layer data_data_0_split
I0715 09:19:47.197348 12952 net.cpp:406] data_data_0_split <- data
I0715 09:19:47.197360 12952 net.cpp:380] data_data_0_split -> data_data_0_split_0
I0715 09:19:47.197371 12952 net.cpp:380] data_data_0_split -> data_data_0_split_1
I0715 09:19:47.197377 12952 net.cpp:380] data_data_0_split -> data_data_0_split_2
I0715 09:19:47.197382 12952 net.cpp:380] data_data_0_split -> data_data_0_split_3
I0715 09:19:47.197428 12952 net.cpp:122] Setting up data_data_0_split
I0715 09:19:47.197437 12952 net.cpp:129] Top shape: 1 3 512 196 (301056)
I0715 09:19:47.197440 12952 net.cpp:129] Top shape: 1 3 512 196 (301056)
I0715 09:19:47.197444 12952 net.cpp:129] Top shape: 1 3 512 196 (301056)
I0715 09:19:47.197448 12952 net.cpp:129] Top shape: 1 3 512 196 (301056)
I0715 09:19:47.197451 12952 net.cpp:137] Memory required for data: 7225356
I0715 09:19:47.197461 12952 layer_factory.hpp:77] Creating layer label_data_1_split
I0715 09:19:47.197466 12952 net.cpp:84] Creating Layer label_data_1_split
I0715 09:19:47.197469 12952 net.cpp:406] label_data_1_split <- label
I0715 09:19:47.197474 12952 net.cpp:380] label_data_1_split -> label_data_1_split_0
I0715 09:19:47.197479 12952 net.cpp:380] label_data_1_split -> label_data_1_split_1
I0715 09:19:47.197484 12952 net.cpp:380] label_data_1_split -> label_data_1_split_2
I0715 09:19:47.197515 12952 net.cpp:122] Setting up label_data_1_split
I0715 09:19:47.197525 12952 net.cpp:129] Top shape: 1 3 512 196 (301056)
I0715 09:19:47.197527 12952 net.cpp:129] Top shape: 1 3 512 196 (301056)
I0715 09:19:47.197531 12952 net.cpp:129] Top shape: 1 3 512 196 (301056)
I0715 09:19:47.197535 12952 net.cpp:137] Memory required for data: 10838028
I0715 09:19:47.197537 12952 layer_factory.hpp:77] Creating layer conv1_1
I0715 09:19:47.197552 12952 net.cpp:84] Creating Layer conv1_1
I0715 09:19:47.197556 12952 net.cpp:406] conv1_1 <- data_data_0_split_0
I0715 09:19:47.197561 12952 net.cpp:380] conv1_1 -> conv1_1
I0715 09:19:47.498785 12952 net.cpp:122] Setting up conv1_1
I0715 09:19:47.498821 12952 net.cpp:129] Top shape: 1 64 710 394 (17903360)
I0715 09:19:47.498824 12952 net.cpp:137] Memory required for data: 82451468
I0715 09:19:47.498867 12952 layer_factory.hpp:77] Creating layer relu1_1
I0715 09:19:47.498884 12952 net.cpp:84] Creating Layer relu1_1
I0715 09:19:47.498890 12952 net.cpp:406] relu1_1 <- conv1_1
I0715 09:19:47.498898 12952 net.cpp:367] relu1_1 -> conv1_1 (in-place)
I0715 09:19:47.499125 12952 net.cpp:122] Setting up relu1_1
I0715 09:19:47.499136 12952 net.cpp:129] Top shape: 1 64 710 394 (17903360)
I0715 09:19:47.499140 12952 net.cpp:137] Memory required for data: 154064908
I0715 09:19:47.499145 12952 layer_factory.hpp:77] Creating layer conv1_2
I0715 09:19:47.499157 12952 net.cpp:84] Creating Layer conv1_2
I0715 09:19:47.499161 12952 net.cpp:406] conv1_2 <- conv1_1
I0715 09:19:47.499168 12952 net.cpp:380] conv1_2 -> conv1_2
I0715 09:19:47.503254 12952 net.cpp:122] Setting up conv1_2
I0715 09:19:47.503321 12952 net.cpp:129] Top shape: 1 64 710 394 (17903360)
I0715 09:19:47.503329 12952 net.cpp:137] Memory required for data: 225678348
I0715 09:19:47.503347 12952 layer_factory.hpp:77] Creating layer relu1_2
I0715 09:19:47.503357 12952 net.cpp:84] Creating Layer relu1_2
I0715 09:19:47.503362 12952 net.cpp:406] relu1_2 <- conv1_2
I0715 09:19:47.503370 12952 net.cpp:367] relu1_2 -> conv1_2 (in-place)
I0715 09:19:47.503587 12952 net.cpp:122] Setting up relu1_2
I0715 09:19:47.503597 12952 net.cpp:129] Top shape: 1 64 710 394 (17903360)
I0715 09:19:47.503602 12952 net.cpp:137] Memory required for data: 297291788
I0715 09:19:47.503605 12952 layer_factory.hpp:77] Creating layer pool1
I0715 09:19:47.503614 12952 net.cpp:84] Creating Layer pool1
I0715 09:19:47.503618 12952 net.cpp:406] pool1 <- conv1_2
I0715 09:19:47.503624 12952 net.cpp:380] pool1 -> pool1
I0715 09:19:47.503679 12952 net.cpp:122] Setting up pool1
I0715 09:19:47.503684 12952 net.cpp:129] Top shape: 1 64 355 197 (4475840)
I0715 09:19:47.503688 12952 net.cpp:137] Memory required for data: 315195148
I0715 09:19:47.503691 12952 layer_factory.hpp:77] Creating layer conv2_1
I0715 09:19:47.503705 12952 net.cpp:84] Creating Layer conv2_1
I0715 09:19:47.503708 12952 net.cpp:406] conv2_1 <- pool1
I0715 09:19:47.503715 12952 net.cpp:380] conv2_1 -> conv2_1
I0715 09:19:47.505400 12952 net.cpp:122] Setting up conv2_1
I0715 09:19:47.505430 12952 net.cpp:129] Top shape: 1 128 355 197 (8951680)
I0715 09:19:47.505434 12952 net.cpp:137] Memory required for data: 351001868
I0715 09:19:47.505445 12952 layer_factory.hpp:77] Creating layer relu2_1
I0715 09:19:47.505452 12952 net.cpp:84] Creating Layer relu2_1
I0715 09:19:47.505456 12952 net.cpp:406] relu2_1 <- conv2_1
I0715 09:19:47.505462 12952 net.cpp:367] relu2_1 -> conv2_1 (in-place)
I0715 09:19:47.505687 12952 net.cpp:122] Setting up relu2_1
I0715 09:19:47.505698 12952 net.cpp:129] Top shape: 1 128 355 197 (8951680)
I0715 09:19:47.505702 12952 net.cpp:137] Memory required for data: 386808588
I0715 09:19:47.505705 12952 layer_factory.hpp:77] Creating layer conv2_2
I0715 09:19:47.505715 12952 net.cpp:84] Creating Layer conv2_2
I0715 09:19:47.505719 12952 net.cpp:406] conv2_2 <- conv2_1
I0715 09:19:47.505728 12952 net.cpp:380] conv2_2 -> conv2_2
I0715 09:19:47.507534 12952 net.cpp:122] Setting up conv2_2
I0715 09:19:47.507565 12952 net.cpp:129] Top shape: 1 128 355 197 (8951680)
I0715 09:19:47.507570 12952 net.cpp:137] Memory required for data: 422615308
I0715 09:19:47.507577 12952 layer_factory.hpp:77] Creating layer relu2_2
I0715 09:19:47.507585 12952 net.cpp:84] Creating Layer relu2_2
I0715 09:19:47.507588 12952 net.cpp:406] relu2_2 <- conv2_2
I0715 09:19:47.507594 12952 net.cpp:367] relu2_2 -> conv2_2 (in-place)
I0715 09:19:47.507794 12952 net.cpp:122] Setting up relu2_2
I0715 09:19:47.507805 12952 net.cpp:129] Top shape: 1 128 355 197 (8951680)
I0715 09:19:47.507809 12952 net.cpp:137] Memory required for data: 458422028
I0715 09:19:47.507822 12952 layer_factory.hpp:77] Creating layer pool2
I0715 09:19:47.507830 12952 net.cpp:84] Creating Layer pool2
I0715 09:19:47.507833 12952 net.cpp:406] pool2 <- conv2_2
I0715 09:19:47.507841 12952 net.cpp:380] pool2 -> pool2
I0715 09:19:47.507884 12952 net.cpp:122] Setting up pool2
I0715 09:19:47.507890 12952 net.cpp:129] Top shape: 1 128 178 99 (2255616)
I0715 09:19:47.507894 12952 net.cpp:137] Memory required for data: 467444492
I0715 09:19:47.507897 12952 layer_factory.hpp:77] Creating layer conv3_1
I0715 09:19:47.507907 12952 net.cpp:84] Creating Layer conv3_1
I0715 09:19:47.507911 12952 net.cpp:406] conv3_1 <- pool2
I0715 09:19:47.507918 12952 net.cpp:380] conv3_1 -> conv3_1
I0715 09:19:47.511035 12952 net.cpp:122] Setting up conv3_1
I0715 09:19:47.511049 12952 net.cpp:129] Top shape: 1 256 178 99 (4511232)
I0715 09:19:47.511068 12952 net.cpp:137] Memory required for data: 485489420
I0715 09:19:47.511080 12952 layer_factory.hpp:77] Creating layer relu3_1
I0715 09:19:47.511087 12952 net.cpp:84] Creating Layer relu3_1
I0715 09:19:47.511091 12952 net.cpp:406] relu3_1 <- conv3_1
I0715 09:19:47.511096 12952 net.cpp:367] relu3_1 -> conv3_1 (in-place)
I0715 09:19:47.511814 12952 net.cpp:122] Setting up relu3_1
I0715 09:19:47.511843 12952 net.cpp:129] Top shape: 1 256 178 99 (4511232)
I0715 09:19:47.511847 12952 net.cpp:137] Memory required for data: 503534348
I0715 09:19:47.511850 12952 layer_factory.hpp:77] Creating layer conv3_2
I0715 09:19:47.511860 12952 net.cpp:84] Creating Layer conv3_2
I0715 09:19:47.511864 12952 net.cpp:406] conv3_2 <- conv3_1
I0715 09:19:47.511871 12952 net.cpp:380] conv3_2 -> conv3_2
I0715 09:19:47.514991 12952 net.cpp:122] Setting up conv3_2
I0715 09:19:47.515004 12952 net.cpp:129] Top shape: 1 256 178 99 (4511232)
I0715 09:19:47.515023 12952 net.cpp:137] Memory required for data: 521579276
I0715 09:19:47.515031 12952 layer_factory.hpp:77] Creating layer relu3_2
I0715 09:19:47.515040 12952 net.cpp:84] Creating Layer relu3_2
I0715 09:19:47.515044 12952 net.cpp:406] relu3_2 <- conv3_2
I0715 09:19:47.515050 12952 net.cpp:367] relu3_2 -> conv3_2 (in-place)
I0715 09:19:47.515765 12952 net.cpp:122] Setting up relu3_2
I0715 09:19:47.515779 12952 net.cpp:129] Top shape: 1 256 178 99 (4511232)
I0715 09:19:47.515799 12952 net.cpp:137] Memory required for data: 539624204
I0715 09:19:47.515802 12952 layer_factory.hpp:77] Creating layer conv3_3
I0715 09:19:47.515811 12952 net.cpp:84] Creating Layer conv3_3
I0715 09:19:47.515815 12952 net.cpp:406] conv3_3 <- conv3_2
I0715 09:19:47.515822 12952 net.cpp:380] conv3_3 -> conv3_3
I0715 09:19:47.519361 12952 net.cpp:122] Setting up conv3_3
I0715 09:19:47.519394 12952 net.cpp:129] Top shape: 1 256 178 99 (4511232)
I0715 09:19:47.519398 12952 net.cpp:137] Memory required for data: 557669132
I0715 09:19:47.519407 12952 layer_factory.hpp:77] Creating layer relu3_3
I0715 09:19:47.519414 12952 net.cpp:84] Creating Layer relu3_3
I0715 09:19:47.519419 12952 net.cpp:406] relu3_3 <- conv3_3
I0715 09:19:47.519425 12952 net.cpp:367] relu3_3 -> conv3_3 (in-place)
I0715 09:19:47.519636 12952 net.cpp:122] Setting up relu3_3
I0715 09:19:47.519647 12952 net.cpp:129] Top shape: 1 256 178 99 (4511232)
I0715 09:19:47.519651 12952 net.cpp:137] Memory required for data: 575714060
I0715 09:19:47.519655 12952 layer_factory.hpp:77] Creating layer pool3
I0715 09:19:47.519665 12952 net.cpp:84] Creating Layer pool3
I0715 09:19:47.519668 12952 net.cpp:406] pool3 <- conv3_3
I0715 09:19:47.519675 12952 net.cpp:380] pool3 -> pool3
I0715 09:19:47.519722 12952 net.cpp:122] Setting up pool3
I0715 09:19:47.519737 12952 net.cpp:129] Top shape: 1 256 89 50 (1139200)
I0715 09:19:47.519739 12952 net.cpp:137] Memory required for data: 580270860
I0715 09:19:47.519743 12952 layer_factory.hpp:77] Creating layer pool3_pool3_0_split
I0715 09:19:47.519750 12952 net.cpp:84] Creating Layer pool3_pool3_0_split
I0715 09:19:47.519763 12952 net.cpp:406] pool3_pool3_0_split <- pool3
I0715 09:19:47.519769 12952 net.cpp:380] pool3_pool3_0_split -> pool3_pool3_0_split_0
I0715 09:19:47.519776 12952 net.cpp:380] pool3_pool3_0_split -> pool3_pool3_0_split_1
I0715 09:19:47.519810 12952 net.cpp:122] Setting up pool3_pool3_0_split
I0715 09:19:47.519816 12952 net.cpp:129] Top shape: 1 256 89 50 (1139200)
I0715 09:19:47.519820 12952 net.cpp:129] Top shape: 1 256 89 50 (1139200)
I0715 09:19:47.519824 12952 net.cpp:137] Memory required for data: 589384460
I0715 09:19:47.519827 12952 layer_factory.hpp:77] Creating layer conv4_1
I0715 09:19:47.519837 12952 net.cpp:84] Creating Layer conv4_1
I0715 09:19:47.519841 12952 net.cpp:406] conv4_1 <- pool3_pool3_0_split_0
I0715 09:19:47.519848 12952 net.cpp:380] conv4_1 -> conv4_1
I0715 09:19:47.528126 12952 net.cpp:122] Setting up conv4_1
I0715 09:19:47.528156 12952 net.cpp:129] Top shape: 1 512 89 50 (2278400)
I0715 09:19:47.528162 12952 net.cpp:137] Memory required for data: 598498060
I0715 09:19:47.528172 12952 layer_factory.hpp:77] Creating layer relu4_1
I0715 09:19:47.528184 12952 net.cpp:84] Creating Layer relu4_1
I0715 09:19:47.528206 12952 net.cpp:406] relu4_1 <- conv4_1
I0715 09:19:47.528213 12952 net.cpp:367] relu4_1 -> conv4_1 (in-place)
I0715 09:19:47.528439 12952 net.cpp:122] Setting up relu4_1
I0715 09:19:47.528450 12952 net.cpp:129] Top shape: 1 512 89 50 (2278400)
I0715 09:19:47.528455 12952 net.cpp:137] Memory required for data: 607611660
I0715 09:19:47.528458 12952 layer_factory.hpp:77] Creating layer conv4_2
I0715 09:19:47.528470 12952 net.cpp:84] Creating Layer conv4_2
I0715 09:19:47.528475 12952 net.cpp:406] conv4_2 <- conv4_1
I0715 09:19:47.528481 12952 net.cpp:380] conv4_2 -> conv4_2
I0715 09:19:47.542256 12952 net.cpp:122] Setting up conv4_2
I0715 09:19:47.542302 12952 net.cpp:129] Top shape: 1 512 89 50 (2278400)
I0715 09:19:47.542331 12952 net.cpp:137] Memory required for data: 616725260
I0715 09:19:47.542389 12952 layer_factory.hpp:77] Creating layer relu4_2
I0715 09:19:47.542433 12952 net.cpp:84] Creating Layer relu4_2
I0715 09:19:47.542464 12952 net.cpp:406] relu4_2 <- conv4_2
I0715 09:19:47.542479 12952 net.cpp:367] relu4_2 -> conv4_2 (in-place)
I0715 09:19:47.542675 12952 net.cpp:122] Setting up relu4_2
I0715 09:19:47.542686 12952 net.cpp:129] Top shape: 1 512 89 50 (2278400)
I0715 09:19:47.542690 12952 net.cpp:137] Memory required for data: 625838860
I0715 09:19:47.542695 12952 layer_factory.hpp:77] Creating layer conv4_3
I0715 09:19:47.542717 12952 net.cpp:84] Creating Layer conv4_3
I0715 09:19:47.542721 12952 net.cpp:406] conv4_3 <- conv4_2
I0715 09:19:47.542729 12952 net.cpp:380] conv4_3 -> conv4_3
I0715 09:19:47.550801 12952 net.cpp:122] Setting up conv4_3
I0715 09:19:47.550823 12952 net.cpp:129] Top shape: 1 512 89 50 (2278400)
I0715 09:19:47.550828 12952 net.cpp:137] Memory required for data: 634952460
I0715 09:19:47.550837 12952 layer_factory.hpp:77] Creating layer relu4_3
I0715 09:19:47.550868 12952 net.cpp:84] Creating Layer relu4_3
I0715 09:19:47.550873 12952 net.cpp:406] relu4_3 <- conv4_3
I0715 09:19:47.550884 12952 net.cpp:367] relu4_3 -> conv4_3 (in-place)
I0715 09:19:47.551077 12952 net.cpp:122] Setting up relu4_3
I0715 09:19:47.551089 12952 net.cpp:129] Top shape: 1 512 89 50 (2278400)
I0715 09:19:47.551091 12952 net.cpp:137] Memory required for data: 644066060
I0715 09:19:47.551105 12952 layer_factory.hpp:77] Creating layer pool4
I0715 09:19:47.551118 12952 net.cpp:84] Creating Layer pool4
I0715 09:19:47.551123 12952 net.cpp:406] pool4 <- conv4_3
I0715 09:19:47.551139 12952 net.cpp:380] pool4 -> pool4
I0715 09:19:47.551187 12952 net.cpp:122] Setting up pool4
I0715 09:19:47.551195 12952 net.cpp:129] Top shape: 1 512 45 25 (576000)
I0715 09:19:47.551199 12952 net.cpp:137] Memory required for data: 646370060
I0715 09:19:47.551203 12952 layer_factory.hpp:77] Creating layer pool4_pool4_0_split
I0715 09:19:47.551208 12952 net.cpp:84] Creating Layer pool4_pool4_0_split
I0715 09:19:47.551213 12952 net.cpp:406] pool4_pool4_0_split <- pool4
I0715 09:19:47.551219 12952 net.cpp:380] pool4_pool4_0_split -> pool4_pool4_0_split_0
I0715 09:19:47.551224 12952 net.cpp:380] pool4_pool4_0_split -> pool4_pool4_0_split_1
I0715 09:19:47.551259 12952 net.cpp:122] Setting up pool4_pool4_0_split
I0715 09:19:47.551265 12952 net.cpp:129] Top shape: 1 512 45 25 (576000)
I0715 09:19:47.551270 12952 net.cpp:129] Top shape: 1 512 45 25 (576000)
I0715 09:19:47.551272 12952 net.cpp:137] Memory required for data: 650978060
I0715 09:19:47.551285 12952 layer_factory.hpp:77] Creating layer conv5_1
I0715 09:19:47.551297 12952 net.cpp:84] Creating Layer conv5_1
I0715 09:19:47.551303 12952 net.cpp:406] conv5_1 <- pool4_pool4_0_split_0
I0715 09:19:47.551313 12952 net.cpp:380] conv5_1 -> conv5_1
I0715 09:19:47.560220 12952 net.cpp:122] Setting up conv5_1
I0715 09:19:47.560252 12952 net.cpp:129] Top shape: 1 512 45 25 (576000)
I0715 09:19:47.560256 12952 net.cpp:137] Memory required for data: 653282060
I0715 09:19:47.560283 12952 layer_factory.hpp:77] Creating layer relu5_1
I0715 09:19:47.560308 12952 net.cpp:84] Creating Layer relu5_1
I0715 09:19:47.560315 12952 net.cpp:406] relu5_1 <- conv5_1
I0715 09:19:47.560328 12952 net.cpp:367] relu5_1 -> conv5_1 (in-place)
I0715 09:19:47.561024 12952 net.cpp:122] Setting up relu5_1
I0715 09:19:47.561039 12952 net.cpp:129] Top shape: 1 512 45 25 (576000)
I0715 09:19:47.561043 12952 net.cpp:137] Memory required for data: 655586060
I0715 09:19:47.561048 12952 layer_factory.hpp:77] Creating layer conv5_2
I0715 09:19:47.561084 12952 net.cpp:84] Creating Layer conv5_2
I0715 09:19:47.561087 12952 net.cpp:406] conv5_2 <- conv5_1
I0715 09:19:47.561096 12952 net.cpp:380] conv5_2 -> conv5_2
I0715 09:19:47.569303 12952 net.cpp:122] Setting up conv5_2
I0715 09:19:47.569352 12952 net.cpp:129] Top shape: 1 512 45 25 (576000)
I0715 09:19:47.569356 12952 net.cpp:137] Memory required for data: 657890060
I0715 09:19:47.569366 12952 layer_factory.hpp:77] Creating layer relu5_2
I0715 09:19:47.569429 12952 net.cpp:84] Creating Layer relu5_2
I0715 09:19:47.569435 12952 net.cpp:406] relu5_2 <- conv5_2
I0715 09:19:47.569444 12952 net.cpp:367] relu5_2 -> conv5_2 (in-place)
I0715 09:19:47.570307 12952 net.cpp:122] Setting up relu5_2
I0715 09:19:47.570320 12952 net.cpp:129] Top shape: 1 512 45 25 (576000)
I0715 09:19:47.570339 12952 net.cpp:137] Memory required for data: 660194060
I0715 09:19:47.570343 12952 layer_factory.hpp:77] Creating layer conv5_3
I0715 09:19:47.570363 12952 net.cpp:84] Creating Layer conv5_3
I0715 09:19:47.570367 12952 net.cpp:406] conv5_3 <- conv5_2
I0715 09:19:47.570374 12952 net.cpp:380] conv5_3 -> conv5_3
I0715 09:19:47.577939 12952 net.cpp:122] Setting up conv5_3
I0715 09:19:47.577977 12952 net.cpp:129] Top shape: 1 512 45 25 (576000)
I0715 09:19:47.577982 12952 net.cpp:137] Memory required for data: 662498060
I0715 09:19:47.577991 12952 layer_factory.hpp:77] Creating layer relu5_3
I0715 09:19:47.578001 12952 net.cpp:84] Creating Layer relu5_3
I0715 09:19:47.578006 12952 net.cpp:406] relu5_3 <- conv5_3
I0715 09:19:47.578023 12952 net.cpp:367] relu5_3 -> conv5_3 (in-place)
I0715 09:19:47.578231 12952 net.cpp:122] Setting up relu5_3
I0715 09:19:47.578241 12952 net.cpp:129] Top shape: 1 512 45 25 (576000)
I0715 09:19:47.578244 12952 net.cpp:137] Memory required for data: 664802060
I0715 09:19:47.578255 12952 layer_factory.hpp:77] Creating layer pool5
I0715 09:19:47.578272 12952 net.cpp:84] Creating Layer pool5
I0715 09:19:47.578276 12952 net.cpp:406] pool5 <- conv5_3
I0715 09:19:47.578299 12952 net.cpp:380] pool5 -> pool5
I0715 09:19:47.578346 12952 net.cpp:122] Setting up pool5
I0715 09:19:47.578354 12952 net.cpp:129] Top shape: 1 512 23 13 (153088)
I0715 09:19:47.578357 12952 net.cpp:137] Memory required for data: 665414412
I0715 09:19:47.578361 12952 layer_factory.hpp:77] Creating layer fc6
I0715 09:19:47.578372 12952 net.cpp:84] Creating Layer fc6
I0715 09:19:47.578374 12952 net.cpp:406] fc6 <- pool5
I0715 09:19:47.578380 12952 net.cpp:380] fc6 -> fc6
I0715 09:19:47.858806 12952 net.cpp:122] Setting up fc6
I0715 09:19:47.858852 12952 net.cpp:129] Top shape: 1 4096 17 7 (487424)
I0715 09:19:47.858856 12952 net.cpp:137] Memory required for data: 667364108
I0715 09:19:47.858867 12952 layer_factory.hpp:77] Creating layer relu6
I0715 09:19:47.858893 12952 net.cpp:84] Creating Layer relu6
I0715 09:19:47.858899 12952 net.cpp:406] relu6 <- fc6
I0715 09:19:47.858922 12952 net.cpp:367] relu6 -> fc6 (in-place)
I0715 09:19:47.859117 12952 net.cpp:122] Setting up relu6
I0715 09:19:47.859127 12952 net.cpp:129] Top shape: 1 4096 17 7 (487424)
I0715 09:19:47.859130 12952 net.cpp:137] Memory required for data: 669313804
I0715 09:19:47.859133 12952 layer_factory.hpp:77] Creating layer drop6
I0715 09:19:47.859146 12952 net.cpp:84] Creating Layer drop6
I0715 09:19:47.859150 12952 net.cpp:406] drop6 <- fc6
I0715 09:19:47.859156 12952 net.cpp:367] drop6 -> fc6 (in-place)
I0715 09:19:47.859239 12952 net.cpp:122] Setting up drop6
I0715 09:19:47.859247 12952 net.cpp:129] Top shape: 1 4096 17 7 (487424)
I0715 09:19:47.859251 12952 net.cpp:137] Memory required for data: 671263500
I0715 09:19:47.859263 12952 layer_factory.hpp:77] Creating layer fc7
I0715 09:19:47.859289 12952 net.cpp:84] Creating Layer fc7
I0715 09:19:47.859294 12952 net.cpp:406] fc7 <- fc6
I0715 09:19:47.859302 12952 net.cpp:380] fc7 -> fc7
I0715 09:19:47.906915 12952 net.cpp:122] Setting up fc7
I0715 09:19:47.906960 12952 net.cpp:129] Top shape: 1 4096 17 7 (487424)
I0715 09:19:47.906965 12952 net.cpp:137] Memory required for data: 673213196
I0715 09:19:47.906976 12952 layer_factory.hpp:77] Creating layer relu7
I0715 09:19:47.906987 12952 net.cpp:84] Creating Layer relu7
I0715 09:19:47.906992 12952 net.cpp:406] relu7 <- fc7
I0715 09:19:47.907028 12952 net.cpp:367] relu7 -> fc7 (in-place)
I0715 09:19:47.907227 12952 net.cpp:122] Setting up relu7
I0715 09:19:47.907238 12952 net.cpp:129] Top shape: 1 4096 17 7 (487424)
I0715 09:19:47.907241 12952 net.cpp:137] Memory required for data: 675162892
I0715 09:19:47.907244 12952 layer_factory.hpp:77] Creating layer drop7
I0715 09:19:47.907259 12952 net.cpp:84] Creating Layer drop7
I0715 09:19:47.907263 12952 net.cpp:406] drop7 <- fc7
I0715 09:19:47.907269 12952 net.cpp:367] drop7 -> fc7 (in-place)
I0715 09:19:47.907316 12952 net.cpp:122] Setting up drop7
I0715 09:19:47.907323 12952 net.cpp:129] Top shape: 1 4096 17 7 (487424)
I0715 09:19:47.907326 12952 net.cpp:137] Memory required for data: 677112588
I0715 09:19:47.907330 12952 layer_factory.hpp:77] Creating layer score_fr-new
I0715 09:19:47.907346 12952 net.cpp:84] Creating Layer score_fr-new
I0715 09:19:47.907349 12952 net.cpp:406] score_fr-new <- fc7
I0715 09:19:47.907356 12952 net.cpp:380] score_fr-new -> score_fr-new
I0715 09:19:47.909416 12952 net.cpp:122] Setting up score_fr-new
I0715 09:19:47.909430 12952 net.cpp:129] Top shape: 1 3 17 7 (357)
I0715 09:19:47.909448 12952 net.cpp:137] Memory required for data: 677114016
I0715 09:19:47.909456 12952 layer_factory.hpp:77] Creating layer upscore2-new
I0715 09:19:47.909471 12952 net.cpp:84] Creating Layer upscore2-new
I0715 09:19:47.909474 12952 net.cpp:406] upscore2-new <- score_fr-new
I0715 09:19:47.909482 12952 net.cpp:380] upscore2-new -> upscore2-new
I0715 09:19:47.909708 12952 net.cpp:122] Setting up upscore2-new
I0715 09:19:47.909718 12952 net.cpp:129] Top shape: 1 3 36 16 (1728)
I0715 09:19:47.909720 12952 net.cpp:137] Memory required for data: 677120928
I0715 09:19:47.909734 12952 layer_factory.hpp:77] Creating layer upscore2-new_upscore2-new_0_split
I0715 09:19:47.909740 12952 net.cpp:84] Creating Layer upscore2-new_upscore2-new_0_split
I0715 09:19:47.909744 12952 net.cpp:406] upscore2-new_upscore2-new_0_split <- upscore2-new
I0715 09:19:47.909765 12952 net.cpp:380] upscore2-new_upscore2-new_0_split -> upscore2-new_upscore2-new_0_split_0
I0715 09:19:47.909772 12952 net.cpp:380] upscore2-new_upscore2-new_0_split -> upscore2-new_upscore2-new_0_split_1
I0715 09:19:47.909809 12952 net.cpp:122] Setting up upscore2-new_upscore2-new_0_split
I0715 09:19:47.909827 12952 net.cpp:129] Top shape: 1 3 36 16 (1728)
I0715 09:19:47.909832 12952 net.cpp:129] Top shape: 1 3 36 16 (1728)
I0715 09:19:47.909834 12952 net.cpp:137] Memory required for data: 677134752
I0715 09:19:47.909837 12952 layer_factory.hpp:77] Creating layer score_pool4-new
I0715 09:19:47.909845 12952 net.cpp:84] Creating Layer score_pool4-new
I0715 09:19:47.909849 12952 net.cpp:406] score_pool4-new <- pool4_pool4_0_split_1
I0715 09:19:47.909857 12952 net.cpp:380] score_pool4-new -> score_pool4-new
I0715 09:19:47.911128 12952 net.cpp:122] Setting up score_pool4-new
I0715 09:19:47.911140 12952 net.cpp:129] Top shape: 1 3 45 25 (3375)
I0715 09:19:47.911159 12952 net.cpp:137] Memory required for data: 677148252
I0715 09:19:47.911175 12952 layer_factory.hpp:77] Creating layer score_pool4c
I0715 09:19:47.911190 12952 net.cpp:84] Creating Layer score_pool4c
I0715 09:19:47.911195 12952 net.cpp:406] score_pool4c <- score_pool4-new
I0715 09:19:47.911214 12952 net.cpp:406] score_pool4c <- upscore2-new_upscore2-new_0_split_0
I0715 09:19:47.911221 12952 net.cpp:380] score_pool4c -> score_pool4c
I0715 09:19:47.911253 12952 net.cpp:122] Setting up score_pool4c
I0715 09:19:47.911259 12952 net.cpp:129] Top shape: 1 3 36 16 (1728)
I0715 09:19:47.911262 12952 net.cpp:137] Memory required for data: 677155164
I0715 09:19:47.911265 12952 layer_factory.hpp:77] Creating layer fuse_pool4
I0715 09:19:47.911274 12952 net.cpp:84] Creating Layer fuse_pool4
I0715 09:19:47.911285 12952 net.cpp:406] fuse_pool4 <- upscore2-new_upscore2-new_0_split_1
I0715 09:19:47.911293 12952 net.cpp:406] fuse_pool4 <- score_pool4c
I0715 09:19:47.911301 12952 net.cpp:380] fuse_pool4 -> fuse_pool4
I0715 09:19:47.911334 12952 net.cpp:122] Setting up fuse_pool4
I0715 09:19:47.911339 12952 net.cpp:129] Top shape: 1 3 36 16 (1728)
I0715 09:19:47.911342 12952 net.cpp:137] Memory required for data: 677162076
I0715 09:19:47.911345 12952 layer_factory.hpp:77] Creating layer upscore_pool4-new
I0715 09:19:47.911352 12952 net.cpp:84] Creating Layer upscore_pool4-new
I0715 09:19:47.911355 12952 net.cpp:406] upscore_pool4-new <- fuse_pool4
I0715 09:19:47.911377 12952 net.cpp:380] upscore_pool4-new -> upscore_pool4-new
I0715 09:19:47.911566 12952 net.cpp:122] Setting up upscore_pool4-new
I0715 09:19:47.911574 12952 net.cpp:129] Top shape: 1 3 74 34 (7548)
I0715 09:19:47.911577 12952 net.cpp:137] Memory required for data: 677192268
I0715 09:19:47.911582 12952 layer_factory.hpp:77] Creating layer upscore_pool4-new_upscore_pool4-new_0_split
I0715 09:19:47.911587 12952 net.cpp:84] Creating Layer upscore_pool4-new_upscore_pool4-new_0_split
I0715 09:19:47.911592 12952 net.cpp:406] upscore_pool4-new_upscore_pool4-new_0_split <- upscore_pool4-new
I0715 09:19:47.911597 12952 net.cpp:380] upscore_pool4-new_upscore_pool4-new_0_split -> upscore_pool4-new_upscore_pool4-new_0_split_0
I0715 09:19:47.911603 12952 net.cpp:380] upscore_pool4-new_upscore_pool4-new_0_split -> upscore_pool4-new_upscore_pool4-new_0_split_1
I0715 09:19:47.911638 12952 net.cpp:122] Setting up upscore_pool4-new_upscore_pool4-new_0_split
I0715 09:19:47.911643 12952 net.cpp:129] Top shape: 1 3 74 34 (7548)
I0715 09:19:47.911648 12952 net.cpp:129] Top shape: 1 3 74 34 (7548)
I0715 09:19:47.911650 12952 net.cpp:137] Memory required for data: 677252652
I0715 09:19:47.911654 12952 layer_factory.hpp:77] Creating layer score_pool3-new
I0715 09:19:47.911674 12952 net.cpp:84] Creating Layer score_pool3-new
I0715 09:19:47.911679 12952 net.cpp:406] score_pool3-new <- pool3_pool3_0_split_1
I0715 09:19:47.911685 12952 net.cpp:380] score_pool3-new -> score_pool3-new
I0715 09:19:47.912982 12952 net.cpp:122] Setting up score_pool3-new
I0715 09:19:47.912995 12952 net.cpp:129] Top shape: 1 3 89 50 (13350)
I0715 09:19:47.913015 12952 net.cpp:137] Memory required for data: 677306052
I0715 09:19:47.913022 12952 layer_factory.hpp:77] Creating layer score_pool3c
I0715 09:19:47.913028 12952 net.cpp:84] Creating Layer score_pool3c
I0715 09:19:47.913033 12952 net.cpp:406] score_pool3c <- score_pool3-new
I0715 09:19:47.913038 12952 net.cpp:406] score_pool3c <- upscore_pool4-new_upscore_pool4-new_0_split_0
I0715 09:19:47.913043 12952 net.cpp:380] score_pool3c -> score_pool3c
I0715 09:19:47.913085 12952 net.cpp:122] Setting up score_pool3c
I0715 09:19:47.913090 12952 net.cpp:129] Top shape: 1 3 74 34 (7548)
I0715 09:19:47.913094 12952 net.cpp:137] Memory required for data: 677336244
I0715 09:19:47.913097 12952 layer_factory.hpp:77] Creating layer fuse_pool3
I0715 09:19:47.913102 12952 net.cpp:84] Creating Layer fuse_pool3
I0715 09:19:47.913106 12952 net.cpp:406] fuse_pool3 <- upscore_pool4-new_upscore_pool4-new_0_split_1
I0715 09:19:47.913110 12952 net.cpp:406] fuse_pool3 <- score_pool3c
I0715 09:19:47.913116 12952 net.cpp:380] fuse_pool3 -> fuse_pool3
I0715 09:19:47.913138 12952 net.cpp:122] Setting up fuse_pool3
I0715 09:19:47.913143 12952 net.cpp:129] Top shape: 1 3 74 34 (7548)
I0715 09:19:47.913146 12952 net.cpp:137] Memory required for data: 677366436
I0715 09:19:47.913149 12952 layer_factory.hpp:77] Creating layer upscore8-new
I0715 09:19:47.913156 12952 net.cpp:84] Creating Layer upscore8-new
I0715 09:19:47.913159 12952 net.cpp:406] upscore8-new <- fuse_pool3
I0715 09:19:47.913166 12952 net.cpp:380] upscore8-new -> upscore8-new
I0715 09:19:47.913393 12952 net.cpp:122] Setting up upscore8-new
I0715 09:19:47.913401 12952 net.cpp:129] Top shape: 1 3 600 280 (504000)
I0715 09:19:47.913405 12952 net.cpp:137] Memory required for data: 679382436
I0715 09:19:47.913419 12952 layer_factory.hpp:77] Creating layer upscore8_cropped
I0715 09:19:47.913424 12952 net.cpp:84] Creating Layer upscore8_cropped
I0715 09:19:47.913429 12952 net.cpp:406] upscore8_cropped <- upscore8-new
I0715 09:19:47.913434 12952 net.cpp:406] upscore8_cropped <- data_data_0_split_1
I0715 09:19:47.913441 12952 net.cpp:380] upscore8_cropped -> upscore8_cropped
I0715 09:19:47.913467 12952 net.cpp:122] Setting up upscore8_cropped
I0715 09:19:47.913472 12952 net.cpp:129] Top shape: 1 3 512 196 (301056)
I0715 09:19:47.913475 12952 net.cpp:137] Memory required for data: 680586660
I0715 09:19:47.913478 12952 layer_factory.hpp:77] Creating layer upscore8_cropped_upscore8_cropped_0_split
I0715 09:19:47.913484 12952 net.cpp:84] Creating Layer upscore8_cropped_upscore8_cropped_0_split
I0715 09:19:47.913488 12952 net.cpp:406] upscore8_cropped_upscore8_cropped_0_split <- upscore8_cropped
I0715 09:19:47.913494 12952 net.cpp:380] upscore8_cropped_upscore8_cropped_0_split -> upscore8_cropped_upscore8_cropped_0_split_0
I0715 09:19:47.913501 12952 net.cpp:380] upscore8_cropped_upscore8_cropped_0_split -> upscore8_cropped_upscore8_cropped_0_split_1
I0715 09:19:47.913533 12952 net.cpp:122] Setting up upscore8_cropped_upscore8_cropped_0_split
I0715 09:19:47.913538 12952 net.cpp:129] Top shape: 1 3 512 196 (301056)
I0715 09:19:47.913542 12952 net.cpp:129] Top shape: 1 3 512 196 (301056)
I0715 09:19:47.913547 12952 net.cpp:137] Memory required for data: 682995108
I0715 09:19:47.913549 12952 layer_factory.hpp:77] Creating layer prob
I0715 09:19:47.913555 12952 net.cpp:84] Creating Layer prob
I0715 09:19:47.913559 12952 net.cpp:406] prob <- upscore8_cropped_upscore8_cropped_0_split_0
I0715 09:19:47.913565 12952 net.cpp:380] prob -> prob
I0715 09:19:47.913779 12952 net.cpp:122] Setting up prob
I0715 09:19:47.913789 12952 net.cpp:129] Top shape: 1 3 512 196 (301056)
I0715 09:19:47.913794 12952 net.cpp:137] Memory required for data: 684199332
I0715 09:19:47.913796 12952 layer_factory.hpp:77] Creating layer saliency1
I0715 09:19:47.913818 12952 net.cpp:84] Creating Layer saliency1
I0715 09:19:47.913822 12952 net.cpp:406] saliency1 <- prob
I0715 09:19:47.913830 12952 net.cpp:380] saliency1 -> saliency1
I0715 09:19:47.916121 12952 net.cpp:122] Setting up saliency1
I0715 09:19:47.916151 12952 net.cpp:129] Top shape: 1 3 512 196 (301056)
I0715 09:19:47.916154 12952 net.cpp:137] Memory required for data: 685403556
I0715 09:19:47.916162 12952 layer_factory.hpp:77] Creating layer relu_saliency1
I0715 09:19:47.916168 12952 net.cpp:84] Creating Layer relu_saliency1
I0715 09:19:47.916172 12952 net.cpp:406] relu_saliency1 <- saliency1
I0715 09:19:47.916178 12952 net.cpp:367] relu_saliency1 -> saliency1 (in-place)
I0715 09:19:47.916388 12952 net.cpp:122] Setting up relu_saliency1
I0715 09:19:47.916399 12952 net.cpp:129] Top shape: 1 3 512 196 (301056)
I0715 09:19:47.916402 12952 net.cpp:137] Memory required for data: 686607780
I0715 09:19:47.916406 12952 layer_factory.hpp:77] Creating layer saliency
I0715 09:19:47.916416 12952 net.cpp:84] Creating Layer saliency
I0715 09:19:47.916420 12952 net.cpp:406] saliency <- saliency1
I0715 09:19:47.916427 12952 net.cpp:380] saliency -> saliency
I0715 09:19:47.918190 12952 net.cpp:122] Setting up saliency
I0715 09:19:47.918218 12952 net.cpp:129] Top shape: 1 3 512 196 (301056)
I0715 09:19:47.918222 12952 net.cpp:137] Memory required for data: 687812004
I0715 09:19:47.918229 12952 layer_factory.hpp:77] Creating layer silence_saliency
I0715 09:19:47.918238 12952 net.cpp:84] Creating Layer silence_saliency
I0715 09:19:47.918242 12952 net.cpp:406] silence_saliency <- saliency
I0715 09:19:47.918249 12952 net.cpp:122] Setting up silence_saliency
I0715 09:19:47.918252 12952 net.cpp:137] Memory required for data: 687812004
I0715 09:19:47.918256 12952 layer_factory.hpp:77] Creating layer crop
I0715 09:19:47.918622 12952 net.cpp:84] Creating Layer crop
I0715 09:19:47.918645 12952 net.cpp:406] crop <- label_data_1_split_0
I0715 09:19:47.918668 12952 net.cpp:406] crop <- data_data_0_split_2
I0715 09:19:47.918673 12952 net.cpp:406] crop <- crop_margin
I0715 09:19:47.918678 12952 net.cpp:406] crop <- crop_prob
I0715 09:19:47.918681 12952 net.cpp:406] crop <- crop_sample_batch
I0715 09:19:47.918686 12952 net.cpp:380] crop -> data-R
I0715 09:19:47.918694 12952 net.cpp:380] crop -> crop_info
I0715 09:19:47.923008 12952 net.cpp:122] Setting up crop
I0715 09:19:47.923043 12952 net.cpp:129] Top shape: 1 3 512 196 (301056)
I0715 09:19:47.923049 12952 net.cpp:129] Top shape: 1 2 4 (8)
I0715 09:19:47.923053 12952 net.cpp:137] Memory required for data: 689016260
I0715 09:19:47.923063 12952 layer_factory.hpp:77] Creating layer data-R_crop_0_split
I0715 09:19:47.923071 12952 net.cpp:84] Creating Layer data-R_crop_0_split
I0715 09:19:47.923076 12952 net.cpp:406] data-R_crop_0_split <- data-R
I0715 09:19:47.923084 12952 net.cpp:380] data-R_crop_0_split -> data-R_crop_0_split_0
I0715 09:19:47.923107 12952 net.cpp:380] data-R_crop_0_split -> data-R_crop_0_split_1
I0715 09:19:47.923149 12952 net.cpp:122] Setting up data-R_crop_0_split
I0715 09:19:47.923156 12952 net.cpp:129] Top shape: 1 3 512 196 (301056)
I0715 09:19:47.923161 12952 net.cpp:129] Top shape: 1 3 512 196 (301056)
I0715 09:19:47.923163 12952 net.cpp:137] Memory required for data: 691424708
I0715 09:19:47.923166 12952 layer_factory.hpp:77] Creating layer conv1_1-R
I0715 09:19:47.923175 12952 net.cpp:84] Creating Layer conv1_1-R
I0715 09:19:47.923179 12952 net.cpp:406] conv1_1-R <- data-R_crop_0_split_0
I0715 09:19:47.923187 12952 net.cpp:380] conv1_1-R -> conv1_1-R
I0715 09:19:47.926636 12952 net.cpp:122] Setting up conv1_1-R
I0715 09:19:47.926667 12952 net.cpp:129] Top shape: 1 64 710 394 (17903360)
I0715 09:19:47.926671 12952 net.cpp:137] Memory required for data: 763038148
I0715 09:19:47.926681 12952 layer_factory.hpp:77] Creating layer relu1_1-R
I0715 09:19:47.926697 12952 net.cpp:84] Creating Layer relu1_1-R
I0715 09:19:47.926702 12952 net.cpp:406] relu1_1-R <- conv1_1-R
I0715 09:19:47.926708 12952 net.cpp:367] relu1_1-R -> conv1_1-R (in-place)
I0715 09:19:47.926935 12952 net.cpp:122] Setting up relu1_1-R
I0715 09:19:47.926946 12952 net.cpp:129] Top shape: 1 64 710 394 (17903360)
I0715 09:19:47.926949 12952 net.cpp:137] Memory required for data: 834651588
I0715 09:19:47.926954 12952 layer_factory.hpp:77] Creating layer conv1_2-R
I0715 09:19:47.926972 12952 net.cpp:84] Creating Layer conv1_2-R
I0715 09:19:47.926976 12952 net.cpp:406] conv1_2-R <- conv1_1-R
I0715 09:19:47.926983 12952 net.cpp:380] conv1_2-R -> conv1_2-R
I0715 09:19:47.930158 12952 net.cpp:122] Setting up conv1_2-R
I0715 09:19:47.930191 12952 net.cpp:129] Top shape: 1 64 710 394 (17903360)
I0715 09:19:47.930194 12952 net.cpp:137] Memory required for data: 906265028
I0715 09:19:47.930202 12952 layer_factory.hpp:77] Creating layer relu1_2-R
I0715 09:19:47.930214 12952 net.cpp:84] Creating Layer relu1_2-R
I0715 09:19:47.930219 12952 net.cpp:406] relu1_2-R <- conv1_2-R
I0715 09:19:47.930224 12952 net.cpp:367] relu1_2-R -> conv1_2-R (in-place)
I0715 09:19:47.930951 12952 net.cpp:122] Setting up relu1_2-R
I0715 09:19:47.930980 12952 net.cpp:129] Top shape: 1 64 710 394 (17903360)
I0715 09:19:47.930984 12952 net.cpp:137] Memory required for data: 977878468
I0715 09:19:47.930989 12952 layer_factory.hpp:77] Creating layer pool1-R
I0715 09:19:47.930997 12952 net.cpp:84] Creating Layer pool1-R
I0715 09:19:47.931001 12952 net.cpp:406] pool1-R <- conv1_2-R
I0715 09:19:47.931010 12952 net.cpp:380] pool1-R -> pool1-R
I0715 09:19:47.931077 12952 net.cpp:122] Setting up pool1-R
I0715 09:19:47.931084 12952 net.cpp:129] Top shape: 1 64 355 197 (4475840)
I0715 09:19:47.931087 12952 net.cpp:137] Memory required for data: 995781828
I0715 09:19:47.931092 12952 layer_factory.hpp:77] Creating layer conv2_1-R
I0715 09:19:47.931100 12952 net.cpp:84] Creating Layer conv2_1-R
I0715 09:19:47.931104 12952 net.cpp:406] conv2_1-R <- pool1-R
I0715 09:19:47.931110 12952 net.cpp:380] conv2_1-R -> conv2_1-R
I0715 09:19:47.932534 12952 net.cpp:122] Setting up conv2_1-R
I0715 09:19:47.932564 12952 net.cpp:129] Top shape: 1 128 355 197 (8951680)
I0715 09:19:47.932566 12952 net.cpp:137] Memory required for data: 1031588548
I0715 09:19:47.932574 12952 layer_factory.hpp:77] Creating layer relu2_1-R
I0715 09:19:47.932580 12952 net.cpp:84] Creating Layer relu2_1-R
I0715 09:19:47.932585 12952 net.cpp:406] relu2_1-R <- conv2_1-R
I0715 09:19:47.932590 12952 net.cpp:367] relu2_1-R -> conv2_1-R (in-place)
I0715 09:19:47.933311 12952 net.cpp:122] Setting up relu2_1-R
I0715 09:19:47.933339 12952 net.cpp:129] Top shape: 1 128 355 197 (8951680)
I0715 09:19:47.933342 12952 net.cpp:137] Memory required for data: 1067395268
I0715 09:19:47.933369 12952 layer_factory.hpp:77] Creating layer conv2_2-R
I0715 09:19:47.933384 12952 net.cpp:84] Creating Layer conv2_2-R
I0715 09:19:47.933388 12952 net.cpp:406] conv2_2-R <- conv2_1-R
I0715 09:19:47.933396 12952 net.cpp:380] conv2_2-R -> conv2_2-R
I0715 09:19:47.935370 12952 net.cpp:122] Setting up conv2_2-R
I0715 09:19:47.935400 12952 net.cpp:129] Top shape: 1 128 355 197 (8951680)
I0715 09:19:47.935405 12952 net.cpp:137] Memory required for data: 1103201988
I0715 09:19:47.935411 12952 layer_factory.hpp:77] Creating layer relu2_2-R
I0715 09:19:47.935418 12952 net.cpp:84] Creating Layer relu2_2-R
I0715 09:19:47.935422 12952 net.cpp:406] relu2_2-R <- conv2_2-R
I0715 09:19:47.935427 12952 net.cpp:367] relu2_2-R -> conv2_2-R (in-place)
I0715 09:19:47.935645 12952 net.cpp:122] Setting up relu2_2-R
I0715 09:19:47.935655 12952 net.cpp:129] Top shape: 1 128 355 197 (8951680)
I0715 09:19:47.935659 12952 net.cpp:137] Memory required for data: 1139008708
I0715 09:19:47.935663 12952 layer_factory.hpp:77] Creating layer pool2-R
I0715 09:19:47.935669 12952 net.cpp:84] Creating Layer pool2-R
I0715 09:19:47.935673 12952 net.cpp:406] pool2-R <- conv2_2-R
I0715 09:19:47.935681 12952 net.cpp:380] pool2-R -> pool2-R
I0715 09:19:47.935731 12952 net.cpp:122] Setting up pool2-R
I0715 09:19:47.935742 12952 net.cpp:129] Top shape: 1 128 178 99 (2255616)
I0715 09:19:47.935746 12952 net.cpp:137] Memory required for data: 1148031172
I0715 09:19:47.935750 12952 layer_factory.hpp:77] Creating layer conv3_1-R
I0715 09:19:47.935758 12952 net.cpp:84] Creating Layer conv3_1-R
I0715 09:19:47.935762 12952 net.cpp:406] conv3_1-R <- pool2-R
I0715 09:19:47.935768 12952 net.cpp:380] conv3_1-R -> conv3_1-R
I0715 09:19:47.939236 12952 net.cpp:122] Setting up conv3_1-R
I0715 09:19:47.939265 12952 net.cpp:129] Top shape: 1 256 178 99 (4511232)
I0715 09:19:47.939270 12952 net.cpp:137] Memory required for data: 1166076100
I0715 09:19:47.939306 12952 layer_factory.hpp:77] Creating layer relu3_1-R
I0715 09:19:47.939319 12952 net.cpp:84] Creating Layer relu3_1-R
I0715 09:19:47.939323 12952 net.cpp:406] relu3_1-R <- conv3_1-R
I0715 09:19:47.939329 12952 net.cpp:367] relu3_1-R -> conv3_1-R (in-place)
I0715 09:19:47.939538 12952 net.cpp:122] Setting up relu3_1-R
I0715 09:19:47.939548 12952 net.cpp:129] Top shape: 1 256 178 99 (4511232)
I0715 09:19:47.939551 12952 net.cpp:137] Memory required for data: 1184121028
I0715 09:19:47.939555 12952 layer_factory.hpp:77] Creating layer conv3_2-R
I0715 09:19:47.939571 12952 net.cpp:84] Creating Layer conv3_2-R
I0715 09:19:47.939575 12952 net.cpp:406] conv3_2-R <- conv3_1-R
I0715 09:19:47.939582 12952 net.cpp:380] conv3_2-R -> conv3_2-R
I0715 09:19:47.943369 12952 net.cpp:122] Setting up conv3_2-R
I0715 09:19:47.943400 12952 net.cpp:129] Top shape: 1 256 178 99 (4511232)
I0715 09:19:47.943404 12952 net.cpp:137] Memory required for data: 1202165956
I0715 09:19:47.943413 12952 layer_factory.hpp:77] Creating layer relu3_2-R
I0715 09:19:47.943419 12952 net.cpp:84] Creating Layer relu3_2-R
I0715 09:19:47.943424 12952 net.cpp:406] relu3_2-R <- conv3_2-R
I0715 09:19:47.943429 12952 net.cpp:367] relu3_2-R -> conv3_2-R (in-place)
I0715 09:19:47.943620 12952 net.cpp:122] Setting up relu3_2-R
I0715 09:19:47.943630 12952 net.cpp:129] Top shape: 1 256 178 99 (4511232)
I0715 09:19:47.943634 12952 net.cpp:137] Memory required for data: 1220210884
I0715 09:19:47.943639 12952 layer_factory.hpp:77] Creating layer conv3_3-R
I0715 09:19:47.943647 12952 net.cpp:84] Creating Layer conv3_3-R
I0715 09:19:47.943651 12952 net.cpp:406] conv3_3-R <- conv3_2-R
I0715 09:19:47.943658 12952 net.cpp:380] conv3_3-R -> conv3_3-R
I0715 09:19:47.947438 12952 net.cpp:122] Setting up conv3_3-R
I0715 09:19:47.947468 12952 net.cpp:129] Top shape: 1 256 178 99 (4511232)
I0715 09:19:47.947473 12952 net.cpp:137] Memory required for data: 1238255812
I0715 09:19:47.947489 12952 layer_factory.hpp:77] Creating layer relu3_3-R
I0715 09:19:47.947496 12952 net.cpp:84] Creating Layer relu3_3-R
I0715 09:19:47.947501 12952 net.cpp:406] relu3_3-R <- conv3_3-R
I0715 09:19:47.947507 12952 net.cpp:367] relu3_3-R -> conv3_3-R (in-place)
I0715 09:19:47.947705 12952 net.cpp:122] Setting up relu3_3-R
I0715 09:19:47.947715 12952 net.cpp:129] Top shape: 1 256 178 99 (4511232)
I0715 09:19:47.947717 12952 net.cpp:137] Memory required for data: 1256300740
I0715 09:19:47.947721 12952 layer_factory.hpp:77] Creating layer pool3-R
I0715 09:19:47.947736 12952 net.cpp:84] Creating Layer pool3-R
I0715 09:19:47.947741 12952 net.cpp:406] pool3-R <- conv3_3-R
I0715 09:19:47.947747 12952 net.cpp:380] pool3-R -> pool3-R
I0715 09:19:47.947799 12952 net.cpp:122] Setting up pool3-R
I0715 09:19:47.947808 12952 net.cpp:129] Top shape: 1 256 89 50 (1139200)
I0715 09:19:47.947811 12952 net.cpp:137] Memory required for data: 1260857540
I0715 09:19:47.947815 12952 layer_factory.hpp:77] Creating layer pool3-R_pool3-R_0_split
I0715 09:19:47.947821 12952 net.cpp:84] Creating Layer pool3-R_pool3-R_0_split
I0715 09:19:47.947825 12952 net.cpp:406] pool3-R_pool3-R_0_split <- pool3-R
I0715 09:19:47.947831 12952 net.cpp:380] pool3-R_pool3-R_0_split -> pool3-R_pool3-R_0_split_0
I0715 09:19:47.947837 12952 net.cpp:380] pool3-R_pool3-R_0_split -> pool3-R_pool3-R_0_split_1
I0715 09:19:47.947875 12952 net.cpp:122] Setting up pool3-R_pool3-R_0_split
I0715 09:19:47.947880 12952 net.cpp:129] Top shape: 1 256 89 50 (1139200)
I0715 09:19:47.947885 12952 net.cpp:129] Top shape: 1 256 89 50 (1139200)
I0715 09:19:47.947888 12952 net.cpp:137] Memory required for data: 1269971140
I0715 09:19:47.947891 12952 layer_factory.hpp:77] Creating layer conv4_1-R
I0715 09:19:47.947906 12952 net.cpp:84] Creating Layer conv4_1-R
I0715 09:19:47.947909 12952 net.cpp:406] conv4_1-R <- pool3-R_pool3-R_0_split_0
I0715 09:19:47.947916 12952 net.cpp:380] conv4_1-R -> conv4_1-R
I0715 09:19:47.953179 12952 net.cpp:122] Setting up conv4_1-R
I0715 09:19:47.953212 12952 net.cpp:129] Top shape: 1 512 89 50 (2278400)
I0715 09:19:47.953215 12952 net.cpp:137] Memory required for data: 1279084740
I0715 09:19:47.953224 12952 layer_factory.hpp:77] Creating layer relu4_1-R
I0715 09:19:47.953231 12952 net.cpp:84] Creating Layer relu4_1-R
I0715 09:19:47.953235 12952 net.cpp:406] relu4_1-R <- conv4_1-R
I0715 09:19:47.953241 12952 net.cpp:367] relu4_1-R -> conv4_1-R (in-place)
I0715 09:19:47.954020 12952 net.cpp:122] Setting up relu4_1-R
I0715 09:19:47.954033 12952 net.cpp:129] Top shape: 1 512 89 50 (2278400)
I0715 09:19:47.954052 12952 net.cpp:137] Memory required for data: 1288198340
I0715 09:19:47.954056 12952 layer_factory.hpp:77] Creating layer conv4_2-R
I0715 09:19:47.954066 12952 net.cpp:84] Creating Layer conv4_2-R
I0715 09:19:47.954069 12952 net.cpp:406] conv4_2-R <- conv4_1-R
I0715 09:19:47.954077 12952 net.cpp:380] conv4_2-R -> conv4_2-R
I0715 09:19:47.961832 12952 net.cpp:122] Setting up conv4_2-R
I0715 09:19:47.961871 12952 net.cpp:129] Top shape: 1 512 89 50 (2278400)
I0715 09:19:47.961875 12952 net.cpp:137] Memory required for data: 1297311940
I0715 09:19:47.961884 12952 layer_factory.hpp:77] Creating layer relu4_2-R
I0715 09:19:47.961894 12952 net.cpp:84] Creating Layer relu4_2-R
I0715 09:19:47.961899 12952 net.cpp:406] relu4_2-R <- conv4_2-R
I0715 09:19:47.961905 12952 net.cpp:367] relu4_2-R -> conv4_2-R (in-place)
I0715 09:19:47.962733 12952 net.cpp:122] Setting up relu4_2-R
I0715 09:19:47.962745 12952 net.cpp:129] Top shape: 1 512 89 50 (2278400)
I0715 09:19:47.962764 12952 net.cpp:137] Memory required for data: 1306425540
I0715 09:19:47.962769 12952 layer_factory.hpp:77] Creating layer conv4_3-R
I0715 09:19:47.962795 12952 net.cpp:84] Creating Layer conv4_3-R
I0715 09:19:47.962800 12952 net.cpp:406] conv4_3-R <- conv4_2-R
I0715 09:19:47.962822 12952 net.cpp:380] conv4_3-R -> conv4_3-R
I0715 09:19:47.970667 12952 net.cpp:122] Setting up conv4_3-R
I0715 09:19:47.970706 12952 net.cpp:129] Top shape: 1 512 89 50 (2278400)
I0715 09:19:47.970710 12952 net.cpp:137] Memory required for data: 1315539140
I0715 09:19:47.970731 12952 layer_factory.hpp:77] Creating layer relu4_3-R
I0715 09:19:47.970739 12952 net.cpp:84] Creating Layer relu4_3-R
I0715 09:19:47.970744 12952 net.cpp:406] relu4_3-R <- conv4_3-R
I0715 09:19:47.970751 12952 net.cpp:367] relu4_3-R -> conv4_3-R (in-place)
I0715 09:19:47.970952 12952 net.cpp:122] Setting up relu4_3-R
I0715 09:19:47.970962 12952 net.cpp:129] Top shape: 1 512 89 50 (2278400)
I0715 09:19:47.970965 12952 net.cpp:137] Memory required for data: 1324652740
I0715 09:19:47.970968 12952 layer_factory.hpp:77] Creating layer pool4-R
I0715 09:19:47.970976 12952 net.cpp:84] Creating Layer pool4-R
I0715 09:19:47.970980 12952 net.cpp:406] pool4-R <- conv4_3-R
I0715 09:19:47.970988 12952 net.cpp:380] pool4-R -> pool4-R
I0715 09:19:47.971052 12952 net.cpp:122] Setting up pool4-R
I0715 09:19:47.971067 12952 net.cpp:129] Top shape: 1 512 45 25 (576000)
I0715 09:19:47.971071 12952 net.cpp:137] Memory required for data: 1326956740
I0715 09:19:47.971073 12952 layer_factory.hpp:77] Creating layer pool4-R_pool4-R_0_split
I0715 09:19:47.971081 12952 net.cpp:84] Creating Layer pool4-R_pool4-R_0_split
I0715 09:19:47.971084 12952 net.cpp:406] pool4-R_pool4-R_0_split <- pool4-R
I0715 09:19:47.971091 12952 net.cpp:380] pool4-R_pool4-R_0_split -> pool4-R_pool4-R_0_split_0
I0715 09:19:47.971096 12952 net.cpp:380] pool4-R_pool4-R_0_split -> pool4-R_pool4-R_0_split_1
I0715 09:19:47.971135 12952 net.cpp:122] Setting up pool4-R_pool4-R_0_split
I0715 09:19:47.971140 12952 net.cpp:129] Top shape: 1 512 45 25 (576000)
I0715 09:19:47.971144 12952 net.cpp:129] Top shape: 1 512 45 25 (576000)
I0715 09:19:47.971148 12952 net.cpp:137] Memory required for data: 1331564740
I0715 09:19:47.971150 12952 layer_factory.hpp:77] Creating layer conv5_1-R
I0715 09:19:47.971171 12952 net.cpp:84] Creating Layer conv5_1-R
I0715 09:19:47.971175 12952 net.cpp:406] conv5_1-R <- pool4-R_pool4-R_0_split_0
I0715 09:19:47.971182 12952 net.cpp:380] conv5_1-R -> conv5_1-R
I0715 09:19:47.979230 12952 net.cpp:122] Setting up conv5_1-R
I0715 09:19:47.979255 12952 net.cpp:129] Top shape: 1 512 45 25 (576000)
I0715 09:19:47.979259 12952 net.cpp:137] Memory required for data: 1333868740
I0715 09:19:47.979313 12952 layer_factory.hpp:77] Creating layer relu5_1-R
I0715 09:19:47.979326 12952 net.cpp:84] Creating Layer relu5_1-R
I0715 09:19:47.979331 12952 net.cpp:406] relu5_1-R <- conv5_1-R
I0715 09:19:47.979337 12952 net.cpp:367] relu5_1-R -> conv5_1-R (in-place)
I0715 09:19:47.979576 12952 net.cpp:122] Setting up relu5_1-R
I0715 09:19:47.979586 12952 net.cpp:129] Top shape: 1 512 45 25 (576000)
I0715 09:19:47.979590 12952 net.cpp:137] Memory required for data: 1336172740
I0715 09:19:47.979593 12952 layer_factory.hpp:77] Creating layer conv5_2-R
I0715 09:19:47.979604 12952 net.cpp:84] Creating Layer conv5_2-R
I0715 09:19:47.979609 12952 net.cpp:406] conv5_2-R <- conv5_1-R
I0715 09:19:47.979616 12952 net.cpp:380] conv5_2-R -> conv5_2-R
I0715 09:19:47.988003 12952 net.cpp:122] Setting up conv5_2-R
I0715 09:19:47.988042 12952 net.cpp:129] Top shape: 1 512 45 25 (576000)
I0715 09:19:47.988046 12952 net.cpp:137] Memory required for data: 1338476740
I0715 09:19:47.988055 12952 layer_factory.hpp:77] Creating layer relu5_2-R
I0715 09:19:47.988067 12952 net.cpp:84] Creating Layer relu5_2-R
I0715 09:19:47.988073 12952 net.cpp:406] relu5_2-R <- conv5_2-R
I0715 09:19:47.988080 12952 net.cpp:367] relu5_2-R -> conv5_2-R (in-place)
I0715 09:19:47.988298 12952 net.cpp:122] Setting up relu5_2-R
I0715 09:19:47.988308 12952 net.cpp:129] Top shape: 1 512 45 25 (576000)
I0715 09:19:47.988312 12952 net.cpp:137] Memory required for data: 1340780740
I0715 09:19:47.988315 12952 layer_factory.hpp:77] Creating layer conv5_3-R
I0715 09:19:47.988340 12952 net.cpp:84] Creating Layer conv5_3-R
I0715 09:19:47.988344 12952 net.cpp:406] conv5_3-R <- conv5_2-R
I0715 09:19:47.988353 12952 net.cpp:380] conv5_3-R -> conv5_3-R
I0715 09:19:47.996371 12952 net.cpp:122] Setting up conv5_3-R
I0715 09:19:47.996408 12952 net.cpp:129] Top shape: 1 512 45 25 (576000)
I0715 09:19:47.996413 12952 net.cpp:137] Memory required for data: 1343084740
I0715 09:19:47.996434 12952 layer_factory.hpp:77] Creating layer relu5_3-R
I0715 09:19:47.996443 12952 net.cpp:84] Creating Layer relu5_3-R
I0715 09:19:47.996448 12952 net.cpp:406] relu5_3-R <- conv5_3-R
I0715 09:19:47.996454 12952 net.cpp:367] relu5_3-R -> conv5_3-R (in-place)
I0715 09:19:47.996668 12952 net.cpp:122] Setting up relu5_3-R
I0715 09:19:47.996680 12952 net.cpp:129] Top shape: 1 512 45 25 (576000)
I0715 09:19:47.996682 12952 net.cpp:137] Memory required for data: 1345388740
I0715 09:19:47.996686 12952 layer_factory.hpp:77] Creating layer pool5-R
I0715 09:19:47.996702 12952 net.cpp:84] Creating Layer pool5-R
I0715 09:19:47.996706 12952 net.cpp:406] pool5-R <- conv5_3-R
I0715 09:19:47.996713 12952 net.cpp:380] pool5-R -> pool5-R
I0715 09:19:47.996765 12952 net.cpp:122] Setting up pool5-R
I0715 09:19:47.996774 12952 net.cpp:129] Top shape: 1 512 23 13 (153088)
I0715 09:19:47.996778 12952 net.cpp:137] Memory required for data: 1346001092
I0715 09:19:47.996780 12952 layer_factory.hpp:77] Creating layer fc6-R
I0715 09:19:47.996791 12952 net.cpp:84] Creating Layer fc6-R
I0715 09:19:47.996794 12952 net.cpp:406] fc6-R <- pool5-R
I0715 09:19:47.996803 12952 net.cpp:380] fc6-R -> fc6-R
I0715 09:19:48.319458 12952 net.cpp:122] Setting up fc6-R
I0715 09:19:48.319505 12952 net.cpp:129] Top shape: 1 4096 17 7 (487424)
I0715 09:19:48.319509 12952 net.cpp:137] Memory required for data: 1347950788
I0715 09:19:48.319521 12952 layer_factory.hpp:77] Creating layer relu6-R
I0715 09:19:48.319533 12952 net.cpp:84] Creating Layer relu6-R
I0715 09:19:48.319540 12952 net.cpp:406] relu6-R <- fc6-R
I0715 09:19:48.319548 12952 net.cpp:367] relu6-R -> fc6-R (in-place)
I0715 09:19:48.320289 12952 net.cpp:122] Setting up relu6-R
I0715 09:19:48.320302 12952 net.cpp:129] Top shape: 1 4096 17 7 (487424)
I0715 09:19:48.320322 12952 net.cpp:137] Memory required for data: 1349900484
I0715 09:19:48.320334 12952 layer_factory.hpp:77] Creating layer drop6-R
I0715 09:19:48.320348 12952 net.cpp:84] Creating Layer drop6-R
I0715 09:19:48.320351 12952 net.cpp:406] drop6-R <- fc6-R
I0715 09:19:48.320358 12952 net.cpp:367] drop6-R -> fc6-R (in-place)
I0715 09:19:48.320449 12952 net.cpp:122] Setting up drop6-R
I0715 09:19:48.320458 12952 net.cpp:129] Top shape: 1 4096 17 7 (487424)
I0715 09:19:48.320461 12952 net.cpp:137] Memory required for data: 1351850180
I0715 09:19:48.320466 12952 layer_factory.hpp:77] Creating layer fc7-R
I0715 09:19:48.320474 12952 net.cpp:84] Creating Layer fc7-R
I0715 09:19:48.320478 12952 net.cpp:406] fc7-R <- fc6-R
I0715 09:19:48.320485 12952 net.cpp:380] fc7-R -> fc7-R
I0715 09:19:48.368634 12952 net.cpp:122] Setting up fc7-R
I0715 09:19:48.368681 12952 net.cpp:129] Top shape: 1 4096 17 7 (487424)
I0715 09:19:48.368685 12952 net.cpp:137] Memory required for data: 1353799876
I0715 09:19:48.368696 12952 layer_factory.hpp:77] Creating layer relu7-R
I0715 09:19:48.368707 12952 net.cpp:84] Creating Layer relu7-R
I0715 09:19:48.368713 12952 net.cpp:406] relu7-R <- fc7-R
I0715 09:19:48.368721 12952 net.cpp:367] relu7-R -> fc7-R (in-place)
I0715 09:19:48.369482 12952 net.cpp:122] Setting up relu7-R
I0715 09:19:48.369495 12952 net.cpp:129] Top shape: 1 4096 17 7 (487424)
I0715 09:19:48.369514 12952 net.cpp:137] Memory required for data: 1355749572
I0715 09:19:48.369518 12952 layer_factory.hpp:77] Creating layer drop7-R
I0715 09:19:48.369544 12952 net.cpp:84] Creating Layer drop7-R
I0715 09:19:48.369547 12952 net.cpp:406] drop7-R <- fc7-R
I0715 09:19:48.369568 12952 net.cpp:367] drop7-R -> fc7-R (in-place)
I0715 09:19:48.369606 12952 net.cpp:122] Setting up drop7-R
I0715 09:19:48.369611 12952 net.cpp:129] Top shape: 1 4096 17 7 (487424)
I0715 09:19:48.369614 12952 net.cpp:137] Memory required for data: 1357699268
I0715 09:19:48.369618 12952 layer_factory.hpp:77] Creating layer score_fr-new-R
I0715 09:19:48.369627 12952 net.cpp:84] Creating Layer score_fr-new-R
I0715 09:19:48.369632 12952 net.cpp:406] score_fr-new-R <- fc7-R
I0715 09:19:48.369638 12952 net.cpp:380] score_fr-new-R -> score_fr-new-R
I0715 09:19:48.371116 12952 net.cpp:122] Setting up score_fr-new-R
I0715 09:19:48.371130 12952 net.cpp:129] Top shape: 1 3 17 7 (357)
I0715 09:19:48.371150 12952 net.cpp:137] Memory required for data: 1357700696
I0715 09:19:48.371157 12952 layer_factory.hpp:77] Creating layer upscore2-new-R
I0715 09:19:48.371165 12952 net.cpp:84] Creating Layer upscore2-new-R
I0715 09:19:48.371170 12952 net.cpp:406] upscore2-new-R <- score_fr-new-R
I0715 09:19:48.371176 12952 net.cpp:380] upscore2-new-R -> upscore2-new-R
I0715 09:19:48.371426 12952 net.cpp:122] Setting up upscore2-new-R
I0715 09:19:48.371436 12952 net.cpp:129] Top shape: 1 3 36 16 (1728)
I0715 09:19:48.371439 12952 net.cpp:137] Memory required for data: 1357707608
I0715 09:19:48.371445 12952 layer_factory.hpp:77] Creating layer upscore2-new-R_upscore2-new-R_0_split
I0715 09:19:48.371453 12952 net.cpp:84] Creating Layer upscore2-new-R_upscore2-new-R_0_split
I0715 09:19:48.371456 12952 net.cpp:406] upscore2-new-R_upscore2-new-R_0_split <- upscore2-new-R
I0715 09:19:48.371462 12952 net.cpp:380] upscore2-new-R_upscore2-new-R_0_split -> upscore2-new-R_upscore2-new-R_0_split_0
I0715 09:19:48.371469 12952 net.cpp:380] upscore2-new-R_upscore2-new-R_0_split -> upscore2-new-R_upscore2-new-R_0_split_1
I0715 09:19:48.371510 12952 net.cpp:122] Setting up upscore2-new-R_upscore2-new-R_0_split
I0715 09:19:48.371515 12952 net.cpp:129] Top shape: 1 3 36 16 (1728)
I0715 09:19:48.371520 12952 net.cpp:129] Top shape: 1 3 36 16 (1728)
I0715 09:19:48.371523 12952 net.cpp:137] Memory required for data: 1357721432
I0715 09:19:48.371526 12952 layer_factory.hpp:77] Creating layer score_pool4-new-R
I0715 09:19:48.371543 12952 net.cpp:84] Creating Layer score_pool4-new-R
I0715 09:19:48.371547 12952 net.cpp:406] score_pool4-new-R <- pool4-R_pool4-R_0_split_1
I0715 09:19:48.371556 12952 net.cpp:380] score_pool4-new-R -> score_pool4-new-R
I0715 09:19:48.372895 12952 net.cpp:122] Setting up score_pool4-new-R
I0715 09:19:48.372926 12952 net.cpp:129] Top shape: 1 3 45 25 (3375)
I0715 09:19:48.372931 12952 net.cpp:137] Memory required for data: 1357734932
I0715 09:19:48.372936 12952 layer_factory.hpp:77] Creating layer score_pool4c-R
I0715 09:19:48.372944 12952 net.cpp:84] Creating Layer score_pool4c-R
I0715 09:19:48.372948 12952 net.cpp:406] score_pool4c-R <- score_pool4-new-R
I0715 09:19:48.372953 12952 net.cpp:406] score_pool4c-R <- upscore2-new-R_upscore2-new-R_0_split_0
I0715 09:19:48.372958 12952 net.cpp:380] score_pool4c-R -> score_pool4c-R
I0715 09:19:48.373008 12952 net.cpp:122] Setting up score_pool4c-R
I0715 09:19:48.373013 12952 net.cpp:129] Top shape: 1 3 36 16 (1728)
I0715 09:19:48.373015 12952 net.cpp:137] Memory required for data: 1357741844
I0715 09:19:48.373019 12952 layer_factory.hpp:77] Creating layer fuse_pool4-R
I0715 09:19:48.373028 12952 net.cpp:84] Creating Layer fuse_pool4-R
I0715 09:19:48.373031 12952 net.cpp:406] fuse_pool4-R <- upscore2-new-R_upscore2-new-R_0_split_1
I0715 09:19:48.373036 12952 net.cpp:406] fuse_pool4-R <- score_pool4c-R
I0715 09:19:48.373041 12952 net.cpp:380] fuse_pool4-R -> fuse_pool4-R
I0715 09:19:48.373070 12952 net.cpp:122] Setting up fuse_pool4-R
I0715 09:19:48.373075 12952 net.cpp:129] Top shape: 1 3 36 16 (1728)
I0715 09:19:48.373078 12952 net.cpp:137] Memory required for data: 1357748756
I0715 09:19:48.373081 12952 layer_factory.hpp:77] Creating layer upscore_pool4-new-R
I0715 09:19:48.373090 12952 net.cpp:84] Creating Layer upscore_pool4-new-R
I0715 09:19:48.373092 12952 net.cpp:406] upscore_pool4-new-R <- fuse_pool4-R
I0715 09:19:48.373098 12952 net.cpp:380] upscore_pool4-new-R -> upscore_pool4-new-R
I0715 09:19:48.373327 12952 net.cpp:122] Setting up upscore_pool4-new-R
I0715 09:19:48.373335 12952 net.cpp:129] Top shape: 1 3 74 34 (7548)
I0715 09:19:48.373338 12952 net.cpp:137] Memory required for data: 1357778948
I0715 09:19:48.373343 12952 layer_factory.hpp:77] Creating layer upscore_pool4-new-R_upscore_pool4-new-R_0_split
I0715 09:19:48.373349 12952 net.cpp:84] Creating Layer upscore_pool4-new-R_upscore_pool4-new-R_0_split
I0715 09:19:48.373353 12952 net.cpp:406] upscore_pool4-new-R_upscore_pool4-new-R_0_split <- upscore_pool4-new-R
I0715 09:19:48.373360 12952 net.cpp:380] upscore_pool4-new-R_upscore_pool4-new-R_0_split -> upscore_pool4-new-R_upscore_pool4-new-R_0_split_0
I0715 09:19:48.373366 12952 net.cpp:380] upscore_pool4-new-R_upscore_pool4-new-R_0_split -> upscore_pool4-new-R_upscore_pool4-new-R_0_split_1
I0715 09:19:48.373406 12952 net.cpp:122] Setting up upscore_pool4-new-R_upscore_pool4-new-R_0_split
I0715 09:19:48.373411 12952 net.cpp:129] Top shape: 1 3 74 34 (7548)
I0715 09:19:48.373415 12952 net.cpp:129] Top shape: 1 3 74 34 (7548)
I0715 09:19:48.373419 12952 net.cpp:137] Memory required for data: 1357839332
I0715 09:19:48.373422 12952 layer_factory.hpp:77] Creating layer score_pool3-new-R
I0715 09:19:48.373430 12952 net.cpp:84] Creating Layer score_pool3-new-R
I0715 09:19:48.373435 12952 net.cpp:406] score_pool3-new-R <- pool3-R_pool3-R_0_split_1
I0715 09:19:48.373440 12952 net.cpp:380] score_pool3-new-R -> score_pool3-new-R
I0715 09:19:48.374358 12952 net.cpp:122] Setting up score_pool3-new-R
I0715 09:19:48.374369 12952 net.cpp:129] Top shape: 1 3 89 50 (13350)
I0715 09:19:48.374388 12952 net.cpp:137] Memory required for data: 1357892732
I0715 09:19:48.374394 12952 layer_factory.hpp:77] Creating layer score_pool3c-R
I0715 09:19:48.374399 12952 net.cpp:84] Creating Layer score_pool3c-R
I0715 09:19:48.374403 12952 net.cpp:406] score_pool3c-R <- score_pool3-new-R
I0715 09:19:48.374408 12952 net.cpp:406] score_pool3c-R <- upscore_pool4-new-R_upscore_pool4-new-R_0_split_0
I0715 09:19:48.374415 12952 net.cpp:380] score_pool3c-R -> score_pool3c-R
I0715 09:19:48.374459 12952 net.cpp:122] Setting up score_pool3c-R
I0715 09:19:48.374464 12952 net.cpp:129] Top shape: 1 3 74 34 (7548)
I0715 09:19:48.374466 12952 net.cpp:137] Memory required for data: 1357922924
I0715 09:19:48.374478 12952 layer_factory.hpp:77] Creating layer fuse_pool3-R
I0715 09:19:48.374491 12952 net.cpp:84] Creating Layer fuse_pool3-R
I0715 09:19:48.374495 12952 net.cpp:406] fuse_pool3-R <- upscore_pool4-new-R_upscore_pool4-new-R_0_split_1
I0715 09:19:48.374500 12952 net.cpp:406] fuse_pool3-R <- score_pool3c-R
I0715 09:19:48.374503 12952 net.cpp:380] fuse_pool3-R -> fuse_pool3-R
I0715 09:19:48.374532 12952 net.cpp:122] Setting up fuse_pool3-R
I0715 09:19:48.374537 12952 net.cpp:129] Top shape: 1 3 74 34 (7548)
I0715 09:19:48.374539 12952 net.cpp:137] Memory required for data: 1357953116
I0715 09:19:48.374543 12952 layer_factory.hpp:77] Creating layer upscore8-new-R
I0715 09:19:48.374550 12952 net.cpp:84] Creating Layer upscore8-new-R
I0715 09:19:48.374553 12952 net.cpp:406] upscore8-new-R <- fuse_pool3-R
I0715 09:19:48.374562 12952 net.cpp:380] upscore8-new-R -> upscore8-new-R
I0715 09:19:48.374804 12952 net.cpp:122] Setting up upscore8-new-R
I0715 09:19:48.374812 12952 net.cpp:129] Top shape: 1 3 600 280 (504000)
I0715 09:19:48.374815 12952 net.cpp:137] Memory required for data: 1359969116
I0715 09:19:48.374820 12952 layer_factory.hpp:77] Creating layer upscore8_cropped-R
I0715 09:19:48.374825 12952 net.cpp:84] Creating Layer upscore8_cropped-R
I0715 09:19:48.374830 12952 net.cpp:406] upscore8_cropped-R <- upscore8-new-R
I0715 09:19:48.374835 12952 net.cpp:406] upscore8_cropped-R <- data-R_crop_0_split_1
I0715 09:19:48.374840 12952 net.cpp:380] upscore8_cropped-R -> upscore8_cropped-R
I0715 09:19:48.374868 12952 net.cpp:122] Setting up upscore8_cropped-R
I0715 09:19:48.374873 12952 net.cpp:129] Top shape: 1 3 512 196 (301056)
I0715 09:19:48.374876 12952 net.cpp:137] Memory required for data: 1361173340
I0715 09:19:48.374879 12952 layer_factory.hpp:77] Creating layer upscore8_uncropped-R
I0715 09:19:48.375242 12952 net.cpp:84] Creating Layer upscore8_uncropped-R
I0715 09:19:48.375253 12952 net.cpp:406] upscore8_uncropped-R <- crop_info
I0715 09:19:48.375294 12952 net.cpp:406] upscore8_uncropped-R <- upscore8_cropped-R
I0715 09:19:48.375303 12952 net.cpp:406] upscore8_uncropped-R <- data_data_0_split_3
I0715 09:19:48.375313 12952 net.cpp:380] upscore8_uncropped-R -> upscore8_uncropped-R
I0715 09:19:48.377017 12952 net.cpp:122] Setting up upscore8_uncropped-R
I0715 09:19:48.377032 12952 net.cpp:129] Top shape: 1 3 512 196 (301056)
I0715 09:19:48.377050 12952 net.cpp:137] Memory required for data: 1362377564
I0715 09:19:48.377053 12952 layer_factory.hpp:77] Creating layer loss1
I0715 09:19:48.377068 12952 net.cpp:84] Creating Layer loss1
I0715 09:19:48.377071 12952 net.cpp:406] loss1 <- upscore8_cropped_upscore8_cropped_0_split_1
I0715 09:19:48.377076 12952 net.cpp:406] loss1 <- label_data_1_split_1
I0715 09:19:48.377084 12952 net.cpp:380] loss1 -> loss1
…
snapshot_prefix: "/media/Med_2T2/data2/models/snapshots/indiv:1e-5x10,20/FD2:XI3_1_20180715_091946/train"
test_initialization: false
average_loss: 20
stepvalue: 40000
iter_size: 1
I0715 10:13:16.343638 12952 solver.cpp:77] Creating training net from train_net file: /media/Med_2T2/data2/prototxts/training_I3x10.prototxt
I0715 10:13:16.346135 12952 net.cpp:51] Initializing net from parameters: 
state {
  phase: TRAIN
}
layer {
  name: "data"
  type: "Python"
  top: "data"
  top: "label"
  top: "crop_margin"
  top: "crop_prob"
  top: "crop_sample_batch"
  python_param {
    module: "Data"
    layer: "DataLayer"
  }
}
layer {
  name: "conv1_1"
  type: "Convolution"
  bottom: "data"
  top: "conv1_1"
  param {
    lr_mult: 1
    decay_mult: 1
  }
  param {
    lr_mult: 2
    decay_mult: 0
  }
  convolution_param {
    num_output: 64
    pad: 100
    kernel_size: 3
    stride: 1
  }
}
layer {
  name: "relu1_1"
  type: "ReLU"
  bottom: "conv1_1"
  top: "conv1_1"
}
layer {
  name: "conv1_2"
  type: "Convolution"
  bottom: "conv1_1"
  top: "conv1_2"
  param {
    lr_mult: 1
    decay_mult: 1
  }
  param {
    lr_mult: 2
    decay_mult: 0
  }
  convolution_param {
    num_output: 64
    pad: 1
    kernel_size: 3
    stride: 1
  }
}
layer {
  name: "relu1_2"
  type: "ReLU"
  bottom: "conv1_2"
  top: "conv1_2"
}
layer {
  name: "pool1"
  type: "Pooling"
  bottom: "conv1_2"
  top: "pool1"
  pooling_param {
    pool: MAX
    kernel_size: 2
    stride: 2
  }
}
layer {
  name: "conv2_1"
  type: "Convolution"
  bottom: "pool1"
  top: "conv2_1"
  param {
    lr_mult: 1
    decay_mult: 1
  }
  param {
    lr_mult: 2
    decay_mult: 0
  }
  convolution_param {
    num_output: 128
    pad: 1
    kernel_size: 3
    stride: 1
  }
}
layer {
  name: "relu2_1"
  type: "ReLU"
  bottom: "conv2_1"
  top: "conv2_1"
}
layer {
  name: "conv2_2"
  type: "Convolution"
  bottom: "conv2_1"
  top: "conv2_2"
  param {
    lr_mult: 1
    decay_mult: 1
  }
  param {
    lr_mult: 2
    decay_mult: 0
  }
  convolution_param {
    num_output: 128
    pad: 1
    kernel_size: 3
    stride: 1
  }
}
layer {
  name: "relu2_2"
  type: "ReLU"
  bottom: "conv2_2"
  top: "conv2_2"
}
layer {
  name: "pool2"
  type: "Pooling"
  bottom: "conv2_2"
  top: "pool2"
  pooling_param {
    pool: MAX
    kernel_size: 2
    stride: 2
  }
}
layer {
  name: "conv3_1"
  type: "Convolution"
  bottom: "pool2"
  top: "conv3_1"
  param {
    lr_mult: 1
    decay_mult: 1
  }
  param {
    lr_mult: 2
    decay_mult: 0
  }
  convolution_param {
    num_output: 256
    pad: 1
    kernel_size: 3
    stride: 1
  }
}
layer {
  name: "relu3_1"
  type: "ReLU"
  bottom: "conv3_1"
  top: "conv3_1"
}
layer {
  name: "conv3_2"
  type: "Convolution"
  bottom: "conv3_1"
  top: "conv3_2"
  param {
    lr_mult: 1
    decay_mult: 1
  }
  param {
    lr_mult: 2
    decay_mult: 0
  }
  convolution_param {
    num_output: 256
    pad: 1
    kernel_size: 3
    stride: 1
  }
}
layer {
  name: "relu3_2"
  type: "ReLU"
  bottom: "conv3_2"
  top: "conv3_2"
}
layer {
  name: "conv3_3"
  type: "Convolution"
  bottom: "conv3_2"
  top: "conv3_3"
  param {
    lr_mult: 1
    decay_mult: 1
  }
  param {
    lr_mult: 2
    decay_mult: 0
  }
  convolution_param {
    num_output: 256
    pad: 1
    kernel_size: 3
    stride: 1
  }
}
layer {
  name: "relu3_3"
  type: "ReLU"
  bottom: "conv3_3"
  top: "conv3_3"
}
layer {
  name: "pool3"
  type: "Pooling"
  bottom: "conv3_3"
  top: "pool3"
  pooling_param {
    pool: MAX
    kernel_size: 2
    stride: 2
  }
}
layer {
  name: "conv4_1"
  type: "Convolution"
  bottom: "pool3"
  top: "conv4_1"
  param {
    lr_mult: 1
    decay_mult: 1
  }
  param {
    lr_mult: 2
    decay_mult: 0
  }
  convolution_param {
    num_output: 512
    pad: 1
    kernel_size: 3
    stride: 1
  }
}
layer {
  name: "relu4_1"
  type: "ReLU"
  bottom: "conv4_1"
  top: "conv4_1"
}
layer {
  name: "conv4_2"
  type: "Convolution"
  bottom: "conv4_1"
  top: "conv4_2"
  param {
    lr_mult: 1
    decay_mult: 1
  }
  param {
    lr_mult: 2
    decay_mult: 0
  }
  convolution_param {
    num_output: 512
    pad: 1
    kernel_size: 3
    stride: 1
  }
}
layer {
  name: "relu4_2"
  type: "ReLU"
  bottom: "conv4_2"
  top: "conv4_2"
}
layer {
  name: "conv4_3"
  type: "Convolution"
  bottom: "conv4_2"
  top: "conv4_3"
  param {
    lr_mult: 1
    decay_mult: 1
  }
  param {
    lr_mult: 2
    decay_mult: 0
  }
  convolution_param {
    num_output: 512
    pad: 1
    kernel_size: 3
    stride: 1
  }
}
layer {
  name: "relu4_3"
  type: "ReLU"
  bottom: "conv4_3"
  top: "conv4_3"
}
layer {
  name: "pool4"
  type: "Pooling"
  bottom: "conv4_3"
  top: "pool4"
  pooling_param {
    pool: MAX
    kernel_size: 2
    stride: 2
  }
}
layer {
  name: "conv5_1"
  type: "Convolution"
  bottom: "pool4"
  top: "conv5_1"
  param {
    lr_mult: 1
    decay_mult: 1
  }
  param {
    lr_mult: 2
    decay_mult: 0
  }
  convolution_param {
    num_output: 512
    pad: 1
    kernel_size: 3
    stride: 1
  }
}
layer {
  name: "relu5_1"
  type: "ReLU"
  bottom: "conv5_1"
  top: "conv5_1"
}
layer {
  name: "conv5_2"
  type: "Convolution"
  bottom: "conv5_1"
  top: "conv5_2"
  param {
    lr_mult: 1
    decay_mult: 1
  }
  param {
    lr_mult: 2
    decay_mult: 0
  }
  convolution_param {
    num_output: 512
    pad: 1
    kernel_size: 3
    stride: 1
  }
}
layer {
  name: "relu5_2"
  type: "ReLU"
  bottom: "conv5_2"
  top: "conv5_2"
}
layer {
  name: "conv5_3"
  type: "Convolution"
  bottom: "conv5_2"
  top: "conv5_3"
  param {
    lr_mult: 1
    decay_mult: 1
  }
  param {
    lr_mult: 2
    decay_mult: 0
  }
  convolution_param {
    num_output: 512
    pad: 1
    kernel_size: 3
    stride: 1
  }
}
layer {
  name: "relu5_3"
  type: "ReLU"
  bottom: "conv5_3"
  top: "conv5_3"
}
layer {
  name: "pool5"
  type: "Pooling"
  bottom: "conv5_3"
  top: "pool5"
  pooling_param {
    pool: MAX
    kernel_size: 2
    stride: 2
  }
}
layer {
  name: "fc6"
  type: "Convolution"
  bottom: "pool5"
  top: "fc6"
  param {
    lr_mult: 1
    decay_mult: 1
  }
  param {
    lr_mult: 2
    decay_mult: 0
  }
  convolution_param {
    num_output: 4096
    pad: 0
    kernel_size: 7
    stride: 1
  }
}
layer {
  name: "relu6"
  type: "ReLU"
  bottom: "fc6"
  top: "fc6"
}
layer {
  name: "drop6"
  type: "Dropout"
  bottom: "fc6"
  top: "fc6"
  dropout_param {
    dropout_ratio: 0.5
  }
}
layer {
  name: "fc7"
  type: "Convolution"
  bottom: "fc6"
  top: "fc7"
  param {
    lr_mult: 1
    decay_mult: 1
  }
  param {
    lr_mult: 2
    decay_mult: 0
  }
  convolution_param {
    num_output: 4096
    pad: 0
    kernel_size: 1
    stride: 1
  }
}
layer {
  name: "relu7"
  type: "ReLU"
  bottom: "fc7"
  top: "fc7"
}
layer {
  name: "drop7"
  type: "Dropout"
  bottom: "fc7"
  top: "fc7"
  dropout_param {
    dropout_ratio: 0.5
  }
}
layer {
  name: "score_fr-new"
  type: "Convolution"
  bottom: "fc7"
  top: "score_fr-new"
  param {
    lr_mult: 1
    decay_mult: 1
  }
  param {
    lr_mult: 2
    decay_mult: 0
  }
  convolution_param {
    num_output: 3
    kernel_size: 1
  }
}
layer {
  name: "upscore2-new"
  type: "Deconvolution"
  bottom: "score_fr-new"
  top: "upscore2-new"
  param {
    lr_mult: 0
  }
  convolution_param {
    num_output: 3
    bias_term: false
    kernel_size: 4
    stride: 2
  }
}
layer {
  name: "score_pool4-new"
  type: "Convolution"
  bottom: "pool4"
  top: "score_pool4-new"
  param {
    lr_mult: 1
    decay_mult: 1
  }
  param {
    lr_mult: 2
    decay_mult: 0
  }
  convolution_param {
    num_output: 3
    pad: 0
    kernel_size: 1
  }
}
layer {
  name: "score_pool4c"
  type: "Crop"
  bottom: "score_pool4-new"
  bottom: "upscore2-new"
  top: "score_pool4c"
  crop_param {
    axis: 2
    offset: 5
  }
}
layer {
  name: "fuse_pool4"
  type: "Eltwise"
  bottom: "upscore2-new"
  bottom: "score_pool4c"
  top: "fuse_pool4"
  eltwise_param {
    operation: SUM
  }
}
layer {
  name: "upscore_pool4-new"
  type: "Deconvolution"
  bottom: "fuse_pool4"
  top: "upscore_pool4-new"
  param {
    lr_mult: 0
  }
  convolution_param {
    num_output: 3
    bias_term: false
    kernel_size: 4
    stride: 2
  }
}
layer {
  name: "score_pool3-new"
  type: "Convolution"
  bottom: "pool3"
  top: "score_pool3-new"
  param {
    lr_mult: 1
    decay_mult: 1
  }
  param {
    lr_mult: 2
    decay_mult: 0
  }
  convolution_param {
    num_output: 3
    pad: 0
    kernel_size: 1
  }
}
layer {
  name: "score_pool3c"
  type: "Crop"
  bottom: "score_pool3-new"
  bottom: "upscore_pool4-new"
  top: "score_pool3c"
  crop_param {
    axis: 2
    offset: 9
  }
}
layer {
  name: "fuse_pool3"
  type: "Eltwise"
  bottom: "upscore_pool4-new"
  bottom: "score_pool3c"
  top: "fuse_pool3"
  eltwise_param {
    operation: SUM
  }
}
layer {
  name: "upscore8-new"
  type: "Deconvolution"
  bottom: "fuse_pool3"
  top: "upscore8-new"
  param {
    lr_mult: 0
  }
  convolution_param {
    num_output: 3
    bias_term: false
    kernel_size: 16
    stride: 8
  }
}
layer {
  name: "upscore8_cropped"
  type: "Crop"
  bottom: "upscore8-new"
  bottom: "data"
  top: "upscore8_cropped"
  crop_param {
    axis: 2
    offset: 31
  }
}
layer {
  name: "prob"
  type: "Sigmoid"
  bottom: "upscore8_cropped"
  top: "prob"
}
layer {
  name: "saliency1"
  type: "Convolution"
  bottom: "prob"
  top: "saliency1"
  param {
    lr_mult: 10
    decay_mult: 1
  }
  param {
    lr_mult: 20
    decay_mult: 0
  }
  convolution_param {
    num_output: 3
    pad: 1
    kernel_size: 3
    stride: 1
    weight_filler {
      type: "xavier"
    }
    bias_filler {
      type: "constant"
      value: 1
    }
  }
}
layer {
  name: "relu_saliency1"
  type: "ReLU"
  bottom: "saliency1"
  top: "saliency1"
}
layer {
  name: "saliency"
  type: "Convolution"
  bottom: "saliency1"
  top: "saliency"
  param {
    lr_mult: 10
    decay_mult: 1
  }
  param {
    lr_mult: 20
    decay_mult: 0
  }
  convolution_param {
    num_output: 3
    pad: 2
    kernel_size: 5
    stride: 1
    weight_filler {
      type: "xavier"
    }
    bias_filler {
      type: "constant"
      value: 1
    }
  }
}
layer {
  name: "saliency_data"
  type: "Eltwise"
  bottom: "data"
  bottom: "saliency"
  top: "saliency_data"
  eltwise_param {
    operation: PROD
  }
}
layer {
  name: "crop"
  type: "Python"
  bottom: "label"
  bottom: "saliency_data"
  bottom: "crop_margin"
  bottom: "crop_prob"
  bottom: "crop_sample_batch"
  top: "data-R"
  top: "crop_info"
  python_param {
    module: "Crop"
    layer: "CropLayer"
    param_str: "{\"TEST\": 0}"
  }
}
layer {
  name: "conv1_1-R"
  type: "Convolution"
  bottom: "data-R"
  top: "conv1_1-R"
  param {
    lr_mult: 10
    decay_mult: 1
  }
  param {
    lr_mult: 20
    decay_mult: 0
  }
  convolution_param {
    num_output: 64
    pad: 100
    kernel_size: 3
    stride: 1
  }
}
layer {
  name: "relu1_1-R"
  type: "ReLU"
  bottom: "conv1_1-R"
  top: "conv1_1-R"
}
layer {
  name: "conv1_2-R"
  type: "Convolution"
  bottom: "conv1_1-R"
  top: "conv1_2-R"
  param {
    lr_mult: 10
    decay_mult: 1
  }
  param {
    lr_mult: 20
    decay_mult: 0
  }
  convolution_param {
    num_output: 64
    pad: 1
    kernel_size: 3
    stride: 1
  }
}
layer {
  name: "relu1_2-R"
  type: "ReLU"
  bottom: "conv1_2-R"
  top: "conv1_2-R"
}
layer {
  name: "pool1-R"
  type: "Pooling"
  bottom: "conv1_2-R"
  top: "pool1-R"
  pooling_param {
    pool: MAX
    kernel_size: 2
    stride: 2
  }
}
layer {
  name: "conv2_1-R"
  type: "Convolution"
  bottom: "pool1-R"
  top: "conv2_1-R"
  param {
    lr_mult: 10
    decay_mult: 1
  }
  param {
    lr_mult: 20
    decay_mult: 0
  }
  convolution_param {
    num_output: 128
    pad: 1
    kernel_size: 3
    stride: 1
  }
}
layer {
  name: "relu2_1-R"
  type: "ReLU"
  bottom: "conv2_1-R"
  top: "conv2_1-R"
}
layer {
  name: "conv2_2-R"
  type: "Convolution"
  bottom: "conv2_1-R"
  top: "conv2_2-R"
  param {
    lr_mult: 10
    decay_mult: 1
  }
  param {
    lr_mult: 20
    decay_mult: 0
  }
  convolution_param {
    num_output: 128
    pad: 1
    kernel_size: 3
    stride: 1
  }
}
layer {
  name: "relu2_2-R"
  type: "ReLU"
  bottom: "conv2_2-R"
  top: "conv2_2-R"
}
layer {
  name: "pool2-R"
  type: "Pooling"
  bottom: "conv2_2-R"
  top: "pool2-R"
  pooling_param {
    pool: MAX
    kernel_size: 2
    stride: 2
  }
}
layer {
  name: "conv3_1-R"
  type: "Convolution"
  bottom: "pool2-R"
  top: "conv3_1-R"
  param {
    lr_mult: 10
    decay_mult: 1
  }
  param {
    lr_mult: 20
    decay_mult: 0
  }
  convolution_param {
    num_output: 256
    pad: 1
    kernel_size: 3
    stride: 1
  }
}
layer {
  name: "relu3_1-R"
  type: "ReLU"
  bottom: "conv3_1-R"
  top: "conv3_1-R"
}
layer {
  name: "conv3_2-R"
  type: "Convolution"
  bottom: "conv3_1-R"
  top: "conv3_2-R"
  param {
    lr_mult: 10
    decay_mult: 1
  }
  param {
    lr_mult: 20
    decay_mult: 0
  }
  convolution_param {
    num_output: 256
    pad: 1
    kernel_size: 3
    stride: 1
  }
}
layer {
  name: "relu3_2-R"
  type: "ReLU"
  bottom: "conv3_2-R"
  top: "conv3_2-R"
}
layer {
  name: "conv3_3-R"
  type: "Convolution"
  bottom: "conv3_2-R"
  top: "conv3_3-R"
  param {
    lr_mult: 10
    decay_mult: 1
  }
  param {
    lr_mult: 20
    decay_mult: 0
  }
  convolution_param {
    num_output: 256
    pad: 1
    kernel_size: 3
    stride: 1
  }
}
layer {
  name: "relu3_3-R"
  type: "ReLU"
  bottom: "conv3_3-R"
  top: "conv3_3-R"
}
layer {
  name: "pool3-R"
  type: "Pooling"
  bottom: "conv3_3-R"
  top: "pool3-R"
  pooling_param {
    pool: MAX
    kernel_size: 2
    stride: 2
  }
}
layer {
  name: "conv4_1-R"
  type: "Convolution"
  bottom: "pool3-R"
  top: "conv4_1-R"
  param {
    lr_mult: 10
    decay_mult: 1
  }
  param {
    lr_mult: 20
    decay_mult: 0
  }
  convolution_param {
    num_output: 512
    pad: 1
    kernel_size: 3
    stride: 1
  }
}
layer {
  name: "relu4_1-R"
  type: "ReLU"
  bottom: "conv4_1-R"
  top: "conv4_1-R"
}
layer {
  name: "conv4_2-R"
  type: "Convolution"
  bottom: "conv4_1-R"
  top: "conv4_2-R"
  param {
    lr_mult: 10
    decay_mult: 1
  }
  param {
    lr_mult: 20
    decay_mult: 0
  }
  convolution_param {
    num_output: 512
    pad: 1
    kernel_size: 3
    stride: 1
  }
}
layer {
  name: "relu4_2-R"
  type: "ReLU"
  bottom: "conv4_2-R"
  top: "conv4_2-R"
}
layer {
  name: "conv4_3-R"
  type: "Convolution"
  bottom: "conv4_2-R"
  top: "conv4_3-R"
  param {
    lr_mult: 10
    decay_mult: 1
  }
  param {
    lr_mult: 20
    decay_mult: 0
  }
  convolution_param {
    num_output: 512
    pad: 1
    kernel_size: 3
    stride: 1
  }
}
layer {
  name: "relu4_3-R"
  type: "ReLU"
  bottom: "conv4_3-R"
  top: "conv4_3-R"
}
layer {
  name: "pool4-R"
  type: "Pooling"
  bottom: "conv4_3-R"
  top: "pool4-R"
  pooling_param {
    pool: MAX
    kernel_size: 2
    stride: 2
  }
}
layer {
  name: "conv5_1-R"
  type: "Convolution"
  bottom: "pool4-R"
  top: "conv5_1-R"
  param {
    lr_mult: 10
    decay_mult: 1
  }
  param {
    lr_mult: 20
    decay_mult: 0
  }
  convolution_param {
    num_output: 512
    pad: 1
    kernel_size: 3
    stride: 1
  }
}
layer {
  name: "relu5_1-R"
  type: "ReLU"
  bottom: "conv5_1-R"
  top: "conv5_1-R"
}
layer {
  name: "conv5_2-R"
  type: "Convolution"
  bottom: "conv5_1-R"
  top: "conv5_2-R"
  param {
    lr_mult: 10
    decay_mult: 1
  }
  param {
    lr_mult: 20
    decay_mult: 0
  }
  convolution_param {
    num_output: 512
    pad: 1
    kernel_size: 3
    stride: 1
  }
}
layer {
  name: "relu5_2-R"
  type: "ReLU"
  bottom: "conv5_2-R"
  top: "conv5_2-R"
}
layer {
  name: "conv5_3-R"
  type: "Convolution"
  bottom: "conv5_2-R"
  top: "conv5_3-R"
  param {
    lr_mult: 10
    decay_mult: 1
  }
  param {
    lr_mult: 20
    decay_mult: 0
  }
  convolution_param {
    num_output: 512
    pad: 1
    kernel_size: 3
    stride: 1
  }
}
layer {
  name: "relu5_3-R"
  type: "ReLU"
  bottom: "conv5_3-R"
  top: "conv5_3-R"
}
layer {
  name: "pool5-R"
  type: "Pooling"
  bottom: "conv5_3-R"
  top: "pool5-R"
  pooling_param {
    pool: MAX
    kernel_size: 2
    stride: 2
  }
}
layer {
  name: "fc6-R"
  type: "Convolution"
  bottom: "pool5-R"
  top: "fc6-R"
  param {
    lr_mult: 10
    decay_mult: 1
  }
  param {
    lr_mult: 20
    decay_mult: 0
  }
  convolution_param {
    num_output: 4096
    pad: 0
    kernel_size: 7
    stride: 1
  }
}
layer {
  name: "relu6-R"
  type: "ReLU"
  bottom: "fc6-R"
  top: "fc6-R"
}
layer {
  name: "drop6-R"
  type: "Dropout"
  bottom: "fc6-R"
  top: "fc6-R"
  dropout_param {
    dropout_ratio: 0.5
  }
}
layer {
  name: "fc7-R"
  type: "Convolution"
  bottom: "fc6-R"
  top: "fc7-R"
  param {
    lr_mult: 10
    decay_mult: 1
  }
  param {
    lr_mult: 20
    decay_mult: 0
  }
  convolution_param {
    num_output: 4096
    pad: 0
    kernel_size: 1
    stride: 1
  }
}
layer {
  name: "relu7-R"
  type: "ReLU"
  bottom: "fc7-R"
  top: "fc7-R"
}
layer {
  name: "drop7-R"
  type: "Dropout"
  bottom: "fc7-R"
  top: "fc7-R"
  dropout_param {
    dropout_ratio: 0.5
  }
}
layer {
  name: "score_fr-new-R"
  type: "Convolution"
  bottom: "fc7-R"
  top: "score_fr-new-R"
  param {
    lr_mult: 10
    decay_mult: 1
  }
  param {
    lr_mult: 20
    decay_mult: 0
  }
  convolution_param {
    num_output: 3
    kernel_size: 1
  }
}
layer {
  name: "upscore2-new-R"
  type: "Deconvolution"
  bottom: "score_fr-new-R"
  top: "upscore2-new-R"
  param {
    lr_mult: 0
  }
  convolution_param {
    num_output: 3
    bias_term: false
    kernel_size: 4
    stride: 2
  }
}
layer {
  name: "score_pool4-new-R"
  type: "Convolution"
  bottom: "pool4-R"
  top: "score_pool4-new-R"
  param {
    lr_mult: 10
    decay_mult: 1
  }
  param {
    lr_mult: 20
    decay_mult: 0
  }
  convolution_param {
    num_output: 3
    pad: 0
    kernel_size: 1
  }
}
layer {
  name: "score_pool4c-R"
  type: "Crop"
  bottom: "score_pool4-new-R"
  bottom: "upscore2-new-R"
  top: "score_pool4c-R"
  crop_param {
    axis: 2
    offset: 5
  }
}
layer {
  name: "fuse_pool4-R"
  type: "Eltwise"
  bottom: "upscore2-new-R"
  bottom: "score_pool4c-R"
  top: "fuse_pool4-R"
  eltwise_param {
    operation: SUM
  }
}
layer {
  name: "upscore_pool4-new-R"
  type: "Deconvolution"
  bottom: "fuse_pool4-R"
  top: "upscore_pool4-new-R"
  param {
    lr_mult: 0
  }
  convolution_param {
    num_output: 3
    bias_term: false
    kernel_size: 4
    stride: 2
  }
}
layer {
  name: "score_pool3-new-R"
  type: "Convolution"
  bottom: "pool3-R"
  top: "score_pool3-new-R"
  param {
    lr_mult: 10
    decay_mult: 1
  }
  param {
    lr_mult: 20
    decay_mult: 0
  }
  convolution_param {
    num_output: 3
    pad: 0
    kernel_size: 1
  }
}
layer {
  name: "score_pool3c-R"
  type: "Crop"
  bottom: "score_pool3-new-R"
  bottom: "upscore_pool4-new-R"
  top: "score_pool3c-R"
  crop_param {
    axis: 2
    offset: 9
  }
}
layer {
  name: "fuse_pool3-R"
  type: "Eltwise"
  bottom: "upscore_pool4-new-R"
  bottom: "score_pool3c-R"
  top: "fuse_pool3-R"
  eltwise_param {
    operation: SUM
  }
}
layer {
  name: "upscore8-new-R"
  type: "Deconvolution"
  bottom: "fuse_pool3-R"
  top: "upscore8-new-R"
  param {
    lr_mult: 0
  }
  convolution_param {
    num_output: 3
    bias_term: false
    kernel_size: 16
    stride: 8
  }
}
layer {
  name: "upscore8_cropped-R"
  type: "Crop"
  bottom: "upscore8-new-R"
  bottom: "data-R"
  top: "upscore8_cropped-R"
  crop_param {
    axis: 2
    offset: 31
  }
}
layer {
  name: "upscore8_uncropped-R"
  type: "Python"
  bottom: "crop_info"
  bottom: "upscore8_cropped-R"
  bottom: "data"
  top: "upscore8_uncropped-R"
  python_param {
    module: "Uncrop"
    layer: "UncropLayer"
  }
}
layer {
  name: "loss1"
  type: "DiceLoss"
  bottom: "upscore8_cropped"
  bottom: "label"
  top: "loss1"
  loss_weight: 0.333333
}
layer {
  name: "loss2"
  type: "DiceLoss"
  bottom: "upscore8_uncropped-R"
  bottom: "label"
  top: "loss2"
  loss_weight: 0.666667
}
I0715 10:13:16.346606 12952 layer_factory.hpp:77] Creating layer data
I0715 10:13:16.346699 12952 net.cpp:84] Creating Layer data
I0715 10:13:16.346706 12952 net.cpp:380] data -> data
I0715 10:13:16.346719 12952 net.cpp:380] data -> label
I0715 10:13:16.346724 12952 net.cpp:380] data -> crop_margin
I0715 10:13:16.346730 12952 net.cpp:380] data -> crop_prob
I0715 10:13:16.346736 12952 net.cpp:380] data -> crop_sample_batch
I0715 10:13:16.521186 12952 net.cpp:122] Setting up data
I0715 10:13:16.521224 12952 net.cpp:129] Top shape: 1 3 512 251 (385536)
I0715 10:13:16.521230 12952 net.cpp:129] Top shape: 1 3 512 251 (385536)
I0715 10:13:16.521234 12952 net.cpp:129] Top shape: 1 (1)
I0715 10:13:16.521239 12952 net.cpp:129] Top shape: 1 (1)
I0715 10:13:16.521242 12952 net.cpp:129] Top shape: 1 (1)
I0715 10:13:16.521245 12952 net.cpp:137] Memory required for data: 3084300
I0715 10:13:16.521253 12952 layer_factory.hpp:77] Creating layer data_data_0_split
I0715 10:13:16.521270 12952 net.cpp:84] Creating Layer data_data_0_split
I0715 10:13:16.521276 12952 net.cpp:406] data_data_0_split <- data
I0715 10:13:16.521286 12952 net.cpp:380] data_data_0_split -> data_data_0_split_0
I0715 10:13:16.521296 12952 net.cpp:380] data_data_0_split -> data_data_0_split_1
I0715 10:13:16.521303 12952 net.cpp:380] data_data_0_split -> data_data_0_split_2
I0715 10:13:16.521308 12952 net.cpp:380] data_data_0_split -> data_data_0_split_3
I0715 10:13:16.521409 12952 net.cpp:122] Setting up data_data_0_split
I0715 10:13:16.521423 12952 net.cpp:129] Top shape: 1 3 512 251 (385536)
I0715 10:13:16.521427 12952 net.cpp:129] Top shape: 1 3 512 251 (385536)
I0715 10:13:16.521431 12952 net.cpp:129] Top shape: 1 3 512 251 (385536)
I0715 10:13:16.521435 12952 net.cpp:129] Top shape: 1 3 512 251 (385536)
I0715 10:13:16.521438 12952 net.cpp:137] Memory required for data: 9252876
I0715 10:13:16.521442 12952 layer_factory.hpp:77] Creating layer label_data_1_split
I0715 10:13:16.521450 12952 net.cpp:84] Creating Layer label_data_1_split
I0715 10:13:16.521456 12952 net.cpp:406] label_data_1_split <- label
I0715 10:13:16.521464 12952 net.cpp:380] label_data_1_split -> label_data_1_split_0
I0715 10:13:16.521471 12952 net.cpp:380] label_data_1_split -> label_data_1_split_1
I0715 10:13:16.521476 12952 net.cpp:380] label_data_1_split -> label_data_1_split_2
I0715 10:13:16.521553 12952 net.cpp:122] Setting up label_data_1_split
I0715 10:13:16.521560 12952 net.cpp:129] Top shape: 1 3 512 251 (385536)
I0715 10:13:16.521564 12952 net.cpp:129] Top shape: 1 3 512 251 (385536)
I0715 10:13:16.521569 12952 net.cpp:129] Top shape: 1 3 512 251 (385536)
I0715 10:13:16.521574 12952 net.cpp:137] Memory required for data: 13879308
I0715 10:13:16.521577 12952 layer_factory.hpp:77] Creating layer conv1_1
I0715 10:13:16.521591 12952 net.cpp:84] Creating Layer conv1_1
I0715 10:13:16.521595 12952 net.cpp:406] conv1_1 <- data_data_0_split_0
I0715 10:13:16.521600 12952 net.cpp:380] conv1_1 -> conv1_1
I0715 10:13:16.525611 12952 net.cpp:122] Setting up conv1_1
I0715 10:13:16.525629 12952 net.cpp:129] Top shape: 1 64 710 449 (20402560)
I0715 10:13:16.525635 12952 net.cpp:137] Memory required for data: 95489548
I0715 10:13:16.525647 12952 layer_factory.hpp:77] Creating layer relu1_1
I0715 10:13:16.525660 12952 net.cpp:84] Creating Layer relu1_1
I0715 10:13:16.525663 12952 net.cpp:406] relu1_1 <- conv1_1
I0715 10:13:16.525668 12952 net.cpp:367] relu1_1 -> conv1_1 (in-place)
I0715 10:13:16.526520 12952 net.cpp:122] Setting up relu1_1
I0715 10:13:16.526533 12952 net.cpp:129] Top shape: 1 64 710 449 (20402560)
I0715 10:13:16.526553 12952 net.cpp:137] Memory required for data: 177099788
I0715 10:13:16.526557 12952 layer_factory.hpp:77] Creating layer conv1_2
I0715 10:13:16.526566 12952 net.cpp:84] Creating Layer conv1_2
I0715 10:13:16.526571 12952 net.cpp:406] conv1_2 <- conv1_1
I0715 10:13:16.526576 12952 net.cpp:380] conv1_2 -> conv1_2
I0715 10:13:16.529901 12952 net.cpp:122] Setting up conv1_2
I0715 10:13:16.529930 12952 net.cpp:129] Top shape: 1 64 710 449 (20402560)
I0715 10:13:16.529934 12952 net.cpp:137] Memory required for data: 258710028
I0715 10:13:16.529944 12952 layer_factory.hpp:77] Creating layer relu1_2
I0715 10:13:16.529952 12952 net.cpp:84] Creating Layer relu1_2
I0715 10:13:16.529955 12952 net.cpp:406] relu1_2 <- conv1_2
I0715 10:13:16.529960 12952 net.cpp:367] relu1_2 -> conv1_2 (in-place)
I0715 10:13:16.530181 12952 net.cpp:122] Setting up relu1_2
I0715 10:13:16.530194 12952 net.cpp:129] Top shape: 1 64 710 449 (20402560)
I0715 10:13:16.530198 12952 net.cpp:137] Memory required for data: 340320268
I0715 10:13:16.530201 12952 layer_factory.hpp:77] Creating layer pool1
I0715 10:13:16.530211 12952 net.cpp:84] Creating Layer pool1
I0715 10:13:16.530215 12952 net.cpp:406] pool1 <- conv1_2
I0715 10:13:16.530220 12952 net.cpp:380] pool1 -> pool1
I0715 10:13:16.530297 12952 net.cpp:122] Setting up pool1
I0715 10:13:16.530305 12952 net.cpp:129] Top shape: 1 64 355 225 (5112000)
I0715 10:13:16.530308 12952 net.cpp:137] Memory required for data: 360768268
I0715 10:13:16.530313 12952 layer_factory.hpp:77] Creating layer conv2_1
I0715 10:13:16.530321 12952 net.cpp:84] Creating Layer conv2_1
I0715 10:13:16.530325 12952 net.cpp:406] conv2_1 <- pool1
I0715 10:13:16.530330 12952 net.cpp:380] conv2_1 -> conv2_1
I0715 10:13:16.532271 12952 net.cpp:122] Setting up conv2_1
I0715 10:13:16.532301 12952 net.cpp:129] Top shape: 1 128 355 225 (10224000)
I0715 10:13:16.532305 12952 net.cpp:137] Memory required for data: 401664268
I0715 10:13:16.532315 12952 layer_factory.hpp:77] Creating layer relu2_1
I0715 10:13:16.532325 12952 net.cpp:84] Creating Layer relu2_1
I0715 10:13:16.532328 12952 net.cpp:406] relu2_1 <- conv2_1
I0715 10:13:16.532335 12952 net.cpp:367] relu2_1 -> conv2_1 (in-place)
I0715 10:13:16.532537 12952 net.cpp:122] Setting up relu2_1
I0715 10:13:16.532549 12952 net.cpp:129] Top shape: 1 128 355 225 (10224000)
I0715 10:13:16.532554 12952 net.cpp:137] Memory required for data: 442560268
I0715 10:13:16.532558 12952 layer_factory.hpp:77] Creating layer conv2_2
I0715 10:13:16.532578 12952 net.cpp:84] Creating Layer conv2_2
I0715 10:13:16.532582 12952 net.cpp:406] conv2_2 <- conv2_1
I0715 10:13:16.532588 12952 net.cpp:380] conv2_2 -> conv2_2
I0715 10:13:16.534431 12952 net.cpp:122] Setting up conv2_2
I0715 10:13:16.534461 12952 net.cpp:129] Top shape: 1 128 355 225 (10224000)
I0715 10:13:16.534466 12952 net.cpp:137] Memory required for data: 483456268
I0715 10:13:16.534472 12952 layer_factory.hpp:77] Creating layer relu2_2
I0715 10:13:16.534479 12952 net.cpp:84] Creating Layer relu2_2
I0715 10:13:16.534482 12952 net.cpp:406] relu2_2 <- conv2_2
I0715 10:13:16.534488 12952 net.cpp:367] relu2_2 -> conv2_2 (in-place)
I0715 10:13:16.534692 12952 net.cpp:122] Setting up relu2_2
I0715 10:13:16.534705 12952 net.cpp:129] Top shape: 1 128 355 225 (10224000)
I0715 10:13:16.534710 12952 net.cpp:137] Memory required for data: 524352268
I0715 10:13:16.534714 12952 layer_factory.hpp:77] Creating layer pool2
I0715 10:13:16.534723 12952 net.cpp:84] Creating Layer pool2
I0715 10:13:16.534729 12952 net.cpp:406] pool2 <- conv2_2
I0715 10:13:16.534734 12952 net.cpp:380] pool2 -> pool2
I0715 10:13:16.534813 12952 net.cpp:122] Setting up pool2
I0715 10:13:16.534823 12952 net.cpp:129] Top shape: 1 128 178 113 (2574592)
I0715 10:13:16.534827 12952 net.cpp:137] Memory required for data: 534650636
I0715 10:13:16.534832 12952 layer_factory.hpp:77] Creating layer conv3_1
I0715 10:13:16.534842 12952 net.cpp:84] Creating Layer conv3_1
I0715 10:13:16.534845 12952 net.cpp:406] conv3_1 <- pool2
I0715 10:13:16.534852 12952 net.cpp:380] conv3_1 -> conv3_1
I0715 10:13:16.538422 12952 net.cpp:122] Setting up conv3_1
I0715 10:13:16.538452 12952 net.cpp:129] Top shape: 1 256 178 113 (5149184)
I0715 10:13:16.538456 12952 net.cpp:137] Memory required for data: 555247372
I0715 10:13:16.538466 12952 layer_factory.hpp:77] Creating layer relu3_1
I0715 10:13:16.538475 12952 net.cpp:84] Creating Layer relu3_1
I0715 10:13:16.538477 12952 net.cpp:406] relu3_1 <- conv3_1
I0715 10:13:16.538483 12952 net.cpp:367] relu3_1 -> conv3_1 (in-place)
I0715 10:13:16.538729 12952 net.cpp:122] Setting up relu3_1
I0715 10:13:16.538740 12952 net.cpp:129] Top shape: 1 256 178 113 (5149184)
I0715 10:13:16.538744 12952 net.cpp:137] Memory required for data: 575844108
I0715 10:13:16.538749 12952 layer_factory.hpp:77] Creating layer conv3_2
I0715 10:13:16.538760 12952 net.cpp:84] Creating Layer conv3_2
I0715 10:13:16.538764 12952 net.cpp:406] conv3_2 <- conv3_1
I0715 10:13:16.538771 12952 net.cpp:380] conv3_2 -> conv3_2
I0715 10:13:16.542909 12952 net.cpp:122] Setting up conv3_2
I0715 10:13:16.542940 12952 net.cpp:129] Top shape: 1 256 178 113 (5149184)
I0715 10:13:16.542944 12952 net.cpp:137] Memory required for data: 596440844
I0715 10:13:16.542951 12952 layer_factory.hpp:77] Creating layer relu3_2
I0715 10:13:16.542960 12952 net.cpp:84] Creating Layer relu3_2
I0715 10:13:16.542964 12952 net.cpp:406] relu3_2 <- conv3_2
I0715 10:13:16.542969 12952 net.cpp:367] relu3_2 -> conv3_2 (in-place)
I0715 10:13:16.543197 12952 net.cpp:122] Setting up relu3_2
I0715 10:13:16.543210 12952 net.cpp:129] Top shape: 1 256 178 113 (5149184)
I0715 10:13:16.543213 12952 net.cpp:137] Memory required for data: 617037580
I0715 10:13:16.543218 12952 layer_factory.hpp:77] Creating layer conv3_3
I0715 10:13:16.543226 12952 net.cpp:84] Creating Layer conv3_3
I0715 10:13:16.543231 12952 net.cpp:406] conv3_3 <- conv3_2
I0715 10:13:16.543236 12952 net.cpp:380] conv3_3 -> conv3_3
I0715 10:13:16.547593 12952 net.cpp:122] Setting up conv3_3
I0715 10:13:16.547634 12952 net.cpp:129] Top shape: 1 256 178 113 (5149184)
I0715 10:13:16.547639 12952 net.cpp:137] Memory required for data: 637634316
I0715 10:13:16.547662 12952 layer_factory.hpp:77] Creating layer relu3_3
I0715 10:13:16.547668 12952 net.cpp:84] Creating Layer relu3_3
I0715 10:13:16.547673 12952 net.cpp:406] relu3_3 <- conv3_3
I0715 10:13:16.547679 12952 net.cpp:367] relu3_3 -> conv3_3 (in-place)
I0715 10:13:16.548534 12952 net.cpp:122] Setting up relu3_3
I0715 10:13:16.548563 12952 net.cpp:129] Top shape: 1 256 178 113 (5149184)
I0715 10:13:16.548568 12952 net.cpp:137] Memory required for data: 658231052
I0715 10:13:16.548571 12952 layer_factory.hpp:77] Creating layer pool3
I0715 10:13:16.548580 12952 net.cpp:84] Creating Layer pool3
I0715 10:13:16.548584 12952 net.cpp:406] pool3 <- conv3_3
I0715 10:13:16.548591 12952 net.cpp:380] pool3 -> pool3
I0715 10:13:16.548671 12952 net.cpp:122] Setting up pool3
I0715 10:13:16.548677 12952 net.cpp:129] Top shape: 1 256 89 57 (1298688)
I0715 10:13:16.548681 12952 net.cpp:137] Memory required for data: 663425804
I0715 10:13:16.548684 12952 layer_factory.hpp:77] Creating layer pool3_pool3_0_split
I0715 10:13:16.548691 12952 net.cpp:84] Creating Layer pool3_pool3_0_split
I0715 10:13:16.548694 12952 net.cpp:406] pool3_pool3_0_split <- pool3
I0715 10:13:16.548701 12952 net.cpp:380] pool3_pool3_0_split -> pool3_pool3_0_split_0
I0715 10:13:16.548707 12952 net.cpp:380] pool3_pool3_0_split -> pool3_pool3_0_split_1
I0715 10:13:16.548763 12952 net.cpp:122] Setting up pool3_pool3_0_split
I0715 10:13:16.548771 12952 net.cpp:129] Top shape: 1 256 89 57 (1298688)
I0715 10:13:16.548776 12952 net.cpp:129] Top shape: 1 256 89 57 (1298688)
I0715 10:13:16.548779 12952 net.cpp:137] Memory required for data: 673815308
I0715 10:13:16.548782 12952 layer_factory.hpp:77] Creating layer conv4_1
I0715 10:13:16.548791 12952 net.cpp:84] Creating Layer conv4_1
I0715 10:13:16.548795 12952 net.cpp:406] conv4_1 <- pool3_pool3_0_split_0
I0715 10:13:16.548802 12952 net.cpp:380] conv4_1 -> conv4_1
I0715 10:13:16.555047 12952 net.cpp:122] Setting up conv4_1
I0715 10:13:16.555079 12952 net.cpp:129] Top shape: 1 512 89 57 (2597376)
I0715 10:13:16.555083 12952 net.cpp:137] Memory required for data: 684204812
I0715 10:13:16.555094 12952 layer_factory.hpp:77] Creating layer relu4_1
I0715 10:13:16.555101 12952 net.cpp:84] Creating Layer relu4_1
I0715 10:13:16.555107 12952 net.cpp:406] relu4_1 <- conv4_1
I0715 10:13:16.555115 12952 net.cpp:367] relu4_1 -> conv4_1 (in-place)
I0715 10:13:16.555452 12952 net.cpp:122] Setting up relu4_1
I0715 10:13:16.555466 12952 net.cpp:129] Top shape: 1 512 89 57 (2597376)
I0715 10:13:16.555470 12952 net.cpp:137] Memory required for data: 694594316
I0715 10:13:16.555474 12952 layer_factory.hpp:77] Creating layer conv4_2
I0715 10:13:16.555488 12952 net.cpp:84] Creating Layer conv4_2
I0715 10:13:16.555496 12952 net.cpp:406] conv4_2 <- conv4_1
I0715 10:13:16.555508 12952 net.cpp:380] conv4_2 -> conv4_2
I0715 10:13:16.564824 12952 net.cpp:122] Setting up conv4_2
I0715 10:13:16.564859 12952 net.cpp:129] Top shape: 1 512 89 57 (2597376)
I0715 10:13:16.564863 12952 net.cpp:137] Memory required for data: 704983820
I0715 10:13:16.564884 12952 layer_factory.hpp:77] Creating layer relu4_2
I0715 10:13:16.564895 12952 net.cpp:84] Creating Layer relu4_2
I0715 10:13:16.564899 12952 net.cpp:406] relu4_2 <- conv4_2
I0715 10:13:16.564918 12952 net.cpp:367] relu4_2 -> conv4_2 (in-place)
I0715 10:13:16.565201 12952 net.cpp:122] Setting up relu4_2
I0715 10:13:16.565212 12952 net.cpp:129] Top shape: 1 512 89 57 (2597376)
I0715 10:13:16.565215 12952 net.cpp:137] Memory required for data: 715373324
I0715 10:13:16.565219 12952 layer_factory.hpp:77] Creating layer conv4_3
I0715 10:13:16.565229 12952 net.cpp:84] Creating Layer conv4_3
I0715 10:13:16.565233 12952 net.cpp:406] conv4_3 <- conv4_2
I0715 10:13:16.565241 12952 net.cpp:380] conv4_3 -> conv4_3
I0715 10:13:16.574059 12952 net.cpp:122] Setting up conv4_3
I0715 10:13:16.574095 12952 net.cpp:129] Top shape: 1 512 89 57 (2597376)
I0715 10:13:16.574100 12952 net.cpp:137] Memory required for data: 725762828
I0715 10:13:16.574110 12952 layer_factory.hpp:77] Creating layer relu4_3
I0715 10:13:16.574120 12952 net.cpp:84] Creating Layer relu4_3
I0715 10:13:16.574124 12952 net.cpp:406] relu4_3 <- conv4_3
I0715 10:13:16.574131 12952 net.cpp:367] relu4_3 -> conv4_3 (in-place)
I0715 10:13:16.574345 12952 net.cpp:122] Setting up relu4_3
I0715 10:13:16.574358 12952 net.cpp:129] Top shape: 1 512 89 57 (2597376)
I0715 10:13:16.574362 12952 net.cpp:137] Memory required for data: 736152332
I0715 10:13:16.574365 12952 layer_factory.hpp:77] Creating layer pool4
I0715 10:13:16.574374 12952 net.cpp:84] Creating Layer pool4
I0715 10:13:16.574378 12952 net.cpp:406] pool4 <- conv4_3
I0715 10:13:16.574386 12952 net.cpp:380] pool4 -> pool4
I0715 10:13:16.574468 12952 net.cpp:122] Setting up pool4
I0715 10:13:16.574477 12952 net.cpp:129] Top shape: 1 512 45 29 (668160)
I0715 10:13:16.574481 12952 net.cpp:137] Memory required for data: 738824972
I0715 10:13:16.574483 12952 layer_factory.hpp:77] Creating layer pool4_pool4_0_split
I0715 10:13:16.574492 12952 net.cpp:84] Creating Layer pool4_pool4_0_split
I0715 10:13:16.574496 12952 net.cpp:406] pool4_pool4_0_split <- pool4
I0715 10:13:16.574501 12952 net.cpp:380] pool4_pool4_0_split -> pool4_pool4_0_split_0
I0715 10:13:16.574509 12952 net.cpp:380] pool4_pool4_0_split -> pool4_pool4_0_split_1
I0715 10:13:16.574579 12952 net.cpp:122] Setting up pool4_pool4_0_split
I0715 10:13:16.574587 12952 net.cpp:129] Top shape: 1 512 45 29 (668160)
I0715 10:13:16.574592 12952 net.cpp:129] Top shape: 1 512 45 29 (668160)
I0715 10:13:16.574595 12952 net.cpp:137] Memory required for data: 744170252
I0715 10:13:16.574599 12952 layer_factory.hpp:77] Creating layer conv5_1
I0715 10:13:16.574610 12952 net.cpp:84] Creating Layer conv5_1
I0715 10:13:16.574615 12952 net.cpp:406] conv5_1 <- pool4_pool4_0_split_0
I0715 10:13:16.574623 12952 net.cpp:380] conv5_1 -> conv5_1
I0715 10:13:16.583125 12952 net.cpp:122] Setting up conv5_1
I0715 10:13:16.583161 12952 net.cpp:129] Top shape: 1 512 45 29 (668160)
I0715 10:13:16.583165 12952 net.cpp:137] Memory required for data: 746842892
I0715 10:13:16.583175 12952 layer_factory.hpp:77] Creating layer relu5_1
I0715 10:13:16.583184 12952 net.cpp:84] Creating Layer relu5_1
I0715 10:13:16.583189 12952 net.cpp:406] relu5_1 <- conv5_1
I0715 10:13:16.583196 12952 net.cpp:367] relu5_1 -> conv5_1 (in-place)
I0715 10:13:16.583505 12952 net.cpp:122] Setting up relu5_1
I0715 10:13:16.583516 12952 net.cpp:129] Top shape: 1 512 45 29 (668160)
I0715 10:13:16.583520 12952 net.cpp:137] Memory required for data: 749515532
I0715 10:13:16.583524 12952 layer_factory.hpp:77] Creating layer conv5_2
I0715 10:13:16.583535 12952 net.cpp:84] Creating Layer conv5_2
I0715 10:13:16.583539 12952 net.cpp:406] conv5_2 <- conv5_1
I0715 10:13:16.583547 12952 net.cpp:380] conv5_2 -> conv5_2
I0715 10:13:16.592228 12952 net.cpp:122] Setting up conv5_2
I0715 10:13:16.592262 12952 net.cpp:129] Top shape: 1 512 45 29 (668160)
I0715 10:13:16.592265 12952 net.cpp:137] Memory required for data: 752188172
I0715 10:13:16.592274 12952 layer_factory.hpp:77] Creating layer relu5_2
I0715 10:13:16.592288 12952 net.cpp:84] Creating Layer relu5_2
I0715 10:13:16.592293 12952 net.cpp:406] relu5_2 <- conv5_2
I0715 10:13:16.592300 12952 net.cpp:367] relu5_2 -> conv5_2 (in-place)
I0715 10:13:16.592561 12952 net.cpp:122] Setting up relu5_2
I0715 10:13:16.592576 12952 net.cpp:129] Top shape: 1 512 45 29 (668160)
I0715 10:13:16.592581 12952 net.cpp:137] Memory required for data: 754860812
I0715 10:13:16.592584 12952 layer_factory.hpp:77] Creating layer conv5_3
I0715 10:13:16.592599 12952 net.cpp:84] Creating Layer conv5_3
I0715 10:13:16.592602 12952 net.cpp:406] conv5_3 <- conv5_2
I0715 10:13:16.592613 12952 net.cpp:380] conv5_3 -> conv5_3
I0715 10:13:16.601759 12952 net.cpp:122] Setting up conv5_3
I0715 10:13:16.601795 12952 net.cpp:129] Top shape: 1 512 45 29 (668160)
I0715 10:13:16.601800 12952 net.cpp:137] Memory required for data: 757533452
I0715 10:13:16.601811 12952 layer_factory.hpp:77] Creating layer relu5_3
I0715 10:13:16.601822 12952 net.cpp:84] Creating Layer relu5_3
I0715 10:13:16.601827 12952 net.cpp:406] relu5_3 <- conv5_3
I0715 10:13:16.601833 12952 net.cpp:367] relu5_3 -> conv5_3 (in-place)
I0715 10:13:16.602830 12952 net.cpp:122] Setting up relu5_3
I0715 10:13:16.602865 12952 net.cpp:129] Top shape: 1 512 45 29 (668160)
I0715 10:13:16.602869 12952 net.cpp:137] Memory required for data: 760206092
I0715 10:13:16.602875 12952 layer_factory.hpp:77] Creating layer pool5
I0715 10:13:16.602887 12952 net.cpp:84] Creating Layer pool5
I0715 10:13:16.602891 12952 net.cpp:406] pool5 <- conv5_3
I0715 10:13:16.602901 12952 net.cpp:380] pool5 -> pool5
I0715 10:13:16.602998 12952 net.cpp:122] Setting up pool5
I0715 10:13:16.603009 12952 net.cpp:129] Top shape: 1 512 23 15 (176640)
I0715 10:13:16.603013 12952 net.cpp:137] Memory required for data: 760912652
I0715 10:13:16.603015 12952 layer_factory.hpp:77] Creating layer fc6
I0715 10:13:16.603039 12952 net.cpp:84] Creating Layer fc6
I0715 10:13:16.603046 12952 net.cpp:406] fc6 <- pool5
I0715 10:13:16.603055 12952 net.cpp:380] fc6 -> fc6
I0715 10:13:16.934089 12952 net.cpp:122] Setting up fc6
I0715 10:13:16.934139 12952 net.cpp:129] Top shape: 1 4096 17 9 (626688)
I0715 10:13:16.934144 12952 net.cpp:137] Memory required for data: 763419404
I0715 10:13:16.934156 12952 layer_factory.hpp:77] Creating layer relu6
I0715 10:13:16.934177 12952 net.cpp:84] Creating Layer relu6
I0715 10:13:16.934183 12952 net.cpp:406] relu6 <- fc6
I0715 10:13:16.934191 12952 net.cpp:367] relu6 -> fc6 (in-place)
I0715 10:13:16.935062 12952 net.cpp:122] Setting up relu6
I0715 10:13:16.935076 12952 net.cpp:129] Top shape: 1 4096 17 9 (626688)
I0715 10:13:16.935096 12952 net.cpp:137] Memory required for data: 765926156
I0715 10:13:16.935099 12952 layer_factory.hpp:77] Creating layer drop6
I0715 10:13:16.935108 12952 net.cpp:84] Creating Layer drop6
I0715 10:13:16.935112 12952 net.cpp:406] drop6 <- fc6
I0715 10:13:16.935118 12952 net.cpp:367] drop6 -> fc6 (in-place)
I0715 10:13:16.935163 12952 net.cpp:122] Setting up drop6
I0715 10:13:16.935169 12952 net.cpp:129] Top shape: 1 4096 17 9 (626688)
I0715 10:13:16.935173 12952 net.cpp:137] Memory required for data: 768432908
I0715 10:13:16.935176 12952 layer_factory.hpp:77] Creating layer fc7
I0715 10:13:16.935187 12952 net.cpp:84] Creating Layer fc7
I0715 10:13:16.935191 12952 net.cpp:406] fc7 <- fc6
I0715 10:13:16.935200 12952 net.cpp:380] fc7 -> fc7
I0715 10:13:16.985637 12952 net.cpp:122] Setting up fc7
I0715 10:13:16.985684 12952 net.cpp:129] Top shape: 1 4096 17 9 (626688)
I0715 10:13:16.985688 12952 net.cpp:137] Memory required for data: 770939660
I0715 10:13:16.985700 12952 layer_factory.hpp:77] Creating layer relu7
I0715 10:13:16.985713 12952 net.cpp:84] Creating Layer relu7
I0715 10:13:16.985718 12952 net.cpp:406] relu7 <- fc7
I0715 10:13:16.985726 12952 net.cpp:367] relu7 -> fc7 (in-place)
I0715 10:13:16.985961 12952 net.cpp:122] Setting up relu7
I0715 10:13:16.985971 12952 net.cpp:129] Top shape: 1 4096 17 9 (626688)
I0715 10:13:16.985975 12952 net.cpp:137] Memory required for data: 773446412
I0715 10:13:16.985978 12952 layer_factory.hpp:77] Creating layer drop7
I0715 10:13:16.985986 12952 net.cpp:84] Creating Layer drop7
I0715 10:13:16.985990 12952 net.cpp:406] drop7 <- fc7
I0715 10:13:16.985997 12952 net.cpp:367] drop7 -> fc7 (in-place)
I0715 10:13:16.986045 12952 net.cpp:122] Setting up drop7
I0715 10:13:16.986052 12952 net.cpp:129] Top shape: 1 4096 17 9 (626688)
I0715 10:13:16.986057 12952 net.cpp:137] Memory required for data: 775953164
I0715 10:13:16.986059 12952 layer_factory.hpp:77] Creating layer score_fr-new
I0715 10:13:16.986069 12952 net.cpp:84] Creating Layer score_fr-new
I0715 10:13:16.986073 12952 net.cpp:406] score_fr-new <- fc7
I0715 10:13:16.986080 12952 net.cpp:380] score_fr-new -> score_fr-new
I0715 10:13:16.987918 12952 net.cpp:122] Setting up score_fr-new
I0715 10:13:16.987932 12952 net.cpp:129] Top shape: 1 3 17 9 (459)
I0715 10:13:16.987951 12952 net.cpp:137] Memory required for data: 775955000
I0715 10:13:16.987958 12952 layer_factory.hpp:77] Creating layer upscore2-new
I0715 10:13:16.987968 12952 net.cpp:84] Creating Layer upscore2-new
I0715 10:13:16.987972 12952 net.cpp:406] upscore2-new <- score_fr-new
I0715 10:13:16.987979 12952 net.cpp:380] upscore2-new -> upscore2-new
I0715 10:13:16.988342 12952 net.cpp:122] Setting up upscore2-new
I0715 10:13:16.988364 12952 net.cpp:129] Top shape: 1 3 36 20 (2160)
I0715 10:13:16.988384 12952 net.cpp:137] Memory required for data: 775963640
I0715 10:13:16.988399 12952 layer_factory.hpp:77] Creating layer upscore2-new_upscore2-new_0_split
I0715 10:13:16.988407 12952 net.cpp:84] Creating Layer upscore2-new_upscore2-new_0_split
I0715 10:13:16.988411 12952 net.cpp:406] upscore2-new_upscore2-new_0_split <- upscore2-new
I0715 10:13:16.988417 12952 net.cpp:380] upscore2-new_upscore2-new_0_split -> upscore2-new_upscore2-new_0_split_0
I0715 10:13:16.988425 12952 net.cpp:380] upscore2-new_upscore2-new_0_split -> upscore2-new_upscore2-new_0_split_1
I0715 10:13:16.988482 12952 net.cpp:122] Setting up upscore2-new_upscore2-new_0_split
I0715 10:13:16.988488 12952 net.cpp:129] Top shape: 1 3 36 20 (2160)
I0715 10:13:16.988492 12952 net.cpp:129] Top shape: 1 3 36 20 (2160)
I0715 10:13:16.988497 12952 net.cpp:137] Memory required for data: 775980920
I0715 10:13:16.988502 12952 layer_factory.hpp:77] Creating layer score_pool4-new
I0715 10:13:16.988512 12952 net.cpp:84] Creating Layer score_pool4-new
I0715 10:13:16.988515 12952 net.cpp:406] score_pool4-new <- pool4_pool4_0_split_1
I0715 10:13:16.988523 12952 net.cpp:380] score_pool4-new -> score_pool4-new
I0715 10:13:16.990260 12952 net.cpp:122] Setting up score_pool4-new
I0715 10:13:16.990274 12952 net.cpp:129] Top shape: 1 3 45 29 (3915)
I0715 10:13:16.990293 12952 net.cpp:137] Memory required for data: 775996580
I0715 10:13:16.990300 12952 layer_factory.hpp:77] Creating layer score_pool4c
I0715 10:13:16.990309 12952 net.cpp:84] Creating Layer score_pool4c
I0715 10:13:16.990314 12952 net.cpp:406] score_pool4c <- score_pool4-new
I0715 10:13:16.990319 12952 net.cpp:406] score_pool4c <- upscore2-new_upscore2-new_0_split_0
I0715 10:13:16.990324 12952 net.cpp:380] score_pool4c -> score_pool4c
I0715 10:13:16.990383 12952 net.cpp:122] Setting up score_pool4c
I0715 10:13:16.990389 12952 net.cpp:129] Top shape: 1 3 36 20 (2160)
I0715 10:13:16.990392 12952 net.cpp:137] Memory required for data: 776005220
I0715 10:13:16.990396 12952 layer_factory.hpp:77] Creating layer fuse_pool4
I0715 10:13:16.990404 12952 net.cpp:84] Creating Layer fuse_pool4
I0715 10:13:16.990408 12952 net.cpp:406] fuse_pool4 <- upscore2-new_upscore2-new_0_split_1
I0715 10:13:16.990413 12952 net.cpp:406] fuse_pool4 <- score_pool4c
I0715 10:13:16.990419 12952 net.cpp:380] fuse_pool4 -> fuse_pool4
I0715 10:13:16.990458 12952 net.cpp:122] Setting up fuse_pool4
I0715 10:13:16.990463 12952 net.cpp:129] Top shape: 1 3 36 20 (2160)
I0715 10:13:16.990466 12952 net.cpp:137] Memory required for data: 776013860
I0715 10:13:16.990470 12952 layer_factory.hpp:77] Creating layer upscore_pool4-new
I0715 10:13:16.990478 12952 net.cpp:84] Creating Layer upscore_pool4-new
I0715 10:13:16.990483 12952 net.cpp:406] upscore_pool4-new <- fuse_pool4
I0715 10:13:16.990489 12952 net.cpp:380] upscore_pool4-new -> upscore_pool4-new
I0715 10:13:16.990823 12952 net.cpp:122] Setting up upscore_pool4-new
I0715 10:13:16.990831 12952 net.cpp:129] Top shape: 1 3 74 42 (9324)
I0715 10:13:16.990837 12952 net.cpp:137] Memory required for data: 776051156
I0715 10:13:16.990842 12952 layer_factory.hpp:77] Creating layer upscore_pool4-new_upscore_pool4-new_0_split
I0715 10:13:16.990849 12952 net.cpp:84] Creating Layer upscore_pool4-new_upscore_pool4-new_0_split
I0715 10:13:16.990852 12952 net.cpp:406] upscore_pool4-new_upscore_pool4-new_0_split <- upscore_pool4-new
I0715 10:13:16.990857 12952 net.cpp:380] upscore_pool4-new_upscore_pool4-new_0_split -> upscore_pool4-new_upscore_pool4-new_0_split_0
I0715 10:13:16.990864 12952 net.cpp:380] upscore_pool4-new_upscore_pool4-new_0_split -> upscore_pool4-new_upscore_pool4-new_0_split_1
I0715 10:13:16.990926 12952 net.cpp:122] Setting up upscore_pool4-new_upscore_pool4-new_0_split
I0715 10:13:16.990936 12952 net.cpp:129] Top shape: 1 3 74 42 (9324)
I0715 10:13:16.990939 12952 net.cpp:129] Top shape: 1 3 74 42 (9324)
I0715 10:13:16.990943 12952 net.cpp:137] Memory required for data: 776125748
I0715 10:13:16.990947 12952 layer_factory.hpp:77] Creating layer score_pool3-new
I0715 10:13:16.990955 12952 net.cpp:84] Creating Layer score_pool3-new
I0715 10:13:16.990959 12952 net.cpp:406] score_pool3-new <- pool3_pool3_0_split_1
I0715 10:13:16.990967 12952 net.cpp:380] score_pool3-new -> score_pool3-new
I0715 10:13:16.992766 12952 net.cpp:122] Setting up score_pool3-new
I0715 10:13:16.992780 12952 net.cpp:129] Top shape: 1 3 89 57 (15219)
I0715 10:13:16.992799 12952 net.cpp:137] Memory required for data: 776186624
I0715 10:13:16.992806 12952 layer_factory.hpp:77] Creating layer score_pool3c
I0715 10:13:16.992815 12952 net.cpp:84] Creating Layer score_pool3c
I0715 10:13:16.992818 12952 net.cpp:406] score_pool3c <- score_pool3-new
I0715 10:13:16.992825 12952 net.cpp:406] score_pool3c <- upscore_pool4-new_upscore_pool4-new_0_split_0
I0715 10:13:16.992830 12952 net.cpp:380] score_pool3c -> score_pool3c
I0715 10:13:16.992887 12952 net.cpp:122] Setting up score_pool3c
I0715 10:13:16.992893 12952 net.cpp:129] Top shape: 1 3 74 42 (9324)
I0715 10:13:16.992897 12952 net.cpp:137] Memory required for data: 776223920
I0715 10:13:16.992900 12952 layer_factory.hpp:77] Creating layer fuse_pool3
I0715 10:13:16.992908 12952 net.cpp:84] Creating Layer fuse_pool3
I0715 10:13:16.992911 12952 net.cpp:406] fuse_pool3 <- upscore_pool4-new_upscore_pool4-new_0_split_1
I0715 10:13:16.992916 12952 net.cpp:406] fuse_pool3 <- score_pool3c
I0715 10:13:16.992923 12952 net.cpp:380] fuse_pool3 -> fuse_pool3
I0715 10:13:16.992964 12952 net.cpp:122] Setting up fuse_pool3
I0715 10:13:16.992969 12952 net.cpp:129] Top shape: 1 3 74 42 (9324)
I0715 10:13:16.992974 12952 net.cpp:137] Memory required for data: 776261216
I0715 10:13:16.992976 12952 layer_factory.hpp:77] Creating layer upscore8-new
I0715 10:13:16.992987 12952 net.cpp:84] Creating Layer upscore8-new
I0715 10:13:16.992991 12952 net.cpp:406] upscore8-new <- fuse_pool3
I0715 10:13:16.993000 12952 net.cpp:380] upscore8-new -> upscore8-new
I0715 10:13:16.993376 12952 net.cpp:122] Setting up upscore8-new
I0715 10:13:16.993384 12952 net.cpp:129] Top shape: 1 3 600 344 (619200)
I0715 10:13:16.993403 12952 net.cpp:137] Memory required for data: 778738016
I0715 10:13:16.993408 12952 layer_factory.hpp:77] Creating layer upscore8_cropped
I0715 10:13:16.993417 12952 net.cpp:84] Creating Layer upscore8_cropped
I0715 10:13:16.993422 12952 net.cpp:406] upscore8_cropped <- upscore8-new
I0715 10:13:16.993428 12952 net.cpp:406] upscore8_cropped <- data_data_0_split_1
I0715 10:13:16.993434 12952 net.cpp:380] upscore8_cropped -> upscore8_cropped
I0715 10:13:16.993471 12952 net.cpp:122] Setting up upscore8_cropped
I0715 10:13:16.993476 12952 net.cpp:129] Top shape: 1 3 512 251 (385536)
I0715 10:13:16.993479 12952 net.cpp:137] Memory required for data: 780280160
I0715 10:13:16.993484 12952 layer_factory.hpp:77] Creating layer upscore8_cropped_upscore8_cropped_0_split
I0715 10:13:16.993489 12952 net.cpp:84] Creating Layer upscore8_cropped_upscore8_cropped_0_split
I0715 10:13:16.993494 12952 net.cpp:406] upscore8_cropped_upscore8_cropped_0_split <- upscore8_cropped
I0715 10:13:16.993499 12952 net.cpp:380] upscore8_cropped_upscore8_cropped_0_split -> upscore8_cropped_upscore8_cropped_0_split_0
I0715 10:13:16.993505 12952 net.cpp:380] upscore8_cropped_upscore8_cropped_0_split -> upscore8_cropped_upscore8_cropped_0_split_1
I0715 10:13:16.993566 12952 net.cpp:122] Setting up upscore8_cropped_upscore8_cropped_0_split
I0715 10:13:16.993573 12952 net.cpp:129] Top shape: 1 3 512 251 (385536)
I0715 10:13:16.993577 12952 net.cpp:129] Top shape: 1 3 512 251 (385536)
I0715 10:13:16.993582 12952 net.cpp:137] Memory required for data: 783364448
I0715 10:13:16.993584 12952 layer_factory.hpp:77] Creating layer prob
I0715 10:13:16.993592 12952 net.cpp:84] Creating Layer prob
I0715 10:13:16.993595 12952 net.cpp:406] prob <- upscore8_cropped_upscore8_cropped_0_split_0
I0715 10:13:16.993602 12952 net.cpp:380] prob -> prob
I0715 10:13:16.993858 12952 net.cpp:122] Setting up prob
I0715 10:13:16.993870 12952 net.cpp:129] Top shape: 1 3 512 251 (385536)
I0715 10:13:16.993872 12952 net.cpp:137] Memory required for data: 784906592
I0715 10:13:16.993875 12952 layer_factory.hpp:77] Creating layer saliency1
I0715 10:13:16.993887 12952 net.cpp:84] Creating Layer saliency1
I0715 10:13:16.993891 12952 net.cpp:406] saliency1 <- prob
I0715 10:13:16.993899 12952 net.cpp:380] saliency1 -> saliency1
I0715 10:13:16.995851 12952 net.cpp:122] Setting up saliency1
I0715 10:13:16.995880 12952 net.cpp:129] Top shape: 1 3 512 251 (385536)
I0715 10:13:16.995884 12952 net.cpp:137] Memory required for data: 786448736
I0715 10:13:16.995892 12952 layer_factory.hpp:77] Creating layer relu_saliency1
I0715 10:13:16.995898 12952 net.cpp:84] Creating Layer relu_saliency1
I0715 10:13:16.995901 12952 net.cpp:406] relu_saliency1 <- saliency1
I0715 10:13:16.995908 12952 net.cpp:367] relu_saliency1 -> saliency1 (in-place)
I0715 10:13:16.996125 12952 net.cpp:122] Setting up relu_saliency1
I0715 10:13:16.996136 12952 net.cpp:129] Top shape: 1 3 512 251 (385536)
I0715 10:13:16.996140 12952 net.cpp:137] Memory required for data: 787990880
I0715 10:13:16.996143 12952 layer_factory.hpp:77] Creating layer saliency
I0715 10:13:16.996155 12952 net.cpp:84] Creating Layer saliency
I0715 10:13:16.996161 12952 net.cpp:406] saliency <- saliency1
I0715 10:13:16.996170 12952 net.cpp:380] saliency -> saliency
I0715 10:13:16.998057 12952 net.cpp:122] Setting up saliency
I0715 10:13:16.998070 12952 net.cpp:129] Top shape: 1 3 512 251 (385536)
I0715 10:13:16.998090 12952 net.cpp:137] Memory required for data: 789533024
I0715 10:13:16.998098 12952 layer_factory.hpp:77] Creating layer saliency_data
I0715 10:13:16.998106 12952 net.cpp:84] Creating Layer saliency_data
I0715 10:13:16.998111 12952 net.cpp:406] saliency_data <- data_data_0_split_2
I0715 10:13:16.998116 12952 net.cpp:406] saliency_data <- saliency
I0715 10:13:16.998121 12952 net.cpp:380] saliency_data -> saliency_data
I0715 10:13:16.998181 12952 net.cpp:122] Setting up saliency_data
I0715 10:13:16.998188 12952 net.cpp:129] Top shape: 1 3 512 251 (385536)
I0715 10:13:16.998190 12952 net.cpp:137] Memory required for data: 791075168
I0715 10:13:16.998193 12952 layer_factory.hpp:77] Creating layer crop
I0715 10:13:16.998430 12952 net.cpp:84] Creating Layer crop
I0715 10:13:16.998440 12952 net.cpp:406] crop <- label_data_1_split_0
I0715 10:13:16.998445 12952 net.cpp:406] crop <- saliency_data
I0715 10:13:16.998450 12952 net.cpp:406] crop <- crop_margin
I0715 10:13:16.998455 12952 net.cpp:406] crop <- crop_prob
I0715 10:13:16.998458 12952 net.cpp:406] crop <- crop_sample_batch
I0715 10:13:16.998466 12952 net.cpp:380] crop -> data-R
I0715 10:13:16.998472 12952 net.cpp:380] crop -> crop_info
I0715 10:13:17.004065 12952 net.cpp:122] Setting up crop
I0715 10:13:17.004096 12952 net.cpp:129] Top shape: 1 3 512 251 (385536)
I0715 10:13:17.004102 12952 net.cpp:129] Top shape: 1 2 4 (8)
I0715 10:13:17.004106 12952 net.cpp:137] Memory required for data: 792617344
I0715 10:13:17.004109 12952 layer_factory.hpp:77] Creating layer data-R_crop_0_split
I0715 10:13:17.004117 12952 net.cpp:84] Creating Layer data-R_crop_0_split
I0715 10:13:17.004120 12952 net.cpp:406] data-R_crop_0_split <- data-R
I0715 10:13:17.004127 12952 net.cpp:380] data-R_crop_0_split -> data-R_crop_0_split_0
I0715 10:13:17.004134 12952 net.cpp:380] data-R_crop_0_split -> data-R_crop_0_split_1
I0715 10:13:17.004214 12952 net.cpp:122] Setting up data-R_crop_0_split
I0715 10:13:17.004220 12952 net.cpp:129] Top shape: 1 3 512 251 (385536)
I0715 10:13:17.004223 12952 net.cpp:129] Top shape: 1 3 512 251 (385536)
I0715 10:13:17.004226 12952 net.cpp:137] Memory required for data: 795701632
I0715 10:13:17.004230 12952 layer_factory.hpp:77] Creating layer conv1_1-R
I0715 10:13:17.004240 12952 net.cpp:84] Creating Layer conv1_1-R
I0715 10:13:17.004243 12952 net.cpp:406] conv1_1-R <- data-R_crop_0_split_0
I0715 10:13:17.004250 12952 net.cpp:380] conv1_1-R -> conv1_1-R
I0715 10:13:17.008440 12952 net.cpp:122] Setting up conv1_1-R
I0715 10:13:17.008473 12952 net.cpp:129] Top shape: 1 64 710 449 (20402560)
I0715 10:13:17.008478 12952 net.cpp:137] Memory required for data: 877311872
I0715 10:13:17.008487 12952 layer_factory.hpp:77] Creating layer relu1_1-R
I0715 10:13:17.008507 12952 net.cpp:84] Creating Layer relu1_1-R
I0715 10:13:17.008512 12952 net.cpp:406] relu1_1-R <- conv1_1-R
I0715 10:13:17.008533 12952 net.cpp:367] relu1_1-R -> conv1_1-R (in-place)
I0715 10:13:17.008795 12952 net.cpp:122] Setting up relu1_1-R
I0715 10:13:17.008807 12952 net.cpp:129] Top shape: 1 64 710 449 (20402560)
I0715 10:13:17.008810 12952 net.cpp:137] Memory required for data: 958922112
I0715 10:13:17.008814 12952 layer_factory.hpp:77] Creating layer conv1_2-R
I0715 10:13:17.008824 12952 net.cpp:84] Creating Layer conv1_2-R
I0715 10:13:17.008828 12952 net.cpp:406] conv1_2-R <- conv1_1-R
I0715 10:13:17.008834 12952 net.cpp:380] conv1_2-R -> conv1_2-R
I0715 10:13:17.012615 12952 net.cpp:122] Setting up conv1_2-R
I0715 10:13:17.012629 12952 net.cpp:129] Top shape: 1 64 710 449 (20402560)
I0715 10:13:17.012650 12952 net.cpp:137] Memory required for data: 1040532352
I0715 10:13:17.012656 12952 layer_factory.hpp:77] Creating layer relu1_2-R
I0715 10:13:17.012662 12952 net.cpp:84] Creating Layer relu1_2-R
I0715 10:13:17.012666 12952 net.cpp:406] relu1_2-R <- conv1_2-R
I0715 10:13:17.012671 12952 net.cpp:367] relu1_2-R -> conv1_2-R (in-place)
I0715 10:13:17.012907 12952 net.cpp:122] Setting up relu1_2-R
I0715 10:13:17.012918 12952 net.cpp:129] Top shape: 1 64 710 449 (20402560)
I0715 10:13:17.012923 12952 net.cpp:137] Memory required for data: 1122142592
I0715 10:13:17.012925 12952 layer_factory.hpp:77] Creating layer pool1-R
I0715 10:13:17.012934 12952 net.cpp:84] Creating Layer pool1-R
I0715 10:13:17.012938 12952 net.cpp:406] pool1-R <- conv1_2-R
I0715 10:13:17.012944 12952 net.cpp:380] pool1-R -> pool1-R
I0715 10:13:17.013016 12952 net.cpp:122] Setting up pool1-R
I0715 10:13:17.013025 12952 net.cpp:129] Top shape: 1 64 355 225 (5112000)
I0715 10:13:17.013028 12952 net.cpp:137] Memory required for data: 1142590592
I0715 10:13:17.013031 12952 layer_factory.hpp:77] Creating layer conv2_1-R
I0715 10:13:17.013041 12952 net.cpp:84] Creating Layer conv2_1-R
I0715 10:13:17.013043 12952 net.cpp:406] conv2_1-R <- pool1-R
I0715 10:13:17.013049 12952 net.cpp:380] conv2_1-R -> conv2_1-R
I0715 10:13:17.014897 12952 net.cpp:122] Setting up conv2_1-R
I0715 10:13:17.014927 12952 net.cpp:129] Top shape: 1 128 355 225 (10224000)
I0715 10:13:17.014931 12952 net.cpp:137] Memory required for data: 1183486592
I0715 10:13:17.014938 12952 layer_factory.hpp:77] Creating layer relu2_1-R
I0715 10:13:17.014945 12952 net.cpp:84] Creating Layer relu2_1-R
I0715 10:13:17.014948 12952 net.cpp:406] relu2_1-R <- conv2_1-R
I0715 10:13:17.014953 12952 net.cpp:367] relu2_1-R -> conv2_1-R (in-place)
I0715 10:13:17.015163 12952 net.cpp:122] Setting up relu2_1-R
I0715 10:13:17.015173 12952 net.cpp:129] Top shape: 1 128 355 225 (10224000)
I0715 10:13:17.015177 12952 net.cpp:137] Memory required for data: 1224382592
I0715 10:13:17.015180 12952 layer_factory.hpp:77] Creating layer conv2_2-R
I0715 10:13:17.015188 12952 net.cpp:84] Creating Layer conv2_2-R
I0715 10:13:17.015192 12952 net.cpp:406] conv2_2-R <- conv2_1-R
I0715 10:13:17.015199 12952 net.cpp:380] conv2_2-R -> conv2_2-R
I0715 10:13:17.017313 12952 net.cpp:122] Setting up conv2_2-R
I0715 10:13:17.017331 12952 net.cpp:129] Top shape: 1 128 355 225 (10224000)
I0715 10:13:17.017351 12952 net.cpp:137] Memory required for data: 1265278592
I0715 10:13:17.017359 12952 layer_factory.hpp:77] Creating layer relu2_2-R
I0715 10:13:17.017365 12952 net.cpp:84] Creating Layer relu2_2-R
I0715 10:13:17.017369 12952 net.cpp:406] relu2_2-R <- conv2_2-R
I0715 10:13:17.017375 12952 net.cpp:367] relu2_2-R -> conv2_2-R (in-place)
I0715 10:13:17.018318 12952 net.cpp:122] Setting up relu2_2-R
I0715 10:13:17.018332 12952 net.cpp:129] Top shape: 1 128 355 225 (10224000)
I0715 10:13:17.018350 12952 net.cpp:137] Memory required for data: 1306174592
I0715 10:13:17.018354 12952 layer_factory.hpp:77] Creating layer pool2-R
I0715 10:13:17.018362 12952 net.cpp:84] Creating Layer pool2-R
I0715 10:13:17.018365 12952 net.cpp:406] pool2-R <- conv2_2-R
I0715 10:13:17.018373 12952 net.cpp:380] pool2-R -> pool2-R
I0715 10:13:17.018460 12952 net.cpp:122] Setting up pool2-R
I0715 10:13:17.018466 12952 net.cpp:129] Top shape: 1 128 178 113 (2574592)
I0715 10:13:17.018470 12952 net.cpp:137] Memory required for data: 1316472960
I0715 10:13:17.018472 12952 layer_factory.hpp:77] Creating layer conv3_1-R
I0715 10:13:17.018482 12952 net.cpp:84] Creating Layer conv3_1-R
I0715 10:13:17.018486 12952 net.cpp:406] conv3_1-R <- pool2-R
I0715 10:13:17.018492 12952 net.cpp:380] conv3_1-R -> conv3_1-R
I0715 10:13:17.022780 12952 net.cpp:122] Setting up conv3_1-R
I0715 10:13:17.022810 12952 net.cpp:129] Top shape: 1 256 178 113 (5149184)
I0715 10:13:17.022814 12952 net.cpp:137] Memory required for data: 1337069696
I0715 10:13:17.022822 12952 layer_factory.hpp:77] Creating layer relu3_1-R
I0715 10:13:17.022830 12952 net.cpp:84] Creating Layer relu3_1-R
I0715 10:13:17.022833 12952 net.cpp:406] relu3_1-R <- conv3_1-R
I0715 10:13:17.022840 12952 net.cpp:367] relu3_1-R -> conv3_1-R (in-place)
I0715 10:13:17.023087 12952 net.cpp:122] Setting up relu3_1-R
I0715 10:13:17.023097 12952 net.cpp:129] Top shape: 1 256 178 113 (5149184)
I0715 10:13:17.023100 12952 net.cpp:137] Memory required for data: 1357666432
I0715 10:13:17.023104 12952 layer_factory.hpp:77] Creating layer conv3_2-R
I0715 10:13:17.023114 12952 net.cpp:84] Creating Layer conv3_2-R
I0715 10:13:17.023118 12952 net.cpp:406] conv3_2-R <- conv3_1-R
I0715 10:13:17.023125 12952 net.cpp:380] conv3_2-R -> conv3_2-R
I0715 10:13:17.027768 12952 net.cpp:122] Setting up conv3_2-R
I0715 10:13:17.027798 12952 net.cpp:129] Top shape: 1 256 178 113 (5149184)
I0715 10:13:17.027802 12952 net.cpp:137] Memory required for data: 1378263168
I0715 10:13:17.027810 12952 layer_factory.hpp:77] Creating layer relu3_2-R
I0715 10:13:17.027818 12952 net.cpp:84] Creating Layer relu3_2-R
I0715 10:13:17.027822 12952 net.cpp:406] relu3_2-R <- conv3_2-R
I0715 10:13:17.027828 12952 net.cpp:367] relu3_2-R -> conv3_2-R (in-place)
I0715 10:13:17.028076 12952 net.cpp:122] Setting up relu3_2-R
I0715 10:13:17.028086 12952 net.cpp:129] Top shape: 1 256 178 113 (5149184)
I0715 10:13:17.028090 12952 net.cpp:137] Memory required for data: 1398859904
I0715 10:13:17.028095 12952 layer_factory.hpp:77] Creating layer conv3_3-R
I0715 10:13:17.028103 12952 net.cpp:84] Creating Layer conv3_3-R
I0715 10:13:17.028107 12952 net.cpp:406] conv3_3-R <- conv3_2-R
I0715 10:13:17.028115 12952 net.cpp:380] conv3_3-R -> conv3_3-R
I0715 10:13:17.032666 12952 net.cpp:122] Setting up conv3_3-R
I0715 10:13:17.032697 12952 net.cpp:129] Top shape: 1 256 178 113 (5149184)
I0715 10:13:17.032701 12952 net.cpp:137] Memory required for data: 1419456640
I0715 10:13:17.032709 12952 layer_factory.hpp:77] Creating layer relu3_3-R
I0715 10:13:17.032717 12952 net.cpp:84] Creating Layer relu3_3-R
I0715 10:13:17.032721 12952 net.cpp:406] relu3_3-R <- conv3_3-R
I0715 10:13:17.032727 12952 net.cpp:367] relu3_3-R -> conv3_3-R (in-place)
I0715 10:13:17.032976 12952 net.cpp:122] Setting up relu3_3-R
I0715 10:13:17.032986 12952 net.cpp:129] Top shape: 1 256 178 113 (5149184)
I0715 10:13:17.032989 12952 net.cpp:137] Memory required for data: 1440053376
I0715 10:13:17.032994 12952 layer_factory.hpp:77] Creating layer pool3-R
I0715 10:13:17.033001 12952 net.cpp:84] Creating Layer pool3-R
I0715 10:13:17.033005 12952 net.cpp:406] pool3-R <- conv3_3-R
I0715 10:13:17.033011 12952 net.cpp:380] pool3-R -> pool3-R
I0715 10:13:17.033087 12952 net.cpp:122] Setting up pool3-R
I0715 10:13:17.033095 12952 net.cpp:129] Top shape: 1 256 89 57 (1298688)
I0715 10:13:17.033098 12952 net.cpp:137] Memory required for data: 1445248128
I0715 10:13:17.033102 12952 layer_factory.hpp:77] Creating layer pool3-R_pool3-R_0_split
I0715 10:13:17.033108 12952 net.cpp:84] Creating Layer pool3-R_pool3-R_0_split
I0715 10:13:17.033113 12952 net.cpp:406] pool3-R_pool3-R_0_split <- pool3-R
I0715 10:13:17.033119 12952 net.cpp:380] pool3-R_pool3-R_0_split -> pool3-R_pool3-R_0_split_0
I0715 10:13:17.033125 12952 net.cpp:380] pool3-R_pool3-R_0_split -> pool3-R_pool3-R_0_split_1
I0715 10:13:17.033191 12952 net.cpp:122] Setting up pool3-R_pool3-R_0_split
I0715 10:13:17.033200 12952 net.cpp:129] Top shape: 1 256 89 57 (1298688)
I0715 10:13:17.033205 12952 net.cpp:129] Top shape: 1 256 89 57 (1298688)
I0715 10:13:17.033207 12952 net.cpp:137] Memory required for data: 1455637632
I0715 10:13:17.033210 12952 layer_factory.hpp:77] Creating layer conv4_1-R
I0715 10:13:17.033221 12952 net.cpp:84] Creating Layer conv4_1-R
I0715 10:13:17.033224 12952 net.cpp:406] conv4_1-R <- pool3-R_pool3-R_0_split_0
I0715 10:13:17.033232 12952 net.cpp:380] conv4_1-R -> conv4_1-R
I0715 10:13:17.039254 12952 net.cpp:122] Setting up conv4_1-R
I0715 10:13:17.039317 12952 net.cpp:129] Top shape: 1 512 89 57 (2597376)
I0715 10:13:17.039324 12952 net.cpp:137] Memory required for data: 1466027136
I0715 10:13:17.039333 12952 layer_factory.hpp:77] Creating layer relu4_1-R
I0715 10:13:17.039342 12952 net.cpp:84] Creating Layer relu4_1-R
I0715 10:13:17.039362 12952 net.cpp:406] relu4_1-R <- conv4_1-R
I0715 10:13:17.039369 12952 net.cpp:367] relu4_1-R -> conv4_1-R (in-place)
I0715 10:13:17.039649 12952 net.cpp:122] Setting up relu4_1-R
I0715 10:13:17.039659 12952 net.cpp:129] Top shape: 1 512 89 57 (2597376)
I0715 10:13:17.039664 12952 net.cpp:137] Memory required for data: 1476416640
I0715 10:13:17.039667 12952 layer_factory.hpp:77] Creating layer conv4_2-R
I0715 10:13:17.039677 12952 net.cpp:84] Creating Layer conv4_2-R
I0715 10:13:17.039681 12952 net.cpp:406] conv4_2-R <- conv4_1-R
I0715 10:13:17.039705 12952 net.cpp:380] conv4_2-R -> conv4_2-R
I0715 10:13:17.048120 12952 net.cpp:122] Setting up conv4_2-R
I0715 10:13:17.048153 12952 net.cpp:129] Top shape: 1 512 89 57 (2597376)
I0715 10:13:17.048158 12952 net.cpp:137] Memory required for data: 1486806144
I0715 10:13:17.048166 12952 layer_factory.hpp:77] Creating layer relu4_2-R
I0715 10:13:17.048173 12952 net.cpp:84] Creating Layer relu4_2-R
I0715 10:13:17.048178 12952 net.cpp:406] relu4_2-R <- conv4_2-R
I0715 10:13:17.048184 12952 net.cpp:367] relu4_2-R -> conv4_2-R (in-place)
I0715 10:13:17.048418 12952 net.cpp:122] Setting up relu4_2-R
I0715 10:13:17.048429 12952 net.cpp:129] Top shape: 1 512 89 57 (2597376)
I0715 10:13:17.048432 12952 net.cpp:137] Memory required for data: 1497195648
I0715 10:13:17.048436 12952 layer_factory.hpp:77] Creating layer conv4_3-R
I0715 10:13:17.048447 12952 net.cpp:84] Creating Layer conv4_3-R
I0715 10:13:17.048451 12952 net.cpp:406] conv4_3-R <- conv4_2-R
I0715 10:13:17.048460 12952 net.cpp:380] conv4_3-R -> conv4_3-R
I0715 10:13:17.056871 12952 net.cpp:122] Setting up conv4_3-R
I0715 10:13:17.056905 12952 net.cpp:129] Top shape: 1 512 89 57 (2597376)
I0715 10:13:17.056910 12952 net.cpp:137] Memory required for data: 1507585152
I0715 10:13:17.056916 12952 layer_factory.hpp:77] Creating layer relu4_3-R
I0715 10:13:17.056924 12952 net.cpp:84] Creating Layer relu4_3-R
I0715 10:13:17.056929 12952 net.cpp:406] relu4_3-R <- conv4_3-R
I0715 10:13:17.056936 12952 net.cpp:367] relu4_3-R -> conv4_3-R (in-place)
I0715 10:13:17.057911 12952 net.cpp:122] Setting up relu4_3-R
I0715 10:13:17.057924 12952 net.cpp:129] Top shape: 1 512 89 57 (2597376)
I0715 10:13:17.057945 12952 net.cpp:137] Memory required for data: 1517974656
I0715 10:13:17.057947 12952 layer_factory.hpp:77] Creating layer pool4-R
I0715 10:13:17.057956 12952 net.cpp:84] Creating Layer pool4-R
I0715 10:13:17.057960 12952 net.cpp:406] pool4-R <- conv4_3-R
I0715 10:13:17.057968 12952 net.cpp:380] pool4-R -> pool4-R
I0715 10:13:17.058061 12952 net.cpp:122] Setting up pool4-R
I0715 10:13:17.058073 12952 net.cpp:129] Top shape: 1 512 45 29 (668160)
I0715 10:13:17.058075 12952 net.cpp:137] Memory required for data: 1520647296
I0715 10:13:17.058079 12952 layer_factory.hpp:77] Creating layer pool4-R_pool4-R_0_split
I0715 10:13:17.058085 12952 net.cpp:84] Creating Layer pool4-R_pool4-R_0_split
I0715 10:13:17.058089 12952 net.cpp:406] pool4-R_pool4-R_0_split <- pool4-R
I0715 10:13:17.058096 12952 net.cpp:380] pool4-R_pool4-R_0_split -> pool4-R_pool4-R_0_split_0
I0715 10:13:17.058104 12952 net.cpp:380] pool4-R_pool4-R_0_split -> pool4-R_pool4-R_0_split_1
I0715 10:13:17.058164 12952 net.cpp:122] Setting up pool4-R_pool4-R_0_split
I0715 10:13:17.058173 12952 net.cpp:129] Top shape: 1 512 45 29 (668160)
I0715 10:13:17.058178 12952 net.cpp:129] Top shape: 1 512 45 29 (668160)
I0715 10:13:17.058182 12952 net.cpp:137] Memory required for data: 1525992576
I0715 10:13:17.058184 12952 layer_factory.hpp:77] Creating layer conv5_1-R
I0715 10:13:17.058194 12952 net.cpp:84] Creating Layer conv5_1-R
I0715 10:13:17.058198 12952 net.cpp:406] conv5_1-R <- pool4-R_pool4-R_0_split_0
I0715 10:13:17.058207 12952 net.cpp:380] conv5_1-R -> conv5_1-R
I0715 10:13:17.067189 12952 net.cpp:122] Setting up conv5_1-R
I0715 10:13:17.067224 12952 net.cpp:129] Top shape: 1 512 45 29 (668160)
I0715 10:13:17.067227 12952 net.cpp:137] Memory required for data: 1528665216
I0715 10:13:17.067251 12952 layer_factory.hpp:77] Creating layer relu5_1-R
I0715 10:13:17.067260 12952 net.cpp:84] Creating Layer relu5_1-R
I0715 10:13:17.067263 12952 net.cpp:406] relu5_1-R <- conv5_1-R
I0715 10:13:17.067317 12952 net.cpp:367] relu5_1-R -> conv5_1-R (in-place)
I0715 10:13:17.067560 12952 net.cpp:122] Setting up relu5_1-R
I0715 10:13:17.067574 12952 net.cpp:129] Top shape: 1 512 45 29 (668160)
I0715 10:13:17.067576 12952 net.cpp:137] Memory required for data: 1531337856
I0715 10:13:17.067581 12952 layer_factory.hpp:77] Creating layer conv5_2-R
I0715 10:13:17.067592 12952 net.cpp:84] Creating Layer conv5_2-R
I0715 10:13:17.067596 12952 net.cpp:406] conv5_2-R <- conv5_1-R
I0715 10:13:17.067605 12952 net.cpp:380] conv5_2-R -> conv5_2-R
I0715 10:13:17.076261 12952 net.cpp:122] Setting up conv5_2-R
I0715 10:13:17.076294 12952 net.cpp:129] Top shape: 1 512 45 29 (668160)
I0715 10:13:17.076298 12952 net.cpp:137] Memory required for data: 1534010496
I0715 10:13:17.076306 12952 layer_factory.hpp:77] Creating layer relu5_2-R
I0715 10:13:17.076315 12952 net.cpp:84] Creating Layer relu5_2-R
I0715 10:13:17.076319 12952 net.cpp:406] relu5_2-R <- conv5_2-R
I0715 10:13:17.076326 12952 net.cpp:367] relu5_2-R -> conv5_2-R (in-place)
I0715 10:13:17.076562 12952 net.cpp:122] Setting up relu5_2-R
I0715 10:13:17.076572 12952 net.cpp:129] Top shape: 1 512 45 29 (668160)
I0715 10:13:17.076575 12952 net.cpp:137] Memory required for data: 1536683136
I0715 10:13:17.076580 12952 layer_factory.hpp:77] Creating layer conv5_3-R
I0715 10:13:17.076589 12952 net.cpp:84] Creating Layer conv5_3-R
I0715 10:13:17.076596 12952 net.cpp:406] conv5_3-R <- conv5_2-R
I0715 10:13:17.076602 12952 net.cpp:380] conv5_3-R -> conv5_3-R
I0715 10:13:17.085739 12952 net.cpp:122] Setting up conv5_3-R
I0715 10:13:17.085772 12952 net.cpp:129] Top shape: 1 512 45 29 (668160)
I0715 10:13:17.085777 12952 net.cpp:137] Memory required for data: 1539355776
I0715 10:13:17.085784 12952 layer_factory.hpp:77] Creating layer relu5_3-R
I0715 10:13:17.085793 12952 net.cpp:84] Creating Layer relu5_3-R
I0715 10:13:17.085796 12952 net.cpp:406] relu5_3-R <- conv5_3-R
I0715 10:13:17.085803 12952 net.cpp:367] relu5_3-R -> conv5_3-R (in-place)
I0715 10:13:17.086043 12952 net.cpp:122] Setting up relu5_3-R
I0715 10:13:17.086053 12952 net.cpp:129] Top shape: 1 512 45 29 (668160)
I0715 10:13:17.086056 12952 net.cpp:137] Memory required for data: 1542028416
I0715 10:13:17.086061 12952 layer_factory.hpp:77] Creating layer pool5-R
I0715 10:13:17.086072 12952 net.cpp:84] Creating Layer pool5-R
I0715 10:13:17.086076 12952 net.cpp:406] pool5-R <- conv5_3-R
I0715 10:13:17.086084 12952 net.cpp:380] pool5-R -> pool5-R
I0715 10:13:17.086164 12952 net.cpp:122] Setting up pool5-R
I0715 10:13:17.086174 12952 net.cpp:129] Top shape: 1 512 23 15 (176640)
I0715 10:13:17.086176 12952 net.cpp:137] Memory required for data: 1542734976
I0715 10:13:17.086180 12952 layer_factory.hpp:77] Creating layer fc6-R
I0715 10:13:17.086191 12952 net.cpp:84] Creating Layer fc6-R
I0715 10:13:17.086196 12952 net.cpp:406] fc6-R <- pool5-R
I0715 10:13:17.086205 12952 net.cpp:380] fc6-R -> fc6-R
I0715 10:13:17.436084 12952 net.cpp:122] Setting up fc6-R
I0715 10:13:17.436137 12952 net.cpp:129] Top shape: 1 4096 17 9 (626688)
I0715 10:13:17.436146 12952 net.cpp:137] Memory required for data: 1545241728
I0715 10:13:17.436158 12952 layer_factory.hpp:77] Creating layer relu6-R
I0715 10:13:17.436197 12952 net.cpp:84] Creating Layer relu6-R
I0715 10:13:17.436209 12952 net.cpp:406] relu6-R <- fc6-R
I0715 10:13:17.436220 12952 net.cpp:367] relu6-R -> fc6-R (in-place)
I0715 10:13:17.436528 12952 net.cpp:122] Setting up relu6-R
I0715 10:13:17.436538 12952 net.cpp:129] Top shape: 1 4096 17 9 (626688)
I0715 10:13:17.436543 12952 net.cpp:137] Memory required for data: 1547748480
I0715 10:13:17.436548 12952 layer_factory.hpp:77] Creating layer drop6-R
I0715 10:13:17.436560 12952 net.cpp:84] Creating Layer drop6-R
I0715 10:13:17.436564 12952 net.cpp:406] drop6-R <- fc6-R
I0715 10:13:17.436570 12952 net.cpp:367] drop6-R -> fc6-R (in-place)
I0715 10:13:17.436625 12952 net.cpp:122] Setting up drop6-R
I0715 10:13:17.436635 12952 net.cpp:129] Top shape: 1 4096 17 9 (626688)
I0715 10:13:17.436640 12952 net.cpp:137] Memory required for data: 1550255232
I0715 10:13:17.436645 12952 layer_factory.hpp:77] Creating layer fc7-R
I0715 10:13:17.436659 12952 net.cpp:84] Creating Layer fc7-R
I0715 10:13:17.436664 12952 net.cpp:406] fc7-R <- fc6-R
I0715 10:13:17.436671 12952 net.cpp:380] fc7-R -> fc7-R
I0715 10:13:17.494632 12952 net.cpp:122] Setting up fc7-R
I0715 10:13:17.494683 12952 net.cpp:129] Top shape: 1 4096 17 9 (626688)
I0715 10:13:17.494688 12952 net.cpp:137] Memory required for data: 1552761984
I0715 10:13:17.494707 12952 layer_factory.hpp:77] Creating layer relu7-R
I0715 10:13:17.494722 12952 net.cpp:84] Creating Layer relu7-R
I0715 10:13:17.494745 12952 net.cpp:406] relu7-R <- fc7-R
I0715 10:13:17.494753 12952 net.cpp:367] relu7-R -> fc7-R (in-place)
I0715 10:13:17.495033 12952 net.cpp:122] Setting up relu7-R
I0715 10:13:17.495044 12952 net.cpp:129] Top shape: 1 4096 17 9 (626688)
I0715 10:13:17.495048 12952 net.cpp:137] Memory required for data: 1555268736
I0715 10:13:17.495054 12952 layer_factory.hpp:77] Creating layer drop7-R
I0715 10:13:17.495064 12952 net.cpp:84] Creating Layer drop7-R
I0715 10:13:17.495069 12952 net.cpp:406] drop7-R <- fc7-R
I0715 10:13:17.495074 12952 net.cpp:367] drop7-R -> fc7-R (in-place)
I0715 10:13:17.495136 12952 net.cpp:122] Setting up drop7-R
I0715 10:13:17.495146 12952 net.cpp:129] Top shape: 1 4096 17 9 (626688)
I0715 10:13:17.495151 12952 net.cpp:137] Memory required for data: 1557775488
I0715 10:13:17.495153 12952 layer_factory.hpp:77] Creating layer score_fr-new-R
I0715 10:13:17.495164 12952 net.cpp:84] Creating Layer score_fr-new-R
I0715 10:13:17.495169 12952 net.cpp:406] score_fr-new-R <- fc7-R
I0715 10:13:17.495177 12952 net.cpp:380] score_fr-new-R -> score_fr-new-R
I0715 10:13:17.497287 12952 net.cpp:122] Setting up score_fr-new-R
I0715 10:13:17.497303 12952 net.cpp:129] Top shape: 1 3 17 9 (459)
I0715 10:13:17.497324 12952 net.cpp:137] Memory required for data: 1557777324
I0715 10:13:17.497333 12952 layer_factory.hpp:77] Creating layer upscore2-new-R
I0715 10:13:17.497342 12952 net.cpp:84] Creating Layer upscore2-new-R
I0715 10:13:17.497347 12952 net.cpp:406] upscore2-new-R <- score_fr-new-R
I0715 10:13:17.497355 12952 net.cpp:380] upscore2-new-R -> upscore2-new-R
I0715 10:13:17.497826 12952 net.cpp:122] Setting up upscore2-new-R
I0715 10:13:17.497834 12952 net.cpp:129] Top shape: 1 3 36 20 (2160)
I0715 10:13:17.497853 12952 net.cpp:137] Memory required for data: 1557785964
I0715 10:13:17.497859 12952 layer_factory.hpp:77] Creating layer upscore2-new-R_upscore2-new-R_0_split
I0715 10:13:17.497884 12952 net.cpp:84] Creating Layer upscore2-new-R_upscore2-new-R_0_split
I0715 10:13:17.497889 12952 net.cpp:406] upscore2-new-R_upscore2-new-R_0_split <- upscore2-new-R
I0715 10:13:17.497895 12952 net.cpp:380] upscore2-new-R_upscore2-new-R_0_split -> upscore2-new-R_upscore2-new-R_0_split_0
I0715 10:13:17.497903 12952 net.cpp:380] upscore2-new-R_upscore2-new-R_0_split -> upscore2-new-R_upscore2-new-R_0_split_1
I0715 10:13:17.497995 12952 net.cpp:122] Setting up upscore2-new-R_upscore2-new-R_0_split
I0715 10:13:17.498003 12952 net.cpp:129] Top shape: 1 3 36 20 (2160)
I0715 10:13:17.498008 12952 net.cpp:129] Top shape: 1 3 36 20 (2160)
I0715 10:13:17.498011 12952 net.cpp:137] Memory required for data: 1557803244
I0715 10:13:17.498016 12952 layer_factory.hpp:77] Creating layer score_pool4-new-R
I0715 10:13:17.498028 12952 net.cpp:84] Creating Layer score_pool4-new-R
I0715 10:13:17.498034 12952 net.cpp:406] score_pool4-new-R <- pool4-R_pool4-R_0_split_1
I0715 10:13:17.498041 12952 net.cpp:380] score_pool4-new-R -> score_pool4-new-R
I0715 10:13:17.500130 12952 net.cpp:122] Setting up score_pool4-new-R
I0715 10:13:17.500160 12952 net.cpp:129] Top shape: 1 3 45 29 (3915)
I0715 10:13:17.500164 12952 net.cpp:137] Memory required for data: 1557818904
I0715 10:13:17.500170 12952 layer_factory.hpp:77] Creating layer score_pool4c-R
I0715 10:13:17.500180 12952 net.cpp:84] Creating Layer score_pool4c-R
I0715 10:13:17.500183 12952 net.cpp:406] score_pool4c-R <- score_pool4-new-R
I0715 10:13:17.500190 12952 net.cpp:406] score_pool4c-R <- upscore2-new-R_upscore2-new-R_0_split_0
I0715 10:13:17.500195 12952 net.cpp:380] score_pool4c-R -> score_pool4c-R
I0715 10:13:17.500257 12952 net.cpp:122] Setting up score_pool4c-R
I0715 10:13:17.500263 12952 net.cpp:129] Top shape: 1 3 36 20 (2160)
I0715 10:13:17.500267 12952 net.cpp:137] Memory required for data: 1557827544
I0715 10:13:17.500269 12952 layer_factory.hpp:77] Creating layer fuse_pool4-R
I0715 10:13:17.500278 12952 net.cpp:84] Creating Layer fuse_pool4-R
I0715 10:13:17.500283 12952 net.cpp:406] fuse_pool4-R <- upscore2-new-R_upscore2-new-R_0_split_1
I0715 10:13:17.500288 12952 net.cpp:406] fuse_pool4-R <- score_pool4c-R
I0715 10:13:17.500295 12952 net.cpp:380] fuse_pool4-R -> fuse_pool4-R
I0715 10:13:17.500336 12952 net.cpp:122] Setting up fuse_pool4-R
I0715 10:13:17.500341 12952 net.cpp:129] Top shape: 1 3 36 20 (2160)
I0715 10:13:17.500345 12952 net.cpp:137] Memory required for data: 1557836184
I0715 10:13:17.500349 12952 layer_factory.hpp:77] Creating layer upscore_pool4-new-R
I0715 10:13:17.500355 12952 net.cpp:84] Creating Layer upscore_pool4-new-R
I0715 10:13:17.500360 12952 net.cpp:406] upscore_pool4-new-R <- fuse_pool4-R
I0715 10:13:17.500365 12952 net.cpp:380] upscore_pool4-new-R -> upscore_pool4-new-R
I0715 10:13:17.500787 12952 net.cpp:122] Setting up upscore_pool4-new-R
I0715 10:13:17.500797 12952 net.cpp:129] Top shape: 1 3 74 42 (9324)
I0715 10:13:17.500818 12952 net.cpp:137] Memory required for data: 1557873480
I0715 10:13:17.500823 12952 layer_factory.hpp:77] Creating layer upscore_pool4-new-R_upscore_pool4-new-R_0_split
I0715 10:13:17.500828 12952 net.cpp:84] Creating Layer upscore_pool4-new-R_upscore_pool4-new-R_0_split
I0715 10:13:17.500835 12952 net.cpp:406] upscore_pool4-new-R_upscore_pool4-new-R_0_split <- upscore_pool4-new-R
I0715 10:13:17.500841 12952 net.cpp:380] upscore_pool4-new-R_upscore_pool4-new-R_0_split -> upscore_pool4-new-R_upscore_pool4-new-R_0_split_0
I0715 10:13:17.500849 12952 net.cpp:380] upscore_pool4-new-R_upscore_pool4-new-R_0_split -> upscore_pool4-new-R_upscore_pool4-new-R_0_split_1
I0715 10:13:17.500922 12952 net.cpp:122] Setting up upscore_pool4-new-R_upscore_pool4-new-R_0_split
I0715 10:13:17.500928 12952 net.cpp:129] Top shape: 1 3 74 42 (9324)
I0715 10:13:17.500936 12952 net.cpp:129] Top shape: 1 3 74 42 (9324)
I0715 10:13:17.500941 12952 net.cpp:137] Memory required for data: 1557948072
I0715 10:13:17.500943 12952 layer_factory.hpp:77] Creating layer score_pool3-new-R
I0715 10:13:17.500954 12952 net.cpp:84] Creating Layer score_pool3-new-R
I0715 10:13:17.500960 12952 net.cpp:406] score_pool3-new-R <- pool3-R_pool3-R_0_split_1
I0715 10:13:17.500967 12952 net.cpp:380] score_pool3-new-R -> score_pool3-new-R
I0715 10:13:17.503710 12952 net.cpp:122] Setting up score_pool3-new-R
I0715 10:13:17.503723 12952 net.cpp:129] Top shape: 1 3 89 57 (15219)
I0715 10:13:17.503727 12952 net.cpp:137] Memory required for data: 1558008948
I0715 10:13:17.503752 12952 layer_factory.hpp:77] Creating layer score_pool3c-R
I0715 10:13:17.503760 12952 net.cpp:84] Creating Layer score_pool3c-R
I0715 10:13:17.503764 12952 net.cpp:406] score_pool3c-R <- score_pool3-new-R
I0715 10:13:17.503772 12952 net.cpp:406] score_pool3c-R <- upscore_pool4-new-R_upscore_pool4-new-R_0_split_0
I0715 10:13:17.503779 12952 net.cpp:380] score_pool3c-R -> score_pool3c-R
I0715 10:13:17.503845 12952 net.cpp:122] Setting up score_pool3c-R
I0715 10:13:17.503852 12952 net.cpp:129] Top shape: 1 3 74 42 (9324)
I0715 10:13:17.503859 12952 net.cpp:137] Memory required for data: 1558046244
I0715 10:13:17.503861 12952 layer_factory.hpp:77] Creating layer fuse_pool3-R
I0715 10:13:17.503868 12952 net.cpp:84] Creating Layer fuse_pool3-R
I0715 10:13:17.503872 12952 net.cpp:406] fuse_pool3-R <- upscore_pool4-new-R_upscore_pool4-new-R_0_split_1
I0715 10:13:17.503880 12952 net.cpp:406] fuse_pool3-R <- score_pool3c-R
I0715 10:13:17.503885 12952 net.cpp:380] fuse_pool3-R -> fuse_pool3-R
I0715 10:13:17.503931 12952 net.cpp:122] Setting up fuse_pool3-R
I0715 10:13:17.503937 12952 net.cpp:129] Top shape: 1 3 74 42 (9324)
I0715 10:13:17.503939 12952 net.cpp:137] Memory required for data: 1558083540
I0715 10:13:17.503943 12952 layer_factory.hpp:77] Creating layer upscore8-new-R
I0715 10:13:17.503954 12952 net.cpp:84] Creating Layer upscore8-new-R
I0715 10:13:17.503957 12952 net.cpp:406] upscore8-new-R <- fuse_pool3-R
I0715 10:13:17.503965 12952 net.cpp:380] upscore8-new-R -> upscore8-new-R
I0715 10:13:17.504411 12952 net.cpp:122] Setting up upscore8-new-R
I0715 10:13:17.504420 12952 net.cpp:129] Top shape: 1 3 600 344 (619200)
I0715 10:13:17.504439 12952 net.cpp:137] Memory required for data: 1560560340
I0715 10:13:17.504444 12952 layer_factory.hpp:77] Creating layer upscore8_cropped-R
I0715 10:13:17.504451 12952 net.cpp:84] Creating Layer upscore8_cropped-R
I0715 10:13:17.504454 12952 net.cpp:406] upscore8_cropped-R <- upscore8-new-R
I0715 10:13:17.504464 12952 net.cpp:406] upscore8_cropped-R <- data-R_crop_0_split_1
I0715 10:13:17.504470 12952 net.cpp:380] upscore8_cropped-R -> upscore8_cropped-R
I0715 10:13:17.504513 12952 net.cpp:122] Setting up upscore8_cropped-R
I0715 10:13:17.504520 12952 net.cpp:129] Top shape: 1 3 512 251 (385536)
I0715 10:13:17.504523 12952 net.cpp:137] Memory required for data: 1562102484
I0715 10:13:17.504528 12952 layer_factory.hpp:77] Creating layer upscore8_uncropped-R
I0715 10:13:17.504823 12952 net.cpp:84] Creating Layer upscore8_uncropped-R
I0715 10:13:17.504833 12952 net.cpp:406] upscore8_uncropped-R <- crop_info
I0715 10:13:17.504840 12952 net.cpp:406] upscore8_uncropped-R <- upscore8_cropped-R
I0715 10:13:17.504847 12952 net.cpp:406] upscore8_uncropped-R <- data_data_0_split_3
I0715 10:13:17.504853 12952 net.cpp:380] upscore8_uncropped-R -> upscore8_uncropped-R
I0715 10:13:17.506973 12952 net.cpp:122] Setting up upscore8_uncropped-R
I0715 10:13:17.506990 12952 net.cpp:129] Top shape: 1 3 512 251 (385536)
I0715 10:13:17.507010 12952 net.cpp:137] Memory required for data: 1563644628
I0715 10:13:17.507015 12952 layer_factory.hpp:77] Creating layer loss1
I0715 10:13:17.507027 12952 net.cpp:84] Creating Layer loss1
I0715 10:13:17.507032 12952 net.cpp:406] loss1 <- upscore8_cropped_upscore8_cropped_0_split_1
I0715 10:13:17.507040 12952 net.cpp:406] loss1 <- label_data_1_split_1
I0715 10:13:17.507066 12952 net.cpp:380] loss1 -> loss1
…
