…
snapshot_prefix: "/media/Med_2T2/data2/models/snapshots/joint:1e-5x10,1e-5x10,20/FD2:YI3_1_20180715_091946,YJ3_1_20180715_202402/train"
test_initialization: false
average_loss: 20
stepvalue: 50000
stepvalue: 60000
stepvalue: 70000
iter_size: 1
I0715 23:54:01.280588 14837 solver.cpp:77] Creating training net from train_net file: /media/Med_2T2/data2/prototxts/training_J3x10.prototxt
I0715 23:54:01.283380 14837 net.cpp:51] Initializing net from parameters: 
state {
  phase: TRAIN
}
layer {
  name: "data"
  type: "Python"
  top: "data"
  top: "label"
  top: "crop_margin"
  top: "crop_prob"
  top: "crop_sample_batch"
  python_param {
    module: "Data"
    layer: "DataLayer"
  }
}
layer {
  name: "conv1_1"
  type: "Convolution"
  bottom: "data"
  top: "conv1_1"
  param {
    lr_mult: 1
    decay_mult: 1
  }
  param {
    lr_mult: 2
    decay_mult: 0
  }
  convolution_param {
    num_output: 64
    pad: 100
    kernel_size: 3
    stride: 1
  }
}
layer {
  name: "relu1_1"
  type: "ReLU"
  bottom: "conv1_1"
  top: "conv1_1"
}
layer {
  name: "conv1_2"
  type: "Convolution"
  bottom: "conv1_1"
  top: "conv1_2"
  param {
    lr_mult: 1
    decay_mult: 1
  }
  param {
    lr_mult: 2
    decay_mult: 0
  }
  convolution_param {
    num_output: 64
    pad: 1
    kernel_size: 3
    stride: 1
  }
}
layer {
  name: "relu1_2"
  type: "ReLU"
  bottom: "conv1_2"
  top: "conv1_2"
}
layer {
  name: "pool1"
  type: "Pooling"
  bottom: "conv1_2"
  top: "pool1"
  pooling_param {
    pool: MAX
    kernel_size: 2
    stride: 2
  }
}
layer {
  name: "conv2_1"
  type: "Convolution"
  bottom: "pool1"
  top: "conv2_1"
  param {
    lr_mult: 1
    decay_mult: 1
  }
  param {
    lr_mult: 2
    decay_mult: 0
  }
  convolution_param {
    num_output: 128
    pad: 1
    kernel_size: 3
    stride: 1
  }
}
layer {
  name: "relu2_1"
  type: "ReLU"
  bottom: "conv2_1"
  top: "conv2_1"
}
layer {
  name: "conv2_2"
  type: "Convolution"
  bottom: "conv2_1"
  top: "conv2_2"
  param {
    lr_mult: 1
    decay_mult: 1
  }
  param {
    lr_mult: 2
    decay_mult: 0
  }
  convolution_param {
    num_output: 128
    pad: 1
    kernel_size: 3
    stride: 1
  }
}
layer {
  name: "relu2_2"
  type: "ReLU"
  bottom: "conv2_2"
  top: "conv2_2"
}
layer {
  name: "pool2"
  type: "Pooling"
  bottom: "conv2_2"
  top: "pool2"
  pooling_param {
    pool: MAX
    kernel_size: 2
    stride: 2
  }
}
layer {
  name: "conv3_1"
  type: "Convolution"
  bottom: "pool2"
  top: "conv3_1"
  param {
    lr_mult: 1
    decay_mult: 1
  }
  param {
    lr_mult: 2
    decay_mult: 0
  }
  convolution_param {
    num_output: 256
    pad: 1
    kernel_size: 3
    stride: 1
  }
}
layer {
  name: "relu3_1"
  type: "ReLU"
  bottom: "conv3_1"
  top: "conv3_1"
}
layer {
  name: "conv3_2"
  type: "Convolution"
  bottom: "conv3_1"
  top: "conv3_2"
  param {
    lr_mult: 1
    decay_mult: 1
  }
  param {
    lr_mult: 2
    decay_mult: 0
  }
  convolution_param {
    num_output: 256
    pad: 1
    kernel_size: 3
    stride: 1
  }
}
layer {
  name: "relu3_2"
  type: "ReLU"
  bottom: "conv3_2"
  top: "conv3_2"
}
layer {
  name: "conv3_3"
  type: "Convolution"
  bottom: "conv3_2"
  top: "conv3_3"
  param {
    lr_mult: 1
    decay_mult: 1
  }
  param {
    lr_mult: 2
    decay_mult: 0
  }
  convolution_param {
    num_output: 256
    pad: 1
    kernel_size: 3
    stride: 1
  }
}
layer {
  name: "relu3_3"
  type: "ReLU"
  bottom: "conv3_3"
  top: "conv3_3"
}
layer {
  name: "pool3"
  type: "Pooling"
  bottom: "conv3_3"
  top: "pool3"
  pooling_param {
    pool: MAX
    kernel_size: 2
    stride: 2
  }
}
layer {
  name: "conv4_1"
  type: "Convolution"
  bottom: "pool3"
  top: "conv4_1"
  param {
    lr_mult: 1
    decay_mult: 1
  }
  param {
    lr_mult: 2
    decay_mult: 0
  }
  convolution_param {
    num_output: 512
    pad: 1
    kernel_size: 3
    stride: 1
  }
}
layer {
  name: "relu4_1"
  type: "ReLU"
  bottom: "conv4_1"
  top: "conv4_1"
}
layer {
  name: "conv4_2"
  type: "Convolution"
  bottom: "conv4_1"
  top: "conv4_2"
  param {
    lr_mult: 1
    decay_mult: 1
  }
  param {
    lr_mult: 2
    decay_mult: 0
  }
  convolution_param {
    num_output: 512
    pad: 1
    kernel_size: 3
    stride: 1
  }
}
layer {
  name: "relu4_2"
  type: "ReLU"
  bottom: "conv4_2"
  top: "conv4_2"
}
layer {
  name: "conv4_3"
  type: "Convolution"
  bottom: "conv4_2"
  top: "conv4_3"
  param {
    lr_mult: 1
    decay_mult: 1
  }
  param {
    lr_mult: 2
    decay_mult: 0
  }
  convolution_param {
    num_output: 512
    pad: 1
    kernel_size: 3
    stride: 1
  }
}
layer {
  name: "relu4_3"
  type: "ReLU"
  bottom: "conv4_3"
  top: "conv4_3"
}
layer {
  name: "pool4"
  type: "Pooling"
  bottom: "conv4_3"
  top: "pool4"
  pooling_param {
    pool: MAX
    kernel_size: 2
    stride: 2
  }
}
layer {
  name: "conv5_1"
  type: "Convolution"
  bottom: "pool4"
  top: "conv5_1"
  param {
    lr_mult: 1
    decay_mult: 1
  }
  param {
    lr_mult: 2
    decay_mult: 0
  }
  convolution_param {
    num_output: 512
    pad: 1
    kernel_size: 3
    stride: 1
  }
}
layer {
  name: "relu5_1"
  type: "ReLU"
  bottom: "conv5_1"
  top: "conv5_1"
}
layer {
  name: "conv5_2"
  type: "Convolution"
  bottom: "conv5_1"
  top: "conv5_2"
  param {
    lr_mult: 1
    decay_mult: 1
  }
  param {
    lr_mult: 2
    decay_mult: 0
  }
  convolution_param {
    num_output: 512
    pad: 1
    kernel_size: 3
    stride: 1
  }
}
layer {
  name: "relu5_2"
  type: "ReLU"
  bottom: "conv5_2"
  top: "conv5_2"
}
layer {
  name: "conv5_3"
  type: "Convolution"
  bottom: "conv5_2"
  top: "conv5_3"
  param {
    lr_mult: 1
    decay_mult: 1
  }
  param {
    lr_mult: 2
    decay_mult: 0
  }
  convolution_param {
    num_output: 512
    pad: 1
    kernel_size: 3
    stride: 1
  }
}
layer {
  name: "relu5_3"
  type: "ReLU"
  bottom: "conv5_3"
  top: "conv5_3"
}
layer {
  name: "pool5"
  type: "Pooling"
  bottom: "conv5_3"
  top: "pool5"
  pooling_param {
    pool: MAX
    kernel_size: 2
    stride: 2
  }
}
layer {
  name: "fc6"
  type: "Convolution"
  bottom: "pool5"
  top: "fc6"
  param {
    lr_mult: 1
    decay_mult: 1
  }
  param {
    lr_mult: 2
    decay_mult: 0
  }
  convolution_param {
    num_output: 4096
    pad: 0
    kernel_size: 7
    stride: 1
  }
}
layer {
  name: "relu6"
  type: "ReLU"
  bottom: "fc6"
  top: "fc6"
}
layer {
  name: "drop6"
  type: "Dropout"
  bottom: "fc6"
  top: "fc6"
  dropout_param {
    dropout_ratio: 0.5
  }
}
layer {
  name: "fc7"
  type: "Convolution"
  bottom: "fc6"
  top: "fc7"
  param {
    lr_mult: 1
    decay_mult: 1
  }
  param {
    lr_mult: 2
    decay_mult: 0
  }
  convolution_param {
    num_output: 4096
    pad: 0
    kernel_size: 1
    stride: 1
  }
}
layer {
  name: "relu7"
  type: "ReLU"
  bottom: "fc7"
  top: "fc7"
}
layer {
  name: "drop7"
  type: "Dropout"
  bottom: "fc7"
  top: "fc7"
  dropout_param {
    dropout_ratio: 0.5
  }
}
layer {
  name: "score_fr-new"
  type: "Convolution"
  bottom: "fc7"
  top: "score_fr-new"
  param {
    lr_mult: 1
    decay_mult: 1
  }
  param {
    lr_mult: 2
    decay_mult: 0
  }
  convolution_param {
    num_output: 3
    kernel_size: 1
  }
}
layer {
  name: "upscore2-new"
  type: "Deconvolution"
  bottom: "score_fr-new"
  top: "upscore2-new"
  param {
    lr_mult: 0
  }
  convolution_param {
    num_output: 3
    bias_term: false
    kernel_size: 4
    stride: 2
  }
}
layer {
  name: "score_pool4-new"
  type: "Convolution"
  bottom: "pool4"
  top: "score_pool4-new"
  param {
    lr_mult: 1
    decay_mult: 1
  }
  param {
    lr_mult: 2
    decay_mult: 0
  }
  convolution_param {
    num_output: 3
    pad: 0
    kernel_size: 1
  }
}
layer {
  name: "score_pool4c"
  type: "Crop"
  bottom: "score_pool4-new"
  bottom: "upscore2-new"
  top: "score_pool4c"
  crop_param {
    axis: 2
    offset: 5
  }
}
layer {
  name: "fuse_pool4"
  type: "Eltwise"
  bottom: "upscore2-new"
  bottom: "score_pool4c"
  top: "fuse_pool4"
  eltwise_param {
    operation: SUM
  }
}
layer {
  name: "upscore_pool4-new"
  type: "Deconvolution"
  bottom: "fuse_pool4"
  top: "upscore_pool4-new"
  param {
    lr_mult: 0
  }
  convolution_param {
    num_output: 3
    bias_term: false
    kernel_size: 4
    stride: 2
  }
}
layer {
  name: "score_pool3-new"
  type: "Convolution"
  bottom: "pool3"
  top: "score_pool3-new"
  param {
    lr_mult: 1
    decay_mult: 1
  }
  param {
    lr_mult: 2
    decay_mult: 0
  }
  convolution_param {
    num_output: 3
    pad: 0
    kernel_size: 1
  }
}
layer {
  name: "score_pool3c"
  type: "Crop"
  bottom: "score_pool3-new"
  bottom: "upscore_pool4-new"
  top: "score_pool3c"
  crop_param {
    axis: 2
    offset: 9
  }
}
layer {
  name: "fuse_pool3"
  type: "Eltwise"
  bottom: "upscore_pool4-new"
  bottom: "score_pool3c"
  top: "fuse_pool3"
  eltwise_param {
    operation: SUM
  }
}
layer {
  name: "upscore8-new"
  type: "Deconvolution"
  bottom: "fuse_pool3"
  top: "upscore8-new"
  param {
    lr_mult: 0
  }
  convolution_param {
    num_output: 3
    bias_term: false
    kernel_size: 16
    stride: 8
  }
}
layer {
  name: "upscore8_cropped"
  type: "Crop"
  bottom: "upscore8-new"
  bottom: "data"
  top: "upscore8_cropped"
  crop_param {
    axis: 2
    offset: 31
  }
}
layer {
  name: "prob"
  type: "Sigmoid"
  bottom: "upscore8_cropped"
  top: "prob"
}
layer {
  name: "saliency1"
  type: "Convolution"
  bottom: "prob"
  top: "saliency1"
  param {
    lr_mult: 10
    decay_mult: 1
  }
  param {
    lr_mult: 20
    decay_mult: 0
  }
  convolution_param {
    num_output: 3
    pad: 1
    kernel_size: 3
    stride: 1
    weight_filler {
      type: "xavier"
    }
    bias_filler {
      type: "constant"
      value: 1
    }
  }
}
layer {
  name: "relu_saliency1"
  type: "ReLU"
  bottom: "saliency1"
  top: "saliency1"
}
layer {
  name: "saliency"
  type: "Convolution"
  bottom: "saliency1"
  top: "saliency"
  param {
    lr_mult: 10
    decay_mult: 1
  }
  param {
    lr_mult: 20
    decay_mult: 0
  }
  convolution_param {
    num_output: 3
    pad: 2
    kernel_size: 5
    stride: 1
    weight_filler {
      type: "xavier"
    }
    bias_filler {
      type: "constant"
      value: 1
    }
  }
}
layer {
  name: "saliency_data"
  type: "Eltwise"
  bottom: "data"
  bottom: "saliency"
  top: "saliency_data"
  eltwise_param {
    operation: PROD
  }
}
layer {
  name: "crop"
  type: "Python"
  bottom: "prob"
  bottom: "saliency_data"
  bottom: "crop_margin"
  bottom: "crop_prob"
  bottom: "crop_sample_batch"
  bottom: "label"
  top: "data-R"
  top: "crop_info"
  python_param {
    module: "Crop"
    layer: "CropLayer"
    param_str: "{\"TEST\": 0}"
  }
}
layer {
  name: "conv1_1-R"
  type: "Convolution"
  bottom: "data-R"
  top: "conv1_1-R"
  param {
    lr_mult: 10
    decay_mult: 1
  }
  param {
    lr_mult: 20
    decay_mult: 0
  }
  convolution_param {
    num_output: 64
    pad: 100
    kernel_size: 3
    stride: 1
  }
}
layer {
  name: "relu1_1-R"
  type: "ReLU"
  bottom: "conv1_1-R"
  top: "conv1_1-R"
}
layer {
  name: "conv1_2-R"
  type: "Convolution"
  bottom: "conv1_1-R"
  top: "conv1_2-R"
  param {
    lr_mult: 10
    decay_mult: 1
  }
  param {
    lr_mult: 20
    decay_mult: 0
  }
  convolution_param {
    num_output: 64
    pad: 1
    kernel_size: 3
    stride: 1
  }
}
layer {
  name: "relu1_2-R"
  type: "ReLU"
  bottom: "conv1_2-R"
  top: "conv1_2-R"
}
layer {
  name: "pool1-R"
  type: "Pooling"
  bottom: "conv1_2-R"
  top: "pool1-R"
  pooling_param {
    pool: MAX
    kernel_size: 2
    stride: 2
  }
}
layer {
  name: "conv2_1-R"
  type: "Convolution"
  bottom: "pool1-R"
  top: "conv2_1-R"
  param {
    lr_mult: 10
    decay_mult: 1
  }
  param {
    lr_mult: 20
    decay_mult: 0
  }
  convolution_param {
    num_output: 128
    pad: 1
    kernel_size: 3
    stride: 1
  }
}
layer {
  name: "relu2_1-R"
  type: "ReLU"
  bottom: "conv2_1-R"
  top: "conv2_1-R"
}
layer {
  name: "conv2_2-R"
  type: "Convolution"
  bottom: "conv2_1-R"
  top: "conv2_2-R"
  param {
    lr_mult: 10
    decay_mult: 1
  }
  param {
    lr_mult: 20
    decay_mult: 0
  }
  convolution_param {
    num_output: 128
    pad: 1
    kernel_size: 3
    stride: 1
  }
}
layer {
  name: "relu2_2-R"
  type: "ReLU"
  bottom: "conv2_2-R"
  top: "conv2_2-R"
}
layer {
  name: "pool2-R"
  type: "Pooling"
  bottom: "conv2_2-R"
  top: "pool2-R"
  pooling_param {
    pool: MAX
    kernel_size: 2
    stride: 2
  }
}
layer {
  name: "conv3_1-R"
  type: "Convolution"
  bottom: "pool2-R"
  top: "conv3_1-R"
  param {
    lr_mult: 10
    decay_mult: 1
  }
  param {
    lr_mult: 20
    decay_mult: 0
  }
  convolution_param {
    num_output: 256
    pad: 1
    kernel_size: 3
    stride: 1
  }
}
layer {
  name: "relu3_1-R"
  type: "ReLU"
  bottom: "conv3_1-R"
  top: "conv3_1-R"
}
layer {
  name: "conv3_2-R"
  type: "Convolution"
  bottom: "conv3_1-R"
  top: "conv3_2-R"
  param {
    lr_mult: 10
    decay_mult: 1
  }
  param {
    lr_mult: 20
    decay_mult: 0
  }
  convolution_param {
    num_output: 256
    pad: 1
    kernel_size: 3
    stride: 1
  }
}
layer {
  name: "relu3_2-R"
  type: "ReLU"
  bottom: "conv3_2-R"
  top: "conv3_2-R"
}
layer {
  name: "conv3_3-R"
  type: "Convolution"
  bottom: "conv3_2-R"
  top: "conv3_3-R"
  param {
    lr_mult: 10
    decay_mult: 1
  }
  param {
    lr_mult: 20
    decay_mult: 0
  }
  convolution_param {
    num_output: 256
    pad: 1
    kernel_size: 3
    stride: 1
  }
}
layer {
  name: "relu3_3-R"
  type: "ReLU"
  bottom: "conv3_3-R"
  top: "conv3_3-R"
}
layer {
  name: "pool3-R"
  type: "Pooling"
  bottom: "conv3_3-R"
  top: "pool3-R"
  pooling_param {
    pool: MAX
    kernel_size: 2
    stride: 2
  }
}
layer {
  name: "conv4_1-R"
  type: "Convolution"
  bottom: "pool3-R"
  top: "conv4_1-R"
  param {
    lr_mult: 10
    decay_mult: 1
  }
  param {
    lr_mult: 20
    decay_mult: 0
  }
  convolution_param {
    num_output: 512
    pad: 1
    kernel_size: 3
    stride: 1
  }
}
layer {
  name: "relu4_1-R"
  type: "ReLU"
  bottom: "conv4_1-R"
  top: "conv4_1-R"
}
layer {
  name: "conv4_2-R"
  type: "Convolution"
  bottom: "conv4_1-R"
  top: "conv4_2-R"
  param {
    lr_mult: 10
    decay_mult: 1
  }
  param {
    lr_mult: 20
    decay_mult: 0
  }
  convolution_param {
    num_output: 512
    pad: 1
    kernel_size: 3
    stride: 1
  }
}
layer {
  name: "relu4_2-R"
  type: "ReLU"
  bottom: "conv4_2-R"
  top: "conv4_2-R"
}
layer {
  name: "conv4_3-R"
  type: "Convolution"
  bottom: "conv4_2-R"
  top: "conv4_3-R"
  param {
    lr_mult: 10
    decay_mult: 1
  }
  param {
    lr_mult: 20
    decay_mult: 0
  }
  convolution_param {
    num_output: 512
    pad: 1
    kernel_size: 3
    stride: 1
  }
}
layer {
  name: "relu4_3-R"
  type: "ReLU"
  bottom: "conv4_3-R"
  top: "conv4_3-R"
}
layer {
  name: "pool4-R"
  type: "Pooling"
  bottom: "conv4_3-R"
  top: "pool4-R"
  pooling_param {
    pool: MAX
    kernel_size: 2
    stride: 2
  }
}
layer {
  name: "conv5_1-R"
  type: "Convolution"
  bottom: "pool4-R"
  top: "conv5_1-R"
  param {
    lr_mult: 10
    decay_mult: 1
  }
  param {
    lr_mult: 20
    decay_mult: 0
  }
  convolution_param {
    num_output: 512
    pad: 1
    kernel_size: 3
    stride: 1
  }
}
layer {
  name: "relu5_1-R"
  type: "ReLU"
  bottom: "conv5_1-R"
  top: "conv5_1-R"
}
layer {
  name: "conv5_2-R"
  type: "Convolution"
  bottom: "conv5_1-R"
  top: "conv5_2-R"
  param {
    lr_mult: 10
    decay_mult: 1
  }
  param {
    lr_mult: 20
    decay_mult: 0
  }
  convolution_param {
    num_output: 512
    pad: 1
    kernel_size: 3
    stride: 1
  }
}
layer {
  name: "relu5_2-R"
  type: "ReLU"
  bottom: "conv5_2-R"
  top: "conv5_2-R"
}
layer {
  name: "conv5_3-R"
  type: "Convolution"
  bottom: "conv5_2-R"
  top: "conv5_3-R"
  param {
    lr_mult: 10
    decay_mult: 1
  }
  param {
    lr_mult: 20
    decay_mult: 0
  }
  convolution_param {
    num_output: 512
    pad: 1
    kernel_size: 3
    stride: 1
  }
}
layer {
  name: "relu5_3-R"
  type: "ReLU"
  bottom: "conv5_3-R"
  top: "conv5_3-R"
}
layer {
  name: "pool5-R"
  type: "Pooling"
  bottom: "conv5_3-R"
  top: "pool5-R"
  pooling_param {
    pool: MAX
    kernel_size: 2
    stride: 2
  }
}
layer {
  name: "fc6-R"
  type: "Convolution"
  bottom: "pool5-R"
  top: "fc6-R"
  param {
    lr_mult: 10
    decay_mult: 1
  }
  param {
    lr_mult: 20
    decay_mult: 0
  }
  convolution_param {
    num_output: 4096
    pad: 0
    kernel_size: 7
    stride: 1
  }
}
layer {
  name: "relu6-R"
  type: "ReLU"
  bottom: "fc6-R"
  top: "fc6-R"
}
layer {
  name: "drop6-R"
  type: "Dropout"
  bottom: "fc6-R"
  top: "fc6-R"
  dropout_param {
    dropout_ratio: 0.5
  }
}
layer {
  name: "fc7-R"
  type: "Convolution"
  bottom: "fc6-R"
  top: "fc7-R"
  param {
    lr_mult: 10
    decay_mult: 1
  }
  param {
    lr_mult: 20
    decay_mult: 0
  }
  convolution_param {
    num_output: 4096
    pad: 0
    kernel_size: 1
    stride: 1
  }
}
layer {
  name: "relu7-R"
  type: "ReLU"
  bottom: "fc7-R"
  top: "fc7-R"
}
layer {
  name: "drop7-R"
  type: "Dropout"
  bottom: "fc7-R"
  top: "fc7-R"
  dropout_param {
    dropout_ratio: 0.5
  }
}
layer {
  name: "score_fr-new-R"
  type: "Convolution"
  bottom: "fc7-R"
  top: "score_fr-new-R"
  param {
    lr_mult: 10
    decay_mult: 1
  }
  param {
    lr_mult: 20
    decay_mult: 0
  }
  convolution_param {
    num_output: 3
    kernel_size: 1
  }
}
layer {
  name: "upscore2-new-R"
  type: "Deconvolution"
  bottom: "score_fr-new-R"
  top: "upscore2-new-R"
  param {
    lr_mult: 0
  }
  convolution_param {
    num_output: 3
    bias_term: false
    kernel_size: 4
    stride: 2
  }
}
layer {
  name: "score_pool4-new-R"
  type: "Convolution"
  bottom: "pool4-R"
  top: "score_pool4-new-R"
  param {
    lr_mult: 10
    decay_mult: 1
  }
  param {
    lr_mult: 20
    decay_mult: 0
  }
  convolution_param {
    num_output: 3
    pad: 0
    kernel_size: 1
  }
}
layer {
  name: "score_pool4c-R"
  type: "Crop"
  bottom: "score_pool4-new-R"
  bottom: "upscore2-new-R"
  top: "score_pool4c-R"
  crop_param {
    axis: 2
    offset: 5
  }
}
layer {
  name: "fuse_pool4-R"
  type: "Eltwise"
  bottom: "upscore2-new-R"
  bottom: "score_pool4c-R"
  top: "fuse_pool4-R"
  eltwise_param {
    operation: SUM
  }
}
layer {
  name: "upscore_pool4-new-R"
  type: "Deconvolution"
  bottom: "fuse_pool4-R"
  top: "upscore_pool4-new-R"
  param {
    lr_mult: 0
  }
  convolution_param {
    num_output: 3
    bias_term: false
    kernel_size: 4
    stride: 2
  }
}
layer {
  name: "score_pool3-new-R"
  type: "Convolution"
  bottom: "pool3-R"
  top: "score_pool3-new-R"
  param {
    lr_mult: 10
    decay_mult: 1
  }
  param {
    lr_mult: 20
    decay_mult: 0
  }
  convolution_param {
    num_output: 3
    pad: 0
    kernel_size: 1
  }
}
layer {
  name: "score_pool3c-R"
  type: "Crop"
  bottom: "score_pool3-new-R"
  bottom: "upscore_pool4-new-R"
  top: "score_pool3c-R"
  crop_param {
    axis: 2
    offset: 9
  }
}
layer {
  name: "fuse_pool3-R"
  type: "Eltwise"
  bottom: "upscore_pool4-new-R"
  bottom: "score_pool3c-R"
  top: "fuse_pool3-R"
  eltwise_param {
    operation: SUM
  }
}
layer {
  name: "upscore8-new-R"
  type: "Deconvolution"
  bottom: "fuse_pool3-R"
  top: "upscore8-new-R"
  param {
    lr_mult: 0
  }
  convolution_param {
    num_output: 3
    bias_term: false
    kernel_size: 16
    stride: 8
  }
}
layer {
  name: "upscore8_cropped-R"
  type: "Crop"
  bottom: "upscore8-new-R"
  bottom: "data-R"
  top: "upscore8_cropped-R"
  crop_param {
    axis: 2
    offset: 31
  }
}
layer {
  name: "upscore8_uncropped-R"
  type: "Python"
  bottom: "crop_info"
  bottom: "upscore8_cropped-R"
  bottom: "data"
  top: "upscore8_uncropped-R"
  python_param {
    module: "Uncrop"
    layer: "UncropLayer"
  }
}
layer {
  name: "loss1"
  type: "DiceLoss"
  bottom: "upscore8_cropped"
  bottom: "label"
  top: "loss1"
  loss_weight: 0.333333
}
layer {
  name: "loss2"
  type: "DiceLoss"
  bottom: "upscore8_uncropped-R"
  bottom: "label"
  top: "loss2"
  loss_weight: 0.666667
}
I0715 23:54:01.284271 14837 layer_factory.hpp:77] Creating layer data
I0715 23:54:01.284778 14837 net.cpp:84] Creating Layer data
I0715 23:54:01.284799 14837 net.cpp:380] data -> data
I0715 23:54:01.284823 14837 net.cpp:380] data -> label
I0715 23:54:01.284837 14837 net.cpp:380] data -> crop_margin
I0715 23:54:01.284848 14837 net.cpp:380] data -> crop_prob
I0715 23:54:01.284858 14837 net.cpp:380] data -> crop_sample_batch
I0715 23:54:01.481042 14837 net.cpp:122] Setting up data
I0715 23:54:01.481096 14837 net.cpp:129] Top shape: 1 3 512 195 (299520)
I0715 23:54:01.481106 14837 net.cpp:129] Top shape: 1 3 512 195 (299520)
I0715 23:54:01.481115 14837 net.cpp:129] Top shape: 1 (1)
I0715 23:54:01.481130 14837 net.cpp:129] Top shape: 1 (1)
I0715 23:54:01.481138 14837 net.cpp:129] Top shape: 1 (1)
I0715 23:54:01.481143 14837 net.cpp:137] Memory required for data: 2396172
I0715 23:54:01.481156 14837 layer_factory.hpp:77] Creating layer data_data_0_split
I0715 23:54:01.481184 14837 net.cpp:84] Creating Layer data_data_0_split
I0715 23:54:01.481194 14837 net.cpp:406] data_data_0_split <- data
I0715 23:54:01.481212 14837 net.cpp:380] data_data_0_split -> data_data_0_split_0
I0715 23:54:01.481230 14837 net.cpp:380] data_data_0_split -> data_data_0_split_1
I0715 23:54:01.481258 14837 net.cpp:380] data_data_0_split -> data_data_0_split_2
I0715 23:54:01.481269 14837 net.cpp:380] data_data_0_split -> data_data_0_split_3
I0715 23:54:01.481340 14837 net.cpp:122] Setting up data_data_0_split
I0715 23:54:01.481353 14837 net.cpp:129] Top shape: 1 3 512 195 (299520)
I0715 23:54:01.481361 14837 net.cpp:129] Top shape: 1 3 512 195 (299520)
I0715 23:54:01.481369 14837 net.cpp:129] Top shape: 1 3 512 195 (299520)
I0715 23:54:01.481377 14837 net.cpp:129] Top shape: 1 3 512 195 (299520)
I0715 23:54:01.481384 14837 net.cpp:137] Memory required for data: 7188492
I0715 23:54:01.481389 14837 layer_factory.hpp:77] Creating layer label_data_1_split
I0715 23:54:01.481402 14837 net.cpp:84] Creating Layer label_data_1_split
I0715 23:54:01.481410 14837 net.cpp:406] label_data_1_split <- label
I0715 23:54:01.481418 14837 net.cpp:380] label_data_1_split -> label_data_1_split_0
I0715 23:54:01.481429 14837 net.cpp:380] label_data_1_split -> label_data_1_split_1
I0715 23:54:01.481441 14837 net.cpp:380] label_data_1_split -> label_data_1_split_2
I0715 23:54:01.481492 14837 net.cpp:122] Setting up label_data_1_split
I0715 23:54:01.481503 14837 net.cpp:129] Top shape: 1 3 512 195 (299520)
I0715 23:54:01.481511 14837 net.cpp:129] Top shape: 1 3 512 195 (299520)
I0715 23:54:01.481519 14837 net.cpp:129] Top shape: 1 3 512 195 (299520)
I0715 23:54:01.481525 14837 net.cpp:137] Memory required for data: 10782732
I0715 23:54:01.481531 14837 layer_factory.hpp:77] Creating layer conv1_1
I0715 23:54:01.481560 14837 net.cpp:84] Creating Layer conv1_1
I0715 23:54:01.481570 14837 net.cpp:406] conv1_1 <- data_data_0_split_0
I0715 23:54:01.481580 14837 net.cpp:380] conv1_1 -> conv1_1
I0715 23:54:01.873702 14837 net.cpp:122] Setting up conv1_1
I0715 23:54:01.873746 14837 net.cpp:129] Top shape: 1 64 710 393 (17857920)
I0715 23:54:01.873751 14837 net.cpp:137] Memory required for data: 82214412
I0715 23:54:01.873781 14837 layer_factory.hpp:77] Creating layer relu1_1
I0715 23:54:01.873812 14837 net.cpp:84] Creating Layer relu1_1
I0715 23:54:01.873819 14837 net.cpp:406] relu1_1 <- conv1_1
I0715 23:54:01.873828 14837 net.cpp:367] relu1_1 -> conv1_1 (in-place)
I0715 23:54:01.874066 14837 net.cpp:122] Setting up relu1_1
I0715 23:54:01.874079 14837 net.cpp:129] Top shape: 1 64 710 393 (17857920)
I0715 23:54:01.874084 14837 net.cpp:137] Memory required for data: 153646092
I0715 23:54:01.874089 14837 layer_factory.hpp:77] Creating layer conv1_2
I0715 23:54:01.874104 14837 net.cpp:84] Creating Layer conv1_2
I0715 23:54:01.874109 14837 net.cpp:406] conv1_2 <- conv1_1
I0715 23:54:01.874117 14837 net.cpp:380] conv1_2 -> conv1_2
I0715 23:54:01.887343 14837 net.cpp:122] Setting up conv1_2
I0715 23:54:01.887393 14837 net.cpp:129] Top shape: 1 64 710 393 (17857920)
I0715 23:54:01.887399 14837 net.cpp:137] Memory required for data: 225077772
I0715 23:54:01.887421 14837 layer_factory.hpp:77] Creating layer relu1_2
I0715 23:54:01.887444 14837 net.cpp:84] Creating Layer relu1_2
I0715 23:54:01.887451 14837 net.cpp:406] relu1_2 <- conv1_2
I0715 23:54:01.887465 14837 net.cpp:367] relu1_2 -> conv1_2 (in-place)
I0715 23:54:01.887817 14837 net.cpp:122] Setting up relu1_2
I0715 23:54:01.887846 14837 net.cpp:129] Top shape: 1 64 710 393 (17857920)
I0715 23:54:01.887854 14837 net.cpp:137] Memory required for data: 296509452
I0715 23:54:01.887868 14837 layer_factory.hpp:77] Creating layer pool1
I0715 23:54:01.887907 14837 net.cpp:84] Creating Layer pool1
I0715 23:54:01.887917 14837 net.cpp:406] pool1 <- conv1_2
I0715 23:54:01.887928 14837 net.cpp:380] pool1 -> pool1
I0715 23:54:01.888044 14837 net.cpp:122] Setting up pool1
I0715 23:54:01.888059 14837 net.cpp:129] Top shape: 1 64 355 197 (4475840)
I0715 23:54:01.888067 14837 net.cpp:137] Memory required for data: 314412812
I0715 23:54:01.888073 14837 layer_factory.hpp:77] Creating layer conv2_1
I0715 23:54:01.888094 14837 net.cpp:84] Creating Layer conv2_1
I0715 23:54:01.888101 14837 net.cpp:406] conv2_1 <- pool1
I0715 23:54:01.888113 14837 net.cpp:380] conv2_1 -> conv2_1
I0715 23:54:01.892511 14837 net.cpp:122] Setting up conv2_1
I0715 23:54:01.892554 14837 net.cpp:129] Top shape: 1 128 355 197 (8951680)
I0715 23:54:01.892563 14837 net.cpp:137] Memory required for data: 350219532
I0715 23:54:01.892585 14837 layer_factory.hpp:77] Creating layer relu2_1
I0715 23:54:01.892597 14837 net.cpp:84] Creating Layer relu2_1
I0715 23:54:01.892606 14837 net.cpp:406] relu2_1 <- conv2_1
I0715 23:54:01.892616 14837 net.cpp:367] relu2_1 -> conv2_1 (in-place)
I0715 23:54:01.892992 14837 net.cpp:122] Setting up relu2_1
I0715 23:54:01.893023 14837 net.cpp:129] Top shape: 1 128 355 197 (8951680)
I0715 23:54:01.893029 14837 net.cpp:137] Memory required for data: 386026252
I0715 23:54:01.893036 14837 layer_factory.hpp:77] Creating layer conv2_2
I0715 23:54:01.893074 14837 net.cpp:84] Creating Layer conv2_2
I0715 23:54:01.893082 14837 net.cpp:406] conv2_2 <- conv2_1
I0715 23:54:01.893103 14837 net.cpp:380] conv2_2 -> conv2_2
I0715 23:54:01.898154 14837 net.cpp:122] Setting up conv2_2
I0715 23:54:01.898193 14837 net.cpp:129] Top shape: 1 128 355 197 (8951680)
I0715 23:54:01.898202 14837 net.cpp:137] Memory required for data: 421832972
I0715 23:54:01.898232 14837 layer_factory.hpp:77] Creating layer relu2_2
I0715 23:54:01.898262 14837 net.cpp:84] Creating Layer relu2_2
I0715 23:54:01.898272 14837 net.cpp:406] relu2_2 <- conv2_2
I0715 23:54:01.898283 14837 net.cpp:367] relu2_2 -> conv2_2 (in-place)
I0715 23:54:01.898658 14837 net.cpp:122] Setting up relu2_2
I0715 23:54:01.898677 14837 net.cpp:129] Top shape: 1 128 355 197 (8951680)
I0715 23:54:01.898689 14837 net.cpp:137] Memory required for data: 457639692
I0715 23:54:01.898696 14837 layer_factory.hpp:77] Creating layer pool2
I0715 23:54:01.898727 14837 net.cpp:84] Creating Layer pool2
I0715 23:54:01.898736 14837 net.cpp:406] pool2 <- conv2_2
I0715 23:54:01.898747 14837 net.cpp:380] pool2 -> pool2
I0715 23:54:01.898828 14837 net.cpp:122] Setting up pool2
I0715 23:54:01.898854 14837 net.cpp:129] Top shape: 1 128 178 99 (2255616)
I0715 23:54:01.898860 14837 net.cpp:137] Memory required for data: 466662156
I0715 23:54:01.898867 14837 layer_factory.hpp:77] Creating layer conv3_1
I0715 23:54:01.898882 14837 net.cpp:84] Creating Layer conv3_1
I0715 23:54:01.898890 14837 net.cpp:406] conv3_1 <- pool2
I0715 23:54:01.898901 14837 net.cpp:380] conv3_1 -> conv3_1
I0715 23:54:01.903357 14837 net.cpp:122] Setting up conv3_1
I0715 23:54:01.903388 14837 net.cpp:129] Top shape: 1 256 178 99 (4511232)
I0715 23:54:01.903394 14837 net.cpp:137] Memory required for data: 484707084
I0715 23:54:01.903409 14837 layer_factory.hpp:77] Creating layer relu3_1
I0715 23:54:01.903441 14837 net.cpp:84] Creating Layer relu3_1
I0715 23:54:01.903447 14837 net.cpp:406] relu3_1 <- conv3_1
I0715 23:54:01.903461 14837 net.cpp:367] relu3_1 -> conv3_1 (in-place)
I0715 23:54:01.904263 14837 net.cpp:122] Setting up relu3_1
I0715 23:54:01.904295 14837 net.cpp:129] Top shape: 1 256 178 99 (4511232)
I0715 23:54:01.904300 14837 net.cpp:137] Memory required for data: 502752012
I0715 23:54:01.904305 14837 layer_factory.hpp:77] Creating layer conv3_2
I0715 23:54:01.904317 14837 net.cpp:84] Creating Layer conv3_2
I0715 23:54:01.904322 14837 net.cpp:406] conv3_2 <- conv3_1
I0715 23:54:01.904332 14837 net.cpp:380] conv3_2 -> conv3_2
I0715 23:54:01.908568 14837 net.cpp:122] Setting up conv3_2
I0715 23:54:01.908601 14837 net.cpp:129] Top shape: 1 256 178 99 (4511232)
I0715 23:54:01.908607 14837 net.cpp:137] Memory required for data: 520796940
I0715 23:54:01.908618 14837 layer_factory.hpp:77] Creating layer relu3_2
I0715 23:54:01.908638 14837 net.cpp:84] Creating Layer relu3_2
I0715 23:54:01.908644 14837 net.cpp:406] relu3_2 <- conv3_2
I0715 23:54:01.908653 14837 net.cpp:367] relu3_2 -> conv3_2 (in-place)
I0715 23:54:01.909469 14837 net.cpp:122] Setting up relu3_2
I0715 23:54:01.909487 14837 net.cpp:129] Top shape: 1 256 178 99 (4511232)
I0715 23:54:01.909503 14837 net.cpp:137] Memory required for data: 538841868
I0715 23:54:01.909508 14837 layer_factory.hpp:77] Creating layer conv3_3
I0715 23:54:01.909531 14837 net.cpp:84] Creating Layer conv3_3
I0715 23:54:01.909538 14837 net.cpp:406] conv3_3 <- conv3_2
I0715 23:54:01.909546 14837 net.cpp:380] conv3_3 -> conv3_3
I0715 23:54:01.919242 14837 net.cpp:122] Setting up conv3_3
I0715 23:54:01.919314 14837 net.cpp:129] Top shape: 1 256 178 99 (4511232)
I0715 23:54:01.919323 14837 net.cpp:137] Memory required for data: 556886796
I0715 23:54:01.919342 14837 layer_factory.hpp:77] Creating layer relu3_3
I0715 23:54:01.919361 14837 net.cpp:84] Creating Layer relu3_3
I0715 23:54:01.919371 14837 net.cpp:406] relu3_3 <- conv3_3
I0715 23:54:01.919383 14837 net.cpp:367] relu3_3 -> conv3_3 (in-place)
I0715 23:54:01.919744 14837 net.cpp:122] Setting up relu3_3
I0715 23:54:01.919762 14837 net.cpp:129] Top shape: 1 256 178 99 (4511232)
I0715 23:54:01.919770 14837 net.cpp:137] Memory required for data: 574931724
I0715 23:54:01.919777 14837 layer_factory.hpp:77] Creating layer pool3
I0715 23:54:01.919793 14837 net.cpp:84] Creating Layer pool3
I0715 23:54:01.919801 14837 net.cpp:406] pool3 <- conv3_3
I0715 23:54:01.919812 14837 net.cpp:380] pool3 -> pool3
I0715 23:54:01.919895 14837 net.cpp:122] Setting up pool3
I0715 23:54:01.919910 14837 net.cpp:129] Top shape: 1 256 89 50 (1139200)
I0715 23:54:01.919917 14837 net.cpp:137] Memory required for data: 579488524
I0715 23:54:01.919924 14837 layer_factory.hpp:77] Creating layer pool3_pool3_0_split
I0715 23:54:01.919934 14837 net.cpp:84] Creating Layer pool3_pool3_0_split
I0715 23:54:01.919941 14837 net.cpp:406] pool3_pool3_0_split <- pool3
I0715 23:54:01.919951 14837 net.cpp:380] pool3_pool3_0_split -> pool3_pool3_0_split_0
I0715 23:54:01.919963 14837 net.cpp:380] pool3_pool3_0_split -> pool3_pool3_0_split_1
I0715 23:54:01.920023 14837 net.cpp:122] Setting up pool3_pool3_0_split
I0715 23:54:01.920037 14837 net.cpp:129] Top shape: 1 256 89 50 (1139200)
I0715 23:54:01.920045 14837 net.cpp:129] Top shape: 1 256 89 50 (1139200)
I0715 23:54:01.920053 14837 net.cpp:137] Memory required for data: 588602124
I0715 23:54:01.920059 14837 layer_factory.hpp:77] Creating layer conv4_1
I0715 23:54:01.920074 14837 net.cpp:84] Creating Layer conv4_1
I0715 23:54:01.920083 14837 net.cpp:406] conv4_1 <- pool3_pool3_0_split_0
I0715 23:54:01.920092 14837 net.cpp:380] conv4_1 -> conv4_1
I0715 23:54:01.931689 14837 net.cpp:122] Setting up conv4_1
I0715 23:54:01.931733 14837 net.cpp:129] Top shape: 1 512 89 50 (2278400)
I0715 23:54:01.931742 14837 net.cpp:137] Memory required for data: 597715724
I0715 23:54:01.931763 14837 layer_factory.hpp:77] Creating layer relu4_1
I0715 23:54:01.931802 14837 net.cpp:84] Creating Layer relu4_1
I0715 23:54:01.931812 14837 net.cpp:406] relu4_1 <- conv4_1
I0715 23:54:01.931828 14837 net.cpp:367] relu4_1 -> conv4_1 (in-place)
I0715 23:54:01.932247 14837 net.cpp:122] Setting up relu4_1
I0715 23:54:01.932283 14837 net.cpp:129] Top shape: 1 512 89 50 (2278400)
I0715 23:54:01.932291 14837 net.cpp:137] Memory required for data: 606829324
I0715 23:54:01.932298 14837 layer_factory.hpp:77] Creating layer conv4_2
I0715 23:54:01.932313 14837 net.cpp:84] Creating Layer conv4_2
I0715 23:54:01.932322 14837 net.cpp:406] conv4_2 <- conv4_1
I0715 23:54:01.932337 14837 net.cpp:380] conv4_2 -> conv4_2
I0715 23:54:01.943302 14837 net.cpp:122] Setting up conv4_2
I0715 23:54:01.943336 14837 net.cpp:129] Top shape: 1 512 89 50 (2278400)
I0715 23:54:01.943341 14837 net.cpp:137] Memory required for data: 615942924
I0715 23:54:01.943361 14837 layer_factory.hpp:77] Creating layer relu4_2
I0715 23:54:01.943372 14837 net.cpp:84] Creating Layer relu4_2
I0715 23:54:01.943377 14837 net.cpp:406] relu4_2 <- conv4_2
I0715 23:54:01.943387 14837 net.cpp:367] relu4_2 -> conv4_2 (in-place)
I0715 23:54:01.943619 14837 net.cpp:122] Setting up relu4_2
I0715 23:54:01.943645 14837 net.cpp:129] Top shape: 1 512 89 50 (2278400)
I0715 23:54:01.943650 14837 net.cpp:137] Memory required for data: 625056524
I0715 23:54:01.943653 14837 layer_factory.hpp:77] Creating layer conv4_3
I0715 23:54:01.943663 14837 net.cpp:84] Creating Layer conv4_3
I0715 23:54:01.943668 14837 net.cpp:406] conv4_3 <- conv4_2
I0715 23:54:01.943677 14837 net.cpp:380] conv4_3 -> conv4_3
I0715 23:54:01.954083 14837 net.cpp:122] Setting up conv4_3
I0715 23:54:01.954109 14837 net.cpp:129] Top shape: 1 512 89 50 (2278400)
I0715 23:54:01.954114 14837 net.cpp:137] Memory required for data: 634170124
I0715 23:54:01.954124 14837 layer_factory.hpp:77] Creating layer relu4_3
I0715 23:54:01.954136 14837 net.cpp:84] Creating Layer relu4_3
I0715 23:54:01.954143 14837 net.cpp:406] relu4_3 <- conv4_3
I0715 23:54:01.954149 14837 net.cpp:367] relu4_3 -> conv4_3 (in-place)
I0715 23:54:01.954370 14837 net.cpp:122] Setting up relu4_3
I0715 23:54:01.954382 14837 net.cpp:129] Top shape: 1 512 89 50 (2278400)
I0715 23:54:01.954386 14837 net.cpp:137] Memory required for data: 643283724
I0715 23:54:01.954391 14837 layer_factory.hpp:77] Creating layer pool4
I0715 23:54:01.954401 14837 net.cpp:84] Creating Layer pool4
I0715 23:54:01.954406 14837 net.cpp:406] pool4 <- conv4_3
I0715 23:54:01.954411 14837 net.cpp:380] pool4 -> pool4
I0715 23:54:01.954464 14837 net.cpp:122] Setting up pool4
I0715 23:54:01.954473 14837 net.cpp:129] Top shape: 1 512 45 25 (576000)
I0715 23:54:01.954478 14837 net.cpp:137] Memory required for data: 645587724
I0715 23:54:01.954481 14837 layer_factory.hpp:77] Creating layer pool4_pool4_0_split
I0715 23:54:01.954488 14837 net.cpp:84] Creating Layer pool4_pool4_0_split
I0715 23:54:01.954493 14837 net.cpp:406] pool4_pool4_0_split <- pool4
I0715 23:54:01.954500 14837 net.cpp:380] pool4_pool4_0_split -> pool4_pool4_0_split_0
I0715 23:54:01.954507 14837 net.cpp:380] pool4_pool4_0_split -> pool4_pool4_0_split_1
I0715 23:54:01.954545 14837 net.cpp:122] Setting up pool4_pool4_0_split
I0715 23:54:01.954553 14837 net.cpp:129] Top shape: 1 512 45 25 (576000)
I0715 23:54:01.954558 14837 net.cpp:129] Top shape: 1 512 45 25 (576000)
I0715 23:54:01.954562 14837 net.cpp:137] Memory required for data: 650195724
I0715 23:54:01.954566 14837 layer_factory.hpp:77] Creating layer conv5_1
I0715 23:54:01.954576 14837 net.cpp:84] Creating Layer conv5_1
I0715 23:54:01.954579 14837 net.cpp:406] conv5_1 <- pool4_pool4_0_split_0
I0715 23:54:01.954587 14837 net.cpp:380] conv5_1 -> conv5_1
I0715 23:54:01.964475 14837 net.cpp:122] Setting up conv5_1
I0715 23:54:01.964499 14837 net.cpp:129] Top shape: 1 512 45 25 (576000)
I0715 23:54:01.964504 14837 net.cpp:137] Memory required for data: 652499724
I0715 23:54:01.964516 14837 layer_factory.hpp:77] Creating layer relu5_1
I0715 23:54:01.964525 14837 net.cpp:84] Creating Layer relu5_1
I0715 23:54:01.964530 14837 net.cpp:406] relu5_1 <- conv5_1
I0715 23:54:01.964537 14837 net.cpp:367] relu5_1 -> conv5_1 (in-place)
I0715 23:54:01.965291 14837 net.cpp:122] Setting up relu5_1
I0715 23:54:01.965306 14837 net.cpp:129] Top shape: 1 512 45 25 (576000)
I0715 23:54:01.965312 14837 net.cpp:137] Memory required for data: 654803724
I0715 23:54:01.965317 14837 layer_factory.hpp:77] Creating layer conv5_2
I0715 23:54:01.965327 14837 net.cpp:84] Creating Layer conv5_2
I0715 23:54:01.965332 14837 net.cpp:406] conv5_2 <- conv5_1
I0715 23:54:01.965342 14837 net.cpp:380] conv5_2 -> conv5_2
I0715 23:54:01.973368 14837 net.cpp:122] Setting up conv5_2
I0715 23:54:01.973390 14837 net.cpp:129] Top shape: 1 512 45 25 (576000)
I0715 23:54:01.973395 14837 net.cpp:137] Memory required for data: 657107724
I0715 23:54:01.973403 14837 layer_factory.hpp:77] Creating layer relu5_2
I0715 23:54:01.973423 14837 net.cpp:84] Creating Layer relu5_2
I0715 23:54:01.973428 14837 net.cpp:406] relu5_2 <- conv5_2
I0715 23:54:01.973438 14837 net.cpp:367] relu5_2 -> conv5_2 (in-place)
I0715 23:54:01.974210 14837 net.cpp:122] Setting up relu5_2
I0715 23:54:01.974225 14837 net.cpp:129] Top shape: 1 512 45 25 (576000)
I0715 23:54:01.974229 14837 net.cpp:137] Memory required for data: 659411724
I0715 23:54:01.974234 14837 layer_factory.hpp:77] Creating layer conv5_3
I0715 23:54:01.974251 14837 net.cpp:84] Creating Layer conv5_3
I0715 23:54:01.974257 14837 net.cpp:406] conv5_3 <- conv5_2
I0715 23:54:01.974264 14837 net.cpp:380] conv5_3 -> conv5_3
I0715 23:54:01.989487 14837 net.cpp:122] Setting up conv5_3
I0715 23:54:01.989526 14837 net.cpp:129] Top shape: 1 512 45 25 (576000)
I0715 23:54:01.989532 14837 net.cpp:137] Memory required for data: 661715724
I0715 23:54:01.989547 14837 layer_factory.hpp:77] Creating layer relu5_3
I0715 23:54:01.989562 14837 net.cpp:84] Creating Layer relu5_3
I0715 23:54:01.989576 14837 net.cpp:406] relu5_3 <- conv5_3
I0715 23:54:01.989591 14837 net.cpp:367] relu5_3 -> conv5_3 (in-place)
I0715 23:54:01.989967 14837 net.cpp:122] Setting up relu5_3
I0715 23:54:01.989986 14837 net.cpp:129] Top shape: 1 512 45 25 (576000)
I0715 23:54:01.989994 14837 net.cpp:137] Memory required for data: 664019724
I0715 23:54:01.990005 14837 layer_factory.hpp:77] Creating layer pool5
I0715 23:54:01.990020 14837 net.cpp:84] Creating Layer pool5
I0715 23:54:01.990027 14837 net.cpp:406] pool5 <- conv5_3
I0715 23:54:01.990043 14837 net.cpp:380] pool5 -> pool5
I0715 23:54:01.990140 14837 net.cpp:122] Setting up pool5
I0715 23:54:01.990154 14837 net.cpp:129] Top shape: 1 512 23 13 (153088)
I0715 23:54:01.990160 14837 net.cpp:137] Memory required for data: 664632076
I0715 23:54:01.990167 14837 layer_factory.hpp:77] Creating layer fc6
I0715 23:54:01.990190 14837 net.cpp:84] Creating Layer fc6
I0715 23:54:01.990200 14837 net.cpp:406] fc6 <- pool5
I0715 23:54:01.990211 14837 net.cpp:380] fc6 -> fc6
I0715 23:54:02.342026 14837 net.cpp:122] Setting up fc6
I0715 23:54:02.342077 14837 net.cpp:129] Top shape: 1 4096 17 7 (487424)
I0715 23:54:02.342083 14837 net.cpp:137] Memory required for data: 666581772
I0715 23:54:02.342113 14837 layer_factory.hpp:77] Creating layer relu6
I0715 23:54:02.342136 14837 net.cpp:84] Creating Layer relu6
I0715 23:54:02.342145 14837 net.cpp:406] relu6 <- fc6
I0715 23:54:02.342154 14837 net.cpp:367] relu6 -> fc6 (in-place)
I0715 23:54:02.342398 14837 net.cpp:122] Setting up relu6
I0715 23:54:02.342411 14837 net.cpp:129] Top shape: 1 4096 17 7 (487424)
I0715 23:54:02.342414 14837 net.cpp:137] Memory required for data: 668531468
I0715 23:54:02.342419 14837 layer_factory.hpp:77] Creating layer drop6
I0715 23:54:02.342440 14837 net.cpp:84] Creating Layer drop6
I0715 23:54:02.342445 14837 net.cpp:406] drop6 <- fc6
I0715 23:54:02.342450 14837 net.cpp:367] drop6 -> fc6 (in-place)
I0715 23:54:02.342515 14837 net.cpp:122] Setting up drop6
I0715 23:54:02.342525 14837 net.cpp:129] Top shape: 1 4096 17 7 (487424)
I0715 23:54:02.342528 14837 net.cpp:137] Memory required for data: 670481164
I0715 23:54:02.342538 14837 layer_factory.hpp:77] Creating layer fc7
I0715 23:54:02.342553 14837 net.cpp:84] Creating Layer fc7
I0715 23:54:02.342557 14837 net.cpp:406] fc7 <- fc6
I0715 23:54:02.342566 14837 net.cpp:380] fc7 -> fc7
I0715 23:54:02.396589 14837 net.cpp:122] Setting up fc7
I0715 23:54:02.396641 14837 net.cpp:129] Top shape: 1 4096 17 7 (487424)
I0715 23:54:02.396644 14837 net.cpp:137] Memory required for data: 672430860
I0715 23:54:02.396659 14837 layer_factory.hpp:77] Creating layer relu7
I0715 23:54:02.396674 14837 net.cpp:84] Creating Layer relu7
I0715 23:54:02.396680 14837 net.cpp:406] relu7 <- fc7
I0715 23:54:02.396692 14837 net.cpp:367] relu7 -> fc7 (in-place)
I0715 23:54:02.396900 14837 net.cpp:122] Setting up relu7
I0715 23:54:02.396914 14837 net.cpp:129] Top shape: 1 4096 17 7 (487424)
I0715 23:54:02.396916 14837 net.cpp:137] Memory required for data: 674380556
I0715 23:54:02.396920 14837 layer_factory.hpp:77] Creating layer drop7
I0715 23:54:02.396930 14837 net.cpp:84] Creating Layer drop7
I0715 23:54:02.396934 14837 net.cpp:406] drop7 <- fc7
I0715 23:54:02.396939 14837 net.cpp:367] drop7 -> fc7 (in-place)
I0715 23:54:02.396973 14837 net.cpp:122] Setting up drop7
I0715 23:54:02.396980 14837 net.cpp:129] Top shape: 1 4096 17 7 (487424)
I0715 23:54:02.396982 14837 net.cpp:137] Memory required for data: 676330252
I0715 23:54:02.396998 14837 layer_factory.hpp:77] Creating layer score_fr-new
I0715 23:54:02.397024 14837 net.cpp:84] Creating Layer score_fr-new
I0715 23:54:02.397027 14837 net.cpp:406] score_fr-new <- fc7
I0715 23:54:02.397034 14837 net.cpp:380] score_fr-new -> score_fr-new
I0715 23:54:02.400116 14837 net.cpp:122] Setting up score_fr-new
I0715 23:54:02.400147 14837 net.cpp:129] Top shape: 1 3 17 7 (357)
I0715 23:54:02.400151 14837 net.cpp:137] Memory required for data: 676331680
I0715 23:54:02.400161 14837 layer_factory.hpp:77] Creating layer upscore2-new
I0715 23:54:02.400179 14837 net.cpp:84] Creating Layer upscore2-new
I0715 23:54:02.400184 14837 net.cpp:406] upscore2-new <- score_fr-new
I0715 23:54:02.400190 14837 net.cpp:380] upscore2-new -> upscore2-new
I0715 23:54:02.400399 14837 net.cpp:122] Setting up upscore2-new
I0715 23:54:02.400409 14837 net.cpp:129] Top shape: 1 3 36 16 (1728)
I0715 23:54:02.400413 14837 net.cpp:137] Memory required for data: 676338592
I0715 23:54:02.400444 14837 layer_factory.hpp:77] Creating layer upscore2-new_upscore2-new_0_split
I0715 23:54:02.400454 14837 net.cpp:84] Creating Layer upscore2-new_upscore2-new_0_split
I0715 23:54:02.400457 14837 net.cpp:406] upscore2-new_upscore2-new_0_split <- upscore2-new
I0715 23:54:02.400465 14837 net.cpp:380] upscore2-new_upscore2-new_0_split -> upscore2-new_upscore2-new_0_split_0
I0715 23:54:02.400470 14837 net.cpp:380] upscore2-new_upscore2-new_0_split -> upscore2-new_upscore2-new_0_split_1
I0715 23:54:02.400511 14837 net.cpp:122] Setting up upscore2-new_upscore2-new_0_split
I0715 23:54:02.400519 14837 net.cpp:129] Top shape: 1 3 36 16 (1728)
I0715 23:54:02.400523 14837 net.cpp:129] Top shape: 1 3 36 16 (1728)
I0715 23:54:02.400527 14837 net.cpp:137] Memory required for data: 676352416
I0715 23:54:02.400529 14837 layer_factory.hpp:77] Creating layer score_pool4-new
I0715 23:54:02.400539 14837 net.cpp:84] Creating Layer score_pool4-new
I0715 23:54:02.400543 14837 net.cpp:406] score_pool4-new <- pool4_pool4_0_split_1
I0715 23:54:02.400548 14837 net.cpp:380] score_pool4-new -> score_pool4-new
I0715 23:54:02.401855 14837 net.cpp:122] Setting up score_pool4-new
I0715 23:54:02.401870 14837 net.cpp:129] Top shape: 1 3 45 25 (3375)
I0715 23:54:02.401888 14837 net.cpp:137] Memory required for data: 676365916
I0715 23:54:02.401902 14837 layer_factory.hpp:77] Creating layer score_pool4c
I0715 23:54:02.401919 14837 net.cpp:84] Creating Layer score_pool4c
I0715 23:54:02.401924 14837 net.cpp:406] score_pool4c <- score_pool4-new
I0715 23:54:02.401931 14837 net.cpp:406] score_pool4c <- upscore2-new_upscore2-new_0_split_0
I0715 23:54:02.401935 14837 net.cpp:380] score_pool4c -> score_pool4c
I0715 23:54:02.401985 14837 net.cpp:122] Setting up score_pool4c
I0715 23:54:02.401990 14837 net.cpp:129] Top shape: 1 3 36 16 (1728)
I0715 23:54:02.401993 14837 net.cpp:137] Memory required for data: 676372828
I0715 23:54:02.401996 14837 layer_factory.hpp:77] Creating layer fuse_pool4
I0715 23:54:02.402004 14837 net.cpp:84] Creating Layer fuse_pool4
I0715 23:54:02.402009 14837 net.cpp:406] fuse_pool4 <- upscore2-new_upscore2-new_0_split_1
I0715 23:54:02.402012 14837 net.cpp:406] fuse_pool4 <- score_pool4c
I0715 23:54:02.402021 14837 net.cpp:380] fuse_pool4 -> fuse_pool4
I0715 23:54:02.402047 14837 net.cpp:122] Setting up fuse_pool4
I0715 23:54:02.402055 14837 net.cpp:129] Top shape: 1 3 36 16 (1728)
I0715 23:54:02.402058 14837 net.cpp:137] Memory required for data: 676379740
I0715 23:54:02.402061 14837 layer_factory.hpp:77] Creating layer upscore_pool4-new
I0715 23:54:02.402067 14837 net.cpp:84] Creating Layer upscore_pool4-new
I0715 23:54:02.402070 14837 net.cpp:406] upscore_pool4-new <- fuse_pool4
I0715 23:54:02.402077 14837 net.cpp:380] upscore_pool4-new -> upscore_pool4-new
I0715 23:54:02.402268 14837 net.cpp:122] Setting up upscore_pool4-new
I0715 23:54:02.402277 14837 net.cpp:129] Top shape: 1 3 74 34 (7548)
I0715 23:54:02.402281 14837 net.cpp:137] Memory required for data: 676409932
I0715 23:54:02.402285 14837 layer_factory.hpp:77] Creating layer upscore_pool4-new_upscore_pool4-new_0_split
I0715 23:54:02.402290 14837 net.cpp:84] Creating Layer upscore_pool4-new_upscore_pool4-new_0_split
I0715 23:54:02.402293 14837 net.cpp:406] upscore_pool4-new_upscore_pool4-new_0_split <- upscore_pool4-new
I0715 23:54:02.402299 14837 net.cpp:380] upscore_pool4-new_upscore_pool4-new_0_split -> upscore_pool4-new_upscore_pool4-new_0_split_0
I0715 23:54:02.402304 14837 net.cpp:380] upscore_pool4-new_upscore_pool4-new_0_split -> upscore_pool4-new_upscore_pool4-new_0_split_1
I0715 23:54:02.402339 14837 net.cpp:122] Setting up upscore_pool4-new_upscore_pool4-new_0_split
I0715 23:54:02.402344 14837 net.cpp:129] Top shape: 1 3 74 34 (7548)
I0715 23:54:02.402348 14837 net.cpp:129] Top shape: 1 3 74 34 (7548)
I0715 23:54:02.402351 14837 net.cpp:137] Memory required for data: 676470316
I0715 23:54:02.402354 14837 layer_factory.hpp:77] Creating layer score_pool3-new
I0715 23:54:02.402370 14837 net.cpp:84] Creating Layer score_pool3-new
I0715 23:54:02.402374 14837 net.cpp:406] score_pool3-new <- pool3_pool3_0_split_1
I0715 23:54:02.402382 14837 net.cpp:380] score_pool3-new -> score_pool3-new
I0715 23:54:02.403897 14837 net.cpp:122] Setting up score_pool3-new
I0715 23:54:02.403914 14837 net.cpp:129] Top shape: 1 3 89 50 (13350)
I0715 23:54:02.403929 14837 net.cpp:137] Memory required for data: 676523716
I0715 23:54:02.403937 14837 layer_factory.hpp:77] Creating layer score_pool3c
I0715 23:54:02.403950 14837 net.cpp:84] Creating Layer score_pool3c
I0715 23:54:02.403956 14837 net.cpp:406] score_pool3c <- score_pool3-new
I0715 23:54:02.403962 14837 net.cpp:406] score_pool3c <- upscore_pool4-new_upscore_pool4-new_0_split_0
I0715 23:54:02.403970 14837 net.cpp:380] score_pool3c -> score_pool3c
I0715 23:54:02.404016 14837 net.cpp:122] Setting up score_pool3c
I0715 23:54:02.404023 14837 net.cpp:129] Top shape: 1 3 74 34 (7548)
I0715 23:54:02.404027 14837 net.cpp:137] Memory required for data: 676553908
I0715 23:54:02.404031 14837 layer_factory.hpp:77] Creating layer fuse_pool3
I0715 23:54:02.404037 14837 net.cpp:84] Creating Layer fuse_pool3
I0715 23:54:02.404042 14837 net.cpp:406] fuse_pool3 <- upscore_pool4-new_upscore_pool4-new_0_split_1
I0715 23:54:02.404050 14837 net.cpp:406] fuse_pool3 <- score_pool3c
I0715 23:54:02.404057 14837 net.cpp:380] fuse_pool3 -> fuse_pool3
I0715 23:54:02.404086 14837 net.cpp:122] Setting up fuse_pool3
I0715 23:54:02.404093 14837 net.cpp:129] Top shape: 1 3 74 34 (7548)
I0715 23:54:02.404096 14837 net.cpp:137] Memory required for data: 676584100
I0715 23:54:02.404100 14837 layer_factory.hpp:77] Creating layer upscore8-new
I0715 23:54:02.404109 14837 net.cpp:84] Creating Layer upscore8-new
I0715 23:54:02.404121 14837 net.cpp:406] upscore8-new <- fuse_pool3
I0715 23:54:02.404127 14837 net.cpp:380] upscore8-new -> upscore8-new
I0715 23:54:02.404383 14837 net.cpp:122] Setting up upscore8-new
I0715 23:54:02.404394 14837 net.cpp:129] Top shape: 1 3 600 280 (504000)
I0715 23:54:02.404398 14837 net.cpp:137] Memory required for data: 678600100
I0715 23:54:02.404412 14837 layer_factory.hpp:77] Creating layer upscore8_cropped
I0715 23:54:02.404419 14837 net.cpp:84] Creating Layer upscore8_cropped
I0715 23:54:02.404424 14837 net.cpp:406] upscore8_cropped <- upscore8-new
I0715 23:54:02.404439 14837 net.cpp:406] upscore8_cropped <- data_data_0_split_1
I0715 23:54:02.404446 14837 net.cpp:380] upscore8_cropped -> upscore8_cropped
I0715 23:54:02.404477 14837 net.cpp:122] Setting up upscore8_cropped
I0715 23:54:02.404484 14837 net.cpp:129] Top shape: 1 3 512 195 (299520)
I0715 23:54:02.404487 14837 net.cpp:137] Memory required for data: 679798180
I0715 23:54:02.404491 14837 layer_factory.hpp:77] Creating layer upscore8_cropped_upscore8_cropped_0_split
I0715 23:54:02.404497 14837 net.cpp:84] Creating Layer upscore8_cropped_upscore8_cropped_0_split
I0715 23:54:02.404501 14837 net.cpp:406] upscore8_cropped_upscore8_cropped_0_split <- upscore8_cropped
I0715 23:54:02.404507 14837 net.cpp:380] upscore8_cropped_upscore8_cropped_0_split -> upscore8_cropped_upscore8_cropped_0_split_0
I0715 23:54:02.404515 14837 net.cpp:380] upscore8_cropped_upscore8_cropped_0_split -> upscore8_cropped_upscore8_cropped_0_split_1
I0715 23:54:02.404559 14837 net.cpp:122] Setting up upscore8_cropped_upscore8_cropped_0_split
I0715 23:54:02.404577 14837 net.cpp:129] Top shape: 1 3 512 195 (299520)
I0715 23:54:02.404582 14837 net.cpp:129] Top shape: 1 3 512 195 (299520)
I0715 23:54:02.404585 14837 net.cpp:137] Memory required for data: 682194340
I0715 23:54:02.404590 14837 layer_factory.hpp:77] Creating layer prob
I0715 23:54:02.404597 14837 net.cpp:84] Creating Layer prob
I0715 23:54:02.404601 14837 net.cpp:406] prob <- upscore8_cropped_upscore8_cropped_0_split_0
I0715 23:54:02.404608 14837 net.cpp:380] prob -> prob
I0715 23:54:02.404881 14837 net.cpp:122] Setting up prob
I0715 23:54:02.404893 14837 net.cpp:129] Top shape: 1 3 512 195 (299520)
I0715 23:54:02.404897 14837 net.cpp:137] Memory required for data: 683392420
I0715 23:54:02.404901 14837 layer_factory.hpp:77] Creating layer prob_prob_0_split
I0715 23:54:02.404918 14837 net.cpp:84] Creating Layer prob_prob_0_split
I0715 23:54:02.404923 14837 net.cpp:406] prob_prob_0_split <- prob
I0715 23:54:02.404929 14837 net.cpp:380] prob_prob_0_split -> prob_prob_0_split_0
I0715 23:54:02.404937 14837 net.cpp:380] prob_prob_0_split -> prob_prob_0_split_1
I0715 23:54:02.404992 14837 net.cpp:122] Setting up prob_prob_0_split
I0715 23:54:02.405001 14837 net.cpp:129] Top shape: 1 3 512 195 (299520)
I0715 23:54:02.405006 14837 net.cpp:129] Top shape: 1 3 512 195 (299520)
I0715 23:54:02.405010 14837 net.cpp:137] Memory required for data: 685788580
I0715 23:54:02.405014 14837 layer_factory.hpp:77] Creating layer saliency1
I0715 23:54:02.405035 14837 net.cpp:84] Creating Layer saliency1
I0715 23:54:02.405040 14837 net.cpp:406] saliency1 <- prob_prob_0_split_0
I0715 23:54:02.405050 14837 net.cpp:380] saliency1 -> saliency1
I0715 23:54:02.407851 14837 net.cpp:122] Setting up saliency1
I0715 23:54:02.407882 14837 net.cpp:129] Top shape: 1 3 512 195 (299520)
I0715 23:54:02.407887 14837 net.cpp:137] Memory required for data: 686986660
I0715 23:54:02.407899 14837 layer_factory.hpp:77] Creating layer relu_saliency1
I0715 23:54:02.407907 14837 net.cpp:84] Creating Layer relu_saliency1
I0715 23:54:02.407913 14837 net.cpp:406] relu_saliency1 <- saliency1
I0715 23:54:02.407920 14837 net.cpp:367] relu_saliency1 -> saliency1 (in-place)
I0715 23:54:02.408175 14837 net.cpp:122] Setting up relu_saliency1
I0715 23:54:02.408190 14837 net.cpp:129] Top shape: 1 3 512 195 (299520)
I0715 23:54:02.408193 14837 net.cpp:137] Memory required for data: 688184740
I0715 23:54:02.408198 14837 layer_factory.hpp:77] Creating layer saliency
I0715 23:54:02.408211 14837 net.cpp:84] Creating Layer saliency
I0715 23:54:02.408219 14837 net.cpp:406] saliency <- saliency1
I0715 23:54:02.408227 14837 net.cpp:380] saliency -> saliency
I0715 23:54:02.410497 14837 net.cpp:122] Setting up saliency
I0715 23:54:02.410516 14837 net.cpp:129] Top shape: 1 3 512 195 (299520)
I0715 23:54:02.410521 14837 net.cpp:137] Memory required for data: 689382820
I0715 23:54:02.410542 14837 layer_factory.hpp:77] Creating layer saliency_data
I0715 23:54:02.410557 14837 net.cpp:84] Creating Layer saliency_data
I0715 23:54:02.410562 14837 net.cpp:406] saliency_data <- data_data_0_split_2
I0715 23:54:02.410568 14837 net.cpp:406] saliency_data <- saliency
I0715 23:54:02.410575 14837 net.cpp:380] saliency_data -> saliency_data
I0715 23:54:02.410617 14837 net.cpp:122] Setting up saliency_data
I0715 23:54:02.410624 14837 net.cpp:129] Top shape: 1 3 512 195 (299520)
I0715 23:54:02.410629 14837 net.cpp:137] Memory required for data: 690580900
I0715 23:54:02.410632 14837 layer_factory.hpp:77] Creating layer crop
I0715 23:54:02.412012 14837 net.cpp:84] Creating Layer crop
I0715 23:54:02.412027 14837 net.cpp:406] crop <- prob_prob_0_split_1
I0715 23:54:02.412045 14837 net.cpp:406] crop <- saliency_data
I0715 23:54:02.412058 14837 net.cpp:406] crop <- crop_margin
I0715 23:54:02.412065 14837 net.cpp:406] crop <- crop_prob
I0715 23:54:02.412070 14837 net.cpp:406] crop <- crop_sample_batch
I0715 23:54:02.412075 14837 net.cpp:406] crop <- label_data_1_split_0
I0715 23:54:02.412082 14837 net.cpp:380] crop -> data-R
I0715 23:54:02.412092 14837 net.cpp:380] crop -> crop_info
I0715 23:54:02.425416 14837 net.cpp:122] Setting up crop
I0715 23:54:02.425459 14837 net.cpp:129] Top shape: 1 3 512 195 (299520)
I0715 23:54:02.425467 14837 net.cpp:129] Top shape: 1 2 4 (8)
I0715 23:54:02.425472 14837 net.cpp:137] Memory required for data: 691779012
I0715 23:54:02.425479 14837 layer_factory.hpp:77] Creating layer data-R_crop_0_split
I0715 23:54:02.425493 14837 net.cpp:84] Creating Layer data-R_crop_0_split
I0715 23:54:02.425499 14837 net.cpp:406] data-R_crop_0_split <- data-R
I0715 23:54:02.425513 14837 net.cpp:380] data-R_crop_0_split -> data-R_crop_0_split_0
I0715 23:54:02.425524 14837 net.cpp:380] data-R_crop_0_split -> data-R_crop_0_split_1
I0715 23:54:02.425585 14837 net.cpp:122] Setting up data-R_crop_0_split
I0715 23:54:02.425593 14837 net.cpp:129] Top shape: 1 3 512 195 (299520)
I0715 23:54:02.425598 14837 net.cpp:129] Top shape: 1 3 512 195 (299520)
I0715 23:54:02.425603 14837 net.cpp:137] Memory required for data: 694175172
I0715 23:54:02.425618 14837 layer_factory.hpp:77] Creating layer conv1_1-R
I0715 23:54:02.425678 14837 net.cpp:84] Creating Layer conv1_1-R
I0715 23:54:02.425691 14837 net.cpp:406] conv1_1-R <- data-R_crop_0_split_0
I0715 23:54:02.425701 14837 net.cpp:380] conv1_1-R -> conv1_1-R
I0715 23:54:02.429680 14837 net.cpp:122] Setting up conv1_1-R
I0715 23:54:02.429695 14837 net.cpp:129] Top shape: 1 64 710 393 (17857920)
I0715 23:54:02.429715 14837 net.cpp:137] Memory required for data: 765606852
I0715 23:54:02.429724 14837 layer_factory.hpp:77] Creating layer relu1_1-R
I0715 23:54:02.429740 14837 net.cpp:84] Creating Layer relu1_1-R
I0715 23:54:02.429745 14837 net.cpp:406] relu1_1-R <- conv1_1-R
I0715 23:54:02.429750 14837 net.cpp:367] relu1_1-R -> conv1_1-R (in-place)
I0715 23:54:02.429945 14837 net.cpp:122] Setting up relu1_1-R
I0715 23:54:02.429956 14837 net.cpp:129] Top shape: 1 64 710 393 (17857920)
I0715 23:54:02.429960 14837 net.cpp:137] Memory required for data: 837038532
I0715 23:54:02.429965 14837 layer_factory.hpp:77] Creating layer conv1_2-R
I0715 23:54:02.429972 14837 net.cpp:84] Creating Layer conv1_2-R
I0715 23:54:02.429976 14837 net.cpp:406] conv1_2-R <- conv1_1-R
I0715 23:54:02.429982 14837 net.cpp:380] conv1_2-R -> conv1_2-R
I0715 23:54:02.434461 14837 net.cpp:122] Setting up conv1_2-R
I0715 23:54:02.434525 14837 net.cpp:129] Top shape: 1 64 710 393 (17857920)
I0715 23:54:02.434535 14837 net.cpp:137] Memory required for data: 908470212
I0715 23:54:02.434556 14837 layer_factory.hpp:77] Creating layer relu1_2-R
I0715 23:54:02.434586 14837 net.cpp:84] Creating Layer relu1_2-R
I0715 23:54:02.434595 14837 net.cpp:406] relu1_2-R <- conv1_2-R
I0715 23:54:02.434608 14837 net.cpp:367] relu1_2-R -> conv1_2-R (in-place)
I0715 23:54:02.436204 14837 net.cpp:122] Setting up relu1_2-R
I0715 23:54:02.436239 14837 net.cpp:129] Top shape: 1 64 710 393 (17857920)
I0715 23:54:02.436246 14837 net.cpp:137] Memory required for data: 979901892
I0715 23:54:02.436254 14837 layer_factory.hpp:77] Creating layer pool1-R
I0715 23:54:02.436275 14837 net.cpp:84] Creating Layer pool1-R
I0715 23:54:02.436285 14837 net.cpp:406] pool1-R <- conv1_2-R
I0715 23:54:02.436306 14837 net.cpp:380] pool1-R -> pool1-R
I0715 23:54:02.436437 14837 net.cpp:122] Setting up pool1-R
I0715 23:54:02.436465 14837 net.cpp:129] Top shape: 1 64 355 197 (4475840)
I0715 23:54:02.436472 14837 net.cpp:137] Memory required for data: 997805252
I0715 23:54:02.436480 14837 layer_factory.hpp:77] Creating layer conv2_1-R
I0715 23:54:02.436501 14837 net.cpp:84] Creating Layer conv2_1-R
I0715 23:54:02.436511 14837 net.cpp:406] conv2_1-R <- pool1-R
I0715 23:54:02.436523 14837 net.cpp:380] conv2_1-R -> conv2_1-R
I0715 23:54:02.439388 14837 net.cpp:122] Setting up conv2_1-R
I0715 23:54:02.439421 14837 net.cpp:129] Top shape: 1 128 355 197 (8951680)
I0715 23:54:02.439430 14837 net.cpp:137] Memory required for data: 1033611972
I0715 23:54:02.439445 14837 layer_factory.hpp:77] Creating layer relu2_1-R
I0715 23:54:02.439460 14837 net.cpp:84] Creating Layer relu2_1-R
I0715 23:54:02.439468 14837 net.cpp:406] relu2_1-R <- conv2_1-R
I0715 23:54:02.439491 14837 net.cpp:367] relu2_1-R -> conv2_1-R (in-place)
I0715 23:54:02.440502 14837 net.cpp:122] Setting up relu2_1-R
I0715 23:54:02.440521 14837 net.cpp:129] Top shape: 1 128 355 197 (8951680)
I0715 23:54:02.440536 14837 net.cpp:137] Memory required for data: 1069418692
I0715 23:54:02.440541 14837 layer_factory.hpp:77] Creating layer conv2_2-R
I0715 23:54:02.440559 14837 net.cpp:84] Creating Layer conv2_2-R
I0715 23:54:02.440567 14837 net.cpp:406] conv2_2-R <- conv2_1-R
I0715 23:54:02.440577 14837 net.cpp:380] conv2_2-R -> conv2_2-R
I0715 23:54:02.443594 14837 net.cpp:122] Setting up conv2_2-R
I0715 23:54:02.443616 14837 net.cpp:129] Top shape: 1 128 355 197 (8951680)
I0715 23:54:02.443629 14837 net.cpp:137] Memory required for data: 1105225412
I0715 23:54:02.443640 14837 layer_factory.hpp:77] Creating layer relu2_2-R
I0715 23:54:02.443651 14837 net.cpp:84] Creating Layer relu2_2-R
I0715 23:54:02.443665 14837 net.cpp:406] relu2_2-R <- conv2_2-R
I0715 23:54:02.443673 14837 net.cpp:367] relu2_2-R -> conv2_2-R (in-place)
I0715 23:54:02.443994 14837 net.cpp:122] Setting up relu2_2-R
I0715 23:54:02.444008 14837 net.cpp:129] Top shape: 1 128 355 197 (8951680)
I0715 23:54:02.444015 14837 net.cpp:137] Memory required for data: 1141032132
I0715 23:54:02.444025 14837 layer_factory.hpp:77] Creating layer pool2-R
I0715 23:54:02.444037 14837 net.cpp:84] Creating Layer pool2-R
I0715 23:54:02.444044 14837 net.cpp:406] pool2-R <- conv2_2-R
I0715 23:54:02.444053 14837 net.cpp:380] pool2-R -> pool2-R
I0715 23:54:02.444125 14837 net.cpp:122] Setting up pool2-R
I0715 23:54:02.444136 14837 net.cpp:129] Top shape: 1 128 178 99 (2255616)
I0715 23:54:02.444141 14837 net.cpp:137] Memory required for data: 1150054596
I0715 23:54:02.444147 14837 layer_factory.hpp:77] Creating layer conv3_1-R
I0715 23:54:02.444159 14837 net.cpp:84] Creating Layer conv3_1-R
I0715 23:54:02.444165 14837 net.cpp:406] conv3_1-R <- pool2-R
I0715 23:54:02.444175 14837 net.cpp:380] conv3_1-R -> conv3_1-R
I0715 23:54:02.449223 14837 net.cpp:122] Setting up conv3_1-R
I0715 23:54:02.449254 14837 net.cpp:129] Top shape: 1 256 178 99 (4511232)
I0715 23:54:02.449260 14837 net.cpp:137] Memory required for data: 1168099524
I0715 23:54:02.449272 14837 layer_factory.hpp:77] Creating layer relu3_1-R
I0715 23:54:02.449286 14837 net.cpp:84] Creating Layer relu3_1-R
I0715 23:54:02.449295 14837 net.cpp:406] relu3_1-R <- conv3_1-R
I0715 23:54:02.449303 14837 net.cpp:367] relu3_1-R -> conv3_1-R (in-place)
I0715 23:54:02.449620 14837 net.cpp:122] Setting up relu3_1-R
I0715 23:54:02.449635 14837 net.cpp:129] Top shape: 1 256 178 99 (4511232)
I0715 23:54:02.449641 14837 net.cpp:137] Memory required for data: 1186144452
I0715 23:54:02.449647 14837 layer_factory.hpp:77] Creating layer conv3_2-R
I0715 23:54:02.449661 14837 net.cpp:84] Creating Layer conv3_2-R
I0715 23:54:02.449666 14837 net.cpp:406] conv3_2-R <- conv3_1-R
I0715 23:54:02.449677 14837 net.cpp:380] conv3_2-R -> conv3_2-R
I0715 23:54:02.454772 14837 net.cpp:122] Setting up conv3_2-R
I0715 23:54:02.454794 14837 net.cpp:129] Top shape: 1 256 178 99 (4511232)
I0715 23:54:02.454810 14837 net.cpp:137] Memory required for data: 1204189380
I0715 23:54:02.454823 14837 layer_factory.hpp:77] Creating layer relu3_2-R
I0715 23:54:02.454833 14837 net.cpp:84] Creating Layer relu3_2-R
I0715 23:54:02.454838 14837 net.cpp:406] relu3_2-R <- conv3_2-R
I0715 23:54:02.454845 14837 net.cpp:367] relu3_2-R -> conv3_2-R (in-place)
I0715 23:54:02.455091 14837 net.cpp:122] Setting up relu3_2-R
I0715 23:54:02.455114 14837 net.cpp:129] Top shape: 1 256 178 99 (4511232)
I0715 23:54:02.455119 14837 net.cpp:137] Memory required for data: 1222234308
I0715 23:54:02.455123 14837 layer_factory.hpp:77] Creating layer conv3_3-R
I0715 23:54:02.455135 14837 net.cpp:84] Creating Layer conv3_3-R
I0715 23:54:02.455145 14837 net.cpp:406] conv3_3-R <- conv3_2-R
I0715 23:54:02.455154 14837 net.cpp:380] conv3_3-R -> conv3_3-R
I0715 23:54:02.460108 14837 net.cpp:122] Setting up conv3_3-R
I0715 23:54:02.460151 14837 net.cpp:129] Top shape: 1 256 178 99 (4511232)
I0715 23:54:02.460160 14837 net.cpp:137] Memory required for data: 1240279236
I0715 23:54:02.460175 14837 layer_factory.hpp:77] Creating layer relu3_3-R
I0715 23:54:02.460189 14837 net.cpp:84] Creating Layer relu3_3-R
I0715 23:54:02.460199 14837 net.cpp:406] relu3_3-R <- conv3_3-R
I0715 23:54:02.460211 14837 net.cpp:367] relu3_3-R -> conv3_3-R (in-place)
I0715 23:54:02.460618 14837 net.cpp:122] Setting up relu3_3-R
I0715 23:54:02.460638 14837 net.cpp:129] Top shape: 1 256 178 99 (4511232)
I0715 23:54:02.460649 14837 net.cpp:137] Memory required for data: 1258324164
I0715 23:54:02.460657 14837 layer_factory.hpp:77] Creating layer pool3-R
I0715 23:54:02.460690 14837 net.cpp:84] Creating Layer pool3-R
I0715 23:54:02.460698 14837 net.cpp:406] pool3-R <- conv3_3-R
I0715 23:54:02.460711 14837 net.cpp:380] pool3-R -> pool3-R
I0715 23:54:02.460813 14837 net.cpp:122] Setting up pool3-R
I0715 23:54:02.460829 14837 net.cpp:129] Top shape: 1 256 89 50 (1139200)
I0715 23:54:02.460835 14837 net.cpp:137] Memory required for data: 1262880964
I0715 23:54:02.460842 14837 layer_factory.hpp:77] Creating layer pool3-R_pool3-R_0_split
I0715 23:54:02.460862 14837 net.cpp:84] Creating Layer pool3-R_pool3-R_0_split
I0715 23:54:02.460870 14837 net.cpp:406] pool3-R_pool3-R_0_split <- pool3-R
I0715 23:54:02.460885 14837 net.cpp:380] pool3-R_pool3-R_0_split -> pool3-R_pool3-R_0_split_0
I0715 23:54:02.460896 14837 net.cpp:380] pool3-R_pool3-R_0_split -> pool3-R_pool3-R_0_split_1
I0715 23:54:02.460969 14837 net.cpp:122] Setting up pool3-R_pool3-R_0_split
I0715 23:54:02.460983 14837 net.cpp:129] Top shape: 1 256 89 50 (1139200)
I0715 23:54:02.460992 14837 net.cpp:129] Top shape: 1 256 89 50 (1139200)
I0715 23:54:02.460999 14837 net.cpp:137] Memory required for data: 1271994564
I0715 23:54:02.461006 14837 layer_factory.hpp:77] Creating layer conv4_1-R
I0715 23:54:02.461021 14837 net.cpp:84] Creating Layer conv4_1-R
I0715 23:54:02.461028 14837 net.cpp:406] conv4_1-R <- pool3-R_pool3-R_0_split_0
I0715 23:54:02.461040 14837 net.cpp:380] conv4_1-R -> conv4_1-R
I0715 23:54:02.467227 14837 net.cpp:122] Setting up conv4_1-R
I0715 23:54:02.467257 14837 net.cpp:129] Top shape: 1 512 89 50 (2278400)
I0715 23:54:02.467262 14837 net.cpp:137] Memory required for data: 1281108164
I0715 23:54:02.467269 14837 layer_factory.hpp:77] Creating layer relu4_1-R
I0715 23:54:02.467283 14837 net.cpp:84] Creating Layer relu4_1-R
I0715 23:54:02.467311 14837 net.cpp:406] relu4_1-R <- conv4_1-R
I0715 23:54:02.467316 14837 net.cpp:367] relu4_1-R -> conv4_1-R (in-place)
I0715 23:54:02.468017 14837 net.cpp:122] Setting up relu4_1-R
I0715 23:54:02.468031 14837 net.cpp:129] Top shape: 1 512 89 50 (2278400)
I0715 23:54:02.468050 14837 net.cpp:137] Memory required for data: 1290221764
I0715 23:54:02.468055 14837 layer_factory.hpp:77] Creating layer conv4_2-R
I0715 23:54:02.468063 14837 net.cpp:84] Creating Layer conv4_2-R
I0715 23:54:02.468066 14837 net.cpp:406] conv4_2-R <- conv4_1-R
I0715 23:54:02.468073 14837 net.cpp:380] conv4_2-R -> conv4_2-R
I0715 23:54:02.475486 14837 net.cpp:122] Setting up conv4_2-R
I0715 23:54:02.475522 14837 net.cpp:129] Top shape: 1 512 89 50 (2278400)
I0715 23:54:02.475527 14837 net.cpp:137] Memory required for data: 1299335364
I0715 23:54:02.475534 14837 layer_factory.hpp:77] Creating layer relu4_2-R
I0715 23:54:02.475591 14837 net.cpp:84] Creating Layer relu4_2-R
I0715 23:54:02.475597 14837 net.cpp:406] relu4_2-R <- conv4_2-R
I0715 23:54:02.475603 14837 net.cpp:367] relu4_2-R -> conv4_2-R (in-place)
I0715 23:54:02.479235 14837 net.cpp:122] Setting up relu4_2-R
I0715 23:54:02.479250 14837 net.cpp:129] Top shape: 1 512 89 50 (2278400)
I0715 23:54:02.479270 14837 net.cpp:137] Memory required for data: 1308448964
I0715 23:54:02.479274 14837 layer_factory.hpp:77] Creating layer conv4_3-R
I0715 23:54:02.479320 14837 net.cpp:84] Creating Layer conv4_3-R
I0715 23:54:02.479324 14837 net.cpp:406] conv4_3-R <- conv4_2-R
I0715 23:54:02.479332 14837 net.cpp:380] conv4_3-R -> conv4_3-R
I0715 23:54:02.487054 14837 net.cpp:122] Setting up conv4_3-R
I0715 23:54:02.487087 14837 net.cpp:129] Top shape: 1 512 89 50 (2278400)
I0715 23:54:02.487092 14837 net.cpp:137] Memory required for data: 1317562564
I0715 23:54:02.487099 14837 layer_factory.hpp:77] Creating layer relu4_3-R
I0715 23:54:02.487107 14837 net.cpp:84] Creating Layer relu4_3-R
I0715 23:54:02.487110 14837 net.cpp:406] relu4_3-R <- conv4_3-R
I0715 23:54:02.487115 14837 net.cpp:367] relu4_3-R -> conv4_3-R (in-place)
I0715 23:54:02.487354 14837 net.cpp:122] Setting up relu4_3-R
I0715 23:54:02.487365 14837 net.cpp:129] Top shape: 1 512 89 50 (2278400)
I0715 23:54:02.487367 14837 net.cpp:137] Memory required for data: 1326676164
I0715 23:54:02.487371 14837 layer_factory.hpp:77] Creating layer pool4-R
I0715 23:54:02.487396 14837 net.cpp:84] Creating Layer pool4-R
I0715 23:54:02.487401 14837 net.cpp:406] pool4-R <- conv4_3-R
I0715 23:54:02.487407 14837 net.cpp:380] pool4-R -> pool4-R
I0715 23:54:02.487463 14837 net.cpp:122] Setting up pool4-R
I0715 23:54:02.487473 14837 net.cpp:129] Top shape: 1 512 45 25 (576000)
I0715 23:54:02.487475 14837 net.cpp:137] Memory required for data: 1328980164
I0715 23:54:02.487478 14837 layer_factory.hpp:77] Creating layer pool4-R_pool4-R_0_split
I0715 23:54:02.487495 14837 net.cpp:84] Creating Layer pool4-R_pool4-R_0_split
I0715 23:54:02.487499 14837 net.cpp:406] pool4-R_pool4-R_0_split <- pool4-R
I0715 23:54:02.487505 14837 net.cpp:380] pool4-R_pool4-R_0_split -> pool4-R_pool4-R_0_split_0
I0715 23:54:02.487512 14837 net.cpp:380] pool4-R_pool4-R_0_split -> pool4-R_pool4-R_0_split_1
I0715 23:54:02.487555 14837 net.cpp:122] Setting up pool4-R_pool4-R_0_split
I0715 23:54:02.487570 14837 net.cpp:129] Top shape: 1 512 45 25 (576000)
I0715 23:54:02.487573 14837 net.cpp:129] Top shape: 1 512 45 25 (576000)
I0715 23:54:02.487576 14837 net.cpp:137] Memory required for data: 1333588164
I0715 23:54:02.487581 14837 layer_factory.hpp:77] Creating layer conv5_1-R
I0715 23:54:02.487589 14837 net.cpp:84] Creating Layer conv5_1-R
I0715 23:54:02.487593 14837 net.cpp:406] conv5_1-R <- pool4-R_pool4-R_0_split_0
I0715 23:54:02.487601 14837 net.cpp:380] conv5_1-R -> conv5_1-R
I0715 23:54:02.500267 14837 net.cpp:122] Setting up conv5_1-R
I0715 23:54:02.500293 14837 net.cpp:129] Top shape: 1 512 45 25 (576000)
I0715 23:54:02.500299 14837 net.cpp:137] Memory required for data: 1335892164
I0715 23:54:02.500330 14837 layer_factory.hpp:77] Creating layer relu5_1-R
I0715 23:54:02.500342 14837 net.cpp:84] Creating Layer relu5_1-R
I0715 23:54:02.500349 14837 net.cpp:406] relu5_1-R <- conv5_1-R
I0715 23:54:02.500358 14837 net.cpp:367] relu5_1-R -> conv5_1-R (in-place)
I0715 23:54:02.500636 14837 net.cpp:122] Setting up relu5_1-R
I0715 23:54:02.500650 14837 net.cpp:129] Top shape: 1 512 45 25 (576000)
I0715 23:54:02.500655 14837 net.cpp:137] Memory required for data: 1338196164
I0715 23:54:02.500660 14837 layer_factory.hpp:77] Creating layer conv5_2-R
I0715 23:54:02.500674 14837 net.cpp:84] Creating Layer conv5_2-R
I0715 23:54:02.500679 14837 net.cpp:406] conv5_2-R <- conv5_1-R
I0715 23:54:02.500689 14837 net.cpp:380] conv5_2-R -> conv5_2-R
I0715 23:54:02.511404 14837 net.cpp:122] Setting up conv5_2-R
I0715 23:54:02.511443 14837 net.cpp:129] Top shape: 1 512 45 25 (576000)
I0715 23:54:02.511448 14837 net.cpp:137] Memory required for data: 1340500164
I0715 23:54:02.511457 14837 layer_factory.hpp:77] Creating layer relu5_2-R
I0715 23:54:02.511482 14837 net.cpp:84] Creating Layer relu5_2-R
I0715 23:54:02.511487 14837 net.cpp:406] relu5_2-R <- conv5_2-R
I0715 23:54:02.511504 14837 net.cpp:367] relu5_2-R -> conv5_2-R (in-place)
I0715 23:54:02.511749 14837 net.cpp:122] Setting up relu5_2-R
I0715 23:54:02.511759 14837 net.cpp:129] Top shape: 1 512 45 25 (576000)
I0715 23:54:02.511762 14837 net.cpp:137] Memory required for data: 1342804164
I0715 23:54:02.511766 14837 layer_factory.hpp:77] Creating layer conv5_3-R
I0715 23:54:02.511777 14837 net.cpp:84] Creating Layer conv5_3-R
I0715 23:54:02.511782 14837 net.cpp:406] conv5_3-R <- conv5_2-R
I0715 23:54:02.511790 14837 net.cpp:380] conv5_3-R -> conv5_3-R
I0715 23:54:02.528537 14837 net.cpp:122] Setting up conv5_3-R
I0715 23:54:02.528596 14837 net.cpp:129] Top shape: 1 512 45 25 (576000)
I0715 23:54:02.528605 14837 net.cpp:137] Memory required for data: 1345108164
I0715 23:54:02.528625 14837 layer_factory.hpp:77] Creating layer relu5_3-R
I0715 23:54:02.528645 14837 net.cpp:84] Creating Layer relu5_3-R
I0715 23:54:02.528656 14837 net.cpp:406] relu5_3-R <- conv5_3-R
I0715 23:54:02.528676 14837 net.cpp:367] relu5_3-R -> conv5_3-R (in-place)
I0715 23:54:02.529117 14837 net.cpp:122] Setting up relu5_3-R
I0715 23:54:02.529136 14837 net.cpp:129] Top shape: 1 512 45 25 (576000)
I0715 23:54:02.529151 14837 net.cpp:137] Memory required for data: 1347412164
I0715 23:54:02.529158 14837 layer_factory.hpp:77] Creating layer pool5-R
I0715 23:54:02.529209 14837 net.cpp:84] Creating Layer pool5-R
I0715 23:54:02.529218 14837 net.cpp:406] pool5-R <- conv5_3-R
I0715 23:54:02.529232 14837 net.cpp:380] pool5-R -> pool5-R
I0715 23:54:02.529345 14837 net.cpp:122] Setting up pool5-R
I0715 23:54:02.529359 14837 net.cpp:129] Top shape: 1 512 23 13 (153088)
I0715 23:54:02.529366 14837 net.cpp:137] Memory required for data: 1348024516
I0715 23:54:02.529386 14837 layer_factory.hpp:77] Creating layer fc6-R
I0715 23:54:02.529408 14837 net.cpp:84] Creating Layer fc6-R
I0715 23:54:02.529430 14837 net.cpp:406] fc6-R <- pool5-R
I0715 23:54:02.529443 14837 net.cpp:380] fc6-R -> fc6-R
I0715 23:54:02.877121 14837 net.cpp:122] Setting up fc6-R
I0715 23:54:02.877173 14837 net.cpp:129] Top shape: 1 4096 17 7 (487424)
I0715 23:54:02.877178 14837 net.cpp:137] Memory required for data: 1349974212
I0715 23:54:02.877192 14837 layer_factory.hpp:77] Creating layer relu6-R
I0715 23:54:02.877205 14837 net.cpp:84] Creating Layer relu6-R
I0715 23:54:02.877212 14837 net.cpp:406] relu6-R <- fc6-R
I0715 23:54:02.877223 14837 net.cpp:367] relu6-R -> fc6-R (in-place)
I0715 23:54:02.878090 14837 net.cpp:122] Setting up relu6-R
I0715 23:54:02.878106 14837 net.cpp:129] Top shape: 1 4096 17 7 (487424)
I0715 23:54:02.878121 14837 net.cpp:137] Memory required for data: 1351923908
I0715 23:54:02.878126 14837 layer_factory.hpp:77] Creating layer drop6-R
I0715 23:54:02.878137 14837 net.cpp:84] Creating Layer drop6-R
I0715 23:54:02.878142 14837 net.cpp:406] drop6-R <- fc6-R
I0715 23:54:02.878149 14837 net.cpp:367] drop6-R -> fc6-R (in-place)
I0715 23:54:02.878233 14837 net.cpp:122] Setting up drop6-R
I0715 23:54:02.878243 14837 net.cpp:129] Top shape: 1 4096 17 7 (487424)
I0715 23:54:02.878247 14837 net.cpp:137] Memory required for data: 1353873604
I0715 23:54:02.878252 14837 layer_factory.hpp:77] Creating layer fc7-R
I0715 23:54:02.878264 14837 net.cpp:84] Creating Layer fc7-R
I0715 23:54:02.878273 14837 net.cpp:406] fc7-R <- fc6-R
I0715 23:54:02.878294 14837 net.cpp:380] fc7-R -> fc7-R
I0715 23:54:02.922987 14837 net.cpp:122] Setting up fc7-R
I0715 23:54:02.923038 14837 net.cpp:129] Top shape: 1 4096 17 7 (487424)
I0715 23:54:02.923041 14837 net.cpp:137] Memory required for data: 1355823300
I0715 23:54:02.923056 14837 layer_factory.hpp:77] Creating layer relu7-R
I0715 23:54:02.923068 14837 net.cpp:84] Creating Layer relu7-R
I0715 23:54:02.923089 14837 net.cpp:406] relu7-R <- fc7-R
I0715 23:54:02.923099 14837 net.cpp:367] relu7-R -> fc7-R (in-place)
I0715 23:54:02.923820 14837 net.cpp:122] Setting up relu7-R
I0715 23:54:02.923835 14837 net.cpp:129] Top shape: 1 4096 17 7 (487424)
I0715 23:54:02.923838 14837 net.cpp:137] Memory required for data: 1357772996
I0715 23:54:02.923842 14837 layer_factory.hpp:77] Creating layer drop7-R
I0715 23:54:02.923851 14837 net.cpp:84] Creating Layer drop7-R
I0715 23:54:02.923854 14837 net.cpp:406] drop7-R <- fc7-R
I0715 23:54:02.923877 14837 net.cpp:367] drop7-R -> fc7-R (in-place)
I0715 23:54:02.923913 14837 net.cpp:122] Setting up drop7-R
I0715 23:54:02.923918 14837 net.cpp:129] Top shape: 1 4096 17 7 (487424)
I0715 23:54:02.923921 14837 net.cpp:137] Memory required for data: 1359722692
I0715 23:54:02.923924 14837 layer_factory.hpp:77] Creating layer score_fr-new-R
I0715 23:54:02.923935 14837 net.cpp:84] Creating Layer score_fr-new-R
I0715 23:54:02.923938 14837 net.cpp:406] score_fr-new-R <- fc7-R
I0715 23:54:02.923949 14837 net.cpp:380] score_fr-new-R -> score_fr-new-R
I0715 23:54:02.925422 14837 net.cpp:122] Setting up score_fr-new-R
I0715 23:54:02.925436 14837 net.cpp:129] Top shape: 1 3 17 7 (357)
I0715 23:54:02.925456 14837 net.cpp:137] Memory required for data: 1359724120
I0715 23:54:02.925462 14837 layer_factory.hpp:77] Creating layer upscore2-new-R
I0715 23:54:02.925472 14837 net.cpp:84] Creating Layer upscore2-new-R
I0715 23:54:02.925477 14837 net.cpp:406] upscore2-new-R <- score_fr-new-R
I0715 23:54:02.925498 14837 net.cpp:380] upscore2-new-R -> upscore2-new-R
I0715 23:54:02.925737 14837 net.cpp:122] Setting up upscore2-new-R
I0715 23:54:02.925746 14837 net.cpp:129] Top shape: 1 3 36 16 (1728)
I0715 23:54:02.925750 14837 net.cpp:137] Memory required for data: 1359731032
I0715 23:54:02.925755 14837 layer_factory.hpp:77] Creating layer upscore2-new-R_upscore2-new-R_0_split
I0715 23:54:02.925760 14837 net.cpp:84] Creating Layer upscore2-new-R_upscore2-new-R_0_split
I0715 23:54:02.925765 14837 net.cpp:406] upscore2-new-R_upscore2-new-R_0_split <- upscore2-new-R
I0715 23:54:02.925770 14837 net.cpp:380] upscore2-new-R_upscore2-new-R_0_split -> upscore2-new-R_upscore2-new-R_0_split_0
I0715 23:54:02.925776 14837 net.cpp:380] upscore2-new-R_upscore2-new-R_0_split -> upscore2-new-R_upscore2-new-R_0_split_1
I0715 23:54:02.925817 14837 net.cpp:122] Setting up upscore2-new-R_upscore2-new-R_0_split
I0715 23:54:02.925823 14837 net.cpp:129] Top shape: 1 3 36 16 (1728)
I0715 23:54:02.925827 14837 net.cpp:129] Top shape: 1 3 36 16 (1728)
I0715 23:54:02.925830 14837 net.cpp:137] Memory required for data: 1359744856
I0715 23:54:02.925833 14837 layer_factory.hpp:77] Creating layer score_pool4-new-R
I0715 23:54:02.925845 14837 net.cpp:84] Creating Layer score_pool4-new-R
I0715 23:54:02.925850 14837 net.cpp:406] score_pool4-new-R <- pool4-R_pool4-R_0_split_1
I0715 23:54:02.925858 14837 net.cpp:380] score_pool4-new-R -> score_pool4-new-R
I0715 23:54:02.927206 14837 net.cpp:122] Setting up score_pool4-new-R
I0715 23:54:02.927218 14837 net.cpp:129] Top shape: 1 3 45 25 (3375)
I0715 23:54:02.927237 14837 net.cpp:137] Memory required for data: 1359758356
I0715 23:54:02.927244 14837 layer_factory.hpp:77] Creating layer score_pool4c-R
I0715 23:54:02.927253 14837 net.cpp:84] Creating Layer score_pool4c-R
I0715 23:54:02.927258 14837 net.cpp:406] score_pool4c-R <- score_pool4-new-R
I0715 23:54:02.927284 14837 net.cpp:406] score_pool4c-R <- upscore2-new-R_upscore2-new-R_0_split_0
I0715 23:54:02.927290 14837 net.cpp:380] score_pool4c-R -> score_pool4c-R
I0715 23:54:02.927346 14837 net.cpp:122] Setting up score_pool4c-R
I0715 23:54:02.927354 14837 net.cpp:129] Top shape: 1 3 36 16 (1728)
I0715 23:54:02.927357 14837 net.cpp:137] Memory required for data: 1359765268
I0715 23:54:02.927361 14837 layer_factory.hpp:77] Creating layer fuse_pool4-R
I0715 23:54:02.927369 14837 net.cpp:84] Creating Layer fuse_pool4-R
I0715 23:54:02.927373 14837 net.cpp:406] fuse_pool4-R <- upscore2-new-R_upscore2-new-R_0_split_1
I0715 23:54:02.927378 14837 net.cpp:406] fuse_pool4-R <- score_pool4c-R
I0715 23:54:02.927382 14837 net.cpp:380] fuse_pool4-R -> fuse_pool4-R
I0715 23:54:02.927412 14837 net.cpp:122] Setting up fuse_pool4-R
I0715 23:54:02.927419 14837 net.cpp:129] Top shape: 1 3 36 16 (1728)
I0715 23:54:02.927423 14837 net.cpp:137] Memory required for data: 1359772180
I0715 23:54:02.927425 14837 layer_factory.hpp:77] Creating layer upscore_pool4-new-R
I0715 23:54:02.927436 14837 net.cpp:84] Creating Layer upscore_pool4-new-R
I0715 23:54:02.927440 14837 net.cpp:406] upscore_pool4-new-R <- fuse_pool4-R
I0715 23:54:02.927445 14837 net.cpp:380] upscore_pool4-new-R -> upscore_pool4-new-R
I0715 23:54:02.927697 14837 net.cpp:122] Setting up upscore_pool4-new-R
I0715 23:54:02.927706 14837 net.cpp:129] Top shape: 1 3 74 34 (7548)
I0715 23:54:02.927711 14837 net.cpp:137] Memory required for data: 1359802372
I0715 23:54:02.927714 14837 layer_factory.hpp:77] Creating layer upscore_pool4-new-R_upscore_pool4-new-R_0_split
I0715 23:54:02.927721 14837 net.cpp:84] Creating Layer upscore_pool4-new-R_upscore_pool4-new-R_0_split
I0715 23:54:02.927723 14837 net.cpp:406] upscore_pool4-new-R_upscore_pool4-new-R_0_split <- upscore_pool4-new-R
I0715 23:54:02.927728 14837 net.cpp:380] upscore_pool4-new-R_upscore_pool4-new-R_0_split -> upscore_pool4-new-R_upscore_pool4-new-R_0_split_0
I0715 23:54:02.927734 14837 net.cpp:380] upscore_pool4-new-R_upscore_pool4-new-R_0_split -> upscore_pool4-new-R_upscore_pool4-new-R_0_split_1
I0715 23:54:02.927773 14837 net.cpp:122] Setting up upscore_pool4-new-R_upscore_pool4-new-R_0_split
I0715 23:54:02.927778 14837 net.cpp:129] Top shape: 1 3 74 34 (7548)
I0715 23:54:02.927783 14837 net.cpp:129] Top shape: 1 3 74 34 (7548)
I0715 23:54:02.927785 14837 net.cpp:137] Memory required for data: 1359862756
I0715 23:54:02.927788 14837 layer_factory.hpp:77] Creating layer score_pool3-new-R
I0715 23:54:02.927798 14837 net.cpp:84] Creating Layer score_pool3-new-R
I0715 23:54:02.927801 14837 net.cpp:406] score_pool3-new-R <- pool3-R_pool3-R_0_split_1
I0715 23:54:02.927809 14837 net.cpp:380] score_pool3-new-R -> score_pool3-new-R
I0715 23:54:02.928701 14837 net.cpp:122] Setting up score_pool3-new-R
I0715 23:54:02.928712 14837 net.cpp:129] Top shape: 1 3 89 50 (13350)
I0715 23:54:02.928715 14837 net.cpp:137] Memory required for data: 1359916156
I0715 23:54:02.928740 14837 layer_factory.hpp:77] Creating layer score_pool3c-R
I0715 23:54:02.928746 14837 net.cpp:84] Creating Layer score_pool3c-R
I0715 23:54:02.928750 14837 net.cpp:406] score_pool3c-R <- score_pool3-new-R
I0715 23:54:02.928755 14837 net.cpp:406] score_pool3c-R <- upscore_pool4-new-R_upscore_pool4-new-R_0_split_0
I0715 23:54:02.928778 14837 net.cpp:380] score_pool3c-R -> score_pool3c-R
I0715 23:54:02.928807 14837 net.cpp:122] Setting up score_pool3c-R
I0715 23:54:02.928817 14837 net.cpp:129] Top shape: 1 3 74 34 (7548)
I0715 23:54:02.928819 14837 net.cpp:137] Memory required for data: 1359946348
I0715 23:54:02.928822 14837 layer_factory.hpp:77] Creating layer fuse_pool3-R
I0715 23:54:02.928828 14837 net.cpp:84] Creating Layer fuse_pool3-R
I0715 23:54:02.928831 14837 net.cpp:406] fuse_pool3-R <- upscore_pool4-new-R_upscore_pool4-new-R_0_split_1
I0715 23:54:02.928835 14837 net.cpp:406] fuse_pool3-R <- score_pool3c-R
I0715 23:54:02.928840 14837 net.cpp:380] fuse_pool3-R -> fuse_pool3-R
I0715 23:54:02.928866 14837 net.cpp:122] Setting up fuse_pool3-R
I0715 23:54:02.928872 14837 net.cpp:129] Top shape: 1 3 74 34 (7548)
I0715 23:54:02.928875 14837 net.cpp:137] Memory required for data: 1359976540
I0715 23:54:02.928879 14837 layer_factory.hpp:77] Creating layer upscore8-new-R
I0715 23:54:02.928886 14837 net.cpp:84] Creating Layer upscore8-new-R
I0715 23:54:02.928890 14837 net.cpp:406] upscore8-new-R <- fuse_pool3-R
I0715 23:54:02.928895 14837 net.cpp:380] upscore8-new-R -> upscore8-new-R
I0715 23:54:02.929133 14837 net.cpp:122] Setting up upscore8-new-R
I0715 23:54:02.929142 14837 net.cpp:129] Top shape: 1 3 600 280 (504000)
I0715 23:54:02.929145 14837 net.cpp:137] Memory required for data: 1361992540
I0715 23:54:02.929149 14837 layer_factory.hpp:77] Creating layer upscore8_cropped-R
I0715 23:54:02.929158 14837 net.cpp:84] Creating Layer upscore8_cropped-R
I0715 23:54:02.929162 14837 net.cpp:406] upscore8_cropped-R <- upscore8-new-R
I0715 23:54:02.929168 14837 net.cpp:406] upscore8_cropped-R <- data-R_crop_0_split_1
I0715 23:54:02.929172 14837 net.cpp:380] upscore8_cropped-R -> upscore8_cropped-R
I0715 23:54:02.929198 14837 net.cpp:122] Setting up upscore8_cropped-R
I0715 23:54:02.929203 14837 net.cpp:129] Top shape: 1 3 512 195 (299520)
I0715 23:54:02.929205 14837 net.cpp:137] Memory required for data: 1363190620
I0715 23:54:02.929208 14837 layer_factory.hpp:77] Creating layer upscore8_uncropped-R
I0715 23:54:02.929577 14837 net.cpp:84] Creating Layer upscore8_uncropped-R
I0715 23:54:02.929589 14837 net.cpp:406] upscore8_uncropped-R <- crop_info
I0715 23:54:02.929610 14837 net.cpp:406] upscore8_uncropped-R <- upscore8_cropped-R
I0715 23:54:02.929615 14837 net.cpp:406] upscore8_uncropped-R <- data_data_0_split_3
I0715 23:54:02.929620 14837 net.cpp:380] upscore8_uncropped-R -> upscore8_uncropped-R
I0715 23:54:02.932083 14837 net.cpp:122] Setting up upscore8_uncropped-R
I0715 23:54:02.932101 14837 net.cpp:129] Top shape: 1 3 512 195 (299520)
I0715 23:54:02.932119 14837 net.cpp:137] Memory required for data: 1364388700
I0715 23:54:02.932123 14837 layer_factory.hpp:77] Creating layer loss1
I0715 23:54:02.932138 14837 net.cpp:84] Creating Layer loss1
I0715 23:54:02.932158 14837 net.cpp:406] loss1 <- upscore8_cropped_upscore8_cropped_0_split_1
I0715 23:54:02.932163 14837 net.cpp:406] loss1 <- label_data_1_split_1
I0715 23:54:02.932168 14837 net.cpp:380] loss1 -> loss1
…
