…
snapshot_prefix: "/media/Med_2T2/data2/models/snapshots/indiv:1e-5x10,20/FD2:ZI3_1_20180715_091946/train"
test_initialization: false
average_loss: 20
stepvalue: 40000
iter_size: 1
I0715 16:10:11.521160 13811 solver.cpp:77] Creating training net from train_net file: /media/Med_2T2/data2/prototxts/training_S3x10.prototxt
I0715 16:10:11.524235 13811 net.cpp:51] Initializing net from parameters: 
state {
  phase: TRAIN
}
layer {
  name: "data"
  type: "Python"
  top: "data"
  top: "label"
  top: "crop_margin"
  top: "crop_prob"
  top: "crop_sample_batch"
  python_param {
    module: "Data"
    layer: "DataLayer"
  }
}
layer {
  name: "conv1_1"
  type: "Convolution"
  bottom: "data"
  top: "conv1_1"
  param {
    lr_mult: 1
    decay_mult: 1
  }
  param {
    lr_mult: 2
    decay_mult: 0
  }
  convolution_param {
    num_output: 64
    pad: 100
    kernel_size: 3
    stride: 1
  }
}
layer {
  name: "relu1_1"
  type: "ReLU"
  bottom: "conv1_1"
  top: "conv1_1"
}
layer {
  name: "conv1_2"
  type: "Convolution"
  bottom: "conv1_1"
  top: "conv1_2"
  param {
    lr_mult: 1
    decay_mult: 1
  }
  param {
    lr_mult: 2
    decay_mult: 0
  }
  convolution_param {
    num_output: 64
    pad: 1
    kernel_size: 3
    stride: 1
  }
}
layer {
  name: "relu1_2"
  type: "ReLU"
  bottom: "conv1_2"
  top: "conv1_2"
}
layer {
  name: "pool1"
  type: "Pooling"
  bottom: "conv1_2"
  top: "pool1"
  pooling_param {
    pool: MAX
    kernel_size: 2
    stride: 2
  }
}
layer {
  name: "conv2_1"
  type: "Convolution"
  bottom: "pool1"
  top: "conv2_1"
  param {
    lr_mult: 1
    decay_mult: 1
  }
  param {
    lr_mult: 2
    decay_mult: 0
  }
  convolution_param {
    num_output: 128
    pad: 1
    kernel_size: 3
    stride: 1
  }
}
layer {
  name: "relu2_1"
  type: "ReLU"
  bottom: "conv2_1"
  top: "conv2_1"
}
layer {
  name: "conv2_2"
  type: "Convolution"
  bottom: "conv2_1"
  top: "conv2_2"
  param {
    lr_mult: 1
    decay_mult: 1
  }
  param {
    lr_mult: 2
    decay_mult: 0
  }
  convolution_param {
    num_output: 128
    pad: 1
    kernel_size: 3
    stride: 1
  }
}
layer {
  name: "relu2_2"
  type: "ReLU"
  bottom: "conv2_2"
  top: "conv2_2"
}
layer {
  name: "pool2"
  type: "Pooling"
  bottom: "conv2_2"
  top: "pool2"
  pooling_param {
    pool: MAX
    kernel_size: 2
    stride: 2
  }
}
layer {
  name: "conv3_1"
  type: "Convolution"
  bottom: "pool2"
  top: "conv3_1"
  param {
    lr_mult: 1
    decay_mult: 1
  }
  param {
    lr_mult: 2
    decay_mult: 0
  }
  convolution_param {
    num_output: 256
    pad: 1
    kernel_size: 3
    stride: 1
  }
}
layer {
  name: "relu3_1"
  type: "ReLU"
  bottom: "conv3_1"
  top: "conv3_1"
}
layer {
  name: "conv3_2"
  type: "Convolution"
  bottom: "conv3_1"
  top: "conv3_2"
  param {
    lr_mult: 1
    decay_mult: 1
  }
  param {
    lr_mult: 2
    decay_mult: 0
  }
  convolution_param {
    num_output: 256
    pad: 1
    kernel_size: 3
    stride: 1
  }
}
layer {
  name: "relu3_2"
  type: "ReLU"
  bottom: "conv3_2"
  top: "conv3_2"
}
layer {
  name: "conv3_3"
  type: "Convolution"
  bottom: "conv3_2"
  top: "conv3_3"
  param {
    lr_mult: 1
    decay_mult: 1
  }
  param {
    lr_mult: 2
    decay_mult: 0
  }
  convolution_param {
    num_output: 256
    pad: 1
    kernel_size: 3
    stride: 1
  }
}
layer {
  name: "relu3_3"
  type: "ReLU"
  bottom: "conv3_3"
  top: "conv3_3"
}
layer {
  name: "pool3"
  type: "Pooling"
  bottom: "conv3_3"
  top: "pool3"
  pooling_param {
    pool: MAX
    kernel_size: 2
    stride: 2
  }
}
layer {
  name: "conv4_1"
  type: "Convolution"
  bottom: "pool3"
  top: "conv4_1"
  param {
    lr_mult: 1
    decay_mult: 1
  }
  param {
    lr_mult: 2
    decay_mult: 0
  }
  convolution_param {
    num_output: 512
    pad: 1
    kernel_size: 3
    stride: 1
  }
}
layer {
  name: "relu4_1"
  type: "ReLU"
  bottom: "conv4_1"
  top: "conv4_1"
}
layer {
  name: "conv4_2"
  type: "Convolution"
  bottom: "conv4_1"
  top: "conv4_2"
  param {
    lr_mult: 1
    decay_mult: 1
  }
  param {
    lr_mult: 2
    decay_mult: 0
  }
  convolution_param {
    num_output: 512
    pad: 1
    kernel_size: 3
    stride: 1
  }
}
layer {
  name: "relu4_2"
  type: "ReLU"
  bottom: "conv4_2"
  top: "conv4_2"
}
layer {
  name: "conv4_3"
  type: "Convolution"
  bottom: "conv4_2"
  top: "conv4_3"
  param {
    lr_mult: 1
    decay_mult: 1
  }
  param {
    lr_mult: 2
    decay_mult: 0
  }
  convolution_param {
    num_output: 512
    pad: 1
    kernel_size: 3
    stride: 1
  }
}
layer {
  name: "relu4_3"
  type: "ReLU"
  bottom: "conv4_3"
  top: "conv4_3"
}
layer {
  name: "pool4"
  type: "Pooling"
  bottom: "conv4_3"
  top: "pool4"
  pooling_param {
    pool: MAX
    kernel_size: 2
    stride: 2
  }
}
layer {
  name: "conv5_1"
  type: "Convolution"
  bottom: "pool4"
  top: "conv5_1"
  param {
    lr_mult: 1
    decay_mult: 1
  }
  param {
    lr_mult: 2
    decay_mult: 0
  }
  convolution_param {
    num_output: 512
    pad: 1
    kernel_size: 3
    stride: 1
  }
}
layer {
  name: "relu5_1"
  type: "ReLU"
  bottom: "conv5_1"
  top: "conv5_1"
}
layer {
  name: "conv5_2"
  type: "Convolution"
  bottom: "conv5_1"
  top: "conv5_2"
  param {
    lr_mult: 1
    decay_mult: 1
  }
  param {
    lr_mult: 2
    decay_mult: 0
  }
  convolution_param {
    num_output: 512
    pad: 1
    kernel_size: 3
    stride: 1
  }
}
layer {
  name: "relu5_2"
  type: "ReLU"
  bottom: "conv5_2"
  top: "conv5_2"
}
layer {
  name: "conv5_3"
  type: "Convolution"
  bottom: "conv5_2"
  top: "conv5_3"
  param {
    lr_mult: 1
    decay_mult: 1
  }
  param {
    lr_mult: 2
    decay_mult: 0
  }
  convolution_param {
    num_output: 512
    pad: 1
    kernel_size: 3
    stride: 1
  }
}
layer {
  name: "relu5_3"
  type: "ReLU"
  bottom: "conv5_3"
  top: "conv5_3"
}
layer {
  name: "pool5"
  type: "Pooling"
  bottom: "conv5_3"
  top: "pool5"
  pooling_param {
    pool: MAX
    kernel_size: 2
    stride: 2
  }
}
layer {
  name: "fc6"
  type: "Convolution"
  bottom: "pool5"
  top: "fc6"
  param {
    lr_mult: 1
    decay_mult: 1
  }
  param {
    lr_mult: 2
    decay_mult: 0
  }
  convolution_param {
    num_output: 4096
    pad: 0
    kernel_size: 7
    stride: 1
  }
}
layer {
  name: "relu6"
  type: "ReLU"
  bottom: "fc6"
  top: "fc6"
}
layer {
  name: "drop6"
  type: "Dropout"
  bottom: "fc6"
  top: "fc6"
  dropout_param {
    dropout_ratio: 0.5
  }
}
layer {
  name: "fc7"
  type: "Convolution"
  bottom: "fc6"
  top: "fc7"
  param {
    lr_mult: 1
    decay_mult: 1
  }
  param {
    lr_mult: 2
    decay_mult: 0
  }
  convolution_param {
    num_output: 4096
    pad: 0
    kernel_size: 1
    stride: 1
  }
}
layer {
  name: "relu7"
  type: "ReLU"
  bottom: "fc7"
  top: "fc7"
}
layer {
  name: "drop7"
  type: "Dropout"
  bottom: "fc7"
  top: "fc7"
  dropout_param {
    dropout_ratio: 0.5
  }
}
layer {
  name: "score_fr-new"
  type: "Convolution"
  bottom: "fc7"
  top: "score_fr-new"
  param {
    lr_mult: 1
    decay_mult: 1
  }
  param {
    lr_mult: 2
    decay_mult: 0
  }
  convolution_param {
    num_output: 3
    kernel_size: 1
  }
}
layer {
  name: "upscore2-new"
  type: "Deconvolution"
  bottom: "score_fr-new"
  top: "upscore2-new"
  param {
    lr_mult: 0
  }
  convolution_param {
    num_output: 3
    bias_term: false
    kernel_size: 4
    stride: 2
  }
}
layer {
  name: "score_pool4-new"
  type: "Convolution"
  bottom: "pool4"
  top: "score_pool4-new"
  param {
    lr_mult: 1
    decay_mult: 1
  }
  param {
    lr_mult: 2
    decay_mult: 0
  }
  convolution_param {
    num_output: 3
    pad: 0
    kernel_size: 1
  }
}
layer {
  name: "score_pool4c"
  type: "Crop"
  bottom: "score_pool4-new"
  bottom: "upscore2-new"
  top: "score_pool4c"
  crop_param {
    axis: 2
    offset: 5
  }
}
layer {
  name: "fuse_pool4"
  type: "Eltwise"
  bottom: "upscore2-new"
  bottom: "score_pool4c"
  top: "fuse_pool4"
  eltwise_param {
    operation: SUM
  }
}
layer {
  name: "upscore_pool4-new"
  type: "Deconvolution"
  bottom: "fuse_pool4"
  top: "upscore_pool4-new"
  param {
    lr_mult: 0
  }
  convolution_param {
    num_output: 3
    bias_term: false
    kernel_size: 4
    stride: 2
  }
}
layer {
  name: "score_pool3-new"
  type: "Convolution"
  bottom: "pool3"
  top: "score_pool3-new"
  param {
    lr_mult: 1
    decay_mult: 1
  }
  param {
    lr_mult: 2
    decay_mult: 0
  }
  convolution_param {
    num_output: 3
    pad: 0
    kernel_size: 1
  }
}
layer {
  name: "score_pool3c"
  type: "Crop"
  bottom: "score_pool3-new"
  bottom: "upscore_pool4-new"
  top: "score_pool3c"
  crop_param {
    axis: 2
    offset: 9
  }
}
layer {
  name: "fuse_pool3"
  type: "Eltwise"
  bottom: "upscore_pool4-new"
  bottom: "score_pool3c"
  top: "fuse_pool3"
  eltwise_param {
    operation: SUM
  }
}
layer {
  name: "upscore8-new"
  type: "Deconvolution"
  bottom: "fuse_pool3"
  top: "upscore8-new"
  param {
    lr_mult: 0
  }
  convolution_param {
    num_output: 3
    bias_term: false
    kernel_size: 16
    stride: 8
  }
}
layer {
  name: "upscore8_cropped"
  type: "Crop"
  bottom: "upscore8-new"
  bottom: "data"
  top: "upscore8_cropped"
  crop_param {
    axis: 2
    offset: 31
  }
}
layer {
  name: "prob"
  type: "Sigmoid"
  bottom: "upscore8_cropped"
  top: "prob"
}
layer {
  name: "saliency1"
  type: "Convolution"
  bottom: "prob"
  top: "saliency1"
  param {
    lr_mult: 10
    decay_mult: 1
  }
  param {
    lr_mult: 20
    decay_mult: 0
  }
  convolution_param {
    num_output: 3
    pad: 1
    kernel_size: 3
    stride: 1
    weight_filler {
      type: "xavier"
    }
    bias_filler {
      type: "constant"
      value: 1
    }
  }
}
layer {
  name: "relu_saliency1"
  type: "ReLU"
  bottom: "saliency1"
  top: "saliency1"
}
layer {
  name: "saliency"
  type: "Convolution"
  bottom: "saliency1"
  top: "saliency"
  param {
    lr_mult: 10
    decay_mult: 1
  }
  param {
    lr_mult: 20
    decay_mult: 0
  }
  convolution_param {
    num_output: 3
    pad: 2
    kernel_size: 5
    stride: 1
    weight_filler {
      type: "xavier"
    }
    bias_filler {
      type: "constant"
      value: 1
    }
  }
}
layer {
  name: "silence_saliency"
  type: "Silence"
  bottom: "saliency"
}
layer {
  name: "crop"
  type: "Python"
  bottom: "label"
  bottom: "data"
  bottom: "crop_margin"
  bottom: "crop_prob"
  bottom: "crop_sample_batch"
  top: "data-R"
  top: "crop_info"
  python_param {
    module: "Crop"
    layer: "CropLayer"
    param_str: "{\"TEST\": 0}"
  }
}
layer {
  name: "conv1_1-R"
  type: "Convolution"
  bottom: "data-R"
  top: "conv1_1-R"
  param {
    lr_mult: 10
    decay_mult: 1
  }
  param {
    lr_mult: 20
    decay_mult: 0
  }
  convolution_param {
    num_output: 64
    pad: 100
    kernel_size: 3
    stride: 1
  }
}
layer {
  name: "relu1_1-R"
  type: "ReLU"
  bottom: "conv1_1-R"
  top: "conv1_1-R"
}
layer {
  name: "conv1_2-R"
  type: "Convolution"
  bottom: "conv1_1-R"
  top: "conv1_2-R"
  param {
    lr_mult: 10
    decay_mult: 1
  }
  param {
    lr_mult: 20
    decay_mult: 0
  }
  convolution_param {
    num_output: 64
    pad: 1
    kernel_size: 3
    stride: 1
  }
}
layer {
  name: "relu1_2-R"
  type: "ReLU"
  bottom: "conv1_2-R"
  top: "conv1_2-R"
}
layer {
  name: "pool1-R"
  type: "Pooling"
  bottom: "conv1_2-R"
  top: "pool1-R"
  pooling_param {
    pool: MAX
    kernel_size: 2
    stride: 2
  }
}
layer {
  name: "conv2_1-R"
  type: "Convolution"
  bottom: "pool1-R"
  top: "conv2_1-R"
  param {
    lr_mult: 10
    decay_mult: 1
  }
  param {
    lr_mult: 20
    decay_mult: 0
  }
  convolution_param {
    num_output: 128
    pad: 1
    kernel_size: 3
    stride: 1
  }
}
layer {
  name: "relu2_1-R"
  type: "ReLU"
  bottom: "conv2_1-R"
  top: "conv2_1-R"
}
layer {
  name: "conv2_2-R"
  type: "Convolution"
  bottom: "conv2_1-R"
  top: "conv2_2-R"
  param {
    lr_mult: 10
    decay_mult: 1
  }
  param {
    lr_mult: 20
    decay_mult: 0
  }
  convolution_param {
    num_output: 128
    pad: 1
    kernel_size: 3
    stride: 1
  }
}
layer {
  name: "relu2_2-R"
  type: "ReLU"
  bottom: "conv2_2-R"
  top: "conv2_2-R"
}
layer {
  name: "pool2-R"
  type: "Pooling"
  bottom: "conv2_2-R"
  top: "pool2-R"
  pooling_param {
    pool: MAX
    kernel_size: 2
    stride: 2
  }
}
layer {
  name: "conv3_1-R"
  type: "Convolution"
  bottom: "pool2-R"
  top: "conv3_1-R"
  param {
    lr_mult: 10
    decay_mult: 1
  }
  param {
    lr_mult: 20
    decay_mult: 0
  }
  convolution_param {
    num_output: 256
    pad: 1
    kernel_size: 3
    stride: 1
  }
}
layer {
  name: "relu3_1-R"
  type: "ReLU"
  bottom: "conv3_1-R"
  top: "conv3_1-R"
}
layer {
  name: "conv3_2-R"
  type: "Convolution"
  bottom: "conv3_1-R"
  top: "conv3_2-R"
  param {
    lr_mult: 10
    decay_mult: 1
  }
  param {
    lr_mult: 20
    decay_mult: 0
  }
  convolution_param {
    num_output: 256
    pad: 1
    kernel_size: 3
    stride: 1
  }
}
layer {
  name: "relu3_2-R"
  type: "ReLU"
  bottom: "conv3_2-R"
  top: "conv3_2-R"
}
layer {
  name: "conv3_3-R"
  type: "Convolution"
  bottom: "conv3_2-R"
  top: "conv3_3-R"
  param {
    lr_mult: 10
    decay_mult: 1
  }
  param {
    lr_mult: 20
    decay_mult: 0
  }
  convolution_param {
    num_output: 256
    pad: 1
    kernel_size: 3
    stride: 1
  }
}
layer {
  name: "relu3_3-R"
  type: "ReLU"
  bottom: "conv3_3-R"
  top: "conv3_3-R"
}
layer {
  name: "pool3-R"
  type: "Pooling"
  bottom: "conv3_3-R"
  top: "pool3-R"
  pooling_param {
    pool: MAX
    kernel_size: 2
    stride: 2
  }
}
layer {
  name: "conv4_1-R"
  type: "Convolution"
  bottom: "pool3-R"
  top: "conv4_1-R"
  param {
    lr_mult: 10
    decay_mult: 1
  }
  param {
    lr_mult: 20
    decay_mult: 0
  }
  convolution_param {
    num_output: 512
    pad: 1
    kernel_size: 3
    stride: 1
  }
}
layer {
  name: "relu4_1-R"
  type: "ReLU"
  bottom: "conv4_1-R"
  top: "conv4_1-R"
}
layer {
  name: "conv4_2-R"
  type: "Convolution"
  bottom: "conv4_1-R"
  top: "conv4_2-R"
  param {
    lr_mult: 10
    decay_mult: 1
  }
  param {
    lr_mult: 20
    decay_mult: 0
  }
  convolution_param {
    num_output: 512
    pad: 1
    kernel_size: 3
    stride: 1
  }
}
layer {
  name: "relu4_2-R"
  type: "ReLU"
  bottom: "conv4_2-R"
  top: "conv4_2-R"
}
layer {
  name: "conv4_3-R"
  type: "Convolution"
  bottom: "conv4_2-R"
  top: "conv4_3-R"
  param {
    lr_mult: 10
    decay_mult: 1
  }
  param {
    lr_mult: 20
    decay_mult: 0
  }
  convolution_param {
    num_output: 512
    pad: 1
    kernel_size: 3
    stride: 1
  }
}
layer {
  name: "relu4_3-R"
  type: "ReLU"
  bottom: "conv4_3-R"
  top: "conv4_3-R"
}
layer {
  name: "pool4-R"
  type: "Pooling"
  bottom: "conv4_3-R"
  top: "pool4-R"
  pooling_param {
    pool: MAX
    kernel_size: 2
    stride: 2
  }
}
layer {
  name: "conv5_1-R"
  type: "Convolution"
  bottom: "pool4-R"
  top: "conv5_1-R"
  param {
    lr_mult: 10
    decay_mult: 1
  }
  param {
    lr_mult: 20
    decay_mult: 0
  }
  convolution_param {
    num_output: 512
    pad: 1
    kernel_size: 3
    stride: 1
  }
}
layer {
  name: "relu5_1-R"
  type: "ReLU"
  bottom: "conv5_1-R"
  top: "conv5_1-R"
}
layer {
  name: "conv5_2-R"
  type: "Convolution"
  bottom: "conv5_1-R"
  top: "conv5_2-R"
  param {
    lr_mult: 10
    decay_mult: 1
  }
  param {
    lr_mult: 20
    decay_mult: 0
  }
  convolution_param {
    num_output: 512
    pad: 1
    kernel_size: 3
    stride: 1
  }
}
layer {
  name: "relu5_2-R"
  type: "ReLU"
  bottom: "conv5_2-R"
  top: "conv5_2-R"
}
layer {
  name: "conv5_3-R"
  type: "Convolution"
  bottom: "conv5_2-R"
  top: "conv5_3-R"
  param {
    lr_mult: 10
    decay_mult: 1
  }
  param {
    lr_mult: 20
    decay_mult: 0
  }
  convolution_param {
    num_output: 512
    pad: 1
    kernel_size: 3
    stride: 1
  }
}
layer {
  name: "relu5_3-R"
  type: "ReLU"
  bottom: "conv5_3-R"
  top: "conv5_3-R"
}
layer {
  name: "pool5-R"
  type: "Pooling"
  bottom: "conv5_3-R"
  top: "pool5-R"
  pooling_param {
    pool: MAX
    kernel_size: 2
    stride: 2
  }
}
layer {
  name: "fc6-R"
  type: "Convolution"
  bottom: "pool5-R"
  top: "fc6-R"
  param {
    lr_mult: 10
    decay_mult: 1
  }
  param {
    lr_mult: 20
    decay_mult: 0
  }
  convolution_param {
    num_output: 4096
    pad: 0
    kernel_size: 7
    stride: 1
  }
}
layer {
  name: "relu6-R"
  type: "ReLU"
  bottom: "fc6-R"
  top: "fc6-R"
}
layer {
  name: "drop6-R"
  type: "Dropout"
  bottom: "fc6-R"
  top: "fc6-R"
  dropout_param {
    dropout_ratio: 0.5
  }
}
layer {
  name: "fc7-R"
  type: "Convolution"
  bottom: "fc6-R"
  top: "fc7-R"
  param {
    lr_mult: 10
    decay_mult: 1
  }
  param {
    lr_mult: 20
    decay_mult: 0
  }
  convolution_param {
    num_output: 4096
    pad: 0
    kernel_size: 1
    stride: 1
  }
}
layer {
  name: "relu7-R"
  type: "ReLU"
  bottom: "fc7-R"
  top: "fc7-R"
}
layer {
  name: "drop7-R"
  type: "Dropout"
  bottom: "fc7-R"
  top: "fc7-R"
  dropout_param {
    dropout_ratio: 0.5
  }
}
layer {
  name: "score_fr-new-R"
  type: "Convolution"
  bottom: "fc7-R"
  top: "score_fr-new-R"
  param {
    lr_mult: 10
    decay_mult: 1
  }
  param {
    lr_mult: 20
    decay_mult: 0
  }
  convolution_param {
    num_output: 3
    kernel_size: 1
  }
}
layer {
  name: "upscore2-new-R"
  type: "Deconvolution"
  bottom: "score_fr-new-R"
  top: "upscore2-new-R"
  param {
    lr_mult: 0
  }
  convolution_param {
    num_output: 3
    bias_term: false
    kernel_size: 4
    stride: 2
  }
}
layer {
  name: "score_pool4-new-R"
  type: "Convolution"
  bottom: "pool4-R"
  top: "score_pool4-new-R"
  param {
    lr_mult: 10
    decay_mult: 1
  }
  param {
    lr_mult: 20
    decay_mult: 0
  }
  convolution_param {
    num_output: 3
    pad: 0
    kernel_size: 1
  }
}
layer {
  name: "score_pool4c-R"
  type: "Crop"
  bottom: "score_pool4-new-R"
  bottom: "upscore2-new-R"
  top: "score_pool4c-R"
  crop_param {
    axis: 2
    offset: 5
  }
}
layer {
  name: "fuse_pool4-R"
  type: "Eltwise"
  bottom: "upscore2-new-R"
  bottom: "score_pool4c-R"
  top: "fuse_pool4-R"
  eltwise_param {
    operation: SUM
  }
}
layer {
  name: "upscore_pool4-new-R"
  type: "Deconvolution"
  bottom: "fuse_pool4-R"
  top: "upscore_pool4-new-R"
  param {
    lr_mult: 0
  }
  convolution_param {
    num_output: 3
    bias_term: false
    kernel_size: 4
    stride: 2
  }
}
layer {
  name: "score_pool3-new-R"
  type: "Convolution"
  bottom: "pool3-R"
  top: "score_pool3-new-R"
  param {
    lr_mult: 10
    decay_mult: 1
  }
  param {
    lr_mult: 20
    decay_mult: 0
  }
  convolution_param {
    num_output: 3
    pad: 0
    kernel_size: 1
  }
}
layer {
  name: "score_pool3c-R"
  type: "Crop"
  bottom: "score_pool3-new-R"
  bottom: "upscore_pool4-new-R"
  top: "score_pool3c-R"
  crop_param {
    axis: 2
    offset: 9
  }
}
layer {
  name: "fuse_pool3-R"
  type: "Eltwise"
  bottom: "upscore_pool4-new-R"
  bottom: "score_pool3c-R"
  top: "fuse_pool3-R"
  eltwise_param {
    operation: SUM
  }
}
layer {
  name: "upscore8-new-R"
  type: "Deconvolution"
  bottom: "fuse_pool3-R"
  top: "upscore8-new-R"
  param {
    lr_mult: 0
  }
  convolution_param {
    num_output: 3
    bias_term: false
    kernel_size: 16
    stride: 8
  }
}
layer {
  name: "upscore8_cropped-R"
  type: "Crop"
  bottom: "upscore8-new-R"
  bottom: "data-R"
  top: "upscore8_cropped-R"
  crop_param {
    axis: 2
    offset: 31
  }
}
layer {
  name: "upscore8_uncropped-R"
  type: "Python"
  bottom: "crop_info"
  bottom: "upscore8_cropped-R"
  bottom: "data"
  top: "upscore8_uncropped-R"
  python_param {
    module: "Uncrop"
    layer: "UncropLayer"
  }
}
layer {
  name: "loss1"
  type: "DiceLoss"
  bottom: "upscore8_cropped"
  bottom: "label"
  top: "loss1"
  loss_weight: 0.333333
}
layer {
  name: "loss2"
  type: "DiceLoss"
  bottom: "upscore8_uncropped-R"
  bottom: "label"
  top: "loss2"
  loss_weight: 0.666667
}
I0715 16:10:11.524811 13811 layer_factory.hpp:77] Creating layer data
I0715 16:10:11.525153 13811 net.cpp:84] Creating Layer data
I0715 16:10:11.525169 13811 net.cpp:380] data -> data
I0715 16:10:11.525188 13811 net.cpp:380] data -> label
I0715 16:10:11.525197 13811 net.cpp:380] data -> crop_margin
I0715 16:10:11.525204 13811 net.cpp:380] data -> crop_prob
I0715 16:10:11.525212 13811 net.cpp:380] data -> crop_sample_batch
I0715 16:10:11.633981 13811 net.cpp:122] Setting up data
I0715 16:10:11.634037 13811 net.cpp:129] Top shape: 1 3 512 512 (786432)
I0715 16:10:11.634045 13811 net.cpp:129] Top shape: 1 3 512 512 (786432)
I0715 16:10:11.634053 13811 net.cpp:129] Top shape: 1 (1)
I0715 16:10:11.634059 13811 net.cpp:129] Top shape: 1 (1)
I0715 16:10:11.634065 13811 net.cpp:129] Top shape: 1 (1)
I0715 16:10:11.634069 13811 net.cpp:137] Memory required for data: 6291468
I0715 16:10:11.634083 13811 layer_factory.hpp:77] Creating layer data_data_0_split
I0715 16:10:11.634119 13811 net.cpp:84] Creating Layer data_data_0_split
I0715 16:10:11.634124 13811 net.cpp:406] data_data_0_split <- data
I0715 16:10:11.634140 13811 net.cpp:380] data_data_0_split -> data_data_0_split_0
I0715 16:10:11.634153 13811 net.cpp:380] data_data_0_split -> data_data_0_split_1
I0715 16:10:11.634161 13811 net.cpp:380] data_data_0_split -> data_data_0_split_2
I0715 16:10:11.634168 13811 net.cpp:380] data_data_0_split -> data_data_0_split_3
I0715 16:10:11.634229 13811 net.cpp:122] Setting up data_data_0_split
I0715 16:10:11.634253 13811 net.cpp:129] Top shape: 1 3 512 512 (786432)
I0715 16:10:11.634259 13811 net.cpp:129] Top shape: 1 3 512 512 (786432)
I0715 16:10:11.634264 13811 net.cpp:129] Top shape: 1 3 512 512 (786432)
I0715 16:10:11.634270 13811 net.cpp:129] Top shape: 1 3 512 512 (786432)
I0715 16:10:11.634274 13811 net.cpp:137] Memory required for data: 18874380
I0715 16:10:11.634279 13811 layer_factory.hpp:77] Creating layer label_data_1_split
I0715 16:10:11.634286 13811 net.cpp:84] Creating Layer label_data_1_split
I0715 16:10:11.634290 13811 net.cpp:406] label_data_1_split <- label
I0715 16:10:11.634296 13811 net.cpp:380] label_data_1_split -> label_data_1_split_0
I0715 16:10:11.634304 13811 net.cpp:380] label_data_1_split -> label_data_1_split_1
I0715 16:10:11.634310 13811 net.cpp:380] label_data_1_split -> label_data_1_split_2
I0715 16:10:11.634351 13811 net.cpp:122] Setting up label_data_1_split
I0715 16:10:11.634357 13811 net.cpp:129] Top shape: 1 3 512 512 (786432)
I0715 16:10:11.634362 13811 net.cpp:129] Top shape: 1 3 512 512 (786432)
I0715 16:10:11.634368 13811 net.cpp:129] Top shape: 1 3 512 512 (786432)
I0715 16:10:11.634372 13811 net.cpp:137] Memory required for data: 28311564
I0715 16:10:11.634377 13811 layer_factory.hpp:77] Creating layer conv1_1
I0715 16:10:11.634413 13811 net.cpp:84] Creating Layer conv1_1
I0715 16:10:11.634418 13811 net.cpp:406] conv1_1 <- data_data_0_split_0
I0715 16:10:11.634424 13811 net.cpp:380] conv1_1 -> conv1_1
I0715 16:10:12.025305 13811 net.cpp:122] Setting up conv1_1
I0715 16:10:12.025351 13811 net.cpp:129] Top shape: 1 64 710 710 (32262400)
I0715 16:10:12.025354 13811 net.cpp:137] Memory required for data: 157361164
I0715 16:10:12.025378 13811 layer_factory.hpp:77] Creating layer relu1_1
I0715 16:10:12.025399 13811 net.cpp:84] Creating Layer relu1_1
I0715 16:10:12.025420 13811 net.cpp:406] relu1_1 <- conv1_1
I0715 16:10:12.025427 13811 net.cpp:367] relu1_1 -> conv1_1 (in-place)
I0715 16:10:12.025605 13811 net.cpp:122] Setting up relu1_1
I0715 16:10:12.025616 13811 net.cpp:129] Top shape: 1 64 710 710 (32262400)
I0715 16:10:12.025619 13811 net.cpp:137] Memory required for data: 286410764
I0715 16:10:12.025624 13811 layer_factory.hpp:77] Creating layer conv1_2
I0715 16:10:12.025635 13811 net.cpp:84] Creating Layer conv1_2
I0715 16:10:12.025638 13811 net.cpp:406] conv1_2 <- conv1_1
I0715 16:10:12.025645 13811 net.cpp:380] conv1_2 -> conv1_2
I0715 16:10:12.034479 13811 net.cpp:122] Setting up conv1_2
I0715 16:10:12.034509 13811 net.cpp:129] Top shape: 1 64 710 710 (32262400)
I0715 16:10:12.034513 13811 net.cpp:137] Memory required for data: 415460364
I0715 16:10:12.034523 13811 layer_factory.hpp:77] Creating layer relu1_2
I0715 16:10:12.034535 13811 net.cpp:84] Creating Layer relu1_2
I0715 16:10:12.034539 13811 net.cpp:406] relu1_2 <- conv1_2
I0715 16:10:12.034544 13811 net.cpp:367] relu1_2 -> conv1_2 (in-place)
I0715 16:10:12.034736 13811 net.cpp:122] Setting up relu1_2
I0715 16:10:12.034746 13811 net.cpp:129] Top shape: 1 64 710 710 (32262400)
I0715 16:10:12.034750 13811 net.cpp:137] Memory required for data: 544509964
I0715 16:10:12.034754 13811 layer_factory.hpp:77] Creating layer pool1
I0715 16:10:12.034763 13811 net.cpp:84] Creating Layer pool1
I0715 16:10:12.034767 13811 net.cpp:406] pool1 <- conv1_2
I0715 16:10:12.034773 13811 net.cpp:380] pool1 -> pool1
I0715 16:10:12.034821 13811 net.cpp:122] Setting up pool1
I0715 16:10:12.034826 13811 net.cpp:129] Top shape: 1 64 355 355 (8065600)
I0715 16:10:12.034828 13811 net.cpp:137] Memory required for data: 576772364
I0715 16:10:12.034833 13811 layer_factory.hpp:77] Creating layer conv2_1
I0715 16:10:12.034842 13811 net.cpp:84] Creating Layer conv2_1
I0715 16:10:12.034845 13811 net.cpp:406] conv2_1 <- pool1
I0715 16:10:12.034852 13811 net.cpp:380] conv2_1 -> conv2_1
I0715 16:10:12.038820 13811 net.cpp:122] Setting up conv2_1
I0715 16:10:12.038833 13811 net.cpp:129] Top shape: 1 128 355 355 (16131200)
I0715 16:10:12.038852 13811 net.cpp:137] Memory required for data: 641297164
I0715 16:10:12.038861 13811 layer_factory.hpp:77] Creating layer relu2_1
I0715 16:10:12.038877 13811 net.cpp:84] Creating Layer relu2_1
I0715 16:10:12.038880 13811 net.cpp:406] relu2_1 <- conv2_1
I0715 16:10:12.038885 13811 net.cpp:367] relu2_1 -> conv2_1 (in-place)
I0715 16:10:12.039080 13811 net.cpp:122] Setting up relu2_1
I0715 16:10:12.039093 13811 net.cpp:129] Top shape: 1 128 355 355 (16131200)
I0715 16:10:12.039096 13811 net.cpp:137] Memory required for data: 705821964
I0715 16:10:12.039099 13811 layer_factory.hpp:77] Creating layer conv2_2
I0715 16:10:12.039109 13811 net.cpp:84] Creating Layer conv2_2
I0715 16:10:12.039113 13811 net.cpp:406] conv2_2 <- conv2_1
I0715 16:10:12.039120 13811 net.cpp:380] conv2_2 -> conv2_2
I0715 16:10:12.042296 13811 net.cpp:122] Setting up conv2_2
I0715 16:10:12.042326 13811 net.cpp:129] Top shape: 1 128 355 355 (16131200)
I0715 16:10:12.042340 13811 net.cpp:137] Memory required for data: 770346764
I0715 16:10:12.042354 13811 layer_factory.hpp:77] Creating layer relu2_2
I0715 16:10:12.042367 13811 net.cpp:84] Creating Layer relu2_2
I0715 16:10:12.042376 13811 net.cpp:406] relu2_2 <- conv2_2
I0715 16:10:12.042397 13811 net.cpp:367] relu2_2 -> conv2_2 (in-place)
I0715 16:10:12.042784 13811 net.cpp:122] Setting up relu2_2
I0715 16:10:12.042804 13811 net.cpp:129] Top shape: 1 128 355 355 (16131200)
I0715 16:10:12.042810 13811 net.cpp:137] Memory required for data: 834871564
I0715 16:10:12.042822 13811 layer_factory.hpp:77] Creating layer pool2
I0715 16:10:12.042841 13811 net.cpp:84] Creating Layer pool2
I0715 16:10:12.042848 13811 net.cpp:406] pool2 <- conv2_2
I0715 16:10:12.042861 13811 net.cpp:380] pool2 -> pool2
I0715 16:10:12.042956 13811 net.cpp:122] Setting up pool2
I0715 16:10:12.042971 13811 net.cpp:129] Top shape: 1 128 178 178 (4055552)
I0715 16:10:12.042979 13811 net.cpp:137] Memory required for data: 851093772
I0715 16:10:12.042985 13811 layer_factory.hpp:77] Creating layer conv3_1
I0715 16:10:12.043005 13811 net.cpp:84] Creating Layer conv3_1
I0715 16:10:12.043012 13811 net.cpp:406] conv3_1 <- pool2
I0715 16:10:12.043025 13811 net.cpp:380] conv3_1 -> conv3_1
I0715 16:10:12.050199 13811 net.cpp:122] Setting up conv3_1
I0715 16:10:12.050238 13811 net.cpp:129] Top shape: 1 256 178 178 (8111104)
I0715 16:10:12.050247 13811 net.cpp:137] Memory required for data: 883538188
I0715 16:10:12.050269 13811 layer_factory.hpp:77] Creating layer relu3_1
I0715 16:10:12.050293 13811 net.cpp:84] Creating Layer relu3_1
I0715 16:10:12.050302 13811 net.cpp:406] relu3_1 <- conv3_1
I0715 16:10:12.050314 13811 net.cpp:367] relu3_1 -> conv3_1 (in-place)
I0715 16:10:12.051617 13811 net.cpp:122] Setting up relu3_1
I0715 16:10:12.051635 13811 net.cpp:129] Top shape: 1 256 178 178 (8111104)
I0715 16:10:12.051640 13811 net.cpp:137] Memory required for data: 915982604
I0715 16:10:12.051645 13811 layer_factory.hpp:77] Creating layer conv3_2
I0715 16:10:12.051662 13811 net.cpp:84] Creating Layer conv3_2
I0715 16:10:12.051668 13811 net.cpp:406] conv3_2 <- conv3_1
I0715 16:10:12.051678 13811 net.cpp:380] conv3_2 -> conv3_2
I0715 16:10:12.056134 13811 net.cpp:122] Setting up conv3_2
I0715 16:10:12.056167 13811 net.cpp:129] Top shape: 1 256 178 178 (8111104)
I0715 16:10:12.056172 13811 net.cpp:137] Memory required for data: 948427020
I0715 16:10:12.056185 13811 layer_factory.hpp:77] Creating layer relu3_2
I0715 16:10:12.056197 13811 net.cpp:84] Creating Layer relu3_2
I0715 16:10:12.056202 13811 net.cpp:406] relu3_2 <- conv3_2
I0715 16:10:12.056210 13811 net.cpp:367] relu3_2 -> conv3_2 (in-place)
I0715 16:10:12.057037 13811 net.cpp:122] Setting up relu3_2
I0715 16:10:12.057055 13811 net.cpp:129] Top shape: 1 256 178 178 (8111104)
I0715 16:10:12.057066 13811 net.cpp:137] Memory required for data: 980871436
I0715 16:10:12.057071 13811 layer_factory.hpp:77] Creating layer conv3_3
I0715 16:10:12.057085 13811 net.cpp:84] Creating Layer conv3_3
I0715 16:10:12.057090 13811 net.cpp:406] conv3_3 <- conv3_2
I0715 16:10:12.057101 13811 net.cpp:380] conv3_3 -> conv3_3
I0715 16:10:12.063671 13811 net.cpp:122] Setting up conv3_3
I0715 16:10:12.063726 13811 net.cpp:129] Top shape: 1 256 178 178 (8111104)
I0715 16:10:12.063731 13811 net.cpp:137] Memory required for data: 1013315852
I0715 16:10:12.063753 13811 layer_factory.hpp:77] Creating layer relu3_3
I0715 16:10:12.063763 13811 net.cpp:84] Creating Layer relu3_3
I0715 16:10:12.063769 13811 net.cpp:406] relu3_3 <- conv3_3
I0715 16:10:12.063779 13811 net.cpp:367] relu3_3 -> conv3_3 (in-place)
I0715 16:10:12.064044 13811 net.cpp:122] Setting up relu3_3
I0715 16:10:12.064057 13811 net.cpp:129] Top shape: 1 256 178 178 (8111104)
I0715 16:10:12.064062 13811 net.cpp:137] Memory required for data: 1045760268
I0715 16:10:12.064067 13811 layer_factory.hpp:77] Creating layer pool3
I0715 16:10:12.064075 13811 net.cpp:84] Creating Layer pool3
I0715 16:10:12.064080 13811 net.cpp:406] pool3 <- conv3_3
I0715 16:10:12.064090 13811 net.cpp:380] pool3 -> pool3
I0715 16:10:12.064148 13811 net.cpp:122] Setting up pool3
I0715 16:10:12.064162 13811 net.cpp:129] Top shape: 1 256 89 89 (2027776)
I0715 16:10:12.064167 13811 net.cpp:137] Memory required for data: 1053871372
I0715 16:10:12.064173 13811 layer_factory.hpp:77] Creating layer pool3_pool3_0_split
I0715 16:10:12.064182 13811 net.cpp:84] Creating Layer pool3_pool3_0_split
I0715 16:10:12.064185 13811 net.cpp:406] pool3_pool3_0_split <- pool3
I0715 16:10:12.064193 13811 net.cpp:380] pool3_pool3_0_split -> pool3_pool3_0_split_0
I0715 16:10:12.064199 13811 net.cpp:380] pool3_pool3_0_split -> pool3_pool3_0_split_1
I0715 16:10:12.064246 13811 net.cpp:122] Setting up pool3_pool3_0_split
I0715 16:10:12.064258 13811 net.cpp:129] Top shape: 1 256 89 89 (2027776)
I0715 16:10:12.064265 13811 net.cpp:129] Top shape: 1 256 89 89 (2027776)
I0715 16:10:12.064270 13811 net.cpp:137] Memory required for data: 1070093580
I0715 16:10:12.064273 13811 layer_factory.hpp:77] Creating layer conv4_1
I0715 16:10:12.064285 13811 net.cpp:84] Creating Layer conv4_1
I0715 16:10:12.064291 13811 net.cpp:406] conv4_1 <- pool3_pool3_0_split_0
I0715 16:10:12.064301 13811 net.cpp:380] conv4_1 -> conv4_1
I0715 16:10:12.075197 13811 net.cpp:122] Setting up conv4_1
I0715 16:10:12.075220 13811 net.cpp:129] Top shape: 1 512 89 89 (4055552)
I0715 16:10:12.075225 13811 net.cpp:137] Memory required for data: 1086315788
I0715 16:10:12.075237 13811 layer_factory.hpp:77] Creating layer relu4_1
I0715 16:10:12.075245 13811 net.cpp:84] Creating Layer relu4_1
I0715 16:10:12.075253 13811 net.cpp:406] relu4_1 <- conv4_1
I0715 16:10:12.075261 13811 net.cpp:367] relu4_1 -> conv4_1 (in-place)
I0715 16:10:12.075577 13811 net.cpp:122] Setting up relu4_1
I0715 16:10:12.075592 13811 net.cpp:129] Top shape: 1 512 89 89 (4055552)
I0715 16:10:12.075597 13811 net.cpp:137] Memory required for data: 1102537996
I0715 16:10:12.075600 13811 layer_factory.hpp:77] Creating layer conv4_2
I0715 16:10:12.075618 13811 net.cpp:84] Creating Layer conv4_2
I0715 16:10:12.075623 13811 net.cpp:406] conv4_2 <- conv4_1
I0715 16:10:12.075641 13811 net.cpp:380] conv4_2 -> conv4_2
I0715 16:10:12.085980 13811 net.cpp:122] Setting up conv4_2
I0715 16:10:12.086014 13811 net.cpp:129] Top shape: 1 512 89 89 (4055552)
I0715 16:10:12.086019 13811 net.cpp:137] Memory required for data: 1118760204
I0715 16:10:12.086042 13811 layer_factory.hpp:77] Creating layer relu4_2
I0715 16:10:12.086058 13811 net.cpp:84] Creating Layer relu4_2
I0715 16:10:12.086064 13811 net.cpp:406] relu4_2 <- conv4_2
I0715 16:10:12.086082 13811 net.cpp:367] relu4_2 -> conv4_2 (in-place)
I0715 16:10:12.086355 13811 net.cpp:122] Setting up relu4_2
I0715 16:10:12.086369 13811 net.cpp:129] Top shape: 1 512 89 89 (4055552)
I0715 16:10:12.086374 13811 net.cpp:137] Memory required for data: 1134982412
I0715 16:10:12.086380 13811 layer_factory.hpp:77] Creating layer conv4_3
I0715 16:10:12.086395 13811 net.cpp:84] Creating Layer conv4_3
I0715 16:10:12.086400 13811 net.cpp:406] conv4_3 <- conv4_2
I0715 16:10:12.086411 13811 net.cpp:380] conv4_3 -> conv4_3
I0715 16:10:12.096415 13811 net.cpp:122] Setting up conv4_3
I0715 16:10:12.096441 13811 net.cpp:129] Top shape: 1 512 89 89 (4055552)
I0715 16:10:12.096446 13811 net.cpp:137] Memory required for data: 1151204620
I0715 16:10:12.096467 13811 layer_factory.hpp:77] Creating layer relu4_3
I0715 16:10:12.096477 13811 net.cpp:84] Creating Layer relu4_3
I0715 16:10:12.096482 13811 net.cpp:406] relu4_3 <- conv4_3
I0715 16:10:12.096493 13811 net.cpp:367] relu4_3 -> conv4_3 (in-place)
I0715 16:10:12.096715 13811 net.cpp:122] Setting up relu4_3
I0715 16:10:12.096727 13811 net.cpp:129] Top shape: 1 512 89 89 (4055552)
I0715 16:10:12.096731 13811 net.cpp:137] Memory required for data: 1167426828
I0715 16:10:12.096736 13811 layer_factory.hpp:77] Creating layer pool4
I0715 16:10:12.096750 13811 net.cpp:84] Creating Layer pool4
I0715 16:10:12.096755 13811 net.cpp:406] pool4 <- conv4_3
I0715 16:10:12.096763 13811 net.cpp:380] pool4 -> pool4
I0715 16:10:12.096817 13811 net.cpp:122] Setting up pool4
I0715 16:10:12.096827 13811 net.cpp:129] Top shape: 1 512 45 45 (1036800)
I0715 16:10:12.096830 13811 net.cpp:137] Memory required for data: 1171574028
I0715 16:10:12.096837 13811 layer_factory.hpp:77] Creating layer pool4_pool4_0_split
I0715 16:10:12.096845 13811 net.cpp:84] Creating Layer pool4_pool4_0_split
I0715 16:10:12.096849 13811 net.cpp:406] pool4_pool4_0_split <- pool4
I0715 16:10:12.096855 13811 net.cpp:380] pool4_pool4_0_split -> pool4_pool4_0_split_0
I0715 16:10:12.096863 13811 net.cpp:380] pool4_pool4_0_split -> pool4_pool4_0_split_1
I0715 16:10:12.096906 13811 net.cpp:122] Setting up pool4_pool4_0_split
I0715 16:10:12.096921 13811 net.cpp:129] Top shape: 1 512 45 45 (1036800)
I0715 16:10:12.096927 13811 net.cpp:129] Top shape: 1 512 45 45 (1036800)
I0715 16:10:12.096930 13811 net.cpp:137] Memory required for data: 1179868428
I0715 16:10:12.096935 13811 layer_factory.hpp:77] Creating layer conv5_1
I0715 16:10:12.096946 13811 net.cpp:84] Creating Layer conv5_1
I0715 16:10:12.096951 13811 net.cpp:406] conv5_1 <- pool4_pool4_0_split_0
I0715 16:10:12.096959 13811 net.cpp:380] conv5_1 -> conv5_1
I0715 16:10:12.108142 13811 net.cpp:122] Setting up conv5_1
I0715 16:10:12.108176 13811 net.cpp:129] Top shape: 1 512 45 45 (1036800)
I0715 16:10:12.108182 13811 net.cpp:137] Memory required for data: 1184015628
I0715 16:10:12.108206 13811 layer_factory.hpp:77] Creating layer relu5_1
I0715 16:10:12.108219 13811 net.cpp:84] Creating Layer relu5_1
I0715 16:10:12.108227 13811 net.cpp:406] relu5_1 <- conv5_1
I0715 16:10:12.108238 13811 net.cpp:367] relu5_1 -> conv5_1 (in-place)
I0715 16:10:12.109061 13811 net.cpp:122] Setting up relu5_1
I0715 16:10:12.109079 13811 net.cpp:129] Top shape: 1 512 45 45 (1036800)
I0715 16:10:12.109094 13811 net.cpp:137] Memory required for data: 1188162828
I0715 16:10:12.109099 13811 layer_factory.hpp:77] Creating layer conv5_2
I0715 16:10:12.109114 13811 net.cpp:84] Creating Layer conv5_2
I0715 16:10:12.109119 13811 net.cpp:406] conv5_2 <- conv5_1
I0715 16:10:12.109129 13811 net.cpp:380] conv5_2 -> conv5_2
I0715 16:10:12.118221 13811 net.cpp:122] Setting up conv5_2
I0715 16:10:12.118254 13811 net.cpp:129] Top shape: 1 512 45 45 (1036800)
I0715 16:10:12.118260 13811 net.cpp:137] Memory required for data: 1192310028
I0715 16:10:12.118274 13811 layer_factory.hpp:77] Creating layer relu5_2
I0715 16:10:12.118296 13811 net.cpp:84] Creating Layer relu5_2
I0715 16:10:12.118302 13811 net.cpp:406] relu5_2 <- conv5_2
I0715 16:10:12.118319 13811 net.cpp:367] relu5_2 -> conv5_2 (in-place)
I0715 16:10:12.120295 13811 net.cpp:122] Setting up relu5_2
I0715 16:10:12.120316 13811 net.cpp:129] Top shape: 1 512 45 45 (1036800)
I0715 16:10:12.120321 13811 net.cpp:137] Memory required for data: 1196457228
I0715 16:10:12.120326 13811 layer_factory.hpp:77] Creating layer conv5_3
I0715 16:10:12.120352 13811 net.cpp:84] Creating Layer conv5_3
I0715 16:10:12.120358 13811 net.cpp:406] conv5_3 <- conv5_2
I0715 16:10:12.120369 13811 net.cpp:380] conv5_3 -> conv5_3
I0715 16:10:12.136524 13811 net.cpp:122] Setting up conv5_3
I0715 16:10:12.136548 13811 net.cpp:129] Top shape: 1 512 45 45 (1036800)
I0715 16:10:12.136553 13811 net.cpp:137] Memory required for data: 1200604428
I0715 16:10:12.136562 13811 layer_factory.hpp:77] Creating layer relu5_3
I0715 16:10:12.136585 13811 net.cpp:84] Creating Layer relu5_3
I0715 16:10:12.136590 13811 net.cpp:406] relu5_3 <- conv5_3
I0715 16:10:12.136598 13811 net.cpp:367] relu5_3 -> conv5_3 (in-place)
I0715 16:10:12.136840 13811 net.cpp:122] Setting up relu5_3
I0715 16:10:12.136853 13811 net.cpp:129] Top shape: 1 512 45 45 (1036800)
I0715 16:10:12.136857 13811 net.cpp:137] Memory required for data: 1204751628
I0715 16:10:12.136862 13811 layer_factory.hpp:77] Creating layer pool5
I0715 16:10:12.136873 13811 net.cpp:84] Creating Layer pool5
I0715 16:10:12.136878 13811 net.cpp:406] pool5 <- conv5_3
I0715 16:10:12.136884 13811 net.cpp:380] pool5 -> pool5
I0715 16:10:12.136942 13811 net.cpp:122] Setting up pool5
I0715 16:10:12.136952 13811 net.cpp:129] Top shape: 1 512 23 23 (270848)
I0715 16:10:12.136957 13811 net.cpp:137] Memory required for data: 1205835020
I0715 16:10:12.136963 13811 layer_factory.hpp:77] Creating layer fc6
I0715 16:10:12.136976 13811 net.cpp:84] Creating Layer fc6
I0715 16:10:12.136981 13811 net.cpp:406] fc6 <- pool5
I0715 16:10:12.136988 13811 net.cpp:380] fc6 -> fc6
I0715 16:10:12.454900 13811 net.cpp:122] Setting up fc6
I0715 16:10:12.454936 13811 net.cpp:129] Top shape: 1 4096 17 17 (1183744)
I0715 16:10:12.454941 13811 net.cpp:137] Memory required for data: 1210569996
I0715 16:10:12.454953 13811 layer_factory.hpp:77] Creating layer relu6
I0715 16:10:12.454967 13811 net.cpp:84] Creating Layer relu6
I0715 16:10:12.454973 13811 net.cpp:406] relu6 <- fc6
I0715 16:10:12.454982 13811 net.cpp:367] relu6 -> fc6 (in-place)
I0715 16:10:12.455231 13811 net.cpp:122] Setting up relu6
I0715 16:10:12.455243 13811 net.cpp:129] Top shape: 1 4096 17 17 (1183744)
I0715 16:10:12.455248 13811 net.cpp:137] Memory required for data: 1215304972
I0715 16:10:12.455252 13811 layer_factory.hpp:77] Creating layer drop6
I0715 16:10:12.455273 13811 net.cpp:84] Creating Layer drop6
I0715 16:10:12.455297 13811 net.cpp:406] drop6 <- fc6
I0715 16:10:12.455305 13811 net.cpp:367] drop6 -> fc6 (in-place)
I0715 16:10:12.455358 13811 net.cpp:122] Setting up drop6
I0715 16:10:12.455370 13811 net.cpp:129] Top shape: 1 4096 17 17 (1183744)
I0715 16:10:12.455374 13811 net.cpp:137] Memory required for data: 1220039948
I0715 16:10:12.455379 13811 layer_factory.hpp:77] Creating layer fc7
I0715 16:10:12.455391 13811 net.cpp:84] Creating Layer fc7
I0715 16:10:12.455395 13811 net.cpp:406] fc7 <- fc6
I0715 16:10:12.455405 13811 net.cpp:380] fc7 -> fc7
I0715 16:10:12.515166 13811 net.cpp:122] Setting up fc7
I0715 16:10:12.515203 13811 net.cpp:129] Top shape: 1 4096 17 17 (1183744)
I0715 16:10:12.515209 13811 net.cpp:137] Memory required for data: 1224774924
I0715 16:10:12.515226 13811 layer_factory.hpp:77] Creating layer relu7
I0715 16:10:12.515245 13811 net.cpp:84] Creating Layer relu7
I0715 16:10:12.515252 13811 net.cpp:406] relu7 <- fc7
I0715 16:10:12.515264 13811 net.cpp:367] relu7 -> fc7 (in-place)
I0715 16:10:12.516090 13811 net.cpp:122] Setting up relu7
I0715 16:10:12.516108 13811 net.cpp:129] Top shape: 1 4096 17 17 (1183744)
I0715 16:10:12.516113 13811 net.cpp:137] Memory required for data: 1229509900
I0715 16:10:12.516118 13811 layer_factory.hpp:77] Creating layer drop7
I0715 16:10:12.516125 13811 net.cpp:84] Creating Layer drop7
I0715 16:10:12.516130 13811 net.cpp:406] drop7 <- fc7
I0715 16:10:12.516139 13811 net.cpp:367] drop7 -> fc7 (in-place)
I0715 16:10:12.516175 13811 net.cpp:122] Setting up drop7
I0715 16:10:12.516181 13811 net.cpp:129] Top shape: 1 4096 17 17 (1183744)
I0715 16:10:12.516185 13811 net.cpp:137] Memory required for data: 1234244876
I0715 16:10:12.516189 13811 layer_factory.hpp:77] Creating layer score_fr-new
I0715 16:10:12.516202 13811 net.cpp:84] Creating Layer score_fr-new
I0715 16:10:12.516206 13811 net.cpp:406] score_fr-new <- fc7
I0715 16:10:12.516216 13811 net.cpp:380] score_fr-new -> score_fr-new
I0715 16:10:12.517805 13811 net.cpp:122] Setting up score_fr-new
I0715 16:10:12.517822 13811 net.cpp:129] Top shape: 1 3 17 17 (867)
I0715 16:10:12.517827 13811 net.cpp:137] Memory required for data: 1234248344
I0715 16:10:12.517840 13811 layer_factory.hpp:77] Creating layer upscore2-new
I0715 16:10:12.517863 13811 net.cpp:84] Creating Layer upscore2-new
I0715 16:10:12.517868 13811 net.cpp:406] upscore2-new <- score_fr-new
I0715 16:10:12.517876 13811 net.cpp:380] upscore2-new -> upscore2-new
I0715 16:10:12.518143 13811 net.cpp:122] Setting up upscore2-new
I0715 16:10:12.518153 13811 net.cpp:129] Top shape: 1 3 36 36 (3888)
I0715 16:10:12.518157 13811 net.cpp:137] Memory required for data: 1234263896
I0715 16:10:12.518172 13811 layer_factory.hpp:77] Creating layer upscore2-new_upscore2-new_0_split
I0715 16:10:12.518179 13811 net.cpp:84] Creating Layer upscore2-new_upscore2-new_0_split
I0715 16:10:12.518183 13811 net.cpp:406] upscore2-new_upscore2-new_0_split <- upscore2-new
I0715 16:10:12.518193 13811 net.cpp:380] upscore2-new_upscore2-new_0_split -> upscore2-new_upscore2-new_0_split_0
I0715 16:10:12.518199 13811 net.cpp:380] upscore2-new_upscore2-new_0_split -> upscore2-new_upscore2-new_0_split_1
I0715 16:10:12.518245 13811 net.cpp:122] Setting up upscore2-new_upscore2-new_0_split
I0715 16:10:12.518251 13811 net.cpp:129] Top shape: 1 3 36 36 (3888)
I0715 16:10:12.518257 13811 net.cpp:129] Top shape: 1 3 36 36 (3888)
I0715 16:10:12.518261 13811 net.cpp:137] Memory required for data: 1234295000
I0715 16:10:12.518265 13811 layer_factory.hpp:77] Creating layer score_pool4-new
I0715 16:10:12.518275 13811 net.cpp:84] Creating Layer score_pool4-new
I0715 16:10:12.518280 13811 net.cpp:406] score_pool4-new <- pool4_pool4_0_split_1
I0715 16:10:12.518286 13811 net.cpp:380] score_pool4-new -> score_pool4-new
I0715 16:10:12.519891 13811 net.cpp:122] Setting up score_pool4-new
I0715 16:10:12.519907 13811 net.cpp:129] Top shape: 1 3 45 45 (6075)
I0715 16:10:12.519912 13811 net.cpp:137] Memory required for data: 1234319300
I0715 16:10:12.519922 13811 layer_factory.hpp:77] Creating layer score_pool4c
I0715 16:10:12.519944 13811 net.cpp:84] Creating Layer score_pool4c
I0715 16:10:12.519949 13811 net.cpp:406] score_pool4c <- score_pool4-new
I0715 16:10:12.519955 13811 net.cpp:406] score_pool4c <- upscore2-new_upscore2-new_0_split_0
I0715 16:10:12.519963 13811 net.cpp:380] score_pool4c -> score_pool4c
I0715 16:10:12.520004 13811 net.cpp:122] Setting up score_pool4c
I0715 16:10:12.520016 13811 net.cpp:129] Top shape: 1 3 36 36 (3888)
I0715 16:10:12.520020 13811 net.cpp:137] Memory required for data: 1234334852
I0715 16:10:12.520025 13811 layer_factory.hpp:77] Creating layer fuse_pool4
I0715 16:10:12.520036 13811 net.cpp:84] Creating Layer fuse_pool4
I0715 16:10:12.520040 13811 net.cpp:406] fuse_pool4 <- upscore2-new_upscore2-new_0_split_1
I0715 16:10:12.520045 13811 net.cpp:406] fuse_pool4 <- score_pool4c
I0715 16:10:12.520054 13811 net.cpp:380] fuse_pool4 -> fuse_pool4
I0715 16:10:12.520087 13811 net.cpp:122] Setting up fuse_pool4
I0715 16:10:12.520092 13811 net.cpp:129] Top shape: 1 3 36 36 (3888)
I0715 16:10:12.520097 13811 net.cpp:137] Memory required for data: 1234350404
I0715 16:10:12.520100 13811 layer_factory.hpp:77] Creating layer upscore_pool4-new
I0715 16:10:12.520110 13811 net.cpp:84] Creating Layer upscore_pool4-new
I0715 16:10:12.520117 13811 net.cpp:406] upscore_pool4-new <- fuse_pool4
I0715 16:10:12.520123 13811 net.cpp:380] upscore_pool4-new -> upscore_pool4-new
I0715 16:10:12.520361 13811 net.cpp:122] Setting up upscore_pool4-new
I0715 16:10:12.520371 13811 net.cpp:129] Top shape: 1 3 74 74 (16428)
I0715 16:10:12.520375 13811 net.cpp:137] Memory required for data: 1234416116
I0715 16:10:12.520381 13811 layer_factory.hpp:77] Creating layer upscore_pool4-new_upscore_pool4-new_0_split
I0715 16:10:12.520388 13811 net.cpp:84] Creating Layer upscore_pool4-new_upscore_pool4-new_0_split
I0715 16:10:12.520392 13811 net.cpp:406] upscore_pool4-new_upscore_pool4-new_0_split <- upscore_pool4-new
I0715 16:10:12.520402 13811 net.cpp:380] upscore_pool4-new_upscore_pool4-new_0_split -> upscore_pool4-new_upscore_pool4-new_0_split_0
I0715 16:10:12.520409 13811 net.cpp:380] upscore_pool4-new_upscore_pool4-new_0_split -> upscore_pool4-new_upscore_pool4-new_0_split_1
I0715 16:10:12.520450 13811 net.cpp:122] Setting up upscore_pool4-new_upscore_pool4-new_0_split
I0715 16:10:12.520465 13811 net.cpp:129] Top shape: 1 3 74 74 (16428)
I0715 16:10:12.520470 13811 net.cpp:129] Top shape: 1 3 74 74 (16428)
I0715 16:10:12.520475 13811 net.cpp:137] Memory required for data: 1234547540
I0715 16:10:12.520478 13811 layer_factory.hpp:77] Creating layer score_pool3-new
I0715 16:10:12.520493 13811 net.cpp:84] Creating Layer score_pool3-new
I0715 16:10:12.520498 13811 net.cpp:406] score_pool3-new <- pool3_pool3_0_split_1
I0715 16:10:12.520504 13811 net.cpp:380] score_pool3-new -> score_pool3-new
I0715 16:10:12.522073 13811 net.cpp:122] Setting up score_pool3-new
I0715 16:10:12.522091 13811 net.cpp:129] Top shape: 1 3 89 89 (23763)
I0715 16:10:12.522095 13811 net.cpp:137] Memory required for data: 1234642592
I0715 16:10:12.522115 13811 layer_factory.hpp:77] Creating layer score_pool3c
I0715 16:10:12.522123 13811 net.cpp:84] Creating Layer score_pool3c
I0715 16:10:12.522128 13811 net.cpp:406] score_pool3c <- score_pool3-new
I0715 16:10:12.522135 13811 net.cpp:406] score_pool3c <- upscore_pool4-new_upscore_pool4-new_0_split_0
I0715 16:10:12.522143 13811 net.cpp:380] score_pool3c -> score_pool3c
I0715 16:10:12.522178 13811 net.cpp:122] Setting up score_pool3c
I0715 16:10:12.522195 13811 net.cpp:129] Top shape: 1 3 74 74 (16428)
I0715 16:10:12.522199 13811 net.cpp:137] Memory required for data: 1234708304
I0715 16:10:12.522203 13811 layer_factory.hpp:77] Creating layer fuse_pool3
I0715 16:10:12.522210 13811 net.cpp:84] Creating Layer fuse_pool3
I0715 16:10:12.522214 13811 net.cpp:406] fuse_pool3 <- upscore_pool4-new_upscore_pool4-new_0_split_1
I0715 16:10:12.522220 13811 net.cpp:406] fuse_pool3 <- score_pool3c
I0715 16:10:12.522227 13811 net.cpp:380] fuse_pool3 -> fuse_pool3
I0715 16:10:12.522256 13811 net.cpp:122] Setting up fuse_pool3
I0715 16:10:12.522264 13811 net.cpp:129] Top shape: 1 3 74 74 (16428)
I0715 16:10:12.522267 13811 net.cpp:137] Memory required for data: 1234774016
I0715 16:10:12.522270 13811 layer_factory.hpp:77] Creating layer upscore8-new
I0715 16:10:12.522279 13811 net.cpp:84] Creating Layer upscore8-new
I0715 16:10:12.522284 13811 net.cpp:406] upscore8-new <- fuse_pool3
I0715 16:10:12.522292 13811 net.cpp:380] upscore8-new -> upscore8-new
I0715 16:10:12.522542 13811 net.cpp:122] Setting up upscore8-new
I0715 16:10:12.522552 13811 net.cpp:129] Top shape: 1 3 600 600 (1080000)
I0715 16:10:12.522557 13811 net.cpp:137] Memory required for data: 1239094016
I0715 16:10:12.522562 13811 layer_factory.hpp:77] Creating layer upscore8_cropped
I0715 16:10:12.522573 13811 net.cpp:84] Creating Layer upscore8_cropped
I0715 16:10:12.522578 13811 net.cpp:406] upscore8_cropped <- upscore8-new
I0715 16:10:12.522583 13811 net.cpp:406] upscore8_cropped <- data_data_0_split_1
I0715 16:10:12.522589 13811 net.cpp:380] upscore8_cropped -> upscore8_cropped
I0715 16:10:12.522616 13811 net.cpp:122] Setting up upscore8_cropped
I0715 16:10:12.522624 13811 net.cpp:129] Top shape: 1 3 512 512 (786432)
I0715 16:10:12.522626 13811 net.cpp:137] Memory required for data: 1242239744
I0715 16:10:12.522632 13811 layer_factory.hpp:77] Creating layer upscore8_cropped_upscore8_cropped_0_split
I0715 16:10:12.522639 13811 net.cpp:84] Creating Layer upscore8_cropped_upscore8_cropped_0_split
I0715 16:10:12.522642 13811 net.cpp:406] upscore8_cropped_upscore8_cropped_0_split <- upscore8_cropped
I0715 16:10:12.522651 13811 net.cpp:380] upscore8_cropped_upscore8_cropped_0_split -> upscore8_cropped_upscore8_cropped_0_split_0
I0715 16:10:12.522658 13811 net.cpp:380] upscore8_cropped_upscore8_cropped_0_split -> upscore8_cropped_upscore8_cropped_0_split_1
I0715 16:10:12.522699 13811 net.cpp:122] Setting up upscore8_cropped_upscore8_cropped_0_split
I0715 16:10:12.522706 13811 net.cpp:129] Top shape: 1 3 512 512 (786432)
I0715 16:10:12.522711 13811 net.cpp:129] Top shape: 1 3 512 512 (786432)
I0715 16:10:12.522716 13811 net.cpp:137] Memory required for data: 1248531200
I0715 16:10:12.522719 13811 layer_factory.hpp:77] Creating layer prob
I0715 16:10:12.522727 13811 net.cpp:84] Creating Layer prob
I0715 16:10:12.522732 13811 net.cpp:406] prob <- upscore8_cropped_upscore8_cropped_0_split_0
I0715 16:10:12.522738 13811 net.cpp:380] prob -> prob
I0715 16:10:12.522985 13811 net.cpp:122] Setting up prob
I0715 16:10:12.522997 13811 net.cpp:129] Top shape: 1 3 512 512 (786432)
I0715 16:10:12.523001 13811 net.cpp:137] Memory required for data: 1251676928
I0715 16:10:12.523005 13811 layer_factory.hpp:77] Creating layer saliency1
I0715 16:10:12.523020 13811 net.cpp:84] Creating Layer saliency1
I0715 16:10:12.523025 13811 net.cpp:406] saliency1 <- prob
I0715 16:10:12.523032 13811 net.cpp:380] saliency1 -> saliency1
I0715 16:10:12.527422 13811 net.cpp:122] Setting up saliency1
I0715 16:10:12.527441 13811 net.cpp:129] Top shape: 1 3 512 512 (786432)
I0715 16:10:12.527446 13811 net.cpp:137] Memory required for data: 1254822656
I0715 16:10:12.527456 13811 layer_factory.hpp:77] Creating layer relu_saliency1
I0715 16:10:12.527464 13811 net.cpp:84] Creating Layer relu_saliency1
I0715 16:10:12.527482 13811 net.cpp:406] relu_saliency1 <- saliency1
I0715 16:10:12.527487 13811 net.cpp:367] relu_saliency1 -> saliency1 (in-place)
I0715 16:10:12.527734 13811 net.cpp:122] Setting up relu_saliency1
I0715 16:10:12.527747 13811 net.cpp:129] Top shape: 1 3 512 512 (786432)
I0715 16:10:12.527751 13811 net.cpp:137] Memory required for data: 1257968384
I0715 16:10:12.527758 13811 layer_factory.hpp:77] Creating layer saliency
I0715 16:10:12.527773 13811 net.cpp:84] Creating Layer saliency
I0715 16:10:12.527778 13811 net.cpp:406] saliency <- saliency1
I0715 16:10:12.527786 13811 net.cpp:380] saliency -> saliency
I0715 16:10:12.530117 13811 net.cpp:122] Setting up saliency
I0715 16:10:12.530134 13811 net.cpp:129] Top shape: 1 3 512 512 (786432)
I0715 16:10:12.530139 13811 net.cpp:137] Memory required for data: 1261114112
I0715 16:10:12.530148 13811 layer_factory.hpp:77] Creating layer silence_saliency
I0715 16:10:12.530159 13811 net.cpp:84] Creating Layer silence_saliency
I0715 16:10:12.530164 13811 net.cpp:406] silence_saliency <- saliency
I0715 16:10:12.530172 13811 net.cpp:122] Setting up silence_saliency
I0715 16:10:12.530175 13811 net.cpp:137] Memory required for data: 1261114112
I0715 16:10:12.530179 13811 layer_factory.hpp:77] Creating layer crop
I0715 16:10:12.530659 13811 net.cpp:84] Creating Layer crop
I0715 16:10:12.530673 13811 net.cpp:406] crop <- label_data_1_split_0
I0715 16:10:12.530679 13811 net.cpp:406] crop <- data_data_0_split_2
I0715 16:10:12.530685 13811 net.cpp:406] crop <- crop_margin
I0715 16:10:12.530690 13811 net.cpp:406] crop <- crop_prob
I0715 16:10:12.530695 13811 net.cpp:406] crop <- crop_sample_batch
I0715 16:10:12.530701 13811 net.cpp:380] crop -> data-R
I0715 16:10:12.530711 13811 net.cpp:380] crop -> crop_info
I0715 16:10:12.542997 13811 net.cpp:122] Setting up crop
I0715 16:10:12.543020 13811 net.cpp:129] Top shape: 1 3 512 512 (786432)
I0715 16:10:12.543026 13811 net.cpp:129] Top shape: 1 2 4 (8)
I0715 16:10:12.543031 13811 net.cpp:137] Memory required for data: 1264259872
I0715 16:10:12.543037 13811 layer_factory.hpp:77] Creating layer data-R_crop_0_split
I0715 16:10:12.543046 13811 net.cpp:84] Creating Layer data-R_crop_0_split
I0715 16:10:12.543053 13811 net.cpp:406] data-R_crop_0_split <- data-R
I0715 16:10:12.543061 13811 net.cpp:380] data-R_crop_0_split -> data-R_crop_0_split_0
I0715 16:10:12.543071 13811 net.cpp:380] data-R_crop_0_split -> data-R_crop_0_split_1
I0715 16:10:12.543118 13811 net.cpp:122] Setting up data-R_crop_0_split
I0715 16:10:12.543125 13811 net.cpp:129] Top shape: 1 3 512 512 (786432)
I0715 16:10:12.543131 13811 net.cpp:129] Top shape: 1 3 512 512 (786432)
I0715 16:10:12.543135 13811 net.cpp:137] Memory required for data: 1270551328
I0715 16:10:12.543143 13811 layer_factory.hpp:77] Creating layer conv1_1-R
I0715 16:10:12.543153 13811 net.cpp:84] Creating Layer conv1_1-R
I0715 16:10:12.543157 13811 net.cpp:406] conv1_1-R <- data-R_crop_0_split_0
I0715 16:10:12.543164 13811 net.cpp:380] conv1_1-R -> conv1_1-R
I0715 16:10:12.547592 13811 net.cpp:122] Setting up conv1_1-R
I0715 16:10:12.547612 13811 net.cpp:129] Top shape: 1 64 710 710 (32262400)
I0715 16:10:12.547622 13811 net.cpp:137] Memory required for data: 1399600928
I0715 16:10:12.547633 13811 layer_factory.hpp:77] Creating layer relu1_1-R
I0715 16:10:12.547662 13811 net.cpp:84] Creating Layer relu1_1-R
I0715 16:10:12.547667 13811 net.cpp:406] relu1_1-R <- conv1_1-R
I0715 16:10:12.547674 13811 net.cpp:367] relu1_1-R -> conv1_1-R (in-place)
I0715 16:10:12.547929 13811 net.cpp:122] Setting up relu1_1-R
I0715 16:10:12.547942 13811 net.cpp:129] Top shape: 1 64 710 710 (32262400)
I0715 16:10:12.547947 13811 net.cpp:137] Memory required for data: 1528650528
I0715 16:10:12.547953 13811 layer_factory.hpp:77] Creating layer conv1_2-R
I0715 16:10:12.547965 13811 net.cpp:84] Creating Layer conv1_2-R
I0715 16:10:12.547969 13811 net.cpp:406] conv1_2-R <- conv1_1-R
I0715 16:10:12.547977 13811 net.cpp:380] conv1_2-R -> conv1_2-R
I0715 16:10:12.551813 13811 net.cpp:122] Setting up conv1_2-R
I0715 16:10:12.551833 13811 net.cpp:129] Top shape: 1 64 710 710 (32262400)
I0715 16:10:12.551839 13811 net.cpp:137] Memory required for data: 1657700128
I0715 16:10:12.551849 13811 layer_factory.hpp:77] Creating layer relu1_2-R
I0715 16:10:12.551863 13811 net.cpp:84] Creating Layer relu1_2-R
I0715 16:10:12.551869 13811 net.cpp:406] relu1_2-R <- conv1_2-R
I0715 16:10:12.551877 13811 net.cpp:367] relu1_2-R -> conv1_2-R (in-place)
I0715 16:10:12.552729 13811 net.cpp:122] Setting up relu1_2-R
I0715 16:10:12.552747 13811 net.cpp:129] Top shape: 1 64 710 710 (32262400)
I0715 16:10:12.552753 13811 net.cpp:137] Memory required for data: 1786749728
I0715 16:10:12.552762 13811 layer_factory.hpp:77] Creating layer pool1-R
I0715 16:10:12.552774 13811 net.cpp:84] Creating Layer pool1-R
I0715 16:10:12.552779 13811 net.cpp:406] pool1-R <- conv1_2-R
I0715 16:10:12.552789 13811 net.cpp:380] pool1-R -> pool1-R
I0715 16:10:12.552853 13811 net.cpp:122] Setting up pool1-R
I0715 16:10:12.552865 13811 net.cpp:129] Top shape: 1 64 355 355 (8065600)
I0715 16:10:12.552870 13811 net.cpp:137] Memory required for data: 1819012128
I0715 16:10:12.552873 13811 layer_factory.hpp:77] Creating layer conv2_1-R
I0715 16:10:12.552883 13811 net.cpp:84] Creating Layer conv2_1-R
I0715 16:10:12.552888 13811 net.cpp:406] conv2_1-R <- pool1-R
I0715 16:10:12.552896 13811 net.cpp:380] conv2_1-R -> conv2_1-R
I0715 16:10:12.554725 13811 net.cpp:122] Setting up conv2_1-R
I0715 16:10:12.554744 13811 net.cpp:129] Top shape: 1 128 355 355 (16131200)
I0715 16:10:12.554749 13811 net.cpp:137] Memory required for data: 1883536928
I0715 16:10:12.554769 13811 layer_factory.hpp:77] Creating layer relu2_1-R
I0715 16:10:12.554776 13811 net.cpp:84] Creating Layer relu2_1-R
I0715 16:10:12.554782 13811 net.cpp:406] relu2_1-R <- conv2_1-R
I0715 16:10:12.554790 13811 net.cpp:367] relu2_1-R -> conv2_1-R (in-place)
I0715 16:10:12.555655 13811 net.cpp:122] Setting up relu2_1-R
I0715 16:10:12.555671 13811 net.cpp:129] Top shape: 1 128 355 355 (16131200)
I0715 16:10:12.555676 13811 net.cpp:137] Memory required for data: 1948061728
I0715 16:10:12.555681 13811 layer_factory.hpp:77] Creating layer conv2_2-R
I0715 16:10:12.555696 13811 net.cpp:84] Creating Layer conv2_2-R
I0715 16:10:12.555701 13811 net.cpp:406] conv2_2-R <- conv2_1-R
I0715 16:10:12.555708 13811 net.cpp:380] conv2_2-R -> conv2_2-R
I0715 16:10:12.561607 13811 net.cpp:122] Setting up conv2_2-R
I0715 16:10:12.561642 13811 net.cpp:129] Top shape: 1 128 355 355 (16131200)
I0715 16:10:12.561647 13811 net.cpp:137] Memory required for data: 2012586528
I0715 16:10:12.561676 13811 layer_factory.hpp:77] Creating layer relu2_2-R
I0715 16:10:12.561702 13811 net.cpp:84] Creating Layer relu2_2-R
I0715 16:10:12.561717 13811 net.cpp:406] relu2_2-R <- conv2_2-R
I0715 16:10:12.561735 13811 net.cpp:367] relu2_2-R -> conv2_2-R (in-place)
I0715 16:10:12.562252 13811 net.cpp:122] Setting up relu2_2-R
I0715 16:10:12.562263 13811 net.cpp:129] Top shape: 1 128 355 355 (16131200)
I0715 16:10:12.562268 13811 net.cpp:137] Memory required for data: 2077111328
I0715 16:10:12.562273 13811 layer_factory.hpp:77] Creating layer pool2-R
I0715 16:10:12.562288 13811 net.cpp:84] Creating Layer pool2-R
I0715 16:10:12.562292 13811 net.cpp:406] pool2-R <- conv2_2-R
I0715 16:10:12.562305 13811 net.cpp:380] pool2-R -> pool2-R
I0715 16:10:12.562433 13811 net.cpp:122] Setting up pool2-R
I0715 16:10:12.562443 13811 net.cpp:129] Top shape: 1 128 178 178 (4055552)
I0715 16:10:12.562448 13811 net.cpp:137] Memory required for data: 2093333536
I0715 16:10:12.562451 13811 layer_factory.hpp:77] Creating layer conv3_1-R
I0715 16:10:12.562463 13811 net.cpp:84] Creating Layer conv3_1-R
I0715 16:10:12.562469 13811 net.cpp:406] conv3_1-R <- pool2-R
I0715 16:10:12.562475 13811 net.cpp:380] conv3_1-R -> conv3_1-R
I0715 16:10:12.570938 13811 net.cpp:122] Setting up conv3_1-R
I0715 16:10:12.570960 13811 net.cpp:129] Top shape: 1 256 178 178 (8111104)
I0715 16:10:12.570964 13811 net.cpp:137] Memory required for data: 2125777952
I0715 16:10:12.570976 13811 layer_factory.hpp:77] Creating layer relu3_1-R
I0715 16:10:12.570987 13811 net.cpp:84] Creating Layer relu3_1-R
I0715 16:10:12.570993 13811 net.cpp:406] relu3_1-R <- conv3_1-R
I0715 16:10:12.571002 13811 net.cpp:367] relu3_1-R -> conv3_1-R (in-place)
I0715 16:10:12.571251 13811 net.cpp:122] Setting up relu3_1-R
I0715 16:10:12.571264 13811 net.cpp:129] Top shape: 1 256 178 178 (8111104)
I0715 16:10:12.571267 13811 net.cpp:137] Memory required for data: 2158222368
I0715 16:10:12.571316 13811 layer_factory.hpp:77] Creating layer conv3_2-R
I0715 16:10:12.571344 13811 net.cpp:84] Creating Layer conv3_2-R
I0715 16:10:12.571365 13811 net.cpp:406] conv3_2-R <- conv3_1-R
I0715 16:10:12.571377 13811 net.cpp:380] conv3_2-R -> conv3_2-R
I0715 16:10:12.576956 13811 net.cpp:122] Setting up conv3_2-R
I0715 16:10:12.576979 13811 net.cpp:129] Top shape: 1 256 178 178 (8111104)
I0715 16:10:12.576995 13811 net.cpp:137] Memory required for data: 2190666784
I0715 16:10:12.577008 13811 layer_factory.hpp:77] Creating layer relu3_2-R
I0715 16:10:12.577021 13811 net.cpp:84] Creating Layer relu3_2-R
I0715 16:10:12.577028 13811 net.cpp:406] relu3_2-R <- conv3_2-R
I0715 16:10:12.577036 13811 net.cpp:367] relu3_2-R -> conv3_2-R (in-place)
I0715 16:10:12.577350 13811 net.cpp:122] Setting up relu3_2-R
I0715 16:10:12.577366 13811 net.cpp:129] Top shape: 1 256 178 178 (8111104)
I0715 16:10:12.577371 13811 net.cpp:137] Memory required for data: 2223111200
I0715 16:10:12.577378 13811 layer_factory.hpp:77] Creating layer conv3_3-R
I0715 16:10:12.577391 13811 net.cpp:84] Creating Layer conv3_3-R
I0715 16:10:12.577397 13811 net.cpp:406] conv3_3-R <- conv3_2-R
I0715 16:10:12.577409 13811 net.cpp:380] conv3_3-R -> conv3_3-R
I0715 16:10:12.582290 13811 net.cpp:122] Setting up conv3_3-R
I0715 16:10:12.582309 13811 net.cpp:129] Top shape: 1 256 178 178 (8111104)
I0715 16:10:12.582314 13811 net.cpp:137] Memory required for data: 2255555616
I0715 16:10:12.582324 13811 layer_factory.hpp:77] Creating layer relu3_3-R
I0715 16:10:12.582334 13811 net.cpp:84] Creating Layer relu3_3-R
I0715 16:10:12.582339 13811 net.cpp:406] relu3_3-R <- conv3_3-R
I0715 16:10:12.582345 13811 net.cpp:367] relu3_3-R -> conv3_3-R (in-place)
I0715 16:10:12.582585 13811 net.cpp:122] Setting up relu3_3-R
I0715 16:10:12.582599 13811 net.cpp:129] Top shape: 1 256 178 178 (8111104)
I0715 16:10:12.582603 13811 net.cpp:137] Memory required for data: 2288000032
I0715 16:10:12.582610 13811 layer_factory.hpp:77] Creating layer pool3-R
I0715 16:10:12.582620 13811 net.cpp:84] Creating Layer pool3-R
I0715 16:10:12.582625 13811 net.cpp:406] pool3-R <- conv3_3-R
I0715 16:10:12.582633 13811 net.cpp:380] pool3-R -> pool3-R
I0715 16:10:12.582695 13811 net.cpp:122] Setting up pool3-R
I0715 16:10:12.582705 13811 net.cpp:129] Top shape: 1 256 89 89 (2027776)
I0715 16:10:12.582710 13811 net.cpp:137] Memory required for data: 2296111136
I0715 16:10:12.582715 13811 layer_factory.hpp:77] Creating layer pool3-R_pool3-R_0_split
I0715 16:10:12.582721 13811 net.cpp:84] Creating Layer pool3-R_pool3-R_0_split
I0715 16:10:12.582726 13811 net.cpp:406] pool3-R_pool3-R_0_split <- pool3-R
I0715 16:10:12.582734 13811 net.cpp:380] pool3-R_pool3-R_0_split -> pool3-R_pool3-R_0_split_0
I0715 16:10:12.582742 13811 net.cpp:380] pool3-R_pool3-R_0_split -> pool3-R_pool3-R_0_split_1
I0715 16:10:12.582789 13811 net.cpp:122] Setting up pool3-R_pool3-R_0_split
I0715 16:10:12.582800 13811 net.cpp:129] Top shape: 1 256 89 89 (2027776)
I0715 16:10:12.582805 13811 net.cpp:129] Top shape: 1 256 89 89 (2027776)
I0715 16:10:12.582810 13811 net.cpp:137] Memory required for data: 2312333344
I0715 16:10:12.582814 13811 layer_factory.hpp:77] Creating layer conv4_1-R
I0715 16:10:12.582825 13811 net.cpp:84] Creating Layer conv4_1-R
I0715 16:10:12.582829 13811 net.cpp:406] conv4_1-R <- pool3-R_pool3-R_0_split_0
I0715 16:10:12.582840 13811 net.cpp:380] conv4_1-R -> conv4_1-R
I0715 16:10:12.593967 13811 net.cpp:122] Setting up conv4_1-R
I0715 16:10:12.593987 13811 net.cpp:129] Top shape: 1 512 89 89 (4055552)
I0715 16:10:12.593994 13811 net.cpp:137] Memory required for data: 2328555552
I0715 16:10:12.594004 13811 layer_factory.hpp:77] Creating layer relu4_1-R
I0715 16:10:12.594013 13811 net.cpp:84] Creating Layer relu4_1-R
I0715 16:10:12.594018 13811 net.cpp:406] relu4_1-R <- conv4_1-R
I0715 16:10:12.594027 13811 net.cpp:367] relu4_1-R -> conv4_1-R (in-place)
I0715 16:10:12.594841 13811 net.cpp:122] Setting up relu4_1-R
I0715 16:10:12.594857 13811 net.cpp:129] Top shape: 1 512 89 89 (4055552)
I0715 16:10:12.594862 13811 net.cpp:137] Memory required for data: 2344777760
I0715 16:10:12.594868 13811 layer_factory.hpp:77] Creating layer conv4_2-R
I0715 16:10:12.594882 13811 net.cpp:84] Creating Layer conv4_2-R
I0715 16:10:12.594887 13811 net.cpp:406] conv4_2-R <- conv4_1-R
I0715 16:10:12.594897 13811 net.cpp:380] conv4_2-R -> conv4_2-R
I0715 16:10:12.604737 13811 net.cpp:122] Setting up conv4_2-R
I0715 16:10:12.604758 13811 net.cpp:129] Top shape: 1 512 89 89 (4055552)
I0715 16:10:12.604763 13811 net.cpp:137] Memory required for data: 2360999968
I0715 16:10:12.604773 13811 layer_factory.hpp:77] Creating layer relu4_2-R
I0715 16:10:12.604784 13811 net.cpp:84] Creating Layer relu4_2-R
I0715 16:10:12.604789 13811 net.cpp:406] relu4_2-R <- conv4_2-R
I0715 16:10:12.604797 13811 net.cpp:367] relu4_2-R -> conv4_2-R (in-place)
I0715 16:10:12.605633 13811 net.cpp:122] Setting up relu4_2-R
I0715 16:10:12.605649 13811 net.cpp:129] Top shape: 1 512 89 89 (4055552)
I0715 16:10:12.605654 13811 net.cpp:137] Memory required for data: 2377222176
I0715 16:10:12.605659 13811 layer_factory.hpp:77] Creating layer conv4_3-R
I0715 16:10:12.605674 13811 net.cpp:84] Creating Layer conv4_3-R
I0715 16:10:12.605679 13811 net.cpp:406] conv4_3-R <- conv4_2-R
I0715 16:10:12.605691 13811 net.cpp:380] conv4_3-R -> conv4_3-R
I0715 16:10:12.622263 13811 net.cpp:122] Setting up conv4_3-R
I0715 16:10:12.622289 13811 net.cpp:129] Top shape: 1 512 89 89 (4055552)
I0715 16:10:12.622297 13811 net.cpp:137] Memory required for data: 2393444384
I0715 16:10:12.622308 13811 layer_factory.hpp:77] Creating layer relu4_3-R
I0715 16:10:12.622321 13811 net.cpp:84] Creating Layer relu4_3-R
I0715 16:10:12.622328 13811 net.cpp:406] relu4_3-R <- conv4_3-R
I0715 16:10:12.622337 13811 net.cpp:367] relu4_3-R -> conv4_3-R (in-place)
I0715 16:10:12.622623 13811 net.cpp:122] Setting up relu4_3-R
I0715 16:10:12.622638 13811 net.cpp:129] Top shape: 1 512 89 89 (4055552)
I0715 16:10:12.622643 13811 net.cpp:137] Memory required for data: 2409666592
I0715 16:10:12.622653 13811 layer_factory.hpp:77] Creating layer pool4-R
I0715 16:10:12.622668 13811 net.cpp:84] Creating Layer pool4-R
I0715 16:10:12.622673 13811 net.cpp:406] pool4-R <- conv4_3-R
I0715 16:10:12.622687 13811 net.cpp:380] pool4-R -> pool4-R
I0715 16:10:12.622762 13811 net.cpp:122] Setting up pool4-R
I0715 16:10:12.622774 13811 net.cpp:129] Top shape: 1 512 45 45 (1036800)
I0715 16:10:12.622779 13811 net.cpp:137] Memory required for data: 2413813792
I0715 16:10:12.622784 13811 layer_factory.hpp:77] Creating layer pool4-R_pool4-R_0_split
I0715 16:10:12.622797 13811 net.cpp:84] Creating Layer pool4-R_pool4-R_0_split
I0715 16:10:12.622803 13811 net.cpp:406] pool4-R_pool4-R_0_split <- pool4-R
I0715 16:10:12.622812 13811 net.cpp:380] pool4-R_pool4-R_0_split -> pool4-R_pool4-R_0_split_0
I0715 16:10:12.622820 13811 net.cpp:380] pool4-R_pool4-R_0_split -> pool4-R_pool4-R_0_split_1
I0715 16:10:12.622882 13811 net.cpp:122] Setting up pool4-R_pool4-R_0_split
I0715 16:10:12.622894 13811 net.cpp:129] Top shape: 1 512 45 45 (1036800)
I0715 16:10:12.622900 13811 net.cpp:129] Top shape: 1 512 45 45 (1036800)
I0715 16:10:12.622905 13811 net.cpp:137] Memory required for data: 2422108192
I0715 16:10:12.622910 13811 layer_factory.hpp:77] Creating layer conv5_1-R
I0715 16:10:12.622923 13811 net.cpp:84] Creating Layer conv5_1-R
I0715 16:10:12.622930 13811 net.cpp:406] conv5_1-R <- pool4-R_pool4-R_0_split_0
I0715 16:10:12.622939 13811 net.cpp:380] conv5_1-R -> conv5_1-R
I0715 16:10:12.634316 13811 net.cpp:122] Setting up conv5_1-R
I0715 16:10:12.634346 13811 net.cpp:129] Top shape: 1 512 45 45 (1036800)
I0715 16:10:12.634353 13811 net.cpp:137] Memory required for data: 2426255392
I0715 16:10:12.634416 13811 layer_factory.hpp:77] Creating layer relu5_1-R
I0715 16:10:12.634433 13811 net.cpp:84] Creating Layer relu5_1-R
I0715 16:10:12.634441 13811 net.cpp:406] relu5_1-R <- conv5_1-R
I0715 16:10:12.634452 13811 net.cpp:367] relu5_1-R -> conv5_1-R (in-place)
I0715 16:10:12.637565 13811 net.cpp:122] Setting up relu5_1-R
I0715 16:10:12.637603 13811 net.cpp:129] Top shape: 1 512 45 45 (1036800)
I0715 16:10:12.637609 13811 net.cpp:137] Memory required for data: 2430402592
I0715 16:10:12.637620 13811 layer_factory.hpp:77] Creating layer conv5_2-R
I0715 16:10:12.637639 13811 net.cpp:84] Creating Layer conv5_2-R
I0715 16:10:12.637646 13811 net.cpp:406] conv5_2-R <- conv5_1-R
I0715 16:10:12.637663 13811 net.cpp:380] conv5_2-R -> conv5_2-R
I0715 16:10:12.648010 13811 net.cpp:122] Setting up conv5_2-R
I0715 16:10:12.648036 13811 net.cpp:129] Top shape: 1 512 45 45 (1036800)
I0715 16:10:12.648041 13811 net.cpp:137] Memory required for data: 2434549792
I0715 16:10:12.648052 13811 layer_factory.hpp:77] Creating layer relu5_2-R
I0715 16:10:12.648068 13811 net.cpp:84] Creating Layer relu5_2-R
I0715 16:10:12.648075 13811 net.cpp:406] relu5_2-R <- conv5_2-R
I0715 16:10:12.648083 13811 net.cpp:367] relu5_2-R -> conv5_2-R (in-place)
I0715 16:10:12.648362 13811 net.cpp:122] Setting up relu5_2-R
I0715 16:10:12.648376 13811 net.cpp:129] Top shape: 1 512 45 45 (1036800)
I0715 16:10:12.648381 13811 net.cpp:137] Memory required for data: 2438696992
I0715 16:10:12.648386 13811 layer_factory.hpp:77] Creating layer conv5_3-R
I0715 16:10:12.648402 13811 net.cpp:84] Creating Layer conv5_3-R
I0715 16:10:12.648408 13811 net.cpp:406] conv5_3-R <- conv5_2-R
I0715 16:10:12.648419 13811 net.cpp:380] conv5_3-R -> conv5_3-R
I0715 16:10:12.661350 13811 net.cpp:122] Setting up conv5_3-R
I0715 16:10:12.661381 13811 net.cpp:129] Top shape: 1 512 45 45 (1036800)
I0715 16:10:12.661387 13811 net.cpp:137] Memory required for data: 2442844192
I0715 16:10:12.661396 13811 layer_factory.hpp:77] Creating layer relu5_3-R
I0715 16:10:12.661407 13811 net.cpp:84] Creating Layer relu5_3-R
I0715 16:10:12.661413 13811 net.cpp:406] relu5_3-R <- conv5_3-R
I0715 16:10:12.661422 13811 net.cpp:367] relu5_3-R -> conv5_3-R (in-place)
I0715 16:10:12.661664 13811 net.cpp:122] Setting up relu5_3-R
I0715 16:10:12.661676 13811 net.cpp:129] Top shape: 1 512 45 45 (1036800)
I0715 16:10:12.661680 13811 net.cpp:137] Memory required for data: 2446991392
I0715 16:10:12.661687 13811 layer_factory.hpp:77] Creating layer pool5-R
I0715 16:10:12.661700 13811 net.cpp:84] Creating Layer pool5-R
I0715 16:10:12.661705 13811 net.cpp:406] pool5-R <- conv5_3-R
I0715 16:10:12.661716 13811 net.cpp:380] pool5-R -> pool5-R
I0715 16:10:12.661779 13811 net.cpp:122] Setting up pool5-R
I0715 16:10:12.661789 13811 net.cpp:129] Top shape: 1 512 23 23 (270848)
I0715 16:10:12.661793 13811 net.cpp:137] Memory required for data: 2448074784
I0715 16:10:12.661798 13811 layer_factory.hpp:77] Creating layer fc6-R
I0715 16:10:12.661809 13811 net.cpp:84] Creating Layer fc6-R
I0715 16:10:12.661814 13811 net.cpp:406] fc6-R <- pool5-R
I0715 16:10:12.661824 13811 net.cpp:380] fc6-R -> fc6-R
I0715 16:10:12.973357 13811 net.cpp:122] Setting up fc6-R
I0715 16:10:12.973395 13811 net.cpp:129] Top shape: 1 4096 17 17 (1183744)
I0715 16:10:12.973402 13811 net.cpp:137] Memory required for data: 2452809760
I0715 16:10:12.973414 13811 layer_factory.hpp:77] Creating layer relu6-R
I0715 16:10:12.973428 13811 net.cpp:84] Creating Layer relu6-R
I0715 16:10:12.973436 13811 net.cpp:406] relu6-R <- fc6-R
I0715 16:10:12.973445 13811 net.cpp:367] relu6-R -> fc6-R (in-place)
I0715 16:10:12.974309 13811 net.cpp:122] Setting up relu6-R
I0715 16:10:12.974328 13811 net.cpp:129] Top shape: 1 4096 17 17 (1183744)
I0715 16:10:12.974333 13811 net.cpp:137] Memory required for data: 2457544736
I0715 16:10:12.974337 13811 layer_factory.hpp:77] Creating layer drop6-R
I0715 16:10:12.974350 13811 net.cpp:84] Creating Layer drop6-R
I0715 16:10:12.974355 13811 net.cpp:406] drop6-R <- fc6-R
I0715 16:10:12.974364 13811 net.cpp:367] drop6-R -> fc6-R (in-place)
I0715 16:10:12.974404 13811 net.cpp:122] Setting up drop6-R
I0715 16:10:12.974417 13811 net.cpp:129] Top shape: 1 4096 17 17 (1183744)
I0715 16:10:12.974421 13811 net.cpp:137] Memory required for data: 2462279712
I0715 16:10:12.974426 13811 layer_factory.hpp:77] Creating layer fc7-R
I0715 16:10:12.974440 13811 net.cpp:84] Creating Layer fc7-R
I0715 16:10:12.974444 13811 net.cpp:406] fc7-R <- fc6-R
I0715 16:10:12.974457 13811 net.cpp:380] fc7-R -> fc7-R
I0715 16:10:13.030642 13811 net.cpp:122] Setting up fc7-R
I0715 16:10:13.030676 13811 net.cpp:129] Top shape: 1 4096 17 17 (1183744)
I0715 16:10:13.030683 13811 net.cpp:137] Memory required for data: 2467014688
I0715 16:10:13.030697 13811 layer_factory.hpp:77] Creating layer relu7-R
I0715 16:10:13.030716 13811 net.cpp:84] Creating Layer relu7-R
I0715 16:10:13.030724 13811 net.cpp:406] relu7-R <- fc7-R
I0715 16:10:13.030735 13811 net.cpp:367] relu7-R -> fc7-R (in-place)
I0715 16:10:13.031646 13811 net.cpp:122] Setting up relu7-R
I0715 16:10:13.031663 13811 net.cpp:129] Top shape: 1 4096 17 17 (1183744)
I0715 16:10:13.031668 13811 net.cpp:137] Memory required for data: 2471749664
I0715 16:10:13.031673 13811 layer_factory.hpp:77] Creating layer drop7-R
I0715 16:10:13.031684 13811 net.cpp:84] Creating Layer drop7-R
I0715 16:10:13.031700 13811 net.cpp:406] drop7-R <- fc7-R
I0715 16:10:13.031708 13811 net.cpp:367] drop7-R -> fc7-R (in-place)
I0715 16:10:13.031755 13811 net.cpp:122] Setting up drop7-R
I0715 16:10:13.031764 13811 net.cpp:129] Top shape: 1 4096 17 17 (1183744)
I0715 16:10:13.031767 13811 net.cpp:137] Memory required for data: 2476484640
I0715 16:10:13.031771 13811 layer_factory.hpp:77] Creating layer score_fr-new-R
I0715 16:10:13.031782 13811 net.cpp:84] Creating Layer score_fr-new-R
I0715 16:10:13.031787 13811 net.cpp:406] score_fr-new-R <- fc7-R
I0715 16:10:13.031798 13811 net.cpp:380] score_fr-new-R -> score_fr-new-R
I0715 16:10:13.033565 13811 net.cpp:122] Setting up score_fr-new-R
I0715 16:10:13.033581 13811 net.cpp:129] Top shape: 1 3 17 17 (867)
I0715 16:10:13.033594 13811 net.cpp:137] Memory required for data: 2476488108
I0715 16:10:13.033603 13811 layer_factory.hpp:77] Creating layer upscore2-new-R
I0715 16:10:13.033614 13811 net.cpp:84] Creating Layer upscore2-new-R
I0715 16:10:13.033619 13811 net.cpp:406] upscore2-new-R <- score_fr-new-R
I0715 16:10:13.033628 13811 net.cpp:380] upscore2-new-R -> upscore2-new-R
I0715 16:10:13.033896 13811 net.cpp:122] Setting up upscore2-new-R
I0715 16:10:13.033907 13811 net.cpp:129] Top shape: 1 3 36 36 (3888)
I0715 16:10:13.033911 13811 net.cpp:137] Memory required for data: 2476503660
I0715 16:10:13.033918 13811 layer_factory.hpp:77] Creating layer upscore2-new-R_upscore2-new-R_0_split
I0715 16:10:13.033926 13811 net.cpp:84] Creating Layer upscore2-new-R_upscore2-new-R_0_split
I0715 16:10:13.033931 13811 net.cpp:406] upscore2-new-R_upscore2-new-R_0_split <- upscore2-new-R
I0715 16:10:13.033937 13811 net.cpp:380] upscore2-new-R_upscore2-new-R_0_split -> upscore2-new-R_upscore2-new-R_0_split_0
I0715 16:10:13.033946 13811 net.cpp:380] upscore2-new-R_upscore2-new-R_0_split -> upscore2-new-R_upscore2-new-R_0_split_1
I0715 16:10:13.033994 13811 net.cpp:122] Setting up upscore2-new-R_upscore2-new-R_0_split
I0715 16:10:13.034009 13811 net.cpp:129] Top shape: 1 3 36 36 (3888)
I0715 16:10:13.034015 13811 net.cpp:129] Top shape: 1 3 36 36 (3888)
I0715 16:10:13.034019 13811 net.cpp:137] Memory required for data: 2476534764
I0715 16:10:13.034024 13811 layer_factory.hpp:77] Creating layer score_pool4-new-R
I0715 16:10:13.034035 13811 net.cpp:84] Creating Layer score_pool4-new-R
I0715 16:10:13.034041 13811 net.cpp:406] score_pool4-new-R <- pool4-R_pool4-R_0_split_1
I0715 16:10:13.034050 13811 net.cpp:380] score_pool4-new-R -> score_pool4-new-R
I0715 16:10:13.036480 13811 net.cpp:122] Setting up score_pool4-new-R
I0715 16:10:13.036500 13811 net.cpp:129] Top shape: 1 3 45 45 (6075)
I0715 16:10:13.036515 13811 net.cpp:137] Memory required for data: 2476559064
I0715 16:10:13.036525 13811 layer_factory.hpp:77] Creating layer score_pool4c-R
I0715 16:10:13.036535 13811 net.cpp:84] Creating Layer score_pool4c-R
I0715 16:10:13.036540 13811 net.cpp:406] score_pool4c-R <- score_pool4-new-R
I0715 16:10:13.036546 13811 net.cpp:406] score_pool4c-R <- upscore2-new-R_upscore2-new-R_0_split_0
I0715 16:10:13.036553 13811 net.cpp:380] score_pool4c-R -> score_pool4c-R
I0715 16:10:13.036593 13811 net.cpp:122] Setting up score_pool4c-R
I0715 16:10:13.036600 13811 net.cpp:129] Top shape: 1 3 36 36 (3888)
I0715 16:10:13.036604 13811 net.cpp:137] Memory required for data: 2476574616
I0715 16:10:13.036608 13811 layer_factory.hpp:77] Creating layer fuse_pool4-R
I0715 16:10:13.036617 13811 net.cpp:84] Creating Layer fuse_pool4-R
I0715 16:10:13.036623 13811 net.cpp:406] fuse_pool4-R <- upscore2-new-R_upscore2-new-R_0_split_1
I0715 16:10:13.036628 13811 net.cpp:406] fuse_pool4-R <- score_pool4c-R
I0715 16:10:13.036634 13811 net.cpp:380] fuse_pool4-R -> fuse_pool4-R
I0715 16:10:13.036666 13811 net.cpp:122] Setting up fuse_pool4-R
I0715 16:10:13.036672 13811 net.cpp:129] Top shape: 1 3 36 36 (3888)
I0715 16:10:13.036676 13811 net.cpp:137] Memory required for data: 2476590168
I0715 16:10:13.036684 13811 layer_factory.hpp:77] Creating layer upscore_pool4-new-R
I0715 16:10:13.036705 13811 net.cpp:84] Creating Layer upscore_pool4-new-R
I0715 16:10:13.036710 13811 net.cpp:406] upscore_pool4-new-R <- fuse_pool4-R
I0715 16:10:13.036720 13811 net.cpp:380] upscore_pool4-new-R -> upscore_pool4-new-R
I0715 16:10:13.036983 13811 net.cpp:122] Setting up upscore_pool4-new-R
I0715 16:10:13.036993 13811 net.cpp:129] Top shape: 1 3 74 74 (16428)
I0715 16:10:13.036998 13811 net.cpp:137] Memory required for data: 2476655880
I0715 16:10:13.037003 13811 layer_factory.hpp:77] Creating layer upscore_pool4-new-R_upscore_pool4-new-R_0_split
I0715 16:10:13.037011 13811 net.cpp:84] Creating Layer upscore_pool4-new-R_upscore_pool4-new-R_0_split
I0715 16:10:13.037016 13811 net.cpp:406] upscore_pool4-new-R_upscore_pool4-new-R_0_split <- upscore_pool4-new-R
I0715 16:10:13.037024 13811 net.cpp:380] upscore_pool4-new-R_upscore_pool4-new-R_0_split -> upscore_pool4-new-R_upscore_pool4-new-R_0_split_0
I0715 16:10:13.037031 13811 net.cpp:380] upscore_pool4-new-R_upscore_pool4-new-R_0_split -> upscore_pool4-new-R_upscore_pool4-new-R_0_split_1
I0715 16:10:13.037077 13811 net.cpp:122] Setting up upscore_pool4-new-R_upscore_pool4-new-R_0_split
I0715 16:10:13.037084 13811 net.cpp:129] Top shape: 1 3 74 74 (16428)
I0715 16:10:13.037091 13811 net.cpp:129] Top shape: 1 3 74 74 (16428)
I0715 16:10:13.037094 13811 net.cpp:137] Memory required for data: 2476787304
I0715 16:10:13.037101 13811 layer_factory.hpp:77] Creating layer score_pool3-new-R
I0715 16:10:13.037111 13811 net.cpp:84] Creating Layer score_pool3-new-R
I0715 16:10:13.037115 13811 net.cpp:406] score_pool3-new-R <- pool3-R_pool3-R_0_split_1
I0715 16:10:13.037122 13811 net.cpp:380] score_pool3-new-R -> score_pool3-new-R
I0715 16:10:13.038151 13811 net.cpp:122] Setting up score_pool3-new-R
I0715 16:10:13.038166 13811 net.cpp:129] Top shape: 1 3 89 89 (23763)
I0715 16:10:13.038172 13811 net.cpp:137] Memory required for data: 2476882356
I0715 16:10:13.038189 13811 layer_factory.hpp:77] Creating layer score_pool3c-R
I0715 16:10:13.038198 13811 net.cpp:84] Creating Layer score_pool3c-R
I0715 16:10:13.038203 13811 net.cpp:406] score_pool3c-R <- score_pool3-new-R
I0715 16:10:13.038209 13811 net.cpp:406] score_pool3c-R <- upscore_pool4-new-R_upscore_pool4-new-R_0_split_0
I0715 16:10:13.038216 13811 net.cpp:380] score_pool3c-R -> score_pool3c-R
I0715 16:10:13.038251 13811 net.cpp:122] Setting up score_pool3c-R
I0715 16:10:13.038259 13811 net.cpp:129] Top shape: 1 3 74 74 (16428)
I0715 16:10:13.038262 13811 net.cpp:137] Memory required for data: 2476948068
I0715 16:10:13.038267 13811 layer_factory.hpp:77] Creating layer fuse_pool3-R
I0715 16:10:13.038277 13811 net.cpp:84] Creating Layer fuse_pool3-R
I0715 16:10:13.038281 13811 net.cpp:406] fuse_pool3-R <- upscore_pool4-new-R_upscore_pool4-new-R_0_split_1
I0715 16:10:13.038287 13811 net.cpp:406] fuse_pool3-R <- score_pool3c-R
I0715 16:10:13.038295 13811 net.cpp:380] fuse_pool3-R -> fuse_pool3-R
I0715 16:10:13.038324 13811 net.cpp:122] Setting up fuse_pool3-R
I0715 16:10:13.038331 13811 net.cpp:129] Top shape: 1 3 74 74 (16428)
I0715 16:10:13.038336 13811 net.cpp:137] Memory required for data: 2477013780
I0715 16:10:13.038339 13811 layer_factory.hpp:77] Creating layer upscore8-new-R
I0715 16:10:13.038347 13811 net.cpp:84] Creating Layer upscore8-new-R
I0715 16:10:13.038352 13811 net.cpp:406] upscore8-new-R <- fuse_pool3-R
I0715 16:10:13.038358 13811 net.cpp:380] upscore8-new-R -> upscore8-new-R
I0715 16:10:13.038628 13811 net.cpp:122] Setting up upscore8-new-R
I0715 16:10:13.038640 13811 net.cpp:129] Top shape: 1 3 600 600 (1080000)
I0715 16:10:13.038643 13811 net.cpp:137] Memory required for data: 2481333780
I0715 16:10:13.038650 13811 layer_factory.hpp:77] Creating layer upscore8_cropped-R
I0715 16:10:13.038658 13811 net.cpp:84] Creating Layer upscore8_cropped-R
I0715 16:10:13.038663 13811 net.cpp:406] upscore8_cropped-R <- upscore8-new-R
I0715 16:10:13.038671 13811 net.cpp:406] upscore8_cropped-R <- data-R_crop_0_split_1
I0715 16:10:13.038677 13811 net.cpp:380] upscore8_cropped-R -> upscore8_cropped-R
I0715 16:10:13.038707 13811 net.cpp:122] Setting up upscore8_cropped-R
I0715 16:10:13.038713 13811 net.cpp:129] Top shape: 1 3 512 512 (786432)
I0715 16:10:13.038717 13811 net.cpp:137] Memory required for data: 2484479508
I0715 16:10:13.038722 13811 layer_factory.hpp:77] Creating layer upscore8_uncropped-R
I0715 16:10:13.039188 13811 net.cpp:84] Creating Layer upscore8_uncropped-R
I0715 16:10:13.039202 13811 net.cpp:406] upscore8_uncropped-R <- crop_info
I0715 16:10:13.039209 13811 net.cpp:406] upscore8_uncropped-R <- upscore8_cropped-R
I0715 16:10:13.039216 13811 net.cpp:406] upscore8_uncropped-R <- data_data_0_split_3
I0715 16:10:13.039228 13811 net.cpp:380] upscore8_uncropped-R -> upscore8_uncropped-R
I0715 16:10:13.041779 13811 net.cpp:122] Setting up upscore8_uncropped-R
I0715 16:10:13.041796 13811 net.cpp:129] Top shape: 1 3 512 512 (786432)
I0715 16:10:13.041801 13811 net.cpp:137] Memory required for data: 2487625236
I0715 16:10:13.041806 13811 layer_factory.hpp:77] Creating layer loss1
I0715 16:10:13.041823 13811 net.cpp:84] Creating Layer loss1
I0715 16:10:13.041828 13811 net.cpp:406] loss1 <- upscore8_cropped_upscore8_cropped_0_split_1
I0715 16:10:13.041836 13811 net.cpp:406] loss1 <- label_data_1_split_1
I0715 16:10:13.041844 13811 net.cpp:380] loss1 -> loss1
…
snapshot_prefix: "/media/Med_2T2/data2/models/snapshots/indiv:1e-5x10,20/FD2:ZI3_1_20180715_091946/train"
test_initialization: false
average_loss: 20
stepvalue: 40000
iter_size: 1
I0715 17:08:51.881250 13811 solver.cpp:77] Creating training net from train_net file: /media/Med_2T2/data2/prototxts/training_I3x10.prototxt
I0715 17:08:51.883445 13811 net.cpp:51] Initializing net from parameters: 
state {
  phase: TRAIN
}
layer {
  name: "data"
  type: "Python"
  top: "data"
  top: "label"
  top: "crop_margin"
  top: "crop_prob"
  top: "crop_sample_batch"
  python_param {
    module: "Data"
    layer: "DataLayer"
  }
}
layer {
  name: "conv1_1"
  type: "Convolution"
  bottom: "data"
  top: "conv1_1"
  param {
    lr_mult: 1
    decay_mult: 1
  }
  param {
    lr_mult: 2
    decay_mult: 0
  }
  convolution_param {
    num_output: 64
    pad: 100
    kernel_size: 3
    stride: 1
  }
}
layer {
  name: "relu1_1"
  type: "ReLU"
  bottom: "conv1_1"
  top: "conv1_1"
}
layer {
  name: "conv1_2"
  type: "Convolution"
  bottom: "conv1_1"
  top: "conv1_2"
  param {
    lr_mult: 1
    decay_mult: 1
  }
  param {
    lr_mult: 2
    decay_mult: 0
  }
  convolution_param {
    num_output: 64
    pad: 1
    kernel_size: 3
    stride: 1
  }
}
layer {
  name: "relu1_2"
  type: "ReLU"
  bottom: "conv1_2"
  top: "conv1_2"
}
layer {
  name: "pool1"
  type: "Pooling"
  bottom: "conv1_2"
  top: "pool1"
  pooling_param {
    pool: MAX
    kernel_size: 2
    stride: 2
  }
}
layer {
  name: "conv2_1"
  type: "Convolution"
  bottom: "pool1"
  top: "conv2_1"
  param {
    lr_mult: 1
    decay_mult: 1
  }
  param {
    lr_mult: 2
    decay_mult: 0
  }
  convolution_param {
    num_output: 128
    pad: 1
    kernel_size: 3
    stride: 1
  }
}
layer {
  name: "relu2_1"
  type: "ReLU"
  bottom: "conv2_1"
  top: "conv2_1"
}
layer {
  name: "conv2_2"
  type: "Convolution"
  bottom: "conv2_1"
  top: "conv2_2"
  param {
    lr_mult: 1
    decay_mult: 1
  }
  param {
    lr_mult: 2
    decay_mult: 0
  }
  convolution_param {
    num_output: 128
    pad: 1
    kernel_size: 3
    stride: 1
  }
}
layer {
  name: "relu2_2"
  type: "ReLU"
  bottom: "conv2_2"
  top: "conv2_2"
}
layer {
  name: "pool2"
  type: "Pooling"
  bottom: "conv2_2"
  top: "pool2"
  pooling_param {
    pool: MAX
    kernel_size: 2
    stride: 2
  }
}
layer {
  name: "conv3_1"
  type: "Convolution"
  bottom: "pool2"
  top: "conv3_1"
  param {
    lr_mult: 1
    decay_mult: 1
  }
  param {
    lr_mult: 2
    decay_mult: 0
  }
  convolution_param {
    num_output: 256
    pad: 1
    kernel_size: 3
    stride: 1
  }
}
layer {
  name: "relu3_1"
  type: "ReLU"
  bottom: "conv3_1"
  top: "conv3_1"
}
layer {
  name: "conv3_2"
  type: "Convolution"
  bottom: "conv3_1"
  top: "conv3_2"
  param {
    lr_mult: 1
    decay_mult: 1
  }
  param {
    lr_mult: 2
    decay_mult: 0
  }
  convolution_param {
    num_output: 256
    pad: 1
    kernel_size: 3
    stride: 1
  }
}
layer {
  name: "relu3_2"
  type: "ReLU"
  bottom: "conv3_2"
  top: "conv3_2"
}
layer {
  name: "conv3_3"
  type: "Convolution"
  bottom: "conv3_2"
  top: "conv3_3"
  param {
    lr_mult: 1
    decay_mult: 1
  }
  param {
    lr_mult: 2
    decay_mult: 0
  }
  convolution_param {
    num_output: 256
    pad: 1
    kernel_size: 3
    stride: 1
  }
}
layer {
  name: "relu3_3"
  type: "ReLU"
  bottom: "conv3_3"
  top: "conv3_3"
}
layer {
  name: "pool3"
  type: "Pooling"
  bottom: "conv3_3"
  top: "pool3"
  pooling_param {
    pool: MAX
    kernel_size: 2
    stride: 2
  }
}
layer {
  name: "conv4_1"
  type: "Convolution"
  bottom: "pool3"
  top: "conv4_1"
  param {
    lr_mult: 1
    decay_mult: 1
  }
  param {
    lr_mult: 2
    decay_mult: 0
  }
  convolution_param {
    num_output: 512
    pad: 1
    kernel_size: 3
    stride: 1
  }
}
layer {
  name: "relu4_1"
  type: "ReLU"
  bottom: "conv4_1"
  top: "conv4_1"
}
layer {
  name: "conv4_2"
  type: "Convolution"
  bottom: "conv4_1"
  top: "conv4_2"
  param {
    lr_mult: 1
    decay_mult: 1
  }
  param {
    lr_mult: 2
    decay_mult: 0
  }
  convolution_param {
    num_output: 512
    pad: 1
    kernel_size: 3
    stride: 1
  }
}
layer {
  name: "relu4_2"
  type: "ReLU"
  bottom: "conv4_2"
  top: "conv4_2"
}
layer {
  name: "conv4_3"
  type: "Convolution"
  bottom: "conv4_2"
  top: "conv4_3"
  param {
    lr_mult: 1
    decay_mult: 1
  }
  param {
    lr_mult: 2
    decay_mult: 0
  }
  convolution_param {
    num_output: 512
    pad: 1
    kernel_size: 3
    stride: 1
  }
}
layer {
  name: "relu4_3"
  type: "ReLU"
  bottom: "conv4_3"
  top: "conv4_3"
}
layer {
  name: "pool4"
  type: "Pooling"
  bottom: "conv4_3"
  top: "pool4"
  pooling_param {
    pool: MAX
    kernel_size: 2
    stride: 2
  }
}
layer {
  name: "conv5_1"
  type: "Convolution"
  bottom: "pool4"
  top: "conv5_1"
  param {
    lr_mult: 1
    decay_mult: 1
  }
  param {
    lr_mult: 2
    decay_mult: 0
  }
  convolution_param {
    num_output: 512
    pad: 1
    kernel_size: 3
    stride: 1
  }
}
layer {
  name: "relu5_1"
  type: "ReLU"
  bottom: "conv5_1"
  top: "conv5_1"
}
layer {
  name: "conv5_2"
  type: "Convolution"
  bottom: "conv5_1"
  top: "conv5_2"
  param {
    lr_mult: 1
    decay_mult: 1
  }
  param {
    lr_mult: 2
    decay_mult: 0
  }
  convolution_param {
    num_output: 512
    pad: 1
    kernel_size: 3
    stride: 1
  }
}
layer {
  name: "relu5_2"
  type: "ReLU"
  bottom: "conv5_2"
  top: "conv5_2"
}
layer {
  name: "conv5_3"
  type: "Convolution"
  bottom: "conv5_2"
  top: "conv5_3"
  param {
    lr_mult: 1
    decay_mult: 1
  }
  param {
    lr_mult: 2
    decay_mult: 0
  }
  convolution_param {
    num_output: 512
    pad: 1
    kernel_size: 3
    stride: 1
  }
}
layer {
  name: "relu5_3"
  type: "ReLU"
  bottom: "conv5_3"
  top: "conv5_3"
}
layer {
  name: "pool5"
  type: "Pooling"
  bottom: "conv5_3"
  top: "pool5"
  pooling_param {
    pool: MAX
    kernel_size: 2
    stride: 2
  }
}
layer {
  name: "fc6"
  type: "Convolution"
  bottom: "pool5"
  top: "fc6"
  param {
    lr_mult: 1
    decay_mult: 1
  }
  param {
    lr_mult: 2
    decay_mult: 0
  }
  convolution_param {
    num_output: 4096
    pad: 0
    kernel_size: 7
    stride: 1
  }
}
layer {
  name: "relu6"
  type: "ReLU"
  bottom: "fc6"
  top: "fc6"
}
layer {
  name: "drop6"
  type: "Dropout"
  bottom: "fc6"
  top: "fc6"
  dropout_param {
    dropout_ratio: 0.5
  }
}
layer {
  name: "fc7"
  type: "Convolution"
  bottom: "fc6"
  top: "fc7"
  param {
    lr_mult: 1
    decay_mult: 1
  }
  param {
    lr_mult: 2
    decay_mult: 0
  }
  convolution_param {
    num_output: 4096
    pad: 0
    kernel_size: 1
    stride: 1
  }
}
layer {
  name: "relu7"
  type: "ReLU"
  bottom: "fc7"
  top: "fc7"
}
layer {
  name: "drop7"
  type: "Dropout"
  bottom: "fc7"
  top: "fc7"
  dropout_param {
    dropout_ratio: 0.5
  }
}
layer {
  name: "score_fr-new"
  type: "Convolution"
  bottom: "fc7"
  top: "score_fr-new"
  param {
    lr_mult: 1
    decay_mult: 1
  }
  param {
    lr_mult: 2
    decay_mult: 0
  }
  convolution_param {
    num_output: 3
    kernel_size: 1
  }
}
layer {
  name: "upscore2-new"
  type: "Deconvolution"
  bottom: "score_fr-new"
  top: "upscore2-new"
  param {
    lr_mult: 0
  }
  convolution_param {
    num_output: 3
    bias_term: false
    kernel_size: 4
    stride: 2
  }
}
layer {
  name: "score_pool4-new"
  type: "Convolution"
  bottom: "pool4"
  top: "score_pool4-new"
  param {
    lr_mult: 1
    decay_mult: 1
  }
  param {
    lr_mult: 2
    decay_mult: 0
  }
  convolution_param {
    num_output: 3
    pad: 0
    kernel_size: 1
  }
}
layer {
  name: "score_pool4c"
  type: "Crop"
  bottom: "score_pool4-new"
  bottom: "upscore2-new"
  top: "score_pool4c"
  crop_param {
    axis: 2
    offset: 5
  }
}
layer {
  name: "fuse_pool4"
  type: "Eltwise"
  bottom: "upscore2-new"
  bottom: "score_pool4c"
  top: "fuse_pool4"
  eltwise_param {
    operation: SUM
  }
}
layer {
  name: "upscore_pool4-new"
  type: "Deconvolution"
  bottom: "fuse_pool4"
  top: "upscore_pool4-new"
  param {
    lr_mult: 0
  }
  convolution_param {
    num_output: 3
    bias_term: false
    kernel_size: 4
    stride: 2
  }
}
layer {
  name: "score_pool3-new"
  type: "Convolution"
  bottom: "pool3"
  top: "score_pool3-new"
  param {
    lr_mult: 1
    decay_mult: 1
  }
  param {
    lr_mult: 2
    decay_mult: 0
  }
  convolution_param {
    num_output: 3
    pad: 0
    kernel_size: 1
  }
}
layer {
  name: "score_pool3c"
  type: "Crop"
  bottom: "score_pool3-new"
  bottom: "upscore_pool4-new"
  top: "score_pool3c"
  crop_param {
    axis: 2
    offset: 9
  }
}
layer {
  name: "fuse_pool3"
  type: "Eltwise"
  bottom: "upscore_pool4-new"
  bottom: "score_pool3c"
  top: "fuse_pool3"
  eltwise_param {
    operation: SUM
  }
}
layer {
  name: "upscore8-new"
  type: "Deconvolution"
  bottom: "fuse_pool3"
  top: "upscore8-new"
  param {
    lr_mult: 0
  }
  convolution_param {
    num_output: 3
    bias_term: false
    kernel_size: 16
    stride: 8
  }
}
layer {
  name: "upscore8_cropped"
  type: "Crop"
  bottom: "upscore8-new"
  bottom: "data"
  top: "upscore8_cropped"
  crop_param {
    axis: 2
    offset: 31
  }
}
layer {
  name: "prob"
  type: "Sigmoid"
  bottom: "upscore8_cropped"
  top: "prob"
}
layer {
  name: "saliency1"
  type: "Convolution"
  bottom: "prob"
  top: "saliency1"
  param {
    lr_mult: 10
    decay_mult: 1
  }
  param {
    lr_mult: 20
    decay_mult: 0
  }
  convolution_param {
    num_output: 3
    pad: 1
    kernel_size: 3
    stride: 1
    weight_filler {
      type: "xavier"
    }
    bias_filler {
      type: "constant"
      value: 1
    }
  }
}
layer {
  name: "relu_saliency1"
  type: "ReLU"
  bottom: "saliency1"
  top: "saliency1"
}
layer {
  name: "saliency"
  type: "Convolution"
  bottom: "saliency1"
  top: "saliency"
  param {
    lr_mult: 10
    decay_mult: 1
  }
  param {
    lr_mult: 20
    decay_mult: 0
  }
  convolution_param {
    num_output: 3
    pad: 2
    kernel_size: 5
    stride: 1
    weight_filler {
      type: "xavier"
    }
    bias_filler {
      type: "constant"
      value: 1
    }
  }
}
layer {
  name: "saliency_data"
  type: "Eltwise"
  bottom: "data"
  bottom: "saliency"
  top: "saliency_data"
  eltwise_param {
    operation: PROD
  }
}
layer {
  name: "crop"
  type: "Python"
  bottom: "label"
  bottom: "saliency_data"
  bottom: "crop_margin"
  bottom: "crop_prob"
  bottom: "crop_sample_batch"
  top: "data-R"
  top: "crop_info"
  python_param {
    module: "Crop"
    layer: "CropLayer"
    param_str: "{\"TEST\": 0}"
  }
}
layer {
  name: "conv1_1-R"
  type: "Convolution"
  bottom: "data-R"
  top: "conv1_1-R"
  param {
    lr_mult: 10
    decay_mult: 1
  }
  param {
    lr_mult: 20
    decay_mult: 0
  }
  convolution_param {
    num_output: 64
    pad: 100
    kernel_size: 3
    stride: 1
  }
}
layer {
  name: "relu1_1-R"
  type: "ReLU"
  bottom: "conv1_1-R"
  top: "conv1_1-R"
}
layer {
  name: "conv1_2-R"
  type: "Convolution"
  bottom: "conv1_1-R"
  top: "conv1_2-R"
  param {
    lr_mult: 10
    decay_mult: 1
  }
  param {
    lr_mult: 20
    decay_mult: 0
  }
  convolution_param {
    num_output: 64
    pad: 1
    kernel_size: 3
    stride: 1
  }
}
layer {
  name: "relu1_2-R"
  type: "ReLU"
  bottom: "conv1_2-R"
  top: "conv1_2-R"
}
layer {
  name: "pool1-R"
  type: "Pooling"
  bottom: "conv1_2-R"
  top: "pool1-R"
  pooling_param {
    pool: MAX
    kernel_size: 2
    stride: 2
  }
}
layer {
  name: "conv2_1-R"
  type: "Convolution"
  bottom: "pool1-R"
  top: "conv2_1-R"
  param {
    lr_mult: 10
    decay_mult: 1
  }
  param {
    lr_mult: 20
    decay_mult: 0
  }
  convolution_param {
    num_output: 128
    pad: 1
    kernel_size: 3
    stride: 1
  }
}
layer {
  name: "relu2_1-R"
  type: "ReLU"
  bottom: "conv2_1-R"
  top: "conv2_1-R"
}
layer {
  name: "conv2_2-R"
  type: "Convolution"
  bottom: "conv2_1-R"
  top: "conv2_2-R"
  param {
    lr_mult: 10
    decay_mult: 1
  }
  param {
    lr_mult: 20
    decay_mult: 0
  }
  convolution_param {
    num_output: 128
    pad: 1
    kernel_size: 3
    stride: 1
  }
}
layer {
  name: "relu2_2-R"
  type: "ReLU"
  bottom: "conv2_2-R"
  top: "conv2_2-R"
}
layer {
  name: "pool2-R"
  type: "Pooling"
  bottom: "conv2_2-R"
  top: "pool2-R"
  pooling_param {
    pool: MAX
    kernel_size: 2
    stride: 2
  }
}
layer {
  name: "conv3_1-R"
  type: "Convolution"
  bottom: "pool2-R"
  top: "conv3_1-R"
  param {
    lr_mult: 10
    decay_mult: 1
  }
  param {
    lr_mult: 20
    decay_mult: 0
  }
  convolution_param {
    num_output: 256
    pad: 1
    kernel_size: 3
    stride: 1
  }
}
layer {
  name: "relu3_1-R"
  type: "ReLU"
  bottom: "conv3_1-R"
  top: "conv3_1-R"
}
layer {
  name: "conv3_2-R"
  type: "Convolution"
  bottom: "conv3_1-R"
  top: "conv3_2-R"
  param {
    lr_mult: 10
    decay_mult: 1
  }
  param {
    lr_mult: 20
    decay_mult: 0
  }
  convolution_param {
    num_output: 256
    pad: 1
    kernel_size: 3
    stride: 1
  }
}
layer {
  name: "relu3_2-R"
  type: "ReLU"
  bottom: "conv3_2-R"
  top: "conv3_2-R"
}
layer {
  name: "conv3_3-R"
  type: "Convolution"
  bottom: "conv3_2-R"
  top: "conv3_3-R"
  param {
    lr_mult: 10
    decay_mult: 1
  }
  param {
    lr_mult: 20
    decay_mult: 0
  }
  convolution_param {
    num_output: 256
    pad: 1
    kernel_size: 3
    stride: 1
  }
}
layer {
  name: "relu3_3-R"
  type: "ReLU"
  bottom: "conv3_3-R"
  top: "conv3_3-R"
}
layer {
  name: "pool3-R"
  type: "Pooling"
  bottom: "conv3_3-R"
  top: "pool3-R"
  pooling_param {
    pool: MAX
    kernel_size: 2
    stride: 2
  }
}
layer {
  name: "conv4_1-R"
  type: "Convolution"
  bottom: "pool3-R"
  top: "conv4_1-R"
  param {
    lr_mult: 10
    decay_mult: 1
  }
  param {
    lr_mult: 20
    decay_mult: 0
  }
  convolution_param {
    num_output: 512
    pad: 1
    kernel_size: 3
    stride: 1
  }
}
layer {
  name: "relu4_1-R"
  type: "ReLU"
  bottom: "conv4_1-R"
  top: "conv4_1-R"
}
layer {
  name: "conv4_2-R"
  type: "Convolution"
  bottom: "conv4_1-R"
  top: "conv4_2-R"
  param {
    lr_mult: 10
    decay_mult: 1
  }
  param {
    lr_mult: 20
    decay_mult: 0
  }
  convolution_param {
    num_output: 512
    pad: 1
    kernel_size: 3
    stride: 1
  }
}
layer {
  name: "relu4_2-R"
  type: "ReLU"
  bottom: "conv4_2-R"
  top: "conv4_2-R"
}
layer {
  name: "conv4_3-R"
  type: "Convolution"
  bottom: "conv4_2-R"
  top: "conv4_3-R"
  param {
    lr_mult: 10
    decay_mult: 1
  }
  param {
    lr_mult: 20
    decay_mult: 0
  }
  convolution_param {
    num_output: 512
    pad: 1
    kernel_size: 3
    stride: 1
  }
}
layer {
  name: "relu4_3-R"
  type: "ReLU"
  bottom: "conv4_3-R"
  top: "conv4_3-R"
}
layer {
  name: "pool4-R"
  type: "Pooling"
  bottom: "conv4_3-R"
  top: "pool4-R"
  pooling_param {
    pool: MAX
    kernel_size: 2
    stride: 2
  }
}
layer {
  name: "conv5_1-R"
  type: "Convolution"
  bottom: "pool4-R"
  top: "conv5_1-R"
  param {
    lr_mult: 10
    decay_mult: 1
  }
  param {
    lr_mult: 20
    decay_mult: 0
  }
  convolution_param {
    num_output: 512
    pad: 1
    kernel_size: 3
    stride: 1
  }
}
layer {
  name: "relu5_1-R"
  type: "ReLU"
  bottom: "conv5_1-R"
  top: "conv5_1-R"
}
layer {
  name: "conv5_2-R"
  type: "Convolution"
  bottom: "conv5_1-R"
  top: "conv5_2-R"
  param {
    lr_mult: 10
    decay_mult: 1
  }
  param {
    lr_mult: 20
    decay_mult: 0
  }
  convolution_param {
    num_output: 512
    pad: 1
    kernel_size: 3
    stride: 1
  }
}
layer {
  name: "relu5_2-R"
  type: "ReLU"
  bottom: "conv5_2-R"
  top: "conv5_2-R"
}
layer {
  name: "conv5_3-R"
  type: "Convolution"
  bottom: "conv5_2-R"
  top: "conv5_3-R"
  param {
    lr_mult: 10
    decay_mult: 1
  }
  param {
    lr_mult: 20
    decay_mult: 0
  }
  convolution_param {
    num_output: 512
    pad: 1
    kernel_size: 3
    stride: 1
  }
}
layer {
  name: "relu5_3-R"
  type: "ReLU"
  bottom: "conv5_3-R"
  top: "conv5_3-R"
}
layer {
  name: "pool5-R"
  type: "Pooling"
  bottom: "conv5_3-R"
  top: "pool5-R"
  pooling_param {
    pool: MAX
    kernel_size: 2
    stride: 2
  }
}
layer {
  name: "fc6-R"
  type: "Convolution"
  bottom: "pool5-R"
  top: "fc6-R"
  param {
    lr_mult: 10
    decay_mult: 1
  }
  param {
    lr_mult: 20
    decay_mult: 0
  }
  convolution_param {
    num_output: 4096
    pad: 0
    kernel_size: 7
    stride: 1
  }
}
layer {
  name: "relu6-R"
  type: "ReLU"
  bottom: "fc6-R"
  top: "fc6-R"
}
layer {
  name: "drop6-R"
  type: "Dropout"
  bottom: "fc6-R"
  top: "fc6-R"
  dropout_param {
    dropout_ratio: 0.5
  }
}
layer {
  name: "fc7-R"
  type: "Convolution"
  bottom: "fc6-R"
  top: "fc7-R"
  param {
    lr_mult: 10
    decay_mult: 1
  }
  param {
    lr_mult: 20
    decay_mult: 0
  }
  convolution_param {
    num_output: 4096
    pad: 0
    kernel_size: 1
    stride: 1
  }
}
layer {
  name: "relu7-R"
  type: "ReLU"
  bottom: "fc7-R"
  top: "fc7-R"
}
layer {
  name: "drop7-R"
  type: "Dropout"
  bottom: "fc7-R"
  top: "fc7-R"
  dropout_param {
    dropout_ratio: 0.5
  }
}
layer {
  name: "score_fr-new-R"
  type: "Convolution"
  bottom: "fc7-R"
  top: "score_fr-new-R"
  param {
    lr_mult: 10
    decay_mult: 1
  }
  param {
    lr_mult: 20
    decay_mult: 0
  }
  convolution_param {
    num_output: 3
    kernel_size: 1
  }
}
layer {
  name: "upscore2-new-R"
  type: "Deconvolution"
  bottom: "score_fr-new-R"
  top: "upscore2-new-R"
  param {
    lr_mult: 0
  }
  convolution_param {
    num_output: 3
    bias_term: false
    kernel_size: 4
    stride: 2
  }
}
layer {
  name: "score_pool4-new-R"
  type: "Convolution"
  bottom: "pool4-R"
  top: "score_pool4-new-R"
  param {
    lr_mult: 10
    decay_mult: 1
  }
  param {
    lr_mult: 20
    decay_mult: 0
  }
  convolution_param {
    num_output: 3
    pad: 0
    kernel_size: 1
  }
}
layer {
  name: "score_pool4c-R"
  type: "Crop"
  bottom: "score_pool4-new-R"
  bottom: "upscore2-new-R"
  top: "score_pool4c-R"
  crop_param {
    axis: 2
    offset: 5
  }
}
layer {
  name: "fuse_pool4-R"
  type: "Eltwise"
  bottom: "upscore2-new-R"
  bottom: "score_pool4c-R"
  top: "fuse_pool4-R"
  eltwise_param {
    operation: SUM
  }
}
layer {
  name: "upscore_pool4-new-R"
  type: "Deconvolution"
  bottom: "fuse_pool4-R"
  top: "upscore_pool4-new-R"
  param {
    lr_mult: 0
  }
  convolution_param {
    num_output: 3
    bias_term: false
    kernel_size: 4
    stride: 2
  }
}
layer {
  name: "score_pool3-new-R"
  type: "Convolution"
  bottom: "pool3-R"
  top: "score_pool3-new-R"
  param {
    lr_mult: 10
    decay_mult: 1
  }
  param {
    lr_mult: 20
    decay_mult: 0
  }
  convolution_param {
    num_output: 3
    pad: 0
    kernel_size: 1
  }
}
layer {
  name: "score_pool3c-R"
  type: "Crop"
  bottom: "score_pool3-new-R"
  bottom: "upscore_pool4-new-R"
  top: "score_pool3c-R"
  crop_param {
    axis: 2
    offset: 9
  }
}
layer {
  name: "fuse_pool3-R"
  type: "Eltwise"
  bottom: "upscore_pool4-new-R"
  bottom: "score_pool3c-R"
  top: "fuse_pool3-R"
  eltwise_param {
    operation: SUM
  }
}
layer {
  name: "upscore8-new-R"
  type: "Deconvolution"
  bottom: "fuse_pool3-R"
  top: "upscore8-new-R"
  param {
    lr_mult: 0
  }
  convolution_param {
    num_output: 3
    bias_term: false
    kernel_size: 16
    stride: 8
  }
}
layer {
  name: "upscore8_cropped-R"
  type: "Crop"
  bottom: "upscore8-new-R"
  bottom: "data-R"
  top: "upscore8_cropped-R"
  crop_param {
    axis: 2
    offset: 31
  }
}
layer {
  name: "upscore8_uncropped-R"
  type: "Python"
  bottom: "crop_info"
  bottom: "upscore8_cropped-R"
  bottom: "data"
  top: "upscore8_uncropped-R"
  python_param {
    module: "Uncrop"
    layer: "UncropLayer"
  }
}
layer {
  name: "loss1"
  type: "DiceLoss"
  bottom: "upscore8_cropped"
  bottom: "label"
  top: "loss1"
  loss_weight: 0.333333
}
layer {
  name: "loss2"
  type: "DiceLoss"
  bottom: "upscore8_uncropped-R"
  bottom: "label"
  top: "loss2"
  loss_weight: 0.666667
}
I0715 17:08:51.883857 13811 layer_factory.hpp:77] Creating layer data
I0715 17:08:51.883898 13811 net.cpp:84] Creating Layer data
I0715 17:08:51.883905 13811 net.cpp:380] data -> data
I0715 17:08:51.883914 13811 net.cpp:380] data -> label
I0715 17:08:51.883920 13811 net.cpp:380] data -> crop_margin
I0715 17:08:51.883926 13811 net.cpp:380] data -> crop_prob
I0715 17:08:51.883932 13811 net.cpp:380] data -> crop_sample_batch
I0715 17:08:51.955762 13811 net.cpp:122] Setting up data
I0715 17:08:51.955813 13811 net.cpp:129] Top shape: 1 3 512 512 (786432)
I0715 17:08:51.955819 13811 net.cpp:129] Top shape: 1 3 512 512 (786432)
I0715 17:08:51.955824 13811 net.cpp:129] Top shape: 1 (1)
I0715 17:08:51.955828 13811 net.cpp:129] Top shape: 1 (1)
I0715 17:08:51.955833 13811 net.cpp:129] Top shape: 1 (1)
I0715 17:08:51.955837 13811 net.cpp:137] Memory required for data: 6291468
I0715 17:08:51.955844 13811 layer_factory.hpp:77] Creating layer data_data_0_split
I0715 17:08:51.955857 13811 net.cpp:84] Creating Layer data_data_0_split
I0715 17:08:51.955862 13811 net.cpp:406] data_data_0_split <- data
I0715 17:08:51.955886 13811 net.cpp:380] data_data_0_split -> data_data_0_split_0
I0715 17:08:51.955899 13811 net.cpp:380] data_data_0_split -> data_data_0_split_1
I0715 17:08:51.955904 13811 net.cpp:380] data_data_0_split -> data_data_0_split_2
I0715 17:08:51.955910 13811 net.cpp:380] data_data_0_split -> data_data_0_split_3
I0715 17:08:51.956012 13811 net.cpp:122] Setting up data_data_0_split
I0715 17:08:51.956018 13811 net.cpp:129] Top shape: 1 3 512 512 (786432)
I0715 17:08:51.956023 13811 net.cpp:129] Top shape: 1 3 512 512 (786432)
I0715 17:08:51.956028 13811 net.cpp:129] Top shape: 1 3 512 512 (786432)
I0715 17:08:51.956033 13811 net.cpp:129] Top shape: 1 3 512 512 (786432)
I0715 17:08:51.956037 13811 net.cpp:137] Memory required for data: 18874380
I0715 17:08:51.956040 13811 layer_factory.hpp:77] Creating layer label_data_1_split
I0715 17:08:51.956046 13811 net.cpp:84] Creating Layer label_data_1_split
I0715 17:08:51.956050 13811 net.cpp:406] label_data_1_split <- label
I0715 17:08:51.956056 13811 net.cpp:380] label_data_1_split -> label_data_1_split_0
I0715 17:08:51.956063 13811 net.cpp:380] label_data_1_split -> label_data_1_split_1
I0715 17:08:51.956068 13811 net.cpp:380] label_data_1_split -> label_data_1_split_2
I0715 17:08:51.956146 13811 net.cpp:122] Setting up label_data_1_split
I0715 17:08:51.956163 13811 net.cpp:129] Top shape: 1 3 512 512 (786432)
I0715 17:08:51.956168 13811 net.cpp:129] Top shape: 1 3 512 512 (786432)
I0715 17:08:51.956172 13811 net.cpp:129] Top shape: 1 3 512 512 (786432)
I0715 17:08:51.956176 13811 net.cpp:137] Memory required for data: 28311564
I0715 17:08:51.956179 13811 layer_factory.hpp:77] Creating layer conv1_1
I0715 17:08:51.956190 13811 net.cpp:84] Creating Layer conv1_1
I0715 17:08:51.956194 13811 net.cpp:406] conv1_1 <- data_data_0_split_0
I0715 17:08:51.956200 13811 net.cpp:380] conv1_1 -> conv1_1
I0715 17:08:51.961360 13811 net.cpp:122] Setting up conv1_1
I0715 17:08:51.961391 13811 net.cpp:129] Top shape: 1 64 710 710 (32262400)
I0715 17:08:51.961395 13811 net.cpp:137] Memory required for data: 157361164
I0715 17:08:51.961407 13811 layer_factory.hpp:77] Creating layer relu1_1
I0715 17:08:51.961416 13811 net.cpp:84] Creating Layer relu1_1
I0715 17:08:51.961419 13811 net.cpp:406] relu1_1 <- conv1_1
I0715 17:08:51.961424 13811 net.cpp:367] relu1_1 -> conv1_1 (in-place)
I0715 17:08:51.962391 13811 net.cpp:122] Setting up relu1_1
I0715 17:08:51.962405 13811 net.cpp:129] Top shape: 1 64 710 710 (32262400)
I0715 17:08:51.962424 13811 net.cpp:137] Memory required for data: 286410764
I0715 17:08:51.962429 13811 layer_factory.hpp:77] Creating layer conv1_2
I0715 17:08:51.962437 13811 net.cpp:84] Creating Layer conv1_2
I0715 17:08:51.962441 13811 net.cpp:406] conv1_2 <- conv1_1
I0715 17:08:51.962447 13811 net.cpp:380] conv1_2 -> conv1_2
I0715 17:08:51.967479 13811 net.cpp:122] Setting up conv1_2
I0715 17:08:51.967501 13811 net.cpp:129] Top shape: 1 64 710 710 (32262400)
I0715 17:08:51.967519 13811 net.cpp:137] Memory required for data: 415460364
I0715 17:08:51.967530 13811 layer_factory.hpp:77] Creating layer relu1_2
I0715 17:08:51.967540 13811 net.cpp:84] Creating Layer relu1_2
I0715 17:08:51.967545 13811 net.cpp:406] relu1_2 <- conv1_2
I0715 17:08:51.967551 13811 net.cpp:367] relu1_2 -> conv1_2 (in-place)
I0715 17:08:51.967842 13811 net.cpp:122] Setting up relu1_2
I0715 17:08:51.967856 13811 net.cpp:129] Top shape: 1 64 710 710 (32262400)
I0715 17:08:51.967860 13811 net.cpp:137] Memory required for data: 544509964
I0715 17:08:51.967865 13811 layer_factory.hpp:77] Creating layer pool1
I0715 17:08:51.967875 13811 net.cpp:84] Creating Layer pool1
I0715 17:08:51.967880 13811 net.cpp:406] pool1 <- conv1_2
I0715 17:08:51.967886 13811 net.cpp:380] pool1 -> pool1
I0715 17:08:51.967967 13811 net.cpp:122] Setting up pool1
I0715 17:08:51.967977 13811 net.cpp:129] Top shape: 1 64 355 355 (8065600)
I0715 17:08:51.967980 13811 net.cpp:137] Memory required for data: 576772364
I0715 17:08:51.967985 13811 layer_factory.hpp:77] Creating layer conv2_1
I0715 17:08:51.967996 13811 net.cpp:84] Creating Layer conv2_1
I0715 17:08:51.968000 13811 net.cpp:406] conv2_1 <- pool1
I0715 17:08:51.968008 13811 net.cpp:380] conv2_1 -> conv2_1
I0715 17:08:51.970405 13811 net.cpp:122] Setting up conv2_1
I0715 17:08:51.970424 13811 net.cpp:129] Top shape: 1 128 355 355 (16131200)
I0715 17:08:51.970439 13811 net.cpp:137] Memory required for data: 641297164
I0715 17:08:51.970451 13811 layer_factory.hpp:77] Creating layer relu2_1
I0715 17:08:51.970460 13811 net.cpp:84] Creating Layer relu2_1
I0715 17:08:51.970465 13811 net.cpp:406] relu2_1 <- conv2_1
I0715 17:08:51.970471 13811 net.cpp:367] relu2_1 -> conv2_1 (in-place)
I0715 17:08:51.970741 13811 net.cpp:122] Setting up relu2_1
I0715 17:08:51.970754 13811 net.cpp:129] Top shape: 1 128 355 355 (16131200)
I0715 17:08:51.970759 13811 net.cpp:137] Memory required for data: 705821964
I0715 17:08:51.970763 13811 layer_factory.hpp:77] Creating layer conv2_2
I0715 17:08:51.970773 13811 net.cpp:84] Creating Layer conv2_2
I0715 17:08:51.970778 13811 net.cpp:406] conv2_2 <- conv2_1
I0715 17:08:51.970787 13811 net.cpp:380] conv2_2 -> conv2_2
I0715 17:08:51.976222 13811 net.cpp:122] Setting up conv2_2
I0715 17:08:51.976243 13811 net.cpp:129] Top shape: 1 128 355 355 (16131200)
I0715 17:08:51.976255 13811 net.cpp:137] Memory required for data: 770346764
I0715 17:08:51.976264 13811 layer_factory.hpp:77] Creating layer relu2_2
I0715 17:08:51.976282 13811 net.cpp:84] Creating Layer relu2_2
I0715 17:08:51.976289 13811 net.cpp:406] relu2_2 <- conv2_2
I0715 17:08:51.976295 13811 net.cpp:367] relu2_2 -> conv2_2 (in-place)
I0715 17:08:51.977445 13811 net.cpp:122] Setting up relu2_2
I0715 17:08:51.977463 13811 net.cpp:129] Top shape: 1 128 355 355 (16131200)
I0715 17:08:51.977468 13811 net.cpp:137] Memory required for data: 834871564
I0715 17:08:51.977478 13811 layer_factory.hpp:77] Creating layer pool2
I0715 17:08:51.977488 13811 net.cpp:84] Creating Layer pool2
I0715 17:08:51.977493 13811 net.cpp:406] pool2 <- conv2_2
I0715 17:08:51.977499 13811 net.cpp:380] pool2 -> pool2
I0715 17:08:51.977594 13811 net.cpp:122] Setting up pool2
I0715 17:08:51.977613 13811 net.cpp:129] Top shape: 1 128 178 178 (4055552)
I0715 17:08:51.977618 13811 net.cpp:137] Memory required for data: 851093772
I0715 17:08:51.977622 13811 layer_factory.hpp:77] Creating layer conv3_1
I0715 17:08:51.977632 13811 net.cpp:84] Creating Layer conv3_1
I0715 17:08:51.977638 13811 net.cpp:406] conv3_1 <- pool2
I0715 17:08:51.977644 13811 net.cpp:380] conv3_1 -> conv3_1
I0715 17:08:51.981302 13811 net.cpp:122] Setting up conv3_1
I0715 17:08:51.981321 13811 net.cpp:129] Top shape: 1 256 178 178 (8111104)
I0715 17:08:51.981328 13811 net.cpp:137] Memory required for data: 883538188
I0715 17:08:51.981340 13811 layer_factory.hpp:77] Creating layer relu3_1
I0715 17:08:51.981349 13811 net.cpp:84] Creating Layer relu3_1
I0715 17:08:51.981354 13811 net.cpp:406] relu3_1 <- conv3_1
I0715 17:08:51.981361 13811 net.cpp:367] relu3_1 -> conv3_1 (in-place)
I0715 17:08:51.981629 13811 net.cpp:122] Setting up relu3_1
I0715 17:08:51.981643 13811 net.cpp:129] Top shape: 1 256 178 178 (8111104)
I0715 17:08:51.981648 13811 net.cpp:137] Memory required for data: 915982604
I0715 17:08:51.981652 13811 layer_factory.hpp:77] Creating layer conv3_2
I0715 17:08:51.981663 13811 net.cpp:84] Creating Layer conv3_2
I0715 17:08:51.981668 13811 net.cpp:406] conv3_2 <- conv3_1
I0715 17:08:51.981676 13811 net.cpp:380] conv3_2 -> conv3_2
I0715 17:08:51.988411 13811 net.cpp:122] Setting up conv3_2
I0715 17:08:51.988443 13811 net.cpp:129] Top shape: 1 256 178 178 (8111104)
I0715 17:08:51.988449 13811 net.cpp:137] Memory required for data: 948427020
I0715 17:08:51.988461 13811 layer_factory.hpp:77] Creating layer relu3_2
I0715 17:08:51.988472 13811 net.cpp:84] Creating Layer relu3_2
I0715 17:08:51.988477 13811 net.cpp:406] relu3_2 <- conv3_2
I0715 17:08:51.988485 13811 net.cpp:367] relu3_2 -> conv3_2 (in-place)
I0715 17:08:51.988798 13811 net.cpp:122] Setting up relu3_2
I0715 17:08:51.988812 13811 net.cpp:129] Top shape: 1 256 178 178 (8111104)
I0715 17:08:51.988817 13811 net.cpp:137] Memory required for data: 980871436
I0715 17:08:51.988822 13811 layer_factory.hpp:77] Creating layer conv3_3
I0715 17:08:51.988834 13811 net.cpp:84] Creating Layer conv3_3
I0715 17:08:51.988839 13811 net.cpp:406] conv3_3 <- conv3_2
I0715 17:08:51.988848 13811 net.cpp:380] conv3_3 -> conv3_3
I0715 17:08:51.995759 13811 net.cpp:122] Setting up conv3_3
I0715 17:08:51.995791 13811 net.cpp:129] Top shape: 1 256 178 178 (8111104)
I0715 17:08:51.995797 13811 net.cpp:137] Memory required for data: 1013315852
I0715 17:08:51.995808 13811 layer_factory.hpp:77] Creating layer relu3_3
I0715 17:08:51.995817 13811 net.cpp:84] Creating Layer relu3_3
I0715 17:08:51.995822 13811 net.cpp:406] relu3_3 <- conv3_3
I0715 17:08:51.995831 13811 net.cpp:367] relu3_3 -> conv3_3 (in-place)
I0715 17:08:51.997063 13811 net.cpp:122] Setting up relu3_3
I0715 17:08:51.997082 13811 net.cpp:129] Top shape: 1 256 178 178 (8111104)
I0715 17:08:51.997094 13811 net.cpp:137] Memory required for data: 1045760268
I0715 17:08:51.997099 13811 layer_factory.hpp:77] Creating layer pool3
I0715 17:08:51.997109 13811 net.cpp:84] Creating Layer pool3
I0715 17:08:51.997114 13811 net.cpp:406] pool3 <- conv3_3
I0715 17:08:51.997123 13811 net.cpp:380] pool3 -> pool3
I0715 17:08:51.997221 13811 net.cpp:122] Setting up pool3
I0715 17:08:51.997234 13811 net.cpp:129] Top shape: 1 256 89 89 (2027776)
I0715 17:08:51.997238 13811 net.cpp:137] Memory required for data: 1053871372
I0715 17:08:51.997243 13811 layer_factory.hpp:77] Creating layer pool3_pool3_0_split
I0715 17:08:51.997251 13811 net.cpp:84] Creating Layer pool3_pool3_0_split
I0715 17:08:51.997256 13811 net.cpp:406] pool3_pool3_0_split <- pool3
I0715 17:08:51.997262 13811 net.cpp:380] pool3_pool3_0_split -> pool3_pool3_0_split_0
I0715 17:08:51.997270 13811 net.cpp:380] pool3_pool3_0_split -> pool3_pool3_0_split_1
I0715 17:08:51.997342 13811 net.cpp:122] Setting up pool3_pool3_0_split
I0715 17:08:51.997352 13811 net.cpp:129] Top shape: 1 256 89 89 (2027776)
I0715 17:08:51.997359 13811 net.cpp:129] Top shape: 1 256 89 89 (2027776)
I0715 17:08:51.997364 13811 net.cpp:137] Memory required for data: 1070093580
I0715 17:08:51.997368 13811 layer_factory.hpp:77] Creating layer conv4_1
I0715 17:08:51.997378 13811 net.cpp:84] Creating Layer conv4_1
I0715 17:08:51.997383 13811 net.cpp:406] conv4_1 <- pool3_pool3_0_split_0
I0715 17:08:51.997391 13811 net.cpp:380] conv4_1 -> conv4_1
I0715 17:08:52.011468 13811 net.cpp:122] Setting up conv4_1
I0715 17:08:52.011534 13811 net.cpp:129] Top shape: 1 512 89 89 (4055552)
I0715 17:08:52.011548 13811 net.cpp:137] Memory required for data: 1086315788
I0715 17:08:52.011569 13811 layer_factory.hpp:77] Creating layer relu4_1
I0715 17:08:52.011601 13811 net.cpp:84] Creating Layer relu4_1
I0715 17:08:52.011611 13811 net.cpp:406] relu4_1 <- conv4_1
I0715 17:08:52.011626 13811 net.cpp:367] relu4_1 -> conv4_1 (in-place)
I0715 17:08:52.012261 13811 net.cpp:122] Setting up relu4_1
I0715 17:08:52.012292 13811 net.cpp:129] Top shape: 1 512 89 89 (4055552)
I0715 17:08:52.012300 13811 net.cpp:137] Memory required for data: 1102537996
I0715 17:08:52.012308 13811 layer_factory.hpp:77] Creating layer conv4_2
I0715 17:08:52.012326 13811 net.cpp:84] Creating Layer conv4_2
I0715 17:08:52.012334 13811 net.cpp:406] conv4_2 <- conv4_1
I0715 17:08:52.012356 13811 net.cpp:380] conv4_2 -> conv4_2
I0715 17:08:52.027009 13811 net.cpp:122] Setting up conv4_2
I0715 17:08:52.027043 13811 net.cpp:129] Top shape: 1 512 89 89 (4055552)
I0715 17:08:52.027050 13811 net.cpp:137] Memory required for data: 1118760204
I0715 17:08:52.027066 13811 layer_factory.hpp:77] Creating layer relu4_2
I0715 17:08:52.027076 13811 net.cpp:84] Creating Layer relu4_2
I0715 17:08:52.027082 13811 net.cpp:406] relu4_2 <- conv4_2
I0715 17:08:52.027089 13811 net.cpp:367] relu4_2 -> conv4_2 (in-place)
I0715 17:08:52.027367 13811 net.cpp:122] Setting up relu4_2
I0715 17:08:52.027381 13811 net.cpp:129] Top shape: 1 512 89 89 (4055552)
I0715 17:08:52.027386 13811 net.cpp:137] Memory required for data: 1134982412
I0715 17:08:52.027390 13811 layer_factory.hpp:77] Creating layer conv4_3
I0715 17:08:52.027402 13811 net.cpp:84] Creating Layer conv4_3
I0715 17:08:52.027407 13811 net.cpp:406] conv4_3 <- conv4_2
I0715 17:08:52.027415 13811 net.cpp:380] conv4_3 -> conv4_3
I0715 17:08:52.037803 13811 net.cpp:122] Setting up conv4_3
I0715 17:08:52.037825 13811 net.cpp:129] Top shape: 1 512 89 89 (4055552)
I0715 17:08:52.037839 13811 net.cpp:137] Memory required for data: 1151204620
I0715 17:08:52.037852 13811 layer_factory.hpp:77] Creating layer relu4_3
I0715 17:08:52.037860 13811 net.cpp:84] Creating Layer relu4_3
I0715 17:08:52.037866 13811 net.cpp:406] relu4_3 <- conv4_3
I0715 17:08:52.037873 13811 net.cpp:367] relu4_3 -> conv4_3 (in-place)
I0715 17:08:52.038162 13811 net.cpp:122] Setting up relu4_3
I0715 17:08:52.038175 13811 net.cpp:129] Top shape: 1 512 89 89 (4055552)
I0715 17:08:52.038180 13811 net.cpp:137] Memory required for data: 1167426828
I0715 17:08:52.038185 13811 layer_factory.hpp:77] Creating layer pool4
I0715 17:08:52.038194 13811 net.cpp:84] Creating Layer pool4
I0715 17:08:52.038199 13811 net.cpp:406] pool4 <- conv4_3
I0715 17:08:52.038208 13811 net.cpp:380] pool4 -> pool4
I0715 17:08:52.038295 13811 net.cpp:122] Setting up pool4
I0715 17:08:52.038305 13811 net.cpp:129] Top shape: 1 512 45 45 (1036800)
I0715 17:08:52.038309 13811 net.cpp:137] Memory required for data: 1171574028
I0715 17:08:52.038313 13811 layer_factory.hpp:77] Creating layer pool4_pool4_0_split
I0715 17:08:52.038321 13811 net.cpp:84] Creating Layer pool4_pool4_0_split
I0715 17:08:52.038326 13811 net.cpp:406] pool4_pool4_0_split <- pool4
I0715 17:08:52.038334 13811 net.cpp:380] pool4_pool4_0_split -> pool4_pool4_0_split_0
I0715 17:08:52.038342 13811 net.cpp:380] pool4_pool4_0_split -> pool4_pool4_0_split_1
I0715 17:08:52.038414 13811 net.cpp:122] Setting up pool4_pool4_0_split
I0715 17:08:52.038425 13811 net.cpp:129] Top shape: 1 512 45 45 (1036800)
I0715 17:08:52.038431 13811 net.cpp:129] Top shape: 1 512 45 45 (1036800)
I0715 17:08:52.038435 13811 net.cpp:137] Memory required for data: 1179868428
I0715 17:08:52.038440 13811 layer_factory.hpp:77] Creating layer conv5_1
I0715 17:08:52.038451 13811 net.cpp:84] Creating Layer conv5_1
I0715 17:08:52.038456 13811 net.cpp:406] conv5_1 <- pool4_pool4_0_split_0
I0715 17:08:52.038465 13811 net.cpp:380] conv5_1 -> conv5_1
I0715 17:08:52.067409 13811 net.cpp:122] Setting up conv5_1
I0715 17:08:52.067446 13811 net.cpp:129] Top shape: 1 512 45 45 (1036800)
I0715 17:08:52.067456 13811 net.cpp:137] Memory required for data: 1184015628
I0715 17:08:52.067471 13811 layer_factory.hpp:77] Creating layer relu5_1
I0715 17:08:52.067486 13811 net.cpp:84] Creating Layer relu5_1
I0715 17:08:52.067494 13811 net.cpp:406] relu5_1 <- conv5_1
I0715 17:08:52.067507 13811 net.cpp:367] relu5_1 -> conv5_1 (in-place)
I0715 17:08:52.067926 13811 net.cpp:122] Setting up relu5_1
I0715 17:08:52.067945 13811 net.cpp:129] Top shape: 1 512 45 45 (1036800)
I0715 17:08:52.067957 13811 net.cpp:137] Memory required for data: 1188162828
I0715 17:08:52.067965 13811 layer_factory.hpp:77] Creating layer conv5_2
I0715 17:08:52.067981 13811 net.cpp:84] Creating Layer conv5_2
I0715 17:08:52.067989 13811 net.cpp:406] conv5_2 <- conv5_1
I0715 17:08:52.068009 13811 net.cpp:380] conv5_2 -> conv5_2
I0715 17:08:52.079190 13811 net.cpp:122] Setting up conv5_2
I0715 17:08:52.079223 13811 net.cpp:129] Top shape: 1 512 45 45 (1036800)
I0715 17:08:52.079229 13811 net.cpp:137] Memory required for data: 1192310028
I0715 17:08:52.079241 13811 layer_factory.hpp:77] Creating layer relu5_2
I0715 17:08:52.079255 13811 net.cpp:84] Creating Layer relu5_2
I0715 17:08:52.079262 13811 net.cpp:406] relu5_2 <- conv5_2
I0715 17:08:52.079269 13811 net.cpp:367] relu5_2 -> conv5_2 (in-place)
I0715 17:08:52.079562 13811 net.cpp:122] Setting up relu5_2
I0715 17:08:52.079576 13811 net.cpp:129] Top shape: 1 512 45 45 (1036800)
I0715 17:08:52.079581 13811 net.cpp:137] Memory required for data: 1196457228
I0715 17:08:52.079586 13811 layer_factory.hpp:77] Creating layer conv5_3
I0715 17:08:52.079598 13811 net.cpp:84] Creating Layer conv5_3
I0715 17:08:52.079603 13811 net.cpp:406] conv5_3 <- conv5_2
I0715 17:08:52.079612 13811 net.cpp:380] conv5_3 -> conv5_3
I0715 17:08:52.093196 13811 net.cpp:122] Setting up conv5_3
I0715 17:08:52.093217 13811 net.cpp:129] Top shape: 1 512 45 45 (1036800)
I0715 17:08:52.093230 13811 net.cpp:137] Memory required for data: 1200604428
I0715 17:08:52.093240 13811 layer_factory.hpp:77] Creating layer relu5_3
I0715 17:08:52.093248 13811 net.cpp:84] Creating Layer relu5_3
I0715 17:08:52.093253 13811 net.cpp:406] relu5_3 <- conv5_3
I0715 17:08:52.093261 13811 net.cpp:367] relu5_3 -> conv5_3 (in-place)
I0715 17:08:52.094447 13811 net.cpp:122] Setting up relu5_3
I0715 17:08:52.094465 13811 net.cpp:129] Top shape: 1 512 45 45 (1036800)
I0715 17:08:52.094478 13811 net.cpp:137] Memory required for data: 1204751628
I0715 17:08:52.094483 13811 layer_factory.hpp:77] Creating layer pool5
I0715 17:08:52.094492 13811 net.cpp:84] Creating Layer pool5
I0715 17:08:52.094497 13811 net.cpp:406] pool5 <- conv5_3
I0715 17:08:52.094506 13811 net.cpp:380] pool5 -> pool5
I0715 17:08:52.094601 13811 net.cpp:122] Setting up pool5
I0715 17:08:52.094612 13811 net.cpp:129] Top shape: 1 512 23 23 (270848)
I0715 17:08:52.094617 13811 net.cpp:137] Memory required for data: 1205835020
I0715 17:08:52.094621 13811 layer_factory.hpp:77] Creating layer fc6
I0715 17:08:52.094631 13811 net.cpp:84] Creating Layer fc6
I0715 17:08:52.094636 13811 net.cpp:406] fc6 <- pool5
I0715 17:08:52.094643 13811 net.cpp:380] fc6 -> fc6
I0715 17:08:52.437583 13811 net.cpp:122] Setting up fc6
I0715 17:08:52.437635 13811 net.cpp:129] Top shape: 1 4096 17 17 (1183744)
I0715 17:08:52.437640 13811 net.cpp:137] Memory required for data: 1210569996
I0715 17:08:52.437651 13811 layer_factory.hpp:77] Creating layer relu6
I0715 17:08:52.437665 13811 net.cpp:84] Creating Layer relu6
I0715 17:08:52.437670 13811 net.cpp:406] relu6 <- fc6
I0715 17:08:52.437678 13811 net.cpp:367] relu6 -> fc6 (in-place)
I0715 17:08:52.437902 13811 net.cpp:122] Setting up relu6
I0715 17:08:52.437912 13811 net.cpp:129] Top shape: 1 4096 17 17 (1183744)
I0715 17:08:52.437916 13811 net.cpp:137] Memory required for data: 1215304972
I0715 17:08:52.437919 13811 layer_factory.hpp:77] Creating layer drop6
I0715 17:08:52.437928 13811 net.cpp:84] Creating Layer drop6
I0715 17:08:52.437932 13811 net.cpp:406] drop6 <- fc6
I0715 17:08:52.437938 13811 net.cpp:367] drop6 -> fc6 (in-place)
I0715 17:08:52.437979 13811 net.cpp:122] Setting up drop6
I0715 17:08:52.437985 13811 net.cpp:129] Top shape: 1 4096 17 17 (1183744)
I0715 17:08:52.437988 13811 net.cpp:137] Memory required for data: 1220039948
I0715 17:08:52.437993 13811 layer_factory.hpp:77] Creating layer fc7
I0715 17:08:52.438004 13811 net.cpp:84] Creating Layer fc7
I0715 17:08:52.438006 13811 net.cpp:406] fc7 <- fc6
I0715 17:08:52.438015 13811 net.cpp:380] fc7 -> fc7
I0715 17:08:52.487984 13811 net.cpp:122] Setting up fc7
I0715 17:08:52.488032 13811 net.cpp:129] Top shape: 1 4096 17 17 (1183744)
I0715 17:08:52.488037 13811 net.cpp:137] Memory required for data: 1224774924
I0715 17:08:52.488049 13811 layer_factory.hpp:77] Creating layer relu7
I0715 17:08:52.488062 13811 net.cpp:84] Creating Layer relu7
I0715 17:08:52.488070 13811 net.cpp:406] relu7 <- fc7
I0715 17:08:52.488076 13811 net.cpp:367] relu7 -> fc7 (in-place)
I0715 17:08:52.488308 13811 net.cpp:122] Setting up relu7
I0715 17:08:52.488319 13811 net.cpp:129] Top shape: 1 4096 17 17 (1183744)
I0715 17:08:52.488323 13811 net.cpp:137] Memory required for data: 1229509900
I0715 17:08:52.488327 13811 layer_factory.hpp:77] Creating layer drop7
I0715 17:08:52.488335 13811 net.cpp:84] Creating Layer drop7
I0715 17:08:52.488339 13811 net.cpp:406] drop7 <- fc7
I0715 17:08:52.488345 13811 net.cpp:367] drop7 -> fc7 (in-place)
I0715 17:08:52.488386 13811 net.cpp:122] Setting up drop7
I0715 17:08:52.488392 13811 net.cpp:129] Top shape: 1 4096 17 17 (1183744)
I0715 17:08:52.488395 13811 net.cpp:137] Memory required for data: 1234244876
I0715 17:08:52.488399 13811 layer_factory.hpp:77] Creating layer score_fr-new
I0715 17:08:52.488409 13811 net.cpp:84] Creating Layer score_fr-new
I0715 17:08:52.488414 13811 net.cpp:406] score_fr-new <- fc7
I0715 17:08:52.488420 13811 net.cpp:380] score_fr-new -> score_fr-new
I0715 17:08:52.490286 13811 net.cpp:122] Setting up score_fr-new
I0715 17:08:52.490301 13811 net.cpp:129] Top shape: 1 3 17 17 (867)
I0715 17:08:52.490305 13811 net.cpp:137] Memory required for data: 1234248344
I0715 17:08:52.490312 13811 layer_factory.hpp:77] Creating layer upscore2-new
I0715 17:08:52.490331 13811 net.cpp:84] Creating Layer upscore2-new
I0715 17:08:52.490335 13811 net.cpp:406] upscore2-new <- score_fr-new
I0715 17:08:52.490342 13811 net.cpp:380] upscore2-new -> upscore2-new
I0715 17:08:52.490676 13811 net.cpp:122] Setting up upscore2-new
I0715 17:08:52.490685 13811 net.cpp:129] Top shape: 1 3 36 36 (3888)
I0715 17:08:52.490689 13811 net.cpp:137] Memory required for data: 1234263896
I0715 17:08:52.490703 13811 layer_factory.hpp:77] Creating layer upscore2-new_upscore2-new_0_split
I0715 17:08:52.490711 13811 net.cpp:84] Creating Layer upscore2-new_upscore2-new_0_split
I0715 17:08:52.490715 13811 net.cpp:406] upscore2-new_upscore2-new_0_split <- upscore2-new
I0715 17:08:52.490721 13811 net.cpp:380] upscore2-new_upscore2-new_0_split -> upscore2-new_upscore2-new_0_split_0
I0715 17:08:52.490728 13811 net.cpp:380] upscore2-new_upscore2-new_0_split -> upscore2-new_upscore2-new_0_split_1
I0715 17:08:52.490785 13811 net.cpp:122] Setting up upscore2-new_upscore2-new_0_split
I0715 17:08:52.490794 13811 net.cpp:129] Top shape: 1 3 36 36 (3888)
I0715 17:08:52.490799 13811 net.cpp:129] Top shape: 1 3 36 36 (3888)
I0715 17:08:52.490803 13811 net.cpp:137] Memory required for data: 1234295000
I0715 17:08:52.490805 13811 layer_factory.hpp:77] Creating layer score_pool4-new
I0715 17:08:52.490815 13811 net.cpp:84] Creating Layer score_pool4-new
I0715 17:08:52.490820 13811 net.cpp:406] score_pool4-new <- pool4_pool4_0_split_1
I0715 17:08:52.490825 13811 net.cpp:380] score_pool4-new -> score_pool4-new
I0715 17:08:52.494424 13811 net.cpp:122] Setting up score_pool4-new
I0715 17:08:52.494491 13811 net.cpp:129] Top shape: 1 3 45 45 (6075)
I0715 17:08:52.494501 13811 net.cpp:137] Memory required for data: 1234319300
I0715 17:08:52.494521 13811 layer_factory.hpp:77] Creating layer score_pool4c
I0715 17:08:52.494552 13811 net.cpp:84] Creating Layer score_pool4c
I0715 17:08:52.494562 13811 net.cpp:406] score_pool4c <- score_pool4-new
I0715 17:08:52.494575 13811 net.cpp:406] score_pool4c <- upscore2-new_upscore2-new_0_split_0
I0715 17:08:52.494588 13811 net.cpp:380] score_pool4c -> score_pool4c
I0715 17:08:52.494685 13811 net.cpp:122] Setting up score_pool4c
I0715 17:08:52.494701 13811 net.cpp:129] Top shape: 1 3 36 36 (3888)
I0715 17:08:52.494709 13811 net.cpp:137] Memory required for data: 1234334852
I0715 17:08:52.494717 13811 layer_factory.hpp:77] Creating layer fuse_pool4
I0715 17:08:52.494730 13811 net.cpp:84] Creating Layer fuse_pool4
I0715 17:08:52.494738 13811 net.cpp:406] fuse_pool4 <- upscore2-new_upscore2-new_0_split_1
I0715 17:08:52.494747 13811 net.cpp:406] fuse_pool4 <- score_pool4c
I0715 17:08:52.494760 13811 net.cpp:380] fuse_pool4 -> fuse_pool4
I0715 17:08:52.494832 13811 net.cpp:122] Setting up fuse_pool4
I0715 17:08:52.494845 13811 net.cpp:129] Top shape: 1 3 36 36 (3888)
I0715 17:08:52.494853 13811 net.cpp:137] Memory required for data: 1234350404
I0715 17:08:52.494859 13811 layer_factory.hpp:77] Creating layer upscore_pool4-new
I0715 17:08:52.494875 13811 net.cpp:84] Creating Layer upscore_pool4-new
I0715 17:08:52.494882 13811 net.cpp:406] upscore_pool4-new <- fuse_pool4
I0715 17:08:52.494894 13811 net.cpp:380] upscore_pool4-new -> upscore_pool4-new
I0715 17:08:52.495628 13811 net.cpp:122] Setting up upscore_pool4-new
I0715 17:08:52.495647 13811 net.cpp:129] Top shape: 1 3 74 74 (16428)
I0715 17:08:52.495666 13811 net.cpp:137] Memory required for data: 1234416116
I0715 17:08:52.495681 13811 layer_factory.hpp:77] Creating layer upscore_pool4-new_upscore_pool4-new_0_split
I0715 17:08:52.495692 13811 net.cpp:84] Creating Layer upscore_pool4-new_upscore_pool4-new_0_split
I0715 17:08:52.495700 13811 net.cpp:406] upscore_pool4-new_upscore_pool4-new_0_split <- upscore_pool4-new
I0715 17:08:52.495712 13811 net.cpp:380] upscore_pool4-new_upscore_pool4-new_0_split -> upscore_pool4-new_upscore_pool4-new_0_split_0
I0715 17:08:52.495738 13811 net.cpp:380] upscore_pool4-new_upscore_pool4-new_0_split -> upscore_pool4-new_upscore_pool4-new_0_split_1
I0715 17:08:52.495848 13811 net.cpp:122] Setting up upscore_pool4-new_upscore_pool4-new_0_split
I0715 17:08:52.495877 13811 net.cpp:129] Top shape: 1 3 74 74 (16428)
I0715 17:08:52.495887 13811 net.cpp:129] Top shape: 1 3 74 74 (16428)
I0715 17:08:52.495893 13811 net.cpp:137] Memory required for data: 1234547540
I0715 17:08:52.495900 13811 layer_factory.hpp:77] Creating layer score_pool3-new
I0715 17:08:52.495916 13811 net.cpp:84] Creating Layer score_pool3-new
I0715 17:08:52.495925 13811 net.cpp:406] score_pool3-new <- pool3_pool3_0_split_1
I0715 17:08:52.495937 13811 net.cpp:380] score_pool3-new -> score_pool3-new
I0715 17:08:52.499941 13811 net.cpp:122] Setting up score_pool3-new
I0715 17:08:52.499981 13811 net.cpp:129] Top shape: 1 3 89 89 (23763)
I0715 17:08:52.499990 13811 net.cpp:137] Memory required for data: 1234642592
I0715 17:08:52.500005 13811 layer_factory.hpp:77] Creating layer score_pool3c
I0715 17:08:52.500018 13811 net.cpp:84] Creating Layer score_pool3c
I0715 17:08:52.500036 13811 net.cpp:406] score_pool3c <- score_pool3-new
I0715 17:08:52.500047 13811 net.cpp:406] score_pool3c <- upscore_pool4-new_upscore_pool4-new_0_split_0
I0715 17:08:52.500059 13811 net.cpp:380] score_pool3c -> score_pool3c
I0715 17:08:52.500150 13811 net.cpp:122] Setting up score_pool3c
I0715 17:08:52.500175 13811 net.cpp:129] Top shape: 1 3 74 74 (16428)
I0715 17:08:52.500182 13811 net.cpp:137] Memory required for data: 1234708304
I0715 17:08:52.500190 13811 layer_factory.hpp:77] Creating layer fuse_pool3
I0715 17:08:52.500201 13811 net.cpp:84] Creating Layer fuse_pool3
I0715 17:08:52.500210 13811 net.cpp:406] fuse_pool3 <- upscore_pool4-new_upscore_pool4-new_0_split_1
I0715 17:08:52.500219 13811 net.cpp:406] fuse_pool3 <- score_pool3c
I0715 17:08:52.500231 13811 net.cpp:380] fuse_pool3 -> fuse_pool3
I0715 17:08:52.500299 13811 net.cpp:122] Setting up fuse_pool3
I0715 17:08:52.500314 13811 net.cpp:129] Top shape: 1 3 74 74 (16428)
I0715 17:08:52.500321 13811 net.cpp:137] Memory required for data: 1234774016
I0715 17:08:52.500329 13811 layer_factory.hpp:77] Creating layer upscore8-new
I0715 17:08:52.500342 13811 net.cpp:84] Creating Layer upscore8-new
I0715 17:08:52.500350 13811 net.cpp:406] upscore8-new <- fuse_pool3
I0715 17:08:52.500361 13811 net.cpp:380] upscore8-new -> upscore8-new
I0715 17:08:52.501055 13811 net.cpp:122] Setting up upscore8-new
I0715 17:08:52.501070 13811 net.cpp:129] Top shape: 1 3 600 600 (1080000)
I0715 17:08:52.501086 13811 net.cpp:137] Memory required for data: 1239094016
I0715 17:08:52.501096 13811 layer_factory.hpp:77] Creating layer upscore8_cropped
I0715 17:08:52.501109 13811 net.cpp:84] Creating Layer upscore8_cropped
I0715 17:08:52.501117 13811 net.cpp:406] upscore8_cropped <- upscore8-new
I0715 17:08:52.501127 13811 net.cpp:406] upscore8_cropped <- data_data_0_split_1
I0715 17:08:52.501147 13811 net.cpp:380] upscore8_cropped -> upscore8_cropped
I0715 17:08:52.501214 13811 net.cpp:122] Setting up upscore8_cropped
I0715 17:08:52.501230 13811 net.cpp:129] Top shape: 1 3 512 512 (786432)
I0715 17:08:52.501236 13811 net.cpp:137] Memory required for data: 1242239744
I0715 17:08:52.501245 13811 layer_factory.hpp:77] Creating layer upscore8_cropped_upscore8_cropped_0_split
I0715 17:08:52.501267 13811 net.cpp:84] Creating Layer upscore8_cropped_upscore8_cropped_0_split
I0715 17:08:52.501276 13811 net.cpp:406] upscore8_cropped_upscore8_cropped_0_split <- upscore8_cropped
I0715 17:08:52.501286 13811 net.cpp:380] upscore8_cropped_upscore8_cropped_0_split -> upscore8_cropped_upscore8_cropped_0_split_0
I0715 17:08:52.501299 13811 net.cpp:380] upscore8_cropped_upscore8_cropped_0_split -> upscore8_cropped_upscore8_cropped_0_split_1
I0715 17:08:52.501406 13811 net.cpp:122] Setting up upscore8_cropped_upscore8_cropped_0_split
I0715 17:08:52.501420 13811 net.cpp:129] Top shape: 1 3 512 512 (786432)
I0715 17:08:52.501431 13811 net.cpp:129] Top shape: 1 3 512 512 (786432)
I0715 17:08:52.501438 13811 net.cpp:137] Memory required for data: 1248531200
I0715 17:08:52.501446 13811 layer_factory.hpp:77] Creating layer prob
I0715 17:08:52.501456 13811 net.cpp:84] Creating Layer prob
I0715 17:08:52.501464 13811 net.cpp:406] prob <- upscore8_cropped_upscore8_cropped_0_split_0
I0715 17:08:52.501476 13811 net.cpp:380] prob -> prob
I0715 17:08:52.501960 13811 net.cpp:122] Setting up prob
I0715 17:08:52.501999 13811 net.cpp:129] Top shape: 1 3 512 512 (786432)
I0715 17:08:52.502007 13811 net.cpp:137] Memory required for data: 1251676928
I0715 17:08:52.502023 13811 layer_factory.hpp:77] Creating layer saliency1
I0715 17:08:52.502043 13811 net.cpp:84] Creating Layer saliency1
I0715 17:08:52.502050 13811 net.cpp:406] saliency1 <- prob
I0715 17:08:52.502071 13811 net.cpp:380] saliency1 -> saliency1
I0715 17:08:52.508221 13811 net.cpp:122] Setting up saliency1
I0715 17:08:52.508266 13811 net.cpp:129] Top shape: 1 3 512 512 (786432)
I0715 17:08:52.508271 13811 net.cpp:137] Memory required for data: 1254822656
I0715 17:08:52.508283 13811 layer_factory.hpp:77] Creating layer relu_saliency1
I0715 17:08:52.508297 13811 net.cpp:84] Creating Layer relu_saliency1
I0715 17:08:52.508303 13811 net.cpp:406] relu_saliency1 <- saliency1
I0715 17:08:52.508312 13811 net.cpp:367] relu_saliency1 -> saliency1 (in-place)
I0715 17:08:52.509531 13811 net.cpp:122] Setting up relu_saliency1
I0715 17:08:52.509547 13811 net.cpp:129] Top shape: 1 3 512 512 (786432)
I0715 17:08:52.509552 13811 net.cpp:137] Memory required for data: 1257968384
I0715 17:08:52.509557 13811 layer_factory.hpp:77] Creating layer saliency
I0715 17:08:52.509572 13811 net.cpp:84] Creating Layer saliency
I0715 17:08:52.509577 13811 net.cpp:406] saliency <- saliency1
I0715 17:08:52.509585 13811 net.cpp:380] saliency -> saliency
I0715 17:08:52.515386 13811 net.cpp:122] Setting up saliency
I0715 17:08:52.515446 13811 net.cpp:129] Top shape: 1 3 512 512 (786432)
I0715 17:08:52.515456 13811 net.cpp:137] Memory required for data: 1261114112
I0715 17:08:52.515478 13811 layer_factory.hpp:77] Creating layer saliency_data
I0715 17:08:52.515498 13811 net.cpp:84] Creating Layer saliency_data
I0715 17:08:52.515508 13811 net.cpp:406] saliency_data <- data_data_0_split_2
I0715 17:08:52.515534 13811 net.cpp:406] saliency_data <- saliency
I0715 17:08:52.515547 13811 net.cpp:380] saliency_data -> saliency_data
I0715 17:08:52.515735 13811 net.cpp:122] Setting up saliency_data
I0715 17:08:52.515753 13811 net.cpp:129] Top shape: 1 3 512 512 (786432)
I0715 17:08:52.515761 13811 net.cpp:137] Memory required for data: 1264259840
I0715 17:08:52.515769 13811 layer_factory.hpp:77] Creating layer crop
I0715 17:08:52.515867 13811 net.cpp:84] Creating Layer crop
I0715 17:08:52.515882 13811 net.cpp:406] crop <- label_data_1_split_0
I0715 17:08:52.515892 13811 net.cpp:406] crop <- saliency_data
I0715 17:08:52.515902 13811 net.cpp:406] crop <- crop_margin
I0715 17:08:52.515911 13811 net.cpp:406] crop <- crop_prob
I0715 17:08:52.515919 13811 net.cpp:406] crop <- crop_sample_batch
I0715 17:08:52.515933 13811 net.cpp:380] crop -> data-R
I0715 17:08:52.515949 13811 net.cpp:380] crop -> crop_info
I0715 17:08:52.529757 13811 net.cpp:122] Setting up crop
I0715 17:08:52.529793 13811 net.cpp:129] Top shape: 1 3 512 512 (786432)
I0715 17:08:52.529800 13811 net.cpp:129] Top shape: 1 2 4 (8)
I0715 17:08:52.529805 13811 net.cpp:137] Memory required for data: 1267405600
I0715 17:08:52.529835 13811 layer_factory.hpp:77] Creating layer data-R_crop_0_split
I0715 17:08:52.529850 13811 net.cpp:84] Creating Layer data-R_crop_0_split
I0715 17:08:52.529857 13811 net.cpp:406] data-R_crop_0_split <- data-R
I0715 17:08:52.529867 13811 net.cpp:380] data-R_crop_0_split -> data-R_crop_0_split_0
I0715 17:08:52.529893 13811 net.cpp:380] data-R_crop_0_split -> data-R_crop_0_split_1
I0715 17:08:52.529989 13811 net.cpp:122] Setting up data-R_crop_0_split
I0715 17:08:52.530000 13811 net.cpp:129] Top shape: 1 3 512 512 (786432)
I0715 17:08:52.530007 13811 net.cpp:129] Top shape: 1 3 512 512 (786432)
I0715 17:08:52.530011 13811 net.cpp:137] Memory required for data: 1273697056
I0715 17:08:52.530016 13811 layer_factory.hpp:77] Creating layer conv1_1-R
I0715 17:08:52.530030 13811 net.cpp:84] Creating Layer conv1_1-R
I0715 17:08:52.530036 13811 net.cpp:406] conv1_1-R <- data-R_crop_0_split_0
I0715 17:08:52.530043 13811 net.cpp:380] conv1_1-R -> conv1_1-R
I0715 17:08:52.538353 13811 net.cpp:122] Setting up conv1_1-R
I0715 17:08:52.538406 13811 net.cpp:129] Top shape: 1 64 710 710 (32262400)
I0715 17:08:52.538415 13811 net.cpp:137] Memory required for data: 1402746656
I0715 17:08:52.538435 13811 layer_factory.hpp:77] Creating layer relu1_1-R
I0715 17:08:52.538475 13811 net.cpp:84] Creating Layer relu1_1-R
I0715 17:08:52.538486 13811 net.cpp:406] relu1_1-R <- conv1_1-R
I0715 17:08:52.538499 13811 net.cpp:367] relu1_1-R -> conv1_1-R (in-place)
I0715 17:08:52.538990 13811 net.cpp:122] Setting up relu1_1-R
I0715 17:08:52.539021 13811 net.cpp:129] Top shape: 1 64 710 710 (32262400)
I0715 17:08:52.539029 13811 net.cpp:137] Memory required for data: 1531796256
I0715 17:08:52.539038 13811 layer_factory.hpp:77] Creating layer conv1_2-R
I0715 17:08:52.539055 13811 net.cpp:84] Creating Layer conv1_2-R
I0715 17:08:52.539063 13811 net.cpp:406] conv1_2-R <- conv1_1-R
I0715 17:08:52.539085 13811 net.cpp:380] conv1_2-R -> conv1_2-R
I0715 17:08:52.546550 13811 net.cpp:122] Setting up conv1_2-R
I0715 17:08:52.546597 13811 net.cpp:129] Top shape: 1 64 710 710 (32262400)
I0715 17:08:52.546607 13811 net.cpp:137] Memory required for data: 1660845856
I0715 17:08:52.546624 13811 layer_factory.hpp:77] Creating layer relu1_2-R
I0715 17:08:52.546648 13811 net.cpp:84] Creating Layer relu1_2-R
I0715 17:08:52.546658 13811 net.cpp:406] relu1_2-R <- conv1_2-R
I0715 17:08:52.546669 13811 net.cpp:367] relu1_2-R -> conv1_2-R (in-place)
I0715 17:08:52.547142 13811 net.cpp:122] Setting up relu1_2-R
I0715 17:08:52.547160 13811 net.cpp:129] Top shape: 1 64 710 710 (32262400)
I0715 17:08:52.547175 13811 net.cpp:137] Memory required for data: 1789895456
I0715 17:08:52.547183 13811 layer_factory.hpp:77] Creating layer pool1-R
I0715 17:08:52.547209 13811 net.cpp:84] Creating Layer pool1-R
I0715 17:08:52.547217 13811 net.cpp:406] pool1-R <- conv1_2-R
I0715 17:08:52.547235 13811 net.cpp:380] pool1-R -> pool1-R
I0715 17:08:52.547423 13811 net.cpp:122] Setting up pool1-R
I0715 17:08:52.547442 13811 net.cpp:129] Top shape: 1 64 355 355 (8065600)
I0715 17:08:52.547449 13811 net.cpp:137] Memory required for data: 1822157856
I0715 17:08:52.547456 13811 layer_factory.hpp:77] Creating layer conv2_1-R
I0715 17:08:52.547474 13811 net.cpp:84] Creating Layer conv2_1-R
I0715 17:08:52.547482 13811 net.cpp:406] conv2_1-R <- pool1-R
I0715 17:08:52.547494 13811 net.cpp:380] conv2_1-R -> conv2_1-R
I0715 17:08:52.565994 13811 net.cpp:122] Setting up conv2_1-R
I0715 17:08:52.566037 13811 net.cpp:129] Top shape: 1 128 355 355 (16131200)
I0715 17:08:52.566047 13811 net.cpp:137] Memory required for data: 1886682656
I0715 17:08:52.566063 13811 layer_factory.hpp:77] Creating layer relu2_1-R
I0715 17:08:52.566076 13811 net.cpp:84] Creating Layer relu2_1-R
I0715 17:08:52.566085 13811 net.cpp:406] relu2_1-R <- conv2_1-R
I0715 17:08:52.566099 13811 net.cpp:367] relu2_1-R -> conv2_1-R (in-place)
I0715 17:08:52.566550 13811 net.cpp:122] Setting up relu2_1-R
I0715 17:08:52.566571 13811 net.cpp:129] Top shape: 1 128 355 355 (16131200)
I0715 17:08:52.566579 13811 net.cpp:137] Memory required for data: 1951207456
I0715 17:08:52.566587 13811 layer_factory.hpp:77] Creating layer conv2_2-R
I0715 17:08:52.566614 13811 net.cpp:84] Creating Layer conv2_2-R
I0715 17:08:52.566622 13811 net.cpp:406] conv2_2-R <- conv2_1-R
I0715 17:08:52.566642 13811 net.cpp:380] conv2_2-R -> conv2_2-R
I0715 17:08:52.572300 13811 net.cpp:122] Setting up conv2_2-R
I0715 17:08:52.572340 13811 net.cpp:129] Top shape: 1 128 355 355 (16131200)
I0715 17:08:52.572348 13811 net.cpp:137] Memory required for data: 2015732256
I0715 17:08:52.572365 13811 layer_factory.hpp:77] Creating layer relu2_2-R
I0715 17:08:52.572378 13811 net.cpp:84] Creating Layer relu2_2-R
I0715 17:08:52.572387 13811 net.cpp:406] relu2_2-R <- conv2_2-R
I0715 17:08:52.572399 13811 net.cpp:367] relu2_2-R -> conv2_2-R (in-place)
I0715 17:08:52.574388 13811 net.cpp:122] Setting up relu2_2-R
I0715 17:08:52.574425 13811 net.cpp:129] Top shape: 1 128 355 355 (16131200)
I0715 17:08:52.574434 13811 net.cpp:137] Memory required for data: 2080257056
I0715 17:08:52.574442 13811 layer_factory.hpp:77] Creating layer pool2-R
I0715 17:08:52.574458 13811 net.cpp:84] Creating Layer pool2-R
I0715 17:08:52.574466 13811 net.cpp:406] pool2-R <- conv2_2-R
I0715 17:08:52.574486 13811 net.cpp:380] pool2-R -> pool2-R
I0715 17:08:52.574626 13811 net.cpp:122] Setting up pool2-R
I0715 17:08:52.574646 13811 net.cpp:129] Top shape: 1 128 178 178 (4055552)
I0715 17:08:52.574653 13811 net.cpp:137] Memory required for data: 2096479264
I0715 17:08:52.574661 13811 layer_factory.hpp:77] Creating layer conv3_1-R
I0715 17:08:52.574677 13811 net.cpp:84] Creating Layer conv3_1-R
I0715 17:08:52.574685 13811 net.cpp:406] conv3_1-R <- pool2-R
I0715 17:08:52.574698 13811 net.cpp:380] conv3_1-R -> conv3_1-R
I0715 17:08:52.584002 13811 net.cpp:122] Setting up conv3_1-R
I0715 17:08:52.584033 13811 net.cpp:129] Top shape: 1 256 178 178 (8111104)
I0715 17:08:52.584036 13811 net.cpp:137] Memory required for data: 2128923680
I0715 17:08:52.584045 13811 layer_factory.hpp:77] Creating layer relu3_1-R
I0715 17:08:52.584055 13811 net.cpp:84] Creating Layer relu3_1-R
I0715 17:08:52.584059 13811 net.cpp:406] relu3_1-R <- conv3_1-R
I0715 17:08:52.584065 13811 net.cpp:367] relu3_1-R -> conv3_1-R (in-place)
I0715 17:08:52.584308 13811 net.cpp:122] Setting up relu3_1-R
I0715 17:08:52.584319 13811 net.cpp:129] Top shape: 1 256 178 178 (8111104)
I0715 17:08:52.584323 13811 net.cpp:137] Memory required for data: 2161368096
I0715 17:08:52.584327 13811 layer_factory.hpp:77] Creating layer conv3_2-R
I0715 17:08:52.584337 13811 net.cpp:84] Creating Layer conv3_2-R
I0715 17:08:52.584342 13811 net.cpp:406] conv3_2-R <- conv3_1-R
I0715 17:08:52.584349 13811 net.cpp:380] conv3_2-R -> conv3_2-R
I0715 17:08:52.590116 13811 net.cpp:122] Setting up conv3_2-R
I0715 17:08:52.590138 13811 net.cpp:129] Top shape: 1 256 178 178 (8111104)
I0715 17:08:52.590144 13811 net.cpp:137] Memory required for data: 2193812512
I0715 17:08:52.590163 13811 layer_factory.hpp:77] Creating layer relu3_2-R
I0715 17:08:52.590173 13811 net.cpp:84] Creating Layer relu3_2-R
I0715 17:08:52.590179 13811 net.cpp:406] relu3_2-R <- conv3_2-R
I0715 17:08:52.590188 13811 net.cpp:367] relu3_2-R -> conv3_2-R (in-place)
I0715 17:08:52.590528 13811 net.cpp:122] Setting up relu3_2-R
I0715 17:08:52.590543 13811 net.cpp:129] Top shape: 1 256 178 178 (8111104)
I0715 17:08:52.590548 13811 net.cpp:137] Memory required for data: 2226256928
I0715 17:08:52.590553 13811 layer_factory.hpp:77] Creating layer conv3_3-R
I0715 17:08:52.590566 13811 net.cpp:84] Creating Layer conv3_3-R
I0715 17:08:52.590572 13811 net.cpp:406] conv3_3-R <- conv3_2-R
I0715 17:08:52.590581 13811 net.cpp:380] conv3_3-R -> conv3_3-R
I0715 17:08:52.602705 13811 net.cpp:122] Setting up conv3_3-R
I0715 17:08:52.602764 13811 net.cpp:129] Top shape: 1 256 178 178 (8111104)
I0715 17:08:52.602771 13811 net.cpp:137] Memory required for data: 2258701344
I0715 17:08:52.602787 13811 layer_factory.hpp:77] Creating layer relu3_3-R
I0715 17:08:52.602802 13811 net.cpp:84] Creating Layer relu3_3-R
I0715 17:08:52.602808 13811 net.cpp:406] relu3_3-R <- conv3_3-R
I0715 17:08:52.602818 13811 net.cpp:367] relu3_3-R -> conv3_3-R (in-place)
I0715 17:08:52.603346 13811 net.cpp:122] Setting up relu3_3-R
I0715 17:08:52.603369 13811 net.cpp:129] Top shape: 1 256 178 178 (8111104)
I0715 17:08:52.603374 13811 net.cpp:137] Memory required for data: 2291145760
I0715 17:08:52.603389 13811 layer_factory.hpp:77] Creating layer pool3-R
I0715 17:08:52.603416 13811 net.cpp:84] Creating Layer pool3-R
I0715 17:08:52.603425 13811 net.cpp:406] pool3-R <- conv3_3-R
I0715 17:08:52.603437 13811 net.cpp:380] pool3-R -> pool3-R
I0715 17:08:52.603624 13811 net.cpp:122] Setting up pool3-R
I0715 17:08:52.603641 13811 net.cpp:129] Top shape: 1 256 89 89 (2027776)
I0715 17:08:52.603648 13811 net.cpp:137] Memory required for data: 2299256864
I0715 17:08:52.603655 13811 layer_factory.hpp:77] Creating layer pool3-R_pool3-R_0_split
I0715 17:08:52.603667 13811 net.cpp:84] Creating Layer pool3-R_pool3-R_0_split
I0715 17:08:52.603674 13811 net.cpp:406] pool3-R_pool3-R_0_split <- pool3-R
I0715 17:08:52.603685 13811 net.cpp:380] pool3-R_pool3-R_0_split -> pool3-R_pool3-R_0_split_0
I0715 17:08:52.603699 13811 net.cpp:380] pool3-R_pool3-R_0_split -> pool3-R_pool3-R_0_split_1
I0715 17:08:52.603814 13811 net.cpp:122] Setting up pool3-R_pool3-R_0_split
I0715 17:08:52.603829 13811 net.cpp:129] Top shape: 1 256 89 89 (2027776)
I0715 17:08:52.603840 13811 net.cpp:129] Top shape: 1 256 89 89 (2027776)
I0715 17:08:52.603847 13811 net.cpp:137] Memory required for data: 2315479072
I0715 17:08:52.603854 13811 layer_factory.hpp:77] Creating layer conv4_1-R
I0715 17:08:52.603873 13811 net.cpp:84] Creating Layer conv4_1-R
I0715 17:08:52.603879 13811 net.cpp:406] conv4_1-R <- pool3-R_pool3-R_0_split_0
I0715 17:08:52.603893 13811 net.cpp:380] conv4_1-R -> conv4_1-R
I0715 17:08:52.614784 13811 net.cpp:122] Setting up conv4_1-R
I0715 17:08:52.614832 13811 net.cpp:129] Top shape: 1 512 89 89 (4055552)
I0715 17:08:52.614838 13811 net.cpp:137] Memory required for data: 2331701280
I0715 17:08:52.614852 13811 layer_factory.hpp:77] Creating layer relu4_1-R
I0715 17:08:52.614866 13811 net.cpp:84] Creating Layer relu4_1-R
I0715 17:08:52.614872 13811 net.cpp:406] relu4_1-R <- conv4_1-R
I0715 17:08:52.614881 13811 net.cpp:367] relu4_1-R -> conv4_1-R (in-place)
I0715 17:08:52.615177 13811 net.cpp:122] Setting up relu4_1-R
I0715 17:08:52.615190 13811 net.cpp:129] Top shape: 1 512 89 89 (4055552)
I0715 17:08:52.615195 13811 net.cpp:137] Memory required for data: 2347923488
I0715 17:08:52.615200 13811 layer_factory.hpp:77] Creating layer conv4_2-R
I0715 17:08:52.615212 13811 net.cpp:84] Creating Layer conv4_2-R
I0715 17:08:52.615216 13811 net.cpp:406] conv4_2-R <- conv4_1-R
I0715 17:08:52.615226 13811 net.cpp:380] conv4_2-R -> conv4_2-R
I0715 17:08:52.631078 13811 net.cpp:122] Setting up conv4_2-R
I0715 17:08:52.631126 13811 net.cpp:129] Top shape: 1 512 89 89 (4055552)
I0715 17:08:52.631136 13811 net.cpp:137] Memory required for data: 2364145696
I0715 17:08:52.631153 13811 layer_factory.hpp:77] Creating layer relu4_2-R
I0715 17:08:52.631178 13811 net.cpp:84] Creating Layer relu4_2-R
I0715 17:08:52.631189 13811 net.cpp:406] relu4_2-R <- conv4_2-R
I0715 17:08:52.631201 13811 net.cpp:367] relu4_2-R -> conv4_2-R (in-place)
I0715 17:08:52.631709 13811 net.cpp:122] Setting up relu4_2-R
I0715 17:08:52.631731 13811 net.cpp:129] Top shape: 1 512 89 89 (4055552)
I0715 17:08:52.631747 13811 net.cpp:137] Memory required for data: 2380367904
I0715 17:08:52.631754 13811 layer_factory.hpp:77] Creating layer conv4_3-R
I0715 17:08:52.631780 13811 net.cpp:84] Creating Layer conv4_3-R
I0715 17:08:52.631788 13811 net.cpp:406] conv4_3-R <- conv4_2-R
I0715 17:08:52.631804 13811 net.cpp:380] conv4_3-R -> conv4_3-R
I0715 17:08:52.643312 13811 net.cpp:122] Setting up conv4_3-R
I0715 17:08:52.643344 13811 net.cpp:129] Top shape: 1 512 89 89 (4055552)
I0715 17:08:52.643350 13811 net.cpp:137] Memory required for data: 2396590112
I0715 17:08:52.643360 13811 layer_factory.hpp:77] Creating layer relu4_3-R
I0715 17:08:52.643371 13811 net.cpp:84] Creating Layer relu4_3-R
I0715 17:08:52.643378 13811 net.cpp:406] relu4_3-R <- conv4_3-R
I0715 17:08:52.643385 13811 net.cpp:367] relu4_3-R -> conv4_3-R (in-place)
I0715 17:08:52.644691 13811 net.cpp:122] Setting up relu4_3-R
I0715 17:08:52.644721 13811 net.cpp:129] Top shape: 1 512 89 89 (4055552)
I0715 17:08:52.644726 13811 net.cpp:137] Memory required for data: 2412812320
I0715 17:08:52.644731 13811 layer_factory.hpp:77] Creating layer pool4-R
I0715 17:08:52.644742 13811 net.cpp:84] Creating Layer pool4-R
I0715 17:08:52.644747 13811 net.cpp:406] pool4-R <- conv4_3-R
I0715 17:08:52.644755 13811 net.cpp:380] pool4-R -> pool4-R
I0715 17:08:52.644855 13811 net.cpp:122] Setting up pool4-R
I0715 17:08:52.644865 13811 net.cpp:129] Top shape: 1 512 45 45 (1036800)
I0715 17:08:52.644870 13811 net.cpp:137] Memory required for data: 2416959520
I0715 17:08:52.644875 13811 layer_factory.hpp:77] Creating layer pool4-R_pool4-R_0_split
I0715 17:08:52.644882 13811 net.cpp:84] Creating Layer pool4-R_pool4-R_0_split
I0715 17:08:52.644887 13811 net.cpp:406] pool4-R_pool4-R_0_split <- pool4-R
I0715 17:08:52.644896 13811 net.cpp:380] pool4-R_pool4-R_0_split -> pool4-R_pool4-R_0_split_0
I0715 17:08:52.644903 13811 net.cpp:380] pool4-R_pool4-R_0_split -> pool4-R_pool4-R_0_split_1
I0715 17:08:52.644991 13811 net.cpp:122] Setting up pool4-R_pool4-R_0_split
I0715 17:08:52.645001 13811 net.cpp:129] Top shape: 1 512 45 45 (1036800)
I0715 17:08:52.645007 13811 net.cpp:129] Top shape: 1 512 45 45 (1036800)
I0715 17:08:52.645011 13811 net.cpp:137] Memory required for data: 2425253920
I0715 17:08:52.645016 13811 layer_factory.hpp:77] Creating layer conv5_1-R
I0715 17:08:52.645028 13811 net.cpp:84] Creating Layer conv5_1-R
I0715 17:08:52.645033 13811 net.cpp:406] conv5_1-R <- pool4-R_pool4-R_0_split_0
I0715 17:08:52.645041 13811 net.cpp:380] conv5_1-R -> conv5_1-R
I0715 17:08:52.656530 13811 net.cpp:122] Setting up conv5_1-R
I0715 17:08:52.656551 13811 net.cpp:129] Top shape: 1 512 45 45 (1036800)
I0715 17:08:52.656556 13811 net.cpp:137] Memory required for data: 2429401120
I0715 17:08:52.656585 13811 layer_factory.hpp:77] Creating layer relu5_1-R
I0715 17:08:52.656596 13811 net.cpp:84] Creating Layer relu5_1-R
I0715 17:08:52.656601 13811 net.cpp:406] relu5_1-R <- conv5_1-R
I0715 17:08:52.656612 13811 net.cpp:367] relu5_1-R -> conv5_1-R (in-place)
I0715 17:08:52.656888 13811 net.cpp:122] Setting up relu5_1-R
I0715 17:08:52.656900 13811 net.cpp:129] Top shape: 1 512 45 45 (1036800)
I0715 17:08:52.656904 13811 net.cpp:137] Memory required for data: 2433548320
I0715 17:08:52.656920 13811 layer_factory.hpp:77] Creating layer conv5_2-R
I0715 17:08:52.656931 13811 net.cpp:84] Creating Layer conv5_2-R
I0715 17:08:52.656936 13811 net.cpp:406] conv5_2-R <- conv5_1-R
I0715 17:08:52.656946 13811 net.cpp:380] conv5_2-R -> conv5_2-R
I0715 17:08:52.668052 13811 net.cpp:122] Setting up conv5_2-R
I0715 17:08:52.668074 13811 net.cpp:129] Top shape: 1 512 45 45 (1036800)
I0715 17:08:52.668081 13811 net.cpp:137] Memory required for data: 2437695520
I0715 17:08:52.668090 13811 layer_factory.hpp:77] Creating layer relu5_2-R
I0715 17:08:52.668100 13811 net.cpp:84] Creating Layer relu5_2-R
I0715 17:08:52.668108 13811 net.cpp:406] relu5_2-R <- conv5_2-R
I0715 17:08:52.668115 13811 net.cpp:367] relu5_2-R -> conv5_2-R (in-place)
I0715 17:08:52.668400 13811 net.cpp:122] Setting up relu5_2-R
I0715 17:08:52.668412 13811 net.cpp:129] Top shape: 1 512 45 45 (1036800)
I0715 17:08:52.668416 13811 net.cpp:137] Memory required for data: 2441842720
I0715 17:08:52.668421 13811 layer_factory.hpp:77] Creating layer conv5_3-R
I0715 17:08:52.668433 13811 net.cpp:84] Creating Layer conv5_3-R
I0715 17:08:52.668438 13811 net.cpp:406] conv5_3-R <- conv5_2-R
I0715 17:08:52.668447 13811 net.cpp:380] conv5_3-R -> conv5_3-R
I0715 17:08:52.678510 13811 net.cpp:122] Setting up conv5_3-R
I0715 17:08:52.678531 13811 net.cpp:129] Top shape: 1 512 45 45 (1036800)
I0715 17:08:52.678546 13811 net.cpp:137] Memory required for data: 2445989920
I0715 17:08:52.678556 13811 layer_factory.hpp:77] Creating layer relu5_3-R
I0715 17:08:52.678565 13811 net.cpp:84] Creating Layer relu5_3-R
I0715 17:08:52.678570 13811 net.cpp:406] relu5_3-R <- conv5_3-R
I0715 17:08:52.678578 13811 net.cpp:367] relu5_3-R -> conv5_3-R (in-place)
I0715 17:08:52.678853 13811 net.cpp:122] Setting up relu5_3-R
I0715 17:08:52.678864 13811 net.cpp:129] Top shape: 1 512 45 45 (1036800)
I0715 17:08:52.678869 13811 net.cpp:137] Memory required for data: 2450137120
I0715 17:08:52.678874 13811 layer_factory.hpp:77] Creating layer pool5-R
I0715 17:08:52.678884 13811 net.cpp:84] Creating Layer pool5-R
I0715 17:08:52.678889 13811 net.cpp:406] pool5-R <- conv5_3-R
I0715 17:08:52.678897 13811 net.cpp:380] pool5-R -> pool5-R
I0715 17:08:52.678989 13811 net.cpp:122] Setting up pool5-R
I0715 17:08:52.678999 13811 net.cpp:129] Top shape: 1 512 23 23 (270848)
I0715 17:08:52.679003 13811 net.cpp:137] Memory required for data: 2451220512
I0715 17:08:52.679008 13811 layer_factory.hpp:77] Creating layer fc6-R
I0715 17:08:52.679019 13811 net.cpp:84] Creating Layer fc6-R
I0715 17:08:52.679023 13811 net.cpp:406] fc6-R <- pool5-R
I0715 17:08:52.679033 13811 net.cpp:380] fc6-R -> fc6-R
I0715 17:08:52.985810 13811 net.cpp:122] Setting up fc6-R
I0715 17:08:52.985852 13811 net.cpp:129] Top shape: 1 4096 17 17 (1183744)
I0715 17:08:52.985855 13811 net.cpp:137] Memory required for data: 2455955488
I0715 17:08:52.985868 13811 layer_factory.hpp:77] Creating layer relu6-R
I0715 17:08:52.985896 13811 net.cpp:84] Creating Layer relu6-R
I0715 17:08:52.985903 13811 net.cpp:406] relu6-R <- fc6-R
I0715 17:08:52.985911 13811 net.cpp:367] relu6-R -> fc6-R (in-place)
I0715 17:08:52.986142 13811 net.cpp:122] Setting up relu6-R
I0715 17:08:52.986153 13811 net.cpp:129] Top shape: 1 4096 17 17 (1183744)
I0715 17:08:52.986157 13811 net.cpp:137] Memory required for data: 2460690464
I0715 17:08:52.986161 13811 layer_factory.hpp:77] Creating layer drop6-R
I0715 17:08:52.986171 13811 net.cpp:84] Creating Layer drop6-R
I0715 17:08:52.986174 13811 net.cpp:406] drop6-R <- fc6-R
I0715 17:08:52.986181 13811 net.cpp:367] drop6-R -> fc6-R (in-place)
I0715 17:08:52.986238 13811 net.cpp:122] Setting up drop6-R
I0715 17:08:52.986248 13811 net.cpp:129] Top shape: 1 4096 17 17 (1183744)
I0715 17:08:52.986251 13811 net.cpp:137] Memory required for data: 2465425440
I0715 17:08:52.986254 13811 layer_factory.hpp:77] Creating layer fc7-R
I0715 17:08:52.986265 13811 net.cpp:84] Creating Layer fc7-R
I0715 17:08:52.986269 13811 net.cpp:406] fc7-R <- fc6-R
I0715 17:08:52.986277 13811 net.cpp:380] fc7-R -> fc7-R
I0715 17:08:53.035688 13811 net.cpp:122] Setting up fc7-R
I0715 17:08:53.035725 13811 net.cpp:129] Top shape: 1 4096 17 17 (1183744)
I0715 17:08:53.035729 13811 net.cpp:137] Memory required for data: 2470160416
I0715 17:08:53.035759 13811 layer_factory.hpp:77] Creating layer relu7-R
I0715 17:08:53.035773 13811 net.cpp:84] Creating Layer relu7-R
I0715 17:08:53.035779 13811 net.cpp:406] relu7-R <- fc7-R
I0715 17:08:53.035789 13811 net.cpp:367] relu7-R -> fc7-R (in-place)
I0715 17:08:53.036036 13811 net.cpp:122] Setting up relu7-R
I0715 17:08:53.036048 13811 net.cpp:129] Top shape: 1 4096 17 17 (1183744)
I0715 17:08:53.036051 13811 net.cpp:137] Memory required for data: 2474895392
I0715 17:08:53.036056 13811 layer_factory.hpp:77] Creating layer drop7-R
I0715 17:08:53.036070 13811 net.cpp:84] Creating Layer drop7-R
I0715 17:08:53.036074 13811 net.cpp:406] drop7-R <- fc7-R
I0715 17:08:53.036080 13811 net.cpp:367] drop7-R -> fc7-R (in-place)
I0715 17:08:53.036130 13811 net.cpp:122] Setting up drop7-R
I0715 17:08:53.036141 13811 net.cpp:129] Top shape: 1 4096 17 17 (1183744)
I0715 17:08:53.036144 13811 net.cpp:137] Memory required for data: 2479630368
I0715 17:08:53.036149 13811 layer_factory.hpp:77] Creating layer score_fr-new-R
I0715 17:08:53.036159 13811 net.cpp:84] Creating Layer score_fr-new-R
I0715 17:08:53.036162 13811 net.cpp:406] score_fr-new-R <- fc7-R
I0715 17:08:53.036170 13811 net.cpp:380] score_fr-new-R -> score_fr-new-R
I0715 17:08:53.038177 13811 net.cpp:122] Setting up score_fr-new-R
I0715 17:08:53.038193 13811 net.cpp:129] Top shape: 1 3 17 17 (867)
I0715 17:08:53.038198 13811 net.cpp:137] Memory required for data: 2479633836
I0715 17:08:53.038223 13811 layer_factory.hpp:77] Creating layer upscore2-new-R
I0715 17:08:53.038236 13811 net.cpp:84] Creating Layer upscore2-new-R
I0715 17:08:53.038241 13811 net.cpp:406] upscore2-new-R <- score_fr-new-R
I0715 17:08:53.038249 13811 net.cpp:380] upscore2-new-R -> upscore2-new-R
I0715 17:08:53.038640 13811 net.cpp:122] Setting up upscore2-new-R
I0715 17:08:53.038650 13811 net.cpp:129] Top shape: 1 3 36 36 (3888)
I0715 17:08:53.038653 13811 net.cpp:137] Memory required for data: 2479649388
I0715 17:08:53.038660 13811 layer_factory.hpp:77] Creating layer upscore2-new-R_upscore2-new-R_0_split
I0715 17:08:53.038667 13811 net.cpp:84] Creating Layer upscore2-new-R_upscore2-new-R_0_split
I0715 17:08:53.038671 13811 net.cpp:406] upscore2-new-R_upscore2-new-R_0_split <- upscore2-new-R
I0715 17:08:53.038677 13811 net.cpp:380] upscore2-new-R_upscore2-new-R_0_split -> upscore2-new-R_upscore2-new-R_0_split_0
I0715 17:08:53.038686 13811 net.cpp:380] upscore2-new-R_upscore2-new-R_0_split -> upscore2-new-R_upscore2-new-R_0_split_1
I0715 17:08:53.038753 13811 net.cpp:122] Setting up upscore2-new-R_upscore2-new-R_0_split
I0715 17:08:53.038763 13811 net.cpp:129] Top shape: 1 3 36 36 (3888)
I0715 17:08:53.038769 13811 net.cpp:129] Top shape: 1 3 36 36 (3888)
I0715 17:08:53.038772 13811 net.cpp:137] Memory required for data: 2479680492
I0715 17:08:53.038776 13811 layer_factory.hpp:77] Creating layer score_pool4-new-R
I0715 17:08:53.038784 13811 net.cpp:84] Creating Layer score_pool4-new-R
I0715 17:08:53.038789 13811 net.cpp:406] score_pool4-new-R <- pool4-R_pool4-R_0_split_1
I0715 17:08:53.038796 13811 net.cpp:380] score_pool4-new-R -> score_pool4-new-R
I0715 17:08:53.040746 13811 net.cpp:122] Setting up score_pool4-new-R
I0715 17:08:53.040763 13811 net.cpp:129] Top shape: 1 3 45 45 (6075)
I0715 17:08:53.040767 13811 net.cpp:137] Memory required for data: 2479704792
I0715 17:08:53.040791 13811 layer_factory.hpp:77] Creating layer score_pool4c-R
I0715 17:08:53.040802 13811 net.cpp:84] Creating Layer score_pool4c-R
I0715 17:08:53.040814 13811 net.cpp:406] score_pool4c-R <- score_pool4-new-R
I0715 17:08:53.040820 13811 net.cpp:406] score_pool4c-R <- upscore2-new-R_upscore2-new-R_0_split_0
I0715 17:08:53.040827 13811 net.cpp:380] score_pool4c-R -> score_pool4c-R
I0715 17:08:53.040875 13811 net.cpp:122] Setting up score_pool4c-R
I0715 17:08:53.040885 13811 net.cpp:129] Top shape: 1 3 36 36 (3888)
I0715 17:08:53.040889 13811 net.cpp:137] Memory required for data: 2479720344
I0715 17:08:53.040892 13811 layer_factory.hpp:77] Creating layer fuse_pool4-R
I0715 17:08:53.040901 13811 net.cpp:84] Creating Layer fuse_pool4-R
I0715 17:08:53.040905 13811 net.cpp:406] fuse_pool4-R <- upscore2-new-R_upscore2-new-R_0_split_1
I0715 17:08:53.040910 13811 net.cpp:406] fuse_pool4-R <- score_pool4c-R
I0715 17:08:53.040916 13811 net.cpp:380] fuse_pool4-R -> fuse_pool4-R
I0715 17:08:53.040961 13811 net.cpp:122] Setting up fuse_pool4-R
I0715 17:08:53.040971 13811 net.cpp:129] Top shape: 1 3 36 36 (3888)
I0715 17:08:53.040974 13811 net.cpp:137] Memory required for data: 2479735896
I0715 17:08:53.040978 13811 layer_factory.hpp:77] Creating layer upscore_pool4-new-R
I0715 17:08:53.040987 13811 net.cpp:84] Creating Layer upscore_pool4-new-R
I0715 17:08:53.040990 13811 net.cpp:406] upscore_pool4-new-R <- fuse_pool4-R
I0715 17:08:53.040997 13811 net.cpp:380] upscore_pool4-new-R -> upscore_pool4-new-R
I0715 17:08:53.041378 13811 net.cpp:122] Setting up upscore_pool4-new-R
I0715 17:08:53.041388 13811 net.cpp:129] Top shape: 1 3 74 74 (16428)
I0715 17:08:53.041391 13811 net.cpp:137] Memory required for data: 2479801608
I0715 17:08:53.041398 13811 layer_factory.hpp:77] Creating layer upscore_pool4-new-R_upscore_pool4-new-R_0_split
I0715 17:08:53.041404 13811 net.cpp:84] Creating Layer upscore_pool4-new-R_upscore_pool4-new-R_0_split
I0715 17:08:53.041409 13811 net.cpp:406] upscore_pool4-new-R_upscore_pool4-new-R_0_split <- upscore_pool4-new-R
I0715 17:08:53.041414 13811 net.cpp:380] upscore_pool4-new-R_upscore_pool4-new-R_0_split -> upscore_pool4-new-R_upscore_pool4-new-R_0_split_0
I0715 17:08:53.041421 13811 net.cpp:380] upscore_pool4-new-R_upscore_pool4-new-R_0_split -> upscore_pool4-new-R_upscore_pool4-new-R_0_split_1
I0715 17:08:53.041489 13811 net.cpp:122] Setting up upscore_pool4-new-R_upscore_pool4-new-R_0_split
I0715 17:08:53.041499 13811 net.cpp:129] Top shape: 1 3 74 74 (16428)
I0715 17:08:53.041504 13811 net.cpp:129] Top shape: 1 3 74 74 (16428)
I0715 17:08:53.041508 13811 net.cpp:137] Memory required for data: 2479933032
I0715 17:08:53.041512 13811 layer_factory.hpp:77] Creating layer score_pool3-new-R
I0715 17:08:53.041522 13811 net.cpp:84] Creating Layer score_pool3-new-R
I0715 17:08:53.041527 13811 net.cpp:406] score_pool3-new-R <- pool3-R_pool3-R_0_split_1
I0715 17:08:53.041532 13811 net.cpp:380] score_pool3-new-R -> score_pool3-new-R
I0715 17:08:53.046644 13811 net.cpp:122] Setting up score_pool3-new-R
I0715 17:08:53.046710 13811 net.cpp:129] Top shape: 1 3 89 89 (23763)
I0715 17:08:53.046722 13811 net.cpp:137] Memory required for data: 2480028084
I0715 17:08:53.046742 13811 layer_factory.hpp:77] Creating layer score_pool3c-R
I0715 17:08:53.046772 13811 net.cpp:84] Creating Layer score_pool3c-R
I0715 17:08:53.046783 13811 net.cpp:406] score_pool3c-R <- score_pool3-new-R
I0715 17:08:53.046798 13811 net.cpp:406] score_pool3c-R <- upscore_pool4-new-R_upscore_pool4-new-R_0_split_0
I0715 17:08:53.046811 13811 net.cpp:380] score_pool3c-R -> score_pool3c-R
I0715 17:08:53.046916 13811 net.cpp:122] Setting up score_pool3c-R
I0715 17:08:53.046933 13811 net.cpp:129] Top shape: 1 3 74 74 (16428)
I0715 17:08:53.046941 13811 net.cpp:137] Memory required for data: 2480093796
I0715 17:08:53.046949 13811 layer_factory.hpp:77] Creating layer fuse_pool3-R
I0715 17:08:53.046963 13811 net.cpp:84] Creating Layer fuse_pool3-R
I0715 17:08:53.046972 13811 net.cpp:406] fuse_pool3-R <- upscore_pool4-new-R_upscore_pool4-new-R_0_split_1
I0715 17:08:53.046981 13811 net.cpp:406] fuse_pool3-R <- score_pool3c-R
I0715 17:08:53.046993 13811 net.cpp:380] fuse_pool3-R -> fuse_pool3-R
I0715 17:08:53.047081 13811 net.cpp:122] Setting up fuse_pool3-R
I0715 17:08:53.047096 13811 net.cpp:129] Top shape: 1 3 74 74 (16428)
I0715 17:08:53.047103 13811 net.cpp:137] Memory required for data: 2480159508
I0715 17:08:53.047111 13811 layer_factory.hpp:77] Creating layer upscore8-new-R
I0715 17:08:53.047127 13811 net.cpp:84] Creating Layer upscore8-new-R
I0715 17:08:53.047135 13811 net.cpp:406] upscore8-new-R <- fuse_pool3-R
I0715 17:08:53.047148 13811 net.cpp:380] upscore8-new-R -> upscore8-new-R
I0715 17:08:53.049764 13811 net.cpp:122] Setting up upscore8-new-R
I0715 17:08:53.049800 13811 net.cpp:129] Top shape: 1 3 600 600 (1080000)
I0715 17:08:53.049808 13811 net.cpp:137] Memory required for data: 2484479508
I0715 17:08:53.049820 13811 layer_factory.hpp:77] Creating layer upscore8_cropped-R
I0715 17:08:53.049834 13811 net.cpp:84] Creating Layer upscore8_cropped-R
I0715 17:08:53.049842 13811 net.cpp:406] upscore8_cropped-R <- upscore8-new-R
I0715 17:08:53.049860 13811 net.cpp:406] upscore8_cropped-R <- data-R_crop_0_split_1
I0715 17:08:53.049872 13811 net.cpp:380] upscore8_cropped-R -> upscore8_cropped-R
I0715 17:08:53.049952 13811 net.cpp:122] Setting up upscore8_cropped-R
I0715 17:08:53.049968 13811 net.cpp:129] Top shape: 1 3 512 512 (786432)
I0715 17:08:53.049974 13811 net.cpp:137] Memory required for data: 2487625236
I0715 17:08:53.049983 13811 layer_factory.hpp:77] Creating layer upscore8_uncropped-R
I0715 17:08:53.050148 13811 net.cpp:84] Creating Layer upscore8_uncropped-R
I0715 17:08:53.050195 13811 net.cpp:406] upscore8_uncropped-R <- crop_info
I0715 17:08:53.050211 13811 net.cpp:406] upscore8_uncropped-R <- upscore8_cropped-R
I0715 17:08:53.050223 13811 net.cpp:406] upscore8_uncropped-R <- data_data_0_split_3
I0715 17:08:53.050236 13811 net.cpp:380] upscore8_uncropped-R -> upscore8_uncropped-R
I0715 17:08:53.057391 13811 net.cpp:122] Setting up upscore8_uncropped-R
I0715 17:08:53.057453 13811 net.cpp:129] Top shape: 1 3 512 512 (786432)
I0715 17:08:53.057462 13811 net.cpp:137] Memory required for data: 2490770964
I0715 17:08:53.057473 13811 layer_factory.hpp:77] Creating layer loss1
I0715 17:08:53.057493 13811 net.cpp:84] Creating Layer loss1
I0715 17:08:53.057504 13811 net.cpp:406] loss1 <- upscore8_cropped_upscore8_cropped_0_split_1
I0715 17:08:53.057518 13811 net.cpp:406] loss1 <- label_data_1_split_1
I0715 17:08:53.057531 13811 net.cpp:380] loss1 -> loss1
…
