…
snapshot_prefix: "/media/Med_2T2/data2/models/snapshots/indiv:1e-5x10,20/FD2:YI3_1_20180715_091946/train"
test_initialization: false
average_loss: 20
stepvalue: 40000
iter_size: 1
I0715 12:51:06.083189 13368 solver.cpp:77] Creating training net from train_net file: /media/Med_2T2/data2/prototxts/training_S3x10.prototxt
I0715 12:51:06.088169 13368 net.cpp:51] Initializing net from parameters: 
state {
  phase: TRAIN
}
layer {
  name: "data"
  type: "Python"
  top: "data"
  top: "label"
  top: "crop_margin"
  top: "crop_prob"
  top: "crop_sample_batch"
  python_param {
    module: "Data"
    layer: "DataLayer"
  }
}
layer {
  name: "conv1_1"
  type: "Convolution"
  bottom: "data"
  top: "conv1_1"
  param {
    lr_mult: 1
    decay_mult: 1
  }
  param {
    lr_mult: 2
    decay_mult: 0
  }
  convolution_param {
    num_output: 64
    pad: 100
    kernel_size: 3
    stride: 1
  }
}
layer {
  name: "relu1_1"
  type: "ReLU"
  bottom: "conv1_1"
  top: "conv1_1"
}
layer {
  name: "conv1_2"
  type: "Convolution"
  bottom: "conv1_1"
  top: "conv1_2"
  param {
    lr_mult: 1
    decay_mult: 1
  }
  param {
    lr_mult: 2
    decay_mult: 0
  }
  convolution_param {
    num_output: 64
    pad: 1
    kernel_size: 3
    stride: 1
  }
}
layer {
  name: "relu1_2"
  type: "ReLU"
  bottom: "conv1_2"
  top: "conv1_2"
}
layer {
  name: "pool1"
  type: "Pooling"
  bottom: "conv1_2"
  top: "pool1"
  pooling_param {
    pool: MAX
    kernel_size: 2
    stride: 2
  }
}
layer {
  name: "conv2_1"
  type: "Convolution"
  bottom: "pool1"
  top: "conv2_1"
  param {
    lr_mult: 1
    decay_mult: 1
  }
  param {
    lr_mult: 2
    decay_mult: 0
  }
  convolution_param {
    num_output: 128
    pad: 1
    kernel_size: 3
    stride: 1
  }
}
layer {
  name: "relu2_1"
  type: "ReLU"
  bottom: "conv2_1"
  top: "conv2_1"
}
layer {
  name: "conv2_2"
  type: "Convolution"
  bottom: "conv2_1"
  top: "conv2_2"
  param {
    lr_mult: 1
    decay_mult: 1
  }
  param {
    lr_mult: 2
    decay_mult: 0
  }
  convolution_param {
    num_output: 128
    pad: 1
    kernel_size: 3
    stride: 1
  }
}
layer {
  name: "relu2_2"
  type: "ReLU"
  bottom: "conv2_2"
  top: "conv2_2"
}
layer {
  name: "pool2"
  type: "Pooling"
  bottom: "conv2_2"
  top: "pool2"
  pooling_param {
    pool: MAX
    kernel_size: 2
    stride: 2
  }
}
layer {
  name: "conv3_1"
  type: "Convolution"
  bottom: "pool2"
  top: "conv3_1"
  param {
    lr_mult: 1
    decay_mult: 1
  }
  param {
    lr_mult: 2
    decay_mult: 0
  }
  convolution_param {
    num_output: 256
    pad: 1
    kernel_size: 3
    stride: 1
  }
}
layer {
  name: "relu3_1"
  type: "ReLU"
  bottom: "conv3_1"
  top: "conv3_1"
}
layer {
  name: "conv3_2"
  type: "Convolution"
  bottom: "conv3_1"
  top: "conv3_2"
  param {
    lr_mult: 1
    decay_mult: 1
  }
  param {
    lr_mult: 2
    decay_mult: 0
  }
  convolution_param {
    num_output: 256
    pad: 1
    kernel_size: 3
    stride: 1
  }
}
layer {
  name: "relu3_2"
  type: "ReLU"
  bottom: "conv3_2"
  top: "conv3_2"
}
layer {
  name: "conv3_3"
  type: "Convolution"
  bottom: "conv3_2"
  top: "conv3_3"
  param {
    lr_mult: 1
    decay_mult: 1
  }
  param {
    lr_mult: 2
    decay_mult: 0
  }
  convolution_param {
    num_output: 256
    pad: 1
    kernel_size: 3
    stride: 1
  }
}
layer {
  name: "relu3_3"
  type: "ReLU"
  bottom: "conv3_3"
  top: "conv3_3"
}
layer {
  name: "pool3"
  type: "Pooling"
  bottom: "conv3_3"
  top: "pool3"
  pooling_param {
    pool: MAX
    kernel_size: 2
    stride: 2
  }
}
layer {
  name: "conv4_1"
  type: "Convolution"
  bottom: "pool3"
  top: "conv4_1"
  param {
    lr_mult: 1
    decay_mult: 1
  }
  param {
    lr_mult: 2
    decay_mult: 0
  }
  convolution_param {
    num_output: 512
    pad: 1
    kernel_size: 3
    stride: 1
  }
}
layer {
  name: "relu4_1"
  type: "ReLU"
  bottom: "conv4_1"
  top: "conv4_1"
}
layer {
  name: "conv4_2"
  type: "Convolution"
  bottom: "conv4_1"
  top: "conv4_2"
  param {
    lr_mult: 1
    decay_mult: 1
  }
  param {
    lr_mult: 2
    decay_mult: 0
  }
  convolution_param {
    num_output: 512
    pad: 1
    kernel_size: 3
    stride: 1
  }
}
layer {
  name: "relu4_2"
  type: "ReLU"
  bottom: "conv4_2"
  top: "conv4_2"
}
layer {
  name: "conv4_3"
  type: "Convolution"
  bottom: "conv4_2"
  top: "conv4_3"
  param {
    lr_mult: 1
    decay_mult: 1
  }
  param {
    lr_mult: 2
    decay_mult: 0
  }
  convolution_param {
    num_output: 512
    pad: 1
    kernel_size: 3
    stride: 1
  }
}
layer {
  name: "relu4_3"
  type: "ReLU"
  bottom: "conv4_3"
  top: "conv4_3"
}
layer {
  name: "pool4"
  type: "Pooling"
  bottom: "conv4_3"
  top: "pool4"
  pooling_param {
    pool: MAX
    kernel_size: 2
    stride: 2
  }
}
layer {
  name: "conv5_1"
  type: "Convolution"
  bottom: "pool4"
  top: "conv5_1"
  param {
    lr_mult: 1
    decay_mult: 1
  }
  param {
    lr_mult: 2
    decay_mult: 0
  }
  convolution_param {
    num_output: 512
    pad: 1
    kernel_size: 3
    stride: 1
  }
}
layer {
  name: "relu5_1"
  type: "ReLU"
  bottom: "conv5_1"
  top: "conv5_1"
}
layer {
  name: "conv5_2"
  type: "Convolution"
  bottom: "conv5_1"
  top: "conv5_2"
  param {
    lr_mult: 1
    decay_mult: 1
  }
  param {
    lr_mult: 2
    decay_mult: 0
  }
  convolution_param {
    num_output: 512
    pad: 1
    kernel_size: 3
    stride: 1
  }
}
layer {
  name: "relu5_2"
  type: "ReLU"
  bottom: "conv5_2"
  top: "conv5_2"
}
layer {
  name: "conv5_3"
  type: "Convolution"
  bottom: "conv5_2"
  top: "conv5_3"
  param {
    lr_mult: 1
    decay_mult: 1
  }
  param {
    lr_mult: 2
    decay_mult: 0
  }
  convolution_param {
    num_output: 512
    pad: 1
    kernel_size: 3
    stride: 1
  }
}
layer {
  name: "relu5_3"
  type: "ReLU"
  bottom: "conv5_3"
  top: "conv5_3"
}
layer {
  name: "pool5"
  type: "Pooling"
  bottom: "conv5_3"
  top: "pool5"
  pooling_param {
    pool: MAX
    kernel_size: 2
    stride: 2
  }
}
layer {
  name: "fc6"
  type: "Convolution"
  bottom: "pool5"
  top: "fc6"
  param {
    lr_mult: 1
    decay_mult: 1
  }
  param {
    lr_mult: 2
    decay_mult: 0
  }
  convolution_param {
    num_output: 4096
    pad: 0
    kernel_size: 7
    stride: 1
  }
}
layer {
  name: "relu6"
  type: "ReLU"
  bottom: "fc6"
  top: "fc6"
}
layer {
  name: "drop6"
  type: "Dropout"
  bottom: "fc6"
  top: "fc6"
  dropout_param {
    dropout_ratio: 0.5
  }
}
layer {
  name: "fc7"
  type: "Convolution"
  bottom: "fc6"
  top: "fc7"
  param {
    lr_mult: 1
    decay_mult: 1
  }
  param {
    lr_mult: 2
    decay_mult: 0
  }
  convolution_param {
    num_output: 4096
    pad: 0
    kernel_size: 1
    stride: 1
  }
}
layer {
  name: "relu7"
  type: "ReLU"
  bottom: "fc7"
  top: "fc7"
}
layer {
  name: "drop7"
  type: "Dropout"
  bottom: "fc7"
  top: "fc7"
  dropout_param {
    dropout_ratio: 0.5
  }
}
layer {
  name: "score_fr-new"
  type: "Convolution"
  bottom: "fc7"
  top: "score_fr-new"
  param {
    lr_mult: 1
    decay_mult: 1
  }
  param {
    lr_mult: 2
    decay_mult: 0
  }
  convolution_param {
    num_output: 3
    kernel_size: 1
  }
}
layer {
  name: "upscore2-new"
  type: "Deconvolution"
  bottom: "score_fr-new"
  top: "upscore2-new"
  param {
    lr_mult: 0
  }
  convolution_param {
    num_output: 3
    bias_term: false
    kernel_size: 4
    stride: 2
  }
}
layer {
  name: "score_pool4-new"
  type: "Convolution"
  bottom: "pool4"
  top: "score_pool4-new"
  param {
    lr_mult: 1
    decay_mult: 1
  }
  param {
    lr_mult: 2
    decay_mult: 0
  }
  convolution_param {
    num_output: 3
    pad: 0
    kernel_size: 1
  }
}
layer {
  name: "score_pool4c"
  type: "Crop"
  bottom: "score_pool4-new"
  bottom: "upscore2-new"
  top: "score_pool4c"
  crop_param {
    axis: 2
    offset: 5
  }
}
layer {
  name: "fuse_pool4"
  type: "Eltwise"
  bottom: "upscore2-new"
  bottom: "score_pool4c"
  top: "fuse_pool4"
  eltwise_param {
    operation: SUM
  }
}
layer {
  name: "upscore_pool4-new"
  type: "Deconvolution"
  bottom: "fuse_pool4"
  top: "upscore_pool4-new"
  param {
    lr_mult: 0
  }
  convolution_param {
    num_output: 3
    bias_term: false
    kernel_size: 4
    stride: 2
  }
}
layer {
  name: "score_pool3-new"
  type: "Convolution"
  bottom: "pool3"
  top: "score_pool3-new"
  param {
    lr_mult: 1
    decay_mult: 1
  }
  param {
    lr_mult: 2
    decay_mult: 0
  }
  convolution_param {
    num_output: 3
    pad: 0
    kernel_size: 1
  }
}
layer {
  name: "score_pool3c"
  type: "Crop"
  bottom: "score_pool3-new"
  bottom: "upscore_pool4-new"
  top: "score_pool3c"
  crop_param {
    axis: 2
    offset: 9
  }
}
layer {
  name: "fuse_pool3"
  type: "Eltwise"
  bottom: "upscore_pool4-new"
  bottom: "score_pool3c"
  top: "fuse_pool3"
  eltwise_param {
    operation: SUM
  }
}
layer {
  name: "upscore8-new"
  type: "Deconvolution"
  bottom: "fuse_pool3"
  top: "upscore8-new"
  param {
    lr_mult: 0
  }
  convolution_param {
    num_output: 3
    bias_term: false
    kernel_size: 16
    stride: 8
  }
}
layer {
  name: "upscore8_cropped"
  type: "Crop"
  bottom: "upscore8-new"
  bottom: "data"
  top: "upscore8_cropped"
  crop_param {
    axis: 2
    offset: 31
  }
}
layer {
  name: "prob"
  type: "Sigmoid"
  bottom: "upscore8_cropped"
  top: "prob"
}
layer {
  name: "saliency1"
  type: "Convolution"
  bottom: "prob"
  top: "saliency1"
  param {
    lr_mult: 10
    decay_mult: 1
  }
  param {
    lr_mult: 20
    decay_mult: 0
  }
  convolution_param {
    num_output: 3
    pad: 1
    kernel_size: 3
    stride: 1
    weight_filler {
      type: "xavier"
    }
    bias_filler {
      type: "constant"
      value: 1
    }
  }
}
layer {
  name: "relu_saliency1"
  type: "ReLU"
  bottom: "saliency1"
  top: "saliency1"
}
layer {
  name: "saliency"
  type: "Convolution"
  bottom: "saliency1"
  top: "saliency"
  param {
    lr_mult: 10
    decay_mult: 1
  }
  param {
    lr_mult: 20
    decay_mult: 0
  }
  convolution_param {
    num_output: 3
    pad: 2
    kernel_size: 5
    stride: 1
    weight_filler {
      type: "xavier"
    }
    bias_filler {
      type: "constant"
      value: 1
    }
  }
}
layer {
  name: "silence_saliency"
  type: "Silence"
  bottom: "saliency"
}
layer {
  name: "crop"
  type: "Python"
  bottom: "label"
  bottom: "data"
  bottom: "crop_margin"
  bottom: "crop_prob"
  bottom: "crop_sample_batch"
  top: "data-R"
  top: "crop_info"
  python_param {
    module: "Crop"
    layer: "CropLayer"
    param_str: "{\"TEST\": 0}"
  }
}
layer {
  name: "conv1_1-R"
  type: "Convolution"
  bottom: "data-R"
  top: "conv1_1-R"
  param {
    lr_mult: 10
    decay_mult: 1
  }
  param {
    lr_mult: 20
    decay_mult: 0
  }
  convolution_param {
    num_output: 64
    pad: 100
    kernel_size: 3
    stride: 1
  }
}
layer {
  name: "relu1_1-R"
  type: "ReLU"
  bottom: "conv1_1-R"
  top: "conv1_1-R"
}
layer {
  name: "conv1_2-R"
  type: "Convolution"
  bottom: "conv1_1-R"
  top: "conv1_2-R"
  param {
    lr_mult: 10
    decay_mult: 1
  }
  param {
    lr_mult: 20
    decay_mult: 0
  }
  convolution_param {
    num_output: 64
    pad: 1
    kernel_size: 3
    stride: 1
  }
}
layer {
  name: "relu1_2-R"
  type: "ReLU"
  bottom: "conv1_2-R"
  top: "conv1_2-R"
}
layer {
  name: "pool1-R"
  type: "Pooling"
  bottom: "conv1_2-R"
  top: "pool1-R"
  pooling_param {
    pool: MAX
    kernel_size: 2
    stride: 2
  }
}
layer {
  name: "conv2_1-R"
  type: "Convolution"
  bottom: "pool1-R"
  top: "conv2_1-R"
  param {
    lr_mult: 10
    decay_mult: 1
  }
  param {
    lr_mult: 20
    decay_mult: 0
  }
  convolution_param {
    num_output: 128
    pad: 1
    kernel_size: 3
    stride: 1
  }
}
layer {
  name: "relu2_1-R"
  type: "ReLU"
  bottom: "conv2_1-R"
  top: "conv2_1-R"
}
layer {
  name: "conv2_2-R"
  type: "Convolution"
  bottom: "conv2_1-R"
  top: "conv2_2-R"
  param {
    lr_mult: 10
    decay_mult: 1
  }
  param {
    lr_mult: 20
    decay_mult: 0
  }
  convolution_param {
    num_output: 128
    pad: 1
    kernel_size: 3
    stride: 1
  }
}
layer {
  name: "relu2_2-R"
  type: "ReLU"
  bottom: "conv2_2-R"
  top: "conv2_2-R"
}
layer {
  name: "pool2-R"
  type: "Pooling"
  bottom: "conv2_2-R"
  top: "pool2-R"
  pooling_param {
    pool: MAX
    kernel_size: 2
    stride: 2
  }
}
layer {
  name: "conv3_1-R"
  type: "Convolution"
  bottom: "pool2-R"
  top: "conv3_1-R"
  param {
    lr_mult: 10
    decay_mult: 1
  }
  param {
    lr_mult: 20
    decay_mult: 0
  }
  convolution_param {
    num_output: 256
    pad: 1
    kernel_size: 3
    stride: 1
  }
}
layer {
  name: "relu3_1-R"
  type: "ReLU"
  bottom: "conv3_1-R"
  top: "conv3_1-R"
}
layer {
  name: "conv3_2-R"
  type: "Convolution"
  bottom: "conv3_1-R"
  top: "conv3_2-R"
  param {
    lr_mult: 10
    decay_mult: 1
  }
  param {
    lr_mult: 20
    decay_mult: 0
  }
  convolution_param {
    num_output: 256
    pad: 1
    kernel_size: 3
    stride: 1
  }
}
layer {
  name: "relu3_2-R"
  type: "ReLU"
  bottom: "conv3_2-R"
  top: "conv3_2-R"
}
layer {
  name: "conv3_3-R"
  type: "Convolution"
  bottom: "conv3_2-R"
  top: "conv3_3-R"
  param {
    lr_mult: 10
    decay_mult: 1
  }
  param {
    lr_mult: 20
    decay_mult: 0
  }
  convolution_param {
    num_output: 256
    pad: 1
    kernel_size: 3
    stride: 1
  }
}
layer {
  name: "relu3_3-R"
  type: "ReLU"
  bottom: "conv3_3-R"
  top: "conv3_3-R"
}
layer {
  name: "pool3-R"
  type: "Pooling"
  bottom: "conv3_3-R"
  top: "pool3-R"
  pooling_param {
    pool: MAX
    kernel_size: 2
    stride: 2
  }
}
layer {
  name: "conv4_1-R"
  type: "Convolution"
  bottom: "pool3-R"
  top: "conv4_1-R"
  param {
    lr_mult: 10
    decay_mult: 1
  }
  param {
    lr_mult: 20
    decay_mult: 0
  }
  convolution_param {
    num_output: 512
    pad: 1
    kernel_size: 3
    stride: 1
  }
}
layer {
  name: "relu4_1-R"
  type: "ReLU"
  bottom: "conv4_1-R"
  top: "conv4_1-R"
}
layer {
  name: "conv4_2-R"
  type: "Convolution"
  bottom: "conv4_1-R"
  top: "conv4_2-R"
  param {
    lr_mult: 10
    decay_mult: 1
  }
  param {
    lr_mult: 20
    decay_mult: 0
  }
  convolution_param {
    num_output: 512
    pad: 1
    kernel_size: 3
    stride: 1
  }
}
layer {
  name: "relu4_2-R"
  type: "ReLU"
  bottom: "conv4_2-R"
  top: "conv4_2-R"
}
layer {
  name: "conv4_3-R"
  type: "Convolution"
  bottom: "conv4_2-R"
  top: "conv4_3-R"
  param {
    lr_mult: 10
    decay_mult: 1
  }
  param {
    lr_mult: 20
    decay_mult: 0
  }
  convolution_param {
    num_output: 512
    pad: 1
    kernel_size: 3
    stride: 1
  }
}
layer {
  name: "relu4_3-R"
  type: "ReLU"
  bottom: "conv4_3-R"
  top: "conv4_3-R"
}
layer {
  name: "pool4-R"
  type: "Pooling"
  bottom: "conv4_3-R"
  top: "pool4-R"
  pooling_param {
    pool: MAX
    kernel_size: 2
    stride: 2
  }
}
layer {
  name: "conv5_1-R"
  type: "Convolution"
  bottom: "pool4-R"
  top: "conv5_1-R"
  param {
    lr_mult: 10
    decay_mult: 1
  }
  param {
    lr_mult: 20
    decay_mult: 0
  }
  convolution_param {
    num_output: 512
    pad: 1
    kernel_size: 3
    stride: 1
  }
}
layer {
  name: "relu5_1-R"
  type: "ReLU"
  bottom: "conv5_1-R"
  top: "conv5_1-R"
}
layer {
  name: "conv5_2-R"
  type: "Convolution"
  bottom: "conv5_1-R"
  top: "conv5_2-R"
  param {
    lr_mult: 10
    decay_mult: 1
  }
  param {
    lr_mult: 20
    decay_mult: 0
  }
  convolution_param {
    num_output: 512
    pad: 1
    kernel_size: 3
    stride: 1
  }
}
layer {
  name: "relu5_2-R"
  type: "ReLU"
  bottom: "conv5_2-R"
  top: "conv5_2-R"
}
layer {
  name: "conv5_3-R"
  type: "Convolution"
  bottom: "conv5_2-R"
  top: "conv5_3-R"
  param {
    lr_mult: 10
    decay_mult: 1
  }
  param {
    lr_mult: 20
    decay_mult: 0
  }
  convolution_param {
    num_output: 512
    pad: 1
    kernel_size: 3
    stride: 1
  }
}
layer {
  name: "relu5_3-R"
  type: "ReLU"
  bottom: "conv5_3-R"
  top: "conv5_3-R"
}
layer {
  name: "pool5-R"
  type: "Pooling"
  bottom: "conv5_3-R"
  top: "pool5-R"
  pooling_param {
    pool: MAX
    kernel_size: 2
    stride: 2
  }
}
layer {
  name: "fc6-R"
  type: "Convolution"
  bottom: "pool5-R"
  top: "fc6-R"
  param {
    lr_mult: 10
    decay_mult: 1
  }
  param {
    lr_mult: 20
    decay_mult: 0
  }
  convolution_param {
    num_output: 4096
    pad: 0
    kernel_size: 7
    stride: 1
  }
}
layer {
  name: "relu6-R"
  type: "ReLU"
  bottom: "fc6-R"
  top: "fc6-R"
}
layer {
  name: "drop6-R"
  type: "Dropout"
  bottom: "fc6-R"
  top: "fc6-R"
  dropout_param {
    dropout_ratio: 0.5
  }
}
layer {
  name: "fc7-R"
  type: "Convolution"
  bottom: "fc6-R"
  top: "fc7-R"
  param {
    lr_mult: 10
    decay_mult: 1
  }
  param {
    lr_mult: 20
    decay_mult: 0
  }
  convolution_param {
    num_output: 4096
    pad: 0
    kernel_size: 1
    stride: 1
  }
}
layer {
  name: "relu7-R"
  type: "ReLU"
  bottom: "fc7-R"
  top: "fc7-R"
}
layer {
  name: "drop7-R"
  type: "Dropout"
  bottom: "fc7-R"
  top: "fc7-R"
  dropout_param {
    dropout_ratio: 0.5
  }
}
layer {
  name: "score_fr-new-R"
  type: "Convolution"
  bottom: "fc7-R"
  top: "score_fr-new-R"
  param {
    lr_mult: 10
    decay_mult: 1
  }
  param {
    lr_mult: 20
    decay_mult: 0
  }
  convolution_param {
    num_output: 3
    kernel_size: 1
  }
}
layer {
  name: "upscore2-new-R"
  type: "Deconvolution"
  bottom: "score_fr-new-R"
  top: "upscore2-new-R"
  param {
    lr_mult: 0
  }
  convolution_param {
    num_output: 3
    bias_term: false
    kernel_size: 4
    stride: 2
  }
}
layer {
  name: "score_pool4-new-R"
  type: "Convolution"
  bottom: "pool4-R"
  top: "score_pool4-new-R"
  param {
    lr_mult: 10
    decay_mult: 1
  }
  param {
    lr_mult: 20
    decay_mult: 0
  }
  convolution_param {
    num_output: 3
    pad: 0
    kernel_size: 1
  }
}
layer {
  name: "score_pool4c-R"
  type: "Crop"
  bottom: "score_pool4-new-R"
  bottom: "upscore2-new-R"
  top: "score_pool4c-R"
  crop_param {
    axis: 2
    offset: 5
  }
}
layer {
  name: "fuse_pool4-R"
  type: "Eltwise"
  bottom: "upscore2-new-R"
  bottom: "score_pool4c-R"
  top: "fuse_pool4-R"
  eltwise_param {
    operation: SUM
  }
}
layer {
  name: "upscore_pool4-new-R"
  type: "Deconvolution"
  bottom: "fuse_pool4-R"
  top: "upscore_pool4-new-R"
  param {
    lr_mult: 0
  }
  convolution_param {
    num_output: 3
    bias_term: false
    kernel_size: 4
    stride: 2
  }
}
layer {
  name: "score_pool3-new-R"
  type: "Convolution"
  bottom: "pool3-R"
  top: "score_pool3-new-R"
  param {
    lr_mult: 10
    decay_mult: 1
  }
  param {
    lr_mult: 20
    decay_mult: 0
  }
  convolution_param {
    num_output: 3
    pad: 0
    kernel_size: 1
  }
}
layer {
  name: "score_pool3c-R"
  type: "Crop"
  bottom: "score_pool3-new-R"
  bottom: "upscore_pool4-new-R"
  top: "score_pool3c-R"
  crop_param {
    axis: 2
    offset: 9
  }
}
layer {
  name: "fuse_pool3-R"
  type: "Eltwise"
  bottom: "upscore_pool4-new-R"
  bottom: "score_pool3c-R"
  top: "fuse_pool3-R"
  eltwise_param {
    operation: SUM
  }
}
layer {
  name: "upscore8-new-R"
  type: "Deconvolution"
  bottom: "fuse_pool3-R"
  top: "upscore8-new-R"
  param {
    lr_mult: 0
  }
  convolution_param {
    num_output: 3
    bias_term: false
    kernel_size: 16
    stride: 8
  }
}
layer {
  name: "upscore8_cropped-R"
  type: "Crop"
  bottom: "upscore8-new-R"
  bottom: "data-R"
  top: "upscore8_cropped-R"
  crop_param {
    axis: 2
    offset: 31
  }
}
layer {
  name: "upscore8_uncropped-R"
  type: "Python"
  bottom: "crop_info"
  bottom: "upscore8_cropped-R"
  bottom: "data"
  top: "upscore8_uncropped-R"
  python_param {
    module: "Uncrop"
    layer: "UncropLayer"
  }
}
layer {
  name: "loss1"
  type: "DiceLoss"
  bottom: "upscore8_cropped"
  bottom: "label"
  top: "loss1"
  loss_weight: 0.333333
}
layer {
  name: "loss2"
  type: "DiceLoss"
  bottom: "upscore8_uncropped-R"
  bottom: "label"
  top: "loss2"
  loss_weight: 0.666667
}
I0715 12:51:06.088760 13368 layer_factory.hpp:77] Creating layer data
I0715 12:51:06.089785 13368 net.cpp:84] Creating Layer data
I0715 12:51:06.089800 13368 net.cpp:380] data -> data
I0715 12:51:06.089818 13368 net.cpp:380] data -> label
I0715 12:51:06.089826 13368 net.cpp:380] data -> crop_margin
I0715 12:51:06.089833 13368 net.cpp:380] data -> crop_prob
I0715 12:51:06.089840 13368 net.cpp:380] data -> crop_sample_batch
I0715 12:51:06.288079 13368 net.cpp:122] Setting up data
I0715 12:51:06.288133 13368 net.cpp:129] Top shape: 1 3 512 251 (385536)
I0715 12:51:06.288141 13368 net.cpp:129] Top shape: 1 3 512 251 (385536)
I0715 12:51:06.288148 13368 net.cpp:129] Top shape: 1 (1)
I0715 12:51:06.288153 13368 net.cpp:129] Top shape: 1 (1)
I0715 12:51:06.288158 13368 net.cpp:129] Top shape: 1 (1)
I0715 12:51:06.288162 13368 net.cpp:137] Memory required for data: 3084300
I0715 12:51:06.288170 13368 layer_factory.hpp:77] Creating layer data_data_0_split
I0715 12:51:06.288198 13368 net.cpp:84] Creating Layer data_data_0_split
I0715 12:51:06.288203 13368 net.cpp:406] data_data_0_split <- data
I0715 12:51:06.288216 13368 net.cpp:380] data_data_0_split -> data_data_0_split_0
I0715 12:51:06.288228 13368 net.cpp:380] data_data_0_split -> data_data_0_split_1
I0715 12:51:06.288236 13368 net.cpp:380] data_data_0_split -> data_data_0_split_2
I0715 12:51:06.288242 13368 net.cpp:380] data_data_0_split -> data_data_0_split_3
I0715 12:51:06.288300 13368 net.cpp:122] Setting up data_data_0_split
I0715 12:51:06.288307 13368 net.cpp:129] Top shape: 1 3 512 251 (385536)
I0715 12:51:06.288312 13368 net.cpp:129] Top shape: 1 3 512 251 (385536)
I0715 12:51:06.288316 13368 net.cpp:129] Top shape: 1 3 512 251 (385536)
I0715 12:51:06.288321 13368 net.cpp:129] Top shape: 1 3 512 251 (385536)
I0715 12:51:06.288326 13368 net.cpp:137] Memory required for data: 9252876
I0715 12:51:06.288329 13368 layer_factory.hpp:77] Creating layer label_data_1_split
I0715 12:51:06.288336 13368 net.cpp:84] Creating Layer label_data_1_split
I0715 12:51:06.288352 13368 net.cpp:406] label_data_1_split <- label
I0715 12:51:06.288358 13368 net.cpp:380] label_data_1_split -> label_data_1_split_0
I0715 12:51:06.288364 13368 net.cpp:380] label_data_1_split -> label_data_1_split_1
I0715 12:51:06.288372 13368 net.cpp:380] label_data_1_split -> label_data_1_split_2
I0715 12:51:06.288409 13368 net.cpp:122] Setting up label_data_1_split
I0715 12:51:06.288414 13368 net.cpp:129] Top shape: 1 3 512 251 (385536)
I0715 12:51:06.288419 13368 net.cpp:129] Top shape: 1 3 512 251 (385536)
I0715 12:51:06.288424 13368 net.cpp:129] Top shape: 1 3 512 251 (385536)
I0715 12:51:06.288427 13368 net.cpp:137] Memory required for data: 13879308
I0715 12:51:06.288431 13368 layer_factory.hpp:77] Creating layer conv1_1
I0715 12:51:06.288447 13368 net.cpp:84] Creating Layer conv1_1
I0715 12:51:06.288451 13368 net.cpp:406] conv1_1 <- data_data_0_split_0
I0715 12:51:06.288458 13368 net.cpp:380] conv1_1 -> conv1_1
I0715 12:51:06.703040 13368 net.cpp:122] Setting up conv1_1
I0715 12:51:06.703096 13368 net.cpp:129] Top shape: 1 64 710 449 (20402560)
I0715 12:51:06.703101 13368 net.cpp:137] Memory required for data: 95489548
I0715 12:51:06.703132 13368 layer_factory.hpp:77] Creating layer relu1_1
I0715 12:51:06.703155 13368 net.cpp:84] Creating Layer relu1_1
I0715 12:51:06.703161 13368 net.cpp:406] relu1_1 <- conv1_1
I0715 12:51:06.703167 13368 net.cpp:367] relu1_1 -> conv1_1 (in-place)
I0715 12:51:06.703392 13368 net.cpp:122] Setting up relu1_1
I0715 12:51:06.703402 13368 net.cpp:129] Top shape: 1 64 710 449 (20402560)
I0715 12:51:06.703407 13368 net.cpp:137] Memory required for data: 177099788
I0715 12:51:06.703410 13368 layer_factory.hpp:77] Creating layer conv1_2
I0715 12:51:06.703423 13368 net.cpp:84] Creating Layer conv1_2
I0715 12:51:06.703426 13368 net.cpp:406] conv1_2 <- conv1_1
I0715 12:51:06.703433 13368 net.cpp:380] conv1_2 -> conv1_2
I0715 12:51:06.713310 13368 net.cpp:122] Setting up conv1_2
I0715 12:51:06.713341 13368 net.cpp:129] Top shape: 1 64 710 449 (20402560)
I0715 12:51:06.713346 13368 net.cpp:137] Memory required for data: 258710028
I0715 12:51:06.713357 13368 layer_factory.hpp:77] Creating layer relu1_2
I0715 12:51:06.713366 13368 net.cpp:84] Creating Layer relu1_2
I0715 12:51:06.713371 13368 net.cpp:406] relu1_2 <- conv1_2
I0715 12:51:06.713376 13368 net.cpp:367] relu1_2 -> conv1_2 (in-place)
I0715 12:51:06.713572 13368 net.cpp:122] Setting up relu1_2
I0715 12:51:06.713582 13368 net.cpp:129] Top shape: 1 64 710 449 (20402560)
I0715 12:51:06.713587 13368 net.cpp:137] Memory required for data: 340320268
I0715 12:51:06.713590 13368 layer_factory.hpp:77] Creating layer pool1
I0715 12:51:06.713599 13368 net.cpp:84] Creating Layer pool1
I0715 12:51:06.713603 13368 net.cpp:406] pool1 <- conv1_2
I0715 12:51:06.713609 13368 net.cpp:380] pool1 -> pool1
I0715 12:51:06.713660 13368 net.cpp:122] Setting up pool1
I0715 12:51:06.713666 13368 net.cpp:129] Top shape: 1 64 355 225 (5112000)
I0715 12:51:06.713670 13368 net.cpp:137] Memory required for data: 360768268
I0715 12:51:06.713672 13368 layer_factory.hpp:77] Creating layer conv2_1
I0715 12:51:06.713685 13368 net.cpp:84] Creating Layer conv2_1
I0715 12:51:06.713687 13368 net.cpp:406] conv2_1 <- pool1
I0715 12:51:06.713695 13368 net.cpp:380] conv2_1 -> conv2_1
I0715 12:51:06.715453 13368 net.cpp:122] Setting up conv2_1
I0715 12:51:06.715478 13368 net.cpp:129] Top shape: 1 128 355 225 (10224000)
I0715 12:51:06.715486 13368 net.cpp:137] Memory required for data: 401664268
I0715 12:51:06.715504 13368 layer_factory.hpp:77] Creating layer relu2_1
I0715 12:51:06.715517 13368 net.cpp:84] Creating Layer relu2_1
I0715 12:51:06.715524 13368 net.cpp:406] relu2_1 <- conv2_1
I0715 12:51:06.715534 13368 net.cpp:367] relu2_1 -> conv2_1 (in-place)
I0715 12:51:06.715844 13368 net.cpp:122] Setting up relu2_1
I0715 12:51:06.715862 13368 net.cpp:129] Top shape: 1 128 355 225 (10224000)
I0715 12:51:06.715868 13368 net.cpp:137] Memory required for data: 442560268
I0715 12:51:06.715874 13368 layer_factory.hpp:77] Creating layer conv2_2
I0715 12:51:06.715890 13368 net.cpp:84] Creating Layer conv2_2
I0715 12:51:06.715896 13368 net.cpp:406] conv2_2 <- conv2_1
I0715 12:51:06.715909 13368 net.cpp:380] conv2_2 -> conv2_2
I0715 12:51:06.721179 13368 net.cpp:122] Setting up conv2_2
I0715 12:51:06.721206 13368 net.cpp:129] Top shape: 1 128 355 225 (10224000)
I0715 12:51:06.721215 13368 net.cpp:137] Memory required for data: 483456268
I0715 12:51:06.721227 13368 layer_factory.hpp:77] Creating layer relu2_2
I0715 12:51:06.721240 13368 net.cpp:84] Creating Layer relu2_2
I0715 12:51:06.721247 13368 net.cpp:406] relu2_2 <- conv2_2
I0715 12:51:06.721257 13368 net.cpp:367] relu2_2 -> conv2_2 (in-place)
I0715 12:51:06.721581 13368 net.cpp:122] Setting up relu2_2
I0715 12:51:06.721599 13368 net.cpp:129] Top shape: 1 128 355 225 (10224000)
I0715 12:51:06.721606 13368 net.cpp:137] Memory required for data: 524352268
I0715 12:51:06.721612 13368 layer_factory.hpp:77] Creating layer pool2
I0715 12:51:06.721624 13368 net.cpp:84] Creating Layer pool2
I0715 12:51:06.721630 13368 net.cpp:406] pool2 <- conv2_2
I0715 12:51:06.721640 13368 net.cpp:380] pool2 -> pool2
I0715 12:51:06.721714 13368 net.cpp:122] Setting up pool2
I0715 12:51:06.721727 13368 net.cpp:129] Top shape: 1 128 178 113 (2574592)
I0715 12:51:06.721734 13368 net.cpp:137] Memory required for data: 534650636
I0715 12:51:06.721740 13368 layer_factory.hpp:77] Creating layer conv3_1
I0715 12:51:06.721753 13368 net.cpp:84] Creating Layer conv3_1
I0715 12:51:06.721760 13368 net.cpp:406] conv3_1 <- pool2
I0715 12:51:06.721770 13368 net.cpp:380] conv3_1 -> conv3_1
I0715 12:51:06.724529 13368 net.cpp:122] Setting up conv3_1
I0715 12:51:06.724547 13368 net.cpp:129] Top shape: 1 256 178 113 (5149184)
I0715 12:51:06.724552 13368 net.cpp:137] Memory required for data: 555247372
I0715 12:51:06.724573 13368 layer_factory.hpp:77] Creating layer relu3_1
I0715 12:51:06.724584 13368 net.cpp:84] Creating Layer relu3_1
I0715 12:51:06.724589 13368 net.cpp:406] relu3_1 <- conv3_1
I0715 12:51:06.724597 13368 net.cpp:367] relu3_1 -> conv3_1 (in-place)
I0715 12:51:06.725306 13368 net.cpp:122] Setting up relu3_1
I0715 12:51:06.725322 13368 net.cpp:129] Top shape: 1 256 178 113 (5149184)
I0715 12:51:06.725328 13368 net.cpp:137] Memory required for data: 575844108
I0715 12:51:06.725333 13368 layer_factory.hpp:77] Creating layer conv3_2
I0715 12:51:06.725353 13368 net.cpp:84] Creating Layer conv3_2
I0715 12:51:06.725358 13368 net.cpp:406] conv3_2 <- conv3_1
I0715 12:51:06.725368 13368 net.cpp:380] conv3_2 -> conv3_2
I0715 12:51:06.738993 13368 net.cpp:122] Setting up conv3_2
I0715 12:51:06.739053 13368 net.cpp:129] Top shape: 1 256 178 113 (5149184)
I0715 12:51:06.739064 13368 net.cpp:137] Memory required for data: 596440844
I0715 12:51:06.739084 13368 layer_factory.hpp:77] Creating layer relu3_2
I0715 12:51:06.739116 13368 net.cpp:84] Creating Layer relu3_2
I0715 12:51:06.739126 13368 net.cpp:406] relu3_2 <- conv3_2
I0715 12:51:06.739140 13368 net.cpp:367] relu3_2 -> conv3_2 (in-place)
I0715 12:51:06.741775 13368 net.cpp:122] Setting up relu3_2
I0715 12:51:06.741816 13368 net.cpp:129] Top shape: 1 256 178 113 (5149184)
I0715 12:51:06.741825 13368 net.cpp:137] Memory required for data: 617037580
I0715 12:51:06.741834 13368 layer_factory.hpp:77] Creating layer conv3_3
I0715 12:51:06.741856 13368 net.cpp:84] Creating Layer conv3_3
I0715 12:51:06.741866 13368 net.cpp:406] conv3_3 <- conv3_2
I0715 12:51:06.741881 13368 net.cpp:380] conv3_3 -> conv3_3
I0715 12:51:06.748751 13368 net.cpp:122] Setting up conv3_3
I0715 12:51:06.748782 13368 net.cpp:129] Top shape: 1 256 178 113 (5149184)
I0715 12:51:06.748787 13368 net.cpp:137] Memory required for data: 637634316
I0715 12:51:06.748797 13368 layer_factory.hpp:77] Creating layer relu3_3
I0715 12:51:06.748805 13368 net.cpp:84] Creating Layer relu3_3
I0715 12:51:06.748808 13368 net.cpp:406] relu3_3 <- conv3_3
I0715 12:51:06.748814 13368 net.cpp:367] relu3_3 -> conv3_3 (in-place)
I0715 12:51:06.748984 13368 net.cpp:122] Setting up relu3_3
I0715 12:51:06.748996 13368 net.cpp:129] Top shape: 1 256 178 113 (5149184)
I0715 12:51:06.748998 13368 net.cpp:137] Memory required for data: 658231052
I0715 12:51:06.749002 13368 layer_factory.hpp:77] Creating layer pool3
I0715 12:51:06.749011 13368 net.cpp:84] Creating Layer pool3
I0715 12:51:06.749013 13368 net.cpp:406] pool3 <- conv3_3
I0715 12:51:06.749020 13368 net.cpp:380] pool3 -> pool3
I0715 12:51:06.749078 13368 net.cpp:122] Setting up pool3
I0715 12:51:06.749088 13368 net.cpp:129] Top shape: 1 256 89 57 (1298688)
I0715 12:51:06.749090 13368 net.cpp:137] Memory required for data: 663425804
I0715 12:51:06.749094 13368 layer_factory.hpp:77] Creating layer pool3_pool3_0_split
I0715 12:51:06.749100 13368 net.cpp:84] Creating Layer pool3_pool3_0_split
I0715 12:51:06.749104 13368 net.cpp:406] pool3_pool3_0_split <- pool3
I0715 12:51:06.749109 13368 net.cpp:380] pool3_pool3_0_split -> pool3_pool3_0_split_0
I0715 12:51:06.749115 13368 net.cpp:380] pool3_pool3_0_split -> pool3_pool3_0_split_1
I0715 12:51:06.749147 13368 net.cpp:122] Setting up pool3_pool3_0_split
I0715 12:51:06.749155 13368 net.cpp:129] Top shape: 1 256 89 57 (1298688)
I0715 12:51:06.749158 13368 net.cpp:129] Top shape: 1 256 89 57 (1298688)
I0715 12:51:06.749161 13368 net.cpp:137] Memory required for data: 673815308
I0715 12:51:06.749164 13368 layer_factory.hpp:77] Creating layer conv4_1
I0715 12:51:06.749173 13368 net.cpp:84] Creating Layer conv4_1
I0715 12:51:06.749177 13368 net.cpp:406] conv4_1 <- pool3_pool3_0_split_0
I0715 12:51:06.749182 13368 net.cpp:380] conv4_1 -> conv4_1
I0715 12:51:06.763273 13368 net.cpp:122] Setting up conv4_1
I0715 12:51:06.763329 13368 net.cpp:129] Top shape: 1 512 89 57 (2597376)
I0715 12:51:06.763337 13368 net.cpp:137] Memory required for data: 684204812
I0715 12:51:06.763353 13368 layer_factory.hpp:77] Creating layer relu4_1
I0715 12:51:06.763375 13368 net.cpp:84] Creating Layer relu4_1
I0715 12:51:06.763387 13368 net.cpp:406] relu4_1 <- conv4_1
I0715 12:51:06.763398 13368 net.cpp:367] relu4_1 -> conv4_1 (in-place)
I0715 12:51:06.763746 13368 net.cpp:122] Setting up relu4_1
I0715 12:51:06.763762 13368 net.cpp:129] Top shape: 1 512 89 57 (2597376)
I0715 12:51:06.763777 13368 net.cpp:137] Memory required for data: 694594316
I0715 12:51:06.763782 13368 layer_factory.hpp:77] Creating layer conv4_2
I0715 12:51:06.763810 13368 net.cpp:84] Creating Layer conv4_2
I0715 12:51:06.763818 13368 net.cpp:406] conv4_2 <- conv4_1
I0715 12:51:06.763830 13368 net.cpp:380] conv4_2 -> conv4_2
I0715 12:51:06.779563 13368 net.cpp:122] Setting up conv4_2
I0715 12:51:06.779597 13368 net.cpp:129] Top shape: 1 512 89 57 (2597376)
I0715 12:51:06.779601 13368 net.cpp:137] Memory required for data: 704983820
I0715 12:51:06.779618 13368 layer_factory.hpp:77] Creating layer relu4_2
I0715 12:51:06.779626 13368 net.cpp:84] Creating Layer relu4_2
I0715 12:51:06.779631 13368 net.cpp:406] relu4_2 <- conv4_2
I0715 12:51:06.779639 13368 net.cpp:367] relu4_2 -> conv4_2 (in-place)
I0715 12:51:06.779814 13368 net.cpp:122] Setting up relu4_2
I0715 12:51:06.779826 13368 net.cpp:129] Top shape: 1 512 89 57 (2597376)
I0715 12:51:06.779829 13368 net.cpp:137] Memory required for data: 715373324
I0715 12:51:06.779834 13368 layer_factory.hpp:77] Creating layer conv4_3
I0715 12:51:06.779844 13368 net.cpp:84] Creating Layer conv4_3
I0715 12:51:06.779847 13368 net.cpp:406] conv4_3 <- conv4_2
I0715 12:51:06.779855 13368 net.cpp:380] conv4_3 -> conv4_3
I0715 12:51:06.792958 13368 net.cpp:122] Setting up conv4_3
I0715 12:51:06.793016 13368 net.cpp:129] Top shape: 1 512 89 57 (2597376)
I0715 12:51:06.793025 13368 net.cpp:137] Memory required for data: 725762828
I0715 12:51:06.793045 13368 layer_factory.hpp:77] Creating layer relu4_3
I0715 12:51:06.793064 13368 net.cpp:84] Creating Layer relu4_3
I0715 12:51:06.793076 13368 net.cpp:406] relu4_3 <- conv4_3
I0715 12:51:06.793089 13368 net.cpp:367] relu4_3 -> conv4_3 (in-place)
I0715 12:51:06.793488 13368 net.cpp:122] Setting up relu4_3
I0715 12:51:06.793507 13368 net.cpp:129] Top shape: 1 512 89 57 (2597376)
I0715 12:51:06.793522 13368 net.cpp:137] Memory required for data: 736152332
I0715 12:51:06.793530 13368 layer_factory.hpp:77] Creating layer pool4
I0715 12:51:06.793550 13368 net.cpp:84] Creating Layer pool4
I0715 12:51:06.793558 13368 net.cpp:406] pool4 <- conv4_3
I0715 12:51:06.793571 13368 net.cpp:380] pool4 -> pool4
I0715 12:51:06.793671 13368 net.cpp:122] Setting up pool4
I0715 12:51:06.793686 13368 net.cpp:129] Top shape: 1 512 45 29 (668160)
I0715 12:51:06.793699 13368 net.cpp:137] Memory required for data: 738824972
I0715 12:51:06.793705 13368 layer_factory.hpp:77] Creating layer pool4_pool4_0_split
I0715 12:51:06.793718 13368 net.cpp:84] Creating Layer pool4_pool4_0_split
I0715 12:51:06.793728 13368 net.cpp:406] pool4_pool4_0_split <- pool4
I0715 12:51:06.793757 13368 net.cpp:380] pool4_pool4_0_split -> pool4_pool4_0_split_0
I0715 12:51:06.793774 13368 net.cpp:380] pool4_pool4_0_split -> pool4_pool4_0_split_1
I0715 12:51:06.793864 13368 net.cpp:122] Setting up pool4_pool4_0_split
I0715 12:51:06.793877 13368 net.cpp:129] Top shape: 1 512 45 29 (668160)
I0715 12:51:06.793889 13368 net.cpp:129] Top shape: 1 512 45 29 (668160)
I0715 12:51:06.793896 13368 net.cpp:137] Memory required for data: 744170252
I0715 12:51:06.793903 13368 layer_factory.hpp:77] Creating layer conv5_1
I0715 12:51:06.793920 13368 net.cpp:84] Creating Layer conv5_1
I0715 12:51:06.793931 13368 net.cpp:406] conv5_1 <- pool4_pool4_0_split_0
I0715 12:51:06.793943 13368 net.cpp:380] conv5_1 -> conv5_1
I0715 12:51:06.804725 13368 net.cpp:122] Setting up conv5_1
I0715 12:51:06.804785 13368 net.cpp:129] Top shape: 1 512 45 29 (668160)
I0715 12:51:06.804795 13368 net.cpp:137] Memory required for data: 746842892
I0715 12:51:06.804813 13368 layer_factory.hpp:77] Creating layer relu5_1
I0715 12:51:06.804834 13368 net.cpp:84] Creating Layer relu5_1
I0715 12:51:06.804846 13368 net.cpp:406] relu5_1 <- conv5_1
I0715 12:51:06.804859 13368 net.cpp:367] relu5_1 -> conv5_1 (in-place)
I0715 12:51:06.806509 13368 net.cpp:122] Setting up relu5_1
I0715 12:51:06.806541 13368 net.cpp:129] Top shape: 1 512 45 29 (668160)
I0715 12:51:06.806546 13368 net.cpp:137] Memory required for data: 749515532
I0715 12:51:06.806551 13368 layer_factory.hpp:77] Creating layer conv5_2
I0715 12:51:06.806566 13368 net.cpp:84] Creating Layer conv5_2
I0715 12:51:06.806571 13368 net.cpp:406] conv5_2 <- conv5_1
I0715 12:51:06.806581 13368 net.cpp:380] conv5_2 -> conv5_2
I0715 12:51:06.815073 13368 net.cpp:122] Setting up conv5_2
I0715 12:51:06.815093 13368 net.cpp:129] Top shape: 1 512 45 29 (668160)
I0715 12:51:06.815107 13368 net.cpp:137] Memory required for data: 752188172
I0715 12:51:06.815117 13368 layer_factory.hpp:77] Creating layer relu5_2
I0715 12:51:06.815134 13368 net.cpp:84] Creating Layer relu5_2
I0715 12:51:06.815140 13368 net.cpp:406] relu5_2 <- conv5_2
I0715 12:51:06.815146 13368 net.cpp:367] relu5_2 -> conv5_2 (in-place)
I0715 12:51:06.815968 13368 net.cpp:122] Setting up relu5_2
I0715 12:51:06.815985 13368 net.cpp:129] Top shape: 1 512 45 29 (668160)
I0715 12:51:06.815990 13368 net.cpp:137] Memory required for data: 754860812
I0715 12:51:06.815995 13368 layer_factory.hpp:77] Creating layer conv5_3
I0715 12:51:06.816012 13368 net.cpp:84] Creating Layer conv5_3
I0715 12:51:06.816017 13368 net.cpp:406] conv5_3 <- conv5_2
I0715 12:51:06.816027 13368 net.cpp:380] conv5_3 -> conv5_3
I0715 12:51:06.825968 13368 net.cpp:122] Setting up conv5_3
I0715 12:51:06.825990 13368 net.cpp:129] Top shape: 1 512 45 29 (668160)
I0715 12:51:06.826007 13368 net.cpp:137] Memory required for data: 757533452
I0715 12:51:06.826017 13368 layer_factory.hpp:77] Creating layer relu5_3
I0715 12:51:06.826027 13368 net.cpp:84] Creating Layer relu5_3
I0715 12:51:06.826033 13368 net.cpp:406] relu5_3 <- conv5_3
I0715 12:51:06.826040 13368 net.cpp:367] relu5_3 -> conv5_3 (in-place)
I0715 12:51:06.826264 13368 net.cpp:122] Setting up relu5_3
I0715 12:51:06.826277 13368 net.cpp:129] Top shape: 1 512 45 29 (668160)
I0715 12:51:06.826282 13368 net.cpp:137] Memory required for data: 760206092
I0715 12:51:06.826287 13368 layer_factory.hpp:77] Creating layer pool5
I0715 12:51:06.826297 13368 net.cpp:84] Creating Layer pool5
I0715 12:51:06.826311 13368 net.cpp:406] pool5 <- conv5_3
I0715 12:51:06.826319 13368 net.cpp:380] pool5 -> pool5
I0715 12:51:06.826370 13368 net.cpp:122] Setting up pool5
I0715 12:51:06.826381 13368 net.cpp:129] Top shape: 1 512 23 15 (176640)
I0715 12:51:06.826385 13368 net.cpp:137] Memory required for data: 760912652
I0715 12:51:06.826390 13368 layer_factory.hpp:77] Creating layer fc6
I0715 12:51:06.826400 13368 net.cpp:84] Creating Layer fc6
I0715 12:51:06.826406 13368 net.cpp:406] fc6 <- pool5
I0715 12:51:06.826412 13368 net.cpp:380] fc6 -> fc6
I0715 12:51:07.166714 13368 net.cpp:122] Setting up fc6
I0715 12:51:07.166772 13368 net.cpp:129] Top shape: 1 4096 17 9 (626688)
I0715 12:51:07.166779 13368 net.cpp:137] Memory required for data: 763419404
I0715 12:51:07.166817 13368 layer_factory.hpp:77] Creating layer relu6
I0715 12:51:07.166846 13368 net.cpp:84] Creating Layer relu6
I0715 12:51:07.166855 13368 net.cpp:406] relu6 <- fc6
I0715 12:51:07.166870 13368 net.cpp:367] relu6 -> fc6 (in-place)
I0715 12:51:07.167119 13368 net.cpp:122] Setting up relu6
I0715 12:51:07.167134 13368 net.cpp:129] Top shape: 1 4096 17 9 (626688)
I0715 12:51:07.167141 13368 net.cpp:137] Memory required for data: 765926156
I0715 12:51:07.167167 13368 layer_factory.hpp:77] Creating layer drop6
I0715 12:51:07.167189 13368 net.cpp:84] Creating Layer drop6
I0715 12:51:07.167194 13368 net.cpp:406] drop6 <- fc6
I0715 12:51:07.167202 13368 net.cpp:367] drop6 -> fc6 (in-place)
I0715 12:51:07.167248 13368 net.cpp:122] Setting up drop6
I0715 12:51:07.167254 13368 net.cpp:129] Top shape: 1 4096 17 9 (626688)
I0715 12:51:07.167258 13368 net.cpp:137] Memory required for data: 768432908
I0715 12:51:07.167263 13368 layer_factory.hpp:77] Creating layer fc7
I0715 12:51:07.167300 13368 net.cpp:84] Creating Layer fc7
I0715 12:51:07.167305 13368 net.cpp:406] fc7 <- fc6
I0715 12:51:07.167315 13368 net.cpp:380] fc7 -> fc7
I0715 12:51:07.223417 13368 net.cpp:122] Setting up fc7
I0715 12:51:07.223466 13368 net.cpp:129] Top shape: 1 4096 17 9 (626688)
I0715 12:51:07.223472 13368 net.cpp:137] Memory required for data: 770939660
I0715 12:51:07.223486 13368 layer_factory.hpp:77] Creating layer relu7
I0715 12:51:07.223505 13368 net.cpp:84] Creating Layer relu7
I0715 12:51:07.223511 13368 net.cpp:406] relu7 <- fc7
I0715 12:51:07.223536 13368 net.cpp:367] relu7 -> fc7 (in-place)
I0715 12:51:07.223786 13368 net.cpp:122] Setting up relu7
I0715 12:51:07.223799 13368 net.cpp:129] Top shape: 1 4096 17 9 (626688)
I0715 12:51:07.223803 13368 net.cpp:137] Memory required for data: 773446412
I0715 12:51:07.223809 13368 layer_factory.hpp:77] Creating layer drop7
I0715 12:51:07.223821 13368 net.cpp:84] Creating Layer drop7
I0715 12:51:07.223825 13368 net.cpp:406] drop7 <- fc7
I0715 12:51:07.223834 13368 net.cpp:367] drop7 -> fc7 (in-place)
I0715 12:51:07.223868 13368 net.cpp:122] Setting up drop7
I0715 12:51:07.223875 13368 net.cpp:129] Top shape: 1 4096 17 9 (626688)
I0715 12:51:07.223879 13368 net.cpp:137] Memory required for data: 775953164
I0715 12:51:07.223891 13368 layer_factory.hpp:77] Creating layer score_fr-new
I0715 12:51:07.223902 13368 net.cpp:84] Creating Layer score_fr-new
I0715 12:51:07.223907 13368 net.cpp:406] score_fr-new <- fc7
I0715 12:51:07.223919 13368 net.cpp:380] score_fr-new -> score_fr-new
I0715 12:51:07.227341 13368 net.cpp:122] Setting up score_fr-new
I0715 12:51:07.227360 13368 net.cpp:129] Top shape: 1 3 17 9 (459)
I0715 12:51:07.227365 13368 net.cpp:137] Memory required for data: 775955000
I0715 12:51:07.227387 13368 layer_factory.hpp:77] Creating layer upscore2-new
I0715 12:51:07.227407 13368 net.cpp:84] Creating Layer upscore2-new
I0715 12:51:07.227413 13368 net.cpp:406] upscore2-new <- score_fr-new
I0715 12:51:07.227422 13368 net.cpp:380] upscore2-new -> upscore2-new
I0715 12:51:07.227689 13368 net.cpp:122] Setting up upscore2-new
I0715 12:51:07.227700 13368 net.cpp:129] Top shape: 1 3 36 20 (2160)
I0715 12:51:07.227705 13368 net.cpp:137] Memory required for data: 775963640
I0715 12:51:07.227721 13368 layer_factory.hpp:77] Creating layer upscore2-new_upscore2-new_0_split
I0715 12:51:07.227731 13368 net.cpp:84] Creating Layer upscore2-new_upscore2-new_0_split
I0715 12:51:07.227736 13368 net.cpp:406] upscore2-new_upscore2-new_0_split <- upscore2-new
I0715 12:51:07.227743 13368 net.cpp:380] upscore2-new_upscore2-new_0_split -> upscore2-new_upscore2-new_0_split_0
I0715 12:51:07.227751 13368 net.cpp:380] upscore2-new_upscore2-new_0_split -> upscore2-new_upscore2-new_0_split_1
I0715 12:51:07.227794 13368 net.cpp:122] Setting up upscore2-new_upscore2-new_0_split
I0715 12:51:07.227804 13368 net.cpp:129] Top shape: 1 3 36 20 (2160)
I0715 12:51:07.227809 13368 net.cpp:129] Top shape: 1 3 36 20 (2160)
I0715 12:51:07.227813 13368 net.cpp:137] Memory required for data: 775980920
I0715 12:51:07.227818 13368 layer_factory.hpp:77] Creating layer score_pool4-new
I0715 12:51:07.227828 13368 net.cpp:84] Creating Layer score_pool4-new
I0715 12:51:07.227833 13368 net.cpp:406] score_pool4-new <- pool4_pool4_0_split_1
I0715 12:51:07.227840 13368 net.cpp:380] score_pool4-new -> score_pool4-new
I0715 12:51:07.231698 13368 net.cpp:122] Setting up score_pool4-new
I0715 12:51:07.231750 13368 net.cpp:129] Top shape: 1 3 45 29 (3915)
I0715 12:51:07.231760 13368 net.cpp:137] Memory required for data: 775996580
I0715 12:51:07.231788 13368 layer_factory.hpp:77] Creating layer score_pool4c
I0715 12:51:07.231823 13368 net.cpp:84] Creating Layer score_pool4c
I0715 12:51:07.231838 13368 net.cpp:406] score_pool4c <- score_pool4-new
I0715 12:51:07.231853 13368 net.cpp:406] score_pool4c <- upscore2-new_upscore2-new_0_split_0
I0715 12:51:07.231865 13368 net.cpp:380] score_pool4c -> score_pool4c
I0715 12:51:07.231950 13368 net.cpp:122] Setting up score_pool4c
I0715 12:51:07.231966 13368 net.cpp:129] Top shape: 1 3 36 20 (2160)
I0715 12:51:07.231972 13368 net.cpp:137] Memory required for data: 776005220
I0715 12:51:07.231979 13368 layer_factory.hpp:77] Creating layer fuse_pool4
I0715 12:51:07.231994 13368 net.cpp:84] Creating Layer fuse_pool4
I0715 12:51:07.232002 13368 net.cpp:406] fuse_pool4 <- upscore2-new_upscore2-new_0_split_1
I0715 12:51:07.232012 13368 net.cpp:406] fuse_pool4 <- score_pool4c
I0715 12:51:07.232031 13368 net.cpp:380] fuse_pool4 -> fuse_pool4
I0715 12:51:07.232086 13368 net.cpp:122] Setting up fuse_pool4
I0715 12:51:07.232100 13368 net.cpp:129] Top shape: 1 3 36 20 (2160)
I0715 12:51:07.232106 13368 net.cpp:137] Memory required for data: 776013860
I0715 12:51:07.232113 13368 layer_factory.hpp:77] Creating layer upscore_pool4-new
I0715 12:51:07.232136 13368 net.cpp:84] Creating Layer upscore_pool4-new
I0715 12:51:07.232144 13368 net.cpp:406] upscore_pool4-new <- fuse_pool4
I0715 12:51:07.232162 13368 net.cpp:380] upscore_pool4-new -> upscore_pool4-new
I0715 12:51:07.232607 13368 net.cpp:122] Setting up upscore_pool4-new
I0715 12:51:07.232622 13368 net.cpp:129] Top shape: 1 3 74 42 (9324)
I0715 12:51:07.232630 13368 net.cpp:137] Memory required for data: 776051156
I0715 12:51:07.232640 13368 layer_factory.hpp:77] Creating layer upscore_pool4-new_upscore_pool4-new_0_split
I0715 12:51:07.232659 13368 net.cpp:84] Creating Layer upscore_pool4-new_upscore_pool4-new_0_split
I0715 12:51:07.232667 13368 net.cpp:406] upscore_pool4-new_upscore_pool4-new_0_split <- upscore_pool4-new
I0715 12:51:07.232686 13368 net.cpp:380] upscore_pool4-new_upscore_pool4-new_0_split -> upscore_pool4-new_upscore_pool4-new_0_split_0
I0715 12:51:07.232699 13368 net.cpp:380] upscore_pool4-new_upscore_pool4-new_0_split -> upscore_pool4-new_upscore_pool4-new_0_split_1
I0715 12:51:07.232770 13368 net.cpp:122] Setting up upscore_pool4-new_upscore_pool4-new_0_split
I0715 12:51:07.232784 13368 net.cpp:129] Top shape: 1 3 74 42 (9324)
I0715 12:51:07.232792 13368 net.cpp:129] Top shape: 1 3 74 42 (9324)
I0715 12:51:07.232800 13368 net.cpp:137] Memory required for data: 776125748
I0715 12:51:07.232810 13368 layer_factory.hpp:77] Creating layer score_pool3-new
I0715 12:51:07.232841 13368 net.cpp:84] Creating Layer score_pool3-new
I0715 12:51:07.232857 13368 net.cpp:406] score_pool3-new <- pool3_pool3_0_split_1
I0715 12:51:07.232869 13368 net.cpp:380] score_pool3-new -> score_pool3-new
I0715 12:51:07.245399 13368 net.cpp:122] Setting up score_pool3-new
I0715 12:51:07.245451 13368 net.cpp:129] Top shape: 1 3 89 57 (15219)
I0715 12:51:07.245461 13368 net.cpp:137] Memory required for data: 776186624
I0715 12:51:07.245476 13368 layer_factory.hpp:77] Creating layer score_pool3c
I0715 12:51:07.245496 13368 net.cpp:84] Creating Layer score_pool3c
I0715 12:51:07.245514 13368 net.cpp:406] score_pool3c <- score_pool3-new
I0715 12:51:07.245525 13368 net.cpp:406] score_pool3c <- upscore_pool4-new_upscore_pool4-new_0_split_0
I0715 12:51:07.245537 13368 net.cpp:380] score_pool3c -> score_pool3c
I0715 12:51:07.245605 13368 net.cpp:122] Setting up score_pool3c
I0715 12:51:07.245623 13368 net.cpp:129] Top shape: 1 3 74 42 (9324)
I0715 12:51:07.245630 13368 net.cpp:137] Memory required for data: 776223920
I0715 12:51:07.245649 13368 layer_factory.hpp:77] Creating layer fuse_pool3
I0715 12:51:07.245671 13368 net.cpp:84] Creating Layer fuse_pool3
I0715 12:51:07.245679 13368 net.cpp:406] fuse_pool3 <- upscore_pool4-new_upscore_pool4-new_0_split_1
I0715 12:51:07.245692 13368 net.cpp:406] fuse_pool3 <- score_pool3c
I0715 12:51:07.245702 13368 net.cpp:380] fuse_pool3 -> fuse_pool3
I0715 12:51:07.245760 13368 net.cpp:122] Setting up fuse_pool3
I0715 12:51:07.245775 13368 net.cpp:129] Top shape: 1 3 74 42 (9324)
I0715 12:51:07.245781 13368 net.cpp:137] Memory required for data: 776261216
I0715 12:51:07.245790 13368 layer_factory.hpp:77] Creating layer upscore8-new
I0715 12:51:07.245811 13368 net.cpp:84] Creating Layer upscore8-new
I0715 12:51:07.245820 13368 net.cpp:406] upscore8-new <- fuse_pool3
I0715 12:51:07.245829 13368 net.cpp:380] upscore8-new -> upscore8-new
I0715 12:51:07.246278 13368 net.cpp:122] Setting up upscore8-new
I0715 12:51:07.246294 13368 net.cpp:129] Top shape: 1 3 600 344 (619200)
I0715 12:51:07.246309 13368 net.cpp:137] Memory required for data: 778738016
I0715 12:51:07.246320 13368 layer_factory.hpp:77] Creating layer upscore8_cropped
I0715 12:51:07.246361 13368 net.cpp:84] Creating Layer upscore8_cropped
I0715 12:51:07.246369 13368 net.cpp:406] upscore8_cropped <- upscore8-new
I0715 12:51:07.246392 13368 net.cpp:406] upscore8_cropped <- data_data_0_split_1
I0715 12:51:07.246402 13368 net.cpp:380] upscore8_cropped -> upscore8_cropped
I0715 12:51:07.246448 13368 net.cpp:122] Setting up upscore8_cropped
I0715 12:51:07.246472 13368 net.cpp:129] Top shape: 1 3 512 251 (385536)
I0715 12:51:07.246479 13368 net.cpp:137] Memory required for data: 780280160
I0715 12:51:07.246485 13368 layer_factory.hpp:77] Creating layer upscore8_cropped_upscore8_cropped_0_split
I0715 12:51:07.246495 13368 net.cpp:84] Creating Layer upscore8_cropped_upscore8_cropped_0_split
I0715 12:51:07.246502 13368 net.cpp:406] upscore8_cropped_upscore8_cropped_0_split <- upscore8_cropped
I0715 12:51:07.246533 13368 net.cpp:380] upscore8_cropped_upscore8_cropped_0_split -> upscore8_cropped_upscore8_cropped_0_split_0
I0715 12:51:07.246547 13368 net.cpp:380] upscore8_cropped_upscore8_cropped_0_split -> upscore8_cropped_upscore8_cropped_0_split_1
I0715 12:51:07.246620 13368 net.cpp:122] Setting up upscore8_cropped_upscore8_cropped_0_split
I0715 12:51:07.246634 13368 net.cpp:129] Top shape: 1 3 512 251 (385536)
I0715 12:51:07.246644 13368 net.cpp:129] Top shape: 1 3 512 251 (385536)
I0715 12:51:07.246650 13368 net.cpp:137] Memory required for data: 783364448
I0715 12:51:07.246656 13368 layer_factory.hpp:77] Creating layer prob
I0715 12:51:07.246675 13368 net.cpp:84] Creating Layer prob
I0715 12:51:07.246683 13368 net.cpp:406] prob <- upscore8_cropped_upscore8_cropped_0_split_0
I0715 12:51:07.246692 13368 net.cpp:380] prob -> prob
I0715 12:51:07.247160 13368 net.cpp:122] Setting up prob
I0715 12:51:07.247180 13368 net.cpp:129] Top shape: 1 3 512 251 (385536)
I0715 12:51:07.247198 13368 net.cpp:137] Memory required for data: 784906592
I0715 12:51:07.247207 13368 layer_factory.hpp:77] Creating layer saliency1
I0715 12:51:07.247303 13368 net.cpp:84] Creating Layer saliency1
I0715 12:51:07.247313 13368 net.cpp:406] saliency1 <- prob
I0715 12:51:07.247328 13368 net.cpp:380] saliency1 -> saliency1
I0715 12:51:07.256698 13368 net.cpp:122] Setting up saliency1
I0715 12:51:07.256721 13368 net.cpp:129] Top shape: 1 3 512 251 (385536)
I0715 12:51:07.256737 13368 net.cpp:137] Memory required for data: 786448736
I0715 12:51:07.256747 13368 layer_factory.hpp:77] Creating layer relu_saliency1
I0715 12:51:07.256758 13368 net.cpp:84] Creating Layer relu_saliency1
I0715 12:51:07.256764 13368 net.cpp:406] relu_saliency1 <- saliency1
I0715 12:51:07.256778 13368 net.cpp:367] relu_saliency1 -> saliency1 (in-place)
I0715 12:51:07.257119 13368 net.cpp:122] Setting up relu_saliency1
I0715 12:51:07.257139 13368 net.cpp:129] Top shape: 1 3 512 251 (385536)
I0715 12:51:07.257144 13368 net.cpp:137] Memory required for data: 787990880
I0715 12:51:07.257149 13368 layer_factory.hpp:77] Creating layer saliency
I0715 12:51:07.257177 13368 net.cpp:84] Creating Layer saliency
I0715 12:51:07.257184 13368 net.cpp:406] saliency <- saliency1
I0715 12:51:07.257192 13368 net.cpp:380] saliency -> saliency
I0715 12:51:07.261653 13368 net.cpp:122] Setting up saliency
I0715 12:51:07.261673 13368 net.cpp:129] Top shape: 1 3 512 251 (385536)
I0715 12:51:07.261687 13368 net.cpp:137] Memory required for data: 789533024
I0715 12:51:07.261698 13368 layer_factory.hpp:77] Creating layer silence_saliency
I0715 12:51:07.261709 13368 net.cpp:84] Creating Layer silence_saliency
I0715 12:51:07.261716 13368 net.cpp:406] silence_saliency <- saliency
I0715 12:51:07.261725 13368 net.cpp:122] Setting up silence_saliency
I0715 12:51:07.261729 13368 net.cpp:137] Memory required for data: 789533024
I0715 12:51:07.261746 13368 layer_factory.hpp:77] Creating layer crop
I0715 12:51:07.262593 13368 net.cpp:84] Creating Layer crop
I0715 12:51:07.262607 13368 net.cpp:406] crop <- label_data_1_split_0
I0715 12:51:07.262626 13368 net.cpp:406] crop <- data_data_0_split_2
I0715 12:51:07.262635 13368 net.cpp:406] crop <- crop_margin
I0715 12:51:07.262641 13368 net.cpp:406] crop <- crop_prob
I0715 12:51:07.262646 13368 net.cpp:406] crop <- crop_sample_batch
I0715 12:51:07.262655 13368 net.cpp:380] crop -> data-R
I0715 12:51:07.262665 13368 net.cpp:380] crop -> crop_info
I0715 12:51:07.273185 13368 net.cpp:122] Setting up crop
I0715 12:51:07.273214 13368 net.cpp:129] Top shape: 1 3 512 251 (385536)
I0715 12:51:07.273232 13368 net.cpp:129] Top shape: 1 2 4 (8)
I0715 12:51:07.273238 13368 net.cpp:137] Memory required for data: 791075200
I0715 12:51:07.273247 13368 layer_factory.hpp:77] Creating layer data-R_crop_0_split
I0715 12:51:07.273257 13368 net.cpp:84] Creating Layer data-R_crop_0_split
I0715 12:51:07.273265 13368 net.cpp:406] data-R_crop_0_split <- data-R
I0715 12:51:07.273285 13368 net.cpp:380] data-R_crop_0_split -> data-R_crop_0_split_0
I0715 12:51:07.273299 13368 net.cpp:380] data-R_crop_0_split -> data-R_crop_0_split_1
I0715 12:51:07.273376 13368 net.cpp:122] Setting up data-R_crop_0_split
I0715 12:51:07.273416 13368 net.cpp:129] Top shape: 1 3 512 251 (385536)
I0715 12:51:07.273423 13368 net.cpp:129] Top shape: 1 3 512 251 (385536)
I0715 12:51:07.273429 13368 net.cpp:137] Memory required for data: 794159488
I0715 12:51:07.273435 13368 layer_factory.hpp:77] Creating layer conv1_1-R
I0715 12:51:07.273448 13368 net.cpp:84] Creating Layer conv1_1-R
I0715 12:51:07.273455 13368 net.cpp:406] conv1_1-R <- data-R_crop_0_split_0
I0715 12:51:07.273483 13368 net.cpp:380] conv1_1-R -> conv1_1-R
I0715 12:51:07.278555 13368 net.cpp:122] Setting up conv1_1-R
I0715 12:51:07.278578 13368 net.cpp:129] Top shape: 1 64 710 449 (20402560)
I0715 12:51:07.278591 13368 net.cpp:137] Memory required for data: 875769728
I0715 12:51:07.278602 13368 layer_factory.hpp:77] Creating layer relu1_1-R
I0715 12:51:07.278666 13368 net.cpp:84] Creating Layer relu1_1-R
I0715 12:51:07.278672 13368 net.cpp:406] relu1_1-R <- conv1_1-R
I0715 12:51:07.278681 13368 net.cpp:367] relu1_1-R -> conv1_1-R (in-place)
I0715 12:51:07.278964 13368 net.cpp:122] Setting up relu1_1-R
I0715 12:51:07.278978 13368 net.cpp:129] Top shape: 1 64 710 449 (20402560)
I0715 12:51:07.278983 13368 net.cpp:137] Memory required for data: 957379968
I0715 12:51:07.278992 13368 layer_factory.hpp:77] Creating layer conv1_2-R
I0715 12:51:07.279006 13368 net.cpp:84] Creating Layer conv1_2-R
I0715 12:51:07.279011 13368 net.cpp:406] conv1_2-R <- conv1_1-R
I0715 12:51:07.279029 13368 net.cpp:380] conv1_2-R -> conv1_2-R
I0715 12:51:07.284729 13368 net.cpp:122] Setting up conv1_2-R
I0715 12:51:07.284770 13368 net.cpp:129] Top shape: 1 64 710 449 (20402560)
I0715 12:51:07.284775 13368 net.cpp:137] Memory required for data: 1038990208
I0715 12:51:07.284787 13368 layer_factory.hpp:77] Creating layer relu1_2-R
I0715 12:51:07.284799 13368 net.cpp:84] Creating Layer relu1_2-R
I0715 12:51:07.284806 13368 net.cpp:406] relu1_2-R <- conv1_2-R
I0715 12:51:07.284813 13368 net.cpp:367] relu1_2-R -> conv1_2-R (in-place)
I0715 12:51:07.285765 13368 net.cpp:122] Setting up relu1_2-R
I0715 12:51:07.285782 13368 net.cpp:129] Top shape: 1 64 710 449 (20402560)
I0715 12:51:07.285797 13368 net.cpp:137] Memory required for data: 1120600448
I0715 12:51:07.285802 13368 layer_factory.hpp:77] Creating layer pool1-R
I0715 12:51:07.285816 13368 net.cpp:84] Creating Layer pool1-R
I0715 12:51:07.285821 13368 net.cpp:406] pool1-R <- conv1_2-R
I0715 12:51:07.285838 13368 net.cpp:380] pool1-R -> pool1-R
I0715 12:51:07.285920 13368 net.cpp:122] Setting up pool1-R
I0715 12:51:07.285938 13368 net.cpp:129] Top shape: 1 64 355 225 (5112000)
I0715 12:51:07.285941 13368 net.cpp:137] Memory required for data: 1141048448
I0715 12:51:07.285945 13368 layer_factory.hpp:77] Creating layer conv2_1-R
I0715 12:51:07.285956 13368 net.cpp:84] Creating Layer conv2_1-R
I0715 12:51:07.285962 13368 net.cpp:406] conv2_1-R <- pool1-R
I0715 12:51:07.285972 13368 net.cpp:380] conv2_1-R -> conv2_1-R
I0715 12:51:07.287912 13368 net.cpp:122] Setting up conv2_1-R
I0715 12:51:07.287961 13368 net.cpp:129] Top shape: 1 128 355 225 (10224000)
I0715 12:51:07.287973 13368 net.cpp:137] Memory required for data: 1181944448
I0715 12:51:07.288012 13368 layer_factory.hpp:77] Creating layer relu2_1-R
I0715 12:51:07.288031 13368 net.cpp:84] Creating Layer relu2_1-R
I0715 12:51:07.288044 13368 net.cpp:406] relu2_1-R <- conv2_1-R
I0715 12:51:07.288063 13368 net.cpp:367] relu2_1-R -> conv2_1-R (in-place)
I0715 12:51:07.291072 13368 net.cpp:122] Setting up relu2_1-R
I0715 12:51:07.291098 13368 net.cpp:129] Top shape: 1 128 355 225 (10224000)
I0715 12:51:07.291112 13368 net.cpp:137] Memory required for data: 1222840448
I0715 12:51:07.291118 13368 layer_factory.hpp:77] Creating layer conv2_2-R
I0715 12:51:07.291132 13368 net.cpp:84] Creating Layer conv2_2-R
I0715 12:51:07.291139 13368 net.cpp:406] conv2_2-R <- conv2_1-R
I0715 12:51:07.291149 13368 net.cpp:380] conv2_2-R -> conv2_2-R
I0715 12:51:07.294936 13368 net.cpp:122] Setting up conv2_2-R
I0715 12:51:07.294980 13368 net.cpp:129] Top shape: 1 128 355 225 (10224000)
I0715 12:51:07.294987 13368 net.cpp:137] Memory required for data: 1263736448
I0715 12:51:07.295003 13368 layer_factory.hpp:77] Creating layer relu2_2-R
I0715 12:51:07.295017 13368 net.cpp:84] Creating Layer relu2_2-R
I0715 12:51:07.295035 13368 net.cpp:406] relu2_2-R <- conv2_2-R
I0715 12:51:07.295047 13368 net.cpp:367] relu2_2-R -> conv2_2-R (in-place)
I0715 12:51:07.295459 13368 net.cpp:122] Setting up relu2_2-R
I0715 12:51:07.295490 13368 net.cpp:129] Top shape: 1 128 355 225 (10224000)
I0715 12:51:07.295505 13368 net.cpp:137] Memory required for data: 1304632448
I0715 12:51:07.295511 13368 layer_factory.hpp:77] Creating layer pool2-R
I0715 12:51:07.295548 13368 net.cpp:84] Creating Layer pool2-R
I0715 12:51:07.295557 13368 net.cpp:406] pool2-R <- conv2_2-R
I0715 12:51:07.295575 13368 net.cpp:380] pool2-R -> pool2-R
I0715 12:51:07.295677 13368 net.cpp:122] Setting up pool2-R
I0715 12:51:07.295691 13368 net.cpp:129] Top shape: 1 128 178 113 (2574592)
I0715 12:51:07.295698 13368 net.cpp:137] Memory required for data: 1314930816
I0715 12:51:07.295707 13368 layer_factory.hpp:77] Creating layer conv3_1-R
I0715 12:51:07.295732 13368 net.cpp:84] Creating Layer conv3_1-R
I0715 12:51:07.295739 13368 net.cpp:406] conv3_1-R <- pool2-R
I0715 12:51:07.295750 13368 net.cpp:380] conv3_1-R -> conv3_1-R
I0715 12:51:07.301244 13368 net.cpp:122] Setting up conv3_1-R
I0715 12:51:07.301262 13368 net.cpp:129] Top shape: 1 256 178 113 (5149184)
I0715 12:51:07.301275 13368 net.cpp:137] Memory required for data: 1335527552
I0715 12:51:07.301286 13368 layer_factory.hpp:77] Creating layer relu3_1-R
I0715 12:51:07.301293 13368 net.cpp:84] Creating Layer relu3_1-R
I0715 12:51:07.301300 13368 net.cpp:406] relu3_1-R <- conv3_1-R
I0715 12:51:07.301306 13368 net.cpp:367] relu3_1-R -> conv3_1-R (in-place)
I0715 12:51:07.301563 13368 net.cpp:122] Setting up relu3_1-R
I0715 12:51:07.301574 13368 net.cpp:129] Top shape: 1 256 178 113 (5149184)
I0715 12:51:07.301579 13368 net.cpp:137] Memory required for data: 1356124288
I0715 12:51:07.301584 13368 layer_factory.hpp:77] Creating layer conv3_2-R
I0715 12:51:07.301599 13368 net.cpp:84] Creating Layer conv3_2-R
I0715 12:51:07.301604 13368 net.cpp:406] conv3_2-R <- conv3_1-R
I0715 12:51:07.301612 13368 net.cpp:380] conv3_2-R -> conv3_2-R
I0715 12:51:07.307791 13368 net.cpp:122] Setting up conv3_2-R
I0715 12:51:07.307811 13368 net.cpp:129] Top shape: 1 256 178 113 (5149184)
I0715 12:51:07.307816 13368 net.cpp:137] Memory required for data: 1376721024
I0715 12:51:07.307826 13368 layer_factory.hpp:77] Creating layer relu3_2-R
I0715 12:51:07.307835 13368 net.cpp:84] Creating Layer relu3_2-R
I0715 12:51:07.307842 13368 net.cpp:406] relu3_2-R <- conv3_2-R
I0715 12:51:07.307847 13368 net.cpp:367] relu3_2-R -> conv3_2-R (in-place)
I0715 12:51:07.308117 13368 net.cpp:122] Setting up relu3_2-R
I0715 12:51:07.308130 13368 net.cpp:129] Top shape: 1 256 178 113 (5149184)
I0715 12:51:07.308135 13368 net.cpp:137] Memory required for data: 1397317760
I0715 12:51:07.308141 13368 layer_factory.hpp:77] Creating layer conv3_3-R
I0715 12:51:07.308153 13368 net.cpp:84] Creating Layer conv3_3-R
I0715 12:51:07.308158 13368 net.cpp:406] conv3_3-R <- conv3_2-R
I0715 12:51:07.308166 13368 net.cpp:380] conv3_3-R -> conv3_3-R
I0715 12:51:07.317296 13368 net.cpp:122] Setting up conv3_3-R
I0715 12:51:07.317315 13368 net.cpp:129] Top shape: 1 256 178 113 (5149184)
I0715 12:51:07.317320 13368 net.cpp:137] Memory required for data: 1417914496
I0715 12:51:07.317332 13368 layer_factory.hpp:77] Creating layer relu3_3-R
I0715 12:51:07.317342 13368 net.cpp:84] Creating Layer relu3_3-R
I0715 12:51:07.317348 13368 net.cpp:406] relu3_3-R <- conv3_3-R
I0715 12:51:07.317358 13368 net.cpp:367] relu3_3-R -> conv3_3-R (in-place)
I0715 12:51:07.317634 13368 net.cpp:122] Setting up relu3_3-R
I0715 12:51:07.317647 13368 net.cpp:129] Top shape: 1 256 178 113 (5149184)
I0715 12:51:07.317652 13368 net.cpp:137] Memory required for data: 1438511232
I0715 12:51:07.317656 13368 layer_factory.hpp:77] Creating layer pool3-R
I0715 12:51:07.317667 13368 net.cpp:84] Creating Layer pool3-R
I0715 12:51:07.317672 13368 net.cpp:406] pool3-R <- conv3_3-R
I0715 12:51:07.317679 13368 net.cpp:380] pool3-R -> pool3-R
I0715 12:51:07.317741 13368 net.cpp:122] Setting up pool3-R
I0715 12:51:07.317751 13368 net.cpp:129] Top shape: 1 256 89 57 (1298688)
I0715 12:51:07.317754 13368 net.cpp:137] Memory required for data: 1443705984
I0715 12:51:07.317759 13368 layer_factory.hpp:77] Creating layer pool3-R_pool3-R_0_split
I0715 12:51:07.317765 13368 net.cpp:84] Creating Layer pool3-R_pool3-R_0_split
I0715 12:51:07.317770 13368 net.cpp:406] pool3-R_pool3-R_0_split <- pool3-R
I0715 12:51:07.317780 13368 net.cpp:380] pool3-R_pool3-R_0_split -> pool3-R_pool3-R_0_split_0
I0715 12:51:07.317787 13368 net.cpp:380] pool3-R_pool3-R_0_split -> pool3-R_pool3-R_0_split_1
I0715 12:51:07.317832 13368 net.cpp:122] Setting up pool3-R_pool3-R_0_split
I0715 12:51:07.317840 13368 net.cpp:129] Top shape: 1 256 89 57 (1298688)
I0715 12:51:07.317845 13368 net.cpp:129] Top shape: 1 256 89 57 (1298688)
I0715 12:51:07.317849 13368 net.cpp:137] Memory required for data: 1454095488
I0715 12:51:07.317855 13368 layer_factory.hpp:77] Creating layer conv4_1-R
I0715 12:51:07.317870 13368 net.cpp:84] Creating Layer conv4_1-R
I0715 12:51:07.317874 13368 net.cpp:406] conv4_1-R <- pool3-R_pool3-R_0_split_0
I0715 12:51:07.317881 13368 net.cpp:380] conv4_1-R -> conv4_1-R
I0715 12:51:07.324968 13368 net.cpp:122] Setting up conv4_1-R
I0715 12:51:07.324988 13368 net.cpp:129] Top shape: 1 512 89 57 (2597376)
I0715 12:51:07.324993 13368 net.cpp:137] Memory required for data: 1464484992
I0715 12:51:07.325003 13368 layer_factory.hpp:77] Creating layer relu4_1-R
I0715 12:51:07.325011 13368 net.cpp:84] Creating Layer relu4_1-R
I0715 12:51:07.325016 13368 net.cpp:406] relu4_1-R <- conv4_1-R
I0715 12:51:07.325023 13368 net.cpp:367] relu4_1-R -> conv4_1-R (in-place)
I0715 12:51:07.325825 13368 net.cpp:122] Setting up relu4_1-R
I0715 12:51:07.325841 13368 net.cpp:129] Top shape: 1 512 89 57 (2597376)
I0715 12:51:07.325846 13368 net.cpp:137] Memory required for data: 1474874496
I0715 12:51:07.325851 13368 layer_factory.hpp:77] Creating layer conv4_2-R
I0715 12:51:07.325861 13368 net.cpp:84] Creating Layer conv4_2-R
I0715 12:51:07.325866 13368 net.cpp:406] conv4_2-R <- conv4_1-R
I0715 12:51:07.325875 13368 net.cpp:380] conv4_2-R -> conv4_2-R
I0715 12:51:07.334477 13368 net.cpp:122] Setting up conv4_2-R
I0715 12:51:07.334514 13368 net.cpp:129] Top shape: 1 512 89 57 (2597376)
I0715 12:51:07.334519 13368 net.cpp:137] Memory required for data: 1485264000
I0715 12:51:07.334528 13368 layer_factory.hpp:77] Creating layer relu4_2-R
I0715 12:51:07.334538 13368 net.cpp:84] Creating Layer relu4_2-R
I0715 12:51:07.334544 13368 net.cpp:406] relu4_2-R <- conv4_2-R
I0715 12:51:07.334552 13368 net.cpp:367] relu4_2-R -> conv4_2-R (in-place)
I0715 12:51:07.337978 13368 net.cpp:122] Setting up relu4_2-R
I0715 12:51:07.337998 13368 net.cpp:129] Top shape: 1 512 89 57 (2597376)
I0715 12:51:07.338003 13368 net.cpp:137] Memory required for data: 1495653504
I0715 12:51:07.338012 13368 layer_factory.hpp:77] Creating layer conv4_3-R
I0715 12:51:07.338027 13368 net.cpp:84] Creating Layer conv4_3-R
I0715 12:51:07.338032 13368 net.cpp:406] conv4_3-R <- conv4_2-R
I0715 12:51:07.338040 13368 net.cpp:380] conv4_3-R -> conv4_3-R
I0715 12:51:07.348034 13368 net.cpp:122] Setting up conv4_3-R
I0715 12:51:07.348057 13368 net.cpp:129] Top shape: 1 512 89 57 (2597376)
I0715 12:51:07.348070 13368 net.cpp:137] Memory required for data: 1506043008
I0715 12:51:07.348080 13368 layer_factory.hpp:77] Creating layer relu4_3-R
I0715 12:51:07.348088 13368 net.cpp:84] Creating Layer relu4_3-R
I0715 12:51:07.348094 13368 net.cpp:406] relu4_3-R <- conv4_3-R
I0715 12:51:07.348105 13368 net.cpp:367] relu4_3-R -> conv4_3-R (in-place)
I0715 12:51:07.348330 13368 net.cpp:122] Setting up relu4_3-R
I0715 12:51:07.348343 13368 net.cpp:129] Top shape: 1 512 89 57 (2597376)
I0715 12:51:07.348348 13368 net.cpp:137] Memory required for data: 1516432512
I0715 12:51:07.348352 13368 layer_factory.hpp:77] Creating layer pool4-R
I0715 12:51:07.348362 13368 net.cpp:84] Creating Layer pool4-R
I0715 12:51:07.348366 13368 net.cpp:406] pool4-R <- conv4_3-R
I0715 12:51:07.348376 13368 net.cpp:380] pool4-R -> pool4-R
I0715 12:51:07.348446 13368 net.cpp:122] Setting up pool4-R
I0715 12:51:07.348456 13368 net.cpp:129] Top shape: 1 512 45 29 (668160)
I0715 12:51:07.348460 13368 net.cpp:137] Memory required for data: 1519105152
I0715 12:51:07.348464 13368 layer_factory.hpp:77] Creating layer pool4-R_pool4-R_0_split
I0715 12:51:07.348472 13368 net.cpp:84] Creating Layer pool4-R_pool4-R_0_split
I0715 12:51:07.348476 13368 net.cpp:406] pool4-R_pool4-R_0_split <- pool4-R
I0715 12:51:07.348484 13368 net.cpp:380] pool4-R_pool4-R_0_split -> pool4-R_pool4-R_0_split_0
I0715 12:51:07.348492 13368 net.cpp:380] pool4-R_pool4-R_0_split -> pool4-R_pool4-R_0_split_1
I0715 12:51:07.348536 13368 net.cpp:122] Setting up pool4-R_pool4-R_0_split
I0715 12:51:07.348547 13368 net.cpp:129] Top shape: 1 512 45 29 (668160)
I0715 12:51:07.348553 13368 net.cpp:129] Top shape: 1 512 45 29 (668160)
I0715 12:51:07.348556 13368 net.cpp:137] Memory required for data: 1524450432
I0715 12:51:07.348564 13368 layer_factory.hpp:77] Creating layer conv5_1-R
I0715 12:51:07.348574 13368 net.cpp:84] Creating Layer conv5_1-R
I0715 12:51:07.348579 13368 net.cpp:406] conv5_1-R <- pool4-R_pool4-R_0_split_0
I0715 12:51:07.348587 13368 net.cpp:380] conv5_1-R -> conv5_1-R
I0715 12:51:07.357899 13368 net.cpp:122] Setting up conv5_1-R
I0715 12:51:07.357935 13368 net.cpp:129] Top shape: 1 512 45 29 (668160)
I0715 12:51:07.357941 13368 net.cpp:137] Memory required for data: 1527123072
I0715 12:51:07.357970 13368 layer_factory.hpp:77] Creating layer relu5_1-R
I0715 12:51:07.357980 13368 net.cpp:84] Creating Layer relu5_1-R
I0715 12:51:07.357986 13368 net.cpp:406] relu5_1-R <- conv5_1-R
I0715 12:51:07.358005 13368 net.cpp:367] relu5_1-R -> conv5_1-R (in-place)
I0715 12:51:07.358242 13368 net.cpp:122] Setting up relu5_1-R
I0715 12:51:07.358254 13368 net.cpp:129] Top shape: 1 512 45 29 (668160)
I0715 12:51:07.358258 13368 net.cpp:137] Memory required for data: 1529795712
I0715 12:51:07.358263 13368 layer_factory.hpp:77] Creating layer conv5_2-R
I0715 12:51:07.358274 13368 net.cpp:84] Creating Layer conv5_2-R
I0715 12:51:07.358279 13368 net.cpp:406] conv5_2-R <- conv5_1-R
I0715 12:51:07.358289 13368 net.cpp:380] conv5_2-R -> conv5_2-R
I0715 12:51:07.368149 13368 net.cpp:122] Setting up conv5_2-R
I0715 12:51:07.368171 13368 net.cpp:129] Top shape: 1 512 45 29 (668160)
I0715 12:51:07.368182 13368 net.cpp:137] Memory required for data: 1532468352
I0715 12:51:07.368192 13368 layer_factory.hpp:77] Creating layer relu5_2-R
I0715 12:51:07.368201 13368 net.cpp:84] Creating Layer relu5_2-R
I0715 12:51:07.368207 13368 net.cpp:406] relu5_2-R <- conv5_2-R
I0715 12:51:07.368216 13368 net.cpp:367] relu5_2-R -> conv5_2-R (in-place)
I0715 12:51:07.368476 13368 net.cpp:122] Setting up relu5_2-R
I0715 12:51:07.368489 13368 net.cpp:129] Top shape: 1 512 45 29 (668160)
I0715 12:51:07.368494 13368 net.cpp:137] Memory required for data: 1535140992
I0715 12:51:07.368502 13368 layer_factory.hpp:77] Creating layer conv5_3-R
I0715 12:51:07.368515 13368 net.cpp:84] Creating Layer conv5_3-R
I0715 12:51:07.368520 13368 net.cpp:406] conv5_3-R <- conv5_2-R
I0715 12:51:07.368528 13368 net.cpp:380] conv5_3-R -> conv5_3-R
I0715 12:51:07.379251 13368 net.cpp:122] Setting up conv5_3-R
I0715 12:51:07.379293 13368 net.cpp:129] Top shape: 1 512 45 29 (668160)
I0715 12:51:07.379309 13368 net.cpp:137] Memory required for data: 1537813632
I0715 12:51:07.379319 13368 layer_factory.hpp:77] Creating layer relu5_3-R
I0715 12:51:07.379333 13368 net.cpp:84] Creating Layer relu5_3-R
I0715 12:51:07.379338 13368 net.cpp:406] relu5_3-R <- conv5_3-R
I0715 12:51:07.379345 13368 net.cpp:367] relu5_3-R -> conv5_3-R (in-place)
I0715 12:51:07.379586 13368 net.cpp:122] Setting up relu5_3-R
I0715 12:51:07.379600 13368 net.cpp:129] Top shape: 1 512 45 29 (668160)
I0715 12:51:07.379603 13368 net.cpp:137] Memory required for data: 1540486272
I0715 12:51:07.379607 13368 layer_factory.hpp:77] Creating layer pool5-R
I0715 12:51:07.379616 13368 net.cpp:84] Creating Layer pool5-R
I0715 12:51:07.379621 13368 net.cpp:406] pool5-R <- conv5_3-R
I0715 12:51:07.379631 13368 net.cpp:380] pool5-R -> pool5-R
I0715 12:51:07.379698 13368 net.cpp:122] Setting up pool5-R
I0715 12:51:07.379709 13368 net.cpp:129] Top shape: 1 512 23 15 (176640)
I0715 12:51:07.379712 13368 net.cpp:137] Memory required for data: 1541192832
I0715 12:51:07.379716 13368 layer_factory.hpp:77] Creating layer fc6-R
I0715 12:51:07.379729 13368 net.cpp:84] Creating Layer fc6-R
I0715 12:51:07.379732 13368 net.cpp:406] fc6-R <- pool5-R
I0715 12:51:07.379740 13368 net.cpp:380] fc6-R -> fc6-R
I0715 12:51:07.747432 13368 net.cpp:122] Setting up fc6-R
I0715 12:51:07.747470 13368 net.cpp:129] Top shape: 1 4096 17 9 (626688)
I0715 12:51:07.747475 13368 net.cpp:137] Memory required for data: 1543699584
I0715 12:51:07.747494 13368 layer_factory.hpp:77] Creating layer relu6-R
I0715 12:51:07.747509 13368 net.cpp:84] Creating Layer relu6-R
I0715 12:51:07.747517 13368 net.cpp:406] relu6-R <- fc6-R
I0715 12:51:07.747526 13368 net.cpp:367] relu6-R -> fc6-R (in-place)
I0715 12:51:07.748708 13368 net.cpp:122] Setting up relu6-R
I0715 12:51:07.748744 13368 net.cpp:129] Top shape: 1 4096 17 9 (626688)
I0715 12:51:07.748749 13368 net.cpp:137] Memory required for data: 1546206336
I0715 12:51:07.748762 13368 layer_factory.hpp:77] Creating layer drop6-R
I0715 12:51:07.748773 13368 net.cpp:84] Creating Layer drop6-R
I0715 12:51:07.748777 13368 net.cpp:406] drop6-R <- fc6-R
I0715 12:51:07.748785 13368 net.cpp:367] drop6-R -> fc6-R (in-place)
I0715 12:51:07.748823 13368 net.cpp:122] Setting up drop6-R
I0715 12:51:07.748836 13368 net.cpp:129] Top shape: 1 4096 17 9 (626688)
I0715 12:51:07.748838 13368 net.cpp:137] Memory required for data: 1548713088
I0715 12:51:07.748842 13368 layer_factory.hpp:77] Creating layer fc7-R
I0715 12:51:07.748853 13368 net.cpp:84] Creating Layer fc7-R
I0715 12:51:07.748857 13368 net.cpp:406] fc7-R <- fc6-R
I0715 12:51:07.748865 13368 net.cpp:380] fc7-R -> fc7-R
I0715 12:51:07.804450 13368 net.cpp:122] Setting up fc7-R
I0715 12:51:07.804498 13368 net.cpp:129] Top shape: 1 4096 17 9 (626688)
I0715 12:51:07.804503 13368 net.cpp:137] Memory required for data: 1551219840
I0715 12:51:07.804515 13368 layer_factory.hpp:77] Creating layer relu7-R
I0715 12:51:07.804530 13368 net.cpp:84] Creating Layer relu7-R
I0715 12:51:07.804538 13368 net.cpp:406] relu7-R <- fc7-R
I0715 12:51:07.804545 13368 net.cpp:367] relu7-R -> fc7-R (in-place)
I0715 12:51:07.805245 13368 net.cpp:122] Setting up relu7-R
I0715 12:51:07.805258 13368 net.cpp:129] Top shape: 1 4096 17 9 (626688)
I0715 12:51:07.805279 13368 net.cpp:137] Memory required for data: 1553726592
I0715 12:51:07.805296 13368 layer_factory.hpp:77] Creating layer drop7-R
I0715 12:51:07.805308 13368 net.cpp:84] Creating Layer drop7-R
I0715 12:51:07.805312 13368 net.cpp:406] drop7-R <- fc7-R
I0715 12:51:07.805320 13368 net.cpp:367] drop7-R -> fc7-R (in-place)
I0715 12:51:07.805356 13368 net.cpp:122] Setting up drop7-R
I0715 12:51:07.805361 13368 net.cpp:129] Top shape: 1 4096 17 9 (626688)
I0715 12:51:07.805364 13368 net.cpp:137] Memory required for data: 1556233344
I0715 12:51:07.805367 13368 layer_factory.hpp:77] Creating layer score_fr-new-R
I0715 12:51:07.805380 13368 net.cpp:84] Creating Layer score_fr-new-R
I0715 12:51:07.805385 13368 net.cpp:406] score_fr-new-R <- fc7-R
I0715 12:51:07.805410 13368 net.cpp:380] score_fr-new-R -> score_fr-new-R
I0715 12:51:07.806952 13368 net.cpp:122] Setting up score_fr-new-R
I0715 12:51:07.806967 13368 net.cpp:129] Top shape: 1 3 17 9 (459)
I0715 12:51:07.806987 13368 net.cpp:137] Memory required for data: 1556235180
I0715 12:51:07.806994 13368 layer_factory.hpp:77] Creating layer upscore2-new-R
I0715 12:51:07.807005 13368 net.cpp:84] Creating Layer upscore2-new-R
I0715 12:51:07.807009 13368 net.cpp:406] upscore2-new-R <- score_fr-new-R
I0715 12:51:07.807015 13368 net.cpp:380] upscore2-new-R -> upscore2-new-R
I0715 12:51:07.807242 13368 net.cpp:122] Setting up upscore2-new-R
I0715 12:51:07.807252 13368 net.cpp:129] Top shape: 1 3 36 20 (2160)
I0715 12:51:07.807255 13368 net.cpp:137] Memory required for data: 1556243820
I0715 12:51:07.807260 13368 layer_factory.hpp:77] Creating layer upscore2-new-R_upscore2-new-R_0_split
I0715 12:51:07.807266 13368 net.cpp:84] Creating Layer upscore2-new-R_upscore2-new-R_0_split
I0715 12:51:07.807269 13368 net.cpp:406] upscore2-new-R_upscore2-new-R_0_split <- upscore2-new-R
I0715 12:51:07.807301 13368 net.cpp:380] upscore2-new-R_upscore2-new-R_0_split -> upscore2-new-R_upscore2-new-R_0_split_0
I0715 12:51:07.807308 13368 net.cpp:380] upscore2-new-R_upscore2-new-R_0_split -> upscore2-new-R_upscore2-new-R_0_split_1
I0715 12:51:07.807351 13368 net.cpp:122] Setting up upscore2-new-R_upscore2-new-R_0_split
I0715 12:51:07.807358 13368 net.cpp:129] Top shape: 1 3 36 20 (2160)
I0715 12:51:07.807361 13368 net.cpp:129] Top shape: 1 3 36 20 (2160)
I0715 12:51:07.807364 13368 net.cpp:137] Memory required for data: 1556261100
I0715 12:51:07.807368 13368 layer_factory.hpp:77] Creating layer score_pool4-new-R
I0715 12:51:07.807379 13368 net.cpp:84] Creating Layer score_pool4-new-R
I0715 12:51:07.807384 13368 net.cpp:406] score_pool4-new-R <- pool4-R_pool4-R_0_split_1
I0715 12:51:07.807389 13368 net.cpp:380] score_pool4-new-R -> score_pool4-new-R
I0715 12:51:07.809478 13368 net.cpp:122] Setting up score_pool4-new-R
I0715 12:51:07.809494 13368 net.cpp:129] Top shape: 1 3 45 29 (3915)
I0715 12:51:07.809500 13368 net.cpp:137] Memory required for data: 1556276760
I0715 12:51:07.809507 13368 layer_factory.hpp:77] Creating layer score_pool4c-R
I0715 12:51:07.809514 13368 net.cpp:84] Creating Layer score_pool4c-R
I0715 12:51:07.809518 13368 net.cpp:406] score_pool4c-R <- score_pool4-new-R
I0715 12:51:07.809523 13368 net.cpp:406] score_pool4c-R <- upscore2-new-R_upscore2-new-R_0_split_0
I0715 12:51:07.809530 13368 net.cpp:380] score_pool4c-R -> score_pool4c-R
I0715 12:51:07.809562 13368 net.cpp:122] Setting up score_pool4c-R
I0715 12:51:07.809568 13368 net.cpp:129] Top shape: 1 3 36 20 (2160)
I0715 12:51:07.809571 13368 net.cpp:137] Memory required for data: 1556285400
I0715 12:51:07.809576 13368 layer_factory.hpp:77] Creating layer fuse_pool4-R
I0715 12:51:07.809582 13368 net.cpp:84] Creating Layer fuse_pool4-R
I0715 12:51:07.809588 13368 net.cpp:406] fuse_pool4-R <- upscore2-new-R_upscore2-new-R_0_split_1
I0715 12:51:07.809593 13368 net.cpp:406] fuse_pool4-R <- score_pool4c-R
I0715 12:51:07.809598 13368 net.cpp:380] fuse_pool4-R -> fuse_pool4-R
I0715 12:51:07.809623 13368 net.cpp:122] Setting up fuse_pool4-R
I0715 12:51:07.809628 13368 net.cpp:129] Top shape: 1 3 36 20 (2160)
I0715 12:51:07.809630 13368 net.cpp:137] Memory required for data: 1556294040
I0715 12:51:07.809643 13368 layer_factory.hpp:77] Creating layer upscore_pool4-new-R
I0715 12:51:07.809654 13368 net.cpp:84] Creating Layer upscore_pool4-new-R
I0715 12:51:07.809657 13368 net.cpp:406] upscore_pool4-new-R <- fuse_pool4-R
I0715 12:51:07.809662 13368 net.cpp:380] upscore_pool4-new-R -> upscore_pool4-new-R
I0715 12:51:07.809877 13368 net.cpp:122] Setting up upscore_pool4-new-R
I0715 12:51:07.809886 13368 net.cpp:129] Top shape: 1 3 74 42 (9324)
I0715 12:51:07.809890 13368 net.cpp:137] Memory required for data: 1556331336
I0715 12:51:07.809895 13368 layer_factory.hpp:77] Creating layer upscore_pool4-new-R_upscore_pool4-new-R_0_split
I0715 12:51:07.809900 13368 net.cpp:84] Creating Layer upscore_pool4-new-R_upscore_pool4-new-R_0_split
I0715 12:51:07.809903 13368 net.cpp:406] upscore_pool4-new-R_upscore_pool4-new-R_0_split <- upscore_pool4-new-R
I0715 12:51:07.809911 13368 net.cpp:380] upscore_pool4-new-R_upscore_pool4-new-R_0_split -> upscore_pool4-new-R_upscore_pool4-new-R_0_split_0
I0715 12:51:07.809916 13368 net.cpp:380] upscore_pool4-new-R_upscore_pool4-new-R_0_split -> upscore_pool4-new-R_upscore_pool4-new-R_0_split_1
I0715 12:51:07.809952 13368 net.cpp:122] Setting up upscore_pool4-new-R_upscore_pool4-new-R_0_split
I0715 12:51:07.809957 13368 net.cpp:129] Top shape: 1 3 74 42 (9324)
I0715 12:51:07.809962 13368 net.cpp:129] Top shape: 1 3 74 42 (9324)
I0715 12:51:07.809964 13368 net.cpp:137] Memory required for data: 1556405928
I0715 12:51:07.809967 13368 layer_factory.hpp:77] Creating layer score_pool3-new-R
I0715 12:51:07.809978 13368 net.cpp:84] Creating Layer score_pool3-new-R
I0715 12:51:07.809983 13368 net.cpp:406] score_pool3-new-R <- pool3-R_pool3-R_0_split_1
I0715 12:51:07.809988 13368 net.cpp:380] score_pool3-new-R -> score_pool3-new-R
I0715 12:51:07.810959 13368 net.cpp:122] Setting up score_pool3-new-R
I0715 12:51:07.810972 13368 net.cpp:129] Top shape: 1 3 89 57 (15219)
I0715 12:51:07.810991 13368 net.cpp:137] Memory required for data: 1556466804
I0715 12:51:07.810997 13368 layer_factory.hpp:77] Creating layer score_pool3c-R
I0715 12:51:07.811008 13368 net.cpp:84] Creating Layer score_pool3c-R
I0715 12:51:07.811012 13368 net.cpp:406] score_pool3c-R <- score_pool3-new-R
I0715 12:51:07.811017 13368 net.cpp:406] score_pool3c-R <- upscore_pool4-new-R_upscore_pool4-new-R_0_split_0
I0715 12:51:07.811024 13368 net.cpp:380] score_pool3c-R -> score_pool3c-R
I0715 12:51:07.811055 13368 net.cpp:122] Setting up score_pool3c-R
I0715 12:51:07.811060 13368 net.cpp:129] Top shape: 1 3 74 42 (9324)
I0715 12:51:07.811064 13368 net.cpp:137] Memory required for data: 1556504100
I0715 12:51:07.811066 13368 layer_factory.hpp:77] Creating layer fuse_pool3-R
I0715 12:51:07.811080 13368 net.cpp:84] Creating Layer fuse_pool3-R
I0715 12:51:07.811084 13368 net.cpp:406] fuse_pool3-R <- upscore_pool4-new-R_upscore_pool4-new-R_0_split_1
I0715 12:51:07.811089 13368 net.cpp:406] fuse_pool3-R <- score_pool3c-R
I0715 12:51:07.811094 13368 net.cpp:380] fuse_pool3-R -> fuse_pool3-R
I0715 12:51:07.811121 13368 net.cpp:122] Setting up fuse_pool3-R
I0715 12:51:07.811127 13368 net.cpp:129] Top shape: 1 3 74 42 (9324)
I0715 12:51:07.811131 13368 net.cpp:137] Memory required for data: 1556541396
I0715 12:51:07.811132 13368 layer_factory.hpp:77] Creating layer upscore8-new-R
I0715 12:51:07.811141 13368 net.cpp:84] Creating Layer upscore8-new-R
I0715 12:51:07.811144 13368 net.cpp:406] upscore8-new-R <- fuse_pool3-R
I0715 12:51:07.811151 13368 net.cpp:380] upscore8-new-R -> upscore8-new-R
I0715 12:51:07.811415 13368 net.cpp:122] Setting up upscore8-new-R
I0715 12:51:07.811425 13368 net.cpp:129] Top shape: 1 3 600 344 (619200)
I0715 12:51:07.811429 13368 net.cpp:137] Memory required for data: 1559018196
I0715 12:51:07.811434 13368 layer_factory.hpp:77] Creating layer upscore8_cropped-R
I0715 12:51:07.811439 13368 net.cpp:84] Creating Layer upscore8_cropped-R
I0715 12:51:07.811444 13368 net.cpp:406] upscore8_cropped-R <- upscore8-new-R
I0715 12:51:07.811450 13368 net.cpp:406] upscore8_cropped-R <- data-R_crop_0_split_1
I0715 12:51:07.811453 13368 net.cpp:380] upscore8_cropped-R -> upscore8_cropped-R
I0715 12:51:07.811482 13368 net.cpp:122] Setting up upscore8_cropped-R
I0715 12:51:07.811487 13368 net.cpp:129] Top shape: 1 3 512 251 (385536)
I0715 12:51:07.811491 13368 net.cpp:137] Memory required for data: 1560560340
I0715 12:51:07.811493 13368 layer_factory.hpp:77] Creating layer upscore8_uncropped-R
I0715 12:51:07.811856 13368 net.cpp:84] Creating Layer upscore8_uncropped-R
I0715 12:51:07.811869 13368 net.cpp:406] upscore8_uncropped-R <- crop_info
I0715 12:51:07.811874 13368 net.cpp:406] upscore8_uncropped-R <- upscore8_cropped-R
I0715 12:51:07.811878 13368 net.cpp:406] upscore8_uncropped-R <- data_data_0_split_3
I0715 12:51:07.811884 13368 net.cpp:380] upscore8_uncropped-R -> upscore8_uncropped-R
I0715 12:51:07.813616 13368 net.cpp:122] Setting up upscore8_uncropped-R
I0715 12:51:07.813632 13368 net.cpp:129] Top shape: 1 3 512 251 (385536)
I0715 12:51:07.813634 13368 net.cpp:137] Memory required for data: 1562102484
I0715 12:51:07.813638 13368 layer_factory.hpp:77] Creating layer loss1
I0715 12:51:07.813653 13368 net.cpp:84] Creating Layer loss1
I0715 12:51:07.813657 13368 net.cpp:406] loss1 <- upscore8_cropped_upscore8_cropped_0_split_1
I0715 12:51:07.813663 13368 net.cpp:406] loss1 <- label_data_1_split_1
I0715 12:51:07.813668 13368 net.cpp:380] loss1 -> loss1
…
snapshot_prefix: "/media/Med_2T2/data2/models/snapshots/indiv:1e-5x10,20/FD2:YI3_1_20180715_091946/train"
test_initialization: false
average_loss: 20
stepvalue: 40000
iter_size: 1
I0715 13:38:54.377785 13368 solver.cpp:77] Creating training net from train_net file: /media/Med_2T2/data2/prototxts/training_I3x10.prototxt
I0715 13:38:54.379873 13368 net.cpp:51] Initializing net from parameters: 
state {
  phase: TRAIN
}
layer {
  name: "data"
  type: "Python"
  top: "data"
  top: "label"
  top: "crop_margin"
  top: "crop_prob"
  top: "crop_sample_batch"
  python_param {
    module: "Data"
    layer: "DataLayer"
  }
}
layer {
  name: "conv1_1"
  type: "Convolution"
  bottom: "data"
  top: "conv1_1"
  param {
    lr_mult: 1
    decay_mult: 1
  }
  param {
    lr_mult: 2
    decay_mult: 0
  }
  convolution_param {
    num_output: 64
    pad: 100
    kernel_size: 3
    stride: 1
  }
}
layer {
  name: "relu1_1"
  type: "ReLU"
  bottom: "conv1_1"
  top: "conv1_1"
}
layer {
  name: "conv1_2"
  type: "Convolution"
  bottom: "conv1_1"
  top: "conv1_2"
  param {
    lr_mult: 1
    decay_mult: 1
  }
  param {
    lr_mult: 2
    decay_mult: 0
  }
  convolution_param {
    num_output: 64
    pad: 1
    kernel_size: 3
    stride: 1
  }
}
layer {
  name: "relu1_2"
  type: "ReLU"
  bottom: "conv1_2"
  top: "conv1_2"
}
layer {
  name: "pool1"
  type: "Pooling"
  bottom: "conv1_2"
  top: "pool1"
  pooling_param {
    pool: MAX
    kernel_size: 2
    stride: 2
  }
}
layer {
  name: "conv2_1"
  type: "Convolution"
  bottom: "pool1"
  top: "conv2_1"
  param {
    lr_mult: 1
    decay_mult: 1
  }
  param {
    lr_mult: 2
    decay_mult: 0
  }
  convolution_param {
    num_output: 128
    pad: 1
    kernel_size: 3
    stride: 1
  }
}
layer {
  name: "relu2_1"
  type: "ReLU"
  bottom: "conv2_1"
  top: "conv2_1"
}
layer {
  name: "conv2_2"
  type: "Convolution"
  bottom: "conv2_1"
  top: "conv2_2"
  param {
    lr_mult: 1
    decay_mult: 1
  }
  param {
    lr_mult: 2
    decay_mult: 0
  }
  convolution_param {
    num_output: 128
    pad: 1
    kernel_size: 3
    stride: 1
  }
}
layer {
  name: "relu2_2"
  type: "ReLU"
  bottom: "conv2_2"
  top: "conv2_2"
}
layer {
  name: "pool2"
  type: "Pooling"
  bottom: "conv2_2"
  top: "pool2"
  pooling_param {
    pool: MAX
    kernel_size: 2
    stride: 2
  }
}
layer {
  name: "conv3_1"
  type: "Convolution"
  bottom: "pool2"
  top: "conv3_1"
  param {
    lr_mult: 1
    decay_mult: 1
  }
  param {
    lr_mult: 2
    decay_mult: 0
  }
  convolution_param {
    num_output: 256
    pad: 1
    kernel_size: 3
    stride: 1
  }
}
layer {
  name: "relu3_1"
  type: "ReLU"
  bottom: "conv3_1"
  top: "conv3_1"
}
layer {
  name: "conv3_2"
  type: "Convolution"
  bottom: "conv3_1"
  top: "conv3_2"
  param {
    lr_mult: 1
    decay_mult: 1
  }
  param {
    lr_mult: 2
    decay_mult: 0
  }
  convolution_param {
    num_output: 256
    pad: 1
    kernel_size: 3
    stride: 1
  }
}
layer {
  name: "relu3_2"
  type: "ReLU"
  bottom: "conv3_2"
  top: "conv3_2"
}
layer {
  name: "conv3_3"
  type: "Convolution"
  bottom: "conv3_2"
  top: "conv3_3"
  param {
    lr_mult: 1
    decay_mult: 1
  }
  param {
    lr_mult: 2
    decay_mult: 0
  }
  convolution_param {
    num_output: 256
    pad: 1
    kernel_size: 3
    stride: 1
  }
}
layer {
  name: "relu3_3"
  type: "ReLU"
  bottom: "conv3_3"
  top: "conv3_3"
}
layer {
  name: "pool3"
  type: "Pooling"
  bottom: "conv3_3"
  top: "pool3"
  pooling_param {
    pool: MAX
    kernel_size: 2
    stride: 2
  }
}
layer {
  name: "conv4_1"
  type: "Convolution"
  bottom: "pool3"
  top: "conv4_1"
  param {
    lr_mult: 1
    decay_mult: 1
  }
  param {
    lr_mult: 2
    decay_mult: 0
  }
  convolution_param {
    num_output: 512
    pad: 1
    kernel_size: 3
    stride: 1
  }
}
layer {
  name: "relu4_1"
  type: "ReLU"
  bottom: "conv4_1"
  top: "conv4_1"
}
layer {
  name: "conv4_2"
  type: "Convolution"
  bottom: "conv4_1"
  top: "conv4_2"
  param {
    lr_mult: 1
    decay_mult: 1
  }
  param {
    lr_mult: 2
    decay_mult: 0
  }
  convolution_param {
    num_output: 512
    pad: 1
    kernel_size: 3
    stride: 1
  }
}
layer {
  name: "relu4_2"
  type: "ReLU"
  bottom: "conv4_2"
  top: "conv4_2"
}
layer {
  name: "conv4_3"
  type: "Convolution"
  bottom: "conv4_2"
  top: "conv4_3"
  param {
    lr_mult: 1
    decay_mult: 1
  }
  param {
    lr_mult: 2
    decay_mult: 0
  }
  convolution_param {
    num_output: 512
    pad: 1
    kernel_size: 3
    stride: 1
  }
}
layer {
  name: "relu4_3"
  type: "ReLU"
  bottom: "conv4_3"
  top: "conv4_3"
}
layer {
  name: "pool4"
  type: "Pooling"
  bottom: "conv4_3"
  top: "pool4"
  pooling_param {
    pool: MAX
    kernel_size: 2
    stride: 2
  }
}
layer {
  name: "conv5_1"
  type: "Convolution"
  bottom: "pool4"
  top: "conv5_1"
  param {
    lr_mult: 1
    decay_mult: 1
  }
  param {
    lr_mult: 2
    decay_mult: 0
  }
  convolution_param {
    num_output: 512
    pad: 1
    kernel_size: 3
    stride: 1
  }
}
layer {
  name: "relu5_1"
  type: "ReLU"
  bottom: "conv5_1"
  top: "conv5_1"
}
layer {
  name: "conv5_2"
  type: "Convolution"
  bottom: "conv5_1"
  top: "conv5_2"
  param {
    lr_mult: 1
    decay_mult: 1
  }
  param {
    lr_mult: 2
    decay_mult: 0
  }
  convolution_param {
    num_output: 512
    pad: 1
    kernel_size: 3
    stride: 1
  }
}
layer {
  name: "relu5_2"
  type: "ReLU"
  bottom: "conv5_2"
  top: "conv5_2"
}
layer {
  name: "conv5_3"
  type: "Convolution"
  bottom: "conv5_2"
  top: "conv5_3"
  param {
    lr_mult: 1
    decay_mult: 1
  }
  param {
    lr_mult: 2
    decay_mult: 0
  }
  convolution_param {
    num_output: 512
    pad: 1
    kernel_size: 3
    stride: 1
  }
}
layer {
  name: "relu5_3"
  type: "ReLU"
  bottom: "conv5_3"
  top: "conv5_3"
}
layer {
  name: "pool5"
  type: "Pooling"
  bottom: "conv5_3"
  top: "pool5"
  pooling_param {
    pool: MAX
    kernel_size: 2
    stride: 2
  }
}
layer {
  name: "fc6"
  type: "Convolution"
  bottom: "pool5"
  top: "fc6"
  param {
    lr_mult: 1
    decay_mult: 1
  }
  param {
    lr_mult: 2
    decay_mult: 0
  }
  convolution_param {
    num_output: 4096
    pad: 0
    kernel_size: 7
    stride: 1
  }
}
layer {
  name: "relu6"
  type: "ReLU"
  bottom: "fc6"
  top: "fc6"
}
layer {
  name: "drop6"
  type: "Dropout"
  bottom: "fc6"
  top: "fc6"
  dropout_param {
    dropout_ratio: 0.5
  }
}
layer {
  name: "fc7"
  type: "Convolution"
  bottom: "fc6"
  top: "fc7"
  param {
    lr_mult: 1
    decay_mult: 1
  }
  param {
    lr_mult: 2
    decay_mult: 0
  }
  convolution_param {
    num_output: 4096
    pad: 0
    kernel_size: 1
    stride: 1
  }
}
layer {
  name: "relu7"
  type: "ReLU"
  bottom: "fc7"
  top: "fc7"
}
layer {
  name: "drop7"
  type: "Dropout"
  bottom: "fc7"
  top: "fc7"
  dropout_param {
    dropout_ratio: 0.5
  }
}
layer {
  name: "score_fr-new"
  type: "Convolution"
  bottom: "fc7"
  top: "score_fr-new"
  param {
    lr_mult: 1
    decay_mult: 1
  }
  param {
    lr_mult: 2
    decay_mult: 0
  }
  convolution_param {
    num_output: 3
    kernel_size: 1
  }
}
layer {
  name: "upscore2-new"
  type: "Deconvolution"
  bottom: "score_fr-new"
  top: "upscore2-new"
  param {
    lr_mult: 0
  }
  convolution_param {
    num_output: 3
    bias_term: false
    kernel_size: 4
    stride: 2
  }
}
layer {
  name: "score_pool4-new"
  type: "Convolution"
  bottom: "pool4"
  top: "score_pool4-new"
  param {
    lr_mult: 1
    decay_mult: 1
  }
  param {
    lr_mult: 2
    decay_mult: 0
  }
  convolution_param {
    num_output: 3
    pad: 0
    kernel_size: 1
  }
}
layer {
  name: "score_pool4c"
  type: "Crop"
  bottom: "score_pool4-new"
  bottom: "upscore2-new"
  top: "score_pool4c"
  crop_param {
    axis: 2
    offset: 5
  }
}
layer {
  name: "fuse_pool4"
  type: "Eltwise"
  bottom: "upscore2-new"
  bottom: "score_pool4c"
  top: "fuse_pool4"
  eltwise_param {
    operation: SUM
  }
}
layer {
  name: "upscore_pool4-new"
  type: "Deconvolution"
  bottom: "fuse_pool4"
  top: "upscore_pool4-new"
  param {
    lr_mult: 0
  }
  convolution_param {
    num_output: 3
    bias_term: false
    kernel_size: 4
    stride: 2
  }
}
layer {
  name: "score_pool3-new"
  type: "Convolution"
  bottom: "pool3"
  top: "score_pool3-new"
  param {
    lr_mult: 1
    decay_mult: 1
  }
  param {
    lr_mult: 2
    decay_mult: 0
  }
  convolution_param {
    num_output: 3
    pad: 0
    kernel_size: 1
  }
}
layer {
  name: "score_pool3c"
  type: "Crop"
  bottom: "score_pool3-new"
  bottom: "upscore_pool4-new"
  top: "score_pool3c"
  crop_param {
    axis: 2
    offset: 9
  }
}
layer {
  name: "fuse_pool3"
  type: "Eltwise"
  bottom: "upscore_pool4-new"
  bottom: "score_pool3c"
  top: "fuse_pool3"
  eltwise_param {
    operation: SUM
  }
}
layer {
  name: "upscore8-new"
  type: "Deconvolution"
  bottom: "fuse_pool3"
  top: "upscore8-new"
  param {
    lr_mult: 0
  }
  convolution_param {
    num_output: 3
    bias_term: false
    kernel_size: 16
    stride: 8
  }
}
layer {
  name: "upscore8_cropped"
  type: "Crop"
  bottom: "upscore8-new"
  bottom: "data"
  top: "upscore8_cropped"
  crop_param {
    axis: 2
    offset: 31
  }
}
layer {
  name: "prob"
  type: "Sigmoid"
  bottom: "upscore8_cropped"
  top: "prob"
}
layer {
  name: "saliency1"
  type: "Convolution"
  bottom: "prob"
  top: "saliency1"
  param {
    lr_mult: 10
    decay_mult: 1
  }
  param {
    lr_mult: 20
    decay_mult: 0
  }
  convolution_param {
    num_output: 3
    pad: 1
    kernel_size: 3
    stride: 1
    weight_filler {
      type: "xavier"
    }
    bias_filler {
      type: "constant"
      value: 1
    }
  }
}
layer {
  name: "relu_saliency1"
  type: "ReLU"
  bottom: "saliency1"
  top: "saliency1"
}
layer {
  name: "saliency"
  type: "Convolution"
  bottom: "saliency1"
  top: "saliency"
  param {
    lr_mult: 10
    decay_mult: 1
  }
  param {
    lr_mult: 20
    decay_mult: 0
  }
  convolution_param {
    num_output: 3
    pad: 2
    kernel_size: 5
    stride: 1
    weight_filler {
      type: "xavier"
    }
    bias_filler {
      type: "constant"
      value: 1
    }
  }
}
layer {
  name: "saliency_data"
  type: "Eltwise"
  bottom: "data"
  bottom: "saliency"
  top: "saliency_data"
  eltwise_param {
    operation: PROD
  }
}
layer {
  name: "crop"
  type: "Python"
  bottom: "label"
  bottom: "saliency_data"
  bottom: "crop_margin"
  bottom: "crop_prob"
  bottom: "crop_sample_batch"
  top: "data-R"
  top: "crop_info"
  python_param {
    module: "Crop"
    layer: "CropLayer"
    param_str: "{\"TEST\": 0}"
  }
}
layer {
  name: "conv1_1-R"
  type: "Convolution"
  bottom: "data-R"
  top: "conv1_1-R"
  param {
    lr_mult: 10
    decay_mult: 1
  }
  param {
    lr_mult: 20
    decay_mult: 0
  }
  convolution_param {
    num_output: 64
    pad: 100
    kernel_size: 3
    stride: 1
  }
}
layer {
  name: "relu1_1-R"
  type: "ReLU"
  bottom: "conv1_1-R"
  top: "conv1_1-R"
}
layer {
  name: "conv1_2-R"
  type: "Convolution"
  bottom: "conv1_1-R"
  top: "conv1_2-R"
  param {
    lr_mult: 10
    decay_mult: 1
  }
  param {
    lr_mult: 20
    decay_mult: 0
  }
  convolution_param {
    num_output: 64
    pad: 1
    kernel_size: 3
    stride: 1
  }
}
layer {
  name: "relu1_2-R"
  type: "ReLU"
  bottom: "conv1_2-R"
  top: "conv1_2-R"
}
layer {
  name: "pool1-R"
  type: "Pooling"
  bottom: "conv1_2-R"
  top: "pool1-R"
  pooling_param {
    pool: MAX
    kernel_size: 2
    stride: 2
  }
}
layer {
  name: "conv2_1-R"
  type: "Convolution"
  bottom: "pool1-R"
  top: "conv2_1-R"
  param {
    lr_mult: 10
    decay_mult: 1
  }
  param {
    lr_mult: 20
    decay_mult: 0
  }
  convolution_param {
    num_output: 128
    pad: 1
    kernel_size: 3
    stride: 1
  }
}
layer {
  name: "relu2_1-R"
  type: "ReLU"
  bottom: "conv2_1-R"
  top: "conv2_1-R"
}
layer {
  name: "conv2_2-R"
  type: "Convolution"
  bottom: "conv2_1-R"
  top: "conv2_2-R"
  param {
    lr_mult: 10
    decay_mult: 1
  }
  param {
    lr_mult: 20
    decay_mult: 0
  }
  convolution_param {
    num_output: 128
    pad: 1
    kernel_size: 3
    stride: 1
  }
}
layer {
  name: "relu2_2-R"
  type: "ReLU"
  bottom: "conv2_2-R"
  top: "conv2_2-R"
}
layer {
  name: "pool2-R"
  type: "Pooling"
  bottom: "conv2_2-R"
  top: "pool2-R"
  pooling_param {
    pool: MAX
    kernel_size: 2
    stride: 2
  }
}
layer {
  name: "conv3_1-R"
  type: "Convolution"
  bottom: "pool2-R"
  top: "conv3_1-R"
  param {
    lr_mult: 10
    decay_mult: 1
  }
  param {
    lr_mult: 20
    decay_mult: 0
  }
  convolution_param {
    num_output: 256
    pad: 1
    kernel_size: 3
    stride: 1
  }
}
layer {
  name: "relu3_1-R"
  type: "ReLU"
  bottom: "conv3_1-R"
  top: "conv3_1-R"
}
layer {
  name: "conv3_2-R"
  type: "Convolution"
  bottom: "conv3_1-R"
  top: "conv3_2-R"
  param {
    lr_mult: 10
    decay_mult: 1
  }
  param {
    lr_mult: 20
    decay_mult: 0
  }
  convolution_param {
    num_output: 256
    pad: 1
    kernel_size: 3
    stride: 1
  }
}
layer {
  name: "relu3_2-R"
  type: "ReLU"
  bottom: "conv3_2-R"
  top: "conv3_2-R"
}
layer {
  name: "conv3_3-R"
  type: "Convolution"
  bottom: "conv3_2-R"
  top: "conv3_3-R"
  param {
    lr_mult: 10
    decay_mult: 1
  }
  param {
    lr_mult: 20
    decay_mult: 0
  }
  convolution_param {
    num_output: 256
    pad: 1
    kernel_size: 3
    stride: 1
  }
}
layer {
  name: "relu3_3-R"
  type: "ReLU"
  bottom: "conv3_3-R"
  top: "conv3_3-R"
}
layer {
  name: "pool3-R"
  type: "Pooling"
  bottom: "conv3_3-R"
  top: "pool3-R"
  pooling_param {
    pool: MAX
    kernel_size: 2
    stride: 2
  }
}
layer {
  name: "conv4_1-R"
  type: "Convolution"
  bottom: "pool3-R"
  top: "conv4_1-R"
  param {
    lr_mult: 10
    decay_mult: 1
  }
  param {
    lr_mult: 20
    decay_mult: 0
  }
  convolution_param {
    num_output: 512
    pad: 1
    kernel_size: 3
    stride: 1
  }
}
layer {
  name: "relu4_1-R"
  type: "ReLU"
  bottom: "conv4_1-R"
  top: "conv4_1-R"
}
layer {
  name: "conv4_2-R"
  type: "Convolution"
  bottom: "conv4_1-R"
  top: "conv4_2-R"
  param {
    lr_mult: 10
    decay_mult: 1
  }
  param {
    lr_mult: 20
    decay_mult: 0
  }
  convolution_param {
    num_output: 512
    pad: 1
    kernel_size: 3
    stride: 1
  }
}
layer {
  name: "relu4_2-R"
  type: "ReLU"
  bottom: "conv4_2-R"
  top: "conv4_2-R"
}
layer {
  name: "conv4_3-R"
  type: "Convolution"
  bottom: "conv4_2-R"
  top: "conv4_3-R"
  param {
    lr_mult: 10
    decay_mult: 1
  }
  param {
    lr_mult: 20
    decay_mult: 0
  }
  convolution_param {
    num_output: 512
    pad: 1
    kernel_size: 3
    stride: 1
  }
}
layer {
  name: "relu4_3-R"
  type: "ReLU"
  bottom: "conv4_3-R"
  top: "conv4_3-R"
}
layer {
  name: "pool4-R"
  type: "Pooling"
  bottom: "conv4_3-R"
  top: "pool4-R"
  pooling_param {
    pool: MAX
    kernel_size: 2
    stride: 2
  }
}
layer {
  name: "conv5_1-R"
  type: "Convolution"
  bottom: "pool4-R"
  top: "conv5_1-R"
  param {
    lr_mult: 10
    decay_mult: 1
  }
  param {
    lr_mult: 20
    decay_mult: 0
  }
  convolution_param {
    num_output: 512
    pad: 1
    kernel_size: 3
    stride: 1
  }
}
layer {
  name: "relu5_1-R"
  type: "ReLU"
  bottom: "conv5_1-R"
  top: "conv5_1-R"
}
layer {
  name: "conv5_2-R"
  type: "Convolution"
  bottom: "conv5_1-R"
  top: "conv5_2-R"
  param {
    lr_mult: 10
    decay_mult: 1
  }
  param {
    lr_mult: 20
    decay_mult: 0
  }
  convolution_param {
    num_output: 512
    pad: 1
    kernel_size: 3
    stride: 1
  }
}
layer {
  name: "relu5_2-R"
  type: "ReLU"
  bottom: "conv5_2-R"
  top: "conv5_2-R"
}
layer {
  name: "conv5_3-R"
  type: "Convolution"
  bottom: "conv5_2-R"
  top: "conv5_3-R"
  param {
    lr_mult: 10
    decay_mult: 1
  }
  param {
    lr_mult: 20
    decay_mult: 0
  }
  convolution_param {
    num_output: 512
    pad: 1
    kernel_size: 3
    stride: 1
  }
}
layer {
  name: "relu5_3-R"
  type: "ReLU"
  bottom: "conv5_3-R"
  top: "conv5_3-R"
}
layer {
  name: "pool5-R"
  type: "Pooling"
  bottom: "conv5_3-R"
  top: "pool5-R"
  pooling_param {
    pool: MAX
    kernel_size: 2
    stride: 2
  }
}
layer {
  name: "fc6-R"
  type: "Convolution"
  bottom: "pool5-R"
  top: "fc6-R"
  param {
    lr_mult: 10
    decay_mult: 1
  }
  param {
    lr_mult: 20
    decay_mult: 0
  }
  convolution_param {
    num_output: 4096
    pad: 0
    kernel_size: 7
    stride: 1
  }
}
layer {
  name: "relu6-R"
  type: "ReLU"
  bottom: "fc6-R"
  top: "fc6-R"
}
layer {
  name: "drop6-R"
  type: "Dropout"
  bottom: "fc6-R"
  top: "fc6-R"
  dropout_param {
    dropout_ratio: 0.5
  }
}
layer {
  name: "fc7-R"
  type: "Convolution"
  bottom: "fc6-R"
  top: "fc7-R"
  param {
    lr_mult: 10
    decay_mult: 1
  }
  param {
    lr_mult: 20
    decay_mult: 0
  }
  convolution_param {
    num_output: 4096
    pad: 0
    kernel_size: 1
    stride: 1
  }
}
layer {
  name: "relu7-R"
  type: "ReLU"
  bottom: "fc7-R"
  top: "fc7-R"
}
layer {
  name: "drop7-R"
  type: "Dropout"
  bottom: "fc7-R"
  top: "fc7-R"
  dropout_param {
    dropout_ratio: 0.5
  }
}
layer {
  name: "score_fr-new-R"
  type: "Convolution"
  bottom: "fc7-R"
  top: "score_fr-new-R"
  param {
    lr_mult: 10
    decay_mult: 1
  }
  param {
    lr_mult: 20
    decay_mult: 0
  }
  convolution_param {
    num_output: 3
    kernel_size: 1
  }
}
layer {
  name: "upscore2-new-R"
  type: "Deconvolution"
  bottom: "score_fr-new-R"
  top: "upscore2-new-R"
  param {
    lr_mult: 0
  }
  convolution_param {
    num_output: 3
    bias_term: false
    kernel_size: 4
    stride: 2
  }
}
layer {
  name: "score_pool4-new-R"
  type: "Convolution"
  bottom: "pool4-R"
  top: "score_pool4-new-R"
  param {
    lr_mult: 10
    decay_mult: 1
  }
  param {
    lr_mult: 20
    decay_mult: 0
  }
  convolution_param {
    num_output: 3
    pad: 0
    kernel_size: 1
  }
}
layer {
  name: "score_pool4c-R"
  type: "Crop"
  bottom: "score_pool4-new-R"
  bottom: "upscore2-new-R"
  top: "score_pool4c-R"
  crop_param {
    axis: 2
    offset: 5
  }
}
layer {
  name: "fuse_pool4-R"
  type: "Eltwise"
  bottom: "upscore2-new-R"
  bottom: "score_pool4c-R"
  top: "fuse_pool4-R"
  eltwise_param {
    operation: SUM
  }
}
layer {
  name: "upscore_pool4-new-R"
  type: "Deconvolution"
  bottom: "fuse_pool4-R"
  top: "upscore_pool4-new-R"
  param {
    lr_mult: 0
  }
  convolution_param {
    num_output: 3
    bias_term: false
    kernel_size: 4
    stride: 2
  }
}
layer {
  name: "score_pool3-new-R"
  type: "Convolution"
  bottom: "pool3-R"
  top: "score_pool3-new-R"
  param {
    lr_mult: 10
    decay_mult: 1
  }
  param {
    lr_mult: 20
    decay_mult: 0
  }
  convolution_param {
    num_output: 3
    pad: 0
    kernel_size: 1
  }
}
layer {
  name: "score_pool3c-R"
  type: "Crop"
  bottom: "score_pool3-new-R"
  bottom: "upscore_pool4-new-R"
  top: "score_pool3c-R"
  crop_param {
    axis: 2
    offset: 9
  }
}
layer {
  name: "fuse_pool3-R"
  type: "Eltwise"
  bottom: "upscore_pool4-new-R"
  bottom: "score_pool3c-R"
  top: "fuse_pool3-R"
  eltwise_param {
    operation: SUM
  }
}
layer {
  name: "upscore8-new-R"
  type: "Deconvolution"
  bottom: "fuse_pool3-R"
  top: "upscore8-new-R"
  param {
    lr_mult: 0
  }
  convolution_param {
    num_output: 3
    bias_term: false
    kernel_size: 16
    stride: 8
  }
}
layer {
  name: "upscore8_cropped-R"
  type: "Crop"
  bottom: "upscore8-new-R"
  bottom: "data-R"
  top: "upscore8_cropped-R"
  crop_param {
    axis: 2
    offset: 31
  }
}
layer {
  name: "upscore8_uncropped-R"
  type: "Python"
  bottom: "crop_info"
  bottom: "upscore8_cropped-R"
  bottom: "data"
  top: "upscore8_uncropped-R"
  python_param {
    module: "Uncrop"
    layer: "UncropLayer"
  }
}
layer {
  name: "loss1"
  type: "DiceLoss"
  bottom: "upscore8_cropped"
  bottom: "label"
  top: "loss1"
  loss_weight: 0.333333
}
layer {
  name: "loss2"
  type: "DiceLoss"
  bottom: "upscore8_uncropped-R"
  bottom: "label"
  top: "loss2"
  loss_weight: 0.666667
}
I0715 13:38:54.380221 13368 layer_factory.hpp:77] Creating layer data
I0715 13:38:54.380268 13368 net.cpp:84] Creating Layer data
I0715 13:38:54.380275 13368 net.cpp:380] data -> data
I0715 13:38:54.380283 13368 net.cpp:380] data -> label
I0715 13:38:54.380290 13368 net.cpp:380] data -> crop_margin
I0715 13:38:54.380295 13368 net.cpp:380] data -> crop_prob
I0715 13:38:54.380300 13368 net.cpp:380] data -> crop_sample_batch
I0715 13:38:54.520675 13368 net.cpp:122] Setting up data
I0715 13:38:54.520707 13368 net.cpp:129] Top shape: 1 3 512 233 (357888)
I0715 13:38:54.520712 13368 net.cpp:129] Top shape: 1 3 512 233 (357888)
I0715 13:38:54.520715 13368 net.cpp:129] Top shape: 1 (1)
I0715 13:38:54.520720 13368 net.cpp:129] Top shape: 1 (1)
I0715 13:38:54.520722 13368 net.cpp:129] Top shape: 1 (1)
I0715 13:38:54.520725 13368 net.cpp:137] Memory required for data: 2863116
I0715 13:38:54.520733 13368 layer_factory.hpp:77] Creating layer data_data_0_split
I0715 13:38:54.520747 13368 net.cpp:84] Creating Layer data_data_0_split
I0715 13:38:54.520752 13368 net.cpp:406] data_data_0_split <- data
I0715 13:38:54.520761 13368 net.cpp:380] data_data_0_split -> data_data_0_split_0
I0715 13:38:54.520787 13368 net.cpp:380] data_data_0_split -> data_data_0_split_1
I0715 13:38:54.520792 13368 net.cpp:380] data_data_0_split -> data_data_0_split_2
I0715 13:38:54.520797 13368 net.cpp:380] data_data_0_split -> data_data_0_split_3
I0715 13:38:54.520889 13368 net.cpp:122] Setting up data_data_0_split
I0715 13:38:54.520895 13368 net.cpp:129] Top shape: 1 3 512 233 (357888)
I0715 13:38:54.520898 13368 net.cpp:129] Top shape: 1 3 512 233 (357888)
I0715 13:38:54.520902 13368 net.cpp:129] Top shape: 1 3 512 233 (357888)
I0715 13:38:54.520906 13368 net.cpp:129] Top shape: 1 3 512 233 (357888)
I0715 13:38:54.520908 13368 net.cpp:137] Memory required for data: 8589324
I0715 13:38:54.520912 13368 layer_factory.hpp:77] Creating layer label_data_1_split
I0715 13:38:54.520918 13368 net.cpp:84] Creating Layer label_data_1_split
I0715 13:38:54.520921 13368 net.cpp:406] label_data_1_split <- label
I0715 13:38:54.520926 13368 net.cpp:380] label_data_1_split -> label_data_1_split_0
I0715 13:38:54.520932 13368 net.cpp:380] label_data_1_split -> label_data_1_split_1
I0715 13:38:54.520937 13368 net.cpp:380] label_data_1_split -> label_data_1_split_2
I0715 13:38:54.521029 13368 net.cpp:122] Setting up label_data_1_split
I0715 13:38:54.521035 13368 net.cpp:129] Top shape: 1 3 512 233 (357888)
I0715 13:38:54.521039 13368 net.cpp:129] Top shape: 1 3 512 233 (357888)
I0715 13:38:54.521044 13368 net.cpp:129] Top shape: 1 3 512 233 (357888)
I0715 13:38:54.521046 13368 net.cpp:137] Memory required for data: 12883980
I0715 13:38:54.521049 13368 layer_factory.hpp:77] Creating layer conv1_1
I0715 13:38:54.521060 13368 net.cpp:84] Creating Layer conv1_1
I0715 13:38:54.521064 13368 net.cpp:406] conv1_1 <- data_data_0_split_0
I0715 13:38:54.521071 13368 net.cpp:380] conv1_1 -> conv1_1
I0715 13:38:54.527698 13368 net.cpp:122] Setting up conv1_1
I0715 13:38:54.527712 13368 net.cpp:129] Top shape: 1 64 710 431 (19584640)
I0715 13:38:54.527716 13368 net.cpp:137] Memory required for data: 91222540
I0715 13:38:54.527727 13368 layer_factory.hpp:77] Creating layer relu1_1
I0715 13:38:54.527735 13368 net.cpp:84] Creating Layer relu1_1
I0715 13:38:54.527739 13368 net.cpp:406] relu1_1 <- conv1_1
I0715 13:38:54.527743 13368 net.cpp:367] relu1_1 -> conv1_1 (in-place)
I0715 13:38:54.528527 13368 net.cpp:122] Setting up relu1_1
I0715 13:38:54.528539 13368 net.cpp:129] Top shape: 1 64 710 431 (19584640)
I0715 13:38:54.528542 13368 net.cpp:137] Memory required for data: 169561100
I0715 13:38:54.528547 13368 layer_factory.hpp:77] Creating layer conv1_2
I0715 13:38:54.528553 13368 net.cpp:84] Creating Layer conv1_2
I0715 13:38:54.528558 13368 net.cpp:406] conv1_2 <- conv1_1
I0715 13:38:54.528563 13368 net.cpp:380] conv1_2 -> conv1_2
I0715 13:38:54.535323 13368 net.cpp:122] Setting up conv1_2
I0715 13:38:54.535374 13368 net.cpp:129] Top shape: 1 64 710 431 (19584640)
I0715 13:38:54.535384 13368 net.cpp:137] Memory required for data: 247899660
I0715 13:38:54.535411 13368 layer_factory.hpp:77] Creating layer relu1_2
I0715 13:38:54.535432 13368 net.cpp:84] Creating Layer relu1_2
I0715 13:38:54.535444 13368 net.cpp:406] relu1_2 <- conv1_2
I0715 13:38:54.535457 13368 net.cpp:367] relu1_2 -> conv1_2 (in-place)
I0715 13:38:54.535972 13368 net.cpp:122] Setting up relu1_2
I0715 13:38:54.535991 13368 net.cpp:129] Top shape: 1 64 710 431 (19584640)
I0715 13:38:54.536000 13368 net.cpp:137] Memory required for data: 326238220
I0715 13:38:54.536006 13368 layer_factory.hpp:77] Creating layer pool1
I0715 13:38:54.536021 13368 net.cpp:84] Creating Layer pool1
I0715 13:38:54.536031 13368 net.cpp:406] pool1 <- conv1_2
I0715 13:38:54.536044 13368 net.cpp:380] pool1 -> pool1
I0715 13:38:54.536173 13368 net.cpp:122] Setting up pool1
I0715 13:38:54.536187 13368 net.cpp:129] Top shape: 1 64 355 216 (4907520)
I0715 13:38:54.536195 13368 net.cpp:137] Memory required for data: 345868300
I0715 13:38:54.536201 13368 layer_factory.hpp:77] Creating layer conv2_1
I0715 13:38:54.536222 13368 net.cpp:84] Creating Layer conv2_1
I0715 13:38:54.536231 13368 net.cpp:406] conv2_1 <- pool1
I0715 13:38:54.536244 13368 net.cpp:380] conv2_1 -> conv2_1
I0715 13:38:54.539767 13368 net.cpp:122] Setting up conv2_1
I0715 13:38:54.539794 13368 net.cpp:129] Top shape: 1 128 355 216 (9815040)
I0715 13:38:54.539803 13368 net.cpp:137] Memory required for data: 385128460
I0715 13:38:54.539822 13368 layer_factory.hpp:77] Creating layer relu2_1
I0715 13:38:54.539839 13368 net.cpp:84] Creating Layer relu2_1
I0715 13:38:54.539847 13368 net.cpp:406] relu2_1 <- conv2_1
I0715 13:38:54.539858 13368 net.cpp:367] relu2_1 -> conv2_1 (in-place)
I0715 13:38:54.540315 13368 net.cpp:122] Setting up relu2_1
I0715 13:38:54.540333 13368 net.cpp:129] Top shape: 1 128 355 216 (9815040)
I0715 13:38:54.540340 13368 net.cpp:137] Memory required for data: 424388620
I0715 13:38:54.540349 13368 layer_factory.hpp:77] Creating layer conv2_2
I0715 13:38:54.540365 13368 net.cpp:84] Creating Layer conv2_2
I0715 13:38:54.540375 13368 net.cpp:406] conv2_2 <- conv2_1
I0715 13:38:54.540388 13368 net.cpp:380] conv2_2 -> conv2_2
I0715 13:38:54.546170 13368 net.cpp:122] Setting up conv2_2
I0715 13:38:54.546218 13368 net.cpp:129] Top shape: 1 128 355 216 (9815040)
I0715 13:38:54.546226 13368 net.cpp:137] Memory required for data: 463648780
I0715 13:38:54.546242 13368 layer_factory.hpp:77] Creating layer relu2_2
I0715 13:38:54.546257 13368 net.cpp:84] Creating Layer relu2_2
I0715 13:38:54.546265 13368 net.cpp:406] relu2_2 <- conv2_2
I0715 13:38:54.546277 13368 net.cpp:367] relu2_2 -> conv2_2 (in-place)
I0715 13:38:54.546731 13368 net.cpp:122] Setting up relu2_2
I0715 13:38:54.546751 13368 net.cpp:129] Top shape: 1 128 355 216 (9815040)
I0715 13:38:54.546768 13368 net.cpp:137] Memory required for data: 502908940
I0715 13:38:54.546775 13368 layer_factory.hpp:77] Creating layer pool2
I0715 13:38:54.546789 13368 net.cpp:84] Creating Layer pool2
I0715 13:38:54.546797 13368 net.cpp:406] pool2 <- conv2_2
I0715 13:38:54.546819 13368 net.cpp:380] pool2 -> pool2
I0715 13:38:54.546959 13368 net.cpp:122] Setting up pool2
I0715 13:38:54.546973 13368 net.cpp:129] Top shape: 1 128 178 108 (2460672)
I0715 13:38:54.546980 13368 net.cpp:137] Memory required for data: 512751628
I0715 13:38:54.546988 13368 layer_factory.hpp:77] Creating layer conv3_1
I0715 13:38:54.547004 13368 net.cpp:84] Creating Layer conv3_1
I0715 13:38:54.547011 13368 net.cpp:406] conv3_1 <- pool2
I0715 13:38:54.547024 13368 net.cpp:380] conv3_1 -> conv3_1
I0715 13:38:54.559152 13368 net.cpp:122] Setting up conv3_1
I0715 13:38:54.559187 13368 net.cpp:129] Top shape: 1 256 178 108 (4921344)
I0715 13:38:54.559195 13368 net.cpp:137] Memory required for data: 532437004
I0715 13:38:54.559218 13368 layer_factory.hpp:77] Creating layer relu3_1
I0715 13:38:54.559232 13368 net.cpp:84] Creating Layer relu3_1
I0715 13:38:54.559242 13368 net.cpp:406] relu3_1 <- conv3_1
I0715 13:38:54.559253 13368 net.cpp:367] relu3_1 -> conv3_1 (in-place)
I0715 13:38:54.559763 13368 net.cpp:122] Setting up relu3_1
I0715 13:38:54.559784 13368 net.cpp:129] Top shape: 1 256 178 108 (4921344)
I0715 13:38:54.559792 13368 net.cpp:137] Memory required for data: 552122380
I0715 13:38:54.559800 13368 layer_factory.hpp:77] Creating layer conv3_2
I0715 13:38:54.559818 13368 net.cpp:84] Creating Layer conv3_2
I0715 13:38:54.559825 13368 net.cpp:406] conv3_2 <- conv3_1
I0715 13:38:54.559837 13368 net.cpp:380] conv3_2 -> conv3_2
I0715 13:38:54.567946 13368 net.cpp:122] Setting up conv3_2
I0715 13:38:54.567963 13368 net.cpp:129] Top shape: 1 256 178 108 (4921344)
I0715 13:38:54.567968 13368 net.cpp:137] Memory required for data: 571807756
I0715 13:38:54.567977 13368 layer_factory.hpp:77] Creating layer relu3_2
I0715 13:38:54.567988 13368 net.cpp:84] Creating Layer relu3_2
I0715 13:38:54.567993 13368 net.cpp:406] relu3_2 <- conv3_2
I0715 13:38:54.568001 13368 net.cpp:367] relu3_2 -> conv3_2 (in-place)
I0715 13:38:54.568279 13368 net.cpp:122] Setting up relu3_2
I0715 13:38:54.568291 13368 net.cpp:129] Top shape: 1 256 178 108 (4921344)
I0715 13:38:54.568296 13368 net.cpp:137] Memory required for data: 591493132
I0715 13:38:54.568300 13368 layer_factory.hpp:77] Creating layer conv3_3
I0715 13:38:54.568311 13368 net.cpp:84] Creating Layer conv3_3
I0715 13:38:54.568315 13368 net.cpp:406] conv3_3 <- conv3_2
I0715 13:38:54.568322 13368 net.cpp:380] conv3_3 -> conv3_3
I0715 13:38:54.579736 13368 net.cpp:122] Setting up conv3_3
I0715 13:38:54.579784 13368 net.cpp:129] Top shape: 1 256 178 108 (4921344)
I0715 13:38:54.579793 13368 net.cpp:137] Memory required for data: 611178508
I0715 13:38:54.579810 13368 layer_factory.hpp:77] Creating layer relu3_3
I0715 13:38:54.579825 13368 net.cpp:84] Creating Layer relu3_3
I0715 13:38:54.579834 13368 net.cpp:406] relu3_3 <- conv3_3
I0715 13:38:54.579847 13368 net.cpp:367] relu3_3 -> conv3_3 (in-place)
I0715 13:38:54.581583 13368 net.cpp:122] Setting up relu3_3
I0715 13:38:54.581621 13368 net.cpp:129] Top shape: 1 256 178 108 (4921344)
I0715 13:38:54.581629 13368 net.cpp:137] Memory required for data: 630863884
I0715 13:38:54.581637 13368 layer_factory.hpp:77] Creating layer pool3
I0715 13:38:54.581652 13368 net.cpp:84] Creating Layer pool3
I0715 13:38:54.581660 13368 net.cpp:406] pool3 <- conv3_3
I0715 13:38:54.581673 13368 net.cpp:380] pool3 -> pool3
I0715 13:38:54.581809 13368 net.cpp:122] Setting up pool3
I0715 13:38:54.581825 13368 net.cpp:129] Top shape: 1 256 89 54 (1230336)
I0715 13:38:54.581831 13368 net.cpp:137] Memory required for data: 635785228
I0715 13:38:54.581838 13368 layer_factory.hpp:77] Creating layer pool3_pool3_0_split
I0715 13:38:54.581851 13368 net.cpp:84] Creating Layer pool3_pool3_0_split
I0715 13:38:54.581858 13368 net.cpp:406] pool3_pool3_0_split <- pool3
I0715 13:38:54.581869 13368 net.cpp:380] pool3_pool3_0_split -> pool3_pool3_0_split_0
I0715 13:38:54.581881 13368 net.cpp:380] pool3_pool3_0_split -> pool3_pool3_0_split_1
I0715 13:38:54.581985 13368 net.cpp:122] Setting up pool3_pool3_0_split
I0715 13:38:54.582000 13368 net.cpp:129] Top shape: 1 256 89 54 (1230336)
I0715 13:38:54.582008 13368 net.cpp:129] Top shape: 1 256 89 54 (1230336)
I0715 13:38:54.582015 13368 net.cpp:137] Memory required for data: 645627916
I0715 13:38:54.582022 13368 layer_factory.hpp:77] Creating layer conv4_1
I0715 13:38:54.582039 13368 net.cpp:84] Creating Layer conv4_1
I0715 13:38:54.582047 13368 net.cpp:406] conv4_1 <- pool3_pool3_0_split_0
I0715 13:38:54.582059 13368 net.cpp:380] conv4_1 -> conv4_1
I0715 13:38:54.594818 13368 net.cpp:122] Setting up conv4_1
I0715 13:38:54.594864 13368 net.cpp:129] Top shape: 1 512 89 54 (2460672)
I0715 13:38:54.594872 13368 net.cpp:137] Memory required for data: 655470604
I0715 13:38:54.594890 13368 layer_factory.hpp:77] Creating layer relu4_1
I0715 13:38:54.594907 13368 net.cpp:84] Creating Layer relu4_1
I0715 13:38:54.594915 13368 net.cpp:406] relu4_1 <- conv4_1
I0715 13:38:54.594928 13368 net.cpp:367] relu4_1 -> conv4_1 (in-place)
I0715 13:38:54.595453 13368 net.cpp:122] Setting up relu4_1
I0715 13:38:54.595489 13368 net.cpp:129] Top shape: 1 512 89 54 (2460672)
I0715 13:38:54.595496 13368 net.cpp:137] Memory required for data: 665313292
I0715 13:38:54.595504 13368 layer_factory.hpp:77] Creating layer conv4_2
I0715 13:38:54.595523 13368 net.cpp:84] Creating Layer conv4_2
I0715 13:38:54.595531 13368 net.cpp:406] conv4_2 <- conv4_1
I0715 13:38:54.595546 13368 net.cpp:380] conv4_2 -> conv4_2
I0715 13:38:54.606117 13368 net.cpp:122] Setting up conv4_2
I0715 13:38:54.606153 13368 net.cpp:129] Top shape: 1 512 89 54 (2460672)
I0715 13:38:54.606158 13368 net.cpp:137] Memory required for data: 675155980
I0715 13:38:54.606175 13368 layer_factory.hpp:77] Creating layer relu4_2
I0715 13:38:54.606184 13368 net.cpp:84] Creating Layer relu4_2
I0715 13:38:54.606190 13368 net.cpp:406] relu4_2 <- conv4_2
I0715 13:38:54.606197 13368 net.cpp:367] relu4_2 -> conv4_2 (in-place)
I0715 13:38:54.606459 13368 net.cpp:122] Setting up relu4_2
I0715 13:38:54.606472 13368 net.cpp:129] Top shape: 1 512 89 54 (2460672)
I0715 13:38:54.606477 13368 net.cpp:137] Memory required for data: 684998668
I0715 13:38:54.606482 13368 layer_factory.hpp:77] Creating layer conv4_3
I0715 13:38:54.606494 13368 net.cpp:84] Creating Layer conv4_3
I0715 13:38:54.606499 13368 net.cpp:406] conv4_3 <- conv4_2
I0715 13:38:54.606508 13368 net.cpp:380] conv4_3 -> conv4_3
I0715 13:38:54.622380 13368 net.cpp:122] Setting up conv4_3
I0715 13:38:54.622402 13368 net.cpp:129] Top shape: 1 512 89 54 (2460672)
I0715 13:38:54.622407 13368 net.cpp:137] Memory required for data: 694841356
I0715 13:38:54.622416 13368 layer_factory.hpp:77] Creating layer relu4_3
I0715 13:38:54.622426 13368 net.cpp:84] Creating Layer relu4_3
I0715 13:38:54.622431 13368 net.cpp:406] relu4_3 <- conv4_3
I0715 13:38:54.622438 13368 net.cpp:367] relu4_3 -> conv4_3 (in-place)
I0715 13:38:54.622702 13368 net.cpp:122] Setting up relu4_3
I0715 13:38:54.622714 13368 net.cpp:129] Top shape: 1 512 89 54 (2460672)
I0715 13:38:54.622720 13368 net.cpp:137] Memory required for data: 704684044
I0715 13:38:54.622723 13368 layer_factory.hpp:77] Creating layer pool4
I0715 13:38:54.622733 13368 net.cpp:84] Creating Layer pool4
I0715 13:38:54.622737 13368 net.cpp:406] pool4 <- conv4_3
I0715 13:38:54.622745 13368 net.cpp:380] pool4 -> pool4
I0715 13:38:54.622825 13368 net.cpp:122] Setting up pool4
I0715 13:38:54.622834 13368 net.cpp:129] Top shape: 1 512 45 27 (622080)
I0715 13:38:54.622838 13368 net.cpp:137] Memory required for data: 707172364
I0715 13:38:54.622843 13368 layer_factory.hpp:77] Creating layer pool4_pool4_0_split
I0715 13:38:54.622848 13368 net.cpp:84] Creating Layer pool4_pool4_0_split
I0715 13:38:54.622853 13368 net.cpp:406] pool4_pool4_0_split <- pool4
I0715 13:38:54.622859 13368 net.cpp:380] pool4_pool4_0_split -> pool4_pool4_0_split_0
I0715 13:38:54.622866 13368 net.cpp:380] pool4_pool4_0_split -> pool4_pool4_0_split_1
I0715 13:38:54.622928 13368 net.cpp:122] Setting up pool4_pool4_0_split
I0715 13:38:54.622937 13368 net.cpp:129] Top shape: 1 512 45 27 (622080)
I0715 13:38:54.622942 13368 net.cpp:129] Top shape: 1 512 45 27 (622080)
I0715 13:38:54.622946 13368 net.cpp:137] Memory required for data: 712149004
I0715 13:38:54.622951 13368 layer_factory.hpp:77] Creating layer conv5_1
I0715 13:38:54.622959 13368 net.cpp:84] Creating Layer conv5_1
I0715 13:38:54.622964 13368 net.cpp:406] conv5_1 <- pool4_pool4_0_split_0
I0715 13:38:54.622970 13368 net.cpp:380] conv5_1 -> conv5_1
I0715 13:38:54.639178 13368 net.cpp:122] Setting up conv5_1
I0715 13:38:54.639199 13368 net.cpp:129] Top shape: 1 512 45 27 (622080)
I0715 13:38:54.639204 13368 net.cpp:137] Memory required for data: 714637324
I0715 13:38:54.639214 13368 layer_factory.hpp:77] Creating layer relu5_1
I0715 13:38:54.639221 13368 net.cpp:84] Creating Layer relu5_1
I0715 13:38:54.639228 13368 net.cpp:406] relu5_1 <- conv5_1
I0715 13:38:54.639236 13368 net.cpp:367] relu5_1 -> conv5_1 (in-place)
I0715 13:38:54.639531 13368 net.cpp:122] Setting up relu5_1
I0715 13:38:54.639545 13368 net.cpp:129] Top shape: 1 512 45 27 (622080)
I0715 13:38:54.639550 13368 net.cpp:137] Memory required for data: 717125644
I0715 13:38:54.639554 13368 layer_factory.hpp:77] Creating layer conv5_2
I0715 13:38:54.639565 13368 net.cpp:84] Creating Layer conv5_2
I0715 13:38:54.639570 13368 net.cpp:406] conv5_2 <- conv5_1
I0715 13:38:54.639578 13368 net.cpp:380] conv5_2 -> conv5_2
I0715 13:38:54.653259 13368 net.cpp:122] Setting up conv5_2
I0715 13:38:54.653280 13368 net.cpp:129] Top shape: 1 512 45 27 (622080)
I0715 13:38:54.653285 13368 net.cpp:137] Memory required for data: 719613964
I0715 13:38:54.653295 13368 layer_factory.hpp:77] Creating layer relu5_2
I0715 13:38:54.653311 13368 net.cpp:84] Creating Layer relu5_2
I0715 13:38:54.653316 13368 net.cpp:406] relu5_2 <- conv5_2
I0715 13:38:54.653323 13368 net.cpp:367] relu5_2 -> conv5_2 (in-place)
I0715 13:38:54.653599 13368 net.cpp:122] Setting up relu5_2
I0715 13:38:54.653611 13368 net.cpp:129] Top shape: 1 512 45 27 (622080)
I0715 13:38:54.653616 13368 net.cpp:137] Memory required for data: 722102284
I0715 13:38:54.653620 13368 layer_factory.hpp:77] Creating layer conv5_3
I0715 13:38:54.653632 13368 net.cpp:84] Creating Layer conv5_3
I0715 13:38:54.653636 13368 net.cpp:406] conv5_3 <- conv5_2
I0715 13:38:54.653645 13368 net.cpp:380] conv5_3 -> conv5_3
I0715 13:38:54.663343 13368 net.cpp:122] Setting up conv5_3
I0715 13:38:54.663377 13368 net.cpp:129] Top shape: 1 512 45 27 (622080)
I0715 13:38:54.663381 13368 net.cpp:137] Memory required for data: 724590604
I0715 13:38:54.663390 13368 layer_factory.hpp:77] Creating layer relu5_3
I0715 13:38:54.663401 13368 net.cpp:84] Creating Layer relu5_3
I0715 13:38:54.663406 13368 net.cpp:406] relu5_3 <- conv5_3
I0715 13:38:54.663414 13368 net.cpp:367] relu5_3 -> conv5_3 (in-place)
I0715 13:38:54.664520 13368 net.cpp:122] Setting up relu5_3
I0715 13:38:54.664536 13368 net.cpp:129] Top shape: 1 512 45 27 (622080)
I0715 13:38:54.664541 13368 net.cpp:137] Memory required for data: 727078924
I0715 13:38:54.664546 13368 layer_factory.hpp:77] Creating layer pool5
I0715 13:38:54.664556 13368 net.cpp:84] Creating Layer pool5
I0715 13:38:54.664561 13368 net.cpp:406] pool5 <- conv5_3
I0715 13:38:54.664572 13368 net.cpp:380] pool5 -> pool5
I0715 13:38:54.664654 13368 net.cpp:122] Setting up pool5
I0715 13:38:54.664671 13368 net.cpp:129] Top shape: 1 512 23 14 (164864)
I0715 13:38:54.664675 13368 net.cpp:137] Memory required for data: 727738380
I0715 13:38:54.664680 13368 layer_factory.hpp:77] Creating layer fc6
I0715 13:38:54.664690 13368 net.cpp:84] Creating Layer fc6
I0715 13:38:54.664695 13368 net.cpp:406] fc6 <- pool5
I0715 13:38:54.664702 13368 net.cpp:380] fc6 -> fc6
I0715 13:38:54.974776 13368 net.cpp:122] Setting up fc6
I0715 13:38:54.974810 13368 net.cpp:129] Top shape: 1 4096 17 8 (557056)
I0715 13:38:54.974815 13368 net.cpp:137] Memory required for data: 729966604
I0715 13:38:54.974825 13368 layer_factory.hpp:77] Creating layer relu6
I0715 13:38:54.974838 13368 net.cpp:84] Creating Layer relu6
I0715 13:38:54.974843 13368 net.cpp:406] relu6 <- fc6
I0715 13:38:54.974850 13368 net.cpp:367] relu6 -> fc6 (in-place)
I0715 13:38:54.975070 13368 net.cpp:122] Setting up relu6
I0715 13:38:54.975080 13368 net.cpp:129] Top shape: 1 4096 17 8 (557056)
I0715 13:38:54.975085 13368 net.cpp:137] Memory required for data: 732194828
I0715 13:38:54.975087 13368 layer_factory.hpp:77] Creating layer drop6
I0715 13:38:54.975111 13368 net.cpp:84] Creating Layer drop6
I0715 13:38:54.975114 13368 net.cpp:406] drop6 <- fc6
I0715 13:38:54.975136 13368 net.cpp:367] drop6 -> fc6 (in-place)
I0715 13:38:54.975179 13368 net.cpp:122] Setting up drop6
I0715 13:38:54.975188 13368 net.cpp:129] Top shape: 1 4096 17 8 (557056)
I0715 13:38:54.975191 13368 net.cpp:137] Memory required for data: 734423052
I0715 13:38:54.975195 13368 layer_factory.hpp:77] Creating layer fc7
I0715 13:38:54.975205 13368 net.cpp:84] Creating Layer fc7
I0715 13:38:54.975208 13368 net.cpp:406] fc7 <- fc6
I0715 13:38:54.975214 13368 net.cpp:380] fc7 -> fc7
I0715 13:38:55.021383 13368 net.cpp:122] Setting up fc7
I0715 13:38:55.021414 13368 net.cpp:129] Top shape: 1 4096 17 8 (557056)
I0715 13:38:55.021419 13368 net.cpp:137] Memory required for data: 736651276
I0715 13:38:55.021430 13368 layer_factory.hpp:77] Creating layer relu7
I0715 13:38:55.021442 13368 net.cpp:84] Creating Layer relu7
I0715 13:38:55.021447 13368 net.cpp:406] relu7 <- fc7
I0715 13:38:55.021456 13368 net.cpp:367] relu7 -> fc7 (in-place)
I0715 13:38:55.021713 13368 net.cpp:122] Setting up relu7
I0715 13:38:55.021723 13368 net.cpp:129] Top shape: 1 4096 17 8 (557056)
I0715 13:38:55.021728 13368 net.cpp:137] Memory required for data: 738879500
I0715 13:38:55.021730 13368 layer_factory.hpp:77] Creating layer drop7
I0715 13:38:55.021739 13368 net.cpp:84] Creating Layer drop7
I0715 13:38:55.021742 13368 net.cpp:406] drop7 <- fc7
I0715 13:38:55.021749 13368 net.cpp:367] drop7 -> fc7 (in-place)
I0715 13:38:55.021791 13368 net.cpp:122] Setting up drop7
I0715 13:38:55.021797 13368 net.cpp:129] Top shape: 1 4096 17 8 (557056)
I0715 13:38:55.021816 13368 net.cpp:137] Memory required for data: 741107724
I0715 13:38:55.021818 13368 layer_factory.hpp:77] Creating layer score_fr-new
I0715 13:38:55.021828 13368 net.cpp:84] Creating Layer score_fr-new
I0715 13:38:55.021831 13368 net.cpp:406] score_fr-new <- fc7
I0715 13:38:55.021837 13368 net.cpp:380] score_fr-new -> score_fr-new
I0715 13:38:55.028403 13368 net.cpp:122] Setting up score_fr-new
I0715 13:38:55.028472 13368 net.cpp:129] Top shape: 1 3 17 8 (408)
I0715 13:38:55.028482 13368 net.cpp:137] Memory required for data: 741109356
I0715 13:38:55.028503 13368 layer_factory.hpp:77] Creating layer upscore2-new
I0715 13:38:55.028540 13368 net.cpp:84] Creating Layer upscore2-new
I0715 13:38:55.028551 13368 net.cpp:406] upscore2-new <- score_fr-new
I0715 13:38:55.028568 13368 net.cpp:380] upscore2-new -> upscore2-new
I0715 13:38:55.029254 13368 net.cpp:122] Setting up upscore2-new
I0715 13:38:55.029271 13368 net.cpp:129] Top shape: 1 3 36 18 (1944)
I0715 13:38:55.029287 13368 net.cpp:137] Memory required for data: 741117132
I0715 13:38:55.029314 13368 layer_factory.hpp:77] Creating layer upscore2-new_upscore2-new_0_split
I0715 13:38:55.029328 13368 net.cpp:84] Creating Layer upscore2-new_upscore2-new_0_split
I0715 13:38:55.029346 13368 net.cpp:406] upscore2-new_upscore2-new_0_split <- upscore2-new
I0715 13:38:55.029358 13368 net.cpp:380] upscore2-new_upscore2-new_0_split -> upscore2-new_upscore2-new_0_split_0
I0715 13:38:55.029372 13368 net.cpp:380] upscore2-new_upscore2-new_0_split -> upscore2-new_upscore2-new_0_split_1
I0715 13:38:55.029484 13368 net.cpp:122] Setting up upscore2-new_upscore2-new_0_split
I0715 13:38:55.029500 13368 net.cpp:129] Top shape: 1 3 36 18 (1944)
I0715 13:38:55.029510 13368 net.cpp:129] Top shape: 1 3 36 18 (1944)
I0715 13:38:55.029515 13368 net.cpp:137] Memory required for data: 741132684
I0715 13:38:55.029523 13368 layer_factory.hpp:77] Creating layer score_pool4-new
I0715 13:38:55.029541 13368 net.cpp:84] Creating Layer score_pool4-new
I0715 13:38:55.029548 13368 net.cpp:406] score_pool4-new <- pool4_pool4_0_split_1
I0715 13:38:55.029561 13368 net.cpp:380] score_pool4-new -> score_pool4-new
I0715 13:38:55.033438 13368 net.cpp:122] Setting up score_pool4-new
I0715 13:38:55.033479 13368 net.cpp:129] Top shape: 1 3 45 27 (3645)
I0715 13:38:55.033488 13368 net.cpp:137] Memory required for data: 741147264
I0715 13:38:55.033504 13368 layer_factory.hpp:77] Creating layer score_pool4c
I0715 13:38:55.033517 13368 net.cpp:84] Creating Layer score_pool4c
I0715 13:38:55.033538 13368 net.cpp:406] score_pool4c <- score_pool4-new
I0715 13:38:55.033550 13368 net.cpp:406] score_pool4c <- upscore2-new_upscore2-new_0_split_0
I0715 13:38:55.033562 13368 net.cpp:380] score_pool4c -> score_pool4c
I0715 13:38:55.033643 13368 net.cpp:122] Setting up score_pool4c
I0715 13:38:55.033659 13368 net.cpp:129] Top shape: 1 3 36 18 (1944)
I0715 13:38:55.033666 13368 net.cpp:137] Memory required for data: 741155040
I0715 13:38:55.033674 13368 layer_factory.hpp:77] Creating layer fuse_pool4
I0715 13:38:55.033686 13368 net.cpp:84] Creating Layer fuse_pool4
I0715 13:38:55.033694 13368 net.cpp:406] fuse_pool4 <- upscore2-new_upscore2-new_0_split_1
I0715 13:38:55.033704 13368 net.cpp:406] fuse_pool4 <- score_pool4c
I0715 13:38:55.033716 13368 net.cpp:380] fuse_pool4 -> fuse_pool4
I0715 13:38:55.033785 13368 net.cpp:122] Setting up fuse_pool4
I0715 13:38:55.033799 13368 net.cpp:129] Top shape: 1 3 36 18 (1944)
I0715 13:38:55.033807 13368 net.cpp:137] Memory required for data: 741162816
I0715 13:38:55.033813 13368 layer_factory.hpp:77] Creating layer upscore_pool4-new
I0715 13:38:55.033828 13368 net.cpp:84] Creating Layer upscore_pool4-new
I0715 13:38:55.033834 13368 net.cpp:406] upscore_pool4-new <- fuse_pool4
I0715 13:38:55.033846 13368 net.cpp:380] upscore_pool4-new -> upscore_pool4-new
I0715 13:38:55.034502 13368 net.cpp:122] Setting up upscore_pool4-new
I0715 13:38:55.034518 13368 net.cpp:129] Top shape: 1 3 74 38 (8436)
I0715 13:38:55.034535 13368 net.cpp:137] Memory required for data: 741196560
I0715 13:38:55.034546 13368 layer_factory.hpp:77] Creating layer upscore_pool4-new_upscore_pool4-new_0_split
I0715 13:38:55.034559 13368 net.cpp:84] Creating Layer upscore_pool4-new_upscore_pool4-new_0_split
I0715 13:38:55.034566 13368 net.cpp:406] upscore_pool4-new_upscore_pool4-new_0_split <- upscore_pool4-new
I0715 13:38:55.034577 13368 net.cpp:380] upscore_pool4-new_upscore_pool4-new_0_split -> upscore_pool4-new_upscore_pool4-new_0_split_0
I0715 13:38:55.034601 13368 net.cpp:380] upscore_pool4-new_upscore_pool4-new_0_split -> upscore_pool4-new_upscore_pool4-new_0_split_1
I0715 13:38:55.034709 13368 net.cpp:122] Setting up upscore_pool4-new_upscore_pool4-new_0_split
I0715 13:38:55.034724 13368 net.cpp:129] Top shape: 1 3 74 38 (8436)
I0715 13:38:55.034732 13368 net.cpp:129] Top shape: 1 3 74 38 (8436)
I0715 13:38:55.034740 13368 net.cpp:137] Memory required for data: 741264048
I0715 13:38:55.034747 13368 layer_factory.hpp:77] Creating layer score_pool3-new
I0715 13:38:55.034765 13368 net.cpp:84] Creating Layer score_pool3-new
I0715 13:38:55.034771 13368 net.cpp:406] score_pool3-new <- pool3_pool3_0_split_1
I0715 13:38:55.034785 13368 net.cpp:380] score_pool3-new -> score_pool3-new
I0715 13:38:55.037452 13368 net.cpp:122] Setting up score_pool3-new
I0715 13:38:55.037472 13368 net.cpp:129] Top shape: 1 3 89 54 (14418)
I0715 13:38:55.037487 13368 net.cpp:137] Memory required for data: 741321720
I0715 13:38:55.037497 13368 layer_factory.hpp:77] Creating layer score_pool3c
I0715 13:38:55.037505 13368 net.cpp:84] Creating Layer score_pool3c
I0715 13:38:55.037511 13368 net.cpp:406] score_pool3c <- score_pool3-new
I0715 13:38:55.037518 13368 net.cpp:406] score_pool3c <- upscore_pool4-new_upscore_pool4-new_0_split_0
I0715 13:38:55.037526 13368 net.cpp:380] score_pool3c -> score_pool3c
I0715 13:38:55.037590 13368 net.cpp:122] Setting up score_pool3c
I0715 13:38:55.037596 13368 net.cpp:129] Top shape: 1 3 74 38 (8436)
I0715 13:38:55.037600 13368 net.cpp:137] Memory required for data: 741355464
I0715 13:38:55.037605 13368 layer_factory.hpp:77] Creating layer fuse_pool3
I0715 13:38:55.037613 13368 net.cpp:84] Creating Layer fuse_pool3
I0715 13:38:55.037618 13368 net.cpp:406] fuse_pool3 <- upscore_pool4-new_upscore_pool4-new_0_split_1
I0715 13:38:55.037624 13368 net.cpp:406] fuse_pool3 <- score_pool3c
I0715 13:38:55.037632 13368 net.cpp:380] fuse_pool3 -> fuse_pool3
I0715 13:38:55.037675 13368 net.cpp:122] Setting up fuse_pool3
I0715 13:38:55.037683 13368 net.cpp:129] Top shape: 1 3 74 38 (8436)
I0715 13:38:55.037685 13368 net.cpp:137] Memory required for data: 741389208
I0715 13:38:55.037689 13368 layer_factory.hpp:77] Creating layer upscore8-new
I0715 13:38:55.037700 13368 net.cpp:84] Creating Layer upscore8-new
I0715 13:38:55.037705 13368 net.cpp:406] upscore8-new <- fuse_pool3
I0715 13:38:55.037712 13368 net.cpp:380] upscore8-new -> upscore8-new
I0715 13:38:55.038122 13368 net.cpp:122] Setting up upscore8-new
I0715 13:38:55.038132 13368 net.cpp:129] Top shape: 1 3 600 312 (561600)
I0715 13:38:55.038136 13368 net.cpp:137] Memory required for data: 743635608
I0715 13:38:55.038153 13368 layer_factory.hpp:77] Creating layer upscore8_cropped
I0715 13:38:55.038161 13368 net.cpp:84] Creating Layer upscore8_cropped
I0715 13:38:55.038166 13368 net.cpp:406] upscore8_cropped <- upscore8-new
I0715 13:38:55.038174 13368 net.cpp:406] upscore8_cropped <- data_data_0_split_1
I0715 13:38:55.038182 13368 net.cpp:380] upscore8_cropped -> upscore8_cropped
I0715 13:38:55.038224 13368 net.cpp:122] Setting up upscore8_cropped
I0715 13:38:55.038231 13368 net.cpp:129] Top shape: 1 3 512 233 (357888)
I0715 13:38:55.038234 13368 net.cpp:137] Memory required for data: 745067160
I0715 13:38:55.038239 13368 layer_factory.hpp:77] Creating layer upscore8_cropped_upscore8_cropped_0_split
I0715 13:38:55.038246 13368 net.cpp:84] Creating Layer upscore8_cropped_upscore8_cropped_0_split
I0715 13:38:55.038251 13368 net.cpp:406] upscore8_cropped_upscore8_cropped_0_split <- upscore8_cropped
I0715 13:38:55.038257 13368 net.cpp:380] upscore8_cropped_upscore8_cropped_0_split -> upscore8_cropped_upscore8_cropped_0_split_0
I0715 13:38:55.038266 13368 net.cpp:380] upscore8_cropped_upscore8_cropped_0_split -> upscore8_cropped_upscore8_cropped_0_split_1
I0715 13:38:55.038331 13368 net.cpp:122] Setting up upscore8_cropped_upscore8_cropped_0_split
I0715 13:38:55.038337 13368 net.cpp:129] Top shape: 1 3 512 233 (357888)
I0715 13:38:55.038342 13368 net.cpp:129] Top shape: 1 3 512 233 (357888)
I0715 13:38:55.038347 13368 net.cpp:137] Memory required for data: 747930264
I0715 13:38:55.038350 13368 layer_factory.hpp:77] Creating layer prob
I0715 13:38:55.038358 13368 net.cpp:84] Creating Layer prob
I0715 13:38:55.038364 13368 net.cpp:406] prob <- upscore8_cropped_upscore8_cropped_0_split_0
I0715 13:38:55.038372 13368 net.cpp:380] prob -> prob
I0715 13:38:55.038674 13368 net.cpp:122] Setting up prob
I0715 13:38:55.038686 13368 net.cpp:129] Top shape: 1 3 512 233 (357888)
I0715 13:38:55.038691 13368 net.cpp:137] Memory required for data: 749361816
I0715 13:38:55.038695 13368 layer_factory.hpp:77] Creating layer saliency1
I0715 13:38:55.038710 13368 net.cpp:84] Creating Layer saliency1
I0715 13:38:55.038715 13368 net.cpp:406] saliency1 <- prob
I0715 13:38:55.038725 13368 net.cpp:380] saliency1 -> saliency1
I0715 13:38:55.041877 13368 net.cpp:122] Setting up saliency1
I0715 13:38:55.041895 13368 net.cpp:129] Top shape: 1 3 512 233 (357888)
I0715 13:38:55.041910 13368 net.cpp:137] Memory required for data: 750793368
I0715 13:38:55.041920 13368 layer_factory.hpp:77] Creating layer relu_saliency1
I0715 13:38:55.041929 13368 net.cpp:84] Creating Layer relu_saliency1
I0715 13:38:55.041935 13368 net.cpp:406] relu_saliency1 <- saliency1
I0715 13:38:55.041942 13368 net.cpp:367] relu_saliency1 -> saliency1 (in-place)
I0715 13:38:55.042246 13368 net.cpp:122] Setting up relu_saliency1
I0715 13:38:55.042260 13368 net.cpp:129] Top shape: 1 3 512 233 (357888)
I0715 13:38:55.042264 13368 net.cpp:137] Memory required for data: 752224920
I0715 13:38:55.042269 13368 layer_factory.hpp:77] Creating layer saliency
I0715 13:38:55.042284 13368 net.cpp:84] Creating Layer saliency
I0715 13:38:55.042289 13368 net.cpp:406] saliency <- saliency1
I0715 13:38:55.042299 13368 net.cpp:380] saliency -> saliency
I0715 13:38:55.049161 13368 net.cpp:122] Setting up saliency
I0715 13:38:55.049194 13368 net.cpp:129] Top shape: 1 3 512 233 (357888)
I0715 13:38:55.049203 13368 net.cpp:137] Memory required for data: 753656472
I0715 13:38:55.049221 13368 layer_factory.hpp:77] Creating layer saliency_data
I0715 13:38:55.049248 13368 net.cpp:84] Creating Layer saliency_data
I0715 13:38:55.049257 13368 net.cpp:406] saliency_data <- data_data_0_split_2
I0715 13:38:55.049270 13368 net.cpp:406] saliency_data <- saliency
I0715 13:38:55.049290 13368 net.cpp:380] saliency_data -> saliency_data
I0715 13:38:55.049383 13368 net.cpp:122] Setting up saliency_data
I0715 13:38:55.049398 13368 net.cpp:129] Top shape: 1 3 512 233 (357888)
I0715 13:38:55.049425 13368 net.cpp:137] Memory required for data: 755088024
I0715 13:38:55.049432 13368 layer_factory.hpp:77] Creating layer crop
I0715 13:38:55.049523 13368 net.cpp:84] Creating Layer crop
I0715 13:38:55.049537 13368 net.cpp:406] crop <- label_data_1_split_0
I0715 13:38:55.049554 13368 net.cpp:406] crop <- saliency_data
I0715 13:38:55.049579 13368 net.cpp:406] crop <- crop_margin
I0715 13:38:55.049588 13368 net.cpp:406] crop <- crop_prob
I0715 13:38:55.049599 13368 net.cpp:406] crop <- crop_sample_batch
I0715 13:38:55.049612 13368 net.cpp:380] crop -> data-R
I0715 13:38:55.049629 13368 net.cpp:380] crop -> crop_info
I0715 13:38:55.058946 13368 net.cpp:122] Setting up crop
I0715 13:38:55.058979 13368 net.cpp:129] Top shape: 1 3 512 233 (357888)
I0715 13:38:55.059000 13368 net.cpp:129] Top shape: 1 2 4 (8)
I0715 13:38:55.059013 13368 net.cpp:137] Memory required for data: 756519608
I0715 13:38:55.059021 13368 layer_factory.hpp:77] Creating layer data-R_crop_0_split
I0715 13:38:55.059036 13368 net.cpp:84] Creating Layer data-R_crop_0_split
I0715 13:38:55.059049 13368 net.cpp:406] data-R_crop_0_split <- data-R
I0715 13:38:55.059063 13368 net.cpp:380] data-R_crop_0_split -> data-R_crop_0_split_0
I0715 13:38:55.059082 13368 net.cpp:380] data-R_crop_0_split -> data-R_crop_0_split_1
I0715 13:38:55.059204 13368 net.cpp:122] Setting up data-R_crop_0_split
I0715 13:38:55.059219 13368 net.cpp:129] Top shape: 1 3 512 233 (357888)
I0715 13:38:55.059227 13368 net.cpp:129] Top shape: 1 3 512 233 (357888)
I0715 13:38:55.059234 13368 net.cpp:137] Memory required for data: 759382712
I0715 13:38:55.059242 13368 layer_factory.hpp:77] Creating layer conv1_1-R
I0715 13:38:55.059258 13368 net.cpp:84] Creating Layer conv1_1-R
I0715 13:38:55.059268 13368 net.cpp:406] conv1_1-R <- data-R_crop_0_split_0
I0715 13:38:55.059312 13368 net.cpp:380] conv1_1-R -> conv1_1-R
I0715 13:38:55.064474 13368 net.cpp:122] Setting up conv1_1-R
I0715 13:38:55.064492 13368 net.cpp:129] Top shape: 1 64 710 431 (19584640)
I0715 13:38:55.064497 13368 net.cpp:137] Memory required for data: 837721272
I0715 13:38:55.064507 13368 layer_factory.hpp:77] Creating layer relu1_1-R
I0715 13:38:55.064527 13368 net.cpp:84] Creating Layer relu1_1-R
I0715 13:38:55.064532 13368 net.cpp:406] relu1_1-R <- conv1_1-R
I0715 13:38:55.064539 13368 net.cpp:367] relu1_1-R -> conv1_1-R (in-place)
I0715 13:38:55.064826 13368 net.cpp:122] Setting up relu1_1-R
I0715 13:38:55.064838 13368 net.cpp:129] Top shape: 1 64 710 431 (19584640)
I0715 13:38:55.064843 13368 net.cpp:137] Memory required for data: 916059832
I0715 13:38:55.064849 13368 layer_factory.hpp:77] Creating layer conv1_2-R
I0715 13:38:55.064859 13368 net.cpp:84] Creating Layer conv1_2-R
I0715 13:38:55.064864 13368 net.cpp:406] conv1_2-R <- conv1_1-R
I0715 13:38:55.064872 13368 net.cpp:380] conv1_2-R -> conv1_2-R
I0715 13:38:55.069536 13368 net.cpp:122] Setting up conv1_2-R
I0715 13:38:55.069555 13368 net.cpp:129] Top shape: 1 64 710 431 (19584640)
I0715 13:38:55.069559 13368 net.cpp:137] Memory required for data: 994398392
I0715 13:38:55.069568 13368 layer_factory.hpp:77] Creating layer relu1_2-R
I0715 13:38:55.069576 13368 net.cpp:84] Creating Layer relu1_2-R
I0715 13:38:55.069581 13368 net.cpp:406] relu1_2-R <- conv1_2-R
I0715 13:38:55.069588 13368 net.cpp:367] relu1_2-R -> conv1_2-R (in-place)
I0715 13:38:55.069866 13368 net.cpp:122] Setting up relu1_2-R
I0715 13:38:55.069878 13368 net.cpp:129] Top shape: 1 64 710 431 (19584640)
I0715 13:38:55.069882 13368 net.cpp:137] Memory required for data: 1072736952
I0715 13:38:55.069887 13368 layer_factory.hpp:77] Creating layer pool1-R
I0715 13:38:55.069896 13368 net.cpp:84] Creating Layer pool1-R
I0715 13:38:55.069900 13368 net.cpp:406] pool1-R <- conv1_2-R
I0715 13:38:55.069908 13368 net.cpp:380] pool1-R -> pool1-R
I0715 13:38:55.069994 13368 net.cpp:122] Setting up pool1-R
I0715 13:38:55.070005 13368 net.cpp:129] Top shape: 1 64 355 216 (4907520)
I0715 13:38:55.070008 13368 net.cpp:137] Memory required for data: 1092367032
I0715 13:38:55.070013 13368 layer_factory.hpp:77] Creating layer conv2_1-R
I0715 13:38:55.070024 13368 net.cpp:84] Creating Layer conv2_1-R
I0715 13:38:55.070027 13368 net.cpp:406] conv2_1-R <- pool1-R
I0715 13:38:55.070035 13368 net.cpp:380] conv2_1-R -> conv2_1-R
I0715 13:38:55.074158 13368 net.cpp:122] Setting up conv2_1-R
I0715 13:38:55.074184 13368 net.cpp:129] Top shape: 1 128 355 216 (9815040)
I0715 13:38:55.074193 13368 net.cpp:137] Memory required for data: 1131627192
I0715 13:38:55.074206 13368 layer_factory.hpp:77] Creating layer relu2_1-R
I0715 13:38:55.074218 13368 net.cpp:84] Creating Layer relu2_1-R
I0715 13:38:55.074226 13368 net.cpp:406] relu2_1-R <- conv2_1-R
I0715 13:38:55.074237 13368 net.cpp:367] relu2_1-R -> conv2_1-R (in-place)
I0715 13:38:55.074571 13368 net.cpp:122] Setting up relu2_1-R
I0715 13:38:55.074585 13368 net.cpp:129] Top shape: 1 128 355 216 (9815040)
I0715 13:38:55.074589 13368 net.cpp:137] Memory required for data: 1170887352
I0715 13:38:55.074594 13368 layer_factory.hpp:77] Creating layer conv2_2-R
I0715 13:38:55.074604 13368 net.cpp:84] Creating Layer conv2_2-R
I0715 13:38:55.074609 13368 net.cpp:406] conv2_2-R <- conv2_1-R
I0715 13:38:55.074617 13368 net.cpp:380] conv2_2-R -> conv2_2-R
I0715 13:38:55.077865 13368 net.cpp:122] Setting up conv2_2-R
I0715 13:38:55.077883 13368 net.cpp:129] Top shape: 1 128 355 216 (9815040)
I0715 13:38:55.077888 13368 net.cpp:137] Memory required for data: 1210147512
I0715 13:38:55.077898 13368 layer_factory.hpp:77] Creating layer relu2_2-R
I0715 13:38:55.077904 13368 net.cpp:84] Creating Layer relu2_2-R
I0715 13:38:55.077909 13368 net.cpp:406] relu2_2-R <- conv2_2-R
I0715 13:38:55.077915 13368 net.cpp:367] relu2_2-R -> conv2_2-R (in-place)
I0715 13:38:55.079061 13368 net.cpp:122] Setting up relu2_2-R
I0715 13:38:55.079077 13368 net.cpp:129] Top shape: 1 128 355 216 (9815040)
I0715 13:38:55.079082 13368 net.cpp:137] Memory required for data: 1249407672
I0715 13:38:55.079087 13368 layer_factory.hpp:77] Creating layer pool2-R
I0715 13:38:55.079094 13368 net.cpp:84] Creating Layer pool2-R
I0715 13:38:55.079098 13368 net.cpp:406] pool2-R <- conv2_2-R
I0715 13:38:55.079107 13368 net.cpp:380] pool2-R -> pool2-R
I0715 13:38:55.079190 13368 net.cpp:122] Setting up pool2-R
I0715 13:38:55.079210 13368 net.cpp:129] Top shape: 1 128 178 108 (2460672)
I0715 13:38:55.079213 13368 net.cpp:137] Memory required for data: 1259250360
I0715 13:38:55.079217 13368 layer_factory.hpp:77] Creating layer conv3_1-R
I0715 13:38:55.079226 13368 net.cpp:84] Creating Layer conv3_1-R
I0715 13:38:55.079231 13368 net.cpp:406] conv3_1-R <- pool2-R
I0715 13:38:55.079237 13368 net.cpp:380] conv3_1-R -> conv3_1-R
I0715 13:38:55.084535 13368 net.cpp:122] Setting up conv3_1-R
I0715 13:38:55.084553 13368 net.cpp:129] Top shape: 1 256 178 108 (4921344)
I0715 13:38:55.084558 13368 net.cpp:137] Memory required for data: 1278935736
I0715 13:38:55.084568 13368 layer_factory.hpp:77] Creating layer relu3_1-R
I0715 13:38:55.084575 13368 net.cpp:84] Creating Layer relu3_1-R
I0715 13:38:55.084581 13368 net.cpp:406] relu3_1-R <- conv3_1-R
I0715 13:38:55.084589 13368 net.cpp:367] relu3_1-R -> conv3_1-R (in-place)
I0715 13:38:55.084872 13368 net.cpp:122] Setting up relu3_1-R
I0715 13:38:55.084884 13368 net.cpp:129] Top shape: 1 256 178 108 (4921344)
I0715 13:38:55.084889 13368 net.cpp:137] Memory required for data: 1298621112
I0715 13:38:55.084894 13368 layer_factory.hpp:77] Creating layer conv3_2-R
I0715 13:38:55.084903 13368 net.cpp:84] Creating Layer conv3_2-R
I0715 13:38:55.084908 13368 net.cpp:406] conv3_2-R <- conv3_1-R
I0715 13:38:55.084915 13368 net.cpp:380] conv3_2-R -> conv3_2-R
I0715 13:38:55.090739 13368 net.cpp:122] Setting up conv3_2-R
I0715 13:38:55.090757 13368 net.cpp:129] Top shape: 1 256 178 108 (4921344)
I0715 13:38:55.090762 13368 net.cpp:137] Memory required for data: 1318306488
I0715 13:38:55.090771 13368 layer_factory.hpp:77] Creating layer relu3_2-R
I0715 13:38:55.090780 13368 net.cpp:84] Creating Layer relu3_2-R
I0715 13:38:55.090787 13368 net.cpp:406] relu3_2-R <- conv3_2-R
I0715 13:38:55.090793 13368 net.cpp:367] relu3_2-R -> conv3_2-R (in-place)
I0715 13:38:55.091163 13368 net.cpp:122] Setting up relu3_2-R
I0715 13:38:55.091183 13368 net.cpp:129] Top shape: 1 256 178 108 (4921344)
I0715 13:38:55.091190 13368 net.cpp:137] Memory required for data: 1337991864
I0715 13:38:55.091197 13368 layer_factory.hpp:77] Creating layer conv3_3-R
I0715 13:38:55.091212 13368 net.cpp:84] Creating Layer conv3_3-R
I0715 13:38:55.091219 13368 net.cpp:406] conv3_3-R <- conv3_2-R
I0715 13:38:55.091233 13368 net.cpp:380] conv3_3-R -> conv3_3-R
I0715 13:38:55.097548 13368 net.cpp:122] Setting up conv3_3-R
I0715 13:38:55.097566 13368 net.cpp:129] Top shape: 1 256 178 108 (4921344)
I0715 13:38:55.097570 13368 net.cpp:137] Memory required for data: 1357677240
I0715 13:38:55.097580 13368 layer_factory.hpp:77] Creating layer relu3_3-R
I0715 13:38:55.097589 13368 net.cpp:84] Creating Layer relu3_3-R
I0715 13:38:55.097594 13368 net.cpp:406] relu3_3-R <- conv3_3-R
I0715 13:38:55.097600 13368 net.cpp:367] relu3_3-R -> conv3_3-R (in-place)
I0715 13:38:55.097880 13368 net.cpp:122] Setting up relu3_3-R
I0715 13:38:55.097893 13368 net.cpp:129] Top shape: 1 256 178 108 (4921344)
I0715 13:38:55.097898 13368 net.cpp:137] Memory required for data: 1377362616
I0715 13:38:55.097903 13368 layer_factory.hpp:77] Creating layer pool3-R
I0715 13:38:55.097910 13368 net.cpp:84] Creating Layer pool3-R
I0715 13:38:55.097915 13368 net.cpp:406] pool3-R <- conv3_3-R
I0715 13:38:55.097923 13368 net.cpp:380] pool3-R -> pool3-R
I0715 13:38:55.098007 13368 net.cpp:122] Setting up pool3-R
I0715 13:38:55.098017 13368 net.cpp:129] Top shape: 1 256 89 54 (1230336)
I0715 13:38:55.098021 13368 net.cpp:137] Memory required for data: 1382283960
I0715 13:38:55.098026 13368 layer_factory.hpp:77] Creating layer pool3-R_pool3-R_0_split
I0715 13:38:55.098032 13368 net.cpp:84] Creating Layer pool3-R_pool3-R_0_split
I0715 13:38:55.098037 13368 net.cpp:406] pool3-R_pool3-R_0_split <- pool3-R
I0715 13:38:55.098043 13368 net.cpp:380] pool3-R_pool3-R_0_split -> pool3-R_pool3-R_0_split_0
I0715 13:38:55.098050 13368 net.cpp:380] pool3-R_pool3-R_0_split -> pool3-R_pool3-R_0_split_1
I0715 13:38:55.098121 13368 net.cpp:122] Setting up pool3-R_pool3-R_0_split
I0715 13:38:55.098131 13368 net.cpp:129] Top shape: 1 256 89 54 (1230336)
I0715 13:38:55.098136 13368 net.cpp:129] Top shape: 1 256 89 54 (1230336)
I0715 13:38:55.098140 13368 net.cpp:137] Memory required for data: 1392126648
I0715 13:38:55.098145 13368 layer_factory.hpp:77] Creating layer conv4_1-R
I0715 13:38:55.098153 13368 net.cpp:84] Creating Layer conv4_1-R
I0715 13:38:55.098157 13368 net.cpp:406] conv4_1-R <- pool3-R_pool3-R_0_split_0
I0715 13:38:55.098165 13368 net.cpp:380] conv4_1-R -> conv4_1-R
I0715 13:38:55.105334 13368 net.cpp:122] Setting up conv4_1-R
I0715 13:38:55.105353 13368 net.cpp:129] Top shape: 1 512 89 54 (2460672)
I0715 13:38:55.105358 13368 net.cpp:137] Memory required for data: 1401969336
I0715 13:38:55.105367 13368 layer_factory.hpp:77] Creating layer relu4_1-R
I0715 13:38:55.105376 13368 net.cpp:84] Creating Layer relu4_1-R
I0715 13:38:55.105381 13368 net.cpp:406] relu4_1-R <- conv4_1-R
I0715 13:38:55.105387 13368 net.cpp:367] relu4_1-R -> conv4_1-R (in-place)
I0715 13:38:55.105666 13368 net.cpp:122] Setting up relu4_1-R
I0715 13:38:55.105679 13368 net.cpp:129] Top shape: 1 512 89 54 (2460672)
I0715 13:38:55.105682 13368 net.cpp:137] Memory required for data: 1411812024
I0715 13:38:55.105687 13368 layer_factory.hpp:77] Creating layer conv4_2-R
I0715 13:38:55.105697 13368 net.cpp:84] Creating Layer conv4_2-R
I0715 13:38:55.105702 13368 net.cpp:406] conv4_2-R <- conv4_1-R
I0715 13:38:55.105710 13368 net.cpp:380] conv4_2-R -> conv4_2-R
I0715 13:38:55.118510 13368 net.cpp:122] Setting up conv4_2-R
I0715 13:38:55.118533 13368 net.cpp:129] Top shape: 1 512 89 54 (2460672)
I0715 13:38:55.118538 13368 net.cpp:137] Memory required for data: 1421654712
I0715 13:38:55.118547 13368 layer_factory.hpp:77] Creating layer relu4_2-R
I0715 13:38:55.118556 13368 net.cpp:84] Creating Layer relu4_2-R
I0715 13:38:55.118561 13368 net.cpp:406] relu4_2-R <- conv4_2-R
I0715 13:38:55.118569 13368 net.cpp:367] relu4_2-R -> conv4_2-R (in-place)
I0715 13:38:55.118840 13368 net.cpp:122] Setting up relu4_2-R
I0715 13:38:55.118854 13368 net.cpp:129] Top shape: 1 512 89 54 (2460672)
I0715 13:38:55.118858 13368 net.cpp:137] Memory required for data: 1431497400
I0715 13:38:55.118862 13368 layer_factory.hpp:77] Creating layer conv4_3-R
I0715 13:38:55.118875 13368 net.cpp:84] Creating Layer conv4_3-R
I0715 13:38:55.118878 13368 net.cpp:406] conv4_3-R <- conv4_2-R
I0715 13:38:55.118887 13368 net.cpp:380] conv4_3-R -> conv4_3-R
I0715 13:38:55.139804 13368 net.cpp:122] Setting up conv4_3-R
I0715 13:38:55.139873 13368 net.cpp:129] Top shape: 1 512 89 54 (2460672)
I0715 13:38:55.139883 13368 net.cpp:137] Memory required for data: 1441340088
I0715 13:38:55.139902 13368 layer_factory.hpp:77] Creating layer relu4_3-R
I0715 13:38:55.139921 13368 net.cpp:84] Creating Layer relu4_3-R
I0715 13:38:55.139933 13368 net.cpp:406] relu4_3-R <- conv4_3-R
I0715 13:38:55.139946 13368 net.cpp:367] relu4_3-R -> conv4_3-R (in-place)
I0715 13:38:55.142302 13368 net.cpp:122] Setting up relu4_3-R
I0715 13:38:55.142340 13368 net.cpp:129] Top shape: 1 512 89 54 (2460672)
I0715 13:38:55.142349 13368 net.cpp:137] Memory required for data: 1451182776
I0715 13:38:55.142356 13368 layer_factory.hpp:77] Creating layer pool4-R
I0715 13:38:55.142372 13368 net.cpp:84] Creating Layer pool4-R
I0715 13:38:55.142381 13368 net.cpp:406] pool4-R <- conv4_3-R
I0715 13:38:55.142396 13368 net.cpp:380] pool4-R -> pool4-R
I0715 13:38:55.142541 13368 net.cpp:122] Setting up pool4-R
I0715 13:38:55.142558 13368 net.cpp:129] Top shape: 1 512 45 27 (622080)
I0715 13:38:55.142565 13368 net.cpp:137] Memory required for data: 1453671096
I0715 13:38:55.142572 13368 layer_factory.hpp:77] Creating layer pool4-R_pool4-R_0_split
I0715 13:38:55.142585 13368 net.cpp:84] Creating Layer pool4-R_pool4-R_0_split
I0715 13:38:55.142592 13368 net.cpp:406] pool4-R_pool4-R_0_split <- pool4-R
I0715 13:38:55.142604 13368 net.cpp:380] pool4-R_pool4-R_0_split -> pool4-R_pool4-R_0_split_0
I0715 13:38:55.142618 13368 net.cpp:380] pool4-R_pool4-R_0_split -> pool4-R_pool4-R_0_split_1
I0715 13:38:55.142733 13368 net.cpp:122] Setting up pool4-R_pool4-R_0_split
I0715 13:38:55.142748 13368 net.cpp:129] Top shape: 1 512 45 27 (622080)
I0715 13:38:55.142757 13368 net.cpp:129] Top shape: 1 512 45 27 (622080)
I0715 13:38:55.142765 13368 net.cpp:137] Memory required for data: 1458647736
I0715 13:38:55.142772 13368 layer_factory.hpp:77] Creating layer conv5_1-R
I0715 13:38:55.142792 13368 net.cpp:84] Creating Layer conv5_1-R
I0715 13:38:55.142801 13368 net.cpp:406] conv5_1-R <- pool4-R_pool4-R_0_split_0
I0715 13:38:55.142812 13368 net.cpp:380] conv5_1-R -> conv5_1-R
I0715 13:38:55.154639 13368 net.cpp:122] Setting up conv5_1-R
I0715 13:38:55.154675 13368 net.cpp:129] Top shape: 1 512 45 27 (622080)
I0715 13:38:55.154680 13368 net.cpp:137] Memory required for data: 1461136056
I0715 13:38:55.154709 13368 layer_factory.hpp:77] Creating layer relu5_1-R
I0715 13:38:55.154721 13368 net.cpp:84] Creating Layer relu5_1-R
I0715 13:38:55.154726 13368 net.cpp:406] relu5_1-R <- conv5_1-R
I0715 13:38:55.154734 13368 net.cpp:367] relu5_1-R -> conv5_1-R (in-place)
I0715 13:38:55.155010 13368 net.cpp:122] Setting up relu5_1-R
I0715 13:38:55.155023 13368 net.cpp:129] Top shape: 1 512 45 27 (622080)
I0715 13:38:55.155028 13368 net.cpp:137] Memory required for data: 1463624376
I0715 13:38:55.155033 13368 layer_factory.hpp:77] Creating layer conv5_2-R
I0715 13:38:55.155046 13368 net.cpp:84] Creating Layer conv5_2-R
I0715 13:38:55.155051 13368 net.cpp:406] conv5_2-R <- conv5_1-R
I0715 13:38:55.155061 13368 net.cpp:380] conv5_2-R -> conv5_2-R
I0715 13:38:55.166066 13368 net.cpp:122] Setting up conv5_2-R
I0715 13:38:55.166110 13368 net.cpp:129] Top shape: 1 512 45 27 (622080)
I0715 13:38:55.166115 13368 net.cpp:137] Memory required for data: 1466112696
I0715 13:38:55.166128 13368 layer_factory.hpp:77] Creating layer relu5_2-R
I0715 13:38:55.166141 13368 net.cpp:84] Creating Layer relu5_2-R
I0715 13:38:55.166147 13368 net.cpp:406] relu5_2-R <- conv5_2-R
I0715 13:38:55.166157 13368 net.cpp:367] relu5_2-R -> conv5_2-R (in-place)
I0715 13:38:55.166443 13368 net.cpp:122] Setting up relu5_2-R
I0715 13:38:55.166456 13368 net.cpp:129] Top shape: 1 512 45 27 (622080)
I0715 13:38:55.166461 13368 net.cpp:137] Memory required for data: 1468601016
I0715 13:38:55.166465 13368 layer_factory.hpp:77] Creating layer conv5_3-R
I0715 13:38:55.166479 13368 net.cpp:84] Creating Layer conv5_3-R
I0715 13:38:55.166484 13368 net.cpp:406] conv5_3-R <- conv5_2-R
I0715 13:38:55.166494 13368 net.cpp:380] conv5_3-R -> conv5_3-R
I0715 13:38:55.180974 13368 net.cpp:122] Setting up conv5_3-R
I0715 13:38:55.181004 13368 net.cpp:129] Top shape: 1 512 45 27 (622080)
I0715 13:38:55.181008 13368 net.cpp:137] Memory required for data: 1471089336
I0715 13:38:55.181017 13368 layer_factory.hpp:77] Creating layer relu5_3-R
I0715 13:38:55.181030 13368 net.cpp:84] Creating Layer relu5_3-R
I0715 13:38:55.181035 13368 net.cpp:406] relu5_3-R <- conv5_3-R
I0715 13:38:55.181042 13368 net.cpp:367] relu5_3-R -> conv5_3-R (in-place)
I0715 13:38:55.181308 13368 net.cpp:122] Setting up relu5_3-R
I0715 13:38:55.181318 13368 net.cpp:129] Top shape: 1 512 45 27 (622080)
I0715 13:38:55.181321 13368 net.cpp:137] Memory required for data: 1473577656
I0715 13:38:55.181325 13368 layer_factory.hpp:77] Creating layer pool5-R
I0715 13:38:55.181334 13368 net.cpp:84] Creating Layer pool5-R
I0715 13:38:55.181337 13368 net.cpp:406] pool5-R <- conv5_3-R
I0715 13:38:55.181345 13368 net.cpp:380] pool5-R -> pool5-R
I0715 13:38:55.181421 13368 net.cpp:122] Setting up pool5-R
I0715 13:38:55.181429 13368 net.cpp:129] Top shape: 1 512 23 14 (164864)
I0715 13:38:55.181432 13368 net.cpp:137] Memory required for data: 1474237112
I0715 13:38:55.181437 13368 layer_factory.hpp:77] Creating layer fc6-R
I0715 13:38:55.181447 13368 net.cpp:84] Creating Layer fc6-R
I0715 13:38:55.181450 13368 net.cpp:406] fc6-R <- pool5-R
I0715 13:38:55.181457 13368 net.cpp:380] fc6-R -> fc6-R
I0715 13:38:55.448407 13368 net.cpp:122] Setting up fc6-R
I0715 13:38:55.448439 13368 net.cpp:129] Top shape: 1 4096 17 8 (557056)
I0715 13:38:55.448444 13368 net.cpp:137] Memory required for data: 1476465336
I0715 13:38:55.448454 13368 layer_factory.hpp:77] Creating layer relu6-R
I0715 13:38:55.448467 13368 net.cpp:84] Creating Layer relu6-R
I0715 13:38:55.448472 13368 net.cpp:406] relu6-R <- fc6-R
I0715 13:38:55.448479 13368 net.cpp:367] relu6-R -> fc6-R (in-place)
I0715 13:38:55.448724 13368 net.cpp:122] Setting up relu6-R
I0715 13:38:55.448734 13368 net.cpp:129] Top shape: 1 4096 17 8 (557056)
I0715 13:38:55.448736 13368 net.cpp:137] Memory required for data: 1478693560
I0715 13:38:55.448740 13368 layer_factory.hpp:77] Creating layer drop6-R
I0715 13:38:55.448747 13368 net.cpp:84] Creating Layer drop6-R
I0715 13:38:55.448751 13368 net.cpp:406] drop6-R <- fc6-R
I0715 13:38:55.448757 13368 net.cpp:367] drop6-R -> fc6-R (in-place)
I0715 13:38:55.448817 13368 net.cpp:122] Setting up drop6-R
I0715 13:38:55.448824 13368 net.cpp:129] Top shape: 1 4096 17 8 (557056)
I0715 13:38:55.448827 13368 net.cpp:137] Memory required for data: 1480921784
I0715 13:38:55.448830 13368 layer_factory.hpp:77] Creating layer fc7-R
I0715 13:38:55.448840 13368 net.cpp:84] Creating Layer fc7-R
I0715 13:38:55.448844 13368 net.cpp:406] fc7-R <- fc6-R
I0715 13:38:55.448851 13368 net.cpp:380] fc7-R -> fc7-R
I0715 13:38:55.496909 13368 net.cpp:122] Setting up fc7-R
I0715 13:38:55.496958 13368 net.cpp:129] Top shape: 1 4096 17 8 (557056)
I0715 13:38:55.496963 13368 net.cpp:137] Memory required for data: 1483150008
I0715 13:38:55.496973 13368 layer_factory.hpp:77] Creating layer relu7-R
I0715 13:38:55.496986 13368 net.cpp:84] Creating Layer relu7-R
I0715 13:38:55.496992 13368 net.cpp:406] relu7-R <- fc7-R
I0715 13:38:55.497000 13368 net.cpp:367] relu7-R -> fc7-R (in-place)
I0715 13:38:55.497268 13368 net.cpp:122] Setting up relu7-R
I0715 13:38:55.497279 13368 net.cpp:129] Top shape: 1 4096 17 8 (557056)
I0715 13:38:55.497283 13368 net.cpp:137] Memory required for data: 1485378232
I0715 13:38:55.497287 13368 layer_factory.hpp:77] Creating layer drop7-R
I0715 13:38:55.497294 13368 net.cpp:84] Creating Layer drop7-R
I0715 13:38:55.497298 13368 net.cpp:406] drop7-R <- fc7-R
I0715 13:38:55.497305 13368 net.cpp:367] drop7-R -> fc7-R (in-place)
I0715 13:38:55.497354 13368 net.cpp:122] Setting up drop7-R
I0715 13:38:55.497365 13368 net.cpp:129] Top shape: 1 4096 17 8 (557056)
I0715 13:38:55.497368 13368 net.cpp:137] Memory required for data: 1487606456
I0715 13:38:55.497371 13368 layer_factory.hpp:77] Creating layer score_fr-new-R
I0715 13:38:55.497381 13368 net.cpp:84] Creating Layer score_fr-new-R
I0715 13:38:55.497385 13368 net.cpp:406] score_fr-new-R <- fc7-R
I0715 13:38:55.497392 13368 net.cpp:380] score_fr-new-R -> score_fr-new-R
I0715 13:38:55.499229 13368 net.cpp:122] Setting up score_fr-new-R
I0715 13:38:55.499258 13368 net.cpp:129] Top shape: 1 3 17 8 (408)
I0715 13:38:55.499261 13368 net.cpp:137] Memory required for data: 1487608088
I0715 13:38:55.499267 13368 layer_factory.hpp:77] Creating layer upscore2-new-R
I0715 13:38:55.499300 13368 net.cpp:84] Creating Layer upscore2-new-R
I0715 13:38:55.499303 13368 net.cpp:406] upscore2-new-R <- score_fr-new-R
I0715 13:38:55.499311 13368 net.cpp:380] upscore2-new-R -> upscore2-new-R
I0715 13:38:55.499676 13368 net.cpp:122] Setting up upscore2-new-R
I0715 13:38:55.499686 13368 net.cpp:129] Top shape: 1 3 36 18 (1944)
I0715 13:38:55.499688 13368 net.cpp:137] Memory required for data: 1487615864
I0715 13:38:55.499693 13368 layer_factory.hpp:77] Creating layer upscore2-new-R_upscore2-new-R_0_split
I0715 13:38:55.499701 13368 net.cpp:84] Creating Layer upscore2-new-R_upscore2-new-R_0_split
I0715 13:38:55.499706 13368 net.cpp:406] upscore2-new-R_upscore2-new-R_0_split <- upscore2-new-R
I0715 13:38:55.499711 13368 net.cpp:380] upscore2-new-R_upscore2-new-R_0_split -> upscore2-new-R_upscore2-new-R_0_split_0
I0715 13:38:55.499718 13368 net.cpp:380] upscore2-new-R_upscore2-new-R_0_split -> upscore2-new-R_upscore2-new-R_0_split_1
I0715 13:38:55.499780 13368 net.cpp:122] Setting up upscore2-new-R_upscore2-new-R_0_split
I0715 13:38:55.499799 13368 net.cpp:129] Top shape: 1 3 36 18 (1944)
I0715 13:38:55.499804 13368 net.cpp:129] Top shape: 1 3 36 18 (1944)
I0715 13:38:55.499806 13368 net.cpp:137] Memory required for data: 1487631416
I0715 13:38:55.499809 13368 layer_factory.hpp:77] Creating layer score_pool4-new-R
I0715 13:38:55.499819 13368 net.cpp:84] Creating Layer score_pool4-new-R
I0715 13:38:55.499824 13368 net.cpp:406] score_pool4-new-R <- pool4-R_pool4-R_0_split_1
I0715 13:38:55.499830 13368 net.cpp:380] score_pool4-new-R -> score_pool4-new-R
I0715 13:38:55.501608 13368 net.cpp:122] Setting up score_pool4-new-R
I0715 13:38:55.501636 13368 net.cpp:129] Top shape: 1 3 45 27 (3645)
I0715 13:38:55.501639 13368 net.cpp:137] Memory required for data: 1487645996
I0715 13:38:55.501646 13368 layer_factory.hpp:77] Creating layer score_pool4c-R
I0715 13:38:55.501653 13368 net.cpp:84] Creating Layer score_pool4c-R
I0715 13:38:55.501657 13368 net.cpp:406] score_pool4c-R <- score_pool4-new-R
I0715 13:38:55.501662 13368 net.cpp:406] score_pool4c-R <- upscore2-new-R_upscore2-new-R_0_split_0
I0715 13:38:55.501668 13368 net.cpp:380] score_pool4c-R -> score_pool4c-R
I0715 13:38:55.501726 13368 net.cpp:122] Setting up score_pool4c-R
I0715 13:38:55.501732 13368 net.cpp:129] Top shape: 1 3 36 18 (1944)
I0715 13:38:55.501735 13368 net.cpp:137] Memory required for data: 1487653772
I0715 13:38:55.501739 13368 layer_factory.hpp:77] Creating layer fuse_pool4-R
I0715 13:38:55.501745 13368 net.cpp:84] Creating Layer fuse_pool4-R
I0715 13:38:55.501750 13368 net.cpp:406] fuse_pool4-R <- upscore2-new-R_upscore2-new-R_0_split_1
I0715 13:38:55.501754 13368 net.cpp:406] fuse_pool4-R <- score_pool4c-R
I0715 13:38:55.501760 13368 net.cpp:380] fuse_pool4-R -> fuse_pool4-R
I0715 13:38:55.501798 13368 net.cpp:122] Setting up fuse_pool4-R
I0715 13:38:55.501803 13368 net.cpp:129] Top shape: 1 3 36 18 (1944)
I0715 13:38:55.501806 13368 net.cpp:137] Memory required for data: 1487661548
I0715 13:38:55.501809 13368 layer_factory.hpp:77] Creating layer upscore_pool4-new-R
I0715 13:38:55.501816 13368 net.cpp:84] Creating Layer upscore_pool4-new-R
I0715 13:38:55.501819 13368 net.cpp:406] upscore_pool4-new-R <- fuse_pool4-R
I0715 13:38:55.501840 13368 net.cpp:380] upscore_pool4-new-R -> upscore_pool4-new-R
I0715 13:38:55.502190 13368 net.cpp:122] Setting up upscore_pool4-new-R
I0715 13:38:55.502198 13368 net.cpp:129] Top shape: 1 3 74 38 (8436)
I0715 13:38:55.502202 13368 net.cpp:137] Memory required for data: 1487695292
I0715 13:38:55.502221 13368 layer_factory.hpp:77] Creating layer upscore_pool4-new-R_upscore_pool4-new-R_0_split
I0715 13:38:55.502228 13368 net.cpp:84] Creating Layer upscore_pool4-new-R_upscore_pool4-new-R_0_split
I0715 13:38:55.502231 13368 net.cpp:406] upscore_pool4-new-R_upscore_pool4-new-R_0_split <- upscore_pool4-new-R
I0715 13:38:55.502236 13368 net.cpp:380] upscore_pool4-new-R_upscore_pool4-new-R_0_split -> upscore_pool4-new-R_upscore_pool4-new-R_0_split_0
I0715 13:38:55.502243 13368 net.cpp:380] upscore_pool4-new-R_upscore_pool4-new-R_0_split -> upscore_pool4-new-R_upscore_pool4-new-R_0_split_1
I0715 13:38:55.502302 13368 net.cpp:122] Setting up upscore_pool4-new-R_upscore_pool4-new-R_0_split
I0715 13:38:55.502308 13368 net.cpp:129] Top shape: 1 3 74 38 (8436)
I0715 13:38:55.502312 13368 net.cpp:129] Top shape: 1 3 74 38 (8436)
I0715 13:38:55.502315 13368 net.cpp:137] Memory required for data: 1487762780
I0715 13:38:55.502318 13368 layer_factory.hpp:77] Creating layer score_pool3-new-R
I0715 13:38:55.502326 13368 net.cpp:84] Creating Layer score_pool3-new-R
I0715 13:38:55.502331 13368 net.cpp:406] score_pool3-new-R <- pool3-R_pool3-R_0_split_1
I0715 13:38:55.502337 13368 net.cpp:380] score_pool3-new-R -> score_pool3-new-R
I0715 13:38:55.504451 13368 net.cpp:122] Setting up score_pool3-new-R
I0715 13:38:55.504469 13368 net.cpp:129] Top shape: 1 3 89 54 (14418)
I0715 13:38:55.504474 13368 net.cpp:137] Memory required for data: 1487820452
I0715 13:38:55.504483 13368 layer_factory.hpp:77] Creating layer score_pool3c-R
I0715 13:38:55.504492 13368 net.cpp:84] Creating Layer score_pool3c-R
I0715 13:38:55.504499 13368 net.cpp:406] score_pool3c-R <- score_pool3-new-R
I0715 13:38:55.504505 13368 net.cpp:406] score_pool3c-R <- upscore_pool4-new-R_upscore_pool4-new-R_0_split_0
I0715 13:38:55.504513 13368 net.cpp:380] score_pool3c-R -> score_pool3c-R
I0715 13:38:55.504568 13368 net.cpp:122] Setting up score_pool3c-R
I0715 13:38:55.504575 13368 net.cpp:129] Top shape: 1 3 74 38 (8436)
I0715 13:38:55.504580 13368 net.cpp:137] Memory required for data: 1487854196
I0715 13:38:55.504583 13368 layer_factory.hpp:77] Creating layer fuse_pool3-R
I0715 13:38:55.504591 13368 net.cpp:84] Creating Layer fuse_pool3-R
I0715 13:38:55.504596 13368 net.cpp:406] fuse_pool3-R <- upscore_pool4-new-R_upscore_pool4-new-R_0_split_1
I0715 13:38:55.504602 13368 net.cpp:406] fuse_pool3-R <- score_pool3c-R
I0715 13:38:55.504609 13368 net.cpp:380] fuse_pool3-R -> fuse_pool3-R
I0715 13:38:55.504654 13368 net.cpp:122] Setting up fuse_pool3-R
I0715 13:38:55.504662 13368 net.cpp:129] Top shape: 1 3 74 38 (8436)
I0715 13:38:55.504665 13368 net.cpp:137] Memory required for data: 1487887940
I0715 13:38:55.504669 13368 layer_factory.hpp:77] Creating layer upscore8-new-R
I0715 13:38:55.504678 13368 net.cpp:84] Creating Layer upscore8-new-R
I0715 13:38:55.504681 13368 net.cpp:406] upscore8-new-R <- fuse_pool3-R
I0715 13:38:55.504689 13368 net.cpp:380] upscore8-new-R -> upscore8-new-R
I0715 13:38:55.505128 13368 net.cpp:122] Setting up upscore8-new-R
I0715 13:38:55.505139 13368 net.cpp:129] Top shape: 1 3 600 312 (561600)
I0715 13:38:55.505143 13368 net.cpp:137] Memory required for data: 1490134340
I0715 13:38:55.505149 13368 layer_factory.hpp:77] Creating layer upscore8_cropped-R
I0715 13:38:55.505156 13368 net.cpp:84] Creating Layer upscore8_cropped-R
I0715 13:38:55.505162 13368 net.cpp:406] upscore8_cropped-R <- upscore8-new-R
I0715 13:38:55.505168 13368 net.cpp:406] upscore8_cropped-R <- data-R_crop_0_split_1
I0715 13:38:55.505177 13368 net.cpp:380] upscore8_cropped-R -> upscore8_cropped-R
I0715 13:38:55.505223 13368 net.cpp:122] Setting up upscore8_cropped-R
I0715 13:38:55.505230 13368 net.cpp:129] Top shape: 1 3 512 233 (357888)
I0715 13:38:55.505234 13368 net.cpp:137] Memory required for data: 1491565892
I0715 13:38:55.505239 13368 layer_factory.hpp:77] Creating layer upscore8_uncropped-R
I0715 13:38:55.505300 13368 net.cpp:84] Creating Layer upscore8_uncropped-R
I0715 13:38:55.505312 13368 net.cpp:406] upscore8_uncropped-R <- crop_info
I0715 13:38:55.505319 13368 net.cpp:406] upscore8_uncropped-R <- upscore8_cropped-R
I0715 13:38:55.505324 13368 net.cpp:406] upscore8_uncropped-R <- data_data_0_split_3
I0715 13:38:55.505332 13368 net.cpp:380] upscore8_uncropped-R -> upscore8_uncropped-R
I0715 13:38:55.507539 13368 net.cpp:122] Setting up upscore8_uncropped-R
I0715 13:38:55.507557 13368 net.cpp:129] Top shape: 1 3 512 233 (357888)
I0715 13:38:55.507562 13368 net.cpp:137] Memory required for data: 1492997444
I0715 13:38:55.507570 13368 layer_factory.hpp:77] Creating layer loss1
I0715 13:38:55.507581 13368 net.cpp:84] Creating Layer loss1
I0715 13:38:55.507586 13368 net.cpp:406] loss1 <- upscore8_cropped_upscore8_cropped_0_split_1
I0715 13:38:55.507593 13368 net.cpp:406] loss1 <- label_data_1_split_1
I0715 13:38:55.507601 13368 net.cpp:380] loss1 -> loss1
…
