…
snapshot_prefix: "/media/Med_2T2/data2/models/snapshots/indiv:1e-5x10,20/FD2:XI3_1_20180418_201422/train"
test_initialization: false
average_loss: 20
stepvalue: 40000
iter_size: 1
I0418 20:14:25.320626 17112 solver.cpp:77] Creating training net from train_net file: /media/Med_2T2/data2/prototxts/training_S3x10.prototxt
I0418 20:14:25.322681 17112 net.cpp:51] Initializing net from parameters: 
state {
  phase: TRAIN
}
layer {
  name: "data"
  type: "Python"
  top: "data"
  top: "label"
  top: "crop_margin"
  top: "crop_prob"
  top: "crop_sample_batch"
  python_param {
    module: "Data"
    layer: "DataLayer"
  }
}
layer {
  name: "conv1_1"
  type: "Convolution"
  bottom: "data"
  top: "conv1_1"
  param {
    lr_mult: 1
    decay_mult: 1
  }
  param {
    lr_mult: 2
    decay_mult: 0
  }
  convolution_param {
    num_output: 64
    pad: 100
    kernel_size: 3
    stride: 1
  }
}
layer {
  name: "relu1_1"
  type: "ReLU"
  bottom: "conv1_1"
  top: "conv1_1"
}
layer {
  name: "conv1_2"
  type: "Convolution"
  bottom: "conv1_1"
  top: "conv1_2"
  param {
    lr_mult: 1
    decay_mult: 1
  }
  param {
    lr_mult: 2
    decay_mult: 0
  }
  convolution_param {
    num_output: 64
    pad: 1
    kernel_size: 3
    stride: 1
  }
}
layer {
  name: "relu1_2"
  type: "ReLU"
  bottom: "conv1_2"
  top: "conv1_2"
}
layer {
  name: "pool1"
  type: "Pooling"
  bottom: "conv1_2"
  top: "pool1"
  pooling_param {
    pool: MAX
    kernel_size: 2
    stride: 2
  }
}
layer {
  name: "conv2_1"
  type: "Convolution"
  bottom: "pool1"
  top: "conv2_1"
  param {
    lr_mult: 1
    decay_mult: 1
  }
  param {
    lr_mult: 2
    decay_mult: 0
  }
  convolution_param {
    num_output: 128
    pad: 1
    kernel_size: 3
    stride: 1
  }
}
layer {
  name: "relu2_1"
  type: "ReLU"
  bottom: "conv2_1"
  top: "conv2_1"
}
layer {
  name: "conv2_2"
  type: "Convolution"
  bottom: "conv2_1"
  top: "conv2_2"
  param {
    lr_mult: 1
    decay_mult: 1
  }
  param {
    lr_mult: 2
    decay_mult: 0
  }
  convolution_param {
    num_output: 128
    pad: 1
    kernel_size: 3
    stride: 1
  }
}
layer {
  name: "relu2_2"
  type: "ReLU"
  bottom: "conv2_2"
  top: "conv2_2"
}
layer {
  name: "pool2"
  type: "Pooling"
  bottom: "conv2_2"
  top: "pool2"
  pooling_param {
    pool: MAX
    kernel_size: 2
    stride: 2
  }
}
layer {
  name: "conv3_1"
  type: "Convolution"
  bottom: "pool2"
  top: "conv3_1"
  param {
    lr_mult: 1
    decay_mult: 1
  }
  param {
    lr_mult: 2
    decay_mult: 0
  }
  convolution_param {
    num_output: 256
    pad: 1
    kernel_size: 3
    stride: 1
  }
}
layer {
  name: "relu3_1"
  type: "ReLU"
  bottom: "conv3_1"
  top: "conv3_1"
}
layer {
  name: "conv3_2"
  type: "Convolution"
  bottom: "conv3_1"
  top: "conv3_2"
  param {
    lr_mult: 1
    decay_mult: 1
  }
  param {
    lr_mult: 2
    decay_mult: 0
  }
  convolution_param {
    num_output: 256
    pad: 1
    kernel_size: 3
    stride: 1
  }
}
layer {
  name: "relu3_2"
  type: "ReLU"
  bottom: "conv3_2"
  top: "conv3_2"
}
layer {
  name: "conv3_3"
  type: "Convolution"
  bottom: "conv3_2"
  top: "conv3_3"
  param {
    lr_mult: 1
    decay_mult: 1
  }
  param {
    lr_mult: 2
    decay_mult: 0
  }
  convolution_param {
    num_output: 256
    pad: 1
    kernel_size: 3
    stride: 1
  }
}
layer {
  name: "relu3_3"
  type: "ReLU"
  bottom: "conv3_3"
  top: "conv3_3"
}
layer {
  name: "pool3"
  type: "Pooling"
  bottom: "conv3_3"
  top: "pool3"
  pooling_param {
    pool: MAX
    kernel_size: 2
    stride: 2
  }
}
layer {
  name: "conv4_1"
  type: "Convolution"
  bottom: "pool3"
  top: "conv4_1"
  param {
    lr_mult: 1
    decay_mult: 1
  }
  param {
    lr_mult: 2
    decay_mult: 0
  }
  convolution_param {
    num_output: 512
    pad: 1
    kernel_size: 3
    stride: 1
  }
}
layer {
  name: "relu4_1"
  type: "ReLU"
  bottom: "conv4_1"
  top: "conv4_1"
}
layer {
  name: "conv4_2"
  type: "Convolution"
  bottom: "conv4_1"
  top: "conv4_2"
  param {
    lr_mult: 1
    decay_mult: 1
  }
  param {
    lr_mult: 2
    decay_mult: 0
  }
  convolution_param {
    num_output: 512
    pad: 1
    kernel_size: 3
    stride: 1
  }
}
layer {
  name: "relu4_2"
  type: "ReLU"
  bottom: "conv4_2"
  top: "conv4_2"
}
layer {
  name: "conv4_3"
  type: "Convolution"
  bottom: "conv4_2"
  top: "conv4_3"
  param {
    lr_mult: 1
    decay_mult: 1
  }
  param {
    lr_mult: 2
    decay_mult: 0
  }
  convolution_param {
    num_output: 512
    pad: 1
    kernel_size: 3
    stride: 1
  }
}
layer {
  name: "relu4_3"
  type: "ReLU"
  bottom: "conv4_3"
  top: "conv4_3"
}
layer {
  name: "pool4"
  type: "Pooling"
  bottom: "conv4_3"
  top: "pool4"
  pooling_param {
    pool: MAX
    kernel_size: 2
    stride: 2
  }
}
layer {
  name: "conv5_1"
  type: "Convolution"
  bottom: "pool4"
  top: "conv5_1"
  param {
    lr_mult: 1
    decay_mult: 1
  }
  param {
    lr_mult: 2
    decay_mult: 0
  }
  convolution_param {
    num_output: 512
    pad: 1
    kernel_size: 3
    stride: 1
  }
}
layer {
  name: "relu5_1"
  type: "ReLU"
  bottom: "conv5_1"
  top: "conv5_1"
}
layer {
  name: "conv5_2"
  type: "Convolution"
  bottom: "conv5_1"
  top: "conv5_2"
  param {
    lr_mult: 1
    decay_mult: 1
  }
  param {
    lr_mult: 2
    decay_mult: 0
  }
  convolution_param {
    num_output: 512
    pad: 1
    kernel_size: 3
    stride: 1
  }
}
layer {
  name: "relu5_2"
  type: "ReLU"
  bottom: "conv5_2"
  top: "conv5_2"
}
layer {
  name: "conv5_3"
  type: "Convolution"
  bottom: "conv5_2"
  top: "conv5_3"
  param {
    lr_mult: 1
    decay_mult: 1
  }
  param {
    lr_mult: 2
    decay_mult: 0
  }
  convolution_param {
    num_output: 512
    pad: 1
    kernel_size: 3
    stride: 1
  }
}
layer {
  name: "relu5_3"
  type: "ReLU"
  bottom: "conv5_3"
  top: "conv5_3"
}
layer {
  name: "pool5"
  type: "Pooling"
  bottom: "conv5_3"
  top: "pool5"
  pooling_param {
    pool: MAX
    kernel_size: 2
    stride: 2
  }
}
layer {
  name: "fc6"
  type: "Convolution"
  bottom: "pool5"
  top: "fc6"
  param {
    lr_mult: 1
    decay_mult: 1
  }
  param {
    lr_mult: 2
    decay_mult: 0
  }
  convolution_param {
    num_output: 4096
    pad: 0
    kernel_size: 7
    stride: 1
  }
}
layer {
  name: "relu6"
  type: "ReLU"
  bottom: "fc6"
  top: "fc6"
}
layer {
  name: "drop6"
  type: "Dropout"
  bottom: "fc6"
  top: "fc6"
  dropout_param {
    dropout_ratio: 0.5
  }
}
layer {
  name: "fc7"
  type: "Convolution"
  bottom: "fc6"
  top: "fc7"
  param {
    lr_mult: 1
    decay_mult: 1
  }
  param {
    lr_mult: 2
    decay_mult: 0
  }
  convolution_param {
    num_output: 4096
    pad: 0
    kernel_size: 1
    stride: 1
  }
}
layer {
  name: "relu7"
  type: "ReLU"
  bottom: "fc7"
  top: "fc7"
}
layer {
  name: "drop7"
  type: "Dropout"
  bottom: "fc7"
  top: "fc7"
  dropout_param {
    dropout_ratio: 0.5
  }
}
layer {
  name: "score_fr-new"
  type: "Convolution"
  bottom: "fc7"
  top: "score_fr-new"
  param {
    lr_mult: 1
    decay_mult: 1
  }
  param {
    lr_mult: 2
    decay_mult: 0
  }
  convolution_param {
    num_output: 3
    kernel_size: 1
  }
}
layer {
  name: "upscore2-new"
  type: "Deconvolution"
  bottom: "score_fr-new"
  top: "upscore2-new"
  param {
    lr_mult: 0
  }
  convolution_param {
    num_output: 3
    bias_term: false
    kernel_size: 4
    stride: 2
  }
}
layer {
  name: "score_pool4-new"
  type: "Convolution"
  bottom: "pool4"
  top: "score_pool4-new"
  param {
    lr_mult: 1
    decay_mult: 1
  }
  param {
    lr_mult: 2
    decay_mult: 0
  }
  convolution_param {
    num_output: 3
    pad: 0
    kernel_size: 1
  }
}
layer {
  name: "score_pool4c"
  type: "Crop"
  bottom: "score_pool4-new"
  bottom: "upscore2-new"
  top: "score_pool4c"
  crop_param {
    axis: 2
    offset: 5
  }
}
layer {
  name: "fuse_pool4"
  type: "Eltwise"
  bottom: "upscore2-new"
  bottom: "score_pool4c"
  top: "fuse_pool4"
  eltwise_param {
    operation: SUM
  }
}
layer {
  name: "upscore_pool4-new"
  type: "Deconvolution"
  bottom: "fuse_pool4"
  top: "upscore_pool4-new"
  param {
    lr_mult: 0
  }
  convolution_param {
    num_output: 3
    bias_term: false
    kernel_size: 4
    stride: 2
  }
}
layer {
  name: "score_pool3-new"
  type: "Convolution"
  bottom: "pool3"
  top: "score_pool3-new"
  param {
    lr_mult: 1
    decay_mult: 1
  }
  param {
    lr_mult: 2
    decay_mult: 0
  }
  convolution_param {
    num_output: 3
    pad: 0
    kernel_size: 1
  }
}
layer {
  name: "score_pool3c"
  type: "Crop"
  bottom: "score_pool3-new"
  bottom: "upscore_pool4-new"
  top: "score_pool3c"
  crop_param {
    axis: 2
    offset: 9
  }
}
layer {
  name: "fuse_pool3"
  type: "Eltwise"
  bottom: "upscore_pool4-new"
  bottom: "score_pool3c"
  top: "fuse_pool3"
  eltwise_param {
    operation: SUM
  }
}
layer {
  name: "upscore8-new"
  type: "Deconvolution"
  bottom: "fuse_pool3"
  top: "upscore8-new"
  param {
    lr_mult: 0
  }
  convolution_param {
    num_output: 3
    bias_term: false
    kernel_size: 16
    stride: 8
  }
}
layer {
  name: "upscore8_cropped"
  type: "Crop"
  bottom: "upscore8-new"
  bottom: "data"
  top: "upscore8_cropped"
  crop_param {
    axis: 2
    offset: 31
  }
}
layer {
  name: "score"
  type: "Convolution"
  bottom: "upscore8_cropped"
  top: "score"
  param {
    lr_mult: 1
    decay_mult: 1
  }
  param {
    lr_mult: 2
    decay_mult: 0
  }
  convolution_param {
    num_output: 3
    pad: 1
    kernel_size: 3
    stride: 1
    weight_filler {
      type: "xavier"
    }
    bias_filler {
      type: "constant"
      value: 0
    }
  }
}
layer {
  name: "prob"
  type: "Sigmoid"
  bottom: "score"
  top: "prob"
}
layer {
  name: "saliency"
  type: "Convolution"
  bottom: "prob"
  top: "saliency"
  param {
    lr_mult: 10
    decay_mult: 1
  }
  param {
    lr_mult: 20
    decay_mult: 0
  }
  convolution_param {
    num_output: 3
    pad: 2
    kernel_size: 5
    stride: 1
    weight_filler {
      type: "xavier"
    }
    bias_filler {
      type: "constant"
      value: 1
    }
  }
}
layer {
  name: "silence_saliency"
  type: "Silence"
  bottom: "saliency"
}
layer {
  name: "crop"
  type: "Python"
  bottom: "label"
  bottom: "data"
  bottom: "crop_margin"
  bottom: "crop_prob"
  bottom: "crop_sample_batch"
  top: "data-R"
  top: "crop_info"
  python_param {
    module: "Crop"
    layer: "CropLayer"
    param_str: "{\"TEST\": 0}"
  }
}
layer {
  name: "conv1_1-R"
  type: "Convolution"
  bottom: "data-R"
  top: "conv1_1-R"
  param {
    lr_mult: 10
    decay_mult: 1
  }
  param {
    lr_mult: 20
    decay_mult: 0
  }
  convolution_param {
    num_output: 64
    pad: 100
    kernel_size: 3
    stride: 1
  }
}
layer {
  name: "relu1_1-R"
  type: "ReLU"
  bottom: "conv1_1-R"
  top: "conv1_1-R"
}
layer {
  name: "conv1_2-R"
  type: "Convolution"
  bottom: "conv1_1-R"
  top: "conv1_2-R"
  param {
    lr_mult: 10
    decay_mult: 1
  }
  param {
    lr_mult: 20
    decay_mult: 0
  }
  convolution_param {
    num_output: 64
    pad: 1
    kernel_size: 3
    stride: 1
  }
}
layer {
  name: "relu1_2-R"
  type: "ReLU"
  bottom: "conv1_2-R"
  top: "conv1_2-R"
}
layer {
  name: "pool1-R"
  type: "Pooling"
  bottom: "conv1_2-R"
  top: "pool1-R"
  pooling_param {
    pool: MAX
    kernel_size: 2
    stride: 2
  }
}
layer {
  name: "conv2_1-R"
  type: "Convolution"
  bottom: "pool1-R"
  top: "conv2_1-R"
  param {
    lr_mult: 10
    decay_mult: 1
  }
  param {
    lr_mult: 20
    decay_mult: 0
  }
  convolution_param {
    num_output: 128
    pad: 1
    kernel_size: 3
    stride: 1
  }
}
layer {
  name: "relu2_1-R"
  type: "ReLU"
  bottom: "conv2_1-R"
  top: "conv2_1-R"
}
layer {
  name: "conv2_2-R"
  type: "Convolution"
  bottom: "conv2_1-R"
  top: "conv2_2-R"
  param {
    lr_mult: 10
    decay_mult: 1
  }
  param {
    lr_mult: 20
    decay_mult: 0
  }
  convolution_param {
    num_output: 128
    pad: 1
    kernel_size: 3
    stride: 1
  }
}
layer {
  name: "relu2_2-R"
  type: "ReLU"
  bottom: "conv2_2-R"
  top: "conv2_2-R"
}
layer {
  name: "pool2-R"
  type: "Pooling"
  bottom: "conv2_2-R"
  top: "pool2-R"
  pooling_param {
    pool: MAX
    kernel_size: 2
    stride: 2
  }
}
layer {
  name: "conv3_1-R"
  type: "Convolution"
  bottom: "pool2-R"
  top: "conv3_1-R"
  param {
    lr_mult: 10
    decay_mult: 1
  }
  param {
    lr_mult: 20
    decay_mult: 0
  }
  convolution_param {
    num_output: 256
    pad: 1
    kernel_size: 3
    stride: 1
  }
}
layer {
  name: "relu3_1-R"
  type: "ReLU"
  bottom: "conv3_1-R"
  top: "conv3_1-R"
}
layer {
  name: "conv3_2-R"
  type: "Convolution"
  bottom: "conv3_1-R"
  top: "conv3_2-R"
  param {
    lr_mult: 10
    decay_mult: 1
  }
  param {
    lr_mult: 20
    decay_mult: 0
  }
  convolution_param {
    num_output: 256
    pad: 1
    kernel_size: 3
    stride: 1
  }
}
layer {
  name: "relu3_2-R"
  type: "ReLU"
  bottom: "conv3_2-R"
  top: "conv3_2-R"
}
layer {
  name: "conv3_3-R"
  type: "Convolution"
  bottom: "conv3_2-R"
  top: "conv3_3-R"
  param {
    lr_mult: 10
    decay_mult: 1
  }
  param {
    lr_mult: 20
    decay_mult: 0
  }
  convolution_param {
    num_output: 256
    pad: 1
    kernel_size: 3
    stride: 1
  }
}
layer {
  name: "relu3_3-R"
  type: "ReLU"
  bottom: "conv3_3-R"
  top: "conv3_3-R"
}
layer {
  name: "pool3-R"
  type: "Pooling"
  bottom: "conv3_3-R"
  top: "pool3-R"
  pooling_param {
    pool: MAX
    kernel_size: 2
    stride: 2
  }
}
layer {
  name: "conv4_1-R"
  type: "Convolution"
  bottom: "pool3-R"
  top: "conv4_1-R"
  param {
    lr_mult: 10
    decay_mult: 1
  }
  param {
    lr_mult: 20
    decay_mult: 0
  }
  convolution_param {
    num_output: 512
    pad: 1
    kernel_size: 3
    stride: 1
  }
}
layer {
  name: "relu4_1-R"
  type: "ReLU"
  bottom: "conv4_1-R"
  top: "conv4_1-R"
}
layer {
  name: "conv4_2-R"
  type: "Convolution"
  bottom: "conv4_1-R"
  top: "conv4_2-R"
  param {
    lr_mult: 10
    decay_mult: 1
  }
  param {
    lr_mult: 20
    decay_mult: 0
  }
  convolution_param {
    num_output: 512
    pad: 1
    kernel_size: 3
    stride: 1
  }
}
layer {
  name: "relu4_2-R"
  type: "ReLU"
  bottom: "conv4_2-R"
  top: "conv4_2-R"
}
layer {
  name: "conv4_3-R"
  type: "Convolution"
  bottom: "conv4_2-R"
  top: "conv4_3-R"
  param {
    lr_mult: 10
    decay_mult: 1
  }
  param {
    lr_mult: 20
    decay_mult: 0
  }
  convolution_param {
    num_output: 512
    pad: 1
    kernel_size: 3
    stride: 1
  }
}
layer {
  name: "relu4_3-R"
  type: "ReLU"
  bottom: "conv4_3-R"
  top: "conv4_3-R"
}
layer {
  name: "pool4-R"
  type: "Pooling"
  bottom: "conv4_3-R"
  top: "pool4-R"
  pooling_param {
    pool: MAX
    kernel_size: 2
    stride: 2
  }
}
layer {
  name: "conv5_1-R"
  type: "Convolution"
  bottom: "pool4-R"
  top: "conv5_1-R"
  param {
    lr_mult: 10
    decay_mult: 1
  }
  param {
    lr_mult: 20
    decay_mult: 0
  }
  convolution_param {
    num_output: 512
    pad: 1
    kernel_size: 3
    stride: 1
  }
}
layer {
  name: "relu5_1-R"
  type: "ReLU"
  bottom: "conv5_1-R"
  top: "conv5_1-R"
}
layer {
  name: "conv5_2-R"
  type: "Convolution"
  bottom: "conv5_1-R"
  top: "conv5_2-R"
  param {
    lr_mult: 10
    decay_mult: 1
  }
  param {
    lr_mult: 20
    decay_mult: 0
  }
  convolution_param {
    num_output: 512
    pad: 1
    kernel_size: 3
    stride: 1
  }
}
layer {
  name: "relu5_2-R"
  type: "ReLU"
  bottom: "conv5_2-R"
  top: "conv5_2-R"
}
layer {
  name: "conv5_3-R"
  type: "Convolution"
  bottom: "conv5_2-R"
  top: "conv5_3-R"
  param {
    lr_mult: 10
    decay_mult: 1
  }
  param {
    lr_mult: 20
    decay_mult: 0
  }
  convolution_param {
    num_output: 512
    pad: 1
    kernel_size: 3
    stride: 1
  }
}
layer {
  name: "relu5_3-R"
  type: "ReLU"
  bottom: "conv5_3-R"
  top: "conv5_3-R"
}
layer {
  name: "pool5-R"
  type: "Pooling"
  bottom: "conv5_3-R"
  top: "pool5-R"
  pooling_param {
    pool: MAX
    kernel_size: 2
    stride: 2
  }
}
layer {
  name: "fc6-R"
  type: "Convolution"
  bottom: "pool5-R"
  top: "fc6-R"
  param {
    lr_mult: 10
    decay_mult: 1
  }
  param {
    lr_mult: 20
    decay_mult: 0
  }
  convolution_param {
    num_output: 4096
    pad: 0
    kernel_size: 7
    stride: 1
  }
}
layer {
  name: "relu6-R"
  type: "ReLU"
  bottom: "fc6-R"
  top: "fc6-R"
}
layer {
  name: "drop6-R"
  type: "Dropout"
  bottom: "fc6-R"
  top: "fc6-R"
  dropout_param {
    dropout_ratio: 0.5
  }
}
layer {
  name: "fc7-R"
  type: "Convolution"
  bottom: "fc6-R"
  top: "fc7-R"
  param {
    lr_mult: 10
    decay_mult: 1
  }
  param {
    lr_mult: 20
    decay_mult: 0
  }
  convolution_param {
    num_output: 4096
    pad: 0
    kernel_size: 1
    stride: 1
  }
}
layer {
  name: "relu7-R"
  type: "ReLU"
  bottom: "fc7-R"
  top: "fc7-R"
}
layer {
  name: "drop7-R"
  type: "Dropout"
  bottom: "fc7-R"
  top: "fc7-R"
  dropout_param {
    dropout_ratio: 0.5
  }
}
layer {
  name: "score_fr-new-R"
  type: "Convolution"
  bottom: "fc7-R"
  top: "score_fr-new-R"
  param {
    lr_mult: 10
    decay_mult: 1
  }
  param {
    lr_mult: 20
    decay_mult: 0
  }
  convolution_param {
    num_output: 3
    kernel_size: 1
  }
}
layer {
  name: "upscore2-new-R"
  type: "Deconvolution"
  bottom: "score_fr-new-R"
  top: "upscore2-new-R"
  param {
    lr_mult: 0
  }
  convolution_param {
    num_output: 3
    bias_term: false
    kernel_size: 4
    stride: 2
  }
}
layer {
  name: "score_pool4-new-R"
  type: "Convolution"
  bottom: "pool4-R"
  top: "score_pool4-new-R"
  param {
    lr_mult: 10
    decay_mult: 1
  }
  param {
    lr_mult: 20
    decay_mult: 0
  }
  convolution_param {
    num_output: 3
    pad: 0
    kernel_size: 1
  }
}
layer {
  name: "score_pool4c-R"
  type: "Crop"
  bottom: "score_pool4-new-R"
  bottom: "upscore2-new-R"
  top: "score_pool4c-R"
  crop_param {
    axis: 2
    offset: 5
  }
}
layer {
  name: "fuse_pool4-R"
  type: "Eltwise"
  bottom: "upscore2-new-R"
  bottom: "score_pool4c-R"
  top: "fuse_pool4-R"
  eltwise_param {
    operation: SUM
  }
}
layer {
  name: "upscore_pool4-new-R"
  type: "Deconvolution"
  bottom: "fuse_pool4-R"
  top: "upscore_pool4-new-R"
  param {
    lr_mult: 0
  }
  convolution_param {
    num_output: 3
    bias_term: false
    kernel_size: 4
    stride: 2
  }
}
layer {
  name: "score_pool3-new-R"
  type: "Convolution"
  bottom: "pool3-R"
  top: "score_pool3-new-R"
  param {
    lr_mult: 10
    decay_mult: 1
  }
  param {
    lr_mult: 20
    decay_mult: 0
  }
  convolution_param {
    num_output: 3
    pad: 0
    kernel_size: 1
  }
}
layer {
  name: "score_pool3c-R"
  type: "Crop"
  bottom: "score_pool3-new-R"
  bottom: "upscore_pool4-new-R"
  top: "score_pool3c-R"
  crop_param {
    axis: 2
    offset: 9
  }
}
layer {
  name: "fuse_pool3-R"
  type: "Eltwise"
  bottom: "upscore_pool4-new-R"
  bottom: "score_pool3c-R"
  top: "fuse_pool3-R"
  eltwise_param {
    operation: SUM
  }
}
layer {
  name: "upscore8-new-R"
  type: "Deconvolution"
  bottom: "fuse_pool3-R"
  top: "upscore8-new-R"
  param {
    lr_mult: 0
  }
  convolution_param {
    num_output: 3
    bias_term: false
    kernel_size: 16
    stride: 8
  }
}
layer {
  name: "upscore8_cropped-R"
  type: "Crop"
  bottom: "upscore8-new-R"
  bottom: "data-R"
  top: "upscore8_cropped-R"
  crop_param {
    axis: 2
    offset: 31
  }
}
layer {
  name: "score-R"
  type: "Convolution"
  bottom: "upscore8_cropped-R"
  top: "score-R"
  param {
    lr_mult: 10
    decay_mult: 1
  }
  param {
    lr_mult: 20
    decay_mult: 0
  }
  convolution_param {
    num_output: 3
    pad: 1
    kernel_size: 3
    stride: 1
    weight_filler {
      type: "xavier"
    }
    bias_filler {
      type: "constant"
      value: 0
    }
  }
}
layer {
  name: "score_uncropped-R"
  type: "Python"
  bottom: "crop_info"
  bottom: "score-R"
  bottom: "data"
  top: "score_uncropped-R"
  python_param {
    module: "Uncrop"
    layer: "UncropLayer"
  }
}
layer {
  name: "loss1"
  type: "DiceLoss"
  bottom: "score"
  bottom: "label"
  top: "loss1"
  loss_weight: 0.333333
}
layer {
  name: "loss2"
  type: "DiceLoss"
  bottom: "score_uncropped-R"
  bottom: "label"
  top: "loss2"
  loss_weight: 0.666667
}
I0418 20:14:25.323148 17112 layer_factory.hpp:77] Creating layer data
I0418 20:14:25.324465 17112 net.cpp:84] Creating Layer data
I0418 20:14:25.324477 17112 net.cpp:380] data -> data
I0418 20:14:25.324491 17112 net.cpp:380] data -> label
I0418 20:14:25.324497 17112 net.cpp:380] data -> crop_margin
I0418 20:14:25.324503 17112 net.cpp:380] data -> crop_prob
I0418 20:14:25.324508 17112 net.cpp:380] data -> crop_sample_batch
I0418 20:14:25.461766 17112 net.cpp:122] Setting up data
I0418 20:14:25.461819 17112 net.cpp:129] Top shape: 1 3 512 199 (305664)
I0418 20:14:25.461824 17112 net.cpp:129] Top shape: 1 3 512 199 (305664)
I0418 20:14:25.461828 17112 net.cpp:129] Top shape: 1 (1)
I0418 20:14:25.461833 17112 net.cpp:129] Top shape: 1 (1)
I0418 20:14:25.461836 17112 net.cpp:129] Top shape: 1 (1)
I0418 20:14:25.461839 17112 net.cpp:137] Memory required for data: 2445324
I0418 20:14:25.461846 17112 layer_factory.hpp:77] Creating layer data_data_0_split
I0418 20:14:25.461875 17112 net.cpp:84] Creating Layer data_data_0_split
I0418 20:14:25.461880 17112 net.cpp:406] data_data_0_split <- data
I0418 20:14:25.461891 17112 net.cpp:380] data_data_0_split -> data_data_0_split_0
I0418 20:14:25.461904 17112 net.cpp:380] data_data_0_split -> data_data_0_split_1
I0418 20:14:25.461908 17112 net.cpp:380] data_data_0_split -> data_data_0_split_2
I0418 20:14:25.461915 17112 net.cpp:380] data_data_0_split -> data_data_0_split_3
I0418 20:14:25.461962 17112 net.cpp:122] Setting up data_data_0_split
I0418 20:14:25.461969 17112 net.cpp:129] Top shape: 1 3 512 199 (305664)
I0418 20:14:25.461973 17112 net.cpp:129] Top shape: 1 3 512 199 (305664)
I0418 20:14:25.461977 17112 net.cpp:129] Top shape: 1 3 512 199 (305664)
I0418 20:14:25.461982 17112 net.cpp:129] Top shape: 1 3 512 199 (305664)
I0418 20:14:25.461984 17112 net.cpp:137] Memory required for data: 7335948
I0418 20:14:25.461987 17112 layer_factory.hpp:77] Creating layer label_data_1_split
I0418 20:14:25.461993 17112 net.cpp:84] Creating Layer label_data_1_split
I0418 20:14:25.461997 17112 net.cpp:406] label_data_1_split <- label
I0418 20:14:25.462002 17112 net.cpp:380] label_data_1_split -> label_data_1_split_0
I0418 20:14:25.462008 17112 net.cpp:380] label_data_1_split -> label_data_1_split_1
I0418 20:14:25.462013 17112 net.cpp:380] label_data_1_split -> label_data_1_split_2
I0418 20:14:25.462052 17112 net.cpp:122] Setting up label_data_1_split
I0418 20:14:25.462062 17112 net.cpp:129] Top shape: 1 3 512 199 (305664)
I0418 20:14:25.462066 17112 net.cpp:129] Top shape: 1 3 512 199 (305664)
I0418 20:14:25.462070 17112 net.cpp:129] Top shape: 1 3 512 199 (305664)
I0418 20:14:25.462074 17112 net.cpp:137] Memory required for data: 11003916
I0418 20:14:25.462076 17112 layer_factory.hpp:77] Creating layer conv1_1
I0418 20:14:25.462090 17112 net.cpp:84] Creating Layer conv1_1
I0418 20:14:25.462095 17112 net.cpp:406] conv1_1 <- data_data_0_split_0
I0418 20:14:25.462100 17112 net.cpp:380] conv1_1 -> conv1_1
I0418 20:14:25.835578 17112 net.cpp:122] Setting up conv1_1
I0418 20:14:25.835633 17112 net.cpp:129] Top shape: 1 64 710 397 (18039680)
I0418 20:14:25.835638 17112 net.cpp:137] Memory required for data: 83162636
I0418 20:14:25.835669 17112 layer_factory.hpp:77] Creating layer relu1_1
I0418 20:14:25.835701 17112 net.cpp:84] Creating Layer relu1_1
I0418 20:14:25.835708 17112 net.cpp:406] relu1_1 <- conv1_1
I0418 20:14:25.835716 17112 net.cpp:367] relu1_1 -> conv1_1 (in-place)
I0418 20:14:25.835943 17112 net.cpp:122] Setting up relu1_1
I0418 20:14:25.835955 17112 net.cpp:129] Top shape: 1 64 710 397 (18039680)
I0418 20:14:25.835960 17112 net.cpp:137] Memory required for data: 155321356
I0418 20:14:25.835964 17112 layer_factory.hpp:77] Creating layer conv1_2
I0418 20:14:25.835978 17112 net.cpp:84] Creating Layer conv1_2
I0418 20:14:25.835988 17112 net.cpp:406] conv1_2 <- conv1_1
I0418 20:14:25.835995 17112 net.cpp:380] conv1_2 -> conv1_2
I0418 20:14:25.840384 17112 net.cpp:122] Setting up conv1_2
I0418 20:14:25.840402 17112 net.cpp:129] Top shape: 1 64 710 397 (18039680)
I0418 20:14:25.840407 17112 net.cpp:137] Memory required for data: 227480076
I0418 20:14:25.840422 17112 layer_factory.hpp:77] Creating layer relu1_2
I0418 20:14:25.840430 17112 net.cpp:84] Creating Layer relu1_2
I0418 20:14:25.840435 17112 net.cpp:406] relu1_2 <- conv1_2
I0418 20:14:25.840442 17112 net.cpp:367] relu1_2 -> conv1_2 (in-place)
I0418 20:14:25.840659 17112 net.cpp:122] Setting up relu1_2
I0418 20:14:25.840670 17112 net.cpp:129] Top shape: 1 64 710 397 (18039680)
I0418 20:14:25.840674 17112 net.cpp:137] Memory required for data: 299638796
I0418 20:14:25.840679 17112 layer_factory.hpp:77] Creating layer pool1
I0418 20:14:25.840689 17112 net.cpp:84] Creating Layer pool1
I0418 20:14:25.840694 17112 net.cpp:406] pool1 <- conv1_2
I0418 20:14:25.840701 17112 net.cpp:380] pool1 -> pool1
I0418 20:14:25.840764 17112 net.cpp:122] Setting up pool1
I0418 20:14:25.840773 17112 net.cpp:129] Top shape: 1 64 355 199 (4521280)
I0418 20:14:25.840777 17112 net.cpp:137] Memory required for data: 317723916
I0418 20:14:25.840781 17112 layer_factory.hpp:77] Creating layer conv2_1
I0418 20:14:25.840792 17112 net.cpp:84] Creating Layer conv2_1
I0418 20:14:25.840801 17112 net.cpp:406] conv2_1 <- pool1
I0418 20:14:25.840807 17112 net.cpp:380] conv2_1 -> conv2_1
I0418 20:14:25.842618 17112 net.cpp:122] Setting up conv2_1
I0418 20:14:25.842636 17112 net.cpp:129] Top shape: 1 128 355 199 (9042560)
I0418 20:14:25.842651 17112 net.cpp:137] Memory required for data: 353894156
I0418 20:14:25.842663 17112 layer_factory.hpp:77] Creating layer relu2_1
I0418 20:14:25.842670 17112 net.cpp:84] Creating Layer relu2_1
I0418 20:14:25.842675 17112 net.cpp:406] relu2_1 <- conv2_1
I0418 20:14:25.842694 17112 net.cpp:367] relu2_1 -> conv2_1 (in-place)
I0418 20:14:25.842906 17112 net.cpp:122] Setting up relu2_1
I0418 20:14:25.842917 17112 net.cpp:129] Top shape: 1 128 355 199 (9042560)
I0418 20:14:25.842921 17112 net.cpp:137] Memory required for data: 390064396
I0418 20:14:25.842926 17112 layer_factory.hpp:77] Creating layer conv2_2
I0418 20:14:25.842936 17112 net.cpp:84] Creating Layer conv2_2
I0418 20:14:25.842941 17112 net.cpp:406] conv2_2 <- conv2_1
I0418 20:14:25.842947 17112 net.cpp:380] conv2_2 -> conv2_2
I0418 20:14:25.844804 17112 net.cpp:122] Setting up conv2_2
I0418 20:14:25.844821 17112 net.cpp:129] Top shape: 1 128 355 199 (9042560)
I0418 20:14:25.844826 17112 net.cpp:137] Memory required for data: 426234636
I0418 20:14:25.844840 17112 layer_factory.hpp:77] Creating layer relu2_2
I0418 20:14:25.844847 17112 net.cpp:84] Creating Layer relu2_2
I0418 20:14:25.844852 17112 net.cpp:406] relu2_2 <- conv2_2
I0418 20:14:25.844858 17112 net.cpp:367] relu2_2 -> conv2_2 (in-place)
I0418 20:14:25.845075 17112 net.cpp:122] Setting up relu2_2
I0418 20:14:25.845086 17112 net.cpp:129] Top shape: 1 128 355 199 (9042560)
I0418 20:14:25.845091 17112 net.cpp:137] Memory required for data: 462404876
I0418 20:14:25.845095 17112 layer_factory.hpp:77] Creating layer pool2
I0418 20:14:25.845104 17112 net.cpp:84] Creating Layer pool2
I0418 20:14:25.845108 17112 net.cpp:406] pool2 <- conv2_2
I0418 20:14:25.845115 17112 net.cpp:380] pool2 -> pool2
I0418 20:14:25.845163 17112 net.cpp:122] Setting up pool2
I0418 20:14:25.845171 17112 net.cpp:129] Top shape: 1 128 178 100 (2278400)
I0418 20:14:25.845175 17112 net.cpp:137] Memory required for data: 471518476
I0418 20:14:25.845180 17112 layer_factory.hpp:77] Creating layer conv3_1
I0418 20:14:25.845190 17112 net.cpp:84] Creating Layer conv3_1
I0418 20:14:25.845193 17112 net.cpp:406] conv3_1 <- pool2
I0418 20:14:25.845199 17112 net.cpp:380] conv3_1 -> conv3_1
I0418 20:14:25.853245 17112 net.cpp:122] Setting up conv3_1
I0418 20:14:25.853277 17112 net.cpp:129] Top shape: 1 256 178 100 (4556800)
I0418 20:14:25.853282 17112 net.cpp:137] Memory required for data: 489745676
I0418 20:14:25.853296 17112 layer_factory.hpp:77] Creating layer relu3_1
I0418 20:14:25.853304 17112 net.cpp:84] Creating Layer relu3_1
I0418 20:14:25.853320 17112 net.cpp:406] relu3_1 <- conv3_1
I0418 20:14:25.853327 17112 net.cpp:367] relu3_1 -> conv3_1 (in-place)
I0418 20:14:25.853974 17112 net.cpp:122] Setting up relu3_1
I0418 20:14:25.853991 17112 net.cpp:129] Top shape: 1 256 178 100 (4556800)
I0418 20:14:25.854005 17112 net.cpp:137] Memory required for data: 507972876
I0418 20:14:25.854010 17112 layer_factory.hpp:77] Creating layer conv3_2
I0418 20:14:25.854023 17112 net.cpp:84] Creating Layer conv3_2
I0418 20:14:25.854028 17112 net.cpp:406] conv3_2 <- conv3_1
I0418 20:14:25.854038 17112 net.cpp:380] conv3_2 -> conv3_2
I0418 20:14:25.858441 17112 net.cpp:122] Setting up conv3_2
I0418 20:14:25.858466 17112 net.cpp:129] Top shape: 1 256 178 100 (4556800)
I0418 20:14:25.858479 17112 net.cpp:137] Memory required for data: 526200076
I0418 20:14:25.858495 17112 layer_factory.hpp:77] Creating layer relu3_2
I0418 20:14:25.858510 17112 net.cpp:84] Creating Layer relu3_2
I0418 20:14:25.858520 17112 net.cpp:406] relu3_2 <- conv3_2
I0418 20:14:25.858530 17112 net.cpp:367] relu3_2 -> conv3_2 (in-place)
I0418 20:14:25.859359 17112 net.cpp:122] Setting up relu3_2
I0418 20:14:25.859380 17112 net.cpp:129] Top shape: 1 256 178 100 (4556800)
I0418 20:14:25.859395 17112 net.cpp:137] Memory required for data: 544427276
I0418 20:14:25.859402 17112 layer_factory.hpp:77] Creating layer conv3_3
I0418 20:14:25.859418 17112 net.cpp:84] Creating Layer conv3_3
I0418 20:14:25.859436 17112 net.cpp:406] conv3_3 <- conv3_2
I0418 20:14:25.859446 17112 net.cpp:380] conv3_3 -> conv3_3
I0418 20:14:25.864013 17112 net.cpp:122] Setting up conv3_3
I0418 20:14:25.864032 17112 net.cpp:129] Top shape: 1 256 178 100 (4556800)
I0418 20:14:25.864037 17112 net.cpp:137] Memory required for data: 562654476
I0418 20:14:25.864045 17112 layer_factory.hpp:77] Creating layer relu3_3
I0418 20:14:25.864054 17112 net.cpp:84] Creating Layer relu3_3
I0418 20:14:25.864058 17112 net.cpp:406] relu3_3 <- conv3_3
I0418 20:14:25.864068 17112 net.cpp:367] relu3_3 -> conv3_3 (in-place)
I0418 20:14:25.864297 17112 net.cpp:122] Setting up relu3_3
I0418 20:14:25.864310 17112 net.cpp:129] Top shape: 1 256 178 100 (4556800)
I0418 20:14:25.864313 17112 net.cpp:137] Memory required for data: 580881676
I0418 20:14:25.864317 17112 layer_factory.hpp:77] Creating layer pool3
I0418 20:14:25.864326 17112 net.cpp:84] Creating Layer pool3
I0418 20:14:25.864331 17112 net.cpp:406] pool3 <- conv3_3
I0418 20:14:25.864338 17112 net.cpp:380] pool3 -> pool3
I0418 20:14:25.864392 17112 net.cpp:122] Setting up pool3
I0418 20:14:25.864400 17112 net.cpp:129] Top shape: 1 256 89 50 (1139200)
I0418 20:14:25.864404 17112 net.cpp:137] Memory required for data: 585438476
I0418 20:14:25.864408 17112 layer_factory.hpp:77] Creating layer pool3_pool3_0_split
I0418 20:14:25.864418 17112 net.cpp:84] Creating Layer pool3_pool3_0_split
I0418 20:14:25.864423 17112 net.cpp:406] pool3_pool3_0_split <- pool3
I0418 20:14:25.864428 17112 net.cpp:380] pool3_pool3_0_split -> pool3_pool3_0_split_0
I0418 20:14:25.864435 17112 net.cpp:380] pool3_pool3_0_split -> pool3_pool3_0_split_1
I0418 20:14:25.864477 17112 net.cpp:122] Setting up pool3_pool3_0_split
I0418 20:14:25.864486 17112 net.cpp:129] Top shape: 1 256 89 50 (1139200)
I0418 20:14:25.864491 17112 net.cpp:129] Top shape: 1 256 89 50 (1139200)
I0418 20:14:25.864495 17112 net.cpp:137] Memory required for data: 594552076
I0418 20:14:25.864498 17112 layer_factory.hpp:77] Creating layer conv4_1
I0418 20:14:25.864511 17112 net.cpp:84] Creating Layer conv4_1
I0418 20:14:25.864514 17112 net.cpp:406] conv4_1 <- pool3_pool3_0_split_0
I0418 20:14:25.864522 17112 net.cpp:380] conv4_1 -> conv4_1
I0418 20:14:25.877043 17112 net.cpp:122] Setting up conv4_1
I0418 20:14:25.877082 17112 net.cpp:129] Top shape: 1 512 89 50 (2278400)
I0418 20:14:25.877089 17112 net.cpp:137] Memory required for data: 603665676
I0418 20:14:25.877102 17112 layer_factory.hpp:77] Creating layer relu4_1
I0418 20:14:25.877125 17112 net.cpp:84] Creating Layer relu4_1
I0418 20:14:25.877133 17112 net.cpp:406] relu4_1 <- conv4_1
I0418 20:14:25.877142 17112 net.cpp:367] relu4_1 -> conv4_1 (in-place)
I0418 20:14:25.877485 17112 net.cpp:122] Setting up relu4_1
I0418 20:14:25.877501 17112 net.cpp:129] Top shape: 1 512 89 50 (2278400)
I0418 20:14:25.877516 17112 net.cpp:137] Memory required for data: 612779276
I0418 20:14:25.877521 17112 layer_factory.hpp:77] Creating layer conv4_2
I0418 20:14:25.877537 17112 net.cpp:84] Creating Layer conv4_2
I0418 20:14:25.877543 17112 net.cpp:406] conv4_2 <- conv4_1
I0418 20:14:25.877555 17112 net.cpp:380] conv4_2 -> conv4_2
I0418 20:14:25.890401 17112 net.cpp:122] Setting up conv4_2
I0418 20:14:25.890447 17112 net.cpp:129] Top shape: 1 512 89 50 (2278400)
I0418 20:14:25.890453 17112 net.cpp:137] Memory required for data: 621892876
I0418 20:14:25.890473 17112 layer_factory.hpp:77] Creating layer relu4_2
I0418 20:14:25.890489 17112 net.cpp:84] Creating Layer relu4_2
I0418 20:14:25.890496 17112 net.cpp:406] relu4_2 <- conv4_2
I0418 20:14:25.890503 17112 net.cpp:367] relu4_2 -> conv4_2 (in-place)
I0418 20:14:25.890770 17112 net.cpp:122] Setting up relu4_2
I0418 20:14:25.890782 17112 net.cpp:129] Top shape: 1 512 89 50 (2278400)
I0418 20:14:25.890786 17112 net.cpp:137] Memory required for data: 631006476
I0418 20:14:25.890790 17112 layer_factory.hpp:77] Creating layer conv4_3
I0418 20:14:25.890805 17112 net.cpp:84] Creating Layer conv4_3
I0418 20:14:25.890811 17112 net.cpp:406] conv4_3 <- conv4_2
I0418 20:14:25.890820 17112 net.cpp:380] conv4_3 -> conv4_3
I0418 20:14:25.902273 17112 net.cpp:122] Setting up conv4_3
I0418 20:14:25.902315 17112 net.cpp:129] Top shape: 1 512 89 50 (2278400)
I0418 20:14:25.902323 17112 net.cpp:137] Memory required for data: 640120076
I0418 20:14:25.902336 17112 layer_factory.hpp:77] Creating layer relu4_3
I0418 20:14:25.902357 17112 net.cpp:84] Creating Layer relu4_3
I0418 20:14:25.902365 17112 net.cpp:406] relu4_3 <- conv4_3
I0418 20:14:25.902379 17112 net.cpp:367] relu4_3 -> conv4_3 (in-place)
I0418 20:14:25.902696 17112 net.cpp:122] Setting up relu4_3
I0418 20:14:25.902711 17112 net.cpp:129] Top shape: 1 512 89 50 (2278400)
I0418 20:14:25.902726 17112 net.cpp:137] Memory required for data: 649233676
I0418 20:14:25.902732 17112 layer_factory.hpp:77] Creating layer pool4
I0418 20:14:25.902747 17112 net.cpp:84] Creating Layer pool4
I0418 20:14:25.902753 17112 net.cpp:406] pool4 <- conv4_3
I0418 20:14:25.902765 17112 net.cpp:380] pool4 -> pool4
I0418 20:14:25.902837 17112 net.cpp:122] Setting up pool4
I0418 20:14:25.902848 17112 net.cpp:129] Top shape: 1 512 45 25 (576000)
I0418 20:14:25.902853 17112 net.cpp:137] Memory required for data: 651537676
I0418 20:14:25.902859 17112 layer_factory.hpp:77] Creating layer pool4_pool4_0_split
I0418 20:14:25.902871 17112 net.cpp:84] Creating Layer pool4_pool4_0_split
I0418 20:14:25.902876 17112 net.cpp:406] pool4_pool4_0_split <- pool4
I0418 20:14:25.902885 17112 net.cpp:380] pool4_pool4_0_split -> pool4_pool4_0_split_0
I0418 20:14:25.902894 17112 net.cpp:380] pool4_pool4_0_split -> pool4_pool4_0_split_1
I0418 20:14:25.902952 17112 net.cpp:122] Setting up pool4_pool4_0_split
I0418 20:14:25.902963 17112 net.cpp:129] Top shape: 1 512 45 25 (576000)
I0418 20:14:25.902971 17112 net.cpp:129] Top shape: 1 512 45 25 (576000)
I0418 20:14:25.902976 17112 net.cpp:137] Memory required for data: 656145676
I0418 20:14:25.902981 17112 layer_factory.hpp:77] Creating layer conv5_1
I0418 20:14:25.902997 17112 net.cpp:84] Creating Layer conv5_1
I0418 20:14:25.903003 17112 net.cpp:406] conv5_1 <- pool4_pool4_0_split_0
I0418 20:14:25.903015 17112 net.cpp:380] conv5_1 -> conv5_1
I0418 20:14:25.913038 17112 net.cpp:122] Setting up conv5_1
I0418 20:14:25.913077 17112 net.cpp:129] Top shape: 1 512 45 25 (576000)
I0418 20:14:25.913084 17112 net.cpp:137] Memory required for data: 658449676
I0418 20:14:25.913094 17112 layer_factory.hpp:77] Creating layer relu5_1
I0418 20:14:25.913105 17112 net.cpp:84] Creating Layer relu5_1
I0418 20:14:25.913125 17112 net.cpp:406] relu5_1 <- conv5_1
I0418 20:14:25.913134 17112 net.cpp:367] relu5_1 -> conv5_1 (in-place)
I0418 20:14:25.913815 17112 net.cpp:122] Setting up relu5_1
I0418 20:14:25.913831 17112 net.cpp:129] Top shape: 1 512 45 25 (576000)
I0418 20:14:25.913846 17112 net.cpp:137] Memory required for data: 660753676
I0418 20:14:25.913851 17112 layer_factory.hpp:77] Creating layer conv5_2
I0418 20:14:25.913866 17112 net.cpp:84] Creating Layer conv5_2
I0418 20:14:25.913871 17112 net.cpp:406] conv5_2 <- conv5_1
I0418 20:14:25.913879 17112 net.cpp:380] conv5_2 -> conv5_2
I0418 20:14:25.921815 17112 net.cpp:122] Setting up conv5_2
I0418 20:14:25.921836 17112 net.cpp:129] Top shape: 1 512 45 25 (576000)
I0418 20:14:25.921852 17112 net.cpp:137] Memory required for data: 663057676
I0418 20:14:25.921861 17112 layer_factory.hpp:77] Creating layer relu5_2
I0418 20:14:25.921893 17112 net.cpp:84] Creating Layer relu5_2
I0418 20:14:25.921900 17112 net.cpp:406] relu5_2 <- conv5_2
I0418 20:14:25.921906 17112 net.cpp:367] relu5_2 -> conv5_2 (in-place)
I0418 20:14:25.922641 17112 net.cpp:122] Setting up relu5_2
I0418 20:14:25.922658 17112 net.cpp:129] Top shape: 1 512 45 25 (576000)
I0418 20:14:25.922663 17112 net.cpp:137] Memory required for data: 665361676
I0418 20:14:25.922667 17112 layer_factory.hpp:77] Creating layer conv5_3
I0418 20:14:25.922680 17112 net.cpp:84] Creating Layer conv5_3
I0418 20:14:25.922686 17112 net.cpp:406] conv5_3 <- conv5_2
I0418 20:14:25.922695 17112 net.cpp:380] conv5_3 -> conv5_3
I0418 20:14:25.931839 17112 net.cpp:122] Setting up conv5_3
I0418 20:14:25.931875 17112 net.cpp:129] Top shape: 1 512 45 25 (576000)
I0418 20:14:25.931881 17112 net.cpp:137] Memory required for data: 667665676
I0418 20:14:25.931890 17112 layer_factory.hpp:77] Creating layer relu5_3
I0418 20:14:25.931903 17112 net.cpp:84] Creating Layer relu5_3
I0418 20:14:25.931910 17112 net.cpp:406] relu5_3 <- conv5_3
I0418 20:14:25.931916 17112 net.cpp:367] relu5_3 -> conv5_3 (in-place)
I0418 20:14:25.932183 17112 net.cpp:122] Setting up relu5_3
I0418 20:14:25.932195 17112 net.cpp:129] Top shape: 1 512 45 25 (576000)
I0418 20:14:25.932199 17112 net.cpp:137] Memory required for data: 669969676
I0418 20:14:25.932204 17112 layer_factory.hpp:77] Creating layer pool5
I0418 20:14:25.932216 17112 net.cpp:84] Creating Layer pool5
I0418 20:14:25.932221 17112 net.cpp:406] pool5 <- conv5_3
I0418 20:14:25.932229 17112 net.cpp:380] pool5 -> pool5
I0418 20:14:25.932294 17112 net.cpp:122] Setting up pool5
I0418 20:14:25.932303 17112 net.cpp:129] Top shape: 1 512 23 13 (153088)
I0418 20:14:25.932307 17112 net.cpp:137] Memory required for data: 670582028
I0418 20:14:25.932312 17112 layer_factory.hpp:77] Creating layer fc6
I0418 20:14:25.932324 17112 net.cpp:84] Creating Layer fc6
I0418 20:14:25.932329 17112 net.cpp:406] fc6 <- pool5
I0418 20:14:25.932335 17112 net.cpp:380] fc6 -> fc6
I0418 20:14:26.237918 17112 net.cpp:122] Setting up fc6
I0418 20:14:26.237970 17112 net.cpp:129] Top shape: 1 4096 17 7 (487424)
I0418 20:14:26.237977 17112 net.cpp:137] Memory required for data: 672531724
I0418 20:14:26.237988 17112 layer_factory.hpp:77] Creating layer relu6
I0418 20:14:26.238003 17112 net.cpp:84] Creating Layer relu6
I0418 20:14:26.238025 17112 net.cpp:406] relu6 <- fc6
I0418 20:14:26.238034 17112 net.cpp:367] relu6 -> fc6 (in-place)
I0418 20:14:26.238288 17112 net.cpp:122] Setting up relu6
I0418 20:14:26.238301 17112 net.cpp:129] Top shape: 1 4096 17 7 (487424)
I0418 20:14:26.238306 17112 net.cpp:137] Memory required for data: 674481420
I0418 20:14:26.238309 17112 layer_factory.hpp:77] Creating layer drop6
I0418 20:14:26.238322 17112 net.cpp:84] Creating Layer drop6
I0418 20:14:26.238327 17112 net.cpp:406] drop6 <- fc6
I0418 20:14:26.238334 17112 net.cpp:367] drop6 -> fc6 (in-place)
I0418 20:14:26.238371 17112 net.cpp:122] Setting up drop6
I0418 20:14:26.238381 17112 net.cpp:129] Top shape: 1 4096 17 7 (487424)
I0418 20:14:26.238385 17112 net.cpp:137] Memory required for data: 676431116
I0418 20:14:26.238389 17112 layer_factory.hpp:77] Creating layer fc7
I0418 20:14:26.238401 17112 net.cpp:84] Creating Layer fc7
I0418 20:14:26.238405 17112 net.cpp:406] fc7 <- fc6
I0418 20:14:26.238415 17112 net.cpp:380] fc7 -> fc7
I0418 20:14:26.283325 17112 net.cpp:122] Setting up fc7
I0418 20:14:26.283380 17112 net.cpp:129] Top shape: 1 4096 17 7 (487424)
I0418 20:14:26.283385 17112 net.cpp:137] Memory required for data: 678380812
I0418 20:14:26.283397 17112 layer_factory.hpp:77] Creating layer relu7
I0418 20:14:26.283411 17112 net.cpp:84] Creating Layer relu7
I0418 20:14:26.283432 17112 net.cpp:406] relu7 <- fc7
I0418 20:14:26.283445 17112 net.cpp:367] relu7 -> fc7 (in-place)
I0418 20:14:26.283664 17112 net.cpp:122] Setting up relu7
I0418 20:14:26.283674 17112 net.cpp:129] Top shape: 1 4096 17 7 (487424)
I0418 20:14:26.283679 17112 net.cpp:137] Memory required for data: 680330508
I0418 20:14:26.283681 17112 layer_factory.hpp:77] Creating layer drop7
I0418 20:14:26.283690 17112 net.cpp:84] Creating Layer drop7
I0418 20:14:26.283694 17112 net.cpp:406] drop7 <- fc7
I0418 20:14:26.283700 17112 net.cpp:367] drop7 -> fc7 (in-place)
I0418 20:14:26.283733 17112 net.cpp:122] Setting up drop7
I0418 20:14:26.283743 17112 net.cpp:129] Top shape: 1 4096 17 7 (487424)
I0418 20:14:26.283746 17112 net.cpp:137] Memory required for data: 682280204
I0418 20:14:26.283749 17112 layer_factory.hpp:77] Creating layer score_fr-new
I0418 20:14:26.283759 17112 net.cpp:84] Creating Layer score_fr-new
I0418 20:14:26.283769 17112 net.cpp:406] score_fr-new <- fc7
I0418 20:14:26.283777 17112 net.cpp:380] score_fr-new -> score_fr-new
I0418 20:14:26.285653 17112 net.cpp:122] Setting up score_fr-new
I0418 20:14:26.285666 17112 net.cpp:129] Top shape: 1 3 17 7 (357)
I0418 20:14:26.285687 17112 net.cpp:137] Memory required for data: 682281632
I0418 20:14:26.285693 17112 layer_factory.hpp:77] Creating layer upscore2-new
I0418 20:14:26.285728 17112 net.cpp:84] Creating Layer upscore2-new
I0418 20:14:26.285733 17112 net.cpp:406] upscore2-new <- score_fr-new
I0418 20:14:26.285738 17112 net.cpp:380] upscore2-new -> upscore2-new
I0418 20:14:26.285967 17112 net.cpp:122] Setting up upscore2-new
I0418 20:14:26.285984 17112 net.cpp:129] Top shape: 1 3 36 16 (1728)
I0418 20:14:26.285986 17112 net.cpp:137] Memory required for data: 682288544
I0418 20:14:26.286001 17112 layer_factory.hpp:77] Creating layer upscore2-new_upscore2-new_0_split
I0418 20:14:26.286008 17112 net.cpp:84] Creating Layer upscore2-new_upscore2-new_0_split
I0418 20:14:26.286012 17112 net.cpp:406] upscore2-new_upscore2-new_0_split <- upscore2-new
I0418 20:14:26.286017 17112 net.cpp:380] upscore2-new_upscore2-new_0_split -> upscore2-new_upscore2-new_0_split_0
I0418 20:14:26.286023 17112 net.cpp:380] upscore2-new_upscore2-new_0_split -> upscore2-new_upscore2-new_0_split_1
I0418 20:14:26.286062 17112 net.cpp:122] Setting up upscore2-new_upscore2-new_0_split
I0418 20:14:26.286074 17112 net.cpp:129] Top shape: 1 3 36 16 (1728)
I0418 20:14:26.286078 17112 net.cpp:129] Top shape: 1 3 36 16 (1728)
I0418 20:14:26.286082 17112 net.cpp:137] Memory required for data: 682302368
I0418 20:14:26.286085 17112 layer_factory.hpp:77] Creating layer score_pool4-new
I0418 20:14:26.286094 17112 net.cpp:84] Creating Layer score_pool4-new
I0418 20:14:26.286098 17112 net.cpp:406] score_pool4-new <- pool4_pool4_0_split_1
I0418 20:14:26.286108 17112 net.cpp:380] score_pool4-new -> score_pool4-new
I0418 20:14:26.289429 17112 net.cpp:122] Setting up score_pool4-new
I0418 20:14:26.289480 17112 net.cpp:129] Top shape: 1 3 45 25 (3375)
I0418 20:14:26.289489 17112 net.cpp:137] Memory required for data: 682315868
I0418 20:14:26.289507 17112 layer_factory.hpp:77] Creating layer score_pool4c
I0418 20:14:26.289549 17112 net.cpp:84] Creating Layer score_pool4c
I0418 20:14:26.289561 17112 net.cpp:406] score_pool4c <- score_pool4-new
I0418 20:14:26.289572 17112 net.cpp:406] score_pool4c <- upscore2-new_upscore2-new_0_split_0
I0418 20:14:26.289584 17112 net.cpp:380] score_pool4c -> score_pool4c
I0418 20:14:26.289654 17112 net.cpp:122] Setting up score_pool4c
I0418 20:14:26.289677 17112 net.cpp:129] Top shape: 1 3 36 16 (1728)
I0418 20:14:26.289685 17112 net.cpp:137] Memory required for data: 682322780
I0418 20:14:26.289691 17112 layer_factory.hpp:77] Creating layer fuse_pool4
I0418 20:14:26.289706 17112 net.cpp:84] Creating Layer fuse_pool4
I0418 20:14:26.289713 17112 net.cpp:406] fuse_pool4 <- upscore2-new_upscore2-new_0_split_1
I0418 20:14:26.289726 17112 net.cpp:406] fuse_pool4 <- score_pool4c
I0418 20:14:26.289738 17112 net.cpp:380] fuse_pool4 -> fuse_pool4
I0418 20:14:26.289795 17112 net.cpp:122] Setting up fuse_pool4
I0418 20:14:26.289820 17112 net.cpp:129] Top shape: 1 3 36 16 (1728)
I0418 20:14:26.289826 17112 net.cpp:137] Memory required for data: 682329692
I0418 20:14:26.289832 17112 layer_factory.hpp:77] Creating layer upscore_pool4-new
I0418 20:14:26.289849 17112 net.cpp:84] Creating Layer upscore_pool4-new
I0418 20:14:26.289857 17112 net.cpp:406] upscore_pool4-new <- fuse_pool4
I0418 20:14:26.289867 17112 net.cpp:380] upscore_pool4-new -> upscore_pool4-new
I0418 20:14:26.290334 17112 net.cpp:122] Setting up upscore_pool4-new
I0418 20:14:26.290354 17112 net.cpp:129] Top shape: 1 3 74 34 (7548)
I0418 20:14:26.290359 17112 net.cpp:137] Memory required for data: 682359884
I0418 20:14:26.290377 17112 layer_factory.hpp:77] Creating layer upscore_pool4-new_upscore_pool4-new_0_split
I0418 20:14:26.290390 17112 net.cpp:84] Creating Layer upscore_pool4-new_upscore_pool4-new_0_split
I0418 20:14:26.290396 17112 net.cpp:406] upscore_pool4-new_upscore_pool4-new_0_split <- upscore_pool4-new
I0418 20:14:26.290416 17112 net.cpp:380] upscore_pool4-new_upscore_pool4-new_0_split -> upscore_pool4-new_upscore_pool4-new_0_split_0
I0418 20:14:26.290428 17112 net.cpp:380] upscore_pool4-new_upscore_pool4-new_0_split -> upscore_pool4-new_upscore_pool4-new_0_split_1
I0418 20:14:26.290501 17112 net.cpp:122] Setting up upscore_pool4-new_upscore_pool4-new_0_split
I0418 20:14:26.290516 17112 net.cpp:129] Top shape: 1 3 74 34 (7548)
I0418 20:14:26.290530 17112 net.cpp:129] Top shape: 1 3 74 34 (7548)
I0418 20:14:26.290541 17112 net.cpp:137] Memory required for data: 682420268
I0418 20:14:26.290547 17112 layer_factory.hpp:77] Creating layer score_pool3-new
I0418 20:14:26.290570 17112 net.cpp:84] Creating Layer score_pool3-new
I0418 20:14:26.290580 17112 net.cpp:406] score_pool3-new <- pool3_pool3_0_split_1
I0418 20:14:26.290591 17112 net.cpp:380] score_pool3-new -> score_pool3-new
I0418 20:14:26.293166 17112 net.cpp:122] Setting up score_pool3-new
I0418 20:14:26.293196 17112 net.cpp:129] Top shape: 1 3 89 50 (13350)
I0418 20:14:26.293218 17112 net.cpp:137] Memory required for data: 682473668
I0418 20:14:26.293233 17112 layer_factory.hpp:77] Creating layer score_pool3c
I0418 20:14:26.293249 17112 net.cpp:84] Creating Layer score_pool3c
I0418 20:14:26.293262 17112 net.cpp:406] score_pool3c <- score_pool3-new
I0418 20:14:26.293273 17112 net.cpp:406] score_pool3c <- upscore_pool4-new_upscore_pool4-new_0_split_0
I0418 20:14:26.293292 17112 net.cpp:380] score_pool3c -> score_pool3c
I0418 20:14:26.293352 17112 net.cpp:122] Setting up score_pool3c
I0418 20:14:26.293366 17112 net.cpp:129] Top shape: 1 3 74 34 (7548)
I0418 20:14:26.293375 17112 net.cpp:137] Memory required for data: 682503860
I0418 20:14:26.293382 17112 layer_factory.hpp:77] Creating layer fuse_pool3
I0418 20:14:26.293400 17112 net.cpp:84] Creating Layer fuse_pool3
I0418 20:14:26.293409 17112 net.cpp:406] fuse_pool3 <- upscore_pool4-new_upscore_pool4-new_0_split_1
I0418 20:14:26.293421 17112 net.cpp:406] fuse_pool3 <- score_pool3c
I0418 20:14:26.293434 17112 net.cpp:380] fuse_pool3 -> fuse_pool3
I0418 20:14:26.293486 17112 net.cpp:122] Setting up fuse_pool3
I0418 20:14:26.293499 17112 net.cpp:129] Top shape: 1 3 74 34 (7548)
I0418 20:14:26.293509 17112 net.cpp:137] Memory required for data: 682534052
I0418 20:14:26.293515 17112 layer_factory.hpp:77] Creating layer upscore8-new
I0418 20:14:26.293534 17112 net.cpp:84] Creating Layer upscore8-new
I0418 20:14:26.293543 17112 net.cpp:406] upscore8-new <- fuse_pool3
I0418 20:14:26.293557 17112 net.cpp:380] upscore8-new -> upscore8-new
I0418 20:14:26.294000 17112 net.cpp:122] Setting up upscore8-new
I0418 20:14:26.294018 17112 net.cpp:129] Top shape: 1 3 600 280 (504000)
I0418 20:14:26.294040 17112 net.cpp:137] Memory required for data: 684550052
I0418 20:14:26.294050 17112 layer_factory.hpp:77] Creating layer upscore8_cropped
I0418 20:14:26.294064 17112 net.cpp:84] Creating Layer upscore8_cropped
I0418 20:14:26.294073 17112 net.cpp:406] upscore8_cropped <- upscore8-new
I0418 20:14:26.294086 17112 net.cpp:406] upscore8_cropped <- data_data_0_split_1
I0418 20:14:26.294100 17112 net.cpp:380] upscore8_cropped -> upscore8_cropped
I0418 20:14:26.294147 17112 net.cpp:122] Setting up upscore8_cropped
I0418 20:14:26.294160 17112 net.cpp:129] Top shape: 1 3 512 199 (305664)
I0418 20:14:26.294203 17112 net.cpp:137] Memory required for data: 685772708
I0418 20:14:26.294212 17112 layer_factory.hpp:77] Creating layer score
I0418 20:14:26.294230 17112 net.cpp:84] Creating Layer score
I0418 20:14:26.294241 17112 net.cpp:406] score <- upscore8_cropped
I0418 20:14:26.294253 17112 net.cpp:380] score -> score
I0418 20:14:26.296598 17112 net.cpp:122] Setting up score
I0418 20:14:26.296613 17112 net.cpp:129] Top shape: 1 3 512 199 (305664)
I0418 20:14:26.296617 17112 net.cpp:137] Memory required for data: 686995364
I0418 20:14:26.296641 17112 layer_factory.hpp:77] Creating layer score_score_0_split
I0418 20:14:26.296648 17112 net.cpp:84] Creating Layer score_score_0_split
I0418 20:14:26.296653 17112 net.cpp:406] score_score_0_split <- score
I0418 20:14:26.296660 17112 net.cpp:380] score_score_0_split -> score_score_0_split_0
I0418 20:14:26.296667 17112 net.cpp:380] score_score_0_split -> score_score_0_split_1
I0418 20:14:26.296713 17112 net.cpp:122] Setting up score_score_0_split
I0418 20:14:26.296721 17112 net.cpp:129] Top shape: 1 3 512 199 (305664)
I0418 20:14:26.296725 17112 net.cpp:129] Top shape: 1 3 512 199 (305664)
I0418 20:14:26.296728 17112 net.cpp:137] Memory required for data: 689440676
I0418 20:14:26.296731 17112 layer_factory.hpp:77] Creating layer prob
I0418 20:14:26.296739 17112 net.cpp:84] Creating Layer prob
I0418 20:14:26.296743 17112 net.cpp:406] prob <- score_score_0_split_0
I0418 20:14:26.296747 17112 net.cpp:380] prob -> prob
I0418 20:14:26.296959 17112 net.cpp:122] Setting up prob
I0418 20:14:26.296969 17112 net.cpp:129] Top shape: 1 3 512 199 (305664)
I0418 20:14:26.296972 17112 net.cpp:137] Memory required for data: 690663332
I0418 20:14:26.296975 17112 layer_factory.hpp:77] Creating layer saliency
I0418 20:14:26.296986 17112 net.cpp:84] Creating Layer saliency
I0418 20:14:26.296990 17112 net.cpp:406] saliency <- prob
I0418 20:14:26.296999 17112 net.cpp:380] saliency -> saliency
I0418 20:14:26.298667 17112 net.cpp:122] Setting up saliency
I0418 20:14:26.298683 17112 net.cpp:129] Top shape: 1 3 512 199 (305664)
I0418 20:14:26.298686 17112 net.cpp:137] Memory required for data: 691885988
I0418 20:14:26.298712 17112 layer_factory.hpp:77] Creating layer silence_saliency
I0418 20:14:26.298720 17112 net.cpp:84] Creating Layer silence_saliency
I0418 20:14:26.298724 17112 net.cpp:406] silence_saliency <- saliency
I0418 20:14:26.298732 17112 net.cpp:122] Setting up silence_saliency
I0418 20:14:26.298733 17112 net.cpp:137] Memory required for data: 691885988
I0418 20:14:26.298737 17112 layer_factory.hpp:77] Creating layer crop
I0418 20:14:26.299160 17112 net.cpp:84] Creating Layer crop
I0418 20:14:26.299170 17112 net.cpp:406] crop <- label_data_1_split_0
I0418 20:14:26.299191 17112 net.cpp:406] crop <- data_data_0_split_2
I0418 20:14:26.299196 17112 net.cpp:406] crop <- crop_margin
I0418 20:14:26.299201 17112 net.cpp:406] crop <- crop_prob
I0418 20:14:26.299217 17112 net.cpp:406] crop <- crop_sample_batch
I0418 20:14:26.299223 17112 net.cpp:380] crop -> data-R
I0418 20:14:26.299230 17112 net.cpp:380] crop -> crop_info
I0418 20:14:26.304222 17112 net.cpp:122] Setting up crop
I0418 20:14:26.304240 17112 net.cpp:129] Top shape: 1 3 512 199 (305664)
I0418 20:14:26.304261 17112 net.cpp:129] Top shape: 1 2 4 (8)
I0418 20:14:26.304265 17112 net.cpp:137] Memory required for data: 693108676
I0418 20:14:26.304268 17112 layer_factory.hpp:77] Creating layer data-R_crop_0_split
I0418 20:14:26.304275 17112 net.cpp:84] Creating Layer data-R_crop_0_split
I0418 20:14:26.304278 17112 net.cpp:406] data-R_crop_0_split <- data-R
I0418 20:14:26.304287 17112 net.cpp:380] data-R_crop_0_split -> data-R_crop_0_split_0
I0418 20:14:26.304294 17112 net.cpp:380] data-R_crop_0_split -> data-R_crop_0_split_1
I0418 20:14:26.304350 17112 net.cpp:122] Setting up data-R_crop_0_split
I0418 20:14:26.304356 17112 net.cpp:129] Top shape: 1 3 512 199 (305664)
I0418 20:14:26.304360 17112 net.cpp:129] Top shape: 1 3 512 199 (305664)
I0418 20:14:26.304363 17112 net.cpp:137] Memory required for data: 695553988
I0418 20:14:26.304366 17112 layer_factory.hpp:77] Creating layer conv1_1-R
I0418 20:14:26.304375 17112 net.cpp:84] Creating Layer conv1_1-R
I0418 20:14:26.304379 17112 net.cpp:406] conv1_1-R <- data-R_crop_0_split_0
I0418 20:14:26.304388 17112 net.cpp:380] conv1_1-R -> conv1_1-R
I0418 20:14:26.310091 17112 net.cpp:122] Setting up conv1_1-R
I0418 20:14:26.310124 17112 net.cpp:129] Top shape: 1 64 710 397 (18039680)
I0418 20:14:26.310128 17112 net.cpp:137] Memory required for data: 767712708
I0418 20:14:26.310137 17112 layer_factory.hpp:77] Creating layer relu1_1-R
I0418 20:14:26.310151 17112 net.cpp:84] Creating Layer relu1_1-R
I0418 20:14:26.310156 17112 net.cpp:406] relu1_1-R <- conv1_1-R
I0418 20:14:26.310211 17112 net.cpp:367] relu1_1-R -> conv1_1-R (in-place)
I0418 20:14:26.310449 17112 net.cpp:122] Setting up relu1_1-R
I0418 20:14:26.310461 17112 net.cpp:129] Top shape: 1 64 710 397 (18039680)
I0418 20:14:26.310465 17112 net.cpp:137] Memory required for data: 839871428
I0418 20:14:26.310469 17112 layer_factory.hpp:77] Creating layer conv1_2-R
I0418 20:14:26.310488 17112 net.cpp:84] Creating Layer conv1_2-R
I0418 20:14:26.310493 17112 net.cpp:406] conv1_2-R <- conv1_1-R
I0418 20:14:26.310500 17112 net.cpp:380] conv1_2-R -> conv1_2-R
I0418 20:14:26.315796 17112 net.cpp:122] Setting up conv1_2-R
I0418 20:14:26.315840 17112 net.cpp:129] Top shape: 1 64 710 397 (18039680)
I0418 20:14:26.315848 17112 net.cpp:137] Memory required for data: 912030148
I0418 20:14:26.315865 17112 layer_factory.hpp:77] Creating layer relu1_2-R
I0418 20:14:26.315878 17112 net.cpp:84] Creating Layer relu1_2-R
I0418 20:14:26.315894 17112 net.cpp:406] relu1_2-R <- conv1_2-R
I0418 20:14:26.315914 17112 net.cpp:367] relu1_2-R -> conv1_2-R (in-place)
I0418 20:14:26.316331 17112 net.cpp:122] Setting up relu1_2-R
I0418 20:14:26.316350 17112 net.cpp:129] Top shape: 1 64 710 397 (18039680)
I0418 20:14:26.316368 17112 net.cpp:137] Memory required for data: 984188868
I0418 20:14:26.316376 17112 layer_factory.hpp:77] Creating layer pool1-R
I0418 20:14:26.316391 17112 net.cpp:84] Creating Layer pool1-R
I0418 20:14:26.316399 17112 net.cpp:406] pool1-R <- conv1_2-R
I0418 20:14:26.316421 17112 net.cpp:380] pool1-R -> pool1-R
I0418 20:14:26.316519 17112 net.cpp:122] Setting up pool1-R
I0418 20:14:26.316534 17112 net.cpp:129] Top shape: 1 64 355 199 (4521280)
I0418 20:14:26.316545 17112 net.cpp:137] Memory required for data: 1002273988
I0418 20:14:26.316552 17112 layer_factory.hpp:77] Creating layer conv2_1-R
I0418 20:14:26.316588 17112 net.cpp:84] Creating Layer conv2_1-R
I0418 20:14:26.316598 17112 net.cpp:406] conv2_1-R <- pool1-R
I0418 20:14:26.316614 17112 net.cpp:380] conv2_1-R -> conv2_1-R
I0418 20:14:26.319175 17112 net.cpp:122] Setting up conv2_1-R
I0418 20:14:26.319190 17112 net.cpp:129] Top shape: 1 128 355 199 (9042560)
I0418 20:14:26.319195 17112 net.cpp:137] Memory required for data: 1038444228
I0418 20:14:26.319202 17112 layer_factory.hpp:77] Creating layer relu2_1-R
I0418 20:14:26.319211 17112 net.cpp:84] Creating Layer relu2_1-R
I0418 20:14:26.319216 17112 net.cpp:406] relu2_1-R <- conv2_1-R
I0418 20:14:26.319221 17112 net.cpp:367] relu2_1-R -> conv2_1-R (in-place)
I0418 20:14:26.319428 17112 net.cpp:122] Setting up relu2_1-R
I0418 20:14:26.319439 17112 net.cpp:129] Top shape: 1 128 355 199 (9042560)
I0418 20:14:26.319443 17112 net.cpp:137] Memory required for data: 1074614468
I0418 20:14:26.319447 17112 layer_factory.hpp:77] Creating layer conv2_2-R
I0418 20:14:26.319456 17112 net.cpp:84] Creating Layer conv2_2-R
I0418 20:14:26.319460 17112 net.cpp:406] conv2_2-R <- conv2_1-R
I0418 20:14:26.319468 17112 net.cpp:380] conv2_2-R -> conv2_2-R
I0418 20:14:26.321293 17112 net.cpp:122] Setting up conv2_2-R
I0418 20:14:26.321310 17112 net.cpp:129] Top shape: 1 128 355 199 (9042560)
I0418 20:14:26.321331 17112 net.cpp:137] Memory required for data: 1110784708
I0418 20:14:26.321337 17112 layer_factory.hpp:77] Creating layer relu2_2-R
I0418 20:14:26.321344 17112 net.cpp:84] Creating Layer relu2_2-R
I0418 20:14:26.321348 17112 net.cpp:406] relu2_2-R <- conv2_2-R
I0418 20:14:26.321354 17112 net.cpp:367] relu2_2-R -> conv2_2-R (in-place)
I0418 20:14:26.321967 17112 net.cpp:122] Setting up relu2_2-R
I0418 20:14:26.321981 17112 net.cpp:129] Top shape: 1 128 355 199 (9042560)
I0418 20:14:26.322001 17112 net.cpp:137] Memory required for data: 1146954948
I0418 20:14:26.322005 17112 layer_factory.hpp:77] Creating layer pool2-R
I0418 20:14:26.322015 17112 net.cpp:84] Creating Layer pool2-R
I0418 20:14:26.322018 17112 net.cpp:406] pool2-R <- conv2_2-R
I0418 20:14:26.322026 17112 net.cpp:380] pool2-R -> pool2-R
I0418 20:14:26.322074 17112 net.cpp:122] Setting up pool2-R
I0418 20:14:26.322099 17112 net.cpp:129] Top shape: 1 128 178 100 (2278400)
I0418 20:14:26.322103 17112 net.cpp:137] Memory required for data: 1156068548
I0418 20:14:26.322106 17112 layer_factory.hpp:77] Creating layer conv3_1-R
I0418 20:14:26.322116 17112 net.cpp:84] Creating Layer conv3_1-R
I0418 20:14:26.322120 17112 net.cpp:406] conv3_1-R <- pool2-R
I0418 20:14:26.322127 17112 net.cpp:380] conv3_1-R -> conv3_1-R
I0418 20:14:26.325202 17112 net.cpp:122] Setting up conv3_1-R
I0418 20:14:26.325218 17112 net.cpp:129] Top shape: 1 256 178 100 (4556800)
I0418 20:14:26.325239 17112 net.cpp:137] Memory required for data: 1174295748
I0418 20:14:26.325248 17112 layer_factory.hpp:77] Creating layer relu3_1-R
I0418 20:14:26.325255 17112 net.cpp:84] Creating Layer relu3_1-R
I0418 20:14:26.325260 17112 net.cpp:406] relu3_1-R <- conv3_1-R
I0418 20:14:26.325266 17112 net.cpp:367] relu3_1-R -> conv3_1-R (in-place)
I0418 20:14:26.325470 17112 net.cpp:122] Setting up relu3_1-R
I0418 20:14:26.325481 17112 net.cpp:129] Top shape: 1 256 178 100 (4556800)
I0418 20:14:26.325485 17112 net.cpp:137] Memory required for data: 1192522948
I0418 20:14:26.325489 17112 layer_factory.hpp:77] Creating layer conv3_2-R
I0418 20:14:26.325498 17112 net.cpp:84] Creating Layer conv3_2-R
I0418 20:14:26.325502 17112 net.cpp:406] conv3_2-R <- conv3_1-R
I0418 20:14:26.325510 17112 net.cpp:380] conv3_2-R -> conv3_2-R
I0418 20:14:26.332011 17112 net.cpp:122] Setting up conv3_2-R
I0418 20:14:26.332034 17112 net.cpp:129] Top shape: 1 256 178 100 (4556800)
I0418 20:14:26.332047 17112 net.cpp:137] Memory required for data: 1210750148
I0418 20:14:26.332060 17112 layer_factory.hpp:77] Creating layer relu3_2-R
I0418 20:14:26.332070 17112 net.cpp:84] Creating Layer relu3_2-R
I0418 20:14:26.332077 17112 net.cpp:406] relu3_2-R <- conv3_2-R
I0418 20:14:26.332087 17112 net.cpp:367] relu3_2-R -> conv3_2-R (in-place)
I0418 20:14:26.332406 17112 net.cpp:122] Setting up relu3_2-R
I0418 20:14:26.332425 17112 net.cpp:129] Top shape: 1 256 178 100 (4556800)
I0418 20:14:26.332430 17112 net.cpp:137] Memory required for data: 1228977348
I0418 20:14:26.332437 17112 layer_factory.hpp:77] Creating layer conv3_3-R
I0418 20:14:26.332456 17112 net.cpp:84] Creating Layer conv3_3-R
I0418 20:14:26.332463 17112 net.cpp:406] conv3_3-R <- conv3_2-R
I0418 20:14:26.332473 17112 net.cpp:380] conv3_3-R -> conv3_3-R
I0418 20:14:26.337627 17112 net.cpp:122] Setting up conv3_3-R
I0418 20:14:26.337649 17112 net.cpp:129] Top shape: 1 256 178 100 (4556800)
I0418 20:14:26.337666 17112 net.cpp:137] Memory required for data: 1247204548
I0418 20:14:26.337678 17112 layer_factory.hpp:77] Creating layer relu3_3-R
I0418 20:14:26.337688 17112 net.cpp:84] Creating Layer relu3_3-R
I0418 20:14:26.337695 17112 net.cpp:406] relu3_3-R <- conv3_3-R
I0418 20:14:26.337703 17112 net.cpp:367] relu3_3-R -> conv3_3-R (in-place)
I0418 20:14:26.338003 17112 net.cpp:122] Setting up relu3_3-R
I0418 20:14:26.338017 17112 net.cpp:129] Top shape: 1 256 178 100 (4556800)
I0418 20:14:26.338022 17112 net.cpp:137] Memory required for data: 1265431748
I0418 20:14:26.338028 17112 layer_factory.hpp:77] Creating layer pool3-R
I0418 20:14:26.338039 17112 net.cpp:84] Creating Layer pool3-R
I0418 20:14:26.338045 17112 net.cpp:406] pool3-R <- conv3_3-R
I0418 20:14:26.338054 17112 net.cpp:380] pool3-R -> pool3-R
I0418 20:14:26.338127 17112 net.cpp:122] Setting up pool3-R
I0418 20:14:26.338138 17112 net.cpp:129] Top shape: 1 256 89 50 (1139200)
I0418 20:14:26.338143 17112 net.cpp:137] Memory required for data: 1269988548
I0418 20:14:26.338148 17112 layer_factory.hpp:77] Creating layer pool3-R_pool3-R_0_split
I0418 20:14:26.338158 17112 net.cpp:84] Creating Layer pool3-R_pool3-R_0_split
I0418 20:14:26.338173 17112 net.cpp:406] pool3-R_pool3-R_0_split <- pool3-R
I0418 20:14:26.338193 17112 net.cpp:380] pool3-R_pool3-R_0_split -> pool3-R_pool3-R_0_split_0
I0418 20:14:26.338203 17112 net.cpp:380] pool3-R_pool3-R_0_split -> pool3-R_pool3-R_0_split_1
I0418 20:14:26.338271 17112 net.cpp:122] Setting up pool3-R_pool3-R_0_split
I0418 20:14:26.338282 17112 net.cpp:129] Top shape: 1 256 89 50 (1139200)
I0418 20:14:26.338289 17112 net.cpp:129] Top shape: 1 256 89 50 (1139200)
I0418 20:14:26.338294 17112 net.cpp:137] Memory required for data: 1279102148
I0418 20:14:26.338299 17112 layer_factory.hpp:77] Creating layer conv4_1-R
I0418 20:14:26.338311 17112 net.cpp:84] Creating Layer conv4_1-R
I0418 20:14:26.338317 17112 net.cpp:406] conv4_1-R <- pool3-R_pool3-R_0_split_0
I0418 20:14:26.338325 17112 net.cpp:380] conv4_1-R -> conv4_1-R
I0418 20:14:26.344365 17112 net.cpp:122] Setting up conv4_1-R
I0418 20:14:26.344380 17112 net.cpp:129] Top shape: 1 512 89 50 (2278400)
I0418 20:14:26.344400 17112 net.cpp:137] Memory required for data: 1288215748
I0418 20:14:26.344408 17112 layer_factory.hpp:77] Creating layer relu4_1-R
I0418 20:14:26.344415 17112 net.cpp:84] Creating Layer relu4_1-R
I0418 20:14:26.344420 17112 net.cpp:406] relu4_1-R <- conv4_1-R
I0418 20:14:26.344426 17112 net.cpp:367] relu4_1-R -> conv4_1-R (in-place)
I0418 20:14:26.344627 17112 net.cpp:122] Setting up relu4_1-R
I0418 20:14:26.344638 17112 net.cpp:129] Top shape: 1 512 89 50 (2278400)
I0418 20:14:26.344641 17112 net.cpp:137] Memory required for data: 1297329348
I0418 20:14:26.344645 17112 layer_factory.hpp:77] Creating layer conv4_2-R
I0418 20:14:26.344655 17112 net.cpp:84] Creating Layer conv4_2-R
I0418 20:14:26.344658 17112 net.cpp:406] conv4_2-R <- conv4_1-R
I0418 20:14:26.344664 17112 net.cpp:380] conv4_2-R -> conv4_2-R
I0418 20:14:26.351685 17112 net.cpp:122] Setting up conv4_2-R
I0418 20:14:26.351718 17112 net.cpp:129] Top shape: 1 512 89 50 (2278400)
I0418 20:14:26.351722 17112 net.cpp:137] Memory required for data: 1306442948
I0418 20:14:26.351730 17112 layer_factory.hpp:77] Creating layer relu4_2-R
I0418 20:14:26.351738 17112 net.cpp:84] Creating Layer relu4_2-R
I0418 20:14:26.351742 17112 net.cpp:406] relu4_2-R <- conv4_2-R
I0418 20:14:26.351748 17112 net.cpp:367] relu4_2-R -> conv4_2-R (in-place)
I0418 20:14:26.351941 17112 net.cpp:122] Setting up relu4_2-R
I0418 20:14:26.351951 17112 net.cpp:129] Top shape: 1 512 89 50 (2278400)
I0418 20:14:26.351955 17112 net.cpp:137] Memory required for data: 1315556548
I0418 20:14:26.351959 17112 layer_factory.hpp:77] Creating layer conv4_3-R
I0418 20:14:26.351969 17112 net.cpp:84] Creating Layer conv4_3-R
I0418 20:14:26.351974 17112 net.cpp:406] conv4_3-R <- conv4_2-R
I0418 20:14:26.351980 17112 net.cpp:380] conv4_3-R -> conv4_3-R
I0418 20:14:26.358932 17112 net.cpp:122] Setting up conv4_3-R
I0418 20:14:26.358966 17112 net.cpp:129] Top shape: 1 512 89 50 (2278400)
I0418 20:14:26.358970 17112 net.cpp:137] Memory required for data: 1324670148
I0418 20:14:26.358978 17112 layer_factory.hpp:77] Creating layer relu4_3-R
I0418 20:14:26.358984 17112 net.cpp:84] Creating Layer relu4_3-R
I0418 20:14:26.358989 17112 net.cpp:406] relu4_3-R <- conv4_3-R
I0418 20:14:26.358994 17112 net.cpp:367] relu4_3-R -> conv4_3-R (in-place)
I0418 20:14:26.359654 17112 net.cpp:122] Setting up relu4_3-R
I0418 20:14:26.359668 17112 net.cpp:129] Top shape: 1 512 89 50 (2278400)
I0418 20:14:26.359686 17112 net.cpp:137] Memory required for data: 1333783748
I0418 20:14:26.359690 17112 layer_factory.hpp:77] Creating layer pool4-R
I0418 20:14:26.359700 17112 net.cpp:84] Creating Layer pool4-R
I0418 20:14:26.359704 17112 net.cpp:406] pool4-R <- conv4_3-R
I0418 20:14:26.359711 17112 net.cpp:380] pool4-R -> pool4-R
I0418 20:14:26.359760 17112 net.cpp:122] Setting up pool4-R
I0418 20:14:26.359766 17112 net.cpp:129] Top shape: 1 512 45 25 (576000)
I0418 20:14:26.359769 17112 net.cpp:137] Memory required for data: 1336087748
I0418 20:14:26.359772 17112 layer_factory.hpp:77] Creating layer pool4-R_pool4-R_0_split
I0418 20:14:26.359778 17112 net.cpp:84] Creating Layer pool4-R_pool4-R_0_split
I0418 20:14:26.359781 17112 net.cpp:406] pool4-R_pool4-R_0_split <- pool4-R
I0418 20:14:26.359786 17112 net.cpp:380] pool4-R_pool4-R_0_split -> pool4-R_pool4-R_0_split_0
I0418 20:14:26.359792 17112 net.cpp:380] pool4-R_pool4-R_0_split -> pool4-R_pool4-R_0_split_1
I0418 20:14:26.359825 17112 net.cpp:122] Setting up pool4-R_pool4-R_0_split
I0418 20:14:26.359830 17112 net.cpp:129] Top shape: 1 512 45 25 (576000)
I0418 20:14:26.359834 17112 net.cpp:129] Top shape: 1 512 45 25 (576000)
I0418 20:14:26.359836 17112 net.cpp:137] Memory required for data: 1340695748
I0418 20:14:26.359839 17112 layer_factory.hpp:77] Creating layer conv5_1-R
I0418 20:14:26.359848 17112 net.cpp:84] Creating Layer conv5_1-R
I0418 20:14:26.359850 17112 net.cpp:406] conv5_1-R <- pool4-R_pool4-R_0_split_0
I0418 20:14:26.359856 17112 net.cpp:380] conv5_1-R -> conv5_1-R
I0418 20:14:26.366807 17112 net.cpp:122] Setting up conv5_1-R
I0418 20:14:26.366842 17112 net.cpp:129] Top shape: 1 512 45 25 (576000)
I0418 20:14:26.366847 17112 net.cpp:137] Memory required for data: 1342999748
I0418 20:14:26.366871 17112 layer_factory.hpp:77] Creating layer relu5_1-R
I0418 20:14:26.366881 17112 net.cpp:84] Creating Layer relu5_1-R
I0418 20:14:26.366885 17112 net.cpp:406] relu5_1-R <- conv5_1-R
I0418 20:14:26.366891 17112 net.cpp:367] relu5_1-R -> conv5_1-R (in-place)
I0418 20:14:26.367099 17112 net.cpp:122] Setting up relu5_1-R
I0418 20:14:26.367110 17112 net.cpp:129] Top shape: 1 512 45 25 (576000)
I0418 20:14:26.367112 17112 net.cpp:137] Memory required for data: 1345303748
I0418 20:14:26.367116 17112 layer_factory.hpp:77] Creating layer conv5_2-R
I0418 20:14:26.367126 17112 net.cpp:84] Creating Layer conv5_2-R
I0418 20:14:26.367130 17112 net.cpp:406] conv5_2-R <- conv5_1-R
I0418 20:14:26.367137 17112 net.cpp:380] conv5_2-R -> conv5_2-R
I0418 20:14:26.374405 17112 net.cpp:122] Setting up conv5_2-R
I0418 20:14:26.374439 17112 net.cpp:129] Top shape: 1 512 45 25 (576000)
I0418 20:14:26.374444 17112 net.cpp:137] Memory required for data: 1347607748
I0418 20:14:26.374451 17112 layer_factory.hpp:77] Creating layer relu5_2-R
I0418 20:14:26.374461 17112 net.cpp:84] Creating Layer relu5_2-R
I0418 20:14:26.374466 17112 net.cpp:406] relu5_2-R <- conv5_2-R
I0418 20:14:26.374472 17112 net.cpp:367] relu5_2-R -> conv5_2-R (in-place)
I0418 20:14:26.374706 17112 net.cpp:122] Setting up relu5_2-R
I0418 20:14:26.374716 17112 net.cpp:129] Top shape: 1 512 45 25 (576000)
I0418 20:14:26.374719 17112 net.cpp:137] Memory required for data: 1349911748
I0418 20:14:26.374723 17112 layer_factory.hpp:77] Creating layer conv5_3-R
I0418 20:14:26.374734 17112 net.cpp:84] Creating Layer conv5_3-R
I0418 20:14:26.374738 17112 net.cpp:406] conv5_3-R <- conv5_2-R
I0418 20:14:26.374745 17112 net.cpp:380] conv5_3-R -> conv5_3-R
I0418 20:14:26.381781 17112 net.cpp:122] Setting up conv5_3-R
I0418 20:14:26.381798 17112 net.cpp:129] Top shape: 1 512 45 25 (576000)
I0418 20:14:26.381819 17112 net.cpp:137] Memory required for data: 1352215748
I0418 20:14:26.381826 17112 layer_factory.hpp:77] Creating layer relu5_3-R
I0418 20:14:26.381834 17112 net.cpp:84] Creating Layer relu5_3-R
I0418 20:14:26.381837 17112 net.cpp:406] relu5_3-R <- conv5_3-R
I0418 20:14:26.381845 17112 net.cpp:367] relu5_3-R -> conv5_3-R (in-place)
I0418 20:14:26.382050 17112 net.cpp:122] Setting up relu5_3-R
I0418 20:14:26.382059 17112 net.cpp:129] Top shape: 1 512 45 25 (576000)
I0418 20:14:26.382063 17112 net.cpp:137] Memory required for data: 1354519748
I0418 20:14:26.382066 17112 layer_factory.hpp:77] Creating layer pool5-R
I0418 20:14:26.382076 17112 net.cpp:84] Creating Layer pool5-R
I0418 20:14:26.382081 17112 net.cpp:406] pool5-R <- conv5_3-R
I0418 20:14:26.382086 17112 net.cpp:380] pool5-R -> pool5-R
I0418 20:14:26.382138 17112 net.cpp:122] Setting up pool5-R
I0418 20:14:26.382144 17112 net.cpp:129] Top shape: 1 512 23 13 (153088)
I0418 20:14:26.382148 17112 net.cpp:137] Memory required for data: 1355132100
I0418 20:14:26.382151 17112 layer_factory.hpp:77] Creating layer fc6-R
I0418 20:14:26.382169 17112 net.cpp:84] Creating Layer fc6-R
I0418 20:14:26.382189 17112 net.cpp:406] fc6-R <- pool5-R
I0418 20:14:26.382194 17112 net.cpp:380] fc6-R -> fc6-R
I0418 20:14:26.649483 17112 net.cpp:122] Setting up fc6-R
I0418 20:14:26.649529 17112 net.cpp:129] Top shape: 1 4096 17 7 (487424)
I0418 20:14:26.649533 17112 net.cpp:137] Memory required for data: 1357081796
I0418 20:14:26.649544 17112 layer_factory.hpp:77] Creating layer relu6-R
I0418 20:14:26.649554 17112 net.cpp:84] Creating Layer relu6-R
I0418 20:14:26.649561 17112 net.cpp:406] relu6-R <- fc6-R
I0418 20:14:26.649567 17112 net.cpp:367] relu6-R -> fc6-R (in-place)
I0418 20:14:26.649796 17112 net.cpp:122] Setting up relu6-R
I0418 20:14:26.649806 17112 net.cpp:129] Top shape: 1 4096 17 7 (487424)
I0418 20:14:26.649809 17112 net.cpp:137] Memory required for data: 1359031492
I0418 20:14:26.649813 17112 layer_factory.hpp:77] Creating layer drop6-R
I0418 20:14:26.649821 17112 net.cpp:84] Creating Layer drop6-R
I0418 20:14:26.649826 17112 net.cpp:406] drop6-R <- fc6-R
I0418 20:14:26.649830 17112 net.cpp:367] drop6-R -> fc6-R (in-place)
I0418 20:14:26.649868 17112 net.cpp:122] Setting up drop6-R
I0418 20:14:26.649885 17112 net.cpp:129] Top shape: 1 4096 17 7 (487424)
I0418 20:14:26.649889 17112 net.cpp:137] Memory required for data: 1360981188
I0418 20:14:26.649893 17112 layer_factory.hpp:77] Creating layer fc7-R
I0418 20:14:26.649904 17112 net.cpp:84] Creating Layer fc7-R
I0418 20:14:26.649907 17112 net.cpp:406] fc7-R <- fc6-R
I0418 20:14:26.649914 17112 net.cpp:380] fc7-R -> fc7-R
I0418 20:14:26.695962 17112 net.cpp:122] Setting up fc7-R
I0418 20:14:26.696015 17112 net.cpp:129] Top shape: 1 4096 17 7 (487424)
I0418 20:14:26.696019 17112 net.cpp:137] Memory required for data: 1362930884
I0418 20:14:26.696029 17112 layer_factory.hpp:77] Creating layer relu7-R
I0418 20:14:26.696043 17112 net.cpp:84] Creating Layer relu7-R
I0418 20:14:26.696048 17112 net.cpp:406] relu7-R <- fc7-R
I0418 20:14:26.696058 17112 net.cpp:367] relu7-R -> fc7-R (in-place)
I0418 20:14:26.696305 17112 net.cpp:122] Setting up relu7-R
I0418 20:14:26.696315 17112 net.cpp:129] Top shape: 1 4096 17 7 (487424)
I0418 20:14:26.696317 17112 net.cpp:137] Memory required for data: 1364880580
I0418 20:14:26.696321 17112 layer_factory.hpp:77] Creating layer drop7-R
I0418 20:14:26.696344 17112 net.cpp:84] Creating Layer drop7-R
I0418 20:14:26.696348 17112 net.cpp:406] drop7-R <- fc7-R
I0418 20:14:26.696353 17112 net.cpp:367] drop7-R -> fc7-R (in-place)
I0418 20:14:26.696398 17112 net.cpp:122] Setting up drop7-R
I0418 20:14:26.696408 17112 net.cpp:129] Top shape: 1 4096 17 7 (487424)
I0418 20:14:26.696411 17112 net.cpp:137] Memory required for data: 1366830276
I0418 20:14:26.696414 17112 layer_factory.hpp:77] Creating layer score_fr-new-R
I0418 20:14:26.696425 17112 net.cpp:84] Creating Layer score_fr-new-R
I0418 20:14:26.696429 17112 net.cpp:406] score_fr-new-R <- fc7-R
I0418 20:14:26.696437 17112 net.cpp:380] score_fr-new-R -> score_fr-new-R
I0418 20:14:26.697777 17112 net.cpp:122] Setting up score_fr-new-R
I0418 20:14:26.697805 17112 net.cpp:129] Top shape: 1 3 17 7 (357)
I0418 20:14:26.697809 17112 net.cpp:137] Memory required for data: 1366831704
I0418 20:14:26.697815 17112 layer_factory.hpp:77] Creating layer upscore2-new-R
I0418 20:14:26.697826 17112 net.cpp:84] Creating Layer upscore2-new-R
I0418 20:14:26.697830 17112 net.cpp:406] upscore2-new-R <- score_fr-new-R
I0418 20:14:26.697836 17112 net.cpp:380] upscore2-new-R -> upscore2-new-R
I0418 20:14:26.698091 17112 net.cpp:122] Setting up upscore2-new-R
I0418 20:14:26.698101 17112 net.cpp:129] Top shape: 1 3 36 16 (1728)
I0418 20:14:26.698103 17112 net.cpp:137] Memory required for data: 1366838616
I0418 20:14:26.698108 17112 layer_factory.hpp:77] Creating layer upscore2-new-R_upscore2-new-R_0_split
I0418 20:14:26.698117 17112 net.cpp:84] Creating Layer upscore2-new-R_upscore2-new-R_0_split
I0418 20:14:26.698120 17112 net.cpp:406] upscore2-new-R_upscore2-new-R_0_split <- upscore2-new-R
I0418 20:14:26.698125 17112 net.cpp:380] upscore2-new-R_upscore2-new-R_0_split -> upscore2-new-R_upscore2-new-R_0_split_0
I0418 20:14:26.698132 17112 net.cpp:380] upscore2-new-R_upscore2-new-R_0_split -> upscore2-new-R_upscore2-new-R_0_split_1
I0418 20:14:26.698192 17112 net.cpp:122] Setting up upscore2-new-R_upscore2-new-R_0_split
I0418 20:14:26.698199 17112 net.cpp:129] Top shape: 1 3 36 16 (1728)
I0418 20:14:26.698202 17112 net.cpp:129] Top shape: 1 3 36 16 (1728)
I0418 20:14:26.698205 17112 net.cpp:137] Memory required for data: 1366852440
I0418 20:14:26.698209 17112 layer_factory.hpp:77] Creating layer score_pool4-new-R
I0418 20:14:26.698220 17112 net.cpp:84] Creating Layer score_pool4-new-R
I0418 20:14:26.698223 17112 net.cpp:406] score_pool4-new-R <- pool4-R_pool4-R_0_split_1
I0418 20:14:26.698230 17112 net.cpp:380] score_pool4-new-R -> score_pool4-new-R
I0418 20:14:26.699589 17112 net.cpp:122] Setting up score_pool4-new-R
I0418 20:14:26.699620 17112 net.cpp:129] Top shape: 1 3 45 25 (3375)
I0418 20:14:26.699623 17112 net.cpp:137] Memory required for data: 1366865940
I0418 20:14:26.699630 17112 layer_factory.hpp:77] Creating layer score_pool4c-R
I0418 20:14:26.699637 17112 net.cpp:84] Creating Layer score_pool4c-R
I0418 20:14:26.699641 17112 net.cpp:406] score_pool4c-R <- score_pool4-new-R
I0418 20:14:26.699645 17112 net.cpp:406] score_pool4c-R <- upscore2-new-R_upscore2-new-R_0_split_0
I0418 20:14:26.699651 17112 net.cpp:380] score_pool4c-R -> score_pool4c-R
I0418 20:14:26.699700 17112 net.cpp:122] Setting up score_pool4c-R
I0418 20:14:26.699707 17112 net.cpp:129] Top shape: 1 3 36 16 (1728)
I0418 20:14:26.699709 17112 net.cpp:137] Memory required for data: 1366872852
I0418 20:14:26.699712 17112 layer_factory.hpp:77] Creating layer fuse_pool4-R
I0418 20:14:26.699721 17112 net.cpp:84] Creating Layer fuse_pool4-R
I0418 20:14:26.699725 17112 net.cpp:406] fuse_pool4-R <- upscore2-new-R_upscore2-new-R_0_split_1
I0418 20:14:26.699729 17112 net.cpp:406] fuse_pool4-R <- score_pool4c-R
I0418 20:14:26.699734 17112 net.cpp:380] fuse_pool4-R -> fuse_pool4-R
I0418 20:14:26.699777 17112 net.cpp:122] Setting up fuse_pool4-R
I0418 20:14:26.699782 17112 net.cpp:129] Top shape: 1 3 36 16 (1728)
I0418 20:14:26.699785 17112 net.cpp:137] Memory required for data: 1366879764
I0418 20:14:26.699789 17112 layer_factory.hpp:77] Creating layer upscore_pool4-new-R
I0418 20:14:26.699796 17112 net.cpp:84] Creating Layer upscore_pool4-new-R
I0418 20:14:26.699800 17112 net.cpp:406] upscore_pool4-new-R <- fuse_pool4-R
I0418 20:14:26.699805 17112 net.cpp:380] upscore_pool4-new-R -> upscore_pool4-new-R
I0418 20:14:26.700040 17112 net.cpp:122] Setting up upscore_pool4-new-R
I0418 20:14:26.700048 17112 net.cpp:129] Top shape: 1 3 74 34 (7548)
I0418 20:14:26.700052 17112 net.cpp:137] Memory required for data: 1366909956
I0418 20:14:26.700057 17112 layer_factory.hpp:77] Creating layer upscore_pool4-new-R_upscore_pool4-new-R_0_split
I0418 20:14:26.700062 17112 net.cpp:84] Creating Layer upscore_pool4-new-R_upscore_pool4-new-R_0_split
I0418 20:14:26.700065 17112 net.cpp:406] upscore_pool4-new-R_upscore_pool4-new-R_0_split <- upscore_pool4-new-R
I0418 20:14:26.700073 17112 net.cpp:380] upscore_pool4-new-R_upscore_pool4-new-R_0_split -> upscore_pool4-new-R_upscore_pool4-new-R_0_split_0
I0418 20:14:26.700078 17112 net.cpp:380] upscore_pool4-new-R_upscore_pool4-new-R_0_split -> upscore_pool4-new-R_upscore_pool4-new-R_0_split_1
I0418 20:14:26.700121 17112 net.cpp:122] Setting up upscore_pool4-new-R_upscore_pool4-new-R_0_split
I0418 20:14:26.700132 17112 net.cpp:129] Top shape: 1 3 74 34 (7548)
I0418 20:14:26.700136 17112 net.cpp:129] Top shape: 1 3 74 34 (7548)
I0418 20:14:26.700139 17112 net.cpp:137] Memory required for data: 1366970340
I0418 20:14:26.700142 17112 layer_factory.hpp:77] Creating layer score_pool3-new-R
I0418 20:14:26.700151 17112 net.cpp:84] Creating Layer score_pool3-new-R
I0418 20:14:26.700156 17112 net.cpp:406] score_pool3-new-R <- pool3-R_pool3-R_0_split_1
I0418 20:14:26.700161 17112 net.cpp:380] score_pool3-new-R -> score_pool3-new-R
I0418 20:14:26.701434 17112 net.cpp:122] Setting up score_pool3-new-R
I0418 20:14:26.701463 17112 net.cpp:129] Top shape: 1 3 89 50 (13350)
I0418 20:14:26.701467 17112 net.cpp:137] Memory required for data: 1367023740
I0418 20:14:26.701473 17112 layer_factory.hpp:77] Creating layer score_pool3c-R
I0418 20:14:26.701479 17112 net.cpp:84] Creating Layer score_pool3c-R
I0418 20:14:26.701483 17112 net.cpp:406] score_pool3c-R <- score_pool3-new-R
I0418 20:14:26.701488 17112 net.cpp:406] score_pool3c-R <- upscore_pool4-new-R_upscore_pool4-new-R_0_split_0
I0418 20:14:26.701495 17112 net.cpp:380] score_pool3c-R -> score_pool3c-R
I0418 20:14:26.701541 17112 net.cpp:122] Setting up score_pool3c-R
I0418 20:14:26.701548 17112 net.cpp:129] Top shape: 1 3 74 34 (7548)
I0418 20:14:26.701551 17112 net.cpp:137] Memory required for data: 1367053932
I0418 20:14:26.701555 17112 layer_factory.hpp:77] Creating layer fuse_pool3-R
I0418 20:14:26.701560 17112 net.cpp:84] Creating Layer fuse_pool3-R
I0418 20:14:26.701563 17112 net.cpp:406] fuse_pool3-R <- upscore_pool4-new-R_upscore_pool4-new-R_0_split_1
I0418 20:14:26.701568 17112 net.cpp:406] fuse_pool3-R <- score_pool3c-R
I0418 20:14:26.701572 17112 net.cpp:380] fuse_pool3-R -> fuse_pool3-R
I0418 20:14:26.701599 17112 net.cpp:122] Setting up fuse_pool3-R
I0418 20:14:26.701604 17112 net.cpp:129] Top shape: 1 3 74 34 (7548)
I0418 20:14:26.701606 17112 net.cpp:137] Memory required for data: 1367084124
I0418 20:14:26.701609 17112 layer_factory.hpp:77] Creating layer upscore8-new-R
I0418 20:14:26.701617 17112 net.cpp:84] Creating Layer upscore8-new-R
I0418 20:14:26.701620 17112 net.cpp:406] upscore8-new-R <- fuse_pool3-R
I0418 20:14:26.701625 17112 net.cpp:380] upscore8-new-R -> upscore8-new-R
I0418 20:14:26.701869 17112 net.cpp:122] Setting up upscore8-new-R
I0418 20:14:26.701876 17112 net.cpp:129] Top shape: 1 3 600 280 (504000)
I0418 20:14:26.701880 17112 net.cpp:137] Memory required for data: 1369100124
I0418 20:14:26.701884 17112 layer_factory.hpp:77] Creating layer upscore8_cropped-R
I0418 20:14:26.701898 17112 net.cpp:84] Creating Layer upscore8_cropped-R
I0418 20:14:26.701902 17112 net.cpp:406] upscore8_cropped-R <- upscore8-new-R
I0418 20:14:26.701907 17112 net.cpp:406] upscore8_cropped-R <- data-R_crop_0_split_1
I0418 20:14:26.701912 17112 net.cpp:380] upscore8_cropped-R -> upscore8_cropped-R
I0418 20:14:26.701937 17112 net.cpp:122] Setting up upscore8_cropped-R
I0418 20:14:26.701942 17112 net.cpp:129] Top shape: 1 3 512 199 (305664)
I0418 20:14:26.701946 17112 net.cpp:137] Memory required for data: 1370322780
I0418 20:14:26.701948 17112 layer_factory.hpp:77] Creating layer score-R
I0418 20:14:26.701958 17112 net.cpp:84] Creating Layer score-R
I0418 20:14:26.701962 17112 net.cpp:406] score-R <- upscore8_cropped-R
I0418 20:14:26.701970 17112 net.cpp:380] score-R -> score-R
I0418 20:14:26.703835 17112 net.cpp:122] Setting up score-R
I0418 20:14:26.703864 17112 net.cpp:129] Top shape: 1 3 512 199 (305664)
I0418 20:14:26.703868 17112 net.cpp:137] Memory required for data: 1371545436
I0418 20:14:26.703876 17112 layer_factory.hpp:77] Creating layer score_uncropped-R
I0418 20:14:26.704217 17112 net.cpp:84] Creating Layer score_uncropped-R
I0418 20:14:26.704243 17112 net.cpp:406] score_uncropped-R <- crop_info
I0418 20:14:26.704248 17112 net.cpp:406] score_uncropped-R <- score-R
I0418 20:14:26.704268 17112 net.cpp:406] score_uncropped-R <- data_data_0_split_3
I0418 20:14:26.704273 17112 net.cpp:380] score_uncropped-R -> score_uncropped-R
I0418 20:14:26.706398 17112 net.cpp:122] Setting up score_uncropped-R
I0418 20:14:26.706427 17112 net.cpp:129] Top shape: 1 3 512 199 (305664)
I0418 20:14:26.706431 17112 net.cpp:137] Memory required for data: 1372768092
I0418 20:14:26.706434 17112 layer_factory.hpp:77] Creating layer loss1
I0418 20:14:26.706449 17112 net.cpp:84] Creating Layer loss1
I0418 20:14:26.706452 17112 net.cpp:406] loss1 <- score_score_0_split_1
I0418 20:14:26.706457 17112 net.cpp:406] loss1 <- label_data_1_split_1
I0418 20:14:26.706462 17112 net.cpp:380] loss1 -> loss1
…
snapshot_prefix: "/media/Med_2T2/data2/models/snapshots/indiv:1e-5x10,20/FD2:XI3_1_20180418_201422/train"
test_initialization: false
average_loss: 20
stepvalue: 40000
iter_size: 1
I0418 21:13:45.860977 17112 solver.cpp:77] Creating training net from train_net file: /media/Med_2T2/data2/prototxts/training_I3x10.prototxt
I0418 21:13:45.865186 17112 net.cpp:51] Initializing net from parameters: 
state {
  phase: TRAIN
}
layer {
  name: "data"
  type: "Python"
  top: "data"
  top: "label"
  top: "crop_margin"
  top: "crop_prob"
  top: "crop_sample_batch"
  python_param {
    module: "Data"
    layer: "DataLayer"
  }
}
layer {
  name: "conv1_1"
  type: "Convolution"
  bottom: "data"
  top: "conv1_1"
  param {
    lr_mult: 1
    decay_mult: 1
  }
  param {
    lr_mult: 2
    decay_mult: 0
  }
  convolution_param {
    num_output: 64
    pad: 100
    kernel_size: 3
    stride: 1
  }
}
layer {
  name: "relu1_1"
  type: "ReLU"
  bottom: "conv1_1"
  top: "conv1_1"
}
layer {
  name: "conv1_2"
  type: "Convolution"
  bottom: "conv1_1"
  top: "conv1_2"
  param {
    lr_mult: 1
    decay_mult: 1
  }
  param {
    lr_mult: 2
    decay_mult: 0
  }
  convolution_param {
    num_output: 64
    pad: 1
    kernel_size: 3
    stride: 1
  }
}
layer {
  name: "relu1_2"
  type: "ReLU"
  bottom: "conv1_2"
  top: "conv1_2"
}
layer {
  name: "pool1"
  type: "Pooling"
  bottom: "conv1_2"
  top: "pool1"
  pooling_param {
    pool: MAX
    kernel_size: 2
    stride: 2
  }
}
layer {
  name: "conv2_1"
  type: "Convolution"
  bottom: "pool1"
  top: "conv2_1"
  param {
    lr_mult: 1
    decay_mult: 1
  }
  param {
    lr_mult: 2
    decay_mult: 0
  }
  convolution_param {
    num_output: 128
    pad: 1
    kernel_size: 3
    stride: 1
  }
}
layer {
  name: "relu2_1"
  type: "ReLU"
  bottom: "conv2_1"
  top: "conv2_1"
}
layer {
  name: "conv2_2"
  type: "Convolution"
  bottom: "conv2_1"
  top: "conv2_2"
  param {
    lr_mult: 1
    decay_mult: 1
  }
  param {
    lr_mult: 2
    decay_mult: 0
  }
  convolution_param {
    num_output: 128
    pad: 1
    kernel_size: 3
    stride: 1
  }
}
layer {
  name: "relu2_2"
  type: "ReLU"
  bottom: "conv2_2"
  top: "conv2_2"
}
layer {
  name: "pool2"
  type: "Pooling"
  bottom: "conv2_2"
  top: "pool2"
  pooling_param {
    pool: MAX
    kernel_size: 2
    stride: 2
  }
}
layer {
  name: "conv3_1"
  type: "Convolution"
  bottom: "pool2"
  top: "conv3_1"
  param {
    lr_mult: 1
    decay_mult: 1
  }
  param {
    lr_mult: 2
    decay_mult: 0
  }
  convolution_param {
    num_output: 256
    pad: 1
    kernel_size: 3
    stride: 1
  }
}
layer {
  name: "relu3_1"
  type: "ReLU"
  bottom: "conv3_1"
  top: "conv3_1"
}
layer {
  name: "conv3_2"
  type: "Convolution"
  bottom: "conv3_1"
  top: "conv3_2"
  param {
    lr_mult: 1
    decay_mult: 1
  }
  param {
    lr_mult: 2
    decay_mult: 0
  }
  convolution_param {
    num_output: 256
    pad: 1
    kernel_size: 3
    stride: 1
  }
}
layer {
  name: "relu3_2"
  type: "ReLU"
  bottom: "conv3_2"
  top: "conv3_2"
}
layer {
  name: "conv3_3"
  type: "Convolution"
  bottom: "conv3_2"
  top: "conv3_3"
  param {
    lr_mult: 1
    decay_mult: 1
  }
  param {
    lr_mult: 2
    decay_mult: 0
  }
  convolution_param {
    num_output: 256
    pad: 1
    kernel_size: 3
    stride: 1
  }
}
layer {
  name: "relu3_3"
  type: "ReLU"
  bottom: "conv3_3"
  top: "conv3_3"
}
layer {
  name: "pool3"
  type: "Pooling"
  bottom: "conv3_3"
  top: "pool3"
  pooling_param {
    pool: MAX
    kernel_size: 2
    stride: 2
  }
}
layer {
  name: "conv4_1"
  type: "Convolution"
  bottom: "pool3"
  top: "conv4_1"
  param {
    lr_mult: 1
    decay_mult: 1
  }
  param {
    lr_mult: 2
    decay_mult: 0
  }
  convolution_param {
    num_output: 512
    pad: 1
    kernel_size: 3
    stride: 1
  }
}
layer {
  name: "relu4_1"
  type: "ReLU"
  bottom: "conv4_1"
  top: "conv4_1"
}
layer {
  name: "conv4_2"
  type: "Convolution"
  bottom: "conv4_1"
  top: "conv4_2"
  param {
    lr_mult: 1
    decay_mult: 1
  }
  param {
    lr_mult: 2
    decay_mult: 0
  }
  convolution_param {
    num_output: 512
    pad: 1
    kernel_size: 3
    stride: 1
  }
}
layer {
  name: "relu4_2"
  type: "ReLU"
  bottom: "conv4_2"
  top: "conv4_2"
}
layer {
  name: "conv4_3"
  type: "Convolution"
  bottom: "conv4_2"
  top: "conv4_3"
  param {
    lr_mult: 1
    decay_mult: 1
  }
  param {
    lr_mult: 2
    decay_mult: 0
  }
  convolution_param {
    num_output: 512
    pad: 1
    kernel_size: 3
    stride: 1
  }
}
layer {
  name: "relu4_3"
  type: "ReLU"
  bottom: "conv4_3"
  top: "conv4_3"
}
layer {
  name: "pool4"
  type: "Pooling"
  bottom: "conv4_3"
  top: "pool4"
  pooling_param {
    pool: MAX
    kernel_size: 2
    stride: 2
  }
}
layer {
  name: "conv5_1"
  type: "Convolution"
  bottom: "pool4"
  top: "conv5_1"
  param {
    lr_mult: 1
    decay_mult: 1
  }
  param {
    lr_mult: 2
    decay_mult: 0
  }
  convolution_param {
    num_output: 512
    pad: 1
    kernel_size: 3
    stride: 1
  }
}
layer {
  name: "relu5_1"
  type: "ReLU"
  bottom: "conv5_1"
  top: "conv5_1"
}
layer {
  name: "conv5_2"
  type: "Convolution"
  bottom: "conv5_1"
  top: "conv5_2"
  param {
    lr_mult: 1
    decay_mult: 1
  }
  param {
    lr_mult: 2
    decay_mult: 0
  }
  convolution_param {
    num_output: 512
    pad: 1
    kernel_size: 3
    stride: 1
  }
}
layer {
  name: "relu5_2"
  type: "ReLU"
  bottom: "conv5_2"
  top: "conv5_2"
}
layer {
  name: "conv5_3"
  type: "Convolution"
  bottom: "conv5_2"
  top: "conv5_3"
  param {
    lr_mult: 1
    decay_mult: 1
  }
  param {
    lr_mult: 2
    decay_mult: 0
  }
  convolution_param {
    num_output: 512
    pad: 1
    kernel_size: 3
    stride: 1
  }
}
layer {
  name: "relu5_3"
  type: "ReLU"
  bottom: "conv5_3"
  top: "conv5_3"
}
layer {
  name: "pool5"
  type: "Pooling"
  bottom: "conv5_3"
  top: "pool5"
  pooling_param {
    pool: MAX
    kernel_size: 2
    stride: 2
  }
}
layer {
  name: "fc6"
  type: "Convolution"
  bottom: "pool5"
  top: "fc6"
  param {
    lr_mult: 1
    decay_mult: 1
  }
  param {
    lr_mult: 2
    decay_mult: 0
  }
  convolution_param {
    num_output: 4096
    pad: 0
    kernel_size: 7
    stride: 1
  }
}
layer {
  name: "relu6"
  type: "ReLU"
  bottom: "fc6"
  top: "fc6"
}
layer {
  name: "drop6"
  type: "Dropout"
  bottom: "fc6"
  top: "fc6"
  dropout_param {
    dropout_ratio: 0.5
  }
}
layer {
  name: "fc7"
  type: "Convolution"
  bottom: "fc6"
  top: "fc7"
  param {
    lr_mult: 1
    decay_mult: 1
  }
  param {
    lr_mult: 2
    decay_mult: 0
  }
  convolution_param {
    num_output: 4096
    pad: 0
    kernel_size: 1
    stride: 1
  }
}
layer {
  name: "relu7"
  type: "ReLU"
  bottom: "fc7"
  top: "fc7"
}
layer {
  name: "drop7"
  type: "Dropout"
  bottom: "fc7"
  top: "fc7"
  dropout_param {
    dropout_ratio: 0.5
  }
}
layer {
  name: "score_fr-new"
  type: "Convolution"
  bottom: "fc7"
  top: "score_fr-new"
  param {
    lr_mult: 1
    decay_mult: 1
  }
  param {
    lr_mult: 2
    decay_mult: 0
  }
  convolution_param {
    num_output: 3
    kernel_size: 1
  }
}
layer {
  name: "upscore2-new"
  type: "Deconvolution"
  bottom: "score_fr-new"
  top: "upscore2-new"
  param {
    lr_mult: 0
  }
  convolution_param {
    num_output: 3
    bias_term: false
    kernel_size: 4
    stride: 2
  }
}
layer {
  name: "score_pool4-new"
  type: "Convolution"
  bottom: "pool4"
  top: "score_pool4-new"
  param {
    lr_mult: 1
    decay_mult: 1
  }
  param {
    lr_mult: 2
    decay_mult: 0
  }
  convolution_param {
    num_output: 3
    pad: 0
    kernel_size: 1
  }
}
layer {
  name: "score_pool4c"
  type: "Crop"
  bottom: "score_pool4-new"
  bottom: "upscore2-new"
  top: "score_pool4c"
  crop_param {
    axis: 2
    offset: 5
  }
}
layer {
  name: "fuse_pool4"
  type: "Eltwise"
  bottom: "upscore2-new"
  bottom: "score_pool4c"
  top: "fuse_pool4"
  eltwise_param {
    operation: SUM
  }
}
layer {
  name: "upscore_pool4-new"
  type: "Deconvolution"
  bottom: "fuse_pool4"
  top: "upscore_pool4-new"
  param {
    lr_mult: 0
  }
  convolution_param {
    num_output: 3
    bias_term: false
    kernel_size: 4
    stride: 2
  }
}
layer {
  name: "score_pool3-new"
  type: "Convolution"
  bottom: "pool3"
  top: "score_pool3-new"
  param {
    lr_mult: 1
    decay_mult: 1
  }
  param {
    lr_mult: 2
    decay_mult: 0
  }
  convolution_param {
    num_output: 3
    pad: 0
    kernel_size: 1
  }
}
layer {
  name: "score_pool3c"
  type: "Crop"
  bottom: "score_pool3-new"
  bottom: "upscore_pool4-new"
  top: "score_pool3c"
  crop_param {
    axis: 2
    offset: 9
  }
}
layer {
  name: "fuse_pool3"
  type: "Eltwise"
  bottom: "upscore_pool4-new"
  bottom: "score_pool3c"
  top: "fuse_pool3"
  eltwise_param {
    operation: SUM
  }
}
layer {
  name: "upscore8-new"
  type: "Deconvolution"
  bottom: "fuse_pool3"
  top: "upscore8-new"
  param {
    lr_mult: 0
  }
  convolution_param {
    num_output: 3
    bias_term: false
    kernel_size: 16
    stride: 8
  }
}
layer {
  name: "upscore8_cropped"
  type: "Crop"
  bottom: "upscore8-new"
  bottom: "data"
  top: "upscore8_cropped"
  crop_param {
    axis: 2
    offset: 31
  }
}
layer {
  name: "score"
  type: "Convolution"
  bottom: "upscore8_cropped"
  top: "score"
  param {
    lr_mult: 1
    decay_mult: 1
  }
  param {
    lr_mult: 2
    decay_mult: 0
  }
  convolution_param {
    num_output: 3
    pad: 1
    kernel_size: 3
    stride: 1
    weight_filler {
      type: "xavier"
    }
    bias_filler {
      type: "constant"
      value: 0
    }
  }
}
layer {
  name: "prob"
  type: "Sigmoid"
  bottom: "score"
  top: "prob"
}
layer {
  name: "saliency"
  type: "Convolution"
  bottom: "prob"
  top: "saliency"
  param {
    lr_mult: 10
    decay_mult: 1
  }
  param {
    lr_mult: 20
    decay_mult: 0
  }
  convolution_param {
    num_output: 3
    pad: 2
    kernel_size: 5
    stride: 1
    weight_filler {
      type: "xavier"
    }
    bias_filler {
      type: "constant"
      value: 1
    }
  }
}
layer {
  name: "saliency_data"
  type: "Eltwise"
  bottom: "data"
  bottom: "saliency"
  top: "saliency_data"
  eltwise_param {
    operation: PROD
  }
}
layer {
  name: "crop"
  type: "Python"
  bottom: "label"
  bottom: "saliency_data"
  bottom: "crop_margin"
  bottom: "crop_prob"
  bottom: "crop_sample_batch"
  top: "data-R"
  top: "crop_info"
  python_param {
    module: "Crop"
    layer: "CropLayer"
    param_str: "{\"TEST\": 0}"
  }
}
layer {
  name: "conv1_1-R"
  type: "Convolution"
  bottom: "data-R"
  top: "conv1_1-R"
  param {
    lr_mult: 10
    decay_mult: 1
  }
  param {
    lr_mult: 20
    decay_mult: 0
  }
  convolution_param {
    num_output: 64
    pad: 100
    kernel_size: 3
    stride: 1
  }
}
layer {
  name: "relu1_1-R"
  type: "ReLU"
  bottom: "conv1_1-R"
  top: "conv1_1-R"
}
layer {
  name: "conv1_2-R"
  type: "Convolution"
  bottom: "conv1_1-R"
  top: "conv1_2-R"
  param {
    lr_mult: 10
    decay_mult: 1
  }
  param {
    lr_mult: 20
    decay_mult: 0
  }
  convolution_param {
    num_output: 64
    pad: 1
    kernel_size: 3
    stride: 1
  }
}
layer {
  name: "relu1_2-R"
  type: "ReLU"
  bottom: "conv1_2-R"
  top: "conv1_2-R"
}
layer {
  name: "pool1-R"
  type: "Pooling"
  bottom: "conv1_2-R"
  top: "pool1-R"
  pooling_param {
    pool: MAX
    kernel_size: 2
    stride: 2
  }
}
layer {
  name: "conv2_1-R"
  type: "Convolution"
  bottom: "pool1-R"
  top: "conv2_1-R"
  param {
    lr_mult: 10
    decay_mult: 1
  }
  param {
    lr_mult: 20
    decay_mult: 0
  }
  convolution_param {
    num_output: 128
    pad: 1
    kernel_size: 3
    stride: 1
  }
}
layer {
  name: "relu2_1-R"
  type: "ReLU"
  bottom: "conv2_1-R"
  top: "conv2_1-R"
}
layer {
  name: "conv2_2-R"
  type: "Convolution"
  bottom: "conv2_1-R"
  top: "conv2_2-R"
  param {
    lr_mult: 10
    decay_mult: 1
  }
  param {
    lr_mult: 20
    decay_mult: 0
  }
  convolution_param {
    num_output: 128
    pad: 1
    kernel_size: 3
    stride: 1
  }
}
layer {
  name: "relu2_2-R"
  type: "ReLU"
  bottom: "conv2_2-R"
  top: "conv2_2-R"
}
layer {
  name: "pool2-R"
  type: "Pooling"
  bottom: "conv2_2-R"
  top: "pool2-R"
  pooling_param {
    pool: MAX
    kernel_size: 2
    stride: 2
  }
}
layer {
  name: "conv3_1-R"
  type: "Convolution"
  bottom: "pool2-R"
  top: "conv3_1-R"
  param {
    lr_mult: 10
    decay_mult: 1
  }
  param {
    lr_mult: 20
    decay_mult: 0
  }
  convolution_param {
    num_output: 256
    pad: 1
    kernel_size: 3
    stride: 1
  }
}
layer {
  name: "relu3_1-R"
  type: "ReLU"
  bottom: "conv3_1-R"
  top: "conv3_1-R"
}
layer {
  name: "conv3_2-R"
  type: "Convolution"
  bottom: "conv3_1-R"
  top: "conv3_2-R"
  param {
    lr_mult: 10
    decay_mult: 1
  }
  param {
    lr_mult: 20
    decay_mult: 0
  }
  convolution_param {
    num_output: 256
    pad: 1
    kernel_size: 3
    stride: 1
  }
}
layer {
  name: "relu3_2-R"
  type: "ReLU"
  bottom: "conv3_2-R"
  top: "conv3_2-R"
}
layer {
  name: "conv3_3-R"
  type: "Convolution"
  bottom: "conv3_2-R"
  top: "conv3_3-R"
  param {
    lr_mult: 10
    decay_mult: 1
  }
  param {
    lr_mult: 20
    decay_mult: 0
  }
  convolution_param {
    num_output: 256
    pad: 1
    kernel_size: 3
    stride: 1
  }
}
layer {
  name: "relu3_3-R"
  type: "ReLU"
  bottom: "conv3_3-R"
  top: "conv3_3-R"
}
layer {
  name: "pool3-R"
  type: "Pooling"
  bottom: "conv3_3-R"
  top: "pool3-R"
  pooling_param {
    pool: MAX
    kernel_size: 2
    stride: 2
  }
}
layer {
  name: "conv4_1-R"
  type: "Convolution"
  bottom: "pool3-R"
  top: "conv4_1-R"
  param {
    lr_mult: 10
    decay_mult: 1
  }
  param {
    lr_mult: 20
    decay_mult: 0
  }
  convolution_param {
    num_output: 512
    pad: 1
    kernel_size: 3
    stride: 1
  }
}
layer {
  name: "relu4_1-R"
  type: "ReLU"
  bottom: "conv4_1-R"
  top: "conv4_1-R"
}
layer {
  name: "conv4_2-R"
  type: "Convolution"
  bottom: "conv4_1-R"
  top: "conv4_2-R"
  param {
    lr_mult: 10
    decay_mult: 1
  }
  param {
    lr_mult: 20
    decay_mult: 0
  }
  convolution_param {
    num_output: 512
    pad: 1
    kernel_size: 3
    stride: 1
  }
}
layer {
  name: "relu4_2-R"
  type: "ReLU"
  bottom: "conv4_2-R"
  top: "conv4_2-R"
}
layer {
  name: "conv4_3-R"
  type: "Convolution"
  bottom: "conv4_2-R"
  top: "conv4_3-R"
  param {
    lr_mult: 10
    decay_mult: 1
  }
  param {
    lr_mult: 20
    decay_mult: 0
  }
  convolution_param {
    num_output: 512
    pad: 1
    kernel_size: 3
    stride: 1
  }
}
layer {
  name: "relu4_3-R"
  type: "ReLU"
  bottom: "conv4_3-R"
  top: "conv4_3-R"
}
layer {
  name: "pool4-R"
  type: "Pooling"
  bottom: "conv4_3-R"
  top: "pool4-R"
  pooling_param {
    pool: MAX
    kernel_size: 2
    stride: 2
  }
}
layer {
  name: "conv5_1-R"
  type: "Convolution"
  bottom: "pool4-R"
  top: "conv5_1-R"
  param {
    lr_mult: 10
    decay_mult: 1
  }
  param {
    lr_mult: 20
    decay_mult: 0
  }
  convolution_param {
    num_output: 512
    pad: 1
    kernel_size: 3
    stride: 1
  }
}
layer {
  name: "relu5_1-R"
  type: "ReLU"
  bottom: "conv5_1-R"
  top: "conv5_1-R"
}
layer {
  name: "conv5_2-R"
  type: "Convolution"
  bottom: "conv5_1-R"
  top: "conv5_2-R"
  param {
    lr_mult: 10
    decay_mult: 1
  }
  param {
    lr_mult: 20
    decay_mult: 0
  }
  convolution_param {
    num_output: 512
    pad: 1
    kernel_size: 3
    stride: 1
  }
}
layer {
  name: "relu5_2-R"
  type: "ReLU"
  bottom: "conv5_2-R"
  top: "conv5_2-R"
}
layer {
  name: "conv5_3-R"
  type: "Convolution"
  bottom: "conv5_2-R"
  top: "conv5_3-R"
  param {
    lr_mult: 10
    decay_mult: 1
  }
  param {
    lr_mult: 20
    decay_mult: 0
  }
  convolution_param {
    num_output: 512
    pad: 1
    kernel_size: 3
    stride: 1
  }
}
layer {
  name: "relu5_3-R"
  type: "ReLU"
  bottom: "conv5_3-R"
  top: "conv5_3-R"
}
layer {
  name: "pool5-R"
  type: "Pooling"
  bottom: "conv5_3-R"
  top: "pool5-R"
  pooling_param {
    pool: MAX
    kernel_size: 2
    stride: 2
  }
}
layer {
  name: "fc6-R"
  type: "Convolution"
  bottom: "pool5-R"
  top: "fc6-R"
  param {
    lr_mult: 10
    decay_mult: 1
  }
  param {
    lr_mult: 20
    decay_mult: 0
  }
  convolution_param {
    num_output: 4096
    pad: 0
    kernel_size: 7
    stride: 1
  }
}
layer {
  name: "relu6-R"
  type: "ReLU"
  bottom: "fc6-R"
  top: "fc6-R"
}
layer {
  name: "drop6-R"
  type: "Dropout"
  bottom: "fc6-R"
  top: "fc6-R"
  dropout_param {
    dropout_ratio: 0.5
  }
}
layer {
  name: "fc7-R"
  type: "Convolution"
  bottom: "fc6-R"
  top: "fc7-R"
  param {
    lr_mult: 10
    decay_mult: 1
  }
  param {
    lr_mult: 20
    decay_mult: 0
  }
  convolution_param {
    num_output: 4096
    pad: 0
    kernel_size: 1
    stride: 1
  }
}
layer {
  name: "relu7-R"
  type: "ReLU"
  bottom: "fc7-R"
  top: "fc7-R"
}
layer {
  name: "drop7-R"
  type: "Dropout"
  bottom: "fc7-R"
  top: "fc7-R"
  dropout_param {
    dropout_ratio: 0.5
  }
}
layer {
  name: "score_fr-new-R"
  type: "Convolution"
  bottom: "fc7-R"
  top: "score_fr-new-R"
  param {
    lr_mult: 10
    decay_mult: 1
  }
  param {
    lr_mult: 20
    decay_mult: 0
  }
  convolution_param {
    num_output: 3
    kernel_size: 1
  }
}
layer {
  name: "upscore2-new-R"
  type: "Deconvolution"
  bottom: "score_fr-new-R"
  top: "upscore2-new-R"
  param {
    lr_mult: 0
  }
  convolution_param {
    num_output: 3
    bias_term: false
    kernel_size: 4
    stride: 2
  }
}
layer {
  name: "score_pool4-new-R"
  type: "Convolution"
  bottom: "pool4-R"
  top: "score_pool4-new-R"
  param {
    lr_mult: 10
    decay_mult: 1
  }
  param {
    lr_mult: 20
    decay_mult: 0
  }
  convolution_param {
    num_output: 3
    pad: 0
    kernel_size: 1
  }
}
layer {
  name: "score_pool4c-R"
  type: "Crop"
  bottom: "score_pool4-new-R"
  bottom: "upscore2-new-R"
  top: "score_pool4c-R"
  crop_param {
    axis: 2
    offset: 5
  }
}
layer {
  name: "fuse_pool4-R"
  type: "Eltwise"
  bottom: "upscore2-new-R"
  bottom: "score_pool4c-R"
  top: "fuse_pool4-R"
  eltwise_param {
    operation: SUM
  }
}
layer {
  name: "upscore_pool4-new-R"
  type: "Deconvolution"
  bottom: "fuse_pool4-R"
  top: "upscore_pool4-new-R"
  param {
    lr_mult: 0
  }
  convolution_param {
    num_output: 3
    bias_term: false
    kernel_size: 4
    stride: 2
  }
}
layer {
  name: "score_pool3-new-R"
  type: "Convolution"
  bottom: "pool3-R"
  top: "score_pool3-new-R"
  param {
    lr_mult: 10
    decay_mult: 1
  }
  param {
    lr_mult: 20
    decay_mult: 0
  }
  convolution_param {
    num_output: 3
    pad: 0
    kernel_size: 1
  }
}
layer {
  name: "score_pool3c-R"
  type: "Crop"
  bottom: "score_pool3-new-R"
  bottom: "upscore_pool4-new-R"
  top: "score_pool3c-R"
  crop_param {
    axis: 2
    offset: 9
  }
}
layer {
  name: "fuse_pool3-R"
  type: "Eltwise"
  bottom: "upscore_pool4-new-R"
  bottom: "score_pool3c-R"
  top: "fuse_pool3-R"
  eltwise_param {
    operation: SUM
  }
}
layer {
  name: "upscore8-new-R"
  type: "Deconvolution"
  bottom: "fuse_pool3-R"
  top: "upscore8-new-R"
  param {
    lr_mult: 0
  }
  convolution_param {
    num_output: 3
    bias_term: false
    kernel_size: 16
    stride: 8
  }
}
layer {
  name: "upscore8_cropped-R"
  type: "Crop"
  bottom: "upscore8-new-R"
  bottom: "data-R"
  top: "upscore8_cropped-R"
  crop_param {
    axis: 2
    offset: 31
  }
}
layer {
  name: "score-R"
  type: "Convolution"
  bottom: "upscore8_cropped-R"
  top: "score-R"
  param {
    lr_mult: 10
    decay_mult: 1
  }
  param {
    lr_mult: 20
    decay_mult: 0
  }
  convolution_param {
    num_output: 3
    pad: 1
    kernel_size: 3
    stride: 1
    weight_filler {
      type: "xavier"
    }
    bias_filler {
      type: "constant"
      value: 0
    }
  }
}
layer {
  name: "score_uncropped-R"
  type: "Python"
  bottom: "crop_info"
  bottom: "score-R"
  bottom: "data"
  top: "score_uncropped-R"
  python_param {
    module: "Uncrop"
    layer: "UncropLayer"
  }
}
layer {
  name: "loss1"
  type: "DiceLoss"
  bottom: "score"
  bottom: "label"
  top: "loss1"
  loss_weight: 0.333333
}
layer {
  name: "loss2"
  type: "DiceLoss"
  bottom: "score_uncropped-R"
  bottom: "label"
  top: "loss2"
  loss_weight: 0.666667
}
I0418 21:13:45.865831 17112 layer_factory.hpp:77] Creating layer data
I0418 21:13:45.865938 17112 net.cpp:84] Creating Layer data
I0418 21:13:45.865952 17112 net.cpp:380] data -> data
I0418 21:13:45.866001 17112 net.cpp:380] data -> label
I0418 21:13:45.866010 17112 net.cpp:380] data -> crop_margin
I0418 21:13:45.866019 17112 net.cpp:380] data -> crop_prob
I0418 21:13:45.866027 17112 net.cpp:380] data -> crop_sample_batch
I0418 21:13:46.044950 17112 net.cpp:122] Setting up data
I0418 21:13:46.045012 17112 net.cpp:129] Top shape: 1 3 512 199 (305664)
I0418 21:13:46.045022 17112 net.cpp:129] Top shape: 1 3 512 199 (305664)
I0418 21:13:46.045027 17112 net.cpp:129] Top shape: 1 (1)
I0418 21:13:46.045034 17112 net.cpp:129] Top shape: 1 (1)
I0418 21:13:46.045039 17112 net.cpp:129] Top shape: 1 (1)
I0418 21:13:46.045042 17112 net.cpp:137] Memory required for data: 2445324
I0418 21:13:46.045053 17112 layer_factory.hpp:77] Creating layer data_data_0_split
I0418 21:13:46.045095 17112 net.cpp:84] Creating Layer data_data_0_split
I0418 21:13:46.045101 17112 net.cpp:406] data_data_0_split <- data
I0418 21:13:46.045114 17112 net.cpp:380] data_data_0_split -> data_data_0_split_0
I0418 21:13:46.045130 17112 net.cpp:380] data_data_0_split -> data_data_0_split_1
I0418 21:13:46.045138 17112 net.cpp:380] data_data_0_split -> data_data_0_split_2
I0418 21:13:46.045147 17112 net.cpp:380] data_data_0_split -> data_data_0_split_3
I0418 21:13:46.045320 17112 net.cpp:122] Setting up data_data_0_split
I0418 21:13:46.045330 17112 net.cpp:129] Top shape: 1 3 512 199 (305664)
I0418 21:13:46.045336 17112 net.cpp:129] Top shape: 1 3 512 199 (305664)
I0418 21:13:46.045341 17112 net.cpp:129] Top shape: 1 3 512 199 (305664)
I0418 21:13:46.045348 17112 net.cpp:129] Top shape: 1 3 512 199 (305664)
I0418 21:13:46.045352 17112 net.cpp:137] Memory required for data: 7335948
I0418 21:13:46.045358 17112 layer_factory.hpp:77] Creating layer label_data_1_split
I0418 21:13:46.045370 17112 net.cpp:84] Creating Layer label_data_1_split
I0418 21:13:46.045373 17112 net.cpp:406] label_data_1_split <- label
I0418 21:13:46.045379 17112 net.cpp:380] label_data_1_split -> label_data_1_split_0
I0418 21:13:46.045384 17112 net.cpp:380] label_data_1_split -> label_data_1_split_1
I0418 21:13:46.045389 17112 net.cpp:380] label_data_1_split -> label_data_1_split_2
I0418 21:13:46.045495 17112 net.cpp:122] Setting up label_data_1_split
I0418 21:13:46.045508 17112 net.cpp:129] Top shape: 1 3 512 199 (305664)
I0418 21:13:46.045514 17112 net.cpp:129] Top shape: 1 3 512 199 (305664)
I0418 21:13:46.045521 17112 net.cpp:129] Top shape: 1 3 512 199 (305664)
I0418 21:13:46.045526 17112 net.cpp:137] Memory required for data: 11003916
I0418 21:13:46.045531 17112 layer_factory.hpp:77] Creating layer conv1_1
I0418 21:13:46.045548 17112 net.cpp:84] Creating Layer conv1_1
I0418 21:13:46.045553 17112 net.cpp:406] conv1_1 <- data_data_0_split_0
I0418 21:13:46.045558 17112 net.cpp:380] conv1_1 -> conv1_1
I0418 21:13:46.050135 17112 net.cpp:122] Setting up conv1_1
I0418 21:13:46.050197 17112 net.cpp:129] Top shape: 1 64 710 397 (18039680)
I0418 21:13:46.050205 17112 net.cpp:137] Memory required for data: 83162636
I0418 21:13:46.050221 17112 layer_factory.hpp:77] Creating layer relu1_1
I0418 21:13:46.050230 17112 net.cpp:84] Creating Layer relu1_1
I0418 21:13:46.050238 17112 net.cpp:406] relu1_1 <- conv1_1
I0418 21:13:46.050246 17112 net.cpp:367] relu1_1 -> conv1_1 (in-place)
I0418 21:13:46.050613 17112 net.cpp:122] Setting up relu1_1
I0418 21:13:46.050662 17112 net.cpp:129] Top shape: 1 64 710 397 (18039680)
I0418 21:13:46.050668 17112 net.cpp:137] Memory required for data: 155321356
I0418 21:13:46.050673 17112 layer_factory.hpp:77] Creating layer conv1_2
I0418 21:13:46.050698 17112 net.cpp:84] Creating Layer conv1_2
I0418 21:13:46.050704 17112 net.cpp:406] conv1_2 <- conv1_1
I0418 21:13:46.050709 17112 net.cpp:380] conv1_2 -> conv1_2
I0418 21:13:46.053252 17112 net.cpp:122] Setting up conv1_2
I0418 21:13:46.053303 17112 net.cpp:129] Top shape: 1 64 710 397 (18039680)
I0418 21:13:46.053309 17112 net.cpp:137] Memory required for data: 227480076
I0418 21:13:46.053326 17112 layer_factory.hpp:77] Creating layer relu1_2
I0418 21:13:46.053334 17112 net.cpp:84] Creating Layer relu1_2
I0418 21:13:46.053339 17112 net.cpp:406] relu1_2 <- conv1_2
I0418 21:13:46.053344 17112 net.cpp:367] relu1_2 -> conv1_2 (in-place)
I0418 21:13:46.053742 17112 net.cpp:122] Setting up relu1_2
I0418 21:13:46.053773 17112 net.cpp:129] Top shape: 1 64 710 397 (18039680)
I0418 21:13:46.053777 17112 net.cpp:137] Memory required for data: 299638796
I0418 21:13:46.053783 17112 layer_factory.hpp:77] Creating layer pool1
I0418 21:13:46.053797 17112 net.cpp:84] Creating Layer pool1
I0418 21:13:46.053802 17112 net.cpp:406] pool1 <- conv1_2
I0418 21:13:46.053808 17112 net.cpp:380] pool1 -> pool1
I0418 21:13:46.053874 17112 net.cpp:122] Setting up pool1
I0418 21:13:46.053887 17112 net.cpp:129] Top shape: 1 64 355 199 (4521280)
I0418 21:13:46.053891 17112 net.cpp:137] Memory required for data: 317723916
I0418 21:13:46.053895 17112 layer_factory.hpp:77] Creating layer conv2_1
I0418 21:13:46.053906 17112 net.cpp:84] Creating Layer conv2_1
I0418 21:13:46.053915 17112 net.cpp:406] conv2_1 <- pool1
I0418 21:13:46.053921 17112 net.cpp:380] conv2_1 -> conv2_1
I0418 21:13:46.055797 17112 net.cpp:122] Setting up conv2_1
I0418 21:13:46.055829 17112 net.cpp:129] Top shape: 1 128 355 199 (9042560)
I0418 21:13:46.055832 17112 net.cpp:137] Memory required for data: 353894156
I0418 21:13:46.055843 17112 layer_factory.hpp:77] Creating layer relu2_1
I0418 21:13:46.055850 17112 net.cpp:84] Creating Layer relu2_1
I0418 21:13:46.055853 17112 net.cpp:406] relu2_1 <- conv2_1
I0418 21:13:46.055858 17112 net.cpp:367] relu2_1 -> conv2_1 (in-place)
I0418 21:13:46.056586 17112 net.cpp:122] Setting up relu2_1
I0418 21:13:46.056617 17112 net.cpp:129] Top shape: 1 128 355 199 (9042560)
I0418 21:13:46.056622 17112 net.cpp:137] Memory required for data: 390064396
I0418 21:13:46.056627 17112 layer_factory.hpp:77] Creating layer conv2_2
I0418 21:13:46.056635 17112 net.cpp:84] Creating Layer conv2_2
I0418 21:13:46.056639 17112 net.cpp:406] conv2_2 <- conv2_1
I0418 21:13:46.056645 17112 net.cpp:380] conv2_2 -> conv2_2
I0418 21:13:46.057994 17112 net.cpp:122] Setting up conv2_2
I0418 21:13:46.058023 17112 net.cpp:129] Top shape: 1 128 355 199 (9042560)
I0418 21:13:46.058027 17112 net.cpp:137] Memory required for data: 426234636
I0418 21:13:46.058033 17112 layer_factory.hpp:77] Creating layer relu2_2
I0418 21:13:46.058039 17112 net.cpp:84] Creating Layer relu2_2
I0418 21:13:46.058043 17112 net.cpp:406] relu2_2 <- conv2_2
I0418 21:13:46.058048 17112 net.cpp:367] relu2_2 -> conv2_2 (in-place)
I0418 21:13:46.058820 17112 net.cpp:122] Setting up relu2_2
I0418 21:13:46.058851 17112 net.cpp:129] Top shape: 1 128 355 199 (9042560)
I0418 21:13:46.058854 17112 net.cpp:137] Memory required for data: 462404876
I0418 21:13:46.058857 17112 layer_factory.hpp:77] Creating layer pool2
I0418 21:13:46.058864 17112 net.cpp:84] Creating Layer pool2
I0418 21:13:46.058868 17112 net.cpp:406] pool2 <- conv2_2
I0418 21:13:46.058873 17112 net.cpp:380] pool2 -> pool2
I0418 21:13:46.058945 17112 net.cpp:122] Setting up pool2
I0418 21:13:46.058951 17112 net.cpp:129] Top shape: 1 128 178 100 (2278400)
I0418 21:13:46.058954 17112 net.cpp:137] Memory required for data: 471518476
I0418 21:13:46.058960 17112 layer_factory.hpp:77] Creating layer conv3_1
I0418 21:13:46.058967 17112 net.cpp:84] Creating Layer conv3_1
I0418 21:13:46.058971 17112 net.cpp:406] conv3_1 <- pool2
I0418 21:13:46.058977 17112 net.cpp:380] conv3_1 -> conv3_1
I0418 21:13:46.062597 17112 net.cpp:122] Setting up conv3_1
I0418 21:13:46.062644 17112 net.cpp:129] Top shape: 1 256 178 100 (4556800)
I0418 21:13:46.062649 17112 net.cpp:137] Memory required for data: 489745676
I0418 21:13:46.062659 17112 layer_factory.hpp:77] Creating layer relu3_1
I0418 21:13:46.062669 17112 net.cpp:84] Creating Layer relu3_1
I0418 21:13:46.062672 17112 net.cpp:406] relu3_1 <- conv3_1
I0418 21:13:46.062678 17112 net.cpp:367] relu3_1 -> conv3_1 (in-place)
I0418 21:13:46.062947 17112 net.cpp:122] Setting up relu3_1
I0418 21:13:46.062961 17112 net.cpp:129] Top shape: 1 256 178 100 (4556800)
I0418 21:13:46.062965 17112 net.cpp:137] Memory required for data: 507972876
I0418 21:13:46.062968 17112 layer_factory.hpp:77] Creating layer conv3_2
I0418 21:13:46.062979 17112 net.cpp:84] Creating Layer conv3_2
I0418 21:13:46.062983 17112 net.cpp:406] conv3_2 <- conv3_1
I0418 21:13:46.062993 17112 net.cpp:380] conv3_2 -> conv3_2
I0418 21:13:46.067358 17112 net.cpp:122] Setting up conv3_2
I0418 21:13:46.067389 17112 net.cpp:129] Top shape: 1 256 178 100 (4556800)
I0418 21:13:46.067394 17112 net.cpp:137] Memory required for data: 526200076
I0418 21:13:46.067405 17112 layer_factory.hpp:77] Creating layer relu3_2
I0418 21:13:46.067418 17112 net.cpp:84] Creating Layer relu3_2
I0418 21:13:46.067423 17112 net.cpp:406] relu3_2 <- conv3_2
I0418 21:13:46.067427 17112 net.cpp:367] relu3_2 -> conv3_2 (in-place)
I0418 21:13:46.067682 17112 net.cpp:122] Setting up relu3_2
I0418 21:13:46.067695 17112 net.cpp:129] Top shape: 1 256 178 100 (4556800)
I0418 21:13:46.067699 17112 net.cpp:137] Memory required for data: 544427276
I0418 21:13:46.067706 17112 layer_factory.hpp:77] Creating layer conv3_3
I0418 21:13:46.067720 17112 net.cpp:84] Creating Layer conv3_3
I0418 21:13:46.067724 17112 net.cpp:406] conv3_3 <- conv3_2
I0418 21:13:46.067730 17112 net.cpp:380] conv3_3 -> conv3_3
I0418 21:13:46.072387 17112 net.cpp:122] Setting up conv3_3
I0418 21:13:46.072422 17112 net.cpp:129] Top shape: 1 256 178 100 (4556800)
I0418 21:13:46.072425 17112 net.cpp:137] Memory required for data: 562654476
I0418 21:13:46.072434 17112 layer_factory.hpp:77] Creating layer relu3_3
I0418 21:13:46.072444 17112 net.cpp:84] Creating Layer relu3_3
I0418 21:13:46.072450 17112 net.cpp:406] relu3_3 <- conv3_3
I0418 21:13:46.072456 17112 net.cpp:367] relu3_3 -> conv3_3 (in-place)
I0418 21:13:46.072718 17112 net.cpp:122] Setting up relu3_3
I0418 21:13:46.072731 17112 net.cpp:129] Top shape: 1 256 178 100 (4556800)
I0418 21:13:46.072734 17112 net.cpp:137] Memory required for data: 580881676
I0418 21:13:46.072738 17112 layer_factory.hpp:77] Creating layer pool3
I0418 21:13:46.072744 17112 net.cpp:84] Creating Layer pool3
I0418 21:13:46.072748 17112 net.cpp:406] pool3 <- conv3_3
I0418 21:13:46.072753 17112 net.cpp:380] pool3 -> pool3
I0418 21:13:46.072831 17112 net.cpp:122] Setting up pool3
I0418 21:13:46.072840 17112 net.cpp:129] Top shape: 1 256 89 50 (1139200)
I0418 21:13:46.072844 17112 net.cpp:137] Memory required for data: 585438476
I0418 21:13:46.072847 17112 layer_factory.hpp:77] Creating layer pool3_pool3_0_split
I0418 21:13:46.072854 17112 net.cpp:84] Creating Layer pool3_pool3_0_split
I0418 21:13:46.072856 17112 net.cpp:406] pool3_pool3_0_split <- pool3
I0418 21:13:46.072865 17112 net.cpp:380] pool3_pool3_0_split -> pool3_pool3_0_split_0
I0418 21:13:46.072875 17112 net.cpp:380] pool3_pool3_0_split -> pool3_pool3_0_split_1
I0418 21:13:46.072938 17112 net.cpp:122] Setting up pool3_pool3_0_split
I0418 21:13:46.072948 17112 net.cpp:129] Top shape: 1 256 89 50 (1139200)
I0418 21:13:46.072953 17112 net.cpp:129] Top shape: 1 256 89 50 (1139200)
I0418 21:13:46.072957 17112 net.cpp:137] Memory required for data: 594552076
I0418 21:13:46.072962 17112 layer_factory.hpp:77] Creating layer conv4_1
I0418 21:13:46.072971 17112 net.cpp:84] Creating Layer conv4_1
I0418 21:13:46.072975 17112 net.cpp:406] conv4_1 <- pool3_pool3_0_split_0
I0418 21:13:46.072983 17112 net.cpp:380] conv4_1 -> conv4_1
I0418 21:13:46.079319 17112 net.cpp:122] Setting up conv4_1
I0418 21:13:46.079355 17112 net.cpp:129] Top shape: 1 512 89 50 (2278400)
I0418 21:13:46.079358 17112 net.cpp:137] Memory required for data: 603665676
I0418 21:13:46.079365 17112 layer_factory.hpp:77] Creating layer relu4_1
I0418 21:13:46.079372 17112 net.cpp:84] Creating Layer relu4_1
I0418 21:13:46.079376 17112 net.cpp:406] relu4_1 <- conv4_1
I0418 21:13:46.079381 17112 net.cpp:367] relu4_1 -> conv4_1 (in-place)
I0418 21:13:46.079658 17112 net.cpp:122] Setting up relu4_1
I0418 21:13:46.079674 17112 net.cpp:129] Top shape: 1 512 89 50 (2278400)
I0418 21:13:46.079676 17112 net.cpp:137] Memory required for data: 612779276
I0418 21:13:46.079680 17112 layer_factory.hpp:77] Creating layer conv4_2
I0418 21:13:46.079689 17112 net.cpp:84] Creating Layer conv4_2
I0418 21:13:46.079694 17112 net.cpp:406] conv4_2 <- conv4_1
I0418 21:13:46.079701 17112 net.cpp:380] conv4_2 -> conv4_2
I0418 21:13:46.088752 17112 net.cpp:122] Setting up conv4_2
I0418 21:13:46.088791 17112 net.cpp:129] Top shape: 1 512 89 50 (2278400)
I0418 21:13:46.088799 17112 net.cpp:137] Memory required for data: 621892876
I0418 21:13:46.088814 17112 layer_factory.hpp:77] Creating layer relu4_2
I0418 21:13:46.088824 17112 net.cpp:84] Creating Layer relu4_2
I0418 21:13:46.088829 17112 net.cpp:406] relu4_2 <- conv4_2
I0418 21:13:46.088835 17112 net.cpp:367] relu4_2 -> conv4_2 (in-place)
I0418 21:13:46.089942 17112 net.cpp:122] Setting up relu4_2
I0418 21:13:46.089982 17112 net.cpp:129] Top shape: 1 512 89 50 (2278400)
I0418 21:13:46.089990 17112 net.cpp:137] Memory required for data: 631006476
I0418 21:13:46.089998 17112 layer_factory.hpp:77] Creating layer conv4_3
I0418 21:13:46.090014 17112 net.cpp:84] Creating Layer conv4_3
I0418 21:13:46.090020 17112 net.cpp:406] conv4_3 <- conv4_2
I0418 21:13:46.090034 17112 net.cpp:380] conv4_3 -> conv4_3
I0418 21:13:46.099050 17112 net.cpp:122] Setting up conv4_3
I0418 21:13:46.099086 17112 net.cpp:129] Top shape: 1 512 89 50 (2278400)
I0418 21:13:46.099092 17112 net.cpp:137] Memory required for data: 640120076
I0418 21:13:46.099098 17112 layer_factory.hpp:77] Creating layer relu4_3
I0418 21:13:46.099110 17112 net.cpp:84] Creating Layer relu4_3
I0418 21:13:46.099115 17112 net.cpp:406] relu4_3 <- conv4_3
I0418 21:13:46.099122 17112 net.cpp:367] relu4_3 -> conv4_3 (in-place)
I0418 21:13:46.100024 17112 net.cpp:122] Setting up relu4_3
I0418 21:13:46.100060 17112 net.cpp:129] Top shape: 1 512 89 50 (2278400)
I0418 21:13:46.100065 17112 net.cpp:137] Memory required for data: 649233676
I0418 21:13:46.100072 17112 layer_factory.hpp:77] Creating layer pool4
I0418 21:13:46.100082 17112 net.cpp:84] Creating Layer pool4
I0418 21:13:46.100087 17112 net.cpp:406] pool4 <- conv4_3
I0418 21:13:46.100098 17112 net.cpp:380] pool4 -> pool4
I0418 21:13:46.100189 17112 net.cpp:122] Setting up pool4
I0418 21:13:46.100198 17112 net.cpp:129] Top shape: 1 512 45 25 (576000)
I0418 21:13:46.100203 17112 net.cpp:137] Memory required for data: 651537676
I0418 21:13:46.100208 17112 layer_factory.hpp:77] Creating layer pool4_pool4_0_split
I0418 21:13:46.100219 17112 net.cpp:84] Creating Layer pool4_pool4_0_split
I0418 21:13:46.100221 17112 net.cpp:406] pool4_pool4_0_split <- pool4
I0418 21:13:46.100227 17112 net.cpp:380] pool4_pool4_0_split -> pool4_pool4_0_split_0
I0418 21:13:46.100234 17112 net.cpp:380] pool4_pool4_0_split -> pool4_pool4_0_split_1
I0418 21:13:46.100308 17112 net.cpp:122] Setting up pool4_pool4_0_split
I0418 21:13:46.100320 17112 net.cpp:129] Top shape: 1 512 45 25 (576000)
I0418 21:13:46.100325 17112 net.cpp:129] Top shape: 1 512 45 25 (576000)
I0418 21:13:46.100327 17112 net.cpp:137] Memory required for data: 656145676
I0418 21:13:46.100332 17112 layer_factory.hpp:77] Creating layer conv5_1
I0418 21:13:46.100342 17112 net.cpp:84] Creating Layer conv5_1
I0418 21:13:46.100345 17112 net.cpp:406] conv5_1 <- pool4_pool4_0_split_0
I0418 21:13:46.100356 17112 net.cpp:380] conv5_1 -> conv5_1
I0418 21:13:46.108829 17112 net.cpp:122] Setting up conv5_1
I0418 21:13:46.108862 17112 net.cpp:129] Top shape: 1 512 45 25 (576000)
I0418 21:13:46.108866 17112 net.cpp:137] Memory required for data: 658449676
I0418 21:13:46.108875 17112 layer_factory.hpp:77] Creating layer relu5_1
I0418 21:13:46.108881 17112 net.cpp:84] Creating Layer relu5_1
I0418 21:13:46.108886 17112 net.cpp:406] relu5_1 <- conv5_1
I0418 21:13:46.108891 17112 net.cpp:367] relu5_1 -> conv5_1 (in-place)
I0418 21:13:46.109127 17112 net.cpp:122] Setting up relu5_1
I0418 21:13:46.109138 17112 net.cpp:129] Top shape: 1 512 45 25 (576000)
I0418 21:13:46.109141 17112 net.cpp:137] Memory required for data: 660753676
I0418 21:13:46.109144 17112 layer_factory.hpp:77] Creating layer conv5_2
I0418 21:13:46.109154 17112 net.cpp:84] Creating Layer conv5_2
I0418 21:13:46.109163 17112 net.cpp:406] conv5_2 <- conv5_1
I0418 21:13:46.109169 17112 net.cpp:380] conv5_2 -> conv5_2
I0418 21:13:46.119693 17112 net.cpp:122] Setting up conv5_2
I0418 21:13:46.119756 17112 net.cpp:129] Top shape: 1 512 45 25 (576000)
I0418 21:13:46.119766 17112 net.cpp:137] Memory required for data: 663057676
I0418 21:13:46.119786 17112 layer_factory.hpp:77] Creating layer relu5_2
I0418 21:13:46.119825 17112 net.cpp:84] Creating Layer relu5_2
I0418 21:13:46.119837 17112 net.cpp:406] relu5_2 <- conv5_2
I0418 21:13:46.119853 17112 net.cpp:367] relu5_2 -> conv5_2 (in-place)
I0418 21:13:46.120391 17112 net.cpp:122] Setting up relu5_2
I0418 21:13:46.120410 17112 net.cpp:129] Top shape: 1 512 45 25 (576000)
I0418 21:13:46.120417 17112 net.cpp:137] Memory required for data: 665361676
I0418 21:13:46.120432 17112 layer_factory.hpp:77] Creating layer conv5_3
I0418 21:13:46.120455 17112 net.cpp:84] Creating Layer conv5_3
I0418 21:13:46.120463 17112 net.cpp:406] conv5_3 <- conv5_2
I0418 21:13:46.120484 17112 net.cpp:380] conv5_3 -> conv5_3
I0418 21:13:46.133750 17112 net.cpp:122] Setting up conv5_3
I0418 21:13:46.133787 17112 net.cpp:129] Top shape: 1 512 45 25 (576000)
I0418 21:13:46.133792 17112 net.cpp:137] Memory required for data: 667665676
I0418 21:13:46.133801 17112 layer_factory.hpp:77] Creating layer relu5_3
I0418 21:13:46.133811 17112 net.cpp:84] Creating Layer relu5_3
I0418 21:13:46.133818 17112 net.cpp:406] relu5_3 <- conv5_3
I0418 21:13:46.133824 17112 net.cpp:367] relu5_3 -> conv5_3 (in-place)
I0418 21:13:46.134153 17112 net.cpp:122] Setting up relu5_3
I0418 21:13:46.134172 17112 net.cpp:129] Top shape: 1 512 45 25 (576000)
I0418 21:13:46.134176 17112 net.cpp:137] Memory required for data: 669969676
I0418 21:13:46.134181 17112 layer_factory.hpp:77] Creating layer pool5
I0418 21:13:46.134191 17112 net.cpp:84] Creating Layer pool5
I0418 21:13:46.134194 17112 net.cpp:406] pool5 <- conv5_3
I0418 21:13:46.134205 17112 net.cpp:380] pool5 -> pool5
I0418 21:13:46.134294 17112 net.cpp:122] Setting up pool5
I0418 21:13:46.134320 17112 net.cpp:129] Top shape: 1 512 23 13 (153088)
I0418 21:13:46.134325 17112 net.cpp:137] Memory required for data: 670582028
I0418 21:13:46.134327 17112 layer_factory.hpp:77] Creating layer fc6
I0418 21:13:46.134349 17112 net.cpp:84] Creating Layer fc6
I0418 21:13:46.134354 17112 net.cpp:406] fc6 <- pool5
I0418 21:13:46.134361 17112 net.cpp:380] fc6 -> fc6
I0418 21:13:46.444988 17112 net.cpp:122] Setting up fc6
I0418 21:13:46.445039 17112 net.cpp:129] Top shape: 1 4096 17 7 (487424)
I0418 21:13:46.445044 17112 net.cpp:137] Memory required for data: 672531724
I0418 21:13:46.445056 17112 layer_factory.hpp:77] Creating layer relu6
I0418 21:13:46.445077 17112 net.cpp:84] Creating Layer relu6
I0418 21:13:46.445082 17112 net.cpp:406] relu6 <- fc6
I0418 21:13:46.445091 17112 net.cpp:367] relu6 -> fc6 (in-place)
I0418 21:13:46.445348 17112 net.cpp:122] Setting up relu6
I0418 21:13:46.445359 17112 net.cpp:129] Top shape: 1 4096 17 7 (487424)
I0418 21:13:46.445363 17112 net.cpp:137] Memory required for data: 674481420
I0418 21:13:46.445366 17112 layer_factory.hpp:77] Creating layer drop6
I0418 21:13:46.445375 17112 net.cpp:84] Creating Layer drop6
I0418 21:13:46.445379 17112 net.cpp:406] drop6 <- fc6
I0418 21:13:46.445384 17112 net.cpp:367] drop6 -> fc6 (in-place)
I0418 21:13:46.445469 17112 net.cpp:122] Setting up drop6
I0418 21:13:46.445478 17112 net.cpp:129] Top shape: 1 4096 17 7 (487424)
I0418 21:13:46.445482 17112 net.cpp:137] Memory required for data: 676431116
I0418 21:13:46.445487 17112 layer_factory.hpp:77] Creating layer fc7
I0418 21:13:46.445500 17112 net.cpp:84] Creating Layer fc7
I0418 21:13:46.445503 17112 net.cpp:406] fc7 <- fc6
I0418 21:13:46.445509 17112 net.cpp:380] fc7 -> fc7
I0418 21:13:46.500027 17112 net.cpp:122] Setting up fc7
I0418 21:13:46.500095 17112 net.cpp:129] Top shape: 1 4096 17 7 (487424)
I0418 21:13:46.500107 17112 net.cpp:137] Memory required for data: 678380812
I0418 21:13:46.500123 17112 layer_factory.hpp:77] Creating layer relu7
I0418 21:13:46.500164 17112 net.cpp:84] Creating Layer relu7
I0418 21:13:46.500174 17112 net.cpp:406] relu7 <- fc7
I0418 21:13:46.500188 17112 net.cpp:367] relu7 -> fc7 (in-place)
I0418 21:13:46.501094 17112 net.cpp:122] Setting up relu7
I0418 21:13:46.501124 17112 net.cpp:129] Top shape: 1 4096 17 7 (487424)
I0418 21:13:46.501128 17112 net.cpp:137] Memory required for data: 680330508
I0418 21:13:46.501133 17112 layer_factory.hpp:77] Creating layer drop7
I0418 21:13:46.501142 17112 net.cpp:84] Creating Layer drop7
I0418 21:13:46.501147 17112 net.cpp:406] drop7 <- fc7
I0418 21:13:46.501153 17112 net.cpp:367] drop7 -> fc7 (in-place)
I0418 21:13:46.501221 17112 net.cpp:122] Setting up drop7
I0418 21:13:46.501230 17112 net.cpp:129] Top shape: 1 4096 17 7 (487424)
I0418 21:13:46.501232 17112 net.cpp:137] Memory required for data: 682280204
I0418 21:13:46.501235 17112 layer_factory.hpp:77] Creating layer score_fr-new
I0418 21:13:46.501246 17112 net.cpp:84] Creating Layer score_fr-new
I0418 21:13:46.501250 17112 net.cpp:406] score_fr-new <- fc7
I0418 21:13:46.501256 17112 net.cpp:380] score_fr-new -> score_fr-new
I0418 21:13:46.502766 17112 net.cpp:122] Setting up score_fr-new
I0418 21:13:46.502785 17112 net.cpp:129] Top shape: 1 3 17 7 (357)
I0418 21:13:46.502790 17112 net.cpp:137] Memory required for data: 682281632
I0418 21:13:46.502800 17112 layer_factory.hpp:77] Creating layer upscore2-new
I0418 21:13:46.502812 17112 net.cpp:84] Creating Layer upscore2-new
I0418 21:13:46.502818 17112 net.cpp:406] upscore2-new <- score_fr-new
I0418 21:13:46.502827 17112 net.cpp:380] upscore2-new -> upscore2-new
I0418 21:13:46.503309 17112 net.cpp:122] Setting up upscore2-new
I0418 21:13:46.503321 17112 net.cpp:129] Top shape: 1 3 36 16 (1728)
I0418 21:13:46.503325 17112 net.cpp:137] Memory required for data: 682288544
I0418 21:13:46.503346 17112 layer_factory.hpp:77] Creating layer upscore2-new_upscore2-new_0_split
I0418 21:13:46.503356 17112 net.cpp:84] Creating Layer upscore2-new_upscore2-new_0_split
I0418 21:13:46.503361 17112 net.cpp:406] upscore2-new_upscore2-new_0_split <- upscore2-new
I0418 21:13:46.503371 17112 net.cpp:380] upscore2-new_upscore2-new_0_split -> upscore2-new_upscore2-new_0_split_0
I0418 21:13:46.503379 17112 net.cpp:380] upscore2-new_upscore2-new_0_split -> upscore2-new_upscore2-new_0_split_1
I0418 21:13:46.503463 17112 net.cpp:122] Setting up upscore2-new_upscore2-new_0_split
I0418 21:13:46.503473 17112 net.cpp:129] Top shape: 1 3 36 16 (1728)
I0418 21:13:46.503479 17112 net.cpp:129] Top shape: 1 3 36 16 (1728)
I0418 21:13:46.503484 17112 net.cpp:137] Memory required for data: 682302368
I0418 21:13:46.503490 17112 layer_factory.hpp:77] Creating layer score_pool4-new
I0418 21:13:46.503502 17112 net.cpp:84] Creating Layer score_pool4-new
I0418 21:13:46.503509 17112 net.cpp:406] score_pool4-new <- pool4_pool4_0_split_1
I0418 21:13:46.503517 17112 net.cpp:380] score_pool4-new -> score_pool4-new
I0418 21:13:46.506691 17112 net.cpp:122] Setting up score_pool4-new
I0418 21:13:46.506726 17112 net.cpp:129] Top shape: 1 3 45 25 (3375)
I0418 21:13:46.506737 17112 net.cpp:137] Memory required for data: 682315868
I0418 21:13:46.506749 17112 layer_factory.hpp:77] Creating layer score_pool4c
I0418 21:13:46.506768 17112 net.cpp:84] Creating Layer score_pool4c
I0418 21:13:46.506777 17112 net.cpp:406] score_pool4c <- score_pool4-new
I0418 21:13:46.506793 17112 net.cpp:406] score_pool4c <- upscore2-new_upscore2-new_0_split_0
I0418 21:13:46.506809 17112 net.cpp:380] score_pool4c -> score_pool4c
I0418 21:13:46.506927 17112 net.cpp:122] Setting up score_pool4c
I0418 21:13:46.506947 17112 net.cpp:129] Top shape: 1 3 36 16 (1728)
I0418 21:13:46.506950 17112 net.cpp:137] Memory required for data: 682322780
I0418 21:13:46.506955 17112 layer_factory.hpp:77] Creating layer fuse_pool4
I0418 21:13:46.506978 17112 net.cpp:84] Creating Layer fuse_pool4
I0418 21:13:46.506985 17112 net.cpp:406] fuse_pool4 <- upscore2-new_upscore2-new_0_split_1
I0418 21:13:46.507006 17112 net.cpp:406] fuse_pool4 <- score_pool4c
I0418 21:13:46.507030 17112 net.cpp:380] fuse_pool4 -> fuse_pool4
I0418 21:13:46.507151 17112 net.cpp:122] Setting up fuse_pool4
I0418 21:13:46.507163 17112 net.cpp:129] Top shape: 1 3 36 16 (1728)
I0418 21:13:46.507172 17112 net.cpp:137] Memory required for data: 682329692
I0418 21:13:46.507184 17112 layer_factory.hpp:77] Creating layer upscore_pool4-new
I0418 21:13:46.507207 17112 net.cpp:84] Creating Layer upscore_pool4-new
I0418 21:13:46.507228 17112 net.cpp:406] upscore_pool4-new <- fuse_pool4
I0418 21:13:46.507244 17112 net.cpp:380] upscore_pool4-new -> upscore_pool4-new
I0418 21:13:46.507942 17112 net.cpp:122] Setting up upscore_pool4-new
I0418 21:13:46.507957 17112 net.cpp:129] Top shape: 1 3 74 34 (7548)
I0418 21:13:46.507962 17112 net.cpp:137] Memory required for data: 682359884
I0418 21:13:46.507969 17112 layer_factory.hpp:77] Creating layer upscore_pool4-new_upscore_pool4-new_0_split
I0418 21:13:46.507977 17112 net.cpp:84] Creating Layer upscore_pool4-new_upscore_pool4-new_0_split
I0418 21:13:46.507982 17112 net.cpp:406] upscore_pool4-new_upscore_pool4-new_0_split <- upscore_pool4-new
I0418 21:13:46.507989 17112 net.cpp:380] upscore_pool4-new_upscore_pool4-new_0_split -> upscore_pool4-new_upscore_pool4-new_0_split_0
I0418 21:13:46.508000 17112 net.cpp:380] upscore_pool4-new_upscore_pool4-new_0_split -> upscore_pool4-new_upscore_pool4-new_0_split_1
I0418 21:13:46.508090 17112 net.cpp:122] Setting up upscore_pool4-new_upscore_pool4-new_0_split
I0418 21:13:46.508101 17112 net.cpp:129] Top shape: 1 3 74 34 (7548)
I0418 21:13:46.508107 17112 net.cpp:129] Top shape: 1 3 74 34 (7548)
I0418 21:13:46.508111 17112 net.cpp:137] Memory required for data: 682420268
I0418 21:13:46.508116 17112 layer_factory.hpp:77] Creating layer score_pool3-new
I0418 21:13:46.508137 17112 net.cpp:84] Creating Layer score_pool3-new
I0418 21:13:46.508147 17112 net.cpp:406] score_pool3-new <- pool3_pool3_0_split_1
I0418 21:13:46.508157 17112 net.cpp:380] score_pool3-new -> score_pool3-new
I0418 21:13:46.510802 17112 net.cpp:122] Setting up score_pool3-new
I0418 21:13:46.510823 17112 net.cpp:129] Top shape: 1 3 89 50 (13350)
I0418 21:13:46.510828 17112 net.cpp:137] Memory required for data: 682473668
I0418 21:13:46.510838 17112 layer_factory.hpp:77] Creating layer score_pool3c
I0418 21:13:46.510848 17112 net.cpp:84] Creating Layer score_pool3c
I0418 21:13:46.510854 17112 net.cpp:406] score_pool3c <- score_pool3-new
I0418 21:13:46.510862 17112 net.cpp:406] score_pool3c <- upscore_pool4-new_upscore_pool4-new_0_split_0
I0418 21:13:46.510869 17112 net.cpp:380] score_pool3c -> score_pool3c
I0418 21:13:46.510931 17112 net.cpp:122] Setting up score_pool3c
I0418 21:13:46.510938 17112 net.cpp:129] Top shape: 1 3 74 34 (7548)
I0418 21:13:46.510942 17112 net.cpp:137] Memory required for data: 682503860
I0418 21:13:46.510949 17112 layer_factory.hpp:77] Creating layer fuse_pool3
I0418 21:13:46.510958 17112 net.cpp:84] Creating Layer fuse_pool3
I0418 21:13:46.510962 17112 net.cpp:406] fuse_pool3 <- upscore_pool4-new_upscore_pool4-new_0_split_1
I0418 21:13:46.510969 17112 net.cpp:406] fuse_pool3 <- score_pool3c
I0418 21:13:46.510978 17112 net.cpp:380] fuse_pool3 -> fuse_pool3
I0418 21:13:46.511027 17112 net.cpp:122] Setting up fuse_pool3
I0418 21:13:46.511039 17112 net.cpp:129] Top shape: 1 3 74 34 (7548)
I0418 21:13:46.511042 17112 net.cpp:137] Memory required for data: 682534052
I0418 21:13:46.511046 17112 layer_factory.hpp:77] Creating layer upscore8-new
I0418 21:13:46.511057 17112 net.cpp:84] Creating Layer upscore8-new
I0418 21:13:46.511062 17112 net.cpp:406] upscore8-new <- fuse_pool3
I0418 21:13:46.511071 17112 net.cpp:380] upscore8-new -> upscore8-new
I0418 21:13:46.511732 17112 net.cpp:122] Setting up upscore8-new
I0418 21:13:46.511756 17112 net.cpp:129] Top shape: 1 3 600 280 (504000)
I0418 21:13:46.511766 17112 net.cpp:137] Memory required for data: 684550052
I0418 21:13:46.511778 17112 layer_factory.hpp:77] Creating layer upscore8_cropped
I0418 21:13:46.511798 17112 net.cpp:84] Creating Layer upscore8_cropped
I0418 21:13:46.511804 17112 net.cpp:406] upscore8_cropped <- upscore8-new
I0418 21:13:46.511811 17112 net.cpp:406] upscore8_cropped <- data_data_0_split_1
I0418 21:13:46.511821 17112 net.cpp:380] upscore8_cropped -> upscore8_cropped
I0418 21:13:46.511898 17112 net.cpp:122] Setting up upscore8_cropped
I0418 21:13:46.511909 17112 net.cpp:129] Top shape: 1 3 512 199 (305664)
I0418 21:13:46.511914 17112 net.cpp:137] Memory required for data: 685772708
I0418 21:13:46.511917 17112 layer_factory.hpp:77] Creating layer score
I0418 21:13:46.511955 17112 net.cpp:84] Creating Layer score
I0418 21:13:46.511970 17112 net.cpp:406] score <- upscore8_cropped
I0418 21:13:46.511984 17112 net.cpp:380] score -> score
I0418 21:13:46.514840 17112 net.cpp:122] Setting up score
I0418 21:13:46.514871 17112 net.cpp:129] Top shape: 1 3 512 199 (305664)
I0418 21:13:46.514879 17112 net.cpp:137] Memory required for data: 686995364
I0418 21:13:46.514888 17112 layer_factory.hpp:77] Creating layer score_score_0_split
I0418 21:13:46.514896 17112 net.cpp:84] Creating Layer score_score_0_split
I0418 21:13:46.514901 17112 net.cpp:406] score_score_0_split <- score
I0418 21:13:46.514907 17112 net.cpp:380] score_score_0_split -> score_score_0_split_0
I0418 21:13:46.514930 17112 net.cpp:380] score_score_0_split -> score_score_0_split_1
I0418 21:13:46.515005 17112 net.cpp:122] Setting up score_score_0_split
I0418 21:13:46.515014 17112 net.cpp:129] Top shape: 1 3 512 199 (305664)
I0418 21:13:46.515018 17112 net.cpp:129] Top shape: 1 3 512 199 (305664)
I0418 21:13:46.515022 17112 net.cpp:137] Memory required for data: 689440676
I0418 21:13:46.515025 17112 layer_factory.hpp:77] Creating layer prob
I0418 21:13:46.515033 17112 net.cpp:84] Creating Layer prob
I0418 21:13:46.515038 17112 net.cpp:406] prob <- score_score_0_split_0
I0418 21:13:46.515064 17112 net.cpp:380] prob -> prob
I0418 21:13:46.515467 17112 net.cpp:122] Setting up prob
I0418 21:13:46.515501 17112 net.cpp:129] Top shape: 1 3 512 199 (305664)
I0418 21:13:46.515506 17112 net.cpp:137] Memory required for data: 690663332
I0418 21:13:46.515509 17112 layer_factory.hpp:77] Creating layer saliency
I0418 21:13:46.515522 17112 net.cpp:84] Creating Layer saliency
I0418 21:13:46.515525 17112 net.cpp:406] saliency <- prob
I0418 21:13:46.515533 17112 net.cpp:380] saliency -> saliency
I0418 21:13:46.517926 17112 net.cpp:122] Setting up saliency
I0418 21:13:46.517956 17112 net.cpp:129] Top shape: 1 3 512 199 (305664)
I0418 21:13:46.517961 17112 net.cpp:137] Memory required for data: 691885988
I0418 21:13:46.517967 17112 layer_factory.hpp:77] Creating layer saliency_data
I0418 21:13:46.517977 17112 net.cpp:84] Creating Layer saliency_data
I0418 21:13:46.517984 17112 net.cpp:406] saliency_data <- data_data_0_split_2
I0418 21:13:46.518013 17112 net.cpp:406] saliency_data <- saliency
I0418 21:13:46.518021 17112 net.cpp:380] saliency_data -> saliency_data
I0418 21:13:46.518069 17112 net.cpp:122] Setting up saliency_data
I0418 21:13:46.518086 17112 net.cpp:129] Top shape: 1 3 512 199 (305664)
I0418 21:13:46.518092 17112 net.cpp:137] Memory required for data: 693108644
I0418 21:13:46.518100 17112 layer_factory.hpp:77] Creating layer crop
I0418 21:13:46.518286 17112 net.cpp:84] Creating Layer crop
I0418 21:13:46.518296 17112 net.cpp:406] crop <- label_data_1_split_0
I0418 21:13:46.518302 17112 net.cpp:406] crop <- saliency_data
I0418 21:13:46.518306 17112 net.cpp:406] crop <- crop_margin
I0418 21:13:46.518316 17112 net.cpp:406] crop <- crop_prob
I0418 21:13:46.518322 17112 net.cpp:406] crop <- crop_sample_batch
I0418 21:13:46.518335 17112 net.cpp:380] crop -> data-R
I0418 21:13:46.518347 17112 net.cpp:380] crop -> crop_info
I0418 21:13:46.523648 17112 net.cpp:122] Setting up crop
I0418 21:13:46.523679 17112 net.cpp:129] Top shape: 1 3 512 199 (305664)
I0418 21:13:46.523684 17112 net.cpp:129] Top shape: 1 2 4 (8)
I0418 21:13:46.523687 17112 net.cpp:137] Memory required for data: 694331332
I0418 21:13:46.523690 17112 layer_factory.hpp:77] Creating layer data-R_crop_0_split
I0418 21:13:46.523699 17112 net.cpp:84] Creating Layer data-R_crop_0_split
I0418 21:13:46.523702 17112 net.cpp:406] data-R_crop_0_split <- data-R
I0418 21:13:46.523707 17112 net.cpp:380] data-R_crop_0_split -> data-R_crop_0_split_0
I0418 21:13:46.523715 17112 net.cpp:380] data-R_crop_0_split -> data-R_crop_0_split_1
I0418 21:13:46.523797 17112 net.cpp:122] Setting up data-R_crop_0_split
I0418 21:13:46.523811 17112 net.cpp:129] Top shape: 1 3 512 199 (305664)
I0418 21:13:46.523816 17112 net.cpp:129] Top shape: 1 3 512 199 (305664)
I0418 21:13:46.523819 17112 net.cpp:137] Memory required for data: 696776644
I0418 21:13:46.523823 17112 layer_factory.hpp:77] Creating layer conv1_1-R
I0418 21:13:46.523830 17112 net.cpp:84] Creating Layer conv1_1-R
I0418 21:13:46.523834 17112 net.cpp:406] conv1_1-R <- data-R_crop_0_split_0
I0418 21:13:46.523839 17112 net.cpp:380] conv1_1-R -> conv1_1-R
I0418 21:13:46.527132 17112 net.cpp:122] Setting up conv1_1-R
I0418 21:13:46.527161 17112 net.cpp:129] Top shape: 1 64 710 397 (18039680)
I0418 21:13:46.527165 17112 net.cpp:137] Memory required for data: 768935364
I0418 21:13:46.527173 17112 layer_factory.hpp:77] Creating layer relu1_1-R
I0418 21:13:46.527179 17112 net.cpp:84] Creating Layer relu1_1-R
I0418 21:13:46.527182 17112 net.cpp:406] relu1_1-R <- conv1_1-R
I0418 21:13:46.527187 17112 net.cpp:367] relu1_1-R -> conv1_1-R (in-place)
I0418 21:13:46.528028 17112 net.cpp:122] Setting up relu1_1-R
I0418 21:13:46.528059 17112 net.cpp:129] Top shape: 1 64 710 397 (18039680)
I0418 21:13:46.528062 17112 net.cpp:137] Memory required for data: 841094084
I0418 21:13:46.528069 17112 layer_factory.hpp:77] Creating layer conv1_2-R
I0418 21:13:46.528085 17112 net.cpp:84] Creating Layer conv1_2-R
I0418 21:13:46.528090 17112 net.cpp:406] conv1_2-R <- conv1_1-R
I0418 21:13:46.528096 17112 net.cpp:380] conv1_2-R -> conv1_2-R
I0418 21:13:46.530896 17112 net.cpp:122] Setting up conv1_2-R
I0418 21:13:46.530926 17112 net.cpp:129] Top shape: 1 64 710 397 (18039680)
I0418 21:13:46.530931 17112 net.cpp:137] Memory required for data: 913252804
I0418 21:13:46.530941 17112 layer_factory.hpp:77] Creating layer relu1_2-R
I0418 21:13:46.530949 17112 net.cpp:84] Creating Layer relu1_2-R
I0418 21:13:46.530953 17112 net.cpp:406] relu1_2-R <- conv1_2-R
I0418 21:13:46.530961 17112 net.cpp:367] relu1_2-R -> conv1_2-R (in-place)
I0418 21:13:46.531869 17112 net.cpp:122] Setting up relu1_2-R
I0418 21:13:46.531898 17112 net.cpp:129] Top shape: 1 64 710 397 (18039680)
I0418 21:13:46.531901 17112 net.cpp:137] Memory required for data: 985411524
I0418 21:13:46.531905 17112 layer_factory.hpp:77] Creating layer pool1-R
I0418 21:13:46.531914 17112 net.cpp:84] Creating Layer pool1-R
I0418 21:13:46.531919 17112 net.cpp:406] pool1-R <- conv1_2-R
I0418 21:13:46.531929 17112 net.cpp:380] pool1-R -> pool1-R
I0418 21:13:46.532037 17112 net.cpp:122] Setting up pool1-R
I0418 21:13:46.532045 17112 net.cpp:129] Top shape: 1 64 355 199 (4521280)
I0418 21:13:46.532048 17112 net.cpp:137] Memory required for data: 1003496644
I0418 21:13:46.532052 17112 layer_factory.hpp:77] Creating layer conv2_1-R
I0418 21:13:46.532061 17112 net.cpp:84] Creating Layer conv2_1-R
I0418 21:13:46.532065 17112 net.cpp:406] conv2_1-R <- pool1-R
I0418 21:13:46.532071 17112 net.cpp:380] conv2_1-R -> conv2_1-R
I0418 21:13:46.533969 17112 net.cpp:122] Setting up conv2_1-R
I0418 21:13:46.534000 17112 net.cpp:129] Top shape: 1 128 355 199 (9042560)
I0418 21:13:46.534004 17112 net.cpp:137] Memory required for data: 1039666884
I0418 21:13:46.534013 17112 layer_factory.hpp:77] Creating layer relu2_1-R
I0418 21:13:46.534023 17112 net.cpp:84] Creating Layer relu2_1-R
I0418 21:13:46.534026 17112 net.cpp:406] relu2_1-R <- conv2_1-R
I0418 21:13:46.534031 17112 net.cpp:367] relu2_1-R -> conv2_1-R (in-place)
I0418 21:13:46.534302 17112 net.cpp:122] Setting up relu2_1-R
I0418 21:13:46.534314 17112 net.cpp:129] Top shape: 1 128 355 199 (9042560)
I0418 21:13:46.534318 17112 net.cpp:137] Memory required for data: 1075837124
I0418 21:13:46.534322 17112 layer_factory.hpp:77] Creating layer conv2_2-R
I0418 21:13:46.534332 17112 net.cpp:84] Creating Layer conv2_2-R
I0418 21:13:46.534335 17112 net.cpp:406] conv2_2-R <- conv2_1-R
I0418 21:13:46.534343 17112 net.cpp:380] conv2_2-R -> conv2_2-R
I0418 21:13:46.536638 17112 net.cpp:122] Setting up conv2_2-R
I0418 21:13:46.536675 17112 net.cpp:129] Top shape: 1 128 355 199 (9042560)
I0418 21:13:46.536682 17112 net.cpp:137] Memory required for data: 1112007364
I0418 21:13:46.536695 17112 layer_factory.hpp:77] Creating layer relu2_2-R
I0418 21:13:46.536705 17112 net.cpp:84] Creating Layer relu2_2-R
I0418 21:13:46.536708 17112 net.cpp:406] relu2_2-R <- conv2_2-R
I0418 21:13:46.536729 17112 net.cpp:367] relu2_2-R -> conv2_2-R (in-place)
I0418 21:13:46.537048 17112 net.cpp:122] Setting up relu2_2-R
I0418 21:13:46.537060 17112 net.cpp:129] Top shape: 1 128 355 199 (9042560)
I0418 21:13:46.537062 17112 net.cpp:137] Memory required for data: 1148177604
I0418 21:13:46.537066 17112 layer_factory.hpp:77] Creating layer pool2-R
I0418 21:13:46.537077 17112 net.cpp:84] Creating Layer pool2-R
I0418 21:13:46.537084 17112 net.cpp:406] pool2-R <- conv2_2-R
I0418 21:13:46.537096 17112 net.cpp:380] pool2-R -> pool2-R
I0418 21:13:46.537196 17112 net.cpp:122] Setting up pool2-R
I0418 21:13:46.537211 17112 net.cpp:129] Top shape: 1 128 178 100 (2278400)
I0418 21:13:46.537216 17112 net.cpp:137] Memory required for data: 1157291204
I0418 21:13:46.537221 17112 layer_factory.hpp:77] Creating layer conv3_1-R
I0418 21:13:46.537231 17112 net.cpp:84] Creating Layer conv3_1-R
I0418 21:13:46.537235 17112 net.cpp:406] conv3_1-R <- pool2-R
I0418 21:13:46.537243 17112 net.cpp:380] conv3_1-R -> conv3_1-R
I0418 21:13:46.541653 17112 net.cpp:122] Setting up conv3_1-R
I0418 21:13:46.541684 17112 net.cpp:129] Top shape: 1 256 178 100 (4556800)
I0418 21:13:46.541688 17112 net.cpp:137] Memory required for data: 1175518404
I0418 21:13:46.541697 17112 layer_factory.hpp:77] Creating layer relu3_1-R
I0418 21:13:46.541712 17112 net.cpp:84] Creating Layer relu3_1-R
I0418 21:13:46.541716 17112 net.cpp:406] relu3_1-R <- conv3_1-R
I0418 21:13:46.541721 17112 net.cpp:367] relu3_1-R -> conv3_1-R (in-place)
I0418 21:13:46.541997 17112 net.cpp:122] Setting up relu3_1-R
I0418 21:13:46.542008 17112 net.cpp:129] Top shape: 1 256 178 100 (4556800)
I0418 21:13:46.542011 17112 net.cpp:137] Memory required for data: 1193745604
I0418 21:13:46.542016 17112 layer_factory.hpp:77] Creating layer conv3_2-R
I0418 21:13:46.542027 17112 net.cpp:84] Creating Layer conv3_2-R
I0418 21:13:46.542032 17112 net.cpp:406] conv3_2-R <- conv3_1-R
I0418 21:13:46.542040 17112 net.cpp:380] conv3_2-R -> conv3_2-R
I0418 21:13:46.546869 17112 net.cpp:122] Setting up conv3_2-R
I0418 21:13:46.546910 17112 net.cpp:129] Top shape: 1 256 178 100 (4556800)
I0418 21:13:46.546916 17112 net.cpp:137] Memory required for data: 1211972804
I0418 21:13:46.546926 17112 layer_factory.hpp:77] Creating layer relu3_2-R
I0418 21:13:46.546939 17112 net.cpp:84] Creating Layer relu3_2-R
I0418 21:13:46.546947 17112 net.cpp:406] relu3_2-R <- conv3_2-R
I0418 21:13:46.546954 17112 net.cpp:367] relu3_2-R -> conv3_2-R (in-place)
I0418 21:13:46.547370 17112 net.cpp:122] Setting up relu3_2-R
I0418 21:13:46.547405 17112 net.cpp:129] Top shape: 1 256 178 100 (4556800)
I0418 21:13:46.547425 17112 net.cpp:137] Memory required for data: 1230200004
I0418 21:13:46.547435 17112 layer_factory.hpp:77] Creating layer conv3_3-R
I0418 21:13:46.547449 17112 net.cpp:84] Creating Layer conv3_3-R
I0418 21:13:46.547456 17112 net.cpp:406] conv3_3-R <- conv3_2-R
I0418 21:13:46.547463 17112 net.cpp:380] conv3_3-R -> conv3_3-R
I0418 21:13:46.552484 17112 net.cpp:122] Setting up conv3_3-R
I0418 21:13:46.552518 17112 net.cpp:129] Top shape: 1 256 178 100 (4556800)
I0418 21:13:46.552523 17112 net.cpp:137] Memory required for data: 1248427204
I0418 21:13:46.552532 17112 layer_factory.hpp:77] Creating layer relu3_3-R
I0418 21:13:46.552541 17112 net.cpp:84] Creating Layer relu3_3-R
I0418 21:13:46.552549 17112 net.cpp:406] relu3_3-R <- conv3_3-R
I0418 21:13:46.552557 17112 net.cpp:367] relu3_3-R -> conv3_3-R (in-place)
I0418 21:13:46.553683 17112 net.cpp:122] Setting up relu3_3-R
I0418 21:13:46.553715 17112 net.cpp:129] Top shape: 1 256 178 100 (4556800)
I0418 21:13:46.553722 17112 net.cpp:137] Memory required for data: 1266654404
I0418 21:13:46.553727 17112 layer_factory.hpp:77] Creating layer pool3-R
I0418 21:13:46.553742 17112 net.cpp:84] Creating Layer pool3-R
I0418 21:13:46.553745 17112 net.cpp:406] pool3-R <- conv3_3-R
I0418 21:13:46.553768 17112 net.cpp:380] pool3-R -> pool3-R
I0418 21:13:46.553869 17112 net.cpp:122] Setting up pool3-R
I0418 21:13:46.553879 17112 net.cpp:129] Top shape: 1 256 89 50 (1139200)
I0418 21:13:46.553884 17112 net.cpp:137] Memory required for data: 1271211204
I0418 21:13:46.553887 17112 layer_factory.hpp:77] Creating layer pool3-R_pool3-R_0_split
I0418 21:13:46.553915 17112 net.cpp:84] Creating Layer pool3-R_pool3-R_0_split
I0418 21:13:46.553920 17112 net.cpp:406] pool3-R_pool3-R_0_split <- pool3-R
I0418 21:13:46.553930 17112 net.cpp:380] pool3-R_pool3-R_0_split -> pool3-R_pool3-R_0_split_0
I0418 21:13:46.553937 17112 net.cpp:380] pool3-R_pool3-R_0_split -> pool3-R_pool3-R_0_split_1
I0418 21:13:46.554020 17112 net.cpp:122] Setting up pool3-R_pool3-R_0_split
I0418 21:13:46.554033 17112 net.cpp:129] Top shape: 1 256 89 50 (1139200)
I0418 21:13:46.554041 17112 net.cpp:129] Top shape: 1 256 89 50 (1139200)
I0418 21:13:46.554047 17112 net.cpp:137] Memory required for data: 1280324804
I0418 21:13:46.554054 17112 layer_factory.hpp:77] Creating layer conv4_1-R
I0418 21:13:46.554064 17112 net.cpp:84] Creating Layer conv4_1-R
I0418 21:13:46.554069 17112 net.cpp:406] conv4_1-R <- pool3-R_pool3-R_0_split_0
I0418 21:13:46.554076 17112 net.cpp:380] conv4_1-R -> conv4_1-R
I0418 21:13:46.559670 17112 net.cpp:122] Setting up conv4_1-R
I0418 21:13:46.559708 17112 net.cpp:129] Top shape: 1 512 89 50 (2278400)
I0418 21:13:46.559715 17112 net.cpp:137] Memory required for data: 1289438404
I0418 21:13:46.559723 17112 layer_factory.hpp:77] Creating layer relu4_1-R
I0418 21:13:46.559733 17112 net.cpp:84] Creating Layer relu4_1-R
I0418 21:13:46.559741 17112 net.cpp:406] relu4_1-R <- conv4_1-R
I0418 21:13:46.559763 17112 net.cpp:367] relu4_1-R -> conv4_1-R (in-place)
I0418 21:13:46.560863 17112 net.cpp:122] Setting up relu4_1-R
I0418 21:13:46.560878 17112 net.cpp:129] Top shape: 1 512 89 50 (2278400)
I0418 21:13:46.560899 17112 net.cpp:137] Memory required for data: 1298552004
I0418 21:13:46.560904 17112 layer_factory.hpp:77] Creating layer conv4_2-R
I0418 21:13:46.560919 17112 net.cpp:84] Creating Layer conv4_2-R
I0418 21:13:46.560923 17112 net.cpp:406] conv4_2-R <- conv4_1-R
I0418 21:13:46.560930 17112 net.cpp:380] conv4_2-R -> conv4_2-R
I0418 21:13:46.570827 17112 net.cpp:122] Setting up conv4_2-R
I0418 21:13:46.570866 17112 net.cpp:129] Top shape: 1 512 89 50 (2278400)
I0418 21:13:46.570870 17112 net.cpp:137] Memory required for data: 1307665604
I0418 21:13:46.570878 17112 layer_factory.hpp:77] Creating layer relu4_2-R
I0418 21:13:46.570895 17112 net.cpp:84] Creating Layer relu4_2-R
I0418 21:13:46.570905 17112 net.cpp:406] relu4_2-R <- conv4_2-R
I0418 21:13:46.570932 17112 net.cpp:367] relu4_2-R -> conv4_2-R (in-place)
I0418 21:13:46.571281 17112 net.cpp:122] Setting up relu4_2-R
I0418 21:13:46.571292 17112 net.cpp:129] Top shape: 1 512 89 50 (2278400)
I0418 21:13:46.571311 17112 net.cpp:137] Memory required for data: 1316779204
I0418 21:13:46.571316 17112 layer_factory.hpp:77] Creating layer conv4_3-R
I0418 21:13:46.571331 17112 net.cpp:84] Creating Layer conv4_3-R
I0418 21:13:46.571336 17112 net.cpp:406] conv4_3-R <- conv4_2-R
I0418 21:13:46.571348 17112 net.cpp:380] conv4_3-R -> conv4_3-R
I0418 21:13:46.581003 17112 net.cpp:122] Setting up conv4_3-R
I0418 21:13:46.581046 17112 net.cpp:129] Top shape: 1 512 89 50 (2278400)
I0418 21:13:46.581053 17112 net.cpp:137] Memory required for data: 1325892804
I0418 21:13:46.581069 17112 layer_factory.hpp:77] Creating layer relu4_3-R
I0418 21:13:46.581099 17112 net.cpp:84] Creating Layer relu4_3-R
I0418 21:13:46.581105 17112 net.cpp:406] relu4_3-R <- conv4_3-R
I0418 21:13:46.581111 17112 net.cpp:367] relu4_3-R -> conv4_3-R (in-place)
I0418 21:13:46.581504 17112 net.cpp:122] Setting up relu4_3-R
I0418 21:13:46.581540 17112 net.cpp:129] Top shape: 1 512 89 50 (2278400)
I0418 21:13:46.581547 17112 net.cpp:137] Memory required for data: 1335006404
I0418 21:13:46.581555 17112 layer_factory.hpp:77] Creating layer pool4-R
I0418 21:13:46.581569 17112 net.cpp:84] Creating Layer pool4-R
I0418 21:13:46.581589 17112 net.cpp:406] pool4-R <- conv4_3-R
I0418 21:13:46.581619 17112 net.cpp:380] pool4-R -> pool4-R
I0418 21:13:46.581768 17112 net.cpp:122] Setting up pool4-R
I0418 21:13:46.581782 17112 net.cpp:129] Top shape: 1 512 45 25 (576000)
I0418 21:13:46.581789 17112 net.cpp:137] Memory required for data: 1337310404
I0418 21:13:46.581791 17112 layer_factory.hpp:77] Creating layer pool4-R_pool4-R_0_split
I0418 21:13:46.581804 17112 net.cpp:84] Creating Layer pool4-R_pool4-R_0_split
I0418 21:13:46.581812 17112 net.cpp:406] pool4-R_pool4-R_0_split <- pool4-R
I0418 21:13:46.581823 17112 net.cpp:380] pool4-R_pool4-R_0_split -> pool4-R_pool4-R_0_split_0
I0418 21:13:46.581835 17112 net.cpp:380] pool4-R_pool4-R_0_split -> pool4-R_pool4-R_0_split_1
I0418 21:13:46.581969 17112 net.cpp:122] Setting up pool4-R_pool4-R_0_split
I0418 21:13:46.581981 17112 net.cpp:129] Top shape: 1 512 45 25 (576000)
I0418 21:13:46.581990 17112 net.cpp:129] Top shape: 1 512 45 25 (576000)
I0418 21:13:46.581998 17112 net.cpp:137] Memory required for data: 1341918404
I0418 21:13:46.582005 17112 layer_factory.hpp:77] Creating layer conv5_1-R
I0418 21:13:46.582015 17112 net.cpp:84] Creating Layer conv5_1-R
I0418 21:13:46.582020 17112 net.cpp:406] conv5_1-R <- pool4-R_pool4-R_0_split_0
I0418 21:13:46.582026 17112 net.cpp:380] conv5_1-R -> conv5_1-R
I0418 21:13:46.590919 17112 net.cpp:122] Setting up conv5_1-R
I0418 21:13:46.590952 17112 net.cpp:129] Top shape: 1 512 45 25 (576000)
I0418 21:13:46.590956 17112 net.cpp:137] Memory required for data: 1344222404
I0418 21:13:46.590981 17112 layer_factory.hpp:77] Creating layer relu5_1-R
I0418 21:13:46.590991 17112 net.cpp:84] Creating Layer relu5_1-R
I0418 21:13:46.591012 17112 net.cpp:406] relu5_1-R <- conv5_1-R
I0418 21:13:46.591018 17112 net.cpp:367] relu5_1-R -> conv5_1-R (in-place)
I0418 21:13:46.591285 17112 net.cpp:122] Setting up relu5_1-R
I0418 21:13:46.591297 17112 net.cpp:129] Top shape: 1 512 45 25 (576000)
I0418 21:13:46.591300 17112 net.cpp:137] Memory required for data: 1346526404
I0418 21:13:46.591305 17112 layer_factory.hpp:77] Creating layer conv5_2-R
I0418 21:13:46.591320 17112 net.cpp:84] Creating Layer conv5_2-R
I0418 21:13:46.591327 17112 net.cpp:406] conv5_2-R <- conv5_1-R
I0418 21:13:46.591337 17112 net.cpp:380] conv5_2-R -> conv5_2-R
I0418 21:13:46.600338 17112 net.cpp:122] Setting up conv5_2-R
I0418 21:13:46.600383 17112 net.cpp:129] Top shape: 1 512 45 25 (576000)
I0418 21:13:46.600389 17112 net.cpp:137] Memory required for data: 1348830404
I0418 21:13:46.600399 17112 layer_factory.hpp:77] Creating layer relu5_2-R
I0418 21:13:46.600405 17112 net.cpp:84] Creating Layer relu5_2-R
I0418 21:13:46.600410 17112 net.cpp:406] relu5_2-R <- conv5_2-R
I0418 21:13:46.600415 17112 net.cpp:367] relu5_2-R -> conv5_2-R (in-place)
I0418 21:13:46.600769 17112 net.cpp:122] Setting up relu5_2-R
I0418 21:13:46.600793 17112 net.cpp:129] Top shape: 1 512 45 25 (576000)
I0418 21:13:46.600800 17112 net.cpp:137] Memory required for data: 1351134404
I0418 21:13:46.600827 17112 layer_factory.hpp:77] Creating layer conv5_3-R
I0418 21:13:46.600847 17112 net.cpp:84] Creating Layer conv5_3-R
I0418 21:13:46.600854 17112 net.cpp:406] conv5_3-R <- conv5_2-R
I0418 21:13:46.600863 17112 net.cpp:380] conv5_3-R -> conv5_3-R
I0418 21:13:46.610056 17112 net.cpp:122] Setting up conv5_3-R
I0418 21:13:46.610100 17112 net.cpp:129] Top shape: 1 512 45 25 (576000)
I0418 21:13:46.610108 17112 net.cpp:137] Memory required for data: 1353438404
I0418 21:13:46.610119 17112 layer_factory.hpp:77] Creating layer relu5_3-R
I0418 21:13:46.610127 17112 net.cpp:84] Creating Layer relu5_3-R
I0418 21:13:46.610132 17112 net.cpp:406] relu5_3-R <- conv5_3-R
I0418 21:13:46.610153 17112 net.cpp:367] relu5_3-R -> conv5_3-R (in-place)
I0418 21:13:46.611178 17112 net.cpp:122] Setting up relu5_3-R
I0418 21:13:46.611213 17112 net.cpp:129] Top shape: 1 512 45 25 (576000)
I0418 21:13:46.611217 17112 net.cpp:137] Memory required for data: 1355742404
I0418 21:13:46.611223 17112 layer_factory.hpp:77] Creating layer pool5-R
I0418 21:13:46.611234 17112 net.cpp:84] Creating Layer pool5-R
I0418 21:13:46.611238 17112 net.cpp:406] pool5-R <- conv5_3-R
I0418 21:13:46.611246 17112 net.cpp:380] pool5-R -> pool5-R
I0418 21:13:46.611379 17112 net.cpp:122] Setting up pool5-R
I0418 21:13:46.611392 17112 net.cpp:129] Top shape: 1 512 23 13 (153088)
I0418 21:13:46.611395 17112 net.cpp:137] Memory required for data: 1356354756
I0418 21:13:46.611415 17112 layer_factory.hpp:77] Creating layer fc6-R
I0418 21:13:46.611425 17112 net.cpp:84] Creating Layer fc6-R
I0418 21:13:46.611433 17112 net.cpp:406] fc6-R <- pool5-R
I0418 21:13:46.611450 17112 net.cpp:380] fc6-R -> fc6-R
I0418 21:13:47.010462 17112 net.cpp:122] Setting up fc6-R
I0418 21:13:47.010581 17112 net.cpp:129] Top shape: 1 4096 17 7 (487424)
I0418 21:13:47.010586 17112 net.cpp:137] Memory required for data: 1358304452
I0418 21:13:47.010634 17112 layer_factory.hpp:77] Creating layer relu6-R
I0418 21:13:47.010716 17112 net.cpp:84] Creating Layer relu6-R
I0418 21:13:47.010733 17112 net.cpp:406] relu6-R <- fc6-R
I0418 21:13:47.010756 17112 net.cpp:367] relu6-R -> fc6-R (in-place)
I0418 21:13:47.012432 17112 net.cpp:122] Setting up relu6-R
I0418 21:13:47.012471 17112 net.cpp:129] Top shape: 1 4096 17 7 (487424)
I0418 21:13:47.012478 17112 net.cpp:137] Memory required for data: 1360254148
I0418 21:13:47.012485 17112 layer_factory.hpp:77] Creating layer drop6-R
I0418 21:13:47.012504 17112 net.cpp:84] Creating Layer drop6-R
I0418 21:13:47.012529 17112 net.cpp:406] drop6-R <- fc6-R
I0418 21:13:47.012543 17112 net.cpp:367] drop6-R -> fc6-R (in-place)
I0418 21:13:47.012703 17112 net.cpp:122] Setting up drop6-R
I0418 21:13:47.012723 17112 net.cpp:129] Top shape: 1 4096 17 7 (487424)
I0418 21:13:47.012728 17112 net.cpp:137] Memory required for data: 1362203844
I0418 21:13:47.012734 17112 layer_factory.hpp:77] Creating layer fc7-R
I0418 21:13:47.012799 17112 net.cpp:84] Creating Layer fc7-R
I0418 21:13:47.012805 17112 net.cpp:406] fc7-R <- fc6-R
I0418 21:13:47.012816 17112 net.cpp:380] fc7-R -> fc7-R
I0418 21:13:47.098599 17112 net.cpp:122] Setting up fc7-R
I0418 21:13:47.098654 17112 net.cpp:129] Top shape: 1 4096 17 7 (487424)
I0418 21:13:47.098665 17112 net.cpp:137] Memory required for data: 1364153540
I0418 21:13:47.098721 17112 layer_factory.hpp:77] Creating layer relu7-R
I0418 21:13:47.098734 17112 net.cpp:84] Creating Layer relu7-R
I0418 21:13:47.098742 17112 net.cpp:406] relu7-R <- fc7-R
I0418 21:13:47.098749 17112 net.cpp:367] relu7-R -> fc7-R (in-place)
I0418 21:13:47.099342 17112 net.cpp:122] Setting up relu7-R
I0418 21:13:47.099370 17112 net.cpp:129] Top shape: 1 4096 17 7 (487424)
I0418 21:13:47.099382 17112 net.cpp:137] Memory required for data: 1366103236
I0418 21:13:47.099393 17112 layer_factory.hpp:77] Creating layer drop7-R
I0418 21:13:47.099432 17112 net.cpp:84] Creating Layer drop7-R
I0418 21:13:47.099436 17112 net.cpp:406] drop7-R <- fc7-R
I0418 21:13:47.099442 17112 net.cpp:367] drop7-R -> fc7-R (in-place)
I0418 21:13:47.099556 17112 net.cpp:122] Setting up drop7-R
I0418 21:13:47.099566 17112 net.cpp:129] Top shape: 1 4096 17 7 (487424)
I0418 21:13:47.099571 17112 net.cpp:137] Memory required for data: 1368052932
I0418 21:13:47.099576 17112 layer_factory.hpp:77] Creating layer score_fr-new-R
I0418 21:13:47.099609 17112 net.cpp:84] Creating Layer score_fr-new-R
I0418 21:13:47.099629 17112 net.cpp:406] score_fr-new-R <- fc7-R
I0418 21:13:47.099670 17112 net.cpp:380] score_fr-new-R -> score_fr-new-R
I0418 21:13:47.103448 17112 net.cpp:122] Setting up score_fr-new-R
I0418 21:13:47.103497 17112 net.cpp:129] Top shape: 1 3 17 7 (357)
I0418 21:13:47.103507 17112 net.cpp:137] Memory required for data: 1368054360
I0418 21:13:47.103520 17112 layer_factory.hpp:77] Creating layer upscore2-new-R
I0418 21:13:47.103552 17112 net.cpp:84] Creating Layer upscore2-new-R
I0418 21:13:47.103557 17112 net.cpp:406] upscore2-new-R <- score_fr-new-R
I0418 21:13:47.103564 17112 net.cpp:380] upscore2-new-R -> upscore2-new-R
I0418 21:13:47.104367 17112 net.cpp:122] Setting up upscore2-new-R
I0418 21:13:47.104378 17112 net.cpp:129] Top shape: 1 3 36 16 (1728)
I0418 21:13:47.104396 17112 net.cpp:137] Memory required for data: 1368061272
I0418 21:13:47.104405 17112 layer_factory.hpp:77] Creating layer upscore2-new-R_upscore2-new-R_0_split
I0418 21:13:47.104420 17112 net.cpp:84] Creating Layer upscore2-new-R_upscore2-new-R_0_split
I0418 21:13:47.104427 17112 net.cpp:406] upscore2-new-R_upscore2-new-R_0_split <- upscore2-new-R
I0418 21:13:47.104471 17112 net.cpp:380] upscore2-new-R_upscore2-new-R_0_split -> upscore2-new-R_upscore2-new-R_0_split_0
I0418 21:13:47.104485 17112 net.cpp:380] upscore2-new-R_upscore2-new-R_0_split -> upscore2-new-R_upscore2-new-R_0_split_1
I0418 21:13:47.104704 17112 net.cpp:122] Setting up upscore2-new-R_upscore2-new-R_0_split
I0418 21:13:47.104720 17112 net.cpp:129] Top shape: 1 3 36 16 (1728)
I0418 21:13:47.104725 17112 net.cpp:129] Top shape: 1 3 36 16 (1728)
I0418 21:13:47.104732 17112 net.cpp:137] Memory required for data: 1368075096
I0418 21:13:47.104749 17112 layer_factory.hpp:77] Creating layer score_pool4-new-R
I0418 21:13:47.104773 17112 net.cpp:84] Creating Layer score_pool4-new-R
I0418 21:13:47.104791 17112 net.cpp:406] score_pool4-new-R <- pool4-R_pool4-R_0_split_1
I0418 21:13:47.104811 17112 net.cpp:380] score_pool4-new-R -> score_pool4-new-R
I0418 21:13:47.108517 17112 net.cpp:122] Setting up score_pool4-new-R
I0418 21:13:47.108556 17112 net.cpp:129] Top shape: 1 3 45 25 (3375)
I0418 21:13:47.108572 17112 net.cpp:137] Memory required for data: 1368088596
I0418 21:13:47.108609 17112 layer_factory.hpp:77] Creating layer score_pool4c-R
I0418 21:13:47.108635 17112 net.cpp:84] Creating Layer score_pool4c-R
I0418 21:13:47.108654 17112 net.cpp:406] score_pool4c-R <- score_pool4-new-R
I0418 21:13:47.108680 17112 net.cpp:406] score_pool4c-R <- upscore2-new-R_upscore2-new-R_0_split_0
I0418 21:13:47.108687 17112 net.cpp:380] score_pool4c-R -> score_pool4c-R
I0418 21:13:47.108855 17112 net.cpp:122] Setting up score_pool4c-R
I0418 21:13:47.108870 17112 net.cpp:129] Top shape: 1 3 36 16 (1728)
I0418 21:13:47.108875 17112 net.cpp:137] Memory required for data: 1368095508
I0418 21:13:47.108880 17112 layer_factory.hpp:77] Creating layer fuse_pool4-R
I0418 21:13:47.108898 17112 net.cpp:84] Creating Layer fuse_pool4-R
I0418 21:13:47.108904 17112 net.cpp:406] fuse_pool4-R <- upscore2-new-R_upscore2-new-R_0_split_1
I0418 21:13:47.108922 17112 net.cpp:406] fuse_pool4-R <- score_pool4c-R
I0418 21:13:47.108952 17112 net.cpp:380] fuse_pool4-R -> fuse_pool4-R
I0418 21:13:47.109050 17112 net.cpp:122] Setting up fuse_pool4-R
I0418 21:13:47.109076 17112 net.cpp:129] Top shape: 1 3 36 16 (1728)
I0418 21:13:47.109089 17112 net.cpp:137] Memory required for data: 1368102420
I0418 21:13:47.109098 17112 layer_factory.hpp:77] Creating layer upscore_pool4-new-R
I0418 21:13:47.109112 17112 net.cpp:84] Creating Layer upscore_pool4-new-R
I0418 21:13:47.109118 17112 net.cpp:406] upscore_pool4-new-R <- fuse_pool4-R
I0418 21:13:47.109138 17112 net.cpp:380] upscore_pool4-new-R -> upscore_pool4-new-R
I0418 21:13:47.110150 17112 net.cpp:122] Setting up upscore_pool4-new-R
I0418 21:13:47.110222 17112 net.cpp:129] Top shape: 1 3 74 34 (7548)
I0418 21:13:47.110244 17112 net.cpp:137] Memory required for data: 1368132612
I0418 21:13:47.110249 17112 layer_factory.hpp:77] Creating layer upscore_pool4-new-R_upscore_pool4-new-R_0_split
I0418 21:13:47.110260 17112 net.cpp:84] Creating Layer upscore_pool4-new-R_upscore_pool4-new-R_0_split
I0418 21:13:47.110267 17112 net.cpp:406] upscore_pool4-new-R_upscore_pool4-new-R_0_split <- upscore_pool4-new-R
I0418 21:13:47.110275 17112 net.cpp:380] upscore_pool4-new-R_upscore_pool4-new-R_0_split -> upscore_pool4-new-R_upscore_pool4-new-R_0_split_0
I0418 21:13:47.110281 17112 net.cpp:380] upscore_pool4-new-R_upscore_pool4-new-R_0_split -> upscore_pool4-new-R_upscore_pool4-new-R_0_split_1
I0418 21:13:47.110483 17112 net.cpp:122] Setting up upscore_pool4-new-R_upscore_pool4-new-R_0_split
I0418 21:13:47.110496 17112 net.cpp:129] Top shape: 1 3 74 34 (7548)
I0418 21:13:47.110514 17112 net.cpp:129] Top shape: 1 3 74 34 (7548)
I0418 21:13:47.110529 17112 net.cpp:137] Memory required for data: 1368192996
I0418 21:13:47.110538 17112 layer_factory.hpp:77] Creating layer score_pool3-new-R
I0418 21:13:47.110548 17112 net.cpp:84] Creating Layer score_pool3-new-R
I0418 21:13:47.110558 17112 net.cpp:406] score_pool3-new-R <- pool3-R_pool3-R_0_split_1
I0418 21:13:47.110590 17112 net.cpp:380] score_pool3-new-R -> score_pool3-new-R
I0418 21:13:47.114713 17112 net.cpp:122] Setting up score_pool3-new-R
I0418 21:13:47.114748 17112 net.cpp:129] Top shape: 1 3 89 50 (13350)
I0418 21:13:47.114753 17112 net.cpp:137] Memory required for data: 1368246396
I0418 21:13:47.114759 17112 layer_factory.hpp:77] Creating layer score_pool3c-R
I0418 21:13:47.114778 17112 net.cpp:84] Creating Layer score_pool3c-R
I0418 21:13:47.114801 17112 net.cpp:406] score_pool3c-R <- score_pool3-new-R
I0418 21:13:47.114819 17112 net.cpp:406] score_pool3c-R <- upscore_pool4-new-R_upscore_pool4-new-R_0_split_0
I0418 21:13:47.114827 17112 net.cpp:380] score_pool3c-R -> score_pool3c-R
I0418 21:13:47.114879 17112 net.cpp:122] Setting up score_pool3c-R
I0418 21:13:47.114902 17112 net.cpp:129] Top shape: 1 3 74 34 (7548)
I0418 21:13:47.114907 17112 net.cpp:137] Memory required for data: 1368276588
I0418 21:13:47.114914 17112 layer_factory.hpp:77] Creating layer fuse_pool3-R
I0418 21:13:47.114924 17112 net.cpp:84] Creating Layer fuse_pool3-R
I0418 21:13:47.114928 17112 net.cpp:406] fuse_pool3-R <- upscore_pool4-new-R_upscore_pool4-new-R_0_split_1
I0418 21:13:47.114935 17112 net.cpp:406] fuse_pool3-R <- score_pool3c-R
I0418 21:13:47.114943 17112 net.cpp:380] fuse_pool3-R -> fuse_pool3-R
I0418 21:13:47.115012 17112 net.cpp:122] Setting up fuse_pool3-R
I0418 21:13:47.115025 17112 net.cpp:129] Top shape: 1 3 74 34 (7548)
I0418 21:13:47.115032 17112 net.cpp:137] Memory required for data: 1368306780
I0418 21:13:47.115036 17112 layer_factory.hpp:77] Creating layer upscore8-new-R
I0418 21:13:47.115047 17112 net.cpp:84] Creating Layer upscore8-new-R
I0418 21:13:47.115053 17112 net.cpp:406] upscore8-new-R <- fuse_pool3-R
I0418 21:13:47.115069 17112 net.cpp:380] upscore8-new-R -> upscore8-new-R
I0418 21:13:47.115907 17112 net.cpp:122] Setting up upscore8-new-R
I0418 21:13:47.115947 17112 net.cpp:129] Top shape: 1 3 600 280 (504000)
I0418 21:13:47.115952 17112 net.cpp:137] Memory required for data: 1370322780
I0418 21:13:47.115958 17112 layer_factory.hpp:77] Creating layer upscore8_cropped-R
I0418 21:13:47.115964 17112 net.cpp:84] Creating Layer upscore8_cropped-R
I0418 21:13:47.115993 17112 net.cpp:406] upscore8_cropped-R <- upscore8-new-R
I0418 21:13:47.116014 17112 net.cpp:406] upscore8_cropped-R <- data-R_crop_0_split_1
I0418 21:13:47.116022 17112 net.cpp:380] upscore8_cropped-R -> upscore8_cropped-R
I0418 21:13:47.116106 17112 net.cpp:122] Setting up upscore8_cropped-R
I0418 21:13:47.116140 17112 net.cpp:129] Top shape: 1 3 512 199 (305664)
I0418 21:13:47.116145 17112 net.cpp:137] Memory required for data: 1371545436
I0418 21:13:47.116153 17112 layer_factory.hpp:77] Creating layer score-R
I0418 21:13:47.116185 17112 net.cpp:84] Creating Layer score-R
I0418 21:13:47.116194 17112 net.cpp:406] score-R <- upscore8_cropped-R
I0418 21:13:47.116215 17112 net.cpp:380] score-R -> score-R
I0418 21:13:47.118928 17112 net.cpp:122] Setting up score-R
I0418 21:13:47.118943 17112 net.cpp:129] Top shape: 1 3 512 199 (305664)
I0418 21:13:47.118947 17112 net.cpp:137] Memory required for data: 1372768092
I0418 21:13:47.118975 17112 layer_factory.hpp:77] Creating layer score_uncropped-R
I0418 21:13:47.119509 17112 net.cpp:84] Creating Layer score_uncropped-R
I0418 21:13:47.119518 17112 net.cpp:406] score_uncropped-R <- crop_info
I0418 21:13:47.119542 17112 net.cpp:406] score_uncropped-R <- score-R
I0418 21:13:47.119546 17112 net.cpp:406] score_uncropped-R <- data_data_0_split_3
I0418 21:13:47.119551 17112 net.cpp:380] score_uncropped-R -> score_uncropped-R
I0418 21:13:47.122000 17112 net.cpp:122] Setting up score_uncropped-R
I0418 21:13:47.122033 17112 net.cpp:129] Top shape: 1 3 512 199 (305664)
I0418 21:13:47.122040 17112 net.cpp:137] Memory required for data: 1373990748
I0418 21:13:47.122046 17112 layer_factory.hpp:77] Creating layer loss1
I0418 21:13:47.122066 17112 net.cpp:84] Creating Layer loss1
I0418 21:13:47.122087 17112 net.cpp:406] loss1 <- score_score_0_split_1
I0418 21:13:47.122093 17112 net.cpp:406] loss1 <- label_data_1_split_1
I0418 21:13:47.122098 17112 net.cpp:380] loss1 -> loss1
…
