…
snapshot_prefix: "/media/Med_2T2/data2/models/snapshots/indiv:1e-5x10,20/FD3:ZI3_1_20180418_201524/train"
test_initialization: false
average_loss: 20
stepvalue: 40000
iter_size: 1
I0419 03:16:49.573855 23600 solver.cpp:77] Creating training net from train_net file: /media/Med_2T2/data2/prototxts/training_S3x10.prototxt
I0419 03:16:49.576759 23600 net.cpp:51] Initializing net from parameters: 
state {
  phase: TRAIN
}
layer {
  name: "data"
  type: "Python"
  top: "data"
  top: "label"
  top: "crop_margin"
  top: "crop_prob"
  top: "crop_sample_batch"
  python_param {
    module: "Data"
    layer: "DataLayer"
  }
}
layer {
  name: "conv1_1"
  type: "Convolution"
  bottom: "data"
  top: "conv1_1"
  param {
    lr_mult: 1
    decay_mult: 1
  }
  param {
    lr_mult: 2
    decay_mult: 0
  }
  convolution_param {
    num_output: 64
    pad: 100
    kernel_size: 3
    stride: 1
  }
}
layer {
  name: "relu1_1"
  type: "ReLU"
  bottom: "conv1_1"
  top: "conv1_1"
}
layer {
  name: "conv1_2"
  type: "Convolution"
  bottom: "conv1_1"
  top: "conv1_2"
  param {
    lr_mult: 1
    decay_mult: 1
  }
  param {
    lr_mult: 2
    decay_mult: 0
  }
  convolution_param {
    num_output: 64
    pad: 1
    kernel_size: 3
    stride: 1
  }
}
layer {
  name: "relu1_2"
  type: "ReLU"
  bottom: "conv1_2"
  top: "conv1_2"
}
layer {
  name: "pool1"
  type: "Pooling"
  bottom: "conv1_2"
  top: "pool1"
  pooling_param {
    pool: MAX
    kernel_size: 2
    stride: 2
  }
}
layer {
  name: "conv2_1"
  type: "Convolution"
  bottom: "pool1"
  top: "conv2_1"
  param {
    lr_mult: 1
    decay_mult: 1
  }
  param {
    lr_mult: 2
    decay_mult: 0
  }
  convolution_param {
    num_output: 128
    pad: 1
    kernel_size: 3
    stride: 1
  }
}
layer {
  name: "relu2_1"
  type: "ReLU"
  bottom: "conv2_1"
  top: "conv2_1"
}
layer {
  name: "conv2_2"
  type: "Convolution"
  bottom: "conv2_1"
  top: "conv2_2"
  param {
    lr_mult: 1
    decay_mult: 1
  }
  param {
    lr_mult: 2
    decay_mult: 0
  }
  convolution_param {
    num_output: 128
    pad: 1
    kernel_size: 3
    stride: 1
  }
}
layer {
  name: "relu2_2"
  type: "ReLU"
  bottom: "conv2_2"
  top: "conv2_2"
}
layer {
  name: "pool2"
  type: "Pooling"
  bottom: "conv2_2"
  top: "pool2"
  pooling_param {
    pool: MAX
    kernel_size: 2
    stride: 2
  }
}
layer {
  name: "conv3_1"
  type: "Convolution"
  bottom: "pool2"
  top: "conv3_1"
  param {
    lr_mult: 1
    decay_mult: 1
  }
  param {
    lr_mult: 2
    decay_mult: 0
  }
  convolution_param {
    num_output: 256
    pad: 1
    kernel_size: 3
    stride: 1
  }
}
layer {
  name: "relu3_1"
  type: "ReLU"
  bottom: "conv3_1"
  top: "conv3_1"
}
layer {
  name: "conv3_2"
  type: "Convolution"
  bottom: "conv3_1"
  top: "conv3_2"
  param {
    lr_mult: 1
    decay_mult: 1
  }
  param {
    lr_mult: 2
    decay_mult: 0
  }
  convolution_param {
    num_output: 256
    pad: 1
    kernel_size: 3
    stride: 1
  }
}
layer {
  name: "relu3_2"
  type: "ReLU"
  bottom: "conv3_2"
  top: "conv3_2"
}
layer {
  name: "conv3_3"
  type: "Convolution"
  bottom: "conv3_2"
  top: "conv3_3"
  param {
    lr_mult: 1
    decay_mult: 1
  }
  param {
    lr_mult: 2
    decay_mult: 0
  }
  convolution_param {
    num_output: 256
    pad: 1
    kernel_size: 3
    stride: 1
  }
}
layer {
  name: "relu3_3"
  type: "ReLU"
  bottom: "conv3_3"
  top: "conv3_3"
}
layer {
  name: "pool3"
  type: "Pooling"
  bottom: "conv3_3"
  top: "pool3"
  pooling_param {
    pool: MAX
    kernel_size: 2
    stride: 2
  }
}
layer {
  name: "conv4_1"
  type: "Convolution"
  bottom: "pool3"
  top: "conv4_1"
  param {
    lr_mult: 1
    decay_mult: 1
  }
  param {
    lr_mult: 2
    decay_mult: 0
  }
  convolution_param {
    num_output: 512
    pad: 1
    kernel_size: 3
    stride: 1
  }
}
layer {
  name: "relu4_1"
  type: "ReLU"
  bottom: "conv4_1"
  top: "conv4_1"
}
layer {
  name: "conv4_2"
  type: "Convolution"
  bottom: "conv4_1"
  top: "conv4_2"
  param {
    lr_mult: 1
    decay_mult: 1
  }
  param {
    lr_mult: 2
    decay_mult: 0
  }
  convolution_param {
    num_output: 512
    pad: 1
    kernel_size: 3
    stride: 1
  }
}
layer {
  name: "relu4_2"
  type: "ReLU"
  bottom: "conv4_2"
  top: "conv4_2"
}
layer {
  name: "conv4_3"
  type: "Convolution"
  bottom: "conv4_2"
  top: "conv4_3"
  param {
    lr_mult: 1
    decay_mult: 1
  }
  param {
    lr_mult: 2
    decay_mult: 0
  }
  convolution_param {
    num_output: 512
    pad: 1
    kernel_size: 3
    stride: 1
  }
}
layer {
  name: "relu4_3"
  type: "ReLU"
  bottom: "conv4_3"
  top: "conv4_3"
}
layer {
  name: "pool4"
  type: "Pooling"
  bottom: "conv4_3"
  top: "pool4"
  pooling_param {
    pool: MAX
    kernel_size: 2
    stride: 2
  }
}
layer {
  name: "conv5_1"
  type: "Convolution"
  bottom: "pool4"
  top: "conv5_1"
  param {
    lr_mult: 1
    decay_mult: 1
  }
  param {
    lr_mult: 2
    decay_mult: 0
  }
  convolution_param {
    num_output: 512
    pad: 1
    kernel_size: 3
    stride: 1
  }
}
layer {
  name: "relu5_1"
  type: "ReLU"
  bottom: "conv5_1"
  top: "conv5_1"
}
layer {
  name: "conv5_2"
  type: "Convolution"
  bottom: "conv5_1"
  top: "conv5_2"
  param {
    lr_mult: 1
    decay_mult: 1
  }
  param {
    lr_mult: 2
    decay_mult: 0
  }
  convolution_param {
    num_output: 512
    pad: 1
    kernel_size: 3
    stride: 1
  }
}
layer {
  name: "relu5_2"
  type: "ReLU"
  bottom: "conv5_2"
  top: "conv5_2"
}
layer {
  name: "conv5_3"
  type: "Convolution"
  bottom: "conv5_2"
  top: "conv5_3"
  param {
    lr_mult: 1
    decay_mult: 1
  }
  param {
    lr_mult: 2
    decay_mult: 0
  }
  convolution_param {
    num_output: 512
    pad: 1
    kernel_size: 3
    stride: 1
  }
}
layer {
  name: "relu5_3"
  type: "ReLU"
  bottom: "conv5_3"
  top: "conv5_3"
}
layer {
  name: "pool5"
  type: "Pooling"
  bottom: "conv5_3"
  top: "pool5"
  pooling_param {
    pool: MAX
    kernel_size: 2
    stride: 2
  }
}
layer {
  name: "fc6"
  type: "Convolution"
  bottom: "pool5"
  top: "fc6"
  param {
    lr_mult: 1
    decay_mult: 1
  }
  param {
    lr_mult: 2
    decay_mult: 0
  }
  convolution_param {
    num_output: 4096
    pad: 0
    kernel_size: 7
    stride: 1
  }
}
layer {
  name: "relu6"
  type: "ReLU"
  bottom: "fc6"
  top: "fc6"
}
layer {
  name: "drop6"
  type: "Dropout"
  bottom: "fc6"
  top: "fc6"
  dropout_param {
    dropout_ratio: 0.5
  }
}
layer {
  name: "fc7"
  type: "Convolution"
  bottom: "fc6"
  top: "fc7"
  param {
    lr_mult: 1
    decay_mult: 1
  }
  param {
    lr_mult: 2
    decay_mult: 0
  }
  convolution_param {
    num_output: 4096
    pad: 0
    kernel_size: 1
    stride: 1
  }
}
layer {
  name: "relu7"
  type: "ReLU"
  bottom: "fc7"
  top: "fc7"
}
layer {
  name: "drop7"
  type: "Dropout"
  bottom: "fc7"
  top: "fc7"
  dropout_param {
    dropout_ratio: 0.5
  }
}
layer {
  name: "score_fr-new"
  type: "Convolution"
  bottom: "fc7"
  top: "score_fr-new"
  param {
    lr_mult: 1
    decay_mult: 1
  }
  param {
    lr_mult: 2
    decay_mult: 0
  }
  convolution_param {
    num_output: 3
    kernel_size: 1
  }
}
layer {
  name: "upscore2-new"
  type: "Deconvolution"
  bottom: "score_fr-new"
  top: "upscore2-new"
  param {
    lr_mult: 0
  }
  convolution_param {
    num_output: 3
    bias_term: false
    kernel_size: 4
    stride: 2
  }
}
layer {
  name: "score_pool4-new"
  type: "Convolution"
  bottom: "pool4"
  top: "score_pool4-new"
  param {
    lr_mult: 1
    decay_mult: 1
  }
  param {
    lr_mult: 2
    decay_mult: 0
  }
  convolution_param {
    num_output: 3
    pad: 0
    kernel_size: 1
  }
}
layer {
  name: "score_pool4c"
  type: "Crop"
  bottom: "score_pool4-new"
  bottom: "upscore2-new"
  top: "score_pool4c"
  crop_param {
    axis: 2
    offset: 5
  }
}
layer {
  name: "fuse_pool4"
  type: "Eltwise"
  bottom: "upscore2-new"
  bottom: "score_pool4c"
  top: "fuse_pool4"
  eltwise_param {
    operation: SUM
  }
}
layer {
  name: "upscore_pool4-new"
  type: "Deconvolution"
  bottom: "fuse_pool4"
  top: "upscore_pool4-new"
  param {
    lr_mult: 0
  }
  convolution_param {
    num_output: 3
    bias_term: false
    kernel_size: 4
    stride: 2
  }
}
layer {
  name: "score_pool3-new"
  type: "Convolution"
  bottom: "pool3"
  top: "score_pool3-new"
  param {
    lr_mult: 1
    decay_mult: 1
  }
  param {
    lr_mult: 2
    decay_mult: 0
  }
  convolution_param {
    num_output: 3
    pad: 0
    kernel_size: 1
  }
}
layer {
  name: "score_pool3c"
  type: "Crop"
  bottom: "score_pool3-new"
  bottom: "upscore_pool4-new"
  top: "score_pool3c"
  crop_param {
    axis: 2
    offset: 9
  }
}
layer {
  name: "fuse_pool3"
  type: "Eltwise"
  bottom: "upscore_pool4-new"
  bottom: "score_pool3c"
  top: "fuse_pool3"
  eltwise_param {
    operation: SUM
  }
}
layer {
  name: "upscore8-new"
  type: "Deconvolution"
  bottom: "fuse_pool3"
  top: "upscore8-new"
  param {
    lr_mult: 0
  }
  convolution_param {
    num_output: 3
    bias_term: false
    kernel_size: 16
    stride: 8
  }
}
layer {
  name: "upscore8_cropped"
  type: "Crop"
  bottom: "upscore8-new"
  bottom: "data"
  top: "upscore8_cropped"
  crop_param {
    axis: 2
    offset: 31
  }
}
layer {
  name: "score"
  type: "Convolution"
  bottom: "upscore8_cropped"
  top: "score"
  param {
    lr_mult: 1
    decay_mult: 1
  }
  param {
    lr_mult: 2
    decay_mult: 0
  }
  convolution_param {
    num_output: 3
    pad: 1
    kernel_size: 3
    stride: 1
    weight_filler {
      type: "xavier"
    }
    bias_filler {
      type: "constant"
      value: 0
    }
  }
}
layer {
  name: "prob"
  type: "Sigmoid"
  bottom: "score"
  top: "prob"
}
layer {
  name: "saliency"
  type: "Convolution"
  bottom: "prob"
  top: "saliency"
  param {
    lr_mult: 10
    decay_mult: 1
  }
  param {
    lr_mult: 20
    decay_mult: 0
  }
  convolution_param {
    num_output: 3
    pad: 2
    kernel_size: 5
    stride: 1
    weight_filler {
      type: "xavier"
    }
    bias_filler {
      type: "constant"
      value: 1
    }
  }
}
layer {
  name: "silence_saliency"
  type: "Silence"
  bottom: "saliency"
}
layer {
  name: "crop"
  type: "Python"
  bottom: "label"
  bottom: "data"
  bottom: "crop_margin"
  bottom: "crop_prob"
  bottom: "crop_sample_batch"
  top: "data-R"
  top: "crop_info"
  python_param {
    module: "Crop"
    layer: "CropLayer"
    param_str: "{\"TEST\": 0}"
  }
}
layer {
  name: "conv1_1-R"
  type: "Convolution"
  bottom: "data-R"
  top: "conv1_1-R"
  param {
    lr_mult: 10
    decay_mult: 1
  }
  param {
    lr_mult: 20
    decay_mult: 0
  }
  convolution_param {
    num_output: 64
    pad: 100
    kernel_size: 3
    stride: 1
  }
}
layer {
  name: "relu1_1-R"
  type: "ReLU"
  bottom: "conv1_1-R"
  top: "conv1_1-R"
}
layer {
  name: "conv1_2-R"
  type: "Convolution"
  bottom: "conv1_1-R"
  top: "conv1_2-R"
  param {
    lr_mult: 10
    decay_mult: 1
  }
  param {
    lr_mult: 20
    decay_mult: 0
  }
  convolution_param {
    num_output: 64
    pad: 1
    kernel_size: 3
    stride: 1
  }
}
layer {
  name: "relu1_2-R"
  type: "ReLU"
  bottom: "conv1_2-R"
  top: "conv1_2-R"
}
layer {
  name: "pool1-R"
  type: "Pooling"
  bottom: "conv1_2-R"
  top: "pool1-R"
  pooling_param {
    pool: MAX
    kernel_size: 2
    stride: 2
  }
}
layer {
  name: "conv2_1-R"
  type: "Convolution"
  bottom: "pool1-R"
  top: "conv2_1-R"
  param {
    lr_mult: 10
    decay_mult: 1
  }
  param {
    lr_mult: 20
    decay_mult: 0
  }
  convolution_param {
    num_output: 128
    pad: 1
    kernel_size: 3
    stride: 1
  }
}
layer {
  name: "relu2_1-R"
  type: "ReLU"
  bottom: "conv2_1-R"
  top: "conv2_1-R"
}
layer {
  name: "conv2_2-R"
  type: "Convolution"
  bottom: "conv2_1-R"
  top: "conv2_2-R"
  param {
    lr_mult: 10
    decay_mult: 1
  }
  param {
    lr_mult: 20
    decay_mult: 0
  }
  convolution_param {
    num_output: 128
    pad: 1
    kernel_size: 3
    stride: 1
  }
}
layer {
  name: "relu2_2-R"
  type: "ReLU"
  bottom: "conv2_2-R"
  top: "conv2_2-R"
}
layer {
  name: "pool2-R"
  type: "Pooling"
  bottom: "conv2_2-R"
  top: "pool2-R"
  pooling_param {
    pool: MAX
    kernel_size: 2
    stride: 2
  }
}
layer {
  name: "conv3_1-R"
  type: "Convolution"
  bottom: "pool2-R"
  top: "conv3_1-R"
  param {
    lr_mult: 10
    decay_mult: 1
  }
  param {
    lr_mult: 20
    decay_mult: 0
  }
  convolution_param {
    num_output: 256
    pad: 1
    kernel_size: 3
    stride: 1
  }
}
layer {
  name: "relu3_1-R"
  type: "ReLU"
  bottom: "conv3_1-R"
  top: "conv3_1-R"
}
layer {
  name: "conv3_2-R"
  type: "Convolution"
  bottom: "conv3_1-R"
  top: "conv3_2-R"
  param {
    lr_mult: 10
    decay_mult: 1
  }
  param {
    lr_mult: 20
    decay_mult: 0
  }
  convolution_param {
    num_output: 256
    pad: 1
    kernel_size: 3
    stride: 1
  }
}
layer {
  name: "relu3_2-R"
  type: "ReLU"
  bottom: "conv3_2-R"
  top: "conv3_2-R"
}
layer {
  name: "conv3_3-R"
  type: "Convolution"
  bottom: "conv3_2-R"
  top: "conv3_3-R"
  param {
    lr_mult: 10
    decay_mult: 1
  }
  param {
    lr_mult: 20
    decay_mult: 0
  }
  convolution_param {
    num_output: 256
    pad: 1
    kernel_size: 3
    stride: 1
  }
}
layer {
  name: "relu3_3-R"
  type: "ReLU"
  bottom: "conv3_3-R"
  top: "conv3_3-R"
}
layer {
  name: "pool3-R"
  type: "Pooling"
  bottom: "conv3_3-R"
  top: "pool3-R"
  pooling_param {
    pool: MAX
    kernel_size: 2
    stride: 2
  }
}
layer {
  name: "conv4_1-R"
  type: "Convolution"
  bottom: "pool3-R"
  top: "conv4_1-R"
  param {
    lr_mult: 10
    decay_mult: 1
  }
  param {
    lr_mult: 20
    decay_mult: 0
  }
  convolution_param {
    num_output: 512
    pad: 1
    kernel_size: 3
    stride: 1
  }
}
layer {
  name: "relu4_1-R"
  type: "ReLU"
  bottom: "conv4_1-R"
  top: "conv4_1-R"
}
layer {
  name: "conv4_2-R"
  type: "Convolution"
  bottom: "conv4_1-R"
  top: "conv4_2-R"
  param {
    lr_mult: 10
    decay_mult: 1
  }
  param {
    lr_mult: 20
    decay_mult: 0
  }
  convolution_param {
    num_output: 512
    pad: 1
    kernel_size: 3
    stride: 1
  }
}
layer {
  name: "relu4_2-R"
  type: "ReLU"
  bottom: "conv4_2-R"
  top: "conv4_2-R"
}
layer {
  name: "conv4_3-R"
  type: "Convolution"
  bottom: "conv4_2-R"
  top: "conv4_3-R"
  param {
    lr_mult: 10
    decay_mult: 1
  }
  param {
    lr_mult: 20
    decay_mult: 0
  }
  convolution_param {
    num_output: 512
    pad: 1
    kernel_size: 3
    stride: 1
  }
}
layer {
  name: "relu4_3-R"
  type: "ReLU"
  bottom: "conv4_3-R"
  top: "conv4_3-R"
}
layer {
  name: "pool4-R"
  type: "Pooling"
  bottom: "conv4_3-R"
  top: "pool4-R"
  pooling_param {
    pool: MAX
    kernel_size: 2
    stride: 2
  }
}
layer {
  name: "conv5_1-R"
  type: "Convolution"
  bottom: "pool4-R"
  top: "conv5_1-R"
  param {
    lr_mult: 10
    decay_mult: 1
  }
  param {
    lr_mult: 20
    decay_mult: 0
  }
  convolution_param {
    num_output: 512
    pad: 1
    kernel_size: 3
    stride: 1
  }
}
layer {
  name: "relu5_1-R"
  type: "ReLU"
  bottom: "conv5_1-R"
  top: "conv5_1-R"
}
layer {
  name: "conv5_2-R"
  type: "Convolution"
  bottom: "conv5_1-R"
  top: "conv5_2-R"
  param {
    lr_mult: 10
    decay_mult: 1
  }
  param {
    lr_mult: 20
    decay_mult: 0
  }
  convolution_param {
    num_output: 512
    pad: 1
    kernel_size: 3
    stride: 1
  }
}
layer {
  name: "relu5_2-R"
  type: "ReLU"
  bottom: "conv5_2-R"
  top: "conv5_2-R"
}
layer {
  name: "conv5_3-R"
  type: "Convolution"
  bottom: "conv5_2-R"
  top: "conv5_3-R"
  param {
    lr_mult: 10
    decay_mult: 1
  }
  param {
    lr_mult: 20
    decay_mult: 0
  }
  convolution_param {
    num_output: 512
    pad: 1
    kernel_size: 3
    stride: 1
  }
}
layer {
  name: "relu5_3-R"
  type: "ReLU"
  bottom: "conv5_3-R"
  top: "conv5_3-R"
}
layer {
  name: "pool5-R"
  type: "Pooling"
  bottom: "conv5_3-R"
  top: "pool5-R"
  pooling_param {
    pool: MAX
    kernel_size: 2
    stride: 2
  }
}
layer {
  name: "fc6-R"
  type: "Convolution"
  bottom: "pool5-R"
  top: "fc6-R"
  param {
    lr_mult: 10
    decay_mult: 1
  }
  param {
    lr_mult: 20
    decay_mult: 0
  }
  convolution_param {
    num_output: 4096
    pad: 0
    kernel_size: 7
    stride: 1
  }
}
layer {
  name: "relu6-R"
  type: "ReLU"
  bottom: "fc6-R"
  top: "fc6-R"
}
layer {
  name: "drop6-R"
  type: "Dropout"
  bottom: "fc6-R"
  top: "fc6-R"
  dropout_param {
    dropout_ratio: 0.5
  }
}
layer {
  name: "fc7-R"
  type: "Convolution"
  bottom: "fc6-R"
  top: "fc7-R"
  param {
    lr_mult: 10
    decay_mult: 1
  }
  param {
    lr_mult: 20
    decay_mult: 0
  }
  convolution_param {
    num_output: 4096
    pad: 0
    kernel_size: 1
    stride: 1
  }
}
layer {
  name: "relu7-R"
  type: "ReLU"
  bottom: "fc7-R"
  top: "fc7-R"
}
layer {
  name: "drop7-R"
  type: "Dropout"
  bottom: "fc7-R"
  top: "fc7-R"
  dropout_param {
    dropout_ratio: 0.5
  }
}
layer {
  name: "score_fr-new-R"
  type: "Convolution"
  bottom: "fc7-R"
  top: "score_fr-new-R"
  param {
    lr_mult: 10
    decay_mult: 1
  }
  param {
    lr_mult: 20
    decay_mult: 0
  }
  convolution_param {
    num_output: 3
    kernel_size: 1
  }
}
layer {
  name: "upscore2-new-R"
  type: "Deconvolution"
  bottom: "score_fr-new-R"
  top: "upscore2-new-R"
  param {
    lr_mult: 0
  }
  convolution_param {
    num_output: 3
    bias_term: false
    kernel_size: 4
    stride: 2
  }
}
layer {
  name: "score_pool4-new-R"
  type: "Convolution"
  bottom: "pool4-R"
  top: "score_pool4-new-R"
  param {
    lr_mult: 10
    decay_mult: 1
  }
  param {
    lr_mult: 20
    decay_mult: 0
  }
  convolution_param {
    num_output: 3
    pad: 0
    kernel_size: 1
  }
}
layer {
  name: "score_pool4c-R"
  type: "Crop"
  bottom: "score_pool4-new-R"
  bottom: "upscore2-new-R"
  top: "score_pool4c-R"
  crop_param {
    axis: 2
    offset: 5
  }
}
layer {
  name: "fuse_pool4-R"
  type: "Eltwise"
  bottom: "upscore2-new-R"
  bottom: "score_pool4c-R"
  top: "fuse_pool4-R"
  eltwise_param {
    operation: SUM
  }
}
layer {
  name: "upscore_pool4-new-R"
  type: "Deconvolution"
  bottom: "fuse_pool4-R"
  top: "upscore_pool4-new-R"
  param {
    lr_mult: 0
  }
  convolution_param {
    num_output: 3
    bias_term: false
    kernel_size: 4
    stride: 2
  }
}
layer {
  name: "score_pool3-new-R"
  type: "Convolution"
  bottom: "pool3-R"
  top: "score_pool3-new-R"
  param {
    lr_mult: 10
    decay_mult: 1
  }
  param {
    lr_mult: 20
    decay_mult: 0
  }
  convolution_param {
    num_output: 3
    pad: 0
    kernel_size: 1
  }
}
layer {
  name: "score_pool3c-R"
  type: "Crop"
  bottom: "score_pool3-new-R"
  bottom: "upscore_pool4-new-R"
  top: "score_pool3c-R"
  crop_param {
    axis: 2
    offset: 9
  }
}
layer {
  name: "fuse_pool3-R"
  type: "Eltwise"
  bottom: "upscore_pool4-new-R"
  bottom: "score_pool3c-R"
  top: "fuse_pool3-R"
  eltwise_param {
    operation: SUM
  }
}
layer {
  name: "upscore8-new-R"
  type: "Deconvolution"
  bottom: "fuse_pool3-R"
  top: "upscore8-new-R"
  param {
    lr_mult: 0
  }
  convolution_param {
    num_output: 3
    bias_term: false
    kernel_size: 16
    stride: 8
  }
}
layer {
  name: "upscore8_cropped-R"
  type: "Crop"
  bottom: "upscore8-new-R"
  bottom: "data-R"
  top: "upscore8_cropped-R"
  crop_param {
    axis: 2
    offset: 31
  }
}
layer {
  name: "score-R"
  type: "Convolution"
  bottom: "upscore8_cropped-R"
  top: "score-R"
  param {
    lr_mult: 10
    decay_mult: 1
  }
  param {
    lr_mult: 20
    decay_mult: 0
  }
  convolution_param {
    num_output: 3
    pad: 1
    kernel_size: 3
    stride: 1
    weight_filler {
      type: "xavier"
    }
    bias_filler {
      type: "constant"
      value: 0
    }
  }
}
layer {
  name: "score_uncropped-R"
  type: "Python"
  bottom: "crop_info"
  bottom: "score-R"
  bottom: "data"
  top: "score_uncropped-R"
  python_param {
    module: "Uncrop"
    layer: "UncropLayer"
  }
}
layer {
  name: "loss1"
  type: "DiceLoss"
  bottom: "score"
  bottom: "label"
  top: "loss1"
  loss_weight: 0.333333
}
layer {
  name: "loss2"
  type: "DiceLoss"
  bottom: "score_uncropped-R"
  bottom: "label"
  top: "loss2"
  loss_weight: 0.666667
}
I0419 03:16:49.577335 23600 layer_factory.hpp:77] Creating layer data
I0419 03:16:49.578615 23600 net.cpp:84] Creating Layer data
I0419 03:16:49.578639 23600 net.cpp:380] data -> data
I0419 03:16:49.578658 23600 net.cpp:380] data -> label
I0419 03:16:49.578666 23600 net.cpp:380] data -> crop_margin
I0419 03:16:49.578673 23600 net.cpp:380] data -> crop_prob
I0419 03:16:49.578680 23600 net.cpp:380] data -> crop_sample_batch
I0419 03:16:49.676707 23600 net.cpp:122] Setting up data
I0419 03:16:49.676760 23600 net.cpp:129] Top shape: 1 3 512 512 (786432)
I0419 03:16:49.676767 23600 net.cpp:129] Top shape: 1 3 512 512 (786432)
I0419 03:16:49.676772 23600 net.cpp:129] Top shape: 1 (1)
I0419 03:16:49.676777 23600 net.cpp:129] Top shape: 1 (1)
I0419 03:16:49.676781 23600 net.cpp:129] Top shape: 1 (1)
I0419 03:16:49.676786 23600 net.cpp:137] Memory required for data: 6291468
I0419 03:16:49.676795 23600 layer_factory.hpp:77] Creating layer data_data_0_split
I0419 03:16:49.676822 23600 net.cpp:84] Creating Layer data_data_0_split
I0419 03:16:49.676828 23600 net.cpp:406] data_data_0_split <- data
I0419 03:16:49.676842 23600 net.cpp:380] data_data_0_split -> data_data_0_split_0
I0419 03:16:49.676854 23600 net.cpp:380] data_data_0_split -> data_data_0_split_1
I0419 03:16:49.676862 23600 net.cpp:380] data_data_0_split -> data_data_0_split_2
I0419 03:16:49.676868 23600 net.cpp:380] data_data_0_split -> data_data_0_split_3
I0419 03:16:49.676931 23600 net.cpp:122] Setting up data_data_0_split
I0419 03:16:49.676940 23600 net.cpp:129] Top shape: 1 3 512 512 (786432)
I0419 03:16:49.676945 23600 net.cpp:129] Top shape: 1 3 512 512 (786432)
I0419 03:16:49.676950 23600 net.cpp:129] Top shape: 1 3 512 512 (786432)
I0419 03:16:49.676955 23600 net.cpp:129] Top shape: 1 3 512 512 (786432)
I0419 03:16:49.676959 23600 net.cpp:137] Memory required for data: 18874380
I0419 03:16:49.676964 23600 layer_factory.hpp:77] Creating layer label_data_1_split
I0419 03:16:49.676970 23600 net.cpp:84] Creating Layer label_data_1_split
I0419 03:16:49.676975 23600 net.cpp:406] label_data_1_split <- label
I0419 03:16:49.676982 23600 net.cpp:380] label_data_1_split -> label_data_1_split_0
I0419 03:16:49.676990 23600 net.cpp:380] label_data_1_split -> label_data_1_split_1
I0419 03:16:49.677000 23600 net.cpp:380] label_data_1_split -> label_data_1_split_2
I0419 03:16:49.677049 23600 net.cpp:122] Setting up label_data_1_split
I0419 03:16:49.677057 23600 net.cpp:129] Top shape: 1 3 512 512 (786432)
I0419 03:16:49.677062 23600 net.cpp:129] Top shape: 1 3 512 512 (786432)
I0419 03:16:49.677067 23600 net.cpp:129] Top shape: 1 3 512 512 (786432)
I0419 03:16:49.677070 23600 net.cpp:137] Memory required for data: 28311564
I0419 03:16:49.677074 23600 layer_factory.hpp:77] Creating layer conv1_1
I0419 03:16:49.677091 23600 net.cpp:84] Creating Layer conv1_1
I0419 03:16:49.677098 23600 net.cpp:406] conv1_1 <- data_data_0_split_0
I0419 03:16:49.677104 23600 net.cpp:380] conv1_1 -> conv1_1
I0419 03:16:50.021100 23600 net.cpp:122] Setting up conv1_1
I0419 03:16:50.021148 23600 net.cpp:129] Top shape: 1 64 710 710 (32262400)
I0419 03:16:50.021155 23600 net.cpp:137] Memory required for data: 157361164
I0419 03:16:50.021179 23600 layer_factory.hpp:77] Creating layer relu1_1
I0419 03:16:50.021198 23600 net.cpp:84] Creating Layer relu1_1
I0419 03:16:50.021214 23600 net.cpp:406] relu1_1 <- conv1_1
I0419 03:16:50.021220 23600 net.cpp:367] relu1_1 -> conv1_1 (in-place)
I0419 03:16:50.021394 23600 net.cpp:122] Setting up relu1_1
I0419 03:16:50.021404 23600 net.cpp:129] Top shape: 1 64 710 710 (32262400)
I0419 03:16:50.021407 23600 net.cpp:137] Memory required for data: 286410764
I0419 03:16:50.021411 23600 layer_factory.hpp:77] Creating layer conv1_2
I0419 03:16:50.021423 23600 net.cpp:84] Creating Layer conv1_2
I0419 03:16:50.021426 23600 net.cpp:406] conv1_2 <- conv1_1
I0419 03:16:50.021433 23600 net.cpp:380] conv1_2 -> conv1_2
I0419 03:16:50.026029 23600 net.cpp:122] Setting up conv1_2
I0419 03:16:50.026063 23600 net.cpp:129] Top shape: 1 64 710 710 (32262400)
I0419 03:16:50.026067 23600 net.cpp:137] Memory required for data: 415460364
I0419 03:16:50.026077 23600 layer_factory.hpp:77] Creating layer relu1_2
I0419 03:16:50.026084 23600 net.cpp:84] Creating Layer relu1_2
I0419 03:16:50.026088 23600 net.cpp:406] relu1_2 <- conv1_2
I0419 03:16:50.026093 23600 net.cpp:367] relu1_2 -> conv1_2 (in-place)
I0419 03:16:50.026302 23600 net.cpp:122] Setting up relu1_2
I0419 03:16:50.026314 23600 net.cpp:129] Top shape: 1 64 710 710 (32262400)
I0419 03:16:50.026317 23600 net.cpp:137] Memory required for data: 544509964
I0419 03:16:50.026325 23600 layer_factory.hpp:77] Creating layer pool1
I0419 03:16:50.026334 23600 net.cpp:84] Creating Layer pool1
I0419 03:16:50.026337 23600 net.cpp:406] pool1 <- conv1_2
I0419 03:16:50.026343 23600 net.cpp:380] pool1 -> pool1
I0419 03:16:50.026392 23600 net.cpp:122] Setting up pool1
I0419 03:16:50.026406 23600 net.cpp:129] Top shape: 1 64 355 355 (8065600)
I0419 03:16:50.026409 23600 net.cpp:137] Memory required for data: 576772364
I0419 03:16:50.026412 23600 layer_factory.hpp:77] Creating layer conv2_1
I0419 03:16:50.026438 23600 net.cpp:84] Creating Layer conv2_1
I0419 03:16:50.026443 23600 net.cpp:406] conv2_1 <- pool1
I0419 03:16:50.026448 23600 net.cpp:380] conv2_1 -> conv2_1
I0419 03:16:50.030642 23600 net.cpp:122] Setting up conv2_1
I0419 03:16:50.030673 23600 net.cpp:129] Top shape: 1 128 355 355 (16131200)
I0419 03:16:50.030676 23600 net.cpp:137] Memory required for data: 641297164
I0419 03:16:50.030685 23600 layer_factory.hpp:77] Creating layer relu2_1
I0419 03:16:50.030694 23600 net.cpp:84] Creating Layer relu2_1
I0419 03:16:50.030697 23600 net.cpp:406] relu2_1 <- conv2_1
I0419 03:16:50.030702 23600 net.cpp:367] relu2_1 -> conv2_1 (in-place)
I0419 03:16:50.030881 23600 net.cpp:122] Setting up relu2_1
I0419 03:16:50.030891 23600 net.cpp:129] Top shape: 1 128 355 355 (16131200)
I0419 03:16:50.030894 23600 net.cpp:137] Memory required for data: 705821964
I0419 03:16:50.030899 23600 layer_factory.hpp:77] Creating layer conv2_2
I0419 03:16:50.030906 23600 net.cpp:84] Creating Layer conv2_2
I0419 03:16:50.030910 23600 net.cpp:406] conv2_2 <- conv2_1
I0419 03:16:50.030915 23600 net.cpp:380] conv2_2 -> conv2_2
I0419 03:16:50.032444 23600 net.cpp:122] Setting up conv2_2
I0419 03:16:50.032459 23600 net.cpp:129] Top shape: 1 128 355 355 (16131200)
I0419 03:16:50.032477 23600 net.cpp:137] Memory required for data: 770346764
I0419 03:16:50.032485 23600 layer_factory.hpp:77] Creating layer relu2_2
I0419 03:16:50.032490 23600 net.cpp:84] Creating Layer relu2_2
I0419 03:16:50.032495 23600 net.cpp:406] relu2_2 <- conv2_2
I0419 03:16:50.032500 23600 net.cpp:367] relu2_2 -> conv2_2 (in-place)
I0419 03:16:50.032658 23600 net.cpp:122] Setting up relu2_2
I0419 03:16:50.032667 23600 net.cpp:129] Top shape: 1 128 355 355 (16131200)
I0419 03:16:50.032670 23600 net.cpp:137] Memory required for data: 834871564
I0419 03:16:50.032675 23600 layer_factory.hpp:77] Creating layer pool2
I0419 03:16:50.032680 23600 net.cpp:84] Creating Layer pool2
I0419 03:16:50.032685 23600 net.cpp:406] pool2 <- conv2_2
I0419 03:16:50.032690 23600 net.cpp:380] pool2 -> pool2
I0419 03:16:50.032727 23600 net.cpp:122] Setting up pool2
I0419 03:16:50.032740 23600 net.cpp:129] Top shape: 1 128 178 178 (4055552)
I0419 03:16:50.032743 23600 net.cpp:137] Memory required for data: 851093772
I0419 03:16:50.032747 23600 layer_factory.hpp:77] Creating layer conv3_1
I0419 03:16:50.032754 23600 net.cpp:84] Creating Layer conv3_1
I0419 03:16:50.032757 23600 net.cpp:406] conv3_1 <- pool2
I0419 03:16:50.032763 23600 net.cpp:380] conv3_1 -> conv3_1
I0419 03:16:50.036780 23600 net.cpp:122] Setting up conv3_1
I0419 03:16:50.036813 23600 net.cpp:129] Top shape: 1 256 178 178 (8111104)
I0419 03:16:50.036819 23600 net.cpp:137] Memory required for data: 883538188
I0419 03:16:50.036834 23600 layer_factory.hpp:77] Creating layer relu3_1
I0419 03:16:50.036844 23600 net.cpp:84] Creating Layer relu3_1
I0419 03:16:50.036849 23600 net.cpp:406] relu3_1 <- conv3_1
I0419 03:16:50.036855 23600 net.cpp:367] relu3_1 -> conv3_1 (in-place)
I0419 03:16:50.037528 23600 net.cpp:122] Setting up relu3_1
I0419 03:16:50.037546 23600 net.cpp:129] Top shape: 1 256 178 178 (8111104)
I0419 03:16:50.037551 23600 net.cpp:137] Memory required for data: 915982604
I0419 03:16:50.037559 23600 layer_factory.hpp:77] Creating layer conv3_2
I0419 03:16:50.037571 23600 net.cpp:84] Creating Layer conv3_2
I0419 03:16:50.037577 23600 net.cpp:406] conv3_2 <- conv3_1
I0419 03:16:50.037586 23600 net.cpp:380] conv3_2 -> conv3_2
I0419 03:16:50.041471 23600 net.cpp:122] Setting up conv3_2
I0419 03:16:50.041491 23600 net.cpp:129] Top shape: 1 256 178 178 (8111104)
I0419 03:16:50.041504 23600 net.cpp:137] Memory required for data: 948427020
I0419 03:16:50.041515 23600 layer_factory.hpp:77] Creating layer relu3_2
I0419 03:16:50.041527 23600 net.cpp:84] Creating Layer relu3_2
I0419 03:16:50.041532 23600 net.cpp:406] relu3_2 <- conv3_2
I0419 03:16:50.041540 23600 net.cpp:367] relu3_2 -> conv3_2 (in-place)
I0419 03:16:50.042223 23600 net.cpp:122] Setting up relu3_2
I0419 03:16:50.042240 23600 net.cpp:129] Top shape: 1 256 178 178 (8111104)
I0419 03:16:50.042253 23600 net.cpp:137] Memory required for data: 980871436
I0419 03:16:50.042258 23600 layer_factory.hpp:77] Creating layer conv3_3
I0419 03:16:50.042271 23600 net.cpp:84] Creating Layer conv3_3
I0419 03:16:50.042276 23600 net.cpp:406] conv3_3 <- conv3_2
I0419 03:16:50.042285 23600 net.cpp:380] conv3_3 -> conv3_3
I0419 03:16:50.048120 23600 net.cpp:122] Setting up conv3_3
I0419 03:16:50.048153 23600 net.cpp:129] Top shape: 1 256 178 178 (8111104)
I0419 03:16:50.048158 23600 net.cpp:137] Memory required for data: 1013315852
I0419 03:16:50.048168 23600 layer_factory.hpp:77] Creating layer relu3_3
I0419 03:16:50.048178 23600 net.cpp:84] Creating Layer relu3_3
I0419 03:16:50.048183 23600 net.cpp:406] relu3_3 <- conv3_3
I0419 03:16:50.048192 23600 net.cpp:367] relu3_3 -> conv3_3 (in-place)
I0419 03:16:50.048415 23600 net.cpp:122] Setting up relu3_3
I0419 03:16:50.048429 23600 net.cpp:129] Top shape: 1 256 178 178 (8111104)
I0419 03:16:50.048434 23600 net.cpp:137] Memory required for data: 1045760268
I0419 03:16:50.048439 23600 layer_factory.hpp:77] Creating layer pool3
I0419 03:16:50.048447 23600 net.cpp:84] Creating Layer pool3
I0419 03:16:50.048452 23600 net.cpp:406] pool3 <- conv3_3
I0419 03:16:50.048470 23600 net.cpp:380] pool3 -> pool3
I0419 03:16:50.048522 23600 net.cpp:122] Setting up pool3
I0419 03:16:50.048532 23600 net.cpp:129] Top shape: 1 256 89 89 (2027776)
I0419 03:16:50.048537 23600 net.cpp:137] Memory required for data: 1053871372
I0419 03:16:50.048540 23600 layer_factory.hpp:77] Creating layer pool3_pool3_0_split
I0419 03:16:50.048548 23600 net.cpp:84] Creating Layer pool3_pool3_0_split
I0419 03:16:50.048553 23600 net.cpp:406] pool3_pool3_0_split <- pool3
I0419 03:16:50.048560 23600 net.cpp:380] pool3_pool3_0_split -> pool3_pool3_0_split_0
I0419 03:16:50.048568 23600 net.cpp:380] pool3_pool3_0_split -> pool3_pool3_0_split_1
I0419 03:16:50.048607 23600 net.cpp:122] Setting up pool3_pool3_0_split
I0419 03:16:50.048614 23600 net.cpp:129] Top shape: 1 256 89 89 (2027776)
I0419 03:16:50.048619 23600 net.cpp:129] Top shape: 1 256 89 89 (2027776)
I0419 03:16:50.048622 23600 net.cpp:137] Memory required for data: 1070093580
I0419 03:16:50.048626 23600 layer_factory.hpp:77] Creating layer conv4_1
I0419 03:16:50.048638 23600 net.cpp:84] Creating Layer conv4_1
I0419 03:16:50.048642 23600 net.cpp:406] conv4_1 <- pool3_pool3_0_split_0
I0419 03:16:50.048651 23600 net.cpp:380] conv4_1 -> conv4_1
I0419 03:16:50.063293 23600 net.cpp:122] Setting up conv4_1
I0419 03:16:50.063354 23600 net.cpp:129] Top shape: 1 512 89 89 (4055552)
I0419 03:16:50.063364 23600 net.cpp:137] Memory required for data: 1086315788
I0419 03:16:50.063393 23600 layer_factory.hpp:77] Creating layer relu4_1
I0419 03:16:50.063412 23600 net.cpp:84] Creating Layer relu4_1
I0419 03:16:50.063428 23600 net.cpp:406] relu4_1 <- conv4_1
I0419 03:16:50.063447 23600 net.cpp:367] relu4_1 -> conv4_1 (in-place)
I0419 03:16:50.063859 23600 net.cpp:122] Setting up relu4_1
I0419 03:16:50.063899 23600 net.cpp:129] Top shape: 1 512 89 89 (4055552)
I0419 03:16:50.063906 23600 net.cpp:137] Memory required for data: 1102537996
I0419 03:16:50.063913 23600 layer_factory.hpp:77] Creating layer conv4_2
I0419 03:16:50.063943 23600 net.cpp:84] Creating Layer conv4_2
I0419 03:16:50.063951 23600 net.cpp:406] conv4_2 <- conv4_1
I0419 03:16:50.063973 23600 net.cpp:380] conv4_2 -> conv4_2
I0419 03:16:50.075659 23600 net.cpp:122] Setting up conv4_2
I0419 03:16:50.075693 23600 net.cpp:129] Top shape: 1 512 89 89 (4055552)
I0419 03:16:50.075698 23600 net.cpp:137] Memory required for data: 1118760204
I0419 03:16:50.075716 23600 layer_factory.hpp:77] Creating layer relu4_2
I0419 03:16:50.075737 23600 net.cpp:84] Creating Layer relu4_2
I0419 03:16:50.075743 23600 net.cpp:406] relu4_2 <- conv4_2
I0419 03:16:50.075750 23600 net.cpp:367] relu4_2 -> conv4_2 (in-place)
I0419 03:16:50.075984 23600 net.cpp:122] Setting up relu4_2
I0419 03:16:50.075997 23600 net.cpp:129] Top shape: 1 512 89 89 (4055552)
I0419 03:16:50.076001 23600 net.cpp:137] Memory required for data: 1134982412
I0419 03:16:50.076005 23600 layer_factory.hpp:77] Creating layer conv4_3
I0419 03:16:50.076017 23600 net.cpp:84] Creating Layer conv4_3
I0419 03:16:50.076021 23600 net.cpp:406] conv4_3 <- conv4_2
I0419 03:16:50.076030 23600 net.cpp:380] conv4_3 -> conv4_3
I0419 03:16:50.085204 23600 net.cpp:122] Setting up conv4_3
I0419 03:16:50.085242 23600 net.cpp:129] Top shape: 1 512 89 89 (4055552)
I0419 03:16:50.085247 23600 net.cpp:137] Memory required for data: 1151204620
I0419 03:16:50.085258 23600 layer_factory.hpp:77] Creating layer relu4_3
I0419 03:16:50.085268 23600 net.cpp:84] Creating Layer relu4_3
I0419 03:16:50.085286 23600 net.cpp:406] relu4_3 <- conv4_3
I0419 03:16:50.085295 23600 net.cpp:367] relu4_3 -> conv4_3 (in-place)
I0419 03:16:50.085553 23600 net.cpp:122] Setting up relu4_3
I0419 03:16:50.085567 23600 net.cpp:129] Top shape: 1 512 89 89 (4055552)
I0419 03:16:50.085572 23600 net.cpp:137] Memory required for data: 1167426828
I0419 03:16:50.085577 23600 layer_factory.hpp:77] Creating layer pool4
I0419 03:16:50.085588 23600 net.cpp:84] Creating Layer pool4
I0419 03:16:50.085593 23600 net.cpp:406] pool4 <- conv4_3
I0419 03:16:50.085602 23600 net.cpp:380] pool4 -> pool4
I0419 03:16:50.085662 23600 net.cpp:122] Setting up pool4
I0419 03:16:50.085672 23600 net.cpp:129] Top shape: 1 512 45 45 (1036800)
I0419 03:16:50.085677 23600 net.cpp:137] Memory required for data: 1171574028
I0419 03:16:50.085681 23600 layer_factory.hpp:77] Creating layer pool4_pool4_0_split
I0419 03:16:50.085690 23600 net.cpp:84] Creating Layer pool4_pool4_0_split
I0419 03:16:50.085695 23600 net.cpp:406] pool4_pool4_0_split <- pool4
I0419 03:16:50.085703 23600 net.cpp:380] pool4_pool4_0_split -> pool4_pool4_0_split_0
I0419 03:16:50.085712 23600 net.cpp:380] pool4_pool4_0_split -> pool4_pool4_0_split_1
I0419 03:16:50.085757 23600 net.cpp:122] Setting up pool4_pool4_0_split
I0419 03:16:50.085767 23600 net.cpp:129] Top shape: 1 512 45 45 (1036800)
I0419 03:16:50.085773 23600 net.cpp:129] Top shape: 1 512 45 45 (1036800)
I0419 03:16:50.085777 23600 net.cpp:137] Memory required for data: 1179868428
I0419 03:16:50.085781 23600 layer_factory.hpp:77] Creating layer conv5_1
I0419 03:16:50.085794 23600 net.cpp:84] Creating Layer conv5_1
I0419 03:16:50.085799 23600 net.cpp:406] conv5_1 <- pool4_pool4_0_split_0
I0419 03:16:50.085808 23600 net.cpp:380] conv5_1 -> conv5_1
I0419 03:16:50.095489 23600 net.cpp:122] Setting up conv5_1
I0419 03:16:50.095512 23600 net.cpp:129] Top shape: 1 512 45 45 (1036800)
I0419 03:16:50.095517 23600 net.cpp:137] Memory required for data: 1184015628
I0419 03:16:50.095530 23600 layer_factory.hpp:77] Creating layer relu5_1
I0419 03:16:50.095537 23600 net.cpp:84] Creating Layer relu5_1
I0419 03:16:50.095543 23600 net.cpp:406] relu5_1 <- conv5_1
I0419 03:16:50.095551 23600 net.cpp:367] relu5_1 -> conv5_1 (in-place)
I0419 03:16:50.096220 23600 net.cpp:122] Setting up relu5_1
I0419 03:16:50.096236 23600 net.cpp:129] Top shape: 1 512 45 45 (1036800)
I0419 03:16:50.096241 23600 net.cpp:137] Memory required for data: 1188162828
I0419 03:16:50.096246 23600 layer_factory.hpp:77] Creating layer conv5_2
I0419 03:16:50.096258 23600 net.cpp:84] Creating Layer conv5_2
I0419 03:16:50.096263 23600 net.cpp:406] conv5_2 <- conv5_1
I0419 03:16:50.096273 23600 net.cpp:380] conv5_2 -> conv5_2
I0419 03:16:50.104763 23600 net.cpp:122] Setting up conv5_2
I0419 03:16:50.104801 23600 net.cpp:129] Top shape: 1 512 45 45 (1036800)
I0419 03:16:50.104806 23600 net.cpp:137] Memory required for data: 1192310028
I0419 03:16:50.104818 23600 layer_factory.hpp:77] Creating layer relu5_2
I0419 03:16:50.104835 23600 net.cpp:84] Creating Layer relu5_2
I0419 03:16:50.104853 23600 net.cpp:406] relu5_2 <- conv5_2
I0419 03:16:50.104862 23600 net.cpp:367] relu5_2 -> conv5_2 (in-place)
I0419 03:16:50.105664 23600 net.cpp:122] Setting up relu5_2
I0419 03:16:50.105681 23600 net.cpp:129] Top shape: 1 512 45 45 (1036800)
I0419 03:16:50.105696 23600 net.cpp:137] Memory required for data: 1196457228
I0419 03:16:50.105702 23600 layer_factory.hpp:77] Creating layer conv5_3
I0419 03:16:50.105715 23600 net.cpp:84] Creating Layer conv5_3
I0419 03:16:50.105720 23600 net.cpp:406] conv5_3 <- conv5_2
I0419 03:16:50.105741 23600 net.cpp:380] conv5_3 -> conv5_3
I0419 03:16:50.114982 23600 net.cpp:122] Setting up conv5_3
I0419 03:16:50.115003 23600 net.cpp:129] Top shape: 1 512 45 45 (1036800)
I0419 03:16:50.115008 23600 net.cpp:137] Memory required for data: 1200604428
I0419 03:16:50.115017 23600 layer_factory.hpp:77] Creating layer relu5_3
I0419 03:16:50.115026 23600 net.cpp:84] Creating Layer relu5_3
I0419 03:16:50.115031 23600 net.cpp:406] relu5_3 <- conv5_3
I0419 03:16:50.115038 23600 net.cpp:367] relu5_3 -> conv5_3 (in-place)
I0419 03:16:50.115280 23600 net.cpp:122] Setting up relu5_3
I0419 03:16:50.115291 23600 net.cpp:129] Top shape: 1 512 45 45 (1036800)
I0419 03:16:50.115295 23600 net.cpp:137] Memory required for data: 1204751628
I0419 03:16:50.115300 23600 layer_factory.hpp:77] Creating layer pool5
I0419 03:16:50.115310 23600 net.cpp:84] Creating Layer pool5
I0419 03:16:50.115322 23600 net.cpp:406] pool5 <- conv5_3
I0419 03:16:50.115330 23600 net.cpp:380] pool5 -> pool5
I0419 03:16:50.115382 23600 net.cpp:122] Setting up pool5
I0419 03:16:50.115391 23600 net.cpp:129] Top shape: 1 512 23 23 (270848)
I0419 03:16:50.115396 23600 net.cpp:137] Memory required for data: 1205835020
I0419 03:16:50.115399 23600 layer_factory.hpp:77] Creating layer fc6
I0419 03:16:50.115411 23600 net.cpp:84] Creating Layer fc6
I0419 03:16:50.115416 23600 net.cpp:406] fc6 <- pool5
I0419 03:16:50.115424 23600 net.cpp:380] fc6 -> fc6
I0419 03:16:50.438313 23600 net.cpp:122] Setting up fc6
I0419 03:16:50.438380 23600 net.cpp:129] Top shape: 1 4096 17 17 (1183744)
I0419 03:16:50.438390 23600 net.cpp:137] Memory required for data: 1210569996
I0419 03:16:50.438411 23600 layer_factory.hpp:77] Creating layer relu6
I0419 03:16:50.438441 23600 net.cpp:84] Creating Layer relu6
I0419 03:16:50.438450 23600 net.cpp:406] relu6 <- fc6
I0419 03:16:50.438464 23600 net.cpp:367] relu6 -> fc6 (in-place)
I0419 03:16:50.438875 23600 net.cpp:122] Setting up relu6
I0419 03:16:50.438906 23600 net.cpp:129] Top shape: 1 4096 17 17 (1183744)
I0419 03:16:50.438913 23600 net.cpp:137] Memory required for data: 1215304972
I0419 03:16:50.438921 23600 layer_factory.hpp:77] Creating layer drop6
I0419 03:16:50.438943 23600 net.cpp:84] Creating Layer drop6
I0419 03:16:50.438951 23600 net.cpp:406] drop6 <- fc6
I0419 03:16:50.438964 23600 net.cpp:367] drop6 -> fc6 (in-place)
I0419 03:16:50.439034 23600 net.cpp:122] Setting up drop6
I0419 03:16:50.439049 23600 net.cpp:129] Top shape: 1 4096 17 17 (1183744)
I0419 03:16:50.439055 23600 net.cpp:137] Memory required for data: 1220039948
I0419 03:16:50.439072 23600 layer_factory.hpp:77] Creating layer fc7
I0419 03:16:50.439091 23600 net.cpp:84] Creating Layer fc7
I0419 03:16:50.439098 23600 net.cpp:406] fc7 <- fc6
I0419 03:16:50.439111 23600 net.cpp:380] fc7 -> fc7
I0419 03:16:50.493871 23600 net.cpp:122] Setting up fc7
I0419 03:16:50.493937 23600 net.cpp:129] Top shape: 1 4096 17 17 (1183744)
I0419 03:16:50.493942 23600 net.cpp:137] Memory required for data: 1224774924
I0419 03:16:50.493978 23600 layer_factory.hpp:77] Creating layer relu7
I0419 03:16:50.494015 23600 net.cpp:84] Creating Layer relu7
I0419 03:16:50.494032 23600 net.cpp:406] relu7 <- fc7
I0419 03:16:50.494055 23600 net.cpp:367] relu7 -> fc7 (in-place)
I0419 03:16:50.494724 23600 net.cpp:122] Setting up relu7
I0419 03:16:50.494738 23600 net.cpp:129] Top shape: 1 4096 17 17 (1183744)
I0419 03:16:50.494741 23600 net.cpp:137] Memory required for data: 1229509900
I0419 03:16:50.494752 23600 layer_factory.hpp:77] Creating layer drop7
I0419 03:16:50.494767 23600 net.cpp:84] Creating Layer drop7
I0419 03:16:50.494771 23600 net.cpp:406] drop7 <- fc7
I0419 03:16:50.494788 23600 net.cpp:367] drop7 -> fc7 (in-place)
I0419 03:16:50.494818 23600 net.cpp:122] Setting up drop7
I0419 03:16:50.494824 23600 net.cpp:129] Top shape: 1 4096 17 17 (1183744)
I0419 03:16:50.494827 23600 net.cpp:137] Memory required for data: 1234244876
I0419 03:16:50.494830 23600 layer_factory.hpp:77] Creating layer score_fr-new
I0419 03:16:50.494840 23600 net.cpp:84] Creating Layer score_fr-new
I0419 03:16:50.494844 23600 net.cpp:406] score_fr-new <- fc7
I0419 03:16:50.494863 23600 net.cpp:380] score_fr-new -> score_fr-new
I0419 03:16:50.496152 23600 net.cpp:122] Setting up score_fr-new
I0419 03:16:50.496181 23600 net.cpp:129] Top shape: 1 3 17 17 (867)
I0419 03:16:50.496184 23600 net.cpp:137] Memory required for data: 1234248344
I0419 03:16:50.496191 23600 layer_factory.hpp:77] Creating layer upscore2-new
I0419 03:16:50.496204 23600 net.cpp:84] Creating Layer upscore2-new
I0419 03:16:50.496208 23600 net.cpp:406] upscore2-new <- score_fr-new
I0419 03:16:50.496215 23600 net.cpp:380] upscore2-new -> upscore2-new
I0419 03:16:50.496398 23600 net.cpp:122] Setting up upscore2-new
I0419 03:16:50.496407 23600 net.cpp:129] Top shape: 1 3 36 36 (3888)
I0419 03:16:50.496410 23600 net.cpp:137] Memory required for data: 1234263896
I0419 03:16:50.496424 23600 layer_factory.hpp:77] Creating layer upscore2-new_upscore2-new_0_split
I0419 03:16:50.496441 23600 net.cpp:84] Creating Layer upscore2-new_upscore2-new_0_split
I0419 03:16:50.496445 23600 net.cpp:406] upscore2-new_upscore2-new_0_split <- upscore2-new
I0419 03:16:50.496455 23600 net.cpp:380] upscore2-new_upscore2-new_0_split -> upscore2-new_upscore2-new_0_split_0
I0419 03:16:50.496461 23600 net.cpp:380] upscore2-new_upscore2-new_0_split -> upscore2-new_upscore2-new_0_split_1
I0419 03:16:50.496495 23600 net.cpp:122] Setting up upscore2-new_upscore2-new_0_split
I0419 03:16:50.496515 23600 net.cpp:129] Top shape: 1 3 36 36 (3888)
I0419 03:16:50.496520 23600 net.cpp:129] Top shape: 1 3 36 36 (3888)
I0419 03:16:50.496522 23600 net.cpp:137] Memory required for data: 1234295000
I0419 03:16:50.496526 23600 layer_factory.hpp:77] Creating layer score_pool4-new
I0419 03:16:50.496538 23600 net.cpp:84] Creating Layer score_pool4-new
I0419 03:16:50.496541 23600 net.cpp:406] score_pool4-new <- pool4_pool4_0_split_1
I0419 03:16:50.496548 23600 net.cpp:380] score_pool4-new -> score_pool4-new
I0419 03:16:50.497689 23600 net.cpp:122] Setting up score_pool4-new
I0419 03:16:50.497704 23600 net.cpp:129] Top shape: 1 3 45 45 (6075)
I0419 03:16:50.497722 23600 net.cpp:137] Memory required for data: 1234319300
I0419 03:16:50.497728 23600 layer_factory.hpp:77] Creating layer score_pool4c
I0419 03:16:50.497745 23600 net.cpp:84] Creating Layer score_pool4c
I0419 03:16:50.497748 23600 net.cpp:406] score_pool4c <- score_pool4-new
I0419 03:16:50.497757 23600 net.cpp:406] score_pool4c <- upscore2-new_upscore2-new_0_split_0
I0419 03:16:50.497763 23600 net.cpp:380] score_pool4c -> score_pool4c
I0419 03:16:50.497800 23600 net.cpp:122] Setting up score_pool4c
I0419 03:16:50.497805 23600 net.cpp:129] Top shape: 1 3 36 36 (3888)
I0419 03:16:50.497808 23600 net.cpp:137] Memory required for data: 1234334852
I0419 03:16:50.497812 23600 layer_factory.hpp:77] Creating layer fuse_pool4
I0419 03:16:50.497824 23600 net.cpp:84] Creating Layer fuse_pool4
I0419 03:16:50.497828 23600 net.cpp:406] fuse_pool4 <- upscore2-new_upscore2-new_0_split_1
I0419 03:16:50.497831 23600 net.cpp:406] fuse_pool4 <- score_pool4c
I0419 03:16:50.497836 23600 net.cpp:380] fuse_pool4 -> fuse_pool4
I0419 03:16:50.497864 23600 net.cpp:122] Setting up fuse_pool4
I0419 03:16:50.497869 23600 net.cpp:129] Top shape: 1 3 36 36 (3888)
I0419 03:16:50.497870 23600 net.cpp:137] Memory required for data: 1234350404
I0419 03:16:50.497874 23600 layer_factory.hpp:77] Creating layer upscore_pool4-new
I0419 03:16:50.497885 23600 net.cpp:84] Creating Layer upscore_pool4-new
I0419 03:16:50.497889 23600 net.cpp:406] upscore_pool4-new <- fuse_pool4
I0419 03:16:50.497895 23600 net.cpp:380] upscore_pool4-new -> upscore_pool4-new
I0419 03:16:50.498081 23600 net.cpp:122] Setting up upscore_pool4-new
I0419 03:16:50.498090 23600 net.cpp:129] Top shape: 1 3 74 74 (16428)
I0419 03:16:50.498092 23600 net.cpp:137] Memory required for data: 1234416116
I0419 03:16:50.498097 23600 layer_factory.hpp:77] Creating layer upscore_pool4-new_upscore_pool4-new_0_split
I0419 03:16:50.498102 23600 net.cpp:84] Creating Layer upscore_pool4-new_upscore_pool4-new_0_split
I0419 03:16:50.498106 23600 net.cpp:406] upscore_pool4-new_upscore_pool4-new_0_split <- upscore_pool4-new
I0419 03:16:50.498111 23600 net.cpp:380] upscore_pool4-new_upscore_pool4-new_0_split -> upscore_pool4-new_upscore_pool4-new_0_split_0
I0419 03:16:50.498116 23600 net.cpp:380] upscore_pool4-new_upscore_pool4-new_0_split -> upscore_pool4-new_upscore_pool4-new_0_split_1
I0419 03:16:50.498148 23600 net.cpp:122] Setting up upscore_pool4-new_upscore_pool4-new_0_split
I0419 03:16:50.498153 23600 net.cpp:129] Top shape: 1 3 74 74 (16428)
I0419 03:16:50.498157 23600 net.cpp:129] Top shape: 1 3 74 74 (16428)
I0419 03:16:50.498160 23600 net.cpp:137] Memory required for data: 1234547540
I0419 03:16:50.498195 23600 layer_factory.hpp:77] Creating layer score_pool3-new
I0419 03:16:50.498209 23600 net.cpp:84] Creating Layer score_pool3-new
I0419 03:16:50.498214 23600 net.cpp:406] score_pool3-new <- pool3_pool3_0_split_1
I0419 03:16:50.498224 23600 net.cpp:380] score_pool3-new -> score_pool3-new
I0419 03:16:50.499404 23600 net.cpp:122] Setting up score_pool3-new
I0419 03:16:50.499419 23600 net.cpp:129] Top shape: 1 3 89 89 (23763)
I0419 03:16:50.499423 23600 net.cpp:137] Memory required for data: 1234642592
I0419 03:16:50.499429 23600 layer_factory.hpp:77] Creating layer score_pool3c
I0419 03:16:50.499451 23600 net.cpp:84] Creating Layer score_pool3c
I0419 03:16:50.499456 23600 net.cpp:406] score_pool3c <- score_pool3-new
I0419 03:16:50.499460 23600 net.cpp:406] score_pool3c <- upscore_pool4-new_upscore_pool4-new_0_split_0
I0419 03:16:50.499466 23600 net.cpp:380] score_pool3c -> score_pool3c
I0419 03:16:50.499495 23600 net.cpp:122] Setting up score_pool3c
I0419 03:16:50.499500 23600 net.cpp:129] Top shape: 1 3 74 74 (16428)
I0419 03:16:50.499502 23600 net.cpp:137] Memory required for data: 1234708304
I0419 03:16:50.499511 23600 layer_factory.hpp:77] Creating layer fuse_pool3
I0419 03:16:50.499516 23600 net.cpp:84] Creating Layer fuse_pool3
I0419 03:16:50.499519 23600 net.cpp:406] fuse_pool3 <- upscore_pool4-new_upscore_pool4-new_0_split_1
I0419 03:16:50.499524 23600 net.cpp:406] fuse_pool3 <- score_pool3c
I0419 03:16:50.499529 23600 net.cpp:380] fuse_pool3 -> fuse_pool3
I0419 03:16:50.499552 23600 net.cpp:122] Setting up fuse_pool3
I0419 03:16:50.499557 23600 net.cpp:129] Top shape: 1 3 74 74 (16428)
I0419 03:16:50.499559 23600 net.cpp:137] Memory required for data: 1234774016
I0419 03:16:50.499562 23600 layer_factory.hpp:77] Creating layer upscore8-new
I0419 03:16:50.499573 23600 net.cpp:84] Creating Layer upscore8-new
I0419 03:16:50.499577 23600 net.cpp:406] upscore8-new <- fuse_pool3
I0419 03:16:50.499583 23600 net.cpp:380] upscore8-new -> upscore8-new
I0419 03:16:50.499791 23600 net.cpp:122] Setting up upscore8-new
I0419 03:16:50.499800 23600 net.cpp:129] Top shape: 1 3 600 600 (1080000)
I0419 03:16:50.499804 23600 net.cpp:137] Memory required for data: 1239094016
I0419 03:16:50.499807 23600 layer_factory.hpp:77] Creating layer upscore8_cropped
I0419 03:16:50.499821 23600 net.cpp:84] Creating Layer upscore8_cropped
I0419 03:16:50.499825 23600 net.cpp:406] upscore8_cropped <- upscore8-new
I0419 03:16:50.499838 23600 net.cpp:406] upscore8_cropped <- data_data_0_split_1
I0419 03:16:50.499843 23600 net.cpp:380] upscore8_cropped -> upscore8_cropped
I0419 03:16:50.499866 23600 net.cpp:122] Setting up upscore8_cropped
I0419 03:16:50.499871 23600 net.cpp:129] Top shape: 1 3 512 512 (786432)
I0419 03:16:50.499874 23600 net.cpp:137] Memory required for data: 1242239744
I0419 03:16:50.499877 23600 layer_factory.hpp:77] Creating layer score
I0419 03:16:50.499886 23600 net.cpp:84] Creating Layer score
I0419 03:16:50.499889 23600 net.cpp:406] score <- upscore8_cropped
I0419 03:16:50.499897 23600 net.cpp:380] score -> score
I0419 03:16:50.503247 23600 net.cpp:122] Setting up score
I0419 03:16:50.503260 23600 net.cpp:129] Top shape: 1 3 512 512 (786432)
I0419 03:16:50.503279 23600 net.cpp:137] Memory required for data: 1245385472
I0419 03:16:50.503294 23600 layer_factory.hpp:77] Creating layer score_score_0_split
I0419 03:16:50.503300 23600 net.cpp:84] Creating Layer score_score_0_split
I0419 03:16:50.503304 23600 net.cpp:406] score_score_0_split <- score
I0419 03:16:50.503310 23600 net.cpp:380] score_score_0_split -> score_score_0_split_0
I0419 03:16:50.503316 23600 net.cpp:380] score_score_0_split -> score_score_0_split_1
I0419 03:16:50.503360 23600 net.cpp:122] Setting up score_score_0_split
I0419 03:16:50.503365 23600 net.cpp:129] Top shape: 1 3 512 512 (786432)
I0419 03:16:50.503368 23600 net.cpp:129] Top shape: 1 3 512 512 (786432)
I0419 03:16:50.503371 23600 net.cpp:137] Memory required for data: 1251676928
I0419 03:16:50.503374 23600 layer_factory.hpp:77] Creating layer prob
I0419 03:16:50.503386 23600 net.cpp:84] Creating Layer prob
I0419 03:16:50.503389 23600 net.cpp:406] prob <- score_score_0_split_0
I0419 03:16:50.503398 23600 net.cpp:380] prob -> prob
I0419 03:16:50.503612 23600 net.cpp:122] Setting up prob
I0419 03:16:50.503623 23600 net.cpp:129] Top shape: 1 3 512 512 (786432)
I0419 03:16:50.503626 23600 net.cpp:137] Memory required for data: 1254822656
I0419 03:16:50.503630 23600 layer_factory.hpp:77] Creating layer saliency
I0419 03:16:50.503645 23600 net.cpp:84] Creating Layer saliency
I0419 03:16:50.503650 23600 net.cpp:406] saliency <- prob
I0419 03:16:50.503657 23600 net.cpp:380] saliency -> saliency
I0419 03:16:50.505868 23600 net.cpp:122] Setting up saliency
I0419 03:16:50.505882 23600 net.cpp:129] Top shape: 1 3 512 512 (786432)
I0419 03:16:50.505903 23600 net.cpp:137] Memory required for data: 1257968384
I0419 03:16:50.505909 23600 layer_factory.hpp:77] Creating layer silence_saliency
I0419 03:16:50.505918 23600 net.cpp:84] Creating Layer silence_saliency
I0419 03:16:50.505923 23600 net.cpp:406] silence_saliency <- saliency
I0419 03:16:50.505929 23600 net.cpp:122] Setting up silence_saliency
I0419 03:16:50.505933 23600 net.cpp:137] Memory required for data: 1257968384
I0419 03:16:50.505941 23600 layer_factory.hpp:77] Creating layer crop
I0419 03:16:50.506410 23600 net.cpp:84] Creating Layer crop
I0419 03:16:50.506422 23600 net.cpp:406] crop <- label_data_1_split_0
I0419 03:16:50.506428 23600 net.cpp:406] crop <- data_data_0_split_2
I0419 03:16:50.506433 23600 net.cpp:406] crop <- crop_margin
I0419 03:16:50.506438 23600 net.cpp:406] crop <- crop_prob
I0419 03:16:50.506441 23600 net.cpp:406] crop <- crop_sample_batch
I0419 03:16:50.506448 23600 net.cpp:380] crop -> data-R
I0419 03:16:50.506456 23600 net.cpp:380] crop -> crop_info
I0419 03:16:50.515902 23600 net.cpp:122] Setting up crop
I0419 03:16:50.515939 23600 net.cpp:129] Top shape: 1 3 512 512 (786432)
I0419 03:16:50.515944 23600 net.cpp:129] Top shape: 1 2 4 (8)
I0419 03:16:50.515947 23600 net.cpp:137] Memory required for data: 1261114144
I0419 03:16:50.515951 23600 layer_factory.hpp:77] Creating layer data-R_crop_0_split
I0419 03:16:50.515959 23600 net.cpp:84] Creating Layer data-R_crop_0_split
I0419 03:16:50.515964 23600 net.cpp:406] data-R_crop_0_split <- data-R
I0419 03:16:50.515970 23600 net.cpp:380] data-R_crop_0_split -> data-R_crop_0_split_0
I0419 03:16:50.515978 23600 net.cpp:380] data-R_crop_0_split -> data-R_crop_0_split_1
I0419 03:16:50.516029 23600 net.cpp:122] Setting up data-R_crop_0_split
I0419 03:16:50.516034 23600 net.cpp:129] Top shape: 1 3 512 512 (786432)
I0419 03:16:50.516038 23600 net.cpp:129] Top shape: 1 3 512 512 (786432)
I0419 03:16:50.516041 23600 net.cpp:137] Memory required for data: 1267405600
I0419 03:16:50.516044 23600 layer_factory.hpp:77] Creating layer conv1_1-R
I0419 03:16:50.516057 23600 net.cpp:84] Creating Layer conv1_1-R
I0419 03:16:50.516059 23600 net.cpp:406] conv1_1-R <- data-R_crop_0_split_0
I0419 03:16:50.516068 23600 net.cpp:380] conv1_1-R -> conv1_1-R
I0419 03:16:50.519349 23600 net.cpp:122] Setting up conv1_1-R
I0419 03:16:50.519363 23600 net.cpp:129] Top shape: 1 64 710 710 (32262400)
I0419 03:16:50.519382 23600 net.cpp:137] Memory required for data: 1396455200
I0419 03:16:50.519390 23600 layer_factory.hpp:77] Creating layer relu1_1-R
I0419 03:16:50.519398 23600 net.cpp:84] Creating Layer relu1_1-R
I0419 03:16:50.519402 23600 net.cpp:406] relu1_1-R <- conv1_1-R
I0419 03:16:50.519407 23600 net.cpp:367] relu1_1-R -> conv1_1-R (in-place)
I0419 03:16:50.519606 23600 net.cpp:122] Setting up relu1_1-R
I0419 03:16:50.519616 23600 net.cpp:129] Top shape: 1 64 710 710 (32262400)
I0419 03:16:50.519619 23600 net.cpp:137] Memory required for data: 1525504800
I0419 03:16:50.519630 23600 layer_factory.hpp:77] Creating layer conv1_2-R
I0419 03:16:50.519693 23600 net.cpp:84] Creating Layer conv1_2-R
I0419 03:16:50.519698 23600 net.cpp:406] conv1_2-R <- conv1_1-R
I0419 03:16:50.519703 23600 net.cpp:380] conv1_2-R -> conv1_2-R
I0419 03:16:50.522522 23600 net.cpp:122] Setting up conv1_2-R
I0419 03:16:50.522550 23600 net.cpp:129] Top shape: 1 64 710 710 (32262400)
I0419 03:16:50.522569 23600 net.cpp:137] Memory required for data: 1654554400
I0419 03:16:50.522577 23600 layer_factory.hpp:77] Creating layer relu1_2-R
I0419 03:16:50.522583 23600 net.cpp:84] Creating Layer relu1_2-R
I0419 03:16:50.522588 23600 net.cpp:406] relu1_2-R <- conv1_2-R
I0419 03:16:50.522593 23600 net.cpp:367] relu1_2-R -> conv1_2-R (in-place)
I0419 03:16:50.522773 23600 net.cpp:122] Setting up relu1_2-R
I0419 03:16:50.522783 23600 net.cpp:129] Top shape: 1 64 710 710 (32262400)
I0419 03:16:50.522786 23600 net.cpp:137] Memory required for data: 1783604000
I0419 03:16:50.522789 23600 layer_factory.hpp:77] Creating layer pool1-R
I0419 03:16:50.522807 23600 net.cpp:84] Creating Layer pool1-R
I0419 03:16:50.522811 23600 net.cpp:406] pool1-R <- conv1_2-R
I0419 03:16:50.522819 23600 net.cpp:380] pool1-R -> pool1-R
I0419 03:16:50.522882 23600 net.cpp:122] Setting up pool1-R
I0419 03:16:50.522888 23600 net.cpp:129] Top shape: 1 64 355 355 (8065600)
I0419 03:16:50.522892 23600 net.cpp:137] Memory required for data: 1815866400
I0419 03:16:50.522895 23600 layer_factory.hpp:77] Creating layer conv2_1-R
I0419 03:16:50.522903 23600 net.cpp:84] Creating Layer conv2_1-R
I0419 03:16:50.522907 23600 net.cpp:406] conv2_1-R <- pool1-R
I0419 03:16:50.522912 23600 net.cpp:380] conv2_1-R -> conv2_1-R
I0419 03:16:50.524636 23600 net.cpp:122] Setting up conv2_1-R
I0419 03:16:50.524664 23600 net.cpp:129] Top shape: 1 128 355 355 (16131200)
I0419 03:16:50.524669 23600 net.cpp:137] Memory required for data: 1880391200
I0419 03:16:50.524684 23600 layer_factory.hpp:77] Creating layer relu2_1-R
I0419 03:16:50.524691 23600 net.cpp:84] Creating Layer relu2_1-R
I0419 03:16:50.524696 23600 net.cpp:406] relu2_1-R <- conv2_1-R
I0419 03:16:50.524703 23600 net.cpp:367] relu2_1-R -> conv2_1-R (in-place)
I0419 03:16:50.524888 23600 net.cpp:122] Setting up relu2_1-R
I0419 03:16:50.524897 23600 net.cpp:129] Top shape: 1 128 355 355 (16131200)
I0419 03:16:50.524900 23600 net.cpp:137] Memory required for data: 1944916000
I0419 03:16:50.524904 23600 layer_factory.hpp:77] Creating layer conv2_2-R
I0419 03:16:50.524912 23600 net.cpp:84] Creating Layer conv2_2-R
I0419 03:16:50.524916 23600 net.cpp:406] conv2_2-R <- conv2_1-R
I0419 03:16:50.524929 23600 net.cpp:380] conv2_2-R -> conv2_2-R
I0419 03:16:50.528717 23600 net.cpp:122] Setting up conv2_2-R
I0419 03:16:50.528748 23600 net.cpp:129] Top shape: 1 128 355 355 (16131200)
I0419 03:16:50.528753 23600 net.cpp:137] Memory required for data: 2009440800
I0419 03:16:50.528760 23600 layer_factory.hpp:77] Creating layer relu2_2-R
I0419 03:16:50.528769 23600 net.cpp:84] Creating Layer relu2_2-R
I0419 03:16:50.528774 23600 net.cpp:406] relu2_2-R <- conv2_2-R
I0419 03:16:50.528781 23600 net.cpp:367] relu2_2-R -> conv2_2-R (in-place)
I0419 03:16:50.529342 23600 net.cpp:122] Setting up relu2_2-R
I0419 03:16:50.529356 23600 net.cpp:129] Top shape: 1 128 355 355 (16131200)
I0419 03:16:50.529374 23600 net.cpp:137] Memory required for data: 2073965600
I0419 03:16:50.529378 23600 layer_factory.hpp:77] Creating layer pool2-R
I0419 03:16:50.529386 23600 net.cpp:84] Creating Layer pool2-R
I0419 03:16:50.529390 23600 net.cpp:406] pool2-R <- conv2_2-R
I0419 03:16:50.529397 23600 net.cpp:380] pool2-R -> pool2-R
I0419 03:16:50.529449 23600 net.cpp:122] Setting up pool2-R
I0419 03:16:50.529455 23600 net.cpp:129] Top shape: 1 128 178 178 (4055552)
I0419 03:16:50.529458 23600 net.cpp:137] Memory required for data: 2090187808
I0419 03:16:50.529470 23600 layer_factory.hpp:77] Creating layer conv3_1-R
I0419 03:16:50.529480 23600 net.cpp:84] Creating Layer conv3_1-R
I0419 03:16:50.529484 23600 net.cpp:406] conv3_1-R <- pool2-R
I0419 03:16:50.529489 23600 net.cpp:380] conv3_1-R -> conv3_1-R
I0419 03:16:50.538815 23600 net.cpp:122] Setting up conv3_1-R
I0419 03:16:50.538877 23600 net.cpp:129] Top shape: 1 256 178 178 (8111104)
I0419 03:16:50.538887 23600 net.cpp:137] Memory required for data: 2122632224
I0419 03:16:50.538930 23600 layer_factory.hpp:77] Creating layer relu3_1-R
I0419 03:16:50.538949 23600 net.cpp:84] Creating Layer relu3_1-R
I0419 03:16:50.538959 23600 net.cpp:406] relu3_1-R <- conv3_1-R
I0419 03:16:50.538974 23600 net.cpp:367] relu3_1-R -> conv3_1-R (in-place)
I0419 03:16:50.539417 23600 net.cpp:122] Setting up relu3_1-R
I0419 03:16:50.539450 23600 net.cpp:129] Top shape: 1 256 178 178 (8111104)
I0419 03:16:50.539464 23600 net.cpp:137] Memory required for data: 2155076640
I0419 03:16:50.539472 23600 layer_factory.hpp:77] Creating layer conv3_2-R
I0419 03:16:50.539510 23600 net.cpp:84] Creating Layer conv3_2-R
I0419 03:16:50.539518 23600 net.cpp:406] conv3_2-R <- conv3_1-R
I0419 03:16:50.539536 23600 net.cpp:380] conv3_2-R -> conv3_2-R
I0419 03:16:50.546872 23600 net.cpp:122] Setting up conv3_2-R
I0419 03:16:50.546906 23600 net.cpp:129] Top shape: 1 256 178 178 (8111104)
I0419 03:16:50.546911 23600 net.cpp:137] Memory required for data: 2187521056
I0419 03:16:50.546921 23600 layer_factory.hpp:77] Creating layer relu3_2-R
I0419 03:16:50.546931 23600 net.cpp:84] Creating Layer relu3_2-R
I0419 03:16:50.546947 23600 net.cpp:406] relu3_2-R <- conv3_2-R
I0419 03:16:50.546954 23600 net.cpp:367] relu3_2-R -> conv3_2-R (in-place)
I0419 03:16:50.547240 23600 net.cpp:122] Setting up relu3_2-R
I0419 03:16:50.547269 23600 net.cpp:129] Top shape: 1 256 178 178 (8111104)
I0419 03:16:50.547276 23600 net.cpp:137] Memory required for data: 2219965472
I0419 03:16:50.547297 23600 layer_factory.hpp:77] Creating layer conv3_3-R
I0419 03:16:50.547317 23600 net.cpp:84] Creating Layer conv3_3-R
I0419 03:16:50.547324 23600 net.cpp:406] conv3_3-R <- conv3_2-R
I0419 03:16:50.547336 23600 net.cpp:380] conv3_3-R -> conv3_3-R
I0419 03:16:50.552677 23600 net.cpp:122] Setting up conv3_3-R
I0419 03:16:50.552711 23600 net.cpp:129] Top shape: 1 256 178 178 (8111104)
I0419 03:16:50.552716 23600 net.cpp:137] Memory required for data: 2252409888
I0419 03:16:50.552726 23600 layer_factory.hpp:77] Creating layer relu3_3-R
I0419 03:16:50.552736 23600 net.cpp:84] Creating Layer relu3_3-R
I0419 03:16:50.552752 23600 net.cpp:406] relu3_3-R <- conv3_3-R
I0419 03:16:50.552760 23600 net.cpp:367] relu3_3-R -> conv3_3-R (in-place)
I0419 03:16:50.553004 23600 net.cpp:122] Setting up relu3_3-R
I0419 03:16:50.553016 23600 net.cpp:129] Top shape: 1 256 178 178 (8111104)
I0419 03:16:50.553021 23600 net.cpp:137] Memory required for data: 2284854304
I0419 03:16:50.553025 23600 layer_factory.hpp:77] Creating layer pool3-R
I0419 03:16:50.553038 23600 net.cpp:84] Creating Layer pool3-R
I0419 03:16:50.553043 23600 net.cpp:406] pool3-R <- conv3_3-R
I0419 03:16:50.553052 23600 net.cpp:380] pool3-R -> pool3-R
I0419 03:16:50.553115 23600 net.cpp:122] Setting up pool3-R
I0419 03:16:50.553125 23600 net.cpp:129] Top shape: 1 256 89 89 (2027776)
I0419 03:16:50.553129 23600 net.cpp:137] Memory required for data: 2292965408
I0419 03:16:50.553133 23600 layer_factory.hpp:77] Creating layer pool3-R_pool3-R_0_split
I0419 03:16:50.553143 23600 net.cpp:84] Creating Layer pool3-R_pool3-R_0_split
I0419 03:16:50.553148 23600 net.cpp:406] pool3-R_pool3-R_0_split <- pool3-R
I0419 03:16:50.553153 23600 net.cpp:380] pool3-R_pool3-R_0_split -> pool3-R_pool3-R_0_split_0
I0419 03:16:50.553161 23600 net.cpp:380] pool3-R_pool3-R_0_split -> pool3-R_pool3-R_0_split_1
I0419 03:16:50.553208 23600 net.cpp:122] Setting up pool3-R_pool3-R_0_split
I0419 03:16:50.553217 23600 net.cpp:129] Top shape: 1 256 89 89 (2027776)
I0419 03:16:50.553222 23600 net.cpp:129] Top shape: 1 256 89 89 (2027776)
I0419 03:16:50.553226 23600 net.cpp:137] Memory required for data: 2309187616
I0419 03:16:50.553233 23600 layer_factory.hpp:77] Creating layer conv4_1-R
I0419 03:16:50.553244 23600 net.cpp:84] Creating Layer conv4_1-R
I0419 03:16:50.553249 23600 net.cpp:406] conv4_1-R <- pool3-R_pool3-R_0_split_0
I0419 03:16:50.553257 23600 net.cpp:380] conv4_1-R -> conv4_1-R
I0419 03:16:50.567018 23600 net.cpp:122] Setting up conv4_1-R
I0419 03:16:50.567050 23600 net.cpp:129] Top shape: 1 512 89 89 (4055552)
I0419 03:16:50.567055 23600 net.cpp:137] Memory required for data: 2325409824
I0419 03:16:50.567065 23600 layer_factory.hpp:77] Creating layer relu4_1-R
I0419 03:16:50.567073 23600 net.cpp:84] Creating Layer relu4_1-R
I0419 03:16:50.567090 23600 net.cpp:406] relu4_1-R <- conv4_1-R
I0419 03:16:50.567097 23600 net.cpp:367] relu4_1-R -> conv4_1-R (in-place)
I0419 03:16:50.567358 23600 net.cpp:122] Setting up relu4_1-R
I0419 03:16:50.567370 23600 net.cpp:129] Top shape: 1 512 89 89 (4055552)
I0419 03:16:50.567375 23600 net.cpp:137] Memory required for data: 2341632032
I0419 03:16:50.567379 23600 layer_factory.hpp:77] Creating layer conv4_2-R
I0419 03:16:50.567390 23600 net.cpp:84] Creating Layer conv4_2-R
I0419 03:16:50.567395 23600 net.cpp:406] conv4_2-R <- conv4_1-R
I0419 03:16:50.567404 23600 net.cpp:380] conv4_2-R -> conv4_2-R
I0419 03:16:50.584939 23600 net.cpp:122] Setting up conv4_2-R
I0419 03:16:50.584985 23600 net.cpp:129] Top shape: 1 512 89 89 (4055552)
I0419 03:16:50.584993 23600 net.cpp:137] Memory required for data: 2357854240
I0419 03:16:50.585007 23600 layer_factory.hpp:77] Creating layer relu4_2-R
I0419 03:16:50.585047 23600 net.cpp:84] Creating Layer relu4_2-R
I0419 03:16:50.585055 23600 net.cpp:406] relu4_2-R <- conv4_2-R
I0419 03:16:50.585074 23600 net.cpp:367] relu4_2-R -> conv4_2-R (in-place)
I0419 03:16:50.585439 23600 net.cpp:122] Setting up relu4_2-R
I0419 03:16:50.585456 23600 net.cpp:129] Top shape: 1 512 89 89 (4055552)
I0419 03:16:50.585474 23600 net.cpp:137] Memory required for data: 2374076448
I0419 03:16:50.585480 23600 layer_factory.hpp:77] Creating layer conv4_3-R
I0419 03:16:50.585510 23600 net.cpp:84] Creating Layer conv4_3-R
I0419 03:16:50.585518 23600 net.cpp:406] conv4_3-R <- conv4_2-R
I0419 03:16:50.585539 23600 net.cpp:380] conv4_3-R -> conv4_3-R
I0419 03:16:50.604054 23600 net.cpp:122] Setting up conv4_3-R
I0419 03:16:50.604120 23600 net.cpp:129] Top shape: 1 512 89 89 (4055552)
I0419 03:16:50.604131 23600 net.cpp:137] Memory required for data: 2390298656
I0419 03:16:50.604151 23600 layer_factory.hpp:77] Creating layer relu4_3-R
I0419 03:16:50.604182 23600 net.cpp:84] Creating Layer relu4_3-R
I0419 03:16:50.604192 23600 net.cpp:406] relu4_3-R <- conv4_3-R
I0419 03:16:50.604207 23600 net.cpp:367] relu4_3-R -> conv4_3-R (in-place)
I0419 03:16:50.605424 23600 net.cpp:122] Setting up relu4_3-R
I0419 03:16:50.605453 23600 net.cpp:129] Top shape: 1 512 89 89 (4055552)
I0419 03:16:50.605468 23600 net.cpp:137] Memory required for data: 2406520864
I0419 03:16:50.605476 23600 layer_factory.hpp:77] Creating layer pool4-R
I0419 03:16:50.605523 23600 net.cpp:84] Creating Layer pool4-R
I0419 03:16:50.605532 23600 net.cpp:406] pool4-R <- conv4_3-R
I0419 03:16:50.605545 23600 net.cpp:380] pool4-R -> pool4-R
I0419 03:16:50.605648 23600 net.cpp:122] Setting up pool4-R
I0419 03:16:50.605662 23600 net.cpp:129] Top shape: 1 512 45 45 (1036800)
I0419 03:16:50.605669 23600 net.cpp:137] Memory required for data: 2410668064
I0419 03:16:50.605676 23600 layer_factory.hpp:77] Creating layer pool4-R_pool4-R_0_split
I0419 03:16:50.605687 23600 net.cpp:84] Creating Layer pool4-R_pool4-R_0_split
I0419 03:16:50.605695 23600 net.cpp:406] pool4-R_pool4-R_0_split <- pool4-R
I0419 03:16:50.605705 23600 net.cpp:380] pool4-R_pool4-R_0_split -> pool4-R_pool4-R_0_split_0
I0419 03:16:50.605718 23600 net.cpp:380] pool4-R_pool4-R_0_split -> pool4-R_pool4-R_0_split_1
I0419 03:16:50.605803 23600 net.cpp:122] Setting up pool4-R_pool4-R_0_split
I0419 03:16:50.605818 23600 net.cpp:129] Top shape: 1 512 45 45 (1036800)
I0419 03:16:50.605825 23600 net.cpp:129] Top shape: 1 512 45 45 (1036800)
I0419 03:16:50.605832 23600 net.cpp:137] Memory required for data: 2418962464
I0419 03:16:50.605849 23600 layer_factory.hpp:77] Creating layer conv5_1-R
I0419 03:16:50.605867 23600 net.cpp:84] Creating Layer conv5_1-R
I0419 03:16:50.605875 23600 net.cpp:406] conv5_1-R <- pool4-R_pool4-R_0_split_0
I0419 03:16:50.605886 23600 net.cpp:380] conv5_1-R -> conv5_1-R
I0419 03:16:50.618983 23600 net.cpp:122] Setting up conv5_1-R
I0419 03:16:50.619033 23600 net.cpp:129] Top shape: 1 512 45 45 (1036800)
I0419 03:16:50.619040 23600 net.cpp:137] Memory required for data: 2423109664
I0419 03:16:50.619074 23600 layer_factory.hpp:77] Creating layer relu5_1-R
I0419 03:16:50.619098 23600 net.cpp:84] Creating Layer relu5_1-R
I0419 03:16:50.619105 23600 net.cpp:406] relu5_1-R <- conv5_1-R
I0419 03:16:50.619115 23600 net.cpp:367] relu5_1-R -> conv5_1-R (in-place)
I0419 03:16:50.619367 23600 net.cpp:122] Setting up relu5_1-R
I0419 03:16:50.619381 23600 net.cpp:129] Top shape: 1 512 45 45 (1036800)
I0419 03:16:50.619385 23600 net.cpp:137] Memory required for data: 2427256864
I0419 03:16:50.619400 23600 layer_factory.hpp:77] Creating layer conv5_2-R
I0419 03:16:50.619431 23600 net.cpp:84] Creating Layer conv5_2-R
I0419 03:16:50.619436 23600 net.cpp:406] conv5_2-R <- conv5_1-R
I0419 03:16:50.619446 23600 net.cpp:380] conv5_2-R -> conv5_2-R
I0419 03:16:50.629367 23600 net.cpp:122] Setting up conv5_2-R
I0419 03:16:50.629402 23600 net.cpp:129] Top shape: 1 512 45 45 (1036800)
I0419 03:16:50.629407 23600 net.cpp:137] Memory required for data: 2431404064
I0419 03:16:50.629418 23600 layer_factory.hpp:77] Creating layer relu5_2-R
I0419 03:16:50.629429 23600 net.cpp:84] Creating Layer relu5_2-R
I0419 03:16:50.629436 23600 net.cpp:406] relu5_2-R <- conv5_2-R
I0419 03:16:50.629443 23600 net.cpp:367] relu5_2-R -> conv5_2-R (in-place)
I0419 03:16:50.629693 23600 net.cpp:122] Setting up relu5_2-R
I0419 03:16:50.629707 23600 net.cpp:129] Top shape: 1 512 45 45 (1036800)
I0419 03:16:50.629712 23600 net.cpp:137] Memory required for data: 2435551264
I0419 03:16:50.629730 23600 layer_factory.hpp:77] Creating layer conv5_3-R
I0419 03:16:50.629755 23600 net.cpp:84] Creating Layer conv5_3-R
I0419 03:16:50.629760 23600 net.cpp:406] conv5_3-R <- conv5_2-R
I0419 03:16:50.629770 23600 net.cpp:380] conv5_3-R -> conv5_3-R
I0419 03:16:50.639111 23600 net.cpp:122] Setting up conv5_3-R
I0419 03:16:50.639169 23600 net.cpp:129] Top shape: 1 512 45 45 (1036800)
I0419 03:16:50.639178 23600 net.cpp:137] Memory required for data: 2439698464
I0419 03:16:50.639197 23600 layer_factory.hpp:77] Creating layer relu5_3-R
I0419 03:16:50.639225 23600 net.cpp:84] Creating Layer relu5_3-R
I0419 03:16:50.639236 23600 net.cpp:406] relu5_3-R <- conv5_3-R
I0419 03:16:50.639250 23600 net.cpp:367] relu5_3-R -> conv5_3-R (in-place)
I0419 03:16:50.639659 23600 net.cpp:122] Setting up relu5_3-R
I0419 03:16:50.639678 23600 net.cpp:129] Top shape: 1 512 45 45 (1036800)
I0419 03:16:50.639693 23600 net.cpp:137] Memory required for data: 2443845664
I0419 03:16:50.639701 23600 layer_factory.hpp:77] Creating layer pool5-R
I0419 03:16:50.639730 23600 net.cpp:84] Creating Layer pool5-R
I0419 03:16:50.639739 23600 net.cpp:406] pool5-R <- conv5_3-R
I0419 03:16:50.639758 23600 net.cpp:380] pool5-R -> pool5-R
I0419 03:16:50.639858 23600 net.cpp:122] Setting up pool5-R
I0419 03:16:50.639873 23600 net.cpp:129] Top shape: 1 512 23 23 (270848)
I0419 03:16:50.639879 23600 net.cpp:137] Memory required for data: 2444929056
I0419 03:16:50.639886 23600 layer_factory.hpp:77] Creating layer fc6-R
I0419 03:16:50.639909 23600 net.cpp:84] Creating Layer fc6-R
I0419 03:16:50.639930 23600 net.cpp:406] fc6-R <- pool5-R
I0419 03:16:50.639943 23600 net.cpp:380] fc6-R -> fc6-R
I0419 03:16:50.983971 23600 net.cpp:122] Setting up fc6-R
I0419 03:16:50.984014 23600 net.cpp:129] Top shape: 1 4096 17 17 (1183744)
I0419 03:16:50.984020 23600 net.cpp:137] Memory required for data: 2449664032
I0419 03:16:50.984033 23600 layer_factory.hpp:77] Creating layer relu6-R
I0419 03:16:50.984051 23600 net.cpp:84] Creating Layer relu6-R
I0419 03:16:50.984057 23600 net.cpp:406] relu6-R <- fc6-R
I0419 03:16:50.984066 23600 net.cpp:367] relu6-R -> fc6-R (in-place)
I0419 03:16:50.984306 23600 net.cpp:122] Setting up relu6-R
I0419 03:16:50.984319 23600 net.cpp:129] Top shape: 1 4096 17 17 (1183744)
I0419 03:16:50.984323 23600 net.cpp:137] Memory required for data: 2454399008
I0419 03:16:50.984328 23600 layer_factory.hpp:77] Creating layer drop6-R
I0419 03:16:50.984364 23600 net.cpp:84] Creating Layer drop6-R
I0419 03:16:50.984370 23600 net.cpp:406] drop6-R <- fc6-R
I0419 03:16:50.984380 23600 net.cpp:367] drop6-R -> fc6-R (in-place)
I0419 03:16:50.984419 23600 net.cpp:122] Setting up drop6-R
I0419 03:16:50.984428 23600 net.cpp:129] Top shape: 1 4096 17 17 (1183744)
I0419 03:16:50.984432 23600 net.cpp:137] Memory required for data: 2459133984
I0419 03:16:50.984436 23600 layer_factory.hpp:77] Creating layer fc7-R
I0419 03:16:50.984450 23600 net.cpp:84] Creating Layer fc7-R
I0419 03:16:50.984458 23600 net.cpp:406] fc7-R <- fc6-R
I0419 03:16:50.984467 23600 net.cpp:380] fc7-R -> fc7-R
I0419 03:16:51.046710 23600 net.cpp:122] Setting up fc7-R
I0419 03:16:51.046759 23600 net.cpp:129] Top shape: 1 4096 17 17 (1183744)
I0419 03:16:51.046766 23600 net.cpp:137] Memory required for data: 2463868960
I0419 03:16:51.046779 23600 layer_factory.hpp:77] Creating layer relu7-R
I0419 03:16:51.046816 23600 net.cpp:84] Creating Layer relu7-R
I0419 03:16:51.046824 23600 net.cpp:406] relu7-R <- fc7-R
I0419 03:16:51.046834 23600 net.cpp:367] relu7-R -> fc7-R (in-place)
I0419 03:16:51.047091 23600 net.cpp:122] Setting up relu7-R
I0419 03:16:51.047103 23600 net.cpp:129] Top shape: 1 4096 17 17 (1183744)
I0419 03:16:51.047107 23600 net.cpp:137] Memory required for data: 2468603936
I0419 03:16:51.047111 23600 layer_factory.hpp:77] Creating layer drop7-R
I0419 03:16:51.047123 23600 net.cpp:84] Creating Layer drop7-R
I0419 03:16:51.047127 23600 net.cpp:406] drop7-R <- fc7-R
I0419 03:16:51.047134 23600 net.cpp:367] drop7-R -> fc7-R (in-place)
I0419 03:16:51.047183 23600 net.cpp:122] Setting up drop7-R
I0419 03:16:51.047202 23600 net.cpp:129] Top shape: 1 4096 17 17 (1183744)
I0419 03:16:51.047206 23600 net.cpp:137] Memory required for data: 2473338912
I0419 03:16:51.047211 23600 layer_factory.hpp:77] Creating layer score_fr-new-R
I0419 03:16:51.047224 23600 net.cpp:84] Creating Layer score_fr-new-R
I0419 03:16:51.047228 23600 net.cpp:406] score_fr-new-R <- fc7-R
I0419 03:16:51.047237 23600 net.cpp:380] score_fr-new-R -> score_fr-new-R
I0419 03:16:51.048841 23600 net.cpp:122] Setting up score_fr-new-R
I0419 03:16:51.048858 23600 net.cpp:129] Top shape: 1 3 17 17 (867)
I0419 03:16:51.048863 23600 net.cpp:137] Memory required for data: 2473342380
I0419 03:16:51.048871 23600 layer_factory.hpp:77] Creating layer upscore2-new-R
I0419 03:16:51.048882 23600 net.cpp:84] Creating Layer upscore2-new-R
I0419 03:16:51.048887 23600 net.cpp:406] upscore2-new-R <- score_fr-new-R
I0419 03:16:51.048897 23600 net.cpp:380] upscore2-new-R -> upscore2-new-R
I0419 03:16:51.049187 23600 net.cpp:122] Setting up upscore2-new-R
I0419 03:16:51.049197 23600 net.cpp:129] Top shape: 1 3 36 36 (3888)
I0419 03:16:51.049201 23600 net.cpp:137] Memory required for data: 2473357932
I0419 03:16:51.049207 23600 layer_factory.hpp:77] Creating layer upscore2-new-R_upscore2-new-R_0_split
I0419 03:16:51.049217 23600 net.cpp:84] Creating Layer upscore2-new-R_upscore2-new-R_0_split
I0419 03:16:51.049221 23600 net.cpp:406] upscore2-new-R_upscore2-new-R_0_split <- upscore2-new-R
I0419 03:16:51.049228 23600 net.cpp:380] upscore2-new-R_upscore2-new-R_0_split -> upscore2-new-R_upscore2-new-R_0_split_0
I0419 03:16:51.049237 23600 net.cpp:380] upscore2-new-R_upscore2-new-R_0_split -> upscore2-new-R_upscore2-new-R_0_split_1
I0419 03:16:51.049288 23600 net.cpp:122] Setting up upscore2-new-R_upscore2-new-R_0_split
I0419 03:16:51.049296 23600 net.cpp:129] Top shape: 1 3 36 36 (3888)
I0419 03:16:51.049301 23600 net.cpp:129] Top shape: 1 3 36 36 (3888)
I0419 03:16:51.049305 23600 net.cpp:137] Memory required for data: 2473389036
I0419 03:16:51.049310 23600 layer_factory.hpp:77] Creating layer score_pool4-new-R
I0419 03:16:51.049324 23600 net.cpp:84] Creating Layer score_pool4-new-R
I0419 03:16:51.049330 23600 net.cpp:406] score_pool4-new-R <- pool4-R_pool4-R_0_split_1
I0419 03:16:51.049340 23600 net.cpp:380] score_pool4-new-R -> score_pool4-new-R
I0419 03:16:51.050967 23600 net.cpp:122] Setting up score_pool4-new-R
I0419 03:16:51.050985 23600 net.cpp:129] Top shape: 1 3 45 45 (6075)
I0419 03:16:51.050990 23600 net.cpp:137] Memory required for data: 2473413336
I0419 03:16:51.050998 23600 layer_factory.hpp:77] Creating layer score_pool4c-R
I0419 03:16:51.051009 23600 net.cpp:84] Creating Layer score_pool4c-R
I0419 03:16:51.051014 23600 net.cpp:406] score_pool4c-R <- score_pool4-new-R
I0419 03:16:51.051021 23600 net.cpp:406] score_pool4c-R <- upscore2-new-R_upscore2-new-R_0_split_0
I0419 03:16:51.051029 23600 net.cpp:380] score_pool4c-R -> score_pool4c-R
I0419 03:16:51.051077 23600 net.cpp:122] Setting up score_pool4c-R
I0419 03:16:51.051095 23600 net.cpp:129] Top shape: 1 3 36 36 (3888)
I0419 03:16:51.051098 23600 net.cpp:137] Memory required for data: 2473428888
I0419 03:16:51.051103 23600 layer_factory.hpp:77] Creating layer fuse_pool4-R
I0419 03:16:51.051113 23600 net.cpp:84] Creating Layer fuse_pool4-R
I0419 03:16:51.051117 23600 net.cpp:406] fuse_pool4-R <- upscore2-new-R_upscore2-new-R_0_split_1
I0419 03:16:51.051123 23600 net.cpp:406] fuse_pool4-R <- score_pool4c-R
I0419 03:16:51.051132 23600 net.cpp:380] fuse_pool4-R -> fuse_pool4-R
I0419 03:16:51.051164 23600 net.cpp:122] Setting up fuse_pool4-R
I0419 03:16:51.051172 23600 net.cpp:129] Top shape: 1 3 36 36 (3888)
I0419 03:16:51.051175 23600 net.cpp:137] Memory required for data: 2473444440
I0419 03:16:51.051179 23600 layer_factory.hpp:77] Creating layer upscore_pool4-new-R
I0419 03:16:51.051189 23600 net.cpp:84] Creating Layer upscore_pool4-new-R
I0419 03:16:51.051194 23600 net.cpp:406] upscore_pool4-new-R <- fuse_pool4-R
I0419 03:16:51.051203 23600 net.cpp:380] upscore_pool4-new-R -> upscore_pool4-new-R
I0419 03:16:51.051470 23600 net.cpp:122] Setting up upscore_pool4-new-R
I0419 03:16:51.051481 23600 net.cpp:129] Top shape: 1 3 74 74 (16428)
I0419 03:16:51.051484 23600 net.cpp:137] Memory required for data: 2473510152
I0419 03:16:51.051493 23600 layer_factory.hpp:77] Creating layer upscore_pool4-new-R_upscore_pool4-new-R_0_split
I0419 03:16:51.051501 23600 net.cpp:84] Creating Layer upscore_pool4-new-R_upscore_pool4-new-R_0_split
I0419 03:16:51.051506 23600 net.cpp:406] upscore_pool4-new-R_upscore_pool4-new-R_0_split <- upscore_pool4-new-R
I0419 03:16:51.051512 23600 net.cpp:380] upscore_pool4-new-R_upscore_pool4-new-R_0_split -> upscore_pool4-new-R_upscore_pool4-new-R_0_split_0
I0419 03:16:51.051520 23600 net.cpp:380] upscore_pool4-new-R_upscore_pool4-new-R_0_split -> upscore_pool4-new-R_upscore_pool4-new-R_0_split_1
I0419 03:16:51.051569 23600 net.cpp:122] Setting up upscore_pool4-new-R_upscore_pool4-new-R_0_split
I0419 03:16:51.051580 23600 net.cpp:129] Top shape: 1 3 74 74 (16428)
I0419 03:16:51.051585 23600 net.cpp:129] Top shape: 1 3 74 74 (16428)
I0419 03:16:51.051589 23600 net.cpp:137] Memory required for data: 2473641576
I0419 03:16:51.051594 23600 layer_factory.hpp:77] Creating layer score_pool3-new-R
I0419 03:16:51.051604 23600 net.cpp:84] Creating Layer score_pool3-new-R
I0419 03:16:51.051610 23600 net.cpp:406] score_pool3-new-R <- pool3-R_pool3-R_0_split_1
I0419 03:16:51.051618 23600 net.cpp:380] score_pool3-new-R -> score_pool3-new-R
I0419 03:16:51.053197 23600 net.cpp:122] Setting up score_pool3-new-R
I0419 03:16:51.053215 23600 net.cpp:129] Top shape: 1 3 89 89 (23763)
I0419 03:16:51.053218 23600 net.cpp:137] Memory required for data: 2473736628
I0419 03:16:51.053228 23600 layer_factory.hpp:77] Creating layer score_pool3c-R
I0419 03:16:51.053237 23600 net.cpp:84] Creating Layer score_pool3c-R
I0419 03:16:51.053243 23600 net.cpp:406] score_pool3c-R <- score_pool3-new-R
I0419 03:16:51.053252 23600 net.cpp:406] score_pool3c-R <- upscore_pool4-new-R_upscore_pool4-new-R_0_split_0
I0419 03:16:51.053259 23600 net.cpp:380] score_pool3c-R -> score_pool3c-R
I0419 03:16:51.053303 23600 net.cpp:122] Setting up score_pool3c-R
I0419 03:16:51.053310 23600 net.cpp:129] Top shape: 1 3 74 74 (16428)
I0419 03:16:51.053314 23600 net.cpp:137] Memory required for data: 2473802340
I0419 03:16:51.053319 23600 layer_factory.hpp:77] Creating layer fuse_pool3-R
I0419 03:16:51.053329 23600 net.cpp:84] Creating Layer fuse_pool3-R
I0419 03:16:51.053334 23600 net.cpp:406] fuse_pool3-R <- upscore_pool4-new-R_upscore_pool4-new-R_0_split_1
I0419 03:16:51.053340 23600 net.cpp:406] fuse_pool3-R <- score_pool3c-R
I0419 03:16:51.053349 23600 net.cpp:380] fuse_pool3-R -> fuse_pool3-R
I0419 03:16:51.053381 23600 net.cpp:122] Setting up fuse_pool3-R
I0419 03:16:51.053390 23600 net.cpp:129] Top shape: 1 3 74 74 (16428)
I0419 03:16:51.053395 23600 net.cpp:137] Memory required for data: 2473868052
I0419 03:16:51.053400 23600 layer_factory.hpp:77] Creating layer upscore8-new-R
I0419 03:16:51.053409 23600 net.cpp:84] Creating Layer upscore8-new-R
I0419 03:16:51.053413 23600 net.cpp:406] upscore8-new-R <- fuse_pool3-R
I0419 03:16:51.053421 23600 net.cpp:380] upscore8-new-R -> upscore8-new-R
I0419 03:16:51.053723 23600 net.cpp:122] Setting up upscore8-new-R
I0419 03:16:51.053732 23600 net.cpp:129] Top shape: 1 3 600 600 (1080000)
I0419 03:16:51.053736 23600 net.cpp:137] Memory required for data: 2478188052
I0419 03:16:51.053742 23600 layer_factory.hpp:77] Creating layer upscore8_cropped-R
I0419 03:16:51.053750 23600 net.cpp:84] Creating Layer upscore8_cropped-R
I0419 03:16:51.053755 23600 net.cpp:406] upscore8_cropped-R <- upscore8-new-R
I0419 03:16:51.053762 23600 net.cpp:406] upscore8_cropped-R <- data-R_crop_0_split_1
I0419 03:16:51.053769 23600 net.cpp:380] upscore8_cropped-R -> upscore8_cropped-R
I0419 03:16:51.053800 23600 net.cpp:122] Setting up upscore8_cropped-R
I0419 03:16:51.053807 23600 net.cpp:129] Top shape: 1 3 512 512 (786432)
I0419 03:16:51.053812 23600 net.cpp:137] Memory required for data: 2481333780
I0419 03:16:51.053815 23600 layer_factory.hpp:77] Creating layer score-R
I0419 03:16:51.053828 23600 net.cpp:84] Creating Layer score-R
I0419 03:16:51.053833 23600 net.cpp:406] score-R <- upscore8_cropped-R
I0419 03:16:51.053843 23600 net.cpp:380] score-R -> score-R
I0419 03:16:51.063266 23600 net.cpp:122] Setting up score-R
I0419 03:16:51.063309 23600 net.cpp:129] Top shape: 1 3 512 512 (786432)
I0419 03:16:51.063318 23600 net.cpp:137] Memory required for data: 2484479508
I0419 03:16:51.063340 23600 layer_factory.hpp:77] Creating layer score_uncropped-R
I0419 03:16:51.063794 23600 net.cpp:84] Creating Layer score_uncropped-R
I0419 03:16:51.063818 23600 net.cpp:406] score_uncropped-R <- crop_info
I0419 03:16:51.063830 23600 net.cpp:406] score_uncropped-R <- score-R
I0419 03:16:51.063839 23600 net.cpp:406] score_uncropped-R <- data_data_0_split_3
I0419 03:16:51.063851 23600 net.cpp:380] score_uncropped-R -> score_uncropped-R
I0419 03:16:51.068634 23600 net.cpp:122] Setting up score_uncropped-R
I0419 03:16:51.068697 23600 net.cpp:129] Top shape: 1 3 512 512 (786432)
I0419 03:16:51.068706 23600 net.cpp:137] Memory required for data: 2487625236
I0419 03:16:51.068717 23600 layer_factory.hpp:77] Creating layer loss1
I0419 03:16:51.068758 23600 net.cpp:84] Creating Layer loss1
I0419 03:16:51.068769 23600 net.cpp:406] loss1 <- score_score_0_split_1
I0419 03:16:51.068783 23600 net.cpp:406] loss1 <- label_data_1_split_1
I0419 03:16:51.068804 23600 net.cpp:380] loss1 -> loss1
…
snapshot_prefix: "/media/Med_2T2/data2/models/snapshots/indiv:1e-5x10,20/FD3:ZI3_1_20180418_201524/train"
test_initialization: false
average_loss: 20
stepvalue: 40000
iter_size: 1
I0419 05:16:46.953275 23600 solver.cpp:77] Creating training net from train_net file: /media/Med_2T2/data2/prototxts/training_I3x10.prototxt
I0419 05:16:46.955826 23600 net.cpp:51] Initializing net from parameters: 
state {
  phase: TRAIN
}
layer {
  name: "data"
  type: "Python"
  top: "data"
  top: "label"
  top: "crop_margin"
  top: "crop_prob"
  top: "crop_sample_batch"
  python_param {
    module: "Data"
    layer: "DataLayer"
  }
}
layer {
  name: "conv1_1"
  type: "Convolution"
  bottom: "data"
  top: "conv1_1"
  param {
    lr_mult: 1
    decay_mult: 1
  }
  param {
    lr_mult: 2
    decay_mult: 0
  }
  convolution_param {
    num_output: 64
    pad: 100
    kernel_size: 3
    stride: 1
  }
}
layer {
  name: "relu1_1"
  type: "ReLU"
  bottom: "conv1_1"
  top: "conv1_1"
}
layer {
  name: "conv1_2"
  type: "Convolution"
  bottom: "conv1_1"
  top: "conv1_2"
  param {
    lr_mult: 1
    decay_mult: 1
  }
  param {
    lr_mult: 2
    decay_mult: 0
  }
  convolution_param {
    num_output: 64
    pad: 1
    kernel_size: 3
    stride: 1
  }
}
layer {
  name: "relu1_2"
  type: "ReLU"
  bottom: "conv1_2"
  top: "conv1_2"
}
layer {
  name: "pool1"
  type: "Pooling"
  bottom: "conv1_2"
  top: "pool1"
  pooling_param {
    pool: MAX
    kernel_size: 2
    stride: 2
  }
}
layer {
  name: "conv2_1"
  type: "Convolution"
  bottom: "pool1"
  top: "conv2_1"
  param {
    lr_mult: 1
    decay_mult: 1
  }
  param {
    lr_mult: 2
    decay_mult: 0
  }
  convolution_param {
    num_output: 128
    pad: 1
    kernel_size: 3
    stride: 1
  }
}
layer {
  name: "relu2_1"
  type: "ReLU"
  bottom: "conv2_1"
  top: "conv2_1"
}
layer {
  name: "conv2_2"
  type: "Convolution"
  bottom: "conv2_1"
  top: "conv2_2"
  param {
    lr_mult: 1
    decay_mult: 1
  }
  param {
    lr_mult: 2
    decay_mult: 0
  }
  convolution_param {
    num_output: 128
    pad: 1
    kernel_size: 3
    stride: 1
  }
}
layer {
  name: "relu2_2"
  type: "ReLU"
  bottom: "conv2_2"
  top: "conv2_2"
}
layer {
  name: "pool2"
  type: "Pooling"
  bottom: "conv2_2"
  top: "pool2"
  pooling_param {
    pool: MAX
    kernel_size: 2
    stride: 2
  }
}
layer {
  name: "conv3_1"
  type: "Convolution"
  bottom: "pool2"
  top: "conv3_1"
  param {
    lr_mult: 1
    decay_mult: 1
  }
  param {
    lr_mult: 2
    decay_mult: 0
  }
  convolution_param {
    num_output: 256
    pad: 1
    kernel_size: 3
    stride: 1
  }
}
layer {
  name: "relu3_1"
  type: "ReLU"
  bottom: "conv3_1"
  top: "conv3_1"
}
layer {
  name: "conv3_2"
  type: "Convolution"
  bottom: "conv3_1"
  top: "conv3_2"
  param {
    lr_mult: 1
    decay_mult: 1
  }
  param {
    lr_mult: 2
    decay_mult: 0
  }
  convolution_param {
    num_output: 256
    pad: 1
    kernel_size: 3
    stride: 1
  }
}
layer {
  name: "relu3_2"
  type: "ReLU"
  bottom: "conv3_2"
  top: "conv3_2"
}
layer {
  name: "conv3_3"
  type: "Convolution"
  bottom: "conv3_2"
  top: "conv3_3"
  param {
    lr_mult: 1
    decay_mult: 1
  }
  param {
    lr_mult: 2
    decay_mult: 0
  }
  convolution_param {
    num_output: 256
    pad: 1
    kernel_size: 3
    stride: 1
  }
}
layer {
  name: "relu3_3"
  type: "ReLU"
  bottom: "conv3_3"
  top: "conv3_3"
}
layer {
  name: "pool3"
  type: "Pooling"
  bottom: "conv3_3"
  top: "pool3"
  pooling_param {
    pool: MAX
    kernel_size: 2
    stride: 2
  }
}
layer {
  name: "conv4_1"
  type: "Convolution"
  bottom: "pool3"
  top: "conv4_1"
  param {
    lr_mult: 1
    decay_mult: 1
  }
  param {
    lr_mult: 2
    decay_mult: 0
  }
  convolution_param {
    num_output: 512
    pad: 1
    kernel_size: 3
    stride: 1
  }
}
layer {
  name: "relu4_1"
  type: "ReLU"
  bottom: "conv4_1"
  top: "conv4_1"
}
layer {
  name: "conv4_2"
  type: "Convolution"
  bottom: "conv4_1"
  top: "conv4_2"
  param {
    lr_mult: 1
    decay_mult: 1
  }
  param {
    lr_mult: 2
    decay_mult: 0
  }
  convolution_param {
    num_output: 512
    pad: 1
    kernel_size: 3
    stride: 1
  }
}
layer {
  name: "relu4_2"
  type: "ReLU"
  bottom: "conv4_2"
  top: "conv4_2"
}
layer {
  name: "conv4_3"
  type: "Convolution"
  bottom: "conv4_2"
  top: "conv4_3"
  param {
    lr_mult: 1
    decay_mult: 1
  }
  param {
    lr_mult: 2
    decay_mult: 0
  }
  convolution_param {
    num_output: 512
    pad: 1
    kernel_size: 3
    stride: 1
  }
}
layer {
  name: "relu4_3"
  type: "ReLU"
  bottom: "conv4_3"
  top: "conv4_3"
}
layer {
  name: "pool4"
  type: "Pooling"
  bottom: "conv4_3"
  top: "pool4"
  pooling_param {
    pool: MAX
    kernel_size: 2
    stride: 2
  }
}
layer {
  name: "conv5_1"
  type: "Convolution"
  bottom: "pool4"
  top: "conv5_1"
  param {
    lr_mult: 1
    decay_mult: 1
  }
  param {
    lr_mult: 2
    decay_mult: 0
  }
  convolution_param {
    num_output: 512
    pad: 1
    kernel_size: 3
    stride: 1
  }
}
layer {
  name: "relu5_1"
  type: "ReLU"
  bottom: "conv5_1"
  top: "conv5_1"
}
layer {
  name: "conv5_2"
  type: "Convolution"
  bottom: "conv5_1"
  top: "conv5_2"
  param {
    lr_mult: 1
    decay_mult: 1
  }
  param {
    lr_mult: 2
    decay_mult: 0
  }
  convolution_param {
    num_output: 512
    pad: 1
    kernel_size: 3
    stride: 1
  }
}
layer {
  name: "relu5_2"
  type: "ReLU"
  bottom: "conv5_2"
  top: "conv5_2"
}
layer {
  name: "conv5_3"
  type: "Convolution"
  bottom: "conv5_2"
  top: "conv5_3"
  param {
    lr_mult: 1
    decay_mult: 1
  }
  param {
    lr_mult: 2
    decay_mult: 0
  }
  convolution_param {
    num_output: 512
    pad: 1
    kernel_size: 3
    stride: 1
  }
}
layer {
  name: "relu5_3"
  type: "ReLU"
  bottom: "conv5_3"
  top: "conv5_3"
}
layer {
  name: "pool5"
  type: "Pooling"
  bottom: "conv5_3"
  top: "pool5"
  pooling_param {
    pool: MAX
    kernel_size: 2
    stride: 2
  }
}
layer {
  name: "fc6"
  type: "Convolution"
  bottom: "pool5"
  top: "fc6"
  param {
    lr_mult: 1
    decay_mult: 1
  }
  param {
    lr_mult: 2
    decay_mult: 0
  }
  convolution_param {
    num_output: 4096
    pad: 0
    kernel_size: 7
    stride: 1
  }
}
layer {
  name: "relu6"
  type: "ReLU"
  bottom: "fc6"
  top: "fc6"
}
layer {
  name: "drop6"
  type: "Dropout"
  bottom: "fc6"
  top: "fc6"
  dropout_param {
    dropout_ratio: 0.5
  }
}
layer {
  name: "fc7"
  type: "Convolution"
  bottom: "fc6"
  top: "fc7"
  param {
    lr_mult: 1
    decay_mult: 1
  }
  param {
    lr_mult: 2
    decay_mult: 0
  }
  convolution_param {
    num_output: 4096
    pad: 0
    kernel_size: 1
    stride: 1
  }
}
layer {
  name: "relu7"
  type: "ReLU"
  bottom: "fc7"
  top: "fc7"
}
layer {
  name: "drop7"
  type: "Dropout"
  bottom: "fc7"
  top: "fc7"
  dropout_param {
    dropout_ratio: 0.5
  }
}
layer {
  name: "score_fr-new"
  type: "Convolution"
  bottom: "fc7"
  top: "score_fr-new"
  param {
    lr_mult: 1
    decay_mult: 1
  }
  param {
    lr_mult: 2
    decay_mult: 0
  }
  convolution_param {
    num_output: 3
    kernel_size: 1
  }
}
layer {
  name: "upscore2-new"
  type: "Deconvolution"
  bottom: "score_fr-new"
  top: "upscore2-new"
  param {
    lr_mult: 0
  }
  convolution_param {
    num_output: 3
    bias_term: false
    kernel_size: 4
    stride: 2
  }
}
layer {
  name: "score_pool4-new"
  type: "Convolution"
  bottom: "pool4"
  top: "score_pool4-new"
  param {
    lr_mult: 1
    decay_mult: 1
  }
  param {
    lr_mult: 2
    decay_mult: 0
  }
  convolution_param {
    num_output: 3
    pad: 0
    kernel_size: 1
  }
}
layer {
  name: "score_pool4c"
  type: "Crop"
  bottom: "score_pool4-new"
  bottom: "upscore2-new"
  top: "score_pool4c"
  crop_param {
    axis: 2
    offset: 5
  }
}
layer {
  name: "fuse_pool4"
  type: "Eltwise"
  bottom: "upscore2-new"
  bottom: "score_pool4c"
  top: "fuse_pool4"
  eltwise_param {
    operation: SUM
  }
}
layer {
  name: "upscore_pool4-new"
  type: "Deconvolution"
  bottom: "fuse_pool4"
  top: "upscore_pool4-new"
  param {
    lr_mult: 0
  }
  convolution_param {
    num_output: 3
    bias_term: false
    kernel_size: 4
    stride: 2
  }
}
layer {
  name: "score_pool3-new"
  type: "Convolution"
  bottom: "pool3"
  top: "score_pool3-new"
  param {
    lr_mult: 1
    decay_mult: 1
  }
  param {
    lr_mult: 2
    decay_mult: 0
  }
  convolution_param {
    num_output: 3
    pad: 0
    kernel_size: 1
  }
}
layer {
  name: "score_pool3c"
  type: "Crop"
  bottom: "score_pool3-new"
  bottom: "upscore_pool4-new"
  top: "score_pool3c"
  crop_param {
    axis: 2
    offset: 9
  }
}
layer {
  name: "fuse_pool3"
  type: "Eltwise"
  bottom: "upscore_pool4-new"
  bottom: "score_pool3c"
  top: "fuse_pool3"
  eltwise_param {
    operation: SUM
  }
}
layer {
  name: "upscore8-new"
  type: "Deconvolution"
  bottom: "fuse_pool3"
  top: "upscore8-new"
  param {
    lr_mult: 0
  }
  convolution_param {
    num_output: 3
    bias_term: false
    kernel_size: 16
    stride: 8
  }
}
layer {
  name: "upscore8_cropped"
  type: "Crop"
  bottom: "upscore8-new"
  bottom: "data"
  top: "upscore8_cropped"
  crop_param {
    axis: 2
    offset: 31
  }
}
layer {
  name: "score"
  type: "Convolution"
  bottom: "upscore8_cropped"
  top: "score"
  param {
    lr_mult: 1
    decay_mult: 1
  }
  param {
    lr_mult: 2
    decay_mult: 0
  }
  convolution_param {
    num_output: 3
    pad: 1
    kernel_size: 3
    stride: 1
    weight_filler {
      type: "xavier"
    }
    bias_filler {
      type: "constant"
      value: 0
    }
  }
}
layer {
  name: "prob"
  type: "Sigmoid"
  bottom: "score"
  top: "prob"
}
layer {
  name: "saliency"
  type: "Convolution"
  bottom: "prob"
  top: "saliency"
  param {
    lr_mult: 10
    decay_mult: 1
  }
  param {
    lr_mult: 20
    decay_mult: 0
  }
  convolution_param {
    num_output: 3
    pad: 2
    kernel_size: 5
    stride: 1
    weight_filler {
      type: "xavier"
    }
    bias_filler {
      type: "constant"
      value: 1
    }
  }
}
layer {
  name: "saliency_data"
  type: "Eltwise"
  bottom: "data"
  bottom: "saliency"
  top: "saliency_data"
  eltwise_param {
    operation: PROD
  }
}
layer {
  name: "crop"
  type: "Python"
  bottom: "label"
  bottom: "saliency_data"
  bottom: "crop_margin"
  bottom: "crop_prob"
  bottom: "crop_sample_batch"
  top: "data-R"
  top: "crop_info"
  python_param {
    module: "Crop"
    layer: "CropLayer"
    param_str: "{\"TEST\": 0}"
  }
}
layer {
  name: "conv1_1-R"
  type: "Convolution"
  bottom: "data-R"
  top: "conv1_1-R"
  param {
    lr_mult: 10
    decay_mult: 1
  }
  param {
    lr_mult: 20
    decay_mult: 0
  }
  convolution_param {
    num_output: 64
    pad: 100
    kernel_size: 3
    stride: 1
  }
}
layer {
  name: "relu1_1-R"
  type: "ReLU"
  bottom: "conv1_1-R"
  top: "conv1_1-R"
}
layer {
  name: "conv1_2-R"
  type: "Convolution"
  bottom: "conv1_1-R"
  top: "conv1_2-R"
  param {
    lr_mult: 10
    decay_mult: 1
  }
  param {
    lr_mult: 20
    decay_mult: 0
  }
  convolution_param {
    num_output: 64
    pad: 1
    kernel_size: 3
    stride: 1
  }
}
layer {
  name: "relu1_2-R"
  type: "ReLU"
  bottom: "conv1_2-R"
  top: "conv1_2-R"
}
layer {
  name: "pool1-R"
  type: "Pooling"
  bottom: "conv1_2-R"
  top: "pool1-R"
  pooling_param {
    pool: MAX
    kernel_size: 2
    stride: 2
  }
}
layer {
  name: "conv2_1-R"
  type: "Convolution"
  bottom: "pool1-R"
  top: "conv2_1-R"
  param {
    lr_mult: 10
    decay_mult: 1
  }
  param {
    lr_mult: 20
    decay_mult: 0
  }
  convolution_param {
    num_output: 128
    pad: 1
    kernel_size: 3
    stride: 1
  }
}
layer {
  name: "relu2_1-R"
  type: "ReLU"
  bottom: "conv2_1-R"
  top: "conv2_1-R"
}
layer {
  name: "conv2_2-R"
  type: "Convolution"
  bottom: "conv2_1-R"
  top: "conv2_2-R"
  param {
    lr_mult: 10
    decay_mult: 1
  }
  param {
    lr_mult: 20
    decay_mult: 0
  }
  convolution_param {
    num_output: 128
    pad: 1
    kernel_size: 3
    stride: 1
  }
}
layer {
  name: "relu2_2-R"
  type: "ReLU"
  bottom: "conv2_2-R"
  top: "conv2_2-R"
}
layer {
  name: "pool2-R"
  type: "Pooling"
  bottom: "conv2_2-R"
  top: "pool2-R"
  pooling_param {
    pool: MAX
    kernel_size: 2
    stride: 2
  }
}
layer {
  name: "conv3_1-R"
  type: "Convolution"
  bottom: "pool2-R"
  top: "conv3_1-R"
  param {
    lr_mult: 10
    decay_mult: 1
  }
  param {
    lr_mult: 20
    decay_mult: 0
  }
  convolution_param {
    num_output: 256
    pad: 1
    kernel_size: 3
    stride: 1
  }
}
layer {
  name: "relu3_1-R"
  type: "ReLU"
  bottom: "conv3_1-R"
  top: "conv3_1-R"
}
layer {
  name: "conv3_2-R"
  type: "Convolution"
  bottom: "conv3_1-R"
  top: "conv3_2-R"
  param {
    lr_mult: 10
    decay_mult: 1
  }
  param {
    lr_mult: 20
    decay_mult: 0
  }
  convolution_param {
    num_output: 256
    pad: 1
    kernel_size: 3
    stride: 1
  }
}
layer {
  name: "relu3_2-R"
  type: "ReLU"
  bottom: "conv3_2-R"
  top: "conv3_2-R"
}
layer {
  name: "conv3_3-R"
  type: "Convolution"
  bottom: "conv3_2-R"
  top: "conv3_3-R"
  param {
    lr_mult: 10
    decay_mult: 1
  }
  param {
    lr_mult: 20
    decay_mult: 0
  }
  convolution_param {
    num_output: 256
    pad: 1
    kernel_size: 3
    stride: 1
  }
}
layer {
  name: "relu3_3-R"
  type: "ReLU"
  bottom: "conv3_3-R"
  top: "conv3_3-R"
}
layer {
  name: "pool3-R"
  type: "Pooling"
  bottom: "conv3_3-R"
  top: "pool3-R"
  pooling_param {
    pool: MAX
    kernel_size: 2
    stride: 2
  }
}
layer {
  name: "conv4_1-R"
  type: "Convolution"
  bottom: "pool3-R"
  top: "conv4_1-R"
  param {
    lr_mult: 10
    decay_mult: 1
  }
  param {
    lr_mult: 20
    decay_mult: 0
  }
  convolution_param {
    num_output: 512
    pad: 1
    kernel_size: 3
    stride: 1
  }
}
layer {
  name: "relu4_1-R"
  type: "ReLU"
  bottom: "conv4_1-R"
  top: "conv4_1-R"
}
layer {
  name: "conv4_2-R"
  type: "Convolution"
  bottom: "conv4_1-R"
  top: "conv4_2-R"
  param {
    lr_mult: 10
    decay_mult: 1
  }
  param {
    lr_mult: 20
    decay_mult: 0
  }
  convolution_param {
    num_output: 512
    pad: 1
    kernel_size: 3
    stride: 1
  }
}
layer {
  name: "relu4_2-R"
  type: "ReLU"
  bottom: "conv4_2-R"
  top: "conv4_2-R"
}
layer {
  name: "conv4_3-R"
  type: "Convolution"
  bottom: "conv4_2-R"
  top: "conv4_3-R"
  param {
    lr_mult: 10
    decay_mult: 1
  }
  param {
    lr_mult: 20
    decay_mult: 0
  }
  convolution_param {
    num_output: 512
    pad: 1
    kernel_size: 3
    stride: 1
  }
}
layer {
  name: "relu4_3-R"
  type: "ReLU"
  bottom: "conv4_3-R"
  top: "conv4_3-R"
}
layer {
  name: "pool4-R"
  type: "Pooling"
  bottom: "conv4_3-R"
  top: "pool4-R"
  pooling_param {
    pool: MAX
    kernel_size: 2
    stride: 2
  }
}
layer {
  name: "conv5_1-R"
  type: "Convolution"
  bottom: "pool4-R"
  top: "conv5_1-R"
  param {
    lr_mult: 10
    decay_mult: 1
  }
  param {
    lr_mult: 20
    decay_mult: 0
  }
  convolution_param {
    num_output: 512
    pad: 1
    kernel_size: 3
    stride: 1
  }
}
layer {
  name: "relu5_1-R"
  type: "ReLU"
  bottom: "conv5_1-R"
  top: "conv5_1-R"
}
layer {
  name: "conv5_2-R"
  type: "Convolution"
  bottom: "conv5_1-R"
  top: "conv5_2-R"
  param {
    lr_mult: 10
    decay_mult: 1
  }
  param {
    lr_mult: 20
    decay_mult: 0
  }
  convolution_param {
    num_output: 512
    pad: 1
    kernel_size: 3
    stride: 1
  }
}
layer {
  name: "relu5_2-R"
  type: "ReLU"
  bottom: "conv5_2-R"
  top: "conv5_2-R"
}
layer {
  name: "conv5_3-R"
  type: "Convolution"
  bottom: "conv5_2-R"
  top: "conv5_3-R"
  param {
    lr_mult: 10
    decay_mult: 1
  }
  param {
    lr_mult: 20
    decay_mult: 0
  }
  convolution_param {
    num_output: 512
    pad: 1
    kernel_size: 3
    stride: 1
  }
}
layer {
  name: "relu5_3-R"
  type: "ReLU"
  bottom: "conv5_3-R"
  top: "conv5_3-R"
}
layer {
  name: "pool5-R"
  type: "Pooling"
  bottom: "conv5_3-R"
  top: "pool5-R"
  pooling_param {
    pool: MAX
    kernel_size: 2
    stride: 2
  }
}
layer {
  name: "fc6-R"
  type: "Convolution"
  bottom: "pool5-R"
  top: "fc6-R"
  param {
    lr_mult: 10
    decay_mult: 1
  }
  param {
    lr_mult: 20
    decay_mult: 0
  }
  convolution_param {
    num_output: 4096
    pad: 0
    kernel_size: 7
    stride: 1
  }
}
layer {
  name: "relu6-R"
  type: "ReLU"
  bottom: "fc6-R"
  top: "fc6-R"
}
layer {
  name: "drop6-R"
  type: "Dropout"
  bottom: "fc6-R"
  top: "fc6-R"
  dropout_param {
    dropout_ratio: 0.5
  }
}
layer {
  name: "fc7-R"
  type: "Convolution"
  bottom: "fc6-R"
  top: "fc7-R"
  param {
    lr_mult: 10
    decay_mult: 1
  }
  param {
    lr_mult: 20
    decay_mult: 0
  }
  convolution_param {
    num_output: 4096
    pad: 0
    kernel_size: 1
    stride: 1
  }
}
layer {
  name: "relu7-R"
  type: "ReLU"
  bottom: "fc7-R"
  top: "fc7-R"
}
layer {
  name: "drop7-R"
  type: "Dropout"
  bottom: "fc7-R"
  top: "fc7-R"
  dropout_param {
    dropout_ratio: 0.5
  }
}
layer {
  name: "score_fr-new-R"
  type: "Convolution"
  bottom: "fc7-R"
  top: "score_fr-new-R"
  param {
    lr_mult: 10
    decay_mult: 1
  }
  param {
    lr_mult: 20
    decay_mult: 0
  }
  convolution_param {
    num_output: 3
    kernel_size: 1
  }
}
layer {
  name: "upscore2-new-R"
  type: "Deconvolution"
  bottom: "score_fr-new-R"
  top: "upscore2-new-R"
  param {
    lr_mult: 0
  }
  convolution_param {
    num_output: 3
    bias_term: false
    kernel_size: 4
    stride: 2
  }
}
layer {
  name: "score_pool4-new-R"
  type: "Convolution"
  bottom: "pool4-R"
  top: "score_pool4-new-R"
  param {
    lr_mult: 10
    decay_mult: 1
  }
  param {
    lr_mult: 20
    decay_mult: 0
  }
  convolution_param {
    num_output: 3
    pad: 0
    kernel_size: 1
  }
}
layer {
  name: "score_pool4c-R"
  type: "Crop"
  bottom: "score_pool4-new-R"
  bottom: "upscore2-new-R"
  top: "score_pool4c-R"
  crop_param {
    axis: 2
    offset: 5
  }
}
layer {
  name: "fuse_pool4-R"
  type: "Eltwise"
  bottom: "upscore2-new-R"
  bottom: "score_pool4c-R"
  top: "fuse_pool4-R"
  eltwise_param {
    operation: SUM
  }
}
layer {
  name: "upscore_pool4-new-R"
  type: "Deconvolution"
  bottom: "fuse_pool4-R"
  top: "upscore_pool4-new-R"
  param {
    lr_mult: 0
  }
  convolution_param {
    num_output: 3
    bias_term: false
    kernel_size: 4
    stride: 2
  }
}
layer {
  name: "score_pool3-new-R"
  type: "Convolution"
  bottom: "pool3-R"
  top: "score_pool3-new-R"
  param {
    lr_mult: 10
    decay_mult: 1
  }
  param {
    lr_mult: 20
    decay_mult: 0
  }
  convolution_param {
    num_output: 3
    pad: 0
    kernel_size: 1
  }
}
layer {
  name: "score_pool3c-R"
  type: "Crop"
  bottom: "score_pool3-new-R"
  bottom: "upscore_pool4-new-R"
  top: "score_pool3c-R"
  crop_param {
    axis: 2
    offset: 9
  }
}
layer {
  name: "fuse_pool3-R"
  type: "Eltwise"
  bottom: "upscore_pool4-new-R"
  bottom: "score_pool3c-R"
  top: "fuse_pool3-R"
  eltwise_param {
    operation: SUM
  }
}
layer {
  name: "upscore8-new-R"
  type: "Deconvolution"
  bottom: "fuse_pool3-R"
  top: "upscore8-new-R"
  param {
    lr_mult: 0
  }
  convolution_param {
    num_output: 3
    bias_term: false
    kernel_size: 16
    stride: 8
  }
}
layer {
  name: "upscore8_cropped-R"
  type: "Crop"
  bottom: "upscore8-new-R"
  bottom: "data-R"
  top: "upscore8_cropped-R"
  crop_param {
    axis: 2
    offset: 31
  }
}
layer {
  name: "score-R"
  type: "Convolution"
  bottom: "upscore8_cropped-R"
  top: "score-R"
  param {
    lr_mult: 10
    decay_mult: 1
  }
  param {
    lr_mult: 20
    decay_mult: 0
  }
  convolution_param {
    num_output: 3
    pad: 1
    kernel_size: 3
    stride: 1
    weight_filler {
      type: "xavier"
    }
    bias_filler {
      type: "constant"
      value: 0
    }
  }
}
layer {
  name: "score_uncropped-R"
  type: "Python"
  bottom: "crop_info"
  bottom: "score-R"
  bottom: "data"
  top: "score_uncropped-R"
  python_param {
    module: "Uncrop"
    layer: "UncropLayer"
  }
}
layer {
  name: "loss1"
  type: "DiceLoss"
  bottom: "score"
  bottom: "label"
  top: "loss1"
  loss_weight: 0.333333
}
layer {
  name: "loss2"
  type: "DiceLoss"
  bottom: "score_uncropped-R"
  bottom: "label"
  top: "loss2"
  loss_weight: 0.666667
}
I0419 05:16:46.956333 23600 layer_factory.hpp:77] Creating layer data
I0419 05:16:46.956394 23600 net.cpp:84] Creating Layer data
I0419 05:16:46.956400 23600 net.cpp:380] data -> data
I0419 05:16:46.956410 23600 net.cpp:380] data -> label
I0419 05:16:46.956416 23600 net.cpp:380] data -> crop_margin
I0419 05:16:46.956423 23600 net.cpp:380] data -> crop_prob
I0419 05:16:46.956427 23600 net.cpp:380] data -> crop_sample_batch
I0419 05:16:47.037042 23600 net.cpp:122] Setting up data
I0419 05:16:47.037097 23600 net.cpp:129] Top shape: 1 3 512 512 (786432)
I0419 05:16:47.037103 23600 net.cpp:129] Top shape: 1 3 512 512 (786432)
I0419 05:16:47.037111 23600 net.cpp:129] Top shape: 1 (1)
I0419 05:16:47.037114 23600 net.cpp:129] Top shape: 1 (1)
I0419 05:16:47.037118 23600 net.cpp:129] Top shape: 1 (1)
I0419 05:16:47.037122 23600 net.cpp:137] Memory required for data: 6291468
I0419 05:16:47.037129 23600 layer_factory.hpp:77] Creating layer data_data_0_split
I0419 05:16:47.037145 23600 net.cpp:84] Creating Layer data_data_0_split
I0419 05:16:47.037150 23600 net.cpp:406] data_data_0_split <- data
I0419 05:16:47.037158 23600 net.cpp:380] data_data_0_split -> data_data_0_split_0
I0419 05:16:47.037169 23600 net.cpp:380] data_data_0_split -> data_data_0_split_1
I0419 05:16:47.037175 23600 net.cpp:380] data_data_0_split -> data_data_0_split_2
I0419 05:16:47.037181 23600 net.cpp:380] data_data_0_split -> data_data_0_split_3
I0419 05:16:47.037288 23600 net.cpp:122] Setting up data_data_0_split
I0419 05:16:47.037313 23600 net.cpp:129] Top shape: 1 3 512 512 (786432)
I0419 05:16:47.037318 23600 net.cpp:129] Top shape: 1 3 512 512 (786432)
I0419 05:16:47.037338 23600 net.cpp:129] Top shape: 1 3 512 512 (786432)
I0419 05:16:47.037341 23600 net.cpp:129] Top shape: 1 3 512 512 (786432)
I0419 05:16:47.037344 23600 net.cpp:137] Memory required for data: 18874380
I0419 05:16:47.037348 23600 layer_factory.hpp:77] Creating layer label_data_1_split
I0419 05:16:47.037353 23600 net.cpp:84] Creating Layer label_data_1_split
I0419 05:16:47.037358 23600 net.cpp:406] label_data_1_split <- label
I0419 05:16:47.037362 23600 net.cpp:380] label_data_1_split -> label_data_1_split_0
I0419 05:16:47.037369 23600 net.cpp:380] label_data_1_split -> label_data_1_split_1
I0419 05:16:47.037374 23600 net.cpp:380] label_data_1_split -> label_data_1_split_2
I0419 05:16:47.037446 23600 net.cpp:122] Setting up label_data_1_split
I0419 05:16:47.037454 23600 net.cpp:129] Top shape: 1 3 512 512 (786432)
I0419 05:16:47.037459 23600 net.cpp:129] Top shape: 1 3 512 512 (786432)
I0419 05:16:47.037463 23600 net.cpp:129] Top shape: 1 3 512 512 (786432)
I0419 05:16:47.037467 23600 net.cpp:137] Memory required for data: 28311564
I0419 05:16:47.037470 23600 layer_factory.hpp:77] Creating layer conv1_1
I0419 05:16:47.037482 23600 net.cpp:84] Creating Layer conv1_1
I0419 05:16:47.037485 23600 net.cpp:406] conv1_1 <- data_data_0_split_0
I0419 05:16:47.037492 23600 net.cpp:380] conv1_1 -> conv1_1
I0419 05:16:47.040992 23600 net.cpp:122] Setting up conv1_1
I0419 05:16:47.041008 23600 net.cpp:129] Top shape: 1 64 710 710 (32262400)
I0419 05:16:47.041028 23600 net.cpp:137] Memory required for data: 157361164
I0419 05:16:47.041057 23600 layer_factory.hpp:77] Creating layer relu1_1
I0419 05:16:47.041067 23600 net.cpp:84] Creating Layer relu1_1
I0419 05:16:47.041071 23600 net.cpp:406] relu1_1 <- conv1_1
I0419 05:16:47.041077 23600 net.cpp:367] relu1_1 -> conv1_1 (in-place)
I0419 05:16:47.041504 23600 net.cpp:122] Setting up relu1_1
I0419 05:16:47.041515 23600 net.cpp:129] Top shape: 1 64 710 710 (32262400)
I0419 05:16:47.041534 23600 net.cpp:137] Memory required for data: 286410764
I0419 05:16:47.041538 23600 layer_factory.hpp:77] Creating layer conv1_2
I0419 05:16:47.041548 23600 net.cpp:84] Creating Layer conv1_2
I0419 05:16:47.041553 23600 net.cpp:406] conv1_2 <- conv1_1
I0419 05:16:47.041559 23600 net.cpp:380] conv1_2 -> conv1_2
I0419 05:16:47.045701 23600 net.cpp:122] Setting up conv1_2
I0419 05:16:47.045734 23600 net.cpp:129] Top shape: 1 64 710 710 (32262400)
I0419 05:16:47.045738 23600 net.cpp:137] Memory required for data: 415460364
I0419 05:16:47.045748 23600 layer_factory.hpp:77] Creating layer relu1_2
I0419 05:16:47.045755 23600 net.cpp:84] Creating Layer relu1_2
I0419 05:16:47.045759 23600 net.cpp:406] relu1_2 <- conv1_2
I0419 05:16:47.045765 23600 net.cpp:367] relu1_2 -> conv1_2 (in-place)
I0419 05:16:47.046005 23600 net.cpp:122] Setting up relu1_2
I0419 05:16:47.046016 23600 net.cpp:129] Top shape: 1 64 710 710 (32262400)
I0419 05:16:47.046020 23600 net.cpp:137] Memory required for data: 544509964
I0419 05:16:47.046023 23600 layer_factory.hpp:77] Creating layer pool1
I0419 05:16:47.046031 23600 net.cpp:84] Creating Layer pool1
I0419 05:16:47.046034 23600 net.cpp:406] pool1 <- conv1_2
I0419 05:16:47.046041 23600 net.cpp:380] pool1 -> pool1
I0419 05:16:47.046124 23600 net.cpp:122] Setting up pool1
I0419 05:16:47.046133 23600 net.cpp:129] Top shape: 1 64 355 355 (8065600)
I0419 05:16:47.046135 23600 net.cpp:137] Memory required for data: 576772364
I0419 05:16:47.046139 23600 layer_factory.hpp:77] Creating layer conv2_1
I0419 05:16:47.046149 23600 net.cpp:84] Creating Layer conv2_1
I0419 05:16:47.046152 23600 net.cpp:406] conv2_1 <- pool1
I0419 05:16:47.046159 23600 net.cpp:380] conv2_1 -> conv2_1
I0419 05:16:47.047991 23600 net.cpp:122] Setting up conv2_1
I0419 05:16:47.048004 23600 net.cpp:129] Top shape: 1 128 355 355 (16131200)
I0419 05:16:47.048024 23600 net.cpp:137] Memory required for data: 641297164
I0419 05:16:47.048034 23600 layer_factory.hpp:77] Creating layer relu2_1
I0419 05:16:47.048043 23600 net.cpp:84] Creating Layer relu2_1
I0419 05:16:47.048045 23600 net.cpp:406] relu2_1 <- conv2_1
I0419 05:16:47.048051 23600 net.cpp:367] relu2_1 -> conv2_1 (in-place)
I0419 05:16:47.048787 23600 net.cpp:122] Setting up relu2_1
I0419 05:16:47.048800 23600 net.cpp:129] Top shape: 1 128 355 355 (16131200)
I0419 05:16:47.048820 23600 net.cpp:137] Memory required for data: 705821964
I0419 05:16:47.048825 23600 layer_factory.hpp:77] Creating layer conv2_2
I0419 05:16:47.048833 23600 net.cpp:84] Creating Layer conv2_2
I0419 05:16:47.048837 23600 net.cpp:406] conv2_2 <- conv2_1
I0419 05:16:47.048844 23600 net.cpp:380] conv2_2 -> conv2_2
I0419 05:16:47.052292 23600 net.cpp:122] Setting up conv2_2
I0419 05:16:47.052350 23600 net.cpp:129] Top shape: 1 128 355 355 (16131200)
I0419 05:16:47.052358 23600 net.cpp:137] Memory required for data: 770346764
I0419 05:16:47.052382 23600 layer_factory.hpp:77] Creating layer relu2_2
I0419 05:16:47.052402 23600 net.cpp:84] Creating Layer relu2_2
I0419 05:16:47.052412 23600 net.cpp:406] relu2_2 <- conv2_2
I0419 05:16:47.052430 23600 net.cpp:367] relu2_2 -> conv2_2 (in-place)
I0419 05:16:47.055548 23600 net.cpp:122] Setting up relu2_2
I0419 05:16:47.055577 23600 net.cpp:129] Top shape: 1 128 355 355 (16131200)
I0419 05:16:47.055585 23600 net.cpp:137] Memory required for data: 834871564
I0419 05:16:47.055593 23600 layer_factory.hpp:77] Creating layer pool2
I0419 05:16:47.055611 23600 net.cpp:84] Creating Layer pool2
I0419 05:16:47.055619 23600 net.cpp:406] pool2 <- conv2_2
I0419 05:16:47.055632 23600 net.cpp:380] pool2 -> pool2
I0419 05:16:47.055819 23600 net.cpp:122] Setting up pool2
I0419 05:16:47.055833 23600 net.cpp:129] Top shape: 1 128 178 178 (4055552)
I0419 05:16:47.055840 23600 net.cpp:137] Memory required for data: 851093772
I0419 05:16:47.055847 23600 layer_factory.hpp:77] Creating layer conv3_1
I0419 05:16:47.055868 23600 net.cpp:84] Creating Layer conv3_1
I0419 05:16:47.055876 23600 net.cpp:406] conv3_1 <- pool2
I0419 05:16:47.055888 23600 net.cpp:380] conv3_1 -> conv3_1
I0419 05:16:47.062940 23600 net.cpp:122] Setting up conv3_1
I0419 05:16:47.062969 23600 net.cpp:129] Top shape: 1 256 178 178 (8111104)
I0419 05:16:47.062978 23600 net.cpp:137] Memory required for data: 883538188
I0419 05:16:47.063000 23600 layer_factory.hpp:77] Creating layer relu3_1
I0419 05:16:47.063014 23600 net.cpp:84] Creating Layer relu3_1
I0419 05:16:47.063022 23600 net.cpp:406] relu3_1 <- conv3_1
I0419 05:16:47.063041 23600 net.cpp:367] relu3_1 -> conv3_1 (in-place)
I0419 05:16:47.063526 23600 net.cpp:122] Setting up relu3_1
I0419 05:16:47.063546 23600 net.cpp:129] Top shape: 1 256 178 178 (8111104)
I0419 05:16:47.063554 23600 net.cpp:137] Memory required for data: 915982604
I0419 05:16:47.063560 23600 layer_factory.hpp:77] Creating layer conv3_2
I0419 05:16:47.063578 23600 net.cpp:84] Creating Layer conv3_2
I0419 05:16:47.063586 23600 net.cpp:406] conv3_2 <- conv3_1
I0419 05:16:47.063599 23600 net.cpp:380] conv3_2 -> conv3_2
I0419 05:16:47.069242 23600 net.cpp:122] Setting up conv3_2
I0419 05:16:47.069259 23600 net.cpp:129] Top shape: 1 256 178 178 (8111104)
I0419 05:16:47.069264 23600 net.cpp:137] Memory required for data: 948427020
I0419 05:16:47.069273 23600 layer_factory.hpp:77] Creating layer relu3_2
I0419 05:16:47.069286 23600 net.cpp:84] Creating Layer relu3_2
I0419 05:16:47.069291 23600 net.cpp:406] relu3_2 <- conv3_2
I0419 05:16:47.069298 23600 net.cpp:367] relu3_2 -> conv3_2 (in-place)
I0419 05:16:47.069612 23600 net.cpp:122] Setting up relu3_2
I0419 05:16:47.069624 23600 net.cpp:129] Top shape: 1 256 178 178 (8111104)
I0419 05:16:47.069628 23600 net.cpp:137] Memory required for data: 980871436
I0419 05:16:47.069634 23600 layer_factory.hpp:77] Creating layer conv3_3
I0419 05:16:47.069646 23600 net.cpp:84] Creating Layer conv3_3
I0419 05:16:47.069651 23600 net.cpp:406] conv3_3 <- conv3_2
I0419 05:16:47.069660 23600 net.cpp:380] conv3_3 -> conv3_3
I0419 05:16:47.075698 23600 net.cpp:122] Setting up conv3_3
I0419 05:16:47.075717 23600 net.cpp:129] Top shape: 1 256 178 178 (8111104)
I0419 05:16:47.075722 23600 net.cpp:137] Memory required for data: 1013315852
I0419 05:16:47.075732 23600 layer_factory.hpp:77] Creating layer relu3_3
I0419 05:16:47.075742 23600 net.cpp:84] Creating Layer relu3_3
I0419 05:16:47.075747 23600 net.cpp:406] relu3_3 <- conv3_3
I0419 05:16:47.075753 23600 net.cpp:367] relu3_3 -> conv3_3 (in-place)
I0419 05:16:47.076061 23600 net.cpp:122] Setting up relu3_3
I0419 05:16:47.076074 23600 net.cpp:129] Top shape: 1 256 178 178 (8111104)
I0419 05:16:47.076078 23600 net.cpp:137] Memory required for data: 1045760268
I0419 05:16:47.076083 23600 layer_factory.hpp:77] Creating layer pool3
I0419 05:16:47.076092 23600 net.cpp:84] Creating Layer pool3
I0419 05:16:47.076097 23600 net.cpp:406] pool3 <- conv3_3
I0419 05:16:47.076103 23600 net.cpp:380] pool3 -> pool3
I0419 05:16:47.076190 23600 net.cpp:122] Setting up pool3
I0419 05:16:47.076201 23600 net.cpp:129] Top shape: 1 256 89 89 (2027776)
I0419 05:16:47.076205 23600 net.cpp:137] Memory required for data: 1053871372
I0419 05:16:47.076210 23600 layer_factory.hpp:77] Creating layer pool3_pool3_0_split
I0419 05:16:47.076217 23600 net.cpp:84] Creating Layer pool3_pool3_0_split
I0419 05:16:47.076222 23600 net.cpp:406] pool3_pool3_0_split <- pool3
I0419 05:16:47.076230 23600 net.cpp:380] pool3_pool3_0_split -> pool3_pool3_0_split_0
I0419 05:16:47.076236 23600 net.cpp:380] pool3_pool3_0_split -> pool3_pool3_0_split_1
I0419 05:16:47.076306 23600 net.cpp:122] Setting up pool3_pool3_0_split
I0419 05:16:47.076315 23600 net.cpp:129] Top shape: 1 256 89 89 (2027776)
I0419 05:16:47.076320 23600 net.cpp:129] Top shape: 1 256 89 89 (2027776)
I0419 05:16:47.076324 23600 net.cpp:137] Memory required for data: 1070093580
I0419 05:16:47.076329 23600 layer_factory.hpp:77] Creating layer conv4_1
I0419 05:16:47.076341 23600 net.cpp:84] Creating Layer conv4_1
I0419 05:16:47.076345 23600 net.cpp:406] conv4_1 <- pool3_pool3_0_split_0
I0419 05:16:47.076354 23600 net.cpp:380] conv4_1 -> conv4_1
I0419 05:16:47.083012 23600 net.cpp:122] Setting up conv4_1
I0419 05:16:47.083039 23600 net.cpp:129] Top shape: 1 512 89 89 (4055552)
I0419 05:16:47.083045 23600 net.cpp:137] Memory required for data: 1086315788
I0419 05:16:47.083055 23600 layer_factory.hpp:77] Creating layer relu4_1
I0419 05:16:47.083065 23600 net.cpp:84] Creating Layer relu4_1
I0419 05:16:47.083070 23600 net.cpp:406] relu4_1 <- conv4_1
I0419 05:16:47.083078 23600 net.cpp:367] relu4_1 -> conv4_1 (in-place)
I0419 05:16:47.083390 23600 net.cpp:122] Setting up relu4_1
I0419 05:16:47.083405 23600 net.cpp:129] Top shape: 1 512 89 89 (4055552)
I0419 05:16:47.083408 23600 net.cpp:137] Memory required for data: 1102537996
I0419 05:16:47.083413 23600 layer_factory.hpp:77] Creating layer conv4_2
I0419 05:16:47.083425 23600 net.cpp:84] Creating Layer conv4_2
I0419 05:16:47.083431 23600 net.cpp:406] conv4_2 <- conv4_1
I0419 05:16:47.083439 23600 net.cpp:380] conv4_2 -> conv4_2
I0419 05:16:47.097463 23600 net.cpp:122] Setting up conv4_2
I0419 05:16:47.097486 23600 net.cpp:129] Top shape: 1 512 89 89 (4055552)
I0419 05:16:47.097491 23600 net.cpp:137] Memory required for data: 1118760204
I0419 05:16:47.097507 23600 layer_factory.hpp:77] Creating layer relu4_2
I0419 05:16:47.097517 23600 net.cpp:84] Creating Layer relu4_2
I0419 05:16:47.097523 23600 net.cpp:406] relu4_2 <- conv4_2
I0419 05:16:47.097543 23600 net.cpp:367] relu4_2 -> conv4_2 (in-place)
I0419 05:16:47.098467 23600 net.cpp:122] Setting up relu4_2
I0419 05:16:47.098485 23600 net.cpp:129] Top shape: 1 512 89 89 (4055552)
I0419 05:16:47.098490 23600 net.cpp:137] Memory required for data: 1134982412
I0419 05:16:47.098495 23600 layer_factory.hpp:77] Creating layer conv4_3
I0419 05:16:47.098508 23600 net.cpp:84] Creating Layer conv4_3
I0419 05:16:47.098513 23600 net.cpp:406] conv4_3 <- conv4_2
I0419 05:16:47.098528 23600 net.cpp:380] conv4_3 -> conv4_3
I0419 05:16:47.111951 23600 net.cpp:122] Setting up conv4_3
I0419 05:16:47.112018 23600 net.cpp:129] Top shape: 1 512 89 89 (4055552)
I0419 05:16:47.112028 23600 net.cpp:137] Memory required for data: 1151204620
I0419 05:16:47.112046 23600 layer_factory.hpp:77] Creating layer relu4_3
I0419 05:16:47.112064 23600 net.cpp:84] Creating Layer relu4_3
I0419 05:16:47.112076 23600 net.cpp:406] relu4_3 <- conv4_3
I0419 05:16:47.112088 23600 net.cpp:367] relu4_3 -> conv4_3 (in-place)
I0419 05:16:47.116341 23600 net.cpp:122] Setting up relu4_3
I0419 05:16:47.116379 23600 net.cpp:129] Top shape: 1 512 89 89 (4055552)
I0419 05:16:47.116391 23600 net.cpp:137] Memory required for data: 1167426828
I0419 05:16:47.116400 23600 layer_factory.hpp:77] Creating layer pool4
I0419 05:16:47.116416 23600 net.cpp:84] Creating Layer pool4
I0419 05:16:47.116426 23600 net.cpp:406] pool4 <- conv4_3
I0419 05:16:47.116441 23600 net.cpp:380] pool4 -> pool4
I0419 05:16:47.116605 23600 net.cpp:122] Setting up pool4
I0419 05:16:47.116621 23600 net.cpp:129] Top shape: 1 512 45 45 (1036800)
I0419 05:16:47.116628 23600 net.cpp:137] Memory required for data: 1171574028
I0419 05:16:47.116636 23600 layer_factory.hpp:77] Creating layer pool4_pool4_0_split
I0419 05:16:47.116648 23600 net.cpp:84] Creating Layer pool4_pool4_0_split
I0419 05:16:47.116655 23600 net.cpp:406] pool4_pool4_0_split <- pool4
I0419 05:16:47.116667 23600 net.cpp:380] pool4_pool4_0_split -> pool4_pool4_0_split_0
I0419 05:16:47.116679 23600 net.cpp:380] pool4_pool4_0_split -> pool4_pool4_0_split_1
I0419 05:16:47.116794 23600 net.cpp:122] Setting up pool4_pool4_0_split
I0419 05:16:47.116808 23600 net.cpp:129] Top shape: 1 512 45 45 (1036800)
I0419 05:16:47.116817 23600 net.cpp:129] Top shape: 1 512 45 45 (1036800)
I0419 05:16:47.116823 23600 net.cpp:137] Memory required for data: 1179868428
I0419 05:16:47.116830 23600 layer_factory.hpp:77] Creating layer conv5_1
I0419 05:16:47.116848 23600 net.cpp:84] Creating Layer conv5_1
I0419 05:16:47.116856 23600 net.cpp:406] conv5_1 <- pool4_pool4_0_split_0
I0419 05:16:47.116869 23600 net.cpp:380] conv5_1 -> conv5_1
I0419 05:16:47.133369 23600 net.cpp:122] Setting up conv5_1
I0419 05:16:47.133437 23600 net.cpp:129] Top shape: 1 512 45 45 (1036800)
I0419 05:16:47.133446 23600 net.cpp:137] Memory required for data: 1184015628
I0419 05:16:47.133466 23600 layer_factory.hpp:77] Creating layer relu5_1
I0419 05:16:47.133483 23600 net.cpp:84] Creating Layer relu5_1
I0419 05:16:47.133493 23600 net.cpp:406] relu5_1 <- conv5_1
I0419 05:16:47.133507 23600 net.cpp:367] relu5_1 -> conv5_1 (in-place)
I0419 05:16:47.133980 23600 net.cpp:122] Setting up relu5_1
I0419 05:16:47.134001 23600 net.cpp:129] Top shape: 1 512 45 45 (1036800)
I0419 05:16:47.134007 23600 net.cpp:137] Memory required for data: 1188162828
I0419 05:16:47.134016 23600 layer_factory.hpp:77] Creating layer conv5_2
I0419 05:16:47.134034 23600 net.cpp:84] Creating Layer conv5_2
I0419 05:16:47.134042 23600 net.cpp:406] conv5_2 <- conv5_1
I0419 05:16:47.134057 23600 net.cpp:380] conv5_2 -> conv5_2
I0419 05:16:47.145989 23600 net.cpp:122] Setting up conv5_2
I0419 05:16:47.146013 23600 net.cpp:129] Top shape: 1 512 45 45 (1036800)
I0419 05:16:47.146018 23600 net.cpp:137] Memory required for data: 1192310028
I0419 05:16:47.146033 23600 layer_factory.hpp:77] Creating layer relu5_2
I0419 05:16:47.146055 23600 net.cpp:84] Creating Layer relu5_2
I0419 05:16:47.146061 23600 net.cpp:406] relu5_2 <- conv5_2
I0419 05:16:47.146069 23600 net.cpp:367] relu5_2 -> conv5_2 (in-place)
I0419 05:16:47.146361 23600 net.cpp:122] Setting up relu5_2
I0419 05:16:47.146378 23600 net.cpp:129] Top shape: 1 512 45 45 (1036800)
I0419 05:16:47.146383 23600 net.cpp:137] Memory required for data: 1196457228
I0419 05:16:47.146386 23600 layer_factory.hpp:77] Creating layer conv5_3
I0419 05:16:47.146397 23600 net.cpp:84] Creating Layer conv5_3
I0419 05:16:47.146402 23600 net.cpp:406] conv5_3 <- conv5_2
I0419 05:16:47.146409 23600 net.cpp:380] conv5_3 -> conv5_3
I0419 05:16:47.161458 23600 net.cpp:122] Setting up conv5_3
I0419 05:16:47.161492 23600 net.cpp:129] Top shape: 1 512 45 45 (1036800)
I0419 05:16:47.161502 23600 net.cpp:137] Memory required for data: 1200604428
I0419 05:16:47.161518 23600 layer_factory.hpp:77] Creating layer relu5_3
I0419 05:16:47.161535 23600 net.cpp:84] Creating Layer relu5_3
I0419 05:16:47.161545 23600 net.cpp:406] relu5_3 <- conv5_3
I0419 05:16:47.161557 23600 net.cpp:367] relu5_3 -> conv5_3 (in-place)
I0419 05:16:47.162029 23600 net.cpp:122] Setting up relu5_3
I0419 05:16:47.162046 23600 net.cpp:129] Top shape: 1 512 45 45 (1036800)
I0419 05:16:47.162055 23600 net.cpp:137] Memory required for data: 1204751628
I0419 05:16:47.162061 23600 layer_factory.hpp:77] Creating layer pool5
I0419 05:16:47.162075 23600 net.cpp:84] Creating Layer pool5
I0419 05:16:47.162081 23600 net.cpp:406] pool5 <- conv5_3
I0419 05:16:47.162094 23600 net.cpp:380] pool5 -> pool5
I0419 05:16:47.162287 23600 net.cpp:122] Setting up pool5
I0419 05:16:47.162303 23600 net.cpp:129] Top shape: 1 512 23 23 (270848)
I0419 05:16:47.162308 23600 net.cpp:137] Memory required for data: 1205835020
I0419 05:16:47.162313 23600 layer_factory.hpp:77] Creating layer fc6
I0419 05:16:47.162326 23600 net.cpp:84] Creating Layer fc6
I0419 05:16:47.162333 23600 net.cpp:406] fc6 <- pool5
I0419 05:16:47.162340 23600 net.cpp:380] fc6 -> fc6
I0419 05:16:47.479193 23600 net.cpp:122] Setting up fc6
I0419 05:16:47.479230 23600 net.cpp:129] Top shape: 1 4096 17 17 (1183744)
I0419 05:16:47.479236 23600 net.cpp:137] Memory required for data: 1210569996
I0419 05:16:47.479246 23600 layer_factory.hpp:77] Creating layer relu6
I0419 05:16:47.479257 23600 net.cpp:84] Creating Layer relu6
I0419 05:16:47.479264 23600 net.cpp:406] relu6 <- fc6
I0419 05:16:47.479271 23600 net.cpp:367] relu6 -> fc6 (in-place)
I0419 05:16:47.479496 23600 net.cpp:122] Setting up relu6
I0419 05:16:47.479506 23600 net.cpp:129] Top shape: 1 4096 17 17 (1183744)
I0419 05:16:47.479509 23600 net.cpp:137] Memory required for data: 1215304972
I0419 05:16:47.479513 23600 layer_factory.hpp:77] Creating layer drop6
I0419 05:16:47.479521 23600 net.cpp:84] Creating Layer drop6
I0419 05:16:47.479523 23600 net.cpp:406] drop6 <- fc6
I0419 05:16:47.479528 23600 net.cpp:367] drop6 -> fc6 (in-place)
I0419 05:16:47.479568 23600 net.cpp:122] Setting up drop6
I0419 05:16:47.479583 23600 net.cpp:129] Top shape: 1 4096 17 17 (1183744)
I0419 05:16:47.479585 23600 net.cpp:137] Memory required for data: 1220039948
I0419 05:16:47.479589 23600 layer_factory.hpp:77] Creating layer fc7
I0419 05:16:47.479599 23600 net.cpp:84] Creating Layer fc7
I0419 05:16:47.479602 23600 net.cpp:406] fc7 <- fc6
I0419 05:16:47.479607 23600 net.cpp:380] fc7 -> fc7
I0419 05:16:47.527590 23600 net.cpp:122] Setting up fc7
I0419 05:16:47.527633 23600 net.cpp:129] Top shape: 1 4096 17 17 (1183744)
I0419 05:16:47.527638 23600 net.cpp:137] Memory required for data: 1224774924
I0419 05:16:47.527659 23600 layer_factory.hpp:77] Creating layer relu7
I0419 05:16:47.527671 23600 net.cpp:84] Creating Layer relu7
I0419 05:16:47.527678 23600 net.cpp:406] relu7 <- fc7
I0419 05:16:47.527684 23600 net.cpp:367] relu7 -> fc7 (in-place)
I0419 05:16:47.528455 23600 net.cpp:122] Setting up relu7
I0419 05:16:47.528471 23600 net.cpp:129] Top shape: 1 4096 17 17 (1183744)
I0419 05:16:47.528491 23600 net.cpp:137] Memory required for data: 1229509900
I0419 05:16:47.528494 23600 layer_factory.hpp:77] Creating layer drop7
I0419 05:16:47.528502 23600 net.cpp:84] Creating Layer drop7
I0419 05:16:47.528506 23600 net.cpp:406] drop7 <- fc7
I0419 05:16:47.528522 23600 net.cpp:367] drop7 -> fc7 (in-place)
I0419 05:16:47.528574 23600 net.cpp:122] Setting up drop7
I0419 05:16:47.528580 23600 net.cpp:129] Top shape: 1 4096 17 17 (1183744)
I0419 05:16:47.528584 23600 net.cpp:137] Memory required for data: 1234244876
I0419 05:16:47.528586 23600 layer_factory.hpp:77] Creating layer score_fr-new
I0419 05:16:47.528596 23600 net.cpp:84] Creating Layer score_fr-new
I0419 05:16:47.528599 23600 net.cpp:406] score_fr-new <- fc7
I0419 05:16:47.528606 23600 net.cpp:380] score_fr-new -> score_fr-new
I0419 05:16:47.529814 23600 net.cpp:122] Setting up score_fr-new
I0419 05:16:47.529825 23600 net.cpp:129] Top shape: 1 3 17 17 (867)
I0419 05:16:47.529845 23600 net.cpp:137] Memory required for data: 1234248344
I0419 05:16:47.529851 23600 layer_factory.hpp:77] Creating layer upscore2-new
I0419 05:16:47.529860 23600 net.cpp:84] Creating Layer upscore2-new
I0419 05:16:47.529865 23600 net.cpp:406] upscore2-new <- score_fr-new
I0419 05:16:47.529871 23600 net.cpp:380] upscore2-new -> upscore2-new
I0419 05:16:47.530216 23600 net.cpp:122] Setting up upscore2-new
I0419 05:16:47.530225 23600 net.cpp:129] Top shape: 1 3 36 36 (3888)
I0419 05:16:47.530243 23600 net.cpp:137] Memory required for data: 1234263896
I0419 05:16:47.530272 23600 layer_factory.hpp:77] Creating layer upscore2-new_upscore2-new_0_split
I0419 05:16:47.530280 23600 net.cpp:84] Creating Layer upscore2-new_upscore2-new_0_split
I0419 05:16:47.530283 23600 net.cpp:406] upscore2-new_upscore2-new_0_split <- upscore2-new
I0419 05:16:47.530289 23600 net.cpp:380] upscore2-new_upscore2-new_0_split -> upscore2-new_upscore2-new_0_split_0
I0419 05:16:47.530297 23600 net.cpp:380] upscore2-new_upscore2-new_0_split -> upscore2-new_upscore2-new_0_split_1
I0419 05:16:47.530354 23600 net.cpp:122] Setting up upscore2-new_upscore2-new_0_split
I0419 05:16:47.530359 23600 net.cpp:129] Top shape: 1 3 36 36 (3888)
I0419 05:16:47.530364 23600 net.cpp:129] Top shape: 1 3 36 36 (3888)
I0419 05:16:47.530367 23600 net.cpp:137] Memory required for data: 1234295000
I0419 05:16:47.530371 23600 layer_factory.hpp:77] Creating layer score_pool4-new
I0419 05:16:47.530380 23600 net.cpp:84] Creating Layer score_pool4-new
I0419 05:16:47.530383 23600 net.cpp:406] score_pool4-new <- pool4_pool4_0_split_1
I0419 05:16:47.530390 23600 net.cpp:380] score_pool4-new -> score_pool4-new
I0419 05:16:47.535574 23600 net.cpp:122] Setting up score_pool4-new
I0419 05:16:47.535605 23600 net.cpp:129] Top shape: 1 3 45 45 (6075)
I0419 05:16:47.535609 23600 net.cpp:137] Memory required for data: 1234319300
I0419 05:16:47.535616 23600 layer_factory.hpp:77] Creating layer score_pool4c
I0419 05:16:47.535624 23600 net.cpp:84] Creating Layer score_pool4c
I0419 05:16:47.535627 23600 net.cpp:406] score_pool4c <- score_pool4-new
I0419 05:16:47.535632 23600 net.cpp:406] score_pool4c <- upscore2-new_upscore2-new_0_split_0
I0419 05:16:47.535639 23600 net.cpp:380] score_pool4c -> score_pool4c
I0419 05:16:47.535681 23600 net.cpp:122] Setting up score_pool4c
I0419 05:16:47.535687 23600 net.cpp:129] Top shape: 1 3 36 36 (3888)
I0419 05:16:47.535691 23600 net.cpp:137] Memory required for data: 1234334852
I0419 05:16:47.535693 23600 layer_factory.hpp:77] Creating layer fuse_pool4
I0419 05:16:47.535701 23600 net.cpp:84] Creating Layer fuse_pool4
I0419 05:16:47.535706 23600 net.cpp:406] fuse_pool4 <- upscore2-new_upscore2-new_0_split_1
I0419 05:16:47.535709 23600 net.cpp:406] fuse_pool4 <- score_pool4c
I0419 05:16:47.535714 23600 net.cpp:380] fuse_pool4 -> fuse_pool4
I0419 05:16:47.535751 23600 net.cpp:122] Setting up fuse_pool4
I0419 05:16:47.535758 23600 net.cpp:129] Top shape: 1 3 36 36 (3888)
I0419 05:16:47.535760 23600 net.cpp:137] Memory required for data: 1234350404
I0419 05:16:47.535763 23600 layer_factory.hpp:77] Creating layer upscore_pool4-new
I0419 05:16:47.535770 23600 net.cpp:84] Creating Layer upscore_pool4-new
I0419 05:16:47.535773 23600 net.cpp:406] upscore_pool4-new <- fuse_pool4
I0419 05:16:47.535779 23600 net.cpp:380] upscore_pool4-new -> upscore_pool4-new
I0419 05:16:47.536088 23600 net.cpp:122] Setting up upscore_pool4-new
I0419 05:16:47.536098 23600 net.cpp:129] Top shape: 1 3 74 74 (16428)
I0419 05:16:47.536101 23600 net.cpp:137] Memory required for data: 1234416116
I0419 05:16:47.536106 23600 layer_factory.hpp:77] Creating layer upscore_pool4-new_upscore_pool4-new_0_split
I0419 05:16:47.536111 23600 net.cpp:84] Creating Layer upscore_pool4-new_upscore_pool4-new_0_split
I0419 05:16:47.536115 23600 net.cpp:406] upscore_pool4-new_upscore_pool4-new_0_split <- upscore_pool4-new
I0419 05:16:47.536120 23600 net.cpp:380] upscore_pool4-new_upscore_pool4-new_0_split -> upscore_pool4-new_upscore_pool4-new_0_split_0
I0419 05:16:47.536126 23600 net.cpp:380] upscore_pool4-new_upscore_pool4-new_0_split -> upscore_pool4-new_upscore_pool4-new_0_split_1
I0419 05:16:47.536181 23600 net.cpp:122] Setting up upscore_pool4-new_upscore_pool4-new_0_split
I0419 05:16:47.536201 23600 net.cpp:129] Top shape: 1 3 74 74 (16428)
I0419 05:16:47.536206 23600 net.cpp:129] Top shape: 1 3 74 74 (16428)
I0419 05:16:47.536207 23600 net.cpp:137] Memory required for data: 1234547540
I0419 05:16:47.536211 23600 layer_factory.hpp:77] Creating layer score_pool3-new
I0419 05:16:47.536219 23600 net.cpp:84] Creating Layer score_pool3-new
I0419 05:16:47.536222 23600 net.cpp:406] score_pool3-new <- pool3_pool3_0_split_1
I0419 05:16:47.536228 23600 net.cpp:380] score_pool3-new -> score_pool3-new
I0419 05:16:47.542269 23600 net.cpp:122] Setting up score_pool3-new
I0419 05:16:47.542301 23600 net.cpp:129] Top shape: 1 3 89 89 (23763)
I0419 05:16:47.542305 23600 net.cpp:137] Memory required for data: 1234642592
I0419 05:16:47.542312 23600 layer_factory.hpp:77] Creating layer score_pool3c
I0419 05:16:47.542320 23600 net.cpp:84] Creating Layer score_pool3c
I0419 05:16:47.542325 23600 net.cpp:406] score_pool3c <- score_pool3-new
I0419 05:16:47.542330 23600 net.cpp:406] score_pool3c <- upscore_pool4-new_upscore_pool4-new_0_split_0
I0419 05:16:47.542335 23600 net.cpp:380] score_pool3c -> score_pool3c
I0419 05:16:47.542378 23600 net.cpp:122] Setting up score_pool3c
I0419 05:16:47.542384 23600 net.cpp:129] Top shape: 1 3 74 74 (16428)
I0419 05:16:47.542387 23600 net.cpp:137] Memory required for data: 1234708304
I0419 05:16:47.542390 23600 layer_factory.hpp:77] Creating layer fuse_pool3
I0419 05:16:47.542397 23600 net.cpp:84] Creating Layer fuse_pool3
I0419 05:16:47.542400 23600 net.cpp:406] fuse_pool3 <- upscore_pool4-new_upscore_pool4-new_0_split_1
I0419 05:16:47.542404 23600 net.cpp:406] fuse_pool3 <- score_pool3c
I0419 05:16:47.542410 23600 net.cpp:380] fuse_pool3 -> fuse_pool3
I0419 05:16:47.542446 23600 net.cpp:122] Setting up fuse_pool3
I0419 05:16:47.542452 23600 net.cpp:129] Top shape: 1 3 74 74 (16428)
I0419 05:16:47.542455 23600 net.cpp:137] Memory required for data: 1234774016
I0419 05:16:47.542459 23600 layer_factory.hpp:77] Creating layer upscore8-new
I0419 05:16:47.542465 23600 net.cpp:84] Creating Layer upscore8-new
I0419 05:16:47.542469 23600 net.cpp:406] upscore8-new <- fuse_pool3
I0419 05:16:47.542474 23600 net.cpp:380] upscore8-new -> upscore8-new
I0419 05:16:47.542937 23600 net.cpp:122] Setting up upscore8-new
I0419 05:16:47.542953 23600 net.cpp:129] Top shape: 1 3 600 600 (1080000)
I0419 05:16:47.542958 23600 net.cpp:137] Memory required for data: 1239094016
I0419 05:16:47.542969 23600 layer_factory.hpp:77] Creating layer upscore8_cropped
I0419 05:16:47.542979 23600 net.cpp:84] Creating Layer upscore8_cropped
I0419 05:16:47.542987 23600 net.cpp:406] upscore8_cropped <- upscore8-new
I0419 05:16:47.542997 23600 net.cpp:406] upscore8_cropped <- data_data_0_split_1
I0419 05:16:47.543007 23600 net.cpp:380] upscore8_cropped -> upscore8_cropped
I0419 05:16:47.543071 23600 net.cpp:122] Setting up upscore8_cropped
I0419 05:16:47.543081 23600 net.cpp:129] Top shape: 1 3 512 512 (786432)
I0419 05:16:47.543087 23600 net.cpp:137] Memory required for data: 1242239744
I0419 05:16:47.543092 23600 layer_factory.hpp:77] Creating layer score
I0419 05:16:47.543109 23600 net.cpp:84] Creating Layer score
I0419 05:16:47.543115 23600 net.cpp:406] score <- upscore8_cropped
I0419 05:16:47.543126 23600 net.cpp:380] score -> score
I0419 05:16:47.548409 23600 net.cpp:122] Setting up score
I0419 05:16:47.548440 23600 net.cpp:129] Top shape: 1 3 512 512 (786432)
I0419 05:16:47.548444 23600 net.cpp:137] Memory required for data: 1245385472
I0419 05:16:47.548452 23600 layer_factory.hpp:77] Creating layer score_score_0_split
I0419 05:16:47.548458 23600 net.cpp:84] Creating Layer score_score_0_split
I0419 05:16:47.548463 23600 net.cpp:406] score_score_0_split <- score
I0419 05:16:47.548468 23600 net.cpp:380] score_score_0_split -> score_score_0_split_0
I0419 05:16:47.548476 23600 net.cpp:380] score_score_0_split -> score_score_0_split_1
I0419 05:16:47.548547 23600 net.cpp:122] Setting up score_score_0_split
I0419 05:16:47.548553 23600 net.cpp:129] Top shape: 1 3 512 512 (786432)
I0419 05:16:47.548557 23600 net.cpp:129] Top shape: 1 3 512 512 (786432)
I0419 05:16:47.548560 23600 net.cpp:137] Memory required for data: 1251676928
I0419 05:16:47.548563 23600 layer_factory.hpp:77] Creating layer prob
I0419 05:16:47.548569 23600 net.cpp:84] Creating Layer prob
I0419 05:16:47.548573 23600 net.cpp:406] prob <- score_score_0_split_0
I0419 05:16:47.548579 23600 net.cpp:380] prob -> prob
I0419 05:16:47.548857 23600 net.cpp:122] Setting up prob
I0419 05:16:47.548868 23600 net.cpp:129] Top shape: 1 3 512 512 (786432)
I0419 05:16:47.548872 23600 net.cpp:137] Memory required for data: 1254822656
I0419 05:16:47.548876 23600 layer_factory.hpp:77] Creating layer saliency
I0419 05:16:47.548887 23600 net.cpp:84] Creating Layer saliency
I0419 05:16:47.548890 23600 net.cpp:406] saliency <- prob
I0419 05:16:47.548897 23600 net.cpp:380] saliency -> saliency
I0419 05:16:47.551134 23600 net.cpp:122] Setting up saliency
I0419 05:16:47.551163 23600 net.cpp:129] Top shape: 1 3 512 512 (786432)
I0419 05:16:47.551167 23600 net.cpp:137] Memory required for data: 1257968384
I0419 05:16:47.551190 23600 layer_factory.hpp:77] Creating layer saliency_data
I0419 05:16:47.551198 23600 net.cpp:84] Creating Layer saliency_data
I0419 05:16:47.551203 23600 net.cpp:406] saliency_data <- data_data_0_split_2
I0419 05:16:47.551208 23600 net.cpp:406] saliency_data <- saliency
I0419 05:16:47.551213 23600 net.cpp:380] saliency_data -> saliency_data
I0419 05:16:47.551259 23600 net.cpp:122] Setting up saliency_data
I0419 05:16:47.551265 23600 net.cpp:129] Top shape: 1 3 512 512 (786432)
I0419 05:16:47.551267 23600 net.cpp:137] Memory required for data: 1261114112
I0419 05:16:47.551271 23600 layer_factory.hpp:77] Creating layer crop
I0419 05:16:47.551376 23600 net.cpp:84] Creating Layer crop
I0419 05:16:47.551385 23600 net.cpp:406] crop <- label_data_1_split_0
I0419 05:16:47.551390 23600 net.cpp:406] crop <- saliency_data
I0419 05:16:47.551400 23600 net.cpp:406] crop <- crop_margin
I0419 05:16:47.551404 23600 net.cpp:406] crop <- crop_prob
I0419 05:16:47.551409 23600 net.cpp:406] crop <- crop_sample_batch
I0419 05:16:47.551414 23600 net.cpp:380] crop -> data-R
I0419 05:16:47.551420 23600 net.cpp:380] crop -> crop_info
I0419 05:16:47.566928 23600 net.cpp:122] Setting up crop
I0419 05:16:47.566980 23600 net.cpp:129] Top shape: 1 3 512 512 (786432)
I0419 05:16:47.566987 23600 net.cpp:129] Top shape: 1 2 4 (8)
I0419 05:16:47.566992 23600 net.cpp:137] Memory required for data: 1264259872
I0419 05:16:47.566999 23600 layer_factory.hpp:77] Creating layer data-R_crop_0_split
I0419 05:16:47.567014 23600 net.cpp:84] Creating Layer data-R_crop_0_split
I0419 05:16:47.567021 23600 net.cpp:406] data-R_crop_0_split <- data-R
I0419 05:16:47.567044 23600 net.cpp:380] data-R_crop_0_split -> data-R_crop_0_split_0
I0419 05:16:47.567059 23600 net.cpp:380] data-R_crop_0_split -> data-R_crop_0_split_1
I0419 05:16:47.567145 23600 net.cpp:122] Setting up data-R_crop_0_split
I0419 05:16:47.567155 23600 net.cpp:129] Top shape: 1 3 512 512 (786432)
I0419 05:16:47.567160 23600 net.cpp:129] Top shape: 1 3 512 512 (786432)
I0419 05:16:47.567164 23600 net.cpp:137] Memory required for data: 1270551328
I0419 05:16:47.567168 23600 layer_factory.hpp:77] Creating layer conv1_1-R
I0419 05:16:47.567183 23600 net.cpp:84] Creating Layer conv1_1-R
I0419 05:16:47.567188 23600 net.cpp:406] conv1_1-R <- data-R_crop_0_split_0
I0419 05:16:47.567194 23600 net.cpp:380] conv1_1-R -> conv1_1-R
I0419 05:16:47.574292 23600 net.cpp:122] Setting up conv1_1-R
I0419 05:16:47.574328 23600 net.cpp:129] Top shape: 1 64 710 710 (32262400)
I0419 05:16:47.574337 23600 net.cpp:137] Memory required for data: 1399600928
I0419 05:16:47.574352 23600 layer_factory.hpp:77] Creating layer relu1_1-R
I0419 05:16:47.574373 23600 net.cpp:84] Creating Layer relu1_1-R
I0419 05:16:47.574380 23600 net.cpp:406] relu1_1-R <- conv1_1-R
I0419 05:16:47.574399 23600 net.cpp:367] relu1_1-R -> conv1_1-R (in-place)
I0419 05:16:47.574906 23600 net.cpp:122] Setting up relu1_1-R
I0419 05:16:47.574936 23600 net.cpp:129] Top shape: 1 64 710 710 (32262400)
I0419 05:16:47.574942 23600 net.cpp:137] Memory required for data: 1528650528
I0419 05:16:47.574949 23600 layer_factory.hpp:77] Creating layer conv1_2-R
I0419 05:16:47.574991 23600 net.cpp:84] Creating Layer conv1_2-R
I0419 05:16:47.575000 23600 net.cpp:406] conv1_2-R <- conv1_1-R
I0419 05:16:47.575019 23600 net.cpp:380] conv1_2-R -> conv1_2-R
I0419 05:16:47.583014 23600 net.cpp:122] Setting up conv1_2-R
I0419 05:16:47.583048 23600 net.cpp:129] Top shape: 1 64 710 710 (32262400)
I0419 05:16:47.583055 23600 net.cpp:137] Memory required for data: 1657700128
I0419 05:16:47.583066 23600 layer_factory.hpp:77] Creating layer relu1_2-R
I0419 05:16:47.583077 23600 net.cpp:84] Creating Layer relu1_2-R
I0419 05:16:47.583083 23600 net.cpp:406] relu1_2-R <- conv1_2-R
I0419 05:16:47.583104 23600 net.cpp:367] relu1_2-R -> conv1_2-R (in-place)
I0419 05:16:47.584297 23600 net.cpp:122] Setting up relu1_2-R
I0419 05:16:47.584331 23600 net.cpp:129] Top shape: 1 64 710 710 (32262400)
I0419 05:16:47.584336 23600 net.cpp:137] Memory required for data: 1786749728
I0419 05:16:47.584342 23600 layer_factory.hpp:77] Creating layer pool1-R
I0419 05:16:47.584355 23600 net.cpp:84] Creating Layer pool1-R
I0419 05:16:47.584362 23600 net.cpp:406] pool1-R <- conv1_2-R
I0419 05:16:47.584372 23600 net.cpp:380] pool1-R -> pool1-R
I0419 05:16:47.584491 23600 net.cpp:122] Setting up pool1-R
I0419 05:16:47.584506 23600 net.cpp:129] Top shape: 1 64 355 355 (8065600)
I0419 05:16:47.584513 23600 net.cpp:137] Memory required for data: 1819012128
I0419 05:16:47.584522 23600 layer_factory.hpp:77] Creating layer conv2_1-R
I0419 05:16:47.584539 23600 net.cpp:84] Creating Layer conv2_1-R
I0419 05:16:47.584548 23600 net.cpp:406] conv2_1-R <- pool1-R
I0419 05:16:47.584564 23600 net.cpp:380] conv2_1-R -> conv2_1-R
I0419 05:16:47.588490 23600 net.cpp:122] Setting up conv2_1-R
I0419 05:16:47.588526 23600 net.cpp:129] Top shape: 1 128 355 355 (16131200)
I0419 05:16:47.588532 23600 net.cpp:137] Memory required for data: 1883536928
I0419 05:16:47.588543 23600 layer_factory.hpp:77] Creating layer relu2_1-R
I0419 05:16:47.588553 23600 net.cpp:84] Creating Layer relu2_1-R
I0419 05:16:47.588559 23600 net.cpp:406] relu2_1-R <- conv2_1-R
I0419 05:16:47.588568 23600 net.cpp:367] relu2_1-R -> conv2_1-R (in-place)
I0419 05:16:47.588995 23600 net.cpp:122] Setting up relu2_1-R
I0419 05:16:47.589012 23600 net.cpp:129] Top shape: 1 128 355 355 (16131200)
I0419 05:16:47.589026 23600 net.cpp:137] Memory required for data: 1948061728
I0419 05:16:47.589032 23600 layer_factory.hpp:77] Creating layer conv2_2-R
I0419 05:16:47.589058 23600 net.cpp:84] Creating Layer conv2_2-R
I0419 05:16:47.589063 23600 net.cpp:406] conv2_2-R <- conv2_1-R
I0419 05:16:47.589074 23600 net.cpp:380] conv2_2-R -> conv2_2-R
I0419 05:16:47.595991 23600 net.cpp:122] Setting up conv2_2-R
I0419 05:16:47.596024 23600 net.cpp:129] Top shape: 1 128 355 355 (16131200)
I0419 05:16:47.596030 23600 net.cpp:137] Memory required for data: 2012586528
I0419 05:16:47.596041 23600 layer_factory.hpp:77] Creating layer relu2_2-R
I0419 05:16:47.596051 23600 net.cpp:84] Creating Layer relu2_2-R
I0419 05:16:47.596057 23600 net.cpp:406] relu2_2-R <- conv2_2-R
I0419 05:16:47.596065 23600 net.cpp:367] relu2_2-R -> conv2_2-R (in-place)
I0419 05:16:47.596451 23600 net.cpp:122] Setting up relu2_2-R
I0419 05:16:47.596467 23600 net.cpp:129] Top shape: 1 128 355 355 (16131200)
I0419 05:16:47.596472 23600 net.cpp:137] Memory required for data: 2077111328
I0419 05:16:47.596480 23600 layer_factory.hpp:77] Creating layer pool2-R
I0419 05:16:47.596490 23600 net.cpp:84] Creating Layer pool2-R
I0419 05:16:47.596495 23600 net.cpp:406] pool2-R <- conv2_2-R
I0419 05:16:47.596504 23600 net.cpp:380] pool2-R -> pool2-R
I0419 05:16:47.596607 23600 net.cpp:122] Setting up pool2-R
I0419 05:16:47.596619 23600 net.cpp:129] Top shape: 1 128 178 178 (4055552)
I0419 05:16:47.596626 23600 net.cpp:137] Memory required for data: 2093333536
I0419 05:16:47.596633 23600 layer_factory.hpp:77] Creating layer conv3_1-R
I0419 05:16:47.596650 23600 net.cpp:84] Creating Layer conv3_1-R
I0419 05:16:47.596668 23600 net.cpp:406] conv3_1-R <- pool2-R
I0419 05:16:47.596694 23600 net.cpp:380] conv3_1-R -> conv3_1-R
I0419 05:16:47.602280 23600 net.cpp:122] Setting up conv3_1-R
I0419 05:16:47.602299 23600 net.cpp:129] Top shape: 1 256 178 178 (8111104)
I0419 05:16:47.602305 23600 net.cpp:137] Memory required for data: 2125777952
I0419 05:16:47.602318 23600 layer_factory.hpp:77] Creating layer relu3_1-R
I0419 05:16:47.602326 23600 net.cpp:84] Creating Layer relu3_1-R
I0419 05:16:47.602332 23600 net.cpp:406] relu3_1-R <- conv3_1-R
I0419 05:16:47.602340 23600 net.cpp:367] relu3_1-R -> conv3_1-R (in-place)
I0419 05:16:47.602746 23600 net.cpp:122] Setting up relu3_1-R
I0419 05:16:47.602762 23600 net.cpp:129] Top shape: 1 256 178 178 (8111104)
I0419 05:16:47.602767 23600 net.cpp:137] Memory required for data: 2158222368
I0419 05:16:47.602772 23600 layer_factory.hpp:77] Creating layer conv3_2-R
I0419 05:16:47.602784 23600 net.cpp:84] Creating Layer conv3_2-R
I0419 05:16:47.602789 23600 net.cpp:406] conv3_2-R <- conv3_1-R
I0419 05:16:47.602802 23600 net.cpp:380] conv3_2-R -> conv3_2-R
I0419 05:16:47.608606 23600 net.cpp:122] Setting up conv3_2-R
I0419 05:16:47.608624 23600 net.cpp:129] Top shape: 1 256 178 178 (8111104)
I0419 05:16:47.608628 23600 net.cpp:137] Memory required for data: 2190666784
I0419 05:16:47.608639 23600 layer_factory.hpp:77] Creating layer relu3_2-R
I0419 05:16:47.608647 23600 net.cpp:84] Creating Layer relu3_2-R
I0419 05:16:47.608652 23600 net.cpp:406] relu3_2-R <- conv3_2-R
I0419 05:16:47.608659 23600 net.cpp:367] relu3_2-R -> conv3_2-R (in-place)
I0419 05:16:47.609006 23600 net.cpp:122] Setting up relu3_2-R
I0419 05:16:47.609022 23600 net.cpp:129] Top shape: 1 256 178 178 (8111104)
I0419 05:16:47.609026 23600 net.cpp:137] Memory required for data: 2223111200
I0419 05:16:47.609031 23600 layer_factory.hpp:77] Creating layer conv3_3-R
I0419 05:16:47.609043 23600 net.cpp:84] Creating Layer conv3_3-R
I0419 05:16:47.609048 23600 net.cpp:406] conv3_3-R <- conv3_2-R
I0419 05:16:47.609057 23600 net.cpp:380] conv3_3-R -> conv3_3-R
I0419 05:16:47.615381 23600 net.cpp:122] Setting up conv3_3-R
I0419 05:16:47.615399 23600 net.cpp:129] Top shape: 1 256 178 178 (8111104)
I0419 05:16:47.615416 23600 net.cpp:137] Memory required for data: 2255555616
I0419 05:16:47.615425 23600 layer_factory.hpp:77] Creating layer relu3_3-R
I0419 05:16:47.615434 23600 net.cpp:84] Creating Layer relu3_3-R
I0419 05:16:47.615439 23600 net.cpp:406] relu3_3-R <- conv3_3-R
I0419 05:16:47.615447 23600 net.cpp:367] relu3_3-R -> conv3_3-R (in-place)
I0419 05:16:47.615833 23600 net.cpp:122] Setting up relu3_3-R
I0419 05:16:47.615849 23600 net.cpp:129] Top shape: 1 256 178 178 (8111104)
I0419 05:16:47.615861 23600 net.cpp:137] Memory required for data: 2288000032
I0419 05:16:47.615865 23600 layer_factory.hpp:77] Creating layer pool3-R
I0419 05:16:47.615875 23600 net.cpp:84] Creating Layer pool3-R
I0419 05:16:47.615880 23600 net.cpp:406] pool3-R <- conv3_3-R
I0419 05:16:47.615888 23600 net.cpp:380] pool3-R -> pool3-R
I0419 05:16:47.615996 23600 net.cpp:122] Setting up pool3-R
I0419 05:16:47.616013 23600 net.cpp:129] Top shape: 1 256 89 89 (2027776)
I0419 05:16:47.616019 23600 net.cpp:137] Memory required for data: 2296111136
I0419 05:16:47.616025 23600 layer_factory.hpp:77] Creating layer pool3-R_pool3-R_0_split
I0419 05:16:47.616037 23600 net.cpp:84] Creating Layer pool3-R_pool3-R_0_split
I0419 05:16:47.616044 23600 net.cpp:406] pool3-R_pool3-R_0_split <- pool3-R
I0419 05:16:47.616065 23600 net.cpp:380] pool3-R_pool3-R_0_split -> pool3-R_pool3-R_0_split_0
I0419 05:16:47.616076 23600 net.cpp:380] pool3-R_pool3-R_0_split -> pool3-R_pool3-R_0_split_1
I0419 05:16:47.616175 23600 net.cpp:122] Setting up pool3-R_pool3-R_0_split
I0419 05:16:47.616191 23600 net.cpp:129] Top shape: 1 256 89 89 (2027776)
I0419 05:16:47.616200 23600 net.cpp:129] Top shape: 1 256 89 89 (2027776)
I0419 05:16:47.616207 23600 net.cpp:137] Memory required for data: 2312333344
I0419 05:16:47.616214 23600 layer_factory.hpp:77] Creating layer conv4_1-R
I0419 05:16:47.616230 23600 net.cpp:84] Creating Layer conv4_1-R
I0419 05:16:47.616235 23600 net.cpp:406] conv4_1-R <- pool3-R_pool3-R_0_split_0
I0419 05:16:47.616245 23600 net.cpp:380] conv4_1-R -> conv4_1-R
I0419 05:16:47.624150 23600 net.cpp:122] Setting up conv4_1-R
I0419 05:16:47.624179 23600 net.cpp:129] Top shape: 1 512 89 89 (4055552)
I0419 05:16:47.624184 23600 net.cpp:137] Memory required for data: 2328555552
I0419 05:16:47.624194 23600 layer_factory.hpp:77] Creating layer relu4_1-R
I0419 05:16:47.624203 23600 net.cpp:84] Creating Layer relu4_1-R
I0419 05:16:47.624208 23600 net.cpp:406] relu4_1-R <- conv4_1-R
I0419 05:16:47.624217 23600 net.cpp:367] relu4_1-R -> conv4_1-R (in-place)
I0419 05:16:47.625319 23600 net.cpp:122] Setting up relu4_1-R
I0419 05:16:47.625336 23600 net.cpp:129] Top shape: 1 512 89 89 (4055552)
I0419 05:16:47.625350 23600 net.cpp:137] Memory required for data: 2344777760
I0419 05:16:47.625355 23600 layer_factory.hpp:77] Creating layer conv4_2-R
I0419 05:16:47.625367 23600 net.cpp:84] Creating Layer conv4_2-R
I0419 05:16:47.625373 23600 net.cpp:406] conv4_2-R <- conv4_1-R
I0419 05:16:47.625382 23600 net.cpp:380] conv4_2-R -> conv4_2-R
I0419 05:16:47.639060 23600 net.cpp:122] Setting up conv4_2-R
I0419 05:16:47.639096 23600 net.cpp:129] Top shape: 1 512 89 89 (4055552)
I0419 05:16:47.639101 23600 net.cpp:137] Memory required for data: 2360999968
I0419 05:16:47.639111 23600 layer_factory.hpp:77] Creating layer relu4_2-R
I0419 05:16:47.639122 23600 net.cpp:84] Creating Layer relu4_2-R
I0419 05:16:47.639127 23600 net.cpp:406] relu4_2-R <- conv4_2-R
I0419 05:16:47.639135 23600 net.cpp:367] relu4_2-R -> conv4_2-R (in-place)
I0419 05:16:47.639479 23600 net.cpp:122] Setting up relu4_2-R
I0419 05:16:47.639494 23600 net.cpp:129] Top shape: 1 512 89 89 (4055552)
I0419 05:16:47.639498 23600 net.cpp:137] Memory required for data: 2377222176
I0419 05:16:47.639503 23600 layer_factory.hpp:77] Creating layer conv4_3-R
I0419 05:16:47.639516 23600 net.cpp:84] Creating Layer conv4_3-R
I0419 05:16:47.639520 23600 net.cpp:406] conv4_3-R <- conv4_2-R
I0419 05:16:47.639530 23600 net.cpp:380] conv4_3-R -> conv4_3-R
I0419 05:16:47.651870 23600 net.cpp:122] Setting up conv4_3-R
I0419 05:16:47.651893 23600 net.cpp:129] Top shape: 1 512 89 89 (4055552)
I0419 05:16:47.651898 23600 net.cpp:137] Memory required for data: 2393444384
I0419 05:16:47.651909 23600 layer_factory.hpp:77] Creating layer relu4_3-R
I0419 05:16:47.651919 23600 net.cpp:84] Creating Layer relu4_3-R
I0419 05:16:47.651926 23600 net.cpp:406] relu4_3-R <- conv4_3-R
I0419 05:16:47.651935 23600 net.cpp:367] relu4_3-R -> conv4_3-R (in-place)
I0419 05:16:47.652323 23600 net.cpp:122] Setting up relu4_3-R
I0419 05:16:47.652338 23600 net.cpp:129] Top shape: 1 512 89 89 (4055552)
I0419 05:16:47.652353 23600 net.cpp:137] Memory required for data: 2409666592
I0419 05:16:47.652359 23600 layer_factory.hpp:77] Creating layer pool4-R
I0419 05:16:47.652370 23600 net.cpp:84] Creating Layer pool4-R
I0419 05:16:47.652375 23600 net.cpp:406] pool4-R <- conv4_3-R
I0419 05:16:47.652385 23600 net.cpp:380] pool4-R -> pool4-R
I0419 05:16:47.652524 23600 net.cpp:122] Setting up pool4-R
I0419 05:16:47.652549 23600 net.cpp:129] Top shape: 1 512 45 45 (1036800)
I0419 05:16:47.652557 23600 net.cpp:137] Memory required for data: 2413813792
I0419 05:16:47.652565 23600 layer_factory.hpp:77] Creating layer pool4-R_pool4-R_0_split
I0419 05:16:47.652578 23600 net.cpp:84] Creating Layer pool4-R_pool4-R_0_split
I0419 05:16:47.652586 23600 net.cpp:406] pool4-R_pool4-R_0_split <- pool4-R
I0419 05:16:47.652597 23600 net.cpp:380] pool4-R_pool4-R_0_split -> pool4-R_pool4-R_0_split_0
I0419 05:16:47.652611 23600 net.cpp:380] pool4-R_pool4-R_0_split -> pool4-R_pool4-R_0_split_1
I0419 05:16:47.652717 23600 net.cpp:122] Setting up pool4-R_pool4-R_0_split
I0419 05:16:47.652734 23600 net.cpp:129] Top shape: 1 512 45 45 (1036800)
I0419 05:16:47.652745 23600 net.cpp:129] Top shape: 1 512 45 45 (1036800)
I0419 05:16:47.652751 23600 net.cpp:137] Memory required for data: 2422108192
I0419 05:16:47.652760 23600 layer_factory.hpp:77] Creating layer conv5_1-R
I0419 05:16:47.652776 23600 net.cpp:84] Creating Layer conv5_1-R
I0419 05:16:47.652781 23600 net.cpp:406] conv5_1-R <- pool4-R_pool4-R_0_split_0
I0419 05:16:47.652791 23600 net.cpp:380] conv5_1-R -> conv5_1-R
I0419 05:16:47.668970 23600 net.cpp:122] Setting up conv5_1-R
I0419 05:16:47.669000 23600 net.cpp:129] Top shape: 1 512 45 45 (1036800)
I0419 05:16:47.669005 23600 net.cpp:137] Memory required for data: 2426255392
I0419 05:16:47.669032 23600 layer_factory.hpp:77] Creating layer relu5_1-R
I0419 05:16:47.669041 23600 net.cpp:84] Creating Layer relu5_1-R
I0419 05:16:47.669047 23600 net.cpp:406] relu5_1-R <- conv5_1-R
I0419 05:16:47.669054 23600 net.cpp:367] relu5_1-R -> conv5_1-R (in-place)
I0419 05:16:47.669395 23600 net.cpp:122] Setting up relu5_1-R
I0419 05:16:47.669420 23600 net.cpp:129] Top shape: 1 512 45 45 (1036800)
I0419 05:16:47.669423 23600 net.cpp:137] Memory required for data: 2430402592
I0419 05:16:47.669428 23600 layer_factory.hpp:77] Creating layer conv5_2-R
I0419 05:16:47.669445 23600 net.cpp:84] Creating Layer conv5_2-R
I0419 05:16:47.669450 23600 net.cpp:406] conv5_2-R <- conv5_1-R
I0419 05:16:47.669458 23600 net.cpp:380] conv5_2-R -> conv5_2-R
I0419 05:16:47.682159 23600 net.cpp:122] Setting up conv5_2-R
I0419 05:16:47.682206 23600 net.cpp:129] Top shape: 1 512 45 45 (1036800)
I0419 05:16:47.682211 23600 net.cpp:137] Memory required for data: 2434549792
I0419 05:16:47.682220 23600 layer_factory.hpp:77] Creating layer relu5_2-R
I0419 05:16:47.682232 23600 net.cpp:84] Creating Layer relu5_2-R
I0419 05:16:47.682238 23600 net.cpp:406] relu5_2-R <- conv5_2-R
I0419 05:16:47.682245 23600 net.cpp:367] relu5_2-R -> conv5_2-R (in-place)
I0419 05:16:47.682600 23600 net.cpp:122] Setting up relu5_2-R
I0419 05:16:47.682616 23600 net.cpp:129] Top shape: 1 512 45 45 (1036800)
I0419 05:16:47.682621 23600 net.cpp:137] Memory required for data: 2438696992
I0419 05:16:47.682626 23600 layer_factory.hpp:77] Creating layer conv5_3-R
I0419 05:16:47.682637 23600 net.cpp:84] Creating Layer conv5_3-R
I0419 05:16:47.682642 23600 net.cpp:406] conv5_3-R <- conv5_2-R
I0419 05:16:47.682651 23600 net.cpp:380] conv5_3-R -> conv5_3-R
I0419 05:16:47.703872 23600 net.cpp:122] Setting up conv5_3-R
I0419 05:16:47.703912 23600 net.cpp:129] Top shape: 1 512 45 45 (1036800)
I0419 05:16:47.703919 23600 net.cpp:137] Memory required for data: 2442844192
I0419 05:16:47.703934 23600 layer_factory.hpp:77] Creating layer relu5_3-R
I0419 05:16:47.703946 23600 net.cpp:84] Creating Layer relu5_3-R
I0419 05:16:47.703953 23600 net.cpp:406] relu5_3-R <- conv5_3-R
I0419 05:16:47.703963 23600 net.cpp:367] relu5_3-R -> conv5_3-R (in-place)
I0419 05:16:47.704401 23600 net.cpp:122] Setting up relu5_3-R
I0419 05:16:47.704418 23600 net.cpp:129] Top shape: 1 512 45 45 (1036800)
I0419 05:16:47.704424 23600 net.cpp:137] Memory required for data: 2446991392
I0419 05:16:47.704430 23600 layer_factory.hpp:77] Creating layer pool5-R
I0419 05:16:47.704442 23600 net.cpp:84] Creating Layer pool5-R
I0419 05:16:47.704457 23600 net.cpp:406] pool5-R <- conv5_3-R
I0419 05:16:47.704468 23600 net.cpp:380] pool5-R -> pool5-R
I0419 05:16:47.704603 23600 net.cpp:122] Setting up pool5-R
I0419 05:16:47.704615 23600 net.cpp:129] Top shape: 1 512 23 23 (270848)
I0419 05:16:47.704623 23600 net.cpp:137] Memory required for data: 2448074784
I0419 05:16:47.704632 23600 layer_factory.hpp:77] Creating layer fc6-R
I0419 05:16:47.704650 23600 net.cpp:84] Creating Layer fc6-R
I0419 05:16:47.704660 23600 net.cpp:406] fc6-R <- pool5-R
I0419 05:16:47.704676 23600 net.cpp:380] fc6-R -> fc6-R
I0419 05:16:48.136929 23600 net.cpp:122] Setting up fc6-R
I0419 05:16:48.136986 23600 net.cpp:129] Top shape: 1 4096 17 17 (1183744)
I0419 05:16:48.136992 23600 net.cpp:137] Memory required for data: 2452809760
I0419 05:16:48.137012 23600 layer_factory.hpp:77] Creating layer relu6-R
I0419 05:16:48.137028 23600 net.cpp:84] Creating Layer relu6-R
I0419 05:16:48.137038 23600 net.cpp:406] relu6-R <- fc6-R
I0419 05:16:48.137060 23600 net.cpp:367] relu6-R -> fc6-R (in-place)
I0419 05:16:48.138478 23600 net.cpp:122] Setting up relu6-R
I0419 05:16:48.138510 23600 net.cpp:129] Top shape: 1 4096 17 17 (1183744)
I0419 05:16:48.138516 23600 net.cpp:137] Memory required for data: 2457544736
I0419 05:16:48.138522 23600 layer_factory.hpp:77] Creating layer drop6-R
I0419 05:16:48.138535 23600 net.cpp:84] Creating Layer drop6-R
I0419 05:16:48.138540 23600 net.cpp:406] drop6-R <- fc6-R
I0419 05:16:48.138550 23600 net.cpp:367] drop6-R -> fc6-R (in-place)
I0419 05:16:48.138636 23600 net.cpp:122] Setting up drop6-R
I0419 05:16:48.138654 23600 net.cpp:129] Top shape: 1 4096 17 17 (1183744)
I0419 05:16:48.138659 23600 net.cpp:137] Memory required for data: 2462279712
I0419 05:16:48.138664 23600 layer_factory.hpp:77] Creating layer fc7-R
I0419 05:16:48.138679 23600 net.cpp:84] Creating Layer fc7-R
I0419 05:16:48.138684 23600 net.cpp:406] fc7-R <- fc6-R
I0419 05:16:48.138698 23600 net.cpp:380] fc7-R -> fc7-R
I0419 05:16:48.212466 23600 net.cpp:122] Setting up fc7-R
I0419 05:16:48.212543 23600 net.cpp:129] Top shape: 1 4096 17 17 (1183744)
I0419 05:16:48.212555 23600 net.cpp:137] Memory required for data: 2467014688
I0419 05:16:48.212580 23600 layer_factory.hpp:77] Creating layer relu7-R
I0419 05:16:48.212615 23600 net.cpp:84] Creating Layer relu7-R
I0419 05:16:48.212625 23600 net.cpp:406] relu7-R <- fc7-R
I0419 05:16:48.212638 23600 net.cpp:367] relu7-R -> fc7-R (in-place)
I0419 05:16:48.213380 23600 net.cpp:122] Setting up relu7-R
I0419 05:16:48.213400 23600 net.cpp:129] Top shape: 1 4096 17 17 (1183744)
I0419 05:16:48.213416 23600 net.cpp:137] Memory required for data: 2471749664
I0419 05:16:48.213423 23600 layer_factory.hpp:77] Creating layer drop7-R
I0419 05:16:48.213436 23600 net.cpp:84] Creating Layer drop7-R
I0419 05:16:48.213444 23600 net.cpp:406] drop7-R <- fc7-R
I0419 05:16:48.213454 23600 net.cpp:367] drop7-R -> fc7-R (in-place)
I0419 05:16:48.213614 23600 net.cpp:122] Setting up drop7-R
I0419 05:16:48.213629 23600 net.cpp:129] Top shape: 1 4096 17 17 (1183744)
I0419 05:16:48.213636 23600 net.cpp:137] Memory required for data: 2476484640
I0419 05:16:48.213644 23600 layer_factory.hpp:77] Creating layer score_fr-new-R
I0419 05:16:48.213660 23600 net.cpp:84] Creating Layer score_fr-new-R
I0419 05:16:48.213667 23600 net.cpp:406] score_fr-new-R <- fc7-R
I0419 05:16:48.213680 23600 net.cpp:380] score_fr-new-R -> score_fr-new-R
I0419 05:16:48.217994 23600 net.cpp:122] Setting up score_fr-new-R
I0419 05:16:48.218046 23600 net.cpp:129] Top shape: 1 3 17 17 (867)
I0419 05:16:48.218052 23600 net.cpp:137] Memory required for data: 2476488108
I0419 05:16:48.218066 23600 layer_factory.hpp:77] Creating layer upscore2-new-R
I0419 05:16:48.218084 23600 net.cpp:84] Creating Layer upscore2-new-R
I0419 05:16:48.218092 23600 net.cpp:406] upscore2-new-R <- score_fr-new-R
I0419 05:16:48.218116 23600 net.cpp:380] upscore2-new-R -> upscore2-new-R
I0419 05:16:48.219018 23600 net.cpp:122] Setting up upscore2-new-R
I0419 05:16:48.219063 23600 net.cpp:129] Top shape: 1 3 36 36 (3888)
I0419 05:16:48.219071 23600 net.cpp:137] Memory required for data: 2476503660
I0419 05:16:48.219084 23600 layer_factory.hpp:77] Creating layer upscore2-new-R_upscore2-new-R_0_split
I0419 05:16:48.219097 23600 net.cpp:84] Creating Layer upscore2-new-R_upscore2-new-R_0_split
I0419 05:16:48.219106 23600 net.cpp:406] upscore2-new-R_upscore2-new-R_0_split <- upscore2-new-R
I0419 05:16:48.219151 23600 net.cpp:380] upscore2-new-R_upscore2-new-R_0_split -> upscore2-new-R_upscore2-new-R_0_split_0
I0419 05:16:48.219167 23600 net.cpp:380] upscore2-new-R_upscore2-new-R_0_split -> upscore2-new-R_upscore2-new-R_0_split_1
I0419 05:16:48.219296 23600 net.cpp:122] Setting up upscore2-new-R_upscore2-new-R_0_split
I0419 05:16:48.219312 23600 net.cpp:129] Top shape: 1 3 36 36 (3888)
I0419 05:16:48.219331 23600 net.cpp:129] Top shape: 1 3 36 36 (3888)
I0419 05:16:48.219336 23600 net.cpp:137] Memory required for data: 2476534764
I0419 05:16:48.219347 23600 layer_factory.hpp:77] Creating layer score_pool4-new-R
I0419 05:16:48.219363 23600 net.cpp:84] Creating Layer score_pool4-new-R
I0419 05:16:48.219372 23600 net.cpp:406] score_pool4-new-R <- pool4-R_pool4-R_0_split_1
I0419 05:16:48.219384 23600 net.cpp:380] score_pool4-new-R -> score_pool4-new-R
I0419 05:16:48.223143 23600 net.cpp:122] Setting up score_pool4-new-R
I0419 05:16:48.223184 23600 net.cpp:129] Top shape: 1 3 45 45 (6075)
I0419 05:16:48.223192 23600 net.cpp:137] Memory required for data: 2476559064
I0419 05:16:48.223207 23600 layer_factory.hpp:77] Creating layer score_pool4c-R
I0419 05:16:48.223222 23600 net.cpp:84] Creating Layer score_pool4c-R
I0419 05:16:48.223232 23600 net.cpp:406] score_pool4c-R <- score_pool4-new-R
I0419 05:16:48.223242 23600 net.cpp:406] score_pool4c-R <- upscore2-new-R_upscore2-new-R_0_split_0
I0419 05:16:48.223274 23600 net.cpp:380] score_pool4c-R -> score_pool4c-R
I0419 05:16:48.223361 23600 net.cpp:122] Setting up score_pool4c-R
I0419 05:16:48.223372 23600 net.cpp:129] Top shape: 1 3 36 36 (3888)
I0419 05:16:48.223378 23600 net.cpp:137] Memory required for data: 2476574616
I0419 05:16:48.223386 23600 layer_factory.hpp:77] Creating layer fuse_pool4-R
I0419 05:16:48.223414 23600 net.cpp:84] Creating Layer fuse_pool4-R
I0419 05:16:48.223423 23600 net.cpp:406] fuse_pool4-R <- upscore2-new-R_upscore2-new-R_0_split_1
I0419 05:16:48.223431 23600 net.cpp:406] fuse_pool4-R <- score_pool4c-R
I0419 05:16:48.223443 23600 net.cpp:380] fuse_pool4-R -> fuse_pool4-R
I0419 05:16:48.223518 23600 net.cpp:122] Setting up fuse_pool4-R
I0419 05:16:48.223533 23600 net.cpp:129] Top shape: 1 3 36 36 (3888)
I0419 05:16:48.223539 23600 net.cpp:137] Memory required for data: 2476590168
I0419 05:16:48.223546 23600 layer_factory.hpp:77] Creating layer upscore_pool4-new-R
I0419 05:16:48.223568 23600 net.cpp:84] Creating Layer upscore_pool4-new-R
I0419 05:16:48.223575 23600 net.cpp:406] upscore_pool4-new-R <- fuse_pool4-R
I0419 05:16:48.223587 23600 net.cpp:380] upscore_pool4-new-R -> upscore_pool4-new-R
I0419 05:16:48.224310 23600 net.cpp:122] Setting up upscore_pool4-new-R
I0419 05:16:48.224325 23600 net.cpp:129] Top shape: 1 3 74 74 (16428)
I0419 05:16:48.224333 23600 net.cpp:137] Memory required for data: 2476655880
I0419 05:16:48.224349 23600 layer_factory.hpp:77] Creating layer upscore_pool4-new-R_upscore_pool4-new-R_0_split
I0419 05:16:48.224360 23600 net.cpp:84] Creating Layer upscore_pool4-new-R_upscore_pool4-new-R_0_split
I0419 05:16:48.224367 23600 net.cpp:406] upscore_pool4-new-R_upscore_pool4-new-R_0_split <- upscore_pool4-new-R
I0419 05:16:48.224386 23600 net.cpp:380] upscore_pool4-new-R_upscore_pool4-new-R_0_split -> upscore_pool4-new-R_upscore_pool4-new-R_0_split_0
I0419 05:16:48.224400 23600 net.cpp:380] upscore_pool4-new-R_upscore_pool4-new-R_0_split -> upscore_pool4-new-R_upscore_pool4-new-R_0_split_1
I0419 05:16:48.224517 23600 net.cpp:122] Setting up upscore_pool4-new-R_upscore_pool4-new-R_0_split
I0419 05:16:48.224532 23600 net.cpp:129] Top shape: 1 3 74 74 (16428)
I0419 05:16:48.224546 23600 net.cpp:129] Top shape: 1 3 74 74 (16428)
I0419 05:16:48.224558 23600 net.cpp:137] Memory required for data: 2476787304
I0419 05:16:48.224565 23600 layer_factory.hpp:77] Creating layer score_pool3-new-R
I0419 05:16:48.224580 23600 net.cpp:84] Creating Layer score_pool3-new-R
I0419 05:16:48.224591 23600 net.cpp:406] score_pool3-new-R <- pool3-R_pool3-R_0_split_1
I0419 05:16:48.224601 23600 net.cpp:380] score_pool3-new-R -> score_pool3-new-R
I0419 05:16:48.228196 23600 net.cpp:122] Setting up score_pool3-new-R
I0419 05:16:48.228238 23600 net.cpp:129] Top shape: 1 3 89 89 (23763)
I0419 05:16:48.228246 23600 net.cpp:137] Memory required for data: 2476882356
I0419 05:16:48.228261 23600 layer_factory.hpp:77] Creating layer score_pool3c-R
I0419 05:16:48.228286 23600 net.cpp:84] Creating Layer score_pool3c-R
I0419 05:16:48.228294 23600 net.cpp:406] score_pool3c-R <- score_pool3-new-R
I0419 05:16:48.228305 23600 net.cpp:406] score_pool3c-R <- upscore_pool4-new-R_upscore_pool4-new-R_0_split_0
I0419 05:16:48.228330 23600 net.cpp:380] score_pool3c-R -> score_pool3c-R
I0419 05:16:48.228422 23600 net.cpp:122] Setting up score_pool3c-R
I0419 05:16:48.228437 23600 net.cpp:129] Top shape: 1 3 74 74 (16428)
I0419 05:16:48.228448 23600 net.cpp:137] Memory required for data: 2476948068
I0419 05:16:48.228456 23600 layer_factory.hpp:77] Creating layer fuse_pool3-R
I0419 05:16:48.228467 23600 net.cpp:84] Creating Layer fuse_pool3-R
I0419 05:16:48.228477 23600 net.cpp:406] fuse_pool3-R <- upscore_pool4-new-R_upscore_pool4-new-R_0_split_1
I0419 05:16:48.228487 23600 net.cpp:406] fuse_pool3-R <- score_pool3c-R
I0419 05:16:48.228499 23600 net.cpp:380] fuse_pool3-R -> fuse_pool3-R
I0419 05:16:48.228579 23600 net.cpp:122] Setting up fuse_pool3-R
I0419 05:16:48.228591 23600 net.cpp:129] Top shape: 1 3 74 74 (16428)
I0419 05:16:48.228600 23600 net.cpp:137] Memory required for data: 2477013780
I0419 05:16:48.228606 23600 layer_factory.hpp:77] Creating layer upscore8-new-R
I0419 05:16:48.228619 23600 net.cpp:84] Creating Layer upscore8-new-R
I0419 05:16:48.228629 23600 net.cpp:406] upscore8-new-R <- fuse_pool3-R
I0419 05:16:48.228641 23600 net.cpp:380] upscore8-new-R -> upscore8-new-R
I0419 05:16:48.229367 23600 net.cpp:122] Setting up upscore8-new-R
I0419 05:16:48.229383 23600 net.cpp:129] Top shape: 1 3 600 600 (1080000)
I0419 05:16:48.229393 23600 net.cpp:137] Memory required for data: 2481333780
I0419 05:16:48.229409 23600 layer_factory.hpp:77] Creating layer upscore8_cropped-R
I0419 05:16:48.229420 23600 net.cpp:84] Creating Layer upscore8_cropped-R
I0419 05:16:48.229430 23600 net.cpp:406] upscore8_cropped-R <- upscore8-new-R
I0419 05:16:48.229444 23600 net.cpp:406] upscore8_cropped-R <- data-R_crop_0_split_1
I0419 05:16:48.229457 23600 net.cpp:380] upscore8_cropped-R -> upscore8_cropped-R
I0419 05:16:48.229532 23600 net.cpp:122] Setting up upscore8_cropped-R
I0419 05:16:48.229545 23600 net.cpp:129] Top shape: 1 3 512 512 (786432)
I0419 05:16:48.229554 23600 net.cpp:137] Memory required for data: 2484479508
I0419 05:16:48.229560 23600 layer_factory.hpp:77] Creating layer score-R
I0419 05:16:48.229580 23600 net.cpp:84] Creating Layer score-R
I0419 05:16:48.229590 23600 net.cpp:406] score-R <- upscore8_cropped-R
I0419 05:16:48.229604 23600 net.cpp:380] score-R -> score-R
I0419 05:16:48.235110 23600 net.cpp:122] Setting up score-R
I0419 05:16:48.235143 23600 net.cpp:129] Top shape: 1 3 512 512 (786432)
I0419 05:16:48.235169 23600 net.cpp:137] Memory required for data: 2487625236
I0419 05:16:48.235186 23600 layer_factory.hpp:77] Creating layer score_uncropped-R
I0419 05:16:48.235421 23600 net.cpp:84] Creating Layer score_uncropped-R
I0419 05:16:48.235431 23600 net.cpp:406] score_uncropped-R <- crop_info
I0419 05:16:48.235438 23600 net.cpp:406] score_uncropped-R <- score-R
I0419 05:16:48.235443 23600 net.cpp:406] score_uncropped-R <- data_data_0_split_3
I0419 05:16:48.235450 23600 net.cpp:380] score_uncropped-R -> score_uncropped-R
I0419 05:16:48.237933 23600 net.cpp:122] Setting up score_uncropped-R
I0419 05:16:48.237952 23600 net.cpp:129] Top shape: 1 3 512 512 (786432)
I0419 05:16:48.237977 23600 net.cpp:137] Memory required for data: 2490770964
I0419 05:16:48.237982 23600 layer_factory.hpp:77] Creating layer loss1
I0419 05:16:48.237993 23600 net.cpp:84] Creating Layer loss1
I0419 05:16:48.238001 23600 net.cpp:406] loss1 <- score_score_0_split_1
I0419 05:16:48.238008 23600 net.cpp:406] loss1 <- label_data_1_split_1
I0419 05:16:48.238015 23600 net.cpp:380] loss1 -> loss1
…
