…
snapshot_prefix: "/media/Med_2T2/data2/models/snapshots/joint:1e-5x10,1e-5x10,20/FD3:YI3_1_20180715_091948,YJ3_1_20180715_202726/train"
test_initialization: false
average_loss: 20
stepvalue: 50000
stepvalue: 60000
stepvalue: 70000
iter_size: 1
I0716 00:01:33.388856 14875 solver.cpp:77] Creating training net from train_net file: /media/Med_2T2/data2/prototxts/training_J3x10.prototxt
I0716 00:01:33.391717 14875 net.cpp:51] Initializing net from parameters: 
state {
  phase: TRAIN
}
layer {
  name: "data"
  type: "Python"
  top: "data"
  top: "label"
  top: "crop_margin"
  top: "crop_prob"
  top: "crop_sample_batch"
  python_param {
    module: "Data"
    layer: "DataLayer"
  }
}
layer {
  name: "conv1_1"
  type: "Convolution"
  bottom: "data"
  top: "conv1_1"
  param {
    lr_mult: 1
    decay_mult: 1
  }
  param {
    lr_mult: 2
    decay_mult: 0
  }
  convolution_param {
    num_output: 64
    pad: 100
    kernel_size: 3
    stride: 1
  }
}
layer {
  name: "relu1_1"
  type: "ReLU"
  bottom: "conv1_1"
  top: "conv1_1"
}
layer {
  name: "conv1_2"
  type: "Convolution"
  bottom: "conv1_1"
  top: "conv1_2"
  param {
    lr_mult: 1
    decay_mult: 1
  }
  param {
    lr_mult: 2
    decay_mult: 0
  }
  convolution_param {
    num_output: 64
    pad: 1
    kernel_size: 3
    stride: 1
  }
}
layer {
  name: "relu1_2"
  type: "ReLU"
  bottom: "conv1_2"
  top: "conv1_2"
}
layer {
  name: "pool1"
  type: "Pooling"
  bottom: "conv1_2"
  top: "pool1"
  pooling_param {
    pool: MAX
    kernel_size: 2
    stride: 2
  }
}
layer {
  name: "conv2_1"
  type: "Convolution"
  bottom: "pool1"
  top: "conv2_1"
  param {
    lr_mult: 1
    decay_mult: 1
  }
  param {
    lr_mult: 2
    decay_mult: 0
  }
  convolution_param {
    num_output: 128
    pad: 1
    kernel_size: 3
    stride: 1
  }
}
layer {
  name: "relu2_1"
  type: "ReLU"
  bottom: "conv2_1"
  top: "conv2_1"
}
layer {
  name: "conv2_2"
  type: "Convolution"
  bottom: "conv2_1"
  top: "conv2_2"
  param {
    lr_mult: 1
    decay_mult: 1
  }
  param {
    lr_mult: 2
    decay_mult: 0
  }
  convolution_param {
    num_output: 128
    pad: 1
    kernel_size: 3
    stride: 1
  }
}
layer {
  name: "relu2_2"
  type: "ReLU"
  bottom: "conv2_2"
  top: "conv2_2"
}
layer {
  name: "pool2"
  type: "Pooling"
  bottom: "conv2_2"
  top: "pool2"
  pooling_param {
    pool: MAX
    kernel_size: 2
    stride: 2
  }
}
layer {
  name: "conv3_1"
  type: "Convolution"
  bottom: "pool2"
  top: "conv3_1"
  param {
    lr_mult: 1
    decay_mult: 1
  }
  param {
    lr_mult: 2
    decay_mult: 0
  }
  convolution_param {
    num_output: 256
    pad: 1
    kernel_size: 3
    stride: 1
  }
}
layer {
  name: "relu3_1"
  type: "ReLU"
  bottom: "conv3_1"
  top: "conv3_1"
}
layer {
  name: "conv3_2"
  type: "Convolution"
  bottom: "conv3_1"
  top: "conv3_2"
  param {
    lr_mult: 1
    decay_mult: 1
  }
  param {
    lr_mult: 2
    decay_mult: 0
  }
  convolution_param {
    num_output: 256
    pad: 1
    kernel_size: 3
    stride: 1
  }
}
layer {
  name: "relu3_2"
  type: "ReLU"
  bottom: "conv3_2"
  top: "conv3_2"
}
layer {
  name: "conv3_3"
  type: "Convolution"
  bottom: "conv3_2"
  top: "conv3_3"
  param {
    lr_mult: 1
    decay_mult: 1
  }
  param {
    lr_mult: 2
    decay_mult: 0
  }
  convolution_param {
    num_output: 256
    pad: 1
    kernel_size: 3
    stride: 1
  }
}
layer {
  name: "relu3_3"
  type: "ReLU"
  bottom: "conv3_3"
  top: "conv3_3"
}
layer {
  name: "pool3"
  type: "Pooling"
  bottom: "conv3_3"
  top: "pool3"
  pooling_param {
    pool: MAX
    kernel_size: 2
    stride: 2
  }
}
layer {
  name: "conv4_1"
  type: "Convolution"
  bottom: "pool3"
  top: "conv4_1"
  param {
    lr_mult: 1
    decay_mult: 1
  }
  param {
    lr_mult: 2
    decay_mult: 0
  }
  convolution_param {
    num_output: 512
    pad: 1
    kernel_size: 3
    stride: 1
  }
}
layer {
  name: "relu4_1"
  type: "ReLU"
  bottom: "conv4_1"
  top: "conv4_1"
}
layer {
  name: "conv4_2"
  type: "Convolution"
  bottom: "conv4_1"
  top: "conv4_2"
  param {
    lr_mult: 1
    decay_mult: 1
  }
  param {
    lr_mult: 2
    decay_mult: 0
  }
  convolution_param {
    num_output: 512
    pad: 1
    kernel_size: 3
    stride: 1
  }
}
layer {
  name: "relu4_2"
  type: "ReLU"
  bottom: "conv4_2"
  top: "conv4_2"
}
layer {
  name: "conv4_3"
  type: "Convolution"
  bottom: "conv4_2"
  top: "conv4_3"
  param {
    lr_mult: 1
    decay_mult: 1
  }
  param {
    lr_mult: 2
    decay_mult: 0
  }
  convolution_param {
    num_output: 512
    pad: 1
    kernel_size: 3
    stride: 1
  }
}
layer {
  name: "relu4_3"
  type: "ReLU"
  bottom: "conv4_3"
  top: "conv4_3"
}
layer {
  name: "pool4"
  type: "Pooling"
  bottom: "conv4_3"
  top: "pool4"
  pooling_param {
    pool: MAX
    kernel_size: 2
    stride: 2
  }
}
layer {
  name: "conv5_1"
  type: "Convolution"
  bottom: "pool4"
  top: "conv5_1"
  param {
    lr_mult: 1
    decay_mult: 1
  }
  param {
    lr_mult: 2
    decay_mult: 0
  }
  convolution_param {
    num_output: 512
    pad: 1
    kernel_size: 3
    stride: 1
  }
}
layer {
  name: "relu5_1"
  type: "ReLU"
  bottom: "conv5_1"
  top: "conv5_1"
}
layer {
  name: "conv5_2"
  type: "Convolution"
  bottom: "conv5_1"
  top: "conv5_2"
  param {
    lr_mult: 1
    decay_mult: 1
  }
  param {
    lr_mult: 2
    decay_mult: 0
  }
  convolution_param {
    num_output: 512
    pad: 1
    kernel_size: 3
    stride: 1
  }
}
layer {
  name: "relu5_2"
  type: "ReLU"
  bottom: "conv5_2"
  top: "conv5_2"
}
layer {
  name: "conv5_3"
  type: "Convolution"
  bottom: "conv5_2"
  top: "conv5_3"
  param {
    lr_mult: 1
    decay_mult: 1
  }
  param {
    lr_mult: 2
    decay_mult: 0
  }
  convolution_param {
    num_output: 512
    pad: 1
    kernel_size: 3
    stride: 1
  }
}
layer {
  name: "relu5_3"
  type: "ReLU"
  bottom: "conv5_3"
  top: "conv5_3"
}
layer {
  name: "pool5"
  type: "Pooling"
  bottom: "conv5_3"
  top: "pool5"
  pooling_param {
    pool: MAX
    kernel_size: 2
    stride: 2
  }
}
layer {
  name: "fc6"
  type: "Convolution"
  bottom: "pool5"
  top: "fc6"
  param {
    lr_mult: 1
    decay_mult: 1
  }
  param {
    lr_mult: 2
    decay_mult: 0
  }
  convolution_param {
    num_output: 4096
    pad: 0
    kernel_size: 7
    stride: 1
  }
}
layer {
  name: "relu6"
  type: "ReLU"
  bottom: "fc6"
  top: "fc6"
}
layer {
  name: "drop6"
  type: "Dropout"
  bottom: "fc6"
  top: "fc6"
  dropout_param {
    dropout_ratio: 0.5
  }
}
layer {
  name: "fc7"
  type: "Convolution"
  bottom: "fc6"
  top: "fc7"
  param {
    lr_mult: 1
    decay_mult: 1
  }
  param {
    lr_mult: 2
    decay_mult: 0
  }
  convolution_param {
    num_output: 4096
    pad: 0
    kernel_size: 1
    stride: 1
  }
}
layer {
  name: "relu7"
  type: "ReLU"
  bottom: "fc7"
  top: "fc7"
}
layer {
  name: "drop7"
  type: "Dropout"
  bottom: "fc7"
  top: "fc7"
  dropout_param {
    dropout_ratio: 0.5
  }
}
layer {
  name: "score_fr-new"
  type: "Convolution"
  bottom: "fc7"
  top: "score_fr-new"
  param {
    lr_mult: 1
    decay_mult: 1
  }
  param {
    lr_mult: 2
    decay_mult: 0
  }
  convolution_param {
    num_output: 3
    kernel_size: 1
  }
}
layer {
  name: "upscore2-new"
  type: "Deconvolution"
  bottom: "score_fr-new"
  top: "upscore2-new"
  param {
    lr_mult: 0
  }
  convolution_param {
    num_output: 3
    bias_term: false
    kernel_size: 4
    stride: 2
  }
}
layer {
  name: "score_pool4-new"
  type: "Convolution"
  bottom: "pool4"
  top: "score_pool4-new"
  param {
    lr_mult: 1
    decay_mult: 1
  }
  param {
    lr_mult: 2
    decay_mult: 0
  }
  convolution_param {
    num_output: 3
    pad: 0
    kernel_size: 1
  }
}
layer {
  name: "score_pool4c"
  type: "Crop"
  bottom: "score_pool4-new"
  bottom: "upscore2-new"
  top: "score_pool4c"
  crop_param {
    axis: 2
    offset: 5
  }
}
layer {
  name: "fuse_pool4"
  type: "Eltwise"
  bottom: "upscore2-new"
  bottom: "score_pool4c"
  top: "fuse_pool4"
  eltwise_param {
    operation: SUM
  }
}
layer {
  name: "upscore_pool4-new"
  type: "Deconvolution"
  bottom: "fuse_pool4"
  top: "upscore_pool4-new"
  param {
    lr_mult: 0
  }
  convolution_param {
    num_output: 3
    bias_term: false
    kernel_size: 4
    stride: 2
  }
}
layer {
  name: "score_pool3-new"
  type: "Convolution"
  bottom: "pool3"
  top: "score_pool3-new"
  param {
    lr_mult: 1
    decay_mult: 1
  }
  param {
    lr_mult: 2
    decay_mult: 0
  }
  convolution_param {
    num_output: 3
    pad: 0
    kernel_size: 1
  }
}
layer {
  name: "score_pool3c"
  type: "Crop"
  bottom: "score_pool3-new"
  bottom: "upscore_pool4-new"
  top: "score_pool3c"
  crop_param {
    axis: 2
    offset: 9
  }
}
layer {
  name: "fuse_pool3"
  type: "Eltwise"
  bottom: "upscore_pool4-new"
  bottom: "score_pool3c"
  top: "fuse_pool3"
  eltwise_param {
    operation: SUM
  }
}
layer {
  name: "upscore8-new"
  type: "Deconvolution"
  bottom: "fuse_pool3"
  top: "upscore8-new"
  param {
    lr_mult: 0
  }
  convolution_param {
    num_output: 3
    bias_term: false
    kernel_size: 16
    stride: 8
  }
}
layer {
  name: "upscore8_cropped"
  type: "Crop"
  bottom: "upscore8-new"
  bottom: "data"
  top: "upscore8_cropped"
  crop_param {
    axis: 2
    offset: 31
  }
}
layer {
  name: "prob"
  type: "Sigmoid"
  bottom: "upscore8_cropped"
  top: "prob"
}
layer {
  name: "saliency1"
  type: "Convolution"
  bottom: "prob"
  top: "saliency1"
  param {
    lr_mult: 10
    decay_mult: 1
  }
  param {
    lr_mult: 20
    decay_mult: 0
  }
  convolution_param {
    num_output: 3
    pad: 1
    kernel_size: 3
    stride: 1
    weight_filler {
      type: "xavier"
    }
    bias_filler {
      type: "constant"
      value: 1
    }
  }
}
layer {
  name: "relu_saliency1"
  type: "ReLU"
  bottom: "saliency1"
  top: "saliency1"
}
layer {
  name: "saliency"
  type: "Convolution"
  bottom: "saliency1"
  top: "saliency"
  param {
    lr_mult: 10
    decay_mult: 1
  }
  param {
    lr_mult: 20
    decay_mult: 0
  }
  convolution_param {
    num_output: 3
    pad: 2
    kernel_size: 5
    stride: 1
    weight_filler {
      type: "xavier"
    }
    bias_filler {
      type: "constant"
      value: 1
    }
  }
}
layer {
  name: "saliency_data"
  type: "Eltwise"
  bottom: "data"
  bottom: "saliency"
  top: "saliency_data"
  eltwise_param {
    operation: PROD
  }
}
layer {
  name: "crop"
  type: "Python"
  bottom: "prob"
  bottom: "saliency_data"
  bottom: "crop_margin"
  bottom: "crop_prob"
  bottom: "crop_sample_batch"
  bottom: "label"
  top: "data-R"
  top: "crop_info"
  python_param {
    module: "Crop"
    layer: "CropLayer"
    param_str: "{\"TEST\": 0}"
  }
}
layer {
  name: "conv1_1-R"
  type: "Convolution"
  bottom: "data-R"
  top: "conv1_1-R"
  param {
    lr_mult: 10
    decay_mult: 1
  }
  param {
    lr_mult: 20
    decay_mult: 0
  }
  convolution_param {
    num_output: 64
    pad: 100
    kernel_size: 3
    stride: 1
  }
}
layer {
  name: "relu1_1-R"
  type: "ReLU"
  bottom: "conv1_1-R"
  top: "conv1_1-R"
}
layer {
  name: "conv1_2-R"
  type: "Convolution"
  bottom: "conv1_1-R"
  top: "conv1_2-R"
  param {
    lr_mult: 10
    decay_mult: 1
  }
  param {
    lr_mult: 20
    decay_mult: 0
  }
  convolution_param {
    num_output: 64
    pad: 1
    kernel_size: 3
    stride: 1
  }
}
layer {
  name: "relu1_2-R"
  type: "ReLU"
  bottom: "conv1_2-R"
  top: "conv1_2-R"
}
layer {
  name: "pool1-R"
  type: "Pooling"
  bottom: "conv1_2-R"
  top: "pool1-R"
  pooling_param {
    pool: MAX
    kernel_size: 2
    stride: 2
  }
}
layer {
  name: "conv2_1-R"
  type: "Convolution"
  bottom: "pool1-R"
  top: "conv2_1-R"
  param {
    lr_mult: 10
    decay_mult: 1
  }
  param {
    lr_mult: 20
    decay_mult: 0
  }
  convolution_param {
    num_output: 128
    pad: 1
    kernel_size: 3
    stride: 1
  }
}
layer {
  name: "relu2_1-R"
  type: "ReLU"
  bottom: "conv2_1-R"
  top: "conv2_1-R"
}
layer {
  name: "conv2_2-R"
  type: "Convolution"
  bottom: "conv2_1-R"
  top: "conv2_2-R"
  param {
    lr_mult: 10
    decay_mult: 1
  }
  param {
    lr_mult: 20
    decay_mult: 0
  }
  convolution_param {
    num_output: 128
    pad: 1
    kernel_size: 3
    stride: 1
  }
}
layer {
  name: "relu2_2-R"
  type: "ReLU"
  bottom: "conv2_2-R"
  top: "conv2_2-R"
}
layer {
  name: "pool2-R"
  type: "Pooling"
  bottom: "conv2_2-R"
  top: "pool2-R"
  pooling_param {
    pool: MAX
    kernel_size: 2
    stride: 2
  }
}
layer {
  name: "conv3_1-R"
  type: "Convolution"
  bottom: "pool2-R"
  top: "conv3_1-R"
  param {
    lr_mult: 10
    decay_mult: 1
  }
  param {
    lr_mult: 20
    decay_mult: 0
  }
  convolution_param {
    num_output: 256
    pad: 1
    kernel_size: 3
    stride: 1
  }
}
layer {
  name: "relu3_1-R"
  type: "ReLU"
  bottom: "conv3_1-R"
  top: "conv3_1-R"
}
layer {
  name: "conv3_2-R"
  type: "Convolution"
  bottom: "conv3_1-R"
  top: "conv3_2-R"
  param {
    lr_mult: 10
    decay_mult: 1
  }
  param {
    lr_mult: 20
    decay_mult: 0
  }
  convolution_param {
    num_output: 256
    pad: 1
    kernel_size: 3
    stride: 1
  }
}
layer {
  name: "relu3_2-R"
  type: "ReLU"
  bottom: "conv3_2-R"
  top: "conv3_2-R"
}
layer {
  name: "conv3_3-R"
  type: "Convolution"
  bottom: "conv3_2-R"
  top: "conv3_3-R"
  param {
    lr_mult: 10
    decay_mult: 1
  }
  param {
    lr_mult: 20
    decay_mult: 0
  }
  convolution_param {
    num_output: 256
    pad: 1
    kernel_size: 3
    stride: 1
  }
}
layer {
  name: "relu3_3-R"
  type: "ReLU"
  bottom: "conv3_3-R"
  top: "conv3_3-R"
}
layer {
  name: "pool3-R"
  type: "Pooling"
  bottom: "conv3_3-R"
  top: "pool3-R"
  pooling_param {
    pool: MAX
    kernel_size: 2
    stride: 2
  }
}
layer {
  name: "conv4_1-R"
  type: "Convolution"
  bottom: "pool3-R"
  top: "conv4_1-R"
  param {
    lr_mult: 10
    decay_mult: 1
  }
  param {
    lr_mult: 20
    decay_mult: 0
  }
  convolution_param {
    num_output: 512
    pad: 1
    kernel_size: 3
    stride: 1
  }
}
layer {
  name: "relu4_1-R"
  type: "ReLU"
  bottom: "conv4_1-R"
  top: "conv4_1-R"
}
layer {
  name: "conv4_2-R"
  type: "Convolution"
  bottom: "conv4_1-R"
  top: "conv4_2-R"
  param {
    lr_mult: 10
    decay_mult: 1
  }
  param {
    lr_mult: 20
    decay_mult: 0
  }
  convolution_param {
    num_output: 512
    pad: 1
    kernel_size: 3
    stride: 1
  }
}
layer {
  name: "relu4_2-R"
  type: "ReLU"
  bottom: "conv4_2-R"
  top: "conv4_2-R"
}
layer {
  name: "conv4_3-R"
  type: "Convolution"
  bottom: "conv4_2-R"
  top: "conv4_3-R"
  param {
    lr_mult: 10
    decay_mult: 1
  }
  param {
    lr_mult: 20
    decay_mult: 0
  }
  convolution_param {
    num_output: 512
    pad: 1
    kernel_size: 3
    stride: 1
  }
}
layer {
  name: "relu4_3-R"
  type: "ReLU"
  bottom: "conv4_3-R"
  top: "conv4_3-R"
}
layer {
  name: "pool4-R"
  type: "Pooling"
  bottom: "conv4_3-R"
  top: "pool4-R"
  pooling_param {
    pool: MAX
    kernel_size: 2
    stride: 2
  }
}
layer {
  name: "conv5_1-R"
  type: "Convolution"
  bottom: "pool4-R"
  top: "conv5_1-R"
  param {
    lr_mult: 10
    decay_mult: 1
  }
  param {
    lr_mult: 20
    decay_mult: 0
  }
  convolution_param {
    num_output: 512
    pad: 1
    kernel_size: 3
    stride: 1
  }
}
layer {
  name: "relu5_1-R"
  type: "ReLU"
  bottom: "conv5_1-R"
  top: "conv5_1-R"
}
layer {
  name: "conv5_2-R"
  type: "Convolution"
  bottom: "conv5_1-R"
  top: "conv5_2-R"
  param {
    lr_mult: 10
    decay_mult: 1
  }
  param {
    lr_mult: 20
    decay_mult: 0
  }
  convolution_param {
    num_output: 512
    pad: 1
    kernel_size: 3
    stride: 1
  }
}
layer {
  name: "relu5_2-R"
  type: "ReLU"
  bottom: "conv5_2-R"
  top: "conv5_2-R"
}
layer {
  name: "conv5_3-R"
  type: "Convolution"
  bottom: "conv5_2-R"
  top: "conv5_3-R"
  param {
    lr_mult: 10
    decay_mult: 1
  }
  param {
    lr_mult: 20
    decay_mult: 0
  }
  convolution_param {
    num_output: 512
    pad: 1
    kernel_size: 3
    stride: 1
  }
}
layer {
  name: "relu5_3-R"
  type: "ReLU"
  bottom: "conv5_3-R"
  top: "conv5_3-R"
}
layer {
  name: "pool5-R"
  type: "Pooling"
  bottom: "conv5_3-R"
  top: "pool5-R"
  pooling_param {
    pool: MAX
    kernel_size: 2
    stride: 2
  }
}
layer {
  name: "fc6-R"
  type: "Convolution"
  bottom: "pool5-R"
  top: "fc6-R"
  param {
    lr_mult: 10
    decay_mult: 1
  }
  param {
    lr_mult: 20
    decay_mult: 0
  }
  convolution_param {
    num_output: 4096
    pad: 0
    kernel_size: 7
    stride: 1
  }
}
layer {
  name: "relu6-R"
  type: "ReLU"
  bottom: "fc6-R"
  top: "fc6-R"
}
layer {
  name: "drop6-R"
  type: "Dropout"
  bottom: "fc6-R"
  top: "fc6-R"
  dropout_param {
    dropout_ratio: 0.5
  }
}
layer {
  name: "fc7-R"
  type: "Convolution"
  bottom: "fc6-R"
  top: "fc7-R"
  param {
    lr_mult: 10
    decay_mult: 1
  }
  param {
    lr_mult: 20
    decay_mult: 0
  }
  convolution_param {
    num_output: 4096
    pad: 0
    kernel_size: 1
    stride: 1
  }
}
layer {
  name: "relu7-R"
  type: "ReLU"
  bottom: "fc7-R"
  top: "fc7-R"
}
layer {
  name: "drop7-R"
  type: "Dropout"
  bottom: "fc7-R"
  top: "fc7-R"
  dropout_param {
    dropout_ratio: 0.5
  }
}
layer {
  name: "score_fr-new-R"
  type: "Convolution"
  bottom: "fc7-R"
  top: "score_fr-new-R"
  param {
    lr_mult: 10
    decay_mult: 1
  }
  param {
    lr_mult: 20
    decay_mult: 0
  }
  convolution_param {
    num_output: 3
    kernel_size: 1
  }
}
layer {
  name: "upscore2-new-R"
  type: "Deconvolution"
  bottom: "score_fr-new-R"
  top: "upscore2-new-R"
  param {
    lr_mult: 0
  }
  convolution_param {
    num_output: 3
    bias_term: false
    kernel_size: 4
    stride: 2
  }
}
layer {
  name: "score_pool4-new-R"
  type: "Convolution"
  bottom: "pool4-R"
  top: "score_pool4-new-R"
  param {
    lr_mult: 10
    decay_mult: 1
  }
  param {
    lr_mult: 20
    decay_mult: 0
  }
  convolution_param {
    num_output: 3
    pad: 0
    kernel_size: 1
  }
}
layer {
  name: "score_pool4c-R"
  type: "Crop"
  bottom: "score_pool4-new-R"
  bottom: "upscore2-new-R"
  top: "score_pool4c-R"
  crop_param {
    axis: 2
    offset: 5
  }
}
layer {
  name: "fuse_pool4-R"
  type: "Eltwise"
  bottom: "upscore2-new-R"
  bottom: "score_pool4c-R"
  top: "fuse_pool4-R"
  eltwise_param {
    operation: SUM
  }
}
layer {
  name: "upscore_pool4-new-R"
  type: "Deconvolution"
  bottom: "fuse_pool4-R"
  top: "upscore_pool4-new-R"
  param {
    lr_mult: 0
  }
  convolution_param {
    num_output: 3
    bias_term: false
    kernel_size: 4
    stride: 2
  }
}
layer {
  name: "score_pool3-new-R"
  type: "Convolution"
  bottom: "pool3-R"
  top: "score_pool3-new-R"
  param {
    lr_mult: 10
    decay_mult: 1
  }
  param {
    lr_mult: 20
    decay_mult: 0
  }
  convolution_param {
    num_output: 3
    pad: 0
    kernel_size: 1
  }
}
layer {
  name: "score_pool3c-R"
  type: "Crop"
  bottom: "score_pool3-new-R"
  bottom: "upscore_pool4-new-R"
  top: "score_pool3c-R"
  crop_param {
    axis: 2
    offset: 9
  }
}
layer {
  name: "fuse_pool3-R"
  type: "Eltwise"
  bottom: "upscore_pool4-new-R"
  bottom: "score_pool3c-R"
  top: "fuse_pool3-R"
  eltwise_param {
    operation: SUM
  }
}
layer {
  name: "upscore8-new-R"
  type: "Deconvolution"
  bottom: "fuse_pool3-R"
  top: "upscore8-new-R"
  param {
    lr_mult: 0
  }
  convolution_param {
    num_output: 3
    bias_term: false
    kernel_size: 16
    stride: 8
  }
}
layer {
  name: "upscore8_cropped-R"
  type: "Crop"
  bottom: "upscore8-new-R"
  bottom: "data-R"
  top: "upscore8_cropped-R"
  crop_param {
    axis: 2
    offset: 31
  }
}
layer {
  name: "upscore8_uncropped-R"
  type: "Python"
  bottom: "crop_info"
  bottom: "upscore8_cropped-R"
  bottom: "data"
  top: "upscore8_uncropped-R"
  python_param {
    module: "Uncrop"
    layer: "UncropLayer"
  }
}
layer {
  name: "loss1"
  type: "DiceLoss"
  bottom: "upscore8_cropped"
  bottom: "label"
  top: "loss1"
  loss_weight: 0.333333
}
layer {
  name: "loss2"
  type: "DiceLoss"
  bottom: "upscore8_uncropped-R"
  bottom: "label"
  top: "loss2"
  loss_weight: 0.666667
}
I0716 00:01:33.392284 14875 layer_factory.hpp:77] Creating layer data
I0716 00:01:33.392658 14875 net.cpp:84] Creating Layer data
I0716 00:01:33.392674 14875 net.cpp:380] data -> data
I0716 00:01:33.392693 14875 net.cpp:380] data -> label
I0716 00:01:33.392700 14875 net.cpp:380] data -> crop_margin
I0716 00:01:33.392707 14875 net.cpp:380] data -> crop_prob
I0716 00:01:33.392714 14875 net.cpp:380] data -> crop_sample_batch
I0716 00:01:33.591145 14875 net.cpp:122] Setting up data
I0716 00:01:33.591228 14875 net.cpp:129] Top shape: 1 3 512 251 (385536)
I0716 00:01:33.591238 14875 net.cpp:129] Top shape: 1 3 512 251 (385536)
I0716 00:01:33.591243 14875 net.cpp:129] Top shape: 1 (1)
I0716 00:01:33.591248 14875 net.cpp:129] Top shape: 1 (1)
I0716 00:01:33.591253 14875 net.cpp:129] Top shape: 1 (1)
I0716 00:01:33.591258 14875 net.cpp:137] Memory required for data: 3084300
I0716 00:01:33.591303 14875 layer_factory.hpp:77] Creating layer data_data_0_split
I0716 00:01:33.591346 14875 net.cpp:84] Creating Layer data_data_0_split
I0716 00:01:33.591361 14875 net.cpp:406] data_data_0_split <- data
I0716 00:01:33.591377 14875 net.cpp:380] data_data_0_split -> data_data_0_split_0
I0716 00:01:33.591403 14875 net.cpp:380] data_data_0_split -> data_data_0_split_1
I0716 00:01:33.591411 14875 net.cpp:380] data_data_0_split -> data_data_0_split_2
I0716 00:01:33.591423 14875 net.cpp:380] data_data_0_split -> data_data_0_split_3
I0716 00:01:33.591485 14875 net.cpp:122] Setting up data_data_0_split
I0716 00:01:33.591495 14875 net.cpp:129] Top shape: 1 3 512 251 (385536)
I0716 00:01:33.591500 14875 net.cpp:129] Top shape: 1 3 512 251 (385536)
I0716 00:01:33.591504 14875 net.cpp:129] Top shape: 1 3 512 251 (385536)
I0716 00:01:33.591509 14875 net.cpp:129] Top shape: 1 3 512 251 (385536)
I0716 00:01:33.591513 14875 net.cpp:137] Memory required for data: 9252876
I0716 00:01:33.591517 14875 layer_factory.hpp:77] Creating layer label_data_1_split
I0716 00:01:33.591524 14875 net.cpp:84] Creating Layer label_data_1_split
I0716 00:01:33.591528 14875 net.cpp:406] label_data_1_split <- label
I0716 00:01:33.591534 14875 net.cpp:380] label_data_1_split -> label_data_1_split_0
I0716 00:01:33.591548 14875 net.cpp:380] label_data_1_split -> label_data_1_split_1
I0716 00:01:33.591554 14875 net.cpp:380] label_data_1_split -> label_data_1_split_2
I0716 00:01:33.591593 14875 net.cpp:122] Setting up label_data_1_split
I0716 00:01:33.591599 14875 net.cpp:129] Top shape: 1 3 512 251 (385536)
I0716 00:01:33.591604 14875 net.cpp:129] Top shape: 1 3 512 251 (385536)
I0716 00:01:33.591609 14875 net.cpp:129] Top shape: 1 3 512 251 (385536)
I0716 00:01:33.591612 14875 net.cpp:137] Memory required for data: 13879308
I0716 00:01:33.591617 14875 layer_factory.hpp:77] Creating layer conv1_1
I0716 00:01:33.591665 14875 net.cpp:84] Creating Layer conv1_1
I0716 00:01:33.591670 14875 net.cpp:406] conv1_1 <- data_data_0_split_0
I0716 00:01:33.591676 14875 net.cpp:380] conv1_1 -> conv1_1
I0716 00:01:33.975364 14875 net.cpp:122] Setting up conv1_1
I0716 00:01:33.975422 14875 net.cpp:129] Top shape: 1 64 710 449 (20402560)
I0716 00:01:33.975428 14875 net.cpp:137] Memory required for data: 95489548
I0716 00:01:33.975466 14875 layer_factory.hpp:77] Creating layer relu1_1
I0716 00:01:33.975502 14875 net.cpp:84] Creating Layer relu1_1
I0716 00:01:33.975510 14875 net.cpp:406] relu1_1 <- conv1_1
I0716 00:01:33.975518 14875 net.cpp:367] relu1_1 -> conv1_1 (in-place)
I0716 00:01:33.975745 14875 net.cpp:122] Setting up relu1_1
I0716 00:01:33.975756 14875 net.cpp:129] Top shape: 1 64 710 449 (20402560)
I0716 00:01:33.975761 14875 net.cpp:137] Memory required for data: 177099788
I0716 00:01:33.975775 14875 layer_factory.hpp:77] Creating layer conv1_2
I0716 00:01:33.975790 14875 net.cpp:84] Creating Layer conv1_2
I0716 00:01:33.975795 14875 net.cpp:406] conv1_2 <- conv1_1
I0716 00:01:33.975802 14875 net.cpp:380] conv1_2 -> conv1_2
I0716 00:01:33.992679 14875 net.cpp:122] Setting up conv1_2
I0716 00:01:33.992722 14875 net.cpp:129] Top shape: 1 64 710 449 (20402560)
I0716 00:01:33.992727 14875 net.cpp:137] Memory required for data: 258710028
I0716 00:01:33.992743 14875 layer_factory.hpp:77] Creating layer relu1_2
I0716 00:01:33.992755 14875 net.cpp:84] Creating Layer relu1_2
I0716 00:01:33.992761 14875 net.cpp:406] relu1_2 <- conv1_2
I0716 00:01:33.992772 14875 net.cpp:367] relu1_2 -> conv1_2 (in-place)
I0716 00:01:33.993010 14875 net.cpp:122] Setting up relu1_2
I0716 00:01:33.993022 14875 net.cpp:129] Top shape: 1 64 710 449 (20402560)
I0716 00:01:33.993026 14875 net.cpp:137] Memory required for data: 340320268
I0716 00:01:33.993033 14875 layer_factory.hpp:77] Creating layer pool1
I0716 00:01:33.993044 14875 net.cpp:84] Creating Layer pool1
I0716 00:01:33.993062 14875 net.cpp:406] pool1 <- conv1_2
I0716 00:01:33.993070 14875 net.cpp:380] pool1 -> pool1
I0716 00:01:33.993134 14875 net.cpp:122] Setting up pool1
I0716 00:01:33.993142 14875 net.cpp:129] Top shape: 1 64 355 225 (5112000)
I0716 00:01:33.993146 14875 net.cpp:137] Memory required for data: 360768268
I0716 00:01:33.993150 14875 layer_factory.hpp:77] Creating layer conv2_1
I0716 00:01:33.993165 14875 net.cpp:84] Creating Layer conv2_1
I0716 00:01:33.993173 14875 net.cpp:406] conv2_1 <- pool1
I0716 00:01:33.993180 14875 net.cpp:380] conv2_1 -> conv2_1
I0716 00:01:33.998553 14875 net.cpp:122] Setting up conv2_1
I0716 00:01:33.998572 14875 net.cpp:129] Top shape: 1 128 355 225 (10224000)
I0716 00:01:33.998589 14875 net.cpp:137] Memory required for data: 401664268
I0716 00:01:33.998600 14875 layer_factory.hpp:77] Creating layer relu2_1
I0716 00:01:33.998623 14875 net.cpp:84] Creating Layer relu2_1
I0716 00:01:33.998628 14875 net.cpp:406] relu2_1 <- conv2_1
I0716 00:01:33.998634 14875 net.cpp:367] relu2_1 -> conv2_1 (in-place)
I0716 00:01:33.998853 14875 net.cpp:122] Setting up relu2_1
I0716 00:01:33.998865 14875 net.cpp:129] Top shape: 1 128 355 225 (10224000)
I0716 00:01:33.998869 14875 net.cpp:137] Memory required for data: 442560268
I0716 00:01:33.998874 14875 layer_factory.hpp:77] Creating layer conv2_2
I0716 00:01:33.998898 14875 net.cpp:84] Creating Layer conv2_2
I0716 00:01:33.998903 14875 net.cpp:406] conv2_2 <- conv2_1
I0716 00:01:33.998913 14875 net.cpp:380] conv2_2 -> conv2_2
I0716 00:01:34.005234 14875 net.cpp:122] Setting up conv2_2
I0716 00:01:34.005280 14875 net.cpp:129] Top shape: 1 128 355 225 (10224000)
I0716 00:01:34.005290 14875 net.cpp:137] Memory required for data: 483456268
I0716 00:01:34.005321 14875 layer_factory.hpp:77] Creating layer relu2_2
I0716 00:01:34.005333 14875 net.cpp:84] Creating Layer relu2_2
I0716 00:01:34.005352 14875 net.cpp:406] relu2_2 <- conv2_2
I0716 00:01:34.005369 14875 net.cpp:367] relu2_2 -> conv2_2 (in-place)
I0716 00:01:34.005775 14875 net.cpp:122] Setting up relu2_2
I0716 00:01:34.005806 14875 net.cpp:129] Top shape: 1 128 355 225 (10224000)
I0716 00:01:34.005815 14875 net.cpp:137] Memory required for data: 524352268
I0716 00:01:34.005831 14875 layer_factory.hpp:77] Creating layer pool2
I0716 00:01:34.005848 14875 net.cpp:84] Creating Layer pool2
I0716 00:01:34.005856 14875 net.cpp:406] pool2 <- conv2_2
I0716 00:01:34.005867 14875 net.cpp:380] pool2 -> pool2
I0716 00:01:34.005947 14875 net.cpp:122] Setting up pool2
I0716 00:01:34.005961 14875 net.cpp:129] Top shape: 1 128 178 113 (2574592)
I0716 00:01:34.005975 14875 net.cpp:137] Memory required for data: 534650636
I0716 00:01:34.005980 14875 layer_factory.hpp:77] Creating layer conv3_1
I0716 00:01:34.005995 14875 net.cpp:84] Creating Layer conv3_1
I0716 00:01:34.006006 14875 net.cpp:406] conv3_1 <- pool2
I0716 00:01:34.006016 14875 net.cpp:380] conv3_1 -> conv3_1
I0716 00:01:34.014461 14875 net.cpp:122] Setting up conv3_1
I0716 00:01:34.014520 14875 net.cpp:129] Top shape: 1 256 178 113 (5149184)
I0716 00:01:34.014525 14875 net.cpp:137] Memory required for data: 555247372
I0716 00:01:34.014559 14875 layer_factory.hpp:77] Creating layer relu3_1
I0716 00:01:34.014624 14875 net.cpp:84] Creating Layer relu3_1
I0716 00:01:34.014631 14875 net.cpp:406] relu3_1 <- conv3_1
I0716 00:01:34.014650 14875 net.cpp:367] relu3_1 -> conv3_1 (in-place)
I0716 00:01:34.016140 14875 net.cpp:122] Setting up relu3_1
I0716 00:01:34.016180 14875 net.cpp:129] Top shape: 1 256 178 113 (5149184)
I0716 00:01:34.016188 14875 net.cpp:137] Memory required for data: 575844108
I0716 00:01:34.016211 14875 layer_factory.hpp:77] Creating layer conv3_2
I0716 00:01:34.016243 14875 net.cpp:84] Creating Layer conv3_2
I0716 00:01:34.016252 14875 net.cpp:406] conv3_2 <- conv3_1
I0716 00:01:34.016266 14875 net.cpp:380] conv3_2 -> conv3_2
I0716 00:01:34.022225 14875 net.cpp:122] Setting up conv3_2
I0716 00:01:34.022276 14875 net.cpp:129] Top shape: 1 256 178 113 (5149184)
I0716 00:01:34.022295 14875 net.cpp:137] Memory required for data: 596440844
I0716 00:01:34.022311 14875 layer_factory.hpp:77] Creating layer relu3_2
I0716 00:01:34.022354 14875 net.cpp:84] Creating Layer relu3_2
I0716 00:01:34.022375 14875 net.cpp:406] relu3_2 <- conv3_2
I0716 00:01:34.022398 14875 net.cpp:367] relu3_2 -> conv3_2 (in-place)
I0716 00:01:34.023504 14875 net.cpp:122] Setting up relu3_2
I0716 00:01:34.023517 14875 net.cpp:129] Top shape: 1 256 178 113 (5149184)
I0716 00:01:34.023536 14875 net.cpp:137] Memory required for data: 617037580
I0716 00:01:34.023540 14875 layer_factory.hpp:77] Creating layer conv3_3
I0716 00:01:34.023551 14875 net.cpp:84] Creating Layer conv3_3
I0716 00:01:34.023555 14875 net.cpp:406] conv3_3 <- conv3_2
I0716 00:01:34.023563 14875 net.cpp:380] conv3_3 -> conv3_3
I0716 00:01:34.026937 14875 net.cpp:122] Setting up conv3_3
I0716 00:01:34.026952 14875 net.cpp:129] Top shape: 1 256 178 113 (5149184)
I0716 00:01:34.026973 14875 net.cpp:137] Memory required for data: 637634316
I0716 00:01:34.026980 14875 layer_factory.hpp:77] Creating layer relu3_3
I0716 00:01:34.026995 14875 net.cpp:84] Creating Layer relu3_3
I0716 00:01:34.027000 14875 net.cpp:406] relu3_3 <- conv3_3
I0716 00:01:34.027006 14875 net.cpp:367] relu3_3 -> conv3_3 (in-place)
I0716 00:01:34.027235 14875 net.cpp:122] Setting up relu3_3
I0716 00:01:34.027245 14875 net.cpp:129] Top shape: 1 256 178 113 (5149184)
I0716 00:01:34.027248 14875 net.cpp:137] Memory required for data: 658231052
I0716 00:01:34.027259 14875 layer_factory.hpp:77] Creating layer pool3
I0716 00:01:34.027268 14875 net.cpp:84] Creating Layer pool3
I0716 00:01:34.027272 14875 net.cpp:406] pool3 <- conv3_3
I0716 00:01:34.027287 14875 net.cpp:380] pool3 -> pool3
I0716 00:01:34.027335 14875 net.cpp:122] Setting up pool3
I0716 00:01:34.027341 14875 net.cpp:129] Top shape: 1 256 89 57 (1298688)
I0716 00:01:34.027344 14875 net.cpp:137] Memory required for data: 663425804
I0716 00:01:34.027348 14875 layer_factory.hpp:77] Creating layer pool3_pool3_0_split
I0716 00:01:34.027355 14875 net.cpp:84] Creating Layer pool3_pool3_0_split
I0716 00:01:34.027359 14875 net.cpp:406] pool3_pool3_0_split <- pool3
I0716 00:01:34.027365 14875 net.cpp:380] pool3_pool3_0_split -> pool3_pool3_0_split_0
I0716 00:01:34.027372 14875 net.cpp:380] pool3_pool3_0_split -> pool3_pool3_0_split_1
I0716 00:01:34.027405 14875 net.cpp:122] Setting up pool3_pool3_0_split
I0716 00:01:34.027410 14875 net.cpp:129] Top shape: 1 256 89 57 (1298688)
I0716 00:01:34.027413 14875 net.cpp:129] Top shape: 1 256 89 57 (1298688)
I0716 00:01:34.027416 14875 net.cpp:137] Memory required for data: 673815308
I0716 00:01:34.027420 14875 layer_factory.hpp:77] Creating layer conv4_1
I0716 00:01:34.027428 14875 net.cpp:84] Creating Layer conv4_1
I0716 00:01:34.027431 14875 net.cpp:406] conv4_1 <- pool3_pool3_0_split_0
I0716 00:01:34.027437 14875 net.cpp:380] conv4_1 -> conv4_1
I0716 00:01:34.036437 14875 net.cpp:122] Setting up conv4_1
I0716 00:01:34.036460 14875 net.cpp:129] Top shape: 1 512 89 57 (2597376)
I0716 00:01:34.036473 14875 net.cpp:137] Memory required for data: 684204812
I0716 00:01:34.036484 14875 layer_factory.hpp:77] Creating layer relu4_1
I0716 00:01:34.036504 14875 net.cpp:84] Creating Layer relu4_1
I0716 00:01:34.036510 14875 net.cpp:406] relu4_1 <- conv4_1
I0716 00:01:34.036520 14875 net.cpp:367] relu4_1 -> conv4_1 (in-place)
I0716 00:01:34.036789 14875 net.cpp:122] Setting up relu4_1
I0716 00:01:34.036803 14875 net.cpp:129] Top shape: 1 512 89 57 (2597376)
I0716 00:01:34.036808 14875 net.cpp:137] Memory required for data: 694594316
I0716 00:01:34.036823 14875 layer_factory.hpp:77] Creating layer conv4_2
I0716 00:01:34.036834 14875 net.cpp:84] Creating Layer conv4_2
I0716 00:01:34.036839 14875 net.cpp:406] conv4_2 <- conv4_1
I0716 00:01:34.036850 14875 net.cpp:380] conv4_2 -> conv4_2
I0716 00:01:34.046461 14875 net.cpp:122] Setting up conv4_2
I0716 00:01:34.046484 14875 net.cpp:129] Top shape: 1 512 89 57 (2597376)
I0716 00:01:34.046496 14875 net.cpp:137] Memory required for data: 704983820
I0716 00:01:34.046514 14875 layer_factory.hpp:77] Creating layer relu4_2
I0716 00:01:34.046535 14875 net.cpp:84] Creating Layer relu4_2
I0716 00:01:34.046541 14875 net.cpp:406] relu4_2 <- conv4_2
I0716 00:01:34.046561 14875 net.cpp:367] relu4_2 -> conv4_2 (in-place)
I0716 00:01:34.046810 14875 net.cpp:122] Setting up relu4_2
I0716 00:01:34.046823 14875 net.cpp:129] Top shape: 1 512 89 57 (2597376)
I0716 00:01:34.046828 14875 net.cpp:137] Memory required for data: 715373324
I0716 00:01:34.046833 14875 layer_factory.hpp:77] Creating layer conv4_3
I0716 00:01:34.046844 14875 net.cpp:84] Creating Layer conv4_3
I0716 00:01:34.046849 14875 net.cpp:406] conv4_3 <- conv4_2
I0716 00:01:34.046859 14875 net.cpp:380] conv4_3 -> conv4_3
I0716 00:01:34.054298 14875 net.cpp:122] Setting up conv4_3
I0716 00:01:34.054337 14875 net.cpp:129] Top shape: 1 512 89 57 (2597376)
I0716 00:01:34.054342 14875 net.cpp:137] Memory required for data: 725762828
I0716 00:01:34.054349 14875 layer_factory.hpp:77] Creating layer relu4_3
I0716 00:01:34.054358 14875 net.cpp:84] Creating Layer relu4_3
I0716 00:01:34.054363 14875 net.cpp:406] relu4_3 <- conv4_3
I0716 00:01:34.054369 14875 net.cpp:367] relu4_3 -> conv4_3 (in-place)
I0716 00:01:34.054590 14875 net.cpp:122] Setting up relu4_3
I0716 00:01:34.054600 14875 net.cpp:129] Top shape: 1 512 89 57 (2597376)
I0716 00:01:34.054605 14875 net.cpp:137] Memory required for data: 736152332
I0716 00:01:34.054617 14875 layer_factory.hpp:77] Creating layer pool4
I0716 00:01:34.054631 14875 net.cpp:84] Creating Layer pool4
I0716 00:01:34.054636 14875 net.cpp:406] pool4 <- conv4_3
I0716 00:01:34.054643 14875 net.cpp:380] pool4 -> pool4
I0716 00:01:34.054689 14875 net.cpp:122] Setting up pool4
I0716 00:01:34.054698 14875 net.cpp:129] Top shape: 1 512 45 29 (668160)
I0716 00:01:34.054702 14875 net.cpp:137] Memory required for data: 738824972
I0716 00:01:34.054705 14875 layer_factory.hpp:77] Creating layer pool4_pool4_0_split
I0716 00:01:34.054713 14875 net.cpp:84] Creating Layer pool4_pool4_0_split
I0716 00:01:34.054716 14875 net.cpp:406] pool4_pool4_0_split <- pool4
I0716 00:01:34.054723 14875 net.cpp:380] pool4_pool4_0_split -> pool4_pool4_0_split_0
I0716 00:01:34.054729 14875 net.cpp:380] pool4_pool4_0_split -> pool4_pool4_0_split_1
I0716 00:01:34.054761 14875 net.cpp:122] Setting up pool4_pool4_0_split
I0716 00:01:34.054767 14875 net.cpp:129] Top shape: 1 512 45 29 (668160)
I0716 00:01:34.054771 14875 net.cpp:129] Top shape: 1 512 45 29 (668160)
I0716 00:01:34.054774 14875 net.cpp:137] Memory required for data: 744170252
I0716 00:01:34.054777 14875 layer_factory.hpp:77] Creating layer conv5_1
I0716 00:01:34.054786 14875 net.cpp:84] Creating Layer conv5_1
I0716 00:01:34.054790 14875 net.cpp:406] conv5_1 <- pool4_pool4_0_split_0
I0716 00:01:34.054796 14875 net.cpp:380] conv5_1 -> conv5_1
I0716 00:01:34.061921 14875 net.cpp:122] Setting up conv5_1
I0716 00:01:34.061957 14875 net.cpp:129] Top shape: 1 512 45 29 (668160)
I0716 00:01:34.061961 14875 net.cpp:137] Memory required for data: 746842892
I0716 00:01:34.061969 14875 layer_factory.hpp:77] Creating layer relu5_1
I0716 00:01:34.061977 14875 net.cpp:84] Creating Layer relu5_1
I0716 00:01:34.061982 14875 net.cpp:406] relu5_1 <- conv5_1
I0716 00:01:34.061988 14875 net.cpp:367] relu5_1 -> conv5_1 (in-place)
I0716 00:01:34.062714 14875 net.cpp:122] Setting up relu5_1
I0716 00:01:34.062727 14875 net.cpp:129] Top shape: 1 512 45 29 (668160)
I0716 00:01:34.062747 14875 net.cpp:137] Memory required for data: 749515532
I0716 00:01:34.062759 14875 layer_factory.hpp:77] Creating layer conv5_2
I0716 00:01:34.062770 14875 net.cpp:84] Creating Layer conv5_2
I0716 00:01:34.062774 14875 net.cpp:406] conv5_2 <- conv5_1
I0716 00:01:34.062808 14875 net.cpp:380] conv5_2 -> conv5_2
I0716 00:01:34.072774 14875 net.cpp:122] Setting up conv5_2
I0716 00:01:34.072801 14875 net.cpp:129] Top shape: 1 512 45 29 (668160)
I0716 00:01:34.072808 14875 net.cpp:137] Memory required for data: 752188172
I0716 00:01:34.072819 14875 layer_factory.hpp:77] Creating layer relu5_2
I0716 00:01:34.072839 14875 net.cpp:84] Creating Layer relu5_2
I0716 00:01:34.072844 14875 net.cpp:406] relu5_2 <- conv5_2
I0716 00:01:34.072854 14875 net.cpp:367] relu5_2 -> conv5_2 (in-place)
I0716 00:01:34.073791 14875 net.cpp:122] Setting up relu5_2
I0716 00:01:34.073810 14875 net.cpp:129] Top shape: 1 512 45 29 (668160)
I0716 00:01:34.073817 14875 net.cpp:137] Memory required for data: 754860812
I0716 00:01:34.073823 14875 layer_factory.hpp:77] Creating layer conv5_3
I0716 00:01:34.073837 14875 net.cpp:84] Creating Layer conv5_3
I0716 00:01:34.073844 14875 net.cpp:406] conv5_3 <- conv5_2
I0716 00:01:34.073855 14875 net.cpp:380] conv5_3 -> conv5_3
I0716 00:01:34.083878 14875 net.cpp:122] Setting up conv5_3
I0716 00:01:34.083921 14875 net.cpp:129] Top shape: 1 512 45 29 (668160)
I0716 00:01:34.083926 14875 net.cpp:137] Memory required for data: 757533452
I0716 00:01:34.083935 14875 layer_factory.hpp:77] Creating layer relu5_3
I0716 00:01:34.083946 14875 net.cpp:84] Creating Layer relu5_3
I0716 00:01:34.083951 14875 net.cpp:406] relu5_3 <- conv5_3
I0716 00:01:34.083959 14875 net.cpp:367] relu5_3 -> conv5_3 (in-place)
I0716 00:01:34.084178 14875 net.cpp:122] Setting up relu5_3
I0716 00:01:34.084188 14875 net.cpp:129] Top shape: 1 512 45 29 (668160)
I0716 00:01:34.084192 14875 net.cpp:137] Memory required for data: 760206092
I0716 00:01:34.084210 14875 layer_factory.hpp:77] Creating layer pool5
I0716 00:01:34.084220 14875 net.cpp:84] Creating Layer pool5
I0716 00:01:34.084224 14875 net.cpp:406] pool5 <- conv5_3
I0716 00:01:34.084233 14875 net.cpp:380] pool5 -> pool5
I0716 00:01:34.084286 14875 net.cpp:122] Setting up pool5
I0716 00:01:34.084295 14875 net.cpp:129] Top shape: 1 512 23 15 (176640)
I0716 00:01:34.084300 14875 net.cpp:137] Memory required for data: 760912652
I0716 00:01:34.084302 14875 layer_factory.hpp:77] Creating layer fc6
I0716 00:01:34.084312 14875 net.cpp:84] Creating Layer fc6
I0716 00:01:34.084316 14875 net.cpp:406] fc6 <- pool5
I0716 00:01:34.084323 14875 net.cpp:380] fc6 -> fc6
I0716 00:01:34.410945 14875 net.cpp:122] Setting up fc6
I0716 00:01:34.410995 14875 net.cpp:129] Top shape: 1 4096 17 9 (626688)
I0716 00:01:34.411000 14875 net.cpp:137] Memory required for data: 763419404
I0716 00:01:34.411015 14875 layer_factory.hpp:77] Creating layer relu6
I0716 00:01:34.411031 14875 net.cpp:84] Creating Layer relu6
I0716 00:01:34.411036 14875 net.cpp:406] relu6 <- fc6
I0716 00:01:34.411046 14875 net.cpp:367] relu6 -> fc6 (in-place)
I0716 00:01:34.411285 14875 net.cpp:122] Setting up relu6
I0716 00:01:34.411304 14875 net.cpp:129] Top shape: 1 4096 17 9 (626688)
I0716 00:01:34.411309 14875 net.cpp:137] Memory required for data: 765926156
I0716 00:01:34.411314 14875 layer_factory.hpp:77] Creating layer drop6
I0716 00:01:34.411330 14875 net.cpp:84] Creating Layer drop6
I0716 00:01:34.411335 14875 net.cpp:406] drop6 <- fc6
I0716 00:01:34.411342 14875 net.cpp:367] drop6 -> fc6 (in-place)
I0716 00:01:34.411381 14875 net.cpp:122] Setting up drop6
I0716 00:01:34.411398 14875 net.cpp:129] Top shape: 1 4096 17 9 (626688)
I0716 00:01:34.411409 14875 net.cpp:137] Memory required for data: 768432908
I0716 00:01:34.411417 14875 layer_factory.hpp:77] Creating layer fc7
I0716 00:01:34.411429 14875 net.cpp:84] Creating Layer fc7
I0716 00:01:34.411434 14875 net.cpp:406] fc7 <- fc6
I0716 00:01:34.411440 14875 net.cpp:380] fc7 -> fc7
I0716 00:01:34.467012 14875 net.cpp:122] Setting up fc7
I0716 00:01:34.467057 14875 net.cpp:129] Top shape: 1 4096 17 9 (626688)
I0716 00:01:34.467064 14875 net.cpp:137] Memory required for data: 770939660
I0716 00:01:34.467085 14875 layer_factory.hpp:77] Creating layer relu7
I0716 00:01:34.467106 14875 net.cpp:84] Creating Layer relu7
I0716 00:01:34.467115 14875 net.cpp:406] relu7 <- fc7
I0716 00:01:34.467128 14875 net.cpp:367] relu7 -> fc7 (in-place)
I0716 00:01:34.467392 14875 net.cpp:122] Setting up relu7
I0716 00:01:34.467406 14875 net.cpp:129] Top shape: 1 4096 17 9 (626688)
I0716 00:01:34.467409 14875 net.cpp:137] Memory required for data: 773446412
I0716 00:01:34.467414 14875 layer_factory.hpp:77] Creating layer drop7
I0716 00:01:34.467428 14875 net.cpp:84] Creating Layer drop7
I0716 00:01:34.467432 14875 net.cpp:406] drop7 <- fc7
I0716 00:01:34.467440 14875 net.cpp:367] drop7 -> fc7 (in-place)
I0716 00:01:34.467473 14875 net.cpp:122] Setting up drop7
I0716 00:01:34.467479 14875 net.cpp:129] Top shape: 1 4096 17 9 (626688)
I0716 00:01:34.467484 14875 net.cpp:137] Memory required for data: 775953164
I0716 00:01:34.467489 14875 layer_factory.hpp:77] Creating layer score_fr-new
I0716 00:01:34.467500 14875 net.cpp:84] Creating Layer score_fr-new
I0716 00:01:34.467504 14875 net.cpp:406] score_fr-new <- fc7
I0716 00:01:34.467512 14875 net.cpp:380] score_fr-new -> score_fr-new
I0716 00:01:34.473501 14875 net.cpp:122] Setting up score_fr-new
I0716 00:01:34.473521 14875 net.cpp:129] Top shape: 1 3 17 9 (459)
I0716 00:01:34.473526 14875 net.cpp:137] Memory required for data: 775955000
I0716 00:01:34.473538 14875 layer_factory.hpp:77] Creating layer upscore2-new
I0716 00:01:34.473557 14875 net.cpp:84] Creating Layer upscore2-new
I0716 00:01:34.473563 14875 net.cpp:406] upscore2-new <- score_fr-new
I0716 00:01:34.473572 14875 net.cpp:380] upscore2-new -> upscore2-new
I0716 00:01:34.473814 14875 net.cpp:122] Setting up upscore2-new
I0716 00:01:34.473824 14875 net.cpp:129] Top shape: 1 3 36 20 (2160)
I0716 00:01:34.473829 14875 net.cpp:137] Memory required for data: 775963640
I0716 00:01:34.473845 14875 layer_factory.hpp:77] Creating layer upscore2-new_upscore2-new_0_split
I0716 00:01:34.473855 14875 net.cpp:84] Creating Layer upscore2-new_upscore2-new_0_split
I0716 00:01:34.473860 14875 net.cpp:406] upscore2-new_upscore2-new_0_split <- upscore2-new
I0716 00:01:34.473867 14875 net.cpp:380] upscore2-new_upscore2-new_0_split -> upscore2-new_upscore2-new_0_split_0
I0716 00:01:34.473876 14875 net.cpp:380] upscore2-new_upscore2-new_0_split -> upscore2-new_upscore2-new_0_split_1
I0716 00:01:34.473917 14875 net.cpp:122] Setting up upscore2-new_upscore2-new_0_split
I0716 00:01:34.473928 14875 net.cpp:129] Top shape: 1 3 36 20 (2160)
I0716 00:01:34.473933 14875 net.cpp:129] Top shape: 1 3 36 20 (2160)
I0716 00:01:34.473937 14875 net.cpp:137] Memory required for data: 775980920
I0716 00:01:34.473942 14875 layer_factory.hpp:77] Creating layer score_pool4-new
I0716 00:01:34.473953 14875 net.cpp:84] Creating Layer score_pool4-new
I0716 00:01:34.473958 14875 net.cpp:406] score_pool4-new <- pool4_pool4_0_split_1
I0716 00:01:34.473964 14875 net.cpp:380] score_pool4-new -> score_pool4-new
I0716 00:01:34.475450 14875 net.cpp:122] Setting up score_pool4-new
I0716 00:01:34.475468 14875 net.cpp:129] Top shape: 1 3 45 29 (3915)
I0716 00:01:34.475472 14875 net.cpp:137] Memory required for data: 775996580
I0716 00:01:34.475481 14875 layer_factory.hpp:77] Creating layer score_pool4c
I0716 00:01:34.475495 14875 net.cpp:84] Creating Layer score_pool4c
I0716 00:01:34.475500 14875 net.cpp:406] score_pool4c <- score_pool4-new
I0716 00:01:34.475508 14875 net.cpp:406] score_pool4c <- upscore2-new_upscore2-new_0_split_0
I0716 00:01:34.475515 14875 net.cpp:380] score_pool4c -> score_pool4c
I0716 00:01:34.475554 14875 net.cpp:122] Setting up score_pool4c
I0716 00:01:34.475561 14875 net.cpp:129] Top shape: 1 3 36 20 (2160)
I0716 00:01:34.475565 14875 net.cpp:137] Memory required for data: 776005220
I0716 00:01:34.475569 14875 layer_factory.hpp:77] Creating layer fuse_pool4
I0716 00:01:34.475580 14875 net.cpp:84] Creating Layer fuse_pool4
I0716 00:01:34.475584 14875 net.cpp:406] fuse_pool4 <- upscore2-new_upscore2-new_0_split_1
I0716 00:01:34.475590 14875 net.cpp:406] fuse_pool4 <- score_pool4c
I0716 00:01:34.475596 14875 net.cpp:380] fuse_pool4 -> fuse_pool4
I0716 00:01:34.475630 14875 net.cpp:122] Setting up fuse_pool4
I0716 00:01:34.475636 14875 net.cpp:129] Top shape: 1 3 36 20 (2160)
I0716 00:01:34.475638 14875 net.cpp:137] Memory required for data: 776013860
I0716 00:01:34.475642 14875 layer_factory.hpp:77] Creating layer upscore_pool4-new
I0716 00:01:34.475652 14875 net.cpp:84] Creating Layer upscore_pool4-new
I0716 00:01:34.475656 14875 net.cpp:406] upscore_pool4-new <- fuse_pool4
I0716 00:01:34.475663 14875 net.cpp:380] upscore_pool4-new -> upscore_pool4-new
I0716 00:01:34.475883 14875 net.cpp:122] Setting up upscore_pool4-new
I0716 00:01:34.475893 14875 net.cpp:129] Top shape: 1 3 74 42 (9324)
I0716 00:01:34.475898 14875 net.cpp:137] Memory required for data: 776051156
I0716 00:01:34.475903 14875 layer_factory.hpp:77] Creating layer upscore_pool4-new_upscore_pool4-new_0_split
I0716 00:01:34.475909 14875 net.cpp:84] Creating Layer upscore_pool4-new_upscore_pool4-new_0_split
I0716 00:01:34.475914 14875 net.cpp:406] upscore_pool4-new_upscore_pool4-new_0_split <- upscore_pool4-new
I0716 00:01:34.475921 14875 net.cpp:380] upscore_pool4-new_upscore_pool4-new_0_split -> upscore_pool4-new_upscore_pool4-new_0_split_0
I0716 00:01:34.475929 14875 net.cpp:380] upscore_pool4-new_upscore_pool4-new_0_split -> upscore_pool4-new_upscore_pool4-new_0_split_1
I0716 00:01:34.475970 14875 net.cpp:122] Setting up upscore_pool4-new_upscore_pool4-new_0_split
I0716 00:01:34.475984 14875 net.cpp:129] Top shape: 1 3 74 42 (9324)
I0716 00:01:34.475989 14875 net.cpp:129] Top shape: 1 3 74 42 (9324)
I0716 00:01:34.475993 14875 net.cpp:137] Memory required for data: 776125748
I0716 00:01:34.475997 14875 layer_factory.hpp:77] Creating layer score_pool3-new
I0716 00:01:34.476008 14875 net.cpp:84] Creating Layer score_pool3-new
I0716 00:01:34.476013 14875 net.cpp:406] score_pool3-new <- pool3_pool3_0_split_1
I0716 00:01:34.476020 14875 net.cpp:380] score_pool3-new -> score_pool3-new
I0716 00:01:34.477502 14875 net.cpp:122] Setting up score_pool3-new
I0716 00:01:34.477520 14875 net.cpp:129] Top shape: 1 3 89 57 (15219)
I0716 00:01:34.477525 14875 net.cpp:137] Memory required for data: 776186624
I0716 00:01:34.477533 14875 layer_factory.hpp:77] Creating layer score_pool3c
I0716 00:01:34.477542 14875 net.cpp:84] Creating Layer score_pool3c
I0716 00:01:34.477547 14875 net.cpp:406] score_pool3c <- score_pool3-new
I0716 00:01:34.477555 14875 net.cpp:406] score_pool3c <- upscore_pool4-new_upscore_pool4-new_0_split_0
I0716 00:01:34.477561 14875 net.cpp:380] score_pool3c -> score_pool3c
I0716 00:01:34.477596 14875 net.cpp:122] Setting up score_pool3c
I0716 00:01:34.477602 14875 net.cpp:129] Top shape: 1 3 74 42 (9324)
I0716 00:01:34.477607 14875 net.cpp:137] Memory required for data: 776223920
I0716 00:01:34.477610 14875 layer_factory.hpp:77] Creating layer fuse_pool3
I0716 00:01:34.477620 14875 net.cpp:84] Creating Layer fuse_pool3
I0716 00:01:34.477625 14875 net.cpp:406] fuse_pool3 <- upscore_pool4-new_upscore_pool4-new_0_split_1
I0716 00:01:34.477630 14875 net.cpp:406] fuse_pool3 <- score_pool3c
I0716 00:01:34.477638 14875 net.cpp:380] fuse_pool3 -> fuse_pool3
I0716 00:01:34.477665 14875 net.cpp:122] Setting up fuse_pool3
I0716 00:01:34.477671 14875 net.cpp:129] Top shape: 1 3 74 42 (9324)
I0716 00:01:34.477674 14875 net.cpp:137] Memory required for data: 776261216
I0716 00:01:34.477679 14875 layer_factory.hpp:77] Creating layer upscore8-new
I0716 00:01:34.477686 14875 net.cpp:84] Creating Layer upscore8-new
I0716 00:01:34.477690 14875 net.cpp:406] upscore8-new <- fuse_pool3
I0716 00:01:34.477697 14875 net.cpp:380] upscore8-new -> upscore8-new
I0716 00:01:34.477962 14875 net.cpp:122] Setting up upscore8-new
I0716 00:01:34.477973 14875 net.cpp:129] Top shape: 1 3 600 344 (619200)
I0716 00:01:34.477977 14875 net.cpp:137] Memory required for data: 778738016
I0716 00:01:34.477985 14875 layer_factory.hpp:77] Creating layer upscore8_cropped
I0716 00:01:34.477993 14875 net.cpp:84] Creating Layer upscore8_cropped
I0716 00:01:34.477998 14875 net.cpp:406] upscore8_cropped <- upscore8-new
I0716 00:01:34.478008 14875 net.cpp:406] upscore8_cropped <- data_data_0_split_1
I0716 00:01:34.478015 14875 net.cpp:380] upscore8_cropped -> upscore8_cropped
I0716 00:01:34.478042 14875 net.cpp:122] Setting up upscore8_cropped
I0716 00:01:34.478049 14875 net.cpp:129] Top shape: 1 3 512 251 (385536)
I0716 00:01:34.478052 14875 net.cpp:137] Memory required for data: 780280160
I0716 00:01:34.478055 14875 layer_factory.hpp:77] Creating layer upscore8_cropped_upscore8_cropped_0_split
I0716 00:01:34.478063 14875 net.cpp:84] Creating Layer upscore8_cropped_upscore8_cropped_0_split
I0716 00:01:34.478067 14875 net.cpp:406] upscore8_cropped_upscore8_cropped_0_split <- upscore8_cropped
I0716 00:01:34.478073 14875 net.cpp:380] upscore8_cropped_upscore8_cropped_0_split -> upscore8_cropped_upscore8_cropped_0_split_0
I0716 00:01:34.478081 14875 net.cpp:380] upscore8_cropped_upscore8_cropped_0_split -> upscore8_cropped_upscore8_cropped_0_split_1
I0716 00:01:34.478119 14875 net.cpp:122] Setting up upscore8_cropped_upscore8_cropped_0_split
I0716 00:01:34.478126 14875 net.cpp:129] Top shape: 1 3 512 251 (385536)
I0716 00:01:34.478130 14875 net.cpp:129] Top shape: 1 3 512 251 (385536)
I0716 00:01:34.478134 14875 net.cpp:137] Memory required for data: 783364448
I0716 00:01:34.478138 14875 layer_factory.hpp:77] Creating layer prob
I0716 00:01:34.478145 14875 net.cpp:84] Creating Layer prob
I0716 00:01:34.478149 14875 net.cpp:406] prob <- upscore8_cropped_upscore8_cropped_0_split_0
I0716 00:01:34.478164 14875 net.cpp:380] prob -> prob
I0716 00:01:34.478404 14875 net.cpp:122] Setting up prob
I0716 00:01:34.478415 14875 net.cpp:129] Top shape: 1 3 512 251 (385536)
I0716 00:01:34.478420 14875 net.cpp:137] Memory required for data: 784906592
I0716 00:01:34.478423 14875 layer_factory.hpp:77] Creating layer prob_prob_0_split
I0716 00:01:34.478430 14875 net.cpp:84] Creating Layer prob_prob_0_split
I0716 00:01:34.478435 14875 net.cpp:406] prob_prob_0_split <- prob
I0716 00:01:34.478442 14875 net.cpp:380] prob_prob_0_split -> prob_prob_0_split_0
I0716 00:01:34.478449 14875 net.cpp:380] prob_prob_0_split -> prob_prob_0_split_1
I0716 00:01:34.478489 14875 net.cpp:122] Setting up prob_prob_0_split
I0716 00:01:34.478502 14875 net.cpp:129] Top shape: 1 3 512 251 (385536)
I0716 00:01:34.478507 14875 net.cpp:129] Top shape: 1 3 512 251 (385536)
I0716 00:01:34.478510 14875 net.cpp:137] Memory required for data: 787990880
I0716 00:01:34.478518 14875 layer_factory.hpp:77] Creating layer saliency1
I0716 00:01:34.478533 14875 net.cpp:84] Creating Layer saliency1
I0716 00:01:34.478538 14875 net.cpp:406] saliency1 <- prob_prob_0_split_0
I0716 00:01:34.478545 14875 net.cpp:380] saliency1 -> saliency1
I0716 00:01:34.481664 14875 net.cpp:122] Setting up saliency1
I0716 00:01:34.481688 14875 net.cpp:129] Top shape: 1 3 512 251 (385536)
I0716 00:01:34.481700 14875 net.cpp:137] Memory required for data: 789533024
I0716 00:01:34.481712 14875 layer_factory.hpp:77] Creating layer relu_saliency1
I0716 00:01:34.481724 14875 net.cpp:84] Creating Layer relu_saliency1
I0716 00:01:34.481731 14875 net.cpp:406] relu_saliency1 <- saliency1
I0716 00:01:34.481740 14875 net.cpp:367] relu_saliency1 -> saliency1 (in-place)
I0716 00:01:34.482034 14875 net.cpp:122] Setting up relu_saliency1
I0716 00:01:34.482049 14875 net.cpp:129] Top shape: 1 3 512 251 (385536)
I0716 00:01:34.482054 14875 net.cpp:137] Memory required for data: 791075168
I0716 00:01:34.482060 14875 layer_factory.hpp:77] Creating layer saliency
I0716 00:01:34.482076 14875 net.cpp:84] Creating Layer saliency
I0716 00:01:34.482082 14875 net.cpp:406] saliency <- saliency1
I0716 00:01:34.482094 14875 net.cpp:380] saliency -> saliency
I0716 00:01:34.494984 14875 net.cpp:122] Setting up saliency
I0716 00:01:34.495028 14875 net.cpp:129] Top shape: 1 3 512 251 (385536)
I0716 00:01:34.495038 14875 net.cpp:137] Memory required for data: 792617312
I0716 00:01:34.495056 14875 layer_factory.hpp:77] Creating layer saliency_data
I0716 00:01:34.495084 14875 net.cpp:84] Creating Layer saliency_data
I0716 00:01:34.495092 14875 net.cpp:406] saliency_data <- data_data_0_split_2
I0716 00:01:34.495103 14875 net.cpp:406] saliency_data <- saliency
I0716 00:01:34.495115 14875 net.cpp:380] saliency_data -> saliency_data
I0716 00:01:34.495182 14875 net.cpp:122] Setting up saliency_data
I0716 00:01:34.495209 14875 net.cpp:129] Top shape: 1 3 512 251 (385536)
I0716 00:01:34.495216 14875 net.cpp:137] Memory required for data: 794159456
I0716 00:01:34.495226 14875 layer_factory.hpp:77] Creating layer crop
I0716 00:01:34.496460 14875 net.cpp:84] Creating Layer crop
I0716 00:01:34.496482 14875 net.cpp:406] crop <- prob_prob_0_split_1
I0716 00:01:34.496498 14875 net.cpp:406] crop <- saliency_data
I0716 00:01:34.496510 14875 net.cpp:406] crop <- crop_margin
I0716 00:01:34.496520 14875 net.cpp:406] crop <- crop_prob
I0716 00:01:34.496528 14875 net.cpp:406] crop <- crop_sample_batch
I0716 00:01:34.496536 14875 net.cpp:406] crop <- label_data_1_split_0
I0716 00:01:34.496557 14875 net.cpp:380] crop -> data-R
I0716 00:01:34.496574 14875 net.cpp:380] crop -> crop_info
I0716 00:01:34.510390 14875 net.cpp:122] Setting up crop
I0716 00:01:34.510428 14875 net.cpp:129] Top shape: 1 3 512 251 (385536)
I0716 00:01:34.510437 14875 net.cpp:129] Top shape: 1 2 4 (8)
I0716 00:01:34.510442 14875 net.cpp:137] Memory required for data: 795701632
I0716 00:01:34.510448 14875 layer_factory.hpp:77] Creating layer data-R_crop_0_split
I0716 00:01:34.510460 14875 net.cpp:84] Creating Layer data-R_crop_0_split
I0716 00:01:34.510468 14875 net.cpp:406] data-R_crop_0_split <- data-R
I0716 00:01:34.510488 14875 net.cpp:380] data-R_crop_0_split -> data-R_crop_0_split_0
I0716 00:01:34.510500 14875 net.cpp:380] data-R_crop_0_split -> data-R_crop_0_split_1
I0716 00:01:34.510563 14875 net.cpp:122] Setting up data-R_crop_0_split
I0716 00:01:34.510584 14875 net.cpp:129] Top shape: 1 3 512 251 (385536)
I0716 00:01:34.510591 14875 net.cpp:129] Top shape: 1 3 512 251 (385536)
I0716 00:01:34.510596 14875 net.cpp:137] Memory required for data: 798785920
I0716 00:01:34.510601 14875 layer_factory.hpp:77] Creating layer conv1_1-R
I0716 00:01:34.510637 14875 net.cpp:84] Creating Layer conv1_1-R
I0716 00:01:34.510655 14875 net.cpp:406] conv1_1-R <- data-R_crop_0_split_0
I0716 00:01:34.510666 14875 net.cpp:380] conv1_1-R -> conv1_1-R
I0716 00:01:34.519572 14875 net.cpp:122] Setting up conv1_1-R
I0716 00:01:34.519599 14875 net.cpp:129] Top shape: 1 64 710 449 (20402560)
I0716 00:01:34.519618 14875 net.cpp:137] Memory required for data: 880396160
I0716 00:01:34.519634 14875 layer_factory.hpp:77] Creating layer relu1_1-R
I0716 00:01:34.519645 14875 net.cpp:84] Creating Layer relu1_1-R
I0716 00:01:34.519661 14875 net.cpp:406] relu1_1-R <- conv1_1-R
I0716 00:01:34.519670 14875 net.cpp:367] relu1_1-R -> conv1_1-R (in-place)
I0716 00:01:34.519973 14875 net.cpp:122] Setting up relu1_1-R
I0716 00:01:34.519989 14875 net.cpp:129] Top shape: 1 64 710 449 (20402560)
I0716 00:01:34.519994 14875 net.cpp:137] Memory required for data: 962006400
I0716 00:01:34.520004 14875 layer_factory.hpp:77] Creating layer conv1_2-R
I0716 00:01:34.520016 14875 net.cpp:84] Creating Layer conv1_2-R
I0716 00:01:34.520021 14875 net.cpp:406] conv1_2-R <- conv1_1-R
I0716 00:01:34.520030 14875 net.cpp:380] conv1_2-R -> conv1_2-R
I0716 00:01:34.524112 14875 net.cpp:122] Setting up conv1_2-R
I0716 00:01:34.524145 14875 net.cpp:129] Top shape: 1 64 710 449 (20402560)
I0716 00:01:34.524152 14875 net.cpp:137] Memory required for data: 1043616640
I0716 00:01:34.524163 14875 layer_factory.hpp:77] Creating layer relu1_2-R
I0716 00:01:34.524171 14875 net.cpp:84] Creating Layer relu1_2-R
I0716 00:01:34.524178 14875 net.cpp:406] relu1_2-R <- conv1_2-R
I0716 00:01:34.524185 14875 net.cpp:367] relu1_2-R -> conv1_2-R (in-place)
I0716 00:01:34.525163 14875 net.cpp:122] Setting up relu1_2-R
I0716 00:01:34.525183 14875 net.cpp:129] Top shape: 1 64 710 449 (20402560)
I0716 00:01:34.525198 14875 net.cpp:137] Memory required for data: 1125226880
I0716 00:01:34.525204 14875 layer_factory.hpp:77] Creating layer pool1-R
I0716 00:01:34.525218 14875 net.cpp:84] Creating Layer pool1-R
I0716 00:01:34.525224 14875 net.cpp:406] pool1-R <- conv1_2-R
I0716 00:01:34.525233 14875 net.cpp:380] pool1-R -> pool1-R
I0716 00:01:34.525322 14875 net.cpp:122] Setting up pool1-R
I0716 00:01:34.525331 14875 net.cpp:129] Top shape: 1 64 355 225 (5112000)
I0716 00:01:34.525336 14875 net.cpp:137] Memory required for data: 1145674880
I0716 00:01:34.525341 14875 layer_factory.hpp:77] Creating layer conv2_1-R
I0716 00:01:34.525352 14875 net.cpp:84] Creating Layer conv2_1-R
I0716 00:01:34.525358 14875 net.cpp:406] conv2_1-R <- pool1-R
I0716 00:01:34.525365 14875 net.cpp:380] conv2_1-R -> conv2_1-R
I0716 00:01:34.526708 14875 net.cpp:122] Setting up conv2_1-R
I0716 00:01:34.526726 14875 net.cpp:129] Top shape: 1 128 355 225 (10224000)
I0716 00:01:34.526741 14875 net.cpp:137] Memory required for data: 1186570880
I0716 00:01:34.526751 14875 layer_factory.hpp:77] Creating layer relu2_1-R
I0716 00:01:34.526758 14875 net.cpp:84] Creating Layer relu2_1-R
I0716 00:01:34.526764 14875 net.cpp:406] relu2_1-R <- conv2_1-R
I0716 00:01:34.526772 14875 net.cpp:367] relu2_1-R -> conv2_1-R (in-place)
I0716 00:01:34.527763 14875 net.cpp:122] Setting up relu2_1-R
I0716 00:01:34.527783 14875 net.cpp:129] Top shape: 1 128 355 225 (10224000)
I0716 00:01:34.527798 14875 net.cpp:137] Memory required for data: 1227466880
I0716 00:01:34.527804 14875 layer_factory.hpp:77] Creating layer conv2_2-R
I0716 00:01:34.527820 14875 net.cpp:84] Creating Layer conv2_2-R
I0716 00:01:34.527827 14875 net.cpp:406] conv2_2-R <- conv2_1-R
I0716 00:01:34.527837 14875 net.cpp:380] conv2_2-R -> conv2_2-R
I0716 00:01:34.530176 14875 net.cpp:122] Setting up conv2_2-R
I0716 00:01:34.530195 14875 net.cpp:129] Top shape: 1 128 355 225 (10224000)
I0716 00:01:34.530200 14875 net.cpp:137] Memory required for data: 1268362880
I0716 00:01:34.530211 14875 layer_factory.hpp:77] Creating layer relu2_2-R
I0716 00:01:34.530220 14875 net.cpp:84] Creating Layer relu2_2-R
I0716 00:01:34.530225 14875 net.cpp:406] relu2_2-R <- conv2_2-R
I0716 00:01:34.530232 14875 net.cpp:367] relu2_2-R -> conv2_2-R (in-place)
I0716 00:01:34.530478 14875 net.cpp:122] Setting up relu2_2-R
I0716 00:01:34.530489 14875 net.cpp:129] Top shape: 1 128 355 225 (10224000)
I0716 00:01:34.530493 14875 net.cpp:137] Memory required for data: 1309258880
I0716 00:01:34.530509 14875 layer_factory.hpp:77] Creating layer pool2-R
I0716 00:01:34.530529 14875 net.cpp:84] Creating Layer pool2-R
I0716 00:01:34.530534 14875 net.cpp:406] pool2-R <- conv2_2-R
I0716 00:01:34.530542 14875 net.cpp:380] pool2-R -> pool2-R
I0716 00:01:34.530597 14875 net.cpp:122] Setting up pool2-R
I0716 00:01:34.530606 14875 net.cpp:129] Top shape: 1 128 178 113 (2574592)
I0716 00:01:34.530611 14875 net.cpp:137] Memory required for data: 1319557248
I0716 00:01:34.530616 14875 layer_factory.hpp:77] Creating layer conv3_1-R
I0716 00:01:34.530625 14875 net.cpp:84] Creating Layer conv3_1-R
I0716 00:01:34.530630 14875 net.cpp:406] conv3_1-R <- pool2-R
I0716 00:01:34.530637 14875 net.cpp:380] conv3_1-R -> conv3_1-R
I0716 00:01:34.536310 14875 net.cpp:122] Setting up conv3_1-R
I0716 00:01:34.536331 14875 net.cpp:129] Top shape: 1 256 178 113 (5149184)
I0716 00:01:34.536345 14875 net.cpp:137] Memory required for data: 1340153984
I0716 00:01:34.536355 14875 layer_factory.hpp:77] Creating layer relu3_1-R
I0716 00:01:34.536366 14875 net.cpp:84] Creating Layer relu3_1-R
I0716 00:01:34.536372 14875 net.cpp:406] relu3_1-R <- conv3_1-R
I0716 00:01:34.536379 14875 net.cpp:367] relu3_1-R -> conv3_1-R (in-place)
I0716 00:01:34.536628 14875 net.cpp:122] Setting up relu3_1-R
I0716 00:01:34.536640 14875 net.cpp:129] Top shape: 1 256 178 113 (5149184)
I0716 00:01:34.536644 14875 net.cpp:137] Memory required for data: 1360750720
I0716 00:01:34.536648 14875 layer_factory.hpp:77] Creating layer conv3_2-R
I0716 00:01:34.536659 14875 net.cpp:84] Creating Layer conv3_2-R
I0716 00:01:34.536664 14875 net.cpp:406] conv3_2-R <- conv3_1-R
I0716 00:01:34.536671 14875 net.cpp:380] conv3_2-R -> conv3_2-R
I0716 00:01:34.541157 14875 net.cpp:122] Setting up conv3_2-R
I0716 00:01:34.541188 14875 net.cpp:129] Top shape: 1 256 178 113 (5149184)
I0716 00:01:34.541193 14875 net.cpp:137] Memory required for data: 1381347456
I0716 00:01:34.541203 14875 layer_factory.hpp:77] Creating layer relu3_2-R
I0716 00:01:34.541213 14875 net.cpp:84] Creating Layer relu3_2-R
I0716 00:01:34.541218 14875 net.cpp:406] relu3_2-R <- conv3_2-R
I0716 00:01:34.541226 14875 net.cpp:367] relu3_2-R -> conv3_2-R (in-place)
I0716 00:01:34.541491 14875 net.cpp:122] Setting up relu3_2-R
I0716 00:01:34.541504 14875 net.cpp:129] Top shape: 1 256 178 113 (5149184)
I0716 00:01:34.541508 14875 net.cpp:137] Memory required for data: 1401944192
I0716 00:01:34.541517 14875 layer_factory.hpp:77] Creating layer conv3_3-R
I0716 00:01:34.541528 14875 net.cpp:84] Creating Layer conv3_3-R
I0716 00:01:34.541533 14875 net.cpp:406] conv3_3-R <- conv3_2-R
I0716 00:01:34.541543 14875 net.cpp:380] conv3_3-R -> conv3_3-R
I0716 00:01:34.547343 14875 net.cpp:122] Setting up conv3_3-R
I0716 00:01:34.547379 14875 net.cpp:129] Top shape: 1 256 178 113 (5149184)
I0716 00:01:34.547384 14875 net.cpp:137] Memory required for data: 1422540928
I0716 00:01:34.547394 14875 layer_factory.hpp:77] Creating layer relu3_3-R
I0716 00:01:34.547405 14875 net.cpp:84] Creating Layer relu3_3-R
I0716 00:01:34.547410 14875 net.cpp:406] relu3_3-R <- conv3_3-R
I0716 00:01:34.547417 14875 net.cpp:367] relu3_3-R -> conv3_3-R (in-place)
I0716 00:01:34.547718 14875 net.cpp:122] Setting up relu3_3-R
I0716 00:01:34.547732 14875 net.cpp:129] Top shape: 1 256 178 113 (5149184)
I0716 00:01:34.547737 14875 net.cpp:137] Memory required for data: 1443137664
I0716 00:01:34.547741 14875 layer_factory.hpp:77] Creating layer pool3-R
I0716 00:01:34.547755 14875 net.cpp:84] Creating Layer pool3-R
I0716 00:01:34.547760 14875 net.cpp:406] pool3-R <- conv3_3-R
I0716 00:01:34.547770 14875 net.cpp:380] pool3-R -> pool3-R
I0716 00:01:34.547839 14875 net.cpp:122] Setting up pool3-R
I0716 00:01:34.547850 14875 net.cpp:129] Top shape: 1 256 89 57 (1298688)
I0716 00:01:34.547854 14875 net.cpp:137] Memory required for data: 1448332416
I0716 00:01:34.547858 14875 layer_factory.hpp:77] Creating layer pool3-R_pool3-R_0_split
I0716 00:01:34.547868 14875 net.cpp:84] Creating Layer pool3-R_pool3-R_0_split
I0716 00:01:34.547873 14875 net.cpp:406] pool3-R_pool3-R_0_split <- pool3-R
I0716 00:01:34.547880 14875 net.cpp:380] pool3-R_pool3-R_0_split -> pool3-R_pool3-R_0_split_0
I0716 00:01:34.547889 14875 net.cpp:380] pool3-R_pool3-R_0_split -> pool3-R_pool3-R_0_split_1
I0716 00:01:34.547937 14875 net.cpp:122] Setting up pool3-R_pool3-R_0_split
I0716 00:01:34.547948 14875 net.cpp:129] Top shape: 1 256 89 57 (1298688)
I0716 00:01:34.547955 14875 net.cpp:129] Top shape: 1 256 89 57 (1298688)
I0716 00:01:34.547958 14875 net.cpp:137] Memory required for data: 1458721920
I0716 00:01:34.547965 14875 layer_factory.hpp:77] Creating layer conv4_1-R
I0716 00:01:34.547976 14875 net.cpp:84] Creating Layer conv4_1-R
I0716 00:01:34.547981 14875 net.cpp:406] conv4_1-R <- pool3-R_pool3-R_0_split_0
I0716 00:01:34.547991 14875 net.cpp:380] conv4_1-R -> conv4_1-R
I0716 00:01:34.555804 14875 net.cpp:122] Setting up conv4_1-R
I0716 00:01:34.555835 14875 net.cpp:129] Top shape: 1 512 89 57 (2597376)
I0716 00:01:34.555840 14875 net.cpp:137] Memory required for data: 1469111424
I0716 00:01:34.555850 14875 layer_factory.hpp:77] Creating layer relu4_1-R
I0716 00:01:34.555860 14875 net.cpp:84] Creating Layer relu4_1-R
I0716 00:01:34.555865 14875 net.cpp:406] relu4_1-R <- conv4_1-R
I0716 00:01:34.555871 14875 net.cpp:367] relu4_1-R -> conv4_1-R (in-place)
I0716 00:01:34.556744 14875 net.cpp:122] Setting up relu4_1-R
I0716 00:01:34.556762 14875 net.cpp:129] Top shape: 1 512 89 57 (2597376)
I0716 00:01:34.556777 14875 net.cpp:137] Memory required for data: 1479500928
I0716 00:01:34.556780 14875 layer_factory.hpp:77] Creating layer conv4_2-R
I0716 00:01:34.556793 14875 net.cpp:84] Creating Layer conv4_2-R
I0716 00:01:34.556798 14875 net.cpp:406] conv4_2-R <- conv4_1-R
I0716 00:01:34.556807 14875 net.cpp:380] conv4_2-R -> conv4_2-R
I0716 00:01:34.565549 14875 net.cpp:122] Setting up conv4_2-R
I0716 00:01:34.565587 14875 net.cpp:129] Top shape: 1 512 89 57 (2597376)
I0716 00:01:34.565591 14875 net.cpp:137] Memory required for data: 1489890432
I0716 00:01:34.565603 14875 layer_factory.hpp:77] Creating layer relu4_2-R
I0716 00:01:34.565613 14875 net.cpp:84] Creating Layer relu4_2-R
I0716 00:01:34.565618 14875 net.cpp:406] relu4_2-R <- conv4_2-R
I0716 00:01:34.565626 14875 net.cpp:367] relu4_2-R -> conv4_2-R (in-place)
I0716 00:01:34.569337 14875 net.cpp:122] Setting up relu4_2-R
I0716 00:01:34.569406 14875 net.cpp:129] Top shape: 1 512 89 57 (2597376)
I0716 00:01:34.569414 14875 net.cpp:137] Memory required for data: 1500279936
I0716 00:01:34.569485 14875 layer_factory.hpp:77] Creating layer conv4_3-R
I0716 00:01:34.569533 14875 net.cpp:84] Creating Layer conv4_3-R
I0716 00:01:34.569552 14875 net.cpp:406] conv4_3-R <- conv4_2-R
I0716 00:01:34.569571 14875 net.cpp:380] conv4_3-R -> conv4_3-R
I0716 00:01:34.579499 14875 net.cpp:122] Setting up conv4_3-R
I0716 00:01:34.579535 14875 net.cpp:129] Top shape: 1 512 89 57 (2597376)
I0716 00:01:34.579538 14875 net.cpp:137] Memory required for data: 1510669440
I0716 00:01:34.579547 14875 layer_factory.hpp:77] Creating layer relu4_3-R
I0716 00:01:34.579555 14875 net.cpp:84] Creating Layer relu4_3-R
I0716 00:01:34.579560 14875 net.cpp:406] relu4_3-R <- conv4_3-R
I0716 00:01:34.579566 14875 net.cpp:367] relu4_3-R -> conv4_3-R (in-place)
I0716 00:01:34.579767 14875 net.cpp:122] Setting up relu4_3-R
I0716 00:01:34.579778 14875 net.cpp:129] Top shape: 1 512 89 57 (2597376)
I0716 00:01:34.579782 14875 net.cpp:137] Memory required for data: 1521058944
I0716 00:01:34.579785 14875 layer_factory.hpp:77] Creating layer pool4-R
I0716 00:01:34.579802 14875 net.cpp:84] Creating Layer pool4-R
I0716 00:01:34.579807 14875 net.cpp:406] pool4-R <- conv4_3-R
I0716 00:01:34.579815 14875 net.cpp:380] pool4-R -> pool4-R
I0716 00:01:34.579869 14875 net.cpp:122] Setting up pool4-R
I0716 00:01:34.579881 14875 net.cpp:129] Top shape: 1 512 45 29 (668160)
I0716 00:01:34.579885 14875 net.cpp:137] Memory required for data: 1523731584
I0716 00:01:34.579887 14875 layer_factory.hpp:77] Creating layer pool4-R_pool4-R_0_split
I0716 00:01:34.579895 14875 net.cpp:84] Creating Layer pool4-R_pool4-R_0_split
I0716 00:01:34.579898 14875 net.cpp:406] pool4-R_pool4-R_0_split <- pool4-R
I0716 00:01:34.579905 14875 net.cpp:380] pool4-R_pool4-R_0_split -> pool4-R_pool4-R_0_split_0
I0716 00:01:34.579910 14875 net.cpp:380] pool4-R_pool4-R_0_split -> pool4-R_pool4-R_0_split_1
I0716 00:01:34.579947 14875 net.cpp:122] Setting up pool4-R_pool4-R_0_split
I0716 00:01:34.579952 14875 net.cpp:129] Top shape: 1 512 45 29 (668160)
I0716 00:01:34.579957 14875 net.cpp:129] Top shape: 1 512 45 29 (668160)
I0716 00:01:34.579959 14875 net.cpp:137] Memory required for data: 1529076864
I0716 00:01:34.579968 14875 layer_factory.hpp:77] Creating layer conv5_1-R
I0716 00:01:34.579978 14875 net.cpp:84] Creating Layer conv5_1-R
I0716 00:01:34.579982 14875 net.cpp:406] conv5_1-R <- pool4-R_pool4-R_0_split_0
I0716 00:01:34.579988 14875 net.cpp:380] conv5_1-R -> conv5_1-R
I0716 00:01:34.587904 14875 net.cpp:122] Setting up conv5_1-R
I0716 00:01:34.587954 14875 net.cpp:129] Top shape: 1 512 45 29 (668160)
I0716 00:01:34.587960 14875 net.cpp:137] Memory required for data: 1531749504
I0716 00:01:34.587987 14875 layer_factory.hpp:77] Creating layer relu5_1-R
I0716 00:01:34.587999 14875 net.cpp:84] Creating Layer relu5_1-R
I0716 00:01:34.588006 14875 net.cpp:406] relu5_1-R <- conv5_1-R
I0716 00:01:34.588013 14875 net.cpp:367] relu5_1-R -> conv5_1-R (in-place)
I0716 00:01:34.588217 14875 net.cpp:122] Setting up relu5_1-R
I0716 00:01:34.588227 14875 net.cpp:129] Top shape: 1 512 45 29 (668160)
I0716 00:01:34.588230 14875 net.cpp:137] Memory required for data: 1534422144
I0716 00:01:34.588233 14875 layer_factory.hpp:77] Creating layer conv5_2-R
I0716 00:01:34.588259 14875 net.cpp:84] Creating Layer conv5_2-R
I0716 00:01:34.588263 14875 net.cpp:406] conv5_2-R <- conv5_1-R
I0716 00:01:34.588270 14875 net.cpp:380] conv5_2-R -> conv5_2-R
I0716 00:01:34.596297 14875 net.cpp:122] Setting up conv5_2-R
I0716 00:01:34.596338 14875 net.cpp:129] Top shape: 1 512 45 29 (668160)
I0716 00:01:34.596343 14875 net.cpp:137] Memory required for data: 1537094784
I0716 00:01:34.596351 14875 layer_factory.hpp:77] Creating layer relu5_2-R
I0716 00:01:34.596361 14875 net.cpp:84] Creating Layer relu5_2-R
I0716 00:01:34.596367 14875 net.cpp:406] relu5_2-R <- conv5_2-R
I0716 00:01:34.596374 14875 net.cpp:367] relu5_2-R -> conv5_2-R (in-place)
I0716 00:01:34.596573 14875 net.cpp:122] Setting up relu5_2-R
I0716 00:01:34.596585 14875 net.cpp:129] Top shape: 1 512 45 29 (668160)
I0716 00:01:34.596587 14875 net.cpp:137] Memory required for data: 1539767424
I0716 00:01:34.596638 14875 layer_factory.hpp:77] Creating layer conv5_3-R
I0716 00:01:34.596665 14875 net.cpp:84] Creating Layer conv5_3-R
I0716 00:01:34.596669 14875 net.cpp:406] conv5_3-R <- conv5_2-R
I0716 00:01:34.596678 14875 net.cpp:380] conv5_3-R -> conv5_3-R
I0716 00:01:34.604152 14875 net.cpp:122] Setting up conv5_3-R
I0716 00:01:34.604171 14875 net.cpp:129] Top shape: 1 512 45 29 (668160)
I0716 00:01:34.604192 14875 net.cpp:137] Memory required for data: 1542440064
I0716 00:01:34.604199 14875 layer_factory.hpp:77] Creating layer relu5_3-R
I0716 00:01:34.604207 14875 net.cpp:84] Creating Layer relu5_3-R
I0716 00:01:34.604212 14875 net.cpp:406] relu5_3-R <- conv5_3-R
I0716 00:01:34.604218 14875 net.cpp:367] relu5_3-R -> conv5_3-R (in-place)
I0716 00:01:34.604406 14875 net.cpp:122] Setting up relu5_3-R
I0716 00:01:34.604418 14875 net.cpp:129] Top shape: 1 512 45 29 (668160)
I0716 00:01:34.604420 14875 net.cpp:137] Memory required for data: 1545112704
I0716 00:01:34.604423 14875 layer_factory.hpp:77] Creating layer pool5-R
I0716 00:01:34.604441 14875 net.cpp:84] Creating Layer pool5-R
I0716 00:01:34.604445 14875 net.cpp:406] pool5-R <- conv5_3-R
I0716 00:01:34.604454 14875 net.cpp:380] pool5-R -> pool5-R
I0716 00:01:34.604504 14875 net.cpp:122] Setting up pool5-R
I0716 00:01:34.604513 14875 net.cpp:129] Top shape: 1 512 23 15 (176640)
I0716 00:01:34.604516 14875 net.cpp:137] Memory required for data: 1545819264
I0716 00:01:34.604519 14875 layer_factory.hpp:77] Creating layer fc6-R
I0716 00:01:34.604533 14875 net.cpp:84] Creating Layer fc6-R
I0716 00:01:34.604537 14875 net.cpp:406] fc6-R <- pool5-R
I0716 00:01:34.604544 14875 net.cpp:380] fc6-R -> fc6-R
I0716 00:01:34.876608 14875 net.cpp:122] Setting up fc6-R
I0716 00:01:34.876663 14875 net.cpp:129] Top shape: 1 4096 17 9 (626688)
I0716 00:01:34.876668 14875 net.cpp:137] Memory required for data: 1548326016
I0716 00:01:34.876682 14875 layer_factory.hpp:77] Creating layer relu6-R
I0716 00:01:34.876694 14875 net.cpp:84] Creating Layer relu6-R
I0716 00:01:34.876701 14875 net.cpp:406] relu6-R <- fc6-R
I0716 00:01:34.876709 14875 net.cpp:367] relu6-R -> fc6-R (in-place)
I0716 00:01:34.877471 14875 net.cpp:122] Setting up relu6-R
I0716 00:01:34.877485 14875 net.cpp:129] Top shape: 1 4096 17 9 (626688)
I0716 00:01:34.877504 14875 net.cpp:137] Memory required for data: 1550832768
I0716 00:01:34.877508 14875 layer_factory.hpp:77] Creating layer drop6-R
I0716 00:01:34.877532 14875 net.cpp:84] Creating Layer drop6-R
I0716 00:01:34.877555 14875 net.cpp:406] drop6-R <- fc6-R
I0716 00:01:34.877578 14875 net.cpp:367] drop6-R -> fc6-R (in-place)
I0716 00:01:34.877616 14875 net.cpp:122] Setting up drop6-R
I0716 00:01:34.877622 14875 net.cpp:129] Top shape: 1 4096 17 9 (626688)
I0716 00:01:34.877625 14875 net.cpp:137] Memory required for data: 1553339520
I0716 00:01:34.877629 14875 layer_factory.hpp:77] Creating layer fc7-R
I0716 00:01:34.877640 14875 net.cpp:84] Creating Layer fc7-R
I0716 00:01:34.877643 14875 net.cpp:406] fc7-R <- fc6-R
I0716 00:01:34.877652 14875 net.cpp:380] fc7-R -> fc7-R
I0716 00:01:34.924062 14875 net.cpp:122] Setting up fc7-R
I0716 00:01:34.924116 14875 net.cpp:129] Top shape: 1 4096 17 9 (626688)
I0716 00:01:34.924121 14875 net.cpp:137] Memory required for data: 1555846272
I0716 00:01:34.924134 14875 layer_factory.hpp:77] Creating layer relu7-R
I0716 00:01:34.924278 14875 net.cpp:84] Creating Layer relu7-R
I0716 00:01:34.924294 14875 net.cpp:406] relu7-R <- fc7-R
I0716 00:01:34.924305 14875 net.cpp:367] relu7-R -> fc7-R (in-place)
I0716 00:01:34.925423 14875 net.cpp:122] Setting up relu7-R
I0716 00:01:34.925441 14875 net.cpp:129] Top shape: 1 4096 17 9 (626688)
I0716 00:01:34.925444 14875 net.cpp:137] Memory required for data: 1558353024
I0716 00:01:34.925449 14875 layer_factory.hpp:77] Creating layer drop7-R
I0716 00:01:34.925462 14875 net.cpp:84] Creating Layer drop7-R
I0716 00:01:34.925464 14875 net.cpp:406] drop7-R <- fc7-R
I0716 00:01:34.925472 14875 net.cpp:367] drop7-R -> fc7-R (in-place)
I0716 00:01:34.925539 14875 net.cpp:122] Setting up drop7-R
I0716 00:01:34.925547 14875 net.cpp:129] Top shape: 1 4096 17 9 (626688)
I0716 00:01:34.925550 14875 net.cpp:137] Memory required for data: 1560859776
I0716 00:01:34.925554 14875 layer_factory.hpp:77] Creating layer score_fr-new-R
I0716 00:01:34.925562 14875 net.cpp:84] Creating Layer score_fr-new-R
I0716 00:01:34.925565 14875 net.cpp:406] score_fr-new-R <- fc7-R
I0716 00:01:34.925572 14875 net.cpp:380] score_fr-new-R -> score_fr-new-R
I0716 00:01:34.926977 14875 net.cpp:122] Setting up score_fr-new-R
I0716 00:01:34.926991 14875 net.cpp:129] Top shape: 1 3 17 9 (459)
I0716 00:01:34.926995 14875 net.cpp:137] Memory required for data: 1560861612
I0716 00:01:34.927003 14875 layer_factory.hpp:77] Creating layer upscore2-new-R
I0716 00:01:34.927021 14875 net.cpp:84] Creating Layer upscore2-new-R
I0716 00:01:34.927024 14875 net.cpp:406] upscore2-new-R <- score_fr-new-R
I0716 00:01:34.927032 14875 net.cpp:380] upscore2-new-R -> upscore2-new-R
I0716 00:01:34.927270 14875 net.cpp:122] Setting up upscore2-new-R
I0716 00:01:34.927300 14875 net.cpp:129] Top shape: 1 3 36 20 (2160)
I0716 00:01:34.927305 14875 net.cpp:137] Memory required for data: 1560870252
I0716 00:01:34.927312 14875 layer_factory.hpp:77] Creating layer upscore2-new-R_upscore2-new-R_0_split
I0716 00:01:34.927322 14875 net.cpp:84] Creating Layer upscore2-new-R_upscore2-new-R_0_split
I0716 00:01:34.927328 14875 net.cpp:406] upscore2-new-R_upscore2-new-R_0_split <- upscore2-new-R
I0716 00:01:34.927336 14875 net.cpp:380] upscore2-new-R_upscore2-new-R_0_split -> upscore2-new-R_upscore2-new-R_0_split_0
I0716 00:01:34.927346 14875 net.cpp:380] upscore2-new-R_upscore2-new-R_0_split -> upscore2-new-R_upscore2-new-R_0_split_1
I0716 00:01:34.927419 14875 net.cpp:122] Setting up upscore2-new-R_upscore2-new-R_0_split
I0716 00:01:34.927431 14875 net.cpp:129] Top shape: 1 3 36 20 (2160)
I0716 00:01:34.927438 14875 net.cpp:129] Top shape: 1 3 36 20 (2160)
I0716 00:01:34.927443 14875 net.cpp:137] Memory required for data: 1560887532
I0716 00:01:34.927448 14875 layer_factory.hpp:77] Creating layer score_pool4-new-R
I0716 00:01:34.927464 14875 net.cpp:84] Creating Layer score_pool4-new-R
I0716 00:01:34.927470 14875 net.cpp:406] score_pool4-new-R <- pool4-R_pool4-R_0_split_1
I0716 00:01:34.927481 14875 net.cpp:380] score_pool4-new-R -> score_pool4-new-R
I0716 00:01:34.929177 14875 net.cpp:122] Setting up score_pool4-new-R
I0716 00:01:34.929190 14875 net.cpp:129] Top shape: 1 3 45 29 (3915)
I0716 00:01:34.929194 14875 net.cpp:137] Memory required for data: 1560903192
I0716 00:01:34.929200 14875 layer_factory.hpp:77] Creating layer score_pool4c-R
I0716 00:01:34.929209 14875 net.cpp:84] Creating Layer score_pool4c-R
I0716 00:01:34.929213 14875 net.cpp:406] score_pool4c-R <- score_pool4-new-R
I0716 00:01:34.929217 14875 net.cpp:406] score_pool4c-R <- upscore2-new-R_upscore2-new-R_0_split_0
I0716 00:01:34.929224 14875 net.cpp:380] score_pool4c-R -> score_pool4c-R
I0716 00:01:34.929267 14875 net.cpp:122] Setting up score_pool4c-R
I0716 00:01:34.929272 14875 net.cpp:129] Top shape: 1 3 36 20 (2160)
I0716 00:01:34.929275 14875 net.cpp:137] Memory required for data: 1560911832
I0716 00:01:34.929278 14875 layer_factory.hpp:77] Creating layer fuse_pool4-R
I0716 00:01:34.929287 14875 net.cpp:84] Creating Layer fuse_pool4-R
I0716 00:01:34.929291 14875 net.cpp:406] fuse_pool4-R <- upscore2-new-R_upscore2-new-R_0_split_1
I0716 00:01:34.929294 14875 net.cpp:406] fuse_pool4-R <- score_pool4c-R
I0716 00:01:34.929298 14875 net.cpp:380] fuse_pool4-R -> fuse_pool4-R
I0716 00:01:34.929330 14875 net.cpp:122] Setting up fuse_pool4-R
I0716 00:01:34.929334 14875 net.cpp:129] Top shape: 1 3 36 20 (2160)
I0716 00:01:34.929337 14875 net.cpp:137] Memory required for data: 1560920472
I0716 00:01:34.929340 14875 layer_factory.hpp:77] Creating layer upscore_pool4-new-R
I0716 00:01:34.929349 14875 net.cpp:84] Creating Layer upscore_pool4-new-R
I0716 00:01:34.929353 14875 net.cpp:406] upscore_pool4-new-R <- fuse_pool4-R
I0716 00:01:34.929358 14875 net.cpp:380] upscore_pool4-new-R -> upscore_pool4-new-R
I0716 00:01:34.929558 14875 net.cpp:122] Setting up upscore_pool4-new-R
I0716 00:01:34.929582 14875 net.cpp:129] Top shape: 1 3 74 42 (9324)
I0716 00:01:34.929585 14875 net.cpp:137] Memory required for data: 1560957768
I0716 00:01:34.929590 14875 layer_factory.hpp:77] Creating layer upscore_pool4-new-R_upscore_pool4-new-R_0_split
I0716 00:01:34.929595 14875 net.cpp:84] Creating Layer upscore_pool4-new-R_upscore_pool4-new-R_0_split
I0716 00:01:34.929600 14875 net.cpp:406] upscore_pool4-new-R_upscore_pool4-new-R_0_split <- upscore_pool4-new-R
I0716 00:01:34.929603 14875 net.cpp:380] upscore_pool4-new-R_upscore_pool4-new-R_0_split -> upscore_pool4-new-R_upscore_pool4-new-R_0_split_0
I0716 00:01:34.929610 14875 net.cpp:380] upscore_pool4-new-R_upscore_pool4-new-R_0_split -> upscore_pool4-new-R_upscore_pool4-new-R_0_split_1
I0716 00:01:34.929646 14875 net.cpp:122] Setting up upscore_pool4-new-R_upscore_pool4-new-R_0_split
I0716 00:01:34.929654 14875 net.cpp:129] Top shape: 1 3 74 42 (9324)
I0716 00:01:34.929658 14875 net.cpp:129] Top shape: 1 3 74 42 (9324)
I0716 00:01:34.929661 14875 net.cpp:137] Memory required for data: 1561032360
I0716 00:01:34.929664 14875 layer_factory.hpp:77] Creating layer score_pool3-new-R
I0716 00:01:34.929672 14875 net.cpp:84] Creating Layer score_pool3-new-R
I0716 00:01:34.929677 14875 net.cpp:406] score_pool3-new-R <- pool3-R_pool3-R_0_split_1
I0716 00:01:34.929683 14875 net.cpp:380] score_pool3-new-R -> score_pool3-new-R
I0716 00:01:34.930621 14875 net.cpp:122] Setting up score_pool3-new-R
I0716 00:01:34.930647 14875 net.cpp:129] Top shape: 1 3 89 57 (15219)
I0716 00:01:34.930651 14875 net.cpp:137] Memory required for data: 1561093236
I0716 00:01:34.930675 14875 layer_factory.hpp:77] Creating layer score_pool3c-R
I0716 00:01:34.930680 14875 net.cpp:84] Creating Layer score_pool3c-R
I0716 00:01:34.930685 14875 net.cpp:406] score_pool3c-R <- score_pool3-new-R
I0716 00:01:34.930689 14875 net.cpp:406] score_pool3c-R <- upscore_pool4-new-R_upscore_pool4-new-R_0_split_0
I0716 00:01:34.930696 14875 net.cpp:380] score_pool3c-R -> score_pool3c-R
I0716 00:01:34.930758 14875 net.cpp:122] Setting up score_pool3c-R
I0716 00:01:34.930766 14875 net.cpp:129] Top shape: 1 3 74 42 (9324)
I0716 00:01:34.930769 14875 net.cpp:137] Memory required for data: 1561130532
I0716 00:01:34.930773 14875 layer_factory.hpp:77] Creating layer fuse_pool3-R
I0716 00:01:34.930779 14875 net.cpp:84] Creating Layer fuse_pool3-R
I0716 00:01:34.930783 14875 net.cpp:406] fuse_pool3-R <- upscore_pool4-new-R_upscore_pool4-new-R_0_split_1
I0716 00:01:34.930786 14875 net.cpp:406] fuse_pool3-R <- score_pool3c-R
I0716 00:01:34.930791 14875 net.cpp:380] fuse_pool3-R -> fuse_pool3-R
I0716 00:01:34.930819 14875 net.cpp:122] Setting up fuse_pool3-R
I0716 00:01:34.930827 14875 net.cpp:129] Top shape: 1 3 74 42 (9324)
I0716 00:01:34.930830 14875 net.cpp:137] Memory required for data: 1561167828
I0716 00:01:34.930833 14875 layer_factory.hpp:77] Creating layer upscore8-new-R
I0716 00:01:34.930841 14875 net.cpp:84] Creating Layer upscore8-new-R
I0716 00:01:34.930845 14875 net.cpp:406] upscore8-new-R <- fuse_pool3-R
I0716 00:01:34.930851 14875 net.cpp:380] upscore8-new-R -> upscore8-new-R
I0716 00:01:34.931105 14875 net.cpp:122] Setting up upscore8-new-R
I0716 00:01:34.931113 14875 net.cpp:129] Top shape: 1 3 600 344 (619200)
I0716 00:01:34.931116 14875 net.cpp:137] Memory required for data: 1563644628
I0716 00:01:34.931121 14875 layer_factory.hpp:77] Creating layer upscore8_cropped-R
I0716 00:01:34.931128 14875 net.cpp:84] Creating Layer upscore8_cropped-R
I0716 00:01:34.931131 14875 net.cpp:406] upscore8_cropped-R <- upscore8-new-R
I0716 00:01:34.931136 14875 net.cpp:406] upscore8_cropped-R <- data-R_crop_0_split_1
I0716 00:01:34.931141 14875 net.cpp:380] upscore8_cropped-R -> upscore8_cropped-R
I0716 00:01:34.931166 14875 net.cpp:122] Setting up upscore8_cropped-R
I0716 00:01:34.931171 14875 net.cpp:129] Top shape: 1 3 512 251 (385536)
I0716 00:01:34.931174 14875 net.cpp:137] Memory required for data: 1565186772
I0716 00:01:34.931177 14875 layer_factory.hpp:77] Creating layer upscore8_uncropped-R
I0716 00:01:34.931457 14875 net.cpp:84] Creating Layer upscore8_uncropped-R
I0716 00:01:34.931485 14875 net.cpp:406] upscore8_uncropped-R <- crop_info
I0716 00:01:34.931506 14875 net.cpp:406] upscore8_uncropped-R <- upscore8_cropped-R
I0716 00:01:34.931510 14875 net.cpp:406] upscore8_uncropped-R <- data_data_0_split_3
I0716 00:01:34.931516 14875 net.cpp:380] upscore8_uncropped-R -> upscore8_uncropped-R
I0716 00:01:34.936857 14875 net.cpp:122] Setting up upscore8_uncropped-R
I0716 00:01:34.936882 14875 net.cpp:129] Top shape: 1 3 512 251 (385536)
I0716 00:01:34.936897 14875 net.cpp:137] Memory required for data: 1566728916
I0716 00:01:34.936902 14875 layer_factory.hpp:77] Creating layer loss1
I0716 00:01:34.936928 14875 net.cpp:84] Creating Layer loss1
I0716 00:01:34.936934 14875 net.cpp:406] loss1 <- upscore8_cropped_upscore8_cropped_0_split_1
I0716 00:01:34.936944 14875 net.cpp:406] loss1 <- label_data_1_split_1
I0716 00:01:34.936951 14875 net.cpp:380] loss1 -> loss1
…
