…
snapshot_prefix: "/media/Med_2T2/data2/models/snapshots/indiv:1e-5x10,20/FD3:ZI3_1_20180715_091948/train"
test_initialization: false
average_loss: 20
stepvalue: 40000
iter_size: 1
I0715 16:12:57.411535 13835 solver.cpp:77] Creating training net from train_net file: /media/Med_2T2/data2/prototxts/training_S3x10.prototxt
I0715 16:12:57.414288 13835 net.cpp:51] Initializing net from parameters: 
state {
  phase: TRAIN
}
layer {
  name: "data"
  type: "Python"
  top: "data"
  top: "label"
  top: "crop_margin"
  top: "crop_prob"
  top: "crop_sample_batch"
  python_param {
    module: "Data"
    layer: "DataLayer"
  }
}
layer {
  name: "conv1_1"
  type: "Convolution"
  bottom: "data"
  top: "conv1_1"
  param {
    lr_mult: 1
    decay_mult: 1
  }
  param {
    lr_mult: 2
    decay_mult: 0
  }
  convolution_param {
    num_output: 64
    pad: 100
    kernel_size: 3
    stride: 1
  }
}
layer {
  name: "relu1_1"
  type: "ReLU"
  bottom: "conv1_1"
  top: "conv1_1"
}
layer {
  name: "conv1_2"
  type: "Convolution"
  bottom: "conv1_1"
  top: "conv1_2"
  param {
    lr_mult: 1
    decay_mult: 1
  }
  param {
    lr_mult: 2
    decay_mult: 0
  }
  convolution_param {
    num_output: 64
    pad: 1
    kernel_size: 3
    stride: 1
  }
}
layer {
  name: "relu1_2"
  type: "ReLU"
  bottom: "conv1_2"
  top: "conv1_2"
}
layer {
  name: "pool1"
  type: "Pooling"
  bottom: "conv1_2"
  top: "pool1"
  pooling_param {
    pool: MAX
    kernel_size: 2
    stride: 2
  }
}
layer {
  name: "conv2_1"
  type: "Convolution"
  bottom: "pool1"
  top: "conv2_1"
  param {
    lr_mult: 1
    decay_mult: 1
  }
  param {
    lr_mult: 2
    decay_mult: 0
  }
  convolution_param {
    num_output: 128
    pad: 1
    kernel_size: 3
    stride: 1
  }
}
layer {
  name: "relu2_1"
  type: "ReLU"
  bottom: "conv2_1"
  top: "conv2_1"
}
layer {
  name: "conv2_2"
  type: "Convolution"
  bottom: "conv2_1"
  top: "conv2_2"
  param {
    lr_mult: 1
    decay_mult: 1
  }
  param {
    lr_mult: 2
    decay_mult: 0
  }
  convolution_param {
    num_output: 128
    pad: 1
    kernel_size: 3
    stride: 1
  }
}
layer {
  name: "relu2_2"
  type: "ReLU"
  bottom: "conv2_2"
  top: "conv2_2"
}
layer {
  name: "pool2"
  type: "Pooling"
  bottom: "conv2_2"
  top: "pool2"
  pooling_param {
    pool: MAX
    kernel_size: 2
    stride: 2
  }
}
layer {
  name: "conv3_1"
  type: "Convolution"
  bottom: "pool2"
  top: "conv3_1"
  param {
    lr_mult: 1
    decay_mult: 1
  }
  param {
    lr_mult: 2
    decay_mult: 0
  }
  convolution_param {
    num_output: 256
    pad: 1
    kernel_size: 3
    stride: 1
  }
}
layer {
  name: "relu3_1"
  type: "ReLU"
  bottom: "conv3_1"
  top: "conv3_1"
}
layer {
  name: "conv3_2"
  type: "Convolution"
  bottom: "conv3_1"
  top: "conv3_2"
  param {
    lr_mult: 1
    decay_mult: 1
  }
  param {
    lr_mult: 2
    decay_mult: 0
  }
  convolution_param {
    num_output: 256
    pad: 1
    kernel_size: 3
    stride: 1
  }
}
layer {
  name: "relu3_2"
  type: "ReLU"
  bottom: "conv3_2"
  top: "conv3_2"
}
layer {
  name: "conv3_3"
  type: "Convolution"
  bottom: "conv3_2"
  top: "conv3_3"
  param {
    lr_mult: 1
    decay_mult: 1
  }
  param {
    lr_mult: 2
    decay_mult: 0
  }
  convolution_param {
    num_output: 256
    pad: 1
    kernel_size: 3
    stride: 1
  }
}
layer {
  name: "relu3_3"
  type: "ReLU"
  bottom: "conv3_3"
  top: "conv3_3"
}
layer {
  name: "pool3"
  type: "Pooling"
  bottom: "conv3_3"
  top: "pool3"
  pooling_param {
    pool: MAX
    kernel_size: 2
    stride: 2
  }
}
layer {
  name: "conv4_1"
  type: "Convolution"
  bottom: "pool3"
  top: "conv4_1"
  param {
    lr_mult: 1
    decay_mult: 1
  }
  param {
    lr_mult: 2
    decay_mult: 0
  }
  convolution_param {
    num_output: 512
    pad: 1
    kernel_size: 3
    stride: 1
  }
}
layer {
  name: "relu4_1"
  type: "ReLU"
  bottom: "conv4_1"
  top: "conv4_1"
}
layer {
  name: "conv4_2"
  type: "Convolution"
  bottom: "conv4_1"
  top: "conv4_2"
  param {
    lr_mult: 1
    decay_mult: 1
  }
  param {
    lr_mult: 2
    decay_mult: 0
  }
  convolution_param {
    num_output: 512
    pad: 1
    kernel_size: 3
    stride: 1
  }
}
layer {
  name: "relu4_2"
  type: "ReLU"
  bottom: "conv4_2"
  top: "conv4_2"
}
layer {
  name: "conv4_3"
  type: "Convolution"
  bottom: "conv4_2"
  top: "conv4_3"
  param {
    lr_mult: 1
    decay_mult: 1
  }
  param {
    lr_mult: 2
    decay_mult: 0
  }
  convolution_param {
    num_output: 512
    pad: 1
    kernel_size: 3
    stride: 1
  }
}
layer {
  name: "relu4_3"
  type: "ReLU"
  bottom: "conv4_3"
  top: "conv4_3"
}
layer {
  name: "pool4"
  type: "Pooling"
  bottom: "conv4_3"
  top: "pool4"
  pooling_param {
    pool: MAX
    kernel_size: 2
    stride: 2
  }
}
layer {
  name: "conv5_1"
  type: "Convolution"
  bottom: "pool4"
  top: "conv5_1"
  param {
    lr_mult: 1
    decay_mult: 1
  }
  param {
    lr_mult: 2
    decay_mult: 0
  }
  convolution_param {
    num_output: 512
    pad: 1
    kernel_size: 3
    stride: 1
  }
}
layer {
  name: "relu5_1"
  type: "ReLU"
  bottom: "conv5_1"
  top: "conv5_1"
}
layer {
  name: "conv5_2"
  type: "Convolution"
  bottom: "conv5_1"
  top: "conv5_2"
  param {
    lr_mult: 1
    decay_mult: 1
  }
  param {
    lr_mult: 2
    decay_mult: 0
  }
  convolution_param {
    num_output: 512
    pad: 1
    kernel_size: 3
    stride: 1
  }
}
layer {
  name: "relu5_2"
  type: "ReLU"
  bottom: "conv5_2"
  top: "conv5_2"
}
layer {
  name: "conv5_3"
  type: "Convolution"
  bottom: "conv5_2"
  top: "conv5_3"
  param {
    lr_mult: 1
    decay_mult: 1
  }
  param {
    lr_mult: 2
    decay_mult: 0
  }
  convolution_param {
    num_output: 512
    pad: 1
    kernel_size: 3
    stride: 1
  }
}
layer {
  name: "relu5_3"
  type: "ReLU"
  bottom: "conv5_3"
  top: "conv5_3"
}
layer {
  name: "pool5"
  type: "Pooling"
  bottom: "conv5_3"
  top: "pool5"
  pooling_param {
    pool: MAX
    kernel_size: 2
    stride: 2
  }
}
layer {
  name: "fc6"
  type: "Convolution"
  bottom: "pool5"
  top: "fc6"
  param {
    lr_mult: 1
    decay_mult: 1
  }
  param {
    lr_mult: 2
    decay_mult: 0
  }
  convolution_param {
    num_output: 4096
    pad: 0
    kernel_size: 7
    stride: 1
  }
}
layer {
  name: "relu6"
  type: "ReLU"
  bottom: "fc6"
  top: "fc6"
}
layer {
  name: "drop6"
  type: "Dropout"
  bottom: "fc6"
  top: "fc6"
  dropout_param {
    dropout_ratio: 0.5
  }
}
layer {
  name: "fc7"
  type: "Convolution"
  bottom: "fc6"
  top: "fc7"
  param {
    lr_mult: 1
    decay_mult: 1
  }
  param {
    lr_mult: 2
    decay_mult: 0
  }
  convolution_param {
    num_output: 4096
    pad: 0
    kernel_size: 1
    stride: 1
  }
}
layer {
  name: "relu7"
  type: "ReLU"
  bottom: "fc7"
  top: "fc7"
}
layer {
  name: "drop7"
  type: "Dropout"
  bottom: "fc7"
  top: "fc7"
  dropout_param {
    dropout_ratio: 0.5
  }
}
layer {
  name: "score_fr-new"
  type: "Convolution"
  bottom: "fc7"
  top: "score_fr-new"
  param {
    lr_mult: 1
    decay_mult: 1
  }
  param {
    lr_mult: 2
    decay_mult: 0
  }
  convolution_param {
    num_output: 3
    kernel_size: 1
  }
}
layer {
  name: "upscore2-new"
  type: "Deconvolution"
  bottom: "score_fr-new"
  top: "upscore2-new"
  param {
    lr_mult: 0
  }
  convolution_param {
    num_output: 3
    bias_term: false
    kernel_size: 4
    stride: 2
  }
}
layer {
  name: "score_pool4-new"
  type: "Convolution"
  bottom: "pool4"
  top: "score_pool4-new"
  param {
    lr_mult: 1
    decay_mult: 1
  }
  param {
    lr_mult: 2
    decay_mult: 0
  }
  convolution_param {
    num_output: 3
    pad: 0
    kernel_size: 1
  }
}
layer {
  name: "score_pool4c"
  type: "Crop"
  bottom: "score_pool4-new"
  bottom: "upscore2-new"
  top: "score_pool4c"
  crop_param {
    axis: 2
    offset: 5
  }
}
layer {
  name: "fuse_pool4"
  type: "Eltwise"
  bottom: "upscore2-new"
  bottom: "score_pool4c"
  top: "fuse_pool4"
  eltwise_param {
    operation: SUM
  }
}
layer {
  name: "upscore_pool4-new"
  type: "Deconvolution"
  bottom: "fuse_pool4"
  top: "upscore_pool4-new"
  param {
    lr_mult: 0
  }
  convolution_param {
    num_output: 3
    bias_term: false
    kernel_size: 4
    stride: 2
  }
}
layer {
  name: "score_pool3-new"
  type: "Convolution"
  bottom: "pool3"
  top: "score_pool3-new"
  param {
    lr_mult: 1
    decay_mult: 1
  }
  param {
    lr_mult: 2
    decay_mult: 0
  }
  convolution_param {
    num_output: 3
    pad: 0
    kernel_size: 1
  }
}
layer {
  name: "score_pool3c"
  type: "Crop"
  bottom: "score_pool3-new"
  bottom: "upscore_pool4-new"
  top: "score_pool3c"
  crop_param {
    axis: 2
    offset: 9
  }
}
layer {
  name: "fuse_pool3"
  type: "Eltwise"
  bottom: "upscore_pool4-new"
  bottom: "score_pool3c"
  top: "fuse_pool3"
  eltwise_param {
    operation: SUM
  }
}
layer {
  name: "upscore8-new"
  type: "Deconvolution"
  bottom: "fuse_pool3"
  top: "upscore8-new"
  param {
    lr_mult: 0
  }
  convolution_param {
    num_output: 3
    bias_term: false
    kernel_size: 16
    stride: 8
  }
}
layer {
  name: "upscore8_cropped"
  type: "Crop"
  bottom: "upscore8-new"
  bottom: "data"
  top: "upscore8_cropped"
  crop_param {
    axis: 2
    offset: 31
  }
}
layer {
  name: "prob"
  type: "Sigmoid"
  bottom: "upscore8_cropped"
  top: "prob"
}
layer {
  name: "saliency1"
  type: "Convolution"
  bottom: "prob"
  top: "saliency1"
  param {
    lr_mult: 10
    decay_mult: 1
  }
  param {
    lr_mult: 20
    decay_mult: 0
  }
  convolution_param {
    num_output: 3
    pad: 1
    kernel_size: 3
    stride: 1
    weight_filler {
      type: "xavier"
    }
    bias_filler {
      type: "constant"
      value: 1
    }
  }
}
layer {
  name: "relu_saliency1"
  type: "ReLU"
  bottom: "saliency1"
  top: "saliency1"
}
layer {
  name: "saliency"
  type: "Convolution"
  bottom: "saliency1"
  top: "saliency"
  param {
    lr_mult: 10
    decay_mult: 1
  }
  param {
    lr_mult: 20
    decay_mult: 0
  }
  convolution_param {
    num_output: 3
    pad: 2
    kernel_size: 5
    stride: 1
    weight_filler {
      type: "xavier"
    }
    bias_filler {
      type: "constant"
      value: 1
    }
  }
}
layer {
  name: "silence_saliency"
  type: "Silence"
  bottom: "saliency"
}
layer {
  name: "crop"
  type: "Python"
  bottom: "label"
  bottom: "data"
  bottom: "crop_margin"
  bottom: "crop_prob"
  bottom: "crop_sample_batch"
  top: "data-R"
  top: "crop_info"
  python_param {
    module: "Crop"
    layer: "CropLayer"
    param_str: "{\"TEST\": 0}"
  }
}
layer {
  name: "conv1_1-R"
  type: "Convolution"
  bottom: "data-R"
  top: "conv1_1-R"
  param {
    lr_mult: 10
    decay_mult: 1
  }
  param {
    lr_mult: 20
    decay_mult: 0
  }
  convolution_param {
    num_output: 64
    pad: 100
    kernel_size: 3
    stride: 1
  }
}
layer {
  name: "relu1_1-R"
  type: "ReLU"
  bottom: "conv1_1-R"
  top: "conv1_1-R"
}
layer {
  name: "conv1_2-R"
  type: "Convolution"
  bottom: "conv1_1-R"
  top: "conv1_2-R"
  param {
    lr_mult: 10
    decay_mult: 1
  }
  param {
    lr_mult: 20
    decay_mult: 0
  }
  convolution_param {
    num_output: 64
    pad: 1
    kernel_size: 3
    stride: 1
  }
}
layer {
  name: "relu1_2-R"
  type: "ReLU"
  bottom: "conv1_2-R"
  top: "conv1_2-R"
}
layer {
  name: "pool1-R"
  type: "Pooling"
  bottom: "conv1_2-R"
  top: "pool1-R"
  pooling_param {
    pool: MAX
    kernel_size: 2
    stride: 2
  }
}
layer {
  name: "conv2_1-R"
  type: "Convolution"
  bottom: "pool1-R"
  top: "conv2_1-R"
  param {
    lr_mult: 10
    decay_mult: 1
  }
  param {
    lr_mult: 20
    decay_mult: 0
  }
  convolution_param {
    num_output: 128
    pad: 1
    kernel_size: 3
    stride: 1
  }
}
layer {
  name: "relu2_1-R"
  type: "ReLU"
  bottom: "conv2_1-R"
  top: "conv2_1-R"
}
layer {
  name: "conv2_2-R"
  type: "Convolution"
  bottom: "conv2_1-R"
  top: "conv2_2-R"
  param {
    lr_mult: 10
    decay_mult: 1
  }
  param {
    lr_mult: 20
    decay_mult: 0
  }
  convolution_param {
    num_output: 128
    pad: 1
    kernel_size: 3
    stride: 1
  }
}
layer {
  name: "relu2_2-R"
  type: "ReLU"
  bottom: "conv2_2-R"
  top: "conv2_2-R"
}
layer {
  name: "pool2-R"
  type: "Pooling"
  bottom: "conv2_2-R"
  top: "pool2-R"
  pooling_param {
    pool: MAX
    kernel_size: 2
    stride: 2
  }
}
layer {
  name: "conv3_1-R"
  type: "Convolution"
  bottom: "pool2-R"
  top: "conv3_1-R"
  param {
    lr_mult: 10
    decay_mult: 1
  }
  param {
    lr_mult: 20
    decay_mult: 0
  }
  convolution_param {
    num_output: 256
    pad: 1
    kernel_size: 3
    stride: 1
  }
}
layer {
  name: "relu3_1-R"
  type: "ReLU"
  bottom: "conv3_1-R"
  top: "conv3_1-R"
}
layer {
  name: "conv3_2-R"
  type: "Convolution"
  bottom: "conv3_1-R"
  top: "conv3_2-R"
  param {
    lr_mult: 10
    decay_mult: 1
  }
  param {
    lr_mult: 20
    decay_mult: 0
  }
  convolution_param {
    num_output: 256
    pad: 1
    kernel_size: 3
    stride: 1
  }
}
layer {
  name: "relu3_2-R"
  type: "ReLU"
  bottom: "conv3_2-R"
  top: "conv3_2-R"
}
layer {
  name: "conv3_3-R"
  type: "Convolution"
  bottom: "conv3_2-R"
  top: "conv3_3-R"
  param {
    lr_mult: 10
    decay_mult: 1
  }
  param {
    lr_mult: 20
    decay_mult: 0
  }
  convolution_param {
    num_output: 256
    pad: 1
    kernel_size: 3
    stride: 1
  }
}
layer {
  name: "relu3_3-R"
  type: "ReLU"
  bottom: "conv3_3-R"
  top: "conv3_3-R"
}
layer {
  name: "pool3-R"
  type: "Pooling"
  bottom: "conv3_3-R"
  top: "pool3-R"
  pooling_param {
    pool: MAX
    kernel_size: 2
    stride: 2
  }
}
layer {
  name: "conv4_1-R"
  type: "Convolution"
  bottom: "pool3-R"
  top: "conv4_1-R"
  param {
    lr_mult: 10
    decay_mult: 1
  }
  param {
    lr_mult: 20
    decay_mult: 0
  }
  convolution_param {
    num_output: 512
    pad: 1
    kernel_size: 3
    stride: 1
  }
}
layer {
  name: "relu4_1-R"
  type: "ReLU"
  bottom: "conv4_1-R"
  top: "conv4_1-R"
}
layer {
  name: "conv4_2-R"
  type: "Convolution"
  bottom: "conv4_1-R"
  top: "conv4_2-R"
  param {
    lr_mult: 10
    decay_mult: 1
  }
  param {
    lr_mult: 20
    decay_mult: 0
  }
  convolution_param {
    num_output: 512
    pad: 1
    kernel_size: 3
    stride: 1
  }
}
layer {
  name: "relu4_2-R"
  type: "ReLU"
  bottom: "conv4_2-R"
  top: "conv4_2-R"
}
layer {
  name: "conv4_3-R"
  type: "Convolution"
  bottom: "conv4_2-R"
  top: "conv4_3-R"
  param {
    lr_mult: 10
    decay_mult: 1
  }
  param {
    lr_mult: 20
    decay_mult: 0
  }
  convolution_param {
    num_output: 512
    pad: 1
    kernel_size: 3
    stride: 1
  }
}
layer {
  name: "relu4_3-R"
  type: "ReLU"
  bottom: "conv4_3-R"
  top: "conv4_3-R"
}
layer {
  name: "pool4-R"
  type: "Pooling"
  bottom: "conv4_3-R"
  top: "pool4-R"
  pooling_param {
    pool: MAX
    kernel_size: 2
    stride: 2
  }
}
layer {
  name: "conv5_1-R"
  type: "Convolution"
  bottom: "pool4-R"
  top: "conv5_1-R"
  param {
    lr_mult: 10
    decay_mult: 1
  }
  param {
    lr_mult: 20
    decay_mult: 0
  }
  convolution_param {
    num_output: 512
    pad: 1
    kernel_size: 3
    stride: 1
  }
}
layer {
  name: "relu5_1-R"
  type: "ReLU"
  bottom: "conv5_1-R"
  top: "conv5_1-R"
}
layer {
  name: "conv5_2-R"
  type: "Convolution"
  bottom: "conv5_1-R"
  top: "conv5_2-R"
  param {
    lr_mult: 10
    decay_mult: 1
  }
  param {
    lr_mult: 20
    decay_mult: 0
  }
  convolution_param {
    num_output: 512
    pad: 1
    kernel_size: 3
    stride: 1
  }
}
layer {
  name: "relu5_2-R"
  type: "ReLU"
  bottom: "conv5_2-R"
  top: "conv5_2-R"
}
layer {
  name: "conv5_3-R"
  type: "Convolution"
  bottom: "conv5_2-R"
  top: "conv5_3-R"
  param {
    lr_mult: 10
    decay_mult: 1
  }
  param {
    lr_mult: 20
    decay_mult: 0
  }
  convolution_param {
    num_output: 512
    pad: 1
    kernel_size: 3
    stride: 1
  }
}
layer {
  name: "relu5_3-R"
  type: "ReLU"
  bottom: "conv5_3-R"
  top: "conv5_3-R"
}
layer {
  name: "pool5-R"
  type: "Pooling"
  bottom: "conv5_3-R"
  top: "pool5-R"
  pooling_param {
    pool: MAX
    kernel_size: 2
    stride: 2
  }
}
layer {
  name: "fc6-R"
  type: "Convolution"
  bottom: "pool5-R"
  top: "fc6-R"
  param {
    lr_mult: 10
    decay_mult: 1
  }
  param {
    lr_mult: 20
    decay_mult: 0
  }
  convolution_param {
    num_output: 4096
    pad: 0
    kernel_size: 7
    stride: 1
  }
}
layer {
  name: "relu6-R"
  type: "ReLU"
  bottom: "fc6-R"
  top: "fc6-R"
}
layer {
  name: "drop6-R"
  type: "Dropout"
  bottom: "fc6-R"
  top: "fc6-R"
  dropout_param {
    dropout_ratio: 0.5
  }
}
layer {
  name: "fc7-R"
  type: "Convolution"
  bottom: "fc6-R"
  top: "fc7-R"
  param {
    lr_mult: 10
    decay_mult: 1
  }
  param {
    lr_mult: 20
    decay_mult: 0
  }
  convolution_param {
    num_output: 4096
    pad: 0
    kernel_size: 1
    stride: 1
  }
}
layer {
  name: "relu7-R"
  type: "ReLU"
  bottom: "fc7-R"
  top: "fc7-R"
}
layer {
  name: "drop7-R"
  type: "Dropout"
  bottom: "fc7-R"
  top: "fc7-R"
  dropout_param {
    dropout_ratio: 0.5
  }
}
layer {
  name: "score_fr-new-R"
  type: "Convolution"
  bottom: "fc7-R"
  top: "score_fr-new-R"
  param {
    lr_mult: 10
    decay_mult: 1
  }
  param {
    lr_mult: 20
    decay_mult: 0
  }
  convolution_param {
    num_output: 3
    kernel_size: 1
  }
}
layer {
  name: "upscore2-new-R"
  type: "Deconvolution"
  bottom: "score_fr-new-R"
  top: "upscore2-new-R"
  param {
    lr_mult: 0
  }
  convolution_param {
    num_output: 3
    bias_term: false
    kernel_size: 4
    stride: 2
  }
}
layer {
  name: "score_pool4-new-R"
  type: "Convolution"
  bottom: "pool4-R"
  top: "score_pool4-new-R"
  param {
    lr_mult: 10
    decay_mult: 1
  }
  param {
    lr_mult: 20
    decay_mult: 0
  }
  convolution_param {
    num_output: 3
    pad: 0
    kernel_size: 1
  }
}
layer {
  name: "score_pool4c-R"
  type: "Crop"
  bottom: "score_pool4-new-R"
  bottom: "upscore2-new-R"
  top: "score_pool4c-R"
  crop_param {
    axis: 2
    offset: 5
  }
}
layer {
  name: "fuse_pool4-R"
  type: "Eltwise"
  bottom: "upscore2-new-R"
  bottom: "score_pool4c-R"
  top: "fuse_pool4-R"
  eltwise_param {
    operation: SUM
  }
}
layer {
  name: "upscore_pool4-new-R"
  type: "Deconvolution"
  bottom: "fuse_pool4-R"
  top: "upscore_pool4-new-R"
  param {
    lr_mult: 0
  }
  convolution_param {
    num_output: 3
    bias_term: false
    kernel_size: 4
    stride: 2
  }
}
layer {
  name: "score_pool3-new-R"
  type: "Convolution"
  bottom: "pool3-R"
  top: "score_pool3-new-R"
  param {
    lr_mult: 10
    decay_mult: 1
  }
  param {
    lr_mult: 20
    decay_mult: 0
  }
  convolution_param {
    num_output: 3
    pad: 0
    kernel_size: 1
  }
}
layer {
  name: "score_pool3c-R"
  type: "Crop"
  bottom: "score_pool3-new-R"
  bottom: "upscore_pool4-new-R"
  top: "score_pool3c-R"
  crop_param {
    axis: 2
    offset: 9
  }
}
layer {
  name: "fuse_pool3-R"
  type: "Eltwise"
  bottom: "upscore_pool4-new-R"
  bottom: "score_pool3c-R"
  top: "fuse_pool3-R"
  eltwise_param {
    operation: SUM
  }
}
layer {
  name: "upscore8-new-R"
  type: "Deconvolution"
  bottom: "fuse_pool3-R"
  top: "upscore8-new-R"
  param {
    lr_mult: 0
  }
  convolution_param {
    num_output: 3
    bias_term: false
    kernel_size: 16
    stride: 8
  }
}
layer {
  name: "upscore8_cropped-R"
  type: "Crop"
  bottom: "upscore8-new-R"
  bottom: "data-R"
  top: "upscore8_cropped-R"
  crop_param {
    axis: 2
    offset: 31
  }
}
layer {
  name: "upscore8_uncropped-R"
  type: "Python"
  bottom: "crop_info"
  bottom: "upscore8_cropped-R"
  bottom: "data"
  top: "upscore8_uncropped-R"
  python_param {
    module: "Uncrop"
    layer: "UncropLayer"
  }
}
layer {
  name: "loss1"
  type: "DiceLoss"
  bottom: "upscore8_cropped"
  bottom: "label"
  top: "loss1"
  loss_weight: 0.333333
}
layer {
  name: "loss2"
  type: "DiceLoss"
  bottom: "upscore8_uncropped-R"
  bottom: "label"
  top: "loss2"
  loss_weight: 0.666667
}
I0715 16:12:57.414850 13835 layer_factory.hpp:77] Creating layer data
I0715 16:12:57.416829 13835 net.cpp:84] Creating Layer data
I0715 16:12:57.416846 13835 net.cpp:380] data -> data
I0715 16:12:57.416865 13835 net.cpp:380] data -> label
I0715 16:12:57.416873 13835 net.cpp:380] data -> crop_margin
I0715 16:12:57.416880 13835 net.cpp:380] data -> crop_prob
I0715 16:12:57.416887 13835 net.cpp:380] data -> crop_sample_batch
I0715 16:12:57.520510 13835 net.cpp:122] Setting up data
I0715 16:12:57.520568 13835 net.cpp:129] Top shape: 1 3 512 512 (786432)
I0715 16:12:57.520576 13835 net.cpp:129] Top shape: 1 3 512 512 (786432)
I0715 16:12:57.520581 13835 net.cpp:129] Top shape: 1 (1)
I0715 16:12:57.520583 13835 net.cpp:129] Top shape: 1 (1)
I0715 16:12:57.520588 13835 net.cpp:129] Top shape: 1 (1)
I0715 16:12:57.520591 13835 net.cpp:137] Memory required for data: 6291468
I0715 16:12:57.520599 13835 layer_factory.hpp:77] Creating layer data_data_0_split
I0715 16:12:57.520618 13835 net.cpp:84] Creating Layer data_data_0_split
I0715 16:12:57.520627 13835 net.cpp:406] data_data_0_split <- data
I0715 16:12:57.520658 13835 net.cpp:380] data_data_0_split -> data_data_0_split_0
I0715 16:12:57.520671 13835 net.cpp:380] data_data_0_split -> data_data_0_split_1
I0715 16:12:57.520678 13835 net.cpp:380] data_data_0_split -> data_data_0_split_2
I0715 16:12:57.520684 13835 net.cpp:380] data_data_0_split -> data_data_0_split_3
I0715 16:12:57.520741 13835 net.cpp:122] Setting up data_data_0_split
I0715 16:12:57.520751 13835 net.cpp:129] Top shape: 1 3 512 512 (786432)
I0715 16:12:57.520756 13835 net.cpp:129] Top shape: 1 3 512 512 (786432)
I0715 16:12:57.520761 13835 net.cpp:129] Top shape: 1 3 512 512 (786432)
I0715 16:12:57.520764 13835 net.cpp:129] Top shape: 1 3 512 512 (786432)
I0715 16:12:57.520767 13835 net.cpp:137] Memory required for data: 18874380
I0715 16:12:57.520771 13835 layer_factory.hpp:77] Creating layer label_data_1_split
I0715 16:12:57.520778 13835 net.cpp:84] Creating Layer label_data_1_split
I0715 16:12:57.520782 13835 net.cpp:406] label_data_1_split <- label
I0715 16:12:57.520790 13835 net.cpp:380] label_data_1_split -> label_data_1_split_0
I0715 16:12:57.520797 13835 net.cpp:380] label_data_1_split -> label_data_1_split_1
I0715 16:12:57.520803 13835 net.cpp:380] label_data_1_split -> label_data_1_split_2
I0715 16:12:57.520849 13835 net.cpp:122] Setting up label_data_1_split
I0715 16:12:57.520858 13835 net.cpp:129] Top shape: 1 3 512 512 (786432)
I0715 16:12:57.520861 13835 net.cpp:129] Top shape: 1 3 512 512 (786432)
I0715 16:12:57.520866 13835 net.cpp:129] Top shape: 1 3 512 512 (786432)
I0715 16:12:57.520869 13835 net.cpp:137] Memory required for data: 28311564
I0715 16:12:57.520874 13835 layer_factory.hpp:77] Creating layer conv1_1
I0715 16:12:57.520890 13835 net.cpp:84] Creating Layer conv1_1
I0715 16:12:57.520900 13835 net.cpp:406] conv1_1 <- data_data_0_split_0
I0715 16:12:57.520908 13835 net.cpp:380] conv1_1 -> conv1_1
I0715 16:12:57.835229 13835 net.cpp:122] Setting up conv1_1
I0715 16:12:57.835331 13835 net.cpp:129] Top shape: 1 64 710 710 (32262400)
I0715 16:12:57.835341 13835 net.cpp:137] Memory required for data: 157361164
I0715 16:12:57.835391 13835 layer_factory.hpp:77] Creating layer relu1_1
I0715 16:12:57.835419 13835 net.cpp:84] Creating Layer relu1_1
I0715 16:12:57.835445 13835 net.cpp:406] relu1_1 <- conv1_1
I0715 16:12:57.835458 13835 net.cpp:367] relu1_1 -> conv1_1 (in-place)
I0715 16:12:57.835950 13835 net.cpp:122] Setting up relu1_1
I0715 16:12:57.835970 13835 net.cpp:129] Top shape: 1 64 710 710 (32262400)
I0715 16:12:57.835988 13835 net.cpp:137] Memory required for data: 286410764
I0715 16:12:57.835994 13835 layer_factory.hpp:77] Creating layer conv1_2
I0715 16:12:57.836024 13835 net.cpp:84] Creating Layer conv1_2
I0715 16:12:57.836032 13835 net.cpp:406] conv1_2 <- conv1_1
I0715 16:12:57.836045 13835 net.cpp:380] conv1_2 -> conv1_2
I0715 16:12:57.844465 13835 net.cpp:122] Setting up conv1_2
I0715 16:12:57.844485 13835 net.cpp:129] Top shape: 1 64 710 710 (32262400)
I0715 16:12:57.844497 13835 net.cpp:137] Memory required for data: 415460364
I0715 16:12:57.844511 13835 layer_factory.hpp:77] Creating layer relu1_2
I0715 16:12:57.844518 13835 net.cpp:84] Creating Layer relu1_2
I0715 16:12:57.844523 13835 net.cpp:406] relu1_2 <- conv1_2
I0715 16:12:57.844532 13835 net.cpp:367] relu1_2 -> conv1_2 (in-place)
I0715 16:12:57.844774 13835 net.cpp:122] Setting up relu1_2
I0715 16:12:57.844787 13835 net.cpp:129] Top shape: 1 64 710 710 (32262400)
I0715 16:12:57.844791 13835 net.cpp:137] Memory required for data: 544509964
I0715 16:12:57.844796 13835 layer_factory.hpp:77] Creating layer pool1
I0715 16:12:57.844805 13835 net.cpp:84] Creating Layer pool1
I0715 16:12:57.844810 13835 net.cpp:406] pool1 <- conv1_2
I0715 16:12:57.844816 13835 net.cpp:380] pool1 -> pool1
I0715 16:12:57.844878 13835 net.cpp:122] Setting up pool1
I0715 16:12:57.844884 13835 net.cpp:129] Top shape: 1 64 355 355 (8065600)
I0715 16:12:57.844888 13835 net.cpp:137] Memory required for data: 576772364
I0715 16:12:57.844892 13835 layer_factory.hpp:77] Creating layer conv2_1
I0715 16:12:57.844907 13835 net.cpp:84] Creating Layer conv2_1
I0715 16:12:57.844913 13835 net.cpp:406] conv2_1 <- pool1
I0715 16:12:57.844919 13835 net.cpp:380] conv2_1 -> conv2_1
I0715 16:12:57.848712 13835 net.cpp:122] Setting up conv2_1
I0715 16:12:57.848731 13835 net.cpp:129] Top shape: 1 128 355 355 (16131200)
I0715 16:12:57.848747 13835 net.cpp:137] Memory required for data: 641297164
I0715 16:12:57.848762 13835 layer_factory.hpp:77] Creating layer relu2_1
I0715 16:12:57.848769 13835 net.cpp:84] Creating Layer relu2_1
I0715 16:12:57.848774 13835 net.cpp:406] relu2_1 <- conv2_1
I0715 16:12:57.848780 13835 net.cpp:367] relu2_1 -> conv2_1 (in-place)
I0715 16:12:57.849017 13835 net.cpp:122] Setting up relu2_1
I0715 16:12:57.849030 13835 net.cpp:129] Top shape: 1 128 355 355 (16131200)
I0715 16:12:57.849035 13835 net.cpp:137] Memory required for data: 705821964
I0715 16:12:57.849038 13835 layer_factory.hpp:77] Creating layer conv2_2
I0715 16:12:57.849050 13835 net.cpp:84] Creating Layer conv2_2
I0715 16:12:57.849054 13835 net.cpp:406] conv2_2 <- conv2_1
I0715 16:12:57.849063 13835 net.cpp:380] conv2_2 -> conv2_2
I0715 16:12:57.855077 13835 net.cpp:122] Setting up conv2_2
I0715 16:12:57.855108 13835 net.cpp:129] Top shape: 1 128 355 355 (16131200)
I0715 16:12:57.855113 13835 net.cpp:137] Memory required for data: 770346764
I0715 16:12:57.855121 13835 layer_factory.hpp:77] Creating layer relu2_2
I0715 16:12:57.855129 13835 net.cpp:84] Creating Layer relu2_2
I0715 16:12:57.855134 13835 net.cpp:406] relu2_2 <- conv2_2
I0715 16:12:57.855144 13835 net.cpp:367] relu2_2 -> conv2_2 (in-place)
I0715 16:12:57.855562 13835 net.cpp:122] Setting up relu2_2
I0715 16:12:57.855582 13835 net.cpp:129] Top shape: 1 128 355 355 (16131200)
I0715 16:12:57.855600 13835 net.cpp:137] Memory required for data: 834871564
I0715 16:12:57.855607 13835 layer_factory.hpp:77] Creating layer pool2
I0715 16:12:57.855633 13835 net.cpp:84] Creating Layer pool2
I0715 16:12:57.855639 13835 net.cpp:406] pool2 <- conv2_2
I0715 16:12:57.855653 13835 net.cpp:380] pool2 -> pool2
I0715 16:12:57.855769 13835 net.cpp:122] Setting up pool2
I0715 16:12:57.855790 13835 net.cpp:129] Top shape: 1 128 178 178 (4055552)
I0715 16:12:57.855796 13835 net.cpp:137] Memory required for data: 851093772
I0715 16:12:57.855803 13835 layer_factory.hpp:77] Creating layer conv3_1
I0715 16:12:57.855816 13835 net.cpp:84] Creating Layer conv3_1
I0715 16:12:57.855823 13835 net.cpp:406] conv3_1 <- pool2
I0715 16:12:57.855836 13835 net.cpp:380] conv3_1 -> conv3_1
I0715 16:12:57.862500 13835 net.cpp:122] Setting up conv3_1
I0715 16:12:57.862538 13835 net.cpp:129] Top shape: 1 256 178 178 (8111104)
I0715 16:12:57.862546 13835 net.cpp:137] Memory required for data: 883538188
I0715 16:12:57.862565 13835 layer_factory.hpp:77] Creating layer relu3_1
I0715 16:12:57.862581 13835 net.cpp:84] Creating Layer relu3_1
I0715 16:12:57.862589 13835 net.cpp:406] relu3_1 <- conv3_1
I0715 16:12:57.862598 13835 net.cpp:367] relu3_1 -> conv3_1 (in-place)
I0715 16:12:57.863723 13835 net.cpp:122] Setting up relu3_1
I0715 16:12:57.863759 13835 net.cpp:129] Top shape: 1 256 178 178 (8111104)
I0715 16:12:57.863765 13835 net.cpp:137] Memory required for data: 915982604
I0715 16:12:57.863772 13835 layer_factory.hpp:77] Creating layer conv3_2
I0715 16:12:57.863790 13835 net.cpp:84] Creating Layer conv3_2
I0715 16:12:57.863798 13835 net.cpp:406] conv3_2 <- conv3_1
I0715 16:12:57.863817 13835 net.cpp:380] conv3_2 -> conv3_2
I0715 16:12:57.868880 13835 net.cpp:122] Setting up conv3_2
I0715 16:12:57.868896 13835 net.cpp:129] Top shape: 1 256 178 178 (8111104)
I0715 16:12:57.868911 13835 net.cpp:137] Memory required for data: 948427020
I0715 16:12:57.868919 13835 layer_factory.hpp:77] Creating layer relu3_2
I0715 16:12:57.868935 13835 net.cpp:84] Creating Layer relu3_2
I0715 16:12:57.868940 13835 net.cpp:406] relu3_2 <- conv3_2
I0715 16:12:57.868949 13835 net.cpp:367] relu3_2 -> conv3_2 (in-place)
I0715 16:12:57.869668 13835 net.cpp:122] Setting up relu3_2
I0715 16:12:57.869683 13835 net.cpp:129] Top shape: 1 256 178 178 (8111104)
I0715 16:12:57.869699 13835 net.cpp:137] Memory required for data: 980871436
I0715 16:12:57.869704 13835 layer_factory.hpp:77] Creating layer conv3_3
I0715 16:12:57.869726 13835 net.cpp:84] Creating Layer conv3_3
I0715 16:12:57.869731 13835 net.cpp:406] conv3_3 <- conv3_2
I0715 16:12:57.869740 13835 net.cpp:380] conv3_3 -> conv3_3
I0715 16:12:57.876142 13835 net.cpp:122] Setting up conv3_3
I0715 16:12:57.876161 13835 net.cpp:129] Top shape: 1 256 178 178 (8111104)
I0715 16:12:57.876175 13835 net.cpp:137] Memory required for data: 1013315852
I0715 16:12:57.876199 13835 layer_factory.hpp:77] Creating layer relu3_3
I0715 16:12:57.876209 13835 net.cpp:84] Creating Layer relu3_3
I0715 16:12:57.876214 13835 net.cpp:406] relu3_3 <- conv3_3
I0715 16:12:57.876220 13835 net.cpp:367] relu3_3 -> conv3_3 (in-place)
I0715 16:12:57.876579 13835 net.cpp:122] Setting up relu3_3
I0715 16:12:57.876612 13835 net.cpp:129] Top shape: 1 256 178 178 (8111104)
I0715 16:12:57.876627 13835 net.cpp:137] Memory required for data: 1045760268
I0715 16:12:57.876634 13835 layer_factory.hpp:77] Creating layer pool3
I0715 16:12:57.876646 13835 net.cpp:84] Creating Layer pool3
I0715 16:12:57.876652 13835 net.cpp:406] pool3 <- conv3_3
I0715 16:12:57.876662 13835 net.cpp:380] pool3 -> pool3
I0715 16:12:57.876760 13835 net.cpp:122] Setting up pool3
I0715 16:12:57.876794 13835 net.cpp:129] Top shape: 1 256 89 89 (2027776)
I0715 16:12:57.876801 13835 net.cpp:137] Memory required for data: 1053871372
I0715 16:12:57.876817 13835 layer_factory.hpp:77] Creating layer pool3_pool3_0_split
I0715 16:12:57.876827 13835 net.cpp:84] Creating Layer pool3_pool3_0_split
I0715 16:12:57.876833 13835 net.cpp:406] pool3_pool3_0_split <- pool3
I0715 16:12:57.876847 13835 net.cpp:380] pool3_pool3_0_split -> pool3_pool3_0_split_0
I0715 16:12:57.876858 13835 net.cpp:380] pool3_pool3_0_split -> pool3_pool3_0_split_1
I0715 16:12:57.876940 13835 net.cpp:122] Setting up pool3_pool3_0_split
I0715 16:12:57.876952 13835 net.cpp:129] Top shape: 1 256 89 89 (2027776)
I0715 16:12:57.876961 13835 net.cpp:129] Top shape: 1 256 89 89 (2027776)
I0715 16:12:57.876967 13835 net.cpp:137] Memory required for data: 1070093580
I0715 16:12:57.876974 13835 layer_factory.hpp:77] Creating layer conv4_1
I0715 16:12:57.876992 13835 net.cpp:84] Creating Layer conv4_1
I0715 16:12:57.876999 13835 net.cpp:406] conv4_1 <- pool3_pool3_0_split_0
I0715 16:12:57.877009 13835 net.cpp:380] conv4_1 -> conv4_1
I0715 16:12:57.888650 13835 net.cpp:122] Setting up conv4_1
I0715 16:12:57.888698 13835 net.cpp:129] Top shape: 1 512 89 89 (4055552)
I0715 16:12:57.888705 13835 net.cpp:137] Memory required for data: 1086315788
I0715 16:12:57.888720 13835 layer_factory.hpp:77] Creating layer relu4_1
I0715 16:12:57.888736 13835 net.cpp:84] Creating Layer relu4_1
I0715 16:12:57.888743 13835 net.cpp:406] relu4_1 <- conv4_1
I0715 16:12:57.888764 13835 net.cpp:367] relu4_1 -> conv4_1 (in-place)
I0715 16:12:57.889083 13835 net.cpp:122] Setting up relu4_1
I0715 16:12:57.889099 13835 net.cpp:129] Top shape: 1 512 89 89 (4055552)
I0715 16:12:57.889104 13835 net.cpp:137] Memory required for data: 1102537996
I0715 16:12:57.889111 13835 layer_factory.hpp:77] Creating layer conv4_2
I0715 16:12:57.889128 13835 net.cpp:84] Creating Layer conv4_2
I0715 16:12:57.889134 13835 net.cpp:406] conv4_2 <- conv4_1
I0715 16:12:57.889143 13835 net.cpp:380] conv4_2 -> conv4_2
I0715 16:12:57.900277 13835 net.cpp:122] Setting up conv4_2
I0715 16:12:57.900315 13835 net.cpp:129] Top shape: 1 512 89 89 (4055552)
I0715 16:12:57.900321 13835 net.cpp:137] Memory required for data: 1118760204
I0715 16:12:57.900342 13835 layer_factory.hpp:77] Creating layer relu4_2
I0715 16:12:57.900353 13835 net.cpp:84] Creating Layer relu4_2
I0715 16:12:57.900359 13835 net.cpp:406] relu4_2 <- conv4_2
I0715 16:12:57.900365 13835 net.cpp:367] relu4_2 -> conv4_2 (in-place)
I0715 16:12:57.900621 13835 net.cpp:122] Setting up relu4_2
I0715 16:12:57.900635 13835 net.cpp:129] Top shape: 1 512 89 89 (4055552)
I0715 16:12:57.900638 13835 net.cpp:137] Memory required for data: 1134982412
I0715 16:12:57.900643 13835 layer_factory.hpp:77] Creating layer conv4_3
I0715 16:12:57.900660 13835 net.cpp:84] Creating Layer conv4_3
I0715 16:12:57.900665 13835 net.cpp:406] conv4_3 <- conv4_2
I0715 16:12:57.900672 13835 net.cpp:380] conv4_3 -> conv4_3
I0715 16:12:57.909956 13835 net.cpp:122] Setting up conv4_3
I0715 16:12:57.909994 13835 net.cpp:129] Top shape: 1 512 89 89 (4055552)
I0715 16:12:57.909999 13835 net.cpp:137] Memory required for data: 1151204620
I0715 16:12:57.910009 13835 layer_factory.hpp:77] Creating layer relu4_3
I0715 16:12:57.910024 13835 net.cpp:84] Creating Layer relu4_3
I0715 16:12:57.910030 13835 net.cpp:406] relu4_3 <- conv4_3
I0715 16:12:57.910037 13835 net.cpp:367] relu4_3 -> conv4_3 (in-place)
I0715 16:12:57.910259 13835 net.cpp:122] Setting up relu4_3
I0715 16:12:57.910270 13835 net.cpp:129] Top shape: 1 512 89 89 (4055552)
I0715 16:12:57.910277 13835 net.cpp:137] Memory required for data: 1167426828
I0715 16:12:57.910281 13835 layer_factory.hpp:77] Creating layer pool4
I0715 16:12:57.910290 13835 net.cpp:84] Creating Layer pool4
I0715 16:12:57.910295 13835 net.cpp:406] pool4 <- conv4_3
I0715 16:12:57.910302 13835 net.cpp:380] pool4 -> pool4
I0715 16:12:57.910359 13835 net.cpp:122] Setting up pool4
I0715 16:12:57.910368 13835 net.cpp:129] Top shape: 1 512 45 45 (1036800)
I0715 16:12:57.910372 13835 net.cpp:137] Memory required for data: 1171574028
I0715 16:12:57.910377 13835 layer_factory.hpp:77] Creating layer pool4_pool4_0_split
I0715 16:12:57.910382 13835 net.cpp:84] Creating Layer pool4_pool4_0_split
I0715 16:12:57.910387 13835 net.cpp:406] pool4_pool4_0_split <- pool4
I0715 16:12:57.910394 13835 net.cpp:380] pool4_pool4_0_split -> pool4_pool4_0_split_0
I0715 16:12:57.910401 13835 net.cpp:380] pool4_pool4_0_split -> pool4_pool4_0_split_1
I0715 16:12:57.910442 13835 net.cpp:122] Setting up pool4_pool4_0_split
I0715 16:12:57.910449 13835 net.cpp:129] Top shape: 1 512 45 45 (1036800)
I0715 16:12:57.910454 13835 net.cpp:129] Top shape: 1 512 45 45 (1036800)
I0715 16:12:57.910457 13835 net.cpp:137] Memory required for data: 1179868428
I0715 16:12:57.910461 13835 layer_factory.hpp:77] Creating layer conv5_1
I0715 16:12:57.910476 13835 net.cpp:84] Creating Layer conv5_1
I0715 16:12:57.910480 13835 net.cpp:406] conv5_1 <- pool4_pool4_0_split_0
I0715 16:12:57.910487 13835 net.cpp:380] conv5_1 -> conv5_1
I0715 16:12:57.921772 13835 net.cpp:122] Setting up conv5_1
I0715 16:12:57.921793 13835 net.cpp:129] Top shape: 1 512 45 45 (1036800)
I0715 16:12:57.921808 13835 net.cpp:137] Memory required for data: 1184015628
I0715 16:12:57.921818 13835 layer_factory.hpp:77] Creating layer relu5_1
I0715 16:12:57.921830 13835 net.cpp:84] Creating Layer relu5_1
I0715 16:12:57.921835 13835 net.cpp:406] relu5_1 <- conv5_1
I0715 16:12:57.921842 13835 net.cpp:367] relu5_1 -> conv5_1 (in-place)
I0715 16:12:57.922610 13835 net.cpp:122] Setting up relu5_1
I0715 16:12:57.922627 13835 net.cpp:129] Top shape: 1 512 45 45 (1036800)
I0715 16:12:57.922641 13835 net.cpp:137] Memory required for data: 1188162828
I0715 16:12:57.922646 13835 layer_factory.hpp:77] Creating layer conv5_2
I0715 16:12:57.922673 13835 net.cpp:84] Creating Layer conv5_2
I0715 16:12:57.922678 13835 net.cpp:406] conv5_2 <- conv5_1
I0715 16:12:57.922685 13835 net.cpp:380] conv5_2 -> conv5_2
I0715 16:12:57.932935 13835 net.cpp:122] Setting up conv5_2
I0715 16:12:57.932999 13835 net.cpp:129] Top shape: 1 512 45 45 (1036800)
I0715 16:12:57.933007 13835 net.cpp:137] Memory required for data: 1192310028
I0715 16:12:57.933037 13835 layer_factory.hpp:77] Creating layer relu5_2
I0715 16:12:57.933066 13835 net.cpp:84] Creating Layer relu5_2
I0715 16:12:57.933077 13835 net.cpp:406] relu5_2 <- conv5_2
I0715 16:12:57.933090 13835 net.cpp:367] relu5_2 -> conv5_2 (in-place)
I0715 16:12:57.934484 13835 net.cpp:122] Setting up relu5_2
I0715 16:12:57.934520 13835 net.cpp:129] Top shape: 1 512 45 45 (1036800)
I0715 16:12:57.934527 13835 net.cpp:137] Memory required for data: 1196457228
I0715 16:12:57.934535 13835 layer_factory.hpp:77] Creating layer conv5_3
I0715 16:12:57.934558 13835 net.cpp:84] Creating Layer conv5_3
I0715 16:12:57.934567 13835 net.cpp:406] conv5_3 <- conv5_2
I0715 16:12:57.934587 13835 net.cpp:380] conv5_3 -> conv5_3
I0715 16:12:57.944841 13835 net.cpp:122] Setting up conv5_3
I0715 16:12:57.944875 13835 net.cpp:129] Top shape: 1 512 45 45 (1036800)
I0715 16:12:57.944880 13835 net.cpp:137] Memory required for data: 1200604428
I0715 16:12:57.944891 13835 layer_factory.hpp:77] Creating layer relu5_3
I0715 16:12:57.944901 13835 net.cpp:84] Creating Layer relu5_3
I0715 16:12:57.944906 13835 net.cpp:406] relu5_3 <- conv5_3
I0715 16:12:57.944916 13835 net.cpp:367] relu5_3 -> conv5_3 (in-place)
I0715 16:12:57.945159 13835 net.cpp:122] Setting up relu5_3
I0715 16:12:57.945171 13835 net.cpp:129] Top shape: 1 512 45 45 (1036800)
I0715 16:12:57.945175 13835 net.cpp:137] Memory required for data: 1204751628
I0715 16:12:57.945180 13835 layer_factory.hpp:77] Creating layer pool5
I0715 16:12:57.945192 13835 net.cpp:84] Creating Layer pool5
I0715 16:12:57.945196 13835 net.cpp:406] pool5 <- conv5_3
I0715 16:12:57.945204 13835 net.cpp:380] pool5 -> pool5
I0715 16:12:57.945258 13835 net.cpp:122] Setting up pool5
I0715 16:12:57.945267 13835 net.cpp:129] Top shape: 1 512 23 23 (270848)
I0715 16:12:57.945271 13835 net.cpp:137] Memory required for data: 1205835020
I0715 16:12:57.945276 13835 layer_factory.hpp:77] Creating layer fc6
I0715 16:12:57.945288 13835 net.cpp:84] Creating Layer fc6
I0715 16:12:57.945292 13835 net.cpp:406] fc6 <- pool5
I0715 16:12:57.945299 13835 net.cpp:380] fc6 -> fc6
I0715 16:12:58.303951 13835 net.cpp:122] Setting up fc6
I0715 16:12:58.303998 13835 net.cpp:129] Top shape: 1 4096 17 17 (1183744)
I0715 16:12:58.304004 13835 net.cpp:137] Memory required for data: 1210569996
I0715 16:12:58.304016 13835 layer_factory.hpp:77] Creating layer relu6
I0715 16:12:58.304034 13835 net.cpp:84] Creating Layer relu6
I0715 16:12:58.304040 13835 net.cpp:406] relu6 <- fc6
I0715 16:12:58.304049 13835 net.cpp:367] relu6 -> fc6 (in-place)
I0715 16:12:58.304298 13835 net.cpp:122] Setting up relu6
I0715 16:12:58.304311 13835 net.cpp:129] Top shape: 1 4096 17 17 (1183744)
I0715 16:12:58.304316 13835 net.cpp:137] Memory required for data: 1215304972
I0715 16:12:58.304320 13835 layer_factory.hpp:77] Creating layer drop6
I0715 16:12:58.304338 13835 net.cpp:84] Creating Layer drop6
I0715 16:12:58.304342 13835 net.cpp:406] drop6 <- fc6
I0715 16:12:58.304348 13835 net.cpp:367] drop6 -> fc6 (in-place)
I0715 16:12:58.304386 13835 net.cpp:122] Setting up drop6
I0715 16:12:58.304392 13835 net.cpp:129] Top shape: 1 4096 17 17 (1183744)
I0715 16:12:58.304396 13835 net.cpp:137] Memory required for data: 1220039948
I0715 16:12:58.304400 13835 layer_factory.hpp:77] Creating layer fc7
I0715 16:12:58.304417 13835 net.cpp:84] Creating Layer fc7
I0715 16:12:58.304421 13835 net.cpp:406] fc7 <- fc6
I0715 16:12:58.304427 13835 net.cpp:380] fc7 -> fc7
I0715 16:12:58.362896 13835 net.cpp:122] Setting up fc7
I0715 16:12:58.362944 13835 net.cpp:129] Top shape: 1 4096 17 17 (1183744)
I0715 16:12:58.362951 13835 net.cpp:137] Memory required for data: 1224774924
I0715 16:12:58.362962 13835 layer_factory.hpp:77] Creating layer relu7
I0715 16:12:58.362977 13835 net.cpp:84] Creating Layer relu7
I0715 16:12:58.362983 13835 net.cpp:406] relu7 <- fc7
I0715 16:12:58.362993 13835 net.cpp:367] relu7 -> fc7 (in-place)
I0715 16:12:58.363804 13835 net.cpp:122] Setting up relu7
I0715 16:12:58.363827 13835 net.cpp:129] Top shape: 1 4096 17 17 (1183744)
I0715 16:12:58.363839 13835 net.cpp:137] Memory required for data: 1229509900
I0715 16:12:58.363844 13835 layer_factory.hpp:77] Creating layer drop7
I0715 16:12:58.363855 13835 net.cpp:84] Creating Layer drop7
I0715 16:12:58.363871 13835 net.cpp:406] drop7 <- fc7
I0715 16:12:58.363878 13835 net.cpp:367] drop7 -> fc7 (in-place)
I0715 16:12:58.363919 13835 net.cpp:122] Setting up drop7
I0715 16:12:58.363926 13835 net.cpp:129] Top shape: 1 4096 17 17 (1183744)
I0715 16:12:58.363929 13835 net.cpp:137] Memory required for data: 1234244876
I0715 16:12:58.363934 13835 layer_factory.hpp:77] Creating layer score_fr-new
I0715 16:12:58.363946 13835 net.cpp:84] Creating Layer score_fr-new
I0715 16:12:58.363950 13835 net.cpp:406] score_fr-new <- fc7
I0715 16:12:58.363957 13835 net.cpp:380] score_fr-new -> score_fr-new
I0715 16:12:58.365588 13835 net.cpp:122] Setting up score_fr-new
I0715 16:12:58.365607 13835 net.cpp:129] Top shape: 1 3 17 17 (867)
I0715 16:12:58.365610 13835 net.cpp:137] Memory required for data: 1234248344
I0715 16:12:58.365624 13835 layer_factory.hpp:77] Creating layer upscore2-new
I0715 16:12:58.365646 13835 net.cpp:84] Creating Layer upscore2-new
I0715 16:12:58.365651 13835 net.cpp:406] upscore2-new <- score_fr-new
I0715 16:12:58.365661 13835 net.cpp:380] upscore2-new -> upscore2-new
I0715 16:12:58.365918 13835 net.cpp:122] Setting up upscore2-new
I0715 16:12:58.365929 13835 net.cpp:129] Top shape: 1 3 36 36 (3888)
I0715 16:12:58.365933 13835 net.cpp:137] Memory required for data: 1234263896
I0715 16:12:58.365950 13835 layer_factory.hpp:77] Creating layer upscore2-new_upscore2-new_0_split
I0715 16:12:58.365958 13835 net.cpp:84] Creating Layer upscore2-new_upscore2-new_0_split
I0715 16:12:58.365962 13835 net.cpp:406] upscore2-new_upscore2-new_0_split <- upscore2-new
I0715 16:12:58.365968 13835 net.cpp:380] upscore2-new_upscore2-new_0_split -> upscore2-new_upscore2-new_0_split_0
I0715 16:12:58.365977 13835 net.cpp:380] upscore2-new_upscore2-new_0_split -> upscore2-new_upscore2-new_0_split_1
I0715 16:12:58.366020 13835 net.cpp:122] Setting up upscore2-new_upscore2-new_0_split
I0715 16:12:58.366029 13835 net.cpp:129] Top shape: 1 3 36 36 (3888)
I0715 16:12:58.366034 13835 net.cpp:129] Top shape: 1 3 36 36 (3888)
I0715 16:12:58.366037 13835 net.cpp:137] Memory required for data: 1234295000
I0715 16:12:58.366041 13835 layer_factory.hpp:77] Creating layer score_pool4-new
I0715 16:12:58.366050 13835 net.cpp:84] Creating Layer score_pool4-new
I0715 16:12:58.366055 13835 net.cpp:406] score_pool4-new <- pool4_pool4_0_split_1
I0715 16:12:58.366063 13835 net.cpp:380] score_pool4-new -> score_pool4-new
I0715 16:12:58.367691 13835 net.cpp:122] Setting up score_pool4-new
I0715 16:12:58.367708 13835 net.cpp:129] Top shape: 1 3 45 45 (6075)
I0715 16:12:58.367712 13835 net.cpp:137] Memory required for data: 1234319300
I0715 16:12:58.367720 13835 layer_factory.hpp:77] Creating layer score_pool4c
I0715 16:12:58.367743 13835 net.cpp:84] Creating Layer score_pool4c
I0715 16:12:58.367748 13835 net.cpp:406] score_pool4c <- score_pool4-new
I0715 16:12:58.367753 13835 net.cpp:406] score_pool4c <- upscore2-new_upscore2-new_0_split_0
I0715 16:12:58.367763 13835 net.cpp:380] score_pool4c -> score_pool4c
I0715 16:12:58.367803 13835 net.cpp:122] Setting up score_pool4c
I0715 16:12:58.367810 13835 net.cpp:129] Top shape: 1 3 36 36 (3888)
I0715 16:12:58.367813 13835 net.cpp:137] Memory required for data: 1234334852
I0715 16:12:58.367817 13835 layer_factory.hpp:77] Creating layer fuse_pool4
I0715 16:12:58.367827 13835 net.cpp:84] Creating Layer fuse_pool4
I0715 16:12:58.367831 13835 net.cpp:406] fuse_pool4 <- upscore2-new_upscore2-new_0_split_1
I0715 16:12:58.367837 13835 net.cpp:406] fuse_pool4 <- score_pool4c
I0715 16:12:58.367843 13835 net.cpp:380] fuse_pool4 -> fuse_pool4
I0715 16:12:58.367879 13835 net.cpp:122] Setting up fuse_pool4
I0715 16:12:58.367885 13835 net.cpp:129] Top shape: 1 3 36 36 (3888)
I0715 16:12:58.367889 13835 net.cpp:137] Memory required for data: 1234350404
I0715 16:12:58.367892 13835 layer_factory.hpp:77] Creating layer upscore_pool4-new
I0715 16:12:58.367902 13835 net.cpp:84] Creating Layer upscore_pool4-new
I0715 16:12:58.367907 13835 net.cpp:406] upscore_pool4-new <- fuse_pool4
I0715 16:12:58.367914 13835 net.cpp:380] upscore_pool4-new -> upscore_pool4-new
I0715 16:12:58.368150 13835 net.cpp:122] Setting up upscore_pool4-new
I0715 16:12:58.368161 13835 net.cpp:129] Top shape: 1 3 74 74 (16428)
I0715 16:12:58.368165 13835 net.cpp:137] Memory required for data: 1234416116
I0715 16:12:58.368170 13835 layer_factory.hpp:77] Creating layer upscore_pool4-new_upscore_pool4-new_0_split
I0715 16:12:58.368183 13835 net.cpp:84] Creating Layer upscore_pool4-new_upscore_pool4-new_0_split
I0715 16:12:58.368188 13835 net.cpp:406] upscore_pool4-new_upscore_pool4-new_0_split <- upscore_pool4-new
I0715 16:12:58.368194 13835 net.cpp:380] upscore_pool4-new_upscore_pool4-new_0_split -> upscore_pool4-new_upscore_pool4-new_0_split_0
I0715 16:12:58.368201 13835 net.cpp:380] upscore_pool4-new_upscore_pool4-new_0_split -> upscore_pool4-new_upscore_pool4-new_0_split_1
I0715 16:12:58.368242 13835 net.cpp:122] Setting up upscore_pool4-new_upscore_pool4-new_0_split
I0715 16:12:58.368260 13835 net.cpp:129] Top shape: 1 3 74 74 (16428)
I0715 16:12:58.368265 13835 net.cpp:129] Top shape: 1 3 74 74 (16428)
I0715 16:12:58.368269 13835 net.cpp:137] Memory required for data: 1234547540
I0715 16:12:58.368273 13835 layer_factory.hpp:77] Creating layer score_pool3-new
I0715 16:12:58.368281 13835 net.cpp:84] Creating Layer score_pool3-new
I0715 16:12:58.368285 13835 net.cpp:406] score_pool3-new <- pool3_pool3_0_split_1
I0715 16:12:58.368294 13835 net.cpp:380] score_pool3-new -> score_pool3-new
I0715 16:12:58.369884 13835 net.cpp:122] Setting up score_pool3-new
I0715 16:12:58.369902 13835 net.cpp:129] Top shape: 1 3 89 89 (23763)
I0715 16:12:58.369906 13835 net.cpp:137] Memory required for data: 1234642592
I0715 16:12:58.369915 13835 layer_factory.hpp:77] Creating layer score_pool3c
I0715 16:12:58.369930 13835 net.cpp:84] Creating Layer score_pool3c
I0715 16:12:58.369935 13835 net.cpp:406] score_pool3c <- score_pool3-new
I0715 16:12:58.369942 13835 net.cpp:406] score_pool3c <- upscore_pool4-new_upscore_pool4-new_0_split_0
I0715 16:12:58.369951 13835 net.cpp:380] score_pool3c -> score_pool3c
I0715 16:12:58.369985 13835 net.cpp:122] Setting up score_pool3c
I0715 16:12:58.369992 13835 net.cpp:129] Top shape: 1 3 74 74 (16428)
I0715 16:12:58.369997 13835 net.cpp:137] Memory required for data: 1234708304
I0715 16:12:58.369999 13835 layer_factory.hpp:77] Creating layer fuse_pool3
I0715 16:12:58.370010 13835 net.cpp:84] Creating Layer fuse_pool3
I0715 16:12:58.370014 13835 net.cpp:406] fuse_pool3 <- upscore_pool4-new_upscore_pool4-new_0_split_1
I0715 16:12:58.370019 13835 net.cpp:406] fuse_pool3 <- score_pool3c
I0715 16:12:58.370026 13835 net.cpp:380] fuse_pool3 -> fuse_pool3
I0715 16:12:58.370055 13835 net.cpp:122] Setting up fuse_pool3
I0715 16:12:58.370061 13835 net.cpp:129] Top shape: 1 3 74 74 (16428)
I0715 16:12:58.370065 13835 net.cpp:137] Memory required for data: 1234774016
I0715 16:12:58.370069 13835 layer_factory.hpp:77] Creating layer upscore8-new
I0715 16:12:58.370079 13835 net.cpp:84] Creating Layer upscore8-new
I0715 16:12:58.370084 13835 net.cpp:406] upscore8-new <- fuse_pool3
I0715 16:12:58.370090 13835 net.cpp:380] upscore8-new -> upscore8-new
I0715 16:12:58.370342 13835 net.cpp:122] Setting up upscore8-new
I0715 16:12:58.370352 13835 net.cpp:129] Top shape: 1 3 600 600 (1080000)
I0715 16:12:58.370357 13835 net.cpp:137] Memory required for data: 1239094016
I0715 16:12:58.370362 13835 layer_factory.hpp:77] Creating layer upscore8_cropped
I0715 16:12:58.370369 13835 net.cpp:84] Creating Layer upscore8_cropped
I0715 16:12:58.370373 13835 net.cpp:406] upscore8_cropped <- upscore8-new
I0715 16:12:58.370378 13835 net.cpp:406] upscore8_cropped <- data_data_0_split_1
I0715 16:12:58.370384 13835 net.cpp:380] upscore8_cropped -> upscore8_cropped
I0715 16:12:58.370414 13835 net.cpp:122] Setting up upscore8_cropped
I0715 16:12:58.370419 13835 net.cpp:129] Top shape: 1 3 512 512 (786432)
I0715 16:12:58.370424 13835 net.cpp:137] Memory required for data: 1242239744
I0715 16:12:58.370427 13835 layer_factory.hpp:77] Creating layer upscore8_cropped_upscore8_cropped_0_split
I0715 16:12:58.370434 13835 net.cpp:84] Creating Layer upscore8_cropped_upscore8_cropped_0_split
I0715 16:12:58.370438 13835 net.cpp:406] upscore8_cropped_upscore8_cropped_0_split <- upscore8_cropped
I0715 16:12:58.370445 13835 net.cpp:380] upscore8_cropped_upscore8_cropped_0_split -> upscore8_cropped_upscore8_cropped_0_split_0
I0715 16:12:58.370451 13835 net.cpp:380] upscore8_cropped_upscore8_cropped_0_split -> upscore8_cropped_upscore8_cropped_0_split_1
I0715 16:12:58.370492 13835 net.cpp:122] Setting up upscore8_cropped_upscore8_cropped_0_split
I0715 16:12:58.370501 13835 net.cpp:129] Top shape: 1 3 512 512 (786432)
I0715 16:12:58.370506 13835 net.cpp:129] Top shape: 1 3 512 512 (786432)
I0715 16:12:58.370508 13835 net.cpp:137] Memory required for data: 1248531200
I0715 16:12:58.370512 13835 layer_factory.hpp:77] Creating layer prob
I0715 16:12:58.370518 13835 net.cpp:84] Creating Layer prob
I0715 16:12:58.370523 13835 net.cpp:406] prob <- upscore8_cropped_upscore8_cropped_0_split_0
I0715 16:12:58.370528 13835 net.cpp:380] prob -> prob
I0715 16:12:58.370791 13835 net.cpp:122] Setting up prob
I0715 16:12:58.370803 13835 net.cpp:129] Top shape: 1 3 512 512 (786432)
I0715 16:12:58.370807 13835 net.cpp:137] Memory required for data: 1251676928
I0715 16:12:58.370811 13835 layer_factory.hpp:77] Creating layer saliency1
I0715 16:12:58.370829 13835 net.cpp:84] Creating Layer saliency1
I0715 16:12:58.370833 13835 net.cpp:406] saliency1 <- prob
I0715 16:12:58.370843 13835 net.cpp:380] saliency1 -> saliency1
I0715 16:12:58.377287 13835 net.cpp:122] Setting up saliency1
I0715 16:12:58.377307 13835 net.cpp:129] Top shape: 1 3 512 512 (786432)
I0715 16:12:58.377312 13835 net.cpp:137] Memory required for data: 1254822656
I0715 16:12:58.377321 13835 layer_factory.hpp:77] Creating layer relu_saliency1
I0715 16:12:58.377331 13835 net.cpp:84] Creating Layer relu_saliency1
I0715 16:12:58.377336 13835 net.cpp:406] relu_saliency1 <- saliency1
I0715 16:12:58.377346 13835 net.cpp:367] relu_saliency1 -> saliency1 (in-place)
I0715 16:12:58.377614 13835 net.cpp:122] Setting up relu_saliency1
I0715 16:12:58.377627 13835 net.cpp:129] Top shape: 1 3 512 512 (786432)
I0715 16:12:58.377632 13835 net.cpp:137] Memory required for data: 1257968384
I0715 16:12:58.377636 13835 layer_factory.hpp:77] Creating layer saliency
I0715 16:12:58.377650 13835 net.cpp:84] Creating Layer saliency
I0715 16:12:58.377655 13835 net.cpp:406] saliency <- saliency1
I0715 16:12:58.377665 13835 net.cpp:380] saliency -> saliency
I0715 16:12:58.381537 13835 net.cpp:122] Setting up saliency
I0715 16:12:58.381556 13835 net.cpp:129] Top shape: 1 3 512 512 (786432)
I0715 16:12:58.381561 13835 net.cpp:137] Memory required for data: 1261114112
I0715 16:12:58.381573 13835 layer_factory.hpp:77] Creating layer silence_saliency
I0715 16:12:58.381585 13835 net.cpp:84] Creating Layer silence_saliency
I0715 16:12:58.381590 13835 net.cpp:406] silence_saliency <- saliency
I0715 16:12:58.381599 13835 net.cpp:122] Setting up silence_saliency
I0715 16:12:58.381603 13835 net.cpp:137] Memory required for data: 1261114112
I0715 16:12:58.381606 13835 layer_factory.hpp:77] Creating layer crop
I0715 16:12:58.382287 13835 net.cpp:84] Creating Layer crop
I0715 16:12:58.382300 13835 net.cpp:406] crop <- label_data_1_split_0
I0715 16:12:58.382320 13835 net.cpp:406] crop <- data_data_0_split_2
I0715 16:12:58.382326 13835 net.cpp:406] crop <- crop_margin
I0715 16:12:58.382331 13835 net.cpp:406] crop <- crop_prob
I0715 16:12:58.382335 13835 net.cpp:406] crop <- crop_sample_batch
I0715 16:12:58.382342 13835 net.cpp:380] crop -> data-R
I0715 16:12:58.382352 13835 net.cpp:380] crop -> crop_info
I0715 16:12:58.397116 13835 net.cpp:122] Setting up crop
I0715 16:12:58.397171 13835 net.cpp:129] Top shape: 1 3 512 512 (786432)
I0715 16:12:58.397177 13835 net.cpp:129] Top shape: 1 2 4 (8)
I0715 16:12:58.397181 13835 net.cpp:137] Memory required for data: 1264259872
I0715 16:12:58.397189 13835 layer_factory.hpp:77] Creating layer data-R_crop_0_split
I0715 16:12:58.397203 13835 net.cpp:84] Creating Layer data-R_crop_0_split
I0715 16:12:58.397210 13835 net.cpp:406] data-R_crop_0_split <- data-R
I0715 16:12:58.397231 13835 net.cpp:380] data-R_crop_0_split -> data-R_crop_0_split_0
I0715 16:12:58.397243 13835 net.cpp:380] data-R_crop_0_split -> data-R_crop_0_split_1
I0715 16:12:58.397301 13835 net.cpp:122] Setting up data-R_crop_0_split
I0715 16:12:58.397308 13835 net.cpp:129] Top shape: 1 3 512 512 (786432)
I0715 16:12:58.397313 13835 net.cpp:129] Top shape: 1 3 512 512 (786432)
I0715 16:12:58.397320 13835 net.cpp:137] Memory required for data: 1270551328
I0715 16:12:58.397323 13835 layer_factory.hpp:77] Creating layer conv1_1-R
I0715 16:12:58.397338 13835 net.cpp:84] Creating Layer conv1_1-R
I0715 16:12:58.397343 13835 net.cpp:406] conv1_1-R <- data-R_crop_0_split_0
I0715 16:12:58.397353 13835 net.cpp:380] conv1_1-R -> conv1_1-R
I0715 16:12:58.405764 13835 net.cpp:122] Setting up conv1_1-R
I0715 16:12:58.405827 13835 net.cpp:129] Top shape: 1 64 710 710 (32262400)
I0715 16:12:58.405833 13835 net.cpp:137] Memory required for data: 1399600928
I0715 16:12:58.405930 13835 layer_factory.hpp:77] Creating layer relu1_1-R
I0715 16:12:58.406306 13835 net.cpp:84] Creating Layer relu1_1-R
I0715 16:12:58.406335 13835 net.cpp:406] relu1_1-R <- conv1_1-R
I0715 16:12:58.406366 13835 net.cpp:367] relu1_1-R -> conv1_1-R (in-place)
I0715 16:12:58.407469 13835 net.cpp:122] Setting up relu1_1-R
I0715 16:12:58.407487 13835 net.cpp:129] Top shape: 1 64 710 710 (32262400)
I0715 16:12:58.407505 13835 net.cpp:137] Memory required for data: 1528650528
I0715 16:12:58.407510 13835 layer_factory.hpp:77] Creating layer conv1_2-R
I0715 16:12:58.407527 13835 net.cpp:84] Creating Layer conv1_2-R
I0715 16:12:58.407532 13835 net.cpp:406] conv1_2-R <- conv1_1-R
I0715 16:12:58.407557 13835 net.cpp:380] conv1_2-R -> conv1_2-R
I0715 16:12:58.412554 13835 net.cpp:122] Setting up conv1_2-R
I0715 16:12:58.412573 13835 net.cpp:129] Top shape: 1 64 710 710 (32262400)
I0715 16:12:58.412580 13835 net.cpp:137] Memory required for data: 1657700128
I0715 16:12:58.412595 13835 layer_factory.hpp:77] Creating layer relu1_2-R
I0715 16:12:58.412602 13835 net.cpp:84] Creating Layer relu1_2-R
I0715 16:12:58.412608 13835 net.cpp:406] relu1_2-R <- conv1_2-R
I0715 16:12:58.412616 13835 net.cpp:367] relu1_2-R -> conv1_2-R (in-place)
I0715 16:12:58.413512 13835 net.cpp:122] Setting up relu1_2-R
I0715 16:12:58.413533 13835 net.cpp:129] Top shape: 1 64 710 710 (32262400)
I0715 16:12:58.413547 13835 net.cpp:137] Memory required for data: 1786749728
I0715 16:12:58.413560 13835 layer_factory.hpp:77] Creating layer pool1-R
I0715 16:12:58.413588 13835 net.cpp:84] Creating Layer pool1-R
I0715 16:12:58.413592 13835 net.cpp:406] pool1-R <- conv1_2-R
I0715 16:12:58.413606 13835 net.cpp:380] pool1-R -> pool1-R
I0715 16:12:58.413689 13835 net.cpp:122] Setting up pool1-R
I0715 16:12:58.413700 13835 net.cpp:129] Top shape: 1 64 355 355 (8065600)
I0715 16:12:58.413704 13835 net.cpp:137] Memory required for data: 1819012128
I0715 16:12:58.413709 13835 layer_factory.hpp:77] Creating layer conv2_1-R
I0715 16:12:58.413720 13835 net.cpp:84] Creating Layer conv2_1-R
I0715 16:12:58.413730 13835 net.cpp:406] conv2_1-R <- pool1-R
I0715 16:12:58.413740 13835 net.cpp:380] conv2_1-R -> conv2_1-R
I0715 16:12:58.418051 13835 net.cpp:122] Setting up conv2_1-R
I0715 16:12:58.418072 13835 net.cpp:129] Top shape: 1 128 355 355 (16131200)
I0715 16:12:58.418087 13835 net.cpp:137] Memory required for data: 1883536928
I0715 16:12:58.418099 13835 layer_factory.hpp:77] Creating layer relu2_1-R
I0715 16:12:58.418107 13835 net.cpp:84] Creating Layer relu2_1-R
I0715 16:12:58.418125 13835 net.cpp:406] relu2_1-R <- conv2_1-R
I0715 16:12:58.418133 13835 net.cpp:367] relu2_1-R -> conv2_1-R (in-place)
I0715 16:12:58.421636 13835 net.cpp:122] Setting up relu2_1-R
I0715 16:12:58.421669 13835 net.cpp:129] Top shape: 1 128 355 355 (16131200)
I0715 16:12:58.421675 13835 net.cpp:137] Memory required for data: 1948061728
I0715 16:12:58.421680 13835 layer_factory.hpp:77] Creating layer conv2_2-R
I0715 16:12:58.421718 13835 net.cpp:84] Creating Layer conv2_2-R
I0715 16:12:58.421725 13835 net.cpp:406] conv2_2-R <- conv2_1-R
I0715 16:12:58.421736 13835 net.cpp:380] conv2_2-R -> conv2_2-R
I0715 16:12:58.427047 13835 net.cpp:122] Setting up conv2_2-R
I0715 16:12:58.427073 13835 net.cpp:129] Top shape: 1 128 355 355 (16131200)
I0715 16:12:58.427083 13835 net.cpp:137] Memory required for data: 2012586528
I0715 16:12:58.427106 13835 layer_factory.hpp:77] Creating layer relu2_2-R
I0715 16:12:58.427134 13835 net.cpp:84] Creating Layer relu2_2-R
I0715 16:12:58.427140 13835 net.cpp:406] relu2_2-R <- conv2_2-R
I0715 16:12:58.427150 13835 net.cpp:367] relu2_2-R -> conv2_2-R (in-place)
I0715 16:12:58.427513 13835 net.cpp:122] Setting up relu2_2-R
I0715 16:12:58.427531 13835 net.cpp:129] Top shape: 1 128 355 355 (16131200)
I0715 16:12:58.427547 13835 net.cpp:137] Memory required for data: 2077111328
I0715 16:12:58.427552 13835 layer_factory.hpp:77] Creating layer pool2-R
I0715 16:12:58.427565 13835 net.cpp:84] Creating Layer pool2-R
I0715 16:12:58.427572 13835 net.cpp:406] pool2-R <- conv2_2-R
I0715 16:12:58.427582 13835 net.cpp:380] pool2-R -> pool2-R
I0715 16:12:58.427666 13835 net.cpp:122] Setting up pool2-R
I0715 16:12:58.427680 13835 net.cpp:129] Top shape: 1 128 178 178 (4055552)
I0715 16:12:58.427685 13835 net.cpp:137] Memory required for data: 2093333536
I0715 16:12:58.427691 13835 layer_factory.hpp:77] Creating layer conv3_1-R
I0715 16:12:58.427706 13835 net.cpp:84] Creating Layer conv3_1-R
I0715 16:12:58.427714 13835 net.cpp:406] conv3_1-R <- pool2-R
I0715 16:12:58.427723 13835 net.cpp:380] conv3_1-R -> conv3_1-R
I0715 16:12:58.432706 13835 net.cpp:122] Setting up conv3_1-R
I0715 16:12:58.432724 13835 net.cpp:129] Top shape: 1 256 178 178 (8111104)
I0715 16:12:58.432729 13835 net.cpp:137] Memory required for data: 2125777952
I0715 16:12:58.432739 13835 layer_factory.hpp:77] Creating layer relu3_1-R
I0715 16:12:58.432757 13835 net.cpp:84] Creating Layer relu3_1-R
I0715 16:12:58.432763 13835 net.cpp:406] relu3_1-R <- conv3_1-R
I0715 16:12:58.432782 13835 net.cpp:367] relu3_1-R -> conv3_1-R (in-place)
I0715 16:12:58.433027 13835 net.cpp:122] Setting up relu3_1-R
I0715 16:12:58.433039 13835 net.cpp:129] Top shape: 1 256 178 178 (8111104)
I0715 16:12:58.433043 13835 net.cpp:137] Memory required for data: 2158222368
I0715 16:12:58.433055 13835 layer_factory.hpp:77] Creating layer conv3_2-R
I0715 16:12:58.433079 13835 net.cpp:84] Creating Layer conv3_2-R
I0715 16:12:58.433086 13835 net.cpp:406] conv3_2-R <- conv3_1-R
I0715 16:12:58.433094 13835 net.cpp:380] conv3_2-R -> conv3_2-R
I0715 16:12:58.440513 13835 net.cpp:122] Setting up conv3_2-R
I0715 16:12:58.440577 13835 net.cpp:129] Top shape: 1 256 178 178 (8111104)
I0715 16:12:58.440582 13835 net.cpp:137] Memory required for data: 2190666784
I0715 16:12:58.440591 13835 layer_factory.hpp:77] Creating layer relu3_2-R
I0715 16:12:58.440610 13835 net.cpp:84] Creating Layer relu3_2-R
I0715 16:12:58.440615 13835 net.cpp:406] relu3_2-R <- conv3_2-R
I0715 16:12:58.440623 13835 net.cpp:367] relu3_2-R -> conv3_2-R (in-place)
I0715 16:12:58.440888 13835 net.cpp:122] Setting up relu3_2-R
I0715 16:12:58.440901 13835 net.cpp:129] Top shape: 1 256 178 178 (8111104)
I0715 16:12:58.440906 13835 net.cpp:137] Memory required for data: 2223111200
I0715 16:12:58.440909 13835 layer_factory.hpp:77] Creating layer conv3_3-R
I0715 16:12:58.440932 13835 net.cpp:84] Creating Layer conv3_3-R
I0715 16:12:58.440939 13835 net.cpp:406] conv3_3-R <- conv3_2-R
I0715 16:12:58.440948 13835 net.cpp:380] conv3_3-R -> conv3_3-R
I0715 16:12:58.445816 13835 net.cpp:122] Setting up conv3_3-R
I0715 16:12:58.445838 13835 net.cpp:129] Top shape: 1 256 178 178 (8111104)
I0715 16:12:58.445854 13835 net.cpp:137] Memory required for data: 2255555616
I0715 16:12:58.445866 13835 layer_factory.hpp:77] Creating layer relu3_3-R
I0715 16:12:58.445875 13835 net.cpp:84] Creating Layer relu3_3-R
I0715 16:12:58.445893 13835 net.cpp:406] relu3_3-R <- conv3_3-R
I0715 16:12:58.445901 13835 net.cpp:367] relu3_3-R -> conv3_3-R (in-place)
I0715 16:12:58.446218 13835 net.cpp:122] Setting up relu3_3-R
I0715 16:12:58.446233 13835 net.cpp:129] Top shape: 1 256 178 178 (8111104)
I0715 16:12:58.446250 13835 net.cpp:137] Memory required for data: 2288000032
I0715 16:12:58.446266 13835 layer_factory.hpp:77] Creating layer pool3-R
I0715 16:12:58.446285 13835 net.cpp:84] Creating Layer pool3-R
I0715 16:12:58.446290 13835 net.cpp:406] pool3-R <- conv3_3-R
I0715 16:12:58.446300 13835 net.cpp:380] pool3-R -> pool3-R
I0715 16:12:58.446383 13835 net.cpp:122] Setting up pool3-R
I0715 16:12:58.446396 13835 net.cpp:129] Top shape: 1 256 89 89 (2027776)
I0715 16:12:58.446401 13835 net.cpp:137] Memory required for data: 2296111136
I0715 16:12:58.446406 13835 layer_factory.hpp:77] Creating layer pool3-R_pool3-R_0_split
I0715 16:12:58.446424 13835 net.cpp:84] Creating Layer pool3-R_pool3-R_0_split
I0715 16:12:58.446435 13835 net.cpp:406] pool3-R_pool3-R_0_split <- pool3-R
I0715 16:12:58.446445 13835 net.cpp:380] pool3-R_pool3-R_0_split -> pool3-R_pool3-R_0_split_0
I0715 16:12:58.446461 13835 net.cpp:380] pool3-R_pool3-R_0_split -> pool3-R_pool3-R_0_split_1
I0715 16:12:58.446522 13835 net.cpp:122] Setting up pool3-R_pool3-R_0_split
I0715 16:12:58.446534 13835 net.cpp:129] Top shape: 1 256 89 89 (2027776)
I0715 16:12:58.446543 13835 net.cpp:129] Top shape: 1 256 89 89 (2027776)
I0715 16:12:58.446547 13835 net.cpp:137] Memory required for data: 2312333344
I0715 16:12:58.446552 13835 layer_factory.hpp:77] Creating layer conv4_1-R
I0715 16:12:58.446563 13835 net.cpp:84] Creating Layer conv4_1-R
I0715 16:12:58.446571 13835 net.cpp:406] conv4_1-R <- pool3-R_pool3-R_0_split_0
I0715 16:12:58.446589 13835 net.cpp:380] conv4_1-R -> conv4_1-R
I0715 16:12:58.453930 13835 net.cpp:122] Setting up conv4_1-R
I0715 16:12:58.453965 13835 net.cpp:129] Top shape: 1 512 89 89 (4055552)
I0715 16:12:58.453972 13835 net.cpp:137] Memory required for data: 2328555552
I0715 16:12:58.453995 13835 layer_factory.hpp:77] Creating layer relu4_1-R
I0715 16:12:58.454007 13835 net.cpp:84] Creating Layer relu4_1-R
I0715 16:12:58.454016 13835 net.cpp:406] relu4_1-R <- conv4_1-R
I0715 16:12:58.454025 13835 net.cpp:367] relu4_1-R -> conv4_1-R (in-place)
I0715 16:12:58.455021 13835 net.cpp:122] Setting up relu4_1-R
I0715 16:12:58.455041 13835 net.cpp:129] Top shape: 1 512 89 89 (4055552)
I0715 16:12:58.455046 13835 net.cpp:137] Memory required for data: 2344777760
I0715 16:12:58.455075 13835 layer_factory.hpp:77] Creating layer conv4_2-R
I0715 16:12:58.455096 13835 net.cpp:84] Creating Layer conv4_2-R
I0715 16:12:58.455103 13835 net.cpp:406] conv4_2-R <- conv4_1-R
I0715 16:12:58.455114 13835 net.cpp:380] conv4_2-R -> conv4_2-R
I0715 16:12:58.463950 13835 net.cpp:122] Setting up conv4_2-R
I0715 16:12:58.463986 13835 net.cpp:129] Top shape: 1 512 89 89 (4055552)
I0715 16:12:58.463992 13835 net.cpp:137] Memory required for data: 2360999968
I0715 16:12:58.464015 13835 layer_factory.hpp:77] Creating layer relu4_2-R
I0715 16:12:58.464027 13835 net.cpp:84] Creating Layer relu4_2-R
I0715 16:12:58.464035 13835 net.cpp:406] relu4_2-R <- conv4_2-R
I0715 16:12:58.464043 13835 net.cpp:367] relu4_2-R -> conv4_2-R (in-place)
I0715 16:12:58.464988 13835 net.cpp:122] Setting up relu4_2-R
I0715 16:12:58.465005 13835 net.cpp:129] Top shape: 1 512 89 89 (4055552)
I0715 16:12:58.465020 13835 net.cpp:137] Memory required for data: 2377222176
I0715 16:12:58.465025 13835 layer_factory.hpp:77] Creating layer conv4_3-R
I0715 16:12:58.465055 13835 net.cpp:84] Creating Layer conv4_3-R
I0715 16:12:58.465061 13835 net.cpp:406] conv4_3-R <- conv4_2-R
I0715 16:12:58.465080 13835 net.cpp:380] conv4_3-R -> conv4_3-R
I0715 16:12:58.478344 13835 net.cpp:122] Setting up conv4_3-R
I0715 16:12:58.478377 13835 net.cpp:129] Top shape: 1 512 89 89 (4055552)
I0715 16:12:58.478384 13835 net.cpp:137] Memory required for data: 2393444384
I0715 16:12:58.478394 13835 layer_factory.hpp:77] Creating layer relu4_3-R
I0715 16:12:58.478404 13835 net.cpp:84] Creating Layer relu4_3-R
I0715 16:12:58.478410 13835 net.cpp:406] relu4_3-R <- conv4_3-R
I0715 16:12:58.478416 13835 net.cpp:367] relu4_3-R -> conv4_3-R (in-place)
I0715 16:12:58.478664 13835 net.cpp:122] Setting up relu4_3-R
I0715 16:12:58.478677 13835 net.cpp:129] Top shape: 1 512 89 89 (4055552)
I0715 16:12:58.478682 13835 net.cpp:137] Memory required for data: 2409666592
I0715 16:12:58.478696 13835 layer_factory.hpp:77] Creating layer pool4-R
I0715 16:12:58.478713 13835 net.cpp:84] Creating Layer pool4-R
I0715 16:12:58.478718 13835 net.cpp:406] pool4-R <- conv4_3-R
I0715 16:12:58.478727 13835 net.cpp:380] pool4-R -> pool4-R
I0715 16:12:58.478793 13835 net.cpp:122] Setting up pool4-R
I0715 16:12:58.478803 13835 net.cpp:129] Top shape: 1 512 45 45 (1036800)
I0715 16:12:58.478807 13835 net.cpp:137] Memory required for data: 2413813792
I0715 16:12:58.478811 13835 layer_factory.hpp:77] Creating layer pool4-R_pool4-R_0_split
I0715 16:12:58.478821 13835 net.cpp:84] Creating Layer pool4-R_pool4-R_0_split
I0715 16:12:58.478826 13835 net.cpp:406] pool4-R_pool4-R_0_split <- pool4-R
I0715 16:12:58.478833 13835 net.cpp:380] pool4-R_pool4-R_0_split -> pool4-R_pool4-R_0_split_0
I0715 16:12:58.478842 13835 net.cpp:380] pool4-R_pool4-R_0_split -> pool4-R_pool4-R_0_split_1
I0715 16:12:58.478890 13835 net.cpp:122] Setting up pool4-R_pool4-R_0_split
I0715 16:12:58.478912 13835 net.cpp:129] Top shape: 1 512 45 45 (1036800)
I0715 16:12:58.478919 13835 net.cpp:129] Top shape: 1 512 45 45 (1036800)
I0715 16:12:58.478921 13835 net.cpp:137] Memory required for data: 2422108192
I0715 16:12:58.478925 13835 layer_factory.hpp:77] Creating layer conv5_1-R
I0715 16:12:58.478940 13835 net.cpp:84] Creating Layer conv5_1-R
I0715 16:12:58.478946 13835 net.cpp:406] conv5_1-R <- pool4-R_pool4-R_0_split_0
I0715 16:12:58.478955 13835 net.cpp:380] conv5_1-R -> conv5_1-R
I0715 16:12:58.490698 13835 net.cpp:122] Setting up conv5_1-R
I0715 16:12:58.490727 13835 net.cpp:129] Top shape: 1 512 45 45 (1036800)
I0715 16:12:58.490736 13835 net.cpp:137] Memory required for data: 2426255392
I0715 16:12:58.490849 13835 layer_factory.hpp:77] Creating layer relu5_1-R
I0715 16:12:58.490869 13835 net.cpp:84] Creating Layer relu5_1-R
I0715 16:12:58.490878 13835 net.cpp:406] relu5_1-R <- conv5_1-R
I0715 16:12:58.490890 13835 net.cpp:367] relu5_1-R -> conv5_1-R (in-place)
I0715 16:12:58.492067 13835 net.cpp:122] Setting up relu5_1-R
I0715 16:12:58.492084 13835 net.cpp:129] Top shape: 1 512 45 45 (1036800)
I0715 16:12:58.492089 13835 net.cpp:137] Memory required for data: 2430402592
I0715 16:12:58.492115 13835 layer_factory.hpp:77] Creating layer conv5_2-R
I0715 16:12:58.492136 13835 net.cpp:84] Creating Layer conv5_2-R
I0715 16:12:58.492144 13835 net.cpp:406] conv5_2-R <- conv5_1-R
I0715 16:12:58.492154 13835 net.cpp:380] conv5_2-R -> conv5_2-R
I0715 16:12:58.500919 13835 net.cpp:122] Setting up conv5_2-R
I0715 16:12:58.500939 13835 net.cpp:129] Top shape: 1 512 45 45 (1036800)
I0715 16:12:58.500944 13835 net.cpp:137] Memory required for data: 2434549792
I0715 16:12:58.500953 13835 layer_factory.hpp:77] Creating layer relu5_2-R
I0715 16:12:58.500967 13835 net.cpp:84] Creating Layer relu5_2-R
I0715 16:12:58.500972 13835 net.cpp:406] relu5_2-R <- conv5_2-R
I0715 16:12:58.500982 13835 net.cpp:367] relu5_2-R -> conv5_2-R (in-place)
I0715 16:12:58.501224 13835 net.cpp:122] Setting up relu5_2-R
I0715 16:12:58.501236 13835 net.cpp:129] Top shape: 1 512 45 45 (1036800)
I0715 16:12:58.501240 13835 net.cpp:137] Memory required for data: 2438696992
I0715 16:12:58.501245 13835 layer_factory.hpp:77] Creating layer conv5_3-R
I0715 16:12:58.501266 13835 net.cpp:84] Creating Layer conv5_3-R
I0715 16:12:58.501272 13835 net.cpp:406] conv5_3-R <- conv5_2-R
I0715 16:12:58.501281 13835 net.cpp:380] conv5_3-R -> conv5_3-R
I0715 16:12:58.510612 13835 net.cpp:122] Setting up conv5_3-R
I0715 16:12:58.510635 13835 net.cpp:129] Top shape: 1 512 45 45 (1036800)
I0715 16:12:58.510649 13835 net.cpp:137] Memory required for data: 2442844192
I0715 16:12:58.510658 13835 layer_factory.hpp:77] Creating layer relu5_3-R
I0715 16:12:58.510694 13835 net.cpp:84] Creating Layer relu5_3-R
I0715 16:12:58.510699 13835 net.cpp:406] relu5_3-R <- conv5_3-R
I0715 16:12:58.510710 13835 net.cpp:367] relu5_3-R -> conv5_3-R (in-place)
I0715 16:12:58.510962 13835 net.cpp:122] Setting up relu5_3-R
I0715 16:12:58.510975 13835 net.cpp:129] Top shape: 1 512 45 45 (1036800)
I0715 16:12:58.510979 13835 net.cpp:137] Memory required for data: 2446991392
I0715 16:12:58.510984 13835 layer_factory.hpp:77] Creating layer pool5-R
I0715 16:12:58.511000 13835 net.cpp:84] Creating Layer pool5-R
I0715 16:12:58.511008 13835 net.cpp:406] pool5-R <- conv5_3-R
I0715 16:12:58.511015 13835 net.cpp:380] pool5-R -> pool5-R
I0715 16:12:58.511083 13835 net.cpp:122] Setting up pool5-R
I0715 16:12:58.511093 13835 net.cpp:129] Top shape: 1 512 23 23 (270848)
I0715 16:12:58.511097 13835 net.cpp:137] Memory required for data: 2448074784
I0715 16:12:58.511101 13835 layer_factory.hpp:77] Creating layer fc6-R
I0715 16:12:58.511112 13835 net.cpp:84] Creating Layer fc6-R
I0715 16:12:58.511122 13835 net.cpp:406] fc6-R <- pool5-R
I0715 16:12:58.511133 13835 net.cpp:380] fc6-R -> fc6-R
I0715 16:12:58.870710 13835 net.cpp:122] Setting up fc6-R
I0715 16:12:58.870754 13835 net.cpp:129] Top shape: 1 4096 17 17 (1183744)
I0715 16:12:58.870760 13835 net.cpp:137] Memory required for data: 2452809760
I0715 16:12:58.870791 13835 layer_factory.hpp:77] Creating layer relu6-R
I0715 16:12:58.870806 13835 net.cpp:84] Creating Layer relu6-R
I0715 16:12:58.870815 13835 net.cpp:406] relu6-R <- fc6-R
I0715 16:12:58.870822 13835 net.cpp:367] relu6-R -> fc6-R (in-place)
I0715 16:12:58.872184 13835 net.cpp:122] Setting up relu6-R
I0715 16:12:58.872223 13835 net.cpp:129] Top shape: 1 4096 17 17 (1183744)
I0715 16:12:58.872232 13835 net.cpp:137] Memory required for data: 2457544736
I0715 16:12:58.872241 13835 layer_factory.hpp:77] Creating layer drop6-R
I0715 16:12:58.872283 13835 net.cpp:84] Creating Layer drop6-R
I0715 16:12:58.872292 13835 net.cpp:406] drop6-R <- fc6-R
I0715 16:12:58.872306 13835 net.cpp:367] drop6-R -> fc6-R (in-place)
I0715 16:12:58.872375 13835 net.cpp:122] Setting up drop6-R
I0715 16:12:58.872400 13835 net.cpp:129] Top shape: 1 4096 17 17 (1183744)
I0715 16:12:58.872407 13835 net.cpp:137] Memory required for data: 2462279712
I0715 16:12:58.872414 13835 layer_factory.hpp:77] Creating layer fc7-R
I0715 16:12:58.872443 13835 net.cpp:84] Creating Layer fc7-R
I0715 16:12:58.872462 13835 net.cpp:406] fc7-R <- fc6-R
I0715 16:12:58.872478 13835 net.cpp:380] fc7-R -> fc7-R
I0715 16:12:58.932816 13835 net.cpp:122] Setting up fc7-R
I0715 16:12:58.932852 13835 net.cpp:129] Top shape: 1 4096 17 17 (1183744)
I0715 16:12:58.932857 13835 net.cpp:137] Memory required for data: 2467014688
I0715 16:12:58.932876 13835 layer_factory.hpp:77] Creating layer relu7-R
I0715 16:12:58.932893 13835 net.cpp:84] Creating Layer relu7-R
I0715 16:12:58.932899 13835 net.cpp:406] relu7-R <- fc7-R
I0715 16:12:58.932920 13835 net.cpp:367] relu7-R -> fc7-R (in-place)
I0715 16:12:58.933845 13835 net.cpp:122] Setting up relu7-R
I0715 16:12:58.933862 13835 net.cpp:129] Top shape: 1 4096 17 17 (1183744)
I0715 16:12:58.933866 13835 net.cpp:137] Memory required for data: 2471749664
I0715 16:12:58.933871 13835 layer_factory.hpp:77] Creating layer drop7-R
I0715 16:12:58.933881 13835 net.cpp:84] Creating Layer drop7-R
I0715 16:12:58.933887 13835 net.cpp:406] drop7-R <- fc7-R
I0715 16:12:58.933898 13835 net.cpp:367] drop7-R -> fc7-R (in-place)
I0715 16:12:58.933941 13835 net.cpp:122] Setting up drop7-R
I0715 16:12:58.933948 13835 net.cpp:129] Top shape: 1 4096 17 17 (1183744)
I0715 16:12:58.933954 13835 net.cpp:137] Memory required for data: 2476484640
I0715 16:12:58.933957 13835 layer_factory.hpp:77] Creating layer score_fr-new-R
I0715 16:12:58.933981 13835 net.cpp:84] Creating Layer score_fr-new-R
I0715 16:12:58.933987 13835 net.cpp:406] score_fr-new-R <- fc7-R
I0715 16:12:58.933995 13835 net.cpp:380] score_fr-new-R -> score_fr-new-R
I0715 16:12:58.936287 13835 net.cpp:122] Setting up score_fr-new-R
I0715 16:12:58.936326 13835 net.cpp:129] Top shape: 1 3 17 17 (867)
I0715 16:12:58.936332 13835 net.cpp:137] Memory required for data: 2476488108
I0715 16:12:58.936345 13835 layer_factory.hpp:77] Creating layer upscore2-new-R
I0715 16:12:58.936367 13835 net.cpp:84] Creating Layer upscore2-new-R
I0715 16:12:58.936375 13835 net.cpp:406] upscore2-new-R <- score_fr-new-R
I0715 16:12:58.936398 13835 net.cpp:380] upscore2-new-R -> upscore2-new-R
I0715 16:12:58.936712 13835 net.cpp:122] Setting up upscore2-new-R
I0715 16:12:58.936723 13835 net.cpp:129] Top shape: 1 3 36 36 (3888)
I0715 16:12:58.936728 13835 net.cpp:137] Memory required for data: 2476503660
I0715 16:12:58.936733 13835 layer_factory.hpp:77] Creating layer upscore2-new-R_upscore2-new-R_0_split
I0715 16:12:58.936743 13835 net.cpp:84] Creating Layer upscore2-new-R_upscore2-new-R_0_split
I0715 16:12:58.936748 13835 net.cpp:406] upscore2-new-R_upscore2-new-R_0_split <- upscore2-new-R
I0715 16:12:58.936754 13835 net.cpp:380] upscore2-new-R_upscore2-new-R_0_split -> upscore2-new-R_upscore2-new-R_0_split_0
I0715 16:12:58.936764 13835 net.cpp:380] upscore2-new-R_upscore2-new-R_0_split -> upscore2-new-R_upscore2-new-R_0_split_1
I0715 16:12:58.936815 13835 net.cpp:122] Setting up upscore2-new-R_upscore2-new-R_0_split
I0715 16:12:58.936823 13835 net.cpp:129] Top shape: 1 3 36 36 (3888)
I0715 16:12:58.936830 13835 net.cpp:129] Top shape: 1 3 36 36 (3888)
I0715 16:12:58.936833 13835 net.cpp:137] Memory required for data: 2476534764
I0715 16:12:58.936837 13835 layer_factory.hpp:77] Creating layer score_pool4-new-R
I0715 16:12:58.936848 13835 net.cpp:84] Creating Layer score_pool4-new-R
I0715 16:12:58.936858 13835 net.cpp:406] score_pool4-new-R <- pool4-R_pool4-R_0_split_1
I0715 16:12:58.936868 13835 net.cpp:380] score_pool4-new-R -> score_pool4-new-R
I0715 16:12:58.938798 13835 net.cpp:122] Setting up score_pool4-new-R
I0715 16:12:58.938817 13835 net.cpp:129] Top shape: 1 3 45 45 (6075)
I0715 16:12:58.938832 13835 net.cpp:137] Memory required for data: 2476559064
I0715 16:12:58.938839 13835 layer_factory.hpp:77] Creating layer score_pool4c-R
I0715 16:12:58.938871 13835 net.cpp:84] Creating Layer score_pool4c-R
I0715 16:12:58.938891 13835 net.cpp:406] score_pool4c-R <- score_pool4-new-R
I0715 16:12:58.938899 13835 net.cpp:406] score_pool4c-R <- upscore2-new-R_upscore2-new-R_0_split_0
I0715 16:12:58.938905 13835 net.cpp:380] score_pool4c-R -> score_pool4c-R
I0715 16:12:58.938946 13835 net.cpp:122] Setting up score_pool4c-R
I0715 16:12:58.938952 13835 net.cpp:129] Top shape: 1 3 36 36 (3888)
I0715 16:12:58.938956 13835 net.cpp:137] Memory required for data: 2476574616
I0715 16:12:58.938961 13835 layer_factory.hpp:77] Creating layer fuse_pool4-R
I0715 16:12:58.938971 13835 net.cpp:84] Creating Layer fuse_pool4-R
I0715 16:12:58.938976 13835 net.cpp:406] fuse_pool4-R <- upscore2-new-R_upscore2-new-R_0_split_1
I0715 16:12:58.938982 13835 net.cpp:406] fuse_pool4-R <- score_pool4c-R
I0715 16:12:58.938988 13835 net.cpp:380] fuse_pool4-R -> fuse_pool4-R
I0715 16:12:58.939033 13835 net.cpp:122] Setting up fuse_pool4-R
I0715 16:12:58.939056 13835 net.cpp:129] Top shape: 1 3 36 36 (3888)
I0715 16:12:58.939060 13835 net.cpp:137] Memory required for data: 2476590168
I0715 16:12:58.939064 13835 layer_factory.hpp:77] Creating layer upscore_pool4-new-R
I0715 16:12:58.939080 13835 net.cpp:84] Creating Layer upscore_pool4-new-R
I0715 16:12:58.939086 13835 net.cpp:406] upscore_pool4-new-R <- fuse_pool4-R
I0715 16:12:58.939095 13835 net.cpp:380] upscore_pool4-new-R -> upscore_pool4-new-R
I0715 16:12:58.939493 13835 net.cpp:122] Setting up upscore_pool4-new-R
I0715 16:12:58.939512 13835 net.cpp:129] Top shape: 1 3 74 74 (16428)
I0715 16:12:58.939527 13835 net.cpp:137] Memory required for data: 2476655880
I0715 16:12:58.939538 13835 layer_factory.hpp:77] Creating layer upscore_pool4-new-R_upscore_pool4-new-R_0_split
I0715 16:12:58.939549 13835 net.cpp:84] Creating Layer upscore_pool4-new-R_upscore_pool4-new-R_0_split
I0715 16:12:58.939558 13835 net.cpp:406] upscore_pool4-new-R_upscore_pool4-new-R_0_split <- upscore_pool4-new-R
I0715 16:12:58.939569 13835 net.cpp:380] upscore_pool4-new-R_upscore_pool4-new-R_0_split -> upscore_pool4-new-R_upscore_pool4-new-R_0_split_0
I0715 16:12:58.939582 13835 net.cpp:380] upscore_pool4-new-R_upscore_pool4-new-R_0_split -> upscore_pool4-new-R_upscore_pool4-new-R_0_split_1
I0715 16:12:58.939664 13835 net.cpp:122] Setting up upscore_pool4-new-R_upscore_pool4-new-R_0_split
I0715 16:12:58.939678 13835 net.cpp:129] Top shape: 1 3 74 74 (16428)
I0715 16:12:58.939697 13835 net.cpp:129] Top shape: 1 3 74 74 (16428)
I0715 16:12:58.939710 13835 net.cpp:137] Memory required for data: 2476787304
I0715 16:12:58.939718 13835 layer_factory.hpp:77] Creating layer score_pool3-new-R
I0715 16:12:58.939733 13835 net.cpp:84] Creating Layer score_pool3-new-R
I0715 16:12:58.939746 13835 net.cpp:406] score_pool3-new-R <- pool3-R_pool3-R_0_split_1
I0715 16:12:58.939764 13835 net.cpp:380] score_pool3-new-R -> score_pool3-new-R
I0715 16:12:58.941658 13835 net.cpp:122] Setting up score_pool3-new-R
I0715 16:12:58.941681 13835 net.cpp:129] Top shape: 1 3 89 89 (23763)
I0715 16:12:58.941705 13835 net.cpp:137] Memory required for data: 2476882356
I0715 16:12:58.941718 13835 layer_factory.hpp:77] Creating layer score_pool3c-R
I0715 16:12:58.941736 13835 net.cpp:84] Creating Layer score_pool3c-R
I0715 16:12:58.941747 13835 net.cpp:406] score_pool3c-R <- score_pool3-new-R
I0715 16:12:58.941761 13835 net.cpp:406] score_pool3c-R <- upscore_pool4-new-R_upscore_pool4-new-R_0_split_0
I0715 16:12:58.941776 13835 net.cpp:380] score_pool3c-R -> score_pool3c-R
I0715 16:12:58.941849 13835 net.cpp:122] Setting up score_pool3c-R
I0715 16:12:58.941864 13835 net.cpp:129] Top shape: 1 3 74 74 (16428)
I0715 16:12:58.941872 13835 net.cpp:137] Memory required for data: 2476948068
I0715 16:12:58.941895 13835 layer_factory.hpp:77] Creating layer fuse_pool3-R
I0715 16:12:58.941916 13835 net.cpp:84] Creating Layer fuse_pool3-R
I0715 16:12:58.941927 13835 net.cpp:406] fuse_pool3-R <- upscore_pool4-new-R_upscore_pool4-new-R_0_split_1
I0715 16:12:58.941937 13835 net.cpp:406] fuse_pool3-R <- score_pool3c-R
I0715 16:12:58.941956 13835 net.cpp:380] fuse_pool3-R -> fuse_pool3-R
I0715 16:12:58.942016 13835 net.cpp:122] Setting up fuse_pool3-R
I0715 16:12:58.942030 13835 net.cpp:129] Top shape: 1 3 74 74 (16428)
I0715 16:12:58.942039 13835 net.cpp:137] Memory required for data: 2477013780
I0715 16:12:58.942046 13835 layer_factory.hpp:77] Creating layer upscore8-new-R
I0715 16:12:58.942072 13835 net.cpp:84] Creating Layer upscore8-new-R
I0715 16:12:58.942083 13835 net.cpp:406] upscore8-new-R <- fuse_pool3-R
I0715 16:12:58.942100 13835 net.cpp:380] upscore8-new-R -> upscore8-new-R
I0715 16:12:58.942595 13835 net.cpp:122] Setting up upscore8-new-R
I0715 16:12:58.942610 13835 net.cpp:129] Top shape: 1 3 600 600 (1080000)
I0715 16:12:58.942633 13835 net.cpp:137] Memory required for data: 2481333780
I0715 16:12:58.942643 13835 layer_factory.hpp:77] Creating layer upscore8_cropped-R
I0715 16:12:58.942657 13835 net.cpp:84] Creating Layer upscore8_cropped-R
I0715 16:12:58.942668 13835 net.cpp:406] upscore8_cropped-R <- upscore8-new-R
I0715 16:12:58.942680 13835 net.cpp:406] upscore8_cropped-R <- data-R_crop_0_split_1
I0715 16:12:58.942694 13835 net.cpp:380] upscore8_cropped-R -> upscore8_cropped-R
I0715 16:12:58.942749 13835 net.cpp:122] Setting up upscore8_cropped-R
I0715 16:12:58.942761 13835 net.cpp:129] Top shape: 1 3 512 512 (786432)
I0715 16:12:58.942770 13835 net.cpp:137] Memory required for data: 2484479508
I0715 16:12:58.942778 13835 layer_factory.hpp:77] Creating layer upscore8_uncropped-R
I0715 16:12:58.943460 13835 net.cpp:84] Creating Layer upscore8_uncropped-R
I0715 16:12:58.943482 13835 net.cpp:406] upscore8_uncropped-R <- crop_info
I0715 16:12:58.943514 13835 net.cpp:406] upscore8_uncropped-R <- upscore8_cropped-R
I0715 16:12:58.943526 13835 net.cpp:406] upscore8_uncropped-R <- data_data_0_split_3
I0715 16:12:58.943542 13835 net.cpp:380] upscore8_uncropped-R -> upscore8_uncropped-R
I0715 16:12:58.947247 13835 net.cpp:122] Setting up upscore8_uncropped-R
I0715 16:12:58.947324 13835 net.cpp:129] Top shape: 1 3 512 512 (786432)
I0715 16:12:58.947337 13835 net.cpp:137] Memory required for data: 2487625236
I0715 16:12:58.947345 13835 layer_factory.hpp:77] Creating layer loss1
I0715 16:12:58.947372 13835 net.cpp:84] Creating Layer loss1
I0715 16:12:58.947384 13835 net.cpp:406] loss1 <- upscore8_cropped_upscore8_cropped_0_split_1
I0715 16:12:58.947399 13835 net.cpp:406] loss1 <- label_data_1_split_1
I0715 16:12:58.947414 13835 net.cpp:380] loss1 -> loss1
…
snapshot_prefix: "/media/Med_2T2/data2/models/snapshots/indiv:1e-5x10,20/FD3:ZI3_1_20180715_091948/train"
test_initialization: false
average_loss: 20
stepvalue: 40000
iter_size: 1
I0715 17:11:50.691467 13835 solver.cpp:77] Creating training net from train_net file: /media/Med_2T2/data2/prototxts/training_I3x10.prototxt
I0715 17:11:50.693616 13835 net.cpp:51] Initializing net from parameters: 
state {
  phase: TRAIN
}
layer {
  name: "data"
  type: "Python"
  top: "data"
  top: "label"
  top: "crop_margin"
  top: "crop_prob"
  top: "crop_sample_batch"
  python_param {
    module: "Data"
    layer: "DataLayer"
  }
}
layer {
  name: "conv1_1"
  type: "Convolution"
  bottom: "data"
  top: "conv1_1"
  param {
    lr_mult: 1
    decay_mult: 1
  }
  param {
    lr_mult: 2
    decay_mult: 0
  }
  convolution_param {
    num_output: 64
    pad: 100
    kernel_size: 3
    stride: 1
  }
}
layer {
  name: "relu1_1"
  type: "ReLU"
  bottom: "conv1_1"
  top: "conv1_1"
}
layer {
  name: "conv1_2"
  type: "Convolution"
  bottom: "conv1_1"
  top: "conv1_2"
  param {
    lr_mult: 1
    decay_mult: 1
  }
  param {
    lr_mult: 2
    decay_mult: 0
  }
  convolution_param {
    num_output: 64
    pad: 1
    kernel_size: 3
    stride: 1
  }
}
layer {
  name: "relu1_2"
  type: "ReLU"
  bottom: "conv1_2"
  top: "conv1_2"
}
layer {
  name: "pool1"
  type: "Pooling"
  bottom: "conv1_2"
  top: "pool1"
  pooling_param {
    pool: MAX
    kernel_size: 2
    stride: 2
  }
}
layer {
  name: "conv2_1"
  type: "Convolution"
  bottom: "pool1"
  top: "conv2_1"
  param {
    lr_mult: 1
    decay_mult: 1
  }
  param {
    lr_mult: 2
    decay_mult: 0
  }
  convolution_param {
    num_output: 128
    pad: 1
    kernel_size: 3
    stride: 1
  }
}
layer {
  name: "relu2_1"
  type: "ReLU"
  bottom: "conv2_1"
  top: "conv2_1"
}
layer {
  name: "conv2_2"
  type: "Convolution"
  bottom: "conv2_1"
  top: "conv2_2"
  param {
    lr_mult: 1
    decay_mult: 1
  }
  param {
    lr_mult: 2
    decay_mult: 0
  }
  convolution_param {
    num_output: 128
    pad: 1
    kernel_size: 3
    stride: 1
  }
}
layer {
  name: "relu2_2"
  type: "ReLU"
  bottom: "conv2_2"
  top: "conv2_2"
}
layer {
  name: "pool2"
  type: "Pooling"
  bottom: "conv2_2"
  top: "pool2"
  pooling_param {
    pool: MAX
    kernel_size: 2
    stride: 2
  }
}
layer {
  name: "conv3_1"
  type: "Convolution"
  bottom: "pool2"
  top: "conv3_1"
  param {
    lr_mult: 1
    decay_mult: 1
  }
  param {
    lr_mult: 2
    decay_mult: 0
  }
  convolution_param {
    num_output: 256
    pad: 1
    kernel_size: 3
    stride: 1
  }
}
layer {
  name: "relu3_1"
  type: "ReLU"
  bottom: "conv3_1"
  top: "conv3_1"
}
layer {
  name: "conv3_2"
  type: "Convolution"
  bottom: "conv3_1"
  top: "conv3_2"
  param {
    lr_mult: 1
    decay_mult: 1
  }
  param {
    lr_mult: 2
    decay_mult: 0
  }
  convolution_param {
    num_output: 256
    pad: 1
    kernel_size: 3
    stride: 1
  }
}
layer {
  name: "relu3_2"
  type: "ReLU"
  bottom: "conv3_2"
  top: "conv3_2"
}
layer {
  name: "conv3_3"
  type: "Convolution"
  bottom: "conv3_2"
  top: "conv3_3"
  param {
    lr_mult: 1
    decay_mult: 1
  }
  param {
    lr_mult: 2
    decay_mult: 0
  }
  convolution_param {
    num_output: 256
    pad: 1
    kernel_size: 3
    stride: 1
  }
}
layer {
  name: "relu3_3"
  type: "ReLU"
  bottom: "conv3_3"
  top: "conv3_3"
}
layer {
  name: "pool3"
  type: "Pooling"
  bottom: "conv3_3"
  top: "pool3"
  pooling_param {
    pool: MAX
    kernel_size: 2
    stride: 2
  }
}
layer {
  name: "conv4_1"
  type: "Convolution"
  bottom: "pool3"
  top: "conv4_1"
  param {
    lr_mult: 1
    decay_mult: 1
  }
  param {
    lr_mult: 2
    decay_mult: 0
  }
  convolution_param {
    num_output: 512
    pad: 1
    kernel_size: 3
    stride: 1
  }
}
layer {
  name: "relu4_1"
  type: "ReLU"
  bottom: "conv4_1"
  top: "conv4_1"
}
layer {
  name: "conv4_2"
  type: "Convolution"
  bottom: "conv4_1"
  top: "conv4_2"
  param {
    lr_mult: 1
    decay_mult: 1
  }
  param {
    lr_mult: 2
    decay_mult: 0
  }
  convolution_param {
    num_output: 512
    pad: 1
    kernel_size: 3
    stride: 1
  }
}
layer {
  name: "relu4_2"
  type: "ReLU"
  bottom: "conv4_2"
  top: "conv4_2"
}
layer {
  name: "conv4_3"
  type: "Convolution"
  bottom: "conv4_2"
  top: "conv4_3"
  param {
    lr_mult: 1
    decay_mult: 1
  }
  param {
    lr_mult: 2
    decay_mult: 0
  }
  convolution_param {
    num_output: 512
    pad: 1
    kernel_size: 3
    stride: 1
  }
}
layer {
  name: "relu4_3"
  type: "ReLU"
  bottom: "conv4_3"
  top: "conv4_3"
}
layer {
  name: "pool4"
  type: "Pooling"
  bottom: "conv4_3"
  top: "pool4"
  pooling_param {
    pool: MAX
    kernel_size: 2
    stride: 2
  }
}
layer {
  name: "conv5_1"
  type: "Convolution"
  bottom: "pool4"
  top: "conv5_1"
  param {
    lr_mult: 1
    decay_mult: 1
  }
  param {
    lr_mult: 2
    decay_mult: 0
  }
  convolution_param {
    num_output: 512
    pad: 1
    kernel_size: 3
    stride: 1
  }
}
layer {
  name: "relu5_1"
  type: "ReLU"
  bottom: "conv5_1"
  top: "conv5_1"
}
layer {
  name: "conv5_2"
  type: "Convolution"
  bottom: "conv5_1"
  top: "conv5_2"
  param {
    lr_mult: 1
    decay_mult: 1
  }
  param {
    lr_mult: 2
    decay_mult: 0
  }
  convolution_param {
    num_output: 512
    pad: 1
    kernel_size: 3
    stride: 1
  }
}
layer {
  name: "relu5_2"
  type: "ReLU"
  bottom: "conv5_2"
  top: "conv5_2"
}
layer {
  name: "conv5_3"
  type: "Convolution"
  bottom: "conv5_2"
  top: "conv5_3"
  param {
    lr_mult: 1
    decay_mult: 1
  }
  param {
    lr_mult: 2
    decay_mult: 0
  }
  convolution_param {
    num_output: 512
    pad: 1
    kernel_size: 3
    stride: 1
  }
}
layer {
  name: "relu5_3"
  type: "ReLU"
  bottom: "conv5_3"
  top: "conv5_3"
}
layer {
  name: "pool5"
  type: "Pooling"
  bottom: "conv5_3"
  top: "pool5"
  pooling_param {
    pool: MAX
    kernel_size: 2
    stride: 2
  }
}
layer {
  name: "fc6"
  type: "Convolution"
  bottom: "pool5"
  top: "fc6"
  param {
    lr_mult: 1
    decay_mult: 1
  }
  param {
    lr_mult: 2
    decay_mult: 0
  }
  convolution_param {
    num_output: 4096
    pad: 0
    kernel_size: 7
    stride: 1
  }
}
layer {
  name: "relu6"
  type: "ReLU"
  bottom: "fc6"
  top: "fc6"
}
layer {
  name: "drop6"
  type: "Dropout"
  bottom: "fc6"
  top: "fc6"
  dropout_param {
    dropout_ratio: 0.5
  }
}
layer {
  name: "fc7"
  type: "Convolution"
  bottom: "fc6"
  top: "fc7"
  param {
    lr_mult: 1
    decay_mult: 1
  }
  param {
    lr_mult: 2
    decay_mult: 0
  }
  convolution_param {
    num_output: 4096
    pad: 0
    kernel_size: 1
    stride: 1
  }
}
layer {
  name: "relu7"
  type: "ReLU"
  bottom: "fc7"
  top: "fc7"
}
layer {
  name: "drop7"
  type: "Dropout"
  bottom: "fc7"
  top: "fc7"
  dropout_param {
    dropout_ratio: 0.5
  }
}
layer {
  name: "score_fr-new"
  type: "Convolution"
  bottom: "fc7"
  top: "score_fr-new"
  param {
    lr_mult: 1
    decay_mult: 1
  }
  param {
    lr_mult: 2
    decay_mult: 0
  }
  convolution_param {
    num_output: 3
    kernel_size: 1
  }
}
layer {
  name: "upscore2-new"
  type: "Deconvolution"
  bottom: "score_fr-new"
  top: "upscore2-new"
  param {
    lr_mult: 0
  }
  convolution_param {
    num_output: 3
    bias_term: false
    kernel_size: 4
    stride: 2
  }
}
layer {
  name: "score_pool4-new"
  type: "Convolution"
  bottom: "pool4"
  top: "score_pool4-new"
  param {
    lr_mult: 1
    decay_mult: 1
  }
  param {
    lr_mult: 2
    decay_mult: 0
  }
  convolution_param {
    num_output: 3
    pad: 0
    kernel_size: 1
  }
}
layer {
  name: "score_pool4c"
  type: "Crop"
  bottom: "score_pool4-new"
  bottom: "upscore2-new"
  top: "score_pool4c"
  crop_param {
    axis: 2
    offset: 5
  }
}
layer {
  name: "fuse_pool4"
  type: "Eltwise"
  bottom: "upscore2-new"
  bottom: "score_pool4c"
  top: "fuse_pool4"
  eltwise_param {
    operation: SUM
  }
}
layer {
  name: "upscore_pool4-new"
  type: "Deconvolution"
  bottom: "fuse_pool4"
  top: "upscore_pool4-new"
  param {
    lr_mult: 0
  }
  convolution_param {
    num_output: 3
    bias_term: false
    kernel_size: 4
    stride: 2
  }
}
layer {
  name: "score_pool3-new"
  type: "Convolution"
  bottom: "pool3"
  top: "score_pool3-new"
  param {
    lr_mult: 1
    decay_mult: 1
  }
  param {
    lr_mult: 2
    decay_mult: 0
  }
  convolution_param {
    num_output: 3
    pad: 0
    kernel_size: 1
  }
}
layer {
  name: "score_pool3c"
  type: "Crop"
  bottom: "score_pool3-new"
  bottom: "upscore_pool4-new"
  top: "score_pool3c"
  crop_param {
    axis: 2
    offset: 9
  }
}
layer {
  name: "fuse_pool3"
  type: "Eltwise"
  bottom: "upscore_pool4-new"
  bottom: "score_pool3c"
  top: "fuse_pool3"
  eltwise_param {
    operation: SUM
  }
}
layer {
  name: "upscore8-new"
  type: "Deconvolution"
  bottom: "fuse_pool3"
  top: "upscore8-new"
  param {
    lr_mult: 0
  }
  convolution_param {
    num_output: 3
    bias_term: false
    kernel_size: 16
    stride: 8
  }
}
layer {
  name: "upscore8_cropped"
  type: "Crop"
  bottom: "upscore8-new"
  bottom: "data"
  top: "upscore8_cropped"
  crop_param {
    axis: 2
    offset: 31
  }
}
layer {
  name: "prob"
  type: "Sigmoid"
  bottom: "upscore8_cropped"
  top: "prob"
}
layer {
  name: "saliency1"
  type: "Convolution"
  bottom: "prob"
  top: "saliency1"
  param {
    lr_mult: 10
    decay_mult: 1
  }
  param {
    lr_mult: 20
    decay_mult: 0
  }
  convolution_param {
    num_output: 3
    pad: 1
    kernel_size: 3
    stride: 1
    weight_filler {
      type: "xavier"
    }
    bias_filler {
      type: "constant"
      value: 1
    }
  }
}
layer {
  name: "relu_saliency1"
  type: "ReLU"
  bottom: "saliency1"
  top: "saliency1"
}
layer {
  name: "saliency"
  type: "Convolution"
  bottom: "saliency1"
  top: "saliency"
  param {
    lr_mult: 10
    decay_mult: 1
  }
  param {
    lr_mult: 20
    decay_mult: 0
  }
  convolution_param {
    num_output: 3
    pad: 2
    kernel_size: 5
    stride: 1
    weight_filler {
      type: "xavier"
    }
    bias_filler {
      type: "constant"
      value: 1
    }
  }
}
layer {
  name: "saliency_data"
  type: "Eltwise"
  bottom: "data"
  bottom: "saliency"
  top: "saliency_data"
  eltwise_param {
    operation: PROD
  }
}
layer {
  name: "crop"
  type: "Python"
  bottom: "label"
  bottom: "saliency_data"
  bottom: "crop_margin"
  bottom: "crop_prob"
  bottom: "crop_sample_batch"
  top: "data-R"
  top: "crop_info"
  python_param {
    module: "Crop"
    layer: "CropLayer"
    param_str: "{\"TEST\": 0}"
  }
}
layer {
  name: "conv1_1-R"
  type: "Convolution"
  bottom: "data-R"
  top: "conv1_1-R"
  param {
    lr_mult: 10
    decay_mult: 1
  }
  param {
    lr_mult: 20
    decay_mult: 0
  }
  convolution_param {
    num_output: 64
    pad: 100
    kernel_size: 3
    stride: 1
  }
}
layer {
  name: "relu1_1-R"
  type: "ReLU"
  bottom: "conv1_1-R"
  top: "conv1_1-R"
}
layer {
  name: "conv1_2-R"
  type: "Convolution"
  bottom: "conv1_1-R"
  top: "conv1_2-R"
  param {
    lr_mult: 10
    decay_mult: 1
  }
  param {
    lr_mult: 20
    decay_mult: 0
  }
  convolution_param {
    num_output: 64
    pad: 1
    kernel_size: 3
    stride: 1
  }
}
layer {
  name: "relu1_2-R"
  type: "ReLU"
  bottom: "conv1_2-R"
  top: "conv1_2-R"
}
layer {
  name: "pool1-R"
  type: "Pooling"
  bottom: "conv1_2-R"
  top: "pool1-R"
  pooling_param {
    pool: MAX
    kernel_size: 2
    stride: 2
  }
}
layer {
  name: "conv2_1-R"
  type: "Convolution"
  bottom: "pool1-R"
  top: "conv2_1-R"
  param {
    lr_mult: 10
    decay_mult: 1
  }
  param {
    lr_mult: 20
    decay_mult: 0
  }
  convolution_param {
    num_output: 128
    pad: 1
    kernel_size: 3
    stride: 1
  }
}
layer {
  name: "relu2_1-R"
  type: "ReLU"
  bottom: "conv2_1-R"
  top: "conv2_1-R"
}
layer {
  name: "conv2_2-R"
  type: "Convolution"
  bottom: "conv2_1-R"
  top: "conv2_2-R"
  param {
    lr_mult: 10
    decay_mult: 1
  }
  param {
    lr_mult: 20
    decay_mult: 0
  }
  convolution_param {
    num_output: 128
    pad: 1
    kernel_size: 3
    stride: 1
  }
}
layer {
  name: "relu2_2-R"
  type: "ReLU"
  bottom: "conv2_2-R"
  top: "conv2_2-R"
}
layer {
  name: "pool2-R"
  type: "Pooling"
  bottom: "conv2_2-R"
  top: "pool2-R"
  pooling_param {
    pool: MAX
    kernel_size: 2
    stride: 2
  }
}
layer {
  name: "conv3_1-R"
  type: "Convolution"
  bottom: "pool2-R"
  top: "conv3_1-R"
  param {
    lr_mult: 10
    decay_mult: 1
  }
  param {
    lr_mult: 20
    decay_mult: 0
  }
  convolution_param {
    num_output: 256
    pad: 1
    kernel_size: 3
    stride: 1
  }
}
layer {
  name: "relu3_1-R"
  type: "ReLU"
  bottom: "conv3_1-R"
  top: "conv3_1-R"
}
layer {
  name: "conv3_2-R"
  type: "Convolution"
  bottom: "conv3_1-R"
  top: "conv3_2-R"
  param {
    lr_mult: 10
    decay_mult: 1
  }
  param {
    lr_mult: 20
    decay_mult: 0
  }
  convolution_param {
    num_output: 256
    pad: 1
    kernel_size: 3
    stride: 1
  }
}
layer {
  name: "relu3_2-R"
  type: "ReLU"
  bottom: "conv3_2-R"
  top: "conv3_2-R"
}
layer {
  name: "conv3_3-R"
  type: "Convolution"
  bottom: "conv3_2-R"
  top: "conv3_3-R"
  param {
    lr_mult: 10
    decay_mult: 1
  }
  param {
    lr_mult: 20
    decay_mult: 0
  }
  convolution_param {
    num_output: 256
    pad: 1
    kernel_size: 3
    stride: 1
  }
}
layer {
  name: "relu3_3-R"
  type: "ReLU"
  bottom: "conv3_3-R"
  top: "conv3_3-R"
}
layer {
  name: "pool3-R"
  type: "Pooling"
  bottom: "conv3_3-R"
  top: "pool3-R"
  pooling_param {
    pool: MAX
    kernel_size: 2
    stride: 2
  }
}
layer {
  name: "conv4_1-R"
  type: "Convolution"
  bottom: "pool3-R"
  top: "conv4_1-R"
  param {
    lr_mult: 10
    decay_mult: 1
  }
  param {
    lr_mult: 20
    decay_mult: 0
  }
  convolution_param {
    num_output: 512
    pad: 1
    kernel_size: 3
    stride: 1
  }
}
layer {
  name: "relu4_1-R"
  type: "ReLU"
  bottom: "conv4_1-R"
  top: "conv4_1-R"
}
layer {
  name: "conv4_2-R"
  type: "Convolution"
  bottom: "conv4_1-R"
  top: "conv4_2-R"
  param {
    lr_mult: 10
    decay_mult: 1
  }
  param {
    lr_mult: 20
    decay_mult: 0
  }
  convolution_param {
    num_output: 512
    pad: 1
    kernel_size: 3
    stride: 1
  }
}
layer {
  name: "relu4_2-R"
  type: "ReLU"
  bottom: "conv4_2-R"
  top: "conv4_2-R"
}
layer {
  name: "conv4_3-R"
  type: "Convolution"
  bottom: "conv4_2-R"
  top: "conv4_3-R"
  param {
    lr_mult: 10
    decay_mult: 1
  }
  param {
    lr_mult: 20
    decay_mult: 0
  }
  convolution_param {
    num_output: 512
    pad: 1
    kernel_size: 3
    stride: 1
  }
}
layer {
  name: "relu4_3-R"
  type: "ReLU"
  bottom: "conv4_3-R"
  top: "conv4_3-R"
}
layer {
  name: "pool4-R"
  type: "Pooling"
  bottom: "conv4_3-R"
  top: "pool4-R"
  pooling_param {
    pool: MAX
    kernel_size: 2
    stride: 2
  }
}
layer {
  name: "conv5_1-R"
  type: "Convolution"
  bottom: "pool4-R"
  top: "conv5_1-R"
  param {
    lr_mult: 10
    decay_mult: 1
  }
  param {
    lr_mult: 20
    decay_mult: 0
  }
  convolution_param {
    num_output: 512
    pad: 1
    kernel_size: 3
    stride: 1
  }
}
layer {
  name: "relu5_1-R"
  type: "ReLU"
  bottom: "conv5_1-R"
  top: "conv5_1-R"
}
layer {
  name: "conv5_2-R"
  type: "Convolution"
  bottom: "conv5_1-R"
  top: "conv5_2-R"
  param {
    lr_mult: 10
    decay_mult: 1
  }
  param {
    lr_mult: 20
    decay_mult: 0
  }
  convolution_param {
    num_output: 512
    pad: 1
    kernel_size: 3
    stride: 1
  }
}
layer {
  name: "relu5_2-R"
  type: "ReLU"
  bottom: "conv5_2-R"
  top: "conv5_2-R"
}
layer {
  name: "conv5_3-R"
  type: "Convolution"
  bottom: "conv5_2-R"
  top: "conv5_3-R"
  param {
    lr_mult: 10
    decay_mult: 1
  }
  param {
    lr_mult: 20
    decay_mult: 0
  }
  convolution_param {
    num_output: 512
    pad: 1
    kernel_size: 3
    stride: 1
  }
}
layer {
  name: "relu5_3-R"
  type: "ReLU"
  bottom: "conv5_3-R"
  top: "conv5_3-R"
}
layer {
  name: "pool5-R"
  type: "Pooling"
  bottom: "conv5_3-R"
  top: "pool5-R"
  pooling_param {
    pool: MAX
    kernel_size: 2
    stride: 2
  }
}
layer {
  name: "fc6-R"
  type: "Convolution"
  bottom: "pool5-R"
  top: "fc6-R"
  param {
    lr_mult: 10
    decay_mult: 1
  }
  param {
    lr_mult: 20
    decay_mult: 0
  }
  convolution_param {
    num_output: 4096
    pad: 0
    kernel_size: 7
    stride: 1
  }
}
layer {
  name: "relu6-R"
  type: "ReLU"
  bottom: "fc6-R"
  top: "fc6-R"
}
layer {
  name: "drop6-R"
  type: "Dropout"
  bottom: "fc6-R"
  top: "fc6-R"
  dropout_param {
    dropout_ratio: 0.5
  }
}
layer {
  name: "fc7-R"
  type: "Convolution"
  bottom: "fc6-R"
  top: "fc7-R"
  param {
    lr_mult: 10
    decay_mult: 1
  }
  param {
    lr_mult: 20
    decay_mult: 0
  }
  convolution_param {
    num_output: 4096
    pad: 0
    kernel_size: 1
    stride: 1
  }
}
layer {
  name: "relu7-R"
  type: "ReLU"
  bottom: "fc7-R"
  top: "fc7-R"
}
layer {
  name: "drop7-R"
  type: "Dropout"
  bottom: "fc7-R"
  top: "fc7-R"
  dropout_param {
    dropout_ratio: 0.5
  }
}
layer {
  name: "score_fr-new-R"
  type: "Convolution"
  bottom: "fc7-R"
  top: "score_fr-new-R"
  param {
    lr_mult: 10
    decay_mult: 1
  }
  param {
    lr_mult: 20
    decay_mult: 0
  }
  convolution_param {
    num_output: 3
    kernel_size: 1
  }
}
layer {
  name: "upscore2-new-R"
  type: "Deconvolution"
  bottom: "score_fr-new-R"
  top: "upscore2-new-R"
  param {
    lr_mult: 0
  }
  convolution_param {
    num_output: 3
    bias_term: false
    kernel_size: 4
    stride: 2
  }
}
layer {
  name: "score_pool4-new-R"
  type: "Convolution"
  bottom: "pool4-R"
  top: "score_pool4-new-R"
  param {
    lr_mult: 10
    decay_mult: 1
  }
  param {
    lr_mult: 20
    decay_mult: 0
  }
  convolution_param {
    num_output: 3
    pad: 0
    kernel_size: 1
  }
}
layer {
  name: "score_pool4c-R"
  type: "Crop"
  bottom: "score_pool4-new-R"
  bottom: "upscore2-new-R"
  top: "score_pool4c-R"
  crop_param {
    axis: 2
    offset: 5
  }
}
layer {
  name: "fuse_pool4-R"
  type: "Eltwise"
  bottom: "upscore2-new-R"
  bottom: "score_pool4c-R"
  top: "fuse_pool4-R"
  eltwise_param {
    operation: SUM
  }
}
layer {
  name: "upscore_pool4-new-R"
  type: "Deconvolution"
  bottom: "fuse_pool4-R"
  top: "upscore_pool4-new-R"
  param {
    lr_mult: 0
  }
  convolution_param {
    num_output: 3
    bias_term: false
    kernel_size: 4
    stride: 2
  }
}
layer {
  name: "score_pool3-new-R"
  type: "Convolution"
  bottom: "pool3-R"
  top: "score_pool3-new-R"
  param {
    lr_mult: 10
    decay_mult: 1
  }
  param {
    lr_mult: 20
    decay_mult: 0
  }
  convolution_param {
    num_output: 3
    pad: 0
    kernel_size: 1
  }
}
layer {
  name: "score_pool3c-R"
  type: "Crop"
  bottom: "score_pool3-new-R"
  bottom: "upscore_pool4-new-R"
  top: "score_pool3c-R"
  crop_param {
    axis: 2
    offset: 9
  }
}
layer {
  name: "fuse_pool3-R"
  type: "Eltwise"
  bottom: "upscore_pool4-new-R"
  bottom: "score_pool3c-R"
  top: "fuse_pool3-R"
  eltwise_param {
    operation: SUM
  }
}
layer {
  name: "upscore8-new-R"
  type: "Deconvolution"
  bottom: "fuse_pool3-R"
  top: "upscore8-new-R"
  param {
    lr_mult: 0
  }
  convolution_param {
    num_output: 3
    bias_term: false
    kernel_size: 16
    stride: 8
  }
}
layer {
  name: "upscore8_cropped-R"
  type: "Crop"
  bottom: "upscore8-new-R"
  bottom: "data-R"
  top: "upscore8_cropped-R"
  crop_param {
    axis: 2
    offset: 31
  }
}
layer {
  name: "upscore8_uncropped-R"
  type: "Python"
  bottom: "crop_info"
  bottom: "upscore8_cropped-R"
  bottom: "data"
  top: "upscore8_uncropped-R"
  python_param {
    module: "Uncrop"
    layer: "UncropLayer"
  }
}
layer {
  name: "loss1"
  type: "DiceLoss"
  bottom: "upscore8_cropped"
  bottom: "label"
  top: "loss1"
  loss_weight: 0.333333
}
layer {
  name: "loss2"
  type: "DiceLoss"
  bottom: "upscore8_uncropped-R"
  bottom: "label"
  top: "loss2"
  loss_weight: 0.666667
}
I0715 17:11:50.694031 13835 layer_factory.hpp:77] Creating layer data
I0715 17:11:50.694077 13835 net.cpp:84] Creating Layer data
I0715 17:11:50.694084 13835 net.cpp:380] data -> data
I0715 17:11:50.694093 13835 net.cpp:380] data -> label
I0715 17:11:50.694099 13835 net.cpp:380] data -> crop_margin
I0715 17:11:50.694105 13835 net.cpp:380] data -> crop_prob
I0715 17:11:50.694111 13835 net.cpp:380] data -> crop_sample_batch
I0715 17:11:50.772630 13835 net.cpp:122] Setting up data
I0715 17:11:50.772682 13835 net.cpp:129] Top shape: 1 3 512 512 (786432)
I0715 17:11:50.772688 13835 net.cpp:129] Top shape: 1 3 512 512 (786432)
I0715 17:11:50.772693 13835 net.cpp:129] Top shape: 1 (1)
I0715 17:11:50.772697 13835 net.cpp:129] Top shape: 1 (1)
I0715 17:11:50.772702 13835 net.cpp:129] Top shape: 1 (1)
I0715 17:11:50.772706 13835 net.cpp:137] Memory required for data: 6291468
I0715 17:11:50.772712 13835 layer_factory.hpp:77] Creating layer data_data_0_split
I0715 17:11:50.772727 13835 net.cpp:84] Creating Layer data_data_0_split
I0715 17:11:50.772732 13835 net.cpp:406] data_data_0_split <- data
I0715 17:11:50.772755 13835 net.cpp:380] data_data_0_split -> data_data_0_split_0
I0715 17:11:50.772765 13835 net.cpp:380] data_data_0_split -> data_data_0_split_1
I0715 17:11:50.772773 13835 net.cpp:380] data_data_0_split -> data_data_0_split_2
I0715 17:11:50.772778 13835 net.cpp:380] data_data_0_split -> data_data_0_split_3
I0715 17:11:50.772884 13835 net.cpp:122] Setting up data_data_0_split
I0715 17:11:50.772902 13835 net.cpp:129] Top shape: 1 3 512 512 (786432)
I0715 17:11:50.772907 13835 net.cpp:129] Top shape: 1 3 512 512 (786432)
I0715 17:11:50.772912 13835 net.cpp:129] Top shape: 1 3 512 512 (786432)
I0715 17:11:50.772915 13835 net.cpp:129] Top shape: 1 3 512 512 (786432)
I0715 17:11:50.772919 13835 net.cpp:137] Memory required for data: 18874380
I0715 17:11:50.772923 13835 layer_factory.hpp:77] Creating layer label_data_1_split
I0715 17:11:50.772929 13835 net.cpp:84] Creating Layer label_data_1_split
I0715 17:11:50.772933 13835 net.cpp:406] label_data_1_split <- label
I0715 17:11:50.772938 13835 net.cpp:380] label_data_1_split -> label_data_1_split_0
I0715 17:11:50.772944 13835 net.cpp:380] label_data_1_split -> label_data_1_split_1
I0715 17:11:50.772950 13835 net.cpp:380] label_data_1_split -> label_data_1_split_2
I0715 17:11:50.773025 13835 net.cpp:122] Setting up label_data_1_split
I0715 17:11:50.773035 13835 net.cpp:129] Top shape: 1 3 512 512 (786432)
I0715 17:11:50.773038 13835 net.cpp:129] Top shape: 1 3 512 512 (786432)
I0715 17:11:50.773042 13835 net.cpp:129] Top shape: 1 3 512 512 (786432)
I0715 17:11:50.773046 13835 net.cpp:137] Memory required for data: 28311564
I0715 17:11:50.773049 13835 layer_factory.hpp:77] Creating layer conv1_1
I0715 17:11:50.773061 13835 net.cpp:84] Creating Layer conv1_1
I0715 17:11:50.773066 13835 net.cpp:406] conv1_1 <- data_data_0_split_0
I0715 17:11:50.773072 13835 net.cpp:380] conv1_1 -> conv1_1
I0715 17:11:50.777734 13835 net.cpp:122] Setting up conv1_1
I0715 17:11:50.777750 13835 net.cpp:129] Top shape: 1 64 710 710 (32262400)
I0715 17:11:50.777770 13835 net.cpp:137] Memory required for data: 157361164
I0715 17:11:50.777783 13835 layer_factory.hpp:77] Creating layer relu1_1
I0715 17:11:50.777792 13835 net.cpp:84] Creating Layer relu1_1
I0715 17:11:50.777796 13835 net.cpp:406] relu1_1 <- conv1_1
I0715 17:11:50.777802 13835 net.cpp:367] relu1_1 -> conv1_1 (in-place)
I0715 17:11:50.778785 13835 net.cpp:122] Setting up relu1_1
I0715 17:11:50.778800 13835 net.cpp:129] Top shape: 1 64 710 710 (32262400)
I0715 17:11:50.778820 13835 net.cpp:137] Memory required for data: 286410764
I0715 17:11:50.778823 13835 layer_factory.hpp:77] Creating layer conv1_2
I0715 17:11:50.778833 13835 net.cpp:84] Creating Layer conv1_2
I0715 17:11:50.778837 13835 net.cpp:406] conv1_2 <- conv1_1
I0715 17:11:50.778843 13835 net.cpp:380] conv1_2 -> conv1_2
I0715 17:11:50.788595 13835 net.cpp:122] Setting up conv1_2
I0715 17:11:50.788652 13835 net.cpp:129] Top shape: 1 64 710 710 (32262400)
I0715 17:11:50.788661 13835 net.cpp:137] Memory required for data: 415460364
I0715 17:11:50.788689 13835 layer_factory.hpp:77] Creating layer relu1_2
I0715 17:11:50.788719 13835 net.cpp:84] Creating Layer relu1_2
I0715 17:11:50.788729 13835 net.cpp:406] relu1_2 <- conv1_2
I0715 17:11:50.788743 13835 net.cpp:367] relu1_2 -> conv1_2 (in-place)
I0715 17:11:50.789269 13835 net.cpp:122] Setting up relu1_2
I0715 17:11:50.789288 13835 net.cpp:129] Top shape: 1 64 710 710 (32262400)
I0715 17:11:50.789304 13835 net.cpp:137] Memory required for data: 544509964
I0715 17:11:50.789311 13835 layer_factory.hpp:77] Creating layer pool1
I0715 17:11:50.789326 13835 net.cpp:84] Creating Layer pool1
I0715 17:11:50.789335 13835 net.cpp:406] pool1 <- conv1_2
I0715 17:11:50.789347 13835 net.cpp:380] pool1 -> pool1
I0715 17:11:50.789485 13835 net.cpp:122] Setting up pool1
I0715 17:11:50.789503 13835 net.cpp:129] Top shape: 1 64 355 355 (8065600)
I0715 17:11:50.789521 13835 net.cpp:137] Memory required for data: 576772364
I0715 17:11:50.789528 13835 layer_factory.hpp:77] Creating layer conv2_1
I0715 17:11:50.789551 13835 net.cpp:84] Creating Layer conv2_1
I0715 17:11:50.789573 13835 net.cpp:406] conv2_1 <- pool1
I0715 17:11:50.789587 13835 net.cpp:380] conv2_1 -> conv2_1
I0715 17:11:50.793573 13835 net.cpp:122] Setting up conv2_1
I0715 17:11:50.793609 13835 net.cpp:129] Top shape: 1 128 355 355 (16131200)
I0715 17:11:50.793617 13835 net.cpp:137] Memory required for data: 641297164
I0715 17:11:50.793637 13835 layer_factory.hpp:77] Creating layer relu2_1
I0715 17:11:50.793651 13835 net.cpp:84] Creating Layer relu2_1
I0715 17:11:50.793660 13835 net.cpp:406] relu2_1 <- conv2_1
I0715 17:11:50.793674 13835 net.cpp:367] relu2_1 -> conv2_1 (in-place)
I0715 17:11:50.794112 13835 net.cpp:122] Setting up relu2_1
I0715 17:11:50.794131 13835 net.cpp:129] Top shape: 1 128 355 355 (16131200)
I0715 17:11:50.794137 13835 net.cpp:137] Memory required for data: 705821964
I0715 17:11:50.794145 13835 layer_factory.hpp:77] Creating layer conv2_2
I0715 17:11:50.794172 13835 net.cpp:84] Creating Layer conv2_2
I0715 17:11:50.794179 13835 net.cpp:406] conv2_2 <- conv2_1
I0715 17:11:50.794203 13835 net.cpp:380] conv2_2 -> conv2_2
I0715 17:11:50.805429 13835 net.cpp:122] Setting up conv2_2
I0715 17:11:50.805464 13835 net.cpp:129] Top shape: 1 128 355 355 (16131200)
I0715 17:11:50.805469 13835 net.cpp:137] Memory required for data: 770346764
I0715 17:11:50.805476 13835 layer_factory.hpp:77] Creating layer relu2_2
I0715 17:11:50.805483 13835 net.cpp:84] Creating Layer relu2_2
I0715 17:11:50.805488 13835 net.cpp:406] relu2_2 <- conv2_2
I0715 17:11:50.805495 13835 net.cpp:367] relu2_2 -> conv2_2 (in-place)
I0715 17:11:50.806433 13835 net.cpp:122] Setting up relu2_2
I0715 17:11:50.806463 13835 net.cpp:129] Top shape: 1 128 355 355 (16131200)
I0715 17:11:50.806483 13835 net.cpp:137] Memory required for data: 834871564
I0715 17:11:50.806485 13835 layer_factory.hpp:77] Creating layer pool2
I0715 17:11:50.806494 13835 net.cpp:84] Creating Layer pool2
I0715 17:11:50.806499 13835 net.cpp:406] pool2 <- conv2_2
I0715 17:11:50.806504 13835 net.cpp:380] pool2 -> pool2
I0715 17:11:50.806592 13835 net.cpp:122] Setting up pool2
I0715 17:11:50.806609 13835 net.cpp:129] Top shape: 1 128 178 178 (4055552)
I0715 17:11:50.806612 13835 net.cpp:137] Memory required for data: 851093772
I0715 17:11:50.806617 13835 layer_factory.hpp:77] Creating layer conv3_1
I0715 17:11:50.806627 13835 net.cpp:84] Creating Layer conv3_1
I0715 17:11:50.806630 13835 net.cpp:406] conv3_1 <- pool2
I0715 17:11:50.806637 13835 net.cpp:380] conv3_1 -> conv3_1
I0715 17:11:50.809155 13835 net.cpp:122] Setting up conv3_1
I0715 17:11:50.809185 13835 net.cpp:129] Top shape: 1 256 178 178 (8111104)
I0715 17:11:50.809188 13835 net.cpp:137] Memory required for data: 883538188
I0715 17:11:50.809198 13835 layer_factory.hpp:77] Creating layer relu3_1
I0715 17:11:50.809207 13835 net.cpp:84] Creating Layer relu3_1
I0715 17:11:50.809211 13835 net.cpp:406] relu3_1 <- conv3_1
I0715 17:11:50.809216 13835 net.cpp:367] relu3_1 -> conv3_1 (in-place)
I0715 17:11:50.809443 13835 net.cpp:122] Setting up relu3_1
I0715 17:11:50.809453 13835 net.cpp:129] Top shape: 1 256 178 178 (8111104)
I0715 17:11:50.809456 13835 net.cpp:137] Memory required for data: 915982604
I0715 17:11:50.809460 13835 layer_factory.hpp:77] Creating layer conv3_2
I0715 17:11:50.809469 13835 net.cpp:84] Creating Layer conv3_2
I0715 17:11:50.809473 13835 net.cpp:406] conv3_2 <- conv3_1
I0715 17:11:50.809479 13835 net.cpp:380] conv3_2 -> conv3_2
I0715 17:11:50.815685 13835 net.cpp:122] Setting up conv3_2
I0715 17:11:50.815721 13835 net.cpp:129] Top shape: 1 256 178 178 (8111104)
I0715 17:11:50.815727 13835 net.cpp:137] Memory required for data: 948427020
I0715 17:11:50.815742 13835 layer_factory.hpp:77] Creating layer relu3_2
I0715 17:11:50.815757 13835 net.cpp:84] Creating Layer relu3_2
I0715 17:11:50.815763 13835 net.cpp:406] relu3_2 <- conv3_2
I0715 17:11:50.815773 13835 net.cpp:367] relu3_2 -> conv3_2 (in-place)
I0715 17:11:50.816161 13835 net.cpp:122] Setting up relu3_2
I0715 17:11:50.816179 13835 net.cpp:129] Top shape: 1 256 178 178 (8111104)
I0715 17:11:50.816192 13835 net.cpp:137] Memory required for data: 980871436
I0715 17:11:50.816200 13835 layer_factory.hpp:77] Creating layer conv3_3
I0715 17:11:50.816213 13835 net.cpp:84] Creating Layer conv3_3
I0715 17:11:50.816220 13835 net.cpp:406] conv3_3 <- conv3_2
I0715 17:11:50.816232 13835 net.cpp:380] conv3_3 -> conv3_3
I0715 17:11:50.831917 13835 net.cpp:122] Setting up conv3_3
I0715 17:11:50.831946 13835 net.cpp:129] Top shape: 1 256 178 178 (8111104)
I0715 17:11:50.831951 13835 net.cpp:137] Memory required for data: 1013315852
I0715 17:11:50.831959 13835 layer_factory.hpp:77] Creating layer relu3_3
I0715 17:11:50.831969 13835 net.cpp:84] Creating Layer relu3_3
I0715 17:11:50.831972 13835 net.cpp:406] relu3_3 <- conv3_3
I0715 17:11:50.831979 13835 net.cpp:367] relu3_3 -> conv3_3 (in-place)
I0715 17:11:50.835798 13835 net.cpp:122] Setting up relu3_3
I0715 17:11:50.835827 13835 net.cpp:129] Top shape: 1 256 178 178 (8111104)
I0715 17:11:50.835831 13835 net.cpp:137] Memory required for data: 1045760268
I0715 17:11:50.835834 13835 layer_factory.hpp:77] Creating layer pool3
I0715 17:11:50.835844 13835 net.cpp:84] Creating Layer pool3
I0715 17:11:50.835847 13835 net.cpp:406] pool3 <- conv3_3
I0715 17:11:50.835853 13835 net.cpp:380] pool3 -> pool3
I0715 17:11:50.835937 13835 net.cpp:122] Setting up pool3
I0715 17:11:50.835943 13835 net.cpp:129] Top shape: 1 256 89 89 (2027776)
I0715 17:11:50.835947 13835 net.cpp:137] Memory required for data: 1053871372
I0715 17:11:50.835950 13835 layer_factory.hpp:77] Creating layer pool3_pool3_0_split
I0715 17:11:50.835956 13835 net.cpp:84] Creating Layer pool3_pool3_0_split
I0715 17:11:50.835960 13835 net.cpp:406] pool3_pool3_0_split <- pool3
I0715 17:11:50.835966 13835 net.cpp:380] pool3_pool3_0_split -> pool3_pool3_0_split_0
I0715 17:11:50.835973 13835 net.cpp:380] pool3_pool3_0_split -> pool3_pool3_0_split_1
I0715 17:11:50.836025 13835 net.cpp:122] Setting up pool3_pool3_0_split
I0715 17:11:50.836036 13835 net.cpp:129] Top shape: 1 256 89 89 (2027776)
I0715 17:11:50.836040 13835 net.cpp:129] Top shape: 1 256 89 89 (2027776)
I0715 17:11:50.836043 13835 net.cpp:137] Memory required for data: 1070093580
I0715 17:11:50.836046 13835 layer_factory.hpp:77] Creating layer conv4_1
I0715 17:11:50.836056 13835 net.cpp:84] Creating Layer conv4_1
I0715 17:11:50.836060 13835 net.cpp:406] conv4_1 <- pool3_pool3_0_split_0
I0715 17:11:50.836066 13835 net.cpp:380] conv4_1 -> conv4_1
I0715 17:11:50.847612 13835 net.cpp:122] Setting up conv4_1
I0715 17:11:50.847669 13835 net.cpp:129] Top shape: 1 512 89 89 (4055552)
I0715 17:11:50.847678 13835 net.cpp:137] Memory required for data: 1086315788
I0715 17:11:50.847694 13835 layer_factory.hpp:77] Creating layer relu4_1
I0715 17:11:50.847707 13835 net.cpp:84] Creating Layer relu4_1
I0715 17:11:50.847718 13835 net.cpp:406] relu4_1 <- conv4_1
I0715 17:11:50.847728 13835 net.cpp:367] relu4_1 -> conv4_1 (in-place)
I0715 17:11:50.848186 13835 net.cpp:122] Setting up relu4_1
I0715 17:11:50.848206 13835 net.cpp:129] Top shape: 1 512 89 89 (4055552)
I0715 17:11:50.848213 13835 net.cpp:137] Memory required for data: 1102537996
I0715 17:11:50.848222 13835 layer_factory.hpp:77] Creating layer conv4_2
I0715 17:11:50.848237 13835 net.cpp:84] Creating Layer conv4_2
I0715 17:11:50.848245 13835 net.cpp:406] conv4_2 <- conv4_1
I0715 17:11:50.848258 13835 net.cpp:380] conv4_2 -> conv4_2
I0715 17:11:50.861770 13835 net.cpp:122] Setting up conv4_2
I0715 17:11:50.861790 13835 net.cpp:129] Top shape: 1 512 89 89 (4055552)
I0715 17:11:50.861795 13835 net.cpp:137] Memory required for data: 1118760204
I0715 17:11:50.861816 13835 layer_factory.hpp:77] Creating layer relu4_2
I0715 17:11:50.861825 13835 net.cpp:84] Creating Layer relu4_2
I0715 17:11:50.861830 13835 net.cpp:406] relu4_2 <- conv4_2
I0715 17:11:50.861837 13835 net.cpp:367] relu4_2 -> conv4_2 (in-place)
I0715 17:11:50.862103 13835 net.cpp:122] Setting up relu4_2
I0715 17:11:50.862115 13835 net.cpp:129] Top shape: 1 512 89 89 (4055552)
I0715 17:11:50.862120 13835 net.cpp:137] Memory required for data: 1134982412
I0715 17:11:50.862124 13835 layer_factory.hpp:77] Creating layer conv4_3
I0715 17:11:50.862135 13835 net.cpp:84] Creating Layer conv4_3
I0715 17:11:50.862140 13835 net.cpp:406] conv4_3 <- conv4_2
I0715 17:11:50.862149 13835 net.cpp:380] conv4_3 -> conv4_3
I0715 17:11:50.872501 13835 net.cpp:122] Setting up conv4_3
I0715 17:11:50.872520 13835 net.cpp:129] Top shape: 1 512 89 89 (4055552)
I0715 17:11:50.872536 13835 net.cpp:137] Memory required for data: 1151204620
I0715 17:11:50.872546 13835 layer_factory.hpp:77] Creating layer relu4_3
I0715 17:11:50.872555 13835 net.cpp:84] Creating Layer relu4_3
I0715 17:11:50.872561 13835 net.cpp:406] relu4_3 <- conv4_3
I0715 17:11:50.872567 13835 net.cpp:367] relu4_3 -> conv4_3 (in-place)
I0715 17:11:50.872848 13835 net.cpp:122] Setting up relu4_3
I0715 17:11:50.872860 13835 net.cpp:129] Top shape: 1 512 89 89 (4055552)
I0715 17:11:50.872865 13835 net.cpp:137] Memory required for data: 1167426828
I0715 17:11:50.872869 13835 layer_factory.hpp:77] Creating layer pool4
I0715 17:11:50.872879 13835 net.cpp:84] Creating Layer pool4
I0715 17:11:50.872884 13835 net.cpp:406] pool4 <- conv4_3
I0715 17:11:50.872891 13835 net.cpp:380] pool4 -> pool4
I0715 17:11:50.872975 13835 net.cpp:122] Setting up pool4
I0715 17:11:50.872985 13835 net.cpp:129] Top shape: 1 512 45 45 (1036800)
I0715 17:11:50.872989 13835 net.cpp:137] Memory required for data: 1171574028
I0715 17:11:50.872993 13835 layer_factory.hpp:77] Creating layer pool4_pool4_0_split
I0715 17:11:50.873001 13835 net.cpp:84] Creating Layer pool4_pool4_0_split
I0715 17:11:50.873005 13835 net.cpp:406] pool4_pool4_0_split <- pool4
I0715 17:11:50.873013 13835 net.cpp:380] pool4_pool4_0_split -> pool4_pool4_0_split_0
I0715 17:11:50.873019 13835 net.cpp:380] pool4_pool4_0_split -> pool4_pool4_0_split_1
I0715 17:11:50.873085 13835 net.cpp:122] Setting up pool4_pool4_0_split
I0715 17:11:50.873095 13835 net.cpp:129] Top shape: 1 512 45 45 (1036800)
I0715 17:11:50.873100 13835 net.cpp:129] Top shape: 1 512 45 45 (1036800)
I0715 17:11:50.873105 13835 net.cpp:137] Memory required for data: 1179868428
I0715 17:11:50.873108 13835 layer_factory.hpp:77] Creating layer conv5_1
I0715 17:11:50.873119 13835 net.cpp:84] Creating Layer conv5_1
I0715 17:11:50.873123 13835 net.cpp:406] conv5_1 <- pool4_pool4_0_split_0
I0715 17:11:50.873131 13835 net.cpp:380] conv5_1 -> conv5_1
I0715 17:11:50.886477 13835 net.cpp:122] Setting up conv5_1
I0715 17:11:50.886524 13835 net.cpp:129] Top shape: 1 512 45 45 (1036800)
I0715 17:11:50.886533 13835 net.cpp:137] Memory required for data: 1184015628
I0715 17:11:50.886550 13835 layer_factory.hpp:77] Creating layer relu5_1
I0715 17:11:50.886564 13835 net.cpp:84] Creating Layer relu5_1
I0715 17:11:50.886574 13835 net.cpp:406] relu5_1 <- conv5_1
I0715 17:11:50.886586 13835 net.cpp:367] relu5_1 -> conv5_1 (in-place)
I0715 17:11:50.887040 13835 net.cpp:122] Setting up relu5_1
I0715 17:11:50.887059 13835 net.cpp:129] Top shape: 1 512 45 45 (1036800)
I0715 17:11:50.887073 13835 net.cpp:137] Memory required for data: 1188162828
I0715 17:11:50.887081 13835 layer_factory.hpp:77] Creating layer conv5_2
I0715 17:11:50.887107 13835 net.cpp:84] Creating Layer conv5_2
I0715 17:11:50.887115 13835 net.cpp:406] conv5_2 <- conv5_1
I0715 17:11:50.887140 13835 net.cpp:380] conv5_2 -> conv5_2
I0715 17:11:50.899570 13835 net.cpp:122] Setting up conv5_2
I0715 17:11:50.899590 13835 net.cpp:129] Top shape: 1 512 45 45 (1036800)
I0715 17:11:50.899605 13835 net.cpp:137] Memory required for data: 1192310028
I0715 17:11:50.899613 13835 layer_factory.hpp:77] Creating layer relu5_2
I0715 17:11:50.899639 13835 net.cpp:84] Creating Layer relu5_2
I0715 17:11:50.899646 13835 net.cpp:406] relu5_2 <- conv5_2
I0715 17:11:50.899653 13835 net.cpp:367] relu5_2 -> conv5_2 (in-place)
I0715 17:11:50.899935 13835 net.cpp:122] Setting up relu5_2
I0715 17:11:50.899947 13835 net.cpp:129] Top shape: 1 512 45 45 (1036800)
I0715 17:11:50.899952 13835 net.cpp:137] Memory required for data: 1196457228
I0715 17:11:50.899956 13835 layer_factory.hpp:77] Creating layer conv5_3
I0715 17:11:50.899969 13835 net.cpp:84] Creating Layer conv5_3
I0715 17:11:50.899974 13835 net.cpp:406] conv5_3 <- conv5_2
I0715 17:11:50.899982 13835 net.cpp:380] conv5_3 -> conv5_3
I0715 17:11:50.909688 13835 net.cpp:122] Setting up conv5_3
I0715 17:11:50.909709 13835 net.cpp:129] Top shape: 1 512 45 45 (1036800)
I0715 17:11:50.909714 13835 net.cpp:137] Memory required for data: 1200604428
I0715 17:11:50.909723 13835 layer_factory.hpp:77] Creating layer relu5_3
I0715 17:11:50.909732 13835 net.cpp:84] Creating Layer relu5_3
I0715 17:11:50.909739 13835 net.cpp:406] relu5_3 <- conv5_3
I0715 17:11:50.909745 13835 net.cpp:367] relu5_3 -> conv5_3 (in-place)
I0715 17:11:50.910897 13835 net.cpp:122] Setting up relu5_3
I0715 17:11:50.910914 13835 net.cpp:129] Top shape: 1 512 45 45 (1036800)
I0715 17:11:50.910918 13835 net.cpp:137] Memory required for data: 1204751628
I0715 17:11:50.910923 13835 layer_factory.hpp:77] Creating layer pool5
I0715 17:11:50.910936 13835 net.cpp:84] Creating Layer pool5
I0715 17:11:50.910941 13835 net.cpp:406] pool5 <- conv5_3
I0715 17:11:50.910953 13835 net.cpp:380] pool5 -> pool5
I0715 17:11:50.911057 13835 net.cpp:122] Setting up pool5
I0715 17:11:50.911070 13835 net.cpp:129] Top shape: 1 512 23 23 (270848)
I0715 17:11:50.911075 13835 net.cpp:137] Memory required for data: 1205835020
I0715 17:11:50.911079 13835 layer_factory.hpp:77] Creating layer fc6
I0715 17:11:50.911090 13835 net.cpp:84] Creating Layer fc6
I0715 17:11:50.911095 13835 net.cpp:406] fc6 <- pool5
I0715 17:11:50.911104 13835 net.cpp:380] fc6 -> fc6
I0715 17:11:51.227530 13835 net.cpp:122] Setting up fc6
I0715 17:11:51.227579 13835 net.cpp:129] Top shape: 1 4096 17 17 (1183744)
I0715 17:11:51.227586 13835 net.cpp:137] Memory required for data: 1210569996
I0715 17:11:51.227598 13835 layer_factory.hpp:77] Creating layer relu6
I0715 17:11:51.227614 13835 net.cpp:84] Creating Layer relu6
I0715 17:11:51.227622 13835 net.cpp:406] relu6 <- fc6
I0715 17:11:51.227630 13835 net.cpp:367] relu6 -> fc6 (in-place)
I0715 17:11:51.227916 13835 net.cpp:122] Setting up relu6
I0715 17:11:51.227928 13835 net.cpp:129] Top shape: 1 4096 17 17 (1183744)
I0715 17:11:51.227932 13835 net.cpp:137] Memory required for data: 1215304972
I0715 17:11:51.227937 13835 layer_factory.hpp:77] Creating layer drop6
I0715 17:11:51.227946 13835 net.cpp:84] Creating Layer drop6
I0715 17:11:51.227952 13835 net.cpp:406] drop6 <- fc6
I0715 17:11:51.227958 13835 net.cpp:367] drop6 -> fc6 (in-place)
I0715 17:11:51.228008 13835 net.cpp:122] Setting up drop6
I0715 17:11:51.228020 13835 net.cpp:129] Top shape: 1 4096 17 17 (1183744)
I0715 17:11:51.228024 13835 net.cpp:137] Memory required for data: 1220039948
I0715 17:11:51.228029 13835 layer_factory.hpp:77] Creating layer fc7
I0715 17:11:51.228041 13835 net.cpp:84] Creating Layer fc7
I0715 17:11:51.228046 13835 net.cpp:406] fc7 <- fc6
I0715 17:11:51.228054 13835 net.cpp:380] fc7 -> fc7
I0715 17:11:51.284119 13835 net.cpp:122] Setting up fc7
I0715 17:11:51.284157 13835 net.cpp:129] Top shape: 1 4096 17 17 (1183744)
I0715 17:11:51.284162 13835 net.cpp:137] Memory required for data: 1224774924
I0715 17:11:51.284176 13835 layer_factory.hpp:77] Creating layer relu7
I0715 17:11:51.284193 13835 net.cpp:84] Creating Layer relu7
I0715 17:11:51.284199 13835 net.cpp:406] relu7 <- fc7
I0715 17:11:51.284209 13835 net.cpp:367] relu7 -> fc7 (in-place)
I0715 17:11:51.284493 13835 net.cpp:122] Setting up relu7
I0715 17:11:51.284507 13835 net.cpp:129] Top shape: 1 4096 17 17 (1183744)
I0715 17:11:51.284512 13835 net.cpp:137] Memory required for data: 1229509900
I0715 17:11:51.284515 13835 layer_factory.hpp:77] Creating layer drop7
I0715 17:11:51.284525 13835 net.cpp:84] Creating Layer drop7
I0715 17:11:51.284529 13835 net.cpp:406] drop7 <- fc7
I0715 17:11:51.284538 13835 net.cpp:367] drop7 -> fc7 (in-place)
I0715 17:11:51.284590 13835 net.cpp:122] Setting up drop7
I0715 17:11:51.284612 13835 net.cpp:129] Top shape: 1 4096 17 17 (1183744)
I0715 17:11:51.284616 13835 net.cpp:137] Memory required for data: 1234244876
I0715 17:11:51.284621 13835 layer_factory.hpp:77] Creating layer score_fr-new
I0715 17:11:51.284633 13835 net.cpp:84] Creating Layer score_fr-new
I0715 17:11:51.284637 13835 net.cpp:406] score_fr-new <- fc7
I0715 17:11:51.284647 13835 net.cpp:380] score_fr-new -> score_fr-new
I0715 17:11:51.287385 13835 net.cpp:122] Setting up score_fr-new
I0715 17:11:51.287405 13835 net.cpp:129] Top shape: 1 3 17 17 (867)
I0715 17:11:51.287417 13835 net.cpp:137] Memory required for data: 1234248344
I0715 17:11:51.287426 13835 layer_factory.hpp:77] Creating layer upscore2-new
I0715 17:11:51.287438 13835 net.cpp:84] Creating Layer upscore2-new
I0715 17:11:51.287444 13835 net.cpp:406] upscore2-new <- score_fr-new
I0715 17:11:51.287453 13835 net.cpp:380] upscore2-new -> upscore2-new
I0715 17:11:51.287875 13835 net.cpp:122] Setting up upscore2-new
I0715 17:11:51.287886 13835 net.cpp:129] Top shape: 1 3 36 36 (3888)
I0715 17:11:51.287890 13835 net.cpp:137] Memory required for data: 1234263896
I0715 17:11:51.287909 13835 layer_factory.hpp:77] Creating layer upscore2-new_upscore2-new_0_split
I0715 17:11:51.287919 13835 net.cpp:84] Creating Layer upscore2-new_upscore2-new_0_split
I0715 17:11:51.287923 13835 net.cpp:406] upscore2-new_upscore2-new_0_split <- upscore2-new
I0715 17:11:51.287935 13835 net.cpp:380] upscore2-new_upscore2-new_0_split -> upscore2-new_upscore2-new_0_split_0
I0715 17:11:51.287942 13835 net.cpp:380] upscore2-new_upscore2-new_0_split -> upscore2-new_upscore2-new_0_split_1
I0715 17:11:51.288022 13835 net.cpp:122] Setting up upscore2-new_upscore2-new_0_split
I0715 17:11:51.288045 13835 net.cpp:129] Top shape: 1 3 36 36 (3888)
I0715 17:11:51.288050 13835 net.cpp:129] Top shape: 1 3 36 36 (3888)
I0715 17:11:51.288054 13835 net.cpp:137] Memory required for data: 1234295000
I0715 17:11:51.288058 13835 layer_factory.hpp:77] Creating layer score_pool4-new
I0715 17:11:51.288069 13835 net.cpp:84] Creating Layer score_pool4-new
I0715 17:11:51.288074 13835 net.cpp:406] score_pool4-new <- pool4_pool4_0_split_1
I0715 17:11:51.288084 13835 net.cpp:380] score_pool4-new -> score_pool4-new
I0715 17:11:51.292351 13835 net.cpp:122] Setting up score_pool4-new
I0715 17:11:51.292371 13835 net.cpp:129] Top shape: 1 3 45 45 (6075)
I0715 17:11:51.292376 13835 net.cpp:137] Memory required for data: 1234319300
I0715 17:11:51.292385 13835 layer_factory.hpp:77] Creating layer score_pool4c
I0715 17:11:51.292395 13835 net.cpp:84] Creating Layer score_pool4c
I0715 17:11:51.292400 13835 net.cpp:406] score_pool4c <- score_pool4-new
I0715 17:11:51.292408 13835 net.cpp:406] score_pool4c <- upscore2-new_upscore2-new_0_split_0
I0715 17:11:51.292415 13835 net.cpp:380] score_pool4c -> score_pool4c
I0715 17:11:51.292467 13835 net.cpp:122] Setting up score_pool4c
I0715 17:11:51.292474 13835 net.cpp:129] Top shape: 1 3 36 36 (3888)
I0715 17:11:51.292479 13835 net.cpp:137] Memory required for data: 1234334852
I0715 17:11:51.292482 13835 layer_factory.hpp:77] Creating layer fuse_pool4
I0715 17:11:51.292492 13835 net.cpp:84] Creating Layer fuse_pool4
I0715 17:11:51.292497 13835 net.cpp:406] fuse_pool4 <- upscore2-new_upscore2-new_0_split_1
I0715 17:11:51.292503 13835 net.cpp:406] fuse_pool4 <- score_pool4c
I0715 17:11:51.292510 13835 net.cpp:380] fuse_pool4 -> fuse_pool4
I0715 17:11:51.292554 13835 net.cpp:122] Setting up fuse_pool4
I0715 17:11:51.292560 13835 net.cpp:129] Top shape: 1 3 36 36 (3888)
I0715 17:11:51.292564 13835 net.cpp:137] Memory required for data: 1234350404
I0715 17:11:51.292568 13835 layer_factory.hpp:77] Creating layer upscore_pool4-new
I0715 17:11:51.292588 13835 net.cpp:84] Creating Layer upscore_pool4-new
I0715 17:11:51.292593 13835 net.cpp:406] upscore_pool4-new <- fuse_pool4
I0715 17:11:51.292599 13835 net.cpp:380] upscore_pool4-new -> upscore_pool4-new
I0715 17:11:51.292990 13835 net.cpp:122] Setting up upscore_pool4-new
I0715 17:11:51.293000 13835 net.cpp:129] Top shape: 1 3 74 74 (16428)
I0715 17:11:51.293004 13835 net.cpp:137] Memory required for data: 1234416116
I0715 17:11:51.293010 13835 layer_factory.hpp:77] Creating layer upscore_pool4-new_upscore_pool4-new_0_split
I0715 17:11:51.293017 13835 net.cpp:84] Creating Layer upscore_pool4-new_upscore_pool4-new_0_split
I0715 17:11:51.293022 13835 net.cpp:406] upscore_pool4-new_upscore_pool4-new_0_split <- upscore_pool4-new
I0715 17:11:51.293028 13835 net.cpp:380] upscore_pool4-new_upscore_pool4-new_0_split -> upscore_pool4-new_upscore_pool4-new_0_split_0
I0715 17:11:51.293036 13835 net.cpp:380] upscore_pool4-new_upscore_pool4-new_0_split -> upscore_pool4-new_upscore_pool4-new_0_split_1
I0715 17:11:51.293107 13835 net.cpp:122] Setting up upscore_pool4-new_upscore_pool4-new_0_split
I0715 17:11:51.293113 13835 net.cpp:129] Top shape: 1 3 74 74 (16428)
I0715 17:11:51.293118 13835 net.cpp:129] Top shape: 1 3 74 74 (16428)
I0715 17:11:51.293123 13835 net.cpp:137] Memory required for data: 1234547540
I0715 17:11:51.293126 13835 layer_factory.hpp:77] Creating layer score_pool3-new
I0715 17:11:51.293136 13835 net.cpp:84] Creating Layer score_pool3-new
I0715 17:11:51.293141 13835 net.cpp:406] score_pool3-new <- pool3_pool3_0_split_1
I0715 17:11:51.293149 13835 net.cpp:380] score_pool3-new -> score_pool3-new
I0715 17:11:51.295464 13835 net.cpp:122] Setting up score_pool3-new
I0715 17:11:51.295485 13835 net.cpp:129] Top shape: 1 3 89 89 (23763)
I0715 17:11:51.295490 13835 net.cpp:137] Memory required for data: 1234642592
I0715 17:11:51.295500 13835 layer_factory.hpp:77] Creating layer score_pool3c
I0715 17:11:51.295511 13835 net.cpp:84] Creating Layer score_pool3c
I0715 17:11:51.295519 13835 net.cpp:406] score_pool3c <- score_pool3-new
I0715 17:11:51.295526 13835 net.cpp:406] score_pool3c <- upscore_pool4-new_upscore_pool4-new_0_split_0
I0715 17:11:51.295534 13835 net.cpp:380] score_pool3c -> score_pool3c
I0715 17:11:51.295593 13835 net.cpp:122] Setting up score_pool3c
I0715 17:11:51.295600 13835 net.cpp:129] Top shape: 1 3 74 74 (16428)
I0715 17:11:51.295604 13835 net.cpp:137] Memory required for data: 1234708304
I0715 17:11:51.295609 13835 layer_factory.hpp:77] Creating layer fuse_pool3
I0715 17:11:51.295629 13835 net.cpp:84] Creating Layer fuse_pool3
I0715 17:11:51.295634 13835 net.cpp:406] fuse_pool3 <- upscore_pool4-new_upscore_pool4-new_0_split_1
I0715 17:11:51.295641 13835 net.cpp:406] fuse_pool3 <- score_pool3c
I0715 17:11:51.295650 13835 net.cpp:380] fuse_pool3 -> fuse_pool3
I0715 17:11:51.295698 13835 net.cpp:122] Setting up fuse_pool3
I0715 17:11:51.295709 13835 net.cpp:129] Top shape: 1 3 74 74 (16428)
I0715 17:11:51.295713 13835 net.cpp:137] Memory required for data: 1234774016
I0715 17:11:51.295718 13835 layer_factory.hpp:77] Creating layer upscore8-new
I0715 17:11:51.295729 13835 net.cpp:84] Creating Layer upscore8-new
I0715 17:11:51.295734 13835 net.cpp:406] upscore8-new <- fuse_pool3
I0715 17:11:51.295743 13835 net.cpp:380] upscore8-new -> upscore8-new
I0715 17:11:51.296203 13835 net.cpp:122] Setting up upscore8-new
I0715 17:11:51.296214 13835 net.cpp:129] Top shape: 1 3 600 600 (1080000)
I0715 17:11:51.296219 13835 net.cpp:137] Memory required for data: 1239094016
I0715 17:11:51.296226 13835 layer_factory.hpp:77] Creating layer upscore8_cropped
I0715 17:11:51.296236 13835 net.cpp:84] Creating Layer upscore8_cropped
I0715 17:11:51.296241 13835 net.cpp:406] upscore8_cropped <- upscore8-new
I0715 17:11:51.296248 13835 net.cpp:406] upscore8_cropped <- data_data_0_split_1
I0715 17:11:51.296255 13835 net.cpp:380] upscore8_cropped -> upscore8_cropped
I0715 17:11:51.296303 13835 net.cpp:122] Setting up upscore8_cropped
I0715 17:11:51.296310 13835 net.cpp:129] Top shape: 1 3 512 512 (786432)
I0715 17:11:51.296314 13835 net.cpp:137] Memory required for data: 1242239744
I0715 17:11:51.296319 13835 layer_factory.hpp:77] Creating layer upscore8_cropped_upscore8_cropped_0_split
I0715 17:11:51.296329 13835 net.cpp:84] Creating Layer upscore8_cropped_upscore8_cropped_0_split
I0715 17:11:51.296334 13835 net.cpp:406] upscore8_cropped_upscore8_cropped_0_split <- upscore8_cropped
I0715 17:11:51.296342 13835 net.cpp:380] upscore8_cropped_upscore8_cropped_0_split -> upscore8_cropped_upscore8_cropped_0_split_0
I0715 17:11:51.296351 13835 net.cpp:380] upscore8_cropped_upscore8_cropped_0_split -> upscore8_cropped_upscore8_cropped_0_split_1
I0715 17:11:51.296425 13835 net.cpp:122] Setting up upscore8_cropped_upscore8_cropped_0_split
I0715 17:11:51.296437 13835 net.cpp:129] Top shape: 1 3 512 512 (786432)
I0715 17:11:51.296443 13835 net.cpp:129] Top shape: 1 3 512 512 (786432)
I0715 17:11:51.296448 13835 net.cpp:137] Memory required for data: 1248531200
I0715 17:11:51.296452 13835 layer_factory.hpp:77] Creating layer prob
I0715 17:11:51.296463 13835 net.cpp:84] Creating Layer prob
I0715 17:11:51.296468 13835 net.cpp:406] prob <- upscore8_cropped_upscore8_cropped_0_split_0
I0715 17:11:51.296475 13835 net.cpp:380] prob -> prob
I0715 17:11:51.296815 13835 net.cpp:122] Setting up prob
I0715 17:11:51.296828 13835 net.cpp:129] Top shape: 1 3 512 512 (786432)
I0715 17:11:51.296833 13835 net.cpp:137] Memory required for data: 1251676928
I0715 17:11:51.296838 13835 layer_factory.hpp:77] Creating layer saliency1
I0715 17:11:51.296852 13835 net.cpp:84] Creating Layer saliency1
I0715 17:11:51.296857 13835 net.cpp:406] saliency1 <- prob
I0715 17:11:51.296869 13835 net.cpp:380] saliency1 -> saliency1
I0715 17:11:51.306634 13835 net.cpp:122] Setting up saliency1
I0715 17:11:51.306658 13835 net.cpp:129] Top shape: 1 3 512 512 (786432)
I0715 17:11:51.306663 13835 net.cpp:137] Memory required for data: 1254822656
I0715 17:11:51.306674 13835 layer_factory.hpp:77] Creating layer relu_saliency1
I0715 17:11:51.306684 13835 net.cpp:84] Creating Layer relu_saliency1
I0715 17:11:51.306690 13835 net.cpp:406] relu_saliency1 <- saliency1
I0715 17:11:51.306699 13835 net.cpp:367] relu_saliency1 -> saliency1 (in-place)
I0715 17:11:51.312075 13835 net.cpp:122] Setting up relu_saliency1
I0715 17:11:51.312108 13835 net.cpp:129] Top shape: 1 3 512 512 (786432)
I0715 17:11:51.312116 13835 net.cpp:137] Memory required for data: 1257968384
I0715 17:11:51.312124 13835 layer_factory.hpp:77] Creating layer saliency
I0715 17:11:51.312147 13835 net.cpp:84] Creating Layer saliency
I0715 17:11:51.312156 13835 net.cpp:406] saliency <- saliency1
I0715 17:11:51.312172 13835 net.cpp:380] saliency -> saliency
I0715 17:11:51.317713 13835 net.cpp:122] Setting up saliency
I0715 17:11:51.317742 13835 net.cpp:129] Top shape: 1 3 512 512 (786432)
I0715 17:11:51.317751 13835 net.cpp:137] Memory required for data: 1261114112
I0715 17:11:51.317767 13835 layer_factory.hpp:77] Creating layer saliency_data
I0715 17:11:51.317782 13835 net.cpp:84] Creating Layer saliency_data
I0715 17:11:51.317791 13835 net.cpp:406] saliency_data <- data_data_0_split_2
I0715 17:11:51.317802 13835 net.cpp:406] saliency_data <- saliency
I0715 17:11:51.317814 13835 net.cpp:380] saliency_data -> saliency_data
I0715 17:11:51.317903 13835 net.cpp:122] Setting up saliency_data
I0715 17:11:51.317920 13835 net.cpp:129] Top shape: 1 3 512 512 (786432)
I0715 17:11:51.317927 13835 net.cpp:137] Memory required for data: 1264259840
I0715 17:11:51.317945 13835 layer_factory.hpp:77] Creating layer crop
I0715 17:11:51.318038 13835 net.cpp:84] Creating Layer crop
I0715 17:11:51.318053 13835 net.cpp:406] crop <- label_data_1_split_0
I0715 17:11:51.318063 13835 net.cpp:406] crop <- saliency_data
I0715 17:11:51.318073 13835 net.cpp:406] crop <- crop_margin
I0715 17:11:51.318083 13835 net.cpp:406] crop <- crop_prob
I0715 17:11:51.318090 13835 net.cpp:406] crop <- crop_sample_batch
I0715 17:11:51.318102 13835 net.cpp:380] crop -> data-R
I0715 17:11:51.318117 13835 net.cpp:380] crop -> crop_info
I0715 17:11:51.337620 13835 net.cpp:122] Setting up crop
I0715 17:11:51.337685 13835 net.cpp:129] Top shape: 1 3 512 512 (786432)
I0715 17:11:51.337697 13835 net.cpp:129] Top shape: 1 2 4 (8)
I0715 17:11:51.337704 13835 net.cpp:137] Memory required for data: 1267405600
I0715 17:11:51.337716 13835 layer_factory.hpp:77] Creating layer data-R_crop_0_split
I0715 17:11:51.337747 13835 net.cpp:84] Creating Layer data-R_crop_0_split
I0715 17:11:51.337757 13835 net.cpp:406] data-R_crop_0_split <- data-R
I0715 17:11:51.337774 13835 net.cpp:380] data-R_crop_0_split -> data-R_crop_0_split_0
I0715 17:11:51.337792 13835 net.cpp:380] data-R_crop_0_split -> data-R_crop_0_split_1
I0715 17:11:51.337929 13835 net.cpp:122] Setting up data-R_crop_0_split
I0715 17:11:51.337945 13835 net.cpp:129] Top shape: 1 3 512 512 (786432)
I0715 17:11:51.337954 13835 net.cpp:129] Top shape: 1 3 512 512 (786432)
I0715 17:11:51.337961 13835 net.cpp:137] Memory required for data: 1273697056
I0715 17:11:51.337968 13835 layer_factory.hpp:77] Creating layer conv1_1-R
I0715 17:11:51.337987 13835 net.cpp:84] Creating Layer conv1_1-R
I0715 17:11:51.337996 13835 net.cpp:406] conv1_1-R <- data-R_crop_0_split_0
I0715 17:11:51.338008 13835 net.cpp:380] conv1_1-R -> conv1_1-R
I0715 17:11:51.344481 13835 net.cpp:122] Setting up conv1_1-R
I0715 17:11:51.344511 13835 net.cpp:129] Top shape: 1 64 710 710 (32262400)
I0715 17:11:51.344516 13835 net.cpp:137] Memory required for data: 1402746656
I0715 17:11:51.344528 13835 layer_factory.hpp:77] Creating layer relu1_1-R
I0715 17:11:51.344552 13835 net.cpp:84] Creating Layer relu1_1-R
I0715 17:11:51.344557 13835 net.cpp:406] relu1_1-R <- conv1_1-R
I0715 17:11:51.344570 13835 net.cpp:367] relu1_1-R -> conv1_1-R (in-place)
I0715 17:11:51.344866 13835 net.cpp:122] Setting up relu1_1-R
I0715 17:11:51.344878 13835 net.cpp:129] Top shape: 1 64 710 710 (32262400)
I0715 17:11:51.344882 13835 net.cpp:137] Memory required for data: 1531796256
I0715 17:11:51.344888 13835 layer_factory.hpp:77] Creating layer conv1_2-R
I0715 17:11:51.344900 13835 net.cpp:84] Creating Layer conv1_2-R
I0715 17:11:51.344905 13835 net.cpp:406] conv1_2-R <- conv1_1-R
I0715 17:11:51.344914 13835 net.cpp:380] conv1_2-R -> conv1_2-R
I0715 17:11:51.355155 13835 net.cpp:122] Setting up conv1_2-R
I0715 17:11:51.355192 13835 net.cpp:129] Top shape: 1 64 710 710 (32262400)
I0715 17:11:51.355197 13835 net.cpp:137] Memory required for data: 1660845856
I0715 17:11:51.355207 13835 layer_factory.hpp:77] Creating layer relu1_2-R
I0715 17:11:51.355218 13835 net.cpp:84] Creating Layer relu1_2-R
I0715 17:11:51.355224 13835 net.cpp:406] relu1_2-R <- conv1_2-R
I0715 17:11:51.355232 13835 net.cpp:367] relu1_2-R -> conv1_2-R (in-place)
I0715 17:11:51.355558 13835 net.cpp:122] Setting up relu1_2-R
I0715 17:11:51.355571 13835 net.cpp:129] Top shape: 1 64 710 710 (32262400)
I0715 17:11:51.355576 13835 net.cpp:137] Memory required for data: 1789895456
I0715 17:11:51.355581 13835 layer_factory.hpp:77] Creating layer pool1-R
I0715 17:11:51.355610 13835 net.cpp:84] Creating Layer pool1-R
I0715 17:11:51.355618 13835 net.cpp:406] pool1-R <- conv1_2-R
I0715 17:11:51.355630 13835 net.cpp:380] pool1-R -> pool1-R
I0715 17:11:51.355760 13835 net.cpp:122] Setting up pool1-R
I0715 17:11:51.355775 13835 net.cpp:129] Top shape: 1 64 355 355 (8065600)
I0715 17:11:51.355782 13835 net.cpp:137] Memory required for data: 1822157856
I0715 17:11:51.355787 13835 layer_factory.hpp:77] Creating layer conv2_1-R
I0715 17:11:51.355804 13835 net.cpp:84] Creating Layer conv2_1-R
I0715 17:11:51.355810 13835 net.cpp:406] conv2_1-R <- pool1-R
I0715 17:11:51.355823 13835 net.cpp:380] conv2_1-R -> conv2_1-R
I0715 17:11:51.362970 13835 net.cpp:122] Setting up conv2_1-R
I0715 17:11:51.363034 13835 net.cpp:129] Top shape: 1 128 355 355 (16131200)
I0715 17:11:51.363044 13835 net.cpp:137] Memory required for data: 1886682656
I0715 17:11:51.363065 13835 layer_factory.hpp:77] Creating layer relu2_1-R
I0715 17:11:51.363083 13835 net.cpp:84] Creating Layer relu2_1-R
I0715 17:11:51.363095 13835 net.cpp:406] relu2_1-R <- conv2_1-R
I0715 17:11:51.363109 13835 net.cpp:367] relu2_1-R -> conv2_1-R (in-place)
I0715 17:11:51.363754 13835 net.cpp:122] Setting up relu2_1-R
I0715 17:11:51.363776 13835 net.cpp:129] Top shape: 1 128 355 355 (16131200)
I0715 17:11:51.363790 13835 net.cpp:137] Memory required for data: 1951207456
I0715 17:11:51.363797 13835 layer_factory.hpp:77] Creating layer conv2_2-R
I0715 17:11:51.363821 13835 net.cpp:84] Creating Layer conv2_2-R
I0715 17:11:51.363829 13835 net.cpp:406] conv2_2-R <- conv2_1-R
I0715 17:11:51.363843 13835 net.cpp:380] conv2_2-R -> conv2_2-R
I0715 17:11:51.368839 13835 net.cpp:122] Setting up conv2_2-R
I0715 17:11:51.368868 13835 net.cpp:129] Top shape: 1 128 355 355 (16131200)
I0715 17:11:51.368873 13835 net.cpp:137] Memory required for data: 2015732256
I0715 17:11:51.368886 13835 layer_factory.hpp:77] Creating layer relu2_2-R
I0715 17:11:51.368896 13835 net.cpp:84] Creating Layer relu2_2-R
I0715 17:11:51.368901 13835 net.cpp:406] relu2_2-R <- conv2_2-R
I0715 17:11:51.368912 13835 net.cpp:367] relu2_2-R -> conv2_2-R (in-place)
I0715 17:11:51.374297 13835 net.cpp:122] Setting up relu2_2-R
I0715 17:11:51.374342 13835 net.cpp:129] Top shape: 1 128 355 355 (16131200)
I0715 17:11:51.374351 13835 net.cpp:137] Memory required for data: 2080257056
I0715 17:11:51.374359 13835 layer_factory.hpp:77] Creating layer pool2-R
I0715 17:11:51.374375 13835 net.cpp:84] Creating Layer pool2-R
I0715 17:11:51.374383 13835 net.cpp:406] pool2-R <- conv2_2-R
I0715 17:11:51.374398 13835 net.cpp:380] pool2-R -> pool2-R
I0715 17:11:51.374544 13835 net.cpp:122] Setting up pool2-R
I0715 17:11:51.374574 13835 net.cpp:129] Top shape: 1 128 178 178 (4055552)
I0715 17:11:51.374581 13835 net.cpp:137] Memory required for data: 2096479264
I0715 17:11:51.374588 13835 layer_factory.hpp:77] Creating layer conv3_1-R
I0715 17:11:51.374624 13835 net.cpp:84] Creating Layer conv3_1-R
I0715 17:11:51.374631 13835 net.cpp:406] conv3_1-R <- pool2-R
I0715 17:11:51.374644 13835 net.cpp:380] conv3_1-R -> conv3_1-R
I0715 17:11:51.393662 13835 net.cpp:122] Setting up conv3_1-R
I0715 17:11:51.393694 13835 net.cpp:129] Top shape: 1 256 178 178 (8111104)
I0715 17:11:51.393703 13835 net.cpp:137] Memory required for data: 2128923680
I0715 17:11:51.393720 13835 layer_factory.hpp:77] Creating layer relu3_1-R
I0715 17:11:51.393733 13835 net.cpp:84] Creating Layer relu3_1-R
I0715 17:11:51.393743 13835 net.cpp:406] relu3_1-R <- conv3_1-R
I0715 17:11:51.393755 13835 net.cpp:367] relu3_1-R -> conv3_1-R (in-place)
I0715 17:11:51.394273 13835 net.cpp:122] Setting up relu3_1-R
I0715 17:11:51.394292 13835 net.cpp:129] Top shape: 1 256 178 178 (8111104)
I0715 17:11:51.394307 13835 net.cpp:137] Memory required for data: 2161368096
I0715 17:11:51.394315 13835 layer_factory.hpp:77] Creating layer conv3_2-R
I0715 17:11:51.394331 13835 net.cpp:84] Creating Layer conv3_2-R
I0715 17:11:51.394340 13835 net.cpp:406] conv3_2-R <- conv3_1-R
I0715 17:11:51.394353 13835 net.cpp:380] conv3_2-R -> conv3_2-R
I0715 17:11:51.403823 13835 net.cpp:122] Setting up conv3_2-R
I0715 17:11:51.403861 13835 net.cpp:129] Top shape: 1 256 178 178 (8111104)
I0715 17:11:51.403870 13835 net.cpp:137] Memory required for data: 2193812512
I0715 17:11:51.403887 13835 layer_factory.hpp:77] Creating layer relu3_2-R
I0715 17:11:51.403900 13835 net.cpp:84] Creating Layer relu3_2-R
I0715 17:11:51.403909 13835 net.cpp:406] relu3_2-R <- conv3_2-R
I0715 17:11:51.403923 13835 net.cpp:367] relu3_2-R -> conv3_2-R (in-place)
I0715 17:11:51.404346 13835 net.cpp:122] Setting up relu3_2-R
I0715 17:11:51.404361 13835 net.cpp:129] Top shape: 1 256 178 178 (8111104)
I0715 17:11:51.404366 13835 net.cpp:137] Memory required for data: 2226256928
I0715 17:11:51.404379 13835 layer_factory.hpp:77] Creating layer conv3_3-R
I0715 17:11:51.404392 13835 net.cpp:84] Creating Layer conv3_3-R
I0715 17:11:51.404398 13835 net.cpp:406] conv3_3-R <- conv3_2-R
I0715 17:11:51.404408 13835 net.cpp:380] conv3_3-R -> conv3_3-R
I0715 17:11:51.411901 13835 net.cpp:122] Setting up conv3_3-R
I0715 17:11:51.411928 13835 net.cpp:129] Top shape: 1 256 178 178 (8111104)
I0715 17:11:51.411934 13835 net.cpp:137] Memory required for data: 2258701344
I0715 17:11:51.411947 13835 layer_factory.hpp:77] Creating layer relu3_3-R
I0715 17:11:51.411958 13835 net.cpp:84] Creating Layer relu3_3-R
I0715 17:11:51.411965 13835 net.cpp:406] relu3_3-R <- conv3_3-R
I0715 17:11:51.411974 13835 net.cpp:367] relu3_3-R -> conv3_3-R (in-place)
I0715 17:11:51.412353 13835 net.cpp:122] Setting up relu3_3-R
I0715 17:11:51.412367 13835 net.cpp:129] Top shape: 1 256 178 178 (8111104)
I0715 17:11:51.412372 13835 net.cpp:137] Memory required for data: 2291145760
I0715 17:11:51.412377 13835 layer_factory.hpp:77] Creating layer pool3-R
I0715 17:11:51.412390 13835 net.cpp:84] Creating Layer pool3-R
I0715 17:11:51.412396 13835 net.cpp:406] pool3-R <- conv3_3-R
I0715 17:11:51.412406 13835 net.cpp:380] pool3-R -> pool3-R
I0715 17:11:51.412537 13835 net.cpp:122] Setting up pool3-R
I0715 17:11:51.412549 13835 net.cpp:129] Top shape: 1 256 89 89 (2027776)
I0715 17:11:51.412554 13835 net.cpp:137] Memory required for data: 2299256864
I0715 17:11:51.412559 13835 layer_factory.hpp:77] Creating layer pool3-R_pool3-R_0_split
I0715 17:11:51.412569 13835 net.cpp:84] Creating Layer pool3-R_pool3-R_0_split
I0715 17:11:51.412573 13835 net.cpp:406] pool3-R_pool3-R_0_split <- pool3-R
I0715 17:11:51.412582 13835 net.cpp:380] pool3-R_pool3-R_0_split -> pool3-R_pool3-R_0_split_0
I0715 17:11:51.412592 13835 net.cpp:380] pool3-R_pool3-R_0_split -> pool3-R_pool3-R_0_split_1
I0715 17:11:51.412688 13835 net.cpp:122] Setting up pool3-R_pool3-R_0_split
I0715 17:11:51.412698 13835 net.cpp:129] Top shape: 1 256 89 89 (2027776)
I0715 17:11:51.412705 13835 net.cpp:129] Top shape: 1 256 89 89 (2027776)
I0715 17:11:51.412709 13835 net.cpp:137] Memory required for data: 2315479072
I0715 17:11:51.412714 13835 layer_factory.hpp:77] Creating layer conv4_1-R
I0715 17:11:51.412727 13835 net.cpp:84] Creating Layer conv4_1-R
I0715 17:11:51.412732 13835 net.cpp:406] conv4_1-R <- pool3-R_pool3-R_0_split_0
I0715 17:11:51.412742 13835 net.cpp:380] conv4_1-R -> conv4_1-R
I0715 17:11:51.421396 13835 net.cpp:122] Setting up conv4_1-R
I0715 17:11:51.421443 13835 net.cpp:129] Top shape: 1 512 89 89 (4055552)
I0715 17:11:51.421449 13835 net.cpp:137] Memory required for data: 2331701280
I0715 17:11:51.421464 13835 layer_factory.hpp:77] Creating layer relu4_1-R
I0715 17:11:51.421479 13835 net.cpp:84] Creating Layer relu4_1-R
I0715 17:11:51.421489 13835 net.cpp:406] relu4_1-R <- conv4_1-R
I0715 17:11:51.421497 13835 net.cpp:367] relu4_1-R -> conv4_1-R (in-place)
I0715 17:11:51.421838 13835 net.cpp:122] Setting up relu4_1-R
I0715 17:11:51.421851 13835 net.cpp:129] Top shape: 1 512 89 89 (4055552)
I0715 17:11:51.421856 13835 net.cpp:137] Memory required for data: 2347923488
I0715 17:11:51.421861 13835 layer_factory.hpp:77] Creating layer conv4_2-R
I0715 17:11:51.421876 13835 net.cpp:84] Creating Layer conv4_2-R
I0715 17:11:51.421891 13835 net.cpp:406] conv4_2-R <- conv4_1-R
I0715 17:11:51.421900 13835 net.cpp:380] conv4_2-R -> conv4_2-R
I0715 17:11:51.432220 13835 net.cpp:122] Setting up conv4_2-R
I0715 17:11:51.432256 13835 net.cpp:129] Top shape: 1 512 89 89 (4055552)
I0715 17:11:51.432261 13835 net.cpp:137] Memory required for data: 2364145696
I0715 17:11:51.432272 13835 layer_factory.hpp:77] Creating layer relu4_2-R
I0715 17:11:51.432283 13835 net.cpp:84] Creating Layer relu4_2-R
I0715 17:11:51.432291 13835 net.cpp:406] relu4_2-R <- conv4_2-R
I0715 17:11:51.432298 13835 net.cpp:367] relu4_2-R -> conv4_2-R (in-place)
I0715 17:11:51.432580 13835 net.cpp:122] Setting up relu4_2-R
I0715 17:11:51.432592 13835 net.cpp:129] Top shape: 1 512 89 89 (4055552)
I0715 17:11:51.432596 13835 net.cpp:137] Memory required for data: 2380367904
I0715 17:11:51.432601 13835 layer_factory.hpp:77] Creating layer conv4_3-R
I0715 17:11:51.432615 13835 net.cpp:84] Creating Layer conv4_3-R
I0715 17:11:51.432618 13835 net.cpp:406] conv4_3-R <- conv4_2-R
I0715 17:11:51.432627 13835 net.cpp:380] conv4_3-R -> conv4_3-R
I0715 17:11:51.442551 13835 net.cpp:122] Setting up conv4_3-R
I0715 17:11:51.442584 13835 net.cpp:129] Top shape: 1 512 89 89 (4055552)
I0715 17:11:51.442589 13835 net.cpp:137] Memory required for data: 2396590112
I0715 17:11:51.442600 13835 layer_factory.hpp:77] Creating layer relu4_3-R
I0715 17:11:51.442610 13835 net.cpp:84] Creating Layer relu4_3-R
I0715 17:11:51.442617 13835 net.cpp:406] relu4_3-R <- conv4_3-R
I0715 17:11:51.442625 13835 net.cpp:367] relu4_3-R -> conv4_3-R (in-place)
I0715 17:11:51.445493 13835 net.cpp:122] Setting up relu4_3-R
I0715 17:11:51.445523 13835 net.cpp:129] Top shape: 1 512 89 89 (4055552)
I0715 17:11:51.445528 13835 net.cpp:137] Memory required for data: 2412812320
I0715 17:11:51.445534 13835 layer_factory.hpp:77] Creating layer pool4-R
I0715 17:11:51.445545 13835 net.cpp:84] Creating Layer pool4-R
I0715 17:11:51.445550 13835 net.cpp:406] pool4-R <- conv4_3-R
I0715 17:11:51.445560 13835 net.cpp:380] pool4-R -> pool4-R
I0715 17:11:51.445669 13835 net.cpp:122] Setting up pool4-R
I0715 17:11:51.445680 13835 net.cpp:129] Top shape: 1 512 45 45 (1036800)
I0715 17:11:51.445684 13835 net.cpp:137] Memory required for data: 2416959520
I0715 17:11:51.445689 13835 layer_factory.hpp:77] Creating layer pool4-R_pool4-R_0_split
I0715 17:11:51.445698 13835 net.cpp:84] Creating Layer pool4-R_pool4-R_0_split
I0715 17:11:51.445703 13835 net.cpp:406] pool4-R_pool4-R_0_split <- pool4-R
I0715 17:11:51.445711 13835 net.cpp:380] pool4-R_pool4-R_0_split -> pool4-R_pool4-R_0_split_0
I0715 17:11:51.445719 13835 net.cpp:380] pool4-R_pool4-R_0_split -> pool4-R_pool4-R_0_split_1
I0715 17:11:51.445792 13835 net.cpp:122] Setting up pool4-R_pool4-R_0_split
I0715 17:11:51.445801 13835 net.cpp:129] Top shape: 1 512 45 45 (1036800)
I0715 17:11:51.445807 13835 net.cpp:129] Top shape: 1 512 45 45 (1036800)
I0715 17:11:51.445811 13835 net.cpp:137] Memory required for data: 2425253920
I0715 17:11:51.445816 13835 layer_factory.hpp:77] Creating layer conv5_1-R
I0715 17:11:51.445829 13835 net.cpp:84] Creating Layer conv5_1-R
I0715 17:11:51.445834 13835 net.cpp:406] conv5_1-R <- pool4-R_pool4-R_0_split_0
I0715 17:11:51.445842 13835 net.cpp:380] conv5_1-R -> conv5_1-R
I0715 17:11:51.456310 13835 net.cpp:122] Setting up conv5_1-R
I0715 17:11:51.456332 13835 net.cpp:129] Top shape: 1 512 45 45 (1036800)
I0715 17:11:51.456342 13835 net.cpp:137] Memory required for data: 2429401120
I0715 17:11:51.456372 13835 layer_factory.hpp:77] Creating layer relu5_1-R
I0715 17:11:51.456383 13835 net.cpp:84] Creating Layer relu5_1-R
I0715 17:11:51.456390 13835 net.cpp:406] relu5_1-R <- conv5_1-R
I0715 17:11:51.456406 13835 net.cpp:367] relu5_1-R -> conv5_1-R (in-place)
I0715 17:11:51.456719 13835 net.cpp:122] Setting up relu5_1-R
I0715 17:11:51.456732 13835 net.cpp:129] Top shape: 1 512 45 45 (1036800)
I0715 17:11:51.456737 13835 net.cpp:137] Memory required for data: 2433548320
I0715 17:11:51.456743 13835 layer_factory.hpp:77] Creating layer conv5_2-R
I0715 17:11:51.456755 13835 net.cpp:84] Creating Layer conv5_2-R
I0715 17:11:51.456760 13835 net.cpp:406] conv5_2-R <- conv5_1-R
I0715 17:11:51.456769 13835 net.cpp:380] conv5_2-R -> conv5_2-R
I0715 17:11:51.469931 13835 net.cpp:122] Setting up conv5_2-R
I0715 17:11:51.469954 13835 net.cpp:129] Top shape: 1 512 45 45 (1036800)
I0715 17:11:51.469959 13835 net.cpp:137] Memory required for data: 2437695520
I0715 17:11:51.469969 13835 layer_factory.hpp:77] Creating layer relu5_2-R
I0715 17:11:51.469980 13835 net.cpp:84] Creating Layer relu5_2-R
I0715 17:11:51.469986 13835 net.cpp:406] relu5_2-R <- conv5_2-R
I0715 17:11:51.469995 13835 net.cpp:367] relu5_2-R -> conv5_2-R (in-place)
I0715 17:11:51.470288 13835 net.cpp:122] Setting up relu5_2-R
I0715 17:11:51.470299 13835 net.cpp:129] Top shape: 1 512 45 45 (1036800)
I0715 17:11:51.470304 13835 net.cpp:137] Memory required for data: 2441842720
I0715 17:11:51.470309 13835 layer_factory.hpp:77] Creating layer conv5_3-R
I0715 17:11:51.470322 13835 net.cpp:84] Creating Layer conv5_3-R
I0715 17:11:51.470326 13835 net.cpp:406] conv5_3-R <- conv5_2-R
I0715 17:11:51.470335 13835 net.cpp:380] conv5_3-R -> conv5_3-R
I0715 17:11:51.482069 13835 net.cpp:122] Setting up conv5_3-R
I0715 17:11:51.482095 13835 net.cpp:129] Top shape: 1 512 45 45 (1036800)
I0715 17:11:51.482101 13835 net.cpp:137] Memory required for data: 2445989920
I0715 17:11:51.482113 13835 layer_factory.hpp:77] Creating layer relu5_3-R
I0715 17:11:51.482125 13835 net.cpp:84] Creating Layer relu5_3-R
I0715 17:11:51.482132 13835 net.cpp:406] relu5_3-R <- conv5_3-R
I0715 17:11:51.482142 13835 net.cpp:367] relu5_3-R -> conv5_3-R (in-place)
I0715 17:11:51.482506 13835 net.cpp:122] Setting up relu5_3-R
I0715 17:11:51.482519 13835 net.cpp:129] Top shape: 1 512 45 45 (1036800)
I0715 17:11:51.482525 13835 net.cpp:137] Memory required for data: 2450137120
I0715 17:11:51.482530 13835 layer_factory.hpp:77] Creating layer pool5-R
I0715 17:11:51.482542 13835 net.cpp:84] Creating Layer pool5-R
I0715 17:11:51.482556 13835 net.cpp:406] pool5-R <- conv5_3-R
I0715 17:11:51.482568 13835 net.cpp:380] pool5-R -> pool5-R
I0715 17:11:51.482679 13835 net.cpp:122] Setting up pool5-R
I0715 17:11:51.482692 13835 net.cpp:129] Top shape: 1 512 23 23 (270848)
I0715 17:11:51.482697 13835 net.cpp:137] Memory required for data: 2451220512
I0715 17:11:51.482702 13835 layer_factory.hpp:77] Creating layer fc6-R
I0715 17:11:51.482717 13835 net.cpp:84] Creating Layer fc6-R
I0715 17:11:51.482724 13835 net.cpp:406] fc6-R <- pool5-R
I0715 17:11:51.482736 13835 net.cpp:380] fc6-R -> fc6-R
I0715 17:11:51.800882 13835 net.cpp:122] Setting up fc6-R
I0715 17:11:51.800925 13835 net.cpp:129] Top shape: 1 4096 17 17 (1183744)
I0715 17:11:51.800930 13835 net.cpp:137] Memory required for data: 2455955488
I0715 17:11:51.800943 13835 layer_factory.hpp:77] Creating layer relu6-R
I0715 17:11:51.800959 13835 net.cpp:84] Creating Layer relu6-R
I0715 17:11:51.800967 13835 net.cpp:406] relu6-R <- fc6-R
I0715 17:11:51.800976 13835 net.cpp:367] relu6-R -> fc6-R (in-place)
I0715 17:11:51.801262 13835 net.cpp:122] Setting up relu6-R
I0715 17:11:51.801275 13835 net.cpp:129] Top shape: 1 4096 17 17 (1183744)
I0715 17:11:51.801280 13835 net.cpp:137] Memory required for data: 2460690464
I0715 17:11:51.801285 13835 layer_factory.hpp:77] Creating layer drop6-R
I0715 17:11:51.801295 13835 net.cpp:84] Creating Layer drop6-R
I0715 17:11:51.801306 13835 net.cpp:406] drop6-R <- fc6-R
I0715 17:11:51.801313 13835 net.cpp:367] drop6-R -> fc6-R (in-place)
I0715 17:11:51.801365 13835 net.cpp:122] Setting up drop6-R
I0715 17:11:51.801378 13835 net.cpp:129] Top shape: 1 4096 17 17 (1183744)
I0715 17:11:51.801381 13835 net.cpp:137] Memory required for data: 2465425440
I0715 17:11:51.801385 13835 layer_factory.hpp:77] Creating layer fc7-R
I0715 17:11:51.801399 13835 net.cpp:84] Creating Layer fc7-R
I0715 17:11:51.801415 13835 net.cpp:406] fc7-R <- fc6-R
I0715 17:11:51.801424 13835 net.cpp:380] fc7-R -> fc7-R
I0715 17:11:51.869102 13835 net.cpp:122] Setting up fc7-R
I0715 17:11:51.869141 13835 net.cpp:129] Top shape: 1 4096 17 17 (1183744)
I0715 17:11:51.869148 13835 net.cpp:137] Memory required for data: 2470160416
I0715 17:11:51.869163 13835 layer_factory.hpp:77] Creating layer relu7-R
I0715 17:11:51.869179 13835 net.cpp:84] Creating Layer relu7-R
I0715 17:11:51.869189 13835 net.cpp:406] relu7-R <- fc7-R
I0715 17:11:51.869199 13835 net.cpp:367] relu7-R -> fc7-R (in-place)
I0715 17:11:51.869551 13835 net.cpp:122] Setting up relu7-R
I0715 17:11:51.869565 13835 net.cpp:129] Top shape: 1 4096 17 17 (1183744)
I0715 17:11:51.869578 13835 net.cpp:137] Memory required for data: 2474895392
I0715 17:11:51.869582 13835 layer_factory.hpp:77] Creating layer drop7-R
I0715 17:11:51.869594 13835 net.cpp:84] Creating Layer drop7-R
I0715 17:11:51.869599 13835 net.cpp:406] drop7-R <- fc7-R
I0715 17:11:51.869607 13835 net.cpp:367] drop7-R -> fc7-R (in-place)
I0715 17:11:51.869673 13835 net.cpp:122] Setting up drop7-R
I0715 17:11:51.869683 13835 net.cpp:129] Top shape: 1 4096 17 17 (1183744)
I0715 17:11:51.869688 13835 net.cpp:137] Memory required for data: 2479630368
I0715 17:11:51.869693 13835 layer_factory.hpp:77] Creating layer score_fr-new-R
I0715 17:11:51.869707 13835 net.cpp:84] Creating Layer score_fr-new-R
I0715 17:11:51.869715 13835 net.cpp:406] score_fr-new-R <- fc7-R
I0715 17:11:51.869732 13835 net.cpp:380] score_fr-new-R -> score_fr-new-R
I0715 17:11:51.872460 13835 net.cpp:122] Setting up score_fr-new-R
I0715 17:11:51.872478 13835 net.cpp:129] Top shape: 1 3 17 17 (867)
I0715 17:11:51.872490 13835 net.cpp:137] Memory required for data: 2479633836
I0715 17:11:51.872499 13835 layer_factory.hpp:77] Creating layer upscore2-new-R
I0715 17:11:51.872511 13835 net.cpp:84] Creating Layer upscore2-new-R
I0715 17:11:51.872517 13835 net.cpp:406] upscore2-new-R <- score_fr-new-R
I0715 17:11:51.872527 13835 net.cpp:380] upscore2-new-R -> upscore2-new-R
I0715 17:11:51.873019 13835 net.cpp:122] Setting up upscore2-new-R
I0715 17:11:51.873031 13835 net.cpp:129] Top shape: 1 3 36 36 (3888)
I0715 17:11:51.873035 13835 net.cpp:137] Memory required for data: 2479649388
I0715 17:11:51.873042 13835 layer_factory.hpp:77] Creating layer upscore2-new-R_upscore2-new-R_0_split
I0715 17:11:51.873052 13835 net.cpp:84] Creating Layer upscore2-new-R_upscore2-new-R_0_split
I0715 17:11:51.873057 13835 net.cpp:406] upscore2-new-R_upscore2-new-R_0_split <- upscore2-new-R
I0715 17:11:51.873064 13835 net.cpp:380] upscore2-new-R_upscore2-new-R_0_split -> upscore2-new-R_upscore2-new-R_0_split_0
I0715 17:11:51.873083 13835 net.cpp:380] upscore2-new-R_upscore2-new-R_0_split -> upscore2-new-R_upscore2-new-R_0_split_1
I0715 17:11:51.873175 13835 net.cpp:122] Setting up upscore2-new-R_upscore2-new-R_0_split
I0715 17:11:51.873186 13835 net.cpp:129] Top shape: 1 3 36 36 (3888)
I0715 17:11:51.873193 13835 net.cpp:129] Top shape: 1 3 36 36 (3888)
I0715 17:11:51.873196 13835 net.cpp:137] Memory required for data: 2479680492
I0715 17:11:51.873201 13835 layer_factory.hpp:77] Creating layer score_pool4-new-R
I0715 17:11:51.873212 13835 net.cpp:84] Creating Layer score_pool4-new-R
I0715 17:11:51.873222 13835 net.cpp:406] score_pool4-new-R <- pool4-R_pool4-R_0_split_1
I0715 17:11:51.873231 13835 net.cpp:380] score_pool4-new-R -> score_pool4-new-R
I0715 17:11:51.875833 13835 net.cpp:122] Setting up score_pool4-new-R
I0715 17:11:51.875850 13835 net.cpp:129] Top shape: 1 3 45 45 (6075)
I0715 17:11:51.875862 13835 net.cpp:137] Memory required for data: 2479704792
I0715 17:11:51.875871 13835 layer_factory.hpp:77] Creating layer score_pool4c-R
I0715 17:11:51.875882 13835 net.cpp:84] Creating Layer score_pool4c-R
I0715 17:11:51.875888 13835 net.cpp:406] score_pool4c-R <- score_pool4-new-R
I0715 17:11:51.875895 13835 net.cpp:406] score_pool4c-R <- upscore2-new-R_upscore2-new-R_0_split_0
I0715 17:11:51.875905 13835 net.cpp:380] score_pool4c-R -> score_pool4c-R
I0715 17:11:51.875964 13835 net.cpp:122] Setting up score_pool4c-R
I0715 17:11:51.875975 13835 net.cpp:129] Top shape: 1 3 36 36 (3888)
I0715 17:11:51.875980 13835 net.cpp:137] Memory required for data: 2479720344
I0715 17:11:51.875984 13835 layer_factory.hpp:77] Creating layer fuse_pool4-R
I0715 17:11:51.875995 13835 net.cpp:84] Creating Layer fuse_pool4-R
I0715 17:11:51.876003 13835 net.cpp:406] fuse_pool4-R <- upscore2-new-R_upscore2-new-R_0_split_1
I0715 17:11:51.876009 13835 net.cpp:406] fuse_pool4-R <- score_pool4c-R
I0715 17:11:51.876019 13835 net.cpp:380] fuse_pool4-R -> fuse_pool4-R
I0715 17:11:51.876070 13835 net.cpp:122] Setting up fuse_pool4-R
I0715 17:11:51.876080 13835 net.cpp:129] Top shape: 1 3 36 36 (3888)
I0715 17:11:51.876085 13835 net.cpp:137] Memory required for data: 2479735896
I0715 17:11:51.876090 13835 layer_factory.hpp:77] Creating layer upscore_pool4-new-R
I0715 17:11:51.876099 13835 net.cpp:84] Creating Layer upscore_pool4-new-R
I0715 17:11:51.876104 13835 net.cpp:406] upscore_pool4-new-R <- fuse_pool4-R
I0715 17:11:51.876113 13835 net.cpp:380] upscore_pool4-new-R -> upscore_pool4-new-R
I0715 17:11:51.876592 13835 net.cpp:122] Setting up upscore_pool4-new-R
I0715 17:11:51.876603 13835 net.cpp:129] Top shape: 1 3 74 74 (16428)
I0715 17:11:51.876607 13835 net.cpp:137] Memory required for data: 2479801608
I0715 17:11:51.876622 13835 layer_factory.hpp:77] Creating layer upscore_pool4-new-R_upscore_pool4-new-R_0_split
I0715 17:11:51.876631 13835 net.cpp:84] Creating Layer upscore_pool4-new-R_upscore_pool4-new-R_0_split
I0715 17:11:51.876636 13835 net.cpp:406] upscore_pool4-new-R_upscore_pool4-new-R_0_split <- upscore_pool4-new-R
I0715 17:11:51.876644 13835 net.cpp:380] upscore_pool4-new-R_upscore_pool4-new-R_0_split -> upscore_pool4-new-R_upscore_pool4-new-R_0_split_0
I0715 17:11:51.876653 13835 net.cpp:380] upscore_pool4-new-R_upscore_pool4-new-R_0_split -> upscore_pool4-new-R_upscore_pool4-new-R_0_split_1
I0715 17:11:51.876734 13835 net.cpp:122] Setting up upscore_pool4-new-R_upscore_pool4-new-R_0_split
I0715 17:11:51.876744 13835 net.cpp:129] Top shape: 1 3 74 74 (16428)
I0715 17:11:51.876749 13835 net.cpp:129] Top shape: 1 3 74 74 (16428)
I0715 17:11:51.876754 13835 net.cpp:137] Memory required for data: 2479933032
I0715 17:11:51.876760 13835 layer_factory.hpp:77] Creating layer score_pool3-new-R
I0715 17:11:51.876770 13835 net.cpp:84] Creating Layer score_pool3-new-R
I0715 17:11:51.876780 13835 net.cpp:406] score_pool3-new-R <- pool3-R_pool3-R_0_split_1
I0715 17:11:51.876791 13835 net.cpp:380] score_pool3-new-R -> score_pool3-new-R
I0715 17:11:51.879462 13835 net.cpp:122] Setting up score_pool3-new-R
I0715 17:11:51.879480 13835 net.cpp:129] Top shape: 1 3 89 89 (23763)
I0715 17:11:51.879485 13835 net.cpp:137] Memory required for data: 2480028084
I0715 17:11:51.879495 13835 layer_factory.hpp:77] Creating layer score_pool3c-R
I0715 17:11:51.879505 13835 net.cpp:84] Creating Layer score_pool3c-R
I0715 17:11:51.879510 13835 net.cpp:406] score_pool3c-R <- score_pool3-new-R
I0715 17:11:51.879518 13835 net.cpp:406] score_pool3c-R <- upscore_pool4-new-R_upscore_pool4-new-R_0_split_0
I0715 17:11:51.879528 13835 net.cpp:380] score_pool3c-R -> score_pool3c-R
I0715 17:11:51.879604 13835 net.cpp:122] Setting up score_pool3c-R
I0715 17:11:51.879614 13835 net.cpp:129] Top shape: 1 3 74 74 (16428)
I0715 17:11:51.879618 13835 net.cpp:137] Memory required for data: 2480093796
I0715 17:11:51.879622 13835 layer_factory.hpp:77] Creating layer fuse_pool3-R
I0715 17:11:51.879631 13835 net.cpp:84] Creating Layer fuse_pool3-R
I0715 17:11:51.879637 13835 net.cpp:406] fuse_pool3-R <- upscore_pool4-new-R_upscore_pool4-new-R_0_split_1
I0715 17:11:51.879642 13835 net.cpp:406] fuse_pool3-R <- score_pool3c-R
I0715 17:11:51.879649 13835 net.cpp:380] fuse_pool3-R -> fuse_pool3-R
I0715 17:11:51.879709 13835 net.cpp:122] Setting up fuse_pool3-R
I0715 17:11:51.879717 13835 net.cpp:129] Top shape: 1 3 74 74 (16428)
I0715 17:11:51.879721 13835 net.cpp:137] Memory required for data: 2480159508
I0715 17:11:51.879725 13835 layer_factory.hpp:77] Creating layer upscore8-new-R
I0715 17:11:51.879735 13835 net.cpp:84] Creating Layer upscore8-new-R
I0715 17:11:51.879739 13835 net.cpp:406] upscore8-new-R <- fuse_pool3-R
I0715 17:11:51.879748 13835 net.cpp:380] upscore8-new-R -> upscore8-new-R
I0715 17:11:51.880205 13835 net.cpp:122] Setting up upscore8-new-R
I0715 17:11:51.880215 13835 net.cpp:129] Top shape: 1 3 600 600 (1080000)
I0715 17:11:51.880219 13835 net.cpp:137] Memory required for data: 2484479508
I0715 17:11:51.880235 13835 layer_factory.hpp:77] Creating layer upscore8_cropped-R
I0715 17:11:51.880242 13835 net.cpp:84] Creating Layer upscore8_cropped-R
I0715 17:11:51.880247 13835 net.cpp:406] upscore8_cropped-R <- upscore8-new-R
I0715 17:11:51.880255 13835 net.cpp:406] upscore8_cropped-R <- data-R_crop_0_split_1
I0715 17:11:51.880261 13835 net.cpp:380] upscore8_cropped-R -> upscore8_cropped-R
I0715 17:11:51.880316 13835 net.cpp:122] Setting up upscore8_cropped-R
I0715 17:11:51.880324 13835 net.cpp:129] Top shape: 1 3 512 512 (786432)
I0715 17:11:51.880328 13835 net.cpp:137] Memory required for data: 2487625236
I0715 17:11:51.880332 13835 layer_factory.hpp:77] Creating layer upscore8_uncropped-R
I0715 17:11:51.880406 13835 net.cpp:84] Creating Layer upscore8_uncropped-R
I0715 17:11:51.880416 13835 net.cpp:406] upscore8_uncropped-R <- crop_info
I0715 17:11:51.880422 13835 net.cpp:406] upscore8_uncropped-R <- upscore8_cropped-R
I0715 17:11:51.880427 13835 net.cpp:406] upscore8_uncropped-R <- data_data_0_split_3
I0715 17:11:51.880434 13835 net.cpp:380] upscore8_uncropped-R -> upscore8_uncropped-R
I0715 17:11:51.887437 13835 net.cpp:122] Setting up upscore8_uncropped-R
I0715 17:11:51.887459 13835 net.cpp:129] Top shape: 1 3 512 512 (786432)
I0715 17:11:51.887464 13835 net.cpp:137] Memory required for data: 2490770964
I0715 17:11:51.887468 13835 layer_factory.hpp:77] Creating layer loss1
I0715 17:11:51.887480 13835 net.cpp:84] Creating Layer loss1
I0715 17:11:51.887485 13835 net.cpp:406] loss1 <- upscore8_cropped_upscore8_cropped_0_split_1
I0715 17:11:51.887492 13835 net.cpp:406] loss1 <- label_data_1_split_1
I0715 17:11:51.887501 13835 net.cpp:380] loss1 -> loss1
…
