…
snapshot_prefix: "/media/Med_2T2/data2/models/snapshots/indiv:1e-5x10,20/FD3:XI3_1_20180715_091948/train"
test_initialization: false
average_loss: 20
stepvalue: 40000
iter_size: 1
I0715 09:19:49.760396 12976 solver.cpp:77] Creating training net from train_net file: /media/Med_2T2/data2/prototxts/training_S3x10.prototxt
I0715 09:19:49.762470 12976 net.cpp:51] Initializing net from parameters: 
state {
  phase: TRAIN
}
layer {
  name: "data"
  type: "Python"
  top: "data"
  top: "label"
  top: "crop_margin"
  top: "crop_prob"
  top: "crop_sample_batch"
  python_param {
    module: "Data"
    layer: "DataLayer"
  }
}
layer {
  name: "conv1_1"
  type: "Convolution"
  bottom: "data"
  top: "conv1_1"
  param {
    lr_mult: 1
    decay_mult: 1
  }
  param {
    lr_mult: 2
    decay_mult: 0
  }
  convolution_param {
    num_output: 64
    pad: 100
    kernel_size: 3
    stride: 1
  }
}
layer {
  name: "relu1_1"
  type: "ReLU"
  bottom: "conv1_1"
  top: "conv1_1"
}
layer {
  name: "conv1_2"
  type: "Convolution"
  bottom: "conv1_1"
  top: "conv1_2"
  param {
    lr_mult: 1
    decay_mult: 1
  }
  param {
    lr_mult: 2
    decay_mult: 0
  }
  convolution_param {
    num_output: 64
    pad: 1
    kernel_size: 3
    stride: 1
  }
}
layer {
  name: "relu1_2"
  type: "ReLU"
  bottom: "conv1_2"
  top: "conv1_2"
}
layer {
  name: "pool1"
  type: "Pooling"
  bottom: "conv1_2"
  top: "pool1"
  pooling_param {
    pool: MAX
    kernel_size: 2
    stride: 2
  }
}
layer {
  name: "conv2_1"
  type: "Convolution"
  bottom: "pool1"
  top: "conv2_1"
  param {
    lr_mult: 1
    decay_mult: 1
  }
  param {
    lr_mult: 2
    decay_mult: 0
  }
  convolution_param {
    num_output: 128
    pad: 1
    kernel_size: 3
    stride: 1
  }
}
layer {
  name: "relu2_1"
  type: "ReLU"
  bottom: "conv2_1"
  top: "conv2_1"
}
layer {
  name: "conv2_2"
  type: "Convolution"
  bottom: "conv2_1"
  top: "conv2_2"
  param {
    lr_mult: 1
    decay_mult: 1
  }
  param {
    lr_mult: 2
    decay_mult: 0
  }
  convolution_param {
    num_output: 128
    pad: 1
    kernel_size: 3
    stride: 1
  }
}
layer {
  name: "relu2_2"
  type: "ReLU"
  bottom: "conv2_2"
  top: "conv2_2"
}
layer {
  name: "pool2"
  type: "Pooling"
  bottom: "conv2_2"
  top: "pool2"
  pooling_param {
    pool: MAX
    kernel_size: 2
    stride: 2
  }
}
layer {
  name: "conv3_1"
  type: "Convolution"
  bottom: "pool2"
  top: "conv3_1"
  param {
    lr_mult: 1
    decay_mult: 1
  }
  param {
    lr_mult: 2
    decay_mult: 0
  }
  convolution_param {
    num_output: 256
    pad: 1
    kernel_size: 3
    stride: 1
  }
}
layer {
  name: "relu3_1"
  type: "ReLU"
  bottom: "conv3_1"
  top: "conv3_1"
}
layer {
  name: "conv3_2"
  type: "Convolution"
  bottom: "conv3_1"
  top: "conv3_2"
  param {
    lr_mult: 1
    decay_mult: 1
  }
  param {
    lr_mult: 2
    decay_mult: 0
  }
  convolution_param {
    num_output: 256
    pad: 1
    kernel_size: 3
    stride: 1
  }
}
layer {
  name: "relu3_2"
  type: "ReLU"
  bottom: "conv3_2"
  top: "conv3_2"
}
layer {
  name: "conv3_3"
  type: "Convolution"
  bottom: "conv3_2"
  top: "conv3_3"
  param {
    lr_mult: 1
    decay_mult: 1
  }
  param {
    lr_mult: 2
    decay_mult: 0
  }
  convolution_param {
    num_output: 256
    pad: 1
    kernel_size: 3
    stride: 1
  }
}
layer {
  name: "relu3_3"
  type: "ReLU"
  bottom: "conv3_3"
  top: "conv3_3"
}
layer {
  name: "pool3"
  type: "Pooling"
  bottom: "conv3_3"
  top: "pool3"
  pooling_param {
    pool: MAX
    kernel_size: 2
    stride: 2
  }
}
layer {
  name: "conv4_1"
  type: "Convolution"
  bottom: "pool3"
  top: "conv4_1"
  param {
    lr_mult: 1
    decay_mult: 1
  }
  param {
    lr_mult: 2
    decay_mult: 0
  }
  convolution_param {
    num_output: 512
    pad: 1
    kernel_size: 3
    stride: 1
  }
}
layer {
  name: "relu4_1"
  type: "ReLU"
  bottom: "conv4_1"
  top: "conv4_1"
}
layer {
  name: "conv4_2"
  type: "Convolution"
  bottom: "conv4_1"
  top: "conv4_2"
  param {
    lr_mult: 1
    decay_mult: 1
  }
  param {
    lr_mult: 2
    decay_mult: 0
  }
  convolution_param {
    num_output: 512
    pad: 1
    kernel_size: 3
    stride: 1
  }
}
layer {
  name: "relu4_2"
  type: "ReLU"
  bottom: "conv4_2"
  top: "conv4_2"
}
layer {
  name: "conv4_3"
  type: "Convolution"
  bottom: "conv4_2"
  top: "conv4_3"
  param {
    lr_mult: 1
    decay_mult: 1
  }
  param {
    lr_mult: 2
    decay_mult: 0
  }
  convolution_param {
    num_output: 512
    pad: 1
    kernel_size: 3
    stride: 1
  }
}
layer {
  name: "relu4_3"
  type: "ReLU"
  bottom: "conv4_3"
  top: "conv4_3"
}
layer {
  name: "pool4"
  type: "Pooling"
  bottom: "conv4_3"
  top: "pool4"
  pooling_param {
    pool: MAX
    kernel_size: 2
    stride: 2
  }
}
layer {
  name: "conv5_1"
  type: "Convolution"
  bottom: "pool4"
  top: "conv5_1"
  param {
    lr_mult: 1
    decay_mult: 1
  }
  param {
    lr_mult: 2
    decay_mult: 0
  }
  convolution_param {
    num_output: 512
    pad: 1
    kernel_size: 3
    stride: 1
  }
}
layer {
  name: "relu5_1"
  type: "ReLU"
  bottom: "conv5_1"
  top: "conv5_1"
}
layer {
  name: "conv5_2"
  type: "Convolution"
  bottom: "conv5_1"
  top: "conv5_2"
  param {
    lr_mult: 1
    decay_mult: 1
  }
  param {
    lr_mult: 2
    decay_mult: 0
  }
  convolution_param {
    num_output: 512
    pad: 1
    kernel_size: 3
    stride: 1
  }
}
layer {
  name: "relu5_2"
  type: "ReLU"
  bottom: "conv5_2"
  top: "conv5_2"
}
layer {
  name: "conv5_3"
  type: "Convolution"
  bottom: "conv5_2"
  top: "conv5_3"
  param {
    lr_mult: 1
    decay_mult: 1
  }
  param {
    lr_mult: 2
    decay_mult: 0
  }
  convolution_param {
    num_output: 512
    pad: 1
    kernel_size: 3
    stride: 1
  }
}
layer {
  name: "relu5_3"
  type: "ReLU"
  bottom: "conv5_3"
  top: "conv5_3"
}
layer {
  name: "pool5"
  type: "Pooling"
  bottom: "conv5_3"
  top: "pool5"
  pooling_param {
    pool: MAX
    kernel_size: 2
    stride: 2
  }
}
layer {
  name: "fc6"
  type: "Convolution"
  bottom: "pool5"
  top: "fc6"
  param {
    lr_mult: 1
    decay_mult: 1
  }
  param {
    lr_mult: 2
    decay_mult: 0
  }
  convolution_param {
    num_output: 4096
    pad: 0
    kernel_size: 7
    stride: 1
  }
}
layer {
  name: "relu6"
  type: "ReLU"
  bottom: "fc6"
  top: "fc6"
}
layer {
  name: "drop6"
  type: "Dropout"
  bottom: "fc6"
  top: "fc6"
  dropout_param {
    dropout_ratio: 0.5
  }
}
layer {
  name: "fc7"
  type: "Convolution"
  bottom: "fc6"
  top: "fc7"
  param {
    lr_mult: 1
    decay_mult: 1
  }
  param {
    lr_mult: 2
    decay_mult: 0
  }
  convolution_param {
    num_output: 4096
    pad: 0
    kernel_size: 1
    stride: 1
  }
}
layer {
  name: "relu7"
  type: "ReLU"
  bottom: "fc7"
  top: "fc7"
}
layer {
  name: "drop7"
  type: "Dropout"
  bottom: "fc7"
  top: "fc7"
  dropout_param {
    dropout_ratio: 0.5
  }
}
layer {
  name: "score_fr-new"
  type: "Convolution"
  bottom: "fc7"
  top: "score_fr-new"
  param {
    lr_mult: 1
    decay_mult: 1
  }
  param {
    lr_mult: 2
    decay_mult: 0
  }
  convolution_param {
    num_output: 3
    kernel_size: 1
  }
}
layer {
  name: "upscore2-new"
  type: "Deconvolution"
  bottom: "score_fr-new"
  top: "upscore2-new"
  param {
    lr_mult: 0
  }
  convolution_param {
    num_output: 3
    bias_term: false
    kernel_size: 4
    stride: 2
  }
}
layer {
  name: "score_pool4-new"
  type: "Convolution"
  bottom: "pool4"
  top: "score_pool4-new"
  param {
    lr_mult: 1
    decay_mult: 1
  }
  param {
    lr_mult: 2
    decay_mult: 0
  }
  convolution_param {
    num_output: 3
    pad: 0
    kernel_size: 1
  }
}
layer {
  name: "score_pool4c"
  type: "Crop"
  bottom: "score_pool4-new"
  bottom: "upscore2-new"
  top: "score_pool4c"
  crop_param {
    axis: 2
    offset: 5
  }
}
layer {
  name: "fuse_pool4"
  type: "Eltwise"
  bottom: "upscore2-new"
  bottom: "score_pool4c"
  top: "fuse_pool4"
  eltwise_param {
    operation: SUM
  }
}
layer {
  name: "upscore_pool4-new"
  type: "Deconvolution"
  bottom: "fuse_pool4"
  top: "upscore_pool4-new"
  param {
    lr_mult: 0
  }
  convolution_param {
    num_output: 3
    bias_term: false
    kernel_size: 4
    stride: 2
  }
}
layer {
  name: "score_pool3-new"
  type: "Convolution"
  bottom: "pool3"
  top: "score_pool3-new"
  param {
    lr_mult: 1
    decay_mult: 1
  }
  param {
    lr_mult: 2
    decay_mult: 0
  }
  convolution_param {
    num_output: 3
    pad: 0
    kernel_size: 1
  }
}
layer {
  name: "score_pool3c"
  type: "Crop"
  bottom: "score_pool3-new"
  bottom: "upscore_pool4-new"
  top: "score_pool3c"
  crop_param {
    axis: 2
    offset: 9
  }
}
layer {
  name: "fuse_pool3"
  type: "Eltwise"
  bottom: "upscore_pool4-new"
  bottom: "score_pool3c"
  top: "fuse_pool3"
  eltwise_param {
    operation: SUM
  }
}
layer {
  name: "upscore8-new"
  type: "Deconvolution"
  bottom: "fuse_pool3"
  top: "upscore8-new"
  param {
    lr_mult: 0
  }
  convolution_param {
    num_output: 3
    bias_term: false
    kernel_size: 16
    stride: 8
  }
}
layer {
  name: "upscore8_cropped"
  type: "Crop"
  bottom: "upscore8-new"
  bottom: "data"
  top: "upscore8_cropped"
  crop_param {
    axis: 2
    offset: 31
  }
}
layer {
  name: "prob"
  type: "Sigmoid"
  bottom: "upscore8_cropped"
  top: "prob"
}
layer {
  name: "saliency1"
  type: "Convolution"
  bottom: "prob"
  top: "saliency1"
  param {
    lr_mult: 10
    decay_mult: 1
  }
  param {
    lr_mult: 20
    decay_mult: 0
  }
  convolution_param {
    num_output: 3
    pad: 1
    kernel_size: 3
    stride: 1
    weight_filler {
      type: "xavier"
    }
    bias_filler {
      type: "constant"
      value: 1
    }
  }
}
layer {
  name: "relu_saliency1"
  type: "ReLU"
  bottom: "saliency1"
  top: "saliency1"
}
layer {
  name: "saliency"
  type: "Convolution"
  bottom: "saliency1"
  top: "saliency"
  param {
    lr_mult: 10
    decay_mult: 1
  }
  param {
    lr_mult: 20
    decay_mult: 0
  }
  convolution_param {
    num_output: 3
    pad: 2
    kernel_size: 5
    stride: 1
    weight_filler {
      type: "xavier"
    }
    bias_filler {
      type: "constant"
      value: 1
    }
  }
}
layer {
  name: "silence_saliency"
  type: "Silence"
  bottom: "saliency"
}
layer {
  name: "crop"
  type: "Python"
  bottom: "label"
  bottom: "data"
  bottom: "crop_margin"
  bottom: "crop_prob"
  bottom: "crop_sample_batch"
  top: "data-R"
  top: "crop_info"
  python_param {
    module: "Crop"
    layer: "CropLayer"
    param_str: "{\"TEST\": 0}"
  }
}
layer {
  name: "conv1_1-R"
  type: "Convolution"
  bottom: "data-R"
  top: "conv1_1-R"
  param {
    lr_mult: 10
    decay_mult: 1
  }
  param {
    lr_mult: 20
    decay_mult: 0
  }
  convolution_param {
    num_output: 64
    pad: 100
    kernel_size: 3
    stride: 1
  }
}
layer {
  name: "relu1_1-R"
  type: "ReLU"
  bottom: "conv1_1-R"
  top: "conv1_1-R"
}
layer {
  name: "conv1_2-R"
  type: "Convolution"
  bottom: "conv1_1-R"
  top: "conv1_2-R"
  param {
    lr_mult: 10
    decay_mult: 1
  }
  param {
    lr_mult: 20
    decay_mult: 0
  }
  convolution_param {
    num_output: 64
    pad: 1
    kernel_size: 3
    stride: 1
  }
}
layer {
  name: "relu1_2-R"
  type: "ReLU"
  bottom: "conv1_2-R"
  top: "conv1_2-R"
}
layer {
  name: "pool1-R"
  type: "Pooling"
  bottom: "conv1_2-R"
  top: "pool1-R"
  pooling_param {
    pool: MAX
    kernel_size: 2
    stride: 2
  }
}
layer {
  name: "conv2_1-R"
  type: "Convolution"
  bottom: "pool1-R"
  top: "conv2_1-R"
  param {
    lr_mult: 10
    decay_mult: 1
  }
  param {
    lr_mult: 20
    decay_mult: 0
  }
  convolution_param {
    num_output: 128
    pad: 1
    kernel_size: 3
    stride: 1
  }
}
layer {
  name: "relu2_1-R"
  type: "ReLU"
  bottom: "conv2_1-R"
  top: "conv2_1-R"
}
layer {
  name: "conv2_2-R"
  type: "Convolution"
  bottom: "conv2_1-R"
  top: "conv2_2-R"
  param {
    lr_mult: 10
    decay_mult: 1
  }
  param {
    lr_mult: 20
    decay_mult: 0
  }
  convolution_param {
    num_output: 128
    pad: 1
    kernel_size: 3
    stride: 1
  }
}
layer {
  name: "relu2_2-R"
  type: "ReLU"
  bottom: "conv2_2-R"
  top: "conv2_2-R"
}
layer {
  name: "pool2-R"
  type: "Pooling"
  bottom: "conv2_2-R"
  top: "pool2-R"
  pooling_param {
    pool: MAX
    kernel_size: 2
    stride: 2
  }
}
layer {
  name: "conv3_1-R"
  type: "Convolution"
  bottom: "pool2-R"
  top: "conv3_1-R"
  param {
    lr_mult: 10
    decay_mult: 1
  }
  param {
    lr_mult: 20
    decay_mult: 0
  }
  convolution_param {
    num_output: 256
    pad: 1
    kernel_size: 3
    stride: 1
  }
}
layer {
  name: "relu3_1-R"
  type: "ReLU"
  bottom: "conv3_1-R"
  top: "conv3_1-R"
}
layer {
  name: "conv3_2-R"
  type: "Convolution"
  bottom: "conv3_1-R"
  top: "conv3_2-R"
  param {
    lr_mult: 10
    decay_mult: 1
  }
  param {
    lr_mult: 20
    decay_mult: 0
  }
  convolution_param {
    num_output: 256
    pad: 1
    kernel_size: 3
    stride: 1
  }
}
layer {
  name: "relu3_2-R"
  type: "ReLU"
  bottom: "conv3_2-R"
  top: "conv3_2-R"
}
layer {
  name: "conv3_3-R"
  type: "Convolution"
  bottom: "conv3_2-R"
  top: "conv3_3-R"
  param {
    lr_mult: 10
    decay_mult: 1
  }
  param {
    lr_mult: 20
    decay_mult: 0
  }
  convolution_param {
    num_output: 256
    pad: 1
    kernel_size: 3
    stride: 1
  }
}
layer {
  name: "relu3_3-R"
  type: "ReLU"
  bottom: "conv3_3-R"
  top: "conv3_3-R"
}
layer {
  name: "pool3-R"
  type: "Pooling"
  bottom: "conv3_3-R"
  top: "pool3-R"
  pooling_param {
    pool: MAX
    kernel_size: 2
    stride: 2
  }
}
layer {
  name: "conv4_1-R"
  type: "Convolution"
  bottom: "pool3-R"
  top: "conv4_1-R"
  param {
    lr_mult: 10
    decay_mult: 1
  }
  param {
    lr_mult: 20
    decay_mult: 0
  }
  convolution_param {
    num_output: 512
    pad: 1
    kernel_size: 3
    stride: 1
  }
}
layer {
  name: "relu4_1-R"
  type: "ReLU"
  bottom: "conv4_1-R"
  top: "conv4_1-R"
}
layer {
  name: "conv4_2-R"
  type: "Convolution"
  bottom: "conv4_1-R"
  top: "conv4_2-R"
  param {
    lr_mult: 10
    decay_mult: 1
  }
  param {
    lr_mult: 20
    decay_mult: 0
  }
  convolution_param {
    num_output: 512
    pad: 1
    kernel_size: 3
    stride: 1
  }
}
layer {
  name: "relu4_2-R"
  type: "ReLU"
  bottom: "conv4_2-R"
  top: "conv4_2-R"
}
layer {
  name: "conv4_3-R"
  type: "Convolution"
  bottom: "conv4_2-R"
  top: "conv4_3-R"
  param {
    lr_mult: 10
    decay_mult: 1
  }
  param {
    lr_mult: 20
    decay_mult: 0
  }
  convolution_param {
    num_output: 512
    pad: 1
    kernel_size: 3
    stride: 1
  }
}
layer {
  name: "relu4_3-R"
  type: "ReLU"
  bottom: "conv4_3-R"
  top: "conv4_3-R"
}
layer {
  name: "pool4-R"
  type: "Pooling"
  bottom: "conv4_3-R"
  top: "pool4-R"
  pooling_param {
    pool: MAX
    kernel_size: 2
    stride: 2
  }
}
layer {
  name: "conv5_1-R"
  type: "Convolution"
  bottom: "pool4-R"
  top: "conv5_1-R"
  param {
    lr_mult: 10
    decay_mult: 1
  }
  param {
    lr_mult: 20
    decay_mult: 0
  }
  convolution_param {
    num_output: 512
    pad: 1
    kernel_size: 3
    stride: 1
  }
}
layer {
  name: "relu5_1-R"
  type: "ReLU"
  bottom: "conv5_1-R"
  top: "conv5_1-R"
}
layer {
  name: "conv5_2-R"
  type: "Convolution"
  bottom: "conv5_1-R"
  top: "conv5_2-R"
  param {
    lr_mult: 10
    decay_mult: 1
  }
  param {
    lr_mult: 20
    decay_mult: 0
  }
  convolution_param {
    num_output: 512
    pad: 1
    kernel_size: 3
    stride: 1
  }
}
layer {
  name: "relu5_2-R"
  type: "ReLU"
  bottom: "conv5_2-R"
  top: "conv5_2-R"
}
layer {
  name: "conv5_3-R"
  type: "Convolution"
  bottom: "conv5_2-R"
  top: "conv5_3-R"
  param {
    lr_mult: 10
    decay_mult: 1
  }
  param {
    lr_mult: 20
    decay_mult: 0
  }
  convolution_param {
    num_output: 512
    pad: 1
    kernel_size: 3
    stride: 1
  }
}
layer {
  name: "relu5_3-R"
  type: "ReLU"
  bottom: "conv5_3-R"
  top: "conv5_3-R"
}
layer {
  name: "pool5-R"
  type: "Pooling"
  bottom: "conv5_3-R"
  top: "pool5-R"
  pooling_param {
    pool: MAX
    kernel_size: 2
    stride: 2
  }
}
layer {
  name: "fc6-R"
  type: "Convolution"
  bottom: "pool5-R"
  top: "fc6-R"
  param {
    lr_mult: 10
    decay_mult: 1
  }
  param {
    lr_mult: 20
    decay_mult: 0
  }
  convolution_param {
    num_output: 4096
    pad: 0
    kernel_size: 7
    stride: 1
  }
}
layer {
  name: "relu6-R"
  type: "ReLU"
  bottom: "fc6-R"
  top: "fc6-R"
}
layer {
  name: "drop6-R"
  type: "Dropout"
  bottom: "fc6-R"
  top: "fc6-R"
  dropout_param {
    dropout_ratio: 0.5
  }
}
layer {
  name: "fc7-R"
  type: "Convolution"
  bottom: "fc6-R"
  top: "fc7-R"
  param {
    lr_mult: 10
    decay_mult: 1
  }
  param {
    lr_mult: 20
    decay_mult: 0
  }
  convolution_param {
    num_output: 4096
    pad: 0
    kernel_size: 1
    stride: 1
  }
}
layer {
  name: "relu7-R"
  type: "ReLU"
  bottom: "fc7-R"
  top: "fc7-R"
}
layer {
  name: "drop7-R"
  type: "Dropout"
  bottom: "fc7-R"
  top: "fc7-R"
  dropout_param {
    dropout_ratio: 0.5
  }
}
layer {
  name: "score_fr-new-R"
  type: "Convolution"
  bottom: "fc7-R"
  top: "score_fr-new-R"
  param {
    lr_mult: 10
    decay_mult: 1
  }
  param {
    lr_mult: 20
    decay_mult: 0
  }
  convolution_param {
    num_output: 3
    kernel_size: 1
  }
}
layer {
  name: "upscore2-new-R"
  type: "Deconvolution"
  bottom: "score_fr-new-R"
  top: "upscore2-new-R"
  param {
    lr_mult: 0
  }
  convolution_param {
    num_output: 3
    bias_term: false
    kernel_size: 4
    stride: 2
  }
}
layer {
  name: "score_pool4-new-R"
  type: "Convolution"
  bottom: "pool4-R"
  top: "score_pool4-new-R"
  param {
    lr_mult: 10
    decay_mult: 1
  }
  param {
    lr_mult: 20
    decay_mult: 0
  }
  convolution_param {
    num_output: 3
    pad: 0
    kernel_size: 1
  }
}
layer {
  name: "score_pool4c-R"
  type: "Crop"
  bottom: "score_pool4-new-R"
  bottom: "upscore2-new-R"
  top: "score_pool4c-R"
  crop_param {
    axis: 2
    offset: 5
  }
}
layer {
  name: "fuse_pool4-R"
  type: "Eltwise"
  bottom: "upscore2-new-R"
  bottom: "score_pool4c-R"
  top: "fuse_pool4-R"
  eltwise_param {
    operation: SUM
  }
}
layer {
  name: "upscore_pool4-new-R"
  type: "Deconvolution"
  bottom: "fuse_pool4-R"
  top: "upscore_pool4-new-R"
  param {
    lr_mult: 0
  }
  convolution_param {
    num_output: 3
    bias_term: false
    kernel_size: 4
    stride: 2
  }
}
layer {
  name: "score_pool3-new-R"
  type: "Convolution"
  bottom: "pool3-R"
  top: "score_pool3-new-R"
  param {
    lr_mult: 10
    decay_mult: 1
  }
  param {
    lr_mult: 20
    decay_mult: 0
  }
  convolution_param {
    num_output: 3
    pad: 0
    kernel_size: 1
  }
}
layer {
  name: "score_pool3c-R"
  type: "Crop"
  bottom: "score_pool3-new-R"
  bottom: "upscore_pool4-new-R"
  top: "score_pool3c-R"
  crop_param {
    axis: 2
    offset: 9
  }
}
layer {
  name: "fuse_pool3-R"
  type: "Eltwise"
  bottom: "upscore_pool4-new-R"
  bottom: "score_pool3c-R"
  top: "fuse_pool3-R"
  eltwise_param {
    operation: SUM
  }
}
layer {
  name: "upscore8-new-R"
  type: "Deconvolution"
  bottom: "fuse_pool3-R"
  top: "upscore8-new-R"
  param {
    lr_mult: 0
  }
  convolution_param {
    num_output: 3
    bias_term: false
    kernel_size: 16
    stride: 8
  }
}
layer {
  name: "upscore8_cropped-R"
  type: "Crop"
  bottom: "upscore8-new-R"
  bottom: "data-R"
  top: "upscore8_cropped-R"
  crop_param {
    axis: 2
    offset: 31
  }
}
layer {
  name: "upscore8_uncropped-R"
  type: "Python"
  bottom: "crop_info"
  bottom: "upscore8_cropped-R"
  bottom: "data"
  top: "upscore8_uncropped-R"
  python_param {
    module: "Uncrop"
    layer: "UncropLayer"
  }
}
layer {
  name: "loss1"
  type: "DiceLoss"
  bottom: "upscore8_cropped"
  bottom: "label"
  top: "loss1"
  loss_weight: 0.333333
}
layer {
  name: "loss2"
  type: "DiceLoss"
  bottom: "upscore8_uncropped-R"
  bottom: "label"
  top: "loss2"
  loss_weight: 0.666667
}
I0715 09:19:49.762941 12976 layer_factory.hpp:77] Creating layer data
I0715 09:19:49.763340 12976 net.cpp:84] Creating Layer data
I0715 09:19:49.763355 12976 net.cpp:380] data -> data
I0715 09:19:49.763371 12976 net.cpp:380] data -> label
I0715 09:19:49.763378 12976 net.cpp:380] data -> crop_margin
I0715 09:19:49.763386 12976 net.cpp:380] data -> crop_prob
I0715 09:19:49.763391 12976 net.cpp:380] data -> crop_sample_batch
I0715 09:19:49.899256 12976 net.cpp:122] Setting up data
I0715 09:19:49.899353 12976 net.cpp:129] Top shape: 1 3 512 198 (304128)
I0715 09:19:49.899358 12976 net.cpp:129] Top shape: 1 3 512 198 (304128)
I0715 09:19:49.899363 12976 net.cpp:129] Top shape: 1 (1)
I0715 09:19:49.899366 12976 net.cpp:129] Top shape: 1 (1)
I0715 09:19:49.899369 12976 net.cpp:129] Top shape: 1 (1)
I0715 09:19:49.899372 12976 net.cpp:137] Memory required for data: 2433036
I0715 09:19:49.899381 12976 layer_factory.hpp:77] Creating layer data_data_0_split
I0715 09:19:49.899417 12976 net.cpp:84] Creating Layer data_data_0_split
I0715 09:19:49.899422 12976 net.cpp:406] data_data_0_split <- data
I0715 09:19:49.899435 12976 net.cpp:380] data_data_0_split -> data_data_0_split_0
I0715 09:19:49.899446 12976 net.cpp:380] data_data_0_split -> data_data_0_split_1
I0715 09:19:49.899462 12976 net.cpp:380] data_data_0_split -> data_data_0_split_2
I0715 09:19:49.899467 12976 net.cpp:380] data_data_0_split -> data_data_0_split_3
I0715 09:19:49.899514 12976 net.cpp:122] Setting up data_data_0_split
I0715 09:19:49.899523 12976 net.cpp:129] Top shape: 1 3 512 198 (304128)
I0715 09:19:49.899526 12976 net.cpp:129] Top shape: 1 3 512 198 (304128)
I0715 09:19:49.899529 12976 net.cpp:129] Top shape: 1 3 512 198 (304128)
I0715 09:19:49.899533 12976 net.cpp:129] Top shape: 1 3 512 198 (304128)
I0715 09:19:49.899536 12976 net.cpp:137] Memory required for data: 7299084
I0715 09:19:49.899539 12976 layer_factory.hpp:77] Creating layer label_data_1_split
I0715 09:19:49.899546 12976 net.cpp:84] Creating Layer label_data_1_split
I0715 09:19:49.899549 12976 net.cpp:406] label_data_1_split <- label
I0715 09:19:49.899554 12976 net.cpp:380] label_data_1_split -> label_data_1_split_0
I0715 09:19:49.899559 12976 net.cpp:380] label_data_1_split -> label_data_1_split_1
I0715 09:19:49.899564 12976 net.cpp:380] label_data_1_split -> label_data_1_split_2
I0715 09:19:49.899595 12976 net.cpp:122] Setting up label_data_1_split
I0715 09:19:49.899602 12976 net.cpp:129] Top shape: 1 3 512 198 (304128)
I0715 09:19:49.899605 12976 net.cpp:129] Top shape: 1 3 512 198 (304128)
I0715 09:19:49.899610 12976 net.cpp:129] Top shape: 1 3 512 198 (304128)
I0715 09:19:49.899612 12976 net.cpp:137] Memory required for data: 10948620
I0715 09:19:49.899616 12976 layer_factory.hpp:77] Creating layer conv1_1
I0715 09:19:49.899649 12976 net.cpp:84] Creating Layer conv1_1
I0715 09:19:49.899665 12976 net.cpp:406] conv1_1 <- data_data_0_split_0
I0715 09:19:49.899672 12976 net.cpp:380] conv1_1 -> conv1_1
I0715 09:19:50.255106 12976 net.cpp:122] Setting up conv1_1
I0715 09:19:50.255162 12976 net.cpp:129] Top shape: 1 64 710 396 (17994240)
I0715 09:19:50.255167 12976 net.cpp:137] Memory required for data: 82925580
I0715 09:19:50.255208 12976 layer_factory.hpp:77] Creating layer relu1_1
I0715 09:19:50.255260 12976 net.cpp:84] Creating Layer relu1_1
I0715 09:19:50.255267 12976 net.cpp:406] relu1_1 <- conv1_1
I0715 09:19:50.255282 12976 net.cpp:367] relu1_1 -> conv1_1 (in-place)
I0715 09:19:50.255602 12976 net.cpp:122] Setting up relu1_1
I0715 09:19:50.255614 12976 net.cpp:129] Top shape: 1 64 710 396 (17994240)
I0715 09:19:50.255619 12976 net.cpp:137] Memory required for data: 154902540
I0715 09:19:50.255622 12976 layer_factory.hpp:77] Creating layer conv1_2
I0715 09:19:50.255646 12976 net.cpp:84] Creating Layer conv1_2
I0715 09:19:50.255650 12976 net.cpp:406] conv1_2 <- conv1_1
I0715 09:19:50.255658 12976 net.cpp:380] conv1_2 -> conv1_2
I0715 09:19:50.260527 12976 net.cpp:122] Setting up conv1_2
I0715 09:19:50.260576 12976 net.cpp:129] Top shape: 1 64 710 396 (17994240)
I0715 09:19:50.260584 12976 net.cpp:137] Memory required for data: 226879500
I0715 09:19:50.260608 12976 layer_factory.hpp:77] Creating layer relu1_2
I0715 09:19:50.260625 12976 net.cpp:84] Creating Layer relu1_2
I0715 09:19:50.260645 12976 net.cpp:406] relu1_2 <- conv1_2
I0715 09:19:50.260674 12976 net.cpp:367] relu1_2 -> conv1_2 (in-place)
I0715 09:19:50.261031 12976 net.cpp:122] Setting up relu1_2
I0715 09:19:50.261051 12976 net.cpp:129] Top shape: 1 64 710 396 (17994240)
I0715 09:19:50.261066 12976 net.cpp:137] Memory required for data: 298856460
I0715 09:19:50.261085 12976 layer_factory.hpp:77] Creating layer pool1
I0715 09:19:50.261121 12976 net.cpp:84] Creating Layer pool1
I0715 09:19:50.261128 12976 net.cpp:406] pool1 <- conv1_2
I0715 09:19:50.261140 12976 net.cpp:380] pool1 -> pool1
I0715 09:19:50.261235 12976 net.cpp:122] Setting up pool1
I0715 09:19:50.261250 12976 net.cpp:129] Top shape: 1 64 355 198 (4498560)
I0715 09:19:50.261255 12976 net.cpp:137] Memory required for data: 316850700
I0715 09:19:50.261261 12976 layer_factory.hpp:77] Creating layer conv2_1
I0715 09:19:50.261282 12976 net.cpp:84] Creating Layer conv2_1
I0715 09:19:50.261289 12976 net.cpp:406] conv2_1 <- pool1
I0715 09:19:50.261301 12976 net.cpp:380] conv2_1 -> conv2_1
I0715 09:19:50.265661 12976 net.cpp:122] Setting up conv2_1
I0715 09:19:50.265712 12976 net.cpp:129] Top shape: 1 128 355 198 (8997120)
I0715 09:19:50.265719 12976 net.cpp:137] Memory required for data: 352839180
I0715 09:19:50.265744 12976 layer_factory.hpp:77] Creating layer relu2_1
I0715 09:19:50.265775 12976 net.cpp:84] Creating Layer relu2_1
I0715 09:19:50.265784 12976 net.cpp:406] relu2_1 <- conv2_1
I0715 09:19:50.265794 12976 net.cpp:367] relu2_1 -> conv2_1 (in-place)
I0715 09:19:50.266201 12976 net.cpp:122] Setting up relu2_1
I0715 09:19:50.266219 12976 net.cpp:129] Top shape: 1 128 355 198 (8997120)
I0715 09:19:50.266225 12976 net.cpp:137] Memory required for data: 388827660
I0715 09:19:50.266235 12976 layer_factory.hpp:77] Creating layer conv2_2
I0715 09:19:50.266309 12976 net.cpp:84] Creating Layer conv2_2
I0715 09:19:50.266317 12976 net.cpp:406] conv2_2 <- conv2_1
I0715 09:19:50.266330 12976 net.cpp:380] conv2_2 -> conv2_2
I0715 09:19:50.269829 12976 net.cpp:122] Setting up conv2_2
I0715 09:19:50.269875 12976 net.cpp:129] Top shape: 1 128 355 198 (8997120)
I0715 09:19:50.269882 12976 net.cpp:137] Memory required for data: 424816140
I0715 09:19:50.269912 12976 layer_factory.hpp:77] Creating layer relu2_2
I0715 09:19:50.269934 12976 net.cpp:84] Creating Layer relu2_2
I0715 09:19:50.269942 12976 net.cpp:406] relu2_2 <- conv2_2
I0715 09:19:50.269956 12976 net.cpp:367] relu2_2 -> conv2_2 (in-place)
I0715 09:19:50.270334 12976 net.cpp:122] Setting up relu2_2
I0715 09:19:50.270355 12976 net.cpp:129] Top shape: 1 128 355 198 (8997120)
I0715 09:19:50.270372 12976 net.cpp:137] Memory required for data: 460804620
I0715 09:19:50.270380 12976 layer_factory.hpp:77] Creating layer pool2
I0715 09:19:50.270438 12976 net.cpp:84] Creating Layer pool2
I0715 09:19:50.270447 12976 net.cpp:406] pool2 <- conv2_2
I0715 09:19:50.270475 12976 net.cpp:380] pool2 -> pool2
I0715 09:19:50.270560 12976 net.cpp:122] Setting up pool2
I0715 09:19:50.270575 12976 net.cpp:129] Top shape: 1 128 178 99 (2255616)
I0715 09:19:50.270583 12976 net.cpp:137] Memory required for data: 469827084
I0715 09:19:50.270589 12976 layer_factory.hpp:77] Creating layer conv3_1
I0715 09:19:50.270617 12976 net.cpp:84] Creating Layer conv3_1
I0715 09:19:50.270624 12976 net.cpp:406] conv3_1 <- pool2
I0715 09:19:50.270642 12976 net.cpp:380] conv3_1 -> conv3_1
I0715 09:19:50.279404 12976 net.cpp:122] Setting up conv3_1
I0715 09:19:50.279456 12976 net.cpp:129] Top shape: 1 256 178 99 (4511232)
I0715 09:19:50.279462 12976 net.cpp:137] Memory required for data: 487872012
I0715 09:19:50.279485 12976 layer_factory.hpp:77] Creating layer relu3_1
I0715 09:19:50.279505 12976 net.cpp:84] Creating Layer relu3_1
I0715 09:19:50.279511 12976 net.cpp:406] relu3_1 <- conv3_1
I0715 09:19:50.279531 12976 net.cpp:367] relu3_1 -> conv3_1 (in-place)
I0715 09:19:50.280345 12976 net.cpp:122] Setting up relu3_1
I0715 09:19:50.280364 12976 net.cpp:129] Top shape: 1 256 178 99 (4511232)
I0715 09:19:50.280378 12976 net.cpp:137] Memory required for data: 505916940
I0715 09:19:50.280398 12976 layer_factory.hpp:77] Creating layer conv3_2
I0715 09:19:50.280437 12976 net.cpp:84] Creating Layer conv3_2
I0715 09:19:50.280442 12976 net.cpp:406] conv3_2 <- conv3_1
I0715 09:19:50.280463 12976 net.cpp:380] conv3_2 -> conv3_2
I0715 09:19:50.285923 12976 net.cpp:122] Setting up conv3_2
I0715 09:19:50.285970 12976 net.cpp:129] Top shape: 1 256 178 99 (4511232)
I0715 09:19:50.285975 12976 net.cpp:137] Memory required for data: 523961868
I0715 09:19:50.285989 12976 layer_factory.hpp:77] Creating layer relu3_2
I0715 09:19:50.286006 12976 net.cpp:84] Creating Layer relu3_2
I0715 09:19:50.286028 12976 net.cpp:406] relu3_2 <- conv3_2
I0715 09:19:50.286052 12976 net.cpp:367] relu3_2 -> conv3_2 (in-place)
I0715 09:19:50.287109 12976 net.cpp:122] Setting up relu3_2
I0715 09:19:50.287132 12976 net.cpp:129] Top shape: 1 256 178 99 (4511232)
I0715 09:19:50.287147 12976 net.cpp:137] Memory required for data: 542006796
I0715 09:19:50.287153 12976 layer_factory.hpp:77] Creating layer conv3_3
I0715 09:19:50.287209 12976 net.cpp:84] Creating Layer conv3_3
I0715 09:19:50.287220 12976 net.cpp:406] conv3_3 <- conv3_2
I0715 09:19:50.287231 12976 net.cpp:380] conv3_3 -> conv3_3
I0715 09:19:50.293643 12976 net.cpp:122] Setting up conv3_3
I0715 09:19:50.293706 12976 net.cpp:129] Top shape: 1 256 178 99 (4511232)
I0715 09:19:50.293714 12976 net.cpp:137] Memory required for data: 560051724
I0715 09:19:50.293735 12976 layer_factory.hpp:77] Creating layer relu3_3
I0715 09:19:50.293753 12976 net.cpp:84] Creating Layer relu3_3
I0715 09:19:50.293761 12976 net.cpp:406] relu3_3 <- conv3_3
I0715 09:19:50.293793 12976 net.cpp:367] relu3_3 -> conv3_3 (in-place)
I0715 09:19:50.294122 12976 net.cpp:122] Setting up relu3_3
I0715 09:19:50.294139 12976 net.cpp:129] Top shape: 1 256 178 99 (4511232)
I0715 09:19:50.294145 12976 net.cpp:137] Memory required for data: 578096652
I0715 09:19:50.294186 12976 layer_factory.hpp:77] Creating layer pool3
I0715 09:19:50.294209 12976 net.cpp:84] Creating Layer pool3
I0715 09:19:50.294215 12976 net.cpp:406] pool3 <- conv3_3
I0715 09:19:50.294224 12976 net.cpp:380] pool3 -> pool3
I0715 09:19:50.294301 12976 net.cpp:122] Setting up pool3
I0715 09:19:50.294312 12976 net.cpp:129] Top shape: 1 256 89 50 (1139200)
I0715 09:19:50.294317 12976 net.cpp:137] Memory required for data: 582653452
I0715 09:19:50.294322 12976 layer_factory.hpp:77] Creating layer pool3_pool3_0_split
I0715 09:19:50.294332 12976 net.cpp:84] Creating Layer pool3_pool3_0_split
I0715 09:19:50.294337 12976 net.cpp:406] pool3_pool3_0_split <- pool3
I0715 09:19:50.294348 12976 net.cpp:380] pool3_pool3_0_split -> pool3_pool3_0_split_0
I0715 09:19:50.294358 12976 net.cpp:380] pool3_pool3_0_split -> pool3_pool3_0_split_1
I0715 09:19:50.294411 12976 net.cpp:122] Setting up pool3_pool3_0_split
I0715 09:19:50.294425 12976 net.cpp:129] Top shape: 1 256 89 50 (1139200)
I0715 09:19:50.294432 12976 net.cpp:129] Top shape: 1 256 89 50 (1139200)
I0715 09:19:50.294437 12976 net.cpp:137] Memory required for data: 591767052
I0715 09:19:50.294443 12976 layer_factory.hpp:77] Creating layer conv4_1
I0715 09:19:50.294457 12976 net.cpp:84] Creating Layer conv4_1
I0715 09:19:50.294464 12976 net.cpp:406] conv4_1 <- pool3_pool3_0_split_0
I0715 09:19:50.294476 12976 net.cpp:380] conv4_1 -> conv4_1
I0715 09:19:50.304765 12976 net.cpp:122] Setting up conv4_1
I0715 09:19:50.304816 12976 net.cpp:129] Top shape: 1 512 89 50 (2278400)
I0715 09:19:50.304821 12976 net.cpp:137] Memory required for data: 600880652
I0715 09:19:50.304836 12976 layer_factory.hpp:77] Creating layer relu4_1
I0715 09:19:50.304854 12976 net.cpp:84] Creating Layer relu4_1
I0715 09:19:50.304862 12976 net.cpp:406] relu4_1 <- conv4_1
I0715 09:19:50.304872 12976 net.cpp:367] relu4_1 -> conv4_1 (in-place)
I0715 09:19:50.305156 12976 net.cpp:122] Setting up relu4_1
I0715 09:19:50.305169 12976 net.cpp:129] Top shape: 1 512 89 50 (2278400)
I0715 09:19:50.305173 12976 net.cpp:137] Memory required for data: 609994252
I0715 09:19:50.305198 12976 layer_factory.hpp:77] Creating layer conv4_2
I0715 09:19:50.305215 12976 net.cpp:84] Creating Layer conv4_2
I0715 09:19:50.305220 12976 net.cpp:406] conv4_2 <- conv4_1
I0715 09:19:50.305234 12976 net.cpp:380] conv4_2 -> conv4_2
I0715 09:19:50.314805 12976 net.cpp:122] Setting up conv4_2
I0715 09:19:50.314855 12976 net.cpp:129] Top shape: 1 512 89 50 (2278400)
I0715 09:19:50.314859 12976 net.cpp:137] Memory required for data: 619107852
I0715 09:19:50.314882 12976 layer_factory.hpp:77] Creating layer relu4_2
I0715 09:19:50.314896 12976 net.cpp:84] Creating Layer relu4_2
I0715 09:19:50.314903 12976 net.cpp:406] relu4_2 <- conv4_2
I0715 09:19:50.314910 12976 net.cpp:367] relu4_2 -> conv4_2 (in-place)
I0715 09:19:50.315155 12976 net.cpp:122] Setting up relu4_2
I0715 09:19:50.315166 12976 net.cpp:129] Top shape: 1 512 89 50 (2278400)
I0715 09:19:50.315171 12976 net.cpp:137] Memory required for data: 628221452
I0715 09:19:50.315174 12976 layer_factory.hpp:77] Creating layer conv4_3
I0715 09:19:50.315188 12976 net.cpp:84] Creating Layer conv4_3
I0715 09:19:50.315192 12976 net.cpp:406] conv4_3 <- conv4_2
I0715 09:19:50.315205 12976 net.cpp:380] conv4_3 -> conv4_3
I0715 09:19:50.324098 12976 net.cpp:122] Setting up conv4_3
I0715 09:19:50.324149 12976 net.cpp:129] Top shape: 1 512 89 50 (2278400)
I0715 09:19:50.324154 12976 net.cpp:137] Memory required for data: 637335052
I0715 09:19:50.324164 12976 layer_factory.hpp:77] Creating layer relu4_3
I0715 09:19:50.324180 12976 net.cpp:84] Creating Layer relu4_3
I0715 09:19:50.324187 12976 net.cpp:406] relu4_3 <- conv4_3
I0715 09:19:50.324194 12976 net.cpp:367] relu4_3 -> conv4_3 (in-place)
I0715 09:19:50.324424 12976 net.cpp:122] Setting up relu4_3
I0715 09:19:50.324435 12976 net.cpp:129] Top shape: 1 512 89 50 (2278400)
I0715 09:19:50.324440 12976 net.cpp:137] Memory required for data: 646448652
I0715 09:19:50.324452 12976 layer_factory.hpp:77] Creating layer pool4
I0715 09:19:50.324461 12976 net.cpp:84] Creating Layer pool4
I0715 09:19:50.324465 12976 net.cpp:406] pool4 <- conv4_3
I0715 09:19:50.324474 12976 net.cpp:380] pool4 -> pool4
I0715 09:19:50.324533 12976 net.cpp:122] Setting up pool4
I0715 09:19:50.324542 12976 net.cpp:129] Top shape: 1 512 45 25 (576000)
I0715 09:19:50.324545 12976 net.cpp:137] Memory required for data: 648752652
I0715 09:19:50.324548 12976 layer_factory.hpp:77] Creating layer pool4_pool4_0_split
I0715 09:19:50.324554 12976 net.cpp:84] Creating Layer pool4_pool4_0_split
I0715 09:19:50.324558 12976 net.cpp:406] pool4_pool4_0_split <- pool4
I0715 09:19:50.324566 12976 net.cpp:380] pool4_pool4_0_split -> pool4_pool4_0_split_0
I0715 09:19:50.324573 12976 net.cpp:380] pool4_pool4_0_split -> pool4_pool4_0_split_1
I0715 09:19:50.324607 12976 net.cpp:122] Setting up pool4_pool4_0_split
I0715 09:19:50.324614 12976 net.cpp:129] Top shape: 1 512 45 25 (576000)
I0715 09:19:50.324617 12976 net.cpp:129] Top shape: 1 512 45 25 (576000)
I0715 09:19:50.324620 12976 net.cpp:137] Memory required for data: 653360652
I0715 09:19:50.324623 12976 layer_factory.hpp:77] Creating layer conv5_1
I0715 09:19:50.324636 12976 net.cpp:84] Creating Layer conv5_1
I0715 09:19:50.324640 12976 net.cpp:406] conv5_1 <- pool4_pool4_0_split_0
I0715 09:19:50.324650 12976 net.cpp:380] conv5_1 -> conv5_1
I0715 09:19:50.333356 12976 net.cpp:122] Setting up conv5_1
I0715 09:19:50.333405 12976 net.cpp:129] Top shape: 1 512 45 25 (576000)
I0715 09:19:50.333410 12976 net.cpp:137] Memory required for data: 655664652
I0715 09:19:50.333422 12976 layer_factory.hpp:77] Creating layer relu5_1
I0715 09:19:50.333438 12976 net.cpp:84] Creating Layer relu5_1
I0715 09:19:50.333446 12976 net.cpp:406] relu5_1 <- conv5_1
I0715 09:19:50.333453 12976 net.cpp:367] relu5_1 -> conv5_1 (in-place)
I0715 09:19:50.334237 12976 net.cpp:122] Setting up relu5_1
I0715 09:19:50.334250 12976 net.cpp:129] Top shape: 1 512 45 25 (576000)
I0715 09:19:50.334270 12976 net.cpp:137] Memory required for data: 657968652
I0715 09:19:50.334288 12976 layer_factory.hpp:77] Creating layer conv5_2
I0715 09:19:50.334303 12976 net.cpp:84] Creating Layer conv5_2
I0715 09:19:50.334308 12976 net.cpp:406] conv5_2 <- conv5_1
I0715 09:19:50.334333 12976 net.cpp:380] conv5_2 -> conv5_2
I0715 09:19:50.342609 12976 net.cpp:122] Setting up conv5_2
I0715 09:19:50.342664 12976 net.cpp:129] Top shape: 1 512 45 25 (576000)
I0715 09:19:50.342669 12976 net.cpp:137] Memory required for data: 660272652
I0715 09:19:50.342680 12976 layer_factory.hpp:77] Creating layer relu5_2
I0715 09:19:50.342702 12976 net.cpp:84] Creating Layer relu5_2
I0715 09:19:50.342708 12976 net.cpp:406] relu5_2 <- conv5_2
I0715 09:19:50.342741 12976 net.cpp:367] relu5_2 -> conv5_2 (in-place)
I0715 09:19:50.343737 12976 net.cpp:122] Setting up relu5_2
I0715 09:19:50.343751 12976 net.cpp:129] Top shape: 1 512 45 25 (576000)
I0715 09:19:50.343771 12976 net.cpp:137] Memory required for data: 662576652
I0715 09:19:50.343775 12976 layer_factory.hpp:77] Creating layer conv5_3
I0715 09:19:50.343791 12976 net.cpp:84] Creating Layer conv5_3
I0715 09:19:50.343796 12976 net.cpp:406] conv5_3 <- conv5_2
I0715 09:19:50.343803 12976 net.cpp:380] conv5_3 -> conv5_3
I0715 09:19:50.352628 12976 net.cpp:122] Setting up conv5_3
I0715 09:19:50.352681 12976 net.cpp:129] Top shape: 1 512 45 25 (576000)
I0715 09:19:50.352686 12976 net.cpp:137] Memory required for data: 664880652
I0715 09:19:50.352697 12976 layer_factory.hpp:77] Creating layer relu5_3
I0715 09:19:50.352710 12976 net.cpp:84] Creating Layer relu5_3
I0715 09:19:50.352716 12976 net.cpp:406] relu5_3 <- conv5_3
I0715 09:19:50.352725 12976 net.cpp:367] relu5_3 -> conv5_3 (in-place)
I0715 09:19:50.352964 12976 net.cpp:122] Setting up relu5_3
I0715 09:19:50.352975 12976 net.cpp:129] Top shape: 1 512 45 25 (576000)
I0715 09:19:50.352979 12976 net.cpp:137] Memory required for data: 667184652
I0715 09:19:50.352996 12976 layer_factory.hpp:77] Creating layer pool5
I0715 09:19:50.353011 12976 net.cpp:84] Creating Layer pool5
I0715 09:19:50.353015 12976 net.cpp:406] pool5 <- conv5_3
I0715 09:19:50.353024 12976 net.cpp:380] pool5 -> pool5
I0715 09:19:50.353075 12976 net.cpp:122] Setting up pool5
I0715 09:19:50.353082 12976 net.cpp:129] Top shape: 1 512 23 13 (153088)
I0715 09:19:50.353085 12976 net.cpp:137] Memory required for data: 667797004
I0715 09:19:50.353090 12976 layer_factory.hpp:77] Creating layer fc6
I0715 09:19:50.353101 12976 net.cpp:84] Creating Layer fc6
I0715 09:19:50.353106 12976 net.cpp:406] fc6 <- pool5
I0715 09:19:50.353118 12976 net.cpp:380] fc6 -> fc6
I0715 09:19:50.641333 12976 net.cpp:122] Setting up fc6
I0715 09:19:50.641381 12976 net.cpp:129] Top shape: 1 4096 17 7 (487424)
I0715 09:19:50.641386 12976 net.cpp:137] Memory required for data: 669746700
I0715 09:19:50.641399 12976 layer_factory.hpp:77] Creating layer relu6
I0715 09:19:50.641413 12976 net.cpp:84] Creating Layer relu6
I0715 09:19:50.641420 12976 net.cpp:406] relu6 <- fc6
I0715 09:19:50.641427 12976 net.cpp:367] relu6 -> fc6 (in-place)
I0715 09:19:50.641665 12976 net.cpp:122] Setting up relu6
I0715 09:19:50.641676 12976 net.cpp:129] Top shape: 1 4096 17 7 (487424)
I0715 09:19:50.641680 12976 net.cpp:137] Memory required for data: 671696396
I0715 09:19:50.641683 12976 layer_factory.hpp:77] Creating layer drop6
I0715 09:19:50.641712 12976 net.cpp:84] Creating Layer drop6
I0715 09:19:50.641716 12976 net.cpp:406] drop6 <- fc6
I0715 09:19:50.641724 12976 net.cpp:367] drop6 -> fc6 (in-place)
I0715 09:19:50.641768 12976 net.cpp:122] Setting up drop6
I0715 09:19:50.641777 12976 net.cpp:129] Top shape: 1 4096 17 7 (487424)
I0715 09:19:50.641779 12976 net.cpp:137] Memory required for data: 673646092
I0715 09:19:50.641789 12976 layer_factory.hpp:77] Creating layer fc7
I0715 09:19:50.641801 12976 net.cpp:84] Creating Layer fc7
I0715 09:19:50.641804 12976 net.cpp:406] fc7 <- fc6
I0715 09:19:50.641810 12976 net.cpp:380] fc7 -> fc7
I0715 09:19:50.700248 12976 net.cpp:122] Setting up fc7
I0715 09:19:50.700297 12976 net.cpp:129] Top shape: 1 4096 17 7 (487424)
I0715 09:19:50.700302 12976 net.cpp:137] Memory required for data: 675595788
I0715 09:19:50.700314 12976 layer_factory.hpp:77] Creating layer relu7
I0715 09:19:50.700328 12976 net.cpp:84] Creating Layer relu7
I0715 09:19:50.700335 12976 net.cpp:406] relu7 <- fc7
I0715 09:19:50.700341 12976 net.cpp:367] relu7 -> fc7 (in-place)
I0715 09:19:50.700567 12976 net.cpp:122] Setting up relu7
I0715 09:19:50.700579 12976 net.cpp:129] Top shape: 1 4096 17 7 (487424)
I0715 09:19:50.700582 12976 net.cpp:137] Memory required for data: 677545484
I0715 09:19:50.700587 12976 layer_factory.hpp:77] Creating layer drop7
I0715 09:19:50.700600 12976 net.cpp:84] Creating Layer drop7
I0715 09:19:50.700604 12976 net.cpp:406] drop7 <- fc7
I0715 09:19:50.700609 12976 net.cpp:367] drop7 -> fc7 (in-place)
I0715 09:19:50.700646 12976 net.cpp:122] Setting up drop7
I0715 09:19:50.700651 12976 net.cpp:129] Top shape: 1 4096 17 7 (487424)
I0715 09:19:50.700654 12976 net.cpp:137] Memory required for data: 679495180
I0715 09:19:50.700657 12976 layer_factory.hpp:77] Creating layer score_fr-new
I0715 09:19:50.700670 12976 net.cpp:84] Creating Layer score_fr-new
I0715 09:19:50.700673 12976 net.cpp:406] score_fr-new <- fc7
I0715 09:19:50.700680 12976 net.cpp:380] score_fr-new -> score_fr-new
I0715 09:19:50.702843 12976 net.cpp:122] Setting up score_fr-new
I0715 09:19:50.702857 12976 net.cpp:129] Top shape: 1 3 17 7 (357)
I0715 09:19:50.702877 12976 net.cpp:137] Memory required for data: 679496608
I0715 09:19:50.702896 12976 layer_factory.hpp:77] Creating layer upscore2-new
I0715 09:19:50.702913 12976 net.cpp:84] Creating Layer upscore2-new
I0715 09:19:50.702917 12976 net.cpp:406] upscore2-new <- score_fr-new
I0715 09:19:50.702941 12976 net.cpp:380] upscore2-new -> upscore2-new
I0715 09:19:50.703173 12976 net.cpp:122] Setting up upscore2-new
I0715 09:19:50.703183 12976 net.cpp:129] Top shape: 1 3 36 16 (1728)
I0715 09:19:50.703187 12976 net.cpp:137] Memory required for data: 679503520
I0715 09:19:50.703202 12976 layer_factory.hpp:77] Creating layer upscore2-new_upscore2-new_0_split
I0715 09:19:50.703208 12976 net.cpp:84] Creating Layer upscore2-new_upscore2-new_0_split
I0715 09:19:50.703212 12976 net.cpp:406] upscore2-new_upscore2-new_0_split <- upscore2-new
I0715 09:19:50.703218 12976 net.cpp:380] upscore2-new_upscore2-new_0_split -> upscore2-new_upscore2-new_0_split_0
I0715 09:19:50.703224 12976 net.cpp:380] upscore2-new_upscore2-new_0_split -> upscore2-new_upscore2-new_0_split_1
I0715 09:19:50.703263 12976 net.cpp:122] Setting up upscore2-new_upscore2-new_0_split
I0715 09:19:50.703272 12976 net.cpp:129] Top shape: 1 3 36 16 (1728)
I0715 09:19:50.703312 12976 net.cpp:129] Top shape: 1 3 36 16 (1728)
I0715 09:19:50.703316 12976 net.cpp:137] Memory required for data: 679517344
I0715 09:19:50.703320 12976 layer_factory.hpp:77] Creating layer score_pool4-new
I0715 09:19:50.703327 12976 net.cpp:84] Creating Layer score_pool4-new
I0715 09:19:50.703332 12976 net.cpp:406] score_pool4-new <- pool4_pool4_0_split_1
I0715 09:19:50.703341 12976 net.cpp:380] score_pool4-new -> score_pool4-new
I0715 09:19:50.705827 12976 net.cpp:122] Setting up score_pool4-new
I0715 09:19:50.705854 12976 net.cpp:129] Top shape: 1 3 45 25 (3375)
I0715 09:19:50.705862 12976 net.cpp:137] Memory required for data: 679530844
I0715 09:19:50.705885 12976 layer_factory.hpp:77] Creating layer score_pool4c
I0715 09:19:50.705904 12976 net.cpp:84] Creating Layer score_pool4c
I0715 09:19:50.705911 12976 net.cpp:406] score_pool4c <- score_pool4-new
I0715 09:19:50.705920 12976 net.cpp:406] score_pool4c <- upscore2-new_upscore2-new_0_split_0
I0715 09:19:50.705946 12976 net.cpp:380] score_pool4c -> score_pool4c
I0715 09:19:50.706008 12976 net.cpp:122] Setting up score_pool4c
I0715 09:19:50.706028 12976 net.cpp:129] Top shape: 1 3 36 16 (1728)
I0715 09:19:50.706034 12976 net.cpp:137] Memory required for data: 679537756
I0715 09:19:50.706054 12976 layer_factory.hpp:77] Creating layer fuse_pool4
I0715 09:19:50.706079 12976 net.cpp:84] Creating Layer fuse_pool4
I0715 09:19:50.706096 12976 net.cpp:406] fuse_pool4 <- upscore2-new_upscore2-new_0_split_1
I0715 09:19:50.706105 12976 net.cpp:406] fuse_pool4 <- score_pool4c
I0715 09:19:50.706115 12976 net.cpp:380] fuse_pool4 -> fuse_pool4
I0715 09:19:50.706172 12976 net.cpp:122] Setting up fuse_pool4
I0715 09:19:50.706185 12976 net.cpp:129] Top shape: 1 3 36 16 (1728)
I0715 09:19:50.706192 12976 net.cpp:137] Memory required for data: 679544668
I0715 09:19:50.706197 12976 layer_factory.hpp:77] Creating layer upscore_pool4-new
I0715 09:19:50.706215 12976 net.cpp:84] Creating Layer upscore_pool4-new
I0715 09:19:50.706223 12976 net.cpp:406] upscore_pool4-new <- fuse_pool4
I0715 09:19:50.706235 12976 net.cpp:380] upscore_pool4-new -> upscore_pool4-new
I0715 09:19:50.706614 12976 net.cpp:122] Setting up upscore_pool4-new
I0715 09:19:50.706627 12976 net.cpp:129] Top shape: 1 3 74 34 (7548)
I0715 09:19:50.706634 12976 net.cpp:137] Memory required for data: 679574860
I0715 09:19:50.706650 12976 layer_factory.hpp:77] Creating layer upscore_pool4-new_upscore_pool4-new_0_split
I0715 09:19:50.706662 12976 net.cpp:84] Creating Layer upscore_pool4-new_upscore_pool4-new_0_split
I0715 09:19:50.706670 12976 net.cpp:406] upscore_pool4-new_upscore_pool4-new_0_split <- upscore_pool4-new
I0715 09:19:50.706678 12976 net.cpp:380] upscore_pool4-new_upscore_pool4-new_0_split -> upscore_pool4-new_upscore_pool4-new_0_split_0
I0715 09:19:50.706691 12976 net.cpp:380] upscore_pool4-new_upscore_pool4-new_0_split -> upscore_pool4-new_upscore_pool4-new_0_split_1
I0715 09:19:50.706768 12976 net.cpp:122] Setting up upscore_pool4-new_upscore_pool4-new_0_split
I0715 09:19:50.706778 12976 net.cpp:129] Top shape: 1 3 74 34 (7548)
I0715 09:19:50.706785 12976 net.cpp:129] Top shape: 1 3 74 34 (7548)
I0715 09:19:50.706791 12976 net.cpp:137] Memory required for data: 679635244
I0715 09:19:50.706797 12976 layer_factory.hpp:77] Creating layer score_pool3-new
I0715 09:19:50.706827 12976 net.cpp:84] Creating Layer score_pool3-new
I0715 09:19:50.706835 12976 net.cpp:406] score_pool3-new <- pool3_pool3_0_split_1
I0715 09:19:50.706848 12976 net.cpp:380] score_pool3-new -> score_pool3-new
I0715 09:19:50.709424 12976 net.cpp:122] Setting up score_pool3-new
I0715 09:19:50.709473 12976 net.cpp:129] Top shape: 1 3 89 50 (13350)
I0715 09:19:50.709481 12976 net.cpp:137] Memory required for data: 679688644
I0715 09:19:50.709497 12976 layer_factory.hpp:77] Creating layer score_pool3c
I0715 09:19:50.709517 12976 net.cpp:84] Creating Layer score_pool3c
I0715 09:19:50.709537 12976 net.cpp:406] score_pool3c <- score_pool3-new
I0715 09:19:50.709547 12976 net.cpp:406] score_pool3c <- upscore_pool4-new_upscore_pool4-new_0_split_0
I0715 09:19:50.709558 12976 net.cpp:380] score_pool3c -> score_pool3c
I0715 09:19:50.709625 12976 net.cpp:122] Setting up score_pool3c
I0715 09:19:50.709652 12976 net.cpp:129] Top shape: 1 3 74 34 (7548)
I0715 09:19:50.709658 12976 net.cpp:137] Memory required for data: 679718836
I0715 09:19:50.709664 12976 layer_factory.hpp:77] Creating layer fuse_pool3
I0715 09:19:50.709676 12976 net.cpp:84] Creating Layer fuse_pool3
I0715 09:19:50.709682 12976 net.cpp:406] fuse_pool3 <- upscore_pool4-new_upscore_pool4-new_0_split_1
I0715 09:19:50.709692 12976 net.cpp:406] fuse_pool3 <- score_pool3c
I0715 09:19:50.709704 12976 net.cpp:380] fuse_pool3 -> fuse_pool3
I0715 09:19:50.709748 12976 net.cpp:122] Setting up fuse_pool3
I0715 09:19:50.709764 12976 net.cpp:129] Top shape: 1 3 74 34 (7548)
I0715 09:19:50.709769 12976 net.cpp:137] Memory required for data: 679749028
I0715 09:19:50.709775 12976 layer_factory.hpp:77] Creating layer upscore8-new
I0715 09:19:50.709787 12976 net.cpp:84] Creating Layer upscore8-new
I0715 09:19:50.709795 12976 net.cpp:406] upscore8-new <- fuse_pool3
I0715 09:19:50.709808 12976 net.cpp:380] upscore8-new -> upscore8-new
I0715 09:19:50.710222 12976 net.cpp:122] Setting up upscore8-new
I0715 09:19:50.710235 12976 net.cpp:129] Top shape: 1 3 600 280 (504000)
I0715 09:19:50.710242 12976 net.cpp:137] Memory required for data: 681765028
I0715 09:19:50.710255 12976 layer_factory.hpp:77] Creating layer upscore8_cropped
I0715 09:19:50.710283 12976 net.cpp:84] Creating Layer upscore8_cropped
I0715 09:19:50.710289 12976 net.cpp:406] upscore8_cropped <- upscore8-new
I0715 09:19:50.710309 12976 net.cpp:406] upscore8_cropped <- data_data_0_split_1
I0715 09:19:50.710320 12976 net.cpp:380] upscore8_cropped -> upscore8_cropped
I0715 09:19:50.710372 12976 net.cpp:122] Setting up upscore8_cropped
I0715 09:19:50.710381 12976 net.cpp:129] Top shape: 1 3 512 198 (304128)
I0715 09:19:50.710387 12976 net.cpp:137] Memory required for data: 682981540
I0715 09:19:50.710393 12976 layer_factory.hpp:77] Creating layer upscore8_cropped_upscore8_cropped_0_split
I0715 09:19:50.710408 12976 net.cpp:84] Creating Layer upscore8_cropped_upscore8_cropped_0_split
I0715 09:19:50.710415 12976 net.cpp:406] upscore8_cropped_upscore8_cropped_0_split <- upscore8_cropped
I0715 09:19:50.710424 12976 net.cpp:380] upscore8_cropped_upscore8_cropped_0_split -> upscore8_cropped_upscore8_cropped_0_split_0
I0715 09:19:50.710435 12976 net.cpp:380] upscore8_cropped_upscore8_cropped_0_split -> upscore8_cropped_upscore8_cropped_0_split_1
I0715 09:19:50.710500 12976 net.cpp:122] Setting up upscore8_cropped_upscore8_cropped_0_split
I0715 09:19:50.710512 12976 net.cpp:129] Top shape: 1 3 512 198 (304128)
I0715 09:19:50.710521 12976 net.cpp:129] Top shape: 1 3 512 198 (304128)
I0715 09:19:50.710527 12976 net.cpp:137] Memory required for data: 685414564
I0715 09:19:50.710533 12976 layer_factory.hpp:77] Creating layer prob
I0715 09:19:50.710546 12976 net.cpp:84] Creating Layer prob
I0715 09:19:50.710553 12976 net.cpp:406] prob <- upscore8_cropped_upscore8_cropped_0_split_0
I0715 09:19:50.710562 12976 net.cpp:380] prob -> prob
I0715 09:19:50.710979 12976 net.cpp:122] Setting up prob
I0715 09:19:50.710996 12976 net.cpp:129] Top shape: 1 3 512 198 (304128)
I0715 09:19:50.711002 12976 net.cpp:137] Memory required for data: 686631076
I0715 09:19:50.711009 12976 layer_factory.hpp:77] Creating layer saliency1
I0715 09:19:50.711055 12976 net.cpp:84] Creating Layer saliency1
I0715 09:19:50.711067 12976 net.cpp:406] saliency1 <- prob
I0715 09:19:50.711082 12976 net.cpp:380] saliency1 -> saliency1
I0715 09:19:50.720881 12976 net.cpp:122] Setting up saliency1
I0715 09:19:50.720947 12976 net.cpp:129] Top shape: 1 3 512 198 (304128)
I0715 09:19:50.720957 12976 net.cpp:137] Memory required for data: 687847588
I0715 09:19:50.720999 12976 layer_factory.hpp:77] Creating layer relu_saliency1
I0715 09:19:50.721038 12976 net.cpp:84] Creating Layer relu_saliency1
I0715 09:19:50.721050 12976 net.cpp:406] relu_saliency1 <- saliency1
I0715 09:19:50.721062 12976 net.cpp:367] relu_saliency1 -> saliency1 (in-place)
I0715 09:19:50.721603 12976 net.cpp:122] Setting up relu_saliency1
I0715 09:19:50.721622 12976 net.cpp:129] Top shape: 1 3 512 198 (304128)
I0715 09:19:50.721629 12976 net.cpp:137] Memory required for data: 689064100
I0715 09:19:50.721638 12976 layer_factory.hpp:77] Creating layer saliency
I0715 09:19:50.721662 12976 net.cpp:84] Creating Layer saliency
I0715 09:19:50.721670 12976 net.cpp:406] saliency <- saliency1
I0715 09:19:50.721702 12976 net.cpp:380] saliency -> saliency
I0715 09:19:50.725829 12976 net.cpp:122] Setting up saliency
I0715 09:19:50.725884 12976 net.cpp:129] Top shape: 1 3 512 198 (304128)
I0715 09:19:50.725896 12976 net.cpp:137] Memory required for data: 690280612
I0715 09:19:50.725915 12976 layer_factory.hpp:77] Creating layer silence_saliency
I0715 09:19:50.725942 12976 net.cpp:84] Creating Layer silence_saliency
I0715 09:19:50.725952 12976 net.cpp:406] silence_saliency <- saliency
I0715 09:19:50.725967 12976 net.cpp:122] Setting up silence_saliency
I0715 09:19:50.725973 12976 net.cpp:137] Memory required for data: 690280612
I0715 09:19:50.725980 12976 layer_factory.hpp:77] Creating layer crop
I0715 09:19:50.726943 12976 net.cpp:84] Creating Layer crop
I0715 09:19:50.726963 12976 net.cpp:406] crop <- label_data_1_split_0
I0715 09:19:50.726984 12976 net.cpp:406] crop <- data_data_0_split_2
I0715 09:19:50.726994 12976 net.cpp:406] crop <- crop_margin
I0715 09:19:50.727002 12976 net.cpp:406] crop <- crop_prob
I0715 09:19:50.727010 12976 net.cpp:406] crop <- crop_sample_batch
I0715 09:19:50.727021 12976 net.cpp:380] crop -> data-R
I0715 09:19:50.727038 12976 net.cpp:380] crop -> crop_info
I0715 09:19:50.735808 12976 net.cpp:122] Setting up crop
I0715 09:19:50.735865 12976 net.cpp:129] Top shape: 1 3 512 198 (304128)
I0715 09:19:50.735874 12976 net.cpp:129] Top shape: 1 2 4 (8)
I0715 09:19:50.735882 12976 net.cpp:137] Memory required for data: 691497156
I0715 09:19:50.735906 12976 layer_factory.hpp:77] Creating layer data-R_crop_0_split
I0715 09:19:50.735935 12976 net.cpp:84] Creating Layer data-R_crop_0_split
I0715 09:19:50.735944 12976 net.cpp:406] data-R_crop_0_split <- data-R
I0715 09:19:50.735956 12976 net.cpp:380] data-R_crop_0_split -> data-R_crop_0_split_0
I0715 09:19:50.735971 12976 net.cpp:380] data-R_crop_0_split -> data-R_crop_0_split_1
I0715 09:19:50.736038 12976 net.cpp:122] Setting up data-R_crop_0_split
I0715 09:19:50.736047 12976 net.cpp:129] Top shape: 1 3 512 198 (304128)
I0715 09:19:50.736053 12976 net.cpp:129] Top shape: 1 3 512 198 (304128)
I0715 09:19:50.736057 12976 net.cpp:137] Memory required for data: 693930180
I0715 09:19:50.736063 12976 layer_factory.hpp:77] Creating layer conv1_1-R
I0715 09:19:50.736078 12976 net.cpp:84] Creating Layer conv1_1-R
I0715 09:19:50.736083 12976 net.cpp:406] conv1_1-R <- data-R_crop_0_split_0
I0715 09:19:50.736093 12976 net.cpp:380] conv1_1-R -> conv1_1-R
I0715 09:19:50.741153 12976 net.cpp:122] Setting up conv1_1-R
I0715 09:19:50.741201 12976 net.cpp:129] Top shape: 1 64 710 396 (17994240)
I0715 09:19:50.741206 12976 net.cpp:137] Memory required for data: 765907140
I0715 09:19:50.741220 12976 layer_factory.hpp:77] Creating layer relu1_1-R
I0715 09:19:50.741274 12976 net.cpp:84] Creating Layer relu1_1-R
I0715 09:19:50.741281 12976 net.cpp:406] relu1_1-R <- conv1_1-R
I0715 09:19:50.741291 12976 net.cpp:367] relu1_1-R -> conv1_1-R (in-place)
I0715 09:19:50.741576 12976 net.cpp:122] Setting up relu1_1-R
I0715 09:19:50.741588 12976 net.cpp:129] Top shape: 1 64 710 396 (17994240)
I0715 09:19:50.741592 12976 net.cpp:137] Memory required for data: 837884100
I0715 09:19:50.741597 12976 layer_factory.hpp:77] Creating layer conv1_2-R
I0715 09:19:50.741611 12976 net.cpp:84] Creating Layer conv1_2-R
I0715 09:19:50.741614 12976 net.cpp:406] conv1_2-R <- conv1_1-R
I0715 09:19:50.741622 12976 net.cpp:380] conv1_2-R -> conv1_2-R
I0715 09:19:50.745115 12976 net.cpp:122] Setting up conv1_2-R
I0715 09:19:50.745167 12976 net.cpp:129] Top shape: 1 64 710 396 (17994240)
I0715 09:19:50.745172 12976 net.cpp:137] Memory required for data: 909861060
I0715 09:19:50.745196 12976 layer_factory.hpp:77] Creating layer relu1_2-R
I0715 09:19:50.745210 12976 net.cpp:84] Creating Layer relu1_2-R
I0715 09:19:50.745218 12976 net.cpp:406] relu1_2-R <- conv1_2-R
I0715 09:19:50.745241 12976 net.cpp:367] relu1_2-R -> conv1_2-R (in-place)
I0715 09:19:50.748160 12976 net.cpp:122] Setting up relu1_2-R
I0715 09:19:50.748214 12976 net.cpp:129] Top shape: 1 64 710 396 (17994240)
I0715 09:19:50.748219 12976 net.cpp:137] Memory required for data: 981838020
I0715 09:19:50.748225 12976 layer_factory.hpp:77] Creating layer pool1-R
I0715 09:19:50.748265 12976 net.cpp:84] Creating Layer pool1-R
I0715 09:19:50.748288 12976 net.cpp:406] pool1-R <- conv1_2-R
I0715 09:19:50.748299 12976 net.cpp:380] pool1-R -> pool1-R
I0715 09:19:50.748394 12976 net.cpp:122] Setting up pool1-R
I0715 09:19:50.748404 12976 net.cpp:129] Top shape: 1 64 355 198 (4498560)
I0715 09:19:50.748407 12976 net.cpp:137] Memory required for data: 999832260
I0715 09:19:50.748410 12976 layer_factory.hpp:77] Creating layer conv2_1-R
I0715 09:19:50.748423 12976 net.cpp:84] Creating Layer conv2_1-R
I0715 09:19:50.748428 12976 net.cpp:406] conv2_1-R <- pool1-R
I0715 09:19:50.748435 12976 net.cpp:380] conv2_1-R -> conv2_1-R
I0715 09:19:50.750123 12976 net.cpp:122] Setting up conv2_1-R
I0715 09:19:50.750159 12976 net.cpp:129] Top shape: 1 128 355 198 (8997120)
I0715 09:19:50.750162 12976 net.cpp:137] Memory required for data: 1035820740
I0715 09:19:50.750172 12976 layer_factory.hpp:77] Creating layer relu2_1-R
I0715 09:19:50.750185 12976 net.cpp:84] Creating Layer relu2_1-R
I0715 09:19:50.750190 12976 net.cpp:406] relu2_1-R <- conv2_1-R
I0715 09:19:50.750198 12976 net.cpp:367] relu2_1-R -> conv2_1-R (in-place)
I0715 09:19:50.750927 12976 net.cpp:122] Setting up relu2_1-R
I0715 09:19:50.750942 12976 net.cpp:129] Top shape: 1 128 355 198 (8997120)
I0715 09:19:50.750962 12976 net.cpp:137] Memory required for data: 1071809220
I0715 09:19:50.750977 12976 layer_factory.hpp:77] Creating layer conv2_2-R
I0715 09:19:50.750988 12976 net.cpp:84] Creating Layer conv2_2-R
I0715 09:19:50.750993 12976 net.cpp:406] conv2_2-R <- conv2_1-R
I0715 09:19:50.751018 12976 net.cpp:380] conv2_2-R -> conv2_2-R
I0715 09:19:50.760048 12976 net.cpp:122] Setting up conv2_2-R
I0715 09:19:50.760105 12976 net.cpp:129] Top shape: 1 128 355 198 (8997120)
I0715 09:19:50.760113 12976 net.cpp:137] Memory required for data: 1107797700
I0715 09:19:50.760130 12976 layer_factory.hpp:77] Creating layer relu2_2-R
I0715 09:19:50.760151 12976 net.cpp:84] Creating Layer relu2_2-R
I0715 09:19:50.760159 12976 net.cpp:406] relu2_2-R <- conv2_2-R
I0715 09:19:50.760184 12976 net.cpp:367] relu2_2-R -> conv2_2-R (in-place)
I0715 09:19:50.760488 12976 net.cpp:122] Setting up relu2_2-R
I0715 09:19:50.760511 12976 net.cpp:129] Top shape: 1 128 355 198 (8997120)
I0715 09:19:50.760516 12976 net.cpp:137] Memory required for data: 1143786180
I0715 09:19:50.760522 12976 layer_factory.hpp:77] Creating layer pool2-R
I0715 09:19:50.760551 12976 net.cpp:84] Creating Layer pool2-R
I0715 09:19:50.760566 12976 net.cpp:406] pool2-R <- conv2_2-R
I0715 09:19:50.760576 12976 net.cpp:380] pool2-R -> pool2-R
I0715 09:19:50.760663 12976 net.cpp:122] Setting up pool2-R
I0715 09:19:50.760673 12976 net.cpp:129] Top shape: 1 128 178 99 (2255616)
I0715 09:19:50.760677 12976 net.cpp:137] Memory required for data: 1152808644
I0715 09:19:50.760682 12976 layer_factory.hpp:77] Creating layer conv3_1-R
I0715 09:19:50.760700 12976 net.cpp:84] Creating Layer conv3_1-R
I0715 09:19:50.760706 12976 net.cpp:406] conv3_1-R <- pool2-R
I0715 09:19:50.760716 12976 net.cpp:380] conv3_1-R -> conv3_1-R
I0715 09:19:50.768736 12976 net.cpp:122] Setting up conv3_1-R
I0715 09:19:50.768801 12976 net.cpp:129] Top shape: 1 256 178 99 (4511232)
I0715 09:19:50.768811 12976 net.cpp:137] Memory required for data: 1170853572
I0715 09:19:50.768869 12976 layer_factory.hpp:77] Creating layer relu3_1-R
I0715 09:19:50.768900 12976 net.cpp:84] Creating Layer relu3_1-R
I0715 09:19:50.768913 12976 net.cpp:406] relu3_1-R <- conv3_1-R
I0715 09:19:50.768927 12976 net.cpp:367] relu3_1-R -> conv3_1-R (in-place)
I0715 09:19:50.769464 12976 net.cpp:122] Setting up relu3_1-R
I0715 09:19:50.769495 12976 net.cpp:129] Top shape: 1 256 178 99 (4511232)
I0715 09:19:50.769502 12976 net.cpp:137] Memory required for data: 1188898500
I0715 09:19:50.769510 12976 layer_factory.hpp:77] Creating layer conv3_2-R
I0715 09:19:50.769541 12976 net.cpp:84] Creating Layer conv3_2-R
I0715 09:19:50.769548 12976 net.cpp:406] conv3_2-R <- conv3_1-R
I0715 09:19:50.769562 12976 net.cpp:380] conv3_2-R -> conv3_2-R
I0715 09:19:50.782079 12976 net.cpp:122] Setting up conv3_2-R
I0715 09:19:50.782138 12976 net.cpp:129] Top shape: 1 256 178 99 (4511232)
I0715 09:19:50.782145 12976 net.cpp:137] Memory required for data: 1206943428
I0715 09:19:50.782164 12976 layer_factory.hpp:77] Creating layer relu3_2-R
I0715 09:19:50.782183 12976 net.cpp:84] Creating Layer relu3_2-R
I0715 09:19:50.782193 12976 net.cpp:406] relu3_2-R <- conv3_2-R
I0715 09:19:50.782215 12976 net.cpp:367] relu3_2-R -> conv3_2-R (in-place)
I0715 09:19:50.782541 12976 net.cpp:122] Setting up relu3_2-R
I0715 09:19:50.782557 12976 net.cpp:129] Top shape: 1 256 178 99 (4511232)
I0715 09:19:50.782562 12976 net.cpp:137] Memory required for data: 1224988356
I0715 09:19:50.782568 12976 layer_factory.hpp:77] Creating layer conv3_3-R
I0715 09:19:50.782586 12976 net.cpp:84] Creating Layer conv3_3-R
I0715 09:19:50.782593 12976 net.cpp:406] conv3_3-R <- conv3_2-R
I0715 09:19:50.782603 12976 net.cpp:380] conv3_3-R -> conv3_3-R
I0715 09:19:50.790163 12976 net.cpp:122] Setting up conv3_3-R
I0715 09:19:50.790222 12976 net.cpp:129] Top shape: 1 256 178 99 (4511232)
I0715 09:19:50.790230 12976 net.cpp:137] Memory required for data: 1243033284
I0715 09:19:50.790267 12976 layer_factory.hpp:77] Creating layer relu3_3-R
I0715 09:19:50.790299 12976 net.cpp:84] Creating Layer relu3_3-R
I0715 09:19:50.790309 12976 net.cpp:406] relu3_3-R <- conv3_3-R
I0715 09:19:50.790320 12976 net.cpp:367] relu3_3-R -> conv3_3-R (in-place)
I0715 09:19:50.790683 12976 net.cpp:122] Setting up relu3_3-R
I0715 09:19:50.790709 12976 net.cpp:129] Top shape: 1 256 178 99 (4511232)
I0715 09:19:50.790714 12976 net.cpp:137] Memory required for data: 1261078212
I0715 09:19:50.790727 12976 layer_factory.hpp:77] Creating layer pool3-R
I0715 09:19:50.790750 12976 net.cpp:84] Creating Layer pool3-R
I0715 09:19:50.790757 12976 net.cpp:406] pool3-R <- conv3_3-R
I0715 09:19:50.790769 12976 net.cpp:380] pool3-R -> pool3-R
I0715 09:19:50.790874 12976 net.cpp:122] Setting up pool3-R
I0715 09:19:50.790885 12976 net.cpp:129] Top shape: 1 256 89 50 (1139200)
I0715 09:19:50.790890 12976 net.cpp:137] Memory required for data: 1265635012
I0715 09:19:50.790896 12976 layer_factory.hpp:77] Creating layer pool3-R_pool3-R_0_split
I0715 09:19:50.790907 12976 net.cpp:84] Creating Layer pool3-R_pool3-R_0_split
I0715 09:19:50.790913 12976 net.cpp:406] pool3-R_pool3-R_0_split <- pool3-R
I0715 09:19:50.790922 12976 net.cpp:380] pool3-R_pool3-R_0_split -> pool3-R_pool3-R_0_split_0
I0715 09:19:50.790932 12976 net.cpp:380] pool3-R_pool3-R_0_split -> pool3-R_pool3-R_0_split_1
I0715 09:19:50.790992 12976 net.cpp:122] Setting up pool3-R_pool3-R_0_split
I0715 09:19:50.791003 12976 net.cpp:129] Top shape: 1 256 89 50 (1139200)
I0715 09:19:50.791010 12976 net.cpp:129] Top shape: 1 256 89 50 (1139200)
I0715 09:19:50.791015 12976 net.cpp:137] Memory required for data: 1274748612
I0715 09:19:50.791020 12976 layer_factory.hpp:77] Creating layer conv4_1-R
I0715 09:19:50.791036 12976 net.cpp:84] Creating Layer conv4_1-R
I0715 09:19:50.791043 12976 net.cpp:406] conv4_1-R <- pool3-R_pool3-R_0_split_0
I0715 09:19:50.791052 12976 net.cpp:380] conv4_1-R -> conv4_1-R
I0715 09:19:50.803797 12976 net.cpp:122] Setting up conv4_1-R
I0715 09:19:50.803853 12976 net.cpp:129] Top shape: 1 512 89 50 (2278400)
I0715 09:19:50.803858 12976 net.cpp:137] Memory required for data: 1283862212
I0715 09:19:50.803884 12976 layer_factory.hpp:77] Creating layer relu4_1-R
I0715 09:19:50.803922 12976 net.cpp:84] Creating Layer relu4_1-R
I0715 09:19:50.803939 12976 net.cpp:406] relu4_1-R <- conv4_1-R
I0715 09:19:50.803949 12976 net.cpp:367] relu4_1-R -> conv4_1-R (in-place)
I0715 09:19:50.804692 12976 net.cpp:122] Setting up relu4_1-R
I0715 09:19:50.804705 12976 net.cpp:129] Top shape: 1 512 89 50 (2278400)
I0715 09:19:50.804724 12976 net.cpp:137] Memory required for data: 1292975812
I0715 09:19:50.804728 12976 layer_factory.hpp:77] Creating layer conv4_2-R
I0715 09:19:50.804745 12976 net.cpp:84] Creating Layer conv4_2-R
I0715 09:19:50.804750 12976 net.cpp:406] conv4_2-R <- conv4_1-R
I0715 09:19:50.804759 12976 net.cpp:380] conv4_2-R -> conv4_2-R
I0715 09:19:50.813886 12976 net.cpp:122] Setting up conv4_2-R
I0715 09:19:50.813942 12976 net.cpp:129] Top shape: 1 512 89 50 (2278400)
I0715 09:19:50.813947 12976 net.cpp:137] Memory required for data: 1302089412
I0715 09:19:50.813959 12976 layer_factory.hpp:77] Creating layer relu4_2-R
I0715 09:19:50.813973 12976 net.cpp:84] Creating Layer relu4_2-R
I0715 09:19:50.813980 12976 net.cpp:406] relu4_2-R <- conv4_2-R
I0715 09:19:50.813988 12976 net.cpp:367] relu4_2-R -> conv4_2-R (in-place)
I0715 09:19:50.815456 12976 net.cpp:122] Setting up relu4_2-R
I0715 09:19:50.815493 12976 net.cpp:129] Top shape: 1 512 89 50 (2278400)
I0715 09:19:50.815497 12976 net.cpp:137] Memory required for data: 1311203012
I0715 09:19:50.815502 12976 layer_factory.hpp:77] Creating layer conv4_3-R
I0715 09:19:50.815533 12976 net.cpp:84] Creating Layer conv4_3-R
I0715 09:19:50.815556 12976 net.cpp:406] conv4_3-R <- conv4_2-R
I0715 09:19:50.815568 12976 net.cpp:380] conv4_3-R -> conv4_3-R
I0715 09:19:50.825320 12976 net.cpp:122] Setting up conv4_3-R
I0715 09:19:50.825371 12976 net.cpp:129] Top shape: 1 512 89 50 (2278400)
I0715 09:19:50.825376 12976 net.cpp:137] Memory required for data: 1320316612
I0715 09:19:50.825400 12976 layer_factory.hpp:77] Creating layer relu4_3-R
I0715 09:19:50.825419 12976 net.cpp:84] Creating Layer relu4_3-R
I0715 09:19:50.825443 12976 net.cpp:406] relu4_3-R <- conv4_3-R
I0715 09:19:50.825449 12976 net.cpp:367] relu4_3-R -> conv4_3-R (in-place)
I0715 09:19:50.825660 12976 net.cpp:122] Setting up relu4_3-R
I0715 09:19:50.825671 12976 net.cpp:129] Top shape: 1 512 89 50 (2278400)
I0715 09:19:50.825675 12976 net.cpp:137] Memory required for data: 1329430212
I0715 09:19:50.825680 12976 layer_factory.hpp:77] Creating layer pool4-R
I0715 09:19:50.825688 12976 net.cpp:84] Creating Layer pool4-R
I0715 09:19:50.825693 12976 net.cpp:406] pool4-R <- conv4_3-R
I0715 09:19:50.825708 12976 net.cpp:380] pool4-R -> pool4-R
I0715 09:19:50.825767 12976 net.cpp:122] Setting up pool4-R
I0715 09:19:50.825776 12976 net.cpp:129] Top shape: 1 512 45 25 (576000)
I0715 09:19:50.825779 12976 net.cpp:137] Memory required for data: 1331734212
I0715 09:19:50.825783 12976 layer_factory.hpp:77] Creating layer pool4-R_pool4-R_0_split
I0715 09:19:50.825791 12976 net.cpp:84] Creating Layer pool4-R_pool4-R_0_split
I0715 09:19:50.825795 12976 net.cpp:406] pool4-R_pool4-R_0_split <- pool4-R
I0715 09:19:50.825803 12976 net.cpp:380] pool4-R_pool4-R_0_split -> pool4-R_pool4-R_0_split_0
I0715 09:19:50.825809 12976 net.cpp:380] pool4-R_pool4-R_0_split -> pool4-R_pool4-R_0_split_1
I0715 09:19:50.825852 12976 net.cpp:122] Setting up pool4-R_pool4-R_0_split
I0715 09:19:50.825863 12976 net.cpp:129] Top shape: 1 512 45 25 (576000)
I0715 09:19:50.825868 12976 net.cpp:129] Top shape: 1 512 45 25 (576000)
I0715 09:19:50.825871 12976 net.cpp:137] Memory required for data: 1336342212
I0715 09:19:50.825875 12976 layer_factory.hpp:77] Creating layer conv5_1-R
I0715 09:19:50.825888 12976 net.cpp:84] Creating Layer conv5_1-R
I0715 09:19:50.825892 12976 net.cpp:406] conv5_1-R <- pool4-R_pool4-R_0_split_0
I0715 09:19:50.825899 12976 net.cpp:380] conv5_1-R -> conv5_1-R
I0715 09:19:50.835629 12976 net.cpp:122] Setting up conv5_1-R
I0715 09:19:50.835664 12976 net.cpp:129] Top shape: 1 512 45 25 (576000)
I0715 09:19:50.835669 12976 net.cpp:137] Memory required for data: 1338646212
I0715 09:19:50.835760 12976 layer_factory.hpp:77] Creating layer relu5_1-R
I0715 09:19:50.835777 12976 net.cpp:84] Creating Layer relu5_1-R
I0715 09:19:50.835783 12976 net.cpp:406] relu5_1-R <- conv5_1-R
I0715 09:19:50.835793 12976 net.cpp:367] relu5_1-R -> conv5_1-R (in-place)
I0715 09:19:50.836012 12976 net.cpp:122] Setting up relu5_1-R
I0715 09:19:50.836024 12976 net.cpp:129] Top shape: 1 512 45 25 (576000)
I0715 09:19:50.836027 12976 net.cpp:137] Memory required for data: 1340950212
I0715 09:19:50.836031 12976 layer_factory.hpp:77] Creating layer conv5_2-R
I0715 09:19:50.836045 12976 net.cpp:84] Creating Layer conv5_2-R
I0715 09:19:50.836050 12976 net.cpp:406] conv5_2-R <- conv5_1-R
I0715 09:19:50.836056 12976 net.cpp:380] conv5_2-R -> conv5_2-R
I0715 09:19:50.846112 12976 net.cpp:122] Setting up conv5_2-R
I0715 09:19:50.846164 12976 net.cpp:129] Top shape: 1 512 45 25 (576000)
I0715 09:19:50.846169 12976 net.cpp:137] Memory required for data: 1343254212
I0715 09:19:50.846180 12976 layer_factory.hpp:77] Creating layer relu5_2-R
I0715 09:19:50.846197 12976 net.cpp:84] Creating Layer relu5_2-R
I0715 09:19:50.846204 12976 net.cpp:406] relu5_2-R <- conv5_2-R
I0715 09:19:50.846210 12976 net.cpp:367] relu5_2-R -> conv5_2-R (in-place)
I0715 09:19:50.846451 12976 net.cpp:122] Setting up relu5_2-R
I0715 09:19:50.846463 12976 net.cpp:129] Top shape: 1 512 45 25 (576000)
I0715 09:19:50.846467 12976 net.cpp:137] Memory required for data: 1345558212
I0715 09:19:50.846470 12976 layer_factory.hpp:77] Creating layer conv5_3-R
I0715 09:19:50.846495 12976 net.cpp:84] Creating Layer conv5_3-R
I0715 09:19:50.846500 12976 net.cpp:406] conv5_3-R <- conv5_2-R
I0715 09:19:50.846509 12976 net.cpp:380] conv5_3-R -> conv5_3-R
I0715 09:19:50.856170 12976 net.cpp:122] Setting up conv5_3-R
I0715 09:19:50.856220 12976 net.cpp:129] Top shape: 1 512 45 25 (576000)
I0715 09:19:50.856225 12976 net.cpp:137] Memory required for data: 1347862212
I0715 09:19:50.856250 12976 layer_factory.hpp:77] Creating layer relu5_3-R
I0715 09:19:50.856266 12976 net.cpp:84] Creating Layer relu5_3-R
I0715 09:19:50.856271 12976 net.cpp:406] relu5_3-R <- conv5_3-R
I0715 09:19:50.856294 12976 net.cpp:367] relu5_3-R -> conv5_3-R (in-place)
I0715 09:19:50.856510 12976 net.cpp:122] Setting up relu5_3-R
I0715 09:19:50.856520 12976 net.cpp:129] Top shape: 1 512 45 25 (576000)
I0715 09:19:50.856524 12976 net.cpp:137] Memory required for data: 1350166212
I0715 09:19:50.856528 12976 layer_factory.hpp:77] Creating layer pool5-R
I0715 09:19:50.856549 12976 net.cpp:84] Creating Layer pool5-R
I0715 09:19:50.856552 12976 net.cpp:406] pool5-R <- conv5_3-R
I0715 09:19:50.856561 12976 net.cpp:380] pool5-R -> pool5-R
I0715 09:19:50.856618 12976 net.cpp:122] Setting up pool5-R
I0715 09:19:50.856626 12976 net.cpp:129] Top shape: 1 512 23 13 (153088)
I0715 09:19:50.856631 12976 net.cpp:137] Memory required for data: 1350778564
I0715 09:19:50.856633 12976 layer_factory.hpp:77] Creating layer fc6-R
I0715 09:19:50.856647 12976 net.cpp:84] Creating Layer fc6-R
I0715 09:19:50.856650 12976 net.cpp:406] fc6-R <- pool5-R
I0715 09:19:50.856658 12976 net.cpp:380] fc6-R -> fc6-R
I0715 09:19:51.151705 12976 net.cpp:122] Setting up fc6-R
I0715 09:19:51.151752 12976 net.cpp:129] Top shape: 1 4096 17 7 (487424)
I0715 09:19:51.151757 12976 net.cpp:137] Memory required for data: 1352728260
I0715 09:19:51.151768 12976 layer_factory.hpp:77] Creating layer relu6-R
I0715 09:19:51.151782 12976 net.cpp:84] Creating Layer relu6-R
I0715 09:19:51.151793 12976 net.cpp:406] relu6-R <- fc6-R
I0715 09:19:51.151803 12976 net.cpp:367] relu6-R -> fc6-R (in-place)
I0715 09:19:51.152578 12976 net.cpp:122] Setting up relu6-R
I0715 09:19:51.152591 12976 net.cpp:129] Top shape: 1 4096 17 7 (487424)
I0715 09:19:51.152611 12976 net.cpp:137] Memory required for data: 1354677956
I0715 09:19:51.152626 12976 layer_factory.hpp:77] Creating layer drop6-R
I0715 09:19:51.152645 12976 net.cpp:84] Creating Layer drop6-R
I0715 09:19:51.152648 12976 net.cpp:406] drop6-R <- fc6-R
I0715 09:19:51.152673 12976 net.cpp:367] drop6-R -> fc6-R (in-place)
I0715 09:19:51.152747 12976 net.cpp:122] Setting up drop6-R
I0715 09:19:51.152755 12976 net.cpp:129] Top shape: 1 4096 17 7 (487424)
I0715 09:19:51.152758 12976 net.cpp:137] Memory required for data: 1356627652
I0715 09:19:51.152761 12976 layer_factory.hpp:77] Creating layer fc7-R
I0715 09:19:51.152773 12976 net.cpp:84] Creating Layer fc7-R
I0715 09:19:51.152776 12976 net.cpp:406] fc7-R <- fc6-R
I0715 09:19:51.152787 12976 net.cpp:380] fc7-R -> fc7-R
I0715 09:19:51.212154 12976 net.cpp:122] Setting up fc7-R
I0715 09:19:51.212189 12976 net.cpp:129] Top shape: 1 4096 17 7 (487424)
I0715 09:19:51.212193 12976 net.cpp:137] Memory required for data: 1358577348
I0715 09:19:51.212205 12976 layer_factory.hpp:77] Creating layer relu7-R
I0715 09:19:51.212236 12976 net.cpp:84] Creating Layer relu7-R
I0715 09:19:51.212244 12976 net.cpp:406] relu7-R <- fc7-R
I0715 09:19:51.212254 12976 net.cpp:367] relu7-R -> fc7-R (in-place)
I0715 09:19:51.213023 12976 net.cpp:122] Setting up relu7-R
I0715 09:19:51.213037 12976 net.cpp:129] Top shape: 1 4096 17 7 (487424)
I0715 09:19:51.213055 12976 net.cpp:137] Memory required for data: 1360527044
I0715 09:19:51.213059 12976 layer_factory.hpp:77] Creating layer drop7-R
I0715 09:19:51.213080 12976 net.cpp:84] Creating Layer drop7-R
I0715 09:19:51.213084 12976 net.cpp:406] drop7-R <- fc7-R
I0715 09:19:51.213093 12976 net.cpp:367] drop7-R -> fc7-R (in-place)
I0715 09:19:51.213145 12976 net.cpp:122] Setting up drop7-R
I0715 09:19:51.213153 12976 net.cpp:129] Top shape: 1 4096 17 7 (487424)
I0715 09:19:51.213156 12976 net.cpp:137] Memory required for data: 1362476740
I0715 09:19:51.213160 12976 layer_factory.hpp:77] Creating layer score_fr-new-R
I0715 09:19:51.213169 12976 net.cpp:84] Creating Layer score_fr-new-R
I0715 09:19:51.213172 12976 net.cpp:406] score_fr-new-R <- fc7-R
I0715 09:19:51.213183 12976 net.cpp:380] score_fr-new-R -> score_fr-new-R
I0715 09:19:51.214745 12976 net.cpp:122] Setting up score_fr-new-R
I0715 09:19:51.214758 12976 net.cpp:129] Top shape: 1 3 17 7 (357)
I0715 09:19:51.214777 12976 net.cpp:137] Memory required for data: 1362478168
I0715 09:19:51.214784 12976 layer_factory.hpp:77] Creating layer upscore2-new-R
I0715 09:19:51.214794 12976 net.cpp:84] Creating Layer upscore2-new-R
I0715 09:19:51.214799 12976 net.cpp:406] upscore2-new-R <- score_fr-new-R
I0715 09:19:51.214805 12976 net.cpp:380] upscore2-new-R -> upscore2-new-R
I0715 09:19:51.215068 12976 net.cpp:122] Setting up upscore2-new-R
I0715 09:19:51.215077 12976 net.cpp:129] Top shape: 1 3 36 16 (1728)
I0715 09:19:51.215080 12976 net.cpp:137] Memory required for data: 1362485080
I0715 09:19:51.215085 12976 layer_factory.hpp:77] Creating layer upscore2-new-R_upscore2-new-R_0_split
I0715 09:19:51.215095 12976 net.cpp:84] Creating Layer upscore2-new-R_upscore2-new-R_0_split
I0715 09:19:51.215099 12976 net.cpp:406] upscore2-new-R_upscore2-new-R_0_split <- upscore2-new-R
I0715 09:19:51.215106 12976 net.cpp:380] upscore2-new-R_upscore2-new-R_0_split -> upscore2-new-R_upscore2-new-R_0_split_0
I0715 09:19:51.215112 12976 net.cpp:380] upscore2-new-R_upscore2-new-R_0_split -> upscore2-new-R_upscore2-new-R_0_split_1
I0715 09:19:51.215154 12976 net.cpp:122] Setting up upscore2-new-R_upscore2-new-R_0_split
I0715 09:19:51.215160 12976 net.cpp:129] Top shape: 1 3 36 16 (1728)
I0715 09:19:51.215164 12976 net.cpp:129] Top shape: 1 3 36 16 (1728)
I0715 09:19:51.215167 12976 net.cpp:137] Memory required for data: 1362498904
I0715 09:19:51.215171 12976 layer_factory.hpp:77] Creating layer score_pool4-new-R
I0715 09:19:51.215189 12976 net.cpp:84] Creating Layer score_pool4-new-R
I0715 09:19:51.215195 12976 net.cpp:406] score_pool4-new-R <- pool4-R_pool4-R_0_split_1
I0715 09:19:51.215204 12976 net.cpp:380] score_pool4-new-R -> score_pool4-new-R
I0715 09:19:51.216714 12976 net.cpp:122] Setting up score_pool4-new-R
I0715 09:19:51.216728 12976 net.cpp:129] Top shape: 1 3 45 25 (3375)
I0715 09:19:51.216747 12976 net.cpp:137] Memory required for data: 1362512404
I0715 09:19:51.216754 12976 layer_factory.hpp:77] Creating layer score_pool4c-R
I0715 09:19:51.216764 12976 net.cpp:84] Creating Layer score_pool4c-R
I0715 09:19:51.216769 12976 net.cpp:406] score_pool4c-R <- score_pool4-new-R
I0715 09:19:51.216774 12976 net.cpp:406] score_pool4c-R <- upscore2-new-R_upscore2-new-R_0_split_0
I0715 09:19:51.216779 12976 net.cpp:380] score_pool4c-R -> score_pool4c-R
I0715 09:19:51.216826 12976 net.cpp:122] Setting up score_pool4c-R
I0715 09:19:51.216832 12976 net.cpp:129] Top shape: 1 3 36 16 (1728)
I0715 09:19:51.216835 12976 net.cpp:137] Memory required for data: 1362519316
I0715 09:19:51.216840 12976 layer_factory.hpp:77] Creating layer fuse_pool4-R
I0715 09:19:51.216850 12976 net.cpp:84] Creating Layer fuse_pool4-R
I0715 09:19:51.216853 12976 net.cpp:406] fuse_pool4-R <- upscore2-new-R_upscore2-new-R_0_split_1
I0715 09:19:51.216857 12976 net.cpp:406] fuse_pool4-R <- score_pool4c-R
I0715 09:19:51.216862 12976 net.cpp:380] fuse_pool4-R -> fuse_pool4-R
I0715 09:19:51.216888 12976 net.cpp:122] Setting up fuse_pool4-R
I0715 09:19:51.216893 12976 net.cpp:129] Top shape: 1 3 36 16 (1728)
I0715 09:19:51.216897 12976 net.cpp:137] Memory required for data: 1362526228
I0715 09:19:51.216899 12976 layer_factory.hpp:77] Creating layer upscore_pool4-new-R
I0715 09:19:51.216909 12976 net.cpp:84] Creating Layer upscore_pool4-new-R
I0715 09:19:51.216913 12976 net.cpp:406] upscore_pool4-new-R <- fuse_pool4-R
I0715 09:19:51.216920 12976 net.cpp:380] upscore_pool4-new-R -> upscore_pool4-new-R
I0715 09:19:51.217165 12976 net.cpp:122] Setting up upscore_pool4-new-R
I0715 09:19:51.217175 12976 net.cpp:129] Top shape: 1 3 74 34 (7548)
I0715 09:19:51.217178 12976 net.cpp:137] Memory required for data: 1362556420
I0715 09:19:51.217183 12976 layer_factory.hpp:77] Creating layer upscore_pool4-new-R_upscore_pool4-new-R_0_split
I0715 09:19:51.217191 12976 net.cpp:84] Creating Layer upscore_pool4-new-R_upscore_pool4-new-R_0_split
I0715 09:19:51.217195 12976 net.cpp:406] upscore_pool4-new-R_upscore_pool4-new-R_0_split <- upscore_pool4-new-R
I0715 09:19:51.217201 12976 net.cpp:380] upscore_pool4-new-R_upscore_pool4-new-R_0_split -> upscore_pool4-new-R_upscore_pool4-new-R_0_split_0
I0715 09:19:51.217208 12976 net.cpp:380] upscore_pool4-new-R_upscore_pool4-new-R_0_split -> upscore_pool4-new-R_upscore_pool4-new-R_0_split_1
I0715 09:19:51.217252 12976 net.cpp:122] Setting up upscore_pool4-new-R_upscore_pool4-new-R_0_split
I0715 09:19:51.217257 12976 net.cpp:129] Top shape: 1 3 74 34 (7548)
I0715 09:19:51.217262 12976 net.cpp:129] Top shape: 1 3 74 34 (7548)
I0715 09:19:51.217265 12976 net.cpp:137] Memory required for data: 1362616804
I0715 09:19:51.217268 12976 layer_factory.hpp:77] Creating layer score_pool3-new-R
I0715 09:19:51.217278 12976 net.cpp:84] Creating Layer score_pool3-new-R
I0715 09:19:51.217285 12976 net.cpp:406] score_pool3-new-R <- pool3-R_pool3-R_0_split_1
I0715 09:19:51.217290 12976 net.cpp:380] score_pool3-new-R -> score_pool3-new-R
I0715 09:19:51.218237 12976 net.cpp:122] Setting up score_pool3-new-R
I0715 09:19:51.218248 12976 net.cpp:129] Top shape: 1 3 89 50 (13350)
I0715 09:19:51.218267 12976 net.cpp:137] Memory required for data: 1362670204
I0715 09:19:51.218273 12976 layer_factory.hpp:77] Creating layer score_pool3c-R
I0715 09:19:51.218281 12976 net.cpp:84] Creating Layer score_pool3c-R
I0715 09:19:51.218284 12976 net.cpp:406] score_pool3c-R <- score_pool3-new-R
I0715 09:19:51.218291 12976 net.cpp:406] score_pool3c-R <- upscore_pool4-new-R_upscore_pool4-new-R_0_split_0
I0715 09:19:51.218297 12976 net.cpp:380] score_pool3c-R -> score_pool3c-R
I0715 09:19:51.218327 12976 net.cpp:122] Setting up score_pool3c-R
I0715 09:19:51.218331 12976 net.cpp:129] Top shape: 1 3 74 34 (7548)
I0715 09:19:51.218334 12976 net.cpp:137] Memory required for data: 1362700396
I0715 09:19:51.218348 12976 layer_factory.hpp:77] Creating layer fuse_pool3-R
I0715 09:19:51.218363 12976 net.cpp:84] Creating Layer fuse_pool3-R
I0715 09:19:51.218366 12976 net.cpp:406] fuse_pool3-R <- upscore_pool4-new-R_upscore_pool4-new-R_0_split_1
I0715 09:19:51.218370 12976 net.cpp:406] fuse_pool3-R <- score_pool3c-R
I0715 09:19:51.218377 12976 net.cpp:380] fuse_pool3-R -> fuse_pool3-R
I0715 09:19:51.218420 12976 net.cpp:122] Setting up fuse_pool3-R
I0715 09:19:51.218425 12976 net.cpp:129] Top shape: 1 3 74 34 (7548)
I0715 09:19:51.218427 12976 net.cpp:137] Memory required for data: 1362730588
I0715 09:19:51.218431 12976 layer_factory.hpp:77] Creating layer upscore8-new-R
I0715 09:19:51.218439 12976 net.cpp:84] Creating Layer upscore8-new-R
I0715 09:19:51.218443 12976 net.cpp:406] upscore8-new-R <- fuse_pool3-R
I0715 09:19:51.218453 12976 net.cpp:380] upscore8-new-R -> upscore8-new-R
I0715 09:19:51.218695 12976 net.cpp:122] Setting up upscore8-new-R
I0715 09:19:51.218704 12976 net.cpp:129] Top shape: 1 3 600 280 (504000)
I0715 09:19:51.218708 12976 net.cpp:137] Memory required for data: 1364746588
I0715 09:19:51.218713 12976 layer_factory.hpp:77] Creating layer upscore8_cropped-R
I0715 09:19:51.218719 12976 net.cpp:84] Creating Layer upscore8_cropped-R
I0715 09:19:51.218724 12976 net.cpp:406] upscore8_cropped-R <- upscore8-new-R
I0715 09:19:51.218730 12976 net.cpp:406] upscore8_cropped-R <- data-R_crop_0_split_1
I0715 09:19:51.218736 12976 net.cpp:380] upscore8_cropped-R -> upscore8_cropped-R
I0715 09:19:51.218765 12976 net.cpp:122] Setting up upscore8_cropped-R
I0715 09:19:51.218770 12976 net.cpp:129] Top shape: 1 3 512 198 (304128)
I0715 09:19:51.218773 12976 net.cpp:137] Memory required for data: 1365963100
I0715 09:19:51.218776 12976 layer_factory.hpp:77] Creating layer upscore8_uncropped-R
I0715 09:19:51.219110 12976 net.cpp:84] Creating Layer upscore8_uncropped-R
I0715 09:19:51.219120 12976 net.cpp:406] upscore8_uncropped-R <- crop_info
I0715 09:19:51.219142 12976 net.cpp:406] upscore8_uncropped-R <- upscore8_cropped-R
I0715 09:19:51.219146 12976 net.cpp:406] upscore8_uncropped-R <- data_data_0_split_3
I0715 09:19:51.219152 12976 net.cpp:380] upscore8_uncropped-R -> upscore8_uncropped-R
I0715 09:19:51.220995 12976 net.cpp:122] Setting up upscore8_uncropped-R
I0715 09:19:51.221009 12976 net.cpp:129] Top shape: 1 3 512 198 (304128)
I0715 09:19:51.221029 12976 net.cpp:137] Memory required for data: 1367179612
I0715 09:19:51.221032 12976 layer_factory.hpp:77] Creating layer loss1
I0715 09:19:51.221047 12976 net.cpp:84] Creating Layer loss1
I0715 09:19:51.221051 12976 net.cpp:406] loss1 <- upscore8_cropped_upscore8_cropped_0_split_1
I0715 09:19:51.221056 12976 net.cpp:406] loss1 <- label_data_1_split_1
I0715 09:19:51.221063 12976 net.cpp:380] loss1 -> loss1
…
snapshot_prefix: "/media/Med_2T2/data2/models/snapshots/indiv:1e-5x10,20/FD3:XI3_1_20180715_091948/train"
test_initialization: false
average_loss: 20
stepvalue: 40000
iter_size: 1
I0715 10:14:49.551008 12976 solver.cpp:77] Creating training net from train_net file: /media/Med_2T2/data2/prototxts/training_I3x10.prototxt
I0715 10:14:49.553025 12976 net.cpp:51] Initializing net from parameters: 
state {
  phase: TRAIN
}
layer {
  name: "data"
  type: "Python"
  top: "data"
  top: "label"
  top: "crop_margin"
  top: "crop_prob"
  top: "crop_sample_batch"
  python_param {
    module: "Data"
    layer: "DataLayer"
  }
}
layer {
  name: "conv1_1"
  type: "Convolution"
  bottom: "data"
  top: "conv1_1"
  param {
    lr_mult: 1
    decay_mult: 1
  }
  param {
    lr_mult: 2
    decay_mult: 0
  }
  convolution_param {
    num_output: 64
    pad: 100
    kernel_size: 3
    stride: 1
  }
}
layer {
  name: "relu1_1"
  type: "ReLU"
  bottom: "conv1_1"
  top: "conv1_1"
}
layer {
  name: "conv1_2"
  type: "Convolution"
  bottom: "conv1_1"
  top: "conv1_2"
  param {
    lr_mult: 1
    decay_mult: 1
  }
  param {
    lr_mult: 2
    decay_mult: 0
  }
  convolution_param {
    num_output: 64
    pad: 1
    kernel_size: 3
    stride: 1
  }
}
layer {
  name: "relu1_2"
  type: "ReLU"
  bottom: "conv1_2"
  top: "conv1_2"
}
layer {
  name: "pool1"
  type: "Pooling"
  bottom: "conv1_2"
  top: "pool1"
  pooling_param {
    pool: MAX
    kernel_size: 2
    stride: 2
  }
}
layer {
  name: "conv2_1"
  type: "Convolution"
  bottom: "pool1"
  top: "conv2_1"
  param {
    lr_mult: 1
    decay_mult: 1
  }
  param {
    lr_mult: 2
    decay_mult: 0
  }
  convolution_param {
    num_output: 128
    pad: 1
    kernel_size: 3
    stride: 1
  }
}
layer {
  name: "relu2_1"
  type: "ReLU"
  bottom: "conv2_1"
  top: "conv2_1"
}
layer {
  name: "conv2_2"
  type: "Convolution"
  bottom: "conv2_1"
  top: "conv2_2"
  param {
    lr_mult: 1
    decay_mult: 1
  }
  param {
    lr_mult: 2
    decay_mult: 0
  }
  convolution_param {
    num_output: 128
    pad: 1
    kernel_size: 3
    stride: 1
  }
}
layer {
  name: "relu2_2"
  type: "ReLU"
  bottom: "conv2_2"
  top: "conv2_2"
}
layer {
  name: "pool2"
  type: "Pooling"
  bottom: "conv2_2"
  top: "pool2"
  pooling_param {
    pool: MAX
    kernel_size: 2
    stride: 2
  }
}
layer {
  name: "conv3_1"
  type: "Convolution"
  bottom: "pool2"
  top: "conv3_1"
  param {
    lr_mult: 1
    decay_mult: 1
  }
  param {
    lr_mult: 2
    decay_mult: 0
  }
  convolution_param {
    num_output: 256
    pad: 1
    kernel_size: 3
    stride: 1
  }
}
layer {
  name: "relu3_1"
  type: "ReLU"
  bottom: "conv3_1"
  top: "conv3_1"
}
layer {
  name: "conv3_2"
  type: "Convolution"
  bottom: "conv3_1"
  top: "conv3_2"
  param {
    lr_mult: 1
    decay_mult: 1
  }
  param {
    lr_mult: 2
    decay_mult: 0
  }
  convolution_param {
    num_output: 256
    pad: 1
    kernel_size: 3
    stride: 1
  }
}
layer {
  name: "relu3_2"
  type: "ReLU"
  bottom: "conv3_2"
  top: "conv3_2"
}
layer {
  name: "conv3_3"
  type: "Convolution"
  bottom: "conv3_2"
  top: "conv3_3"
  param {
    lr_mult: 1
    decay_mult: 1
  }
  param {
    lr_mult: 2
    decay_mult: 0
  }
  convolution_param {
    num_output: 256
    pad: 1
    kernel_size: 3
    stride: 1
  }
}
layer {
  name: "relu3_3"
  type: "ReLU"
  bottom: "conv3_3"
  top: "conv3_3"
}
layer {
  name: "pool3"
  type: "Pooling"
  bottom: "conv3_3"
  top: "pool3"
  pooling_param {
    pool: MAX
    kernel_size: 2
    stride: 2
  }
}
layer {
  name: "conv4_1"
  type: "Convolution"
  bottom: "pool3"
  top: "conv4_1"
  param {
    lr_mult: 1
    decay_mult: 1
  }
  param {
    lr_mult: 2
    decay_mult: 0
  }
  convolution_param {
    num_output: 512
    pad: 1
    kernel_size: 3
    stride: 1
  }
}
layer {
  name: "relu4_1"
  type: "ReLU"
  bottom: "conv4_1"
  top: "conv4_1"
}
layer {
  name: "conv4_2"
  type: "Convolution"
  bottom: "conv4_1"
  top: "conv4_2"
  param {
    lr_mult: 1
    decay_mult: 1
  }
  param {
    lr_mult: 2
    decay_mult: 0
  }
  convolution_param {
    num_output: 512
    pad: 1
    kernel_size: 3
    stride: 1
  }
}
layer {
  name: "relu4_2"
  type: "ReLU"
  bottom: "conv4_2"
  top: "conv4_2"
}
layer {
  name: "conv4_3"
  type: "Convolution"
  bottom: "conv4_2"
  top: "conv4_3"
  param {
    lr_mult: 1
    decay_mult: 1
  }
  param {
    lr_mult: 2
    decay_mult: 0
  }
  convolution_param {
    num_output: 512
    pad: 1
    kernel_size: 3
    stride: 1
  }
}
layer {
  name: "relu4_3"
  type: "ReLU"
  bottom: "conv4_3"
  top: "conv4_3"
}
layer {
  name: "pool4"
  type: "Pooling"
  bottom: "conv4_3"
  top: "pool4"
  pooling_param {
    pool: MAX
    kernel_size: 2
    stride: 2
  }
}
layer {
  name: "conv5_1"
  type: "Convolution"
  bottom: "pool4"
  top: "conv5_1"
  param {
    lr_mult: 1
    decay_mult: 1
  }
  param {
    lr_mult: 2
    decay_mult: 0
  }
  convolution_param {
    num_output: 512
    pad: 1
    kernel_size: 3
    stride: 1
  }
}
layer {
  name: "relu5_1"
  type: "ReLU"
  bottom: "conv5_1"
  top: "conv5_1"
}
layer {
  name: "conv5_2"
  type: "Convolution"
  bottom: "conv5_1"
  top: "conv5_2"
  param {
    lr_mult: 1
    decay_mult: 1
  }
  param {
    lr_mult: 2
    decay_mult: 0
  }
  convolution_param {
    num_output: 512
    pad: 1
    kernel_size: 3
    stride: 1
  }
}
layer {
  name: "relu5_2"
  type: "ReLU"
  bottom: "conv5_2"
  top: "conv5_2"
}
layer {
  name: "conv5_3"
  type: "Convolution"
  bottom: "conv5_2"
  top: "conv5_3"
  param {
    lr_mult: 1
    decay_mult: 1
  }
  param {
    lr_mult: 2
    decay_mult: 0
  }
  convolution_param {
    num_output: 512
    pad: 1
    kernel_size: 3
    stride: 1
  }
}
layer {
  name: "relu5_3"
  type: "ReLU"
  bottom: "conv5_3"
  top: "conv5_3"
}
layer {
  name: "pool5"
  type: "Pooling"
  bottom: "conv5_3"
  top: "pool5"
  pooling_param {
    pool: MAX
    kernel_size: 2
    stride: 2
  }
}
layer {
  name: "fc6"
  type: "Convolution"
  bottom: "pool5"
  top: "fc6"
  param {
    lr_mult: 1
    decay_mult: 1
  }
  param {
    lr_mult: 2
    decay_mult: 0
  }
  convolution_param {
    num_output: 4096
    pad: 0
    kernel_size: 7
    stride: 1
  }
}
layer {
  name: "relu6"
  type: "ReLU"
  bottom: "fc6"
  top: "fc6"
}
layer {
  name: "drop6"
  type: "Dropout"
  bottom: "fc6"
  top: "fc6"
  dropout_param {
    dropout_ratio: 0.5
  }
}
layer {
  name: "fc7"
  type: "Convolution"
  bottom: "fc6"
  top: "fc7"
  param {
    lr_mult: 1
    decay_mult: 1
  }
  param {
    lr_mult: 2
    decay_mult: 0
  }
  convolution_param {
    num_output: 4096
    pad: 0
    kernel_size: 1
    stride: 1
  }
}
layer {
  name: "relu7"
  type: "ReLU"
  bottom: "fc7"
  top: "fc7"
}
layer {
  name: "drop7"
  type: "Dropout"
  bottom: "fc7"
  top: "fc7"
  dropout_param {
    dropout_ratio: 0.5
  }
}
layer {
  name: "score_fr-new"
  type: "Convolution"
  bottom: "fc7"
  top: "score_fr-new"
  param {
    lr_mult: 1
    decay_mult: 1
  }
  param {
    lr_mult: 2
    decay_mult: 0
  }
  convolution_param {
    num_output: 3
    kernel_size: 1
  }
}
layer {
  name: "upscore2-new"
  type: "Deconvolution"
  bottom: "score_fr-new"
  top: "upscore2-new"
  param {
    lr_mult: 0
  }
  convolution_param {
    num_output: 3
    bias_term: false
    kernel_size: 4
    stride: 2
  }
}
layer {
  name: "score_pool4-new"
  type: "Convolution"
  bottom: "pool4"
  top: "score_pool4-new"
  param {
    lr_mult: 1
    decay_mult: 1
  }
  param {
    lr_mult: 2
    decay_mult: 0
  }
  convolution_param {
    num_output: 3
    pad: 0
    kernel_size: 1
  }
}
layer {
  name: "score_pool4c"
  type: "Crop"
  bottom: "score_pool4-new"
  bottom: "upscore2-new"
  top: "score_pool4c"
  crop_param {
    axis: 2
    offset: 5
  }
}
layer {
  name: "fuse_pool4"
  type: "Eltwise"
  bottom: "upscore2-new"
  bottom: "score_pool4c"
  top: "fuse_pool4"
  eltwise_param {
    operation: SUM
  }
}
layer {
  name: "upscore_pool4-new"
  type: "Deconvolution"
  bottom: "fuse_pool4"
  top: "upscore_pool4-new"
  param {
    lr_mult: 0
  }
  convolution_param {
    num_output: 3
    bias_term: false
    kernel_size: 4
    stride: 2
  }
}
layer {
  name: "score_pool3-new"
  type: "Convolution"
  bottom: "pool3"
  top: "score_pool3-new"
  param {
    lr_mult: 1
    decay_mult: 1
  }
  param {
    lr_mult: 2
    decay_mult: 0
  }
  convolution_param {
    num_output: 3
    pad: 0
    kernel_size: 1
  }
}
layer {
  name: "score_pool3c"
  type: "Crop"
  bottom: "score_pool3-new"
  bottom: "upscore_pool4-new"
  top: "score_pool3c"
  crop_param {
    axis: 2
    offset: 9
  }
}
layer {
  name: "fuse_pool3"
  type: "Eltwise"
  bottom: "upscore_pool4-new"
  bottom: "score_pool3c"
  top: "fuse_pool3"
  eltwise_param {
    operation: SUM
  }
}
layer {
  name: "upscore8-new"
  type: "Deconvolution"
  bottom: "fuse_pool3"
  top: "upscore8-new"
  param {
    lr_mult: 0
  }
  convolution_param {
    num_output: 3
    bias_term: false
    kernel_size: 16
    stride: 8
  }
}
layer {
  name: "upscore8_cropped"
  type: "Crop"
  bottom: "upscore8-new"
  bottom: "data"
  top: "upscore8_cropped"
  crop_param {
    axis: 2
    offset: 31
  }
}
layer {
  name: "prob"
  type: "Sigmoid"
  bottom: "upscore8_cropped"
  top: "prob"
}
layer {
  name: "saliency1"
  type: "Convolution"
  bottom: "prob"
  top: "saliency1"
  param {
    lr_mult: 10
    decay_mult: 1
  }
  param {
    lr_mult: 20
    decay_mult: 0
  }
  convolution_param {
    num_output: 3
    pad: 1
    kernel_size: 3
    stride: 1
    weight_filler {
      type: "xavier"
    }
    bias_filler {
      type: "constant"
      value: 1
    }
  }
}
layer {
  name: "relu_saliency1"
  type: "ReLU"
  bottom: "saliency1"
  top: "saliency1"
}
layer {
  name: "saliency"
  type: "Convolution"
  bottom: "saliency1"
  top: "saliency"
  param {
    lr_mult: 10
    decay_mult: 1
  }
  param {
    lr_mult: 20
    decay_mult: 0
  }
  convolution_param {
    num_output: 3
    pad: 2
    kernel_size: 5
    stride: 1
    weight_filler {
      type: "xavier"
    }
    bias_filler {
      type: "constant"
      value: 1
    }
  }
}
layer {
  name: "saliency_data"
  type: "Eltwise"
  bottom: "data"
  bottom: "saliency"
  top: "saliency_data"
  eltwise_param {
    operation: PROD
  }
}
layer {
  name: "crop"
  type: "Python"
  bottom: "label"
  bottom: "saliency_data"
  bottom: "crop_margin"
  bottom: "crop_prob"
  bottom: "crop_sample_batch"
  top: "data-R"
  top: "crop_info"
  python_param {
    module: "Crop"
    layer: "CropLayer"
    param_str: "{\"TEST\": 0}"
  }
}
layer {
  name: "conv1_1-R"
  type: "Convolution"
  bottom: "data-R"
  top: "conv1_1-R"
  param {
    lr_mult: 10
    decay_mult: 1
  }
  param {
    lr_mult: 20
    decay_mult: 0
  }
  convolution_param {
    num_output: 64
    pad: 100
    kernel_size: 3
    stride: 1
  }
}
layer {
  name: "relu1_1-R"
  type: "ReLU"
  bottom: "conv1_1-R"
  top: "conv1_1-R"
}
layer {
  name: "conv1_2-R"
  type: "Convolution"
  bottom: "conv1_1-R"
  top: "conv1_2-R"
  param {
    lr_mult: 10
    decay_mult: 1
  }
  param {
    lr_mult: 20
    decay_mult: 0
  }
  convolution_param {
    num_output: 64
    pad: 1
    kernel_size: 3
    stride: 1
  }
}
layer {
  name: "relu1_2-R"
  type: "ReLU"
  bottom: "conv1_2-R"
  top: "conv1_2-R"
}
layer {
  name: "pool1-R"
  type: "Pooling"
  bottom: "conv1_2-R"
  top: "pool1-R"
  pooling_param {
    pool: MAX
    kernel_size: 2
    stride: 2
  }
}
layer {
  name: "conv2_1-R"
  type: "Convolution"
  bottom: "pool1-R"
  top: "conv2_1-R"
  param {
    lr_mult: 10
    decay_mult: 1
  }
  param {
    lr_mult: 20
    decay_mult: 0
  }
  convolution_param {
    num_output: 128
    pad: 1
    kernel_size: 3
    stride: 1
  }
}
layer {
  name: "relu2_1-R"
  type: "ReLU"
  bottom: "conv2_1-R"
  top: "conv2_1-R"
}
layer {
  name: "conv2_2-R"
  type: "Convolution"
  bottom: "conv2_1-R"
  top: "conv2_2-R"
  param {
    lr_mult: 10
    decay_mult: 1
  }
  param {
    lr_mult: 20
    decay_mult: 0
  }
  convolution_param {
    num_output: 128
    pad: 1
    kernel_size: 3
    stride: 1
  }
}
layer {
  name: "relu2_2-R"
  type: "ReLU"
  bottom: "conv2_2-R"
  top: "conv2_2-R"
}
layer {
  name: "pool2-R"
  type: "Pooling"
  bottom: "conv2_2-R"
  top: "pool2-R"
  pooling_param {
    pool: MAX
    kernel_size: 2
    stride: 2
  }
}
layer {
  name: "conv3_1-R"
  type: "Convolution"
  bottom: "pool2-R"
  top: "conv3_1-R"
  param {
    lr_mult: 10
    decay_mult: 1
  }
  param {
    lr_mult: 20
    decay_mult: 0
  }
  convolution_param {
    num_output: 256
    pad: 1
    kernel_size: 3
    stride: 1
  }
}
layer {
  name: "relu3_1-R"
  type: "ReLU"
  bottom: "conv3_1-R"
  top: "conv3_1-R"
}
layer {
  name: "conv3_2-R"
  type: "Convolution"
  bottom: "conv3_1-R"
  top: "conv3_2-R"
  param {
    lr_mult: 10
    decay_mult: 1
  }
  param {
    lr_mult: 20
    decay_mult: 0
  }
  convolution_param {
    num_output: 256
    pad: 1
    kernel_size: 3
    stride: 1
  }
}
layer {
  name: "relu3_2-R"
  type: "ReLU"
  bottom: "conv3_2-R"
  top: "conv3_2-R"
}
layer {
  name: "conv3_3-R"
  type: "Convolution"
  bottom: "conv3_2-R"
  top: "conv3_3-R"
  param {
    lr_mult: 10
    decay_mult: 1
  }
  param {
    lr_mult: 20
    decay_mult: 0
  }
  convolution_param {
    num_output: 256
    pad: 1
    kernel_size: 3
    stride: 1
  }
}
layer {
  name: "relu3_3-R"
  type: "ReLU"
  bottom: "conv3_3-R"
  top: "conv3_3-R"
}
layer {
  name: "pool3-R"
  type: "Pooling"
  bottom: "conv3_3-R"
  top: "pool3-R"
  pooling_param {
    pool: MAX
    kernel_size: 2
    stride: 2
  }
}
layer {
  name: "conv4_1-R"
  type: "Convolution"
  bottom: "pool3-R"
  top: "conv4_1-R"
  param {
    lr_mult: 10
    decay_mult: 1
  }
  param {
    lr_mult: 20
    decay_mult: 0
  }
  convolution_param {
    num_output: 512
    pad: 1
    kernel_size: 3
    stride: 1
  }
}
layer {
  name: "relu4_1-R"
  type: "ReLU"
  bottom: "conv4_1-R"
  top: "conv4_1-R"
}
layer {
  name: "conv4_2-R"
  type: "Convolution"
  bottom: "conv4_1-R"
  top: "conv4_2-R"
  param {
    lr_mult: 10
    decay_mult: 1
  }
  param {
    lr_mult: 20
    decay_mult: 0
  }
  convolution_param {
    num_output: 512
    pad: 1
    kernel_size: 3
    stride: 1
  }
}
layer {
  name: "relu4_2-R"
  type: "ReLU"
  bottom: "conv4_2-R"
  top: "conv4_2-R"
}
layer {
  name: "conv4_3-R"
  type: "Convolution"
  bottom: "conv4_2-R"
  top: "conv4_3-R"
  param {
    lr_mult: 10
    decay_mult: 1
  }
  param {
    lr_mult: 20
    decay_mult: 0
  }
  convolution_param {
    num_output: 512
    pad: 1
    kernel_size: 3
    stride: 1
  }
}
layer {
  name: "relu4_3-R"
  type: "ReLU"
  bottom: "conv4_3-R"
  top: "conv4_3-R"
}
layer {
  name: "pool4-R"
  type: "Pooling"
  bottom: "conv4_3-R"
  top: "pool4-R"
  pooling_param {
    pool: MAX
    kernel_size: 2
    stride: 2
  }
}
layer {
  name: "conv5_1-R"
  type: "Convolution"
  bottom: "pool4-R"
  top: "conv5_1-R"
  param {
    lr_mult: 10
    decay_mult: 1
  }
  param {
    lr_mult: 20
    decay_mult: 0
  }
  convolution_param {
    num_output: 512
    pad: 1
    kernel_size: 3
    stride: 1
  }
}
layer {
  name: "relu5_1-R"
  type: "ReLU"
  bottom: "conv5_1-R"
  top: "conv5_1-R"
}
layer {
  name: "conv5_2-R"
  type: "Convolution"
  bottom: "conv5_1-R"
  top: "conv5_2-R"
  param {
    lr_mult: 10
    decay_mult: 1
  }
  param {
    lr_mult: 20
    decay_mult: 0
  }
  convolution_param {
    num_output: 512
    pad: 1
    kernel_size: 3
    stride: 1
  }
}
layer {
  name: "relu5_2-R"
  type: "ReLU"
  bottom: "conv5_2-R"
  top: "conv5_2-R"
}
layer {
  name: "conv5_3-R"
  type: "Convolution"
  bottom: "conv5_2-R"
  top: "conv5_3-R"
  param {
    lr_mult: 10
    decay_mult: 1
  }
  param {
    lr_mult: 20
    decay_mult: 0
  }
  convolution_param {
    num_output: 512
    pad: 1
    kernel_size: 3
    stride: 1
  }
}
layer {
  name: "relu5_3-R"
  type: "ReLU"
  bottom: "conv5_3-R"
  top: "conv5_3-R"
}
layer {
  name: "pool5-R"
  type: "Pooling"
  bottom: "conv5_3-R"
  top: "pool5-R"
  pooling_param {
    pool: MAX
    kernel_size: 2
    stride: 2
  }
}
layer {
  name: "fc6-R"
  type: "Convolution"
  bottom: "pool5-R"
  top: "fc6-R"
  param {
    lr_mult: 10
    decay_mult: 1
  }
  param {
    lr_mult: 20
    decay_mult: 0
  }
  convolution_param {
    num_output: 4096
    pad: 0
    kernel_size: 7
    stride: 1
  }
}
layer {
  name: "relu6-R"
  type: "ReLU"
  bottom: "fc6-R"
  top: "fc6-R"
}
layer {
  name: "drop6-R"
  type: "Dropout"
  bottom: "fc6-R"
  top: "fc6-R"
  dropout_param {
    dropout_ratio: 0.5
  }
}
layer {
  name: "fc7-R"
  type: "Convolution"
  bottom: "fc6-R"
  top: "fc7-R"
  param {
    lr_mult: 10
    decay_mult: 1
  }
  param {
    lr_mult: 20
    decay_mult: 0
  }
  convolution_param {
    num_output: 4096
    pad: 0
    kernel_size: 1
    stride: 1
  }
}
layer {
  name: "relu7-R"
  type: "ReLU"
  bottom: "fc7-R"
  top: "fc7-R"
}
layer {
  name: "drop7-R"
  type: "Dropout"
  bottom: "fc7-R"
  top: "fc7-R"
  dropout_param {
    dropout_ratio: 0.5
  }
}
layer {
  name: "score_fr-new-R"
  type: "Convolution"
  bottom: "fc7-R"
  top: "score_fr-new-R"
  param {
    lr_mult: 10
    decay_mult: 1
  }
  param {
    lr_mult: 20
    decay_mult: 0
  }
  convolution_param {
    num_output: 3
    kernel_size: 1
  }
}
layer {
  name: "upscore2-new-R"
  type: "Deconvolution"
  bottom: "score_fr-new-R"
  top: "upscore2-new-R"
  param {
    lr_mult: 0
  }
  convolution_param {
    num_output: 3
    bias_term: false
    kernel_size: 4
    stride: 2
  }
}
layer {
  name: "score_pool4-new-R"
  type: "Convolution"
  bottom: "pool4-R"
  top: "score_pool4-new-R"
  param {
    lr_mult: 10
    decay_mult: 1
  }
  param {
    lr_mult: 20
    decay_mult: 0
  }
  convolution_param {
    num_output: 3
    pad: 0
    kernel_size: 1
  }
}
layer {
  name: "score_pool4c-R"
  type: "Crop"
  bottom: "score_pool4-new-R"
  bottom: "upscore2-new-R"
  top: "score_pool4c-R"
  crop_param {
    axis: 2
    offset: 5
  }
}
layer {
  name: "fuse_pool4-R"
  type: "Eltwise"
  bottom: "upscore2-new-R"
  bottom: "score_pool4c-R"
  top: "fuse_pool4-R"
  eltwise_param {
    operation: SUM
  }
}
layer {
  name: "upscore_pool4-new-R"
  type: "Deconvolution"
  bottom: "fuse_pool4-R"
  top: "upscore_pool4-new-R"
  param {
    lr_mult: 0
  }
  convolution_param {
    num_output: 3
    bias_term: false
    kernel_size: 4
    stride: 2
  }
}
layer {
  name: "score_pool3-new-R"
  type: "Convolution"
  bottom: "pool3-R"
  top: "score_pool3-new-R"
  param {
    lr_mult: 10
    decay_mult: 1
  }
  param {
    lr_mult: 20
    decay_mult: 0
  }
  convolution_param {
    num_output: 3
    pad: 0
    kernel_size: 1
  }
}
layer {
  name: "score_pool3c-R"
  type: "Crop"
  bottom: "score_pool3-new-R"
  bottom: "upscore_pool4-new-R"
  top: "score_pool3c-R"
  crop_param {
    axis: 2
    offset: 9
  }
}
layer {
  name: "fuse_pool3-R"
  type: "Eltwise"
  bottom: "upscore_pool4-new-R"
  bottom: "score_pool3c-R"
  top: "fuse_pool3-R"
  eltwise_param {
    operation: SUM
  }
}
layer {
  name: "upscore8-new-R"
  type: "Deconvolution"
  bottom: "fuse_pool3-R"
  top: "upscore8-new-R"
  param {
    lr_mult: 0
  }
  convolution_param {
    num_output: 3
    bias_term: false
    kernel_size: 16
    stride: 8
  }
}
layer {
  name: "upscore8_cropped-R"
  type: "Crop"
  bottom: "upscore8-new-R"
  bottom: "data-R"
  top: "upscore8_cropped-R"
  crop_param {
    axis: 2
    offset: 31
  }
}
layer {
  name: "upscore8_uncropped-R"
  type: "Python"
  bottom: "crop_info"
  bottom: "upscore8_cropped-R"
  bottom: "data"
  top: "upscore8_uncropped-R"
  python_param {
    module: "Uncrop"
    layer: "UncropLayer"
  }
}
layer {
  name: "loss1"
  type: "DiceLoss"
  bottom: "upscore8_cropped"
  bottom: "label"
  top: "loss1"
  loss_weight: 0.333333
}
layer {
  name: "loss2"
  type: "DiceLoss"
  bottom: "upscore8_uncropped-R"
  bottom: "label"
  top: "loss2"
  loss_weight: 0.666667
}
I0715 10:14:49.553431 12976 layer_factory.hpp:77] Creating layer data
I0715 10:14:49.553493 12976 net.cpp:84] Creating Layer data
I0715 10:14:49.553500 12976 net.cpp:380] data -> data
I0715 10:14:49.553509 12976 net.cpp:380] data -> label
I0715 10:14:49.553515 12976 net.cpp:380] data -> crop_margin
I0715 10:14:49.553521 12976 net.cpp:380] data -> crop_prob
I0715 10:14:49.553526 12976 net.cpp:380] data -> crop_sample_batch
I0715 10:14:49.699801 12976 net.cpp:122] Setting up data
I0715 10:14:49.699865 12976 net.cpp:129] Top shape: 1 3 512 237 (364032)
I0715 10:14:49.699873 12976 net.cpp:129] Top shape: 1 3 512 237 (364032)
I0715 10:14:49.699882 12976 net.cpp:129] Top shape: 1 (1)
I0715 10:14:49.699885 12976 net.cpp:129] Top shape: 1 (1)
I0715 10:14:49.699890 12976 net.cpp:129] Top shape: 1 (1)
I0715 10:14:49.699893 12976 net.cpp:137] Memory required for data: 2912268
I0715 10:14:49.699905 12976 layer_factory.hpp:77] Creating layer data_data_0_split
I0715 10:14:49.699946 12976 net.cpp:84] Creating Layer data_data_0_split
I0715 10:14:49.699951 12976 net.cpp:406] data_data_0_split <- data
I0715 10:14:49.699967 12976 net.cpp:380] data_data_0_split -> data_data_0_split_0
I0715 10:14:49.699985 12976 net.cpp:380] data_data_0_split -> data_data_0_split_1
I0715 10:14:49.699993 12976 net.cpp:380] data_data_0_split -> data_data_0_split_2
I0715 10:14:49.700000 12976 net.cpp:380] data_data_0_split -> data_data_0_split_3
I0715 10:14:49.700178 12976 net.cpp:122] Setting up data_data_0_split
I0715 10:14:49.700192 12976 net.cpp:129] Top shape: 1 3 512 237 (364032)
I0715 10:14:49.700199 12976 net.cpp:129] Top shape: 1 3 512 237 (364032)
I0715 10:14:49.700206 12976 net.cpp:129] Top shape: 1 3 512 237 (364032)
I0715 10:14:49.700213 12976 net.cpp:129] Top shape: 1 3 512 237 (364032)
I0715 10:14:49.700218 12976 net.cpp:137] Memory required for data: 8736780
I0715 10:14:49.700222 12976 layer_factory.hpp:77] Creating layer label_data_1_split
I0715 10:14:49.700238 12976 net.cpp:84] Creating Layer label_data_1_split
I0715 10:14:49.700244 12976 net.cpp:406] label_data_1_split <- label
I0715 10:14:49.700251 12976 net.cpp:380] label_data_1_split -> label_data_1_split_0
I0715 10:14:49.700256 12976 net.cpp:380] label_data_1_split -> label_data_1_split_1
I0715 10:14:49.700266 12976 net.cpp:380] label_data_1_split -> label_data_1_split_2
I0715 10:14:49.700371 12976 net.cpp:122] Setting up label_data_1_split
I0715 10:14:49.700392 12976 net.cpp:129] Top shape: 1 3 512 237 (364032)
I0715 10:14:49.700398 12976 net.cpp:129] Top shape: 1 3 512 237 (364032)
I0715 10:14:49.700402 12976 net.cpp:129] Top shape: 1 3 512 237 (364032)
I0715 10:14:49.700408 12976 net.cpp:137] Memory required for data: 13105164
I0715 10:14:49.700412 12976 layer_factory.hpp:77] Creating layer conv1_1
I0715 10:14:49.700423 12976 net.cpp:84] Creating Layer conv1_1
I0715 10:14:49.700425 12976 net.cpp:406] conv1_1 <- data_data_0_split_0
I0715 10:14:49.700435 12976 net.cpp:380] conv1_1 -> conv1_1
I0715 10:14:49.704777 12976 net.cpp:122] Setting up conv1_1
I0715 10:14:49.704815 12976 net.cpp:129] Top shape: 1 64 710 435 (19766400)
I0715 10:14:49.704820 12976 net.cpp:137] Memory required for data: 92170764
I0715 10:14:49.704838 12976 layer_factory.hpp:77] Creating layer relu1_1
I0715 10:14:49.704851 12976 net.cpp:84] Creating Layer relu1_1
I0715 10:14:49.704875 12976 net.cpp:406] relu1_1 <- conv1_1
I0715 10:14:49.704881 12976 net.cpp:367] relu1_1 -> conv1_1 (in-place)
I0715 10:14:49.705832 12976 net.cpp:122] Setting up relu1_1
I0715 10:14:49.705845 12976 net.cpp:129] Top shape: 1 64 710 435 (19766400)
I0715 10:14:49.705863 12976 net.cpp:137] Memory required for data: 171236364
I0715 10:14:49.705869 12976 layer_factory.hpp:77] Creating layer conv1_2
I0715 10:14:49.705883 12976 net.cpp:84] Creating Layer conv1_2
I0715 10:14:49.705886 12976 net.cpp:406] conv1_2 <- conv1_1
I0715 10:14:49.705893 12976 net.cpp:380] conv1_2 -> conv1_2
I0715 10:14:49.709462 12976 net.cpp:122] Setting up conv1_2
I0715 10:14:49.709501 12976 net.cpp:129] Top shape: 1 64 710 435 (19766400)
I0715 10:14:49.709511 12976 net.cpp:137] Memory required for data: 250301964
I0715 10:14:49.709525 12976 layer_factory.hpp:77] Creating layer relu1_2
I0715 10:14:49.709555 12976 net.cpp:84] Creating Layer relu1_2
I0715 10:14:49.709560 12976 net.cpp:406] relu1_2 <- conv1_2
I0715 10:14:49.709571 12976 net.cpp:367] relu1_2 -> conv1_2 (in-place)
I0715 10:14:49.709877 12976 net.cpp:122] Setting up relu1_2
I0715 10:14:49.709890 12976 net.cpp:129] Top shape: 1 64 710 435 (19766400)
I0715 10:14:49.709897 12976 net.cpp:137] Memory required for data: 329367564
I0715 10:14:49.709900 12976 layer_factory.hpp:77] Creating layer pool1
I0715 10:14:49.709908 12976 net.cpp:84] Creating Layer pool1
I0715 10:14:49.709913 12976 net.cpp:406] pool1 <- conv1_2
I0715 10:14:49.709919 12976 net.cpp:380] pool1 -> pool1
I0715 10:14:49.710001 12976 net.cpp:122] Setting up pool1
I0715 10:14:49.710011 12976 net.cpp:129] Top shape: 1 64 355 218 (4952960)
I0715 10:14:49.710016 12976 net.cpp:137] Memory required for data: 349179404
I0715 10:14:49.710019 12976 layer_factory.hpp:77] Creating layer conv2_1
I0715 10:14:49.710028 12976 net.cpp:84] Creating Layer conv2_1
I0715 10:14:49.710034 12976 net.cpp:406] conv2_1 <- pool1
I0715 10:14:49.710041 12976 net.cpp:380] conv2_1 -> conv2_1
I0715 10:14:49.712240 12976 net.cpp:122] Setting up conv2_1
I0715 10:14:49.712271 12976 net.cpp:129] Top shape: 1 128 355 218 (9905920)
I0715 10:14:49.712275 12976 net.cpp:137] Memory required for data: 388803084
I0715 10:14:49.712285 12976 layer_factory.hpp:77] Creating layer relu2_1
I0715 10:14:49.712292 12976 net.cpp:84] Creating Layer relu2_1
I0715 10:14:49.712296 12976 net.cpp:406] relu2_1 <- conv2_1
I0715 10:14:49.712302 12976 net.cpp:367] relu2_1 -> conv2_1 (in-place)
I0715 10:14:49.712590 12976 net.cpp:122] Setting up relu2_1
I0715 10:14:49.712604 12976 net.cpp:129] Top shape: 1 128 355 218 (9905920)
I0715 10:14:49.712608 12976 net.cpp:137] Memory required for data: 428426764
I0715 10:14:49.712613 12976 layer_factory.hpp:77] Creating layer conv2_2
I0715 10:14:49.712626 12976 net.cpp:84] Creating Layer conv2_2
I0715 10:14:49.712630 12976 net.cpp:406] conv2_2 <- conv2_1
I0715 10:14:49.712640 12976 net.cpp:380] conv2_2 -> conv2_2
I0715 10:14:49.715034 12976 net.cpp:122] Setting up conv2_2
I0715 10:14:49.715067 12976 net.cpp:129] Top shape: 1 128 355 218 (9905920)
I0715 10:14:49.715072 12976 net.cpp:137] Memory required for data: 468050444
I0715 10:14:49.715080 12976 layer_factory.hpp:77] Creating layer relu2_2
I0715 10:14:49.715087 12976 net.cpp:84] Creating Layer relu2_2
I0715 10:14:49.715092 12976 net.cpp:406] relu2_2 <- conv2_2
I0715 10:14:49.715099 12976 net.cpp:367] relu2_2 -> conv2_2 (in-place)
I0715 10:14:49.715486 12976 net.cpp:122] Setting up relu2_2
I0715 10:14:49.715515 12976 net.cpp:129] Top shape: 1 128 355 218 (9905920)
I0715 10:14:49.715520 12976 net.cpp:137] Memory required for data: 507674124
I0715 10:14:49.715523 12976 layer_factory.hpp:77] Creating layer pool2
I0715 10:14:49.715533 12976 net.cpp:84] Creating Layer pool2
I0715 10:14:49.715536 12976 net.cpp:406] pool2 <- conv2_2
I0715 10:14:49.715544 12976 net.cpp:380] pool2 -> pool2
I0715 10:14:49.715625 12976 net.cpp:122] Setting up pool2
I0715 10:14:49.715647 12976 net.cpp:129] Top shape: 1 128 178 109 (2483456)
I0715 10:14:49.715652 12976 net.cpp:137] Memory required for data: 517607948
I0715 10:14:49.715656 12976 layer_factory.hpp:77] Creating layer conv3_1
I0715 10:14:49.715668 12976 net.cpp:84] Creating Layer conv3_1
I0715 10:14:49.715673 12976 net.cpp:406] conv3_1 <- pool2
I0715 10:14:49.715694 12976 net.cpp:380] conv3_1 -> conv3_1
I0715 10:14:49.720613 12976 net.cpp:122] Setting up conv3_1
I0715 10:14:49.720646 12976 net.cpp:129] Top shape: 1 256 178 109 (4966912)
I0715 10:14:49.720651 12976 net.cpp:137] Memory required for data: 537475596
I0715 10:14:49.720662 12976 layer_factory.hpp:77] Creating layer relu3_1
I0715 10:14:49.720670 12976 net.cpp:84] Creating Layer relu3_1
I0715 10:14:49.720674 12976 net.cpp:406] relu3_1 <- conv3_1
I0715 10:14:49.720697 12976 net.cpp:367] relu3_1 -> conv3_1 (in-place)
I0715 10:14:49.721005 12976 net.cpp:122] Setting up relu3_1
I0715 10:14:49.721021 12976 net.cpp:129] Top shape: 1 256 178 109 (4966912)
I0715 10:14:49.721025 12976 net.cpp:137] Memory required for data: 557343244
I0715 10:14:49.721030 12976 layer_factory.hpp:77] Creating layer conv3_2
I0715 10:14:49.721042 12976 net.cpp:84] Creating Layer conv3_2
I0715 10:14:49.721045 12976 net.cpp:406] conv3_2 <- conv3_1
I0715 10:14:49.721055 12976 net.cpp:380] conv3_2 -> conv3_2
I0715 10:14:49.726591 12976 net.cpp:122] Setting up conv3_2
I0715 10:14:49.726624 12976 net.cpp:129] Top shape: 1 256 178 109 (4966912)
I0715 10:14:49.726627 12976 net.cpp:137] Memory required for data: 577210892
I0715 10:14:49.726636 12976 layer_factory.hpp:77] Creating layer relu3_2
I0715 10:14:49.726644 12976 net.cpp:84] Creating Layer relu3_2
I0715 10:14:49.726649 12976 net.cpp:406] relu3_2 <- conv3_2
I0715 10:14:49.726655 12976 net.cpp:367] relu3_2 -> conv3_2 (in-place)
I0715 10:14:49.726963 12976 net.cpp:122] Setting up relu3_2
I0715 10:14:49.726980 12976 net.cpp:129] Top shape: 1 256 178 109 (4966912)
I0715 10:14:49.726986 12976 net.cpp:137] Memory required for data: 597078540
I0715 10:14:49.726991 12976 layer_factory.hpp:77] Creating layer conv3_3
I0715 10:14:49.727001 12976 net.cpp:84] Creating Layer conv3_3
I0715 10:14:49.727006 12976 net.cpp:406] conv3_3 <- conv3_2
I0715 10:14:49.727015 12976 net.cpp:380] conv3_3 -> conv3_3
I0715 10:14:49.732064 12976 net.cpp:122] Setting up conv3_3
I0715 10:14:49.732095 12976 net.cpp:129] Top shape: 1 256 178 109 (4966912)
I0715 10:14:49.732100 12976 net.cpp:137] Memory required for data: 616946188
I0715 10:14:49.732108 12976 layer_factory.hpp:77] Creating layer relu3_3
I0715 10:14:49.732118 12976 net.cpp:84] Creating Layer relu3_3
I0715 10:14:49.732123 12976 net.cpp:406] relu3_3 <- conv3_3
I0715 10:14:49.732128 12976 net.cpp:367] relu3_3 -> conv3_3 (in-place)
I0715 10:14:49.733165 12976 net.cpp:122] Setting up relu3_3
I0715 10:14:49.733177 12976 net.cpp:129] Top shape: 1 256 178 109 (4966912)
I0715 10:14:49.733197 12976 net.cpp:137] Memory required for data: 636813836
I0715 10:14:49.733203 12976 layer_factory.hpp:77] Creating layer pool3
I0715 10:14:49.733211 12976 net.cpp:84] Creating Layer pool3
I0715 10:14:49.733217 12976 net.cpp:406] pool3 <- conv3_3
I0715 10:14:49.733222 12976 net.cpp:380] pool3 -> pool3
I0715 10:14:49.733325 12976 net.cpp:122] Setting up pool3
I0715 10:14:49.733336 12976 net.cpp:129] Top shape: 1 256 89 55 (1253120)
I0715 10:14:49.733340 12976 net.cpp:137] Memory required for data: 641826316
I0715 10:14:49.733343 12976 layer_factory.hpp:77] Creating layer pool3_pool3_0_split
I0715 10:14:49.733348 12976 net.cpp:84] Creating Layer pool3_pool3_0_split
I0715 10:14:49.733352 12976 net.cpp:406] pool3_pool3_0_split <- pool3
I0715 10:14:49.733357 12976 net.cpp:380] pool3_pool3_0_split -> pool3_pool3_0_split_0
I0715 10:14:49.733362 12976 net.cpp:380] pool3_pool3_0_split -> pool3_pool3_0_split_1
I0715 10:14:49.733448 12976 net.cpp:122] Setting up pool3_pool3_0_split
I0715 10:14:49.733455 12976 net.cpp:129] Top shape: 1 256 89 55 (1253120)
I0715 10:14:49.733463 12976 net.cpp:129] Top shape: 1 256 89 55 (1253120)
I0715 10:14:49.733466 12976 net.cpp:137] Memory required for data: 651851276
I0715 10:14:49.733470 12976 layer_factory.hpp:77] Creating layer conv4_1
I0715 10:14:49.733482 12976 net.cpp:84] Creating Layer conv4_1
I0715 10:14:49.733487 12976 net.cpp:406] conv4_1 <- pool3_pool3_0_split_0
I0715 10:14:49.733496 12976 net.cpp:380] conv4_1 -> conv4_1
I0715 10:14:49.740113 12976 net.cpp:122] Setting up conv4_1
I0715 10:14:49.740141 12976 net.cpp:129] Top shape: 1 512 89 55 (2506240)
I0715 10:14:49.740146 12976 net.cpp:137] Memory required for data: 661876236
I0715 10:14:49.740154 12976 layer_factory.hpp:77] Creating layer relu4_1
I0715 10:14:49.740160 12976 net.cpp:84] Creating Layer relu4_1
I0715 10:14:49.740165 12976 net.cpp:406] relu4_1 <- conv4_1
I0715 10:14:49.740171 12976 net.cpp:367] relu4_1 -> conv4_1 (in-place)
I0715 10:14:49.740474 12976 net.cpp:122] Setting up relu4_1
I0715 10:14:49.740485 12976 net.cpp:129] Top shape: 1 512 89 55 (2506240)
I0715 10:14:49.740489 12976 net.cpp:137] Memory required for data: 671901196
I0715 10:14:49.740492 12976 layer_factory.hpp:77] Creating layer conv4_2
I0715 10:14:49.740501 12976 net.cpp:84] Creating Layer conv4_2
I0715 10:14:49.740505 12976 net.cpp:406] conv4_2 <- conv4_1
I0715 10:14:49.740511 12976 net.cpp:380] conv4_2 -> conv4_2
I0715 10:14:49.749972 12976 net.cpp:122] Setting up conv4_2
I0715 10:14:49.750018 12976 net.cpp:129] Top shape: 1 512 89 55 (2506240)
I0715 10:14:49.750025 12976 net.cpp:137] Memory required for data: 681926156
I0715 10:14:49.750054 12976 layer_factory.hpp:77] Creating layer relu4_2
I0715 10:14:49.750080 12976 net.cpp:84] Creating Layer relu4_2
I0715 10:14:49.750087 12976 net.cpp:406] relu4_2 <- conv4_2
I0715 10:14:49.750095 12976 net.cpp:367] relu4_2 -> conv4_2 (in-place)
I0715 10:14:49.750423 12976 net.cpp:122] Setting up relu4_2
I0715 10:14:49.750437 12976 net.cpp:129] Top shape: 1 512 89 55 (2506240)
I0715 10:14:49.750442 12976 net.cpp:137] Memory required for data: 691951116
I0715 10:14:49.750447 12976 layer_factory.hpp:77] Creating layer conv4_3
I0715 10:14:49.750458 12976 net.cpp:84] Creating Layer conv4_3
I0715 10:14:49.750463 12976 net.cpp:406] conv4_3 <- conv4_2
I0715 10:14:49.750470 12976 net.cpp:380] conv4_3 -> conv4_3
I0715 10:14:49.760157 12976 net.cpp:122] Setting up conv4_3
I0715 10:14:49.760201 12976 net.cpp:129] Top shape: 1 512 89 55 (2506240)
I0715 10:14:49.760207 12976 net.cpp:137] Memory required for data: 701976076
I0715 10:14:49.760215 12976 layer_factory.hpp:77] Creating layer relu4_3
I0715 10:14:49.760222 12976 net.cpp:84] Creating Layer relu4_3
I0715 10:14:49.760226 12976 net.cpp:406] relu4_3 <- conv4_3
I0715 10:14:49.760234 12976 net.cpp:367] relu4_3 -> conv4_3 (in-place)
I0715 10:14:49.760565 12976 net.cpp:122] Setting up relu4_3
I0715 10:14:49.760577 12976 net.cpp:129] Top shape: 1 512 89 55 (2506240)
I0715 10:14:49.760581 12976 net.cpp:137] Memory required for data: 712001036
I0715 10:14:49.760586 12976 layer_factory.hpp:77] Creating layer pool4
I0715 10:14:49.760596 12976 net.cpp:84] Creating Layer pool4
I0715 10:14:49.760601 12976 net.cpp:406] pool4 <- conv4_3
I0715 10:14:49.760612 12976 net.cpp:380] pool4 -> pool4
I0715 10:14:49.760701 12976 net.cpp:122] Setting up pool4
I0715 10:14:49.760715 12976 net.cpp:129] Top shape: 1 512 45 28 (645120)
I0715 10:14:49.760717 12976 net.cpp:137] Memory required for data: 714581516
I0715 10:14:49.760722 12976 layer_factory.hpp:77] Creating layer pool4_pool4_0_split
I0715 10:14:49.760730 12976 net.cpp:84] Creating Layer pool4_pool4_0_split
I0715 10:14:49.760733 12976 net.cpp:406] pool4_pool4_0_split <- pool4
I0715 10:14:49.760740 12976 net.cpp:380] pool4_pool4_0_split -> pool4_pool4_0_split_0
I0715 10:14:49.760746 12976 net.cpp:380] pool4_pool4_0_split -> pool4_pool4_0_split_1
I0715 10:14:49.760812 12976 net.cpp:122] Setting up pool4_pool4_0_split
I0715 10:14:49.760821 12976 net.cpp:129] Top shape: 1 512 45 28 (645120)
I0715 10:14:49.760829 12976 net.cpp:129] Top shape: 1 512 45 28 (645120)
I0715 10:14:49.760834 12976 net.cpp:137] Memory required for data: 719742476
I0715 10:14:49.760840 12976 layer_factory.hpp:77] Creating layer conv5_1
I0715 10:14:49.760855 12976 net.cpp:84] Creating Layer conv5_1
I0715 10:14:49.760861 12976 net.cpp:406] conv5_1 <- pool4_pool4_0_split_0
I0715 10:14:49.760870 12976 net.cpp:380] conv5_1 -> conv5_1
I0715 10:14:49.770606 12976 net.cpp:122] Setting up conv5_1
I0715 10:14:49.770649 12976 net.cpp:129] Top shape: 1 512 45 28 (645120)
I0715 10:14:49.770654 12976 net.cpp:137] Memory required for data: 722322956
I0715 10:14:49.770665 12976 layer_factory.hpp:77] Creating layer relu5_1
I0715 10:14:49.770678 12976 net.cpp:84] Creating Layer relu5_1
I0715 10:14:49.770684 12976 net.cpp:406] relu5_1 <- conv5_1
I0715 10:14:49.770709 12976 net.cpp:367] relu5_1 -> conv5_1 (in-place)
I0715 10:14:49.770964 12976 net.cpp:122] Setting up relu5_1
I0715 10:14:49.770975 12976 net.cpp:129] Top shape: 1 512 45 28 (645120)
I0715 10:14:49.770978 12976 net.cpp:137] Memory required for data: 724903436
I0715 10:14:49.770982 12976 layer_factory.hpp:77] Creating layer conv5_2
I0715 10:14:49.770992 12976 net.cpp:84] Creating Layer conv5_2
I0715 10:14:49.770997 12976 net.cpp:406] conv5_2 <- conv5_1
I0715 10:14:49.771003 12976 net.cpp:380] conv5_2 -> conv5_2
I0715 10:14:49.780330 12976 net.cpp:122] Setting up conv5_2
I0715 10:14:49.780371 12976 net.cpp:129] Top shape: 1 512 45 28 (645120)
I0715 10:14:49.780378 12976 net.cpp:137] Memory required for data: 727483916
I0715 10:14:49.780390 12976 layer_factory.hpp:77] Creating layer relu5_2
I0715 10:14:49.780431 12976 net.cpp:84] Creating Layer relu5_2
I0715 10:14:49.780436 12976 net.cpp:406] relu5_2 <- conv5_2
I0715 10:14:49.780448 12976 net.cpp:367] relu5_2 -> conv5_2 (in-place)
I0715 10:14:49.780874 12976 net.cpp:122] Setting up relu5_2
I0715 10:14:49.780886 12976 net.cpp:129] Top shape: 1 512 45 28 (645120)
I0715 10:14:49.780907 12976 net.cpp:137] Memory required for data: 730064396
I0715 10:14:49.780913 12976 layer_factory.hpp:77] Creating layer conv5_3
I0715 10:14:49.780942 12976 net.cpp:84] Creating Layer conv5_3
I0715 10:14:49.780951 12976 net.cpp:406] conv5_3 <- conv5_2
I0715 10:14:49.780974 12976 net.cpp:380] conv5_3 -> conv5_3
I0715 10:14:49.792915 12976 net.cpp:122] Setting up conv5_3
I0715 10:14:49.792953 12976 net.cpp:129] Top shape: 1 512 45 28 (645120)
I0715 10:14:49.792958 12976 net.cpp:137] Memory required for data: 732644876
I0715 10:14:49.792970 12976 layer_factory.hpp:77] Creating layer relu5_3
I0715 10:14:49.792980 12976 net.cpp:84] Creating Layer relu5_3
I0715 10:14:49.792984 12976 net.cpp:406] relu5_3 <- conv5_3
I0715 10:14:49.793014 12976 net.cpp:367] relu5_3 -> conv5_3 (in-place)
I0715 10:14:49.794245 12976 net.cpp:122] Setting up relu5_3
I0715 10:14:49.794284 12976 net.cpp:129] Top shape: 1 512 45 28 (645120)
I0715 10:14:49.794296 12976 net.cpp:137] Memory required for data: 735225356
I0715 10:14:49.794301 12976 layer_factory.hpp:77] Creating layer pool5
I0715 10:14:49.794313 12976 net.cpp:84] Creating Layer pool5
I0715 10:14:49.794318 12976 net.cpp:406] pool5 <- conv5_3
I0715 10:14:49.794342 12976 net.cpp:380] pool5 -> pool5
I0715 10:14:49.794487 12976 net.cpp:122] Setting up pool5
I0715 10:14:49.794499 12976 net.cpp:129] Top shape: 1 512 23 14 (164864)
I0715 10:14:49.794502 12976 net.cpp:137] Memory required for data: 735884812
I0715 10:14:49.794509 12976 layer_factory.hpp:77] Creating layer fc6
I0715 10:14:49.794538 12976 net.cpp:84] Creating Layer fc6
I0715 10:14:49.794543 12976 net.cpp:406] fc6 <- pool5
I0715 10:14:49.794553 12976 net.cpp:380] fc6 -> fc6
I0715 10:14:50.179235 12976 net.cpp:122] Setting up fc6
I0715 10:14:50.179328 12976 net.cpp:129] Top shape: 1 4096 17 8 (557056)
I0715 10:14:50.179334 12976 net.cpp:137] Memory required for data: 738113036
I0715 10:14:50.179363 12976 layer_factory.hpp:77] Creating layer relu6
I0715 10:14:50.179376 12976 net.cpp:84] Creating Layer relu6
I0715 10:14:50.179381 12976 net.cpp:406] relu6 <- fc6
I0715 10:14:50.179390 12976 net.cpp:367] relu6 -> fc6 (in-place)
I0715 10:14:50.179750 12976 net.cpp:122] Setting up relu6
I0715 10:14:50.179762 12976 net.cpp:129] Top shape: 1 4096 17 8 (557056)
I0715 10:14:50.179772 12976 net.cpp:137] Memory required for data: 740341260
I0715 10:14:50.179780 12976 layer_factory.hpp:77] Creating layer drop6
I0715 10:14:50.179793 12976 net.cpp:84] Creating Layer drop6
I0715 10:14:50.179821 12976 net.cpp:406] drop6 <- fc6
I0715 10:14:50.179827 12976 net.cpp:367] drop6 -> fc6 (in-place)
I0715 10:14:50.179939 12976 net.cpp:122] Setting up drop6
I0715 10:14:50.179960 12976 net.cpp:129] Top shape: 1 4096 17 8 (557056)
I0715 10:14:50.179970 12976 net.cpp:137] Memory required for data: 742569484
I0715 10:14:50.179980 12976 layer_factory.hpp:77] Creating layer fc7
I0715 10:14:50.179998 12976 net.cpp:84] Creating Layer fc7
I0715 10:14:50.180009 12976 net.cpp:406] fc7 <- fc6
I0715 10:14:50.180019 12976 net.cpp:380] fc7 -> fc7
I0715 10:14:50.257782 12976 net.cpp:122] Setting up fc7
I0715 10:14:50.257844 12976 net.cpp:129] Top shape: 1 4096 17 8 (557056)
I0715 10:14:50.257853 12976 net.cpp:137] Memory required for data: 744797708
I0715 10:14:50.257869 12976 layer_factory.hpp:77] Creating layer relu7
I0715 10:14:50.257887 12976 net.cpp:84] Creating Layer relu7
I0715 10:14:50.257912 12976 net.cpp:406] relu7 <- fc7
I0715 10:14:50.257927 12976 net.cpp:367] relu7 -> fc7 (in-place)
I0715 10:14:50.258394 12976 net.cpp:122] Setting up relu7
I0715 10:14:50.258409 12976 net.cpp:129] Top shape: 1 4096 17 8 (557056)
I0715 10:14:50.258430 12976 net.cpp:137] Memory required for data: 747025932
I0715 10:14:50.258452 12976 layer_factory.hpp:77] Creating layer drop7
I0715 10:14:50.258463 12976 net.cpp:84] Creating Layer drop7
I0715 10:14:50.258471 12976 net.cpp:406] drop7 <- fc7
I0715 10:14:50.258481 12976 net.cpp:367] drop7 -> fc7 (in-place)
I0715 10:14:50.258590 12976 net.cpp:122] Setting up drop7
I0715 10:14:50.258606 12976 net.cpp:129] Top shape: 1 4096 17 8 (557056)
I0715 10:14:50.258610 12976 net.cpp:137] Memory required for data: 749254156
I0715 10:14:50.258617 12976 layer_factory.hpp:77] Creating layer score_fr-new
I0715 10:14:50.258633 12976 net.cpp:84] Creating Layer score_fr-new
I0715 10:14:50.258641 12976 net.cpp:406] score_fr-new <- fc7
I0715 10:14:50.258657 12976 net.cpp:380] score_fr-new -> score_fr-new
I0715 10:14:50.261664 12976 net.cpp:122] Setting up score_fr-new
I0715 10:14:50.261703 12976 net.cpp:129] Top shape: 1 3 17 8 (408)
I0715 10:14:50.261708 12976 net.cpp:137] Memory required for data: 749255788
I0715 10:14:50.261718 12976 layer_factory.hpp:77] Creating layer upscore2-new
I0715 10:14:50.261734 12976 net.cpp:84] Creating Layer upscore2-new
I0715 10:14:50.261740 12976 net.cpp:406] upscore2-new <- score_fr-new
I0715 10:14:50.261767 12976 net.cpp:380] upscore2-new -> upscore2-new
I0715 10:14:50.262429 12976 net.cpp:122] Setting up upscore2-new
I0715 10:14:50.262444 12976 net.cpp:129] Top shape: 1 3 36 18 (1944)
I0715 10:14:50.262449 12976 net.cpp:137] Memory required for data: 749263564
I0715 10:14:50.262492 12976 layer_factory.hpp:77] Creating layer upscore2-new_upscore2-new_0_split
I0715 10:14:50.262506 12976 net.cpp:84] Creating Layer upscore2-new_upscore2-new_0_split
I0715 10:14:50.262516 12976 net.cpp:406] upscore2-new_upscore2-new_0_split <- upscore2-new
I0715 10:14:50.262526 12976 net.cpp:380] upscore2-new_upscore2-new_0_split -> upscore2-new_upscore2-new_0_split_0
I0715 10:14:50.262536 12976 net.cpp:380] upscore2-new_upscore2-new_0_split -> upscore2-new_upscore2-new_0_split_1
I0715 10:14:50.262661 12976 net.cpp:122] Setting up upscore2-new_upscore2-new_0_split
I0715 10:14:50.262677 12976 net.cpp:129] Top shape: 1 3 36 18 (1944)
I0715 10:14:50.262687 12976 net.cpp:129] Top shape: 1 3 36 18 (1944)
I0715 10:14:50.262694 12976 net.cpp:137] Memory required for data: 749279116
I0715 10:14:50.262699 12976 layer_factory.hpp:77] Creating layer score_pool4-new
I0715 10:14:50.262713 12976 net.cpp:84] Creating Layer score_pool4-new
I0715 10:14:50.262723 12976 net.cpp:406] score_pool4-new <- pool4_pool4_0_split_1
I0715 10:14:50.262737 12976 net.cpp:380] score_pool4-new -> score_pool4-new
I0715 10:14:50.265661 12976 net.cpp:122] Setting up score_pool4-new
I0715 10:14:50.265683 12976 net.cpp:129] Top shape: 1 3 45 28 (3780)
I0715 10:14:50.265704 12976 net.cpp:137] Memory required for data: 749294236
I0715 10:14:50.265717 12976 layer_factory.hpp:77] Creating layer score_pool4c
I0715 10:14:50.265733 12976 net.cpp:84] Creating Layer score_pool4c
I0715 10:14:50.265743 12976 net.cpp:406] score_pool4c <- score_pool4-new
I0715 10:14:50.265753 12976 net.cpp:406] score_pool4c <- upscore2-new_upscore2-new_0_split_0
I0715 10:14:50.265789 12976 net.cpp:380] score_pool4c -> score_pool4c
I0715 10:14:50.265869 12976 net.cpp:122] Setting up score_pool4c
I0715 10:14:50.265880 12976 net.cpp:129] Top shape: 1 3 36 18 (1944)
I0715 10:14:50.265887 12976 net.cpp:137] Memory required for data: 749302012
I0715 10:14:50.265892 12976 layer_factory.hpp:77] Creating layer fuse_pool4
I0715 10:14:50.265903 12976 net.cpp:84] Creating Layer fuse_pool4
I0715 10:14:50.265911 12976 net.cpp:406] fuse_pool4 <- upscore2-new_upscore2-new_0_split_1
I0715 10:14:50.265923 12976 net.cpp:406] fuse_pool4 <- score_pool4c
I0715 10:14:50.265935 12976 net.cpp:380] fuse_pool4 -> fuse_pool4
I0715 10:14:50.266006 12976 net.cpp:122] Setting up fuse_pool4
I0715 10:14:50.266017 12976 net.cpp:129] Top shape: 1 3 36 18 (1944)
I0715 10:14:50.266021 12976 net.cpp:137] Memory required for data: 749309788
I0715 10:14:50.266028 12976 layer_factory.hpp:77] Creating layer upscore_pool4-new
I0715 10:14:50.266043 12976 net.cpp:84] Creating Layer upscore_pool4-new
I0715 10:14:50.266052 12976 net.cpp:406] upscore_pool4-new <- fuse_pool4
I0715 10:14:50.266065 12976 net.cpp:380] upscore_pool4-new -> upscore_pool4-new
I0715 10:14:50.266662 12976 net.cpp:122] Setting up upscore_pool4-new
I0715 10:14:50.266676 12976 net.cpp:129] Top shape: 1 3 74 38 (8436)
I0715 10:14:50.266680 12976 net.cpp:137] Memory required for data: 749343532
I0715 10:14:50.266706 12976 layer_factory.hpp:77] Creating layer upscore_pool4-new_upscore_pool4-new_0_split
I0715 10:14:50.266716 12976 net.cpp:84] Creating Layer upscore_pool4-new_upscore_pool4-new_0_split
I0715 10:14:50.266731 12976 net.cpp:406] upscore_pool4-new_upscore_pool4-new_0_split <- upscore_pool4-new
I0715 10:14:50.266741 12976 net.cpp:380] upscore_pool4-new_upscore_pool4-new_0_split -> upscore_pool4-new_upscore_pool4-new_0_split_0
I0715 10:14:50.266755 12976 net.cpp:380] upscore_pool4-new_upscore_pool4-new_0_split -> upscore_pool4-new_upscore_pool4-new_0_split_1
I0715 10:14:50.266863 12976 net.cpp:122] Setting up upscore_pool4-new_upscore_pool4-new_0_split
I0715 10:14:50.266875 12976 net.cpp:129] Top shape: 1 3 74 38 (8436)
I0715 10:14:50.266880 12976 net.cpp:129] Top shape: 1 3 74 38 (8436)
I0715 10:14:50.266885 12976 net.cpp:137] Memory required for data: 749411020
I0715 10:14:50.266891 12976 layer_factory.hpp:77] Creating layer score_pool3-new
I0715 10:14:50.266906 12976 net.cpp:84] Creating Layer score_pool3-new
I0715 10:14:50.266914 12976 net.cpp:406] score_pool3-new <- pool3_pool3_0_split_1
I0715 10:14:50.266928 12976 net.cpp:380] score_pool3-new -> score_pool3-new
I0715 10:14:50.270082 12976 net.cpp:122] Setting up score_pool3-new
I0715 10:14:50.270107 12976 net.cpp:129] Top shape: 1 3 89 55 (14685)
I0715 10:14:50.270114 12976 net.cpp:137] Memory required for data: 749469760
I0715 10:14:50.270125 12976 layer_factory.hpp:77] Creating layer score_pool3c
I0715 10:14:50.270143 12976 net.cpp:84] Creating Layer score_pool3c
I0715 10:14:50.270153 12976 net.cpp:406] score_pool3c <- score_pool3-new
I0715 10:14:50.270160 12976 net.cpp:406] score_pool3c <- upscore_pool4-new_upscore_pool4-new_0_split_0
I0715 10:14:50.270172 12976 net.cpp:380] score_pool3c -> score_pool3c
I0715 10:14:50.270251 12976 net.cpp:122] Setting up score_pool3c
I0715 10:14:50.270262 12976 net.cpp:129] Top shape: 1 3 74 38 (8436)
I0715 10:14:50.270267 12976 net.cpp:137] Memory required for data: 749503504
I0715 10:14:50.270273 12976 layer_factory.hpp:77] Creating layer fuse_pool3
I0715 10:14:50.270282 12976 net.cpp:84] Creating Layer fuse_pool3
I0715 10:14:50.270292 12976 net.cpp:406] fuse_pool3 <- upscore_pool4-new_upscore_pool4-new_0_split_1
I0715 10:14:50.270301 12976 net.cpp:406] fuse_pool3 <- score_pool3c
I0715 10:14:50.270311 12976 net.cpp:380] fuse_pool3 -> fuse_pool3
I0715 10:14:50.270380 12976 net.cpp:122] Setting up fuse_pool3
I0715 10:14:50.270392 12976 net.cpp:129] Top shape: 1 3 74 38 (8436)
I0715 10:14:50.270396 12976 net.cpp:137] Memory required for data: 749537248
I0715 10:14:50.270401 12976 layer_factory.hpp:77] Creating layer upscore8-new
I0715 10:14:50.270416 12976 net.cpp:84] Creating Layer upscore8-new
I0715 10:14:50.270423 12976 net.cpp:406] upscore8-new <- fuse_pool3
I0715 10:14:50.270436 12976 net.cpp:380] upscore8-new -> upscore8-new
I0715 10:14:50.271055 12976 net.cpp:122] Setting up upscore8-new
I0715 10:14:50.271069 12976 net.cpp:129] Top shape: 1 3 600 312 (561600)
I0715 10:14:50.271075 12976 net.cpp:137] Memory required for data: 751783648
I0715 10:14:50.271086 12976 layer_factory.hpp:77] Creating layer upscore8_cropped
I0715 10:14:50.271098 12976 net.cpp:84] Creating Layer upscore8_cropped
I0715 10:14:50.271106 12976 net.cpp:406] upscore8_cropped <- upscore8-new
I0715 10:14:50.271116 12976 net.cpp:406] upscore8_cropped <- data_data_0_split_1
I0715 10:14:50.271129 12976 net.cpp:380] upscore8_cropped -> upscore8_cropped
I0715 10:14:50.271193 12976 net.cpp:122] Setting up upscore8_cropped
I0715 10:14:50.271208 12976 net.cpp:129] Top shape: 1 3 512 237 (364032)
I0715 10:14:50.271211 12976 net.cpp:137] Memory required for data: 753239776
I0715 10:14:50.271217 12976 layer_factory.hpp:77] Creating layer upscore8_cropped_upscore8_cropped_0_split
I0715 10:14:50.271226 12976 net.cpp:84] Creating Layer upscore8_cropped_upscore8_cropped_0_split
I0715 10:14:50.271232 12976 net.cpp:406] upscore8_cropped_upscore8_cropped_0_split <- upscore8_cropped
I0715 10:14:50.271242 12976 net.cpp:380] upscore8_cropped_upscore8_cropped_0_split -> upscore8_cropped_upscore8_cropped_0_split_0
I0715 10:14:50.271255 12976 net.cpp:380] upscore8_cropped_upscore8_cropped_0_split -> upscore8_cropped_upscore8_cropped_0_split_1
I0715 10:14:50.271392 12976 net.cpp:122] Setting up upscore8_cropped_upscore8_cropped_0_split
I0715 10:14:50.271410 12976 net.cpp:129] Top shape: 1 3 512 237 (364032)
I0715 10:14:50.271417 12976 net.cpp:129] Top shape: 1 3 512 237 (364032)
I0715 10:14:50.271422 12976 net.cpp:137] Memory required for data: 756152032
I0715 10:14:50.271427 12976 layer_factory.hpp:77] Creating layer prob
I0715 10:14:50.271440 12976 net.cpp:84] Creating Layer prob
I0715 10:14:50.271450 12976 net.cpp:406] prob <- upscore8_cropped_upscore8_cropped_0_split_0
I0715 10:14:50.271459 12976 net.cpp:380] prob -> prob
I0715 10:14:50.271919 12976 net.cpp:122] Setting up prob
I0715 10:14:50.271936 12976 net.cpp:129] Top shape: 1 3 512 237 (364032)
I0715 10:14:50.271942 12976 net.cpp:137] Memory required for data: 757608160
I0715 10:14:50.271950 12976 layer_factory.hpp:77] Creating layer saliency1
I0715 10:14:50.271966 12976 net.cpp:84] Creating Layer saliency1
I0715 10:14:50.271980 12976 net.cpp:406] saliency1 <- prob
I0715 10:14:50.271992 12976 net.cpp:380] saliency1 -> saliency1
I0715 10:14:50.275254 12976 net.cpp:122] Setting up saliency1
I0715 10:14:50.275300 12976 net.cpp:129] Top shape: 1 3 512 237 (364032)
I0715 10:14:50.275348 12976 net.cpp:137] Memory required for data: 759064288
I0715 10:14:50.275368 12976 layer_factory.hpp:77] Creating layer relu_saliency1
I0715 10:14:50.275383 12976 net.cpp:84] Creating Layer relu_saliency1
I0715 10:14:50.275390 12976 net.cpp:406] relu_saliency1 <- saliency1
I0715 10:14:50.275401 12976 net.cpp:367] relu_saliency1 -> saliency1 (in-place)
I0715 10:14:50.275786 12976 net.cpp:122] Setting up relu_saliency1
I0715 10:14:50.275801 12976 net.cpp:129] Top shape: 1 3 512 237 (364032)
I0715 10:14:50.275806 12976 net.cpp:137] Memory required for data: 760520416
I0715 10:14:50.275812 12976 layer_factory.hpp:77] Creating layer saliency
I0715 10:14:50.275828 12976 net.cpp:84] Creating Layer saliency
I0715 10:14:50.275835 12976 net.cpp:406] saliency <- saliency1
I0715 10:14:50.275846 12976 net.cpp:380] saliency -> saliency
I0715 10:14:50.279626 12976 net.cpp:122] Setting up saliency
I0715 10:14:50.279687 12976 net.cpp:129] Top shape: 1 3 512 237 (364032)
I0715 10:14:50.279696 12976 net.cpp:137] Memory required for data: 761976544
I0715 10:14:50.279721 12976 layer_factory.hpp:77] Creating layer saliency_data
I0715 10:14:50.279741 12976 net.cpp:84] Creating Layer saliency_data
I0715 10:14:50.279750 12976 net.cpp:406] saliency_data <- data_data_0_split_2
I0715 10:14:50.279762 12976 net.cpp:406] saliency_data <- saliency
I0715 10:14:50.279778 12976 net.cpp:380] saliency_data -> saliency_data
I0715 10:14:50.279947 12976 net.cpp:122] Setting up saliency_data
I0715 10:14:50.279959 12976 net.cpp:129] Top shape: 1 3 512 237 (364032)
I0715 10:14:50.279966 12976 net.cpp:137] Memory required for data: 763432672
I0715 10:14:50.279973 12976 layer_factory.hpp:77] Creating layer crop
I0715 10:14:50.280105 12976 net.cpp:84] Creating Layer crop
I0715 10:14:50.280118 12976 net.cpp:406] crop <- label_data_1_split_0
I0715 10:14:50.280128 12976 net.cpp:406] crop <- saliency_data
I0715 10:14:50.280138 12976 net.cpp:406] crop <- crop_margin
I0715 10:14:50.280145 12976 net.cpp:406] crop <- crop_prob
I0715 10:14:50.280153 12976 net.cpp:406] crop <- crop_sample_batch
I0715 10:14:50.280166 12976 net.cpp:380] crop -> data-R
I0715 10:14:50.280182 12976 net.cpp:380] crop -> crop_info
I0715 10:14:50.292274 12976 net.cpp:122] Setting up crop
I0715 10:14:50.292315 12976 net.cpp:129] Top shape: 1 3 512 237 (364032)
I0715 10:14:50.292322 12976 net.cpp:129] Top shape: 1 2 4 (8)
I0715 10:14:50.292328 12976 net.cpp:137] Memory required for data: 764888832
I0715 10:14:50.292340 12976 layer_factory.hpp:77] Creating layer data-R_crop_0_split
I0715 10:14:50.292368 12976 net.cpp:84] Creating Layer data-R_crop_0_split
I0715 10:14:50.292376 12976 net.cpp:406] data-R_crop_0_split <- data-R
I0715 10:14:50.292387 12976 net.cpp:380] data-R_crop_0_split -> data-R_crop_0_split_0
I0715 10:14:50.292412 12976 net.cpp:380] data-R_crop_0_split -> data-R_crop_0_split_1
I0715 10:14:50.292621 12976 net.cpp:122] Setting up data-R_crop_0_split
I0715 10:14:50.292651 12976 net.cpp:129] Top shape: 1 3 512 237 (364032)
I0715 10:14:50.292666 12976 net.cpp:129] Top shape: 1 3 512 237 (364032)
I0715 10:14:50.292677 12976 net.cpp:137] Memory required for data: 767801088
I0715 10:14:50.292691 12976 layer_factory.hpp:77] Creating layer conv1_1-R
I0715 10:14:50.292723 12976 net.cpp:84] Creating Layer conv1_1-R
I0715 10:14:50.292742 12976 net.cpp:406] conv1_1-R <- data-R_crop_0_split_0
I0715 10:14:50.292768 12976 net.cpp:380] conv1_1-R -> conv1_1-R
I0715 10:14:50.306377 12976 net.cpp:122] Setting up conv1_1-R
I0715 10:14:50.306416 12976 net.cpp:129] Top shape: 1 64 710 435 (19766400)
I0715 10:14:50.306426 12976 net.cpp:137] Memory required for data: 846866688
I0715 10:14:50.306462 12976 layer_factory.hpp:77] Creating layer relu1_1-R
I0715 10:14:50.306514 12976 net.cpp:84] Creating Layer relu1_1-R
I0715 10:14:50.306526 12976 net.cpp:406] relu1_1-R <- conv1_1-R
I0715 10:14:50.306545 12976 net.cpp:367] relu1_1-R -> conv1_1-R (in-place)
I0715 10:14:50.307204 12976 net.cpp:122] Setting up relu1_1-R
I0715 10:14:50.307222 12976 net.cpp:129] Top shape: 1 64 710 435 (19766400)
I0715 10:14:50.307227 12976 net.cpp:137] Memory required for data: 925932288
I0715 10:14:50.307235 12976 layer_factory.hpp:77] Creating layer conv1_2-R
I0715 10:14:50.307257 12976 net.cpp:84] Creating Layer conv1_2-R
I0715 10:14:50.307268 12976 net.cpp:406] conv1_2-R <- conv1_1-R
I0715 10:14:50.307312 12976 net.cpp:380] conv1_2-R -> conv1_2-R
I0715 10:14:50.315521 12976 net.cpp:122] Setting up conv1_2-R
I0715 10:14:50.315549 12976 net.cpp:129] Top shape: 1 64 710 435 (19766400)
I0715 10:14:50.315559 12976 net.cpp:137] Memory required for data: 1004997888
I0715 10:14:50.315575 12976 layer_factory.hpp:77] Creating layer relu1_2-R
I0715 10:14:50.315590 12976 net.cpp:84] Creating Layer relu1_2-R
I0715 10:14:50.315599 12976 net.cpp:406] relu1_2-R <- conv1_2-R
I0715 10:14:50.315615 12976 net.cpp:367] relu1_2-R -> conv1_2-R (in-place)
I0715 10:14:50.316107 12976 net.cpp:122] Setting up relu1_2-R
I0715 10:14:50.316133 12976 net.cpp:129] Top shape: 1 64 710 435 (19766400)
I0715 10:14:50.316140 12976 net.cpp:137] Memory required for data: 1084063488
I0715 10:14:50.316148 12976 layer_factory.hpp:77] Creating layer pool1-R
I0715 10:14:50.316170 12976 net.cpp:84] Creating Layer pool1-R
I0715 10:14:50.316179 12976 net.cpp:406] pool1-R <- conv1_2-R
I0715 10:14:50.316202 12976 net.cpp:380] pool1-R -> pool1-R
I0715 10:14:50.316398 12976 net.cpp:122] Setting up pool1-R
I0715 10:14:50.316416 12976 net.cpp:129] Top shape: 1 64 355 218 (4952960)
I0715 10:14:50.316423 12976 net.cpp:137] Memory required for data: 1103875328
I0715 10:14:50.316429 12976 layer_factory.hpp:77] Creating layer conv2_1-R
I0715 10:14:50.316450 12976 net.cpp:84] Creating Layer conv2_1-R
I0715 10:14:50.316458 12976 net.cpp:406] conv2_1-R <- pool1-R
I0715 10:14:50.316474 12976 net.cpp:380] conv2_1-R -> conv2_1-R
I0715 10:14:50.320801 12976 net.cpp:122] Setting up conv2_1-R
I0715 10:14:50.320834 12976 net.cpp:129] Top shape: 1 128 355 218 (9905920)
I0715 10:14:50.320844 12976 net.cpp:137] Memory required for data: 1143499008
I0715 10:14:50.320863 12976 layer_factory.hpp:77] Creating layer relu2_1-R
I0715 10:14:50.320876 12976 net.cpp:84] Creating Layer relu2_1-R
I0715 10:14:50.320883 12976 net.cpp:406] relu2_1-R <- conv2_1-R
I0715 10:14:50.320899 12976 net.cpp:367] relu2_1-R -> conv2_1-R (in-place)
I0715 10:14:50.321370 12976 net.cpp:122] Setting up relu2_1-R
I0715 10:14:50.321391 12976 net.cpp:129] Top shape: 1 128 355 218 (9905920)
I0715 10:14:50.321399 12976 net.cpp:137] Memory required for data: 1183122688
I0715 10:14:50.321408 12976 layer_factory.hpp:77] Creating layer conv2_2-R
I0715 10:14:50.321429 12976 net.cpp:84] Creating Layer conv2_2-R
I0715 10:14:50.321442 12976 net.cpp:406] conv2_2-R <- conv2_1-R
I0715 10:14:50.321456 12976 net.cpp:380] conv2_2-R -> conv2_2-R
I0715 10:14:50.326076 12976 net.cpp:122] Setting up conv2_2-R
I0715 10:14:50.326115 12976 net.cpp:129] Top shape: 1 128 355 218 (9905920)
I0715 10:14:50.326131 12976 net.cpp:137] Memory required for data: 1222746368
I0715 10:14:50.326170 12976 layer_factory.hpp:77] Creating layer relu2_2-R
I0715 10:14:50.326231 12976 net.cpp:84] Creating Layer relu2_2-R
I0715 10:14:50.326241 12976 net.cpp:406] relu2_2-R <- conv2_2-R
I0715 10:14:50.326256 12976 net.cpp:367] relu2_2-R -> conv2_2-R (in-place)
I0715 10:14:50.328447 12976 net.cpp:122] Setting up relu2_2-R
I0715 10:14:50.328477 12976 net.cpp:129] Top shape: 1 128 355 218 (9905920)
I0715 10:14:50.328486 12976 net.cpp:137] Memory required for data: 1262370048
I0715 10:14:50.328496 12976 layer_factory.hpp:77] Creating layer pool2-R
I0715 10:14:50.328516 12976 net.cpp:84] Creating Layer pool2-R
I0715 10:14:50.328524 12976 net.cpp:406] pool2-R <- conv2_2-R
I0715 10:14:50.328542 12976 net.cpp:380] pool2-R -> pool2-R
I0715 10:14:50.328733 12976 net.cpp:122] Setting up pool2-R
I0715 10:14:50.328753 12976 net.cpp:129] Top shape: 1 128 178 109 (2483456)
I0715 10:14:50.328763 12976 net.cpp:137] Memory required for data: 1272303872
I0715 10:14:50.328771 12976 layer_factory.hpp:77] Creating layer conv3_1-R
I0715 10:14:50.328795 12976 net.cpp:84] Creating Layer conv3_1-R
I0715 10:14:50.328815 12976 net.cpp:406] conv3_1-R <- pool2-R
I0715 10:14:50.328831 12976 net.cpp:380] conv3_1-R -> conv3_1-R
I0715 10:14:50.339607 12976 net.cpp:122] Setting up conv3_1-R
I0715 10:14:50.339658 12976 net.cpp:129] Top shape: 1 256 178 109 (4966912)
I0715 10:14:50.339668 12976 net.cpp:137] Memory required for data: 1292171520
I0715 10:14:50.339699 12976 layer_factory.hpp:77] Creating layer relu3_1-R
I0715 10:14:50.339715 12976 net.cpp:84] Creating Layer relu3_1-R
I0715 10:14:50.339735 12976 net.cpp:406] relu3_1-R <- conv3_1-R
I0715 10:14:50.339749 12976 net.cpp:367] relu3_1-R -> conv3_1-R (in-place)
I0715 10:14:50.341037 12976 net.cpp:122] Setting up relu3_1-R
I0715 10:14:50.341080 12976 net.cpp:129] Top shape: 1 256 178 109 (4966912)
I0715 10:14:50.341101 12976 net.cpp:137] Memory required for data: 1312039168
I0715 10:14:50.341115 12976 layer_factory.hpp:77] Creating layer conv3_2-R
I0715 10:14:50.341148 12976 net.cpp:84] Creating Layer conv3_2-R
I0715 10:14:50.341179 12976 net.cpp:406] conv3_2-R <- conv3_1-R
I0715 10:14:50.341220 12976 net.cpp:380] conv3_2-R -> conv3_2-R
I0715 10:14:50.359048 12976 net.cpp:122] Setting up conv3_2-R
I0715 10:14:50.359097 12976 net.cpp:129] Top shape: 1 256 178 109 (4966912)
I0715 10:14:50.359113 12976 net.cpp:137] Memory required for data: 1331906816
I0715 10:14:50.359153 12976 layer_factory.hpp:77] Creating layer relu3_2-R
I0715 10:14:50.359171 12976 net.cpp:84] Creating Layer relu3_2-R
I0715 10:14:50.359181 12976 net.cpp:406] relu3_2-R <- conv3_2-R
I0715 10:14:50.359197 12976 net.cpp:367] relu3_2-R -> conv3_2-R (in-place)
I0715 10:14:50.360064 12976 net.cpp:122] Setting up relu3_2-R
I0715 10:14:50.360123 12976 net.cpp:129] Top shape: 1 256 178 109 (4966912)
I0715 10:14:50.360146 12976 net.cpp:137] Memory required for data: 1351774464
I0715 10:14:50.360157 12976 layer_factory.hpp:77] Creating layer conv3_3-R
I0715 10:14:50.360183 12976 net.cpp:84] Creating Layer conv3_3-R
I0715 10:14:50.360198 12976 net.cpp:406] conv3_3-R <- conv3_2-R
I0715 10:14:50.360224 12976 net.cpp:380] conv3_3-R -> conv3_3-R
I0715 10:14:50.377269 12976 net.cpp:122] Setting up conv3_3-R
I0715 10:14:50.377342 12976 net.cpp:129] Top shape: 1 256 178 109 (4966912)
I0715 10:14:50.377364 12976 net.cpp:137] Memory required for data: 1371642112
I0715 10:14:50.377420 12976 layer_factory.hpp:77] Creating layer relu3_3-R
I0715 10:14:50.377465 12976 net.cpp:84] Creating Layer relu3_3-R
I0715 10:14:50.377501 12976 net.cpp:406] relu3_3-R <- conv3_3-R
I0715 10:14:50.377527 12976 net.cpp:367] relu3_3-R -> conv3_3-R (in-place)
I0715 10:14:50.378666 12976 net.cpp:122] Setting up relu3_3-R
I0715 10:14:50.378708 12976 net.cpp:129] Top shape: 1 256 178 109 (4966912)
I0715 10:14:50.378737 12976 net.cpp:137] Memory required for data: 1391509760
I0715 10:14:50.378767 12976 layer_factory.hpp:77] Creating layer pool3-R
I0715 10:14:50.378844 12976 net.cpp:84] Creating Layer pool3-R
I0715 10:14:50.378865 12976 net.cpp:406] pool3-R <- conv3_3-R
I0715 10:14:50.378901 12976 net.cpp:380] pool3-R -> pool3-R
I0715 10:14:50.379225 12976 net.cpp:122] Setting up pool3-R
I0715 10:14:50.379269 12976 net.cpp:129] Top shape: 1 256 89 55 (1253120)
I0715 10:14:50.379319 12976 net.cpp:137] Memory required for data: 1396522240
I0715 10:14:50.379350 12976 layer_factory.hpp:77] Creating layer pool3-R_pool3-R_0_split
I0715 10:14:50.379405 12976 net.cpp:84] Creating Layer pool3-R_pool3-R_0_split
I0715 10:14:50.379426 12976 net.cpp:406] pool3-R_pool3-R_0_split <- pool3-R
I0715 10:14:50.379467 12976 net.cpp:380] pool3-R_pool3-R_0_split -> pool3-R_pool3-R_0_split_0
I0715 10:14:50.379503 12976 net.cpp:380] pool3-R_pool3-R_0_split -> pool3-R_pool3-R_0_split_1
I0715 10:14:50.379822 12976 net.cpp:122] Setting up pool3-R_pool3-R_0_split
I0715 10:14:50.379845 12976 net.cpp:129] Top shape: 1 256 89 55 (1253120)
I0715 10:14:50.379864 12976 net.cpp:129] Top shape: 1 256 89 55 (1253120)
I0715 10:14:50.379878 12976 net.cpp:137] Memory required for data: 1406547200
I0715 10:14:50.379897 12976 layer_factory.hpp:77] Creating layer conv4_1-R
I0715 10:14:50.379933 12976 net.cpp:84] Creating Layer conv4_1-R
I0715 10:14:50.379956 12976 net.cpp:406] conv4_1-R <- pool3-R_pool3-R_0_split_0
I0715 10:14:50.379989 12976 net.cpp:380] conv4_1-R -> conv4_1-R
I0715 10:14:50.406540 12976 net.cpp:122] Setting up conv4_1-R
I0715 10:14:50.406599 12976 net.cpp:129] Top shape: 1 512 89 55 (2506240)
I0715 10:14:50.406608 12976 net.cpp:137] Memory required for data: 1416572160
I0715 10:14:50.406632 12976 layer_factory.hpp:77] Creating layer relu4_1-R
I0715 10:14:50.406647 12976 net.cpp:84] Creating Layer relu4_1-R
I0715 10:14:50.406656 12976 net.cpp:406] relu4_1-R <- conv4_1-R
I0715 10:14:50.406672 12976 net.cpp:367] relu4_1-R -> conv4_1-R (in-place)
I0715 10:14:50.407397 12976 net.cpp:122] Setting up relu4_1-R
I0715 10:14:50.407428 12976 net.cpp:129] Top shape: 1 512 89 55 (2506240)
I0715 10:14:50.407438 12976 net.cpp:137] Memory required for data: 1426597120
I0715 10:14:50.407460 12976 layer_factory.hpp:77] Creating layer conv4_2-R
I0715 10:14:50.407498 12976 net.cpp:84] Creating Layer conv4_2-R
I0715 10:14:50.407516 12976 net.cpp:406] conv4_2-R <- conv4_1-R
I0715 10:14:50.407560 12976 net.cpp:380] conv4_2-R -> conv4_2-R
I0715 10:14:50.428439 12976 net.cpp:122] Setting up conv4_2-R
I0715 10:14:50.428508 12976 net.cpp:129] Top shape: 1 512 89 55 (2506240)
I0715 10:14:50.428516 12976 net.cpp:137] Memory required for data: 1436622080
I0715 10:14:50.428547 12976 layer_factory.hpp:77] Creating layer relu4_2-R
I0715 10:14:50.428565 12976 net.cpp:84] Creating Layer relu4_2-R
I0715 10:14:50.428573 12976 net.cpp:406] relu4_2-R <- conv4_2-R
I0715 10:14:50.428588 12976 net.cpp:367] relu4_2-R -> conv4_2-R (in-place)
I0715 10:14:50.429179 12976 net.cpp:122] Setting up relu4_2-R
I0715 10:14:50.429221 12976 net.cpp:129] Top shape: 1 512 89 55 (2506240)
I0715 10:14:50.429230 12976 net.cpp:137] Memory required for data: 1446647040
I0715 10:14:50.429236 12976 layer_factory.hpp:77] Creating layer conv4_3-R
I0715 10:14:50.429280 12976 net.cpp:84] Creating Layer conv4_3-R
I0715 10:14:50.429296 12976 net.cpp:406] conv4_3-R <- conv4_2-R
I0715 10:14:50.429304 12976 net.cpp:380] conv4_3-R -> conv4_3-R
I0715 10:14:50.445511 12976 net.cpp:122] Setting up conv4_3-R
I0715 10:14:50.445569 12976 net.cpp:129] Top shape: 1 512 89 55 (2506240)
I0715 10:14:50.445576 12976 net.cpp:137] Memory required for data: 1456672000
I0715 10:14:50.445596 12976 layer_factory.hpp:77] Creating layer relu4_3-R
I0715 10:14:50.445636 12976 net.cpp:84] Creating Layer relu4_3-R
I0715 10:14:50.445649 12976 net.cpp:406] relu4_3-R <- conv4_3-R
I0715 10:14:50.445662 12976 net.cpp:367] relu4_3-R -> conv4_3-R (in-place)
I0715 10:14:50.447561 12976 net.cpp:122] Setting up relu4_3-R
I0715 10:14:50.447587 12976 net.cpp:129] Top shape: 1 512 89 55 (2506240)
I0715 10:14:50.447594 12976 net.cpp:137] Memory required for data: 1466696960
I0715 10:14:50.447603 12976 layer_factory.hpp:77] Creating layer pool4-R
I0715 10:14:50.447646 12976 net.cpp:84] Creating Layer pool4-R
I0715 10:14:50.447659 12976 net.cpp:406] pool4-R <- conv4_3-R
I0715 10:14:50.447676 12976 net.cpp:380] pool4-R -> pool4-R
I0715 10:14:50.447948 12976 net.cpp:122] Setting up pool4-R
I0715 10:14:50.447962 12976 net.cpp:129] Top shape: 1 512 45 28 (645120)
I0715 10:14:50.447968 12976 net.cpp:137] Memory required for data: 1469277440
I0715 10:14:50.447974 12976 layer_factory.hpp:77] Creating layer pool4-R_pool4-R_0_split
I0715 10:14:50.447994 12976 net.cpp:84] Creating Layer pool4-R_pool4-R_0_split
I0715 10:14:50.448000 12976 net.cpp:406] pool4-R_pool4-R_0_split <- pool4-R
I0715 10:14:50.448020 12976 net.cpp:380] pool4-R_pool4-R_0_split -> pool4-R_pool4-R_0_split_0
I0715 10:14:50.448040 12976 net.cpp:380] pool4-R_pool4-R_0_split -> pool4-R_pool4-R_0_split_1
I0715 10:14:50.448173 12976 net.cpp:122] Setting up pool4-R_pool4-R_0_split
I0715 10:14:50.448187 12976 net.cpp:129] Top shape: 1 512 45 28 (645120)
I0715 10:14:50.448199 12976 net.cpp:129] Top shape: 1 512 45 28 (645120)
I0715 10:14:50.448207 12976 net.cpp:137] Memory required for data: 1474438400
I0715 10:14:50.448211 12976 layer_factory.hpp:77] Creating layer conv5_1-R
I0715 10:14:50.448243 12976 net.cpp:84] Creating Layer conv5_1-R
I0715 10:14:50.448261 12976 net.cpp:406] conv5_1-R <- pool4-R_pool4-R_0_split_0
I0715 10:14:50.448277 12976 net.cpp:380] conv5_1-R -> conv5_1-R
I0715 10:14:50.464772 12976 net.cpp:122] Setting up conv5_1-R
I0715 10:14:50.464818 12976 net.cpp:129] Top shape: 1 512 45 28 (645120)
I0715 10:14:50.464826 12976 net.cpp:137] Memory required for data: 1477018880
I0715 10:14:50.464907 12976 layer_factory.hpp:77] Creating layer relu5_1-R
I0715 10:14:50.464941 12976 net.cpp:84] Creating Layer relu5_1-R
I0715 10:14:50.464954 12976 net.cpp:406] relu5_1-R <- conv5_1-R
I0715 10:14:50.464972 12976 net.cpp:367] relu5_1-R -> conv5_1-R (in-place)
I0715 10:14:50.465621 12976 net.cpp:122] Setting up relu5_1-R
I0715 10:14:50.465656 12976 net.cpp:129] Top shape: 1 512 45 28 (645120)
I0715 10:14:50.465662 12976 net.cpp:137] Memory required for data: 1479599360
I0715 10:14:50.465668 12976 layer_factory.hpp:77] Creating layer conv5_2-R
I0715 10:14:50.465710 12976 net.cpp:84] Creating Layer conv5_2-R
I0715 10:14:50.465718 12976 net.cpp:406] conv5_2-R <- conv5_1-R
I0715 10:14:50.465739 12976 net.cpp:380] conv5_2-R -> conv5_2-R
I0715 10:14:50.484450 12976 net.cpp:122] Setting up conv5_2-R
I0715 10:14:50.484495 12976 net.cpp:129] Top shape: 1 512 45 28 (645120)
I0715 10:14:50.484509 12976 net.cpp:137] Memory required for data: 1482179840
I0715 10:14:50.484565 12976 layer_factory.hpp:77] Creating layer relu5_2-R
I0715 10:14:50.484587 12976 net.cpp:84] Creating Layer relu5_2-R
I0715 10:14:50.484616 12976 net.cpp:406] relu5_2-R <- conv5_2-R
I0715 10:14:50.484683 12976 net.cpp:367] relu5_2-R -> conv5_2-R (in-place)
I0715 10:14:50.485546 12976 net.cpp:122] Setting up relu5_2-R
I0715 10:14:50.485632 12976 net.cpp:129] Top shape: 1 512 45 28 (645120)
I0715 10:14:50.485652 12976 net.cpp:137] Memory required for data: 1484760320
I0715 10:14:50.485666 12976 layer_factory.hpp:77] Creating layer conv5_3-R
I0715 10:14:50.485720 12976 net.cpp:84] Creating Layer conv5_3-R
I0715 10:14:50.485752 12976 net.cpp:406] conv5_3-R <- conv5_2-R
I0715 10:14:50.485810 12976 net.cpp:380] conv5_3-R -> conv5_3-R
I0715 10:14:50.503170 12976 net.cpp:122] Setting up conv5_3-R
I0715 10:14:50.503193 12976 net.cpp:129] Top shape: 1 512 45 28 (645120)
I0715 10:14:50.503201 12976 net.cpp:137] Memory required for data: 1487340800
I0715 10:14:50.503217 12976 layer_factory.hpp:77] Creating layer relu5_3-R
I0715 10:14:50.503235 12976 net.cpp:84] Creating Layer relu5_3-R
I0715 10:14:50.503262 12976 net.cpp:406] relu5_3-R <- conv5_3-R
I0715 10:14:50.503283 12976 net.cpp:367] relu5_3-R -> conv5_3-R (in-place)
I0715 10:14:50.503868 12976 net.cpp:122] Setting up relu5_3-R
I0715 10:14:50.503880 12976 net.cpp:129] Top shape: 1 512 45 28 (645120)
I0715 10:14:50.503890 12976 net.cpp:137] Memory required for data: 1489921280
I0715 10:14:50.503895 12976 layer_factory.hpp:77] Creating layer pool5-R
I0715 10:14:50.503921 12976 net.cpp:84] Creating Layer pool5-R
I0715 10:14:50.503926 12976 net.cpp:406] pool5-R <- conv5_3-R
I0715 10:14:50.503940 12976 net.cpp:380] pool5-R -> pool5-R
I0715 10:14:50.504127 12976 net.cpp:122] Setting up pool5-R
I0715 10:14:50.504146 12976 net.cpp:129] Top shape: 1 512 23 14 (164864)
I0715 10:14:50.504153 12976 net.cpp:137] Memory required for data: 1490580736
I0715 10:14:50.504160 12976 layer_factory.hpp:77] Creating layer fc6-R
I0715 10:14:50.504184 12976 net.cpp:84] Creating Layer fc6-R
I0715 10:14:50.504192 12976 net.cpp:406] fc6-R <- pool5-R
I0715 10:14:50.504223 12976 net.cpp:380] fc6-R -> fc6-R
I0715 10:14:51.132472 12976 net.cpp:122] Setting up fc6-R
I0715 10:14:51.132552 12976 net.cpp:129] Top shape: 1 4096 17 8 (557056)
I0715 10:14:51.132565 12976 net.cpp:137] Memory required for data: 1492808960
I0715 10:14:51.132594 12976 layer_factory.hpp:77] Creating layer relu6-R
I0715 10:14:51.132621 12976 net.cpp:84] Creating Layer relu6-R
I0715 10:14:51.132640 12976 net.cpp:406] relu6-R <- fc6-R
I0715 10:14:51.132666 12976 net.cpp:367] relu6-R -> fc6-R (in-place)
I0715 10:14:51.133141 12976 net.cpp:122] Setting up relu6-R
I0715 10:14:51.133160 12976 net.cpp:129] Top shape: 1 4096 17 8 (557056)
I0715 10:14:51.133164 12976 net.cpp:137] Memory required for data: 1495037184
I0715 10:14:51.133168 12976 layer_factory.hpp:77] Creating layer drop6-R
I0715 10:14:51.133175 12976 net.cpp:84] Creating Layer drop6-R
I0715 10:14:51.133179 12976 net.cpp:406] drop6-R <- fc6-R
I0715 10:14:51.133189 12976 net.cpp:367] drop6-R -> fc6-R (in-place)
I0715 10:14:51.133299 12976 net.cpp:122] Setting up drop6-R
I0715 10:14:51.133314 12976 net.cpp:129] Top shape: 1 4096 17 8 (557056)
I0715 10:14:51.133327 12976 net.cpp:137] Memory required for data: 1497265408
I0715 10:14:51.133334 12976 layer_factory.hpp:77] Creating layer fc7-R
I0715 10:14:51.133359 12976 net.cpp:84] Creating Layer fc7-R
I0715 10:14:51.133369 12976 net.cpp:406] fc7-R <- fc6-R
I0715 10:14:51.133405 12976 net.cpp:380] fc7-R -> fc7-R
I0715 10:14:51.222473 12976 net.cpp:122] Setting up fc7-R
I0715 10:14:51.222563 12976 net.cpp:129] Top shape: 1 4096 17 8 (557056)
I0715 10:14:51.222568 12976 net.cpp:137] Memory required for data: 1499493632
I0715 10:14:51.222594 12976 layer_factory.hpp:77] Creating layer relu7-R
I0715 10:14:51.222631 12976 net.cpp:84] Creating Layer relu7-R
I0715 10:14:51.222657 12976 net.cpp:406] relu7-R <- fc7-R
I0715 10:14:51.222681 12976 net.cpp:367] relu7-R -> fc7-R (in-place)
I0715 10:14:51.223548 12976 net.cpp:122] Setting up relu7-R
I0715 10:14:51.223583 12976 net.cpp:129] Top shape: 1 4096 17 8 (557056)
I0715 10:14:51.223593 12976 net.cpp:137] Memory required for data: 1501721856
I0715 10:14:51.223601 12976 layer_factory.hpp:77] Creating layer drop7-R
I0715 10:14:51.223646 12976 net.cpp:84] Creating Layer drop7-R
I0715 10:14:51.223659 12976 net.cpp:406] drop7-R <- fc7-R
I0715 10:14:51.223680 12976 net.cpp:367] drop7-R -> fc7-R (in-place)
I0715 10:14:51.223825 12976 net.cpp:122] Setting up drop7-R
I0715 10:14:51.223850 12976 net.cpp:129] Top shape: 1 4096 17 8 (557056)
I0715 10:14:51.223861 12976 net.cpp:137] Memory required for data: 1503950080
I0715 10:14:51.223868 12976 layer_factory.hpp:77] Creating layer score_fr-new-R
I0715 10:14:51.223893 12976 net.cpp:84] Creating Layer score_fr-new-R
I0715 10:14:51.223913 12976 net.cpp:406] score_fr-new-R <- fc7-R
I0715 10:14:51.223948 12976 net.cpp:380] score_fr-new-R -> score_fr-new-R
I0715 10:14:51.228791 12976 net.cpp:122] Setting up score_fr-new-R
I0715 10:14:51.228837 12976 net.cpp:129] Top shape: 1 3 17 8 (408)
I0715 10:14:51.228848 12976 net.cpp:137] Memory required for data: 1503951712
I0715 10:14:51.228864 12976 layer_factory.hpp:77] Creating layer upscore2-new-R
I0715 10:14:51.228971 12976 net.cpp:84] Creating Layer upscore2-new-R
I0715 10:14:51.228987 12976 net.cpp:406] upscore2-new-R <- score_fr-new-R
I0715 10:14:51.229013 12976 net.cpp:380] upscore2-new-R -> upscore2-new-R
I0715 10:14:51.229809 12976 net.cpp:122] Setting up upscore2-new-R
I0715 10:14:51.229821 12976 net.cpp:129] Top shape: 1 3 36 18 (1944)
I0715 10:14:51.229825 12976 net.cpp:137] Memory required for data: 1503959488
I0715 10:14:51.229833 12976 layer_factory.hpp:77] Creating layer upscore2-new-R_upscore2-new-R_0_split
I0715 10:14:51.229845 12976 net.cpp:84] Creating Layer upscore2-new-R_upscore2-new-R_0_split
I0715 10:14:51.229849 12976 net.cpp:406] upscore2-new-R_upscore2-new-R_0_split <- upscore2-new-R
I0715 10:14:51.229859 12976 net.cpp:380] upscore2-new-R_upscore2-new-R_0_split -> upscore2-new-R_upscore2-new-R_0_split_0
I0715 10:14:51.229873 12976 net.cpp:380] upscore2-new-R_upscore2-new-R_0_split -> upscore2-new-R_upscore2-new-R_0_split_1
I0715 10:14:51.230005 12976 net.cpp:122] Setting up upscore2-new-R_upscore2-new-R_0_split
I0715 10:14:51.230021 12976 net.cpp:129] Top shape: 1 3 36 18 (1944)
I0715 10:14:51.230036 12976 net.cpp:129] Top shape: 1 3 36 18 (1944)
I0715 10:14:51.230041 12976 net.cpp:137] Memory required for data: 1503975040
I0715 10:14:51.230046 12976 layer_factory.hpp:77] Creating layer score_pool4-new-R
I0715 10:14:51.230069 12976 net.cpp:84] Creating Layer score_pool4-new-R
I0715 10:14:51.230080 12976 net.cpp:406] score_pool4-new-R <- pool4-R_pool4-R_0_split_1
I0715 10:14:51.230101 12976 net.cpp:380] score_pool4-new-R -> score_pool4-new-R
I0715 10:14:51.233227 12976 net.cpp:122] Setting up score_pool4-new-R
I0715 10:14:51.233280 12976 net.cpp:129] Top shape: 1 3 45 28 (3780)
I0715 10:14:51.233288 12976 net.cpp:137] Memory required for data: 1503990160
I0715 10:14:51.233297 12976 layer_factory.hpp:77] Creating layer score_pool4c-R
I0715 10:14:51.233322 12976 net.cpp:84] Creating Layer score_pool4c-R
I0715 10:14:51.233336 12976 net.cpp:406] score_pool4c-R <- score_pool4-new-R
I0715 10:14:51.233357 12976 net.cpp:406] score_pool4c-R <- upscore2-new-R_upscore2-new-R_0_split_0
I0715 10:14:51.233371 12976 net.cpp:380] score_pool4c-R -> score_pool4c-R
I0715 10:14:51.233481 12976 net.cpp:122] Setting up score_pool4c-R
I0715 10:14:51.233510 12976 net.cpp:129] Top shape: 1 3 36 18 (1944)
I0715 10:14:51.233521 12976 net.cpp:137] Memory required for data: 1503997936
I0715 10:14:51.233537 12976 layer_factory.hpp:77] Creating layer fuse_pool4-R
I0715 10:14:51.233556 12976 net.cpp:84] Creating Layer fuse_pool4-R
I0715 10:14:51.233575 12976 net.cpp:406] fuse_pool4-R <- upscore2-new-R_upscore2-new-R_0_split_1
I0715 10:14:51.233602 12976 net.cpp:406] fuse_pool4-R <- score_pool4c-R
I0715 10:14:51.233623 12976 net.cpp:380] fuse_pool4-R -> fuse_pool4-R
I0715 10:14:51.233727 12976 net.cpp:122] Setting up fuse_pool4-R
I0715 10:14:51.233739 12976 net.cpp:129] Top shape: 1 3 36 18 (1944)
I0715 10:14:51.233747 12976 net.cpp:137] Memory required for data: 1504005712
I0715 10:14:51.233758 12976 layer_factory.hpp:77] Creating layer upscore_pool4-new-R
I0715 10:14:51.233789 12976 net.cpp:84] Creating Layer upscore_pool4-new-R
I0715 10:14:51.233801 12976 net.cpp:406] upscore_pool4-new-R <- fuse_pool4-R
I0715 10:14:51.233814 12976 net.cpp:380] upscore_pool4-new-R -> upscore_pool4-new-R
I0715 10:14:51.234769 12976 net.cpp:122] Setting up upscore_pool4-new-R
I0715 10:14:51.234787 12976 net.cpp:129] Top shape: 1 3 74 38 (8436)
I0715 10:14:51.234797 12976 net.cpp:137] Memory required for data: 1504039456
I0715 10:14:51.234807 12976 layer_factory.hpp:77] Creating layer upscore_pool4-new-R_upscore_pool4-new-R_0_split
I0715 10:14:51.234827 12976 net.cpp:84] Creating Layer upscore_pool4-new-R_upscore_pool4-new-R_0_split
I0715 10:14:51.234840 12976 net.cpp:406] upscore_pool4-new-R_upscore_pool4-new-R_0_split <- upscore_pool4-new-R
I0715 10:14:51.234860 12976 net.cpp:380] upscore_pool4-new-R_upscore_pool4-new-R_0_split -> upscore_pool4-new-R_upscore_pool4-new-R_0_split_0
I0715 10:14:51.234880 12976 net.cpp:380] upscore_pool4-new-R_upscore_pool4-new-R_0_split -> upscore_pool4-new-R_upscore_pool4-new-R_0_split_1
I0715 10:14:51.235178 12976 net.cpp:122] Setting up upscore_pool4-new-R_upscore_pool4-new-R_0_split
I0715 10:14:51.235201 12976 net.cpp:129] Top shape: 1 3 74 38 (8436)
I0715 10:14:51.235213 12976 net.cpp:129] Top shape: 1 3 74 38 (8436)
I0715 10:14:51.235216 12976 net.cpp:137] Memory required for data: 1504106944
I0715 10:14:51.235220 12976 layer_factory.hpp:77] Creating layer score_pool3-new-R
I0715 10:14:51.235241 12976 net.cpp:84] Creating Layer score_pool3-new-R
I0715 10:14:51.235255 12976 net.cpp:406] score_pool3-new-R <- pool3-R_pool3-R_0_split_1
I0715 10:14:51.235302 12976 net.cpp:380] score_pool3-new-R -> score_pool3-new-R
I0715 10:14:51.240067 12976 net.cpp:122] Setting up score_pool3-new-R
I0715 10:14:51.240097 12976 net.cpp:129] Top shape: 1 3 89 55 (14685)
I0715 10:14:51.240118 12976 net.cpp:137] Memory required for data: 1504165684
I0715 10:14:51.240130 12976 layer_factory.hpp:77] Creating layer score_pool3c-R
I0715 10:14:51.240139 12976 net.cpp:84] Creating Layer score_pool3c-R
I0715 10:14:51.240147 12976 net.cpp:406] score_pool3c-R <- score_pool3-new-R
I0715 10:14:51.240154 12976 net.cpp:406] score_pool3c-R <- upscore_pool4-new-R_upscore_pool4-new-R_0_split_0
I0715 10:14:51.240170 12976 net.cpp:380] score_pool3c-R -> score_pool3c-R
I0715 10:14:51.240247 12976 net.cpp:122] Setting up score_pool3c-R
I0715 10:14:51.240263 12976 net.cpp:129] Top shape: 1 3 74 38 (8436)
I0715 10:14:51.240272 12976 net.cpp:137] Memory required for data: 1504199428
I0715 10:14:51.240288 12976 layer_factory.hpp:77] Creating layer fuse_pool3-R
I0715 10:14:51.240324 12976 net.cpp:84] Creating Layer fuse_pool3-R
I0715 10:14:51.240339 12976 net.cpp:406] fuse_pool3-R <- upscore_pool4-new-R_upscore_pool4-new-R_0_split_1
I0715 10:14:51.240353 12976 net.cpp:406] fuse_pool3-R <- score_pool3c-R
I0715 10:14:51.240368 12976 net.cpp:380] fuse_pool3-R -> fuse_pool3-R
I0715 10:14:51.240463 12976 net.cpp:122] Setting up fuse_pool3-R
I0715 10:14:51.240473 12976 net.cpp:129] Top shape: 1 3 74 38 (8436)
I0715 10:14:51.240476 12976 net.cpp:137] Memory required for data: 1504233172
I0715 10:14:51.240479 12976 layer_factory.hpp:77] Creating layer upscore8-new-R
I0715 10:14:51.240489 12976 net.cpp:84] Creating Layer upscore8-new-R
I0715 10:14:51.240494 12976 net.cpp:406] upscore8-new-R <- fuse_pool3-R
I0715 10:14:51.240501 12976 net.cpp:380] upscore8-new-R -> upscore8-new-R
I0715 10:14:51.240931 12976 net.cpp:122] Setting up upscore8-new-R
I0715 10:14:51.240939 12976 net.cpp:129] Top shape: 1 3 600 312 (561600)
I0715 10:14:51.240947 12976 net.cpp:137] Memory required for data: 1506479572
I0715 10:14:51.240953 12976 layer_factory.hpp:77] Creating layer upscore8_cropped-R
I0715 10:14:51.240967 12976 net.cpp:84] Creating Layer upscore8_cropped-R
I0715 10:14:51.240972 12976 net.cpp:406] upscore8_cropped-R <- upscore8-new-R
I0715 10:14:51.240980 12976 net.cpp:406] upscore8_cropped-R <- data-R_crop_0_split_1
I0715 10:14:51.240989 12976 net.cpp:380] upscore8_cropped-R -> upscore8_cropped-R
I0715 10:14:51.241050 12976 net.cpp:122] Setting up upscore8_cropped-R
I0715 10:14:51.241071 12976 net.cpp:129] Top shape: 1 3 512 237 (364032)
I0715 10:14:51.241086 12976 net.cpp:137] Memory required for data: 1507935700
I0715 10:14:51.241091 12976 layer_factory.hpp:77] Creating layer upscore8_uncropped-R
I0715 10:14:51.241338 12976 net.cpp:84] Creating Layer upscore8_uncropped-R
I0715 10:14:51.241358 12976 net.cpp:406] upscore8_uncropped-R <- crop_info
I0715 10:14:51.241370 12976 net.cpp:406] upscore8_uncropped-R <- upscore8_cropped-R
I0715 10:14:51.241377 12976 net.cpp:406] upscore8_uncropped-R <- data_data_0_split_3
I0715 10:14:51.241391 12976 net.cpp:380] upscore8_uncropped-R -> upscore8_uncropped-R
I0715 10:14:51.244889 12976 net.cpp:122] Setting up upscore8_uncropped-R
I0715 10:14:51.244923 12976 net.cpp:129] Top shape: 1 3 512 237 (364032)
I0715 10:14:51.244928 12976 net.cpp:137] Memory required for data: 1509391828
I0715 10:14:51.244933 12976 layer_factory.hpp:77] Creating layer loss1
I0715 10:14:51.244943 12976 net.cpp:84] Creating Layer loss1
I0715 10:14:51.244951 12976 net.cpp:406] loss1 <- upscore8_cropped_upscore8_cropped_0_split_1
I0715 10:14:51.244966 12976 net.cpp:406] loss1 <- label_data_1_split_1
I0715 10:14:51.244980 12976 net.cpp:380] loss1 -> loss1
…
