…
snapshot_prefix: "/media/Med_2T2/data2/models/snapshots/indiv:1e-5x10,20/FD3:YI3_1_20180715_091948/train"
test_initialization: false
average_loss: 20
stepvalue: 40000
iter_size: 1
I0715 12:53:29.468173 13391 solver.cpp:77] Creating training net from train_net file: /media/Med_2T2/data2/prototxts/training_S3x10.prototxt
I0715 12:53:29.476207 13391 net.cpp:51] Initializing net from parameters: 
state {
  phase: TRAIN
}
layer {
  name: "data"
  type: "Python"
  top: "data"
  top: "label"
  top: "crop_margin"
  top: "crop_prob"
  top: "crop_sample_batch"
  python_param {
    module: "Data"
    layer: "DataLayer"
  }
}
layer {
  name: "conv1_1"
  type: "Convolution"
  bottom: "data"
  top: "conv1_1"
  param {
    lr_mult: 1
    decay_mult: 1
  }
  param {
    lr_mult: 2
    decay_mult: 0
  }
  convolution_param {
    num_output: 64
    pad: 100
    kernel_size: 3
    stride: 1
  }
}
layer {
  name: "relu1_1"
  type: "ReLU"
  bottom: "conv1_1"
  top: "conv1_1"
}
layer {
  name: "conv1_2"
  type: "Convolution"
  bottom: "conv1_1"
  top: "conv1_2"
  param {
    lr_mult: 1
    decay_mult: 1
  }
  param {
    lr_mult: 2
    decay_mult: 0
  }
  convolution_param {
    num_output: 64
    pad: 1
    kernel_size: 3
    stride: 1
  }
}
layer {
  name: "relu1_2"
  type: "ReLU"
  bottom: "conv1_2"
  top: "conv1_2"
}
layer {
  name: "pool1"
  type: "Pooling"
  bottom: "conv1_2"
  top: "pool1"
  pooling_param {
    pool: MAX
    kernel_size: 2
    stride: 2
  }
}
layer {
  name: "conv2_1"
  type: "Convolution"
  bottom: "pool1"
  top: "conv2_1"
  param {
    lr_mult: 1
    decay_mult: 1
  }
  param {
    lr_mult: 2
    decay_mult: 0
  }
  convolution_param {
    num_output: 128
    pad: 1
    kernel_size: 3
    stride: 1
  }
}
layer {
  name: "relu2_1"
  type: "ReLU"
  bottom: "conv2_1"
  top: "conv2_1"
}
layer {
  name: "conv2_2"
  type: "Convolution"
  bottom: "conv2_1"
  top: "conv2_2"
  param {
    lr_mult: 1
    decay_mult: 1
  }
  param {
    lr_mult: 2
    decay_mult: 0
  }
  convolution_param {
    num_output: 128
    pad: 1
    kernel_size: 3
    stride: 1
  }
}
layer {
  name: "relu2_2"
  type: "ReLU"
  bottom: "conv2_2"
  top: "conv2_2"
}
layer {
  name: "pool2"
  type: "Pooling"
  bottom: "conv2_2"
  top: "pool2"
  pooling_param {
    pool: MAX
    kernel_size: 2
    stride: 2
  }
}
layer {
  name: "conv3_1"
  type: "Convolution"
  bottom: "pool2"
  top: "conv3_1"
  param {
    lr_mult: 1
    decay_mult: 1
  }
  param {
    lr_mult: 2
    decay_mult: 0
  }
  convolution_param {
    num_output: 256
    pad: 1
    kernel_size: 3
    stride: 1
  }
}
layer {
  name: "relu3_1"
  type: "ReLU"
  bottom: "conv3_1"
  top: "conv3_1"
}
layer {
  name: "conv3_2"
  type: "Convolution"
  bottom: "conv3_1"
  top: "conv3_2"
  param {
    lr_mult: 1
    decay_mult: 1
  }
  param {
    lr_mult: 2
    decay_mult: 0
  }
  convolution_param {
    num_output: 256
    pad: 1
    kernel_size: 3
    stride: 1
  }
}
layer {
  name: "relu3_2"
  type: "ReLU"
  bottom: "conv3_2"
  top: "conv3_2"
}
layer {
  name: "conv3_3"
  type: "Convolution"
  bottom: "conv3_2"
  top: "conv3_3"
  param {
    lr_mult: 1
    decay_mult: 1
  }
  param {
    lr_mult: 2
    decay_mult: 0
  }
  convolution_param {
    num_output: 256
    pad: 1
    kernel_size: 3
    stride: 1
  }
}
layer {
  name: "relu3_3"
  type: "ReLU"
  bottom: "conv3_3"
  top: "conv3_3"
}
layer {
  name: "pool3"
  type: "Pooling"
  bottom: "conv3_3"
  top: "pool3"
  pooling_param {
    pool: MAX
    kernel_size: 2
    stride: 2
  }
}
layer {
  name: "conv4_1"
  type: "Convolution"
  bottom: "pool3"
  top: "conv4_1"
  param {
    lr_mult: 1
    decay_mult: 1
  }
  param {
    lr_mult: 2
    decay_mult: 0
  }
  convolution_param {
    num_output: 512
    pad: 1
    kernel_size: 3
    stride: 1
  }
}
layer {
  name: "relu4_1"
  type: "ReLU"
  bottom: "conv4_1"
  top: "conv4_1"
}
layer {
  name: "conv4_2"
  type: "Convolution"
  bottom: "conv4_1"
  top: "conv4_2"
  param {
    lr_mult: 1
    decay_mult: 1
  }
  param {
    lr_mult: 2
    decay_mult: 0
  }
  convolution_param {
    num_output: 512
    pad: 1
    kernel_size: 3
    stride: 1
  }
}
layer {
  name: "relu4_2"
  type: "ReLU"
  bottom: "conv4_2"
  top: "conv4_2"
}
layer {
  name: "conv4_3"
  type: "Convolution"
  bottom: "conv4_2"
  top: "conv4_3"
  param {
    lr_mult: 1
    decay_mult: 1
  }
  param {
    lr_mult: 2
    decay_mult: 0
  }
  convolution_param {
    num_output: 512
    pad: 1
    kernel_size: 3
    stride: 1
  }
}
layer {
  name: "relu4_3"
  type: "ReLU"
  bottom: "conv4_3"
  top: "conv4_3"
}
layer {
  name: "pool4"
  type: "Pooling"
  bottom: "conv4_3"
  top: "pool4"
  pooling_param {
    pool: MAX
    kernel_size: 2
    stride: 2
  }
}
layer {
  name: "conv5_1"
  type: "Convolution"
  bottom: "pool4"
  top: "conv5_1"
  param {
    lr_mult: 1
    decay_mult: 1
  }
  param {
    lr_mult: 2
    decay_mult: 0
  }
  convolution_param {
    num_output: 512
    pad: 1
    kernel_size: 3
    stride: 1
  }
}
layer {
  name: "relu5_1"
  type: "ReLU"
  bottom: "conv5_1"
  top: "conv5_1"
}
layer {
  name: "conv5_2"
  type: "Convolution"
  bottom: "conv5_1"
  top: "conv5_2"
  param {
    lr_mult: 1
    decay_mult: 1
  }
  param {
    lr_mult: 2
    decay_mult: 0
  }
  convolution_param {
    num_output: 512
    pad: 1
    kernel_size: 3
    stride: 1
  }
}
layer {
  name: "relu5_2"
  type: "ReLU"
  bottom: "conv5_2"
  top: "conv5_2"
}
layer {
  name: "conv5_3"
  type: "Convolution"
  bottom: "conv5_2"
  top: "conv5_3"
  param {
    lr_mult: 1
    decay_mult: 1
  }
  param {
    lr_mult: 2
    decay_mult: 0
  }
  convolution_param {
    num_output: 512
    pad: 1
    kernel_size: 3
    stride: 1
  }
}
layer {
  name: "relu5_3"
  type: "ReLU"
  bottom: "conv5_3"
  top: "conv5_3"
}
layer {
  name: "pool5"
  type: "Pooling"
  bottom: "conv5_3"
  top: "pool5"
  pooling_param {
    pool: MAX
    kernel_size: 2
    stride: 2
  }
}
layer {
  name: "fc6"
  type: "Convolution"
  bottom: "pool5"
  top: "fc6"
  param {
    lr_mult: 1
    decay_mult: 1
  }
  param {
    lr_mult: 2
    decay_mult: 0
  }
  convolution_param {
    num_output: 4096
    pad: 0
    kernel_size: 7
    stride: 1
  }
}
layer {
  name: "relu6"
  type: "ReLU"
  bottom: "fc6"
  top: "fc6"
}
layer {
  name: "drop6"
  type: "Dropout"
  bottom: "fc6"
  top: "fc6"
  dropout_param {
    dropout_ratio: 0.5
  }
}
layer {
  name: "fc7"
  type: "Convolution"
  bottom: "fc6"
  top: "fc7"
  param {
    lr_mult: 1
    decay_mult: 1
  }
  param {
    lr_mult: 2
    decay_mult: 0
  }
  convolution_param {
    num_output: 4096
    pad: 0
    kernel_size: 1
    stride: 1
  }
}
layer {
  name: "relu7"
  type: "ReLU"
  bottom: "fc7"
  top: "fc7"
}
layer {
  name: "drop7"
  type: "Dropout"
  bottom: "fc7"
  top: "fc7"
  dropout_param {
    dropout_ratio: 0.5
  }
}
layer {
  name: "score_fr-new"
  type: "Convolution"
  bottom: "fc7"
  top: "score_fr-new"
  param {
    lr_mult: 1
    decay_mult: 1
  }
  param {
    lr_mult: 2
    decay_mult: 0
  }
  convolution_param {
    num_output: 3
    kernel_size: 1
  }
}
layer {
  name: "upscore2-new"
  type: "Deconvolution"
  bottom: "score_fr-new"
  top: "upscore2-new"
  param {
    lr_mult: 0
  }
  convolution_param {
    num_output: 3
    bias_term: false
    kernel_size: 4
    stride: 2
  }
}
layer {
  name: "score_pool4-new"
  type: "Convolution"
  bottom: "pool4"
  top: "score_pool4-new"
  param {
    lr_mult: 1
    decay_mult: 1
  }
  param {
    lr_mult: 2
    decay_mult: 0
  }
  convolution_param {
    num_output: 3
    pad: 0
    kernel_size: 1
  }
}
layer {
  name: "score_pool4c"
  type: "Crop"
  bottom: "score_pool4-new"
  bottom: "upscore2-new"
  top: "score_pool4c"
  crop_param {
    axis: 2
    offset: 5
  }
}
layer {
  name: "fuse_pool4"
  type: "Eltwise"
  bottom: "upscore2-new"
  bottom: "score_pool4c"
  top: "fuse_pool4"
  eltwise_param {
    operation: SUM
  }
}
layer {
  name: "upscore_pool4-new"
  type: "Deconvolution"
  bottom: "fuse_pool4"
  top: "upscore_pool4-new"
  param {
    lr_mult: 0
  }
  convolution_param {
    num_output: 3
    bias_term: false
    kernel_size: 4
    stride: 2
  }
}
layer {
  name: "score_pool3-new"
  type: "Convolution"
  bottom: "pool3"
  top: "score_pool3-new"
  param {
    lr_mult: 1
    decay_mult: 1
  }
  param {
    lr_mult: 2
    decay_mult: 0
  }
  convolution_param {
    num_output: 3
    pad: 0
    kernel_size: 1
  }
}
layer {
  name: "score_pool3c"
  type: "Crop"
  bottom: "score_pool3-new"
  bottom: "upscore_pool4-new"
  top: "score_pool3c"
  crop_param {
    axis: 2
    offset: 9
  }
}
layer {
  name: "fuse_pool3"
  type: "Eltwise"
  bottom: "upscore_pool4-new"
  bottom: "score_pool3c"
  top: "fuse_pool3"
  eltwise_param {
    operation: SUM
  }
}
layer {
  name: "upscore8-new"
  type: "Deconvolution"
  bottom: "fuse_pool3"
  top: "upscore8-new"
  param {
    lr_mult: 0
  }
  convolution_param {
    num_output: 3
    bias_term: false
    kernel_size: 16
    stride: 8
  }
}
layer {
  name: "upscore8_cropped"
  type: "Crop"
  bottom: "upscore8-new"
  bottom: "data"
  top: "upscore8_cropped"
  crop_param {
    axis: 2
    offset: 31
  }
}
layer {
  name: "prob"
  type: "Sigmoid"
  bottom: "upscore8_cropped"
  top: "prob"
}
layer {
  name: "saliency1"
  type: "Convolution"
  bottom: "prob"
  top: "saliency1"
  param {
    lr_mult: 10
    decay_mult: 1
  }
  param {
    lr_mult: 20
    decay_mult: 0
  }
  convolution_param {
    num_output: 3
    pad: 1
    kernel_size: 3
    stride: 1
    weight_filler {
      type: "xavier"
    }
    bias_filler {
      type: "constant"
      value: 1
    }
  }
}
layer {
  name: "relu_saliency1"
  type: "ReLU"
  bottom: "saliency1"
  top: "saliency1"
}
layer {
  name: "saliency"
  type: "Convolution"
  bottom: "saliency1"
  top: "saliency"
  param {
    lr_mult: 10
    decay_mult: 1
  }
  param {
    lr_mult: 20
    decay_mult: 0
  }
  convolution_param {
    num_output: 3
    pad: 2
    kernel_size: 5
    stride: 1
    weight_filler {
      type: "xavier"
    }
    bias_filler {
      type: "constant"
      value: 1
    }
  }
}
layer {
  name: "silence_saliency"
  type: "Silence"
  bottom: "saliency"
}
layer {
  name: "crop"
  type: "Python"
  bottom: "label"
  bottom: "data"
  bottom: "crop_margin"
  bottom: "crop_prob"
  bottom: "crop_sample_batch"
  top: "data-R"
  top: "crop_info"
  python_param {
    module: "Crop"
    layer: "CropLayer"
    param_str: "{\"TEST\": 0}"
  }
}
layer {
  name: "conv1_1-R"
  type: "Convolution"
  bottom: "data-R"
  top: "conv1_1-R"
  param {
    lr_mult: 10
    decay_mult: 1
  }
  param {
    lr_mult: 20
    decay_mult: 0
  }
  convolution_param {
    num_output: 64
    pad: 100
    kernel_size: 3
    stride: 1
  }
}
layer {
  name: "relu1_1-R"
  type: "ReLU"
  bottom: "conv1_1-R"
  top: "conv1_1-R"
}
layer {
  name: "conv1_2-R"
  type: "Convolution"
  bottom: "conv1_1-R"
  top: "conv1_2-R"
  param {
    lr_mult: 10
    decay_mult: 1
  }
  param {
    lr_mult: 20
    decay_mult: 0
  }
  convolution_param {
    num_output: 64
    pad: 1
    kernel_size: 3
    stride: 1
  }
}
layer {
  name: "relu1_2-R"
  type: "ReLU"
  bottom: "conv1_2-R"
  top: "conv1_2-R"
}
layer {
  name: "pool1-R"
  type: "Pooling"
  bottom: "conv1_2-R"
  top: "pool1-R"
  pooling_param {
    pool: MAX
    kernel_size: 2
    stride: 2
  }
}
layer {
  name: "conv2_1-R"
  type: "Convolution"
  bottom: "pool1-R"
  top: "conv2_1-R"
  param {
    lr_mult: 10
    decay_mult: 1
  }
  param {
    lr_mult: 20
    decay_mult: 0
  }
  convolution_param {
    num_output: 128
    pad: 1
    kernel_size: 3
    stride: 1
  }
}
layer {
  name: "relu2_1-R"
  type: "ReLU"
  bottom: "conv2_1-R"
  top: "conv2_1-R"
}
layer {
  name: "conv2_2-R"
  type: "Convolution"
  bottom: "conv2_1-R"
  top: "conv2_2-R"
  param {
    lr_mult: 10
    decay_mult: 1
  }
  param {
    lr_mult: 20
    decay_mult: 0
  }
  convolution_param {
    num_output: 128
    pad: 1
    kernel_size: 3
    stride: 1
  }
}
layer {
  name: "relu2_2-R"
  type: "ReLU"
  bottom: "conv2_2-R"
  top: "conv2_2-R"
}
layer {
  name: "pool2-R"
  type: "Pooling"
  bottom: "conv2_2-R"
  top: "pool2-R"
  pooling_param {
    pool: MAX
    kernel_size: 2
    stride: 2
  }
}
layer {
  name: "conv3_1-R"
  type: "Convolution"
  bottom: "pool2-R"
  top: "conv3_1-R"
  param {
    lr_mult: 10
    decay_mult: 1
  }
  param {
    lr_mult: 20
    decay_mult: 0
  }
  convolution_param {
    num_output: 256
    pad: 1
    kernel_size: 3
    stride: 1
  }
}
layer {
  name: "relu3_1-R"
  type: "ReLU"
  bottom: "conv3_1-R"
  top: "conv3_1-R"
}
layer {
  name: "conv3_2-R"
  type: "Convolution"
  bottom: "conv3_1-R"
  top: "conv3_2-R"
  param {
    lr_mult: 10
    decay_mult: 1
  }
  param {
    lr_mult: 20
    decay_mult: 0
  }
  convolution_param {
    num_output: 256
    pad: 1
    kernel_size: 3
    stride: 1
  }
}
layer {
  name: "relu3_2-R"
  type: "ReLU"
  bottom: "conv3_2-R"
  top: "conv3_2-R"
}
layer {
  name: "conv3_3-R"
  type: "Convolution"
  bottom: "conv3_2-R"
  top: "conv3_3-R"
  param {
    lr_mult: 10
    decay_mult: 1
  }
  param {
    lr_mult: 20
    decay_mult: 0
  }
  convolution_param {
    num_output: 256
    pad: 1
    kernel_size: 3
    stride: 1
  }
}
layer {
  name: "relu3_3-R"
  type: "ReLU"
  bottom: "conv3_3-R"
  top: "conv3_3-R"
}
layer {
  name: "pool3-R"
  type: "Pooling"
  bottom: "conv3_3-R"
  top: "pool3-R"
  pooling_param {
    pool: MAX
    kernel_size: 2
    stride: 2
  }
}
layer {
  name: "conv4_1-R"
  type: "Convolution"
  bottom: "pool3-R"
  top: "conv4_1-R"
  param {
    lr_mult: 10
    decay_mult: 1
  }
  param {
    lr_mult: 20
    decay_mult: 0
  }
  convolution_param {
    num_output: 512
    pad: 1
    kernel_size: 3
    stride: 1
  }
}
layer {
  name: "relu4_1-R"
  type: "ReLU"
  bottom: "conv4_1-R"
  top: "conv4_1-R"
}
layer {
  name: "conv4_2-R"
  type: "Convolution"
  bottom: "conv4_1-R"
  top: "conv4_2-R"
  param {
    lr_mult: 10
    decay_mult: 1
  }
  param {
    lr_mult: 20
    decay_mult: 0
  }
  convolution_param {
    num_output: 512
    pad: 1
    kernel_size: 3
    stride: 1
  }
}
layer {
  name: "relu4_2-R"
  type: "ReLU"
  bottom: "conv4_2-R"
  top: "conv4_2-R"
}
layer {
  name: "conv4_3-R"
  type: "Convolution"
  bottom: "conv4_2-R"
  top: "conv4_3-R"
  param {
    lr_mult: 10
    decay_mult: 1
  }
  param {
    lr_mult: 20
    decay_mult: 0
  }
  convolution_param {
    num_output: 512
    pad: 1
    kernel_size: 3
    stride: 1
  }
}
layer {
  name: "relu4_3-R"
  type: "ReLU"
  bottom: "conv4_3-R"
  top: "conv4_3-R"
}
layer {
  name: "pool4-R"
  type: "Pooling"
  bottom: "conv4_3-R"
  top: "pool4-R"
  pooling_param {
    pool: MAX
    kernel_size: 2
    stride: 2
  }
}
layer {
  name: "conv5_1-R"
  type: "Convolution"
  bottom: "pool4-R"
  top: "conv5_1-R"
  param {
    lr_mult: 10
    decay_mult: 1
  }
  param {
    lr_mult: 20
    decay_mult: 0
  }
  convolution_param {
    num_output: 512
    pad: 1
    kernel_size: 3
    stride: 1
  }
}
layer {
  name: "relu5_1-R"
  type: "ReLU"
  bottom: "conv5_1-R"
  top: "conv5_1-R"
}
layer {
  name: "conv5_2-R"
  type: "Convolution"
  bottom: "conv5_1-R"
  top: "conv5_2-R"
  param {
    lr_mult: 10
    decay_mult: 1
  }
  param {
    lr_mult: 20
    decay_mult: 0
  }
  convolution_param {
    num_output: 512
    pad: 1
    kernel_size: 3
    stride: 1
  }
}
layer {
  name: "relu5_2-R"
  type: "ReLU"
  bottom: "conv5_2-R"
  top: "conv5_2-R"
}
layer {
  name: "conv5_3-R"
  type: "Convolution"
  bottom: "conv5_2-R"
  top: "conv5_3-R"
  param {
    lr_mult: 10
    decay_mult: 1
  }
  param {
    lr_mult: 20
    decay_mult: 0
  }
  convolution_param {
    num_output: 512
    pad: 1
    kernel_size: 3
    stride: 1
  }
}
layer {
  name: "relu5_3-R"
  type: "ReLU"
  bottom: "conv5_3-R"
  top: "conv5_3-R"
}
layer {
  name: "pool5-R"
  type: "Pooling"
  bottom: "conv5_3-R"
  top: "pool5-R"
  pooling_param {
    pool: MAX
    kernel_size: 2
    stride: 2
  }
}
layer {
  name: "fc6-R"
  type: "Convolution"
  bottom: "pool5-R"
  top: "fc6-R"
  param {
    lr_mult: 10
    decay_mult: 1
  }
  param {
    lr_mult: 20
    decay_mult: 0
  }
  convolution_param {
    num_output: 4096
    pad: 0
    kernel_size: 7
    stride: 1
  }
}
layer {
  name: "relu6-R"
  type: "ReLU"
  bottom: "fc6-R"
  top: "fc6-R"
}
layer {
  name: "drop6-R"
  type: "Dropout"
  bottom: "fc6-R"
  top: "fc6-R"
  dropout_param {
    dropout_ratio: 0.5
  }
}
layer {
  name: "fc7-R"
  type: "Convolution"
  bottom: "fc6-R"
  top: "fc7-R"
  param {
    lr_mult: 10
    decay_mult: 1
  }
  param {
    lr_mult: 20
    decay_mult: 0
  }
  convolution_param {
    num_output: 4096
    pad: 0
    kernel_size: 1
    stride: 1
  }
}
layer {
  name: "relu7-R"
  type: "ReLU"
  bottom: "fc7-R"
  top: "fc7-R"
}
layer {
  name: "drop7-R"
  type: "Dropout"
  bottom: "fc7-R"
  top: "fc7-R"
  dropout_param {
    dropout_ratio: 0.5
  }
}
layer {
  name: "score_fr-new-R"
  type: "Convolution"
  bottom: "fc7-R"
  top: "score_fr-new-R"
  param {
    lr_mult: 10
    decay_mult: 1
  }
  param {
    lr_mult: 20
    decay_mult: 0
  }
  convolution_param {
    num_output: 3
    kernel_size: 1
  }
}
layer {
  name: "upscore2-new-R"
  type: "Deconvolution"
  bottom: "score_fr-new-R"
  top: "upscore2-new-R"
  param {
    lr_mult: 0
  }
  convolution_param {
    num_output: 3
    bias_term: false
    kernel_size: 4
    stride: 2
  }
}
layer {
  name: "score_pool4-new-R"
  type: "Convolution"
  bottom: "pool4-R"
  top: "score_pool4-new-R"
  param {
    lr_mult: 10
    decay_mult: 1
  }
  param {
    lr_mult: 20
    decay_mult: 0
  }
  convolution_param {
    num_output: 3
    pad: 0
    kernel_size: 1
  }
}
layer {
  name: "score_pool4c-R"
  type: "Crop"
  bottom: "score_pool4-new-R"
  bottom: "upscore2-new-R"
  top: "score_pool4c-R"
  crop_param {
    axis: 2
    offset: 5
  }
}
layer {
  name: "fuse_pool4-R"
  type: "Eltwise"
  bottom: "upscore2-new-R"
  bottom: "score_pool4c-R"
  top: "fuse_pool4-R"
  eltwise_param {
    operation: SUM
  }
}
layer {
  name: "upscore_pool4-new-R"
  type: "Deconvolution"
  bottom: "fuse_pool4-R"
  top: "upscore_pool4-new-R"
  param {
    lr_mult: 0
  }
  convolution_param {
    num_output: 3
    bias_term: false
    kernel_size: 4
    stride: 2
  }
}
layer {
  name: "score_pool3-new-R"
  type: "Convolution"
  bottom: "pool3-R"
  top: "score_pool3-new-R"
  param {
    lr_mult: 10
    decay_mult: 1
  }
  param {
    lr_mult: 20
    decay_mult: 0
  }
  convolution_param {
    num_output: 3
    pad: 0
    kernel_size: 1
  }
}
layer {
  name: "score_pool3c-R"
  type: "Crop"
  bottom: "score_pool3-new-R"
  bottom: "upscore_pool4-new-R"
  top: "score_pool3c-R"
  crop_param {
    axis: 2
    offset: 9
  }
}
layer {
  name: "fuse_pool3-R"
  type: "Eltwise"
  bottom: "upscore_pool4-new-R"
  bottom: "score_pool3c-R"
  top: "fuse_pool3-R"
  eltwise_param {
    operation: SUM
  }
}
layer {
  name: "upscore8-new-R"
  type: "Deconvolution"
  bottom: "fuse_pool3-R"
  top: "upscore8-new-R"
  param {
    lr_mult: 0
  }
  convolution_param {
    num_output: 3
    bias_term: false
    kernel_size: 16
    stride: 8
  }
}
layer {
  name: "upscore8_cropped-R"
  type: "Crop"
  bottom: "upscore8-new-R"
  bottom: "data-R"
  top: "upscore8_cropped-R"
  crop_param {
    axis: 2
    offset: 31
  }
}
layer {
  name: "upscore8_uncropped-R"
  type: "Python"
  bottom: "crop_info"
  bottom: "upscore8_cropped-R"
  bottom: "data"
  top: "upscore8_uncropped-R"
  python_param {
    module: "Uncrop"
    layer: "UncropLayer"
  }
}
layer {
  name: "loss1"
  type: "DiceLoss"
  bottom: "upscore8_cropped"
  bottom: "label"
  top: "loss1"
  loss_weight: 0.333333
}
layer {
  name: "loss2"
  type: "DiceLoss"
  bottom: "upscore8_uncropped-R"
  bottom: "label"
  top: "loss2"
  loss_weight: 0.666667
}
I0715 12:53:29.476837 13391 layer_factory.hpp:77] Creating layer data
I0715 12:53:29.478874 13391 net.cpp:84] Creating Layer data
I0715 12:53:29.478891 13391 net.cpp:380] data -> data
I0715 12:53:29.478909 13391 net.cpp:380] data -> label
I0715 12:53:29.478916 13391 net.cpp:380] data -> crop_margin
I0715 12:53:29.478924 13391 net.cpp:380] data -> crop_prob
I0715 12:53:29.478929 13391 net.cpp:380] data -> crop_sample_batch
I0715 12:53:29.669728 13391 net.cpp:122] Setting up data
I0715 12:53:29.669780 13391 net.cpp:129] Top shape: 1 3 512 209 (321024)
I0715 12:53:29.669787 13391 net.cpp:129] Top shape: 1 3 512 209 (321024)
I0715 12:53:29.669792 13391 net.cpp:129] Top shape: 1 (1)
I0715 12:53:29.669797 13391 net.cpp:129] Top shape: 1 (1)
I0715 12:53:29.669801 13391 net.cpp:129] Top shape: 1 (1)
I0715 12:53:29.669806 13391 net.cpp:137] Memory required for data: 2568204
I0715 12:53:29.669816 13391 layer_factory.hpp:77] Creating layer data_data_0_split
I0715 12:53:29.669847 13391 net.cpp:84] Creating Layer data_data_0_split
I0715 12:53:29.669852 13391 net.cpp:406] data_data_0_split <- data
I0715 12:53:29.669867 13391 net.cpp:380] data_data_0_split -> data_data_0_split_0
I0715 12:53:29.669880 13391 net.cpp:380] data_data_0_split -> data_data_0_split_1
I0715 12:53:29.669888 13391 net.cpp:380] data_data_0_split -> data_data_0_split_2
I0715 12:53:29.669894 13391 net.cpp:380] data_data_0_split -> data_data_0_split_3
I0715 12:53:29.669956 13391 net.cpp:122] Setting up data_data_0_split
I0715 12:53:29.669962 13391 net.cpp:129] Top shape: 1 3 512 209 (321024)
I0715 12:53:29.669967 13391 net.cpp:129] Top shape: 1 3 512 209 (321024)
I0715 12:53:29.669972 13391 net.cpp:129] Top shape: 1 3 512 209 (321024)
I0715 12:53:29.669977 13391 net.cpp:129] Top shape: 1 3 512 209 (321024)
I0715 12:53:29.669981 13391 net.cpp:137] Memory required for data: 7704588
I0715 12:53:29.669984 13391 layer_factory.hpp:77] Creating layer label_data_1_split
I0715 12:53:29.669992 13391 net.cpp:84] Creating Layer label_data_1_split
I0715 12:53:29.669996 13391 net.cpp:406] label_data_1_split <- label
I0715 12:53:29.670003 13391 net.cpp:380] label_data_1_split -> label_data_1_split_0
I0715 12:53:29.670011 13391 net.cpp:380] label_data_1_split -> label_data_1_split_1
I0715 12:53:29.670017 13391 net.cpp:380] label_data_1_split -> label_data_1_split_2
I0715 12:53:29.670056 13391 net.cpp:122] Setting up label_data_1_split
I0715 12:53:29.670063 13391 net.cpp:129] Top shape: 1 3 512 209 (321024)
I0715 12:53:29.670066 13391 net.cpp:129] Top shape: 1 3 512 209 (321024)
I0715 12:53:29.670071 13391 net.cpp:129] Top shape: 1 3 512 209 (321024)
I0715 12:53:29.670075 13391 net.cpp:137] Memory required for data: 11556876
I0715 12:53:29.670079 13391 layer_factory.hpp:77] Creating layer conv1_1
I0715 12:53:29.670096 13391 net.cpp:84] Creating Layer conv1_1
I0715 12:53:29.670100 13391 net.cpp:406] conv1_1 <- data_data_0_split_0
I0715 12:53:29.670107 13391 net.cpp:380] conv1_1 -> conv1_1
I0715 12:53:30.042469 13391 net.cpp:122] Setting up conv1_1
I0715 12:53:30.042537 13391 net.cpp:129] Top shape: 1 64 710 407 (18494080)
I0715 12:53:30.042542 13391 net.cpp:137] Memory required for data: 85533196
I0715 12:53:30.042577 13391 layer_factory.hpp:77] Creating layer relu1_1
I0715 12:53:30.042615 13391 net.cpp:84] Creating Layer relu1_1
I0715 12:53:30.042623 13391 net.cpp:406] relu1_1 <- conv1_1
I0715 12:53:30.042630 13391 net.cpp:367] relu1_1 -> conv1_1 (in-place)
I0715 12:53:30.042923 13391 net.cpp:122] Setting up relu1_1
I0715 12:53:30.042937 13391 net.cpp:129] Top shape: 1 64 710 407 (18494080)
I0715 12:53:30.042940 13391 net.cpp:137] Memory required for data: 159509516
I0715 12:53:30.042945 13391 layer_factory.hpp:77] Creating layer conv1_2
I0715 12:53:30.042960 13391 net.cpp:84] Creating Layer conv1_2
I0715 12:53:30.042964 13391 net.cpp:406] conv1_2 <- conv1_1
I0715 12:53:30.042971 13391 net.cpp:380] conv1_2 -> conv1_2
I0715 12:53:30.050216 13391 net.cpp:122] Setting up conv1_2
I0715 12:53:30.050254 13391 net.cpp:129] Top shape: 1 64 710 407 (18494080)
I0715 12:53:30.050262 13391 net.cpp:137] Memory required for data: 233485836
I0715 12:53:30.050282 13391 layer_factory.hpp:77] Creating layer relu1_2
I0715 12:53:30.050297 13391 net.cpp:84] Creating Layer relu1_2
I0715 12:53:30.050304 13391 net.cpp:406] relu1_2 <- conv1_2
I0715 12:53:30.050317 13391 net.cpp:367] relu1_2 -> conv1_2 (in-place)
I0715 12:53:30.050703 13391 net.cpp:122] Setting up relu1_2
I0715 12:53:30.050721 13391 net.cpp:129] Top shape: 1 64 710 407 (18494080)
I0715 12:53:30.050729 13391 net.cpp:137] Memory required for data: 307462156
I0715 12:53:30.050736 13391 layer_factory.hpp:77] Creating layer pool1
I0715 12:53:30.050750 13391 net.cpp:84] Creating Layer pool1
I0715 12:53:30.050757 13391 net.cpp:406] pool1 <- conv1_2
I0715 12:53:30.050776 13391 net.cpp:380] pool1 -> pool1
I0715 12:53:30.050878 13391 net.cpp:122] Setting up pool1
I0715 12:53:30.050900 13391 net.cpp:129] Top shape: 1 64 355 204 (4634880)
I0715 12:53:30.050907 13391 net.cpp:137] Memory required for data: 326001676
I0715 12:53:30.050915 13391 layer_factory.hpp:77] Creating layer conv2_1
I0715 12:53:30.050932 13391 net.cpp:84] Creating Layer conv2_1
I0715 12:53:30.050940 13391 net.cpp:406] conv2_1 <- pool1
I0715 12:53:30.050952 13391 net.cpp:380] conv2_1 -> conv2_1
I0715 12:53:30.053194 13391 net.cpp:122] Setting up conv2_1
I0715 12:53:30.053210 13391 net.cpp:129] Top shape: 1 128 355 204 (9269760)
I0715 12:53:30.053215 13391 net.cpp:137] Memory required for data: 363080716
I0715 12:53:30.053227 13391 layer_factory.hpp:77] Creating layer relu2_1
I0715 12:53:30.053236 13391 net.cpp:84] Creating Layer relu2_1
I0715 12:53:30.053241 13391 net.cpp:406] relu2_1 <- conv2_1
I0715 12:53:30.053248 13391 net.cpp:367] relu2_1 -> conv2_1 (in-place)
I0715 12:53:30.053462 13391 net.cpp:122] Setting up relu2_1
I0715 12:53:30.053475 13391 net.cpp:129] Top shape: 1 128 355 204 (9269760)
I0715 12:53:30.053479 13391 net.cpp:137] Memory required for data: 400159756
I0715 12:53:30.053484 13391 layer_factory.hpp:77] Creating layer conv2_2
I0715 12:53:30.053495 13391 net.cpp:84] Creating Layer conv2_2
I0715 12:53:30.053500 13391 net.cpp:406] conv2_2 <- conv2_1
I0715 12:53:30.053508 13391 net.cpp:380] conv2_2 -> conv2_2
I0715 12:53:30.057384 13391 net.cpp:122] Setting up conv2_2
I0715 12:53:30.057404 13391 net.cpp:129] Top shape: 1 128 355 204 (9269760)
I0715 12:53:30.057410 13391 net.cpp:137] Memory required for data: 437238796
I0715 12:53:30.057418 13391 layer_factory.hpp:77] Creating layer relu2_2
I0715 12:53:30.057427 13391 net.cpp:84] Creating Layer relu2_2
I0715 12:53:30.057432 13391 net.cpp:406] relu2_2 <- conv2_2
I0715 12:53:30.057440 13391 net.cpp:367] relu2_2 -> conv2_2 (in-place)
I0715 12:53:30.057672 13391 net.cpp:122] Setting up relu2_2
I0715 12:53:30.057685 13391 net.cpp:129] Top shape: 1 128 355 204 (9269760)
I0715 12:53:30.057689 13391 net.cpp:137] Memory required for data: 474317836
I0715 12:53:30.057693 13391 layer_factory.hpp:77] Creating layer pool2
I0715 12:53:30.057703 13391 net.cpp:84] Creating Layer pool2
I0715 12:53:30.057706 13391 net.cpp:406] pool2 <- conv2_2
I0715 12:53:30.057714 13391 net.cpp:380] pool2 -> pool2
I0715 12:53:30.057765 13391 net.cpp:122] Setting up pool2
I0715 12:53:30.057773 13391 net.cpp:129] Top shape: 1 128 178 102 (2323968)
I0715 12:53:30.057777 13391 net.cpp:137] Memory required for data: 483613708
I0715 12:53:30.057781 13391 layer_factory.hpp:77] Creating layer conv3_1
I0715 12:53:30.057791 13391 net.cpp:84] Creating Layer conv3_1
I0715 12:53:30.057796 13391 net.cpp:406] conv3_1 <- pool2
I0715 12:53:30.057803 13391 net.cpp:380] conv3_1 -> conv3_1
I0715 12:53:30.066164 13391 net.cpp:122] Setting up conv3_1
I0715 12:53:30.066213 13391 net.cpp:129] Top shape: 1 256 178 102 (4647936)
I0715 12:53:30.066218 13391 net.cpp:137] Memory required for data: 502205452
I0715 12:53:30.066233 13391 layer_factory.hpp:77] Creating layer relu3_1
I0715 12:53:30.066246 13391 net.cpp:84] Creating Layer relu3_1
I0715 12:53:30.066251 13391 net.cpp:406] relu3_1 <- conv3_1
I0715 12:53:30.066258 13391 net.cpp:367] relu3_1 -> conv3_1 (in-place)
I0715 12:53:30.066841 13391 net.cpp:122] Setting up relu3_1
I0715 12:53:30.066854 13391 net.cpp:129] Top shape: 1 256 178 102 (4647936)
I0715 12:53:30.066872 13391 net.cpp:137] Memory required for data: 520797196
I0715 12:53:30.066876 13391 layer_factory.hpp:77] Creating layer conv3_2
I0715 12:53:30.066887 13391 net.cpp:84] Creating Layer conv3_2
I0715 12:53:30.066891 13391 net.cpp:406] conv3_2 <- conv3_1
I0715 12:53:30.066898 13391 net.cpp:380] conv3_2 -> conv3_2
I0715 12:53:30.072053 13391 net.cpp:122] Setting up conv3_2
I0715 12:53:30.072095 13391 net.cpp:129] Top shape: 1 256 178 102 (4647936)
I0715 12:53:30.072104 13391 net.cpp:137] Memory required for data: 539388940
I0715 12:53:30.072121 13391 layer_factory.hpp:77] Creating layer relu3_2
I0715 12:53:30.072152 13391 net.cpp:84] Creating Layer relu3_2
I0715 12:53:30.072160 13391 net.cpp:406] relu3_2 <- conv3_2
I0715 12:53:30.072171 13391 net.cpp:367] relu3_2 -> conv3_2 (in-place)
I0715 12:53:30.073271 13391 net.cpp:122] Setting up relu3_2
I0715 12:53:30.073308 13391 net.cpp:129] Top shape: 1 256 178 102 (4647936)
I0715 12:53:30.073316 13391 net.cpp:137] Memory required for data: 557980684
I0715 12:53:30.073324 13391 layer_factory.hpp:77] Creating layer conv3_3
I0715 12:53:30.073343 13391 net.cpp:84] Creating Layer conv3_3
I0715 12:53:30.073351 13391 net.cpp:406] conv3_3 <- conv3_2
I0715 12:53:30.073367 13391 net.cpp:380] conv3_3 -> conv3_3
I0715 12:53:30.077898 13391 net.cpp:122] Setting up conv3_3
I0715 12:53:30.077929 13391 net.cpp:129] Top shape: 1 256 178 102 (4647936)
I0715 12:53:30.077932 13391 net.cpp:137] Memory required for data: 576572428
I0715 12:53:30.077940 13391 layer_factory.hpp:77] Creating layer relu3_3
I0715 12:53:30.077949 13391 net.cpp:84] Creating Layer relu3_3
I0715 12:53:30.077952 13391 net.cpp:406] relu3_3 <- conv3_3
I0715 12:53:30.077957 13391 net.cpp:367] relu3_3 -> conv3_3 (in-place)
I0715 12:53:30.078141 13391 net.cpp:122] Setting up relu3_3
I0715 12:53:30.078151 13391 net.cpp:129] Top shape: 1 256 178 102 (4647936)
I0715 12:53:30.078155 13391 net.cpp:137] Memory required for data: 595164172
I0715 12:53:30.078158 13391 layer_factory.hpp:77] Creating layer pool3
I0715 12:53:30.078166 13391 net.cpp:84] Creating Layer pool3
I0715 12:53:30.078169 13391 net.cpp:406] pool3 <- conv3_3
I0715 12:53:30.078176 13391 net.cpp:380] pool3 -> pool3
I0715 12:53:30.078217 13391 net.cpp:122] Setting up pool3
I0715 12:53:30.078222 13391 net.cpp:129] Top shape: 1 256 89 51 (1161984)
I0715 12:53:30.078224 13391 net.cpp:137] Memory required for data: 599812108
I0715 12:53:30.078227 13391 layer_factory.hpp:77] Creating layer pool3_pool3_0_split
I0715 12:53:30.078233 13391 net.cpp:84] Creating Layer pool3_pool3_0_split
I0715 12:53:30.078236 13391 net.cpp:406] pool3_pool3_0_split <- pool3
I0715 12:53:30.078243 13391 net.cpp:380] pool3_pool3_0_split -> pool3_pool3_0_split_0
I0715 12:53:30.078248 13391 net.cpp:380] pool3_pool3_0_split -> pool3_pool3_0_split_1
I0715 12:53:30.078277 13391 net.cpp:122] Setting up pool3_pool3_0_split
I0715 12:53:30.078281 13391 net.cpp:129] Top shape: 1 256 89 51 (1161984)
I0715 12:53:30.078285 13391 net.cpp:129] Top shape: 1 256 89 51 (1161984)
I0715 12:53:30.078289 13391 net.cpp:137] Memory required for data: 609107980
I0715 12:53:30.078291 13391 layer_factory.hpp:77] Creating layer conv4_1
I0715 12:53:30.078300 13391 net.cpp:84] Creating Layer conv4_1
I0715 12:53:30.078303 13391 net.cpp:406] conv4_1 <- pool3_pool3_0_split_0
I0715 12:53:30.078308 13391 net.cpp:380] conv4_1 -> conv4_1
I0715 12:53:30.093807 13391 net.cpp:122] Setting up conv4_1
I0715 12:53:30.093850 13391 net.cpp:129] Top shape: 1 512 89 51 (2323968)
I0715 12:53:30.093859 13391 net.cpp:137] Memory required for data: 618403852
I0715 12:53:30.093878 13391 layer_factory.hpp:77] Creating layer relu4_1
I0715 12:53:30.093891 13391 net.cpp:84] Creating Layer relu4_1
I0715 12:53:30.093900 13391 net.cpp:406] relu4_1 <- conv4_1
I0715 12:53:30.093911 13391 net.cpp:367] relu4_1 -> conv4_1 (in-place)
I0715 12:53:30.094276 13391 net.cpp:122] Setting up relu4_1
I0715 12:53:30.094296 13391 net.cpp:129] Top shape: 1 512 89 51 (2323968)
I0715 12:53:30.094305 13391 net.cpp:137] Memory required for data: 627699724
I0715 12:53:30.094311 13391 layer_factory.hpp:77] Creating layer conv4_2
I0715 12:53:30.094341 13391 net.cpp:84] Creating Layer conv4_2
I0715 12:53:30.094348 13391 net.cpp:406] conv4_2 <- conv4_1
I0715 12:53:30.094360 13391 net.cpp:380] conv4_2 -> conv4_2
I0715 12:53:30.103776 13391 net.cpp:122] Setting up conv4_2
I0715 12:53:30.103807 13391 net.cpp:129] Top shape: 1 512 89 51 (2323968)
I0715 12:53:30.103811 13391 net.cpp:137] Memory required for data: 636995596
I0715 12:53:30.103823 13391 layer_factory.hpp:77] Creating layer relu4_2
I0715 12:53:30.103830 13391 net.cpp:84] Creating Layer relu4_2
I0715 12:53:30.103834 13391 net.cpp:406] relu4_2 <- conv4_2
I0715 12:53:30.103840 13391 net.cpp:367] relu4_2 -> conv4_2 (in-place)
I0715 12:53:30.104045 13391 net.cpp:122] Setting up relu4_2
I0715 12:53:30.104056 13391 net.cpp:129] Top shape: 1 512 89 51 (2323968)
I0715 12:53:30.104059 13391 net.cpp:137] Memory required for data: 646291468
I0715 12:53:30.104063 13391 layer_factory.hpp:77] Creating layer conv4_3
I0715 12:53:30.104074 13391 net.cpp:84] Creating Layer conv4_3
I0715 12:53:30.104076 13391 net.cpp:406] conv4_3 <- conv4_2
I0715 12:53:30.104084 13391 net.cpp:380] conv4_3 -> conv4_3
I0715 12:53:30.110990 13391 net.cpp:122] Setting up conv4_3
I0715 12:53:30.111011 13391 net.cpp:129] Top shape: 1 512 89 51 (2323968)
I0715 12:53:30.111029 13391 net.cpp:137] Memory required for data: 655587340
I0715 12:53:30.111037 13391 layer_factory.hpp:77] Creating layer relu4_3
I0715 12:53:30.111044 13391 net.cpp:84] Creating Layer relu4_3
I0715 12:53:30.111049 13391 net.cpp:406] relu4_3 <- conv4_3
I0715 12:53:30.111054 13391 net.cpp:367] relu4_3 -> conv4_3 (in-place)
I0715 12:53:30.111248 13391 net.cpp:122] Setting up relu4_3
I0715 12:53:30.111258 13391 net.cpp:129] Top shape: 1 512 89 51 (2323968)
I0715 12:53:30.111261 13391 net.cpp:137] Memory required for data: 664883212
I0715 12:53:30.111265 13391 layer_factory.hpp:77] Creating layer pool4
I0715 12:53:30.111299 13391 net.cpp:84] Creating Layer pool4
I0715 12:53:30.111304 13391 net.cpp:406] pool4 <- conv4_3
I0715 12:53:30.111310 13391 net.cpp:380] pool4 -> pool4
I0715 12:53:30.111369 13391 net.cpp:122] Setting up pool4
I0715 12:53:30.111374 13391 net.cpp:129] Top shape: 1 512 45 26 (599040)
I0715 12:53:30.111378 13391 net.cpp:137] Memory required for data: 667279372
I0715 12:53:30.111382 13391 layer_factory.hpp:77] Creating layer pool4_pool4_0_split
I0715 12:53:30.111388 13391 net.cpp:84] Creating Layer pool4_pool4_0_split
I0715 12:53:30.111392 13391 net.cpp:406] pool4_pool4_0_split <- pool4
I0715 12:53:30.111398 13391 net.cpp:380] pool4_pool4_0_split -> pool4_pool4_0_split_0
I0715 12:53:30.111403 13391 net.cpp:380] pool4_pool4_0_split -> pool4_pool4_0_split_1
I0715 12:53:30.111436 13391 net.cpp:122] Setting up pool4_pool4_0_split
I0715 12:53:30.111441 13391 net.cpp:129] Top shape: 1 512 45 26 (599040)
I0715 12:53:30.111445 13391 net.cpp:129] Top shape: 1 512 45 26 (599040)
I0715 12:53:30.111449 13391 net.cpp:137] Memory required for data: 672071692
I0715 12:53:30.111451 13391 layer_factory.hpp:77] Creating layer conv5_1
I0715 12:53:30.111461 13391 net.cpp:84] Creating Layer conv5_1
I0715 12:53:30.111464 13391 net.cpp:406] conv5_1 <- pool4_pool4_0_split_0
I0715 12:53:30.111470 13391 net.cpp:380] conv5_1 -> conv5_1
I0715 12:53:30.118479 13391 net.cpp:122] Setting up conv5_1
I0715 12:53:30.118513 13391 net.cpp:129] Top shape: 1 512 45 26 (599040)
I0715 12:53:30.118517 13391 net.cpp:137] Memory required for data: 674467852
I0715 12:53:30.118525 13391 layer_factory.hpp:77] Creating layer relu5_1
I0715 12:53:30.118532 13391 net.cpp:84] Creating Layer relu5_1
I0715 12:53:30.118536 13391 net.cpp:406] relu5_1 <- conv5_1
I0715 12:53:30.118542 13391 net.cpp:367] relu5_1 -> conv5_1 (in-place)
I0715 12:53:30.120903 13391 net.cpp:122] Setting up relu5_1
I0715 12:53:30.120934 13391 net.cpp:129] Top shape: 1 512 45 26 (599040)
I0715 12:53:30.120939 13391 net.cpp:137] Memory required for data: 676864012
I0715 12:53:30.120942 13391 layer_factory.hpp:77] Creating layer conv5_2
I0715 12:53:30.120954 13391 net.cpp:84] Creating Layer conv5_2
I0715 12:53:30.120957 13391 net.cpp:406] conv5_2 <- conv5_1
I0715 12:53:30.120963 13391 net.cpp:380] conv5_2 -> conv5_2
I0715 12:53:30.131510 13391 net.cpp:122] Setting up conv5_2
I0715 12:53:30.131546 13391 net.cpp:129] Top shape: 1 512 45 26 (599040)
I0715 12:53:30.131551 13391 net.cpp:137] Memory required for data: 679260172
I0715 12:53:30.131561 13391 layer_factory.hpp:77] Creating layer relu5_2
I0715 12:53:30.131578 13391 net.cpp:84] Creating Layer relu5_2
I0715 12:53:30.131583 13391 net.cpp:406] relu5_2 <- conv5_2
I0715 12:53:30.131592 13391 net.cpp:367] relu5_2 -> conv5_2 (in-place)
I0715 12:53:30.132467 13391 net.cpp:122] Setting up relu5_2
I0715 12:53:30.132485 13391 net.cpp:129] Top shape: 1 512 45 26 (599040)
I0715 12:53:30.132498 13391 net.cpp:137] Memory required for data: 681656332
I0715 12:53:30.132503 13391 layer_factory.hpp:77] Creating layer conv5_3
I0715 12:53:30.132517 13391 net.cpp:84] Creating Layer conv5_3
I0715 12:53:30.132522 13391 net.cpp:406] conv5_3 <- conv5_2
I0715 12:53:30.132542 13391 net.cpp:380] conv5_3 -> conv5_3
I0715 12:53:30.143407 13391 net.cpp:122] Setting up conv5_3
I0715 12:53:30.143435 13391 net.cpp:129] Top shape: 1 512 45 26 (599040)
I0715 12:53:30.143442 13391 net.cpp:137] Memory required for data: 684052492
I0715 12:53:30.143455 13391 layer_factory.hpp:77] Creating layer relu5_3
I0715 12:53:30.143465 13391 net.cpp:84] Creating Layer relu5_3
I0715 12:53:30.143472 13391 net.cpp:406] relu5_3 <- conv5_3
I0715 12:53:30.143481 13391 net.cpp:367] relu5_3 -> conv5_3 (in-place)
I0715 12:53:30.143751 13391 net.cpp:122] Setting up relu5_3
I0715 12:53:30.143764 13391 net.cpp:129] Top shape: 1 512 45 26 (599040)
I0715 12:53:30.143769 13391 net.cpp:137] Memory required for data: 686448652
I0715 12:53:30.143774 13391 layer_factory.hpp:77] Creating layer pool5
I0715 12:53:30.143785 13391 net.cpp:84] Creating Layer pool5
I0715 12:53:30.143790 13391 net.cpp:406] pool5 <- conv5_3
I0715 12:53:30.143800 13391 net.cpp:380] pool5 -> pool5
I0715 12:53:30.143857 13391 net.cpp:122] Setting up pool5
I0715 12:53:30.143867 13391 net.cpp:129] Top shape: 1 512 23 13 (153088)
I0715 12:53:30.143872 13391 net.cpp:137] Memory required for data: 687061004
I0715 12:53:30.143877 13391 layer_factory.hpp:77] Creating layer fc6
I0715 12:53:30.143888 13391 net.cpp:84] Creating Layer fc6
I0715 12:53:30.143893 13391 net.cpp:406] fc6 <- pool5
I0715 12:53:30.143901 13391 net.cpp:380] fc6 -> fc6
I0715 12:53:30.432039 13391 net.cpp:122] Setting up fc6
I0715 12:53:30.432090 13391 net.cpp:129] Top shape: 1 4096 17 7 (487424)
I0715 12:53:30.432096 13391 net.cpp:137] Memory required for data: 689010700
I0715 12:53:30.432106 13391 layer_factory.hpp:77] Creating layer relu6
I0715 12:53:30.432121 13391 net.cpp:84] Creating Layer relu6
I0715 12:53:30.432126 13391 net.cpp:406] relu6 <- fc6
I0715 12:53:30.432133 13391 net.cpp:367] relu6 -> fc6 (in-place)
I0715 12:53:30.432344 13391 net.cpp:122] Setting up relu6
I0715 12:53:30.432354 13391 net.cpp:129] Top shape: 1 4096 17 7 (487424)
I0715 12:53:30.432358 13391 net.cpp:137] Memory required for data: 690960396
I0715 12:53:30.432363 13391 layer_factory.hpp:77] Creating layer drop6
I0715 12:53:30.432377 13391 net.cpp:84] Creating Layer drop6
I0715 12:53:30.432380 13391 net.cpp:406] drop6 <- fc6
I0715 12:53:30.432386 13391 net.cpp:367] drop6 -> fc6 (in-place)
I0715 12:53:30.432433 13391 net.cpp:122] Setting up drop6
I0715 12:53:30.432438 13391 net.cpp:129] Top shape: 1 4096 17 7 (487424)
I0715 12:53:30.432441 13391 net.cpp:137] Memory required for data: 692910092
I0715 12:53:30.432446 13391 layer_factory.hpp:77] Creating layer fc7
I0715 12:53:30.432456 13391 net.cpp:84] Creating Layer fc7
I0715 12:53:30.432458 13391 net.cpp:406] fc7 <- fc6
I0715 12:53:30.432464 13391 net.cpp:380] fc7 -> fc7
I0715 12:53:30.490808 13391 net.cpp:122] Setting up fc7
I0715 12:53:30.490864 13391 net.cpp:129] Top shape: 1 4096 17 7 (487424)
I0715 12:53:30.490869 13391 net.cpp:137] Memory required for data: 694859788
I0715 12:53:30.490895 13391 layer_factory.hpp:77] Creating layer relu7
I0715 12:53:30.490933 13391 net.cpp:84] Creating Layer relu7
I0715 12:53:30.490947 13391 net.cpp:406] relu7 <- fc7
I0715 12:53:30.490959 13391 net.cpp:367] relu7 -> fc7 (in-place)
I0715 12:53:30.491170 13391 net.cpp:122] Setting up relu7
I0715 12:53:30.491181 13391 net.cpp:129] Top shape: 1 4096 17 7 (487424)
I0715 12:53:30.491185 13391 net.cpp:137] Memory required for data: 696809484
I0715 12:53:30.491189 13391 layer_factory.hpp:77] Creating layer drop7
I0715 12:53:30.491211 13391 net.cpp:84] Creating Layer drop7
I0715 12:53:30.491215 13391 net.cpp:406] drop7 <- fc7
I0715 12:53:30.491222 13391 net.cpp:367] drop7 -> fc7 (in-place)
I0715 12:53:30.491262 13391 net.cpp:122] Setting up drop7
I0715 12:53:30.491268 13391 net.cpp:129] Top shape: 1 4096 17 7 (487424)
I0715 12:53:30.491272 13391 net.cpp:137] Memory required for data: 698759180
I0715 12:53:30.491283 13391 layer_factory.hpp:77] Creating layer score_fr-new
I0715 12:53:30.491313 13391 net.cpp:84] Creating Layer score_fr-new
I0715 12:53:30.491317 13391 net.cpp:406] score_fr-new <- fc7
I0715 12:53:30.491328 13391 net.cpp:380] score_fr-new -> score_fr-new
I0715 12:53:30.493346 13391 net.cpp:122] Setting up score_fr-new
I0715 12:53:30.493360 13391 net.cpp:129] Top shape: 1 3 17 7 (357)
I0715 12:53:30.493378 13391 net.cpp:137] Memory required for data: 698760608
I0715 12:53:30.493392 13391 layer_factory.hpp:77] Creating layer upscore2-new
I0715 12:53:30.493408 13391 net.cpp:84] Creating Layer upscore2-new
I0715 12:53:30.493412 13391 net.cpp:406] upscore2-new <- score_fr-new
I0715 12:53:30.493435 13391 net.cpp:380] upscore2-new -> upscore2-new
I0715 12:53:30.493659 13391 net.cpp:122] Setting up upscore2-new
I0715 12:53:30.493669 13391 net.cpp:129] Top shape: 1 3 36 16 (1728)
I0715 12:53:30.493672 13391 net.cpp:137] Memory required for data: 698767520
I0715 12:53:30.493693 13391 layer_factory.hpp:77] Creating layer upscore2-new_upscore2-new_0_split
I0715 12:53:30.493701 13391 net.cpp:84] Creating Layer upscore2-new_upscore2-new_0_split
I0715 12:53:30.493705 13391 net.cpp:406] upscore2-new_upscore2-new_0_split <- upscore2-new
I0715 12:53:30.493710 13391 net.cpp:380] upscore2-new_upscore2-new_0_split -> upscore2-new_upscore2-new_0_split_0
I0715 12:53:30.493717 13391 net.cpp:380] upscore2-new_upscore2-new_0_split -> upscore2-new_upscore2-new_0_split_1
I0715 12:53:30.493754 13391 net.cpp:122] Setting up upscore2-new_upscore2-new_0_split
I0715 12:53:30.493772 13391 net.cpp:129] Top shape: 1 3 36 16 (1728)
I0715 12:53:30.493777 13391 net.cpp:129] Top shape: 1 3 36 16 (1728)
I0715 12:53:30.493780 13391 net.cpp:137] Memory required for data: 698781344
I0715 12:53:30.493783 13391 layer_factory.hpp:77] Creating layer score_pool4-new
I0715 12:53:30.493793 13391 net.cpp:84] Creating Layer score_pool4-new
I0715 12:53:30.493798 13391 net.cpp:406] score_pool4-new <- pool4_pool4_0_split_1
I0715 12:53:30.493803 13391 net.cpp:380] score_pool4-new -> score_pool4-new
I0715 12:53:30.496525 13391 net.cpp:122] Setting up score_pool4-new
I0715 12:53:30.496556 13391 net.cpp:129] Top shape: 1 3 45 26 (3510)
I0715 12:53:30.496559 13391 net.cpp:137] Memory required for data: 698795384
I0715 12:53:30.496567 13391 layer_factory.hpp:77] Creating layer score_pool4c
I0715 12:53:30.496577 13391 net.cpp:84] Creating Layer score_pool4c
I0715 12:53:30.496582 13391 net.cpp:406] score_pool4c <- score_pool4-new
I0715 12:53:30.496594 13391 net.cpp:406] score_pool4c <- upscore2-new_upscore2-new_0_split_0
I0715 12:53:30.496616 13391 net.cpp:380] score_pool4c -> score_pool4c
I0715 12:53:30.496650 13391 net.cpp:122] Setting up score_pool4c
I0715 12:53:30.496656 13391 net.cpp:129] Top shape: 1 3 36 16 (1728)
I0715 12:53:30.496659 13391 net.cpp:137] Memory required for data: 698802296
I0715 12:53:30.496668 13391 layer_factory.hpp:77] Creating layer fuse_pool4
I0715 12:53:30.496693 13391 net.cpp:84] Creating Layer fuse_pool4
I0715 12:53:30.496697 13391 net.cpp:406] fuse_pool4 <- upscore2-new_upscore2-new_0_split_1
I0715 12:53:30.496701 13391 net.cpp:406] fuse_pool4 <- score_pool4c
I0715 12:53:30.496708 13391 net.cpp:380] fuse_pool4 -> fuse_pool4
I0715 12:53:30.496747 13391 net.cpp:122] Setting up fuse_pool4
I0715 12:53:30.496752 13391 net.cpp:129] Top shape: 1 3 36 16 (1728)
I0715 12:53:30.496755 13391 net.cpp:137] Memory required for data: 698809208
I0715 12:53:30.496758 13391 layer_factory.hpp:77] Creating layer upscore_pool4-new
I0715 12:53:30.496767 13391 net.cpp:84] Creating Layer upscore_pool4-new
I0715 12:53:30.496771 13391 net.cpp:406] upscore_pool4-new <- fuse_pool4
I0715 12:53:30.496778 13391 net.cpp:380] upscore_pool4-new -> upscore_pool4-new
I0715 12:53:30.496968 13391 net.cpp:122] Setting up upscore_pool4-new
I0715 12:53:30.496975 13391 net.cpp:129] Top shape: 1 3 74 34 (7548)
I0715 12:53:30.496978 13391 net.cpp:137] Memory required for data: 698839400
I0715 12:53:30.496984 13391 layer_factory.hpp:77] Creating layer upscore_pool4-new_upscore_pool4-new_0_split
I0715 12:53:30.496989 13391 net.cpp:84] Creating Layer upscore_pool4-new_upscore_pool4-new_0_split
I0715 12:53:30.496994 13391 net.cpp:406] upscore_pool4-new_upscore_pool4-new_0_split <- upscore_pool4-new
I0715 12:53:30.496999 13391 net.cpp:380] upscore_pool4-new_upscore_pool4-new_0_split -> upscore_pool4-new_upscore_pool4-new_0_split_0
I0715 12:53:30.497005 13391 net.cpp:380] upscore_pool4-new_upscore_pool4-new_0_split -> upscore_pool4-new_upscore_pool4-new_0_split_1
I0715 12:53:30.497041 13391 net.cpp:122] Setting up upscore_pool4-new_upscore_pool4-new_0_split
I0715 12:53:30.497046 13391 net.cpp:129] Top shape: 1 3 74 34 (7548)
I0715 12:53:30.497051 13391 net.cpp:129] Top shape: 1 3 74 34 (7548)
I0715 12:53:30.497053 13391 net.cpp:137] Memory required for data: 698899784
I0715 12:53:30.497056 13391 layer_factory.hpp:77] Creating layer score_pool3-new
I0715 12:53:30.497071 13391 net.cpp:84] Creating Layer score_pool3-new
I0715 12:53:30.497076 13391 net.cpp:406] score_pool3-new <- pool3_pool3_0_split_1
I0715 12:53:30.497081 13391 net.cpp:380] score_pool3-new -> score_pool3-new
I0715 12:53:30.498332 13391 net.cpp:122] Setting up score_pool3-new
I0715 12:53:30.498345 13391 net.cpp:129] Top shape: 1 3 89 51 (13617)
I0715 12:53:30.498363 13391 net.cpp:137] Memory required for data: 698954252
I0715 12:53:30.498370 13391 layer_factory.hpp:77] Creating layer score_pool3c
I0715 12:53:30.498378 13391 net.cpp:84] Creating Layer score_pool3c
I0715 12:53:30.498383 13391 net.cpp:406] score_pool3c <- score_pool3-new
I0715 12:53:30.498387 13391 net.cpp:406] score_pool3c <- upscore_pool4-new_upscore_pool4-new_0_split_0
I0715 12:53:30.498394 13391 net.cpp:380] score_pool3c -> score_pool3c
I0715 12:53:30.498437 13391 net.cpp:122] Setting up score_pool3c
I0715 12:53:30.498445 13391 net.cpp:129] Top shape: 1 3 74 34 (7548)
I0715 12:53:30.498447 13391 net.cpp:137] Memory required for data: 698984444
I0715 12:53:30.498450 13391 layer_factory.hpp:77] Creating layer fuse_pool3
I0715 12:53:30.498456 13391 net.cpp:84] Creating Layer fuse_pool3
I0715 12:53:30.498459 13391 net.cpp:406] fuse_pool3 <- upscore_pool4-new_upscore_pool4-new_0_split_1
I0715 12:53:30.498464 13391 net.cpp:406] fuse_pool3 <- score_pool3c
I0715 12:53:30.498469 13391 net.cpp:380] fuse_pool3 -> fuse_pool3
I0715 12:53:30.498510 13391 net.cpp:122] Setting up fuse_pool3
I0715 12:53:30.498515 13391 net.cpp:129] Top shape: 1 3 74 34 (7548)
I0715 12:53:30.498518 13391 net.cpp:137] Memory required for data: 699014636
I0715 12:53:30.498522 13391 layer_factory.hpp:77] Creating layer upscore8-new
I0715 12:53:30.498528 13391 net.cpp:84] Creating Layer upscore8-new
I0715 12:53:30.498533 13391 net.cpp:406] upscore8-new <- fuse_pool3
I0715 12:53:30.498538 13391 net.cpp:380] upscore8-new -> upscore8-new
I0715 12:53:30.498746 13391 net.cpp:122] Setting up upscore8-new
I0715 12:53:30.498755 13391 net.cpp:129] Top shape: 1 3 600 280 (504000)
I0715 12:53:30.498759 13391 net.cpp:137] Memory required for data: 701030636
I0715 12:53:30.498764 13391 layer_factory.hpp:77] Creating layer upscore8_cropped
I0715 12:53:30.498786 13391 net.cpp:84] Creating Layer upscore8_cropped
I0715 12:53:30.498790 13391 net.cpp:406] upscore8_cropped <- upscore8-new
I0715 12:53:30.498797 13391 net.cpp:406] upscore8_cropped <- data_data_0_split_1
I0715 12:53:30.498802 13391 net.cpp:380] upscore8_cropped -> upscore8_cropped
I0715 12:53:30.498826 13391 net.cpp:122] Setting up upscore8_cropped
I0715 12:53:30.498831 13391 net.cpp:129] Top shape: 1 3 512 209 (321024)
I0715 12:53:30.498834 13391 net.cpp:137] Memory required for data: 702314732
I0715 12:53:30.498837 13391 layer_factory.hpp:77] Creating layer upscore8_cropped_upscore8_cropped_0_split
I0715 12:53:30.498843 13391 net.cpp:84] Creating Layer upscore8_cropped_upscore8_cropped_0_split
I0715 12:53:30.498847 13391 net.cpp:406] upscore8_cropped_upscore8_cropped_0_split <- upscore8_cropped
I0715 12:53:30.498854 13391 net.cpp:380] upscore8_cropped_upscore8_cropped_0_split -> upscore8_cropped_upscore8_cropped_0_split_0
I0715 12:53:30.498860 13391 net.cpp:380] upscore8_cropped_upscore8_cropped_0_split -> upscore8_cropped_upscore8_cropped_0_split_1
I0715 12:53:30.498895 13391 net.cpp:122] Setting up upscore8_cropped_upscore8_cropped_0_split
I0715 12:53:30.498900 13391 net.cpp:129] Top shape: 1 3 512 209 (321024)
I0715 12:53:30.498904 13391 net.cpp:129] Top shape: 1 3 512 209 (321024)
I0715 12:53:30.498908 13391 net.cpp:137] Memory required for data: 704882924
I0715 12:53:30.498910 13391 layer_factory.hpp:77] Creating layer prob
I0715 12:53:30.498916 13391 net.cpp:84] Creating Layer prob
I0715 12:53:30.498919 13391 net.cpp:406] prob <- upscore8_cropped_upscore8_cropped_0_split_0
I0715 12:53:30.498925 13391 net.cpp:380] prob -> prob
I0715 12:53:30.499171 13391 net.cpp:122] Setting up prob
I0715 12:53:30.499181 13391 net.cpp:129] Top shape: 1 3 512 209 (321024)
I0715 12:53:30.499186 13391 net.cpp:137] Memory required for data: 706167020
I0715 12:53:30.499188 13391 layer_factory.hpp:77] Creating layer saliency1
I0715 12:53:30.499204 13391 net.cpp:84] Creating Layer saliency1
I0715 12:53:30.499208 13391 net.cpp:406] saliency1 <- prob
I0715 12:53:30.499215 13391 net.cpp:380] saliency1 -> saliency1
I0715 12:53:30.502200 13391 net.cpp:122] Setting up saliency1
I0715 12:53:30.502233 13391 net.cpp:129] Top shape: 1 3 512 209 (321024)
I0715 12:53:30.502238 13391 net.cpp:137] Memory required for data: 707451116
I0715 12:53:30.502255 13391 layer_factory.hpp:77] Creating layer relu_saliency1
I0715 12:53:30.502266 13391 net.cpp:84] Creating Layer relu_saliency1
I0715 12:53:30.502271 13391 net.cpp:406] relu_saliency1 <- saliency1
I0715 12:53:30.502279 13391 net.cpp:367] relu_saliency1 -> saliency1 (in-place)
I0715 12:53:30.502542 13391 net.cpp:122] Setting up relu_saliency1
I0715 12:53:30.502555 13391 net.cpp:129] Top shape: 1 3 512 209 (321024)
I0715 12:53:30.502559 13391 net.cpp:137] Memory required for data: 708735212
I0715 12:53:30.502563 13391 layer_factory.hpp:77] Creating layer saliency
I0715 12:53:30.502576 13391 net.cpp:84] Creating Layer saliency
I0715 12:53:30.502581 13391 net.cpp:406] saliency <- saliency1
I0715 12:53:30.502591 13391 net.cpp:380] saliency -> saliency
I0715 12:53:30.508584 13391 net.cpp:122] Setting up saliency
I0715 12:53:30.508630 13391 net.cpp:129] Top shape: 1 3 512 209 (321024)
I0715 12:53:30.508638 13391 net.cpp:137] Memory required for data: 710019308
I0715 12:53:30.508659 13391 layer_factory.hpp:77] Creating layer silence_saliency
I0715 12:53:30.508705 13391 net.cpp:84] Creating Layer silence_saliency
I0715 12:53:30.508716 13391 net.cpp:406] silence_saliency <- saliency
I0715 12:53:30.508734 13391 net.cpp:122] Setting up silence_saliency
I0715 12:53:30.508740 13391 net.cpp:137] Memory required for data: 710019308
I0715 12:53:30.508757 13391 layer_factory.hpp:77] Creating layer crop
I0715 12:53:30.510071 13391 net.cpp:84] Creating Layer crop
I0715 12:53:30.510090 13391 net.cpp:406] crop <- label_data_1_split_0
I0715 12:53:30.510102 13391 net.cpp:406] crop <- data_data_0_split_2
I0715 12:53:30.510114 13391 net.cpp:406] crop <- crop_margin
I0715 12:53:30.510123 13391 net.cpp:406] crop <- crop_prob
I0715 12:53:30.510131 13391 net.cpp:406] crop <- crop_sample_batch
I0715 12:53:30.510143 13391 net.cpp:380] crop -> data-R
I0715 12:53:30.510167 13391 net.cpp:380] crop -> crop_info
I0715 12:53:30.521561 13391 net.cpp:122] Setting up crop
I0715 12:53:30.521584 13391 net.cpp:129] Top shape: 1 3 512 209 (321024)
I0715 12:53:30.521591 13391 net.cpp:129] Top shape: 1 2 4 (8)
I0715 12:53:30.521595 13391 net.cpp:137] Memory required for data: 711303436
I0715 12:53:30.521603 13391 layer_factory.hpp:77] Creating layer data-R_crop_0_split
I0715 12:53:30.521615 13391 net.cpp:84] Creating Layer data-R_crop_0_split
I0715 12:53:30.521621 13391 net.cpp:406] data-R_crop_0_split <- data-R
I0715 12:53:30.521630 13391 net.cpp:380] data-R_crop_0_split -> data-R_crop_0_split_0
I0715 12:53:30.521639 13391 net.cpp:380] data-R_crop_0_split -> data-R_crop_0_split_1
I0715 12:53:30.521688 13391 net.cpp:122] Setting up data-R_crop_0_split
I0715 12:53:30.521694 13391 net.cpp:129] Top shape: 1 3 512 209 (321024)
I0715 12:53:30.521699 13391 net.cpp:129] Top shape: 1 3 512 209 (321024)
I0715 12:53:30.521704 13391 net.cpp:137] Memory required for data: 713871628
I0715 12:53:30.521708 13391 layer_factory.hpp:77] Creating layer conv1_1-R
I0715 12:53:30.521731 13391 net.cpp:84] Creating Layer conv1_1-R
I0715 12:53:30.521736 13391 net.cpp:406] conv1_1-R <- data-R_crop_0_split_0
I0715 12:53:30.521749 13391 net.cpp:380] conv1_1-R -> conv1_1-R
I0715 12:53:30.526082 13391 net.cpp:122] Setting up conv1_1-R
I0715 12:53:30.526100 13391 net.cpp:129] Top shape: 1 64 710 407 (18494080)
I0715 12:53:30.526105 13391 net.cpp:137] Memory required for data: 787847948
I0715 12:53:30.526118 13391 layer_factory.hpp:77] Creating layer relu1_1-R
I0715 12:53:30.526151 13391 net.cpp:84] Creating Layer relu1_1-R
I0715 12:53:30.526157 13391 net.cpp:406] relu1_1-R <- conv1_1-R
I0715 12:53:30.526165 13391 net.cpp:367] relu1_1-R -> conv1_1-R (in-place)
I0715 12:53:30.526427 13391 net.cpp:122] Setting up relu1_1-R
I0715 12:53:30.526438 13391 net.cpp:129] Top shape: 1 64 710 407 (18494080)
I0715 12:53:30.526443 13391 net.cpp:137] Memory required for data: 861824268
I0715 12:53:30.526448 13391 layer_factory.hpp:77] Creating layer conv1_2-R
I0715 12:53:30.526459 13391 net.cpp:84] Creating Layer conv1_2-R
I0715 12:53:30.526463 13391 net.cpp:406] conv1_2-R <- conv1_1-R
I0715 12:53:30.526471 13391 net.cpp:380] conv1_2-R -> conv1_2-R
I0715 12:53:30.530128 13391 net.cpp:122] Setting up conv1_2-R
I0715 12:53:30.530145 13391 net.cpp:129] Top shape: 1 64 710 407 (18494080)
I0715 12:53:30.530150 13391 net.cpp:137] Memory required for data: 935800588
I0715 12:53:30.530163 13391 layer_factory.hpp:77] Creating layer relu1_2-R
I0715 12:53:30.530171 13391 net.cpp:84] Creating Layer relu1_2-R
I0715 12:53:30.530176 13391 net.cpp:406] relu1_2-R <- conv1_2-R
I0715 12:53:30.530185 13391 net.cpp:367] relu1_2-R -> conv1_2-R (in-place)
I0715 12:53:30.531049 13391 net.cpp:122] Setting up relu1_2-R
I0715 12:53:30.531066 13391 net.cpp:129] Top shape: 1 64 710 407 (18494080)
I0715 12:53:30.531070 13391 net.cpp:137] Memory required for data: 1009776908
I0715 12:53:30.531076 13391 layer_factory.hpp:77] Creating layer pool1-R
I0715 12:53:30.531090 13391 net.cpp:84] Creating Layer pool1-R
I0715 12:53:30.531095 13391 net.cpp:406] pool1-R <- conv1_2-R
I0715 12:53:30.531105 13391 net.cpp:380] pool1-R -> pool1-R
I0715 12:53:30.531168 13391 net.cpp:122] Setting up pool1-R
I0715 12:53:30.531175 13391 net.cpp:129] Top shape: 1 64 355 204 (4634880)
I0715 12:53:30.531179 13391 net.cpp:137] Memory required for data: 1028316428
I0715 12:53:30.531184 13391 layer_factory.hpp:77] Creating layer conv2_1-R
I0715 12:53:30.531193 13391 net.cpp:84] Creating Layer conv2_1-R
I0715 12:53:30.531198 13391 net.cpp:406] conv2_1-R <- pool1-R
I0715 12:53:30.531205 13391 net.cpp:380] conv2_1-R -> conv2_1-R
I0715 12:53:30.532929 13391 net.cpp:122] Setting up conv2_1-R
I0715 12:53:30.532945 13391 net.cpp:129] Top shape: 1 128 355 204 (9269760)
I0715 12:53:30.532950 13391 net.cpp:137] Memory required for data: 1065395468
I0715 12:53:30.532958 13391 layer_factory.hpp:77] Creating layer relu2_1-R
I0715 12:53:30.532966 13391 net.cpp:84] Creating Layer relu2_1-R
I0715 12:53:30.532971 13391 net.cpp:406] relu2_1-R <- conv2_1-R
I0715 12:53:30.532979 13391 net.cpp:367] relu2_1-R -> conv2_1-R (in-place)
I0715 12:53:30.533758 13391 net.cpp:122] Setting up relu2_1-R
I0715 12:53:30.533773 13391 net.cpp:129] Top shape: 1 128 355 204 (9269760)
I0715 12:53:30.533778 13391 net.cpp:137] Memory required for data: 1102474508
I0715 12:53:30.533785 13391 layer_factory.hpp:77] Creating layer conv2_2-R
I0715 12:53:30.533797 13391 net.cpp:84] Creating Layer conv2_2-R
I0715 12:53:30.533802 13391 net.cpp:406] conv2_2-R <- conv2_1-R
I0715 12:53:30.533812 13391 net.cpp:380] conv2_2-R -> conv2_2-R
I0715 12:53:30.537192 13391 net.cpp:122] Setting up conv2_2-R
I0715 12:53:30.537225 13391 net.cpp:129] Top shape: 1 128 355 204 (9269760)
I0715 12:53:30.537230 13391 net.cpp:137] Memory required for data: 1139553548
I0715 12:53:30.537238 13391 layer_factory.hpp:77] Creating layer relu2_2-R
I0715 12:53:30.537246 13391 net.cpp:84] Creating Layer relu2_2-R
I0715 12:53:30.537252 13391 net.cpp:406] relu2_2-R <- conv2_2-R
I0715 12:53:30.537261 13391 net.cpp:367] relu2_2-R -> conv2_2-R (in-place)
I0715 12:53:30.537535 13391 net.cpp:122] Setting up relu2_2-R
I0715 12:53:30.537549 13391 net.cpp:129] Top shape: 1 128 355 204 (9269760)
I0715 12:53:30.537552 13391 net.cpp:137] Memory required for data: 1176632588
I0715 12:53:30.537557 13391 layer_factory.hpp:77] Creating layer pool2-R
I0715 12:53:30.537567 13391 net.cpp:84] Creating Layer pool2-R
I0715 12:53:30.537572 13391 net.cpp:406] pool2-R <- conv2_2-R
I0715 12:53:30.537581 13391 net.cpp:380] pool2-R -> pool2-R
I0715 12:53:30.537642 13391 net.cpp:122] Setting up pool2-R
I0715 12:53:30.537650 13391 net.cpp:129] Top shape: 1 128 178 102 (2323968)
I0715 12:53:30.537654 13391 net.cpp:137] Memory required for data: 1185928460
I0715 12:53:30.537658 13391 layer_factory.hpp:77] Creating layer conv3_1-R
I0715 12:53:30.537670 13391 net.cpp:84] Creating Layer conv3_1-R
I0715 12:53:30.537675 13391 net.cpp:406] conv3_1-R <- pool2-R
I0715 12:53:30.537683 13391 net.cpp:380] conv3_1-R -> conv3_1-R
I0715 12:53:30.544803 13391 net.cpp:122] Setting up conv3_1-R
I0715 12:53:30.544836 13391 net.cpp:129] Top shape: 1 256 178 102 (4647936)
I0715 12:53:30.544842 13391 net.cpp:137] Memory required for data: 1204520204
I0715 12:53:30.544858 13391 layer_factory.hpp:77] Creating layer relu3_1-R
I0715 12:53:30.544869 13391 net.cpp:84] Creating Layer relu3_1-R
I0715 12:53:30.544876 13391 net.cpp:406] relu3_1-R <- conv3_1-R
I0715 12:53:30.544898 13391 net.cpp:367] relu3_1-R -> conv3_1-R (in-place)
I0715 12:53:30.545224 13391 net.cpp:122] Setting up relu3_1-R
I0715 12:53:30.545240 13391 net.cpp:129] Top shape: 1 256 178 102 (4647936)
I0715 12:53:30.545246 13391 net.cpp:137] Memory required for data: 1223111948
I0715 12:53:30.545251 13391 layer_factory.hpp:77] Creating layer conv3_2-R
I0715 12:53:30.545269 13391 net.cpp:84] Creating Layer conv3_2-R
I0715 12:53:30.545275 13391 net.cpp:406] conv3_2-R <- conv3_1-R
I0715 12:53:30.545284 13391 net.cpp:380] conv3_2-R -> conv3_2-R
I0715 12:53:30.550930 13391 net.cpp:122] Setting up conv3_2-R
I0715 12:53:30.550963 13391 net.cpp:129] Top shape: 1 256 178 102 (4647936)
I0715 12:53:30.550971 13391 net.cpp:137] Memory required for data: 1241703692
I0715 12:53:30.550982 13391 layer_factory.hpp:77] Creating layer relu3_2-R
I0715 12:53:30.550992 13391 net.cpp:84] Creating Layer relu3_2-R
I0715 12:53:30.550998 13391 net.cpp:406] relu3_2-R <- conv3_2-R
I0715 12:53:30.551007 13391 net.cpp:367] relu3_2-R -> conv3_2-R (in-place)
I0715 12:53:30.551363 13391 net.cpp:122] Setting up relu3_2-R
I0715 12:53:30.551379 13391 net.cpp:129] Top shape: 1 256 178 102 (4647936)
I0715 12:53:30.551384 13391 net.cpp:137] Memory required for data: 1260295436
I0715 12:53:30.551390 13391 layer_factory.hpp:77] Creating layer conv3_3-R
I0715 12:53:30.551404 13391 net.cpp:84] Creating Layer conv3_3-R
I0715 12:53:30.551410 13391 net.cpp:406] conv3_3-R <- conv3_2-R
I0715 12:53:30.551422 13391 net.cpp:380] conv3_3-R -> conv3_3-R
I0715 12:53:30.557456 13391 net.cpp:122] Setting up conv3_3-R
I0715 12:53:30.557476 13391 net.cpp:129] Top shape: 1 256 178 102 (4647936)
I0715 12:53:30.557489 13391 net.cpp:137] Memory required for data: 1278887180
I0715 12:53:30.557500 13391 layer_factory.hpp:77] Creating layer relu3_3-R
I0715 12:53:30.557512 13391 net.cpp:84] Creating Layer relu3_3-R
I0715 12:53:30.557516 13391 net.cpp:406] relu3_3-R <- conv3_3-R
I0715 12:53:30.557523 13391 net.cpp:367] relu3_3-R -> conv3_3-R (in-place)
I0715 12:53:30.557793 13391 net.cpp:122] Setting up relu3_3-R
I0715 12:53:30.557806 13391 net.cpp:129] Top shape: 1 256 178 102 (4647936)
I0715 12:53:30.557809 13391 net.cpp:137] Memory required for data: 1297478924
I0715 12:53:30.557814 13391 layer_factory.hpp:77] Creating layer pool3-R
I0715 12:53:30.557823 13391 net.cpp:84] Creating Layer pool3-R
I0715 12:53:30.557828 13391 net.cpp:406] pool3-R <- conv3_3-R
I0715 12:53:30.557838 13391 net.cpp:380] pool3-R -> pool3-R
I0715 12:53:30.557899 13391 net.cpp:122] Setting up pool3-R
I0715 12:53:30.557909 13391 net.cpp:129] Top shape: 1 256 89 51 (1161984)
I0715 12:53:30.557912 13391 net.cpp:137] Memory required for data: 1302126860
I0715 12:53:30.557915 13391 layer_factory.hpp:77] Creating layer pool3-R_pool3-R_0_split
I0715 12:53:30.557925 13391 net.cpp:84] Creating Layer pool3-R_pool3-R_0_split
I0715 12:53:30.557929 13391 net.cpp:406] pool3-R_pool3-R_0_split <- pool3-R
I0715 12:53:30.557935 13391 net.cpp:380] pool3-R_pool3-R_0_split -> pool3-R_pool3-R_0_split_0
I0715 12:53:30.557942 13391 net.cpp:380] pool3-R_pool3-R_0_split -> pool3-R_pool3-R_0_split_1
I0715 12:53:30.557992 13391 net.cpp:122] Setting up pool3-R_pool3-R_0_split
I0715 12:53:30.558001 13391 net.cpp:129] Top shape: 1 256 89 51 (1161984)
I0715 12:53:30.558007 13391 net.cpp:129] Top shape: 1 256 89 51 (1161984)
I0715 12:53:30.558010 13391 net.cpp:137] Memory required for data: 1311422732
I0715 12:53:30.558014 13391 layer_factory.hpp:77] Creating layer conv4_1-R
I0715 12:53:30.558025 13391 net.cpp:84] Creating Layer conv4_1-R
I0715 12:53:30.558029 13391 net.cpp:406] conv4_1-R <- pool3-R_pool3-R_0_split_0
I0715 12:53:30.558037 13391 net.cpp:380] conv4_1-R -> conv4_1-R
I0715 12:53:30.564926 13391 net.cpp:122] Setting up conv4_1-R
I0715 12:53:30.564945 13391 net.cpp:129] Top shape: 1 512 89 51 (2323968)
I0715 12:53:30.564950 13391 net.cpp:137] Memory required for data: 1320718604
I0715 12:53:30.564963 13391 layer_factory.hpp:77] Creating layer relu4_1-R
I0715 12:53:30.564971 13391 net.cpp:84] Creating Layer relu4_1-R
I0715 12:53:30.564976 13391 net.cpp:406] relu4_1-R <- conv4_1-R
I0715 12:53:30.564986 13391 net.cpp:367] relu4_1-R -> conv4_1-R (in-place)
I0715 12:53:30.565798 13391 net.cpp:122] Setting up relu4_1-R
I0715 12:53:30.565814 13391 net.cpp:129] Top shape: 1 512 89 51 (2323968)
I0715 12:53:30.565829 13391 net.cpp:137] Memory required for data: 1330014476
I0715 12:53:30.565834 13391 layer_factory.hpp:77] Creating layer conv4_2-R
I0715 12:53:30.565847 13391 net.cpp:84] Creating Layer conv4_2-R
I0715 12:53:30.565851 13391 net.cpp:406] conv4_2-R <- conv4_1-R
I0715 12:53:30.565861 13391 net.cpp:380] conv4_2-R -> conv4_2-R
I0715 12:53:30.575301 13391 net.cpp:122] Setting up conv4_2-R
I0715 12:53:30.575342 13391 net.cpp:129] Top shape: 1 512 89 51 (2323968)
I0715 12:53:30.575348 13391 net.cpp:137] Memory required for data: 1339310348
I0715 12:53:30.575359 13391 layer_factory.hpp:77] Creating layer relu4_2-R
I0715 12:53:30.575371 13391 net.cpp:84] Creating Layer relu4_2-R
I0715 12:53:30.575377 13391 net.cpp:406] relu4_2-R <- conv4_2-R
I0715 12:53:30.575387 13391 net.cpp:367] relu4_2-R -> conv4_2-R (in-place)
I0715 12:53:30.576558 13391 net.cpp:122] Setting up relu4_2-R
I0715 12:53:30.576575 13391 net.cpp:129] Top shape: 1 512 89 51 (2323968)
I0715 12:53:30.576581 13391 net.cpp:137] Memory required for data: 1348606220
I0715 12:53:30.576589 13391 layer_factory.hpp:77] Creating layer conv4_3-R
I0715 12:53:30.576606 13391 net.cpp:84] Creating Layer conv4_3-R
I0715 12:53:30.576612 13391 net.cpp:406] conv4_3-R <- conv4_2-R
I0715 12:53:30.576622 13391 net.cpp:380] conv4_3-R -> conv4_3-R
I0715 12:53:30.587230 13391 net.cpp:122] Setting up conv4_3-R
I0715 12:53:30.587263 13391 net.cpp:129] Top shape: 1 512 89 51 (2323968)
I0715 12:53:30.587268 13391 net.cpp:137] Memory required for data: 1357902092
I0715 12:53:30.587301 13391 layer_factory.hpp:77] Creating layer relu4_3-R
I0715 12:53:30.587323 13391 net.cpp:84] Creating Layer relu4_3-R
I0715 12:53:30.587328 13391 net.cpp:406] relu4_3-R <- conv4_3-R
I0715 12:53:30.587335 13391 net.cpp:367] relu4_3-R -> conv4_3-R (in-place)
I0715 12:53:30.587566 13391 net.cpp:122] Setting up relu4_3-R
I0715 12:53:30.587579 13391 net.cpp:129] Top shape: 1 512 89 51 (2323968)
I0715 12:53:30.587584 13391 net.cpp:137] Memory required for data: 1367197964
I0715 12:53:30.587587 13391 layer_factory.hpp:77] Creating layer pool4-R
I0715 12:53:30.587596 13391 net.cpp:84] Creating Layer pool4-R
I0715 12:53:30.587600 13391 net.cpp:406] pool4-R <- conv4_3-R
I0715 12:53:30.587610 13391 net.cpp:380] pool4-R -> pool4-R
I0715 12:53:30.587707 13391 net.cpp:122] Setting up pool4-R
I0715 12:53:30.587716 13391 net.cpp:129] Top shape: 1 512 45 26 (599040)
I0715 12:53:30.587720 13391 net.cpp:137] Memory required for data: 1369594124
I0715 12:53:30.587724 13391 layer_factory.hpp:77] Creating layer pool4-R_pool4-R_0_split
I0715 12:53:30.587731 13391 net.cpp:84] Creating Layer pool4-R_pool4-R_0_split
I0715 12:53:30.587735 13391 net.cpp:406] pool4-R_pool4-R_0_split <- pool4-R
I0715 12:53:30.587743 13391 net.cpp:380] pool4-R_pool4-R_0_split -> pool4-R_pool4-R_0_split_0
I0715 12:53:30.587750 13391 net.cpp:380] pool4-R_pool4-R_0_split -> pool4-R_pool4-R_0_split_1
I0715 12:53:30.587795 13391 net.cpp:122] Setting up pool4-R_pool4-R_0_split
I0715 12:53:30.587806 13391 net.cpp:129] Top shape: 1 512 45 26 (599040)
I0715 12:53:30.587811 13391 net.cpp:129] Top shape: 1 512 45 26 (599040)
I0715 12:53:30.587815 13391 net.cpp:137] Memory required for data: 1374386444
I0715 12:53:30.587819 13391 layer_factory.hpp:77] Creating layer conv5_1-R
I0715 12:53:30.587831 13391 net.cpp:84] Creating Layer conv5_1-R
I0715 12:53:30.587834 13391 net.cpp:406] conv5_1-R <- pool4-R_pool4-R_0_split_0
I0715 12:53:30.587842 13391 net.cpp:380] conv5_1-R -> conv5_1-R
I0715 12:53:30.597972 13391 net.cpp:122] Setting up conv5_1-R
I0715 12:53:30.598017 13391 net.cpp:129] Top shape: 1 512 45 26 (599040)
I0715 12:53:30.598023 13391 net.cpp:137] Memory required for data: 1376782604
I0715 12:53:30.598060 13391 layer_factory.hpp:77] Creating layer relu5_1-R
I0715 12:53:30.598074 13391 net.cpp:84] Creating Layer relu5_1-R
I0715 12:53:30.598081 13391 net.cpp:406] relu5_1-R <- conv5_1-R
I0715 12:53:30.598089 13391 net.cpp:367] relu5_1-R -> conv5_1-R (in-place)
I0715 12:53:30.598345 13391 net.cpp:122] Setting up relu5_1-R
I0715 12:53:30.598357 13391 net.cpp:129] Top shape: 1 512 45 26 (599040)
I0715 12:53:30.598361 13391 net.cpp:137] Memory required for data: 1379178764
I0715 12:53:30.598366 13391 layer_factory.hpp:77] Creating layer conv5_2-R
I0715 12:53:30.598381 13391 net.cpp:84] Creating Layer conv5_2-R
I0715 12:53:30.598384 13391 net.cpp:406] conv5_2-R <- conv5_1-R
I0715 12:53:30.598393 13391 net.cpp:380] conv5_2-R -> conv5_2-R
I0715 12:53:30.610013 13391 net.cpp:122] Setting up conv5_2-R
I0715 12:53:30.610033 13391 net.cpp:129] Top shape: 1 512 45 26 (599040)
I0715 12:53:30.610049 13391 net.cpp:137] Memory required for data: 1381574924
I0715 12:53:30.610059 13391 layer_factory.hpp:77] Creating layer relu5_2-R
I0715 12:53:30.610069 13391 net.cpp:84] Creating Layer relu5_2-R
I0715 12:53:30.610074 13391 net.cpp:406] relu5_2-R <- conv5_2-R
I0715 12:53:30.610082 13391 net.cpp:367] relu5_2-R -> conv5_2-R (in-place)
I0715 12:53:30.610327 13391 net.cpp:122] Setting up relu5_2-R
I0715 12:53:30.610339 13391 net.cpp:129] Top shape: 1 512 45 26 (599040)
I0715 12:53:30.610343 13391 net.cpp:137] Memory required for data: 1383971084
I0715 12:53:30.610347 13391 layer_factory.hpp:77] Creating layer conv5_3-R
I0715 12:53:30.610363 13391 net.cpp:84] Creating Layer conv5_3-R
I0715 12:53:30.610368 13391 net.cpp:406] conv5_3-R <- conv5_2-R
I0715 12:53:30.610375 13391 net.cpp:380] conv5_3-R -> conv5_3-R
I0715 12:53:30.620105 13391 net.cpp:122] Setting up conv5_3-R
I0715 12:53:30.620146 13391 net.cpp:129] Top shape: 1 512 45 26 (599040)
I0715 12:53:30.620151 13391 net.cpp:137] Memory required for data: 1386367244
I0715 12:53:30.620167 13391 layer_factory.hpp:77] Creating layer relu5_3-R
I0715 12:53:30.620182 13391 net.cpp:84] Creating Layer relu5_3-R
I0715 12:53:30.620188 13391 net.cpp:406] relu5_3-R <- conv5_3-R
I0715 12:53:30.620198 13391 net.cpp:367] relu5_3-R -> conv5_3-R (in-place)
I0715 12:53:30.620450 13391 net.cpp:122] Setting up relu5_3-R
I0715 12:53:30.620463 13391 net.cpp:129] Top shape: 1 512 45 26 (599040)
I0715 12:53:30.620468 13391 net.cpp:137] Memory required for data: 1388763404
I0715 12:53:30.620473 13391 layer_factory.hpp:77] Creating layer pool5-R
I0715 12:53:30.620486 13391 net.cpp:84] Creating Layer pool5-R
I0715 12:53:30.620491 13391 net.cpp:406] pool5-R <- conv5_3-R
I0715 12:53:30.620499 13391 net.cpp:380] pool5-R -> pool5-R
I0715 12:53:30.620564 13391 net.cpp:122] Setting up pool5-R
I0715 12:53:30.620575 13391 net.cpp:129] Top shape: 1 512 23 13 (153088)
I0715 12:53:30.620579 13391 net.cpp:137] Memory required for data: 1389375756
I0715 12:53:30.620584 13391 layer_factory.hpp:77] Creating layer fc6-R
I0715 12:53:30.620595 13391 net.cpp:84] Creating Layer fc6-R
I0715 12:53:30.620600 13391 net.cpp:406] fc6-R <- pool5-R
I0715 12:53:30.620609 13391 net.cpp:380] fc6-R -> fc6-R
I0715 12:53:30.948401 13391 net.cpp:122] Setting up fc6-R
I0715 12:53:30.948447 13391 net.cpp:129] Top shape: 1 4096 17 7 (487424)
I0715 12:53:30.948453 13391 net.cpp:137] Memory required for data: 1391325452
I0715 12:53:30.948467 13391 layer_factory.hpp:77] Creating layer relu6-R
I0715 12:53:30.948482 13391 net.cpp:84] Creating Layer relu6-R
I0715 12:53:30.948489 13391 net.cpp:406] relu6-R <- fc6-R
I0715 12:53:30.948498 13391 net.cpp:367] relu6-R -> fc6-R (in-place)
I0715 12:53:30.949380 13391 net.cpp:122] Setting up relu6-R
I0715 12:53:30.949398 13391 net.cpp:129] Top shape: 1 4096 17 7 (487424)
I0715 12:53:30.949401 13391 net.cpp:137] Memory required for data: 1393275148
I0715 12:53:30.949410 13391 layer_factory.hpp:77] Creating layer drop6-R
I0715 12:53:30.949422 13391 net.cpp:84] Creating Layer drop6-R
I0715 12:53:30.949426 13391 net.cpp:406] drop6-R <- fc6-R
I0715 12:53:30.949435 13391 net.cpp:367] drop6-R -> fc6-R (in-place)
I0715 12:53:30.949478 13391 net.cpp:122] Setting up drop6-R
I0715 12:53:30.949486 13391 net.cpp:129] Top shape: 1 4096 17 7 (487424)
I0715 12:53:30.949489 13391 net.cpp:137] Memory required for data: 1395224844
I0715 12:53:30.949493 13391 layer_factory.hpp:77] Creating layer fc7-R
I0715 12:53:30.949506 13391 net.cpp:84] Creating Layer fc7-R
I0715 12:53:30.949509 13391 net.cpp:406] fc7-R <- fc6-R
I0715 12:53:30.949517 13391 net.cpp:380] fc7-R -> fc7-R
I0715 12:53:31.011759 13391 net.cpp:122] Setting up fc7-R
I0715 12:53:31.011813 13391 net.cpp:129] Top shape: 1 4096 17 7 (487424)
I0715 12:53:31.011818 13391 net.cpp:137] Memory required for data: 1397174540
I0715 12:53:31.011831 13391 layer_factory.hpp:77] Creating layer relu7-R
I0715 12:53:31.011844 13391 net.cpp:84] Creating Layer relu7-R
I0715 12:53:31.011852 13391 net.cpp:406] relu7-R <- fc7-R
I0715 12:53:31.011858 13391 net.cpp:367] relu7-R -> fc7-R (in-place)
I0715 12:53:31.012606 13391 net.cpp:122] Setting up relu7-R
I0715 12:53:31.012619 13391 net.cpp:129] Top shape: 1 4096 17 7 (487424)
I0715 12:53:31.012639 13391 net.cpp:137] Memory required for data: 1399124236
I0715 12:53:31.012641 13391 layer_factory.hpp:77] Creating layer drop7-R
I0715 12:53:31.012662 13391 net.cpp:84] Creating Layer drop7-R
I0715 12:53:31.012666 13391 net.cpp:406] drop7-R <- fc7-R
I0715 12:53:31.012671 13391 net.cpp:367] drop7-R -> fc7-R (in-place)
I0715 12:53:31.012724 13391 net.cpp:122] Setting up drop7-R
I0715 12:53:31.012729 13391 net.cpp:129] Top shape: 1 4096 17 7 (487424)
I0715 12:53:31.012732 13391 net.cpp:137] Memory required for data: 1401073932
I0715 12:53:31.012740 13391 layer_factory.hpp:77] Creating layer score_fr-new-R
I0715 12:53:31.012751 13391 net.cpp:84] Creating Layer score_fr-new-R
I0715 12:53:31.012754 13391 net.cpp:406] score_fr-new-R <- fc7-R
I0715 12:53:31.012760 13391 net.cpp:380] score_fr-new-R -> score_fr-new-R
I0715 12:53:31.014195 13391 net.cpp:122] Setting up score_fr-new-R
I0715 12:53:31.014209 13391 net.cpp:129] Top shape: 1 3 17 7 (357)
I0715 12:53:31.014227 13391 net.cpp:137] Memory required for data: 1401075360
I0715 12:53:31.014233 13391 layer_factory.hpp:77] Creating layer upscore2-new-R
I0715 12:53:31.014243 13391 net.cpp:84] Creating Layer upscore2-new-R
I0715 12:53:31.014247 13391 net.cpp:406] upscore2-new-R <- score_fr-new-R
I0715 12:53:31.014255 13391 net.cpp:380] upscore2-new-R -> upscore2-new-R
I0715 12:53:31.014516 13391 net.cpp:122] Setting up upscore2-new-R
I0715 12:53:31.014525 13391 net.cpp:129] Top shape: 1 3 36 16 (1728)
I0715 12:53:31.014528 13391 net.cpp:137] Memory required for data: 1401082272
I0715 12:53:31.014533 13391 layer_factory.hpp:77] Creating layer upscore2-new-R_upscore2-new-R_0_split
I0715 12:53:31.014540 13391 net.cpp:84] Creating Layer upscore2-new-R_upscore2-new-R_0_split
I0715 12:53:31.014544 13391 net.cpp:406] upscore2-new-R_upscore2-new-R_0_split <- upscore2-new-R
I0715 12:53:31.014549 13391 net.cpp:380] upscore2-new-R_upscore2-new-R_0_split -> upscore2-new-R_upscore2-new-R_0_split_0
I0715 12:53:31.014556 13391 net.cpp:380] upscore2-new-R_upscore2-new-R_0_split -> upscore2-new-R_upscore2-new-R_0_split_1
I0715 12:53:31.014595 13391 net.cpp:122] Setting up upscore2-new-R_upscore2-new-R_0_split
I0715 12:53:31.014601 13391 net.cpp:129] Top shape: 1 3 36 16 (1728)
I0715 12:53:31.014605 13391 net.cpp:129] Top shape: 1 3 36 16 (1728)
I0715 12:53:31.014608 13391 net.cpp:137] Memory required for data: 1401096096
I0715 12:53:31.014611 13391 layer_factory.hpp:77] Creating layer score_pool4-new-R
I0715 12:53:31.014621 13391 net.cpp:84] Creating Layer score_pool4-new-R
I0715 12:53:31.014626 13391 net.cpp:406] score_pool4-new-R <- pool4-R_pool4-R_0_split_1
I0715 12:53:31.014633 13391 net.cpp:380] score_pool4-new-R -> score_pool4-new-R
I0715 12:53:31.015975 13391 net.cpp:122] Setting up score_pool4-new-R
I0715 12:53:31.015990 13391 net.cpp:129] Top shape: 1 3 45 26 (3510)
I0715 12:53:31.016010 13391 net.cpp:137] Memory required for data: 1401110136
I0715 12:53:31.016016 13391 layer_factory.hpp:77] Creating layer score_pool4c-R
I0715 12:53:31.016022 13391 net.cpp:84] Creating Layer score_pool4c-R
I0715 12:53:31.016026 13391 net.cpp:406] score_pool4c-R <- score_pool4-new-R
I0715 12:53:31.016031 13391 net.cpp:406] score_pool4c-R <- upscore2-new-R_upscore2-new-R_0_split_0
I0715 12:53:31.016038 13391 net.cpp:380] score_pool4c-R -> score_pool4c-R
I0715 12:53:31.016083 13391 net.cpp:122] Setting up score_pool4c-R
I0715 12:53:31.016090 13391 net.cpp:129] Top shape: 1 3 36 16 (1728)
I0715 12:53:31.016093 13391 net.cpp:137] Memory required for data: 1401117048
I0715 12:53:31.016096 13391 layer_factory.hpp:77] Creating layer fuse_pool4-R
I0715 12:53:31.016103 13391 net.cpp:84] Creating Layer fuse_pool4-R
I0715 12:53:31.016108 13391 net.cpp:406] fuse_pool4-R <- upscore2-new-R_upscore2-new-R_0_split_1
I0715 12:53:31.016111 13391 net.cpp:406] fuse_pool4-R <- score_pool4c-R
I0715 12:53:31.016116 13391 net.cpp:380] fuse_pool4-R -> fuse_pool4-R
I0715 12:53:31.016142 13391 net.cpp:122] Setting up fuse_pool4-R
I0715 12:53:31.016147 13391 net.cpp:129] Top shape: 1 3 36 16 (1728)
I0715 12:53:31.016150 13391 net.cpp:137] Memory required for data: 1401123960
I0715 12:53:31.016175 13391 layer_factory.hpp:77] Creating layer upscore_pool4-new-R
I0715 12:53:31.016185 13391 net.cpp:84] Creating Layer upscore_pool4-new-R
I0715 12:53:31.016203 13391 net.cpp:406] upscore_pool4-new-R <- fuse_pool4-R
I0715 12:53:31.016208 13391 net.cpp:380] upscore_pool4-new-R -> upscore_pool4-new-R
I0715 12:53:31.016428 13391 net.cpp:122] Setting up upscore_pool4-new-R
I0715 12:53:31.016436 13391 net.cpp:129] Top shape: 1 3 74 34 (7548)
I0715 12:53:31.016439 13391 net.cpp:137] Memory required for data: 1401154152
I0715 12:53:31.016451 13391 layer_factory.hpp:77] Creating layer upscore_pool4-new-R_upscore_pool4-new-R_0_split
I0715 12:53:31.016459 13391 net.cpp:84] Creating Layer upscore_pool4-new-R_upscore_pool4-new-R_0_split
I0715 12:53:31.016463 13391 net.cpp:406] upscore_pool4-new-R_upscore_pool4-new-R_0_split <- upscore_pool4-new-R
I0715 12:53:31.016469 13391 net.cpp:380] upscore_pool4-new-R_upscore_pool4-new-R_0_split -> upscore_pool4-new-R_upscore_pool4-new-R_0_split_0
I0715 12:53:31.016474 13391 net.cpp:380] upscore_pool4-new-R_upscore_pool4-new-R_0_split -> upscore_pool4-new-R_upscore_pool4-new-R_0_split_1
I0715 12:53:31.016513 13391 net.cpp:122] Setting up upscore_pool4-new-R_upscore_pool4-new-R_0_split
I0715 12:53:31.016520 13391 net.cpp:129] Top shape: 1 3 74 34 (7548)
I0715 12:53:31.016522 13391 net.cpp:129] Top shape: 1 3 74 34 (7548)
I0715 12:53:31.016525 13391 net.cpp:137] Memory required for data: 1401214536
I0715 12:53:31.016528 13391 layer_factory.hpp:77] Creating layer score_pool3-new-R
I0715 12:53:31.016537 13391 net.cpp:84] Creating Layer score_pool3-new-R
I0715 12:53:31.016541 13391 net.cpp:406] score_pool3-new-R <- pool3-R_pool3-R_0_split_1
I0715 12:53:31.016549 13391 net.cpp:380] score_pool3-new-R -> score_pool3-new-R
I0715 12:53:31.017459 13391 net.cpp:122] Setting up score_pool3-new-R
I0715 12:53:31.017469 13391 net.cpp:129] Top shape: 1 3 89 51 (13617)
I0715 12:53:31.017488 13391 net.cpp:137] Memory required for data: 1401269004
I0715 12:53:31.017494 13391 layer_factory.hpp:77] Creating layer score_pool3c-R
I0715 12:53:31.017511 13391 net.cpp:84] Creating Layer score_pool3c-R
I0715 12:53:31.017515 13391 net.cpp:406] score_pool3c-R <- score_pool3-new-R
I0715 12:53:31.017519 13391 net.cpp:406] score_pool3c-R <- upscore_pool4-new-R_upscore_pool4-new-R_0_split_0
I0715 12:53:31.017524 13391 net.cpp:380] score_pool3c-R -> score_pool3c-R
I0715 12:53:31.017570 13391 net.cpp:122] Setting up score_pool3c-R
I0715 12:53:31.017575 13391 net.cpp:129] Top shape: 1 3 74 34 (7548)
I0715 12:53:31.017578 13391 net.cpp:137] Memory required for data: 1401299196
I0715 12:53:31.017581 13391 layer_factory.hpp:77] Creating layer fuse_pool3-R
I0715 12:53:31.017588 13391 net.cpp:84] Creating Layer fuse_pool3-R
I0715 12:53:31.017591 13391 net.cpp:406] fuse_pool3-R <- upscore_pool4-new-R_upscore_pool4-new-R_0_split_1
I0715 12:53:31.017596 13391 net.cpp:406] fuse_pool3-R <- score_pool3c-R
I0715 12:53:31.017602 13391 net.cpp:380] fuse_pool3-R -> fuse_pool3-R
I0715 12:53:31.017627 13391 net.cpp:122] Setting up fuse_pool3-R
I0715 12:53:31.017632 13391 net.cpp:129] Top shape: 1 3 74 34 (7548)
I0715 12:53:31.017634 13391 net.cpp:137] Memory required for data: 1401329388
I0715 12:53:31.017637 13391 layer_factory.hpp:77] Creating layer upscore8-new-R
I0715 12:53:31.017648 13391 net.cpp:84] Creating Layer upscore8-new-R
I0715 12:53:31.017652 13391 net.cpp:406] upscore8-new-R <- fuse_pool3-R
I0715 12:53:31.017659 13391 net.cpp:380] upscore8-new-R -> upscore8-new-R
I0715 12:53:31.017904 13391 net.cpp:122] Setting up upscore8-new-R
I0715 12:53:31.017911 13391 net.cpp:129] Top shape: 1 3 600 280 (504000)
I0715 12:53:31.017915 13391 net.cpp:137] Memory required for data: 1403345388
I0715 12:53:31.017920 13391 layer_factory.hpp:77] Creating layer upscore8_cropped-R
I0715 12:53:31.017925 13391 net.cpp:84] Creating Layer upscore8_cropped-R
I0715 12:53:31.017930 13391 net.cpp:406] upscore8_cropped-R <- upscore8-new-R
I0715 12:53:31.017935 13391 net.cpp:406] upscore8_cropped-R <- data-R_crop_0_split_1
I0715 12:53:31.017942 13391 net.cpp:380] upscore8_cropped-R -> upscore8_cropped-R
I0715 12:53:31.017967 13391 net.cpp:122] Setting up upscore8_cropped-R
I0715 12:53:31.017971 13391 net.cpp:129] Top shape: 1 3 512 209 (321024)
I0715 12:53:31.017974 13391 net.cpp:137] Memory required for data: 1404629484
I0715 12:53:31.017977 13391 layer_factory.hpp:77] Creating layer upscore8_uncropped-R
I0715 12:53:31.018245 13391 net.cpp:84] Creating Layer upscore8_uncropped-R
I0715 12:53:31.018257 13391 net.cpp:406] upscore8_uncropped-R <- crop_info
I0715 12:53:31.018262 13391 net.cpp:406] upscore8_uncropped-R <- upscore8_cropped-R
I0715 12:53:31.018266 13391 net.cpp:406] upscore8_uncropped-R <- data_data_0_split_3
I0715 12:53:31.018272 13391 net.cpp:380] upscore8_uncropped-R -> upscore8_uncropped-R
I0715 12:53:31.019973 13391 net.cpp:122] Setting up upscore8_uncropped-R
I0715 12:53:31.019987 13391 net.cpp:129] Top shape: 1 3 512 209 (321024)
I0715 12:53:31.020006 13391 net.cpp:137] Memory required for data: 1405913580
I0715 12:53:31.020009 13391 layer_factory.hpp:77] Creating layer loss1
I0715 12:53:31.020025 13391 net.cpp:84] Creating Layer loss1
I0715 12:53:31.020027 13391 net.cpp:406] loss1 <- upscore8_cropped_upscore8_cropped_0_split_1
I0715 12:53:31.020033 13391 net.cpp:406] loss1 <- label_data_1_split_1
I0715 12:53:31.020038 13391 net.cpp:380] loss1 -> loss1
…
snapshot_prefix: "/media/Med_2T2/data2/models/snapshots/indiv:1e-5x10,20/FD3:YI3_1_20180715_091948/train"
test_initialization: false
average_loss: 20
stepvalue: 40000
iter_size: 1
I0715 13:41:39.809147 13391 solver.cpp:77] Creating training net from train_net file: /media/Med_2T2/data2/prototxts/training_I3x10.prototxt
I0715 13:41:39.811097 13391 net.cpp:51] Initializing net from parameters: 
state {
  phase: TRAIN
}
layer {
  name: "data"
  type: "Python"
  top: "data"
  top: "label"
  top: "crop_margin"
  top: "crop_prob"
  top: "crop_sample_batch"
  python_param {
    module: "Data"
    layer: "DataLayer"
  }
}
layer {
  name: "conv1_1"
  type: "Convolution"
  bottom: "data"
  top: "conv1_1"
  param {
    lr_mult: 1
    decay_mult: 1
  }
  param {
    lr_mult: 2
    decay_mult: 0
  }
  convolution_param {
    num_output: 64
    pad: 100
    kernel_size: 3
    stride: 1
  }
}
layer {
  name: "relu1_1"
  type: "ReLU"
  bottom: "conv1_1"
  top: "conv1_1"
}
layer {
  name: "conv1_2"
  type: "Convolution"
  bottom: "conv1_1"
  top: "conv1_2"
  param {
    lr_mult: 1
    decay_mult: 1
  }
  param {
    lr_mult: 2
    decay_mult: 0
  }
  convolution_param {
    num_output: 64
    pad: 1
    kernel_size: 3
    stride: 1
  }
}
layer {
  name: "relu1_2"
  type: "ReLU"
  bottom: "conv1_2"
  top: "conv1_2"
}
layer {
  name: "pool1"
  type: "Pooling"
  bottom: "conv1_2"
  top: "pool1"
  pooling_param {
    pool: MAX
    kernel_size: 2
    stride: 2
  }
}
layer {
  name: "conv2_1"
  type: "Convolution"
  bottom: "pool1"
  top: "conv2_1"
  param {
    lr_mult: 1
    decay_mult: 1
  }
  param {
    lr_mult: 2
    decay_mult: 0
  }
  convolution_param {
    num_output: 128
    pad: 1
    kernel_size: 3
    stride: 1
  }
}
layer {
  name: "relu2_1"
  type: "ReLU"
  bottom: "conv2_1"
  top: "conv2_1"
}
layer {
  name: "conv2_2"
  type: "Convolution"
  bottom: "conv2_1"
  top: "conv2_2"
  param {
    lr_mult: 1
    decay_mult: 1
  }
  param {
    lr_mult: 2
    decay_mult: 0
  }
  convolution_param {
    num_output: 128
    pad: 1
    kernel_size: 3
    stride: 1
  }
}
layer {
  name: "relu2_2"
  type: "ReLU"
  bottom: "conv2_2"
  top: "conv2_2"
}
layer {
  name: "pool2"
  type: "Pooling"
  bottom: "conv2_2"
  top: "pool2"
  pooling_param {
    pool: MAX
    kernel_size: 2
    stride: 2
  }
}
layer {
  name: "conv3_1"
  type: "Convolution"
  bottom: "pool2"
  top: "conv3_1"
  param {
    lr_mult: 1
    decay_mult: 1
  }
  param {
    lr_mult: 2
    decay_mult: 0
  }
  convolution_param {
    num_output: 256
    pad: 1
    kernel_size: 3
    stride: 1
  }
}
layer {
  name: "relu3_1"
  type: "ReLU"
  bottom: "conv3_1"
  top: "conv3_1"
}
layer {
  name: "conv3_2"
  type: "Convolution"
  bottom: "conv3_1"
  top: "conv3_2"
  param {
    lr_mult: 1
    decay_mult: 1
  }
  param {
    lr_mult: 2
    decay_mult: 0
  }
  convolution_param {
    num_output: 256
    pad: 1
    kernel_size: 3
    stride: 1
  }
}
layer {
  name: "relu3_2"
  type: "ReLU"
  bottom: "conv3_2"
  top: "conv3_2"
}
layer {
  name: "conv3_3"
  type: "Convolution"
  bottom: "conv3_2"
  top: "conv3_3"
  param {
    lr_mult: 1
    decay_mult: 1
  }
  param {
    lr_mult: 2
    decay_mult: 0
  }
  convolution_param {
    num_output: 256
    pad: 1
    kernel_size: 3
    stride: 1
  }
}
layer {
  name: "relu3_3"
  type: "ReLU"
  bottom: "conv3_3"
  top: "conv3_3"
}
layer {
  name: "pool3"
  type: "Pooling"
  bottom: "conv3_3"
  top: "pool3"
  pooling_param {
    pool: MAX
    kernel_size: 2
    stride: 2
  }
}
layer {
  name: "conv4_1"
  type: "Convolution"
  bottom: "pool3"
  top: "conv4_1"
  param {
    lr_mult: 1
    decay_mult: 1
  }
  param {
    lr_mult: 2
    decay_mult: 0
  }
  convolution_param {
    num_output: 512
    pad: 1
    kernel_size: 3
    stride: 1
  }
}
layer {
  name: "relu4_1"
  type: "ReLU"
  bottom: "conv4_1"
  top: "conv4_1"
}
layer {
  name: "conv4_2"
  type: "Convolution"
  bottom: "conv4_1"
  top: "conv4_2"
  param {
    lr_mult: 1
    decay_mult: 1
  }
  param {
    lr_mult: 2
    decay_mult: 0
  }
  convolution_param {
    num_output: 512
    pad: 1
    kernel_size: 3
    stride: 1
  }
}
layer {
  name: "relu4_2"
  type: "ReLU"
  bottom: "conv4_2"
  top: "conv4_2"
}
layer {
  name: "conv4_3"
  type: "Convolution"
  bottom: "conv4_2"
  top: "conv4_3"
  param {
    lr_mult: 1
    decay_mult: 1
  }
  param {
    lr_mult: 2
    decay_mult: 0
  }
  convolution_param {
    num_output: 512
    pad: 1
    kernel_size: 3
    stride: 1
  }
}
layer {
  name: "relu4_3"
  type: "ReLU"
  bottom: "conv4_3"
  top: "conv4_3"
}
layer {
  name: "pool4"
  type: "Pooling"
  bottom: "conv4_3"
  top: "pool4"
  pooling_param {
    pool: MAX
    kernel_size: 2
    stride: 2
  }
}
layer {
  name: "conv5_1"
  type: "Convolution"
  bottom: "pool4"
  top: "conv5_1"
  param {
    lr_mult: 1
    decay_mult: 1
  }
  param {
    lr_mult: 2
    decay_mult: 0
  }
  convolution_param {
    num_output: 512
    pad: 1
    kernel_size: 3
    stride: 1
  }
}
layer {
  name: "relu5_1"
  type: "ReLU"
  bottom: "conv5_1"
  top: "conv5_1"
}
layer {
  name: "conv5_2"
  type: "Convolution"
  bottom: "conv5_1"
  top: "conv5_2"
  param {
    lr_mult: 1
    decay_mult: 1
  }
  param {
    lr_mult: 2
    decay_mult: 0
  }
  convolution_param {
    num_output: 512
    pad: 1
    kernel_size: 3
    stride: 1
  }
}
layer {
  name: "relu5_2"
  type: "ReLU"
  bottom: "conv5_2"
  top: "conv5_2"
}
layer {
  name: "conv5_3"
  type: "Convolution"
  bottom: "conv5_2"
  top: "conv5_3"
  param {
    lr_mult: 1
    decay_mult: 1
  }
  param {
    lr_mult: 2
    decay_mult: 0
  }
  convolution_param {
    num_output: 512
    pad: 1
    kernel_size: 3
    stride: 1
  }
}
layer {
  name: "relu5_3"
  type: "ReLU"
  bottom: "conv5_3"
  top: "conv5_3"
}
layer {
  name: "pool5"
  type: "Pooling"
  bottom: "conv5_3"
  top: "pool5"
  pooling_param {
    pool: MAX
    kernel_size: 2
    stride: 2
  }
}
layer {
  name: "fc6"
  type: "Convolution"
  bottom: "pool5"
  top: "fc6"
  param {
    lr_mult: 1
    decay_mult: 1
  }
  param {
    lr_mult: 2
    decay_mult: 0
  }
  convolution_param {
    num_output: 4096
    pad: 0
    kernel_size: 7
    stride: 1
  }
}
layer {
  name: "relu6"
  type: "ReLU"
  bottom: "fc6"
  top: "fc6"
}
layer {
  name: "drop6"
  type: "Dropout"
  bottom: "fc6"
  top: "fc6"
  dropout_param {
    dropout_ratio: 0.5
  }
}
layer {
  name: "fc7"
  type: "Convolution"
  bottom: "fc6"
  top: "fc7"
  param {
    lr_mult: 1
    decay_mult: 1
  }
  param {
    lr_mult: 2
    decay_mult: 0
  }
  convolution_param {
    num_output: 4096
    pad: 0
    kernel_size: 1
    stride: 1
  }
}
layer {
  name: "relu7"
  type: "ReLU"
  bottom: "fc7"
  top: "fc7"
}
layer {
  name: "drop7"
  type: "Dropout"
  bottom: "fc7"
  top: "fc7"
  dropout_param {
    dropout_ratio: 0.5
  }
}
layer {
  name: "score_fr-new"
  type: "Convolution"
  bottom: "fc7"
  top: "score_fr-new"
  param {
    lr_mult: 1
    decay_mult: 1
  }
  param {
    lr_mult: 2
    decay_mult: 0
  }
  convolution_param {
    num_output: 3
    kernel_size: 1
  }
}
layer {
  name: "upscore2-new"
  type: "Deconvolution"
  bottom: "score_fr-new"
  top: "upscore2-new"
  param {
    lr_mult: 0
  }
  convolution_param {
    num_output: 3
    bias_term: false
    kernel_size: 4
    stride: 2
  }
}
layer {
  name: "score_pool4-new"
  type: "Convolution"
  bottom: "pool4"
  top: "score_pool4-new"
  param {
    lr_mult: 1
    decay_mult: 1
  }
  param {
    lr_mult: 2
    decay_mult: 0
  }
  convolution_param {
    num_output: 3
    pad: 0
    kernel_size: 1
  }
}
layer {
  name: "score_pool4c"
  type: "Crop"
  bottom: "score_pool4-new"
  bottom: "upscore2-new"
  top: "score_pool4c"
  crop_param {
    axis: 2
    offset: 5
  }
}
layer {
  name: "fuse_pool4"
  type: "Eltwise"
  bottom: "upscore2-new"
  bottom: "score_pool4c"
  top: "fuse_pool4"
  eltwise_param {
    operation: SUM
  }
}
layer {
  name: "upscore_pool4-new"
  type: "Deconvolution"
  bottom: "fuse_pool4"
  top: "upscore_pool4-new"
  param {
    lr_mult: 0
  }
  convolution_param {
    num_output: 3
    bias_term: false
    kernel_size: 4
    stride: 2
  }
}
layer {
  name: "score_pool3-new"
  type: "Convolution"
  bottom: "pool3"
  top: "score_pool3-new"
  param {
    lr_mult: 1
    decay_mult: 1
  }
  param {
    lr_mult: 2
    decay_mult: 0
  }
  convolution_param {
    num_output: 3
    pad: 0
    kernel_size: 1
  }
}
layer {
  name: "score_pool3c"
  type: "Crop"
  bottom: "score_pool3-new"
  bottom: "upscore_pool4-new"
  top: "score_pool3c"
  crop_param {
    axis: 2
    offset: 9
  }
}
layer {
  name: "fuse_pool3"
  type: "Eltwise"
  bottom: "upscore_pool4-new"
  bottom: "score_pool3c"
  top: "fuse_pool3"
  eltwise_param {
    operation: SUM
  }
}
layer {
  name: "upscore8-new"
  type: "Deconvolution"
  bottom: "fuse_pool3"
  top: "upscore8-new"
  param {
    lr_mult: 0
  }
  convolution_param {
    num_output: 3
    bias_term: false
    kernel_size: 16
    stride: 8
  }
}
layer {
  name: "upscore8_cropped"
  type: "Crop"
  bottom: "upscore8-new"
  bottom: "data"
  top: "upscore8_cropped"
  crop_param {
    axis: 2
    offset: 31
  }
}
layer {
  name: "prob"
  type: "Sigmoid"
  bottom: "upscore8_cropped"
  top: "prob"
}
layer {
  name: "saliency1"
  type: "Convolution"
  bottom: "prob"
  top: "saliency1"
  param {
    lr_mult: 10
    decay_mult: 1
  }
  param {
    lr_mult: 20
    decay_mult: 0
  }
  convolution_param {
    num_output: 3
    pad: 1
    kernel_size: 3
    stride: 1
    weight_filler {
      type: "xavier"
    }
    bias_filler {
      type: "constant"
      value: 1
    }
  }
}
layer {
  name: "relu_saliency1"
  type: "ReLU"
  bottom: "saliency1"
  top: "saliency1"
}
layer {
  name: "saliency"
  type: "Convolution"
  bottom: "saliency1"
  top: "saliency"
  param {
    lr_mult: 10
    decay_mult: 1
  }
  param {
    lr_mult: 20
    decay_mult: 0
  }
  convolution_param {
    num_output: 3
    pad: 2
    kernel_size: 5
    stride: 1
    weight_filler {
      type: "xavier"
    }
    bias_filler {
      type: "constant"
      value: 1
    }
  }
}
layer {
  name: "saliency_data"
  type: "Eltwise"
  bottom: "data"
  bottom: "saliency"
  top: "saliency_data"
  eltwise_param {
    operation: PROD
  }
}
layer {
  name: "crop"
  type: "Python"
  bottom: "label"
  bottom: "saliency_data"
  bottom: "crop_margin"
  bottom: "crop_prob"
  bottom: "crop_sample_batch"
  top: "data-R"
  top: "crop_info"
  python_param {
    module: "Crop"
    layer: "CropLayer"
    param_str: "{\"TEST\": 0}"
  }
}
layer {
  name: "conv1_1-R"
  type: "Convolution"
  bottom: "data-R"
  top: "conv1_1-R"
  param {
    lr_mult: 10
    decay_mult: 1
  }
  param {
    lr_mult: 20
    decay_mult: 0
  }
  convolution_param {
    num_output: 64
    pad: 100
    kernel_size: 3
    stride: 1
  }
}
layer {
  name: "relu1_1-R"
  type: "ReLU"
  bottom: "conv1_1-R"
  top: "conv1_1-R"
}
layer {
  name: "conv1_2-R"
  type: "Convolution"
  bottom: "conv1_1-R"
  top: "conv1_2-R"
  param {
    lr_mult: 10
    decay_mult: 1
  }
  param {
    lr_mult: 20
    decay_mult: 0
  }
  convolution_param {
    num_output: 64
    pad: 1
    kernel_size: 3
    stride: 1
  }
}
layer {
  name: "relu1_2-R"
  type: "ReLU"
  bottom: "conv1_2-R"
  top: "conv1_2-R"
}
layer {
  name: "pool1-R"
  type: "Pooling"
  bottom: "conv1_2-R"
  top: "pool1-R"
  pooling_param {
    pool: MAX
    kernel_size: 2
    stride: 2
  }
}
layer {
  name: "conv2_1-R"
  type: "Convolution"
  bottom: "pool1-R"
  top: "conv2_1-R"
  param {
    lr_mult: 10
    decay_mult: 1
  }
  param {
    lr_mult: 20
    decay_mult: 0
  }
  convolution_param {
    num_output: 128
    pad: 1
    kernel_size: 3
    stride: 1
  }
}
layer {
  name: "relu2_1-R"
  type: "ReLU"
  bottom: "conv2_1-R"
  top: "conv2_1-R"
}
layer {
  name: "conv2_2-R"
  type: "Convolution"
  bottom: "conv2_1-R"
  top: "conv2_2-R"
  param {
    lr_mult: 10
    decay_mult: 1
  }
  param {
    lr_mult: 20
    decay_mult: 0
  }
  convolution_param {
    num_output: 128
    pad: 1
    kernel_size: 3
    stride: 1
  }
}
layer {
  name: "relu2_2-R"
  type: "ReLU"
  bottom: "conv2_2-R"
  top: "conv2_2-R"
}
layer {
  name: "pool2-R"
  type: "Pooling"
  bottom: "conv2_2-R"
  top: "pool2-R"
  pooling_param {
    pool: MAX
    kernel_size: 2
    stride: 2
  }
}
layer {
  name: "conv3_1-R"
  type: "Convolution"
  bottom: "pool2-R"
  top: "conv3_1-R"
  param {
    lr_mult: 10
    decay_mult: 1
  }
  param {
    lr_mult: 20
    decay_mult: 0
  }
  convolution_param {
    num_output: 256
    pad: 1
    kernel_size: 3
    stride: 1
  }
}
layer {
  name: "relu3_1-R"
  type: "ReLU"
  bottom: "conv3_1-R"
  top: "conv3_1-R"
}
layer {
  name: "conv3_2-R"
  type: "Convolution"
  bottom: "conv3_1-R"
  top: "conv3_2-R"
  param {
    lr_mult: 10
    decay_mult: 1
  }
  param {
    lr_mult: 20
    decay_mult: 0
  }
  convolution_param {
    num_output: 256
    pad: 1
    kernel_size: 3
    stride: 1
  }
}
layer {
  name: "relu3_2-R"
  type: "ReLU"
  bottom: "conv3_2-R"
  top: "conv3_2-R"
}
layer {
  name: "conv3_3-R"
  type: "Convolution"
  bottom: "conv3_2-R"
  top: "conv3_3-R"
  param {
    lr_mult: 10
    decay_mult: 1
  }
  param {
    lr_mult: 20
    decay_mult: 0
  }
  convolution_param {
    num_output: 256
    pad: 1
    kernel_size: 3
    stride: 1
  }
}
layer {
  name: "relu3_3-R"
  type: "ReLU"
  bottom: "conv3_3-R"
  top: "conv3_3-R"
}
layer {
  name: "pool3-R"
  type: "Pooling"
  bottom: "conv3_3-R"
  top: "pool3-R"
  pooling_param {
    pool: MAX
    kernel_size: 2
    stride: 2
  }
}
layer {
  name: "conv4_1-R"
  type: "Convolution"
  bottom: "pool3-R"
  top: "conv4_1-R"
  param {
    lr_mult: 10
    decay_mult: 1
  }
  param {
    lr_mult: 20
    decay_mult: 0
  }
  convolution_param {
    num_output: 512
    pad: 1
    kernel_size: 3
    stride: 1
  }
}
layer {
  name: "relu4_1-R"
  type: "ReLU"
  bottom: "conv4_1-R"
  top: "conv4_1-R"
}
layer {
  name: "conv4_2-R"
  type: "Convolution"
  bottom: "conv4_1-R"
  top: "conv4_2-R"
  param {
    lr_mult: 10
    decay_mult: 1
  }
  param {
    lr_mult: 20
    decay_mult: 0
  }
  convolution_param {
    num_output: 512
    pad: 1
    kernel_size: 3
    stride: 1
  }
}
layer {
  name: "relu4_2-R"
  type: "ReLU"
  bottom: "conv4_2-R"
  top: "conv4_2-R"
}
layer {
  name: "conv4_3-R"
  type: "Convolution"
  bottom: "conv4_2-R"
  top: "conv4_3-R"
  param {
    lr_mult: 10
    decay_mult: 1
  }
  param {
    lr_mult: 20
    decay_mult: 0
  }
  convolution_param {
    num_output: 512
    pad: 1
    kernel_size: 3
    stride: 1
  }
}
layer {
  name: "relu4_3-R"
  type: "ReLU"
  bottom: "conv4_3-R"
  top: "conv4_3-R"
}
layer {
  name: "pool4-R"
  type: "Pooling"
  bottom: "conv4_3-R"
  top: "pool4-R"
  pooling_param {
    pool: MAX
    kernel_size: 2
    stride: 2
  }
}
layer {
  name: "conv5_1-R"
  type: "Convolution"
  bottom: "pool4-R"
  top: "conv5_1-R"
  param {
    lr_mult: 10
    decay_mult: 1
  }
  param {
    lr_mult: 20
    decay_mult: 0
  }
  convolution_param {
    num_output: 512
    pad: 1
    kernel_size: 3
    stride: 1
  }
}
layer {
  name: "relu5_1-R"
  type: "ReLU"
  bottom: "conv5_1-R"
  top: "conv5_1-R"
}
layer {
  name: "conv5_2-R"
  type: "Convolution"
  bottom: "conv5_1-R"
  top: "conv5_2-R"
  param {
    lr_mult: 10
    decay_mult: 1
  }
  param {
    lr_mult: 20
    decay_mult: 0
  }
  convolution_param {
    num_output: 512
    pad: 1
    kernel_size: 3
    stride: 1
  }
}
layer {
  name: "relu5_2-R"
  type: "ReLU"
  bottom: "conv5_2-R"
  top: "conv5_2-R"
}
layer {
  name: "conv5_3-R"
  type: "Convolution"
  bottom: "conv5_2-R"
  top: "conv5_3-R"
  param {
    lr_mult: 10
    decay_mult: 1
  }
  param {
    lr_mult: 20
    decay_mult: 0
  }
  convolution_param {
    num_output: 512
    pad: 1
    kernel_size: 3
    stride: 1
  }
}
layer {
  name: "relu5_3-R"
  type: "ReLU"
  bottom: "conv5_3-R"
  top: "conv5_3-R"
}
layer {
  name: "pool5-R"
  type: "Pooling"
  bottom: "conv5_3-R"
  top: "pool5-R"
  pooling_param {
    pool: MAX
    kernel_size: 2
    stride: 2
  }
}
layer {
  name: "fc6-R"
  type: "Convolution"
  bottom: "pool5-R"
  top: "fc6-R"
  param {
    lr_mult: 10
    decay_mult: 1
  }
  param {
    lr_mult: 20
    decay_mult: 0
  }
  convolution_param {
    num_output: 4096
    pad: 0
    kernel_size: 7
    stride: 1
  }
}
layer {
  name: "relu6-R"
  type: "ReLU"
  bottom: "fc6-R"
  top: "fc6-R"
}
layer {
  name: "drop6-R"
  type: "Dropout"
  bottom: "fc6-R"
  top: "fc6-R"
  dropout_param {
    dropout_ratio: 0.5
  }
}
layer {
  name: "fc7-R"
  type: "Convolution"
  bottom: "fc6-R"
  top: "fc7-R"
  param {
    lr_mult: 10
    decay_mult: 1
  }
  param {
    lr_mult: 20
    decay_mult: 0
  }
  convolution_param {
    num_output: 4096
    pad: 0
    kernel_size: 1
    stride: 1
  }
}
layer {
  name: "relu7-R"
  type: "ReLU"
  bottom: "fc7-R"
  top: "fc7-R"
}
layer {
  name: "drop7-R"
  type: "Dropout"
  bottom: "fc7-R"
  top: "fc7-R"
  dropout_param {
    dropout_ratio: 0.5
  }
}
layer {
  name: "score_fr-new-R"
  type: "Convolution"
  bottom: "fc7-R"
  top: "score_fr-new-R"
  param {
    lr_mult: 10
    decay_mult: 1
  }
  param {
    lr_mult: 20
    decay_mult: 0
  }
  convolution_param {
    num_output: 3
    kernel_size: 1
  }
}
layer {
  name: "upscore2-new-R"
  type: "Deconvolution"
  bottom: "score_fr-new-R"
  top: "upscore2-new-R"
  param {
    lr_mult: 0
  }
  convolution_param {
    num_output: 3
    bias_term: false
    kernel_size: 4
    stride: 2
  }
}
layer {
  name: "score_pool4-new-R"
  type: "Convolution"
  bottom: "pool4-R"
  top: "score_pool4-new-R"
  param {
    lr_mult: 10
    decay_mult: 1
  }
  param {
    lr_mult: 20
    decay_mult: 0
  }
  convolution_param {
    num_output: 3
    pad: 0
    kernel_size: 1
  }
}
layer {
  name: "score_pool4c-R"
  type: "Crop"
  bottom: "score_pool4-new-R"
  bottom: "upscore2-new-R"
  top: "score_pool4c-R"
  crop_param {
    axis: 2
    offset: 5
  }
}
layer {
  name: "fuse_pool4-R"
  type: "Eltwise"
  bottom: "upscore2-new-R"
  bottom: "score_pool4c-R"
  top: "fuse_pool4-R"
  eltwise_param {
    operation: SUM
  }
}
layer {
  name: "upscore_pool4-new-R"
  type: "Deconvolution"
  bottom: "fuse_pool4-R"
  top: "upscore_pool4-new-R"
  param {
    lr_mult: 0
  }
  convolution_param {
    num_output: 3
    bias_term: false
    kernel_size: 4
    stride: 2
  }
}
layer {
  name: "score_pool3-new-R"
  type: "Convolution"
  bottom: "pool3-R"
  top: "score_pool3-new-R"
  param {
    lr_mult: 10
    decay_mult: 1
  }
  param {
    lr_mult: 20
    decay_mult: 0
  }
  convolution_param {
    num_output: 3
    pad: 0
    kernel_size: 1
  }
}
layer {
  name: "score_pool3c-R"
  type: "Crop"
  bottom: "score_pool3-new-R"
  bottom: "upscore_pool4-new-R"
  top: "score_pool3c-R"
  crop_param {
    axis: 2
    offset: 9
  }
}
layer {
  name: "fuse_pool3-R"
  type: "Eltwise"
  bottom: "upscore_pool4-new-R"
  bottom: "score_pool3c-R"
  top: "fuse_pool3-R"
  eltwise_param {
    operation: SUM
  }
}
layer {
  name: "upscore8-new-R"
  type: "Deconvolution"
  bottom: "fuse_pool3-R"
  top: "upscore8-new-R"
  param {
    lr_mult: 0
  }
  convolution_param {
    num_output: 3
    bias_term: false
    kernel_size: 16
    stride: 8
  }
}
layer {
  name: "upscore8_cropped-R"
  type: "Crop"
  bottom: "upscore8-new-R"
  bottom: "data-R"
  top: "upscore8_cropped-R"
  crop_param {
    axis: 2
    offset: 31
  }
}
layer {
  name: "upscore8_uncropped-R"
  type: "Python"
  bottom: "crop_info"
  bottom: "upscore8_cropped-R"
  bottom: "data"
  top: "upscore8_uncropped-R"
  python_param {
    module: "Uncrop"
    layer: "UncropLayer"
  }
}
layer {
  name: "loss1"
  type: "DiceLoss"
  bottom: "upscore8_cropped"
  bottom: "label"
  top: "loss1"
  loss_weight: 0.333333
}
layer {
  name: "loss2"
  type: "DiceLoss"
  bottom: "upscore8_uncropped-R"
  bottom: "label"
  top: "loss2"
  loss_weight: 0.666667
}
I0715 13:41:39.811525 13391 layer_factory.hpp:77] Creating layer data
I0715 13:41:39.811568 13391 net.cpp:84] Creating Layer data
I0715 13:41:39.811575 13391 net.cpp:380] data -> data
I0715 13:41:39.811583 13391 net.cpp:380] data -> label
I0715 13:41:39.811589 13391 net.cpp:380] data -> crop_margin
I0715 13:41:39.811594 13391 net.cpp:380] data -> crop_prob
I0715 13:41:39.811599 13391 net.cpp:380] data -> crop_sample_batch
I0715 13:41:39.938905 13391 net.cpp:122] Setting up data
I0715 13:41:39.938940 13391 net.cpp:129] Top shape: 1 3 512 205 (314880)
I0715 13:41:39.938944 13391 net.cpp:129] Top shape: 1 3 512 205 (314880)
I0715 13:41:39.938947 13391 net.cpp:129] Top shape: 1 (1)
I0715 13:41:39.938951 13391 net.cpp:129] Top shape: 1 (1)
I0715 13:41:39.938954 13391 net.cpp:129] Top shape: 1 (1)
I0715 13:41:39.938957 13391 net.cpp:137] Memory required for data: 2519052
I0715 13:41:39.938963 13391 layer_factory.hpp:77] Creating layer data_data_0_split
I0715 13:41:39.938977 13391 net.cpp:84] Creating Layer data_data_0_split
I0715 13:41:39.938980 13391 net.cpp:406] data_data_0_split <- data
I0715 13:41:39.939003 13391 net.cpp:380] data_data_0_split -> data_data_0_split_0
I0715 13:41:39.939013 13391 net.cpp:380] data_data_0_split -> data_data_0_split_1
I0715 13:41:39.939018 13391 net.cpp:380] data_data_0_split -> data_data_0_split_2
I0715 13:41:39.939023 13391 net.cpp:380] data_data_0_split -> data_data_0_split_3
I0715 13:41:39.939111 13391 net.cpp:122] Setting up data_data_0_split
I0715 13:41:39.939119 13391 net.cpp:129] Top shape: 1 3 512 205 (314880)
I0715 13:41:39.939123 13391 net.cpp:129] Top shape: 1 3 512 205 (314880)
I0715 13:41:39.939126 13391 net.cpp:129] Top shape: 1 3 512 205 (314880)
I0715 13:41:39.939131 13391 net.cpp:129] Top shape: 1 3 512 205 (314880)
I0715 13:41:39.939133 13391 net.cpp:137] Memory required for data: 7557132
I0715 13:41:39.939136 13391 layer_factory.hpp:77] Creating layer label_data_1_split
I0715 13:41:39.939142 13391 net.cpp:84] Creating Layer label_data_1_split
I0715 13:41:39.939146 13391 net.cpp:406] label_data_1_split <- label
I0715 13:41:39.939151 13391 net.cpp:380] label_data_1_split -> label_data_1_split_0
I0715 13:41:39.939155 13391 net.cpp:380] label_data_1_split -> label_data_1_split_1
I0715 13:41:39.939160 13391 net.cpp:380] label_data_1_split -> label_data_1_split_2
I0715 13:41:39.939224 13391 net.cpp:122] Setting up label_data_1_split
I0715 13:41:39.939231 13391 net.cpp:129] Top shape: 1 3 512 205 (314880)
I0715 13:41:39.939235 13391 net.cpp:129] Top shape: 1 3 512 205 (314880)
I0715 13:41:39.939239 13391 net.cpp:129] Top shape: 1 3 512 205 (314880)
I0715 13:41:39.939241 13391 net.cpp:137] Memory required for data: 11335692
I0715 13:41:39.939244 13391 layer_factory.hpp:77] Creating layer conv1_1
I0715 13:41:39.939254 13391 net.cpp:84] Creating Layer conv1_1
I0715 13:41:39.939257 13391 net.cpp:406] conv1_1 <- data_data_0_split_0
I0715 13:41:39.939262 13391 net.cpp:380] conv1_1 -> conv1_1
I0715 13:41:39.941989 13391 net.cpp:122] Setting up conv1_1
I0715 13:41:39.942005 13391 net.cpp:129] Top shape: 1 64 710 403 (18312320)
I0715 13:41:39.942009 13391 net.cpp:137] Memory required for data: 84584972
I0715 13:41:39.942020 13391 layer_factory.hpp:77] Creating layer relu1_1
I0715 13:41:39.942028 13391 net.cpp:84] Creating Layer relu1_1
I0715 13:41:39.942030 13391 net.cpp:406] relu1_1 <- conv1_1
I0715 13:41:39.942035 13391 net.cpp:367] relu1_1 -> conv1_1 (in-place)
I0715 13:41:39.942746 13391 net.cpp:122] Setting up relu1_1
I0715 13:41:39.942759 13391 net.cpp:129] Top shape: 1 64 710 403 (18312320)
I0715 13:41:39.942762 13391 net.cpp:137] Memory required for data: 157834252
I0715 13:41:39.942766 13391 layer_factory.hpp:77] Creating layer conv1_2
I0715 13:41:39.942775 13391 net.cpp:84] Creating Layer conv1_2
I0715 13:41:39.942777 13391 net.cpp:406] conv1_2 <- conv1_1
I0715 13:41:39.942782 13391 net.cpp:380] conv1_2 -> conv1_2
I0715 13:41:39.945710 13391 net.cpp:122] Setting up conv1_2
I0715 13:41:39.945726 13391 net.cpp:129] Top shape: 1 64 710 403 (18312320)
I0715 13:41:39.945729 13391 net.cpp:137] Memory required for data: 231083532
I0715 13:41:39.945737 13391 layer_factory.hpp:77] Creating layer relu1_2
I0715 13:41:39.945744 13391 net.cpp:84] Creating Layer relu1_2
I0715 13:41:39.945746 13391 net.cpp:406] relu1_2 <- conv1_2
I0715 13:41:39.945751 13391 net.cpp:367] relu1_2 -> conv1_2 (in-place)
I0715 13:41:39.945973 13391 net.cpp:122] Setting up relu1_2
I0715 13:41:39.945983 13391 net.cpp:129] Top shape: 1 64 710 403 (18312320)
I0715 13:41:39.945987 13391 net.cpp:137] Memory required for data: 304332812
I0715 13:41:39.945991 13391 layer_factory.hpp:77] Creating layer pool1
I0715 13:41:39.945997 13391 net.cpp:84] Creating Layer pool1
I0715 13:41:39.946002 13391 net.cpp:406] pool1 <- conv1_2
I0715 13:41:39.946007 13391 net.cpp:380] pool1 -> pool1
I0715 13:41:39.946070 13391 net.cpp:122] Setting up pool1
I0715 13:41:39.946076 13391 net.cpp:129] Top shape: 1 64 355 202 (4589440)
I0715 13:41:39.946079 13391 net.cpp:137] Memory required for data: 322690572
I0715 13:41:39.946082 13391 layer_factory.hpp:77] Creating layer conv2_1
I0715 13:41:39.946090 13391 net.cpp:84] Creating Layer conv2_1
I0715 13:41:39.946094 13391 net.cpp:406] conv2_1 <- pool1
I0715 13:41:39.946099 13391 net.cpp:380] conv2_1 -> conv2_1
I0715 13:41:39.947696 13391 net.cpp:122] Setting up conv2_1
I0715 13:41:39.947711 13391 net.cpp:129] Top shape: 1 128 355 202 (9178880)
I0715 13:41:39.947715 13391 net.cpp:137] Memory required for data: 359406092
I0715 13:41:39.947723 13391 layer_factory.hpp:77] Creating layer relu2_1
I0715 13:41:39.947728 13391 net.cpp:84] Creating Layer relu2_1
I0715 13:41:39.947732 13391 net.cpp:406] relu2_1 <- conv2_1
I0715 13:41:39.947752 13391 net.cpp:367] relu2_1 -> conv2_1 (in-place)
I0715 13:41:39.947955 13391 net.cpp:122] Setting up relu2_1
I0715 13:41:39.947966 13391 net.cpp:129] Top shape: 1 128 355 202 (9178880)
I0715 13:41:39.947969 13391 net.cpp:137] Memory required for data: 396121612
I0715 13:41:39.947973 13391 layer_factory.hpp:77] Creating layer conv2_2
I0715 13:41:39.947980 13391 net.cpp:84] Creating Layer conv2_2
I0715 13:41:39.947983 13391 net.cpp:406] conv2_2 <- conv2_1
I0715 13:41:39.947989 13391 net.cpp:380] conv2_2 -> conv2_2
I0715 13:41:39.949829 13391 net.cpp:122] Setting up conv2_2
I0715 13:41:39.949842 13391 net.cpp:129] Top shape: 1 128 355 202 (9178880)
I0715 13:41:39.949846 13391 net.cpp:137] Memory required for data: 432837132
I0715 13:41:39.949851 13391 layer_factory.hpp:77] Creating layer relu2_2
I0715 13:41:39.949857 13391 net.cpp:84] Creating Layer relu2_2
I0715 13:41:39.949862 13391 net.cpp:406] relu2_2 <- conv2_2
I0715 13:41:39.949867 13391 net.cpp:367] relu2_2 -> conv2_2 (in-place)
I0715 13:41:39.950084 13391 net.cpp:122] Setting up relu2_2
I0715 13:41:39.950093 13391 net.cpp:129] Top shape: 1 128 355 202 (9178880)
I0715 13:41:39.950098 13391 net.cpp:137] Memory required for data: 469552652
I0715 13:41:39.950100 13391 layer_factory.hpp:77] Creating layer pool2
I0715 13:41:39.950106 13391 net.cpp:84] Creating Layer pool2
I0715 13:41:39.950109 13391 net.cpp:406] pool2 <- conv2_2
I0715 13:41:39.950114 13391 net.cpp:380] pool2 -> pool2
I0715 13:41:39.950172 13391 net.cpp:122] Setting up pool2
I0715 13:41:39.950186 13391 net.cpp:129] Top shape: 1 128 178 101 (2301184)
I0715 13:41:39.950189 13391 net.cpp:137] Memory required for data: 478757388
I0715 13:41:39.950192 13391 layer_factory.hpp:77] Creating layer conv3_1
I0715 13:41:39.950199 13391 net.cpp:84] Creating Layer conv3_1
I0715 13:41:39.950202 13391 net.cpp:406] conv3_1 <- pool2
I0715 13:41:39.950207 13391 net.cpp:380] conv3_1 -> conv3_1
I0715 13:41:39.962026 13391 net.cpp:122] Setting up conv3_1
I0715 13:41:39.962077 13391 net.cpp:129] Top shape: 1 256 178 101 (4602368)
I0715 13:41:39.962086 13391 net.cpp:137] Memory required for data: 497166860
I0715 13:41:39.962116 13391 layer_factory.hpp:77] Creating layer relu3_1
I0715 13:41:39.962136 13391 net.cpp:84] Creating Layer relu3_1
I0715 13:41:39.962146 13391 net.cpp:406] relu3_1 <- conv3_1
I0715 13:41:39.962159 13391 net.cpp:367] relu3_1 -> conv3_1 (in-place)
I0715 13:41:39.962644 13391 net.cpp:122] Setting up relu3_1
I0715 13:41:39.962664 13391 net.cpp:129] Top shape: 1 256 178 101 (4602368)
I0715 13:41:39.962672 13391 net.cpp:137] Memory required for data: 515576332
I0715 13:41:39.962679 13391 layer_factory.hpp:77] Creating layer conv3_2
I0715 13:41:39.962698 13391 net.cpp:84] Creating Layer conv3_2
I0715 13:41:39.962705 13391 net.cpp:406] conv3_2 <- conv3_1
I0715 13:41:39.962719 13391 net.cpp:380] conv3_2 -> conv3_2
I0715 13:41:39.972473 13391 net.cpp:122] Setting up conv3_2
I0715 13:41:39.972508 13391 net.cpp:129] Top shape: 1 256 178 101 (4602368)
I0715 13:41:39.972517 13391 net.cpp:137] Memory required for data: 533985804
I0715 13:41:39.972543 13391 layer_factory.hpp:77] Creating layer relu3_2
I0715 13:41:39.972559 13391 net.cpp:84] Creating Layer relu3_2
I0715 13:41:39.972570 13391 net.cpp:406] relu3_2 <- conv3_2
I0715 13:41:39.972582 13391 net.cpp:367] relu3_2 -> conv3_2 (in-place)
I0715 13:41:39.973053 13391 net.cpp:122] Setting up relu3_2
I0715 13:41:39.973073 13391 net.cpp:129] Top shape: 1 256 178 101 (4602368)
I0715 13:41:39.973079 13391 net.cpp:137] Memory required for data: 552395276
I0715 13:41:39.973088 13391 layer_factory.hpp:77] Creating layer conv3_3
I0715 13:41:39.973106 13391 net.cpp:84] Creating Layer conv3_3
I0715 13:41:39.973114 13391 net.cpp:406] conv3_3 <- conv3_2
I0715 13:41:39.973127 13391 net.cpp:380] conv3_3 -> conv3_3
I0715 13:41:39.983037 13391 net.cpp:122] Setting up conv3_3
I0715 13:41:39.983080 13391 net.cpp:129] Top shape: 1 256 178 101 (4602368)
I0715 13:41:39.983089 13391 net.cpp:137] Memory required for data: 570804748
I0715 13:41:39.983106 13391 layer_factory.hpp:77] Creating layer relu3_3
I0715 13:41:39.983120 13391 net.cpp:84] Creating Layer relu3_3
I0715 13:41:39.983140 13391 net.cpp:406] relu3_3 <- conv3_3
I0715 13:41:39.983151 13391 net.cpp:367] relu3_3 -> conv3_3 (in-place)
I0715 13:41:39.984921 13391 net.cpp:122] Setting up relu3_3
I0715 13:41:39.984958 13391 net.cpp:129] Top shape: 1 256 178 101 (4602368)
I0715 13:41:39.984966 13391 net.cpp:137] Memory required for data: 589214220
I0715 13:41:39.984974 13391 layer_factory.hpp:77] Creating layer pool3
I0715 13:41:39.984992 13391 net.cpp:84] Creating Layer pool3
I0715 13:41:39.984999 13391 net.cpp:406] pool3 <- conv3_3
I0715 13:41:39.985023 13391 net.cpp:380] pool3 -> pool3
I0715 13:41:39.985167 13391 net.cpp:122] Setting up pool3
I0715 13:41:39.985183 13391 net.cpp:129] Top shape: 1 256 89 51 (1161984)
I0715 13:41:39.985189 13391 net.cpp:137] Memory required for data: 593862156
I0715 13:41:39.985196 13391 layer_factory.hpp:77] Creating layer pool3_pool3_0_split
I0715 13:41:39.985208 13391 net.cpp:84] Creating Layer pool3_pool3_0_split
I0715 13:41:39.985215 13391 net.cpp:406] pool3_pool3_0_split <- pool3
I0715 13:41:39.985226 13391 net.cpp:380] pool3_pool3_0_split -> pool3_pool3_0_split_0
I0715 13:41:39.985239 13391 net.cpp:380] pool3_pool3_0_split -> pool3_pool3_0_split_1
I0715 13:41:39.985342 13391 net.cpp:122] Setting up pool3_pool3_0_split
I0715 13:41:39.985357 13391 net.cpp:129] Top shape: 1 256 89 51 (1161984)
I0715 13:41:39.985364 13391 net.cpp:129] Top shape: 1 256 89 51 (1161984)
I0715 13:41:39.985371 13391 net.cpp:137] Memory required for data: 603158028
I0715 13:41:39.985378 13391 layer_factory.hpp:77] Creating layer conv4_1
I0715 13:41:39.985394 13391 net.cpp:84] Creating Layer conv4_1
I0715 13:41:39.985402 13391 net.cpp:406] conv4_1 <- pool3_pool3_0_split_0
I0715 13:41:39.985415 13391 net.cpp:380] conv4_1 -> conv4_1
I0715 13:41:39.994074 13391 net.cpp:122] Setting up conv4_1
I0715 13:41:39.994093 13391 net.cpp:129] Top shape: 1 512 89 51 (2323968)
I0715 13:41:39.994097 13391 net.cpp:137] Memory required for data: 612453900
I0715 13:41:39.994108 13391 layer_factory.hpp:77] Creating layer relu4_1
I0715 13:41:39.994129 13391 net.cpp:84] Creating Layer relu4_1
I0715 13:41:39.994135 13391 net.cpp:406] relu4_1 <- conv4_1
I0715 13:41:39.994143 13391 net.cpp:367] relu4_1 -> conv4_1 (in-place)
I0715 13:41:39.994432 13391 net.cpp:122] Setting up relu4_1
I0715 13:41:39.994446 13391 net.cpp:129] Top shape: 1 512 89 51 (2323968)
I0715 13:41:39.994449 13391 net.cpp:137] Memory required for data: 621749772
I0715 13:41:39.994454 13391 layer_factory.hpp:77] Creating layer conv4_2
I0715 13:41:39.994465 13391 net.cpp:84] Creating Layer conv4_2
I0715 13:41:39.994470 13391 net.cpp:406] conv4_2 <- conv4_1
I0715 13:41:39.994477 13391 net.cpp:380] conv4_2 -> conv4_2
I0715 13:41:40.004165 13391 net.cpp:122] Setting up conv4_2
I0715 13:41:40.004186 13391 net.cpp:129] Top shape: 1 512 89 51 (2323968)
I0715 13:41:40.004192 13391 net.cpp:137] Memory required for data: 631045644
I0715 13:41:40.004220 13391 layer_factory.hpp:77] Creating layer relu4_2
I0715 13:41:40.004228 13391 net.cpp:84] Creating Layer relu4_2
I0715 13:41:40.004233 13391 net.cpp:406] relu4_2 <- conv4_2
I0715 13:41:40.004240 13391 net.cpp:367] relu4_2 -> conv4_2 (in-place)
I0715 13:41:40.004503 13391 net.cpp:122] Setting up relu4_2
I0715 13:41:40.004514 13391 net.cpp:129] Top shape: 1 512 89 51 (2323968)
I0715 13:41:40.004518 13391 net.cpp:137] Memory required for data: 640341516
I0715 13:41:40.004523 13391 layer_factory.hpp:77] Creating layer conv4_3
I0715 13:41:40.004534 13391 net.cpp:84] Creating Layer conv4_3
I0715 13:41:40.004539 13391 net.cpp:406] conv4_3 <- conv4_2
I0715 13:41:40.004547 13391 net.cpp:380] conv4_3 -> conv4_3
I0715 13:41:40.014847 13391 net.cpp:122] Setting up conv4_3
I0715 13:41:40.014868 13391 net.cpp:129] Top shape: 1 512 89 51 (2323968)
I0715 13:41:40.014873 13391 net.cpp:137] Memory required for data: 649637388
I0715 13:41:40.014883 13391 layer_factory.hpp:77] Creating layer relu4_3
I0715 13:41:40.014902 13391 net.cpp:84] Creating Layer relu4_3
I0715 13:41:40.014907 13391 net.cpp:406] relu4_3 <- conv4_3
I0715 13:41:40.014915 13391 net.cpp:367] relu4_3 -> conv4_3 (in-place)
I0715 13:41:40.015185 13391 net.cpp:122] Setting up relu4_3
I0715 13:41:40.015197 13391 net.cpp:129] Top shape: 1 512 89 51 (2323968)
I0715 13:41:40.015202 13391 net.cpp:137] Memory required for data: 658933260
I0715 13:41:40.015205 13391 layer_factory.hpp:77] Creating layer pool4
I0715 13:41:40.015216 13391 net.cpp:84] Creating Layer pool4
I0715 13:41:40.015220 13391 net.cpp:406] pool4 <- conv4_3
I0715 13:41:40.015228 13391 net.cpp:380] pool4 -> pool4
I0715 13:41:40.015316 13391 net.cpp:122] Setting up pool4
I0715 13:41:40.015326 13391 net.cpp:129] Top shape: 1 512 45 26 (599040)
I0715 13:41:40.015331 13391 net.cpp:137] Memory required for data: 661329420
I0715 13:41:40.015334 13391 layer_factory.hpp:77] Creating layer pool4_pool4_0_split
I0715 13:41:40.015343 13391 net.cpp:84] Creating Layer pool4_pool4_0_split
I0715 13:41:40.015347 13391 net.cpp:406] pool4_pool4_0_split <- pool4
I0715 13:41:40.015354 13391 net.cpp:380] pool4_pool4_0_split -> pool4_pool4_0_split_0
I0715 13:41:40.015362 13391 net.cpp:380] pool4_pool4_0_split -> pool4_pool4_0_split_1
I0715 13:41:40.015429 13391 net.cpp:122] Setting up pool4_pool4_0_split
I0715 13:41:40.015437 13391 net.cpp:129] Top shape: 1 512 45 26 (599040)
I0715 13:41:40.015444 13391 net.cpp:129] Top shape: 1 512 45 26 (599040)
I0715 13:41:40.015446 13391 net.cpp:137] Memory required for data: 666121740
I0715 13:41:40.015450 13391 layer_factory.hpp:77] Creating layer conv5_1
I0715 13:41:40.015461 13391 net.cpp:84] Creating Layer conv5_1
I0715 13:41:40.015466 13391 net.cpp:406] conv5_1 <- pool4_pool4_0_split_0
I0715 13:41:40.015475 13391 net.cpp:380] conv5_1 -> conv5_1
I0715 13:41:40.024966 13391 net.cpp:122] Setting up conv5_1
I0715 13:41:40.024987 13391 net.cpp:129] Top shape: 1 512 45 26 (599040)
I0715 13:41:40.024992 13391 net.cpp:137] Memory required for data: 668517900
I0715 13:41:40.025002 13391 layer_factory.hpp:77] Creating layer relu5_1
I0715 13:41:40.025012 13391 net.cpp:84] Creating Layer relu5_1
I0715 13:41:40.025027 13391 net.cpp:406] relu5_1 <- conv5_1
I0715 13:41:40.025034 13391 net.cpp:367] relu5_1 -> conv5_1 (in-place)
I0715 13:41:40.025298 13391 net.cpp:122] Setting up relu5_1
I0715 13:41:40.025310 13391 net.cpp:129] Top shape: 1 512 45 26 (599040)
I0715 13:41:40.025315 13391 net.cpp:137] Memory required for data: 670914060
I0715 13:41:40.025319 13391 layer_factory.hpp:77] Creating layer conv5_2
I0715 13:41:40.025331 13391 net.cpp:84] Creating Layer conv5_2
I0715 13:41:40.025336 13391 net.cpp:406] conv5_2 <- conv5_1
I0715 13:41:40.025343 13391 net.cpp:380] conv5_2 -> conv5_2
I0715 13:41:40.039899 13391 net.cpp:122] Setting up conv5_2
I0715 13:41:40.039939 13391 net.cpp:129] Top shape: 1 512 45 26 (599040)
I0715 13:41:40.039947 13391 net.cpp:137] Memory required for data: 673310220
I0715 13:41:40.039959 13391 layer_factory.hpp:77] Creating layer relu5_2
I0715 13:41:40.039979 13391 net.cpp:84] Creating Layer relu5_2
I0715 13:41:40.039986 13391 net.cpp:406] relu5_2 <- conv5_2
I0715 13:41:40.040006 13391 net.cpp:367] relu5_2 -> conv5_2 (in-place)
I0715 13:41:40.040356 13391 net.cpp:122] Setting up relu5_2
I0715 13:41:40.040371 13391 net.cpp:129] Top shape: 1 512 45 26 (599040)
I0715 13:41:40.040377 13391 net.cpp:137] Memory required for data: 675706380
I0715 13:41:40.040383 13391 layer_factory.hpp:77] Creating layer conv5_3
I0715 13:41:40.040400 13391 net.cpp:84] Creating Layer conv5_3
I0715 13:41:40.040405 13391 net.cpp:406] conv5_3 <- conv5_2
I0715 13:41:40.040416 13391 net.cpp:380] conv5_3 -> conv5_3
I0715 13:41:40.062335 13391 net.cpp:122] Setting up conv5_3
I0715 13:41:40.062358 13391 net.cpp:129] Top shape: 1 512 45 26 (599040)
I0715 13:41:40.062364 13391 net.cpp:137] Memory required for data: 678102540
I0715 13:41:40.062373 13391 layer_factory.hpp:77] Creating layer relu5_3
I0715 13:41:40.062381 13391 net.cpp:84] Creating Layer relu5_3
I0715 13:41:40.062386 13391 net.cpp:406] relu5_3 <- conv5_3
I0715 13:41:40.062393 13391 net.cpp:367] relu5_3 -> conv5_3 (in-place)
I0715 13:41:40.063518 13391 net.cpp:122] Setting up relu5_3
I0715 13:41:40.063535 13391 net.cpp:129] Top shape: 1 512 45 26 (599040)
I0715 13:41:40.063540 13391 net.cpp:137] Memory required for data: 680498700
I0715 13:41:40.063544 13391 layer_factory.hpp:77] Creating layer pool5
I0715 13:41:40.063554 13391 net.cpp:84] Creating Layer pool5
I0715 13:41:40.063558 13391 net.cpp:406] pool5 <- conv5_3
I0715 13:41:40.063586 13391 net.cpp:380] pool5 -> pool5
I0715 13:41:40.063717 13391 net.cpp:122] Setting up pool5
I0715 13:41:40.063733 13391 net.cpp:129] Top shape: 1 512 23 13 (153088)
I0715 13:41:40.063740 13391 net.cpp:137] Memory required for data: 681111052
I0715 13:41:40.063747 13391 layer_factory.hpp:77] Creating layer fc6
I0715 13:41:40.063763 13391 net.cpp:84] Creating Layer fc6
I0715 13:41:40.063771 13391 net.cpp:406] fc6 <- pool5
I0715 13:41:40.063783 13391 net.cpp:380] fc6 -> fc6
I0715 13:41:40.412307 13391 net.cpp:122] Setting up fc6
I0715 13:41:40.412358 13391 net.cpp:129] Top shape: 1 4096 17 7 (487424)
I0715 13:41:40.412364 13391 net.cpp:137] Memory required for data: 683060748
I0715 13:41:40.412377 13391 layer_factory.hpp:77] Creating layer relu6
I0715 13:41:40.412395 13391 net.cpp:84] Creating Layer relu6
I0715 13:41:40.412401 13391 net.cpp:406] relu6 <- fc6
I0715 13:41:40.412411 13391 net.cpp:367] relu6 -> fc6 (in-place)
I0715 13:41:40.412673 13391 net.cpp:122] Setting up relu6
I0715 13:41:40.412685 13391 net.cpp:129] Top shape: 1 4096 17 7 (487424)
I0715 13:41:40.412690 13391 net.cpp:137] Memory required for data: 685010444
I0715 13:41:40.412694 13391 layer_factory.hpp:77] Creating layer drop6
I0715 13:41:40.412705 13391 net.cpp:84] Creating Layer drop6
I0715 13:41:40.412709 13391 net.cpp:406] drop6 <- fc6
I0715 13:41:40.412716 13391 net.cpp:367] drop6 -> fc6 (in-place)
I0715 13:41:40.412772 13391 net.cpp:122] Setting up drop6
I0715 13:41:40.412782 13391 net.cpp:129] Top shape: 1 4096 17 7 (487424)
I0715 13:41:40.412786 13391 net.cpp:137] Memory required for data: 686960140
I0715 13:41:40.412791 13391 layer_factory.hpp:77] Creating layer fc7
I0715 13:41:40.412804 13391 net.cpp:84] Creating Layer fc7
I0715 13:41:40.412808 13391 net.cpp:406] fc7 <- fc6
I0715 13:41:40.412817 13391 net.cpp:380] fc7 -> fc7
I0715 13:41:40.474789 13391 net.cpp:122] Setting up fc7
I0715 13:41:40.474833 13391 net.cpp:129] Top shape: 1 4096 17 7 (487424)
I0715 13:41:40.474839 13391 net.cpp:137] Memory required for data: 688909836
I0715 13:41:40.474853 13391 layer_factory.hpp:77] Creating layer relu7
I0715 13:41:40.474869 13391 net.cpp:84] Creating Layer relu7
I0715 13:41:40.474875 13391 net.cpp:406] relu7 <- fc7
I0715 13:41:40.474884 13391 net.cpp:367] relu7 -> fc7 (in-place)
I0715 13:41:40.475165 13391 net.cpp:122] Setting up relu7
I0715 13:41:40.475179 13391 net.cpp:129] Top shape: 1 4096 17 7 (487424)
I0715 13:41:40.475184 13391 net.cpp:137] Memory required for data: 690859532
I0715 13:41:40.475189 13391 layer_factory.hpp:77] Creating layer drop7
I0715 13:41:40.475198 13391 net.cpp:84] Creating Layer drop7
I0715 13:41:40.475203 13391 net.cpp:406] drop7 <- fc7
I0715 13:41:40.475211 13391 net.cpp:367] drop7 -> fc7 (in-place)
I0715 13:41:40.475266 13391 net.cpp:122] Setting up drop7
I0715 13:41:40.475284 13391 net.cpp:129] Top shape: 1 4096 17 7 (487424)
I0715 13:41:40.475302 13391 net.cpp:137] Memory required for data: 692809228
I0715 13:41:40.475306 13391 layer_factory.hpp:77] Creating layer score_fr-new
I0715 13:41:40.475318 13391 net.cpp:84] Creating Layer score_fr-new
I0715 13:41:40.475322 13391 net.cpp:406] score_fr-new <- fc7
I0715 13:41:40.475332 13391 net.cpp:380] score_fr-new -> score_fr-new
I0715 13:41:40.480667 13391 net.cpp:122] Setting up score_fr-new
I0715 13:41:40.480720 13391 net.cpp:129] Top shape: 1 3 17 7 (357)
I0715 13:41:40.480729 13391 net.cpp:137] Memory required for data: 692810656
I0715 13:41:40.480763 13391 layer_factory.hpp:77] Creating layer upscore2-new
I0715 13:41:40.480789 13391 net.cpp:84] Creating Layer upscore2-new
I0715 13:41:40.480800 13391 net.cpp:406] upscore2-new <- score_fr-new
I0715 13:41:40.480816 13391 net.cpp:380] upscore2-new -> upscore2-new
I0715 13:41:40.481529 13391 net.cpp:122] Setting up upscore2-new
I0715 13:41:40.481546 13391 net.cpp:129] Top shape: 1 3 36 16 (1728)
I0715 13:41:40.481562 13391 net.cpp:137] Memory required for data: 692817568
I0715 13:41:40.481590 13391 layer_factory.hpp:77] Creating layer upscore2-new_upscore2-new_0_split
I0715 13:41:40.481604 13391 net.cpp:84] Creating Layer upscore2-new_upscore2-new_0_split
I0715 13:41:40.481611 13391 net.cpp:406] upscore2-new_upscore2-new_0_split <- upscore2-new
I0715 13:41:40.481623 13391 net.cpp:380] upscore2-new_upscore2-new_0_split -> upscore2-new_upscore2-new_0_split_0
I0715 13:41:40.481637 13391 net.cpp:380] upscore2-new_upscore2-new_0_split -> upscore2-new_upscore2-new_0_split_1
I0715 13:41:40.481758 13391 net.cpp:122] Setting up upscore2-new_upscore2-new_0_split
I0715 13:41:40.481772 13391 net.cpp:129] Top shape: 1 3 36 16 (1728)
I0715 13:41:40.481781 13391 net.cpp:129] Top shape: 1 3 36 16 (1728)
I0715 13:41:40.481789 13391 net.cpp:137] Memory required for data: 692831392
I0715 13:41:40.481796 13391 layer_factory.hpp:77] Creating layer score_pool4-new
I0715 13:41:40.481813 13391 net.cpp:84] Creating Layer score_pool4-new
I0715 13:41:40.481822 13391 net.cpp:406] score_pool4-new <- pool4_pool4_0_split_1
I0715 13:41:40.481834 13391 net.cpp:380] score_pool4-new -> score_pool4-new
I0715 13:41:40.485651 13391 net.cpp:122] Setting up score_pool4-new
I0715 13:41:40.485678 13391 net.cpp:129] Top shape: 1 3 45 26 (3510)
I0715 13:41:40.485687 13391 net.cpp:137] Memory required for data: 692845432
I0715 13:41:40.485713 13391 layer_factory.hpp:77] Creating layer score_pool4c
I0715 13:41:40.485728 13391 net.cpp:84] Creating Layer score_pool4c
I0715 13:41:40.485736 13391 net.cpp:406] score_pool4c <- score_pool4-new
I0715 13:41:40.485746 13391 net.cpp:406] score_pool4c <- upscore2-new_upscore2-new_0_split_0
I0715 13:41:40.485759 13391 net.cpp:380] score_pool4c -> score_pool4c
I0715 13:41:40.485839 13391 net.cpp:122] Setting up score_pool4c
I0715 13:41:40.485855 13391 net.cpp:129] Top shape: 1 3 36 16 (1728)
I0715 13:41:40.485862 13391 net.cpp:137] Memory required for data: 692852344
I0715 13:41:40.485868 13391 layer_factory.hpp:77] Creating layer fuse_pool4
I0715 13:41:40.485882 13391 net.cpp:84] Creating Layer fuse_pool4
I0715 13:41:40.485890 13391 net.cpp:406] fuse_pool4 <- upscore2-new_upscore2-new_0_split_1
I0715 13:41:40.485899 13391 net.cpp:406] fuse_pool4 <- score_pool4c
I0715 13:41:40.485911 13391 net.cpp:380] fuse_pool4 -> fuse_pool4
I0715 13:41:40.485980 13391 net.cpp:122] Setting up fuse_pool4
I0715 13:41:40.485994 13391 net.cpp:129] Top shape: 1 3 36 16 (1728)
I0715 13:41:40.486001 13391 net.cpp:137] Memory required for data: 692859256
I0715 13:41:40.486007 13391 layer_factory.hpp:77] Creating layer upscore_pool4-new
I0715 13:41:40.486021 13391 net.cpp:84] Creating Layer upscore_pool4-new
I0715 13:41:40.486028 13391 net.cpp:406] upscore_pool4-new <- fuse_pool4
I0715 13:41:40.486040 13391 net.cpp:380] upscore_pool4-new -> upscore_pool4-new
I0715 13:41:40.486675 13391 net.cpp:122] Setting up upscore_pool4-new
I0715 13:41:40.486688 13391 net.cpp:129] Top shape: 1 3 74 34 (7548)
I0715 13:41:40.486696 13391 net.cpp:137] Memory required for data: 692889448
I0715 13:41:40.486706 13391 layer_factory.hpp:77] Creating layer upscore_pool4-new_upscore_pool4-new_0_split
I0715 13:41:40.486716 13391 net.cpp:84] Creating Layer upscore_pool4-new_upscore_pool4-new_0_split
I0715 13:41:40.486724 13391 net.cpp:406] upscore_pool4-new_upscore_pool4-new_0_split <- upscore_pool4-new
I0715 13:41:40.486735 13391 net.cpp:380] upscore_pool4-new_upscore_pool4-new_0_split -> upscore_pool4-new_upscore_pool4-new_0_split_0
I0715 13:41:40.486748 13391 net.cpp:380] upscore_pool4-new_upscore_pool4-new_0_split -> upscore_pool4-new_upscore_pool4-new_0_split_1
I0715 13:41:40.486853 13391 net.cpp:122] Setting up upscore_pool4-new_upscore_pool4-new_0_split
I0715 13:41:40.486867 13391 net.cpp:129] Top shape: 1 3 74 34 (7548)
I0715 13:41:40.486876 13391 net.cpp:129] Top shape: 1 3 74 34 (7548)
I0715 13:41:40.486883 13391 net.cpp:137] Memory required for data: 692949832
I0715 13:41:40.486891 13391 layer_factory.hpp:77] Creating layer score_pool3-new
I0715 13:41:40.486905 13391 net.cpp:84] Creating Layer score_pool3-new
I0715 13:41:40.486912 13391 net.cpp:406] score_pool3-new <- pool3_pool3_0_split_1
I0715 13:41:40.486927 13391 net.cpp:380] score_pool3-new -> score_pool3-new
I0715 13:41:40.491772 13391 net.cpp:122] Setting up score_pool3-new
I0715 13:41:40.491808 13391 net.cpp:129] Top shape: 1 3 89 51 (13617)
I0715 13:41:40.491817 13391 net.cpp:137] Memory required for data: 693004300
I0715 13:41:40.491832 13391 layer_factory.hpp:77] Creating layer score_pool3c
I0715 13:41:40.491847 13391 net.cpp:84] Creating Layer score_pool3c
I0715 13:41:40.491858 13391 net.cpp:406] score_pool3c <- score_pool3-new
I0715 13:41:40.491869 13391 net.cpp:406] score_pool3c <- upscore_pool4-new_upscore_pool4-new_0_split_0
I0715 13:41:40.491881 13391 net.cpp:380] score_pool3c -> score_pool3c
I0715 13:41:40.491963 13391 net.cpp:122] Setting up score_pool3c
I0715 13:41:40.491979 13391 net.cpp:129] Top shape: 1 3 74 34 (7548)
I0715 13:41:40.491986 13391 net.cpp:137] Memory required for data: 693034492
I0715 13:41:40.491993 13391 layer_factory.hpp:77] Creating layer fuse_pool3
I0715 13:41:40.492007 13391 net.cpp:84] Creating Layer fuse_pool3
I0715 13:41:40.492013 13391 net.cpp:406] fuse_pool3 <- upscore_pool4-new_upscore_pool4-new_0_split_1
I0715 13:41:40.492023 13391 net.cpp:406] fuse_pool3 <- score_pool3c
I0715 13:41:40.492034 13391 net.cpp:380] fuse_pool3 -> fuse_pool3
I0715 13:41:40.492103 13391 net.cpp:122] Setting up fuse_pool3
I0715 13:41:40.492117 13391 net.cpp:129] Top shape: 1 3 74 34 (7548)
I0715 13:41:40.492123 13391 net.cpp:137] Memory required for data: 693064684
I0715 13:41:40.492130 13391 layer_factory.hpp:77] Creating layer upscore8-new
I0715 13:41:40.492143 13391 net.cpp:84] Creating Layer upscore8-new
I0715 13:41:40.492151 13391 net.cpp:406] upscore8-new <- fuse_pool3
I0715 13:41:40.492162 13391 net.cpp:380] upscore8-new -> upscore8-new
I0715 13:41:40.492806 13391 net.cpp:122] Setting up upscore8-new
I0715 13:41:40.492821 13391 net.cpp:129] Top shape: 1 3 600 280 (504000)
I0715 13:41:40.492827 13391 net.cpp:137] Memory required for data: 695080684
I0715 13:41:40.492837 13391 layer_factory.hpp:77] Creating layer upscore8_cropped
I0715 13:41:40.492848 13391 net.cpp:84] Creating Layer upscore8_cropped
I0715 13:41:40.492856 13391 net.cpp:406] upscore8_cropped <- upscore8-new
I0715 13:41:40.492866 13391 net.cpp:406] upscore8_cropped <- data_data_0_split_1
I0715 13:41:40.492877 13391 net.cpp:380] upscore8_cropped -> upscore8_cropped
I0715 13:41:40.492943 13391 net.cpp:122] Setting up upscore8_cropped
I0715 13:41:40.492964 13391 net.cpp:129] Top shape: 1 3 512 205 (314880)
I0715 13:41:40.492970 13391 net.cpp:137] Memory required for data: 696340204
I0715 13:41:40.492976 13391 layer_factory.hpp:77] Creating layer upscore8_cropped_upscore8_cropped_0_split
I0715 13:41:40.492987 13391 net.cpp:84] Creating Layer upscore8_cropped_upscore8_cropped_0_split
I0715 13:41:40.492995 13391 net.cpp:406] upscore8_cropped_upscore8_cropped_0_split <- upscore8_cropped
I0715 13:41:40.493005 13391 net.cpp:380] upscore8_cropped_upscore8_cropped_0_split -> upscore8_cropped_upscore8_cropped_0_split_0
I0715 13:41:40.493018 13391 net.cpp:380] upscore8_cropped_upscore8_cropped_0_split -> upscore8_cropped_upscore8_cropped_0_split_1
I0715 13:41:40.493121 13391 net.cpp:122] Setting up upscore8_cropped_upscore8_cropped_0_split
I0715 13:41:40.493135 13391 net.cpp:129] Top shape: 1 3 512 205 (314880)
I0715 13:41:40.493144 13391 net.cpp:129] Top shape: 1 3 512 205 (314880)
I0715 13:41:40.493151 13391 net.cpp:137] Memory required for data: 698859244
I0715 13:41:40.493157 13391 layer_factory.hpp:77] Creating layer prob
I0715 13:41:40.493168 13391 net.cpp:84] Creating Layer prob
I0715 13:41:40.493176 13391 net.cpp:406] prob <- upscore8_cropped_upscore8_cropped_0_split_0
I0715 13:41:40.493187 13391 net.cpp:380] prob -> prob
I0715 13:41:40.493659 13391 net.cpp:122] Setting up prob
I0715 13:41:40.493676 13391 net.cpp:129] Top shape: 1 3 512 205 (314880)
I0715 13:41:40.493683 13391 net.cpp:137] Memory required for data: 700118764
I0715 13:41:40.493690 13391 layer_factory.hpp:77] Creating layer saliency1
I0715 13:41:40.493707 13391 net.cpp:84] Creating Layer saliency1
I0715 13:41:40.493716 13391 net.cpp:406] saliency1 <- prob
I0715 13:41:40.493729 13391 net.cpp:380] saliency1 -> saliency1
I0715 13:41:40.497467 13391 net.cpp:122] Setting up saliency1
I0715 13:41:40.497496 13391 net.cpp:129] Top shape: 1 3 512 205 (314880)
I0715 13:41:40.497504 13391 net.cpp:137] Memory required for data: 701378284
I0715 13:41:40.497517 13391 layer_factory.hpp:77] Creating layer relu_saliency1
I0715 13:41:40.497530 13391 net.cpp:84] Creating Layer relu_saliency1
I0715 13:41:40.497539 13391 net.cpp:406] relu_saliency1 <- saliency1
I0715 13:41:40.497550 13391 net.cpp:367] relu_saliency1 -> saliency1 (in-place)
I0715 13:41:40.497961 13391 net.cpp:122] Setting up relu_saliency1
I0715 13:41:40.497979 13391 net.cpp:129] Top shape: 1 3 512 205 (314880)
I0715 13:41:40.497987 13391 net.cpp:137] Memory required for data: 702637804
I0715 13:41:40.497993 13391 layer_factory.hpp:77] Creating layer saliency
I0715 13:41:40.498011 13391 net.cpp:84] Creating Layer saliency
I0715 13:41:40.498019 13391 net.cpp:406] saliency <- saliency1
I0715 13:41:40.498033 13391 net.cpp:380] saliency -> saliency
I0715 13:41:40.501669 13391 net.cpp:122] Setting up saliency
I0715 13:41:40.501699 13391 net.cpp:129] Top shape: 1 3 512 205 (314880)
I0715 13:41:40.501708 13391 net.cpp:137] Memory required for data: 703897324
I0715 13:41:40.501720 13391 layer_factory.hpp:77] Creating layer saliency_data
I0715 13:41:40.501734 13391 net.cpp:84] Creating Layer saliency_data
I0715 13:41:40.501742 13391 net.cpp:406] saliency_data <- data_data_0_split_2
I0715 13:41:40.501754 13391 net.cpp:406] saliency_data <- saliency
I0715 13:41:40.501765 13391 net.cpp:380] saliency_data -> saliency_data
I0715 13:41:40.501842 13391 net.cpp:122] Setting up saliency_data
I0715 13:41:40.501857 13391 net.cpp:129] Top shape: 1 3 512 205 (314880)
I0715 13:41:40.501863 13391 net.cpp:137] Memory required for data: 705156844
I0715 13:41:40.501869 13391 layer_factory.hpp:77] Creating layer crop
I0715 13:41:40.501960 13391 net.cpp:84] Creating Layer crop
I0715 13:41:40.501973 13391 net.cpp:406] crop <- label_data_1_split_0
I0715 13:41:40.501993 13391 net.cpp:406] crop <- saliency_data
I0715 13:41:40.502002 13391 net.cpp:406] crop <- crop_margin
I0715 13:41:40.502012 13391 net.cpp:406] crop <- crop_prob
I0715 13:41:40.502019 13391 net.cpp:406] crop <- crop_sample_batch
I0715 13:41:40.502032 13391 net.cpp:380] crop -> data-R
I0715 13:41:40.502046 13391 net.cpp:380] crop -> crop_info
I0715 13:41:40.507262 13391 net.cpp:122] Setting up crop
I0715 13:41:40.507297 13391 net.cpp:129] Top shape: 1 3 512 205 (314880)
I0715 13:41:40.507302 13391 net.cpp:129] Top shape: 1 2 4 (8)
I0715 13:41:40.507305 13391 net.cpp:137] Memory required for data: 706416396
I0715 13:41:40.507310 13391 layer_factory.hpp:77] Creating layer data-R_crop_0_split
I0715 13:41:40.507316 13391 net.cpp:84] Creating Layer data-R_crop_0_split
I0715 13:41:40.507319 13391 net.cpp:406] data-R_crop_0_split <- data-R
I0715 13:41:40.507324 13391 net.cpp:380] data-R_crop_0_split -> data-R_crop_0_split_0
I0715 13:41:40.507331 13391 net.cpp:380] data-R_crop_0_split -> data-R_crop_0_split_1
I0715 13:41:40.507402 13391 net.cpp:122] Setting up data-R_crop_0_split
I0715 13:41:40.507408 13391 net.cpp:129] Top shape: 1 3 512 205 (314880)
I0715 13:41:40.507411 13391 net.cpp:129] Top shape: 1 3 512 205 (314880)
I0715 13:41:40.507414 13391 net.cpp:137] Memory required for data: 708935436
I0715 13:41:40.507417 13391 layer_factory.hpp:77] Creating layer conv1_1-R
I0715 13:41:40.507426 13391 net.cpp:84] Creating Layer conv1_1-R
I0715 13:41:40.507428 13391 net.cpp:406] conv1_1-R <- data-R_crop_0_split_0
I0715 13:41:40.507434 13391 net.cpp:380] conv1_1-R -> conv1_1-R
I0715 13:41:40.511906 13391 net.cpp:122] Setting up conv1_1-R
I0715 13:41:40.511922 13391 net.cpp:129] Top shape: 1 64 710 403 (18312320)
I0715 13:41:40.511925 13391 net.cpp:137] Memory required for data: 782184716
I0715 13:41:40.511932 13391 layer_factory.hpp:77] Creating layer relu1_1-R
I0715 13:41:40.511945 13391 net.cpp:84] Creating Layer relu1_1-R
I0715 13:41:40.511950 13391 net.cpp:406] relu1_1-R <- conv1_1-R
I0715 13:41:40.511955 13391 net.cpp:367] relu1_1-R -> conv1_1-R (in-place)
I0715 13:41:40.512198 13391 net.cpp:122] Setting up relu1_1-R
I0715 13:41:40.512208 13391 net.cpp:129] Top shape: 1 64 710 403 (18312320)
I0715 13:41:40.512212 13391 net.cpp:137] Memory required for data: 855433996
I0715 13:41:40.512217 13391 layer_factory.hpp:77] Creating layer conv1_2-R
I0715 13:41:40.512224 13391 net.cpp:84] Creating Layer conv1_2-R
I0715 13:41:40.512228 13391 net.cpp:406] conv1_2-R <- conv1_1-R
I0715 13:41:40.512233 13391 net.cpp:380] conv1_2-R -> conv1_2-R
I0715 13:41:40.515828 13391 net.cpp:122] Setting up conv1_2-R
I0715 13:41:40.515857 13391 net.cpp:129] Top shape: 1 64 710 403 (18312320)
I0715 13:41:40.515861 13391 net.cpp:137] Memory required for data: 928683276
I0715 13:41:40.515868 13391 layer_factory.hpp:77] Creating layer relu1_2-R
I0715 13:41:40.515873 13391 net.cpp:84] Creating Layer relu1_2-R
I0715 13:41:40.515877 13391 net.cpp:406] relu1_2-R <- conv1_2-R
I0715 13:41:40.515882 13391 net.cpp:367] relu1_2-R -> conv1_2-R (in-place)
I0715 13:41:40.516106 13391 net.cpp:122] Setting up relu1_2-R
I0715 13:41:40.516116 13391 net.cpp:129] Top shape: 1 64 710 403 (18312320)
I0715 13:41:40.516119 13391 net.cpp:137] Memory required for data: 1001932556
I0715 13:41:40.516122 13391 layer_factory.hpp:77] Creating layer pool1-R
I0715 13:41:40.516129 13391 net.cpp:84] Creating Layer pool1-R
I0715 13:41:40.516132 13391 net.cpp:406] pool1-R <- conv1_2-R
I0715 13:41:40.516137 13391 net.cpp:380] pool1-R -> pool1-R
I0715 13:41:40.516203 13391 net.cpp:122] Setting up pool1-R
I0715 13:41:40.516211 13391 net.cpp:129] Top shape: 1 64 355 202 (4589440)
I0715 13:41:40.516213 13391 net.cpp:137] Memory required for data: 1020290316
I0715 13:41:40.516216 13391 layer_factory.hpp:77] Creating layer conv2_1-R
I0715 13:41:40.516223 13391 net.cpp:84] Creating Layer conv2_1-R
I0715 13:41:40.516227 13391 net.cpp:406] conv2_1-R <- pool1-R
I0715 13:41:40.516232 13391 net.cpp:380] conv2_1-R -> conv2_1-R
I0715 13:41:40.520637 13391 net.cpp:122] Setting up conv2_1-R
I0715 13:41:40.520689 13391 net.cpp:129] Top shape: 1 128 355 202 (9178880)
I0715 13:41:40.520696 13391 net.cpp:137] Memory required for data: 1057005836
I0715 13:41:40.520714 13391 layer_factory.hpp:77] Creating layer relu2_1-R
I0715 13:41:40.520730 13391 net.cpp:84] Creating Layer relu2_1-R
I0715 13:41:40.520740 13391 net.cpp:406] relu2_1-R <- conv2_1-R
I0715 13:41:40.520752 13391 net.cpp:367] relu2_1-R -> conv2_1-R (in-place)
I0715 13:41:40.521181 13391 net.cpp:122] Setting up relu2_1-R
I0715 13:41:40.521200 13391 net.cpp:129] Top shape: 1 128 355 202 (9178880)
I0715 13:41:40.521216 13391 net.cpp:137] Memory required for data: 1093721356
I0715 13:41:40.521224 13391 layer_factory.hpp:77] Creating layer conv2_2-R
I0715 13:41:40.521242 13391 net.cpp:84] Creating Layer conv2_2-R
I0715 13:41:40.521250 13391 net.cpp:406] conv2_2-R <- conv2_1-R
I0715 13:41:40.521263 13391 net.cpp:380] conv2_2-R -> conv2_2-R
I0715 13:41:40.526764 13391 net.cpp:122] Setting up conv2_2-R
I0715 13:41:40.526804 13391 net.cpp:129] Top shape: 1 128 355 202 (9178880)
I0715 13:41:40.526813 13391 net.cpp:137] Memory required for data: 1130436876
I0715 13:41:40.526829 13391 layer_factory.hpp:77] Creating layer relu2_2-R
I0715 13:41:40.526842 13391 net.cpp:84] Creating Layer relu2_2-R
I0715 13:41:40.526850 13391 net.cpp:406] relu2_2-R <- conv2_2-R
I0715 13:41:40.526862 13391 net.cpp:367] relu2_2-R -> conv2_2-R (in-place)
I0715 13:41:40.528304 13391 net.cpp:122] Setting up relu2_2-R
I0715 13:41:40.528321 13391 net.cpp:129] Top shape: 1 128 355 202 (9178880)
I0715 13:41:40.528334 13391 net.cpp:137] Memory required for data: 1167152396
I0715 13:41:40.528339 13391 layer_factory.hpp:77] Creating layer pool2-R
I0715 13:41:40.528352 13391 net.cpp:84] Creating Layer pool2-R
I0715 13:41:40.528357 13391 net.cpp:406] pool2-R <- conv2_2-R
I0715 13:41:40.528365 13391 net.cpp:380] pool2-R -> pool2-R
I0715 13:41:40.528451 13391 net.cpp:122] Setting up pool2-R
I0715 13:41:40.528472 13391 net.cpp:129] Top shape: 1 128 178 101 (2301184)
I0715 13:41:40.528476 13391 net.cpp:137] Memory required for data: 1176357132
I0715 13:41:40.528481 13391 layer_factory.hpp:77] Creating layer conv3_1-R
I0715 13:41:40.528491 13391 net.cpp:84] Creating Layer conv3_1-R
I0715 13:41:40.528496 13391 net.cpp:406] conv3_1-R <- pool2-R
I0715 13:41:40.528503 13391 net.cpp:380] conv3_1-R -> conv3_1-R
I0715 13:41:40.537286 13391 net.cpp:122] Setting up conv3_1-R
I0715 13:41:40.537328 13391 net.cpp:129] Top shape: 1 256 178 101 (4602368)
I0715 13:41:40.537338 13391 net.cpp:137] Memory required for data: 1194766604
I0715 13:41:40.537353 13391 layer_factory.hpp:77] Creating layer relu3_1-R
I0715 13:41:40.537367 13391 net.cpp:84] Creating Layer relu3_1-R
I0715 13:41:40.537375 13391 net.cpp:406] relu3_1-R <- conv3_1-R
I0715 13:41:40.537387 13391 net.cpp:367] relu3_1-R -> conv3_1-R (in-place)
I0715 13:41:40.537847 13391 net.cpp:122] Setting up relu3_1-R
I0715 13:41:40.537868 13391 net.cpp:129] Top shape: 1 256 178 101 (4602368)
I0715 13:41:40.537875 13391 net.cpp:137] Memory required for data: 1213176076
I0715 13:41:40.537883 13391 layer_factory.hpp:77] Creating layer conv3_2-R
I0715 13:41:40.537900 13391 net.cpp:84] Creating Layer conv3_2-R
I0715 13:41:40.537907 13391 net.cpp:406] conv3_2-R <- conv3_1-R
I0715 13:41:40.537920 13391 net.cpp:380] conv3_2-R -> conv3_2-R
I0715 13:41:40.544317 13391 net.cpp:122] Setting up conv3_2-R
I0715 13:41:40.544334 13391 net.cpp:129] Top shape: 1 256 178 101 (4602368)
I0715 13:41:40.544350 13391 net.cpp:137] Memory required for data: 1231585548
I0715 13:41:40.544360 13391 layer_factory.hpp:77] Creating layer relu3_2-R
I0715 13:41:40.544371 13391 net.cpp:84] Creating Layer relu3_2-R
I0715 13:41:40.544376 13391 net.cpp:406] relu3_2-R <- conv3_2-R
I0715 13:41:40.544384 13391 net.cpp:367] relu3_2-R -> conv3_2-R (in-place)
I0715 13:41:40.544658 13391 net.cpp:122] Setting up relu3_2-R
I0715 13:41:40.544670 13391 net.cpp:129] Top shape: 1 256 178 101 (4602368)
I0715 13:41:40.544674 13391 net.cpp:137] Memory required for data: 1249995020
I0715 13:41:40.544679 13391 layer_factory.hpp:77] Creating layer conv3_3-R
I0715 13:41:40.544690 13391 net.cpp:84] Creating Layer conv3_3-R
I0715 13:41:40.544694 13391 net.cpp:406] conv3_3-R <- conv3_2-R
I0715 13:41:40.544703 13391 net.cpp:380] conv3_3-R -> conv3_3-R
I0715 13:41:40.552810 13391 net.cpp:122] Setting up conv3_3-R
I0715 13:41:40.552845 13391 net.cpp:129] Top shape: 1 256 178 101 (4602368)
I0715 13:41:40.552853 13391 net.cpp:137] Memory required for data: 1268404492
I0715 13:41:40.552870 13391 layer_factory.hpp:77] Creating layer relu3_3-R
I0715 13:41:40.552883 13391 net.cpp:84] Creating Layer relu3_3-R
I0715 13:41:40.552892 13391 net.cpp:406] relu3_3-R <- conv3_3-R
I0715 13:41:40.552904 13391 net.cpp:367] relu3_3-R -> conv3_3-R (in-place)
I0715 13:41:40.553403 13391 net.cpp:122] Setting up relu3_3-R
I0715 13:41:40.553422 13391 net.cpp:129] Top shape: 1 256 178 101 (4602368)
I0715 13:41:40.553429 13391 net.cpp:137] Memory required for data: 1286813964
I0715 13:41:40.553436 13391 layer_factory.hpp:77] Creating layer pool3-R
I0715 13:41:40.553447 13391 net.cpp:84] Creating Layer pool3-R
I0715 13:41:40.553454 13391 net.cpp:406] pool3-R <- conv3_3-R
I0715 13:41:40.553467 13391 net.cpp:380] pool3-R -> pool3-R
I0715 13:41:40.553617 13391 net.cpp:122] Setting up pool3-R
I0715 13:41:40.553630 13391 net.cpp:129] Top shape: 1 256 89 51 (1161984)
I0715 13:41:40.553637 13391 net.cpp:137] Memory required for data: 1291461900
I0715 13:41:40.553644 13391 layer_factory.hpp:77] Creating layer pool3-R_pool3-R_0_split
I0715 13:41:40.553653 13391 net.cpp:84] Creating Layer pool3-R_pool3-R_0_split
I0715 13:41:40.553661 13391 net.cpp:406] pool3-R_pool3-R_0_split <- pool3-R
I0715 13:41:40.553671 13391 net.cpp:380] pool3-R_pool3-R_0_split -> pool3-R_pool3-R_0_split_0
I0715 13:41:40.553684 13391 net.cpp:380] pool3-R_pool3-R_0_split -> pool3-R_pool3-R_0_split_1
I0715 13:41:40.553792 13391 net.cpp:122] Setting up pool3-R_pool3-R_0_split
I0715 13:41:40.553807 13391 net.cpp:129] Top shape: 1 256 89 51 (1161984)
I0715 13:41:40.553814 13391 net.cpp:129] Top shape: 1 256 89 51 (1161984)
I0715 13:41:40.553822 13391 net.cpp:137] Memory required for data: 1300757772
I0715 13:41:40.553828 13391 layer_factory.hpp:77] Creating layer conv4_1-R
I0715 13:41:40.553843 13391 net.cpp:84] Creating Layer conv4_1-R
I0715 13:41:40.553851 13391 net.cpp:406] conv4_1-R <- pool3-R_pool3-R_0_split_0
I0715 13:41:40.553861 13391 net.cpp:380] conv4_1-R -> conv4_1-R
I0715 13:41:40.568873 13391 net.cpp:122] Setting up conv4_1-R
I0715 13:41:40.568895 13391 net.cpp:129] Top shape: 1 512 89 51 (2323968)
I0715 13:41:40.568902 13391 net.cpp:137] Memory required for data: 1310053644
I0715 13:41:40.568912 13391 layer_factory.hpp:77] Creating layer relu4_1-R
I0715 13:41:40.568922 13391 net.cpp:84] Creating Layer relu4_1-R
I0715 13:41:40.568928 13391 net.cpp:406] relu4_1-R <- conv4_1-R
I0715 13:41:40.568935 13391 net.cpp:367] relu4_1-R -> conv4_1-R (in-place)
I0715 13:41:40.569243 13391 net.cpp:122] Setting up relu4_1-R
I0715 13:41:40.569257 13391 net.cpp:129] Top shape: 1 512 89 51 (2323968)
I0715 13:41:40.569262 13391 net.cpp:137] Memory required for data: 1319349516
I0715 13:41:40.569267 13391 layer_factory.hpp:77] Creating layer conv4_2-R
I0715 13:41:40.569278 13391 net.cpp:84] Creating Layer conv4_2-R
I0715 13:41:40.569283 13391 net.cpp:406] conv4_2-R <- conv4_1-R
I0715 13:41:40.569291 13391 net.cpp:380] conv4_2-R -> conv4_2-R
I0715 13:41:40.581578 13391 net.cpp:122] Setting up conv4_2-R
I0715 13:41:40.581604 13391 net.cpp:129] Top shape: 1 512 89 51 (2323968)
I0715 13:41:40.581610 13391 net.cpp:137] Memory required for data: 1328645388
I0715 13:41:40.581621 13391 layer_factory.hpp:77] Creating layer relu4_2-R
I0715 13:41:40.581630 13391 net.cpp:84] Creating Layer relu4_2-R
I0715 13:41:40.581637 13391 net.cpp:406] relu4_2-R <- conv4_2-R
I0715 13:41:40.581645 13391 net.cpp:367] relu4_2-R -> conv4_2-R (in-place)
I0715 13:41:40.583055 13391 net.cpp:122] Setting up relu4_2-R
I0715 13:41:40.583075 13391 net.cpp:129] Top shape: 1 512 89 51 (2323968)
I0715 13:41:40.583079 13391 net.cpp:137] Memory required for data: 1337941260
I0715 13:41:40.583086 13391 layer_factory.hpp:77] Creating layer conv4_3-R
I0715 13:41:40.583098 13391 net.cpp:84] Creating Layer conv4_3-R
I0715 13:41:40.583104 13391 net.cpp:406] conv4_3-R <- conv4_2-R
I0715 13:41:40.583114 13391 net.cpp:380] conv4_3-R -> conv4_3-R
I0715 13:41:40.593576 13391 net.cpp:122] Setting up conv4_3-R
I0715 13:41:40.593600 13391 net.cpp:129] Top shape: 1 512 89 51 (2323968)
I0715 13:41:40.593605 13391 net.cpp:137] Memory required for data: 1347237132
I0715 13:41:40.593614 13391 layer_factory.hpp:77] Creating layer relu4_3-R
I0715 13:41:40.593623 13391 net.cpp:84] Creating Layer relu4_3-R
I0715 13:41:40.593631 13391 net.cpp:406] relu4_3-R <- conv4_3-R
I0715 13:41:40.593637 13391 net.cpp:367] relu4_3-R -> conv4_3-R (in-place)
I0715 13:41:40.596361 13391 net.cpp:122] Setting up relu4_3-R
I0715 13:41:40.596382 13391 net.cpp:129] Top shape: 1 512 89 51 (2323968)
I0715 13:41:40.596387 13391 net.cpp:137] Memory required for data: 1356533004
I0715 13:41:40.596392 13391 layer_factory.hpp:77] Creating layer pool4-R
I0715 13:41:40.596402 13391 net.cpp:84] Creating Layer pool4-R
I0715 13:41:40.596408 13391 net.cpp:406] pool4-R <- conv4_3-R
I0715 13:41:40.596417 13391 net.cpp:380] pool4-R -> pool4-R
I0715 13:41:40.596509 13391 net.cpp:122] Setting up pool4-R
I0715 13:41:40.596525 13391 net.cpp:129] Top shape: 1 512 45 26 (599040)
I0715 13:41:40.596529 13391 net.cpp:137] Memory required for data: 1358929164
I0715 13:41:40.596534 13391 layer_factory.hpp:77] Creating layer pool4-R_pool4-R_0_split
I0715 13:41:40.596542 13391 net.cpp:84] Creating Layer pool4-R_pool4-R_0_split
I0715 13:41:40.596547 13391 net.cpp:406] pool4-R_pool4-R_0_split <- pool4-R
I0715 13:41:40.596554 13391 net.cpp:380] pool4-R_pool4-R_0_split -> pool4-R_pool4-R_0_split_0
I0715 13:41:40.596562 13391 net.cpp:380] pool4-R_pool4-R_0_split -> pool4-R_pool4-R_0_split_1
I0715 13:41:40.596634 13391 net.cpp:122] Setting up pool4-R_pool4-R_0_split
I0715 13:41:40.596643 13391 net.cpp:129] Top shape: 1 512 45 26 (599040)
I0715 13:41:40.596649 13391 net.cpp:129] Top shape: 1 512 45 26 (599040)
I0715 13:41:40.596653 13391 net.cpp:137] Memory required for data: 1363721484
I0715 13:41:40.596657 13391 layer_factory.hpp:77] Creating layer conv5_1-R
I0715 13:41:40.596668 13391 net.cpp:84] Creating Layer conv5_1-R
I0715 13:41:40.596671 13391 net.cpp:406] conv5_1-R <- pool4-R_pool4-R_0_split_0
I0715 13:41:40.596679 13391 net.cpp:380] conv5_1-R -> conv5_1-R
I0715 13:41:40.607066 13391 net.cpp:122] Setting up conv5_1-R
I0715 13:41:40.607090 13391 net.cpp:129] Top shape: 1 512 45 26 (599040)
I0715 13:41:40.607095 13391 net.cpp:137] Memory required for data: 1366117644
I0715 13:41:40.607122 13391 layer_factory.hpp:77] Creating layer relu5_1-R
I0715 13:41:40.607131 13391 net.cpp:84] Creating Layer relu5_1-R
I0715 13:41:40.607137 13391 net.cpp:406] relu5_1-R <- conv5_1-R
I0715 13:41:40.607144 13391 net.cpp:367] relu5_1-R -> conv5_1-R (in-place)
I0715 13:41:40.607447 13391 net.cpp:122] Setting up relu5_1-R
I0715 13:41:40.607462 13391 net.cpp:129] Top shape: 1 512 45 26 (599040)
I0715 13:41:40.607471 13391 net.cpp:137] Memory required for data: 1368513804
I0715 13:41:40.607476 13391 layer_factory.hpp:77] Creating layer conv5_2-R
I0715 13:41:40.607487 13391 net.cpp:84] Creating Layer conv5_2-R
I0715 13:41:40.607492 13391 net.cpp:406] conv5_2-R <- conv5_1-R
I0715 13:41:40.607501 13391 net.cpp:380] conv5_2-R -> conv5_2-R
I0715 13:41:40.616076 13391 net.cpp:122] Setting up conv5_2-R
I0715 13:41:40.616109 13391 net.cpp:129] Top shape: 1 512 45 26 (599040)
I0715 13:41:40.616112 13391 net.cpp:137] Memory required for data: 1370909964
I0715 13:41:40.616120 13391 layer_factory.hpp:77] Creating layer relu5_2-R
I0715 13:41:40.616127 13391 net.cpp:84] Creating Layer relu5_2-R
I0715 13:41:40.616132 13391 net.cpp:406] relu5_2-R <- conv5_2-R
I0715 13:41:40.616137 13391 net.cpp:367] relu5_2-R -> conv5_2-R (in-place)
I0715 13:41:40.616384 13391 net.cpp:122] Setting up relu5_2-R
I0715 13:41:40.616394 13391 net.cpp:129] Top shape: 1 512 45 26 (599040)
I0715 13:41:40.616399 13391 net.cpp:137] Memory required for data: 1373306124
I0715 13:41:40.616402 13391 layer_factory.hpp:77] Creating layer conv5_3-R
I0715 13:41:40.616411 13391 net.cpp:84] Creating Layer conv5_3-R
I0715 13:41:40.616415 13391 net.cpp:406] conv5_3-R <- conv5_2-R
I0715 13:41:40.616421 13391 net.cpp:380] conv5_3-R -> conv5_3-R
I0715 13:41:40.624274 13391 net.cpp:122] Setting up conv5_3-R
I0715 13:41:40.624306 13391 net.cpp:129] Top shape: 1 512 45 26 (599040)
I0715 13:41:40.624310 13391 net.cpp:137] Memory required for data: 1375702284
I0715 13:41:40.624317 13391 layer_factory.hpp:77] Creating layer relu5_3-R
I0715 13:41:40.624323 13391 net.cpp:84] Creating Layer relu5_3-R
I0715 13:41:40.624328 13391 net.cpp:406] relu5_3-R <- conv5_3-R
I0715 13:41:40.624333 13391 net.cpp:367] relu5_3-R -> conv5_3-R (in-place)
I0715 13:41:40.624577 13391 net.cpp:122] Setting up relu5_3-R
I0715 13:41:40.624588 13391 net.cpp:129] Top shape: 1 512 45 26 (599040)
I0715 13:41:40.624590 13391 net.cpp:137] Memory required for data: 1378098444
I0715 13:41:40.624594 13391 layer_factory.hpp:77] Creating layer pool5-R
I0715 13:41:40.624603 13391 net.cpp:84] Creating Layer pool5-R
I0715 13:41:40.624606 13391 net.cpp:406] pool5-R <- conv5_3-R
I0715 13:41:40.624614 13391 net.cpp:380] pool5-R -> pool5-R
I0715 13:41:40.624686 13391 net.cpp:122] Setting up pool5-R
I0715 13:41:40.624693 13391 net.cpp:129] Top shape: 1 512 23 13 (153088)
I0715 13:41:40.624696 13391 net.cpp:137] Memory required for data: 1378710796
I0715 13:41:40.624701 13391 layer_factory.hpp:77] Creating layer fc6-R
I0715 13:41:40.624709 13391 net.cpp:84] Creating Layer fc6-R
I0715 13:41:40.624712 13391 net.cpp:406] fc6-R <- pool5-R
I0715 13:41:40.624719 13391 net.cpp:380] fc6-R -> fc6-R
I0715 13:41:40.887406 13391 net.cpp:122] Setting up fc6-R
I0715 13:41:40.887454 13391 net.cpp:129] Top shape: 1 4096 17 7 (487424)
I0715 13:41:40.887459 13391 net.cpp:137] Memory required for data: 1380660492
I0715 13:41:40.887468 13391 layer_factory.hpp:77] Creating layer relu6-R
I0715 13:41:40.887480 13391 net.cpp:84] Creating Layer relu6-R
I0715 13:41:40.887486 13391 net.cpp:406] relu6-R <- fc6-R
I0715 13:41:40.887493 13391 net.cpp:367] relu6-R -> fc6-R (in-place)
I0715 13:41:40.887745 13391 net.cpp:122] Setting up relu6-R
I0715 13:41:40.887755 13391 net.cpp:129] Top shape: 1 4096 17 7 (487424)
I0715 13:41:40.887759 13391 net.cpp:137] Memory required for data: 1382610188
I0715 13:41:40.887763 13391 layer_factory.hpp:77] Creating layer drop6-R
I0715 13:41:40.887770 13391 net.cpp:84] Creating Layer drop6-R
I0715 13:41:40.887774 13391 net.cpp:406] drop6-R <- fc6-R
I0715 13:41:40.887780 13391 net.cpp:367] drop6-R -> fc6-R (in-place)
I0715 13:41:40.887826 13391 net.cpp:122] Setting up drop6-R
I0715 13:41:40.887846 13391 net.cpp:129] Top shape: 1 4096 17 7 (487424)
I0715 13:41:40.887850 13391 net.cpp:137] Memory required for data: 1384559884
I0715 13:41:40.887853 13391 layer_factory.hpp:77] Creating layer fc7-R
I0715 13:41:40.887863 13391 net.cpp:84] Creating Layer fc7-R
I0715 13:41:40.887866 13391 net.cpp:406] fc7-R <- fc6-R
I0715 13:41:40.887874 13391 net.cpp:380] fc7-R -> fc7-R
I0715 13:41:40.938702 13391 net.cpp:122] Setting up fc7-R
I0715 13:41:40.938753 13391 net.cpp:129] Top shape: 1 4096 17 7 (487424)
I0715 13:41:40.938758 13391 net.cpp:137] Memory required for data: 1386509580
I0715 13:41:40.938769 13391 layer_factory.hpp:77] Creating layer relu7-R
I0715 13:41:40.938781 13391 net.cpp:84] Creating Layer relu7-R
I0715 13:41:40.938787 13391 net.cpp:406] relu7-R <- fc7-R
I0715 13:41:40.938794 13391 net.cpp:367] relu7-R -> fc7-R (in-place)
I0715 13:41:40.939057 13391 net.cpp:122] Setting up relu7-R
I0715 13:41:40.939069 13391 net.cpp:129] Top shape: 1 4096 17 7 (487424)
I0715 13:41:40.939072 13391 net.cpp:137] Memory required for data: 1388459276
I0715 13:41:40.939076 13391 layer_factory.hpp:77] Creating layer drop7-R
I0715 13:41:40.939085 13391 net.cpp:84] Creating Layer drop7-R
I0715 13:41:40.939088 13391 net.cpp:406] drop7-R <- fc7-R
I0715 13:41:40.939093 13391 net.cpp:367] drop7-R -> fc7-R (in-place)
I0715 13:41:40.939142 13391 net.cpp:122] Setting up drop7-R
I0715 13:41:40.939154 13391 net.cpp:129] Top shape: 1 4096 17 7 (487424)
I0715 13:41:40.939158 13391 net.cpp:137] Memory required for data: 1390408972
I0715 13:41:40.939162 13391 layer_factory.hpp:77] Creating layer score_fr-new-R
I0715 13:41:40.939172 13391 net.cpp:84] Creating Layer score_fr-new-R
I0715 13:41:40.939174 13391 net.cpp:406] score_fr-new-R <- fc7-R
I0715 13:41:40.939182 13391 net.cpp:380] score_fr-new-R -> score_fr-new-R
I0715 13:41:40.942853 13391 net.cpp:122] Setting up score_fr-new-R
I0715 13:41:40.942908 13391 net.cpp:129] Top shape: 1 3 17 7 (357)
I0715 13:41:40.942914 13391 net.cpp:137] Memory required for data: 1390410400
I0715 13:41:40.942926 13391 layer_factory.hpp:77] Creating layer upscore2-new-R
I0715 13:41:40.942946 13391 net.cpp:84] Creating Layer upscore2-new-R
I0715 13:41:40.942953 13391 net.cpp:406] upscore2-new-R <- score_fr-new-R
I0715 13:41:40.942965 13391 net.cpp:380] upscore2-new-R -> upscore2-new-R
I0715 13:41:40.943475 13391 net.cpp:122] Setting up upscore2-new-R
I0715 13:41:40.943486 13391 net.cpp:129] Top shape: 1 3 36 16 (1728)
I0715 13:41:40.943503 13391 net.cpp:137] Memory required for data: 1390417312
I0715 13:41:40.943511 13391 layer_factory.hpp:77] Creating layer upscore2-new-R_upscore2-new-R_0_split
I0715 13:41:40.943521 13391 net.cpp:84] Creating Layer upscore2-new-R_upscore2-new-R_0_split
I0715 13:41:40.943526 13391 net.cpp:406] upscore2-new-R_upscore2-new-R_0_split <- upscore2-new-R
I0715 13:41:40.943532 13391 net.cpp:380] upscore2-new-R_upscore2-new-R_0_split -> upscore2-new-R_upscore2-new-R_0_split_0
I0715 13:41:40.943542 13391 net.cpp:380] upscore2-new-R_upscore2-new-R_0_split -> upscore2-new-R_upscore2-new-R_0_split_1
I0715 13:41:40.943625 13391 net.cpp:122] Setting up upscore2-new-R_upscore2-new-R_0_split
I0715 13:41:40.943635 13391 net.cpp:129] Top shape: 1 3 36 16 (1728)
I0715 13:41:40.943640 13391 net.cpp:129] Top shape: 1 3 36 16 (1728)
I0715 13:41:40.943645 13391 net.cpp:137] Memory required for data: 1390431136
I0715 13:41:40.943648 13391 layer_factory.hpp:77] Creating layer score_pool4-new-R
I0715 13:41:40.943660 13391 net.cpp:84] Creating Layer score_pool4-new-R
I0715 13:41:40.943670 13391 net.cpp:406] score_pool4-new-R <- pool4-R_pool4-R_0_split_1
I0715 13:41:40.943680 13391 net.cpp:380] score_pool4-new-R -> score_pool4-new-R
I0715 13:41:40.947713 13391 net.cpp:122] Setting up score_pool4-new-R
I0715 13:41:40.947731 13391 net.cpp:129] Top shape: 1 3 45 26 (3510)
I0715 13:41:40.947747 13391 net.cpp:137] Memory required for data: 1390445176
I0715 13:41:40.947755 13391 layer_factory.hpp:77] Creating layer score_pool4c-R
I0715 13:41:40.947765 13391 net.cpp:84] Creating Layer score_pool4c-R
I0715 13:41:40.947770 13391 net.cpp:406] score_pool4c-R <- score_pool4-new-R
I0715 13:41:40.947777 13391 net.cpp:406] score_pool4c-R <- upscore2-new-R_upscore2-new-R_0_split_0
I0715 13:41:40.947784 13391 net.cpp:380] score_pool4c-R -> score_pool4c-R
I0715 13:41:40.947839 13391 net.cpp:122] Setting up score_pool4c-R
I0715 13:41:40.947847 13391 net.cpp:129] Top shape: 1 3 36 16 (1728)
I0715 13:41:40.947851 13391 net.cpp:137] Memory required for data: 1390452088
I0715 13:41:40.947855 13391 layer_factory.hpp:77] Creating layer fuse_pool4-R
I0715 13:41:40.947866 13391 net.cpp:84] Creating Layer fuse_pool4-R
I0715 13:41:40.947876 13391 net.cpp:406] fuse_pool4-R <- upscore2-new-R_upscore2-new-R_0_split_1
I0715 13:41:40.947882 13391 net.cpp:406] fuse_pool4-R <- score_pool4c-R
I0715 13:41:40.947890 13391 net.cpp:380] fuse_pool4-R -> fuse_pool4-R
I0715 13:41:40.947935 13391 net.cpp:122] Setting up fuse_pool4-R
I0715 13:41:40.947943 13391 net.cpp:129] Top shape: 1 3 36 16 (1728)
I0715 13:41:40.947947 13391 net.cpp:137] Memory required for data: 1390459000
I0715 13:41:40.947952 13391 layer_factory.hpp:77] Creating layer upscore_pool4-new-R
I0715 13:41:40.947960 13391 net.cpp:84] Creating Layer upscore_pool4-new-R
I0715 13:41:40.947965 13391 net.cpp:406] upscore_pool4-new-R <- fuse_pool4-R
I0715 13:41:40.947983 13391 net.cpp:380] upscore_pool4-new-R -> upscore_pool4-new-R
I0715 13:41:40.948413 13391 net.cpp:122] Setting up upscore_pool4-new-R
I0715 13:41:40.948424 13391 net.cpp:129] Top shape: 1 3 74 34 (7548)
I0715 13:41:40.948428 13391 net.cpp:137] Memory required for data: 1390489192
I0715 13:41:40.948434 13391 layer_factory.hpp:77] Creating layer upscore_pool4-new-R_upscore_pool4-new-R_0_split
I0715 13:41:40.948442 13391 net.cpp:84] Creating Layer upscore_pool4-new-R_upscore_pool4-new-R_0_split
I0715 13:41:40.948447 13391 net.cpp:406] upscore_pool4-new-R_upscore_pool4-new-R_0_split <- upscore_pool4-new-R
I0715 13:41:40.948453 13391 net.cpp:380] upscore_pool4-new-R_upscore_pool4-new-R_0_split -> upscore_pool4-new-R_upscore_pool4-new-R_0_split_0
I0715 13:41:40.948462 13391 net.cpp:380] upscore_pool4-new-R_upscore_pool4-new-R_0_split -> upscore_pool4-new-R_upscore_pool4-new-R_0_split_1
I0715 13:41:40.948534 13391 net.cpp:122] Setting up upscore_pool4-new-R_upscore_pool4-new-R_0_split
I0715 13:41:40.948544 13391 net.cpp:129] Top shape: 1 3 74 34 (7548)
I0715 13:41:40.948549 13391 net.cpp:129] Top shape: 1 3 74 34 (7548)
I0715 13:41:40.948552 13391 net.cpp:137] Memory required for data: 1390549576
I0715 13:41:40.948556 13391 layer_factory.hpp:77] Creating layer score_pool3-new-R
I0715 13:41:40.948567 13391 net.cpp:84] Creating Layer score_pool3-new-R
I0715 13:41:40.948573 13391 net.cpp:406] score_pool3-new-R <- pool3-R_pool3-R_0_split_1
I0715 13:41:40.948581 13391 net.cpp:380] score_pool3-new-R -> score_pool3-new-R
I0715 13:41:40.950980 13391 net.cpp:122] Setting up score_pool3-new-R
I0715 13:41:40.950999 13391 net.cpp:129] Top shape: 1 3 89 51 (13617)
I0715 13:41:40.951004 13391 net.cpp:137] Memory required for data: 1390604044
I0715 13:41:40.951011 13391 layer_factory.hpp:77] Creating layer score_pool3c-R
I0715 13:41:40.951020 13391 net.cpp:84] Creating Layer score_pool3c-R
I0715 13:41:40.951030 13391 net.cpp:406] score_pool3c-R <- score_pool3-new-R
I0715 13:41:40.951036 13391 net.cpp:406] score_pool3c-R <- upscore_pool4-new-R_upscore_pool4-new-R_0_split_0
I0715 13:41:40.951043 13391 net.cpp:380] score_pool3c-R -> score_pool3c-R
I0715 13:41:40.951095 13391 net.cpp:122] Setting up score_pool3c-R
I0715 13:41:40.951105 13391 net.cpp:129] Top shape: 1 3 74 34 (7548)
I0715 13:41:40.951109 13391 net.cpp:137] Memory required for data: 1390634236
I0715 13:41:40.951113 13391 layer_factory.hpp:77] Creating layer fuse_pool3-R
I0715 13:41:40.951122 13391 net.cpp:84] Creating Layer fuse_pool3-R
I0715 13:41:40.951126 13391 net.cpp:406] fuse_pool3-R <- upscore_pool4-new-R_upscore_pool4-new-R_0_split_1
I0715 13:41:40.951133 13391 net.cpp:406] fuse_pool3-R <- score_pool3c-R
I0715 13:41:40.951139 13391 net.cpp:380] fuse_pool3-R -> fuse_pool3-R
I0715 13:41:40.951184 13391 net.cpp:122] Setting up fuse_pool3-R
I0715 13:41:40.951194 13391 net.cpp:129] Top shape: 1 3 74 34 (7548)
I0715 13:41:40.951196 13391 net.cpp:137] Memory required for data: 1390664428
I0715 13:41:40.951200 13391 layer_factory.hpp:77] Creating layer upscore8-new-R
I0715 13:41:40.951210 13391 net.cpp:84] Creating Layer upscore8-new-R
I0715 13:41:40.951215 13391 net.cpp:406] upscore8-new-R <- fuse_pool3-R
I0715 13:41:40.951226 13391 net.cpp:380] upscore8-new-R -> upscore8-new-R
I0715 13:41:40.951680 13391 net.cpp:122] Setting up upscore8-new-R
I0715 13:41:40.951692 13391 net.cpp:129] Top shape: 1 3 600 280 (504000)
I0715 13:41:40.951696 13391 net.cpp:137] Memory required for data: 1392680428
I0715 13:41:40.951702 13391 layer_factory.hpp:77] Creating layer upscore8_cropped-R
I0715 13:41:40.951710 13391 net.cpp:84] Creating Layer upscore8_cropped-R
I0715 13:41:40.951714 13391 net.cpp:406] upscore8_cropped-R <- upscore8-new-R
I0715 13:41:40.951722 13391 net.cpp:406] upscore8_cropped-R <- data-R_crop_0_split_1
I0715 13:41:40.951730 13391 net.cpp:380] upscore8_cropped-R -> upscore8_cropped-R
I0715 13:41:40.951773 13391 net.cpp:122] Setting up upscore8_cropped-R
I0715 13:41:40.951782 13391 net.cpp:129] Top shape: 1 3 512 205 (314880)
I0715 13:41:40.951786 13391 net.cpp:137] Memory required for data: 1393939948
I0715 13:41:40.951791 13391 layer_factory.hpp:77] Creating layer upscore8_uncropped-R
I0715 13:41:40.951920 13391 net.cpp:84] Creating Layer upscore8_uncropped-R
I0715 13:41:40.951951 13391 net.cpp:406] upscore8_uncropped-R <- crop_info
I0715 13:41:40.951969 13391 net.cpp:406] upscore8_uncropped-R <- upscore8_cropped-R
I0715 13:41:40.951978 13391 net.cpp:406] upscore8_uncropped-R <- data_data_0_split_3
I0715 13:41:40.951992 13391 net.cpp:380] upscore8_uncropped-R -> upscore8_uncropped-R
I0715 13:41:40.956555 13391 net.cpp:122] Setting up upscore8_uncropped-R
I0715 13:41:40.956588 13391 net.cpp:129] Top shape: 1 3 512 205 (314880)
I0715 13:41:40.956596 13391 net.cpp:137] Memory required for data: 1395199468
I0715 13:41:40.956604 13391 layer_factory.hpp:77] Creating layer loss1
I0715 13:41:40.956620 13391 net.cpp:84] Creating Layer loss1
I0715 13:41:40.956629 13391 net.cpp:406] loss1 <- upscore8_cropped_upscore8_cropped_0_split_1
I0715 13:41:40.956640 13391 net.cpp:406] loss1 <- label_data_1_split_1
I0715 13:41:40.956656 13391 net.cpp:380] loss1 -> loss1
…
