…
snapshot_prefix: "/media/Med_2T2/data2/models/snapshots/indiv:1e-5x10,20/FD3:XI3_1_20180418_201524/train"
test_initialization: false
average_loss: 20
stepvalue: 40000
iter_size: 1
I0418 20:15:25.905896 17316 solver.cpp:77] Creating training net from train_net file: /media/Med_2T2/data2/prototxts/training_S3x10.prototxt
I0418 20:15:25.907963 17316 net.cpp:51] Initializing net from parameters: 
state {
  phase: TRAIN
}
layer {
  name: "data"
  type: "Python"
  top: "data"
  top: "label"
  top: "crop_margin"
  top: "crop_prob"
  top: "crop_sample_batch"
  python_param {
    module: "Data"
    layer: "DataLayer"
  }
}
layer {
  name: "conv1_1"
  type: "Convolution"
  bottom: "data"
  top: "conv1_1"
  param {
    lr_mult: 1
    decay_mult: 1
  }
  param {
    lr_mult: 2
    decay_mult: 0
  }
  convolution_param {
    num_output: 64
    pad: 100
    kernel_size: 3
    stride: 1
  }
}
layer {
  name: "relu1_1"
  type: "ReLU"
  bottom: "conv1_1"
  top: "conv1_1"
}
layer {
  name: "conv1_2"
  type: "Convolution"
  bottom: "conv1_1"
  top: "conv1_2"
  param {
    lr_mult: 1
    decay_mult: 1
  }
  param {
    lr_mult: 2
    decay_mult: 0
  }
  convolution_param {
    num_output: 64
    pad: 1
    kernel_size: 3
    stride: 1
  }
}
layer {
  name: "relu1_2"
  type: "ReLU"
  bottom: "conv1_2"
  top: "conv1_2"
}
layer {
  name: "pool1"
  type: "Pooling"
  bottom: "conv1_2"
  top: "pool1"
  pooling_param {
    pool: MAX
    kernel_size: 2
    stride: 2
  }
}
layer {
  name: "conv2_1"
  type: "Convolution"
  bottom: "pool1"
  top: "conv2_1"
  param {
    lr_mult: 1
    decay_mult: 1
  }
  param {
    lr_mult: 2
    decay_mult: 0
  }
  convolution_param {
    num_output: 128
    pad: 1
    kernel_size: 3
    stride: 1
  }
}
layer {
  name: "relu2_1"
  type: "ReLU"
  bottom: "conv2_1"
  top: "conv2_1"
}
layer {
  name: "conv2_2"
  type: "Convolution"
  bottom: "conv2_1"
  top: "conv2_2"
  param {
    lr_mult: 1
    decay_mult: 1
  }
  param {
    lr_mult: 2
    decay_mult: 0
  }
  convolution_param {
    num_output: 128
    pad: 1
    kernel_size: 3
    stride: 1
  }
}
layer {
  name: "relu2_2"
  type: "ReLU"
  bottom: "conv2_2"
  top: "conv2_2"
}
layer {
  name: "pool2"
  type: "Pooling"
  bottom: "conv2_2"
  top: "pool2"
  pooling_param {
    pool: MAX
    kernel_size: 2
    stride: 2
  }
}
layer {
  name: "conv3_1"
  type: "Convolution"
  bottom: "pool2"
  top: "conv3_1"
  param {
    lr_mult: 1
    decay_mult: 1
  }
  param {
    lr_mult: 2
    decay_mult: 0
  }
  convolution_param {
    num_output: 256
    pad: 1
    kernel_size: 3
    stride: 1
  }
}
layer {
  name: "relu3_1"
  type: "ReLU"
  bottom: "conv3_1"
  top: "conv3_1"
}
layer {
  name: "conv3_2"
  type: "Convolution"
  bottom: "conv3_1"
  top: "conv3_2"
  param {
    lr_mult: 1
    decay_mult: 1
  }
  param {
    lr_mult: 2
    decay_mult: 0
  }
  convolution_param {
    num_output: 256
    pad: 1
    kernel_size: 3
    stride: 1
  }
}
layer {
  name: "relu3_2"
  type: "ReLU"
  bottom: "conv3_2"
  top: "conv3_2"
}
layer {
  name: "conv3_3"
  type: "Convolution"
  bottom: "conv3_2"
  top: "conv3_3"
  param {
    lr_mult: 1
    decay_mult: 1
  }
  param {
    lr_mult: 2
    decay_mult: 0
  }
  convolution_param {
    num_output: 256
    pad: 1
    kernel_size: 3
    stride: 1
  }
}
layer {
  name: "relu3_3"
  type: "ReLU"
  bottom: "conv3_3"
  top: "conv3_3"
}
layer {
  name: "pool3"
  type: "Pooling"
  bottom: "conv3_3"
  top: "pool3"
  pooling_param {
    pool: MAX
    kernel_size: 2
    stride: 2
  }
}
layer {
  name: "conv4_1"
  type: "Convolution"
  bottom: "pool3"
  top: "conv4_1"
  param {
    lr_mult: 1
    decay_mult: 1
  }
  param {
    lr_mult: 2
    decay_mult: 0
  }
  convolution_param {
    num_output: 512
    pad: 1
    kernel_size: 3
    stride: 1
  }
}
layer {
  name: "relu4_1"
  type: "ReLU"
  bottom: "conv4_1"
  top: "conv4_1"
}
layer {
  name: "conv4_2"
  type: "Convolution"
  bottom: "conv4_1"
  top: "conv4_2"
  param {
    lr_mult: 1
    decay_mult: 1
  }
  param {
    lr_mult: 2
    decay_mult: 0
  }
  convolution_param {
    num_output: 512
    pad: 1
    kernel_size: 3
    stride: 1
  }
}
layer {
  name: "relu4_2"
  type: "ReLU"
  bottom: "conv4_2"
  top: "conv4_2"
}
layer {
  name: "conv4_3"
  type: "Convolution"
  bottom: "conv4_2"
  top: "conv4_3"
  param {
    lr_mult: 1
    decay_mult: 1
  }
  param {
    lr_mult: 2
    decay_mult: 0
  }
  convolution_param {
    num_output: 512
    pad: 1
    kernel_size: 3
    stride: 1
  }
}
layer {
  name: "relu4_3"
  type: "ReLU"
  bottom: "conv4_3"
  top: "conv4_3"
}
layer {
  name: "pool4"
  type: "Pooling"
  bottom: "conv4_3"
  top: "pool4"
  pooling_param {
    pool: MAX
    kernel_size: 2
    stride: 2
  }
}
layer {
  name: "conv5_1"
  type: "Convolution"
  bottom: "pool4"
  top: "conv5_1"
  param {
    lr_mult: 1
    decay_mult: 1
  }
  param {
    lr_mult: 2
    decay_mult: 0
  }
  convolution_param {
    num_output: 512
    pad: 1
    kernel_size: 3
    stride: 1
  }
}
layer {
  name: "relu5_1"
  type: "ReLU"
  bottom: "conv5_1"
  top: "conv5_1"
}
layer {
  name: "conv5_2"
  type: "Convolution"
  bottom: "conv5_1"
  top: "conv5_2"
  param {
    lr_mult: 1
    decay_mult: 1
  }
  param {
    lr_mult: 2
    decay_mult: 0
  }
  convolution_param {
    num_output: 512
    pad: 1
    kernel_size: 3
    stride: 1
  }
}
layer {
  name: "relu5_2"
  type: "ReLU"
  bottom: "conv5_2"
  top: "conv5_2"
}
layer {
  name: "conv5_3"
  type: "Convolution"
  bottom: "conv5_2"
  top: "conv5_3"
  param {
    lr_mult: 1
    decay_mult: 1
  }
  param {
    lr_mult: 2
    decay_mult: 0
  }
  convolution_param {
    num_output: 512
    pad: 1
    kernel_size: 3
    stride: 1
  }
}
layer {
  name: "relu5_3"
  type: "ReLU"
  bottom: "conv5_3"
  top: "conv5_3"
}
layer {
  name: "pool5"
  type: "Pooling"
  bottom: "conv5_3"
  top: "pool5"
  pooling_param {
    pool: MAX
    kernel_size: 2
    stride: 2
  }
}
layer {
  name: "fc6"
  type: "Convolution"
  bottom: "pool5"
  top: "fc6"
  param {
    lr_mult: 1
    decay_mult: 1
  }
  param {
    lr_mult: 2
    decay_mult: 0
  }
  convolution_param {
    num_output: 4096
    pad: 0
    kernel_size: 7
    stride: 1
  }
}
layer {
  name: "relu6"
  type: "ReLU"
  bottom: "fc6"
  top: "fc6"
}
layer {
  name: "drop6"
  type: "Dropout"
  bottom: "fc6"
  top: "fc6"
  dropout_param {
    dropout_ratio: 0.5
  }
}
layer {
  name: "fc7"
  type: "Convolution"
  bottom: "fc6"
  top: "fc7"
  param {
    lr_mult: 1
    decay_mult: 1
  }
  param {
    lr_mult: 2
    decay_mult: 0
  }
  convolution_param {
    num_output: 4096
    pad: 0
    kernel_size: 1
    stride: 1
  }
}
layer {
  name: "relu7"
  type: "ReLU"
  bottom: "fc7"
  top: "fc7"
}
layer {
  name: "drop7"
  type: "Dropout"
  bottom: "fc7"
  top: "fc7"
  dropout_param {
    dropout_ratio: 0.5
  }
}
layer {
  name: "score_fr-new"
  type: "Convolution"
  bottom: "fc7"
  top: "score_fr-new"
  param {
    lr_mult: 1
    decay_mult: 1
  }
  param {
    lr_mult: 2
    decay_mult: 0
  }
  convolution_param {
    num_output: 3
    kernel_size: 1
  }
}
layer {
  name: "upscore2-new"
  type: "Deconvolution"
  bottom: "score_fr-new"
  top: "upscore2-new"
  param {
    lr_mult: 0
  }
  convolution_param {
    num_output: 3
    bias_term: false
    kernel_size: 4
    stride: 2
  }
}
layer {
  name: "score_pool4-new"
  type: "Convolution"
  bottom: "pool4"
  top: "score_pool4-new"
  param {
    lr_mult: 1
    decay_mult: 1
  }
  param {
    lr_mult: 2
    decay_mult: 0
  }
  convolution_param {
    num_output: 3
    pad: 0
    kernel_size: 1
  }
}
layer {
  name: "score_pool4c"
  type: "Crop"
  bottom: "score_pool4-new"
  bottom: "upscore2-new"
  top: "score_pool4c"
  crop_param {
    axis: 2
    offset: 5
  }
}
layer {
  name: "fuse_pool4"
  type: "Eltwise"
  bottom: "upscore2-new"
  bottom: "score_pool4c"
  top: "fuse_pool4"
  eltwise_param {
    operation: SUM
  }
}
layer {
  name: "upscore_pool4-new"
  type: "Deconvolution"
  bottom: "fuse_pool4"
  top: "upscore_pool4-new"
  param {
    lr_mult: 0
  }
  convolution_param {
    num_output: 3
    bias_term: false
    kernel_size: 4
    stride: 2
  }
}
layer {
  name: "score_pool3-new"
  type: "Convolution"
  bottom: "pool3"
  top: "score_pool3-new"
  param {
    lr_mult: 1
    decay_mult: 1
  }
  param {
    lr_mult: 2
    decay_mult: 0
  }
  convolution_param {
    num_output: 3
    pad: 0
    kernel_size: 1
  }
}
layer {
  name: "score_pool3c"
  type: "Crop"
  bottom: "score_pool3-new"
  bottom: "upscore_pool4-new"
  top: "score_pool3c"
  crop_param {
    axis: 2
    offset: 9
  }
}
layer {
  name: "fuse_pool3"
  type: "Eltwise"
  bottom: "upscore_pool4-new"
  bottom: "score_pool3c"
  top: "fuse_pool3"
  eltwise_param {
    operation: SUM
  }
}
layer {
  name: "upscore8-new"
  type: "Deconvolution"
  bottom: "fuse_pool3"
  top: "upscore8-new"
  param {
    lr_mult: 0
  }
  convolution_param {
    num_output: 3
    bias_term: false
    kernel_size: 16
    stride: 8
  }
}
layer {
  name: "upscore8_cropped"
  type: "Crop"
  bottom: "upscore8-new"
  bottom: "data"
  top: "upscore8_cropped"
  crop_param {
    axis: 2
    offset: 31
  }
}
layer {
  name: "score"
  type: "Convolution"
  bottom: "upscore8_cropped"
  top: "score"
  param {
    lr_mult: 1
    decay_mult: 1
  }
  param {
    lr_mult: 2
    decay_mult: 0
  }
  convolution_param {
    num_output: 3
    pad: 1
    kernel_size: 3
    stride: 1
    weight_filler {
      type: "xavier"
    }
    bias_filler {
      type: "constant"
      value: 0
    }
  }
}
layer {
  name: "prob"
  type: "Sigmoid"
  bottom: "score"
  top: "prob"
}
layer {
  name: "saliency"
  type: "Convolution"
  bottom: "prob"
  top: "saliency"
  param {
    lr_mult: 10
    decay_mult: 1
  }
  param {
    lr_mult: 20
    decay_mult: 0
  }
  convolution_param {
    num_output: 3
    pad: 2
    kernel_size: 5
    stride: 1
    weight_filler {
      type: "xavier"
    }
    bias_filler {
      type: "constant"
      value: 1
    }
  }
}
layer {
  name: "silence_saliency"
  type: "Silence"
  bottom: "saliency"
}
layer {
  name: "crop"
  type: "Python"
  bottom: "label"
  bottom: "data"
  bottom: "crop_margin"
  bottom: "crop_prob"
  bottom: "crop_sample_batch"
  top: "data-R"
  top: "crop_info"
  python_param {
    module: "Crop"
    layer: "CropLayer"
    param_str: "{\"TEST\": 0}"
  }
}
layer {
  name: "conv1_1-R"
  type: "Convolution"
  bottom: "data-R"
  top: "conv1_1-R"
  param {
    lr_mult: 10
    decay_mult: 1
  }
  param {
    lr_mult: 20
    decay_mult: 0
  }
  convolution_param {
    num_output: 64
    pad: 100
    kernel_size: 3
    stride: 1
  }
}
layer {
  name: "relu1_1-R"
  type: "ReLU"
  bottom: "conv1_1-R"
  top: "conv1_1-R"
}
layer {
  name: "conv1_2-R"
  type: "Convolution"
  bottom: "conv1_1-R"
  top: "conv1_2-R"
  param {
    lr_mult: 10
    decay_mult: 1
  }
  param {
    lr_mult: 20
    decay_mult: 0
  }
  convolution_param {
    num_output: 64
    pad: 1
    kernel_size: 3
    stride: 1
  }
}
layer {
  name: "relu1_2-R"
  type: "ReLU"
  bottom: "conv1_2-R"
  top: "conv1_2-R"
}
layer {
  name: "pool1-R"
  type: "Pooling"
  bottom: "conv1_2-R"
  top: "pool1-R"
  pooling_param {
    pool: MAX
    kernel_size: 2
    stride: 2
  }
}
layer {
  name: "conv2_1-R"
  type: "Convolution"
  bottom: "pool1-R"
  top: "conv2_1-R"
  param {
    lr_mult: 10
    decay_mult: 1
  }
  param {
    lr_mult: 20
    decay_mult: 0
  }
  convolution_param {
    num_output: 128
    pad: 1
    kernel_size: 3
    stride: 1
  }
}
layer {
  name: "relu2_1-R"
  type: "ReLU"
  bottom: "conv2_1-R"
  top: "conv2_1-R"
}
layer {
  name: "conv2_2-R"
  type: "Convolution"
  bottom: "conv2_1-R"
  top: "conv2_2-R"
  param {
    lr_mult: 10
    decay_mult: 1
  }
  param {
    lr_mult: 20
    decay_mult: 0
  }
  convolution_param {
    num_output: 128
    pad: 1
    kernel_size: 3
    stride: 1
  }
}
layer {
  name: "relu2_2-R"
  type: "ReLU"
  bottom: "conv2_2-R"
  top: "conv2_2-R"
}
layer {
  name: "pool2-R"
  type: "Pooling"
  bottom: "conv2_2-R"
  top: "pool2-R"
  pooling_param {
    pool: MAX
    kernel_size: 2
    stride: 2
  }
}
layer {
  name: "conv3_1-R"
  type: "Convolution"
  bottom: "pool2-R"
  top: "conv3_1-R"
  param {
    lr_mult: 10
    decay_mult: 1
  }
  param {
    lr_mult: 20
    decay_mult: 0
  }
  convolution_param {
    num_output: 256
    pad: 1
    kernel_size: 3
    stride: 1
  }
}
layer {
  name: "relu3_1-R"
  type: "ReLU"
  bottom: "conv3_1-R"
  top: "conv3_1-R"
}
layer {
  name: "conv3_2-R"
  type: "Convolution"
  bottom: "conv3_1-R"
  top: "conv3_2-R"
  param {
    lr_mult: 10
    decay_mult: 1
  }
  param {
    lr_mult: 20
    decay_mult: 0
  }
  convolution_param {
    num_output: 256
    pad: 1
    kernel_size: 3
    stride: 1
  }
}
layer {
  name: "relu3_2-R"
  type: "ReLU"
  bottom: "conv3_2-R"
  top: "conv3_2-R"
}
layer {
  name: "conv3_3-R"
  type: "Convolution"
  bottom: "conv3_2-R"
  top: "conv3_3-R"
  param {
    lr_mult: 10
    decay_mult: 1
  }
  param {
    lr_mult: 20
    decay_mult: 0
  }
  convolution_param {
    num_output: 256
    pad: 1
    kernel_size: 3
    stride: 1
  }
}
layer {
  name: "relu3_3-R"
  type: "ReLU"
  bottom: "conv3_3-R"
  top: "conv3_3-R"
}
layer {
  name: "pool3-R"
  type: "Pooling"
  bottom: "conv3_3-R"
  top: "pool3-R"
  pooling_param {
    pool: MAX
    kernel_size: 2
    stride: 2
  }
}
layer {
  name: "conv4_1-R"
  type: "Convolution"
  bottom: "pool3-R"
  top: "conv4_1-R"
  param {
    lr_mult: 10
    decay_mult: 1
  }
  param {
    lr_mult: 20
    decay_mult: 0
  }
  convolution_param {
    num_output: 512
    pad: 1
    kernel_size: 3
    stride: 1
  }
}
layer {
  name: "relu4_1-R"
  type: "ReLU"
  bottom: "conv4_1-R"
  top: "conv4_1-R"
}
layer {
  name: "conv4_2-R"
  type: "Convolution"
  bottom: "conv4_1-R"
  top: "conv4_2-R"
  param {
    lr_mult: 10
    decay_mult: 1
  }
  param {
    lr_mult: 20
    decay_mult: 0
  }
  convolution_param {
    num_output: 512
    pad: 1
    kernel_size: 3
    stride: 1
  }
}
layer {
  name: "relu4_2-R"
  type: "ReLU"
  bottom: "conv4_2-R"
  top: "conv4_2-R"
}
layer {
  name: "conv4_3-R"
  type: "Convolution"
  bottom: "conv4_2-R"
  top: "conv4_3-R"
  param {
    lr_mult: 10
    decay_mult: 1
  }
  param {
    lr_mult: 20
    decay_mult: 0
  }
  convolution_param {
    num_output: 512
    pad: 1
    kernel_size: 3
    stride: 1
  }
}
layer {
  name: "relu4_3-R"
  type: "ReLU"
  bottom: "conv4_3-R"
  top: "conv4_3-R"
}
layer {
  name: "pool4-R"
  type: "Pooling"
  bottom: "conv4_3-R"
  top: "pool4-R"
  pooling_param {
    pool: MAX
    kernel_size: 2
    stride: 2
  }
}
layer {
  name: "conv5_1-R"
  type: "Convolution"
  bottom: "pool4-R"
  top: "conv5_1-R"
  param {
    lr_mult: 10
    decay_mult: 1
  }
  param {
    lr_mult: 20
    decay_mult: 0
  }
  convolution_param {
    num_output: 512
    pad: 1
    kernel_size: 3
    stride: 1
  }
}
layer {
  name: "relu5_1-R"
  type: "ReLU"
  bottom: "conv5_1-R"
  top: "conv5_1-R"
}
layer {
  name: "conv5_2-R"
  type: "Convolution"
  bottom: "conv5_1-R"
  top: "conv5_2-R"
  param {
    lr_mult: 10
    decay_mult: 1
  }
  param {
    lr_mult: 20
    decay_mult: 0
  }
  convolution_param {
    num_output: 512
    pad: 1
    kernel_size: 3
    stride: 1
  }
}
layer {
  name: "relu5_2-R"
  type: "ReLU"
  bottom: "conv5_2-R"
  top: "conv5_2-R"
}
layer {
  name: "conv5_3-R"
  type: "Convolution"
  bottom: "conv5_2-R"
  top: "conv5_3-R"
  param {
    lr_mult: 10
    decay_mult: 1
  }
  param {
    lr_mult: 20
    decay_mult: 0
  }
  convolution_param {
    num_output: 512
    pad: 1
    kernel_size: 3
    stride: 1
  }
}
layer {
  name: "relu5_3-R"
  type: "ReLU"
  bottom: "conv5_3-R"
  top: "conv5_3-R"
}
layer {
  name: "pool5-R"
  type: "Pooling"
  bottom: "conv5_3-R"
  top: "pool5-R"
  pooling_param {
    pool: MAX
    kernel_size: 2
    stride: 2
  }
}
layer {
  name: "fc6-R"
  type: "Convolution"
  bottom: "pool5-R"
  top: "fc6-R"
  param {
    lr_mult: 10
    decay_mult: 1
  }
  param {
    lr_mult: 20
    decay_mult: 0
  }
  convolution_param {
    num_output: 4096
    pad: 0
    kernel_size: 7
    stride: 1
  }
}
layer {
  name: "relu6-R"
  type: "ReLU"
  bottom: "fc6-R"
  top: "fc6-R"
}
layer {
  name: "drop6-R"
  type: "Dropout"
  bottom: "fc6-R"
  top: "fc6-R"
  dropout_param {
    dropout_ratio: 0.5
  }
}
layer {
  name: "fc7-R"
  type: "Convolution"
  bottom: "fc6-R"
  top: "fc7-R"
  param {
    lr_mult: 10
    decay_mult: 1
  }
  param {
    lr_mult: 20
    decay_mult: 0
  }
  convolution_param {
    num_output: 4096
    pad: 0
    kernel_size: 1
    stride: 1
  }
}
layer {
  name: "relu7-R"
  type: "ReLU"
  bottom: "fc7-R"
  top: "fc7-R"
}
layer {
  name: "drop7-R"
  type: "Dropout"
  bottom: "fc7-R"
  top: "fc7-R"
  dropout_param {
    dropout_ratio: 0.5
  }
}
layer {
  name: "score_fr-new-R"
  type: "Convolution"
  bottom: "fc7-R"
  top: "score_fr-new-R"
  param {
    lr_mult: 10
    decay_mult: 1
  }
  param {
    lr_mult: 20
    decay_mult: 0
  }
  convolution_param {
    num_output: 3
    kernel_size: 1
  }
}
layer {
  name: "upscore2-new-R"
  type: "Deconvolution"
  bottom: "score_fr-new-R"
  top: "upscore2-new-R"
  param {
    lr_mult: 0
  }
  convolution_param {
    num_output: 3
    bias_term: false
    kernel_size: 4
    stride: 2
  }
}
layer {
  name: "score_pool4-new-R"
  type: "Convolution"
  bottom: "pool4-R"
  top: "score_pool4-new-R"
  param {
    lr_mult: 10
    decay_mult: 1
  }
  param {
    lr_mult: 20
    decay_mult: 0
  }
  convolution_param {
    num_output: 3
    pad: 0
    kernel_size: 1
  }
}
layer {
  name: "score_pool4c-R"
  type: "Crop"
  bottom: "score_pool4-new-R"
  bottom: "upscore2-new-R"
  top: "score_pool4c-R"
  crop_param {
    axis: 2
    offset: 5
  }
}
layer {
  name: "fuse_pool4-R"
  type: "Eltwise"
  bottom: "upscore2-new-R"
  bottom: "score_pool4c-R"
  top: "fuse_pool4-R"
  eltwise_param {
    operation: SUM
  }
}
layer {
  name: "upscore_pool4-new-R"
  type: "Deconvolution"
  bottom: "fuse_pool4-R"
  top: "upscore_pool4-new-R"
  param {
    lr_mult: 0
  }
  convolution_param {
    num_output: 3
    bias_term: false
    kernel_size: 4
    stride: 2
  }
}
layer {
  name: "score_pool3-new-R"
  type: "Convolution"
  bottom: "pool3-R"
  top: "score_pool3-new-R"
  param {
    lr_mult: 10
    decay_mult: 1
  }
  param {
    lr_mult: 20
    decay_mult: 0
  }
  convolution_param {
    num_output: 3
    pad: 0
    kernel_size: 1
  }
}
layer {
  name: "score_pool3c-R"
  type: "Crop"
  bottom: "score_pool3-new-R"
  bottom: "upscore_pool4-new-R"
  top: "score_pool3c-R"
  crop_param {
    axis: 2
    offset: 9
  }
}
layer {
  name: "fuse_pool3-R"
  type: "Eltwise"
  bottom: "upscore_pool4-new-R"
  bottom: "score_pool3c-R"
  top: "fuse_pool3-R"
  eltwise_param {
    operation: SUM
  }
}
layer {
  name: "upscore8-new-R"
  type: "Deconvolution"
  bottom: "fuse_pool3-R"
  top: "upscore8-new-R"
  param {
    lr_mult: 0
  }
  convolution_param {
    num_output: 3
    bias_term: false
    kernel_size: 16
    stride: 8
  }
}
layer {
  name: "upscore8_cropped-R"
  type: "Crop"
  bottom: "upscore8-new-R"
  bottom: "data-R"
  top: "upscore8_cropped-R"
  crop_param {
    axis: 2
    offset: 31
  }
}
layer {
  name: "score-R"
  type: "Convolution"
  bottom: "upscore8_cropped-R"
  top: "score-R"
  param {
    lr_mult: 10
    decay_mult: 1
  }
  param {
    lr_mult: 20
    decay_mult: 0
  }
  convolution_param {
    num_output: 3
    pad: 1
    kernel_size: 3
    stride: 1
    weight_filler {
      type: "xavier"
    }
    bias_filler {
      type: "constant"
      value: 0
    }
  }
}
layer {
  name: "score_uncropped-R"
  type: "Python"
  bottom: "crop_info"
  bottom: "score-R"
  bottom: "data"
  top: "score_uncropped-R"
  python_param {
    module: "Uncrop"
    layer: "UncropLayer"
  }
}
layer {
  name: "loss1"
  type: "DiceLoss"
  bottom: "score"
  bottom: "label"
  top: "loss1"
  loss_weight: 0.333333
}
layer {
  name: "loss2"
  type: "DiceLoss"
  bottom: "score_uncropped-R"
  bottom: "label"
  top: "loss2"
  loss_weight: 0.666667
}
I0418 20:15:25.908681 17316 layer_factory.hpp:77] Creating layer data
I0418 20:15:25.909473 17316 net.cpp:84] Creating Layer data
I0418 20:15:25.909490 17316 net.cpp:380] data -> data
I0418 20:15:25.909512 17316 net.cpp:380] data -> label
I0418 20:15:25.909523 17316 net.cpp:380] data -> crop_margin
I0418 20:15:25.909531 17316 net.cpp:380] data -> crop_prob
I0418 20:15:25.909540 17316 net.cpp:380] data -> crop_sample_batch
I0418 20:15:26.045743 17316 net.cpp:122] Setting up data
I0418 20:15:26.045781 17316 net.cpp:129] Top shape: 1 3 512 310 (476160)
I0418 20:15:26.045789 17316 net.cpp:129] Top shape: 1 3 512 310 (476160)
I0418 20:15:26.045795 17316 net.cpp:129] Top shape: 1 (1)
I0418 20:15:26.045816 17316 net.cpp:129] Top shape: 1 (1)
I0418 20:15:26.045822 17316 net.cpp:129] Top shape: 1 (1)
I0418 20:15:26.045826 17316 net.cpp:137] Memory required for data: 3809292
I0418 20:15:26.045836 17316 layer_factory.hpp:77] Creating layer data_data_0_split
I0418 20:15:26.045855 17316 net.cpp:84] Creating Layer data_data_0_split
I0418 20:15:26.045861 17316 net.cpp:406] data_data_0_split <- data
I0418 20:15:26.045876 17316 net.cpp:380] data_data_0_split -> data_data_0_split_0
I0418 20:15:26.045892 17316 net.cpp:380] data_data_0_split -> data_data_0_split_1
I0418 20:15:26.045913 17316 net.cpp:380] data_data_0_split -> data_data_0_split_2
I0418 20:15:26.045929 17316 net.cpp:380] data_data_0_split -> data_data_0_split_3
I0418 20:15:26.046007 17316 net.cpp:122] Setting up data_data_0_split
I0418 20:15:26.046017 17316 net.cpp:129] Top shape: 1 3 512 310 (476160)
I0418 20:15:26.046025 17316 net.cpp:129] Top shape: 1 3 512 310 (476160)
I0418 20:15:26.046031 17316 net.cpp:129] Top shape: 1 3 512 310 (476160)
I0418 20:15:26.046038 17316 net.cpp:129] Top shape: 1 3 512 310 (476160)
I0418 20:15:26.046043 17316 net.cpp:137] Memory required for data: 11427852
I0418 20:15:26.046049 17316 layer_factory.hpp:77] Creating layer label_data_1_split
I0418 20:15:26.046058 17316 net.cpp:84] Creating Layer label_data_1_split
I0418 20:15:26.046064 17316 net.cpp:406] label_data_1_split <- label
I0418 20:15:26.046073 17316 net.cpp:380] label_data_1_split -> label_data_1_split_0
I0418 20:15:26.046082 17316 net.cpp:380] label_data_1_split -> label_data_1_split_1
I0418 20:15:26.046092 17316 net.cpp:380] label_data_1_split -> label_data_1_split_2
I0418 20:15:26.046138 17316 net.cpp:122] Setting up label_data_1_split
I0418 20:15:26.046146 17316 net.cpp:129] Top shape: 1 3 512 310 (476160)
I0418 20:15:26.046154 17316 net.cpp:129] Top shape: 1 3 512 310 (476160)
I0418 20:15:26.046160 17316 net.cpp:129] Top shape: 1 3 512 310 (476160)
I0418 20:15:26.046172 17316 net.cpp:137] Memory required for data: 17141772
I0418 20:15:26.046185 17316 layer_factory.hpp:77] Creating layer conv1_1
I0418 20:15:26.046214 17316 net.cpp:84] Creating Layer conv1_1
I0418 20:15:26.046221 17316 net.cpp:406] conv1_1 <- data_data_0_split_0
I0418 20:15:26.046231 17316 net.cpp:380] conv1_1 -> conv1_1
I0418 20:15:26.417227 17316 net.cpp:122] Setting up conv1_1
I0418 20:15:26.417280 17316 net.cpp:129] Top shape: 1 64 710 508 (23083520)
I0418 20:15:26.417286 17316 net.cpp:137] Memory required for data: 109475852
I0418 20:15:26.417317 17316 layer_factory.hpp:77] Creating layer relu1_1
I0418 20:15:26.417352 17316 net.cpp:84] Creating Layer relu1_1
I0418 20:15:26.417359 17316 net.cpp:406] relu1_1 <- conv1_1
I0418 20:15:26.417367 17316 net.cpp:367] relu1_1 -> conv1_1 (in-place)
I0418 20:15:26.417610 17316 net.cpp:122] Setting up relu1_1
I0418 20:15:26.417623 17316 net.cpp:129] Top shape: 1 64 710 508 (23083520)
I0418 20:15:26.417628 17316 net.cpp:137] Memory required for data: 201809932
I0418 20:15:26.417632 17316 layer_factory.hpp:77] Creating layer conv1_2
I0418 20:15:26.417650 17316 net.cpp:84] Creating Layer conv1_2
I0418 20:15:26.417655 17316 net.cpp:406] conv1_2 <- conv1_1
I0418 20:15:26.417665 17316 net.cpp:380] conv1_2 -> conv1_2
I0418 20:15:26.422791 17316 net.cpp:122] Setting up conv1_2
I0418 20:15:26.422845 17316 net.cpp:129] Top shape: 1 64 710 508 (23083520)
I0418 20:15:26.422855 17316 net.cpp:137] Memory required for data: 294144012
I0418 20:15:26.422883 17316 layer_factory.hpp:77] Creating layer relu1_2
I0418 20:15:26.422914 17316 net.cpp:84] Creating Layer relu1_2
I0418 20:15:26.422924 17316 net.cpp:406] relu1_2 <- conv1_2
I0418 20:15:26.422941 17316 net.cpp:367] relu1_2 -> conv1_2 (in-place)
I0418 20:15:26.423341 17316 net.cpp:122] Setting up relu1_2
I0418 20:15:26.423362 17316 net.cpp:129] Top shape: 1 64 710 508 (23083520)
I0418 20:15:26.423370 17316 net.cpp:137] Memory required for data: 386478092
I0418 20:15:26.423377 17316 layer_factory.hpp:77] Creating layer pool1
I0418 20:15:26.423408 17316 net.cpp:84] Creating Layer pool1
I0418 20:15:26.423415 17316 net.cpp:406] pool1 <- conv1_2
I0418 20:15:26.423426 17316 net.cpp:380] pool1 -> pool1
I0418 20:15:26.423537 17316 net.cpp:122] Setting up pool1
I0418 20:15:26.423552 17316 net.cpp:129] Top shape: 1 64 355 254 (5770880)
I0418 20:15:26.423558 17316 net.cpp:137] Memory required for data: 409561612
I0418 20:15:26.423566 17316 layer_factory.hpp:77] Creating layer conv2_1
I0418 20:15:26.423591 17316 net.cpp:84] Creating Layer conv2_1
I0418 20:15:26.423611 17316 net.cpp:406] conv2_1 <- pool1
I0418 20:15:26.423635 17316 net.cpp:380] conv2_1 -> conv2_1
I0418 20:15:26.433923 17316 net.cpp:122] Setting up conv2_1
I0418 20:15:26.433965 17316 net.cpp:129] Top shape: 1 128 355 254 (11541760)
I0418 20:15:26.433974 17316 net.cpp:137] Memory required for data: 455728652
I0418 20:15:26.434006 17316 layer_factory.hpp:77] Creating layer relu2_1
I0418 20:15:26.434034 17316 net.cpp:84] Creating Layer relu2_1
I0418 20:15:26.434043 17316 net.cpp:406] relu2_1 <- conv2_1
I0418 20:15:26.434062 17316 net.cpp:367] relu2_1 -> conv2_1 (in-place)
I0418 20:15:26.434561 17316 net.cpp:122] Setting up relu2_1
I0418 20:15:26.434594 17316 net.cpp:129] Top shape: 1 128 355 254 (11541760)
I0418 20:15:26.434603 17316 net.cpp:137] Memory required for data: 501895692
I0418 20:15:26.434612 17316 layer_factory.hpp:77] Creating layer conv2_2
I0418 20:15:26.434633 17316 net.cpp:84] Creating Layer conv2_2
I0418 20:15:26.434640 17316 net.cpp:406] conv2_2 <- conv2_1
I0418 20:15:26.434653 17316 net.cpp:380] conv2_2 -> conv2_2
I0418 20:15:26.439561 17316 net.cpp:122] Setting up conv2_2
I0418 20:15:26.439580 17316 net.cpp:129] Top shape: 1 128 355 254 (11541760)
I0418 20:15:26.439591 17316 net.cpp:137] Memory required for data: 548062732
I0418 20:15:26.439600 17316 layer_factory.hpp:77] Creating layer relu2_2
I0418 20:15:26.439608 17316 net.cpp:84] Creating Layer relu2_2
I0418 20:15:26.439613 17316 net.cpp:406] relu2_2 <- conv2_2
I0418 20:15:26.439623 17316 net.cpp:367] relu2_2 -> conv2_2 (in-place)
I0418 20:15:26.439862 17316 net.cpp:122] Setting up relu2_2
I0418 20:15:26.439888 17316 net.cpp:129] Top shape: 1 128 355 254 (11541760)
I0418 20:15:26.439893 17316 net.cpp:137] Memory required for data: 594229772
I0418 20:15:26.439898 17316 layer_factory.hpp:77] Creating layer pool2
I0418 20:15:26.439908 17316 net.cpp:84] Creating Layer pool2
I0418 20:15:26.439913 17316 net.cpp:406] pool2 <- conv2_2
I0418 20:15:26.439920 17316 net.cpp:380] pool2 -> pool2
I0418 20:15:26.439975 17316 net.cpp:122] Setting up pool2
I0418 20:15:26.439992 17316 net.cpp:129] Top shape: 1 128 178 127 (2893568)
I0418 20:15:26.439996 17316 net.cpp:137] Memory required for data: 605804044
I0418 20:15:26.440001 17316 layer_factory.hpp:77] Creating layer conv3_1
I0418 20:15:26.440011 17316 net.cpp:84] Creating Layer conv3_1
I0418 20:15:26.440016 17316 net.cpp:406] conv3_1 <- pool2
I0418 20:15:26.440026 17316 net.cpp:380] conv3_1 -> conv3_1
I0418 20:15:26.443462 17316 net.cpp:122] Setting up conv3_1
I0418 20:15:26.443482 17316 net.cpp:129] Top shape: 1 256 178 127 (5787136)
I0418 20:15:26.443497 17316 net.cpp:137] Memory required for data: 628952588
I0418 20:15:26.443522 17316 layer_factory.hpp:77] Creating layer relu3_1
I0418 20:15:26.443532 17316 net.cpp:84] Creating Layer relu3_1
I0418 20:15:26.443537 17316 net.cpp:406] relu3_1 <- conv3_1
I0418 20:15:26.443544 17316 net.cpp:367] relu3_1 -> conv3_1 (in-place)
I0418 20:15:26.449529 17316 net.cpp:122] Setting up relu3_1
I0418 20:15:26.449548 17316 net.cpp:129] Top shape: 1 256 178 127 (5787136)
I0418 20:15:26.449561 17316 net.cpp:137] Memory required for data: 652101132
I0418 20:15:26.449566 17316 layer_factory.hpp:77] Creating layer conv3_2
I0418 20:15:26.449580 17316 net.cpp:84] Creating Layer conv3_2
I0418 20:15:26.449585 17316 net.cpp:406] conv3_2 <- conv3_1
I0418 20:15:26.449596 17316 net.cpp:380] conv3_2 -> conv3_2
I0418 20:15:26.454869 17316 net.cpp:122] Setting up conv3_2
I0418 20:15:26.454905 17316 net.cpp:129] Top shape: 1 256 178 127 (5787136)
I0418 20:15:26.454913 17316 net.cpp:137] Memory required for data: 675249676
I0418 20:15:26.454931 17316 layer_factory.hpp:77] Creating layer relu3_2
I0418 20:15:26.454952 17316 net.cpp:84] Creating Layer relu3_2
I0418 20:15:26.454962 17316 net.cpp:406] relu3_2 <- conv3_2
I0418 20:15:26.454972 17316 net.cpp:367] relu3_2 -> conv3_2 (in-place)
I0418 20:15:26.455984 17316 net.cpp:122] Setting up relu3_2
I0418 20:15:26.456010 17316 net.cpp:129] Top shape: 1 256 178 127 (5787136)
I0418 20:15:26.456025 17316 net.cpp:137] Memory required for data: 698398220
I0418 20:15:26.456033 17316 layer_factory.hpp:77] Creating layer conv3_3
I0418 20:15:26.456054 17316 net.cpp:84] Creating Layer conv3_3
I0418 20:15:26.456063 17316 net.cpp:406] conv3_3 <- conv3_2
I0418 20:15:26.456076 17316 net.cpp:380] conv3_3 -> conv3_3
I0418 20:15:26.464002 17316 net.cpp:122] Setting up conv3_3
I0418 20:15:26.464043 17316 net.cpp:129] Top shape: 1 256 178 127 (5787136)
I0418 20:15:26.464052 17316 net.cpp:137] Memory required for data: 721546764
I0418 20:15:26.464071 17316 layer_factory.hpp:77] Creating layer relu3_3
I0418 20:15:26.464087 17316 net.cpp:84] Creating Layer relu3_3
I0418 20:15:26.464102 17316 net.cpp:406] relu3_3 <- conv3_3
I0418 20:15:26.464117 17316 net.cpp:367] relu3_3 -> conv3_3 (in-place)
I0418 20:15:26.464524 17316 net.cpp:122] Setting up relu3_3
I0418 20:15:26.464545 17316 net.cpp:129] Top shape: 1 256 178 127 (5787136)
I0418 20:15:26.464561 17316 net.cpp:137] Memory required for data: 744695308
I0418 20:15:26.464570 17316 layer_factory.hpp:77] Creating layer pool3
I0418 20:15:26.464594 17316 net.cpp:84] Creating Layer pool3
I0418 20:15:26.464602 17316 net.cpp:406] pool3 <- conv3_3
I0418 20:15:26.464614 17316 net.cpp:380] pool3 -> pool3
I0418 20:15:26.464710 17316 net.cpp:122] Setting up pool3
I0418 20:15:26.464726 17316 net.cpp:129] Top shape: 1 256 89 64 (1458176)
I0418 20:15:26.464732 17316 net.cpp:137] Memory required for data: 750528012
I0418 20:15:26.464740 17316 layer_factory.hpp:77] Creating layer pool3_pool3_0_split
I0418 20:15:26.464752 17316 net.cpp:84] Creating Layer pool3_pool3_0_split
I0418 20:15:26.464759 17316 net.cpp:406] pool3_pool3_0_split <- pool3
I0418 20:15:26.464773 17316 net.cpp:380] pool3_pool3_0_split -> pool3_pool3_0_split_0
I0418 20:15:26.464792 17316 net.cpp:380] pool3_pool3_0_split -> pool3_pool3_0_split_1
I0418 20:15:26.464874 17316 net.cpp:122] Setting up pool3_pool3_0_split
I0418 20:15:26.464889 17316 net.cpp:129] Top shape: 1 256 89 64 (1458176)
I0418 20:15:26.464897 17316 net.cpp:129] Top shape: 1 256 89 64 (1458176)
I0418 20:15:26.464905 17316 net.cpp:137] Memory required for data: 762193420
I0418 20:15:26.464911 17316 layer_factory.hpp:77] Creating layer conv4_1
I0418 20:15:26.464931 17316 net.cpp:84] Creating Layer conv4_1
I0418 20:15:26.464938 17316 net.cpp:406] conv4_1 <- pool3_pool3_0_split_0
I0418 20:15:26.464949 17316 net.cpp:380] conv4_1 -> conv4_1
I0418 20:15:26.476151 17316 net.cpp:122] Setting up conv4_1
I0418 20:15:26.476197 17316 net.cpp:129] Top shape: 1 512 89 64 (2916352)
I0418 20:15:26.476205 17316 net.cpp:137] Memory required for data: 773858828
I0418 20:15:26.476220 17316 layer_factory.hpp:77] Creating layer relu4_1
I0418 20:15:26.476235 17316 net.cpp:84] Creating Layer relu4_1
I0418 20:15:26.476243 17316 net.cpp:406] relu4_1 <- conv4_1
I0418 20:15:26.476254 17316 net.cpp:367] relu4_1 -> conv4_1 (in-place)
I0418 20:15:26.476624 17316 net.cpp:122] Setting up relu4_1
I0418 20:15:26.476653 17316 net.cpp:129] Top shape: 1 512 89 64 (2916352)
I0418 20:15:26.476670 17316 net.cpp:137] Memory required for data: 785524236
I0418 20:15:26.476675 17316 layer_factory.hpp:77] Creating layer conv4_2
I0418 20:15:26.476696 17316 net.cpp:84] Creating Layer conv4_2
I0418 20:15:26.476711 17316 net.cpp:406] conv4_2 <- conv4_1
I0418 20:15:26.476722 17316 net.cpp:380] conv4_2 -> conv4_2
I0418 20:15:26.490375 17316 net.cpp:122] Setting up conv4_2
I0418 20:15:26.490407 17316 net.cpp:129] Top shape: 1 512 89 64 (2916352)
I0418 20:15:26.490413 17316 net.cpp:137] Memory required for data: 797189644
I0418 20:15:26.490434 17316 layer_factory.hpp:77] Creating layer relu4_2
I0418 20:15:26.490445 17316 net.cpp:84] Creating Layer relu4_2
I0418 20:15:26.490451 17316 net.cpp:406] relu4_2 <- conv4_2
I0418 20:15:26.490461 17316 net.cpp:367] relu4_2 -> conv4_2 (in-place)
I0418 20:15:26.490721 17316 net.cpp:122] Setting up relu4_2
I0418 20:15:26.490736 17316 net.cpp:129] Top shape: 1 512 89 64 (2916352)
I0418 20:15:26.490741 17316 net.cpp:137] Memory required for data: 808855052
I0418 20:15:26.490746 17316 layer_factory.hpp:77] Creating layer conv4_3
I0418 20:15:26.490761 17316 net.cpp:84] Creating Layer conv4_3
I0418 20:15:26.490766 17316 net.cpp:406] conv4_3 <- conv4_2
I0418 20:15:26.490773 17316 net.cpp:380] conv4_3 -> conv4_3
I0418 20:15:26.499534 17316 net.cpp:122] Setting up conv4_3
I0418 20:15:26.499559 17316 net.cpp:129] Top shape: 1 512 89 64 (2916352)
I0418 20:15:26.499573 17316 net.cpp:137] Memory required for data: 820520460
I0418 20:15:26.499583 17316 layer_factory.hpp:77] Creating layer relu4_3
I0418 20:15:26.499598 17316 net.cpp:84] Creating Layer relu4_3
I0418 20:15:26.499603 17316 net.cpp:406] relu4_3 <- conv4_3
I0418 20:15:26.499614 17316 net.cpp:367] relu4_3 -> conv4_3 (in-place)
I0418 20:15:26.499872 17316 net.cpp:122] Setting up relu4_3
I0418 20:15:26.499891 17316 net.cpp:129] Top shape: 1 512 89 64 (2916352)
I0418 20:15:26.499897 17316 net.cpp:137] Memory required for data: 832185868
I0418 20:15:26.499900 17316 layer_factory.hpp:77] Creating layer pool4
I0418 20:15:26.499912 17316 net.cpp:84] Creating Layer pool4
I0418 20:15:26.499917 17316 net.cpp:406] pool4 <- conv4_3
I0418 20:15:26.499924 17316 net.cpp:380] pool4 -> pool4
I0418 20:15:26.499985 17316 net.cpp:122] Setting up pool4
I0418 20:15:26.499995 17316 net.cpp:129] Top shape: 1 512 45 32 (737280)
I0418 20:15:26.500000 17316 net.cpp:137] Memory required for data: 835134988
I0418 20:15:26.500005 17316 layer_factory.hpp:77] Creating layer pool4_pool4_0_split
I0418 20:15:26.500022 17316 net.cpp:84] Creating Layer pool4_pool4_0_split
I0418 20:15:26.500027 17316 net.cpp:406] pool4_pool4_0_split <- pool4
I0418 20:15:26.500036 17316 net.cpp:380] pool4_pool4_0_split -> pool4_pool4_0_split_0
I0418 20:15:26.500044 17316 net.cpp:380] pool4_pool4_0_split -> pool4_pool4_0_split_1
I0418 20:15:26.500089 17316 net.cpp:122] Setting up pool4_pool4_0_split
I0418 20:15:26.500100 17316 net.cpp:129] Top shape: 1 512 45 32 (737280)
I0418 20:15:26.500105 17316 net.cpp:129] Top shape: 1 512 45 32 (737280)
I0418 20:15:26.500110 17316 net.cpp:137] Memory required for data: 841033228
I0418 20:15:26.500114 17316 layer_factory.hpp:77] Creating layer conv5_1
I0418 20:15:26.500131 17316 net.cpp:84] Creating Layer conv5_1
I0418 20:15:26.500136 17316 net.cpp:406] conv5_1 <- pool4_pool4_0_split_0
I0418 20:15:26.500144 17316 net.cpp:380] conv5_1 -> conv5_1
I0418 20:15:26.510272 17316 net.cpp:122] Setting up conv5_1
I0418 20:15:26.510306 17316 net.cpp:129] Top shape: 1 512 45 32 (737280)
I0418 20:15:26.510311 17316 net.cpp:137] Memory required for data: 843982348
I0418 20:15:26.510323 17316 layer_factory.hpp:77] Creating layer relu5_1
I0418 20:15:26.510335 17316 net.cpp:84] Creating Layer relu5_1
I0418 20:15:26.510342 17316 net.cpp:406] relu5_1 <- conv5_1
I0418 20:15:26.510352 17316 net.cpp:367] relu5_1 -> conv5_1 (in-place)
I0418 20:15:26.511091 17316 net.cpp:122] Setting up relu5_1
I0418 20:15:26.511109 17316 net.cpp:129] Top shape: 1 512 45 32 (737280)
I0418 20:15:26.511114 17316 net.cpp:137] Memory required for data: 846931468
I0418 20:15:26.511121 17316 layer_factory.hpp:77] Creating layer conv5_2
I0418 20:15:26.511137 17316 net.cpp:84] Creating Layer conv5_2
I0418 20:15:26.511143 17316 net.cpp:406] conv5_2 <- conv5_1
I0418 20:15:26.511152 17316 net.cpp:380] conv5_2 -> conv5_2
I0418 20:15:26.520263 17316 net.cpp:122] Setting up conv5_2
I0418 20:15:26.520313 17316 net.cpp:129] Top shape: 1 512 45 32 (737280)
I0418 20:15:26.520320 17316 net.cpp:137] Memory required for data: 849880588
I0418 20:15:26.520334 17316 layer_factory.hpp:77] Creating layer relu5_2
I0418 20:15:26.520354 17316 net.cpp:84] Creating Layer relu5_2
I0418 20:15:26.520361 17316 net.cpp:406] relu5_2 <- conv5_2
I0418 20:15:26.520385 17316 net.cpp:367] relu5_2 -> conv5_2 (in-place)
I0418 20:15:26.523279 17316 net.cpp:122] Setting up relu5_2
I0418 20:15:26.523313 17316 net.cpp:129] Top shape: 1 512 45 32 (737280)
I0418 20:15:26.523319 17316 net.cpp:137] Memory required for data: 852829708
I0418 20:15:26.523324 17316 layer_factory.hpp:77] Creating layer conv5_3
I0418 20:15:26.523340 17316 net.cpp:84] Creating Layer conv5_3
I0418 20:15:26.523347 17316 net.cpp:406] conv5_3 <- conv5_2
I0418 20:15:26.523360 17316 net.cpp:380] conv5_3 -> conv5_3
I0418 20:15:26.533550 17316 net.cpp:122] Setting up conv5_3
I0418 20:15:26.533586 17316 net.cpp:129] Top shape: 1 512 45 32 (737280)
I0418 20:15:26.533592 17316 net.cpp:137] Memory required for data: 855778828
I0418 20:15:26.533603 17316 layer_factory.hpp:77] Creating layer relu5_3
I0418 20:15:26.533614 17316 net.cpp:84] Creating Layer relu5_3
I0418 20:15:26.533620 17316 net.cpp:406] relu5_3 <- conv5_3
I0418 20:15:26.533630 17316 net.cpp:367] relu5_3 -> conv5_3 (in-place)
I0418 20:15:26.533897 17316 net.cpp:122] Setting up relu5_3
I0418 20:15:26.533911 17316 net.cpp:129] Top shape: 1 512 45 32 (737280)
I0418 20:15:26.533916 17316 net.cpp:137] Memory required for data: 858727948
I0418 20:15:26.533921 17316 layer_factory.hpp:77] Creating layer pool5
I0418 20:15:26.533937 17316 net.cpp:84] Creating Layer pool5
I0418 20:15:26.533943 17316 net.cpp:406] pool5 <- conv5_3
I0418 20:15:26.533951 17316 net.cpp:380] pool5 -> pool5
I0418 20:15:26.534013 17316 net.cpp:122] Setting up pool5
I0418 20:15:26.534024 17316 net.cpp:129] Top shape: 1 512 23 16 (188416)
I0418 20:15:26.534029 17316 net.cpp:137] Memory required for data: 859481612
I0418 20:15:26.534034 17316 layer_factory.hpp:77] Creating layer fc6
I0418 20:15:26.534049 17316 net.cpp:84] Creating Layer fc6
I0418 20:15:26.534054 17316 net.cpp:406] fc6 <- pool5
I0418 20:15:26.534061 17316 net.cpp:380] fc6 -> fc6
I0418 20:15:26.859088 17316 net.cpp:122] Setting up fc6
I0418 20:15:26.859145 17316 net.cpp:129] Top shape: 1 4096 17 10 (696320)
I0418 20:15:26.859150 17316 net.cpp:137] Memory required for data: 862266892
I0418 20:15:26.859179 17316 layer_factory.hpp:77] Creating layer relu6
I0418 20:15:26.859215 17316 net.cpp:84] Creating Layer relu6
I0418 20:15:26.859222 17316 net.cpp:406] relu6 <- fc6
I0418 20:15:26.859233 17316 net.cpp:367] relu6 -> fc6 (in-place)
I0418 20:15:26.859449 17316 net.cpp:122] Setting up relu6
I0418 20:15:26.859463 17316 net.cpp:129] Top shape: 1 4096 17 10 (696320)
I0418 20:15:26.859467 17316 net.cpp:137] Memory required for data: 865052172
I0418 20:15:26.859470 17316 layer_factory.hpp:77] Creating layer drop6
I0418 20:15:26.859485 17316 net.cpp:84] Creating Layer drop6
I0418 20:15:26.859490 17316 net.cpp:406] drop6 <- fc6
I0418 20:15:26.859495 17316 net.cpp:367] drop6 -> fc6 (in-place)
I0418 20:15:26.859530 17316 net.cpp:122] Setting up drop6
I0418 20:15:26.859544 17316 net.cpp:129] Top shape: 1 4096 17 10 (696320)
I0418 20:15:26.859549 17316 net.cpp:137] Memory required for data: 867837452
I0418 20:15:26.859551 17316 layer_factory.hpp:77] Creating layer fc7
I0418 20:15:26.859565 17316 net.cpp:84] Creating Layer fc7
I0418 20:15:26.859570 17316 net.cpp:406] fc7 <- fc6
I0418 20:15:26.859577 17316 net.cpp:380] fc7 -> fc7
I0418 20:15:26.906250 17316 net.cpp:122] Setting up fc7
I0418 20:15:26.906299 17316 net.cpp:129] Top shape: 1 4096 17 10 (696320)
I0418 20:15:26.906308 17316 net.cpp:137] Memory required for data: 870622732
I0418 20:15:26.906348 17316 layer_factory.hpp:77] Creating layer relu7
I0418 20:15:26.906379 17316 net.cpp:84] Creating Layer relu7
I0418 20:15:26.906390 17316 net.cpp:406] relu7 <- fc7
I0418 20:15:26.906409 17316 net.cpp:367] relu7 -> fc7 (in-place)
I0418 20:15:26.906823 17316 net.cpp:122] Setting up relu7
I0418 20:15:26.906846 17316 net.cpp:129] Top shape: 1 4096 17 10 (696320)
I0418 20:15:26.906853 17316 net.cpp:137] Memory required for data: 873408012
I0418 20:15:26.906863 17316 layer_factory.hpp:77] Creating layer drop7
I0418 20:15:26.906880 17316 net.cpp:84] Creating Layer drop7
I0418 20:15:26.906888 17316 net.cpp:406] drop7 <- fc7
I0418 20:15:26.906898 17316 net.cpp:367] drop7 -> fc7 (in-place)
I0418 20:15:26.906972 17316 net.cpp:122] Setting up drop7
I0418 20:15:26.906983 17316 net.cpp:129] Top shape: 1 4096 17 10 (696320)
I0418 20:15:26.906991 17316 net.cpp:137] Memory required for data: 876193292
I0418 20:15:26.906997 17316 layer_factory.hpp:77] Creating layer score_fr-new
I0418 20:15:26.907030 17316 net.cpp:84] Creating Layer score_fr-new
I0418 20:15:26.907048 17316 net.cpp:406] score_fr-new <- fc7
I0418 20:15:26.907075 17316 net.cpp:380] score_fr-new -> score_fr-new
I0418 20:15:26.911115 17316 net.cpp:122] Setting up score_fr-new
I0418 20:15:26.911160 17316 net.cpp:129] Top shape: 1 3 17 10 (510)
I0418 20:15:26.911168 17316 net.cpp:137] Memory required for data: 876195332
I0418 20:15:26.911185 17316 layer_factory.hpp:77] Creating layer upscore2-new
I0418 20:15:26.911211 17316 net.cpp:84] Creating Layer upscore2-new
I0418 20:15:26.911221 17316 net.cpp:406] upscore2-new <- score_fr-new
I0418 20:15:26.911238 17316 net.cpp:380] upscore2-new -> upscore2-new
I0418 20:15:26.911706 17316 net.cpp:122] Setting up upscore2-new
I0418 20:15:26.911734 17316 net.cpp:129] Top shape: 1 3 36 22 (2376)
I0418 20:15:26.911741 17316 net.cpp:137] Memory required for data: 876204836
I0418 20:15:26.911823 17316 layer_factory.hpp:77] Creating layer upscore2-new_upscore2-new_0_split
I0418 20:15:26.911845 17316 net.cpp:84] Creating Layer upscore2-new_upscore2-new_0_split
I0418 20:15:26.911864 17316 net.cpp:406] upscore2-new_upscore2-new_0_split <- upscore2-new
I0418 20:15:26.911880 17316 net.cpp:380] upscore2-new_upscore2-new_0_split -> upscore2-new_upscore2-new_0_split_0
I0418 20:15:26.911895 17316 net.cpp:380] upscore2-new_upscore2-new_0_split -> upscore2-new_upscore2-new_0_split_1
I0418 20:15:26.911968 17316 net.cpp:122] Setting up upscore2-new_upscore2-new_0_split
I0418 20:15:26.911983 17316 net.cpp:129] Top shape: 1 3 36 22 (2376)
I0418 20:15:26.911993 17316 net.cpp:129] Top shape: 1 3 36 22 (2376)
I0418 20:15:26.911999 17316 net.cpp:137] Memory required for data: 876223844
I0418 20:15:26.912006 17316 layer_factory.hpp:77] Creating layer score_pool4-new
I0418 20:15:26.912063 17316 net.cpp:84] Creating Layer score_pool4-new
I0418 20:15:26.912076 17316 net.cpp:406] score_pool4-new <- pool4_pool4_0_split_1
I0418 20:15:26.912089 17316 net.cpp:380] score_pool4-new -> score_pool4-new
I0418 20:15:26.919777 17316 net.cpp:122] Setting up score_pool4-new
I0418 20:15:26.919821 17316 net.cpp:129] Top shape: 1 3 45 32 (4320)
I0418 20:15:26.919831 17316 net.cpp:137] Memory required for data: 876241124
I0418 20:15:26.919847 17316 layer_factory.hpp:77] Creating layer score_pool4c
I0418 20:15:26.919869 17316 net.cpp:84] Creating Layer score_pool4c
I0418 20:15:26.919879 17316 net.cpp:406] score_pool4c <- score_pool4-new
I0418 20:15:26.919890 17316 net.cpp:406] score_pool4c <- upscore2-new_upscore2-new_0_split_0
I0418 20:15:26.919903 17316 net.cpp:380] score_pool4c -> score_pool4c
I0418 20:15:26.919972 17316 net.cpp:122] Setting up score_pool4c
I0418 20:15:26.919988 17316 net.cpp:129] Top shape: 1 3 36 22 (2376)
I0418 20:15:26.919996 17316 net.cpp:137] Memory required for data: 876250628
I0418 20:15:26.920002 17316 layer_factory.hpp:77] Creating layer fuse_pool4
I0418 20:15:26.920066 17316 net.cpp:84] Creating Layer fuse_pool4
I0418 20:15:26.920079 17316 net.cpp:406] fuse_pool4 <- upscore2-new_upscore2-new_0_split_1
I0418 20:15:26.920089 17316 net.cpp:406] fuse_pool4 <- score_pool4c
I0418 20:15:26.920104 17316 net.cpp:380] fuse_pool4 -> fuse_pool4
I0418 20:15:26.920161 17316 net.cpp:122] Setting up fuse_pool4
I0418 20:15:26.920176 17316 net.cpp:129] Top shape: 1 3 36 22 (2376)
I0418 20:15:26.920181 17316 net.cpp:137] Memory required for data: 876260132
I0418 20:15:26.920202 17316 layer_factory.hpp:77] Creating layer upscore_pool4-new
I0418 20:15:26.920228 17316 net.cpp:84] Creating Layer upscore_pool4-new
I0418 20:15:26.920240 17316 net.cpp:406] upscore_pool4-new <- fuse_pool4
I0418 20:15:26.920256 17316 net.cpp:380] upscore_pool4-new -> upscore_pool4-new
I0418 20:15:26.920675 17316 net.cpp:122] Setting up upscore_pool4-new
I0418 20:15:26.920691 17316 net.cpp:129] Top shape: 1 3 74 46 (10212)
I0418 20:15:26.920706 17316 net.cpp:137] Memory required for data: 876300980
I0418 20:15:26.920717 17316 layer_factory.hpp:77] Creating layer upscore_pool4-new_upscore_pool4-new_0_split
I0418 20:15:26.920727 17316 net.cpp:84] Creating Layer upscore_pool4-new_upscore_pool4-new_0_split
I0418 20:15:26.920735 17316 net.cpp:406] upscore_pool4-new_upscore_pool4-new_0_split <- upscore_pool4-new
I0418 20:15:26.920747 17316 net.cpp:380] upscore_pool4-new_upscore_pool4-new_0_split -> upscore_pool4-new_upscore_pool4-new_0_split_0
I0418 20:15:26.920765 17316 net.cpp:380] upscore_pool4-new_upscore_pool4-new_0_split -> upscore_pool4-new_upscore_pool4-new_0_split_1
I0418 20:15:26.920835 17316 net.cpp:122] Setting up upscore_pool4-new_upscore_pool4-new_0_split
I0418 20:15:26.920848 17316 net.cpp:129] Top shape: 1 3 74 46 (10212)
I0418 20:15:26.920857 17316 net.cpp:129] Top shape: 1 3 74 46 (10212)
I0418 20:15:26.920864 17316 net.cpp:137] Memory required for data: 876382676
I0418 20:15:26.920871 17316 layer_factory.hpp:77] Creating layer score_pool3-new
I0418 20:15:26.920899 17316 net.cpp:84] Creating Layer score_pool3-new
I0418 20:15:26.920914 17316 net.cpp:406] score_pool3-new <- pool3_pool3_0_split_1
I0418 20:15:26.920939 17316 net.cpp:380] score_pool3-new -> score_pool3-new
I0418 20:15:26.925092 17316 net.cpp:122] Setting up score_pool3-new
I0418 20:15:26.925133 17316 net.cpp:129] Top shape: 1 3 89 64 (17088)
I0418 20:15:26.925143 17316 net.cpp:137] Memory required for data: 876451028
I0418 20:15:26.925158 17316 layer_factory.hpp:77] Creating layer score_pool3c
I0418 20:15:26.925189 17316 net.cpp:84] Creating Layer score_pool3c
I0418 20:15:26.925199 17316 net.cpp:406] score_pool3c <- score_pool3-new
I0418 20:15:26.925211 17316 net.cpp:406] score_pool3c <- upscore_pool4-new_upscore_pool4-new_0_split_0
I0418 20:15:26.925225 17316 net.cpp:380] score_pool3c -> score_pool3c
I0418 20:15:26.925290 17316 net.cpp:122] Setting up score_pool3c
I0418 20:15:26.925307 17316 net.cpp:129] Top shape: 1 3 74 46 (10212)
I0418 20:15:26.925313 17316 net.cpp:137] Memory required for data: 876491876
I0418 20:15:26.925321 17316 layer_factory.hpp:77] Creating layer fuse_pool3
I0418 20:15:26.925343 17316 net.cpp:84] Creating Layer fuse_pool3
I0418 20:15:26.925356 17316 net.cpp:406] fuse_pool3 <- upscore_pool4-new_upscore_pool4-new_0_split_1
I0418 20:15:26.925379 17316 net.cpp:406] fuse_pool3 <- score_pool3c
I0418 20:15:26.925401 17316 net.cpp:380] fuse_pool3 -> fuse_pool3
I0418 20:15:26.925452 17316 net.cpp:122] Setting up fuse_pool3
I0418 20:15:26.925467 17316 net.cpp:129] Top shape: 1 3 74 46 (10212)
I0418 20:15:26.925474 17316 net.cpp:137] Memory required for data: 876532724
I0418 20:15:26.925482 17316 layer_factory.hpp:77] Creating layer upscore8-new
I0418 20:15:26.925505 17316 net.cpp:84] Creating Layer upscore8-new
I0418 20:15:26.925513 17316 net.cpp:406] upscore8-new <- fuse_pool3
I0418 20:15:26.925524 17316 net.cpp:380] upscore8-new -> upscore8-new
I0418 20:15:26.925954 17316 net.cpp:122] Setting up upscore8-new
I0418 20:15:26.925971 17316 net.cpp:129] Top shape: 1 3 600 376 (676800)
I0418 20:15:26.925985 17316 net.cpp:137] Memory required for data: 879239924
I0418 20:15:26.925997 17316 layer_factory.hpp:77] Creating layer upscore8_cropped
I0418 20:15:26.926007 17316 net.cpp:84] Creating Layer upscore8_cropped
I0418 20:15:26.926015 17316 net.cpp:406] upscore8_cropped <- upscore8-new
I0418 20:15:26.926036 17316 net.cpp:406] upscore8_cropped <- data_data_0_split_1
I0418 20:15:26.926051 17316 net.cpp:380] upscore8_cropped -> upscore8_cropped
I0418 20:15:26.926100 17316 net.cpp:122] Setting up upscore8_cropped
I0418 20:15:26.926113 17316 net.cpp:129] Top shape: 1 3 512 310 (476160)
I0418 20:15:26.926120 17316 net.cpp:137] Memory required for data: 881144564
I0418 20:15:26.926137 17316 layer_factory.hpp:77] Creating layer score
I0418 20:15:26.926213 17316 net.cpp:84] Creating Layer score
I0418 20:15:26.926229 17316 net.cpp:406] score <- upscore8_cropped
I0418 20:15:26.926247 17316 net.cpp:380] score -> score
I0418 20:15:26.930603 17316 net.cpp:122] Setting up score
I0418 20:15:26.930634 17316 net.cpp:129] Top shape: 1 3 512 310 (476160)
I0418 20:15:26.930640 17316 net.cpp:137] Memory required for data: 883049204
I0418 20:15:26.930654 17316 layer_factory.hpp:77] Creating layer score_score_0_split
I0418 20:15:26.930662 17316 net.cpp:84] Creating Layer score_score_0_split
I0418 20:15:26.930668 17316 net.cpp:406] score_score_0_split <- score
I0418 20:15:26.930676 17316 net.cpp:380] score_score_0_split -> score_score_0_split_0
I0418 20:15:26.930687 17316 net.cpp:380] score_score_0_split -> score_score_0_split_1
I0418 20:15:26.930754 17316 net.cpp:122] Setting up score_score_0_split
I0418 20:15:26.930775 17316 net.cpp:129] Top shape: 1 3 512 310 (476160)
I0418 20:15:26.930783 17316 net.cpp:129] Top shape: 1 3 512 310 (476160)
I0418 20:15:26.930786 17316 net.cpp:137] Memory required for data: 886858484
I0418 20:15:26.930791 17316 layer_factory.hpp:77] Creating layer prob
I0418 20:15:26.930799 17316 net.cpp:84] Creating Layer prob
I0418 20:15:26.930805 17316 net.cpp:406] prob <- score_score_0_split_0
I0418 20:15:26.930812 17316 net.cpp:380] prob -> prob
I0418 20:15:26.931135 17316 net.cpp:122] Setting up prob
I0418 20:15:26.931150 17316 net.cpp:129] Top shape: 1 3 512 310 (476160)
I0418 20:15:26.931155 17316 net.cpp:137] Memory required for data: 888763124
I0418 20:15:26.931166 17316 layer_factory.hpp:77] Creating layer saliency
I0418 20:15:26.931191 17316 net.cpp:84] Creating Layer saliency
I0418 20:15:26.931197 17316 net.cpp:406] saliency <- prob
I0418 20:15:26.931210 17316 net.cpp:380] saliency -> saliency
I0418 20:15:26.934412 17316 net.cpp:122] Setting up saliency
I0418 20:15:26.934434 17316 net.cpp:129] Top shape: 1 3 512 310 (476160)
I0418 20:15:26.934440 17316 net.cpp:137] Memory required for data: 890667764
I0418 20:15:26.934461 17316 layer_factory.hpp:77] Creating layer silence_saliency
I0418 20:15:26.934474 17316 net.cpp:84] Creating Layer silence_saliency
I0418 20:15:26.934480 17316 net.cpp:406] silence_saliency <- saliency
I0418 20:15:26.934490 17316 net.cpp:122] Setting up silence_saliency
I0418 20:15:26.934495 17316 net.cpp:137] Memory required for data: 890667764
I0418 20:15:26.934500 17316 layer_factory.hpp:77] Creating layer crop
I0418 20:15:26.935463 17316 net.cpp:84] Creating Layer crop
I0418 20:15:26.935479 17316 net.cpp:406] crop <- label_data_1_split_0
I0418 20:15:26.935498 17316 net.cpp:406] crop <- data_data_0_split_2
I0418 20:15:26.935513 17316 net.cpp:406] crop <- crop_margin
I0418 20:15:26.935520 17316 net.cpp:406] crop <- crop_prob
I0418 20:15:26.935526 17316 net.cpp:406] crop <- crop_sample_batch
I0418 20:15:26.935535 17316 net.cpp:380] crop -> data-R
I0418 20:15:26.935547 17316 net.cpp:380] crop -> crop_info
I0418 20:15:26.944363 17316 net.cpp:122] Setting up crop
I0418 20:15:26.944401 17316 net.cpp:129] Top shape: 1 3 512 310 (476160)
I0418 20:15:26.944409 17316 net.cpp:129] Top shape: 1 2 4 (8)
I0418 20:15:26.944413 17316 net.cpp:137] Memory required for data: 892572436
I0418 20:15:26.944419 17316 layer_factory.hpp:77] Creating layer data-R_crop_0_split
I0418 20:15:26.944429 17316 net.cpp:84] Creating Layer data-R_crop_0_split
I0418 20:15:26.944437 17316 net.cpp:406] data-R_crop_0_split <- data-R
I0418 20:15:26.944445 17316 net.cpp:380] data-R_crop_0_split -> data-R_crop_0_split_0
I0418 20:15:26.944456 17316 net.cpp:380] data-R_crop_0_split -> data-R_crop_0_split_1
I0418 20:15:26.944507 17316 net.cpp:122] Setting up data-R_crop_0_split
I0418 20:15:26.944514 17316 net.cpp:129] Top shape: 1 3 512 310 (476160)
I0418 20:15:26.944519 17316 net.cpp:129] Top shape: 1 3 512 310 (476160)
I0418 20:15:26.944525 17316 net.cpp:137] Memory required for data: 896381716
I0418 20:15:26.944528 17316 layer_factory.hpp:77] Creating layer conv1_1-R
I0418 20:15:26.944548 17316 net.cpp:84] Creating Layer conv1_1-R
I0418 20:15:26.944555 17316 net.cpp:406] conv1_1-R <- data-R_crop_0_split_0
I0418 20:15:26.944581 17316 net.cpp:380] conv1_1-R -> conv1_1-R
I0418 20:15:26.948436 17316 net.cpp:122] Setting up conv1_1-R
I0418 20:15:26.948456 17316 net.cpp:129] Top shape: 1 64 710 508 (23083520)
I0418 20:15:26.948469 17316 net.cpp:137] Memory required for data: 988715796
I0418 20:15:26.948489 17316 layer_factory.hpp:77] Creating layer relu1_1-R
I0418 20:15:26.948499 17316 net.cpp:84] Creating Layer relu1_1-R
I0418 20:15:26.948504 17316 net.cpp:406] relu1_1-R <- conv1_1-R
I0418 20:15:26.948513 17316 net.cpp:367] relu1_1-R -> conv1_1-R (in-place)
I0418 20:15:26.948770 17316 net.cpp:122] Setting up relu1_1-R
I0418 20:15:26.948784 17316 net.cpp:129] Top shape: 1 64 710 508 (23083520)
I0418 20:15:26.948789 17316 net.cpp:137] Memory required for data: 1081049876
I0418 20:15:26.948794 17316 layer_factory.hpp:77] Creating layer conv1_2-R
I0418 20:15:26.948856 17316 net.cpp:84] Creating Layer conv1_2-R
I0418 20:15:26.948866 17316 net.cpp:406] conv1_2-R <- conv1_1-R
I0418 20:15:26.948882 17316 net.cpp:380] conv1_2-R -> conv1_2-R
I0418 20:15:26.953003 17316 net.cpp:122] Setting up conv1_2-R
I0418 20:15:26.953035 17316 net.cpp:129] Top shape: 1 64 710 508 (23083520)
I0418 20:15:26.953042 17316 net.cpp:137] Memory required for data: 1173383956
I0418 20:15:26.953052 17316 layer_factory.hpp:77] Creating layer relu1_2-R
I0418 20:15:26.953060 17316 net.cpp:84] Creating Layer relu1_2-R
I0418 20:15:26.953066 17316 net.cpp:406] relu1_2-R <- conv1_2-R
I0418 20:15:26.953073 17316 net.cpp:367] relu1_2-R -> conv1_2-R (in-place)
I0418 20:15:26.953317 17316 net.cpp:122] Setting up relu1_2-R
I0418 20:15:26.953330 17316 net.cpp:129] Top shape: 1 64 710 508 (23083520)
I0418 20:15:26.953336 17316 net.cpp:137] Memory required for data: 1265718036
I0418 20:15:26.953341 17316 layer_factory.hpp:77] Creating layer pool1-R
I0418 20:15:26.953354 17316 net.cpp:84] Creating Layer pool1-R
I0418 20:15:26.953359 17316 net.cpp:406] pool1-R <- conv1_2-R
I0418 20:15:26.953367 17316 net.cpp:380] pool1-R -> pool1-R
I0418 20:15:26.953449 17316 net.cpp:122] Setting up pool1-R
I0418 20:15:26.953459 17316 net.cpp:129] Top shape: 1 64 355 254 (5770880)
I0418 20:15:26.953462 17316 net.cpp:137] Memory required for data: 1288801556
I0418 20:15:26.953477 17316 layer_factory.hpp:77] Creating layer conv2_1-R
I0418 20:15:26.953488 17316 net.cpp:84] Creating Layer conv2_1-R
I0418 20:15:26.953493 17316 net.cpp:406] conv2_1-R <- pool1-R
I0418 20:15:26.953500 17316 net.cpp:380] conv2_1-R -> conv2_1-R
I0418 20:15:26.955703 17316 net.cpp:122] Setting up conv2_1-R
I0418 20:15:26.955720 17316 net.cpp:129] Top shape: 1 128 355 254 (11541760)
I0418 20:15:26.955736 17316 net.cpp:137] Memory required for data: 1334968596
I0418 20:15:26.955745 17316 layer_factory.hpp:77] Creating layer relu2_1-R
I0418 20:15:26.955756 17316 net.cpp:84] Creating Layer relu2_1-R
I0418 20:15:26.955762 17316 net.cpp:406] relu2_1-R <- conv2_1-R
I0418 20:15:26.955771 17316 net.cpp:367] relu2_1-R -> conv2_1-R (in-place)
I0418 20:15:26.956032 17316 net.cpp:122] Setting up relu2_1-R
I0418 20:15:26.956045 17316 net.cpp:129] Top shape: 1 128 355 254 (11541760)
I0418 20:15:26.956050 17316 net.cpp:137] Memory required for data: 1381135636
I0418 20:15:26.956054 17316 layer_factory.hpp:77] Creating layer conv2_2-R
I0418 20:15:26.956068 17316 net.cpp:84] Creating Layer conv2_2-R
I0418 20:15:26.956073 17316 net.cpp:406] conv2_2-R <- conv2_1-R
I0418 20:15:26.956084 17316 net.cpp:380] conv2_2-R -> conv2_2-R
I0418 20:15:26.959764 17316 net.cpp:122] Setting up conv2_2-R
I0418 20:15:26.959784 17316 net.cpp:129] Top shape: 1 128 355 254 (11541760)
I0418 20:15:26.959800 17316 net.cpp:137] Memory required for data: 1427302676
I0418 20:15:26.959810 17316 layer_factory.hpp:77] Creating layer relu2_2-R
I0418 20:15:26.959821 17316 net.cpp:84] Creating Layer relu2_2-R
I0418 20:15:26.959826 17316 net.cpp:406] relu2_2-R <- conv2_2-R
I0418 20:15:26.959834 17316 net.cpp:367] relu2_2-R -> conv2_2-R (in-place)
I0418 20:15:26.961222 17316 net.cpp:122] Setting up relu2_2-R
I0418 20:15:26.961272 17316 net.cpp:129] Top shape: 1 128 355 254 (11541760)
I0418 20:15:26.961277 17316 net.cpp:137] Memory required for data: 1473469716
I0418 20:15:26.961287 17316 layer_factory.hpp:77] Creating layer pool2-R
I0418 20:15:26.961302 17316 net.cpp:84] Creating Layer pool2-R
I0418 20:15:26.961308 17316 net.cpp:406] pool2-R <- conv2_2-R
I0418 20:15:26.961338 17316 net.cpp:380] pool2-R -> pool2-R
I0418 20:15:26.961422 17316 net.cpp:122] Setting up pool2-R
I0418 20:15:26.961431 17316 net.cpp:129] Top shape: 1 128 178 127 (2893568)
I0418 20:15:26.961434 17316 net.cpp:137] Memory required for data: 1485043988
I0418 20:15:26.961438 17316 layer_factory.hpp:77] Creating layer conv3_1-R
I0418 20:15:26.961447 17316 net.cpp:84] Creating Layer conv3_1-R
I0418 20:15:26.961452 17316 net.cpp:406] conv3_1-R <- pool2-R
I0418 20:15:26.961465 17316 net.cpp:380] conv3_1-R -> conv3_1-R
I0418 20:15:26.966768 17316 net.cpp:122] Setting up conv3_1-R
I0418 20:15:26.966800 17316 net.cpp:129] Top shape: 1 256 178 127 (5787136)
I0418 20:15:26.966804 17316 net.cpp:137] Memory required for data: 1508192532
I0418 20:15:26.966814 17316 layer_factory.hpp:77] Creating layer relu3_1-R
I0418 20:15:26.966825 17316 net.cpp:84] Creating Layer relu3_1-R
I0418 20:15:26.966830 17316 net.cpp:406] relu3_1-R <- conv3_1-R
I0418 20:15:26.966836 17316 net.cpp:367] relu3_1-R -> conv3_1-R (in-place)
I0418 20:15:26.967059 17316 net.cpp:122] Setting up relu3_1-R
I0418 20:15:26.967072 17316 net.cpp:129] Top shape: 1 256 178 127 (5787136)
I0418 20:15:26.967074 17316 net.cpp:137] Memory required for data: 1531341076
I0418 20:15:26.967078 17316 layer_factory.hpp:77] Creating layer conv3_2-R
I0418 20:15:26.967092 17316 net.cpp:84] Creating Layer conv3_2-R
I0418 20:15:26.967095 17316 net.cpp:406] conv3_2-R <- conv3_1-R
I0418 20:15:26.967101 17316 net.cpp:380] conv3_2-R -> conv3_2-R
I0418 20:15:26.971398 17316 net.cpp:122] Setting up conv3_2-R
I0418 20:15:26.971422 17316 net.cpp:129] Top shape: 1 256 178 127 (5787136)
I0418 20:15:26.971436 17316 net.cpp:137] Memory required for data: 1554489620
I0418 20:15:26.971498 17316 layer_factory.hpp:77] Creating layer relu3_2-R
I0418 20:15:26.971508 17316 net.cpp:84] Creating Layer relu3_2-R
I0418 20:15:26.971514 17316 net.cpp:406] relu3_2-R <- conv3_2-R
I0418 20:15:26.971523 17316 net.cpp:367] relu3_2-R -> conv3_2-R (in-place)
I0418 20:15:26.971869 17316 net.cpp:122] Setting up relu3_2-R
I0418 20:15:26.971882 17316 net.cpp:129] Top shape: 1 256 178 127 (5787136)
I0418 20:15:26.971887 17316 net.cpp:137] Memory required for data: 1577638164
I0418 20:15:26.971901 17316 layer_factory.hpp:77] Creating layer conv3_3-R
I0418 20:15:26.971920 17316 net.cpp:84] Creating Layer conv3_3-R
I0418 20:15:26.971926 17316 net.cpp:406] conv3_3-R <- conv3_2-R
I0418 20:15:26.971935 17316 net.cpp:380] conv3_3-R -> conv3_3-R
I0418 20:15:26.977345 17316 net.cpp:122] Setting up conv3_3-R
I0418 20:15:26.977385 17316 net.cpp:129] Top shape: 1 256 178 127 (5787136)
I0418 20:15:26.977393 17316 net.cpp:137] Memory required for data: 1600786708
I0418 20:15:26.977409 17316 layer_factory.hpp:77] Creating layer relu3_3-R
I0418 20:15:26.977422 17316 net.cpp:84] Creating Layer relu3_3-R
I0418 20:15:26.977432 17316 net.cpp:406] relu3_3-R <- conv3_3-R
I0418 20:15:26.977443 17316 net.cpp:367] relu3_3-R -> conv3_3-R (in-place)
I0418 20:15:26.977856 17316 net.cpp:122] Setting up relu3_3-R
I0418 20:15:26.977876 17316 net.cpp:129] Top shape: 1 256 178 127 (5787136)
I0418 20:15:26.977885 17316 net.cpp:137] Memory required for data: 1623935252
I0418 20:15:26.977901 17316 layer_factory.hpp:77] Creating layer pool3-R
I0418 20:15:26.977923 17316 net.cpp:84] Creating Layer pool3-R
I0418 20:15:26.977932 17316 net.cpp:406] pool3-R <- conv3_3-R
I0418 20:15:26.977944 17316 net.cpp:380] pool3-R -> pool3-R
I0418 20:15:26.978045 17316 net.cpp:122] Setting up pool3-R
I0418 20:15:26.978061 17316 net.cpp:129] Top shape: 1 256 89 64 (1458176)
I0418 20:15:26.978080 17316 net.cpp:137] Memory required for data: 1629767956
I0418 20:15:26.978102 17316 layer_factory.hpp:77] Creating layer pool3-R_pool3-R_0_split
I0418 20:15:26.978116 17316 net.cpp:84] Creating Layer pool3-R_pool3-R_0_split
I0418 20:15:26.978123 17316 net.cpp:406] pool3-R_pool3-R_0_split <- pool3-R
I0418 20:15:26.978135 17316 net.cpp:380] pool3-R_pool3-R_0_split -> pool3-R_pool3-R_0_split_0
I0418 20:15:26.978150 17316 net.cpp:380] pool3-R_pool3-R_0_split -> pool3-R_pool3-R_0_split_1
I0418 20:15:26.978271 17316 net.cpp:122] Setting up pool3-R_pool3-R_0_split
I0418 20:15:26.978289 17316 net.cpp:129] Top shape: 1 256 89 64 (1458176)
I0418 20:15:26.978299 17316 net.cpp:129] Top shape: 1 256 89 64 (1458176)
I0418 20:15:26.978307 17316 net.cpp:137] Memory required for data: 1641433364
I0418 20:15:26.978313 17316 layer_factory.hpp:77] Creating layer conv4_1-R
I0418 20:15:26.978341 17316 net.cpp:84] Creating Layer conv4_1-R
I0418 20:15:26.978350 17316 net.cpp:406] conv4_1-R <- pool3-R_pool3-R_0_split_0
I0418 20:15:26.978363 17316 net.cpp:380] conv4_1-R -> conv4_1-R
I0418 20:15:26.984352 17316 net.cpp:122] Setting up conv4_1-R
I0418 20:15:26.984391 17316 net.cpp:129] Top shape: 1 512 89 64 (2916352)
I0418 20:15:26.984397 17316 net.cpp:137] Memory required for data: 1653098772
I0418 20:15:26.984408 17316 layer_factory.hpp:77] Creating layer relu4_1-R
I0418 20:15:26.984422 17316 net.cpp:84] Creating Layer relu4_1-R
I0418 20:15:26.984428 17316 net.cpp:406] relu4_1-R <- conv4_1-R
I0418 20:15:26.984436 17316 net.cpp:367] relu4_1-R -> conv4_1-R (in-place)
I0418 20:15:26.984683 17316 net.cpp:122] Setting up relu4_1-R
I0418 20:15:26.984696 17316 net.cpp:129] Top shape: 1 512 89 64 (2916352)
I0418 20:15:26.984700 17316 net.cpp:137] Memory required for data: 1664764180
I0418 20:15:26.984705 17316 layer_factory.hpp:77] Creating layer conv4_2-R
I0418 20:15:26.984732 17316 net.cpp:84] Creating Layer conv4_2-R
I0418 20:15:26.984737 17316 net.cpp:406] conv4_2-R <- conv4_1-R
I0418 20:15:26.984745 17316 net.cpp:380] conv4_2-R -> conv4_2-R
I0418 20:15:26.994509 17316 net.cpp:122] Setting up conv4_2-R
I0418 20:15:26.994544 17316 net.cpp:129] Top shape: 1 512 89 64 (2916352)
I0418 20:15:26.994550 17316 net.cpp:137] Memory required for data: 1676429588
I0418 20:15:26.994561 17316 layer_factory.hpp:77] Creating layer relu4_2-R
I0418 20:15:26.994582 17316 net.cpp:84] Creating Layer relu4_2-R
I0418 20:15:26.994588 17316 net.cpp:406] relu4_2-R <- conv4_2-R
I0418 20:15:26.994596 17316 net.cpp:367] relu4_2-R -> conv4_2-R (in-place)
I0418 20:15:26.994838 17316 net.cpp:122] Setting up relu4_2-R
I0418 20:15:26.994853 17316 net.cpp:129] Top shape: 1 512 89 64 (2916352)
I0418 20:15:26.994856 17316 net.cpp:137] Memory required for data: 1688094996
I0418 20:15:26.994861 17316 layer_factory.hpp:77] Creating layer conv4_3-R
I0418 20:15:26.994874 17316 net.cpp:84] Creating Layer conv4_3-R
I0418 20:15:26.994879 17316 net.cpp:406] conv4_3-R <- conv4_2-R
I0418 20:15:26.994887 17316 net.cpp:380] conv4_3-R -> conv4_3-R
I0418 20:15:27.003460 17316 net.cpp:122] Setting up conv4_3-R
I0418 20:15:27.003481 17316 net.cpp:129] Top shape: 1 512 89 64 (2916352)
I0418 20:15:27.003496 17316 net.cpp:137] Memory required for data: 1699760404
I0418 20:15:27.003506 17316 layer_factory.hpp:77] Creating layer relu4_3-R
I0418 20:15:27.003515 17316 net.cpp:84] Creating Layer relu4_3-R
I0418 20:15:27.003521 17316 net.cpp:406] relu4_3-R <- conv4_3-R
I0418 20:15:27.003530 17316 net.cpp:367] relu4_3-R -> conv4_3-R (in-place)
I0418 20:15:27.004271 17316 net.cpp:122] Setting up relu4_3-R
I0418 20:15:27.004289 17316 net.cpp:129] Top shape: 1 512 89 64 (2916352)
I0418 20:15:27.004294 17316 net.cpp:137] Memory required for data: 1711425812
I0418 20:15:27.004304 17316 layer_factory.hpp:77] Creating layer pool4-R
I0418 20:15:27.004328 17316 net.cpp:84] Creating Layer pool4-R
I0418 20:15:27.004334 17316 net.cpp:406] pool4-R <- conv4_3-R
I0418 20:15:27.004343 17316 net.cpp:380] pool4-R -> pool4-R
I0418 20:15:27.004407 17316 net.cpp:122] Setting up pool4-R
I0418 20:15:27.004415 17316 net.cpp:129] Top shape: 1 512 45 32 (737280)
I0418 20:15:27.004420 17316 net.cpp:137] Memory required for data: 1714374932
I0418 20:15:27.004431 17316 layer_factory.hpp:77] Creating layer pool4-R_pool4-R_0_split
I0418 20:15:27.004441 17316 net.cpp:84] Creating Layer pool4-R_pool4-R_0_split
I0418 20:15:27.004446 17316 net.cpp:406] pool4-R_pool4-R_0_split <- pool4-R
I0418 20:15:27.004452 17316 net.cpp:380] pool4-R_pool4-R_0_split -> pool4-R_pool4-R_0_split_0
I0418 20:15:27.004462 17316 net.cpp:380] pool4-R_pool4-R_0_split -> pool4-R_pool4-R_0_split_1
I0418 20:15:27.004526 17316 net.cpp:122] Setting up pool4-R_pool4-R_0_split
I0418 20:15:27.004544 17316 net.cpp:129] Top shape: 1 512 45 32 (737280)
I0418 20:15:27.004550 17316 net.cpp:129] Top shape: 1 512 45 32 (737280)
I0418 20:15:27.004555 17316 net.cpp:137] Memory required for data: 1720273172
I0418 20:15:27.004559 17316 layer_factory.hpp:77] Creating layer conv5_1-R
I0418 20:15:27.004570 17316 net.cpp:84] Creating Layer conv5_1-R
I0418 20:15:27.004575 17316 net.cpp:406] conv5_1-R <- pool4-R_pool4-R_0_split_0
I0418 20:15:27.004582 17316 net.cpp:380] conv5_1-R -> conv5_1-R
I0418 20:15:27.012933 17316 net.cpp:122] Setting up conv5_1-R
I0418 20:15:27.012954 17316 net.cpp:129] Top shape: 1 512 45 32 (737280)
I0418 20:15:27.012960 17316 net.cpp:137] Memory required for data: 1723222292
I0418 20:15:27.012989 17316 layer_factory.hpp:77] Creating layer relu5_1-R
I0418 20:15:27.012998 17316 net.cpp:84] Creating Layer relu5_1-R
I0418 20:15:27.013005 17316 net.cpp:406] relu5_1-R <- conv5_1-R
I0418 20:15:27.013011 17316 net.cpp:367] relu5_1-R -> conv5_1-R (in-place)
I0418 20:15:27.013242 17316 net.cpp:122] Setting up relu5_1-R
I0418 20:15:27.013255 17316 net.cpp:129] Top shape: 1 512 45 32 (737280)
I0418 20:15:27.013259 17316 net.cpp:137] Memory required for data: 1726171412
I0418 20:15:27.013264 17316 layer_factory.hpp:77] Creating layer conv5_2-R
I0418 20:15:27.013275 17316 net.cpp:84] Creating Layer conv5_2-R
I0418 20:15:27.013280 17316 net.cpp:406] conv5_2-R <- conv5_1-R
I0418 20:15:27.013289 17316 net.cpp:380] conv5_2-R -> conv5_2-R
I0418 20:15:27.022092 17316 net.cpp:122] Setting up conv5_2-R
I0418 20:15:27.022114 17316 net.cpp:129] Top shape: 1 512 45 32 (737280)
I0418 20:15:27.022126 17316 net.cpp:137] Memory required for data: 1729120532
I0418 20:15:27.022188 17316 layer_factory.hpp:77] Creating layer relu5_2-R
I0418 20:15:27.022199 17316 net.cpp:84] Creating Layer relu5_2-R
I0418 20:15:27.022205 17316 net.cpp:406] relu5_2-R <- conv5_2-R
I0418 20:15:27.022213 17316 net.cpp:367] relu5_2-R -> conv5_2-R (in-place)
I0418 20:15:27.022467 17316 net.cpp:122] Setting up relu5_2-R
I0418 20:15:27.022482 17316 net.cpp:129] Top shape: 1 512 45 32 (737280)
I0418 20:15:27.022487 17316 net.cpp:137] Memory required for data: 1732069652
I0418 20:15:27.022491 17316 layer_factory.hpp:77] Creating layer conv5_3-R
I0418 20:15:27.022507 17316 net.cpp:84] Creating Layer conv5_3-R
I0418 20:15:27.022512 17316 net.cpp:406] conv5_3-R <- conv5_2-R
I0418 20:15:27.022521 17316 net.cpp:380] conv5_3-R -> conv5_3-R
I0418 20:15:27.032738 17316 net.cpp:122] Setting up conv5_3-R
I0418 20:15:27.032771 17316 net.cpp:129] Top shape: 1 512 45 32 (737280)
I0418 20:15:27.032778 17316 net.cpp:137] Memory required for data: 1735018772
I0418 20:15:27.032788 17316 layer_factory.hpp:77] Creating layer relu5_3-R
I0418 20:15:27.032799 17316 net.cpp:84] Creating Layer relu5_3-R
I0418 20:15:27.032805 17316 net.cpp:406] relu5_3-R <- conv5_3-R
I0418 20:15:27.032814 17316 net.cpp:367] relu5_3-R -> conv5_3-R (in-place)
I0418 20:15:27.033046 17316 net.cpp:122] Setting up relu5_3-R
I0418 20:15:27.033061 17316 net.cpp:129] Top shape: 1 512 45 32 (737280)
I0418 20:15:27.033064 17316 net.cpp:137] Memory required for data: 1737967892
I0418 20:15:27.033069 17316 layer_factory.hpp:77] Creating layer pool5-R
I0418 20:15:27.033099 17316 net.cpp:84] Creating Layer pool5-R
I0418 20:15:27.033105 17316 net.cpp:406] pool5-R <- conv5_3-R
I0418 20:15:27.033114 17316 net.cpp:380] pool5-R -> pool5-R
I0418 20:15:27.033179 17316 net.cpp:122] Setting up pool5-R
I0418 20:15:27.033190 17316 net.cpp:129] Top shape: 1 512 23 16 (188416)
I0418 20:15:27.033195 17316 net.cpp:137] Memory required for data: 1738721556
I0418 20:15:27.033205 17316 layer_factory.hpp:77] Creating layer fc6-R
I0418 20:15:27.033217 17316 net.cpp:84] Creating Layer fc6-R
I0418 20:15:27.033223 17316 net.cpp:406] fc6-R <- pool5-R
I0418 20:15:27.033232 17316 net.cpp:380] fc6-R -> fc6-R
I0418 20:15:27.343616 17316 net.cpp:122] Setting up fc6-R
I0418 20:15:27.343657 17316 net.cpp:129] Top shape: 1 4096 17 10 (696320)
I0418 20:15:27.343664 17316 net.cpp:137] Memory required for data: 1741506836
I0418 20:15:27.343677 17316 layer_factory.hpp:77] Creating layer relu6-R
I0418 20:15:27.343694 17316 net.cpp:84] Creating Layer relu6-R
I0418 20:15:27.343703 17316 net.cpp:406] relu6-R <- fc6-R
I0418 20:15:27.343713 17316 net.cpp:367] relu6-R -> fc6-R (in-place)
I0418 20:15:27.343941 17316 net.cpp:122] Setting up relu6-R
I0418 20:15:27.343955 17316 net.cpp:129] Top shape: 1 4096 17 10 (696320)
I0418 20:15:27.343960 17316 net.cpp:137] Memory required for data: 1744292116
I0418 20:15:27.343964 17316 layer_factory.hpp:77] Creating layer drop6-R
I0418 20:15:27.343984 17316 net.cpp:84] Creating Layer drop6-R
I0418 20:15:27.343989 17316 net.cpp:406] drop6-R <- fc6-R
I0418 20:15:27.343997 17316 net.cpp:367] drop6-R -> fc6-R (in-place)
I0418 20:15:27.344038 17316 net.cpp:122] Setting up drop6-R
I0418 20:15:27.344053 17316 net.cpp:129] Top shape: 1 4096 17 10 (696320)
I0418 20:15:27.344058 17316 net.cpp:137] Memory required for data: 1747077396
I0418 20:15:27.344061 17316 layer_factory.hpp:77] Creating layer fc7-R
I0418 20:15:27.344087 17316 net.cpp:84] Creating Layer fc7-R
I0418 20:15:27.344094 17316 net.cpp:406] fc7-R <- fc6-R
I0418 20:15:27.344102 17316 net.cpp:380] fc7-R -> fc7-R
I0418 20:15:27.399878 17316 net.cpp:122] Setting up fc7-R
I0418 20:15:27.399930 17316 net.cpp:129] Top shape: 1 4096 17 10 (696320)
I0418 20:15:27.399936 17316 net.cpp:137] Memory required for data: 1749862676
I0418 20:15:27.399950 17316 layer_factory.hpp:77] Creating layer relu7-R
I0418 20:15:27.399966 17316 net.cpp:84] Creating Layer relu7-R
I0418 20:15:27.399974 17316 net.cpp:406] relu7-R <- fc7-R
I0418 20:15:27.399984 17316 net.cpp:367] relu7-R -> fc7-R (in-place)
I0418 20:15:27.400241 17316 net.cpp:122] Setting up relu7-R
I0418 20:15:27.400254 17316 net.cpp:129] Top shape: 1 4096 17 10 (696320)
I0418 20:15:27.400259 17316 net.cpp:137] Memory required for data: 1752647956
I0418 20:15:27.400264 17316 layer_factory.hpp:77] Creating layer drop7-R
I0418 20:15:27.400274 17316 net.cpp:84] Creating Layer drop7-R
I0418 20:15:27.400279 17316 net.cpp:406] drop7-R <- fc7-R
I0418 20:15:27.400285 17316 net.cpp:367] drop7-R -> fc7-R (in-place)
I0418 20:15:27.400329 17316 net.cpp:122] Setting up drop7-R
I0418 20:15:27.400354 17316 net.cpp:129] Top shape: 1 4096 17 10 (696320)
I0418 20:15:27.400358 17316 net.cpp:137] Memory required for data: 1755433236
I0418 20:15:27.400363 17316 layer_factory.hpp:77] Creating layer score_fr-new-R
I0418 20:15:27.400405 17316 net.cpp:84] Creating Layer score_fr-new-R
I0418 20:15:27.400410 17316 net.cpp:406] score_fr-new-R <- fc7-R
I0418 20:15:27.400420 17316 net.cpp:380] score_fr-new-R -> score_fr-new-R
I0418 20:15:27.402005 17316 net.cpp:122] Setting up score_fr-new-R
I0418 20:15:27.402024 17316 net.cpp:129] Top shape: 1 3 17 10 (510)
I0418 20:15:27.402040 17316 net.cpp:137] Memory required for data: 1755435276
I0418 20:15:27.402047 17316 layer_factory.hpp:77] Creating layer upscore2-new-R
I0418 20:15:27.402068 17316 net.cpp:84] Creating Layer upscore2-new-R
I0418 20:15:27.402074 17316 net.cpp:406] upscore2-new-R <- score_fr-new-R
I0418 20:15:27.402083 17316 net.cpp:380] upscore2-new-R -> upscore2-new-R
I0418 20:15:27.402380 17316 net.cpp:122] Setting up upscore2-new-R
I0418 20:15:27.402392 17316 net.cpp:129] Top shape: 1 3 36 22 (2376)
I0418 20:15:27.402397 17316 net.cpp:137] Memory required for data: 1755444780
I0418 20:15:27.402405 17316 layer_factory.hpp:77] Creating layer upscore2-new-R_upscore2-new-R_0_split
I0418 20:15:27.402412 17316 net.cpp:84] Creating Layer upscore2-new-R_upscore2-new-R_0_split
I0418 20:15:27.402417 17316 net.cpp:406] upscore2-new-R_upscore2-new-R_0_split <- upscore2-new-R
I0418 20:15:27.402426 17316 net.cpp:380] upscore2-new-R_upscore2-new-R_0_split -> upscore2-new-R_upscore2-new-R_0_split_0
I0418 20:15:27.402434 17316 net.cpp:380] upscore2-new-R_upscore2-new-R_0_split -> upscore2-new-R_upscore2-new-R_0_split_1
I0418 20:15:27.402484 17316 net.cpp:122] Setting up upscore2-new-R_upscore2-new-R_0_split
I0418 20:15:27.402492 17316 net.cpp:129] Top shape: 1 3 36 22 (2376)
I0418 20:15:27.402496 17316 net.cpp:129] Top shape: 1 3 36 22 (2376)
I0418 20:15:27.402501 17316 net.cpp:137] Memory required for data: 1755463788
I0418 20:15:27.402505 17316 layer_factory.hpp:77] Creating layer score_pool4-new-R
I0418 20:15:27.402515 17316 net.cpp:84] Creating Layer score_pool4-new-R
I0418 20:15:27.402520 17316 net.cpp:406] score_pool4-new-R <- pool4-R_pool4-R_0_split_1
I0418 20:15:27.402534 17316 net.cpp:380] score_pool4-new-R -> score_pool4-new-R
I0418 20:15:27.404062 17316 net.cpp:122] Setting up score_pool4-new-R
I0418 20:15:27.404080 17316 net.cpp:129] Top shape: 1 3 45 32 (4320)
I0418 20:15:27.404085 17316 net.cpp:137] Memory required for data: 1755481068
I0418 20:15:27.404101 17316 layer_factory.hpp:77] Creating layer score_pool4c-R
I0418 20:15:27.404120 17316 net.cpp:84] Creating Layer score_pool4c-R
I0418 20:15:27.404126 17316 net.cpp:406] score_pool4c-R <- score_pool4-new-R
I0418 20:15:27.404134 17316 net.cpp:406] score_pool4c-R <- upscore2-new-R_upscore2-new-R_0_split_0
I0418 20:15:27.404140 17316 net.cpp:380] score_pool4c-R -> score_pool4c-R
I0418 20:15:27.404181 17316 net.cpp:122] Setting up score_pool4c-R
I0418 20:15:27.404187 17316 net.cpp:129] Top shape: 1 3 36 22 (2376)
I0418 20:15:27.404191 17316 net.cpp:137] Memory required for data: 1755490572
I0418 20:15:27.404196 17316 layer_factory.hpp:77] Creating layer fuse_pool4-R
I0418 20:15:27.404206 17316 net.cpp:84] Creating Layer fuse_pool4-R
I0418 20:15:27.404211 17316 net.cpp:406] fuse_pool4-R <- upscore2-new-R_upscore2-new-R_0_split_1
I0418 20:15:27.404217 17316 net.cpp:406] fuse_pool4-R <- score_pool4c-R
I0418 20:15:27.404223 17316 net.cpp:380] fuse_pool4-R -> fuse_pool4-R
I0418 20:15:27.404256 17316 net.cpp:122] Setting up fuse_pool4-R
I0418 20:15:27.404263 17316 net.cpp:129] Top shape: 1 3 36 22 (2376)
I0418 20:15:27.404268 17316 net.cpp:137] Memory required for data: 1755500076
I0418 20:15:27.404271 17316 layer_factory.hpp:77] Creating layer upscore_pool4-new-R
I0418 20:15:27.404280 17316 net.cpp:84] Creating Layer upscore_pool4-new-R
I0418 20:15:27.404285 17316 net.cpp:406] upscore_pool4-new-R <- fuse_pool4-R
I0418 20:15:27.404294 17316 net.cpp:380] upscore_pool4-new-R -> upscore_pool4-new-R
I0418 20:15:27.404557 17316 net.cpp:122] Setting up upscore_pool4-new-R
I0418 20:15:27.404568 17316 net.cpp:129] Top shape: 1 3 74 46 (10212)
I0418 20:15:27.404572 17316 net.cpp:137] Memory required for data: 1755540924
I0418 20:15:27.404578 17316 layer_factory.hpp:77] Creating layer upscore_pool4-new-R_upscore_pool4-new-R_0_split
I0418 20:15:27.404587 17316 net.cpp:84] Creating Layer upscore_pool4-new-R_upscore_pool4-new-R_0_split
I0418 20:15:27.404592 17316 net.cpp:406] upscore_pool4-new-R_upscore_pool4-new-R_0_split <- upscore_pool4-new-R
I0418 20:15:27.404598 17316 net.cpp:380] upscore_pool4-new-R_upscore_pool4-new-R_0_split -> upscore_pool4-new-R_upscore_pool4-new-R_0_split_0
I0418 20:15:27.404608 17316 net.cpp:380] upscore_pool4-new-R_upscore_pool4-new-R_0_split -> upscore_pool4-new-R_upscore_pool4-new-R_0_split_1
I0418 20:15:27.404655 17316 net.cpp:122] Setting up upscore_pool4-new-R_upscore_pool4-new-R_0_split
I0418 20:15:27.404664 17316 net.cpp:129] Top shape: 1 3 74 46 (10212)
I0418 20:15:27.404670 17316 net.cpp:129] Top shape: 1 3 74 46 (10212)
I0418 20:15:27.404673 17316 net.cpp:137] Memory required for data: 1755622620
I0418 20:15:27.404678 17316 layer_factory.hpp:77] Creating layer score_pool3-new-R
I0418 20:15:27.404688 17316 net.cpp:84] Creating Layer score_pool3-new-R
I0418 20:15:27.404693 17316 net.cpp:406] score_pool3-new-R <- pool3-R_pool3-R_0_split_1
I0418 20:15:27.404701 17316 net.cpp:380] score_pool3-new-R -> score_pool3-new-R
I0418 20:15:27.408053 17316 net.cpp:122] Setting up score_pool3-new-R
I0418 20:15:27.408074 17316 net.cpp:129] Top shape: 1 3 89 64 (17088)
I0418 20:15:27.408089 17316 net.cpp:137] Memory required for data: 1755690972
I0418 20:15:27.408098 17316 layer_factory.hpp:77] Creating layer score_pool3c-R
I0418 20:15:27.408108 17316 net.cpp:84] Creating Layer score_pool3c-R
I0418 20:15:27.408114 17316 net.cpp:406] score_pool3c-R <- score_pool3-new-R
I0418 20:15:27.408121 17316 net.cpp:406] score_pool3c-R <- upscore_pool4-new-R_upscore_pool4-new-R_0_split_0
I0418 20:15:27.408129 17316 net.cpp:380] score_pool3c-R -> score_pool3c-R
I0418 20:15:27.408171 17316 net.cpp:122] Setting up score_pool3c-R
I0418 20:15:27.408179 17316 net.cpp:129] Top shape: 1 3 74 46 (10212)
I0418 20:15:27.408183 17316 net.cpp:137] Memory required for data: 1755731820
I0418 20:15:27.408200 17316 layer_factory.hpp:77] Creating layer fuse_pool3-R
I0418 20:15:27.408213 17316 net.cpp:84] Creating Layer fuse_pool3-R
I0418 20:15:27.408219 17316 net.cpp:406] fuse_pool3-R <- upscore_pool4-new-R_upscore_pool4-new-R_0_split_1
I0418 20:15:27.408226 17316 net.cpp:406] fuse_pool3-R <- score_pool3c-R
I0418 20:15:27.408233 17316 net.cpp:380] fuse_pool3-R -> fuse_pool3-R
I0418 20:15:27.408273 17316 net.cpp:122] Setting up fuse_pool3-R
I0418 20:15:27.408298 17316 net.cpp:129] Top shape: 1 3 74 46 (10212)
I0418 20:15:27.408301 17316 net.cpp:137] Memory required for data: 1755772668
I0418 20:15:27.408306 17316 layer_factory.hpp:77] Creating layer upscore8-new-R
I0418 20:15:27.408315 17316 net.cpp:84] Creating Layer upscore8-new-R
I0418 20:15:27.408320 17316 net.cpp:406] upscore8-new-R <- fuse_pool3-R
I0418 20:15:27.408327 17316 net.cpp:380] upscore8-new-R -> upscore8-new-R
I0418 20:15:27.408663 17316 net.cpp:122] Setting up upscore8-new-R
I0418 20:15:27.408674 17316 net.cpp:129] Top shape: 1 3 600 376 (676800)
I0418 20:15:27.408679 17316 net.cpp:137] Memory required for data: 1758479868
I0418 20:15:27.408692 17316 layer_factory.hpp:77] Creating layer upscore8_cropped-R
I0418 20:15:27.408700 17316 net.cpp:84] Creating Layer upscore8_cropped-R
I0418 20:15:27.408705 17316 net.cpp:406] upscore8_cropped-R <- upscore8-new-R
I0418 20:15:27.408712 17316 net.cpp:406] upscore8_cropped-R <- data-R_crop_0_split_1
I0418 20:15:27.408720 17316 net.cpp:380] upscore8_cropped-R -> upscore8_cropped-R
I0418 20:15:27.408756 17316 net.cpp:122] Setting up upscore8_cropped-R
I0418 20:15:27.408763 17316 net.cpp:129] Top shape: 1 3 512 310 (476160)
I0418 20:15:27.408767 17316 net.cpp:137] Memory required for data: 1760384508
I0418 20:15:27.408771 17316 layer_factory.hpp:77] Creating layer score-R
I0418 20:15:27.408794 17316 net.cpp:84] Creating Layer score-R
I0418 20:15:27.408800 17316 net.cpp:406] score-R <- upscore8_cropped-R
I0418 20:15:27.408808 17316 net.cpp:380] score-R -> score-R
I0418 20:15:27.411260 17316 net.cpp:122] Setting up score-R
I0418 20:15:27.411280 17316 net.cpp:129] Top shape: 1 3 512 310 (476160)
I0418 20:15:27.411285 17316 net.cpp:137] Memory required for data: 1762289148
I0418 20:15:27.411298 17316 layer_factory.hpp:77] Creating layer score_uncropped-R
I0418 20:15:27.411676 17316 net.cpp:84] Creating Layer score_uncropped-R
I0418 20:15:27.411692 17316 net.cpp:406] score_uncropped-R <- crop_info
I0418 20:15:27.411710 17316 net.cpp:406] score_uncropped-R <- score-R
I0418 20:15:27.411716 17316 net.cpp:406] score_uncropped-R <- data_data_0_split_3
I0418 20:15:27.411725 17316 net.cpp:380] score_uncropped-R -> score_uncropped-R
I0418 20:15:27.413684 17316 net.cpp:122] Setting up score_uncropped-R
I0418 20:15:27.413704 17316 net.cpp:129] Top shape: 1 3 512 310 (476160)
I0418 20:15:27.413718 17316 net.cpp:137] Memory required for data: 1764193788
I0418 20:15:27.413724 17316 layer_factory.hpp:77] Creating layer loss1
I0418 20:15:27.413743 17316 net.cpp:84] Creating Layer loss1
I0418 20:15:27.413748 17316 net.cpp:406] loss1 <- score_score_0_split_1
I0418 20:15:27.413755 17316 net.cpp:406] loss1 <- label_data_1_split_1
I0418 20:15:27.413763 17316 net.cpp:380] loss1 -> loss1
…
snapshot_prefix: "/media/Med_2T2/data2/models/snapshots/indiv:1e-5x10,20/FD3:XI3_1_20180418_201524/train"
test_initialization: false
average_loss: 20
stepvalue: 40000
iter_size: 1
I0418 21:16:16.393210 17316 solver.cpp:77] Creating training net from train_net file: /media/Med_2T2/data2/prototxts/training_I3x10.prototxt
I0418 21:16:16.396075 17316 net.cpp:51] Initializing net from parameters: 
state {
  phase: TRAIN
}
layer {
  name: "data"
  type: "Python"
  top: "data"
  top: "label"
  top: "crop_margin"
  top: "crop_prob"
  top: "crop_sample_batch"
  python_param {
    module: "Data"
    layer: "DataLayer"
  }
}
layer {
  name: "conv1_1"
  type: "Convolution"
  bottom: "data"
  top: "conv1_1"
  param {
    lr_mult: 1
    decay_mult: 1
  }
  param {
    lr_mult: 2
    decay_mult: 0
  }
  convolution_param {
    num_output: 64
    pad: 100
    kernel_size: 3
    stride: 1
  }
}
layer {
  name: "relu1_1"
  type: "ReLU"
  bottom: "conv1_1"
  top: "conv1_1"
}
layer {
  name: "conv1_2"
  type: "Convolution"
  bottom: "conv1_1"
  top: "conv1_2"
  param {
    lr_mult: 1
    decay_mult: 1
  }
  param {
    lr_mult: 2
    decay_mult: 0
  }
  convolution_param {
    num_output: 64
    pad: 1
    kernel_size: 3
    stride: 1
  }
}
layer {
  name: "relu1_2"
  type: "ReLU"
  bottom: "conv1_2"
  top: "conv1_2"
}
layer {
  name: "pool1"
  type: "Pooling"
  bottom: "conv1_2"
  top: "pool1"
  pooling_param {
    pool: MAX
    kernel_size: 2
    stride: 2
  }
}
layer {
  name: "conv2_1"
  type: "Convolution"
  bottom: "pool1"
  top: "conv2_1"
  param {
    lr_mult: 1
    decay_mult: 1
  }
  param {
    lr_mult: 2
    decay_mult: 0
  }
  convolution_param {
    num_output: 128
    pad: 1
    kernel_size: 3
    stride: 1
  }
}
layer {
  name: "relu2_1"
  type: "ReLU"
  bottom: "conv2_1"
  top: "conv2_1"
}
layer {
  name: "conv2_2"
  type: "Convolution"
  bottom: "conv2_1"
  top: "conv2_2"
  param {
    lr_mult: 1
    decay_mult: 1
  }
  param {
    lr_mult: 2
    decay_mult: 0
  }
  convolution_param {
    num_output: 128
    pad: 1
    kernel_size: 3
    stride: 1
  }
}
layer {
  name: "relu2_2"
  type: "ReLU"
  bottom: "conv2_2"
  top: "conv2_2"
}
layer {
  name: "pool2"
  type: "Pooling"
  bottom: "conv2_2"
  top: "pool2"
  pooling_param {
    pool: MAX
    kernel_size: 2
    stride: 2
  }
}
layer {
  name: "conv3_1"
  type: "Convolution"
  bottom: "pool2"
  top: "conv3_1"
  param {
    lr_mult: 1
    decay_mult: 1
  }
  param {
    lr_mult: 2
    decay_mult: 0
  }
  convolution_param {
    num_output: 256
    pad: 1
    kernel_size: 3
    stride: 1
  }
}
layer {
  name: "relu3_1"
  type: "ReLU"
  bottom: "conv3_1"
  top: "conv3_1"
}
layer {
  name: "conv3_2"
  type: "Convolution"
  bottom: "conv3_1"
  top: "conv3_2"
  param {
    lr_mult: 1
    decay_mult: 1
  }
  param {
    lr_mult: 2
    decay_mult: 0
  }
  convolution_param {
    num_output: 256
    pad: 1
    kernel_size: 3
    stride: 1
  }
}
layer {
  name: "relu3_2"
  type: "ReLU"
  bottom: "conv3_2"
  top: "conv3_2"
}
layer {
  name: "conv3_3"
  type: "Convolution"
  bottom: "conv3_2"
  top: "conv3_3"
  param {
    lr_mult: 1
    decay_mult: 1
  }
  param {
    lr_mult: 2
    decay_mult: 0
  }
  convolution_param {
    num_output: 256
    pad: 1
    kernel_size: 3
    stride: 1
  }
}
layer {
  name: "relu3_3"
  type: "ReLU"
  bottom: "conv3_3"
  top: "conv3_3"
}
layer {
  name: "pool3"
  type: "Pooling"
  bottom: "conv3_3"
  top: "pool3"
  pooling_param {
    pool: MAX
    kernel_size: 2
    stride: 2
  }
}
layer {
  name: "conv4_1"
  type: "Convolution"
  bottom: "pool3"
  top: "conv4_1"
  param {
    lr_mult: 1
    decay_mult: 1
  }
  param {
    lr_mult: 2
    decay_mult: 0
  }
  convolution_param {
    num_output: 512
    pad: 1
    kernel_size: 3
    stride: 1
  }
}
layer {
  name: "relu4_1"
  type: "ReLU"
  bottom: "conv4_1"
  top: "conv4_1"
}
layer {
  name: "conv4_2"
  type: "Convolution"
  bottom: "conv4_1"
  top: "conv4_2"
  param {
    lr_mult: 1
    decay_mult: 1
  }
  param {
    lr_mult: 2
    decay_mult: 0
  }
  convolution_param {
    num_output: 512
    pad: 1
    kernel_size: 3
    stride: 1
  }
}
layer {
  name: "relu4_2"
  type: "ReLU"
  bottom: "conv4_2"
  top: "conv4_2"
}
layer {
  name: "conv4_3"
  type: "Convolution"
  bottom: "conv4_2"
  top: "conv4_3"
  param {
    lr_mult: 1
    decay_mult: 1
  }
  param {
    lr_mult: 2
    decay_mult: 0
  }
  convolution_param {
    num_output: 512
    pad: 1
    kernel_size: 3
    stride: 1
  }
}
layer {
  name: "relu4_3"
  type: "ReLU"
  bottom: "conv4_3"
  top: "conv4_3"
}
layer {
  name: "pool4"
  type: "Pooling"
  bottom: "conv4_3"
  top: "pool4"
  pooling_param {
    pool: MAX
    kernel_size: 2
    stride: 2
  }
}
layer {
  name: "conv5_1"
  type: "Convolution"
  bottom: "pool4"
  top: "conv5_1"
  param {
    lr_mult: 1
    decay_mult: 1
  }
  param {
    lr_mult: 2
    decay_mult: 0
  }
  convolution_param {
    num_output: 512
    pad: 1
    kernel_size: 3
    stride: 1
  }
}
layer {
  name: "relu5_1"
  type: "ReLU"
  bottom: "conv5_1"
  top: "conv5_1"
}
layer {
  name: "conv5_2"
  type: "Convolution"
  bottom: "conv5_1"
  top: "conv5_2"
  param {
    lr_mult: 1
    decay_mult: 1
  }
  param {
    lr_mult: 2
    decay_mult: 0
  }
  convolution_param {
    num_output: 512
    pad: 1
    kernel_size: 3
    stride: 1
  }
}
layer {
  name: "relu5_2"
  type: "ReLU"
  bottom: "conv5_2"
  top: "conv5_2"
}
layer {
  name: "conv5_3"
  type: "Convolution"
  bottom: "conv5_2"
  top: "conv5_3"
  param {
    lr_mult: 1
    decay_mult: 1
  }
  param {
    lr_mult: 2
    decay_mult: 0
  }
  convolution_param {
    num_output: 512
    pad: 1
    kernel_size: 3
    stride: 1
  }
}
layer {
  name: "relu5_3"
  type: "ReLU"
  bottom: "conv5_3"
  top: "conv5_3"
}
layer {
  name: "pool5"
  type: "Pooling"
  bottom: "conv5_3"
  top: "pool5"
  pooling_param {
    pool: MAX
    kernel_size: 2
    stride: 2
  }
}
layer {
  name: "fc6"
  type: "Convolution"
  bottom: "pool5"
  top: "fc6"
  param {
    lr_mult: 1
    decay_mult: 1
  }
  param {
    lr_mult: 2
    decay_mult: 0
  }
  convolution_param {
    num_output: 4096
    pad: 0
    kernel_size: 7
    stride: 1
  }
}
layer {
  name: "relu6"
  type: "ReLU"
  bottom: "fc6"
  top: "fc6"
}
layer {
  name: "drop6"
  type: "Dropout"
  bottom: "fc6"
  top: "fc6"
  dropout_param {
    dropout_ratio: 0.5
  }
}
layer {
  name: "fc7"
  type: "Convolution"
  bottom: "fc6"
  top: "fc7"
  param {
    lr_mult: 1
    decay_mult: 1
  }
  param {
    lr_mult: 2
    decay_mult: 0
  }
  convolution_param {
    num_output: 4096
    pad: 0
    kernel_size: 1
    stride: 1
  }
}
layer {
  name: "relu7"
  type: "ReLU"
  bottom: "fc7"
  top: "fc7"
}
layer {
  name: "drop7"
  type: "Dropout"
  bottom: "fc7"
  top: "fc7"
  dropout_param {
    dropout_ratio: 0.5
  }
}
layer {
  name: "score_fr-new"
  type: "Convolution"
  bottom: "fc7"
  top: "score_fr-new"
  param {
    lr_mult: 1
    decay_mult: 1
  }
  param {
    lr_mult: 2
    decay_mult: 0
  }
  convolution_param {
    num_output: 3
    kernel_size: 1
  }
}
layer {
  name: "upscore2-new"
  type: "Deconvolution"
  bottom: "score_fr-new"
  top: "upscore2-new"
  param {
    lr_mult: 0
  }
  convolution_param {
    num_output: 3
    bias_term: false
    kernel_size: 4
    stride: 2
  }
}
layer {
  name: "score_pool4-new"
  type: "Convolution"
  bottom: "pool4"
  top: "score_pool4-new"
  param {
    lr_mult: 1
    decay_mult: 1
  }
  param {
    lr_mult: 2
    decay_mult: 0
  }
  convolution_param {
    num_output: 3
    pad: 0
    kernel_size: 1
  }
}
layer {
  name: "score_pool4c"
  type: "Crop"
  bottom: "score_pool4-new"
  bottom: "upscore2-new"
  top: "score_pool4c"
  crop_param {
    axis: 2
    offset: 5
  }
}
layer {
  name: "fuse_pool4"
  type: "Eltwise"
  bottom: "upscore2-new"
  bottom: "score_pool4c"
  top: "fuse_pool4"
  eltwise_param {
    operation: SUM
  }
}
layer {
  name: "upscore_pool4-new"
  type: "Deconvolution"
  bottom: "fuse_pool4"
  top: "upscore_pool4-new"
  param {
    lr_mult: 0
  }
  convolution_param {
    num_output: 3
    bias_term: false
    kernel_size: 4
    stride: 2
  }
}
layer {
  name: "score_pool3-new"
  type: "Convolution"
  bottom: "pool3"
  top: "score_pool3-new"
  param {
    lr_mult: 1
    decay_mult: 1
  }
  param {
    lr_mult: 2
    decay_mult: 0
  }
  convolution_param {
    num_output: 3
    pad: 0
    kernel_size: 1
  }
}
layer {
  name: "score_pool3c"
  type: "Crop"
  bottom: "score_pool3-new"
  bottom: "upscore_pool4-new"
  top: "score_pool3c"
  crop_param {
    axis: 2
    offset: 9
  }
}
layer {
  name: "fuse_pool3"
  type: "Eltwise"
  bottom: "upscore_pool4-new"
  bottom: "score_pool3c"
  top: "fuse_pool3"
  eltwise_param {
    operation: SUM
  }
}
layer {
  name: "upscore8-new"
  type: "Deconvolution"
  bottom: "fuse_pool3"
  top: "upscore8-new"
  param {
    lr_mult: 0
  }
  convolution_param {
    num_output: 3
    bias_term: false
    kernel_size: 16
    stride: 8
  }
}
layer {
  name: "upscore8_cropped"
  type: "Crop"
  bottom: "upscore8-new"
  bottom: "data"
  top: "upscore8_cropped"
  crop_param {
    axis: 2
    offset: 31
  }
}
layer {
  name: "score"
  type: "Convolution"
  bottom: "upscore8_cropped"
  top: "score"
  param {
    lr_mult: 1
    decay_mult: 1
  }
  param {
    lr_mult: 2
    decay_mult: 0
  }
  convolution_param {
    num_output: 3
    pad: 1
    kernel_size: 3
    stride: 1
    weight_filler {
      type: "xavier"
    }
    bias_filler {
      type: "constant"
      value: 0
    }
  }
}
layer {
  name: "prob"
  type: "Sigmoid"
  bottom: "score"
  top: "prob"
}
layer {
  name: "saliency"
  type: "Convolution"
  bottom: "prob"
  top: "saliency"
  param {
    lr_mult: 10
    decay_mult: 1
  }
  param {
    lr_mult: 20
    decay_mult: 0
  }
  convolution_param {
    num_output: 3
    pad: 2
    kernel_size: 5
    stride: 1
    weight_filler {
      type: "xavier"
    }
    bias_filler {
      type: "constant"
      value: 1
    }
  }
}
layer {
  name: "saliency_data"
  type: "Eltwise"
  bottom: "data"
  bottom: "saliency"
  top: "saliency_data"
  eltwise_param {
    operation: PROD
  }
}
layer {
  name: "crop"
  type: "Python"
  bottom: "label"
  bottom: "saliency_data"
  bottom: "crop_margin"
  bottom: "crop_prob"
  bottom: "crop_sample_batch"
  top: "data-R"
  top: "crop_info"
  python_param {
    module: "Crop"
    layer: "CropLayer"
    param_str: "{\"TEST\": 0}"
  }
}
layer {
  name: "conv1_1-R"
  type: "Convolution"
  bottom: "data-R"
  top: "conv1_1-R"
  param {
    lr_mult: 10
    decay_mult: 1
  }
  param {
    lr_mult: 20
    decay_mult: 0
  }
  convolution_param {
    num_output: 64
    pad: 100
    kernel_size: 3
    stride: 1
  }
}
layer {
  name: "relu1_1-R"
  type: "ReLU"
  bottom: "conv1_1-R"
  top: "conv1_1-R"
}
layer {
  name: "conv1_2-R"
  type: "Convolution"
  bottom: "conv1_1-R"
  top: "conv1_2-R"
  param {
    lr_mult: 10
    decay_mult: 1
  }
  param {
    lr_mult: 20
    decay_mult: 0
  }
  convolution_param {
    num_output: 64
    pad: 1
    kernel_size: 3
    stride: 1
  }
}
layer {
  name: "relu1_2-R"
  type: "ReLU"
  bottom: "conv1_2-R"
  top: "conv1_2-R"
}
layer {
  name: "pool1-R"
  type: "Pooling"
  bottom: "conv1_2-R"
  top: "pool1-R"
  pooling_param {
    pool: MAX
    kernel_size: 2
    stride: 2
  }
}
layer {
  name: "conv2_1-R"
  type: "Convolution"
  bottom: "pool1-R"
  top: "conv2_1-R"
  param {
    lr_mult: 10
    decay_mult: 1
  }
  param {
    lr_mult: 20
    decay_mult: 0
  }
  convolution_param {
    num_output: 128
    pad: 1
    kernel_size: 3
    stride: 1
  }
}
layer {
  name: "relu2_1-R"
  type: "ReLU"
  bottom: "conv2_1-R"
  top: "conv2_1-R"
}
layer {
  name: "conv2_2-R"
  type: "Convolution"
  bottom: "conv2_1-R"
  top: "conv2_2-R"
  param {
    lr_mult: 10
    decay_mult: 1
  }
  param {
    lr_mult: 20
    decay_mult: 0
  }
  convolution_param {
    num_output: 128
    pad: 1
    kernel_size: 3
    stride: 1
  }
}
layer {
  name: "relu2_2-R"
  type: "ReLU"
  bottom: "conv2_2-R"
  top: "conv2_2-R"
}
layer {
  name: "pool2-R"
  type: "Pooling"
  bottom: "conv2_2-R"
  top: "pool2-R"
  pooling_param {
    pool: MAX
    kernel_size: 2
    stride: 2
  }
}
layer {
  name: "conv3_1-R"
  type: "Convolution"
  bottom: "pool2-R"
  top: "conv3_1-R"
  param {
    lr_mult: 10
    decay_mult: 1
  }
  param {
    lr_mult: 20
    decay_mult: 0
  }
  convolution_param {
    num_output: 256
    pad: 1
    kernel_size: 3
    stride: 1
  }
}
layer {
  name: "relu3_1-R"
  type: "ReLU"
  bottom: "conv3_1-R"
  top: "conv3_1-R"
}
layer {
  name: "conv3_2-R"
  type: "Convolution"
  bottom: "conv3_1-R"
  top: "conv3_2-R"
  param {
    lr_mult: 10
    decay_mult: 1
  }
  param {
    lr_mult: 20
    decay_mult: 0
  }
  convolution_param {
    num_output: 256
    pad: 1
    kernel_size: 3
    stride: 1
  }
}
layer {
  name: "relu3_2-R"
  type: "ReLU"
  bottom: "conv3_2-R"
  top: "conv3_2-R"
}
layer {
  name: "conv3_3-R"
  type: "Convolution"
  bottom: "conv3_2-R"
  top: "conv3_3-R"
  param {
    lr_mult: 10
    decay_mult: 1
  }
  param {
    lr_mult: 20
    decay_mult: 0
  }
  convolution_param {
    num_output: 256
    pad: 1
    kernel_size: 3
    stride: 1
  }
}
layer {
  name: "relu3_3-R"
  type: "ReLU"
  bottom: "conv3_3-R"
  top: "conv3_3-R"
}
layer {
  name: "pool3-R"
  type: "Pooling"
  bottom: "conv3_3-R"
  top: "pool3-R"
  pooling_param {
    pool: MAX
    kernel_size: 2
    stride: 2
  }
}
layer {
  name: "conv4_1-R"
  type: "Convolution"
  bottom: "pool3-R"
  top: "conv4_1-R"
  param {
    lr_mult: 10
    decay_mult: 1
  }
  param {
    lr_mult: 20
    decay_mult: 0
  }
  convolution_param {
    num_output: 512
    pad: 1
    kernel_size: 3
    stride: 1
  }
}
layer {
  name: "relu4_1-R"
  type: "ReLU"
  bottom: "conv4_1-R"
  top: "conv4_1-R"
}
layer {
  name: "conv4_2-R"
  type: "Convolution"
  bottom: "conv4_1-R"
  top: "conv4_2-R"
  param {
    lr_mult: 10
    decay_mult: 1
  }
  param {
    lr_mult: 20
    decay_mult: 0
  }
  convolution_param {
    num_output: 512
    pad: 1
    kernel_size: 3
    stride: 1
  }
}
layer {
  name: "relu4_2-R"
  type: "ReLU"
  bottom: "conv4_2-R"
  top: "conv4_2-R"
}
layer {
  name: "conv4_3-R"
  type: "Convolution"
  bottom: "conv4_2-R"
  top: "conv4_3-R"
  param {
    lr_mult: 10
    decay_mult: 1
  }
  param {
    lr_mult: 20
    decay_mult: 0
  }
  convolution_param {
    num_output: 512
    pad: 1
    kernel_size: 3
    stride: 1
  }
}
layer {
  name: "relu4_3-R"
  type: "ReLU"
  bottom: "conv4_3-R"
  top: "conv4_3-R"
}
layer {
  name: "pool4-R"
  type: "Pooling"
  bottom: "conv4_3-R"
  top: "pool4-R"
  pooling_param {
    pool: MAX
    kernel_size: 2
    stride: 2
  }
}
layer {
  name: "conv5_1-R"
  type: "Convolution"
  bottom: "pool4-R"
  top: "conv5_1-R"
  param {
    lr_mult: 10
    decay_mult: 1
  }
  param {
    lr_mult: 20
    decay_mult: 0
  }
  convolution_param {
    num_output: 512
    pad: 1
    kernel_size: 3
    stride: 1
  }
}
layer {
  name: "relu5_1-R"
  type: "ReLU"
  bottom: "conv5_1-R"
  top: "conv5_1-R"
}
layer {
  name: "conv5_2-R"
  type: "Convolution"
  bottom: "conv5_1-R"
  top: "conv5_2-R"
  param {
    lr_mult: 10
    decay_mult: 1
  }
  param {
    lr_mult: 20
    decay_mult: 0
  }
  convolution_param {
    num_output: 512
    pad: 1
    kernel_size: 3
    stride: 1
  }
}
layer {
  name: "relu5_2-R"
  type: "ReLU"
  bottom: "conv5_2-R"
  top: "conv5_2-R"
}
layer {
  name: "conv5_3-R"
  type: "Convolution"
  bottom: "conv5_2-R"
  top: "conv5_3-R"
  param {
    lr_mult: 10
    decay_mult: 1
  }
  param {
    lr_mult: 20
    decay_mult: 0
  }
  convolution_param {
    num_output: 512
    pad: 1
    kernel_size: 3
    stride: 1
  }
}
layer {
  name: "relu5_3-R"
  type: "ReLU"
  bottom: "conv5_3-R"
  top: "conv5_3-R"
}
layer {
  name: "pool5-R"
  type: "Pooling"
  bottom: "conv5_3-R"
  top: "pool5-R"
  pooling_param {
    pool: MAX
    kernel_size: 2
    stride: 2
  }
}
layer {
  name: "fc6-R"
  type: "Convolution"
  bottom: "pool5-R"
  top: "fc6-R"
  param {
    lr_mult: 10
    decay_mult: 1
  }
  param {
    lr_mult: 20
    decay_mult: 0
  }
  convolution_param {
    num_output: 4096
    pad: 0
    kernel_size: 7
    stride: 1
  }
}
layer {
  name: "relu6-R"
  type: "ReLU"
  bottom: "fc6-R"
  top: "fc6-R"
}
layer {
  name: "drop6-R"
  type: "Dropout"
  bottom: "fc6-R"
  top: "fc6-R"
  dropout_param {
    dropout_ratio: 0.5
  }
}
layer {
  name: "fc7-R"
  type: "Convolution"
  bottom: "fc6-R"
  top: "fc7-R"
  param {
    lr_mult: 10
    decay_mult: 1
  }
  param {
    lr_mult: 20
    decay_mult: 0
  }
  convolution_param {
    num_output: 4096
    pad: 0
    kernel_size: 1
    stride: 1
  }
}
layer {
  name: "relu7-R"
  type: "ReLU"
  bottom: "fc7-R"
  top: "fc7-R"
}
layer {
  name: "drop7-R"
  type: "Dropout"
  bottom: "fc7-R"
  top: "fc7-R"
  dropout_param {
    dropout_ratio: 0.5
  }
}
layer {
  name: "score_fr-new-R"
  type: "Convolution"
  bottom: "fc7-R"
  top: "score_fr-new-R"
  param {
    lr_mult: 10
    decay_mult: 1
  }
  param {
    lr_mult: 20
    decay_mult: 0
  }
  convolution_param {
    num_output: 3
    kernel_size: 1
  }
}
layer {
  name: "upscore2-new-R"
  type: "Deconvolution"
  bottom: "score_fr-new-R"
  top: "upscore2-new-R"
  param {
    lr_mult: 0
  }
  convolution_param {
    num_output: 3
    bias_term: false
    kernel_size: 4
    stride: 2
  }
}
layer {
  name: "score_pool4-new-R"
  type: "Convolution"
  bottom: "pool4-R"
  top: "score_pool4-new-R"
  param {
    lr_mult: 10
    decay_mult: 1
  }
  param {
    lr_mult: 20
    decay_mult: 0
  }
  convolution_param {
    num_output: 3
    pad: 0
    kernel_size: 1
  }
}
layer {
  name: "score_pool4c-R"
  type: "Crop"
  bottom: "score_pool4-new-R"
  bottom: "upscore2-new-R"
  top: "score_pool4c-R"
  crop_param {
    axis: 2
    offset: 5
  }
}
layer {
  name: "fuse_pool4-R"
  type: "Eltwise"
  bottom: "upscore2-new-R"
  bottom: "score_pool4c-R"
  top: "fuse_pool4-R"
  eltwise_param {
    operation: SUM
  }
}
layer {
  name: "upscore_pool4-new-R"
  type: "Deconvolution"
  bottom: "fuse_pool4-R"
  top: "upscore_pool4-new-R"
  param {
    lr_mult: 0
  }
  convolution_param {
    num_output: 3
    bias_term: false
    kernel_size: 4
    stride: 2
  }
}
layer {
  name: "score_pool3-new-R"
  type: "Convolution"
  bottom: "pool3-R"
  top: "score_pool3-new-R"
  param {
    lr_mult: 10
    decay_mult: 1
  }
  param {
    lr_mult: 20
    decay_mult: 0
  }
  convolution_param {
    num_output: 3
    pad: 0
    kernel_size: 1
  }
}
layer {
  name: "score_pool3c-R"
  type: "Crop"
  bottom: "score_pool3-new-R"
  bottom: "upscore_pool4-new-R"
  top: "score_pool3c-R"
  crop_param {
    axis: 2
    offset: 9
  }
}
layer {
  name: "fuse_pool3-R"
  type: "Eltwise"
  bottom: "upscore_pool4-new-R"
  bottom: "score_pool3c-R"
  top: "fuse_pool3-R"
  eltwise_param {
    operation: SUM
  }
}
layer {
  name: "upscore8-new-R"
  type: "Deconvolution"
  bottom: "fuse_pool3-R"
  top: "upscore8-new-R"
  param {
    lr_mult: 0
  }
  convolution_param {
    num_output: 3
    bias_term: false
    kernel_size: 16
    stride: 8
  }
}
layer {
  name: "upscore8_cropped-R"
  type: "Crop"
  bottom: "upscore8-new-R"
  bottom: "data-R"
  top: "upscore8_cropped-R"
  crop_param {
    axis: 2
    offset: 31
  }
}
layer {
  name: "score-R"
  type: "Convolution"
  bottom: "upscore8_cropped-R"
  top: "score-R"
  param {
    lr_mult: 10
    decay_mult: 1
  }
  param {
    lr_mult: 20
    decay_mult: 0
  }
  convolution_param {
    num_output: 3
    pad: 1
    kernel_size: 3
    stride: 1
    weight_filler {
      type: "xavier"
    }
    bias_filler {
      type: "constant"
      value: 0
    }
  }
}
layer {
  name: "score_uncropped-R"
  type: "Python"
  bottom: "crop_info"
  bottom: "score-R"
  bottom: "data"
  top: "score_uncropped-R"
  python_param {
    module: "Uncrop"
    layer: "UncropLayer"
  }
}
layer {
  name: "loss1"
  type: "DiceLoss"
  bottom: "score"
  bottom: "label"
  top: "loss1"
  loss_weight: 0.333333
}
layer {
  name: "loss2"
  type: "DiceLoss"
  bottom: "score_uncropped-R"
  bottom: "label"
  top: "loss2"
  loss_weight: 0.666667
}
I0418 21:16:16.396639 17316 layer_factory.hpp:77] Creating layer data
I0418 21:16:16.396747 17316 net.cpp:84] Creating Layer data
I0418 21:16:16.396757 17316 net.cpp:380] data -> data
I0418 21:16:16.396770 17316 net.cpp:380] data -> label
I0418 21:16:16.396780 17316 net.cpp:380] data -> crop_margin
I0418 21:16:16.396787 17316 net.cpp:380] data -> crop_prob
I0418 21:16:16.396795 17316 net.cpp:380] data -> crop_sample_batch
I0418 21:16:16.594666 17316 net.cpp:122] Setting up data
I0418 21:16:16.594700 17316 net.cpp:129] Top shape: 1 3 512 310 (476160)
I0418 21:16:16.594705 17316 net.cpp:129] Top shape: 1 3 512 310 (476160)
I0418 21:16:16.594709 17316 net.cpp:129] Top shape: 1 (1)
I0418 21:16:16.594713 17316 net.cpp:129] Top shape: 1 (1)
I0418 21:16:16.594717 17316 net.cpp:129] Top shape: 1 (1)
I0418 21:16:16.594720 17316 net.cpp:137] Memory required for data: 3809292
I0418 21:16:16.594728 17316 layer_factory.hpp:77] Creating layer data_data_0_split
I0418 21:16:16.594744 17316 net.cpp:84] Creating Layer data_data_0_split
I0418 21:16:16.594750 17316 net.cpp:406] data_data_0_split <- data
I0418 21:16:16.594758 17316 net.cpp:380] data_data_0_split -> data_data_0_split_0
I0418 21:16:16.594769 17316 net.cpp:380] data_data_0_split -> data_data_0_split_1
I0418 21:16:16.594774 17316 net.cpp:380] data_data_0_split -> data_data_0_split_2
I0418 21:16:16.594780 17316 net.cpp:380] data_data_0_split -> data_data_0_split_3
I0418 21:16:16.594893 17316 net.cpp:122] Setting up data_data_0_split
I0418 21:16:16.594903 17316 net.cpp:129] Top shape: 1 3 512 310 (476160)
I0418 21:16:16.594908 17316 net.cpp:129] Top shape: 1 3 512 310 (476160)
I0418 21:16:16.594913 17316 net.cpp:129] Top shape: 1 3 512 310 (476160)
I0418 21:16:16.594916 17316 net.cpp:129] Top shape: 1 3 512 310 (476160)
I0418 21:16:16.594919 17316 net.cpp:137] Memory required for data: 11427852
I0418 21:16:16.594923 17316 layer_factory.hpp:77] Creating layer label_data_1_split
I0418 21:16:16.594930 17316 net.cpp:84] Creating Layer label_data_1_split
I0418 21:16:16.594934 17316 net.cpp:406] label_data_1_split <- label
I0418 21:16:16.594940 17316 net.cpp:380] label_data_1_split -> label_data_1_split_0
I0418 21:16:16.594946 17316 net.cpp:380] label_data_1_split -> label_data_1_split_1
I0418 21:16:16.594952 17316 net.cpp:380] label_data_1_split -> label_data_1_split_2
I0418 21:16:16.595022 17316 net.cpp:122] Setting up label_data_1_split
I0418 21:16:16.595031 17316 net.cpp:129] Top shape: 1 3 512 310 (476160)
I0418 21:16:16.595036 17316 net.cpp:129] Top shape: 1 3 512 310 (476160)
I0418 21:16:16.595041 17316 net.cpp:129] Top shape: 1 3 512 310 (476160)
I0418 21:16:16.595043 17316 net.cpp:137] Memory required for data: 17141772
I0418 21:16:16.595047 17316 layer_factory.hpp:77] Creating layer conv1_1
I0418 21:16:16.595062 17316 net.cpp:84] Creating Layer conv1_1
I0418 21:16:16.595069 17316 net.cpp:406] conv1_1 <- data_data_0_split_0
I0418 21:16:16.595091 17316 net.cpp:380] conv1_1 -> conv1_1
I0418 21:16:16.599931 17316 net.cpp:122] Setting up conv1_1
I0418 21:16:16.599947 17316 net.cpp:129] Top shape: 1 64 710 508 (23083520)
I0418 21:16:16.599951 17316 net.cpp:137] Memory required for data: 109475852
I0418 21:16:16.599962 17316 layer_factory.hpp:77] Creating layer relu1_1
I0418 21:16:16.599970 17316 net.cpp:84] Creating Layer relu1_1
I0418 21:16:16.599974 17316 net.cpp:406] relu1_1 <- conv1_1
I0418 21:16:16.599979 17316 net.cpp:367] relu1_1 -> conv1_1 (in-place)
I0418 21:16:16.600240 17316 net.cpp:122] Setting up relu1_1
I0418 21:16:16.600252 17316 net.cpp:129] Top shape: 1 64 710 508 (23083520)
I0418 21:16:16.600256 17316 net.cpp:137] Memory required for data: 201809932
I0418 21:16:16.600260 17316 layer_factory.hpp:77] Creating layer conv1_2
I0418 21:16:16.600270 17316 net.cpp:84] Creating Layer conv1_2
I0418 21:16:16.600273 17316 net.cpp:406] conv1_2 <- conv1_1
I0418 21:16:16.600280 17316 net.cpp:380] conv1_2 -> conv1_2
I0418 21:16:16.603219 17316 net.cpp:122] Setting up conv1_2
I0418 21:16:16.603233 17316 net.cpp:129] Top shape: 1 64 710 508 (23083520)
I0418 21:16:16.603236 17316 net.cpp:137] Memory required for data: 294144012
I0418 21:16:16.603246 17316 layer_factory.hpp:77] Creating layer relu1_2
I0418 21:16:16.603255 17316 net.cpp:84] Creating Layer relu1_2
I0418 21:16:16.603257 17316 net.cpp:406] relu1_2 <- conv1_2
I0418 21:16:16.603263 17316 net.cpp:367] relu1_2 -> conv1_2 (in-place)
I0418 21:16:16.603518 17316 net.cpp:122] Setting up relu1_2
I0418 21:16:16.603529 17316 net.cpp:129] Top shape: 1 64 710 508 (23083520)
I0418 21:16:16.603533 17316 net.cpp:137] Memory required for data: 386478092
I0418 21:16:16.603536 17316 layer_factory.hpp:77] Creating layer pool1
I0418 21:16:16.603544 17316 net.cpp:84] Creating Layer pool1
I0418 21:16:16.603549 17316 net.cpp:406] pool1 <- conv1_2
I0418 21:16:16.603554 17316 net.cpp:380] pool1 -> pool1
I0418 21:16:16.603623 17316 net.cpp:122] Setting up pool1
I0418 21:16:16.603632 17316 net.cpp:129] Top shape: 1 64 355 254 (5770880)
I0418 21:16:16.603636 17316 net.cpp:137] Memory required for data: 409561612
I0418 21:16:16.603639 17316 layer_factory.hpp:77] Creating layer conv2_1
I0418 21:16:16.603649 17316 net.cpp:84] Creating Layer conv2_1
I0418 21:16:16.603653 17316 net.cpp:406] conv2_1 <- pool1
I0418 21:16:16.603659 17316 net.cpp:380] conv2_1 -> conv2_1
I0418 21:16:16.605252 17316 net.cpp:122] Setting up conv2_1
I0418 21:16:16.605267 17316 net.cpp:129] Top shape: 1 128 355 254 (11541760)
I0418 21:16:16.605270 17316 net.cpp:137] Memory required for data: 455728652
I0418 21:16:16.605279 17316 layer_factory.hpp:77] Creating layer relu2_1
I0418 21:16:16.605288 17316 net.cpp:84] Creating Layer relu2_1
I0418 21:16:16.605291 17316 net.cpp:406] relu2_1 <- conv2_1
I0418 21:16:16.605298 17316 net.cpp:367] relu2_1 -> conv2_1 (in-place)
I0418 21:16:16.606021 17316 net.cpp:122] Setting up relu2_1
I0418 21:16:16.606046 17316 net.cpp:129] Top shape: 1 128 355 254 (11541760)
I0418 21:16:16.606050 17316 net.cpp:137] Memory required for data: 501895692
I0418 21:16:16.606055 17316 layer_factory.hpp:77] Creating layer conv2_2
I0418 21:16:16.606063 17316 net.cpp:84] Creating Layer conv2_2
I0418 21:16:16.606066 17316 net.cpp:406] conv2_2 <- conv2_1
I0418 21:16:16.606072 17316 net.cpp:380] conv2_2 -> conv2_2
I0418 21:16:16.607868 17316 net.cpp:122] Setting up conv2_2
I0418 21:16:16.607884 17316 net.cpp:129] Top shape: 1 128 355 254 (11541760)
I0418 21:16:16.607888 17316 net.cpp:137] Memory required for data: 548062732
I0418 21:16:16.607895 17316 layer_factory.hpp:77] Creating layer relu2_2
I0418 21:16:16.607902 17316 net.cpp:84] Creating Layer relu2_2
I0418 21:16:16.607905 17316 net.cpp:406] relu2_2 <- conv2_2
I0418 21:16:16.607910 17316 net.cpp:367] relu2_2 -> conv2_2 (in-place)
I0418 21:16:16.608625 17316 net.cpp:122] Setting up relu2_2
I0418 21:16:16.608639 17316 net.cpp:129] Top shape: 1 128 355 254 (11541760)
I0418 21:16:16.608642 17316 net.cpp:137] Memory required for data: 594229772
I0418 21:16:16.608646 17316 layer_factory.hpp:77] Creating layer pool2
I0418 21:16:16.608655 17316 net.cpp:84] Creating Layer pool2
I0418 21:16:16.608659 17316 net.cpp:406] pool2 <- conv2_2
I0418 21:16:16.608664 17316 net.cpp:380] pool2 -> pool2
I0418 21:16:16.608748 17316 net.cpp:122] Setting up pool2
I0418 21:16:16.608759 17316 net.cpp:129] Top shape: 1 128 178 127 (2893568)
I0418 21:16:16.608763 17316 net.cpp:137] Memory required for data: 605804044
I0418 21:16:16.608767 17316 layer_factory.hpp:77] Creating layer conv3_1
I0418 21:16:16.608777 17316 net.cpp:84] Creating Layer conv3_1
I0418 21:16:16.608780 17316 net.cpp:406] conv3_1 <- pool2
I0418 21:16:16.608786 17316 net.cpp:380] conv3_1 -> conv3_1
I0418 21:16:16.612146 17316 net.cpp:122] Setting up conv3_1
I0418 21:16:16.612160 17316 net.cpp:129] Top shape: 1 256 178 127 (5787136)
I0418 21:16:16.612164 17316 net.cpp:137] Memory required for data: 628952588
I0418 21:16:16.612174 17316 layer_factory.hpp:77] Creating layer relu3_1
I0418 21:16:16.612180 17316 net.cpp:84] Creating Layer relu3_1
I0418 21:16:16.612185 17316 net.cpp:406] relu3_1 <- conv3_1
I0418 21:16:16.612190 17316 net.cpp:367] relu3_1 -> conv3_1 (in-place)
I0418 21:16:16.612433 17316 net.cpp:122] Setting up relu3_1
I0418 21:16:16.612447 17316 net.cpp:129] Top shape: 1 256 178 127 (5787136)
I0418 21:16:16.612449 17316 net.cpp:137] Memory required for data: 652101132
I0418 21:16:16.612453 17316 layer_factory.hpp:77] Creating layer conv3_2
I0418 21:16:16.612462 17316 net.cpp:84] Creating Layer conv3_2
I0418 21:16:16.612466 17316 net.cpp:406] conv3_2 <- conv3_1
I0418 21:16:16.612473 17316 net.cpp:380] conv3_2 -> conv3_2
I0418 21:16:16.616807 17316 net.cpp:122] Setting up conv3_2
I0418 21:16:16.616823 17316 net.cpp:129] Top shape: 1 256 178 127 (5787136)
I0418 21:16:16.616827 17316 net.cpp:137] Memory required for data: 675249676
I0418 21:16:16.616835 17316 layer_factory.hpp:77] Creating layer relu3_2
I0418 21:16:16.616843 17316 net.cpp:84] Creating Layer relu3_2
I0418 21:16:16.616847 17316 net.cpp:406] relu3_2 <- conv3_2
I0418 21:16:16.616853 17316 net.cpp:367] relu3_2 -> conv3_2 (in-place)
I0418 21:16:16.617115 17316 net.cpp:122] Setting up relu3_2
I0418 21:16:16.617126 17316 net.cpp:129] Top shape: 1 256 178 127 (5787136)
I0418 21:16:16.617130 17316 net.cpp:137] Memory required for data: 698398220
I0418 21:16:16.617135 17316 layer_factory.hpp:77] Creating layer conv3_3
I0418 21:16:16.617143 17316 net.cpp:84] Creating Layer conv3_3
I0418 21:16:16.617147 17316 net.cpp:406] conv3_3 <- conv3_2
I0418 21:16:16.617153 17316 net.cpp:380] conv3_3 -> conv3_3
I0418 21:16:16.621001 17316 net.cpp:122] Setting up conv3_3
I0418 21:16:16.621017 17316 net.cpp:129] Top shape: 1 256 178 127 (5787136)
I0418 21:16:16.621021 17316 net.cpp:137] Memory required for data: 721546764
I0418 21:16:16.621031 17316 layer_factory.hpp:77] Creating layer relu3_3
I0418 21:16:16.621037 17316 net.cpp:84] Creating Layer relu3_3
I0418 21:16:16.621042 17316 net.cpp:406] relu3_3 <- conv3_3
I0418 21:16:16.621047 17316 net.cpp:367] relu3_3 -> conv3_3 (in-place)
I0418 21:16:16.621304 17316 net.cpp:122] Setting up relu3_3
I0418 21:16:16.621315 17316 net.cpp:129] Top shape: 1 256 178 127 (5787136)
I0418 21:16:16.621320 17316 net.cpp:137] Memory required for data: 744695308
I0418 21:16:16.621323 17316 layer_factory.hpp:77] Creating layer pool3
I0418 21:16:16.621330 17316 net.cpp:84] Creating Layer pool3
I0418 21:16:16.621335 17316 net.cpp:406] pool3 <- conv3_3
I0418 21:16:16.621340 17316 net.cpp:380] pool3 -> pool3
I0418 21:16:16.621412 17316 net.cpp:122] Setting up pool3
I0418 21:16:16.621423 17316 net.cpp:129] Top shape: 1 256 89 64 (1458176)
I0418 21:16:16.621425 17316 net.cpp:137] Memory required for data: 750528012
I0418 21:16:16.621429 17316 layer_factory.hpp:77] Creating layer pool3_pool3_0_split
I0418 21:16:16.621436 17316 net.cpp:84] Creating Layer pool3_pool3_0_split
I0418 21:16:16.621439 17316 net.cpp:406] pool3_pool3_0_split <- pool3
I0418 21:16:16.621445 17316 net.cpp:380] pool3_pool3_0_split -> pool3_pool3_0_split_0
I0418 21:16:16.621453 17316 net.cpp:380] pool3_pool3_0_split -> pool3_pool3_0_split_1
I0418 21:16:16.621507 17316 net.cpp:122] Setting up pool3_pool3_0_split
I0418 21:16:16.621516 17316 net.cpp:129] Top shape: 1 256 89 64 (1458176)
I0418 21:16:16.621520 17316 net.cpp:129] Top shape: 1 256 89 64 (1458176)
I0418 21:16:16.621525 17316 net.cpp:137] Memory required for data: 762193420
I0418 21:16:16.621527 17316 layer_factory.hpp:77] Creating layer conv4_1
I0418 21:16:16.621538 17316 net.cpp:84] Creating Layer conv4_1
I0418 21:16:16.621542 17316 net.cpp:406] conv4_1 <- pool3_pool3_0_split_0
I0418 21:16:16.621549 17316 net.cpp:380] conv4_1 -> conv4_1
I0418 21:16:16.626798 17316 net.cpp:122] Setting up conv4_1
I0418 21:16:16.626829 17316 net.cpp:129] Top shape: 1 512 89 64 (2916352)
I0418 21:16:16.626834 17316 net.cpp:137] Memory required for data: 773858828
I0418 21:16:16.626842 17316 layer_factory.hpp:77] Creating layer relu4_1
I0418 21:16:16.626850 17316 net.cpp:84] Creating Layer relu4_1
I0418 21:16:16.626855 17316 net.cpp:406] relu4_1 <- conv4_1
I0418 21:16:16.626862 17316 net.cpp:367] relu4_1 -> conv4_1 (in-place)
I0418 21:16:16.627178 17316 net.cpp:122] Setting up relu4_1
I0418 21:16:16.627190 17316 net.cpp:129] Top shape: 1 512 89 64 (2916352)
I0418 21:16:16.627194 17316 net.cpp:137] Memory required for data: 785524236
I0418 21:16:16.627198 17316 layer_factory.hpp:77] Creating layer conv4_2
I0418 21:16:16.627207 17316 net.cpp:84] Creating Layer conv4_2
I0418 21:16:16.627213 17316 net.cpp:406] conv4_2 <- conv4_1
I0418 21:16:16.627218 17316 net.cpp:380] conv4_2 -> conv4_2
I0418 21:16:16.634685 17316 net.cpp:122] Setting up conv4_2
I0418 21:16:16.634721 17316 net.cpp:129] Top shape: 1 512 89 64 (2916352)
I0418 21:16:16.634726 17316 net.cpp:137] Memory required for data: 797189644
I0418 21:16:16.634738 17316 layer_factory.hpp:77] Creating layer relu4_2
I0418 21:16:16.634747 17316 net.cpp:84] Creating Layer relu4_2
I0418 21:16:16.634750 17316 net.cpp:406] relu4_2 <- conv4_2
I0418 21:16:16.634757 17316 net.cpp:367] relu4_2 -> conv4_2 (in-place)
I0418 21:16:16.635542 17316 net.cpp:122] Setting up relu4_2
I0418 21:16:16.635555 17316 net.cpp:129] Top shape: 1 512 89 64 (2916352)
I0418 21:16:16.635560 17316 net.cpp:137] Memory required for data: 808855052
I0418 21:16:16.635563 17316 layer_factory.hpp:77] Creating layer conv4_3
I0418 21:16:16.635574 17316 net.cpp:84] Creating Layer conv4_3
I0418 21:16:16.635578 17316 net.cpp:406] conv4_3 <- conv4_2
I0418 21:16:16.635586 17316 net.cpp:380] conv4_3 -> conv4_3
I0418 21:16:16.643177 17316 net.cpp:122] Setting up conv4_3
I0418 21:16:16.643195 17316 net.cpp:129] Top shape: 1 512 89 64 (2916352)
I0418 21:16:16.643199 17316 net.cpp:137] Memory required for data: 820520460
I0418 21:16:16.643208 17316 layer_factory.hpp:77] Creating layer relu4_3
I0418 21:16:16.643214 17316 net.cpp:84] Creating Layer relu4_3
I0418 21:16:16.643219 17316 net.cpp:406] relu4_3 <- conv4_3
I0418 21:16:16.643224 17316 net.cpp:367] relu4_3 -> conv4_3 (in-place)
I0418 21:16:16.644001 17316 net.cpp:122] Setting up relu4_3
I0418 21:16:16.644014 17316 net.cpp:129] Top shape: 1 512 89 64 (2916352)
I0418 21:16:16.644018 17316 net.cpp:137] Memory required for data: 832185868
I0418 21:16:16.644022 17316 layer_factory.hpp:77] Creating layer pool4
I0418 21:16:16.644032 17316 net.cpp:84] Creating Layer pool4
I0418 21:16:16.644034 17316 net.cpp:406] pool4 <- conv4_3
I0418 21:16:16.644042 17316 net.cpp:380] pool4 -> pool4
I0418 21:16:16.644134 17316 net.cpp:122] Setting up pool4
I0418 21:16:16.644145 17316 net.cpp:129] Top shape: 1 512 45 32 (737280)
I0418 21:16:16.644148 17316 net.cpp:137] Memory required for data: 835134988
I0418 21:16:16.644151 17316 layer_factory.hpp:77] Creating layer pool4_pool4_0_split
I0418 21:16:16.644160 17316 net.cpp:84] Creating Layer pool4_pool4_0_split
I0418 21:16:16.644163 17316 net.cpp:406] pool4_pool4_0_split <- pool4
I0418 21:16:16.644170 17316 net.cpp:380] pool4_pool4_0_split -> pool4_pool4_0_split_0
I0418 21:16:16.644177 17316 net.cpp:380] pool4_pool4_0_split -> pool4_pool4_0_split_1
I0418 21:16:16.644239 17316 net.cpp:122] Setting up pool4_pool4_0_split
I0418 21:16:16.644248 17316 net.cpp:129] Top shape: 1 512 45 32 (737280)
I0418 21:16:16.644253 17316 net.cpp:129] Top shape: 1 512 45 32 (737280)
I0418 21:16:16.644256 17316 net.cpp:137] Memory required for data: 841033228
I0418 21:16:16.644259 17316 layer_factory.hpp:77] Creating layer conv5_1
I0418 21:16:16.644271 17316 net.cpp:84] Creating Layer conv5_1
I0418 21:16:16.644275 17316 net.cpp:406] conv5_1 <- pool4_pool4_0_split_0
I0418 21:16:16.644282 17316 net.cpp:380] conv5_1 -> conv5_1
I0418 21:16:16.651693 17316 net.cpp:122] Setting up conv5_1
I0418 21:16:16.651711 17316 net.cpp:129] Top shape: 1 512 45 32 (737280)
I0418 21:16:16.651715 17316 net.cpp:137] Memory required for data: 843982348
I0418 21:16:16.651723 17316 layer_factory.hpp:77] Creating layer relu5_1
I0418 21:16:16.651732 17316 net.cpp:84] Creating Layer relu5_1
I0418 21:16:16.651736 17316 net.cpp:406] relu5_1 <- conv5_1
I0418 21:16:16.651743 17316 net.cpp:367] relu5_1 -> conv5_1 (in-place)
I0418 21:16:16.652000 17316 net.cpp:122] Setting up relu5_1
I0418 21:16:16.652012 17316 net.cpp:129] Top shape: 1 512 45 32 (737280)
I0418 21:16:16.652016 17316 net.cpp:137] Memory required for data: 846931468
I0418 21:16:16.652020 17316 layer_factory.hpp:77] Creating layer conv5_2
I0418 21:16:16.652031 17316 net.cpp:84] Creating Layer conv5_2
I0418 21:16:16.652035 17316 net.cpp:406] conv5_2 <- conv5_1
I0418 21:16:16.652042 17316 net.cpp:380] conv5_2 -> conv5_2
I0418 21:16:16.660115 17316 net.cpp:122] Setting up conv5_2
I0418 21:16:16.660132 17316 net.cpp:129] Top shape: 1 512 45 32 (737280)
I0418 21:16:16.660136 17316 net.cpp:137] Memory required for data: 849880588
I0418 21:16:16.660145 17316 layer_factory.hpp:77] Creating layer relu5_2
I0418 21:16:16.660156 17316 net.cpp:84] Creating Layer relu5_2
I0418 21:16:16.660161 17316 net.cpp:406] relu5_2 <- conv5_2
I0418 21:16:16.660168 17316 net.cpp:367] relu5_2 -> conv5_2 (in-place)
I0418 21:16:16.660440 17316 net.cpp:122] Setting up relu5_2
I0418 21:16:16.660452 17316 net.cpp:129] Top shape: 1 512 45 32 (737280)
I0418 21:16:16.660455 17316 net.cpp:137] Memory required for data: 852829708
I0418 21:16:16.660459 17316 layer_factory.hpp:77] Creating layer conv5_3
I0418 21:16:16.660472 17316 net.cpp:84] Creating Layer conv5_3
I0418 21:16:16.660476 17316 net.cpp:406] conv5_3 <- conv5_2
I0418 21:16:16.660485 17316 net.cpp:380] conv5_3 -> conv5_3
I0418 21:16:16.668263 17316 net.cpp:122] Setting up conv5_3
I0418 21:16:16.668282 17316 net.cpp:129] Top shape: 1 512 45 32 (737280)
I0418 21:16:16.668287 17316 net.cpp:137] Memory required for data: 855778828
I0418 21:16:16.668293 17316 layer_factory.hpp:77] Creating layer relu5_3
I0418 21:16:16.668300 17316 net.cpp:84] Creating Layer relu5_3
I0418 21:16:16.668305 17316 net.cpp:406] relu5_3 <- conv5_3
I0418 21:16:16.668311 17316 net.cpp:367] relu5_3 -> conv5_3 (in-place)
I0418 21:16:16.669035 17316 net.cpp:122] Setting up relu5_3
I0418 21:16:16.669049 17316 net.cpp:129] Top shape: 1 512 45 32 (737280)
I0418 21:16:16.669052 17316 net.cpp:137] Memory required for data: 858727948
I0418 21:16:16.669056 17316 layer_factory.hpp:77] Creating layer pool5
I0418 21:16:16.669065 17316 net.cpp:84] Creating Layer pool5
I0418 21:16:16.669070 17316 net.cpp:406] pool5 <- conv5_3
I0418 21:16:16.669077 17316 net.cpp:380] pool5 -> pool5
I0418 21:16:16.669173 17316 net.cpp:122] Setting up pool5
I0418 21:16:16.669183 17316 net.cpp:129] Top shape: 1 512 23 16 (188416)
I0418 21:16:16.669186 17316 net.cpp:137] Memory required for data: 859481612
I0418 21:16:16.669190 17316 layer_factory.hpp:77] Creating layer fc6
I0418 21:16:16.669201 17316 net.cpp:84] Creating Layer fc6
I0418 21:16:16.669205 17316 net.cpp:406] fc6 <- pool5
I0418 21:16:16.669214 17316 net.cpp:380] fc6 -> fc6
I0418 21:16:16.952472 17316 net.cpp:122] Setting up fc6
I0418 21:16:16.952507 17316 net.cpp:129] Top shape: 1 4096 17 10 (696320)
I0418 21:16:16.952512 17316 net.cpp:137] Memory required for data: 862266892
I0418 21:16:16.952522 17316 layer_factory.hpp:77] Creating layer relu6
I0418 21:16:16.952533 17316 net.cpp:84] Creating Layer relu6
I0418 21:16:16.952539 17316 net.cpp:406] relu6 <- fc6
I0418 21:16:16.952546 17316 net.cpp:367] relu6 -> fc6 (in-place)
I0418 21:16:16.952800 17316 net.cpp:122] Setting up relu6
I0418 21:16:16.952811 17316 net.cpp:129] Top shape: 1 4096 17 10 (696320)
I0418 21:16:16.952816 17316 net.cpp:137] Memory required for data: 865052172
I0418 21:16:16.952821 17316 layer_factory.hpp:77] Creating layer drop6
I0418 21:16:16.952831 17316 net.cpp:84] Creating Layer drop6
I0418 21:16:16.952834 17316 net.cpp:406] drop6 <- fc6
I0418 21:16:16.952841 17316 net.cpp:367] drop6 -> fc6 (in-place)
I0418 21:16:16.952895 17316 net.cpp:122] Setting up drop6
I0418 21:16:16.952904 17316 net.cpp:129] Top shape: 1 4096 17 10 (696320)
I0418 21:16:16.952908 17316 net.cpp:137] Memory required for data: 867837452
I0418 21:16:16.952911 17316 layer_factory.hpp:77] Creating layer fc7
I0418 21:16:16.952922 17316 net.cpp:84] Creating Layer fc7
I0418 21:16:16.952926 17316 net.cpp:406] fc7 <- fc6
I0418 21:16:16.952934 17316 net.cpp:380] fc7 -> fc7
I0418 21:16:17.005427 17316 net.cpp:122] Setting up fc7
I0418 21:16:17.005472 17316 net.cpp:129] Top shape: 1 4096 17 10 (696320)
I0418 21:16:17.005476 17316 net.cpp:137] Memory required for data: 870622732
I0418 21:16:17.005487 17316 layer_factory.hpp:77] Creating layer relu7
I0418 21:16:17.005503 17316 net.cpp:84] Creating Layer relu7
I0418 21:16:17.005513 17316 net.cpp:406] relu7 <- fc7
I0418 21:16:17.005523 17316 net.cpp:367] relu7 -> fc7 (in-place)
I0418 21:16:17.006675 17316 net.cpp:122] Setting up relu7
I0418 21:16:17.006695 17316 net.cpp:129] Top shape: 1 4096 17 10 (696320)
I0418 21:16:17.006700 17316 net.cpp:137] Memory required for data: 873408012
I0418 21:16:17.006713 17316 layer_factory.hpp:77] Creating layer drop7
I0418 21:16:17.006731 17316 net.cpp:84] Creating Layer drop7
I0418 21:16:17.006738 17316 net.cpp:406] drop7 <- fc7
I0418 21:16:17.006765 17316 net.cpp:367] drop7 -> fc7 (in-place)
I0418 21:16:17.006861 17316 net.cpp:122] Setting up drop7
I0418 21:16:17.006898 17316 net.cpp:129] Top shape: 1 4096 17 10 (696320)
I0418 21:16:17.006916 17316 net.cpp:137] Memory required for data: 876193292
I0418 21:16:17.006927 17316 layer_factory.hpp:77] Creating layer score_fr-new
I0418 21:16:17.006948 17316 net.cpp:84] Creating Layer score_fr-new
I0418 21:16:17.006963 17316 net.cpp:406] score_fr-new <- fc7
I0418 21:16:17.006978 17316 net.cpp:380] score_fr-new -> score_fr-new
I0418 21:16:17.009001 17316 net.cpp:122] Setting up score_fr-new
I0418 21:16:17.009022 17316 net.cpp:129] Top shape: 1 3 17 10 (510)
I0418 21:16:17.009030 17316 net.cpp:137] Memory required for data: 876195332
I0418 21:16:17.009043 17316 layer_factory.hpp:77] Creating layer upscore2-new
I0418 21:16:17.009061 17316 net.cpp:84] Creating Layer upscore2-new
I0418 21:16:17.009084 17316 net.cpp:406] upscore2-new <- score_fr-new
I0418 21:16:17.009102 17316 net.cpp:380] upscore2-new -> upscore2-new
I0418 21:16:17.009796 17316 net.cpp:122] Setting up upscore2-new
I0418 21:16:17.009816 17316 net.cpp:129] Top shape: 1 3 36 22 (2376)
I0418 21:16:17.009822 17316 net.cpp:137] Memory required for data: 876204836
I0418 21:16:17.009846 17316 layer_factory.hpp:77] Creating layer upscore2-new_upscore2-new_0_split
I0418 21:16:17.009863 17316 net.cpp:84] Creating Layer upscore2-new_upscore2-new_0_split
I0418 21:16:17.009888 17316 net.cpp:406] upscore2-new_upscore2-new_0_split <- upscore2-new
I0418 21:16:17.009902 17316 net.cpp:380] upscore2-new_upscore2-new_0_split -> upscore2-new_upscore2-new_0_split_0
I0418 21:16:17.009917 17316 net.cpp:380] upscore2-new_upscore2-new_0_split -> upscore2-new_upscore2-new_0_split_1
I0418 21:16:17.010067 17316 net.cpp:122] Setting up upscore2-new_upscore2-new_0_split
I0418 21:16:17.010084 17316 net.cpp:129] Top shape: 1 3 36 22 (2376)
I0418 21:16:17.010092 17316 net.cpp:129] Top shape: 1 3 36 22 (2376)
I0418 21:16:17.010095 17316 net.cpp:137] Memory required for data: 876223844
I0418 21:16:17.010102 17316 layer_factory.hpp:77] Creating layer score_pool4-new
I0418 21:16:17.010113 17316 net.cpp:84] Creating Layer score_pool4-new
I0418 21:16:17.010116 17316 net.cpp:406] score_pool4-new <- pool4_pool4_0_split_1
I0418 21:16:17.010136 17316 net.cpp:380] score_pool4-new -> score_pool4-new
I0418 21:16:17.012059 17316 net.cpp:122] Setting up score_pool4-new
I0418 21:16:17.012074 17316 net.cpp:129] Top shape: 1 3 45 32 (4320)
I0418 21:16:17.012079 17316 net.cpp:137] Memory required for data: 876241124
I0418 21:16:17.012086 17316 layer_factory.hpp:77] Creating layer score_pool4c
I0418 21:16:17.012094 17316 net.cpp:84] Creating Layer score_pool4c
I0418 21:16:17.012102 17316 net.cpp:406] score_pool4c <- score_pool4-new
I0418 21:16:17.012114 17316 net.cpp:406] score_pool4c <- upscore2-new_upscore2-new_0_split_0
I0418 21:16:17.012122 17316 net.cpp:380] score_pool4c -> score_pool4c
I0418 21:16:17.012223 17316 net.cpp:122] Setting up score_pool4c
I0418 21:16:17.012243 17316 net.cpp:129] Top shape: 1 3 36 22 (2376)
I0418 21:16:17.012248 17316 net.cpp:137] Memory required for data: 876250628
I0418 21:16:17.012254 17316 layer_factory.hpp:77] Creating layer fuse_pool4
I0418 21:16:17.012269 17316 net.cpp:84] Creating Layer fuse_pool4
I0418 21:16:17.012301 17316 net.cpp:406] fuse_pool4 <- upscore2-new_upscore2-new_0_split_1
I0418 21:16:17.012311 17316 net.cpp:406] fuse_pool4 <- score_pool4c
I0418 21:16:17.012322 17316 net.cpp:380] fuse_pool4 -> fuse_pool4
I0418 21:16:17.012398 17316 net.cpp:122] Setting up fuse_pool4
I0418 21:16:17.012414 17316 net.cpp:129] Top shape: 1 3 36 22 (2376)
I0418 21:16:17.012420 17316 net.cpp:137] Memory required for data: 876260132
I0418 21:16:17.012425 17316 layer_factory.hpp:77] Creating layer upscore_pool4-new
I0418 21:16:17.012442 17316 net.cpp:84] Creating Layer upscore_pool4-new
I0418 21:16:17.012450 17316 net.cpp:406] upscore_pool4-new <- fuse_pool4
I0418 21:16:17.012465 17316 net.cpp:380] upscore_pool4-new -> upscore_pool4-new
I0418 21:16:17.013095 17316 net.cpp:122] Setting up upscore_pool4-new
I0418 21:16:17.013106 17316 net.cpp:129] Top shape: 1 3 74 46 (10212)
I0418 21:16:17.013109 17316 net.cpp:137] Memory required for data: 876300980
I0418 21:16:17.013123 17316 layer_factory.hpp:77] Creating layer upscore_pool4-new_upscore_pool4-new_0_split
I0418 21:16:17.013134 17316 net.cpp:84] Creating Layer upscore_pool4-new_upscore_pool4-new_0_split
I0418 21:16:17.013141 17316 net.cpp:406] upscore_pool4-new_upscore_pool4-new_0_split <- upscore_pool4-new
I0418 21:16:17.013154 17316 net.cpp:380] upscore_pool4-new_upscore_pool4-new_0_split -> upscore_pool4-new_upscore_pool4-new_0_split_0
I0418 21:16:17.013183 17316 net.cpp:380] upscore_pool4-new_upscore_pool4-new_0_split -> upscore_pool4-new_upscore_pool4-new_0_split_1
I0418 21:16:17.013298 17316 net.cpp:122] Setting up upscore_pool4-new_upscore_pool4-new_0_split
I0418 21:16:17.013314 17316 net.cpp:129] Top shape: 1 3 74 46 (10212)
I0418 21:16:17.013347 17316 net.cpp:129] Top shape: 1 3 74 46 (10212)
I0418 21:16:17.013355 17316 net.cpp:137] Memory required for data: 876382676
I0418 21:16:17.013360 17316 layer_factory.hpp:77] Creating layer score_pool3-new
I0418 21:16:17.013378 17316 net.cpp:84] Creating Layer score_pool3-new
I0418 21:16:17.013391 17316 net.cpp:406] score_pool3-new <- pool3_pool3_0_split_1
I0418 21:16:17.013420 17316 net.cpp:380] score_pool3-new -> score_pool3-new
I0418 21:16:17.015409 17316 net.cpp:122] Setting up score_pool3-new
I0418 21:16:17.015426 17316 net.cpp:129] Top shape: 1 3 89 64 (17088)
I0418 21:16:17.015430 17316 net.cpp:137] Memory required for data: 876451028
I0418 21:16:17.015452 17316 layer_factory.hpp:77] Creating layer score_pool3c
I0418 21:16:17.015461 17316 net.cpp:84] Creating Layer score_pool3c
I0418 21:16:17.015466 17316 net.cpp:406] score_pool3c <- score_pool3-new
I0418 21:16:17.015471 17316 net.cpp:406] score_pool3c <- upscore_pool4-new_upscore_pool4-new_0_split_0
I0418 21:16:17.015477 17316 net.cpp:380] score_pool3c -> score_pool3c
I0418 21:16:17.015525 17316 net.cpp:122] Setting up score_pool3c
I0418 21:16:17.015534 17316 net.cpp:129] Top shape: 1 3 74 46 (10212)
I0418 21:16:17.015537 17316 net.cpp:137] Memory required for data: 876491876
I0418 21:16:17.015542 17316 layer_factory.hpp:77] Creating layer fuse_pool3
I0418 21:16:17.015550 17316 net.cpp:84] Creating Layer fuse_pool3
I0418 21:16:17.015554 17316 net.cpp:406] fuse_pool3 <- upscore_pool4-new_upscore_pool4-new_0_split_1
I0418 21:16:17.015559 17316 net.cpp:406] fuse_pool3 <- score_pool3c
I0418 21:16:17.015565 17316 net.cpp:380] fuse_pool3 -> fuse_pool3
I0418 21:16:17.015642 17316 net.cpp:122] Setting up fuse_pool3
I0418 21:16:17.015652 17316 net.cpp:129] Top shape: 1 3 74 46 (10212)
I0418 21:16:17.015655 17316 net.cpp:137] Memory required for data: 876532724
I0418 21:16:17.015660 17316 layer_factory.hpp:77] Creating layer upscore8-new
I0418 21:16:17.015667 17316 net.cpp:84] Creating Layer upscore8-new
I0418 21:16:17.015672 17316 net.cpp:406] upscore8-new <- fuse_pool3
I0418 21:16:17.015679 17316 net.cpp:380] upscore8-new -> upscore8-new
I0418 21:16:17.016098 17316 net.cpp:122] Setting up upscore8-new
I0418 21:16:17.016108 17316 net.cpp:129] Top shape: 1 3 600 376 (676800)
I0418 21:16:17.016126 17316 net.cpp:137] Memory required for data: 879239924
I0418 21:16:17.016134 17316 layer_factory.hpp:77] Creating layer upscore8_cropped
I0418 21:16:17.016141 17316 net.cpp:84] Creating Layer upscore8_cropped
I0418 21:16:17.016145 17316 net.cpp:406] upscore8_cropped <- upscore8-new
I0418 21:16:17.016151 17316 net.cpp:406] upscore8_cropped <- data_data_0_split_1
I0418 21:16:17.016157 17316 net.cpp:380] upscore8_cropped -> upscore8_cropped
I0418 21:16:17.016198 17316 net.cpp:122] Setting up upscore8_cropped
I0418 21:16:17.016219 17316 net.cpp:129] Top shape: 1 3 512 310 (476160)
I0418 21:16:17.016223 17316 net.cpp:137] Memory required for data: 881144564
I0418 21:16:17.016227 17316 layer_factory.hpp:77] Creating layer score
I0418 21:16:17.016239 17316 net.cpp:84] Creating Layer score
I0418 21:16:17.016247 17316 net.cpp:406] score <- upscore8_cropped
I0418 21:16:17.016279 17316 net.cpp:380] score -> score
I0418 21:16:17.018323 17316 net.cpp:122] Setting up score
I0418 21:16:17.018344 17316 net.cpp:129] Top shape: 1 3 512 310 (476160)
I0418 21:16:17.018352 17316 net.cpp:137] Memory required for data: 883049204
I0418 21:16:17.018364 17316 layer_factory.hpp:77] Creating layer score_score_0_split
I0418 21:16:17.018379 17316 net.cpp:84] Creating Layer score_score_0_split
I0418 21:16:17.018385 17316 net.cpp:406] score_score_0_split <- score
I0418 21:16:17.018394 17316 net.cpp:380] score_score_0_split -> score_score_0_split_0
I0418 21:16:17.018419 17316 net.cpp:380] score_score_0_split -> score_score_0_split_1
I0418 21:16:17.018520 17316 net.cpp:122] Setting up score_score_0_split
I0418 21:16:17.018550 17316 net.cpp:129] Top shape: 1 3 512 310 (476160)
I0418 21:16:17.018558 17316 net.cpp:129] Top shape: 1 3 512 310 (476160)
I0418 21:16:17.018561 17316 net.cpp:137] Memory required for data: 886858484
I0418 21:16:17.018565 17316 layer_factory.hpp:77] Creating layer prob
I0418 21:16:17.018573 17316 net.cpp:84] Creating Layer prob
I0418 21:16:17.018577 17316 net.cpp:406] prob <- score_score_0_split_0
I0418 21:16:17.018584 17316 net.cpp:380] prob -> prob
I0418 21:16:17.018937 17316 net.cpp:122] Setting up prob
I0418 21:16:17.018965 17316 net.cpp:129] Top shape: 1 3 512 310 (476160)
I0418 21:16:17.018972 17316 net.cpp:137] Memory required for data: 888763124
I0418 21:16:17.018977 17316 layer_factory.hpp:77] Creating layer saliency
I0418 21:16:17.018992 17316 net.cpp:84] Creating Layer saliency
I0418 21:16:17.018997 17316 net.cpp:406] saliency <- prob
I0418 21:16:17.019008 17316 net.cpp:380] saliency -> saliency
I0418 21:16:17.024139 17316 net.cpp:122] Setting up saliency
I0418 21:16:17.024155 17316 net.cpp:129] Top shape: 1 3 512 310 (476160)
I0418 21:16:17.024159 17316 net.cpp:137] Memory required for data: 890667764
I0418 21:16:17.024168 17316 layer_factory.hpp:77] Creating layer saliency_data
I0418 21:16:17.024175 17316 net.cpp:84] Creating Layer saliency_data
I0418 21:16:17.024180 17316 net.cpp:406] saliency_data <- data_data_0_split_2
I0418 21:16:17.024185 17316 net.cpp:406] saliency_data <- saliency
I0418 21:16:17.024191 17316 net.cpp:380] saliency_data -> saliency_data
I0418 21:16:17.024260 17316 net.cpp:122] Setting up saliency_data
I0418 21:16:17.024267 17316 net.cpp:129] Top shape: 1 3 512 310 (476160)
I0418 21:16:17.024271 17316 net.cpp:137] Memory required for data: 892572404
I0418 21:16:17.024276 17316 layer_factory.hpp:77] Creating layer crop
I0418 21:16:17.024361 17316 net.cpp:84] Creating Layer crop
I0418 21:16:17.024385 17316 net.cpp:406] crop <- label_data_1_split_0
I0418 21:16:17.024392 17316 net.cpp:406] crop <- saliency_data
I0418 21:16:17.024397 17316 net.cpp:406] crop <- crop_margin
I0418 21:16:17.024401 17316 net.cpp:406] crop <- crop_prob
I0418 21:16:17.024405 17316 net.cpp:406] crop <- crop_sample_batch
I0418 21:16:17.024412 17316 net.cpp:380] crop -> data-R
I0418 21:16:17.024420 17316 net.cpp:380] crop -> crop_info
I0418 21:16:17.029888 17316 net.cpp:122] Setting up crop
I0418 21:16:17.029906 17316 net.cpp:129] Top shape: 1 3 512 310 (476160)
I0418 21:16:17.029911 17316 net.cpp:129] Top shape: 1 2 4 (8)
I0418 21:16:17.029914 17316 net.cpp:137] Memory required for data: 894477076
I0418 21:16:17.029917 17316 layer_factory.hpp:77] Creating layer data-R_crop_0_split
I0418 21:16:17.029924 17316 net.cpp:84] Creating Layer data-R_crop_0_split
I0418 21:16:17.029928 17316 net.cpp:406] data-R_crop_0_split <- data-R
I0418 21:16:17.029934 17316 net.cpp:380] data-R_crop_0_split -> data-R_crop_0_split_0
I0418 21:16:17.029942 17316 net.cpp:380] data-R_crop_0_split -> data-R_crop_0_split_1
I0418 21:16:17.030028 17316 net.cpp:122] Setting up data-R_crop_0_split
I0418 21:16:17.030036 17316 net.cpp:129] Top shape: 1 3 512 310 (476160)
I0418 21:16:17.030040 17316 net.cpp:129] Top shape: 1 3 512 310 (476160)
I0418 21:16:17.030043 17316 net.cpp:137] Memory required for data: 898286356
I0418 21:16:17.030047 17316 layer_factory.hpp:77] Creating layer conv1_1-R
I0418 21:16:17.030057 17316 net.cpp:84] Creating Layer conv1_1-R
I0418 21:16:17.030061 17316 net.cpp:406] conv1_1-R <- data-R_crop_0_split_0
I0418 21:16:17.030074 17316 net.cpp:380] conv1_1-R -> conv1_1-R
I0418 21:16:17.033540 17316 net.cpp:122] Setting up conv1_1-R
I0418 21:16:17.033565 17316 net.cpp:129] Top shape: 1 64 710 508 (23083520)
I0418 21:16:17.033574 17316 net.cpp:137] Memory required for data: 990620436
I0418 21:16:17.033591 17316 layer_factory.hpp:77] Creating layer relu1_1-R
I0418 21:16:17.033598 17316 net.cpp:84] Creating Layer relu1_1-R
I0418 21:16:17.033603 17316 net.cpp:406] relu1_1-R <- conv1_1-R
I0418 21:16:17.033613 17316 net.cpp:367] relu1_1-R -> conv1_1-R (in-place)
I0418 21:16:17.034689 17316 net.cpp:122] Setting up relu1_1-R
I0418 21:16:17.034713 17316 net.cpp:129] Top shape: 1 64 710 508 (23083520)
I0418 21:16:17.034716 17316 net.cpp:137] Memory required for data: 1082954516
I0418 21:16:17.034720 17316 layer_factory.hpp:77] Creating layer conv1_2-R
I0418 21:16:17.034746 17316 net.cpp:84] Creating Layer conv1_2-R
I0418 21:16:17.034756 17316 net.cpp:406] conv1_2-R <- conv1_1-R
I0418 21:16:17.034785 17316 net.cpp:380] conv1_2-R -> conv1_2-R
I0418 21:16:17.038341 17316 net.cpp:122] Setting up conv1_2-R
I0418 21:16:17.038365 17316 net.cpp:129] Top shape: 1 64 710 508 (23083520)
I0418 21:16:17.038372 17316 net.cpp:137] Memory required for data: 1175288596
I0418 21:16:17.038381 17316 layer_factory.hpp:77] Creating layer relu1_2-R
I0418 21:16:17.038393 17316 net.cpp:84] Creating Layer relu1_2-R
I0418 21:16:17.038398 17316 net.cpp:406] relu1_2-R <- conv1_2-R
I0418 21:16:17.038403 17316 net.cpp:367] relu1_2-R -> conv1_2-R (in-place)
I0418 21:16:17.039386 17316 net.cpp:122] Setting up relu1_2-R
I0418 21:16:17.039412 17316 net.cpp:129] Top shape: 1 64 710 508 (23083520)
I0418 21:16:17.039415 17316 net.cpp:137] Memory required for data: 1267622676
I0418 21:16:17.039419 17316 layer_factory.hpp:77] Creating layer pool1-R
I0418 21:16:17.039429 17316 net.cpp:84] Creating Layer pool1-R
I0418 21:16:17.039433 17316 net.cpp:406] pool1-R <- conv1_2-R
I0418 21:16:17.039446 17316 net.cpp:380] pool1-R -> pool1-R
I0418 21:16:17.039604 17316 net.cpp:122] Setting up pool1-R
I0418 21:16:17.039614 17316 net.cpp:129] Top shape: 1 64 355 254 (5770880)
I0418 21:16:17.039618 17316 net.cpp:137] Memory required for data: 1290706196
I0418 21:16:17.039623 17316 layer_factory.hpp:77] Creating layer conv2_1-R
I0418 21:16:17.039664 17316 net.cpp:84] Creating Layer conv2_1-R
I0418 21:16:17.039680 17316 net.cpp:406] conv2_1-R <- pool1-R
I0418 21:16:17.039698 17316 net.cpp:380] conv2_1-R -> conv2_1-R
I0418 21:16:17.042889 17316 net.cpp:122] Setting up conv2_1-R
I0418 21:16:17.042917 17316 net.cpp:129] Top shape: 1 128 355 254 (11541760)
I0418 21:16:17.042924 17316 net.cpp:137] Memory required for data: 1336873236
I0418 21:16:17.042939 17316 layer_factory.hpp:77] Creating layer relu2_1-R
I0418 21:16:17.042953 17316 net.cpp:84] Creating Layer relu2_1-R
I0418 21:16:17.042979 17316 net.cpp:406] relu2_1-R <- conv2_1-R
I0418 21:16:17.042992 17316 net.cpp:367] relu2_1-R -> conv2_1-R (in-place)
I0418 21:16:17.043440 17316 net.cpp:122] Setting up relu2_1-R
I0418 21:16:17.043493 17316 net.cpp:129] Top shape: 1 128 355 254 (11541760)
I0418 21:16:17.043517 17316 net.cpp:137] Memory required for data: 1383040276
I0418 21:16:17.043525 17316 layer_factory.hpp:77] Creating layer conv2_2-R
I0418 21:16:17.043561 17316 net.cpp:84] Creating Layer conv2_2-R
I0418 21:16:17.043570 17316 net.cpp:406] conv2_2-R <- conv2_1-R
I0418 21:16:17.043583 17316 net.cpp:380] conv2_2-R -> conv2_2-R
I0418 21:16:17.049537 17316 net.cpp:122] Setting up conv2_2-R
I0418 21:16:17.049561 17316 net.cpp:129] Top shape: 1 128 355 254 (11541760)
I0418 21:16:17.049569 17316 net.cpp:137] Memory required for data: 1429207316
I0418 21:16:17.049578 17316 layer_factory.hpp:77] Creating layer relu2_2-R
I0418 21:16:17.049592 17316 net.cpp:84] Creating Layer relu2_2-R
I0418 21:16:17.049599 17316 net.cpp:406] relu2_2-R <- conv2_2-R
I0418 21:16:17.049610 17316 net.cpp:367] relu2_2-R -> conv2_2-R (in-place)
I0418 21:16:17.050119 17316 net.cpp:122] Setting up relu2_2-R
I0418 21:16:17.050139 17316 net.cpp:129] Top shape: 1 128 355 254 (11541760)
I0418 21:16:17.050145 17316 net.cpp:137] Memory required for data: 1475374356
I0418 21:16:17.050153 17316 layer_factory.hpp:77] Creating layer pool2-R
I0418 21:16:17.050192 17316 net.cpp:84] Creating Layer pool2-R
I0418 21:16:17.050218 17316 net.cpp:406] pool2-R <- conv2_2-R
I0418 21:16:17.050232 17316 net.cpp:380] pool2-R -> pool2-R
I0418 21:16:17.050380 17316 net.cpp:122] Setting up pool2-R
I0418 21:16:17.050400 17316 net.cpp:129] Top shape: 1 128 178 127 (2893568)
I0418 21:16:17.050405 17316 net.cpp:137] Memory required for data: 1486948628
I0418 21:16:17.050420 17316 layer_factory.hpp:77] Creating layer conv3_1-R
I0418 21:16:17.050436 17316 net.cpp:84] Creating Layer conv3_1-R
I0418 21:16:17.050447 17316 net.cpp:406] conv3_1-R <- pool2-R
I0418 21:16:17.050460 17316 net.cpp:380] conv3_1-R -> conv3_1-R
I0418 21:16:17.056576 17316 net.cpp:122] Setting up conv3_1-R
I0418 21:16:17.056603 17316 net.cpp:129] Top shape: 1 256 178 127 (5787136)
I0418 21:16:17.056609 17316 net.cpp:137] Memory required for data: 1510097172
I0418 21:16:17.056625 17316 layer_factory.hpp:77] Creating layer relu3_1-R
I0418 21:16:17.056644 17316 net.cpp:84] Creating Layer relu3_1-R
I0418 21:16:17.057416 17316 net.cpp:406] relu3_1-R <- conv3_1-R
I0418 21:16:17.057428 17316 net.cpp:367] relu3_1-R -> conv3_1-R (in-place)
I0418 21:16:17.057862 17316 net.cpp:122] Setting up relu3_1-R
I0418 21:16:17.057894 17316 net.cpp:129] Top shape: 1 256 178 127 (5787136)
I0418 21:16:17.057914 17316 net.cpp:137] Memory required for data: 1533245716
I0418 21:16:17.057919 17316 layer_factory.hpp:77] Creating layer conv3_2-R
I0418 21:16:17.057935 17316 net.cpp:84] Creating Layer conv3_2-R
I0418 21:16:17.057961 17316 net.cpp:406] conv3_2-R <- conv3_1-R
I0418 21:16:17.057988 17316 net.cpp:380] conv3_2-R -> conv3_2-R
I0418 21:16:17.064015 17316 net.cpp:122] Setting up conv3_2-R
I0418 21:16:17.064050 17316 net.cpp:129] Top shape: 1 256 178 127 (5787136)
I0418 21:16:17.064054 17316 net.cpp:137] Memory required for data: 1556394260
I0418 21:16:17.064064 17316 layer_factory.hpp:77] Creating layer relu3_2-R
I0418 21:16:17.064072 17316 net.cpp:84] Creating Layer relu3_2-R
I0418 21:16:17.064079 17316 net.cpp:406] relu3_2-R <- conv3_2-R
I0418 21:16:17.064085 17316 net.cpp:367] relu3_2-R -> conv3_2-R (in-place)
I0418 21:16:17.064635 17316 net.cpp:122] Setting up relu3_2-R
I0418 21:16:17.064659 17316 net.cpp:129] Top shape: 1 256 178 127 (5787136)
I0418 21:16:17.064663 17316 net.cpp:137] Memory required for data: 1579542804
I0418 21:16:17.064671 17316 layer_factory.hpp:77] Creating layer conv3_3-R
I0418 21:16:17.064687 17316 net.cpp:84] Creating Layer conv3_3-R
I0418 21:16:17.064690 17316 net.cpp:406] conv3_3-R <- conv3_2-R
I0418 21:16:17.064700 17316 net.cpp:380] conv3_3-R -> conv3_3-R
I0418 21:16:17.071550 17316 net.cpp:122] Setting up conv3_3-R
I0418 21:16:17.071576 17316 net.cpp:129] Top shape: 1 256 178 127 (5787136)
I0418 21:16:17.071583 17316 net.cpp:137] Memory required for data: 1602691348
I0418 21:16:17.071596 17316 layer_factory.hpp:77] Creating layer relu3_3-R
I0418 21:16:17.071609 17316 net.cpp:84] Creating Layer relu3_3-R
I0418 21:16:17.071615 17316 net.cpp:406] relu3_3-R <- conv3_3-R
I0418 21:16:17.071640 17316 net.cpp:367] relu3_3-R -> conv3_3-R (in-place)
I0418 21:16:17.072836 17316 net.cpp:122] Setting up relu3_3-R
I0418 21:16:17.072860 17316 net.cpp:129] Top shape: 1 256 178 127 (5787136)
I0418 21:16:17.072866 17316 net.cpp:137] Memory required for data: 1625839892
I0418 21:16:17.072871 17316 layer_factory.hpp:77] Creating layer pool3-R
I0418 21:16:17.072883 17316 net.cpp:84] Creating Layer pool3-R
I0418 21:16:17.072890 17316 net.cpp:406] pool3-R <- conv3_3-R
I0418 21:16:17.072901 17316 net.cpp:380] pool3-R -> pool3-R
I0418 21:16:17.073076 17316 net.cpp:122] Setting up pool3-R
I0418 21:16:17.073094 17316 net.cpp:129] Top shape: 1 256 89 64 (1458176)
I0418 21:16:17.073101 17316 net.cpp:137] Memory required for data: 1631672596
I0418 21:16:17.073107 17316 layer_factory.hpp:77] Creating layer pool3-R_pool3-R_0_split
I0418 21:16:17.073123 17316 net.cpp:84] Creating Layer pool3-R_pool3-R_0_split
I0418 21:16:17.073132 17316 net.cpp:406] pool3-R_pool3-R_0_split <- pool3-R
I0418 21:16:17.073145 17316 net.cpp:380] pool3-R_pool3-R_0_split -> pool3-R_pool3-R_0_split_0
I0418 21:16:17.073161 17316 net.cpp:380] pool3-R_pool3-R_0_split -> pool3-R_pool3-R_0_split_1
I0418 21:16:17.073261 17316 net.cpp:122] Setting up pool3-R_pool3-R_0_split
I0418 21:16:17.073279 17316 net.cpp:129] Top shape: 1 256 89 64 (1458176)
I0418 21:16:17.073288 17316 net.cpp:129] Top shape: 1 256 89 64 (1458176)
I0418 21:16:17.073294 17316 net.cpp:137] Memory required for data: 1643338004
I0418 21:16:17.073300 17316 layer_factory.hpp:77] Creating layer conv4_1-R
I0418 21:16:17.073323 17316 net.cpp:84] Creating Layer conv4_1-R
I0418 21:16:17.073343 17316 net.cpp:406] conv4_1-R <- pool3-R_pool3-R_0_split_0
I0418 21:16:17.073355 17316 net.cpp:380] conv4_1-R -> conv4_1-R
I0418 21:16:17.081590 17316 net.cpp:122] Setting up conv4_1-R
I0418 21:16:17.081614 17316 net.cpp:129] Top shape: 1 512 89 64 (2916352)
I0418 21:16:17.081620 17316 net.cpp:137] Memory required for data: 1655003412
I0418 21:16:17.081635 17316 layer_factory.hpp:77] Creating layer relu4_1-R
I0418 21:16:17.081652 17316 net.cpp:84] Creating Layer relu4_1-R
I0418 21:16:17.081661 17316 net.cpp:406] relu4_1-R <- conv4_1-R
I0418 21:16:17.081691 17316 net.cpp:367] relu4_1-R -> conv4_1-R (in-place)
I0418 21:16:17.083051 17316 net.cpp:122] Setting up relu4_1-R
I0418 21:16:17.083073 17316 net.cpp:129] Top shape: 1 512 89 64 (2916352)
I0418 21:16:17.083081 17316 net.cpp:137] Memory required for data: 1666668820
I0418 21:16:17.083088 17316 layer_factory.hpp:77] Creating layer conv4_2-R
I0418 21:16:17.083112 17316 net.cpp:84] Creating Layer conv4_2-R
I0418 21:16:17.083119 17316 net.cpp:406] conv4_2-R <- conv4_1-R
I0418 21:16:17.083151 17316 net.cpp:380] conv4_2-R -> conv4_2-R
I0418 21:16:17.095235 17316 net.cpp:122] Setting up conv4_2-R
I0418 21:16:17.095264 17316 net.cpp:129] Top shape: 1 512 89 64 (2916352)
I0418 21:16:17.095273 17316 net.cpp:137] Memory required for data: 1678334228
I0418 21:16:17.095288 17316 layer_factory.hpp:77] Creating layer relu4_2-R
I0418 21:16:17.095305 17316 net.cpp:84] Creating Layer relu4_2-R
I0418 21:16:17.095331 17316 net.cpp:406] relu4_2-R <- conv4_2-R
I0418 21:16:17.095345 17316 net.cpp:367] relu4_2-R -> conv4_2-R (in-place)
I0418 21:16:17.095850 17316 net.cpp:122] Setting up relu4_2-R
I0418 21:16:17.095868 17316 net.cpp:129] Top shape: 1 512 89 64 (2916352)
I0418 21:16:17.095873 17316 net.cpp:137] Memory required for data: 1689999636
I0418 21:16:17.095880 17316 layer_factory.hpp:77] Creating layer conv4_3-R
I0418 21:16:17.095908 17316 net.cpp:84] Creating Layer conv4_3-R
I0418 21:16:17.095916 17316 net.cpp:406] conv4_3-R <- conv4_2-R
I0418 21:16:17.095938 17316 net.cpp:380] conv4_3-R -> conv4_3-R
I0418 21:16:17.110092 17316 net.cpp:122] Setting up conv4_3-R
I0418 21:16:17.110114 17316 net.cpp:129] Top shape: 1 512 89 64 (2916352)
I0418 21:16:17.110118 17316 net.cpp:137] Memory required for data: 1701665044
I0418 21:16:17.110127 17316 layer_factory.hpp:77] Creating layer relu4_3-R
I0418 21:16:17.110137 17316 net.cpp:84] Creating Layer relu4_3-R
I0418 21:16:17.110142 17316 net.cpp:406] relu4_3-R <- conv4_3-R
I0418 21:16:17.110148 17316 net.cpp:367] relu4_3-R -> conv4_3-R (in-place)
I0418 21:16:17.110538 17316 net.cpp:122] Setting up relu4_3-R
I0418 21:16:17.110564 17316 net.cpp:129] Top shape: 1 512 89 64 (2916352)
I0418 21:16:17.110584 17316 net.cpp:137] Memory required for data: 1713330452
I0418 21:16:17.110589 17316 layer_factory.hpp:77] Creating layer pool4-R
I0418 21:16:17.110599 17316 net.cpp:84] Creating Layer pool4-R
I0418 21:16:17.110604 17316 net.cpp:406] pool4-R <- conv4_3-R
I0418 21:16:17.110611 17316 net.cpp:380] pool4-R -> pool4-R
I0418 21:16:17.110708 17316 net.cpp:122] Setting up pool4-R
I0418 21:16:17.110718 17316 net.cpp:129] Top shape: 1 512 45 32 (737280)
I0418 21:16:17.110723 17316 net.cpp:137] Memory required for data: 1716279572
I0418 21:16:17.110725 17316 layer_factory.hpp:77] Creating layer pool4-R_pool4-R_0_split
I0418 21:16:17.110733 17316 net.cpp:84] Creating Layer pool4-R_pool4-R_0_split
I0418 21:16:17.110736 17316 net.cpp:406] pool4-R_pool4-R_0_split <- pool4-R
I0418 21:16:17.110743 17316 net.cpp:380] pool4-R_pool4-R_0_split -> pool4-R_pool4-R_0_split_0
I0418 21:16:17.110751 17316 net.cpp:380] pool4-R_pool4-R_0_split -> pool4-R_pool4-R_0_split_1
I0418 21:16:17.110832 17316 net.cpp:122] Setting up pool4-R_pool4-R_0_split
I0418 21:16:17.110841 17316 net.cpp:129] Top shape: 1 512 45 32 (737280)
I0418 21:16:17.110846 17316 net.cpp:129] Top shape: 1 512 45 32 (737280)
I0418 21:16:17.110849 17316 net.cpp:137] Memory required for data: 1722177812
I0418 21:16:17.110852 17316 layer_factory.hpp:77] Creating layer conv5_1-R
I0418 21:16:17.110864 17316 net.cpp:84] Creating Layer conv5_1-R
I0418 21:16:17.110869 17316 net.cpp:406] conv5_1-R <- pool4-R_pool4-R_0_split_0
I0418 21:16:17.110878 17316 net.cpp:380] conv5_1-R -> conv5_1-R
I0418 21:16:17.123214 17316 net.cpp:122] Setting up conv5_1-R
I0418 21:16:17.123234 17316 net.cpp:129] Top shape: 1 512 45 32 (737280)
I0418 21:16:17.123239 17316 net.cpp:137] Memory required for data: 1725126932
I0418 21:16:17.123260 17316 layer_factory.hpp:77] Creating layer relu5_1-R
I0418 21:16:17.123268 17316 net.cpp:84] Creating Layer relu5_1-R
I0418 21:16:17.123273 17316 net.cpp:406] relu5_1-R <- conv5_1-R
I0418 21:16:17.123280 17316 net.cpp:367] relu5_1-R -> conv5_1-R (in-place)
I0418 21:16:17.123781 17316 net.cpp:122] Setting up relu5_1-R
I0418 21:16:17.123816 17316 net.cpp:129] Top shape: 1 512 45 32 (737280)
I0418 21:16:17.123826 17316 net.cpp:137] Memory required for data: 1728076052
I0418 21:16:17.123833 17316 layer_factory.hpp:77] Creating layer conv5_2-R
I0418 21:16:17.123893 17316 net.cpp:84] Creating Layer conv5_2-R
I0418 21:16:17.123903 17316 net.cpp:406] conv5_2-R <- conv5_1-R
I0418 21:16:17.123916 17316 net.cpp:380] conv5_2-R -> conv5_2-R
I0418 21:16:17.136157 17316 net.cpp:122] Setting up conv5_2-R
I0418 21:16:17.136185 17316 net.cpp:129] Top shape: 1 512 45 32 (737280)
I0418 21:16:17.136193 17316 net.cpp:137] Memory required for data: 1731025172
I0418 21:16:17.136205 17316 layer_factory.hpp:77] Creating layer relu5_2-R
I0418 21:16:17.136221 17316 net.cpp:84] Creating Layer relu5_2-R
I0418 21:16:17.136229 17316 net.cpp:406] relu5_2-R <- conv5_2-R
I0418 21:16:17.136258 17316 net.cpp:367] relu5_2-R -> conv5_2-R (in-place)
I0418 21:16:17.136652 17316 net.cpp:122] Setting up relu5_2-R
I0418 21:16:17.136664 17316 net.cpp:129] Top shape: 1 512 45 32 (737280)
I0418 21:16:17.136687 17316 net.cpp:137] Memory required for data: 1733974292
I0418 21:16:17.136693 17316 layer_factory.hpp:77] Creating layer conv5_3-R
I0418 21:16:17.136708 17316 net.cpp:84] Creating Layer conv5_3-R
I0418 21:16:17.136731 17316 net.cpp:406] conv5_3-R <- conv5_2-R
I0418 21:16:17.136760 17316 net.cpp:380] conv5_3-R -> conv5_3-R
I0418 21:16:17.150372 17316 net.cpp:122] Setting up conv5_3-R
I0418 21:16:17.150403 17316 net.cpp:129] Top shape: 1 512 45 32 (737280)
I0418 21:16:17.150411 17316 net.cpp:137] Memory required for data: 1736923412
I0418 21:16:17.150426 17316 layer_factory.hpp:77] Creating layer relu5_3-R
I0418 21:16:17.150442 17316 net.cpp:84] Creating Layer relu5_3-R
I0418 21:16:17.150452 17316 net.cpp:406] relu5_3-R <- conv5_3-R
I0418 21:16:17.150480 17316 net.cpp:367] relu5_3-R -> conv5_3-R (in-place)
I0418 21:16:17.151908 17316 net.cpp:122] Setting up relu5_3-R
I0418 21:16:17.151933 17316 net.cpp:129] Top shape: 1 512 45 32 (737280)
I0418 21:16:17.151939 17316 net.cpp:137] Memory required for data: 1739872532
I0418 21:16:17.151947 17316 layer_factory.hpp:77] Creating layer pool5-R
I0418 21:16:17.151964 17316 net.cpp:84] Creating Layer pool5-R
I0418 21:16:17.151973 17316 net.cpp:406] pool5-R <- conv5_3-R
I0418 21:16:17.152003 17316 net.cpp:380] pool5-R -> pool5-R
I0418 21:16:17.152154 17316 net.cpp:122] Setting up pool5-R
I0418 21:16:17.152165 17316 net.cpp:129] Top shape: 1 512 23 16 (188416)
I0418 21:16:17.152168 17316 net.cpp:137] Memory required for data: 1740626196
I0418 21:16:17.152173 17316 layer_factory.hpp:77] Creating layer fc6-R
I0418 21:16:17.152185 17316 net.cpp:84] Creating Layer fc6-R
I0418 21:16:17.152195 17316 net.cpp:406] fc6-R <- pool5-R
I0418 21:16:17.152211 17316 net.cpp:380] fc6-R -> fc6-R
I0418 21:16:17.581796 17316 net.cpp:122] Setting up fc6-R
I0418 21:16:17.581902 17316 net.cpp:129] Top shape: 1 4096 17 10 (696320)
I0418 21:16:17.581924 17316 net.cpp:137] Memory required for data: 1743411476
I0418 21:16:17.581982 17316 layer_factory.hpp:77] Creating layer relu6-R
I0418 21:16:17.582033 17316 net.cpp:84] Creating Layer relu6-R
I0418 21:16:17.582048 17316 net.cpp:406] relu6-R <- fc6-R
I0418 21:16:17.582067 17316 net.cpp:367] relu6-R -> fc6-R (in-place)
I0418 21:16:17.584295 17316 net.cpp:122] Setting up relu6-R
I0418 21:16:17.584319 17316 net.cpp:129] Top shape: 1 4096 17 10 (696320)
I0418 21:16:17.584327 17316 net.cpp:137] Memory required for data: 1746196756
I0418 21:16:17.584336 17316 layer_factory.hpp:77] Creating layer drop6-R
I0418 21:16:17.584357 17316 net.cpp:84] Creating Layer drop6-R
I0418 21:16:17.584391 17316 net.cpp:406] drop6-R <- fc6-R
I0418 21:16:17.584420 17316 net.cpp:367] drop6-R -> fc6-R (in-place)
I0418 21:16:17.584573 17316 net.cpp:122] Setting up drop6-R
I0418 21:16:17.584614 17316 net.cpp:129] Top shape: 1 4096 17 10 (696320)
I0418 21:16:17.584625 17316 net.cpp:137] Memory required for data: 1748982036
I0418 21:16:17.584632 17316 layer_factory.hpp:77] Creating layer fc7-R
I0418 21:16:17.584656 17316 net.cpp:84] Creating Layer fc7-R
I0418 21:16:17.584669 17316 net.cpp:406] fc7-R <- fc6-R
I0418 21:16:17.584689 17316 net.cpp:380] fc7-R -> fc7-R
I0418 21:16:17.665290 17316 net.cpp:122] Setting up fc7-R
I0418 21:16:17.665350 17316 net.cpp:129] Top shape: 1 4096 17 10 (696320)
I0418 21:16:17.665356 17316 net.cpp:137] Memory required for data: 1751767316
I0418 21:16:17.665372 17316 layer_factory.hpp:77] Creating layer relu7-R
I0418 21:16:17.665395 17316 net.cpp:84] Creating Layer relu7-R
I0418 21:16:17.665426 17316 net.cpp:406] relu7-R <- fc7-R
I0418 21:16:17.665442 17316 net.cpp:367] relu7-R -> fc7-R (in-place)
I0418 21:16:17.665944 17316 net.cpp:122] Setting up relu7-R
I0418 21:16:17.665977 17316 net.cpp:129] Top shape: 1 4096 17 10 (696320)
I0418 21:16:17.665983 17316 net.cpp:137] Memory required for data: 1754552596
I0418 21:16:17.665987 17316 layer_factory.hpp:77] Creating layer drop7-R
I0418 21:16:17.666003 17316 net.cpp:84] Creating Layer drop7-R
I0418 21:16:17.666013 17316 net.cpp:406] drop7-R <- fc7-R
I0418 21:16:17.666054 17316 net.cpp:367] drop7-R -> fc7-R (in-place)
I0418 21:16:17.666157 17316 net.cpp:122] Setting up drop7-R
I0418 21:16:17.666230 17316 net.cpp:129] Top shape: 1 4096 17 10 (696320)
I0418 21:16:17.666239 17316 net.cpp:137] Memory required for data: 1757337876
I0418 21:16:17.666245 17316 layer_factory.hpp:77] Creating layer score_fr-new-R
I0418 21:16:17.666275 17316 net.cpp:84] Creating Layer score_fr-new-R
I0418 21:16:17.666298 17316 net.cpp:406] score_fr-new-R <- fc7-R
I0418 21:16:17.666311 17316 net.cpp:380] score_fr-new-R -> score_fr-new-R
I0418 21:16:17.669365 17316 net.cpp:122] Setting up score_fr-new-R
I0418 21:16:17.669379 17316 net.cpp:129] Top shape: 1 3 17 10 (510)
I0418 21:16:17.669384 17316 net.cpp:137] Memory required for data: 1757339916
I0418 21:16:17.669390 17316 layer_factory.hpp:77] Creating layer upscore2-new-R
I0418 21:16:17.669410 17316 net.cpp:84] Creating Layer upscore2-new-R
I0418 21:16:17.669420 17316 net.cpp:406] upscore2-new-R <- score_fr-new-R
I0418 21:16:17.669452 17316 net.cpp:380] upscore2-new-R -> upscore2-new-R
I0418 21:16:17.670236 17316 net.cpp:122] Setting up upscore2-new-R
I0418 21:16:17.670265 17316 net.cpp:129] Top shape: 1 3 36 22 (2376)
I0418 21:16:17.670275 17316 net.cpp:137] Memory required for data: 1757349420
I0418 21:16:17.670287 17316 layer_factory.hpp:77] Creating layer upscore2-new-R_upscore2-new-R_0_split
I0418 21:16:17.670302 17316 net.cpp:84] Creating Layer upscore2-new-R_upscore2-new-R_0_split
I0418 21:16:17.670327 17316 net.cpp:406] upscore2-new-R_upscore2-new-R_0_split <- upscore2-new-R
I0418 21:16:17.670336 17316 net.cpp:380] upscore2-new-R_upscore2-new-R_0_split -> upscore2-new-R_upscore2-new-R_0_split_0
I0418 21:16:17.670347 17316 net.cpp:380] upscore2-new-R_upscore2-new-R_0_split -> upscore2-new-R_upscore2-new-R_0_split_1
I0418 21:16:17.670460 17316 net.cpp:122] Setting up upscore2-new-R_upscore2-new-R_0_split
I0418 21:16:17.670470 17316 net.cpp:129] Top shape: 1 3 36 22 (2376)
I0418 21:16:17.670476 17316 net.cpp:129] Top shape: 1 3 36 22 (2376)
I0418 21:16:17.670483 17316 net.cpp:137] Memory required for data: 1757368428
I0418 21:16:17.670492 17316 layer_factory.hpp:77] Creating layer score_pool4-new-R
I0418 21:16:17.670526 17316 net.cpp:84] Creating Layer score_pool4-new-R
I0418 21:16:17.670565 17316 net.cpp:406] score_pool4-new-R <- pool4-R_pool4-R_0_split_1
I0418 21:16:17.670583 17316 net.cpp:380] score_pool4-new-R -> score_pool4-new-R
I0418 21:16:17.673447 17316 net.cpp:122] Setting up score_pool4-new-R
I0418 21:16:17.673482 17316 net.cpp:129] Top shape: 1 3 45 32 (4320)
I0418 21:16:17.673498 17316 net.cpp:137] Memory required for data: 1757385708
I0418 21:16:17.673552 17316 layer_factory.hpp:77] Creating layer score_pool4c-R
I0418 21:16:17.673588 17316 net.cpp:84] Creating Layer score_pool4c-R
I0418 21:16:17.673612 17316 net.cpp:406] score_pool4c-R <- score_pool4-new-R
I0418 21:16:17.673641 17316 net.cpp:406] score_pool4c-R <- upscore2-new-R_upscore2-new-R_0_split_0
I0418 21:16:17.673665 17316 net.cpp:380] score_pool4c-R -> score_pool4c-R
I0418 21:16:17.673861 17316 net.cpp:122] Setting up score_pool4c-R
I0418 21:16:17.673904 17316 net.cpp:129] Top shape: 1 3 36 22 (2376)
I0418 21:16:17.673924 17316 net.cpp:137] Memory required for data: 1757395212
I0418 21:16:17.673941 17316 layer_factory.hpp:77] Creating layer fuse_pool4-R
I0418 21:16:17.673954 17316 net.cpp:84] Creating Layer fuse_pool4-R
I0418 21:16:17.673971 17316 net.cpp:406] fuse_pool4-R <- upscore2-new-R_upscore2-new-R_0_split_1
I0418 21:16:17.673985 17316 net.cpp:406] fuse_pool4-R <- score_pool4c-R
I0418 21:16:17.674010 17316 net.cpp:380] fuse_pool4-R -> fuse_pool4-R
I0418 21:16:17.674152 17316 net.cpp:122] Setting up fuse_pool4-R
I0418 21:16:17.674228 17316 net.cpp:129] Top shape: 1 3 36 22 (2376)
I0418 21:16:17.674254 17316 net.cpp:137] Memory required for data: 1757404716
I0418 21:16:17.674268 17316 layer_factory.hpp:77] Creating layer upscore_pool4-new-R
I0418 21:16:17.674283 17316 net.cpp:84] Creating Layer upscore_pool4-new-R
I0418 21:16:17.674296 17316 net.cpp:406] upscore_pool4-new-R <- fuse_pool4-R
I0418 21:16:17.674346 17316 net.cpp:380] upscore_pool4-new-R -> upscore_pool4-new-R
I0418 21:16:17.675048 17316 net.cpp:122] Setting up upscore_pool4-new-R
I0418 21:16:17.675060 17316 net.cpp:129] Top shape: 1 3 74 46 (10212)
I0418 21:16:17.675063 17316 net.cpp:137] Memory required for data: 1757445564
I0418 21:16:17.675068 17316 layer_factory.hpp:77] Creating layer upscore_pool4-new-R_upscore_pool4-new-R_0_split
I0418 21:16:17.675094 17316 net.cpp:84] Creating Layer upscore_pool4-new-R_upscore_pool4-new-R_0_split
I0418 21:16:17.675098 17316 net.cpp:406] upscore_pool4-new-R_upscore_pool4-new-R_0_split <- upscore_pool4-new-R
I0418 21:16:17.675106 17316 net.cpp:380] upscore_pool4-new-R_upscore_pool4-new-R_0_split -> upscore_pool4-new-R_upscore_pool4-new-R_0_split_0
I0418 21:16:17.675115 17316 net.cpp:380] upscore_pool4-new-R_upscore_pool4-new-R_0_split -> upscore_pool4-new-R_upscore_pool4-new-R_0_split_1
I0418 21:16:17.675206 17316 net.cpp:122] Setting up upscore_pool4-new-R_upscore_pool4-new-R_0_split
I0418 21:16:17.675235 17316 net.cpp:129] Top shape: 1 3 74 46 (10212)
I0418 21:16:17.675240 17316 net.cpp:129] Top shape: 1 3 74 46 (10212)
I0418 21:16:17.675242 17316 net.cpp:137] Memory required for data: 1757527260
I0418 21:16:17.675247 17316 layer_factory.hpp:77] Creating layer score_pool3-new-R
I0418 21:16:17.675263 17316 net.cpp:84] Creating Layer score_pool3-new-R
I0418 21:16:17.675272 17316 net.cpp:406] score_pool3-new-R <- pool3-R_pool3-R_0_split_1
I0418 21:16:17.675281 17316 net.cpp:380] score_pool3-new-R -> score_pool3-new-R
I0418 21:16:17.677394 17316 net.cpp:122] Setting up score_pool3-new-R
I0418 21:16:17.677409 17316 net.cpp:129] Top shape: 1 3 89 64 (17088)
I0418 21:16:17.677412 17316 net.cpp:137] Memory required for data: 1757595612
I0418 21:16:17.677419 17316 layer_factory.hpp:77] Creating layer score_pool3c-R
I0418 21:16:17.677428 17316 net.cpp:84] Creating Layer score_pool3c-R
I0418 21:16:17.677431 17316 net.cpp:406] score_pool3c-R <- score_pool3-new-R
I0418 21:16:17.677436 17316 net.cpp:406] score_pool3c-R <- upscore_pool4-new-R_upscore_pool4-new-R_0_split_0
I0418 21:16:17.677443 17316 net.cpp:380] score_pool3c-R -> score_pool3c-R
I0418 21:16:17.677515 17316 net.cpp:122] Setting up score_pool3c-R
I0418 21:16:17.677521 17316 net.cpp:129] Top shape: 1 3 74 46 (10212)
I0418 21:16:17.677525 17316 net.cpp:137] Memory required for data: 1757636460
I0418 21:16:17.677531 17316 layer_factory.hpp:77] Creating layer fuse_pool3-R
I0418 21:16:17.677538 17316 net.cpp:84] Creating Layer fuse_pool3-R
I0418 21:16:17.677544 17316 net.cpp:406] fuse_pool3-R <- upscore_pool4-new-R_upscore_pool4-new-R_0_split_1
I0418 21:16:17.677551 17316 net.cpp:406] fuse_pool3-R <- score_pool3c-R
I0418 21:16:17.677558 17316 net.cpp:380] fuse_pool3-R -> fuse_pool3-R
I0418 21:16:17.677613 17316 net.cpp:122] Setting up fuse_pool3-R
I0418 21:16:17.677640 17316 net.cpp:129] Top shape: 1 3 74 46 (10212)
I0418 21:16:17.677644 17316 net.cpp:137] Memory required for data: 1757677308
I0418 21:16:17.677649 17316 layer_factory.hpp:77] Creating layer upscore8-new-R
I0418 21:16:17.677660 17316 net.cpp:84] Creating Layer upscore8-new-R
I0418 21:16:17.677665 17316 net.cpp:406] upscore8-new-R <- fuse_pool3-R
I0418 21:16:17.677677 17316 net.cpp:380] upscore8-new-R -> upscore8-new-R
I0418 21:16:17.678917 17316 net.cpp:122] Setting up upscore8-new-R
I0418 21:16:17.678941 17316 net.cpp:129] Top shape: 1 3 600 376 (676800)
I0418 21:16:17.678948 17316 net.cpp:137] Memory required for data: 1760384508
I0418 21:16:17.678961 17316 layer_factory.hpp:77] Creating layer upscore8_cropped-R
I0418 21:16:17.678980 17316 net.cpp:84] Creating Layer upscore8_cropped-R
I0418 21:16:17.679005 17316 net.cpp:406] upscore8_cropped-R <- upscore8-new-R
I0418 21:16:17.679023 17316 net.cpp:406] upscore8_cropped-R <- data-R_crop_0_split_1
I0418 21:16:17.679036 17316 net.cpp:380] upscore8_cropped-R -> upscore8_cropped-R
I0418 21:16:17.679147 17316 net.cpp:122] Setting up upscore8_cropped-R
I0418 21:16:17.679167 17316 net.cpp:129] Top shape: 1 3 512 310 (476160)
I0418 21:16:17.679173 17316 net.cpp:137] Memory required for data: 1762289148
I0418 21:16:17.679181 17316 layer_factory.hpp:77] Creating layer score-R
I0418 21:16:17.679205 17316 net.cpp:84] Creating Layer score-R
I0418 21:16:17.679217 17316 net.cpp:406] score-R <- upscore8_cropped-R
I0418 21:16:17.679236 17316 net.cpp:380] score-R -> score-R
I0418 21:16:17.682217 17316 net.cpp:122] Setting up score-R
I0418 21:16:17.682251 17316 net.cpp:129] Top shape: 1 3 512 310 (476160)
I0418 21:16:17.682256 17316 net.cpp:137] Memory required for data: 1764193788
I0418 21:16:17.682268 17316 layer_factory.hpp:77] Creating layer score_uncropped-R
I0418 21:16:17.682466 17316 net.cpp:84] Creating Layer score_uncropped-R
I0418 21:16:17.682476 17316 net.cpp:406] score_uncropped-R <- crop_info
I0418 21:16:17.682485 17316 net.cpp:406] score_uncropped-R <- score-R
I0418 21:16:17.682494 17316 net.cpp:406] score_uncropped-R <- data_data_0_split_3
I0418 21:16:17.682502 17316 net.cpp:380] score_uncropped-R -> score_uncropped-R
I0418 21:16:17.685427 17316 net.cpp:122] Setting up score_uncropped-R
I0418 21:16:17.685453 17316 net.cpp:129] Top shape: 1 3 512 310 (476160)
I0418 21:16:17.685459 17316 net.cpp:137] Memory required for data: 1766098428
I0418 21:16:17.685467 17316 layer_factory.hpp:77] Creating layer loss1
I0418 21:16:17.685487 17316 net.cpp:84] Creating Layer loss1
I0418 21:16:17.685494 17316 net.cpp:406] loss1 <- score_score_0_split_1
I0418 21:16:17.685521 17316 net.cpp:406] loss1 <- label_data_1_split_1
I0418 21:16:17.685533 17316 net.cpp:380] loss1 -> loss1
…
