…
snapshot_prefix: "/media/Med_2T2/data2/models/snapshots/joint:1e-5x10,1e-5x10,20/FD3:ZI3_1_20180715_091948,ZJ3_1_20180715_202726/train"
test_initialization: false
average_loss: 20
stepvalue: 50000
stepvalue: 60000
stepvalue: 70000
iter_size: 1
I0716 03:26:08.320495 15345 solver.cpp:77] Creating training net from train_net file: /media/Med_2T2/data2/prototxts/training_J3x10.prototxt
I0716 03:26:08.323313 15345 net.cpp:51] Initializing net from parameters: 
state {
  phase: TRAIN
}
layer {
  name: "data"
  type: "Python"
  top: "data"
  top: "label"
  top: "crop_margin"
  top: "crop_prob"
  top: "crop_sample_batch"
  python_param {
    module: "Data"
    layer: "DataLayer"
  }
}
layer {
  name: "conv1_1"
  type: "Convolution"
  bottom: "data"
  top: "conv1_1"
  param {
    lr_mult: 1
    decay_mult: 1
  }
  param {
    lr_mult: 2
    decay_mult: 0
  }
  convolution_param {
    num_output: 64
    pad: 100
    kernel_size: 3
    stride: 1
  }
}
layer {
  name: "relu1_1"
  type: "ReLU"
  bottom: "conv1_1"
  top: "conv1_1"
}
layer {
  name: "conv1_2"
  type: "Convolution"
  bottom: "conv1_1"
  top: "conv1_2"
  param {
    lr_mult: 1
    decay_mult: 1
  }
  param {
    lr_mult: 2
    decay_mult: 0
  }
  convolution_param {
    num_output: 64
    pad: 1
    kernel_size: 3
    stride: 1
  }
}
layer {
  name: "relu1_2"
  type: "ReLU"
  bottom: "conv1_2"
  top: "conv1_2"
}
layer {
  name: "pool1"
  type: "Pooling"
  bottom: "conv1_2"
  top: "pool1"
  pooling_param {
    pool: MAX
    kernel_size: 2
    stride: 2
  }
}
layer {
  name: "conv2_1"
  type: "Convolution"
  bottom: "pool1"
  top: "conv2_1"
  param {
    lr_mult: 1
    decay_mult: 1
  }
  param {
    lr_mult: 2
    decay_mult: 0
  }
  convolution_param {
    num_output: 128
    pad: 1
    kernel_size: 3
    stride: 1
  }
}
layer {
  name: "relu2_1"
  type: "ReLU"
  bottom: "conv2_1"
  top: "conv2_1"
}
layer {
  name: "conv2_2"
  type: "Convolution"
  bottom: "conv2_1"
  top: "conv2_2"
  param {
    lr_mult: 1
    decay_mult: 1
  }
  param {
    lr_mult: 2
    decay_mult: 0
  }
  convolution_param {
    num_output: 128
    pad: 1
    kernel_size: 3
    stride: 1
  }
}
layer {
  name: "relu2_2"
  type: "ReLU"
  bottom: "conv2_2"
  top: "conv2_2"
}
layer {
  name: "pool2"
  type: "Pooling"
  bottom: "conv2_2"
  top: "pool2"
  pooling_param {
    pool: MAX
    kernel_size: 2
    stride: 2
  }
}
layer {
  name: "conv3_1"
  type: "Convolution"
  bottom: "pool2"
  top: "conv3_1"
  param {
    lr_mult: 1
    decay_mult: 1
  }
  param {
    lr_mult: 2
    decay_mult: 0
  }
  convolution_param {
    num_output: 256
    pad: 1
    kernel_size: 3
    stride: 1
  }
}
layer {
  name: "relu3_1"
  type: "ReLU"
  bottom: "conv3_1"
  top: "conv3_1"
}
layer {
  name: "conv3_2"
  type: "Convolution"
  bottom: "conv3_1"
  top: "conv3_2"
  param {
    lr_mult: 1
    decay_mult: 1
  }
  param {
    lr_mult: 2
    decay_mult: 0
  }
  convolution_param {
    num_output: 256
    pad: 1
    kernel_size: 3
    stride: 1
  }
}
layer {
  name: "relu3_2"
  type: "ReLU"
  bottom: "conv3_2"
  top: "conv3_2"
}
layer {
  name: "conv3_3"
  type: "Convolution"
  bottom: "conv3_2"
  top: "conv3_3"
  param {
    lr_mult: 1
    decay_mult: 1
  }
  param {
    lr_mult: 2
    decay_mult: 0
  }
  convolution_param {
    num_output: 256
    pad: 1
    kernel_size: 3
    stride: 1
  }
}
layer {
  name: "relu3_3"
  type: "ReLU"
  bottom: "conv3_3"
  top: "conv3_3"
}
layer {
  name: "pool3"
  type: "Pooling"
  bottom: "conv3_3"
  top: "pool3"
  pooling_param {
    pool: MAX
    kernel_size: 2
    stride: 2
  }
}
layer {
  name: "conv4_1"
  type: "Convolution"
  bottom: "pool3"
  top: "conv4_1"
  param {
    lr_mult: 1
    decay_mult: 1
  }
  param {
    lr_mult: 2
    decay_mult: 0
  }
  convolution_param {
    num_output: 512
    pad: 1
    kernel_size: 3
    stride: 1
  }
}
layer {
  name: "relu4_1"
  type: "ReLU"
  bottom: "conv4_1"
  top: "conv4_1"
}
layer {
  name: "conv4_2"
  type: "Convolution"
  bottom: "conv4_1"
  top: "conv4_2"
  param {
    lr_mult: 1
    decay_mult: 1
  }
  param {
    lr_mult: 2
    decay_mult: 0
  }
  convolution_param {
    num_output: 512
    pad: 1
    kernel_size: 3
    stride: 1
  }
}
layer {
  name: "relu4_2"
  type: "ReLU"
  bottom: "conv4_2"
  top: "conv4_2"
}
layer {
  name: "conv4_3"
  type: "Convolution"
  bottom: "conv4_2"
  top: "conv4_3"
  param {
    lr_mult: 1
    decay_mult: 1
  }
  param {
    lr_mult: 2
    decay_mult: 0
  }
  convolution_param {
    num_output: 512
    pad: 1
    kernel_size: 3
    stride: 1
  }
}
layer {
  name: "relu4_3"
  type: "ReLU"
  bottom: "conv4_3"
  top: "conv4_3"
}
layer {
  name: "pool4"
  type: "Pooling"
  bottom: "conv4_3"
  top: "pool4"
  pooling_param {
    pool: MAX
    kernel_size: 2
    stride: 2
  }
}
layer {
  name: "conv5_1"
  type: "Convolution"
  bottom: "pool4"
  top: "conv5_1"
  param {
    lr_mult: 1
    decay_mult: 1
  }
  param {
    lr_mult: 2
    decay_mult: 0
  }
  convolution_param {
    num_output: 512
    pad: 1
    kernel_size: 3
    stride: 1
  }
}
layer {
  name: "relu5_1"
  type: "ReLU"
  bottom: "conv5_1"
  top: "conv5_1"
}
layer {
  name: "conv5_2"
  type: "Convolution"
  bottom: "conv5_1"
  top: "conv5_2"
  param {
    lr_mult: 1
    decay_mult: 1
  }
  param {
    lr_mult: 2
    decay_mult: 0
  }
  convolution_param {
    num_output: 512
    pad: 1
    kernel_size: 3
    stride: 1
  }
}
layer {
  name: "relu5_2"
  type: "ReLU"
  bottom: "conv5_2"
  top: "conv5_2"
}
layer {
  name: "conv5_3"
  type: "Convolution"
  bottom: "conv5_2"
  top: "conv5_3"
  param {
    lr_mult: 1
    decay_mult: 1
  }
  param {
    lr_mult: 2
    decay_mult: 0
  }
  convolution_param {
    num_output: 512
    pad: 1
    kernel_size: 3
    stride: 1
  }
}
layer {
  name: "relu5_3"
  type: "ReLU"
  bottom: "conv5_3"
  top: "conv5_3"
}
layer {
  name: "pool5"
  type: "Pooling"
  bottom: "conv5_3"
  top: "pool5"
  pooling_param {
    pool: MAX
    kernel_size: 2
    stride: 2
  }
}
layer {
  name: "fc6"
  type: "Convolution"
  bottom: "pool5"
  top: "fc6"
  param {
    lr_mult: 1
    decay_mult: 1
  }
  param {
    lr_mult: 2
    decay_mult: 0
  }
  convolution_param {
    num_output: 4096
    pad: 0
    kernel_size: 7
    stride: 1
  }
}
layer {
  name: "relu6"
  type: "ReLU"
  bottom: "fc6"
  top: "fc6"
}
layer {
  name: "drop6"
  type: "Dropout"
  bottom: "fc6"
  top: "fc6"
  dropout_param {
    dropout_ratio: 0.5
  }
}
layer {
  name: "fc7"
  type: "Convolution"
  bottom: "fc6"
  top: "fc7"
  param {
    lr_mult: 1
    decay_mult: 1
  }
  param {
    lr_mult: 2
    decay_mult: 0
  }
  convolution_param {
    num_output: 4096
    pad: 0
    kernel_size: 1
    stride: 1
  }
}
layer {
  name: "relu7"
  type: "ReLU"
  bottom: "fc7"
  top: "fc7"
}
layer {
  name: "drop7"
  type: "Dropout"
  bottom: "fc7"
  top: "fc7"
  dropout_param {
    dropout_ratio: 0.5
  }
}
layer {
  name: "score_fr-new"
  type: "Convolution"
  bottom: "fc7"
  top: "score_fr-new"
  param {
    lr_mult: 1
    decay_mult: 1
  }
  param {
    lr_mult: 2
    decay_mult: 0
  }
  convolution_param {
    num_output: 3
    kernel_size: 1
  }
}
layer {
  name: "upscore2-new"
  type: "Deconvolution"
  bottom: "score_fr-new"
  top: "upscore2-new"
  param {
    lr_mult: 0
  }
  convolution_param {
    num_output: 3
    bias_term: false
    kernel_size: 4
    stride: 2
  }
}
layer {
  name: "score_pool4-new"
  type: "Convolution"
  bottom: "pool4"
  top: "score_pool4-new"
  param {
    lr_mult: 1
    decay_mult: 1
  }
  param {
    lr_mult: 2
    decay_mult: 0
  }
  convolution_param {
    num_output: 3
    pad: 0
    kernel_size: 1
  }
}
layer {
  name: "score_pool4c"
  type: "Crop"
  bottom: "score_pool4-new"
  bottom: "upscore2-new"
  top: "score_pool4c"
  crop_param {
    axis: 2
    offset: 5
  }
}
layer {
  name: "fuse_pool4"
  type: "Eltwise"
  bottom: "upscore2-new"
  bottom: "score_pool4c"
  top: "fuse_pool4"
  eltwise_param {
    operation: SUM
  }
}
layer {
  name: "upscore_pool4-new"
  type: "Deconvolution"
  bottom: "fuse_pool4"
  top: "upscore_pool4-new"
  param {
    lr_mult: 0
  }
  convolution_param {
    num_output: 3
    bias_term: false
    kernel_size: 4
    stride: 2
  }
}
layer {
  name: "score_pool3-new"
  type: "Convolution"
  bottom: "pool3"
  top: "score_pool3-new"
  param {
    lr_mult: 1
    decay_mult: 1
  }
  param {
    lr_mult: 2
    decay_mult: 0
  }
  convolution_param {
    num_output: 3
    pad: 0
    kernel_size: 1
  }
}
layer {
  name: "score_pool3c"
  type: "Crop"
  bottom: "score_pool3-new"
  bottom: "upscore_pool4-new"
  top: "score_pool3c"
  crop_param {
    axis: 2
    offset: 9
  }
}
layer {
  name: "fuse_pool3"
  type: "Eltwise"
  bottom: "upscore_pool4-new"
  bottom: "score_pool3c"
  top: "fuse_pool3"
  eltwise_param {
    operation: SUM
  }
}
layer {
  name: "upscore8-new"
  type: "Deconvolution"
  bottom: "fuse_pool3"
  top: "upscore8-new"
  param {
    lr_mult: 0
  }
  convolution_param {
    num_output: 3
    bias_term: false
    kernel_size: 16
    stride: 8
  }
}
layer {
  name: "upscore8_cropped"
  type: "Crop"
  bottom: "upscore8-new"
  bottom: "data"
  top: "upscore8_cropped"
  crop_param {
    axis: 2
    offset: 31
  }
}
layer {
  name: "prob"
  type: "Sigmoid"
  bottom: "upscore8_cropped"
  top: "prob"
}
layer {
  name: "saliency1"
  type: "Convolution"
  bottom: "prob"
  top: "saliency1"
  param {
    lr_mult: 10
    decay_mult: 1
  }
  param {
    lr_mult: 20
    decay_mult: 0
  }
  convolution_param {
    num_output: 3
    pad: 1
    kernel_size: 3
    stride: 1
    weight_filler {
      type: "xavier"
    }
    bias_filler {
      type: "constant"
      value: 1
    }
  }
}
layer {
  name: "relu_saliency1"
  type: "ReLU"
  bottom: "saliency1"
  top: "saliency1"
}
layer {
  name: "saliency"
  type: "Convolution"
  bottom: "saliency1"
  top: "saliency"
  param {
    lr_mult: 10
    decay_mult: 1
  }
  param {
    lr_mult: 20
    decay_mult: 0
  }
  convolution_param {
    num_output: 3
    pad: 2
    kernel_size: 5
    stride: 1
    weight_filler {
      type: "xavier"
    }
    bias_filler {
      type: "constant"
      value: 1
    }
  }
}
layer {
  name: "saliency_data"
  type: "Eltwise"
  bottom: "data"
  bottom: "saliency"
  top: "saliency_data"
  eltwise_param {
    operation: PROD
  }
}
layer {
  name: "crop"
  type: "Python"
  bottom: "prob"
  bottom: "saliency_data"
  bottom: "crop_margin"
  bottom: "crop_prob"
  bottom: "crop_sample_batch"
  bottom: "label"
  top: "data-R"
  top: "crop_info"
  python_param {
    module: "Crop"
    layer: "CropLayer"
    param_str: "{\"TEST\": 0}"
  }
}
layer {
  name: "conv1_1-R"
  type: "Convolution"
  bottom: "data-R"
  top: "conv1_1-R"
  param {
    lr_mult: 10
    decay_mult: 1
  }
  param {
    lr_mult: 20
    decay_mult: 0
  }
  convolution_param {
    num_output: 64
    pad: 100
    kernel_size: 3
    stride: 1
  }
}
layer {
  name: "relu1_1-R"
  type: "ReLU"
  bottom: "conv1_1-R"
  top: "conv1_1-R"
}
layer {
  name: "conv1_2-R"
  type: "Convolution"
  bottom: "conv1_1-R"
  top: "conv1_2-R"
  param {
    lr_mult: 10
    decay_mult: 1
  }
  param {
    lr_mult: 20
    decay_mult: 0
  }
  convolution_param {
    num_output: 64
    pad: 1
    kernel_size: 3
    stride: 1
  }
}
layer {
  name: "relu1_2-R"
  type: "ReLU"
  bottom: "conv1_2-R"
  top: "conv1_2-R"
}
layer {
  name: "pool1-R"
  type: "Pooling"
  bottom: "conv1_2-R"
  top: "pool1-R"
  pooling_param {
    pool: MAX
    kernel_size: 2
    stride: 2
  }
}
layer {
  name: "conv2_1-R"
  type: "Convolution"
  bottom: "pool1-R"
  top: "conv2_1-R"
  param {
    lr_mult: 10
    decay_mult: 1
  }
  param {
    lr_mult: 20
    decay_mult: 0
  }
  convolution_param {
    num_output: 128
    pad: 1
    kernel_size: 3
    stride: 1
  }
}
layer {
  name: "relu2_1-R"
  type: "ReLU"
  bottom: "conv2_1-R"
  top: "conv2_1-R"
}
layer {
  name: "conv2_2-R"
  type: "Convolution"
  bottom: "conv2_1-R"
  top: "conv2_2-R"
  param {
    lr_mult: 10
    decay_mult: 1
  }
  param {
    lr_mult: 20
    decay_mult: 0
  }
  convolution_param {
    num_output: 128
    pad: 1
    kernel_size: 3
    stride: 1
  }
}
layer {
  name: "relu2_2-R"
  type: "ReLU"
  bottom: "conv2_2-R"
  top: "conv2_2-R"
}
layer {
  name: "pool2-R"
  type: "Pooling"
  bottom: "conv2_2-R"
  top: "pool2-R"
  pooling_param {
    pool: MAX
    kernel_size: 2
    stride: 2
  }
}
layer {
  name: "conv3_1-R"
  type: "Convolution"
  bottom: "pool2-R"
  top: "conv3_1-R"
  param {
    lr_mult: 10
    decay_mult: 1
  }
  param {
    lr_mult: 20
    decay_mult: 0
  }
  convolution_param {
    num_output: 256
    pad: 1
    kernel_size: 3
    stride: 1
  }
}
layer {
  name: "relu3_1-R"
  type: "ReLU"
  bottom: "conv3_1-R"
  top: "conv3_1-R"
}
layer {
  name: "conv3_2-R"
  type: "Convolution"
  bottom: "conv3_1-R"
  top: "conv3_2-R"
  param {
    lr_mult: 10
    decay_mult: 1
  }
  param {
    lr_mult: 20
    decay_mult: 0
  }
  convolution_param {
    num_output: 256
    pad: 1
    kernel_size: 3
    stride: 1
  }
}
layer {
  name: "relu3_2-R"
  type: "ReLU"
  bottom: "conv3_2-R"
  top: "conv3_2-R"
}
layer {
  name: "conv3_3-R"
  type: "Convolution"
  bottom: "conv3_2-R"
  top: "conv3_3-R"
  param {
    lr_mult: 10
    decay_mult: 1
  }
  param {
    lr_mult: 20
    decay_mult: 0
  }
  convolution_param {
    num_output: 256
    pad: 1
    kernel_size: 3
    stride: 1
  }
}
layer {
  name: "relu3_3-R"
  type: "ReLU"
  bottom: "conv3_3-R"
  top: "conv3_3-R"
}
layer {
  name: "pool3-R"
  type: "Pooling"
  bottom: "conv3_3-R"
  top: "pool3-R"
  pooling_param {
    pool: MAX
    kernel_size: 2
    stride: 2
  }
}
layer {
  name: "conv4_1-R"
  type: "Convolution"
  bottom: "pool3-R"
  top: "conv4_1-R"
  param {
    lr_mult: 10
    decay_mult: 1
  }
  param {
    lr_mult: 20
    decay_mult: 0
  }
  convolution_param {
    num_output: 512
    pad: 1
    kernel_size: 3
    stride: 1
  }
}
layer {
  name: "relu4_1-R"
  type: "ReLU"
  bottom: "conv4_1-R"
  top: "conv4_1-R"
}
layer {
  name: "conv4_2-R"
  type: "Convolution"
  bottom: "conv4_1-R"
  top: "conv4_2-R"
  param {
    lr_mult: 10
    decay_mult: 1
  }
  param {
    lr_mult: 20
    decay_mult: 0
  }
  convolution_param {
    num_output: 512
    pad: 1
    kernel_size: 3
    stride: 1
  }
}
layer {
  name: "relu4_2-R"
  type: "ReLU"
  bottom: "conv4_2-R"
  top: "conv4_2-R"
}
layer {
  name: "conv4_3-R"
  type: "Convolution"
  bottom: "conv4_2-R"
  top: "conv4_3-R"
  param {
    lr_mult: 10
    decay_mult: 1
  }
  param {
    lr_mult: 20
    decay_mult: 0
  }
  convolution_param {
    num_output: 512
    pad: 1
    kernel_size: 3
    stride: 1
  }
}
layer {
  name: "relu4_3-R"
  type: "ReLU"
  bottom: "conv4_3-R"
  top: "conv4_3-R"
}
layer {
  name: "pool4-R"
  type: "Pooling"
  bottom: "conv4_3-R"
  top: "pool4-R"
  pooling_param {
    pool: MAX
    kernel_size: 2
    stride: 2
  }
}
layer {
  name: "conv5_1-R"
  type: "Convolution"
  bottom: "pool4-R"
  top: "conv5_1-R"
  param {
    lr_mult: 10
    decay_mult: 1
  }
  param {
    lr_mult: 20
    decay_mult: 0
  }
  convolution_param {
    num_output: 512
    pad: 1
    kernel_size: 3
    stride: 1
  }
}
layer {
  name: "relu5_1-R"
  type: "ReLU"
  bottom: "conv5_1-R"
  top: "conv5_1-R"
}
layer {
  name: "conv5_2-R"
  type: "Convolution"
  bottom: "conv5_1-R"
  top: "conv5_2-R"
  param {
    lr_mult: 10
    decay_mult: 1
  }
  param {
    lr_mult: 20
    decay_mult: 0
  }
  convolution_param {
    num_output: 512
    pad: 1
    kernel_size: 3
    stride: 1
  }
}
layer {
  name: "relu5_2-R"
  type: "ReLU"
  bottom: "conv5_2-R"
  top: "conv5_2-R"
}
layer {
  name: "conv5_3-R"
  type: "Convolution"
  bottom: "conv5_2-R"
  top: "conv5_3-R"
  param {
    lr_mult: 10
    decay_mult: 1
  }
  param {
    lr_mult: 20
    decay_mult: 0
  }
  convolution_param {
    num_output: 512
    pad: 1
    kernel_size: 3
    stride: 1
  }
}
layer {
  name: "relu5_3-R"
  type: "ReLU"
  bottom: "conv5_3-R"
  top: "conv5_3-R"
}
layer {
  name: "pool5-R"
  type: "Pooling"
  bottom: "conv5_3-R"
  top: "pool5-R"
  pooling_param {
    pool: MAX
    kernel_size: 2
    stride: 2
  }
}
layer {
  name: "fc6-R"
  type: "Convolution"
  bottom: "pool5-R"
  top: "fc6-R"
  param {
    lr_mult: 10
    decay_mult: 1
  }
  param {
    lr_mult: 20
    decay_mult: 0
  }
  convolution_param {
    num_output: 4096
    pad: 0
    kernel_size: 7
    stride: 1
  }
}
layer {
  name: "relu6-R"
  type: "ReLU"
  bottom: "fc6-R"
  top: "fc6-R"
}
layer {
  name: "drop6-R"
  type: "Dropout"
  bottom: "fc6-R"
  top: "fc6-R"
  dropout_param {
    dropout_ratio: 0.5
  }
}
layer {
  name: "fc7-R"
  type: "Convolution"
  bottom: "fc6-R"
  top: "fc7-R"
  param {
    lr_mult: 10
    decay_mult: 1
  }
  param {
    lr_mult: 20
    decay_mult: 0
  }
  convolution_param {
    num_output: 4096
    pad: 0
    kernel_size: 1
    stride: 1
  }
}
layer {
  name: "relu7-R"
  type: "ReLU"
  bottom: "fc7-R"
  top: "fc7-R"
}
layer {
  name: "drop7-R"
  type: "Dropout"
  bottom: "fc7-R"
  top: "fc7-R"
  dropout_param {
    dropout_ratio: 0.5
  }
}
layer {
  name: "score_fr-new-R"
  type: "Convolution"
  bottom: "fc7-R"
  top: "score_fr-new-R"
  param {
    lr_mult: 10
    decay_mult: 1
  }
  param {
    lr_mult: 20
    decay_mult: 0
  }
  convolution_param {
    num_output: 3
    kernel_size: 1
  }
}
layer {
  name: "upscore2-new-R"
  type: "Deconvolution"
  bottom: "score_fr-new-R"
  top: "upscore2-new-R"
  param {
    lr_mult: 0
  }
  convolution_param {
    num_output: 3
    bias_term: false
    kernel_size: 4
    stride: 2
  }
}
layer {
  name: "score_pool4-new-R"
  type: "Convolution"
  bottom: "pool4-R"
  top: "score_pool4-new-R"
  param {
    lr_mult: 10
    decay_mult: 1
  }
  param {
    lr_mult: 20
    decay_mult: 0
  }
  convolution_param {
    num_output: 3
    pad: 0
    kernel_size: 1
  }
}
layer {
  name: "score_pool4c-R"
  type: "Crop"
  bottom: "score_pool4-new-R"
  bottom: "upscore2-new-R"
  top: "score_pool4c-R"
  crop_param {
    axis: 2
    offset: 5
  }
}
layer {
  name: "fuse_pool4-R"
  type: "Eltwise"
  bottom: "upscore2-new-R"
  bottom: "score_pool4c-R"
  top: "fuse_pool4-R"
  eltwise_param {
    operation: SUM
  }
}
layer {
  name: "upscore_pool4-new-R"
  type: "Deconvolution"
  bottom: "fuse_pool4-R"
  top: "upscore_pool4-new-R"
  param {
    lr_mult: 0
  }
  convolution_param {
    num_output: 3
    bias_term: false
    kernel_size: 4
    stride: 2
  }
}
layer {
  name: "score_pool3-new-R"
  type: "Convolution"
  bottom: "pool3-R"
  top: "score_pool3-new-R"
  param {
    lr_mult: 10
    decay_mult: 1
  }
  param {
    lr_mult: 20
    decay_mult: 0
  }
  convolution_param {
    num_output: 3
    pad: 0
    kernel_size: 1
  }
}
layer {
  name: "score_pool3c-R"
  type: "Crop"
  bottom: "score_pool3-new-R"
  bottom: "upscore_pool4-new-R"
  top: "score_pool3c-R"
  crop_param {
    axis: 2
    offset: 9
  }
}
layer {
  name: "fuse_pool3-R"
  type: "Eltwise"
  bottom: "upscore_pool4-new-R"
  bottom: "score_pool3c-R"
  top: "fuse_pool3-R"
  eltwise_param {
    operation: SUM
  }
}
layer {
  name: "upscore8-new-R"
  type: "Deconvolution"
  bottom: "fuse_pool3-R"
  top: "upscore8-new-R"
  param {
    lr_mult: 0
  }
  convolution_param {
    num_output: 3
    bias_term: false
    kernel_size: 16
    stride: 8
  }
}
layer {
  name: "upscore8_cropped-R"
  type: "Crop"
  bottom: "upscore8-new-R"
  bottom: "data-R"
  top: "upscore8_cropped-R"
  crop_param {
    axis: 2
    offset: 31
  }
}
layer {
  name: "upscore8_uncropped-R"
  type: "Python"
  bottom: "crop_info"
  bottom: "upscore8_cropped-R"
  bottom: "data"
  top: "upscore8_uncropped-R"
  python_param {
    module: "Uncrop"
    layer: "UncropLayer"
  }
}
layer {
  name: "loss1"
  type: "DiceLoss"
  bottom: "upscore8_cropped"
  bottom: "label"
  top: "loss1"
  loss_weight: 0.333333
}
layer {
  name: "loss2"
  type: "DiceLoss"
  bottom: "upscore8_uncropped-R"
  bottom: "label"
  top: "loss2"
  loss_weight: 0.666667
}
I0716 03:26:08.323897 15345 layer_factory.hpp:77] Creating layer data
I0716 03:26:08.324281 15345 net.cpp:84] Creating Layer data
I0716 03:26:08.324297 15345 net.cpp:380] data -> data
I0716 03:26:08.324314 15345 net.cpp:380] data -> label
I0716 03:26:08.324322 15345 net.cpp:380] data -> crop_margin
I0716 03:26:08.324329 15345 net.cpp:380] data -> crop_prob
I0716 03:26:08.324337 15345 net.cpp:380] data -> crop_sample_batch
I0716 03:26:08.428500 15345 net.cpp:122] Setting up data
I0716 03:26:08.428578 15345 net.cpp:129] Top shape: 1 3 512 512 (786432)
I0716 03:26:08.428587 15345 net.cpp:129] Top shape: 1 3 512 512 (786432)
I0716 03:26:08.428593 15345 net.cpp:129] Top shape: 1 (1)
I0716 03:26:08.428598 15345 net.cpp:129] Top shape: 1 (1)
I0716 03:26:08.428603 15345 net.cpp:129] Top shape: 1 (1)
I0716 03:26:08.428607 15345 net.cpp:137] Memory required for data: 6291468
I0716 03:26:08.428629 15345 layer_factory.hpp:77] Creating layer data_data_0_split
I0716 03:26:08.428671 15345 net.cpp:84] Creating Layer data_data_0_split
I0716 03:26:08.428678 15345 net.cpp:406] data_data_0_split <- data
I0716 03:26:08.428694 15345 net.cpp:380] data_data_0_split -> data_data_0_split_0
I0716 03:26:08.428706 15345 net.cpp:380] data_data_0_split -> data_data_0_split_1
I0716 03:26:08.428725 15345 net.cpp:380] data_data_0_split -> data_data_0_split_2
I0716 03:26:08.428733 15345 net.cpp:380] data_data_0_split -> data_data_0_split_3
I0716 03:26:08.428797 15345 net.cpp:122] Setting up data_data_0_split
I0716 03:26:08.428807 15345 net.cpp:129] Top shape: 1 3 512 512 (786432)
I0716 03:26:08.428813 15345 net.cpp:129] Top shape: 1 3 512 512 (786432)
I0716 03:26:08.428818 15345 net.cpp:129] Top shape: 1 3 512 512 (786432)
I0716 03:26:08.428823 15345 net.cpp:129] Top shape: 1 3 512 512 (786432)
I0716 03:26:08.428828 15345 net.cpp:137] Memory required for data: 18874380
I0716 03:26:08.428833 15345 layer_factory.hpp:77] Creating layer label_data_1_split
I0716 03:26:08.428839 15345 net.cpp:84] Creating Layer label_data_1_split
I0716 03:26:08.428843 15345 net.cpp:406] label_data_1_split <- label
I0716 03:26:08.428850 15345 net.cpp:380] label_data_1_split -> label_data_1_split_0
I0716 03:26:08.428858 15345 net.cpp:380] label_data_1_split -> label_data_1_split_1
I0716 03:26:08.428864 15345 net.cpp:380] label_data_1_split -> label_data_1_split_2
I0716 03:26:08.428906 15345 net.cpp:122] Setting up label_data_1_split
I0716 03:26:08.428915 15345 net.cpp:129] Top shape: 1 3 512 512 (786432)
I0716 03:26:08.428920 15345 net.cpp:129] Top shape: 1 3 512 512 (786432)
I0716 03:26:08.428925 15345 net.cpp:129] Top shape: 1 3 512 512 (786432)
I0716 03:26:08.428930 15345 net.cpp:137] Memory required for data: 28311564
I0716 03:26:08.428933 15345 layer_factory.hpp:77] Creating layer conv1_1
I0716 03:26:08.428966 15345 net.cpp:84] Creating Layer conv1_1
I0716 03:26:08.428974 15345 net.cpp:406] conv1_1 <- data_data_0_split_0
I0716 03:26:08.428982 15345 net.cpp:380] conv1_1 -> conv1_1
I0716 03:26:08.821497 15345 net.cpp:122] Setting up conv1_1
I0716 03:26:08.821550 15345 net.cpp:129] Top shape: 1 64 710 710 (32262400)
I0716 03:26:08.821557 15345 net.cpp:137] Memory required for data: 157361164
I0716 03:26:08.821586 15345 layer_factory.hpp:77] Creating layer relu1_1
I0716 03:26:08.821630 15345 net.cpp:84] Creating Layer relu1_1
I0716 03:26:08.821636 15345 net.cpp:406] relu1_1 <- conv1_1
I0716 03:26:08.821645 15345 net.cpp:367] relu1_1 -> conv1_1 (in-place)
I0716 03:26:08.821877 15345 net.cpp:122] Setting up relu1_1
I0716 03:26:08.821888 15345 net.cpp:129] Top shape: 1 64 710 710 (32262400)
I0716 03:26:08.821893 15345 net.cpp:137] Memory required for data: 286410764
I0716 03:26:08.821897 15345 layer_factory.hpp:77] Creating layer conv1_2
I0716 03:26:08.821913 15345 net.cpp:84] Creating Layer conv1_2
I0716 03:26:08.821918 15345 net.cpp:406] conv1_2 <- conv1_1
I0716 03:26:08.821925 15345 net.cpp:380] conv1_2 -> conv1_2
I0716 03:26:08.826625 15345 net.cpp:122] Setting up conv1_2
I0716 03:26:08.826644 15345 net.cpp:129] Top shape: 1 64 710 710 (32262400)
I0716 03:26:08.826650 15345 net.cpp:137] Memory required for data: 415460364
I0716 03:26:08.826666 15345 layer_factory.hpp:77] Creating layer relu1_2
I0716 03:26:08.826675 15345 net.cpp:84] Creating Layer relu1_2
I0716 03:26:08.826680 15345 net.cpp:406] relu1_2 <- conv1_2
I0716 03:26:08.826689 15345 net.cpp:367] relu1_2 -> conv1_2 (in-place)
I0716 03:26:08.826908 15345 net.cpp:122] Setting up relu1_2
I0716 03:26:08.826920 15345 net.cpp:129] Top shape: 1 64 710 710 (32262400)
I0716 03:26:08.826925 15345 net.cpp:137] Memory required for data: 544509964
I0716 03:26:08.826930 15345 layer_factory.hpp:77] Creating layer pool1
I0716 03:26:08.826941 15345 net.cpp:84] Creating Layer pool1
I0716 03:26:08.826946 15345 net.cpp:406] pool1 <- conv1_2
I0716 03:26:08.826953 15345 net.cpp:380] pool1 -> pool1
I0716 03:26:08.827010 15345 net.cpp:122] Setting up pool1
I0716 03:26:08.827019 15345 net.cpp:129] Top shape: 1 64 355 355 (8065600)
I0716 03:26:08.827023 15345 net.cpp:137] Memory required for data: 576772364
I0716 03:26:08.827028 15345 layer_factory.hpp:77] Creating layer conv2_1
I0716 03:26:08.827041 15345 net.cpp:84] Creating Layer conv2_1
I0716 03:26:08.827046 15345 net.cpp:406] conv2_1 <- pool1
I0716 03:26:08.827054 15345 net.cpp:380] conv2_1 -> conv2_1
I0716 03:26:08.830715 15345 net.cpp:122] Setting up conv2_1
I0716 03:26:08.830734 15345 net.cpp:129] Top shape: 1 128 355 355 (16131200)
I0716 03:26:08.830749 15345 net.cpp:137] Memory required for data: 641297164
I0716 03:26:08.830761 15345 layer_factory.hpp:77] Creating layer relu2_1
I0716 03:26:08.830775 15345 net.cpp:84] Creating Layer relu2_1
I0716 03:26:08.830780 15345 net.cpp:406] relu2_1 <- conv2_1
I0716 03:26:08.830785 15345 net.cpp:367] relu2_1 -> conv2_1 (in-place)
I0716 03:26:08.830993 15345 net.cpp:122] Setting up relu2_1
I0716 03:26:08.831004 15345 net.cpp:129] Top shape: 1 128 355 355 (16131200)
I0716 03:26:08.831009 15345 net.cpp:137] Memory required for data: 705821964
I0716 03:26:08.831014 15345 layer_factory.hpp:77] Creating layer conv2_2
I0716 03:26:08.831027 15345 net.cpp:84] Creating Layer conv2_2
I0716 03:26:08.831032 15345 net.cpp:406] conv2_2 <- conv2_1
I0716 03:26:08.831038 15345 net.cpp:380] conv2_2 -> conv2_2
I0716 03:26:08.833117 15345 net.cpp:122] Setting up conv2_2
I0716 03:26:08.833137 15345 net.cpp:129] Top shape: 1 128 355 355 (16131200)
I0716 03:26:08.833142 15345 net.cpp:137] Memory required for data: 770346764
I0716 03:26:08.833150 15345 layer_factory.hpp:77] Creating layer relu2_2
I0716 03:26:08.833158 15345 net.cpp:84] Creating Layer relu2_2
I0716 03:26:08.833163 15345 net.cpp:406] relu2_2 <- conv2_2
I0716 03:26:08.833169 15345 net.cpp:367] relu2_2 -> conv2_2 (in-place)
I0716 03:26:08.833405 15345 net.cpp:122] Setting up relu2_2
I0716 03:26:08.833416 15345 net.cpp:129] Top shape: 1 128 355 355 (16131200)
I0716 03:26:08.833420 15345 net.cpp:137] Memory required for data: 834871564
I0716 03:26:08.833425 15345 layer_factory.hpp:77] Creating layer pool2
I0716 03:26:08.833439 15345 net.cpp:84] Creating Layer pool2
I0716 03:26:08.833443 15345 net.cpp:406] pool2 <- conv2_2
I0716 03:26:08.833451 15345 net.cpp:380] pool2 -> pool2
I0716 03:26:08.833503 15345 net.cpp:122] Setting up pool2
I0716 03:26:08.833513 15345 net.cpp:129] Top shape: 1 128 178 178 (4055552)
I0716 03:26:08.833516 15345 net.cpp:137] Memory required for data: 851093772
I0716 03:26:08.833520 15345 layer_factory.hpp:77] Creating layer conv3_1
I0716 03:26:08.833533 15345 net.cpp:84] Creating Layer conv3_1
I0716 03:26:08.833537 15345 net.cpp:406] conv3_1 <- pool2
I0716 03:26:08.833544 15345 net.cpp:380] conv3_1 -> conv3_1
I0716 03:26:08.838721 15345 net.cpp:122] Setting up conv3_1
I0716 03:26:08.838740 15345 net.cpp:129] Top shape: 1 256 178 178 (8111104)
I0716 03:26:08.838745 15345 net.cpp:137] Memory required for data: 883538188
I0716 03:26:08.838758 15345 layer_factory.hpp:77] Creating layer relu3_1
I0716 03:26:08.838771 15345 net.cpp:84] Creating Layer relu3_1
I0716 03:26:08.838776 15345 net.cpp:406] relu3_1 <- conv3_1
I0716 03:26:08.838783 15345 net.cpp:367] relu3_1 -> conv3_1 (in-place)
I0716 03:26:08.839530 15345 net.cpp:122] Setting up relu3_1
I0716 03:26:08.839550 15345 net.cpp:129] Top shape: 1 256 178 178 (8111104)
I0716 03:26:08.839555 15345 net.cpp:137] Memory required for data: 915982604
I0716 03:26:08.839560 15345 layer_factory.hpp:77] Creating layer conv3_2
I0716 03:26:08.839573 15345 net.cpp:84] Creating Layer conv3_2
I0716 03:26:08.839578 15345 net.cpp:406] conv3_2 <- conv3_1
I0716 03:26:08.839596 15345 net.cpp:380] conv3_2 -> conv3_2
I0716 03:26:08.843523 15345 net.cpp:122] Setting up conv3_2
I0716 03:26:08.843542 15345 net.cpp:129] Top shape: 1 256 178 178 (8111104)
I0716 03:26:08.843549 15345 net.cpp:137] Memory required for data: 948427020
I0716 03:26:08.843560 15345 layer_factory.hpp:77] Creating layer relu3_2
I0716 03:26:08.843578 15345 net.cpp:84] Creating Layer relu3_2
I0716 03:26:08.843583 15345 net.cpp:406] relu3_2 <- conv3_2
I0716 03:26:08.843592 15345 net.cpp:367] relu3_2 -> conv3_2 (in-place)
I0716 03:26:08.844341 15345 net.cpp:122] Setting up relu3_2
I0716 03:26:08.844358 15345 net.cpp:129] Top shape: 1 256 178 178 (8111104)
I0716 03:26:08.844363 15345 net.cpp:137] Memory required for data: 980871436
I0716 03:26:08.844368 15345 layer_factory.hpp:77] Creating layer conv3_3
I0716 03:26:08.844383 15345 net.cpp:84] Creating Layer conv3_3
I0716 03:26:08.844388 15345 net.cpp:406] conv3_3 <- conv3_2
I0716 03:26:08.844398 15345 net.cpp:380] conv3_3 -> conv3_3
I0716 03:26:08.849604 15345 net.cpp:122] Setting up conv3_3
I0716 03:26:08.849624 15345 net.cpp:129] Top shape: 1 256 178 178 (8111104)
I0716 03:26:08.849629 15345 net.cpp:137] Memory required for data: 1013315852
I0716 03:26:08.849642 15345 layer_factory.hpp:77] Creating layer relu3_3
I0716 03:26:08.849650 15345 net.cpp:84] Creating Layer relu3_3
I0716 03:26:08.849655 15345 net.cpp:406] relu3_3 <- conv3_3
I0716 03:26:08.849665 15345 net.cpp:367] relu3_3 -> conv3_3 (in-place)
I0716 03:26:08.849903 15345 net.cpp:122] Setting up relu3_3
I0716 03:26:08.849915 15345 net.cpp:129] Top shape: 1 256 178 178 (8111104)
I0716 03:26:08.849920 15345 net.cpp:137] Memory required for data: 1045760268
I0716 03:26:08.849925 15345 layer_factory.hpp:77] Creating layer pool3
I0716 03:26:08.849931 15345 net.cpp:84] Creating Layer pool3
I0716 03:26:08.849936 15345 net.cpp:406] pool3 <- conv3_3
I0716 03:26:08.849946 15345 net.cpp:380] pool3 -> pool3
I0716 03:26:08.849997 15345 net.cpp:122] Setting up pool3
I0716 03:26:08.850006 15345 net.cpp:129] Top shape: 1 256 89 89 (2027776)
I0716 03:26:08.850010 15345 net.cpp:137] Memory required for data: 1053871372
I0716 03:26:08.850014 15345 layer_factory.hpp:77] Creating layer pool3_pool3_0_split
I0716 03:26:08.850028 15345 net.cpp:84] Creating Layer pool3_pool3_0_split
I0716 03:26:08.850031 15345 net.cpp:406] pool3_pool3_0_split <- pool3
I0716 03:26:08.850039 15345 net.cpp:380] pool3_pool3_0_split -> pool3_pool3_0_split_0
I0716 03:26:08.850045 15345 net.cpp:380] pool3_pool3_0_split -> pool3_pool3_0_split_1
I0716 03:26:08.850095 15345 net.cpp:122] Setting up pool3_pool3_0_split
I0716 03:26:08.850102 15345 net.cpp:129] Top shape: 1 256 89 89 (2027776)
I0716 03:26:08.850108 15345 net.cpp:129] Top shape: 1 256 89 89 (2027776)
I0716 03:26:08.850111 15345 net.cpp:137] Memory required for data: 1070093580
I0716 03:26:08.850116 15345 layer_factory.hpp:77] Creating layer conv4_1
I0716 03:26:08.850127 15345 net.cpp:84] Creating Layer conv4_1
I0716 03:26:08.850131 15345 net.cpp:406] conv4_1 <- pool3_pool3_0_split_0
I0716 03:26:08.850138 15345 net.cpp:380] conv4_1 -> conv4_1
I0716 03:26:08.864171 15345 net.cpp:122] Setting up conv4_1
I0716 03:26:08.864203 15345 net.cpp:129] Top shape: 1 512 89 89 (4055552)
I0716 03:26:08.864219 15345 net.cpp:137] Memory required for data: 1086315788
I0716 03:26:08.864234 15345 layer_factory.hpp:77] Creating layer relu4_1
I0716 03:26:08.864248 15345 net.cpp:84] Creating Layer relu4_1
I0716 03:26:08.864259 15345 net.cpp:406] relu4_1 <- conv4_1
I0716 03:26:08.864272 15345 net.cpp:367] relu4_1 -> conv4_1 (in-place)
I0716 03:26:08.864615 15345 net.cpp:122] Setting up relu4_1
I0716 03:26:08.864631 15345 net.cpp:129] Top shape: 1 512 89 89 (4055552)
I0716 03:26:08.864645 15345 net.cpp:137] Memory required for data: 1102537996
I0716 03:26:08.864651 15345 layer_factory.hpp:77] Creating layer conv4_2
I0716 03:26:08.864666 15345 net.cpp:84] Creating Layer conv4_2
I0716 03:26:08.864673 15345 net.cpp:406] conv4_2 <- conv4_1
I0716 03:26:08.864682 15345 net.cpp:380] conv4_2 -> conv4_2
I0716 03:26:08.875804 15345 net.cpp:122] Setting up conv4_2
I0716 03:26:08.875841 15345 net.cpp:129] Top shape: 1 512 89 89 (4055552)
I0716 03:26:08.875852 15345 net.cpp:137] Memory required for data: 1118760204
I0716 03:26:08.875876 15345 layer_factory.hpp:77] Creating layer relu4_2
I0716 03:26:08.875900 15345 net.cpp:84] Creating Layer relu4_2
I0716 03:26:08.875907 15345 net.cpp:406] relu4_2 <- conv4_2
I0716 03:26:08.875923 15345 net.cpp:367] relu4_2 -> conv4_2 (in-place)
I0716 03:26:08.876279 15345 net.cpp:122] Setting up relu4_2
I0716 03:26:08.876291 15345 net.cpp:129] Top shape: 1 512 89 89 (4055552)
I0716 03:26:08.876296 15345 net.cpp:137] Memory required for data: 1134982412
I0716 03:26:08.876307 15345 layer_factory.hpp:77] Creating layer conv4_3
I0716 03:26:08.876320 15345 net.cpp:84] Creating Layer conv4_3
I0716 03:26:08.876325 15345 net.cpp:406] conv4_3 <- conv4_2
I0716 03:26:08.876332 15345 net.cpp:380] conv4_3 -> conv4_3
I0716 03:26:08.894377 15345 net.cpp:122] Setting up conv4_3
I0716 03:26:08.894445 15345 net.cpp:129] Top shape: 1 512 89 89 (4055552)
I0716 03:26:08.894457 15345 net.cpp:137] Memory required for data: 1151204620
I0716 03:26:08.894479 15345 layer_factory.hpp:77] Creating layer relu4_3
I0716 03:26:08.894511 15345 net.cpp:84] Creating Layer relu4_3
I0716 03:26:08.894522 15345 net.cpp:406] relu4_3 <- conv4_3
I0716 03:26:08.894541 15345 net.cpp:367] relu4_3 -> conv4_3 (in-place)
I0716 03:26:08.894944 15345 net.cpp:122] Setting up relu4_3
I0716 03:26:08.894963 15345 net.cpp:129] Top shape: 1 512 89 89 (4055552)
I0716 03:26:08.894979 15345 net.cpp:137] Memory required for data: 1167426828
I0716 03:26:08.894985 15345 layer_factory.hpp:77] Creating layer pool4
I0716 03:26:08.895011 15345 net.cpp:84] Creating Layer pool4
I0716 03:26:08.895020 15345 net.cpp:406] pool4 <- conv4_3
I0716 03:26:08.895045 15345 net.cpp:380] pool4 -> pool4
I0716 03:26:08.895145 15345 net.cpp:122] Setting up pool4
I0716 03:26:08.895160 15345 net.cpp:129] Top shape: 1 512 45 45 (1036800)
I0716 03:26:08.895167 15345 net.cpp:137] Memory required for data: 1171574028
I0716 03:26:08.895174 15345 layer_factory.hpp:77] Creating layer pool4_pool4_0_split
I0716 03:26:08.895246 15345 net.cpp:84] Creating Layer pool4_pool4_0_split
I0716 03:26:08.895253 15345 net.cpp:406] pool4_pool4_0_split <- pool4
I0716 03:26:08.895269 15345 net.cpp:380] pool4_pool4_0_split -> pool4_pool4_0_split_0
I0716 03:26:08.895337 15345 net.cpp:380] pool4_pool4_0_split -> pool4_pool4_0_split_1
I0716 03:26:08.895447 15345 net.cpp:122] Setting up pool4_pool4_0_split
I0716 03:26:08.895462 15345 net.cpp:129] Top shape: 1 512 45 45 (1036800)
I0716 03:26:08.895470 15345 net.cpp:129] Top shape: 1 512 45 45 (1036800)
I0716 03:26:08.895478 15345 net.cpp:137] Memory required for data: 1179868428
I0716 03:26:08.895484 15345 layer_factory.hpp:77] Creating layer conv5_1
I0716 03:26:08.895505 15345 net.cpp:84] Creating Layer conv5_1
I0716 03:26:08.895514 15345 net.cpp:406] conv5_1 <- pool4_pool4_0_split_0
I0716 03:26:08.895525 15345 net.cpp:380] conv5_1 -> conv5_1
I0716 03:26:08.917637 15345 net.cpp:122] Setting up conv5_1
I0716 03:26:08.917691 15345 net.cpp:129] Top shape: 1 512 45 45 (1036800)
I0716 03:26:08.917697 15345 net.cpp:137] Memory required for data: 1184015628
I0716 03:26:08.917721 15345 layer_factory.hpp:77] Creating layer relu5_1
I0716 03:26:08.917750 15345 net.cpp:84] Creating Layer relu5_1
I0716 03:26:08.917757 15345 net.cpp:406] relu5_1 <- conv5_1
I0716 03:26:08.917768 15345 net.cpp:367] relu5_1 -> conv5_1 (in-place)
I0716 03:26:08.919728 15345 net.cpp:122] Setting up relu5_1
I0716 03:26:08.919770 15345 net.cpp:129] Top shape: 1 512 45 45 (1036800)
I0716 03:26:08.919780 15345 net.cpp:137] Memory required for data: 1188162828
I0716 03:26:08.919788 15345 layer_factory.hpp:77] Creating layer conv5_2
I0716 03:26:08.919811 15345 net.cpp:84] Creating Layer conv5_2
I0716 03:26:08.919819 15345 net.cpp:406] conv5_2 <- conv5_1
I0716 03:26:08.919832 15345 net.cpp:380] conv5_2 -> conv5_2
I0716 03:26:08.932121 15345 net.cpp:122] Setting up conv5_2
I0716 03:26:08.932170 15345 net.cpp:129] Top shape: 1 512 45 45 (1036800)
I0716 03:26:08.932176 15345 net.cpp:137] Memory required for data: 1192310028
I0716 03:26:08.932188 15345 layer_factory.hpp:77] Creating layer relu5_2
I0716 03:26:08.932212 15345 net.cpp:84] Creating Layer relu5_2
I0716 03:26:08.932219 15345 net.cpp:406] relu5_2 <- conv5_2
I0716 03:26:08.932232 15345 net.cpp:367] relu5_2 -> conv5_2 (in-place)
I0716 03:26:08.933187 15345 net.cpp:122] Setting up relu5_2
I0716 03:26:08.933204 15345 net.cpp:129] Top shape: 1 512 45 45 (1036800)
I0716 03:26:08.933218 15345 net.cpp:137] Memory required for data: 1196457228
I0716 03:26:08.933221 15345 layer_factory.hpp:77] Creating layer conv5_3
I0716 03:26:08.933241 15345 net.cpp:84] Creating Layer conv5_3
I0716 03:26:08.933246 15345 net.cpp:406] conv5_3 <- conv5_2
I0716 03:26:08.933257 15345 net.cpp:380] conv5_3 -> conv5_3
I0716 03:26:08.945639 15345 net.cpp:122] Setting up conv5_3
I0716 03:26:08.945694 15345 net.cpp:129] Top shape: 1 512 45 45 (1036800)
I0716 03:26:08.945701 15345 net.cpp:137] Memory required for data: 1200604428
I0716 03:26:08.945715 15345 layer_factory.hpp:77] Creating layer relu5_3
I0716 03:26:08.945732 15345 net.cpp:84] Creating Layer relu5_3
I0716 03:26:08.945740 15345 net.cpp:406] relu5_3 <- conv5_3
I0716 03:26:08.945750 15345 net.cpp:367] relu5_3 -> conv5_3 (in-place)
I0716 03:26:08.946055 15345 net.cpp:122] Setting up relu5_3
I0716 03:26:08.946071 15345 net.cpp:129] Top shape: 1 512 45 45 (1036800)
I0716 03:26:08.946077 15345 net.cpp:137] Memory required for data: 1204751628
I0716 03:26:08.946082 15345 layer_factory.hpp:77] Creating layer pool5
I0716 03:26:08.946101 15345 net.cpp:84] Creating Layer pool5
I0716 03:26:08.946107 15345 net.cpp:406] pool5 <- conv5_3
I0716 03:26:08.946116 15345 net.cpp:380] pool5 -> pool5
I0716 03:26:08.946188 15345 net.cpp:122] Setting up pool5
I0716 03:26:08.946200 15345 net.cpp:129] Top shape: 1 512 23 23 (270848)
I0716 03:26:08.946207 15345 net.cpp:137] Memory required for data: 1205835020
I0716 03:26:08.946211 15345 layer_factory.hpp:77] Creating layer fc6
I0716 03:26:08.946229 15345 net.cpp:84] Creating Layer fc6
I0716 03:26:08.946235 15345 net.cpp:406] fc6 <- pool5
I0716 03:26:08.946249 15345 net.cpp:380] fc6 -> fc6
I0716 03:26:09.258918 15345 net.cpp:122] Setting up fc6
I0716 03:26:09.258968 15345 net.cpp:129] Top shape: 1 4096 17 17 (1183744)
I0716 03:26:09.258975 15345 net.cpp:137] Memory required for data: 1210569996
I0716 03:26:09.258990 15345 layer_factory.hpp:77] Creating layer relu6
I0716 03:26:09.259006 15345 net.cpp:84] Creating Layer relu6
I0716 03:26:09.259012 15345 net.cpp:406] relu6 <- fc6
I0716 03:26:09.259021 15345 net.cpp:367] relu6 -> fc6 (in-place)
I0716 03:26:09.259318 15345 net.cpp:122] Setting up relu6
I0716 03:26:09.259332 15345 net.cpp:129] Top shape: 1 4096 17 17 (1183744)
I0716 03:26:09.259337 15345 net.cpp:137] Memory required for data: 1215304972
I0716 03:26:09.259346 15345 layer_factory.hpp:77] Creating layer drop6
I0716 03:26:09.259359 15345 net.cpp:84] Creating Layer drop6
I0716 03:26:09.259364 15345 net.cpp:406] drop6 <- fc6
I0716 03:26:09.259371 15345 net.cpp:367] drop6 -> fc6 (in-place)
I0716 03:26:09.259409 15345 net.cpp:122] Setting up drop6
I0716 03:26:09.259416 15345 net.cpp:129] Top shape: 1 4096 17 17 (1183744)
I0716 03:26:09.259420 15345 net.cpp:137] Memory required for data: 1220039948
I0716 03:26:09.259434 15345 layer_factory.hpp:77] Creating layer fc7
I0716 03:26:09.259449 15345 net.cpp:84] Creating Layer fc7
I0716 03:26:09.259454 15345 net.cpp:406] fc7 <- fc6
I0716 03:26:09.259459 15345 net.cpp:380] fc7 -> fc7
I0716 03:26:09.312911 15345 net.cpp:122] Setting up fc7
I0716 03:26:09.312958 15345 net.cpp:129] Top shape: 1 4096 17 17 (1183744)
I0716 03:26:09.312964 15345 net.cpp:137] Memory required for data: 1224774924
I0716 03:26:09.312976 15345 layer_factory.hpp:77] Creating layer relu7
I0716 03:26:09.312994 15345 net.cpp:84] Creating Layer relu7
I0716 03:26:09.313000 15345 net.cpp:406] relu7 <- fc7
I0716 03:26:09.313009 15345 net.cpp:367] relu7 -> fc7 (in-place)
I0716 03:26:09.313803 15345 net.cpp:122] Setting up relu7
I0716 03:26:09.313818 15345 net.cpp:129] Top shape: 1 4096 17 17 (1183744)
I0716 03:26:09.313823 15345 net.cpp:137] Memory required for data: 1229509900
I0716 03:26:09.313836 15345 layer_factory.hpp:77] Creating layer drop7
I0716 03:26:09.313845 15345 net.cpp:84] Creating Layer drop7
I0716 03:26:09.313850 15345 net.cpp:406] drop7 <- fc7
I0716 03:26:09.313856 15345 net.cpp:367] drop7 -> fc7 (in-place)
I0716 03:26:09.313907 15345 net.cpp:122] Setting up drop7
I0716 03:26:09.313913 15345 net.cpp:129] Top shape: 1 4096 17 17 (1183744)
I0716 03:26:09.313917 15345 net.cpp:137] Memory required for data: 1234244876
I0716 03:26:09.313921 15345 layer_factory.hpp:77] Creating layer score_fr-new
I0716 03:26:09.313936 15345 net.cpp:84] Creating Layer score_fr-new
I0716 03:26:09.313941 15345 net.cpp:406] score_fr-new <- fc7
I0716 03:26:09.313949 15345 net.cpp:380] score_fr-new -> score_fr-new
I0716 03:26:09.315610 15345 net.cpp:122] Setting up score_fr-new
I0716 03:26:09.315629 15345 net.cpp:129] Top shape: 1 3 17 17 (867)
I0716 03:26:09.315645 15345 net.cpp:137] Memory required for data: 1234248344
I0716 03:26:09.315654 15345 layer_factory.hpp:77] Creating layer upscore2-new
I0716 03:26:09.315680 15345 net.cpp:84] Creating Layer upscore2-new
I0716 03:26:09.315685 15345 net.cpp:406] upscore2-new <- score_fr-new
I0716 03:26:09.315692 15345 net.cpp:380] upscore2-new -> upscore2-new
I0716 03:26:09.315963 15345 net.cpp:122] Setting up upscore2-new
I0716 03:26:09.315974 15345 net.cpp:129] Top shape: 1 3 36 36 (3888)
I0716 03:26:09.315979 15345 net.cpp:137] Memory required for data: 1234263896
I0716 03:26:09.315999 15345 layer_factory.hpp:77] Creating layer upscore2-new_upscore2-new_0_split
I0716 03:26:09.316006 15345 net.cpp:84] Creating Layer upscore2-new_upscore2-new_0_split
I0716 03:26:09.316010 15345 net.cpp:406] upscore2-new_upscore2-new_0_split <- upscore2-new
I0716 03:26:09.316018 15345 net.cpp:380] upscore2-new_upscore2-new_0_split -> upscore2-new_upscore2-new_0_split_0
I0716 03:26:09.316026 15345 net.cpp:380] upscore2-new_upscore2-new_0_split -> upscore2-new_upscore2-new_0_split_1
I0716 03:26:09.316084 15345 net.cpp:122] Setting up upscore2-new_upscore2-new_0_split
I0716 03:26:09.316093 15345 net.cpp:129] Top shape: 1 3 36 36 (3888)
I0716 03:26:09.316099 15345 net.cpp:129] Top shape: 1 3 36 36 (3888)
I0716 03:26:09.316103 15345 net.cpp:137] Memory required for data: 1234295000
I0716 03:26:09.316107 15345 layer_factory.hpp:77] Creating layer score_pool4-new
I0716 03:26:09.316118 15345 net.cpp:84] Creating Layer score_pool4-new
I0716 03:26:09.316123 15345 net.cpp:406] score_pool4-new <- pool4_pool4_0_split_1
I0716 03:26:09.316129 15345 net.cpp:380] score_pool4-new -> score_pool4-new
I0716 03:26:09.319197 15345 net.cpp:122] Setting up score_pool4-new
I0716 03:26:09.319262 15345 net.cpp:129] Top shape: 1 3 45 45 (6075)
I0716 03:26:09.319270 15345 net.cpp:137] Memory required for data: 1234319300
I0716 03:26:09.319335 15345 layer_factory.hpp:77] Creating layer score_pool4c
I0716 03:26:09.319380 15345 net.cpp:84] Creating Layer score_pool4c
I0716 03:26:09.319391 15345 net.cpp:406] score_pool4c <- score_pool4-new
I0716 03:26:09.319403 15345 net.cpp:406] score_pool4c <- upscore2-new_upscore2-new_0_split_0
I0716 03:26:09.319416 15345 net.cpp:380] score_pool4c -> score_pool4c
I0716 03:26:09.319489 15345 net.cpp:122] Setting up score_pool4c
I0716 03:26:09.319506 15345 net.cpp:129] Top shape: 1 3 36 36 (3888)
I0716 03:26:09.319514 15345 net.cpp:137] Memory required for data: 1234334852
I0716 03:26:09.319520 15345 layer_factory.hpp:77] Creating layer fuse_pool4
I0716 03:26:09.319536 15345 net.cpp:84] Creating Layer fuse_pool4
I0716 03:26:09.319545 15345 net.cpp:406] fuse_pool4 <- upscore2-new_upscore2-new_0_split_1
I0716 03:26:09.319555 15345 net.cpp:406] fuse_pool4 <- score_pool4c
I0716 03:26:09.319568 15345 net.cpp:380] fuse_pool4 -> fuse_pool4
I0716 03:26:09.319633 15345 net.cpp:122] Setting up fuse_pool4
I0716 03:26:09.319658 15345 net.cpp:129] Top shape: 1 3 36 36 (3888)
I0716 03:26:09.319665 15345 net.cpp:137] Memory required for data: 1234350404
I0716 03:26:09.319725 15345 layer_factory.hpp:77] Creating layer upscore_pool4-new
I0716 03:26:09.319743 15345 net.cpp:84] Creating Layer upscore_pool4-new
I0716 03:26:09.319751 15345 net.cpp:406] upscore_pool4-new <- fuse_pool4
I0716 03:26:09.319769 15345 net.cpp:380] upscore_pool4-new -> upscore_pool4-new
I0716 03:26:09.320204 15345 net.cpp:122] Setting up upscore_pool4-new
I0716 03:26:09.320231 15345 net.cpp:129] Top shape: 1 3 74 74 (16428)
I0716 03:26:09.320243 15345 net.cpp:137] Memory required for data: 1234416116
I0716 03:26:09.320266 15345 layer_factory.hpp:77] Creating layer upscore_pool4-new_upscore_pool4-new_0_split
I0716 03:26:09.320277 15345 net.cpp:84] Creating Layer upscore_pool4-new_upscore_pool4-new_0_split
I0716 03:26:09.320286 15345 net.cpp:406] upscore_pool4-new_upscore_pool4-new_0_split <- upscore_pool4-new
I0716 03:26:09.320296 15345 net.cpp:380] upscore_pool4-new_upscore_pool4-new_0_split -> upscore_pool4-new_upscore_pool4-new_0_split_0
I0716 03:26:09.320308 15345 net.cpp:380] upscore_pool4-new_upscore_pool4-new_0_split -> upscore_pool4-new_upscore_pool4-new_0_split_1
I0716 03:26:09.320389 15345 net.cpp:122] Setting up upscore_pool4-new_upscore_pool4-new_0_split
I0716 03:26:09.320405 15345 net.cpp:129] Top shape: 1 3 74 74 (16428)
I0716 03:26:09.320415 15345 net.cpp:129] Top shape: 1 3 74 74 (16428)
I0716 03:26:09.320421 15345 net.cpp:137] Memory required for data: 1234547540
I0716 03:26:09.320428 15345 layer_factory.hpp:77] Creating layer score_pool3-new
I0716 03:26:09.320458 15345 net.cpp:84] Creating Layer score_pool3-new
I0716 03:26:09.320466 15345 net.cpp:406] score_pool3-new <- pool3_pool3_0_split_1
I0716 03:26:09.320482 15345 net.cpp:380] score_pool3-new -> score_pool3-new
I0716 03:26:09.323360 15345 net.cpp:122] Setting up score_pool3-new
I0716 03:26:09.323400 15345 net.cpp:129] Top shape: 1 3 89 89 (23763)
I0716 03:26:09.323408 15345 net.cpp:137] Memory required for data: 1234642592
I0716 03:26:09.323422 15345 layer_factory.hpp:77] Creating layer score_pool3c
I0716 03:26:09.323436 15345 net.cpp:84] Creating Layer score_pool3c
I0716 03:26:09.323446 15345 net.cpp:406] score_pool3c <- score_pool3-new
I0716 03:26:09.323457 15345 net.cpp:406] score_pool3c <- upscore_pool4-new_upscore_pool4-new_0_split_0
I0716 03:26:09.323472 15345 net.cpp:380] score_pool3c -> score_pool3c
I0716 03:26:09.323530 15345 net.cpp:122] Setting up score_pool3c
I0716 03:26:09.323547 15345 net.cpp:129] Top shape: 1 3 74 74 (16428)
I0716 03:26:09.323554 15345 net.cpp:137] Memory required for data: 1234708304
I0716 03:26:09.323576 15345 layer_factory.hpp:77] Creating layer fuse_pool3
I0716 03:26:09.323591 15345 net.cpp:84] Creating Layer fuse_pool3
I0716 03:26:09.323612 15345 net.cpp:406] fuse_pool3 <- upscore_pool4-new_upscore_pool4-new_0_split_1
I0716 03:26:09.323622 15345 net.cpp:406] fuse_pool3 <- score_pool3c
I0716 03:26:09.323632 15345 net.cpp:380] fuse_pool3 -> fuse_pool3
I0716 03:26:09.323694 15345 net.cpp:122] Setting up fuse_pool3
I0716 03:26:09.323709 15345 net.cpp:129] Top shape: 1 3 74 74 (16428)
I0716 03:26:09.323716 15345 net.cpp:137] Memory required for data: 1234774016
I0716 03:26:09.323724 15345 layer_factory.hpp:77] Creating layer upscore8-new
I0716 03:26:09.323740 15345 net.cpp:84] Creating Layer upscore8-new
I0716 03:26:09.323747 15345 net.cpp:406] upscore8-new <- fuse_pool3
I0716 03:26:09.323760 15345 net.cpp:380] upscore8-new -> upscore8-new
I0716 03:26:09.324192 15345 net.cpp:122] Setting up upscore8-new
I0716 03:26:09.324208 15345 net.cpp:129] Top shape: 1 3 600 600 (1080000)
I0716 03:26:09.324215 15345 net.cpp:137] Memory required for data: 1239094016
I0716 03:26:09.324225 15345 layer_factory.hpp:77] Creating layer upscore8_cropped
I0716 03:26:09.324236 15345 net.cpp:84] Creating Layer upscore8_cropped
I0716 03:26:09.324244 15345 net.cpp:406] upscore8_cropped <- upscore8-new
I0716 03:26:09.324254 15345 net.cpp:406] upscore8_cropped <- data_data_0_split_1
I0716 03:26:09.324265 15345 net.cpp:380] upscore8_cropped -> upscore8_cropped
I0716 03:26:09.324326 15345 net.cpp:122] Setting up upscore8_cropped
I0716 03:26:09.324339 15345 net.cpp:129] Top shape: 1 3 512 512 (786432)
I0716 03:26:09.324345 15345 net.cpp:137] Memory required for data: 1242239744
I0716 03:26:09.324352 15345 layer_factory.hpp:77] Creating layer upscore8_cropped_upscore8_cropped_0_split
I0716 03:26:09.324373 15345 net.cpp:84] Creating Layer upscore8_cropped_upscore8_cropped_0_split
I0716 03:26:09.324381 15345 net.cpp:406] upscore8_cropped_upscore8_cropped_0_split <- upscore8_cropped
I0716 03:26:09.324391 15345 net.cpp:380] upscore8_cropped_upscore8_cropped_0_split -> upscore8_cropped_upscore8_cropped_0_split_0
I0716 03:26:09.324404 15345 net.cpp:380] upscore8_cropped_upscore8_cropped_0_split -> upscore8_cropped_upscore8_cropped_0_split_1
I0716 03:26:09.324481 15345 net.cpp:122] Setting up upscore8_cropped_upscore8_cropped_0_split
I0716 03:26:09.324496 15345 net.cpp:129] Top shape: 1 3 512 512 (786432)
I0716 03:26:09.324504 15345 net.cpp:129] Top shape: 1 3 512 512 (786432)
I0716 03:26:09.324512 15345 net.cpp:137] Memory required for data: 1248531200
I0716 03:26:09.324518 15345 layer_factory.hpp:77] Creating layer prob
I0716 03:26:09.324529 15345 net.cpp:84] Creating Layer prob
I0716 03:26:09.324537 15345 net.cpp:406] prob <- upscore8_cropped_upscore8_cropped_0_split_0
I0716 03:26:09.324556 15345 net.cpp:380] prob -> prob
I0716 03:26:09.325003 15345 net.cpp:122] Setting up prob
I0716 03:26:09.325034 15345 net.cpp:129] Top shape: 1 3 512 512 (786432)
I0716 03:26:09.325042 15345 net.cpp:137] Memory required for data: 1251676928
I0716 03:26:09.325053 15345 layer_factory.hpp:77] Creating layer prob_prob_0_split
I0716 03:26:09.325063 15345 net.cpp:84] Creating Layer prob_prob_0_split
I0716 03:26:09.325071 15345 net.cpp:406] prob_prob_0_split <- prob
I0716 03:26:09.325083 15345 net.cpp:380] prob_prob_0_split -> prob_prob_0_split_0
I0716 03:26:09.325095 15345 net.cpp:380] prob_prob_0_split -> prob_prob_0_split_1
I0716 03:26:09.325181 15345 net.cpp:122] Setting up prob_prob_0_split
I0716 03:26:09.325196 15345 net.cpp:129] Top shape: 1 3 512 512 (786432)
I0716 03:26:09.325204 15345 net.cpp:129] Top shape: 1 3 512 512 (786432)
I0716 03:26:09.325212 15345 net.cpp:137] Memory required for data: 1257968384
I0716 03:26:09.325217 15345 layer_factory.hpp:77] Creating layer saliency1
I0716 03:26:09.325239 15345 net.cpp:84] Creating Layer saliency1
I0716 03:26:09.325250 15345 net.cpp:406] saliency1 <- prob_prob_0_split_0
I0716 03:26:09.325263 15345 net.cpp:380] saliency1 -> saliency1
I0716 03:26:09.330108 15345 net.cpp:122] Setting up saliency1
I0716 03:26:09.330122 15345 net.cpp:129] Top shape: 1 3 512 512 (786432)
I0716 03:26:09.330142 15345 net.cpp:137] Memory required for data: 1261114112
I0716 03:26:09.330149 15345 layer_factory.hpp:77] Creating layer relu_saliency1
I0716 03:26:09.330164 15345 net.cpp:84] Creating Layer relu_saliency1
I0716 03:26:09.330168 15345 net.cpp:406] relu_saliency1 <- saliency1
I0716 03:26:09.330176 15345 net.cpp:367] relu_saliency1 -> saliency1 (in-place)
I0716 03:26:09.330410 15345 net.cpp:122] Setting up relu_saliency1
I0716 03:26:09.330420 15345 net.cpp:129] Top shape: 1 3 512 512 (786432)
I0716 03:26:09.330425 15345 net.cpp:137] Memory required for data: 1264259840
I0716 03:26:09.330428 15345 layer_factory.hpp:77] Creating layer saliency
I0716 03:26:09.330438 15345 net.cpp:84] Creating Layer saliency
I0716 03:26:09.330442 15345 net.cpp:406] saliency <- saliency1
I0716 03:26:09.330449 15345 net.cpp:380] saliency -> saliency
I0716 03:26:09.335638 15345 net.cpp:122] Setting up saliency
I0716 03:26:09.335669 15345 net.cpp:129] Top shape: 1 3 512 512 (786432)
I0716 03:26:09.335674 15345 net.cpp:137] Memory required for data: 1267405568
I0716 03:26:09.335681 15345 layer_factory.hpp:77] Creating layer saliency_data
I0716 03:26:09.335695 15345 net.cpp:84] Creating Layer saliency_data
I0716 03:26:09.335700 15345 net.cpp:406] saliency_data <- data_data_0_split_2
I0716 03:26:09.335705 15345 net.cpp:406] saliency_data <- saliency
I0716 03:26:09.335711 15345 net.cpp:380] saliency_data -> saliency_data
I0716 03:26:09.335762 15345 net.cpp:122] Setting up saliency_data
I0716 03:26:09.335767 15345 net.cpp:129] Top shape: 1 3 512 512 (786432)
I0716 03:26:09.335769 15345 net.cpp:137] Memory required for data: 1270551296
I0716 03:26:09.335773 15345 layer_factory.hpp:77] Creating layer crop
I0716 03:26:09.336416 15345 net.cpp:84] Creating Layer crop
I0716 03:26:09.336426 15345 net.cpp:406] crop <- prob_prob_0_split_1
I0716 03:26:09.336447 15345 net.cpp:406] crop <- saliency_data
I0716 03:26:09.336452 15345 net.cpp:406] crop <- crop_margin
I0716 03:26:09.336457 15345 net.cpp:406] crop <- crop_prob
I0716 03:26:09.336460 15345 net.cpp:406] crop <- crop_sample_batch
I0716 03:26:09.336465 15345 net.cpp:406] crop <- label_data_1_split_0
I0716 03:26:09.336472 15345 net.cpp:380] crop -> data-R
I0716 03:26:09.336478 15345 net.cpp:380] crop -> crop_info
I0716 03:26:09.349799 15345 net.cpp:122] Setting up crop
I0716 03:26:09.349845 15345 net.cpp:129] Top shape: 1 3 512 512 (786432)
I0716 03:26:09.349851 15345 net.cpp:129] Top shape: 1 2 4 (8)
I0716 03:26:09.349855 15345 net.cpp:137] Memory required for data: 1273697056
I0716 03:26:09.349869 15345 layer_factory.hpp:77] Creating layer data-R_crop_0_split
I0716 03:26:09.349880 15345 net.cpp:84] Creating Layer data-R_crop_0_split
I0716 03:26:09.349886 15345 net.cpp:406] data-R_crop_0_split <- data-R
I0716 03:26:09.349910 15345 net.cpp:380] data-R_crop_0_split -> data-R_crop_0_split_0
I0716 03:26:09.349920 15345 net.cpp:380] data-R_crop_0_split -> data-R_crop_0_split_1
I0716 03:26:09.349969 15345 net.cpp:122] Setting up data-R_crop_0_split
I0716 03:26:09.349975 15345 net.cpp:129] Top shape: 1 3 512 512 (786432)
I0716 03:26:09.349980 15345 net.cpp:129] Top shape: 1 3 512 512 (786432)
I0716 03:26:09.349983 15345 net.cpp:137] Memory required for data: 1279988512
I0716 03:26:09.349987 15345 layer_factory.hpp:77] Creating layer conv1_1-R
I0716 03:26:09.350013 15345 net.cpp:84] Creating Layer conv1_1-R
I0716 03:26:09.350018 15345 net.cpp:406] conv1_1-R <- data-R_crop_0_split_0
I0716 03:26:09.350024 15345 net.cpp:380] conv1_1-R -> conv1_1-R
I0716 03:26:09.359042 15345 net.cpp:122] Setting up conv1_1-R
I0716 03:26:09.359056 15345 net.cpp:129] Top shape: 1 64 710 710 (32262400)
I0716 03:26:09.359076 15345 net.cpp:137] Memory required for data: 1409038112
I0716 03:26:09.359086 15345 layer_factory.hpp:77] Creating layer relu1_1-R
I0716 03:26:09.359095 15345 net.cpp:84] Creating Layer relu1_1-R
I0716 03:26:09.359099 15345 net.cpp:406] relu1_1-R <- conv1_1-R
I0716 03:26:09.359104 15345 net.cpp:367] relu1_1-R -> conv1_1-R (in-place)
I0716 03:26:09.362555 15345 net.cpp:122] Setting up relu1_1-R
I0716 03:26:09.362597 15345 net.cpp:129] Top shape: 1 64 710 710 (32262400)
I0716 03:26:09.362601 15345 net.cpp:137] Memory required for data: 1538087712
I0716 03:26:09.362608 15345 layer_factory.hpp:77] Creating layer conv1_2-R
I0716 03:26:09.362629 15345 net.cpp:84] Creating Layer conv1_2-R
I0716 03:26:09.362658 15345 net.cpp:406] conv1_2-R <- conv1_1-R
I0716 03:26:09.362673 15345 net.cpp:380] conv1_2-R -> conv1_2-R
I0716 03:26:09.367079 15345 net.cpp:122] Setting up conv1_2-R
I0716 03:26:09.367110 15345 net.cpp:129] Top shape: 1 64 710 710 (32262400)
I0716 03:26:09.367115 15345 net.cpp:137] Memory required for data: 1667137312
I0716 03:26:09.367136 15345 layer_factory.hpp:77] Creating layer relu1_2-R
I0716 03:26:09.367148 15345 net.cpp:84] Creating Layer relu1_2-R
I0716 03:26:09.367168 15345 net.cpp:406] relu1_2-R <- conv1_2-R
I0716 03:26:09.367175 15345 net.cpp:367] relu1_2-R -> conv1_2-R (in-place)
I0716 03:26:09.367933 15345 net.cpp:122] Setting up relu1_2-R
I0716 03:26:09.367962 15345 net.cpp:129] Top shape: 1 64 710 710 (32262400)
I0716 03:26:09.367965 15345 net.cpp:137] Memory required for data: 1796186912
I0716 03:26:09.367970 15345 layer_factory.hpp:77] Creating layer pool1-R
I0716 03:26:09.367979 15345 net.cpp:84] Creating Layer pool1-R
I0716 03:26:09.367982 15345 net.cpp:406] pool1-R <- conv1_2-R
I0716 03:26:09.367990 15345 net.cpp:380] pool1-R -> pool1-R
I0716 03:26:09.368073 15345 net.cpp:122] Setting up pool1-R
I0716 03:26:09.368080 15345 net.cpp:129] Top shape: 1 64 355 355 (8065600)
I0716 03:26:09.368083 15345 net.cpp:137] Memory required for data: 1828449312
I0716 03:26:09.368086 15345 layer_factory.hpp:77] Creating layer conv2_1-R
I0716 03:26:09.368103 15345 net.cpp:84] Creating Layer conv2_1-R
I0716 03:26:09.368108 15345 net.cpp:406] conv2_1-R <- pool1-R
I0716 03:26:09.368115 15345 net.cpp:380] conv2_1-R -> conv2_1-R
I0716 03:26:09.369700 15345 net.cpp:122] Setting up conv2_1-R
I0716 03:26:09.369714 15345 net.cpp:129] Top shape: 1 128 355 355 (16131200)
I0716 03:26:09.369735 15345 net.cpp:137] Memory required for data: 1892974112
I0716 03:26:09.369741 15345 layer_factory.hpp:77] Creating layer relu2_1-R
I0716 03:26:09.369748 15345 net.cpp:84] Creating Layer relu2_1-R
I0716 03:26:09.369752 15345 net.cpp:406] relu2_1-R <- conv2_1-R
I0716 03:26:09.369757 15345 net.cpp:367] relu2_1-R -> conv2_1-R (in-place)
I0716 03:26:09.370419 15345 net.cpp:122] Setting up relu2_1-R
I0716 03:26:09.370432 15345 net.cpp:129] Top shape: 1 128 355 355 (16131200)
I0716 03:26:09.370451 15345 net.cpp:137] Memory required for data: 1957498912
I0716 03:26:09.370455 15345 layer_factory.hpp:77] Creating layer conv2_2-R
I0716 03:26:09.370477 15345 net.cpp:84] Creating Layer conv2_2-R
I0716 03:26:09.370481 15345 net.cpp:406] conv2_2-R <- conv2_1-R
I0716 03:26:09.370488 15345 net.cpp:380] conv2_2-R -> conv2_2-R
I0716 03:26:09.374068 15345 net.cpp:122] Setting up conv2_2-R
I0716 03:26:09.374096 15345 net.cpp:129] Top shape: 1 128 355 355 (16131200)
I0716 03:26:09.374101 15345 net.cpp:137] Memory required for data: 2022023712
I0716 03:26:09.374109 15345 layer_factory.hpp:77] Creating layer relu2_2-R
I0716 03:26:09.374115 15345 net.cpp:84] Creating Layer relu2_2-R
I0716 03:26:09.374120 15345 net.cpp:406] relu2_2-R <- conv2_2-R
I0716 03:26:09.374127 15345 net.cpp:367] relu2_2-R -> conv2_2-R (in-place)
I0716 03:26:09.374338 15345 net.cpp:122] Setting up relu2_2-R
I0716 03:26:09.374348 15345 net.cpp:129] Top shape: 1 128 355 355 (16131200)
I0716 03:26:09.374352 15345 net.cpp:137] Memory required for data: 2086548512
I0716 03:26:09.374356 15345 layer_factory.hpp:77] Creating layer pool2-R
I0716 03:26:09.374372 15345 net.cpp:84] Creating Layer pool2-R
I0716 03:26:09.374375 15345 net.cpp:406] pool2-R <- conv2_2-R
I0716 03:26:09.374382 15345 net.cpp:380] pool2-R -> pool2-R
I0716 03:26:09.374435 15345 net.cpp:122] Setting up pool2-R
I0716 03:26:09.374445 15345 net.cpp:129] Top shape: 1 128 178 178 (4055552)
I0716 03:26:09.374450 15345 net.cpp:137] Memory required for data: 2102770720
I0716 03:26:09.374454 15345 layer_factory.hpp:77] Creating layer conv3_1-R
I0716 03:26:09.374464 15345 net.cpp:84] Creating Layer conv3_1-R
I0716 03:26:09.374467 15345 net.cpp:406] conv3_1-R <- pool2-R
I0716 03:26:09.374475 15345 net.cpp:380] conv3_1-R -> conv3_1-R
I0716 03:26:09.379345 15345 net.cpp:122] Setting up conv3_1-R
I0716 03:26:09.379377 15345 net.cpp:129] Top shape: 1 256 178 178 (8111104)
I0716 03:26:09.379382 15345 net.cpp:137] Memory required for data: 2135215136
I0716 03:26:09.379397 15345 layer_factory.hpp:77] Creating layer relu3_1-R
I0716 03:26:09.379405 15345 net.cpp:84] Creating Layer relu3_1-R
I0716 03:26:09.379410 15345 net.cpp:406] relu3_1-R <- conv3_1-R
I0716 03:26:09.379417 15345 net.cpp:367] relu3_1-R -> conv3_1-R (in-place)
I0716 03:26:09.379634 15345 net.cpp:122] Setting up relu3_1-R
I0716 03:26:09.379647 15345 net.cpp:129] Top shape: 1 256 178 178 (8111104)
I0716 03:26:09.379650 15345 net.cpp:137] Memory required for data: 2167659552
I0716 03:26:09.379654 15345 layer_factory.hpp:77] Creating layer conv3_2-R
I0716 03:26:09.379671 15345 net.cpp:84] Creating Layer conv3_2-R
I0716 03:26:09.379693 15345 net.cpp:406] conv3_2-R <- conv3_1-R
I0716 03:26:09.379699 15345 net.cpp:380] conv3_2-R -> conv3_2-R
I0716 03:26:09.383384 15345 net.cpp:122] Setting up conv3_2-R
I0716 03:26:09.383415 15345 net.cpp:129] Top shape: 1 256 178 178 (8111104)
I0716 03:26:09.383419 15345 net.cpp:137] Memory required for data: 2200103968
I0716 03:26:09.383427 15345 layer_factory.hpp:77] Creating layer relu3_2-R
I0716 03:26:09.383433 15345 net.cpp:84] Creating Layer relu3_2-R
I0716 03:26:09.383438 15345 net.cpp:406] relu3_2-R <- conv3_2-R
I0716 03:26:09.383445 15345 net.cpp:367] relu3_2-R -> conv3_2-R (in-place)
I0716 03:26:09.383685 15345 net.cpp:122] Setting up relu3_2-R
I0716 03:26:09.383697 15345 net.cpp:129] Top shape: 1 256 178 178 (8111104)
I0716 03:26:09.383699 15345 net.cpp:137] Memory required for data: 2232548384
I0716 03:26:09.383703 15345 layer_factory.hpp:77] Creating layer conv3_3-R
I0716 03:26:09.383723 15345 net.cpp:84] Creating Layer conv3_3-R
I0716 03:26:09.383728 15345 net.cpp:406] conv3_3-R <- conv3_2-R
I0716 03:26:09.383735 15345 net.cpp:380] conv3_3-R -> conv3_3-R
I0716 03:26:09.387446 15345 net.cpp:122] Setting up conv3_3-R
I0716 03:26:09.387477 15345 net.cpp:129] Top shape: 1 256 178 178 (8111104)
I0716 03:26:09.387481 15345 net.cpp:137] Memory required for data: 2264992800
I0716 03:26:09.387490 15345 layer_factory.hpp:77] Creating layer relu3_3-R
I0716 03:26:09.387503 15345 net.cpp:84] Creating Layer relu3_3-R
I0716 03:26:09.387507 15345 net.cpp:406] relu3_3-R <- conv3_3-R
I0716 03:26:09.387513 15345 net.cpp:367] relu3_3-R -> conv3_3-R (in-place)
I0716 03:26:09.387751 15345 net.cpp:122] Setting up relu3_3-R
I0716 03:26:09.387763 15345 net.cpp:129] Top shape: 1 256 178 178 (8111104)
I0716 03:26:09.387766 15345 net.cpp:137] Memory required for data: 2297437216
I0716 03:26:09.387770 15345 layer_factory.hpp:77] Creating layer pool3-R
I0716 03:26:09.387778 15345 net.cpp:84] Creating Layer pool3-R
I0716 03:26:09.387782 15345 net.cpp:406] pool3-R <- conv3_3-R
I0716 03:26:09.387790 15345 net.cpp:380] pool3-R -> pool3-R
I0716 03:26:09.387842 15345 net.cpp:122] Setting up pool3-R
I0716 03:26:09.387853 15345 net.cpp:129] Top shape: 1 256 89 89 (2027776)
I0716 03:26:09.387857 15345 net.cpp:137] Memory required for data: 2305548320
I0716 03:26:09.387862 15345 layer_factory.hpp:77] Creating layer pool3-R_pool3-R_0_split
I0716 03:26:09.387871 15345 net.cpp:84] Creating Layer pool3-R_pool3-R_0_split
I0716 03:26:09.387874 15345 net.cpp:406] pool3-R_pool3-R_0_split <- pool3-R
I0716 03:26:09.387882 15345 net.cpp:380] pool3-R_pool3-R_0_split -> pool3-R_pool3-R_0_split_0
I0716 03:26:09.387888 15345 net.cpp:380] pool3-R_pool3-R_0_split -> pool3-R_pool3-R_0_split_1
I0716 03:26:09.387928 15345 net.cpp:122] Setting up pool3-R_pool3-R_0_split
I0716 03:26:09.387943 15345 net.cpp:129] Top shape: 1 256 89 89 (2027776)
I0716 03:26:09.387948 15345 net.cpp:129] Top shape: 1 256 89 89 (2027776)
I0716 03:26:09.387950 15345 net.cpp:137] Memory required for data: 2321770528
I0716 03:26:09.387953 15345 layer_factory.hpp:77] Creating layer conv4_1-R
I0716 03:26:09.387964 15345 net.cpp:84] Creating Layer conv4_1-R
I0716 03:26:09.387969 15345 net.cpp:406] conv4_1-R <- pool3-R_pool3-R_0_split_0
I0716 03:26:09.387975 15345 net.cpp:380] conv4_1-R -> conv4_1-R
I0716 03:26:09.405297 15345 net.cpp:122] Setting up conv4_1-R
I0716 03:26:09.405364 15345 net.cpp:129] Top shape: 1 512 89 89 (4055552)
I0716 03:26:09.405373 15345 net.cpp:137] Memory required for data: 2337992736
I0716 03:26:09.405392 15345 layer_factory.hpp:77] Creating layer relu4_1-R
I0716 03:26:09.405433 15345 net.cpp:84] Creating Layer relu4_1-R
I0716 03:26:09.405444 15345 net.cpp:406] relu4_1-R <- conv4_1-R
I0716 03:26:09.405458 15345 net.cpp:367] relu4_1-R -> conv4_1-R (in-place)
I0716 03:26:09.406882 15345 net.cpp:122] Setting up relu4_1-R
I0716 03:26:09.406927 15345 net.cpp:129] Top shape: 1 512 89 89 (4055552)
I0716 03:26:09.406936 15345 net.cpp:137] Memory required for data: 2354214944
I0716 03:26:09.406945 15345 layer_factory.hpp:77] Creating layer conv4_2-R
I0716 03:26:09.406975 15345 net.cpp:84] Creating Layer conv4_2-R
I0716 03:26:09.406983 15345 net.cpp:406] conv4_2-R <- conv4_1-R
I0716 03:26:09.407004 15345 net.cpp:380] conv4_2-R -> conv4_2-R
I0716 03:26:09.422071 15345 net.cpp:122] Setting up conv4_2-R
I0716 03:26:09.422106 15345 net.cpp:129] Top shape: 1 512 89 89 (4055552)
I0716 03:26:09.422111 15345 net.cpp:137] Memory required for data: 2370437152
I0716 03:26:09.422122 15345 layer_factory.hpp:77] Creating layer relu4_2-R
I0716 03:26:09.422138 15345 net.cpp:84] Creating Layer relu4_2-R
I0716 03:26:09.422144 15345 net.cpp:406] relu4_2-R <- conv4_2-R
I0716 03:26:09.422157 15345 net.cpp:367] relu4_2-R -> conv4_2-R (in-place)
I0716 03:26:09.427227 15345 net.cpp:122] Setting up relu4_2-R
I0716 03:26:09.427248 15345 net.cpp:129] Top shape: 1 512 89 89 (4055552)
I0716 03:26:09.427263 15345 net.cpp:137] Memory required for data: 2386659360
I0716 03:26:09.427268 15345 layer_factory.hpp:77] Creating layer conv4_3-R
I0716 03:26:09.427305 15345 net.cpp:84] Creating Layer conv4_3-R
I0716 03:26:09.427312 15345 net.cpp:406] conv4_3-R <- conv4_2-R
I0716 03:26:09.427325 15345 net.cpp:380] conv4_3-R -> conv4_3-R
I0716 03:26:09.440328 15345 net.cpp:122] Setting up conv4_3-R
I0716 03:26:09.440376 15345 net.cpp:129] Top shape: 1 512 89 89 (4055552)
I0716 03:26:09.440387 15345 net.cpp:137] Memory required for data: 2402881568
I0716 03:26:09.440459 15345 layer_factory.hpp:77] Creating layer relu4_3-R
I0716 03:26:09.440476 15345 net.cpp:84] Creating Layer relu4_3-R
I0716 03:26:09.440488 15345 net.cpp:406] relu4_3-R <- conv4_3-R
I0716 03:26:09.440502 15345 net.cpp:367] relu4_3-R -> conv4_3-R (in-place)
I0716 03:26:09.440909 15345 net.cpp:122] Setting up relu4_3-R
I0716 03:26:09.440937 15345 net.cpp:129] Top shape: 1 512 89 89 (4055552)
I0716 03:26:09.440944 15345 net.cpp:137] Memory required for data: 2419103776
I0716 03:26:09.440951 15345 layer_factory.hpp:77] Creating layer pool4-R
I0716 03:26:09.440994 15345 net.cpp:84] Creating Layer pool4-R
I0716 03:26:09.441004 15345 net.cpp:406] pool4-R <- conv4_3-R
I0716 03:26:09.441028 15345 net.cpp:380] pool4-R -> pool4-R
I0716 03:26:09.441133 15345 net.cpp:122] Setting up pool4-R
I0716 03:26:09.441149 15345 net.cpp:129] Top shape: 1 512 45 45 (1036800)
I0716 03:26:09.441156 15345 net.cpp:137] Memory required for data: 2423250976
I0716 03:26:09.441164 15345 layer_factory.hpp:77] Creating layer pool4-R_pool4-R_0_split
I0716 03:26:09.441179 15345 net.cpp:84] Creating Layer pool4-R_pool4-R_0_split
I0716 03:26:09.441186 15345 net.cpp:406] pool4-R_pool4-R_0_split <- pool4-R
I0716 03:26:09.441205 15345 net.cpp:380] pool4-R_pool4-R_0_split -> pool4-R_pool4-R_0_split_0
I0716 03:26:09.441220 15345 net.cpp:380] pool4-R_pool4-R_0_split -> pool4-R_pool4-R_0_split_1
I0716 03:26:09.441313 15345 net.cpp:122] Setting up pool4-R_pool4-R_0_split
I0716 03:26:09.441339 15345 net.cpp:129] Top shape: 1 512 45 45 (1036800)
I0716 03:26:09.441347 15345 net.cpp:129] Top shape: 1 512 45 45 (1036800)
I0716 03:26:09.441354 15345 net.cpp:137] Memory required for data: 2431545376
I0716 03:26:09.441361 15345 layer_factory.hpp:77] Creating layer conv5_1-R
I0716 03:26:09.441382 15345 net.cpp:84] Creating Layer conv5_1-R
I0716 03:26:09.441392 15345 net.cpp:406] conv5_1-R <- pool4-R_pool4-R_0_split_0
I0716 03:26:09.441406 15345 net.cpp:380] conv5_1-R -> conv5_1-R
I0716 03:26:09.452283 15345 net.cpp:122] Setting up conv5_1-R
I0716 03:26:09.452319 15345 net.cpp:129] Top shape: 1 512 45 45 (1036800)
I0716 03:26:09.452323 15345 net.cpp:137] Memory required for data: 2435692576
I0716 03:26:09.452427 15345 layer_factory.hpp:77] Creating layer relu5_1-R
I0716 03:26:09.452450 15345 net.cpp:84] Creating Layer relu5_1-R
I0716 03:26:09.452455 15345 net.cpp:406] relu5_1-R <- conv5_1-R
I0716 03:26:09.452461 15345 net.cpp:367] relu5_1-R -> conv5_1-R (in-place)
I0716 03:26:09.453162 15345 net.cpp:122] Setting up relu5_1-R
I0716 03:26:09.453176 15345 net.cpp:129] Top shape: 1 512 45 45 (1036800)
I0716 03:26:09.453196 15345 net.cpp:137] Memory required for data: 2439839776
I0716 03:26:09.453205 15345 layer_factory.hpp:77] Creating layer conv5_2-R
I0716 03:26:09.453217 15345 net.cpp:84] Creating Layer conv5_2-R
I0716 03:26:09.453236 15345 net.cpp:406] conv5_2-R <- conv5_1-R
I0716 03:26:09.453245 15345 net.cpp:380] conv5_2-R -> conv5_2-R
I0716 03:26:09.464931 15345 net.cpp:122] Setting up conv5_2-R
I0716 03:26:09.464967 15345 net.cpp:129] Top shape: 1 512 45 45 (1036800)
I0716 03:26:09.464972 15345 net.cpp:137] Memory required for data: 2443986976
I0716 03:26:09.464979 15345 layer_factory.hpp:77] Creating layer relu5_2-R
I0716 03:26:09.464994 15345 net.cpp:84] Creating Layer relu5_2-R
I0716 03:26:09.464999 15345 net.cpp:406] relu5_2-R <- conv5_2-R
I0716 03:26:09.465006 15345 net.cpp:367] relu5_2-R -> conv5_2-R (in-place)
I0716 03:26:09.465225 15345 net.cpp:122] Setting up relu5_2-R
I0716 03:26:09.465236 15345 net.cpp:129] Top shape: 1 512 45 45 (1036800)
I0716 03:26:09.465240 15345 net.cpp:137] Memory required for data: 2448134176
I0716 03:26:09.465243 15345 layer_factory.hpp:77] Creating layer conv5_3-R
I0716 03:26:09.465260 15345 net.cpp:84] Creating Layer conv5_3-R
I0716 03:26:09.465265 15345 net.cpp:406] conv5_3-R <- conv5_2-R
I0716 03:26:09.465271 15345 net.cpp:380] conv5_3-R -> conv5_3-R
I0716 03:26:09.474934 15345 net.cpp:122] Setting up conv5_3-R
I0716 03:26:09.474970 15345 net.cpp:129] Top shape: 1 512 45 45 (1036800)
I0716 03:26:09.474978 15345 net.cpp:137] Memory required for data: 2452281376
I0716 03:26:09.475003 15345 layer_factory.hpp:77] Creating layer relu5_3-R
I0716 03:26:09.475016 15345 net.cpp:84] Creating Layer relu5_3-R
I0716 03:26:09.475024 15345 net.cpp:406] relu5_3-R <- conv5_3-R
I0716 03:26:09.475037 15345 net.cpp:367] relu5_3-R -> conv5_3-R (in-place)
I0716 03:26:09.475390 15345 net.cpp:122] Setting up relu5_3-R
I0716 03:26:09.475409 15345 net.cpp:129] Top shape: 1 512 45 45 (1036800)
I0716 03:26:09.475427 15345 net.cpp:137] Memory required for data: 2456428576
I0716 03:26:09.475433 15345 layer_factory.hpp:77] Creating layer pool5-R
I0716 03:26:09.475446 15345 net.cpp:84] Creating Layer pool5-R
I0716 03:26:09.475453 15345 net.cpp:406] pool5-R <- conv5_3-R
I0716 03:26:09.475463 15345 net.cpp:380] pool5-R -> pool5-R
I0716 03:26:09.475553 15345 net.cpp:122] Setting up pool5-R
I0716 03:26:09.475566 15345 net.cpp:129] Top shape: 1 512 23 23 (270848)
I0716 03:26:09.475572 15345 net.cpp:137] Memory required for data: 2457511968
I0716 03:26:09.475579 15345 layer_factory.hpp:77] Creating layer fc6-R
I0716 03:26:09.475594 15345 net.cpp:84] Creating Layer fc6-R
I0716 03:26:09.475600 15345 net.cpp:406] fc6-R <- pool5-R
I0716 03:26:09.475613 15345 net.cpp:380] fc6-R -> fc6-R
I0716 03:26:09.821461 15345 net.cpp:122] Setting up fc6-R
I0716 03:26:09.821501 15345 net.cpp:129] Top shape: 1 4096 17 17 (1183744)
I0716 03:26:09.821508 15345 net.cpp:137] Memory required for data: 2462246944
I0716 03:26:09.821521 15345 layer_factory.hpp:77] Creating layer relu6-R
I0716 03:26:09.821535 15345 net.cpp:84] Creating Layer relu6-R
I0716 03:26:09.821543 15345 net.cpp:406] relu6-R <- fc6-R
I0716 03:26:09.821555 15345 net.cpp:367] relu6-R -> fc6-R (in-place)
I0716 03:26:09.822417 15345 net.cpp:122] Setting up relu6-R
I0716 03:26:09.822434 15345 net.cpp:129] Top shape: 1 4096 17 17 (1183744)
I0716 03:26:09.822439 15345 net.cpp:137] Memory required for data: 2466981920
I0716 03:26:09.822446 15345 layer_factory.hpp:77] Creating layer drop6-R
I0716 03:26:09.822456 15345 net.cpp:84] Creating Layer drop6-R
I0716 03:26:09.822461 15345 net.cpp:406] drop6-R <- fc6-R
I0716 03:26:09.822470 15345 net.cpp:367] drop6-R -> fc6-R (in-place)
I0716 03:26:09.822515 15345 net.cpp:122] Setting up drop6-R
I0716 03:26:09.822521 15345 net.cpp:129] Top shape: 1 4096 17 17 (1183744)
I0716 03:26:09.822525 15345 net.cpp:137] Memory required for data: 2471716896
I0716 03:26:09.822530 15345 layer_factory.hpp:77] Creating layer fc7-R
I0716 03:26:09.822543 15345 net.cpp:84] Creating Layer fc7-R
I0716 03:26:09.822548 15345 net.cpp:406] fc7-R <- fc6-R
I0716 03:26:09.822557 15345 net.cpp:380] fc7-R -> fc7-R
I0716 03:26:09.873436 15345 net.cpp:122] Setting up fc7-R
I0716 03:26:09.873500 15345 net.cpp:129] Top shape: 1 4096 17 17 (1183744)
I0716 03:26:09.873510 15345 net.cpp:137] Memory required for data: 2476451872
I0716 03:26:09.873535 15345 layer_factory.hpp:77] Creating layer relu7-R
I0716 03:26:09.873625 15345 net.cpp:84] Creating Layer relu7-R
I0716 03:26:09.873644 15345 net.cpp:406] relu7-R <- fc7-R
I0716 03:26:09.873659 15345 net.cpp:367] relu7-R -> fc7-R (in-place)
I0716 03:26:09.875454 15345 net.cpp:122] Setting up relu7-R
I0716 03:26:09.875493 15345 net.cpp:129] Top shape: 1 4096 17 17 (1183744)
I0716 03:26:09.875501 15345 net.cpp:137] Memory required for data: 2481186848
I0716 03:26:09.875509 15345 layer_factory.hpp:77] Creating layer drop7-R
I0716 03:26:09.875524 15345 net.cpp:84] Creating Layer drop7-R
I0716 03:26:09.875533 15345 net.cpp:406] drop7-R <- fc7-R
I0716 03:26:09.875555 15345 net.cpp:367] drop7-R -> fc7-R (in-place)
I0716 03:26:09.875648 15345 net.cpp:122] Setting up drop7-R
I0716 03:26:09.875674 15345 net.cpp:129] Top shape: 1 4096 17 17 (1183744)
I0716 03:26:09.875681 15345 net.cpp:137] Memory required for data: 2485921824
I0716 03:26:09.875695 15345 layer_factory.hpp:77] Creating layer score_fr-new-R
I0716 03:26:09.875730 15345 net.cpp:84] Creating Layer score_fr-new-R
I0716 03:26:09.875742 15345 net.cpp:406] score_fr-new-R <- fc7-R
I0716 03:26:09.875758 15345 net.cpp:380] score_fr-new-R -> score_fr-new-R
I0716 03:26:09.878851 15345 net.cpp:122] Setting up score_fr-new-R
I0716 03:26:09.878890 15345 net.cpp:129] Top shape: 1 3 17 17 (867)
I0716 03:26:09.878899 15345 net.cpp:137] Memory required for data: 2485925292
I0716 03:26:09.878914 15345 layer_factory.hpp:77] Creating layer upscore2-new-R
I0716 03:26:09.878933 15345 net.cpp:84] Creating Layer upscore2-new-R
I0716 03:26:09.878942 15345 net.cpp:406] upscore2-new-R <- score_fr-new-R
I0716 03:26:09.878957 15345 net.cpp:380] upscore2-new-R -> upscore2-new-R
I0716 03:26:09.879495 15345 net.cpp:122] Setting up upscore2-new-R
I0716 03:26:09.879515 15345 net.cpp:129] Top shape: 1 3 36 36 (3888)
I0716 03:26:09.879529 15345 net.cpp:137] Memory required for data: 2485940844
I0716 03:26:09.879540 15345 layer_factory.hpp:77] Creating layer upscore2-new-R_upscore2-new-R_0_split
I0716 03:26:09.879554 15345 net.cpp:84] Creating Layer upscore2-new-R_upscore2-new-R_0_split
I0716 03:26:09.879562 15345 net.cpp:406] upscore2-new-R_upscore2-new-R_0_split <- upscore2-new-R
I0716 03:26:09.879575 15345 net.cpp:380] upscore2-new-R_upscore2-new-R_0_split -> upscore2-new-R_upscore2-new-R_0_split_0
I0716 03:26:09.879590 15345 net.cpp:380] upscore2-new-R_upscore2-new-R_0_split -> upscore2-new-R_upscore2-new-R_0_split_1
I0716 03:26:09.879676 15345 net.cpp:122] Setting up upscore2-new-R_upscore2-new-R_0_split
I0716 03:26:09.879693 15345 net.cpp:129] Top shape: 1 3 36 36 (3888)
I0716 03:26:09.879703 15345 net.cpp:129] Top shape: 1 3 36 36 (3888)
I0716 03:26:09.879709 15345 net.cpp:137] Memory required for data: 2485971948
I0716 03:26:09.879719 15345 layer_factory.hpp:77] Creating layer score_pool4-new-R
I0716 03:26:09.879736 15345 net.cpp:84] Creating Layer score_pool4-new-R
I0716 03:26:09.879746 15345 net.cpp:406] score_pool4-new-R <- pool4-R_pool4-R_0_split_1
I0716 03:26:09.879760 15345 net.cpp:380] score_pool4-new-R -> score_pool4-new-R
I0716 03:26:09.881541 15345 net.cpp:122] Setting up score_pool4-new-R
I0716 03:26:09.881570 15345 net.cpp:129] Top shape: 1 3 45 45 (6075)
I0716 03:26:09.881575 15345 net.cpp:137] Memory required for data: 2485996248
I0716 03:26:09.881584 15345 layer_factory.hpp:77] Creating layer score_pool4c-R
I0716 03:26:09.881593 15345 net.cpp:84] Creating Layer score_pool4c-R
I0716 03:26:09.881599 15345 net.cpp:406] score_pool4c-R <- score_pool4-new-R
I0716 03:26:09.881606 15345 net.cpp:406] score_pool4c-R <- upscore2-new-R_upscore2-new-R_0_split_0
I0716 03:26:09.881613 15345 net.cpp:380] score_pool4c-R -> score_pool4c-R
I0716 03:26:09.881662 15345 net.cpp:122] Setting up score_pool4c-R
I0716 03:26:09.881669 15345 net.cpp:129] Top shape: 1 3 36 36 (3888)
I0716 03:26:09.881673 15345 net.cpp:137] Memory required for data: 2486011800
I0716 03:26:09.881677 15345 layer_factory.hpp:77] Creating layer fuse_pool4-R
I0716 03:26:09.881686 15345 net.cpp:84] Creating Layer fuse_pool4-R
I0716 03:26:09.881691 15345 net.cpp:406] fuse_pool4-R <- upscore2-new-R_upscore2-new-R_0_split_1
I0716 03:26:09.881697 15345 net.cpp:406] fuse_pool4-R <- score_pool4c-R
I0716 03:26:09.881703 15345 net.cpp:380] fuse_pool4-R -> fuse_pool4-R
I0716 03:26:09.881737 15345 net.cpp:122] Setting up fuse_pool4-R
I0716 03:26:09.881743 15345 net.cpp:129] Top shape: 1 3 36 36 (3888)
I0716 03:26:09.881747 15345 net.cpp:137] Memory required for data: 2486027352
I0716 03:26:09.881752 15345 layer_factory.hpp:77] Creating layer upscore_pool4-new-R
I0716 03:26:09.881763 15345 net.cpp:84] Creating Layer upscore_pool4-new-R
I0716 03:26:09.881768 15345 net.cpp:406] upscore_pool4-new-R <- fuse_pool4-R
I0716 03:26:09.881775 15345 net.cpp:380] upscore_pool4-new-R -> upscore_pool4-new-R
I0716 03:26:09.882059 15345 net.cpp:122] Setting up upscore_pool4-new-R
I0716 03:26:09.882071 15345 net.cpp:129] Top shape: 1 3 74 74 (16428)
I0716 03:26:09.882076 15345 net.cpp:137] Memory required for data: 2486093064
I0716 03:26:09.882084 15345 layer_factory.hpp:77] Creating layer upscore_pool4-new-R_upscore_pool4-new-R_0_split
I0716 03:26:09.882091 15345 net.cpp:84] Creating Layer upscore_pool4-new-R_upscore_pool4-new-R_0_split
I0716 03:26:09.882097 15345 net.cpp:406] upscore_pool4-new-R_upscore_pool4-new-R_0_split <- upscore_pool4-new-R
I0716 03:26:09.882103 15345 net.cpp:380] upscore_pool4-new-R_upscore_pool4-new-R_0_split -> upscore_pool4-new-R_upscore_pool4-new-R_0_split_0
I0716 03:26:09.882112 15345 net.cpp:380] upscore_pool4-new-R_upscore_pool4-new-R_0_split -> upscore_pool4-new-R_upscore_pool4-new-R_0_split_1
I0716 03:26:09.882161 15345 net.cpp:122] Setting up upscore_pool4-new-R_upscore_pool4-new-R_0_split
I0716 03:26:09.882171 15345 net.cpp:129] Top shape: 1 3 74 74 (16428)
I0716 03:26:09.882177 15345 net.cpp:129] Top shape: 1 3 74 74 (16428)
I0716 03:26:09.882181 15345 net.cpp:137] Memory required for data: 2486224488
I0716 03:26:09.882185 15345 layer_factory.hpp:77] Creating layer score_pool3-new-R
I0716 03:26:09.882203 15345 net.cpp:84] Creating Layer score_pool3-new-R
I0716 03:26:09.882210 15345 net.cpp:406] score_pool3-new-R <- pool3-R_pool3-R_0_split_1
I0716 03:26:09.882217 15345 net.cpp:380] score_pool3-new-R -> score_pool3-new-R
I0716 03:26:09.883311 15345 net.cpp:122] Setting up score_pool3-new-R
I0716 03:26:09.883324 15345 net.cpp:129] Top shape: 1 3 89 89 (23763)
I0716 03:26:09.883339 15345 net.cpp:137] Memory required for data: 2486319540
I0716 03:26:09.883347 15345 layer_factory.hpp:77] Creating layer score_pool3c-R
I0716 03:26:09.883355 15345 net.cpp:84] Creating Layer score_pool3c-R
I0716 03:26:09.883360 15345 net.cpp:406] score_pool3c-R <- score_pool3-new-R
I0716 03:26:09.883368 15345 net.cpp:406] score_pool3c-R <- upscore_pool4-new-R_upscore_pool4-new-R_0_split_0
I0716 03:26:09.883373 15345 net.cpp:380] score_pool3c-R -> score_pool3c-R
I0716 03:26:09.883410 15345 net.cpp:122] Setting up score_pool3c-R
I0716 03:26:09.883417 15345 net.cpp:129] Top shape: 1 3 74 74 (16428)
I0716 03:26:09.883421 15345 net.cpp:137] Memory required for data: 2486385252
I0716 03:26:09.883425 15345 layer_factory.hpp:77] Creating layer fuse_pool3-R
I0716 03:26:09.883433 15345 net.cpp:84] Creating Layer fuse_pool3-R
I0716 03:26:09.883437 15345 net.cpp:406] fuse_pool3-R <- upscore_pool4-new-R_upscore_pool4-new-R_0_split_1
I0716 03:26:09.883442 15345 net.cpp:406] fuse_pool3-R <- score_pool3c-R
I0716 03:26:09.883450 15345 net.cpp:380] fuse_pool3-R -> fuse_pool3-R
I0716 03:26:09.883481 15345 net.cpp:122] Setting up fuse_pool3-R
I0716 03:26:09.883487 15345 net.cpp:129] Top shape: 1 3 74 74 (16428)
I0716 03:26:09.883491 15345 net.cpp:137] Memory required for data: 2486450964
I0716 03:26:09.883496 15345 layer_factory.hpp:77] Creating layer upscore8-new-R
I0716 03:26:09.883512 15345 net.cpp:84] Creating Layer upscore8-new-R
I0716 03:26:09.883517 15345 net.cpp:406] upscore8-new-R <- fuse_pool3-R
I0716 03:26:09.883525 15345 net.cpp:380] upscore8-new-R -> upscore8-new-R
I0716 03:26:09.883828 15345 net.cpp:122] Setting up upscore8-new-R
I0716 03:26:09.883839 15345 net.cpp:129] Top shape: 1 3 600 600 (1080000)
I0716 03:26:09.883843 15345 net.cpp:137] Memory required for data: 2490770964
I0716 03:26:09.883852 15345 layer_factory.hpp:77] Creating layer upscore8_cropped-R
I0716 03:26:09.883858 15345 net.cpp:84] Creating Layer upscore8_cropped-R
I0716 03:26:09.883863 15345 net.cpp:406] upscore8_cropped-R <- upscore8-new-R
I0716 03:26:09.883870 15345 net.cpp:406] upscore8_cropped-R <- data-R_crop_0_split_1
I0716 03:26:09.883877 15345 net.cpp:380] upscore8_cropped-R -> upscore8_cropped-R
I0716 03:26:09.883910 15345 net.cpp:122] Setting up upscore8_cropped-R
I0716 03:26:09.883916 15345 net.cpp:129] Top shape: 1 3 512 512 (786432)
I0716 03:26:09.883920 15345 net.cpp:137] Memory required for data: 2493916692
I0716 03:26:09.883924 15345 layer_factory.hpp:77] Creating layer upscore8_uncropped-R
I0716 03:26:09.884264 15345 net.cpp:84] Creating Layer upscore8_uncropped-R
I0716 03:26:09.884277 15345 net.cpp:406] upscore8_uncropped-R <- crop_info
I0716 03:26:09.884294 15345 net.cpp:406] upscore8_uncropped-R <- upscore8_cropped-R
I0716 03:26:09.884299 15345 net.cpp:406] upscore8_uncropped-R <- data_data_0_split_3
I0716 03:26:09.884306 15345 net.cpp:380] upscore8_uncropped-R -> upscore8_uncropped-R
I0716 03:26:09.886819 15345 net.cpp:122] Setting up upscore8_uncropped-R
I0716 03:26:09.886837 15345 net.cpp:129] Top shape: 1 3 512 512 (786432)
I0716 03:26:09.886853 15345 net.cpp:137] Memory required for data: 2497062420
I0716 03:26:09.886858 15345 layer_factory.hpp:77] Creating layer loss1
I0716 03:26:09.886875 15345 net.cpp:84] Creating Layer loss1
I0716 03:26:09.886881 15345 net.cpp:406] loss1 <- upscore8_cropped_upscore8_cropped_0_split_1
I0716 03:26:09.886888 15345 net.cpp:406] loss1 <- label_data_1_split_1
I0716 03:26:09.886895 15345 net.cpp:380] loss1 -> loss1
…
