…
snapshot_prefix: "/media/Med_2T2/data2/models/snapshots/joint:1e-5x10,1e-5x10,20/FD3:ZI3_1_20180418_201524,ZJ3_1_20180419_083711/train"
test_initialization: false
average_loss: 20
stepvalue: 45000
stepvalue: 50000
stepvalue: 55000
iter_size: 1
I0419 12:12:21.967164 31760 solver.cpp:77] Creating training net from train_net file: /media/Med_2T2/data2/prototxts/training_J3x10.prototxt
I0419 12:12:21.969959 31760 net.cpp:51] Initializing net from parameters: 
state {
  phase: TRAIN
}
layer {
  name: "data"
  type: "Python"
  top: "data"
  top: "label"
  top: "crop_margin"
  top: "crop_prob"
  top: "crop_sample_batch"
  python_param {
    module: "Data"
    layer: "DataLayer"
  }
}
layer {
  name: "conv1_1"
  type: "Convolution"
  bottom: "data"
  top: "conv1_1"
  param {
    lr_mult: 1
    decay_mult: 1
  }
  param {
    lr_mult: 2
    decay_mult: 0
  }
  convolution_param {
    num_output: 64
    pad: 100
    kernel_size: 3
    stride: 1
  }
}
layer {
  name: "relu1_1"
  type: "ReLU"
  bottom: "conv1_1"
  top: "conv1_1"
}
layer {
  name: "conv1_2"
  type: "Convolution"
  bottom: "conv1_1"
  top: "conv1_2"
  param {
    lr_mult: 1
    decay_mult: 1
  }
  param {
    lr_mult: 2
    decay_mult: 0
  }
  convolution_param {
    num_output: 64
    pad: 1
    kernel_size: 3
    stride: 1
  }
}
layer {
  name: "relu1_2"
  type: "ReLU"
  bottom: "conv1_2"
  top: "conv1_2"
}
layer {
  name: "pool1"
  type: "Pooling"
  bottom: "conv1_2"
  top: "pool1"
  pooling_param {
    pool: MAX
    kernel_size: 2
    stride: 2
  }
}
layer {
  name: "conv2_1"
  type: "Convolution"
  bottom: "pool1"
  top: "conv2_1"
  param {
    lr_mult: 1
    decay_mult: 1
  }
  param {
    lr_mult: 2
    decay_mult: 0
  }
  convolution_param {
    num_output: 128
    pad: 1
    kernel_size: 3
    stride: 1
  }
}
layer {
  name: "relu2_1"
  type: "ReLU"
  bottom: "conv2_1"
  top: "conv2_1"
}
layer {
  name: "conv2_2"
  type: "Convolution"
  bottom: "conv2_1"
  top: "conv2_2"
  param {
    lr_mult: 1
    decay_mult: 1
  }
  param {
    lr_mult: 2
    decay_mult: 0
  }
  convolution_param {
    num_output: 128
    pad: 1
    kernel_size: 3
    stride: 1
  }
}
layer {
  name: "relu2_2"
  type: "ReLU"
  bottom: "conv2_2"
  top: "conv2_2"
}
layer {
  name: "pool2"
  type: "Pooling"
  bottom: "conv2_2"
  top: "pool2"
  pooling_param {
    pool: MAX
    kernel_size: 2
    stride: 2
  }
}
layer {
  name: "conv3_1"
  type: "Convolution"
  bottom: "pool2"
  top: "conv3_1"
  param {
    lr_mult: 1
    decay_mult: 1
  }
  param {
    lr_mult: 2
    decay_mult: 0
  }
  convolution_param {
    num_output: 256
    pad: 1
    kernel_size: 3
    stride: 1
  }
}
layer {
  name: "relu3_1"
  type: "ReLU"
  bottom: "conv3_1"
  top: "conv3_1"
}
layer {
  name: "conv3_2"
  type: "Convolution"
  bottom: "conv3_1"
  top: "conv3_2"
  param {
    lr_mult: 1
    decay_mult: 1
  }
  param {
    lr_mult: 2
    decay_mult: 0
  }
  convolution_param {
    num_output: 256
    pad: 1
    kernel_size: 3
    stride: 1
  }
}
layer {
  name: "relu3_2"
  type: "ReLU"
  bottom: "conv3_2"
  top: "conv3_2"
}
layer {
  name: "conv3_3"
  type: "Convolution"
  bottom: "conv3_2"
  top: "conv3_3"
  param {
    lr_mult: 1
    decay_mult: 1
  }
  param {
    lr_mult: 2
    decay_mult: 0
  }
  convolution_param {
    num_output: 256
    pad: 1
    kernel_size: 3
    stride: 1
  }
}
layer {
  name: "relu3_3"
  type: "ReLU"
  bottom: "conv3_3"
  top: "conv3_3"
}
layer {
  name: "pool3"
  type: "Pooling"
  bottom: "conv3_3"
  top: "pool3"
  pooling_param {
    pool: MAX
    kernel_size: 2
    stride: 2
  }
}
layer {
  name: "conv4_1"
  type: "Convolution"
  bottom: "pool3"
  top: "conv4_1"
  param {
    lr_mult: 1
    decay_mult: 1
  }
  param {
    lr_mult: 2
    decay_mult: 0
  }
  convolution_param {
    num_output: 512
    pad: 1
    kernel_size: 3
    stride: 1
  }
}
layer {
  name: "relu4_1"
  type: "ReLU"
  bottom: "conv4_1"
  top: "conv4_1"
}
layer {
  name: "conv4_2"
  type: "Convolution"
  bottom: "conv4_1"
  top: "conv4_2"
  param {
    lr_mult: 1
    decay_mult: 1
  }
  param {
    lr_mult: 2
    decay_mult: 0
  }
  convolution_param {
    num_output: 512
    pad: 1
    kernel_size: 3
    stride: 1
  }
}
layer {
  name: "relu4_2"
  type: "ReLU"
  bottom: "conv4_2"
  top: "conv4_2"
}
layer {
  name: "conv4_3"
  type: "Convolution"
  bottom: "conv4_2"
  top: "conv4_3"
  param {
    lr_mult: 1
    decay_mult: 1
  }
  param {
    lr_mult: 2
    decay_mult: 0
  }
  convolution_param {
    num_output: 512
    pad: 1
    kernel_size: 3
    stride: 1
  }
}
layer {
  name: "relu4_3"
  type: "ReLU"
  bottom: "conv4_3"
  top: "conv4_3"
}
layer {
  name: "pool4"
  type: "Pooling"
  bottom: "conv4_3"
  top: "pool4"
  pooling_param {
    pool: MAX
    kernel_size: 2
    stride: 2
  }
}
layer {
  name: "conv5_1"
  type: "Convolution"
  bottom: "pool4"
  top: "conv5_1"
  param {
    lr_mult: 1
    decay_mult: 1
  }
  param {
    lr_mult: 2
    decay_mult: 0
  }
  convolution_param {
    num_output: 512
    pad: 1
    kernel_size: 3
    stride: 1
  }
}
layer {
  name: "relu5_1"
  type: "ReLU"
  bottom: "conv5_1"
  top: "conv5_1"
}
layer {
  name: "conv5_2"
  type: "Convolution"
  bottom: "conv5_1"
  top: "conv5_2"
  param {
    lr_mult: 1
    decay_mult: 1
  }
  param {
    lr_mult: 2
    decay_mult: 0
  }
  convolution_param {
    num_output: 512
    pad: 1
    kernel_size: 3
    stride: 1
  }
}
layer {
  name: "relu5_2"
  type: "ReLU"
  bottom: "conv5_2"
  top: "conv5_2"
}
layer {
  name: "conv5_3"
  type: "Convolution"
  bottom: "conv5_2"
  top: "conv5_3"
  param {
    lr_mult: 1
    decay_mult: 1
  }
  param {
    lr_mult: 2
    decay_mult: 0
  }
  convolution_param {
    num_output: 512
    pad: 1
    kernel_size: 3
    stride: 1
  }
}
layer {
  name: "relu5_3"
  type: "ReLU"
  bottom: "conv5_3"
  top: "conv5_3"
}
layer {
  name: "pool5"
  type: "Pooling"
  bottom: "conv5_3"
  top: "pool5"
  pooling_param {
    pool: MAX
    kernel_size: 2
    stride: 2
  }
}
layer {
  name: "fc6"
  type: "Convolution"
  bottom: "pool5"
  top: "fc6"
  param {
    lr_mult: 1
    decay_mult: 1
  }
  param {
    lr_mult: 2
    decay_mult: 0
  }
  convolution_param {
    num_output: 4096
    pad: 0
    kernel_size: 7
    stride: 1
  }
}
layer {
  name: "relu6"
  type: "ReLU"
  bottom: "fc6"
  top: "fc6"
}
layer {
  name: "drop6"
  type: "Dropout"
  bottom: "fc6"
  top: "fc6"
  dropout_param {
    dropout_ratio: 0.5
  }
}
layer {
  name: "fc7"
  type: "Convolution"
  bottom: "fc6"
  top: "fc7"
  param {
    lr_mult: 1
    decay_mult: 1
  }
  param {
    lr_mult: 2
    decay_mult: 0
  }
  convolution_param {
    num_output: 4096
    pad: 0
    kernel_size: 1
    stride: 1
  }
}
layer {
  name: "relu7"
  type: "ReLU"
  bottom: "fc7"
  top: "fc7"
}
layer {
  name: "drop7"
  type: "Dropout"
  bottom: "fc7"
  top: "fc7"
  dropout_param {
    dropout_ratio: 0.5
  }
}
layer {
  name: "score_fr-new"
  type: "Convolution"
  bottom: "fc7"
  top: "score_fr-new"
  param {
    lr_mult: 1
    decay_mult: 1
  }
  param {
    lr_mult: 2
    decay_mult: 0
  }
  convolution_param {
    num_output: 3
    kernel_size: 1
  }
}
layer {
  name: "upscore2-new"
  type: "Deconvolution"
  bottom: "score_fr-new"
  top: "upscore2-new"
  param {
    lr_mult: 0
  }
  convolution_param {
    num_output: 3
    bias_term: false
    kernel_size: 4
    stride: 2
  }
}
layer {
  name: "score_pool4-new"
  type: "Convolution"
  bottom: "pool4"
  top: "score_pool4-new"
  param {
    lr_mult: 1
    decay_mult: 1
  }
  param {
    lr_mult: 2
    decay_mult: 0
  }
  convolution_param {
    num_output: 3
    pad: 0
    kernel_size: 1
  }
}
layer {
  name: "score_pool4c"
  type: "Crop"
  bottom: "score_pool4-new"
  bottom: "upscore2-new"
  top: "score_pool4c"
  crop_param {
    axis: 2
    offset: 5
  }
}
layer {
  name: "fuse_pool4"
  type: "Eltwise"
  bottom: "upscore2-new"
  bottom: "score_pool4c"
  top: "fuse_pool4"
  eltwise_param {
    operation: SUM
  }
}
layer {
  name: "upscore_pool4-new"
  type: "Deconvolution"
  bottom: "fuse_pool4"
  top: "upscore_pool4-new"
  param {
    lr_mult: 0
  }
  convolution_param {
    num_output: 3
    bias_term: false
    kernel_size: 4
    stride: 2
  }
}
layer {
  name: "score_pool3-new"
  type: "Convolution"
  bottom: "pool3"
  top: "score_pool3-new"
  param {
    lr_mult: 1
    decay_mult: 1
  }
  param {
    lr_mult: 2
    decay_mult: 0
  }
  convolution_param {
    num_output: 3
    pad: 0
    kernel_size: 1
  }
}
layer {
  name: "score_pool3c"
  type: "Crop"
  bottom: "score_pool3-new"
  bottom: "upscore_pool4-new"
  top: "score_pool3c"
  crop_param {
    axis: 2
    offset: 9
  }
}
layer {
  name: "fuse_pool3"
  type: "Eltwise"
  bottom: "upscore_pool4-new"
  bottom: "score_pool3c"
  top: "fuse_pool3"
  eltwise_param {
    operation: SUM
  }
}
layer {
  name: "upscore8-new"
  type: "Deconvolution"
  bottom: "fuse_pool3"
  top: "upscore8-new"
  param {
    lr_mult: 0
  }
  convolution_param {
    num_output: 3
    bias_term: false
    kernel_size: 16
    stride: 8
  }
}
layer {
  name: "upscore8_cropped"
  type: "Crop"
  bottom: "upscore8-new"
  bottom: "data"
  top: "upscore8_cropped"
  crop_param {
    axis: 2
    offset: 31
  }
}
layer {
  name: "score"
  type: "Convolution"
  bottom: "upscore8_cropped"
  top: "score"
  param {
    lr_mult: 1
    decay_mult: 1
  }
  param {
    lr_mult: 2
    decay_mult: 0
  }
  convolution_param {
    num_output: 3
    pad: 1
    kernel_size: 3
    stride: 1
  }
}
layer {
  name: "prob"
  type: "Sigmoid"
  bottom: "score"
  top: "prob"
}
layer {
  name: "saliency"
  type: "Convolution"
  bottom: "prob"
  top: "saliency"
  param {
    lr_mult: 10
    decay_mult: 1
  }
  param {
    lr_mult: 20
    decay_mult: 0
  }
  convolution_param {
    num_output: 3
    pad: 2
    kernel_size: 5
    stride: 1
  }
}
layer {
  name: "saliency_data"
  type: "Eltwise"
  bottom: "data"
  bottom: "saliency"
  top: "saliency_data"
  eltwise_param {
    operation: PROD
  }
}
layer {
  name: "crop"
  type: "Python"
  bottom: "prob"
  bottom: "saliency_data"
  bottom: "crop_margin"
  bottom: "crop_prob"
  bottom: "crop_sample_batch"
  bottom: "label"
  top: "data-R"
  top: "crop_info"
  python_param {
    module: "Crop"
    layer: "CropLayer"
    param_str: "{\"TEST\": 0}"
  }
}
layer {
  name: "conv1_1-R"
  type: "Convolution"
  bottom: "data-R"
  top: "conv1_1-R"
  param {
    lr_mult: 10
    decay_mult: 1
  }
  param {
    lr_mult: 20
    decay_mult: 0
  }
  convolution_param {
    num_output: 64
    pad: 100
    kernel_size: 3
    stride: 1
  }
}
layer {
  name: "relu1_1-R"
  type: "ReLU"
  bottom: "conv1_1-R"
  top: "conv1_1-R"
}
layer {
  name: "conv1_2-R"
  type: "Convolution"
  bottom: "conv1_1-R"
  top: "conv1_2-R"
  param {
    lr_mult: 10
    decay_mult: 1
  }
  param {
    lr_mult: 20
    decay_mult: 0
  }
  convolution_param {
    num_output: 64
    pad: 1
    kernel_size: 3
    stride: 1
  }
}
layer {
  name: "relu1_2-R"
  type: "ReLU"
  bottom: "conv1_2-R"
  top: "conv1_2-R"
}
layer {
  name: "pool1-R"
  type: "Pooling"
  bottom: "conv1_2-R"
  top: "pool1-R"
  pooling_param {
    pool: MAX
    kernel_size: 2
    stride: 2
  }
}
layer {
  name: "conv2_1-R"
  type: "Convolution"
  bottom: "pool1-R"
  top: "conv2_1-R"
  param {
    lr_mult: 10
    decay_mult: 1
  }
  param {
    lr_mult: 20
    decay_mult: 0
  }
  convolution_param {
    num_output: 128
    pad: 1
    kernel_size: 3
    stride: 1
  }
}
layer {
  name: "relu2_1-R"
  type: "ReLU"
  bottom: "conv2_1-R"
  top: "conv2_1-R"
}
layer {
  name: "conv2_2-R"
  type: "Convolution"
  bottom: "conv2_1-R"
  top: "conv2_2-R"
  param {
    lr_mult: 10
    decay_mult: 1
  }
  param {
    lr_mult: 20
    decay_mult: 0
  }
  convolution_param {
    num_output: 128
    pad: 1
    kernel_size: 3
    stride: 1
  }
}
layer {
  name: "relu2_2-R"
  type: "ReLU"
  bottom: "conv2_2-R"
  top: "conv2_2-R"
}
layer {
  name: "pool2-R"
  type: "Pooling"
  bottom: "conv2_2-R"
  top: "pool2-R"
  pooling_param {
    pool: MAX
    kernel_size: 2
    stride: 2
  }
}
layer {
  name: "conv3_1-R"
  type: "Convolution"
  bottom: "pool2-R"
  top: "conv3_1-R"
  param {
    lr_mult: 10
    decay_mult: 1
  }
  param {
    lr_mult: 20
    decay_mult: 0
  }
  convolution_param {
    num_output: 256
    pad: 1
    kernel_size: 3
    stride: 1
  }
}
layer {
  name: "relu3_1-R"
  type: "ReLU"
  bottom: "conv3_1-R"
  top: "conv3_1-R"
}
layer {
  name: "conv3_2-R"
  type: "Convolution"
  bottom: "conv3_1-R"
  top: "conv3_2-R"
  param {
    lr_mult: 10
    decay_mult: 1
  }
  param {
    lr_mult: 20
    decay_mult: 0
  }
  convolution_param {
    num_output: 256
    pad: 1
    kernel_size: 3
    stride: 1
  }
}
layer {
  name: "relu3_2-R"
  type: "ReLU"
  bottom: "conv3_2-R"
  top: "conv3_2-R"
}
layer {
  name: "conv3_3-R"
  type: "Convolution"
  bottom: "conv3_2-R"
  top: "conv3_3-R"
  param {
    lr_mult: 10
    decay_mult: 1
  }
  param {
    lr_mult: 20
    decay_mult: 0
  }
  convolution_param {
    num_output: 256
    pad: 1
    kernel_size: 3
    stride: 1
  }
}
layer {
  name: "relu3_3-R"
  type: "ReLU"
  bottom: "conv3_3-R"
  top: "conv3_3-R"
}
layer {
  name: "pool3-R"
  type: "Pooling"
  bottom: "conv3_3-R"
  top: "pool3-R"
  pooling_param {
    pool: MAX
    kernel_size: 2
    stride: 2
  }
}
layer {
  name: "conv4_1-R"
  type: "Convolution"
  bottom: "pool3-R"
  top: "conv4_1-R"
  param {
    lr_mult: 10
    decay_mult: 1
  }
  param {
    lr_mult: 20
    decay_mult: 0
  }
  convolution_param {
    num_output: 512
    pad: 1
    kernel_size: 3
    stride: 1
  }
}
layer {
  name: "relu4_1-R"
  type: "ReLU"
  bottom: "conv4_1-R"
  top: "conv4_1-R"
}
layer {
  name: "conv4_2-R"
  type: "Convolution"
  bottom: "conv4_1-R"
  top: "conv4_2-R"
  param {
    lr_mult: 10
    decay_mult: 1
  }
  param {
    lr_mult: 20
    decay_mult: 0
  }
  convolution_param {
    num_output: 512
    pad: 1
    kernel_size: 3
    stride: 1
  }
}
layer {
  name: "relu4_2-R"
  type: "ReLU"
  bottom: "conv4_2-R"
  top: "conv4_2-R"
}
layer {
  name: "conv4_3-R"
  type: "Convolution"
  bottom: "conv4_2-R"
  top: "conv4_3-R"
  param {
    lr_mult: 10
    decay_mult: 1
  }
  param {
    lr_mult: 20
    decay_mult: 0
  }
  convolution_param {
    num_output: 512
    pad: 1
    kernel_size: 3
    stride: 1
  }
}
layer {
  name: "relu4_3-R"
  type: "ReLU"
  bottom: "conv4_3-R"
  top: "conv4_3-R"
}
layer {
  name: "pool4-R"
  type: "Pooling"
  bottom: "conv4_3-R"
  top: "pool4-R"
  pooling_param {
    pool: MAX
    kernel_size: 2
    stride: 2
  }
}
layer {
  name: "conv5_1-R"
  type: "Convolution"
  bottom: "pool4-R"
  top: "conv5_1-R"
  param {
    lr_mult: 10
    decay_mult: 1
  }
  param {
    lr_mult: 20
    decay_mult: 0
  }
  convolution_param {
    num_output: 512
    pad: 1
    kernel_size: 3
    stride: 1
  }
}
layer {
  name: "relu5_1-R"
  type: "ReLU"
  bottom: "conv5_1-R"
  top: "conv5_1-R"
}
layer {
  name: "conv5_2-R"
  type: "Convolution"
  bottom: "conv5_1-R"
  top: "conv5_2-R"
  param {
    lr_mult: 10
    decay_mult: 1
  }
  param {
    lr_mult: 20
    decay_mult: 0
  }
  convolution_param {
    num_output: 512
    pad: 1
    kernel_size: 3
    stride: 1
  }
}
layer {
  name: "relu5_2-R"
  type: "ReLU"
  bottom: "conv5_2-R"
  top: "conv5_2-R"
}
layer {
  name: "conv5_3-R"
  type: "Convolution"
  bottom: "conv5_2-R"
  top: "conv5_3-R"
  param {
    lr_mult: 10
    decay_mult: 1
  }
  param {
    lr_mult: 20
    decay_mult: 0
  }
  convolution_param {
    num_output: 512
    pad: 1
    kernel_size: 3
    stride: 1
  }
}
layer {
  name: "relu5_3-R"
  type: "ReLU"
  bottom: "conv5_3-R"
  top: "conv5_3-R"
}
layer {
  name: "pool5-R"
  type: "Pooling"
  bottom: "conv5_3-R"
  top: "pool5-R"
  pooling_param {
    pool: MAX
    kernel_size: 2
    stride: 2
  }
}
layer {
  name: "fc6-R"
  type: "Convolution"
  bottom: "pool5-R"
  top: "fc6-R"
  param {
    lr_mult: 10
    decay_mult: 1
  }
  param {
    lr_mult: 20
    decay_mult: 0
  }
  convolution_param {
    num_output: 4096
    pad: 0
    kernel_size: 7
    stride: 1
  }
}
layer {
  name: "relu6-R"
  type: "ReLU"
  bottom: "fc6-R"
  top: "fc6-R"
}
layer {
  name: "drop6-R"
  type: "Dropout"
  bottom: "fc6-R"
  top: "fc6-R"
  dropout_param {
    dropout_ratio: 0.5
  }
}
layer {
  name: "fc7-R"
  type: "Convolution"
  bottom: "fc6-R"
  top: "fc7-R"
  param {
    lr_mult: 10
    decay_mult: 1
  }
  param {
    lr_mult: 20
    decay_mult: 0
  }
  convolution_param {
    num_output: 4096
    pad: 0
    kernel_size: 1
    stride: 1
  }
}
layer {
  name: "relu7-R"
  type: "ReLU"
  bottom: "fc7-R"
  top: "fc7-R"
}
layer {
  name: "drop7-R"
  type: "Dropout"
  bottom: "fc7-R"
  top: "fc7-R"
  dropout_param {
    dropout_ratio: 0.5
  }
}
layer {
  name: "score_fr-new-R"
  type: "Convolution"
  bottom: "fc7-R"
  top: "score_fr-new-R"
  param {
    lr_mult: 10
    decay_mult: 1
  }
  param {
    lr_mult: 20
    decay_mult: 0
  }
  convolution_param {
    num_output: 3
    kernel_size: 1
  }
}
layer {
  name: "upscore2-new-R"
  type: "Deconvolution"
  bottom: "score_fr-new-R"
  top: "upscore2-new-R"
  param {
    lr_mult: 0
  }
  convolution_param {
    num_output: 3
    bias_term: false
    kernel_size: 4
    stride: 2
  }
}
layer {
  name: "score_pool4-new-R"
  type: "Convolution"
  bottom: "pool4-R"
  top: "score_pool4-new-R"
  param {
    lr_mult: 10
    decay_mult: 1
  }
  param {
    lr_mult: 20
    decay_mult: 0
  }
  convolution_param {
    num_output: 3
    pad: 0
    kernel_size: 1
  }
}
layer {
  name: "score_pool4c-R"
  type: "Crop"
  bottom: "score_pool4-new-R"
  bottom: "upscore2-new-R"
  top: "score_pool4c-R"
  crop_param {
    axis: 2
    offset: 5
  }
}
layer {
  name: "fuse_pool4-R"
  type: "Eltwise"
  bottom: "upscore2-new-R"
  bottom: "score_pool4c-R"
  top: "fuse_pool4-R"
  eltwise_param {
    operation: SUM
  }
}
layer {
  name: "upscore_pool4-new-R"
  type: "Deconvolution"
  bottom: "fuse_pool4-R"
  top: "upscore_pool4-new-R"
  param {
    lr_mult: 0
  }
  convolution_param {
    num_output: 3
    bias_term: false
    kernel_size: 4
    stride: 2
  }
}
layer {
  name: "score_pool3-new-R"
  type: "Convolution"
  bottom: "pool3-R"
  top: "score_pool3-new-R"
  param {
    lr_mult: 10
    decay_mult: 1
  }
  param {
    lr_mult: 20
    decay_mult: 0
  }
  convolution_param {
    num_output: 3
    pad: 0
    kernel_size: 1
  }
}
layer {
  name: "score_pool3c-R"
  type: "Crop"
  bottom: "score_pool3-new-R"
  bottom: "upscore_pool4-new-R"
  top: "score_pool3c-R"
  crop_param {
    axis: 2
    offset: 9
  }
}
layer {
  name: "fuse_pool3-R"
  type: "Eltwise"
  bottom: "upscore_pool4-new-R"
  bottom: "score_pool3c-R"
  top: "fuse_pool3-R"
  eltwise_param {
    operation: SUM
  }
}
layer {
  name: "upscore8-new-R"
  type: "Deconvolution"
  bottom: "fuse_pool3-R"
  top: "upscore8-new-R"
  param {
    lr_mult: 0
  }
  convolution_param {
    num_output: 3
    bias_term: false
    kernel_size: 16
    stride: 8
  }
}
layer {
  name: "upscore8_cropped-R"
  type: "Crop"
  bottom: "upscore8-new-R"
  bottom: "data-R"
  top: "upscore8_cropped-R"
  crop_param {
    axis: 2
    offset: 31
  }
}
layer {
  name: "score-R"
  type: "Convolution"
  bottom: "upscore8_cropped-R"
  top: "score-R"
  param {
    lr_mult: 10
    decay_mult: 1
  }
  param {
    lr_mult: 20
    decay_mult: 0
  }
  convolution_param {
    num_output: 3
    pad: 1
    kernel_size: 3
    stride: 1
  }
}
layer {
  name: "score_uncropped-R"
  type: "Python"
  bottom: "crop_info"
  bottom: "score-R"
  bottom: "data"
  top: "score_uncropped-R"
  python_param {
    module: "Uncrop"
    layer: "UncropLayer"
  }
}
layer {
  name: "loss1"
  type: "DiceLoss"
  bottom: "score"
  bottom: "label"
  top: "loss1"
  loss_weight: 0.333333
}
layer {
  name: "loss2"
  type: "DiceLoss"
  bottom: "score_uncropped-R"
  bottom: "label"
  top: "loss2"
  loss_weight: 0.666667
}
I0419 12:12:21.970542 31760 layer_factory.hpp:77] Creating layer data
I0419 12:12:21.971491 31760 net.cpp:84] Creating Layer data
I0419 12:12:21.971508 31760 net.cpp:380] data -> data
I0419 12:12:21.971525 31760 net.cpp:380] data -> label
I0419 12:12:21.971534 31760 net.cpp:380] data -> crop_margin
I0419 12:12:21.971540 31760 net.cpp:380] data -> crop_prob
I0419 12:12:21.971547 31760 net.cpp:380] data -> crop_sample_batch
I0419 12:12:22.068764 31760 net.cpp:122] Setting up data
I0419 12:12:22.068828 31760 net.cpp:129] Top shape: 1 3 512 512 (786432)
I0419 12:12:22.068836 31760 net.cpp:129] Top shape: 1 3 512 512 (786432)
I0419 12:12:22.068842 31760 net.cpp:129] Top shape: 1 (1)
I0419 12:12:22.068847 31760 net.cpp:129] Top shape: 1 (1)
I0419 12:12:22.068852 31760 net.cpp:129] Top shape: 1 (1)
I0419 12:12:22.068856 31760 net.cpp:137] Memory required for data: 6291468
I0419 12:12:22.068877 31760 layer_factory.hpp:77] Creating layer data_data_0_split
I0419 12:12:22.068907 31760 net.cpp:84] Creating Layer data_data_0_split
I0419 12:12:22.068912 31760 net.cpp:406] data_data_0_split <- data
I0419 12:12:22.068925 31760 net.cpp:380] data_data_0_split -> data_data_0_split_0
I0419 12:12:22.068938 31760 net.cpp:380] data_data_0_split -> data_data_0_split_1
I0419 12:12:22.068945 31760 net.cpp:380] data_data_0_split -> data_data_0_split_2
I0419 12:12:22.068953 31760 net.cpp:380] data_data_0_split -> data_data_0_split_3
I0419 12:12:22.069020 31760 net.cpp:122] Setting up data_data_0_split
I0419 12:12:22.069028 31760 net.cpp:129] Top shape: 1 3 512 512 (786432)
I0419 12:12:22.069034 31760 net.cpp:129] Top shape: 1 3 512 512 (786432)
I0419 12:12:22.069038 31760 net.cpp:129] Top shape: 1 3 512 512 (786432)
I0419 12:12:22.069044 31760 net.cpp:129] Top shape: 1 3 512 512 (786432)
I0419 12:12:22.069048 31760 net.cpp:137] Memory required for data: 18874380
I0419 12:12:22.069053 31760 layer_factory.hpp:77] Creating layer label_data_1_split
I0419 12:12:22.069059 31760 net.cpp:84] Creating Layer label_data_1_split
I0419 12:12:22.069064 31760 net.cpp:406] label_data_1_split <- label
I0419 12:12:22.069070 31760 net.cpp:380] label_data_1_split -> label_data_1_split_0
I0419 12:12:22.069077 31760 net.cpp:380] label_data_1_split -> label_data_1_split_1
I0419 12:12:22.069083 31760 net.cpp:380] label_data_1_split -> label_data_1_split_2
I0419 12:12:22.069123 31760 net.cpp:122] Setting up label_data_1_split
I0419 12:12:22.069131 31760 net.cpp:129] Top shape: 1 3 512 512 (786432)
I0419 12:12:22.069136 31760 net.cpp:129] Top shape: 1 3 512 512 (786432)
I0419 12:12:22.069141 31760 net.cpp:129] Top shape: 1 3 512 512 (786432)
I0419 12:12:22.069144 31760 net.cpp:137] Memory required for data: 28311564
I0419 12:12:22.069149 31760 layer_factory.hpp:77] Creating layer conv1_1
I0419 12:12:22.069164 31760 net.cpp:84] Creating Layer conv1_1
I0419 12:12:22.069169 31760 net.cpp:406] conv1_1 <- data_data_0_split_0
I0419 12:12:22.069175 31760 net.cpp:380] conv1_1 -> conv1_1
I0419 12:12:22.471431 31760 net.cpp:122] Setting up conv1_1
I0419 12:12:22.471487 31760 net.cpp:129] Top shape: 1 64 710 710 (32262400)
I0419 12:12:22.471495 31760 net.cpp:137] Memory required for data: 157361164
I0419 12:12:22.471550 31760 layer_factory.hpp:77] Creating layer relu1_1
I0419 12:12:22.471580 31760 net.cpp:84] Creating Layer relu1_1
I0419 12:12:22.471590 31760 net.cpp:406] relu1_1 <- conv1_1
I0419 12:12:22.471612 31760 net.cpp:367] relu1_1 -> conv1_1 (in-place)
I0419 12:12:22.472024 31760 net.cpp:122] Setting up relu1_1
I0419 12:12:22.472043 31760 net.cpp:129] Top shape: 1 64 710 710 (32262400)
I0419 12:12:22.472049 31760 net.cpp:137] Memory required for data: 286410764
I0419 12:12:22.472057 31760 layer_factory.hpp:77] Creating layer conv1_2
I0419 12:12:22.472079 31760 net.cpp:84] Creating Layer conv1_2
I0419 12:12:22.472086 31760 net.cpp:406] conv1_2 <- conv1_1
I0419 12:12:22.472100 31760 net.cpp:380] conv1_2 -> conv1_2
I0419 12:12:22.479076 31760 net.cpp:122] Setting up conv1_2
I0419 12:12:22.479107 31760 net.cpp:129] Top shape: 1 64 710 710 (32262400)
I0419 12:12:22.479113 31760 net.cpp:137] Memory required for data: 415460364
I0419 12:12:22.479125 31760 layer_factory.hpp:77] Creating layer relu1_2
I0419 12:12:22.479135 31760 net.cpp:84] Creating Layer relu1_2
I0419 12:12:22.479140 31760 net.cpp:406] relu1_2 <- conv1_2
I0419 12:12:22.479157 31760 net.cpp:367] relu1_2 -> conv1_2 (in-place)
I0419 12:12:22.479391 31760 net.cpp:122] Setting up relu1_2
I0419 12:12:22.479403 31760 net.cpp:129] Top shape: 1 64 710 710 (32262400)
I0419 12:12:22.479408 31760 net.cpp:137] Memory required for data: 544509964
I0419 12:12:22.479421 31760 layer_factory.hpp:77] Creating layer pool1
I0419 12:12:22.479434 31760 net.cpp:84] Creating Layer pool1
I0419 12:12:22.479439 31760 net.cpp:406] pool1 <- conv1_2
I0419 12:12:22.479446 31760 net.cpp:380] pool1 -> pool1
I0419 12:12:22.479517 31760 net.cpp:122] Setting up pool1
I0419 12:12:22.479526 31760 net.cpp:129] Top shape: 1 64 355 355 (8065600)
I0419 12:12:22.479531 31760 net.cpp:137] Memory required for data: 576772364
I0419 12:12:22.479534 31760 layer_factory.hpp:77] Creating layer conv2_1
I0419 12:12:22.479547 31760 net.cpp:84] Creating Layer conv2_1
I0419 12:12:22.479552 31760 net.cpp:406] conv2_1 <- pool1
I0419 12:12:22.479558 31760 net.cpp:380] conv2_1 -> conv2_1
I0419 12:12:22.486410 31760 net.cpp:122] Setting up conv2_1
I0419 12:12:22.486429 31760 net.cpp:129] Top shape: 1 128 355 355 (16131200)
I0419 12:12:22.486443 31760 net.cpp:137] Memory required for data: 641297164
I0419 12:12:22.486457 31760 layer_factory.hpp:77] Creating layer relu2_1
I0419 12:12:22.486465 31760 net.cpp:84] Creating Layer relu2_1
I0419 12:12:22.486470 31760 net.cpp:406] relu2_1 <- conv2_1
I0419 12:12:22.486476 31760 net.cpp:367] relu2_1 -> conv2_1 (in-place)
I0419 12:12:22.486726 31760 net.cpp:122] Setting up relu2_1
I0419 12:12:22.486737 31760 net.cpp:129] Top shape: 1 128 355 355 (16131200)
I0419 12:12:22.486742 31760 net.cpp:137] Memory required for data: 705821964
I0419 12:12:22.486747 31760 layer_factory.hpp:77] Creating layer conv2_2
I0419 12:12:22.486758 31760 net.cpp:84] Creating Layer conv2_2
I0419 12:12:22.486763 31760 net.cpp:406] conv2_2 <- conv2_1
I0419 12:12:22.486773 31760 net.cpp:380] conv2_2 -> conv2_2
I0419 12:12:22.488780 31760 net.cpp:122] Setting up conv2_2
I0419 12:12:22.488796 31760 net.cpp:129] Top shape: 1 128 355 355 (16131200)
I0419 12:12:22.488811 31760 net.cpp:137] Memory required for data: 770346764
I0419 12:12:22.488818 31760 layer_factory.hpp:77] Creating layer relu2_2
I0419 12:12:22.488826 31760 net.cpp:84] Creating Layer relu2_2
I0419 12:12:22.488831 31760 net.cpp:406] relu2_2 <- conv2_2
I0419 12:12:22.488842 31760 net.cpp:367] relu2_2 -> conv2_2 (in-place)
I0419 12:12:22.489068 31760 net.cpp:122] Setting up relu2_2
I0419 12:12:22.489079 31760 net.cpp:129] Top shape: 1 128 355 355 (16131200)
I0419 12:12:22.489084 31760 net.cpp:137] Memory required for data: 834871564
I0419 12:12:22.489089 31760 layer_factory.hpp:77] Creating layer pool2
I0419 12:12:22.489097 31760 net.cpp:84] Creating Layer pool2
I0419 12:12:22.489101 31760 net.cpp:406] pool2 <- conv2_2
I0419 12:12:22.489111 31760 net.cpp:380] pool2 -> pool2
I0419 12:12:22.489162 31760 net.cpp:122] Setting up pool2
I0419 12:12:22.489174 31760 net.cpp:129] Top shape: 1 128 178 178 (4055552)
I0419 12:12:22.489179 31760 net.cpp:137] Memory required for data: 851093772
I0419 12:12:22.489183 31760 layer_factory.hpp:77] Creating layer conv3_1
I0419 12:12:22.489192 31760 net.cpp:84] Creating Layer conv3_1
I0419 12:12:22.489203 31760 net.cpp:406] conv3_1 <- pool2
I0419 12:12:22.489212 31760 net.cpp:380] conv3_1 -> conv3_1
I0419 12:12:22.493348 31760 net.cpp:122] Setting up conv3_1
I0419 12:12:22.493384 31760 net.cpp:129] Top shape: 1 256 178 178 (8111104)
I0419 12:12:22.493391 31760 net.cpp:137] Memory required for data: 883538188
I0419 12:12:22.493407 31760 layer_factory.hpp:77] Creating layer relu3_1
I0419 12:12:22.493420 31760 net.cpp:84] Creating Layer relu3_1
I0419 12:12:22.493427 31760 net.cpp:406] relu3_1 <- conv3_1
I0419 12:12:22.493434 31760 net.cpp:367] relu3_1 -> conv3_1 (in-place)
I0419 12:12:22.494227 31760 net.cpp:122] Setting up relu3_1
I0419 12:12:22.494261 31760 net.cpp:129] Top shape: 1 256 178 178 (8111104)
I0419 12:12:22.494266 31760 net.cpp:137] Memory required for data: 915982604
I0419 12:12:22.494272 31760 layer_factory.hpp:77] Creating layer conv3_2
I0419 12:12:22.494288 31760 net.cpp:84] Creating Layer conv3_2
I0419 12:12:22.494294 31760 net.cpp:406] conv3_2 <- conv3_1
I0419 12:12:22.494307 31760 net.cpp:380] conv3_2 -> conv3_2
I0419 12:12:22.498685 31760 net.cpp:122] Setting up conv3_2
I0419 12:12:22.498718 31760 net.cpp:129] Top shape: 1 256 178 178 (8111104)
I0419 12:12:22.498724 31760 net.cpp:137] Memory required for data: 948427020
I0419 12:12:22.498735 31760 layer_factory.hpp:77] Creating layer relu3_2
I0419 12:12:22.498749 31760 net.cpp:84] Creating Layer relu3_2
I0419 12:12:22.498754 31760 net.cpp:406] relu3_2 <- conv3_2
I0419 12:12:22.498776 31760 net.cpp:367] relu3_2 -> conv3_2 (in-place)
I0419 12:12:22.499562 31760 net.cpp:122] Setting up relu3_2
I0419 12:12:22.499581 31760 net.cpp:129] Top shape: 1 256 178 178 (8111104)
I0419 12:12:22.499598 31760 net.cpp:137] Memory required for data: 980871436
I0419 12:12:22.499604 31760 layer_factory.hpp:77] Creating layer conv3_3
I0419 12:12:22.499619 31760 net.cpp:84] Creating Layer conv3_3
I0419 12:12:22.499626 31760 net.cpp:406] conv3_3 <- conv3_2
I0419 12:12:22.499635 31760 net.cpp:380] conv3_3 -> conv3_3
I0419 12:12:22.515682 31760 net.cpp:122] Setting up conv3_3
I0419 12:12:22.515730 31760 net.cpp:129] Top shape: 1 256 178 178 (8111104)
I0419 12:12:22.515738 31760 net.cpp:137] Memory required for data: 1013315852
I0419 12:12:22.515759 31760 layer_factory.hpp:77] Creating layer relu3_3
I0419 12:12:22.515776 31760 net.cpp:84] Creating Layer relu3_3
I0419 12:12:22.515784 31760 net.cpp:406] relu3_3 <- conv3_3
I0419 12:12:22.515800 31760 net.cpp:367] relu3_3 -> conv3_3 (in-place)
I0419 12:12:22.516207 31760 net.cpp:122] Setting up relu3_3
I0419 12:12:22.516239 31760 net.cpp:129] Top shape: 1 256 178 178 (8111104)
I0419 12:12:22.516247 31760 net.cpp:137] Memory required for data: 1045760268
I0419 12:12:22.516253 31760 layer_factory.hpp:77] Creating layer pool3
I0419 12:12:22.516278 31760 net.cpp:84] Creating Layer pool3
I0419 12:12:22.516285 31760 net.cpp:406] pool3 <- conv3_3
I0419 12:12:22.516306 31760 net.cpp:380] pool3 -> pool3
I0419 12:12:22.516397 31760 net.cpp:122] Setting up pool3
I0419 12:12:22.516412 31760 net.cpp:129] Top shape: 1 256 89 89 (2027776)
I0419 12:12:22.516419 31760 net.cpp:137] Memory required for data: 1053871372
I0419 12:12:22.516427 31760 layer_factory.hpp:77] Creating layer pool3_pool3_0_split
I0419 12:12:22.516436 31760 net.cpp:84] Creating Layer pool3_pool3_0_split
I0419 12:12:22.516444 31760 net.cpp:406] pool3_pool3_0_split <- pool3
I0419 12:12:22.516459 31760 net.cpp:380] pool3_pool3_0_split -> pool3_pool3_0_split_0
I0419 12:12:22.516471 31760 net.cpp:380] pool3_pool3_0_split -> pool3_pool3_0_split_1
I0419 12:12:22.516539 31760 net.cpp:122] Setting up pool3_pool3_0_split
I0419 12:12:22.516552 31760 net.cpp:129] Top shape: 1 256 89 89 (2027776)
I0419 12:12:22.516561 31760 net.cpp:129] Top shape: 1 256 89 89 (2027776)
I0419 12:12:22.516567 31760 net.cpp:137] Memory required for data: 1070093580
I0419 12:12:22.516574 31760 layer_factory.hpp:77] Creating layer conv4_1
I0419 12:12:22.516602 31760 net.cpp:84] Creating Layer conv4_1
I0419 12:12:22.516618 31760 net.cpp:406] conv4_1 <- pool3_pool3_0_split_0
I0419 12:12:22.516629 31760 net.cpp:380] conv4_1 -> conv4_1
I0419 12:12:22.528888 31760 net.cpp:122] Setting up conv4_1
I0419 12:12:22.528923 31760 net.cpp:129] Top shape: 1 512 89 89 (4055552)
I0419 12:12:22.528928 31760 net.cpp:137] Memory required for data: 1086315788
I0419 12:12:22.528936 31760 layer_factory.hpp:77] Creating layer relu4_1
I0419 12:12:22.528945 31760 net.cpp:84] Creating Layer relu4_1
I0419 12:12:22.528950 31760 net.cpp:406] relu4_1 <- conv4_1
I0419 12:12:22.528957 31760 net.cpp:367] relu4_1 -> conv4_1 (in-place)
I0419 12:12:22.529202 31760 net.cpp:122] Setting up relu4_1
I0419 12:12:22.529214 31760 net.cpp:129] Top shape: 1 512 89 89 (4055552)
I0419 12:12:22.529218 31760 net.cpp:137] Memory required for data: 1102537996
I0419 12:12:22.529223 31760 layer_factory.hpp:77] Creating layer conv4_2
I0419 12:12:22.529237 31760 net.cpp:84] Creating Layer conv4_2
I0419 12:12:22.529242 31760 net.cpp:406] conv4_2 <- conv4_1
I0419 12:12:22.529249 31760 net.cpp:380] conv4_2 -> conv4_2
I0419 12:12:22.538836 31760 net.cpp:122] Setting up conv4_2
I0419 12:12:22.538885 31760 net.cpp:129] Top shape: 1 512 89 89 (4055552)
I0419 12:12:22.538890 31760 net.cpp:137] Memory required for data: 1118760204
I0419 12:12:22.538914 31760 layer_factory.hpp:77] Creating layer relu4_2
I0419 12:12:22.538933 31760 net.cpp:84] Creating Layer relu4_2
I0419 12:12:22.538942 31760 net.cpp:406] relu4_2 <- conv4_2
I0419 12:12:22.538954 31760 net.cpp:367] relu4_2 -> conv4_2 (in-place)
I0419 12:12:22.539269 31760 net.cpp:122] Setting up relu4_2
I0419 12:12:22.539284 31760 net.cpp:129] Top shape: 1 512 89 89 (4055552)
I0419 12:12:22.539288 31760 net.cpp:137] Memory required for data: 1134982412
I0419 12:12:22.539294 31760 layer_factory.hpp:77] Creating layer conv4_3
I0419 12:12:22.539311 31760 net.cpp:84] Creating Layer conv4_3
I0419 12:12:22.539316 31760 net.cpp:406] conv4_3 <- conv4_2
I0419 12:12:22.539324 31760 net.cpp:380] conv4_3 -> conv4_3
I0419 12:12:22.552686 31760 net.cpp:122] Setting up conv4_3
I0419 12:12:22.552728 31760 net.cpp:129] Top shape: 1 512 89 89 (4055552)
I0419 12:12:22.552733 31760 net.cpp:137] Memory required for data: 1151204620
I0419 12:12:22.552743 31760 layer_factory.hpp:77] Creating layer relu4_3
I0419 12:12:22.552757 31760 net.cpp:84] Creating Layer relu4_3
I0419 12:12:22.552764 31760 net.cpp:406] relu4_3 <- conv4_3
I0419 12:12:22.552772 31760 net.cpp:367] relu4_3 -> conv4_3 (in-place)
I0419 12:12:22.552995 31760 net.cpp:122] Setting up relu4_3
I0419 12:12:22.553009 31760 net.cpp:129] Top shape: 1 512 89 89 (4055552)
I0419 12:12:22.553014 31760 net.cpp:137] Memory required for data: 1167426828
I0419 12:12:22.553019 31760 layer_factory.hpp:77] Creating layer pool4
I0419 12:12:22.553027 31760 net.cpp:84] Creating Layer pool4
I0419 12:12:22.553032 31760 net.cpp:406] pool4 <- conv4_3
I0419 12:12:22.553040 31760 net.cpp:380] pool4 -> pool4
I0419 12:12:22.553097 31760 net.cpp:122] Setting up pool4
I0419 12:12:22.553105 31760 net.cpp:129] Top shape: 1 512 45 45 (1036800)
I0419 12:12:22.553109 31760 net.cpp:137] Memory required for data: 1171574028
I0419 12:12:22.553113 31760 layer_factory.hpp:77] Creating layer pool4_pool4_0_split
I0419 12:12:22.553122 31760 net.cpp:84] Creating Layer pool4_pool4_0_split
I0419 12:12:22.553125 31760 net.cpp:406] pool4_pool4_0_split <- pool4
I0419 12:12:22.553134 31760 net.cpp:380] pool4_pool4_0_split -> pool4_pool4_0_split_0
I0419 12:12:22.553141 31760 net.cpp:380] pool4_pool4_0_split -> pool4_pool4_0_split_1
I0419 12:12:22.553181 31760 net.cpp:122] Setting up pool4_pool4_0_split
I0419 12:12:22.553191 31760 net.cpp:129] Top shape: 1 512 45 45 (1036800)
I0419 12:12:22.553196 31760 net.cpp:129] Top shape: 1 512 45 45 (1036800)
I0419 12:12:22.553200 31760 net.cpp:137] Memory required for data: 1179868428
I0419 12:12:22.553205 31760 layer_factory.hpp:77] Creating layer conv5_1
I0419 12:12:22.553225 31760 net.cpp:84] Creating Layer conv5_1
I0419 12:12:22.553230 31760 net.cpp:406] conv5_1 <- pool4_pool4_0_split_0
I0419 12:12:22.553236 31760 net.cpp:380] conv5_1 -> conv5_1
I0419 12:12:22.567891 31760 net.cpp:122] Setting up conv5_1
I0419 12:12:22.567914 31760 net.cpp:129] Top shape: 1 512 45 45 (1036800)
I0419 12:12:22.567919 31760 net.cpp:137] Memory required for data: 1184015628
I0419 12:12:22.567929 31760 layer_factory.hpp:77] Creating layer relu5_1
I0419 12:12:22.567942 31760 net.cpp:84] Creating Layer relu5_1
I0419 12:12:22.567947 31760 net.cpp:406] relu5_1 <- conv5_1
I0419 12:12:22.567955 31760 net.cpp:367] relu5_1 -> conv5_1 (in-place)
I0419 12:12:22.568636 31760 net.cpp:122] Setting up relu5_1
I0419 12:12:22.568653 31760 net.cpp:129] Top shape: 1 512 45 45 (1036800)
I0419 12:12:22.568658 31760 net.cpp:137] Memory required for data: 1188162828
I0419 12:12:22.568663 31760 layer_factory.hpp:77] Creating layer conv5_2
I0419 12:12:22.568684 31760 net.cpp:84] Creating Layer conv5_2
I0419 12:12:22.568689 31760 net.cpp:406] conv5_2 <- conv5_1
I0419 12:12:22.568697 31760 net.cpp:380] conv5_2 -> conv5_2
I0419 12:12:22.578902 31760 net.cpp:122] Setting up conv5_2
I0419 12:12:22.578953 31760 net.cpp:129] Top shape: 1 512 45 45 (1036800)
I0419 12:12:22.578961 31760 net.cpp:137] Memory required for data: 1192310028
I0419 12:12:22.578977 31760 layer_factory.hpp:77] Creating layer relu5_2
I0419 12:12:22.579006 31760 net.cpp:84] Creating Layer relu5_2
I0419 12:12:22.579016 31760 net.cpp:406] relu5_2 <- conv5_2
I0419 12:12:22.579028 31760 net.cpp:367] relu5_2 -> conv5_2 (in-place)
I0419 12:12:22.580078 31760 net.cpp:122] Setting up relu5_2
I0419 12:12:22.580112 31760 net.cpp:129] Top shape: 1 512 45 45 (1036800)
I0419 12:12:22.580119 31760 net.cpp:137] Memory required for data: 1196457228
I0419 12:12:22.580127 31760 layer_factory.hpp:77] Creating layer conv5_3
I0419 12:12:22.580147 31760 net.cpp:84] Creating Layer conv5_3
I0419 12:12:22.580154 31760 net.cpp:406] conv5_3 <- conv5_2
I0419 12:12:22.580165 31760 net.cpp:380] conv5_3 -> conv5_3
I0419 12:12:22.594553 31760 net.cpp:122] Setting up conv5_3
I0419 12:12:22.594586 31760 net.cpp:129] Top shape: 1 512 45 45 (1036800)
I0419 12:12:22.594591 31760 net.cpp:137] Memory required for data: 1200604428
I0419 12:12:22.594600 31760 layer_factory.hpp:77] Creating layer relu5_3
I0419 12:12:22.594610 31760 net.cpp:84] Creating Layer relu5_3
I0419 12:12:22.594616 31760 net.cpp:406] relu5_3 <- conv5_3
I0419 12:12:22.594626 31760 net.cpp:367] relu5_3 -> conv5_3 (in-place)
I0419 12:12:22.594856 31760 net.cpp:122] Setting up relu5_3
I0419 12:12:22.594867 31760 net.cpp:129] Top shape: 1 512 45 45 (1036800)
I0419 12:12:22.594871 31760 net.cpp:137] Memory required for data: 1204751628
I0419 12:12:22.594875 31760 layer_factory.hpp:77] Creating layer pool5
I0419 12:12:22.594887 31760 net.cpp:84] Creating Layer pool5
I0419 12:12:22.594892 31760 net.cpp:406] pool5 <- conv5_3
I0419 12:12:22.594898 31760 net.cpp:380] pool5 -> pool5
I0419 12:12:22.594954 31760 net.cpp:122] Setting up pool5
I0419 12:12:22.594964 31760 net.cpp:129] Top shape: 1 512 23 23 (270848)
I0419 12:12:22.594967 31760 net.cpp:137] Memory required for data: 1205835020
I0419 12:12:22.594971 31760 layer_factory.hpp:77] Creating layer fc6
I0419 12:12:22.594983 31760 net.cpp:84] Creating Layer fc6
I0419 12:12:22.594988 31760 net.cpp:406] fc6 <- pool5
I0419 12:12:22.594995 31760 net.cpp:380] fc6 -> fc6
I0419 12:12:22.921303 31760 net.cpp:122] Setting up fc6
I0419 12:12:22.921363 31760 net.cpp:129] Top shape: 1 4096 17 17 (1183744)
I0419 12:12:22.921370 31760 net.cpp:137] Memory required for data: 1210569996
I0419 12:12:22.921383 31760 layer_factory.hpp:77] Creating layer relu6
I0419 12:12:22.921402 31760 net.cpp:84] Creating Layer relu6
I0419 12:12:22.921408 31760 net.cpp:406] relu6 <- fc6
I0419 12:12:22.921417 31760 net.cpp:367] relu6 -> fc6 (in-place)
I0419 12:12:22.921681 31760 net.cpp:122] Setting up relu6
I0419 12:12:22.921694 31760 net.cpp:129] Top shape: 1 4096 17 17 (1183744)
I0419 12:12:22.921697 31760 net.cpp:137] Memory required for data: 1215304972
I0419 12:12:22.921701 31760 layer_factory.hpp:77] Creating layer drop6
I0419 12:12:22.921718 31760 net.cpp:84] Creating Layer drop6
I0419 12:12:22.921723 31760 net.cpp:406] drop6 <- fc6
I0419 12:12:22.921730 31760 net.cpp:367] drop6 -> fc6 (in-place)
I0419 12:12:22.921768 31760 net.cpp:122] Setting up drop6
I0419 12:12:22.921787 31760 net.cpp:129] Top shape: 1 4096 17 17 (1183744)
I0419 12:12:22.921792 31760 net.cpp:137] Memory required for data: 1220039948
I0419 12:12:22.921795 31760 layer_factory.hpp:77] Creating layer fc7
I0419 12:12:22.921810 31760 net.cpp:84] Creating Layer fc7
I0419 12:12:22.921814 31760 net.cpp:406] fc7 <- fc6
I0419 12:12:22.921820 31760 net.cpp:380] fc7 -> fc7
I0419 12:12:22.971668 31760 net.cpp:122] Setting up fc7
I0419 12:12:22.971720 31760 net.cpp:129] Top shape: 1 4096 17 17 (1183744)
I0419 12:12:22.971725 31760 net.cpp:137] Memory required for data: 1224774924
I0419 12:12:22.971737 31760 layer_factory.hpp:77] Creating layer relu7
I0419 12:12:22.971750 31760 net.cpp:84] Creating Layer relu7
I0419 12:12:22.971756 31760 net.cpp:406] relu7 <- fc7
I0419 12:12:22.971763 31760 net.cpp:367] relu7 -> fc7 (in-place)
I0419 12:12:22.972313 31760 net.cpp:122] Setting up relu7
I0419 12:12:22.972343 31760 net.cpp:129] Top shape: 1 4096 17 17 (1183744)
I0419 12:12:22.972347 31760 net.cpp:137] Memory required for data: 1229509900
I0419 12:12:22.972352 31760 layer_factory.hpp:77] Creating layer drop7
I0419 12:12:22.972359 31760 net.cpp:84] Creating Layer drop7
I0419 12:12:22.972363 31760 net.cpp:406] drop7 <- fc7
I0419 12:12:22.972368 31760 net.cpp:367] drop7 -> fc7 (in-place)
I0419 12:12:22.972399 31760 net.cpp:122] Setting up drop7
I0419 12:12:22.972404 31760 net.cpp:129] Top shape: 1 4096 17 17 (1183744)
I0419 12:12:22.972407 31760 net.cpp:137] Memory required for data: 1234244876
I0419 12:12:22.972410 31760 layer_factory.hpp:77] Creating layer score_fr-new
I0419 12:12:22.972422 31760 net.cpp:84] Creating Layer score_fr-new
I0419 12:12:22.972425 31760 net.cpp:406] score_fr-new <- fc7
I0419 12:12:22.972431 31760 net.cpp:380] score_fr-new -> score_fr-new
I0419 12:12:22.973650 31760 net.cpp:122] Setting up score_fr-new
I0419 12:12:22.973664 31760 net.cpp:129] Top shape: 1 3 17 17 (867)
I0419 12:12:22.973683 31760 net.cpp:137] Memory required for data: 1234248344
I0419 12:12:22.973690 31760 layer_factory.hpp:77] Creating layer upscore2-new
I0419 12:12:22.973708 31760 net.cpp:84] Creating Layer upscore2-new
I0419 12:12:22.973713 31760 net.cpp:406] upscore2-new <- score_fr-new
I0419 12:12:22.973721 31760 net.cpp:380] upscore2-new -> upscore2-new
I0419 12:12:22.973929 31760 net.cpp:122] Setting up upscore2-new
I0419 12:12:22.973937 31760 net.cpp:129] Top shape: 1 3 36 36 (3888)
I0419 12:12:22.973942 31760 net.cpp:137] Memory required for data: 1234263896
I0419 12:12:22.973955 31760 layer_factory.hpp:77] Creating layer upscore2-new_upscore2-new_0_split
I0419 12:12:22.973963 31760 net.cpp:84] Creating Layer upscore2-new_upscore2-new_0_split
I0419 12:12:22.973966 31760 net.cpp:406] upscore2-new_upscore2-new_0_split <- upscore2-new
I0419 12:12:22.973971 31760 net.cpp:380] upscore2-new_upscore2-new_0_split -> upscore2-new_upscore2-new_0_split_0
I0419 12:12:22.973978 31760 net.cpp:380] upscore2-new_upscore2-new_0_split -> upscore2-new_upscore2-new_0_split_1
I0419 12:12:22.974036 31760 net.cpp:122] Setting up upscore2-new_upscore2-new_0_split
I0419 12:12:22.974045 31760 net.cpp:129] Top shape: 1 3 36 36 (3888)
I0419 12:12:22.974048 31760 net.cpp:129] Top shape: 1 3 36 36 (3888)
I0419 12:12:22.974051 31760 net.cpp:137] Memory required for data: 1234295000
I0419 12:12:22.974056 31760 layer_factory.hpp:77] Creating layer score_pool4-new
I0419 12:12:22.974063 31760 net.cpp:84] Creating Layer score_pool4-new
I0419 12:12:22.974067 31760 net.cpp:406] score_pool4-new <- pool4_pool4_0_split_1
I0419 12:12:22.974072 31760 net.cpp:380] score_pool4-new -> score_pool4-new
I0419 12:12:22.975380 31760 net.cpp:122] Setting up score_pool4-new
I0419 12:12:22.975394 31760 net.cpp:129] Top shape: 1 3 45 45 (6075)
I0419 12:12:22.975414 31760 net.cpp:137] Memory required for data: 1234319300
I0419 12:12:22.975420 31760 layer_factory.hpp:77] Creating layer score_pool4c
I0419 12:12:22.975430 31760 net.cpp:84] Creating Layer score_pool4c
I0419 12:12:22.975435 31760 net.cpp:406] score_pool4c <- score_pool4-new
I0419 12:12:22.975438 31760 net.cpp:406] score_pool4c <- upscore2-new_upscore2-new_0_split_0
I0419 12:12:22.975446 31760 net.cpp:380] score_pool4c -> score_pool4c
I0419 12:12:22.975481 31760 net.cpp:122] Setting up score_pool4c
I0419 12:12:22.975486 31760 net.cpp:129] Top shape: 1 3 36 36 (3888)
I0419 12:12:22.975489 31760 net.cpp:137] Memory required for data: 1234334852
I0419 12:12:22.975492 31760 layer_factory.hpp:77] Creating layer fuse_pool4
I0419 12:12:22.975502 31760 net.cpp:84] Creating Layer fuse_pool4
I0419 12:12:22.975505 31760 net.cpp:406] fuse_pool4 <- upscore2-new_upscore2-new_0_split_1
I0419 12:12:22.975509 31760 net.cpp:406] fuse_pool4 <- score_pool4c
I0419 12:12:22.975514 31760 net.cpp:380] fuse_pool4 -> fuse_pool4
I0419 12:12:22.975543 31760 net.cpp:122] Setting up fuse_pool4
I0419 12:12:22.975548 31760 net.cpp:129] Top shape: 1 3 36 36 (3888)
I0419 12:12:22.975550 31760 net.cpp:137] Memory required for data: 1234350404
I0419 12:12:22.975553 31760 layer_factory.hpp:77] Creating layer upscore_pool4-new
I0419 12:12:22.975561 31760 net.cpp:84] Creating Layer upscore_pool4-new
I0419 12:12:22.975565 31760 net.cpp:406] upscore_pool4-new <- fuse_pool4
I0419 12:12:22.975571 31760 net.cpp:380] upscore_pool4-new -> upscore_pool4-new
I0419 12:12:22.975762 31760 net.cpp:122] Setting up upscore_pool4-new
I0419 12:12:22.975771 31760 net.cpp:129] Top shape: 1 3 74 74 (16428)
I0419 12:12:22.975775 31760 net.cpp:137] Memory required for data: 1234416116
I0419 12:12:22.975778 31760 layer_factory.hpp:77] Creating layer upscore_pool4-new_upscore_pool4-new_0_split
I0419 12:12:22.975785 31760 net.cpp:84] Creating Layer upscore_pool4-new_upscore_pool4-new_0_split
I0419 12:12:22.975787 31760 net.cpp:406] upscore_pool4-new_upscore_pool4-new_0_split <- upscore_pool4-new
I0419 12:12:22.975792 31760 net.cpp:380] upscore_pool4-new_upscore_pool4-new_0_split -> upscore_pool4-new_upscore_pool4-new_0_split_0
I0419 12:12:22.975797 31760 net.cpp:380] upscore_pool4-new_upscore_pool4-new_0_split -> upscore_pool4-new_upscore_pool4-new_0_split_1
I0419 12:12:22.975832 31760 net.cpp:122] Setting up upscore_pool4-new_upscore_pool4-new_0_split
I0419 12:12:22.975837 31760 net.cpp:129] Top shape: 1 3 74 74 (16428)
I0419 12:12:22.975842 31760 net.cpp:129] Top shape: 1 3 74 74 (16428)
I0419 12:12:22.975844 31760 net.cpp:137] Memory required for data: 1234547540
I0419 12:12:22.975848 31760 layer_factory.hpp:77] Creating layer score_pool3-new
I0419 12:12:22.975857 31760 net.cpp:84] Creating Layer score_pool3-new
I0419 12:12:22.975859 31760 net.cpp:406] score_pool3-new <- pool3_pool3_0_split_1
I0419 12:12:22.975867 31760 net.cpp:380] score_pool3-new -> score_pool3-new
I0419 12:12:22.977061 31760 net.cpp:122] Setting up score_pool3-new
I0419 12:12:22.977075 31760 net.cpp:129] Top shape: 1 3 89 89 (23763)
I0419 12:12:22.977094 31760 net.cpp:137] Memory required for data: 1234642592
I0419 12:12:22.977102 31760 layer_factory.hpp:77] Creating layer score_pool3c
I0419 12:12:22.977110 31760 net.cpp:84] Creating Layer score_pool3c
I0419 12:12:22.977114 31760 net.cpp:406] score_pool3c <- score_pool3-new
I0419 12:12:22.977119 31760 net.cpp:406] score_pool3c <- upscore_pool4-new_upscore_pool4-new_0_split_0
I0419 12:12:22.977126 31760 net.cpp:380] score_pool3c -> score_pool3c
I0419 12:12:22.977154 31760 net.cpp:122] Setting up score_pool3c
I0419 12:12:22.977160 31760 net.cpp:129] Top shape: 1 3 74 74 (16428)
I0419 12:12:22.977164 31760 net.cpp:137] Memory required for data: 1234708304
I0419 12:12:22.977166 31760 layer_factory.hpp:77] Creating layer fuse_pool3
I0419 12:12:22.977174 31760 net.cpp:84] Creating Layer fuse_pool3
I0419 12:12:22.977177 31760 net.cpp:406] fuse_pool3 <- upscore_pool4-new_upscore_pool4-new_0_split_1
I0419 12:12:22.977182 31760 net.cpp:406] fuse_pool3 <- score_pool3c
I0419 12:12:22.977186 31760 net.cpp:380] fuse_pool3 -> fuse_pool3
I0419 12:12:22.977211 31760 net.cpp:122] Setting up fuse_pool3
I0419 12:12:22.977216 31760 net.cpp:129] Top shape: 1 3 74 74 (16428)
I0419 12:12:22.977219 31760 net.cpp:137] Memory required for data: 1234774016
I0419 12:12:22.977222 31760 layer_factory.hpp:77] Creating layer upscore8-new
I0419 12:12:22.977231 31760 net.cpp:84] Creating Layer upscore8-new
I0419 12:12:22.977233 31760 net.cpp:406] upscore8-new <- fuse_pool3
I0419 12:12:22.977238 31760 net.cpp:380] upscore8-new -> upscore8-new
I0419 12:12:22.977439 31760 net.cpp:122] Setting up upscore8-new
I0419 12:12:22.977448 31760 net.cpp:129] Top shape: 1 3 600 600 (1080000)
I0419 12:12:22.977452 31760 net.cpp:137] Memory required for data: 1239094016
I0419 12:12:22.977457 31760 layer_factory.hpp:77] Creating layer upscore8_cropped
I0419 12:12:22.977463 31760 net.cpp:84] Creating Layer upscore8_cropped
I0419 12:12:22.977465 31760 net.cpp:406] upscore8_cropped <- upscore8-new
I0419 12:12:22.977471 31760 net.cpp:406] upscore8_cropped <- data_data_0_split_1
I0419 12:12:22.977475 31760 net.cpp:380] upscore8_cropped -> upscore8_cropped
I0419 12:12:22.977499 31760 net.cpp:122] Setting up upscore8_cropped
I0419 12:12:22.977504 31760 net.cpp:129] Top shape: 1 3 512 512 (786432)
I0419 12:12:22.977507 31760 net.cpp:137] Memory required for data: 1242239744
I0419 12:12:22.977510 31760 layer_factory.hpp:77] Creating layer score
I0419 12:12:22.977517 31760 net.cpp:84] Creating Layer score
I0419 12:12:22.977521 31760 net.cpp:406] score <- upscore8_cropped
I0419 12:12:22.977525 31760 net.cpp:380] score -> score
I0419 12:12:22.983106 31760 net.cpp:122] Setting up score
I0419 12:12:22.983158 31760 net.cpp:129] Top shape: 1 3 512 512 (786432)
I0419 12:12:22.983167 31760 net.cpp:137] Memory required for data: 1245385472
I0419 12:12:22.983188 31760 layer_factory.hpp:77] Creating layer score_score_0_split
I0419 12:12:22.983220 31760 net.cpp:84] Creating Layer score_score_0_split
I0419 12:12:22.983229 31760 net.cpp:406] score_score_0_split <- score
I0419 12:12:22.983248 31760 net.cpp:380] score_score_0_split -> score_score_0_split_0
I0419 12:12:22.983268 31760 net.cpp:380] score_score_0_split -> score_score_0_split_1
I0419 12:12:22.983386 31760 net.cpp:122] Setting up score_score_0_split
I0419 12:12:22.983402 31760 net.cpp:129] Top shape: 1 3 512 512 (786432)
I0419 12:12:22.983412 31760 net.cpp:129] Top shape: 1 3 512 512 (786432)
I0419 12:12:22.983418 31760 net.cpp:137] Memory required for data: 1251676928
I0419 12:12:22.983425 31760 layer_factory.hpp:77] Creating layer prob
I0419 12:12:22.983438 31760 net.cpp:84] Creating Layer prob
I0419 12:12:22.983446 31760 net.cpp:406] prob <- score_score_0_split_0
I0419 12:12:22.983460 31760 net.cpp:380] prob -> prob
I0419 12:12:22.983963 31760 net.cpp:122] Setting up prob
I0419 12:12:22.983981 31760 net.cpp:129] Top shape: 1 3 512 512 (786432)
I0419 12:12:22.983989 31760 net.cpp:137] Memory required for data: 1254822656
I0419 12:12:22.983996 31760 layer_factory.hpp:77] Creating layer prob_prob_0_split
I0419 12:12:22.984010 31760 net.cpp:84] Creating Layer prob_prob_0_split
I0419 12:12:22.984022 31760 net.cpp:406] prob_prob_0_split <- prob
I0419 12:12:22.984041 31760 net.cpp:380] prob_prob_0_split -> prob_prob_0_split_0
I0419 12:12:22.984064 31760 net.cpp:380] prob_prob_0_split -> prob_prob_0_split_1
I0419 12:12:22.984146 31760 net.cpp:122] Setting up prob_prob_0_split
I0419 12:12:22.984160 31760 net.cpp:129] Top shape: 1 3 512 512 (786432)
I0419 12:12:22.984170 31760 net.cpp:129] Top shape: 1 3 512 512 (786432)
I0419 12:12:22.984176 31760 net.cpp:137] Memory required for data: 1261114112
I0419 12:12:22.984184 31760 layer_factory.hpp:77] Creating layer saliency
I0419 12:12:22.984203 31760 net.cpp:84] Creating Layer saliency
I0419 12:12:22.984212 31760 net.cpp:406] saliency <- prob_prob_0_split_0
I0419 12:12:22.984237 31760 net.cpp:380] saliency -> saliency
I0419 12:12:22.989799 31760 net.cpp:122] Setting up saliency
I0419 12:12:22.989830 31760 net.cpp:129] Top shape: 1 3 512 512 (786432)
I0419 12:12:22.989838 31760 net.cpp:137] Memory required for data: 1264259840
I0419 12:12:22.989853 31760 layer_factory.hpp:77] Creating layer saliency_data
I0419 12:12:22.989871 31760 net.cpp:84] Creating Layer saliency_data
I0419 12:12:22.989881 31760 net.cpp:406] saliency_data <- data_data_0_split_2
I0419 12:12:22.989892 31760 net.cpp:406] saliency_data <- saliency
I0419 12:12:22.989903 31760 net.cpp:380] saliency_data -> saliency_data
I0419 12:12:22.989969 31760 net.cpp:122] Setting up saliency_data
I0419 12:12:22.989985 31760 net.cpp:129] Top shape: 1 3 512 512 (786432)
I0419 12:12:22.989992 31760 net.cpp:137] Memory required for data: 1267405568
I0419 12:12:22.989998 31760 layer_factory.hpp:77] Creating layer crop
I0419 12:12:22.990878 31760 net.cpp:84] Creating Layer crop
I0419 12:12:22.990900 31760 net.cpp:406] crop <- prob_prob_0_split_1
I0419 12:12:22.990918 31760 net.cpp:406] crop <- saliency_data
I0419 12:12:22.990928 31760 net.cpp:406] crop <- crop_margin
I0419 12:12:22.990937 31760 net.cpp:406] crop <- crop_prob
I0419 12:12:22.990944 31760 net.cpp:406] crop <- crop_sample_batch
I0419 12:12:22.990953 31760 net.cpp:406] crop <- label_data_1_split_0
I0419 12:12:22.990965 31760 net.cpp:380] crop -> data-R
I0419 12:12:22.990981 31760 net.cpp:380] crop -> crop_info
I0419 12:12:23.019714 31760 net.cpp:122] Setting up crop
I0419 12:12:23.019769 31760 net.cpp:129] Top shape: 1 3 512 512 (786432)
I0419 12:12:23.019775 31760 net.cpp:129] Top shape: 1 2 4 (8)
I0419 12:12:23.019781 31760 net.cpp:137] Memory required for data: 1270551328
I0419 12:12:23.019788 31760 layer_factory.hpp:77] Creating layer data-R_crop_0_split
I0419 12:12:23.019800 31760 net.cpp:84] Creating Layer data-R_crop_0_split
I0419 12:12:23.019807 31760 net.cpp:406] data-R_crop_0_split <- data-R
I0419 12:12:23.019816 31760 net.cpp:380] data-R_crop_0_split -> data-R_crop_0_split_0
I0419 12:12:23.019827 31760 net.cpp:380] data-R_crop_0_split -> data-R_crop_0_split_1
I0419 12:12:23.019879 31760 net.cpp:122] Setting up data-R_crop_0_split
I0419 12:12:23.019884 31760 net.cpp:129] Top shape: 1 3 512 512 (786432)
I0419 12:12:23.019888 31760 net.cpp:129] Top shape: 1 3 512 512 (786432)
I0419 12:12:23.019891 31760 net.cpp:137] Memory required for data: 1276842784
I0419 12:12:23.019896 31760 layer_factory.hpp:77] Creating layer conv1_1-R
I0419 12:12:23.019908 31760 net.cpp:84] Creating Layer conv1_1-R
I0419 12:12:23.019912 31760 net.cpp:406] conv1_1-R <- data-R_crop_0_split_0
I0419 12:12:23.019919 31760 net.cpp:380] conv1_1-R -> conv1_1-R
I0419 12:12:23.023564 31760 net.cpp:122] Setting up conv1_1-R
I0419 12:12:23.023579 31760 net.cpp:129] Top shape: 1 64 710 710 (32262400)
I0419 12:12:23.023599 31760 net.cpp:137] Memory required for data: 1405892384
I0419 12:12:23.023612 31760 layer_factory.hpp:77] Creating layer relu1_1-R
I0419 12:12:23.023633 31760 net.cpp:84] Creating Layer relu1_1-R
I0419 12:12:23.023636 31760 net.cpp:406] relu1_1-R <- conv1_1-R
I0419 12:12:23.023643 31760 net.cpp:367] relu1_1-R -> conv1_1-R (in-place)
I0419 12:12:23.023849 31760 net.cpp:122] Setting up relu1_1-R
I0419 12:12:23.023860 31760 net.cpp:129] Top shape: 1 64 710 710 (32262400)
I0419 12:12:23.023864 31760 net.cpp:137] Memory required for data: 1534941984
I0419 12:12:23.023869 31760 layer_factory.hpp:77] Creating layer conv1_2-R
I0419 12:12:23.023878 31760 net.cpp:84] Creating Layer conv1_2-R
I0419 12:12:23.023882 31760 net.cpp:406] conv1_2-R <- conv1_1-R
I0419 12:12:23.023888 31760 net.cpp:380] conv1_2-R -> conv1_2-R
I0419 12:12:23.028316 31760 net.cpp:122] Setting up conv1_2-R
I0419 12:12:23.028332 31760 net.cpp:129] Top shape: 1 64 710 710 (32262400)
I0419 12:12:23.028352 31760 net.cpp:137] Memory required for data: 1663991584
I0419 12:12:23.028358 31760 layer_factory.hpp:77] Creating layer relu1_2-R
I0419 12:12:23.028365 31760 net.cpp:84] Creating Layer relu1_2-R
I0419 12:12:23.028370 31760 net.cpp:406] relu1_2-R <- conv1_2-R
I0419 12:12:23.028378 31760 net.cpp:367] relu1_2-R -> conv1_2-R (in-place)
I0419 12:12:23.028580 31760 net.cpp:122] Setting up relu1_2-R
I0419 12:12:23.028591 31760 net.cpp:129] Top shape: 1 64 710 710 (32262400)
I0419 12:12:23.028594 31760 net.cpp:137] Memory required for data: 1793041184
I0419 12:12:23.028599 31760 layer_factory.hpp:77] Creating layer pool1-R
I0419 12:12:23.028609 31760 net.cpp:84] Creating Layer pool1-R
I0419 12:12:23.028612 31760 net.cpp:406] pool1-R <- conv1_2-R
I0419 12:12:23.028620 31760 net.cpp:380] pool1-R -> pool1-R
I0419 12:12:23.028669 31760 net.cpp:122] Setting up pool1-R
I0419 12:12:23.028678 31760 net.cpp:129] Top shape: 1 64 355 355 (8065600)
I0419 12:12:23.028681 31760 net.cpp:137] Memory required for data: 1825303584
I0419 12:12:23.028684 31760 layer_factory.hpp:77] Creating layer conv2_1-R
I0419 12:12:23.028695 31760 net.cpp:84] Creating Layer conv2_1-R
I0419 12:12:23.028699 31760 net.cpp:406] conv2_1-R <- pool1-R
I0419 12:12:23.028707 31760 net.cpp:380] conv2_1-R -> conv2_1-R
I0419 12:12:23.030520 31760 net.cpp:122] Setting up conv2_1-R
I0419 12:12:23.030539 31760 net.cpp:129] Top shape: 1 128 355 355 (16131200)
I0419 12:12:23.030551 31760 net.cpp:137] Memory required for data: 1889828384
I0419 12:12:23.030561 31760 layer_factory.hpp:77] Creating layer relu2_1-R
I0419 12:12:23.030580 31760 net.cpp:84] Creating Layer relu2_1-R
I0419 12:12:23.030586 31760 net.cpp:406] relu2_1-R <- conv2_1-R
I0419 12:12:23.030603 31760 net.cpp:367] relu2_1-R -> conv2_1-R (in-place)
I0419 12:12:23.030843 31760 net.cpp:122] Setting up relu2_1-R
I0419 12:12:23.030854 31760 net.cpp:129] Top shape: 1 128 355 355 (16131200)
I0419 12:12:23.030859 31760 net.cpp:137] Memory required for data: 1954353184
I0419 12:12:23.030864 31760 layer_factory.hpp:77] Creating layer conv2_2-R
I0419 12:12:23.030874 31760 net.cpp:84] Creating Layer conv2_2-R
I0419 12:12:23.030879 31760 net.cpp:406] conv2_2-R <- conv2_1-R
I0419 12:12:23.030886 31760 net.cpp:380] conv2_2-R -> conv2_2-R
I0419 12:12:23.034646 31760 net.cpp:122] Setting up conv2_2-R
I0419 12:12:23.034677 31760 net.cpp:129] Top shape: 1 128 355 355 (16131200)
I0419 12:12:23.034683 31760 net.cpp:137] Memory required for data: 2018877984
I0419 12:12:23.034693 31760 layer_factory.hpp:77] Creating layer relu2_2-R
I0419 12:12:23.034703 31760 net.cpp:84] Creating Layer relu2_2-R
I0419 12:12:23.034708 31760 net.cpp:406] relu2_2-R <- conv2_2-R
I0419 12:12:23.034714 31760 net.cpp:367] relu2_2-R -> conv2_2-R (in-place)
I0419 12:12:23.035398 31760 net.cpp:122] Setting up relu2_2-R
I0419 12:12:23.035416 31760 net.cpp:129] Top shape: 1 128 355 355 (16131200)
I0419 12:12:23.035421 31760 net.cpp:137] Memory required for data: 2083402784
I0419 12:12:23.035432 31760 layer_factory.hpp:77] Creating layer pool2-R
I0419 12:12:23.035441 31760 net.cpp:84] Creating Layer pool2-R
I0419 12:12:23.035446 31760 net.cpp:406] pool2-R <- conv2_2-R
I0419 12:12:23.035455 31760 net.cpp:380] pool2-R -> pool2-R
I0419 12:12:23.035516 31760 net.cpp:122] Setting up pool2-R
I0419 12:12:23.035523 31760 net.cpp:129] Top shape: 1 128 178 178 (4055552)
I0419 12:12:23.035527 31760 net.cpp:137] Memory required for data: 2099624992
I0419 12:12:23.035532 31760 layer_factory.hpp:77] Creating layer conv3_1-R
I0419 12:12:23.035542 31760 net.cpp:84] Creating Layer conv3_1-R
I0419 12:12:23.035547 31760 net.cpp:406] conv3_1-R <- pool2-R
I0419 12:12:23.035554 31760 net.cpp:380] conv3_1-R -> conv3_1-R
I0419 12:12:23.039538 31760 net.cpp:122] Setting up conv3_1-R
I0419 12:12:23.039558 31760 net.cpp:129] Top shape: 1 256 178 178 (8111104)
I0419 12:12:23.039564 31760 net.cpp:137] Memory required for data: 2132069408
I0419 12:12:23.039573 31760 layer_factory.hpp:77] Creating layer relu3_1-R
I0419 12:12:23.039582 31760 net.cpp:84] Creating Layer relu3_1-R
I0419 12:12:23.039588 31760 net.cpp:406] relu3_1-R <- conv3_1-R
I0419 12:12:23.039597 31760 net.cpp:367] relu3_1-R -> conv3_1-R (in-place)
I0419 12:12:23.039839 31760 net.cpp:122] Setting up relu3_1-R
I0419 12:12:23.039851 31760 net.cpp:129] Top shape: 1 256 178 178 (8111104)
I0419 12:12:23.039856 31760 net.cpp:137] Memory required for data: 2164513824
I0419 12:12:23.039860 31760 layer_factory.hpp:77] Creating layer conv3_2-R
I0419 12:12:23.039871 31760 net.cpp:84] Creating Layer conv3_2-R
I0419 12:12:23.039876 31760 net.cpp:406] conv3_2-R <- conv3_1-R
I0419 12:12:23.039883 31760 net.cpp:380] conv3_2-R -> conv3_2-R
I0419 12:12:23.044024 31760 net.cpp:122] Setting up conv3_2-R
I0419 12:12:23.044051 31760 net.cpp:129] Top shape: 1 256 178 178 (8111104)
I0419 12:12:23.044056 31760 net.cpp:137] Memory required for data: 2196958240
I0419 12:12:23.044066 31760 layer_factory.hpp:77] Creating layer relu3_2-R
I0419 12:12:23.044076 31760 net.cpp:84] Creating Layer relu3_2-R
I0419 12:12:23.044083 31760 net.cpp:406] relu3_2-R <- conv3_2-R
I0419 12:12:23.044090 31760 net.cpp:367] relu3_2-R -> conv3_2-R (in-place)
I0419 12:12:23.044312 31760 net.cpp:122] Setting up relu3_2-R
I0419 12:12:23.044323 31760 net.cpp:129] Top shape: 1 256 178 178 (8111104)
I0419 12:12:23.044327 31760 net.cpp:137] Memory required for data: 2229402656
I0419 12:12:23.044330 31760 layer_factory.hpp:77] Creating layer conv3_3-R
I0419 12:12:23.044342 31760 net.cpp:84] Creating Layer conv3_3-R
I0419 12:12:23.044347 31760 net.cpp:406] conv3_3-R <- conv3_2-R
I0419 12:12:23.044354 31760 net.cpp:380] conv3_3-R -> conv3_3-R
I0419 12:12:23.048815 31760 net.cpp:122] Setting up conv3_3-R
I0419 12:12:23.048846 31760 net.cpp:129] Top shape: 1 256 178 178 (8111104)
I0419 12:12:23.048851 31760 net.cpp:137] Memory required for data: 2261847072
I0419 12:12:23.048859 31760 layer_factory.hpp:77] Creating layer relu3_3-R
I0419 12:12:23.048866 31760 net.cpp:84] Creating Layer relu3_3-R
I0419 12:12:23.048871 31760 net.cpp:406] relu3_3-R <- conv3_3-R
I0419 12:12:23.048877 31760 net.cpp:367] relu3_3-R -> conv3_3-R (in-place)
I0419 12:12:23.049091 31760 net.cpp:122] Setting up relu3_3-R
I0419 12:12:23.049103 31760 net.cpp:129] Top shape: 1 256 178 178 (8111104)
I0419 12:12:23.049106 31760 net.cpp:137] Memory required for data: 2294291488
I0419 12:12:23.049110 31760 layer_factory.hpp:77] Creating layer pool3-R
I0419 12:12:23.050070 31760 net.cpp:84] Creating Layer pool3-R
I0419 12:12:23.050103 31760 net.cpp:406] pool3-R <- conv3_3-R
I0419 12:12:23.050122 31760 net.cpp:380] pool3-R -> pool3-R
I0419 12:12:23.050289 31760 net.cpp:122] Setting up pool3-R
I0419 12:12:23.050309 31760 net.cpp:129] Top shape: 1 256 89 89 (2027776)
I0419 12:12:23.050318 31760 net.cpp:137] Memory required for data: 2302402592
I0419 12:12:23.050325 31760 layer_factory.hpp:77] Creating layer pool3-R_pool3-R_0_split
I0419 12:12:23.050346 31760 net.cpp:84] Creating Layer pool3-R_pool3-R_0_split
I0419 12:12:23.050357 31760 net.cpp:406] pool3-R_pool3-R_0_split <- pool3-R
I0419 12:12:23.050369 31760 net.cpp:380] pool3-R_pool3-R_0_split -> pool3-R_pool3-R_0_split_0
I0419 12:12:23.050400 31760 net.cpp:380] pool3-R_pool3-R_0_split -> pool3-R_pool3-R_0_split_1
I0419 12:12:23.050479 31760 net.cpp:122] Setting up pool3-R_pool3-R_0_split
I0419 12:12:23.050493 31760 net.cpp:129] Top shape: 1 256 89 89 (2027776)
I0419 12:12:23.050505 31760 net.cpp:129] Top shape: 1 256 89 89 (2027776)
I0419 12:12:23.050520 31760 net.cpp:137] Memory required for data: 2318624800
I0419 12:12:23.050528 31760 layer_factory.hpp:77] Creating layer conv4_1-R
I0419 12:12:23.050544 31760 net.cpp:84] Creating Layer conv4_1-R
I0419 12:12:23.050554 31760 net.cpp:406] conv4_1-R <- pool3-R_pool3-R_0_split_0
I0419 12:12:23.050570 31760 net.cpp:380] conv4_1-R -> conv4_1-R
I0419 12:12:23.057682 31760 net.cpp:122] Setting up conv4_1-R
I0419 12:12:23.057700 31760 net.cpp:129] Top shape: 1 512 89 89 (4055552)
I0419 12:12:23.057705 31760 net.cpp:137] Memory required for data: 2334847008
I0419 12:12:23.057715 31760 layer_factory.hpp:77] Creating layer relu4_1-R
I0419 12:12:23.057727 31760 net.cpp:84] Creating Layer relu4_1-R
I0419 12:12:23.057736 31760 net.cpp:406] relu4_1-R <- conv4_1-R
I0419 12:12:23.057744 31760 net.cpp:367] relu4_1-R -> conv4_1-R (in-place)
I0419 12:12:23.057981 31760 net.cpp:122] Setting up relu4_1-R
I0419 12:12:23.057993 31760 net.cpp:129] Top shape: 1 512 89 89 (4055552)
I0419 12:12:23.057997 31760 net.cpp:137] Memory required for data: 2351069216
I0419 12:12:23.058002 31760 layer_factory.hpp:77] Creating layer conv4_2-R
I0419 12:12:23.058014 31760 net.cpp:84] Creating Layer conv4_2-R
I0419 12:12:23.058018 31760 net.cpp:406] conv4_2-R <- conv4_1-R
I0419 12:12:23.058027 31760 net.cpp:380] conv4_2-R -> conv4_2-R
I0419 12:12:23.067075 31760 net.cpp:122] Setting up conv4_2-R
I0419 12:12:23.067097 31760 net.cpp:129] Top shape: 1 512 89 89 (4055552)
I0419 12:12:23.067102 31760 net.cpp:137] Memory required for data: 2367291424
I0419 12:12:23.067112 31760 layer_factory.hpp:77] Creating layer relu4_2-R
I0419 12:12:23.067121 31760 net.cpp:84] Creating Layer relu4_2-R
I0419 12:12:23.067131 31760 net.cpp:406] relu4_2-R <- conv4_2-R
I0419 12:12:23.067138 31760 net.cpp:367] relu4_2-R -> conv4_2-R (in-place)
I0419 12:12:23.067363 31760 net.cpp:122] Setting up relu4_2-R
I0419 12:12:23.067375 31760 net.cpp:129] Top shape: 1 512 89 89 (4055552)
I0419 12:12:23.067379 31760 net.cpp:137] Memory required for data: 2383513632
I0419 12:12:23.067384 31760 layer_factory.hpp:77] Creating layer conv4_3-R
I0419 12:12:23.067396 31760 net.cpp:84] Creating Layer conv4_3-R
I0419 12:12:23.067400 31760 net.cpp:406] conv4_3-R <- conv4_2-R
I0419 12:12:23.067409 31760 net.cpp:380] conv4_3-R -> conv4_3-R
I0419 12:12:23.076383 31760 net.cpp:122] Setting up conv4_3-R
I0419 12:12:23.076407 31760 net.cpp:129] Top shape: 1 512 89 89 (4055552)
I0419 12:12:23.076412 31760 net.cpp:137] Memory required for data: 2399735840
I0419 12:12:23.076423 31760 layer_factory.hpp:77] Creating layer relu4_3-R
I0419 12:12:23.076433 31760 net.cpp:84] Creating Layer relu4_3-R
I0419 12:12:23.076438 31760 net.cpp:406] relu4_3-R <- conv4_3-R
I0419 12:12:23.076447 31760 net.cpp:367] relu4_3-R -> conv4_3-R (in-place)
I0419 12:12:23.077177 31760 net.cpp:122] Setting up relu4_3-R
I0419 12:12:23.077193 31760 net.cpp:129] Top shape: 1 512 89 89 (4055552)
I0419 12:12:23.077208 31760 net.cpp:137] Memory required for data: 2415958048
I0419 12:12:23.077213 31760 layer_factory.hpp:77] Creating layer pool4-R
I0419 12:12:23.077224 31760 net.cpp:84] Creating Layer pool4-R
I0419 12:12:23.077229 31760 net.cpp:406] pool4-R <- conv4_3-R
I0419 12:12:23.077235 31760 net.cpp:380] pool4-R -> pool4-R
I0419 12:12:23.077299 31760 net.cpp:122] Setting up pool4-R
I0419 12:12:23.077306 31760 net.cpp:129] Top shape: 1 512 45 45 (1036800)
I0419 12:12:23.077311 31760 net.cpp:137] Memory required for data: 2420105248
I0419 12:12:23.077314 31760 layer_factory.hpp:77] Creating layer pool4-R_pool4-R_0_split
I0419 12:12:23.077322 31760 net.cpp:84] Creating Layer pool4-R_pool4-R_0_split
I0419 12:12:23.077327 31760 net.cpp:406] pool4-R_pool4-R_0_split <- pool4-R
I0419 12:12:23.077332 31760 net.cpp:380] pool4-R_pool4-R_0_split -> pool4-R_pool4-R_0_split_0
I0419 12:12:23.077340 31760 net.cpp:380] pool4-R_pool4-R_0_split -> pool4-R_pool4-R_0_split_1
I0419 12:12:23.077385 31760 net.cpp:122] Setting up pool4-R_pool4-R_0_split
I0419 12:12:23.077397 31760 net.cpp:129] Top shape: 1 512 45 45 (1036800)
I0419 12:12:23.077404 31760 net.cpp:129] Top shape: 1 512 45 45 (1036800)
I0419 12:12:23.077406 31760 net.cpp:137] Memory required for data: 2428399648
I0419 12:12:23.077410 31760 layer_factory.hpp:77] Creating layer conv5_1-R
I0419 12:12:23.077425 31760 net.cpp:84] Creating Layer conv5_1-R
I0419 12:12:23.077430 31760 net.cpp:406] conv5_1-R <- pool4-R_pool4-R_0_split_0
I0419 12:12:23.077436 31760 net.cpp:380] conv5_1-R -> conv5_1-R
I0419 12:12:23.086555 31760 net.cpp:122] Setting up conv5_1-R
I0419 12:12:23.086586 31760 net.cpp:129] Top shape: 1 512 45 45 (1036800)
I0419 12:12:23.086592 31760 net.cpp:137] Memory required for data: 2432546848
I0419 12:12:23.086621 31760 layer_factory.hpp:77] Creating layer relu5_1-R
I0419 12:12:23.086629 31760 net.cpp:84] Creating Layer relu5_1-R
I0419 12:12:23.086634 31760 net.cpp:406] relu5_1-R <- conv5_1-R
I0419 12:12:23.086642 31760 net.cpp:367] relu5_1-R -> conv5_1-R (in-place)
I0419 12:12:23.086889 31760 net.cpp:122] Setting up relu5_1-R
I0419 12:12:23.086901 31760 net.cpp:129] Top shape: 1 512 45 45 (1036800)
I0419 12:12:23.086905 31760 net.cpp:137] Memory required for data: 2436694048
I0419 12:12:23.086910 31760 layer_factory.hpp:77] Creating layer conv5_2-R
I0419 12:12:23.086922 31760 net.cpp:84] Creating Layer conv5_2-R
I0419 12:12:23.086926 31760 net.cpp:406] conv5_2-R <- conv5_1-R
I0419 12:12:23.086936 31760 net.cpp:380] conv5_2-R -> conv5_2-R
I0419 12:12:23.100369 31760 net.cpp:122] Setting up conv5_2-R
I0419 12:12:23.100402 31760 net.cpp:129] Top shape: 1 512 45 45 (1036800)
I0419 12:12:23.100407 31760 net.cpp:137] Memory required for data: 2440841248
I0419 12:12:23.100417 31760 layer_factory.hpp:77] Creating layer relu5_2-R
I0419 12:12:23.100428 31760 net.cpp:84] Creating Layer relu5_2-R
I0419 12:12:23.100435 31760 net.cpp:406] relu5_2-R <- conv5_2-R
I0419 12:12:23.100442 31760 net.cpp:367] relu5_2-R -> conv5_2-R (in-place)
I0419 12:12:23.100682 31760 net.cpp:122] Setting up relu5_2-R
I0419 12:12:23.100694 31760 net.cpp:129] Top shape: 1 512 45 45 (1036800)
I0419 12:12:23.100698 31760 net.cpp:137] Memory required for data: 2444988448
I0419 12:12:23.100703 31760 layer_factory.hpp:77] Creating layer conv5_3-R
I0419 12:12:23.100714 31760 net.cpp:84] Creating Layer conv5_3-R
I0419 12:12:23.100719 31760 net.cpp:406] conv5_3-R <- conv5_2-R
I0419 12:12:23.100728 31760 net.cpp:380] conv5_3-R -> conv5_3-R
I0419 12:12:23.111729 31760 net.cpp:122] Setting up conv5_3-R
I0419 12:12:23.111757 31760 net.cpp:129] Top shape: 1 512 45 45 (1036800)
I0419 12:12:23.111765 31760 net.cpp:137] Memory required for data: 2449135648
I0419 12:12:23.111778 31760 layer_factory.hpp:77] Creating layer relu5_3-R
I0419 12:12:23.111793 31760 net.cpp:84] Creating Layer relu5_3-R
I0419 12:12:23.111800 31760 net.cpp:406] relu5_3-R <- conv5_3-R
I0419 12:12:23.111810 31760 net.cpp:367] relu5_3-R -> conv5_3-R (in-place)
I0419 12:12:23.112126 31760 net.cpp:122] Setting up relu5_3-R
I0419 12:12:23.112143 31760 net.cpp:129] Top shape: 1 512 45 45 (1036800)
I0419 12:12:23.112149 31760 net.cpp:137] Memory required for data: 2453282848
I0419 12:12:23.112154 31760 layer_factory.hpp:77] Creating layer pool5-R
I0419 12:12:23.112167 31760 net.cpp:84] Creating Layer pool5-R
I0419 12:12:23.112174 31760 net.cpp:406] pool5-R <- conv5_3-R
I0419 12:12:23.112185 31760 net.cpp:380] pool5-R -> pool5-R
I0419 12:12:23.112267 31760 net.cpp:122] Setting up pool5-R
I0419 12:12:23.112279 31760 net.cpp:129] Top shape: 1 512 23 23 (270848)
I0419 12:12:23.112285 31760 net.cpp:137] Memory required for data: 2454366240
I0419 12:12:23.112290 31760 layer_factory.hpp:77] Creating layer fc6-R
I0419 12:12:23.112305 31760 net.cpp:84] Creating Layer fc6-R
I0419 12:12:23.112311 31760 net.cpp:406] fc6-R <- pool5-R
I0419 12:12:23.112321 31760 net.cpp:380] fc6-R -> fc6-R
I0419 12:12:23.460177 31760 net.cpp:122] Setting up fc6-R
I0419 12:12:23.460228 31760 net.cpp:129] Top shape: 1 4096 17 17 (1183744)
I0419 12:12:23.460237 31760 net.cpp:137] Memory required for data: 2459101216
I0419 12:12:23.460247 31760 layer_factory.hpp:77] Creating layer relu6-R
I0419 12:12:23.460259 31760 net.cpp:84] Creating Layer relu6-R
I0419 12:12:23.460280 31760 net.cpp:406] relu6-R <- fc6-R
I0419 12:12:23.460289 31760 net.cpp:367] relu6-R -> fc6-R (in-place)
I0419 12:12:23.460479 31760 net.cpp:122] Setting up relu6-R
I0419 12:12:23.460489 31760 net.cpp:129] Top shape: 1 4096 17 17 (1183744)
I0419 12:12:23.460492 31760 net.cpp:137] Memory required for data: 2463836192
I0419 12:12:23.460495 31760 layer_factory.hpp:77] Creating layer drop6-R
I0419 12:12:23.460505 31760 net.cpp:84] Creating Layer drop6-R
I0419 12:12:23.460508 31760 net.cpp:406] drop6-R <- fc6-R
I0419 12:12:23.460515 31760 net.cpp:367] drop6-R -> fc6-R (in-place)
I0419 12:12:23.460548 31760 net.cpp:122] Setting up drop6-R
I0419 12:12:23.460556 31760 net.cpp:129] Top shape: 1 4096 17 17 (1183744)
I0419 12:12:23.460558 31760 net.cpp:137] Memory required for data: 2468571168
I0419 12:12:23.460561 31760 layer_factory.hpp:77] Creating layer fc7-R
I0419 12:12:23.460572 31760 net.cpp:84] Creating Layer fc7-R
I0419 12:12:23.460575 31760 net.cpp:406] fc7-R <- fc6-R
I0419 12:12:23.460582 31760 net.cpp:380] fc7-R -> fc7-R
I0419 12:12:23.509353 31760 net.cpp:122] Setting up fc7-R
I0419 12:12:23.509402 31760 net.cpp:129] Top shape: 1 4096 17 17 (1183744)
I0419 12:12:23.509407 31760 net.cpp:137] Memory required for data: 2473306144
I0419 12:12:23.509419 31760 layer_factory.hpp:77] Creating layer relu7-R
I0419 12:12:23.509433 31760 net.cpp:84] Creating Layer relu7-R
I0419 12:12:23.509455 31760 net.cpp:406] relu7-R <- fc7-R
I0419 12:12:23.509464 31760 net.cpp:367] relu7-R -> fc7-R (in-place)
I0419 12:12:23.509688 31760 net.cpp:122] Setting up relu7-R
I0419 12:12:23.509699 31760 net.cpp:129] Top shape: 1 4096 17 17 (1183744)
I0419 12:12:23.509703 31760 net.cpp:137] Memory required for data: 2478041120
I0419 12:12:23.509706 31760 layer_factory.hpp:77] Creating layer drop7-R
I0419 12:12:23.509716 31760 net.cpp:84] Creating Layer drop7-R
I0419 12:12:23.509718 31760 net.cpp:406] drop7-R <- fc7-R
I0419 12:12:23.509724 31760 net.cpp:367] drop7-R -> fc7-R (in-place)
I0419 12:12:23.509758 31760 net.cpp:122] Setting up drop7-R
I0419 12:12:23.509766 31760 net.cpp:129] Top shape: 1 4096 17 17 (1183744)
I0419 12:12:23.509769 31760 net.cpp:137] Memory required for data: 2482776096
I0419 12:12:23.509773 31760 layer_factory.hpp:77] Creating layer score_fr-new-R
I0419 12:12:23.509783 31760 net.cpp:84] Creating Layer score_fr-new-R
I0419 12:12:23.509788 31760 net.cpp:406] score_fr-new-R <- fc7-R
I0419 12:12:23.509794 31760 net.cpp:380] score_fr-new-R -> score_fr-new-R
I0419 12:12:23.516515 31760 net.cpp:122] Setting up score_fr-new-R
I0419 12:12:23.516535 31760 net.cpp:129] Top shape: 1 3 17 17 (867)
I0419 12:12:23.516547 31760 net.cpp:137] Memory required for data: 2482779564
I0419 12:12:23.516556 31760 layer_factory.hpp:77] Creating layer upscore2-new-R
I0419 12:12:23.516572 31760 net.cpp:84] Creating Layer upscore2-new-R
I0419 12:12:23.516578 31760 net.cpp:406] upscore2-new-R <- score_fr-new-R
I0419 12:12:23.516587 31760 net.cpp:380] upscore2-new-R -> upscore2-new-R
I0419 12:12:23.516899 31760 net.cpp:122] Setting up upscore2-new-R
I0419 12:12:23.516911 31760 net.cpp:129] Top shape: 1 3 36 36 (3888)
I0419 12:12:23.516914 31760 net.cpp:137] Memory required for data: 2482795116
I0419 12:12:23.516929 31760 layer_factory.hpp:77] Creating layer upscore2-new-R_upscore2-new-R_0_split
I0419 12:12:23.516939 31760 net.cpp:84] Creating Layer upscore2-new-R_upscore2-new-R_0_split
I0419 12:12:23.516944 31760 net.cpp:406] upscore2-new-R_upscore2-new-R_0_split <- upscore2-new-R
I0419 12:12:23.516952 31760 net.cpp:380] upscore2-new-R_upscore2-new-R_0_split -> upscore2-new-R_upscore2-new-R_0_split_0
I0419 12:12:23.516960 31760 net.cpp:380] upscore2-new-R_upscore2-new-R_0_split -> upscore2-new-R_upscore2-new-R_0_split_1
I0419 12:12:23.517009 31760 net.cpp:122] Setting up upscore2-new-R_upscore2-new-R_0_split
I0419 12:12:23.517016 31760 net.cpp:129] Top shape: 1 3 36 36 (3888)
I0419 12:12:23.517022 31760 net.cpp:129] Top shape: 1 3 36 36 (3888)
I0419 12:12:23.517026 31760 net.cpp:137] Memory required for data: 2482826220
I0419 12:12:23.517030 31760 layer_factory.hpp:77] Creating layer score_pool4-new-R
I0419 12:12:23.517045 31760 net.cpp:84] Creating Layer score_pool4-new-R
I0419 12:12:23.517050 31760 net.cpp:406] score_pool4-new-R <- pool4-R_pool4-R_0_split_1
I0419 12:12:23.517057 31760 net.cpp:380] score_pool4-new-R -> score_pool4-new-R
I0419 12:12:23.520051 31760 net.cpp:122] Setting up score_pool4-new-R
I0419 12:12:23.520072 31760 net.cpp:129] Top shape: 1 3 45 45 (6075)
I0419 12:12:23.520078 31760 net.cpp:137] Memory required for data: 2482850520
I0419 12:12:23.520088 31760 layer_factory.hpp:77] Creating layer score_pool4c-R
I0419 12:12:23.520098 31760 net.cpp:84] Creating Layer score_pool4c-R
I0419 12:12:23.520104 31760 net.cpp:406] score_pool4c-R <- score_pool4-new-R
I0419 12:12:23.520112 31760 net.cpp:406] score_pool4c-R <- upscore2-new-R_upscore2-new-R_0_split_0
I0419 12:12:23.520119 31760 net.cpp:380] score_pool4c-R -> score_pool4c-R
I0419 12:12:23.520162 31760 net.cpp:122] Setting up score_pool4c-R
I0419 12:12:23.520172 31760 net.cpp:129] Top shape: 1 3 36 36 (3888)
I0419 12:12:23.520176 31760 net.cpp:137] Memory required for data: 2482866072
I0419 12:12:23.520180 31760 layer_factory.hpp:77] Creating layer fuse_pool4-R
I0419 12:12:23.520190 31760 net.cpp:84] Creating Layer fuse_pool4-R
I0419 12:12:23.520195 31760 net.cpp:406] fuse_pool4-R <- upscore2-new-R_upscore2-new-R_0_split_1
I0419 12:12:23.520201 31760 net.cpp:406] fuse_pool4-R <- score_pool4c-R
I0419 12:12:23.520210 31760 net.cpp:380] fuse_pool4-R -> fuse_pool4-R
I0419 12:12:23.520244 31760 net.cpp:122] Setting up fuse_pool4-R
I0419 12:12:23.520252 31760 net.cpp:129] Top shape: 1 3 36 36 (3888)
I0419 12:12:23.520256 31760 net.cpp:137] Memory required for data: 2482881624
I0419 12:12:23.520261 31760 layer_factory.hpp:77] Creating layer upscore_pool4-new-R
I0419 12:12:23.520270 31760 net.cpp:84] Creating Layer upscore_pool4-new-R
I0419 12:12:23.520274 31760 net.cpp:406] upscore_pool4-new-R <- fuse_pool4-R
I0419 12:12:23.520283 31760 net.cpp:380] upscore_pool4-new-R -> upscore_pool4-new-R
I0419 12:12:23.520578 31760 net.cpp:122] Setting up upscore_pool4-new-R
I0419 12:12:23.520588 31760 net.cpp:129] Top shape: 1 3 74 74 (16428)
I0419 12:12:23.520593 31760 net.cpp:137] Memory required for data: 2482947336
I0419 12:12:23.520606 31760 layer_factory.hpp:77] Creating layer upscore_pool4-new-R_upscore_pool4-new-R_0_split
I0419 12:12:23.520613 31760 net.cpp:84] Creating Layer upscore_pool4-new-R_upscore_pool4-new-R_0_split
I0419 12:12:23.520618 31760 net.cpp:406] upscore_pool4-new-R_upscore_pool4-new-R_0_split <- upscore_pool4-new-R
I0419 12:12:23.520627 31760 net.cpp:380] upscore_pool4-new-R_upscore_pool4-new-R_0_split -> upscore_pool4-new-R_upscore_pool4-new-R_0_split_0
I0419 12:12:23.520635 31760 net.cpp:380] upscore_pool4-new-R_upscore_pool4-new-R_0_split -> upscore_pool4-new-R_upscore_pool4-new-R_0_split_1
I0419 12:12:23.520684 31760 net.cpp:122] Setting up upscore_pool4-new-R_upscore_pool4-new-R_0_split
I0419 12:12:23.520692 31760 net.cpp:129] Top shape: 1 3 74 74 (16428)
I0419 12:12:23.520697 31760 net.cpp:129] Top shape: 1 3 74 74 (16428)
I0419 12:12:23.520701 31760 net.cpp:137] Memory required for data: 2483078760
I0419 12:12:23.520705 31760 layer_factory.hpp:77] Creating layer score_pool3-new-R
I0419 12:12:23.520716 31760 net.cpp:84] Creating Layer score_pool3-new-R
I0419 12:12:23.520722 31760 net.cpp:406] score_pool3-new-R <- pool3-R_pool3-R_0_split_1
I0419 12:12:23.520731 31760 net.cpp:380] score_pool3-new-R -> score_pool3-new-R
I0419 12:12:23.522430 31760 net.cpp:122] Setting up score_pool3-new-R
I0419 12:12:23.522449 31760 net.cpp:129] Top shape: 1 3 89 89 (23763)
I0419 12:12:23.522454 31760 net.cpp:137] Memory required for data: 2483173812
I0419 12:12:23.522464 31760 layer_factory.hpp:77] Creating layer score_pool3c-R
I0419 12:12:23.522475 31760 net.cpp:84] Creating Layer score_pool3c-R
I0419 12:12:23.522480 31760 net.cpp:406] score_pool3c-R <- score_pool3-new-R
I0419 12:12:23.522487 31760 net.cpp:406] score_pool3c-R <- upscore_pool4-new-R_upscore_pool4-new-R_0_split_0
I0419 12:12:23.522495 31760 net.cpp:380] score_pool3c-R -> score_pool3c-R
I0419 12:12:23.522536 31760 net.cpp:122] Setting up score_pool3c-R
I0419 12:12:23.522545 31760 net.cpp:129] Top shape: 1 3 74 74 (16428)
I0419 12:12:23.522549 31760 net.cpp:137] Memory required for data: 2483239524
I0419 12:12:23.522553 31760 layer_factory.hpp:77] Creating layer fuse_pool3-R
I0419 12:12:23.522562 31760 net.cpp:84] Creating Layer fuse_pool3-R
I0419 12:12:23.522567 31760 net.cpp:406] fuse_pool3-R <- upscore_pool4-new-R_upscore_pool4-new-R_0_split_1
I0419 12:12:23.522573 31760 net.cpp:406] fuse_pool3-R <- score_pool3c-R
I0419 12:12:23.522580 31760 net.cpp:380] fuse_pool3-R -> fuse_pool3-R
I0419 12:12:23.522614 31760 net.cpp:122] Setting up fuse_pool3-R
I0419 12:12:23.522622 31760 net.cpp:129] Top shape: 1 3 74 74 (16428)
I0419 12:12:23.522626 31760 net.cpp:137] Memory required for data: 2483305236
I0419 12:12:23.522630 31760 layer_factory.hpp:77] Creating layer upscore8-new-R
I0419 12:12:23.522657 31760 net.cpp:84] Creating Layer upscore8-new-R
I0419 12:12:23.522665 31760 net.cpp:406] upscore8-new-R <- fuse_pool3-R
I0419 12:12:23.522677 31760 net.cpp:380] upscore8-new-R -> upscore8-new-R
I0419 12:12:23.523151 31760 net.cpp:122] Setting up upscore8-new-R
I0419 12:12:23.523167 31760 net.cpp:129] Top shape: 1 3 600 600 (1080000)
I0419 12:12:23.523182 31760 net.cpp:137] Memory required for data: 2487625236
I0419 12:12:23.523192 31760 layer_factory.hpp:77] Creating layer upscore8_cropped-R
I0419 12:12:23.523205 31760 net.cpp:84] Creating Layer upscore8_cropped-R
I0419 12:12:23.523213 31760 net.cpp:406] upscore8_cropped-R <- upscore8-new-R
I0419 12:12:23.523226 31760 net.cpp:406] upscore8_cropped-R <- data-R_crop_0_split_1
I0419 12:12:23.523237 31760 net.cpp:380] upscore8_cropped-R -> upscore8_cropped-R
I0419 12:12:23.523288 31760 net.cpp:122] Setting up upscore8_cropped-R
I0419 12:12:23.523308 31760 net.cpp:129] Top shape: 1 3 512 512 (786432)
I0419 12:12:23.523314 31760 net.cpp:137] Memory required for data: 2490770964
I0419 12:12:23.523321 31760 layer_factory.hpp:77] Creating layer score-R
I0419 12:12:23.523336 31760 net.cpp:84] Creating Layer score-R
I0419 12:12:23.523344 31760 net.cpp:406] score-R <- upscore8_cropped-R
I0419 12:12:23.523357 31760 net.cpp:380] score-R -> score-R
I0419 12:12:23.530761 31760 net.cpp:122] Setting up score-R
I0419 12:12:23.530802 31760 net.cpp:129] Top shape: 1 3 512 512 (786432)
I0419 12:12:23.530812 31760 net.cpp:137] Memory required for data: 2493916692
I0419 12:12:23.530827 31760 layer_factory.hpp:77] Creating layer score_uncropped-R
I0419 12:12:23.531226 31760 net.cpp:84] Creating Layer score_uncropped-R
I0419 12:12:23.531247 31760 net.cpp:406] score_uncropped-R <- crop_info
I0419 12:12:23.531265 31760 net.cpp:406] score_uncropped-R <- score-R
I0419 12:12:23.531273 31760 net.cpp:406] score_uncropped-R <- data_data_0_split_3
I0419 12:12:23.531296 31760 net.cpp:380] score_uncropped-R -> score_uncropped-R
I0419 12:12:23.534739 31760 net.cpp:122] Setting up score_uncropped-R
I0419 12:12:23.534759 31760 net.cpp:129] Top shape: 1 3 512 512 (786432)
I0419 12:12:23.534765 31760 net.cpp:137] Memory required for data: 2497062420
I0419 12:12:23.534771 31760 layer_factory.hpp:77] Creating layer loss1
I0419 12:12:23.534791 31760 net.cpp:84] Creating Layer loss1
I0419 12:12:23.534797 31760 net.cpp:406] loss1 <- score_score_0_split_1
I0419 12:12:23.534804 31760 net.cpp:406] loss1 <- label_data_1_split_1
I0419 12:12:23.534816 31760 net.cpp:380] loss1 -> loss1
…
