…
snapshot_prefix: "/media/Med_2T2/data2/models/snapshots/joint:1e-5x10,1e-5x10,20/FD3:XI3_1_20180715_091948,XJ3_1_20180715_202726/train"
test_initialization: false
average_loss: 20
stepvalue: 50000
stepvalue: 60000
stepvalue: 70000
iter_size: 1
I0715 20:27:27.811851 14397 solver.cpp:77] Creating training net from train_net file: /media/Med_2T2/data2/prototxts/training_J3x10.prototxt
I0715 20:27:27.814092 14397 net.cpp:51] Initializing net from parameters: 
state {
  phase: TRAIN
}
layer {
  name: "data"
  type: "Python"
  top: "data"
  top: "label"
  top: "crop_margin"
  top: "crop_prob"
  top: "crop_sample_batch"
  python_param {
    module: "Data"
    layer: "DataLayer"
  }
}
layer {
  name: "conv1_1"
  type: "Convolution"
  bottom: "data"
  top: "conv1_1"
  param {
    lr_mult: 1
    decay_mult: 1
  }
  param {
    lr_mult: 2
    decay_mult: 0
  }
  convolution_param {
    num_output: 64
    pad: 100
    kernel_size: 3
    stride: 1
  }
}
layer {
  name: "relu1_1"
  type: "ReLU"
  bottom: "conv1_1"
  top: "conv1_1"
}
layer {
  name: "conv1_2"
  type: "Convolution"
  bottom: "conv1_1"
  top: "conv1_2"
  param {
    lr_mult: 1
    decay_mult: 1
  }
  param {
    lr_mult: 2
    decay_mult: 0
  }
  convolution_param {
    num_output: 64
    pad: 1
    kernel_size: 3
    stride: 1
  }
}
layer {
  name: "relu1_2"
  type: "ReLU"
  bottom: "conv1_2"
  top: "conv1_2"
}
layer {
  name: "pool1"
  type: "Pooling"
  bottom: "conv1_2"
  top: "pool1"
  pooling_param {
    pool: MAX
    kernel_size: 2
    stride: 2
  }
}
layer {
  name: "conv2_1"
  type: "Convolution"
  bottom: "pool1"
  top: "conv2_1"
  param {
    lr_mult: 1
    decay_mult: 1
  }
  param {
    lr_mult: 2
    decay_mult: 0
  }
  convolution_param {
    num_output: 128
    pad: 1
    kernel_size: 3
    stride: 1
  }
}
layer {
  name: "relu2_1"
  type: "ReLU"
  bottom: "conv2_1"
  top: "conv2_1"
}
layer {
  name: "conv2_2"
  type: "Convolution"
  bottom: "conv2_1"
  top: "conv2_2"
  param {
    lr_mult: 1
    decay_mult: 1
  }
  param {
    lr_mult: 2
    decay_mult: 0
  }
  convolution_param {
    num_output: 128
    pad: 1
    kernel_size: 3
    stride: 1
  }
}
layer {
  name: "relu2_2"
  type: "ReLU"
  bottom: "conv2_2"
  top: "conv2_2"
}
layer {
  name: "pool2"
  type: "Pooling"
  bottom: "conv2_2"
  top: "pool2"
  pooling_param {
    pool: MAX
    kernel_size: 2
    stride: 2
  }
}
layer {
  name: "conv3_1"
  type: "Convolution"
  bottom: "pool2"
  top: "conv3_1"
  param {
    lr_mult: 1
    decay_mult: 1
  }
  param {
    lr_mult: 2
    decay_mult: 0
  }
  convolution_param {
    num_output: 256
    pad: 1
    kernel_size: 3
    stride: 1
  }
}
layer {
  name: "relu3_1"
  type: "ReLU"
  bottom: "conv3_1"
  top: "conv3_1"
}
layer {
  name: "conv3_2"
  type: "Convolution"
  bottom: "conv3_1"
  top: "conv3_2"
  param {
    lr_mult: 1
    decay_mult: 1
  }
  param {
    lr_mult: 2
    decay_mult: 0
  }
  convolution_param {
    num_output: 256
    pad: 1
    kernel_size: 3
    stride: 1
  }
}
layer {
  name: "relu3_2"
  type: "ReLU"
  bottom: "conv3_2"
  top: "conv3_2"
}
layer {
  name: "conv3_3"
  type: "Convolution"
  bottom: "conv3_2"
  top: "conv3_3"
  param {
    lr_mult: 1
    decay_mult: 1
  }
  param {
    lr_mult: 2
    decay_mult: 0
  }
  convolution_param {
    num_output: 256
    pad: 1
    kernel_size: 3
    stride: 1
  }
}
layer {
  name: "relu3_3"
  type: "ReLU"
  bottom: "conv3_3"
  top: "conv3_3"
}
layer {
  name: "pool3"
  type: "Pooling"
  bottom: "conv3_3"
  top: "pool3"
  pooling_param {
    pool: MAX
    kernel_size: 2
    stride: 2
  }
}
layer {
  name: "conv4_1"
  type: "Convolution"
  bottom: "pool3"
  top: "conv4_1"
  param {
    lr_mult: 1
    decay_mult: 1
  }
  param {
    lr_mult: 2
    decay_mult: 0
  }
  convolution_param {
    num_output: 512
    pad: 1
    kernel_size: 3
    stride: 1
  }
}
layer {
  name: "relu4_1"
  type: "ReLU"
  bottom: "conv4_1"
  top: "conv4_1"
}
layer {
  name: "conv4_2"
  type: "Convolution"
  bottom: "conv4_1"
  top: "conv4_2"
  param {
    lr_mult: 1
    decay_mult: 1
  }
  param {
    lr_mult: 2
    decay_mult: 0
  }
  convolution_param {
    num_output: 512
    pad: 1
    kernel_size: 3
    stride: 1
  }
}
layer {
  name: "relu4_2"
  type: "ReLU"
  bottom: "conv4_2"
  top: "conv4_2"
}
layer {
  name: "conv4_3"
  type: "Convolution"
  bottom: "conv4_2"
  top: "conv4_3"
  param {
    lr_mult: 1
    decay_mult: 1
  }
  param {
    lr_mult: 2
    decay_mult: 0
  }
  convolution_param {
    num_output: 512
    pad: 1
    kernel_size: 3
    stride: 1
  }
}
layer {
  name: "relu4_3"
  type: "ReLU"
  bottom: "conv4_3"
  top: "conv4_3"
}
layer {
  name: "pool4"
  type: "Pooling"
  bottom: "conv4_3"
  top: "pool4"
  pooling_param {
    pool: MAX
    kernel_size: 2
    stride: 2
  }
}
layer {
  name: "conv5_1"
  type: "Convolution"
  bottom: "pool4"
  top: "conv5_1"
  param {
    lr_mult: 1
    decay_mult: 1
  }
  param {
    lr_mult: 2
    decay_mult: 0
  }
  convolution_param {
    num_output: 512
    pad: 1
    kernel_size: 3
    stride: 1
  }
}
layer {
  name: "relu5_1"
  type: "ReLU"
  bottom: "conv5_1"
  top: "conv5_1"
}
layer {
  name: "conv5_2"
  type: "Convolution"
  bottom: "conv5_1"
  top: "conv5_2"
  param {
    lr_mult: 1
    decay_mult: 1
  }
  param {
    lr_mult: 2
    decay_mult: 0
  }
  convolution_param {
    num_output: 512
    pad: 1
    kernel_size: 3
    stride: 1
  }
}
layer {
  name: "relu5_2"
  type: "ReLU"
  bottom: "conv5_2"
  top: "conv5_2"
}
layer {
  name: "conv5_3"
  type: "Convolution"
  bottom: "conv5_2"
  top: "conv5_3"
  param {
    lr_mult: 1
    decay_mult: 1
  }
  param {
    lr_mult: 2
    decay_mult: 0
  }
  convolution_param {
    num_output: 512
    pad: 1
    kernel_size: 3
    stride: 1
  }
}
layer {
  name: "relu5_3"
  type: "ReLU"
  bottom: "conv5_3"
  top: "conv5_3"
}
layer {
  name: "pool5"
  type: "Pooling"
  bottom: "conv5_3"
  top: "pool5"
  pooling_param {
    pool: MAX
    kernel_size: 2
    stride: 2
  }
}
layer {
  name: "fc6"
  type: "Convolution"
  bottom: "pool5"
  top: "fc6"
  param {
    lr_mult: 1
    decay_mult: 1
  }
  param {
    lr_mult: 2
    decay_mult: 0
  }
  convolution_param {
    num_output: 4096
    pad: 0
    kernel_size: 7
    stride: 1
  }
}
layer {
  name: "relu6"
  type: "ReLU"
  bottom: "fc6"
  top: "fc6"
}
layer {
  name: "drop6"
  type: "Dropout"
  bottom: "fc6"
  top: "fc6"
  dropout_param {
    dropout_ratio: 0.5
  }
}
layer {
  name: "fc7"
  type: "Convolution"
  bottom: "fc6"
  top: "fc7"
  param {
    lr_mult: 1
    decay_mult: 1
  }
  param {
    lr_mult: 2
    decay_mult: 0
  }
  convolution_param {
    num_output: 4096
    pad: 0
    kernel_size: 1
    stride: 1
  }
}
layer {
  name: "relu7"
  type: "ReLU"
  bottom: "fc7"
  top: "fc7"
}
layer {
  name: "drop7"
  type: "Dropout"
  bottom: "fc7"
  top: "fc7"
  dropout_param {
    dropout_ratio: 0.5
  }
}
layer {
  name: "score_fr-new"
  type: "Convolution"
  bottom: "fc7"
  top: "score_fr-new"
  param {
    lr_mult: 1
    decay_mult: 1
  }
  param {
    lr_mult: 2
    decay_mult: 0
  }
  convolution_param {
    num_output: 3
    kernel_size: 1
  }
}
layer {
  name: "upscore2-new"
  type: "Deconvolution"
  bottom: "score_fr-new"
  top: "upscore2-new"
  param {
    lr_mult: 0
  }
  convolution_param {
    num_output: 3
    bias_term: false
    kernel_size: 4
    stride: 2
  }
}
layer {
  name: "score_pool4-new"
  type: "Convolution"
  bottom: "pool4"
  top: "score_pool4-new"
  param {
    lr_mult: 1
    decay_mult: 1
  }
  param {
    lr_mult: 2
    decay_mult: 0
  }
  convolution_param {
    num_output: 3
    pad: 0
    kernel_size: 1
  }
}
layer {
  name: "score_pool4c"
  type: "Crop"
  bottom: "score_pool4-new"
  bottom: "upscore2-new"
  top: "score_pool4c"
  crop_param {
    axis: 2
    offset: 5
  }
}
layer {
  name: "fuse_pool4"
  type: "Eltwise"
  bottom: "upscore2-new"
  bottom: "score_pool4c"
  top: "fuse_pool4"
  eltwise_param {
    operation: SUM
  }
}
layer {
  name: "upscore_pool4-new"
  type: "Deconvolution"
  bottom: "fuse_pool4"
  top: "upscore_pool4-new"
  param {
    lr_mult: 0
  }
  convolution_param {
    num_output: 3
    bias_term: false
    kernel_size: 4
    stride: 2
  }
}
layer {
  name: "score_pool3-new"
  type: "Convolution"
  bottom: "pool3"
  top: "score_pool3-new"
  param {
    lr_mult: 1
    decay_mult: 1
  }
  param {
    lr_mult: 2
    decay_mult: 0
  }
  convolution_param {
    num_output: 3
    pad: 0
    kernel_size: 1
  }
}
layer {
  name: "score_pool3c"
  type: "Crop"
  bottom: "score_pool3-new"
  bottom: "upscore_pool4-new"
  top: "score_pool3c"
  crop_param {
    axis: 2
    offset: 9
  }
}
layer {
  name: "fuse_pool3"
  type: "Eltwise"
  bottom: "upscore_pool4-new"
  bottom: "score_pool3c"
  top: "fuse_pool3"
  eltwise_param {
    operation: SUM
  }
}
layer {
  name: "upscore8-new"
  type: "Deconvolution"
  bottom: "fuse_pool3"
  top: "upscore8-new"
  param {
    lr_mult: 0
  }
  convolution_param {
    num_output: 3
    bias_term: false
    kernel_size: 16
    stride: 8
  }
}
layer {
  name: "upscore8_cropped"
  type: "Crop"
  bottom: "upscore8-new"
  bottom: "data"
  top: "upscore8_cropped"
  crop_param {
    axis: 2
    offset: 31
  }
}
layer {
  name: "prob"
  type: "Sigmoid"
  bottom: "upscore8_cropped"
  top: "prob"
}
layer {
  name: "saliency1"
  type: "Convolution"
  bottom: "prob"
  top: "saliency1"
  param {
    lr_mult: 10
    decay_mult: 1
  }
  param {
    lr_mult: 20
    decay_mult: 0
  }
  convolution_param {
    num_output: 3
    pad: 1
    kernel_size: 3
    stride: 1
    weight_filler {
      type: "xavier"
    }
    bias_filler {
      type: "constant"
      value: 1
    }
  }
}
layer {
  name: "relu_saliency1"
  type: "ReLU"
  bottom: "saliency1"
  top: "saliency1"
}
layer {
  name: "saliency"
  type: "Convolution"
  bottom: "saliency1"
  top: "saliency"
  param {
    lr_mult: 10
    decay_mult: 1
  }
  param {
    lr_mult: 20
    decay_mult: 0
  }
  convolution_param {
    num_output: 3
    pad: 2
    kernel_size: 5
    stride: 1
    weight_filler {
      type: "xavier"
    }
    bias_filler {
      type: "constant"
      value: 1
    }
  }
}
layer {
  name: "saliency_data"
  type: "Eltwise"
  bottom: "data"
  bottom: "saliency"
  top: "saliency_data"
  eltwise_param {
    operation: PROD
  }
}
layer {
  name: "crop"
  type: "Python"
  bottom: "prob"
  bottom: "saliency_data"
  bottom: "crop_margin"
  bottom: "crop_prob"
  bottom: "crop_sample_batch"
  bottom: "label"
  top: "data-R"
  top: "crop_info"
  python_param {
    module: "Crop"
    layer: "CropLayer"
    param_str: "{\"TEST\": 0}"
  }
}
layer {
  name: "conv1_1-R"
  type: "Convolution"
  bottom: "data-R"
  top: "conv1_1-R"
  param {
    lr_mult: 10
    decay_mult: 1
  }
  param {
    lr_mult: 20
    decay_mult: 0
  }
  convolution_param {
    num_output: 64
    pad: 100
    kernel_size: 3
    stride: 1
  }
}
layer {
  name: "relu1_1-R"
  type: "ReLU"
  bottom: "conv1_1-R"
  top: "conv1_1-R"
}
layer {
  name: "conv1_2-R"
  type: "Convolution"
  bottom: "conv1_1-R"
  top: "conv1_2-R"
  param {
    lr_mult: 10
    decay_mult: 1
  }
  param {
    lr_mult: 20
    decay_mult: 0
  }
  convolution_param {
    num_output: 64
    pad: 1
    kernel_size: 3
    stride: 1
  }
}
layer {
  name: "relu1_2-R"
  type: "ReLU"
  bottom: "conv1_2-R"
  top: "conv1_2-R"
}
layer {
  name: "pool1-R"
  type: "Pooling"
  bottom: "conv1_2-R"
  top: "pool1-R"
  pooling_param {
    pool: MAX
    kernel_size: 2
    stride: 2
  }
}
layer {
  name: "conv2_1-R"
  type: "Convolution"
  bottom: "pool1-R"
  top: "conv2_1-R"
  param {
    lr_mult: 10
    decay_mult: 1
  }
  param {
    lr_mult: 20
    decay_mult: 0
  }
  convolution_param {
    num_output: 128
    pad: 1
    kernel_size: 3
    stride: 1
  }
}
layer {
  name: "relu2_1-R"
  type: "ReLU"
  bottom: "conv2_1-R"
  top: "conv2_1-R"
}
layer {
  name: "conv2_2-R"
  type: "Convolution"
  bottom: "conv2_1-R"
  top: "conv2_2-R"
  param {
    lr_mult: 10
    decay_mult: 1
  }
  param {
    lr_mult: 20
    decay_mult: 0
  }
  convolution_param {
    num_output: 128
    pad: 1
    kernel_size: 3
    stride: 1
  }
}
layer {
  name: "relu2_2-R"
  type: "ReLU"
  bottom: "conv2_2-R"
  top: "conv2_2-R"
}
layer {
  name: "pool2-R"
  type: "Pooling"
  bottom: "conv2_2-R"
  top: "pool2-R"
  pooling_param {
    pool: MAX
    kernel_size: 2
    stride: 2
  }
}
layer {
  name: "conv3_1-R"
  type: "Convolution"
  bottom: "pool2-R"
  top: "conv3_1-R"
  param {
    lr_mult: 10
    decay_mult: 1
  }
  param {
    lr_mult: 20
    decay_mult: 0
  }
  convolution_param {
    num_output: 256
    pad: 1
    kernel_size: 3
    stride: 1
  }
}
layer {
  name: "relu3_1-R"
  type: "ReLU"
  bottom: "conv3_1-R"
  top: "conv3_1-R"
}
layer {
  name: "conv3_2-R"
  type: "Convolution"
  bottom: "conv3_1-R"
  top: "conv3_2-R"
  param {
    lr_mult: 10
    decay_mult: 1
  }
  param {
    lr_mult: 20
    decay_mult: 0
  }
  convolution_param {
    num_output: 256
    pad: 1
    kernel_size: 3
    stride: 1
  }
}
layer {
  name: "relu3_2-R"
  type: "ReLU"
  bottom: "conv3_2-R"
  top: "conv3_2-R"
}
layer {
  name: "conv3_3-R"
  type: "Convolution"
  bottom: "conv3_2-R"
  top: "conv3_3-R"
  param {
    lr_mult: 10
    decay_mult: 1
  }
  param {
    lr_mult: 20
    decay_mult: 0
  }
  convolution_param {
    num_output: 256
    pad: 1
    kernel_size: 3
    stride: 1
  }
}
layer {
  name: "relu3_3-R"
  type: "ReLU"
  bottom: "conv3_3-R"
  top: "conv3_3-R"
}
layer {
  name: "pool3-R"
  type: "Pooling"
  bottom: "conv3_3-R"
  top: "pool3-R"
  pooling_param {
    pool: MAX
    kernel_size: 2
    stride: 2
  }
}
layer {
  name: "conv4_1-R"
  type: "Convolution"
  bottom: "pool3-R"
  top: "conv4_1-R"
  param {
    lr_mult: 10
    decay_mult: 1
  }
  param {
    lr_mult: 20
    decay_mult: 0
  }
  convolution_param {
    num_output: 512
    pad: 1
    kernel_size: 3
    stride: 1
  }
}
layer {
  name: "relu4_1-R"
  type: "ReLU"
  bottom: "conv4_1-R"
  top: "conv4_1-R"
}
layer {
  name: "conv4_2-R"
  type: "Convolution"
  bottom: "conv4_1-R"
  top: "conv4_2-R"
  param {
    lr_mult: 10
    decay_mult: 1
  }
  param {
    lr_mult: 20
    decay_mult: 0
  }
  convolution_param {
    num_output: 512
    pad: 1
    kernel_size: 3
    stride: 1
  }
}
layer {
  name: "relu4_2-R"
  type: "ReLU"
  bottom: "conv4_2-R"
  top: "conv4_2-R"
}
layer {
  name: "conv4_3-R"
  type: "Convolution"
  bottom: "conv4_2-R"
  top: "conv4_3-R"
  param {
    lr_mult: 10
    decay_mult: 1
  }
  param {
    lr_mult: 20
    decay_mult: 0
  }
  convolution_param {
    num_output: 512
    pad: 1
    kernel_size: 3
    stride: 1
  }
}
layer {
  name: "relu4_3-R"
  type: "ReLU"
  bottom: "conv4_3-R"
  top: "conv4_3-R"
}
layer {
  name: "pool4-R"
  type: "Pooling"
  bottom: "conv4_3-R"
  top: "pool4-R"
  pooling_param {
    pool: MAX
    kernel_size: 2
    stride: 2
  }
}
layer {
  name: "conv5_1-R"
  type: "Convolution"
  bottom: "pool4-R"
  top: "conv5_1-R"
  param {
    lr_mult: 10
    decay_mult: 1
  }
  param {
    lr_mult: 20
    decay_mult: 0
  }
  convolution_param {
    num_output: 512
    pad: 1
    kernel_size: 3
    stride: 1
  }
}
layer {
  name: "relu5_1-R"
  type: "ReLU"
  bottom: "conv5_1-R"
  top: "conv5_1-R"
}
layer {
  name: "conv5_2-R"
  type: "Convolution"
  bottom: "conv5_1-R"
  top: "conv5_2-R"
  param {
    lr_mult: 10
    decay_mult: 1
  }
  param {
    lr_mult: 20
    decay_mult: 0
  }
  convolution_param {
    num_output: 512
    pad: 1
    kernel_size: 3
    stride: 1
  }
}
layer {
  name: "relu5_2-R"
  type: "ReLU"
  bottom: "conv5_2-R"
  top: "conv5_2-R"
}
layer {
  name: "conv5_3-R"
  type: "Convolution"
  bottom: "conv5_2-R"
  top: "conv5_3-R"
  param {
    lr_mult: 10
    decay_mult: 1
  }
  param {
    lr_mult: 20
    decay_mult: 0
  }
  convolution_param {
    num_output: 512
    pad: 1
    kernel_size: 3
    stride: 1
  }
}
layer {
  name: "relu5_3-R"
  type: "ReLU"
  bottom: "conv5_3-R"
  top: "conv5_3-R"
}
layer {
  name: "pool5-R"
  type: "Pooling"
  bottom: "conv5_3-R"
  top: "pool5-R"
  pooling_param {
    pool: MAX
    kernel_size: 2
    stride: 2
  }
}
layer {
  name: "fc6-R"
  type: "Convolution"
  bottom: "pool5-R"
  top: "fc6-R"
  param {
    lr_mult: 10
    decay_mult: 1
  }
  param {
    lr_mult: 20
    decay_mult: 0
  }
  convolution_param {
    num_output: 4096
    pad: 0
    kernel_size: 7
    stride: 1
  }
}
layer {
  name: "relu6-R"
  type: "ReLU"
  bottom: "fc6-R"
  top: "fc6-R"
}
layer {
  name: "drop6-R"
  type: "Dropout"
  bottom: "fc6-R"
  top: "fc6-R"
  dropout_param {
    dropout_ratio: 0.5
  }
}
layer {
  name: "fc7-R"
  type: "Convolution"
  bottom: "fc6-R"
  top: "fc7-R"
  param {
    lr_mult: 10
    decay_mult: 1
  }
  param {
    lr_mult: 20
    decay_mult: 0
  }
  convolution_param {
    num_output: 4096
    pad: 0
    kernel_size: 1
    stride: 1
  }
}
layer {
  name: "relu7-R"
  type: "ReLU"
  bottom: "fc7-R"
  top: "fc7-R"
}
layer {
  name: "drop7-R"
  type: "Dropout"
  bottom: "fc7-R"
  top: "fc7-R"
  dropout_param {
    dropout_ratio: 0.5
  }
}
layer {
  name: "score_fr-new-R"
  type: "Convolution"
  bottom: "fc7-R"
  top: "score_fr-new-R"
  param {
    lr_mult: 10
    decay_mult: 1
  }
  param {
    lr_mult: 20
    decay_mult: 0
  }
  convolution_param {
    num_output: 3
    kernel_size: 1
  }
}
layer {
  name: "upscore2-new-R"
  type: "Deconvolution"
  bottom: "score_fr-new-R"
  top: "upscore2-new-R"
  param {
    lr_mult: 0
  }
  convolution_param {
    num_output: 3
    bias_term: false
    kernel_size: 4
    stride: 2
  }
}
layer {
  name: "score_pool4-new-R"
  type: "Convolution"
  bottom: "pool4-R"
  top: "score_pool4-new-R"
  param {
    lr_mult: 10
    decay_mult: 1
  }
  param {
    lr_mult: 20
    decay_mult: 0
  }
  convolution_param {
    num_output: 3
    pad: 0
    kernel_size: 1
  }
}
layer {
  name: "score_pool4c-R"
  type: "Crop"
  bottom: "score_pool4-new-R"
  bottom: "upscore2-new-R"
  top: "score_pool4c-R"
  crop_param {
    axis: 2
    offset: 5
  }
}
layer {
  name: "fuse_pool4-R"
  type: "Eltwise"
  bottom: "upscore2-new-R"
  bottom: "score_pool4c-R"
  top: "fuse_pool4-R"
  eltwise_param {
    operation: SUM
  }
}
layer {
  name: "upscore_pool4-new-R"
  type: "Deconvolution"
  bottom: "fuse_pool4-R"
  top: "upscore_pool4-new-R"
  param {
    lr_mult: 0
  }
  convolution_param {
    num_output: 3
    bias_term: false
    kernel_size: 4
    stride: 2
  }
}
layer {
  name: "score_pool3-new-R"
  type: "Convolution"
  bottom: "pool3-R"
  top: "score_pool3-new-R"
  param {
    lr_mult: 10
    decay_mult: 1
  }
  param {
    lr_mult: 20
    decay_mult: 0
  }
  convolution_param {
    num_output: 3
    pad: 0
    kernel_size: 1
  }
}
layer {
  name: "score_pool3c-R"
  type: "Crop"
  bottom: "score_pool3-new-R"
  bottom: "upscore_pool4-new-R"
  top: "score_pool3c-R"
  crop_param {
    axis: 2
    offset: 9
  }
}
layer {
  name: "fuse_pool3-R"
  type: "Eltwise"
  bottom: "upscore_pool4-new-R"
  bottom: "score_pool3c-R"
  top: "fuse_pool3-R"
  eltwise_param {
    operation: SUM
  }
}
layer {
  name: "upscore8-new-R"
  type: "Deconvolution"
  bottom: "fuse_pool3-R"
  top: "upscore8-new-R"
  param {
    lr_mult: 0
  }
  convolution_param {
    num_output: 3
    bias_term: false
    kernel_size: 16
    stride: 8
  }
}
layer {
  name: "upscore8_cropped-R"
  type: "Crop"
  bottom: "upscore8-new-R"
  bottom: "data-R"
  top: "upscore8_cropped-R"
  crop_param {
    axis: 2
    offset: 31
  }
}
layer {
  name: "upscore8_uncropped-R"
  type: "Python"
  bottom: "crop_info"
  bottom: "upscore8_cropped-R"
  bottom: "data"
  top: "upscore8_uncropped-R"
  python_param {
    module: "Uncrop"
    layer: "UncropLayer"
  }
}
layer {
  name: "loss1"
  type: "DiceLoss"
  bottom: "upscore8_cropped"
  bottom: "label"
  top: "loss1"
  loss_weight: 0.333333
}
layer {
  name: "loss2"
  type: "DiceLoss"
  bottom: "upscore8_uncropped-R"
  bottom: "label"
  top: "loss2"
  loss_weight: 0.666667
}
I0715 20:27:27.814888 14397 layer_factory.hpp:77] Creating layer data
I0715 20:27:27.815987 14397 net.cpp:84] Creating Layer data
I0715 20:27:27.816025 14397 net.cpp:380] data -> data
I0715 20:27:27.816076 14397 net.cpp:380] data -> label
I0715 20:27:27.816098 14397 net.cpp:380] data -> crop_margin
I0715 20:27:27.816118 14397 net.cpp:380] data -> crop_prob
I0715 20:27:27.816136 14397 net.cpp:380] data -> crop_sample_batch
I0715 20:27:27.954784 14397 net.cpp:122] Setting up data
I0715 20:27:27.954825 14397 net.cpp:129] Top shape: 1 3 512 195 (299520)
I0715 20:27:27.954833 14397 net.cpp:129] Top shape: 1 3 512 195 (299520)
I0715 20:27:27.954839 14397 net.cpp:129] Top shape: 1 (1)
I0715 20:27:27.954861 14397 net.cpp:129] Top shape: 1 (1)
I0715 20:27:27.954866 14397 net.cpp:129] Top shape: 1 (1)
I0715 20:27:27.954870 14397 net.cpp:137] Memory required for data: 2396172
I0715 20:27:27.954879 14397 layer_factory.hpp:77] Creating layer data_data_0_split
I0715 20:27:27.954900 14397 net.cpp:84] Creating Layer data_data_0_split
I0715 20:27:27.954907 14397 net.cpp:406] data_data_0_split <- data
I0715 20:27:27.954922 14397 net.cpp:380] data_data_0_split -> data_data_0_split_0
I0715 20:27:27.954937 14397 net.cpp:380] data_data_0_split -> data_data_0_split_1
I0715 20:27:27.954962 14397 net.cpp:380] data_data_0_split -> data_data_0_split_2
I0715 20:27:27.954970 14397 net.cpp:380] data_data_0_split -> data_data_0_split_3
I0715 20:27:27.955026 14397 net.cpp:122] Setting up data_data_0_split
I0715 20:27:27.955036 14397 net.cpp:129] Top shape: 1 3 512 195 (299520)
I0715 20:27:27.955044 14397 net.cpp:129] Top shape: 1 3 512 195 (299520)
I0715 20:27:27.955049 14397 net.cpp:129] Top shape: 1 3 512 195 (299520)
I0715 20:27:27.955055 14397 net.cpp:129] Top shape: 1 3 512 195 (299520)
I0715 20:27:27.955061 14397 net.cpp:137] Memory required for data: 7188492
I0715 20:27:27.955066 14397 layer_factory.hpp:77] Creating layer label_data_1_split
I0715 20:27:27.955075 14397 net.cpp:84] Creating Layer label_data_1_split
I0715 20:27:27.955080 14397 net.cpp:406] label_data_1_split <- label
I0715 20:27:27.955087 14397 net.cpp:380] label_data_1_split -> label_data_1_split_0
I0715 20:27:27.955096 14397 net.cpp:380] label_data_1_split -> label_data_1_split_1
I0715 20:27:27.955104 14397 net.cpp:380] label_data_1_split -> label_data_1_split_2
I0715 20:27:27.955147 14397 net.cpp:122] Setting up label_data_1_split
I0715 20:27:27.955154 14397 net.cpp:129] Top shape: 1 3 512 195 (299520)
I0715 20:27:27.955162 14397 net.cpp:129] Top shape: 1 3 512 195 (299520)
I0715 20:27:27.955168 14397 net.cpp:129] Top shape: 1 3 512 195 (299520)
I0715 20:27:27.955173 14397 net.cpp:137] Memory required for data: 10782732
I0715 20:27:27.955178 14397 layer_factory.hpp:77] Creating layer conv1_1
I0715 20:27:27.955199 14397 net.cpp:84] Creating Layer conv1_1
I0715 20:27:27.955207 14397 net.cpp:406] conv1_1 <- data_data_0_split_0
I0715 20:27:27.955215 14397 net.cpp:380] conv1_1 -> conv1_1
I0715 20:27:28.327329 14397 net.cpp:122] Setting up conv1_1
I0715 20:27:28.327381 14397 net.cpp:129] Top shape: 1 64 710 393 (17857920)
I0715 20:27:28.327386 14397 net.cpp:137] Memory required for data: 82214412
I0715 20:27:28.327438 14397 layer_factory.hpp:77] Creating layer relu1_1
I0715 20:27:28.327461 14397 net.cpp:84] Creating Layer relu1_1
I0715 20:27:28.327468 14397 net.cpp:406] relu1_1 <- conv1_1
I0715 20:27:28.327477 14397 net.cpp:367] relu1_1 -> conv1_1 (in-place)
I0715 20:27:28.327697 14397 net.cpp:122] Setting up relu1_1
I0715 20:27:28.327708 14397 net.cpp:129] Top shape: 1 64 710 393 (17857920)
I0715 20:27:28.327713 14397 net.cpp:137] Memory required for data: 153646092
I0715 20:27:28.327718 14397 layer_factory.hpp:77] Creating layer conv1_2
I0715 20:27:28.327730 14397 net.cpp:84] Creating Layer conv1_2
I0715 20:27:28.327735 14397 net.cpp:406] conv1_2 <- conv1_1
I0715 20:27:28.327742 14397 net.cpp:380] conv1_2 -> conv1_2
I0715 20:27:28.335816 14397 net.cpp:122] Setting up conv1_2
I0715 20:27:28.335863 14397 net.cpp:129] Top shape: 1 64 710 393 (17857920)
I0715 20:27:28.335870 14397 net.cpp:137] Memory required for data: 225077772
I0715 20:27:28.335901 14397 layer_factory.hpp:77] Creating layer relu1_2
I0715 20:27:28.335914 14397 net.cpp:84] Creating Layer relu1_2
I0715 20:27:28.335922 14397 net.cpp:406] relu1_2 <- conv1_2
I0715 20:27:28.335930 14397 net.cpp:367] relu1_2 -> conv1_2 (in-place)
I0715 20:27:28.336172 14397 net.cpp:122] Setting up relu1_2
I0715 20:27:28.336185 14397 net.cpp:129] Top shape: 1 64 710 393 (17857920)
I0715 20:27:28.336189 14397 net.cpp:137] Memory required for data: 296509452
I0715 20:27:28.336194 14397 layer_factory.hpp:77] Creating layer pool1
I0715 20:27:28.336203 14397 net.cpp:84] Creating Layer pool1
I0715 20:27:28.336208 14397 net.cpp:406] pool1 <- conv1_2
I0715 20:27:28.336216 14397 net.cpp:380] pool1 -> pool1
I0715 20:27:28.336278 14397 net.cpp:122] Setting up pool1
I0715 20:27:28.336287 14397 net.cpp:129] Top shape: 1 64 355 197 (4475840)
I0715 20:27:28.336292 14397 net.cpp:137] Memory required for data: 314412812
I0715 20:27:28.336295 14397 layer_factory.hpp:77] Creating layer conv2_1
I0715 20:27:28.336310 14397 net.cpp:84] Creating Layer conv2_1
I0715 20:27:28.336318 14397 net.cpp:406] conv2_1 <- pool1
I0715 20:27:28.336325 14397 net.cpp:380] conv2_1 -> conv2_1
I0715 20:27:28.338356 14397 net.cpp:122] Setting up conv2_1
I0715 20:27:28.338387 14397 net.cpp:129] Top shape: 1 128 355 197 (8951680)
I0715 20:27:28.338392 14397 net.cpp:137] Memory required for data: 350219532
I0715 20:27:28.338403 14397 layer_factory.hpp:77] Creating layer relu2_1
I0715 20:27:28.338412 14397 net.cpp:84] Creating Layer relu2_1
I0715 20:27:28.338428 14397 net.cpp:406] relu2_1 <- conv2_1
I0715 20:27:28.338434 14397 net.cpp:367] relu2_1 -> conv2_1 (in-place)
I0715 20:27:28.338659 14397 net.cpp:122] Setting up relu2_1
I0715 20:27:28.338670 14397 net.cpp:129] Top shape: 1 128 355 197 (8951680)
I0715 20:27:28.338675 14397 net.cpp:137] Memory required for data: 386026252
I0715 20:27:28.338680 14397 layer_factory.hpp:77] Creating layer conv2_2
I0715 20:27:28.338690 14397 net.cpp:84] Creating Layer conv2_2
I0715 20:27:28.338695 14397 net.cpp:406] conv2_2 <- conv2_1
I0715 20:27:28.338702 14397 net.cpp:380] conv2_2 -> conv2_2
I0715 20:27:28.342244 14397 net.cpp:122] Setting up conv2_2
I0715 20:27:28.342265 14397 net.cpp:129] Top shape: 1 128 355 197 (8951680)
I0715 20:27:28.342270 14397 net.cpp:137] Memory required for data: 421832972
I0715 20:27:28.342280 14397 layer_factory.hpp:77] Creating layer relu2_2
I0715 20:27:28.342288 14397 net.cpp:84] Creating Layer relu2_2
I0715 20:27:28.342303 14397 net.cpp:406] relu2_2 <- conv2_2
I0715 20:27:28.342314 14397 net.cpp:367] relu2_2 -> conv2_2 (in-place)
I0715 20:27:28.342625 14397 net.cpp:122] Setting up relu2_2
I0715 20:27:28.342639 14397 net.cpp:129] Top shape: 1 128 355 197 (8951680)
I0715 20:27:28.342654 14397 net.cpp:137] Memory required for data: 457639692
I0715 20:27:28.342658 14397 layer_factory.hpp:77] Creating layer pool2
I0715 20:27:28.342669 14397 net.cpp:84] Creating Layer pool2
I0715 20:27:28.342672 14397 net.cpp:406] pool2 <- conv2_2
I0715 20:27:28.342682 14397 net.cpp:380] pool2 -> pool2
I0715 20:27:28.342747 14397 net.cpp:122] Setting up pool2
I0715 20:27:28.342756 14397 net.cpp:129] Top shape: 1 128 178 99 (2255616)
I0715 20:27:28.342759 14397 net.cpp:137] Memory required for data: 466662156
I0715 20:27:28.342764 14397 layer_factory.hpp:77] Creating layer conv3_1
I0715 20:27:28.342784 14397 net.cpp:84] Creating Layer conv3_1
I0715 20:27:28.342790 14397 net.cpp:406] conv3_1 <- pool2
I0715 20:27:28.342799 14397 net.cpp:380] conv3_1 -> conv3_1
I0715 20:27:28.348062 14397 net.cpp:122] Setting up conv3_1
I0715 20:27:28.348079 14397 net.cpp:129] Top shape: 1 256 178 99 (4511232)
I0715 20:27:28.348084 14397 net.cpp:137] Memory required for data: 484707084
I0715 20:27:28.348104 14397 layer_factory.hpp:77] Creating layer relu3_1
I0715 20:27:28.348115 14397 net.cpp:84] Creating Layer relu3_1
I0715 20:27:28.348120 14397 net.cpp:406] relu3_1 <- conv3_1
I0715 20:27:28.348126 14397 net.cpp:367] relu3_1 -> conv3_1 (in-place)
I0715 20:27:28.348840 14397 net.cpp:122] Setting up relu3_1
I0715 20:27:28.348855 14397 net.cpp:129] Top shape: 1 256 178 99 (4511232)
I0715 20:27:28.348860 14397 net.cpp:137] Memory required for data: 502752012
I0715 20:27:28.348865 14397 layer_factory.hpp:77] Creating layer conv3_2
I0715 20:27:28.348878 14397 net.cpp:84] Creating Layer conv3_2
I0715 20:27:28.348883 14397 net.cpp:406] conv3_2 <- conv3_1
I0715 20:27:28.348893 14397 net.cpp:380] conv3_2 -> conv3_2
I0715 20:27:28.354755 14397 net.cpp:122] Setting up conv3_2
I0715 20:27:28.354799 14397 net.cpp:129] Top shape: 1 256 178 99 (4511232)
I0715 20:27:28.354809 14397 net.cpp:137] Memory required for data: 520796940
I0715 20:27:28.354825 14397 layer_factory.hpp:77] Creating layer relu3_2
I0715 20:27:28.354849 14397 net.cpp:84] Creating Layer relu3_2
I0715 20:27:28.354859 14397 net.cpp:406] relu3_2 <- conv3_2
I0715 20:27:28.354874 14397 net.cpp:367] relu3_2 -> conv3_2 (in-place)
I0715 20:27:28.356042 14397 net.cpp:122] Setting up relu3_2
I0715 20:27:28.356082 14397 net.cpp:129] Top shape: 1 256 178 99 (4511232)
I0715 20:27:28.356091 14397 net.cpp:137] Memory required for data: 538841868
I0715 20:27:28.356098 14397 layer_factory.hpp:77] Creating layer conv3_3
I0715 20:27:28.356125 14397 net.cpp:84] Creating Layer conv3_3
I0715 20:27:28.356133 14397 net.cpp:406] conv3_3 <- conv3_2
I0715 20:27:28.356149 14397 net.cpp:380] conv3_3 -> conv3_3
I0715 20:27:28.364723 14397 net.cpp:122] Setting up conv3_3
I0715 20:27:28.364768 14397 net.cpp:129] Top shape: 1 256 178 99 (4511232)
I0715 20:27:28.364776 14397 net.cpp:137] Memory required for data: 556886796
I0715 20:27:28.364792 14397 layer_factory.hpp:77] Creating layer relu3_3
I0715 20:27:28.364820 14397 net.cpp:84] Creating Layer relu3_3
I0715 20:27:28.364828 14397 net.cpp:406] relu3_3 <- conv3_3
I0715 20:27:28.364851 14397 net.cpp:367] relu3_3 -> conv3_3 (in-place)
I0715 20:27:28.365245 14397 net.cpp:122] Setting up relu3_3
I0715 20:27:28.365265 14397 net.cpp:129] Top shape: 1 256 178 99 (4511232)
I0715 20:27:28.365284 14397 net.cpp:137] Memory required for data: 574931724
I0715 20:27:28.365291 14397 layer_factory.hpp:77] Creating layer pool3
I0715 20:27:28.365305 14397 net.cpp:84] Creating Layer pool3
I0715 20:27:28.365312 14397 net.cpp:406] pool3 <- conv3_3
I0715 20:27:28.365324 14397 net.cpp:380] pool3 -> pool3
I0715 20:27:28.365414 14397 net.cpp:122] Setting up pool3
I0715 20:27:28.365428 14397 net.cpp:129] Top shape: 1 256 89 50 (1139200)
I0715 20:27:28.365435 14397 net.cpp:137] Memory required for data: 579488524
I0715 20:27:28.365442 14397 layer_factory.hpp:77] Creating layer pool3_pool3_0_split
I0715 20:27:28.365453 14397 net.cpp:84] Creating Layer pool3_pool3_0_split
I0715 20:27:28.365459 14397 net.cpp:406] pool3_pool3_0_split <- pool3
I0715 20:27:28.365474 14397 net.cpp:380] pool3_pool3_0_split -> pool3_pool3_0_split_0
I0715 20:27:28.365491 14397 net.cpp:380] pool3_pool3_0_split -> pool3_pool3_0_split_1
I0715 20:27:28.365558 14397 net.cpp:122] Setting up pool3_pool3_0_split
I0715 20:27:28.365571 14397 net.cpp:129] Top shape: 1 256 89 50 (1139200)
I0715 20:27:28.365581 14397 net.cpp:129] Top shape: 1 256 89 50 (1139200)
I0715 20:27:28.365586 14397 net.cpp:137] Memory required for data: 588602124
I0715 20:27:28.365592 14397 layer_factory.hpp:77] Creating layer conv4_1
I0715 20:27:28.365614 14397 net.cpp:84] Creating Layer conv4_1
I0715 20:27:28.365624 14397 net.cpp:406] conv4_1 <- pool3_pool3_0_split_0
I0715 20:27:28.365635 14397 net.cpp:380] conv4_1 -> conv4_1
I0715 20:27:28.377027 14397 net.cpp:122] Setting up conv4_1
I0715 20:27:28.377079 14397 net.cpp:129] Top shape: 1 512 89 50 (2278400)
I0715 20:27:28.377084 14397 net.cpp:137] Memory required for data: 597715724
I0715 20:27:28.377097 14397 layer_factory.hpp:77] Creating layer relu4_1
I0715 20:27:28.377112 14397 net.cpp:84] Creating Layer relu4_1
I0715 20:27:28.377120 14397 net.cpp:406] relu4_1 <- conv4_1
I0715 20:27:28.377128 14397 net.cpp:367] relu4_1 -> conv4_1 (in-place)
I0715 20:27:28.377389 14397 net.cpp:122] Setting up relu4_1
I0715 20:27:28.377403 14397 net.cpp:129] Top shape: 1 512 89 50 (2278400)
I0715 20:27:28.377406 14397 net.cpp:137] Memory required for data: 606829324
I0715 20:27:28.377410 14397 layer_factory.hpp:77] Creating layer conv4_2
I0715 20:27:28.377425 14397 net.cpp:84] Creating Layer conv4_2
I0715 20:27:28.377431 14397 net.cpp:406] conv4_2 <- conv4_1
I0715 20:27:28.377439 14397 net.cpp:380] conv4_2 -> conv4_2
I0715 20:27:28.386698 14397 net.cpp:122] Setting up conv4_2
I0715 20:27:28.386739 14397 net.cpp:129] Top shape: 1 512 89 50 (2278400)
I0715 20:27:28.386744 14397 net.cpp:137] Memory required for data: 615942924
I0715 20:27:28.386765 14397 layer_factory.hpp:77] Creating layer relu4_2
I0715 20:27:28.386776 14397 net.cpp:84] Creating Layer relu4_2
I0715 20:27:28.386782 14397 net.cpp:406] relu4_2 <- conv4_2
I0715 20:27:28.386790 14397 net.cpp:367] relu4_2 -> conv4_2 (in-place)
I0715 20:27:28.387043 14397 net.cpp:122] Setting up relu4_2
I0715 20:27:28.387056 14397 net.cpp:129] Top shape: 1 512 89 50 (2278400)
I0715 20:27:28.387060 14397 net.cpp:137] Memory required for data: 625056524
I0715 20:27:28.387065 14397 layer_factory.hpp:77] Creating layer conv4_3
I0715 20:27:28.387079 14397 net.cpp:84] Creating Layer conv4_3
I0715 20:27:28.387086 14397 net.cpp:406] conv4_3 <- conv4_2
I0715 20:27:28.387094 14397 net.cpp:380] conv4_3 -> conv4_3
I0715 20:27:28.396598 14397 net.cpp:122] Setting up conv4_3
I0715 20:27:28.396649 14397 net.cpp:129] Top shape: 1 512 89 50 (2278400)
I0715 20:27:28.396656 14397 net.cpp:137] Memory required for data: 634170124
I0715 20:27:28.396670 14397 layer_factory.hpp:77] Creating layer relu4_3
I0715 20:27:28.396687 14397 net.cpp:84] Creating Layer relu4_3
I0715 20:27:28.396694 14397 net.cpp:406] relu4_3 <- conv4_3
I0715 20:27:28.396703 14397 net.cpp:367] relu4_3 -> conv4_3 (in-place)
I0715 20:27:28.396932 14397 net.cpp:122] Setting up relu4_3
I0715 20:27:28.396945 14397 net.cpp:129] Top shape: 1 512 89 50 (2278400)
I0715 20:27:28.396950 14397 net.cpp:137] Memory required for data: 643283724
I0715 20:27:28.396953 14397 layer_factory.hpp:77] Creating layer pool4
I0715 20:27:28.396965 14397 net.cpp:84] Creating Layer pool4
I0715 20:27:28.396970 14397 net.cpp:406] pool4 <- conv4_3
I0715 20:27:28.396977 14397 net.cpp:380] pool4 -> pool4
I0715 20:27:28.397033 14397 net.cpp:122] Setting up pool4
I0715 20:27:28.397042 14397 net.cpp:129] Top shape: 1 512 45 25 (576000)
I0715 20:27:28.397047 14397 net.cpp:137] Memory required for data: 645587724
I0715 20:27:28.397050 14397 layer_factory.hpp:77] Creating layer pool4_pool4_0_split
I0715 20:27:28.397058 14397 net.cpp:84] Creating Layer pool4_pool4_0_split
I0715 20:27:28.397061 14397 net.cpp:406] pool4_pool4_0_split <- pool4
I0715 20:27:28.397069 14397 net.cpp:380] pool4_pool4_0_split -> pool4_pool4_0_split_0
I0715 20:27:28.397076 14397 net.cpp:380] pool4_pool4_0_split -> pool4_pool4_0_split_1
I0715 20:27:28.397116 14397 net.cpp:122] Setting up pool4_pool4_0_split
I0715 20:27:28.397126 14397 net.cpp:129] Top shape: 1 512 45 25 (576000)
I0715 20:27:28.397131 14397 net.cpp:129] Top shape: 1 512 45 25 (576000)
I0715 20:27:28.397135 14397 net.cpp:137] Memory required for data: 650195724
I0715 20:27:28.397140 14397 layer_factory.hpp:77] Creating layer conv5_1
I0715 20:27:28.397156 14397 net.cpp:84] Creating Layer conv5_1
I0715 20:27:28.397161 14397 net.cpp:406] conv5_1 <- pool4_pool4_0_split_0
I0715 20:27:28.397167 14397 net.cpp:380] conv5_1 -> conv5_1
I0715 20:27:28.406014 14397 net.cpp:122] Setting up conv5_1
I0715 20:27:28.406038 14397 net.cpp:129] Top shape: 1 512 45 25 (576000)
I0715 20:27:28.406055 14397 net.cpp:137] Memory required for data: 652499724
I0715 20:27:28.406065 14397 layer_factory.hpp:77] Creating layer relu5_1
I0715 20:27:28.406078 14397 net.cpp:84] Creating Layer relu5_1
I0715 20:27:28.406085 14397 net.cpp:406] relu5_1 <- conv5_1
I0715 20:27:28.406091 14397 net.cpp:367] relu5_1 -> conv5_1 (in-place)
I0715 20:27:28.406847 14397 net.cpp:122] Setting up relu5_1
I0715 20:27:28.406863 14397 net.cpp:129] Top shape: 1 512 45 25 (576000)
I0715 20:27:28.406879 14397 net.cpp:137] Memory required for data: 654803724
I0715 20:27:28.406884 14397 layer_factory.hpp:77] Creating layer conv5_2
I0715 20:27:28.406900 14397 net.cpp:84] Creating Layer conv5_2
I0715 20:27:28.406905 14397 net.cpp:406] conv5_2 <- conv5_1
I0715 20:27:28.406913 14397 net.cpp:380] conv5_2 -> conv5_2
I0715 20:27:28.415086 14397 net.cpp:122] Setting up conv5_2
I0715 20:27:28.415107 14397 net.cpp:129] Top shape: 1 512 45 25 (576000)
I0715 20:27:28.415122 14397 net.cpp:137] Memory required for data: 657107724
I0715 20:27:28.415132 14397 layer_factory.hpp:77] Creating layer relu5_2
I0715 20:27:28.415150 14397 net.cpp:84] Creating Layer relu5_2
I0715 20:27:28.415155 14397 net.cpp:406] relu5_2 <- conv5_2
I0715 20:27:28.415163 14397 net.cpp:367] relu5_2 -> conv5_2 (in-place)
I0715 20:27:28.415985 14397 net.cpp:122] Setting up relu5_2
I0715 20:27:28.416002 14397 net.cpp:129] Top shape: 1 512 45 25 (576000)
I0715 20:27:28.416018 14397 net.cpp:137] Memory required for data: 659411724
I0715 20:27:28.416021 14397 layer_factory.hpp:77] Creating layer conv5_3
I0715 20:27:28.416035 14397 net.cpp:84] Creating Layer conv5_3
I0715 20:27:28.416040 14397 net.cpp:406] conv5_3 <- conv5_2
I0715 20:27:28.416047 14397 net.cpp:380] conv5_3 -> conv5_3
I0715 20:27:28.424710 14397 net.cpp:122] Setting up conv5_3
I0715 20:27:28.424731 14397 net.cpp:129] Top shape: 1 512 45 25 (576000)
I0715 20:27:28.424736 14397 net.cpp:137] Memory required for data: 661715724
I0715 20:27:28.424746 14397 layer_factory.hpp:77] Creating layer relu5_3
I0715 20:27:28.424754 14397 net.cpp:84] Creating Layer relu5_3
I0715 20:27:28.424760 14397 net.cpp:406] relu5_3 <- conv5_3
I0715 20:27:28.424770 14397 net.cpp:367] relu5_3 -> conv5_3 (in-place)
I0715 20:27:28.425017 14397 net.cpp:122] Setting up relu5_3
I0715 20:27:28.425029 14397 net.cpp:129] Top shape: 1 512 45 25 (576000)
I0715 20:27:28.425034 14397 net.cpp:137] Memory required for data: 664019724
I0715 20:27:28.425038 14397 layer_factory.hpp:77] Creating layer pool5
I0715 20:27:28.425047 14397 net.cpp:84] Creating Layer pool5
I0715 20:27:28.425051 14397 net.cpp:406] pool5 <- conv5_3
I0715 20:27:28.425061 14397 net.cpp:380] pool5 -> pool5
I0715 20:27:28.425114 14397 net.cpp:122] Setting up pool5
I0715 20:27:28.425127 14397 net.cpp:129] Top shape: 1 512 23 13 (153088)
I0715 20:27:28.425130 14397 net.cpp:137] Memory required for data: 664632076
I0715 20:27:28.425134 14397 layer_factory.hpp:77] Creating layer fc6
I0715 20:27:28.425154 14397 net.cpp:84] Creating Layer fc6
I0715 20:27:28.425163 14397 net.cpp:406] fc6 <- pool5
I0715 20:27:28.425173 14397 net.cpp:380] fc6 -> fc6
I0715 20:27:28.732237 14397 net.cpp:122] Setting up fc6
I0715 20:27:28.732288 14397 net.cpp:129] Top shape: 1 4096 17 7 (487424)
I0715 20:27:28.732292 14397 net.cpp:137] Memory required for data: 666581772
I0715 20:27:28.732303 14397 layer_factory.hpp:77] Creating layer relu6
I0715 20:27:28.732318 14397 net.cpp:84] Creating Layer relu6
I0715 20:27:28.732324 14397 net.cpp:406] relu6 <- fc6
I0715 20:27:28.732347 14397 net.cpp:367] relu6 -> fc6 (in-place)
I0715 20:27:28.732564 14397 net.cpp:122] Setting up relu6
I0715 20:27:28.732575 14397 net.cpp:129] Top shape: 1 4096 17 7 (487424)
I0715 20:27:28.732579 14397 net.cpp:137] Memory required for data: 668531468
I0715 20:27:28.732583 14397 layer_factory.hpp:77] Creating layer drop6
I0715 20:27:28.732599 14397 net.cpp:84] Creating Layer drop6
I0715 20:27:28.732602 14397 net.cpp:406] drop6 <- fc6
I0715 20:27:28.732609 14397 net.cpp:367] drop6 -> fc6 (in-place)
I0715 20:27:28.732647 14397 net.cpp:122] Setting up drop6
I0715 20:27:28.732656 14397 net.cpp:129] Top shape: 1 4096 17 7 (487424)
I0715 20:27:28.732658 14397 net.cpp:137] Memory required for data: 670481164
I0715 20:27:28.732661 14397 layer_factory.hpp:77] Creating layer fc7
I0715 20:27:28.732673 14397 net.cpp:84] Creating Layer fc7
I0715 20:27:28.732677 14397 net.cpp:406] fc7 <- fc6
I0715 20:27:28.732682 14397 net.cpp:380] fc7 -> fc7
I0715 20:27:28.784312 14397 net.cpp:122] Setting up fc7
I0715 20:27:28.784365 14397 net.cpp:129] Top shape: 1 4096 17 7 (487424)
I0715 20:27:28.784370 14397 net.cpp:137] Memory required for data: 672430860
I0715 20:27:28.784384 14397 layer_factory.hpp:77] Creating layer relu7
I0715 20:27:28.784396 14397 net.cpp:84] Creating Layer relu7
I0715 20:27:28.784402 14397 net.cpp:406] relu7 <- fc7
I0715 20:27:28.784425 14397 net.cpp:367] relu7 -> fc7 (in-place)
I0715 20:27:28.784675 14397 net.cpp:122] Setting up relu7
I0715 20:27:28.784687 14397 net.cpp:129] Top shape: 1 4096 17 7 (487424)
I0715 20:27:28.784689 14397 net.cpp:137] Memory required for data: 674380556
I0715 20:27:28.784693 14397 layer_factory.hpp:77] Creating layer drop7
I0715 20:27:28.784703 14397 net.cpp:84] Creating Layer drop7
I0715 20:27:28.784708 14397 net.cpp:406] drop7 <- fc7
I0715 20:27:28.784713 14397 net.cpp:367] drop7 -> fc7 (in-place)
I0715 20:27:28.784751 14397 net.cpp:122] Setting up drop7
I0715 20:27:28.784759 14397 net.cpp:129] Top shape: 1 4096 17 7 (487424)
I0715 20:27:28.784762 14397 net.cpp:137] Memory required for data: 676330252
I0715 20:27:28.784765 14397 layer_factory.hpp:77] Creating layer score_fr-new
I0715 20:27:28.784777 14397 net.cpp:84] Creating Layer score_fr-new
I0715 20:27:28.784781 14397 net.cpp:406] score_fr-new <- fc7
I0715 20:27:28.784790 14397 net.cpp:380] score_fr-new -> score_fr-new
I0715 20:27:28.786970 14397 net.cpp:122] Setting up score_fr-new
I0715 20:27:28.786988 14397 net.cpp:129] Top shape: 1 3 17 7 (357)
I0715 20:27:28.787006 14397 net.cpp:137] Memory required for data: 676331680
I0715 20:27:28.787030 14397 layer_factory.hpp:77] Creating layer upscore2-new
I0715 20:27:28.787047 14397 net.cpp:84] Creating Layer upscore2-new
I0715 20:27:28.787067 14397 net.cpp:406] upscore2-new <- score_fr-new
I0715 20:27:28.787076 14397 net.cpp:380] upscore2-new -> upscore2-new
I0715 20:27:28.787336 14397 net.cpp:122] Setting up upscore2-new
I0715 20:27:28.787348 14397 net.cpp:129] Top shape: 1 3 36 16 (1728)
I0715 20:27:28.787350 14397 net.cpp:137] Memory required for data: 676338592
I0715 20:27:28.787364 14397 layer_factory.hpp:77] Creating layer upscore2-new_upscore2-new_0_split
I0715 20:27:28.787371 14397 net.cpp:84] Creating Layer upscore2-new_upscore2-new_0_split
I0715 20:27:28.787375 14397 net.cpp:406] upscore2-new_upscore2-new_0_split <- upscore2-new
I0715 20:27:28.787384 14397 net.cpp:380] upscore2-new_upscore2-new_0_split -> upscore2-new_upscore2-new_0_split_0
I0715 20:27:28.787389 14397 net.cpp:380] upscore2-new_upscore2-new_0_split -> upscore2-new_upscore2-new_0_split_1
I0715 20:27:28.787427 14397 net.cpp:122] Setting up upscore2-new_upscore2-new_0_split
I0715 20:27:28.787436 14397 net.cpp:129] Top shape: 1 3 36 16 (1728)
I0715 20:27:28.787439 14397 net.cpp:129] Top shape: 1 3 36 16 (1728)
I0715 20:27:28.787443 14397 net.cpp:137] Memory required for data: 676352416
I0715 20:27:28.787446 14397 layer_factory.hpp:77] Creating layer score_pool4-new
I0715 20:27:28.787459 14397 net.cpp:84] Creating Layer score_pool4-new
I0715 20:27:28.787463 14397 net.cpp:406] score_pool4-new <- pool4_pool4_0_split_1
I0715 20:27:28.787469 14397 net.cpp:380] score_pool4-new -> score_pool4-new
I0715 20:27:28.794209 14397 net.cpp:122] Setting up score_pool4-new
I0715 20:27:28.794275 14397 net.cpp:129] Top shape: 1 3 45 25 (3375)
I0715 20:27:28.794283 14397 net.cpp:137] Memory required for data: 676365916
I0715 20:27:28.794303 14397 layer_factory.hpp:77] Creating layer score_pool4c
I0715 20:27:28.794338 14397 net.cpp:84] Creating Layer score_pool4c
I0715 20:27:28.794356 14397 net.cpp:406] score_pool4c <- score_pool4-new
I0715 20:27:28.794378 14397 net.cpp:406] score_pool4c <- upscore2-new_upscore2-new_0_split_0
I0715 20:27:28.794401 14397 net.cpp:380] score_pool4c -> score_pool4c
I0715 20:27:28.794477 14397 net.cpp:122] Setting up score_pool4c
I0715 20:27:28.794492 14397 net.cpp:129] Top shape: 1 3 36 16 (1728)
I0715 20:27:28.794499 14397 net.cpp:137] Memory required for data: 676372828
I0715 20:27:28.794507 14397 layer_factory.hpp:77] Creating layer fuse_pool4
I0715 20:27:28.794522 14397 net.cpp:84] Creating Layer fuse_pool4
I0715 20:27:28.794530 14397 net.cpp:406] fuse_pool4 <- upscore2-new_upscore2-new_0_split_1
I0715 20:27:28.794548 14397 net.cpp:406] fuse_pool4 <- score_pool4c
I0715 20:27:28.794564 14397 net.cpp:380] fuse_pool4 -> fuse_pool4
I0715 20:27:28.794617 14397 net.cpp:122] Setting up fuse_pool4
I0715 20:27:28.794631 14397 net.cpp:129] Top shape: 1 3 36 16 (1728)
I0715 20:27:28.794636 14397 net.cpp:137] Memory required for data: 676379740
I0715 20:27:28.794643 14397 layer_factory.hpp:77] Creating layer upscore_pool4-new
I0715 20:27:28.794662 14397 net.cpp:84] Creating Layer upscore_pool4-new
I0715 20:27:28.794679 14397 net.cpp:406] upscore_pool4-new <- fuse_pool4
I0715 20:27:28.794694 14397 net.cpp:380] upscore_pool4-new -> upscore_pool4-new
I0715 20:27:28.795122 14397 net.cpp:122] Setting up upscore_pool4-new
I0715 20:27:28.795137 14397 net.cpp:129] Top shape: 1 3 74 34 (7548)
I0715 20:27:28.795153 14397 net.cpp:137] Memory required for data: 676409932
I0715 20:27:28.795163 14397 layer_factory.hpp:77] Creating layer upscore_pool4-new_upscore_pool4-new_0_split
I0715 20:27:28.795174 14397 net.cpp:84] Creating Layer upscore_pool4-new_upscore_pool4-new_0_split
I0715 20:27:28.795182 14397 net.cpp:406] upscore_pool4-new_upscore_pool4-new_0_split <- upscore_pool4-new
I0715 20:27:28.795192 14397 net.cpp:380] upscore_pool4-new_upscore_pool4-new_0_split -> upscore_pool4-new_upscore_pool4-new_0_split_0
I0715 20:27:28.795219 14397 net.cpp:380] upscore_pool4-new_upscore_pool4-new_0_split -> upscore_pool4-new_upscore_pool4-new_0_split_1
I0715 20:27:28.798815 14397 net.cpp:122] Setting up upscore_pool4-new_upscore_pool4-new_0_split
I0715 20:27:28.798873 14397 net.cpp:129] Top shape: 1 3 74 34 (7548)
I0715 20:27:28.798887 14397 net.cpp:129] Top shape: 1 3 74 34 (7548)
I0715 20:27:28.798893 14397 net.cpp:137] Memory required for data: 676470316
I0715 20:27:28.798926 14397 layer_factory.hpp:77] Creating layer score_pool3-new
I0715 20:27:28.798964 14397 net.cpp:84] Creating Layer score_pool3-new
I0715 20:27:28.798998 14397 net.cpp:406] score_pool3-new <- pool3_pool3_0_split_1
I0715 20:27:28.799046 14397 net.cpp:380] score_pool3-new -> score_pool3-new
I0715 20:27:28.804637 14397 net.cpp:122] Setting up score_pool3-new
I0715 20:27:28.804674 14397 net.cpp:129] Top shape: 1 3 89 50 (13350)
I0715 20:27:28.804679 14397 net.cpp:137] Memory required for data: 676523716
I0715 20:27:28.804695 14397 layer_factory.hpp:77] Creating layer score_pool3c
I0715 20:27:28.804708 14397 net.cpp:84] Creating Layer score_pool3c
I0715 20:27:28.804714 14397 net.cpp:406] score_pool3c <- score_pool3-new
I0715 20:27:28.804734 14397 net.cpp:406] score_pool3c <- upscore_pool4-new_upscore_pool4-new_0_split_0
I0715 20:27:28.804740 14397 net.cpp:380] score_pool3c -> score_pool3c
I0715 20:27:28.804782 14397 net.cpp:122] Setting up score_pool3c
I0715 20:27:28.804790 14397 net.cpp:129] Top shape: 1 3 74 34 (7548)
I0715 20:27:28.804792 14397 net.cpp:137] Memory required for data: 676553908
I0715 20:27:28.804796 14397 layer_factory.hpp:77] Creating layer fuse_pool3
I0715 20:27:28.804807 14397 net.cpp:84] Creating Layer fuse_pool3
I0715 20:27:28.804812 14397 net.cpp:406] fuse_pool3 <- upscore_pool4-new_upscore_pool4-new_0_split_1
I0715 20:27:28.804817 14397 net.cpp:406] fuse_pool3 <- score_pool3c
I0715 20:27:28.804831 14397 net.cpp:380] fuse_pool3 -> fuse_pool3
I0715 20:27:28.804860 14397 net.cpp:122] Setting up fuse_pool3
I0715 20:27:28.804867 14397 net.cpp:129] Top shape: 1 3 74 34 (7548)
I0715 20:27:28.804869 14397 net.cpp:137] Memory required for data: 676584100
I0715 20:27:28.804873 14397 layer_factory.hpp:77] Creating layer upscore8-new
I0715 20:27:28.804888 14397 net.cpp:84] Creating Layer upscore8-new
I0715 20:27:28.804894 14397 net.cpp:406] upscore8-new <- fuse_pool3
I0715 20:27:28.804900 14397 net.cpp:380] upscore8-new -> upscore8-new
I0715 20:27:28.805191 14397 net.cpp:122] Setting up upscore8-new
I0715 20:27:28.805202 14397 net.cpp:129] Top shape: 1 3 600 280 (504000)
I0715 20:27:28.805207 14397 net.cpp:137] Memory required for data: 678600100
I0715 20:27:28.805213 14397 layer_factory.hpp:77] Creating layer upscore8_cropped
I0715 20:27:28.805222 14397 net.cpp:84] Creating Layer upscore8_cropped
I0715 20:27:28.805227 14397 net.cpp:406] upscore8_cropped <- upscore8-new
I0715 20:27:28.805240 14397 net.cpp:406] upscore8_cropped <- data_data_0_split_1
I0715 20:27:28.805249 14397 net.cpp:380] upscore8_cropped -> upscore8_cropped
I0715 20:27:28.805279 14397 net.cpp:122] Setting up upscore8_cropped
I0715 20:27:28.805284 14397 net.cpp:129] Top shape: 1 3 512 195 (299520)
I0715 20:27:28.805287 14397 net.cpp:137] Memory required for data: 679798180
I0715 20:27:28.805291 14397 layer_factory.hpp:77] Creating layer upscore8_cropped_upscore8_cropped_0_split
I0715 20:27:28.805300 14397 net.cpp:84] Creating Layer upscore8_cropped_upscore8_cropped_0_split
I0715 20:27:28.805305 14397 net.cpp:406] upscore8_cropped_upscore8_cropped_0_split <- upscore8_cropped
I0715 20:27:28.805310 14397 net.cpp:380] upscore8_cropped_upscore8_cropped_0_split -> upscore8_cropped_upscore8_cropped_0_split_0
I0715 20:27:28.805326 14397 net.cpp:380] upscore8_cropped_upscore8_cropped_0_split -> upscore8_cropped_upscore8_cropped_0_split_1
I0715 20:27:28.805368 14397 net.cpp:122] Setting up upscore8_cropped_upscore8_cropped_0_split
I0715 20:27:28.805374 14397 net.cpp:129] Top shape: 1 3 512 195 (299520)
I0715 20:27:28.805379 14397 net.cpp:129] Top shape: 1 3 512 195 (299520)
I0715 20:27:28.805383 14397 net.cpp:137] Memory required for data: 682194340
I0715 20:27:28.805387 14397 layer_factory.hpp:77] Creating layer prob
I0715 20:27:28.805402 14397 net.cpp:84] Creating Layer prob
I0715 20:27:28.805405 14397 net.cpp:406] prob <- upscore8_cropped_upscore8_cropped_0_split_0
I0715 20:27:28.805416 14397 net.cpp:380] prob -> prob
I0715 20:27:28.805676 14397 net.cpp:122] Setting up prob
I0715 20:27:28.805688 14397 net.cpp:129] Top shape: 1 3 512 195 (299520)
I0715 20:27:28.805692 14397 net.cpp:137] Memory required for data: 683392420
I0715 20:27:28.805696 14397 layer_factory.hpp:77] Creating layer prob_prob_0_split
I0715 20:27:28.805706 14397 net.cpp:84] Creating Layer prob_prob_0_split
I0715 20:27:28.805709 14397 net.cpp:406] prob_prob_0_split <- prob
I0715 20:27:28.805718 14397 net.cpp:380] prob_prob_0_split -> prob_prob_0_split_0
I0715 20:27:28.805725 14397 net.cpp:380] prob_prob_0_split -> prob_prob_0_split_1
I0715 20:27:28.805770 14397 net.cpp:122] Setting up prob_prob_0_split
I0715 20:27:28.805779 14397 net.cpp:129] Top shape: 1 3 512 195 (299520)
I0715 20:27:28.805784 14397 net.cpp:129] Top shape: 1 3 512 195 (299520)
I0715 20:27:28.805788 14397 net.cpp:137] Memory required for data: 685788580
I0715 20:27:28.805791 14397 layer_factory.hpp:77] Creating layer saliency1
I0715 20:27:28.805804 14397 net.cpp:84] Creating Layer saliency1
I0715 20:27:28.805809 14397 net.cpp:406] saliency1 <- prob_prob_0_split_0
I0715 20:27:28.805819 14397 net.cpp:380] saliency1 -> saliency1
I0715 20:27:28.808724 14397 net.cpp:122] Setting up saliency1
I0715 20:27:28.808743 14397 net.cpp:129] Top shape: 1 3 512 195 (299520)
I0715 20:27:28.808759 14397 net.cpp:137] Memory required for data: 686986660
I0715 20:27:28.808768 14397 layer_factory.hpp:77] Creating layer relu_saliency1
I0715 20:27:28.808784 14397 net.cpp:84] Creating Layer relu_saliency1
I0715 20:27:28.808789 14397 net.cpp:406] relu_saliency1 <- saliency1
I0715 20:27:28.808796 14397 net.cpp:367] relu_saliency1 -> saliency1 (in-place)
I0715 20:27:28.809053 14397 net.cpp:122] Setting up relu_saliency1
I0715 20:27:28.809065 14397 net.cpp:129] Top shape: 1 3 512 195 (299520)
I0715 20:27:28.809070 14397 net.cpp:137] Memory required for data: 688184740
I0715 20:27:28.809074 14397 layer_factory.hpp:77] Creating layer saliency
I0715 20:27:28.809087 14397 net.cpp:84] Creating Layer saliency
I0715 20:27:28.809092 14397 net.cpp:406] saliency <- saliency1
I0715 20:27:28.809101 14397 net.cpp:380] saliency -> saliency
I0715 20:27:28.813102 14397 net.cpp:122] Setting up saliency
I0715 20:27:28.813123 14397 net.cpp:129] Top shape: 1 3 512 195 (299520)
I0715 20:27:28.813136 14397 net.cpp:137] Memory required for data: 689382820
I0715 20:27:28.813148 14397 layer_factory.hpp:77] Creating layer saliency_data
I0715 20:27:28.813160 14397 net.cpp:84] Creating Layer saliency_data
I0715 20:27:28.813165 14397 net.cpp:406] saliency_data <- data_data_0_split_2
I0715 20:27:28.813171 14397 net.cpp:406] saliency_data <- saliency
I0715 20:27:28.813177 14397 net.cpp:380] saliency_data -> saliency_data
I0715 20:27:28.813235 14397 net.cpp:122] Setting up saliency_data
I0715 20:27:28.813242 14397 net.cpp:129] Top shape: 1 3 512 195 (299520)
I0715 20:27:28.813246 14397 net.cpp:137] Memory required for data: 690580900
I0715 20:27:28.813259 14397 layer_factory.hpp:77] Creating layer crop
I0715 20:27:28.813974 14397 net.cpp:84] Creating Layer crop
I0715 20:27:28.813988 14397 net.cpp:406] crop <- prob_prob_0_split_1
I0715 20:27:28.814005 14397 net.cpp:406] crop <- saliency_data
I0715 20:27:28.814018 14397 net.cpp:406] crop <- crop_margin
I0715 20:27:28.814023 14397 net.cpp:406] crop <- crop_prob
I0715 20:27:28.814028 14397 net.cpp:406] crop <- crop_sample_batch
I0715 20:27:28.814033 14397 net.cpp:406] crop <- label_data_1_split_0
I0715 20:27:28.814040 14397 net.cpp:380] crop -> data-R
I0715 20:27:28.814061 14397 net.cpp:380] crop -> crop_info
I0715 20:27:28.824271 14397 net.cpp:122] Setting up crop
I0715 20:27:28.824335 14397 net.cpp:129] Top shape: 1 3 512 195 (299520)
I0715 20:27:28.824347 14397 net.cpp:129] Top shape: 1 2 4 (8)
I0715 20:27:28.824354 14397 net.cpp:137] Memory required for data: 691779012
I0715 20:27:28.824365 14397 layer_factory.hpp:77] Creating layer data-R_crop_0_split
I0715 20:27:28.824394 14397 net.cpp:84] Creating Layer data-R_crop_0_split
I0715 20:27:28.824404 14397 net.cpp:406] data-R_crop_0_split <- data-R
I0715 20:27:28.824419 14397 net.cpp:380] data-R_crop_0_split -> data-R_crop_0_split_0
I0715 20:27:28.824440 14397 net.cpp:380] data-R_crop_0_split -> data-R_crop_0_split_1
I0715 20:27:28.824535 14397 net.cpp:122] Setting up data-R_crop_0_split
I0715 20:27:28.824551 14397 net.cpp:129] Top shape: 1 3 512 195 (299520)
I0715 20:27:28.824560 14397 net.cpp:129] Top shape: 1 3 512 195 (299520)
I0715 20:27:28.824568 14397 net.cpp:137] Memory required for data: 694175172
I0715 20:27:28.824579 14397 layer_factory.hpp:77] Creating layer conv1_1-R
I0715 20:27:28.824693 14397 net.cpp:84] Creating Layer conv1_1-R
I0715 20:27:28.824707 14397 net.cpp:406] conv1_1-R <- data-R_crop_0_split_0
I0715 20:27:28.824728 14397 net.cpp:380] conv1_1-R -> conv1_1-R
I0715 20:27:28.829558 14397 net.cpp:122] Setting up conv1_1-R
I0715 20:27:28.829573 14397 net.cpp:129] Top shape: 1 64 710 393 (17857920)
I0715 20:27:28.829593 14397 net.cpp:137] Memory required for data: 765606852
I0715 20:27:28.829603 14397 layer_factory.hpp:77] Creating layer relu1_1-R
I0715 20:27:28.829619 14397 net.cpp:84] Creating Layer relu1_1-R
I0715 20:27:28.829632 14397 net.cpp:406] relu1_1-R <- conv1_1-R
I0715 20:27:28.829638 14397 net.cpp:367] relu1_1-R -> conv1_1-R (in-place)
I0715 20:27:28.829828 14397 net.cpp:122] Setting up relu1_1-R
I0715 20:27:28.829838 14397 net.cpp:129] Top shape: 1 64 710 393 (17857920)
I0715 20:27:28.829841 14397 net.cpp:137] Memory required for data: 837038532
I0715 20:27:28.829854 14397 layer_factory.hpp:77] Creating layer conv1_2-R
I0715 20:27:28.829861 14397 net.cpp:84] Creating Layer conv1_2-R
I0715 20:27:28.829865 14397 net.cpp:406] conv1_2-R <- conv1_1-R
I0715 20:27:28.829871 14397 net.cpp:380] conv1_2-R -> conv1_2-R
I0715 20:27:28.833333 14397 net.cpp:122] Setting up conv1_2-R
I0715 20:27:28.833351 14397 net.cpp:129] Top shape: 1 64 710 393 (17857920)
I0715 20:27:28.833371 14397 net.cpp:137] Memory required for data: 908470212
I0715 20:27:28.833379 14397 layer_factory.hpp:77] Creating layer relu1_2-R
I0715 20:27:28.833384 14397 net.cpp:84] Creating Layer relu1_2-R
I0715 20:27:28.833389 14397 net.cpp:406] relu1_2-R <- conv1_2-R
I0715 20:27:28.833395 14397 net.cpp:367] relu1_2-R -> conv1_2-R (in-place)
I0715 20:27:28.834084 14397 net.cpp:122] Setting up relu1_2-R
I0715 20:27:28.834098 14397 net.cpp:129] Top shape: 1 64 710 393 (17857920)
I0715 20:27:28.834118 14397 net.cpp:137] Memory required for data: 979901892
I0715 20:27:28.834121 14397 layer_factory.hpp:77] Creating layer pool1-R
I0715 20:27:28.834138 14397 net.cpp:84] Creating Layer pool1-R
I0715 20:27:28.834142 14397 net.cpp:406] pool1-R <- conv1_2-R
I0715 20:27:28.834151 14397 net.cpp:380] pool1-R -> pool1-R
I0715 20:27:28.834203 14397 net.cpp:122] Setting up pool1-R
I0715 20:27:28.834213 14397 net.cpp:129] Top shape: 1 64 355 197 (4475840)
I0715 20:27:28.834216 14397 net.cpp:137] Memory required for data: 997805252
I0715 20:27:28.834219 14397 layer_factory.hpp:77] Creating layer conv2_1-R
I0715 20:27:28.834233 14397 net.cpp:84] Creating Layer conv2_1-R
I0715 20:27:28.834236 14397 net.cpp:406] conv2_1-R <- pool1-R
I0715 20:27:28.834244 14397 net.cpp:380] conv2_1-R -> conv2_1-R
I0715 20:27:28.835690 14397 net.cpp:122] Setting up conv2_1-R
I0715 20:27:28.835705 14397 net.cpp:129] Top shape: 1 128 355 197 (8951680)
I0715 20:27:28.835724 14397 net.cpp:137] Memory required for data: 1033611972
I0715 20:27:28.835732 14397 layer_factory.hpp:77] Creating layer relu2_1-R
I0715 20:27:28.835738 14397 net.cpp:84] Creating Layer relu2_1-R
I0715 20:27:28.835743 14397 net.cpp:406] relu2_1-R <- conv2_1-R
I0715 20:27:28.835748 14397 net.cpp:367] relu2_1-R -> conv2_1-R (in-place)
I0715 20:27:28.836400 14397 net.cpp:122] Setting up relu2_1-R
I0715 20:27:28.836412 14397 net.cpp:129] Top shape: 1 128 355 197 (8951680)
I0715 20:27:28.836416 14397 net.cpp:137] Memory required for data: 1069418692
I0715 20:27:28.836436 14397 layer_factory.hpp:77] Creating layer conv2_2-R
I0715 20:27:28.836446 14397 net.cpp:84] Creating Layer conv2_2-R
I0715 20:27:28.836448 14397 net.cpp:406] conv2_2-R <- conv2_1-R
I0715 20:27:28.836457 14397 net.cpp:380] conv2_2-R -> conv2_2-R
I0715 20:27:28.838328 14397 net.cpp:122] Setting up conv2_2-R
I0715 20:27:28.838341 14397 net.cpp:129] Top shape: 1 128 355 197 (8951680)
I0715 20:27:28.838361 14397 net.cpp:137] Memory required for data: 1105225412
I0715 20:27:28.838368 14397 layer_factory.hpp:77] Creating layer relu2_2-R
I0715 20:27:28.838373 14397 net.cpp:84] Creating Layer relu2_2-R
I0715 20:27:28.838379 14397 net.cpp:406] relu2_2-R <- conv2_2-R
I0715 20:27:28.838384 14397 net.cpp:367] relu2_2-R -> conv2_2-R (in-place)
I0715 20:27:28.838591 14397 net.cpp:122] Setting up relu2_2-R
I0715 20:27:28.838603 14397 net.cpp:129] Top shape: 1 128 355 197 (8951680)
I0715 20:27:28.838605 14397 net.cpp:137] Memory required for data: 1141032132
I0715 20:27:28.838609 14397 layer_factory.hpp:77] Creating layer pool2-R
I0715 20:27:28.838629 14397 net.cpp:84] Creating Layer pool2-R
I0715 20:27:28.838634 14397 net.cpp:406] pool2-R <- conv2_2-R
I0715 20:27:28.838639 14397 net.cpp:380] pool2-R -> pool2-R
I0715 20:27:28.838686 14397 net.cpp:122] Setting up pool2-R
I0715 20:27:28.838691 14397 net.cpp:129] Top shape: 1 128 178 99 (2255616)
I0715 20:27:28.838695 14397 net.cpp:137] Memory required for data: 1150054596
I0715 20:27:28.838698 14397 layer_factory.hpp:77] Creating layer conv3_1-R
I0715 20:27:28.838711 14397 net.cpp:84] Creating Layer conv3_1-R
I0715 20:27:28.838716 14397 net.cpp:406] conv3_1-R <- pool2-R
I0715 20:27:28.838721 14397 net.cpp:380] conv3_1-R -> conv3_1-R
I0715 20:27:28.843222 14397 net.cpp:122] Setting up conv3_1-R
I0715 20:27:28.843238 14397 net.cpp:129] Top shape: 1 256 178 99 (4511232)
I0715 20:27:28.843258 14397 net.cpp:137] Memory required for data: 1168099524
I0715 20:27:28.843266 14397 layer_factory.hpp:77] Creating layer relu3_1-R
I0715 20:27:28.843304 14397 net.cpp:84] Creating Layer relu3_1-R
I0715 20:27:28.843310 14397 net.cpp:406] relu3_1-R <- conv3_1-R
I0715 20:27:28.843317 14397 net.cpp:367] relu3_1-R -> conv3_1-R (in-place)
I0715 20:27:28.843538 14397 net.cpp:122] Setting up relu3_1-R
I0715 20:27:28.843550 14397 net.cpp:129] Top shape: 1 256 178 99 (4511232)
I0715 20:27:28.843554 14397 net.cpp:137] Memory required for data: 1186144452
I0715 20:27:28.843557 14397 layer_factory.hpp:77] Creating layer conv3_2-R
I0715 20:27:28.843567 14397 net.cpp:84] Creating Layer conv3_2-R
I0715 20:27:28.843571 14397 net.cpp:406] conv3_2-R <- conv3_1-R
I0715 20:27:28.843580 14397 net.cpp:380] conv3_2-R -> conv3_2-R
I0715 20:27:28.847257 14397 net.cpp:122] Setting up conv3_2-R
I0715 20:27:28.847271 14397 net.cpp:129] Top shape: 1 256 178 99 (4511232)
I0715 20:27:28.847298 14397 net.cpp:137] Memory required for data: 1204189380
I0715 20:27:28.847322 14397 layer_factory.hpp:77] Creating layer relu3_2-R
I0715 20:27:28.847339 14397 net.cpp:84] Creating Layer relu3_2-R
I0715 20:27:28.847343 14397 net.cpp:406] relu3_2-R <- conv3_2-R
I0715 20:27:28.847349 14397 net.cpp:367] relu3_2-R -> conv3_2-R (in-place)
I0715 20:27:28.847571 14397 net.cpp:122] Setting up relu3_2-R
I0715 20:27:28.847582 14397 net.cpp:129] Top shape: 1 256 178 99 (4511232)
I0715 20:27:28.847585 14397 net.cpp:137] Memory required for data: 1222234308
I0715 20:27:28.847590 14397 layer_factory.hpp:77] Creating layer conv3_3-R
I0715 20:27:28.847604 14397 net.cpp:84] Creating Layer conv3_3-R
I0715 20:27:28.847607 14397 net.cpp:406] conv3_3-R <- conv3_2-R
I0715 20:27:28.847613 14397 net.cpp:380] conv3_3-R -> conv3_3-R
I0715 20:27:28.851243 14397 net.cpp:122] Setting up conv3_3-R
I0715 20:27:28.851258 14397 net.cpp:129] Top shape: 1 256 178 99 (4511232)
I0715 20:27:28.851310 14397 net.cpp:137] Memory required for data: 1240279236
I0715 20:27:28.851320 14397 layer_factory.hpp:77] Creating layer relu3_3-R
I0715 20:27:28.851327 14397 net.cpp:84] Creating Layer relu3_3-R
I0715 20:27:28.851331 14397 net.cpp:406] relu3_3-R <- conv3_3-R
I0715 20:27:28.851339 14397 net.cpp:367] relu3_3-R -> conv3_3-R (in-place)
I0715 20:27:28.851557 14397 net.cpp:122] Setting up relu3_3-R
I0715 20:27:28.851570 14397 net.cpp:129] Top shape: 1 256 178 99 (4511232)
I0715 20:27:28.851574 14397 net.cpp:137] Memory required for data: 1258324164
I0715 20:27:28.851578 14397 layer_factory.hpp:77] Creating layer pool3-R
I0715 20:27:28.851593 14397 net.cpp:84] Creating Layer pool3-R
I0715 20:27:28.851598 14397 net.cpp:406] pool3-R <- conv3_3-R
I0715 20:27:28.851603 14397 net.cpp:380] pool3-R -> pool3-R
I0715 20:27:28.851675 14397 net.cpp:122] Setting up pool3-R
I0715 20:27:28.851686 14397 net.cpp:129] Top shape: 1 256 89 50 (1139200)
I0715 20:27:28.851688 14397 net.cpp:137] Memory required for data: 1262880964
I0715 20:27:28.851691 14397 layer_factory.hpp:77] Creating layer pool3-R_pool3-R_0_split
I0715 20:27:28.851702 14397 net.cpp:84] Creating Layer pool3-R_pool3-R_0_split
I0715 20:27:28.851706 14397 net.cpp:406] pool3-R_pool3-R_0_split <- pool3-R
I0715 20:27:28.851714 14397 net.cpp:380] pool3-R_pool3-R_0_split -> pool3-R_pool3-R_0_split_0
I0715 20:27:28.851721 14397 net.cpp:380] pool3-R_pool3-R_0_split -> pool3-R_pool3-R_0_split_1
I0715 20:27:28.851781 14397 net.cpp:122] Setting up pool3-R_pool3-R_0_split
I0715 20:27:28.851788 14397 net.cpp:129] Top shape: 1 256 89 50 (1139200)
I0715 20:27:28.851794 14397 net.cpp:129] Top shape: 1 256 89 50 (1139200)
I0715 20:27:28.851797 14397 net.cpp:137] Memory required for data: 1271994564
I0715 20:27:28.851802 14397 layer_factory.hpp:77] Creating layer conv4_1-R
I0715 20:27:28.851815 14397 net.cpp:84] Creating Layer conv4_1-R
I0715 20:27:28.851820 14397 net.cpp:406] conv4_1-R <- pool3-R_pool3-R_0_split_0
I0715 20:27:28.851827 14397 net.cpp:380] conv4_1-R -> conv4_1-R
I0715 20:27:28.858096 14397 net.cpp:122] Setting up conv4_1-R
I0715 20:27:28.858116 14397 net.cpp:129] Top shape: 1 512 89 50 (2278400)
I0715 20:27:28.858121 14397 net.cpp:137] Memory required for data: 1281108164
I0715 20:27:28.858136 14397 layer_factory.hpp:77] Creating layer relu4_1-R
I0715 20:27:28.858144 14397 net.cpp:84] Creating Layer relu4_1-R
I0715 20:27:28.858151 14397 net.cpp:406] relu4_1-R <- conv4_1-R
I0715 20:27:28.858158 14397 net.cpp:367] relu4_1-R -> conv4_1-R (in-place)
I0715 20:27:28.859006 14397 net.cpp:122] Setting up relu4_1-R
I0715 20:27:28.859024 14397 net.cpp:129] Top shape: 1 512 89 50 (2278400)
I0715 20:27:28.859036 14397 net.cpp:137] Memory required for data: 1290221764
I0715 20:27:28.859041 14397 layer_factory.hpp:77] Creating layer conv4_2-R
I0715 20:27:28.859053 14397 net.cpp:84] Creating Layer conv4_2-R
I0715 20:27:28.859060 14397 net.cpp:406] conv4_2-R <- conv4_1-R
I0715 20:27:28.859067 14397 net.cpp:380] conv4_2-R -> conv4_2-R
I0715 20:27:28.867128 14397 net.cpp:122] Setting up conv4_2-R
I0715 20:27:28.867173 14397 net.cpp:129] Top shape: 1 512 89 50 (2278400)
I0715 20:27:28.867177 14397 net.cpp:137] Memory required for data: 1299335364
I0715 20:27:28.867187 14397 layer_factory.hpp:77] Creating layer relu4_2-R
I0715 20:27:28.867210 14397 net.cpp:84] Creating Layer relu4_2-R
I0715 20:27:28.867216 14397 net.cpp:406] relu4_2-R <- conv4_2-R
I0715 20:27:28.867223 14397 net.cpp:367] relu4_2-R -> conv4_2-R (in-place)
I0715 20:27:28.868062 14397 net.cpp:122] Setting up relu4_2-R
I0715 20:27:28.868074 14397 net.cpp:129] Top shape: 1 512 89 50 (2278400)
I0715 20:27:28.868094 14397 net.cpp:137] Memory required for data: 1308448964
I0715 20:27:28.868098 14397 layer_factory.hpp:77] Creating layer conv4_3-R
I0715 20:27:28.868118 14397 net.cpp:84] Creating Layer conv4_3-R
I0715 20:27:28.868122 14397 net.cpp:406] conv4_3-R <- conv4_2-R
I0715 20:27:28.868129 14397 net.cpp:380] conv4_3-R -> conv4_3-R
I0715 20:27:28.880395 14397 net.cpp:122] Setting up conv4_3-R
I0715 20:27:28.880439 14397 net.cpp:129] Top shape: 1 512 89 50 (2278400)
I0715 20:27:28.880450 14397 net.cpp:137] Memory required for data: 1317562564
I0715 20:27:28.880465 14397 layer_factory.hpp:77] Creating layer relu4_3-R
I0715 20:27:28.880482 14397 net.cpp:84] Creating Layer relu4_3-R
I0715 20:27:28.880504 14397 net.cpp:406] relu4_3-R <- conv4_3-R
I0715 20:27:28.880517 14397 net.cpp:367] relu4_3-R -> conv4_3-R (in-place)
I0715 20:27:28.880921 14397 net.cpp:122] Setting up relu4_3-R
I0715 20:27:28.880940 14397 net.cpp:129] Top shape: 1 512 89 50 (2278400)
I0715 20:27:28.880955 14397 net.cpp:137] Memory required for data: 1326676164
I0715 20:27:28.880964 14397 layer_factory.hpp:77] Creating layer pool4-R
I0715 20:27:28.880991 14397 net.cpp:84] Creating Layer pool4-R
I0715 20:27:28.881000 14397 net.cpp:406] pool4-R <- conv4_3-R
I0715 20:27:28.881026 14397 net.cpp:380] pool4-R -> pool4-R
I0715 20:27:28.881126 14397 net.cpp:122] Setting up pool4-R
I0715 20:27:28.881141 14397 net.cpp:129] Top shape: 1 512 45 25 (576000)
I0715 20:27:28.881148 14397 net.cpp:137] Memory required for data: 1328980164
I0715 20:27:28.881155 14397 layer_factory.hpp:77] Creating layer pool4-R_pool4-R_0_split
I0715 20:27:28.881167 14397 net.cpp:84] Creating Layer pool4-R_pool4-R_0_split
I0715 20:27:28.881175 14397 net.cpp:406] pool4-R_pool4-R_0_split <- pool4-R
I0715 20:27:28.881187 14397 net.cpp:380] pool4-R_pool4-R_0_split -> pool4-R_pool4-R_0_split_0
I0715 20:27:28.881201 14397 net.cpp:380] pool4-R_pool4-R_0_split -> pool4-R_pool4-R_0_split_1
I0715 20:27:28.881283 14397 net.cpp:122] Setting up pool4-R_pool4-R_0_split
I0715 20:27:28.881296 14397 net.cpp:129] Top shape: 1 512 45 25 (576000)
I0715 20:27:28.881306 14397 net.cpp:129] Top shape: 1 512 45 25 (576000)
I0715 20:27:28.881312 14397 net.cpp:137] Memory required for data: 1333588164
I0715 20:27:28.881322 14397 layer_factory.hpp:77] Creating layer conv5_1-R
I0715 20:27:28.881340 14397 net.cpp:84] Creating Layer conv5_1-R
I0715 20:27:28.881348 14397 net.cpp:406] conv5_1-R <- pool4-R_pool4-R_0_split_0
I0715 20:27:28.881362 14397 net.cpp:380] conv5_1-R -> conv5_1-R
I0715 20:27:28.893810 14397 net.cpp:122] Setting up conv5_1-R
I0715 20:27:28.893852 14397 net.cpp:129] Top shape: 1 512 45 25 (576000)
I0715 20:27:28.893857 14397 net.cpp:137] Memory required for data: 1335892164
I0715 20:27:28.893903 14397 layer_factory.hpp:77] Creating layer relu5_1-R
I0715 20:27:28.893914 14397 net.cpp:84] Creating Layer relu5_1-R
I0715 20:27:28.893921 14397 net.cpp:406] relu5_1-R <- conv5_1-R
I0715 20:27:28.893929 14397 net.cpp:367] relu5_1-R -> conv5_1-R (in-place)
I0715 20:27:28.894178 14397 net.cpp:122] Setting up relu5_1-R
I0715 20:27:28.894192 14397 net.cpp:129] Top shape: 1 512 45 25 (576000)
I0715 20:27:28.894196 14397 net.cpp:137] Memory required for data: 1338196164
I0715 20:27:28.894201 14397 layer_factory.hpp:77] Creating layer conv5_2-R
I0715 20:27:28.894213 14397 net.cpp:84] Creating Layer conv5_2-R
I0715 20:27:28.894218 14397 net.cpp:406] conv5_2-R <- conv5_1-R
I0715 20:27:28.894227 14397 net.cpp:380] conv5_2-R -> conv5_2-R
I0715 20:27:28.904397 14397 net.cpp:122] Setting up conv5_2-R
I0715 20:27:28.904448 14397 net.cpp:129] Top shape: 1 512 45 25 (576000)
I0715 20:27:28.904454 14397 net.cpp:137] Memory required for data: 1340500164
I0715 20:27:28.904469 14397 layer_factory.hpp:77] Creating layer relu5_2-R
I0715 20:27:28.904487 14397 net.cpp:84] Creating Layer relu5_2-R
I0715 20:27:28.904495 14397 net.cpp:406] relu5_2-R <- conv5_2-R
I0715 20:27:28.904503 14397 net.cpp:367] relu5_2-R -> conv5_2-R (in-place)
I0715 20:27:28.904785 14397 net.cpp:122] Setting up relu5_2-R
I0715 20:27:28.904800 14397 net.cpp:129] Top shape: 1 512 45 25 (576000)
I0715 20:27:28.904804 14397 net.cpp:137] Memory required for data: 1342804164
I0715 20:27:28.904811 14397 layer_factory.hpp:77] Creating layer conv5_3-R
I0715 20:27:28.904826 14397 net.cpp:84] Creating Layer conv5_3-R
I0715 20:27:28.904831 14397 net.cpp:406] conv5_3-R <- conv5_2-R
I0715 20:27:28.904841 14397 net.cpp:380] conv5_3-R -> conv5_3-R
I0715 20:27:28.914059 14397 net.cpp:122] Setting up conv5_3-R
I0715 20:27:28.914091 14397 net.cpp:129] Top shape: 1 512 45 25 (576000)
I0715 20:27:28.914096 14397 net.cpp:137] Memory required for data: 1345108164
I0715 20:27:28.914106 14397 layer_factory.hpp:77] Creating layer relu5_3-R
I0715 20:27:28.914114 14397 net.cpp:84] Creating Layer relu5_3-R
I0715 20:27:28.914120 14397 net.cpp:406] relu5_3-R <- conv5_3-R
I0715 20:27:28.914127 14397 net.cpp:367] relu5_3-R -> conv5_3-R (in-place)
I0715 20:27:28.914361 14397 net.cpp:122] Setting up relu5_3-R
I0715 20:27:28.914373 14397 net.cpp:129] Top shape: 1 512 45 25 (576000)
I0715 20:27:28.914377 14397 net.cpp:137] Memory required for data: 1347412164
I0715 20:27:28.914382 14397 layer_factory.hpp:77] Creating layer pool5-R
I0715 20:27:28.914396 14397 net.cpp:84] Creating Layer pool5-R
I0715 20:27:28.914400 14397 net.cpp:406] pool5-R <- conv5_3-R
I0715 20:27:28.914409 14397 net.cpp:380] pool5-R -> pool5-R
I0715 20:27:28.914482 14397 net.cpp:122] Setting up pool5-R
I0715 20:27:28.914494 14397 net.cpp:129] Top shape: 1 512 23 13 (153088)
I0715 20:27:28.914497 14397 net.cpp:137] Memory required for data: 1348024516
I0715 20:27:28.914501 14397 layer_factory.hpp:77] Creating layer fc6-R
I0715 20:27:28.914515 14397 net.cpp:84] Creating Layer fc6-R
I0715 20:27:28.914520 14397 net.cpp:406] fc6-R <- pool5-R
I0715 20:27:28.914527 14397 net.cpp:380] fc6-R -> fc6-R
I0715 20:27:29.253129 14397 net.cpp:122] Setting up fc6-R
I0715 20:27:29.253180 14397 net.cpp:129] Top shape: 1 4096 17 7 (487424)
I0715 20:27:29.253185 14397 net.cpp:137] Memory required for data: 1349974212
I0715 20:27:29.253196 14397 layer_factory.hpp:77] Creating layer relu6-R
I0715 20:27:29.253211 14397 net.cpp:84] Creating Layer relu6-R
I0715 20:27:29.253216 14397 net.cpp:406] relu6-R <- fc6-R
I0715 20:27:29.253224 14397 net.cpp:367] relu6-R -> fc6-R (in-place)
I0715 20:27:29.253974 14397 net.cpp:122] Setting up relu6-R
I0715 20:27:29.253988 14397 net.cpp:129] Top shape: 1 4096 17 7 (487424)
I0715 20:27:29.254009 14397 net.cpp:137] Memory required for data: 1351923908
I0715 20:27:29.254014 14397 layer_factory.hpp:77] Creating layer drop6-R
I0715 20:27:29.254053 14397 net.cpp:84] Creating Layer drop6-R
I0715 20:27:29.254058 14397 net.cpp:406] drop6-R <- fc6-R
I0715 20:27:29.254065 14397 net.cpp:367] drop6-R -> fc6-R (in-place)
I0715 20:27:29.254117 14397 net.cpp:122] Setting up drop6-R
I0715 20:27:29.254125 14397 net.cpp:129] Top shape: 1 4096 17 7 (487424)
I0715 20:27:29.254129 14397 net.cpp:137] Memory required for data: 1353873604
I0715 20:27:29.254133 14397 layer_factory.hpp:77] Creating layer fc7-R
I0715 20:27:29.254144 14397 net.cpp:84] Creating Layer fc7-R
I0715 20:27:29.254148 14397 net.cpp:406] fc7-R <- fc6-R
I0715 20:27:29.254155 14397 net.cpp:380] fc7-R -> fc7-R
I0715 20:27:29.310418 14397 net.cpp:122] Setting up fc7-R
I0715 20:27:29.310469 14397 net.cpp:129] Top shape: 1 4096 17 7 (487424)
I0715 20:27:29.310475 14397 net.cpp:137] Memory required for data: 1355823300
I0715 20:27:29.310500 14397 layer_factory.hpp:77] Creating layer relu7-R
I0715 20:27:29.310520 14397 net.cpp:84] Creating Layer relu7-R
I0715 20:27:29.310528 14397 net.cpp:406] relu7-R <- fc7-R
I0715 20:27:29.310542 14397 net.cpp:367] relu7-R -> fc7-R (in-place)
I0715 20:27:29.311424 14397 net.cpp:122] Setting up relu7-R
I0715 20:27:29.311444 14397 net.cpp:129] Top shape: 1 4096 17 7 (487424)
I0715 20:27:29.311448 14397 net.cpp:137] Memory required for data: 1357772996
I0715 20:27:29.311456 14397 layer_factory.hpp:77] Creating layer drop7-R
I0715 20:27:29.311470 14397 net.cpp:84] Creating Layer drop7-R
I0715 20:27:29.311475 14397 net.cpp:406] drop7-R <- fc7-R
I0715 20:27:29.311481 14397 net.cpp:367] drop7-R -> fc7-R (in-place)
I0715 20:27:29.311533 14397 net.cpp:122] Setting up drop7-R
I0715 20:27:29.311540 14397 net.cpp:129] Top shape: 1 4096 17 7 (487424)
I0715 20:27:29.311544 14397 net.cpp:137] Memory required for data: 1359722692
I0715 20:27:29.311548 14397 layer_factory.hpp:77] Creating layer score_fr-new-R
I0715 20:27:29.311563 14397 net.cpp:84] Creating Layer score_fr-new-R
I0715 20:27:29.311566 14397 net.cpp:406] score_fr-new-R <- fc7-R
I0715 20:27:29.311576 14397 net.cpp:380] score_fr-new-R -> score_fr-new-R
I0715 20:27:29.313426 14397 net.cpp:122] Setting up score_fr-new-R
I0715 20:27:29.313444 14397 net.cpp:129] Top shape: 1 3 17 7 (357)
I0715 20:27:29.313458 14397 net.cpp:137] Memory required for data: 1359724120
I0715 20:27:29.313467 14397 layer_factory.hpp:77] Creating layer upscore2-new-R
I0715 20:27:29.313482 14397 net.cpp:84] Creating Layer upscore2-new-R
I0715 20:27:29.313486 14397 net.cpp:406] upscore2-new-R <- score_fr-new-R
I0715 20:27:29.313494 14397 net.cpp:380] upscore2-new-R -> upscore2-new-R
I0715 20:27:29.313803 14397 net.cpp:122] Setting up upscore2-new-R
I0715 20:27:29.313815 14397 net.cpp:129] Top shape: 1 3 36 16 (1728)
I0715 20:27:29.313819 14397 net.cpp:137] Memory required for data: 1359731032
I0715 20:27:29.313825 14397 layer_factory.hpp:77] Creating layer upscore2-new-R_upscore2-new-R_0_split
I0715 20:27:29.313835 14397 net.cpp:84] Creating Layer upscore2-new-R_upscore2-new-R_0_split
I0715 20:27:29.313841 14397 net.cpp:406] upscore2-new-R_upscore2-new-R_0_split <- upscore2-new-R
I0715 20:27:29.313848 14397 net.cpp:380] upscore2-new-R_upscore2-new-R_0_split -> upscore2-new-R_upscore2-new-R_0_split_0
I0715 20:27:29.313856 14397 net.cpp:380] upscore2-new-R_upscore2-new-R_0_split -> upscore2-new-R_upscore2-new-R_0_split_1
I0715 20:27:29.313910 14397 net.cpp:122] Setting up upscore2-new-R_upscore2-new-R_0_split
I0715 20:27:29.313920 14397 net.cpp:129] Top shape: 1 3 36 16 (1728)
I0715 20:27:29.313925 14397 net.cpp:129] Top shape: 1 3 36 16 (1728)
I0715 20:27:29.313930 14397 net.cpp:137] Memory required for data: 1359744856
I0715 20:27:29.313933 14397 layer_factory.hpp:77] Creating layer score_pool4-new-R
I0715 20:27:29.313947 14397 net.cpp:84] Creating Layer score_pool4-new-R
I0715 20:27:29.313953 14397 net.cpp:406] score_pool4-new-R <- pool4-R_pool4-R_0_split_1
I0715 20:27:29.313961 14397 net.cpp:380] score_pool4-new-R -> score_pool4-new-R
I0715 20:27:29.320602 14397 net.cpp:122] Setting up score_pool4-new-R
I0715 20:27:29.320633 14397 net.cpp:129] Top shape: 1 3 45 25 (3375)
I0715 20:27:29.320638 14397 net.cpp:137] Memory required for data: 1359758356
I0715 20:27:29.320647 14397 layer_factory.hpp:77] Creating layer score_pool4c-R
I0715 20:27:29.320659 14397 net.cpp:84] Creating Layer score_pool4c-R
I0715 20:27:29.320664 14397 net.cpp:406] score_pool4c-R <- score_pool4-new-R
I0715 20:27:29.320670 14397 net.cpp:406] score_pool4c-R <- upscore2-new-R_upscore2-new-R_0_split_0
I0715 20:27:29.320678 14397 net.cpp:380] score_pool4c-R -> score_pool4c-R
I0715 20:27:29.320727 14397 net.cpp:122] Setting up score_pool4c-R
I0715 20:27:29.320734 14397 net.cpp:129] Top shape: 1 3 36 16 (1728)
I0715 20:27:29.320739 14397 net.cpp:137] Memory required for data: 1359765268
I0715 20:27:29.320744 14397 layer_factory.hpp:77] Creating layer fuse_pool4-R
I0715 20:27:29.320753 14397 net.cpp:84] Creating Layer fuse_pool4-R
I0715 20:27:29.320758 14397 net.cpp:406] fuse_pool4-R <- upscore2-new-R_upscore2-new-R_0_split_1
I0715 20:27:29.320765 14397 net.cpp:406] fuse_pool4-R <- score_pool4c-R
I0715 20:27:29.320770 14397 net.cpp:380] fuse_pool4-R -> fuse_pool4-R
I0715 20:27:29.320807 14397 net.cpp:122] Setting up fuse_pool4-R
I0715 20:27:29.320814 14397 net.cpp:129] Top shape: 1 3 36 16 (1728)
I0715 20:27:29.320817 14397 net.cpp:137] Memory required for data: 1359772180
I0715 20:27:29.320822 14397 layer_factory.hpp:77] Creating layer upscore_pool4-new-R
I0715 20:27:29.320835 14397 net.cpp:84] Creating Layer upscore_pool4-new-R
I0715 20:27:29.320840 14397 net.cpp:406] upscore_pool4-new-R <- fuse_pool4-R
I0715 20:27:29.320847 14397 net.cpp:380] upscore_pool4-new-R -> upscore_pool4-new-R
I0715 20:27:29.321122 14397 net.cpp:122] Setting up upscore_pool4-new-R
I0715 20:27:29.321135 14397 net.cpp:129] Top shape: 1 3 74 34 (7548)
I0715 20:27:29.321138 14397 net.cpp:137] Memory required for data: 1359802372
I0715 20:27:29.321146 14397 layer_factory.hpp:77] Creating layer upscore_pool4-new-R_upscore_pool4-new-R_0_split
I0715 20:27:29.321152 14397 net.cpp:84] Creating Layer upscore_pool4-new-R_upscore_pool4-new-R_0_split
I0715 20:27:29.321156 14397 net.cpp:406] upscore_pool4-new-R_upscore_pool4-new-R_0_split <- upscore_pool4-new-R
I0715 20:27:29.321166 14397 net.cpp:380] upscore_pool4-new-R_upscore_pool4-new-R_0_split -> upscore_pool4-new-R_upscore_pool4-new-R_0_split_0
I0715 20:27:29.321174 14397 net.cpp:380] upscore_pool4-new-R_upscore_pool4-new-R_0_split -> upscore_pool4-new-R_upscore_pool4-new-R_0_split_1
I0715 20:27:29.321224 14397 net.cpp:122] Setting up upscore_pool4-new-R_upscore_pool4-new-R_0_split
I0715 20:27:29.321234 14397 net.cpp:129] Top shape: 1 3 74 34 (7548)
I0715 20:27:29.321240 14397 net.cpp:129] Top shape: 1 3 74 34 (7548)
I0715 20:27:29.321244 14397 net.cpp:137] Memory required for data: 1359862756
I0715 20:27:29.321247 14397 layer_factory.hpp:77] Creating layer score_pool3-new-R
I0715 20:27:29.321259 14397 net.cpp:84] Creating Layer score_pool3-new-R
I0715 20:27:29.321265 14397 net.cpp:406] score_pool3-new-R <- pool3-R_pool3-R_0_split_1
I0715 20:27:29.321272 14397 net.cpp:380] score_pool3-new-R -> score_pool3-new-R
I0715 20:27:29.322401 14397 net.cpp:122] Setting up score_pool3-new-R
I0715 20:27:29.322415 14397 net.cpp:129] Top shape: 1 3 89 50 (13350)
I0715 20:27:29.322419 14397 net.cpp:137] Memory required for data: 1359916156
I0715 20:27:29.322432 14397 layer_factory.hpp:77] Creating layer score_pool3c-R
I0715 20:27:29.322440 14397 net.cpp:84] Creating Layer score_pool3c-R
I0715 20:27:29.322445 14397 net.cpp:406] score_pool3c-R <- score_pool3-new-R
I0715 20:27:29.322453 14397 net.cpp:406] score_pool3c-R <- upscore_pool4-new-R_upscore_pool4-new-R_0_split_0
I0715 20:27:29.322461 14397 net.cpp:380] score_pool3c-R -> score_pool3c-R
I0715 20:27:29.322506 14397 net.cpp:122] Setting up score_pool3c-R
I0715 20:27:29.322513 14397 net.cpp:129] Top shape: 1 3 74 34 (7548)
I0715 20:27:29.322517 14397 net.cpp:137] Memory required for data: 1359946348
I0715 20:27:29.322521 14397 layer_factory.hpp:77] Creating layer fuse_pool3-R
I0715 20:27:29.322533 14397 net.cpp:84] Creating Layer fuse_pool3-R
I0715 20:27:29.322538 14397 net.cpp:406] fuse_pool3-R <- upscore_pool4-new-R_upscore_pool4-new-R_0_split_1
I0715 20:27:29.322543 14397 net.cpp:406] fuse_pool3-R <- score_pool3c-R
I0715 20:27:29.322549 14397 net.cpp:380] fuse_pool3-R -> fuse_pool3-R
I0715 20:27:29.322584 14397 net.cpp:122] Setting up fuse_pool3-R
I0715 20:27:29.322592 14397 net.cpp:129] Top shape: 1 3 74 34 (7548)
I0715 20:27:29.322595 14397 net.cpp:137] Memory required for data: 1359976540
I0715 20:27:29.322599 14397 layer_factory.hpp:77] Creating layer upscore8-new-R
I0715 20:27:29.322609 14397 net.cpp:84] Creating Layer upscore8-new-R
I0715 20:27:29.322613 14397 net.cpp:406] upscore8-new-R <- fuse_pool3-R
I0715 20:27:29.322623 14397 net.cpp:380] upscore8-new-R -> upscore8-new-R
I0715 20:27:29.322901 14397 net.cpp:122] Setting up upscore8-new-R
I0715 20:27:29.322912 14397 net.cpp:129] Top shape: 1 3 600 280 (504000)
I0715 20:27:29.322916 14397 net.cpp:137] Memory required for data: 1361992540
I0715 20:27:29.322922 14397 layer_factory.hpp:77] Creating layer upscore8_cropped-R
I0715 20:27:29.322929 14397 net.cpp:84] Creating Layer upscore8_cropped-R
I0715 20:27:29.322934 14397 net.cpp:406] upscore8_cropped-R <- upscore8-new-R
I0715 20:27:29.322942 14397 net.cpp:406] upscore8_cropped-R <- data-R_crop_0_split_1
I0715 20:27:29.322947 14397 net.cpp:380] upscore8_cropped-R -> upscore8_cropped-R
I0715 20:27:29.322983 14397 net.cpp:122] Setting up upscore8_cropped-R
I0715 20:27:29.322989 14397 net.cpp:129] Top shape: 1 3 512 195 (299520)
I0715 20:27:29.322993 14397 net.cpp:137] Memory required for data: 1363190620
I0715 20:27:29.322998 14397 layer_factory.hpp:77] Creating layer upscore8_uncropped-R
I0715 20:27:29.323331 14397 net.cpp:84] Creating Layer upscore8_uncropped-R
I0715 20:27:29.323344 14397 net.cpp:406] upscore8_uncropped-R <- crop_info
I0715 20:27:29.323360 14397 net.cpp:406] upscore8_uncropped-R <- upscore8_cropped-R
I0715 20:27:29.323384 14397 net.cpp:406] upscore8_uncropped-R <- data_data_0_split_3
I0715 20:27:29.323395 14397 net.cpp:380] upscore8_uncropped-R -> upscore8_uncropped-R
I0715 20:27:29.325759 14397 net.cpp:122] Setting up upscore8_uncropped-R
I0715 20:27:29.325784 14397 net.cpp:129] Top shape: 1 3 512 195 (299520)
I0715 20:27:29.325791 14397 net.cpp:137] Memory required for data: 1364388700
I0715 20:27:29.325798 14397 layer_factory.hpp:77] Creating layer loss1
I0715 20:27:29.325820 14397 net.cpp:84] Creating Layer loss1
I0715 20:27:29.325829 14397 net.cpp:406] loss1 <- upscore8_cropped_upscore8_cropped_0_split_1
I0715 20:27:29.325837 14397 net.cpp:406] loss1 <- label_data_1_split_1
I0715 20:27:29.325846 14397 net.cpp:380] loss1 -> loss1
…
