…
snapshot_prefix: "/media/Med_2T2/data2/models/snapshots/joint:1e-5x10,1e-5x10,20/FD3:XI3_1_20180418_201524,XJ3_1_20180419_083711/train"
test_initialization: false
average_loss: 20
stepvalue: 45000
stepvalue: 50000
stepvalue: 55000
iter_size: 1
I0419 08:37:12.568003 28639 solver.cpp:77] Creating training net from train_net file: /media/Med_2T2/data2/prototxts/training_J3x10.prototxt
I0419 08:37:12.570825 28639 net.cpp:51] Initializing net from parameters: 
state {
  phase: TRAIN
}
layer {
  name: "data"
  type: "Python"
  top: "data"
  top: "label"
  top: "crop_margin"
  top: "crop_prob"
  top: "crop_sample_batch"
  python_param {
    module: "Data"
    layer: "DataLayer"
  }
}
layer {
  name: "conv1_1"
  type: "Convolution"
  bottom: "data"
  top: "conv1_1"
  param {
    lr_mult: 1
    decay_mult: 1
  }
  param {
    lr_mult: 2
    decay_mult: 0
  }
  convolution_param {
    num_output: 64
    pad: 100
    kernel_size: 3
    stride: 1
  }
}
layer {
  name: "relu1_1"
  type: "ReLU"
  bottom: "conv1_1"
  top: "conv1_1"
}
layer {
  name: "conv1_2"
  type: "Convolution"
  bottom: "conv1_1"
  top: "conv1_2"
  param {
    lr_mult: 1
    decay_mult: 1
  }
  param {
    lr_mult: 2
    decay_mult: 0
  }
  convolution_param {
    num_output: 64
    pad: 1
    kernel_size: 3
    stride: 1
  }
}
layer {
  name: "relu1_2"
  type: "ReLU"
  bottom: "conv1_2"
  top: "conv1_2"
}
layer {
  name: "pool1"
  type: "Pooling"
  bottom: "conv1_2"
  top: "pool1"
  pooling_param {
    pool: MAX
    kernel_size: 2
    stride: 2
  }
}
layer {
  name: "conv2_1"
  type: "Convolution"
  bottom: "pool1"
  top: "conv2_1"
  param {
    lr_mult: 1
    decay_mult: 1
  }
  param {
    lr_mult: 2
    decay_mult: 0
  }
  convolution_param {
    num_output: 128
    pad: 1
    kernel_size: 3
    stride: 1
  }
}
layer {
  name: "relu2_1"
  type: "ReLU"
  bottom: "conv2_1"
  top: "conv2_1"
}
layer {
  name: "conv2_2"
  type: "Convolution"
  bottom: "conv2_1"
  top: "conv2_2"
  param {
    lr_mult: 1
    decay_mult: 1
  }
  param {
    lr_mult: 2
    decay_mult: 0
  }
  convolution_param {
    num_output: 128
    pad: 1
    kernel_size: 3
    stride: 1
  }
}
layer {
  name: "relu2_2"
  type: "ReLU"
  bottom: "conv2_2"
  top: "conv2_2"
}
layer {
  name: "pool2"
  type: "Pooling"
  bottom: "conv2_2"
  top: "pool2"
  pooling_param {
    pool: MAX
    kernel_size: 2
    stride: 2
  }
}
layer {
  name: "conv3_1"
  type: "Convolution"
  bottom: "pool2"
  top: "conv3_1"
  param {
    lr_mult: 1
    decay_mult: 1
  }
  param {
    lr_mult: 2
    decay_mult: 0
  }
  convolution_param {
    num_output: 256
    pad: 1
    kernel_size: 3
    stride: 1
  }
}
layer {
  name: "relu3_1"
  type: "ReLU"
  bottom: "conv3_1"
  top: "conv3_1"
}
layer {
  name: "conv3_2"
  type: "Convolution"
  bottom: "conv3_1"
  top: "conv3_2"
  param {
    lr_mult: 1
    decay_mult: 1
  }
  param {
    lr_mult: 2
    decay_mult: 0
  }
  convolution_param {
    num_output: 256
    pad: 1
    kernel_size: 3
    stride: 1
  }
}
layer {
  name: "relu3_2"
  type: "ReLU"
  bottom: "conv3_2"
  top: "conv3_2"
}
layer {
  name: "conv3_3"
  type: "Convolution"
  bottom: "conv3_2"
  top: "conv3_3"
  param {
    lr_mult: 1
    decay_mult: 1
  }
  param {
    lr_mult: 2
    decay_mult: 0
  }
  convolution_param {
    num_output: 256
    pad: 1
    kernel_size: 3
    stride: 1
  }
}
layer {
  name: "relu3_3"
  type: "ReLU"
  bottom: "conv3_3"
  top: "conv3_3"
}
layer {
  name: "pool3"
  type: "Pooling"
  bottom: "conv3_3"
  top: "pool3"
  pooling_param {
    pool: MAX
    kernel_size: 2
    stride: 2
  }
}
layer {
  name: "conv4_1"
  type: "Convolution"
  bottom: "pool3"
  top: "conv4_1"
  param {
    lr_mult: 1
    decay_mult: 1
  }
  param {
    lr_mult: 2
    decay_mult: 0
  }
  convolution_param {
    num_output: 512
    pad: 1
    kernel_size: 3
    stride: 1
  }
}
layer {
  name: "relu4_1"
  type: "ReLU"
  bottom: "conv4_1"
  top: "conv4_1"
}
layer {
  name: "conv4_2"
  type: "Convolution"
  bottom: "conv4_1"
  top: "conv4_2"
  param {
    lr_mult: 1
    decay_mult: 1
  }
  param {
    lr_mult: 2
    decay_mult: 0
  }
  convolution_param {
    num_output: 512
    pad: 1
    kernel_size: 3
    stride: 1
  }
}
layer {
  name: "relu4_2"
  type: "ReLU"
  bottom: "conv4_2"
  top: "conv4_2"
}
layer {
  name: "conv4_3"
  type: "Convolution"
  bottom: "conv4_2"
  top: "conv4_3"
  param {
    lr_mult: 1
    decay_mult: 1
  }
  param {
    lr_mult: 2
    decay_mult: 0
  }
  convolution_param {
    num_output: 512
    pad: 1
    kernel_size: 3
    stride: 1
  }
}
layer {
  name: "relu4_3"
  type: "ReLU"
  bottom: "conv4_3"
  top: "conv4_3"
}
layer {
  name: "pool4"
  type: "Pooling"
  bottom: "conv4_3"
  top: "pool4"
  pooling_param {
    pool: MAX
    kernel_size: 2
    stride: 2
  }
}
layer {
  name: "conv5_1"
  type: "Convolution"
  bottom: "pool4"
  top: "conv5_1"
  param {
    lr_mult: 1
    decay_mult: 1
  }
  param {
    lr_mult: 2
    decay_mult: 0
  }
  convolution_param {
    num_output: 512
    pad: 1
    kernel_size: 3
    stride: 1
  }
}
layer {
  name: "relu5_1"
  type: "ReLU"
  bottom: "conv5_1"
  top: "conv5_1"
}
layer {
  name: "conv5_2"
  type: "Convolution"
  bottom: "conv5_1"
  top: "conv5_2"
  param {
    lr_mult: 1
    decay_mult: 1
  }
  param {
    lr_mult: 2
    decay_mult: 0
  }
  convolution_param {
    num_output: 512
    pad: 1
    kernel_size: 3
    stride: 1
  }
}
layer {
  name: "relu5_2"
  type: "ReLU"
  bottom: "conv5_2"
  top: "conv5_2"
}
layer {
  name: "conv5_3"
  type: "Convolution"
  bottom: "conv5_2"
  top: "conv5_3"
  param {
    lr_mult: 1
    decay_mult: 1
  }
  param {
    lr_mult: 2
    decay_mult: 0
  }
  convolution_param {
    num_output: 512
    pad: 1
    kernel_size: 3
    stride: 1
  }
}
layer {
  name: "relu5_3"
  type: "ReLU"
  bottom: "conv5_3"
  top: "conv5_3"
}
layer {
  name: "pool5"
  type: "Pooling"
  bottom: "conv5_3"
  top: "pool5"
  pooling_param {
    pool: MAX
    kernel_size: 2
    stride: 2
  }
}
layer {
  name: "fc6"
  type: "Convolution"
  bottom: "pool5"
  top: "fc6"
  param {
    lr_mult: 1
    decay_mult: 1
  }
  param {
    lr_mult: 2
    decay_mult: 0
  }
  convolution_param {
    num_output: 4096
    pad: 0
    kernel_size: 7
    stride: 1
  }
}
layer {
  name: "relu6"
  type: "ReLU"
  bottom: "fc6"
  top: "fc6"
}
layer {
  name: "drop6"
  type: "Dropout"
  bottom: "fc6"
  top: "fc6"
  dropout_param {
    dropout_ratio: 0.5
  }
}
layer {
  name: "fc7"
  type: "Convolution"
  bottom: "fc6"
  top: "fc7"
  param {
    lr_mult: 1
    decay_mult: 1
  }
  param {
    lr_mult: 2
    decay_mult: 0
  }
  convolution_param {
    num_output: 4096
    pad: 0
    kernel_size: 1
    stride: 1
  }
}
layer {
  name: "relu7"
  type: "ReLU"
  bottom: "fc7"
  top: "fc7"
}
layer {
  name: "drop7"
  type: "Dropout"
  bottom: "fc7"
  top: "fc7"
  dropout_param {
    dropout_ratio: 0.5
  }
}
layer {
  name: "score_fr-new"
  type: "Convolution"
  bottom: "fc7"
  top: "score_fr-new"
  param {
    lr_mult: 1
    decay_mult: 1
  }
  param {
    lr_mult: 2
    decay_mult: 0
  }
  convolution_param {
    num_output: 3
    kernel_size: 1
  }
}
layer {
  name: "upscore2-new"
  type: "Deconvolution"
  bottom: "score_fr-new"
  top: "upscore2-new"
  param {
    lr_mult: 0
  }
  convolution_param {
    num_output: 3
    bias_term: false
    kernel_size: 4
    stride: 2
  }
}
layer {
  name: "score_pool4-new"
  type: "Convolution"
  bottom: "pool4"
  top: "score_pool4-new"
  param {
    lr_mult: 1
    decay_mult: 1
  }
  param {
    lr_mult: 2
    decay_mult: 0
  }
  convolution_param {
    num_output: 3
    pad: 0
    kernel_size: 1
  }
}
layer {
  name: "score_pool4c"
  type: "Crop"
  bottom: "score_pool4-new"
  bottom: "upscore2-new"
  top: "score_pool4c"
  crop_param {
    axis: 2
    offset: 5
  }
}
layer {
  name: "fuse_pool4"
  type: "Eltwise"
  bottom: "upscore2-new"
  bottom: "score_pool4c"
  top: "fuse_pool4"
  eltwise_param {
    operation: SUM
  }
}
layer {
  name: "upscore_pool4-new"
  type: "Deconvolution"
  bottom: "fuse_pool4"
  top: "upscore_pool4-new"
  param {
    lr_mult: 0
  }
  convolution_param {
    num_output: 3
    bias_term: false
    kernel_size: 4
    stride: 2
  }
}
layer {
  name: "score_pool3-new"
  type: "Convolution"
  bottom: "pool3"
  top: "score_pool3-new"
  param {
    lr_mult: 1
    decay_mult: 1
  }
  param {
    lr_mult: 2
    decay_mult: 0
  }
  convolution_param {
    num_output: 3
    pad: 0
    kernel_size: 1
  }
}
layer {
  name: "score_pool3c"
  type: "Crop"
  bottom: "score_pool3-new"
  bottom: "upscore_pool4-new"
  top: "score_pool3c"
  crop_param {
    axis: 2
    offset: 9
  }
}
layer {
  name: "fuse_pool3"
  type: "Eltwise"
  bottom: "upscore_pool4-new"
  bottom: "score_pool3c"
  top: "fuse_pool3"
  eltwise_param {
    operation: SUM
  }
}
layer {
  name: "upscore8-new"
  type: "Deconvolution"
  bottom: "fuse_pool3"
  top: "upscore8-new"
  param {
    lr_mult: 0
  }
  convolution_param {
    num_output: 3
    bias_term: false
    kernel_size: 16
    stride: 8
  }
}
layer {
  name: "upscore8_cropped"
  type: "Crop"
  bottom: "upscore8-new"
  bottom: "data"
  top: "upscore8_cropped"
  crop_param {
    axis: 2
    offset: 31
  }
}
layer {
  name: "score"
  type: "Convolution"
  bottom: "upscore8_cropped"
  top: "score"
  param {
    lr_mult: 1
    decay_mult: 1
  }
  param {
    lr_mult: 2
    decay_mult: 0
  }
  convolution_param {
    num_output: 3
    pad: 1
    kernel_size: 3
    stride: 1
  }
}
layer {
  name: "prob"
  type: "Sigmoid"
  bottom: "score"
  top: "prob"
}
layer {
  name: "saliency"
  type: "Convolution"
  bottom: "prob"
  top: "saliency"
  param {
    lr_mult: 10
    decay_mult: 1
  }
  param {
    lr_mult: 20
    decay_mult: 0
  }
  convolution_param {
    num_output: 3
    pad: 2
    kernel_size: 5
    stride: 1
  }
}
layer {
  name: "saliency_data"
  type: "Eltwise"
  bottom: "data"
  bottom: "saliency"
  top: "saliency_data"
  eltwise_param {
    operation: PROD
  }
}
layer {
  name: "crop"
  type: "Python"
  bottom: "prob"
  bottom: "saliency_data"
  bottom: "crop_margin"
  bottom: "crop_prob"
  bottom: "crop_sample_batch"
  bottom: "label"
  top: "data-R"
  top: "crop_info"
  python_param {
    module: "Crop"
    layer: "CropLayer"
    param_str: "{\"TEST\": 0}"
  }
}
layer {
  name: "conv1_1-R"
  type: "Convolution"
  bottom: "data-R"
  top: "conv1_1-R"
  param {
    lr_mult: 10
    decay_mult: 1
  }
  param {
    lr_mult: 20
    decay_mult: 0
  }
  convolution_param {
    num_output: 64
    pad: 100
    kernel_size: 3
    stride: 1
  }
}
layer {
  name: "relu1_1-R"
  type: "ReLU"
  bottom: "conv1_1-R"
  top: "conv1_1-R"
}
layer {
  name: "conv1_2-R"
  type: "Convolution"
  bottom: "conv1_1-R"
  top: "conv1_2-R"
  param {
    lr_mult: 10
    decay_mult: 1
  }
  param {
    lr_mult: 20
    decay_mult: 0
  }
  convolution_param {
    num_output: 64
    pad: 1
    kernel_size: 3
    stride: 1
  }
}
layer {
  name: "relu1_2-R"
  type: "ReLU"
  bottom: "conv1_2-R"
  top: "conv1_2-R"
}
layer {
  name: "pool1-R"
  type: "Pooling"
  bottom: "conv1_2-R"
  top: "pool1-R"
  pooling_param {
    pool: MAX
    kernel_size: 2
    stride: 2
  }
}
layer {
  name: "conv2_1-R"
  type: "Convolution"
  bottom: "pool1-R"
  top: "conv2_1-R"
  param {
    lr_mult: 10
    decay_mult: 1
  }
  param {
    lr_mult: 20
    decay_mult: 0
  }
  convolution_param {
    num_output: 128
    pad: 1
    kernel_size: 3
    stride: 1
  }
}
layer {
  name: "relu2_1-R"
  type: "ReLU"
  bottom: "conv2_1-R"
  top: "conv2_1-R"
}
layer {
  name: "conv2_2-R"
  type: "Convolution"
  bottom: "conv2_1-R"
  top: "conv2_2-R"
  param {
    lr_mult: 10
    decay_mult: 1
  }
  param {
    lr_mult: 20
    decay_mult: 0
  }
  convolution_param {
    num_output: 128
    pad: 1
    kernel_size: 3
    stride: 1
  }
}
layer {
  name: "relu2_2-R"
  type: "ReLU"
  bottom: "conv2_2-R"
  top: "conv2_2-R"
}
layer {
  name: "pool2-R"
  type: "Pooling"
  bottom: "conv2_2-R"
  top: "pool2-R"
  pooling_param {
    pool: MAX
    kernel_size: 2
    stride: 2
  }
}
layer {
  name: "conv3_1-R"
  type: "Convolution"
  bottom: "pool2-R"
  top: "conv3_1-R"
  param {
    lr_mult: 10
    decay_mult: 1
  }
  param {
    lr_mult: 20
    decay_mult: 0
  }
  convolution_param {
    num_output: 256
    pad: 1
    kernel_size: 3
    stride: 1
  }
}
layer {
  name: "relu3_1-R"
  type: "ReLU"
  bottom: "conv3_1-R"
  top: "conv3_1-R"
}
layer {
  name: "conv3_2-R"
  type: "Convolution"
  bottom: "conv3_1-R"
  top: "conv3_2-R"
  param {
    lr_mult: 10
    decay_mult: 1
  }
  param {
    lr_mult: 20
    decay_mult: 0
  }
  convolution_param {
    num_output: 256
    pad: 1
    kernel_size: 3
    stride: 1
  }
}
layer {
  name: "relu3_2-R"
  type: "ReLU"
  bottom: "conv3_2-R"
  top: "conv3_2-R"
}
layer {
  name: "conv3_3-R"
  type: "Convolution"
  bottom: "conv3_2-R"
  top: "conv3_3-R"
  param {
    lr_mult: 10
    decay_mult: 1
  }
  param {
    lr_mult: 20
    decay_mult: 0
  }
  convolution_param {
    num_output: 256
    pad: 1
    kernel_size: 3
    stride: 1
  }
}
layer {
  name: "relu3_3-R"
  type: "ReLU"
  bottom: "conv3_3-R"
  top: "conv3_3-R"
}
layer {
  name: "pool3-R"
  type: "Pooling"
  bottom: "conv3_3-R"
  top: "pool3-R"
  pooling_param {
    pool: MAX
    kernel_size: 2
    stride: 2
  }
}
layer {
  name: "conv4_1-R"
  type: "Convolution"
  bottom: "pool3-R"
  top: "conv4_1-R"
  param {
    lr_mult: 10
    decay_mult: 1
  }
  param {
    lr_mult: 20
    decay_mult: 0
  }
  convolution_param {
    num_output: 512
    pad: 1
    kernel_size: 3
    stride: 1
  }
}
layer {
  name: "relu4_1-R"
  type: "ReLU"
  bottom: "conv4_1-R"
  top: "conv4_1-R"
}
layer {
  name: "conv4_2-R"
  type: "Convolution"
  bottom: "conv4_1-R"
  top: "conv4_2-R"
  param {
    lr_mult: 10
    decay_mult: 1
  }
  param {
    lr_mult: 20
    decay_mult: 0
  }
  convolution_param {
    num_output: 512
    pad: 1
    kernel_size: 3
    stride: 1
  }
}
layer {
  name: "relu4_2-R"
  type: "ReLU"
  bottom: "conv4_2-R"
  top: "conv4_2-R"
}
layer {
  name: "conv4_3-R"
  type: "Convolution"
  bottom: "conv4_2-R"
  top: "conv4_3-R"
  param {
    lr_mult: 10
    decay_mult: 1
  }
  param {
    lr_mult: 20
    decay_mult: 0
  }
  convolution_param {
    num_output: 512
    pad: 1
    kernel_size: 3
    stride: 1
  }
}
layer {
  name: "relu4_3-R"
  type: "ReLU"
  bottom: "conv4_3-R"
  top: "conv4_3-R"
}
layer {
  name: "pool4-R"
  type: "Pooling"
  bottom: "conv4_3-R"
  top: "pool4-R"
  pooling_param {
    pool: MAX
    kernel_size: 2
    stride: 2
  }
}
layer {
  name: "conv5_1-R"
  type: "Convolution"
  bottom: "pool4-R"
  top: "conv5_1-R"
  param {
    lr_mult: 10
    decay_mult: 1
  }
  param {
    lr_mult: 20
    decay_mult: 0
  }
  convolution_param {
    num_output: 512
    pad: 1
    kernel_size: 3
    stride: 1
  }
}
layer {
  name: "relu5_1-R"
  type: "ReLU"
  bottom: "conv5_1-R"
  top: "conv5_1-R"
}
layer {
  name: "conv5_2-R"
  type: "Convolution"
  bottom: "conv5_1-R"
  top: "conv5_2-R"
  param {
    lr_mult: 10
    decay_mult: 1
  }
  param {
    lr_mult: 20
    decay_mult: 0
  }
  convolution_param {
    num_output: 512
    pad: 1
    kernel_size: 3
    stride: 1
  }
}
layer {
  name: "relu5_2-R"
  type: "ReLU"
  bottom: "conv5_2-R"
  top: "conv5_2-R"
}
layer {
  name: "conv5_3-R"
  type: "Convolution"
  bottom: "conv5_2-R"
  top: "conv5_3-R"
  param {
    lr_mult: 10
    decay_mult: 1
  }
  param {
    lr_mult: 20
    decay_mult: 0
  }
  convolution_param {
    num_output: 512
    pad: 1
    kernel_size: 3
    stride: 1
  }
}
layer {
  name: "relu5_3-R"
  type: "ReLU"
  bottom: "conv5_3-R"
  top: "conv5_3-R"
}
layer {
  name: "pool5-R"
  type: "Pooling"
  bottom: "conv5_3-R"
  top: "pool5-R"
  pooling_param {
    pool: MAX
    kernel_size: 2
    stride: 2
  }
}
layer {
  name: "fc6-R"
  type: "Convolution"
  bottom: "pool5-R"
  top: "fc6-R"
  param {
    lr_mult: 10
    decay_mult: 1
  }
  param {
    lr_mult: 20
    decay_mult: 0
  }
  convolution_param {
    num_output: 4096
    pad: 0
    kernel_size: 7
    stride: 1
  }
}
layer {
  name: "relu6-R"
  type: "ReLU"
  bottom: "fc6-R"
  top: "fc6-R"
}
layer {
  name: "drop6-R"
  type: "Dropout"
  bottom: "fc6-R"
  top: "fc6-R"
  dropout_param {
    dropout_ratio: 0.5
  }
}
layer {
  name: "fc7-R"
  type: "Convolution"
  bottom: "fc6-R"
  top: "fc7-R"
  param {
    lr_mult: 10
    decay_mult: 1
  }
  param {
    lr_mult: 20
    decay_mult: 0
  }
  convolution_param {
    num_output: 4096
    pad: 0
    kernel_size: 1
    stride: 1
  }
}
layer {
  name: "relu7-R"
  type: "ReLU"
  bottom: "fc7-R"
  top: "fc7-R"
}
layer {
  name: "drop7-R"
  type: "Dropout"
  bottom: "fc7-R"
  top: "fc7-R"
  dropout_param {
    dropout_ratio: 0.5
  }
}
layer {
  name: "score_fr-new-R"
  type: "Convolution"
  bottom: "fc7-R"
  top: "score_fr-new-R"
  param {
    lr_mult: 10
    decay_mult: 1
  }
  param {
    lr_mult: 20
    decay_mult: 0
  }
  convolution_param {
    num_output: 3
    kernel_size: 1
  }
}
layer {
  name: "upscore2-new-R"
  type: "Deconvolution"
  bottom: "score_fr-new-R"
  top: "upscore2-new-R"
  param {
    lr_mult: 0
  }
  convolution_param {
    num_output: 3
    bias_term: false
    kernel_size: 4
    stride: 2
  }
}
layer {
  name: "score_pool4-new-R"
  type: "Convolution"
  bottom: "pool4-R"
  top: "score_pool4-new-R"
  param {
    lr_mult: 10
    decay_mult: 1
  }
  param {
    lr_mult: 20
    decay_mult: 0
  }
  convolution_param {
    num_output: 3
    pad: 0
    kernel_size: 1
  }
}
layer {
  name: "score_pool4c-R"
  type: "Crop"
  bottom: "score_pool4-new-R"
  bottom: "upscore2-new-R"
  top: "score_pool4c-R"
  crop_param {
    axis: 2
    offset: 5
  }
}
layer {
  name: "fuse_pool4-R"
  type: "Eltwise"
  bottom: "upscore2-new-R"
  bottom: "score_pool4c-R"
  top: "fuse_pool4-R"
  eltwise_param {
    operation: SUM
  }
}
layer {
  name: "upscore_pool4-new-R"
  type: "Deconvolution"
  bottom: "fuse_pool4-R"
  top: "upscore_pool4-new-R"
  param {
    lr_mult: 0
  }
  convolution_param {
    num_output: 3
    bias_term: false
    kernel_size: 4
    stride: 2
  }
}
layer {
  name: "score_pool3-new-R"
  type: "Convolution"
  bottom: "pool3-R"
  top: "score_pool3-new-R"
  param {
    lr_mult: 10
    decay_mult: 1
  }
  param {
    lr_mult: 20
    decay_mult: 0
  }
  convolution_param {
    num_output: 3
    pad: 0
    kernel_size: 1
  }
}
layer {
  name: "score_pool3c-R"
  type: "Crop"
  bottom: "score_pool3-new-R"
  bottom: "upscore_pool4-new-R"
  top: "score_pool3c-R"
  crop_param {
    axis: 2
    offset: 9
  }
}
layer {
  name: "fuse_pool3-R"
  type: "Eltwise"
  bottom: "upscore_pool4-new-R"
  bottom: "score_pool3c-R"
  top: "fuse_pool3-R"
  eltwise_param {
    operation: SUM
  }
}
layer {
  name: "upscore8-new-R"
  type: "Deconvolution"
  bottom: "fuse_pool3-R"
  top: "upscore8-new-R"
  param {
    lr_mult: 0
  }
  convolution_param {
    num_output: 3
    bias_term: false
    kernel_size: 16
    stride: 8
  }
}
layer {
  name: "upscore8_cropped-R"
  type: "Crop"
  bottom: "upscore8-new-R"
  bottom: "data-R"
  top: "upscore8_cropped-R"
  crop_param {
    axis: 2
    offset: 31
  }
}
layer {
  name: "score-R"
  type: "Convolution"
  bottom: "upscore8_cropped-R"
  top: "score-R"
  param {
    lr_mult: 10
    decay_mult: 1
  }
  param {
    lr_mult: 20
    decay_mult: 0
  }
  convolution_param {
    num_output: 3
    pad: 1
    kernel_size: 3
    stride: 1
  }
}
layer {
  name: "score_uncropped-R"
  type: "Python"
  bottom: "crop_info"
  bottom: "score-R"
  bottom: "data"
  top: "score_uncropped-R"
  python_param {
    module: "Uncrop"
    layer: "UncropLayer"
  }
}
layer {
  name: "loss1"
  type: "DiceLoss"
  bottom: "score"
  bottom: "label"
  top: "loss1"
  loss_weight: 0.333333
}
layer {
  name: "loss2"
  type: "DiceLoss"
  bottom: "score_uncropped-R"
  bottom: "label"
  top: "loss2"
  loss_weight: 0.666667
}
I0419 08:37:12.571720 28639 layer_factory.hpp:77] Creating layer data
I0419 08:37:12.572449 28639 net.cpp:84] Creating Layer data
I0419 08:37:12.572471 28639 net.cpp:380] data -> data
I0419 08:37:12.572496 28639 net.cpp:380] data -> label
I0419 08:37:12.572510 28639 net.cpp:380] data -> crop_margin
I0419 08:37:12.572521 28639 net.cpp:380] data -> crop_prob
I0419 08:37:12.572532 28639 net.cpp:380] data -> crop_sample_batch
I0419 08:37:12.769309 28639 net.cpp:122] Setting up data
I0419 08:37:12.769362 28639 net.cpp:129] Top shape: 1 3 512 310 (476160)
I0419 08:37:12.769369 28639 net.cpp:129] Top shape: 1 3 512 310 (476160)
I0419 08:37:12.769377 28639 net.cpp:129] Top shape: 1 (1)
I0419 08:37:12.769382 28639 net.cpp:129] Top shape: 1 (1)
I0419 08:37:12.769387 28639 net.cpp:129] Top shape: 1 (1)
I0419 08:37:12.769390 28639 net.cpp:137] Memory required for data: 3809292
I0419 08:37:12.769399 28639 layer_factory.hpp:77] Creating layer data_data_0_split
I0419 08:37:12.769429 28639 net.cpp:84] Creating Layer data_data_0_split
I0419 08:37:12.769435 28639 net.cpp:406] data_data_0_split <- data
I0419 08:37:12.769449 28639 net.cpp:380] data_data_0_split -> data_data_0_split_0
I0419 08:37:12.769464 28639 net.cpp:380] data_data_0_split -> data_data_0_split_1
I0419 08:37:12.769471 28639 net.cpp:380] data_data_0_split -> data_data_0_split_2
I0419 08:37:12.769479 28639 net.cpp:380] data_data_0_split -> data_data_0_split_3
I0419 08:37:12.769541 28639 net.cpp:122] Setting up data_data_0_split
I0419 08:37:12.769554 28639 net.cpp:129] Top shape: 1 3 512 310 (476160)
I0419 08:37:12.769559 28639 net.cpp:129] Top shape: 1 3 512 310 (476160)
I0419 08:37:12.769564 28639 net.cpp:129] Top shape: 1 3 512 310 (476160)
I0419 08:37:12.769569 28639 net.cpp:129] Top shape: 1 3 512 310 (476160)
I0419 08:37:12.769573 28639 net.cpp:137] Memory required for data: 11427852
I0419 08:37:12.769577 28639 layer_factory.hpp:77] Creating layer label_data_1_split
I0419 08:37:12.769595 28639 net.cpp:84] Creating Layer label_data_1_split
I0419 08:37:12.769599 28639 net.cpp:406] label_data_1_split <- label
I0419 08:37:12.769608 28639 net.cpp:380] label_data_1_split -> label_data_1_split_0
I0419 08:37:12.769616 28639 net.cpp:380] label_data_1_split -> label_data_1_split_1
I0419 08:37:12.769623 28639 net.cpp:380] label_data_1_split -> label_data_1_split_2
I0419 08:37:12.769665 28639 net.cpp:122] Setting up label_data_1_split
I0419 08:37:12.769670 28639 net.cpp:129] Top shape: 1 3 512 310 (476160)
I0419 08:37:12.769675 28639 net.cpp:129] Top shape: 1 3 512 310 (476160)
I0419 08:37:12.769680 28639 net.cpp:129] Top shape: 1 3 512 310 (476160)
I0419 08:37:12.769683 28639 net.cpp:137] Memory required for data: 17141772
I0419 08:37:12.769687 28639 layer_factory.hpp:77] Creating layer conv1_1
I0419 08:37:12.769706 28639 net.cpp:84] Creating Layer conv1_1
I0419 08:37:12.769711 28639 net.cpp:406] conv1_1 <- data_data_0_split_0
I0419 08:37:12.769717 28639 net.cpp:380] conv1_1 -> conv1_1
I0419 08:37:13.148739 28639 net.cpp:122] Setting up conv1_1
I0419 08:37:13.148797 28639 net.cpp:129] Top shape: 1 64 710 508 (23083520)
I0419 08:37:13.148805 28639 net.cpp:137] Memory required for data: 109475852
I0419 08:37:13.148850 28639 layer_factory.hpp:77] Creating layer relu1_1
I0419 08:37:13.148886 28639 net.cpp:84] Creating Layer relu1_1
I0419 08:37:13.148897 28639 net.cpp:406] relu1_1 <- conv1_1
I0419 08:37:13.148910 28639 net.cpp:367] relu1_1 -> conv1_1 (in-place)
I0419 08:37:13.149313 28639 net.cpp:122] Setting up relu1_1
I0419 08:37:13.149335 28639 net.cpp:129] Top shape: 1 64 710 508 (23083520)
I0419 08:37:13.149343 28639 net.cpp:137] Memory required for data: 201809932
I0419 08:37:13.149350 28639 layer_factory.hpp:77] Creating layer conv1_2
I0419 08:37:13.149370 28639 net.cpp:84] Creating Layer conv1_2
I0419 08:37:13.149377 28639 net.cpp:406] conv1_2 <- conv1_1
I0419 08:37:13.149389 28639 net.cpp:380] conv1_2 -> conv1_2
I0419 08:37:13.155884 28639 net.cpp:122] Setting up conv1_2
I0419 08:37:13.155902 28639 net.cpp:129] Top shape: 1 64 710 508 (23083520)
I0419 08:37:13.155918 28639 net.cpp:137] Memory required for data: 294144012
I0419 08:37:13.155930 28639 layer_factory.hpp:77] Creating layer relu1_2
I0419 08:37:13.155939 28639 net.cpp:84] Creating Layer relu1_2
I0419 08:37:13.155944 28639 net.cpp:406] relu1_2 <- conv1_2
I0419 08:37:13.155951 28639 net.cpp:367] relu1_2 -> conv1_2 (in-place)
I0419 08:37:13.156165 28639 net.cpp:122] Setting up relu1_2
I0419 08:37:13.156179 28639 net.cpp:129] Top shape: 1 64 710 508 (23083520)
I0419 08:37:13.156183 28639 net.cpp:137] Memory required for data: 386478092
I0419 08:37:13.156188 28639 layer_factory.hpp:77] Creating layer pool1
I0419 08:37:13.156198 28639 net.cpp:84] Creating Layer pool1
I0419 08:37:13.156201 28639 net.cpp:406] pool1 <- conv1_2
I0419 08:37:13.156208 28639 net.cpp:380] pool1 -> pool1
I0419 08:37:13.156270 28639 net.cpp:122] Setting up pool1
I0419 08:37:13.156280 28639 net.cpp:129] Top shape: 1 64 355 254 (5770880)
I0419 08:37:13.156283 28639 net.cpp:137] Memory required for data: 409561612
I0419 08:37:13.156287 28639 layer_factory.hpp:77] Creating layer conv2_1
I0419 08:37:13.156298 28639 net.cpp:84] Creating Layer conv2_1
I0419 08:37:13.156302 28639 net.cpp:406] conv2_1 <- pool1
I0419 08:37:13.156309 28639 net.cpp:380] conv2_1 -> conv2_1
I0419 08:37:13.158183 28639 net.cpp:122] Setting up conv2_1
I0419 08:37:13.158200 28639 net.cpp:129] Top shape: 1 128 355 254 (11541760)
I0419 08:37:13.158205 28639 net.cpp:137] Memory required for data: 455728652
I0419 08:37:13.158221 28639 layer_factory.hpp:77] Creating layer relu2_1
I0419 08:37:13.158229 28639 net.cpp:84] Creating Layer relu2_1
I0419 08:37:13.158234 28639 net.cpp:406] relu2_1 <- conv2_1
I0419 08:37:13.158241 28639 net.cpp:367] relu2_1 -> conv2_1 (in-place)
I0419 08:37:13.158447 28639 net.cpp:122] Setting up relu2_1
I0419 08:37:13.158458 28639 net.cpp:129] Top shape: 1 128 355 254 (11541760)
I0419 08:37:13.158463 28639 net.cpp:137] Memory required for data: 501895692
I0419 08:37:13.158468 28639 layer_factory.hpp:77] Creating layer conv2_2
I0419 08:37:13.158476 28639 net.cpp:84] Creating Layer conv2_2
I0419 08:37:13.158480 28639 net.cpp:406] conv2_2 <- conv2_1
I0419 08:37:13.158488 28639 net.cpp:380] conv2_2 -> conv2_2
I0419 08:37:13.169224 28639 net.cpp:122] Setting up conv2_2
I0419 08:37:13.169245 28639 net.cpp:129] Top shape: 1 128 355 254 (11541760)
I0419 08:37:13.169250 28639 net.cpp:137] Memory required for data: 548062732
I0419 08:37:13.169265 28639 layer_factory.hpp:77] Creating layer relu2_2
I0419 08:37:13.169272 28639 net.cpp:84] Creating Layer relu2_2
I0419 08:37:13.169278 28639 net.cpp:406] relu2_2 <- conv2_2
I0419 08:37:13.169284 28639 net.cpp:367] relu2_2 -> conv2_2 (in-place)
I0419 08:37:13.169497 28639 net.cpp:122] Setting up relu2_2
I0419 08:37:13.169510 28639 net.cpp:129] Top shape: 1 128 355 254 (11541760)
I0419 08:37:13.169514 28639 net.cpp:137] Memory required for data: 594229772
I0419 08:37:13.169519 28639 layer_factory.hpp:77] Creating layer pool2
I0419 08:37:13.169528 28639 net.cpp:84] Creating Layer pool2
I0419 08:37:13.169531 28639 net.cpp:406] pool2 <- conv2_2
I0419 08:37:13.169539 28639 net.cpp:380] pool2 -> pool2
I0419 08:37:13.169589 28639 net.cpp:122] Setting up pool2
I0419 08:37:13.169595 28639 net.cpp:129] Top shape: 1 128 178 127 (2893568)
I0419 08:37:13.169600 28639 net.cpp:137] Memory required for data: 605804044
I0419 08:37:13.169603 28639 layer_factory.hpp:77] Creating layer conv3_1
I0419 08:37:13.169613 28639 net.cpp:84] Creating Layer conv3_1
I0419 08:37:13.169617 28639 net.cpp:406] conv3_1 <- pool2
I0419 08:37:13.169625 28639 net.cpp:380] conv3_1 -> conv3_1
I0419 08:37:13.174728 28639 net.cpp:122] Setting up conv3_1
I0419 08:37:13.174767 28639 net.cpp:129] Top shape: 1 256 178 127 (5787136)
I0419 08:37:13.174777 28639 net.cpp:137] Memory required for data: 628952588
I0419 08:37:13.174796 28639 layer_factory.hpp:77] Creating layer relu3_1
I0419 08:37:13.174810 28639 net.cpp:84] Creating Layer relu3_1
I0419 08:37:13.174818 28639 net.cpp:406] relu3_1 <- conv3_1
I0419 08:37:13.174829 28639 net.cpp:367] relu3_1 -> conv3_1 (in-place)
I0419 08:37:13.175823 28639 net.cpp:122] Setting up relu3_1
I0419 08:37:13.175863 28639 net.cpp:129] Top shape: 1 256 178 127 (5787136)
I0419 08:37:13.175870 28639 net.cpp:137] Memory required for data: 652101132
I0419 08:37:13.175878 28639 layer_factory.hpp:77] Creating layer conv3_2
I0419 08:37:13.175897 28639 net.cpp:84] Creating Layer conv3_2
I0419 08:37:13.175905 28639 net.cpp:406] conv3_2 <- conv3_1
I0419 08:37:13.175921 28639 net.cpp:380] conv3_2 -> conv3_2
I0419 08:37:13.190596 28639 net.cpp:122] Setting up conv3_2
I0419 08:37:13.190656 28639 net.cpp:129] Top shape: 1 256 178 127 (5787136)
I0419 08:37:13.190666 28639 net.cpp:137] Memory required for data: 675249676
I0419 08:37:13.190687 28639 layer_factory.hpp:77] Creating layer relu3_2
I0419 08:37:13.190723 28639 net.cpp:84] Creating Layer relu3_2
I0419 08:37:13.190734 28639 net.cpp:406] relu3_2 <- conv3_2
I0419 08:37:13.190747 28639 net.cpp:367] relu3_2 -> conv3_2 (in-place)
I0419 08:37:13.191789 28639 net.cpp:122] Setting up relu3_2
I0419 08:37:13.191828 28639 net.cpp:129] Top shape: 1 256 178 127 (5787136)
I0419 08:37:13.191836 28639 net.cpp:137] Memory required for data: 698398220
I0419 08:37:13.191843 28639 layer_factory.hpp:77] Creating layer conv3_3
I0419 08:37:13.191865 28639 net.cpp:84] Creating Layer conv3_3
I0419 08:37:13.191884 28639 net.cpp:406] conv3_3 <- conv3_2
I0419 08:37:13.191900 28639 net.cpp:380] conv3_3 -> conv3_3
I0419 08:37:13.198132 28639 net.cpp:122] Setting up conv3_3
I0419 08:37:13.198173 28639 net.cpp:129] Top shape: 1 256 178 127 (5787136)
I0419 08:37:13.198181 28639 net.cpp:137] Memory required for data: 721546764
I0419 08:37:13.198204 28639 layer_factory.hpp:77] Creating layer relu3_3
I0419 08:37:13.198215 28639 net.cpp:84] Creating Layer relu3_3
I0419 08:37:13.198223 28639 net.cpp:406] relu3_3 <- conv3_3
I0419 08:37:13.198253 28639 net.cpp:367] relu3_3 -> conv3_3 (in-place)
I0419 08:37:13.198675 28639 net.cpp:122] Setting up relu3_3
I0419 08:37:13.198695 28639 net.cpp:129] Top shape: 1 256 178 127 (5787136)
I0419 08:37:13.198714 28639 net.cpp:137] Memory required for data: 744695308
I0419 08:37:13.198732 28639 layer_factory.hpp:77] Creating layer pool3
I0419 08:37:13.198745 28639 net.cpp:84] Creating Layer pool3
I0419 08:37:13.198753 28639 net.cpp:406] pool3 <- conv3_3
I0419 08:37:13.198781 28639 net.cpp:380] pool3 -> pool3
I0419 08:37:13.198876 28639 net.cpp:122] Setting up pool3
I0419 08:37:13.198895 28639 net.cpp:129] Top shape: 1 256 89 64 (1458176)
I0419 08:37:13.198902 28639 net.cpp:137] Memory required for data: 750528012
I0419 08:37:13.198909 28639 layer_factory.hpp:77] Creating layer pool3_pool3_0_split
I0419 08:37:13.198920 28639 net.cpp:84] Creating Layer pool3_pool3_0_split
I0419 08:37:13.198926 28639 net.cpp:406] pool3_pool3_0_split <- pool3
I0419 08:37:13.198936 28639 net.cpp:380] pool3_pool3_0_split -> pool3_pool3_0_split_0
I0419 08:37:13.198947 28639 net.cpp:380] pool3_pool3_0_split -> pool3_pool3_0_split_1
I0419 08:37:13.199019 28639 net.cpp:122] Setting up pool3_pool3_0_split
I0419 08:37:13.199038 28639 net.cpp:129] Top shape: 1 256 89 64 (1458176)
I0419 08:37:13.199046 28639 net.cpp:129] Top shape: 1 256 89 64 (1458176)
I0419 08:37:13.199053 28639 net.cpp:137] Memory required for data: 762193420
I0419 08:37:13.199059 28639 layer_factory.hpp:77] Creating layer conv4_1
I0419 08:37:13.199075 28639 net.cpp:84] Creating Layer conv4_1
I0419 08:37:13.199082 28639 net.cpp:406] conv4_1 <- pool3_pool3_0_split_0
I0419 08:37:13.199097 28639 net.cpp:380] conv4_1 -> conv4_1
I0419 08:37:13.211925 28639 net.cpp:122] Setting up conv4_1
I0419 08:37:13.211977 28639 net.cpp:129] Top shape: 1 512 89 64 (2916352)
I0419 08:37:13.211987 28639 net.cpp:137] Memory required for data: 773858828
I0419 08:37:13.212003 28639 layer_factory.hpp:77] Creating layer relu4_1
I0419 08:37:13.212019 28639 net.cpp:84] Creating Layer relu4_1
I0419 08:37:13.212041 28639 net.cpp:406] relu4_1 <- conv4_1
I0419 08:37:13.212054 28639 net.cpp:367] relu4_1 -> conv4_1 (in-place)
I0419 08:37:13.212484 28639 net.cpp:122] Setting up relu4_1
I0419 08:37:13.212507 28639 net.cpp:129] Top shape: 1 512 89 64 (2916352)
I0419 08:37:13.212514 28639 net.cpp:137] Memory required for data: 785524236
I0419 08:37:13.212522 28639 layer_factory.hpp:77] Creating layer conv4_2
I0419 08:37:13.212550 28639 net.cpp:84] Creating Layer conv4_2
I0419 08:37:13.212569 28639 net.cpp:406] conv4_2 <- conv4_1
I0419 08:37:13.212585 28639 net.cpp:380] conv4_2 -> conv4_2
I0419 08:37:13.223134 28639 net.cpp:122] Setting up conv4_2
I0419 08:37:13.223155 28639 net.cpp:129] Top shape: 1 512 89 64 (2916352)
I0419 08:37:13.223160 28639 net.cpp:137] Memory required for data: 797189644
I0419 08:37:13.223179 28639 layer_factory.hpp:77] Creating layer relu4_2
I0419 08:37:13.223203 28639 net.cpp:84] Creating Layer relu4_2
I0419 08:37:13.223211 28639 net.cpp:406] relu4_2 <- conv4_2
I0419 08:37:13.223217 28639 net.cpp:367] relu4_2 -> conv4_2 (in-place)
I0419 08:37:13.223469 28639 net.cpp:122] Setting up relu4_2
I0419 08:37:13.223480 28639 net.cpp:129] Top shape: 1 512 89 64 (2916352)
I0419 08:37:13.223484 28639 net.cpp:137] Memory required for data: 808855052
I0419 08:37:13.223489 28639 layer_factory.hpp:77] Creating layer conv4_3
I0419 08:37:13.223501 28639 net.cpp:84] Creating Layer conv4_3
I0419 08:37:13.223506 28639 net.cpp:406] conv4_3 <- conv4_2
I0419 08:37:13.223515 28639 net.cpp:380] conv4_3 -> conv4_3
I0419 08:37:13.232322 28639 net.cpp:122] Setting up conv4_3
I0419 08:37:13.232343 28639 net.cpp:129] Top shape: 1 512 89 64 (2916352)
I0419 08:37:13.232348 28639 net.cpp:137] Memory required for data: 820520460
I0419 08:37:13.232359 28639 layer_factory.hpp:77] Creating layer relu4_3
I0419 08:37:13.232368 28639 net.cpp:84] Creating Layer relu4_3
I0419 08:37:13.232375 28639 net.cpp:406] relu4_3 <- conv4_3
I0419 08:37:13.232386 28639 net.cpp:367] relu4_3 -> conv4_3 (in-place)
I0419 08:37:13.232607 28639 net.cpp:122] Setting up relu4_3
I0419 08:37:13.232622 28639 net.cpp:129] Top shape: 1 512 89 64 (2916352)
I0419 08:37:13.232627 28639 net.cpp:137] Memory required for data: 832185868
I0419 08:37:13.232631 28639 layer_factory.hpp:77] Creating layer pool4
I0419 08:37:13.232640 28639 net.cpp:84] Creating Layer pool4
I0419 08:37:13.232645 28639 net.cpp:406] pool4 <- conv4_3
I0419 08:37:13.232661 28639 net.cpp:380] pool4 -> pool4
I0419 08:37:13.232717 28639 net.cpp:122] Setting up pool4
I0419 08:37:13.232725 28639 net.cpp:129] Top shape: 1 512 45 32 (737280)
I0419 08:37:13.232729 28639 net.cpp:137] Memory required for data: 835134988
I0419 08:37:13.232733 28639 layer_factory.hpp:77] Creating layer pool4_pool4_0_split
I0419 08:37:13.232740 28639 net.cpp:84] Creating Layer pool4_pool4_0_split
I0419 08:37:13.232744 28639 net.cpp:406] pool4_pool4_0_split <- pool4
I0419 08:37:13.232750 28639 net.cpp:380] pool4_pool4_0_split -> pool4_pool4_0_split_0
I0419 08:37:13.232758 28639 net.cpp:380] pool4_pool4_0_split -> pool4_pool4_0_split_1
I0419 08:37:13.232801 28639 net.cpp:122] Setting up pool4_pool4_0_split
I0419 08:37:13.232807 28639 net.cpp:129] Top shape: 1 512 45 32 (737280)
I0419 08:37:13.232812 28639 net.cpp:129] Top shape: 1 512 45 32 (737280)
I0419 08:37:13.232815 28639 net.cpp:137] Memory required for data: 841033228
I0419 08:37:13.232820 28639 layer_factory.hpp:77] Creating layer conv5_1
I0419 08:37:13.232831 28639 net.cpp:84] Creating Layer conv5_1
I0419 08:37:13.232836 28639 net.cpp:406] conv5_1 <- pool4_pool4_0_split_0
I0419 08:37:13.232844 28639 net.cpp:380] conv5_1 -> conv5_1
I0419 08:37:13.242269 28639 net.cpp:122] Setting up conv5_1
I0419 08:37:13.242292 28639 net.cpp:129] Top shape: 1 512 45 32 (737280)
I0419 08:37:13.242297 28639 net.cpp:137] Memory required for data: 843982348
I0419 08:37:13.242307 28639 layer_factory.hpp:77] Creating layer relu5_1
I0419 08:37:13.242318 28639 net.cpp:84] Creating Layer relu5_1
I0419 08:37:13.242331 28639 net.cpp:406] relu5_1 <- conv5_1
I0419 08:37:13.242341 28639 net.cpp:367] relu5_1 -> conv5_1 (in-place)
I0419 08:37:13.243005 28639 net.cpp:122] Setting up relu5_1
I0419 08:37:13.243026 28639 net.cpp:129] Top shape: 1 512 45 32 (737280)
I0419 08:37:13.243031 28639 net.cpp:137] Memory required for data: 846931468
I0419 08:37:13.243036 28639 layer_factory.hpp:77] Creating layer conv5_2
I0419 08:37:13.243048 28639 net.cpp:84] Creating Layer conv5_2
I0419 08:37:13.243053 28639 net.cpp:406] conv5_2 <- conv5_1
I0419 08:37:13.243062 28639 net.cpp:380] conv5_2 -> conv5_2
I0419 08:37:13.251421 28639 net.cpp:122] Setting up conv5_2
I0419 08:37:13.251441 28639 net.cpp:129] Top shape: 1 512 45 32 (737280)
I0419 08:37:13.251456 28639 net.cpp:137] Memory required for data: 849880588
I0419 08:37:13.251466 28639 layer_factory.hpp:77] Creating layer relu5_2
I0419 08:37:13.251487 28639 net.cpp:84] Creating Layer relu5_2
I0419 08:37:13.251492 28639 net.cpp:406] relu5_2 <- conv5_2
I0419 08:37:13.251499 28639 net.cpp:367] relu5_2 -> conv5_2 (in-place)
I0419 08:37:13.252190 28639 net.cpp:122] Setting up relu5_2
I0419 08:37:13.252207 28639 net.cpp:129] Top shape: 1 512 45 32 (737280)
I0419 08:37:13.252212 28639 net.cpp:137] Memory required for data: 852829708
I0419 08:37:13.252215 28639 layer_factory.hpp:77] Creating layer conv5_3
I0419 08:37:13.252230 28639 net.cpp:84] Creating Layer conv5_3
I0419 08:37:13.252235 28639 net.cpp:406] conv5_3 <- conv5_2
I0419 08:37:13.252256 28639 net.cpp:380] conv5_3 -> conv5_3
I0419 08:37:13.266571 28639 net.cpp:122] Setting up conv5_3
I0419 08:37:13.266644 28639 net.cpp:129] Top shape: 1 512 45 32 (737280)
I0419 08:37:13.266651 28639 net.cpp:137] Memory required for data: 855778828
I0419 08:37:13.266671 28639 layer_factory.hpp:77] Creating layer relu5_3
I0419 08:37:13.266701 28639 net.cpp:84] Creating Layer relu5_3
I0419 08:37:13.266712 28639 net.cpp:406] relu5_3 <- conv5_3
I0419 08:37:13.266724 28639 net.cpp:367] relu5_3 -> conv5_3 (in-place)
I0419 08:37:13.267139 28639 net.cpp:122] Setting up relu5_3
I0419 08:37:13.267160 28639 net.cpp:129] Top shape: 1 512 45 32 (737280)
I0419 08:37:13.267179 28639 net.cpp:137] Memory required for data: 858727948
I0419 08:37:13.267185 28639 layer_factory.hpp:77] Creating layer pool5
I0419 08:37:13.267213 28639 net.cpp:84] Creating Layer pool5
I0419 08:37:13.267220 28639 net.cpp:406] pool5 <- conv5_3
I0419 08:37:13.267243 28639 net.cpp:380] pool5 -> pool5
I0419 08:37:13.267343 28639 net.cpp:122] Setting up pool5
I0419 08:37:13.267357 28639 net.cpp:129] Top shape: 1 512 23 16 (188416)
I0419 08:37:13.267364 28639 net.cpp:137] Memory required for data: 859481612
I0419 08:37:13.267370 28639 layer_factory.hpp:77] Creating layer fc6
I0419 08:37:13.267390 28639 net.cpp:84] Creating Layer fc6
I0419 08:37:13.267398 28639 net.cpp:406] fc6 <- pool5
I0419 08:37:13.267412 28639 net.cpp:380] fc6 -> fc6
I0419 08:37:13.577625 28639 net.cpp:122] Setting up fc6
I0419 08:37:13.577679 28639 net.cpp:129] Top shape: 1 4096 17 10 (696320)
I0419 08:37:13.577684 28639 net.cpp:137] Memory required for data: 862266892
I0419 08:37:13.577702 28639 layer_factory.hpp:77] Creating layer relu6
I0419 08:37:13.577720 28639 net.cpp:84] Creating Layer relu6
I0419 08:37:13.577726 28639 net.cpp:406] relu6 <- fc6
I0419 08:37:13.577751 28639 net.cpp:367] relu6 -> fc6 (in-place)
I0419 08:37:13.577970 28639 net.cpp:122] Setting up relu6
I0419 08:37:13.577981 28639 net.cpp:129] Top shape: 1 4096 17 10 (696320)
I0419 08:37:13.577985 28639 net.cpp:137] Memory required for data: 865052172
I0419 08:37:13.577988 28639 layer_factory.hpp:77] Creating layer drop6
I0419 08:37:13.578002 28639 net.cpp:84] Creating Layer drop6
I0419 08:37:13.578006 28639 net.cpp:406] drop6 <- fc6
I0419 08:37:13.578014 28639 net.cpp:367] drop6 -> fc6 (in-place)
I0419 08:37:13.578047 28639 net.cpp:122] Setting up drop6
I0419 08:37:13.578059 28639 net.cpp:129] Top shape: 1 4096 17 10 (696320)
I0419 08:37:13.578063 28639 net.cpp:137] Memory required for data: 867837452
I0419 08:37:13.578065 28639 layer_factory.hpp:77] Creating layer fc7
I0419 08:37:13.578079 28639 net.cpp:84] Creating Layer fc7
I0419 08:37:13.578083 28639 net.cpp:406] fc7 <- fc6
I0419 08:37:13.578091 28639 net.cpp:380] fc7 -> fc7
I0419 08:37:13.632439 28639 net.cpp:122] Setting up fc7
I0419 08:37:13.632506 28639 net.cpp:129] Top shape: 1 4096 17 10 (696320)
I0419 08:37:13.632515 28639 net.cpp:137] Memory required for data: 870622732
I0419 08:37:13.632614 28639 layer_factory.hpp:77] Creating layer relu7
I0419 08:37:13.632649 28639 net.cpp:84] Creating Layer relu7
I0419 08:37:13.632663 28639 net.cpp:406] relu7 <- fc7
I0419 08:37:13.632684 28639 net.cpp:367] relu7 -> fc7 (in-place)
I0419 08:37:13.633208 28639 net.cpp:122] Setting up relu7
I0419 08:37:13.633236 28639 net.cpp:129] Top shape: 1 4096 17 10 (696320)
I0419 08:37:13.633252 28639 net.cpp:137] Memory required for data: 873408012
I0419 08:37:13.633260 28639 layer_factory.hpp:77] Creating layer drop7
I0419 08:37:13.633285 28639 net.cpp:84] Creating Layer drop7
I0419 08:37:13.633292 28639 net.cpp:406] drop7 <- fc7
I0419 08:37:13.633302 28639 net.cpp:367] drop7 -> fc7 (in-place)
I0419 08:37:13.633383 28639 net.cpp:122] Setting up drop7
I0419 08:37:13.633396 28639 net.cpp:129] Top shape: 1 4096 17 10 (696320)
I0419 08:37:13.633404 28639 net.cpp:137] Memory required for data: 876193292
I0419 08:37:13.633410 28639 layer_factory.hpp:77] Creating layer score_fr-new
I0419 08:37:13.633428 28639 net.cpp:84] Creating Layer score_fr-new
I0419 08:37:13.633435 28639 net.cpp:406] score_fr-new <- fc7
I0419 08:37:13.633460 28639 net.cpp:380] score_fr-new -> score_fr-new
I0419 08:37:13.637804 28639 net.cpp:122] Setting up score_fr-new
I0419 08:37:13.637845 28639 net.cpp:129] Top shape: 1 3 17 10 (510)
I0419 08:37:13.637852 28639 net.cpp:137] Memory required for data: 876195332
I0419 08:37:13.637867 28639 layer_factory.hpp:77] Creating layer upscore2-new
I0419 08:37:13.637907 28639 net.cpp:84] Creating Layer upscore2-new
I0419 08:37:13.637917 28639 net.cpp:406] upscore2-new <- score_fr-new
I0419 08:37:13.637930 28639 net.cpp:380] upscore2-new -> upscore2-new
I0419 08:37:13.638415 28639 net.cpp:122] Setting up upscore2-new
I0419 08:37:13.638433 28639 net.cpp:129] Top shape: 1 3 36 22 (2376)
I0419 08:37:13.638448 28639 net.cpp:137] Memory required for data: 876204836
I0419 08:37:13.638499 28639 layer_factory.hpp:77] Creating layer upscore2-new_upscore2-new_0_split
I0419 08:37:13.638522 28639 net.cpp:84] Creating Layer upscore2-new_upscore2-new_0_split
I0419 08:37:13.638537 28639 net.cpp:406] upscore2-new_upscore2-new_0_split <- upscore2-new
I0419 08:37:13.638569 28639 net.cpp:380] upscore2-new_upscore2-new_0_split -> upscore2-new_upscore2-new_0_split_0
I0419 08:37:13.638582 28639 net.cpp:380] upscore2-new_upscore2-new_0_split -> upscore2-new_upscore2-new_0_split_1
I0419 08:37:13.638682 28639 net.cpp:122] Setting up upscore2-new_upscore2-new_0_split
I0419 08:37:13.638697 28639 net.cpp:129] Top shape: 1 3 36 22 (2376)
I0419 08:37:13.638706 28639 net.cpp:129] Top shape: 1 3 36 22 (2376)
I0419 08:37:13.638712 28639 net.cpp:137] Memory required for data: 876223844
I0419 08:37:13.638720 28639 layer_factory.hpp:77] Creating layer score_pool4-new
I0419 08:37:13.638744 28639 net.cpp:84] Creating Layer score_pool4-new
I0419 08:37:13.638753 28639 net.cpp:406] score_pool4-new <- pool4_pool4_0_split_1
I0419 08:37:13.638764 28639 net.cpp:380] score_pool4-new -> score_pool4-new
I0419 08:37:13.641568 28639 net.cpp:122] Setting up score_pool4-new
I0419 08:37:13.641618 28639 net.cpp:129] Top shape: 1 3 45 32 (4320)
I0419 08:37:13.641630 28639 net.cpp:137] Memory required for data: 876241124
I0419 08:37:13.641652 28639 layer_factory.hpp:77] Creating layer score_pool4c
I0419 08:37:13.641682 28639 net.cpp:84] Creating Layer score_pool4c
I0419 08:37:13.641716 28639 net.cpp:406] score_pool4c <- score_pool4-new
I0419 08:37:13.641731 28639 net.cpp:406] score_pool4c <- upscore2-new_upscore2-new_0_split_0
I0419 08:37:13.641749 28639 net.cpp:380] score_pool4c -> score_pool4c
I0419 08:37:13.641846 28639 net.cpp:122] Setting up score_pool4c
I0419 08:37:13.641868 28639 net.cpp:129] Top shape: 1 3 36 22 (2376)
I0419 08:37:13.641880 28639 net.cpp:137] Memory required for data: 876250628
I0419 08:37:13.641891 28639 layer_factory.hpp:77] Creating layer fuse_pool4
I0419 08:37:13.641952 28639 net.cpp:84] Creating Layer fuse_pool4
I0419 08:37:13.641968 28639 net.cpp:406] fuse_pool4 <- upscore2-new_upscore2-new_0_split_1
I0419 08:37:13.641983 28639 net.cpp:406] fuse_pool4 <- score_pool4c
I0419 08:37:13.642020 28639 net.cpp:380] fuse_pool4 -> fuse_pool4
I0419 08:37:13.642105 28639 net.cpp:122] Setting up fuse_pool4
I0419 08:37:13.642127 28639 net.cpp:129] Top shape: 1 3 36 22 (2376)
I0419 08:37:13.642138 28639 net.cpp:137] Memory required for data: 876260132
I0419 08:37:13.642149 28639 layer_factory.hpp:77] Creating layer upscore_pool4-new
I0419 08:37:13.642192 28639 net.cpp:84] Creating Layer upscore_pool4-new
I0419 08:37:13.642206 28639 net.cpp:406] upscore_pool4-new <- fuse_pool4
I0419 08:37:13.642228 28639 net.cpp:380] upscore_pool4-new -> upscore_pool4-new
I0419 08:37:13.642823 28639 net.cpp:122] Setting up upscore_pool4-new
I0419 08:37:13.642849 28639 net.cpp:129] Top shape: 1 3 74 46 (10212)
I0419 08:37:13.642859 28639 net.cpp:137] Memory required for data: 876300980
I0419 08:37:13.642875 28639 layer_factory.hpp:77] Creating layer upscore_pool4-new_upscore_pool4-new_0_split
I0419 08:37:13.642895 28639 net.cpp:84] Creating Layer upscore_pool4-new_upscore_pool4-new_0_split
I0419 08:37:13.642907 28639 net.cpp:406] upscore_pool4-new_upscore_pool4-new_0_split <- upscore_pool4-new
I0419 08:37:13.642925 28639 net.cpp:380] upscore_pool4-new_upscore_pool4-new_0_split -> upscore_pool4-new_upscore_pool4-new_0_split_0
I0419 08:37:13.642947 28639 net.cpp:380] upscore_pool4-new_upscore_pool4-new_0_split -> upscore_pool4-new_upscore_pool4-new_0_split_1
I0419 08:37:13.643054 28639 net.cpp:122] Setting up upscore_pool4-new_upscore_pool4-new_0_split
I0419 08:37:13.643074 28639 net.cpp:129] Top shape: 1 3 74 46 (10212)
I0419 08:37:13.643095 28639 net.cpp:129] Top shape: 1 3 74 46 (10212)
I0419 08:37:13.643108 28639 net.cpp:137] Memory required for data: 876382676
I0419 08:37:13.643118 28639 layer_factory.hpp:77] Creating layer score_pool3-new
I0419 08:37:13.643162 28639 net.cpp:84] Creating Layer score_pool3-new
I0419 08:37:13.643177 28639 net.cpp:406] score_pool3-new <- pool3_pool3_0_split_1
I0419 08:37:13.643206 28639 net.cpp:380] score_pool3-new -> score_pool3-new
I0419 08:37:13.646106 28639 net.cpp:122] Setting up score_pool3-new
I0419 08:37:13.646155 28639 net.cpp:129] Top shape: 1 3 89 64 (17088)
I0419 08:37:13.646160 28639 net.cpp:137] Memory required for data: 876451028
I0419 08:37:13.646219 28639 layer_factory.hpp:77] Creating layer score_pool3c
I0419 08:37:13.646237 28639 net.cpp:84] Creating Layer score_pool3c
I0419 08:37:13.646244 28639 net.cpp:406] score_pool3c <- score_pool3-new
I0419 08:37:13.646266 28639 net.cpp:406] score_pool3c <- upscore_pool4-new_upscore_pool4-new_0_split_0
I0419 08:37:13.646275 28639 net.cpp:380] score_pool3c -> score_pool3c
I0419 08:37:13.646312 28639 net.cpp:122] Setting up score_pool3c
I0419 08:37:13.646318 28639 net.cpp:129] Top shape: 1 3 74 46 (10212)
I0419 08:37:13.646322 28639 net.cpp:137] Memory required for data: 876491876
I0419 08:37:13.646325 28639 layer_factory.hpp:77] Creating layer fuse_pool3
I0419 08:37:13.646343 28639 net.cpp:84] Creating Layer fuse_pool3
I0419 08:37:13.646347 28639 net.cpp:406] fuse_pool3 <- upscore_pool4-new_upscore_pool4-new_0_split_1
I0419 08:37:13.646353 28639 net.cpp:406] fuse_pool3 <- score_pool3c
I0419 08:37:13.646358 28639 net.cpp:380] fuse_pool3 -> fuse_pool3
I0419 08:37:13.646412 28639 net.cpp:122] Setting up fuse_pool3
I0419 08:37:13.646427 28639 net.cpp:129] Top shape: 1 3 74 46 (10212)
I0419 08:37:13.646433 28639 net.cpp:137] Memory required for data: 876532724
I0419 08:37:13.646440 28639 layer_factory.hpp:77] Creating layer upscore8-new
I0419 08:37:13.646456 28639 net.cpp:84] Creating Layer upscore8-new
I0419 08:37:13.646464 28639 net.cpp:406] upscore8-new <- fuse_pool3
I0419 08:37:13.646476 28639 net.cpp:380] upscore8-new -> upscore8-new
I0419 08:37:13.646914 28639 net.cpp:122] Setting up upscore8-new
I0419 08:37:13.646930 28639 net.cpp:129] Top shape: 1 3 600 376 (676800)
I0419 08:37:13.646936 28639 net.cpp:137] Memory required for data: 879239924
I0419 08:37:13.646945 28639 layer_factory.hpp:77] Creating layer upscore8_cropped
I0419 08:37:13.646960 28639 net.cpp:84] Creating Layer upscore8_cropped
I0419 08:37:13.646967 28639 net.cpp:406] upscore8_cropped <- upscore8-new
I0419 08:37:13.646980 28639 net.cpp:406] upscore8_cropped <- data_data_0_split_1
I0419 08:37:13.646989 28639 net.cpp:380] upscore8_cropped -> upscore8_cropped
I0419 08:37:13.647038 28639 net.cpp:122] Setting up upscore8_cropped
I0419 08:37:13.647048 28639 net.cpp:129] Top shape: 1 3 512 310 (476160)
I0419 08:37:13.647054 28639 net.cpp:137] Memory required for data: 881144564
I0419 08:37:13.647063 28639 layer_factory.hpp:77] Creating layer score
I0419 08:37:13.647087 28639 net.cpp:84] Creating Layer score
I0419 08:37:13.647095 28639 net.cpp:406] score <- upscore8_cropped
I0419 08:37:13.647105 28639 net.cpp:380] score -> score
I0419 08:37:13.651748 28639 net.cpp:122] Setting up score
I0419 08:37:13.651779 28639 net.cpp:129] Top shape: 1 3 512 310 (476160)
I0419 08:37:13.651783 28639 net.cpp:137] Memory required for data: 883049204
I0419 08:37:13.651792 28639 layer_factory.hpp:77] Creating layer score_score_0_split
I0419 08:37:13.651801 28639 net.cpp:84] Creating Layer score_score_0_split
I0419 08:37:13.651805 28639 net.cpp:406] score_score_0_split <- score
I0419 08:37:13.651811 28639 net.cpp:380] score_score_0_split -> score_score_0_split_0
I0419 08:37:13.651818 28639 net.cpp:380] score_score_0_split -> score_score_0_split_1
I0419 08:37:13.651882 28639 net.cpp:122] Setting up score_score_0_split
I0419 08:37:13.651888 28639 net.cpp:129] Top shape: 1 3 512 310 (476160)
I0419 08:37:13.651892 28639 net.cpp:129] Top shape: 1 3 512 310 (476160)
I0419 08:37:13.651911 28639 net.cpp:137] Memory required for data: 886858484
I0419 08:37:13.651917 28639 layer_factory.hpp:77] Creating layer prob
I0419 08:37:13.651929 28639 net.cpp:84] Creating Layer prob
I0419 08:37:13.651937 28639 net.cpp:406] prob <- score_score_0_split_0
I0419 08:37:13.651947 28639 net.cpp:380] prob -> prob
I0419 08:37:13.652432 28639 net.cpp:122] Setting up prob
I0419 08:37:13.652470 28639 net.cpp:129] Top shape: 1 3 512 310 (476160)
I0419 08:37:13.652477 28639 net.cpp:137] Memory required for data: 888763124
I0419 08:37:13.652493 28639 layer_factory.hpp:77] Creating layer prob_prob_0_split
I0419 08:37:13.652513 28639 net.cpp:84] Creating Layer prob_prob_0_split
I0419 08:37:13.652521 28639 net.cpp:406] prob_prob_0_split <- prob
I0419 08:37:13.652542 28639 net.cpp:380] prob_prob_0_split -> prob_prob_0_split_0
I0419 08:37:13.652555 28639 net.cpp:380] prob_prob_0_split -> prob_prob_0_split_1
I0419 08:37:13.652634 28639 net.cpp:122] Setting up prob_prob_0_split
I0419 08:37:13.652648 28639 net.cpp:129] Top shape: 1 3 512 310 (476160)
I0419 08:37:13.652657 28639 net.cpp:129] Top shape: 1 3 512 310 (476160)
I0419 08:37:13.652662 28639 net.cpp:137] Memory required for data: 892572404
I0419 08:37:13.652681 28639 layer_factory.hpp:77] Creating layer saliency
I0419 08:37:13.652699 28639 net.cpp:84] Creating Layer saliency
I0419 08:37:13.652707 28639 net.cpp:406] saliency <- prob_prob_0_split_0
I0419 08:37:13.652721 28639 net.cpp:380] saliency -> saliency
I0419 08:37:13.656307 28639 net.cpp:122] Setting up saliency
I0419 08:37:13.656348 28639 net.cpp:129] Top shape: 1 3 512 310 (476160)
I0419 08:37:13.656357 28639 net.cpp:137] Memory required for data: 894477044
I0419 08:37:13.656370 28639 layer_factory.hpp:77] Creating layer saliency_data
I0419 08:37:13.656404 28639 net.cpp:84] Creating Layer saliency_data
I0419 08:37:13.656414 28639 net.cpp:406] saliency_data <- data_data_0_split_2
I0419 08:37:13.656424 28639 net.cpp:406] saliency_data <- saliency
I0419 08:37:13.656435 28639 net.cpp:380] saliency_data -> saliency_data
I0419 08:37:13.656503 28639 net.cpp:122] Setting up saliency_data
I0419 08:37:13.656518 28639 net.cpp:129] Top shape: 1 3 512 310 (476160)
I0419 08:37:13.656524 28639 net.cpp:137] Memory required for data: 896381684
I0419 08:37:13.656532 28639 layer_factory.hpp:77] Creating layer crop
I0419 08:37:13.657212 28639 net.cpp:84] Creating Layer crop
I0419 08:37:13.657232 28639 net.cpp:406] crop <- prob_prob_0_split_1
I0419 08:37:13.657255 28639 net.cpp:406] crop <- saliency_data
I0419 08:37:13.657279 28639 net.cpp:406] crop <- crop_margin
I0419 08:37:13.657289 28639 net.cpp:406] crop <- crop_prob
I0419 08:37:13.657307 28639 net.cpp:406] crop <- crop_sample_batch
I0419 08:37:13.657316 28639 net.cpp:406] crop <- label_data_1_split_0
I0419 08:37:13.657328 28639 net.cpp:380] crop -> data-R
I0419 08:37:13.657344 28639 net.cpp:380] crop -> crop_info
I0419 08:37:13.678462 28639 net.cpp:122] Setting up crop
I0419 08:37:13.678531 28639 net.cpp:129] Top shape: 1 3 512 310 (476160)
I0419 08:37:13.678544 28639 net.cpp:129] Top shape: 1 2 4 (8)
I0419 08:37:13.678550 28639 net.cpp:137] Memory required for data: 898286356
I0419 08:37:13.678562 28639 layer_factory.hpp:77] Creating layer data-R_crop_0_split
I0419 08:37:13.678601 28639 net.cpp:84] Creating Layer data-R_crop_0_split
I0419 08:37:13.678611 28639 net.cpp:406] data-R_crop_0_split <- data-R
I0419 08:37:13.678627 28639 net.cpp:380] data-R_crop_0_split -> data-R_crop_0_split_0
I0419 08:37:13.678645 28639 net.cpp:380] data-R_crop_0_split -> data-R_crop_0_split_1
I0419 08:37:13.678737 28639 net.cpp:122] Setting up data-R_crop_0_split
I0419 08:37:13.678753 28639 net.cpp:129] Top shape: 1 3 512 310 (476160)
I0419 08:37:13.678762 28639 net.cpp:129] Top shape: 1 3 512 310 (476160)
I0419 08:37:13.678768 28639 net.cpp:137] Memory required for data: 902095636
I0419 08:37:13.678787 28639 layer_factory.hpp:77] Creating layer conv1_1-R
I0419 08:37:13.678812 28639 net.cpp:84] Creating Layer conv1_1-R
I0419 08:37:13.678822 28639 net.cpp:406] conv1_1-R <- data-R_crop_0_split_0
I0419 08:37:13.678867 28639 net.cpp:380] conv1_1-R -> conv1_1-R
I0419 08:37:13.694933 28639 net.cpp:122] Setting up conv1_1-R
I0419 08:37:13.694989 28639 net.cpp:129] Top shape: 1 64 710 508 (23083520)
I0419 08:37:13.694998 28639 net.cpp:137] Memory required for data: 994429716
I0419 08:37:13.695019 28639 layer_factory.hpp:77] Creating layer relu1_1-R
I0419 08:37:13.695127 28639 net.cpp:84] Creating Layer relu1_1-R
I0419 08:37:13.695142 28639 net.cpp:406] relu1_1-R <- conv1_1-R
I0419 08:37:13.695156 28639 net.cpp:367] relu1_1-R -> conv1_1-R (in-place)
I0419 08:37:13.695647 28639 net.cpp:122] Setting up relu1_1-R
I0419 08:37:13.695668 28639 net.cpp:129] Top shape: 1 64 710 508 (23083520)
I0419 08:37:13.695686 28639 net.cpp:137] Memory required for data: 1086763796
I0419 08:37:13.695695 28639 layer_factory.hpp:77] Creating layer conv1_2-R
I0419 08:37:13.695716 28639 net.cpp:84] Creating Layer conv1_2-R
I0419 08:37:13.695724 28639 net.cpp:406] conv1_2-R <- conv1_1-R
I0419 08:37:13.695749 28639 net.cpp:380] conv1_2-R -> conv1_2-R
I0419 08:37:13.701439 28639 net.cpp:122] Setting up conv1_2-R
I0419 08:37:13.701484 28639 net.cpp:129] Top shape: 1 64 710 508 (23083520)
I0419 08:37:13.701493 28639 net.cpp:137] Memory required for data: 1179097876
I0419 08:37:13.701509 28639 layer_factory.hpp:77] Creating layer relu1_2-R
I0419 08:37:13.701534 28639 net.cpp:84] Creating Layer relu1_2-R
I0419 08:37:13.701542 28639 net.cpp:406] relu1_2-R <- conv1_2-R
I0419 08:37:13.701555 28639 net.cpp:367] relu1_2-R -> conv1_2-R (in-place)
I0419 08:37:13.701974 28639 net.cpp:122] Setting up relu1_2-R
I0419 08:37:13.702006 28639 net.cpp:129] Top shape: 1 64 710 508 (23083520)
I0419 08:37:13.702013 28639 net.cpp:137] Memory required for data: 1271431956
I0419 08:37:13.702082 28639 layer_factory.hpp:77] Creating layer pool1-R
I0419 08:37:13.702111 28639 net.cpp:84] Creating Layer pool1-R
I0419 08:37:13.702138 28639 net.cpp:406] pool1-R <- conv1_2-R
I0419 08:37:13.702152 28639 net.cpp:380] pool1-R -> pool1-R
I0419 08:37:13.702293 28639 net.cpp:122] Setting up pool1-R
I0419 08:37:13.702318 28639 net.cpp:129] Top shape: 1 64 355 254 (5770880)
I0419 08:37:13.702325 28639 net.cpp:137] Memory required for data: 1294515476
I0419 08:37:13.702332 28639 layer_factory.hpp:77] Creating layer conv2_1-R
I0419 08:37:13.702348 28639 net.cpp:84] Creating Layer conv2_1-R
I0419 08:37:13.702356 28639 net.cpp:406] conv2_1-R <- pool1-R
I0419 08:37:13.702369 28639 net.cpp:380] conv2_1-R -> conv2_1-R
I0419 08:37:13.705845 28639 net.cpp:122] Setting up conv2_1-R
I0419 08:37:13.705884 28639 net.cpp:129] Top shape: 1 128 355 254 (11541760)
I0419 08:37:13.705893 28639 net.cpp:137] Memory required for data: 1340682516
I0419 08:37:13.705912 28639 layer_factory.hpp:77] Creating layer relu2_1-R
I0419 08:37:13.705924 28639 net.cpp:84] Creating Layer relu2_1-R
I0419 08:37:13.705941 28639 net.cpp:406] relu2_1-R <- conv2_1-R
I0419 08:37:13.705952 28639 net.cpp:367] relu2_1-R -> conv2_1-R (in-place)
I0419 08:37:13.706441 28639 net.cpp:122] Setting up relu2_1-R
I0419 08:37:13.706473 28639 net.cpp:129] Top shape: 1 128 355 254 (11541760)
I0419 08:37:13.706496 28639 net.cpp:137] Memory required for data: 1386849556
I0419 08:37:13.706501 28639 layer_factory.hpp:77] Creating layer conv2_2-R
I0419 08:37:13.706532 28639 net.cpp:84] Creating Layer conv2_2-R
I0419 08:37:13.706537 28639 net.cpp:406] conv2_2-R <- conv2_1-R
I0419 08:37:13.706574 28639 net.cpp:380] conv2_2-R -> conv2_2-R
I0419 08:37:13.711596 28639 net.cpp:122] Setting up conv2_2-R
I0419 08:37:13.711616 28639 net.cpp:129] Top shape: 1 128 355 254 (11541760)
I0419 08:37:13.711632 28639 net.cpp:137] Memory required for data: 1433016596
I0419 08:37:13.711649 28639 layer_factory.hpp:77] Creating layer relu2_2-R
I0419 08:37:13.711660 28639 net.cpp:84] Creating Layer relu2_2-R
I0419 08:37:13.711665 28639 net.cpp:406] relu2_2-R <- conv2_2-R
I0419 08:37:13.711671 28639 net.cpp:367] relu2_2-R -> conv2_2-R (in-place)
I0419 08:37:13.712409 28639 net.cpp:122] Setting up relu2_2-R
I0419 08:37:13.712426 28639 net.cpp:129] Top shape: 1 128 355 254 (11541760)
I0419 08:37:13.712442 28639 net.cpp:137] Memory required for data: 1479183636
I0419 08:37:13.712450 28639 layer_factory.hpp:77] Creating layer pool2-R
I0419 08:37:13.712471 28639 net.cpp:84] Creating Layer pool2-R
I0419 08:37:13.712476 28639 net.cpp:406] pool2-R <- conv2_2-R
I0419 08:37:13.712497 28639 net.cpp:380] pool2-R -> pool2-R
I0419 08:37:13.712563 28639 net.cpp:122] Setting up pool2-R
I0419 08:37:13.712574 28639 net.cpp:129] Top shape: 1 128 178 127 (2893568)
I0419 08:37:13.712579 28639 net.cpp:137] Memory required for data: 1490757908
I0419 08:37:13.712582 28639 layer_factory.hpp:77] Creating layer conv3_1-R
I0419 08:37:13.712592 28639 net.cpp:84] Creating Layer conv3_1-R
I0419 08:37:13.712597 28639 net.cpp:406] conv3_1-R <- pool2-R
I0419 08:37:13.712606 28639 net.cpp:380] conv3_1-R -> conv3_1-R
I0419 08:37:13.716524 28639 net.cpp:122] Setting up conv3_1-R
I0419 08:37:13.716552 28639 net.cpp:129] Top shape: 1 256 178 127 (5787136)
I0419 08:37:13.716557 28639 net.cpp:137] Memory required for data: 1513906452
I0419 08:37:13.716576 28639 layer_factory.hpp:77] Creating layer relu3_1-R
I0419 08:37:13.716584 28639 net.cpp:84] Creating Layer relu3_1-R
I0419 08:37:13.716589 28639 net.cpp:406] relu3_1-R <- conv3_1-R
I0419 08:37:13.716598 28639 net.cpp:367] relu3_1-R -> conv3_1-R (in-place)
I0419 08:37:13.716856 28639 net.cpp:122] Setting up relu3_1-R
I0419 08:37:13.716869 28639 net.cpp:129] Top shape: 1 256 178 127 (5787136)
I0419 08:37:13.716874 28639 net.cpp:137] Memory required for data: 1537054996
I0419 08:37:13.716899 28639 layer_factory.hpp:77] Creating layer conv3_2-R
I0419 08:37:13.716917 28639 net.cpp:84] Creating Layer conv3_2-R
I0419 08:37:13.716922 28639 net.cpp:406] conv3_2-R <- conv3_1-R
I0419 08:37:13.716929 28639 net.cpp:380] conv3_2-R -> conv3_2-R
I0419 08:37:13.722837 28639 net.cpp:122] Setting up conv3_2-R
I0419 08:37:13.722870 28639 net.cpp:129] Top shape: 1 256 178 127 (5787136)
I0419 08:37:13.722877 28639 net.cpp:137] Memory required for data: 1560203540
I0419 08:37:13.722887 28639 layer_factory.hpp:77] Creating layer relu3_2-R
I0419 08:37:13.722896 28639 net.cpp:84] Creating Layer relu3_2-R
I0419 08:37:13.722903 28639 net.cpp:406] relu3_2-R <- conv3_2-R
I0419 08:37:13.722910 28639 net.cpp:367] relu3_2-R -> conv3_2-R (in-place)
I0419 08:37:13.723233 28639 net.cpp:122] Setting up relu3_2-R
I0419 08:37:13.723248 28639 net.cpp:129] Top shape: 1 256 178 127 (5787136)
I0419 08:37:13.723253 28639 net.cpp:137] Memory required for data: 1583352084
I0419 08:37:13.723258 28639 layer_factory.hpp:77] Creating layer conv3_3-R
I0419 08:37:13.723269 28639 net.cpp:84] Creating Layer conv3_3-R
I0419 08:37:13.723274 28639 net.cpp:406] conv3_3-R <- conv3_2-R
I0419 08:37:13.723284 28639 net.cpp:380] conv3_3-R -> conv3_3-R
I0419 08:37:13.727907 28639 net.cpp:122] Setting up conv3_3-R
I0419 08:37:13.727941 28639 net.cpp:129] Top shape: 1 256 178 127 (5787136)
I0419 08:37:13.727946 28639 net.cpp:137] Memory required for data: 1606500628
I0419 08:37:13.727957 28639 layer_factory.hpp:77] Creating layer relu3_3-R
I0419 08:37:13.727977 28639 net.cpp:84] Creating Layer relu3_3-R
I0419 08:37:13.727982 28639 net.cpp:406] relu3_3-R <- conv3_3-R
I0419 08:37:13.727999 28639 net.cpp:367] relu3_3-R -> conv3_3-R (in-place)
I0419 08:37:13.728274 28639 net.cpp:122] Setting up relu3_3-R
I0419 08:37:13.728299 28639 net.cpp:129] Top shape: 1 256 178 127 (5787136)
I0419 08:37:13.728304 28639 net.cpp:137] Memory required for data: 1629649172
I0419 08:37:13.728318 28639 layer_factory.hpp:77] Creating layer pool3-R
I0419 08:37:13.728333 28639 net.cpp:84] Creating Layer pool3-R
I0419 08:37:13.728338 28639 net.cpp:406] pool3-R <- conv3_3-R
I0419 08:37:13.728348 28639 net.cpp:380] pool3-R -> pool3-R
I0419 08:37:13.728415 28639 net.cpp:122] Setting up pool3-R
I0419 08:37:13.728427 28639 net.cpp:129] Top shape: 1 256 89 64 (1458176)
I0419 08:37:13.728431 28639 net.cpp:137] Memory required for data: 1635481876
I0419 08:37:13.728436 28639 layer_factory.hpp:77] Creating layer pool3-R_pool3-R_0_split
I0419 08:37:13.728444 28639 net.cpp:84] Creating Layer pool3-R_pool3-R_0_split
I0419 08:37:13.728449 28639 net.cpp:406] pool3-R_pool3-R_0_split <- pool3-R
I0419 08:37:13.728458 28639 net.cpp:380] pool3-R_pool3-R_0_split -> pool3-R_pool3-R_0_split_0
I0419 08:37:13.728466 28639 net.cpp:380] pool3-R_pool3-R_0_split -> pool3-R_pool3-R_0_split_1
I0419 08:37:13.728518 28639 net.cpp:122] Setting up pool3-R_pool3-R_0_split
I0419 08:37:13.728528 28639 net.cpp:129] Top shape: 1 256 89 64 (1458176)
I0419 08:37:13.728533 28639 net.cpp:129] Top shape: 1 256 89 64 (1458176)
I0419 08:37:13.728538 28639 net.cpp:137] Memory required for data: 1647147284
I0419 08:37:13.728541 28639 layer_factory.hpp:77] Creating layer conv4_1-R
I0419 08:37:13.728552 28639 net.cpp:84] Creating Layer conv4_1-R
I0419 08:37:13.728557 28639 net.cpp:406] conv4_1-R <- pool3-R_pool3-R_0_split_0
I0419 08:37:13.728567 28639 net.cpp:380] conv4_1-R -> conv4_1-R
I0419 08:37:13.734967 28639 net.cpp:122] Setting up conv4_1-R
I0419 08:37:13.734998 28639 net.cpp:129] Top shape: 1 512 89 64 (2916352)
I0419 08:37:13.735004 28639 net.cpp:137] Memory required for data: 1658812692
I0419 08:37:13.735014 28639 layer_factory.hpp:77] Creating layer relu4_1-R
I0419 08:37:13.735023 28639 net.cpp:84] Creating Layer relu4_1-R
I0419 08:37:13.735029 28639 net.cpp:406] relu4_1-R <- conv4_1-R
I0419 08:37:13.735038 28639 net.cpp:367] relu4_1-R -> conv4_1-R (in-place)
I0419 08:37:13.735301 28639 net.cpp:122] Setting up relu4_1-R
I0419 08:37:13.735316 28639 net.cpp:129] Top shape: 1 512 89 64 (2916352)
I0419 08:37:13.735319 28639 net.cpp:137] Memory required for data: 1670478100
I0419 08:37:13.735334 28639 layer_factory.hpp:77] Creating layer conv4_2-R
I0419 08:37:13.735352 28639 net.cpp:84] Creating Layer conv4_2-R
I0419 08:37:13.735357 28639 net.cpp:406] conv4_2-R <- conv4_1-R
I0419 08:37:13.735366 28639 net.cpp:380] conv4_2-R -> conv4_2-R
I0419 08:37:13.744745 28639 net.cpp:122] Setting up conv4_2-R
I0419 08:37:13.744778 28639 net.cpp:129] Top shape: 1 512 89 64 (2916352)
I0419 08:37:13.744783 28639 net.cpp:137] Memory required for data: 1682143508
I0419 08:37:13.744791 28639 layer_factory.hpp:77] Creating layer relu4_2-R
I0419 08:37:13.744801 28639 net.cpp:84] Creating Layer relu4_2-R
I0419 08:37:13.744807 28639 net.cpp:406] relu4_2-R <- conv4_2-R
I0419 08:37:13.744814 28639 net.cpp:367] relu4_2-R -> conv4_2-R (in-place)
I0419 08:37:13.745048 28639 net.cpp:122] Setting up relu4_2-R
I0419 08:37:13.745061 28639 net.cpp:129] Top shape: 1 512 89 64 (2916352)
I0419 08:37:13.745065 28639 net.cpp:137] Memory required for data: 1693808916
I0419 08:37:13.745069 28639 layer_factory.hpp:77] Creating layer conv4_3-R
I0419 08:37:13.745080 28639 net.cpp:84] Creating Layer conv4_3-R
I0419 08:37:13.745085 28639 net.cpp:406] conv4_3-R <- conv4_2-R
I0419 08:37:13.745093 28639 net.cpp:380] conv4_3-R -> conv4_3-R
I0419 08:37:13.753919 28639 net.cpp:122] Setting up conv4_3-R
I0419 08:37:13.753942 28639 net.cpp:129] Top shape: 1 512 89 64 (2916352)
I0419 08:37:13.753947 28639 net.cpp:137] Memory required for data: 1705474324
I0419 08:37:13.753957 28639 layer_factory.hpp:77] Creating layer relu4_3-R
I0419 08:37:13.753978 28639 net.cpp:84] Creating Layer relu4_3-R
I0419 08:37:13.753985 28639 net.cpp:406] relu4_3-R <- conv4_3-R
I0419 08:37:13.753993 28639 net.cpp:367] relu4_3-R -> conv4_3-R (in-place)
I0419 08:37:13.754767 28639 net.cpp:122] Setting up relu4_3-R
I0419 08:37:13.754784 28639 net.cpp:129] Top shape: 1 512 89 64 (2916352)
I0419 08:37:13.754789 28639 net.cpp:137] Memory required for data: 1717139732
I0419 08:37:13.754807 28639 layer_factory.hpp:77] Creating layer pool4-R
I0419 08:37:13.754818 28639 net.cpp:84] Creating Layer pool4-R
I0419 08:37:13.754823 28639 net.cpp:406] pool4-R <- conv4_3-R
I0419 08:37:13.754832 28639 net.cpp:380] pool4-R -> pool4-R
I0419 08:37:13.754897 28639 net.cpp:122] Setting up pool4-R
I0419 08:37:13.754905 28639 net.cpp:129] Top shape: 1 512 45 32 (737280)
I0419 08:37:13.754909 28639 net.cpp:137] Memory required for data: 1720088852
I0419 08:37:13.754912 28639 layer_factory.hpp:77] Creating layer pool4-R_pool4-R_0_split
I0419 08:37:13.754920 28639 net.cpp:84] Creating Layer pool4-R_pool4-R_0_split
I0419 08:37:13.754923 28639 net.cpp:406] pool4-R_pool4-R_0_split <- pool4-R
I0419 08:37:13.754930 28639 net.cpp:380] pool4-R_pool4-R_0_split -> pool4-R_pool4-R_0_split_0
I0419 08:37:13.754937 28639 net.cpp:380] pool4-R_pool4-R_0_split -> pool4-R_pool4-R_0_split_1
I0419 08:37:13.754981 28639 net.cpp:122] Setting up pool4-R_pool4-R_0_split
I0419 08:37:13.755003 28639 net.cpp:129] Top shape: 1 512 45 32 (737280)
I0419 08:37:13.755008 28639 net.cpp:129] Top shape: 1 512 45 32 (737280)
I0419 08:37:13.755012 28639 net.cpp:137] Memory required for data: 1725987092
I0419 08:37:13.755017 28639 layer_factory.hpp:77] Creating layer conv5_1-R
I0419 08:37:13.755025 28639 net.cpp:84] Creating Layer conv5_1-R
I0419 08:37:13.755029 28639 net.cpp:406] conv5_1-R <- pool4-R_pool4-R_0_split_0
I0419 08:37:13.755036 28639 net.cpp:380] conv5_1-R -> conv5_1-R
I0419 08:37:13.764514 28639 net.cpp:122] Setting up conv5_1-R
I0419 08:37:13.764539 28639 net.cpp:129] Top shape: 1 512 45 32 (737280)
I0419 08:37:13.764544 28639 net.cpp:137] Memory required for data: 1728936212
I0419 08:37:13.764575 28639 layer_factory.hpp:77] Creating layer relu5_1-R
I0419 08:37:13.764596 28639 net.cpp:84] Creating Layer relu5_1-R
I0419 08:37:13.764602 28639 net.cpp:406] relu5_1-R <- conv5_1-R
I0419 08:37:13.764609 28639 net.cpp:367] relu5_1-R -> conv5_1-R (in-place)
I0419 08:37:13.764868 28639 net.cpp:122] Setting up relu5_1-R
I0419 08:37:13.764881 28639 net.cpp:129] Top shape: 1 512 45 32 (737280)
I0419 08:37:13.764885 28639 net.cpp:137] Memory required for data: 1731885332
I0419 08:37:13.764899 28639 layer_factory.hpp:77] Creating layer conv5_2-R
I0419 08:37:13.764910 28639 net.cpp:84] Creating Layer conv5_2-R
I0419 08:37:13.764914 28639 net.cpp:406] conv5_2-R <- conv5_1-R
I0419 08:37:13.764925 28639 net.cpp:380] conv5_2-R -> conv5_2-R
I0419 08:37:13.774463 28639 net.cpp:122] Setting up conv5_2-R
I0419 08:37:13.774487 28639 net.cpp:129] Top shape: 1 512 45 32 (737280)
I0419 08:37:13.774500 28639 net.cpp:137] Memory required for data: 1734834452
I0419 08:37:13.774521 28639 layer_factory.hpp:77] Creating layer relu5_2-R
I0419 08:37:13.774529 28639 net.cpp:84] Creating Layer relu5_2-R
I0419 08:37:13.774545 28639 net.cpp:406] relu5_2-R <- conv5_2-R
I0419 08:37:13.774554 28639 net.cpp:367] relu5_2-R -> conv5_2-R (in-place)
I0419 08:37:13.774823 28639 net.cpp:122] Setting up relu5_2-R
I0419 08:37:13.774837 28639 net.cpp:129] Top shape: 1 512 45 32 (737280)
I0419 08:37:13.774842 28639 net.cpp:137] Memory required for data: 1737783572
I0419 08:37:13.774847 28639 layer_factory.hpp:77] Creating layer conv5_3-R
I0419 08:37:13.774869 28639 net.cpp:84] Creating Layer conv5_3-R
I0419 08:37:13.774875 28639 net.cpp:406] conv5_3-R <- conv5_2-R
I0419 08:37:13.774884 28639 net.cpp:380] conv5_3-R -> conv5_3-R
I0419 08:37:13.784579 28639 net.cpp:122] Setting up conv5_3-R
I0419 08:37:13.784612 28639 net.cpp:129] Top shape: 1 512 45 32 (737280)
I0419 08:37:13.784617 28639 net.cpp:137] Memory required for data: 1740732692
I0419 08:37:13.784627 28639 layer_factory.hpp:77] Creating layer relu5_3-R
I0419 08:37:13.784637 28639 net.cpp:84] Creating Layer relu5_3-R
I0419 08:37:13.784643 28639 net.cpp:406] relu5_3-R <- conv5_3-R
I0419 08:37:13.784651 28639 net.cpp:367] relu5_3-R -> conv5_3-R (in-place)
I0419 08:37:13.784888 28639 net.cpp:122] Setting up relu5_3-R
I0419 08:37:13.784901 28639 net.cpp:129] Top shape: 1 512 45 32 (737280)
I0419 08:37:13.784906 28639 net.cpp:137] Memory required for data: 1743681812
I0419 08:37:13.784922 28639 layer_factory.hpp:77] Creating layer pool5-R
I0419 08:37:13.784931 28639 net.cpp:84] Creating Layer pool5-R
I0419 08:37:13.784936 28639 net.cpp:406] pool5-R <- conv5_3-R
I0419 08:37:13.784945 28639 net.cpp:380] pool5-R -> pool5-R
I0419 08:37:13.785012 28639 net.cpp:122] Setting up pool5-R
I0419 08:37:13.785022 28639 net.cpp:129] Top shape: 1 512 23 16 (188416)
I0419 08:37:13.785027 28639 net.cpp:137] Memory required for data: 1744435476
I0419 08:37:13.785029 28639 layer_factory.hpp:77] Creating layer fc6-R
I0419 08:37:13.785040 28639 net.cpp:84] Creating Layer fc6-R
I0419 08:37:13.785045 28639 net.cpp:406] fc6-R <- pool5-R
I0419 08:37:13.785053 28639 net.cpp:380] fc6-R -> fc6-R
I0419 08:37:14.114858 28639 net.cpp:122] Setting up fc6-R
I0419 08:37:14.114910 28639 net.cpp:129] Top shape: 1 4096 17 10 (696320)
I0419 08:37:14.114917 28639 net.cpp:137] Memory required for data: 1747220756
I0419 08:37:14.114930 28639 layer_factory.hpp:77] Creating layer relu6-R
I0419 08:37:14.114951 28639 net.cpp:84] Creating Layer relu6-R
I0419 08:37:14.114960 28639 net.cpp:406] relu6-R <- fc6-R
I0419 08:37:14.114980 28639 net.cpp:367] relu6-R -> fc6-R (in-place)
I0419 08:37:14.115229 28639 net.cpp:122] Setting up relu6-R
I0419 08:37:14.115242 28639 net.cpp:129] Top shape: 1 4096 17 10 (696320)
I0419 08:37:14.115247 28639 net.cpp:137] Memory required for data: 1750006036
I0419 08:37:14.115252 28639 layer_factory.hpp:77] Creating layer drop6-R
I0419 08:37:14.115269 28639 net.cpp:84] Creating Layer drop6-R
I0419 08:37:14.115274 28639 net.cpp:406] drop6-R <- fc6-R
I0419 08:37:14.115281 28639 net.cpp:367] drop6-R -> fc6-R (in-place)
I0419 08:37:14.115324 28639 net.cpp:122] Setting up drop6-R
I0419 08:37:14.115332 28639 net.cpp:129] Top shape: 1 4096 17 10 (696320)
I0419 08:37:14.115336 28639 net.cpp:137] Memory required for data: 1752791316
I0419 08:37:14.115340 28639 layer_factory.hpp:77] Creating layer fc7-R
I0419 08:37:14.115353 28639 net.cpp:84] Creating Layer fc7-R
I0419 08:37:14.115357 28639 net.cpp:406] fc7-R <- fc6-R
I0419 08:37:14.115366 28639 net.cpp:380] fc7-R -> fc7-R
I0419 08:37:14.173971 28639 net.cpp:122] Setting up fc7-R
I0419 08:37:14.174016 28639 net.cpp:129] Top shape: 1 4096 17 10 (696320)
I0419 08:37:14.174022 28639 net.cpp:137] Memory required for data: 1755576596
I0419 08:37:14.174036 28639 layer_factory.hpp:77] Creating layer relu7-R
I0419 08:37:14.174051 28639 net.cpp:84] Creating Layer relu7-R
I0419 08:37:14.174058 28639 net.cpp:406] relu7-R <- fc7-R
I0419 08:37:14.174068 28639 net.cpp:367] relu7-R -> fc7-R (in-place)
I0419 08:37:14.174355 28639 net.cpp:122] Setting up relu7-R
I0419 08:37:14.174369 28639 net.cpp:129] Top shape: 1 4096 17 10 (696320)
I0419 08:37:14.174374 28639 net.cpp:137] Memory required for data: 1758361876
I0419 08:37:14.174378 28639 layer_factory.hpp:77] Creating layer drop7-R
I0419 08:37:14.174388 28639 net.cpp:84] Creating Layer drop7-R
I0419 08:37:14.174393 28639 net.cpp:406] drop7-R <- fc7-R
I0419 08:37:14.174401 28639 net.cpp:367] drop7-R -> fc7-R (in-place)
I0419 08:37:14.174445 28639 net.cpp:122] Setting up drop7-R
I0419 08:37:14.174454 28639 net.cpp:129] Top shape: 1 4096 17 10 (696320)
I0419 08:37:14.174459 28639 net.cpp:137] Memory required for data: 1761147156
I0419 08:37:14.174463 28639 layer_factory.hpp:77] Creating layer score_fr-new-R
I0419 08:37:14.174476 28639 net.cpp:84] Creating Layer score_fr-new-R
I0419 08:37:14.174480 28639 net.cpp:406] score_fr-new-R <- fc7-R
I0419 08:37:14.174489 28639 net.cpp:380] score_fr-new-R -> score_fr-new-R
I0419 08:37:14.176172 28639 net.cpp:122] Setting up score_fr-new-R
I0419 08:37:14.176189 28639 net.cpp:129] Top shape: 1 3 17 10 (510)
I0419 08:37:14.176194 28639 net.cpp:137] Memory required for data: 1761149196
I0419 08:37:14.176205 28639 layer_factory.hpp:77] Creating layer upscore2-new-R
I0419 08:37:14.176230 28639 net.cpp:84] Creating Layer upscore2-new-R
I0419 08:37:14.176236 28639 net.cpp:406] upscore2-new-R <- score_fr-new-R
I0419 08:37:14.176245 28639 net.cpp:380] upscore2-new-R -> upscore2-new-R
I0419 08:37:14.176537 28639 net.cpp:122] Setting up upscore2-new-R
I0419 08:37:14.176548 28639 net.cpp:129] Top shape: 1 3 36 22 (2376)
I0419 08:37:14.176551 28639 net.cpp:137] Memory required for data: 1761158700
I0419 08:37:14.176558 28639 layer_factory.hpp:77] Creating layer upscore2-new-R_upscore2-new-R_0_split
I0419 08:37:14.176566 28639 net.cpp:84] Creating Layer upscore2-new-R_upscore2-new-R_0_split
I0419 08:37:14.176570 28639 net.cpp:406] upscore2-new-R_upscore2-new-R_0_split <- upscore2-new-R
I0419 08:37:14.176578 28639 net.cpp:380] upscore2-new-R_upscore2-new-R_0_split -> upscore2-new-R_upscore2-new-R_0_split_0
I0419 08:37:14.176586 28639 net.cpp:380] upscore2-new-R_upscore2-new-R_0_split -> upscore2-new-R_upscore2-new-R_0_split_1
I0419 08:37:14.176638 28639 net.cpp:122] Setting up upscore2-new-R_upscore2-new-R_0_split
I0419 08:37:14.176648 28639 net.cpp:129] Top shape: 1 3 36 22 (2376)
I0419 08:37:14.176653 28639 net.cpp:129] Top shape: 1 3 36 22 (2376)
I0419 08:37:14.176656 28639 net.cpp:137] Memory required for data: 1761177708
I0419 08:37:14.176661 28639 layer_factory.hpp:77] Creating layer score_pool4-new-R
I0419 08:37:14.176671 28639 net.cpp:84] Creating Layer score_pool4-new-R
I0419 08:37:14.176677 28639 net.cpp:406] score_pool4-new-R <- pool4-R_pool4-R_0_split_1
I0419 08:37:14.176687 28639 net.cpp:380] score_pool4-new-R -> score_pool4-new-R
I0419 08:37:14.178305 28639 net.cpp:122] Setting up score_pool4-new-R
I0419 08:37:14.178324 28639 net.cpp:129] Top shape: 1 3 45 32 (4320)
I0419 08:37:14.178329 28639 net.cpp:137] Memory required for data: 1761194988
I0419 08:37:14.178337 28639 layer_factory.hpp:77] Creating layer score_pool4c-R
I0419 08:37:14.178356 28639 net.cpp:84] Creating Layer score_pool4c-R
I0419 08:37:14.178362 28639 net.cpp:406] score_pool4c-R <- score_pool4-new-R
I0419 08:37:14.178369 28639 net.cpp:406] score_pool4c-R <- upscore2-new-R_upscore2-new-R_0_split_0
I0419 08:37:14.178377 28639 net.cpp:380] score_pool4c-R -> score_pool4c-R
I0419 08:37:14.178419 28639 net.cpp:122] Setting up score_pool4c-R
I0419 08:37:14.178426 28639 net.cpp:129] Top shape: 1 3 36 22 (2376)
I0419 08:37:14.178429 28639 net.cpp:137] Memory required for data: 1761204492
I0419 08:37:14.178433 28639 layer_factory.hpp:77] Creating layer fuse_pool4-R
I0419 08:37:14.178449 28639 net.cpp:84] Creating Layer fuse_pool4-R
I0419 08:37:14.178454 28639 net.cpp:406] fuse_pool4-R <- upscore2-new-R_upscore2-new-R_0_split_1
I0419 08:37:14.178459 28639 net.cpp:406] fuse_pool4-R <- score_pool4c-R
I0419 08:37:14.178478 28639 net.cpp:380] fuse_pool4-R -> fuse_pool4-R
I0419 08:37:14.178513 28639 net.cpp:122] Setting up fuse_pool4-R
I0419 08:37:14.178546 28639 net.cpp:129] Top shape: 1 3 36 22 (2376)
I0419 08:37:14.178551 28639 net.cpp:137] Memory required for data: 1761213996
I0419 08:37:14.178561 28639 layer_factory.hpp:77] Creating layer upscore_pool4-new-R
I0419 08:37:14.178570 28639 net.cpp:84] Creating Layer upscore_pool4-new-R
I0419 08:37:14.178575 28639 net.cpp:406] upscore_pool4-new-R <- fuse_pool4-R
I0419 08:37:14.178588 28639 net.cpp:380] upscore_pool4-new-R -> upscore_pool4-new-R
I0419 08:37:14.178861 28639 net.cpp:122] Setting up upscore_pool4-new-R
I0419 08:37:14.178871 28639 net.cpp:129] Top shape: 1 3 74 46 (10212)
I0419 08:37:14.178875 28639 net.cpp:137] Memory required for data: 1761254844
I0419 08:37:14.178889 28639 layer_factory.hpp:77] Creating layer upscore_pool4-new-R_upscore_pool4-new-R_0_split
I0419 08:37:14.178895 28639 net.cpp:84] Creating Layer upscore_pool4-new-R_upscore_pool4-new-R_0_split
I0419 08:37:14.178900 28639 net.cpp:406] upscore_pool4-new-R_upscore_pool4-new-R_0_split <- upscore_pool4-new-R
I0419 08:37:14.178908 28639 net.cpp:380] upscore_pool4-new-R_upscore_pool4-new-R_0_split -> upscore_pool4-new-R_upscore_pool4-new-R_0_split_0
I0419 08:37:14.178916 28639 net.cpp:380] upscore_pool4-new-R_upscore_pool4-new-R_0_split -> upscore_pool4-new-R_upscore_pool4-new-R_0_split_1
I0419 08:37:14.178966 28639 net.cpp:122] Setting up upscore_pool4-new-R_upscore_pool4-new-R_0_split
I0419 08:37:14.178975 28639 net.cpp:129] Top shape: 1 3 74 46 (10212)
I0419 08:37:14.178982 28639 net.cpp:129] Top shape: 1 3 74 46 (10212)
I0419 08:37:14.178984 28639 net.cpp:137] Memory required for data: 1761336540
I0419 08:37:14.178989 28639 layer_factory.hpp:77] Creating layer score_pool3-new-R
I0419 08:37:14.179006 28639 net.cpp:84] Creating Layer score_pool3-new-R
I0419 08:37:14.179013 28639 net.cpp:406] score_pool3-new-R <- pool3-R_pool3-R_0_split_1
I0419 08:37:14.179021 28639 net.cpp:380] score_pool3-new-R -> score_pool3-new-R
I0419 08:37:14.180739 28639 net.cpp:122] Setting up score_pool3-new-R
I0419 08:37:14.180770 28639 net.cpp:129] Top shape: 1 3 89 64 (17088)
I0419 08:37:14.180775 28639 net.cpp:137] Memory required for data: 1761404892
I0419 08:37:14.180784 28639 layer_factory.hpp:77] Creating layer score_pool3c-R
I0419 08:37:14.180802 28639 net.cpp:84] Creating Layer score_pool3c-R
I0419 08:37:14.180807 28639 net.cpp:406] score_pool3c-R <- score_pool3-new-R
I0419 08:37:14.180814 28639 net.cpp:406] score_pool3c-R <- upscore_pool4-new-R_upscore_pool4-new-R_0_split_0
I0419 08:37:14.180821 28639 net.cpp:380] score_pool3c-R -> score_pool3c-R
I0419 08:37:14.180861 28639 net.cpp:122] Setting up score_pool3c-R
I0419 08:37:14.180873 28639 net.cpp:129] Top shape: 1 3 74 46 (10212)
I0419 08:37:14.180877 28639 net.cpp:137] Memory required for data: 1761445740
I0419 08:37:14.180881 28639 layer_factory.hpp:77] Creating layer fuse_pool3-R
I0419 08:37:14.180889 28639 net.cpp:84] Creating Layer fuse_pool3-R
I0419 08:37:14.180893 28639 net.cpp:406] fuse_pool3-R <- upscore_pool4-new-R_upscore_pool4-new-R_0_split_1
I0419 08:37:14.180899 28639 net.cpp:406] fuse_pool3-R <- score_pool3c-R
I0419 08:37:14.180907 28639 net.cpp:380] fuse_pool3-R -> fuse_pool3-R
I0419 08:37:14.180951 28639 net.cpp:122] Setting up fuse_pool3-R
I0419 08:37:14.180968 28639 net.cpp:129] Top shape: 1 3 74 46 (10212)
I0419 08:37:14.180974 28639 net.cpp:137] Memory required for data: 1761486588
I0419 08:37:14.180980 28639 layer_factory.hpp:77] Creating layer upscore8-new-R
I0419 08:37:14.180989 28639 net.cpp:84] Creating Layer upscore8-new-R
I0419 08:37:14.180994 28639 net.cpp:406] upscore8-new-R <- fuse_pool3-R
I0419 08:37:14.181005 28639 net.cpp:380] upscore8-new-R -> upscore8-new-R
I0419 08:37:14.181378 28639 net.cpp:122] Setting up upscore8-new-R
I0419 08:37:14.181391 28639 net.cpp:129] Top shape: 1 3 600 376 (676800)
I0419 08:37:14.181396 28639 net.cpp:137] Memory required for data: 1764193788
I0419 08:37:14.181401 28639 layer_factory.hpp:77] Creating layer upscore8_cropped-R
I0419 08:37:14.181424 28639 net.cpp:84] Creating Layer upscore8_cropped-R
I0419 08:37:14.181430 28639 net.cpp:406] upscore8_cropped-R <- upscore8-new-R
I0419 08:37:14.181438 28639 net.cpp:406] upscore8_cropped-R <- data-R_crop_0_split_1
I0419 08:37:14.181445 28639 net.cpp:380] upscore8_cropped-R -> upscore8_cropped-R
I0419 08:37:14.181493 28639 net.cpp:122] Setting up upscore8_cropped-R
I0419 08:37:14.181506 28639 net.cpp:129] Top shape: 1 3 512 310 (476160)
I0419 08:37:14.181511 28639 net.cpp:137] Memory required for data: 1766098428
I0419 08:37:14.181515 28639 layer_factory.hpp:77] Creating layer score-R
I0419 08:37:14.181524 28639 net.cpp:84] Creating Layer score-R
I0419 08:37:14.181529 28639 net.cpp:406] score-R <- upscore8_cropped-R
I0419 08:37:14.181540 28639 net.cpp:380] score-R -> score-R
I0419 08:37:14.185008 28639 net.cpp:122] Setting up score-R
I0419 08:37:14.185061 28639 net.cpp:129] Top shape: 1 3 512 310 (476160)
I0419 08:37:14.185066 28639 net.cpp:137] Memory required for data: 1768003068
I0419 08:37:14.185094 28639 layer_factory.hpp:77] Creating layer score_uncropped-R
I0419 08:37:14.185461 28639 net.cpp:84] Creating Layer score_uncropped-R
I0419 08:37:14.185489 28639 net.cpp:406] score_uncropped-R <- crop_info
I0419 08:37:14.185514 28639 net.cpp:406] score_uncropped-R <- score-R
I0419 08:37:14.185519 28639 net.cpp:406] score_uncropped-R <- data_data_0_split_3
I0419 08:37:14.185526 28639 net.cpp:380] score_uncropped-R -> score_uncropped-R
I0419 08:37:14.196292 28639 net.cpp:122] Setting up score_uncropped-R
I0419 08:37:14.196312 28639 net.cpp:129] Top shape: 1 3 512 310 (476160)
I0419 08:37:14.196316 28639 net.cpp:137] Memory required for data: 1769907708
I0419 08:37:14.196326 28639 layer_factory.hpp:77] Creating layer loss1
I0419 08:37:14.196344 28639 net.cpp:84] Creating Layer loss1
I0419 08:37:14.196349 28639 net.cpp:406] loss1 <- score_score_0_split_1
I0419 08:37:14.196357 28639 net.cpp:406] loss1 <- label_data_1_split_1
I0419 08:37:14.196364 28639 net.cpp:380] loss1 -> loss1
…
