…
snapshot_prefix: "/media/Med_2T2/data2/models/snapshots/indiv:1e-5x10,20/FD3:YI3_1_20180418_201524/train"
test_initialization: false
average_loss: 20
stepvalue: 40000
iter_size: 1
I0418 23:54:23.355473 20701 solver.cpp:77] Creating training net from train_net file: /media/Med_2T2/data2/prototxts/training_S3x10.prototxt
I0418 23:54:23.357745 20701 net.cpp:51] Initializing net from parameters: 
state {
  phase: TRAIN
}
layer {
  name: "data"
  type: "Python"
  top: "data"
  top: "label"
  top: "crop_margin"
  top: "crop_prob"
  top: "crop_sample_batch"
  python_param {
    module: "Data"
    layer: "DataLayer"
  }
}
layer {
  name: "conv1_1"
  type: "Convolution"
  bottom: "data"
  top: "conv1_1"
  param {
    lr_mult: 1
    decay_mult: 1
  }
  param {
    lr_mult: 2
    decay_mult: 0
  }
  convolution_param {
    num_output: 64
    pad: 100
    kernel_size: 3
    stride: 1
  }
}
layer {
  name: "relu1_1"
  type: "ReLU"
  bottom: "conv1_1"
  top: "conv1_1"
}
layer {
  name: "conv1_2"
  type: "Convolution"
  bottom: "conv1_1"
  top: "conv1_2"
  param {
    lr_mult: 1
    decay_mult: 1
  }
  param {
    lr_mult: 2
    decay_mult: 0
  }
  convolution_param {
    num_output: 64
    pad: 1
    kernel_size: 3
    stride: 1
  }
}
layer {
  name: "relu1_2"
  type: "ReLU"
  bottom: "conv1_2"
  top: "conv1_2"
}
layer {
  name: "pool1"
  type: "Pooling"
  bottom: "conv1_2"
  top: "pool1"
  pooling_param {
    pool: MAX
    kernel_size: 2
    stride: 2
  }
}
layer {
  name: "conv2_1"
  type: "Convolution"
  bottom: "pool1"
  top: "conv2_1"
  param {
    lr_mult: 1
    decay_mult: 1
  }
  param {
    lr_mult: 2
    decay_mult: 0
  }
  convolution_param {
    num_output: 128
    pad: 1
    kernel_size: 3
    stride: 1
  }
}
layer {
  name: "relu2_1"
  type: "ReLU"
  bottom: "conv2_1"
  top: "conv2_1"
}
layer {
  name: "conv2_2"
  type: "Convolution"
  bottom: "conv2_1"
  top: "conv2_2"
  param {
    lr_mult: 1
    decay_mult: 1
  }
  param {
    lr_mult: 2
    decay_mult: 0
  }
  convolution_param {
    num_output: 128
    pad: 1
    kernel_size: 3
    stride: 1
  }
}
layer {
  name: "relu2_2"
  type: "ReLU"
  bottom: "conv2_2"
  top: "conv2_2"
}
layer {
  name: "pool2"
  type: "Pooling"
  bottom: "conv2_2"
  top: "pool2"
  pooling_param {
    pool: MAX
    kernel_size: 2
    stride: 2
  }
}
layer {
  name: "conv3_1"
  type: "Convolution"
  bottom: "pool2"
  top: "conv3_1"
  param {
    lr_mult: 1
    decay_mult: 1
  }
  param {
    lr_mult: 2
    decay_mult: 0
  }
  convolution_param {
    num_output: 256
    pad: 1
    kernel_size: 3
    stride: 1
  }
}
layer {
  name: "relu3_1"
  type: "ReLU"
  bottom: "conv3_1"
  top: "conv3_1"
}
layer {
  name: "conv3_2"
  type: "Convolution"
  bottom: "conv3_1"
  top: "conv3_2"
  param {
    lr_mult: 1
    decay_mult: 1
  }
  param {
    lr_mult: 2
    decay_mult: 0
  }
  convolution_param {
    num_output: 256
    pad: 1
    kernel_size: 3
    stride: 1
  }
}
layer {
  name: "relu3_2"
  type: "ReLU"
  bottom: "conv3_2"
  top: "conv3_2"
}
layer {
  name: "conv3_3"
  type: "Convolution"
  bottom: "conv3_2"
  top: "conv3_3"
  param {
    lr_mult: 1
    decay_mult: 1
  }
  param {
    lr_mult: 2
    decay_mult: 0
  }
  convolution_param {
    num_output: 256
    pad: 1
    kernel_size: 3
    stride: 1
  }
}
layer {
  name: "relu3_3"
  type: "ReLU"
  bottom: "conv3_3"
  top: "conv3_3"
}
layer {
  name: "pool3"
  type: "Pooling"
  bottom: "conv3_3"
  top: "pool3"
  pooling_param {
    pool: MAX
    kernel_size: 2
    stride: 2
  }
}
layer {
  name: "conv4_1"
  type: "Convolution"
  bottom: "pool3"
  top: "conv4_1"
  param {
    lr_mult: 1
    decay_mult: 1
  }
  param {
    lr_mult: 2
    decay_mult: 0
  }
  convolution_param {
    num_output: 512
    pad: 1
    kernel_size: 3
    stride: 1
  }
}
layer {
  name: "relu4_1"
  type: "ReLU"
  bottom: "conv4_1"
  top: "conv4_1"
}
layer {
  name: "conv4_2"
  type: "Convolution"
  bottom: "conv4_1"
  top: "conv4_2"
  param {
    lr_mult: 1
    decay_mult: 1
  }
  param {
    lr_mult: 2
    decay_mult: 0
  }
  convolution_param {
    num_output: 512
    pad: 1
    kernel_size: 3
    stride: 1
  }
}
layer {
  name: "relu4_2"
  type: "ReLU"
  bottom: "conv4_2"
  top: "conv4_2"
}
layer {
  name: "conv4_3"
  type: "Convolution"
  bottom: "conv4_2"
  top: "conv4_3"
  param {
    lr_mult: 1
    decay_mult: 1
  }
  param {
    lr_mult: 2
    decay_mult: 0
  }
  convolution_param {
    num_output: 512
    pad: 1
    kernel_size: 3
    stride: 1
  }
}
layer {
  name: "relu4_3"
  type: "ReLU"
  bottom: "conv4_3"
  top: "conv4_3"
}
layer {
  name: "pool4"
  type: "Pooling"
  bottom: "conv4_3"
  top: "pool4"
  pooling_param {
    pool: MAX
    kernel_size: 2
    stride: 2
  }
}
layer {
  name: "conv5_1"
  type: "Convolution"
  bottom: "pool4"
  top: "conv5_1"
  param {
    lr_mult: 1
    decay_mult: 1
  }
  param {
    lr_mult: 2
    decay_mult: 0
  }
  convolution_param {
    num_output: 512
    pad: 1
    kernel_size: 3
    stride: 1
  }
}
layer {
  name: "relu5_1"
  type: "ReLU"
  bottom: "conv5_1"
  top: "conv5_1"
}
layer {
  name: "conv5_2"
  type: "Convolution"
  bottom: "conv5_1"
  top: "conv5_2"
  param {
    lr_mult: 1
    decay_mult: 1
  }
  param {
    lr_mult: 2
    decay_mult: 0
  }
  convolution_param {
    num_output: 512
    pad: 1
    kernel_size: 3
    stride: 1
  }
}
layer {
  name: "relu5_2"
  type: "ReLU"
  bottom: "conv5_2"
  top: "conv5_2"
}
layer {
  name: "conv5_3"
  type: "Convolution"
  bottom: "conv5_2"
  top: "conv5_3"
  param {
    lr_mult: 1
    decay_mult: 1
  }
  param {
    lr_mult: 2
    decay_mult: 0
  }
  convolution_param {
    num_output: 512
    pad: 1
    kernel_size: 3
    stride: 1
  }
}
layer {
  name: "relu5_3"
  type: "ReLU"
  bottom: "conv5_3"
  top: "conv5_3"
}
layer {
  name: "pool5"
  type: "Pooling"
  bottom: "conv5_3"
  top: "pool5"
  pooling_param {
    pool: MAX
    kernel_size: 2
    stride: 2
  }
}
layer {
  name: "fc6"
  type: "Convolution"
  bottom: "pool5"
  top: "fc6"
  param {
    lr_mult: 1
    decay_mult: 1
  }
  param {
    lr_mult: 2
    decay_mult: 0
  }
  convolution_param {
    num_output: 4096
    pad: 0
    kernel_size: 7
    stride: 1
  }
}
layer {
  name: "relu6"
  type: "ReLU"
  bottom: "fc6"
  top: "fc6"
}
layer {
  name: "drop6"
  type: "Dropout"
  bottom: "fc6"
  top: "fc6"
  dropout_param {
    dropout_ratio: 0.5
  }
}
layer {
  name: "fc7"
  type: "Convolution"
  bottom: "fc6"
  top: "fc7"
  param {
    lr_mult: 1
    decay_mult: 1
  }
  param {
    lr_mult: 2
    decay_mult: 0
  }
  convolution_param {
    num_output: 4096
    pad: 0
    kernel_size: 1
    stride: 1
  }
}
layer {
  name: "relu7"
  type: "ReLU"
  bottom: "fc7"
  top: "fc7"
}
layer {
  name: "drop7"
  type: "Dropout"
  bottom: "fc7"
  top: "fc7"
  dropout_param {
    dropout_ratio: 0.5
  }
}
layer {
  name: "score_fr-new"
  type: "Convolution"
  bottom: "fc7"
  top: "score_fr-new"
  param {
    lr_mult: 1
    decay_mult: 1
  }
  param {
    lr_mult: 2
    decay_mult: 0
  }
  convolution_param {
    num_output: 3
    kernel_size: 1
  }
}
layer {
  name: "upscore2-new"
  type: "Deconvolution"
  bottom: "score_fr-new"
  top: "upscore2-new"
  param {
    lr_mult: 0
  }
  convolution_param {
    num_output: 3
    bias_term: false
    kernel_size: 4
    stride: 2
  }
}
layer {
  name: "score_pool4-new"
  type: "Convolution"
  bottom: "pool4"
  top: "score_pool4-new"
  param {
    lr_mult: 1
    decay_mult: 1
  }
  param {
    lr_mult: 2
    decay_mult: 0
  }
  convolution_param {
    num_output: 3
    pad: 0
    kernel_size: 1
  }
}
layer {
  name: "score_pool4c"
  type: "Crop"
  bottom: "score_pool4-new"
  bottom: "upscore2-new"
  top: "score_pool4c"
  crop_param {
    axis: 2
    offset: 5
  }
}
layer {
  name: "fuse_pool4"
  type: "Eltwise"
  bottom: "upscore2-new"
  bottom: "score_pool4c"
  top: "fuse_pool4"
  eltwise_param {
    operation: SUM
  }
}
layer {
  name: "upscore_pool4-new"
  type: "Deconvolution"
  bottom: "fuse_pool4"
  top: "upscore_pool4-new"
  param {
    lr_mult: 0
  }
  convolution_param {
    num_output: 3
    bias_term: false
    kernel_size: 4
    stride: 2
  }
}
layer {
  name: "score_pool3-new"
  type: "Convolution"
  bottom: "pool3"
  top: "score_pool3-new"
  param {
    lr_mult: 1
    decay_mult: 1
  }
  param {
    lr_mult: 2
    decay_mult: 0
  }
  convolution_param {
    num_output: 3
    pad: 0
    kernel_size: 1
  }
}
layer {
  name: "score_pool3c"
  type: "Crop"
  bottom: "score_pool3-new"
  bottom: "upscore_pool4-new"
  top: "score_pool3c"
  crop_param {
    axis: 2
    offset: 9
  }
}
layer {
  name: "fuse_pool3"
  type: "Eltwise"
  bottom: "upscore_pool4-new"
  bottom: "score_pool3c"
  top: "fuse_pool3"
  eltwise_param {
    operation: SUM
  }
}
layer {
  name: "upscore8-new"
  type: "Deconvolution"
  bottom: "fuse_pool3"
  top: "upscore8-new"
  param {
    lr_mult: 0
  }
  convolution_param {
    num_output: 3
    bias_term: false
    kernel_size: 16
    stride: 8
  }
}
layer {
  name: "upscore8_cropped"
  type: "Crop"
  bottom: "upscore8-new"
  bottom: "data"
  top: "upscore8_cropped"
  crop_param {
    axis: 2
    offset: 31
  }
}
layer {
  name: "score"
  type: "Convolution"
  bottom: "upscore8_cropped"
  top: "score"
  param {
    lr_mult: 1
    decay_mult: 1
  }
  param {
    lr_mult: 2
    decay_mult: 0
  }
  convolution_param {
    num_output: 3
    pad: 1
    kernel_size: 3
    stride: 1
    weight_filler {
      type: "xavier"
    }
    bias_filler {
      type: "constant"
      value: 0
    }
  }
}
layer {
  name: "prob"
  type: "Sigmoid"
  bottom: "score"
  top: "prob"
}
layer {
  name: "saliency"
  type: "Convolution"
  bottom: "prob"
  top: "saliency"
  param {
    lr_mult: 10
    decay_mult: 1
  }
  param {
    lr_mult: 20
    decay_mult: 0
  }
  convolution_param {
    num_output: 3
    pad: 2
    kernel_size: 5
    stride: 1
    weight_filler {
      type: "xavier"
    }
    bias_filler {
      type: "constant"
      value: 1
    }
  }
}
layer {
  name: "silence_saliency"
  type: "Silence"
  bottom: "saliency"
}
layer {
  name: "crop"
  type: "Python"
  bottom: "label"
  bottom: "data"
  bottom: "crop_margin"
  bottom: "crop_prob"
  bottom: "crop_sample_batch"
  top: "data-R"
  top: "crop_info"
  python_param {
    module: "Crop"
    layer: "CropLayer"
    param_str: "{\"TEST\": 0}"
  }
}
layer {
  name: "conv1_1-R"
  type: "Convolution"
  bottom: "data-R"
  top: "conv1_1-R"
  param {
    lr_mult: 10
    decay_mult: 1
  }
  param {
    lr_mult: 20
    decay_mult: 0
  }
  convolution_param {
    num_output: 64
    pad: 100
    kernel_size: 3
    stride: 1
  }
}
layer {
  name: "relu1_1-R"
  type: "ReLU"
  bottom: "conv1_1-R"
  top: "conv1_1-R"
}
layer {
  name: "conv1_2-R"
  type: "Convolution"
  bottom: "conv1_1-R"
  top: "conv1_2-R"
  param {
    lr_mult: 10
    decay_mult: 1
  }
  param {
    lr_mult: 20
    decay_mult: 0
  }
  convolution_param {
    num_output: 64
    pad: 1
    kernel_size: 3
    stride: 1
  }
}
layer {
  name: "relu1_2-R"
  type: "ReLU"
  bottom: "conv1_2-R"
  top: "conv1_2-R"
}
layer {
  name: "pool1-R"
  type: "Pooling"
  bottom: "conv1_2-R"
  top: "pool1-R"
  pooling_param {
    pool: MAX
    kernel_size: 2
    stride: 2
  }
}
layer {
  name: "conv2_1-R"
  type: "Convolution"
  bottom: "pool1-R"
  top: "conv2_1-R"
  param {
    lr_mult: 10
    decay_mult: 1
  }
  param {
    lr_mult: 20
    decay_mult: 0
  }
  convolution_param {
    num_output: 128
    pad: 1
    kernel_size: 3
    stride: 1
  }
}
layer {
  name: "relu2_1-R"
  type: "ReLU"
  bottom: "conv2_1-R"
  top: "conv2_1-R"
}
layer {
  name: "conv2_2-R"
  type: "Convolution"
  bottom: "conv2_1-R"
  top: "conv2_2-R"
  param {
    lr_mult: 10
    decay_mult: 1
  }
  param {
    lr_mult: 20
    decay_mult: 0
  }
  convolution_param {
    num_output: 128
    pad: 1
    kernel_size: 3
    stride: 1
  }
}
layer {
  name: "relu2_2-R"
  type: "ReLU"
  bottom: "conv2_2-R"
  top: "conv2_2-R"
}
layer {
  name: "pool2-R"
  type: "Pooling"
  bottom: "conv2_2-R"
  top: "pool2-R"
  pooling_param {
    pool: MAX
    kernel_size: 2
    stride: 2
  }
}
layer {
  name: "conv3_1-R"
  type: "Convolution"
  bottom: "pool2-R"
  top: "conv3_1-R"
  param {
    lr_mult: 10
    decay_mult: 1
  }
  param {
    lr_mult: 20
    decay_mult: 0
  }
  convolution_param {
    num_output: 256
    pad: 1
    kernel_size: 3
    stride: 1
  }
}
layer {
  name: "relu3_1-R"
  type: "ReLU"
  bottom: "conv3_1-R"
  top: "conv3_1-R"
}
layer {
  name: "conv3_2-R"
  type: "Convolution"
  bottom: "conv3_1-R"
  top: "conv3_2-R"
  param {
    lr_mult: 10
    decay_mult: 1
  }
  param {
    lr_mult: 20
    decay_mult: 0
  }
  convolution_param {
    num_output: 256
    pad: 1
    kernel_size: 3
    stride: 1
  }
}
layer {
  name: "relu3_2-R"
  type: "ReLU"
  bottom: "conv3_2-R"
  top: "conv3_2-R"
}
layer {
  name: "conv3_3-R"
  type: "Convolution"
  bottom: "conv3_2-R"
  top: "conv3_3-R"
  param {
    lr_mult: 10
    decay_mult: 1
  }
  param {
    lr_mult: 20
    decay_mult: 0
  }
  convolution_param {
    num_output: 256
    pad: 1
    kernel_size: 3
    stride: 1
  }
}
layer {
  name: "relu3_3-R"
  type: "ReLU"
  bottom: "conv3_3-R"
  top: "conv3_3-R"
}
layer {
  name: "pool3-R"
  type: "Pooling"
  bottom: "conv3_3-R"
  top: "pool3-R"
  pooling_param {
    pool: MAX
    kernel_size: 2
    stride: 2
  }
}
layer {
  name: "conv4_1-R"
  type: "Convolution"
  bottom: "pool3-R"
  top: "conv4_1-R"
  param {
    lr_mult: 10
    decay_mult: 1
  }
  param {
    lr_mult: 20
    decay_mult: 0
  }
  convolution_param {
    num_output: 512
    pad: 1
    kernel_size: 3
    stride: 1
  }
}
layer {
  name: "relu4_1-R"
  type: "ReLU"
  bottom: "conv4_1-R"
  top: "conv4_1-R"
}
layer {
  name: "conv4_2-R"
  type: "Convolution"
  bottom: "conv4_1-R"
  top: "conv4_2-R"
  param {
    lr_mult: 10
    decay_mult: 1
  }
  param {
    lr_mult: 20
    decay_mult: 0
  }
  convolution_param {
    num_output: 512
    pad: 1
    kernel_size: 3
    stride: 1
  }
}
layer {
  name: "relu4_2-R"
  type: "ReLU"
  bottom: "conv4_2-R"
  top: "conv4_2-R"
}
layer {
  name: "conv4_3-R"
  type: "Convolution"
  bottom: "conv4_2-R"
  top: "conv4_3-R"
  param {
    lr_mult: 10
    decay_mult: 1
  }
  param {
    lr_mult: 20
    decay_mult: 0
  }
  convolution_param {
    num_output: 512
    pad: 1
    kernel_size: 3
    stride: 1
  }
}
layer {
  name: "relu4_3-R"
  type: "ReLU"
  bottom: "conv4_3-R"
  top: "conv4_3-R"
}
layer {
  name: "pool4-R"
  type: "Pooling"
  bottom: "conv4_3-R"
  top: "pool4-R"
  pooling_param {
    pool: MAX
    kernel_size: 2
    stride: 2
  }
}
layer {
  name: "conv5_1-R"
  type: "Convolution"
  bottom: "pool4-R"
  top: "conv5_1-R"
  param {
    lr_mult: 10
    decay_mult: 1
  }
  param {
    lr_mult: 20
    decay_mult: 0
  }
  convolution_param {
    num_output: 512
    pad: 1
    kernel_size: 3
    stride: 1
  }
}
layer {
  name: "relu5_1-R"
  type: "ReLU"
  bottom: "conv5_1-R"
  top: "conv5_1-R"
}
layer {
  name: "conv5_2-R"
  type: "Convolution"
  bottom: "conv5_1-R"
  top: "conv5_2-R"
  param {
    lr_mult: 10
    decay_mult: 1
  }
  param {
    lr_mult: 20
    decay_mult: 0
  }
  convolution_param {
    num_output: 512
    pad: 1
    kernel_size: 3
    stride: 1
  }
}
layer {
  name: "relu5_2-R"
  type: "ReLU"
  bottom: "conv5_2-R"
  top: "conv5_2-R"
}
layer {
  name: "conv5_3-R"
  type: "Convolution"
  bottom: "conv5_2-R"
  top: "conv5_3-R"
  param {
    lr_mult: 10
    decay_mult: 1
  }
  param {
    lr_mult: 20
    decay_mult: 0
  }
  convolution_param {
    num_output: 512
    pad: 1
    kernel_size: 3
    stride: 1
  }
}
layer {
  name: "relu5_3-R"
  type: "ReLU"
  bottom: "conv5_3-R"
  top: "conv5_3-R"
}
layer {
  name: "pool5-R"
  type: "Pooling"
  bottom: "conv5_3-R"
  top: "pool5-R"
  pooling_param {
    pool: MAX
    kernel_size: 2
    stride: 2
  }
}
layer {
  name: "fc6-R"
  type: "Convolution"
  bottom: "pool5-R"
  top: "fc6-R"
  param {
    lr_mult: 10
    decay_mult: 1
  }
  param {
    lr_mult: 20
    decay_mult: 0
  }
  convolution_param {
    num_output: 4096
    pad: 0
    kernel_size: 7
    stride: 1
  }
}
layer {
  name: "relu6-R"
  type: "ReLU"
  bottom: "fc6-R"
  top: "fc6-R"
}
layer {
  name: "drop6-R"
  type: "Dropout"
  bottom: "fc6-R"
  top: "fc6-R"
  dropout_param {
    dropout_ratio: 0.5
  }
}
layer {
  name: "fc7-R"
  type: "Convolution"
  bottom: "fc6-R"
  top: "fc7-R"
  param {
    lr_mult: 10
    decay_mult: 1
  }
  param {
    lr_mult: 20
    decay_mult: 0
  }
  convolution_param {
    num_output: 4096
    pad: 0
    kernel_size: 1
    stride: 1
  }
}
layer {
  name: "relu7-R"
  type: "ReLU"
  bottom: "fc7-R"
  top: "fc7-R"
}
layer {
  name: "drop7-R"
  type: "Dropout"
  bottom: "fc7-R"
  top: "fc7-R"
  dropout_param {
    dropout_ratio: 0.5
  }
}
layer {
  name: "score_fr-new-R"
  type: "Convolution"
  bottom: "fc7-R"
  top: "score_fr-new-R"
  param {
    lr_mult: 10
    decay_mult: 1
  }
  param {
    lr_mult: 20
    decay_mult: 0
  }
  convolution_param {
    num_output: 3
    kernel_size: 1
  }
}
layer {
  name: "upscore2-new-R"
  type: "Deconvolution"
  bottom: "score_fr-new-R"
  top: "upscore2-new-R"
  param {
    lr_mult: 0
  }
  convolution_param {
    num_output: 3
    bias_term: false
    kernel_size: 4
    stride: 2
  }
}
layer {
  name: "score_pool4-new-R"
  type: "Convolution"
  bottom: "pool4-R"
  top: "score_pool4-new-R"
  param {
    lr_mult: 10
    decay_mult: 1
  }
  param {
    lr_mult: 20
    decay_mult: 0
  }
  convolution_param {
    num_output: 3
    pad: 0
    kernel_size: 1
  }
}
layer {
  name: "score_pool4c-R"
  type: "Crop"
  bottom: "score_pool4-new-R"
  bottom: "upscore2-new-R"
  top: "score_pool4c-R"
  crop_param {
    axis: 2
    offset: 5
  }
}
layer {
  name: "fuse_pool4-R"
  type: "Eltwise"
  bottom: "upscore2-new-R"
  bottom: "score_pool4c-R"
  top: "fuse_pool4-R"
  eltwise_param {
    operation: SUM
  }
}
layer {
  name: "upscore_pool4-new-R"
  type: "Deconvolution"
  bottom: "fuse_pool4-R"
  top: "upscore_pool4-new-R"
  param {
    lr_mult: 0
  }
  convolution_param {
    num_output: 3
    bias_term: false
    kernel_size: 4
    stride: 2
  }
}
layer {
  name: "score_pool3-new-R"
  type: "Convolution"
  bottom: "pool3-R"
  top: "score_pool3-new-R"
  param {
    lr_mult: 10
    decay_mult: 1
  }
  param {
    lr_mult: 20
    decay_mult: 0
  }
  convolution_param {
    num_output: 3
    pad: 0
    kernel_size: 1
  }
}
layer {
  name: "score_pool3c-R"
  type: "Crop"
  bottom: "score_pool3-new-R"
  bottom: "upscore_pool4-new-R"
  top: "score_pool3c-R"
  crop_param {
    axis: 2
    offset: 9
  }
}
layer {
  name: "fuse_pool3-R"
  type: "Eltwise"
  bottom: "upscore_pool4-new-R"
  bottom: "score_pool3c-R"
  top: "fuse_pool3-R"
  eltwise_param {
    operation: SUM
  }
}
layer {
  name: "upscore8-new-R"
  type: "Deconvolution"
  bottom: "fuse_pool3-R"
  top: "upscore8-new-R"
  param {
    lr_mult: 0
  }
  convolution_param {
    num_output: 3
    bias_term: false
    kernel_size: 16
    stride: 8
  }
}
layer {
  name: "upscore8_cropped-R"
  type: "Crop"
  bottom: "upscore8-new-R"
  bottom: "data-R"
  top: "upscore8_cropped-R"
  crop_param {
    axis: 2
    offset: 31
  }
}
layer {
  name: "score-R"
  type: "Convolution"
  bottom: "upscore8_cropped-R"
  top: "score-R"
  param {
    lr_mult: 10
    decay_mult: 1
  }
  param {
    lr_mult: 20
    decay_mult: 0
  }
  convolution_param {
    num_output: 3
    pad: 1
    kernel_size: 3
    stride: 1
    weight_filler {
      type: "xavier"
    }
    bias_filler {
      type: "constant"
      value: 0
    }
  }
}
layer {
  name: "score_uncropped-R"
  type: "Python"
  bottom: "crop_info"
  bottom: "score-R"
  bottom: "data"
  top: "score_uncropped-R"
  python_param {
    module: "Uncrop"
    layer: "UncropLayer"
  }
}
layer {
  name: "loss1"
  type: "DiceLoss"
  bottom: "score"
  bottom: "label"
  top: "loss1"
  loss_weight: 0.333333
}
layer {
  name: "loss2"
  type: "DiceLoss"
  bottom: "score_uncropped-R"
  bottom: "label"
  top: "loss2"
  loss_weight: 0.666667
}
I0418 23:54:23.358247 20701 layer_factory.hpp:77] Creating layer data
I0418 23:54:23.359037 20701 net.cpp:84] Creating Layer data
I0418 23:54:23.359050 20701 net.cpp:380] data -> data
I0418 23:54:23.359066 20701 net.cpp:380] data -> label
I0418 23:54:23.359072 20701 net.cpp:380] data -> crop_margin
I0418 23:54:23.359077 20701 net.cpp:380] data -> crop_prob
I0418 23:54:23.359082 20701 net.cpp:380] data -> crop_sample_batch
I0418 23:54:23.512188 20701 net.cpp:122] Setting up data
I0418 23:54:23.512240 20701 net.cpp:129] Top shape: 1 3 512 310 (476160)
I0418 23:54:23.512248 20701 net.cpp:129] Top shape: 1 3 512 310 (476160)
I0418 23:54:23.512254 20701 net.cpp:129] Top shape: 1 (1)
I0418 23:54:23.512260 20701 net.cpp:129] Top shape: 1 (1)
I0418 23:54:23.512264 20701 net.cpp:129] Top shape: 1 (1)
I0418 23:54:23.512269 20701 net.cpp:137] Memory required for data: 3809292
I0418 23:54:23.512279 20701 layer_factory.hpp:77] Creating layer data_data_0_split
I0418 23:54:23.512295 20701 net.cpp:84] Creating Layer data_data_0_split
I0418 23:54:23.512301 20701 net.cpp:406] data_data_0_split <- data
I0418 23:54:23.512315 20701 net.cpp:380] data_data_0_split -> data_data_0_split_0
I0418 23:54:23.512328 20701 net.cpp:380] data_data_0_split -> data_data_0_split_1
I0418 23:54:23.512336 20701 net.cpp:380] data_data_0_split -> data_data_0_split_2
I0418 23:54:23.512342 20701 net.cpp:380] data_data_0_split -> data_data_0_split_3
I0418 23:54:23.512403 20701 net.cpp:122] Setting up data_data_0_split
I0418 23:54:23.512410 20701 net.cpp:129] Top shape: 1 3 512 310 (476160)
I0418 23:54:23.512424 20701 net.cpp:129] Top shape: 1 3 512 310 (476160)
I0418 23:54:23.512429 20701 net.cpp:129] Top shape: 1 3 512 310 (476160)
I0418 23:54:23.512434 20701 net.cpp:129] Top shape: 1 3 512 310 (476160)
I0418 23:54:23.512439 20701 net.cpp:137] Memory required for data: 11427852
I0418 23:54:23.512442 20701 layer_factory.hpp:77] Creating layer label_data_1_split
I0418 23:54:23.512449 20701 net.cpp:84] Creating Layer label_data_1_split
I0418 23:54:23.512454 20701 net.cpp:406] label_data_1_split <- label
I0418 23:54:23.512459 20701 net.cpp:380] label_data_1_split -> label_data_1_split_0
I0418 23:54:23.512466 20701 net.cpp:380] label_data_1_split -> label_data_1_split_1
I0418 23:54:23.512473 20701 net.cpp:380] label_data_1_split -> label_data_1_split_2
I0418 23:54:23.512512 20701 net.cpp:122] Setting up label_data_1_split
I0418 23:54:23.512519 20701 net.cpp:129] Top shape: 1 3 512 310 (476160)
I0418 23:54:23.512524 20701 net.cpp:129] Top shape: 1 3 512 310 (476160)
I0418 23:54:23.512529 20701 net.cpp:129] Top shape: 1 3 512 310 (476160)
I0418 23:54:23.512533 20701 net.cpp:137] Memory required for data: 17141772
I0418 23:54:23.512537 20701 layer_factory.hpp:77] Creating layer conv1_1
I0418 23:54:23.512553 20701 net.cpp:84] Creating Layer conv1_1
I0418 23:54:23.512558 20701 net.cpp:406] conv1_1 <- data_data_0_split_0
I0418 23:54:23.512565 20701 net.cpp:380] conv1_1 -> conv1_1
I0418 23:54:23.848526 20701 net.cpp:122] Setting up conv1_1
I0418 23:54:23.848568 20701 net.cpp:129] Top shape: 1 64 710 508 (23083520)
I0418 23:54:23.848577 20701 net.cpp:137] Memory required for data: 109475852
I0418 23:54:23.848606 20701 layer_factory.hpp:77] Creating layer relu1_1
I0418 23:54:23.848628 20701 net.cpp:84] Creating Layer relu1_1
I0418 23:54:23.848635 20701 net.cpp:406] relu1_1 <- conv1_1
I0418 23:54:23.848646 20701 net.cpp:367] relu1_1 -> conv1_1 (in-place)
I0418 23:54:23.848904 20701 net.cpp:122] Setting up relu1_1
I0418 23:54:23.848917 20701 net.cpp:129] Top shape: 1 64 710 508 (23083520)
I0418 23:54:23.848922 20701 net.cpp:137] Memory required for data: 201809932
I0418 23:54:23.848927 20701 layer_factory.hpp:77] Creating layer conv1_2
I0418 23:54:23.848944 20701 net.cpp:84] Creating Layer conv1_2
I0418 23:54:23.848953 20701 net.cpp:406] conv1_2 <- conv1_1
I0418 23:54:23.848961 20701 net.cpp:380] conv1_2 -> conv1_2
I0418 23:54:23.853662 20701 net.cpp:122] Setting up conv1_2
I0418 23:54:23.853684 20701 net.cpp:129] Top shape: 1 64 710 508 (23083520)
I0418 23:54:23.853689 20701 net.cpp:137] Memory required for data: 294144012
I0418 23:54:23.853701 20701 layer_factory.hpp:77] Creating layer relu1_2
I0418 23:54:23.853713 20701 net.cpp:84] Creating Layer relu1_2
I0418 23:54:23.853718 20701 net.cpp:406] relu1_2 <- conv1_2
I0418 23:54:23.853736 20701 net.cpp:367] relu1_2 -> conv1_2 (in-place)
I0418 23:54:23.853981 20701 net.cpp:122] Setting up relu1_2
I0418 23:54:23.853992 20701 net.cpp:129] Top shape: 1 64 710 508 (23083520)
I0418 23:54:23.853997 20701 net.cpp:137] Memory required for data: 386478092
I0418 23:54:23.854001 20701 layer_factory.hpp:77] Creating layer pool1
I0418 23:54:23.854012 20701 net.cpp:84] Creating Layer pool1
I0418 23:54:23.854017 20701 net.cpp:406] pool1 <- conv1_2
I0418 23:54:23.854027 20701 net.cpp:380] pool1 -> pool1
I0418 23:54:23.854089 20701 net.cpp:122] Setting up pool1
I0418 23:54:23.854099 20701 net.cpp:129] Top shape: 1 64 355 254 (5770880)
I0418 23:54:23.854104 20701 net.cpp:137] Memory required for data: 409561612
I0418 23:54:23.854107 20701 layer_factory.hpp:77] Creating layer conv2_1
I0418 23:54:23.854126 20701 net.cpp:84] Creating Layer conv2_1
I0418 23:54:23.854131 20701 net.cpp:406] conv2_1 <- pool1
I0418 23:54:23.854140 20701 net.cpp:380] conv2_1 -> conv2_1
I0418 23:54:23.856163 20701 net.cpp:122] Setting up conv2_1
I0418 23:54:23.856184 20701 net.cpp:129] Top shape: 1 128 355 254 (11541760)
I0418 23:54:23.856189 20701 net.cpp:137] Memory required for data: 455728652
I0418 23:54:23.856204 20701 layer_factory.hpp:77] Creating layer relu2_1
I0418 23:54:23.856214 20701 net.cpp:84] Creating Layer relu2_1
I0418 23:54:23.856218 20701 net.cpp:406] relu2_1 <- conv2_1
I0418 23:54:23.856237 20701 net.cpp:367] relu2_1 -> conv2_1 (in-place)
I0418 23:54:23.856470 20701 net.cpp:122] Setting up relu2_1
I0418 23:54:23.856482 20701 net.cpp:129] Top shape: 1 128 355 254 (11541760)
I0418 23:54:23.856487 20701 net.cpp:137] Memory required for data: 501895692
I0418 23:54:23.856492 20701 layer_factory.hpp:77] Creating layer conv2_2
I0418 23:54:23.856503 20701 net.cpp:84] Creating Layer conv2_2
I0418 23:54:23.856513 20701 net.cpp:406] conv2_2 <- conv2_1
I0418 23:54:23.856519 20701 net.cpp:380] conv2_2 -> conv2_2
I0418 23:54:23.860466 20701 net.cpp:122] Setting up conv2_2
I0418 23:54:23.860487 20701 net.cpp:129] Top shape: 1 128 355 254 (11541760)
I0418 23:54:23.860493 20701 net.cpp:137] Memory required for data: 548062732
I0418 23:54:23.860502 20701 layer_factory.hpp:77] Creating layer relu2_2
I0418 23:54:23.860514 20701 net.cpp:84] Creating Layer relu2_2
I0418 23:54:23.860519 20701 net.cpp:406] relu2_2 <- conv2_2
I0418 23:54:23.860536 20701 net.cpp:367] relu2_2 -> conv2_2 (in-place)
I0418 23:54:23.860774 20701 net.cpp:122] Setting up relu2_2
I0418 23:54:23.860786 20701 net.cpp:129] Top shape: 1 128 355 254 (11541760)
I0418 23:54:23.860800 20701 net.cpp:137] Memory required for data: 594229772
I0418 23:54:23.860805 20701 layer_factory.hpp:77] Creating layer pool2
I0418 23:54:23.860813 20701 net.cpp:84] Creating Layer pool2
I0418 23:54:23.860817 20701 net.cpp:406] pool2 <- conv2_2
I0418 23:54:23.860824 20701 net.cpp:380] pool2 -> pool2
I0418 23:54:23.860882 20701 net.cpp:122] Setting up pool2
I0418 23:54:23.860890 20701 net.cpp:129] Top shape: 1 128 178 127 (2893568)
I0418 23:54:23.860894 20701 net.cpp:137] Memory required for data: 605804044
I0418 23:54:23.860899 20701 layer_factory.hpp:77] Creating layer conv3_1
I0418 23:54:23.860913 20701 net.cpp:84] Creating Layer conv3_1
I0418 23:54:23.860919 20701 net.cpp:406] conv3_1 <- pool2
I0418 23:54:23.860929 20701 net.cpp:380] conv3_1 -> conv3_1
I0418 23:54:23.863948 20701 net.cpp:122] Setting up conv3_1
I0418 23:54:23.863965 20701 net.cpp:129] Top shape: 1 256 178 127 (5787136)
I0418 23:54:23.863967 20701 net.cpp:137] Memory required for data: 628952588
I0418 23:54:23.863979 20701 layer_factory.hpp:77] Creating layer relu3_1
I0418 23:54:23.863986 20701 net.cpp:84] Creating Layer relu3_1
I0418 23:54:23.863989 20701 net.cpp:406] relu3_1 <- conv3_1
I0418 23:54:23.863996 20701 net.cpp:367] relu3_1 -> conv3_1 (in-place)
I0418 23:54:23.864529 20701 net.cpp:122] Setting up relu3_1
I0418 23:54:23.864557 20701 net.cpp:129] Top shape: 1 256 178 127 (5787136)
I0418 23:54:23.864562 20701 net.cpp:137] Memory required for data: 652101132
I0418 23:54:23.864564 20701 layer_factory.hpp:77] Creating layer conv3_2
I0418 23:54:23.864591 20701 net.cpp:84] Creating Layer conv3_2
I0418 23:54:23.864594 20701 net.cpp:406] conv3_2 <- conv3_1
I0418 23:54:23.864600 20701 net.cpp:380] conv3_2 -> conv3_2
I0418 23:54:23.867415 20701 net.cpp:122] Setting up conv3_2
I0418 23:54:23.867431 20701 net.cpp:129] Top shape: 1 256 178 127 (5787136)
I0418 23:54:23.867434 20701 net.cpp:137] Memory required for data: 675249676
I0418 23:54:23.867441 20701 layer_factory.hpp:77] Creating layer relu3_2
I0418 23:54:23.867451 20701 net.cpp:84] Creating Layer relu3_2
I0418 23:54:23.867455 20701 net.cpp:406] relu3_2 <- conv3_2
I0418 23:54:23.867461 20701 net.cpp:367] relu3_2 -> conv3_2 (in-place)
I0418 23:54:23.868005 20701 net.cpp:122] Setting up relu3_2
I0418 23:54:23.868016 20701 net.cpp:129] Top shape: 1 256 178 127 (5787136)
I0418 23:54:23.868021 20701 net.cpp:137] Memory required for data: 698398220
I0418 23:54:23.868023 20701 layer_factory.hpp:77] Creating layer conv3_3
I0418 23:54:23.868036 20701 net.cpp:84] Creating Layer conv3_3
I0418 23:54:23.868041 20701 net.cpp:406] conv3_3 <- conv3_2
I0418 23:54:23.868047 20701 net.cpp:380] conv3_3 -> conv3_3
I0418 23:54:23.871115 20701 net.cpp:122] Setting up conv3_3
I0418 23:54:23.871130 20701 net.cpp:129] Top shape: 1 256 178 127 (5787136)
I0418 23:54:23.871134 20701 net.cpp:137] Memory required for data: 721546764
I0418 23:54:23.871143 20701 layer_factory.hpp:77] Creating layer relu3_3
I0418 23:54:23.871150 20701 net.cpp:84] Creating Layer relu3_3
I0418 23:54:23.871153 20701 net.cpp:406] relu3_3 <- conv3_3
I0418 23:54:23.871158 20701 net.cpp:367] relu3_3 -> conv3_3 (in-place)
I0418 23:54:23.871369 20701 net.cpp:122] Setting up relu3_3
I0418 23:54:23.871379 20701 net.cpp:129] Top shape: 1 256 178 127 (5787136)
I0418 23:54:23.871382 20701 net.cpp:137] Memory required for data: 744695308
I0418 23:54:23.871387 20701 layer_factory.hpp:77] Creating layer pool3
I0418 23:54:23.871392 20701 net.cpp:84] Creating Layer pool3
I0418 23:54:23.871397 20701 net.cpp:406] pool3 <- conv3_3
I0418 23:54:23.871403 20701 net.cpp:380] pool3 -> pool3
I0418 23:54:23.871446 20701 net.cpp:122] Setting up pool3
I0418 23:54:23.871454 20701 net.cpp:129] Top shape: 1 256 89 64 (1458176)
I0418 23:54:23.871457 20701 net.cpp:137] Memory required for data: 750528012
I0418 23:54:23.871460 20701 layer_factory.hpp:77] Creating layer pool3_pool3_0_split
I0418 23:54:23.871469 20701 net.cpp:84] Creating Layer pool3_pool3_0_split
I0418 23:54:23.871471 20701 net.cpp:406] pool3_pool3_0_split <- pool3
I0418 23:54:23.871476 20701 net.cpp:380] pool3_pool3_0_split -> pool3_pool3_0_split_0
I0418 23:54:23.871484 20701 net.cpp:380] pool3_pool3_0_split -> pool3_pool3_0_split_1
I0418 23:54:23.871523 20701 net.cpp:122] Setting up pool3_pool3_0_split
I0418 23:54:23.871531 20701 net.cpp:129] Top shape: 1 256 89 64 (1458176)
I0418 23:54:23.871534 20701 net.cpp:129] Top shape: 1 256 89 64 (1458176)
I0418 23:54:23.871537 20701 net.cpp:137] Memory required for data: 762193420
I0418 23:54:23.871541 20701 layer_factory.hpp:77] Creating layer conv4_1
I0418 23:54:23.871549 20701 net.cpp:84] Creating Layer conv4_1
I0418 23:54:23.871553 20701 net.cpp:406] conv4_1 <- pool3_pool3_0_split_0
I0418 23:54:23.871560 20701 net.cpp:380] conv4_1 -> conv4_1
I0418 23:54:23.878875 20701 net.cpp:122] Setting up conv4_1
I0418 23:54:23.878891 20701 net.cpp:129] Top shape: 1 512 89 64 (2916352)
I0418 23:54:23.878895 20701 net.cpp:137] Memory required for data: 773858828
I0418 23:54:23.878902 20701 layer_factory.hpp:77] Creating layer relu4_1
I0418 23:54:23.878911 20701 net.cpp:84] Creating Layer relu4_1
I0418 23:54:23.878916 20701 net.cpp:406] relu4_1 <- conv4_1
I0418 23:54:23.878921 20701 net.cpp:367] relu4_1 -> conv4_1 (in-place)
I0418 23:54:23.879154 20701 net.cpp:122] Setting up relu4_1
I0418 23:54:23.879165 20701 net.cpp:129] Top shape: 1 512 89 64 (2916352)
I0418 23:54:23.879168 20701 net.cpp:137] Memory required for data: 785524236
I0418 23:54:23.879173 20701 layer_factory.hpp:77] Creating layer conv4_2
I0418 23:54:23.879184 20701 net.cpp:84] Creating Layer conv4_2
I0418 23:54:23.879187 20701 net.cpp:406] conv4_2 <- conv4_1
I0418 23:54:23.879194 20701 net.cpp:380] conv4_2 -> conv4_2
I0418 23:54:23.888821 20701 net.cpp:122] Setting up conv4_2
I0418 23:54:23.888845 20701 net.cpp:129] Top shape: 1 512 89 64 (2916352)
I0418 23:54:23.888851 20701 net.cpp:137] Memory required for data: 797189644
I0418 23:54:23.888867 20701 layer_factory.hpp:77] Creating layer relu4_2
I0418 23:54:23.888880 20701 net.cpp:84] Creating Layer relu4_2
I0418 23:54:23.888895 20701 net.cpp:406] relu4_2 <- conv4_2
I0418 23:54:23.888902 20701 net.cpp:367] relu4_2 -> conv4_2 (in-place)
I0418 23:54:23.889158 20701 net.cpp:122] Setting up relu4_2
I0418 23:54:23.889170 20701 net.cpp:129] Top shape: 1 512 89 64 (2916352)
I0418 23:54:23.889175 20701 net.cpp:137] Memory required for data: 808855052
I0418 23:54:23.889180 20701 layer_factory.hpp:77] Creating layer conv4_3
I0418 23:54:23.889192 20701 net.cpp:84] Creating Layer conv4_3
I0418 23:54:23.889197 20701 net.cpp:406] conv4_3 <- conv4_2
I0418 23:54:23.889207 20701 net.cpp:380] conv4_3 -> conv4_3
I0418 23:54:23.897943 20701 net.cpp:122] Setting up conv4_3
I0418 23:54:23.897966 20701 net.cpp:129] Top shape: 1 512 89 64 (2916352)
I0418 23:54:23.897972 20701 net.cpp:137] Memory required for data: 820520460
I0418 23:54:23.897981 20701 layer_factory.hpp:77] Creating layer relu4_3
I0418 23:54:23.897994 20701 net.cpp:84] Creating Layer relu4_3
I0418 23:54:23.898000 20701 net.cpp:406] relu4_3 <- conv4_3
I0418 23:54:23.898020 20701 net.cpp:367] relu4_3 -> conv4_3 (in-place)
I0418 23:54:23.898262 20701 net.cpp:122] Setting up relu4_3
I0418 23:54:23.898277 20701 net.cpp:129] Top shape: 1 512 89 64 (2916352)
I0418 23:54:23.898283 20701 net.cpp:137] Memory required for data: 832185868
I0418 23:54:23.898288 20701 layer_factory.hpp:77] Creating layer pool4
I0418 23:54:23.898298 20701 net.cpp:84] Creating Layer pool4
I0418 23:54:23.898301 20701 net.cpp:406] pool4 <- conv4_3
I0418 23:54:23.898311 20701 net.cpp:380] pool4 -> pool4
I0418 23:54:23.898367 20701 net.cpp:122] Setting up pool4
I0418 23:54:23.898378 20701 net.cpp:129] Top shape: 1 512 45 32 (737280)
I0418 23:54:23.898383 20701 net.cpp:137] Memory required for data: 835134988
I0418 23:54:23.898387 20701 layer_factory.hpp:77] Creating layer pool4_pool4_0_split
I0418 23:54:23.898401 20701 net.cpp:84] Creating Layer pool4_pool4_0_split
I0418 23:54:23.898406 20701 net.cpp:406] pool4_pool4_0_split <- pool4
I0418 23:54:23.898411 20701 net.cpp:380] pool4_pool4_0_split -> pool4_pool4_0_split_0
I0418 23:54:23.898422 20701 net.cpp:380] pool4_pool4_0_split -> pool4_pool4_0_split_1
I0418 23:54:23.898464 20701 net.cpp:122] Setting up pool4_pool4_0_split
I0418 23:54:23.898473 20701 net.cpp:129] Top shape: 1 512 45 32 (737280)
I0418 23:54:23.898479 20701 net.cpp:129] Top shape: 1 512 45 32 (737280)
I0418 23:54:23.898483 20701 net.cpp:137] Memory required for data: 841033228
I0418 23:54:23.898488 20701 layer_factory.hpp:77] Creating layer conv5_1
I0418 23:54:23.898501 20701 net.cpp:84] Creating Layer conv5_1
I0418 23:54:23.898506 20701 net.cpp:406] conv5_1 <- pool4_pool4_0_split_0
I0418 23:54:23.898515 20701 net.cpp:380] conv5_1 -> conv5_1
I0418 23:54:23.910935 20701 net.cpp:122] Setting up conv5_1
I0418 23:54:23.910964 20701 net.cpp:129] Top shape: 1 512 45 32 (737280)
I0418 23:54:23.910969 20701 net.cpp:137] Memory required for data: 843982348
I0418 23:54:23.910981 20701 layer_factory.hpp:77] Creating layer relu5_1
I0418 23:54:23.910995 20701 net.cpp:84] Creating Layer relu5_1
I0418 23:54:23.911001 20701 net.cpp:406] relu5_1 <- conv5_1
I0418 23:54:23.911020 20701 net.cpp:367] relu5_1 -> conv5_1 (in-place)
I0418 23:54:23.911792 20701 net.cpp:122] Setting up relu5_1
I0418 23:54:23.911811 20701 net.cpp:129] Top shape: 1 512 45 32 (737280)
I0418 23:54:23.911818 20701 net.cpp:137] Memory required for data: 846931468
I0418 23:54:23.911823 20701 layer_factory.hpp:77] Creating layer conv5_2
I0418 23:54:23.911839 20701 net.cpp:84] Creating Layer conv5_2
I0418 23:54:23.911844 20701 net.cpp:406] conv5_2 <- conv5_1
I0418 23:54:23.911856 20701 net.cpp:380] conv5_2 -> conv5_2
I0418 23:54:23.920079 20701 net.cpp:122] Setting up conv5_2
I0418 23:54:23.920112 20701 net.cpp:129] Top shape: 1 512 45 32 (737280)
I0418 23:54:23.920116 20701 net.cpp:137] Memory required for data: 849880588
I0418 23:54:23.920123 20701 layer_factory.hpp:77] Creating layer relu5_2
I0418 23:54:23.920156 20701 net.cpp:84] Creating Layer relu5_2
I0418 23:54:23.920159 20701 net.cpp:406] relu5_2 <- conv5_2
I0418 23:54:23.920166 20701 net.cpp:367] relu5_2 -> conv5_2 (in-place)
I0418 23:54:23.922477 20701 net.cpp:122] Setting up relu5_2
I0418 23:54:23.922508 20701 net.cpp:129] Top shape: 1 512 45 32 (737280)
I0418 23:54:23.922513 20701 net.cpp:137] Memory required for data: 852829708
I0418 23:54:23.922516 20701 layer_factory.hpp:77] Creating layer conv5_3
I0418 23:54:23.922528 20701 net.cpp:84] Creating Layer conv5_3
I0418 23:54:23.922549 20701 net.cpp:406] conv5_3 <- conv5_2
I0418 23:54:23.922556 20701 net.cpp:380] conv5_3 -> conv5_3
I0418 23:54:23.929388 20701 net.cpp:122] Setting up conv5_3
I0418 23:54:23.929422 20701 net.cpp:129] Top shape: 1 512 45 32 (737280)
I0418 23:54:23.929425 20701 net.cpp:137] Memory required for data: 855778828
I0418 23:54:23.929433 20701 layer_factory.hpp:77] Creating layer relu5_3
I0418 23:54:23.929443 20701 net.cpp:84] Creating Layer relu5_3
I0418 23:54:23.929462 20701 net.cpp:406] relu5_3 <- conv5_3
I0418 23:54:23.929468 20701 net.cpp:367] relu5_3 -> conv5_3 (in-place)
I0418 23:54:23.929677 20701 net.cpp:122] Setting up relu5_3
I0418 23:54:23.929690 20701 net.cpp:129] Top shape: 1 512 45 32 (737280)
I0418 23:54:23.929694 20701 net.cpp:137] Memory required for data: 858727948
I0418 23:54:23.929697 20701 layer_factory.hpp:77] Creating layer pool5
I0418 23:54:23.929705 20701 net.cpp:84] Creating Layer pool5
I0418 23:54:23.929709 20701 net.cpp:406] pool5 <- conv5_3
I0418 23:54:23.929715 20701 net.cpp:380] pool5 -> pool5
I0418 23:54:23.929764 20701 net.cpp:122] Setting up pool5
I0418 23:54:23.929771 20701 net.cpp:129] Top shape: 1 512 23 16 (188416)
I0418 23:54:23.929774 20701 net.cpp:137] Memory required for data: 859481612
I0418 23:54:23.929778 20701 layer_factory.hpp:77] Creating layer fc6
I0418 23:54:23.929788 20701 net.cpp:84] Creating Layer fc6
I0418 23:54:23.929792 20701 net.cpp:406] fc6 <- pool5
I0418 23:54:23.929800 20701 net.cpp:380] fc6 -> fc6
I0418 23:54:24.207098 20701 net.cpp:122] Setting up fc6
I0418 23:54:24.207144 20701 net.cpp:129] Top shape: 1 4096 17 10 (696320)
I0418 23:54:24.207151 20701 net.cpp:137] Memory required for data: 862266892
I0418 23:54:24.207167 20701 layer_factory.hpp:77] Creating layer relu6
I0418 23:54:24.207187 20701 net.cpp:84] Creating Layer relu6
I0418 23:54:24.207195 20701 net.cpp:406] relu6 <- fc6
I0418 23:54:24.207206 20701 net.cpp:367] relu6 -> fc6 (in-place)
I0418 23:54:24.207523 20701 net.cpp:122] Setting up relu6
I0418 23:54:24.207538 20701 net.cpp:129] Top shape: 1 4096 17 10 (696320)
I0418 23:54:24.207545 20701 net.cpp:137] Memory required for data: 865052172
I0418 23:54:24.207551 20701 layer_factory.hpp:77] Creating layer drop6
I0418 23:54:24.207567 20701 net.cpp:84] Creating Layer drop6
I0418 23:54:24.207573 20701 net.cpp:406] drop6 <- fc6
I0418 23:54:24.207584 20701 net.cpp:367] drop6 -> fc6 (in-place)
I0418 23:54:24.207633 20701 net.cpp:122] Setting up drop6
I0418 23:54:24.207648 20701 net.cpp:129] Top shape: 1 4096 17 10 (696320)
I0418 23:54:24.207659 20701 net.cpp:137] Memory required for data: 867837452
I0418 23:54:24.207664 20701 layer_factory.hpp:77] Creating layer fc7
I0418 23:54:24.207676 20701 net.cpp:84] Creating Layer fc7
I0418 23:54:24.207682 20701 net.cpp:406] fc7 <- fc6
I0418 23:54:24.207693 20701 net.cpp:380] fc7 -> fc7
I0418 23:54:24.269906 20701 net.cpp:122] Setting up fc7
I0418 23:54:24.269959 20701 net.cpp:129] Top shape: 1 4096 17 10 (696320)
I0418 23:54:24.269965 20701 net.cpp:137] Memory required for data: 870622732
I0418 23:54:24.269976 20701 layer_factory.hpp:77] Creating layer relu7
I0418 23:54:24.269992 20701 net.cpp:84] Creating Layer relu7
I0418 23:54:24.269997 20701 net.cpp:406] relu7 <- fc7
I0418 23:54:24.270004 20701 net.cpp:367] relu7 -> fc7 (in-place)
I0418 23:54:24.270228 20701 net.cpp:122] Setting up relu7
I0418 23:54:24.270241 20701 net.cpp:129] Top shape: 1 4096 17 10 (696320)
I0418 23:54:24.270244 20701 net.cpp:137] Memory required for data: 873408012
I0418 23:54:24.270247 20701 layer_factory.hpp:77] Creating layer drop7
I0418 23:54:24.270256 20701 net.cpp:84] Creating Layer drop7
I0418 23:54:24.270258 20701 net.cpp:406] drop7 <- fc7
I0418 23:54:24.270265 20701 net.cpp:367] drop7 -> fc7 (in-place)
I0418 23:54:24.270299 20701 net.cpp:122] Setting up drop7
I0418 23:54:24.270305 20701 net.cpp:129] Top shape: 1 4096 17 10 (696320)
I0418 23:54:24.270308 20701 net.cpp:137] Memory required for data: 876193292
I0418 23:54:24.270311 20701 layer_factory.hpp:77] Creating layer score_fr-new
I0418 23:54:24.270321 20701 net.cpp:84] Creating Layer score_fr-new
I0418 23:54:24.270325 20701 net.cpp:406] score_fr-new <- fc7
I0418 23:54:24.270334 20701 net.cpp:380] score_fr-new -> score_fr-new
I0418 23:54:24.272298 20701 net.cpp:122] Setting up score_fr-new
I0418 23:54:24.272313 20701 net.cpp:129] Top shape: 1 3 17 10 (510)
I0418 23:54:24.272333 20701 net.cpp:137] Memory required for data: 876195332
I0418 23:54:24.272341 20701 layer_factory.hpp:77] Creating layer upscore2-new
I0418 23:54:24.272358 20701 net.cpp:84] Creating Layer upscore2-new
I0418 23:54:24.272362 20701 net.cpp:406] upscore2-new <- score_fr-new
I0418 23:54:24.272370 20701 net.cpp:380] upscore2-new -> upscore2-new
I0418 23:54:24.272579 20701 net.cpp:122] Setting up upscore2-new
I0418 23:54:24.272590 20701 net.cpp:129] Top shape: 1 3 36 22 (2376)
I0418 23:54:24.272593 20701 net.cpp:137] Memory required for data: 876204836
I0418 23:54:24.272608 20701 layer_factory.hpp:77] Creating layer upscore2-new_upscore2-new_0_split
I0418 23:54:24.272617 20701 net.cpp:84] Creating Layer upscore2-new_upscore2-new_0_split
I0418 23:54:24.272621 20701 net.cpp:406] upscore2-new_upscore2-new_0_split <- upscore2-new
I0418 23:54:24.272626 20701 net.cpp:380] upscore2-new_upscore2-new_0_split -> upscore2-new_upscore2-new_0_split_0
I0418 23:54:24.272632 20701 net.cpp:380] upscore2-new_upscore2-new_0_split -> upscore2-new_upscore2-new_0_split_1
I0418 23:54:24.272670 20701 net.cpp:122] Setting up upscore2-new_upscore2-new_0_split
I0418 23:54:24.272675 20701 net.cpp:129] Top shape: 1 3 36 22 (2376)
I0418 23:54:24.272680 20701 net.cpp:129] Top shape: 1 3 36 22 (2376)
I0418 23:54:24.272682 20701 net.cpp:137] Memory required for data: 876223844
I0418 23:54:24.272686 20701 layer_factory.hpp:77] Creating layer score_pool4-new
I0418 23:54:24.272694 20701 net.cpp:84] Creating Layer score_pool4-new
I0418 23:54:24.272698 20701 net.cpp:406] score_pool4-new <- pool4_pool4_0_split_1
I0418 23:54:24.272703 20701 net.cpp:380] score_pool4-new -> score_pool4-new
I0418 23:54:24.273936 20701 net.cpp:122] Setting up score_pool4-new
I0418 23:54:24.273967 20701 net.cpp:129] Top shape: 1 3 45 32 (4320)
I0418 23:54:24.273972 20701 net.cpp:137] Memory required for data: 876241124
I0418 23:54:24.273978 20701 layer_factory.hpp:77] Creating layer score_pool4c
I0418 23:54:24.273988 20701 net.cpp:84] Creating Layer score_pool4c
I0418 23:54:24.273993 20701 net.cpp:406] score_pool4c <- score_pool4-new
I0418 23:54:24.273998 20701 net.cpp:406] score_pool4c <- upscore2-new_upscore2-new_0_split_0
I0418 23:54:24.274003 20701 net.cpp:380] score_pool4c -> score_pool4c
I0418 23:54:24.274041 20701 net.cpp:122] Setting up score_pool4c
I0418 23:54:24.274047 20701 net.cpp:129] Top shape: 1 3 36 22 (2376)
I0418 23:54:24.274050 20701 net.cpp:137] Memory required for data: 876250628
I0418 23:54:24.274053 20701 layer_factory.hpp:77] Creating layer fuse_pool4
I0418 23:54:24.274065 20701 net.cpp:84] Creating Layer fuse_pool4
I0418 23:54:24.274068 20701 net.cpp:406] fuse_pool4 <- upscore2-new_upscore2-new_0_split_1
I0418 23:54:24.274072 20701 net.cpp:406] fuse_pool4 <- score_pool4c
I0418 23:54:24.274077 20701 net.cpp:380] fuse_pool4 -> fuse_pool4
I0418 23:54:24.274106 20701 net.cpp:122] Setting up fuse_pool4
I0418 23:54:24.274111 20701 net.cpp:129] Top shape: 1 3 36 22 (2376)
I0418 23:54:24.274113 20701 net.cpp:137] Memory required for data: 876260132
I0418 23:54:24.274116 20701 layer_factory.hpp:77] Creating layer upscore_pool4-new
I0418 23:54:24.274124 20701 net.cpp:84] Creating Layer upscore_pool4-new
I0418 23:54:24.274128 20701 net.cpp:406] upscore_pool4-new <- fuse_pool4
I0418 23:54:24.274132 20701 net.cpp:380] upscore_pool4-new -> upscore_pool4-new
I0418 23:54:24.277865 20701 net.cpp:122] Setting up upscore_pool4-new
I0418 23:54:24.277900 20701 net.cpp:129] Top shape: 1 3 74 46 (10212)
I0418 23:54:24.277904 20701 net.cpp:137] Memory required for data: 876300980
I0418 23:54:24.277927 20701 layer_factory.hpp:77] Creating layer upscore_pool4-new_upscore_pool4-new_0_split
I0418 23:54:24.277937 20701 net.cpp:84] Creating Layer upscore_pool4-new_upscore_pool4-new_0_split
I0418 23:54:24.277953 20701 net.cpp:406] upscore_pool4-new_upscore_pool4-new_0_split <- upscore_pool4-new
I0418 23:54:24.277962 20701 net.cpp:380] upscore_pool4-new_upscore_pool4-new_0_split -> upscore_pool4-new_upscore_pool4-new_0_split_0
I0418 23:54:24.277973 20701 net.cpp:380] upscore_pool4-new_upscore_pool4-new_0_split -> upscore_pool4-new_upscore_pool4-new_0_split_1
I0418 23:54:24.278023 20701 net.cpp:122] Setting up upscore_pool4-new_upscore_pool4-new_0_split
I0418 23:54:24.278033 20701 net.cpp:129] Top shape: 1 3 74 46 (10212)
I0418 23:54:24.278038 20701 net.cpp:129] Top shape: 1 3 74 46 (10212)
I0418 23:54:24.278040 20701 net.cpp:137] Memory required for data: 876382676
I0418 23:54:24.278043 20701 layer_factory.hpp:77] Creating layer score_pool3-new
I0418 23:54:24.278057 20701 net.cpp:84] Creating Layer score_pool3-new
I0418 23:54:24.278061 20701 net.cpp:406] score_pool3-new <- pool3_pool3_0_split_1
I0418 23:54:24.278067 20701 net.cpp:380] score_pool3-new -> score_pool3-new
I0418 23:54:24.282675 20701 net.cpp:122] Setting up score_pool3-new
I0418 23:54:24.282692 20701 net.cpp:129] Top shape: 1 3 89 64 (17088)
I0418 23:54:24.282696 20701 net.cpp:137] Memory required for data: 876451028
I0418 23:54:24.282703 20701 layer_factory.hpp:77] Creating layer score_pool3c
I0418 23:54:24.282713 20701 net.cpp:84] Creating Layer score_pool3c
I0418 23:54:24.282717 20701 net.cpp:406] score_pool3c <- score_pool3-new
I0418 23:54:24.282722 20701 net.cpp:406] score_pool3c <- upscore_pool4-new_upscore_pool4-new_0_split_0
I0418 23:54:24.282730 20701 net.cpp:380] score_pool3c -> score_pool3c
I0418 23:54:24.282761 20701 net.cpp:122] Setting up score_pool3c
I0418 23:54:24.282770 20701 net.cpp:129] Top shape: 1 3 74 46 (10212)
I0418 23:54:24.282773 20701 net.cpp:137] Memory required for data: 876491876
I0418 23:54:24.282776 20701 layer_factory.hpp:77] Creating layer fuse_pool3
I0418 23:54:24.282785 20701 net.cpp:84] Creating Layer fuse_pool3
I0418 23:54:24.282788 20701 net.cpp:406] fuse_pool3 <- upscore_pool4-new_upscore_pool4-new_0_split_1
I0418 23:54:24.282793 20701 net.cpp:406] fuse_pool3 <- score_pool3c
I0418 23:54:24.282809 20701 net.cpp:380] fuse_pool3 -> fuse_pool3
I0418 23:54:24.282840 20701 net.cpp:122] Setting up fuse_pool3
I0418 23:54:24.282846 20701 net.cpp:129] Top shape: 1 3 74 46 (10212)
I0418 23:54:24.282850 20701 net.cpp:137] Memory required for data: 876532724
I0418 23:54:24.282852 20701 layer_factory.hpp:77] Creating layer upscore8-new
I0418 23:54:24.282862 20701 net.cpp:84] Creating Layer upscore8-new
I0418 23:54:24.282866 20701 net.cpp:406] upscore8-new <- fuse_pool3
I0418 23:54:24.282871 20701 net.cpp:380] upscore8-new -> upscore8-new
I0418 23:54:24.283109 20701 net.cpp:122] Setting up upscore8-new
I0418 23:54:24.283119 20701 net.cpp:129] Top shape: 1 3 600 376 (676800)
I0418 23:54:24.283123 20701 net.cpp:137] Memory required for data: 879239924
I0418 23:54:24.283128 20701 layer_factory.hpp:77] Creating layer upscore8_cropped
I0418 23:54:24.283138 20701 net.cpp:84] Creating Layer upscore8_cropped
I0418 23:54:24.283141 20701 net.cpp:406] upscore8_cropped <- upscore8-new
I0418 23:54:24.283154 20701 net.cpp:406] upscore8_cropped <- data_data_0_split_1
I0418 23:54:24.283159 20701 net.cpp:380] upscore8_cropped -> upscore8_cropped
I0418 23:54:24.283183 20701 net.cpp:122] Setting up upscore8_cropped
I0418 23:54:24.283188 20701 net.cpp:129] Top shape: 1 3 512 310 (476160)
I0418 23:54:24.283191 20701 net.cpp:137] Memory required for data: 881144564
I0418 23:54:24.283195 20701 layer_factory.hpp:77] Creating layer score
I0418 23:54:24.283210 20701 net.cpp:84] Creating Layer score
I0418 23:54:24.283213 20701 net.cpp:406] score <- upscore8_cropped
I0418 23:54:24.283226 20701 net.cpp:380] score -> score
I0418 23:54:24.285506 20701 net.cpp:122] Setting up score
I0418 23:54:24.285542 20701 net.cpp:129] Top shape: 1 3 512 310 (476160)
I0418 23:54:24.285547 20701 net.cpp:137] Memory required for data: 883049204
I0418 23:54:24.285553 20701 layer_factory.hpp:77] Creating layer score_score_0_split
I0418 23:54:24.285563 20701 net.cpp:84] Creating Layer score_score_0_split
I0418 23:54:24.285567 20701 net.cpp:406] score_score_0_split <- score
I0418 23:54:24.285573 20701 net.cpp:380] score_score_0_split -> score_score_0_split_0
I0418 23:54:24.285580 20701 net.cpp:380] score_score_0_split -> score_score_0_split_1
I0418 23:54:24.285629 20701 net.cpp:122] Setting up score_score_0_split
I0418 23:54:24.285634 20701 net.cpp:129] Top shape: 1 3 512 310 (476160)
I0418 23:54:24.285639 20701 net.cpp:129] Top shape: 1 3 512 310 (476160)
I0418 23:54:24.285641 20701 net.cpp:137] Memory required for data: 886858484
I0418 23:54:24.285645 20701 layer_factory.hpp:77] Creating layer prob
I0418 23:54:24.285652 20701 net.cpp:84] Creating Layer prob
I0418 23:54:24.285656 20701 net.cpp:406] prob <- score_score_0_split_0
I0418 23:54:24.285662 20701 net.cpp:380] prob -> prob
I0418 23:54:24.285894 20701 net.cpp:122] Setting up prob
I0418 23:54:24.285907 20701 net.cpp:129] Top shape: 1 3 512 310 (476160)
I0418 23:54:24.285909 20701 net.cpp:137] Memory required for data: 888763124
I0418 23:54:24.285912 20701 layer_factory.hpp:77] Creating layer saliency
I0418 23:54:24.285925 20701 net.cpp:84] Creating Layer saliency
I0418 23:54:24.285929 20701 net.cpp:406] saliency <- prob
I0418 23:54:24.285938 20701 net.cpp:380] saliency -> saliency
I0418 23:54:24.287863 20701 net.cpp:122] Setting up saliency
I0418 23:54:24.287892 20701 net.cpp:129] Top shape: 1 3 512 310 (476160)
I0418 23:54:24.287897 20701 net.cpp:137] Memory required for data: 890667764
I0418 23:54:24.287904 20701 layer_factory.hpp:77] Creating layer silence_saliency
I0418 23:54:24.287914 20701 net.cpp:84] Creating Layer silence_saliency
I0418 23:54:24.287917 20701 net.cpp:406] silence_saliency <- saliency
I0418 23:54:24.287925 20701 net.cpp:122] Setting up silence_saliency
I0418 23:54:24.287927 20701 net.cpp:137] Memory required for data: 890667764
I0418 23:54:24.287931 20701 layer_factory.hpp:77] Creating layer crop
I0418 23:54:24.288542 20701 net.cpp:84] Creating Layer crop
I0418 23:54:24.288552 20701 net.cpp:406] crop <- label_data_1_split_0
I0418 23:54:24.288573 20701 net.cpp:406] crop <- data_data_0_split_2
I0418 23:54:24.288589 20701 net.cpp:406] crop <- crop_margin
I0418 23:54:24.288594 20701 net.cpp:406] crop <- crop_prob
I0418 23:54:24.288599 20701 net.cpp:406] crop <- crop_sample_batch
I0418 23:54:24.288604 20701 net.cpp:380] crop -> data-R
I0418 23:54:24.288611 20701 net.cpp:380] crop -> crop_info
I0418 23:54:24.297574 20701 net.cpp:122] Setting up crop
I0418 23:54:24.297616 20701 net.cpp:129] Top shape: 1 3 512 310 (476160)
I0418 23:54:24.297624 20701 net.cpp:129] Top shape: 1 2 4 (8)
I0418 23:54:24.297629 20701 net.cpp:137] Memory required for data: 892572436
I0418 23:54:24.297637 20701 layer_factory.hpp:77] Creating layer data-R_crop_0_split
I0418 23:54:24.297655 20701 net.cpp:84] Creating Layer data-R_crop_0_split
I0418 23:54:24.297662 20701 net.cpp:406] data-R_crop_0_split <- data-R
I0418 23:54:24.297673 20701 net.cpp:380] data-R_crop_0_split -> data-R_crop_0_split_0
I0418 23:54:24.297685 20701 net.cpp:380] data-R_crop_0_split -> data-R_crop_0_split_1
I0418 23:54:24.297750 20701 net.cpp:122] Setting up data-R_crop_0_split
I0418 23:54:24.297768 20701 net.cpp:129] Top shape: 1 3 512 310 (476160)
I0418 23:54:24.297775 20701 net.cpp:129] Top shape: 1 3 512 310 (476160)
I0418 23:54:24.297780 20701 net.cpp:137] Memory required for data: 896381716
I0418 23:54:24.297785 20701 layer_factory.hpp:77] Creating layer conv1_1-R
I0418 23:54:24.297801 20701 net.cpp:84] Creating Layer conv1_1-R
I0418 23:54:24.297807 20701 net.cpp:406] conv1_1-R <- data-R_crop_0_split_0
I0418 23:54:24.297832 20701 net.cpp:380] conv1_1-R -> conv1_1-R
I0418 23:54:24.306035 20701 net.cpp:122] Setting up conv1_1-R
I0418 23:54:24.306088 20701 net.cpp:129] Top shape: 1 64 710 508 (23083520)
I0418 23:54:24.306097 20701 net.cpp:137] Memory required for data: 988715796
I0418 23:54:24.306118 20701 layer_factory.hpp:77] Creating layer relu1_1-R
I0418 23:54:24.306138 20701 net.cpp:84] Creating Layer relu1_1-R
I0418 23:54:24.306149 20701 net.cpp:406] relu1_1-R <- conv1_1-R
I0418 23:54:24.306210 20701 net.cpp:367] relu1_1-R -> conv1_1-R (in-place)
I0418 23:54:24.306627 20701 net.cpp:122] Setting up relu1_1-R
I0418 23:54:24.306650 20701 net.cpp:129] Top shape: 1 64 710 508 (23083520)
I0418 23:54:24.306659 20701 net.cpp:137] Memory required for data: 1081049876
I0418 23:54:24.306668 20701 layer_factory.hpp:77] Creating layer conv1_2-R
I0418 23:54:24.306789 20701 net.cpp:84] Creating Layer conv1_2-R
I0418 23:54:24.306803 20701 net.cpp:406] conv1_2-R <- conv1_1-R
I0418 23:54:24.306823 20701 net.cpp:380] conv1_2-R -> conv1_2-R
I0418 23:54:24.315640 20701 net.cpp:122] Setting up conv1_2-R
I0418 23:54:24.315680 20701 net.cpp:129] Top shape: 1 64 710 508 (23083520)
I0418 23:54:24.315685 20701 net.cpp:137] Memory required for data: 1173383956
I0418 23:54:24.315699 20701 layer_factory.hpp:77] Creating layer relu1_2-R
I0418 23:54:24.315711 20701 net.cpp:84] Creating Layer relu1_2-R
I0418 23:54:24.315718 20701 net.cpp:406] relu1_2-R <- conv1_2-R
I0418 23:54:24.315726 20701 net.cpp:367] relu1_2-R -> conv1_2-R (in-place)
I0418 23:54:24.316052 20701 net.cpp:122] Setting up relu1_2-R
I0418 23:54:24.316067 20701 net.cpp:129] Top shape: 1 64 710 508 (23083520)
I0418 23:54:24.316073 20701 net.cpp:137] Memory required for data: 1265718036
I0418 23:54:24.316078 20701 layer_factory.hpp:77] Creating layer pool1-R
I0418 23:54:24.316094 20701 net.cpp:84] Creating Layer pool1-R
I0418 23:54:24.316100 20701 net.cpp:406] pool1-R <- conv1_2-R
I0418 23:54:24.316108 20701 net.cpp:380] pool1-R -> pool1-R
I0418 23:54:24.316198 20701 net.cpp:122] Setting up pool1-R
I0418 23:54:24.316210 20701 net.cpp:129] Top shape: 1 64 355 254 (5770880)
I0418 23:54:24.316215 20701 net.cpp:137] Memory required for data: 1288801556
I0418 23:54:24.316220 20701 layer_factory.hpp:77] Creating layer conv2_1-R
I0418 23:54:24.316231 20701 net.cpp:84] Creating Layer conv2_1-R
I0418 23:54:24.316236 20701 net.cpp:406] conv2_1-R <- pool1-R
I0418 23:54:24.316244 20701 net.cpp:380] conv2_1-R -> conv2_1-R
I0418 23:54:24.320139 20701 net.cpp:122] Setting up conv2_1-R
I0418 23:54:24.320183 20701 net.cpp:129] Top shape: 1 128 355 254 (11541760)
I0418 23:54:24.320192 20701 net.cpp:137] Memory required for data: 1334968596
I0418 23:54:24.320219 20701 layer_factory.hpp:77] Creating layer relu2_1-R
I0418 23:54:24.320240 20701 net.cpp:84] Creating Layer relu2_1-R
I0418 23:54:24.320250 20701 net.cpp:406] relu2_1-R <- conv2_1-R
I0418 23:54:24.320261 20701 net.cpp:367] relu2_1-R -> conv2_1-R (in-place)
I0418 23:54:24.320663 20701 net.cpp:122] Setting up relu2_1-R
I0418 23:54:24.320684 20701 net.cpp:129] Top shape: 1 128 355 254 (11541760)
I0418 23:54:24.320691 20701 net.cpp:137] Memory required for data: 1381135636
I0418 23:54:24.320699 20701 layer_factory.hpp:77] Creating layer conv2_2-R
I0418 23:54:24.320714 20701 net.cpp:84] Creating Layer conv2_2-R
I0418 23:54:24.320724 20701 net.cpp:406] conv2_2-R <- conv2_1-R
I0418 23:54:24.320762 20701 net.cpp:380] conv2_2-R -> conv2_2-R
I0418 23:54:24.326654 20701 net.cpp:122] Setting up conv2_2-R
I0418 23:54:24.326704 20701 net.cpp:129] Top shape: 1 128 355 254 (11541760)
I0418 23:54:24.326710 20701 net.cpp:137] Memory required for data: 1427302676
I0418 23:54:24.326721 20701 layer_factory.hpp:77] Creating layer relu2_2-R
I0418 23:54:24.326730 20701 net.cpp:84] Creating Layer relu2_2-R
I0418 23:54:24.326735 20701 net.cpp:406] relu2_2-R <- conv2_2-R
I0418 23:54:24.326742 20701 net.cpp:367] relu2_2-R -> conv2_2-R (in-place)
I0418 23:54:24.327476 20701 net.cpp:122] Setting up relu2_2-R
I0418 23:54:24.327493 20701 net.cpp:129] Top shape: 1 128 355 254 (11541760)
I0418 23:54:24.327499 20701 net.cpp:137] Memory required for data: 1473469716
I0418 23:54:24.327504 20701 layer_factory.hpp:77] Creating layer pool2-R
I0418 23:54:24.327517 20701 net.cpp:84] Creating Layer pool2-R
I0418 23:54:24.327522 20701 net.cpp:406] pool2-R <- conv2_2-R
I0418 23:54:24.327530 20701 net.cpp:380] pool2-R -> pool2-R
I0418 23:54:24.327596 20701 net.cpp:122] Setting up pool2-R
I0418 23:54:24.327608 20701 net.cpp:129] Top shape: 1 128 178 127 (2893568)
I0418 23:54:24.327613 20701 net.cpp:137] Memory required for data: 1485043988
I0418 23:54:24.327620 20701 layer_factory.hpp:77] Creating layer conv3_1-R
I0418 23:54:24.327631 20701 net.cpp:84] Creating Layer conv3_1-R
I0418 23:54:24.327636 20701 net.cpp:406] conv3_1-R <- pool2-R
I0418 23:54:24.327643 20701 net.cpp:380] conv3_1-R -> conv3_1-R
I0418 23:54:24.331624 20701 net.cpp:122] Setting up conv3_1-R
I0418 23:54:24.331655 20701 net.cpp:129] Top shape: 1 256 178 127 (5787136)
I0418 23:54:24.331660 20701 net.cpp:137] Memory required for data: 1508192532
I0418 23:54:24.331670 20701 layer_factory.hpp:77] Creating layer relu3_1-R
I0418 23:54:24.331679 20701 net.cpp:84] Creating Layer relu3_1-R
I0418 23:54:24.331686 20701 net.cpp:406] relu3_1-R <- conv3_1-R
I0418 23:54:24.331692 20701 net.cpp:367] relu3_1-R -> conv3_1-R (in-place)
I0418 23:54:24.331949 20701 net.cpp:122] Setting up relu3_1-R
I0418 23:54:24.331962 20701 net.cpp:129] Top shape: 1 256 178 127 (5787136)
I0418 23:54:24.331969 20701 net.cpp:137] Memory required for data: 1531341076
I0418 23:54:24.331972 20701 layer_factory.hpp:77] Creating layer conv3_2-R
I0418 23:54:24.331986 20701 net.cpp:84] Creating Layer conv3_2-R
I0418 23:54:24.331992 20701 net.cpp:406] conv3_2-R <- conv3_1-R
I0418 23:54:24.332000 20701 net.cpp:380] conv3_2-R -> conv3_2-R
I0418 23:54:24.336452 20701 net.cpp:122] Setting up conv3_2-R
I0418 23:54:24.336493 20701 net.cpp:129] Top shape: 1 256 178 127 (5787136)
I0418 23:54:24.336498 20701 net.cpp:137] Memory required for data: 1554489620
I0418 23:54:24.336508 20701 layer_factory.hpp:77] Creating layer relu3_2-R
I0418 23:54:24.336518 20701 net.cpp:84] Creating Layer relu3_2-R
I0418 23:54:24.336524 20701 net.cpp:406] relu3_2-R <- conv3_2-R
I0418 23:54:24.336530 20701 net.cpp:367] relu3_2-R -> conv3_2-R (in-place)
I0418 23:54:24.336786 20701 net.cpp:122] Setting up relu3_2-R
I0418 23:54:24.336798 20701 net.cpp:129] Top shape: 1 256 178 127 (5787136)
I0418 23:54:24.336803 20701 net.cpp:137] Memory required for data: 1577638164
I0418 23:54:24.336812 20701 layer_factory.hpp:77] Creating layer conv3_3-R
I0418 23:54:24.336822 20701 net.cpp:84] Creating Layer conv3_3-R
I0418 23:54:24.336827 20701 net.cpp:406] conv3_3-R <- conv3_2-R
I0418 23:54:24.336836 20701 net.cpp:380] conv3_3-R -> conv3_3-R
I0418 23:54:24.341995 20701 net.cpp:122] Setting up conv3_3-R
I0418 23:54:24.342026 20701 net.cpp:129] Top shape: 1 256 178 127 (5787136)
I0418 23:54:24.342031 20701 net.cpp:137] Memory required for data: 1600786708
I0418 23:54:24.342039 20701 layer_factory.hpp:77] Creating layer relu3_3-R
I0418 23:54:24.342046 20701 net.cpp:84] Creating Layer relu3_3-R
I0418 23:54:24.342051 20701 net.cpp:406] relu3_3-R <- conv3_3-R
I0418 23:54:24.342058 20701 net.cpp:367] relu3_3-R -> conv3_3-R (in-place)
I0418 23:54:24.342293 20701 net.cpp:122] Setting up relu3_3-R
I0418 23:54:24.342306 20701 net.cpp:129] Top shape: 1 256 178 127 (5787136)
I0418 23:54:24.342310 20701 net.cpp:137] Memory required for data: 1623935252
I0418 23:54:24.342314 20701 layer_factory.hpp:77] Creating layer pool3-R
I0418 23:54:24.342322 20701 net.cpp:84] Creating Layer pool3-R
I0418 23:54:24.342326 20701 net.cpp:406] pool3-R <- conv3_3-R
I0418 23:54:24.342332 20701 net.cpp:380] pool3-R -> pool3-R
I0418 23:54:24.342386 20701 net.cpp:122] Setting up pool3-R
I0418 23:54:24.342391 20701 net.cpp:129] Top shape: 1 256 89 64 (1458176)
I0418 23:54:24.342396 20701 net.cpp:137] Memory required for data: 1629767956
I0418 23:54:24.342398 20701 layer_factory.hpp:77] Creating layer pool3-R_pool3-R_0_split
I0418 23:54:24.342406 20701 net.cpp:84] Creating Layer pool3-R_pool3-R_0_split
I0418 23:54:24.342408 20701 net.cpp:406] pool3-R_pool3-R_0_split <- pool3-R
I0418 23:54:24.342414 20701 net.cpp:380] pool3-R_pool3-R_0_split -> pool3-R_pool3-R_0_split_0
I0418 23:54:24.342420 20701 net.cpp:380] pool3-R_pool3-R_0_split -> pool3-R_pool3-R_0_split_1
I0418 23:54:24.342458 20701 net.cpp:122] Setting up pool3-R_pool3-R_0_split
I0418 23:54:24.342464 20701 net.cpp:129] Top shape: 1 256 89 64 (1458176)
I0418 23:54:24.342468 20701 net.cpp:129] Top shape: 1 256 89 64 (1458176)
I0418 23:54:24.342471 20701 net.cpp:137] Memory required for data: 1641433364
I0418 23:54:24.342474 20701 layer_factory.hpp:77] Creating layer conv4_1-R
I0418 23:54:24.342485 20701 net.cpp:84] Creating Layer conv4_1-R
I0418 23:54:24.342489 20701 net.cpp:406] conv4_1-R <- pool3-R_pool3-R_0_split_0
I0418 23:54:24.342496 20701 net.cpp:380] conv4_1-R -> conv4_1-R
I0418 23:54:24.347445 20701 net.cpp:122] Setting up conv4_1-R
I0418 23:54:24.347476 20701 net.cpp:129] Top shape: 1 512 89 64 (2916352)
I0418 23:54:24.347479 20701 net.cpp:137] Memory required for data: 1653098772
I0418 23:54:24.347487 20701 layer_factory.hpp:77] Creating layer relu4_1-R
I0418 23:54:24.347496 20701 net.cpp:84] Creating Layer relu4_1-R
I0418 23:54:24.347501 20701 net.cpp:406] relu4_1-R <- conv4_1-R
I0418 23:54:24.347506 20701 net.cpp:367] relu4_1-R -> conv4_1-R (in-place)
I0418 23:54:24.347692 20701 net.cpp:122] Setting up relu4_1-R
I0418 23:54:24.347702 20701 net.cpp:129] Top shape: 1 512 89 64 (2916352)
I0418 23:54:24.347705 20701 net.cpp:137] Memory required for data: 1664764180
I0418 23:54:24.347709 20701 layer_factory.hpp:77] Creating layer conv4_2-R
I0418 23:54:24.347718 20701 net.cpp:84] Creating Layer conv4_2-R
I0418 23:54:24.347721 20701 net.cpp:406] conv4_2-R <- conv4_1-R
I0418 23:54:24.347728 20701 net.cpp:380] conv4_2-R -> conv4_2-R
I0418 23:54:24.356642 20701 net.cpp:122] Setting up conv4_2-R
I0418 23:54:24.356664 20701 net.cpp:129] Top shape: 1 512 89 64 (2916352)
I0418 23:54:24.356679 20701 net.cpp:137] Memory required for data: 1676429588
I0418 23:54:24.356689 20701 layer_factory.hpp:77] Creating layer relu4_2-R
I0418 23:54:24.356700 20701 net.cpp:84] Creating Layer relu4_2-R
I0418 23:54:24.356706 20701 net.cpp:406] relu4_2-R <- conv4_2-R
I0418 23:54:24.356714 20701 net.cpp:367] relu4_2-R -> conv4_2-R (in-place)
I0418 23:54:24.356954 20701 net.cpp:122] Setting up relu4_2-R
I0418 23:54:24.356969 20701 net.cpp:129] Top shape: 1 512 89 64 (2916352)
I0418 23:54:24.356974 20701 net.cpp:137] Memory required for data: 1688094996
I0418 23:54:24.356982 20701 layer_factory.hpp:77] Creating layer conv4_3-R
I0418 23:54:24.356994 20701 net.cpp:84] Creating Layer conv4_3-R
I0418 23:54:24.357000 20701 net.cpp:406] conv4_3-R <- conv4_2-R
I0418 23:54:24.357009 20701 net.cpp:380] conv4_3-R -> conv4_3-R
I0418 23:54:24.365370 20701 net.cpp:122] Setting up conv4_3-R
I0418 23:54:24.365406 20701 net.cpp:129] Top shape: 1 512 89 64 (2916352)
I0418 23:54:24.365411 20701 net.cpp:137] Memory required for data: 1699760404
I0418 23:54:24.365420 20701 layer_factory.hpp:77] Creating layer relu4_3-R
I0418 23:54:24.365429 20701 net.cpp:84] Creating Layer relu4_3-R
I0418 23:54:24.365434 20701 net.cpp:406] relu4_3-R <- conv4_3-R
I0418 23:54:24.365442 20701 net.cpp:367] relu4_3-R -> conv4_3-R (in-place)
I0418 23:54:24.366068 20701 net.cpp:122] Setting up relu4_3-R
I0418 23:54:24.366082 20701 net.cpp:129] Top shape: 1 512 89 64 (2916352)
I0418 23:54:24.366102 20701 net.cpp:137] Memory required for data: 1711425812
I0418 23:54:24.366106 20701 layer_factory.hpp:77] Creating layer pool4-R
I0418 23:54:24.366118 20701 net.cpp:84] Creating Layer pool4-R
I0418 23:54:24.366122 20701 net.cpp:406] pool4-R <- conv4_3-R
I0418 23:54:24.366129 20701 net.cpp:380] pool4-R -> pool4-R
I0418 23:54:24.366222 20701 net.cpp:122] Setting up pool4-R
I0418 23:54:24.366230 20701 net.cpp:129] Top shape: 1 512 45 32 (737280)
I0418 23:54:24.366233 20701 net.cpp:137] Memory required for data: 1714374932
I0418 23:54:24.366237 20701 layer_factory.hpp:77] Creating layer pool4-R_pool4-R_0_split
I0418 23:54:24.366243 20701 net.cpp:84] Creating Layer pool4-R_pool4-R_0_split
I0418 23:54:24.366266 20701 net.cpp:406] pool4-R_pool4-R_0_split <- pool4-R
I0418 23:54:24.366271 20701 net.cpp:380] pool4-R_pool4-R_0_split -> pool4-R_pool4-R_0_split_0
I0418 23:54:24.366278 20701 net.cpp:380] pool4-R_pool4-R_0_split -> pool4-R_pool4-R_0_split_1
I0418 23:54:24.366317 20701 net.cpp:122] Setting up pool4-R_pool4-R_0_split
I0418 23:54:24.366322 20701 net.cpp:129] Top shape: 1 512 45 32 (737280)
I0418 23:54:24.366328 20701 net.cpp:129] Top shape: 1 512 45 32 (737280)
I0418 23:54:24.366330 20701 net.cpp:137] Memory required for data: 1720273172
I0418 23:54:24.366333 20701 layer_factory.hpp:77] Creating layer conv5_1-R
I0418 23:54:24.366343 20701 net.cpp:84] Creating Layer conv5_1-R
I0418 23:54:24.366348 20701 net.cpp:406] conv5_1-R <- pool4-R_pool4-R_0_split_0
I0418 23:54:24.366353 20701 net.cpp:380] conv5_1-R -> conv5_1-R
I0418 23:54:24.373929 20701 net.cpp:122] Setting up conv5_1-R
I0418 23:54:24.373966 20701 net.cpp:129] Top shape: 1 512 45 32 (737280)
I0418 23:54:24.373970 20701 net.cpp:137] Memory required for data: 1723222292
I0418 23:54:24.374011 20701 layer_factory.hpp:77] Creating layer relu5_1-R
I0418 23:54:24.374022 20701 net.cpp:84] Creating Layer relu5_1-R
I0418 23:54:24.374025 20701 net.cpp:406] relu5_1-R <- conv5_1-R
I0418 23:54:24.374032 20701 net.cpp:367] relu5_1-R -> conv5_1-R (in-place)
I0418 23:54:24.374256 20701 net.cpp:122] Setting up relu5_1-R
I0418 23:54:24.374269 20701 net.cpp:129] Top shape: 1 512 45 32 (737280)
I0418 23:54:24.374272 20701 net.cpp:137] Memory required for data: 1726171412
I0418 23:54:24.374275 20701 layer_factory.hpp:77] Creating layer conv5_2-R
I0418 23:54:24.374286 20701 net.cpp:84] Creating Layer conv5_2-R
I0418 23:54:24.374290 20701 net.cpp:406] conv5_2-R <- conv5_1-R
I0418 23:54:24.374297 20701 net.cpp:380] conv5_2-R -> conv5_2-R
I0418 23:54:24.383476 20701 net.cpp:122] Setting up conv5_2-R
I0418 23:54:24.383512 20701 net.cpp:129] Top shape: 1 512 45 32 (737280)
I0418 23:54:24.383515 20701 net.cpp:137] Memory required for data: 1729120532
I0418 23:54:24.383524 20701 layer_factory.hpp:77] Creating layer relu5_2-R
I0418 23:54:24.383533 20701 net.cpp:84] Creating Layer relu5_2-R
I0418 23:54:24.383536 20701 net.cpp:406] relu5_2-R <- conv5_2-R
I0418 23:54:24.383543 20701 net.cpp:367] relu5_2-R -> conv5_2-R (in-place)
I0418 23:54:24.383739 20701 net.cpp:122] Setting up relu5_2-R
I0418 23:54:24.383750 20701 net.cpp:129] Top shape: 1 512 45 32 (737280)
I0418 23:54:24.383754 20701 net.cpp:137] Memory required for data: 1732069652
I0418 23:54:24.383757 20701 layer_factory.hpp:77] Creating layer conv5_3-R
I0418 23:54:24.383771 20701 net.cpp:84] Creating Layer conv5_3-R
I0418 23:54:24.383775 20701 net.cpp:406] conv5_3-R <- conv5_2-R
I0418 23:54:24.383782 20701 net.cpp:380] conv5_3-R -> conv5_3-R
I0418 23:54:24.393254 20701 net.cpp:122] Setting up conv5_3-R
I0418 23:54:24.393303 20701 net.cpp:129] Top shape: 1 512 45 32 (737280)
I0418 23:54:24.393311 20701 net.cpp:137] Memory required for data: 1735018772
I0418 23:54:24.393324 20701 layer_factory.hpp:77] Creating layer relu5_3-R
I0418 23:54:24.393338 20701 net.cpp:84] Creating Layer relu5_3-R
I0418 23:54:24.393347 20701 net.cpp:406] relu5_3-R <- conv5_3-R
I0418 23:54:24.393357 20701 net.cpp:367] relu5_3-R -> conv5_3-R (in-place)
I0418 23:54:24.393597 20701 net.cpp:122] Setting up relu5_3-R
I0418 23:54:24.393611 20701 net.cpp:129] Top shape: 1 512 45 32 (737280)
I0418 23:54:24.393616 20701 net.cpp:137] Memory required for data: 1737967892
I0418 23:54:24.393621 20701 layer_factory.hpp:77] Creating layer pool5-R
I0418 23:54:24.393636 20701 net.cpp:84] Creating Layer pool5-R
I0418 23:54:24.393641 20701 net.cpp:406] pool5-R <- conv5_3-R
I0418 23:54:24.393651 20701 net.cpp:380] pool5-R -> pool5-R
I0418 23:54:24.393716 20701 net.cpp:122] Setting up pool5-R
I0418 23:54:24.393724 20701 net.cpp:129] Top shape: 1 512 23 16 (188416)
I0418 23:54:24.393728 20701 net.cpp:137] Memory required for data: 1738721556
I0418 23:54:24.393733 20701 layer_factory.hpp:77] Creating layer fc6-R
I0418 23:54:24.393748 20701 net.cpp:84] Creating Layer fc6-R
I0418 23:54:24.393752 20701 net.cpp:406] fc6-R <- pool5-R
I0418 23:54:24.393761 20701 net.cpp:380] fc6-R -> fc6-R
I0418 23:54:24.690460 20701 net.cpp:122] Setting up fc6-R
I0418 23:54:24.690512 20701 net.cpp:129] Top shape: 1 4096 17 10 (696320)
I0418 23:54:24.690517 20701 net.cpp:137] Memory required for data: 1741506836
I0418 23:54:24.690531 20701 layer_factory.hpp:77] Creating layer relu6-R
I0418 23:54:24.690543 20701 net.cpp:84] Creating Layer relu6-R
I0418 23:54:24.690551 20701 net.cpp:406] relu6-R <- fc6-R
I0418 23:54:24.690572 20701 net.cpp:367] relu6-R -> fc6-R (in-place)
I0418 23:54:24.690759 20701 net.cpp:122] Setting up relu6-R
I0418 23:54:24.690769 20701 net.cpp:129] Top shape: 1 4096 17 10 (696320)
I0418 23:54:24.690773 20701 net.cpp:137] Memory required for data: 1744292116
I0418 23:54:24.690776 20701 layer_factory.hpp:77] Creating layer drop6-R
I0418 23:54:24.690793 20701 net.cpp:84] Creating Layer drop6-R
I0418 23:54:24.690796 20701 net.cpp:406] drop6-R <- fc6-R
I0418 23:54:24.690802 20701 net.cpp:367] drop6-R -> fc6-R (in-place)
I0418 23:54:24.690835 20701 net.cpp:122] Setting up drop6-R
I0418 23:54:24.690841 20701 net.cpp:129] Top shape: 1 4096 17 10 (696320)
I0418 23:54:24.690845 20701 net.cpp:137] Memory required for data: 1747077396
I0418 23:54:24.690847 20701 layer_factory.hpp:77] Creating layer fc7-R
I0418 23:54:24.690860 20701 net.cpp:84] Creating Layer fc7-R
I0418 23:54:24.690863 20701 net.cpp:406] fc7-R <- fc6-R
I0418 23:54:24.690870 20701 net.cpp:380] fc7-R -> fc7-R
I0418 23:54:24.745442 20701 net.cpp:122] Setting up fc7-R
I0418 23:54:24.745493 20701 net.cpp:129] Top shape: 1 4096 17 10 (696320)
I0418 23:54:24.745498 20701 net.cpp:137] Memory required for data: 1749862676
I0418 23:54:24.745510 20701 layer_factory.hpp:77] Creating layer relu7-R
I0418 23:54:24.745523 20701 net.cpp:84] Creating Layer relu7-R
I0418 23:54:24.745529 20701 net.cpp:406] relu7-R <- fc7-R
I0418 23:54:24.745537 20701 net.cpp:367] relu7-R -> fc7-R (in-place)
I0418 23:54:24.745744 20701 net.cpp:122] Setting up relu7-R
I0418 23:54:24.745756 20701 net.cpp:129] Top shape: 1 4096 17 10 (696320)
I0418 23:54:24.745759 20701 net.cpp:137] Memory required for data: 1752647956
I0418 23:54:24.745766 20701 layer_factory.hpp:77] Creating layer drop7-R
I0418 23:54:24.745776 20701 net.cpp:84] Creating Layer drop7-R
I0418 23:54:24.745780 20701 net.cpp:406] drop7-R <- fc7-R
I0418 23:54:24.745785 20701 net.cpp:367] drop7-R -> fc7-R (in-place)
I0418 23:54:24.745823 20701 net.cpp:122] Setting up drop7-R
I0418 23:54:24.745828 20701 net.cpp:129] Top shape: 1 4096 17 10 (696320)
I0418 23:54:24.745832 20701 net.cpp:137] Memory required for data: 1755433236
I0418 23:54:24.745836 20701 layer_factory.hpp:77] Creating layer score_fr-new-R
I0418 23:54:24.745848 20701 net.cpp:84] Creating Layer score_fr-new-R
I0418 23:54:24.745851 20701 net.cpp:406] score_fr-new-R <- fc7-R
I0418 23:54:24.745860 20701 net.cpp:380] score_fr-new-R -> score_fr-new-R
I0418 23:54:24.747632 20701 net.cpp:122] Setting up score_fr-new-R
I0418 23:54:24.747654 20701 net.cpp:129] Top shape: 1 3 17 10 (510)
I0418 23:54:24.747659 20701 net.cpp:137] Memory required for data: 1755435276
I0418 23:54:24.747669 20701 layer_factory.hpp:77] Creating layer upscore2-new-R
I0418 23:54:24.747681 20701 net.cpp:84] Creating Layer upscore2-new-R
I0418 23:54:24.747689 20701 net.cpp:406] upscore2-new-R <- score_fr-new-R
I0418 23:54:24.747700 20701 net.cpp:380] upscore2-new-R -> upscore2-new-R
I0418 23:54:24.748046 20701 net.cpp:122] Setting up upscore2-new-R
I0418 23:54:24.748059 20701 net.cpp:129] Top shape: 1 3 36 22 (2376)
I0418 23:54:24.748064 20701 net.cpp:137] Memory required for data: 1755444780
I0418 23:54:24.748071 20701 layer_factory.hpp:77] Creating layer upscore2-new-R_upscore2-new-R_0_split
I0418 23:54:24.748081 20701 net.cpp:84] Creating Layer upscore2-new-R_upscore2-new-R_0_split
I0418 23:54:24.748087 20701 net.cpp:406] upscore2-new-R_upscore2-new-R_0_split <- upscore2-new-R
I0418 23:54:24.748095 20701 net.cpp:380] upscore2-new-R_upscore2-new-R_0_split -> upscore2-new-R_upscore2-new-R_0_split_0
I0418 23:54:24.748105 20701 net.cpp:380] upscore2-new-R_upscore2-new-R_0_split -> upscore2-new-R_upscore2-new-R_0_split_1
I0418 23:54:24.748169 20701 net.cpp:122] Setting up upscore2-new-R_upscore2-new-R_0_split
I0418 23:54:24.748183 20701 net.cpp:129] Top shape: 1 3 36 22 (2376)
I0418 23:54:24.748189 20701 net.cpp:129] Top shape: 1 3 36 22 (2376)
I0418 23:54:24.748193 20701 net.cpp:137] Memory required for data: 1755463788
I0418 23:54:24.748198 20701 layer_factory.hpp:77] Creating layer score_pool4-new-R
I0418 23:54:24.748212 20701 net.cpp:84] Creating Layer score_pool4-new-R
I0418 23:54:24.748219 20701 net.cpp:406] score_pool4-new-R <- pool4-R_pool4-R_0_split_1
I0418 23:54:24.748227 20701 net.cpp:380] score_pool4-new-R -> score_pool4-new-R
I0418 23:54:24.750135 20701 net.cpp:122] Setting up score_pool4-new-R
I0418 23:54:24.750156 20701 net.cpp:129] Top shape: 1 3 45 32 (4320)
I0418 23:54:24.750182 20701 net.cpp:137] Memory required for data: 1755481068
I0418 23:54:24.750193 20701 layer_factory.hpp:77] Creating layer score_pool4c-R
I0418 23:54:24.750221 20701 net.cpp:84] Creating Layer score_pool4c-R
I0418 23:54:24.750228 20701 net.cpp:406] score_pool4c-R <- score_pool4-new-R
I0418 23:54:24.750236 20701 net.cpp:406] score_pool4c-R <- upscore2-new-R_upscore2-new-R_0_split_0
I0418 23:54:24.750243 20701 net.cpp:380] score_pool4c-R -> score_pool4c-R
I0418 23:54:24.750294 20701 net.cpp:122] Setting up score_pool4c-R
I0418 23:54:24.750303 20701 net.cpp:129] Top shape: 1 3 36 22 (2376)
I0418 23:54:24.750308 20701 net.cpp:137] Memory required for data: 1755490572
I0418 23:54:24.750313 20701 layer_factory.hpp:77] Creating layer fuse_pool4-R
I0418 23:54:24.750322 20701 net.cpp:84] Creating Layer fuse_pool4-R
I0418 23:54:24.750327 20701 net.cpp:406] fuse_pool4-R <- upscore2-new-R_upscore2-new-R_0_split_1
I0418 23:54:24.750334 20701 net.cpp:406] fuse_pool4-R <- score_pool4c-R
I0418 23:54:24.750344 20701 net.cpp:380] fuse_pool4-R -> fuse_pool4-R
I0418 23:54:24.750386 20701 net.cpp:122] Setting up fuse_pool4-R
I0418 23:54:24.750404 20701 net.cpp:129] Top shape: 1 3 36 22 (2376)
I0418 23:54:24.750409 20701 net.cpp:137] Memory required for data: 1755500076
I0418 23:54:24.750414 20701 layer_factory.hpp:77] Creating layer upscore_pool4-new-R
I0418 23:54:24.750423 20701 net.cpp:84] Creating Layer upscore_pool4-new-R
I0418 23:54:24.750428 20701 net.cpp:406] upscore_pool4-new-R <- fuse_pool4-R
I0418 23:54:24.750438 20701 net.cpp:380] upscore_pool4-new-R -> upscore_pool4-new-R
I0418 23:54:24.750780 20701 net.cpp:122] Setting up upscore_pool4-new-R
I0418 23:54:24.750792 20701 net.cpp:129] Top shape: 1 3 74 46 (10212)
I0418 23:54:24.750797 20701 net.cpp:137] Memory required for data: 1755540924
I0418 23:54:24.750813 20701 layer_factory.hpp:77] Creating layer upscore_pool4-new-R_upscore_pool4-new-R_0_split
I0418 23:54:24.750821 20701 net.cpp:84] Creating Layer upscore_pool4-new-R_upscore_pool4-new-R_0_split
I0418 23:54:24.750826 20701 net.cpp:406] upscore_pool4-new-R_upscore_pool4-new-R_0_split <- upscore_pool4-new-R
I0418 23:54:24.750833 20701 net.cpp:380] upscore_pool4-new-R_upscore_pool4-new-R_0_split -> upscore_pool4-new-R_upscore_pool4-new-R_0_split_0
I0418 23:54:24.750843 20701 net.cpp:380] upscore_pool4-new-R_upscore_pool4-new-R_0_split -> upscore_pool4-new-R_upscore_pool4-new-R_0_split_1
I0418 23:54:24.750903 20701 net.cpp:122] Setting up upscore_pool4-new-R_upscore_pool4-new-R_0_split
I0418 23:54:24.750912 20701 net.cpp:129] Top shape: 1 3 74 46 (10212)
I0418 23:54:24.750918 20701 net.cpp:129] Top shape: 1 3 74 46 (10212)
I0418 23:54:24.750922 20701 net.cpp:137] Memory required for data: 1755622620
I0418 23:54:24.750927 20701 layer_factory.hpp:77] Creating layer score_pool3-new-R
I0418 23:54:24.750943 20701 net.cpp:84] Creating Layer score_pool3-new-R
I0418 23:54:24.750949 20701 net.cpp:406] score_pool3-new-R <- pool3-R_pool3-R_0_split_1
I0418 23:54:24.750957 20701 net.cpp:380] score_pool3-new-R -> score_pool3-new-R
I0418 23:54:24.752882 20701 net.cpp:122] Setting up score_pool3-new-R
I0418 23:54:24.752902 20701 net.cpp:129] Top shape: 1 3 89 64 (17088)
I0418 23:54:24.752915 20701 net.cpp:137] Memory required for data: 1755690972
I0418 23:54:24.752928 20701 layer_factory.hpp:77] Creating layer score_pool3c-R
I0418 23:54:24.752941 20701 net.cpp:84] Creating Layer score_pool3c-R
I0418 23:54:24.752948 20701 net.cpp:406] score_pool3c-R <- score_pool3-new-R
I0418 23:54:24.752955 20701 net.cpp:406] score_pool3c-R <- upscore_pool4-new-R_upscore_pool4-new-R_0_split_0
I0418 23:54:24.752971 20701 net.cpp:380] score_pool3c-R -> score_pool3c-R
I0418 23:54:24.753018 20701 net.cpp:122] Setting up score_pool3c-R
I0418 23:54:24.753026 20701 net.cpp:129] Top shape: 1 3 74 46 (10212)
I0418 23:54:24.753031 20701 net.cpp:137] Memory required for data: 1755731820
I0418 23:54:24.753036 20701 layer_factory.hpp:77] Creating layer fuse_pool3-R
I0418 23:54:24.753049 20701 net.cpp:84] Creating Layer fuse_pool3-R
I0418 23:54:24.753056 20701 net.cpp:406] fuse_pool3-R <- upscore_pool4-new-R_upscore_pool4-new-R_0_split_1
I0418 23:54:24.753062 20701 net.cpp:406] fuse_pool3-R <- score_pool3c-R
I0418 23:54:24.753068 20701 net.cpp:380] fuse_pool3-R -> fuse_pool3-R
I0418 23:54:24.753110 20701 net.cpp:122] Setting up fuse_pool3-R
I0418 23:54:24.753123 20701 net.cpp:129] Top shape: 1 3 74 46 (10212)
I0418 23:54:24.753127 20701 net.cpp:137] Memory required for data: 1755772668
I0418 23:54:24.753132 20701 layer_factory.hpp:77] Creating layer upscore8-new-R
I0418 23:54:24.753144 20701 net.cpp:84] Creating Layer upscore8-new-R
I0418 23:54:24.753149 20701 net.cpp:406] upscore8-new-R <- fuse_pool3-R
I0418 23:54:24.753157 20701 net.cpp:380] upscore8-new-R -> upscore8-new-R
I0418 23:54:24.753510 20701 net.cpp:122] Setting up upscore8-new-R
I0418 23:54:24.753523 20701 net.cpp:129] Top shape: 1 3 600 376 (676800)
I0418 23:54:24.753528 20701 net.cpp:137] Memory required for data: 1758479868
I0418 23:54:24.753541 20701 layer_factory.hpp:77] Creating layer upscore8_cropped-R
I0418 23:54:24.753549 20701 net.cpp:84] Creating Layer upscore8_cropped-R
I0418 23:54:24.753554 20701 net.cpp:406] upscore8_cropped-R <- upscore8-new-R
I0418 23:54:24.753562 20701 net.cpp:406] upscore8_cropped-R <- data-R_crop_0_split_1
I0418 23:54:24.753569 20701 net.cpp:380] upscore8_cropped-R -> upscore8_cropped-R
I0418 23:54:24.753610 20701 net.cpp:122] Setting up upscore8_cropped-R
I0418 23:54:24.753618 20701 net.cpp:129] Top shape: 1 3 512 310 (476160)
I0418 23:54:24.753623 20701 net.cpp:137] Memory required for data: 1760384508
I0418 23:54:24.753628 20701 layer_factory.hpp:77] Creating layer score-R
I0418 23:54:24.753641 20701 net.cpp:84] Creating Layer score-R
I0418 23:54:24.753646 20701 net.cpp:406] score-R <- upscore8_cropped-R
I0418 23:54:24.753659 20701 net.cpp:380] score-R -> score-R
I0418 23:54:24.756410 20701 net.cpp:122] Setting up score-R
I0418 23:54:24.756433 20701 net.cpp:129] Top shape: 1 3 512 310 (476160)
I0418 23:54:24.756446 20701 net.cpp:137] Memory required for data: 1762289148
I0418 23:54:24.756458 20701 layer_factory.hpp:77] Creating layer score_uncropped-R
I0418 23:54:24.756902 20701 net.cpp:84] Creating Layer score_uncropped-R
I0418 23:54:24.756919 20701 net.cpp:406] score_uncropped-R <- crop_info
I0418 23:54:24.756939 20701 net.cpp:406] score_uncropped-R <- score-R
I0418 23:54:24.756947 20701 net.cpp:406] score_uncropped-R <- data_data_0_split_3
I0418 23:54:24.756954 20701 net.cpp:380] score_uncropped-R -> score_uncropped-R
I0418 23:54:24.759052 20701 net.cpp:122] Setting up score_uncropped-R
I0418 23:54:24.759083 20701 net.cpp:129] Top shape: 1 3 512 310 (476160)
I0418 23:54:24.759088 20701 net.cpp:137] Memory required for data: 1764193788
I0418 23:54:24.759091 20701 layer_factory.hpp:77] Creating layer loss1
I0418 23:54:24.759106 20701 net.cpp:84] Creating Layer loss1
I0418 23:54:24.759111 20701 net.cpp:406] loss1 <- score_score_0_split_1
I0418 23:54:24.759117 20701 net.cpp:406] loss1 <- label_data_1_split_1
I0418 23:54:24.759122 20701 net.cpp:380] loss1 -> loss1
…
snapshot_prefix: "/media/Med_2T2/data2/models/snapshots/indiv:1e-5x10,20/FD3:YI3_1_20180418_201524/train"
test_initialization: false
average_loss: 20
stepvalue: 40000
iter_size: 1
I0419 00:42:41.914018 20701 solver.cpp:77] Creating training net from train_net file: /media/Med_2T2/data2/prototxts/training_I3x10.prototxt
I0419 00:42:41.916153 20701 net.cpp:51] Initializing net from parameters: 
state {
  phase: TRAIN
}
layer {
  name: "data"
  type: "Python"
  top: "data"
  top: "label"
  top: "crop_margin"
  top: "crop_prob"
  top: "crop_sample_batch"
  python_param {
    module: "Data"
    layer: "DataLayer"
  }
}
layer {
  name: "conv1_1"
  type: "Convolution"
  bottom: "data"
  top: "conv1_1"
  param {
    lr_mult: 1
    decay_mult: 1
  }
  param {
    lr_mult: 2
    decay_mult: 0
  }
  convolution_param {
    num_output: 64
    pad: 100
    kernel_size: 3
    stride: 1
  }
}
layer {
  name: "relu1_1"
  type: "ReLU"
  bottom: "conv1_1"
  top: "conv1_1"
}
layer {
  name: "conv1_2"
  type: "Convolution"
  bottom: "conv1_1"
  top: "conv1_2"
  param {
    lr_mult: 1
    decay_mult: 1
  }
  param {
    lr_mult: 2
    decay_mult: 0
  }
  convolution_param {
    num_output: 64
    pad: 1
    kernel_size: 3
    stride: 1
  }
}
layer {
  name: "relu1_2"
  type: "ReLU"
  bottom: "conv1_2"
  top: "conv1_2"
}
layer {
  name: "pool1"
  type: "Pooling"
  bottom: "conv1_2"
  top: "pool1"
  pooling_param {
    pool: MAX
    kernel_size: 2
    stride: 2
  }
}
layer {
  name: "conv2_1"
  type: "Convolution"
  bottom: "pool1"
  top: "conv2_1"
  param {
    lr_mult: 1
    decay_mult: 1
  }
  param {
    lr_mult: 2
    decay_mult: 0
  }
  convolution_param {
    num_output: 128
    pad: 1
    kernel_size: 3
    stride: 1
  }
}
layer {
  name: "relu2_1"
  type: "ReLU"
  bottom: "conv2_1"
  top: "conv2_1"
}
layer {
  name: "conv2_2"
  type: "Convolution"
  bottom: "conv2_1"
  top: "conv2_2"
  param {
    lr_mult: 1
    decay_mult: 1
  }
  param {
    lr_mult: 2
    decay_mult: 0
  }
  convolution_param {
    num_output: 128
    pad: 1
    kernel_size: 3
    stride: 1
  }
}
layer {
  name: "relu2_2"
  type: "ReLU"
  bottom: "conv2_2"
  top: "conv2_2"
}
layer {
  name: "pool2"
  type: "Pooling"
  bottom: "conv2_2"
  top: "pool2"
  pooling_param {
    pool: MAX
    kernel_size: 2
    stride: 2
  }
}
layer {
  name: "conv3_1"
  type: "Convolution"
  bottom: "pool2"
  top: "conv3_1"
  param {
    lr_mult: 1
    decay_mult: 1
  }
  param {
    lr_mult: 2
    decay_mult: 0
  }
  convolution_param {
    num_output: 256
    pad: 1
    kernel_size: 3
    stride: 1
  }
}
layer {
  name: "relu3_1"
  type: "ReLU"
  bottom: "conv3_1"
  top: "conv3_1"
}
layer {
  name: "conv3_2"
  type: "Convolution"
  bottom: "conv3_1"
  top: "conv3_2"
  param {
    lr_mult: 1
    decay_mult: 1
  }
  param {
    lr_mult: 2
    decay_mult: 0
  }
  convolution_param {
    num_output: 256
    pad: 1
    kernel_size: 3
    stride: 1
  }
}
layer {
  name: "relu3_2"
  type: "ReLU"
  bottom: "conv3_2"
  top: "conv3_2"
}
layer {
  name: "conv3_3"
  type: "Convolution"
  bottom: "conv3_2"
  top: "conv3_3"
  param {
    lr_mult: 1
    decay_mult: 1
  }
  param {
    lr_mult: 2
    decay_mult: 0
  }
  convolution_param {
    num_output: 256
    pad: 1
    kernel_size: 3
    stride: 1
  }
}
layer {
  name: "relu3_3"
  type: "ReLU"
  bottom: "conv3_3"
  top: "conv3_3"
}
layer {
  name: "pool3"
  type: "Pooling"
  bottom: "conv3_3"
  top: "pool3"
  pooling_param {
    pool: MAX
    kernel_size: 2
    stride: 2
  }
}
layer {
  name: "conv4_1"
  type: "Convolution"
  bottom: "pool3"
  top: "conv4_1"
  param {
    lr_mult: 1
    decay_mult: 1
  }
  param {
    lr_mult: 2
    decay_mult: 0
  }
  convolution_param {
    num_output: 512
    pad: 1
    kernel_size: 3
    stride: 1
  }
}
layer {
  name: "relu4_1"
  type: "ReLU"
  bottom: "conv4_1"
  top: "conv4_1"
}
layer {
  name: "conv4_2"
  type: "Convolution"
  bottom: "conv4_1"
  top: "conv4_2"
  param {
    lr_mult: 1
    decay_mult: 1
  }
  param {
    lr_mult: 2
    decay_mult: 0
  }
  convolution_param {
    num_output: 512
    pad: 1
    kernel_size: 3
    stride: 1
  }
}
layer {
  name: "relu4_2"
  type: "ReLU"
  bottom: "conv4_2"
  top: "conv4_2"
}
layer {
  name: "conv4_3"
  type: "Convolution"
  bottom: "conv4_2"
  top: "conv4_3"
  param {
    lr_mult: 1
    decay_mult: 1
  }
  param {
    lr_mult: 2
    decay_mult: 0
  }
  convolution_param {
    num_output: 512
    pad: 1
    kernel_size: 3
    stride: 1
  }
}
layer {
  name: "relu4_3"
  type: "ReLU"
  bottom: "conv4_3"
  top: "conv4_3"
}
layer {
  name: "pool4"
  type: "Pooling"
  bottom: "conv4_3"
  top: "pool4"
  pooling_param {
    pool: MAX
    kernel_size: 2
    stride: 2
  }
}
layer {
  name: "conv5_1"
  type: "Convolution"
  bottom: "pool4"
  top: "conv5_1"
  param {
    lr_mult: 1
    decay_mult: 1
  }
  param {
    lr_mult: 2
    decay_mult: 0
  }
  convolution_param {
    num_output: 512
    pad: 1
    kernel_size: 3
    stride: 1
  }
}
layer {
  name: "relu5_1"
  type: "ReLU"
  bottom: "conv5_1"
  top: "conv5_1"
}
layer {
  name: "conv5_2"
  type: "Convolution"
  bottom: "conv5_1"
  top: "conv5_2"
  param {
    lr_mult: 1
    decay_mult: 1
  }
  param {
    lr_mult: 2
    decay_mult: 0
  }
  convolution_param {
    num_output: 512
    pad: 1
    kernel_size: 3
    stride: 1
  }
}
layer {
  name: "relu5_2"
  type: "ReLU"
  bottom: "conv5_2"
  top: "conv5_2"
}
layer {
  name: "conv5_3"
  type: "Convolution"
  bottom: "conv5_2"
  top: "conv5_3"
  param {
    lr_mult: 1
    decay_mult: 1
  }
  param {
    lr_mult: 2
    decay_mult: 0
  }
  convolution_param {
    num_output: 512
    pad: 1
    kernel_size: 3
    stride: 1
  }
}
layer {
  name: "relu5_3"
  type: "ReLU"
  bottom: "conv5_3"
  top: "conv5_3"
}
layer {
  name: "pool5"
  type: "Pooling"
  bottom: "conv5_3"
  top: "pool5"
  pooling_param {
    pool: MAX
    kernel_size: 2
    stride: 2
  }
}
layer {
  name: "fc6"
  type: "Convolution"
  bottom: "pool5"
  top: "fc6"
  param {
    lr_mult: 1
    decay_mult: 1
  }
  param {
    lr_mult: 2
    decay_mult: 0
  }
  convolution_param {
    num_output: 4096
    pad: 0
    kernel_size: 7
    stride: 1
  }
}
layer {
  name: "relu6"
  type: "ReLU"
  bottom: "fc6"
  top: "fc6"
}
layer {
  name: "drop6"
  type: "Dropout"
  bottom: "fc6"
  top: "fc6"
  dropout_param {
    dropout_ratio: 0.5
  }
}
layer {
  name: "fc7"
  type: "Convolution"
  bottom: "fc6"
  top: "fc7"
  param {
    lr_mult: 1
    decay_mult: 1
  }
  param {
    lr_mult: 2
    decay_mult: 0
  }
  convolution_param {
    num_output: 4096
    pad: 0
    kernel_size: 1
    stride: 1
  }
}
layer {
  name: "relu7"
  type: "ReLU"
  bottom: "fc7"
  top: "fc7"
}
layer {
  name: "drop7"
  type: "Dropout"
  bottom: "fc7"
  top: "fc7"
  dropout_param {
    dropout_ratio: 0.5
  }
}
layer {
  name: "score_fr-new"
  type: "Convolution"
  bottom: "fc7"
  top: "score_fr-new"
  param {
    lr_mult: 1
    decay_mult: 1
  }
  param {
    lr_mult: 2
    decay_mult: 0
  }
  convolution_param {
    num_output: 3
    kernel_size: 1
  }
}
layer {
  name: "upscore2-new"
  type: "Deconvolution"
  bottom: "score_fr-new"
  top: "upscore2-new"
  param {
    lr_mult: 0
  }
  convolution_param {
    num_output: 3
    bias_term: false
    kernel_size: 4
    stride: 2
  }
}
layer {
  name: "score_pool4-new"
  type: "Convolution"
  bottom: "pool4"
  top: "score_pool4-new"
  param {
    lr_mult: 1
    decay_mult: 1
  }
  param {
    lr_mult: 2
    decay_mult: 0
  }
  convolution_param {
    num_output: 3
    pad: 0
    kernel_size: 1
  }
}
layer {
  name: "score_pool4c"
  type: "Crop"
  bottom: "score_pool4-new"
  bottom: "upscore2-new"
  top: "score_pool4c"
  crop_param {
    axis: 2
    offset: 5
  }
}
layer {
  name: "fuse_pool4"
  type: "Eltwise"
  bottom: "upscore2-new"
  bottom: "score_pool4c"
  top: "fuse_pool4"
  eltwise_param {
    operation: SUM
  }
}
layer {
  name: "upscore_pool4-new"
  type: "Deconvolution"
  bottom: "fuse_pool4"
  top: "upscore_pool4-new"
  param {
    lr_mult: 0
  }
  convolution_param {
    num_output: 3
    bias_term: false
    kernel_size: 4
    stride: 2
  }
}
layer {
  name: "score_pool3-new"
  type: "Convolution"
  bottom: "pool3"
  top: "score_pool3-new"
  param {
    lr_mult: 1
    decay_mult: 1
  }
  param {
    lr_mult: 2
    decay_mult: 0
  }
  convolution_param {
    num_output: 3
    pad: 0
    kernel_size: 1
  }
}
layer {
  name: "score_pool3c"
  type: "Crop"
  bottom: "score_pool3-new"
  bottom: "upscore_pool4-new"
  top: "score_pool3c"
  crop_param {
    axis: 2
    offset: 9
  }
}
layer {
  name: "fuse_pool3"
  type: "Eltwise"
  bottom: "upscore_pool4-new"
  bottom: "score_pool3c"
  top: "fuse_pool3"
  eltwise_param {
    operation: SUM
  }
}
layer {
  name: "upscore8-new"
  type: "Deconvolution"
  bottom: "fuse_pool3"
  top: "upscore8-new"
  param {
    lr_mult: 0
  }
  convolution_param {
    num_output: 3
    bias_term: false
    kernel_size: 16
    stride: 8
  }
}
layer {
  name: "upscore8_cropped"
  type: "Crop"
  bottom: "upscore8-new"
  bottom: "data"
  top: "upscore8_cropped"
  crop_param {
    axis: 2
    offset: 31
  }
}
layer {
  name: "score"
  type: "Convolution"
  bottom: "upscore8_cropped"
  top: "score"
  param {
    lr_mult: 1
    decay_mult: 1
  }
  param {
    lr_mult: 2
    decay_mult: 0
  }
  convolution_param {
    num_output: 3
    pad: 1
    kernel_size: 3
    stride: 1
    weight_filler {
      type: "xavier"
    }
    bias_filler {
      type: "constant"
      value: 0
    }
  }
}
layer {
  name: "prob"
  type: "Sigmoid"
  bottom: "score"
  top: "prob"
}
layer {
  name: "saliency"
  type: "Convolution"
  bottom: "prob"
  top: "saliency"
  param {
    lr_mult: 10
    decay_mult: 1
  }
  param {
    lr_mult: 20
    decay_mult: 0
  }
  convolution_param {
    num_output: 3
    pad: 2
    kernel_size: 5
    stride: 1
    weight_filler {
      type: "xavier"
    }
    bias_filler {
      type: "constant"
      value: 1
    }
  }
}
layer {
  name: "saliency_data"
  type: "Eltwise"
  bottom: "data"
  bottom: "saliency"
  top: "saliency_data"
  eltwise_param {
    operation: PROD
  }
}
layer {
  name: "crop"
  type: "Python"
  bottom: "label"
  bottom: "saliency_data"
  bottom: "crop_margin"
  bottom: "crop_prob"
  bottom: "crop_sample_batch"
  top: "data-R"
  top: "crop_info"
  python_param {
    module: "Crop"
    layer: "CropLayer"
    param_str: "{\"TEST\": 0}"
  }
}
layer {
  name: "conv1_1-R"
  type: "Convolution"
  bottom: "data-R"
  top: "conv1_1-R"
  param {
    lr_mult: 10
    decay_mult: 1
  }
  param {
    lr_mult: 20
    decay_mult: 0
  }
  convolution_param {
    num_output: 64
    pad: 100
    kernel_size: 3
    stride: 1
  }
}
layer {
  name: "relu1_1-R"
  type: "ReLU"
  bottom: "conv1_1-R"
  top: "conv1_1-R"
}
layer {
  name: "conv1_2-R"
  type: "Convolution"
  bottom: "conv1_1-R"
  top: "conv1_2-R"
  param {
    lr_mult: 10
    decay_mult: 1
  }
  param {
    lr_mult: 20
    decay_mult: 0
  }
  convolution_param {
    num_output: 64
    pad: 1
    kernel_size: 3
    stride: 1
  }
}
layer {
  name: "relu1_2-R"
  type: "ReLU"
  bottom: "conv1_2-R"
  top: "conv1_2-R"
}
layer {
  name: "pool1-R"
  type: "Pooling"
  bottom: "conv1_2-R"
  top: "pool1-R"
  pooling_param {
    pool: MAX
    kernel_size: 2
    stride: 2
  }
}
layer {
  name: "conv2_1-R"
  type: "Convolution"
  bottom: "pool1-R"
  top: "conv2_1-R"
  param {
    lr_mult: 10
    decay_mult: 1
  }
  param {
    lr_mult: 20
    decay_mult: 0
  }
  convolution_param {
    num_output: 128
    pad: 1
    kernel_size: 3
    stride: 1
  }
}
layer {
  name: "relu2_1-R"
  type: "ReLU"
  bottom: "conv2_1-R"
  top: "conv2_1-R"
}
layer {
  name: "conv2_2-R"
  type: "Convolution"
  bottom: "conv2_1-R"
  top: "conv2_2-R"
  param {
    lr_mult: 10
    decay_mult: 1
  }
  param {
    lr_mult: 20
    decay_mult: 0
  }
  convolution_param {
    num_output: 128
    pad: 1
    kernel_size: 3
    stride: 1
  }
}
layer {
  name: "relu2_2-R"
  type: "ReLU"
  bottom: "conv2_2-R"
  top: "conv2_2-R"
}
layer {
  name: "pool2-R"
  type: "Pooling"
  bottom: "conv2_2-R"
  top: "pool2-R"
  pooling_param {
    pool: MAX
    kernel_size: 2
    stride: 2
  }
}
layer {
  name: "conv3_1-R"
  type: "Convolution"
  bottom: "pool2-R"
  top: "conv3_1-R"
  param {
    lr_mult: 10
    decay_mult: 1
  }
  param {
    lr_mult: 20
    decay_mult: 0
  }
  convolution_param {
    num_output: 256
    pad: 1
    kernel_size: 3
    stride: 1
  }
}
layer {
  name: "relu3_1-R"
  type: "ReLU"
  bottom: "conv3_1-R"
  top: "conv3_1-R"
}
layer {
  name: "conv3_2-R"
  type: "Convolution"
  bottom: "conv3_1-R"
  top: "conv3_2-R"
  param {
    lr_mult: 10
    decay_mult: 1
  }
  param {
    lr_mult: 20
    decay_mult: 0
  }
  convolution_param {
    num_output: 256
    pad: 1
    kernel_size: 3
    stride: 1
  }
}
layer {
  name: "relu3_2-R"
  type: "ReLU"
  bottom: "conv3_2-R"
  top: "conv3_2-R"
}
layer {
  name: "conv3_3-R"
  type: "Convolution"
  bottom: "conv3_2-R"
  top: "conv3_3-R"
  param {
    lr_mult: 10
    decay_mult: 1
  }
  param {
    lr_mult: 20
    decay_mult: 0
  }
  convolution_param {
    num_output: 256
    pad: 1
    kernel_size: 3
    stride: 1
  }
}
layer {
  name: "relu3_3-R"
  type: "ReLU"
  bottom: "conv3_3-R"
  top: "conv3_3-R"
}
layer {
  name: "pool3-R"
  type: "Pooling"
  bottom: "conv3_3-R"
  top: "pool3-R"
  pooling_param {
    pool: MAX
    kernel_size: 2
    stride: 2
  }
}
layer {
  name: "conv4_1-R"
  type: "Convolution"
  bottom: "pool3-R"
  top: "conv4_1-R"
  param {
    lr_mult: 10
    decay_mult: 1
  }
  param {
    lr_mult: 20
    decay_mult: 0
  }
  convolution_param {
    num_output: 512
    pad: 1
    kernel_size: 3
    stride: 1
  }
}
layer {
  name: "relu4_1-R"
  type: "ReLU"
  bottom: "conv4_1-R"
  top: "conv4_1-R"
}
layer {
  name: "conv4_2-R"
  type: "Convolution"
  bottom: "conv4_1-R"
  top: "conv4_2-R"
  param {
    lr_mult: 10
    decay_mult: 1
  }
  param {
    lr_mult: 20
    decay_mult: 0
  }
  convolution_param {
    num_output: 512
    pad: 1
    kernel_size: 3
    stride: 1
  }
}
layer {
  name: "relu4_2-R"
  type: "ReLU"
  bottom: "conv4_2-R"
  top: "conv4_2-R"
}
layer {
  name: "conv4_3-R"
  type: "Convolution"
  bottom: "conv4_2-R"
  top: "conv4_3-R"
  param {
    lr_mult: 10
    decay_mult: 1
  }
  param {
    lr_mult: 20
    decay_mult: 0
  }
  convolution_param {
    num_output: 512
    pad: 1
    kernel_size: 3
    stride: 1
  }
}
layer {
  name: "relu4_3-R"
  type: "ReLU"
  bottom: "conv4_3-R"
  top: "conv4_3-R"
}
layer {
  name: "pool4-R"
  type: "Pooling"
  bottom: "conv4_3-R"
  top: "pool4-R"
  pooling_param {
    pool: MAX
    kernel_size: 2
    stride: 2
  }
}
layer {
  name: "conv5_1-R"
  type: "Convolution"
  bottom: "pool4-R"
  top: "conv5_1-R"
  param {
    lr_mult: 10
    decay_mult: 1
  }
  param {
    lr_mult: 20
    decay_mult: 0
  }
  convolution_param {
    num_output: 512
    pad: 1
    kernel_size: 3
    stride: 1
  }
}
layer {
  name: "relu5_1-R"
  type: "ReLU"
  bottom: "conv5_1-R"
  top: "conv5_1-R"
}
layer {
  name: "conv5_2-R"
  type: "Convolution"
  bottom: "conv5_1-R"
  top: "conv5_2-R"
  param {
    lr_mult: 10
    decay_mult: 1
  }
  param {
    lr_mult: 20
    decay_mult: 0
  }
  convolution_param {
    num_output: 512
    pad: 1
    kernel_size: 3
    stride: 1
  }
}
layer {
  name: "relu5_2-R"
  type: "ReLU"
  bottom: "conv5_2-R"
  top: "conv5_2-R"
}
layer {
  name: "conv5_3-R"
  type: "Convolution"
  bottom: "conv5_2-R"
  top: "conv5_3-R"
  param {
    lr_mult: 10
    decay_mult: 1
  }
  param {
    lr_mult: 20
    decay_mult: 0
  }
  convolution_param {
    num_output: 512
    pad: 1
    kernel_size: 3
    stride: 1
  }
}
layer {
  name: "relu5_3-R"
  type: "ReLU"
  bottom: "conv5_3-R"
  top: "conv5_3-R"
}
layer {
  name: "pool5-R"
  type: "Pooling"
  bottom: "conv5_3-R"
  top: "pool5-R"
  pooling_param {
    pool: MAX
    kernel_size: 2
    stride: 2
  }
}
layer {
  name: "fc6-R"
  type: "Convolution"
  bottom: "pool5-R"
  top: "fc6-R"
  param {
    lr_mult: 10
    decay_mult: 1
  }
  param {
    lr_mult: 20
    decay_mult: 0
  }
  convolution_param {
    num_output: 4096
    pad: 0
    kernel_size: 7
    stride: 1
  }
}
layer {
  name: "relu6-R"
  type: "ReLU"
  bottom: "fc6-R"
  top: "fc6-R"
}
layer {
  name: "drop6-R"
  type: "Dropout"
  bottom: "fc6-R"
  top: "fc6-R"
  dropout_param {
    dropout_ratio: 0.5
  }
}
layer {
  name: "fc7-R"
  type: "Convolution"
  bottom: "fc6-R"
  top: "fc7-R"
  param {
    lr_mult: 10
    decay_mult: 1
  }
  param {
    lr_mult: 20
    decay_mult: 0
  }
  convolution_param {
    num_output: 4096
    pad: 0
    kernel_size: 1
    stride: 1
  }
}
layer {
  name: "relu7-R"
  type: "ReLU"
  bottom: "fc7-R"
  top: "fc7-R"
}
layer {
  name: "drop7-R"
  type: "Dropout"
  bottom: "fc7-R"
  top: "fc7-R"
  dropout_param {
    dropout_ratio: 0.5
  }
}
layer {
  name: "score_fr-new-R"
  type: "Convolution"
  bottom: "fc7-R"
  top: "score_fr-new-R"
  param {
    lr_mult: 10
    decay_mult: 1
  }
  param {
    lr_mult: 20
    decay_mult: 0
  }
  convolution_param {
    num_output: 3
    kernel_size: 1
  }
}
layer {
  name: "upscore2-new-R"
  type: "Deconvolution"
  bottom: "score_fr-new-R"
  top: "upscore2-new-R"
  param {
    lr_mult: 0
  }
  convolution_param {
    num_output: 3
    bias_term: false
    kernel_size: 4
    stride: 2
  }
}
layer {
  name: "score_pool4-new-R"
  type: "Convolution"
  bottom: "pool4-R"
  top: "score_pool4-new-R"
  param {
    lr_mult: 10
    decay_mult: 1
  }
  param {
    lr_mult: 20
    decay_mult: 0
  }
  convolution_param {
    num_output: 3
    pad: 0
    kernel_size: 1
  }
}
layer {
  name: "score_pool4c-R"
  type: "Crop"
  bottom: "score_pool4-new-R"
  bottom: "upscore2-new-R"
  top: "score_pool4c-R"
  crop_param {
    axis: 2
    offset: 5
  }
}
layer {
  name: "fuse_pool4-R"
  type: "Eltwise"
  bottom: "upscore2-new-R"
  bottom: "score_pool4c-R"
  top: "fuse_pool4-R"
  eltwise_param {
    operation: SUM
  }
}
layer {
  name: "upscore_pool4-new-R"
  type: "Deconvolution"
  bottom: "fuse_pool4-R"
  top: "upscore_pool4-new-R"
  param {
    lr_mult: 0
  }
  convolution_param {
    num_output: 3
    bias_term: false
    kernel_size: 4
    stride: 2
  }
}
layer {
  name: "score_pool3-new-R"
  type: "Convolution"
  bottom: "pool3-R"
  top: "score_pool3-new-R"
  param {
    lr_mult: 10
    decay_mult: 1
  }
  param {
    lr_mult: 20
    decay_mult: 0
  }
  convolution_param {
    num_output: 3
    pad: 0
    kernel_size: 1
  }
}
layer {
  name: "score_pool3c-R"
  type: "Crop"
  bottom: "score_pool3-new-R"
  bottom: "upscore_pool4-new-R"
  top: "score_pool3c-R"
  crop_param {
    axis: 2
    offset: 9
  }
}
layer {
  name: "fuse_pool3-R"
  type: "Eltwise"
  bottom: "upscore_pool4-new-R"
  bottom: "score_pool3c-R"
  top: "fuse_pool3-R"
  eltwise_param {
    operation: SUM
  }
}
layer {
  name: "upscore8-new-R"
  type: "Deconvolution"
  bottom: "fuse_pool3-R"
  top: "upscore8-new-R"
  param {
    lr_mult: 0
  }
  convolution_param {
    num_output: 3
    bias_term: false
    kernel_size: 16
    stride: 8
  }
}
layer {
  name: "upscore8_cropped-R"
  type: "Crop"
  bottom: "upscore8-new-R"
  bottom: "data-R"
  top: "upscore8_cropped-R"
  crop_param {
    axis: 2
    offset: 31
  }
}
layer {
  name: "score-R"
  type: "Convolution"
  bottom: "upscore8_cropped-R"
  top: "score-R"
  param {
    lr_mult: 10
    decay_mult: 1
  }
  param {
    lr_mult: 20
    decay_mult: 0
  }
  convolution_param {
    num_output: 3
    pad: 1
    kernel_size: 3
    stride: 1
    weight_filler {
      type: "xavier"
    }
    bias_filler {
      type: "constant"
      value: 0
    }
  }
}
layer {
  name: "score_uncropped-R"
  type: "Python"
  bottom: "crop_info"
  bottom: "score-R"
  bottom: "data"
  top: "score_uncropped-R"
  python_param {
    module: "Uncrop"
    layer: "UncropLayer"
  }
}
layer {
  name: "loss1"
  type: "DiceLoss"
  bottom: "score"
  bottom: "label"
  top: "loss1"
  loss_weight: 0.333333
}
layer {
  name: "loss2"
  type: "DiceLoss"
  bottom: "score_uncropped-R"
  bottom: "label"
  top: "loss2"
  loss_weight: 0.666667
}
I0419 00:42:41.916563 20701 layer_factory.hpp:77] Creating layer data
I0419 00:42:41.916625 20701 net.cpp:84] Creating Layer data
I0419 00:42:41.916632 20701 net.cpp:380] data -> data
I0419 00:42:41.916641 20701 net.cpp:380] data -> label
I0419 00:42:41.916647 20701 net.cpp:380] data -> crop_margin
I0419 00:42:41.916652 20701 net.cpp:380] data -> crop_prob
I0419 00:42:41.916657 20701 net.cpp:380] data -> crop_sample_batch
I0419 00:42:42.052162 20701 net.cpp:122] Setting up data
I0419 00:42:42.052198 20701 net.cpp:129] Top shape: 1 3 512 310 (476160)
I0419 00:42:42.052204 20701 net.cpp:129] Top shape: 1 3 512 310 (476160)
I0419 00:42:42.052208 20701 net.cpp:129] Top shape: 1 (1)
I0419 00:42:42.052211 20701 net.cpp:129] Top shape: 1 (1)
I0419 00:42:42.052215 20701 net.cpp:129] Top shape: 1 (1)
I0419 00:42:42.052218 20701 net.cpp:137] Memory required for data: 3809292
I0419 00:42:42.052240 20701 layer_factory.hpp:77] Creating layer data_data_0_split
I0419 00:42:42.052256 20701 net.cpp:84] Creating Layer data_data_0_split
I0419 00:42:42.052261 20701 net.cpp:406] data_data_0_split <- data
I0419 00:42:42.052269 20701 net.cpp:380] data_data_0_split -> data_data_0_split_0
I0419 00:42:42.052280 20701 net.cpp:380] data_data_0_split -> data_data_0_split_1
I0419 00:42:42.052286 20701 net.cpp:380] data_data_0_split -> data_data_0_split_2
I0419 00:42:42.052291 20701 net.cpp:380] data_data_0_split -> data_data_0_split_3
I0419 00:42:42.052405 20701 net.cpp:122] Setting up data_data_0_split
I0419 00:42:42.052417 20701 net.cpp:129] Top shape: 1 3 512 310 (476160)
I0419 00:42:42.052424 20701 net.cpp:129] Top shape: 1 3 512 310 (476160)
I0419 00:42:42.052429 20701 net.cpp:129] Top shape: 1 3 512 310 (476160)
I0419 00:42:42.052435 20701 net.cpp:129] Top shape: 1 3 512 310 (476160)
I0419 00:42:42.052439 20701 net.cpp:137] Memory required for data: 11427852
I0419 00:42:42.052443 20701 layer_factory.hpp:77] Creating layer label_data_1_split
I0419 00:42:42.052453 20701 net.cpp:84] Creating Layer label_data_1_split
I0419 00:42:42.052458 20701 net.cpp:406] label_data_1_split <- label
I0419 00:42:42.052465 20701 net.cpp:380] label_data_1_split -> label_data_1_split_0
I0419 00:42:42.052474 20701 net.cpp:380] label_data_1_split -> label_data_1_split_1
I0419 00:42:42.052481 20701 net.cpp:380] label_data_1_split -> label_data_1_split_2
I0419 00:42:42.052569 20701 net.cpp:122] Setting up label_data_1_split
I0419 00:42:42.052582 20701 net.cpp:129] Top shape: 1 3 512 310 (476160)
I0419 00:42:42.052590 20701 net.cpp:129] Top shape: 1 3 512 310 (476160)
I0419 00:42:42.052597 20701 net.cpp:129] Top shape: 1 3 512 310 (476160)
I0419 00:42:42.052600 20701 net.cpp:137] Memory required for data: 17141772
I0419 00:42:42.052604 20701 layer_factory.hpp:77] Creating layer conv1_1
I0419 00:42:42.052618 20701 net.cpp:84] Creating Layer conv1_1
I0419 00:42:42.052621 20701 net.cpp:406] conv1_1 <- data_data_0_split_0
I0419 00:42:42.052628 20701 net.cpp:380] conv1_1 -> conv1_1
I0419 00:42:42.056682 20701 net.cpp:122] Setting up conv1_1
I0419 00:42:42.056697 20701 net.cpp:129] Top shape: 1 64 710 508 (23083520)
I0419 00:42:42.056701 20701 net.cpp:137] Memory required for data: 109475852
I0419 00:42:42.056732 20701 layer_factory.hpp:77] Creating layer relu1_1
I0419 00:42:42.056751 20701 net.cpp:84] Creating Layer relu1_1
I0419 00:42:42.056754 20701 net.cpp:406] relu1_1 <- conv1_1
I0419 00:42:42.056759 20701 net.cpp:367] relu1_1 -> conv1_1 (in-place)
I0419 00:42:42.057023 20701 net.cpp:122] Setting up relu1_1
I0419 00:42:42.057035 20701 net.cpp:129] Top shape: 1 64 710 508 (23083520)
I0419 00:42:42.057039 20701 net.cpp:137] Memory required for data: 201809932
I0419 00:42:42.057042 20701 layer_factory.hpp:77] Creating layer conv1_2
I0419 00:42:42.057051 20701 net.cpp:84] Creating Layer conv1_2
I0419 00:42:42.057055 20701 net.cpp:406] conv1_2 <- conv1_1
I0419 00:42:42.057062 20701 net.cpp:380] conv1_2 -> conv1_2
I0419 00:42:42.060112 20701 net.cpp:122] Setting up conv1_2
I0419 00:42:42.060127 20701 net.cpp:129] Top shape: 1 64 710 508 (23083520)
I0419 00:42:42.060132 20701 net.cpp:137] Memory required for data: 294144012
I0419 00:42:42.060142 20701 layer_factory.hpp:77] Creating layer relu1_2
I0419 00:42:42.060148 20701 net.cpp:84] Creating Layer relu1_2
I0419 00:42:42.060153 20701 net.cpp:406] relu1_2 <- conv1_2
I0419 00:42:42.060158 20701 net.cpp:367] relu1_2 -> conv1_2 (in-place)
I0419 00:42:42.060415 20701 net.cpp:122] Setting up relu1_2
I0419 00:42:42.060427 20701 net.cpp:129] Top shape: 1 64 710 508 (23083520)
I0419 00:42:42.060431 20701 net.cpp:137] Memory required for data: 386478092
I0419 00:42:42.060436 20701 layer_factory.hpp:77] Creating layer pool1
I0419 00:42:42.060442 20701 net.cpp:84] Creating Layer pool1
I0419 00:42:42.060446 20701 net.cpp:406] pool1 <- conv1_2
I0419 00:42:42.060451 20701 net.cpp:380] pool1 -> pool1
I0419 00:42:42.060529 20701 net.cpp:122] Setting up pool1
I0419 00:42:42.060544 20701 net.cpp:129] Top shape: 1 64 355 254 (5770880)
I0419 00:42:42.060549 20701 net.cpp:137] Memory required for data: 409561612
I0419 00:42:42.060552 20701 layer_factory.hpp:77] Creating layer conv2_1
I0419 00:42:42.060565 20701 net.cpp:84] Creating Layer conv2_1
I0419 00:42:42.060571 20701 net.cpp:406] conv2_1 <- pool1
I0419 00:42:42.060580 20701 net.cpp:380] conv2_1 -> conv2_1
I0419 00:42:42.062361 20701 net.cpp:122] Setting up conv2_1
I0419 00:42:42.062376 20701 net.cpp:129] Top shape: 1 128 355 254 (11541760)
I0419 00:42:42.062381 20701 net.cpp:137] Memory required for data: 455728652
I0419 00:42:42.062391 20701 layer_factory.hpp:77] Creating layer relu2_1
I0419 00:42:42.062397 20701 net.cpp:84] Creating Layer relu2_1
I0419 00:42:42.062402 20701 net.cpp:406] relu2_1 <- conv2_1
I0419 00:42:42.062407 20701 net.cpp:367] relu2_1 -> conv2_1 (in-place)
I0419 00:42:42.064110 20701 net.cpp:122] Setting up relu2_1
I0419 00:42:42.064126 20701 net.cpp:129] Top shape: 1 128 355 254 (11541760)
I0419 00:42:42.064146 20701 net.cpp:137] Memory required for data: 501895692
I0419 00:42:42.064149 20701 layer_factory.hpp:77] Creating layer conv2_2
I0419 00:42:42.064172 20701 net.cpp:84] Creating Layer conv2_2
I0419 00:42:42.064177 20701 net.cpp:406] conv2_2 <- conv2_1
I0419 00:42:42.064183 20701 net.cpp:380] conv2_2 -> conv2_2
I0419 00:42:42.066678 20701 net.cpp:122] Setting up conv2_2
I0419 00:42:42.066694 20701 net.cpp:129] Top shape: 1 128 355 254 (11541760)
I0419 00:42:42.066699 20701 net.cpp:137] Memory required for data: 548062732
I0419 00:42:42.066721 20701 layer_factory.hpp:77] Creating layer relu2_2
I0419 00:42:42.066730 20701 net.cpp:84] Creating Layer relu2_2
I0419 00:42:42.066733 20701 net.cpp:406] relu2_2 <- conv2_2
I0419 00:42:42.066740 20701 net.cpp:367] relu2_2 -> conv2_2 (in-place)
I0419 00:42:42.067567 20701 net.cpp:122] Setting up relu2_2
I0419 00:42:42.067581 20701 net.cpp:129] Top shape: 1 128 355 254 (11541760)
I0419 00:42:42.067585 20701 net.cpp:137] Memory required for data: 594229772
I0419 00:42:42.067605 20701 layer_factory.hpp:77] Creating layer pool2
I0419 00:42:42.067611 20701 net.cpp:84] Creating Layer pool2
I0419 00:42:42.067615 20701 net.cpp:406] pool2 <- conv2_2
I0419 00:42:42.067621 20701 net.cpp:380] pool2 -> pool2
I0419 00:42:42.067692 20701 net.cpp:122] Setting up pool2
I0419 00:42:42.067699 20701 net.cpp:129] Top shape: 1 128 178 127 (2893568)
I0419 00:42:42.067703 20701 net.cpp:137] Memory required for data: 605804044
I0419 00:42:42.067706 20701 layer_factory.hpp:77] Creating layer conv3_1
I0419 00:42:42.067714 20701 net.cpp:84] Creating Layer conv3_1
I0419 00:42:42.067718 20701 net.cpp:406] conv3_1 <- pool2
I0419 00:42:42.067723 20701 net.cpp:380] conv3_1 -> conv3_1
I0419 00:42:42.072592 20701 net.cpp:122] Setting up conv3_1
I0419 00:42:42.072607 20701 net.cpp:129] Top shape: 1 256 178 127 (5787136)
I0419 00:42:42.072612 20701 net.cpp:137] Memory required for data: 628952588
I0419 00:42:42.072638 20701 layer_factory.hpp:77] Creating layer relu3_1
I0419 00:42:42.072644 20701 net.cpp:84] Creating Layer relu3_1
I0419 00:42:42.072649 20701 net.cpp:406] relu3_1 <- conv3_1
I0419 00:42:42.072655 20701 net.cpp:367] relu3_1 -> conv3_1 (in-place)
I0419 00:42:42.072928 20701 net.cpp:122] Setting up relu3_1
I0419 00:42:42.072942 20701 net.cpp:129] Top shape: 1 256 178 127 (5787136)
I0419 00:42:42.072945 20701 net.cpp:137] Memory required for data: 652101132
I0419 00:42:42.072949 20701 layer_factory.hpp:77] Creating layer conv3_2
I0419 00:42:42.072957 20701 net.cpp:84] Creating Layer conv3_2
I0419 00:42:42.072962 20701 net.cpp:406] conv3_2 <- conv3_1
I0419 00:42:42.072968 20701 net.cpp:380] conv3_2 -> conv3_2
I0419 00:42:42.078385 20701 net.cpp:122] Setting up conv3_2
I0419 00:42:42.078410 20701 net.cpp:129] Top shape: 1 256 178 127 (5787136)
I0419 00:42:42.078418 20701 net.cpp:137] Memory required for data: 675249676
I0419 00:42:42.078438 20701 layer_factory.hpp:77] Creating layer relu3_2
I0419 00:42:42.078450 20701 net.cpp:84] Creating Layer relu3_2
I0419 00:42:42.078457 20701 net.cpp:406] relu3_2 <- conv3_2
I0419 00:42:42.078466 20701 net.cpp:367] relu3_2 -> conv3_2 (in-place)
I0419 00:42:42.078886 20701 net.cpp:122] Setting up relu3_2
I0419 00:42:42.078904 20701 net.cpp:129] Top shape: 1 256 178 127 (5787136)
I0419 00:42:42.078912 20701 net.cpp:137] Memory required for data: 698398220
I0419 00:42:42.078917 20701 layer_factory.hpp:77] Creating layer conv3_3
I0419 00:42:42.078932 20701 net.cpp:84] Creating Layer conv3_3
I0419 00:42:42.078944 20701 net.cpp:406] conv3_3 <- conv3_2
I0419 00:42:42.078955 20701 net.cpp:380] conv3_3 -> conv3_3
I0419 00:42:42.086853 20701 net.cpp:122] Setting up conv3_3
I0419 00:42:42.086879 20701 net.cpp:129] Top shape: 1 256 178 127 (5787136)
I0419 00:42:42.086897 20701 net.cpp:137] Memory required for data: 721546764
I0419 00:42:42.086910 20701 layer_factory.hpp:77] Creating layer relu3_3
I0419 00:42:42.086930 20701 net.cpp:84] Creating Layer relu3_3
I0419 00:42:42.086943 20701 net.cpp:406] relu3_3 <- conv3_3
I0419 00:42:42.086953 20701 net.cpp:367] relu3_3 -> conv3_3 (in-place)
I0419 00:42:42.087373 20701 net.cpp:122] Setting up relu3_3
I0419 00:42:42.087391 20701 net.cpp:129] Top shape: 1 256 178 127 (5787136)
I0419 00:42:42.087397 20701 net.cpp:137] Memory required for data: 744695308
I0419 00:42:42.087404 20701 layer_factory.hpp:77] Creating layer pool3
I0419 00:42:42.087414 20701 net.cpp:84] Creating Layer pool3
I0419 00:42:42.087420 20701 net.cpp:406] pool3 <- conv3_3
I0419 00:42:42.087430 20701 net.cpp:380] pool3 -> pool3
I0419 00:42:42.087568 20701 net.cpp:122] Setting up pool3
I0419 00:42:42.087589 20701 net.cpp:129] Top shape: 1 256 89 64 (1458176)
I0419 00:42:42.087602 20701 net.cpp:137] Memory required for data: 750528012
I0419 00:42:42.087610 20701 layer_factory.hpp:77] Creating layer pool3_pool3_0_split
I0419 00:42:42.087620 20701 net.cpp:84] Creating Layer pool3_pool3_0_split
I0419 00:42:42.087626 20701 net.cpp:406] pool3_pool3_0_split <- pool3
I0419 00:42:42.087635 20701 net.cpp:380] pool3_pool3_0_split -> pool3_pool3_0_split_0
I0419 00:42:42.087646 20701 net.cpp:380] pool3_pool3_0_split -> pool3_pool3_0_split_1
I0419 00:42:42.087782 20701 net.cpp:122] Setting up pool3_pool3_0_split
I0419 00:42:42.087803 20701 net.cpp:129] Top shape: 1 256 89 64 (1458176)
I0419 00:42:42.087815 20701 net.cpp:129] Top shape: 1 256 89 64 (1458176)
I0419 00:42:42.087821 20701 net.cpp:137] Memory required for data: 762193420
I0419 00:42:42.087826 20701 layer_factory.hpp:77] Creating layer conv4_1
I0419 00:42:42.087839 20701 net.cpp:84] Creating Layer conv4_1
I0419 00:42:42.087846 20701 net.cpp:406] conv4_1 <- pool3_pool3_0_split_0
I0419 00:42:42.087857 20701 net.cpp:380] conv4_1 -> conv4_1
I0419 00:42:42.095583 20701 net.cpp:122] Setting up conv4_1
I0419 00:42:42.095605 20701 net.cpp:129] Top shape: 1 512 89 64 (2916352)
I0419 00:42:42.095612 20701 net.cpp:137] Memory required for data: 773858828
I0419 00:42:42.095623 20701 layer_factory.hpp:77] Creating layer relu4_1
I0419 00:42:42.095633 20701 net.cpp:84] Creating Layer relu4_1
I0419 00:42:42.095638 20701 net.cpp:406] relu4_1 <- conv4_1
I0419 00:42:42.095646 20701 net.cpp:367] relu4_1 -> conv4_1 (in-place)
I0419 00:42:42.096009 20701 net.cpp:122] Setting up relu4_1
I0419 00:42:42.096025 20701 net.cpp:129] Top shape: 1 512 89 64 (2916352)
I0419 00:42:42.096030 20701 net.cpp:137] Memory required for data: 785524236
I0419 00:42:42.096036 20701 layer_factory.hpp:77] Creating layer conv4_2
I0419 00:42:42.096050 20701 net.cpp:84] Creating Layer conv4_2
I0419 00:42:42.096061 20701 net.cpp:406] conv4_2 <- conv4_1
I0419 00:42:42.096071 20701 net.cpp:380] conv4_2 -> conv4_2
I0419 00:42:42.105536 20701 net.cpp:122] Setting up conv4_2
I0419 00:42:42.105561 20701 net.cpp:129] Top shape: 1 512 89 64 (2916352)
I0419 00:42:42.105566 20701 net.cpp:137] Memory required for data: 797189644
I0419 00:42:42.105594 20701 layer_factory.hpp:77] Creating layer relu4_2
I0419 00:42:42.105603 20701 net.cpp:84] Creating Layer relu4_2
I0419 00:42:42.105609 20701 net.cpp:406] relu4_2 <- conv4_2
I0419 00:42:42.105617 20701 net.cpp:367] relu4_2 -> conv4_2 (in-place)
I0419 00:42:42.106900 20701 net.cpp:122] Setting up relu4_2
I0419 00:42:42.106920 20701 net.cpp:129] Top shape: 1 512 89 64 (2916352)
I0419 00:42:42.106925 20701 net.cpp:137] Memory required for data: 808855052
I0419 00:42:42.106942 20701 layer_factory.hpp:77] Creating layer conv4_3
I0419 00:42:42.106956 20701 net.cpp:84] Creating Layer conv4_3
I0419 00:42:42.106961 20701 net.cpp:406] conv4_3 <- conv4_2
I0419 00:42:42.106969 20701 net.cpp:380] conv4_3 -> conv4_3
I0419 00:42:42.114399 20701 net.cpp:122] Setting up conv4_3
I0419 00:42:42.114418 20701 net.cpp:129] Top shape: 1 512 89 64 (2916352)
I0419 00:42:42.114421 20701 net.cpp:137] Memory required for data: 820520460
I0419 00:42:42.114428 20701 layer_factory.hpp:77] Creating layer relu4_3
I0419 00:42:42.114449 20701 net.cpp:84] Creating Layer relu4_3
I0419 00:42:42.114454 20701 net.cpp:406] relu4_3 <- conv4_3
I0419 00:42:42.114460 20701 net.cpp:367] relu4_3 -> conv4_3 (in-place)
I0419 00:42:42.115244 20701 net.cpp:122] Setting up relu4_3
I0419 00:42:42.115258 20701 net.cpp:129] Top shape: 1 512 89 64 (2916352)
I0419 00:42:42.115262 20701 net.cpp:137] Memory required for data: 832185868
I0419 00:42:42.115280 20701 layer_factory.hpp:77] Creating layer pool4
I0419 00:42:42.115289 20701 net.cpp:84] Creating Layer pool4
I0419 00:42:42.115293 20701 net.cpp:406] pool4 <- conv4_3
I0419 00:42:42.115299 20701 net.cpp:380] pool4 -> pool4
I0419 00:42:42.115372 20701 net.cpp:122] Setting up pool4
I0419 00:42:42.115381 20701 net.cpp:129] Top shape: 1 512 45 32 (737280)
I0419 00:42:42.115386 20701 net.cpp:137] Memory required for data: 835134988
I0419 00:42:42.115388 20701 layer_factory.hpp:77] Creating layer pool4_pool4_0_split
I0419 00:42:42.115394 20701 net.cpp:84] Creating Layer pool4_pool4_0_split
I0419 00:42:42.115398 20701 net.cpp:406] pool4_pool4_0_split <- pool4
I0419 00:42:42.115404 20701 net.cpp:380] pool4_pool4_0_split -> pool4_pool4_0_split_0
I0419 00:42:42.115412 20701 net.cpp:380] pool4_pool4_0_split -> pool4_pool4_0_split_1
I0419 00:42:42.115491 20701 net.cpp:122] Setting up pool4_pool4_0_split
I0419 00:42:42.115501 20701 net.cpp:129] Top shape: 1 512 45 32 (737280)
I0419 00:42:42.115506 20701 net.cpp:129] Top shape: 1 512 45 32 (737280)
I0419 00:42:42.115509 20701 net.cpp:137] Memory required for data: 841033228
I0419 00:42:42.115512 20701 layer_factory.hpp:77] Creating layer conv5_1
I0419 00:42:42.115521 20701 net.cpp:84] Creating Layer conv5_1
I0419 00:42:42.115525 20701 net.cpp:406] conv5_1 <- pool4_pool4_0_split_0
I0419 00:42:42.115532 20701 net.cpp:380] conv5_1 -> conv5_1
I0419 00:42:42.123095 20701 net.cpp:122] Setting up conv5_1
I0419 00:42:42.123112 20701 net.cpp:129] Top shape: 1 512 45 32 (737280)
I0419 00:42:42.123116 20701 net.cpp:137] Memory required for data: 843982348
I0419 00:42:42.123138 20701 layer_factory.hpp:77] Creating layer relu5_1
I0419 00:42:42.123147 20701 net.cpp:84] Creating Layer relu5_1
I0419 00:42:42.123150 20701 net.cpp:406] relu5_1 <- conv5_1
I0419 00:42:42.123157 20701 net.cpp:367] relu5_1 -> conv5_1 (in-place)
I0419 00:42:42.123420 20701 net.cpp:122] Setting up relu5_1
I0419 00:42:42.123431 20701 net.cpp:129] Top shape: 1 512 45 32 (737280)
I0419 00:42:42.123435 20701 net.cpp:137] Memory required for data: 846931468
I0419 00:42:42.123440 20701 layer_factory.hpp:77] Creating layer conv5_2
I0419 00:42:42.123450 20701 net.cpp:84] Creating Layer conv5_2
I0419 00:42:42.123453 20701 net.cpp:406] conv5_2 <- conv5_1
I0419 00:42:42.123461 20701 net.cpp:380] conv5_2 -> conv5_2
I0419 00:42:42.132411 20701 net.cpp:122] Setting up conv5_2
I0419 00:42:42.132428 20701 net.cpp:129] Top shape: 1 512 45 32 (737280)
I0419 00:42:42.132432 20701 net.cpp:137] Memory required for data: 849880588
I0419 00:42:42.132455 20701 layer_factory.hpp:77] Creating layer relu5_2
I0419 00:42:42.132468 20701 net.cpp:84] Creating Layer relu5_2
I0419 00:42:42.132473 20701 net.cpp:406] relu5_2 <- conv5_2
I0419 00:42:42.132479 20701 net.cpp:367] relu5_2 -> conv5_2 (in-place)
I0419 00:42:42.132747 20701 net.cpp:122] Setting up relu5_2
I0419 00:42:42.132761 20701 net.cpp:129] Top shape: 1 512 45 32 (737280)
I0419 00:42:42.132763 20701 net.cpp:137] Memory required for data: 852829708
I0419 00:42:42.132767 20701 layer_factory.hpp:77] Creating layer conv5_3
I0419 00:42:42.132777 20701 net.cpp:84] Creating Layer conv5_3
I0419 00:42:42.132781 20701 net.cpp:406] conv5_3 <- conv5_2
I0419 00:42:42.132787 20701 net.cpp:380] conv5_3 -> conv5_3
I0419 00:42:42.142204 20701 net.cpp:122] Setting up conv5_3
I0419 00:42:42.142230 20701 net.cpp:129] Top shape: 1 512 45 32 (737280)
I0419 00:42:42.142235 20701 net.cpp:137] Memory required for data: 855778828
I0419 00:42:42.142246 20701 layer_factory.hpp:77] Creating layer relu5_3
I0419 00:42:42.142256 20701 net.cpp:84] Creating Layer relu5_3
I0419 00:42:42.142262 20701 net.cpp:406] relu5_3 <- conv5_3
I0419 00:42:42.142271 20701 net.cpp:367] relu5_3 -> conv5_3 (in-place)
I0419 00:42:42.143342 20701 net.cpp:122] Setting up relu5_3
I0419 00:42:42.143362 20701 net.cpp:129] Top shape: 1 512 45 32 (737280)
I0419 00:42:42.143366 20701 net.cpp:137] Memory required for data: 858727948
I0419 00:42:42.143383 20701 layer_factory.hpp:77] Creating layer pool5
I0419 00:42:42.143394 20701 net.cpp:84] Creating Layer pool5
I0419 00:42:42.143400 20701 net.cpp:406] pool5 <- conv5_3
I0419 00:42:42.143409 20701 net.cpp:380] pool5 -> pool5
I0419 00:42:42.143517 20701 net.cpp:122] Setting up pool5
I0419 00:42:42.143534 20701 net.cpp:129] Top shape: 1 512 23 16 (188416)
I0419 00:42:42.143548 20701 net.cpp:137] Memory required for data: 859481612
I0419 00:42:42.143555 20701 layer_factory.hpp:77] Creating layer fc6
I0419 00:42:42.143573 20701 net.cpp:84] Creating Layer fc6
I0419 00:42:42.143584 20701 net.cpp:406] fc6 <- pool5
I0419 00:42:42.143596 20701 net.cpp:380] fc6 -> fc6
I0419 00:42:42.411942 20701 net.cpp:122] Setting up fc6
I0419 00:42:42.411978 20701 net.cpp:129] Top shape: 1 4096 17 10 (696320)
I0419 00:42:42.411981 20701 net.cpp:137] Memory required for data: 862266892
I0419 00:42:42.411993 20701 layer_factory.hpp:77] Creating layer relu6
I0419 00:42:42.412021 20701 net.cpp:84] Creating Layer relu6
I0419 00:42:42.412026 20701 net.cpp:406] relu6 <- fc6
I0419 00:42:42.412035 20701 net.cpp:367] relu6 -> fc6 (in-place)
I0419 00:42:42.412283 20701 net.cpp:122] Setting up relu6
I0419 00:42:42.412297 20701 net.cpp:129] Top shape: 1 4096 17 10 (696320)
I0419 00:42:42.412302 20701 net.cpp:137] Memory required for data: 865052172
I0419 00:42:42.412304 20701 layer_factory.hpp:77] Creating layer drop6
I0419 00:42:42.412313 20701 net.cpp:84] Creating Layer drop6
I0419 00:42:42.412317 20701 net.cpp:406] drop6 <- fc6
I0419 00:42:42.412322 20701 net.cpp:367] drop6 -> fc6 (in-place)
I0419 00:42:42.412370 20701 net.cpp:122] Setting up drop6
I0419 00:42:42.412379 20701 net.cpp:129] Top shape: 1 4096 17 10 (696320)
I0419 00:42:42.412381 20701 net.cpp:137] Memory required for data: 867837452
I0419 00:42:42.412385 20701 layer_factory.hpp:77] Creating layer fc7
I0419 00:42:42.412396 20701 net.cpp:84] Creating Layer fc7
I0419 00:42:42.412401 20701 net.cpp:406] fc7 <- fc6
I0419 00:42:42.412410 20701 net.cpp:380] fc7 -> fc7
I0419 00:42:42.457895 20701 net.cpp:122] Setting up fc7
I0419 00:42:42.457931 20701 net.cpp:129] Top shape: 1 4096 17 10 (696320)
I0419 00:42:42.457936 20701 net.cpp:137] Memory required for data: 870622732
I0419 00:42:42.457947 20701 layer_factory.hpp:77] Creating layer relu7
I0419 00:42:42.457975 20701 net.cpp:84] Creating Layer relu7
I0419 00:42:42.457981 20701 net.cpp:406] relu7 <- fc7
I0419 00:42:42.457989 20701 net.cpp:367] relu7 -> fc7 (in-place)
I0419 00:42:42.458863 20701 net.cpp:122] Setting up relu7
I0419 00:42:42.458876 20701 net.cpp:129] Top shape: 1 4096 17 10 (696320)
I0419 00:42:42.458880 20701 net.cpp:137] Memory required for data: 873408012
I0419 00:42:42.458884 20701 layer_factory.hpp:77] Creating layer drop7
I0419 00:42:42.458907 20701 net.cpp:84] Creating Layer drop7
I0419 00:42:42.458911 20701 net.cpp:406] drop7 <- fc7
I0419 00:42:42.458917 20701 net.cpp:367] drop7 -> fc7 (in-place)
I0419 00:42:42.458968 20701 net.cpp:122] Setting up drop7
I0419 00:42:42.458976 20701 net.cpp:129] Top shape: 1 4096 17 10 (696320)
I0419 00:42:42.458981 20701 net.cpp:137] Memory required for data: 876193292
I0419 00:42:42.458983 20701 layer_factory.hpp:77] Creating layer score_fr-new
I0419 00:42:42.458993 20701 net.cpp:84] Creating Layer score_fr-new
I0419 00:42:42.458997 20701 net.cpp:406] score_fr-new <- fc7
I0419 00:42:42.459004 20701 net.cpp:380] score_fr-new -> score_fr-new
I0419 00:42:42.460232 20701 net.cpp:122] Setting up score_fr-new
I0419 00:42:42.460244 20701 net.cpp:129] Top shape: 1 3 17 10 (510)
I0419 00:42:42.460247 20701 net.cpp:137] Memory required for data: 876195332
I0419 00:42:42.460269 20701 layer_factory.hpp:77] Creating layer upscore2-new
I0419 00:42:42.460278 20701 net.cpp:84] Creating Layer upscore2-new
I0419 00:42:42.460283 20701 net.cpp:406] upscore2-new <- score_fr-new
I0419 00:42:42.460289 20701 net.cpp:380] upscore2-new -> upscore2-new
I0419 00:42:42.460680 20701 net.cpp:122] Setting up upscore2-new
I0419 00:42:42.460691 20701 net.cpp:129] Top shape: 1 3 36 22 (2376)
I0419 00:42:42.460695 20701 net.cpp:137] Memory required for data: 876204836
I0419 00:42:42.460708 20701 layer_factory.hpp:77] Creating layer upscore2-new_upscore2-new_0_split
I0419 00:42:42.460716 20701 net.cpp:84] Creating Layer upscore2-new_upscore2-new_0_split
I0419 00:42:42.460719 20701 net.cpp:406] upscore2-new_upscore2-new_0_split <- upscore2-new
I0419 00:42:42.460726 20701 net.cpp:380] upscore2-new_upscore2-new_0_split -> upscore2-new_upscore2-new_0_split_0
I0419 00:42:42.460732 20701 net.cpp:380] upscore2-new_upscore2-new_0_split -> upscore2-new_upscore2-new_0_split_1
I0419 00:42:42.460804 20701 net.cpp:122] Setting up upscore2-new_upscore2-new_0_split
I0419 00:42:42.460817 20701 net.cpp:129] Top shape: 1 3 36 22 (2376)
I0419 00:42:42.460821 20701 net.cpp:129] Top shape: 1 3 36 22 (2376)
I0419 00:42:42.460824 20701 net.cpp:137] Memory required for data: 876223844
I0419 00:42:42.460829 20701 layer_factory.hpp:77] Creating layer score_pool4-new
I0419 00:42:42.460837 20701 net.cpp:84] Creating Layer score_pool4-new
I0419 00:42:42.460841 20701 net.cpp:406] score_pool4-new <- pool4_pool4_0_split_1
I0419 00:42:42.460847 20701 net.cpp:380] score_pool4-new -> score_pool4-new
I0419 00:42:42.462534 20701 net.cpp:122] Setting up score_pool4-new
I0419 00:42:42.462564 20701 net.cpp:129] Top shape: 1 3 45 32 (4320)
I0419 00:42:42.462568 20701 net.cpp:137] Memory required for data: 876241124
I0419 00:42:42.462589 20701 layer_factory.hpp:77] Creating layer score_pool4c
I0419 00:42:42.462599 20701 net.cpp:84] Creating Layer score_pool4c
I0419 00:42:42.462602 20701 net.cpp:406] score_pool4c <- score_pool4-new
I0419 00:42:42.462607 20701 net.cpp:406] score_pool4c <- upscore2-new_upscore2-new_0_split_0
I0419 00:42:42.462613 20701 net.cpp:380] score_pool4c -> score_pool4c
I0419 00:42:42.462658 20701 net.cpp:122] Setting up score_pool4c
I0419 00:42:42.462667 20701 net.cpp:129] Top shape: 1 3 36 22 (2376)
I0419 00:42:42.462671 20701 net.cpp:137] Memory required for data: 876250628
I0419 00:42:42.462673 20701 layer_factory.hpp:77] Creating layer fuse_pool4
I0419 00:42:42.462682 20701 net.cpp:84] Creating Layer fuse_pool4
I0419 00:42:42.462684 20701 net.cpp:406] fuse_pool4 <- upscore2-new_upscore2-new_0_split_1
I0419 00:42:42.462689 20701 net.cpp:406] fuse_pool4 <- score_pool4c
I0419 00:42:42.462695 20701 net.cpp:380] fuse_pool4 -> fuse_pool4
I0419 00:42:42.462745 20701 net.cpp:122] Setting up fuse_pool4
I0419 00:42:42.462759 20701 net.cpp:129] Top shape: 1 3 36 22 (2376)
I0419 00:42:42.462762 20701 net.cpp:137] Memory required for data: 876260132
I0419 00:42:42.462765 20701 layer_factory.hpp:77] Creating layer upscore_pool4-new
I0419 00:42:42.462774 20701 net.cpp:84] Creating Layer upscore_pool4-new
I0419 00:42:42.462777 20701 net.cpp:406] upscore_pool4-new <- fuse_pool4
I0419 00:42:42.462783 20701 net.cpp:380] upscore_pool4-new -> upscore_pool4-new
I0419 00:42:42.463188 20701 net.cpp:122] Setting up upscore_pool4-new
I0419 00:42:42.463202 20701 net.cpp:129] Top shape: 1 3 74 46 (10212)
I0419 00:42:42.463207 20701 net.cpp:137] Memory required for data: 876300980
I0419 00:42:42.463212 20701 layer_factory.hpp:77] Creating layer upscore_pool4-new_upscore_pool4-new_0_split
I0419 00:42:42.463218 20701 net.cpp:84] Creating Layer upscore_pool4-new_upscore_pool4-new_0_split
I0419 00:42:42.463222 20701 net.cpp:406] upscore_pool4-new_upscore_pool4-new_0_split <- upscore_pool4-new
I0419 00:42:42.463227 20701 net.cpp:380] upscore_pool4-new_upscore_pool4-new_0_split -> upscore_pool4-new_upscore_pool4-new_0_split_0
I0419 00:42:42.463234 20701 net.cpp:380] upscore_pool4-new_upscore_pool4-new_0_split -> upscore_pool4-new_upscore_pool4-new_0_split_1
I0419 00:42:42.463297 20701 net.cpp:122] Setting up upscore_pool4-new_upscore_pool4-new_0_split
I0419 00:42:42.463307 20701 net.cpp:129] Top shape: 1 3 74 46 (10212)
I0419 00:42:42.463315 20701 net.cpp:129] Top shape: 1 3 74 46 (10212)
I0419 00:42:42.463320 20701 net.cpp:137] Memory required for data: 876382676
I0419 00:42:42.463325 20701 layer_factory.hpp:77] Creating layer score_pool3-new
I0419 00:42:42.463335 20701 net.cpp:84] Creating Layer score_pool3-new
I0419 00:42:42.463342 20701 net.cpp:406] score_pool3-new <- pool3_pool3_0_split_1
I0419 00:42:42.463349 20701 net.cpp:380] score_pool3-new -> score_pool3-new
I0419 00:42:42.465109 20701 net.cpp:122] Setting up score_pool3-new
I0419 00:42:42.465124 20701 net.cpp:129] Top shape: 1 3 89 64 (17088)
I0419 00:42:42.465128 20701 net.cpp:137] Memory required for data: 876451028
I0419 00:42:42.465135 20701 layer_factory.hpp:77] Creating layer score_pool3c
I0419 00:42:42.465158 20701 net.cpp:84] Creating Layer score_pool3c
I0419 00:42:42.465163 20701 net.cpp:406] score_pool3c <- score_pool3-new
I0419 00:42:42.465168 20701 net.cpp:406] score_pool3c <- upscore_pool4-new_upscore_pool4-new_0_split_0
I0419 00:42:42.465174 20701 net.cpp:380] score_pool3c -> score_pool3c
I0419 00:42:42.465219 20701 net.cpp:122] Setting up score_pool3c
I0419 00:42:42.465229 20701 net.cpp:129] Top shape: 1 3 74 46 (10212)
I0419 00:42:42.465231 20701 net.cpp:137] Memory required for data: 876491876
I0419 00:42:42.465234 20701 layer_factory.hpp:77] Creating layer fuse_pool3
I0419 00:42:42.465242 20701 net.cpp:84] Creating Layer fuse_pool3
I0419 00:42:42.465245 20701 net.cpp:406] fuse_pool3 <- upscore_pool4-new_upscore_pool4-new_0_split_1
I0419 00:42:42.465250 20701 net.cpp:406] fuse_pool3 <- score_pool3c
I0419 00:42:42.465255 20701 net.cpp:380] fuse_pool3 -> fuse_pool3
I0419 00:42:42.465298 20701 net.cpp:122] Setting up fuse_pool3
I0419 00:42:42.465312 20701 net.cpp:129] Top shape: 1 3 74 46 (10212)
I0419 00:42:42.465317 20701 net.cpp:137] Memory required for data: 876532724
I0419 00:42:42.465322 20701 layer_factory.hpp:77] Creating layer upscore8-new
I0419 00:42:42.465332 20701 net.cpp:84] Creating Layer upscore8-new
I0419 00:42:42.465337 20701 net.cpp:406] upscore8-new <- fuse_pool3
I0419 00:42:42.465344 20701 net.cpp:380] upscore8-new -> upscore8-new
I0419 00:42:42.465773 20701 net.cpp:122] Setting up upscore8-new
I0419 00:42:42.465785 20701 net.cpp:129] Top shape: 1 3 600 376 (676800)
I0419 00:42:42.465788 20701 net.cpp:137] Memory required for data: 879239924
I0419 00:42:42.465795 20701 layer_factory.hpp:77] Creating layer upscore8_cropped
I0419 00:42:42.465801 20701 net.cpp:84] Creating Layer upscore8_cropped
I0419 00:42:42.465806 20701 net.cpp:406] upscore8_cropped <- upscore8-new
I0419 00:42:42.465811 20701 net.cpp:406] upscore8_cropped <- data_data_0_split_1
I0419 00:42:42.465816 20701 net.cpp:380] upscore8_cropped -> upscore8_cropped
I0419 00:42:42.465857 20701 net.cpp:122] Setting up upscore8_cropped
I0419 00:42:42.465865 20701 net.cpp:129] Top shape: 1 3 512 310 (476160)
I0419 00:42:42.465869 20701 net.cpp:137] Memory required for data: 881144564
I0419 00:42:42.465873 20701 layer_factory.hpp:77] Creating layer score
I0419 00:42:42.465888 20701 net.cpp:84] Creating Layer score
I0419 00:42:42.465893 20701 net.cpp:406] score <- upscore8_cropped
I0419 00:42:42.465903 20701 net.cpp:380] score -> score
I0419 00:42:42.467809 20701 net.cpp:122] Setting up score
I0419 00:42:42.467824 20701 net.cpp:129] Top shape: 1 3 512 310 (476160)
I0419 00:42:42.467828 20701 net.cpp:137] Memory required for data: 883049204
I0419 00:42:42.467834 20701 layer_factory.hpp:77] Creating layer score_score_0_split
I0419 00:42:42.467856 20701 net.cpp:84] Creating Layer score_score_0_split
I0419 00:42:42.467860 20701 net.cpp:406] score_score_0_split <- score
I0419 00:42:42.467866 20701 net.cpp:380] score_score_0_split -> score_score_0_split_0
I0419 00:42:42.467874 20701 net.cpp:380] score_score_0_split -> score_score_0_split_1
I0419 00:42:42.467941 20701 net.cpp:122] Setting up score_score_0_split
I0419 00:42:42.467949 20701 net.cpp:129] Top shape: 1 3 512 310 (476160)
I0419 00:42:42.467954 20701 net.cpp:129] Top shape: 1 3 512 310 (476160)
I0419 00:42:42.467957 20701 net.cpp:137] Memory required for data: 886858484
I0419 00:42:42.467960 20701 layer_factory.hpp:77] Creating layer prob
I0419 00:42:42.467967 20701 net.cpp:84] Creating Layer prob
I0419 00:42:42.467972 20701 net.cpp:406] prob <- score_score_0_split_0
I0419 00:42:42.467978 20701 net.cpp:380] prob -> prob
I0419 00:42:42.468269 20701 net.cpp:122] Setting up prob
I0419 00:42:42.468282 20701 net.cpp:129] Top shape: 1 3 512 310 (476160)
I0419 00:42:42.468286 20701 net.cpp:137] Memory required for data: 888763124
I0419 00:42:42.468289 20701 layer_factory.hpp:77] Creating layer saliency
I0419 00:42:42.468300 20701 net.cpp:84] Creating Layer saliency
I0419 00:42:42.468304 20701 net.cpp:406] saliency <- prob
I0419 00:42:42.468312 20701 net.cpp:380] saliency -> saliency
I0419 00:42:42.477469 20701 net.cpp:122] Setting up saliency
I0419 00:42:42.477484 20701 net.cpp:129] Top shape: 1 3 512 310 (476160)
I0419 00:42:42.477488 20701 net.cpp:137] Memory required for data: 890667764
I0419 00:42:42.477496 20701 layer_factory.hpp:77] Creating layer saliency_data
I0419 00:42:42.477519 20701 net.cpp:84] Creating Layer saliency_data
I0419 00:42:42.477524 20701 net.cpp:406] saliency_data <- data_data_0_split_2
I0419 00:42:42.477529 20701 net.cpp:406] saliency_data <- saliency
I0419 00:42:42.477535 20701 net.cpp:380] saliency_data -> saliency_data
I0419 00:42:42.477584 20701 net.cpp:122] Setting up saliency_data
I0419 00:42:42.477594 20701 net.cpp:129] Top shape: 1 3 512 310 (476160)
I0419 00:42:42.477597 20701 net.cpp:137] Memory required for data: 892572404
I0419 00:42:42.477600 20701 layer_factory.hpp:77] Creating layer crop
I0419 00:42:42.477659 20701 net.cpp:84] Creating Layer crop
I0419 00:42:42.477670 20701 net.cpp:406] crop <- label_data_1_split_0
I0419 00:42:42.477679 20701 net.cpp:406] crop <- saliency_data
I0419 00:42:42.477684 20701 net.cpp:406] crop <- crop_margin
I0419 00:42:42.477687 20701 net.cpp:406] crop <- crop_prob
I0419 00:42:42.477691 20701 net.cpp:406] crop <- crop_sample_batch
I0419 00:42:42.477697 20701 net.cpp:380] crop -> data-R
I0419 00:42:42.477705 20701 net.cpp:380] crop -> crop_info
I0419 00:42:42.483397 20701 net.cpp:122] Setting up crop
I0419 00:42:42.483413 20701 net.cpp:129] Top shape: 1 3 512 310 (476160)
I0419 00:42:42.483418 20701 net.cpp:129] Top shape: 1 2 4 (8)
I0419 00:42:42.483436 20701 net.cpp:137] Memory required for data: 894477076
I0419 00:42:42.483440 20701 layer_factory.hpp:77] Creating layer data-R_crop_0_split
I0419 00:42:42.483446 20701 net.cpp:84] Creating Layer data-R_crop_0_split
I0419 00:42:42.483450 20701 net.cpp:406] data-R_crop_0_split <- data-R
I0419 00:42:42.483456 20701 net.cpp:380] data-R_crop_0_split -> data-R_crop_0_split_0
I0419 00:42:42.483464 20701 net.cpp:380] data-R_crop_0_split -> data-R_crop_0_split_1
I0419 00:42:42.483530 20701 net.cpp:122] Setting up data-R_crop_0_split
I0419 00:42:42.483538 20701 net.cpp:129] Top shape: 1 3 512 310 (476160)
I0419 00:42:42.483543 20701 net.cpp:129] Top shape: 1 3 512 310 (476160)
I0419 00:42:42.483546 20701 net.cpp:137] Memory required for data: 898286356
I0419 00:42:42.483549 20701 layer_factory.hpp:77] Creating layer conv1_1-R
I0419 00:42:42.483556 20701 net.cpp:84] Creating Layer conv1_1-R
I0419 00:42:42.483561 20701 net.cpp:406] conv1_1-R <- data-R_crop_0_split_0
I0419 00:42:42.483568 20701 net.cpp:380] conv1_1-R -> conv1_1-R
I0419 00:42:42.487316 20701 net.cpp:122] Setting up conv1_1-R
I0419 00:42:42.487334 20701 net.cpp:129] Top shape: 1 64 710 508 (23083520)
I0419 00:42:42.487337 20701 net.cpp:137] Memory required for data: 990620436
I0419 00:42:42.487361 20701 layer_factory.hpp:77] Creating layer relu1_1-R
I0419 00:42:42.487368 20701 net.cpp:84] Creating Layer relu1_1-R
I0419 00:42:42.487373 20701 net.cpp:406] relu1_1-R <- conv1_1-R
I0419 00:42:42.487380 20701 net.cpp:367] relu1_1-R -> conv1_1-R (in-place)
I0419 00:42:42.490375 20701 net.cpp:122] Setting up relu1_1-R
I0419 00:42:42.490392 20701 net.cpp:129] Top shape: 1 64 710 508 (23083520)
I0419 00:42:42.490396 20701 net.cpp:137] Memory required for data: 1082954516
I0419 00:42:42.490417 20701 layer_factory.hpp:77] Creating layer conv1_2-R
I0419 00:42:42.490434 20701 net.cpp:84] Creating Layer conv1_2-R
I0419 00:42:42.490448 20701 net.cpp:406] conv1_2-R <- conv1_1-R
I0419 00:42:42.490456 20701 net.cpp:380] conv1_2-R -> conv1_2-R
I0419 00:42:42.493177 20701 net.cpp:122] Setting up conv1_2-R
I0419 00:42:42.493192 20701 net.cpp:129] Top shape: 1 64 710 508 (23083520)
I0419 00:42:42.493196 20701 net.cpp:137] Memory required for data: 1175288596
I0419 00:42:42.493219 20701 layer_factory.hpp:77] Creating layer relu1_2-R
I0419 00:42:42.493227 20701 net.cpp:84] Creating Layer relu1_2-R
I0419 00:42:42.493230 20701 net.cpp:406] relu1_2-R <- conv1_2-R
I0419 00:42:42.493235 20701 net.cpp:367] relu1_2-R -> conv1_2-R (in-place)
I0419 00:42:42.494053 20701 net.cpp:122] Setting up relu1_2-R
I0419 00:42:42.494066 20701 net.cpp:129] Top shape: 1 64 710 508 (23083520)
I0419 00:42:42.494071 20701 net.cpp:137] Memory required for data: 1267622676
I0419 00:42:42.494091 20701 layer_factory.hpp:77] Creating layer pool1-R
I0419 00:42:42.494098 20701 net.cpp:84] Creating Layer pool1-R
I0419 00:42:42.494102 20701 net.cpp:406] pool1-R <- conv1_2-R
I0419 00:42:42.494108 20701 net.cpp:380] pool1-R -> pool1-R
I0419 00:42:42.494226 20701 net.cpp:122] Setting up pool1-R
I0419 00:42:42.494236 20701 net.cpp:129] Top shape: 1 64 355 254 (5770880)
I0419 00:42:42.494240 20701 net.cpp:137] Memory required for data: 1290706196
I0419 00:42:42.494243 20701 layer_factory.hpp:77] Creating layer conv2_1-R
I0419 00:42:42.494253 20701 net.cpp:84] Creating Layer conv2_1-R
I0419 00:42:42.494257 20701 net.cpp:406] conv2_1-R <- pool1-R
I0419 00:42:42.494264 20701 net.cpp:380] conv2_1-R -> conv2_1-R
I0419 00:42:42.497392 20701 net.cpp:122] Setting up conv2_1-R
I0419 00:42:42.497417 20701 net.cpp:129] Top shape: 1 128 355 254 (11541760)
I0419 00:42:42.497445 20701 net.cpp:137] Memory required for data: 1336873236
I0419 00:42:42.497457 20701 layer_factory.hpp:77] Creating layer relu2_1-R
I0419 00:42:42.497474 20701 net.cpp:84] Creating Layer relu2_1-R
I0419 00:42:42.497489 20701 net.cpp:406] relu2_1-R <- conv2_1-R
I0419 00:42:42.497498 20701 net.cpp:367] relu2_1-R -> conv2_1-R (in-place)
I0419 00:42:42.497884 20701 net.cpp:122] Setting up relu2_1-R
I0419 00:42:42.497902 20701 net.cpp:129] Top shape: 1 128 355 254 (11541760)
I0419 00:42:42.497908 20701 net.cpp:137] Memory required for data: 1383040276
I0419 00:42:42.497915 20701 layer_factory.hpp:77] Creating layer conv2_2-R
I0419 00:42:42.497928 20701 net.cpp:84] Creating Layer conv2_2-R
I0419 00:42:42.497941 20701 net.cpp:406] conv2_2-R <- conv2_1-R
I0419 00:42:42.497952 20701 net.cpp:380] conv2_2-R -> conv2_2-R
I0419 00:42:42.507699 20701 net.cpp:122] Setting up conv2_2-R
I0419 00:42:42.507726 20701 net.cpp:129] Top shape: 1 128 355 254 (11541760)
I0419 00:42:42.507733 20701 net.cpp:137] Memory required for data: 1429207316
I0419 00:42:42.507758 20701 layer_factory.hpp:77] Creating layer relu2_2-R
I0419 00:42:42.507771 20701 net.cpp:84] Creating Layer relu2_2-R
I0419 00:42:42.507778 20701 net.cpp:406] relu2_2-R <- conv2_2-R
I0419 00:42:42.507788 20701 net.cpp:367] relu2_2-R -> conv2_2-R (in-place)
I0419 00:42:42.508251 20701 net.cpp:122] Setting up relu2_2-R
I0419 00:42:42.508272 20701 net.cpp:129] Top shape: 1 128 355 254 (11541760)
I0419 00:42:42.508278 20701 net.cpp:137] Memory required for data: 1475374356
I0419 00:42:42.508285 20701 layer_factory.hpp:77] Creating layer pool2-R
I0419 00:42:42.508297 20701 net.cpp:84] Creating Layer pool2-R
I0419 00:42:42.508311 20701 net.cpp:406] pool2-R <- conv2_2-R
I0419 00:42:42.508323 20701 net.cpp:380] pool2-R -> pool2-R
I0419 00:42:42.508494 20701 net.cpp:122] Setting up pool2-R
I0419 00:42:42.508513 20701 net.cpp:129] Top shape: 1 128 178 127 (2893568)
I0419 00:42:42.508527 20701 net.cpp:137] Memory required for data: 1486948628
I0419 00:42:42.508544 20701 layer_factory.hpp:77] Creating layer conv3_1-R
I0419 00:42:42.508560 20701 net.cpp:84] Creating Layer conv3_1-R
I0419 00:42:42.508574 20701 net.cpp:406] conv3_1-R <- pool2-R
I0419 00:42:42.508601 20701 net.cpp:380] conv3_1-R -> conv3_1-R
I0419 00:42:42.515030 20701 net.cpp:122] Setting up conv3_1-R
I0419 00:42:42.515060 20701 net.cpp:129] Top shape: 1 256 178 127 (5787136)
I0419 00:42:42.515069 20701 net.cpp:137] Memory required for data: 1510097172
I0419 00:42:42.515082 20701 layer_factory.hpp:77] Creating layer relu3_1-R
I0419 00:42:42.515096 20701 net.cpp:84] Creating Layer relu3_1-R
I0419 00:42:42.515105 20701 net.cpp:406] relu3_1-R <- conv3_1-R
I0419 00:42:42.515115 20701 net.cpp:367] relu3_1-R -> conv3_1-R (in-place)
I0419 00:42:42.515565 20701 net.cpp:122] Setting up relu3_1-R
I0419 00:42:42.515585 20701 net.cpp:129] Top shape: 1 256 178 127 (5787136)
I0419 00:42:42.515591 20701 net.cpp:137] Memory required for data: 1533245716
I0419 00:42:42.515599 20701 layer_factory.hpp:77] Creating layer conv3_2-R
I0419 00:42:42.515614 20701 net.cpp:84] Creating Layer conv3_2-R
I0419 00:42:42.515627 20701 net.cpp:406] conv3_2-R <- conv3_1-R
I0419 00:42:42.515638 20701 net.cpp:380] conv3_2-R -> conv3_2-R
I0419 00:42:42.531466 20701 net.cpp:122] Setting up conv3_2-R
I0419 00:42:42.531487 20701 net.cpp:129] Top shape: 1 256 178 127 (5787136)
I0419 00:42:42.531491 20701 net.cpp:137] Memory required for data: 1556394260
I0419 00:42:42.531502 20701 layer_factory.hpp:77] Creating layer relu3_2-R
I0419 00:42:42.531510 20701 net.cpp:84] Creating Layer relu3_2-R
I0419 00:42:42.531515 20701 net.cpp:406] relu3_2-R <- conv3_2-R
I0419 00:42:42.531522 20701 net.cpp:367] relu3_2-R -> conv3_2-R (in-place)
I0419 00:42:42.531797 20701 net.cpp:122] Setting up relu3_2-R
I0419 00:42:42.531810 20701 net.cpp:129] Top shape: 1 256 178 127 (5787136)
I0419 00:42:42.531814 20701 net.cpp:137] Memory required for data: 1579542804
I0419 00:42:42.531817 20701 layer_factory.hpp:77] Creating layer conv3_3-R
I0419 00:42:42.531827 20701 net.cpp:84] Creating Layer conv3_3-R
I0419 00:42:42.531831 20701 net.cpp:406] conv3_3-R <- conv3_2-R
I0419 00:42:42.531838 20701 net.cpp:380] conv3_3-R -> conv3_3-R
I0419 00:42:42.542479 20701 net.cpp:122] Setting up conv3_3-R
I0419 00:42:42.542495 20701 net.cpp:129] Top shape: 1 256 178 127 (5787136)
I0419 00:42:42.542498 20701 net.cpp:137] Memory required for data: 1602691348
I0419 00:42:42.542522 20701 layer_factory.hpp:77] Creating layer relu3_3-R
I0419 00:42:42.542531 20701 net.cpp:84] Creating Layer relu3_3-R
I0419 00:42:42.542549 20701 net.cpp:406] relu3_3-R <- conv3_3-R
I0419 00:42:42.542556 20701 net.cpp:367] relu3_3-R -> conv3_3-R (in-place)
I0419 00:42:42.543392 20701 net.cpp:122] Setting up relu3_3-R
I0419 00:42:42.543406 20701 net.cpp:129] Top shape: 1 256 178 127 (5787136)
I0419 00:42:42.543409 20701 net.cpp:137] Memory required for data: 1625839892
I0419 00:42:42.543428 20701 layer_factory.hpp:77] Creating layer pool3-R
I0419 00:42:42.543437 20701 net.cpp:84] Creating Layer pool3-R
I0419 00:42:42.543442 20701 net.cpp:406] pool3-R <- conv3_3-R
I0419 00:42:42.543448 20701 net.cpp:380] pool3-R -> pool3-R
I0419 00:42:42.543529 20701 net.cpp:122] Setting up pool3-R
I0419 00:42:42.543539 20701 net.cpp:129] Top shape: 1 256 89 64 (1458176)
I0419 00:42:42.543542 20701 net.cpp:137] Memory required for data: 1631672596
I0419 00:42:42.543545 20701 layer_factory.hpp:77] Creating layer pool3-R_pool3-R_0_split
I0419 00:42:42.543551 20701 net.cpp:84] Creating Layer pool3-R_pool3-R_0_split
I0419 00:42:42.543555 20701 net.cpp:406] pool3-R_pool3-R_0_split <- pool3-R
I0419 00:42:42.543565 20701 net.cpp:380] pool3-R_pool3-R_0_split -> pool3-R_pool3-R_0_split_0
I0419 00:42:42.543575 20701 net.cpp:380] pool3-R_pool3-R_0_split -> pool3-R_pool3-R_0_split_1
I0419 00:42:42.543658 20701 net.cpp:122] Setting up pool3-R_pool3-R_0_split
I0419 00:42:42.543671 20701 net.cpp:129] Top shape: 1 256 89 64 (1458176)
I0419 00:42:42.543678 20701 net.cpp:129] Top shape: 1 256 89 64 (1458176)
I0419 00:42:42.543681 20701 net.cpp:137] Memory required for data: 1643338004
I0419 00:42:42.543685 20701 layer_factory.hpp:77] Creating layer conv4_1-R
I0419 00:42:42.543694 20701 net.cpp:84] Creating Layer conv4_1-R
I0419 00:42:42.543699 20701 net.cpp:406] conv4_1-R <- pool3-R_pool3-R_0_split_0
I0419 00:42:42.543705 20701 net.cpp:380] conv4_1-R -> conv4_1-R
I0419 00:42:42.550617 20701 net.cpp:122] Setting up conv4_1-R
I0419 00:42:42.550633 20701 net.cpp:129] Top shape: 1 512 89 64 (2916352)
I0419 00:42:42.550637 20701 net.cpp:137] Memory required for data: 1655003412
I0419 00:42:42.550662 20701 layer_factory.hpp:77] Creating layer relu4_1-R
I0419 00:42:42.550669 20701 net.cpp:84] Creating Layer relu4_1-R
I0419 00:42:42.550673 20701 net.cpp:406] relu4_1-R <- conv4_1-R
I0419 00:42:42.550679 20701 net.cpp:367] relu4_1-R -> conv4_1-R (in-place)
I0419 00:42:42.551563 20701 net.cpp:122] Setting up relu4_1-R
I0419 00:42:42.551578 20701 net.cpp:129] Top shape: 1 512 89 64 (2916352)
I0419 00:42:42.551582 20701 net.cpp:137] Memory required for data: 1666668820
I0419 00:42:42.551601 20701 layer_factory.hpp:77] Creating layer conv4_2-R
I0419 00:42:42.551611 20701 net.cpp:84] Creating Layer conv4_2-R
I0419 00:42:42.551615 20701 net.cpp:406] conv4_2-R <- conv4_1-R
I0419 00:42:42.551622 20701 net.cpp:380] conv4_2-R -> conv4_2-R
I0419 00:42:42.564486 20701 net.cpp:122] Setting up conv4_2-R
I0419 00:42:42.564510 20701 net.cpp:129] Top shape: 1 512 89 64 (2916352)
I0419 00:42:42.564517 20701 net.cpp:137] Memory required for data: 1678334228
I0419 00:42:42.564538 20701 layer_factory.hpp:77] Creating layer relu4_2-R
I0419 00:42:42.564548 20701 net.cpp:84] Creating Layer relu4_2-R
I0419 00:42:42.564555 20701 net.cpp:406] relu4_2-R <- conv4_2-R
I0419 00:42:42.564563 20701 net.cpp:367] relu4_2-R -> conv4_2-R (in-place)
I0419 00:42:42.564918 20701 net.cpp:122] Setting up relu4_2-R
I0419 00:42:42.564934 20701 net.cpp:129] Top shape: 1 512 89 64 (2916352)
I0419 00:42:42.564939 20701 net.cpp:137] Memory required for data: 1689999636
I0419 00:42:42.564945 20701 layer_factory.hpp:77] Creating layer conv4_3-R
I0419 00:42:42.564957 20701 net.cpp:84] Creating Layer conv4_3-R
I0419 00:42:42.564963 20701 net.cpp:406] conv4_3-R <- conv4_2-R
I0419 00:42:42.564973 20701 net.cpp:380] conv4_3-R -> conv4_3-R
I0419 00:42:42.577834 20701 net.cpp:122] Setting up conv4_3-R
I0419 00:42:42.577867 20701 net.cpp:129] Top shape: 1 512 89 64 (2916352)
I0419 00:42:42.577873 20701 net.cpp:137] Memory required for data: 1701665044
I0419 00:42:42.577893 20701 layer_factory.hpp:77] Creating layer relu4_3-R
I0419 00:42:42.577905 20701 net.cpp:84] Creating Layer relu4_3-R
I0419 00:42:42.577913 20701 net.cpp:406] relu4_3-R <- conv4_3-R
I0419 00:42:42.577922 20701 net.cpp:367] relu4_3-R -> conv4_3-R (in-place)
I0419 00:42:42.578359 20701 net.cpp:122] Setting up relu4_3-R
I0419 00:42:42.578373 20701 net.cpp:129] Top shape: 1 512 89 64 (2916352)
I0419 00:42:42.578377 20701 net.cpp:137] Memory required for data: 1713330452
I0419 00:42:42.578382 20701 layer_factory.hpp:77] Creating layer pool4-R
I0419 00:42:42.578390 20701 net.cpp:84] Creating Layer pool4-R
I0419 00:42:42.578394 20701 net.cpp:406] pool4-R <- conv4_3-R
I0419 00:42:42.578402 20701 net.cpp:380] pool4-R -> pool4-R
I0419 00:42:42.578495 20701 net.cpp:122] Setting up pool4-R
I0419 00:42:42.578508 20701 net.cpp:129] Top shape: 1 512 45 32 (737280)
I0419 00:42:42.578513 20701 net.cpp:137] Memory required for data: 1716279572
I0419 00:42:42.578519 20701 layer_factory.hpp:77] Creating layer pool4-R_pool4-R_0_split
I0419 00:42:42.578527 20701 net.cpp:84] Creating Layer pool4-R_pool4-R_0_split
I0419 00:42:42.578534 20701 net.cpp:406] pool4-R_pool4-R_0_split <- pool4-R
I0419 00:42:42.578542 20701 net.cpp:380] pool4-R_pool4-R_0_split -> pool4-R_pool4-R_0_split_0
I0419 00:42:42.578549 20701 net.cpp:380] pool4-R_pool4-R_0_split -> pool4-R_pool4-R_0_split_1
I0419 00:42:42.578653 20701 net.cpp:122] Setting up pool4-R_pool4-R_0_split
I0419 00:42:42.578663 20701 net.cpp:129] Top shape: 1 512 45 32 (737280)
I0419 00:42:42.578667 20701 net.cpp:129] Top shape: 1 512 45 32 (737280)
I0419 00:42:42.578670 20701 net.cpp:137] Memory required for data: 1722177812
I0419 00:42:42.578675 20701 layer_factory.hpp:77] Creating layer conv5_1-R
I0419 00:42:42.578685 20701 net.cpp:84] Creating Layer conv5_1-R
I0419 00:42:42.578691 20701 net.cpp:406] conv5_1-R <- pool4-R_pool4-R_0_split_0
I0419 00:42:42.578699 20701 net.cpp:380] conv5_1-R -> conv5_1-R
I0419 00:42:42.586645 20701 net.cpp:122] Setting up conv5_1-R
I0419 00:42:42.586663 20701 net.cpp:129] Top shape: 1 512 45 32 (737280)
I0419 00:42:42.586668 20701 net.cpp:137] Memory required for data: 1725126932
I0419 00:42:42.586720 20701 layer_factory.hpp:77] Creating layer relu5_1-R
I0419 00:42:42.586731 20701 net.cpp:84] Creating Layer relu5_1-R
I0419 00:42:42.586736 20701 net.cpp:406] relu5_1-R <- conv5_1-R
I0419 00:42:42.586741 20701 net.cpp:367] relu5_1-R -> conv5_1-R (in-place)
I0419 00:42:42.586997 20701 net.cpp:122] Setting up relu5_1-R
I0419 00:42:42.587008 20701 net.cpp:129] Top shape: 1 512 45 32 (737280)
I0419 00:42:42.587013 20701 net.cpp:137] Memory required for data: 1728076052
I0419 00:42:42.587016 20701 layer_factory.hpp:77] Creating layer conv5_2-R
I0419 00:42:42.587025 20701 net.cpp:84] Creating Layer conv5_2-R
I0419 00:42:42.587029 20701 net.cpp:406] conv5_2-R <- conv5_1-R
I0419 00:42:42.587036 20701 net.cpp:380] conv5_2-R -> conv5_2-R
I0419 00:42:42.595649 20701 net.cpp:122] Setting up conv5_2-R
I0419 00:42:42.595669 20701 net.cpp:129] Top shape: 1 512 45 32 (737280)
I0419 00:42:42.595674 20701 net.cpp:137] Memory required for data: 1731025172
I0419 00:42:42.595695 20701 layer_factory.hpp:77] Creating layer relu5_2-R
I0419 00:42:42.595703 20701 net.cpp:84] Creating Layer relu5_2-R
I0419 00:42:42.595708 20701 net.cpp:406] relu5_2-R <- conv5_2-R
I0419 00:42:42.595715 20701 net.cpp:367] relu5_2-R -> conv5_2-R (in-place)
I0419 00:42:42.595969 20701 net.cpp:122] Setting up relu5_2-R
I0419 00:42:42.595983 20701 net.cpp:129] Top shape: 1 512 45 32 (737280)
I0419 00:42:42.595985 20701 net.cpp:137] Memory required for data: 1733974292
I0419 00:42:42.595989 20701 layer_factory.hpp:77] Creating layer conv5_3-R
I0419 00:42:42.595999 20701 net.cpp:84] Creating Layer conv5_3-R
I0419 00:42:42.596004 20701 net.cpp:406] conv5_3-R <- conv5_2-R
I0419 00:42:42.596010 20701 net.cpp:380] conv5_3-R -> conv5_3-R
I0419 00:42:42.604058 20701 net.cpp:122] Setting up conv5_3-R
I0419 00:42:42.604081 20701 net.cpp:129] Top shape: 1 512 45 32 (737280)
I0419 00:42:42.604087 20701 net.cpp:137] Memory required for data: 1736923412
I0419 00:42:42.604096 20701 layer_factory.hpp:77] Creating layer relu5_3-R
I0419 00:42:42.604106 20701 net.cpp:84] Creating Layer relu5_3-R
I0419 00:42:42.604111 20701 net.cpp:406] relu5_3-R <- conv5_3-R
I0419 00:42:42.604120 20701 net.cpp:367] relu5_3-R -> conv5_3-R (in-place)
I0419 00:42:42.608562 20701 net.cpp:122] Setting up relu5_3-R
I0419 00:42:42.608584 20701 net.cpp:129] Top shape: 1 512 45 32 (737280)
I0419 00:42:42.608589 20701 net.cpp:137] Memory required for data: 1739872532
I0419 00:42:42.608595 20701 layer_factory.hpp:77] Creating layer pool5-R
I0419 00:42:42.608616 20701 net.cpp:84] Creating Layer pool5-R
I0419 00:42:42.608623 20701 net.cpp:406] pool5-R <- conv5_3-R
I0419 00:42:42.608633 20701 net.cpp:380] pool5-R -> pool5-R
I0419 00:42:42.608773 20701 net.cpp:122] Setting up pool5-R
I0419 00:42:42.608793 20701 net.cpp:129] Top shape: 1 512 23 16 (188416)
I0419 00:42:42.608800 20701 net.cpp:137] Memory required for data: 1740626196
I0419 00:42:42.608805 20701 layer_factory.hpp:77] Creating layer fc6-R
I0419 00:42:42.608817 20701 net.cpp:84] Creating Layer fc6-R
I0419 00:42:42.608824 20701 net.cpp:406] fc6-R <- pool5-R
I0419 00:42:42.608831 20701 net.cpp:380] fc6-R -> fc6-R
I0419 00:42:42.875524 20701 net.cpp:122] Setting up fc6-R
I0419 00:42:42.875563 20701 net.cpp:129] Top shape: 1 4096 17 10 (696320)
I0419 00:42:42.875567 20701 net.cpp:137] Memory required for data: 1743411476
I0419 00:42:42.875579 20701 layer_factory.hpp:77] Creating layer relu6-R
I0419 00:42:42.875607 20701 net.cpp:84] Creating Layer relu6-R
I0419 00:42:42.875612 20701 net.cpp:406] relu6-R <- fc6-R
I0419 00:42:42.875622 20701 net.cpp:367] relu6-R -> fc6-R (in-place)
I0419 00:42:42.878078 20701 net.cpp:122] Setting up relu6-R
I0419 00:42:42.878141 20701 net.cpp:129] Top shape: 1 4096 17 10 (696320)
I0419 00:42:42.878151 20701 net.cpp:137] Memory required for data: 1746196756
I0419 00:42:42.878192 20701 layer_factory.hpp:77] Creating layer drop6-R
I0419 00:42:42.878216 20701 net.cpp:84] Creating Layer drop6-R
I0419 00:42:42.878227 20701 net.cpp:406] drop6-R <- fc6-R
I0419 00:42:42.878252 20701 net.cpp:367] drop6-R -> fc6-R (in-place)
I0419 00:42:42.878391 20701 net.cpp:122] Setting up drop6-R
I0419 00:42:42.878409 20701 net.cpp:129] Top shape: 1 4096 17 10 (696320)
I0419 00:42:42.878417 20701 net.cpp:137] Memory required for data: 1748982036
I0419 00:42:42.878424 20701 layer_factory.hpp:77] Creating layer fc7-R
I0419 00:42:42.878445 20701 net.cpp:84] Creating Layer fc7-R
I0419 00:42:42.878465 20701 net.cpp:406] fc7-R <- fc6-R
I0419 00:42:42.878481 20701 net.cpp:380] fc7-R -> fc7-R
I0419 00:42:42.938618 20701 net.cpp:122] Setting up fc7-R
I0419 00:42:42.938668 20701 net.cpp:129] Top shape: 1 4096 17 10 (696320)
I0419 00:42:42.938674 20701 net.cpp:137] Memory required for data: 1751767316
I0419 00:42:42.938688 20701 layer_factory.hpp:77] Creating layer relu7-R
I0419 00:42:42.938704 20701 net.cpp:84] Creating Layer relu7-R
I0419 00:42:42.938711 20701 net.cpp:406] relu7-R <- fc7-R
I0419 00:42:42.938720 20701 net.cpp:367] relu7-R -> fc7-R (in-place)
I0419 00:42:42.939047 20701 net.cpp:122] Setting up relu7-R
I0419 00:42:42.939061 20701 net.cpp:129] Top shape: 1 4096 17 10 (696320)
I0419 00:42:42.939065 20701 net.cpp:137] Memory required for data: 1754552596
I0419 00:42:42.939070 20701 layer_factory.hpp:77] Creating layer drop7-R
I0419 00:42:42.939080 20701 net.cpp:84] Creating Layer drop7-R
I0419 00:42:42.939085 20701 net.cpp:406] drop7-R <- fc7-R
I0419 00:42:42.939093 20701 net.cpp:367] drop7-R -> fc7-R (in-place)
I0419 00:42:42.939162 20701 net.cpp:122] Setting up drop7-R
I0419 00:42:42.939173 20701 net.cpp:129] Top shape: 1 4096 17 10 (696320)
I0419 00:42:42.939177 20701 net.cpp:137] Memory required for data: 1757337876
I0419 00:42:42.939182 20701 layer_factory.hpp:77] Creating layer score_fr-new-R
I0419 00:42:42.939195 20701 net.cpp:84] Creating Layer score_fr-new-R
I0419 00:42:42.939199 20701 net.cpp:406] score_fr-new-R <- fc7-R
I0419 00:42:42.939210 20701 net.cpp:380] score_fr-new-R -> score_fr-new-R
I0419 00:42:42.941586 20701 net.cpp:122] Setting up score_fr-new-R
I0419 00:42:42.941606 20701 net.cpp:129] Top shape: 1 3 17 10 (510)
I0419 00:42:42.941610 20701 net.cpp:137] Memory required for data: 1757339916
I0419 00:42:42.941624 20701 layer_factory.hpp:77] Creating layer upscore2-new-R
I0419 00:42:42.941637 20701 net.cpp:84] Creating Layer upscore2-new-R
I0419 00:42:42.941642 20701 net.cpp:406] upscore2-new-R <- score_fr-new-R
I0419 00:42:42.941650 20701 net.cpp:380] upscore2-new-R -> upscore2-new-R
I0419 00:42:42.942139 20701 net.cpp:122] Setting up upscore2-new-R
I0419 00:42:42.942152 20701 net.cpp:129] Top shape: 1 3 36 22 (2376)
I0419 00:42:42.942157 20701 net.cpp:137] Memory required for data: 1757349420
I0419 00:42:42.942171 20701 layer_factory.hpp:77] Creating layer upscore2-new-R_upscore2-new-R_0_split
I0419 00:42:42.942183 20701 net.cpp:84] Creating Layer upscore2-new-R_upscore2-new-R_0_split
I0419 00:42:42.942198 20701 net.cpp:406] upscore2-new-R_upscore2-new-R_0_split <- upscore2-new-R
I0419 00:42:42.942204 20701 net.cpp:380] upscore2-new-R_upscore2-new-R_0_split -> upscore2-new-R_upscore2-new-R_0_split_0
I0419 00:42:42.942224 20701 net.cpp:380] upscore2-new-R_upscore2-new-R_0_split -> upscore2-new-R_upscore2-new-R_0_split_1
I0419 00:42:42.942324 20701 net.cpp:122] Setting up upscore2-new-R_upscore2-new-R_0_split
I0419 00:42:42.942332 20701 net.cpp:129] Top shape: 1 3 36 22 (2376)
I0419 00:42:42.942337 20701 net.cpp:129] Top shape: 1 3 36 22 (2376)
I0419 00:42:42.942342 20701 net.cpp:137] Memory required for data: 1757368428
I0419 00:42:42.942345 20701 layer_factory.hpp:77] Creating layer score_pool4-new-R
I0419 00:42:42.942358 20701 net.cpp:84] Creating Layer score_pool4-new-R
I0419 00:42:42.942363 20701 net.cpp:406] score_pool4-new-R <- pool4-R_pool4-R_0_split_1
I0419 00:42:42.942373 20701 net.cpp:380] score_pool4-new-R -> score_pool4-new-R
I0419 00:42:42.944671 20701 net.cpp:122] Setting up score_pool4-new-R
I0419 00:42:42.944690 20701 net.cpp:129] Top shape: 1 3 45 32 (4320)
I0419 00:42:42.944696 20701 net.cpp:137] Memory required for data: 1757385708
I0419 00:42:42.944710 20701 layer_factory.hpp:77] Creating layer score_pool4c-R
I0419 00:42:42.944721 20701 net.cpp:84] Creating Layer score_pool4c-R
I0419 00:42:42.944726 20701 net.cpp:406] score_pool4c-R <- score_pool4-new-R
I0419 00:42:42.944733 20701 net.cpp:406] score_pool4c-R <- upscore2-new-R_upscore2-new-R_0_split_0
I0419 00:42:42.944741 20701 net.cpp:380] score_pool4c-R -> score_pool4c-R
I0419 00:42:42.944810 20701 net.cpp:122] Setting up score_pool4c-R
I0419 00:42:42.944819 20701 net.cpp:129] Top shape: 1 3 36 22 (2376)
I0419 00:42:42.944823 20701 net.cpp:137] Memory required for data: 1757395212
I0419 00:42:42.944828 20701 layer_factory.hpp:77] Creating layer fuse_pool4-R
I0419 00:42:42.944839 20701 net.cpp:84] Creating Layer fuse_pool4-R
I0419 00:42:42.944844 20701 net.cpp:406] fuse_pool4-R <- upscore2-new-R_upscore2-new-R_0_split_1
I0419 00:42:42.944850 20701 net.cpp:406] fuse_pool4-R <- score_pool4c-R
I0419 00:42:42.944857 20701 net.cpp:380] fuse_pool4-R -> fuse_pool4-R
I0419 00:42:42.944911 20701 net.cpp:122] Setting up fuse_pool4-R
I0419 00:42:42.944921 20701 net.cpp:129] Top shape: 1 3 36 22 (2376)
I0419 00:42:42.944926 20701 net.cpp:137] Memory required for data: 1757404716
I0419 00:42:42.944929 20701 layer_factory.hpp:77] Creating layer upscore_pool4-new-R
I0419 00:42:42.944939 20701 net.cpp:84] Creating Layer upscore_pool4-new-R
I0419 00:42:42.944944 20701 net.cpp:406] upscore_pool4-new-R <- fuse_pool4-R
I0419 00:42:42.944953 20701 net.cpp:380] upscore_pool4-new-R -> upscore_pool4-new-R
I0419 00:42:42.945410 20701 net.cpp:122] Setting up upscore_pool4-new-R
I0419 00:42:42.945420 20701 net.cpp:129] Top shape: 1 3 74 46 (10212)
I0419 00:42:42.945425 20701 net.cpp:137] Memory required for data: 1757445564
I0419 00:42:42.945441 20701 layer_factory.hpp:77] Creating layer upscore_pool4-new-R_upscore_pool4-new-R_0_split
I0419 00:42:42.945448 20701 net.cpp:84] Creating Layer upscore_pool4-new-R_upscore_pool4-new-R_0_split
I0419 00:42:42.945453 20701 net.cpp:406] upscore_pool4-new-R_upscore_pool4-new-R_0_split <- upscore_pool4-new-R
I0419 00:42:42.945461 20701 net.cpp:380] upscore_pool4-new-R_upscore_pool4-new-R_0_split -> upscore_pool4-new-R_upscore_pool4-new-R_0_split_0
I0419 00:42:42.945471 20701 net.cpp:380] upscore_pool4-new-R_upscore_pool4-new-R_0_split -> upscore_pool4-new-R_upscore_pool4-new-R_0_split_1
I0419 00:42:42.945549 20701 net.cpp:122] Setting up upscore_pool4-new-R_upscore_pool4-new-R_0_split
I0419 00:42:42.945564 20701 net.cpp:129] Top shape: 1 3 74 46 (10212)
I0419 00:42:42.945580 20701 net.cpp:129] Top shape: 1 3 74 46 (10212)
I0419 00:42:42.945583 20701 net.cpp:137] Memory required for data: 1757527260
I0419 00:42:42.945587 20701 layer_factory.hpp:77] Creating layer score_pool3-new-R
I0419 00:42:42.945598 20701 net.cpp:84] Creating Layer score_pool3-new-R
I0419 00:42:42.945605 20701 net.cpp:406] score_pool3-new-R <- pool3-R_pool3-R_0_split_1
I0419 00:42:42.945612 20701 net.cpp:380] score_pool3-new-R -> score_pool3-new-R
I0419 00:42:42.947927 20701 net.cpp:122] Setting up score_pool3-new-R
I0419 00:42:42.947947 20701 net.cpp:129] Top shape: 1 3 89 64 (17088)
I0419 00:42:42.947962 20701 net.cpp:137] Memory required for data: 1757595612
I0419 00:42:42.947971 20701 layer_factory.hpp:77] Creating layer score_pool3c-R
I0419 00:42:42.947981 20701 net.cpp:84] Creating Layer score_pool3c-R
I0419 00:42:42.947988 20701 net.cpp:406] score_pool3c-R <- score_pool3-new-R
I0419 00:42:42.947994 20701 net.cpp:406] score_pool3c-R <- upscore_pool4-new-R_upscore_pool4-new-R_0_split_0
I0419 00:42:42.948001 20701 net.cpp:380] score_pool3c-R -> score_pool3c-R
I0419 00:42:42.948071 20701 net.cpp:122] Setting up score_pool3c-R
I0419 00:42:42.948079 20701 net.cpp:129] Top shape: 1 3 74 46 (10212)
I0419 00:42:42.948083 20701 net.cpp:137] Memory required for data: 1757636460
I0419 00:42:42.948087 20701 layer_factory.hpp:77] Creating layer fuse_pool3-R
I0419 00:42:42.948097 20701 net.cpp:84] Creating Layer fuse_pool3-R
I0419 00:42:42.948102 20701 net.cpp:406] fuse_pool3-R <- upscore_pool4-new-R_upscore_pool4-new-R_0_split_1
I0419 00:42:42.948107 20701 net.cpp:406] fuse_pool3-R <- score_pool3c-R
I0419 00:42:42.948114 20701 net.cpp:380] fuse_pool3-R -> fuse_pool3-R
I0419 00:42:42.948175 20701 net.cpp:122] Setting up fuse_pool3-R
I0419 00:42:42.948186 20701 net.cpp:129] Top shape: 1 3 74 46 (10212)
I0419 00:42:42.948190 20701 net.cpp:137] Memory required for data: 1757677308
I0419 00:42:42.948195 20701 layer_factory.hpp:77] Creating layer upscore8-new-R
I0419 00:42:42.948205 20701 net.cpp:84] Creating Layer upscore8-new-R
I0419 00:42:42.948210 20701 net.cpp:406] upscore8-new-R <- fuse_pool3-R
I0419 00:42:42.948220 20701 net.cpp:380] upscore8-new-R -> upscore8-new-R
I0419 00:42:42.948694 20701 net.cpp:122] Setting up upscore8-new-R
I0419 00:42:42.948705 20701 net.cpp:129] Top shape: 1 3 600 376 (676800)
I0419 00:42:42.948709 20701 net.cpp:137] Memory required for data: 1760384508
I0419 00:42:42.948727 20701 layer_factory.hpp:77] Creating layer upscore8_cropped-R
I0419 00:42:42.948735 20701 net.cpp:84] Creating Layer upscore8_cropped-R
I0419 00:42:42.948742 20701 net.cpp:406] upscore8_cropped-R <- upscore8-new-R
I0419 00:42:42.948750 20701 net.cpp:406] upscore8_cropped-R <- data-R_crop_0_split_1
I0419 00:42:42.948757 20701 net.cpp:380] upscore8_cropped-R -> upscore8_cropped-R
I0419 00:42:42.948815 20701 net.cpp:122] Setting up upscore8_cropped-R
I0419 00:42:42.948823 20701 net.cpp:129] Top shape: 1 3 512 310 (476160)
I0419 00:42:42.948827 20701 net.cpp:137] Memory required for data: 1762289148
I0419 00:42:42.948832 20701 layer_factory.hpp:77] Creating layer score-R
I0419 00:42:42.948845 20701 net.cpp:84] Creating Layer score-R
I0419 00:42:42.948850 20701 net.cpp:406] score-R <- upscore8_cropped-R
I0419 00:42:42.948860 20701 net.cpp:380] score-R -> score-R
I0419 00:42:42.951339 20701 net.cpp:122] Setting up score-R
I0419 00:42:42.951359 20701 net.cpp:129] Top shape: 1 3 512 310 (476160)
I0419 00:42:42.951375 20701 net.cpp:137] Memory required for data: 1764193788
I0419 00:42:42.951385 20701 layer_factory.hpp:77] Creating layer score_uncropped-R
I0419 00:42:42.951462 20701 net.cpp:84] Creating Layer score_uncropped-R
I0419 00:42:42.951469 20701 net.cpp:406] score_uncropped-R <- crop_info
I0419 00:42:42.951476 20701 net.cpp:406] score_uncropped-R <- score-R
I0419 00:42:42.951483 20701 net.cpp:406] score_uncropped-R <- data_data_0_split_3
I0419 00:42:42.951490 20701 net.cpp:380] score_uncropped-R -> score_uncropped-R
I0419 00:42:42.954879 20701 net.cpp:122] Setting up score_uncropped-R
I0419 00:42:42.954912 20701 net.cpp:129] Top shape: 1 3 512 310 (476160)
I0419 00:42:42.954918 20701 net.cpp:137] Memory required for data: 1766098428
I0419 00:42:42.954923 20701 layer_factory.hpp:77] Creating layer loss1
I0419 00:42:42.954936 20701 net.cpp:84] Creating Layer loss1
I0419 00:42:42.954941 20701 net.cpp:406] loss1 <- score_score_0_split_1
I0419 00:42:42.954948 20701 net.cpp:406] loss1 <- label_data_1_split_1
I0419 00:42:42.954957 20701 net.cpp:380] loss1 -> loss1
…
