…
snapshot_prefix: "/media/Med_2T2/data2/models/snapshots/joint:1e-5x10,1e-5x10,20/FD3:YI3_1_20180418_201524,YJ3_1_20180419_083711/train"
test_initialization: false
average_loss: 20
stepvalue: 45000
stepvalue: 50000
stepvalue: 55000
iter_size: 1
I0419 10:24:51.682602 30201 solver.cpp:77] Creating training net from train_net file: /media/Med_2T2/data2/prototxts/training_J3x10.prototxt
I0419 10:24:51.685398 30201 net.cpp:51] Initializing net from parameters: 
state {
  phase: TRAIN
}
layer {
  name: "data"
  type: "Python"
  top: "data"
  top: "label"
  top: "crop_margin"
  top: "crop_prob"
  top: "crop_sample_batch"
  python_param {
    module: "Data"
    layer: "DataLayer"
  }
}
layer {
  name: "conv1_1"
  type: "Convolution"
  bottom: "data"
  top: "conv1_1"
  param {
    lr_mult: 1
    decay_mult: 1
  }
  param {
    lr_mult: 2
    decay_mult: 0
  }
  convolution_param {
    num_output: 64
    pad: 100
    kernel_size: 3
    stride: 1
  }
}
layer {
  name: "relu1_1"
  type: "ReLU"
  bottom: "conv1_1"
  top: "conv1_1"
}
layer {
  name: "conv1_2"
  type: "Convolution"
  bottom: "conv1_1"
  top: "conv1_2"
  param {
    lr_mult: 1
    decay_mult: 1
  }
  param {
    lr_mult: 2
    decay_mult: 0
  }
  convolution_param {
    num_output: 64
    pad: 1
    kernel_size: 3
    stride: 1
  }
}
layer {
  name: "relu1_2"
  type: "ReLU"
  bottom: "conv1_2"
  top: "conv1_2"
}
layer {
  name: "pool1"
  type: "Pooling"
  bottom: "conv1_2"
  top: "pool1"
  pooling_param {
    pool: MAX
    kernel_size: 2
    stride: 2
  }
}
layer {
  name: "conv2_1"
  type: "Convolution"
  bottom: "pool1"
  top: "conv2_1"
  param {
    lr_mult: 1
    decay_mult: 1
  }
  param {
    lr_mult: 2
    decay_mult: 0
  }
  convolution_param {
    num_output: 128
    pad: 1
    kernel_size: 3
    stride: 1
  }
}
layer {
  name: "relu2_1"
  type: "ReLU"
  bottom: "conv2_1"
  top: "conv2_1"
}
layer {
  name: "conv2_2"
  type: "Convolution"
  bottom: "conv2_1"
  top: "conv2_2"
  param {
    lr_mult: 1
    decay_mult: 1
  }
  param {
    lr_mult: 2
    decay_mult: 0
  }
  convolution_param {
    num_output: 128
    pad: 1
    kernel_size: 3
    stride: 1
  }
}
layer {
  name: "relu2_2"
  type: "ReLU"
  bottom: "conv2_2"
  top: "conv2_2"
}
layer {
  name: "pool2"
  type: "Pooling"
  bottom: "conv2_2"
  top: "pool2"
  pooling_param {
    pool: MAX
    kernel_size: 2
    stride: 2
  }
}
layer {
  name: "conv3_1"
  type: "Convolution"
  bottom: "pool2"
  top: "conv3_1"
  param {
    lr_mult: 1
    decay_mult: 1
  }
  param {
    lr_mult: 2
    decay_mult: 0
  }
  convolution_param {
    num_output: 256
    pad: 1
    kernel_size: 3
    stride: 1
  }
}
layer {
  name: "relu3_1"
  type: "ReLU"
  bottom: "conv3_1"
  top: "conv3_1"
}
layer {
  name: "conv3_2"
  type: "Convolution"
  bottom: "conv3_1"
  top: "conv3_2"
  param {
    lr_mult: 1
    decay_mult: 1
  }
  param {
    lr_mult: 2
    decay_mult: 0
  }
  convolution_param {
    num_output: 256
    pad: 1
    kernel_size: 3
    stride: 1
  }
}
layer {
  name: "relu3_2"
  type: "ReLU"
  bottom: "conv3_2"
  top: "conv3_2"
}
layer {
  name: "conv3_3"
  type: "Convolution"
  bottom: "conv3_2"
  top: "conv3_3"
  param {
    lr_mult: 1
    decay_mult: 1
  }
  param {
    lr_mult: 2
    decay_mult: 0
  }
  convolution_param {
    num_output: 256
    pad: 1
    kernel_size: 3
    stride: 1
  }
}
layer {
  name: "relu3_3"
  type: "ReLU"
  bottom: "conv3_3"
  top: "conv3_3"
}
layer {
  name: "pool3"
  type: "Pooling"
  bottom: "conv3_3"
  top: "pool3"
  pooling_param {
    pool: MAX
    kernel_size: 2
    stride: 2
  }
}
layer {
  name: "conv4_1"
  type: "Convolution"
  bottom: "pool3"
  top: "conv4_1"
  param {
    lr_mult: 1
    decay_mult: 1
  }
  param {
    lr_mult: 2
    decay_mult: 0
  }
  convolution_param {
    num_output: 512
    pad: 1
    kernel_size: 3
    stride: 1
  }
}
layer {
  name: "relu4_1"
  type: "ReLU"
  bottom: "conv4_1"
  top: "conv4_1"
}
layer {
  name: "conv4_2"
  type: "Convolution"
  bottom: "conv4_1"
  top: "conv4_2"
  param {
    lr_mult: 1
    decay_mult: 1
  }
  param {
    lr_mult: 2
    decay_mult: 0
  }
  convolution_param {
    num_output: 512
    pad: 1
    kernel_size: 3
    stride: 1
  }
}
layer {
  name: "relu4_2"
  type: "ReLU"
  bottom: "conv4_2"
  top: "conv4_2"
}
layer {
  name: "conv4_3"
  type: "Convolution"
  bottom: "conv4_2"
  top: "conv4_3"
  param {
    lr_mult: 1
    decay_mult: 1
  }
  param {
    lr_mult: 2
    decay_mult: 0
  }
  convolution_param {
    num_output: 512
    pad: 1
    kernel_size: 3
    stride: 1
  }
}
layer {
  name: "relu4_3"
  type: "ReLU"
  bottom: "conv4_3"
  top: "conv4_3"
}
layer {
  name: "pool4"
  type: "Pooling"
  bottom: "conv4_3"
  top: "pool4"
  pooling_param {
    pool: MAX
    kernel_size: 2
    stride: 2
  }
}
layer {
  name: "conv5_1"
  type: "Convolution"
  bottom: "pool4"
  top: "conv5_1"
  param {
    lr_mult: 1
    decay_mult: 1
  }
  param {
    lr_mult: 2
    decay_mult: 0
  }
  convolution_param {
    num_output: 512
    pad: 1
    kernel_size: 3
    stride: 1
  }
}
layer {
  name: "relu5_1"
  type: "ReLU"
  bottom: "conv5_1"
  top: "conv5_1"
}
layer {
  name: "conv5_2"
  type: "Convolution"
  bottom: "conv5_1"
  top: "conv5_2"
  param {
    lr_mult: 1
    decay_mult: 1
  }
  param {
    lr_mult: 2
    decay_mult: 0
  }
  convolution_param {
    num_output: 512
    pad: 1
    kernel_size: 3
    stride: 1
  }
}
layer {
  name: "relu5_2"
  type: "ReLU"
  bottom: "conv5_2"
  top: "conv5_2"
}
layer {
  name: "conv5_3"
  type: "Convolution"
  bottom: "conv5_2"
  top: "conv5_3"
  param {
    lr_mult: 1
    decay_mult: 1
  }
  param {
    lr_mult: 2
    decay_mult: 0
  }
  convolution_param {
    num_output: 512
    pad: 1
    kernel_size: 3
    stride: 1
  }
}
layer {
  name: "relu5_3"
  type: "ReLU"
  bottom: "conv5_3"
  top: "conv5_3"
}
layer {
  name: "pool5"
  type: "Pooling"
  bottom: "conv5_3"
  top: "pool5"
  pooling_param {
    pool: MAX
    kernel_size: 2
    stride: 2
  }
}
layer {
  name: "fc6"
  type: "Convolution"
  bottom: "pool5"
  top: "fc6"
  param {
    lr_mult: 1
    decay_mult: 1
  }
  param {
    lr_mult: 2
    decay_mult: 0
  }
  convolution_param {
    num_output: 4096
    pad: 0
    kernel_size: 7
    stride: 1
  }
}
layer {
  name: "relu6"
  type: "ReLU"
  bottom: "fc6"
  top: "fc6"
}
layer {
  name: "drop6"
  type: "Dropout"
  bottom: "fc6"
  top: "fc6"
  dropout_param {
    dropout_ratio: 0.5
  }
}
layer {
  name: "fc7"
  type: "Convolution"
  bottom: "fc6"
  top: "fc7"
  param {
    lr_mult: 1
    decay_mult: 1
  }
  param {
    lr_mult: 2
    decay_mult: 0
  }
  convolution_param {
    num_output: 4096
    pad: 0
    kernel_size: 1
    stride: 1
  }
}
layer {
  name: "relu7"
  type: "ReLU"
  bottom: "fc7"
  top: "fc7"
}
layer {
  name: "drop7"
  type: "Dropout"
  bottom: "fc7"
  top: "fc7"
  dropout_param {
    dropout_ratio: 0.5
  }
}
layer {
  name: "score_fr-new"
  type: "Convolution"
  bottom: "fc7"
  top: "score_fr-new"
  param {
    lr_mult: 1
    decay_mult: 1
  }
  param {
    lr_mult: 2
    decay_mult: 0
  }
  convolution_param {
    num_output: 3
    kernel_size: 1
  }
}
layer {
  name: "upscore2-new"
  type: "Deconvolution"
  bottom: "score_fr-new"
  top: "upscore2-new"
  param {
    lr_mult: 0
  }
  convolution_param {
    num_output: 3
    bias_term: false
    kernel_size: 4
    stride: 2
  }
}
layer {
  name: "score_pool4-new"
  type: "Convolution"
  bottom: "pool4"
  top: "score_pool4-new"
  param {
    lr_mult: 1
    decay_mult: 1
  }
  param {
    lr_mult: 2
    decay_mult: 0
  }
  convolution_param {
    num_output: 3
    pad: 0
    kernel_size: 1
  }
}
layer {
  name: "score_pool4c"
  type: "Crop"
  bottom: "score_pool4-new"
  bottom: "upscore2-new"
  top: "score_pool4c"
  crop_param {
    axis: 2
    offset: 5
  }
}
layer {
  name: "fuse_pool4"
  type: "Eltwise"
  bottom: "upscore2-new"
  bottom: "score_pool4c"
  top: "fuse_pool4"
  eltwise_param {
    operation: SUM
  }
}
layer {
  name: "upscore_pool4-new"
  type: "Deconvolution"
  bottom: "fuse_pool4"
  top: "upscore_pool4-new"
  param {
    lr_mult: 0
  }
  convolution_param {
    num_output: 3
    bias_term: false
    kernel_size: 4
    stride: 2
  }
}
layer {
  name: "score_pool3-new"
  type: "Convolution"
  bottom: "pool3"
  top: "score_pool3-new"
  param {
    lr_mult: 1
    decay_mult: 1
  }
  param {
    lr_mult: 2
    decay_mult: 0
  }
  convolution_param {
    num_output: 3
    pad: 0
    kernel_size: 1
  }
}
layer {
  name: "score_pool3c"
  type: "Crop"
  bottom: "score_pool3-new"
  bottom: "upscore_pool4-new"
  top: "score_pool3c"
  crop_param {
    axis: 2
    offset: 9
  }
}
layer {
  name: "fuse_pool3"
  type: "Eltwise"
  bottom: "upscore_pool4-new"
  bottom: "score_pool3c"
  top: "fuse_pool3"
  eltwise_param {
    operation: SUM
  }
}
layer {
  name: "upscore8-new"
  type: "Deconvolution"
  bottom: "fuse_pool3"
  top: "upscore8-new"
  param {
    lr_mult: 0
  }
  convolution_param {
    num_output: 3
    bias_term: false
    kernel_size: 16
    stride: 8
  }
}
layer {
  name: "upscore8_cropped"
  type: "Crop"
  bottom: "upscore8-new"
  bottom: "data"
  top: "upscore8_cropped"
  crop_param {
    axis: 2
    offset: 31
  }
}
layer {
  name: "score"
  type: "Convolution"
  bottom: "upscore8_cropped"
  top: "score"
  param {
    lr_mult: 1
    decay_mult: 1
  }
  param {
    lr_mult: 2
    decay_mult: 0
  }
  convolution_param {
    num_output: 3
    pad: 1
    kernel_size: 3
    stride: 1
  }
}
layer {
  name: "prob"
  type: "Sigmoid"
  bottom: "score"
  top: "prob"
}
layer {
  name: "saliency"
  type: "Convolution"
  bottom: "prob"
  top: "saliency"
  param {
    lr_mult: 10
    decay_mult: 1
  }
  param {
    lr_mult: 20
    decay_mult: 0
  }
  convolution_param {
    num_output: 3
    pad: 2
    kernel_size: 5
    stride: 1
  }
}
layer {
  name: "saliency_data"
  type: "Eltwise"
  bottom: "data"
  bottom: "saliency"
  top: "saliency_data"
  eltwise_param {
    operation: PROD
  }
}
layer {
  name: "crop"
  type: "Python"
  bottom: "prob"
  bottom: "saliency_data"
  bottom: "crop_margin"
  bottom: "crop_prob"
  bottom: "crop_sample_batch"
  bottom: "label"
  top: "data-R"
  top: "crop_info"
  python_param {
    module: "Crop"
    layer: "CropLayer"
    param_str: "{\"TEST\": 0}"
  }
}
layer {
  name: "conv1_1-R"
  type: "Convolution"
  bottom: "data-R"
  top: "conv1_1-R"
  param {
    lr_mult: 10
    decay_mult: 1
  }
  param {
    lr_mult: 20
    decay_mult: 0
  }
  convolution_param {
    num_output: 64
    pad: 100
    kernel_size: 3
    stride: 1
  }
}
layer {
  name: "relu1_1-R"
  type: "ReLU"
  bottom: "conv1_1-R"
  top: "conv1_1-R"
}
layer {
  name: "conv1_2-R"
  type: "Convolution"
  bottom: "conv1_1-R"
  top: "conv1_2-R"
  param {
    lr_mult: 10
    decay_mult: 1
  }
  param {
    lr_mult: 20
    decay_mult: 0
  }
  convolution_param {
    num_output: 64
    pad: 1
    kernel_size: 3
    stride: 1
  }
}
layer {
  name: "relu1_2-R"
  type: "ReLU"
  bottom: "conv1_2-R"
  top: "conv1_2-R"
}
layer {
  name: "pool1-R"
  type: "Pooling"
  bottom: "conv1_2-R"
  top: "pool1-R"
  pooling_param {
    pool: MAX
    kernel_size: 2
    stride: 2
  }
}
layer {
  name: "conv2_1-R"
  type: "Convolution"
  bottom: "pool1-R"
  top: "conv2_1-R"
  param {
    lr_mult: 10
    decay_mult: 1
  }
  param {
    lr_mult: 20
    decay_mult: 0
  }
  convolution_param {
    num_output: 128
    pad: 1
    kernel_size: 3
    stride: 1
  }
}
layer {
  name: "relu2_1-R"
  type: "ReLU"
  bottom: "conv2_1-R"
  top: "conv2_1-R"
}
layer {
  name: "conv2_2-R"
  type: "Convolution"
  bottom: "conv2_1-R"
  top: "conv2_2-R"
  param {
    lr_mult: 10
    decay_mult: 1
  }
  param {
    lr_mult: 20
    decay_mult: 0
  }
  convolution_param {
    num_output: 128
    pad: 1
    kernel_size: 3
    stride: 1
  }
}
layer {
  name: "relu2_2-R"
  type: "ReLU"
  bottom: "conv2_2-R"
  top: "conv2_2-R"
}
layer {
  name: "pool2-R"
  type: "Pooling"
  bottom: "conv2_2-R"
  top: "pool2-R"
  pooling_param {
    pool: MAX
    kernel_size: 2
    stride: 2
  }
}
layer {
  name: "conv3_1-R"
  type: "Convolution"
  bottom: "pool2-R"
  top: "conv3_1-R"
  param {
    lr_mult: 10
    decay_mult: 1
  }
  param {
    lr_mult: 20
    decay_mult: 0
  }
  convolution_param {
    num_output: 256
    pad: 1
    kernel_size: 3
    stride: 1
  }
}
layer {
  name: "relu3_1-R"
  type: "ReLU"
  bottom: "conv3_1-R"
  top: "conv3_1-R"
}
layer {
  name: "conv3_2-R"
  type: "Convolution"
  bottom: "conv3_1-R"
  top: "conv3_2-R"
  param {
    lr_mult: 10
    decay_mult: 1
  }
  param {
    lr_mult: 20
    decay_mult: 0
  }
  convolution_param {
    num_output: 256
    pad: 1
    kernel_size: 3
    stride: 1
  }
}
layer {
  name: "relu3_2-R"
  type: "ReLU"
  bottom: "conv3_2-R"
  top: "conv3_2-R"
}
layer {
  name: "conv3_3-R"
  type: "Convolution"
  bottom: "conv3_2-R"
  top: "conv3_3-R"
  param {
    lr_mult: 10
    decay_mult: 1
  }
  param {
    lr_mult: 20
    decay_mult: 0
  }
  convolution_param {
    num_output: 256
    pad: 1
    kernel_size: 3
    stride: 1
  }
}
layer {
  name: "relu3_3-R"
  type: "ReLU"
  bottom: "conv3_3-R"
  top: "conv3_3-R"
}
layer {
  name: "pool3-R"
  type: "Pooling"
  bottom: "conv3_3-R"
  top: "pool3-R"
  pooling_param {
    pool: MAX
    kernel_size: 2
    stride: 2
  }
}
layer {
  name: "conv4_1-R"
  type: "Convolution"
  bottom: "pool3-R"
  top: "conv4_1-R"
  param {
    lr_mult: 10
    decay_mult: 1
  }
  param {
    lr_mult: 20
    decay_mult: 0
  }
  convolution_param {
    num_output: 512
    pad: 1
    kernel_size: 3
    stride: 1
  }
}
layer {
  name: "relu4_1-R"
  type: "ReLU"
  bottom: "conv4_1-R"
  top: "conv4_1-R"
}
layer {
  name: "conv4_2-R"
  type: "Convolution"
  bottom: "conv4_1-R"
  top: "conv4_2-R"
  param {
    lr_mult: 10
    decay_mult: 1
  }
  param {
    lr_mult: 20
    decay_mult: 0
  }
  convolution_param {
    num_output: 512
    pad: 1
    kernel_size: 3
    stride: 1
  }
}
layer {
  name: "relu4_2-R"
  type: "ReLU"
  bottom: "conv4_2-R"
  top: "conv4_2-R"
}
layer {
  name: "conv4_3-R"
  type: "Convolution"
  bottom: "conv4_2-R"
  top: "conv4_3-R"
  param {
    lr_mult: 10
    decay_mult: 1
  }
  param {
    lr_mult: 20
    decay_mult: 0
  }
  convolution_param {
    num_output: 512
    pad: 1
    kernel_size: 3
    stride: 1
  }
}
layer {
  name: "relu4_3-R"
  type: "ReLU"
  bottom: "conv4_3-R"
  top: "conv4_3-R"
}
layer {
  name: "pool4-R"
  type: "Pooling"
  bottom: "conv4_3-R"
  top: "pool4-R"
  pooling_param {
    pool: MAX
    kernel_size: 2
    stride: 2
  }
}
layer {
  name: "conv5_1-R"
  type: "Convolution"
  bottom: "pool4-R"
  top: "conv5_1-R"
  param {
    lr_mult: 10
    decay_mult: 1
  }
  param {
    lr_mult: 20
    decay_mult: 0
  }
  convolution_param {
    num_output: 512
    pad: 1
    kernel_size: 3
    stride: 1
  }
}
layer {
  name: "relu5_1-R"
  type: "ReLU"
  bottom: "conv5_1-R"
  top: "conv5_1-R"
}
layer {
  name: "conv5_2-R"
  type: "Convolution"
  bottom: "conv5_1-R"
  top: "conv5_2-R"
  param {
    lr_mult: 10
    decay_mult: 1
  }
  param {
    lr_mult: 20
    decay_mult: 0
  }
  convolution_param {
    num_output: 512
    pad: 1
    kernel_size: 3
    stride: 1
  }
}
layer {
  name: "relu5_2-R"
  type: "ReLU"
  bottom: "conv5_2-R"
  top: "conv5_2-R"
}
layer {
  name: "conv5_3-R"
  type: "Convolution"
  bottom: "conv5_2-R"
  top: "conv5_3-R"
  param {
    lr_mult: 10
    decay_mult: 1
  }
  param {
    lr_mult: 20
    decay_mult: 0
  }
  convolution_param {
    num_output: 512
    pad: 1
    kernel_size: 3
    stride: 1
  }
}
layer {
  name: "relu5_3-R"
  type: "ReLU"
  bottom: "conv5_3-R"
  top: "conv5_3-R"
}
layer {
  name: "pool5-R"
  type: "Pooling"
  bottom: "conv5_3-R"
  top: "pool5-R"
  pooling_param {
    pool: MAX
    kernel_size: 2
    stride: 2
  }
}
layer {
  name: "fc6-R"
  type: "Convolution"
  bottom: "pool5-R"
  top: "fc6-R"
  param {
    lr_mult: 10
    decay_mult: 1
  }
  param {
    lr_mult: 20
    decay_mult: 0
  }
  convolution_param {
    num_output: 4096
    pad: 0
    kernel_size: 7
    stride: 1
  }
}
layer {
  name: "relu6-R"
  type: "ReLU"
  bottom: "fc6-R"
  top: "fc6-R"
}
layer {
  name: "drop6-R"
  type: "Dropout"
  bottom: "fc6-R"
  top: "fc6-R"
  dropout_param {
    dropout_ratio: 0.5
  }
}
layer {
  name: "fc7-R"
  type: "Convolution"
  bottom: "fc6-R"
  top: "fc7-R"
  param {
    lr_mult: 10
    decay_mult: 1
  }
  param {
    lr_mult: 20
    decay_mult: 0
  }
  convolution_param {
    num_output: 4096
    pad: 0
    kernel_size: 1
    stride: 1
  }
}
layer {
  name: "relu7-R"
  type: "ReLU"
  bottom: "fc7-R"
  top: "fc7-R"
}
layer {
  name: "drop7-R"
  type: "Dropout"
  bottom: "fc7-R"
  top: "fc7-R"
  dropout_param {
    dropout_ratio: 0.5
  }
}
layer {
  name: "score_fr-new-R"
  type: "Convolution"
  bottom: "fc7-R"
  top: "score_fr-new-R"
  param {
    lr_mult: 10
    decay_mult: 1
  }
  param {
    lr_mult: 20
    decay_mult: 0
  }
  convolution_param {
    num_output: 3
    kernel_size: 1
  }
}
layer {
  name: "upscore2-new-R"
  type: "Deconvolution"
  bottom: "score_fr-new-R"
  top: "upscore2-new-R"
  param {
    lr_mult: 0
  }
  convolution_param {
    num_output: 3
    bias_term: false
    kernel_size: 4
    stride: 2
  }
}
layer {
  name: "score_pool4-new-R"
  type: "Convolution"
  bottom: "pool4-R"
  top: "score_pool4-new-R"
  param {
    lr_mult: 10
    decay_mult: 1
  }
  param {
    lr_mult: 20
    decay_mult: 0
  }
  convolution_param {
    num_output: 3
    pad: 0
    kernel_size: 1
  }
}
layer {
  name: "score_pool4c-R"
  type: "Crop"
  bottom: "score_pool4-new-R"
  bottom: "upscore2-new-R"
  top: "score_pool4c-R"
  crop_param {
    axis: 2
    offset: 5
  }
}
layer {
  name: "fuse_pool4-R"
  type: "Eltwise"
  bottom: "upscore2-new-R"
  bottom: "score_pool4c-R"
  top: "fuse_pool4-R"
  eltwise_param {
    operation: SUM
  }
}
layer {
  name: "upscore_pool4-new-R"
  type: "Deconvolution"
  bottom: "fuse_pool4-R"
  top: "upscore_pool4-new-R"
  param {
    lr_mult: 0
  }
  convolution_param {
    num_output: 3
    bias_term: false
    kernel_size: 4
    stride: 2
  }
}
layer {
  name: "score_pool3-new-R"
  type: "Convolution"
  bottom: "pool3-R"
  top: "score_pool3-new-R"
  param {
    lr_mult: 10
    decay_mult: 1
  }
  param {
    lr_mult: 20
    decay_mult: 0
  }
  convolution_param {
    num_output: 3
    pad: 0
    kernel_size: 1
  }
}
layer {
  name: "score_pool3c-R"
  type: "Crop"
  bottom: "score_pool3-new-R"
  bottom: "upscore_pool4-new-R"
  top: "score_pool3c-R"
  crop_param {
    axis: 2
    offset: 9
  }
}
layer {
  name: "fuse_pool3-R"
  type: "Eltwise"
  bottom: "upscore_pool4-new-R"
  bottom: "score_pool3c-R"
  top: "fuse_pool3-R"
  eltwise_param {
    operation: SUM
  }
}
layer {
  name: "upscore8-new-R"
  type: "Deconvolution"
  bottom: "fuse_pool3-R"
  top: "upscore8-new-R"
  param {
    lr_mult: 0
  }
  convolution_param {
    num_output: 3
    bias_term: false
    kernel_size: 16
    stride: 8
  }
}
layer {
  name: "upscore8_cropped-R"
  type: "Crop"
  bottom: "upscore8-new-R"
  bottom: "data-R"
  top: "upscore8_cropped-R"
  crop_param {
    axis: 2
    offset: 31
  }
}
layer {
  name: "score-R"
  type: "Convolution"
  bottom: "upscore8_cropped-R"
  top: "score-R"
  param {
    lr_mult: 10
    decay_mult: 1
  }
  param {
    lr_mult: 20
    decay_mult: 0
  }
  convolution_param {
    num_output: 3
    pad: 1
    kernel_size: 3
    stride: 1
  }
}
layer {
  name: "score_uncropped-R"
  type: "Python"
  bottom: "crop_info"
  bottom: "score-R"
  bottom: "data"
  top: "score_uncropped-R"
  python_param {
    module: "Uncrop"
    layer: "UncropLayer"
  }
}
layer {
  name: "loss1"
  type: "DiceLoss"
  bottom: "score"
  bottom: "label"
  top: "loss1"
  loss_weight: 0.333333
}
layer {
  name: "loss2"
  type: "DiceLoss"
  bottom: "score_uncropped-R"
  bottom: "label"
  top: "loss2"
  loss_weight: 0.666667
}
I0419 10:24:51.686033 30201 layer_factory.hpp:77] Creating layer data
I0419 10:24:51.687207 30201 net.cpp:84] Creating Layer data
I0419 10:24:51.687224 30201 net.cpp:380] data -> data
I0419 10:24:51.687243 30201 net.cpp:380] data -> label
I0419 10:24:51.687250 30201 net.cpp:380] data -> crop_margin
I0419 10:24:51.687258 30201 net.cpp:380] data -> crop_prob
I0419 10:24:51.687264 30201 net.cpp:380] data -> crop_sample_batch
I0419 10:24:51.876150 30201 net.cpp:122] Setting up data
I0419 10:24:51.876202 30201 net.cpp:129] Top shape: 1 3 512 310 (476160)
I0419 10:24:51.876209 30201 net.cpp:129] Top shape: 1 3 512 310 (476160)
I0419 10:24:51.876214 30201 net.cpp:129] Top shape: 1 (1)
I0419 10:24:51.876219 30201 net.cpp:129] Top shape: 1 (1)
I0419 10:24:51.876224 30201 net.cpp:129] Top shape: 1 (1)
I0419 10:24:51.876227 30201 net.cpp:137] Memory required for data: 3809292
I0419 10:24:51.876236 30201 layer_factory.hpp:77] Creating layer data_data_0_split
I0419 10:24:51.876265 30201 net.cpp:84] Creating Layer data_data_0_split
I0419 10:24:51.876269 30201 net.cpp:406] data_data_0_split <- data
I0419 10:24:51.876282 30201 net.cpp:380] data_data_0_split -> data_data_0_split_0
I0419 10:24:51.876296 30201 net.cpp:380] data_data_0_split -> data_data_0_split_1
I0419 10:24:51.876303 30201 net.cpp:380] data_data_0_split -> data_data_0_split_2
I0419 10:24:51.876309 30201 net.cpp:380] data_data_0_split -> data_data_0_split_3
I0419 10:24:51.876368 30201 net.cpp:122] Setting up data_data_0_split
I0419 10:24:51.876375 30201 net.cpp:129] Top shape: 1 3 512 310 (476160)
I0419 10:24:51.876380 30201 net.cpp:129] Top shape: 1 3 512 310 (476160)
I0419 10:24:51.876389 30201 net.cpp:129] Top shape: 1 3 512 310 (476160)
I0419 10:24:51.876394 30201 net.cpp:129] Top shape: 1 3 512 310 (476160)
I0419 10:24:51.876399 30201 net.cpp:137] Memory required for data: 11427852
I0419 10:24:51.876402 30201 layer_factory.hpp:77] Creating layer label_data_1_split
I0419 10:24:51.876408 30201 net.cpp:84] Creating Layer label_data_1_split
I0419 10:24:51.876412 30201 net.cpp:406] label_data_1_split <- label
I0419 10:24:51.876420 30201 net.cpp:380] label_data_1_split -> label_data_1_split_0
I0419 10:24:51.876425 30201 net.cpp:380] label_data_1_split -> label_data_1_split_1
I0419 10:24:51.876431 30201 net.cpp:380] label_data_1_split -> label_data_1_split_2
I0419 10:24:51.876471 30201 net.cpp:122] Setting up label_data_1_split
I0419 10:24:51.876477 30201 net.cpp:129] Top shape: 1 3 512 310 (476160)
I0419 10:24:51.876482 30201 net.cpp:129] Top shape: 1 3 512 310 (476160)
I0419 10:24:51.876485 30201 net.cpp:129] Top shape: 1 3 512 310 (476160)
I0419 10:24:51.876489 30201 net.cpp:137] Memory required for data: 17141772
I0419 10:24:51.876493 30201 layer_factory.hpp:77] Creating layer conv1_1
I0419 10:24:51.876509 30201 net.cpp:84] Creating Layer conv1_1
I0419 10:24:51.876514 30201 net.cpp:406] conv1_1 <- data_data_0_split_0
I0419 10:24:51.876520 30201 net.cpp:380] conv1_1 -> conv1_1
I0419 10:24:52.304091 30201 net.cpp:122] Setting up conv1_1
I0419 10:24:52.304141 30201 net.cpp:129] Top shape: 1 64 710 508 (23083520)
I0419 10:24:52.304147 30201 net.cpp:137] Memory required for data: 109475852
I0419 10:24:52.304175 30201 layer_factory.hpp:77] Creating layer relu1_1
I0419 10:24:52.304205 30201 net.cpp:84] Creating Layer relu1_1
I0419 10:24:52.304213 30201 net.cpp:406] relu1_1 <- conv1_1
I0419 10:24:52.304220 30201 net.cpp:367] relu1_1 -> conv1_1 (in-place)
I0419 10:24:52.304443 30201 net.cpp:122] Setting up relu1_1
I0419 10:24:52.304457 30201 net.cpp:129] Top shape: 1 64 710 508 (23083520)
I0419 10:24:52.304461 30201 net.cpp:137] Memory required for data: 201809932
I0419 10:24:52.304466 30201 layer_factory.hpp:77] Creating layer conv1_2
I0419 10:24:52.304478 30201 net.cpp:84] Creating Layer conv1_2
I0419 10:24:52.304483 30201 net.cpp:406] conv1_2 <- conv1_1
I0419 10:24:52.304489 30201 net.cpp:380] conv1_2 -> conv1_2
I0419 10:24:52.309046 30201 net.cpp:122] Setting up conv1_2
I0419 10:24:52.309063 30201 net.cpp:129] Top shape: 1 64 710 508 (23083520)
I0419 10:24:52.309068 30201 net.cpp:137] Memory required for data: 294144012
I0419 10:24:52.309084 30201 layer_factory.hpp:77] Creating layer relu1_2
I0419 10:24:52.309092 30201 net.cpp:84] Creating Layer relu1_2
I0419 10:24:52.309098 30201 net.cpp:406] relu1_2 <- conv1_2
I0419 10:24:52.309104 30201 net.cpp:367] relu1_2 -> conv1_2 (in-place)
I0419 10:24:52.309309 30201 net.cpp:122] Setting up relu1_2
I0419 10:24:52.309321 30201 net.cpp:129] Top shape: 1 64 710 508 (23083520)
I0419 10:24:52.309326 30201 net.cpp:137] Memory required for data: 386478092
I0419 10:24:52.309330 30201 layer_factory.hpp:77] Creating layer pool1
I0419 10:24:52.309340 30201 net.cpp:84] Creating Layer pool1
I0419 10:24:52.309345 30201 net.cpp:406] pool1 <- conv1_2
I0419 10:24:52.309350 30201 net.cpp:380] pool1 -> pool1
I0419 10:24:52.309417 30201 net.cpp:122] Setting up pool1
I0419 10:24:52.309427 30201 net.cpp:129] Top shape: 1 64 355 254 (5770880)
I0419 10:24:52.309430 30201 net.cpp:137] Memory required for data: 409561612
I0419 10:24:52.309434 30201 layer_factory.hpp:77] Creating layer conv2_1
I0419 10:24:52.309444 30201 net.cpp:84] Creating Layer conv2_1
I0419 10:24:52.309449 30201 net.cpp:406] conv2_1 <- pool1
I0419 10:24:52.309455 30201 net.cpp:380] conv2_1 -> conv2_1
I0419 10:24:52.311344 30201 net.cpp:122] Setting up conv2_1
I0419 10:24:52.311362 30201 net.cpp:129] Top shape: 1 128 355 254 (11541760)
I0419 10:24:52.311367 30201 net.cpp:137] Memory required for data: 455728652
I0419 10:24:52.311380 30201 layer_factory.hpp:77] Creating layer relu2_1
I0419 10:24:52.311388 30201 net.cpp:84] Creating Layer relu2_1
I0419 10:24:52.311393 30201 net.cpp:406] relu2_1 <- conv2_1
I0419 10:24:52.311400 30201 net.cpp:367] relu2_1 -> conv2_1 (in-place)
I0419 10:24:52.311614 30201 net.cpp:122] Setting up relu2_1
I0419 10:24:52.311627 30201 net.cpp:129] Top shape: 1 128 355 254 (11541760)
I0419 10:24:52.311631 30201 net.cpp:137] Memory required for data: 501895692
I0419 10:24:52.311636 30201 layer_factory.hpp:77] Creating layer conv2_2
I0419 10:24:52.311645 30201 net.cpp:84] Creating Layer conv2_2
I0419 10:24:52.311650 30201 net.cpp:406] conv2_2 <- conv2_1
I0419 10:24:52.311664 30201 net.cpp:380] conv2_2 -> conv2_2
I0419 10:24:52.318750 30201 net.cpp:122] Setting up conv2_2
I0419 10:24:52.318771 30201 net.cpp:129] Top shape: 1 128 355 254 (11541760)
I0419 10:24:52.318776 30201 net.cpp:137] Memory required for data: 548062732
I0419 10:24:52.318789 30201 layer_factory.hpp:77] Creating layer relu2_2
I0419 10:24:52.318797 30201 net.cpp:84] Creating Layer relu2_2
I0419 10:24:52.318802 30201 net.cpp:406] relu2_2 <- conv2_2
I0419 10:24:52.318809 30201 net.cpp:367] relu2_2 -> conv2_2 (in-place)
I0419 10:24:52.319034 30201 net.cpp:122] Setting up relu2_2
I0419 10:24:52.319048 30201 net.cpp:129] Top shape: 1 128 355 254 (11541760)
I0419 10:24:52.319052 30201 net.cpp:137] Memory required for data: 594229772
I0419 10:24:52.319056 30201 layer_factory.hpp:77] Creating layer pool2
I0419 10:24:52.319066 30201 net.cpp:84] Creating Layer pool2
I0419 10:24:52.319069 30201 net.cpp:406] pool2 <- conv2_2
I0419 10:24:52.319077 30201 net.cpp:380] pool2 -> pool2
I0419 10:24:52.319140 30201 net.cpp:122] Setting up pool2
I0419 10:24:52.319149 30201 net.cpp:129] Top shape: 1 128 178 127 (2893568)
I0419 10:24:52.319154 30201 net.cpp:137] Memory required for data: 605804044
I0419 10:24:52.319157 30201 layer_factory.hpp:77] Creating layer conv3_1
I0419 10:24:52.319167 30201 net.cpp:84] Creating Layer conv3_1
I0419 10:24:52.319172 30201 net.cpp:406] conv3_1 <- pool2
I0419 10:24:52.319178 30201 net.cpp:380] conv3_1 -> conv3_1
I0419 10:24:52.324494 30201 net.cpp:122] Setting up conv3_1
I0419 10:24:52.324514 30201 net.cpp:129] Top shape: 1 256 178 127 (5787136)
I0419 10:24:52.324519 30201 net.cpp:137] Memory required for data: 628952588
I0419 10:24:52.324537 30201 layer_factory.hpp:77] Creating layer relu3_1
I0419 10:24:52.324548 30201 net.cpp:84] Creating Layer relu3_1
I0419 10:24:52.324553 30201 net.cpp:406] relu3_1 <- conv3_1
I0419 10:24:52.324560 30201 net.cpp:367] relu3_1 -> conv3_1 (in-place)
I0419 10:24:52.325294 30201 net.cpp:122] Setting up relu3_1
I0419 10:24:52.325323 30201 net.cpp:129] Top shape: 1 256 178 127 (5787136)
I0419 10:24:52.325328 30201 net.cpp:137] Memory required for data: 652101132
I0419 10:24:52.325333 30201 layer_factory.hpp:77] Creating layer conv3_2
I0419 10:24:52.325347 30201 net.cpp:84] Creating Layer conv3_2
I0419 10:24:52.325352 30201 net.cpp:406] conv3_2 <- conv3_1
I0419 10:24:52.325362 30201 net.cpp:380] conv3_2 -> conv3_2
I0419 10:24:52.329800 30201 net.cpp:122] Setting up conv3_2
I0419 10:24:52.329824 30201 net.cpp:129] Top shape: 1 256 178 127 (5787136)
I0419 10:24:52.329831 30201 net.cpp:137] Memory required for data: 675249676
I0419 10:24:52.329843 30201 layer_factory.hpp:77] Creating layer relu3_2
I0419 10:24:52.329860 30201 net.cpp:84] Creating Layer relu3_2
I0419 10:24:52.329872 30201 net.cpp:406] relu3_2 <- conv3_2
I0419 10:24:52.329880 30201 net.cpp:367] relu3_2 -> conv3_2 (in-place)
I0419 10:24:52.330744 30201 net.cpp:122] Setting up relu3_2
I0419 10:24:52.330766 30201 net.cpp:129] Top shape: 1 256 178 127 (5787136)
I0419 10:24:52.330772 30201 net.cpp:137] Memory required for data: 698398220
I0419 10:24:52.330780 30201 layer_factory.hpp:77] Creating layer conv3_3
I0419 10:24:52.330796 30201 net.cpp:84] Creating Layer conv3_3
I0419 10:24:52.330802 30201 net.cpp:406] conv3_3 <- conv3_2
I0419 10:24:52.330826 30201 net.cpp:380] conv3_3 -> conv3_3
I0419 10:24:52.335598 30201 net.cpp:122] Setting up conv3_3
I0419 10:24:52.335618 30201 net.cpp:129] Top shape: 1 256 178 127 (5787136)
I0419 10:24:52.335621 30201 net.cpp:137] Memory required for data: 721546764
I0419 10:24:52.335630 30201 layer_factory.hpp:77] Creating layer relu3_3
I0419 10:24:52.335638 30201 net.cpp:84] Creating Layer relu3_3
I0419 10:24:52.335644 30201 net.cpp:406] relu3_3 <- conv3_3
I0419 10:24:52.335652 30201 net.cpp:367] relu3_3 -> conv3_3 (in-place)
I0419 10:24:52.335878 30201 net.cpp:122] Setting up relu3_3
I0419 10:24:52.335891 30201 net.cpp:129] Top shape: 1 256 178 127 (5787136)
I0419 10:24:52.335894 30201 net.cpp:137] Memory required for data: 744695308
I0419 10:24:52.335899 30201 layer_factory.hpp:77] Creating layer pool3
I0419 10:24:52.335906 30201 net.cpp:84] Creating Layer pool3
I0419 10:24:52.335911 30201 net.cpp:406] pool3 <- conv3_3
I0419 10:24:52.335916 30201 net.cpp:380] pool3 -> pool3
I0419 10:24:52.335973 30201 net.cpp:122] Setting up pool3
I0419 10:24:52.335983 30201 net.cpp:129] Top shape: 1 256 89 64 (1458176)
I0419 10:24:52.335986 30201 net.cpp:137] Memory required for data: 750528012
I0419 10:24:52.335990 30201 layer_factory.hpp:77] Creating layer pool3_pool3_0_split
I0419 10:24:52.335999 30201 net.cpp:84] Creating Layer pool3_pool3_0_split
I0419 10:24:52.336004 30201 net.cpp:406] pool3_pool3_0_split <- pool3
I0419 10:24:52.336009 30201 net.cpp:380] pool3_pool3_0_split -> pool3_pool3_0_split_0
I0419 10:24:52.336016 30201 net.cpp:380] pool3_pool3_0_split -> pool3_pool3_0_split_1
I0419 10:24:52.336064 30201 net.cpp:122] Setting up pool3_pool3_0_split
I0419 10:24:52.336072 30201 net.cpp:129] Top shape: 1 256 89 64 (1458176)
I0419 10:24:52.336077 30201 net.cpp:129] Top shape: 1 256 89 64 (1458176)
I0419 10:24:52.336081 30201 net.cpp:137] Memory required for data: 762193420
I0419 10:24:52.336084 30201 layer_factory.hpp:77] Creating layer conv4_1
I0419 10:24:52.336097 30201 net.cpp:84] Creating Layer conv4_1
I0419 10:24:52.336100 30201 net.cpp:406] conv4_1 <- pool3_pool3_0_split_0
I0419 10:24:52.336107 30201 net.cpp:380] conv4_1 -> conv4_1
I0419 10:24:52.344692 30201 net.cpp:122] Setting up conv4_1
I0419 10:24:52.344713 30201 net.cpp:129] Top shape: 1 512 89 64 (2916352)
I0419 10:24:52.344728 30201 net.cpp:137] Memory required for data: 773858828
I0419 10:24:52.344738 30201 layer_factory.hpp:77] Creating layer relu4_1
I0419 10:24:52.344748 30201 net.cpp:84] Creating Layer relu4_1
I0419 10:24:52.344753 30201 net.cpp:406] relu4_1 <- conv4_1
I0419 10:24:52.344761 30201 net.cpp:367] relu4_1 -> conv4_1 (in-place)
I0419 10:24:52.345010 30201 net.cpp:122] Setting up relu4_1
I0419 10:24:52.345023 30201 net.cpp:129] Top shape: 1 512 89 64 (2916352)
I0419 10:24:52.345027 30201 net.cpp:137] Memory required for data: 785524236
I0419 10:24:52.345032 30201 layer_factory.hpp:77] Creating layer conv4_2
I0419 10:24:52.345044 30201 net.cpp:84] Creating Layer conv4_2
I0419 10:24:52.345048 30201 net.cpp:406] conv4_2 <- conv4_1
I0419 10:24:52.345055 30201 net.cpp:380] conv4_2 -> conv4_2
I0419 10:24:52.362205 30201 net.cpp:122] Setting up conv4_2
I0419 10:24:52.362227 30201 net.cpp:129] Top shape: 1 512 89 64 (2916352)
I0419 10:24:52.362232 30201 net.cpp:137] Memory required for data: 797189644
I0419 10:24:52.362249 30201 layer_factory.hpp:77] Creating layer relu4_2
I0419 10:24:52.362259 30201 net.cpp:84] Creating Layer relu4_2
I0419 10:24:52.362269 30201 net.cpp:406] relu4_2 <- conv4_2
I0419 10:24:52.362278 30201 net.cpp:367] relu4_2 -> conv4_2 (in-place)
I0419 10:24:52.362663 30201 net.cpp:122] Setting up relu4_2
I0419 10:24:52.362686 30201 net.cpp:129] Top shape: 1 512 89 64 (2916352)
I0419 10:24:52.362694 30201 net.cpp:137] Memory required for data: 808855052
I0419 10:24:52.362700 30201 layer_factory.hpp:77] Creating layer conv4_3
I0419 10:24:52.362720 30201 net.cpp:84] Creating Layer conv4_3
I0419 10:24:52.362727 30201 net.cpp:406] conv4_3 <- conv4_2
I0419 10:24:52.362738 30201 net.cpp:380] conv4_3 -> conv4_3
I0419 10:24:52.373575 30201 net.cpp:122] Setting up conv4_3
I0419 10:24:52.373597 30201 net.cpp:129] Top shape: 1 512 89 64 (2916352)
I0419 10:24:52.373611 30201 net.cpp:137] Memory required for data: 820520460
I0419 10:24:52.373620 30201 layer_factory.hpp:77] Creating layer relu4_3
I0419 10:24:52.373628 30201 net.cpp:84] Creating Layer relu4_3
I0419 10:24:52.373634 30201 net.cpp:406] relu4_3 <- conv4_3
I0419 10:24:52.373644 30201 net.cpp:367] relu4_3 -> conv4_3 (in-place)
I0419 10:24:52.373859 30201 net.cpp:122] Setting up relu4_3
I0419 10:24:52.373872 30201 net.cpp:129] Top shape: 1 512 89 64 (2916352)
I0419 10:24:52.373875 30201 net.cpp:137] Memory required for data: 832185868
I0419 10:24:52.373879 30201 layer_factory.hpp:77] Creating layer pool4
I0419 10:24:52.373888 30201 net.cpp:84] Creating Layer pool4
I0419 10:24:52.373891 30201 net.cpp:406] pool4 <- conv4_3
I0419 10:24:52.373898 30201 net.cpp:380] pool4 -> pool4
I0419 10:24:52.373963 30201 net.cpp:122] Setting up pool4
I0419 10:24:52.373973 30201 net.cpp:129] Top shape: 1 512 45 32 (737280)
I0419 10:24:52.373977 30201 net.cpp:137] Memory required for data: 835134988
I0419 10:24:52.373980 30201 layer_factory.hpp:77] Creating layer pool4_pool4_0_split
I0419 10:24:52.373987 30201 net.cpp:84] Creating Layer pool4_pool4_0_split
I0419 10:24:52.373991 30201 net.cpp:406] pool4_pool4_0_split <- pool4
I0419 10:24:52.373999 30201 net.cpp:380] pool4_pool4_0_split -> pool4_pool4_0_split_0
I0419 10:24:52.374006 30201 net.cpp:380] pool4_pool4_0_split -> pool4_pool4_0_split_1
I0419 10:24:52.374047 30201 net.cpp:122] Setting up pool4_pool4_0_split
I0419 10:24:52.374054 30201 net.cpp:129] Top shape: 1 512 45 32 (737280)
I0419 10:24:52.374059 30201 net.cpp:129] Top shape: 1 512 45 32 (737280)
I0419 10:24:52.374063 30201 net.cpp:137] Memory required for data: 841033228
I0419 10:24:52.374066 30201 layer_factory.hpp:77] Creating layer conv5_1
I0419 10:24:52.374079 30201 net.cpp:84] Creating Layer conv5_1
I0419 10:24:52.374083 30201 net.cpp:406] conv5_1 <- pool4_pool4_0_split_0
I0419 10:24:52.374089 30201 net.cpp:380] conv5_1 -> conv5_1
I0419 10:24:52.385609 30201 net.cpp:122] Setting up conv5_1
I0419 10:24:52.385634 30201 net.cpp:129] Top shape: 1 512 45 32 (737280)
I0419 10:24:52.385640 30201 net.cpp:137] Memory required for data: 843982348
I0419 10:24:52.385649 30201 layer_factory.hpp:77] Creating layer relu5_1
I0419 10:24:52.385659 30201 net.cpp:84] Creating Layer relu5_1
I0419 10:24:52.385666 30201 net.cpp:406] relu5_1 <- conv5_1
I0419 10:24:52.385676 30201 net.cpp:367] relu5_1 -> conv5_1 (in-place)
I0419 10:24:52.386394 30201 net.cpp:122] Setting up relu5_1
I0419 10:24:52.386421 30201 net.cpp:129] Top shape: 1 512 45 32 (737280)
I0419 10:24:52.386427 30201 net.cpp:137] Memory required for data: 846931468
I0419 10:24:52.386432 30201 layer_factory.hpp:77] Creating layer conv5_2
I0419 10:24:52.386445 30201 net.cpp:84] Creating Layer conv5_2
I0419 10:24:52.386451 30201 net.cpp:406] conv5_2 <- conv5_1
I0419 10:24:52.386457 30201 net.cpp:380] conv5_2 -> conv5_2
I0419 10:24:52.398507 30201 net.cpp:122] Setting up conv5_2
I0419 10:24:52.398550 30201 net.cpp:129] Top shape: 1 512 45 32 (737280)
I0419 10:24:52.398556 30201 net.cpp:137] Memory required for data: 849880588
I0419 10:24:52.398567 30201 layer_factory.hpp:77] Creating layer relu5_2
I0419 10:24:52.398594 30201 net.cpp:84] Creating Layer relu5_2
I0419 10:24:52.398602 30201 net.cpp:406] relu5_2 <- conv5_2
I0419 10:24:52.398612 30201 net.cpp:367] relu5_2 -> conv5_2 (in-place)
I0419 10:24:52.399493 30201 net.cpp:122] Setting up relu5_2
I0419 10:24:52.399513 30201 net.cpp:129] Top shape: 1 512 45 32 (737280)
I0419 10:24:52.399518 30201 net.cpp:137] Memory required for data: 852829708
I0419 10:24:52.399524 30201 layer_factory.hpp:77] Creating layer conv5_3
I0419 10:24:52.399539 30201 net.cpp:84] Creating Layer conv5_3
I0419 10:24:52.399545 30201 net.cpp:406] conv5_3 <- conv5_2
I0419 10:24:52.399561 30201 net.cpp:380] conv5_3 -> conv5_3
I0419 10:24:52.409344 30201 net.cpp:122] Setting up conv5_3
I0419 10:24:52.409370 30201 net.cpp:129] Top shape: 1 512 45 32 (737280)
I0419 10:24:52.409374 30201 net.cpp:137] Memory required for data: 855778828
I0419 10:24:52.409384 30201 layer_factory.hpp:77] Creating layer relu5_3
I0419 10:24:52.409394 30201 net.cpp:84] Creating Layer relu5_3
I0419 10:24:52.409399 30201 net.cpp:406] relu5_3 <- conv5_3
I0419 10:24:52.409409 30201 net.cpp:367] relu5_3 -> conv5_3 (in-place)
I0419 10:24:52.409651 30201 net.cpp:122] Setting up relu5_3
I0419 10:24:52.409664 30201 net.cpp:129] Top shape: 1 512 45 32 (737280)
I0419 10:24:52.409668 30201 net.cpp:137] Memory required for data: 858727948
I0419 10:24:52.409672 30201 layer_factory.hpp:77] Creating layer pool5
I0419 10:24:52.409693 30201 net.cpp:84] Creating Layer pool5
I0419 10:24:52.409696 30201 net.cpp:406] pool5 <- conv5_3
I0419 10:24:52.409703 30201 net.cpp:380] pool5 -> pool5
I0419 10:24:52.409759 30201 net.cpp:122] Setting up pool5
I0419 10:24:52.409768 30201 net.cpp:129] Top shape: 1 512 23 16 (188416)
I0419 10:24:52.409772 30201 net.cpp:137] Memory required for data: 859481612
I0419 10:24:52.409775 30201 layer_factory.hpp:77] Creating layer fc6
I0419 10:24:52.409787 30201 net.cpp:84] Creating Layer fc6
I0419 10:24:52.409791 30201 net.cpp:406] fc6 <- pool5
I0419 10:24:52.409799 30201 net.cpp:380] fc6 -> fc6
I0419 10:24:52.710892 30201 net.cpp:122] Setting up fc6
I0419 10:24:52.710945 30201 net.cpp:129] Top shape: 1 4096 17 10 (696320)
I0419 10:24:52.710950 30201 net.cpp:137] Memory required for data: 862266892
I0419 10:24:52.710969 30201 layer_factory.hpp:77] Creating layer relu6
I0419 10:24:52.710988 30201 net.cpp:84] Creating Layer relu6
I0419 10:24:52.711005 30201 net.cpp:406] relu6 <- fc6
I0419 10:24:52.711015 30201 net.cpp:367] relu6 -> fc6 (in-place)
I0419 10:24:52.711205 30201 net.cpp:122] Setting up relu6
I0419 10:24:52.711215 30201 net.cpp:129] Top shape: 1 4096 17 10 (696320)
I0419 10:24:52.711220 30201 net.cpp:137] Memory required for data: 865052172
I0419 10:24:52.711222 30201 layer_factory.hpp:77] Creating layer drop6
I0419 10:24:52.711236 30201 net.cpp:84] Creating Layer drop6
I0419 10:24:52.711241 30201 net.cpp:406] drop6 <- fc6
I0419 10:24:52.711244 30201 net.cpp:367] drop6 -> fc6 (in-place)
I0419 10:24:52.711283 30201 net.cpp:122] Setting up drop6
I0419 10:24:52.711289 30201 net.cpp:129] Top shape: 1 4096 17 10 (696320)
I0419 10:24:52.711292 30201 net.cpp:137] Memory required for data: 867837452
I0419 10:24:52.711297 30201 layer_factory.hpp:77] Creating layer fc7
I0419 10:24:52.711308 30201 net.cpp:84] Creating Layer fc7
I0419 10:24:52.711310 30201 net.cpp:406] fc7 <- fc6
I0419 10:24:52.711318 30201 net.cpp:380] fc7 -> fc7
I0419 10:24:52.765859 30201 net.cpp:122] Setting up fc7
I0419 10:24:52.765907 30201 net.cpp:129] Top shape: 1 4096 17 10 (696320)
I0419 10:24:52.765911 30201 net.cpp:137] Memory required for data: 870622732
I0419 10:24:52.765923 30201 layer_factory.hpp:77] Creating layer relu7
I0419 10:24:52.765938 30201 net.cpp:84] Creating Layer relu7
I0419 10:24:52.765944 30201 net.cpp:406] relu7 <- fc7
I0419 10:24:52.765954 30201 net.cpp:367] relu7 -> fc7 (in-place)
I0419 10:24:52.766160 30201 net.cpp:122] Setting up relu7
I0419 10:24:52.766186 30201 net.cpp:129] Top shape: 1 4096 17 10 (696320)
I0419 10:24:52.766189 30201 net.cpp:137] Memory required for data: 873408012
I0419 10:24:52.766192 30201 layer_factory.hpp:77] Creating layer drop7
I0419 10:24:52.766203 30201 net.cpp:84] Creating Layer drop7
I0419 10:24:52.766207 30201 net.cpp:406] drop7 <- fc7
I0419 10:24:52.766211 30201 net.cpp:367] drop7 -> fc7 (in-place)
I0419 10:24:52.766245 30201 net.cpp:122] Setting up drop7
I0419 10:24:52.766250 30201 net.cpp:129] Top shape: 1 4096 17 10 (696320)
I0419 10:24:52.766253 30201 net.cpp:137] Memory required for data: 876193292
I0419 10:24:52.766257 30201 layer_factory.hpp:77] Creating layer score_fr-new
I0419 10:24:52.766268 30201 net.cpp:84] Creating Layer score_fr-new
I0419 10:24:52.766270 30201 net.cpp:406] score_fr-new <- fc7
I0419 10:24:52.766281 30201 net.cpp:380] score_fr-new -> score_fr-new
I0419 10:24:52.768236 30201 net.cpp:122] Setting up score_fr-new
I0419 10:24:52.768249 30201 net.cpp:129] Top shape: 1 3 17 10 (510)
I0419 10:24:52.768268 30201 net.cpp:137] Memory required for data: 876195332
I0419 10:24:52.768276 30201 layer_factory.hpp:77] Creating layer upscore2-new
I0419 10:24:52.768291 30201 net.cpp:84] Creating Layer upscore2-new
I0419 10:24:52.768296 30201 net.cpp:406] upscore2-new <- score_fr-new
I0419 10:24:52.768303 30201 net.cpp:380] upscore2-new -> upscore2-new
I0419 10:24:52.768514 30201 net.cpp:122] Setting up upscore2-new
I0419 10:24:52.768524 30201 net.cpp:129] Top shape: 1 3 36 22 (2376)
I0419 10:24:52.768527 30201 net.cpp:137] Memory required for data: 876204836
I0419 10:24:52.768541 30201 layer_factory.hpp:77] Creating layer upscore2-new_upscore2-new_0_split
I0419 10:24:52.768549 30201 net.cpp:84] Creating Layer upscore2-new_upscore2-new_0_split
I0419 10:24:52.768553 30201 net.cpp:406] upscore2-new_upscore2-new_0_split <- upscore2-new
I0419 10:24:52.768559 30201 net.cpp:380] upscore2-new_upscore2-new_0_split -> upscore2-new_upscore2-new_0_split_0
I0419 10:24:52.768565 30201 net.cpp:380] upscore2-new_upscore2-new_0_split -> upscore2-new_upscore2-new_0_split_1
I0419 10:24:52.768615 30201 net.cpp:122] Setting up upscore2-new_upscore2-new_0_split
I0419 10:24:52.768620 30201 net.cpp:129] Top shape: 1 3 36 22 (2376)
I0419 10:24:52.768623 30201 net.cpp:129] Top shape: 1 3 36 22 (2376)
I0419 10:24:52.768626 30201 net.cpp:137] Memory required for data: 876223844
I0419 10:24:52.768630 30201 layer_factory.hpp:77] Creating layer score_pool4-new
I0419 10:24:52.768641 30201 net.cpp:84] Creating Layer score_pool4-new
I0419 10:24:52.768646 30201 net.cpp:406] score_pool4-new <- pool4_pool4_0_split_1
I0419 10:24:52.768651 30201 net.cpp:380] score_pool4-new -> score_pool4-new
I0419 10:24:52.769881 30201 net.cpp:122] Setting up score_pool4-new
I0419 10:24:52.769896 30201 net.cpp:129] Top shape: 1 3 45 32 (4320)
I0419 10:24:52.769913 30201 net.cpp:137] Memory required for data: 876241124
I0419 10:24:52.769920 30201 layer_factory.hpp:77] Creating layer score_pool4c
I0419 10:24:52.769934 30201 net.cpp:84] Creating Layer score_pool4c
I0419 10:24:52.769938 30201 net.cpp:406] score_pool4c <- score_pool4-new
I0419 10:24:52.769943 30201 net.cpp:406] score_pool4c <- upscore2-new_upscore2-new_0_split_0
I0419 10:24:52.769948 30201 net.cpp:380] score_pool4c -> score_pool4c
I0419 10:24:52.769989 30201 net.cpp:122] Setting up score_pool4c
I0419 10:24:52.769995 30201 net.cpp:129] Top shape: 1 3 36 22 (2376)
I0419 10:24:52.769999 30201 net.cpp:137] Memory required for data: 876250628
I0419 10:24:52.770002 30201 layer_factory.hpp:77] Creating layer fuse_pool4
I0419 10:24:52.770010 30201 net.cpp:84] Creating Layer fuse_pool4
I0419 10:24:52.770014 30201 net.cpp:406] fuse_pool4 <- upscore2-new_upscore2-new_0_split_1
I0419 10:24:52.770017 30201 net.cpp:406] fuse_pool4 <- score_pool4c
I0419 10:24:52.770023 30201 net.cpp:380] fuse_pool4 -> fuse_pool4
I0419 10:24:52.770051 30201 net.cpp:122] Setting up fuse_pool4
I0419 10:24:52.770056 30201 net.cpp:129] Top shape: 1 3 36 22 (2376)
I0419 10:24:52.770058 30201 net.cpp:137] Memory required for data: 876260132
I0419 10:24:52.770061 30201 layer_factory.hpp:77] Creating layer upscore_pool4-new
I0419 10:24:52.770069 30201 net.cpp:84] Creating Layer upscore_pool4-new
I0419 10:24:52.770072 30201 net.cpp:406] upscore_pool4-new <- fuse_pool4
I0419 10:24:52.770079 30201 net.cpp:380] upscore_pool4-new -> upscore_pool4-new
I0419 10:24:52.770293 30201 net.cpp:122] Setting up upscore_pool4-new
I0419 10:24:52.770303 30201 net.cpp:129] Top shape: 1 3 74 46 (10212)
I0419 10:24:52.770306 30201 net.cpp:137] Memory required for data: 876300980
I0419 10:24:52.770311 30201 layer_factory.hpp:77] Creating layer upscore_pool4-new_upscore_pool4-new_0_split
I0419 10:24:52.770316 30201 net.cpp:84] Creating Layer upscore_pool4-new_upscore_pool4-new_0_split
I0419 10:24:52.770319 30201 net.cpp:406] upscore_pool4-new_upscore_pool4-new_0_split <- upscore_pool4-new
I0419 10:24:52.770326 30201 net.cpp:380] upscore_pool4-new_upscore_pool4-new_0_split -> upscore_pool4-new_upscore_pool4-new_0_split_0
I0419 10:24:52.770334 30201 net.cpp:380] upscore_pool4-new_upscore_pool4-new_0_split -> upscore_pool4-new_upscore_pool4-new_0_split_1
I0419 10:24:52.770366 30201 net.cpp:122] Setting up upscore_pool4-new_upscore_pool4-new_0_split
I0419 10:24:52.770371 30201 net.cpp:129] Top shape: 1 3 74 46 (10212)
I0419 10:24:52.770375 30201 net.cpp:129] Top shape: 1 3 74 46 (10212)
I0419 10:24:52.770378 30201 net.cpp:137] Memory required for data: 876382676
I0419 10:24:52.770381 30201 layer_factory.hpp:77] Creating layer score_pool3-new
I0419 10:24:52.770395 30201 net.cpp:84] Creating Layer score_pool3-new
I0419 10:24:52.770397 30201 net.cpp:406] score_pool3-new <- pool3_pool3_0_split_1
I0419 10:24:52.770404 30201 net.cpp:380] score_pool3-new -> score_pool3-new
I0419 10:24:52.771667 30201 net.cpp:122] Setting up score_pool3-new
I0419 10:24:52.771697 30201 net.cpp:129] Top shape: 1 3 89 64 (17088)
I0419 10:24:52.771700 30201 net.cpp:137] Memory required for data: 876451028
I0419 10:24:52.771706 30201 layer_factory.hpp:77] Creating layer score_pool3c
I0419 10:24:52.771715 30201 net.cpp:84] Creating Layer score_pool3c
I0419 10:24:52.771718 30201 net.cpp:406] score_pool3c <- score_pool3-new
I0419 10:24:52.771723 30201 net.cpp:406] score_pool3c <- upscore_pool4-new_upscore_pool4-new_0_split_0
I0419 10:24:52.771728 30201 net.cpp:380] score_pool3c -> score_pool3c
I0419 10:24:52.771757 30201 net.cpp:122] Setting up score_pool3c
I0419 10:24:52.771762 30201 net.cpp:129] Top shape: 1 3 74 46 (10212)
I0419 10:24:52.771765 30201 net.cpp:137] Memory required for data: 876491876
I0419 10:24:52.771769 30201 layer_factory.hpp:77] Creating layer fuse_pool3
I0419 10:24:52.771777 30201 net.cpp:84] Creating Layer fuse_pool3
I0419 10:24:52.771780 30201 net.cpp:406] fuse_pool3 <- upscore_pool4-new_upscore_pool4-new_0_split_1
I0419 10:24:52.771785 30201 net.cpp:406] fuse_pool3 <- score_pool3c
I0419 10:24:52.771788 30201 net.cpp:380] fuse_pool3 -> fuse_pool3
I0419 10:24:52.771812 30201 net.cpp:122] Setting up fuse_pool3
I0419 10:24:52.771817 30201 net.cpp:129] Top shape: 1 3 74 46 (10212)
I0419 10:24:52.771821 30201 net.cpp:137] Memory required for data: 876532724
I0419 10:24:52.771823 30201 layer_factory.hpp:77] Creating layer upscore8-new
I0419 10:24:52.771831 30201 net.cpp:84] Creating Layer upscore8-new
I0419 10:24:52.771834 30201 net.cpp:406] upscore8-new <- fuse_pool3
I0419 10:24:52.771838 30201 net.cpp:380] upscore8-new -> upscore8-new
I0419 10:24:52.772047 30201 net.cpp:122] Setting up upscore8-new
I0419 10:24:52.772056 30201 net.cpp:129] Top shape: 1 3 600 376 (676800)
I0419 10:24:52.772059 30201 net.cpp:137] Memory required for data: 879239924
I0419 10:24:52.772065 30201 layer_factory.hpp:77] Creating layer upscore8_cropped
I0419 10:24:52.772071 30201 net.cpp:84] Creating Layer upscore8_cropped
I0419 10:24:52.772074 30201 net.cpp:406] upscore8_cropped <- upscore8-new
I0419 10:24:52.772087 30201 net.cpp:406] upscore8_cropped <- data_data_0_split_1
I0419 10:24:52.772094 30201 net.cpp:380] upscore8_cropped -> upscore8_cropped
I0419 10:24:52.772115 30201 net.cpp:122] Setting up upscore8_cropped
I0419 10:24:52.772120 30201 net.cpp:129] Top shape: 1 3 512 310 (476160)
I0419 10:24:52.772123 30201 net.cpp:137] Memory required for data: 881144564
I0419 10:24:52.772126 30201 layer_factory.hpp:77] Creating layer score
I0419 10:24:52.772138 30201 net.cpp:84] Creating Layer score
I0419 10:24:52.772142 30201 net.cpp:406] score <- upscore8_cropped
I0419 10:24:52.772146 30201 net.cpp:380] score -> score
I0419 10:24:52.776252 30201 net.cpp:122] Setting up score
I0419 10:24:52.776309 30201 net.cpp:129] Top shape: 1 3 512 310 (476160)
I0419 10:24:52.776319 30201 net.cpp:137] Memory required for data: 883049204
I0419 10:24:52.776338 30201 layer_factory.hpp:77] Creating layer score_score_0_split
I0419 10:24:52.776367 30201 net.cpp:84] Creating Layer score_score_0_split
I0419 10:24:52.776376 30201 net.cpp:406] score_score_0_split <- score
I0419 10:24:52.776394 30201 net.cpp:380] score_score_0_split -> score_score_0_split_0
I0419 10:24:52.776412 30201 net.cpp:380] score_score_0_split -> score_score_0_split_1
I0419 10:24:52.776509 30201 net.cpp:122] Setting up score_score_0_split
I0419 10:24:52.776525 30201 net.cpp:129] Top shape: 1 3 512 310 (476160)
I0419 10:24:52.776533 30201 net.cpp:129] Top shape: 1 3 512 310 (476160)
I0419 10:24:52.776540 30201 net.cpp:137] Memory required for data: 886858484
I0419 10:24:52.776546 30201 layer_factory.hpp:77] Creating layer prob
I0419 10:24:52.776562 30201 net.cpp:84] Creating Layer prob
I0419 10:24:52.776569 30201 net.cpp:406] prob <- score_score_0_split_0
I0419 10:24:52.776581 30201 net.cpp:380] prob -> prob
I0419 10:24:52.777060 30201 net.cpp:122] Setting up prob
I0419 10:24:52.777101 30201 net.cpp:129] Top shape: 1 3 512 310 (476160)
I0419 10:24:52.777108 30201 net.cpp:137] Memory required for data: 888763124
I0419 10:24:52.777133 30201 layer_factory.hpp:77] Creating layer prob_prob_0_split
I0419 10:24:52.777159 30201 net.cpp:84] Creating Layer prob_prob_0_split
I0419 10:24:52.777168 30201 net.cpp:406] prob_prob_0_split <- prob
I0419 10:24:52.777178 30201 net.cpp:380] prob_prob_0_split -> prob_prob_0_split_0
I0419 10:24:52.777190 30201 net.cpp:380] prob_prob_0_split -> prob_prob_0_split_1
I0419 10:24:52.777269 30201 net.cpp:122] Setting up prob_prob_0_split
I0419 10:24:52.777284 30201 net.cpp:129] Top shape: 1 3 512 310 (476160)
I0419 10:24:52.777293 30201 net.cpp:129] Top shape: 1 3 512 310 (476160)
I0419 10:24:52.777299 30201 net.cpp:137] Memory required for data: 892572404
I0419 10:24:52.777305 30201 layer_factory.hpp:77] Creating layer saliency
I0419 10:24:52.777335 30201 net.cpp:84] Creating Layer saliency
I0419 10:24:52.777351 30201 net.cpp:406] saliency <- prob_prob_0_split_0
I0419 10:24:52.777362 30201 net.cpp:380] saliency -> saliency
I0419 10:24:52.780828 30201 net.cpp:122] Setting up saliency
I0419 10:24:52.780866 30201 net.cpp:129] Top shape: 1 3 512 310 (476160)
I0419 10:24:52.780874 30201 net.cpp:137] Memory required for data: 894477044
I0419 10:24:52.780890 30201 layer_factory.hpp:77] Creating layer saliency_data
I0419 10:24:52.780905 30201 net.cpp:84] Creating Layer saliency_data
I0419 10:24:52.780923 30201 net.cpp:406] saliency_data <- data_data_0_split_2
I0419 10:24:52.780933 30201 net.cpp:406] saliency_data <- saliency
I0419 10:24:52.780943 30201 net.cpp:380] saliency_data -> saliency_data
I0419 10:24:52.781008 30201 net.cpp:122] Setting up saliency_data
I0419 10:24:52.781023 30201 net.cpp:129] Top shape: 1 3 512 310 (476160)
I0419 10:24:52.781029 30201 net.cpp:137] Memory required for data: 896381684
I0419 10:24:52.781036 30201 layer_factory.hpp:77] Creating layer crop
I0419 10:24:52.782053 30201 net.cpp:84] Creating Layer crop
I0419 10:24:52.782073 30201 net.cpp:406] crop <- prob_prob_0_split_1
I0419 10:24:52.782094 30201 net.cpp:406] crop <- saliency_data
I0419 10:24:52.782110 30201 net.cpp:406] crop <- crop_margin
I0419 10:24:52.782119 30201 net.cpp:406] crop <- crop_prob
I0419 10:24:52.782126 30201 net.cpp:406] crop <- crop_sample_batch
I0419 10:24:52.782145 30201 net.cpp:406] crop <- label_data_1_split_0
I0419 10:24:52.782156 30201 net.cpp:380] crop -> data-R
I0419 10:24:52.782192 30201 net.cpp:380] crop -> crop_info
I0419 10:24:52.795348 30201 net.cpp:122] Setting up crop
I0419 10:24:52.795387 30201 net.cpp:129] Top shape: 1 3 512 310 (476160)
I0419 10:24:52.795392 30201 net.cpp:129] Top shape: 1 2 4 (8)
I0419 10:24:52.795397 30201 net.cpp:137] Memory required for data: 898286356
I0419 10:24:52.795414 30201 layer_factory.hpp:77] Creating layer data-R_crop_0_split
I0419 10:24:52.795429 30201 net.cpp:84] Creating Layer data-R_crop_0_split
I0419 10:24:52.795434 30201 net.cpp:406] data-R_crop_0_split <- data-R
I0419 10:24:52.795451 30201 net.cpp:380] data-R_crop_0_split -> data-R_crop_0_split_0
I0419 10:24:52.795462 30201 net.cpp:380] data-R_crop_0_split -> data-R_crop_0_split_1
I0419 10:24:52.795521 30201 net.cpp:122] Setting up data-R_crop_0_split
I0419 10:24:52.795543 30201 net.cpp:129] Top shape: 1 3 512 310 (476160)
I0419 10:24:52.795549 30201 net.cpp:129] Top shape: 1 3 512 310 (476160)
I0419 10:24:52.795553 30201 net.cpp:137] Memory required for data: 902095636
I0419 10:24:52.795557 30201 layer_factory.hpp:77] Creating layer conv1_1-R
I0419 10:24:52.795570 30201 net.cpp:84] Creating Layer conv1_1-R
I0419 10:24:52.795575 30201 net.cpp:406] conv1_1-R <- data-R_crop_0_split_0
I0419 10:24:52.795605 30201 net.cpp:380] conv1_1-R -> conv1_1-R
I0419 10:24:52.799731 30201 net.cpp:122] Setting up conv1_1-R
I0419 10:24:52.799749 30201 net.cpp:129] Top shape: 1 64 710 508 (23083520)
I0419 10:24:52.799764 30201 net.cpp:137] Memory required for data: 994429716
I0419 10:24:52.799777 30201 layer_factory.hpp:77] Creating layer relu1_1-R
I0419 10:24:52.799876 30201 net.cpp:84] Creating Layer relu1_1-R
I0419 10:24:52.799885 30201 net.cpp:406] relu1_1-R <- conv1_1-R
I0419 10:24:52.799892 30201 net.cpp:367] relu1_1-R -> conv1_1-R (in-place)
I0419 10:24:52.800133 30201 net.cpp:122] Setting up relu1_1-R
I0419 10:24:52.800146 30201 net.cpp:129] Top shape: 1 64 710 508 (23083520)
I0419 10:24:52.800150 30201 net.cpp:137] Memory required for data: 1086763796
I0419 10:24:52.800155 30201 layer_factory.hpp:77] Creating layer conv1_2-R
I0419 10:24:52.800165 30201 net.cpp:84] Creating Layer conv1_2-R
I0419 10:24:52.800169 30201 net.cpp:406] conv1_2-R <- conv1_1-R
I0419 10:24:52.800176 30201 net.cpp:380] conv1_2-R -> conv1_2-R
I0419 10:24:52.805402 30201 net.cpp:122] Setting up conv1_2-R
I0419 10:24:52.805424 30201 net.cpp:129] Top shape: 1 64 710 508 (23083520)
I0419 10:24:52.805439 30201 net.cpp:137] Memory required for data: 1179097876
I0419 10:24:52.805459 30201 layer_factory.hpp:77] Creating layer relu1_2-R
I0419 10:24:52.805467 30201 net.cpp:84] Creating Layer relu1_2-R
I0419 10:24:52.805472 30201 net.cpp:406] relu1_2-R <- conv1_2-R
I0419 10:24:52.805480 30201 net.cpp:367] relu1_2-R -> conv1_2-R (in-place)
I0419 10:24:52.805718 30201 net.cpp:122] Setting up relu1_2-R
I0419 10:24:52.805732 30201 net.cpp:129] Top shape: 1 64 710 508 (23083520)
I0419 10:24:52.805737 30201 net.cpp:137] Memory required for data: 1271431956
I0419 10:24:52.805742 30201 layer_factory.hpp:77] Creating layer pool1-R
I0419 10:24:52.805758 30201 net.cpp:84] Creating Layer pool1-R
I0419 10:24:52.805763 30201 net.cpp:406] pool1-R <- conv1_2-R
I0419 10:24:52.805769 30201 net.cpp:380] pool1-R -> pool1-R
I0419 10:24:52.805827 30201 net.cpp:122] Setting up pool1-R
I0419 10:24:52.805837 30201 net.cpp:129] Top shape: 1 64 355 254 (5770880)
I0419 10:24:52.805841 30201 net.cpp:137] Memory required for data: 1294515476
I0419 10:24:52.805845 30201 layer_factory.hpp:77] Creating layer conv2_1-R
I0419 10:24:52.805853 30201 net.cpp:84] Creating Layer conv2_1-R
I0419 10:24:52.805858 30201 net.cpp:406] conv2_1-R <- pool1-R
I0419 10:24:52.805866 30201 net.cpp:380] conv2_1-R -> conv2_1-R
I0419 10:24:52.808048 30201 net.cpp:122] Setting up conv2_1-R
I0419 10:24:52.808069 30201 net.cpp:129] Top shape: 1 128 355 254 (11541760)
I0419 10:24:52.808084 30201 net.cpp:137] Memory required for data: 1340682516
I0419 10:24:52.808094 30201 layer_factory.hpp:77] Creating layer relu2_1-R
I0419 10:24:52.808115 30201 net.cpp:84] Creating Layer relu2_1-R
I0419 10:24:52.808121 30201 net.cpp:406] relu2_1-R <- conv2_1-R
I0419 10:24:52.808128 30201 net.cpp:367] relu2_1-R -> conv2_1-R (in-place)
I0419 10:24:52.808409 30201 net.cpp:122] Setting up relu2_1-R
I0419 10:24:52.808423 30201 net.cpp:129] Top shape: 1 128 355 254 (11541760)
I0419 10:24:52.808429 30201 net.cpp:137] Memory required for data: 1386849556
I0419 10:24:52.808447 30201 layer_factory.hpp:77] Creating layer conv2_2-R
I0419 10:24:52.808460 30201 net.cpp:84] Creating Layer conv2_2-R
I0419 10:24:52.808465 30201 net.cpp:406] conv2_2-R <- conv2_1-R
I0419 10:24:52.808473 30201 net.cpp:380] conv2_2-R -> conv2_2-R
I0419 10:24:52.812364 30201 net.cpp:122] Setting up conv2_2-R
I0419 10:24:52.812384 30201 net.cpp:129] Top shape: 1 128 355 254 (11541760)
I0419 10:24:52.812389 30201 net.cpp:137] Memory required for data: 1433016596
I0419 10:24:52.812402 30201 layer_factory.hpp:77] Creating layer relu2_2-R
I0419 10:24:52.812412 30201 net.cpp:84] Creating Layer relu2_2-R
I0419 10:24:52.812417 30201 net.cpp:406] relu2_2-R <- conv2_2-R
I0419 10:24:52.812425 30201 net.cpp:367] relu2_2-R -> conv2_2-R (in-place)
I0419 10:24:52.814448 30201 net.cpp:122] Setting up relu2_2-R
I0419 10:24:52.814471 30201 net.cpp:129] Top shape: 1 128 355 254 (11541760)
I0419 10:24:52.814487 30201 net.cpp:137] Memory required for data: 1479183636
I0419 10:24:52.814492 30201 layer_factory.hpp:77] Creating layer pool2-R
I0419 10:24:52.814513 30201 net.cpp:84] Creating Layer pool2-R
I0419 10:24:52.814520 30201 net.cpp:406] pool2-R <- conv2_2-R
I0419 10:24:52.814528 30201 net.cpp:380] pool2-R -> pool2-R
I0419 10:24:52.814607 30201 net.cpp:122] Setting up pool2-R
I0419 10:24:52.814620 30201 net.cpp:129] Top shape: 1 128 178 127 (2893568)
I0419 10:24:52.814623 30201 net.cpp:137] Memory required for data: 1490757908
I0419 10:24:52.814628 30201 layer_factory.hpp:77] Creating layer conv3_1-R
I0419 10:24:52.814640 30201 net.cpp:84] Creating Layer conv3_1-R
I0419 10:24:52.814646 30201 net.cpp:406] conv3_1-R <- pool2-R
I0419 10:24:52.814652 30201 net.cpp:380] conv3_1-R -> conv3_1-R
I0419 10:24:52.822947 30201 net.cpp:122] Setting up conv3_1-R
I0419 10:24:52.822968 30201 net.cpp:129] Top shape: 1 256 178 127 (5787136)
I0419 10:24:52.822973 30201 net.cpp:137] Memory required for data: 1513906452
I0419 10:24:52.822999 30201 layer_factory.hpp:77] Creating layer relu3_1-R
I0419 10:24:52.823007 30201 net.cpp:84] Creating Layer relu3_1-R
I0419 10:24:52.823014 30201 net.cpp:406] relu3_1-R <- conv3_1-R
I0419 10:24:52.823020 30201 net.cpp:367] relu3_1-R -> conv3_1-R (in-place)
I0419 10:24:52.823292 30201 net.cpp:122] Setting up relu3_1-R
I0419 10:24:52.823307 30201 net.cpp:129] Top shape: 1 256 178 127 (5787136)
I0419 10:24:52.823312 30201 net.cpp:137] Memory required for data: 1537054996
I0419 10:24:52.823315 30201 layer_factory.hpp:77] Creating layer conv3_2-R
I0419 10:24:52.823334 30201 net.cpp:84] Creating Layer conv3_2-R
I0419 10:24:52.823340 30201 net.cpp:406] conv3_2-R <- conv3_1-R
I0419 10:24:52.823348 30201 net.cpp:380] conv3_2-R -> conv3_2-R
I0419 10:24:52.828218 30201 net.cpp:122] Setting up conv3_2-R
I0419 10:24:52.828254 30201 net.cpp:129] Top shape: 1 256 178 127 (5787136)
I0419 10:24:52.828263 30201 net.cpp:137] Memory required for data: 1560203540
I0419 10:24:52.828275 30201 layer_factory.hpp:77] Creating layer relu3_2-R
I0419 10:24:52.828286 30201 net.cpp:84] Creating Layer relu3_2-R
I0419 10:24:52.828294 30201 net.cpp:406] relu3_2-R <- conv3_2-R
I0419 10:24:52.828313 30201 net.cpp:367] relu3_2-R -> conv3_2-R (in-place)
I0419 10:24:52.828649 30201 net.cpp:122] Setting up relu3_2-R
I0419 10:24:52.828672 30201 net.cpp:129] Top shape: 1 256 178 127 (5787136)
I0419 10:24:52.828678 30201 net.cpp:137] Memory required for data: 1583352084
I0419 10:24:52.828685 30201 layer_factory.hpp:77] Creating layer conv3_3-R
I0419 10:24:52.828701 30201 net.cpp:84] Creating Layer conv3_3-R
I0419 10:24:52.828707 30201 net.cpp:406] conv3_3-R <- conv3_2-R
I0419 10:24:52.828717 30201 net.cpp:380] conv3_3-R -> conv3_3-R
I0419 10:24:52.835564 30201 net.cpp:122] Setting up conv3_3-R
I0419 10:24:52.835604 30201 net.cpp:129] Top shape: 1 256 178 127 (5787136)
I0419 10:24:52.835611 30201 net.cpp:137] Memory required for data: 1606500628
I0419 10:24:52.835639 30201 layer_factory.hpp:77] Creating layer relu3_3-R
I0419 10:24:52.835661 30201 net.cpp:84] Creating Layer relu3_3-R
I0419 10:24:52.835669 30201 net.cpp:406] relu3_3-R <- conv3_3-R
I0419 10:24:52.835680 30201 net.cpp:367] relu3_3-R -> conv3_3-R (in-place)
I0419 10:24:52.836030 30201 net.cpp:122] Setting up relu3_3-R
I0419 10:24:52.836048 30201 net.cpp:129] Top shape: 1 256 178 127 (5787136)
I0419 10:24:52.836062 30201 net.cpp:137] Memory required for data: 1629649172
I0419 10:24:52.836069 30201 layer_factory.hpp:77] Creating layer pool3-R
I0419 10:24:52.836079 30201 net.cpp:84] Creating Layer pool3-R
I0419 10:24:52.836086 30201 net.cpp:406] pool3-R <- conv3_3-R
I0419 10:24:52.836097 30201 net.cpp:380] pool3-R -> pool3-R
I0419 10:24:52.836180 30201 net.cpp:122] Setting up pool3-R
I0419 10:24:52.836194 30201 net.cpp:129] Top shape: 1 256 89 64 (1458176)
I0419 10:24:52.836200 30201 net.cpp:137] Memory required for data: 1635481876
I0419 10:24:52.836206 30201 layer_factory.hpp:77] Creating layer pool3-R_pool3-R_0_split
I0419 10:24:52.836216 30201 net.cpp:84] Creating Layer pool3-R_pool3-R_0_split
I0419 10:24:52.836222 30201 net.cpp:406] pool3-R_pool3-R_0_split <- pool3-R
I0419 10:24:52.836238 30201 net.cpp:380] pool3-R_pool3-R_0_split -> pool3-R_pool3-R_0_split_0
I0419 10:24:52.836249 30201 net.cpp:380] pool3-R_pool3-R_0_split -> pool3-R_pool3-R_0_split_1
I0419 10:24:52.836313 30201 net.cpp:122] Setting up pool3-R_pool3-R_0_split
I0419 10:24:52.836324 30201 net.cpp:129] Top shape: 1 256 89 64 (1458176)
I0419 10:24:52.836333 30201 net.cpp:129] Top shape: 1 256 89 64 (1458176)
I0419 10:24:52.836338 30201 net.cpp:137] Memory required for data: 1647147284
I0419 10:24:52.836344 30201 layer_factory.hpp:77] Creating layer conv4_1-R
I0419 10:24:52.836356 30201 net.cpp:84] Creating Layer conv4_1-R
I0419 10:24:52.836364 30201 net.cpp:406] conv4_1-R <- pool3-R_pool3-R_0_split_0
I0419 10:24:52.836374 30201 net.cpp:380] conv4_1-R -> conv4_1-R
I0419 10:24:52.843860 30201 net.cpp:122] Setting up conv4_1-R
I0419 10:24:52.843899 30201 net.cpp:129] Top shape: 1 512 89 64 (2916352)
I0419 10:24:52.843907 30201 net.cpp:137] Memory required for data: 1658812692
I0419 10:24:52.843941 30201 layer_factory.hpp:77] Creating layer relu4_1-R
I0419 10:24:52.843971 30201 net.cpp:84] Creating Layer relu4_1-R
I0419 10:24:52.843979 30201 net.cpp:406] relu4_1-R <- conv4_1-R
I0419 10:24:52.843991 30201 net.cpp:367] relu4_1-R -> conv4_1-R (in-place)
I0419 10:24:52.844316 30201 net.cpp:122] Setting up relu4_1-R
I0419 10:24:52.844329 30201 net.cpp:129] Top shape: 1 512 89 64 (2916352)
I0419 10:24:52.844333 30201 net.cpp:137] Memory required for data: 1670478100
I0419 10:24:52.844344 30201 layer_factory.hpp:77] Creating layer conv4_2-R
I0419 10:24:52.844355 30201 net.cpp:84] Creating Layer conv4_2-R
I0419 10:24:52.844359 30201 net.cpp:406] conv4_2-R <- conv4_1-R
I0419 10:24:52.844367 30201 net.cpp:380] conv4_2-R -> conv4_2-R
I0419 10:24:52.855039 30201 net.cpp:122] Setting up conv4_2-R
I0419 10:24:52.855062 30201 net.cpp:129] Top shape: 1 512 89 64 (2916352)
I0419 10:24:52.855077 30201 net.cpp:137] Memory required for data: 1682143508
I0419 10:24:52.855087 30201 layer_factory.hpp:77] Creating layer relu4_2-R
I0419 10:24:52.855095 30201 net.cpp:84] Creating Layer relu4_2-R
I0419 10:24:52.855101 30201 net.cpp:406] relu4_2-R <- conv4_2-R
I0419 10:24:52.855109 30201 net.cpp:367] relu4_2-R -> conv4_2-R (in-place)
I0419 10:24:52.855338 30201 net.cpp:122] Setting up relu4_2-R
I0419 10:24:52.855352 30201 net.cpp:129] Top shape: 1 512 89 64 (2916352)
I0419 10:24:52.855357 30201 net.cpp:137] Memory required for data: 1693808916
I0419 10:24:52.855361 30201 layer_factory.hpp:77] Creating layer conv4_3-R
I0419 10:24:52.855371 30201 net.cpp:84] Creating Layer conv4_3-R
I0419 10:24:52.855376 30201 net.cpp:406] conv4_3-R <- conv4_2-R
I0419 10:24:52.855386 30201 net.cpp:380] conv4_3-R -> conv4_3-R
I0419 10:24:52.864950 30201 net.cpp:122] Setting up conv4_3-R
I0419 10:24:52.864994 30201 net.cpp:129] Top shape: 1 512 89 64 (2916352)
I0419 10:24:52.865000 30201 net.cpp:137] Memory required for data: 1705474324
I0419 10:24:52.865028 30201 layer_factory.hpp:77] Creating layer relu4_3-R
I0419 10:24:52.865039 30201 net.cpp:84] Creating Layer relu4_3-R
I0419 10:24:52.865046 30201 net.cpp:406] relu4_3-R <- conv4_3-R
I0419 10:24:52.865067 30201 net.cpp:367] relu4_3-R -> conv4_3-R (in-place)
I0419 10:24:52.865875 30201 net.cpp:122] Setting up relu4_3-R
I0419 10:24:52.865893 30201 net.cpp:129] Top shape: 1 512 89 64 (2916352)
I0419 10:24:52.865906 30201 net.cpp:137] Memory required for data: 1717139732
I0419 10:24:52.865911 30201 layer_factory.hpp:77] Creating layer pool4-R
I0419 10:24:52.865932 30201 net.cpp:84] Creating Layer pool4-R
I0419 10:24:52.865938 30201 net.cpp:406] pool4-R <- conv4_3-R
I0419 10:24:52.865947 30201 net.cpp:380] pool4-R -> pool4-R
I0419 10:24:52.866025 30201 net.cpp:122] Setting up pool4-R
I0419 10:24:52.866036 30201 net.cpp:129] Top shape: 1 512 45 32 (737280)
I0419 10:24:52.866041 30201 net.cpp:137] Memory required for data: 1720088852
I0419 10:24:52.866045 30201 layer_factory.hpp:77] Creating layer pool4-R_pool4-R_0_split
I0419 10:24:52.866055 30201 net.cpp:84] Creating Layer pool4-R_pool4-R_0_split
I0419 10:24:52.866058 30201 net.cpp:406] pool4-R_pool4-R_0_split <- pool4-R
I0419 10:24:52.866065 30201 net.cpp:380] pool4-R_pool4-R_0_split -> pool4-R_pool4-R_0_split_0
I0419 10:24:52.866075 30201 net.cpp:380] pool4-R_pool4-R_0_split -> pool4-R_pool4-R_0_split_1
I0419 10:24:52.866123 30201 net.cpp:122] Setting up pool4-R_pool4-R_0_split
I0419 10:24:52.866133 30201 net.cpp:129] Top shape: 1 512 45 32 (737280)
I0419 10:24:52.866139 30201 net.cpp:129] Top shape: 1 512 45 32 (737280)
I0419 10:24:52.866143 30201 net.cpp:137] Memory required for data: 1725987092
I0419 10:24:52.866148 30201 layer_factory.hpp:77] Creating layer conv5_1-R
I0419 10:24:52.866159 30201 net.cpp:84] Creating Layer conv5_1-R
I0419 10:24:52.866180 30201 net.cpp:406] conv5_1-R <- pool4-R_pool4-R_0_split_0
I0419 10:24:52.866189 30201 net.cpp:380] conv5_1-R -> conv5_1-R
I0419 10:24:52.875846 30201 net.cpp:122] Setting up conv5_1-R
I0419 10:24:52.875885 30201 net.cpp:129] Top shape: 1 512 45 32 (737280)
I0419 10:24:52.875890 30201 net.cpp:137] Memory required for data: 1728936212
I0419 10:24:52.875931 30201 layer_factory.hpp:77] Creating layer relu5_1-R
I0419 10:24:52.875954 30201 net.cpp:84] Creating Layer relu5_1-R
I0419 10:24:52.875962 30201 net.cpp:406] relu5_1-R <- conv5_1-R
I0419 10:24:52.875968 30201 net.cpp:367] relu5_1-R -> conv5_1-R (in-place)
I0419 10:24:52.876201 30201 net.cpp:122] Setting up relu5_1-R
I0419 10:24:52.876222 30201 net.cpp:129] Top shape: 1 512 45 32 (737280)
I0419 10:24:52.876226 30201 net.cpp:137] Memory required for data: 1731885332
I0419 10:24:52.876231 30201 layer_factory.hpp:77] Creating layer conv5_2-R
I0419 10:24:52.876243 30201 net.cpp:84] Creating Layer conv5_2-R
I0419 10:24:52.876247 30201 net.cpp:406] conv5_2-R <- conv5_1-R
I0419 10:24:52.876255 30201 net.cpp:380] conv5_2-R -> conv5_2-R
I0419 10:24:52.886288 30201 net.cpp:122] Setting up conv5_2-R
I0419 10:24:52.886332 30201 net.cpp:129] Top shape: 1 512 45 32 (737280)
I0419 10:24:52.886337 30201 net.cpp:137] Memory required for data: 1734834452
I0419 10:24:52.886349 30201 layer_factory.hpp:77] Creating layer relu5_2-R
I0419 10:24:52.886363 30201 net.cpp:84] Creating Layer relu5_2-R
I0419 10:24:52.886369 30201 net.cpp:406] relu5_2-R <- conv5_2-R
I0419 10:24:52.886378 30201 net.cpp:367] relu5_2-R -> conv5_2-R (in-place)
I0419 10:24:52.886621 30201 net.cpp:122] Setting up relu5_2-R
I0419 10:24:52.886646 30201 net.cpp:129] Top shape: 1 512 45 32 (737280)
I0419 10:24:52.886649 30201 net.cpp:137] Memory required for data: 1737783572
I0419 10:24:52.886653 30201 layer_factory.hpp:77] Creating layer conv5_3-R
I0419 10:24:52.886682 30201 net.cpp:84] Creating Layer conv5_3-R
I0419 10:24:52.886687 30201 net.cpp:406] conv5_3-R <- conv5_2-R
I0419 10:24:52.886695 30201 net.cpp:380] conv5_3-R -> conv5_3-R
I0419 10:24:52.904312 30201 net.cpp:122] Setting up conv5_3-R
I0419 10:24:52.904350 30201 net.cpp:129] Top shape: 1 512 45 32 (737280)
I0419 10:24:52.904355 30201 net.cpp:137] Memory required for data: 1740732692
I0419 10:24:52.904378 30201 layer_factory.hpp:77] Creating layer relu5_3-R
I0419 10:24:52.904388 30201 net.cpp:84] Creating Layer relu5_3-R
I0419 10:24:52.904394 30201 net.cpp:406] relu5_3-R <- conv5_3-R
I0419 10:24:52.904412 30201 net.cpp:367] relu5_3-R -> conv5_3-R (in-place)
I0419 10:24:52.904639 30201 net.cpp:122] Setting up relu5_3-R
I0419 10:24:52.904654 30201 net.cpp:129] Top shape: 1 512 45 32 (737280)
I0419 10:24:52.904657 30201 net.cpp:137] Memory required for data: 1743681812
I0419 10:24:52.904661 30201 layer_factory.hpp:77] Creating layer pool5-R
I0419 10:24:52.904670 30201 net.cpp:84] Creating Layer pool5-R
I0419 10:24:52.904675 30201 net.cpp:406] pool5-R <- conv5_3-R
I0419 10:24:52.904683 30201 net.cpp:380] pool5-R -> pool5-R
I0419 10:24:52.904744 30201 net.cpp:122] Setting up pool5-R
I0419 10:24:52.904754 30201 net.cpp:129] Top shape: 1 512 23 16 (188416)
I0419 10:24:52.904758 30201 net.cpp:137] Memory required for data: 1744435476
I0419 10:24:52.904762 30201 layer_factory.hpp:77] Creating layer fc6-R
I0419 10:24:52.904773 30201 net.cpp:84] Creating Layer fc6-R
I0419 10:24:52.904778 30201 net.cpp:406] fc6-R <- pool5-R
I0419 10:24:52.904786 30201 net.cpp:380] fc6-R -> fc6-R
I0419 10:24:53.256130 30201 net.cpp:122] Setting up fc6-R
I0419 10:24:53.256175 30201 net.cpp:129] Top shape: 1 4096 17 10 (696320)
I0419 10:24:53.256180 30201 net.cpp:137] Memory required for data: 1747220756
I0419 10:24:53.256191 30201 layer_factory.hpp:77] Creating layer relu6-R
I0419 10:24:53.256206 30201 net.cpp:84] Creating Layer relu6-R
I0419 10:24:53.256212 30201 net.cpp:406] relu6-R <- fc6-R
I0419 10:24:53.256222 30201 net.cpp:367] relu6-R -> fc6-R (in-place)
I0419 10:24:53.256402 30201 net.cpp:122] Setting up relu6-R
I0419 10:24:53.256438 30201 net.cpp:129] Top shape: 1 4096 17 10 (696320)
I0419 10:24:53.256441 30201 net.cpp:137] Memory required for data: 1750006036
I0419 10:24:53.256446 30201 layer_factory.hpp:77] Creating layer drop6-R
I0419 10:24:53.256454 30201 net.cpp:84] Creating Layer drop6-R
I0419 10:24:53.256458 30201 net.cpp:406] drop6-R <- fc6-R
I0419 10:24:53.256464 30201 net.cpp:367] drop6-R -> fc6-R (in-place)
I0419 10:24:53.256498 30201 net.cpp:122] Setting up drop6-R
I0419 10:24:53.256505 30201 net.cpp:129] Top shape: 1 4096 17 10 (696320)
I0419 10:24:53.256507 30201 net.cpp:137] Memory required for data: 1752791316
I0419 10:24:53.256510 30201 layer_factory.hpp:77] Creating layer fc7-R
I0419 10:24:53.256520 30201 net.cpp:84] Creating Layer fc7-R
I0419 10:24:53.256525 30201 net.cpp:406] fc7-R <- fc6-R
I0419 10:24:53.256531 30201 net.cpp:380] fc7-R -> fc7-R
I0419 10:24:53.309640 30201 net.cpp:122] Setting up fc7-R
I0419 10:24:53.309690 30201 net.cpp:129] Top shape: 1 4096 17 10 (696320)
I0419 10:24:53.309695 30201 net.cpp:137] Memory required for data: 1755576596
I0419 10:24:53.309707 30201 layer_factory.hpp:77] Creating layer relu7-R
I0419 10:24:53.309723 30201 net.cpp:84] Creating Layer relu7-R
I0419 10:24:53.309729 30201 net.cpp:406] relu7-R <- fc7-R
I0419 10:24:53.309736 30201 net.cpp:367] relu7-R -> fc7-R (in-place)
I0419 10:24:53.309950 30201 net.cpp:122] Setting up relu7-R
I0419 10:24:53.309962 30201 net.cpp:129] Top shape: 1 4096 17 10 (696320)
I0419 10:24:53.309965 30201 net.cpp:137] Memory required for data: 1758361876
I0419 10:24:53.309968 30201 layer_factory.hpp:77] Creating layer drop7-R
I0419 10:24:53.309976 30201 net.cpp:84] Creating Layer drop7-R
I0419 10:24:53.309980 30201 net.cpp:406] drop7-R <- fc7-R
I0419 10:24:53.309986 30201 net.cpp:367] drop7-R -> fc7-R (in-place)
I0419 10:24:53.310022 30201 net.cpp:122] Setting up drop7-R
I0419 10:24:53.310029 30201 net.cpp:129] Top shape: 1 4096 17 10 (696320)
I0419 10:24:53.310031 30201 net.cpp:137] Memory required for data: 1761147156
I0419 10:24:53.310036 30201 layer_factory.hpp:77] Creating layer score_fr-new-R
I0419 10:24:53.310047 30201 net.cpp:84] Creating Layer score_fr-new-R
I0419 10:24:53.310050 30201 net.cpp:406] score_fr-new-R <- fc7-R
I0419 10:24:53.310060 30201 net.cpp:380] score_fr-new-R -> score_fr-new-R
I0419 10:24:53.311476 30201 net.cpp:122] Setting up score_fr-new-R
I0419 10:24:53.311491 30201 net.cpp:129] Top shape: 1 3 17 10 (510)
I0419 10:24:53.311511 30201 net.cpp:137] Memory required for data: 1761149196
I0419 10:24:53.311517 30201 layer_factory.hpp:77] Creating layer upscore2-new-R
I0419 10:24:53.311527 30201 net.cpp:84] Creating Layer upscore2-new-R
I0419 10:24:53.311530 30201 net.cpp:406] upscore2-new-R <- score_fr-new-R
I0419 10:24:53.311538 30201 net.cpp:380] upscore2-new-R -> upscore2-new-R
I0419 10:24:53.311764 30201 net.cpp:122] Setting up upscore2-new-R
I0419 10:24:53.311774 30201 net.cpp:129] Top shape: 1 3 36 22 (2376)
I0419 10:24:53.311777 30201 net.cpp:137] Memory required for data: 1761158700
I0419 10:24:53.311782 30201 layer_factory.hpp:77] Creating layer upscore2-new-R_upscore2-new-R_0_split
I0419 10:24:53.311789 30201 net.cpp:84] Creating Layer upscore2-new-R_upscore2-new-R_0_split
I0419 10:24:53.311794 30201 net.cpp:406] upscore2-new-R_upscore2-new-R_0_split <- upscore2-new-R
I0419 10:24:53.311799 30201 net.cpp:380] upscore2-new-R_upscore2-new-R_0_split -> upscore2-new-R_upscore2-new-R_0_split_0
I0419 10:24:53.311806 30201 net.cpp:380] upscore2-new-R_upscore2-new-R_0_split -> upscore2-new-R_upscore2-new-R_0_split_1
I0419 10:24:53.311846 30201 net.cpp:122] Setting up upscore2-new-R_upscore2-new-R_0_split
I0419 10:24:53.311851 30201 net.cpp:129] Top shape: 1 3 36 22 (2376)
I0419 10:24:53.311856 30201 net.cpp:129] Top shape: 1 3 36 22 (2376)
I0419 10:24:53.311858 30201 net.cpp:137] Memory required for data: 1761177708
I0419 10:24:53.311861 30201 layer_factory.hpp:77] Creating layer score_pool4-new-R
I0419 10:24:53.311869 30201 net.cpp:84] Creating Layer score_pool4-new-R
I0419 10:24:53.311873 30201 net.cpp:406] score_pool4-new-R <- pool4-R_pool4-R_0_split_1
I0419 10:24:53.311880 30201 net.cpp:380] score_pool4-new-R -> score_pool4-new-R
I0419 10:24:53.313160 30201 net.cpp:122] Setting up score_pool4-new-R
I0419 10:24:53.313175 30201 net.cpp:129] Top shape: 1 3 45 32 (4320)
I0419 10:24:53.313179 30201 net.cpp:137] Memory required for data: 1761194988
I0419 10:24:53.313185 30201 layer_factory.hpp:77] Creating layer score_pool4c-R
I0419 10:24:53.313205 30201 net.cpp:84] Creating Layer score_pool4c-R
I0419 10:24:53.313208 30201 net.cpp:406] score_pool4c-R <- score_pool4-new-R
I0419 10:24:53.313215 30201 net.cpp:406] score_pool4c-R <- upscore2-new-R_upscore2-new-R_0_split_0
I0419 10:24:53.313220 30201 net.cpp:380] score_pool4c-R -> score_pool4c-R
I0419 10:24:53.313252 30201 net.cpp:122] Setting up score_pool4c-R
I0419 10:24:53.313258 30201 net.cpp:129] Top shape: 1 3 36 22 (2376)
I0419 10:24:53.313261 30201 net.cpp:137] Memory required for data: 1761204492
I0419 10:24:53.313264 30201 layer_factory.hpp:77] Creating layer fuse_pool4-R
I0419 10:24:53.313271 30201 net.cpp:84] Creating Layer fuse_pool4-R
I0419 10:24:53.313275 30201 net.cpp:406] fuse_pool4-R <- upscore2-new-R_upscore2-new-R_0_split_1
I0419 10:24:53.313279 30201 net.cpp:406] fuse_pool4-R <- score_pool4c-R
I0419 10:24:53.313285 30201 net.cpp:380] fuse_pool4-R -> fuse_pool4-R
I0419 10:24:53.313313 30201 net.cpp:122] Setting up fuse_pool4-R
I0419 10:24:53.313318 30201 net.cpp:129] Top shape: 1 3 36 22 (2376)
I0419 10:24:53.313320 30201 net.cpp:137] Memory required for data: 1761213996
I0419 10:24:53.313325 30201 layer_factory.hpp:77] Creating layer upscore_pool4-new-R
I0419 10:24:53.313333 30201 net.cpp:84] Creating Layer upscore_pool4-new-R
I0419 10:24:53.313336 30201 net.cpp:406] upscore_pool4-new-R <- fuse_pool4-R
I0419 10:24:53.313344 30201 net.cpp:380] upscore_pool4-new-R -> upscore_pool4-new-R
I0419 10:24:53.313560 30201 net.cpp:122] Setting up upscore_pool4-new-R
I0419 10:24:53.313570 30201 net.cpp:129] Top shape: 1 3 74 46 (10212)
I0419 10:24:53.313572 30201 net.cpp:137] Memory required for data: 1761254844
I0419 10:24:53.313577 30201 layer_factory.hpp:77] Creating layer upscore_pool4-new-R_upscore_pool4-new-R_0_split
I0419 10:24:53.313582 30201 net.cpp:84] Creating Layer upscore_pool4-new-R_upscore_pool4-new-R_0_split
I0419 10:24:53.313587 30201 net.cpp:406] upscore_pool4-new-R_upscore_pool4-new-R_0_split <- upscore_pool4-new-R
I0419 10:24:53.313592 30201 net.cpp:380] upscore_pool4-new-R_upscore_pool4-new-R_0_split -> upscore_pool4-new-R_upscore_pool4-new-R_0_split_0
I0419 10:24:53.313599 30201 net.cpp:380] upscore_pool4-new-R_upscore_pool4-new-R_0_split -> upscore_pool4-new-R_upscore_pool4-new-R_0_split_1
I0419 10:24:53.313635 30201 net.cpp:122] Setting up upscore_pool4-new-R_upscore_pool4-new-R_0_split
I0419 10:24:53.313640 30201 net.cpp:129] Top shape: 1 3 74 46 (10212)
I0419 10:24:53.313644 30201 net.cpp:129] Top shape: 1 3 74 46 (10212)
I0419 10:24:53.313647 30201 net.cpp:137] Memory required for data: 1761336540
I0419 10:24:53.313650 30201 layer_factory.hpp:77] Creating layer score_pool3-new-R
I0419 10:24:53.313660 30201 net.cpp:84] Creating Layer score_pool3-new-R
I0419 10:24:53.313664 30201 net.cpp:406] score_pool3-new-R <- pool3-R_pool3-R_0_split_1
I0419 10:24:53.313673 30201 net.cpp:380] score_pool3-new-R -> score_pool3-new-R
I0419 10:24:53.315032 30201 net.cpp:122] Setting up score_pool3-new-R
I0419 10:24:53.315060 30201 net.cpp:129] Top shape: 1 3 89 64 (17088)
I0419 10:24:53.315064 30201 net.cpp:137] Memory required for data: 1761404892
I0419 10:24:53.315071 30201 layer_factory.hpp:77] Creating layer score_pool3c-R
I0419 10:24:53.315078 30201 net.cpp:84] Creating Layer score_pool3c-R
I0419 10:24:53.315081 30201 net.cpp:406] score_pool3c-R <- score_pool3-new-R
I0419 10:24:53.315086 30201 net.cpp:406] score_pool3c-R <- upscore_pool4-new-R_upscore_pool4-new-R_0_split_0
I0419 10:24:53.315091 30201 net.cpp:380] score_pool3c-R -> score_pool3c-R
I0419 10:24:53.315124 30201 net.cpp:122] Setting up score_pool3c-R
I0419 10:24:53.315130 30201 net.cpp:129] Top shape: 1 3 74 46 (10212)
I0419 10:24:53.315134 30201 net.cpp:137] Memory required for data: 1761445740
I0419 10:24:53.315136 30201 layer_factory.hpp:77] Creating layer fuse_pool3-R
I0419 10:24:53.315143 30201 net.cpp:84] Creating Layer fuse_pool3-R
I0419 10:24:53.315146 30201 net.cpp:406] fuse_pool3-R <- upscore_pool4-new-R_upscore_pool4-new-R_0_split_1
I0419 10:24:53.315151 30201 net.cpp:406] fuse_pool3-R <- score_pool3c-R
I0419 10:24:53.315155 30201 net.cpp:380] fuse_pool3-R -> fuse_pool3-R
I0419 10:24:53.315181 30201 net.cpp:122] Setting up fuse_pool3-R
I0419 10:24:53.315186 30201 net.cpp:129] Top shape: 1 3 74 46 (10212)
I0419 10:24:53.315188 30201 net.cpp:137] Memory required for data: 1761486588
I0419 10:24:53.315191 30201 layer_factory.hpp:77] Creating layer upscore8-new-R
I0419 10:24:53.315201 30201 net.cpp:84] Creating Layer upscore8-new-R
I0419 10:24:53.315203 30201 net.cpp:406] upscore8-new-R <- fuse_pool3-R
I0419 10:24:53.315212 30201 net.cpp:380] upscore8-new-R -> upscore8-new-R
I0419 10:24:53.315440 30201 net.cpp:122] Setting up upscore8-new-R
I0419 10:24:53.315449 30201 net.cpp:129] Top shape: 1 3 600 376 (676800)
I0419 10:24:53.315452 30201 net.cpp:137] Memory required for data: 1764193788
I0419 10:24:53.315459 30201 layer_factory.hpp:77] Creating layer upscore8_cropped-R
I0419 10:24:53.315464 30201 net.cpp:84] Creating Layer upscore8_cropped-R
I0419 10:24:53.315467 30201 net.cpp:406] upscore8_cropped-R <- upscore8-new-R
I0419 10:24:53.315472 30201 net.cpp:406] upscore8_cropped-R <- data-R_crop_0_split_1
I0419 10:24:53.315476 30201 net.cpp:380] upscore8_cropped-R -> upscore8_cropped-R
I0419 10:24:53.315505 30201 net.cpp:122] Setting up upscore8_cropped-R
I0419 10:24:53.315510 30201 net.cpp:129] Top shape: 1 3 512 310 (476160)
I0419 10:24:53.315512 30201 net.cpp:137] Memory required for data: 1766098428
I0419 10:24:53.315515 30201 layer_factory.hpp:77] Creating layer score-R
I0419 10:24:53.315521 30201 net.cpp:84] Creating Layer score-R
I0419 10:24:53.315524 30201 net.cpp:406] score-R <- upscore8_cropped-R
I0419 10:24:53.315531 30201 net.cpp:380] score-R -> score-R
I0419 10:24:53.321635 30201 net.cpp:122] Setting up score-R
I0419 10:24:53.321704 30201 net.cpp:129] Top shape: 1 3 512 310 (476160)
I0419 10:24:53.321714 30201 net.cpp:137] Memory required for data: 1768003068
I0419 10:24:53.321736 30201 layer_factory.hpp:77] Creating layer score_uncropped-R
I0419 10:24:53.322417 30201 net.cpp:84] Creating Layer score_uncropped-R
I0419 10:24:53.322440 30201 net.cpp:406] score_uncropped-R <- crop_info
I0419 10:24:53.322468 30201 net.cpp:406] score_uncropped-R <- score-R
I0419 10:24:53.322479 30201 net.cpp:406] score_uncropped-R <- data_data_0_split_3
I0419 10:24:53.322492 30201 net.cpp:380] score_uncropped-R -> score_uncropped-R
I0419 10:24:53.325448 30201 net.cpp:122] Setting up score_uncropped-R
I0419 10:24:53.325489 30201 net.cpp:129] Top shape: 1 3 512 310 (476160)
I0419 10:24:53.325495 30201 net.cpp:137] Memory required for data: 1769907708
I0419 10:24:53.325503 30201 layer_factory.hpp:77] Creating layer loss1
I0419 10:24:53.325529 30201 net.cpp:84] Creating Layer loss1
I0419 10:24:53.325547 30201 net.cpp:406] loss1 <- score_score_0_split_1
I0419 10:24:53.325559 30201 net.cpp:406] loss1 <- label_data_1_split_1
I0419 10:24:53.325570 30201 net.cpp:380] loss1 -> loss1
…
